…
I1028 13:41:32.320374 28229 net.cpp:322] The NetState phase (0) differed from the phase (1) specified by a rule in layer loss3/top-1
I1028 13:41:32.321319 28229 net.cpp:49] Initializing net from parameters: 
name: "GoogleNet"
state {
  phase: TRAIN
}
layer {
  name: "data"
  type: "Data"
  top: "data"
  top: "label"
  include {
    phase: TRAIN
  }
  transform_param {
    mirror: true
    crop_size: 224
    mean_value: 104
    mean_value: 117
    mean_value: 123
  }
  data_param {
    source: "../../LMDB/train_8-lmdb"
    batch_size: 32
    backend: LMDB
  }
}
layer {
  name: "conv1/7x7_s2"
  type: "Convolution"
  bottom: "data"
  top: "conv1/7x7_s2"
  param {
    lr_mult: 1
    decay_mult: 1
  }
  param {
    lr_mult: 2
    decay_mult: 0
  }
  convolution_param {
    num_output: 64
    pad: 3
    kernel_size: 7
    stride: 2
    weight_filler {
      type: "xavier"
    }
    bias_filler {
      type: "constant"
      value: 0.2
    }
  }
}
layer {
  name: "conv1/prelu_7x7"
  type: "PReLU"
  bottom: "conv1/7x7_s2"
  top: "conv1/7x7_s2"
  param {
    lr_mult: 1
    decay_mult: 0
  }
  prelu_param {
    filler {
      type: "constant"
      value: 0.01
    }
  }
}
layer {
  name: "pool1/3x3_s2"
  type: "Pooling"
  bottom: "conv1/7x7_s2"
  top: "pool1/3x3_s2"
  pooling_param {
    pool: MAX
    kernel_size: 3
    stride: 2
  }
}
layer {
  name: "pool1/norm1"
  type: "LRN"
  bottom: "pool1/3x3_s2"
  top: "pool1/norm1"
  lrn_param {
    local_size: 5
    alpha: 0.0001
    beta: 0.75
  }
}
layer {
  name: "conv2/3x3_reduce"
  type: "Convolution"
  bottom: "pool1/norm1"
  top: "conv2/3x3_reduce"
  param {
    lr_mult: 1
    decay_mult: 1
  }
  param {
    lr_mult: 2
    decay_mult: 0
  }
  convolution_param {
    num_output: 64
    kernel_size: 1
    weight_filler {
      type: "xavier"
    }
    bias_filler {
      type: "constant"
      value: 0.2
    }
  }
}
layer {
  name: "conv2/prelu_3x3_reduce"
  type: "PReLU"
  bottom: "conv2/3x3_reduce"
  top: "conv2/3x3_reduce"
  param {
    lr_mult: 1
    decay_mult: 0
  }
  prelu_param {
    filler {
      type: "constant"
      value: 0.01
    }
  }
}
layer {
  name: "conv2/3x3"
  type: "Convolution"
  bottom: "conv2/3x3_reduce"
  top: "conv2/3x3"
  param {
    lr_mult: 1
    decay_mult: 1
  }
  param {
    lr_mult: 2
    decay_mult: 0
  }
  convolution_param {
    num_output: 192
    pad: 1
    kernel_size: 3
    weight_filler {
      type: "xavier"
    }
    bias_filler {
      type: "constant"
      value: 0.2
    }
  }
}
layer {
  name: "conv2/prelu_3x3"
  type: "PReLU"
  bottom: "conv2/3x3"
  top: "conv2/3x3"
  param {
    lr_mult: 1
    decay_mult: 0
  }
  prelu_param {
    filler {
      type: "constant"
      value: 0.01
    }
  }
}
layer {
  name: "conv2/norm2"
  type: "LRN"
  bottom: "conv2/3x3"
  top: "conv2/norm2"
  lrn_param {
    local_size: 5
    alpha: 0.0001
    beta: 0.75
  }
}
layer {
  name: "pool2/3x3_s2"
  type: "Pooling"
  bottom: "conv2/norm2"
  top: "pool2/3x3_s2"
  pooling_param {
    pool: MAX
    kernel_size: 3
    stride: 2
  }
}
layer {
  name: "inception_3a/1x1"
  type: "Convolution"
  bottom: "pool2/3x3_s2"
  top: "inception_3a/1x1"
  param {
    lr_mult: 1
    decay_mult: 1
  }
  param {
    lr_mult: 2
    decay_mult: 0
  }
  convolution_param {
    num_output: 64
    kernel_size: 1
    weight_filler {
      type: "xavier"
    }
    bias_filler {
      type: "constant"
      value: 0.2
    }
  }
}
layer {
  name: "inception_3a/prelu_1x1"
  type: "PReLU"
  bottom: "inception_3a/1x1"
  top: "inception_3a/1x1"
  param {
    lr_mult: 1
    decay_mult: 0
  }
  prelu_param {
    filler {
      type: "constant"
      value: 0.01
    }
  }
}
layer {
  name: "inception_3a/3x3_reduce"
  type: "Convolution"
  bottom: "pool2/3x3_s2"
  top: "inception_3a/3x3_reduce"
  param {
    lr_mult: 1
    decay_mult: 1
  }
  param {
    lr_mult: 2
    decay_mult: 0
  }
  convolution_param {
    num_output: 96
    kernel_size: 1
    weight_filler {
      type: "xavier"
    }
    bias_filler {
      type: "constant"
      value: 0.2
    }
  }
}
layer {
  name: "inception_3a/prelu_3x3_reduce"
  type: "PReLU"
  bottom: "inception_3a/3x3_reduce"
  top: "inception_3a/3x3_reduce"
  param {
    lr_mult: 1
    decay_mult: 0
  }
  prelu_param {
    filler {
      type: "constant"
      value: 0.01
    }
  }
}
layer {
  name: "inception_3a/3x3"
  type: "Convolution"
  bottom: "inception_3a/3x3_reduce"
  top: "inception_3a/3x3"
  param {
    lr_mult: 1
    decay_mult: 1
  }
  param {
    lr_mult: 2
    decay_mult: 0
  }
  convolution_param {
    num_output: 128
    pad: 1
    kernel_size: 3
    weight_filler {
      type: "xavier"
    }
    bias_filler {
      type: "constant"
      value: 0.2
    }
  }
}
layer {
  name: "inception_3a/prelu_3x3"
  type: "PReLU"
  bottom: "inception_3a/3x3"
  top: "inception_3a/3x3"
  param {
    lr_mult: 1
    decay_mult: 0
  }
  prelu_param {
    filler {
      type: "constant"
      value: 0.01
    }
  }
}
layer {
  name: "inception_3a/5x5_reduce"
  type: "Convolution"
  bottom: "pool2/3x3_s2"
  top: "inception_3a/5x5_reduce"
  param {
    lr_mult: 1
    decay_mult: 1
  }
  param {
    lr_mult: 2
    decay_mult: 0
  }
  convolution_param {
    num_output: 16
    kernel_size: 1
    weight_filler {
      type: "xavier"
    }
    bias_filler {
      type: "constant"
      value: 0.2
    }
  }
}
layer {
  name: "inception_3a/prelu_5x5_reduce"
  type: "PReLU"
  bottom: "inception_3a/5x5_reduce"
  top: "inception_3a/5x5_reduce"
  param {
    lr_mult: 1
    decay_mult: 0
  }
  prelu_param {
    filler {
      type: "constant"
      value: 0.01
    }
  }
}
layer {
  name: "inception_3a/5x5"
  type: "Convolution"
  bottom: "inception_3a/5x5_reduce"
  top: "inception_3a/5x5"
  param {
    lr_mult: 1
    decay_mult: 1
  }
  param {
    lr_mult: 2
    decay_mult: 0
  }
  convolution_param {
    num_output: 32
    pad: 2
    kernel_size: 5
    weight_filler {
      type: "xavier"
    }
    bias_filler {
      type: "constant"
      value: 0.2
    }
  }
}
layer {
  name: "inception_3a/prelu_5x5"
  type: "PReLU"
  bottom: "inception_3a/5x5"
  top: "inception_3a/5x5"
  param {
    lr_mult: 1
    decay_mult: 0
  }
  prelu_param {
    filler {
      type: "constant"
      value: 0.01
    }
  }
}
layer {
  name: "inception_3a/pool"
  type: "Pooling"
  bottom: "pool2/3x3_s2"
  top: "inception_3a/pool"
  pooling_param {
    pool: MAX
    kernel_size: 3
    stride: 1
    pad: 1
  }
}
layer {
  name: "inception_3a/pool_proj"
  type: "Convolution"
  bottom: "inception_3a/pool"
  top: "inception_3a/pool_proj"
  param {
    lr_mult: 1
    decay_mult: 1
  }
  param {
    lr_mult: 2
    decay_mult: 0
  }
  convolution_param {
    num_output: 32
    kernel_size: 1
    weight_filler {
      type: "xavier"
    }
    bias_filler {
      type: "constant"
      value: 0.2
    }
  }
}
layer {
  name: "inception_3a/prelu_pool_proj"
  type: "PReLU"
  bottom: "inception_3a/pool_proj"
  top: "inception_3a/pool_proj"
  param {
    lr_mult: 1
    decay_mult: 0
  }
  prelu_param {
    filler {
      type: "constant"
      value: 0.01
    }
  }
}
layer {
  name: "inception_3a/output"
  type: "Concat"
  bottom: "inception_3a/1x1"
  bottom: "inception_3a/3x3"
  bottom: "inception_3a/5x5"
  bottom: "inception_3a/pool_proj"
  top: "inception_3a/output"
}
layer {
  name: "inception_3b/1x1"
  type: "Convolution"
  bottom: "inception_3a/output"
  top: "inception_3b/1x1"
  param {
    lr_mult: 1
    decay_mult: 1
  }
  param {
    lr_mult: 2
    decay_mult: 0
  }
  convolution_param {
    num_output: 128
    kernel_size: 1
    weight_filler {
      type: "xavier"
    }
    bias_filler {
      type: "constant"
      value: 0.2
    }
  }
}
layer {
  name: "inception_3b/prelu_1x1"
  type: "PReLU"
  bottom: "inception_3b/1x1"
  top: "inception_3b/1x1"
  param {
    lr_mult: 1
    decay_mult: 0
  }
  prelu_param {
    filler {
      type: "constant"
      value: 0.01
    }
  }
}
layer {
  name: "inception_3b/3x3_reduce"
  type: "Convolution"
  bottom: "inception_3a/output"
  top: "inception_3b/3x3_reduce"
  param {
    lr_mult: 1
    decay_mult: 1
  }
  param {
    lr_mult: 2
    decay_mult: 0
  }
  convolution_param {
    num_output: 128
    kernel_size: 1
    weight_filler {
      type: "xavier"
    }
    bias_filler {
      type: "constant"
      value: 0.2
    }
  }
}
layer {
  name: "inception_3b/prelu_3x3_reduce"
  type: "PReLU"
  bottom: "inception_3b/3x3_reduce"
  top: "inception_3b/3x3_reduce"
  param {
    lr_mult: 1
    decay_mult: 0
  }
  prelu_param {
    filler {
      type: "constant"
      value: 0.01
    }
  }
}
layer {
  name: "inception_3b/3x3"
  type: "Convolution"
  bottom: "inception_3b/3x3_reduce"
  top: "inception_3b/3x3"
  param {
    lr_mult: 1
    decay_mult: 1
  }
  param {
    lr_mult: 2
    decay_mult: 0
  }
  convolution_param {
    num_output: 192
    pad: 1
    kernel_size: 3
    weight_filler {
      type: "xavier"
    }
    bias_filler {
      type: "constant"
      value: 0.2
    }
  }
}
layer {
  name: "inception_3b/prelu_3x3"
  type: "PReLU"
  bottom: "inception_3b/3x3"
  top: "inception_3b/3x3"
  param {
    lr_mult: 1
    decay_mult: 0
  }
  prelu_param {
    filler {
      type: "constant"
      value: 0.01
    }
  }
}
layer {
  name: "inception_3b/5x5_reduce"
  type: "Convolution"
  bottom: "inception_3a/output"
  top: "inception_3b/5x5_reduce"
  param {
    lr_mult: 1
    decay_mult: 1
  }
  param {
    lr_mult: 2
    decay_mult: 0
  }
  convolution_param {
    num_output: 32
    kernel_size: 1
    weight_filler {
      type: "xavier"
    }
    bias_filler {
      type: "constant"
      value: 0.2
    }
  }
}
layer {
  name: "inception_3b/prelu_5x5_reduce"
  type: "PReLU"
  bottom: "inception_3b/5x5_reduce"
  top: "inception_3b/5x5_reduce"
  param {
    lr_mult: 1
    decay_mult: 0
  }
  prelu_param {
    filler {
      type: "constant"
      value: 0.01
    }
  }
}
layer {
  name: "inception_3b/5x5"
  type: "Convolution"
  bottom: "inception_3b/5x5_reduce"
  top: "inception_3b/5x5"
  param {
    lr_mult: 1
    decay_mult: 1
  }
  param {
    lr_mult: 2
    decay_mult: 0
  }
  convolution_param {
    num_output: 96
    pad: 2
    kernel_size: 5
    weight_filler {
      type: "xavier"
    }
    bias_filler {
      type: "constant"
      value: 0.2
    }
  }
}
layer {
  name: "inception_3b/prelu_5x5"
  type: "PReLU"
  bottom: "inception_3b/5x5"
  top: "inception_3b/5x5"
  param {
    lr_mult: 1
    decay_mult: 0
  }
  prelu_param {
    filler {
      type: "constant"
      value: 0.01
    }
  }
}
layer {
  name: "inception_3b/pool"
  type: "Pooling"
  bottom: "inception_3a/output"
  top: "inception_3b/pool"
  pooling_param {
    pool: MAX
    kernel_size: 3
    stride: 1
    pad: 1
  }
}
layer {
  name: "inception_3b/pool_proj"
  type: "Convolution"
  bottom: "inception_3b/pool"
  top: "inception_3b/pool_proj"
  param {
    lr_mult: 1
    decay_mult: 1
  }
  param {
    lr_mult: 2
    decay_mult: 0
  }
  convolution_param {
    num_output: 64
    kernel_size: 1
    weight_filler {
      type: "xavier"
    }
    bias_filler {
      type: "constant"
      value: 0.2
    }
  }
}
layer {
  name: "inception_3b/prelu_pool_proj"
  type: "PReLU"
  bottom: "inception_3b/pool_proj"
  top: "inception_3b/pool_proj"
  param {
    lr_mult: 1
    decay_mult: 0
  }
  prelu_param {
    filler {
      type: "constant"
      value: 0.01
    }
  }
}
layer {
  name: "inception_3b/output"
  type: "Concat"
  bottom: "inception_3b/1x1"
  bottom: "inception_3b/3x3"
  bottom: "inception_3b/5x5"
  bottom: "inception_3b/pool_proj"
  top: "inception_3b/output"
}
layer {
  name: "pool3/3x3_s2"
  type: "Pooling"
  bottom: "inception_3b/output"
  top: "pool3/3x3_s2"
  pooling_param {
    pool: MAX
    kernel_size: 3
    stride: 2
  }
}
layer {
  name: "inception_4a/1x1"
  type: "Convolution"
  bottom: "pool3/3x3_s2"
  top: "inception_4a/1x1"
  param {
    lr_mult: 1
    decay_mult: 1
  }
  param {
    lr_mult: 2
    decay_mult: 0
  }
  convolution_param {
    num_output: 192
    kernel_size: 1
    weight_filler {
      type: "xavier"
    }
    bias_filler {
      type: "constant"
      value: 0.2
    }
  }
}
layer {
  name: "inception_4a/prelu_1x1"
  type: "PReLU"
  bottom: "inception_4a/1x1"
  top: "inception_4a/1x1"
  param {
    lr_mult: 1
    decay_mult: 0
  }
  prelu_param {
    filler {
      type: "constant"
      value: 0.01
    }
  }
}
layer {
  name: "inception_4a/3x3_reduce"
  type: "Convolution"
  bottom: "pool3/3x3_s2"
  top: "inception_4a/3x3_reduce"
  param {
    lr_mult: 1
    decay_mult: 1
  }
  param {
    lr_mult: 2
    decay_mult: 0
  }
  convolution_param {
    num_output: 96
    kernel_size: 1
    weight_filler {
      type: "xavier"
    }
    bias_filler {
      type: "constant"
      value: 0.2
    }
  }
}
layer {
  name: "inception_4a/prelu_3x3_reduce"
  type: "PReLU"
  bottom: "inception_4a/3x3_reduce"
  top: "inception_4a/3x3_reduce"
  param {
    lr_mult: 1
    decay_mult: 0
  }
  prelu_param {
    filler {
      type: "constant"
      value: 0.01
    }
  }
}
layer {
  name: "inception_4a/3x3"
  type: "Convolution"
  bottom: "inception_4a/3x3_reduce"
  top: "inception_4a/3x3"
  param {
    lr_mult: 1
    decay_mult: 1
  }
  param {
    lr_mult: 2
    decay_mult: 0
  }
  convolution_param {
    num_output: 208
    pad: 1
    kernel_size: 3
    weight_filler {
      type: "xavier"
    }
    bias_filler {
      type: "constant"
      value: 0.2
    }
  }
}
layer {
  name: "inception_4a/prelu_3x3"
  type: "PReLU"
  bottom: "inception_4a/3x3"
  top: "inception_4a/3x3"
  param {
    lr_mult: 1
    decay_mult: 0
  }
  prelu_param {
    filler {
      type: "constant"
      value: 0.01
    }
  }
}
layer {
  name: "inception_4a/5x5_reduce"
  type: "Convolution"
  bottom: "pool3/3x3_s2"
  top: "inception_4a/5x5_reduce"
  param {
    lr_mult: 1
    decay_mult: 1
  }
  param {
    lr_mult: 2
    decay_mult: 0
  }
  convolution_param {
    num_output: 16
    kernel_size: 1
    weight_filler {
      type: "xavier"
    }
    bias_filler {
      type: "constant"
      value: 0.2
    }
  }
}
layer {
  name: "inception_4a/prelu_5x5_reduce"
  type: "PReLU"
  bottom: "inception_4a/5x5_reduce"
  top: "inception_4a/5x5_reduce"
  param {
    lr_mult: 1
    decay_mult: 0
  }
  prelu_param {
    filler {
      type: "constant"
      value: 0.01
    }
  }
}
layer {
  name: "inception_4a/5x5"
  type: "Convolution"
  bottom: "inception_4a/5x5_reduce"
  top: "inception_4a/5x5"
  param {
    lr_mult: 1
    decay_mult: 1
  }
  param {
    lr_mult: 2
    decay_mult: 0
  }
  convolution_param {
    num_output: 48
    pad: 2
    kernel_size: 5
    weight_filler {
      type: "xavier"
    }
    bias_filler {
      type: "constant"
      value: 0.2
    }
  }
}
layer {
  name: "inception_4a/prelu_5x5"
  type: "PReLU"
  bottom: "inception_4a/5x5"
  top: "inception_4a/5x5"
  param {
    lr_mult: 1
    decay_mult: 0
  }
  prelu_param {
    filler {
      type: "constant"
      value: 0.01
    }
  }
}
layer {
  name: "inception_4a/pool"
  type: "Pooling"
  bottom: "pool3/3x3_s2"
  top: "inception_4a/pool"
  pooling_param {
    pool: MAX
    kernel_size: 3
    stride: 1
    pad: 1
  }
}
layer {
  name: "inception_4a/pool_proj"
  type: "Convolution"
  bottom: "inception_4a/pool"
  top: "inception_4a/pool_proj"
  param {
    lr_mult: 1
    decay_mult: 1
  }
  param {
    lr_mult: 2
    decay_mult: 0
  }
  convolution_param {
    num_output: 64
    kernel_size: 1
    weight_filler {
      type: "xavier"
    }
    bias_filler {
      type: "constant"
      value: 0.2
    }
  }
}
layer {
  name: "inception_4a/prelu_pool_proj"
  type: "PReLU"
  bottom: "inception_4a/pool_proj"
  top: "inception_4a/pool_proj"
  param {
    lr_mult: 1
    decay_mult: 0
  }
  prelu_param {
    filler {
      type: "constant"
      value: 0.01
    }
  }
}
layer {
  name: "inception_4a/output"
  type: "Concat"
  bottom: "inception_4a/1x1"
  bottom: "inception_4a/3x3"
  bottom: "inception_4a/5x5"
  bottom: "inception_4a/pool_proj"
  top: "inception_4a/output"
}
layer {
  name: "loss1/ave_pool"
  type: "Pooling"
  bottom: "inception_4a/output"
  top: "loss1/ave_pool"
  pooling_param {
    pool: AVE
    kernel_size: 5
    stride: 3
  }
}
layer {
  name: "loss1/conv"
  type: "Convolution"
  bottom: "loss1/ave_pool"
  top: "loss1/conv"
  param {
    lr_mult: 1
    decay_mult: 1
  }
  param {
    lr_mult: 2
    decay_mult: 0
  }
  convolution_param {
    num_output: 128
    kernel_size: 1
    weight_filler {
      type: "xavier"
    }
    bias_filler {
      type: "constant"
      value: 0.2
    }
  }
}
layer {
  name: "loss1/prelu_conv"
  type: "PReLU"
  bottom: "loss1/conv"
  top: "loss1/conv"
  param {
    lr_mult: 1
    decay_mult: 0
  }
  prelu_param {
    filler {
      type: "constant"
      value: 0.01
    }
  }
}
layer {
  name: "loss1/fc"
  type: "InnerProduct"
  bottom: "loss1/conv"
  top: "loss1/fc"
  param {
    lr_mult: 1
    decay_mult: 1
  }
  param {
    lr_mult: 2
    decay_mult: 0
  }
  inner_product_param {
    num_output: 1024
    weight_filler {
      type: "xavier"
    }
    bias_filler {
      type: "constant"
      value: 0.2
    }
  }
}
layer {
  name: "loss1/prelu_fc"
  type: "PReLU"
  bottom: "loss1/fc"
  top: "loss1/fc"
  param {
    lr_mult: 1
    decay_mult: 0
  }
  prelu_param {
    filler {
      type: "constant"
      value: 0.01
    }
  }
}
layer {
  name: "loss1/drop_fc"
  type: "Dropout"
  bottom: "loss1/fc"
  top: "loss1/fc"
  dropout_param {
    dropout_ratio: 0.7
  }
}
layer {
  name: "loss1/classifier2"
  type: "InnerProduct"
  bottom: "loss1/fc"
  top: "loss1/classifier"
  param {
    lr_mult: 1
    decay_mult: 1
  }
  param {
    lr_mult: 2
    decay_mult: 0
  }
  inner_product_param {
    num_output: 2
    weight_filler {
      type: "xavier"
    }
    bias_filler {
      type: "constant"
      value: 0
    }
  }
}
layer {
  name: "loss1/loss"
  type: "SoftmaxWithLoss"
  bottom: "loss1/classifier"
  bottom: "label"
  top: "loss1/loss1"
  loss_weight: 0.3
}
layer {
  name: "inception_4b/1x1"
  type: "Convolution"
  bottom: "inception_4a/output"
  top: "inception_4b/1x1"
  param {
    lr_mult: 1
    decay_mult: 1
  }
  param {
    lr_mult: 2
    decay_mult: 0
  }
  convolution_param {
    num_output: 160
    kernel_size: 1
    weight_filler {
      type: "xavier"
    }
    bias_filler {
      type: "constant"
      value: 0.2
    }
  }
}
layer {
  name: "inception_4b/prelu_1x1"
  type: "PReLU"
  bottom: "inception_4b/1x1"
  top: "inception_4b/1x1"
  param {
    lr_mult: 1
    decay_mult: 0
  }
  prelu_param {
    filler {
      type: "constant"
      value: 0.01
    }
  }
}
layer {
  name: "inception_4b/3x3_reduce"
  type: "Convolution"
  bottom: "inception_4a/output"
  top: "inception_4b/3x3_reduce"
  param {
    lr_mult: 1
    decay_mult: 1
  }
  param {
    lr_mult: 2
    decay_mult: 0
  }
  convolution_param {
    num_output: 112
    kernel_size: 1
    weight_filler {
      type: "xavier"
    }
    bias_filler {
      type: "constant"
      value: 0.2
    }
  }
}
layer {
  name: "inception_4b/prelu_3x3_reduce"
  type: "PReLU"
  bottom: "inception_4b/3x3_reduce"
  top: "inception_4b/3x3_reduce"
  param {
    lr_mult: 1
    decay_mult: 0
  }
  prelu_param {
    filler {
      type: "constant"
      value: 0.01
    }
  }
}
layer {
  name: "inception_4b/3x3"
  type: "Convolution"
  bottom: "inception_4b/3x3_reduce"
  top: "inception_4b/3x3"
  param {
    lr_mult: 1
    decay_mult: 1
  }
  param {
    lr_mult: 2
    decay_mult: 0
  }
  convolution_param {
    num_output: 224
    pad: 1
    kernel_size: 3
    weight_filler {
      type: "xavier"
    }
    bias_filler {
      type: "constant"
      value: 0.2
    }
  }
}
layer {
  name: "inception_4b/prelu_3x3"
  type: "PReLU"
  bottom: "inception_4b/3x3"
  top: "inception_4b/3x3"
  param {
    lr_mult: 1
    decay_mult: 0
  }
  prelu_param {
    filler {
      type: "constant"
      value: 0.01
    }
  }
}
layer {
  name: "inception_4b/5x5_reduce"
  type: "Convolution"
  bottom: "inception_4a/output"
  top: "inception_4b/5x5_reduce"
  param {
    lr_mult: 1
    decay_mult: 1
  }
  param {
    lr_mult: 2
    decay_mult: 0
  }
  convolution_param {
    num_output: 24
    kernel_size: 1
    weight_filler {
      type: "xavier"
    }
    bias_filler {
      type: "constant"
      value: 0.2
    }
  }
}
layer {
  name: "inception_4b/prelu_5x5_reduce"
  type: "PReLU"
  bottom: "inception_4b/5x5_reduce"
  top: "inception_4b/5x5_reduce"
  param {
    lr_mult: 1
    decay_mult: 0
  }
  prelu_param {
    filler {
      type: "constant"
      value: 0.01
    }
  }
}
layer {
  name: "inception_4b/5x5"
  type: "Convolution"
  bottom: "inception_4b/5x5_reduce"
  top: "inception_4b/5x5"
  param {
    lr_mult: 1
    decay_mult: 1
  }
  param {
    lr_mult: 2
    decay_mult: 0
  }
  convolution_param {
    num_output: 64
    pad: 2
    kernel_size: 5
    weight_filler {
      type: "xavier"
    }
    bias_filler {
      type: "constant"
      value: 0.2
    }
  }
}
layer {
  name: "inception_4b/prelu_5x5"
  type: "PReLU"
  bottom: "inception_4b/5x5"
  top: "inception_4b/5x5"
  param {
    lr_mult: 1
    decay_mult: 0
  }
  prelu_param {
    filler {
      type: "constant"
      value: 0.01
    }
  }
}
layer {
  name: "inception_4b/pool"
  type: "Pooling"
  bottom: "inception_4a/output"
  top: "inception_4b/pool"
  pooling_param {
    pool: MAX
    kernel_size: 3
    stride: 1
    pad: 1
  }
}
layer {
  name: "inception_4b/pool_proj"
  type: "Convolution"
  bottom: "inception_4b/pool"
  top: "inception_4b/pool_proj"
  param {
    lr_mult: 1
    decay_mult: 1
  }
  param {
    lr_mult: 2
    decay_mult: 0
  }
  convolution_param {
    num_output: 64
    kernel_size: 1
    weight_filler {
      type: "xavier"
    }
    bias_filler {
      type: "constant"
      value: 0.2
    }
  }
}
layer {
  name: "inception_4b/prelu_pool_proj"
  type: "PReLU"
  bottom: "inception_4b/pool_proj"
  top: "inception_4b/pool_proj"
  param {
    lr_mult: 1
    decay_mult: 0
  }
  prelu_param {
    filler {
      type: "constant"
      value: 0.01
    }
  }
}
layer {
  name: "inception_4b/output"
  type: "Concat"
  bottom: "inception_4b/1x1"
  bottom: "inception_4b/3x3"
  bottom: "inception_4b/5x5"
  bottom: "inception_4b/pool_proj"
  top: "inception_4b/output"
}
layer {
  name: "inception_4c/1x1"
  type: "Convolution"
  bottom: "inception_4b/output"
  top: "inception_4c/1x1"
  param {
    lr_mult: 1
    decay_mult: 1
  }
  param {
    lr_mult: 2
    decay_mult: 0
  }
  convolution_param {
    num_output: 128
    kernel_size: 1
    weight_filler {
      type: "xavier"
    }
    bias_filler {
      type: "constant"
      value: 0.2
    }
  }
}
layer {
  name: "inception_4c/prelu_1x1"
  type: "PReLU"
  bottom: "inception_4c/1x1"
  top: "inception_4c/1x1"
  param {
    lr_mult: 1
    decay_mult: 0
  }
  prelu_param {
    filler {
      type: "constant"
      value: 0.01
    }
  }
}
layer {
  name: "inception_4c/3x3_reduce"
  type: "Convolution"
  bottom: "inception_4b/output"
  top: "inception_4c/3x3_reduce"
  param {
    lr_mult: 1
    decay_mult: 1
  }
  param {
    lr_mult: 2
    decay_mult: 0
  }
  convolution_param {
    num_output: 128
    kernel_size: 1
    weight_filler {
      type: "xavier"
    }
    bias_filler {
      type: "constant"
      value: 0.2
    }
  }
}
layer {
  name: "inception_4c/prelu_3x3_reduce"
  type: "PReLU"
  bottom: "inception_4c/3x3_reduce"
  top: "inception_4c/3x3_reduce"
  param {
    lr_mult: 1
    decay_mult: 0
  }
  prelu_param {
    filler {
      type: "constant"
      value: 0.01
    }
  }
}
layer {
  name: "inception_4c/3x3"
  type: "Convolution"
  bottom: "inception_4c/3x3_reduce"
  top: "inception_4c/3x3"
  param {
    lr_mult: 1
    decay_mult: 1
  }
  param {
    lr_mult: 2
    decay_mult: 0
  }
  convolution_param {
    num_output: 256
    pad: 1
    kernel_size: 3
    weight_filler {
      type: "xavier"
    }
    bias_filler {
      type: "constant"
      value: 0.2
    }
  }
}
layer {
  name: "inception_4c/prelu_3x3"
  type: "PReLU"
  bottom: "inception_4c/3x3"
  top: "inception_4c/3x3"
  param {
    lr_mult: 1
    decay_mult: 0
  }
  prelu_param {
    filler {
      type: "constant"
      value: 0.01
    }
  }
}
layer {
  name: "inception_4c/5x5_reduce"
  type: "Convolution"
  bottom: "inception_4b/output"
  top: "inception_4c/5x5_reduce"
  param {
    lr_mult: 1
    decay_mult: 1
  }
  param {
    lr_mult: 2
    decay_mult: 0
  }
  convolution_param {
    num_output: 24
    kernel_size: 1
    weight_filler {
      type: "xavier"
    }
    bias_filler {
      type: "constant"
      value: 0.2
    }
  }
}
layer {
  name: "inception_4c/prelu_5x5_reduce"
  type: "PReLU"
  bottom: "inception_4c/5x5_reduce"
  top: "inception_4c/5x5_reduce"
  param {
    lr_mult: 1
    decay_mult: 0
  }
  prelu_param {
    filler {
      type: "constant"
      value: 0.01
    }
  }
}
layer {
  name: "inception_4c/5x5"
  type: "Convolution"
  bottom: "inception_4c/5x5_reduce"
  top: "inception_4c/5x5"
  param {
    lr_mult: 1
    decay_mult: 1
  }
  param {
    lr_mult: 2
    decay_mult: 0
  }
  convolution_param {
    num_output: 64
    pad: 2
    kernel_size: 5
    weight_filler {
      type: "xavier"
    }
    bias_filler {
      type: "constant"
      value: 0.2
    }
  }
}
layer {
  name: "inception_4c/prelu_5x5"
  type: "PReLU"
  bottom: "inception_4c/5x5"
  top: "inception_4c/5x5"
  param {
    lr_mult: 1
    decay_mult: 0
  }
  prelu_param {
    filler {
      type: "constant"
      value: 0.01
    }
  }
}
layer {
  name: "inception_4c/pool"
  type: "Pooling"
  bottom: "inception_4b/output"
  top: "inception_4c/pool"
  pooling_param {
    pool: MAX
    kernel_size: 3
    stride: 1
    pad: 1
  }
}
layer {
  name: "inception_4c/pool_proj"
  type: "Convolution"
  bottom: "inception_4c/pool"
  top: "inception_4c/pool_proj"
  param {
    lr_mult: 1
    decay_mult: 1
  }
  param {
    lr_mult: 2
    decay_mult: 0
  }
  convolution_param {
    num_output: 64
    kernel_size: 1
    weight_filler {
      type: "xavier"
    }
    bias_filler {
      type: "constant"
      value: 0.2
    }
  }
}
layer {
  name: "inception_4c/prelu_pool_proj"
  type: "PReLU"
  bottom: "inception_4c/pool_proj"
  top: "inception_4c/pool_proj"
  param {
    lr_mult: 1
    decay_mult: 0
  }
  prelu_param {
    filler {
      type: "constant"
      value: 0.01
    }
  }
}
layer {
  name: "inception_4c/output"
  type: "Concat"
  bottom: "inception_4c/1x1"
  bottom: "inception_4c/3x3"
  bottom: "inception_4c/5x5"
  bottom: "inception_4c/pool_proj"
  top: "inception_4c/output"
}
layer {
  name: "inception_4d/1x1"
  type: "Convolution"
  bottom: "inception_4c/output"
  top: "inception_4d/1x1"
  param {
    lr_mult: 1
    decay_mult: 1
  }
  param {
    lr_mult: 2
    decay_mult: 0
  }
  convolution_param {
    num_output: 112
    kernel_size: 1
    weight_filler {
      type: "xavier"
    }
    bias_filler {
      type: "constant"
      value: 0.2
    }
  }
}
layer {
  name: "inception_4d/prelu_1x1"
  type: "PReLU"
  bottom: "inception_4d/1x1"
  top: "inception_4d/1x1"
  param {
    lr_mult: 1
    decay_mult: 0
  }
  prelu_param {
    filler {
      type: "constant"
      value: 0.01
    }
  }
}
layer {
  name: "inception_4d/3x3_reduce"
  type: "Convolution"
  bottom: "inception_4c/output"
  top: "inception_4d/3x3_reduce"
  param {
    lr_mult: 1
    decay_mult: 1
  }
  param {
    lr_mult: 2
    decay_mult: 0
  }
  convolution_param {
    num_output: 144
    kernel_size: 1
    weight_filler {
      type: "xavier"
    }
    bias_filler {
      type: "constant"
      value: 0.2
    }
  }
}
layer {
  name: "inception_4d/prelu_3x3_reduce"
  type: "PReLU"
  bottom: "inception_4d/3x3_reduce"
  top: "inception_4d/3x3_reduce"
  param {
    lr_mult: 1
    decay_mult: 0
  }
  prelu_param {
    filler {
      type: "constant"
      value: 0.01
    }
  }
}
layer {
  name: "inception_4d/3x3"
  type: "Convolution"
  bottom: "inception_4d/3x3_reduce"
  top: "inception_4d/3x3"
  param {
    lr_mult: 1
    decay_mult: 1
  }
  param {
    lr_mult: 2
    decay_mult: 0
  }
  convolution_param {
    num_output: 288
    pad: 1
    kernel_size: 3
    weight_filler {
      type: "xavier"
    }
    bias_filler {
      type: "constant"
      value: 0.2
    }
  }
}
layer {
  name: "inception_4d/prelu_3x3"
  type: "PReLU"
  bottom: "inception_4d/3x3"
  top: "inception_4d/3x3"
  param {
    lr_mult: 1
    decay_mult: 0
  }
  prelu_param {
    filler {
      type: "constant"
      value: 0.01
    }
  }
}
layer {
  name: "inception_4d/5x5_reduce"
  type: "Convolution"
  bottom: "inception_4c/output"
  top: "inception_4d/5x5_reduce"
  param {
    lr_mult: 1
    decay_mult: 1
  }
  param {
    lr_mult: 2
    decay_mult: 0
  }
  convolution_param {
    num_output: 32
    kernel_size: 1
    weight_filler {
      type: "xavier"
    }
    bias_filler {
      type: "constant"
      value: 0.2
    }
  }
}
layer {
  name: "inception_4d/prelu_5x5_reduce"
  type: "PReLU"
  bottom: "inception_4d/5x5_reduce"
  top: "inception_4d/5x5_reduce"
  param {
    lr_mult: 1
    decay_mult: 0
  }
  prelu_param {
    filler {
      type: "constant"
      value: 0.01
    }
  }
}
layer {
  name: "inception_4d/5x5"
  type: "Convolution"
  bottom: "inception_4d/5x5_reduce"
  top: "inception_4d/5x5"
  param {
    lr_mult: 1
    decay_mult: 1
  }
  param {
    lr_mult: 2
    decay_mult: 0
  }
  convolution_param {
    num_output: 64
    pad: 2
    kernel_size: 5
    weight_filler {
      type: "xavier"
    }
    bias_filler {
      type: "constant"
      value: 0.2
    }
  }
}
layer {
  name: "inception_4d/prelu_5x5"
  type: "PReLU"
  bottom: "inception_4d/5x5"
  top: "inception_4d/5x5"
  param {
    lr_mult: 1
    decay_mult: 0
  }
  prelu_param {
    filler {
      type: "constant"
      value: 0.01
    }
  }
}
layer {
  name: "inception_4d/pool"
  type: "Pooling"
  bottom: "inception_4c/output"
  top: "inception_4d/pool"
  pooling_param {
    pool: MAX
    kernel_size: 3
    stride: 1
    pad: 1
  }
}
layer {
  name: "inception_4d/pool_proj"
  type: "Convolution"
  bottom: "ince
I1028 13:41:32.321949 28229 layer_factory.hpp:76] Creating layer data
I1028 13:41:32.322362 28229 net.cpp:106] Creating Layer data
I1028 13:41:32.322381 28229 net.cpp:411] data -> data
I1028 13:41:32.322417 28229 net.cpp:411] data -> label
I1028 13:41:32.323588 28233 db_lmdb.cpp:38] Opened lmdb ../../LMDB/train_8-lmdb
I1028 13:41:32.337049 28229 data_layer.cpp:41] output data size: 32,3,224,224
I1028 13:41:32.404906 28229 net.cpp:150] Setting up data
I1028 13:41:32.404978 28229 net.cpp:157] Top shape: 32 3 224 224 (4816896)
I1028 13:41:32.404985 28229 net.cpp:157] Top shape: 32 (32)
I1028 13:41:32.404989 28229 net.cpp:165] Memory required for data: 19267712
I1028 13:41:32.405002 28229 layer_factory.hpp:76] Creating layer label_data_1_split
I1028 13:41:32.405033 28229 net.cpp:106] Creating Layer label_data_1_split
I1028 13:41:32.405041 28229 net.cpp:454] label_data_1_split <- label
I1028 13:41:32.405062 28229 net.cpp:411] label_data_1_split -> label_data_1_split_0
I1028 13:41:32.405081 28229 net.cpp:411] label_data_1_split -> label_data_1_split_1
I1028 13:41:32.405107 28229 net.cpp:411] label_data_1_split -> label_data_1_split_2
I1028 13:41:32.405192 28229 net.cpp:150] Setting up label_data_1_split
I1028 13:41:32.405202 28229 net.cpp:157] Top shape: 32 (32)
I1028 13:41:32.405207 28229 net.cpp:157] Top shape: 32 (32)
I1028 13:41:32.405222 28229 net.cpp:157] Top shape: 32 (32)
I1028 13:41:32.405226 28229 net.cpp:165] Memory required for data: 19268096
I1028 13:41:32.405230 28229 layer_factory.hpp:76] Creating layer conv1/7x7_s2
I1028 13:41:32.405248 28229 net.cpp:106] Creating Layer conv1/7x7_s2
I1028 13:41:32.405256 28229 net.cpp:454] conv1/7x7_s2 <- data
I1028 13:41:32.405264 28229 net.cpp:411] conv1/7x7_s2 -> conv1/7x7_s2
I1028 13:41:32.621999 28229 cudnn_conv_layer.cpp:194] Reallocating workspace storage: 225816
I1028 13:41:32.622292 28229 net.cpp:150] Setting up conv1/7x7_s2
I1028 13:41:32.622305 28229 net.cpp:157] Top shape: 32 64 112 112 (25690112)
I1028 13:41:32.622318 28229 net.cpp:165] Memory required for data: 122028544
I1028 13:41:32.622337 28229 layer_factory.hpp:76] Creating layer conv1/prelu_7x7
I1028 13:41:32.622361 28229 net.cpp:106] Creating Layer conv1/prelu_7x7
I1028 13:41:32.622370 28229 net.cpp:454] conv1/prelu_7x7 <- conv1/7x7_s2
I1028 13:41:32.622378 28229 net.cpp:397] conv1/prelu_7x7 -> conv1/7x7_s2 (in-place)
I1028 13:41:32.624060 28229 net.cpp:150] Setting up conv1/prelu_7x7
I1028 13:41:32.624076 28229 net.cpp:157] Top shape: 32 64 112 112 (25690112)
I1028 13:41:32.624089 28229 net.cpp:165] Memory required for data: 224788992
I1028 13:41:32.624099 28229 layer_factory.hpp:76] Creating layer pool1/3x3_s2
I1028 13:41:32.624110 28229 net.cpp:106] Creating Layer pool1/3x3_s2
I1028 13:41:32.624124 28229 net.cpp:454] pool1/3x3_s2 <- conv1/7x7_s2
I1028 13:41:32.624130 28229 net.cpp:411] pool1/3x3_s2 -> pool1/3x3_s2
I1028 13:41:32.626577 28229 net.cpp:150] Setting up pool1/3x3_s2
I1028 13:41:32.626590 28229 net.cpp:157] Top shape: 32 64 56 56 (6422528)
I1028 13:41:32.626593 28229 net.cpp:165] Memory required for data: 250479104
I1028 13:41:32.626598 28229 layer_factory.hpp:76] Creating layer pool1/norm1
I1028 13:41:32.626610 28229 net.cpp:106] Creating Layer pool1/norm1
I1028 13:41:32.626613 28229 net.cpp:454] pool1/norm1 <- pool1/3x3_s2
I1028 13:41:32.626619 28229 net.cpp:411] pool1/norm1 -> pool1/norm1
I1028 13:41:32.626809 28229 net.cpp:150] Setting up pool1/norm1
I1028 13:41:32.626819 28229 net.cpp:157] Top shape: 32 64 56 56 (6422528)
I1028 13:41:32.626823 28229 net.cpp:165] Memory required for data: 276169216
I1028 13:41:32.626827 28229 layer_factory.hpp:76] Creating layer conv2/3x3_reduce
I1028 13:41:32.626837 28229 net.cpp:106] Creating Layer conv2/3x3_reduce
I1028 13:41:32.626842 28229 net.cpp:454] conv2/3x3_reduce <- pool1/norm1
I1028 13:41:32.626847 28229 net.cpp:411] conv2/3x3_reduce -> conv2/3x3_reduce
I1028 13:41:32.628239 28229 cudnn_conv_layer.cpp:194] Reallocating workspace storage: 63000
I1028 13:41:32.628260 28229 net.cpp:150] Setting up conv2/3x3_reduce
I1028 13:41:32.628268 28229 net.cpp:157] Top shape: 32 64 56 56 (6422528)
I1028 13:41:32.628273 28229 net.cpp:165] Memory required for data: 301859328
I1028 13:41:32.628281 28229 layer_factory.hpp:76] Creating layer conv2/prelu_3x3_reduce
I1028 13:41:32.628290 28229 net.cpp:106] Creating Layer conv2/prelu_3x3_reduce
I1028 13:41:32.628294 28229 net.cpp:454] conv2/prelu_3x3_reduce <- conv2/3x3_reduce
I1028 13:41:32.628300 28229 net.cpp:397] conv2/prelu_3x3_reduce -> conv2/3x3_reduce (in-place)
I1028 13:41:32.628912 28229 net.cpp:150] Setting up conv2/prelu_3x3_reduce
I1028 13:41:32.628924 28229 net.cpp:157] Top shape: 32 64 56 56 (6422528)
I1028 13:41:32.628928 28229 net.cpp:165] Memory required for data: 327549440
I1028 13:41:32.628934 28229 layer_factory.hpp:76] Creating layer conv2/3x3
I1028 13:41:32.628944 28229 net.cpp:106] Creating Layer conv2/3x3
I1028 13:41:32.628948 28229 net.cpp:454] conv2/3x3 <- conv2/3x3_reduce
I1028 13:41:32.628955 28229 net.cpp:411] conv2/3x3 -> conv2/3x3
I1028 13:41:32.631049 28229 cudnn_conv_layer.cpp:194] Reallocating workspace storage: 63000
I1028 13:41:32.631075 28229 net.cpp:150] Setting up conv2/3x3
I1028 13:41:32.631084 28229 net.cpp:157] Top shape: 32 192 56 56 (19267584)
I1028 13:41:32.631089 28229 net.cpp:165] Memory required for data: 404619776
I1028 13:41:32.631098 28229 layer_factory.hpp:76] Creating layer conv2/prelu_3x3
I1028 13:41:32.631108 28229 net.cpp:106] Creating Layer conv2/prelu_3x3
I1028 13:41:32.631114 28229 net.cpp:454] conv2/prelu_3x3 <- conv2/3x3
I1028 13:41:32.631121 28229 net.cpp:397] conv2/prelu_3x3 -> conv2/3x3 (in-place)
I1028 13:41:32.632447 28229 net.cpp:150] Setting up conv2/prelu_3x3
I1028 13:41:32.632462 28229 net.cpp:157] Top shape: 32 192 56 56 (19267584)
I1028 13:41:32.632467 28229 net.cpp:165] Memory required for data: 481690112
I1028 13:41:32.632496 28229 layer_factory.hpp:76] Creating layer conv2/norm2
I1028 13:41:32.632519 28229 net.cpp:106] Creating Layer conv2/norm2
I1028 13:41:32.632524 28229 net.cpp:454] conv2/norm2 <- conv2/3x3
I1028 13:41:32.632530 28229 net.cpp:411] conv2/norm2 -> conv2/norm2
I1028 13:41:32.632743 28229 net.cpp:150] Setting up conv2/norm2
I1028 13:41:32.632756 28229 net.cpp:157] Top shape: 32 192 56 56 (19267584)
I1028 13:41:32.632761 28229 net.cpp:165] Memory required for data: 558760448
I1028 13:41:32.632766 28229 layer_factory.hpp:76] Creating layer pool2/3x3_s2
I1028 13:41:32.632774 28229 net.cpp:106] Creating Layer pool2/3x3_s2
I1028 13:41:32.632781 28229 net.cpp:454] pool2/3x3_s2 <- conv2/norm2
I1028 13:41:32.632787 28229 net.cpp:411] pool2/3x3_s2 -> pool2/3x3_s2
I1028 13:41:32.633190 28229 net.cpp:150] Setting up pool2/3x3_s2
I1028 13:41:32.633203 28229 net.cpp:157] Top shape: 32 192 28 28 (4816896)
I1028 13:41:32.633208 28229 net.cpp:165] Memory required for data: 578028032
I1028 13:41:32.633213 28229 layer_factory.hpp:76] Creating layer pool2/3x3_s2_pool2/3x3_s2_0_split
I1028 13:41:32.633224 28229 net.cpp:106] Creating Layer pool2/3x3_s2_pool2/3x3_s2_0_split
I1028 13:41:32.633229 28229 net.cpp:454] pool2/3x3_s2_pool2/3x3_s2_0_split <- pool2/3x3_s2
I1028 13:41:32.633235 28229 net.cpp:411] pool2/3x3_s2_pool2/3x3_s2_0_split -> pool2/3x3_s2_pool2/3x3_s2_0_split_0
I1028 13:41:32.633244 28229 net.cpp:411] pool2/3x3_s2_pool2/3x3_s2_0_split -> pool2/3x3_s2_pool2/3x3_s2_0_split_1
I1028 13:41:32.633250 28229 net.cpp:411] pool2/3x3_s2_pool2/3x3_s2_0_split -> pool2/3x3_s2_pool2/3x3_s2_0_split_2
I1028 13:41:32.633258 28229 net.cpp:411] pool2/3x3_s2_pool2/3x3_s2_0_split -> pool2/3x3_s2_pool2/3x3_s2_0_split_3
I1028 13:41:32.633327 28229 net.cpp:150] Setting up pool2/3x3_s2_pool2/3x3_s2_0_split
I1028 13:41:32.633337 28229 net.cpp:157] Top shape: 32 192 28 28 (4816896)
I1028 13:41:32.633342 28229 net.cpp:157] Top shape: 32 192 28 28 (4816896)
I1028 13:41:32.633348 28229 net.cpp:157] Top shape: 32 192 28 28 (4816896)
I1028 13:41:32.633354 28229 net.cpp:157] Top shape: 32 192 28 28 (4816896)
I1028 13:41:32.633358 28229 net.cpp:165] Memory required for data: 655098368
I1028 13:41:32.633363 28229 layer_factory.hpp:76] Creating layer inception_3a/1x1
I1028 13:41:32.633374 28229 net.cpp:106] Creating Layer inception_3a/1x1
I1028 13:41:32.633379 28229 net.cpp:454] inception_3a/1x1 <- pool2/3x3_s2_pool2/3x3_s2_0_split_0
I1028 13:41:32.633388 28229 net.cpp:411] inception_3a/1x1 -> inception_3a/1x1
I1028 13:41:32.635165 28229 cudnn_conv_layer.cpp:194] Reallocating workspace storage: 20664
I1028 13:41:32.635195 28229 net.cpp:150] Setting up inception_3a/1x1
I1028 13:41:32.635205 28229 net.cpp:157] Top shape: 32 64 28 28 (1605632)
I1028 13:41:32.635210 28229 net.cpp:165] Memory required for data: 661520896
I1028 13:41:32.635218 28229 layer_factory.hpp:76] Creating layer inception_3a/prelu_1x1
I1028 13:41:32.635231 28229 net.cpp:106] Creating Layer inception_3a/prelu_1x1
I1028 13:41:32.635236 28229 net.cpp:454] inception_3a/prelu_1x1 <- inception_3a/1x1
I1028 13:41:32.635243 28229 net.cpp:397] inception_3a/prelu_1x1 -> inception_3a/1x1 (in-place)
I1028 13:41:32.635902 28229 net.cpp:150] Setting up inception_3a/prelu_1x1
I1028 13:41:32.635915 28229 net.cpp:157] Top shape: 32 64 28 28 (1605632)
I1028 13:41:32.635921 28229 net.cpp:165] Memory required for data: 667943424
I1028 13:41:32.635927 28229 layer_factory.hpp:76] Creating layer inception_3a/3x3_reduce
I1028 13:41:32.635938 28229 net.cpp:106] Creating Layer inception_3a/3x3_reduce
I1028 13:41:32.635944 28229 net.cpp:454] inception_3a/3x3_reduce <- pool2/3x3_s2_pool2/3x3_s2_0_split_1
I1028 13:41:32.635953 28229 net.cpp:411] inception_3a/3x3_reduce -> inception_3a/3x3_reduce
I1028 13:41:32.637001 28229 cudnn_conv_layer.cpp:194] Reallocating workspace storage: 20664
I1028 13:41:32.637027 28229 net.cpp:150] Setting up inception_3a/3x3_reduce
I1028 13:41:32.637037 28229 net.cpp:157] Top shape: 32 96 28 28 (2408448)
I1028 13:41:32.637042 28229 net.cpp:165] Memory required for data: 677577216
I1028 13:41:32.637069 28229 layer_factory.hpp:76] Creating layer inception_3a/prelu_3x3_reduce
I1028 13:41:32.637095 28229 net.cpp:106] Creating Layer inception_3a/prelu_3x3_reduce
I1028 13:41:32.637102 28229 net.cpp:454] inception_3a/prelu_3x3_reduce <- inception_3a/3x3_reduce
I1028 13:41:32.637109 28229 net.cpp:397] inception_3a/prelu_3x3_reduce -> inception_3a/3x3_reduce (in-place)
I1028 13:41:32.637284 28229 net.cpp:150] Setting up inception_3a/prelu_3x3_reduce
I1028 13:41:32.637296 28229 net.cpp:157] Top shape: 32 96 28 28 (2408448)
I1028 13:41:32.637301 28229 net.cpp:165] Memory required for data: 687211008
I1028 13:41:32.637308 28229 layer_factory.hpp:76] Creating layer inception_3a/3x3
I1028 13:41:32.637321 28229 net.cpp:106] Creating Layer inception_3a/3x3
I1028 13:41:32.637327 28229 net.cpp:454] inception_3a/3x3 <- inception_3a/3x3_reduce
I1028 13:41:32.637336 28229 net.cpp:411] inception_3a/3x3 -> inception_3a/3x3
I1028 13:41:32.639735 28229 cudnn_conv_layer.cpp:194] Reallocating workspace storage: 20664
I1028 13:41:32.639770 28229 net.cpp:150] Setting up inception_3a/3x3
I1028 13:41:32.639780 28229 net.cpp:157] Top shape: 32 128 28 28 (3211264)
I1028 13:41:32.639783 28229 net.cpp:165] Memory required for data: 700056064
I1028 13:41:32.639796 28229 layer_factory.hpp:76] Creating layer inception_3a/prelu_3x3
I1028 13:41:32.639808 28229 net.cpp:106] Creating Layer inception_3a/prelu_3x3
I1028 13:41:32.639814 28229 net.cpp:454] inception_3a/prelu_3x3 <- inception_3a/3x3
I1028 13:41:32.639822 28229 net.cpp:397] inception_3a/prelu_3x3 -> inception_3a/3x3 (in-place)
I1028 13:41:32.639952 28229 net.cpp:150] Setting up inception_3a/prelu_3x3
I1028 13:41:32.639963 28229 net.cpp:157] Top shape: 32 128 28 28 (3211264)
I1028 13:41:32.639967 28229 net.cpp:165] Memory required for data: 712901120
I1028 13:41:32.639972 28229 layer_factory.hpp:76] Creating layer inception_3a/5x5_reduce
I1028 13:41:32.639984 28229 net.cpp:106] Creating Layer inception_3a/5x5_reduce
I1028 13:41:32.639989 28229 net.cpp:454] inception_3a/5x5_reduce <- pool2/3x3_s2_pool2/3x3_s2_0_split_2
I1028 13:41:32.639997 28229 net.cpp:411] inception_3a/5x5_reduce -> inception_3a/5x5_reduce
I1028 13:41:32.641206 28229 cudnn_conv_layer.cpp:194] Reallocating workspace storage: 20664
I1028 13:41:32.641227 28229 net.cpp:150] Setting up inception_3a/5x5_reduce
I1028 13:41:32.641234 28229 net.cpp:157] Top shape: 32 16 28 28 (401408)
I1028 13:41:32.641238 28229 net.cpp:165] Memory required for data: 714506752
I1028 13:41:32.641245 28229 layer_factory.hpp:76] Creating layer inception_3a/prelu_5x5_reduce
I1028 13:41:32.641255 28229 net.cpp:106] Creating Layer inception_3a/prelu_5x5_reduce
I1028 13:41:32.641259 28229 net.cpp:454] inception_3a/prelu_5x5_reduce <- inception_3a/5x5_reduce
I1028 13:41:32.641278 28229 net.cpp:397] inception_3a/prelu_5x5_reduce -> inception_3a/5x5_reduce (in-place)
I1028 13:41:32.641372 28229 net.cpp:150] Setting up inception_3a/prelu_5x5_reduce
I1028 13:41:32.641381 28229 net.cpp:157] Top shape: 32 16 28 28 (401408)
I1028 13:41:32.641384 28229 net.cpp:165] Memory required for data: 716112384
I1028 13:41:32.641391 28229 layer_factory.hpp:76] Creating layer inception_3a/5x5
I1028 13:41:32.641409 28229 net.cpp:106] Creating Layer inception_3a/5x5
I1028 13:41:32.641415 28229 net.cpp:454] inception_3a/5x5 <- inception_3a/5x5_reduce
I1028 13:41:32.641433 28229 net.cpp:411] inception_3a/5x5 -> inception_3a/5x5
I1028 13:41:32.642534 28229 cudnn_conv_layer.cpp:194] Reallocating workspace storage: 20664
I1028 13:41:32.642565 28229 net.cpp:150] Setting up inception_3a/5x5
I1028 13:41:32.642572 28229 net.cpp:157] Top shape: 32 32 28 28 (802816)
I1028 13:41:32.642576 28229 net.cpp:165] Memory required for data: 719323648
I1028 13:41:32.642583 28229 layer_factory.hpp:76] Creating layer inception_3a/prelu_5x5
I1028 13:41:32.642603 28229 net.cpp:106] Creating Layer inception_3a/prelu_5x5
I1028 13:41:32.642608 28229 net.cpp:454] inception_3a/prelu_5x5 <- inception_3a/5x5
I1028 13:41:32.642614 28229 net.cpp:397] inception_3a/prelu_5x5 -> inception_3a/5x5 (in-place)
I1028 13:41:32.642741 28229 net.cpp:150] Setting up inception_3a/prelu_5x5
I1028 13:41:32.642750 28229 net.cpp:157] Top shape: 32 32 28 28 (802816)
I1028 13:41:32.642755 28229 net.cpp:165] Memory required for data: 722534912
I1028 13:41:32.642771 28229 layer_factory.hpp:76] Creating layer inception_3a/pool
I1028 13:41:32.642779 28229 net.cpp:106] Creating Layer inception_3a/pool
I1028 13:41:32.642784 28229 net.cpp:454] inception_3a/pool <- pool2/3x3_s2_pool2/3x3_s2_0_split_3
I1028 13:41:32.642791 28229 net.cpp:411] inception_3a/pool -> inception_3a/pool
I1028 13:41:32.642993 28229 net.cpp:150] Setting up inception_3a/pool
I1028 13:41:32.643003 28229 net.cpp:157] Top shape: 32 192 28 28 (4816896)
I1028 13:41:32.643018 28229 net.cpp:165] Memory required for data: 741802496
I1028 13:41:32.643023 28229 layer_factory.hpp:76] Creating layer inception_3a/pool_proj
I1028 13:41:32.643031 28229 net.cpp:106] Creating Layer inception_3a/pool_proj
I1028 13:41:32.643036 28229 net.cpp:454] inception_3a/pool_proj <- inception_3a/pool
I1028 13:41:32.643043 28229 net.cpp:411] inception_3a/pool_proj -> inception_3a/pool_proj
I1028 13:41:32.644078 28229 cudnn_conv_layer.cpp:194] Reallocating workspace storage: 20664
I1028 13:41:32.644096 28229 net.cpp:150] Setting up inception_3a/pool_proj
I1028 13:41:32.644104 28229 net.cpp:157] Top shape: 32 32 28 28 (802816)
I1028 13:41:32.644109 28229 net.cpp:165] Memory required for data: 745013760
I1028 13:41:32.644115 28229 layer_factory.hpp:76] Creating layer inception_3a/prelu_pool_proj
I1028 13:41:32.644124 28229 net.cpp:106] Creating Layer inception_3a/prelu_pool_proj
I1028 13:41:32.644127 28229 net.cpp:454] inception_3a/prelu_pool_proj <- inception_3a/pool_proj
I1028 13:41:32.644134 28229 net.cpp:397] inception_3a/prelu_pool_proj -> inception_3a/pool_proj (in-place)
I1028 13:41:32.644224 28229 net.cpp:150] Setting up inception_3a/prelu_pool_proj
I1028 13:41:32.644233 28229 net.cpp:157] Top shape: 32 32 28 28 (802816)
I1028 13:41:32.644237 28229 net.cpp:165] Memory required for data: 748225024
I1028 13:41:32.644243 28229 layer_factory.hpp:76] Creating layer inception_3a/output
I1028 13:41:32.644254 28229 net.cpp:106] Creating Layer inception_3a/output
I1028 13:41:32.644259 28229 net.cpp:454] inception_3a/output <- inception_3a/1x1
I1028 13:41:32.644264 28229 net.cpp:454] inception_3a/output <- inception_3a/3x3
I1028 13:41:32.644269 28229 net.cpp:454] inception_3a/output <- inception_3a/5x5
I1028 13:41:32.644273 28229 net.cpp:454] inception_3a/output <- inception_3a/pool_proj
I1028 13:41:32.644279 28229 net.cpp:411] inception_3a/output -> inception_3a/output
I1028 13:41:32.644304 28229 net.cpp:150] Setting up inception_3a/output
I1028 13:41:32.644312 28229 net.cpp:157] Top shape: 32 256 28 28 (6422528)
I1028 13:41:32.644316 28229 net.cpp:165] Memory required for data: 773915136
I1028 13:41:32.644320 28229 layer_factory.hpp:76] Creating layer inception_3a/output_inception_3a/output_0_split
I1028 13:41:32.644326 28229 net.cpp:106] Creating Layer inception_3a/output_inception_3a/output_0_split
I1028 13:41:32.644340 28229 net.cpp:454] inception_3a/output_inception_3a/output_0_split <- inception_3a/output
I1028 13:41:32.644358 28229 net.cpp:411] inception_3a/output_inception_3a/output_0_split -> inception_3a/output_inception_3a/output_0_split_0
I1028 13:41:32.644376 28229 net.cpp:411] inception_3a/output_inception_3a/output_0_split -> inception_3a/output_inception_3a/output_0_split_1
I1028 13:41:32.644384 28229 net.cpp:411] inception_3a/output_inception_3a/output_0_split -> inception_3a/output_inception_3a/output_0_split_2
I1028 13:41:32.644392 28229 net.cpp:411] inception_3a/output_inception_3a/output_0_split -> inception_3a/output_inception_3a/output_0_split_3
I1028 13:41:32.644451 28229 net.cpp:150] Setting up inception_3a/output_inception_3a/output_0_split
I1028 13:41:32.644460 28229 net.cpp:157] Top shape: 32 256 28 28 (6422528)
I1028 13:41:32.644465 28229 net.cpp:157] Top shape: 32 256 28 28 (6422528)
I1028 13:41:32.644470 28229 net.cpp:157] Top shape: 32 256 28 28 (6422528)
I1028 13:41:32.644484 28229 net.cpp:157] Top shape: 32 256 28 28 (6422528)
I1028 13:41:32.644489 28229 net.cpp:165] Memory required for data: 876675584
I1028 13:41:32.644492 28229 layer_factory.hpp:76] Creating layer inception_3b/1x1
I1028 13:41:32.644500 28229 net.cpp:106] Creating Layer inception_3b/1x1
I1028 13:41:32.644505 28229 net.cpp:454] inception_3b/1x1 <- inception_3a/output_inception_3a/output_0_split_0
I1028 13:41:32.644512 28229 net.cpp:411] inception_3b/1x1 -> inception_3b/1x1
I1028 13:41:32.645681 28229 cudnn_conv_layer.cpp:194] Reallocating workspace storage: 20664
I1028 13:41:32.645699 28229 net.cpp:150] Setting up inception_3b/1x1
I1028 13:41:32.645706 28229 net.cpp:157] Top shape: 32 128 28 28 (3211264)
I1028 13:41:32.645710 28229 net.cpp:165] Memory required for data: 889520640
I1028 13:41:32.645717 28229 layer_factory.hpp:76] Creating layer inception_3b/prelu_1x1
I1028 13:41:32.645726 28229 net.cpp:106] Creating Layer inception_3b/prelu_1x1
I1028 13:41:32.645731 28229 net.cpp:454] inception_3b/prelu_1x1 <- inception_3b/1x1
I1028 13:41:32.645738 28229 net.cpp:397] inception_3b/prelu_1x1 -> inception_3b/1x1 (in-place)
I1028 13:41:32.646365 28229 net.cpp:150] Setting up inception_3b/prelu_1x1
I1028 13:41:32.646379 28229 net.cpp:157] Top shape: 32 128 28 28 (3211264)
I1028 13:41:32.646384 28229 net.cpp:165] Memory required for data: 902365696
I1028 13:41:32.646389 28229 layer_factory.hpp:76] Creating layer inception_3b/3x3_reduce
I1028 13:41:32.646399 28229 net.cpp:106] Creating Layer inception_3b/3x3_reduce
I1028 13:41:32.646404 28229 net.cpp:454] inception_3b/3x3_reduce <- inception_3a/output_inception_3a/output_0_split_1
I1028 13:41:32.646411 28229 net.cpp:411] inception_3b/3x3_reduce -> inception_3b/3x3_reduce
I1028 13:41:32.647599 28229 cudnn_conv_layer.cpp:194] Reallocating workspace storage: 20664
I1028 13:41:32.647619 28229 net.cpp:150] Setting up inception_3b/3x3_reduce
I1028 13:41:32.647626 28229 net.cpp:157] Top shape: 32 128 28 28 (3211264)
I1028 13:41:32.647630 28229 net.cpp:165] Memory required for data: 915210752
I1028 13:41:32.647637 28229 layer_factory.hpp:76] Creating layer inception_3b/prelu_3x3_reduce
I1028 13:41:32.647645 28229 net.cpp:106] Creating Layer inception_3b/prelu_3x3_reduce
I1028 13:41:32.647650 28229 net.cpp:454] inception_3b/prelu_3x3_reduce <- inception_3b/3x3_reduce
I1028 13:41:32.647657 28229 net.cpp:397] inception_3b/prelu_3x3_reduce -> inception_3b/3x3_reduce (in-place)
I1028 13:41:32.647789 28229 net.cpp:150] Setting up inception_3b/prelu_3x3_reduce
I1028 13:41:32.647799 28229 net.cpp:157] Top shape: 32 128 28 28 (3211264)
I1028 13:41:32.647802 28229 net.cpp:165] Memory required for data: 928055808
I1028 13:41:32.647814 28229 layer_factory.hpp:76] Creating layer inception_3b/3x3
I1028 13:41:32.647827 28229 net.cpp:106] Creating Layer inception_3b/3x3
I1028 13:41:32.647831 28229 net.cpp:454] inception_3b/3x3 <- inception_3b/3x3_reduce
I1028 13:41:32.647838 28229 net.cpp:411] inception_3b/3x3 -> inception_3b/3x3
I1028 13:41:32.650779 28229 cudnn_conv_layer.cpp:194] Reallocating workspace storage: 20664
I1028 13:41:32.650813 28229 net.cpp:150] Setting up inception_3b/3x3
I1028 13:41:32.650823 28229 net.cpp:157] Top shape: 32 192 28 28 (4816896)
I1028 13:41:32.650827 28229 net.cpp:165] Memory required for data: 947323392
I1028 13:41:32.650837 28229 layer_factory.hpp:76] Creating layer inception_3b/prelu_3x3
I1028 13:41:32.650861 28229 net.cpp:106] Creating Layer inception_3b/prelu_3x3
I1028 13:41:32.650867 28229 net.cpp:454] inception_3b/prelu_3x3 <- inception_3b/3x3
I1028 13:41:32.650876 28229 net.cpp:397] inception_3b/prelu_3x3 -> inception_3b/3x3 (in-place)
I1028 13:41:32.651624 28229 net.cpp:150] Setting up inception_3b/prelu_3x3
I1028 13:41:32.651643 28229 net.cpp:157] Top shape: 32 192 28 28 (4816896)
I1028 13:41:32.651648 28229 net.cpp:165] Memory required for data: 966590976
I1028 13:41:32.651654 28229 layer_factory.hpp:76] Creating layer inception_3b/5x5_reduce
I1028 13:41:32.651666 28229 net.cpp:106] Creating Layer inception_3b/5x5_reduce
I1028 13:41:32.651672 28229 net.cpp:454] inception_3b/5x5_reduce <- inception_3a/output_inception_3a/output_0_split_2
I1028 13:41:32.651697 28229 net.cpp:411] inception_3b/5x5_reduce -> inception_3b/5x5_reduce
I1028 13:41:32.652585 28229 cudnn_conv_layer.cpp:194] Reallocating workspace storage: 20664
I1028 13:41:32.652606 28229 net.cpp:150] Setting up inception_3b/5x5_reduce
I1028 13:41:32.652616 28229 net.cpp:157] Top shape: 32 32 28 28 (802816)
I1028 13:41:32.652619 28229 net.cpp:165] Memory required for data: 969802240
I1028 13:41:32.652626 28229 layer_factory.hpp:76] Creating layer inception_3b/prelu_5x5_reduce
I1028 13:41:32.652636 28229 net.cpp:106] Creating Layer inception_3b/prelu_5x5_reduce
I1028 13:41:32.652650 28229 net.cpp:454] inception_3b/prelu_5x5_reduce <- inception_3b/5x5_reduce
I1028 13:41:32.652658 28229 net.cpp:397] inception_3b/prelu_5x5_reduce -> inception_3b/5x5_reduce (in-place)
I1028 13:41:32.652768 28229 net.cpp:150] Setting up inception_3b/prelu_5x5_reduce
I1028 13:41:32.652779 28229 net.cpp:157] Top shape: 32 32 28 28 (802816)
I1028 13:41:32.652783 28229 net.cpp:165] Memory required for data: 973013504
I1028 13:41:32.652788 28229 layer_factory.hpp:76] Creating layer inception_3b/5x5
I1028 13:41:32.652818 28229 net.cpp:106] Creating Layer inception_3b/5x5
I1028 13:41:32.652822 28229 net.cpp:454] inception_3b/5x5 <- inception_3b/5x5_reduce
I1028 13:41:32.652840 28229 net.cpp:411] inception_3b/5x5 -> inception_3b/5x5
I1028 13:41:32.654300 28229 cudnn_conv_layer.cpp:194] Reallocating workspace storage: 20664
I1028 13:41:32.654323 28229 net.cpp:150] Setting up inception_3b/5x5
I1028 13:41:32.654331 28229 net.cpp:157] Top shape: 32 96 28 28 (2408448)
I1028 13:41:32.654335 28229 net.cpp:165] Memory required for data: 982647296
I1028 13:41:32.654343 28229 layer_factory.hpp:76] Creating layer inception_3b/prelu_5x5
I1028 13:41:32.654352 28229 net.cpp:106] Creating Layer inception_3b/prelu_5x5
I1028 13:41:32.654367 28229 net.cpp:454] inception_3b/prelu_5x5 <- inception_3b/5x5
I1028 13:41:32.654376 28229 net.cpp:397] inception_3b/prelu_5x5 -> inception_3b/5x5 (in-place)
I1028 13:41:32.654532 28229 net.cpp:150] Setting up inception_3b/prelu_5x5
I1028 13:41:32.654542 28229 net.cpp:157] Top shape: 32 96 28 28 (2408448)
I1028 13:41:32.654546 28229 net.cpp:165] Memory required for data: 992281088
I1028 13:41:32.654551 28229 layer_factory.hpp:76] Creating layer inception_3b/pool
I1028 13:41:32.654561 28229 net.cpp:106] Creating Layer inception_3b/pool
I1028 13:41:32.654564 28229 net.cpp:454] inception_3b/pool <- inception_3a/output_inception_3a/output_0_split_3
I1028 13:41:32.654570 28229 net.cpp:411] inception_3b/pool -> inception_3b/pool
I1028 13:41:32.654978 28229 net.cpp:150] Setting up inception_3b/pool
I1028 13:41:32.654989 28229 net.cpp:157] Top shape: 32 256 28 28 (6422528)
I1028 13:41:32.654992 28229 net.cpp:165] Memory required for data: 1017971200
I1028 13:41:32.654997 28229 layer_factory.hpp:76] Creating layer inception_3b/pool_proj
I1028 13:41:32.655006 28229 net.cpp:106] Creating Layer inception_3b/pool_proj
I1028 13:41:32.655011 28229 net.cpp:454] inception_3b/pool_proj <- inception_3b/pool
I1028 13:41:32.655017 28229 net.cpp:411] inception_3b/pool_proj -> inception_3b/pool_proj
I1028 13:41:32.656127 28229 cudnn_conv_layer.cpp:194] Reallocating workspace storage: 20664
I1028 13:41:32.656147 28229 net.cpp:150] Setting up inception_3b/pool_proj
I1028 13:41:32.656153 28229 net.cpp:157] Top shape: 32 64 28 28 (1605632)
I1028 13:41:32.656157 28229 net.cpp:165] Memory required for data: 1024393728
I1028 13:41:32.656164 28229 layer_factory.hpp:76] Creating layer inception_3b/prelu_pool_proj
I1028 13:41:32.656172 28229 net.cpp:106] Creating Layer inception_3b/prelu_pool_proj
I1028 13:41:32.656177 28229 net.cpp:454] inception_3b/prelu_pool_proj <- inception_3b/pool_proj
I1028 13:41:32.656183 28229 net.cpp:397] inception_3b/prelu_pool_proj -> inception_3b/pool_proj (in-place)
I1028 13:41:32.656298 28229 net.cpp:150] Setting up inception_3b/prelu_pool_proj
I1028 13:41:32.656307 28229 net.cpp:157] Top shape: 32 64 28 28 (1605632)
I1028 13:41:32.656324 28229 net.cpp:165] Memory required for data: 1030816256
I1028 13:41:32.656332 28229 layer_factory.hpp:76] Creating layer inception_3b/output
I1028 13:41:32.656348 28229 net.cpp:106] Creating Layer inception_3b/output
I1028 13:41:32.656353 28229 net.cpp:454] inception_3b/output <- inception_3b/1x1
I1028 13:41:32.656358 28229 net.cpp:454] inception_3b/output <- inception_3b/3x3
I1028 13:41:32.656363 28229 net.cpp:454] inception_3b/output <- inception_3b/5x5
I1028 13:41:32.656368 28229 net.cpp:454] inception_3b/output <- inception_3b/pool_proj
I1028 13:41:32.656385 28229 net.cpp:411] inception_3b/output -> inception_3b/output
I1028 13:41:32.656431 28229 net.cpp:150] Setting up inception_3b/output
I1028 13:41:32.656441 28229 net.cpp:157] Top shape: 32 480 28 28 (12042240)
I1028 13:41:32.656445 28229 net.cpp:165] Memory required for data: 1078985216
I1028 13:41:32.656450 28229 layer_factory.hpp:76] Creating layer pool3/3x3_s2
I1028 13:41:32.656455 28229 net.cpp:106] Creating Layer pool3/3x3_s2
I1028 13:41:32.656461 28229 net.cpp:454] pool3/3x3_s2 <- inception_3b/output
I1028 13:41:32.656466 28229 net.cpp:411] pool3/3x3_s2 -> pool3/3x3_s2
I1028 13:41:32.656812 28229 net.cpp:150] Setting up pool3/3x3_s2
I1028 13:41:32.656823 28229 net.cpp:157] Top shape: 32 480 14 14 (3010560)
I1028 13:41:32.656827 28229 net.cpp:165] Memory required for data: 1091027456
I1028 13:41:32.656832 28229 layer_factory.hpp:76] Creating layer pool3/3x3_s2_pool3/3x3_s2_0_split
I1028 13:41:32.656838 28229 net.cpp:106] Creating Layer pool3/3x3_s2_pool3/3x3_s2_0_split
I1028 13:41:32.656842 28229 net.cpp:454] pool3/3x3_s2_pool3/3x3_s2_0_split <- pool3/3x3_s2
I1028 13:41:32.656860 28229 net.cpp:411] pool3/3x3_s2_pool3/3x3_s2_0_split -> pool3/3x3_s2_pool3/3x3_s2_0_split_0
I1028 13:41:32.656867 28229 net.cpp:411] pool3/3x3_s2_pool3/3x3_s2_0_split -> pool3/3x3_s2_pool3/3x3_s2_0_split_1
I1028 13:41:32.656874 28229 net.cpp:411] pool3/3x3_s2_pool3/3x3_s2_0_split -> pool3/3x3_s2_pool3/3x3_s2_0_split_2
I1028 13:41:32.656880 28229 net.cpp:411] pool3/3x3_s2_pool3/3x3_s2_0_split -> pool3/3x3_s2_pool3/3x3_s2_0_split_3
I1028 13:41:32.656955 28229 net.cpp:150] Setting up pool3/3x3_s2_pool3/3x3_s2_0_split
I1028 13:41:32.656963 28229 net.cpp:157] Top shape: 32 480 14 14 (3010560)
I1028 13:41:32.656968 28229 net.cpp:157] Top shape: 32 480 14 14 (3010560)
I1028 13:41:32.656972 28229 net.cpp:157] Top shape: 32 480 14 14 (3010560)
I1028 13:41:32.656977 28229 net.cpp:157] Top shape: 32 480 14 14 (3010560)
I1028 13:41:32.656981 28229 net.cpp:165] Memory required for data: 1139196416
I1028 13:41:32.656985 28229 layer_factory.hpp:76] Creating layer inception_4a/1x1
I1028 13:41:32.656994 28229 net.cpp:106] Creating Layer inception_4a/1x1
I1028 13:41:32.657001 28229 net.cpp:454] inception_4a/1x1 <- pool3/3x3_s2_pool3/3x3_s2_0_split_0
I1028 13:41:32.657007 28229 net.cpp:411] inception_4a/1x1 -> inception_4a/1x1
I1028 13:41:32.659018 28229 cudnn_conv_layer.cpp:194] Reallocating workspace storage: 10080
I1028 13:41:32.659225 28229 net.cpp:150] Setting up inception_4a/1x1
I1028 13:41:32.659236 28229 net.cpp:157] Top shape: 32 192 14 14 (1204224)
I1028 13:41:32.659241 28229 net.cpp:165] Memory required for data: 1144013312
I1028 13:41:32.659250 28229 layer_factory.hpp:76] Creating layer inception_4a/prelu_1x1
I1028 13:41:32.659258 28229 net.cpp:106] Creating Layer inception_4a/prelu_1x1
I1028 13:41:32.659263 28229 net.cpp:454] inception_4a/prelu_1x1 <- inception_4a/1x1
I1028 13:41:32.659270 28229 net.cpp:397] inception_4a/prelu_1x1 -> inception_4a/1x1 (in-place)
I1028 13:41:32.659839 28229 net.cpp:150] Setting up inception_4a/prelu_1x1
I1028 13:41:32.659852 28229 net.cpp:157] Top shape: 32 192 14 14 (1204224)
I1028 13:41:32.659857 28229 net.cpp:165] Memory required for data: 1148830208
I1028 13:41:32.659862 28229 layer_factory.hpp:76] Creating layer inception_4a/3x3_reduce
I1028 13:41:32.659873 28229 net.cpp:106] Creating Layer inception_4a/3x3_reduce
I1028 13:41:32.659878 28229 net.cpp:454] inception_4a/3x3_reduce <- pool3/3x3_s2_pool3/3x3_s2_0_split_1
I1028 13:41:32.659885 28229 net.cpp:411] inception_4a/3x3_reduce -> inception_4a/3x3_reduce
I1028 13:41:32.661177 28229 cudnn_conv_layer.cpp:194] Reallocating workspace storage: 10080
I1028 13:41:32.661205 28229 net.cpp:150] Setting up inception_4a/3x3_reduce
I1028 13:41:32.661213 28229 net.cpp:157] Top shape: 32 96 14 14 (602112)
I1028 13:41:32.661228 28229 net.cpp:165] Memory required for data: 1151238656
I1028 13:41:32.661236 28229 layer_factory.hpp:76] Creating layer inception_4a/prelu_3x3_reduce
I1028 13:41:32.661243 28229 net.cpp:106] Creating Layer inception_4a/prelu_3x3_reduce
I1028 13:41:32.661248 28229 net.cpp:454] inception_4a/prelu_3x3_reduce <- inception_4a/3x3_reduce
I1028 13:41:32.661255 28229 net.cpp:397] inception_4a/prelu_3x3_reduce -> inception_4a/3x3_reduce (in-place)
I1028 13:41:32.661362 28229 net.cpp:150] Setting up inception_4a/prelu_3x3_reduce
I1028 13:41:32.661371 28229 net.cpp:157] Top shape: 32 96 14 14 (602112)
I1028 13:41:32.661375 28229 net.cpp:165] Memory required for data: 1153647104
I1028 13:41:32.661381 28229 layer_factory.hpp:76] Creating layer inception_4a/3x3
I1028 13:41:32.661391 28229 net.cpp:106] Creating Layer inception_4a/3x3
I1028 13:41:32.661394 28229 net.cpp:454] inception_4a/3x3 <- inception_4a/3x3_reduce
I1028 13:41:32.661401 28229 net.cpp:411] inception_4a/3x3 -> inception_4a/3x3
I1028 13:41:32.663717 28229 cudnn_conv_layer.cpp:194] Reallocating workspace storage: 10080
I1028 13:41:32.663746 28229 net.cpp:150] Setting up inception_4a/3x3
I1028 13:41:32.663754 28229 net.cpp:157] Top shape: 32 208 14 14 (1304576)
I1028 13:41:32.663758 28229 net.cpp:165] Memory required for data: 1158865408
I1028 13:41:32.663765 28229 layer_factory.hpp:76] Creating layer inception_4a/prelu_3x3
I1028 13:41:32.663775 28229 net.cpp:106] Creating Layer inception_4a/prelu_3x3
I1028 13:41:32.663785 28229 net.cpp:454] inception_4a/prelu_3x3 <- inception_4a/3x3
I1028 13:41:32.663792 28229 net.cpp:397] inception_4a/prelu_3x3 -> inception_4a/3x3 (in-place)
I1028 13:41:32.663898 28229 net.cpp:150] Setting up inception_4a/prelu_3x3
I1028 13:41:32.663908 28229 net.cpp:157] Top shape: 32 208 14 14 (1304576)
I1028 13:41:32.663913 28229 net.cpp:165] Memory required for data: 1164083712
I1028 13:41:32.663918 28229 layer_factory.hpp:76] Creating layer inception_4a/5x5_reduce
I1028 13:41:32.663928 28229 net.cpp:106] Creating Layer inception_4a/5x5_reduce
I1028 13:41:32.663933 28229 net.cpp:454] inception_4a/5x5_reduce <- pool3/3x3_s2_pool3/3x3_s2_0_split_2
I1028 13:41:32.663940 28229 net.cpp:411] inception_4a/5x5_reduce -> inception_4a/5x5_reduce
I1028 13:41:32.664963 28229 cudnn_conv_layer.cpp:194] Reallocating workspace storage: 10080
I1028 13:41:32.664986 28229 net.cpp:150] Setting up inception_4a/5x5_reduce
I1028 13:41:32.664994 28229 net.cpp:157] Top shape: 32 16 14 14 (100352)
I1028 13:41:32.664997 28229 net.cpp:165] Memory required for data: 1164485120
I1028 13:41:32.665014 28229 layer_factory.hpp:76] Creating layer inception_4a/prelu_5x5_reduce
I1028 13:41:32.665024 28229 net.cpp:106] Creating Layer inception_4a/prelu_5x5_reduce
I1028 13:41:32.665029 28229 net.cpp:454] inception_4a/prelu_5x5_reduce <- inception_4a/5x5_reduce
I1028 13:41:32.665035 28229 net.cpp:397] inception_4a/prelu_5x5_reduce -> inception_4a/5x5_reduce (in-place)
I1028 13:41:32.665124 28229 net.cpp:150] Setting up inception_4a/prelu_5x5_reduce
I1028 13:41:32.665133 28229 net.cpp:157] Top shape: 32 16 14 14 (100352)
I1028 13:41:32.665137 28229 net.cpp:165] Memory required for data: 1164886528
I1028 13:41:32.665153 28229 layer_factory.hpp:76] Creating layer inception_4a/5x5
I1028 13:41:32.665173 28229 net.cpp:106] Creating Layer inception_4a/5x5
I1028 13:41:32.665177 28229 net.cpp:454] inception_4a/5x5 <- inception_4a/5x5_reduce
I1028 13:41:32.665184 28229 net.cpp:411] inception_4a/5x5 -> inception_4a/5x5
I1028 13:41:32.666291 28229 cudnn_conv_layer.cpp:194] Reallocating workspace storage: 13080
I1028 13:41:32.666316 28229 net.cpp:150] Setting up inception_4a/5x5
I1028 13:41:32.666322 28229 net.cpp:157] Top shape: 32 48 14 14 (301056)
I1028 13:41:32.666326 28229 net.cpp:165] Memory required for data: 1166090752
I1028 13:41:32.666357 28229 layer_factory.hpp:76] Creating layer inception_4a/prelu_5x5
I1028 13:41:32.666368 28229 net.cpp:106] Creating Layer inception_4a/prelu_5x5
I1028 13:41:32.666373 28229 net.cpp:454] inception_4a/prelu_5x5 <- inception_4a/5x5
I1028 13:41:32.666400 28229 net.cpp:397] inception_4a/prelu_5x5 -> inception_4a/5x5 (in-place)
I1028 13:41:32.666502 28229 net.cpp:150] Setting up inception_4a/prelu_5x5
I1028 13:41:32.666510 28229 net.cpp:157] Top shape: 32 48 14 14 (301056)
I1028 13:41:32.666514 28229 net.cpp:165] Memory required for data: 1167294976
I1028 13:41:32.666519 28229 layer_factory.hpp:76] Creating layer inception_4a/pool
I1028 13:41:32.666527 28229 net.cpp:106] Creating Layer inception_4a/pool
I1028 13:41:32.666532 28229 net.cpp:454] inception_4a/pool <- pool3/3x3_s2_pool3/3x3_s2_0_split_3
I1028 13:41:32.666548 28229 net.cpp:411] inception_4a/pool -> inception_4a/pool
I1028 13:41:32.666929 28229 net.cpp:150] Setting up inception_4a/pool
I1028 13:41:32.666939 28229 net.cpp:157] Top shape: 32 480 14 14 (3010560)
I1028 13:41:32.666944 28229 net.cpp:165] Memory required for data: 1179337216
I1028 13:41:32.666949 28229 layer_factory.hpp:76] Creating layer inception_4a/pool_proj
I1028 13:41:32.666959 28229 net.cpp:106] Creating Layer inception_4a/pool_proj
I1028 13:41:32.666963 28229 net.cpp:454] inception_4a/pool_proj <- inception_4a/pool
I1028 13:41:32.666971 28229 net.cpp:411] inception_4a/pool_proj -> inception_4a/pool_proj
I1028 13:41:32.667971 28229 cudnn_conv_layer.cpp:194] Reallocating workspace storage: 10080
I1028 13:41:32.667999 28229 net.cpp:150] Setting up inception_4a/pool_proj
I1028 13:41:32.668006 28229 net.cpp:157] Top shape: 32 64 14 14 (401408)
I1028 13:41:32.668010 28229 net.cpp:165] Memory required for data: 1180942848
I1028 13:41:32.668018 28229 layer_factory.hpp:76] Creating layer inception_4a/prelu_pool_proj
I1028 13:41:32.668026 28229 net.cpp:106] Creating Layer inception_4a/prelu_pool_proj
I1028 13:41:32.668031 28229 net.cpp:454] inception_4a/prelu_pool_proj <- inception_4a/pool_proj
I1028 13:41:32.668059 28229 net.cpp:397] inception_4a/prelu_pool_proj -> inception_4a/pool_proj (in-place)
I1028 13:41:32.668155 28229 net.cpp:150] Setting up inception_4a/prelu_pool_proj
I1028 13:41:32.668164 28229 net.cpp:157] Top shape: 32 64 14 14 (401408)
I1028 13:41:32.668169 28229 net.cpp:165] Memory required for data: 1182548480
I1028 13:41:32.668174 28229 layer_factory.hpp:76] Creating layer inception_4a/output
I1028 13:41:32.668181 28229 net.cpp:106] Creating Layer inception_4a/output
I1028 13:41:32.668185 28229 net.cpp:454] inception_4a/output <- inception_4a/1x1
I1028 13:41:32.668190 28229 net.cpp:454] inception_4a/output <- inception_4a/3x3
I1028 13:41:32.668195 28229 net.cpp:454] inception_4a/output <- inception_4a/5x5
I1028 13:41:32.668210 28229 net.cpp:454] inception_4a/output <- inception_4a/pool_proj
I1028 13:41:32.668215 28229 net.cpp:411] inception_4a/output -> inception_4a/output
I1028 13:41:32.668242 28229 net.cpp:150] Setting up inception_4a/output
I1028 13:41:32.668259 28229 net.cpp:157] Top shape: 32 512 14 14 (3211264)
I1028 13:41:32.668263 28229 net.cpp:165] Memory required for data: 1195393536
I1028 13:41:32.668267 28229 layer_factory.hpp:76] Creating layer inception_4a/output_inception_4a/output_0_split
I1028 13:41:32.668274 28229 net.cpp:106] Creating Layer inception_4a/output_inception_4a/output_0_split
I1028 13:41:32.668278 28229 net.cpp:454] inception_4a/output_inception_4a/output_0_split <- inception_4a/output
I1028 13:41:32.668287 28229 net.cpp:411] inception_4a/output_inception_4a/output_0_split -> inception_4a/output_inception_4a/output_0_split_0
I1028 13:41:32.668293 28229 net.cpp:411] inception_4a/output_inception_4a/output_0_split -> inception_4a/output_inception_4a/output_0_split_1
I1028 13:41:32.668310 28229 net.cpp:411] inception_4a/output_inception_4a/output_0_split -> inception_4a/output_inception_4a/output_0_split_2
I1028 13:41:32.668318 28229 net.cpp:411] inception_4a/output_inception_4a/output_0_split -> inception_4a/output_inception_4a/output_0_split_3
I1028 13:41:32.668335 28229 net.cpp:411] inception_4a/output_inception_4a/output_0_split -> inception_4a/output_inception_4a/output_0_split_4
I1028 13:41:32.668409 28229 net.cpp:150] Setting up inception_4a/output_inception_4a/output_0_split
I1028 13:41:32.668417 28229 net.cpp:157] Top shape: 32 512 14 14 (3211264)
I1028 13:41:32.668422 28229 net.cpp:157] Top shape: 32 512 14 14 (3211264)
I1028 13:41:32.668427 28229 net.cpp:157] Top shape: 32 512 14 14 (3211264)
I1028 13:41:32.668431 28229 net.cpp:157] Top shape: 32 512 14 14 (3211264)
I1028 13:41:32.668437 28229 net.cpp:157] Top shape: 32 512 14 14 (3211264)
I1028 13:41:32.668439 28229 net.cpp:165] Memory required for data: 1259618816
I1028 13:41:32.668443 28229 layer_factory.hpp:76] Creating layer loss1/ave_pool
I1028 13:41:32.668450 28229 net.cpp:106] Creating Layer loss1/ave_pool
I1028 13:41:32.668454 28229 net.cpp:454] loss1/ave_pool <- inception_4a/output_inception_4a/output_0_split_0
I1028 13:41:32.668462 28229 net.cpp:411] loss1/ave_pool -> loss1/ave_pool
I1028 13:41:32.668812 28229 net.cpp:150] Setting up loss1/ave_pool
I1028 13:41:32.668823 28229 net.cpp:157] Top shape: 32 512 4 4 (262144)
I1028 13:41:32.668838 28229 net.cpp:165] Memory required for data: 1260667392
I1028 13:41:32.668843 28229 layer_factory.hpp:76] Creating layer loss1/conv
I1028 13:41:32.668853 28229 net.cpp:106] Creating Layer loss1/conv
I1028 13:41:32.668858 28229 net.cpp:454] loss1/conv <- loss1/ave_pool
I1028 13:41:32.668867 28229 net.cpp:411] loss1/conv -> loss1/conv
I1028 13:41:32.670274 28229 cudnn_conv_layer.cpp:194] Reallocating workspace storage: 6840
I1028 13:41:32.670303 28229 net.cpp:150] Setting up loss1/conv
I1028 13:41:32.670310 28229 net.cpp:157] Top shape: 32 128 4 4 (65536)
I1028 13:41:32.670315 28229 net.cpp:165] Memory required for data: 1260929536
I1028 13:41:32.670346 28229 layer_factory.hpp:76] Creating layer loss1/prelu_conv
I1028 13:41:32.670354 28229 net.cpp:106] Creating Layer loss1/prelu_conv
I1028 13:41:32.670359 28229 net.cpp:454] loss1/prelu_conv <- loss1/conv
I1028 13:41:32.670367 28229 net.cpp:397] loss1/prelu_conv -> loss1/conv (in-place)
I1028 13:41:32.670486 28229 net.cpp:150] Setting up loss1/prelu_conv
I1028 13:41:32.670495 28229 net.cpp:157] Top shape: 32 128 4 4 (65536)
I1028 13:41:32.670500 28229 net.cpp:165] Memory required for data: 1261191680
I1028 13:41:32.670506 28229 layer_factory.hpp:76] Creating layer loss1/fc
I1028 13:41:32.670519 28229 net.cpp:106] Creating Layer loss1/fc
I1028 13:41:32.670523 28229 net.cpp:454] loss1/fc <- loss1/conv
I1028 13:41:32.670529 28229 net.cpp:411] loss1/fc -> loss1/fc
I1028 13:41:32.685967 28229 net.cpp:150] Setting up loss1/fc
I1028 13:41:32.686012 28229 net.cpp:157] Top shape: 32 1024 (32768)
I1028 13:41:32.686033 28229 net.cpp:165] Memory required for data: 1261322752
I1028 13:41:32.686045 28229 layer_factory.hpp:76] Creating layer loss1/prelu_fc
I1028 13:41:32.686063 28229 net.cpp:106] Creating Layer loss1/prelu_fc
I1028 13:41:32.686070 28229 net.cpp:454] loss1/prelu_fc <- loss1/fc
I1028 13:41:32.686080 28229 net.cpp:397] loss1/prelu_fc -> loss1/fc (in-place)
I1028 13:41:32.686177 28229 net.cpp:150] Setting up loss1/prelu_fc
I1028 13:41:32.686187 28229 net.cpp:157] Top shape: 32 1024 (32768)
I1028 13:41:32.686192 28229 net.cpp:165] Memory required for data: 1261453824
I1028 13:41:32.686197 28229 layer_factory.hpp:76] Creating layer loss1/drop_fc
I1028 13:41:32.686223 28229 net.cpp:106] Creating Layer loss1/drop_fc
I1028 13:41:32.686229 28229 net.cpp:454] loss1/drop_fc <- loss1/fc
I1028 13:41:32.686235 28229 net.cpp:397] loss1/drop_fc -> loss1/fc (in-place)
I1028 13:41:32.686275 28229 net.cpp:150] Setting up loss1/drop_fc
I1028 13:41:32.686282 28229 net.cpp:157] Top shape: 32 1024 (32768)
I1028 13:41:32.686286 28229 net.cpp:165] Memory required for data: 1261584896
I1028 13:41:32.686291 28229 layer_factory.hpp:76] Creating layer loss1/classifier2
I1028 13:41:32.686300 28229 net.cpp:106] Creating Layer loss1/classifier2
I1028 13:41:32.686303 28229 net.cpp:454] loss1/classifier2 <- loss1/fc
I1028 13:41:32.686331 28229 net.cpp:411] loss1/classifier2 -> loss1/classifier
I1028 13:41:32.686450 28229 net.cpp:150] Setting up loss1/classifier2
I1028 13:41:32.686461 28229 net.cpp:157] Top shape: 32 2 (64)
I1028 13:41:32.686465 28229 net.cpp:165] Memory required for data: 1261585152
I1028 13:41:32.686473 28229 layer_factory.hpp:76] Creating layer loss1/loss
I1028 13:41:32.686483 28229 net.cpp:106] Creating Layer loss1/loss
I1028 13:41:32.686487 28229 net.cpp:454] loss1/loss <- loss1/classifier
I1028 13:41:32.686493 28229 net.cpp:454] loss1/loss <- label_data_1_split_0
I1028 13:41:32.686499 28229 net.cpp:411] loss1/loss -> loss1/loss1
I1028 13:41:32.686514 28229 layer_factory.hpp:76] Creating layer loss1/loss
I1028 13:41:32.686872 28229 net.cpp:150] Setting up loss1/loss
I1028 13:41:32.686889 28229 net.cpp:157] Top shape: (1)
I1028 13:41:32.686894 28229 net.cpp:160]     with loss weight 0.3
I1028 13:41:32.686923 28229 net.cpp:165] Memory required for data: 1261585156
I1028 13:41:32.686928 28229 layer_factory.hpp:76] Creating layer inception_4b/1x1
I1028 13:41:32.686951 28229 net.cpp:106] Creating Layer inception_4b/1x1
I1028 13:41:32.686957 28229 net.cpp:454] inception_4b/1x1 <- inception_4a/output_inception_4a/output_0_split_1
I1028 13:41:32.686966 28229 net.cpp:411] inception_4b/1x1 -> inception_4b/1x1
I1028 13:41:32.688809 28229 cudnn_conv_layer.cpp:194] Reallocating workspace storage: 10080
I1028 13:41:32.688848 28229 net.cpp:150] Setting up inception_4b/1x1
I1028 13:41:32.688858 28229 net.cpp:157] Top shape: 32 160 14 14 (1003520)
I1028 13:41:32.688861 28229 net.cpp:165] Memory required for data: 1265599236
I1028 13:41:32.688870 28229 layer_factory.hpp:76] Creating layer inception_4b/prelu_1x1
I1028 13:41:32.688892 28229 net.cpp:106] Creating Layer inception_4b/prelu_1x1
I1028 13:41:32.688897 28229 net.cpp:454] inception_4b/prelu_1x1 <- inception_4b/1x1
I1028 13:41:32.688905 28229 net.cpp:397] inception_4b/prelu_1x1 -> inception_4b/1x1 (in-place)
I1028 13:41:32.689581 28229 net.cpp:150] Setting up inception_4b/prelu_1x1
I1028 13:41:32.689599 28229 net.cpp:157] Top shape: 32 160 14 14 (1003520)
I1028 13:41:32.689604 28229 net.cpp:165] Memory required for data: 1269613316
I1028 13:41:32.689611 28229 layer_factory.hpp:76] Creating layer inception_4b/3x3_reduce
I1028 13:41:32.689625 28229 net.cpp:106] Creating Layer inception_4b/3x3_reduce
I1028 13:41:32.689630 28229 net.cpp:454] inception_4b/3x3_reduce <- inception_4a/output_inception_4a/output_0_split_2
I1028 13:41:32.689637 28229 net.cpp:411] inception_4b/3x3_reduce -> inception_4b/3x3_reduce
I1028 13:41:32.691273 28229 cudnn_conv_layer.cpp:194] Reallocating workspace storage: 10080
I1028 13:41:32.691305 28229 net.cpp:150] Setting up inception_4b/3x3_reduce
I1028 13:41:32.691313 28229 net.cpp:157] Top shape: 32 112 14 14 (702464)
I1028 13:41:32.691318 28229 net.cpp:165] Memory required for data: 1272423172
I1028 13:41:32.691324 28229 layer_factory.hpp:76] Creating layer inception_4b/prelu_3x3_reduce
I1028 13:41:32.691334 28229 net.cpp:106] Creating Layer inception_4b/prelu_3x3_reduce
I1028 13:41:32.691340 28229 net.cpp:454] inception_4b/prelu_3x3_reduce <- inception_4b/3x3_reduce
I1028 13:41:32.691347 28229 net.cpp:397] inception_4b/prelu_3x3_reduce -> inception_4b/3x3_reduce (in-place)
I1028 13:41:32.691450 28229 net.cpp:150] Setting up inception_4b/prelu_3x3_reduce
I1028 13:41:32.691459 28229 net.cpp:157] Top shape: 32 112 14 14 (702464)
I1028 13:41:32.691463 28229 net.cpp:165] Memory required for data: 1275233028
I1028 13:41:32.691469 28229 layer_factory.hpp:76] Creating layer inception_4b/3x3
I1028 13:41:32.691480 28229 net.cpp:106] Creating Layer inception_4b/3x3
I1028 13:41:32.691484 28229 net.cpp:454] inception_4b/3x3 <- inception_4b/3x3_reduce
I1028 13:41:32.691490 28229 net.cpp:411] inception_4b/3x3 -> inception_4b/3x3
I1028 13:41:32.694275 28229 cudnn_conv_layer.cpp:194] Reallocating workspace storage: 10080
I1028 13:41:32.694304 28229 net.cpp:150] Setting up inception_4b/3x3
I1028 13:41:32.694311 28229 net.cpp:157] Top shape: 32 224 14 14 (1404928)
I1028 13:41:32.694341 28229 net.cpp:165] Memory required for data: 1280852740
I1028 13:41:32.694350 28229 layer_factory.hpp:76] Creating layer inception_4b/prelu_3x3
I1028 13:41:32.694360 28229 net.cpp:106] Creating Layer inception_4b/prelu_3x3
I1028 13:41:32.694365 28229 net.cpp:454] inception_4b/prelu_3x3 <- inception_4b/3x3
I1028 13:41:32.694371 28229 net.cpp:397] inception_4b/prelu_3x3 -> inception_4b/3x3 (in-place)
I1028 13:41:32.694519 28229 net.cpp:150] Setting up inception_4b/prelu_3x3
I1028 13:41:32.694528 28229 net.cpp:157] Top shape: 32 224 14 14 (1404928)
I1028 13:41:32.694532 28229 net.cpp:165] Memory required for data: 1286472452
I1028 13:41:32.694538 28229 layer_factory.hpp:76] Creating layer inception_4b/5x5_reduce
I1028 13:41:32.694548 28229 net.cpp:106] Creating Layer inception_4b/5x5_reduce
I1028 13:41:32.694552 28229 net.cpp:454] inception_4b/5x5_reduce <- inception_4a/output_inception_4a/output_0_split_3
I1028 13:41:32.694560 28229 net.cpp:411] inception_4b/5x5_reduce -> inception_4b/5x5_reduce
I1028 13:41:32.695441 28229 cudnn_conv_layer.cpp:194] Reallocating workspace storage: 10080
I1028 13:41:32.695472 28229 net.cpp:150] Setting up inception_4b/5x5_reduce
I1028 13:41:32.695480 28229 net.cpp:157] Top shape: 32 24 14 14 (150528)
I1028 13:41:32.695484 28229 net.cpp:165] Memory required for data: 1287074564
I1028 13:41:32.695500 28229 layer_factory.hpp:76] Creating layer inception_4b/prelu_5x5_reduce
I1028 13:41:32.695510 28229 net.cpp:106] Creating Layer inception_4b/prelu_5x5_reduce
I1028 13:41:32.695515 28229 net.cpp:454] inception_4b/prelu_5x5_reduce <- inception_4b/5x5_reduce
I1028 13:41:32.695531 28229 net.cpp:397] inception_4b/prelu_5x5_reduce -> inception_4b/5x5_reduce (in-place)
I1028 13:41:32.695638 28229 net.cpp:150] Setting up inception_4b/prelu_5x5_reduce
I1028 13:41:32.695647 28229 net.cpp:157] Top shape: 32 24 14 14 (150528)
I1028 13:41:32.695652 28229 net.cpp:165] Memory required for data: 1287676676
I1028 13:41:32.695667 28229 layer_factory.hpp:76] Creating layer inception_4b/5x5
I1028 13:41:32.695675 28229 net.cpp:106] Creating Layer inception_4b/5x5
I1028 13:41:32.695680 28229 net.cpp:454] inception_4b/5x5 <- inception_4b/5x5_reduce
I1028 13:41:32.695696 28229 net.cpp:411] inception_4b/5x5 -> inception_4b/5x5
I1028 13:41:32.696938 28229 cudnn_conv_layer.cpp:194] Reallocating workspace storage: 13080
I1028 13:41:32.696962 28229 net.cpp:150] Setting up inception_4b/5x5
I1028 13:41:32.696969 28229 net.cpp:157] Top shape: 32 64 14 14 (401408)
I1028 13:41:32.696974 28229 net.cpp:165] Memory required for data: 1289282308
I1028 13:41:32.696980 28229 layer_factory.hpp:76] Creating layer inception_4b/prelu_5x5
I1028 13:41:32.696987 28229 net.cpp:106] Creating Layer inception_4b/prelu_5x5
I1028 13:41:32.696992 28229 net.cpp:454] inception_4b/prelu_5x5 <- inception_4b/5x5
I1028 13:41:32.697000 28229 net.cpp:397] inception_4b/prelu_5x5 -> inception_4b/5x5 (in-place)
I1028 13:41:32.697095 28229 net.cpp:150] Setting up inception_4b/prelu_5x5
I1028 13:41:32.697104 28229 net.cpp:157] Top shape: 32 64 14 14 (401408)
I1028 13:41:32.697108 28229 net.cpp:165] Memory required for data: 1290887940
I1028 13:41:32.697113 28229 layer_factory.hpp:76] Creating layer inception_4b/pool
I1028 13:41:32.697121 28229 net.cpp:106] Creating Layer inception_4b/pool
I1028 13:41:32.697125 28229 net.cpp:454] inception_4b/pool <- inception_4a/output_inception_4a/output_0_split_4
I1028 13:41:32.697132 28229 net.cpp:411] inception_4b/pool -> inception_4b/pool
I1028 13:41:32.697496 28229 net.cpp:150] Setting up inception_4b/pool
I1028 13:41:32.697507 28229 net.cpp:157] Top shape: 32 512 14 14 (3211264)
I1028 13:41:32.697511 28229 net.cpp:165] Memory required for data: 1303732996
I1028 13:41:32.697516 28229 layer_factory.hpp:76] Creating layer inception_4b/pool_proj
I1028 13:41:32.697526 28229 net.cpp:106] Creating Layer inception_4b/pool_proj
I1028 13:41:32.697530 28229 net.cpp:454] inception_4b/pool_proj <- inception_4b/pool
I1028 13:41:32.697540 28229 net.cpp:411] inception_4b/pool_proj -> inception_4b/pool_proj
I1028 13:41:32.698758 28229 cudnn_conv_layer.cpp:194] Reallocating workspace storage: 10080
I1028 13:41:32.698789 28229 net.cpp:150] Setting up inception_4b/pool_proj
I1028 13:41:32.698796 28229 net.cpp:157] Top shape: 32 64 14 14 (401408)
I1028 13:41:32.698801 28229 net.cpp:165] Memory required for data: 1305338628
I1028 13:41:32.698817 28229 layer_factory.hpp:76] Creating layer inception_4b/prelu_pool_proj
I1028 13:41:32.698825 28229 net.cpp:106] Creating Layer inception_4b/prelu_pool_proj
I1028 13:41:32.698830 28229 net.cpp:454] inception_4b/prelu_pool_proj <- inception_4b/pool_proj
I1028 13:41:32.698848 28229 net.cpp:397] inception_4b/prelu_pool_proj -> inception_4b/pool_proj (in-place)
I1028 13:41:32.698969 28229 net.cpp:150] Setting up inception_4b/prelu_pool_proj
I1028 13:41:32.698977 28229 net.cpp:157] Top shape: 32 64 14 14 (401408)
I1028 13:41:32.698982 28229 net.cpp:165] Memory required for data: 1306944260
I1028 13:41:32.698987 28229 layer_factory.hpp:76] Creating layer inception_4b/output
I1028 13:41:32.698994 28229 net.cpp:106] Creating Layer inception_4b/output
I1028 13:41:32.698998 28229 net.cpp:454] inception_4b/output <- inception_4b/1x1
I1028 13:41:32.699003 28229 net.cpp:454] inception_4b/output <- inception_4b/3x3
I1028 13:41:32.699008 28229 net.cpp:454] inception_4b/output <- inception_4b/5x5
I1028 13:41:32.699012 28229 net.cpp:454] inception_4b/output <- inception_4b/pool_proj
I1028 13:41:32.699018 28229 net.cpp:411] inception_4b/output -> inception_4b/output
I1028 13:41:32.699044 28229 net.cpp:150] Setting up inception_4b/output
I1028 13:41:32.699054 28229 net.cpp:157] Top shape: 32 512 14 14 (3211264)
I1028 13:41:32.699056 28229 net.cpp:165] Memory required for data: 1319789316
I1028 13:41:32.699060 28229 layer_factory.hpp:76] Creating layer inception_4b/output_inception_4b/output_0_split
I1028 13:41:32.699069 28229 net.cpp:106] Creating Layer inception_4b/output_inception_4b/output_0_split
I1028 13:41:32.699072 28229 net.cpp:454] inception_4b/output_inception_4b/output_0_split <- inception_4b/output
I1028 13:41:32.699079 28229 net.cpp:411] inception_4b/output_inception_4b/output_0_split -> inception_4b/output_inception_4b/output_0_split_0
I1028 13:41:32.699084 28229 net.cpp:411] inception_4b/output_inception_4b/output_0_split -> inception_4b/output_inception_4b/output_0_split_1
I1028 13:41:32.699091 28229 net.cpp:411] inception_4b/output_inception_4b/output_0_split -> inception_4b/output_inception_4b/output_0_split_2
I1028 13:41:32.699097 28229 net.cpp:411] inception_4b/output_inception_4b/output_0_split -> inception_4b/output_inception_4b/output_0_split_3
I1028 13:41:32.699163 28229 net.cpp:150] Setting up inception_4b/output_inception_4b/output_0_split
I1028 13:41:32.699172 28229 net.cpp:157] Top shape: 32 512 14 14 (3211264)
I1028 13:41:32.699177 28229 net.cpp:157] Top shape: 32 512 14 14 (3211264)
I1028 13:41:32.699180 28229 net.cpp:157] Top shape: 32 512 14 14 (3211264)
I1028 13:41:32.699185 28229 net.cpp:157] Top shape: 32 512 14 14 (3211264)
I1028 13:41:32.699188 28229 net.cpp:165] Memory required for data: 1371169540
I1028 13:41:32.699193 28229 layer_factory.hpp:76] Creating layer inception_4c/1x1
I1028 13:41:32.699201 28229 net.cpp:106] Creating Layer inception_4c/1x1
I1028 13:41:32.699205 28229 net.cpp:454] inception_4c/1x1 <- inception_4b/output_inception_4b/output_0_split_0
I1028 13:41:32.699221 28229 net.cpp:411] inception_4c/1x1 -> inception_4c/1x1
I1028 13:41:32.700927 28229 cudnn_conv_layer.cpp:194] Reallocating workspace storage: 10080
I1028 13:41:32.700954 28229 net.cpp:150] Setting up inception_4c/1x1
I1028 13:41:32.700961 28229 net.cpp:157] Top shape: 32 128 14 14 (802816)
I1028 13:41:32.700966 28229 net.cpp:165] Memory required for data: 1374380804
I1028 13:41:32.700973 28229 layer_factory.hpp:76] Creating layer inception_4c/prelu_1x1
I1028 13:41:32.700983 28229 net.cpp:106] Creating Layer inception_4c/prelu_1x1
I1028 13:41:32.700987 28229 net.cpp:454] inception_4c/prelu_1x1 <- inception_4c/1x1
I1028 13:41:32.700994 28229 net.cpp:397] inception_4c/prelu_1x1 -> inception_4c/1x1 (in-place)
I1028 13:41:32.701102 28229 net.cpp:150] Setting up inception_4c/prelu_1x1
I1028 13:41:32.701112 28229 net.cpp:157] Top shape: 32 128 14 14 (802816)
I1028 13:41:32.701115 28229 net.cpp:165] Memory required for data: 1377592068
I1028 13:41:32.701122 28229 layer_factory.hpp:76] Creating layer inception_4c/3x3_reduce
I1028 13:41:32.701130 28229 net.cpp:106] Creating Layer inception_4c/3x3_reduce
I1028 13:41:32.701135 28229 net.cpp:454] inception_4c/3x3_reduce <- inception_4b/output_inception_4b/output_0_split_1
I1028 13:41:32.701141 28229 net.cpp:411] inception_4c/3x3_reduce -> inception_4c/3x3_reduce
I1028 13:41:32.702566 28229 cudnn_conv_layer.cpp:194] Reallocating workspace storage: 10080
I1028 13:41:32.702594 28229 net.cpp:150] Setting up inception_4c/3x3_reduce
I1028 13:41:32.702601 28229 net.cpp:157] Top shape: 32 128 14 14 (802816)
I1028 13:41:32.702605 28229 net.cpp:165] Memory required for data: 1380803332
I1028 13:41:32.702613 28229 layer_factory.hpp:76] Creating layer inception_4c/prelu_3x3_reduce
I1028 13:41:32.702622 28229 net.cpp:106] Creating Layer inception_4c/prelu_3x3_reduce
I1028 13:41:32.702627 28229 net.cpp:454] inception_4c/prelu_3x3_reduce <- inception_4c/3x3_reduce
I1028 13:41:32.702633 28229 net.cpp:397] inception_4c/prelu_3x3_reduce -> inception_4c/3x3_reduce (in-place)
I1028 13:41:32.702734 28229 net.cpp:150] Setting up inception_4c/prelu_3x3_reduce
I1028 13:41:32.702744 28229 net.cpp:157] Top shape: 32 128 14 14 (802816)
I1028 13:41:32.702747 28229 net.cpp:165] Memory required for data: 1384014596
I1028 13:41:32.702752 28229 layer_factory.hpp:76] Creating layer inception_4c/3x3
I1028 13:41:32.702762 28229 net.cpp:106] Creating Layer inception_4c/3x3
I1028 13:41:32.702769 28229 net.cpp:454] inception_4c/3x3 <- inception_4c/3x3_reduce
I1028 13:41:32.702775 28229 net.cpp:411] inception_4c/3x3 -> inception_4c/3x3
I1028 13:41:32.706066 28229 cudnn_conv_layer.cpp:194] Reallocating workspace storage: 10080
I1028 13:41:32.706117 28229 net.cpp:150] Setting up inception_4c/3x3
I1028 13:41:32.706127 28229 net.cpp:157] Top shape: 32 256 14 14 (1605632)
I1028 13:41:32.706131 28229 net.cpp:165] Memory required for data: 1390437124
I1028 13:41:32.706151 28229 layer_factory.hpp:76] Creating layer inception_4c/prelu_3x3
I1028 13:41:32.706164 28229 net.cpp:106] Creating Layer inception_4c/prelu_3x3
I1028 13:41:32.706171 28229 net.cpp:454] inception_4c/prelu_3x3 <- inception_4c/3x3
I1028 13:41:32.706181 28229 net.cpp:397] inception_4c/prelu_3x3 -> inception_4c/3x3 (in-place)
I1028 13:41:32.706343 28229 net.cpp:150] Setting up inception_4c/prelu_3x3
I1028 13:41:32.706354 28229 net.cpp:157] Top shape: 32 256 14 14 (1605632)
I1028 13:41:32.706358 28229 net.cpp:165] Memory required for data: 1396859652
I1028 13:41:32.706374 28229 layer_factory.hpp:76] Creating layer inception_4c/5x5_reduce
I1028 13:41:32.706388 28229 net.cpp:106] Creating Layer inception_4c/5x5_reduce
I1028 13:41:32.706393 28229 net.cpp:454] inception_4c/5x5_reduce <- inception_4b/output_inception_4b/output_0_split_2
I1028 13:41:32.706413 28229 net.cpp:411] inception_4c/5x5_reduce -> inception_4c/5x5_reduce
I1028 13:41:32.707564 28229 cudnn_conv_layer.cpp:194] Reallocating workspace storage: 10080
I1028 13:41:32.707595 28229 net.cpp:150] Setting up inception_4c/5x5_reduce
I1028 13:41:32.707603 28229 net.cpp:157] Top shape: 32 24 14 14 (150528)
I1028 13:41:32.707607 28229 net.cpp:165] Memory required for data: 1397461764
I1028 13:41:32.707615 28229 layer_factory.hpp:76] Creating layer inception_4c/prelu_5x5_reduce
I1028 13:41:32.707626 28229 net.cpp:106] Creating Layer inception_4c/prelu_5x5_reduce
I1028 13:41:32.707631 28229 net.cpp:454] inception_4c/prelu_5x5_reduce <- inception_4c/5x5_reduce
I1028 13:41:32.707638 28229 net.cpp:397] inception_4c/prelu_5x5_reduce -> inception_4c/5x5_reduce (in-place)
I1028 13:41:32.707758 28229 net.cpp:150] Setting up inception_4c/prelu_5x5_reduce
I1028 13:41:32.707768 28229 net.cpp:157] Top shape: 32 24 14 14 (150528)
I1028 13:41:32.707772 28229 net.cpp:165] Memory required for data: 1398063876
I1028 13:41:32.707805 28229 layer_factory.hpp:76] Creating layer inception_4c/5x5
I1028 13:41:32.707826 28229 net.cpp:106] Creating Layer inception_4c/5x5
I1028 13:41:32.707830 28229 net.cpp:454] inception_4c/5x5 <- inception_4c/5x5_reduce
I1028 13:41:32.707839 28229 net.cpp:411] inception_4c/5x5 -> inception_4c/5x5
I1028 13:41:32.709631 28229 cudnn_conv_layer.cpp:194] Reallocating workspace storage: 13080
I1028 13:41:32.709671 28229 net.cpp:150] Setting up inception_4c/5x5
I1028 13:41:32.709679 28229 net.cpp:157] Top shape: 32 64 14 14 (401408)
I1028 13:41:32.709683 28229 net.cpp:165] Memory required for data: 1399669508
I1028 13:41:32.709692 28229 layer_factory.hpp:76] Creating layer inception_4c/prelu_5x5
I1028 13:41:32.709704 28229 net.cpp:106] Creating Layer inception_4c/prelu_5x5
I1028 13:41:32.709710 28229 net.cpp:454] inception_4c/prelu_5x5 <- inception_4c/5x5
I1028 13:41:32.709718 28229 net.cpp:397] inception_4c/prelu_5x5 -> inception_4c/5x5 (in-place)
I1028 13:41:32.709897 28229 net.cpp:150] Setting up inception_4c/prelu_5x5
I1028 13:41:32.709916 28229 net.cpp:157] Top shape: 32 64 14 14 (401408)
I1028 13:41:32.709930 28229 net.cpp:165] Memory required for data: 1401275140
I1028 13:41:32.709936 28229 layer_factory.hpp:76] Creating layer inception_4c/pool
I1028 13:41:32.709945 28229 net.cpp:106] Creating Layer inception_4c/pool
I1028 13:41:32.709950 28229 net.cpp:454] inception_4c/pool <- inception_4b/output_inception_4b/output_0_split_3
I1028 13:41:32.709959 28229 net.cpp:411] inception_4c/pool -> inception_4c/pool
I1028 13:41:32.710189 28229 net.cpp:150] Setting up inception_4c/pool
I1028 13:41:32.710201 28229 net.cpp:157] Top shape: 32 512 14 14 (3211264)
I1028 13:41:32.710204 28229 net.cpp:165] Memory required for data: 1414120196
I1028 13:41:32.710208 28229 layer_factory.hpp:76] Creating layer inception_4c/pool_proj
I1028 13:41:32.710217 28229 net.cpp:106] Creating Layer inception_4c/pool_proj
I1028 13:41:32.710222 28229 net.cpp:454] inception_4c/pool_proj <- inception_4c/pool
I1028 13:41:32.710240 28229 net.cpp:411] inception_4c/pool_proj -> inception_4c/pool_proj
I1028 13:41:32.711665 28229 cudnn_conv_layer.cpp:194] Reallocating workspace storage: 10080
I1028 13:41:32.711699 28229 net.cpp:150] Setting up inception_4c/pool_proj
I1028 13:41:32.711707 28229 net.cpp:157] Top shape: 32 64 14 14 (401408)
I1028 13:41:32.711712 28229 net.cpp:165] Memory required for data: 1415725828
I1028 13:41:32.711719 28229 layer_factory.hpp:76] Creating layer inception_4c/prelu_pool_proj
I1028 13:41:32.711727 28229 net.cpp:106] Creating Layer inception_4c/prelu_pool_proj
I1028 13:41:32.711733 28229 net.cpp:454] inception_4c/prelu_pool_proj <- inception_4c/pool_proj
I1028 13:41:32.711742 28229 net.cpp:397] inception_4c/prelu_pool_proj -> inception_4c/pool_proj (in-place)
I1028 13:41:32.711850 28229 net.cpp:150] Setting up inception_4c/prelu_pool_proj
I1028 13:41:32.711859 28229 net.cpp:157] Top shape: 32 64 14 14 (401408)
I1028 13:41:32.711863 28229 net.cpp:165] Memory required for data: 1417331460
I1028 13:41:32.711869 28229 layer_factory.hpp:76] Creating layer inception_4c/output
I1028 13:41:32.711876 28229 net.cpp:106] Creating Layer inception_4c/output
I1028 13:41:32.711881 28229 net.cpp:454] inception_4c/output <- inception_4c/1x1
I1028 13:41:32.711886 28229 net.cpp:454] inception_4c/output <- inception_4c/3x3
I1028 13:41:32.711891 28229 net.cpp:454] inception_4c/output <- inception_4c/5x5
I1028 13:41:32.711896 28229 net.cpp:454] inception_4c/output <- inception_4c/pool_proj
I1028 13:41:32.711902 28229 net.cpp:411] inception_4c/output -> inception_4c/output
I1028 13:41:32.711931 28229 net.cpp:150] Setting up inception_4c/output
I1028 13:41:32.711940 28229 net.cpp:157] Top shape: 32 512 14 14 (3211264)
I1028 13:41:32.711943 28229 net.cpp:165] Memory required for data: 1430176516
I1028 13:41:32.711948 28229 layer_factory.hpp:76] Creating layer inception_4c/output_inception_4c/output_0_split
I1028 13:41:32.711957 28229 net.cpp:106] Creating Layer inception_4c/output_inception_4c/output_0_split
I1028 13:41:32.711978 28229 net.cpp:454] inception_4c/output_inception_4c/output_0_split <- inception_4c/output
I1028 13:41:32.711985 28229 net.cpp:411] inception_4c/output_inception_4c/output_0_split -> inception_4c/output_inception_4c/output_0_split_0
I1028 13:41:32.711992 28229 net.cpp:411] inception_4c/output_inception_4c/output_0_split -> inception_4c/output_inception_4c/output_0_split_1
I1028 13:41:32.712000 28229 net.cpp:411] inception_4c/output_inception_4c/output_0_split -> inception_4c/output_inception_4c/output_0_split_2
I1028 13:41:32.712007 28229 net.cpp:411] inception_4c/output_inception_4c/output_0_split -> inception_4c/output_inception_4c/output_0_split_3
I1028 13:41:32.712074 28229 net.cpp:150] Setting up inception_4c/output_inception_4c/output_0_split
I1028 13:41:32.712085 28229 net.cpp:157] Top shape: 32 512 14 14 (3211264)
I1028 13:41:32.712090 28229 net.cpp:157] Top shape: 32 512 14 14 (3211264)
I1028 13:41:32.712093 28229 net.cpp:157] Top shape: 32 512 14 14 (3211264)
I1028 13:41:32.712098 28229 net.cpp:157] Top shape: 32 512 14 14 (3211264)
I1028 13:41:32.712102 28229 net.cpp:165] Memory required for data: 1481556740
I1028 13:41:32.712106 28229 layer_factory.hpp:76] Creating layer inception_4d/1x1
I1028 13:41:32.712116 28229 net.cpp:106] Creating Layer inception_4d/1x1
I1028 13:41:32.712121 28229 net.cpp:454] inception_4d/1x1 <- inception_4c/output_inception_4c/output_0_split_0
I1028 13:41:32.712127 28229 net.cpp:411] inception_4d/1x1 -> inception_4d/1x1
I1028 13:41:32.713618 28229 cudnn_conv_layer.cpp:194] Reallocating workspace storage: 10080
I1028 13:41:32.713654 28229 net.cpp:150] Setting up inception_4d/1x1
I1028 13:41:32.713665 28229 net.cpp:157] Top shape: 32 112 14 14 (702464)
I1028 13:41:32.713668 28229 net.cpp:165] Memory required for data: 1484366596
I1028 13:41:32.713677 28229 layer_factory.hpp:76] Creating layer inception_4d/prelu_1x1
I1028 13:41:32.713690 28229 net.cpp:106] Creating Layer inception_4d/prelu_1x1
I1028 13:41:32.713695 28229 net.cpp:454] inception_4d/prelu_1x1 <- inception_4d/1x1
I1028 13:41:32.713701 28229 net.cpp:397] inception_4d/prelu_1x1 -> inception_4d/1x1 (in-place)
I1028 13:41:32.713829 28229 net.cpp:150] Setting up inception_4d/prelu_1x1
I1028 13:41:32.713838 28229 net.cpp:157] Top shape: 32 112 14 14 (702464)
I1028 13:41:32.713842 28229 net.cpp:165] Memory required for data: 1487176452
I1028 13:41:32.713848 28229 layer_factory.hpp:76] Creating layer inception_4d/3x3_reduce
I1028 13:41:32.713860 28229 net.cpp:106] Creating Layer inception_4d/3x3_reduce
I1028 13:41:32.713865 28229 net.cpp:454] inception_4d/3x3_reduce <- inception_4c/output_inception_4c/output_0_split_1
I1028 13:41:32.713871 28229 net.cpp:411] inception_4d/3x3_reduce -> inception_4d/3x3_reduce
I1028 13:41:32.715531 28229 cudnn_conv_layer.cpp:194] Reallocating workspace storage: 10080
I1028 13:41:32.715579 28229 net.cpp:150] Setting up inception_4d/3x3_reduce
I1028 13:41:32.715597 28229 net.cpp:157] Top shape: 32 144 14 14 (903168)
I1028 13:41:32.715612 28229 net.cpp:165] Memory required for data: 1490789124
I1028 13:41:32.715620 28229 layer_factory.hpp:76] Creating layer inception_4d/prelu_3x3_reduce
I1028 13:41:32.715631 28229 net.cpp:106] Creating Layer inception_4d/prelu_3x3_reduce
I1028 13:41:32.715637 28229 net.cpp:454] inception_4d/prelu_3x3_reduce <- inception_4d/3x3_reduce
I1028 13:41:32.715644 28229 net.cpp:397] inception_4d/prelu_3x3_reduce -> inception_4d/3x3_reduce (in-place)
I1028 13:41:32.715775 28229 net.cpp:150] Setting up inception_4d/prelu_3x3_reduce
I1028 13:41:32.715785 28229 net.cpp:157] Top shape: 32 144 14 14 (903168)
I1028 13:41:32.715788 28229 net.cpp:165] Memory required for data: 1494401796
I1028 13:41:32.715795 28229 layer_factory.hpp:76] Creating layer inception_4d/3x3
I1028 13:41:32.715803 28229 net.cpp:106] Creating Layer inception_4d/3x3
I1028 13:41:32.715808 28229 net.cpp:454] inception_4d/3x3 <- inception_4d/3x3_reduce
I1028 13:41:32.715816 28229 net.cpp:411] inception_4d/3x3 -> inception_4d/3x3
I1028 13:41:32.719781 28229 cudnn_conv_layer.cpp:194] Reallocating workspace storage: 10080
I1028 13:41:32.719873 28229 net.cpp:150] Setting up inception_4d/3x3
I1028 13:41:32.719885 28229 net.cpp:157] Top shape: 32 288 14 14 (1806336)
I1028 13:41:32.719890 28229 net.cpp:165] Memory required for data: 1501627140
I1028 13:41:32.719900 28229 layer_factory.hpp:76] Creating layer inception_4d/prelu_3x3
I1028 13:41:32.719913 28229 net.cpp:106] Creating Layer inception_4d/prelu_3x3
I1028 13:41:32.719920 28229 net.cpp:454] inception_4d/prelu_3x3 <- inception_4d/3x3
I1028 13:41:32.719929 28229 net.cpp:397] inception_4d/prelu_3x3 -> inception_4d/3x3 (in-place)
I1028 13:41:32.720113 28229 net.cpp:150] Setting up inception_4d/prelu_3x3
I1028 13:41:32.720125 28229 net.cpp:157] Top shape: 32 288 14 14 (1806336)
I1028 13:41:32.720129 28229 net.cpp:165] Memory required for data: 1508852484
I1028 13:41:32.720134 28229 layer_factory.hpp:76] Creating layer inception_4d/5x5_reduce
I1028 13:41:32.720147 28229 net.cpp:106] Creating Layer inception_4d/5x5_reduce
I1028 13:41:32.720154 28229 net.cpp:454] inception_4d/5x5_reduce <- inception_4c/output_inception_4c/output_0_split_2
I1028 13:41:32.720161 28229 net.cpp:411] inception_4d/5x5_reduce -> inception_4d/5x5_reduce
I1028 13:41:32.721420 28229 cudnn_conv_layer.cpp:194] Reallocating workspace storage: 10080
I1028 13:41:32.721451 28229 net.cpp:150] Setting up inception_4d/5x5_reduce
I1028 13:41:32.721459 28229 net.cpp:157] Top shape: 32 32 14 14 (200704)
I1028 13:41:32.721464 28229 net.cpp:165] Memory required for data: 1509655300
I1028 13:41:32.721472 28229 layer_factory.hpp:76] Creating layer inception_4d/prelu_5x5_reduce
I1028 13:41:32.721492 28229 net.cpp:106] Creating Layer inception_4d/prelu_5x5_reduce
I1028 13:41:32.721498 28229 net.cpp:454] inception_4d/prelu_5x5_reduce <- inception_4d/5x5_reduce
I1028 13:41:32.721505 28229 net.cpp:397] inception_4d/prelu_5x5_reduce -> inception_4d/5x5_reduce (in-place)
I1028 13:41:32.721626 28229 net.cpp:150] Setting up inception_4d/prelu_5x5_reduce
I1028 13:41:32.721634 28229 net.cpp:157] Top shape: 32 32 14 14 (200704)
I1028 13:41:32.721638 28229 net.cpp:165] Memory required for data: 1510458116
I1028 13:41:32.721644 28229 layer_factory.hpp:76] Creating layer inception_4d/5x5
I1028 13:41:32.721654 28229 net.cpp:106] Creating Layer inception_4d/5x5
I1028 13:41:32.721659 28229 net.cpp:454] inception_4d/5x5 <- inception_4d/5x5_reduce
I1028 13:41:32.721665 28229 net.cpp:411] inception_4d/5x5 -> inception_4d/5x5
I1028 13:41:32.723570 28229 cudnn_conv_layer.cpp:194] Reallocating workspace storage: 13080
I1028 13:41:32.723625 28229 net.cpp:150] Setting up inception_4d/5x5
I1028 13:41:32.723644 28229 net.cpp:157] Top shape: 32 64 14 14 (401408)
I1028 13:41:32.723649 28229 net.cpp:165] Memory required for data: 1512063748
I1028 13:41:32.723657 28229 layer_factory.hpp:76] Creating layer inception_4d/prelu_5x5
I1028 13:41:32.723667 28229 net.cpp:106] Creating Layer inception_4d/prelu_5x5
I1028 13:41:32.723673 28229 net.cpp:454] inception_4d/prelu_5x5 <- inception_4d/5x5
I1028 13:41:32.723681 28229 net.cpp:397] inception_4d/prelu_5x5 -> inception_4d/5x5 (in-place)
I1028 13:41:32.723803 28229 net.cpp:150] Setting up inception_4d/prelu_5x5
I1028 13:41:32.723814 28229 net.cpp:157] Top shape: 32 64 14 14 (401408)
I1028 13:41:32.723817 28229 net.cpp:165] Memory required for data: 1513669380
I1028 13:41:32.723822 28229 layer_factory.hpp:76] Creating layer inception_4d/pool
I1028 13:41:32.723830 28229 net.cpp:106] Creating Layer inception_4d/pool
I1028 13:41:32.723835 28229 net.cpp:454] inception_4d/pool <- inception_4c/output_inception_4c/output_0_split_3
I1028 13:41:32.723841 28229 net.cpp:411] inception_4d/pool -> inception_4d/pool
I1028 13:41:32.724048 28229 net.cpp:150] Setting up inception_4d/pool
I1028 13:41:32.724058 28229 net.cpp:157] Top shape: 32 512 14 14 (3211264)
I1028 13:41:32.724062 28229 net.cpp:165] Memory required for data: 1526514436
I1028 13:41:32.724066 28229 layer_factory.hpp:76] Creating layer inception_4d/pool_proj
I1028 13:41:32.724076 28229 net.cpp:106] Creating Layer inception_4d/pool_proj
I1028 13:41:32.724081 28229 net.cpp:454] inception_4d/pool_proj <- inception_4d/pool
I1028 13:41:32.724100 28229 net.cpp:411] inception_4d/pool_proj -> inception_4d/pool_proj
I1028 13:41:32.725334 28229 cudnn_conv_layer.cpp:194] Reallocating workspace storage: 10080
I1028 13:41:32.725364 28229 net.cpp:150] Setting up inception_4d/pool_proj
I1028 13:41:32.725371 28229 net.cpp:157] Top shape: 32 64 14 14 (401408)
I1028 13:41:32.725375 28229 net.cpp:165] Memory required for data: 1528120068
I1028 13:41:32.725383 28229 layer_factory.hpp:76] Creating layer inception_4d/prelu_pool_proj
I1028 13:41:32.725392 28229 net.cpp:106] Creating Layer inception_4d/prelu_pool_proj
I1028 13:41:32.725399 28229 net.cpp:454] inception_4d/prelu_pool_proj <- inception_4d/pool_proj
I1028 13:41:32.725405 28229 net.cpp:397] inception_4d/prelu_pool_proj -> inception_4d/pool_proj (in-place)
I1028 13:41:32.725528 28229 net.cpp:150] Setting up inception_4d/prelu_pool_proj
I1028 13:41:32.725538 28229 net.cpp:157] Top shape: 32 64 14 14 (401408)
I1028 13:41:32.725541 28229 net.cpp:165] Memory required for data: 1529725700
I1028 13:41:32.725546 28229 layer_factory.hpp:76] Creating layer inception_4d/output
I1028 13:41:32.725553 28229 net.cpp:106] Creating Layer inception_4d/output
I1028 13:41:32.725558 28229 net.cpp:454] inception_4d/output <- inception_4d/1x1
I1028 13:41:32.725563 28229 net.cpp:454] inception_4d/output <- inception_4d/3x3
I1028 13:41:32.725567 28229 net.cpp:454] inception_4d/output <- inception_4d/5x5
I1028 13:41:32.725572 28229 net.cpp:454] inception_4d/output <- inception_4d/pool_proj
I1028 13:41:32.725579 28229 net.cpp:411] inception_4d/output -> inception_4d/output
I1028 13:41:32.725606 28229 net.cpp:150] Setting up inception_4d/output
I1028 13:41:32.725615 28229 net.cpp:157] Top shape: 32 528 14 14 (3311616)
I1028 13:41:32.725618 28229 net.cpp:165] Memory required for data: 1542972164
I1028 13:41:32.725622 28229 layer_factory.hpp:76] Creating layer inception_4d/output_inception_4d/output_0_split
I1028 13:41:32.725630 28229 net.cpp:106] Creating Layer inception_4d/output_inception_4d/output_0_split
I1028 13:41:32.725633 28229 net.cpp:454] inception_4d/output_inception_4d/output_0_split <- inception_4d/output
I1028 13:41:32.725638 28229 net.cpp:411] inception_4d/output_inception_4d/output_0_split -> inception_4d/output_inception_4d/output_0_split_0
I1028 13:41:32.725646 28229 net.cpp:411] inception_4d/output_inception_4d/output_0_split -> inception_4d/output_inception_4d/output_0_split_1
I1028 13:41:32.725653 28229 net.cpp:411] inception_4d/output_inception_4d/output_0_split -> inception_4d/output_inception_4d/output_0_split_2
I1028 13:41:32.725661 28229 net.cpp:411] inception_4d/output_inception_4d/output_0_split -> inception_4d/output_inception_4d/output_0_split_3
I1028 13:41:32.725666 28229 net.cpp:411] inception_4d/output_inception_4d/output_0_split -> inception_4d/output_inception_4d/output_0_split_4
I1028 13:41:32.725736 28229 net.cpp:150] Setting up inception_4d/output_inception_4d/output_0_split
I1028 13:41:32.725744 28229 net.cpp:157] Top shape: 32 528 14 14 (3311616)
I1028 13:41:32.725749 28229 net.cpp:157] Top shape: 32 528 14 14 (3311616)
I1028 13:41:32.725754 28229 net.cpp:157] Top shape: 32 528 14 14 (3311616)
I1028 13:41:32.725759 28229 net.cpp:157] Top shape: 32 528 14 14 (3311616)
I1028 13:41:32.725762 28229 net.cpp:157] Top shape: 32 528 14 14 (3311616)
I1028 13:41:32.725766 28229 net.cpp:165] Memory required for data: 1609204484
I1028 13:41:32.725770 28229 layer_factory.hpp:76] Creating layer loss2/ave_pool
I1028 13:41:32.725777 28229 net.cpp:106] Creating Layer loss2/ave_pool
I1028 13:41:32.725781 28229 net.cpp:454] loss2/ave_pool <- inception_4d/output_inception_4d/output_0_split_0
I1028 13:41:32.725787 28229 net.cpp:411] loss2/ave_pool -> loss2/ave_pool
I1028 13:41:32.726150 28229 net.cpp:150] Setting up loss2/ave_pool
I1028 13:41:32.726163 28229 net.cpp:157] Top shape: 32 528 4 4 (270336)
I1028 13:41:32.726167 28229 net.cpp:165] Memory required for data: 1610285828
I1028 13:41:32.726172 28229 layer_factory.hpp:76] Creating layer loss2/conv
I1028 13:41:32.726191 28229 net.cpp:106] Creating Layer loss2/conv
I1028 13:41:32.726197 28229 net.cpp:454] loss2/conv <- loss2/ave_pool
I1028 13:41:32.726202 28229 net.cpp:411] loss2/conv -> loss2/conv
I1028 13:41:32.727634 28229 cudnn_conv_layer.cpp:194] Reallocating workspace storage: 6840
I1028 13:41:32.727660 28229 net.cpp:150] Setting up loss2/conv
I1028 13:41:32.727669 28229 net.cpp:157] Top shape: 32 128 4 4 (65536)
I1028 13:41:32.727674 28229 net.cpp:165] Memory required for data: 1610547972
I1028 13:41:32.727680 28229 layer_factory.hpp:76] Creating layer loss2/prelu_conv
I1028 13:41:32.727689 28229 net.cpp:106] Creating Layer loss2/prelu_conv
I1028 13:41:32.727694 28229 net.cpp:454] loss2/prelu_conv <- loss2/conv
I1028 13:41:32.727700 28229 net.cpp:397] loss2/prelu_conv -> loss2/conv (in-place)
I1028 13:41:32.727795 28229 net.cpp:150] Setting up loss2/prelu_conv
I1028 13:41:32.727804 28229 net.cpp:157] Top shape: 32 128 4 4 (65536)
I1028 13:41:32.727808 28229 net.cpp:165] Memory required for data: 1610810116
I1028 13:41:32.727813 28229 layer_factory.hpp:76] Creating layer loss2/fc
I1028 13:41:32.727820 28229 net.cpp:106] Creating Layer loss2/fc
I1028 13:41:32.727825 28229 net.cpp:454] loss2/fc <- loss2/conv
I1028 13:41:32.727833 28229 net.cpp:411] loss2/fc -> loss2/fc
I1028 13:41:32.742820 28229 net.cpp:150] Setting up loss2/fc
I1028 13:41:32.742880 28229 net.cpp:157] Top shape: 32 1024 (32768)
I1028 13:41:32.742887 28229 net.cpp:165] Memory required for data: 1610941188
I1028 13:41:32.742939 28229 layer_factory.hpp:76] Creating layer loss2/prelu_fc
I1028 13:41:32.742961 28229 net.cpp:106] Creating Layer loss2/prelu_fc
I1028 13:41:32.742971 28229 net.cpp:454] loss2/prelu_fc <- loss2/fc
I1028 13:41:32.742986 28229 net.cpp:397] loss2/prelu_fc -> loss2/fc (in-place)
I1028 13:41:32.743129 28229 net.cpp:150] Setting up loss2/prelu_fc
I1028 13:41:32.743144 28229 net.cpp:157] Top shape: 32 1024 (32768)
I1028 13:41:32.743157 28229 net.cpp:165] Memory required for data: 1611072260
I1028 13:41:32.743165 28229 layer_factory.hpp:76] Creating layer loss2/drop_fc
I1028 13:41:32.743173 28229 net.cpp:106] Creating Layer loss2/drop_fc
I1028 13:41:32.743178 28229 net.cpp:454] loss2/drop_fc <- loss2/fc
I1028 13:41:32.743183 28229 net.cpp:397] loss2/drop_fc -> loss2/fc (in-place)
I1028 13:41:32.743228 28229 net.cpp:150] Setting up loss2/drop_fc
I1028 13:41:32.743257 28229 net.cpp:157] Top shape: 32 1024 (32768)
I1028 13:41:32.743270 28229 net.cpp:165] Memory required for data: 1611203332
I1028 13:41:32.743275 28229 layer_factory.hpp:76] Creating layer loss2/classifier2
I1028 13:41:32.743283 28229 net.cpp:106] Creating Layer loss2/classifier2
I1028 13:41:32.743288 28229 net.cpp:454] loss2/classifier2 <- loss2/fc
I1028 13:41:32.743294 28229 net.cpp:411] loss2/classifier2 -> loss2/classifier
I1028 13:41:32.743448 28229 net.cpp:150] Setting up loss2/classifier2
I1028 13:41:32.743458 28229 net.cpp:157] Top shape: 32 2 (64)
I1028 13:41:32.743461 28229 net.cpp:165] Memory required for data: 1611203588
I1028 13:41:32.743479 28229 layer_factory.hpp:76] Creating layer loss2/loss
I1028 13:41:32.743485 28229 net.cpp:106] Creating Layer loss2/loss
I1028 13:41:32.743489 28229 net.cpp:454] loss2/loss <- loss2/classifier
I1028 13:41:32.743495 28229 net.cpp:454] loss2/loss <- label_data_1_split_1
I1028 13:41:32.743512 28229 net.cpp:411] loss2/loss -> loss2/loss1
I1028 13:41:32.743522 28229 layer_factory.hpp:76] Creating layer loss2/loss
I1028 13:41:32.743861 28229 net.cpp:150] Setting up loss2/loss
I1028 13:41:32.743875 28229 net.cpp:157] Top shape: (1)
I1028 13:41:32.743890 28229 net.cpp:160]     with loss weight 0.3
I1028 13:41:32.743907 28229 net.cpp:165] Memory required for data: 1611203592
I1028 13:41:32.743913 28229 layer_factory.hpp:76] Creating layer inception_4e/1x1
I1028 13:41:32.743934 28229 net.cpp:106] Creating Layer inception_4e/1x1
I1028 13:41:32.743942 28229 net.cpp:454] inception_4e/1x1 <- inception_4d/output_inception_4d/output_0_split_1
I1028 13:41:32.743952 28229 net.cpp:411] inception_4e/1x1 -> inception_4e/1x1
I1028 13:41:32.746738 28229 cudnn_conv_layer.cpp:194] Reallocating workspace storage: 10080
I1028 13:41:32.746803 28229 net.cpp:150] Setting up inception_4e/1x1
I1028 13:41:32.746814 28229 net.cpp:157] Top shape: 32 256 14 14 (1605632)
I1028 13:41:32.746819 28229 net.cpp:165] Memory required for data: 1617626120
I1028 13:41:32.746829 28229 layer_factory.hpp:76] Creating layer inception_4e/prelu_1x1
I1028 13:41:32.746851 28229 net.cpp:106] Creating Layer inception_4e/prelu_1x1
I1028 13:41:32.746860 28229 net.cpp:454] inception_4e/prelu_1x1 <- inception_4e/1x1
I1028 13:41:32.746867 28229 net.cpp:397] inception_4e/prelu_1x1 -> inception_4e/1x1 (in-place)
I1028 13:41:32.747020 28229 net.cpp:150] Setting up inception_4e/prelu_1x1
I1028 13:41:32.747030 28229 net.cpp:157] Top shape: 32 256 14 14 (1605632)
I1028 13:41:32.747043 28229 net.cpp:165] Memory required for data: 1624048648
I1028 13:41:32.747050 28229 layer_factory.hpp:76] Creating layer inception_4e/3x3_reduce
I1028 13:41:32.747061 28229 net.cpp:106] Creating Layer inception_4e/3x3_reduce
I1028 13:41:32.747067 28229 net.cpp:454] inception_4e/3x3_reduce <- inception_4d/output_inception_4d/output_0_split_2
I1028 13:41:32.747074 28229 net.cpp:411] inception_4e/3x3_reduce -> inception_4e/3x3_reduce
I1028 13:41:32.748698 28229 cudnn_conv_layer.cpp:194] Reallocating workspace storage: 10080
I1028 13:41:32.748736 28229 net.cpp:150] Setting up inception_4e/3x3_reduce
I1028 13:41:32.748745 28229 net.cpp:157] Top shape: 32 160 14 14 (1003520)
I1028 13:41:32.748749 28229 net.cpp:165] Memory required for data: 1628062728
I1028 13:41:32.748757 28229 layer_factory.hpp:76] Creating layer inception_4e/prelu_3x3_reduce
I1028 13:41:32.748769 28229 net.cpp:106] Creating Layer inception_4e/prelu_3x3_reduce
I1028 13:41:32.748776 28229 net.cpp:454] inception_4e/prelu_3x3_reduce <- inception_4e/3x3_reduce
I1028 13:41:32.748783 28229 net.cpp:397] inception_4e/prelu_3x3_reduce -> inception_4e/3x3_reduce (in-place)
I1028 13:41:32.748906 28229 net.cpp:150] Setting up inception_4e/prelu_3x3_reduce
I1028 13:41:32.748916 28229 net.cpp:157] Top shape: 32 160 14 14 (1003520)
I1028 13:41:32.748939 28229 net.cpp:165] Memory required for data: 1632076808
I1028 13:41:32.748945 28229 layer_factory.hpp:76] Creating layer inception_4e/3x3
I1028 13:41:32.748955 28229 net.cpp:106] Creating Layer inception_4e/3x3
I1028 13:41:32.748960 28229 net.cpp:454] inception_4e/3x3 <- inception_4e/3x3_reduce
I1028 13:41:32.748970 28229 net.cpp:411] inception_4e/3x3 -> inception_4e/3x3
I1028 13:41:32.753502 28229 cudnn_conv_layer.cpp:194] Reallocating workspace storage: 10080
I1028 13:41:32.753561 28229 net.cpp:150] Setting up inception_4e/3x3
I1028 13:41:32.753572 28229 net.cpp:157] Top shape: 32 320 14 14 (2007040)
I1028 13:41:32.753577 28229 net.cpp:165] Memory required for data: 1640104968
I1028 13:41:32.753597 28229 layer_factory.hpp:76] Creating layer inception_4e/prelu_3x3
I1028 13:41:32.753612 28229 net.cpp:106] Creating Layer inception_4e/prelu_3x3
I1028 13:41:32.753620 28229 net.cpp:454] inception_4e/prelu_3x3 <- inception_4e/3x3
I1028 13:41:32.753629 28229 net.cpp:397] inception_4e/prelu_3x3 -> inception_4e/3x3 (in-place)
I1028 13:41:32.753837 28229 net.cpp:150] Setting up inception_4e/prelu_3x3
I1028 13:41:32.753850 28229 net.cpp:157] Top shape: 32 320 14 14 (2007040)
I1028 13:41:32.753864 28229 net.cpp:165] Memory required for data: 1648133128
I1028 13:41:32.753870 28229 layer_factory.hpp:76] Creating layer inception_4e/5x5_reduce
I1028 13:41:32.753892 28229 net.cpp:106] Creating Layer inception_4e/5x5_reduce
I1028 13:41:32.753898 28229 net.cpp:454] inception_4e/5x5_reduce <- inception_4d/output_inception_4d/output_0_split_3
I1028 13:41:32.753906 28229 net.cpp:411] inception_4e/5x5_reduce -> inception_4e/5x5_reduce
I1028 13:41:32.755177 28229 cudnn_conv_layer.cpp:194] Reallocating workspace storage: 10080
I1028 13:41:32.755213 28229 net.cpp:150] Setting up inception_4e/5x5_reduce
I1028 13:41:32.755223 28229 net.cpp:157] Top shape: 32 32 14 14 (200704)
I1028 13:41:32.755228 28229 net.cpp:165] Memory required for data: 1648935944
I1028 13:41:32.755267 28229 layer_factory.hpp:76] Creating layer inception_4e/prelu_5x5_reduce
I1028 13:41:32.755277 28229 net.cpp:106] Creating Layer inception_4e/prelu_5x5_reduce
I1028 13:41:32.755293 28229 net.cpp:454] inception_4e/prelu_5x5_reduce <- inception_4e/5x5_reduce
I1028 13:41:32.755312 28229 net.cpp:397] inception_4e/prelu_5x5_reduce -> inception_4e/5x5_reduce (in-place)
I1028 13:41:32.755444 28229 net.cpp:150] Setting up inception_4e/prelu_5x5_reduce
I1028 13:41:32.755455 28229 net.cpp:157] Top shape: 32 32 14 14 (200704)
I1028 13:41:32.755470 28229 net.cpp:165] Memory required for data: 1649738760
I1028 13:41:32.755475 28229 layer_factory.hpp:76] Creating layer inception_4e/5x5
I1028 13:41:32.755507 28229 net.cpp:106] Creating Layer inception_4e/5x5
I1028 13:41:32.755523 28229 net.cpp:454] inception_4e/5x5 <- inception_4e/5x5_reduce
I1028 13:41:32.755532 28229 net.cpp:411] inception_4e/5x5 -> inception_4e/5x5
I1028 13:41:32.757913 28229 cudnn_conv_layer.cpp:194] Reallocating workspace storage: 13080
I1028 13:41:32.757949 28229 net.cpp:150] Setting up inception_4e/5x5
I1028 13:41:32.757961 28229 net.cpp:157] Top shape: 32 128 14 14 (802816)
I1028 13:41:32.757964 28229 net.cpp:165] Memory required for data: 1652950024
I1028 13:41:32.757973 28229 layer_factory.hpp:76] Creating layer inception_4e/prelu_5x5
I1028 13:41:32.757987 28229 net.cpp:106] Creating Layer inception_4e/prelu_5x5
I1028 13:41:32.757993 28229 net.cpp:454] inception_4e/prelu_5x5 <- inception_4e/5x5
I1028 13:41:32.758002 28229 net.cpp:397] inception_4e/prelu_5x5 -> inception_4e/5x5 (in-place)
I1028 13:41:32.758146 28229 net.cpp:150] Setting up inception_4e/prelu_5x5
I1028 13:41:32.758157 28229 net.cpp:157] Top shape: 32 128 14 14 (802816)
I1028 13:41:32.758160 28229 net.cpp:165] Memory required for data: 1656161288
I1028 13:41:32.758167 28229 layer_factory.hpp:76] Creating layer inception_4e/pool
I1028 13:41:32.758174 28229 net.cpp:106] Creating Layer inception_4e/pool
I1028 13:41:32.758179 28229 net.cpp:454] inception_4e/pool <- inception_4d/output_inception_4d/output_0_split_4
I1028 13:41:32.758188 28229 net.cpp:411] inception_4e/pool -> inception_4e/pool
I1028 13:41:32.758585 28229 net.cpp:150] Setting up inception_4e/pool
I1028 13:41:32.758599 28229 net.cpp:157] Top shape: 32 528 14 14 (3311616)
I1028 13:41:32.758604 28229 net.cpp:165] Memory required for data: 1669407752
I1028 13:41:32.758608 28229 layer_factory.hpp:76] Creating layer inception_4e/pool_proj
I1028 13:41:32.758620 28229 net.cpp:106] Creating Layer inception_4e/pool_proj
I1028 13:41:32.758625 28229 net.cpp:454] inception_4e/pool_proj <- inception_4e/pool
I1028 13:41:32.758633 28229 net.cpp:411] inception_4e/pool_proj -> inception_4e/pool_proj
I1028 13:41:32.759917 28229 cudnn_conv_layer.cpp:194] Reallocating workspace storage: 10080
I1028 13:41:32.759949 28229 net.cpp:150] Setting up inception_4e/pool_proj
I1028 13:41:32.759966 28229 net.cpp:157] Top shape: 32 128 14 14 (802816)
I1028 13:41:32.759971 28229 net.cpp:165] Memory required for data: 1672619016
I1028 13:41:32.759979 28229 layer_factory.hpp:76] Creating layer inception_4e/prelu_pool_proj
I1028 13:41:32.759989 28229 net.cpp:106] Creating Layer inception_4e/prelu_pool_proj
I1028 13:41:32.759994 28229 net.cpp:454] inception_4e/prelu_pool_proj <- inception_4e/pool_proj
I1028 13:41:32.760012 28229 net.cpp:397] inception_4e/prelu_pool_proj -> inception_4e/pool_proj (in-place)
I1028 13:41:32.760149 28229 net.cpp:150] Setting up inception_4e/prelu_pool_proj
I1028 13:41:32.760159 28229 net.cpp:157] Top shape: 32 128 14 14 (802816)
I1028 13:41:32.760162 28229 net.cpp:165] Memory required for data: 1675830280
I1028 13:41:32.760167 28229 layer_factory.hpp:76] Creating layer inception_4e/output
I1028 13:41:32.760175 28229 net.cpp:106] Creating Layer inception_4e/output
I1028 13:41:32.760179 28229 net.cpp:454] inception_4e/output <- inception_4e/1x1
I1028 13:41:32.760193 28229 net.cpp:454] inception_4e/output <- inception_4e/3x3
I1028 13:41:32.760200 28229 net.cpp:454] inception_4e/output <- inception_4e/5x5
I1028 13:41:32.760203 28229 net.cpp:454] inception_4e/output <- inception_4e/pool_proj
I1028 13:41:32.760228 28229 net.cpp:411] inception_4e/output -> inception_4e/output
I1028 13:41:32.760278 28229 net.cpp:150] Setting up inception_4e/output
I1028 13:41:32.760287 28229 net.cpp:157] Top shape: 32 832 14 14 (5218304)
I1028 13:41:32.760290 28229 net.cpp:165] Memory required for data: 1696703496
I1028 13:41:32.760313 28229 layer_factory.hpp:76] Creating layer pool4/3x3_s2
I1028 13:41:32.760321 28229 net.cpp:106] Creating Layer pool4/3x3_s2
I1028 13:41:32.760325 28229 net.cpp:454] pool4/3x3_s2 <- inception_4e/output
I1028 13:41:32.760332 28229 net.cpp:411] pool4/3x3_s2 -> pool4/3x3_s2
I1028 13:41:32.760740 28229 net.cpp:150] Setting up pool4/3x3_s2
I1028 13:41:32.760751 28229 net.cpp:157] Top shape: 32 832 7 7 (1304576)
I1028 13:41:32.760756 28229 net.cpp:165] Memory required for data: 1701921800
I1028 13:41:32.760769 28229 layer_factory.hpp:76] Creating layer pool4/3x3_s2_pool4/3x3_s2_0_split
I1028 13:41:32.760777 28229 net.cpp:106] Creating Layer pool4/3x3_s2_pool4/3x3_s2_0_split
I1028 13:41:32.760782 28229 net.cpp:454] pool4/3x3_s2_pool4/3x3_s2_0_split <- pool4/3x3_s2
I1028 13:41:32.760788 28229 net.cpp:411] pool4/3x3_s2_pool4/3x3_s2_0_split -> pool4/3x3_s2_pool4/3x3_s2_0_split_0
I1028 13:41:32.760797 28229 net.cpp:411] pool4/3x3_s2_pool4/3x3_s2_0_split -> pool4/3x3_s2_pool4/3x3_s2_0_split_1
I1028 13:41:32.760824 28229 net.cpp:411] pool4/3x3_s2_pool4/3x3_s2_0_split -> pool4/3x3_s2_pool4/3x3_s2_0_split_2
I1028 13:41:32.760831 28229 net.cpp:411] pool4/3x3_s2_pool4/3x3_s2_0_split -> pool4/3x3_s2_pool4/3x3_s2_0_split_3
I1028 13:41:32.760910 28229 net.cpp:150] Setting up pool4/3x3_s2_pool4/3x3_s2_0_split
I1028 13:41:32.760918 28229 net.cpp:157] Top shape: 32 832 7 7 (1304576)
I1028 13:41:32.760923 28229 net.cpp:157] Top shape: 32 832 7 7 (1304576)
I1028 13:41:32.760938 28229 net.cpp:157] Top shape: 32 832 7 7 (1304576)
I1028 13:41:32.760942 28229 net.cpp:157] Top shape: 32 832 7 7 (1304576)
I1028 13:41:32.760946 28229 net.cpp:165] Memory required for data: 1722795016
I1028 13:41:32.760951 28229 layer_factory.hpp:76] Creating layer inception_5a/1x1
I1028 13:41:32.760960 28229 net.cpp:106] Creating Layer inception_5a/1x1
I1028 13:41:32.760967 28229 net.cpp:454] inception_5a/1x1 <- pool4/3x3_s2_pool4/3x3_s2_0_split_0
I1028 13:41:32.760983 28229 net.cpp:411] inception_5a/1x1 -> inception_5a/1x1
I1028 13:41:32.763821 28229 cudnn_conv_layer.cpp:194] Reallocating workspace storage: 7428
I1028 13:41:32.763855 28229 net.cpp:150] Setting up inception_5a/1x1
I1028 13:41:32.763864 28229 net.cpp:157] Top shape: 32 256 7 7 (401408)
I1028 13:41:32.763867 28229 net.cpp:165] Memory required for data: 1724400648
I1028 13:41:32.763875 28229 layer_factory.hpp:76] Creating layer inception_5a/prelu_1x1
I1028 13:41:32.763885 28229 net.cpp:106] Creating Layer inception_5a/prelu_1x1
I1028 13:41:32.763890 28229 net.cpp:454] inception_5a/prelu_1x1 <- inception_5a/1x1
I1028 13:41:32.763897 28229 net.cpp:397] inception_5a/prelu_1x1 -> inception_5a/1x1 (in-place)
I1028 13:41:32.764478 28229 net.cpp:150] Setting up inception_5a/prelu_1x1
I1028 13:41:32.764490 28229 net.cpp:157] Top shape: 32 256 7 7 (401408)
I1028 13:41:32.764494 28229 net.cpp:165] Memory required for data: 1726006280
I1028 13:41:32.764500 28229 layer_factory.hpp:76] Creating layer inception_5a/3x3_reduce
I1028 13:41:32.764510 28229 net.cpp:106] Creating Layer inception_5a/3x3_reduce
I1028 13:41:32.764515 28229 net.cpp:454] inception_5a/3x3_reduce <- pool4/3x3_s2_pool4/3x3_s2_0_split_1
I1028 13:41:32.764523 28229 net.cpp:411] inception_5a/3x3_reduce -> inception_5a/3x3_reduce
I1028 13:41:32.766954 28229 cudnn_conv_layer.cpp:194] Reallocating workspace storage: 7428
I1028 13:41:32.767014 28229 net.cpp:150] Setting up inception_5a/3x3_reduce
I1028 13:41:32.767024 28229 net.cpp:157] Top shape: 32 160 7 7 (250880)
I1028 13:41:32.767030 28229 net.cpp:165] Memory required for data: 1727009800
I1028 13:41:32.767040 28229 layer_factory.hpp:76] Creating layer inception_5a/prelu_3x3_reduce
I1028 13:41:32.767052 28229 net.cpp:106] Creating Layer inception_5a/prelu_3x3_reduce
I1028 13:41:32.767079 28229 net.cpp:454] inception_5a/prelu_3x3_reduce <- inception_5a/3x3_reduce
I1028 13:41:32.767091 28229 net.cpp:397] inception_5a/prelu_3x3_reduce -> inception_5a/3x3_reduce (in-place)
I1028 13:41:32.767213 28229 net.cpp:150] Setting up inception_5a/prelu_3x3_reduce
I1028 13:41:32.767222 28229 net.cpp:157] Top shape: 32 160 7 7 (250880)
I1028 13:41:32.767236 28229 net.cpp:165] Memory required for data: 1728013320
I1028 13:41:32.767242 28229 layer_factory.hpp:76] Creating layer inception_5a/3x3
I1028 13:41:32.767254 28229 net.cpp:106] Creating Layer inception_5a/3x3
I1028 13:41:32.767259 28229 net.cpp:454] inception_5a/3x3 <- inception_5a/3x3_reduce
I1028 13:41:32.767271 28229 net.cpp:411] inception_5a/3x3 -> inception_5a/3x3
I1028 13:41:32.771657 28229 cudnn_conv_layer.cpp:194] Reallocating workspace storage: 7788
I1028 13:41:32.771719 28229 net.cpp:150] Setting up inception_5a/3x3
I1028 13:41:32.771730 28229 net.cpp:157] Top shape: 32 320 7 7 (501760)
I1028 13:41:32.771734 28229 net.cpp:165] Memory required for data: 1730020360
I1028 13:41:32.771744 28229 layer_factory.hpp:76] Creating layer inception_5a/prelu_3x3
I1028 13:41:32.771754 28229 net.cpp:106] Creating Layer inception_5a/prelu_3x3
I1028 13:41:32.771760 28229 net.cpp:454] inception_5a/prelu_3x3 <- inception_5a/3x3
I1028 13:41:32.771771 28229 net.cpp:397] inception_5a/prelu_3x3 -> inception_5a/3x3 (in-place)
I1028 13:41:32.771914 28229 net.cpp:150] Setting up inception_5a/prelu_3x3
I1028 13:41:32.771924 28229 net.cpp:157] Top shape: 32 320 7 7 (501760)
I1028 13:41:32.771939 28229 net.cpp:165] Memory required for data: 1732027400
I1028 13:41:32.771944 28229 layer_factory.hpp:76] Creating layer inception_5a/5x5_reduce
I1028 13:41:32.771955 28229 net.cpp:106] Creating Layer inception_5a/5x5_reduce
I1028 13:41:32.771961 28229 net.cpp:454] inception_5a/5x5_reduce <- pool4/3x3_s2_pool4/3x3_s2_0_split_2
I1028 13:41:32.771968 28229 net.cpp:411] inception_5a/5x5_reduce -> inception_5a/5x5_reduce
I1028 13:41:32.773303 28229 cudnn_conv_layer.cpp:194] Reallocating workspace storage: 7428
I1028 13:41:32.773334 28229 net.cpp:150] Setting up inception_5a/5x5_reduce
I1028 13:41:32.773356 28229 net.cpp:157] Top shape: 32 32 7 7 (50176)
I1028 13:41:32.773361 28229 net.cpp:165] Memory required for data: 1732228104
I1028 13:41:32.773370 28229 layer_factory.hpp:76] Creating layer inception_5a/prelu_5x5_reduce
I1028 13:41:32.773380 28229 net.cpp:106] Creating Layer inception_5a/prelu_5x5_reduce
I1028 13:41:32.773386 28229 net.cpp:454] inception_5a/prelu_5x5_reduce <- inception_5a/5x5_reduce
I1028 13:41:32.773392 28229 net.cpp:397] inception_5a/prelu_5x5_reduce -> inception_5a/5x5_reduce (in-place)
I1028 13:41:32.773530 28229 net.cpp:150] Setting up inception_5a/prelu_5x5_reduce
I1028 13:41:32.773538 28229 net.cpp:157] Top shape: 32 32 7 7 (50176)
I1028 13:41:32.773542 28229 net.cpp:165] Memory required for data: 1732428808
I1028 13:41:32.773548 28229 layer_factory.hpp:76] Creating layer inception_5a/5x5
I1028 13:41:32.773568 28229 net.cpp:106] Creating Layer inception_5a/5x5
I1028 13:41:32.773573 28229 net.cpp:454] inception_5a/5x5 <- inception_5a/5x5_reduce
I1028 13:41:32.773581 28229 net.cpp:411] inception_5a/5x5 -> inception_5a/5x5
I1028 13:41:32.775497 28229 cudnn_conv_layer.cpp:194] Reallocating workspace storage: 9804
I1028 13:41:32.775540 28229 net.cpp:150] Setting up inception_5a/5x5
I1028 13:41:32.775550 28229 net.cpp:157] Top shape: 32 128 7 7 (200704)
I1028 13:41:32.775555 28229 net.cpp:165] Memory required for data: 1733231624
I1028 13:41:32.775575 28229 layer_factory.hpp:76] Creating layer inception_5a/prelu_5x5
I1028 13:41:32.775588 28229 net.cpp:106] Creating Layer inception_5a/prelu_5x5
I1028 13:41:32.775593 28229 net.cpp:454] inception_5a/prelu_5x5 <- inception_5a/5x5
I1028 13:41:32.775601 28229 net.cpp:397] inception_5a/prelu_5x5 -> inception_5a/5x5 (in-place)
I1028 13:41:32.775728 28229 net.cpp:150] Setting up inception_5a/prelu_5x5
I1028 13:41:32.775738 28229 net.cpp:157] Top shape: 32 128 7 7 (200704)
I1028 13:41:32.775763 28229 net.cpp:165] Memory required for data: 1734034440
I1028 13:41:32.775769 28229 layer_factory.hpp:76] Creating layer inception_5a/pool
I1028 13:41:32.775789 28229 net.cpp:106] Creating Layer inception_5a/pool
I1028 13:41:32.775795 28229 net.cpp:454] inception_5a/pool <- pool4/3x3_s2_pool4/3x3_s2_0_split_3
I1028 13:41:32.775802 28229 net.cpp:411] inception_5a/pool -> inception_5a/pool
I1028 13:41:32.776012 28229 net.cpp:150] Setting up inception_5a/pool
I1028 13:41:32.776024 28229 net.cpp:157] Top shape: 32 832 7 7 (1304576)
I1028 13:41:32.776028 28229 net.cpp:165] Memory required for data: 1739252744
I1028 13:41:32.776033 28229 layer_factory.hpp:76] Creating layer inception_5a/pool_proj
I1028 13:41:32.776046 28229 net.cpp:106] Creating Layer inception_5a/pool_proj
I1028 13:41:32.776051 28229 net.cpp:454] inception_5a/pool_proj <- inception_5a/pool
I1028 13:41:32.776058 28229 net.cpp:411] inception_5a/pool_proj -> inception_5a/pool_proj
I1028 13:41:32.778636 28229 cudnn_conv_layer.cpp:194] Reallocating workspace storage: 7428
I1028 13:41:32.778674 28229 net.cpp:150] Setting up inception_5a/pool_proj
I1028 13:41:32.778682 28229 net.cpp:157] Top shape: 32 128 7 7 (200704)
I1028 13:41:32.778687 28229 net.cpp:165] Memory required for data: 1740055560
I1028 13:41:32.778694 28229 layer_factory.hpp:76] Creating layer inception_5a/prelu_pool_proj
I1028 13:41:32.778705 28229 net.cpp:106] Creating Layer inception_5a/prelu_pool_proj
I1028 13:41:32.778710 28229 net.cpp:454] inception_5a/prelu_pool_proj <- inception_5a/pool_proj
I1028 13:41:32.778717 28229 net.cpp:397] inception_5a/prelu_pool_proj -> inception_5a/pool_proj (in-place)
I1028 13:41:32.778839 28229 net.cpp:150] Setting up inception_5a/prelu_pool_proj
I1028 13:41:32.778848 28229 net.cpp:157] Top shape: 32 128 7 7 (200704)
I1028 13:41:32.778852 28229 net.cpp:165] Memory required for data: 1740858376
I1028 13:41:32.778857 28229 layer_factory.hpp:76] Creating layer inception_5a/output
I1028 13:41:32.778866 28229 net.cpp:106] Creating Layer inception_5a/output
I1028 13:41:32.778870 28229 net.cpp:454] inception_5a/output <- inception_5a/1x1
I1028 13:41:32.778875 28229 net.cpp:454] inception_5a/output <- inception_5a/3x3
I1028 13:41:32.778880 28229 net.cpp:454] inception_5a/output <- inception_5a/5x5
I1028 13:41:32.778885 28229 net.cpp:454] inception_5a/output <- inception_5a/pool_proj
I1028 13:41:32.778890 28229 net.cpp:411] inception_5a/output -> inception_5a/output
I1028 13:41:32.778939 28229 net.cpp:150] Setting up inception_5a/output
I1028 13:41:32.778969 28229 net.cpp:157] Top shape: 32 832 7 7 (1304576)
I1028 13:41:32.778972 28229 net.cpp:165] Memory required for data: 1746076680
I1028 13:41:32.778976 28229 layer_factory.hpp:76] Creating layer inception_5a/output_inception_5a/output_0_split
I1028 13:41:32.778983 28229 net.cpp:106] Creating Layer inception_5a/output_inception_5a/output_0_split
I1028 13:41:32.778987 28229 net.cpp:454] inception_5a/output_inception_5a/output_0_split <- inception_5a/output
I1028 13:41:32.778995 28229 net.cpp:411] inception_5a/output_inception_5a/output_0_split -> inception_5a/output_inception_5a/output_0_split_0
I1028 13:41:32.779022 28229 net.cpp:411] inception_5a/output_inception_5a/output_0_split -> inception_5a/output_inception_5a/output_0_split_1
I1028 13:41:32.779031 28229 net.cpp:411] inception_5a/output_inception_5a/output_0_split -> inception_5a/output_inception_5a/output_0_split_2
I1028 13:41:32.779037 28229 net.cpp:411] inception_5a/output_inception_5a/output_0_split -> inception_5a/output_inception_5a/output_0_split_3
I1028 13:41:32.779129 28229 net.cpp:150] Setting up inception_5a/output_inception_5a/output_0_split
I1028 13:41:32.779136 28229 net.cpp:157] Top shape: 32 832 7 7 (1304576)
I1028 13:41:32.779151 28229 net.cpp:157] Top shape: 32 832 7 7 (1304576)
I1028 13:41:32.779156 28229 net.cpp:157] Top shape: 32 832 7 7 (1304576)
I1028 13:41:32.779161 28229 net.cpp:157] Top shape: 32 832 7 7 (1304576)
I1028 13:41:32.779165 28229 net.cpp:165] Memory required for data: 1766949896
I1028 13:41:32.779181 28229 layer_factory.hpp:76] Creating layer inception_5b/1x1
I1028 13:41:32.779189 28229 net.cpp:106] Creating Layer inception_5b/1x1
I1028 13:41:32.779194 28229 net.cpp:454] inception_5b/1x1 <- inception_5a/output_inception_5a/output_0_split_0
I1028 13:41:32.779201 28229 net.cpp:411] inception_5b/1x1 -> inception_5b/1x1
I1028 13:41:32.782783 28229 cudnn_conv_layer.cpp:194] Reallocating workspace storage: 7428
I1028 13:41:32.782843 28229 net.cpp:150] Setting up inception_5b/1x1
I1028 13:41:32.782852 28229 net.cpp:157] Top shape: 32 384 7 7 (602112)
I1028 13:41:32.782856 28229 net.cpp:165] Memory required for data: 1769358344
I1028 13:41:32.782865 28229 layer_factory.hpp:76] Creating layer inception_5b/prelu_1x1
I1028 13:41:32.782886 28229 net.cpp:106] Creating Layer inception_5b/prelu_1x1
I1028 13:41:32.782891 28229 net.cpp:454] inception_5b/prelu_1x1 <- inception_5b/1x1
I1028 13:41:32.782899 28229 net.cpp:397] inception_5b/prelu_1x1 -> inception_5b/1x1 (in-place)
I1028 13:41:32.783511 28229 net.cpp:150] Setting up inception_5b/prelu_1x1
I1028 13:41:32.783525 28229 net.cpp:157] Top shape: 32 384 7 7 (602112)
I1028 13:41:32.783529 28229 net.cpp:165] Memory required for data: 1771766792
I1028 13:41:32.783535 28229 layer_factory.hpp:76] Creating layer inception_5b/3x3_reduce
I1028 13:41:32.783546 28229 net.cpp:106] Creating Layer inception_5b/3x3_reduce
I1028 13:41:32.783551 28229 net.cpp:454] inception_5b/3x3_reduce <- inception_5a/output_inception_5a/output_0_split_1
I1028 13:41:32.783558 28229 net.cpp:411] inception_5b/3x3_reduce -> inception_5b/3x3_reduce
I1028 13:41:32.786051 28229 cudnn_conv_layer.cpp:194] Reallocating workspace storage: 7428
I1028 13:41:32.786090 28229 net.cpp:150] Setting up inception_5b/3x3_reduce
I1028 13:41:32.786099 28229 net.cpp:157] Top shape: 32 192 7 7 (301056)
I1028 13:41:32.786103 28229 net.cpp:165] Memory required for data: 1772971016
I1028 13:41:32.786111 28229 layer_factory.hpp:76] Creating layer inception_5b/prelu_3x3_reduce
I1028 13:41:32.786123 28229 net.cpp:106] Creating Layer inception_5b/prelu_3x3_reduce
I1028 13:41:32.786128 28229 net.cpp:454] inception_5b/prelu_3x3_reduce <- inception_5b/3x3_reduce
I1028 13:41:32.786134 28229 net.cpp:397] inception_5b/prelu_3x3_reduce -> inception_5b/3x3_reduce (in-place)
I1028 13:41:32.786269 28229 net.cpp:150] Setting up inception_5b/prelu_3x3_reduce
I1028 13:41:32.786279 28229 net.cpp:157] Top shape: 32 192 7 7 (301056)
I1028 13:41:32.786283 28229 net.cpp:165] Memory required for data: 1774175240
I1028 13:41:32.786288 28229 layer_factory.hpp:76] Creating layer inception_5b/3x3
I1028 13:41:32.786298 28229 net.cpp:106] Creating Layer inception_5b/3x3
I1028 13:41:32.786303 28229 net.cpp:454] inception_5b/3x3 <- inception_5b/3x3_reduce
I1028 13:41:32.786309 28229 net.cpp:411] inception_5b/3x3 -> inception_5b/3x3
I1028 13:41:32.792193 28229 cudnn_conv_layer.cpp:194] Reallocating workspace storage: 7788
I1028 13:41:32.792256 28229 net.cpp:150] Setting up inception_5b/3x3
I1028 13:41:32.792268 28229 net.cpp:157] Top shape: 32 384 7 7 (602112)
I1028 13:41:32.792273 28229 net.cpp:165] Memory required for data: 1776583688
I1028 13:41:32.792292 28229 layer_factory.hpp:76] Creating layer inception_5b/prelu_3x3
I1028 13:41:32.792307 28229 net.cpp:106] Creating Layer inception_5b/prelu_3x3
I1028 13:41:32.792315 28229 net.cpp:454] inception_5b/prelu_3x3 <- inception_5b/3x3
I1028 13:41:32.792323 28229 net.cpp:397] inception_5b/prelu_3x3 -> inception_5b/3x3 (in-place)
I1028 13:41:32.792485 28229 net.cpp:150] Setting up inception_5b/prelu_3x3
I1028 13:41:32.792496 28229 net.cpp:157] Top shape: 32 384 7 7 (602112)
I1028 13:41:32.792500 28229 net.cpp:165] Memory required for data: 1778992136
I1028 13:41:32.792515 28229 layer_factory.hpp:76] Creating layer inception_5b/5x5_reduce
I1028 13:41:32.792526 28229 net.cpp:106] Creating Layer inception_5b/5x5_reduce
I1028 13:41:32.792531 28229 net.cpp:454] inception_5b/5x5_reduce <- inception_5a/output_inception_5a/output_0_split_2
I1028 13:41:32.792549 28229 net.cpp:411] inception_5b/5x5_reduce -> inception_5b/5x5_reduce
I1028 13:41:32.793802 28229 cudnn_conv_layer.cpp:194] Reallocating workspace storage: 7428
I1028 13:41:32.793838 28229 net.cpp:150] Setting up inception_5b/5x5_reduce
I1028 13:41:32.793848 28229 net.cpp:157] Top shape: 32 48 7 7 (75264)
I1028 13:41:32.793851 28229 net.cpp:165] Memory required for data: 1779293192
I1028 13:41:32.793859 28229 layer_factory.hpp:76] Creating layer inception_5b/prelu_5x5_reduce
I1028 13:41:32.793869 28229 net.cpp:106] Creating Layer inception_5b/prelu_5x5_reduce
I1028 13:41:32.793874 28229 net.cpp:454] inception_5b/prelu_5x5_reduce <- inception_5b/5x5_reduce
I1028 13:41:32.793884 28229 net.cpp:397] inception_5b/prelu_5x5_reduce -> inception_5b/5x5_reduce (in-place)
I1028 13:41:32.794003 28229 net.cpp:150] Setting up inception_5b/prelu_5x5_reduce
I1028 13:41:32.794013 28229 net.cpp:157] Top shape: 32 48 7 7 (75264)
I1028 13:41:32.794028 28229 net.cpp:165] Memory required for data: 1779594248
I1028 13:41:32.794034 28229 layer_factory.hpp:76] Creating layer inception_5b/5x5
I1028 13:41:32.794044 28229 net.cpp:106] Creating Layer inception_5b/5x5
I1028 13:41:32.794049 28229 net.cpp:454] inception_5b/5x5 <- inception_5b/5x5_reduce
I1028 13:41:32.794057 28229 net.cpp:411] inception_5b/5x5 -> inception_5b/5x5
I1028 13:41:32.796102 28229 cudnn_conv_layer.cpp:194] Reallocating workspace storage: 9804
I1028 13:41:32.796136 28229 net.cpp:150] Setting up inception_5b/5x5
I1028 13:41:32.796144 28229 net.cpp:157] Top shape: 32 128 7 7 (200704)
I1028 13:41:32.796149 28229 net.cpp:165] Memory required for data: 1780397064
I1028 13:41:32.796155 28229 layer_factory.hpp:76] Creating layer inception_5b/prelu_5x5
I1028 13:41:32.796165 28229 net.cpp:106] Creating Layer inception_5b/prelu_5x5
I1028 13:41:32.796170 28229 net.cpp:454] inception_5b/prelu_5x5 <- inception_5b/5x5
I1028 13:41:32.796177 28229 net.cpp:397] inception_5b/prelu_5x5 -> inception_5b/5x5 (in-place)
I1028 13:41:32.796299 28229 net.cpp:150] Setting up inception_5b/prelu_5x5
I1028 13:41:32.796308 28229 net.cpp:157] Top shape: 32 128 7 7 (200704)
I1028 13:41:32.796313 28229 net.cpp:165] Memory required for data: 1781199880
I1028 13:41:32.796317 28229 layer_factory.hpp:76] Creating layer inception_5b/pool
I1028 13:41:32.796325 28229 net.cpp:106] Creating Layer inception_5b/pool
I1028 13:41:32.796330 28229 net.cpp:454] inception_5b/pool <- inception_5a/output_inception_5a/output_0_split_3
I1028 13:41:32.796337 28229 net.cpp:411] inception_5b/pool -> inception_5b/pool
I1028 13:41:32.796736 28229 net.cpp:150] Setting up inception_5b/pool
I1028 13:41:32.796747 28229 net.cpp:157] Top shape: 32 832 7 7 (1304576)
I1028 13:41:32.796751 28229 net.cpp:165] Memory required for data: 1786418184
I1028 13:41:32.796756 28229 layer_factory.hpp:76] Creating layer inception_5b/pool_proj
I1028 13:41:32.796766 28229 net.cpp:106] Creating Layer inception_5b/pool_proj
I1028 13:41:32.796772 28229 net.cpp:454] inception_5b/pool_proj <- inception_5b/pool
I1028 13:41:32.796779 28229 net.cpp:411] inception_5b/pool_proj -> inception_5b/pool_proj
I1028 13:41:32.798939 28229 cudnn_conv_layer.cpp:194] Reallocating workspace storage: 7428
I1028 13:41:32.798969 28229 net.cpp:150] Setting up inception_5b/pool_proj
I1028 13:41:32.798977 28229 net.cpp:157] Top shape: 32 128 7 7 (200704)
I1028 13:41:32.798981 28229 net.cpp:165] Memory required for data: 1787221000
I1028 13:41:32.798988 28229 layer_factory.hpp:76] Creating layer inception_5b/prelu_pool_proj
I1028 13:41:32.799008 28229 net.cpp:106] Creating Layer inception_5b/prelu_pool_proj
I1028 13:41:32.799013 28229 net.cpp:454] inception_5b/prelu_pool_proj <- inception_5b/pool_proj
I1028 13:41:32.799021 28229 net.cpp:397] inception_5b/prelu_pool_proj -> inception_5b/pool_proj (in-place)
I1028 13:41:32.799150 28229 net.cpp:150] Setting up inception_5b/prelu_pool_proj
I1028 13:41:32.799160 28229 net.cpp:157] Top shape: 32 128 7 7 (200704)
I1028 13:41:32.799163 28229 net.cpp:165] Memory required for data: 1788023816
I1028 13:41:32.799168 28229 layer_factory.hpp:76] Creating layer inception_5b/output
I1028 13:41:32.799176 28229 net.cpp:106] Creating Layer inception_5b/output
I1028 13:41:32.799193 28229 net.cpp:454] inception_5b/output <- inception_5b/1x1
I1028 13:41:32.799209 28229 net.cpp:454] inception_5b/output <- inception_5b/3x3
I1028 13:41:32.799214 28229 net.cpp:454] inception_5b/output <- inception_5b/5x5
I1028 13:41:32.799219 28229 net.cpp:454] inception_5b/output <- inception_5b/pool_proj
I1028 13:41:32.799224 28229 net.cpp:411] inception_5b/output -> inception_5b/output
I1028 13:41:32.799278 28229 net.cpp:150] Setting up inception_5b/output
I1028 13:41:32.799295 28229 net.cpp:157] Top shape: 32 1024 7 7 (1605632)
I1028 13:41:32.799310 28229 net.cpp:165] Memory required for data: 1794446344
I1028 13:41:32.799315 28229 layer_factory.hpp:76] Creating layer pool5/7x7_s1
I1028 13:41:32.799332 28229 net.cpp:106] Creating Layer pool5/7x7_s1
I1028 13:41:32.799336 28229 net.cpp:454] pool5/7x7_s1 <- inception_5b/output
I1028 13:41:32.799343 28229 net.cpp:411] pool5/7x7_s1 -> pool5/7x7_s1
I1028 13:41:32.799527 28229 net.cpp:150] Setting up pool5/7x7_s1
I1028 13:41:32.799536 28229 net.cpp:157] Top shape: 32 1024 1 1 (32768)
I1028 13:41:32.799540 28229 net.cpp:165] Memory required for data: 1794577416
I1028 13:41:32.799545 28229 layer_factory.hpp:76] Creating layer pool5/drop_7x7_s1
I1028 13:41:32.799552 28229 net.cpp:106] Creating Layer pool5/drop_7x7_s1
I1028 13:41:32.799556 28229 net.cpp:454] pool5/drop_7x7_s1 <- pool5/7x7_s1
I1028 13:41:32.799573 28229 net.cpp:397] pool5/drop_7x7_s1 -> pool5/7x7_s1 (in-place)
I1028 13:41:32.799623 28229 net.cpp:150] Setting up pool5/drop_7x7_s1
I1028 13:41:32.799644 28229 net.cpp:157] Top shape: 32 1024 1 1 (32768)
I1028 13:41:32.799649 28229 net.cpp:165] Memory required for data: 1794708488
I1028 13:41:32.799653 28229 layer_factory.hpp:76] Creating layer loss3/classifier2
I1028 13:41:32.799662 28229 net.cpp:106] Creating Layer loss3/classifier2
I1028 13:41:32.799669 28229 net.cpp:454] loss3/classifier2 <- pool5/7x7_s1
I1028 13:41:32.799674 28229 net.cpp:411] loss3/classifier2 -> loss3/classifier
I1028 13:41:32.799839 28229 net.cpp:150] Setting up loss3/classifier2
I1028 13:41:32.799847 28229 net.cpp:157] Top shape: 32 2 (64)
I1028 13:41:32.799850 28229 net.cpp:165] Memory required for data: 1794708744
I1028 13:41:32.799857 28229 layer_factory.hpp:76] Creating layer loss3/loss3
I1028 13:41:32.799866 28229 net.cpp:106] Creating Layer loss3/loss3
I1028 13:41:32.799870 28229 net.cpp:454] loss3/loss3 <- loss3/classifier
I1028 13:41:32.799876 28229 net.cpp:454] loss3/loss3 <- label_data_1_split_2
I1028 13:41:32.799881 28229 net.cpp:411] loss3/loss3 -> loss3/loss3
…
I1028 13:41:32.804642 28229 net.cpp:322] The NetState phase (1) differed from the phase (0) specified by a rule in layer data
I1028 13:41:32.805707 28229 net.cpp:49] Initializing net from parameters: 
name: "GoogleNet"
state {
  phase: TEST
}
layer {
  name: "data"
  type: "Data"
  top: "data"
  top: "label"
  include {
    phase: TEST
  }
  transform_param {
    mirror: false
    crop_size: 224
    mean_value: 104
    mean_value: 117
    mean_value: 123
  }
  data_param {
    source: "../../LMDB/val_8-lmdb"
    batch_size: 50
    backend: LMDB
  }
}
layer {
  name: "conv1/7x7_s2"
  type: "Convolution"
  bottom: "data"
  top: "conv1/7x7_s2"
  param {
    lr_mult: 1
    decay_mult: 1
  }
  param {
    lr_mult: 2
    decay_mult: 0
  }
  convolution_param {
    num_output: 64
    pad: 3
    kernel_size: 7
    stride: 2
    weight_filler {
      type: "xavier"
    }
    bias_filler {
      type: "constant"
      value: 0.2
    }
  }
}
layer {
  name: "conv1/prelu_7x7"
  type: "PReLU"
  bottom: "conv1/7x7_s2"
  top: "conv1/7x7_s2"
  param {
    lr_mult: 1
    decay_mult: 0
  }
  prelu_param {
    filler {
      type: "constant"
      value: 0.01
    }
  }
}
layer {
  name: "pool1/3x3_s2"
  type: "Pooling"
  bottom: "conv1/7x7_s2"
  top: "pool1/3x3_s2"
  pooling_param {
    pool: MAX
    kernel_size: 3
    stride: 2
  }
}
layer {
  name: "pool1/norm1"
  type: "LRN"
  bottom: "pool1/3x3_s2"
  top: "pool1/norm1"
  lrn_param {
    local_size: 5
    alpha: 0.0001
    beta: 0.75
  }
}
layer {
  name: "conv2/3x3_reduce"
  type: "Convolution"
  bottom: "pool1/norm1"
  top: "conv2/3x3_reduce"
  param {
    lr_mult: 1
    decay_mult: 1
  }
  param {
    lr_mult: 2
    decay_mult: 0
  }
  convolution_param {
    num_output: 64
    kernel_size: 1
    weight_filler {
      type: "xavier"
    }
    bias_filler {
      type: "constant"
      value: 0.2
    }
  }
}
layer {
  name: "conv2/prelu_3x3_reduce"
  type: "PReLU"
  bottom: "conv2/3x3_reduce"
  top: "conv2/3x3_reduce"
  param {
    lr_mult: 1
    decay_mult: 0
  }
  prelu_param {
    filler {
      type: "constant"
      value: 0.01
    }
  }
}
layer {
  name: "conv2/3x3"
  type: "Convolution"
  bottom: "conv2/3x3_reduce"
  top: "conv2/3x3"
  param {
    lr_mult: 1
    decay_mult: 1
  }
  param {
    lr_mult: 2
    decay_mult: 0
  }
  convolution_param {
    num_output: 192
    pad: 1
    kernel_size: 3
    weight_filler {
      type: "xavier"
    }
    bias_filler {
      type: "constant"
      value: 0.2
    }
  }
}
layer {
  name: "conv2/prelu_3x3"
  type: "PReLU"
  bottom: "conv2/3x3"
  top: "conv2/3x3"
  param {
    lr_mult: 1
    decay_mult: 0
  }
  prelu_param {
    filler {
      type: "constant"
      value: 0.01
    }
  }
}
layer {
  name: "conv2/norm2"
  type: "LRN"
  bottom: "conv2/3x3"
  top: "conv2/norm2"
  lrn_param {
    local_size: 5
    alpha: 0.0001
    beta: 0.75
  }
}
layer {
  name: "pool2/3x3_s2"
  type: "Pooling"
  bottom: "conv2/norm2"
  top: "pool2/3x3_s2"
  pooling_param {
    pool: MAX
    kernel_size: 3
    stride: 2
  }
}
layer {
  name: "inception_3a/1x1"
  type: "Convolution"
  bottom: "pool2/3x3_s2"
  top: "inception_3a/1x1"
  param {
    lr_mult: 1
    decay_mult: 1
  }
  param {
    lr_mult: 2
    decay_mult: 0
  }
  convolution_param {
    num_output: 64
    kernel_size: 1
    weight_filler {
      type: "xavier"
    }
    bias_filler {
      type: "constant"
      value: 0.2
    }
  }
}
layer {
  name: "inception_3a/prelu_1x1"
  type: "PReLU"
  bottom: "inception_3a/1x1"
  top: "inception_3a/1x1"
  param {
    lr_mult: 1
    decay_mult: 0
  }
  prelu_param {
    filler {
      type: "constant"
      value: 0.01
    }
  }
}
layer {
  name: "inception_3a/3x3_reduce"
  type: "Convolution"
  bottom: "pool2/3x3_s2"
  top: "inception_3a/3x3_reduce"
  param {
    lr_mult: 1
    decay_mult: 1
  }
  param {
    lr_mult: 2
    decay_mult: 0
  }
  convolution_param {
    num_output: 96
    kernel_size: 1
    weight_filler {
      type: "xavier"
    }
    bias_filler {
      type: "constant"
      value: 0.2
    }
  }
}
layer {
  name: "inception_3a/prelu_3x3_reduce"
  type: "PReLU"
  bottom: "inception_3a/3x3_reduce"
  top: "inception_3a/3x3_reduce"
  param {
    lr_mult: 1
    decay_mult: 0
  }
  prelu_param {
    filler {
      type: "constant"
      value: 0.01
    }
  }
}
layer {
  name: "inception_3a/3x3"
  type: "Convolution"
  bottom: "inception_3a/3x3_reduce"
  top: "inception_3a/3x3"
  param {
    lr_mult: 1
    decay_mult: 1
  }
  param {
    lr_mult: 2
    decay_mult: 0
  }
  convolution_param {
    num_output: 128
    pad: 1
    kernel_size: 3
    weight_filler {
      type: "xavier"
    }
    bias_filler {
      type: "constant"
      value: 0.2
    }
  }
}
layer {
  name: "inception_3a/prelu_3x3"
  type: "PReLU"
  bottom: "inception_3a/3x3"
  top: "inception_3a/3x3"
  param {
    lr_mult: 1
    decay_mult: 0
  }
  prelu_param {
    filler {
      type: "constant"
      value: 0.01
    }
  }
}
layer {
  name: "inception_3a/5x5_reduce"
  type: "Convolution"
  bottom: "pool2/3x3_s2"
  top: "inception_3a/5x5_reduce"
  param {
    lr_mult: 1
    decay_mult: 1
  }
  param {
    lr_mult: 2
    decay_mult: 0
  }
  convolution_param {
    num_output: 16
    kernel_size: 1
    weight_filler {
      type: "xavier"
    }
    bias_filler {
      type: "constant"
      value: 0.2
    }
  }
}
layer {
  name: "inception_3a/prelu_5x5_reduce"
  type: "PReLU"
  bottom: "inception_3a/5x5_reduce"
  top: "inception_3a/5x5_reduce"
  param {
    lr_mult: 1
    decay_mult: 0
  }
  prelu_param {
    filler {
      type: "constant"
      value: 0.01
    }
  }
}
layer {
  name: "inception_3a/5x5"
  type: "Convolution"
  bottom: "inception_3a/5x5_reduce"
  top: "inception_3a/5x5"
  param {
    lr_mult: 1
    decay_mult: 1
  }
  param {
    lr_mult: 2
    decay_mult: 0
  }
  convolution_param {
    num_output: 32
    pad: 2
    kernel_size: 5
    weight_filler {
      type: "xavier"
    }
    bias_filler {
      type: "constant"
      value: 0.2
    }
  }
}
layer {
  name: "inception_3a/prelu_5x5"
  type: "PReLU"
  bottom: "inception_3a/5x5"
  top: "inception_3a/5x5"
  param {
    lr_mult: 1
    decay_mult: 0
  }
  prelu_param {
    filler {
      type: "constant"
      value: 0.01
    }
  }
}
layer {
  name: "inception_3a/pool"
  type: "Pooling"
  bottom: "pool2/3x3_s2"
  top: "inception_3a/pool"
  pooling_param {
    pool: MAX
    kernel_size: 3
    stride: 1
    pad: 1
  }
}
layer {
  name: "inception_3a/pool_proj"
  type: "Convolution"
  bottom: "inception_3a/pool"
  top: "inception_3a/pool_proj"
  param {
    lr_mult: 1
    decay_mult: 1
  }
  param {
    lr_mult: 2
    decay_mult: 0
  }
  convolution_param {
    num_output: 32
    kernel_size: 1
    weight_filler {
      type: "xavier"
    }
    bias_filler {
      type: "constant"
      value: 0.2
    }
  }
}
layer {
  name: "inception_3a/prelu_pool_proj"
  type: "PReLU"
  bottom: "inception_3a/pool_proj"
  top: "inception_3a/pool_proj"
  param {
    lr_mult: 1
    decay_mult: 0
  }
  prelu_param {
    filler {
      type: "constant"
      value: 0.01
    }
  }
}
layer {
  name: "inception_3a/output"
  type: "Concat"
  bottom: "inception_3a/1x1"
  bottom: "inception_3a/3x3"
  bottom: "inception_3a/5x5"
  bottom: "inception_3a/pool_proj"
  top: "inception_3a/output"
}
layer {
  name: "inception_3b/1x1"
  type: "Convolution"
  bottom: "inception_3a/output"
  top: "inception_3b/1x1"
  param {
    lr_mult: 1
    decay_mult: 1
  }
  param {
    lr_mult: 2
    decay_mult: 0
  }
  convolution_param {
    num_output: 128
    kernel_size: 1
    weight_filler {
      type: "xavier"
    }
    bias_filler {
      type: "constant"
      value: 0.2
    }
  }
}
layer {
  name: "inception_3b/prelu_1x1"
  type: "PReLU"
  bottom: "inception_3b/1x1"
  top: "inception_3b/1x1"
  param {
    lr_mult: 1
    decay_mult: 0
  }
  prelu_param {
    filler {
      type: "constant"
      value: 0.01
    }
  }
}
layer {
  name: "inception_3b/3x3_reduce"
  type: "Convolution"
  bottom: "inception_3a/output"
  top: "inception_3b/3x3_reduce"
  param {
    lr_mult: 1
    decay_mult: 1
  }
  param {
    lr_mult: 2
    decay_mult: 0
  }
  convolution_param {
    num_output: 128
    kernel_size: 1
    weight_filler {
      type: "xavier"
    }
    bias_filler {
      type: "constant"
      value: 0.2
    }
  }
}
layer {
  name: "inception_3b/prelu_3x3_reduce"
  type: "PReLU"
  bottom: "inception_3b/3x3_reduce"
  top: "inception_3b/3x3_reduce"
  param {
    lr_mult: 1
    decay_mult: 0
  }
  prelu_param {
    filler {
      type: "constant"
      value: 0.01
    }
  }
}
layer {
  name: "inception_3b/3x3"
  type: "Convolution"
  bottom: "inception_3b/3x3_reduce"
  top: "inception_3b/3x3"
  param {
    lr_mult: 1
    decay_mult: 1
  }
  param {
    lr_mult: 2
    decay_mult: 0
  }
  convolution_param {
    num_output: 192
    pad: 1
    kernel_size: 3
    weight_filler {
      type: "xavier"
    }
…
I1028 13:41:33.148203 28229 net.cpp:106] Creating Layer inception_4c/output
I1028 13:41:33.148210 28229 net.cpp:454] inception_4c/output <- inception_4c/1x1
I1028 13:41:33.148216 28229 net.cpp:454] inception_4c/output <- inception_4c/3x3
I1028 13:41:33.148221 28229 net.cpp:454] inception_4c/output <- inception_4c/5x5
I1028 13:41:33.148224 28229 net.cpp:454] inception_4c/output <- inception_4c/pool_proj
I1028 13:41:33.148231 28229 net.cpp:411] inception_4c/output -> inception_4c/output
I1028 13:41:33.148254 28229 net.cpp:150] Setting up inception_4c/output
I1028 13:41:33.148262 28229 net.cpp:157] Top shape: 50 512 14 14 (5017600)
I1028 13:41:33.148267 28229 net.cpp:165] Memory required for data: 2234652208
I1028 13:41:33.148270 28229 layer_factory.hpp:76] Creating layer inception_4c/output_inception_4c/output_0_split
I1028 13:41:33.148279 28229 net.cpp:106] Creating Layer inception_4c/output_inception_4c/output_0_split
I1028 13:41:33.148284 28229 net.cpp:454] inception_4c/output_inception_4c/output_0_split <- inception_4c/output
I1028 13:41:33.148290 28229 net.cpp:411] inception_4c/output_inception_4c/output_0_split -> inception_4c/output_inception_4c/output_0_split_0
I1028 13:41:33.148303 28229 net.cpp:411] inception_4c/output_inception_4c/output_0_split -> inception_4c/output_inception_4c/output_0_split_1
I1028 13:41:33.148313 28229 net.cpp:411] inception_4c/output_inception_4c/output_0_split -> inception_4c/output_inception_4c/output_0_split_2
I1028 13:41:33.148319 28229 net.cpp:411] inception_4c/output_inception_4c/output_0_split -> inception_4c/output_inception_4c/output_0_split_3
I1028 13:41:33.148382 28229 net.cpp:150] Setting up inception_4c/output_inception_4c/output_0_split
I1028 13:41:33.148392 28229 net.cpp:157] Top shape: 50 512 14 14 (5017600)
I1028 13:41:33.148397 28229 net.cpp:157] Top shape: 50 512 14 14 (5017600)
I1028 13:41:33.148401 28229 net.cpp:157] Top shape: 50 512 14 14 (5017600)
I1028 13:41:33.148406 28229 net.cpp:157] Top shape: 50 512 14 14 (5017600)
I1028 13:41:33.148411 28229 net.cpp:165] Memory required for data: 2314933808
I1028 13:41:33.148414 28229 layer_factory.hpp:76] Creating layer inception_4d/1x1
I1028 13:41:33.148424 28229 net.cpp:106] Creating Layer inception_4d/1x1
I1028 13:41:33.148430 28229 net.cpp:454] inception_4d/1x1 <- inception_4c/output_inception_4c/output_0_split_0
I1028 13:41:33.148438 28229 net.cpp:411] inception_4d/1x1 -> inception_4d/1x1
I1028 13:41:33.150199 28229 cudnn_conv_layer.cpp:194] Reallocating workspace storage: 10080
I1028 13:41:33.150246 28229 net.cpp:150] Setting up inception_4d/1x1
I1028 13:41:33.150256 28229 net.cpp:157] Top shape: 50 112 14 14 (1097600)
I1028 13:41:33.150260 28229 net.cpp:165] Memory required for data: 2319324208
I1028 13:41:33.150269 28229 layer_factory.hpp:76] Creating layer inception_4d/prelu_1x1
I1028 13:41:33.150279 28229 net.cpp:106] Creating Layer inception_4d/prelu_1x1
I1028 13:41:33.150285 28229 net.cpp:454] inception_4d/prelu_1x1 <- inception_4d/1x1
I1028 13:41:33.150291 28229 net.cpp:397] inception_4d/prelu_1x1 -> inception_4d/1x1 (in-place)
I1028 13:41:33.150398 28229 net.cpp:150] Setting up inception_4d/prelu_1x1
I1028 13:41:33.150408 28229 net.cpp:157] Top shape: 50 112 14 14 (1097600)
I1028 13:41:33.150413 28229 net.cpp:165] Memory required for data: 2323714608
I1028 13:41:33.150418 28229 layer_factory.hpp:76] Creating layer inception_4d/3x3_reduce
I1028 13:41:33.150429 28229 net.cpp:106] Creating Layer inception_4d/3x3_reduce
I1028 13:41:33.150434 28229 net.cpp:454] inception_4d/3x3_reduce <- inception_4c/output_inception_4c/output_0_split_1
I1028 13:41:33.150441 28229 net.cpp:411] inception_4d/3x3_reduce -> inception_4d/3x3_reduce
I1028 13:41:33.152256 28229 cudnn_conv_layer.cpp:194] Reallocating workspace storage: 10080
I1028 13:41:33.152303 28229 net.cpp:150] Setting up inception_4d/3x3_reduce
I1028 13:41:33.152312 28229 net.cpp:157] Top shape: 50 144 14 14 (1411200)
I1028 13:41:33.152318 28229 net.cpp:165] Memory required for data: 2329359408
I1028 13:41:33.152325 28229 layer_factory.hpp:76] Creating layer inception_4d/prelu_3x3_reduce
I1028 13:41:33.152335 28229 net.cpp:106] Creating Layer inception_4d/prelu_3x3_reduce
I1028 13:41:33.152340 28229 net.cpp:454] inception_4d/prelu_3x3_reduce <- inception_4d/3x3_reduce
I1028 13:41:33.152346 28229 net.cpp:397] inception_4d/prelu_3x3_reduce -> inception_4d/3x3_reduce (in-place)
I1028 13:41:33.152477 28229 net.cpp:150] Setting up inception_4d/prelu_3x3_reduce
I1028 13:41:33.152487 28229 net.cpp:157] Top shape: 50 144 14 14 (1411200)
I1028 13:41:33.152490 28229 net.cpp:165] Memory required for data: 2335004208
I1028 13:41:33.152506 28229 layer_factory.hpp:76] Creating layer inception_4d/3x3
I1028 13:41:33.152516 28229 net.cpp:106] Creating Layer inception_4d/3x3
I1028 13:41:33.152521 28229 net.cpp:454] inception_4d/3x3 <- inception_4d/3x3_reduce
I1028 13:41:33.152529 28229 net.cpp:411] inception_4d/3x3 -> inception_4d/3x3
I1028 13:41:33.157642 28229 cudnn_conv_layer.cpp:194] Reallocating workspace storage: 10080
I1028 13:41:33.157722 28229 net.cpp:150] Setting up inception_4d/3x3
I1028 13:41:33.157740 28229 net.cpp:157] Top shape: 50 288 14 14 (2822400)
I1028 13:41:33.157745 28229 net.cpp:165] Memory required for data: 2346293808
I1028 13:41:33.157757 28229 layer_factory.hpp:76] Creating layer inception_4d/prelu_3x3
I1028 13:41:33.157778 28229 net.cpp:106] Creating Layer inception_4d/prelu_3x3
I1028 13:41:33.157785 28229 net.cpp:454] inception_4d/prelu_3x3 <- inception_4d/3x3
I1028 13:41:33.157795 28229 net.cpp:397] inception_4d/prelu_3x3 -> inception_4d/3x3 (in-place)
I1028 13:41:33.173656 28229 net.cpp:150] Setting up inception_4d/prelu_3x3
I1028 13:41:33.173692 28229 net.cpp:157] Top shape: 50 288 14 14 (2822400)
I1028 13:41:33.173698 28229 net.cpp:165] Memory required for data: 2357583408
I1028 13:41:33.173709 28229 layer_factory.hpp:76] Creating layer inception_4d/5x5_reduce
I1028 13:41:33.173732 28229 net.cpp:106] Creating Layer inception_4d/5x5_reduce
I1028 13:41:33.173739 28229 net.cpp:454] inception_4d/5x5_reduce <- inception_4c/output_inception_4c/output_0_split_2
I1028 13:41:33.173750 28229 net.cpp:411] inception_4d/5x5_reduce -> inception_4d/5x5_reduce
I1028 13:41:33.175509 28229 cudnn_conv_layer.cpp:194] Reallocating workspace storage: 10080
I1028 13:41:33.175573 28229 net.cpp:150] Setting up inception_4d/5x5_reduce
I1028 13:41:33.175585 28229 net.cpp:157] Top shape: 50 32 14 14 (313600)
I1028 13:41:33.175590 28229 net.cpp:165] Memory required for data: 2358837808
I1028 13:41:33.175600 28229 layer_factory.hpp:76] Creating layer inception_4d/prelu_5x5_reduce
I1028 13:41:33.175612 28229 net.cpp:106] Creating Layer inception_4d/prelu_5x5_reduce
I1028 13:41:33.175622 28229 net.cpp:454] inception_4d/prelu_5x5_reduce <- inception_4d/5x5_reduce
I1028 13:41:33.175631 28229 net.cpp:397] inception_4d/prelu_5x5_reduce -> inception_4d/5x5_reduce (in-place)
I1028 13:41:33.175740 28229 net.cpp:150] Setting up inception_4d/prelu_5x5_reduce
I1028 13:41:33.175748 28229 net.cpp:157] Top shape: 50 32 14 14 (313600)
I1028 13:41:33.175752 28229 net.cpp:165] Memory required for data: 2360092208
I1028 13:41:33.175768 28229 layer_factory.hpp:76] Creating layer inception_4d/5x5
I1028 13:41:33.175778 28229 net.cpp:106] Creating Layer inception_4d/5x5
I1028 13:41:33.175783 28229 net.cpp:454] inception_4d/5x5 <- inception_4d/5x5_reduce
I1028 13:41:33.175791 28229 net.cpp:411] inception_4d/5x5 -> inception_4d/5x5
I1028 13:41:33.177176 28229 cudnn_conv_layer.cpp:194] Reallocating workspace storage: 13080
I1028 13:41:33.177228 28229 net.cpp:150] Setting up inception_4d/5x5
I1028 13:41:33.177240 28229 net.cpp:157] Top shape: 50 64 14 14 (627200)
I1028 13:41:33.177245 28229 net.cpp:165] Memory required for data: 2362601008
I1028 13:41:33.177266 28229 layer_factory.hpp:76] Creating layer inception_4d/prelu_5x5
I1028 13:41:33.177279 28229 net.cpp:106] Creating Layer inception_4d/prelu_5x5
I1028 13:41:33.177284 28229 net.cpp:454] inception_4d/prelu_5x5 <- inception_4d/5x5
I1028 13:41:33.177292 28229 net.cpp:397] inception_4d/prelu_5x5 -> inception_4d/5x5 (in-place)
I1028 13:41:33.177403 28229 net.cpp:150] Setting up inception_4d/prelu_5x5
I1028 13:41:33.177413 28229 net.cpp:157] Top shape: 50 64 14 14 (627200)
I1028 13:41:33.177417 28229 net.cpp:165] Memory required for data: 2365109808
I1028 13:41:33.177423 28229 layer_factory.hpp:76] Creating layer inception_4d/pool
I1028 13:41:33.177433 28229 net.cpp:106] Creating Layer inception_4d/pool
I1028 13:41:33.177438 28229 net.cpp:454] inception_4d/pool <- inception_4c/output_inception_4c/output_0_split_3
I1028 13:41:33.177444 28229 net.cpp:411] inception_4d/pool -> inception_4d/pool
I1028 13:41:33.177927 28229 net.cpp:150] Setting up inception_4d/pool
I1028 13:41:33.177945 28229 net.cpp:157] Top shape: 50 512 14 14 (5017600)
I1028 13:41:33.177949 28229 net.cpp:165] Memory required for data: 2385180208
I1028 13:41:33.177954 28229 layer_factory.hpp:76] Creating layer inception_4d/pool_proj
I1028 13:41:33.177965 28229 net.cpp:106] Creating Layer inception_4d/pool_proj
I1028 13:41:33.177970 28229 net.cpp:454] inception_4d/pool_proj <- inception_4d/pool
I1028 13:41:33.177979 28229 net.cpp:411] inception_4d/pool_proj -> inception_4d/pool_proj
I1028 13:41:33.179332 28229 cudnn_conv_layer.cpp:194] Reallocating workspace storage: 10080
I1028 13:41:33.179378 28229 net.cpp:150] Setting up inception_4d/pool_proj
I1028 13:41:33.179385 28229 net.cpp:157] Top shape: 50 64 14 14 (627200)
I1028 13:41:33.179389 28229 net.cpp:165] Memory required for data: 2387689008
I1028 13:41:33.179397 28229 layer_factory.hpp:76] Creating layer inception_4d/prelu_pool_proj
I1028 13:41:33.179430 28229 net.cpp:106] Creating Layer inception_4d/prelu_pool_proj
I1028 13:41:33.179435 28229 net.cpp:454] inception_4d/prelu_pool_proj <- inception_4d/pool_proj
I1028 13:41:33.179442 28229 net.cpp:397] inception_4d/prelu_pool_proj -> inception_4d/pool_proj (in-place)
I1028 13:41:33.179535 28229 net.cpp:150] Setting up inception_4d/prelu_pool_proj
I1028 13:41:33.179545 28229 net.cpp:157] Top shape: 50 64 14 14 (627200)
I1028 13:41:33.179548 28229 net.cpp:165] Memory required for data: 2390197808
I1028 13:41:33.179554 28229 layer_factory.hpp:76] Creating layer inception_4d/output
I1028 13:41:33.179561 28229 net.cpp:106] Creating Layer inception_4d/output
I1028 13:41:33.179565 28229 net.cpp:454] inception_4d/output <- inception_4d/1x1
I1028 13:41:33.179570 28229 net.cpp:454] inception_4d/output <- inception_4d/3x3
I1028 13:41:33.179575 28229 net.cpp:454] inception_4d/output <- inception_4d/5x5
I1028 13:41:33.179580 28229 net.cpp:454] inception_4d/output <- inception_4d/pool_proj
I1028 13:41:33.179589 28229 net.cpp:411] inception_4d/output -> inception_4d/output
I1028 13:41:33.179615 28229 net.cpp:150] Setting up inception_4d/output
I1028 13:41:33.179623 28229 net.cpp:157] Top shape: 50 528 14 14 (5174400)
I1028 13:41:33.179627 28229 net.cpp:165] Memory required for data: 2410895408
I1028 13:41:33.179631 28229 layer_factory.hpp:76] Creating layer inception_4d/output_inception_4d/output_0_split
I1028 13:41:33.179638 28229 net.cpp:106] Creating Layer inception_4d/output_inception_4d/output_0_split
I1028 13:41:33.179642 28229 net.cpp:454] inception_4d/output_inception_4d/output_0_split <- inception_4d/output
I1028 13:41:33.179648 28229 net.cpp:411] inception_4d/output_inception_4d/output_0_split -> inception_4d/output_inception_4d/output_0_split_0
I1028 13:41:33.179656 28229 net.cpp:411] inception_4d/output_inception_4d/output_0_split -> inception_4d/output_inception_4d/output_0_split_1
I1028 13:41:33.179663 28229 net.cpp:411] inception_4d/output_inception_4d/output_0_split -> inception_4d/output_inception_4d/output_0_split_2
I1028 13:41:33.179669 28229 net.cpp:411] inception_4d/output_inception_4d/output_0_split -> inception_4d/output_inception_4d/output_0_split_3
I1028 13:41:33.179675 28229 net.cpp:411] inception_4d/output_inception_4d/output_0_split -> inception_4d/output_inception_4d/output_0_split_4
I1028 13:41:33.179733 28229 net.cpp:150] Setting up inception_4d/output_inception_4d/output_0_split
I1028 13:41:33.179741 28229 net.cpp:157] Top shape: 50 528 14 14 (5174400)
I1028 13:41:33.179747 28229 net.cpp:157] Top shape: 50 528 14 14 (5174400)
I1028 13:41:33.179751 28229 net.cpp:157] Top shape: 50 528 14 14 (5174400)
I1028 13:41:33.179756 28229 net.cpp:157] Top shape: 50 528 14 14 (5174400)
I1028 13:41:33.179760 28229 net.cpp:157] Top shape: 50 528 14 14 (5174400)
I1028 13:41:33.179764 28229 net.cpp:165] Memory required for data: 2514383408
I1028 13:41:33.179769 28229 layer_factory.hpp:76] Creating layer loss2/ave_pool
I1028 13:41:33.179775 28229 net.cpp:106] Creating Layer loss2/ave_pool
I1028 13:41:33.179780 28229 net.cpp:454] loss2/ave_pool <- inception_4d/output_inception_4d/output_0_split_0
I1028 13:41:33.179786 28229 net.cpp:411] loss2/ave_pool -> loss2/ave_pool
I1028 13:41:33.179977 28229 net.cpp:150] Setting up loss2/ave_pool
I1028 13:41:33.179987 28229 net.cpp:157] Top shape: 50 528 4 4 (422400)
I1028 13:41:33.179991 28229 net.cpp:165] Memory required for data: 2516073008
I1028 13:41:33.179996 28229 layer_factory.hpp:76] Creating layer loss2/conv
I1028 13:41:33.180006 28229 net.cpp:106] Creating Layer loss2/conv
I1028 13:41:33.180011 28229 net.cpp:454] loss2/conv <- loss2/ave_pool
I1028 13:41:33.180017 28229 net.cpp:411] loss2/conv -> loss2/conv
I1028 13:41:33.181532 28229 cudnn_conv_layer.cpp:194] Reallocating workspace storage: 6840
I1028 13:41:33.181568 28229 net.cpp:150] Setting up loss2/conv
I1028 13:41:33.181576 28229 net.cpp:157] Top shape: 50 128 4 4 (102400)
I1028 13:41:33.181581 28229 net.cpp:165] Memory required for data: 2516482608
I1028 13:41:33.181598 28229 layer_factory.hpp:76] Creating layer loss2/prelu_conv
I1028 13:41:33.181620 28229 net.cpp:106] Creating Layer loss2/prelu_conv
I1028 13:41:33.181627 28229 net.cpp:454] loss2/prelu_conv <- loss2/conv
I1028 13:41:33.181643 28229 net.cpp:397] loss2/prelu_conv -> loss2/conv (in-place)
I1028 13:41:33.181766 28229 net.cpp:150] Setting up loss2/prelu_conv
I1028 13:41:33.181777 28229 net.cpp:157] Top shape: 50 128 4 4 (102400)
I1028 13:41:33.181781 28229 net.cpp:165] Memory required for data: 2516892208
I1028 13:41:33.181785 28229 layer_factory.hpp:76] Creating layer loss2/fc
I1028 13:41:33.181797 28229 net.cpp:106] Creating Layer loss2/fc
I1028 13:41:33.181800 28229 net.cpp:454] loss2/fc <- loss2/conv
I1028 13:41:33.181807 28229 net.cpp:411] loss2/fc -> loss2/fc
I1028 13:41:33.208004 28229 net.cpp:150] Setting up loss2/fc
I1028 13:41:33.208047 28229 net.cpp:157] Top shape: 50 1024 (51200)
I1028 13:41:33.208052 28229 net.cpp:165] Memory required for data: 2517097008
I1028 13:41:33.208089 28229 layer_factory.hpp:76] Creating layer loss2/prelu_fc
I1028 13:41:33.208115 28229 net.cpp:106] Creating Layer loss2/prelu_fc
I1028 13:41:33.208125 28229 net.cpp:454] loss2/prelu_fc <- loss2/fc
I1028 13:41:33.208133 28229 net.cpp:397] loss2/prelu_fc -> loss2/fc (in-place)
I1028 13:41:33.208272 28229 net.cpp:150] Setting up loss2/prelu_fc
I1028 13:41:33.208286 28229 net.cpp:157] Top shape: 50 1024 (51200)
I1028 13:41:33.208299 28229 net.cpp:165] Memory required for data: 2517301808
I1028 13:41:33.208305 28229 layer_factory.hpp:76] Creating layer loss2/drop_fc
I1028 13:41:33.208317 28229 net.cpp:106] Creating Layer loss2/drop_fc
I1028 13:41:33.208322 28229 net.cpp:454] loss2/drop_fc <- loss2/fc
I1028 13:41:33.208326 28229 net.cpp:397] loss2/drop_fc -> loss2/fc (in-place)
I1028 13:41:33.208364 28229 net.cpp:150] Setting up loss2/drop_fc
I1028 13:41:33.208374 28229 net.cpp:157] Top shape: 50 1024 (51200)
I1028 13:41:33.208377 28229 net.cpp:165] Memory required for data: 2517506608
I1028 13:41:33.208381 28229 layer_factory.hpp:76] Creating layer loss2/classifier2
I1028 13:41:33.208389 28229 net.cpp:106] Creating Layer loss2/classifier2
I1028 13:41:33.208394 28229 net.cpp:454] loss2/classifier2 <- loss2/fc
I1028 13:41:33.208400 28229 net.cpp:411] loss2/classifier2 -> loss2/classifier
I1028 13:41:33.208550 28229 net.cpp:150] Setting up loss2/classifier2
I1028 13:41:33.208562 28229 net.cpp:157] Top shape: 50 2 (100)
I1028 13:41:33.208566 28229 net.cpp:165] Memory required for data: 2517507008
I1028 13:41:33.208573 28229 layer_factory.hpp:76] Creating layer loss2/classifier_loss2/classifier2_0_split
I1028 13:41:33.208580 28229 net.cpp:106] Creating Layer loss2/classifier_loss2/classifier2_0_split
I1028 13:41:33.208585 28229 net.cpp:454] loss2/classifier_loss2/classifier2_0_split <- loss2/classifier
I1028 13:41:33.208590 28229 net.cpp:411] loss2/classifier_loss2/classifier2_0_split -> loss2/classifier_loss2/classifier2_0_split_0
I1028 13:41:33.208597 28229 net.cpp:411] loss2/classifier_loss2/classifier2_0_split -> loss2/classifier_loss2/classifier2_0_split_1
I1028 13:41:33.208643 28229 net.cpp:150] Setting up loss2/classifier_loss2/classifier2_0_split
I1028 13:41:33.208663 28229 net.cpp:157] Top shape: 50 2 (100)
I1028 13:41:33.208668 28229 net.cpp:157] Top shape: 50 2 (100)
I1028 13:41:33.208672 28229 net.cpp:165] Memory required for data: 2517507808
I1028 13:41:33.208675 28229 layer_factory.hpp:76] Creating layer loss2/loss
I1028 13:41:33.208683 28229 net.cpp:106] Creating Layer loss2/loss
I1028 13:41:33.208691 28229 net.cpp:454] loss2/loss <- loss2/classifier_loss2/classifier2_0_split_0
I1028 13:41:33.208698 28229 net.cpp:454] loss2/loss <- label_data_1_split_2
…
I1028 13:41:33.209594 28229 net.cpp:165] Memory required for data: 2517507816
I1028 13:41:33.209599 28229 layer_factory.hpp:76] Creating layer inception_4e/1x1
I1028 13:41:33.209612 28229 net.cpp:106] Creating Layer inception_4e/1x1
I1028 13:41:33.209619 28229 net.cpp:454] inception_4e/1x1 <- inception_4d/output_inception_4d/output_0_split_1
I1028 13:41:33.209636 28229 net.cpp:411] inception_4e/1x1 -> inception_4e/1x1
I1028 13:41:33.212051 28229 cudnn_conv_layer.cpp:194] Reallocating workspace storage: 10080
I1028 13:41:33.212111 28229 net.cpp:150] Setting up inception_4e/1x1
I1028 13:41:33.212121 28229 net.cpp:157] Top shape: 50 256 14 14 (2508800)
I1028 13:41:33.212126 28229 net.cpp:165] Memory required for data: 2527543016
I1028 13:41:33.212133 28229 layer_factory.hpp:76] Creating layer inception_4e/prelu_1x1
I1028 13:41:33.212144 28229 net.cpp:106] Creating Layer inception_4e/prelu_1x1
I1028 13:41:33.212155 28229 net.cpp:454] inception_4e/prelu_1x1 <- inception_4e/1x1
I1028 13:41:33.212182 28229 net.cpp:397] inception_4e/prelu_1x1 -> inception_4e/1x1 (in-place)
I1028 13:41:33.212330 28229 net.cpp:150] Setting up inception_4e/prelu_1x1
I1028 13:41:33.212340 28229 net.cpp:157] Top shape: 50 256 14 14 (2508800)
I1028 13:41:33.212344 28229 net.cpp:165] Memory required for data: 2537578216
I1028 13:41:33.212350 28229 layer_factory.hpp:76] Creating layer inception_4e/3x3_reduce
I1028 13:41:33.212359 28229 net.cpp:106] Creating Layer inception_4e/3x3_reduce
I1028 13:41:33.212364 28229 net.cpp:454] inception_4e/3x3_reduce <- inception_4d/output_inception_4d/output_0_split_2
I1028 13:41:33.212373 28229 net.cpp:411] inception_4e/3x3_reduce -> inception_4e/3x3_reduce
I1028 13:41:33.213997 28229 cudnn_conv_layer.cpp:194] Reallocating workspace storage: 10080
I1028 13:41:33.214058 28229 net.cpp:150] Setting up inception_4e/3x3_reduce
I1028 13:41:33.214072 28229 net.cpp:157] Top shape: 50 160 14 14 (1568000)
I1028 13:41:33.214078 28229 net.cpp:165] Memory required for data: 2543850216
I1028 13:41:33.214088 28229 layer_factory.hpp:76] Creating layer inception_4e/prelu_3x3_reduce
I1028 13:41:33.214102 28229 net.cpp:106] Creating Layer inception_4e/prelu_3x3_reduce
I1028 13:41:33.214109 28229 net.cpp:454] inception_4e/prelu_3x3_reduce <- inception_4e/3x3_reduce
I1028 13:41:33.214118 28229 net.cpp:397] inception_4e/prelu_3x3_reduce -> inception_4e/3x3_reduce (in-place)
I1028 13:41:33.214259 28229 net.cpp:150] Setting up inception_4e/prelu_3x3_reduce
I1028 13:41:33.214269 28229 net.cpp:157] Top shape: 50 160 14 14 (1568000)
I1028 13:41:33.214272 28229 net.cpp:165] Memory required for data: 2550122216
I1028 13:41:33.214278 28229 layer_factory.hpp:76] Creating layer inception_4e/3x3
I1028 13:41:33.214301 28229 net.cpp:106] Creating Layer inception_4e/3x3
I1028 13:41:33.214306 28229 net.cpp:454] inception_4e/3x3 <- inception_4e/3x3_reduce
I1028 13:41:33.214313 28229 net.cpp:411] inception_4e/3x3 -> inception_4e/3x3
I1028 13:41:33.219029 28229 cudnn_conv_layer.cpp:194] Reallocating workspace storage: 10080
I1028 13:41:33.219079 28229 net.cpp:150] Setting up inception_4e/3x3
I1028 13:41:33.219091 28229 net.cpp:157] Top shape: 50 320 14 14 (3136000)
I1028 13:41:33.219095 28229 net.cpp:165] Memory required for data: 2562666216
I1028 13:41:33.219115 28229 layer_factory.hpp:76] Creating layer inception_4e/prelu_3x3
I1028 13:41:33.219126 28229 net.cpp:106] Creating Layer inception_4e/prelu_3x3
I1028 13:41:33.219132 28229 net.cpp:454] inception_4e/prelu_3x3 <- inception_4e/3x3
I1028 13:41:33.219138 28229 net.cpp:397] inception_4e/prelu_3x3 -> inception_4e/3x3 (in-place)
I1028 13:41:33.219851 28229 net.cpp:150] Setting up inception_4e/prelu_3x3
I1028 13:41:33.219868 28229 net.cpp:157] Top shape: 50 320 14 14 (3136000)
I1028 13:41:33.219873 28229 net.cpp:165] Memory required for data: 2575210216
I1028 13:41:33.219879 28229 layer_factory.hpp:76] Creating layer inception_4e/5x5_reduce
I1028 13:41:33.219892 28229 net.cpp:106] Creating Layer inception_4e/5x5_reduce
I1028 13:41:33.219897 28229 net.cpp:454] inception_4e/5x5_reduce <- inception_4d/output_inception_4d/output_0_split_3
I1028 13:41:33.219904 28229 net.cpp:411] inception_4e/5x5_reduce -> inception_4e/5x5_reduce
I1028 13:41:33.221174 28229 cudnn_conv_layer.cpp:194] Reallocating workspace storage: 10080
I1028 13:41:33.221207 28229 net.cpp:150] Setting up inception_4e/5x5_reduce
I1028 13:41:33.221217 28229 net.cpp:157] Top shape: 50 32 14 14 (313600)
I1028 13:41:33.221221 28229 net.cpp:165] Memory required for data: 2576464616
I1028 13:41:33.221228 28229 layer_factory.hpp:76] Creating layer inception_4e/prelu_5x5_reduce
I1028 13:41:33.221236 28229 net.cpp:106] Creating Layer inception_4e/prelu_5x5_reduce
I1028 13:41:33.221241 28229 net.cpp:454] inception_4e/prelu_5x5_reduce <- inception_4e/5x5_reduce
I1028 13:41:33.221247 28229 net.cpp:397] inception_4e/prelu_5x5_reduce -> inception_4e/5x5_reduce (in-place)
I1028 13:41:33.221359 28229 net.cpp:150] Setting up inception_4e/prelu_5x5_reduce
I1028 13:41:33.221367 28229 net.cpp:157] Top shape: 50 32 14 14 (313600)
I1028 13:41:33.221371 28229 net.cpp:165] Memory required for data: 2577719016
I1028 13:41:33.221376 28229 layer_factory.hpp:76] Creating layer inception_4e/5x5
I1028 13:41:33.221385 28229 net.cpp:106] Creating Layer inception_4e/5x5
I1028 13:41:33.221390 28229 net.cpp:454] inception_4e/5x5 <- inception_4e/5x5_reduce
I1028 13:41:33.221398 28229 net.cpp:411] inception_4e/5x5 -> inception_4e/5x5
I1028 13:41:33.223525 28229 cudnn_conv_layer.cpp:194] Reallocating workspace storage: 13080
I1028 13:41:33.223556 28229 net.cpp:150] Setting up inception_4e/5x5
I1028 13:41:33.223563 28229 net.cpp:157] Top shape: 50 128 14 14 (1254400)
I1028 13:41:33.223567 28229 net.cpp:165] Memory required for data: 2582736616
I1028 13:41:33.223584 28229 layer_factory.hpp:76] Creating layer inception_4e/prelu_5x5
I1028 13:41:33.223593 28229 net.cpp:106] Creating Layer inception_4e/prelu_5x5
I1028 13:41:33.223598 28229 net.cpp:454] inception_4e/prelu_5x5 <- inception_4e/5x5
I1028 13:41:33.223615 28229 net.cpp:397] inception_4e/prelu_5x5 -> inception_4e/5x5 (in-place)
I1028 13:41:33.223721 28229 net.cpp:150] Setting up inception_4e/prelu_5x5
I1028 13:41:33.223729 28229 net.cpp:157] Top shape: 50 128 14 14 (1254400)
I1028 13:41:33.223732 28229 net.cpp:165] Memory required for data: 2587754216
I1028 13:41:33.223738 28229 layer_factory.hpp:76] Creating layer inception_4e/pool
I1028 13:41:33.223747 28229 net.cpp:106] Creating Layer inception_4e/pool
I1028 13:41:33.223752 28229 net.cpp:454] inception_4e/pool <- inception_4d/output_inception_4d/output_0_split_4
I1028 13:41:33.223757 28229 net.cpp:411] inception_4e/pool -> inception_4e/pool
I1028 13:41:33.223968 28229 net.cpp:150] Setting up inception_4e/pool
I1028 13:41:33.223978 28229 net.cpp:157] Top shape: 50 528 14 14 (5174400)
I1028 13:41:33.223983 28229 net.cpp:165] Memory required for data: 2608451816
I1028 13:41:33.223986 28229 layer_factory.hpp:76] Creating layer inception_4e/pool_proj
I1028 13:41:33.223994 28229 net.cpp:106] Creating Layer inception_4e/pool_proj
I1028 13:41:33.223999 28229 net.cpp:454] inception_4e/pool_proj <- inception_4e/pool
I1028 13:41:33.224005 28229 net.cpp:411] inception_4e/pool_proj -> inception_4e/pool_proj
I1028 13:41:33.225641 28229 cudnn_conv_layer.cpp:194] Reallocating workspace storage: 10080
I1028 13:41:33.225677 28229 net.cpp:150] Setting up inception_4e/pool_proj
I1028 13:41:33.225684 28229 net.cpp:157] Top shape: 50 128 14 14 (1254400)
I1028 13:41:33.225698 28229 net.cpp:165] Memory required for data: 2613469416
I1028 13:41:33.225705 28229 layer_factory.hpp:76] Creating layer inception_4e/prelu_pool_proj
I1028 13:41:33.225728 28229 net.cpp:106] Creating Layer inception_4e/prelu_pool_proj
I1028 13:41:33.225744 28229 net.cpp:454] inception_4e/prelu_pool_proj <- inception_4e/pool_proj
I1028 13:41:33.225759 28229 net.cpp:397] inception_4e/prelu_pool_proj -> inception_4e/pool_proj (in-place)
I1028 13:41:33.225889 28229 net.cpp:150] Setting up inception_4e/prelu_pool_proj
I1028 13:41:33.225898 28229 net.cpp:157] Top shape: 50 128 14 14 (1254400)
I1028 13:41:33.225901 28229 net.cpp:165] Memory required for data: 2618487016
I1028 13:41:33.225908 28229 layer_factory.hpp:76] Creating layer inception_4e/output
I1028 13:41:33.225914 28229 net.cpp:106] Creating Layer inception_4e/output
I1028 13:41:33.225919 28229 net.cpp:454] inception_4e/output <- inception_4e/1x1
I1028 13:41:33.225924 28229 net.cpp:454] inception_4e/output <- inception_4e/3x3
I1028 13:41:33.225929 28229 net.cpp:454] inception_4e/output <- inception_4e/5x5
I1028 13:41:33.225934 28229 net.cpp:454] inception_4e/output <- inception_4e/pool_proj
I1028 13:41:33.225939 28229 net.cpp:411] inception_4e/output -> inception_4e/output
I1028 13:41:33.225972 28229 net.cpp:150] Setting up inception_4e/output
I1028 13:41:33.225980 28229 net.cpp:157] Top shape: 50 832 14 14 (8153600)
I1028 13:41:33.225983 28229 net.cpp:165] Memory required for data: 2651101416
I1028 13:41:33.225987 28229 layer_factory.hpp:76] Creating layer pool4/3x3_s2
I1028 13:41:33.225996 28229 net.cpp:106] Creating Layer pool4/3x3_s2
I1028 13:41:33.226001 28229 net.cpp:454] pool4/3x3_s2 <- inception_4e/output
I1028 13:41:33.226006 28229 net.cpp:411] pool4/3x3_s2 -> pool4/3x3_s2
I1028 13:41:33.226243 28229 net.cpp:150] Setting up pool4/3x3_s2
I1028 13:41:33.226254 28229 net.cpp:157] Top shape: 50 832 7 7 (2038400)
I1028 13:41:33.226258 28229 net.cpp:165] Memory required for data: 2659255016
I1028 13:41:33.226263 28229 layer_factory.hpp:76] Creating layer pool4/3x3_s2_pool4/3x3_s2_0_split
I1028 13:41:33.226269 28229 net.cpp:106] Creating Layer pool4/3x3_s2_pool4/3x3_s2_0_split
I1028 13:41:33.226272 28229 net.cpp:454] pool4/3x3_s2_pool4/3x3_s2_0_split <- pool4/3x3_s2
I1028 13:41:33.226280 28229 net.cpp:411] pool4/3x3_s2_pool4/3x3_s2_0_split -> pool4/3x3_s2_pool4/3x3_s2_0_split_0
I1028 13:41:33.226287 28229 net.cpp:411] pool4/3x3_s2_pool4/3x3_s2_0_split -> pool4/3x3_s2_pool4/3x3_s2_0_split_1
I1028 13:41:33.226294 28229 net.cpp:411] pool4/3x3_s2_pool4/3x3_s2_0_split -> pool4/3x3_s2_pool4/3x3_s2_0_split_2
I1028 13:41:33.226300 28229 net.cpp:411] pool4/3x3_s2_pool4/3x3_s2_0_split -> pool4/3x3_s2_pool4/3x3_s2_0_split_3
I1028 13:41:33.226351 28229 net.cpp:150] Setting up pool4/3x3_s2_pool4/3x3_s2_0_split
I1028 13:41:33.226359 28229 net.cpp:157] Top shape: 50 832 7 7 (2038400)
I1028 13:41:33.226364 28229 net.cpp:157] Top shape: 50 832 7 7 (2038400)
I1028 13:41:33.226369 28229 net.cpp:157] Top shape: 50 832 7 7 (2038400)
I1028 13:41:33.226373 28229 net.cpp:157] Top shape: 50 832 7 7 (2038400)
I1028 13:41:33.226377 28229 net.cpp:165] Memory required for data: 2691869416
I1028 13:41:33.226382 28229 layer_factory.hpp:76] Creating layer inception_5a/1x1
I1028 13:41:33.226390 28229 net.cpp:106] Creating Layer inception_5a/1x1
I1028 13:41:33.226394 28229 net.cpp:454] inception_5a/1x1 <- pool4/3x3_s2_pool4/3x3_s2_0_split_0
I1028 13:41:33.226402 28229 net.cpp:411] inception_5a/1x1 -> inception_5a/1x1
I1028 13:41:33.229118 28229 cudnn_conv_layer.cpp:194] Reallocating workspace storage: 7428
I1028 13:41:33.229154 28229 net.cpp:150] Setting up inception_5a/1x1
I1028 13:41:33.229162 28229 net.cpp:157] Top shape: 50 256 7 7 (627200)
I1028 13:41:33.229166 28229 net.cpp:165] Memory required for data: 2694378216
I1028 13:41:33.229173 28229 layer_factory.hpp:76] Creating layer inception_5a/prelu_1x1
I1028 13:41:33.229182 28229 net.cpp:106] Creating Layer inception_5a/prelu_1x1
I1028 13:41:33.229185 28229 net.cpp:454] inception_5a/prelu_1x1 <- inception_5a/1x1
I1028 13:41:33.229203 28229 net.cpp:397] inception_5a/prelu_1x1 -> inception_5a/1x1 (in-place)
I1028 13:41:33.229305 28229 net.cpp:150] Setting up inception_5a/prelu_1x1
I1028 13:41:33.229323 28229 net.cpp:157] Top shape: 50 256 7 7 (627200)
I1028 13:41:33.229328 28229 net.cpp:165] Memory required for data: 2696887016
I1028 13:41:33.229333 28229 layer_factory.hpp:76] Creating layer inception_5a/3x3_reduce
I1028 13:41:33.229341 28229 net.cpp:106] Creating Layer inception_5a/3x3_reduce
I1028 13:41:33.229346 28229 net.cpp:454] inception_5a/3x3_reduce <- pool4/3x3_s2_pool4/3x3_s2_0_split_1
I1028 13:41:33.229353 28229 net.cpp:411] inception_5a/3x3_reduce -> inception_5a/3x3_reduce
I1028 13:41:33.231654 28229 cudnn_conv_layer.cpp:194] Reallocating workspace storage: 7428
I1028 13:41:33.231694 28229 net.cpp:150] Setting up inception_5a/3x3_reduce
I1028 13:41:33.231703 28229 net.cpp:157] Top shape: 50 160 7 7 (392000)
I1028 13:41:33.231708 28229 net.cpp:165] Memory required for data: 2698455016
I1028 13:41:33.231714 28229 layer_factory.hpp:76] Creating layer inception_5a/prelu_3x3_reduce
I1028 13:41:33.231721 28229 net.cpp:106] Creating Layer inception_5a/prelu_3x3_reduce
I1028 13:41:33.231727 28229 net.cpp:454] inception_5a/prelu_3x3_reduce <- inception_5a/3x3_reduce
I1028 13:41:33.231734 28229 net.cpp:397] inception_5a/prelu_3x3_reduce -> inception_5a/3x3_reduce (in-place)
I1028 13:41:33.231818 28229 net.cpp:150] Setting up inception_5a/prelu_3x3_reduce
I1028 13:41:33.231828 28229 net.cpp:157] Top shape: 50 160 7 7 (392000)
I1028 13:41:33.231832 28229 net.cpp:165] Memory required for data: 2700023016
I1028 13:41:33.231838 28229 layer_factory.hpp:76] Creating layer inception_5a/3x3
I1028 13:41:33.231855 28229 net.cpp:106] Creating Layer inception_5a/3x3
I1028 13:41:33.231861 28229 net.cpp:454] inception_5a/3x3 <- inception_5a/3x3_reduce
I1028 13:41:33.231869 28229 net.cpp:411] inception_5a/3x3 -> inception_5a/3x3
I1028 13:41:33.236516 28229 cudnn_conv_layer.cpp:194] Reallocating workspace storage: 7788
I1028 13:41:33.236574 28229 net.cpp:150] Setting up inception_5a/3x3
I1028 13:41:33.236588 28229 net.cpp:157] Top shape: 50 320 7 7 (784000)
I1028 13:41:33.236603 28229 net.cpp:165] Memory required for data: 2703159016
I1028 13:41:33.236613 28229 layer_factory.hpp:76] Creating layer inception_5a/prelu_3x3
I1028 13:41:33.236624 28229 net.cpp:106] Creating Layer inception_5a/prelu_3x3
I1028 13:41:33.236630 28229 net.cpp:454] inception_5a/prelu_3x3 <- inception_5a/3x3
I1028 13:41:33.236639 28229 net.cpp:397] inception_5a/prelu_3x3 -> inception_5a/3x3 (in-place)
I1028 13:41:33.236778 28229 net.cpp:150] Setting up inception_5a/prelu_3x3
I1028 13:41:33.236788 28229 net.cpp:157] Top shape: 50 320 7 7 (784000)
I1028 13:41:33.236790 28229 net.cpp:165] Memory required for data: 2706295016
I1028 13:41:33.236796 28229 layer_factory.hpp:76] Creating layer inception_5a/5x5_reduce
I1028 13:41:33.236809 28229 net.cpp:106] Creating Layer inception_5a/5x5_reduce
I1028 13:41:33.236814 28229 net.cpp:454] inception_5a/5x5_reduce <- pool4/3x3_s2_pool4/3x3_s2_0_split_2
I1028 13:41:33.236820 28229 net.cpp:411] inception_5a/5x5_reduce -> inception_5a/5x5_reduce
I1028 13:41:33.238273 28229 cudnn_conv_layer.cpp:194] Reallocating workspace storage: 7428
I1028 13:41:33.238330 28229 net.cpp:150] Setting up inception_5a/5x5_reduce
I1028 13:41:33.238340 28229 net.cpp:157] Top shape: 50 32 7 7 (78400)
I1028 13:41:33.238345 28229 net.cpp:165] Memory required for data: 2706608616
I1028 13:41:33.238353 28229 layer_factory.hpp:76] Creating layer inception_5a/prelu_5x5_reduce
I1028 13:41:33.238365 28229 net.cpp:106] Creating Layer inception_5a/prelu_5x5_reduce
I1028 13:41:33.238370 28229 net.cpp:454] inception_5a/prelu_5x5_reduce <- inception_5a/5x5_reduce
I1028 13:41:33.238389 28229 net.cpp:397] inception_5a/prelu_5x5_reduce -> inception_5a/5x5_reduce (in-place)
I1028 13:41:33.238519 28229 net.cpp:150] Setting up inception_5a/prelu_5x5_reduce
I1028 13:41:33.238529 28229 net.cpp:157] Top shape: 50 32 7 7 (78400)
I1028 13:41:33.238543 28229 net.cpp:165] Memory required for data: 2706922216
I1028 13:41:33.238549 28229 layer_factory.hpp:76] Creating layer inception_5a/5x5
I1028 13:41:33.238559 28229 net.cpp:106] Creating Layer inception_5a/5x5
I1028 13:41:33.238581 28229 net.cpp:454] inception_5a/5x5 <- inception_5a/5x5_reduce
I1028 13:41:33.238590 28229 net.cpp:411] inception_5a/5x5 -> inception_5a/5x5
I1028 13:41:33.240249 28229 cudnn_conv_layer.cpp:194] Reallocating workspace storage: 9804
I1028 13:41:33.240300 28229 net.cpp:150] Setting up inception_5a/5x5
I1028 13:41:33.240311 28229 net.cpp:157] Top shape: 50 128 7 7 (313600)
I1028 13:41:33.240315 28229 net.cpp:165] Memory required for data: 2708176616
I1028 13:41:33.240324 28229 layer_factory.hpp:76] Creating layer inception_5a/prelu_5x5
I1028 13:41:33.240336 28229 net.cpp:106] Creating Layer inception_5a/prelu_5x5
I1028 13:41:33.240342 28229 net.cpp:454] inception_5a/prelu_5x5 <- inception_5a/5x5
I1028 13:41:33.240350 28229 net.cpp:397] inception_5a/prelu_5x5 -> inception_5a/5x5 (in-place)
I1028 13:41:33.240469 28229 net.cpp:150] Setting up inception_5a/prelu_5x5
I1028 13:41:33.240478 28229 net.cpp:157] Top shape: 50 128 7 7 (313600)
I1028 13:41:33.240483 28229 net.cpp:165] Memory required for data: 2709431016
I1028 13:41:33.240489 28229 layer_factory.hpp:76] Creating layer inception_5a/pool
I1028 13:41:33.240499 28229 net.cpp:106] Creating Layer inception_5a/pool
I1028 13:41:33.240504 28229 net.cpp:454] inception_5a/pool <- pool4/3x3_s2_pool4/3x3_s2_0_split_3
I1028 13:41:33.240511 28229 net.cpp:411] inception_5a/pool -> inception_5a/pool
I1028 13:41:33.241008 28229 net.cpp:150] Setting up inception_5a/pool
I1028 13:41:33.241024 28229 net.cpp:157] Top shape: 50 832 7 7 (2038400)
I1028 13:41:33.241029 28229 net.cpp:165] Memory required for data: 2717584616
I1028 13:41:33.241032 28229 layer_factory.hpp:76] Creating layer inception_5a/pool_proj
I1028 13:41:33.241044 28229 net.cpp:106] Creating Layer inception_5a/pool_proj
I1028 13:41:33.241050 28229 net.cpp:454] inception_5a/pool_proj <- inception_5a/pool
I1028 13:41:33.241058 28229 net.cpp:411] inception_5a/pool_proj -> inception_5a/pool_proj
I1028 13:41:33.243564 28229 cudnn_conv_layer.cpp:194] Reallocating workspace storage: 7428
I1028 13:41:33.243633 28229 net.cpp:150] Setting up inception_5a/pool_proj
I1028 13:41:33.243644 28229 net.cpp:157] Top shape: 50 128 7 7 (313600)
I1028 13:41:33.243660 28229 net.cpp:165] Memory required for data: 2718839016
I1028 13:41:33.243676 28229 layer_factory.hpp:76] Creating layer inception_5a/prelu_pool_proj
I1028 13:41:33.243691 28229 net.cpp:106] Creating Layer inception_5a/prelu_pool_proj
I1028 13:41:33.243697 28229 net.cpp:454] inception_5a/prelu_pool_proj <- inception_5a/pool_proj
I1028 13:41:33.243706 28229 net.cpp:397] inception_5a/prelu_pool_proj -> inception_5a/pool_proj (in-place)
I1028 13:41:33.243827 28229 net.cpp:150] Setting up inception_5a/prelu_pool_proj
I1028 13:41:33.243839 28229 net.cpp:157] Top shape: 50 128 7 7 (313600)
I1028 13:41:33.243842 28229 net.cpp:165] Memory required for data: 2720093416
I1028 13:41:33.243849 28229 layer_factory.hpp:76] Creating layer inception_5a/output
I1028 13:41:33.243857 28229 net.cpp:106] Creating Layer inception_5a/output
I1028 13:41:33.243862 28229 net.cpp:454] inception_5a/output <- inception_5a/1x1
I1028 13:41:33.243877 28229 net.cpp:454] inception_5a/output <- inception_5a/3x3
I1028 13:41:33.243883 28229 net.cpp:454] inception_5a/output <- inception_5a/5x5
I1028 13:41:33.243888 28229 net.cpp:454] inception_5a/output <- inception_5a/pool_proj
I1028 13:41:33.243894 28229 net.cpp:411] inception_5a/output -> inception_5a/output
I1028 13:41:33.243935 28229 net.cpp:150] Setting up inception_5a/output
I1028 13:41:33.243944 28229 net.cpp:157] Top shape: 50 832 7 7 (2038400)
I1028 13:41:33.243947 28229 net.cpp:165] Memory required for data: 2728247016
I1028 13:41:33.243952 28229 layer_factory.hpp:76] Creating layer inception_5a/output_inception_5a/output_0_split
I1028 13:41:33.243960 28229 net.cpp:106] Creating Layer inception_5a/output_inception_5a/output_0_split
I1028 13:41:33.243965 28229 net.cpp:454] inception_5a/output_inception_5a/output_0_split <- inception_5a/output
I1028 13:41:33.243981 28229 net.cpp:411] inception_5a/output_inception_5a/output_0_split -> inception_5a/output_inception_5a/output_0_split_0
I1028 13:41:33.244009 28229 net.cpp:411] inception_5a/output_inception_5a/output_0_split -> inception_5a/output_inception_5a/output_0_split_1
I1028 13:41:33.244017 28229 net.cpp:411] inception_5a/output_inception_5a/output_0_split -> inception_5a/output_inception_5a/output_0_split_2
I1028 13:41:33.244024 28229 net.cpp:411] inception_5a/output_inception_5a/output_0_split -> inception_5a/output_inception_5a/output_0_split_3
I1028 13:41:33.244112 28229 net.cpp:150] Setting up inception_5a/output_inception_5a/output_0_split
I1028 13:41:33.244120 28229 net.cpp:157] Top shape: 50 832 7 7 (2038400)
I1028 13:41:33.244125 28229 net.cpp:157] Top shape: 50 832 7 7 (2038400)
I1028 13:41:33.244140 28229 net.cpp:157] Top shape: 50 832 7 7 (2038400)
I1028 13:41:33.244145 28229 net.cpp:157] Top shape: 50 832 7 7 (2038400)
I1028 13:41:33.244149 28229 net.cpp:165] Memory required for data: 2760861416
I1028 13:41:33.244153 28229 layer_factory.hpp:76] Creating layer inception_5b/1x1
I1028 13:41:33.244168 28229 net.cpp:106] Creating Layer inception_5b/1x1
I1028 13:41:33.244174 28229 net.cpp:454] inception_5b/1x1 <- inception_5a/output_inception_5a/output_0_split_0
I1028 13:41:33.244180 28229 net.cpp:411] inception_5b/1x1 -> inception_5b/1x1
I1028 13:41:33.248136 28229 cudnn_conv_layer.cpp:194] Reallocating workspace storage: 7428
I1028 13:41:33.248209 28229 net.cpp:150] Setting up inception_5b/1x1
I1028 13:41:33.248224 28229 net.cpp:157] Top shape: 50 384 7 7 (940800)
I1028 13:41:33.248229 28229 net.cpp:165] Memory required for data: 2764624616
I1028 13:41:33.248239 28229 layer_factory.hpp:76] Creating layer inception_5b/prelu_1x1
I1028 13:41:33.248252 28229 net.cpp:106] Creating Layer inception_5b/prelu_1x1
I1028 13:41:33.248261 28229 net.cpp:454] inception_5b/prelu_1x1 <- inception_5b/1x1
I1028 13:41:33.248270 28229 net.cpp:397] inception_5b/prelu_1x1 -> inception_5b/1x1 (in-place)
I1028 13:41:33.248420 28229 net.cpp:150] Setting up inception_5b/prelu_1x1
I1028 13:41:33.248431 28229 net.cpp:157] Top shape: 50 384 7 7 (940800)
I1028 13:41:33.248435 28229 net.cpp:165] Memory required for data: 2768387816
I1028 13:41:33.248441 28229 layer_factory.hpp:76] Creating layer inception_5b/3x3_reduce
I1028 13:41:33.248453 28229 net.cpp:106] Creating Layer inception_5b/3x3_reduce
I1028 13:41:33.248458 28229 net.cpp:454] inception_5b/3x3_reduce <- inception_5a/output_inception_5a/output_0_split_1
I1028 13:41:33.248467 28229 net.cpp:411] inception_5b/3x3_reduce -> inception_5b/3x3_reduce
I1028 13:41:33.250969 28229 cudnn_conv_layer.cpp:194] Reallocating workspace storage: 7428
I1028 13:41:33.251015 28229 net.cpp:150] Setting up inception_5b/3x3_reduce
I1028 13:41:33.251024 28229 net.cpp:157] Top shape: 50 192 7 7 (470400)
I1028 13:41:33.251029 28229 net.cpp:165] Memory required for data: 2770269416
I1028 13:41:33.251036 28229 layer_factory.hpp:76] Creating layer inception_5b/prelu_3x3_reduce
I1028 13:41:33.251047 28229 net.cpp:106] Creating Layer inception_5b/prelu_3x3_reduce
I1028 13:41:33.251054 28229 net.cpp:454] inception_5b/prelu_3x3_reduce <- inception_5b/3x3_reduce
I1028 13:41:33.251061 28229 net.cpp:397] inception_5b/prelu_3x3_reduce -> inception_5b/3x3_reduce (in-place)
I1028 13:41:33.251178 28229 net.cpp:150] Setting up inception_5b/prelu_3x3_reduce
I1028 13:41:33.251186 28229 net.cpp:157] Top shape: 50 192 7 7 (470400)
I1028 13:41:33.251190 28229 net.cpp:165] Memory required for data: 2772151016
I1028 13:41:33.251195 28229 layer_factory.hpp:76] Creating layer inception_5b/3x3
I1028 13:41:33.251205 28229 net.cpp:106] Creating Layer inception_5b/3x3
I1028 13:41:33.251210 28229 net.cpp:454] inception_5b/3x3 <- inception_5b/3x3_reduce
I1028 13:41:33.251217 28229 net.cpp:411] inception_5b/3x3 -> inception_5b/3x3
I1028 13:41:33.257021 28229 cudnn_conv_layer.cpp:194] Reallocating workspace storage: 7788
I1028 13:41:33.257092 28229 net.cpp:150] Setting up inception_5b/3x3
I1028 13:41:33.257113 28229 net.cpp:157] Top shape: 50 384 7 7 (940800)
I1028 13:41:33.257117 28229 net.cpp:165] Memory required for data: 2775914216
I1028 13:41:33.257143 28229 layer_factory.hpp:76] Creating layer inception_5b/prelu_3x3
I1028 13:41:33.257158 28229 net.cpp:106] Creating Layer inception_5b/prelu_3x3
I1028 13:41:33.257189 28229 net.cpp:454] inception_5b/prelu_3x3 <- inception_5b/3x3
I1028 13:41:33.257197 28229 net.cpp:397] inception_5b/prelu_3x3 -> inception_5b/3x3 (in-place)
I1028 13:41:33.257323 28229 net.cpp:150] Setting up inception_5b/prelu_3x3
I1028 13:41:33.257331 28229 net.cpp:157] Top shape: 50 384 7 7 (940800)
I1028 13:41:33.257336 28229 net.cpp:165] Memory required for data: 2779677416
I1028 13:41:33.257341 28229 layer_factory.hpp:76] Creating layer inception_5b/5x5_reduce
I1028 13:41:33.257352 28229 net.cpp:106] Creating Layer inception_5b/5x5_reduce
I1028 13:41:33.257367 28229 net.cpp:454] inception_5b/5x5_reduce <- inception_5a/output_inception_5a/output_0_split_2
I1028 13:41:33.257376 28229 net.cpp:411] inception_5b/5x5_reduce -> inception_5b/5x5_reduce
I1028 13:41:33.259057 28229 cudnn_conv_layer.cpp:194] Reallocating workspace storage: 7428
I1028 13:41:33.259109 28229 net.cpp:150] Setting up inception_5b/5x5_reduce
I1028 13:41:33.259124 28229 net.cpp:157] Top shape: 50 48 7 7 (117600)
I1028 13:41:33.259129 28229 net.cpp:165] Memory required for data: 2780147816
I1028 13:41:33.259136 28229 layer_factory.hpp:76] Creating layer inception_5b/prelu_5x5_reduce
I1028 13:41:33.259148 28229 net.cpp:106] Creating Layer inception_5b/prelu_5x5_reduce
I1028 13:41:33.259166 28229 net.cpp:454] inception_5b/prelu_5x5_reduce <- inception_5b/5x5_reduce
I1028 13:41:33.259183 28229 net.cpp:397] inception_5b/prelu_5x5_reduce -> inception_5b/5x5_reduce (in-place)
I1028 13:41:33.259309 28229 net.cpp:150] Setting up inception_5b/prelu_5x5_reduce
I1028 13:41:33.259318 28229 net.cpp:157] Top shape: 50 48 7 7 (117600)
I1028 13:41:33.259322 28229 net.cpp:165] Memory required for data: 2780618216
I1028 13:41:33.259328 28229 layer_factory.hpp:76] Creating layer inception_5b/5x5
I1028 13:41:33.259338 28229 net.cpp:106] Creating Layer inception_5b/5x5
I1028 13:41:33.259343 28229 net.cpp:454] inception_5b/5x5 <- inception_5b/5x5_reduce
I1028 13:41:33.259351 28229 net.cpp:411] inception_5b/5x5 -> inception_5b/5x5
I1028 13:41:33.261471 28229 cudnn_conv_layer.cpp:194] Reallocating workspace storage: 9804
I1028 13:41:33.261515 28229 net.cpp:150] Setting up inception_5b/5x5
I1028 13:41:33.261525 28229 net.cpp:157] Top shape: 50 128 7 7 (313600)
I1028 13:41:33.261529 28229 net.cpp:165] Memory required for data: 2781872616
I1028 13:41:33.261538 28229 layer_factory.hpp:76] Creating layer inception_5b/prelu_5x5
I1028 13:41:33.261546 28229 net.cpp:106] Creating Layer inception_5b/prelu_5x5
I1028 13:41:33.261551 28229 net.cpp:454] inception_5b/prelu_5x5 <- inception_5b/5x5
I1028 13:41:33.261569 28229 net.cpp:397] inception_5b/prelu_5x5 -> inception_5b/5x5 (in-place)
I1028 13:41:33.261682 28229 net.cpp:150] Setting up inception_5b/prelu_5x5
I1028 13:41:33.261692 28229 net.cpp:157] Top shape: 50 128 7 7 (313600)
I1028 13:41:33.261695 28229 net.cpp:165] Memory required for data: 2783127016
I1028 13:41:33.261700 28229 layer_factory.hpp:76] Creating layer inception_5b/pool
I1028 13:41:33.261708 28229 net.cpp:106] Creating Layer inception_5b/pool
I1028 13:41:33.261713 28229 net.cpp:454] inception_5b/pool <- inception_5a/output_inception_5a/output_0_split_3
I1028 13:41:33.261721 28229 net.cpp:411] inception_5b/pool -> inception_5b/pool
I1028 13:41:33.261929 28229 net.cpp:150] Setting up inception_5b/pool
I1028 13:41:33.261940 28229 net.cpp:157] Top shape: 50 832 7 7 (2038400)
I1028 13:41:33.261945 28229 net.cpp:165] Memory required for data: 2791280616
I1028 13:41:33.261950 28229 layer_factory.hpp:76] Creating layer inception_5b/pool_proj
I1028 13:41:33.261957 28229 net.cpp:106] Creating Layer inception_5b/pool_proj
I1028 13:41:33.261962 28229 net.cpp:454] inception_5b/pool_proj <- inception_5b/pool
I1028 13:41:33.261971 28229 net.cpp:411] inception_5b/pool_proj -> inception_5b/pool_proj
I1028 13:41:33.264405 28229 cudnn_conv_layer.cpp:194] Reallocating workspace storage: 7428
I1028 13:41:33.264482 28229 net.cpp:150] Setting up inception_5b/pool_proj
I1028 13:41:33.264514 28229 net.cpp:157] Top shape: 50 128 7 7 (313600)
I1028 13:41:33.264519 28229 net.cpp:165] Memory required for data: 2792535016
I1028 13:41:33.264529 28229 layer_factory.hpp:76] Creating layer inception_5b/prelu_pool_proj
I1028 13:41:33.264544 28229 net.cpp:106] Creating Layer inception_5b/prelu_pool_proj
I1028 13:41:33.264562 28229 net.cpp:454] inception_5b/prelu_pool_proj <- inception_5b/pool_proj
I1028 13:41:33.264583 28229 net.cpp:397] inception_5b/prelu_pool_proj -> inception_5b/pool_proj (in-place)
I1028 13:41:33.264696 28229 net.cpp:150] Setting up inception_5b/prelu_pool_proj
I1028 13:41:33.264706 28229 net.cpp:157] Top shape: 50 128 7 7 (313600)
I1028 13:41:33.264719 28229 net.cpp:165] Memory required for data: 2793789416
I1028 13:41:33.264726 28229 layer_factory.hpp:76] Creating layer inception_5b/output
I1028 13:41:33.264736 28229 net.cpp:106] Creating Layer inception_5b/output
I1028 13:41:33.264741 28229 net.cpp:454] inception_5b/output <- inception_5b/1x1
I1028 13:41:33.264747 28229 net.cpp:454] inception_5b/output <- inception_5b/3x3
I1028 13:41:33.264751 28229 net.cpp:454] inception_5b/output <- inception_5b/5x5
I1028 13:41:33.264756 28229 net.cpp:454] inception_5b/output <- inception_5b/pool_proj
I1028 13:41:33.264762 28229 net.cpp:411] inception_5b/output -> inception_5b/output
I1028 13:41:33.264802 28229 net.cpp:150] Setting up inception_5b/output
I1028 13:41:33.264811 28229 net.cpp:157] Top shape: 50 1024 7 7 (2508800)
I1028 13:41:33.264814 28229 net.cpp:165] Memory required for data: 2803824616
I1028 13:41:33.264828 28229 layer_factory.hpp:76] Creating layer pool5/7x7_s1
I1028 13:41:33.264837 28229 net.cpp:106] Creating Layer pool5/7x7_s1
I1028 13:41:33.264842 28229 net.cpp:454] pool5/7x7_s1 <- inception_5b/output
I1028 13:41:33.264849 28229 net.cpp:411] pool5/7x7_s1 -> pool5/7x7_s1
I1028 13:41:33.265283 28229 net.cpp:150] Setting up pool5/7x7_s1
I1028 13:41:33.265297 28229 net.cpp:157] Top shape: 50 1024 1 1 (51200)
I1028 13:41:33.265301 28229 net.cpp:165] Memory required for data: 2804029416
I1028 13:41:33.265306 28229 layer_factory.hpp:76] Creating layer pool5/drop_7x7_s1
I1028 13:41:33.265316 28229 net.cpp:106] Creating Layer pool5/drop_7x7_s1
I1028 13:41:33.265321 28229 net.cpp:454] pool5/drop_7x7_s1 <- pool5/7x7_s1
I1028 13:41:33.265328 28229 net.cpp:397] pool5/drop_7x7_s1 -> pool5/7x7_s1 (in-place)
I1028 13:41:33.265365 28229 net.cpp:150] Setting up pool5/drop_7x7_s1
I1028 13:41:33.265373 28229 net.cpp:157] Top shape: 50 1024 1 1 (51200)
I1028 13:41:33.265377 28229 net.cpp:165] Memory required for data: 2804234216
I1028 13:41:33.265382 28229 layer_factory.hpp:76] Creating layer loss3/classifier2
I1028 13:41:33.265393 28229 net.cpp:106] Creating Layer loss3/classifier2
I1028 13:41:33.265398 28229 net.cpp:454] loss3/classifier2 <- pool5/7x7_s1
I1028 13:41:33.265405 28229 net.cpp:411] loss3/classifier2 -> loss3/classifier
I1028 13:41:33.265573 28229 net.cpp:150] Setting up loss3/classifier2
I1028 13:41:33.265583 28229 net.cpp:157] Top shape: 50 2 (100)
I1028 13:41:33.265588 28229 net.cpp:165] Memory required for data: 2804234616
I1028 13:41:33.265594 28229 layer_factory.hpp:76] Creating layer loss3/classifier_loss3/classifier2_0_split
I1028 13:41:33.265601 28229 net.cpp:106] Creating Layer loss3/classifier_loss3/classifier2_0_split
I1028 13:41:33.265605 28229 net.cpp:454] loss3/classifier_loss3/classifier2_0_split <- loss3/classifier
I1028 13:41:33.265621 28229 net.cpp:411] loss3/classifier_loss3/classifier2_0_split -> loss3/classifier_loss3/classifier2_0_split_0
I1028 13:41:33.265630 28229 net.cpp:411] loss3/classifier_loss3/classifier2_0_split -> loss3/classifier_loss3/classifier2_0_split_1
I1028 13:41:33.265683 28229 net.cpp:150] Setting up loss3/classifier_loss3/classifier2_0_split
I1028 13:41:33.265692 28229 net.cpp:157] Top shape: 50 2 (100)
I1028 13:41:33.265697 28229 net.cpp:157] Top shape: 50 2 (100)
I1028 13:41:33.265700 28229 net.cpp:165] Memory required for data: 2804235416
I1028 13:41:33.265704 28229 layer_factory.hpp:76] Creating layer loss3/loss3
I1028 13:41:33.265734 28229 net.cpp:106] Creating Layer loss3/loss3
I1028 13:41:33.265739 28229 net.cpp:454] loss3/loss3 <- loss3/classifier_loss3/classifier2_0_split_0
I1028 13:41:33.265745 28229 net.cpp:454] loss3/loss3 <- label_data_1_split_4
…
