…
I1105 17:39:58.096220 24615 net.cpp:322] The NetState phase (0) differed from the phase (1) specified by a rule in layer loss3/top-1
I1105 17:39:58.097209 24615 net.cpp:49] Initializing net from parameters: 
name: "GoogleNet"
state {
  phase: TRAIN
}
layer {
  name: "data"
  type: "Data"
  top: "data"
  top: "label"
  include {
    phase: TRAIN
  }
  transform_param {
    mirror: true
    crop_size: 224
    mean_value: 104
    mean_value: 117
    mean_value: 123
  }
  data_param {
    source: "../../LMDB/train_6-lmdb"
    batch_size: 32
    backend: LMDB
  }
}
layer {
  name: "conv1/7x7_s2"
  type: "Convolution"
  bottom: "data"
  top: "conv1/7x7_s2"
  param {
    lr_mult: 1
    decay_mult: 1
  }
  param {
    lr_mult: 2
    decay_mult: 0
  }
  convolution_param {
    num_output: 64
    pad: 3
    kernel_size: 7
    stride: 2
    weight_filler {
      type: "xavier"
    }
    bias_filler {
      type: "constant"
      value: 0.2
    }
  }
}
layer {
  name: "conv1/prelu_7x7"
  type: "PReLU"
  bottom: "conv1/7x7_s2"
  top: "conv1/7x7_s2"
  param {
    lr_mult: 1
    decay_mult: 0
  }
  prelu_param {
    filler {
      type: "constant"
      value: 0.01
    }
  }
}
layer {
  name: "pool1/3x3_s2"
  type: "Pooling"
  bottom: "conv1/7x7_s2"
  top: "pool1/3x3_s2"
  pooling_param {
    pool: MAX
    kernel_size: 3
    stride: 2
  }
}
layer {
  name: "pool1/norm1"
  type: "LRN"
  bottom: "pool1/3x3_s2"
  top: "pool1/norm1"
  lrn_param {
    local_size: 5
    alpha: 0.0001
    beta: 0.75
  }
}
layer {
  name: "conv2/3x3_reduce"
  type: "Convolution"
  bottom: "pool1/norm1"
  top: "conv2/3x3_reduce"
  param {
    lr_mult: 1
    decay_mult: 1
  }
  param {
    lr_mult: 2
    decay_mult: 0
  }
  convolution_param {
    num_output: 64
    kernel_size: 1
    weight_filler {
      type: "xavier"
    }
    bias_filler {
      type: "constant"
      value: 0.2
    }
  }
}
layer {
  name: "conv2/prelu_3x3_reduce"
  type: "PReLU"
  bottom: "conv2/3x3_reduce"
  top: "conv2/3x3_reduce"
  param {
    lr_mult: 1
    decay_mult: 0
  }
  prelu_param {
    filler {
      type: "constant"
      value: 0.01
    }
  }
}
layer {
  name: "conv2/3x3"
  type: "Convolution"
  bottom: "conv2/3x3_reduce"
  top: "conv2/3x3"
  param {
    lr_mult: 1
    decay_mult: 1
  }
  param {
    lr_mult: 2
    decay_mult: 0
  }
  convolution_param {
    num_output: 192
    pad: 1
    kernel_size: 3
    weight_filler {
      type: "xavier"
    }
    bias_filler {
      type: "constant"
      value: 0.2
    }
  }
}
layer {
  name: "conv2/prelu_3x3"
  type: "PReLU"
  bottom: "conv2/3x3"
  top: "conv2/3x3"
  param {
    lr_mult: 1
    decay_mult: 0
  }
  prelu_param {
    filler {
      type: "constant"
      value: 0.01
    }
  }
}
layer {
  name: "conv2/norm2"
  type: "LRN"
  bottom: "conv2/3x3"
  top: "conv2/norm2"
  lrn_param {
    local_size: 5
    alpha: 0.0001
    beta: 0.75
  }
}
layer {
  name: "pool2/3x3_s2"
  type: "Pooling"
  bottom: "conv2/norm2"
  top: "pool2/3x3_s2"
  pooling_param {
    pool: MAX
    kernel_size: 3
    stride: 2
  }
}
layer {
  name: "inception_3a/1x1"
  type: "Convolution"
  bottom: "pool2/3x3_s2"
  top: "inception_3a/1x1"
  param {
    lr_mult: 1
    decay_mult: 1
  }
  param {
    lr_mult: 2
    decay_mult: 0
  }
  convolution_param {
    num_output: 64
    kernel_size: 1
    weight_filler {
      type: "xavier"
    }
    bias_filler {
      type: "constant"
      value: 0.2
    }
  }
}
layer {
  name: "inception_3a/prelu_1x1"
  type: "PReLU"
  bottom: "inception_3a/1x1"
  top: "inception_3a/1x1"
  param {
    lr_mult: 1
    decay_mult: 0
  }
  prelu_param {
    filler {
      type: "constant"
      value: 0.01
    }
  }
}
layer {
  name: "inception_3a/3x3_reduce"
  type: "Convolution"
  bottom: "pool2/3x3_s2"
  top: "inception_3a/3x3_reduce"
  param {
    lr_mult: 1
    decay_mult: 1
  }
  param {
    lr_mult: 2
    decay_mult: 0
  }
  convolution_param {
    num_output: 96
    kernel_size: 1
    weight_filler {
      type: "xavier"
    }
    bias_filler {
      type: "constant"
      value: 0.2
    }
  }
}
layer {
  name: "inception_3a/prelu_3x3_reduce"
  type: "PReLU"
  bottom: "inception_3a/3x3_reduce"
  top: "inception_3a/3x3_reduce"
  param {
    lr_mult: 1
    decay_mult: 0
  }
  prelu_param {
    filler {
      type: "constant"
      value: 0.01
    }
  }
}
layer {
  name: "inception_3a/3x3"
  type: "Convolution"
  bottom: "inception_3a/3x3_reduce"
  top: "inception_3a/3x3"
  param {
    lr_mult: 1
    decay_mult: 1
  }
  param {
    lr_mult: 2
    decay_mult: 0
  }
  convolution_param {
    num_output: 128
    pad: 1
    kernel_size: 3
    weight_filler {
      type: "xavier"
    }
    bias_filler {
      type: "constant"
      value: 0.2
    }
  }
}
layer {
  name: "inception_3a/prelu_3x3"
  type: "PReLU"
  bottom: "inception_3a/3x3"
  top: "inception_3a/3x3"
  param {
    lr_mult: 1
    decay_mult: 0
  }
  prelu_param {
    filler {
      type: "constant"
      value: 0.01
    }
  }
}
layer {
  name: "inception_3a/5x5_reduce"
  type: "Convolution"
  bottom: "pool2/3x3_s2"
  top: "inception_3a/5x5_reduce"
  param {
    lr_mult: 1
    decay_mult: 1
  }
  param {
    lr_mult: 2
    decay_mult: 0
  }
  convolution_param {
    num_output: 16
    kernel_size: 1
    weight_filler {
      type: "xavier"
    }
    bias_filler {
      type: "constant"
      value: 0.2
    }
  }
}
layer {
  name: "inception_3a/prelu_5x5_reduce"
  type: "PReLU"
  bottom: "inception_3a/5x5_reduce"
  top: "inception_3a/5x5_reduce"
  param {
    lr_mult: 1
    decay_mult: 0
  }
  prelu_param {
    filler {
      type: "constant"
      value: 0.01
    }
  }
}
layer {
  name: "inception_3a/5x5"
  type: "Convolution"
  bottom: "inception_3a/5x5_reduce"
  top: "inception_3a/5x5"
  param {
    lr_mult: 1
    decay_mult: 1
  }
  param {
    lr_mult: 2
    decay_mult: 0
  }
  convolution_param {
    num_output: 32
    pad: 2
    kernel_size: 5
    weight_filler {
      type: "xavier"
    }
    bias_filler {
      type: "constant"
      value: 0.2
    }
  }
}
layer {
  name: "inception_3a/prelu_5x5"
  type: "PReLU"
  bottom: "inception_3a/5x5"
  top: "inception_3a/5x5"
  param {
    lr_mult: 1
    decay_mult: 0
  }
  prelu_param {
    filler {
      type: "constant"
      value: 0.01
    }
  }
}
layer {
  name: "inception_3a/pool"
  type: "Pooling"
  bottom: "pool2/3x3_s2"
  top: "inception_3a/pool"
  pooling_param {
    pool: MAX
    kernel_size: 3
    stride: 1
    pad: 1
  }
}
layer {
  name: "inception_3a/pool_proj"
  type: "Convolution"
  bottom: "inception_3a/pool"
  top: "inception_3a/pool_proj"
  param {
    lr_mult: 1
    decay_mult: 1
  }
  param {
    lr_mult: 2
    decay_mult: 0
  }
  convolution_param {
    num_output: 32
    kernel_size: 1
    weight_filler {
      type: "xavier"
    }
    bias_filler {
      type: "constant"
      value: 0.2
    }
  }
}
layer {
  name: "inception_3a/prelu_pool_proj"
  type: "PReLU"
  bottom: "inception_3a/pool_proj"
  top: "inception_3a/pool_proj"
  param {
    lr_mult: 1
    decay_mult: 0
  }
  prelu_param {
    filler {
      type: "constant"
      value: 0.01
    }
  }
}
layer {
  name: "inception_3a/output"
  type: "Concat"
  bottom: "inception_3a/1x1"
  bottom: "inception_3a/3x3"
  bottom: "inception_3a/5x5"
  bottom: "inception_3a/pool_proj"
  top: "inception_3a/output"
}
layer {
  name: "inception_3b/1x1"
  type: "Convolution"
  bottom: "inception_3a/output"
  top: "inception_3b/1x1"
  param {
    lr_mult: 1
    decay_mult: 1
  }
  param {
    lr_mult: 2
    decay_mult: 0
  }
  convolution_param {
    num_output: 128
    kernel_size: 1
    weight_filler {
      type: "xavier"
    }
    bias_filler {
      type: "constant"
      value: 0.2
    }
  }
}
layer {
  name: "inception_3b/prelu_1x1"
  type: "PReLU"
  bottom: "inception_3b/1x1"
  top: "inception_3b/1x1"
  param {
    lr_mult: 1
    decay_mult: 0
  }
  prelu_param {
    filler {
      type: "constant"
      value: 0.01
    }
  }
}
layer {
  name: "inception_3b/3x3_reduce"
  type: "Convolution"
  bottom: "inception_3a/output"
  top: "inception_3b/3x3_reduce"
  param {
    lr_mult: 1
    decay_mult: 1
  }
  param {
    lr_mult: 2
    decay_mult: 0
  }
  convolution_param {
    num_output: 128
    kernel_size: 1
    weight_filler {
      type: "xavier"
    }
    bias_filler {
      type: "constant"
      value: 0.2
    }
  }
}
layer {
  name: "inception_3b/prelu_3x3_reduce"
  type: "PReLU"
  bottom: "inception_3b/3x3_reduce"
  top: "inception_3b/3x3_reduce"
  param {
    lr_mult: 1
    decay_mult: 0
  }
  prelu_param {
    filler {
      type: "constant"
      value: 0.01
    }
  }
}
layer {
  name: "inception_3b/3x3"
  type: "Convolution"
  bottom: "inception_3b/3x3_reduce"
  top: "inception_3b/3x3"
  param {
    lr_mult: 1
    decay_mult: 1
  }
  param {
    lr_mult: 2
    decay_mult: 0
  }
  convolution_param {
    num_output: 192
    pad: 1
    kernel_size: 3
    weight_filler {
      type: "xavier"
    }
    bias_filler {
      type: "constant"
      value: 0.2
    }
  }
}
layer {
  name: "inception_3b/prelu_3x3"
  type: "PReLU"
  bottom: "inception_3b/3x3"
  top: "inception_3b/3x3"
  param {
    lr_mult: 1
    decay_mult: 0
  }
  prelu_param {
    filler {
      type: "constant"
      value: 0.01
    }
  }
}
layer {
  name: "inception_3b/5x5_reduce"
  type: "Convolution"
  bottom: "inception_3a/output"
  top: "inception_3b/5x5_reduce"
  param {
    lr_mult: 1
    decay_mult: 1
  }
  param {
    lr_mult: 2
    decay_mult: 0
  }
  convolution_param {
    num_output: 32
    kernel_size: 1
    weight_filler {
      type: "xavier"
    }
    bias_filler {
      type: "constant"
      value: 0.2
    }
  }
}
layer {
  name: "inception_3b/prelu_5x5_reduce"
  type: "PReLU"
  bottom: "inception_3b/5x5_reduce"
  top: "inception_3b/5x5_reduce"
  param {
    lr_mult: 1
    decay_mult: 0
  }
  prelu_param {
    filler {
      type: "constant"
      value: 0.01
    }
  }
}
layer {
  name: "inception_3b/5x5"
  type: "Convolution"
  bottom: "inception_3b/5x5_reduce"
  top: "inception_3b/5x5"
  param {
    lr_mult: 1
    decay_mult: 1
  }
  param {
    lr_mult: 2
    decay_mult: 0
  }
  convolution_param {
    num_output: 96
    pad: 2
    kernel_size: 5
    weight_filler {
      type: "xavier"
    }
    bias_filler {
      type: "constant"
      value: 0.2
    }
  }
}
layer {
  name: "inception_3b/prelu_5x5"
  type: "PReLU"
  bottom: "inception_3b/5x5"
  top: "inception_3b/5x5"
  param {
    lr_mult: 1
    decay_mult: 0
  }
  prelu_param {
    filler {
      type: "constant"
      value: 0.01
    }
  }
}
layer {
  name: "inception_3b/pool"
  type: "Pooling"
  bottom: "inception_3a/output"
  top: "inception_3b/pool"
  pooling_param {
    pool: MAX
    kernel_size: 3
    stride: 1
    pad: 1
  }
}
layer {
  name: "inception_3b/pool_proj"
  type: "Convolution"
  bottom: "inception_3b/pool"
  top: "inception_3b/pool_proj"
  param {
    lr_mult: 1
    decay_mult: 1
  }
  param {
    lr_mult: 2
    decay_mult: 0
  }
  convolution_param {
    num_output: 64
    kernel_size: 1
    weight_filler {
      type: "xavier"
    }
    bias_filler {
      type: "constant"
      value: 0.2
    }
  }
}
layer {
  name: "inception_3b/prelu_pool_proj"
  type: "PReLU"
  bottom: "inception_3b/pool_proj"
  top: "inception_3b/pool_proj"
  param {
    lr_mult: 1
    decay_mult: 0
  }
  prelu_param {
    filler {
      type: "constant"
      value: 0.01
    }
  }
}
layer {
  name: "inception_3b/output"
  type: "Concat"
  bottom: "inception_3b/1x1"
  bottom: "inception_3b/3x3"
  bottom: "inception_3b/5x5"
  bottom: "inception_3b/pool_proj"
  top: "inception_3b/output"
}
layer {
  name: "pool3/3x3_s2"
  type: "Pooling"
  bottom: "inception_3b/output"
  top: "pool3/3x3_s2"
  pooling_param {
    pool: MAX
    kernel_size: 3
    stride: 2
  }
}
layer {
  name: "inception_4a/1x1"
  type: "Convolution"
  bottom: "pool3/3x3_s2"
  top: "inception_4a/1x1"
  param {
    lr_mult: 1
    decay_mult: 1
  }
  param {
    lr_mult: 2
    decay_mult: 0
  }
  convolution_param {
    num_output: 192
    kernel_size: 1
    weight_filler {
      type: "xavier"
    }
    bias_filler {
      type: "constant"
      value: 0.2
    }
  }
}
layer {
  name: "inception_4a/prelu_1x1"
  type: "PReLU"
  bottom: "inception_4a/1x1"
  top: "inception_4a/1x1"
  param {
    lr_mult: 1
    decay_mult: 0
  }
  prelu_param {
    filler {
      type: "constant"
      value: 0.01
    }
  }
}
layer {
  name: "inception_4a/3x3_reduce"
  type: "Convolution"
  bottom: "pool3/3x3_s2"
  top: "inception_4a/3x3_reduce"
  param {
    lr_mult: 1
    decay_mult: 1
  }
  param {
    lr_mult: 2
    decay_mult: 0
  }
  convolution_param {
    num_output: 96
    kernel_size: 1
    weight_filler {
      type: "xavier"
    }
    bias_filler {
      type: "constant"
      value: 0.2
    }
  }
}
layer {
  name: "inception_4a/prelu_3x3_reduce"
  type: "PReLU"
  bottom: "inception_4a/3x3_reduce"
  top: "inception_4a/3x3_reduce"
  param {
    lr_mult: 1
    decay_mult: 0
  }
  prelu_param {
    filler {
      type: "constant"
      value: 0.01
    }
  }
}
layer {
  name: "inception_4a/3x3"
  type: "Convolution"
  bottom: "inception_4a/3x3_reduce"
  top: "inception_4a/3x3"
  param {
    lr_mult: 1
    decay_mult: 1
  }
  param {
    lr_mult: 2
    decay_mult: 0
  }
  convolution_param {
    num_output: 208
    pad: 1
    kernel_size: 3
    weight_filler {
      type: "xavier"
    }
    bias_filler {
      type: "constant"
      value: 0.2
    }
  }
}
layer {
  name: "inception_4a/prelu_3x3"
  type: "PReLU"
  bottom: "inception_4a/3x3"
  top: "inception_4a/3x3"
  param {
    lr_mult: 1
    decay_mult: 0
  }
  prelu_param {
    filler {
      type: "constant"
      value: 0.01
    }
  }
}
layer {
  name: "inception_4a/5x5_reduce"
  type: "Convolution"
  bottom: "pool3/3x3_s2"
  top: "inception_4a/5x5_reduce"
  param {
    lr_mult: 1
    decay_mult: 1
  }
  param {
    lr_mult: 2
    decay_mult: 0
  }
  convolution_param {
    num_output: 16
    kernel_size: 1
    weight_filler {
      type: "xavier"
    }
    bias_filler {
      type: "constant"
      value: 0.2
    }
  }
}
layer {
  name: "inception_4a/prelu_5x5_reduce"
  type: "PReLU"
  bottom: "inception_4a/5x5_reduce"
  top: "inception_4a/5x5_reduce"
  param {
    lr_mult: 1
    decay_mult: 0
  }
  prelu_param {
    filler {
      type: "constant"
      value: 0.01
    }
  }
}
layer {
  name: "inception_4a/5x5"
  type: "Convolution"
  bottom: "inception_4a/5x5_reduce"
  top: "inception_4a/5x5"
  param {
    lr_mult: 1
    decay_mult: 1
  }
  param {
    lr_mult: 2
    decay_mult: 0
  }
  convolution_param {
    num_output: 48
    pad: 2
    kernel_size: 5
    weight_filler {
      type: "xavier"
    }
    bias_filler {
      type: "constant"
      value: 0.2
    }
  }
}
layer {
  name: "inception_4a/prelu_5x5"
  type: "PReLU"
  bottom: "inception_4a/5x5"
  top: "inception_4a/5x5"
  param {
    lr_mult: 1
    decay_mult: 0
  }
  prelu_param {
    filler {
      type: "constant"
      value: 0.01
    }
  }
}
layer {
  name: "inception_4a/pool"
  type: "Pooling"
  bottom: "pool3/3x3_s2"
  top: "inception_4a/pool"
  pooling_param {
    pool: MAX
    kernel_size: 3
    stride: 1
    pad: 1
  }
}
layer {
  name: "inception_4a/pool_proj"
  type: "Convolution"
  bottom: "inception_4a/pool"
  top: "inception_4a/pool_proj"
  param {
    lr_mult: 1
    decay_mult: 1
  }
  param {
    lr_mult: 2
    decay_mult: 0
  }
  convolution_param {
    num_output: 64
    kernel_size: 1
    weight_filler {
      type: "xavier"
    }
    bias_filler {
      type: "constant"
      value: 0.2
    }
  }
}
layer {
  name: "inception_4a/prelu_pool_proj"
  type: "PReLU"
  bottom: "inception_4a/pool_proj"
  top: "inception_4a/pool_proj"
  param {
    lr_mult: 1
    decay_mult: 0
  }
  prelu_param {
    filler {
      type: "constant"
      value: 0.01
    }
  }
}
layer {
  name: "inception_4a/output"
  type: "Concat"
  bottom: "inception_4a/1x1"
  bottom: "inception_4a/3x3"
  bottom: "inception_4a/5x5"
  bottom: "inception_4a/pool_proj"
  top: "inception_4a/output"
}
layer {
  name: "loss1/ave_pool"
  type: "Pooling"
  bottom: "inception_4a/output"
  top: "loss1/ave_pool"
  pooling_param {
    pool: AVE
    kernel_size: 5
    stride: 3
  }
}
layer {
  name: "loss1/conv"
  type: "Convolution"
  bottom: "loss1/ave_pool"
  top: "loss1/conv"
  param {
    lr_mult: 1
    decay_mult: 1
  }
  param {
    lr_mult: 2
    decay_mult: 0
  }
  convolution_param {
    num_output: 128
    kernel_size: 1
    weight_filler {
      type: "xavier"
    }
    bias_filler {
      type: "constant"
      value: 0.2
    }
  }
}
layer {
  name: "loss1/prelu_conv"
  type: "PReLU"
  bottom: "loss1/conv"
  top: "loss1/conv"
  param {
    lr_mult: 1
    decay_mult: 0
  }
  prelu_param {
    filler {
      type: "constant"
      value: 0.01
    }
  }
}
layer {
  name: "loss1/fc"
  type: "InnerProduct"
  bottom: "loss1/conv"
  top: "loss1/fc"
  param {
    lr_mult: 1
    decay_mult: 1
  }
  param {
    lr_mult: 2
    decay_mult: 0
  }
  inner_product_param {
    num_output: 1024
    weight_filler {
      type: "xavier"
    }
    bias_filler {
      type: "constant"
      value: 0.2
    }
  }
}
layer {
  name: "loss1/prelu_fc"
  type: "PReLU"
  bottom: "loss1/fc"
  top: "loss1/fc"
  param {
    lr_mult: 1
    decay_mult: 0
  }
  prelu_param {
    filler {
      type: "constant"
      value: 0.01
    }
  }
}
layer {
  name: "loss1/drop_fc"
  type: "Dropout"
  bottom: "loss1/fc"
  top: "loss1/fc"
  dropout_param {
    dropout_ratio: 0.7
  }
}
layer {
  name: "loss1/classifier2"
  type: "InnerProduct"
  bottom: "loss1/fc"
  top: "loss1/classifier"
  param {
    lr_mult: 1
    decay_mult: 1
  }
  param {
    lr_mult: 2
    decay_mult: 0
  }
  inner_product_param {
    num_output: 2
    weight_filler {
      type: "xavier"
    }
    bias_filler {
      type: "constant"
      value: 0
    }
  }
}
layer {
  name: "loss1/loss"
  type: "SoftmaxWithLoss"
  bottom: "loss1/classifier"
  bottom: "label"
  top: "loss1/loss1"
  loss_weight: 0.3
}
layer {
  name: "inception_4b/1x1"
  type: "Convolution"
  bottom: "inception_4a/output"
  top: "inception_4b/1x1"
  param {
    lr_mult: 1
    decay_mult: 1
  }
  param {
    lr_mult: 2
    decay_mult: 0
  }
  convolution_param {
    num_output: 160
    kernel_size: 1
    weight_filler {
      type: "xavier"
    }
    bias_filler {
      type: "constant"
      value: 0.2
    }
  }
}
layer {
  name: "inception_4b/prelu_1x1"
  type: "PReLU"
  bottom: "inception_4b/1x1"
  top: "inception_4b/1x1"
  param {
    lr_mult: 1
    decay_mult: 0
  }
  prelu_param {
    filler {
      type: "constant"
      value: 0.01
    }
  }
}
layer {
  name: "inception_4b/3x3_reduce"
  type: "Convolution"
  bottom: "inception_4a/output"
  top: "inception_4b/3x3_reduce"
  param {
    lr_mult: 1
    decay_mult: 1
  }
  param {
    lr_mult: 2
    decay_mult: 0
  }
  convolution_param {
    num_output: 112
    kernel_size: 1
    weight_filler {
      type: "xavier"
    }
    bias_filler {
      type: "constant"
      value: 0.2
    }
  }
}
layer {
  name: "inception_4b/prelu_3x3_reduce"
  type: "PReLU"
  bottom: "inception_4b/3x3_reduce"
  top: "inception_4b/3x3_reduce"
  param {
    lr_mult: 1
    decay_mult: 0
  }
  prelu_param {
    filler {
      type: "constant"
      value: 0.01
    }
  }
}
layer {
  name: "inception_4b/3x3"
  type: "Convolution"
  bottom: "inception_4b/3x3_reduce"
  top: "inception_4b/3x3"
  param {
    lr_mult: 1
    decay_mult: 1
  }
  param {
    lr_mult: 2
    decay_mult: 0
  }
  convolution_param {
    num_output: 224
    pad: 1
    kernel_size: 3
    weight_filler {
      type: "xavier"
    }
    bias_filler {
      type: "constant"
      value: 0.2
    }
  }
}
layer {
  name: "inception_4b/prelu_3x3"
  type: "PReLU"
  bottom: "inception_4b/3x3"
  top: "inception_4b/3x3"
  param {
    lr_mult: 1
    decay_mult: 0
  }
  prelu_param {
    filler {
      type: "constant"
      value: 0.01
    }
  }
}
layer {
  name: "inception_4b/5x5_reduce"
  type: "Convolution"
  bottom: "inception_4a/output"
  top: "inception_4b/5x5_reduce"
  param {
    lr_mult: 1
    decay_mult: 1
  }
  param {
    lr_mult: 2
    decay_mult: 0
  }
  convolution_param {
    num_output: 24
    kernel_size: 1
    weight_filler {
      type: "xavier"
    }
    bias_filler {
      type: "constant"
      value: 0.2
    }
  }
}
layer {
  name: "inception_4b/prelu_5x5_reduce"
  type: "PReLU"
  bottom: "inception_4b/5x5_reduce"
  top: "inception_4b/5x5_reduce"
  param {
    lr_mult: 1
    decay_mult: 0
  }
  prelu_param {
    filler {
      type: "constant"
      value: 0.01
    }
  }
}
layer {
  name: "inception_4b/5x5"
  type: "Convolution"
  bottom: "inception_4b/5x5_reduce"
  top: "inception_4b/5x5"
  param {
    lr_mult: 1
    decay_mult: 1
  }
  param {
    lr_mult: 2
    decay_mult: 0
  }
  convolution_param {
    num_output: 64
    pad: 2
    kernel_size: 5
    weight_filler {
      type: "xavier"
    }
    bias_filler {
      type: "constant"
      value: 0.2
    }
  }
}
layer {
  name: "inception_4b/prelu_5x5"
  type: "PReLU"
  bottom: "inception_4b/5x5"
  top: "inception_4b/5x5"
  param {
    lr_mult: 1
    decay_mult: 0
  }
  prelu_param {
    filler {
      type: "constant"
      value: 0.01
    }
  }
}
layer {
  name: "inception_4b/pool"
  type: "Pooling"
  bottom: "inception_4a/output"
  top: "inception_4b/pool"
  pooling_param {
    pool: MAX
    kernel_size: 3
    stride: 1
    pad: 1
  }
}
layer {
  name: "inception_4b/pool_proj"
  type: "Convolution"
  bottom: "inception_4b/pool"
  top: "inception_4b/pool_proj"
  param {
    lr_mult: 1
    decay_mult: 1
  }
  param {
    lr_mult: 2
    decay_mult: 0
  }
  convolution_param {
    num_output: 64
    kernel_size: 1
    weight_filler {
      type: "xavier"
    }
    bias_filler {
      type: "constant"
      value: 0.2
    }
  }
}
layer {
  name: "inception_4b/prelu_pool_proj"
  type: "PReLU"
  bottom: "inception_4b/pool_proj"
  top: "inception_4b/pool_proj"
  param {
    lr_mult: 1
    decay_mult: 0
  }
  prelu_param {
    filler {
      type: "constant"
      value: 0.01
    }
  }
}
layer {
  name: "inception_4b/output"
  type: "Concat"
  bottom: "inception_4b/1x1"
  bottom: "inception_4b/3x3"
  bottom: "inception_4b/5x5"
  bottom: "inception_4b/pool_proj"
  top: "inception_4b/output"
}
layer {
  name: "inception_4c/1x1"
  type: "Convolution"
  bottom: "inception_4b/output"
  top: "inception_4c/1x1"
  param {
    lr_mult: 1
    decay_mult: 1
  }
  param {
    lr_mult: 2
    decay_mult: 0
  }
  convolution_param {
    num_output: 128
    kernel_size: 1
    weight_filler {
      type: "xavier"
    }
    bias_filler {
      type: "constant"
      value: 0.2
    }
  }
}
layer {
  name: "inception_4c/prelu_1x1"
  type: "PReLU"
  bottom: "inception_4c/1x1"
  top: "inception_4c/1x1"
  param {
    lr_mult: 1
    decay_mult: 0
  }
  prelu_param {
    filler {
      type: "constant"
      value: 0.01
    }
  }
}
layer {
  name: "inception_4c/3x3_reduce"
  type: "Convolution"
  bottom: "inception_4b/output"
  top: "inception_4c/3x3_reduce"
  param {
    lr_mult: 1
    decay_mult: 1
  }
  param {
    lr_mult: 2
    decay_mult: 0
  }
  convolution_param {
    num_output: 128
    kernel_size: 1
    weight_filler {
      type: "xavier"
    }
    bias_filler {
      type: "constant"
      value: 0.2
    }
  }
}
layer {
  name: "inception_4c/prelu_3x3_reduce"
  type: "PReLU"
  bottom: "inception_4c/3x3_reduce"
  top: "inception_4c/3x3_reduce"
  param {
    lr_mult: 1
    decay_mult: 0
  }
  prelu_param {
    filler {
      type: "constant"
      value: 0.01
    }
  }
}
layer {
  name: "inception_4c/3x3"
  type: "Convolution"
  bottom: "inception_4c/3x3_reduce"
  top: "inception_4c/3x3"
  param {
    lr_mult: 1
    decay_mult: 1
  }
  param {
    lr_mult: 2
    decay_mult: 0
  }
  convolution_param {
    num_output: 256
    pad: 1
    kernel_size: 3
    weight_filler {
      type: "xavier"
    }
    bias_filler {
      type: "constant"
      value: 0.2
    }
  }
}
layer {
  name: "inception_4c/prelu_3x3"
  type: "PReLU"
  bottom: "inception_4c/3x3"
  top: "inception_4c/3x3"
  param {
    lr_mult: 1
    decay_mult: 0
  }
  prelu_param {
    filler {
      type: "constant"
      value: 0.01
    }
  }
}
layer {
  name: "inception_4c/5x5_reduce"
  type: "Convolution"
  bottom: "inception_4b/output"
  top: "inception_4c/5x5_reduce"
  param {
    lr_mult: 1
    decay_mult: 1
  }
  param {
    lr_mult: 2
    decay_mult: 0
  }
  convolution_param {
    num_output: 24
    kernel_size: 1
    weight_filler {
      type: "xavier"
    }
    bias_filler {
      type: "constant"
      value: 0.2
    }
  }
}
layer {
  name: "inception_4c/prelu_5x5_reduce"
  type: "PReLU"
  bottom: "inception_4c/5x5_reduce"
  top: "inception_4c/5x5_reduce"
  param {
    lr_mult: 1
    decay_mult: 0
  }
  prelu_param {
    filler {
      type: "constant"
      value: 0.01
    }
  }
}
layer {
  name: "inception_4c/5x5"
  type: "Convolution"
  bottom: "inception_4c/5x5_reduce"
  top: "inception_4c/5x5"
  param {
    lr_mult: 1
    decay_mult: 1
  }
  param {
    lr_mult: 2
    decay_mult: 0
  }
  convolution_param {
    num_output: 64
    pad: 2
    kernel_size: 5
    weight_filler {
      type: "xavier"
    }
    bias_filler {
      type: "constant"
      value: 0.2
    }
  }
}
layer {
  name: "inception_4c/prelu_5x5"
  type: "PReLU"
  bottom: "inception_4c/5x5"
  top: "inception_4c/5x5"
  param {
    lr_mult: 1
    decay_mult: 0
  }
  prelu_param {
    filler {
      type: "constant"
      value: 0.01
    }
  }
}
layer {
  name: "inception_4c/pool"
  type: "Pooling"
  bottom: "inception_4b/output"
  top: "inception_4c/pool"
  pooling_param {
    pool: MAX
    kernel_size: 3
    stride: 1
    pad: 1
  }
}
layer {
  name: "inception_4c/pool_proj"
  type: "Convolution"
  bottom: "inception_4c/pool"
  top: "inception_4c/pool_proj"
  param {
    lr_mult: 1
    decay_mult: 1
  }
  param {
    lr_mult: 2
    decay_mult: 0
  }
  convolution_param {
    num_output: 64
    kernel_size: 1
    weight_filler {
      type: "xavier"
    }
    bias_filler {
      type: "constant"
      value: 0.2
    }
  }
}
layer {
  name: "inception_4c/prelu_pool_proj"
  type: "PReLU"
  bottom: "inception_4c/pool_proj"
  top: "inception_4c/pool_proj"
  param {
    lr_mult: 1
    decay_mult: 0
  }
  prelu_param {
    filler {
      type: "constant"
      value: 0.01
    }
  }
}
layer {
  name: "inception_4c/output"
  type: "Concat"
  bottom: "inception_4c/1x1"
  bottom: "inception_4c/3x3"
  bottom: "inception_4c/5x5"
  bottom: "inception_4c/pool_proj"
  top: "inception_4c/output"
}
layer {
  name: "inception_4d/1x1"
  type: "Convolution"
  bottom: "inception_4c/output"
  top: "inception_4d/1x1"
  param {
    lr_mult: 1
    decay_mult: 1
  }
  param {
    lr_mult: 2
    decay_mult: 0
  }
  convolution_param {
    num_output: 112
    kernel_size: 1
    weight_filler {
      type: "xavier"
    }
    bias_filler {
      type: "constant"
      value: 0.2
    }
  }
}
layer {
  name: "inception_4d/prelu_1x1"
  type: "PReLU"
  bottom: "inception_4d/1x1"
  top: "inception_4d/1x1"
  param {
    lr_mult: 1
    decay_mult: 0
  }
  prelu_param {
    filler {
      type: "constant"
      value: 0.01
    }
  }
}
layer {
  name: "inception_4d/3x3_reduce"
  type: "Convolution"
  bottom: "inception_4c/output"
  top: "inception_4d/3x3_reduce"
  param {
    lr_mult: 1
    decay_mult: 1
  }
  param {
    lr_mult: 2
    decay_mult: 0
  }
  convolution_param {
    num_output: 144
    kernel_size: 1
    weight_filler {
      type: "xavier"
    }
    bias_filler {
      type: "constant"
      value: 0.2
    }
  }
}
layer {
  name: "inception_4d/prelu_3x3_reduce"
  type: "PReLU"
  bottom: "inception_4d/3x3_reduce"
  top: "inception_4d/3x3_reduce"
  param {
    lr_mult: 1
    decay_mult: 0
  }
  prelu_param {
    filler {
      type: "constant"
      value: 0.01
    }
  }
}
layer {
  name: "inception_4d/3x3"
  type: "Convolution"
  bottom: "inception_4d/3x3_reduce"
  top: "inception_4d/3x3"
  param {
    lr_mult: 1
    decay_mult: 1
  }
  param {
    lr_mult: 2
    decay_mult: 0
  }
  convolution_param {
    num_output: 288
    pad: 1
    kernel_size: 3
    weight_filler {
      type: "xavier"
    }
    bias_filler {
      type: "constant"
      value: 0.2
    }
  }
}
layer {
  name: "inception_4d/prelu_3x3"
  type: "PReLU"
  bottom: "inception_4d/3x3"
  top: "inception_4d/3x3"
  param {
    lr_mult: 1
    decay_mult: 0
  }
  prelu_param {
    filler {
      type: "constant"
      value: 0.01
    }
  }
}
layer {
  name: "inception_4d/5x5_reduce"
  type: "Convolution"
  bottom: "inception_4c/output"
  top: "inception_4d/5x5_reduce"
  param {
    lr_mult: 1
    decay_mult: 1
  }
  param {
    lr_mult: 2
    decay_mult: 0
  }
  convolution_param {
    num_output: 32
    kernel_size: 1
    weight_filler {
      type: "xavier"
    }
    bias_filler {
      type: "constant"
      value: 0.2
    }
  }
}
layer {
  name: "inception_4d/prelu_5x5_reduce"
  type: "PReLU"
  bottom: "inception_4d/5x5_reduce"
  top: "inception_4d/5x5_reduce"
  param {
    lr_mult: 1
    decay_mult: 0
  }
  prelu_param {
    filler {
      type: "constant"
      value: 0.01
    }
  }
}
layer {
  name: "inception_4d/5x5"
  type: "Convolution"
  bottom: "inception_4d/5x5_reduce"
  top: "inception_4d/5x5"
  param {
    lr_mult: 1
    decay_mult: 1
  }
  param {
    lr_mult: 2
    decay_mult: 0
  }
  convolution_param {
    num_output: 64
    pad: 2
    kernel_size: 5
    weight_filler {
      type: "xavier"
    }
    bias_filler {
      type: "constant"
      value: 0.2
    }
  }
}
layer {
  name: "inception_4d/prelu_5x5"
  type: "PReLU"
  bottom: "inception_4d/5x5"
  top: "inception_4d/5x5"
  param {
    lr_mult: 1
    decay_mult: 0
  }
  prelu_param {
    filler {
      type: "constant"
      value: 0.01
    }
  }
}
layer {
  name: "inception_4d/pool"
  type: "Pooling"
  bottom: "inception_4c/output"
  top: "inception_4d/pool"
  pooling_param {
    pool: MAX
    kernel_size: 3
    stride: 1
    pad: 1
  }
}
layer {
  name: "inception_4d/pool_proj"
  type: "Convolution"
  bottom: "ince
I1105 17:39:58.097842 24615 layer_factory.hpp:76] Creating layer data
I1105 17:39:58.098412 24615 net.cpp:106] Creating Layer data
I1105 17:39:58.098428 24615 net.cpp:411] data -> data
I1105 17:39:58.098464 24615 net.cpp:411] data -> label
I1105 17:39:58.100425 24620 db_lmdb.cpp:38] Opened lmdb ../../LMDB/train_6-lmdb
I1105 17:39:58.114164 24615 data_layer.cpp:41] output data size: 32,3,224,224
I1105 17:39:58.178036 24615 net.cpp:150] Setting up data
I1105 17:39:58.178084 24615 net.cpp:157] Top shape: 32 3 224 224 (4816896)
I1105 17:39:58.178092 24615 net.cpp:157] Top shape: 32 (32)
I1105 17:39:58.178104 24615 net.cpp:165] Memory required for data: 19267712
I1105 17:39:58.178115 24615 layer_factory.hpp:76] Creating layer label_data_1_split
I1105 17:39:58.178131 24615 net.cpp:106] Creating Layer label_data_1_split
I1105 17:39:58.178138 24615 net.cpp:454] label_data_1_split <- label
I1105 17:39:58.178154 24615 net.cpp:411] label_data_1_split -> label_data_1_split_0
I1105 17:39:58.178174 24615 net.cpp:411] label_data_1_split -> label_data_1_split_1
I1105 17:39:58.178185 24615 net.cpp:411] label_data_1_split -> label_data_1_split_2
I1105 17:39:58.178239 24615 net.cpp:150] Setting up label_data_1_split
I1105 17:39:58.178248 24615 net.cpp:157] Top shape: 32 (32)
I1105 17:39:58.178253 24615 net.cpp:157] Top shape: 32 (32)
I1105 17:39:58.178257 24615 net.cpp:157] Top shape: 32 (32)
I1105 17:39:58.178261 24615 net.cpp:165] Memory required for data: 19268096
I1105 17:39:58.178266 24615 layer_factory.hpp:76] Creating layer conv1/7x7_s2
I1105 17:39:58.178292 24615 net.cpp:106] Creating Layer conv1/7x7_s2
I1105 17:39:58.178297 24615 net.cpp:454] conv1/7x7_s2 <- data
I1105 17:39:58.178303 24615 net.cpp:411] conv1/7x7_s2 -> conv1/7x7_s2
I1105 17:39:58.392493 24615 cudnn_conv_layer.cpp:194] Reallocating workspace storage: 225816
I1105 17:39:58.392782 24615 net.cpp:150] Setting up conv1/7x7_s2
I1105 17:39:58.392799 24615 net.cpp:157] Top shape: 32 64 112 112 (25690112)
I1105 17:39:58.392812 24615 net.cpp:165] Memory required for data: 122028544
I1105 17:39:58.392832 24615 layer_factory.hpp:76] Creating layer conv1/prelu_7x7
I1105 17:39:58.392856 24615 net.cpp:106] Creating Layer conv1/prelu_7x7
I1105 17:39:58.392866 24615 net.cpp:454] conv1/prelu_7x7 <- conv1/7x7_s2
I1105 17:39:58.392885 24615 net.cpp:397] conv1/prelu_7x7 -> conv1/7x7_s2 (in-place)
I1105 17:39:58.394595 24615 net.cpp:150] Setting up conv1/prelu_7x7
I1105 17:39:58.394610 24615 net.cpp:157] Top shape: 32 64 112 112 (25690112)
I1105 17:39:58.394615 24615 net.cpp:165] Memory required for data: 224788992
I1105 17:39:58.394631 24615 layer_factory.hpp:76] Creating layer pool1/3x3_s2
I1105 17:39:58.394644 24615 net.cpp:106] Creating Layer pool1/3x3_s2
I1105 17:39:58.394649 24615 net.cpp:454] pool1/3x3_s2 <- conv1/7x7_s2
I1105 17:39:58.394662 24615 net.cpp:411] pool1/3x3_s2 -> pool1/3x3_s2
I1105 17:39:58.395079 24615 net.cpp:150] Setting up pool1/3x3_s2
I1105 17:39:58.395092 24615 net.cpp:157] Top shape: 32 64 56 56 (6422528)
I1105 17:39:58.395097 24615 net.cpp:165] Memory required for data: 250479104
I1105 17:39:58.395102 24615 layer_factory.hpp:76] Creating layer pool1/norm1
I1105 17:39:58.395112 24615 net.cpp:106] Creating Layer pool1/norm1
I1105 17:39:58.395117 24615 net.cpp:454] pool1/norm1 <- pool1/3x3_s2
I1105 17:39:58.395123 24615 net.cpp:411] pool1/norm1 -> pool1/norm1
I1105 17:39:58.395298 24615 net.cpp:150] Setting up pool1/norm1
I1105 17:39:58.395309 24615 net.cpp:157] Top shape: 32 64 56 56 (6422528)
I1105 17:39:58.395313 24615 net.cpp:165] Memory required for data: 276169216
I1105 17:39:58.395318 24615 layer_factory.hpp:76] Creating layer conv2/3x3_reduce
I1105 17:39:58.395328 24615 net.cpp:106] Creating Layer conv2/3x3_reduce
I1105 17:39:58.395333 24615 net.cpp:454] conv2/3x3_reduce <- pool1/norm1
I1105 17:39:58.395339 24615 net.cpp:411] conv2/3x3_reduce -> conv2/3x3_reduce
I1105 17:39:58.396761 24615 cudnn_conv_layer.cpp:194] Reallocating workspace storage: 63000
I1105 17:39:58.396785 24615 net.cpp:150] Setting up conv2/3x3_reduce
I1105 17:39:58.396792 24615 net.cpp:157] Top shape: 32 64 56 56 (6422528)
I1105 17:39:58.396797 24615 net.cpp:165] Memory required for data: 301859328
I1105 17:39:58.396807 24615 layer_factory.hpp:76] Creating layer conv2/prelu_3x3_reduce
I1105 17:39:58.396816 24615 net.cpp:106] Creating Layer conv2/prelu_3x3_reduce
I1105 17:39:58.396821 24615 net.cpp:454] conv2/prelu_3x3_reduce <- conv2/3x3_reduce
I1105 17:39:58.396827 24615 net.cpp:397] conv2/prelu_3x3_reduce -> conv2/3x3_reduce (in-place)
I1105 17:39:58.397469 24615 net.cpp:150] Setting up conv2/prelu_3x3_reduce
I1105 17:39:58.397482 24615 net.cpp:157] Top shape: 32 64 56 56 (6422528)
I1105 17:39:58.397487 24615 net.cpp:165] Memory required for data: 327549440
I1105 17:39:58.397493 24615 layer_factory.hpp:76] Creating layer conv2/3x3
I1105 17:39:58.397503 24615 net.cpp:106] Creating Layer conv2/3x3
I1105 17:39:58.397507 24615 net.cpp:454] conv2/3x3 <- conv2/3x3_reduce
I1105 17:39:58.397514 24615 net.cpp:411] conv2/3x3 -> conv2/3x3
I1105 17:39:58.399479 24615 cudnn_conv_layer.cpp:194] Reallocating workspace storage: 63000
I1105 17:39:58.399500 24615 net.cpp:150] Setting up conv2/3x3
I1105 17:39:58.399508 24615 net.cpp:157] Top shape: 32 192 56 56 (19267584)
I1105 17:39:58.399513 24615 net.cpp:165] Memory required for data: 404619776
I1105 17:39:58.399519 24615 layer_factory.hpp:76] Creating layer conv2/prelu_3x3
I1105 17:39:58.399528 24615 net.cpp:106] Creating Layer conv2/prelu_3x3
I1105 17:39:58.399539 24615 net.cpp:454] conv2/prelu_3x3 <- conv2/3x3
I1105 17:39:58.399546 24615 net.cpp:397] conv2/prelu_3x3 -> conv2/3x3 (in-place)
I1105 17:39:58.400691 24615 net.cpp:150] Setting up conv2/prelu_3x3
I1105 17:39:58.400707 24615 net.cpp:157] Top shape: 32 192 56 56 (19267584)
I1105 17:39:58.400710 24615 net.cpp:165] Memory required for data: 481690112
I1105 17:39:58.400738 24615 layer_factory.hpp:76] Creating layer conv2/norm2
I1105 17:39:58.400754 24615 net.cpp:106] Creating Layer conv2/norm2
I1105 17:39:58.400759 24615 net.cpp:454] conv2/norm2 <- conv2/3x3
I1105 17:39:58.400766 24615 net.cpp:411] conv2/norm2 -> conv2/norm2
I1105 17:39:58.400965 24615 net.cpp:150] Setting up conv2/norm2
I1105 17:39:58.400976 24615 net.cpp:157] Top shape: 32 192 56 56 (19267584)
I1105 17:39:58.400981 24615 net.cpp:165] Memory required for data: 558760448
I1105 17:39:58.400985 24615 layer_factory.hpp:76] Creating layer pool2/3x3_s2
I1105 17:39:58.400993 24615 net.cpp:106] Creating Layer pool2/3x3_s2
I1105 17:39:58.400997 24615 net.cpp:454] pool2/3x3_s2 <- conv2/norm2
I1105 17:39:58.401003 24615 net.cpp:411] pool2/3x3_s2 -> pool2/3x3_s2
I1105 17:39:58.401382 24615 net.cpp:150] Setting up pool2/3x3_s2
I1105 17:39:58.401394 24615 net.cpp:157] Top shape: 32 192 28 28 (4816896)
I1105 17:39:58.401398 24615 net.cpp:165] Memory required for data: 578028032
I1105 17:39:58.401402 24615 layer_factory.hpp:76] Creating layer pool2/3x3_s2_pool2/3x3_s2_0_split
I1105 17:39:58.401409 24615 net.cpp:106] Creating Layer pool2/3x3_s2_pool2/3x3_s2_0_split
I1105 17:39:58.401414 24615 net.cpp:454] pool2/3x3_s2_pool2/3x3_s2_0_split <- pool2/3x3_s2
I1105 17:39:58.401419 24615 net.cpp:411] pool2/3x3_s2_pool2/3x3_s2_0_split -> pool2/3x3_s2_pool2/3x3_s2_0_split_0
I1105 17:39:58.401427 24615 net.cpp:411] pool2/3x3_s2_pool2/3x3_s2_0_split -> pool2/3x3_s2_pool2/3x3_s2_0_split_1
I1105 17:39:58.401442 24615 net.cpp:411] pool2/3x3_s2_pool2/3x3_s2_0_split -> pool2/3x3_s2_pool2/3x3_s2_0_split_2
I1105 17:39:58.401448 24615 net.cpp:411] pool2/3x3_s2_pool2/3x3_s2_0_split -> pool2/3x3_s2_pool2/3x3_s2_0_split_3
I1105 17:39:58.401502 24615 net.cpp:150] Setting up pool2/3x3_s2_pool2/3x3_s2_0_split
I1105 17:39:58.401510 24615 net.cpp:157] Top shape: 32 192 28 28 (4816896)
I1105 17:39:58.401515 24615 net.cpp:157] Top shape: 32 192 28 28 (4816896)
I1105 17:39:58.401520 24615 net.cpp:157] Top shape: 32 192 28 28 (4816896)
I1105 17:39:58.401525 24615 net.cpp:157] Top shape: 32 192 28 28 (4816896)
I1105 17:39:58.401528 24615 net.cpp:165] Memory required for data: 655098368
I1105 17:39:58.401533 24615 layer_factory.hpp:76] Creating layer inception_3a/1x1
I1105 17:39:58.401541 24615 net.cpp:106] Creating Layer inception_3a/1x1
I1105 17:39:58.401546 24615 net.cpp:454] inception_3a/1x1 <- pool2/3x3_s2_pool2/3x3_s2_0_split_0
I1105 17:39:58.401561 24615 net.cpp:411] inception_3a/1x1 -> inception_3a/1x1
I1105 17:39:58.403026 24615 cudnn_conv_layer.cpp:194] Reallocating workspace storage: 20664
I1105 17:39:58.403056 24615 net.cpp:150] Setting up inception_3a/1x1
I1105 17:39:58.403069 24615 net.cpp:157] Top shape: 32 64 28 28 (1605632)
I1105 17:39:58.403075 24615 net.cpp:165] Memory required for data: 661520896
I1105 17:39:58.403086 24615 layer_factory.hpp:76] Creating layer inception_3a/prelu_1x1
I1105 17:39:58.403098 24615 net.cpp:106] Creating Layer inception_3a/prelu_1x1
I1105 17:39:58.403106 24615 net.cpp:454] inception_3a/prelu_1x1 <- inception_3a/1x1
I1105 17:39:58.403116 24615 net.cpp:397] inception_3a/prelu_1x1 -> inception_3a/1x1 (in-place)
I1105 17:39:58.403837 24615 net.cpp:150] Setting up inception_3a/prelu_1x1
I1105 17:39:58.403854 24615 net.cpp:157] Top shape: 32 64 28 28 (1605632)
I1105 17:39:58.403862 24615 net.cpp:165] Memory required for data: 667943424
I1105 17:39:58.403872 24615 layer_factory.hpp:76] Creating layer inception_3a/3x3_reduce
I1105 17:39:58.403884 24615 net.cpp:106] Creating Layer inception_3a/3x3_reduce
I1105 17:39:58.403898 24615 net.cpp:454] inception_3a/3x3_reduce <- pool2/3x3_s2_pool2/3x3_s2_0_split_1
I1105 17:39:58.403909 24615 net.cpp:411] inception_3a/3x3_reduce -> inception_3a/3x3_reduce
I1105 17:39:58.405025 24615 cudnn_conv_layer.cpp:194] Reallocating workspace storage: 20664
I1105 17:39:58.405048 24615 net.cpp:150] Setting up inception_3a/3x3_reduce
I1105 17:39:58.405056 24615 net.cpp:157] Top shape: 32 96 28 28 (2408448)
I1105 17:39:58.405061 24615 net.cpp:165] Memory required for data: 677577216
I1105 17:39:58.405089 24615 layer_factory.hpp:76] Creating layer inception_3a/prelu_3x3_reduce
I1105 17:39:58.405114 24615 net.cpp:106] Creating Layer inception_3a/prelu_3x3_reduce
I1105 17:39:58.405120 24615 net.cpp:454] inception_3a/prelu_3x3_reduce <- inception_3a/3x3_reduce
I1105 17:39:58.405128 24615 net.cpp:397] inception_3a/prelu_3x3_reduce -> inception_3a/3x3_reduce (in-place)
I1105 17:39:58.405309 24615 net.cpp:150] Setting up inception_3a/prelu_3x3_reduce
I1105 17:39:58.405320 24615 net.cpp:157] Top shape: 32 96 28 28 (2408448)
I1105 17:39:58.405324 24615 net.cpp:165] Memory required for data: 687211008
I1105 17:39:58.405330 24615 layer_factory.hpp:76] Creating layer inception_3a/3x3
I1105 17:39:58.405339 24615 net.cpp:106] Creating Layer inception_3a/3x3
I1105 17:39:58.405344 24615 net.cpp:454] inception_3a/3x3 <- inception_3a/3x3_reduce
I1105 17:39:58.405351 24615 net.cpp:411] inception_3a/3x3 -> inception_3a/3x3
I1105 17:39:58.407413 24615 cudnn_conv_layer.cpp:194] Reallocating workspace storage: 20664
I1105 17:39:58.407441 24615 net.cpp:150] Setting up inception_3a/3x3
I1105 17:39:58.407450 24615 net.cpp:157] Top shape: 32 128 28 28 (3211264)
I1105 17:39:58.407455 24615 net.cpp:165] Memory required for data: 700056064
I1105 17:39:58.407467 24615 layer_factory.hpp:76] Creating layer inception_3a/prelu_3x3
I1105 17:39:58.407477 24615 net.cpp:106] Creating Layer inception_3a/prelu_3x3
I1105 17:39:58.407482 24615 net.cpp:454] inception_3a/prelu_3x3 <- inception_3a/3x3
I1105 17:39:58.407490 24615 net.cpp:397] inception_3a/prelu_3x3 -> inception_3a/3x3 (in-place)
I1105 17:39:58.407637 24615 net.cpp:150] Setting up inception_3a/prelu_3x3
I1105 17:39:58.407649 24615 net.cpp:157] Top shape: 32 128 28 28 (3211264)
I1105 17:39:58.407652 24615 net.cpp:165] Memory required for data: 712901120
I1105 17:39:58.407658 24615 layer_factory.hpp:76] Creating layer inception_3a/5x5_reduce
I1105 17:39:58.407668 24615 net.cpp:106] Creating Layer inception_3a/5x5_reduce
I1105 17:39:58.407673 24615 net.cpp:454] inception_3a/5x5_reduce <- pool2/3x3_s2_pool2/3x3_s2_0_split_2
I1105 17:39:58.407680 24615 net.cpp:411] inception_3a/5x5_reduce -> inception_3a/5x5_reduce
I1105 17:39:58.408907 24615 cudnn_conv_layer.cpp:194] Reallocating workspace storage: 20664
I1105 17:39:58.408937 24615 net.cpp:150] Setting up inception_3a/5x5_reduce
I1105 17:39:58.408944 24615 net.cpp:157] Top shape: 32 16 28 28 (401408)
I1105 17:39:58.408949 24615 net.cpp:165] Memory required for data: 714506752
I1105 17:39:58.408957 24615 layer_factory.hpp:76] Creating layer inception_3a/prelu_5x5_reduce
I1105 17:39:58.408967 24615 net.cpp:106] Creating Layer inception_3a/prelu_5x5_reduce
I1105 17:39:58.408972 24615 net.cpp:454] inception_3a/prelu_5x5_reduce <- inception_3a/5x5_reduce
I1105 17:39:58.408980 24615 net.cpp:397] inception_3a/prelu_5x5_reduce -> inception_3a/5x5_reduce (in-place)
I1105 17:39:58.409097 24615 net.cpp:150] Setting up inception_3a/prelu_5x5_reduce
I1105 17:39:58.409111 24615 net.cpp:157] Top shape: 32 16 28 28 (401408)
I1105 17:39:58.409114 24615 net.cpp:165] Memory required for data: 716112384
I1105 17:39:58.409121 24615 layer_factory.hpp:76] Creating layer inception_3a/5x5
I1105 17:39:58.409129 24615 net.cpp:106] Creating Layer inception_3a/5x5
I1105 17:39:58.409134 24615 net.cpp:454] inception_3a/5x5 <- inception_3a/5x5_reduce
I1105 17:39:58.409142 24615 net.cpp:411] inception_3a/5x5 -> inception_3a/5x5
I1105 17:39:58.410156 24615 cudnn_conv_layer.cpp:194] Reallocating workspace storage: 20664
I1105 17:39:58.410176 24615 net.cpp:150] Setting up inception_3a/5x5
I1105 17:39:58.410183 24615 net.cpp:157] Top shape: 32 32 28 28 (802816)
I1105 17:39:58.410187 24615 net.cpp:165] Memory required for data: 719323648
I1105 17:39:58.410194 24615 layer_factory.hpp:76] Creating layer inception_3a/prelu_5x5
I1105 17:39:58.410202 24615 net.cpp:106] Creating Layer inception_3a/prelu_5x5
I1105 17:39:58.410207 24615 net.cpp:454] inception_3a/prelu_5x5 <- inception_3a/5x5
I1105 17:39:58.410212 24615 net.cpp:397] inception_3a/prelu_5x5 -> inception_3a/5x5 (in-place)
I1105 17:39:58.410312 24615 net.cpp:150] Setting up inception_3a/prelu_5x5
I1105 17:39:58.410322 24615 net.cpp:157] Top shape: 32 32 28 28 (802816)
I1105 17:39:58.410326 24615 net.cpp:165] Memory required for data: 722534912
I1105 17:39:58.410332 24615 layer_factory.hpp:76] Creating layer inception_3a/pool
I1105 17:39:58.410339 24615 net.cpp:106] Creating Layer inception_3a/pool
I1105 17:39:58.410344 24615 net.cpp:454] inception_3a/pool <- pool2/3x3_s2_pool2/3x3_s2_0_split_3
I1105 17:39:58.410351 24615 net.cpp:411] inception_3a/pool -> inception_3a/pool
I1105 17:39:58.410516 24615 net.cpp:150] Setting up inception_3a/pool
I1105 17:39:58.410526 24615 net.cpp:157] Top shape: 32 192 28 28 (4816896)
I1105 17:39:58.410531 24615 net.cpp:165] Memory required for data: 741802496
I1105 17:39:58.410534 24615 layer_factory.hpp:76] Creating layer inception_3a/pool_proj
I1105 17:39:58.410542 24615 net.cpp:106] Creating Layer inception_3a/pool_proj
I1105 17:39:58.410547 24615 net.cpp:454] inception_3a/pool_proj <- inception_3a/pool
I1105 17:39:58.410553 24615 net.cpp:411] inception_3a/pool_proj -> inception_3a/pool_proj
I1105 17:39:58.411710 24615 cudnn_conv_layer.cpp:194] Reallocating workspace storage: 20664
I1105 17:39:58.411732 24615 net.cpp:150] Setting up inception_3a/pool_proj
I1105 17:39:58.411741 24615 net.cpp:157] Top shape: 32 32 28 28 (802816)
I1105 17:39:58.411746 24615 net.cpp:165] Memory required for data: 745013760
I1105 17:39:58.411752 24615 layer_factory.hpp:76] Creating layer inception_3a/prelu_pool_proj
I1105 17:39:58.411761 24615 net.cpp:106] Creating Layer inception_3a/prelu_pool_proj
I1105 17:39:58.411766 24615 net.cpp:454] inception_3a/prelu_pool_proj <- inception_3a/pool_proj
I1105 17:39:58.411772 24615 net.cpp:397] inception_3a/prelu_pool_proj -> inception_3a/pool_proj (in-place)
I1105 17:39:58.411857 24615 net.cpp:150] Setting up inception_3a/prelu_pool_proj
I1105 17:39:58.411867 24615 net.cpp:157] Top shape: 32 32 28 28 (802816)
I1105 17:39:58.411871 24615 net.cpp:165] Memory required for data: 748225024
I1105 17:39:58.411877 24615 layer_factory.hpp:76] Creating layer inception_3a/output
I1105 17:39:58.411890 24615 net.cpp:106] Creating Layer inception_3a/output
I1105 17:39:58.411895 24615 net.cpp:454] inception_3a/output <- inception_3a/1x1
I1105 17:39:58.411901 24615 net.cpp:454] inception_3a/output <- inception_3a/3x3
I1105 17:39:58.411906 24615 net.cpp:454] inception_3a/output <- inception_3a/5x5
I1105 17:39:58.411911 24615 net.cpp:454] inception_3a/output <- inception_3a/pool_proj
I1105 17:39:58.411916 24615 net.cpp:411] inception_3a/output -> inception_3a/output
I1105 17:39:58.411942 24615 net.cpp:150] Setting up inception_3a/output
I1105 17:39:58.411949 24615 net.cpp:157] Top shape: 32 256 28 28 (6422528)
I1105 17:39:58.411953 24615 net.cpp:165] Memory required for data: 773915136
I1105 17:39:58.411957 24615 layer_factory.hpp:76] Creating layer inception_3a/output_inception_3a/output_0_split
I1105 17:39:58.411963 24615 net.cpp:106] Creating Layer inception_3a/output_inception_3a/output_0_split
I1105 17:39:58.411967 24615 net.cpp:454] inception_3a/output_inception_3a/output_0_split <- inception_3a/output
I1105 17:39:58.411973 24615 net.cpp:411] inception_3a/output_inception_3a/output_0_split -> inception_3a/output_inception_3a/output_0_split_0
I1105 17:39:58.411980 24615 net.cpp:411] inception_3a/output_inception_3a/output_0_split -> inception_3a/output_inception_3a/output_0_split_1
I1105 17:39:58.411988 24615 net.cpp:411] inception_3a/output_inception_3a/output_0_split -> inception_3a/output_inception_3a/output_0_split_2
I1105 17:39:58.411993 24615 net.cpp:411] inception_3a/output_inception_3a/output_0_split -> inception_3a/output_inception_3a/output_0_split_3
I1105 17:39:58.412039 24615 net.cpp:150] Setting up inception_3a/output_inception_3a/output_0_split
I1105 17:39:58.412047 24615 net.cpp:157] Top shape: 32 256 28 28 (6422528)
I1105 17:39:58.412052 24615 net.cpp:157] Top shape: 32 256 28 28 (6422528)
I1105 17:39:58.412057 24615 net.cpp:157] Top shape: 32 256 28 28 (6422528)
I1105 17:39:58.412073 24615 net.cpp:157] Top shape: 32 256 28 28 (6422528)
I1105 17:39:58.412078 24615 net.cpp:165] Memory required for data: 876675584
I1105 17:39:58.412082 24615 layer_factory.hpp:76] Creating layer inception_3b/1x1
I1105 17:39:58.412091 24615 net.cpp:106] Creating Layer inception_3b/1x1
I1105 17:39:58.412094 24615 net.cpp:454] inception_3b/1x1 <- inception_3a/output_inception_3a/output_0_split_0
I1105 17:39:58.412101 24615 net.cpp:411] inception_3b/1x1 -> inception_3b/1x1
I1105 17:39:58.413249 24615 cudnn_conv_layer.cpp:194] Reallocating workspace storage: 20664
I1105 17:39:58.413269 24615 net.cpp:150] Setting up inception_3b/1x1
I1105 17:39:58.413276 24615 net.cpp:157] Top shape: 32 128 28 28 (3211264)
I1105 17:39:58.413280 24615 net.cpp:165] Memory required for data: 889520640
I1105 17:39:58.413287 24615 layer_factory.hpp:76] Creating layer inception_3b/prelu_1x1
I1105 17:39:58.413295 24615 net.cpp:106] Creating Layer inception_3b/prelu_1x1
I1105 17:39:58.413300 24615 net.cpp:454] inception_3b/prelu_1x1 <- inception_3b/1x1
I1105 17:39:58.413305 24615 net.cpp:397] inception_3b/prelu_1x1 -> inception_3b/1x1 (in-place)
I1105 17:39:58.413900 24615 net.cpp:150] Setting up inception_3b/prelu_1x1
I1105 17:39:58.413913 24615 net.cpp:157] Top shape: 32 128 28 28 (3211264)
I1105 17:39:58.413918 24615 net.cpp:165] Memory required for data: 902365696
I1105 17:39:58.413923 24615 layer_factory.hpp:76] Creating layer inception_3b/3x3_reduce
I1105 17:39:58.413933 24615 net.cpp:106] Creating Layer inception_3b/3x3_reduce
I1105 17:39:58.413938 24615 net.cpp:454] inception_3b/3x3_reduce <- inception_3a/output_inception_3a/output_0_split_1
I1105 17:39:58.413944 24615 net.cpp:411] inception_3b/3x3_reduce -> inception_3b/3x3_reduce
I1105 17:39:58.415081 24615 cudnn_conv_layer.cpp:194] Reallocating workspace storage: 20664
I1105 17:39:58.415099 24615 net.cpp:150] Setting up inception_3b/3x3_reduce
I1105 17:39:58.415107 24615 net.cpp:157] Top shape: 32 128 28 28 (3211264)
I1105 17:39:58.415112 24615 net.cpp:165] Memory required for data: 915210752
I1105 17:39:58.415118 24615 layer_factory.hpp:76] Creating layer inception_3b/prelu_3x3_reduce
I1105 17:39:58.415127 24615 net.cpp:106] Creating Layer inception_3b/prelu_3x3_reduce
I1105 17:39:58.415139 24615 net.cpp:454] inception_3b/prelu_3x3_reduce <- inception_3b/3x3_reduce
I1105 17:39:58.415146 24615 net.cpp:397] inception_3b/prelu_3x3_reduce -> inception_3b/3x3_reduce (in-place)
I1105 17:39:58.415271 24615 net.cpp:150] Setting up inception_3b/prelu_3x3_reduce
I1105 17:39:58.415280 24615 net.cpp:157] Top shape: 32 128 28 28 (3211264)
I1105 17:39:58.415284 24615 net.cpp:165] Memory required for data: 928055808
I1105 17:39:58.415295 24615 layer_factory.hpp:76] Creating layer inception_3b/3x3
I1105 17:39:58.415307 24615 net.cpp:106] Creating Layer inception_3b/3x3
I1105 17:39:58.415310 24615 net.cpp:454] inception_3b/3x3 <- inception_3b/3x3_reduce
I1105 17:39:58.415318 24615 net.cpp:411] inception_3b/3x3 -> inception_3b/3x3
I1105 17:39:58.417965 24615 cudnn_conv_layer.cpp:194] Reallocating workspace storage: 20664
I1105 17:39:58.417986 24615 net.cpp:150] Setting up inception_3b/3x3
I1105 17:39:58.417994 24615 net.cpp:157] Top shape: 32 192 28 28 (4816896)
I1105 17:39:58.417999 24615 net.cpp:165] Memory required for data: 947323392
I1105 17:39:58.418005 24615 layer_factory.hpp:76] Creating layer inception_3b/prelu_3x3
I1105 17:39:58.418014 24615 net.cpp:106] Creating Layer inception_3b/prelu_3x3
I1105 17:39:58.418018 24615 net.cpp:454] inception_3b/prelu_3x3 <- inception_3b/3x3
I1105 17:39:58.418025 24615 net.cpp:397] inception_3b/prelu_3x3 -> inception_3b/3x3 (in-place)
I1105 17:39:58.418767 24615 net.cpp:150] Setting up inception_3b/prelu_3x3
I1105 17:39:58.418784 24615 net.cpp:157] Top shape: 32 192 28 28 (4816896)
I1105 17:39:58.418792 24615 net.cpp:165] Memory required for data: 966590976
I1105 17:39:58.418800 24615 layer_factory.hpp:76] Creating layer inception_3b/5x5_reduce
I1105 17:39:58.418813 24615 net.cpp:106] Creating Layer inception_3b/5x5_reduce
I1105 17:39:58.418820 24615 net.cpp:454] inception_3b/5x5_reduce <- inception_3a/output_inception_3a/output_0_split_2
I1105 17:39:58.418844 24615 net.cpp:411] inception_3b/5x5_reduce -> inception_3b/5x5_reduce
I1105 17:39:58.419998 24615 cudnn_conv_layer.cpp:194] Reallocating workspace storage: 20664
I1105 17:39:58.420037 24615 net.cpp:150] Setting up inception_3b/5x5_reduce
I1105 17:39:58.420048 24615 net.cpp:157] Top shape: 32 32 28 28 (802816)
I1105 17:39:58.420055 24615 net.cpp:165] Memory required for data: 969802240
I1105 17:39:58.420066 24615 layer_factory.hpp:76] Creating layer inception_3b/prelu_5x5_reduce
I1105 17:39:58.420078 24615 net.cpp:106] Creating Layer inception_3b/prelu_5x5_reduce
I1105 17:39:58.420086 24615 net.cpp:454] inception_3b/prelu_5x5_reduce <- inception_3b/5x5_reduce
I1105 17:39:58.420095 24615 net.cpp:397] inception_3b/prelu_5x5_reduce -> inception_3b/5x5_reduce (in-place)
I1105 17:39:58.420255 24615 net.cpp:150] Setting up inception_3b/prelu_5x5_reduce
I1105 17:39:58.420269 24615 net.cpp:157] Top shape: 32 32 28 28 (802816)
I1105 17:39:58.420284 24615 net.cpp:165] Memory required for data: 973013504
I1105 17:39:58.420301 24615 layer_factory.hpp:76] Creating layer inception_3b/5x5
I1105 17:39:58.420313 24615 net.cpp:106] Creating Layer inception_3b/5x5
I1105 17:39:58.420320 24615 net.cpp:454] inception_3b/5x5 <- inception_3b/5x5_reduce
I1105 17:39:58.420331 24615 net.cpp:411] inception_3b/5x5 -> inception_3b/5x5
I1105 17:39:58.421902 24615 cudnn_conv_layer.cpp:194] Reallocating workspace storage: 20664
I1105 17:39:58.421926 24615 net.cpp:150] Setting up inception_3b/5x5
I1105 17:39:58.421936 24615 net.cpp:157] Top shape: 32 96 28 28 (2408448)
I1105 17:39:58.421941 24615 net.cpp:165] Memory required for data: 982647296
I1105 17:39:58.421948 24615 layer_factory.hpp:76] Creating layer inception_3b/prelu_5x5
I1105 17:39:58.421957 24615 net.cpp:106] Creating Layer inception_3b/prelu_5x5
I1105 17:39:58.421962 24615 net.cpp:454] inception_3b/prelu_5x5 <- inception_3b/5x5
I1105 17:39:58.421969 24615 net.cpp:397] inception_3b/prelu_5x5 -> inception_3b/5x5 (in-place)
I1105 17:39:58.422130 24615 net.cpp:150] Setting up inception_3b/prelu_5x5
I1105 17:39:58.422142 24615 net.cpp:157] Top shape: 32 96 28 28 (2408448)
I1105 17:39:58.422147 24615 net.cpp:165] Memory required for data: 992281088
I1105 17:39:58.422152 24615 layer_factory.hpp:76] Creating layer inception_3b/pool
I1105 17:39:58.422159 24615 net.cpp:106] Creating Layer inception_3b/pool
I1105 17:39:58.422165 24615 net.cpp:454] inception_3b/pool <- inception_3a/output_inception_3a/output_0_split_3
I1105 17:39:58.422173 24615 net.cpp:411] inception_3b/pool -> inception_3b/pool
I1105 17:39:58.422538 24615 net.cpp:150] Setting up inception_3b/pool
I1105 17:39:58.422550 24615 net.cpp:157] Top shape: 32 256 28 28 (6422528)
I1105 17:39:58.422554 24615 net.cpp:165] Memory required for data: 1017971200
I1105 17:39:58.422559 24615 layer_factory.hpp:76] Creating layer inception_3b/pool_proj
I1105 17:39:58.422567 24615 net.cpp:106] Creating Layer inception_3b/pool_proj
I1105 17:39:58.422572 24615 net.cpp:454] inception_3b/pool_proj <- inception_3b/pool
I1105 17:39:58.422580 24615 net.cpp:411] inception_3b/pool_proj -> inception_3b/pool_proj
I1105 17:39:58.423696 24615 cudnn_conv_layer.cpp:194] Reallocating workspace storage: 20664
I1105 17:39:58.423717 24615 net.cpp:150] Setting up inception_3b/pool_proj
I1105 17:39:58.423725 24615 net.cpp:157] Top shape: 32 64 28 28 (1605632)
I1105 17:39:58.423729 24615 net.cpp:165] Memory required for data: 1024393728
I1105 17:39:58.423738 24615 layer_factory.hpp:76] Creating layer inception_3b/prelu_pool_proj
I1105 17:39:58.423746 24615 net.cpp:106] Creating Layer inception_3b/prelu_pool_proj
I1105 17:39:58.423750 24615 net.cpp:454] inception_3b/prelu_pool_proj <- inception_3b/pool_proj
I1105 17:39:58.423758 24615 net.cpp:397] inception_3b/prelu_pool_proj -> inception_3b/pool_proj (in-place)
I1105 17:39:58.423895 24615 net.cpp:150] Setting up inception_3b/prelu_pool_proj
I1105 17:39:58.423905 24615 net.cpp:157] Top shape: 32 64 28 28 (1605632)
I1105 17:39:58.423934 24615 net.cpp:165] Memory required for data: 1030816256
I1105 17:39:58.423943 24615 layer_factory.hpp:76] Creating layer inception_3b/output
I1105 17:39:58.423949 24615 net.cpp:106] Creating Layer inception_3b/output
I1105 17:39:58.423964 24615 net.cpp:454] inception_3b/output <- inception_3b/1x1
I1105 17:39:58.423977 24615 net.cpp:454] inception_3b/output <- inception_3b/3x3
I1105 17:39:58.423982 24615 net.cpp:454] inception_3b/output <- inception_3b/5x5
I1105 17:39:58.423986 24615 net.cpp:454] inception_3b/output <- inception_3b/pool_proj
I1105 17:39:58.423992 24615 net.cpp:411] inception_3b/output -> inception_3b/output
I1105 17:39:58.424026 24615 net.cpp:150] Setting up inception_3b/output
I1105 17:39:58.424033 24615 net.cpp:157] Top shape: 32 480 28 28 (12042240)
I1105 17:39:58.424037 24615 net.cpp:165] Memory required for data: 1078985216
I1105 17:39:58.424041 24615 layer_factory.hpp:76] Creating layer pool3/3x3_s2
I1105 17:39:58.424052 24615 net.cpp:106] Creating Layer pool3/3x3_s2
I1105 17:39:58.424063 24615 net.cpp:454] pool3/3x3_s2 <- inception_3b/output
I1105 17:39:58.424072 24615 net.cpp:411] pool3/3x3_s2 -> pool3/3x3_s2
I1105 17:39:58.424464 24615 net.cpp:150] Setting up pool3/3x3_s2
I1105 17:39:58.424476 24615 net.cpp:157] Top shape: 32 480 14 14 (3010560)
I1105 17:39:58.424480 24615 net.cpp:165] Memory required for data: 1091027456
I1105 17:39:58.424485 24615 layer_factory.hpp:76] Creating layer pool3/3x3_s2_pool3/3x3_s2_0_split
I1105 17:39:58.424492 24615 net.cpp:106] Creating Layer pool3/3x3_s2_pool3/3x3_s2_0_split
I1105 17:39:58.424496 24615 net.cpp:454] pool3/3x3_s2_pool3/3x3_s2_0_split <- pool3/3x3_s2
I1105 17:39:58.424504 24615 net.cpp:411] pool3/3x3_s2_pool3/3x3_s2_0_split -> pool3/3x3_s2_pool3/3x3_s2_0_split_0
I1105 17:39:58.424512 24615 net.cpp:411] pool3/3x3_s2_pool3/3x3_s2_0_split -> pool3/3x3_s2_pool3/3x3_s2_0_split_1
I1105 17:39:58.424518 24615 net.cpp:411] pool3/3x3_s2_pool3/3x3_s2_0_split -> pool3/3x3_s2_pool3/3x3_s2_0_split_2
I1105 17:39:58.424537 24615 net.cpp:411] pool3/3x3_s2_pool3/3x3_s2_0_split -> pool3/3x3_s2_pool3/3x3_s2_0_split_3
I1105 17:39:58.424604 24615 net.cpp:150] Setting up pool3/3x3_s2_pool3/3x3_s2_0_split
I1105 17:39:58.424612 24615 net.cpp:157] Top shape: 32 480 14 14 (3010560)
I1105 17:39:58.424618 24615 net.cpp:157] Top shape: 32 480 14 14 (3010560)
I1105 17:39:58.424623 24615 net.cpp:157] Top shape: 32 480 14 14 (3010560)
I1105 17:39:58.424626 24615 net.cpp:157] Top shape: 32 480 14 14 (3010560)
I1105 17:39:58.424630 24615 net.cpp:165] Memory required for data: 1139196416
I1105 17:39:58.424634 24615 layer_factory.hpp:76] Creating layer inception_4a/1x1
I1105 17:39:58.424654 24615 net.cpp:106] Creating Layer inception_4a/1x1
I1105 17:39:58.424659 24615 net.cpp:454] inception_4a/1x1 <- pool3/3x3_s2_pool3/3x3_s2_0_split_0
I1105 17:39:58.424666 24615 net.cpp:411] inception_4a/1x1 -> inception_4a/1x1
I1105 17:39:58.426794 24615 cudnn_conv_layer.cpp:194] Reallocating workspace storage: 10080
I1105 17:39:58.427006 24615 net.cpp:150] Setting up inception_4a/1x1
I1105 17:39:58.427017 24615 net.cpp:157] Top shape: 32 192 14 14 (1204224)
I1105 17:39:58.427022 24615 net.cpp:165] Memory required for data: 1144013312
I1105 17:39:58.427031 24615 layer_factory.hpp:76] Creating layer inception_4a/prelu_1x1
I1105 17:39:58.427042 24615 net.cpp:106] Creating Layer inception_4a/prelu_1x1
I1105 17:39:58.427047 24615 net.cpp:454] inception_4a/prelu_1x1 <- inception_4a/1x1
I1105 17:39:58.427054 24615 net.cpp:397] inception_4a/prelu_1x1 -> inception_4a/1x1 (in-place)
I1105 17:39:58.427636 24615 net.cpp:150] Setting up inception_4a/prelu_1x1
I1105 17:39:58.427649 24615 net.cpp:157] Top shape: 32 192 14 14 (1204224)
I1105 17:39:58.427654 24615 net.cpp:165] Memory required for data: 1148830208
I1105 17:39:58.427660 24615 layer_factory.hpp:76] Creating layer inception_4a/3x3_reduce
I1105 17:39:58.427670 24615 net.cpp:106] Creating Layer inception_4a/3x3_reduce
I1105 17:39:58.427676 24615 net.cpp:454] inception_4a/3x3_reduce <- pool3/3x3_s2_pool3/3x3_s2_0_split_1
I1105 17:39:58.427685 24615 net.cpp:411] inception_4a/3x3_reduce -> inception_4a/3x3_reduce
I1105 17:39:58.429016 24615 cudnn_conv_layer.cpp:194] Reallocating workspace storage: 10080
I1105 17:39:58.429044 24615 net.cpp:150] Setting up inception_4a/3x3_reduce
I1105 17:39:58.429052 24615 net.cpp:157] Top shape: 32 96 14 14 (602112)
I1105 17:39:58.429056 24615 net.cpp:165] Memory required for data: 1151238656
I1105 17:39:58.429064 24615 layer_factory.hpp:76] Creating layer inception_4a/prelu_3x3_reduce
I1105 17:39:58.429075 24615 net.cpp:106] Creating Layer inception_4a/prelu_3x3_reduce
I1105 17:39:58.429080 24615 net.cpp:454] inception_4a/prelu_3x3_reduce <- inception_4a/3x3_reduce
I1105 17:39:58.429090 24615 net.cpp:397] inception_4a/prelu_3x3_reduce -> inception_4a/3x3_reduce (in-place)
I1105 17:39:58.429179 24615 net.cpp:150] Setting up inception_4a/prelu_3x3_reduce
I1105 17:39:58.429188 24615 net.cpp:157] Top shape: 32 96 14 14 (602112)
I1105 17:39:58.429193 24615 net.cpp:165] Memory required for data: 1153647104
I1105 17:39:58.429198 24615 layer_factory.hpp:76] Creating layer inception_4a/3x3
I1105 17:39:58.429208 24615 net.cpp:106] Creating Layer inception_4a/3x3
I1105 17:39:58.429211 24615 net.cpp:454] inception_4a/3x3 <- inception_4a/3x3_reduce
I1105 17:39:58.429219 24615 net.cpp:411] inception_4a/3x3 -> inception_4a/3x3
I1105 17:39:58.431464 24615 cudnn_conv_layer.cpp:194] Reallocating workspace storage: 10080
I1105 17:39:58.431488 24615 net.cpp:150] Setting up inception_4a/3x3
I1105 17:39:58.431496 24615 net.cpp:157] Top shape: 32 208 14 14 (1304576)
I1105 17:39:58.431500 24615 net.cpp:165] Memory required for data: 1158865408
I1105 17:39:58.431507 24615 layer_factory.hpp:76] Creating layer inception_4a/prelu_3x3
I1105 17:39:58.431524 24615 net.cpp:106] Creating Layer inception_4a/prelu_3x3
I1105 17:39:58.431529 24615 net.cpp:454] inception_4a/prelu_3x3 <- inception_4a/3x3
I1105 17:39:58.431535 24615 net.cpp:397] inception_4a/prelu_3x3 -> inception_4a/3x3 (in-place)
I1105 17:39:58.431644 24615 net.cpp:150] Setting up inception_4a/prelu_3x3
I1105 17:39:58.431653 24615 net.cpp:157] Top shape: 32 208 14 14 (1304576)
I1105 17:39:58.431658 24615 net.cpp:165] Memory required for data: 1164083712
I1105 17:39:58.431670 24615 layer_factory.hpp:76] Creating layer inception_4a/5x5_reduce
I1105 17:39:58.431680 24615 net.cpp:106] Creating Layer inception_4a/5x5_reduce
I1105 17:39:58.431687 24615 net.cpp:454] inception_4a/5x5_reduce <- pool3/3x3_s2_pool3/3x3_s2_0_split_2
I1105 17:39:58.431695 24615 net.cpp:411] inception_4a/5x5_reduce -> inception_4a/5x5_reduce
I1105 17:39:58.432749 24615 cudnn_conv_layer.cpp:194] Reallocating workspace storage: 10080
I1105 17:39:58.432770 24615 net.cpp:150] Setting up inception_4a/5x5_reduce
I1105 17:39:58.432777 24615 net.cpp:157] Top shape: 32 16 14 14 (100352)
I1105 17:39:58.432781 24615 net.cpp:165] Memory required for data: 1164485120
I1105 17:39:58.432796 24615 layer_factory.hpp:76] Creating layer inception_4a/prelu_5x5_reduce
I1105 17:39:58.432806 24615 net.cpp:106] Creating Layer inception_4a/prelu_5x5_reduce
I1105 17:39:58.432811 24615 net.cpp:454] inception_4a/prelu_5x5_reduce <- inception_4a/5x5_reduce
I1105 17:39:58.432817 24615 net.cpp:397] inception_4a/prelu_5x5_reduce -> inception_4a/5x5_reduce (in-place)
I1105 17:39:58.432924 24615 net.cpp:150] Setting up inception_4a/prelu_5x5_reduce
I1105 17:39:58.432934 24615 net.cpp:157] Top shape: 32 16 14 14 (100352)
I1105 17:39:58.432937 24615 net.cpp:165] Memory required for data: 1164886528
I1105 17:39:58.432943 24615 layer_factory.hpp:76] Creating layer inception_4a/5x5
I1105 17:39:58.432952 24615 net.cpp:106] Creating Layer inception_4a/5x5
I1105 17:39:58.432956 24615 net.cpp:454] inception_4a/5x5 <- inception_4a/5x5_reduce
I1105 17:39:58.432965 24615 net.cpp:411] inception_4a/5x5 -> inception_4a/5x5
I1105 17:39:58.434069 24615 cudnn_conv_layer.cpp:194] Reallocating workspace storage: 13080
I1105 17:39:58.434094 24615 net.cpp:150] Setting up inception_4a/5x5
I1105 17:39:58.434103 24615 net.cpp:157] Top shape: 32 48 14 14 (301056)
I1105 17:39:58.434106 24615 net.cpp:165] Memory required for data: 1166090752
I1105 17:39:58.434124 24615 layer_factory.hpp:76] Creating layer inception_4a/prelu_5x5
I1105 17:39:58.434134 24615 net.cpp:106] Creating Layer inception_4a/prelu_5x5
I1105 17:39:58.434139 24615 net.cpp:454] inception_4a/prelu_5x5 <- inception_4a/5x5
I1105 17:39:58.434145 24615 net.cpp:397] inception_4a/prelu_5x5 -> inception_4a/5x5 (in-place)
I1105 17:39:58.434233 24615 net.cpp:150] Setting up inception_4a/prelu_5x5
I1105 17:39:58.434242 24615 net.cpp:157] Top shape: 32 48 14 14 (301056)
I1105 17:39:58.434247 24615 net.cpp:165] Memory required for data: 1167294976
I1105 17:39:58.434252 24615 layer_factory.hpp:76] Creating layer inception_4a/pool
I1105 17:39:58.434259 24615 net.cpp:106] Creating Layer inception_4a/pool
I1105 17:39:58.434265 24615 net.cpp:454] inception_4a/pool <- pool3/3x3_s2_pool3/3x3_s2_0_split_3
I1105 17:39:58.434270 24615 net.cpp:411] inception_4a/pool -> inception_4a/pool
I1105 17:39:58.434628 24615 net.cpp:150] Setting up inception_4a/pool
I1105 17:39:58.434639 24615 net.cpp:157] Top shape: 32 480 14 14 (3010560)
I1105 17:39:58.434643 24615 net.cpp:165] Memory required for data: 1179337216
I1105 17:39:58.434648 24615 layer_factory.hpp:76] Creating layer inception_4a/pool_proj
I1105 17:39:58.434656 24615 net.cpp:106] Creating Layer inception_4a/pool_proj
I1105 17:39:58.434661 24615 net.cpp:454] inception_4a/pool_proj <- inception_4a/pool
I1105 17:39:58.434670 24615 net.cpp:411] inception_4a/pool_proj -> inception_4a/pool_proj
I1105 17:39:58.435657 24615 cudnn_conv_layer.cpp:194] Reallocating workspace storage: 10080
I1105 17:39:58.435684 24615 net.cpp:150] Setting up inception_4a/pool_proj
I1105 17:39:58.435693 24615 net.cpp:157] Top shape: 32 64 14 14 (401408)
I1105 17:39:58.435696 24615 net.cpp:165] Memory required for data: 1180942848
I1105 17:39:58.435703 24615 layer_factory.hpp:76] Creating layer inception_4a/prelu_pool_proj
I1105 17:39:58.435710 24615 net.cpp:106] Creating Layer inception_4a/prelu_pool_proj
I1105 17:39:58.435714 24615 net.cpp:454] inception_4a/prelu_pool_proj <- inception_4a/pool_proj
I1105 17:39:58.435722 24615 net.cpp:397] inception_4a/prelu_pool_proj -> inception_4a/pool_proj (in-place)
I1105 17:39:58.435817 24615 net.cpp:150] Setting up inception_4a/prelu_pool_proj
I1105 17:39:58.435825 24615 net.cpp:157] Top shape: 32 64 14 14 (401408)
I1105 17:39:58.435829 24615 net.cpp:165] Memory required for data: 1182548480
I1105 17:39:58.435834 24615 layer_factory.hpp:76] Creating layer inception_4a/output
I1105 17:39:58.435842 24615 net.cpp:106] Creating Layer inception_4a/output
I1105 17:39:58.435845 24615 net.cpp:454] inception_4a/output <- inception_4a/1x1
I1105 17:39:58.435852 24615 net.cpp:454] inception_4a/output <- inception_4a/3x3
I1105 17:39:58.435855 24615 net.cpp:454] inception_4a/output <- inception_4a/5x5
I1105 17:39:58.435859 24615 net.cpp:454] inception_4a/output <- inception_4a/pool_proj
I1105 17:39:58.435865 24615 net.cpp:411] inception_4a/output -> inception_4a/output
I1105 17:39:58.435889 24615 net.cpp:150] Setting up inception_4a/output
I1105 17:39:58.435899 24615 net.cpp:157] Top shape: 32 512 14 14 (3211264)
I1105 17:39:58.435904 24615 net.cpp:165] Memory required for data: 1195393536
I1105 17:39:58.435907 24615 layer_factory.hpp:76] Creating layer inception_4a/output_inception_4a/output_0_split
I1105 17:39:58.435930 24615 net.cpp:106] Creating Layer inception_4a/output_inception_4a/output_0_split
I1105 17:39:58.435935 24615 net.cpp:454] inception_4a/output_inception_4a/output_0_split <- inception_4a/output
I1105 17:39:58.435940 24615 net.cpp:411] inception_4a/output_inception_4a/output_0_split -> inception_4a/output_inception_4a/output_0_split_0
I1105 17:39:58.435947 24615 net.cpp:411] inception_4a/output_inception_4a/output_0_split -> inception_4a/output_inception_4a/output_0_split_1
I1105 17:39:58.435961 24615 net.cpp:411] inception_4a/output_inception_4a/output_0_split -> inception_4a/output_inception_4a/output_0_split_2
I1105 17:39:58.435978 24615 net.cpp:411] inception_4a/output_inception_4a/output_0_split -> inception_4a/output_inception_4a/output_0_split_3
I1105 17:39:58.435994 24615 net.cpp:411] inception_4a/output_inception_4a/output_0_split -> inception_4a/output_inception_4a/output_0_split_4
I1105 17:39:58.436059 24615 net.cpp:150] Setting up inception_4a/output_inception_4a/output_0_split
I1105 17:39:58.436069 24615 net.cpp:157] Top shape: 32 512 14 14 (3211264)
I1105 17:39:58.436074 24615 net.cpp:157] Top shape: 32 512 14 14 (3211264)
I1105 17:39:58.436077 24615 net.cpp:157] Top shape: 32 512 14 14 (3211264)
I1105 17:39:58.436082 24615 net.cpp:157] Top shape: 32 512 14 14 (3211264)
I1105 17:39:58.436087 24615 net.cpp:157] Top shape: 32 512 14 14 (3211264)
I1105 17:39:58.436090 24615 net.cpp:165] Memory required for data: 1259618816
I1105 17:39:58.436094 24615 layer_factory.hpp:76] Creating layer loss1/ave_pool
I1105 17:39:58.436100 24615 net.cpp:106] Creating Layer loss1/ave_pool
I1105 17:39:58.436105 24615 net.cpp:454] loss1/ave_pool <- inception_4a/output_inception_4a/output_0_split_0
I1105 17:39:58.436110 24615 net.cpp:411] loss1/ave_pool -> loss1/ave_pool
I1105 17:39:58.436458 24615 net.cpp:150] Setting up loss1/ave_pool
I1105 17:39:58.436470 24615 net.cpp:157] Top shape: 32 512 4 4 (262144)
I1105 17:39:58.436475 24615 net.cpp:165] Memory required for data: 1260667392
I1105 17:39:58.436478 24615 layer_factory.hpp:76] Creating layer loss1/conv
I1105 17:39:58.436489 24615 net.cpp:106] Creating Layer loss1/conv
I1105 17:39:58.436494 24615 net.cpp:454] loss1/conv <- loss1/ave_pool
I1105 17:39:58.436501 24615 net.cpp:411] loss1/conv -> loss1/conv
I1105 17:39:58.437891 24615 cudnn_conv_layer.cpp:194] Reallocating workspace storage: 6840
I1105 17:39:58.437916 24615 net.cpp:150] Setting up loss1/conv
I1105 17:39:58.437924 24615 net.cpp:157] Top shape: 32 128 4 4 (65536)
I1105 17:39:58.437928 24615 net.cpp:165] Memory required for data: 1260929536
I1105 17:39:58.437947 24615 layer_factory.hpp:76] Creating layer loss1/prelu_conv
I1105 17:39:58.437955 24615 net.cpp:106] Creating Layer loss1/prelu_conv
I1105 17:39:58.437960 24615 net.cpp:454] loss1/prelu_conv <- loss1/conv
I1105 17:39:58.437968 24615 net.cpp:397] loss1/prelu_conv -> loss1/conv (in-place)
I1105 17:39:58.438071 24615 net.cpp:150] Setting up loss1/prelu_conv
I1105 17:39:58.438081 24615 net.cpp:157] Top shape: 32 128 4 4 (65536)
I1105 17:39:58.438084 24615 net.cpp:165] Memory required for data: 1261191680
I1105 17:39:58.438089 24615 layer_factory.hpp:76] Creating layer loss1/fc
I1105 17:39:58.438102 24615 net.cpp:106] Creating Layer loss1/fc
I1105 17:39:58.438107 24615 net.cpp:454] loss1/fc <- loss1/conv
I1105 17:39:58.438113 24615 net.cpp:411] loss1/fc -> loss1/fc
I1105 17:39:58.453836 24615 net.cpp:150] Setting up loss1/fc
I1105 17:39:58.453884 24615 net.cpp:157] Top shape: 32 1024 (32768)
I1105 17:39:58.453891 24615 net.cpp:165] Memory required for data: 1261322752
I1105 17:39:58.453902 24615 layer_factory.hpp:76] Creating layer loss1/prelu_fc
I1105 17:39:58.453917 24615 net.cpp:106] Creating Layer loss1/prelu_fc
I1105 17:39:58.453924 24615 net.cpp:454] loss1/prelu_fc <- loss1/fc
I1105 17:39:58.453933 24615 net.cpp:397] loss1/prelu_fc -> loss1/fc (in-place)
I1105 17:39:58.454026 24615 net.cpp:150] Setting up loss1/prelu_fc
I1105 17:39:58.454035 24615 net.cpp:157] Top shape: 32 1024 (32768)
I1105 17:39:58.454040 24615 net.cpp:165] Memory required for data: 1261453824
I1105 17:39:58.454053 24615 layer_factory.hpp:76] Creating layer loss1/drop_fc
I1105 17:39:58.454076 24615 net.cpp:106] Creating Layer loss1/drop_fc
I1105 17:39:58.454094 24615 net.cpp:454] loss1/drop_fc <- loss1/fc
I1105 17:39:58.454100 24615 net.cpp:397] loss1/drop_fc -> loss1/fc (in-place)
I1105 17:39:58.454152 24615 net.cpp:150] Setting up loss1/drop_fc
I1105 17:39:58.454166 24615 net.cpp:157] Top shape: 32 1024 (32768)
I1105 17:39:58.454185 24615 net.cpp:165] Memory required for data: 1261584896
I1105 17:39:58.454190 24615 layer_factory.hpp:76] Creating layer loss1/classifier2
I1105 17:39:58.454210 24615 net.cpp:106] Creating Layer loss1/classifier2
I1105 17:39:58.454216 24615 net.cpp:454] loss1/classifier2 <- loss1/fc
I1105 17:39:58.454251 24615 net.cpp:411] loss1/classifier2 -> loss1/classifier
I1105 17:39:58.454437 24615 net.cpp:150] Setting up loss1/classifier2
I1105 17:39:58.454447 24615 net.cpp:157] Top shape: 32 2 (64)
I1105 17:39:58.454452 24615 net.cpp:165] Memory required for data: 1261585152
I1105 17:39:58.454468 24615 layer_factory.hpp:76] Creating layer loss1/loss
I1105 17:39:58.454478 24615 net.cpp:106] Creating Layer loss1/loss
I1105 17:39:58.454483 24615 net.cpp:454] loss1/loss <- loss1/classifier
I1105 17:39:58.454488 24615 net.cpp:454] loss1/loss <- label_data_1_split_0
I1105 17:39:58.454504 24615 net.cpp:411] loss1/loss -> loss1/loss1
I1105 17:39:58.454519 24615 layer_factory.hpp:76] Creating layer loss1/loss
I1105 17:39:58.454838 24615 net.cpp:150] Setting up loss1/loss
I1105 17:39:58.454849 24615 net.cpp:157] Top shape: (1)
I1105 17:39:58.454852 24615 net.cpp:160]     with loss weight 0.3
I1105 17:39:58.454875 24615 net.cpp:165] Memory required for data: 1261585156
I1105 17:39:58.454880 24615 layer_factory.hpp:76] Creating layer inception_4b/1x1
I1105 17:39:58.454891 24615 net.cpp:106] Creating Layer inception_4b/1x1
I1105 17:39:58.454896 24615 net.cpp:454] inception_4b/1x1 <- inception_4a/output_inception_4a/output_0_split_1
I1105 17:39:58.454905 24615 net.cpp:411] inception_4b/1x1 -> inception_4b/1x1
I1105 17:39:58.456538 24615 cudnn_conv_layer.cpp:194] Reallocating workspace storage: 10080
I1105 17:39:58.456588 24615 net.cpp:150] Setting up inception_4b/1x1
I1105 17:39:58.456609 24615 net.cpp:157] Top shape: 32 160 14 14 (1003520)
I1105 17:39:58.456614 24615 net.cpp:165] Memory required for data: 1265599236
I1105 17:39:58.456624 24615 layer_factory.hpp:76] Creating layer inception_4b/prelu_1x1
I1105 17:39:58.456634 24615 net.cpp:106] Creating Layer inception_4b/prelu_1x1
I1105 17:39:58.456662 24615 net.cpp:454] inception_4b/prelu_1x1 <- inception_4b/1x1
I1105 17:39:58.456670 24615 net.cpp:397] inception_4b/prelu_1x1 -> inception_4b/1x1 (in-place)
I1105 17:39:58.457307 24615 net.cpp:150] Setting up inception_4b/prelu_1x1
I1105 17:39:58.457325 24615 net.cpp:157] Top shape: 32 160 14 14 (1003520)
I1105 17:39:58.457329 24615 net.cpp:165] Memory required for data: 1269613316
I1105 17:39:58.457336 24615 layer_factory.hpp:76] Creating layer inception_4b/3x3_reduce
I1105 17:39:58.457348 24615 net.cpp:106] Creating Layer inception_4b/3x3_reduce
I1105 17:39:58.457353 24615 net.cpp:454] inception_4b/3x3_reduce <- inception_4a/output_inception_4a/output_0_split_2
I1105 17:39:58.457362 24615 net.cpp:411] inception_4b/3x3_reduce -> inception_4b/3x3_reduce
I1105 17:39:58.458956 24615 cudnn_conv_layer.cpp:194] Reallocating workspace storage: 10080
I1105 17:39:58.458987 24615 net.cpp:150] Setting up inception_4b/3x3_reduce
I1105 17:39:58.458995 24615 net.cpp:157] Top shape: 32 112 14 14 (702464)
I1105 17:39:58.458999 24615 net.cpp:165] Memory required for data: 1272423172
I1105 17:39:58.459007 24615 layer_factory.hpp:76] Creating layer inception_4b/prelu_3x3_reduce
I1105 17:39:58.459017 24615 net.cpp:106] Creating Layer inception_4b/prelu_3x3_reduce
I1105 17:39:58.459022 24615 net.cpp:454] inception_4b/prelu_3x3_reduce <- inception_4b/3x3_reduce
I1105 17:39:58.459028 24615 net.cpp:397] inception_4b/prelu_3x3_reduce -> inception_4b/3x3_reduce (in-place)
I1105 17:39:58.459125 24615 net.cpp:150] Setting up inception_4b/prelu_3x3_reduce
I1105 17:39:58.459136 24615 net.cpp:157] Top shape: 32 112 14 14 (702464)
I1105 17:39:58.459139 24615 net.cpp:165] Memory required for data: 1275233028
I1105 17:39:58.459144 24615 layer_factory.hpp:76] Creating layer inception_4b/3x3
I1105 17:39:58.459156 24615 net.cpp:106] Creating Layer inception_4b/3x3
I1105 17:39:58.459159 24615 net.cpp:454] inception_4b/3x3 <- inception_4b/3x3_reduce
I1105 17:39:58.459167 24615 net.cpp:411] inception_4b/3x3 -> inception_4b/3x3
I1105 17:39:58.461920 24615 cudnn_conv_layer.cpp:194] Reallocating workspace storage: 10080
I1105 17:39:58.461946 24615 net.cpp:150] Setting up inception_4b/3x3
I1105 17:39:58.461956 24615 net.cpp:157] Top shape: 32 224 14 14 (1404928)
I1105 17:39:58.461983 24615 net.cpp:165] Memory required for data: 1280852740
I1105 17:39:58.461992 24615 layer_factory.hpp:76] Creating layer inception_4b/prelu_3x3
I1105 17:39:58.461999 24615 net.cpp:106] Creating Layer inception_4b/prelu_3x3
I1105 17:39:58.462004 24615 net.cpp:454] inception_4b/prelu_3x3 <- inception_4b/3x3
I1105 17:39:58.462013 24615 net.cpp:397] inception_4b/prelu_3x3 -> inception_4b/3x3 (in-place)
I1105 17:39:58.462162 24615 net.cpp:150] Setting up inception_4b/prelu_3x3
I1105 17:39:58.462180 24615 net.cpp:157] Top shape: 32 224 14 14 (1404928)
I1105 17:39:58.462184 24615 net.cpp:165] Memory required for data: 1286472452
I1105 17:39:58.462198 24615 layer_factory.hpp:76] Creating layer inception_4b/5x5_reduce
I1105 17:39:58.462208 24615 net.cpp:106] Creating Layer inception_4b/5x5_reduce
I1105 17:39:58.462214 24615 net.cpp:454] inception_4b/5x5_reduce <- inception_4a/output_inception_4a/output_0_split_3
I1105 17:39:58.462220 24615 net.cpp:411] inception_4b/5x5_reduce -> inception_4b/5x5_reduce
I1105 17:39:58.463140 24615 cudnn_conv_layer.cpp:194] Reallocating workspace storage: 10080
I1105 17:39:58.463163 24615 net.cpp:150] Setting up inception_4b/5x5_reduce
I1105 17:39:58.463171 24615 net.cpp:157] Top shape: 32 24 14 14 (150528)
I1105 17:39:58.463174 24615 net.cpp:165] Memory required for data: 1287074564
I1105 17:39:58.463181 24615 layer_factory.hpp:76] Creating layer inception_4b/prelu_5x5_reduce
I1105 17:39:58.463191 24615 net.cpp:106] Creating Layer inception_4b/prelu_5x5_reduce
I1105 17:39:58.463196 24615 net.cpp:454] inception_4b/prelu_5x5_reduce <- inception_4b/5x5_reduce
I1105 17:39:58.463202 24615 net.cpp:397] inception_4b/prelu_5x5_reduce -> inception_4b/5x5_reduce (in-place)
I1105 17:39:58.463290 24615 net.cpp:150] Setting up inception_4b/prelu_5x5_reduce
I1105 17:39:58.463299 24615 net.cpp:157] Top shape: 32 24 14 14 (150528)
I1105 17:39:58.463304 24615 net.cpp:165] Memory required for data: 1287676676
I1105 17:39:58.463309 24615 layer_factory.hpp:76] Creating layer inception_4b/5x5
I1105 17:39:58.463317 24615 net.cpp:106] Creating Layer inception_4b/5x5
I1105 17:39:58.463322 24615 net.cpp:454] inception_4b/5x5 <- inception_4b/5x5_reduce
I1105 17:39:58.463330 24615 net.cpp:411] inception_4b/5x5 -> inception_4b/5x5
I1105 17:39:58.464552 24615 cudnn_conv_layer.cpp:194] Reallocating workspace storage: 13080
I1105 17:39:58.464577 24615 net.cpp:150] Setting up inception_4b/5x5
I1105 17:39:58.464584 24615 net.cpp:157] Top shape: 32 64 14 14 (401408)
I1105 17:39:58.464588 24615 net.cpp:165] Memory required for data: 1289282308
I1105 17:39:58.464596 24615 layer_factory.hpp:76] Creating layer inception_4b/prelu_5x5
I1105 17:39:58.464604 24615 net.cpp:106] Creating Layer inception_4b/prelu_5x5
I1105 17:39:58.464609 24615 net.cpp:454] inception_4b/prelu_5x5 <- inception_4b/5x5
I1105 17:39:58.464632 24615 net.cpp:397] inception_4b/prelu_5x5 -> inception_4b/5x5 (in-place)
I1105 17:39:58.464727 24615 net.cpp:150] Setting up inception_4b/prelu_5x5
I1105 17:39:58.464737 24615 net.cpp:157] Top shape: 32 64 14 14 (401408)
I1105 17:39:58.464741 24615 net.cpp:165] Memory required for data: 1290887940
I1105 17:39:58.464746 24615 layer_factory.hpp:76] Creating layer inception_4b/pool
I1105 17:39:58.464756 24615 net.cpp:106] Creating Layer inception_4b/pool
I1105 17:39:58.464763 24615 net.cpp:454] inception_4b/pool <- inception_4a/output_inception_4a/output_0_split_4
I1105 17:39:58.464769 24615 net.cpp:411] inception_4b/pool -> inception_4b/pool
I1105 17:39:58.465163 24615 net.cpp:150] Setting up inception_4b/pool
I1105 17:39:58.465175 24615 net.cpp:157] Top shape: 32 512 14 14 (3211264)
I1105 17:39:58.465180 24615 net.cpp:165] Memory required for data: 1303732996
I1105 17:39:58.465184 24615 layer_factory.hpp:76] Creating layer inception_4b/pool_proj
I1105 17:39:58.465194 24615 net.cpp:106] Creating Layer inception_4b/pool_proj
I1105 17:39:58.465199 24615 net.cpp:454] inception_4b/pool_proj <- inception_4b/pool
I1105 17:39:58.465208 24615 net.cpp:411] inception_4b/pool_proj -> inception_4b/pool_proj
I1105 17:39:58.466447 24615 cudnn_conv_layer.cpp:194] Reallocating workspace storage: 10080
I1105 17:39:58.466475 24615 net.cpp:150] Setting up inception_4b/pool_proj
I1105 17:39:58.466482 24615 net.cpp:157] Top shape: 32 64 14 14 (401408)
I1105 17:39:58.466486 24615 net.cpp:165] Memory required for data: 1305338628
I1105 17:39:58.466493 24615 layer_factory.hpp:76] Creating layer inception_4b/prelu_pool_proj
I1105 17:39:58.466509 24615 net.cpp:106] Creating Layer inception_4b/prelu_pool_proj
I1105 17:39:58.466514 24615 net.cpp:454] inception_4b/prelu_pool_proj <- inception_4b/pool_proj
I1105 17:39:58.466521 24615 net.cpp:397] inception_4b/prelu_pool_proj -> inception_4b/pool_proj (in-place)
I1105 17:39:58.466645 24615 net.cpp:150] Setting up inception_4b/prelu_pool_proj
I1105 17:39:58.466655 24615 net.cpp:157] Top shape: 32 64 14 14 (401408)
I1105 17:39:58.466658 24615 net.cpp:165] Memory required for data: 1306944260
I1105 17:39:58.466665 24615 layer_factory.hpp:76] Creating layer inception_4b/output
I1105 17:39:58.466670 24615 net.cpp:106] Creating Layer inception_4b/output
I1105 17:39:58.466675 24615 net.cpp:454] inception_4b/output <- inception_4b/1x1
I1105 17:39:58.466680 24615 net.cpp:454] inception_4b/output <- inception_4b/3x3
I1105 17:39:58.466684 24615 net.cpp:454] inception_4b/output <- inception_4b/5x5
I1105 17:39:58.466688 24615 net.cpp:454] inception_4b/output <- inception_4b/pool_proj
I1105 17:39:58.466696 24615 net.cpp:411] inception_4b/output -> inception_4b/output
I1105 17:39:58.466722 24615 net.cpp:150] Setting up inception_4b/output
I1105 17:39:58.466728 24615 net.cpp:157] Top shape: 32 512 14 14 (3211264)
I1105 17:39:58.466732 24615 net.cpp:165] Memory required for data: 1319789316
I1105 17:39:58.466737 24615 layer_factory.hpp:76] Creating layer inception_4b/output_inception_4b/output_0_split
I1105 17:39:58.466753 24615 net.cpp:106] Creating Layer inception_4b/output_inception_4b/output_0_split
I1105 17:39:58.466758 24615 net.cpp:454] inception_4b/output_inception_4b/output_0_split <- inception_4b/output
I1105 17:39:58.466763 24615 net.cpp:411] inception_4b/output_inception_4b/output_0_split -> inception_4b/output_inception_4b/output_0_split_0
I1105 17:39:58.466771 24615 net.cpp:411] inception_4b/output_inception_4b/output_0_split -> inception_4b/output_inception_4b/output_0_split_1
I1105 17:39:58.466778 24615 net.cpp:411] inception_4b/output_inception_4b/output_0_split -> inception_4b/output_inception_4b/output_0_split_2
I1105 17:39:58.466785 24615 net.cpp:411] inception_4b/output_inception_4b/output_0_split -> inception_4b/output_inception_4b/output_0_split_3
I1105 17:39:58.466850 24615 net.cpp:150] Setting up inception_4b/output_inception_4b/output_0_split
I1105 17:39:58.466858 24615 net.cpp:157] Top shape: 32 512 14 14 (3211264)
I1105 17:39:58.466863 24615 net.cpp:157] Top shape: 32 512 14 14 (3211264)
I1105 17:39:58.466868 24615 net.cpp:157] Top shape: 32 512 14 14 (3211264)
I1105 17:39:58.466872 24615 net.cpp:157] Top shape: 32 512 14 14 (3211264)
I1105 17:39:58.466876 24615 net.cpp:165] Memory required for data: 1371169540
I1105 17:39:58.466881 24615 layer_factory.hpp:76] Creating layer inception_4c/1x1
I1105 17:39:58.466887 24615 net.cpp:106] Creating Layer inception_4c/1x1
I1105 17:39:58.466892 24615 net.cpp:454] inception_4c/1x1 <- inception_4b/output_inception_4b/output_0_split_0
I1105 17:39:58.466907 24615 net.cpp:411] inception_4c/1x1 -> inception_4c/1x1
I1105 17:39:58.468570 24615 cudnn_conv_layer.cpp:194] Reallocating workspace storage: 10080
I1105 17:39:58.468595 24615 net.cpp:150] Setting up inception_4c/1x1
I1105 17:39:58.468603 24615 net.cpp:157] Top shape: 32 128 14 14 (802816)
I1105 17:39:58.468607 24615 net.cpp:165] Memory required for data: 1374380804
I1105 17:39:58.468614 24615 layer_factory.hpp:76] Creating layer inception_4c/prelu_1x1
I1105 17:39:58.468623 24615 net.cpp:106] Creating Layer inception_4c/prelu_1x1
I1105 17:39:58.468628 24615 net.cpp:454] inception_4c/prelu_1x1 <- inception_4c/1x1
I1105 17:39:58.468634 24615 net.cpp:397] inception_4c/prelu_1x1 -> inception_4c/1x1 (in-place)
I1105 17:39:58.468755 24615 net.cpp:150] Setting up inception_4c/prelu_1x1
I1105 17:39:58.468765 24615 net.cpp:157] Top shape: 32 128 14 14 (802816)
I1105 17:39:58.468770 24615 net.cpp:165] Memory required for data: 1377592068
I1105 17:39:58.468775 24615 layer_factory.hpp:76] Creating layer inception_4c/3x3_reduce
I1105 17:39:58.468783 24615 net.cpp:106] Creating Layer inception_4c/3x3_reduce
I1105 17:39:58.468788 24615 net.cpp:454] inception_4c/3x3_reduce <- inception_4b/output_inception_4b/output_0_split_1
I1105 17:39:58.468796 24615 net.cpp:411] inception_4c/3x3_reduce -> inception_4c/3x3_reduce
I1105 17:39:58.470177 24615 cudnn_conv_layer.cpp:194] Reallocating workspace storage: 10080
I1105 17:39:58.470201 24615 net.cpp:150] Setting up inception_4c/3x3_reduce
I1105 17:39:58.470208 24615 net.cpp:157] Top shape: 32 128 14 14 (802816)
I1105 17:39:58.470212 24615 net.cpp:165] Memory required for data: 1380803332
I1105 17:39:58.470219 24615 layer_factory.hpp:76] Creating layer inception_4c/prelu_3x3_reduce
I1105 17:39:58.470229 24615 net.cpp:106] Creating Layer inception_4c/prelu_3x3_reduce
I1105 17:39:58.470234 24615 net.cpp:454] inception_4c/prelu_3x3_reduce <- inception_4c/3x3_reduce
I1105 17:39:58.470242 24615 net.cpp:397] inception_4c/prelu_3x3_reduce -> inception_4c/3x3_reduce (in-place)
I1105 17:39:58.470334 24615 net.cpp:150] Setting up inception_4c/prelu_3x3_reduce
I1105 17:39:58.470343 24615 net.cpp:157] Top shape: 32 128 14 14 (802816)
I1105 17:39:58.470347 24615 net.cpp:165] Memory required for data: 1384014596
I1105 17:39:58.470352 24615 layer_factory.hpp:76] Creating layer inception_4c/3x3
I1105 17:39:58.470361 24615 net.cpp:106] Creating Layer inception_4c/3x3
I1105 17:39:58.470366 24615 net.cpp:454] inception_4c/3x3 <- inception_4c/3x3_reduce
I1105 17:39:58.470373 24615 net.cpp:411] inception_4c/3x3 -> inception_4c/3x3
I1105 17:39:58.473522 24615 cudnn_conv_layer.cpp:194] Reallocating workspace storage: 10080
I1105 17:39:58.473548 24615 net.cpp:150] Setting up inception_4c/3x3
I1105 17:39:58.473556 24615 net.cpp:157] Top shape: 32 256 14 14 (1605632)
I1105 17:39:58.473559 24615 net.cpp:165] Memory required for data: 1390437124
I1105 17:39:58.473567 24615 layer_factory.hpp:76] Creating layer inception_4c/prelu_3x3
I1105 17:39:58.473575 24615 net.cpp:106] Creating Layer inception_4c/prelu_3x3
I1105 17:39:58.473588 24615 net.cpp:454] inception_4c/prelu_3x3 <- inception_4c/3x3
I1105 17:39:58.473595 24615 net.cpp:397] inception_4c/prelu_3x3 -> inception_4c/3x3 (in-place)
I1105 17:39:58.473726 24615 net.cpp:150] Setting up inception_4c/prelu_3x3
I1105 17:39:58.473736 24615 net.cpp:157] Top shape: 32 256 14 14 (1605632)
I1105 17:39:58.473739 24615 net.cpp:165] Memory required for data: 1396859652
I1105 17:39:58.473744 24615 layer_factory.hpp:76] Creating layer inception_4c/5x5_reduce
I1105 17:39:58.473754 24615 net.cpp:106] Creating Layer inception_4c/5x5_reduce
I1105 17:39:58.473758 24615 net.cpp:454] inception_4c/5x5_reduce <- inception_4b/output_inception_4b/output_0_split_2
I1105 17:39:58.473767 24615 net.cpp:411] inception_4c/5x5_reduce -> inception_4c/5x5_reduce
I1105 17:39:58.474864 24615 cudnn_conv_layer.cpp:194] Reallocating workspace storage: 10080
I1105 17:39:58.474886 24615 net.cpp:150] Setting up inception_4c/5x5_reduce
I1105 17:39:58.474894 24615 net.cpp:157] Top shape: 32 24 14 14 (150528)
I1105 17:39:58.474897 24615 net.cpp:165] Memory required for data: 1397461764
I1105 17:39:58.474905 24615 layer_factory.hpp:76] Creating layer inception_4c/prelu_5x5_reduce
I1105 17:39:58.474912 24615 net.cpp:106] Creating Layer inception_4c/prelu_5x5_reduce
I1105 17:39:58.474925 24615 net.cpp:454] inception_4c/prelu_5x5_reduce <- inception_4c/5x5_reduce
I1105 17:39:58.474933 24615 net.cpp:397] inception_4c/prelu_5x5_reduce -> inception_4c/5x5_reduce (in-place)
I1105 17:39:58.475049 24615 net.cpp:150] Setting up inception_4c/prelu_5x5_reduce
I1105 17:39:58.475057 24615 net.cpp:157] Top shape: 32 24 14 14 (150528)
I1105 17:39:58.475061 24615 net.cpp:165] Memory required for data: 1398063876
I1105 17:39:58.475076 24615 layer_factory.hpp:76] Creating layer inception_4c/5x5
I1105 17:39:58.475086 24615 net.cpp:106] Creating Layer inception_4c/5x5
I1105 17:39:58.475090 24615 net.cpp:454] inception_4c/5x5 <- inception_4c/5x5_reduce
I1105 17:39:58.475106 24615 net.cpp:411] inception_4c/5x5 -> inception_4c/5x5
I1105 17:39:58.476768 24615 cudnn_conv_layer.cpp:194] Reallocating workspace storage: 13080
I1105 17:39:58.476794 24615 net.cpp:150] Setting up inception_4c/5x5
I1105 17:39:58.476801 24615 net.cpp:157] Top shape: 32 64 14 14 (401408)
I1105 17:39:58.476805 24615 net.cpp:165] Memory required for data: 1399669508
I1105 17:39:58.476812 24615 layer_factory.hpp:76] Creating layer inception_4c/prelu_5x5
I1105 17:39:58.476819 24615 net.cpp:106] Creating Layer inception_4c/prelu_5x5
I1105 17:39:58.476832 24615 net.cpp:454] inception_4c/prelu_5x5 <- inception_4c/5x5
I1105 17:39:58.476840 24615 net.cpp:397] inception_4c/prelu_5x5 -> inception_4c/5x5 (in-place)
I1105 17:39:58.476968 24615 net.cpp:150] Setting up inception_4c/prelu_5x5
I1105 17:39:58.476976 24615 net.cpp:157] Top shape: 32 64 14 14 (401408)
I1105 17:39:58.476980 24615 net.cpp:165] Memory required for data: 1401275140
I1105 17:39:58.476986 24615 layer_factory.hpp:76] Creating layer inception_4c/pool
I1105 17:39:58.476994 24615 net.cpp:106] Creating Layer inception_4c/pool
I1105 17:39:58.476997 24615 net.cpp:454] inception_4c/pool <- inception_4b/output_inception_4b/output_0_split_3
I1105 17:39:58.477005 24615 net.cpp:411] inception_4c/pool -> inception_4c/pool
I1105 17:39:58.477197 24615 net.cpp:150] Setting up inception_4c/pool
I1105 17:39:58.477207 24615 net.cpp:157] Top shape: 32 512 14 14 (3211264)
I1105 17:39:58.477212 24615 net.cpp:165] Memory required for data: 1414120196
I1105 17:39:58.477216 24615 layer_factory.hpp:76] Creating layer inception_4c/pool_proj
I1105 17:39:58.477224 24615 net.cpp:106] Creating Layer inception_4c/pool_proj
I1105 17:39:58.477229 24615 net.cpp:454] inception_4c/pool_proj <- inception_4c/pool
I1105 17:39:58.477236 24615 net.cpp:411] inception_4c/pool_proj -> inception_4c/pool_proj
I1105 17:39:58.478621 24615 cudnn_conv_layer.cpp:194] Reallocating workspace storage: 10080
I1105 17:39:58.478646 24615 net.cpp:150] Setting up inception_4c/pool_proj
I1105 17:39:58.478654 24615 net.cpp:157] Top shape: 32 64 14 14 (401408)
I1105 17:39:58.478658 24615 net.cpp:165] Memory required for data: 1415725828
I1105 17:39:58.478664 24615 layer_factory.hpp:76] Creating layer inception_4c/prelu_pool_proj
I1105 17:39:58.478682 24615 net.cpp:106] Creating Layer inception_4c/prelu_pool_proj
I1105 17:39:58.478688 24615 net.cpp:454] inception_4c/prelu_pool_proj <- inception_4c/pool_proj
I1105 17:39:58.478693 24615 net.cpp:397] inception_4c/prelu_pool_proj -> inception_4c/pool_proj (in-place)
I1105 17:39:58.478816 24615 net.cpp:150] Setting up inception_4c/prelu_pool_proj
I1105 17:39:58.478824 24615 net.cpp:157] Top shape: 32 64 14 14 (401408)
I1105 17:39:58.478828 24615 net.cpp:165] Memory required for data: 1417331460
I1105 17:39:58.478833 24615 layer_factory.hpp:76] Creating layer inception_4c/output
I1105 17:39:58.478840 24615 net.cpp:106] Creating Layer inception_4c/output
I1105 17:39:58.478844 24615 net.cpp:454] inception_4c/output <- inception_4c/1x1
I1105 17:39:58.478849 24615 net.cpp:454] inception_4c/output <- inception_4c/3x3
I1105 17:39:58.478853 24615 net.cpp:454] inception_4c/output <- inception_4c/5x5
I1105 17:39:58.478857 24615 net.cpp:454] inception_4c/output <- inception_4c/pool_proj
I1105 17:39:58.478871 24615 net.cpp:411] inception_4c/output -> inception_4c/output
I1105 17:39:58.478899 24615 net.cpp:150] Setting up inception_4c/output
I1105 17:39:58.478909 24615 net.cpp:157] Top shape: 32 512 14 14 (3211264)
I1105 17:39:58.478914 24615 net.cpp:165] Memory required for data: 1430176516
I1105 17:39:58.478925 24615 layer_factory.hpp:76] Creating layer inception_4c/output_inception_4c/output_0_split
I1105 17:39:58.478941 24615 net.cpp:106] Creating Layer inception_4c/output_inception_4c/output_0_split
I1105 17:39:58.478948 24615 net.cpp:454] inception_4c/output_inception_4c/output_0_split <- inception_4c/output
I1105 17:39:58.478965 24615 net.cpp:411] inception_4c/output_inception_4c/output_0_split -> inception_4c/output_inception_4c/output_0_split_0
I1105 17:39:58.478973 24615 net.cpp:411] inception_4c/output_inception_4c/output_0_split -> inception_4c/output_inception_4c/output_0_split_1
I1105 17:39:58.478982 24615 net.cpp:411] inception_4c/output_inception_4c/output_0_split -> inception_4c/output_inception_4c/output_0_split_2
I1105 17:39:58.478996 24615 net.cpp:411] inception_4c/output_inception_4c/output_0_split -> inception_4c/output_inception_4c/output_0_split_3
I1105 17:39:58.479085 24615 net.cpp:150] Setting up inception_4c/output_inception_4c/output_0_split
I1105 17:39:58.479095 24615 net.cpp:157] Top shape: 32 512 14 14 (3211264)
I1105 17:39:58.479100 24615 net.cpp:157] Top shape: 32 512 14 14 (3211264)
I1105 17:39:58.479105 24615 net.cpp:157] Top shape: 32 512 14 14 (3211264)
I1105 17:39:58.479110 24615 net.cpp:157] Top shape: 32 512 14 14 (3211264)
I1105 17:39:58.479113 24615 net.cpp:165] Memory required for data: 1481556740
I1105 17:39:58.479117 24615 layer_factory.hpp:76] Creating layer inception_4d/1x1
I1105 17:39:58.479125 24615 net.cpp:106] Creating Layer inception_4d/1x1
I1105 17:39:58.479130 24615 net.cpp:454] inception_4d/1x1 <- inception_4c/output_inception_4c/output_0_split_0
I1105 17:39:58.479145 24615 net.cpp:411] inception_4d/1x1 -> inception_4d/1x1
I1105 17:39:58.480813 24615 cudnn_conv_layer.cpp:194] Reallocating workspace storage: 10080
I1105 17:39:58.480837 24615 net.cpp:150] Setting up inception_4d/1x1
I1105 17:39:58.480845 24615 net.cpp:157] Top shape: 32 112 14 14 (702464)
I1105 17:39:58.480849 24615 net.cpp:165] Memory required for data: 1484366596
I1105 17:39:58.480856 24615 layer_factory.hpp:76] Creating layer inception_4d/prelu_1x1
I1105 17:39:58.480865 24615 net.cpp:106] Creating Layer inception_4d/prelu_1x1
I1105 17:39:58.480870 24615 net.cpp:454] inception_4d/prelu_1x1 <- inception_4d/1x1
I1105 17:39:58.480876 24615 net.cpp:397] inception_4d/prelu_1x1 -> inception_4d/1x1 (in-place)
I1105 17:39:58.480974 24615 net.cpp:150] Setting up inception_4d/prelu_1x1
I1105 17:39:58.480984 24615 net.cpp:157] Top shape: 32 112 14 14 (702464)
I1105 17:39:58.480988 24615 net.cpp:165] Memory required for data: 1487176452
I1105 17:39:58.480993 24615 layer_factory.hpp:76] Creating layer inception_4d/3x3_reduce
I1105 17:39:58.481003 24615 net.cpp:106] Creating Layer inception_4d/3x3_reduce
I1105 17:39:58.481006 24615 net.cpp:454] inception_4d/3x3_reduce <- inception_4c/output_inception_4c/output_0_split_1
I1105 17:39:58.481015 24615 net.cpp:411] inception_4d/3x3_reduce -> inception_4d/3x3_reduce
I1105 17:39:58.482671 24615 cudnn_conv_layer.cpp:194] Reallocating workspace storage: 10080
I1105 17:39:58.482705 24615 net.cpp:150] Setting up inception_4d/3x3_reduce
I1105 17:39:58.482717 24615 net.cpp:157] Top shape: 32 144 14 14 (903168)
I1105 17:39:58.482722 24615 net.cpp:165] Memory required for data: 1490789124
I1105 17:39:58.482733 24615 layer_factory.hpp:76] Creating layer inception_4d/prelu_3x3_reduce
I1105 17:39:58.482746 24615 net.cpp:106] Creating Layer inception_4d/prelu_3x3_reduce
I1105 17:39:58.482758 24615 net.cpp:454] inception_4d/prelu_3x3_reduce <- inception_4d/3x3_reduce
I1105 17:39:58.482769 24615 net.cpp:397] inception_4d/prelu_3x3_reduce -> inception_4d/3x3_reduce (in-place)
I1105 17:39:58.482935 24615 net.cpp:150] Setting up inception_4d/prelu_3x3_reduce
I1105 17:39:58.482950 24615 net.cpp:157] Top shape: 32 144 14 14 (903168)
I1105 17:39:58.482956 24615 net.cpp:165] Memory required for data: 1494401796
I1105 17:39:58.482965 24615 layer_factory.hpp:76] Creating layer inception_4d/3x3
I1105 17:39:58.482978 24615 net.cpp:106] Creating Layer inception_4d/3x3
I1105 17:39:58.482986 24615 net.cpp:454] inception_4d/3x3 <- inception_4d/3x3_reduce
I1105 17:39:58.482998 24615 net.cpp:411] inception_4d/3x3 -> inception_4d/3x3
I1105 17:39:58.487331 24615 cudnn_conv_layer.cpp:194] Reallocating workspace storage: 10080
I1105 17:39:58.487403 24615 net.cpp:150] Setting up inception_4d/3x3
I1105 17:39:58.487416 24615 net.cpp:157] Top shape: 32 288 14 14 (1806336)
I1105 17:39:58.487432 24615 net.cpp:165] Memory required for data: 1501627140
I1105 17:39:58.487442 24615 layer_factory.hpp:76] Creating layer inception_4d/prelu_3x3
I1105 17:39:58.487457 24615 net.cpp:106] Creating Layer inception_4d/prelu_3x3
I1105 17:39:58.487464 24615 net.cpp:454] inception_4d/prelu_3x3 <- inception_4d/3x3
I1105 17:39:58.487483 24615 net.cpp:397] inception_4d/prelu_3x3 -> inception_4d/3x3 (in-place)
I1105 17:39:58.487661 24615 net.cpp:150] Setting up inception_4d/prelu_3x3
I1105 17:39:58.487671 24615 net.cpp:157] Top shape: 32 288 14 14 (1806336)
I1105 17:39:58.487675 24615 net.cpp:165] Memory required for data: 1508852484
I1105 17:39:58.487681 24615 layer_factory.hpp:76] Creating layer inception_4d/5x5_reduce
I1105 17:39:58.487691 24615 net.cpp:106] Creating Layer inception_4d/5x5_reduce
I1105 17:39:58.487696 24615 net.cpp:454] inception_4d/5x5_reduce <- inception_4c/output_inception_4c/output_0_split_2
I1105 17:39:58.487715 24615 net.cpp:411] inception_4d/5x5_reduce -> inception_4d/5x5_reduce
I1105 17:39:58.488917 24615 cudnn_conv_layer.cpp:194] Reallocating workspace storage: 10080
I1105 17:39:58.488950 24615 net.cpp:150] Setting up inception_4d/5x5_reduce
I1105 17:39:58.488958 24615 net.cpp:157] Top shape: 32 32 14 14 (200704)
I1105 17:39:58.488962 24615 net.cpp:165] Memory required for data: 1509655300
I1105 17:39:58.488970 24615 layer_factory.hpp:76] Creating layer inception_4d/prelu_5x5_reduce
I1105 17:39:58.488981 24615 net.cpp:106] Creating Layer inception_4d/prelu_5x5_reduce
I1105 17:39:58.488986 24615 net.cpp:454] inception_4d/prelu_5x5_reduce <- inception_4d/5x5_reduce
I1105 17:39:58.488992 24615 net.cpp:397] inception_4d/prelu_5x5_reduce -> inception_4d/5x5_reduce (in-place)
I1105 17:39:58.489140 24615 net.cpp:150] Setting up inception_4d/prelu_5x5_reduce
I1105 17:39:58.489150 24615 net.cpp:157] Top shape: 32 32 14 14 (200704)
I1105 17:39:58.489153 24615 net.cpp:165] Memory required for data: 1510458116
I1105 17:39:58.489159 24615 layer_factory.hpp:76] Creating layer inception_4d/5x5
I1105 17:39:58.489169 24615 net.cpp:106] Creating Layer inception_4d/5x5
I1105 17:39:58.489174 24615 net.cpp:454] inception_4d/5x5 <- inception_4d/5x5_reduce
I1105 17:39:58.489181 24615 net.cpp:411] inception_4d/5x5 -> inception_4d/5x5
I1105 17:39:58.491008 24615 cudnn_conv_layer.cpp:194] Reallocating workspace storage: 13080
I1105 17:39:58.491039 24615 net.cpp:150] Setting up inception_4d/5x5
I1105 17:39:58.491047 24615 net.cpp:157] Top shape: 32 64 14 14 (401408)
I1105 17:39:58.491051 24615 net.cpp:165] Memory required for data: 1512063748
I1105 17:39:58.491058 24615 layer_factory.hpp:76] Creating layer inception_4d/prelu_5x5
I1105 17:39:58.491068 24615 net.cpp:106] Creating Layer inception_4d/prelu_5x5
I1105 17:39:58.491073 24615 net.cpp:454] inception_4d/prelu_5x5 <- inception_4d/5x5
I1105 17:39:58.491080 24615 net.cpp:397] inception_4d/prelu_5x5 -> inception_4d/5x5 (in-place)
I1105 17:39:58.491204 24615 net.cpp:150] Setting up inception_4d/prelu_5x5
I1105 17:39:58.491212 24615 net.cpp:157] Top shape: 32 64 14 14 (401408)
I1105 17:39:58.491216 24615 net.cpp:165] Memory required for data: 1513669380
I1105 17:39:58.491222 24615 layer_factory.hpp:76] Creating layer inception_4d/pool
I1105 17:39:58.491230 24615 net.cpp:106] Creating Layer inception_4d/pool
I1105 17:39:58.491235 24615 net.cpp:454] inception_4d/pool <- inception_4c/output_inception_4c/output_0_split_3
I1105 17:39:58.491241 24615 net.cpp:411] inception_4d/pool -> inception_4d/pool
I1105 17:39:58.491422 24615 net.cpp:150] Setting up inception_4d/pool
I1105 17:39:58.491432 24615 net.cpp:157] Top shape: 32 512 14 14 (3211264)
I1105 17:39:58.491436 24615 net.cpp:165] Memory required for data: 1526514436
I1105 17:39:58.491441 24615 layer_factory.hpp:76] Creating layer inception_4d/pool_proj
I1105 17:39:58.491451 24615 net.cpp:106] Creating Layer inception_4d/pool_proj
I1105 17:39:58.491456 24615 net.cpp:454] inception_4d/pool_proj <- inception_4d/pool
I1105 17:39:58.491474 24615 net.cpp:411] inception_4d/pool_proj -> inception_4d/pool_proj
I1105 17:39:58.492735 24615 cudnn_conv_layer.cpp:194] Reallocating workspace storage: 10080
I1105 17:39:58.492763 24615 net.cpp:150] Setting up inception_4d/pool_proj
I1105 17:39:58.492772 24615 net.cpp:157] Top shape: 32 64 14 14 (401408)
I1105 17:39:58.492777 24615 net.cpp:165] Memory required for data: 1528120068
I1105 17:39:58.492784 24615 layer_factory.hpp:76] Creating layer inception_4d/prelu_pool_proj
I1105 17:39:58.492791 24615 net.cpp:106] Creating Layer inception_4d/prelu_pool_proj
I1105 17:39:58.492796 24615 net.cpp:454] inception_4d/prelu_pool_proj <- inception_4d/pool_proj
I1105 17:39:58.492802 24615 net.cpp:397] inception_4d/prelu_pool_proj -> inception_4d/pool_proj (in-place)
I1105 17:39:58.492918 24615 net.cpp:150] Setting up inception_4d/prelu_pool_proj
I1105 17:39:58.492928 24615 net.cpp:157] Top shape: 32 64 14 14 (401408)
I1105 17:39:58.492931 24615 net.cpp:165] Memory required for data: 1529725700
I1105 17:39:58.492938 24615 layer_factory.hpp:76] Creating layer inception_4d/output
I1105 17:39:58.492945 24615 net.cpp:106] Creating Layer inception_4d/output
I1105 17:39:58.492949 24615 net.cpp:454] inception_4d/output <- inception_4d/1x1
I1105 17:39:58.492955 24615 net.cpp:454] inception_4d/output <- inception_4d/3x3
I1105 17:39:58.492959 24615 net.cpp:454] inception_4d/output <- inception_4d/5x5
I1105 17:39:58.492964 24615 net.cpp:454] inception_4d/output <- inception_4d/pool_proj
I1105 17:39:58.492969 24615 net.cpp:411] inception_4d/output -> inception_4d/output
I1105 17:39:58.492996 24615 net.cpp:150] Setting up inception_4d/output
I1105 17:39:58.493005 24615 net.cpp:157] Top shape: 32 528 14 14 (3311616)
I1105 17:39:58.493008 24615 net.cpp:165] Memory required for data: 1542972164
I1105 17:39:58.493012 24615 layer_factory.hpp:76] Creating layer inception_4d/output_inception_4d/output_0_split
I1105 17:39:58.493019 24615 net.cpp:106] Creating Layer inception_4d/output_inception_4d/output_0_split
I1105 17:39:58.493023 24615 net.cpp:454] inception_4d/output_inception_4d/output_0_split <- inception_4d/output
I1105 17:39:58.493031 24615 net.cpp:411] inception_4d/output_inception_4d/output_0_split -> inception_4d/output_inception_4d/output_0_split_0
I1105 17:39:58.493037 24615 net.cpp:411] inception_4d/output_inception_4d/output_0_split -> inception_4d/output_inception_4d/output_0_split_1
I1105 17:39:58.493044 24615 net.cpp:411] inception_4d/output_inception_4d/output_0_split -> inception_4d/output_inception_4d/output_0_split_2
I1105 17:39:58.493052 24615 net.cpp:411] inception_4d/output_inception_4d/output_0_split -> inception_4d/output_inception_4d/output_0_split_3
I1105 17:39:58.493057 24615 net.cpp:411] inception_4d/output_inception_4d/output_0_split -> inception_4d/output_inception_4d/output_0_split_4
I1105 17:39:58.493151 24615 net.cpp:150] Setting up inception_4d/output_inception_4d/output_0_split
I1105 17:39:58.493160 24615 net.cpp:157] Top shape: 32 528 14 14 (3311616)
I1105 17:39:58.493165 24615 net.cpp:157] Top shape: 32 528 14 14 (3311616)
I1105 17:39:58.493170 24615 net.cpp:157] Top shape: 32 528 14 14 (3311616)
I1105 17:39:58.493175 24615 net.cpp:157] Top shape: 32 528 14 14 (3311616)
I1105 17:39:58.493180 24615 net.cpp:157] Top shape: 32 528 14 14 (3311616)
I1105 17:39:58.493183 24615 net.cpp:165] Memory required for data: 1609204484
I1105 17:39:58.493187 24615 layer_factory.hpp:76] Creating layer loss2/ave_pool
I1105 17:39:58.493196 24615 net.cpp:106] Creating Layer loss2/ave_pool
I1105 17:39:58.493199 24615 net.cpp:454] loss2/ave_pool <- inception_4d/output_inception_4d/output_0_split_0
I1105 17:39:58.493206 24615 net.cpp:411] loss2/ave_pool -> loss2/ave_pool
I1105 17:39:58.493584 24615 net.cpp:150] Setting up loss2/ave_pool
I1105 17:39:58.493595 24615 net.cpp:157] Top shape: 32 528 4 4 (270336)
I1105 17:39:58.493600 24615 net.cpp:165] Memory required for data: 1610285828
I1105 17:39:58.493604 24615 layer_factory.hpp:76] Creating layer loss2/conv
I1105 17:39:58.493623 24615 net.cpp:106] Creating Layer loss2/conv
I1105 17:39:58.493629 24615 net.cpp:454] loss2/conv <- loss2/ave_pool
I1105 17:39:58.493638 24615 net.cpp:411] loss2/conv -> loss2/conv
I1105 17:39:58.495096 24615 cudnn_conv_layer.cpp:194] Reallocating workspace storage: 6840
I1105 17:39:58.495121 24615 net.cpp:150] Setting up loss2/conv
I1105 17:39:58.495129 24615 net.cpp:157] Top shape: 32 128 4 4 (65536)
I1105 17:39:58.495133 24615 net.cpp:165] Memory required for data: 1610547972
I1105 17:39:58.495141 24615 layer_factory.hpp:76] Creating layer loss2/prelu_conv
I1105 17:39:58.495149 24615 net.cpp:106] Creating Layer loss2/prelu_conv
I1105 17:39:58.495154 24615 net.cpp:454] loss2/prelu_conv <- loss2/conv
I1105 17:39:58.495162 24615 net.cpp:397] loss2/prelu_conv -> loss2/conv (in-place)
I1105 17:39:58.495270 24615 net.cpp:150] Setting up loss2/prelu_conv
I1105 17:39:58.495280 24615 net.cpp:157] Top shape: 32 128 4 4 (65536)
I1105 17:39:58.495283 24615 net.cpp:165] Memory required for data: 1610810116
I1105 17:39:58.495290 24615 layer_factory.hpp:76] Creating layer loss2/fc
I1105 17:39:58.495296 24615 net.cpp:106] Creating Layer loss2/fc
I1105 17:39:58.495301 24615 net.cpp:454] loss2/fc <- loss2/conv
I1105 17:39:58.495307 24615 net.cpp:411] loss2/fc -> loss2/fc
I1105 17:39:58.509776 24615 net.cpp:150] Setting up loss2/fc
I1105 17:39:58.509814 24615 net.cpp:157] Top shape: 32 1024 (32768)
I1105 17:39:58.509827 24615 net.cpp:165] Memory required for data: 1610941188
I1105 17:39:58.509856 24615 layer_factory.hpp:76] Creating layer loss2/prelu_fc
I1105 17:39:58.509878 24615 net.cpp:106] Creating Layer loss2/prelu_fc
I1105 17:39:58.509886 24615 net.cpp:454] loss2/prelu_fc <- loss2/fc
I1105 17:39:58.509894 24615 net.cpp:397] loss2/prelu_fc -> loss2/fc (in-place)
I1105 17:39:58.509997 24615 net.cpp:150] Setting up loss2/prelu_fc
I1105 17:39:58.510005 24615 net.cpp:157] Top shape: 32 1024 (32768)
I1105 17:39:58.510010 24615 net.cpp:165] Memory required for data: 1611072260
I1105 17:39:58.510022 24615 layer_factory.hpp:76] Creating layer loss2/drop_fc
I1105 17:39:58.510031 24615 net.cpp:106] Creating Layer loss2/drop_fc
I1105 17:39:58.510035 24615 net.cpp:454] loss2/drop_fc <- loss2/fc
I1105 17:39:58.510042 24615 net.cpp:397] loss2/drop_fc -> loss2/fc (in-place)
I1105 17:39:58.510076 24615 net.cpp:150] Setting up loss2/drop_fc
I1105 17:39:58.510084 24615 net.cpp:157] Top shape: 32 1024 (32768)
I1105 17:39:58.510088 24615 net.cpp:165] Memory required for data: 1611203332
I1105 17:39:58.510092 24615 layer_factory.hpp:76] Creating layer loss2/classifier2
I1105 17:39:58.510102 24615 net.cpp:106] Creating Layer loss2/classifier2
I1105 17:39:58.510105 24615 net.cpp:454] loss2/classifier2 <- loss2/fc
I1105 17:39:58.510113 24615 net.cpp:411] loss2/classifier2 -> loss2/classifier
I1105 17:39:58.510265 24615 net.cpp:150] Setting up loss2/classifier2
I1105 17:39:58.510273 24615 net.cpp:157] Top shape: 32 2 (64)
I1105 17:39:58.510277 24615 net.cpp:165] Memory required for data: 1611203588
I1105 17:39:58.510292 24615 layer_factory.hpp:76] Creating layer loss2/loss
I1105 17:39:58.510298 24615 net.cpp:106] Creating Layer loss2/loss
I1105 17:39:58.510303 24615 net.cpp:454] loss2/loss <- loss2/classifier
I1105 17:39:58.510308 24615 net.cpp:454] loss2/loss <- label_data_1_split_1
I1105 17:39:58.510314 24615 net.cpp:411] loss2/loss -> loss2/loss1
I1105 17:39:58.510331 24615 layer_factory.hpp:76] Creating layer loss2/loss
I1105 17:39:58.510660 24615 net.cpp:150] Setting up loss2/loss
I1105 17:39:58.510671 24615 net.cpp:157] Top shape: (1)
I1105 17:39:58.510675 24615 net.cpp:160]     with loss weight 0.3
I1105 17:39:58.510689 24615 net.cpp:165] Memory required for data: 1611203592
I1105 17:39:58.510692 24615 layer_factory.hpp:76] Creating layer inception_4e/1x1
I1105 17:39:58.510704 24615 net.cpp:106] Creating Layer inception_4e/1x1
I1105 17:39:58.510710 24615 net.cpp:454] inception_4e/1x1 <- inception_4d/output_inception_4d/output_0_split_1
I1105 17:39:58.510715 24615 net.cpp:411] inception_4e/1x1 -> inception_4e/1x1
I1105 17:39:58.513576 24615 cudnn_conv_layer.cpp:194] Reallocating workspace storage: 10080
I1105 17:39:58.513638 24615 net.cpp:150] Setting up inception_4e/1x1
I1105 17:39:58.513650 24615 net.cpp:157] Top shape: 32 256 14 14 (1605632)
I1105 17:39:58.513658 24615 net.cpp:165] Memory required for data: 1617626120
I1105 17:39:58.513669 24615 layer_factory.hpp:76] Creating layer inception_4e/prelu_1x1
I1105 17:39:58.513680 24615 net.cpp:106] Creating Layer inception_4e/prelu_1x1
I1105 17:39:58.513690 24615 net.cpp:454] inception_4e/prelu_1x1 <- inception_4e/1x1
I1105 17:39:58.513700 24615 net.cpp:397] inception_4e/prelu_1x1 -> inception_4e/1x1 (in-place)
I1105 17:39:58.513913 24615 net.cpp:150] Setting up inception_4e/prelu_1x1
I1105 17:39:58.513927 24615 net.cpp:157] Top shape: 32 256 14 14 (1605632)
I1105 17:39:58.513934 24615 net.cpp:165] Memory required for data: 1624048648
I1105 17:39:58.513941 24615 layer_factory.hpp:76] Creating layer inception_4e/3x3_reduce
I1105 17:39:58.513949 24615 net.cpp:106] Creating Layer inception_4e/3x3_reduce
I1105 17:39:58.513954 24615 net.cpp:454] inception_4e/3x3_reduce <- inception_4d/output_inception_4d/output_0_split_2
I1105 17:39:58.513962 24615 net.cpp:411] inception_4e/3x3_reduce -> inception_4e/3x3_reduce
I1105 17:39:58.516022 24615 cudnn_conv_layer.cpp:194] Reallocating workspace storage: 10080
I1105 17:39:58.516060 24615 net.cpp:150] Setting up inception_4e/3x3_reduce
I1105 17:39:58.516069 24615 net.cpp:157] Top shape: 32 160 14 14 (1003520)
I1105 17:39:58.516074 24615 net.cpp:165] Memory required for data: 1628062728
I1105 17:39:58.516083 24615 layer_factory.hpp:76] Creating layer inception_4e/prelu_3x3_reduce
I1105 17:39:58.516104 24615 net.cpp:106] Creating Layer inception_4e/prelu_3x3_reduce
I1105 17:39:58.516111 24615 net.cpp:454] inception_4e/prelu_3x3_reduce <- inception_4e/3x3_reduce
I1105 17:39:58.516120 24615 net.cpp:397] inception_4e/prelu_3x3_reduce -> inception_4e/3x3_reduce (in-place)
I1105 17:39:58.516253 24615 net.cpp:150] Setting up inception_4e/prelu_3x3_reduce
I1105 17:39:58.516263 24615 net.cpp:157] Top shape: 32 160 14 14 (1003520)
I1105 17:39:58.516268 24615 net.cpp:165] Memory required for data: 1632076808
I1105 17:39:58.516273 24615 layer_factory.hpp:76] Creating layer inception_4e/3x3
I1105 17:39:58.516283 24615 net.cpp:106] Creating Layer inception_4e/3x3
I1105 17:39:58.516288 24615 net.cpp:454] inception_4e/3x3 <- inception_4e/3x3_reduce
I1105 17:39:58.516295 24615 net.cpp:411] inception_4e/3x3 -> inception_4e/3x3
I1105 17:39:58.520885 24615 cudnn_conv_layer.cpp:194] Reallocating workspace storage: 10080
I1105 17:39:58.520946 24615 net.cpp:150] Setting up inception_4e/3x3
I1105 17:39:58.520967 24615 net.cpp:157] Top shape: 32 320 14 14 (2007040)
I1105 17:39:58.520972 24615 net.cpp:165] Memory required for data: 1640104968
I1105 17:39:58.520982 24615 layer_factory.hpp:76] Creating layer inception_4e/prelu_3x3
I1105 17:39:58.520995 24615 net.cpp:106] Creating Layer inception_4e/prelu_3x3
I1105 17:39:58.521001 24615 net.cpp:454] inception_4e/prelu_3x3 <- inception_4e/3x3
I1105 17:39:58.521011 24615 net.cpp:397] inception_4e/prelu_3x3 -> inception_4e/3x3 (in-place)
I1105 17:39:58.521226 24615 net.cpp:150] Setting up inception_4e/prelu_3x3
I1105 17:39:58.521236 24615 net.cpp:157] Top shape: 32 320 14 14 (2007040)
I1105 17:39:58.521248 24615 net.cpp:165] Memory required for data: 1648133128
I1105 17:39:58.521255 24615 layer_factory.hpp:76] Creating layer inception_4e/5x5_reduce
I1105 17:39:58.521273 24615 net.cpp:106] Creating Layer inception_4e/5x5_reduce
I1105 17:39:58.521278 24615 net.cpp:454] inception_4e/5x5_reduce <- inception_4d/output_inception_4d/output_0_split_3
I1105 17:39:58.521286 24615 net.cpp:411] inception_4e/5x5_reduce -> inception_4e/5x5_reduce
I1105 17:39:58.522469 24615 cudnn_conv_layer.cpp:194] Reallocating workspace storage: 10080
I1105 17:39:58.522501 24615 net.cpp:150] Setting up inception_4e/5x5_reduce
I1105 17:39:58.522518 24615 net.cpp:157] Top shape: 32 32 14 14 (200704)
I1105 17:39:58.522523 24615 net.cpp:165] Memory required for data: 1648935944
I1105 17:39:58.522555 24615 layer_factory.hpp:76] Creating layer inception_4e/prelu_5x5_reduce
I1105 17:39:58.522564 24615 net.cpp:106] Creating Layer inception_4e/prelu_5x5_reduce
I1105 17:39:58.522569 24615 net.cpp:454] inception_4e/prelu_5x5_reduce <- inception_4e/5x5_reduce
I1105 17:39:58.522583 24615 net.cpp:397] inception_4e/prelu_5x5_reduce -> inception_4e/5x5_reduce (in-place)
I1105 17:39:58.522702 24615 net.cpp:150] Setting up inception_4e/prelu_5x5_reduce
I1105 17:39:58.522711 24615 net.cpp:157] Top shape: 32 32 14 14 (200704)
I1105 17:39:58.522716 24615 net.cpp:165] Memory required for data: 1649738760
I1105 17:39:58.522728 24615 layer_factory.hpp:76] Creating layer inception_4e/5x5
I1105 17:39:58.522761 24615 net.cpp:106] Creating Layer inception_4e/5x5
I1105 17:39:58.522768 24615 net.cpp:454] inception_4e/5x5 <- inception_4e/5x5_reduce
I1105 17:39:58.522775 24615 net.cpp:411] inception_4e/5x5 -> inception_4e/5x5
I1105 17:39:58.524850 24615 cudnn_conv_layer.cpp:194] Reallocating workspace storage: 13080
I1105 17:39:58.524878 24615 net.cpp:150] Setting up inception_4e/5x5
I1105 17:39:58.524885 24615 net.cpp:157] Top shape: 32 128 14 14 (802816)
I1105 17:39:58.524890 24615 net.cpp:165] Memory required for data: 1652950024
I1105 17:39:58.524899 24615 layer_factory.hpp:76] Creating layer inception_4e/prelu_5x5
I1105 17:39:58.524905 24615 net.cpp:106] Creating Layer inception_4e/prelu_5x5
I1105 17:39:58.524910 24615 net.cpp:454] inception_4e/prelu_5x5 <- inception_4e/5x5
I1105 17:39:58.524917 24615 net.cpp:397] inception_4e/prelu_5x5 -> inception_4e/5x5 (in-place)
I1105 17:39:58.525044 24615 net.cpp:150] Setting up inception_4e/prelu_5x5
I1105 17:39:58.525054 24615 net.cpp:157] Top shape: 32 128 14 14 (802816)
I1105 17:39:58.525058 24615 net.cpp:165] Memory required for data: 1656161288
I1105 17:39:58.525063 24615 layer_factory.hpp:76] Creating layer inception_4e/pool
I1105 17:39:58.525077 24615 net.cpp:106] Creating Layer inception_4e/pool
I1105 17:39:58.525084 24615 net.cpp:454] inception_4e/pool <- inception_4d/output_inception_4d/output_0_split_4
I1105 17:39:58.525089 24615 net.cpp:411] inception_4e/pool -> inception_4e/pool
I1105 17:39:58.525485 24615 net.cpp:150] Setting up inception_4e/pool
I1105 17:39:58.525496 24615 net.cpp:157] Top shape: 32 528 14 14 (3311616)
I1105 17:39:58.525509 24615 net.cpp:165] Memory required for data: 1669407752
I1105 17:39:58.525522 24615 layer_factory.hpp:76] Creating layer inception_4e/pool_proj
I1105 17:39:58.525531 24615 net.cpp:106] Creating Layer inception_4e/pool_proj
I1105 17:39:58.525543 24615 net.cpp:454] inception_4e/pool_proj <- inception_4e/pool
I1105 17:39:58.525552 24615 net.cpp:411] inception_4e/pool_proj -> inception_4e/pool_proj
I1105 17:39:58.526811 24615 cudnn_conv_layer.cpp:194] Reallocating workspace storage: 10080
I1105 17:39:58.526841 24615 net.cpp:150] Setting up inception_4e/pool_proj
I1105 17:39:58.526850 24615 net.cpp:157] Top shape: 32 128 14 14 (802816)
I1105 17:39:58.526854 24615 net.cpp:165] Memory required for data: 1672619016
I1105 17:39:58.526861 24615 layer_factory.hpp:76] Creating layer inception_4e/prelu_pool_proj
I1105 17:39:58.526868 24615 net.cpp:106] Creating Layer inception_4e/prelu_pool_proj
I1105 17:39:58.526873 24615 net.cpp:454] inception_4e/prelu_pool_proj <- inception_4e/pool_proj
I1105 17:39:58.526880 24615 net.cpp:397] inception_4e/prelu_pool_proj -> inception_4e/pool_proj (in-place)
I1105 17:39:58.527010 24615 net.cpp:150] Setting up inception_4e/prelu_pool_proj
I1105 17:39:58.527019 24615 net.cpp:157] Top shape: 32 128 14 14 (802816)
I1105 17:39:58.527024 24615 net.cpp:165] Memory required for data: 1675830280
I1105 17:39:58.527029 24615 layer_factory.hpp:76] Creating layer inception_4e/output
I1105 17:39:58.527036 24615 net.cpp:106] Creating Layer inception_4e/output
I1105 17:39:58.527041 24615 net.cpp:454] inception_4e/output <- inception_4e/1x1
I1105 17:39:58.527046 24615 net.cpp:454] inception_4e/output <- inception_4e/3x3
I1105 17:39:58.527051 24615 net.cpp:454] inception_4e/output <- inception_4e/5x5
I1105 17:39:58.527055 24615 net.cpp:454] inception_4e/output <- inception_4e/pool_proj
I1105 17:39:58.527071 24615 net.cpp:411] inception_4e/output -> inception_4e/output
I1105 17:39:58.527122 24615 net.cpp:150] Setting up inception_4e/output
I1105 17:39:58.527130 24615 net.cpp:157] Top shape: 32 832 14 14 (5218304)
I1105 17:39:58.527134 24615 net.cpp:165] Memory required for data: 1696703496
I1105 17:39:58.527138 24615 layer_factory.hpp:76] Creating layer pool4/3x3_s2
I1105 17:39:58.527144 24615 net.cpp:106] Creating Layer pool4/3x3_s2
I1105 17:39:58.527149 24615 net.cpp:454] pool4/3x3_s2 <- inception_4e/output
I1105 17:39:58.527156 24615 net.cpp:411] pool4/3x3_s2 -> pool4/3x3_s2
I1105 17:39:58.527532 24615 net.cpp:150] Setting up pool4/3x3_s2
I1105 17:39:58.527544 24615 net.cpp:157] Top shape: 32 832 7 7 (1304576)
I1105 17:39:58.527549 24615 net.cpp:165] Memory required for data: 1701921800
I1105 17:39:58.527552 24615 layer_factory.hpp:76] Creating layer pool4/3x3_s2_pool4/3x3_s2_0_split
I1105 17:39:58.527559 24615 net.cpp:106] Creating Layer pool4/3x3_s2_pool4/3x3_s2_0_split
I1105 17:39:58.527565 24615 net.cpp:454] pool4/3x3_s2_pool4/3x3_s2_0_split <- pool4/3x3_s2
I1105 17:39:58.527571 24615 net.cpp:411] pool4/3x3_s2_pool4/3x3_s2_0_split -> pool4/3x3_s2_pool4/3x3_s2_0_split_0
I1105 17:39:58.527578 24615 net.cpp:411] pool4/3x3_s2_pool4/3x3_s2_0_split -> pool4/3x3_s2_pool4/3x3_s2_0_split_1
I1105 17:39:58.527585 24615 net.cpp:411] pool4/3x3_s2_pool4/3x3_s2_0_split -> pool4/3x3_s2_pool4/3x3_s2_0_split_2
I1105 17:39:58.527591 24615 net.cpp:411] pool4/3x3_s2_pool4/3x3_s2_0_split -> pool4/3x3_s2_pool4/3x3_s2_0_split_3
I1105 17:39:58.527659 24615 net.cpp:150] Setting up pool4/3x3_s2_pool4/3x3_s2_0_split
I1105 17:39:58.527667 24615 net.cpp:157] Top shape: 32 832 7 7 (1304576)
I1105 17:39:58.527673 24615 net.cpp:157] Top shape: 32 832 7 7 (1304576)
I1105 17:39:58.527678 24615 net.cpp:157] Top shape: 32 832 7 7 (1304576)
I1105 17:39:58.527683 24615 net.cpp:157] Top shape: 32 832 7 7 (1304576)
I1105 17:39:58.527686 24615 net.cpp:165] Memory required for data: 1722795016
I1105 17:39:58.527690 24615 layer_factory.hpp:76] Creating layer inception_5a/1x1
I1105 17:39:58.527698 24615 net.cpp:106] Creating Layer inception_5a/1x1
I1105 17:39:58.527704 24615 net.cpp:454] inception_5a/1x1 <- pool4/3x3_s2_pool4/3x3_s2_0_split_0
I1105 17:39:58.527709 24615 net.cpp:411] inception_5a/1x1 -> inception_5a/1x1
I1105 17:39:58.530421 24615 cudnn_conv_layer.cpp:194] Reallocating workspace storage: 7428
I1105 17:39:58.530448 24615 net.cpp:150] Setting up inception_5a/1x1
I1105 17:39:58.530458 24615 net.cpp:157] Top shape: 32 256 7 7 (401408)
I1105 17:39:58.530462 24615 net.cpp:165] Memory required for data: 1724400648
I1105 17:39:58.530469 24615 layer_factory.hpp:76] Creating layer inception_5a/prelu_1x1
I1105 17:39:58.530478 24615 net.cpp:106] Creating Layer inception_5a/prelu_1x1
I1105 17:39:58.530483 24615 net.cpp:454] inception_5a/prelu_1x1 <- inception_5a/1x1
I1105 17:39:58.530488 24615 net.cpp:397] inception_5a/prelu_1x1 -> inception_5a/1x1 (in-place)
I1105 17:39:58.531036 24615 net.cpp:150] Setting up inception_5a/prelu_1x1
I1105 17:39:58.531047 24615 net.cpp:157] Top shape: 32 256 7 7 (401408)
I1105 17:39:58.531052 24615 net.cpp:165] Memory required for data: 1726006280
I1105 17:39:58.531057 24615 layer_factory.hpp:76] Creating layer inception_5a/3x3_reduce
I1105 17:39:58.531067 24615 net.cpp:106] Creating Layer inception_5a/3x3_reduce
I1105 17:39:58.531072 24615 net.cpp:454] inception_5a/3x3_reduce <- pool4/3x3_s2_pool4/3x3_s2_0_split_1
I1105 17:39:58.531080 24615 net.cpp:411] inception_5a/3x3_reduce -> inception_5a/3x3_reduce
I1105 17:39:58.533416 24615 cudnn_conv_layer.cpp:194] Reallocating workspace storage: 7428
I1105 17:39:58.533448 24615 net.cpp:150] Setting up inception_5a/3x3_reduce
I1105 17:39:58.533458 24615 net.cpp:157] Top shape: 32 160 7 7 (250880)
I1105 17:39:58.533463 24615 net.cpp:165] Memory required for data: 1727009800
I1105 17:39:58.533478 24615 layer_factory.hpp:76] Creating layer inception_5a/prelu_3x3_reduce
I1105 17:39:58.533486 24615 net.cpp:106] Creating Layer inception_5a/prelu_3x3_reduce
I1105 17:39:58.533504 24615 net.cpp:454] inception_5a/prelu_3x3_reduce <- inception_5a/3x3_reduce
I1105 17:39:58.533511 24615 net.cpp:397] inception_5a/prelu_3x3_reduce -> inception_5a/3x3_reduce (in-place)
I1105 17:39:58.533633 24615 net.cpp:150] Setting up inception_5a/prelu_3x3_reduce
I1105 17:39:58.533644 24615 net.cpp:157] Top shape: 32 160 7 7 (250880)
I1105 17:39:58.533648 24615 net.cpp:165] Memory required for data: 1728013320
I1105 17:39:58.533654 24615 layer_factory.hpp:76] Creating layer inception_5a/3x3
I1105 17:39:58.533663 24615 net.cpp:106] Creating Layer inception_5a/3x3
I1105 17:39:58.533666 24615 net.cpp:454] inception_5a/3x3 <- inception_5a/3x3_reduce
I1105 17:39:58.533674 24615 net.cpp:411] inception_5a/3x3 -> inception_5a/3x3
I1105 17:39:58.537791 24615 cudnn_conv_layer.cpp:194] Reallocating workspace storage: 7788
I1105 17:39:58.537822 24615 net.cpp:150] Setting up inception_5a/3x3
I1105 17:39:58.537829 24615 net.cpp:157] Top shape: 32 320 7 7 (501760)
I1105 17:39:58.537834 24615 net.cpp:165] Memory required for data: 1730020360
I1105 17:39:58.537842 24615 layer_factory.hpp:76] Creating layer inception_5a/prelu_3x3
I1105 17:39:58.537849 24615 net.cpp:106] Creating Layer inception_5a/prelu_3x3
I1105 17:39:58.537855 24615 net.cpp:454] inception_5a/prelu_3x3 <- inception_5a/3x3
I1105 17:39:58.537861 24615 net.cpp:397] inception_5a/prelu_3x3 -> inception_5a/3x3 (in-place)
I1105 17:39:58.537971 24615 net.cpp:150] Setting up inception_5a/prelu_3x3
I1105 17:39:58.537981 24615 net.cpp:157] Top shape: 32 320 7 7 (501760)
I1105 17:39:58.537986 24615 net.cpp:165] Memory required for data: 1732027400
I1105 17:39:58.537991 24615 layer_factory.hpp:76] Creating layer inception_5a/5x5_reduce
I1105 17:39:58.537999 24615 net.cpp:106] Creating Layer inception_5a/5x5_reduce
I1105 17:39:58.538004 24615 net.cpp:454] inception_5a/5x5_reduce <- pool4/3x3_s2_pool4/3x3_s2_0_split_2
I1105 17:39:58.538012 24615 net.cpp:411] inception_5a/5x5_reduce -> inception_5a/5x5_reduce
I1105 17:39:58.539227 24615 cudnn_conv_layer.cpp:194] Reallocating workspace storage: 7428
I1105 17:39:58.539252 24615 net.cpp:150] Setting up inception_5a/5x5_reduce
I1105 17:39:58.539260 24615 net.cpp:157] Top shape: 32 32 7 7 (50176)
I1105 17:39:58.539264 24615 net.cpp:165] Memory required for data: 1732228104
I1105 17:39:58.539271 24615 layer_factory.hpp:76] Creating layer inception_5a/prelu_5x5_reduce
I1105 17:39:58.539288 24615 net.cpp:106] Creating Layer inception_5a/prelu_5x5_reduce
I1105 17:39:58.539294 24615 net.cpp:454] inception_5a/prelu_5x5_reduce <- inception_5a/5x5_reduce
I1105 17:39:58.539300 24615 net.cpp:397] inception_5a/prelu_5x5_reduce -> inception_5a/5x5_reduce (in-place)
I1105 17:39:58.539408 24615 net.cpp:150] Setting up inception_5a/prelu_5x5_reduce
I1105 17:39:58.539417 24615 net.cpp:157] Top shape: 32 32 7 7 (50176)
I1105 17:39:58.539422 24615 net.cpp:165] Memory required for data: 1732428808
I1105 17:39:58.539427 24615 layer_factory.hpp:76] Creating layer inception_5a/5x5
I1105 17:39:58.539435 24615 net.cpp:106] Creating Layer inception_5a/5x5
I1105 17:39:58.539439 24615 net.cpp:454] inception_5a/5x5 <- inception_5a/5x5_reduce
I1105 17:39:58.539448 24615 net.cpp:411] inception_5a/5x5 -> inception_5a/5x5
I1105 17:39:58.541084 24615 cudnn_conv_layer.cpp:194] Reallocating workspace storage: 9804
I1105 17:39:58.541110 24615 net.cpp:150] Setting up inception_5a/5x5
I1105 17:39:58.541116 24615 net.cpp:157] Top shape: 32 128 7 7 (200704)
I1105 17:39:58.541121 24615 net.cpp:165] Memory required for data: 1733231624
I1105 17:39:58.541127 24615 layer_factory.hpp:76] Creating layer inception_5a/prelu_5x5
I1105 17:39:58.541143 24615 net.cpp:106] Creating Layer inception_5a/prelu_5x5
I1105 17:39:58.541149 24615 net.cpp:454] inception_5a/prelu_5x5 <- inception_5a/5x5
I1105 17:39:58.541157 24615 net.cpp:397] inception_5a/prelu_5x5 -> inception_5a/5x5 (in-place)
I1105 17:39:58.541280 24615 net.cpp:150] Setting up inception_5a/prelu_5x5
I1105 17:39:58.541288 24615 net.cpp:157] Top shape: 32 128 7 7 (200704)
I1105 17:39:58.541302 24615 net.cpp:165] Memory required for data: 1734034440
I1105 17:39:58.541308 24615 layer_factory.hpp:76] Creating layer inception_5a/pool
I1105 17:39:58.541317 24615 net.cpp:106] Creating Layer inception_5a/pool
I1105 17:39:58.541322 24615 net.cpp:454] inception_5a/pool <- pool4/3x3_s2_pool4/3x3_s2_0_split_3
I1105 17:39:58.541328 24615 net.cpp:411] inception_5a/pool -> inception_5a/pool
I1105 17:39:58.541529 24615 net.cpp:150] Setting up inception_5a/pool
I1105 17:39:58.541539 24615 net.cpp:157] Top shape: 32 832 7 7 (1304576)
I1105 17:39:58.541543 24615 net.cpp:165] Memory required for data: 1739252744
I1105 17:39:58.541548 24615 layer_factory.hpp:76] Creating layer inception_5a/pool_proj
I1105 17:39:58.541556 24615 net.cpp:106] Creating Layer inception_5a/pool_proj
I1105 17:39:58.541561 24615 net.cpp:454] inception_5a/pool_proj <- inception_5a/pool
I1105 17:39:58.541570 24615 net.cpp:411] inception_5a/pool_proj -> inception_5a/pool_proj
I1105 17:39:58.543902 24615 cudnn_conv_layer.cpp:194] Reallocating workspace storage: 7428
I1105 17:39:58.543933 24615 net.cpp:150] Setting up inception_5a/pool_proj
I1105 17:39:58.543941 24615 net.cpp:157] Top shape: 32 128 7 7 (200704)
I1105 17:39:58.543946 24615 net.cpp:165] Memory required for data: 1740055560
I1105 17:39:58.543953 24615 layer_factory.hpp:76] Creating layer inception_5a/prelu_pool_proj
I1105 17:39:58.543972 24615 net.cpp:106] Creating Layer inception_5a/prelu_pool_proj
I1105 17:39:58.543977 24615 net.cpp:454] inception_5a/prelu_pool_proj <- inception_5a/pool_proj
I1105 17:39:58.543984 24615 net.cpp:397] inception_5a/prelu_pool_proj -> inception_5a/pool_proj (in-place)
I1105 17:39:58.544088 24615 net.cpp:150] Setting up inception_5a/prelu_pool_proj
I1105 17:39:58.544097 24615 net.cpp:157] Top shape: 32 128 7 7 (200704)
I1105 17:39:58.544101 24615 net.cpp:165] Memory required for data: 1740858376
I1105 17:39:58.544107 24615 layer_factory.hpp:76] Creating layer inception_5a/output
I1105 17:39:58.544114 24615 net.cpp:106] Creating Layer inception_5a/output
I1105 17:39:58.544118 24615 net.cpp:454] inception_5a/output <- inception_5a/1x1
I1105 17:39:58.544123 24615 net.cpp:454] inception_5a/output <- inception_5a/3x3
I1105 17:39:58.544128 24615 net.cpp:454] inception_5a/output <- inception_5a/5x5
I1105 17:39:58.544133 24615 net.cpp:454] inception_5a/output <- inception_5a/pool_proj
I1105 17:39:58.544138 24615 net.cpp:411] inception_5a/output -> inception_5a/output
I1105 17:39:58.544168 24615 net.cpp:150] Setting up inception_5a/output
I1105 17:39:58.544178 24615 net.cpp:157] Top shape: 32 832 7 7 (1304576)
I1105 17:39:58.544183 24615 net.cpp:165] Memory required for data: 1746076680
I1105 17:39:58.544188 24615 layer_factory.hpp:76] Creating layer inception_5a/output_inception_5a/output_0_split
I1105 17:39:58.544194 24615 net.cpp:106] Creating Layer inception_5a/output_inception_5a/output_0_split
I1105 17:39:58.544199 24615 net.cpp:454] inception_5a/output_inception_5a/output_0_split <- inception_5a/output
I1105 17:39:58.544205 24615 net.cpp:411] inception_5a/output_inception_5a/output_0_split -> inception_5a/output_inception_5a/output_0_split_0
I1105 17:39:58.544212 24615 net.cpp:411] inception_5a/output_inception_5a/output_0_split -> inception_5a/output_inception_5a/output_0_split_1
I1105 17:39:58.544219 24615 net.cpp:411] inception_5a/output_inception_5a/output_0_split -> inception_5a/output_inception_5a/output_0_split_2
I1105 17:39:58.544226 24615 net.cpp:411] inception_5a/output_inception_5a/output_0_split -> inception_5a/output_inception_5a/output_0_split_3
I1105 17:39:58.544303 24615 net.cpp:150] Setting up inception_5a/output_inception_5a/output_0_split
I1105 17:39:58.544312 24615 net.cpp:157] Top shape: 32 832 7 7 (1304576)
I1105 17:39:58.544325 24615 net.cpp:157] Top shape: 32 832 7 7 (1304576)
I1105 17:39:58.544332 24615 net.cpp:157] Top shape: 32 832 7 7 (1304576)
I1105 17:39:58.544335 24615 net.cpp:157] Top shape: 32 832 7 7 (1304576)
I1105 17:39:58.544339 24615 net.cpp:165] Memory required for data: 1766949896
I1105 17:39:58.544353 24615 layer_factory.hpp:76] Creating layer inception_5b/1x1
I1105 17:39:58.544363 24615 net.cpp:106] Creating Layer inception_5b/1x1
I1105 17:39:58.544368 24615 net.cpp:454] inception_5b/1x1 <- inception_5a/output_inception_5a/output_0_split_0
I1105 17:39:58.544374 24615 net.cpp:411] inception_5b/1x1 -> inception_5b/1x1
I1105 17:39:58.548110 24615 cudnn_conv_layer.cpp:194] Reallocating workspace storage: 7428
I1105 17:39:58.548161 24615 net.cpp:150] Setting up inception_5b/1x1
I1105 17:39:58.548173 24615 net.cpp:157] Top shape: 32 384 7 7 (602112)
I1105 17:39:58.548178 24615 net.cpp:165] Memory required for data: 1769358344
I1105 17:39:58.548188 24615 layer_factory.hpp:76] Creating layer inception_5b/prelu_1x1
I1105 17:39:58.548200 24615 net.cpp:106] Creating Layer inception_5b/prelu_1x1
I1105 17:39:58.548207 24615 net.cpp:454] inception_5b/prelu_1x1 <- inception_5b/1x1
I1105 17:39:58.548216 24615 net.cpp:397] inception_5b/prelu_1x1 -> inception_5b/1x1 (in-place)
I1105 17:39:58.548845 24615 net.cpp:150] Setting up inception_5b/prelu_1x1
I1105 17:39:58.548859 24615 net.cpp:157] Top shape: 32 384 7 7 (602112)
I1105 17:39:58.548863 24615 net.cpp:165] Memory required for data: 1771766792
I1105 17:39:58.548871 24615 layer_factory.hpp:76] Creating layer inception_5b/3x3_reduce
I1105 17:39:58.548882 24615 net.cpp:106] Creating Layer inception_5b/3x3_reduce
I1105 17:39:58.548887 24615 net.cpp:454] inception_5b/3x3_reduce <- inception_5a/output_inception_5a/output_0_split_1
I1105 17:39:58.548897 24615 net.cpp:411] inception_5b/3x3_reduce -> inception_5b/3x3_reduce
I1105 17:39:58.551412 24615 cudnn_conv_layer.cpp:194] Reallocating workspace storage: 7428
I1105 17:39:58.551447 24615 net.cpp:150] Setting up inception_5b/3x3_reduce
I1105 17:39:58.551455 24615 net.cpp:157] Top shape: 32 192 7 7 (301056)
I1105 17:39:58.551460 24615 net.cpp:165] Memory required for data: 1772971016
I1105 17:39:58.551466 24615 layer_factory.hpp:76] Creating layer inception_5b/prelu_3x3_reduce
I1105 17:39:58.551484 24615 net.cpp:106] Creating Layer inception_5b/prelu_3x3_reduce
I1105 17:39:58.551491 24615 net.cpp:454] inception_5b/prelu_3x3_reduce <- inception_5b/3x3_reduce
I1105 17:39:58.551496 24615 net.cpp:397] inception_5b/prelu_3x3_reduce -> inception_5b/3x3_reduce (in-place)
I1105 17:39:58.551628 24615 net.cpp:150] Setting up inception_5b/prelu_3x3_reduce
I1105 17:39:58.551637 24615 net.cpp:157] Top shape: 32 192 7 7 (301056)
I1105 17:39:58.551641 24615 net.cpp:165] Memory required for data: 1774175240
I1105 17:39:58.551647 24615 layer_factory.hpp:76] Creating layer inception_5b/3x3
I1105 17:39:58.551657 24615 net.cpp:106] Creating Layer inception_5b/3x3
I1105 17:39:58.551662 24615 net.cpp:454] inception_5b/3x3 <- inception_5b/3x3_reduce
I1105 17:39:58.551669 24615 net.cpp:411] inception_5b/3x3 -> inception_5b/3x3
I1105 17:39:58.557359 24615 cudnn_conv_layer.cpp:194] Reallocating workspace storage: 7788
I1105 17:39:58.557404 24615 net.cpp:150] Setting up inception_5b/3x3
I1105 17:39:58.557413 24615 net.cpp:157] Top shape: 32 384 7 7 (602112)
I1105 17:39:58.557418 24615 net.cpp:165] Memory required for data: 1776583688
I1105 17:39:58.557433 24615 layer_factory.hpp:76] Creating layer inception_5b/prelu_3x3
I1105 17:39:58.557441 24615 net.cpp:106] Creating Layer inception_5b/prelu_3x3
I1105 17:39:58.557447 24615 net.cpp:454] inception_5b/prelu_3x3 <- inception_5b/3x3
I1105 17:39:58.557454 24615 net.cpp:397] inception_5b/prelu_3x3 -> inception_5b/3x3 (in-place)
I1105 17:39:58.557600 24615 net.cpp:150] Setting up inception_5b/prelu_3x3
I1105 17:39:58.557608 24615 net.cpp:157] Top shape: 32 384 7 7 (602112)
I1105 17:39:58.557612 24615 net.cpp:165] Memory required for data: 1778992136
I1105 17:39:58.557626 24615 layer_factory.hpp:76] Creating layer inception_5b/5x5_reduce
I1105 17:39:58.557634 24615 net.cpp:106] Creating Layer inception_5b/5x5_reduce
I1105 17:39:58.557639 24615 net.cpp:454] inception_5b/5x5_reduce <- inception_5a/output_inception_5a/output_0_split_2
I1105 17:39:58.557647 24615 net.cpp:411] inception_5b/5x5_reduce -> inception_5b/5x5_reduce
I1105 17:39:58.558776 24615 cudnn_conv_layer.cpp:194] Reallocating workspace storage: 7428
I1105 17:39:58.558810 24615 net.cpp:150] Setting up inception_5b/5x5_reduce
I1105 17:39:58.558817 24615 net.cpp:157] Top shape: 32 48 7 7 (75264)
I1105 17:39:58.558822 24615 net.cpp:165] Memory required for data: 1779293192
I1105 17:39:58.558828 24615 layer_factory.hpp:76] Creating layer inception_5b/prelu_5x5_reduce
I1105 17:39:58.558845 24615 net.cpp:106] Creating Layer inception_5b/prelu_5x5_reduce
I1105 17:39:58.558851 24615 net.cpp:454] inception_5b/prelu_5x5_reduce <- inception_5b/5x5_reduce
I1105 17:39:58.558856 24615 net.cpp:397] inception_5b/prelu_5x5_reduce -> inception_5b/5x5_reduce (in-place)
I1105 17:39:58.558992 24615 net.cpp:150] Setting up inception_5b/prelu_5x5_reduce
I1105 17:39:58.559001 24615 net.cpp:157] Top shape: 32 48 7 7 (75264)
I1105 17:39:58.559005 24615 net.cpp:165] Memory required for data: 1779594248
I1105 17:39:58.559010 24615 layer_factory.hpp:76] Creating layer inception_5b/5x5
I1105 17:39:58.559020 24615 net.cpp:106] Creating Layer inception_5b/5x5
I1105 17:39:58.559025 24615 net.cpp:454] inception_5b/5x5 <- inception_5b/5x5_reduce
I1105 17:39:58.559032 24615 net.cpp:411] inception_5b/5x5 -> inception_5b/5x5
I1105 17:39:58.560992 24615 cudnn_conv_layer.cpp:194] Reallocating workspace storage: 9804
I1105 17:39:58.561030 24615 net.cpp:150] Setting up inception_5b/5x5
I1105 17:39:58.561038 24615 net.cpp:157] Top shape: 32 128 7 7 (200704)
I1105 17:39:58.561043 24615 net.cpp:165] Memory required for data: 1780397064
I1105 17:39:58.561049 24615 layer_factory.hpp:76] Creating layer inception_5b/prelu_5x5
I1105 17:39:58.561059 24615 net.cpp:106] Creating Layer inception_5b/prelu_5x5
I1105 17:39:58.561064 24615 net.cpp:454] inception_5b/prelu_5x5 <- inception_5b/5x5
I1105 17:39:58.561074 24615 net.cpp:397] inception_5b/prelu_5x5 -> inception_5b/5x5 (in-place)
I1105 17:39:58.561210 24615 net.cpp:150] Setting up inception_5b/prelu_5x5
I1105 17:39:58.561219 24615 net.cpp:157] Top shape: 32 128 7 7 (200704)
I1105 17:39:58.561223 24615 net.cpp:165] Memory required for data: 1781199880
I1105 17:39:58.561228 24615 layer_factory.hpp:76] Creating layer inception_5b/pool
I1105 17:39:58.561235 24615 net.cpp:106] Creating Layer inception_5b/pool
I1105 17:39:58.561240 24615 net.cpp:454] inception_5b/pool <- inception_5a/output_inception_5a/output_0_split_3
I1105 17:39:58.561247 24615 net.cpp:411] inception_5b/pool -> inception_5b/pool
I1105 17:39:58.561641 24615 net.cpp:150] Setting up inception_5b/pool
I1105 17:39:58.561652 24615 net.cpp:157] Top shape: 32 832 7 7 (1304576)
I1105 17:39:58.561656 24615 net.cpp:165] Memory required for data: 1786418184
I1105 17:39:58.561661 24615 layer_factory.hpp:76] Creating layer inception_5b/pool_proj
I1105 17:39:58.561671 24615 net.cpp:106] Creating Layer inception_5b/pool_proj
I1105 17:39:58.561676 24615 net.cpp:454] inception_5b/pool_proj <- inception_5b/pool
I1105 17:39:58.561682 24615 net.cpp:411] inception_5b/pool_proj -> inception_5b/pool_proj
I1105 17:39:58.563812 24615 cudnn_conv_layer.cpp:194] Reallocating workspace storage: 7428
I1105 17:39:58.563841 24615 net.cpp:150] Setting up inception_5b/pool_proj
I1105 17:39:58.563849 24615 net.cpp:157] Top shape: 32 128 7 7 (200704)
I1105 17:39:58.563853 24615 net.cpp:165] Memory required for data: 1787221000
I1105 17:39:58.563860 24615 layer_factory.hpp:76] Creating layer inception_5b/prelu_pool_proj
I1105 17:39:58.563876 24615 net.cpp:106] Creating Layer inception_5b/prelu_pool_proj
I1105 17:39:58.563882 24615 net.cpp:454] inception_5b/prelu_pool_proj <- inception_5b/pool_proj
I1105 17:39:58.563889 24615 net.cpp:397] inception_5b/prelu_pool_proj -> inception_5b/pool_proj (in-place)
I1105 17:39:58.564015 24615 net.cpp:150] Setting up inception_5b/prelu_pool_proj
I1105 17:39:58.564024 24615 net.cpp:157] Top shape: 32 128 7 7 (200704)
I1105 17:39:58.564028 24615 net.cpp:165] Memory required for data: 1788023816
I1105 17:39:58.564033 24615 layer_factory.hpp:76] Creating layer inception_5b/output
I1105 17:39:58.564040 24615 net.cpp:106] Creating Layer inception_5b/output
I1105 17:39:58.564054 24615 net.cpp:454] inception_5b/output <- inception_5b/1x1
I1105 17:39:58.564060 24615 net.cpp:454] inception_5b/output <- inception_5b/3x3
I1105 17:39:58.564074 24615 net.cpp:454] inception_5b/output <- inception_5b/5x5
I1105 17:39:58.564079 24615 net.cpp:454] inception_5b/output <- inception_5b/pool_proj
I1105 17:39:58.564084 24615 net.cpp:411] inception_5b/output -> inception_5b/output
I1105 17:39:58.564131 24615 net.cpp:150] Setting up inception_5b/output
I1105 17:39:58.564141 24615 net.cpp:157] Top shape: 32 1024 7 7 (1605632)
I1105 17:39:58.564144 24615 net.cpp:165] Memory required for data: 1794446344
I1105 17:39:58.564148 24615 layer_factory.hpp:76] Creating layer pool5/7x7_s1
I1105 17:39:58.564157 24615 net.cpp:106] Creating Layer pool5/7x7_s1
I1105 17:39:58.564169 24615 net.cpp:454] pool5/7x7_s1 <- inception_5b/output
I1105 17:39:58.564184 24615 net.cpp:411] pool5/7x7_s1 -> pool5/7x7_s1
I1105 17:39:58.564362 24615 net.cpp:150] Setting up pool5/7x7_s1
I1105 17:39:58.564371 24615 net.cpp:157] Top shape: 32 1024 1 1 (32768)
I1105 17:39:58.564375 24615 net.cpp:165] Memory required for data: 1794577416
I1105 17:39:58.564379 24615 layer_factory.hpp:76] Creating layer pool5/drop_7x7_s1
I1105 17:39:58.564386 24615 net.cpp:106] Creating Layer pool5/drop_7x7_s1
I1105 17:39:58.564390 24615 net.cpp:454] pool5/drop_7x7_s1 <- pool5/7x7_s1
I1105 17:39:58.564396 24615 net.cpp:397] pool5/drop_7x7_s1 -> pool5/7x7_s1 (in-place)
I1105 17:39:58.564434 24615 net.cpp:150] Setting up pool5/drop_7x7_s1
I1105 17:39:58.564442 24615 net.cpp:157] Top shape: 32 1024 1 1 (32768)
I1105 17:39:58.564446 24615 net.cpp:165] Memory required for data: 1794708488
I1105 17:39:58.564451 24615 layer_factory.hpp:76] Creating layer loss3/classifier2
I1105 17:39:58.564476 24615 net.cpp:106] Creating Layer loss3/classifier2
I1105 17:39:58.564481 24615 net.cpp:454] loss3/classifier2 <- pool5/7x7_s1
I1105 17:39:58.564486 24615 net.cpp:411] loss3/classifier2 -> loss3/classifier
I1105 17:39:58.564635 24615 net.cpp:150] Setting up loss3/classifier2
I1105 17:39:58.564646 24615 net.cpp:157] Top shape: 32 2 (64)
I1105 17:39:58.564648 24615 net.cpp:165] Memory required for data: 1794708744
I1105 17:39:58.564656 24615 layer_factory.hpp:76] Creating layer loss3/loss3
I1105 17:39:58.564663 24615 net.cpp:106] Creating Layer loss3/loss3
I1105 17:39:58.564667 24615 net.cpp:454] loss3/loss3 <- loss3/classifier
I1105 17:39:58.564672 24615 net.cpp:454] loss3/loss3 <- label_data_1_split_2
I1105 17:39:58.564677 24615 net.cpp:411] loss3/loss3 -> loss3/loss3
…
I1105 17:39:58.569515 24615 net.cpp:322] The NetState phase (1) differed from the phase (0) specified by a rule in layer data
I1105 17:39:58.570511 24615 net.cpp:49] Initializing net from parameters: 
name: "GoogleNet"
state {
  phase: TEST
}
layer {
  name: "data"
  type: "Data"
  top: "data"
  top: "label"
  include {
    phase: TEST
  }
  transform_param {
    mirror: false
    crop_size: 224
    mean_value: 104
    mean_value: 117
    mean_value: 123
  }
  data_param {
    source: "../../LMDB/val_6-lmdb"
    batch_size: 50
    backend: LMDB
  }
}
layer {
  name: "conv1/7x7_s2"
  type: "Convolution"
  bottom: "data"
  top: "conv1/7x7_s2"
  param {
    lr_mult: 1
    decay_mult: 1
  }
  param {
    lr_mult: 2
    decay_mult: 0
  }
  convolution_param {
    num_output: 64
    pad: 3
    kernel_size: 7
    stride: 2
    weight_filler {
      type: "xavier"
    }
    bias_filler {
      type: "constant"
      value: 0.2
    }
  }
}
layer {
  name: "conv1/prelu_7x7"
  type: "PReLU"
  bottom: "conv1/7x7_s2"
  top: "conv1/7x7_s2"
  param {
    lr_mult: 1
    decay_mult: 0
  }
  prelu_param {
    filler {
      type: "constant"
      value: 0.01
    }
  }
}
layer {
  name: "pool1/3x3_s2"
  type: "Pooling"
  bottom: "conv1/7x7_s2"
  top: "pool1/3x3_s2"
  pooling_param {
    pool: MAX
    kernel_size: 3
    stride: 2
  }
}
layer {
  name: "pool1/norm1"
  type: "LRN"
  bottom: "pool1/3x3_s2"
  top: "pool1/norm1"
  lrn_param {
    local_size: 5
    alpha: 0.0001
    beta: 0.75
  }
}
layer {
  name: "conv2/3x3_reduce"
  type: "Convolution"
  bottom: "pool1/norm1"
  top: "conv2/3x3_reduce"
  param {
    lr_mult: 1
    decay_mult: 1
  }
  param {
    lr_mult: 2
    decay_mult: 0
  }
  convolution_param {
    num_output: 64
    kernel_size: 1
    weight_filler {
      type: "xavier"
    }
    bias_filler {
      type: "constant"
      value: 0.2
    }
  }
}
layer {
  name: "conv2/prelu_3x3_reduce"
  type: "PReLU"
  bottom: "conv2/3x3_reduce"
  top: "conv2/3x3_reduce"
  param {
    lr_mult: 1
    decay_mult: 0
  }
  prelu_param {
    filler {
      type: "constant"
      value: 0.01
    }
  }
}
layer {
  name: "conv2/3x3"
  type: "Convolution"
  bottom: "conv2/3x3_reduce"
  top: "conv2/3x3"
  param {
    lr_mult: 1
    decay_mult: 1
  }
  param {
    lr_mult: 2
    decay_mult: 0
  }
  convolution_param {
    num_output: 192
    pad: 1
    kernel_size: 3
    weight_filler {
      type: "xavier"
    }
    bias_filler {
      type: "constant"
      value: 0.2
    }
  }
}
layer {
  name: "conv2/prelu_3x3"
  type: "PReLU"
  bottom: "conv2/3x3"
  top: "conv2/3x3"
  param {
    lr_mult: 1
    decay_mult: 0
  }
  prelu_param {
    filler {
      type: "constant"
      value: 0.01
    }
  }
}
layer {
  name: "conv2/norm2"
  type: "LRN"
  bottom: "conv2/3x3"
  top: "conv2/norm2"
  lrn_param {
    local_size: 5
    alpha: 0.0001
    beta: 0.75
  }
}
layer {
  name: "pool2/3x3_s2"
  type: "Pooling"
  bottom: "conv2/norm2"
  top: "pool2/3x3_s2"
  pooling_param {
    pool: MAX
    kernel_size: 3
    stride: 2
  }
}
layer {
  name: "inception_3a/1x1"
  type: "Convolution"
  bottom: "pool2/3x3_s2"
  top: "inception_3a/1x1"
  param {
    lr_mult: 1
    decay_mult: 1
  }
  param {
    lr_mult: 2
    decay_mult: 0
  }
  convolution_param {
    num_output: 64
    kernel_size: 1
    weight_filler {
      type: "xavier"
    }
    bias_filler {
      type: "constant"
      value: 0.2
    }
  }
}
layer {
  name: "inception_3a/prelu_1x1"
  type: "PReLU"
  bottom: "inception_3a/1x1"
  top: "inception_3a/1x1"
  param {
    lr_mult: 1
    decay_mult: 0
  }
  prelu_param {
    filler {
      type: "constant"
      value: 0.01
    }
  }
}
layer {
  name: "inception_3a/3x3_reduce"
  type: "Convolution"
  bottom: "pool2/3x3_s2"
  top: "inception_3a/3x3_reduce"
  param {
    lr_mult: 1
    decay_mult: 1
  }
  param {
    lr_mult: 2
    decay_mult: 0
  }
  convolution_param {
    num_output: 96
    kernel_size: 1
    weight_filler {
      type: "xavier"
    }
    bias_filler {
      type: "constant"
      value: 0.2
    }
  }
}
layer {
  name: "inception_3a/prelu_3x3_reduce"
  type: "PReLU"
  bottom: "inception_3a/3x3_reduce"
  top: "inception_3a/3x3_reduce"
  param {
    lr_mult: 1
    decay_mult: 0
  }
  prelu_param {
    filler {
      type: "constant"
      value: 0.01
    }
  }
}
layer {
  name: "inception_3a/3x3"
  type: "Convolution"
  bottom: "inception_3a/3x3_reduce"
  top: "inception_3a/3x3"
  param {
    lr_mult: 1
    decay_mult: 1
  }
  param {
    lr_mult: 2
    decay_mult: 0
  }
  convolution_param {
    num_output: 128
    pad: 1
    kernel_size: 3
    weight_filler {
      type: "xavier"
    }
    bias_filler {
      type: "constant"
      value: 0.2
    }
  }
}
layer {
  name: "inception_3a/prelu_3x3"
  type: "PReLU"
  bottom: "inception_3a/3x3"
  top: "inception_3a/3x3"
  param {
    lr_mult: 1
    decay_mult: 0
  }
  prelu_param {
    filler {
      type: "constant"
      value: 0.01
    }
  }
}
layer {
  name: "inception_3a/5x5_reduce"
  type: "Convolution"
  bottom: "pool2/3x3_s2"
  top: "inception_3a/5x5_reduce"
  param {
    lr_mult: 1
    decay_mult: 1
  }
  param {
    lr_mult: 2
    decay_mult: 0
  }
  convolution_param {
    num_output: 16
    kernel_size: 1
    weight_filler {
      type: "xavier"
    }
    bias_filler {
      type: "constant"
      value: 0.2
    }
  }
}
layer {
  name: "inception_3a/prelu_5x5_reduce"
  type: "PReLU"
  bottom: "inception_3a/5x5_reduce"
  top: "inception_3a/5x5_reduce"
  param {
    lr_mult: 1
    decay_mult: 0
  }
  prelu_param {
    filler {
      type: "constant"
      value: 0.01
    }
  }
}
layer {
  name: "inception_3a/5x5"
  type: "Convolution"
  bottom: "inception_3a/5x5_reduce"
  top: "inception_3a/5x5"
  param {
    lr_mult: 1
    decay_mult: 1
  }
  param {
    lr_mult: 2
    decay_mult: 0
  }
  convolution_param {
    num_output: 32
    pad: 2
    kernel_size: 5
    weight_filler {
      type: "xavier"
    }
    bias_filler {
      type: "constant"
      value: 0.2
    }
  }
}
layer {
  name: "inception_3a/prelu_5x5"
  type: "PReLU"
  bottom: "inception_3a/5x5"
  top: "inception_3a/5x5"
  param {
    lr_mult: 1
    decay_mult: 0
  }
  prelu_param {
    filler {
      type: "constant"
      value: 0.01
    }
  }
}
layer {
  name: "inception_3a/pool"
  type: "Pooling"
  bottom: "pool2/3x3_s2"
  top: "inception_3a/pool"
  pooling_param {
    pool: MAX
    kernel_size: 3
    stride: 1
    pad: 1
  }
}
layer {
  name: "inception_3a/pool_proj"
  type: "Convolution"
  bottom: "inception_3a/pool"
  top: "inception_3a/pool_proj"
  param {
    lr_mult: 1
    decay_mult: 1
  }
  param {
    lr_mult: 2
    decay_mult: 0
  }
  convolution_param {
    num_output: 32
    kernel_size: 1
    weight_filler {
      type: "xavier"
    }
    bias_filler {
      type: "constant"
      value: 0.2
    }
  }
}
layer {
  name: "inception_3a/prelu_pool_proj"
  type: "PReLU"
  bottom: "inception_3a/pool_proj"
  top: "inception_3a/pool_proj"
  param {
    lr_mult: 1
    decay_mult: 0
  }
  prelu_param {
    filler {
      type: "constant"
      value: 0.01
    }
  }
}
layer {
  name: "inception_3a/output"
  type: "Concat"
  bottom: "inception_3a/1x1"
  bottom: "inception_3a/3x3"
  bottom: "inception_3a/5x5"
  bottom: "inception_3a/pool_proj"
  top: "inception_3a/output"
}
layer {
  name: "inception_3b/1x1"
  type: "Convolution"
  bottom: "inception_3a/output"
  top: "inception_3b/1x1"
  param {
    lr_mult: 1
    decay_mult: 1
  }
  param {
    lr_mult: 2
    decay_mult: 0
  }
  convolution_param {
    num_output: 128
    kernel_size: 1
    weight_filler {
      type: "xavier"
    }
    bias_filler {
      type: "constant"
      value: 0.2
    }
  }
}
layer {
  name: "inception_3b/prelu_1x1"
  type: "PReLU"
  bottom: "inception_3b/1x1"
  top: "inception_3b/1x1"
  param {
    lr_mult: 1
    decay_mult: 0
  }
  prelu_param {
    filler {
      type: "constant"
      value: 0.01
    }
  }
}
layer {
  name: "inception_3b/3x3_reduce"
  type: "Convolution"
  bottom: "inception_3a/output"
  top: "inception_3b/3x3_reduce"
  param {
    lr_mult: 1
    decay_mult: 1
  }
  param {
    lr_mult: 2
    decay_mult: 0
  }
  convolution_param {
    num_output: 128
    kernel_size: 1
    weight_filler {
      type: "xavier"
    }
    bias_filler {
      type: "constant"
      value: 0.2
    }
  }
}
layer {
  name: "inception_3b/prelu_3x3_reduce"
  type: "PReLU"
  bottom: "inception_3b/3x3_reduce"
  top: "inception_3b/3x3_reduce"
  param {
    lr_mult: 1
    decay_mult: 0
  }
  prelu_param {
    filler {
      type: "constant"
      value: 0.01
    }
  }
}
layer {
  name: "inception_3b/3x3"
  type: "Convolution"
  bottom: "inception_3b/3x3_reduce"
  top: "inception_3b/3x3"
  param {
    lr_mult: 1
    decay_mult: 1
  }
  param {
    lr_mult: 2
    decay_mult: 0
  }
  convolution_param {
    num_output: 192
    pad: 1
    kernel_size: 3
    weight_filler {
      type: "xavier"
    }
…
I1105 17:39:58.846441 24615 net.cpp:106] Creating Layer inception_4c/output
I1105 17:39:58.846449 24615 net.cpp:454] inception_4c/output <- inception_4c/1x1
I1105 17:39:58.846459 24615 net.cpp:454] inception_4c/output <- inception_4c/3x3
I1105 17:39:58.846469 24615 net.cpp:454] inception_4c/output <- inception_4c/5x5
I1105 17:39:58.846479 24615 net.cpp:454] inception_4c/output <- inception_4c/pool_proj
I1105 17:39:58.846490 24615 net.cpp:411] inception_4c/output -> inception_4c/output
I1105 17:39:58.846526 24615 net.cpp:150] Setting up inception_4c/output
I1105 17:39:58.846539 24615 net.cpp:157] Top shape: 50 512 14 14 (5017600)
I1105 17:39:58.846546 24615 net.cpp:165] Memory required for data: 2234652208
I1105 17:39:58.846554 24615 layer_factory.hpp:76] Creating layer inception_4c/output_inception_4c/output_0_split
I1105 17:39:58.846573 24615 net.cpp:106] Creating Layer inception_4c/output_inception_4c/output_0_split
I1105 17:39:58.846582 24615 net.cpp:454] inception_4c/output_inception_4c/output_0_split <- inception_4c/output
I1105 17:39:58.846599 24615 net.cpp:411] inception_4c/output_inception_4c/output_0_split -> inception_4c/output_inception_4c/output_0_split_0
I1105 17:39:58.846614 24615 net.cpp:411] inception_4c/output_inception_4c/output_0_split -> inception_4c/output_inception_4c/output_0_split_1
I1105 17:39:58.846644 24615 net.cpp:411] inception_4c/output_inception_4c/output_0_split -> inception_4c/output_inception_4c/output_0_split_2
I1105 17:39:58.846668 24615 net.cpp:411] inception_4c/output_inception_4c/output_0_split -> inception_4c/output_inception_4c/output_0_split_3
I1105 17:39:58.846753 24615 net.cpp:150] Setting up inception_4c/output_inception_4c/output_0_split
I1105 17:39:58.846766 24615 net.cpp:157] Top shape: 50 512 14 14 (5017600)
I1105 17:39:58.846777 24615 net.cpp:157] Top shape: 50 512 14 14 (5017600)
I1105 17:39:58.846787 24615 net.cpp:157] Top shape: 50 512 14 14 (5017600)
I1105 17:39:58.846798 24615 net.cpp:157] Top shape: 50 512 14 14 (5017600)
I1105 17:39:58.846806 24615 net.cpp:165] Memory required for data: 2314933808
I1105 17:39:58.846814 24615 layer_factory.hpp:76] Creating layer inception_4d/1x1
I1105 17:39:58.846830 24615 net.cpp:106] Creating Layer inception_4d/1x1
I1105 17:39:58.846840 24615 net.cpp:454] inception_4d/1x1 <- inception_4c/output_inception_4c/output_0_split_0
I1105 17:39:58.846853 24615 net.cpp:411] inception_4d/1x1 -> inception_4d/1x1
I1105 17:39:58.848404 24615 cudnn_conv_layer.cpp:194] Reallocating workspace storage: 10080
I1105 17:39:58.848455 24615 net.cpp:150] Setting up inception_4d/1x1
I1105 17:39:58.848469 24615 net.cpp:157] Top shape: 50 112 14 14 (1097600)
I1105 17:39:58.848479 24615 net.cpp:165] Memory required for data: 2319324208
I1105 17:39:58.848492 24615 layer_factory.hpp:76] Creating layer inception_4d/prelu_1x1
I1105 17:39:58.848510 24615 net.cpp:106] Creating Layer inception_4d/prelu_1x1
I1105 17:39:58.848520 24615 net.cpp:454] inception_4d/prelu_1x1 <- inception_4d/1x1
I1105 17:39:58.848533 24615 net.cpp:397] inception_4d/prelu_1x1 -> inception_4d/1x1 (in-place)
I1105 17:39:58.848646 24615 net.cpp:150] Setting up inception_4d/prelu_1x1
I1105 17:39:58.848661 24615 net.cpp:157] Top shape: 50 112 14 14 (1097600)
I1105 17:39:58.848670 24615 net.cpp:165] Memory required for data: 2323714608
I1105 17:39:58.848681 24615 layer_factory.hpp:76] Creating layer inception_4d/3x3_reduce
I1105 17:39:58.848697 24615 net.cpp:106] Creating Layer inception_4d/3x3_reduce
I1105 17:39:58.848708 24615 net.cpp:454] inception_4d/3x3_reduce <- inception_4c/output_inception_4c/output_0_split_1
I1105 17:39:58.848726 24615 net.cpp:411] inception_4d/3x3_reduce -> inception_4d/3x3_reduce
I1105 17:39:58.850406 24615 cudnn_conv_layer.cpp:194] Reallocating workspace storage: 10080
I1105 17:39:58.850457 24615 net.cpp:150] Setting up inception_4d/3x3_reduce
I1105 17:39:58.850471 24615 net.cpp:157] Top shape: 50 144 14 14 (1411200)
I1105 17:39:58.850479 24615 net.cpp:165] Memory required for data: 2329359408
I1105 17:39:58.850496 24615 layer_factory.hpp:76] Creating layer inception_4d/prelu_3x3_reduce
I1105 17:39:58.850515 24615 net.cpp:106] Creating Layer inception_4d/prelu_3x3_reduce
I1105 17:39:58.850527 24615 net.cpp:454] inception_4d/prelu_3x3_reduce <- inception_4d/3x3_reduce
I1105 17:39:58.850541 24615 net.cpp:397] inception_4d/prelu_3x3_reduce -> inception_4d/3x3_reduce (in-place)
I1105 17:39:58.850703 24615 net.cpp:150] Setting up inception_4d/prelu_3x3_reduce
I1105 17:39:58.850715 24615 net.cpp:157] Top shape: 50 144 14 14 (1411200)
I1105 17:39:58.850723 24615 net.cpp:165] Memory required for data: 2335004208
I1105 17:39:58.850734 24615 layer_factory.hpp:76] Creating layer inception_4d/3x3
I1105 17:39:58.850752 24615 net.cpp:106] Creating Layer inception_4d/3x3
I1105 17:39:58.850765 24615 net.cpp:454] inception_4d/3x3 <- inception_4d/3x3_reduce
I1105 17:39:58.850780 24615 net.cpp:411] inception_4d/3x3 -> inception_4d/3x3
I1105 17:39:58.855532 24615 cudnn_conv_layer.cpp:194] Reallocating workspace storage: 10080
I1105 17:39:58.855614 24615 net.cpp:150] Setting up inception_4d/3x3
I1105 17:39:58.855638 24615 net.cpp:157] Top shape: 50 288 14 14 (2822400)
I1105 17:39:58.855667 24615 net.cpp:165] Memory required for data: 2346293808
I1105 17:39:58.855687 24615 layer_factory.hpp:76] Creating layer inception_4d/prelu_3x3
I1105 17:39:58.855731 24615 net.cpp:106] Creating Layer inception_4d/prelu_3x3
I1105 17:39:58.855743 24615 net.cpp:454] inception_4d/prelu_3x3 <- inception_4d/3x3
I1105 17:39:58.855762 24615 net.cpp:397] inception_4d/prelu_3x3 -> inception_4d/3x3 (in-place)
I1105 17:39:58.856509 24615 net.cpp:150] Setting up inception_4d/prelu_3x3
I1105 17:39:58.856534 24615 net.cpp:157] Top shape: 50 288 14 14 (2822400)
I1105 17:39:58.856542 24615 net.cpp:165] Memory required for data: 2357583408
I1105 17:39:58.856554 24615 layer_factory.hpp:76] Creating layer inception_4d/5x5_reduce
I1105 17:39:58.856576 24615 net.cpp:106] Creating Layer inception_4d/5x5_reduce
I1105 17:39:58.856590 24615 net.cpp:454] inception_4d/5x5_reduce <- inception_4c/output_inception_4c/output_0_split_2
I1105 17:39:58.856609 24615 net.cpp:411] inception_4d/5x5_reduce -> inception_4d/5x5_reduce
I1105 17:39:58.858551 24615 cudnn_conv_layer.cpp:194] Reallocating workspace storage: 10080
I1105 17:39:58.858606 24615 net.cpp:150] Setting up inception_4d/5x5_reduce
I1105 17:39:58.858620 24615 net.cpp:157] Top shape: 50 32 14 14 (313600)
I1105 17:39:58.858628 24615 net.cpp:165] Memory required for data: 2358837808
I1105 17:39:58.858644 24615 layer_factory.hpp:76] Creating layer inception_4d/prelu_5x5_reduce
I1105 17:39:58.858664 24615 net.cpp:106] Creating Layer inception_4d/prelu_5x5_reduce
I1105 17:39:58.858691 24615 net.cpp:454] inception_4d/prelu_5x5_reduce <- inception_4d/5x5_reduce
I1105 17:39:58.858707 24615 net.cpp:397] inception_4d/prelu_5x5_reduce -> inception_4d/5x5_reduce (in-place)
I1105 17:39:58.858810 24615 net.cpp:150] Setting up inception_4d/prelu_5x5_reduce
I1105 17:39:58.858824 24615 net.cpp:157] Top shape: 50 32 14 14 (313600)
I1105 17:39:58.858831 24615 net.cpp:165] Memory required for data: 2360092208
I1105 17:39:58.858842 24615 layer_factory.hpp:76] Creating layer inception_4d/5x5
I1105 17:39:58.858858 24615 net.cpp:106] Creating Layer inception_4d/5x5
I1105 17:39:58.858868 24615 net.cpp:454] inception_4d/5x5 <- inception_4d/5x5_reduce
I1105 17:39:58.858883 24615 net.cpp:411] inception_4d/5x5 -> inception_4d/5x5
I1105 17:39:58.860219 24615 cudnn_conv_layer.cpp:194] Reallocating workspace storage: 13080
I1105 17:39:58.860267 24615 net.cpp:150] Setting up inception_4d/5x5
I1105 17:39:58.860280 24615 net.cpp:157] Top shape: 50 64 14 14 (627200)
I1105 17:39:58.860288 24615 net.cpp:165] Memory required for data: 2362601008
I1105 17:39:58.860302 24615 layer_factory.hpp:76] Creating layer inception_4d/prelu_5x5
I1105 17:39:58.860316 24615 net.cpp:106] Creating Layer inception_4d/prelu_5x5
I1105 17:39:58.860335 24615 net.cpp:454] inception_4d/prelu_5x5 <- inception_4d/5x5
I1105 17:39:58.860357 24615 net.cpp:397] inception_4d/prelu_5x5 -> inception_4d/5x5 (in-place)
I1105 17:39:58.860457 24615 net.cpp:150] Setting up inception_4d/prelu_5x5
I1105 17:39:58.860471 24615 net.cpp:157] Top shape: 50 64 14 14 (627200)
I1105 17:39:58.860478 24615 net.cpp:165] Memory required for data: 2365109808
I1105 17:39:58.860489 24615 layer_factory.hpp:76] Creating layer inception_4d/pool
I1105 17:39:58.860505 24615 net.cpp:106] Creating Layer inception_4d/pool
I1105 17:39:58.860517 24615 net.cpp:454] inception_4d/pool <- inception_4c/output_inception_4c/output_0_split_3
I1105 17:39:58.860529 24615 net.cpp:411] inception_4d/pool -> inception_4d/pool
I1105 17:39:58.861034 24615 net.cpp:150] Setting up inception_4d/pool
I1105 17:39:58.861057 24615 net.cpp:157] Top shape: 50 512 14 14 (5017600)
I1105 17:39:58.861064 24615 net.cpp:165] Memory required for data: 2385180208
I1105 17:39:58.861078 24615 layer_factory.hpp:76] Creating layer inception_4d/pool_proj
I1105 17:39:58.861095 24615 net.cpp:106] Creating Layer inception_4d/pool_proj
I1105 17:39:58.861119 24615 net.cpp:454] inception_4d/pool_proj <- inception_4d/pool
I1105 17:39:58.861132 24615 net.cpp:411] inception_4d/pool_proj -> inception_4d/pool_proj
I1105 17:39:58.862634 24615 cudnn_conv_layer.cpp:194] Reallocating workspace storage: 10080
I1105 17:39:58.862679 24615 net.cpp:150] Setting up inception_4d/pool_proj
I1105 17:39:58.862694 24615 net.cpp:157] Top shape: 50 64 14 14 (627200)
I1105 17:39:58.862702 24615 net.cpp:165] Memory required for data: 2387689008
I1105 17:39:58.862716 24615 layer_factory.hpp:76] Creating layer inception_4d/prelu_pool_proj
I1105 17:39:58.862745 24615 net.cpp:106] Creating Layer inception_4d/prelu_pool_proj
I1105 17:39:58.862756 24615 net.cpp:454] inception_4d/prelu_pool_proj <- inception_4d/pool_proj
I1105 17:39:58.862767 24615 net.cpp:397] inception_4d/prelu_pool_proj -> inception_4d/pool_proj (in-place)
I1105 17:39:58.862869 24615 net.cpp:150] Setting up inception_4d/prelu_pool_proj
I1105 17:39:58.862881 24615 net.cpp:157] Top shape: 50 64 14 14 (627200)
I1105 17:39:58.862890 24615 net.cpp:165] Memory required for data: 2390197808
I1105 17:39:58.862901 24615 layer_factory.hpp:76] Creating layer inception_4d/output
I1105 17:39:58.862915 24615 net.cpp:106] Creating Layer inception_4d/output
I1105 17:39:58.862925 24615 net.cpp:454] inception_4d/output <- inception_4d/1x1
I1105 17:39:58.862934 24615 net.cpp:454] inception_4d/output <- inception_4d/3x3
I1105 17:39:58.862944 24615 net.cpp:454] inception_4d/output <- inception_4d/5x5
I1105 17:39:58.862953 24615 net.cpp:454] inception_4d/output <- inception_4d/pool_proj
I1105 17:39:58.862964 24615 net.cpp:411] inception_4d/output -> inception_4d/output
I1105 17:39:58.863000 24615 net.cpp:150] Setting up inception_4d/output
I1105 17:39:58.863013 24615 net.cpp:157] Top shape: 50 528 14 14 (5174400)
I1105 17:39:58.863019 24615 net.cpp:165] Memory required for data: 2410895408
I1105 17:39:58.863028 24615 layer_factory.hpp:76] Creating layer inception_4d/output_inception_4d/output_0_split
I1105 17:39:58.863039 24615 net.cpp:106] Creating Layer inception_4d/output_inception_4d/output_0_split
I1105 17:39:58.863049 24615 net.cpp:454] inception_4d/output_inception_4d/output_0_split <- inception_4d/output
I1105 17:39:58.863061 24615 net.cpp:411] inception_4d/output_inception_4d/output_0_split -> inception_4d/output_inception_4d/output_0_split_0
I1105 17:39:58.863075 24615 net.cpp:411] inception_4d/output_inception_4d/output_0_split -> inception_4d/output_inception_4d/output_0_split_1
I1105 17:39:58.863090 24615 net.cpp:411] inception_4d/output_inception_4d/output_0_split -> inception_4d/output_inception_4d/output_0_split_2
I1105 17:39:58.863106 24615 net.cpp:411] inception_4d/output_inception_4d/output_0_split -> inception_4d/output_inception_4d/output_0_split_3
I1105 17:39:58.863121 24615 net.cpp:411] inception_4d/output_inception_4d/output_0_split -> inception_4d/output_inception_4d/output_0_split_4
I1105 17:39:58.863193 24615 net.cpp:150] Setting up inception_4d/output_inception_4d/output_0_split
I1105 17:39:58.863206 24615 net.cpp:157] Top shape: 50 528 14 14 (5174400)
I1105 17:39:58.863216 24615 net.cpp:157] Top shape: 50 528 14 14 (5174400)
I1105 17:39:58.863225 24615 net.cpp:157] Top shape: 50 528 14 14 (5174400)
I1105 17:39:58.863235 24615 net.cpp:157] Top shape: 50 528 14 14 (5174400)
I1105 17:39:58.863245 24615 net.cpp:157] Top shape: 50 528 14 14 (5174400)
I1105 17:39:58.863252 24615 net.cpp:165] Memory required for data: 2514383408
I1105 17:39:58.863260 24615 layer_factory.hpp:76] Creating layer loss2/ave_pool
I1105 17:39:58.863273 24615 net.cpp:106] Creating Layer loss2/ave_pool
I1105 17:39:58.863282 24615 net.cpp:454] loss2/ave_pool <- inception_4d/output_inception_4d/output_0_split_0
I1105 17:39:58.863294 24615 net.cpp:411] loss2/ave_pool -> loss2/ave_pool
I1105 17:39:58.863493 24615 net.cpp:150] Setting up loss2/ave_pool
I1105 17:39:58.863507 24615 net.cpp:157] Top shape: 50 528 4 4 (422400)
I1105 17:39:58.863514 24615 net.cpp:165] Memory required for data: 2516073008
I1105 17:39:58.863523 24615 layer_factory.hpp:76] Creating layer loss2/conv
I1105 17:39:58.863538 24615 net.cpp:106] Creating Layer loss2/conv
I1105 17:39:58.863546 24615 net.cpp:454] loss2/conv <- loss2/ave_pool
I1105 17:39:58.863560 24615 net.cpp:411] loss2/conv -> loss2/conv
I1105 17:39:58.865272 24615 cudnn_conv_layer.cpp:194] Reallocating workspace storage: 6840
I1105 17:39:58.865316 24615 net.cpp:150] Setting up loss2/conv
I1105 17:39:58.865330 24615 net.cpp:157] Top shape: 50 128 4 4 (102400)
I1105 17:39:58.865339 24615 net.cpp:165] Memory required for data: 2516482608
I1105 17:39:58.865352 24615 layer_factory.hpp:76] Creating layer loss2/prelu_conv
I1105 17:39:58.865381 24615 net.cpp:106] Creating Layer loss2/prelu_conv
I1105 17:39:58.865391 24615 net.cpp:454] loss2/prelu_conv <- loss2/conv
I1105 17:39:58.865403 24615 net.cpp:397] loss2/prelu_conv -> loss2/conv (in-place)
I1105 17:39:58.865516 24615 net.cpp:150] Setting up loss2/prelu_conv
I1105 17:39:58.865530 24615 net.cpp:157] Top shape: 50 128 4 4 (102400)
I1105 17:39:58.865536 24615 net.cpp:165] Memory required for data: 2516892208
I1105 17:39:58.865550 24615 layer_factory.hpp:76] Creating layer loss2/fc
I1105 17:39:58.865562 24615 net.cpp:106] Creating Layer loss2/fc
I1105 17:39:58.865571 24615 net.cpp:454] loss2/fc <- loss2/conv
I1105 17:39:58.865586 24615 net.cpp:411] loss2/fc -> loss2/fc
I1105 17:39:58.881234 24615 net.cpp:150] Setting up loss2/fc
I1105 17:39:58.881281 24615 net.cpp:157] Top shape: 50 1024 (51200)
I1105 17:39:58.881290 24615 net.cpp:165] Memory required for data: 2517097008
I1105 17:39:58.881351 24615 layer_factory.hpp:76] Creating layer loss2/prelu_fc
I1105 17:39:58.881387 24615 net.cpp:106] Creating Layer loss2/prelu_fc
I1105 17:39:58.881400 24615 net.cpp:454] loss2/prelu_fc <- loss2/fc
I1105 17:39:58.881414 24615 net.cpp:397] loss2/prelu_fc -> loss2/fc (in-place)
I1105 17:39:58.881544 24615 net.cpp:150] Setting up loss2/prelu_fc
I1105 17:39:58.881557 24615 net.cpp:157] Top shape: 50 1024 (51200)
I1105 17:39:58.881566 24615 net.cpp:165] Memory required for data: 2517301808
I1105 17:39:58.881577 24615 layer_factory.hpp:76] Creating layer loss2/drop_fc
I1105 17:39:58.881592 24615 net.cpp:106] Creating Layer loss2/drop_fc
I1105 17:39:58.881604 24615 net.cpp:454] loss2/drop_fc <- loss2/fc
I1105 17:39:58.881615 24615 net.cpp:397] loss2/drop_fc -> loss2/fc (in-place)
I1105 17:39:58.881659 24615 net.cpp:150] Setting up loss2/drop_fc
I1105 17:39:58.881670 24615 net.cpp:157] Top shape: 50 1024 (51200)
I1105 17:39:58.881678 24615 net.cpp:165] Memory required for data: 2517506608
I1105 17:39:58.881685 24615 layer_factory.hpp:76] Creating layer loss2/classifier2
I1105 17:39:58.881700 24615 net.cpp:106] Creating Layer loss2/classifier2
I1105 17:39:58.881707 24615 net.cpp:454] loss2/classifier2 <- loss2/fc
I1105 17:39:58.881729 24615 net.cpp:411] loss2/classifier2 -> loss2/classifier
I1105 17:39:58.881872 24615 net.cpp:150] Setting up loss2/classifier2
I1105 17:39:58.881885 24615 net.cpp:157] Top shape: 50 2 (100)
I1105 17:39:58.881892 24615 net.cpp:165] Memory required for data: 2517507008
I1105 17:39:58.881906 24615 layer_factory.hpp:76] Creating layer loss2/classifier_loss2/classifier2_0_split
I1105 17:39:58.881917 24615 net.cpp:106] Creating Layer loss2/classifier_loss2/classifier2_0_split
I1105 17:39:58.881927 24615 net.cpp:454] loss2/classifier_loss2/classifier2_0_split <- loss2/classifier
I1105 17:39:58.881937 24615 net.cpp:411] loss2/classifier_loss2/classifier2_0_split -> loss2/classifier_loss2/classifier2_0_split_0
I1105 17:39:58.881952 24615 net.cpp:411] loss2/classifier_loss2/classifier2_0_split -> loss2/classifier_loss2/classifier2_0_split_1
I1105 17:39:58.881999 24615 net.cpp:150] Setting up loss2/classifier_loss2/classifier2_0_split
I1105 17:39:58.882025 24615 net.cpp:157] Top shape: 50 2 (100)
I1105 17:39:58.882035 24615 net.cpp:157] Top shape: 50 2 (100)
I1105 17:39:58.882043 24615 net.cpp:165] Memory required for data: 2517507808
I1105 17:39:58.882052 24615 layer_factory.hpp:76] Creating layer loss2/loss
I1105 17:39:58.882066 24615 net.cpp:106] Creating Layer loss2/loss
I1105 17:39:58.882074 24615 net.cpp:454] loss2/loss <- loss2/classifier_loss2/classifier2_0_split_0
I1105 17:39:58.882096 24615 net.cpp:454] loss2/loss <- label_data_1_split_2
…
I1105 17:39:58.883031 24615 net.cpp:165] Memory required for data: 2517507816
I1105 17:39:58.883040 24615 layer_factory.hpp:76] Creating layer inception_4e/1x1
I1105 17:39:58.883057 24615 net.cpp:106] Creating Layer inception_4e/1x1
I1105 17:39:58.883072 24615 net.cpp:454] inception_4e/1x1 <- inception_4d/output_inception_4d/output_0_split_1
I1105 17:39:58.883086 24615 net.cpp:411] inception_4e/1x1 -> inception_4e/1x1
I1105 17:39:58.885603 24615 cudnn_conv_layer.cpp:194] Reallocating workspace storage: 10080
I1105 17:39:58.885682 24615 net.cpp:150] Setting up inception_4e/1x1
I1105 17:39:58.885700 24615 net.cpp:157] Top shape: 50 256 14 14 (2508800)
I1105 17:39:58.885712 24615 net.cpp:165] Memory required for data: 2527543016
I1105 17:39:58.885730 24615 layer_factory.hpp:76] Creating layer inception_4e/prelu_1x1
I1105 17:39:58.885752 24615 net.cpp:106] Creating Layer inception_4e/prelu_1x1
I1105 17:39:58.885763 24615 net.cpp:454] inception_4e/prelu_1x1 <- inception_4e/1x1
I1105 17:39:58.885779 24615 net.cpp:397] inception_4e/prelu_1x1 -> inception_4e/1x1 (in-place)
I1105 17:39:58.885931 24615 net.cpp:150] Setting up inception_4e/prelu_1x1
I1105 17:39:58.885947 24615 net.cpp:157] Top shape: 50 256 14 14 (2508800)
I1105 17:39:58.885957 24615 net.cpp:165] Memory required for data: 2537578216
I1105 17:39:58.885968 24615 layer_factory.hpp:76] Creating layer inception_4e/3x3_reduce
I1105 17:39:58.885987 24615 net.cpp:106] Creating Layer inception_4e/3x3_reduce
I1105 17:39:58.885998 24615 net.cpp:454] inception_4e/3x3_reduce <- inception_4d/output_inception_4d/output_0_split_2
I1105 17:39:58.886013 24615 net.cpp:411] inception_4e/3x3_reduce -> inception_4e/3x3_reduce
I1105 17:39:58.887790 24615 cudnn_conv_layer.cpp:194] Reallocating workspace storage: 10080
I1105 17:39:58.887850 24615 net.cpp:150] Setting up inception_4e/3x3_reduce
I1105 17:39:58.887866 24615 net.cpp:157] Top shape: 50 160 14 14 (1568000)
I1105 17:39:58.887876 24615 net.cpp:165] Memory required for data: 2543850216
I1105 17:39:58.887892 24615 layer_factory.hpp:76] Creating layer inception_4e/prelu_3x3_reduce
I1105 17:39:58.887908 24615 net.cpp:106] Creating Layer inception_4e/prelu_3x3_reduce
I1105 17:39:58.887920 24615 net.cpp:454] inception_4e/prelu_3x3_reduce <- inception_4e/3x3_reduce
I1105 17:39:58.887936 24615 net.cpp:397] inception_4e/prelu_3x3_reduce -> inception_4e/3x3_reduce (in-place)
I1105 17:39:58.888062 24615 net.cpp:150] Setting up inception_4e/prelu_3x3_reduce
I1105 17:39:58.888077 24615 net.cpp:157] Top shape: 50 160 14 14 (1568000)
I1105 17:39:58.888087 24615 net.cpp:165] Memory required for data: 2550122216
I1105 17:39:58.888098 24615 layer_factory.hpp:76] Creating layer inception_4e/3x3
I1105 17:39:58.888139 24615 net.cpp:106] Creating Layer inception_4e/3x3
I1105 17:39:58.888149 24615 net.cpp:454] inception_4e/3x3 <- inception_4e/3x3_reduce
I1105 17:39:58.888164 24615 net.cpp:411] inception_4e/3x3 -> inception_4e/3x3
I1105 17:39:58.892726 24615 cudnn_conv_layer.cpp:194] Reallocating workspace storage: 10080
I1105 17:39:58.892789 24615 net.cpp:150] Setting up inception_4e/3x3
I1105 17:39:58.892804 24615 net.cpp:157] Top shape: 50 320 14 14 (3136000)
I1105 17:39:58.892817 24615 net.cpp:165] Memory required for data: 2562666216
I1105 17:39:58.892835 24615 layer_factory.hpp:76] Creating layer inception_4e/prelu_3x3
I1105 17:39:58.892853 24615 net.cpp:106] Creating Layer inception_4e/prelu_3x3
I1105 17:39:58.892864 24615 net.cpp:454] inception_4e/prelu_3x3 <- inception_4e/3x3
I1105 17:39:58.892879 24615 net.cpp:397] inception_4e/prelu_3x3 -> inception_4e/3x3 (in-place)
I1105 17:39:58.893537 24615 net.cpp:150] Setting up inception_4e/prelu_3x3
I1105 17:39:58.893551 24615 net.cpp:157] Top shape: 50 320 14 14 (3136000)
I1105 17:39:58.893559 24615 net.cpp:165] Memory required for data: 2575210216
I1105 17:39:58.893570 24615 layer_factory.hpp:76] Creating layer inception_4e/5x5_reduce
I1105 17:39:58.893586 24615 net.cpp:106] Creating Layer inception_4e/5x5_reduce
I1105 17:39:58.893595 24615 net.cpp:454] inception_4e/5x5_reduce <- inception_4d/output_inception_4d/output_0_split_3
I1105 17:39:58.893610 24615 net.cpp:411] inception_4e/5x5_reduce -> inception_4e/5x5_reduce
I1105 17:39:58.894876 24615 cudnn_conv_layer.cpp:194] Reallocating workspace storage: 10080
I1105 17:39:58.894917 24615 net.cpp:150] Setting up inception_4e/5x5_reduce
I1105 17:39:58.894929 24615 net.cpp:157] Top shape: 50 32 14 14 (313600)
I1105 17:39:58.894937 24615 net.cpp:165] Memory required for data: 2576464616
I1105 17:39:58.894949 24615 layer_factory.hpp:76] Creating layer inception_4e/prelu_5x5_reduce
I1105 17:39:58.894964 24615 net.cpp:106] Creating Layer inception_4e/prelu_5x5_reduce
I1105 17:39:58.894975 24615 net.cpp:454] inception_4e/prelu_5x5_reduce <- inception_4e/5x5_reduce
I1105 17:39:58.894989 24615 net.cpp:397] inception_4e/prelu_5x5_reduce -> inception_4e/5x5_reduce (in-place)
I1105 17:39:58.895092 24615 net.cpp:150] Setting up inception_4e/prelu_5x5_reduce
I1105 17:39:58.895103 24615 net.cpp:157] Top shape: 50 32 14 14 (313600)
I1105 17:39:58.895112 24615 net.cpp:165] Memory required for data: 2577719016
I1105 17:39:58.895122 24615 layer_factory.hpp:76] Creating layer inception_4e/5x5
I1105 17:39:58.895140 24615 net.cpp:106] Creating Layer inception_4e/5x5
I1105 17:39:58.895151 24615 net.cpp:454] inception_4e/5x5 <- inception_4e/5x5_reduce
I1105 17:39:58.895164 24615 net.cpp:411] inception_4e/5x5 -> inception_4e/5x5
I1105 17:39:58.897377 24615 cudnn_conv_layer.cpp:194] Reallocating workspace storage: 13080
I1105 17:39:58.897423 24615 net.cpp:150] Setting up inception_4e/5x5
I1105 17:39:58.897436 24615 net.cpp:157] Top shape: 50 128 14 14 (1254400)
I1105 17:39:58.897444 24615 net.cpp:165] Memory required for data: 2582736616
I1105 17:39:58.897457 24615 layer_factory.hpp:76] Creating layer inception_4e/prelu_5x5
I1105 17:39:58.897471 24615 net.cpp:106] Creating Layer inception_4e/prelu_5x5
I1105 17:39:58.897482 24615 net.cpp:454] inception_4e/prelu_5x5 <- inception_4e/5x5
I1105 17:39:58.897497 24615 net.cpp:397] inception_4e/prelu_5x5 -> inception_4e/5x5 (in-place)
I1105 17:39:58.897601 24615 net.cpp:150] Setting up inception_4e/prelu_5x5
I1105 17:39:58.897615 24615 net.cpp:157] Top shape: 50 128 14 14 (1254400)
I1105 17:39:58.897624 24615 net.cpp:165] Memory required for data: 2587754216
I1105 17:39:58.897642 24615 layer_factory.hpp:76] Creating layer inception_4e/pool
I1105 17:39:58.897655 24615 net.cpp:106] Creating Layer inception_4e/pool
I1105 17:39:58.897665 24615 net.cpp:454] inception_4e/pool <- inception_4d/output_inception_4d/output_0_split_4
I1105 17:39:58.897677 24615 net.cpp:411] inception_4e/pool -> inception_4e/pool
I1105 17:39:58.897891 24615 net.cpp:150] Setting up inception_4e/pool
I1105 17:39:58.897904 24615 net.cpp:157] Top shape: 50 528 14 14 (5174400)
I1105 17:39:58.897912 24615 net.cpp:165] Memory required for data: 2608451816
I1105 17:39:58.897920 24615 layer_factory.hpp:76] Creating layer inception_4e/pool_proj
I1105 17:39:58.897935 24615 net.cpp:106] Creating Layer inception_4e/pool_proj
I1105 17:39:58.897944 24615 net.cpp:454] inception_4e/pool_proj <- inception_4e/pool
I1105 17:39:58.897958 24615 net.cpp:411] inception_4e/pool_proj -> inception_4e/pool_proj
I1105 17:39:58.899674 24615 cudnn_conv_layer.cpp:194] Reallocating workspace storage: 10080
I1105 17:39:58.899718 24615 net.cpp:150] Setting up inception_4e/pool_proj
I1105 17:39:58.899730 24615 net.cpp:157] Top shape: 50 128 14 14 (1254400)
I1105 17:39:58.899737 24615 net.cpp:165] Memory required for data: 2613469416
I1105 17:39:58.899751 24615 layer_factory.hpp:76] Creating layer inception_4e/prelu_pool_proj
I1105 17:39:58.899782 24615 net.cpp:106] Creating Layer inception_4e/prelu_pool_proj
I1105 17:39:58.899793 24615 net.cpp:454] inception_4e/prelu_pool_proj <- inception_4e/pool_proj
I1105 17:39:58.899807 24615 net.cpp:397] inception_4e/prelu_pool_proj -> inception_4e/pool_proj (in-place)
I1105 17:39:58.899911 24615 net.cpp:150] Setting up inception_4e/prelu_pool_proj
I1105 17:39:58.899924 24615 net.cpp:157] Top shape: 50 128 14 14 (1254400)
I1105 17:39:58.899931 24615 net.cpp:165] Memory required for data: 2618487016
I1105 17:39:58.899942 24615 layer_factory.hpp:76] Creating layer inception_4e/output
I1105 17:39:58.899955 24615 net.cpp:106] Creating Layer inception_4e/output
I1105 17:39:58.899963 24615 net.cpp:454] inception_4e/output <- inception_4e/1x1
I1105 17:39:58.899972 24615 net.cpp:454] inception_4e/output <- inception_4e/3x3
I1105 17:39:58.899982 24615 net.cpp:454] inception_4e/output <- inception_4e/5x5
I1105 17:39:58.899991 24615 net.cpp:454] inception_4e/output <- inception_4e/pool_proj
I1105 17:39:58.900004 24615 net.cpp:411] inception_4e/output -> inception_4e/output
I1105 17:39:58.900040 24615 net.cpp:150] Setting up inception_4e/output
I1105 17:39:58.900051 24615 net.cpp:157] Top shape: 50 832 14 14 (8153600)
I1105 17:39:58.900059 24615 net.cpp:165] Memory required for data: 2651101416
I1105 17:39:58.900068 24615 layer_factory.hpp:76] Creating layer pool4/3x3_s2
I1105 17:39:58.900079 24615 net.cpp:106] Creating Layer pool4/3x3_s2
I1105 17:39:58.900086 24615 net.cpp:454] pool4/3x3_s2 <- inception_4e/output
I1105 17:39:58.900099 24615 net.cpp:411] pool4/3x3_s2 -> pool4/3x3_s2
I1105 17:39:58.900311 24615 net.cpp:150] Setting up pool4/3x3_s2
I1105 17:39:58.900324 24615 net.cpp:157] Top shape: 50 832 7 7 (2038400)
I1105 17:39:58.900332 24615 net.cpp:165] Memory required for data: 2659255016
I1105 17:39:58.900341 24615 layer_factory.hpp:76] Creating layer pool4/3x3_s2_pool4/3x3_s2_0_split
I1105 17:39:58.900354 24615 net.cpp:106] Creating Layer pool4/3x3_s2_pool4/3x3_s2_0_split
I1105 17:39:58.900363 24615 net.cpp:454] pool4/3x3_s2_pool4/3x3_s2_0_split <- pool4/3x3_s2
I1105 17:39:58.900373 24615 net.cpp:411] pool4/3x3_s2_pool4/3x3_s2_0_split -> pool4/3x3_s2_pool4/3x3_s2_0_split_0
I1105 17:39:58.900387 24615 net.cpp:411] pool4/3x3_s2_pool4/3x3_s2_0_split -> pool4/3x3_s2_pool4/3x3_s2_0_split_1
I1105 17:39:58.900401 24615 net.cpp:411] pool4/3x3_s2_pool4/3x3_s2_0_split -> pool4/3x3_s2_pool4/3x3_s2_0_split_2
I1105 17:39:58.900415 24615 net.cpp:411] pool4/3x3_s2_pool4/3x3_s2_0_split -> pool4/3x3_s2_pool4/3x3_s2_0_split_3
I1105 17:39:58.900482 24615 net.cpp:150] Setting up pool4/3x3_s2_pool4/3x3_s2_0_split
I1105 17:39:58.900493 24615 net.cpp:157] Top shape: 50 832 7 7 (2038400)
I1105 17:39:58.900503 24615 net.cpp:157] Top shape: 50 832 7 7 (2038400)
I1105 17:39:58.900513 24615 net.cpp:157] Top shape: 50 832 7 7 (2038400)
I1105 17:39:58.900523 24615 net.cpp:157] Top shape: 50 832 7 7 (2038400)
I1105 17:39:58.900531 24615 net.cpp:165] Memory required for data: 2691869416
I1105 17:39:58.900538 24615 layer_factory.hpp:76] Creating layer inception_5a/1x1
I1105 17:39:58.900553 24615 net.cpp:106] Creating Layer inception_5a/1x1
I1105 17:39:58.900562 24615 net.cpp:454] inception_5a/1x1 <- pool4/3x3_s2_pool4/3x3_s2_0_split_0
I1105 17:39:58.900576 24615 net.cpp:411] inception_5a/1x1 -> inception_5a/1x1
I1105 17:39:58.903481 24615 cudnn_conv_layer.cpp:194] Reallocating workspace storage: 7428
I1105 17:39:58.903535 24615 net.cpp:150] Setting up inception_5a/1x1
I1105 17:39:58.903548 24615 net.cpp:157] Top shape: 50 256 7 7 (627200)
I1105 17:39:58.903556 24615 net.cpp:165] Memory required for data: 2694378216
I1105 17:39:58.903571 24615 layer_factory.hpp:76] Creating layer inception_5a/prelu_1x1
I1105 17:39:58.903590 24615 net.cpp:106] Creating Layer inception_5a/prelu_1x1
I1105 17:39:58.903599 24615 net.cpp:454] inception_5a/prelu_1x1 <- inception_5a/1x1
I1105 17:39:58.903612 24615 net.cpp:397] inception_5a/prelu_1x1 -> inception_5a/1x1 (in-place)
I1105 17:39:58.903825 24615 net.cpp:150] Setting up inception_5a/prelu_1x1
I1105 17:39:58.903854 24615 net.cpp:157] Top shape: 50 256 7 7 (627200)
I1105 17:39:58.903877 24615 net.cpp:165] Memory required for data: 2696887016
I1105 17:39:58.903885 24615 layer_factory.hpp:76] Creating layer inception_5a/3x3_reduce
I1105 17:39:58.903906 24615 net.cpp:106] Creating Layer inception_5a/3x3_reduce
I1105 17:39:58.903913 24615 net.cpp:454] inception_5a/3x3_reduce <- pool4/3x3_s2_pool4/3x3_s2_0_split_1
I1105 17:39:58.903923 24615 net.cpp:411] inception_5a/3x3_reduce -> inception_5a/3x3_reduce
I1105 17:39:58.906553 24615 cudnn_conv_layer.cpp:194] Reallocating workspace storage: 7428
I1105 17:39:58.906599 24615 net.cpp:150] Setting up inception_5a/3x3_reduce
I1105 17:39:58.906611 24615 net.cpp:157] Top shape: 50 160 7 7 (392000)
I1105 17:39:58.906615 24615 net.cpp:165] Memory required for data: 2698455016
I1105 17:39:58.906623 24615 layer_factory.hpp:76] Creating layer inception_5a/prelu_3x3_reduce
I1105 17:39:58.906633 24615 net.cpp:106] Creating Layer inception_5a/prelu_3x3_reduce
I1105 17:39:58.906640 24615 net.cpp:454] inception_5a/prelu_3x3_reduce <- inception_5a/3x3_reduce
I1105 17:39:58.906646 24615 net.cpp:397] inception_5a/prelu_3x3_reduce -> inception_5a/3x3_reduce (in-place)
I1105 17:39:58.906738 24615 net.cpp:150] Setting up inception_5a/prelu_3x3_reduce
I1105 17:39:58.906746 24615 net.cpp:157] Top shape: 50 160 7 7 (392000)
I1105 17:39:58.906750 24615 net.cpp:165] Memory required for data: 2700023016
I1105 17:39:58.906755 24615 layer_factory.hpp:76] Creating layer inception_5a/3x3
I1105 17:39:58.906765 24615 net.cpp:106] Creating Layer inception_5a/3x3
I1105 17:39:58.906770 24615 net.cpp:454] inception_5a/3x3 <- inception_5a/3x3_reduce
I1105 17:39:58.906777 24615 net.cpp:411] inception_5a/3x3 -> inception_5a/3x3
I1105 17:39:58.911654 24615 cudnn_conv_layer.cpp:194] Reallocating workspace storage: 7788
I1105 17:39:58.911747 24615 net.cpp:150] Setting up inception_5a/3x3
I1105 17:39:58.911764 24615 net.cpp:157] Top shape: 50 320 7 7 (784000)
I1105 17:39:58.911778 24615 net.cpp:165] Memory required for data: 2703159016
I1105 17:39:58.911799 24615 layer_factory.hpp:76] Creating layer inception_5a/prelu_3x3
I1105 17:39:58.911826 24615 net.cpp:106] Creating Layer inception_5a/prelu_3x3
I1105 17:39:58.911839 24615 net.cpp:454] inception_5a/prelu_3x3 <- inception_5a/3x3
I1105 17:39:58.911864 24615 net.cpp:397] inception_5a/prelu_3x3 -> inception_5a/3x3 (in-place)
I1105 17:39:58.912019 24615 net.cpp:150] Setting up inception_5a/prelu_3x3
I1105 17:39:58.912039 24615 net.cpp:157] Top shape: 50 320 7 7 (784000)
I1105 17:39:58.912047 24615 net.cpp:165] Memory required for data: 2706295016
I1105 17:39:58.912058 24615 layer_factory.hpp:76] Creating layer inception_5a/5x5_reduce
I1105 17:39:58.912080 24615 net.cpp:106] Creating Layer inception_5a/5x5_reduce
I1105 17:39:58.912092 24615 net.cpp:454] inception_5a/5x5_reduce <- pool4/3x3_s2_pool4/3x3_s2_0_split_2
I1105 17:39:58.912108 24615 net.cpp:411] inception_5a/5x5_reduce -> inception_5a/5x5_reduce
I1105 17:39:58.913626 24615 cudnn_conv_layer.cpp:194] Reallocating workspace storage: 7428
I1105 17:39:58.913681 24615 net.cpp:150] Setting up inception_5a/5x5_reduce
I1105 17:39:58.913698 24615 net.cpp:157] Top shape: 50 32 7 7 (78400)
I1105 17:39:58.913707 24615 net.cpp:165] Memory required for data: 2706608616
I1105 17:39:58.913722 24615 layer_factory.hpp:76] Creating layer inception_5a/prelu_5x5_reduce
I1105 17:39:58.913739 24615 net.cpp:106] Creating Layer inception_5a/prelu_5x5_reduce
I1105 17:39:58.913750 24615 net.cpp:454] inception_5a/prelu_5x5_reduce <- inception_5a/5x5_reduce
I1105 17:39:58.913766 24615 net.cpp:397] inception_5a/prelu_5x5_reduce -> inception_5a/5x5_reduce (in-place)
I1105 17:39:58.913915 24615 net.cpp:150] Setting up inception_5a/prelu_5x5_reduce
I1105 17:39:58.913930 24615 net.cpp:157] Top shape: 50 32 7 7 (78400)
I1105 17:39:58.913949 24615 net.cpp:165] Memory required for data: 2706922216
I1105 17:39:58.913959 24615 layer_factory.hpp:76] Creating layer inception_5a/5x5
I1105 17:39:58.913979 24615 net.cpp:106] Creating Layer inception_5a/5x5
I1105 17:39:58.914001 24615 net.cpp:454] inception_5a/5x5 <- inception_5a/5x5_reduce
I1105 17:39:58.914018 24615 net.cpp:411] inception_5a/5x5 -> inception_5a/5x5
I1105 17:39:58.915808 24615 cudnn_conv_layer.cpp:194] Reallocating workspace storage: 9804
I1105 17:39:58.915874 24615 net.cpp:150] Setting up inception_5a/5x5
I1105 17:39:58.915889 24615 net.cpp:157] Top shape: 50 128 7 7 (313600)
I1105 17:39:58.915899 24615 net.cpp:165] Memory required for data: 2708176616
I1105 17:39:58.915917 24615 layer_factory.hpp:76] Creating layer inception_5a/prelu_5x5
I1105 17:39:58.915935 24615 net.cpp:106] Creating Layer inception_5a/prelu_5x5
I1105 17:39:58.915946 24615 net.cpp:454] inception_5a/prelu_5x5 <- inception_5a/5x5
I1105 17:39:58.915962 24615 net.cpp:397] inception_5a/prelu_5x5 -> inception_5a/5x5 (in-place)
I1105 17:39:58.916087 24615 net.cpp:150] Setting up inception_5a/prelu_5x5
I1105 17:39:58.916102 24615 net.cpp:157] Top shape: 50 128 7 7 (313600)
I1105 17:39:58.916110 24615 net.cpp:165] Memory required for data: 2709431016
I1105 17:39:58.916122 24615 layer_factory.hpp:76] Creating layer inception_5a/pool
I1105 17:39:58.916136 24615 net.cpp:106] Creating Layer inception_5a/pool
I1105 17:39:58.916148 24615 net.cpp:454] inception_5a/pool <- pool4/3x3_s2_pool4/3x3_s2_0_split_3
I1105 17:39:58.916160 24615 net.cpp:411] inception_5a/pool -> inception_5a/pool
I1105 17:39:58.916659 24615 net.cpp:150] Setting up inception_5a/pool
I1105 17:39:58.916681 24615 net.cpp:157] Top shape: 50 832 7 7 (2038400)
I1105 17:39:58.916689 24615 net.cpp:165] Memory required for data: 2717584616
I1105 17:39:58.916697 24615 layer_factory.hpp:76] Creating layer inception_5a/pool_proj
I1105 17:39:58.916713 24615 net.cpp:106] Creating Layer inception_5a/pool_proj
I1105 17:39:58.916725 24615 net.cpp:454] inception_5a/pool_proj <- inception_5a/pool
I1105 17:39:58.916744 24615 net.cpp:411] inception_5a/pool_proj -> inception_5a/pool_proj
I1105 17:39:58.919134 24615 cudnn_conv_layer.cpp:194] Reallocating workspace storage: 7428
I1105 17:39:58.919189 24615 net.cpp:150] Setting up inception_5a/pool_proj
I1105 17:39:58.919203 24615 net.cpp:157] Top shape: 50 128 7 7 (313600)
I1105 17:39:58.919211 24615 net.cpp:165] Memory required for data: 2718839016
I1105 17:39:58.919226 24615 layer_factory.hpp:76] Creating layer inception_5a/prelu_pool_proj
I1105 17:39:58.919245 24615 net.cpp:106] Creating Layer inception_5a/prelu_pool_proj
I1105 17:39:58.919257 24615 net.cpp:454] inception_5a/prelu_pool_proj <- inception_5a/pool_proj
I1105 17:39:58.919271 24615 net.cpp:397] inception_5a/prelu_pool_proj -> inception_5a/pool_proj (in-place)
I1105 17:39:58.919373 24615 net.cpp:150] Setting up inception_5a/prelu_pool_proj
I1105 17:39:58.919385 24615 net.cpp:157] Top shape: 50 128 7 7 (313600)
I1105 17:39:58.919394 24615 net.cpp:165] Memory required for data: 2720093416
I1105 17:39:58.919404 24615 layer_factory.hpp:76] Creating layer inception_5a/output
I1105 17:39:58.919416 24615 net.cpp:106] Creating Layer inception_5a/output
I1105 17:39:58.919425 24615 net.cpp:454] inception_5a/output <- inception_5a/1x1
I1105 17:39:58.919436 24615 net.cpp:454] inception_5a/output <- inception_5a/3x3
I1105 17:39:58.919445 24615 net.cpp:454] inception_5a/output <- inception_5a/5x5
I1105 17:39:58.919456 24615 net.cpp:454] inception_5a/output <- inception_5a/pool_proj
I1105 17:39:58.919468 24615 net.cpp:411] inception_5a/output -> inception_5a/output
I1105 17:39:58.919505 24615 net.cpp:150] Setting up inception_5a/output
I1105 17:39:58.919517 24615 net.cpp:157] Top shape: 50 832 7 7 (2038400)
I1105 17:39:58.919524 24615 net.cpp:165] Memory required for data: 2728247016
I1105 17:39:58.919533 24615 layer_factory.hpp:76] Creating layer inception_5a/output_inception_5a/output_0_split
I1105 17:39:58.919548 24615 net.cpp:106] Creating Layer inception_5a/output_inception_5a/output_0_split
I1105 17:39:58.919558 24615 net.cpp:454] inception_5a/output_inception_5a/output_0_split <- inception_5a/output
I1105 17:39:58.919569 24615 net.cpp:411] inception_5a/output_inception_5a/output_0_split -> inception_5a/output_inception_5a/output_0_split_0
I1105 17:39:58.919598 24615 net.cpp:411] inception_5a/output_inception_5a/output_0_split -> inception_5a/output_inception_5a/output_0_split_1
I1105 17:39:58.919615 24615 net.cpp:411] inception_5a/output_inception_5a/output_0_split -> inception_5a/output_inception_5a/output_0_split_2
I1105 17:39:58.919631 24615 net.cpp:411] inception_5a/output_inception_5a/output_0_split -> inception_5a/output_inception_5a/output_0_split_3
I1105 17:39:58.919698 24615 net.cpp:150] Setting up inception_5a/output_inception_5a/output_0_split
I1105 17:39:58.919710 24615 net.cpp:157] Top shape: 50 832 7 7 (2038400)
I1105 17:39:58.919721 24615 net.cpp:157] Top shape: 50 832 7 7 (2038400)
I1105 17:39:58.919731 24615 net.cpp:157] Top shape: 50 832 7 7 (2038400)
I1105 17:39:58.919740 24615 net.cpp:157] Top shape: 50 832 7 7 (2038400)
I1105 17:39:58.919749 24615 net.cpp:165] Memory required for data: 2760861416
I1105 17:39:58.919756 24615 layer_factory.hpp:76] Creating layer inception_5b/1x1
I1105 17:39:58.919770 24615 net.cpp:106] Creating Layer inception_5b/1x1
I1105 17:39:58.919780 24615 net.cpp:454] inception_5b/1x1 <- inception_5a/output_inception_5a/output_0_split_0
I1105 17:39:58.919795 24615 net.cpp:411] inception_5b/1x1 -> inception_5b/1x1
I1105 17:39:58.923416 24615 cudnn_conv_layer.cpp:194] Reallocating workspace storage: 7428
I1105 17:39:58.923471 24615 net.cpp:150] Setting up inception_5b/1x1
I1105 17:39:58.923485 24615 net.cpp:157] Top shape: 50 384 7 7 (940800)
I1105 17:39:58.923493 24615 net.cpp:165] Memory required for data: 2764624616
I1105 17:39:58.923507 24615 layer_factory.hpp:76] Creating layer inception_5b/prelu_1x1
I1105 17:39:58.923526 24615 net.cpp:106] Creating Layer inception_5b/prelu_1x1
I1105 17:39:58.923537 24615 net.cpp:454] inception_5b/prelu_1x1 <- inception_5b/1x1
I1105 17:39:58.923550 24615 net.cpp:397] inception_5b/prelu_1x1 -> inception_5b/1x1 (in-place)
I1105 17:39:58.923671 24615 net.cpp:150] Setting up inception_5b/prelu_1x1
I1105 17:39:58.923683 24615 net.cpp:157] Top shape: 50 384 7 7 (940800)
I1105 17:39:58.923691 24615 net.cpp:165] Memory required for data: 2768387816
I1105 17:39:58.923702 24615 layer_factory.hpp:76] Creating layer inception_5b/3x3_reduce
I1105 17:39:58.923717 24615 net.cpp:106] Creating Layer inception_5b/3x3_reduce
I1105 17:39:58.923728 24615 net.cpp:454] inception_5b/3x3_reduce <- inception_5a/output_inception_5a/output_0_split_1
I1105 17:39:58.923743 24615 net.cpp:411] inception_5b/3x3_reduce -> inception_5b/3x3_reduce
I1105 17:39:58.926092 24615 cudnn_conv_layer.cpp:194] Reallocating workspace storage: 7428
I1105 17:39:58.926136 24615 net.cpp:150] Setting up inception_5b/3x3_reduce
I1105 17:39:58.926148 24615 net.cpp:157] Top shape: 50 192 7 7 (470400)
I1105 17:39:58.926156 24615 net.cpp:165] Memory required for data: 2770269416
I1105 17:39:58.926170 24615 layer_factory.hpp:76] Creating layer inception_5b/prelu_3x3_reduce
I1105 17:39:58.926183 24615 net.cpp:106] Creating Layer inception_5b/prelu_3x3_reduce
I1105 17:39:58.926193 24615 net.cpp:454] inception_5b/prelu_3x3_reduce <- inception_5b/3x3_reduce
I1105 17:39:58.926209 24615 net.cpp:397] inception_5b/prelu_3x3_reduce -> inception_5b/3x3_reduce (in-place)
I1105 17:39:58.926312 24615 net.cpp:150] Setting up inception_5b/prelu_3x3_reduce
I1105 17:39:58.926324 24615 net.cpp:157] Top shape: 50 192 7 7 (470400)
I1105 17:39:58.926331 24615 net.cpp:165] Memory required for data: 2772151016
I1105 17:39:58.926342 24615 layer_factory.hpp:76] Creating layer inception_5b/3x3
I1105 17:39:58.926355 24615 net.cpp:106] Creating Layer inception_5b/3x3
I1105 17:39:58.926364 24615 net.cpp:454] inception_5b/3x3 <- inception_5b/3x3_reduce
I1105 17:39:58.926378 24615 net.cpp:411] inception_5b/3x3 -> inception_5b/3x3
I1105 17:39:58.932194 24615 cudnn_conv_layer.cpp:194] Reallocating workspace storage: 7788
I1105 17:39:58.932247 24615 net.cpp:150] Setting up inception_5b/3x3
I1105 17:39:58.932261 24615 net.cpp:157] Top shape: 50 384 7 7 (940800)
I1105 17:39:58.932276 24615 net.cpp:165] Memory required for data: 2775914216
I1105 17:39:58.932310 24615 layer_factory.hpp:76] Creating layer inception_5b/prelu_3x3
I1105 17:39:58.932335 24615 net.cpp:106] Creating Layer inception_5b/prelu_3x3
I1105 17:39:58.932348 24615 net.cpp:454] inception_5b/prelu_3x3 <- inception_5b/3x3
I1105 17:39:58.932360 24615 net.cpp:397] inception_5b/prelu_3x3 -> inception_5b/3x3 (in-place)
I1105 17:39:58.932484 24615 net.cpp:150] Setting up inception_5b/prelu_3x3
I1105 17:39:58.932497 24615 net.cpp:157] Top shape: 50 384 7 7 (940800)
I1105 17:39:58.932503 24615 net.cpp:165] Memory required for data: 2779677416
I1105 17:39:58.932514 24615 layer_factory.hpp:76] Creating layer inception_5b/5x5_reduce
I1105 17:39:58.932529 24615 net.cpp:106] Creating Layer inception_5b/5x5_reduce
I1105 17:39:58.932543 24615 net.cpp:454] inception_5b/5x5_reduce <- inception_5a/output_inception_5a/output_0_split_2
I1105 17:39:58.932555 24615 net.cpp:411] inception_5b/5x5_reduce -> inception_5b/5x5_reduce
I1105 17:39:58.934175 24615 cudnn_conv_layer.cpp:194] Reallocating workspace storage: 7428
I1105 17:39:58.934218 24615 net.cpp:150] Setting up inception_5b/5x5_reduce
I1105 17:39:58.934231 24615 net.cpp:157] Top shape: 50 48 7 7 (117600)
I1105 17:39:58.934238 24615 net.cpp:165] Memory required for data: 2780147816
I1105 17:39:58.934252 24615 layer_factory.hpp:76] Creating layer inception_5b/prelu_5x5_reduce
I1105 17:39:58.934267 24615 net.cpp:106] Creating Layer inception_5b/prelu_5x5_reduce
I1105 17:39:58.934276 24615 net.cpp:454] inception_5b/prelu_5x5_reduce <- inception_5b/5x5_reduce
I1105 17:39:58.934288 24615 net.cpp:397] inception_5b/prelu_5x5_reduce -> inception_5b/5x5_reduce (in-place)
I1105 17:39:58.934407 24615 net.cpp:150] Setting up inception_5b/prelu_5x5_reduce
I1105 17:39:58.934419 24615 net.cpp:157] Top shape: 50 48 7 7 (117600)
I1105 17:39:58.934427 24615 net.cpp:165] Memory required for data: 2780618216
I1105 17:39:58.934438 24615 layer_factory.hpp:76] Creating layer inception_5b/5x5
I1105 17:39:58.934456 24615 net.cpp:106] Creating Layer inception_5b/5x5
I1105 17:39:58.934468 24615 net.cpp:454] inception_5b/5x5 <- inception_5b/5x5_reduce
I1105 17:39:58.934481 24615 net.cpp:411] inception_5b/5x5 -> inception_5b/5x5
I1105 17:39:58.936529 24615 cudnn_conv_layer.cpp:194] Reallocating workspace storage: 9804
I1105 17:39:58.936574 24615 net.cpp:150] Setting up inception_5b/5x5
I1105 17:39:58.936588 24615 net.cpp:157] Top shape: 50 128 7 7 (313600)
I1105 17:39:58.936595 24615 net.cpp:165] Memory required for data: 2781872616
I1105 17:39:58.936609 24615 layer_factory.hpp:76] Creating layer inception_5b/prelu_5x5
I1105 17:39:58.936624 24615 net.cpp:106] Creating Layer inception_5b/prelu_5x5
I1105 17:39:58.936635 24615 net.cpp:454] inception_5b/prelu_5x5 <- inception_5b/5x5
I1105 17:39:58.936646 24615 net.cpp:397] inception_5b/prelu_5x5 -> inception_5b/5x5 (in-place)
I1105 17:39:58.936753 24615 net.cpp:150] Setting up inception_5b/prelu_5x5
I1105 17:39:58.936764 24615 net.cpp:157] Top shape: 50 128 7 7 (313600)
I1105 17:39:58.936772 24615 net.cpp:165] Memory required for data: 2783127016
I1105 17:39:58.936784 24615 layer_factory.hpp:76] Creating layer inception_5b/pool
I1105 17:39:58.936797 24615 net.cpp:106] Creating Layer inception_5b/pool
I1105 17:39:58.936808 24615 net.cpp:454] inception_5b/pool <- inception_5a/output_inception_5a/output_0_split_3
I1105 17:39:58.936820 24615 net.cpp:411] inception_5b/pool -> inception_5b/pool
I1105 17:39:58.937031 24615 net.cpp:150] Setting up inception_5b/pool
I1105 17:39:58.937043 24615 net.cpp:157] Top shape: 50 832 7 7 (2038400)
I1105 17:39:58.937050 24615 net.cpp:165] Memory required for data: 2791280616
I1105 17:39:58.937059 24615 layer_factory.hpp:76] Creating layer inception_5b/pool_proj
I1105 17:39:58.937088 24615 net.cpp:106] Creating Layer inception_5b/pool_proj
I1105 17:39:58.937099 24615 net.cpp:454] inception_5b/pool_proj <- inception_5b/pool
I1105 17:39:58.937113 24615 net.cpp:411] inception_5b/pool_proj -> inception_5b/pool_proj
I1105 17:39:58.939373 24615 cudnn_conv_layer.cpp:194] Reallocating workspace storage: 7428
I1105 17:39:58.939437 24615 net.cpp:150] Setting up inception_5b/pool_proj
I1105 17:39:58.939450 24615 net.cpp:157] Top shape: 50 128 7 7 (313600)
I1105 17:39:58.939473 24615 net.cpp:165] Memory required for data: 2792535016
I1105 17:39:58.939487 24615 layer_factory.hpp:76] Creating layer inception_5b/prelu_pool_proj
I1105 17:39:58.939502 24615 net.cpp:106] Creating Layer inception_5b/prelu_pool_proj
I1105 17:39:58.939514 24615 net.cpp:454] inception_5b/prelu_pool_proj <- inception_5b/pool_proj
I1105 17:39:58.939543 24615 net.cpp:397] inception_5b/prelu_pool_proj -> inception_5b/pool_proj (in-place)
I1105 17:39:58.939651 24615 net.cpp:150] Setting up inception_5b/prelu_pool_proj
I1105 17:39:58.939664 24615 net.cpp:157] Top shape: 50 128 7 7 (313600)
I1105 17:39:58.939671 24615 net.cpp:165] Memory required for data: 2793789416
I1105 17:39:58.939690 24615 layer_factory.hpp:76] Creating layer inception_5b/output
I1105 17:39:58.939702 24615 net.cpp:106] Creating Layer inception_5b/output
I1105 17:39:58.939713 24615 net.cpp:454] inception_5b/output <- inception_5b/1x1
I1105 17:39:58.939723 24615 net.cpp:454] inception_5b/output <- inception_5b/3x3
I1105 17:39:58.939733 24615 net.cpp:454] inception_5b/output <- inception_5b/5x5
I1105 17:39:58.939749 24615 net.cpp:454] inception_5b/output <- inception_5b/pool_proj
I1105 17:39:58.939760 24615 net.cpp:411] inception_5b/output -> inception_5b/output
I1105 17:39:58.939797 24615 net.cpp:150] Setting up inception_5b/output
I1105 17:39:58.939808 24615 net.cpp:157] Top shape: 50 1024 7 7 (2508800)
I1105 17:39:58.939816 24615 net.cpp:165] Memory required for data: 2803824616
I1105 17:39:58.939823 24615 layer_factory.hpp:76] Creating layer pool5/7x7_s1
I1105 17:39:58.939837 24615 net.cpp:106] Creating Layer pool5/7x7_s1
I1105 17:39:58.939846 24615 net.cpp:454] pool5/7x7_s1 <- inception_5b/output
I1105 17:39:58.939858 24615 net.cpp:411] pool5/7x7_s1 -> pool5/7x7_s1
I1105 17:39:58.940258 24615 net.cpp:150] Setting up pool5/7x7_s1
I1105 17:39:58.940271 24615 net.cpp:157] Top shape: 50 1024 1 1 (51200)
I1105 17:39:58.940279 24615 net.cpp:165] Memory required for data: 2804029416
I1105 17:39:58.940289 24615 layer_factory.hpp:76] Creating layer pool5/drop_7x7_s1
I1105 17:39:58.940301 24615 net.cpp:106] Creating Layer pool5/drop_7x7_s1
I1105 17:39:58.940310 24615 net.cpp:454] pool5/drop_7x7_s1 <- pool5/7x7_s1
I1105 17:39:58.940321 24615 net.cpp:397] pool5/drop_7x7_s1 -> pool5/7x7_s1 (in-place)
I1105 17:39:58.940357 24615 net.cpp:150] Setting up pool5/drop_7x7_s1
I1105 17:39:58.940368 24615 net.cpp:157] Top shape: 50 1024 1 1 (51200)
I1105 17:39:58.940376 24615 net.cpp:165] Memory required for data: 2804234216
I1105 17:39:58.940383 24615 layer_factory.hpp:76] Creating layer loss3/classifier2
I1105 17:39:58.940395 24615 net.cpp:106] Creating Layer loss3/classifier2
I1105 17:39:58.940403 24615 net.cpp:454] loss3/classifier2 <- pool5/7x7_s1
I1105 17:39:58.940418 24615 net.cpp:411] loss3/classifier2 -> loss3/classifier
I1105 17:39:58.940563 24615 net.cpp:150] Setting up loss3/classifier2
I1105 17:39:58.940575 24615 net.cpp:157] Top shape: 50 2 (100)
I1105 17:39:58.940583 24615 net.cpp:165] Memory required for data: 2804234616
I1105 17:39:58.940595 24615 layer_factory.hpp:76] Creating layer loss3/classifier_loss3/classifier2_0_split
I1105 17:39:58.940608 24615 net.cpp:106] Creating Layer loss3/classifier_loss3/classifier2_0_split
I1105 17:39:58.940616 24615 net.cpp:454] loss3/classifier_loss3/classifier2_0_split <- loss3/classifier
I1105 17:39:58.940629 24615 net.cpp:411] loss3/classifier_loss3/classifier2_0_split -> loss3/classifier_loss3/classifier2_0_split_0
I1105 17:39:58.940644 24615 net.cpp:411] loss3/classifier_loss3/classifier2_0_split -> loss3/classifier_loss3/classifier2_0_split_1
I1105 17:39:58.940695 24615 net.cpp:150] Setting up loss3/classifier_loss3/classifier2_0_split
I1105 17:39:58.940706 24615 net.cpp:157] Top shape: 50 2 (100)
I1105 17:39:58.940716 24615 net.cpp:157] Top shape: 50 2 (100)
I1105 17:39:58.940723 24615 net.cpp:165] Memory required for data: 2804235416
I1105 17:39:58.940732 24615 layer_factory.hpp:76] Creating layer loss3/loss3
I1105 17:39:58.940752 24615 net.cpp:106] Creating Layer loss3/loss3
I1105 17:39:58.940764 24615 net.cpp:454] loss3/loss3 <- loss3/classifier_loss3/classifier2_0_split_0
I1105 17:39:58.940774 24615 net.cpp:454] loss3/loss3 <- label_data_1_split_4
…
