…
I1028 13:11:00.817744 28065 net.cpp:322] The NetState phase (0) differed from the phase (1) specified by a rule in layer loss3/top-1
I1028 13:11:00.818681 28065 net.cpp:49] Initializing net from parameters: 
name: "GoogleNet"
state {
  phase: TRAIN
}
layer {
  name: "data"
  type: "Data"
  top: "data"
  top: "label"
  include {
    phase: TRAIN
  }
  transform_param {
    mirror: true
    crop_size: 224
    mean_value: 104
    mean_value: 117
    mean_value: 123
  }
  data_param {
    source: "../../LMDB/train_0-lmdb"
    batch_size: 32
    backend: LMDB
  }
}
layer {
  name: "conv1/7x7_s2"
  type: "Convolution"
  bottom: "data"
  top: "conv1/7x7_s2"
  param {
    lr_mult: 1
    decay_mult: 1
  }
  param {
    lr_mult: 2
    decay_mult: 0
  }
  convolution_param {
    num_output: 64
    pad: 3
    kernel_size: 7
    stride: 2
    weight_filler {
      type: "xavier"
    }
    bias_filler {
      type: "constant"
      value: 0.2
    }
  }
}
layer {
  name: "conv1/prelu_7x7"
  type: "PReLU"
  bottom: "conv1/7x7_s2"
  top: "conv1/7x7_s2"
  param {
    lr_mult: 1
    decay_mult: 0
  }
  prelu_param {
    filler {
      type: "constant"
      value: 0.01
    }
  }
}
layer {
  name: "pool1/3x3_s2"
  type: "Pooling"
  bottom: "conv1/7x7_s2"
  top: "pool1/3x3_s2"
  pooling_param {
    pool: MAX
    kernel_size: 3
    stride: 2
  }
}
layer {
  name: "pool1/norm1"
  type: "LRN"
  bottom: "pool1/3x3_s2"
  top: "pool1/norm1"
  lrn_param {
    local_size: 5
    alpha: 0.0001
    beta: 0.75
  }
}
layer {
  name: "conv2/3x3_reduce"
  type: "Convolution"
  bottom: "pool1/norm1"
  top: "conv2/3x3_reduce"
  param {
    lr_mult: 1
    decay_mult: 1
  }
  param {
    lr_mult: 2
    decay_mult: 0
  }
  convolution_param {
    num_output: 64
    kernel_size: 1
    weight_filler {
      type: "xavier"
    }
    bias_filler {
      type: "constant"
      value: 0.2
    }
  }
}
layer {
  name: "conv2/prelu_3x3_reduce"
  type: "PReLU"
  bottom: "conv2/3x3_reduce"
  top: "conv2/3x3_reduce"
  param {
    lr_mult: 1
    decay_mult: 0
  }
  prelu_param {
    filler {
      type: "constant"
      value: 0.01
    }
  }
}
layer {
  name: "conv2/3x3"
  type: "Convolution"
  bottom: "conv2/3x3_reduce"
  top: "conv2/3x3"
  param {
    lr_mult: 1
    decay_mult: 1
  }
  param {
    lr_mult: 2
    decay_mult: 0
  }
  convolution_param {
    num_output: 192
    pad: 1
    kernel_size: 3
    weight_filler {
      type: "xavier"
    }
    bias_filler {
      type: "constant"
      value: 0.2
    }
  }
}
layer {
  name: "conv2/prelu_3x3"
  type: "PReLU"
  bottom: "conv2/3x3"
  top: "conv2/3x3"
  param {
    lr_mult: 1
    decay_mult: 0
  }
  prelu_param {
    filler {
      type: "constant"
      value: 0.01
    }
  }
}
layer {
  name: "conv2/norm2"
  type: "LRN"
  bottom: "conv2/3x3"
  top: "conv2/norm2"
  lrn_param {
    local_size: 5
    alpha: 0.0001
    beta: 0.75
  }
}
layer {
  name: "pool2/3x3_s2"
  type: "Pooling"
  bottom: "conv2/norm2"
  top: "pool2/3x3_s2"
  pooling_param {
    pool: MAX
    kernel_size: 3
    stride: 2
  }
}
layer {
  name: "inception_3a/1x1"
  type: "Convolution"
  bottom: "pool2/3x3_s2"
  top: "inception_3a/1x1"
  param {
    lr_mult: 1
    decay_mult: 1
  }
  param {
    lr_mult: 2
    decay_mult: 0
  }
  convolution_param {
    num_output: 64
    kernel_size: 1
    weight_filler {
      type: "xavier"
    }
    bias_filler {
      type: "constant"
      value: 0.2
    }
  }
}
layer {
  name: "inception_3a/prelu_1x1"
  type: "PReLU"
  bottom: "inception_3a/1x1"
  top: "inception_3a/1x1"
  param {
    lr_mult: 1
    decay_mult: 0
  }
  prelu_param {
    filler {
      type: "constant"
      value: 0.01
    }
  }
}
layer {
  name: "inception_3a/3x3_reduce"
  type: "Convolution"
  bottom: "pool2/3x3_s2"
  top: "inception_3a/3x3_reduce"
  param {
    lr_mult: 1
    decay_mult: 1
  }
  param {
    lr_mult: 2
    decay_mult: 0
  }
  convolution_param {
    num_output: 96
    kernel_size: 1
    weight_filler {
      type: "xavier"
    }
    bias_filler {
      type: "constant"
      value: 0.2
    }
  }
}
layer {
  name: "inception_3a/prelu_3x3_reduce"
  type: "PReLU"
  bottom: "inception_3a/3x3_reduce"
  top: "inception_3a/3x3_reduce"
  param {
    lr_mult: 1
    decay_mult: 0
  }
  prelu_param {
    filler {
      type: "constant"
      value: 0.01
    }
  }
}
layer {
  name: "inception_3a/3x3"
  type: "Convolution"
  bottom: "inception_3a/3x3_reduce"
  top: "inception_3a/3x3"
  param {
    lr_mult: 1
    decay_mult: 1
  }
  param {
    lr_mult: 2
    decay_mult: 0
  }
  convolution_param {
    num_output: 128
    pad: 1
    kernel_size: 3
    weight_filler {
      type: "xavier"
    }
    bias_filler {
      type: "constant"
      value: 0.2
    }
  }
}
layer {
  name: "inception_3a/prelu_3x3"
  type: "PReLU"
  bottom: "inception_3a/3x3"
  top: "inception_3a/3x3"
  param {
    lr_mult: 1
    decay_mult: 0
  }
  prelu_param {
    filler {
      type: "constant"
      value: 0.01
    }
  }
}
layer {
  name: "inception_3a/5x5_reduce"
  type: "Convolution"
  bottom: "pool2/3x3_s2"
  top: "inception_3a/5x5_reduce"
  param {
    lr_mult: 1
    decay_mult: 1
  }
  param {
    lr_mult: 2
    decay_mult: 0
  }
  convolution_param {
    num_output: 16
    kernel_size: 1
    weight_filler {
      type: "xavier"
    }
    bias_filler {
      type: "constant"
      value: 0.2
    }
  }
}
layer {
  name: "inception_3a/prelu_5x5_reduce"
  type: "PReLU"
  bottom: "inception_3a/5x5_reduce"
  top: "inception_3a/5x5_reduce"
  param {
    lr_mult: 1
    decay_mult: 0
  }
  prelu_param {
    filler {
      type: "constant"
      value: 0.01
    }
  }
}
layer {
  name: "inception_3a/5x5"
  type: "Convolution"
  bottom: "inception_3a/5x5_reduce"
  top: "inception_3a/5x5"
  param {
    lr_mult: 1
    decay_mult: 1
  }
  param {
    lr_mult: 2
    decay_mult: 0
  }
  convolution_param {
    num_output: 32
    pad: 2
    kernel_size: 5
    weight_filler {
      type: "xavier"
    }
    bias_filler {
      type: "constant"
      value: 0.2
    }
  }
}
layer {
  name: "inception_3a/prelu_5x5"
  type: "PReLU"
  bottom: "inception_3a/5x5"
  top: "inception_3a/5x5"
  param {
    lr_mult: 1
    decay_mult: 0
  }
  prelu_param {
    filler {
      type: "constant"
      value: 0.01
    }
  }
}
layer {
  name: "inception_3a/pool"
  type: "Pooling"
  bottom: "pool2/3x3_s2"
  top: "inception_3a/pool"
  pooling_param {
    pool: MAX
    kernel_size: 3
    stride: 1
    pad: 1
  }
}
layer {
  name: "inception_3a/pool_proj"
  type: "Convolution"
  bottom: "inception_3a/pool"
  top: "inception_3a/pool_proj"
  param {
    lr_mult: 1
    decay_mult: 1
  }
  param {
    lr_mult: 2
    decay_mult: 0
  }
  convolution_param {
    num_output: 32
    kernel_size: 1
    weight_filler {
      type: "xavier"
    }
    bias_filler {
      type: "constant"
      value: 0.2
    }
  }
}
layer {
  name: "inception_3a/prelu_pool_proj"
  type: "PReLU"
  bottom: "inception_3a/pool_proj"
  top: "inception_3a/pool_proj"
  param {
    lr_mult: 1
    decay_mult: 0
  }
  prelu_param {
    filler {
      type: "constant"
      value: 0.01
    }
  }
}
layer {
  name: "inception_3a/output"
  type: "Concat"
  bottom: "inception_3a/1x1"
  bottom: "inception_3a/3x3"
  bottom: "inception_3a/5x5"
  bottom: "inception_3a/pool_proj"
  top: "inception_3a/output"
}
layer {
  name: "inception_3b/1x1"
  type: "Convolution"
  bottom: "inception_3a/output"
  top: "inception_3b/1x1"
  param {
    lr_mult: 1
    decay_mult: 1
  }
  param {
    lr_mult: 2
    decay_mult: 0
  }
  convolution_param {
    num_output: 128
    kernel_size: 1
    weight_filler {
      type: "xavier"
    }
    bias_filler {
      type: "constant"
      value: 0.2
    }
  }
}
layer {
  name: "inception_3b/prelu_1x1"
  type: "PReLU"
  bottom: "inception_3b/1x1"
  top: "inception_3b/1x1"
  param {
    lr_mult: 1
    decay_mult: 0
  }
  prelu_param {
    filler {
      type: "constant"
      value: 0.01
    }
  }
}
layer {
  name: "inception_3b/3x3_reduce"
  type: "Convolution"
  bottom: "inception_3a/output"
  top: "inception_3b/3x3_reduce"
  param {
    lr_mult: 1
    decay_mult: 1
  }
  param {
    lr_mult: 2
    decay_mult: 0
  }
  convolution_param {
    num_output: 128
    kernel_size: 1
    weight_filler {
      type: "xavier"
    }
    bias_filler {
      type: "constant"
      value: 0.2
    }
  }
}
layer {
  name: "inception_3b/prelu_3x3_reduce"
  type: "PReLU"
  bottom: "inception_3b/3x3_reduce"
  top: "inception_3b/3x3_reduce"
  param {
    lr_mult: 1
    decay_mult: 0
  }
  prelu_param {
    filler {
      type: "constant"
      value: 0.01
    }
  }
}
layer {
  name: "inception_3b/3x3"
  type: "Convolution"
  bottom: "inception_3b/3x3_reduce"
  top: "inception_3b/3x3"
  param {
    lr_mult: 1
    decay_mult: 1
  }
  param {
    lr_mult: 2
    decay_mult: 0
  }
  convolution_param {
    num_output: 192
    pad: 1
    kernel_size: 3
    weight_filler {
      type: "xavier"
    }
    bias_filler {
      type: "constant"
      value: 0.2
    }
  }
}
layer {
  name: "inception_3b/prelu_3x3"
  type: "PReLU"
  bottom: "inception_3b/3x3"
  top: "inception_3b/3x3"
  param {
    lr_mult: 1
    decay_mult: 0
  }
  prelu_param {
    filler {
      type: "constant"
      value: 0.01
    }
  }
}
layer {
  name: "inception_3b/5x5_reduce"
  type: "Convolution"
  bottom: "inception_3a/output"
  top: "inception_3b/5x5_reduce"
  param {
    lr_mult: 1
    decay_mult: 1
  }
  param {
    lr_mult: 2
    decay_mult: 0
  }
  convolution_param {
    num_output: 32
    kernel_size: 1
    weight_filler {
      type: "xavier"
    }
    bias_filler {
      type: "constant"
      value: 0.2
    }
  }
}
layer {
  name: "inception_3b/prelu_5x5_reduce"
  type: "PReLU"
  bottom: "inception_3b/5x5_reduce"
  top: "inception_3b/5x5_reduce"
  param {
    lr_mult: 1
    decay_mult: 0
  }
  prelu_param {
    filler {
      type: "constant"
      value: 0.01
    }
  }
}
layer {
  name: "inception_3b/5x5"
  type: "Convolution"
  bottom: "inception_3b/5x5_reduce"
  top: "inception_3b/5x5"
  param {
    lr_mult: 1
    decay_mult: 1
  }
  param {
    lr_mult: 2
    decay_mult: 0
  }
  convolution_param {
    num_output: 96
    pad: 2
    kernel_size: 5
    weight_filler {
      type: "xavier"
    }
    bias_filler {
      type: "constant"
      value: 0.2
    }
  }
}
layer {
  name: "inception_3b/prelu_5x5"
  type: "PReLU"
  bottom: "inception_3b/5x5"
  top: "inception_3b/5x5"
  param {
    lr_mult: 1
    decay_mult: 0
  }
  prelu_param {
    filler {
      type: "constant"
      value: 0.01
    }
  }
}
layer {
  name: "inception_3b/pool"
  type: "Pooling"
  bottom: "inception_3a/output"
  top: "inception_3b/pool"
  pooling_param {
    pool: MAX
    kernel_size: 3
    stride: 1
    pad: 1
  }
}
layer {
  name: "inception_3b/pool_proj"
  type: "Convolution"
  bottom: "inception_3b/pool"
  top: "inception_3b/pool_proj"
  param {
    lr_mult: 1
    decay_mult: 1
  }
  param {
    lr_mult: 2
    decay_mult: 0
  }
  convolution_param {
    num_output: 64
    kernel_size: 1
    weight_filler {
      type: "xavier"
    }
    bias_filler {
      type: "constant"
      value: 0.2
    }
  }
}
layer {
  name: "inception_3b/prelu_pool_proj"
  type: "PReLU"
  bottom: "inception_3b/pool_proj"
  top: "inception_3b/pool_proj"
  param {
    lr_mult: 1
    decay_mult: 0
  }
  prelu_param {
    filler {
      type: "constant"
      value: 0.01
    }
  }
}
layer {
  name: "inception_3b/output"
  type: "Concat"
  bottom: "inception_3b/1x1"
  bottom: "inception_3b/3x3"
  bottom: "inception_3b/5x5"
  bottom: "inception_3b/pool_proj"
  top: "inception_3b/output"
}
layer {
  name: "pool3/3x3_s2"
  type: "Pooling"
  bottom: "inception_3b/output"
  top: "pool3/3x3_s2"
  pooling_param {
    pool: MAX
    kernel_size: 3
    stride: 2
  }
}
layer {
  name: "inception_4a/1x1"
  type: "Convolution"
  bottom: "pool3/3x3_s2"
  top: "inception_4a/1x1"
  param {
    lr_mult: 1
    decay_mult: 1
  }
  param {
    lr_mult: 2
    decay_mult: 0
  }
  convolution_param {
    num_output: 192
    kernel_size: 1
    weight_filler {
      type: "xavier"
    }
    bias_filler {
      type: "constant"
      value: 0.2
    }
  }
}
layer {
  name: "inception_4a/prelu_1x1"
  type: "PReLU"
  bottom: "inception_4a/1x1"
  top: "inception_4a/1x1"
  param {
    lr_mult: 1
    decay_mult: 0
  }
  prelu_param {
    filler {
      type: "constant"
      value: 0.01
    }
  }
}
layer {
  name: "inception_4a/3x3_reduce"
  type: "Convolution"
  bottom: "pool3/3x3_s2"
  top: "inception_4a/3x3_reduce"
  param {
    lr_mult: 1
    decay_mult: 1
  }
  param {
    lr_mult: 2
    decay_mult: 0
  }
  convolution_param {
    num_output: 96
    kernel_size: 1
    weight_filler {
      type: "xavier"
    }
    bias_filler {
      type: "constant"
      value: 0.2
    }
  }
}
layer {
  name: "inception_4a/prelu_3x3_reduce"
  type: "PReLU"
  bottom: "inception_4a/3x3_reduce"
  top: "inception_4a/3x3_reduce"
  param {
    lr_mult: 1
    decay_mult: 0
  }
  prelu_param {
    filler {
      type: "constant"
      value: 0.01
    }
  }
}
layer {
  name: "inception_4a/3x3"
  type: "Convolution"
  bottom: "inception_4a/3x3_reduce"
  top: "inception_4a/3x3"
  param {
    lr_mult: 1
    decay_mult: 1
  }
  param {
    lr_mult: 2
    decay_mult: 0
  }
  convolution_param {
    num_output: 208
    pad: 1
    kernel_size: 3
    weight_filler {
      type: "xavier"
    }
    bias_filler {
      type: "constant"
      value: 0.2
    }
  }
}
layer {
  name: "inception_4a/prelu_3x3"
  type: "PReLU"
  bottom: "inception_4a/3x3"
  top: "inception_4a/3x3"
  param {
    lr_mult: 1
    decay_mult: 0
  }
  prelu_param {
    filler {
      type: "constant"
      value: 0.01
    }
  }
}
layer {
  name: "inception_4a/5x5_reduce"
  type: "Convolution"
  bottom: "pool3/3x3_s2"
  top: "inception_4a/5x5_reduce"
  param {
    lr_mult: 1
    decay_mult: 1
  }
  param {
    lr_mult: 2
    decay_mult: 0
  }
  convolution_param {
    num_output: 16
    kernel_size: 1
    weight_filler {
      type: "xavier"
    }
    bias_filler {
      type: "constant"
      value: 0.2
    }
  }
}
layer {
  name: "inception_4a/prelu_5x5_reduce"
  type: "PReLU"
  bottom: "inception_4a/5x5_reduce"
  top: "inception_4a/5x5_reduce"
  param {
    lr_mult: 1
    decay_mult: 0
  }
  prelu_param {
    filler {
      type: "constant"
      value: 0.01
    }
  }
}
layer {
  name: "inception_4a/5x5"
  type: "Convolution"
  bottom: "inception_4a/5x5_reduce"
  top: "inception_4a/5x5"
  param {
    lr_mult: 1
    decay_mult: 1
  }
  param {
    lr_mult: 2
    decay_mult: 0
  }
  convolution_param {
    num_output: 48
    pad: 2
    kernel_size: 5
    weight_filler {
      type: "xavier"
    }
    bias_filler {
      type: "constant"
      value: 0.2
    }
  }
}
layer {
  name: "inception_4a/prelu_5x5"
  type: "PReLU"
  bottom: "inception_4a/5x5"
  top: "inception_4a/5x5"
  param {
    lr_mult: 1
    decay_mult: 0
  }
  prelu_param {
    filler {
      type: "constant"
      value: 0.01
    }
  }
}
layer {
  name: "inception_4a/pool"
  type: "Pooling"
  bottom: "pool3/3x3_s2"
  top: "inception_4a/pool"
  pooling_param {
    pool: MAX
    kernel_size: 3
    stride: 1
    pad: 1
  }
}
layer {
  name: "inception_4a/pool_proj"
  type: "Convolution"
  bottom: "inception_4a/pool"
  top: "inception_4a/pool_proj"
  param {
    lr_mult: 1
    decay_mult: 1
  }
  param {
    lr_mult: 2
    decay_mult: 0
  }
  convolution_param {
    num_output: 64
    kernel_size: 1
    weight_filler {
      type: "xavier"
    }
    bias_filler {
      type: "constant"
      value: 0.2
    }
  }
}
layer {
  name: "inception_4a/prelu_pool_proj"
  type: "PReLU"
  bottom: "inception_4a/pool_proj"
  top: "inception_4a/pool_proj"
  param {
    lr_mult: 1
    decay_mult: 0
  }
  prelu_param {
    filler {
      type: "constant"
      value: 0.01
    }
  }
}
layer {
  name: "inception_4a/output"
  type: "Concat"
  bottom: "inception_4a/1x1"
  bottom: "inception_4a/3x3"
  bottom: "inception_4a/5x5"
  bottom: "inception_4a/pool_proj"
  top: "inception_4a/output"
}
layer {
  name: "loss1/ave_pool"
  type: "Pooling"
  bottom: "inception_4a/output"
  top: "loss1/ave_pool"
  pooling_param {
    pool: AVE
    kernel_size: 5
    stride: 3
  }
}
layer {
  name: "loss1/conv"
  type: "Convolution"
  bottom: "loss1/ave_pool"
  top: "loss1/conv"
  param {
    lr_mult: 1
    decay_mult: 1
  }
  param {
    lr_mult: 2
    decay_mult: 0
  }
  convolution_param {
    num_output: 128
    kernel_size: 1
    weight_filler {
      type: "xavier"
    }
    bias_filler {
      type: "constant"
      value: 0.2
    }
  }
}
layer {
  name: "loss1/prelu_conv"
  type: "PReLU"
  bottom: "loss1/conv"
  top: "loss1/conv"
  param {
    lr_mult: 1
    decay_mult: 0
  }
  prelu_param {
    filler {
      type: "constant"
      value: 0.01
    }
  }
}
layer {
  name: "loss1/fc"
  type: "InnerProduct"
  bottom: "loss1/conv"
  top: "loss1/fc"
  param {
    lr_mult: 1
    decay_mult: 1
  }
  param {
    lr_mult: 2
    decay_mult: 0
  }
  inner_product_param {
    num_output: 1024
    weight_filler {
      type: "xavier"
    }
    bias_filler {
      type: "constant"
      value: 0.2
    }
  }
}
layer {
  name: "loss1/prelu_fc"
  type: "PReLU"
  bottom: "loss1/fc"
  top: "loss1/fc"
  param {
    lr_mult: 1
    decay_mult: 0
  }
  prelu_param {
    filler {
      type: "constant"
      value: 0.01
    }
  }
}
layer {
  name: "loss1/drop_fc"
  type: "Dropout"
  bottom: "loss1/fc"
  top: "loss1/fc"
  dropout_param {
    dropout_ratio: 0.7
  }
}
layer {
  name: "loss1/classifier2"
  type: "InnerProduct"
  bottom: "loss1/fc"
  top: "loss1/classifier"
  param {
    lr_mult: 1
    decay_mult: 1
  }
  param {
    lr_mult: 2
    decay_mult: 0
  }
  inner_product_param {
    num_output: 2
    weight_filler {
      type: "xavier"
    }
    bias_filler {
      type: "constant"
      value: 0
    }
  }
}
layer {
  name: "loss1/loss"
  type: "SoftmaxWithLoss"
  bottom: "loss1/classifier"
  bottom: "label"
  top: "loss1/loss1"
  loss_weight: 0.3
}
layer {
  name: "inception_4b/1x1"
  type: "Convolution"
  bottom: "inception_4a/output"
  top: "inception_4b/1x1"
  param {
    lr_mult: 1
    decay_mult: 1
  }
  param {
    lr_mult: 2
    decay_mult: 0
  }
  convolution_param {
    num_output: 160
    kernel_size: 1
    weight_filler {
      type: "xavier"
    }
    bias_filler {
      type: "constant"
      value: 0.2
    }
  }
}
layer {
  name: "inception_4b/prelu_1x1"
  type: "PReLU"
  bottom: "inception_4b/1x1"
  top: "inception_4b/1x1"
  param {
    lr_mult: 1
    decay_mult: 0
  }
  prelu_param {
    filler {
      type: "constant"
      value: 0.01
    }
  }
}
layer {
  name: "inception_4b/3x3_reduce"
  type: "Convolution"
  bottom: "inception_4a/output"
  top: "inception_4b/3x3_reduce"
  param {
    lr_mult: 1
    decay_mult: 1
  }
  param {
    lr_mult: 2
    decay_mult: 0
  }
  convolution_param {
    num_output: 112
    kernel_size: 1
    weight_filler {
      type: "xavier"
    }
    bias_filler {
      type: "constant"
      value: 0.2
    }
  }
}
layer {
  name: "inception_4b/prelu_3x3_reduce"
  type: "PReLU"
  bottom: "inception_4b/3x3_reduce"
  top: "inception_4b/3x3_reduce"
  param {
    lr_mult: 1
    decay_mult: 0
  }
  prelu_param {
    filler {
      type: "constant"
      value: 0.01
    }
  }
}
layer {
  name: "inception_4b/3x3"
  type: "Convolution"
  bottom: "inception_4b/3x3_reduce"
  top: "inception_4b/3x3"
  param {
    lr_mult: 1
    decay_mult: 1
  }
  param {
    lr_mult: 2
    decay_mult: 0
  }
  convolution_param {
    num_output: 224
    pad: 1
    kernel_size: 3
    weight_filler {
      type: "xavier"
    }
    bias_filler {
      type: "constant"
      value: 0.2
    }
  }
}
layer {
  name: "inception_4b/prelu_3x3"
  type: "PReLU"
  bottom: "inception_4b/3x3"
  top: "inception_4b/3x3"
  param {
    lr_mult: 1
    decay_mult: 0
  }
  prelu_param {
    filler {
      type: "constant"
      value: 0.01
    }
  }
}
layer {
  name: "inception_4b/5x5_reduce"
  type: "Convolution"
  bottom: "inception_4a/output"
  top: "inception_4b/5x5_reduce"
  param {
    lr_mult: 1
    decay_mult: 1
  }
  param {
    lr_mult: 2
    decay_mult: 0
  }
  convolution_param {
    num_output: 24
    kernel_size: 1
    weight_filler {
      type: "xavier"
    }
    bias_filler {
      type: "constant"
      value: 0.2
    }
  }
}
layer {
  name: "inception_4b/prelu_5x5_reduce"
  type: "PReLU"
  bottom: "inception_4b/5x5_reduce"
  top: "inception_4b/5x5_reduce"
  param {
    lr_mult: 1
    decay_mult: 0
  }
  prelu_param {
    filler {
      type: "constant"
      value: 0.01
    }
  }
}
layer {
  name: "inception_4b/5x5"
  type: "Convolution"
  bottom: "inception_4b/5x5_reduce"
  top: "inception_4b/5x5"
  param {
    lr_mult: 1
    decay_mult: 1
  }
  param {
    lr_mult: 2
    decay_mult: 0
  }
  convolution_param {
    num_output: 64
    pad: 2
    kernel_size: 5
    weight_filler {
      type: "xavier"
    }
    bias_filler {
      type: "constant"
      value: 0.2
    }
  }
}
layer {
  name: "inception_4b/prelu_5x5"
  type: "PReLU"
  bottom: "inception_4b/5x5"
  top: "inception_4b/5x5"
  param {
    lr_mult: 1
    decay_mult: 0
  }
  prelu_param {
    filler {
      type: "constant"
      value: 0.01
    }
  }
}
layer {
  name: "inception_4b/pool"
  type: "Pooling"
  bottom: "inception_4a/output"
  top: "inception_4b/pool"
  pooling_param {
    pool: MAX
    kernel_size: 3
    stride: 1
    pad: 1
  }
}
layer {
  name: "inception_4b/pool_proj"
  type: "Convolution"
  bottom: "inception_4b/pool"
  top: "inception_4b/pool_proj"
  param {
    lr_mult: 1
    decay_mult: 1
  }
  param {
    lr_mult: 2
    decay_mult: 0
  }
  convolution_param {
    num_output: 64
    kernel_size: 1
    weight_filler {
      type: "xavier"
    }
    bias_filler {
      type: "constant"
      value: 0.2
    }
  }
}
layer {
  name: "inception_4b/prelu_pool_proj"
  type: "PReLU"
  bottom: "inception_4b/pool_proj"
  top: "inception_4b/pool_proj"
  param {
    lr_mult: 1
    decay_mult: 0
  }
  prelu_param {
    filler {
      type: "constant"
      value: 0.01
    }
  }
}
layer {
  name: "inception_4b/output"
  type: "Concat"
  bottom: "inception_4b/1x1"
  bottom: "inception_4b/3x3"
  bottom: "inception_4b/5x5"
  bottom: "inception_4b/pool_proj"
  top: "inception_4b/output"
}
layer {
  name: "inception_4c/1x1"
  type: "Convolution"
  bottom: "inception_4b/output"
  top: "inception_4c/1x1"
  param {
    lr_mult: 1
    decay_mult: 1
  }
  param {
    lr_mult: 2
    decay_mult: 0
  }
  convolution_param {
    num_output: 128
    kernel_size: 1
    weight_filler {
      type: "xavier"
    }
    bias_filler {
      type: "constant"
      value: 0.2
    }
  }
}
layer {
  name: "inception_4c/prelu_1x1"
  type: "PReLU"
  bottom: "inception_4c/1x1"
  top: "inception_4c/1x1"
  param {
    lr_mult: 1
    decay_mult: 0
  }
  prelu_param {
    filler {
      type: "constant"
      value: 0.01
    }
  }
}
layer {
  name: "inception_4c/3x3_reduce"
  type: "Convolution"
  bottom: "inception_4b/output"
  top: "inception_4c/3x3_reduce"
  param {
    lr_mult: 1
    decay_mult: 1
  }
  param {
    lr_mult: 2
    decay_mult: 0
  }
  convolution_param {
    num_output: 128
    kernel_size: 1
    weight_filler {
      type: "xavier"
    }
    bias_filler {
      type: "constant"
      value: 0.2
    }
  }
}
layer {
  name: "inception_4c/prelu_3x3_reduce"
  type: "PReLU"
  bottom: "inception_4c/3x3_reduce"
  top: "inception_4c/3x3_reduce"
  param {
    lr_mult: 1
    decay_mult: 0
  }
  prelu_param {
    filler {
      type: "constant"
      value: 0.01
    }
  }
}
layer {
  name: "inception_4c/3x3"
  type: "Convolution"
  bottom: "inception_4c/3x3_reduce"
  top: "inception_4c/3x3"
  param {
    lr_mult: 1
    decay_mult: 1
  }
  param {
    lr_mult: 2
    decay_mult: 0
  }
  convolution_param {
    num_output: 256
    pad: 1
    kernel_size: 3
    weight_filler {
      type: "xavier"
    }
    bias_filler {
      type: "constant"
      value: 0.2
    }
  }
}
layer {
  name: "inception_4c/prelu_3x3"
  type: "PReLU"
  bottom: "inception_4c/3x3"
  top: "inception_4c/3x3"
  param {
    lr_mult: 1
    decay_mult: 0
  }
  prelu_param {
    filler {
      type: "constant"
      value: 0.01
    }
  }
}
layer {
  name: "inception_4c/5x5_reduce"
  type: "Convolution"
  bottom: "inception_4b/output"
  top: "inception_4c/5x5_reduce"
  param {
    lr_mult: 1
    decay_mult: 1
  }
  param {
    lr_mult: 2
    decay_mult: 0
  }
  convolution_param {
    num_output: 24
    kernel_size: 1
    weight_filler {
      type: "xavier"
    }
    bias_filler {
      type: "constant"
      value: 0.2
    }
  }
}
layer {
  name: "inception_4c/prelu_5x5_reduce"
  type: "PReLU"
  bottom: "inception_4c/5x5_reduce"
  top: "inception_4c/5x5_reduce"
  param {
    lr_mult: 1
    decay_mult: 0
  }
  prelu_param {
    filler {
      type: "constant"
      value: 0.01
    }
  }
}
layer {
  name: "inception_4c/5x5"
  type: "Convolution"
  bottom: "inception_4c/5x5_reduce"
  top: "inception_4c/5x5"
  param {
    lr_mult: 1
    decay_mult: 1
  }
  param {
    lr_mult: 2
    decay_mult: 0
  }
  convolution_param {
    num_output: 64
    pad: 2
    kernel_size: 5
    weight_filler {
      type: "xavier"
    }
    bias_filler {
      type: "constant"
      value: 0.2
    }
  }
}
layer {
  name: "inception_4c/prelu_5x5"
  type: "PReLU"
  bottom: "inception_4c/5x5"
  top: "inception_4c/5x5"
  param {
    lr_mult: 1
    decay_mult: 0
  }
  prelu_param {
    filler {
      type: "constant"
      value: 0.01
    }
  }
}
layer {
  name: "inception_4c/pool"
  type: "Pooling"
  bottom: "inception_4b/output"
  top: "inception_4c/pool"
  pooling_param {
    pool: MAX
    kernel_size: 3
    stride: 1
    pad: 1
  }
}
layer {
  name: "inception_4c/pool_proj"
  type: "Convolution"
  bottom: "inception_4c/pool"
  top: "inception_4c/pool_proj"
  param {
    lr_mult: 1
    decay_mult: 1
  }
  param {
    lr_mult: 2
    decay_mult: 0
  }
  convolution_param {
    num_output: 64
    kernel_size: 1
    weight_filler {
      type: "xavier"
    }
    bias_filler {
      type: "constant"
      value: 0.2
    }
  }
}
layer {
  name: "inception_4c/prelu_pool_proj"
  type: "PReLU"
  bottom: "inception_4c/pool_proj"
  top: "inception_4c/pool_proj"
  param {
    lr_mult: 1
    decay_mult: 0
  }
  prelu_param {
    filler {
      type: "constant"
      value: 0.01
    }
  }
}
layer {
  name: "inception_4c/output"
  type: "Concat"
  bottom: "inception_4c/1x1"
  bottom: "inception_4c/3x3"
  bottom: "inception_4c/5x5"
  bottom: "inception_4c/pool_proj"
  top: "inception_4c/output"
}
layer {
  name: "inception_4d/1x1"
  type: "Convolution"
  bottom: "inception_4c/output"
  top: "inception_4d/1x1"
  param {
    lr_mult: 1
    decay_mult: 1
  }
  param {
    lr_mult: 2
    decay_mult: 0
  }
  convolution_param {
    num_output: 112
    kernel_size: 1
    weight_filler {
      type: "xavier"
    }
    bias_filler {
      type: "constant"
      value: 0.2
    }
  }
}
layer {
  name: "inception_4d/prelu_1x1"
  type: "PReLU"
  bottom: "inception_4d/1x1"
  top: "inception_4d/1x1"
  param {
    lr_mult: 1
    decay_mult: 0
  }
  prelu_param {
    filler {
      type: "constant"
      value: 0.01
    }
  }
}
layer {
  name: "inception_4d/3x3_reduce"
  type: "Convolution"
  bottom: "inception_4c/output"
  top: "inception_4d/3x3_reduce"
  param {
    lr_mult: 1
    decay_mult: 1
  }
  param {
    lr_mult: 2
    decay_mult: 0
  }
  convolution_param {
    num_output: 144
    kernel_size: 1
    weight_filler {
      type: "xavier"
    }
    bias_filler {
      type: "constant"
      value: 0.2
    }
  }
}
layer {
  name: "inception_4d/prelu_3x3_reduce"
  type: "PReLU"
  bottom: "inception_4d/3x3_reduce"
  top: "inception_4d/3x3_reduce"
  param {
    lr_mult: 1
    decay_mult: 0
  }
  prelu_param {
    filler {
      type: "constant"
      value: 0.01
    }
  }
}
layer {
  name: "inception_4d/3x3"
  type: "Convolution"
  bottom: "inception_4d/3x3_reduce"
  top: "inception_4d/3x3"
  param {
    lr_mult: 1
    decay_mult: 1
  }
  param {
    lr_mult: 2
    decay_mult: 0
  }
  convolution_param {
    num_output: 288
    pad: 1
    kernel_size: 3
    weight_filler {
      type: "xavier"
    }
    bias_filler {
      type: "constant"
      value: 0.2
    }
  }
}
layer {
  name: "inception_4d/prelu_3x3"
  type: "PReLU"
  bottom: "inception_4d/3x3"
  top: "inception_4d/3x3"
  param {
    lr_mult: 1
    decay_mult: 0
  }
  prelu_param {
    filler {
      type: "constant"
      value: 0.01
    }
  }
}
layer {
  name: "inception_4d/5x5_reduce"
  type: "Convolution"
  bottom: "inception_4c/output"
  top: "inception_4d/5x5_reduce"
  param {
    lr_mult: 1
    decay_mult: 1
  }
  param {
    lr_mult: 2
    decay_mult: 0
  }
  convolution_param {
    num_output: 32
    kernel_size: 1
    weight_filler {
      type: "xavier"
    }
    bias_filler {
      type: "constant"
      value: 0.2
    }
  }
}
layer {
  name: "inception_4d/prelu_5x5_reduce"
  type: "PReLU"
  bottom: "inception_4d/5x5_reduce"
  top: "inception_4d/5x5_reduce"
  param {
    lr_mult: 1
    decay_mult: 0
  }
  prelu_param {
    filler {
      type: "constant"
      value: 0.01
    }
  }
}
layer {
  name: "inception_4d/5x5"
  type: "Convolution"
  bottom: "inception_4d/5x5_reduce"
  top: "inception_4d/5x5"
  param {
    lr_mult: 1
    decay_mult: 1
  }
  param {
    lr_mult: 2
    decay_mult: 0
  }
  convolution_param {
    num_output: 64
    pad: 2
    kernel_size: 5
    weight_filler {
      type: "xavier"
    }
    bias_filler {
      type: "constant"
      value: 0.2
    }
  }
}
layer {
  name: "inception_4d/prelu_5x5"
  type: "PReLU"
  bottom: "inception_4d/5x5"
  top: "inception_4d/5x5"
  param {
    lr_mult: 1
    decay_mult: 0
  }
  prelu_param {
    filler {
      type: "constant"
      value: 0.01
    }
  }
}
layer {
  name: "inception_4d/pool"
  type: "Pooling"
  bottom: "inception_4c/output"
  top: "inception_4d/pool"
  pooling_param {
    pool: MAX
    kernel_size: 3
    stride: 1
    pad: 1
  }
}
layer {
  name: "inception_4d/pool_proj"
  type: "Convolution"
  bottom: "ince
I1028 13:11:00.819306 28065 layer_factory.hpp:76] Creating layer data
I1028 13:11:00.819689 28065 net.cpp:106] Creating Layer data
I1028 13:11:00.819710 28065 net.cpp:411] data -> data
I1028 13:11:00.819934 28065 net.cpp:411] data -> label
I1028 13:11:00.821307 28069 db_lmdb.cpp:38] Opened lmdb ../../LMDB/train_0-lmdb
I1028 13:11:00.830518 28065 data_layer.cpp:41] output data size: 32,3,224,224
I1028 13:11:00.896906 28065 net.cpp:150] Setting up data
I1028 13:11:00.896958 28065 net.cpp:157] Top shape: 32 3 224 224 (4816896)
I1028 13:11:00.896966 28065 net.cpp:157] Top shape: 32 (32)
I1028 13:11:00.896971 28065 net.cpp:165] Memory required for data: 19267712
I1028 13:11:00.896981 28065 layer_factory.hpp:76] Creating layer label_data_1_split
I1028 13:11:00.896996 28065 net.cpp:106] Creating Layer label_data_1_split
I1028 13:11:00.897011 28065 net.cpp:454] label_data_1_split <- label
I1028 13:11:00.897027 28065 net.cpp:411] label_data_1_split -> label_data_1_split_0
I1028 13:11:00.897055 28065 net.cpp:411] label_data_1_split -> label_data_1_split_1
I1028 13:11:00.897065 28065 net.cpp:411] label_data_1_split -> label_data_1_split_2
I1028 13:11:00.897168 28065 net.cpp:150] Setting up label_data_1_split
I1028 13:11:00.897183 28065 net.cpp:157] Top shape: 32 (32)
I1028 13:11:00.897197 28065 net.cpp:157] Top shape: 32 (32)
I1028 13:11:00.897202 28065 net.cpp:157] Top shape: 32 (32)
I1028 13:11:00.897213 28065 net.cpp:165] Memory required for data: 19268096
I1028 13:11:00.897218 28065 layer_factory.hpp:76] Creating layer conv1/7x7_s2
I1028 13:11:00.897234 28065 net.cpp:106] Creating Layer conv1/7x7_s2
I1028 13:11:00.897240 28065 net.cpp:454] conv1/7x7_s2 <- data
I1028 13:11:00.897246 28065 net.cpp:411] conv1/7x7_s2 -> conv1/7x7_s2
I1028 13:11:01.103770 28065 cudnn_conv_layer.cpp:194] Reallocating workspace storage: 225816
I1028 13:11:01.104061 28065 net.cpp:150] Setting up conv1/7x7_s2
I1028 13:11:01.104076 28065 net.cpp:157] Top shape: 32 64 112 112 (25690112)
I1028 13:11:01.104089 28065 net.cpp:165] Memory required for data: 122028544
I1028 13:11:01.104110 28065 layer_factory.hpp:76] Creating layer conv1/prelu_7x7
I1028 13:11:01.104142 28065 net.cpp:106] Creating Layer conv1/prelu_7x7
I1028 13:11:01.104149 28065 net.cpp:454] conv1/prelu_7x7 <- conv1/7x7_s2
I1028 13:11:01.104157 28065 net.cpp:397] conv1/prelu_7x7 -> conv1/7x7_s2 (in-place)
I1028 13:11:01.105824 28065 net.cpp:150] Setting up conv1/prelu_7x7
I1028 13:11:01.105840 28065 net.cpp:157] Top shape: 32 64 112 112 (25690112)
I1028 13:11:01.105845 28065 net.cpp:165] Memory required for data: 224788992
I1028 13:11:01.105854 28065 layer_factory.hpp:76] Creating layer pool1/3x3_s2
I1028 13:11:01.105866 28065 net.cpp:106] Creating Layer pool1/3x3_s2
I1028 13:11:01.105870 28065 net.cpp:454] pool1/3x3_s2 <- conv1/7x7_s2
I1028 13:11:01.105877 28065 net.cpp:411] pool1/3x3_s2 -> pool1/3x3_s2
I1028 13:11:01.106252 28065 net.cpp:150] Setting up pool1/3x3_s2
I1028 13:11:01.106264 28065 net.cpp:157] Top shape: 32 64 56 56 (6422528)
I1028 13:11:01.106269 28065 net.cpp:165] Memory required for data: 250479104
I1028 13:11:01.106273 28065 layer_factory.hpp:76] Creating layer pool1/norm1
I1028 13:11:01.106286 28065 net.cpp:106] Creating Layer pool1/norm1
I1028 13:11:01.106289 28065 net.cpp:454] pool1/norm1 <- pool1/3x3_s2
I1028 13:11:01.106295 28065 net.cpp:411] pool1/norm1 -> pool1/norm1
I1028 13:11:01.106447 28065 net.cpp:150] Setting up pool1/norm1
I1028 13:11:01.106457 28065 net.cpp:157] Top shape: 32 64 56 56 (6422528)
I1028 13:11:01.106462 28065 net.cpp:165] Memory required for data: 276169216
I1028 13:11:01.106467 28065 layer_factory.hpp:76] Creating layer conv2/3x3_reduce
I1028 13:11:01.106477 28065 net.cpp:106] Creating Layer conv2/3x3_reduce
I1028 13:11:01.106480 28065 net.cpp:454] conv2/3x3_reduce <- pool1/norm1
I1028 13:11:01.106487 28065 net.cpp:411] conv2/3x3_reduce -> conv2/3x3_reduce
I1028 13:11:01.107831 28065 cudnn_conv_layer.cpp:194] Reallocating workspace storage: 63000
I1028 13:11:01.107852 28065 net.cpp:150] Setting up conv2/3x3_reduce
I1028 13:11:01.107861 28065 net.cpp:157] Top shape: 32 64 56 56 (6422528)
I1028 13:11:01.107864 28065 net.cpp:165] Memory required for data: 301859328
I1028 13:11:01.107874 28065 layer_factory.hpp:76] Creating layer conv2/prelu_3x3_reduce
I1028 13:11:01.107882 28065 net.cpp:106] Creating Layer conv2/prelu_3x3_reduce
I1028 13:11:01.107889 28065 net.cpp:454] conv2/prelu_3x3_reduce <- conv2/3x3_reduce
I1028 13:11:01.107903 28065 net.cpp:397] conv2/prelu_3x3_reduce -> conv2/3x3_reduce (in-place)
I1028 13:11:01.108525 28065 net.cpp:150] Setting up conv2/prelu_3x3_reduce
I1028 13:11:01.108538 28065 net.cpp:157] Top shape: 32 64 56 56 (6422528)
I1028 13:11:01.108542 28065 net.cpp:165] Memory required for data: 327549440
I1028 13:11:01.108548 28065 layer_factory.hpp:76] Creating layer conv2/3x3
I1028 13:11:01.108558 28065 net.cpp:106] Creating Layer conv2/3x3
I1028 13:11:01.108563 28065 net.cpp:454] conv2/3x3 <- conv2/3x3_reduce
I1028 13:11:01.108571 28065 net.cpp:411] conv2/3x3 -> conv2/3x3
I1028 13:11:01.110514 28065 cudnn_conv_layer.cpp:194] Reallocating workspace storage: 63000
I1028 13:11:01.110538 28065 net.cpp:150] Setting up conv2/3x3
I1028 13:11:01.110544 28065 net.cpp:157] Top shape: 32 192 56 56 (19267584)
I1028 13:11:01.110548 28065 net.cpp:165] Memory required for data: 404619776
I1028 13:11:01.110556 28065 layer_factory.hpp:76] Creating layer conv2/prelu_3x3
I1028 13:11:01.110564 28065 net.cpp:106] Creating Layer conv2/prelu_3x3
I1028 13:11:01.110571 28065 net.cpp:454] conv2/prelu_3x3 <- conv2/3x3
I1028 13:11:01.110577 28065 net.cpp:397] conv2/prelu_3x3 -> conv2/3x3 (in-place)
I1028 13:11:01.111672 28065 net.cpp:150] Setting up conv2/prelu_3x3
I1028 13:11:01.111685 28065 net.cpp:157] Top shape: 32 192 56 56 (19267584)
I1028 13:11:01.111690 28065 net.cpp:165] Memory required for data: 481690112
I1028 13:11:01.111716 28065 layer_factory.hpp:76] Creating layer conv2/norm2
I1028 13:11:01.111726 28065 net.cpp:106] Creating Layer conv2/norm2
I1028 13:11:01.111732 28065 net.cpp:454] conv2/norm2 <- conv2/3x3
I1028 13:11:01.111737 28065 net.cpp:411] conv2/norm2 -> conv2/norm2
I1028 13:11:01.111927 28065 net.cpp:150] Setting up conv2/norm2
I1028 13:11:01.111935 28065 net.cpp:157] Top shape: 32 192 56 56 (19267584)
I1028 13:11:01.111940 28065 net.cpp:165] Memory required for data: 558760448
I1028 13:11:01.111944 28065 layer_factory.hpp:76] Creating layer pool2/3x3_s2
I1028 13:11:01.111951 28065 net.cpp:106] Creating Layer pool2/3x3_s2
I1028 13:11:01.111955 28065 net.cpp:454] pool2/3x3_s2 <- conv2/norm2
I1028 13:11:01.111964 28065 net.cpp:411] pool2/3x3_s2 -> pool2/3x3_s2
I1028 13:11:01.112332 28065 net.cpp:150] Setting up pool2/3x3_s2
I1028 13:11:01.112344 28065 net.cpp:157] Top shape: 32 192 28 28 (4816896)
I1028 13:11:01.112347 28065 net.cpp:165] Memory required for data: 578028032
I1028 13:11:01.112351 28065 layer_factory.hpp:76] Creating layer pool2/3x3_s2_pool2/3x3_s2_0_split
I1028 13:11:01.112359 28065 net.cpp:106] Creating Layer pool2/3x3_s2_pool2/3x3_s2_0_split
I1028 13:11:01.112362 28065 net.cpp:454] pool2/3x3_s2_pool2/3x3_s2_0_split <- pool2/3x3_s2
I1028 13:11:01.112370 28065 net.cpp:411] pool2/3x3_s2_pool2/3x3_s2_0_split -> pool2/3x3_s2_pool2/3x3_s2_0_split_0
I1028 13:11:01.112376 28065 net.cpp:411] pool2/3x3_s2_pool2/3x3_s2_0_split -> pool2/3x3_s2_pool2/3x3_s2_0_split_1
I1028 13:11:01.112382 28065 net.cpp:411] pool2/3x3_s2_pool2/3x3_s2_0_split -> pool2/3x3_s2_pool2/3x3_s2_0_split_2
I1028 13:11:01.112390 28065 net.cpp:411] pool2/3x3_s2_pool2/3x3_s2_0_split -> pool2/3x3_s2_pool2/3x3_s2_0_split_3
I1028 13:11:01.112439 28065 net.cpp:150] Setting up pool2/3x3_s2_pool2/3x3_s2_0_split
I1028 13:11:01.112463 28065 net.cpp:157] Top shape: 32 192 28 28 (4816896)
I1028 13:11:01.112468 28065 net.cpp:157] Top shape: 32 192 28 28 (4816896)
I1028 13:11:01.112473 28065 net.cpp:157] Top shape: 32 192 28 28 (4816896)
I1028 13:11:01.112479 28065 net.cpp:157] Top shape: 32 192 28 28 (4816896)
I1028 13:11:01.112483 28065 net.cpp:165] Memory required for data: 655098368
I1028 13:11:01.112503 28065 layer_factory.hpp:76] Creating layer inception_3a/1x1
I1028 13:11:01.112511 28065 net.cpp:106] Creating Layer inception_3a/1x1
I1028 13:11:01.112516 28065 net.cpp:454] inception_3a/1x1 <- pool2/3x3_s2_pool2/3x3_s2_0_split_0
I1028 13:11:01.112522 28065 net.cpp:411] inception_3a/1x1 -> inception_3a/1x1
I1028 13:11:01.114004 28065 cudnn_conv_layer.cpp:194] Reallocating workspace storage: 20664
I1028 13:11:01.114038 28065 net.cpp:150] Setting up inception_3a/1x1
I1028 13:11:01.114048 28065 net.cpp:157] Top shape: 32 64 28 28 (1605632)
I1028 13:11:01.114053 28065 net.cpp:165] Memory required for data: 661520896
I1028 13:11:01.114063 28065 layer_factory.hpp:76] Creating layer inception_3a/prelu_1x1
I1028 13:11:01.114073 28065 net.cpp:106] Creating Layer inception_3a/prelu_1x1
I1028 13:11:01.114078 28065 net.cpp:454] inception_3a/prelu_1x1 <- inception_3a/1x1
I1028 13:11:01.114084 28065 net.cpp:397] inception_3a/prelu_1x1 -> inception_3a/1x1 (in-place)
I1028 13:11:01.114612 28065 net.cpp:150] Setting up inception_3a/prelu_1x1
I1028 13:11:01.114624 28065 net.cpp:157] Top shape: 32 64 28 28 (1605632)
I1028 13:11:01.114629 28065 net.cpp:165] Memory required for data: 667943424
I1028 13:11:01.114634 28065 layer_factory.hpp:76] Creating layer inception_3a/3x3_reduce
I1028 13:11:01.114645 28065 net.cpp:106] Creating Layer inception_3a/3x3_reduce
I1028 13:11:01.114650 28065 net.cpp:454] inception_3a/3x3_reduce <- pool2/3x3_s2_pool2/3x3_s2_0_split_1
I1028 13:11:01.114656 28065 net.cpp:411] inception_3a/3x3_reduce -> inception_3a/3x3_reduce
I1028 13:11:01.115550 28065 cudnn_conv_layer.cpp:194] Reallocating workspace storage: 20664
I1028 13:11:01.115571 28065 net.cpp:150] Setting up inception_3a/3x3_reduce
I1028 13:11:01.115579 28065 net.cpp:157] Top shape: 32 96 28 28 (2408448)
I1028 13:11:01.115583 28065 net.cpp:165] Memory required for data: 677577216
I1028 13:11:01.115600 28065 layer_factory.hpp:76] Creating layer inception_3a/prelu_3x3_reduce
I1028 13:11:01.115612 28065 net.cpp:106] Creating Layer inception_3a/prelu_3x3_reduce
I1028 13:11:01.115617 28065 net.cpp:454] inception_3a/prelu_3x3_reduce <- inception_3a/3x3_reduce
I1028 13:11:01.115625 28065 net.cpp:397] inception_3a/prelu_3x3_reduce -> inception_3a/3x3_reduce (in-place)
I1028 13:11:01.115769 28065 net.cpp:150] Setting up inception_3a/prelu_3x3_reduce
I1028 13:11:01.115778 28065 net.cpp:157] Top shape: 32 96 28 28 (2408448)
I1028 13:11:01.115784 28065 net.cpp:165] Memory required for data: 687211008
I1028 13:11:01.115789 28065 layer_factory.hpp:76] Creating layer inception_3a/3x3
I1028 13:11:01.115797 28065 net.cpp:106] Creating Layer inception_3a/3x3
I1028 13:11:01.115802 28065 net.cpp:454] inception_3a/3x3 <- inception_3a/3x3_reduce
I1028 13:11:01.115809 28065 net.cpp:411] inception_3a/3x3 -> inception_3a/3x3
I1028 13:11:01.118000 28065 cudnn_conv_layer.cpp:194] Reallocating workspace storage: 20664
I1028 13:11:01.118037 28065 net.cpp:150] Setting up inception_3a/3x3
I1028 13:11:01.118049 28065 net.cpp:157] Top shape: 32 128 28 28 (3211264)
I1028 13:11:01.118053 28065 net.cpp:165] Memory required for data: 700056064
I1028 13:11:01.118067 28065 layer_factory.hpp:76] Creating layer inception_3a/prelu_3x3
I1028 13:11:01.118077 28065 net.cpp:106] Creating Layer inception_3a/prelu_3x3
I1028 13:11:01.118082 28065 net.cpp:454] inception_3a/prelu_3x3 <- inception_3a/3x3
I1028 13:11:01.118088 28065 net.cpp:397] inception_3a/prelu_3x3 -> inception_3a/3x3 (in-place)
I1028 13:11:01.118211 28065 net.cpp:150] Setting up inception_3a/prelu_3x3
I1028 13:11:01.118221 28065 net.cpp:157] Top shape: 32 128 28 28 (3211264)
I1028 13:11:01.118226 28065 net.cpp:165] Memory required for data: 712901120
I1028 13:11:01.118232 28065 layer_factory.hpp:76] Creating layer inception_3a/5x5_reduce
I1028 13:11:01.118240 28065 net.cpp:106] Creating Layer inception_3a/5x5_reduce
I1028 13:11:01.118247 28065 net.cpp:454] inception_3a/5x5_reduce <- pool2/3x3_s2_pool2/3x3_s2_0_split_2
I1028 13:11:01.118254 28065 net.cpp:411] inception_3a/5x5_reduce -> inception_3a/5x5_reduce
I1028 13:11:01.119441 28065 cudnn_conv_layer.cpp:194] Reallocating workspace storage: 20664
I1028 13:11:01.119465 28065 net.cpp:150] Setting up inception_3a/5x5_reduce
I1028 13:11:01.119474 28065 net.cpp:157] Top shape: 32 16 28 28 (401408)
I1028 13:11:01.119478 28065 net.cpp:165] Memory required for data: 714506752
I1028 13:11:01.119488 28065 layer_factory.hpp:76] Creating layer inception_3a/prelu_5x5_reduce
I1028 13:11:01.119498 28065 net.cpp:106] Creating Layer inception_3a/prelu_5x5_reduce
I1028 13:11:01.119504 28065 net.cpp:454] inception_3a/prelu_5x5_reduce <- inception_3a/5x5_reduce
I1028 13:11:01.119510 28065 net.cpp:397] inception_3a/prelu_5x5_reduce -> inception_3a/5x5_reduce (in-place)
I1028 13:11:01.119598 28065 net.cpp:150] Setting up inception_3a/prelu_5x5_reduce
I1028 13:11:01.119607 28065 net.cpp:157] Top shape: 32 16 28 28 (401408)
I1028 13:11:01.119611 28065 net.cpp:165] Memory required for data: 716112384
I1028 13:11:01.119617 28065 layer_factory.hpp:76] Creating layer inception_3a/5x5
I1028 13:11:01.119627 28065 net.cpp:106] Creating Layer inception_3a/5x5
I1028 13:11:01.119632 28065 net.cpp:454] inception_3a/5x5 <- inception_3a/5x5_reduce
I1028 13:11:01.119638 28065 net.cpp:411] inception_3a/5x5 -> inception_3a/5x5
I1028 13:11:01.120795 28065 cudnn_conv_layer.cpp:194] Reallocating workspace storage: 20664
I1028 13:11:01.120817 28065 net.cpp:150] Setting up inception_3a/5x5
I1028 13:11:01.120826 28065 net.cpp:157] Top shape: 32 32 28 28 (802816)
I1028 13:11:01.120829 28065 net.cpp:165] Memory required for data: 719323648
I1028 13:11:01.120836 28065 layer_factory.hpp:76] Creating layer inception_3a/prelu_5x5
I1028 13:11:01.120847 28065 net.cpp:106] Creating Layer inception_3a/prelu_5x5
I1028 13:11:01.120852 28065 net.cpp:454] inception_3a/prelu_5x5 <- inception_3a/5x5
I1028 13:11:01.120859 28065 net.cpp:397] inception_3a/prelu_5x5 -> inception_3a/5x5 (in-place)
I1028 13:11:01.120995 28065 net.cpp:150] Setting up inception_3a/prelu_5x5
I1028 13:11:01.121006 28065 net.cpp:157] Top shape: 32 32 28 28 (802816)
I1028 13:11:01.121009 28065 net.cpp:165] Memory required for data: 722534912
I1028 13:11:01.121014 28065 layer_factory.hpp:76] Creating layer inception_3a/pool
I1028 13:11:01.121021 28065 net.cpp:106] Creating Layer inception_3a/pool
I1028 13:11:01.121026 28065 net.cpp:454] inception_3a/pool <- pool2/3x3_s2_pool2/3x3_s2_0_split_3
I1028 13:11:01.121033 28065 net.cpp:411] inception_3a/pool -> inception_3a/pool
I1028 13:11:01.121235 28065 net.cpp:150] Setting up inception_3a/pool
I1028 13:11:01.121247 28065 net.cpp:157] Top shape: 32 192 28 28 (4816896)
I1028 13:11:01.121250 28065 net.cpp:165] Memory required for data: 741802496
I1028 13:11:01.121254 28065 layer_factory.hpp:76] Creating layer inception_3a/pool_proj
I1028 13:11:01.121264 28065 net.cpp:106] Creating Layer inception_3a/pool_proj
I1028 13:11:01.121268 28065 net.cpp:454] inception_3a/pool_proj <- inception_3a/pool
I1028 13:11:01.121276 28065 net.cpp:411] inception_3a/pool_proj -> inception_3a/pool_proj
I1028 13:11:01.122289 28065 cudnn_conv_layer.cpp:194] Reallocating workspace storage: 20664
I1028 13:11:01.122308 28065 net.cpp:150] Setting up inception_3a/pool_proj
I1028 13:11:01.122315 28065 net.cpp:157] Top shape: 32 32 28 28 (802816)
I1028 13:11:01.122319 28065 net.cpp:165] Memory required for data: 745013760
I1028 13:11:01.122326 28065 layer_factory.hpp:76] Creating layer inception_3a/prelu_pool_proj
I1028 13:11:01.122336 28065 net.cpp:106] Creating Layer inception_3a/prelu_pool_proj
I1028 13:11:01.122341 28065 net.cpp:454] inception_3a/prelu_pool_proj <- inception_3a/pool_proj
I1028 13:11:01.122349 28065 net.cpp:397] inception_3a/prelu_pool_proj -> inception_3a/pool_proj (in-place)
I1028 13:11:01.122437 28065 net.cpp:150] Setting up inception_3a/prelu_pool_proj
I1028 13:11:01.122447 28065 net.cpp:157] Top shape: 32 32 28 28 (802816)
I1028 13:11:01.122450 28065 net.cpp:165] Memory required for data: 748225024
I1028 13:11:01.122457 28065 layer_factory.hpp:76] Creating layer inception_3a/output
I1028 13:11:01.122467 28065 net.cpp:106] Creating Layer inception_3a/output
I1028 13:11:01.122472 28065 net.cpp:454] inception_3a/output <- inception_3a/1x1
I1028 13:11:01.122478 28065 net.cpp:454] inception_3a/output <- inception_3a/3x3
I1028 13:11:01.122483 28065 net.cpp:454] inception_3a/output <- inception_3a/5x5
I1028 13:11:01.122488 28065 net.cpp:454] inception_3a/output <- inception_3a/pool_proj
I1028 13:11:01.122493 28065 net.cpp:411] inception_3a/output -> inception_3a/output
I1028 13:11:01.122519 28065 net.cpp:150] Setting up inception_3a/output
I1028 13:11:01.122529 28065 net.cpp:157] Top shape: 32 256 28 28 (6422528)
I1028 13:11:01.122534 28065 net.cpp:165] Memory required for data: 773915136
I1028 13:11:01.122537 28065 layer_factory.hpp:76] Creating layer inception_3a/output_inception_3a/output_0_split
I1028 13:11:01.122545 28065 net.cpp:106] Creating Layer inception_3a/output_inception_3a/output_0_split
I1028 13:11:01.122548 28065 net.cpp:454] inception_3a/output_inception_3a/output_0_split <- inception_3a/output
I1028 13:11:01.122553 28065 net.cpp:411] inception_3a/output_inception_3a/output_0_split -> inception_3a/output_inception_3a/output_0_split_0
I1028 13:11:01.122561 28065 net.cpp:411] inception_3a/output_inception_3a/output_0_split -> inception_3a/output_inception_3a/output_0_split_1
I1028 13:11:01.122568 28065 net.cpp:411] inception_3a/output_inception_3a/output_0_split -> inception_3a/output_inception_3a/output_0_split_2
I1028 13:11:01.122575 28065 net.cpp:411] inception_3a/output_inception_3a/output_0_split -> inception_3a/output_inception_3a/output_0_split_3
I1028 13:11:01.122622 28065 net.cpp:150] Setting up inception_3a/output_inception_3a/output_0_split
I1028 13:11:01.122630 28065 net.cpp:157] Top shape: 32 256 28 28 (6422528)
I1028 13:11:01.122635 28065 net.cpp:157] Top shape: 32 256 28 28 (6422528)
I1028 13:11:01.122639 28065 net.cpp:157] Top shape: 32 256 28 28 (6422528)
I1028 13:11:01.122655 28065 net.cpp:157] Top shape: 32 256 28 28 (6422528)
I1028 13:11:01.122660 28065 net.cpp:165] Memory required for data: 876675584
I1028 13:11:01.122664 28065 layer_factory.hpp:76] Creating layer inception_3b/1x1
I1028 13:11:01.122673 28065 net.cpp:106] Creating Layer inception_3b/1x1
I1028 13:11:01.122678 28065 net.cpp:454] inception_3b/1x1 <- inception_3a/output_inception_3a/output_0_split_0
I1028 13:11:01.122684 28065 net.cpp:411] inception_3b/1x1 -> inception_3b/1x1
I1028 13:11:01.123848 28065 cudnn_conv_layer.cpp:194] Reallocating workspace storage: 20664
I1028 13:11:01.123867 28065 net.cpp:150] Setting up inception_3b/1x1
I1028 13:11:01.123873 28065 net.cpp:157] Top shape: 32 128 28 28 (3211264)
I1028 13:11:01.123878 28065 net.cpp:165] Memory required for data: 889520640
I1028 13:11:01.123884 28065 layer_factory.hpp:76] Creating layer inception_3b/prelu_1x1
I1028 13:11:01.123893 28065 net.cpp:106] Creating Layer inception_3b/prelu_1x1
I1028 13:11:01.123898 28065 net.cpp:454] inception_3b/prelu_1x1 <- inception_3b/1x1
I1028 13:11:01.123904 28065 net.cpp:397] inception_3b/prelu_1x1 -> inception_3b/1x1 (in-place)
I1028 13:11:01.124469 28065 net.cpp:150] Setting up inception_3b/prelu_1x1
I1028 13:11:01.124480 28065 net.cpp:157] Top shape: 32 128 28 28 (3211264)
I1028 13:11:01.124485 28065 net.cpp:165] Memory required for data: 902365696
I1028 13:11:01.124490 28065 layer_factory.hpp:76] Creating layer inception_3b/3x3_reduce
I1028 13:11:01.124500 28065 net.cpp:106] Creating Layer inception_3b/3x3_reduce
I1028 13:11:01.124505 28065 net.cpp:454] inception_3b/3x3_reduce <- inception_3a/output_inception_3a/output_0_split_1
I1028 13:11:01.124512 28065 net.cpp:411] inception_3b/3x3_reduce -> inception_3b/3x3_reduce
I1028 13:11:01.125632 28065 cudnn_conv_layer.cpp:194] Reallocating workspace storage: 20664
I1028 13:11:01.125648 28065 net.cpp:150] Setting up inception_3b/3x3_reduce
I1028 13:11:01.125655 28065 net.cpp:157] Top shape: 32 128 28 28 (3211264)
I1028 13:11:01.125659 28065 net.cpp:165] Memory required for data: 915210752
I1028 13:11:01.125669 28065 layer_factory.hpp:76] Creating layer inception_3b/prelu_3x3_reduce
I1028 13:11:01.125677 28065 net.cpp:106] Creating Layer inception_3b/prelu_3x3_reduce
I1028 13:11:01.125681 28065 net.cpp:454] inception_3b/prelu_3x3_reduce <- inception_3b/3x3_reduce
I1028 13:11:01.125689 28065 net.cpp:397] inception_3b/prelu_3x3_reduce -> inception_3b/3x3_reduce (in-place)
I1028 13:11:01.125804 28065 net.cpp:150] Setting up inception_3b/prelu_3x3_reduce
I1028 13:11:01.125814 28065 net.cpp:157] Top shape: 32 128 28 28 (3211264)
I1028 13:11:01.125818 28065 net.cpp:165] Memory required for data: 928055808
I1028 13:11:01.125829 28065 layer_factory.hpp:76] Creating layer inception_3b/3x3
I1028 13:11:01.125841 28065 net.cpp:106] Creating Layer inception_3b/3x3
I1028 13:11:01.125846 28065 net.cpp:454] inception_3b/3x3 <- inception_3b/3x3_reduce
I1028 13:11:01.125854 28065 net.cpp:411] inception_3b/3x3 -> inception_3b/3x3
I1028 13:11:01.128489 28065 cudnn_conv_layer.cpp:194] Reallocating workspace storage: 20664
I1028 13:11:01.128509 28065 net.cpp:150] Setting up inception_3b/3x3
I1028 13:11:01.128515 28065 net.cpp:157] Top shape: 32 192 28 28 (4816896)
I1028 13:11:01.128520 28065 net.cpp:165] Memory required for data: 947323392
I1028 13:11:01.128526 28065 layer_factory.hpp:76] Creating layer inception_3b/prelu_3x3
I1028 13:11:01.128535 28065 net.cpp:106] Creating Layer inception_3b/prelu_3x3
I1028 13:11:01.128540 28065 net.cpp:454] inception_3b/prelu_3x3 <- inception_3b/3x3
I1028 13:11:01.128546 28065 net.cpp:397] inception_3b/prelu_3x3 -> inception_3b/3x3 (in-place)
I1028 13:11:01.129135 28065 net.cpp:150] Setting up inception_3b/prelu_3x3
I1028 13:11:01.129148 28065 net.cpp:157] Top shape: 32 192 28 28 (4816896)
I1028 13:11:01.129151 28065 net.cpp:165] Memory required for data: 966590976
I1028 13:11:01.129156 28065 layer_factory.hpp:76] Creating layer inception_3b/5x5_reduce
I1028 13:11:01.129166 28065 net.cpp:106] Creating Layer inception_3b/5x5_reduce
I1028 13:11:01.129171 28065 net.cpp:454] inception_3b/5x5_reduce <- inception_3a/output_inception_3a/output_0_split_2
I1028 13:11:01.129192 28065 net.cpp:411] inception_3b/5x5_reduce -> inception_3b/5x5_reduce
I1028 13:11:01.130012 28065 cudnn_conv_layer.cpp:194] Reallocating workspace storage: 20664
I1028 13:11:01.130054 28065 net.cpp:150] Setting up inception_3b/5x5_reduce
I1028 13:11:01.130062 28065 net.cpp:157] Top shape: 32 32 28 28 (802816)
I1028 13:11:01.130066 28065 net.cpp:165] Memory required for data: 969802240
I1028 13:11:01.130074 28065 layer_factory.hpp:76] Creating layer inception_3b/prelu_5x5_reduce
I1028 13:11:01.130084 28065 net.cpp:106] Creating Layer inception_3b/prelu_5x5_reduce
I1028 13:11:01.130105 28065 net.cpp:454] inception_3b/prelu_5x5_reduce <- inception_3b/5x5_reduce
I1028 13:11:01.130111 28065 net.cpp:397] inception_3b/prelu_5x5_reduce -> inception_3b/5x5_reduce (in-place)
I1028 13:11:01.130228 28065 net.cpp:150] Setting up inception_3b/prelu_5x5_reduce
I1028 13:11:01.130237 28065 net.cpp:157] Top shape: 32 32 28 28 (802816)
I1028 13:11:01.130240 28065 net.cpp:165] Memory required for data: 973013504
I1028 13:11:01.130245 28065 layer_factory.hpp:76] Creating layer inception_3b/5x5
I1028 13:11:01.130254 28065 net.cpp:106] Creating Layer inception_3b/5x5
I1028 13:11:01.130259 28065 net.cpp:454] inception_3b/5x5 <- inception_3b/5x5_reduce
I1028 13:11:01.130266 28065 net.cpp:411] inception_3b/5x5 -> inception_3b/5x5
I1028 13:11:01.131646 28065 cudnn_conv_layer.cpp:194] Reallocating workspace storage: 20664
I1028 13:11:01.131664 28065 net.cpp:150] Setting up inception_3b/5x5
I1028 13:11:01.131674 28065 net.cpp:157] Top shape: 32 96 28 28 (2408448)
I1028 13:11:01.131677 28065 net.cpp:165] Memory required for data: 982647296
I1028 13:11:01.131685 28065 layer_factory.hpp:76] Creating layer inception_3b/prelu_5x5
I1028 13:11:01.131692 28065 net.cpp:106] Creating Layer inception_3b/prelu_5x5
I1028 13:11:01.131696 28065 net.cpp:454] inception_3b/prelu_5x5 <- inception_3b/5x5
I1028 13:11:01.131705 28065 net.cpp:397] inception_3b/prelu_5x5 -> inception_3b/5x5 (in-place)
I1028 13:11:01.131863 28065 net.cpp:150] Setting up inception_3b/prelu_5x5
I1028 13:11:01.131875 28065 net.cpp:157] Top shape: 32 96 28 28 (2408448)
I1028 13:11:01.131880 28065 net.cpp:165] Memory required for data: 992281088
I1028 13:11:01.131885 28065 layer_factory.hpp:76] Creating layer inception_3b/pool
I1028 13:11:01.131891 28065 net.cpp:106] Creating Layer inception_3b/pool
I1028 13:11:01.131896 28065 net.cpp:454] inception_3b/pool <- inception_3a/output_inception_3a/output_0_split_3
I1028 13:11:01.131903 28065 net.cpp:411] inception_3b/pool -> inception_3b/pool
I1028 13:11:01.132292 28065 net.cpp:150] Setting up inception_3b/pool
I1028 13:11:01.132303 28065 net.cpp:157] Top shape: 32 256 28 28 (6422528)
I1028 13:11:01.132319 28065 net.cpp:165] Memory required for data: 1017971200
I1028 13:11:01.132331 28065 layer_factory.hpp:76] Creating layer inception_3b/pool_proj
I1028 13:11:01.132340 28065 net.cpp:106] Creating Layer inception_3b/pool_proj
I1028 13:11:01.132345 28065 net.cpp:454] inception_3b/pool_proj <- inception_3b/pool
I1028 13:11:01.132352 28065 net.cpp:411] inception_3b/pool_proj -> inception_3b/pool_proj
I1028 13:11:01.133610 28065 cudnn_conv_layer.cpp:194] Reallocating workspace storage: 20664
I1028 13:11:01.133644 28065 net.cpp:150] Setting up inception_3b/pool_proj
I1028 13:11:01.133653 28065 net.cpp:157] Top shape: 32 64 28 28 (1605632)
I1028 13:11:01.133657 28065 net.cpp:165] Memory required for data: 1024393728
I1028 13:11:01.133666 28065 layer_factory.hpp:76] Creating layer inception_3b/prelu_pool_proj
I1028 13:11:01.133682 28065 net.cpp:106] Creating Layer inception_3b/prelu_pool_proj
I1028 13:11:01.133692 28065 net.cpp:454] inception_3b/prelu_pool_proj <- inception_3b/pool_proj
I1028 13:11:01.133708 28065 net.cpp:397] inception_3b/prelu_pool_proj -> inception_3b/pool_proj (in-place)
I1028 13:11:01.133870 28065 net.cpp:150] Setting up inception_3b/prelu_pool_proj
I1028 13:11:01.133883 28065 net.cpp:157] Top shape: 32 64 28 28 (1605632)
I1028 13:11:01.133906 28065 net.cpp:165] Memory required for data: 1030816256
I1028 13:11:01.133919 28065 layer_factory.hpp:76] Creating layer inception_3b/output
I1028 13:11:01.133931 28065 net.cpp:106] Creating Layer inception_3b/output
I1028 13:11:01.133939 28065 net.cpp:454] inception_3b/output <- inception_3b/1x1
I1028 13:11:01.133945 28065 net.cpp:454] inception_3b/output <- inception_3b/3x3
I1028 13:11:01.133951 28065 net.cpp:454] inception_3b/output <- inception_3b/5x5
I1028 13:11:01.133955 28065 net.cpp:454] inception_3b/output <- inception_3b/pool_proj
I1028 13:11:01.133994 28065 net.cpp:411] inception_3b/output -> inception_3b/output
I1028 13:11:01.134064 28065 net.cpp:150] Setting up inception_3b/output
I1028 13:11:01.134073 28065 net.cpp:157] Top shape: 32 480 28 28 (12042240)
I1028 13:11:01.134078 28065 net.cpp:165] Memory required for data: 1078985216
I1028 13:11:01.134081 28065 layer_factory.hpp:76] Creating layer pool3/3x3_s2
I1028 13:11:01.134090 28065 net.cpp:106] Creating Layer pool3/3x3_s2
I1028 13:11:01.134096 28065 net.cpp:454] pool3/3x3_s2 <- inception_3b/output
I1028 13:11:01.134112 28065 net.cpp:411] pool3/3x3_s2 -> pool3/3x3_s2
I1028 13:11:01.134522 28065 net.cpp:150] Setting up pool3/3x3_s2
I1028 13:11:01.134533 28065 net.cpp:157] Top shape: 32 480 14 14 (3010560)
I1028 13:11:01.134538 28065 net.cpp:165] Memory required for data: 1091027456
I1028 13:11:01.134542 28065 layer_factory.hpp:76] Creating layer pool3/3x3_s2_pool3/3x3_s2_0_split
I1028 13:11:01.134549 28065 net.cpp:106] Creating Layer pool3/3x3_s2_pool3/3x3_s2_0_split
I1028 13:11:01.134554 28065 net.cpp:454] pool3/3x3_s2_pool3/3x3_s2_0_split <- pool3/3x3_s2
I1028 13:11:01.134563 28065 net.cpp:411] pool3/3x3_s2_pool3/3x3_s2_0_split -> pool3/3x3_s2_pool3/3x3_s2_0_split_0
I1028 13:11:01.134570 28065 net.cpp:411] pool3/3x3_s2_pool3/3x3_s2_0_split -> pool3/3x3_s2_pool3/3x3_s2_0_split_1
I1028 13:11:01.134577 28065 net.cpp:411] pool3/3x3_s2_pool3/3x3_s2_0_split -> pool3/3x3_s2_pool3/3x3_s2_0_split_2
I1028 13:11:01.134583 28065 net.cpp:411] pool3/3x3_s2_pool3/3x3_s2_0_split -> pool3/3x3_s2_pool3/3x3_s2_0_split_3
I1028 13:11:01.134635 28065 net.cpp:150] Setting up pool3/3x3_s2_pool3/3x3_s2_0_split
I1028 13:11:01.134645 28065 net.cpp:157] Top shape: 32 480 14 14 (3010560)
I1028 13:11:01.134650 28065 net.cpp:157] Top shape: 32 480 14 14 (3010560)
I1028 13:11:01.134655 28065 net.cpp:157] Top shape: 32 480 14 14 (3010560)
I1028 13:11:01.134660 28065 net.cpp:157] Top shape: 32 480 14 14 (3010560)
I1028 13:11:01.134663 28065 net.cpp:165] Memory required for data: 1139196416
I1028 13:11:01.134670 28065 layer_factory.hpp:76] Creating layer inception_4a/1x1
I1028 13:11:01.134677 28065 net.cpp:106] Creating Layer inception_4a/1x1
I1028 13:11:01.134682 28065 net.cpp:454] inception_4a/1x1 <- pool3/3x3_s2_pool3/3x3_s2_0_split_0
I1028 13:11:01.134692 28065 net.cpp:411] inception_4a/1x1 -> inception_4a/1x1
I1028 13:11:01.136723 28065 cudnn_conv_layer.cpp:194] Reallocating workspace storage: 10080
I1028 13:11:01.136935 28065 net.cpp:150] Setting up inception_4a/1x1
I1028 13:11:01.136948 28065 net.cpp:157] Top shape: 32 192 14 14 (1204224)
I1028 13:11:01.136955 28065 net.cpp:165] Memory required for data: 1144013312
I1028 13:11:01.136965 28065 layer_factory.hpp:76] Creating layer inception_4a/prelu_1x1
I1028 13:11:01.136976 28065 net.cpp:106] Creating Layer inception_4a/prelu_1x1
I1028 13:11:01.136982 28065 net.cpp:454] inception_4a/prelu_1x1 <- inception_4a/1x1
I1028 13:11:01.136989 28065 net.cpp:397] inception_4a/prelu_1x1 -> inception_4a/1x1 (in-place)
I1028 13:11:01.137588 28065 net.cpp:150] Setting up inception_4a/prelu_1x1
I1028 13:11:01.137604 28065 net.cpp:157] Top shape: 32 192 14 14 (1204224)
I1028 13:11:01.137609 28065 net.cpp:165] Memory required for data: 1148830208
I1028 13:11:01.137616 28065 layer_factory.hpp:76] Creating layer inception_4a/3x3_reduce
I1028 13:11:01.137629 28065 net.cpp:106] Creating Layer inception_4a/3x3_reduce
I1028 13:11:01.137634 28065 net.cpp:454] inception_4a/3x3_reduce <- pool3/3x3_s2_pool3/3x3_s2_0_split_1
I1028 13:11:01.137641 28065 net.cpp:411] inception_4a/3x3_reduce -> inception_4a/3x3_reduce
I1028 13:11:01.138984 28065 cudnn_conv_layer.cpp:194] Reallocating workspace storage: 10080
I1028 13:11:01.139014 28065 net.cpp:150] Setting up inception_4a/3x3_reduce
I1028 13:11:01.139022 28065 net.cpp:157] Top shape: 32 96 14 14 (602112)
I1028 13:11:01.139029 28065 net.cpp:165] Memory required for data: 1151238656
I1028 13:11:01.139035 28065 layer_factory.hpp:76] Creating layer inception_4a/prelu_3x3_reduce
I1028 13:11:01.139053 28065 net.cpp:106] Creating Layer inception_4a/prelu_3x3_reduce
I1028 13:11:01.139060 28065 net.cpp:454] inception_4a/prelu_3x3_reduce <- inception_4a/3x3_reduce
I1028 13:11:01.139066 28065 net.cpp:397] inception_4a/prelu_3x3_reduce -> inception_4a/3x3_reduce (in-place)
I1028 13:11:01.139194 28065 net.cpp:150] Setting up inception_4a/prelu_3x3_reduce
I1028 13:11:01.139202 28065 net.cpp:157] Top shape: 32 96 14 14 (602112)
I1028 13:11:01.139206 28065 net.cpp:165] Memory required for data: 1153647104
I1028 13:11:01.139211 28065 layer_factory.hpp:76] Creating layer inception_4a/3x3
I1028 13:11:01.139220 28065 net.cpp:106] Creating Layer inception_4a/3x3
I1028 13:11:01.139225 28065 net.cpp:454] inception_4a/3x3 <- inception_4a/3x3_reduce
I1028 13:11:01.139233 28065 net.cpp:411] inception_4a/3x3 -> inception_4a/3x3
I1028 13:11:01.141500 28065 cudnn_conv_layer.cpp:194] Reallocating workspace storage: 10080
I1028 13:11:01.141528 28065 net.cpp:150] Setting up inception_4a/3x3
I1028 13:11:01.141536 28065 net.cpp:157] Top shape: 32 208 14 14 (1304576)
I1028 13:11:01.141541 28065 net.cpp:165] Memory required for data: 1158865408
I1028 13:11:01.141549 28065 layer_factory.hpp:76] Creating layer inception_4a/prelu_3x3
I1028 13:11:01.141559 28065 net.cpp:106] Creating Layer inception_4a/prelu_3x3
I1028 13:11:01.141564 28065 net.cpp:454] inception_4a/prelu_3x3 <- inception_4a/3x3
I1028 13:11:01.141571 28065 net.cpp:397] inception_4a/prelu_3x3 -> inception_4a/3x3 (in-place)
I1028 13:11:01.141680 28065 net.cpp:150] Setting up inception_4a/prelu_3x3
I1028 13:11:01.141690 28065 net.cpp:157] Top shape: 32 208 14 14 (1304576)
I1028 13:11:01.141695 28065 net.cpp:165] Memory required for data: 1164083712
I1028 13:11:01.141700 28065 layer_factory.hpp:76] Creating layer inception_4a/5x5_reduce
I1028 13:11:01.141708 28065 net.cpp:106] Creating Layer inception_4a/5x5_reduce
I1028 13:11:01.141715 28065 net.cpp:454] inception_4a/5x5_reduce <- pool3/3x3_s2_pool3/3x3_s2_0_split_2
I1028 13:11:01.141721 28065 net.cpp:411] inception_4a/5x5_reduce -> inception_4a/5x5_reduce
I1028 13:11:01.142741 28065 cudnn_conv_layer.cpp:194] Reallocating workspace storage: 10080
I1028 13:11:01.142765 28065 net.cpp:150] Setting up inception_4a/5x5_reduce
I1028 13:11:01.142772 28065 net.cpp:157] Top shape: 32 16 14 14 (100352)
I1028 13:11:01.142776 28065 net.cpp:165] Memory required for data: 1164485120
I1028 13:11:01.142786 28065 layer_factory.hpp:76] Creating layer inception_4a/prelu_5x5_reduce
I1028 13:11:01.142794 28065 net.cpp:106] Creating Layer inception_4a/prelu_5x5_reduce
I1028 13:11:01.142799 28065 net.cpp:454] inception_4a/prelu_5x5_reduce <- inception_4a/5x5_reduce
I1028 13:11:01.142806 28065 net.cpp:397] inception_4a/prelu_5x5_reduce -> inception_4a/5x5_reduce (in-place)
I1028 13:11:01.142889 28065 net.cpp:150] Setting up inception_4a/prelu_5x5_reduce
I1028 13:11:01.142896 28065 net.cpp:157] Top shape: 32 16 14 14 (100352)
I1028 13:11:01.142901 28065 net.cpp:165] Memory required for data: 1164886528
I1028 13:11:01.142907 28065 layer_factory.hpp:76] Creating layer inception_4a/5x5
I1028 13:11:01.142916 28065 net.cpp:106] Creating Layer inception_4a/5x5
I1028 13:11:01.142931 28065 net.cpp:454] inception_4a/5x5 <- inception_4a/5x5_reduce
I1028 13:11:01.142940 28065 net.cpp:411] inception_4a/5x5 -> inception_4a/5x5
I1028 13:11:01.144067 28065 cudnn_conv_layer.cpp:194] Reallocating workspace storage: 13080
I1028 13:11:01.144090 28065 net.cpp:150] Setting up inception_4a/5x5
I1028 13:11:01.144098 28065 net.cpp:157] Top shape: 32 48 14 14 (301056)
I1028 13:11:01.144101 28065 net.cpp:165] Memory required for data: 1166090752
I1028 13:11:01.144132 28065 layer_factory.hpp:76] Creating layer inception_4a/prelu_5x5
I1028 13:11:01.144155 28065 net.cpp:106] Creating Layer inception_4a/prelu_5x5
I1028 13:11:01.144183 28065 net.cpp:454] inception_4a/prelu_5x5 <- inception_4a/5x5
I1028 13:11:01.144191 28065 net.cpp:397] inception_4a/prelu_5x5 -> inception_4a/5x5 (in-place)
I1028 13:11:01.144317 28065 net.cpp:150] Setting up inception_4a/prelu_5x5
I1028 13:11:01.144326 28065 net.cpp:157] Top shape: 32 48 14 14 (301056)
I1028 13:11:01.144330 28065 net.cpp:165] Memory required for data: 1167294976
I1028 13:11:01.144335 28065 layer_factory.hpp:76] Creating layer inception_4a/pool
I1028 13:11:01.144343 28065 net.cpp:106] Creating Layer inception_4a/pool
I1028 13:11:01.144347 28065 net.cpp:454] inception_4a/pool <- pool3/3x3_s2_pool3/3x3_s2_0_split_3
I1028 13:11:01.144356 28065 net.cpp:411] inception_4a/pool -> inception_4a/pool
I1028 13:11:01.144708 28065 net.cpp:150] Setting up inception_4a/pool
I1028 13:11:01.144719 28065 net.cpp:157] Top shape: 32 480 14 14 (3010560)
I1028 13:11:01.144724 28065 net.cpp:165] Memory required for data: 1179337216
I1028 13:11:01.144728 28065 layer_factory.hpp:76] Creating layer inception_4a/pool_proj
I1028 13:11:01.144737 28065 net.cpp:106] Creating Layer inception_4a/pool_proj
I1028 13:11:01.144744 28065 net.cpp:454] inception_4a/pool_proj <- inception_4a/pool
I1028 13:11:01.144752 28065 net.cpp:411] inception_4a/pool_proj -> inception_4a/pool_proj
I1028 13:11:01.145714 28065 cudnn_conv_layer.cpp:194] Reallocating workspace storage: 10080
I1028 13:11:01.145740 28065 net.cpp:150] Setting up inception_4a/pool_proj
I1028 13:11:01.145748 28065 net.cpp:157] Top shape: 32 64 14 14 (401408)
I1028 13:11:01.145753 28065 net.cpp:165] Memory required for data: 1180942848
I1028 13:11:01.145761 28065 layer_factory.hpp:76] Creating layer inception_4a/prelu_pool_proj
I1028 13:11:01.145769 28065 net.cpp:106] Creating Layer inception_4a/prelu_pool_proj
I1028 13:11:01.145774 28065 net.cpp:454] inception_4a/prelu_pool_proj <- inception_4a/pool_proj
I1028 13:11:01.145779 28065 net.cpp:397] inception_4a/prelu_pool_proj -> inception_4a/pool_proj (in-place)
I1028 13:11:01.145872 28065 net.cpp:150] Setting up inception_4a/prelu_pool_proj
I1028 13:11:01.145881 28065 net.cpp:157] Top shape: 32 64 14 14 (401408)
I1028 13:11:01.145884 28065 net.cpp:165] Memory required for data: 1182548480
I1028 13:11:01.145890 28065 layer_factory.hpp:76] Creating layer inception_4a/output
I1028 13:11:01.145896 28065 net.cpp:106] Creating Layer inception_4a/output
I1028 13:11:01.145900 28065 net.cpp:454] inception_4a/output <- inception_4a/1x1
I1028 13:11:01.145905 28065 net.cpp:454] inception_4a/output <- inception_4a/3x3
I1028 13:11:01.145911 28065 net.cpp:454] inception_4a/output <- inception_4a/5x5
I1028 13:11:01.145916 28065 net.cpp:454] inception_4a/output <- inception_4a/pool_proj
I1028 13:11:01.145921 28065 net.cpp:411] inception_4a/output -> inception_4a/output
I1028 13:11:01.145962 28065 net.cpp:150] Setting up inception_4a/output
I1028 13:11:01.145970 28065 net.cpp:157] Top shape: 32 512 14 14 (3211264)
I1028 13:11:01.145974 28065 net.cpp:165] Memory required for data: 1195393536
I1028 13:11:01.145978 28065 layer_factory.hpp:76] Creating layer inception_4a/output_inception_4a/output_0_split
I1028 13:11:01.145987 28065 net.cpp:106] Creating Layer inception_4a/output_inception_4a/output_0_split
I1028 13:11:01.145992 28065 net.cpp:454] inception_4a/output_inception_4a/output_0_split <- inception_4a/output
I1028 13:11:01.145998 28065 net.cpp:411] inception_4a/output_inception_4a/output_0_split -> inception_4a/output_inception_4a/output_0_split_0
I1028 13:11:01.146004 28065 net.cpp:411] inception_4a/output_inception_4a/output_0_split -> inception_4a/output_inception_4a/output_0_split_1
I1028 13:11:01.146013 28065 net.cpp:411] inception_4a/output_inception_4a/output_0_split -> inception_4a/output_inception_4a/output_0_split_2
I1028 13:11:01.146024 28065 net.cpp:411] inception_4a/output_inception_4a/output_0_split -> inception_4a/output_inception_4a/output_0_split_3
I1028 13:11:01.146044 28065 net.cpp:411] inception_4a/output_inception_4a/output_0_split -> inception_4a/output_inception_4a/output_0_split_4
I1028 13:11:01.146107 28065 net.cpp:150] Setting up inception_4a/output_inception_4a/output_0_split
I1028 13:11:01.146116 28065 net.cpp:157] Top shape: 32 512 14 14 (3211264)
I1028 13:11:01.146122 28065 net.cpp:157] Top shape: 32 512 14 14 (3211264)
I1028 13:11:01.146128 28065 net.cpp:157] Top shape: 32 512 14 14 (3211264)
I1028 13:11:01.146133 28065 net.cpp:157] Top shape: 32 512 14 14 (3211264)
I1028 13:11:01.146138 28065 net.cpp:157] Top shape: 32 512 14 14 (3211264)
I1028 13:11:01.146143 28065 net.cpp:165] Memory required for data: 1259618816
I1028 13:11:01.146147 28065 layer_factory.hpp:76] Creating layer loss1/ave_pool
I1028 13:11:01.146169 28065 net.cpp:106] Creating Layer loss1/ave_pool
I1028 13:11:01.146174 28065 net.cpp:454] loss1/ave_pool <- inception_4a/output_inception_4a/output_0_split_0
I1028 13:11:01.146179 28065 net.cpp:411] loss1/ave_pool -> loss1/ave_pool
I1028 13:11:01.146550 28065 net.cpp:150] Setting up loss1/ave_pool
I1028 13:11:01.146564 28065 net.cpp:157] Top shape: 32 512 4 4 (262144)
I1028 13:11:01.146571 28065 net.cpp:165] Memory required for data: 1260667392
I1028 13:11:01.146581 28065 layer_factory.hpp:76] Creating layer loss1/conv
I1028 13:11:01.146595 28065 net.cpp:106] Creating Layer loss1/conv
I1028 13:11:01.146601 28065 net.cpp:454] loss1/conv <- loss1/ave_pool
I1028 13:11:01.146618 28065 net.cpp:411] loss1/conv -> loss1/conv
I1028 13:11:01.148000 28065 cudnn_conv_layer.cpp:194] Reallocating workspace storage: 6840
I1028 13:11:01.148022 28065 net.cpp:150] Setting up loss1/conv
I1028 13:11:01.148030 28065 net.cpp:157] Top shape: 32 128 4 4 (65536)
I1028 13:11:01.148036 28065 net.cpp:165] Memory required for data: 1260929536
I1028 13:11:01.148061 28065 layer_factory.hpp:76] Creating layer loss1/prelu_conv
I1028 13:11:01.148074 28065 net.cpp:106] Creating Layer loss1/prelu_conv
I1028 13:11:01.148080 28065 net.cpp:454] loss1/prelu_conv <- loss1/conv
I1028 13:11:01.148104 28065 net.cpp:397] loss1/prelu_conv -> loss1/conv (in-place)
I1028 13:11:01.148190 28065 net.cpp:150] Setting up loss1/prelu_conv
I1028 13:11:01.148200 28065 net.cpp:157] Top shape: 32 128 4 4 (65536)
I1028 13:11:01.148203 28065 net.cpp:165] Memory required for data: 1261191680
I1028 13:11:01.148211 28065 layer_factory.hpp:76] Creating layer loss1/fc
I1028 13:11:01.148227 28065 net.cpp:106] Creating Layer loss1/fc
I1028 13:11:01.148238 28065 net.cpp:454] loss1/fc <- loss1/conv
I1028 13:11:01.148249 28065 net.cpp:411] loss1/fc -> loss1/fc
I1028 13:11:01.162672 28065 net.cpp:150] Setting up loss1/fc
I1028 13:11:01.162715 28065 net.cpp:157] Top shape: 32 1024 (32768)
I1028 13:11:01.162720 28065 net.cpp:165] Memory required for data: 1261322752
I1028 13:11:01.162731 28065 layer_factory.hpp:76] Creating layer loss1/prelu_fc
I1028 13:11:01.162744 28065 net.cpp:106] Creating Layer loss1/prelu_fc
I1028 13:11:01.162751 28065 net.cpp:454] loss1/prelu_fc <- loss1/fc
I1028 13:11:01.162775 28065 net.cpp:397] loss1/prelu_fc -> loss1/fc (in-place)
I1028 13:11:01.162873 28065 net.cpp:150] Setting up loss1/prelu_fc
I1028 13:11:01.162883 28065 net.cpp:157] Top shape: 32 1024 (32768)
I1028 13:11:01.162888 28065 net.cpp:165] Memory required for data: 1261453824
I1028 13:11:01.162892 28065 layer_factory.hpp:76] Creating layer loss1/drop_fc
I1028 13:11:01.162922 28065 net.cpp:106] Creating Layer loss1/drop_fc
I1028 13:11:01.162930 28065 net.cpp:454] loss1/drop_fc <- loss1/fc
I1028 13:11:01.162956 28065 net.cpp:397] loss1/drop_fc -> loss1/fc (in-place)
I1028 13:11:01.163003 28065 net.cpp:150] Setting up loss1/drop_fc
I1028 13:11:01.163022 28065 net.cpp:157] Top shape: 32 1024 (32768)
I1028 13:11:01.163031 28065 net.cpp:165] Memory required for data: 1261584896
I1028 13:11:01.163038 28065 layer_factory.hpp:76] Creating layer loss1/classifier2
I1028 13:11:01.163054 28065 net.cpp:106] Creating Layer loss1/classifier2
I1028 13:11:01.163059 28065 net.cpp:454] loss1/classifier2 <- loss1/fc
I1028 13:11:01.163099 28065 net.cpp:411] loss1/classifier2 -> loss1/classifier
I1028 13:11:01.163250 28065 net.cpp:150] Setting up loss1/classifier2
I1028 13:11:01.163259 28065 net.cpp:157] Top shape: 32 2 (64)
I1028 13:11:01.163264 28065 net.cpp:165] Memory required for data: 1261585152
I1028 13:11:01.163277 28065 layer_factory.hpp:76] Creating layer loss1/loss
I1028 13:11:01.163300 28065 net.cpp:106] Creating Layer loss1/loss
I1028 13:11:01.163312 28065 net.cpp:454] loss1/loss <- loss1/classifier
I1028 13:11:01.163317 28065 net.cpp:454] loss1/loss <- label_data_1_split_0
I1028 13:11:01.163322 28065 net.cpp:411] loss1/loss -> loss1/loss1
I1028 13:11:01.163336 28065 layer_factory.hpp:76] Creating layer loss1/loss
I1028 13:11:01.163642 28065 net.cpp:150] Setting up loss1/loss
I1028 13:11:01.163652 28065 net.cpp:157] Top shape: (1)
I1028 13:11:01.163657 28065 net.cpp:160]     with loss weight 0.3
I1028 13:11:01.163679 28065 net.cpp:165] Memory required for data: 1261585156
I1028 13:11:01.163684 28065 layer_factory.hpp:76] Creating layer inception_4b/1x1
I1028 13:11:01.163696 28065 net.cpp:106] Creating Layer inception_4b/1x1
I1028 13:11:01.163702 28065 net.cpp:454] inception_4b/1x1 <- inception_4a/output_inception_4a/output_0_split_1
I1028 13:11:01.163710 28065 net.cpp:411] inception_4b/1x1 -> inception_4b/1x1
I1028 13:11:01.165323 28065 cudnn_conv_layer.cpp:194] Reallocating workspace storage: 10080
I1028 13:11:01.165351 28065 net.cpp:150] Setting up inception_4b/1x1
I1028 13:11:01.165359 28065 net.cpp:157] Top shape: 32 160 14 14 (1003520)
I1028 13:11:01.165365 28065 net.cpp:165] Memory required for data: 1265599236
I1028 13:11:01.165380 28065 layer_factory.hpp:76] Creating layer inception_4b/prelu_1x1
I1028 13:11:01.165410 28065 net.cpp:106] Creating Layer inception_4b/prelu_1x1
I1028 13:11:01.165418 28065 net.cpp:454] inception_4b/prelu_1x1 <- inception_4b/1x1
I1028 13:11:01.165426 28065 net.cpp:397] inception_4b/prelu_1x1 -> inception_4b/1x1 (in-place)
I1028 13:11:01.166085 28065 net.cpp:150] Setting up inception_4b/prelu_1x1
I1028 13:11:01.166131 28065 net.cpp:157] Top shape: 32 160 14 14 (1003520)
I1028 13:11:01.166142 28065 net.cpp:165] Memory required for data: 1269613316
I1028 13:11:01.166153 28065 layer_factory.hpp:76] Creating layer inception_4b/3x3_reduce
I1028 13:11:01.166165 28065 net.cpp:106] Creating Layer inception_4b/3x3_reduce
I1028 13:11:01.166172 28065 net.cpp:454] inception_4b/3x3_reduce <- inception_4a/output_inception_4a/output_0_split_2
I1028 13:11:01.166183 28065 net.cpp:411] inception_4b/3x3_reduce -> inception_4b/3x3_reduce
I1028 13:11:01.167842 28065 cudnn_conv_layer.cpp:194] Reallocating workspace storage: 10080
I1028 13:11:01.167881 28065 net.cpp:150] Setting up inception_4b/3x3_reduce
I1028 13:11:01.167889 28065 net.cpp:157] Top shape: 32 112 14 14 (702464)
I1028 13:11:01.167894 28065 net.cpp:165] Memory required for data: 1272423172
I1028 13:11:01.167902 28065 layer_factory.hpp:76] Creating layer inception_4b/prelu_3x3_reduce
I1028 13:11:01.167913 28065 net.cpp:106] Creating Layer inception_4b/prelu_3x3_reduce
I1028 13:11:01.167920 28065 net.cpp:454] inception_4b/prelu_3x3_reduce <- inception_4b/3x3_reduce
I1028 13:11:01.167929 28065 net.cpp:397] inception_4b/prelu_3x3_reduce -> inception_4b/3x3_reduce (in-place)
I1028 13:11:01.168032 28065 net.cpp:150] Setting up inception_4b/prelu_3x3_reduce
I1028 13:11:01.168042 28065 net.cpp:157] Top shape: 32 112 14 14 (702464)
I1028 13:11:01.168047 28065 net.cpp:165] Memory required for data: 1275233028
I1028 13:11:01.168053 28065 layer_factory.hpp:76] Creating layer inception_4b/3x3
I1028 13:11:01.168063 28065 net.cpp:106] Creating Layer inception_4b/3x3
I1028 13:11:01.168068 28065 net.cpp:454] inception_4b/3x3 <- inception_4b/3x3_reduce
I1028 13:11:01.168074 28065 net.cpp:411] inception_4b/3x3 -> inception_4b/3x3
I1028 13:11:01.170917 28065 cudnn_conv_layer.cpp:194] Reallocating workspace storage: 10080
I1028 13:11:01.170950 28065 net.cpp:150] Setting up inception_4b/3x3
I1028 13:11:01.170958 28065 net.cpp:157] Top shape: 32 224 14 14 (1404928)
I1028 13:11:01.170980 28065 net.cpp:165] Memory required for data: 1280852740
I1028 13:11:01.170989 28065 layer_factory.hpp:76] Creating layer inception_4b/prelu_3x3
I1028 13:11:01.171000 28065 net.cpp:106] Creating Layer inception_4b/prelu_3x3
I1028 13:11:01.171005 28065 net.cpp:454] inception_4b/prelu_3x3 <- inception_4b/3x3
I1028 13:11:01.171013 28065 net.cpp:397] inception_4b/prelu_3x3 -> inception_4b/3x3 (in-place)
I1028 13:11:01.171149 28065 net.cpp:150] Setting up inception_4b/prelu_3x3
I1028 13:11:01.171160 28065 net.cpp:157] Top shape: 32 224 14 14 (1404928)
I1028 13:11:01.171164 28065 net.cpp:165] Memory required for data: 1286472452
I1028 13:11:01.171170 28065 layer_factory.hpp:76] Creating layer inception_4b/5x5_reduce
I1028 13:11:01.171178 28065 net.cpp:106] Creating Layer inception_4b/5x5_reduce
I1028 13:11:01.171185 28065 net.cpp:454] inception_4b/5x5_reduce <- inception_4a/output_inception_4a/output_0_split_3
I1028 13:11:01.171192 28065 net.cpp:411] inception_4b/5x5_reduce -> inception_4b/5x5_reduce
I1028 13:11:01.172071 28065 cudnn_conv_layer.cpp:194] Reallocating workspace storage: 10080
I1028 13:11:01.172094 28065 net.cpp:150] Setting up inception_4b/5x5_reduce
I1028 13:11:01.172101 28065 net.cpp:157] Top shape: 32 24 14 14 (150528)
I1028 13:11:01.172106 28065 net.cpp:165] Memory required for data: 1287074564
I1028 13:11:01.172112 28065 layer_factory.hpp:76] Creating layer inception_4b/prelu_5x5_reduce
I1028 13:11:01.172121 28065 net.cpp:106] Creating Layer inception_4b/prelu_5x5_reduce
I1028 13:11:01.172125 28065 net.cpp:454] inception_4b/prelu_5x5_reduce <- inception_4b/5x5_reduce
I1028 13:11:01.172133 28065 net.cpp:397] inception_4b/prelu_5x5_reduce -> inception_4b/5x5_reduce (in-place)
I1028 13:11:01.172220 28065 net.cpp:150] Setting up inception_4b/prelu_5x5_reduce
I1028 13:11:01.172230 28065 net.cpp:157] Top shape: 32 24 14 14 (150528)
I1028 13:11:01.172233 28065 net.cpp:165] Memory required for data: 1287676676
I1028 13:11:01.172238 28065 layer_factory.hpp:76] Creating layer inception_4b/5x5
I1028 13:11:01.172247 28065 net.cpp:106] Creating Layer inception_4b/5x5
I1028 13:11:01.172252 28065 net.cpp:454] inception_4b/5x5 <- inception_4b/5x5_reduce
I1028 13:11:01.172260 28065 net.cpp:411] inception_4b/5x5 -> inception_4b/5x5
I1028 13:11:01.173462 28065 cudnn_conv_layer.cpp:194] Reallocating workspace storage: 13080
I1028 13:11:01.173486 28065 net.cpp:150] Setting up inception_4b/5x5
I1028 13:11:01.173494 28065 net.cpp:157] Top shape: 32 64 14 14 (401408)
I1028 13:11:01.173498 28065 net.cpp:165] Memory required for data: 1289282308
I1028 13:11:01.173506 28065 layer_factory.hpp:76] Creating layer inception_4b/prelu_5x5
I1028 13:11:01.173517 28065 net.cpp:106] Creating Layer inception_4b/prelu_5x5
I1028 13:11:01.173524 28065 net.cpp:454] inception_4b/prelu_5x5 <- inception_4b/5x5
I1028 13:11:01.173530 28065 net.cpp:397] inception_4b/prelu_5x5 -> inception_4b/5x5 (in-place)
I1028 13:11:01.173645 28065 net.cpp:150] Setting up inception_4b/prelu_5x5
I1028 13:11:01.173655 28065 net.cpp:157] Top shape: 32 64 14 14 (401408)
I1028 13:11:01.173658 28065 net.cpp:165] Memory required for data: 1290887940
I1028 13:11:01.173672 28065 layer_factory.hpp:76] Creating layer inception_4b/pool
I1028 13:11:01.173681 28065 net.cpp:106] Creating Layer inception_4b/pool
I1028 13:11:01.173687 28065 net.cpp:454] inception_4b/pool <- inception_4a/output_inception_4a/output_0_split_4
I1028 13:11:01.173692 28065 net.cpp:411] inception_4b/pool -> inception_4b/pool
I1028 13:11:01.174100 28065 net.cpp:150] Setting up inception_4b/pool
I1028 13:11:01.174115 28065 net.cpp:157] Top shape: 32 512 14 14 (3211264)
I1028 13:11:01.174124 28065 net.cpp:165] Memory required for data: 1303732996
I1028 13:11:01.174131 28065 layer_factory.hpp:76] Creating layer inception_4b/pool_proj
I1028 13:11:01.174165 28065 net.cpp:106] Creating Layer inception_4b/pool_proj
I1028 13:11:01.174175 28065 net.cpp:454] inception_4b/pool_proj <- inception_4b/pool
I1028 13:11:01.174190 28065 net.cpp:411] inception_4b/pool_proj -> inception_4b/pool_proj
I1028 13:11:01.175508 28065 cudnn_conv_layer.cpp:194] Reallocating workspace storage: 10080
I1028 13:11:01.175557 28065 net.cpp:150] Setting up inception_4b/pool_proj
I1028 13:11:01.175573 28065 net.cpp:157] Top shape: 32 64 14 14 (401408)
I1028 13:11:01.175583 28065 net.cpp:165] Memory required for data: 1305338628
I1028 13:11:01.175606 28065 layer_factory.hpp:76] Creating layer inception_4b/prelu_pool_proj
I1028 13:11:01.175619 28065 net.cpp:106] Creating Layer inception_4b/prelu_pool_proj
I1028 13:11:01.175626 28065 net.cpp:454] inception_4b/prelu_pool_proj <- inception_4b/pool_proj
I1028 13:11:01.175655 28065 net.cpp:397] inception_4b/prelu_pool_proj -> inception_4b/pool_proj (in-place)
I1028 13:11:01.175776 28065 net.cpp:150] Setting up inception_4b/prelu_pool_proj
I1028 13:11:01.175787 28065 net.cpp:157] Top shape: 32 64 14 14 (401408)
I1028 13:11:01.175791 28065 net.cpp:165] Memory required for data: 1306944260
I1028 13:11:01.175797 28065 layer_factory.hpp:76] Creating layer inception_4b/output
I1028 13:11:01.175803 28065 net.cpp:106] Creating Layer inception_4b/output
I1028 13:11:01.175808 28065 net.cpp:454] inception_4b/output <- inception_4b/1x1
I1028 13:11:01.175815 28065 net.cpp:454] inception_4b/output <- inception_4b/3x3
I1028 13:11:01.175832 28065 net.cpp:454] inception_4b/output <- inception_4b/5x5
I1028 13:11:01.175847 28065 net.cpp:454] inception_4b/output <- inception_4b/pool_proj
I1028 13:11:01.175853 28065 net.cpp:411] inception_4b/output -> inception_4b/output
I1028 13:11:01.175879 28065 net.cpp:150] Setting up inception_4b/output
I1028 13:11:01.175887 28065 net.cpp:157] Top shape: 32 512 14 14 (3211264)
I1028 13:11:01.175891 28065 net.cpp:165] Memory required for data: 1319789316
I1028 13:11:01.175895 28065 layer_factory.hpp:76] Creating layer inception_4b/output_inception_4b/output_0_split
I1028 13:11:01.175904 28065 net.cpp:106] Creating Layer inception_4b/output_inception_4b/output_0_split
I1028 13:11:01.175909 28065 net.cpp:454] inception_4b/output_inception_4b/output_0_split <- inception_4b/output
I1028 13:11:01.175925 28065 net.cpp:411] inception_4b/output_inception_4b/output_0_split -> inception_4b/output_inception_4b/output_0_split_0
I1028 13:11:01.175943 28065 net.cpp:411] inception_4b/output_inception_4b/output_0_split -> inception_4b/output_inception_4b/output_0_split_1
I1028 13:11:01.175950 28065 net.cpp:411] inception_4b/output_inception_4b/output_0_split -> inception_4b/output_inception_4b/output_0_split_2
I1028 13:11:01.175958 28065 net.cpp:411] inception_4b/output_inception_4b/output_0_split -> inception_4b/output_inception_4b/output_0_split_3
I1028 13:11:01.176013 28065 net.cpp:150] Setting up inception_4b/output_inception_4b/output_0_split
I1028 13:11:01.176022 28065 net.cpp:157] Top shape: 32 512 14 14 (3211264)
I1028 13:11:01.176026 28065 net.cpp:157] Top shape: 32 512 14 14 (3211264)
I1028 13:11:01.176031 28065 net.cpp:157] Top shape: 32 512 14 14 (3211264)
I1028 13:11:01.176036 28065 net.cpp:157] Top shape: 32 512 14 14 (3211264)
I1028 13:11:01.176039 28065 net.cpp:165] Memory required for data: 1371169540
I1028 13:11:01.176043 28065 layer_factory.hpp:76] Creating layer inception_4c/1x1
I1028 13:11:01.176054 28065 net.cpp:106] Creating Layer inception_4c/1x1
I1028 13:11:01.176079 28065 net.cpp:454] inception_4c/1x1 <- inception_4b/output_inception_4b/output_0_split_0
I1028 13:11:01.176086 28065 net.cpp:411] inception_4c/1x1 -> inception_4c/1x1
I1028 13:11:01.178098 28065 cudnn_conv_layer.cpp:194] Reallocating workspace storage: 10080
I1028 13:11:01.178151 28065 net.cpp:150] Setting up inception_4c/1x1
I1028 13:11:01.178163 28065 net.cpp:157] Top shape: 32 128 14 14 (802816)
I1028 13:11:01.178167 28065 net.cpp:165] Memory required for data: 1374380804
I1028 13:11:01.178177 28065 layer_factory.hpp:76] Creating layer inception_4c/prelu_1x1
I1028 13:11:01.178194 28065 net.cpp:106] Creating Layer inception_4c/prelu_1x1
I1028 13:11:01.178202 28065 net.cpp:454] inception_4c/prelu_1x1 <- inception_4c/1x1
I1028 13:11:01.178211 28065 net.cpp:397] inception_4c/prelu_1x1 -> inception_4c/1x1 (in-place)
I1028 13:11:01.178350 28065 net.cpp:150] Setting up inception_4c/prelu_1x1
I1028 13:11:01.178362 28065 net.cpp:157] Top shape: 32 128 14 14 (802816)
I1028 13:11:01.178366 28065 net.cpp:165] Memory required for data: 1377592068
I1028 13:11:01.178374 28065 layer_factory.hpp:76] Creating layer inception_4c/3x3_reduce
I1028 13:11:01.178385 28065 net.cpp:106] Creating Layer inception_4c/3x3_reduce
I1028 13:11:01.178391 28065 net.cpp:454] inception_4c/3x3_reduce <- inception_4b/output_inception_4b/output_0_split_1
I1028 13:11:01.178397 28065 net.cpp:411] inception_4c/3x3_reduce -> inception_4c/3x3_reduce
I1028 13:11:01.179896 28065 cudnn_conv_layer.cpp:194] Reallocating workspace storage: 10080
I1028 13:11:01.179931 28065 net.cpp:150] Setting up inception_4c/3x3_reduce
I1028 13:11:01.179940 28065 net.cpp:157] Top shape: 32 128 14 14 (802816)
I1028 13:11:01.179945 28065 net.cpp:165] Memory required for data: 1380803332
I1028 13:11:01.179954 28065 layer_factory.hpp:76] Creating layer inception_4c/prelu_3x3_reduce
I1028 13:11:01.179966 28065 net.cpp:106] Creating Layer inception_4c/prelu_3x3_reduce
I1028 13:11:01.179975 28065 net.cpp:454] inception_4c/prelu_3x3_reduce <- inception_4c/3x3_reduce
I1028 13:11:01.179982 28065 net.cpp:397] inception_4c/prelu_3x3_reduce -> inception_4c/3x3_reduce (in-place)
I1028 13:11:01.180091 28065 net.cpp:150] Setting up inception_4c/prelu_3x3_reduce
I1028 13:11:01.180101 28065 net.cpp:157] Top shape: 32 128 14 14 (802816)
I1028 13:11:01.180105 28065 net.cpp:165] Memory required for data: 1384014596
I1028 13:11:01.180111 28065 layer_factory.hpp:76] Creating layer inception_4c/3x3
I1028 13:11:01.180121 28065 net.cpp:106] Creating Layer inception_4c/3x3
I1028 13:11:01.180127 28065 net.cpp:454] inception_4c/3x3 <- inception_4c/3x3_reduce
I1028 13:11:01.180135 28065 net.cpp:411] inception_4c/3x3 -> inception_4c/3x3
I1028 13:11:01.183352 28065 cudnn_conv_layer.cpp:194] Reallocating workspace storage: 10080
I1028 13:11:01.183383 28065 net.cpp:150] Setting up inception_4c/3x3
I1028 13:11:01.183393 28065 net.cpp:157] Top shape: 32 256 14 14 (1605632)
I1028 13:11:01.183398 28065 net.cpp:165] Memory required for data: 1390437124
I1028 13:11:01.183408 28065 layer_factory.hpp:76] Creating layer inception_4c/prelu_3x3
I1028 13:11:01.183416 28065 net.cpp:106] Creating Layer inception_4c/prelu_3x3
I1028 13:11:01.183421 28065 net.cpp:454] inception_4c/prelu_3x3 <- inception_4c/3x3
I1028 13:11:01.183429 28065 net.cpp:397] inception_4c/prelu_3x3 -> inception_4c/3x3 (in-place)
I1028 13:11:01.183545 28065 net.cpp:150] Setting up inception_4c/prelu_3x3
I1028 13:11:01.183555 28065 net.cpp:157] Top shape: 32 256 14 14 (1605632)
I1028 13:11:01.183559 28065 net.cpp:165] Memory required for data: 1396859652
I1028 13:11:01.183564 28065 layer_factory.hpp:76] Creating layer inception_4c/5x5_reduce
I1028 13:11:01.183574 28065 net.cpp:106] Creating Layer inception_4c/5x5_reduce
I1028 13:11:01.183581 28065 net.cpp:454] inception_4c/5x5_reduce <- inception_4b/output_inception_4b/output_0_split_2
I1028 13:11:01.183589 28065 net.cpp:411] inception_4c/5x5_reduce -> inception_4c/5x5_reduce
I1028 13:11:01.184695 28065 cudnn_conv_layer.cpp:194] Reallocating workspace storage: 10080
I1028 13:11:01.184725 28065 net.cpp:150] Setting up inception_4c/5x5_reduce
I1028 13:11:01.184733 28065 net.cpp:157] Top shape: 32 24 14 14 (150528)
I1028 13:11:01.184738 28065 net.cpp:165] Memory required for data: 1397461764
I1028 13:11:01.184761 28065 layer_factory.hpp:76] Creating layer inception_4c/prelu_5x5_reduce
I1028 13:11:01.184768 28065 net.cpp:106] Creating Layer inception_4c/prelu_5x5_reduce
I1028 13:11:01.184775 28065 net.cpp:454] inception_4c/prelu_5x5_reduce <- inception_4c/5x5_reduce
I1028 13:11:01.184782 28065 net.cpp:397] inception_4c/prelu_5x5_reduce -> inception_4c/5x5_reduce (in-place)
I1028 13:11:01.184901 28065 net.cpp:150] Setting up inception_4c/prelu_5x5_reduce
I1028 13:11:01.184909 28065 net.cpp:157] Top shape: 32 24 14 14 (150528)
I1028 13:11:01.184913 28065 net.cpp:165] Memory required for data: 1398063876
I1028 13:11:01.184942 28065 layer_factory.hpp:76] Creating layer inception_4c/5x5
I1028 13:11:01.184952 28065 net.cpp:106] Creating Layer inception_4c/5x5
I1028 13:11:01.184964 28065 net.cpp:454] inception_4c/5x5 <- inception_4c/5x5_reduce
I1028 13:11:01.184973 28065 net.cpp:411] inception_4c/5x5 -> inception_4c/5x5
I1028 13:11:01.186666 28065 cudnn_conv_layer.cpp:194] Reallocating workspace storage: 13080
I1028 13:11:01.186691 28065 net.cpp:150] Setting up inception_4c/5x5
I1028 13:11:01.186699 28065 net.cpp:157] Top shape: 32 64 14 14 (401408)
I1028 13:11:01.186704 28065 net.cpp:165] Memory required for data: 1399669508
I1028 13:11:01.186713 28065 layer_factory.hpp:76] Creating layer inception_4c/prelu_5x5
I1028 13:11:01.186720 28065 net.cpp:106] Creating Layer inception_4c/prelu_5x5
I1028 13:11:01.186725 28065 net.cpp:454] inception_4c/prelu_5x5 <- inception_4c/5x5
I1028 13:11:01.186732 28065 net.cpp:397] inception_4c/prelu_5x5 -> inception_4c/5x5 (in-place)
I1028 13:11:01.186835 28065 net.cpp:150] Setting up inception_4c/prelu_5x5
I1028 13:11:01.186846 28065 net.cpp:157] Top shape: 32 64 14 14 (401408)
I1028 13:11:01.186849 28065 net.cpp:165] Memory required for data: 1401275140
I1028 13:11:01.186854 28065 layer_factory.hpp:76] Creating layer inception_4c/pool
I1028 13:11:01.186861 28065 net.cpp:106] Creating Layer inception_4c/pool
I1028 13:11:01.186866 28065 net.cpp:454] inception_4c/pool <- inception_4b/output_inception_4b/output_0_split_3
I1028 13:11:01.186872 28065 net.cpp:411] inception_4c/pool -> inception_4c/pool
I1028 13:11:01.187047 28065 net.cpp:150] Setting up inception_4c/pool
I1028 13:11:01.187057 28065 net.cpp:157] Top shape: 32 512 14 14 (3211264)
I1028 13:11:01.187062 28065 net.cpp:165] Memory required for data: 1414120196
I1028 13:11:01.187065 28065 layer_factory.hpp:76] Creating layer inception_4c/pool_proj
I1028 13:11:01.187073 28065 net.cpp:106] Creating Layer inception_4c/pool_proj
I1028 13:11:01.187078 28065 net.cpp:454] inception_4c/pool_proj <- inception_4c/pool
I1028 13:11:01.187088 28065 net.cpp:411] inception_4c/pool_proj -> inception_4c/pool_proj
I1028 13:11:01.188465 28065 cudnn_conv_layer.cpp:194] Reallocating workspace storage: 10080
I1028 13:11:01.188493 28065 net.cpp:150] Setting up inception_4c/pool_proj
I1028 13:11:01.188503 28065 net.cpp:157] Top shape: 32 64 14 14 (401408)
I1028 13:11:01.188513 28065 net.cpp:165] Memory required for data: 1415725828
I1028 13:11:01.188529 28065 layer_factory.hpp:76] Creating layer inception_4c/prelu_pool_proj
I1028 13:11:01.188544 28065 net.cpp:106] Creating Layer inception_4c/prelu_pool_proj
I1028 13:11:01.188561 28065 net.cpp:454] inception_4c/prelu_pool_proj <- inception_4c/pool_proj
I1028 13:11:01.188576 28065 net.cpp:397] inception_4c/prelu_pool_proj -> inception_4c/pool_proj (in-place)
I1028 13:11:01.188681 28065 net.cpp:150] Setting up inception_4c/prelu_pool_proj
I1028 13:11:01.188690 28065 net.cpp:157] Top shape: 32 64 14 14 (401408)
I1028 13:11:01.188694 28065 net.cpp:165] Memory required for data: 1417331460
I1028 13:11:01.188699 28065 layer_factory.hpp:76] Creating layer inception_4c/output
I1028 13:11:01.188709 28065 net.cpp:106] Creating Layer inception_4c/output
I1028 13:11:01.188721 28065 net.cpp:454] inception_4c/output <- inception_4c/1x1
I1028 13:11:01.188726 28065 net.cpp:454] inception_4c/output <- inception_4c/3x3
I1028 13:11:01.188731 28065 net.cpp:454] inception_4c/output <- inception_4c/5x5
I1028 13:11:01.188737 28065 net.cpp:454] inception_4c/output <- inception_4c/pool_proj
I1028 13:11:01.188742 28065 net.cpp:411] inception_4c/output -> inception_4c/output
I1028 13:11:01.188796 28065 net.cpp:150] Setting up inception_4c/output
I1028 13:11:01.188804 28065 net.cpp:157] Top shape: 32 512 14 14 (3211264)
I1028 13:11:01.188807 28065 net.cpp:165] Memory required for data: 1430176516
I1028 13:11:01.188812 28065 layer_factory.hpp:76] Creating layer inception_4c/output_inception_4c/output_0_split
I1028 13:11:01.188817 28065 net.cpp:106] Creating Layer inception_4c/output_inception_4c/output_0_split
I1028 13:11:01.188841 28065 net.cpp:454] inception_4c/output_inception_4c/output_0_split <- inception_4c/output
I1028 13:11:01.188850 28065 net.cpp:411] inception_4c/output_inception_4c/output_0_split -> inception_4c/output_inception_4c/output_0_split_0
I1028 13:11:01.188858 28065 net.cpp:411] inception_4c/output_inception_4c/output_0_split -> inception_4c/output_inception_4c/output_0_split_1
I1028 13:11:01.188864 28065 net.cpp:411] inception_4c/output_inception_4c/output_0_split -> inception_4c/output_inception_4c/output_0_split_2
I1028 13:11:01.188873 28065 net.cpp:411] inception_4c/output_inception_4c/output_0_split -> inception_4c/output_inception_4c/output_0_split_3
I1028 13:11:01.188935 28065 net.cpp:150] Setting up inception_4c/output_inception_4c/output_0_split
I1028 13:11:01.188944 28065 net.cpp:157] Top shape: 32 512 14 14 (3211264)
I1028 13:11:01.188949 28065 net.cpp:157] Top shape: 32 512 14 14 (3211264)
I1028 13:11:01.188954 28065 net.cpp:157] Top shape: 32 512 14 14 (3211264)
I1028 13:11:01.188958 28065 net.cpp:157] Top shape: 32 512 14 14 (3211264)
I1028 13:11:01.188962 28065 net.cpp:165] Memory required for data: 1481556740
I1028 13:11:01.188966 28065 layer_factory.hpp:76] Creating layer inception_4d/1x1
I1028 13:11:01.188976 28065 net.cpp:106] Creating Layer inception_4d/1x1
I1028 13:11:01.188979 28065 net.cpp:454] inception_4d/1x1 <- inception_4c/output_inception_4c/output_0_split_0
I1028 13:11:01.188985 28065 net.cpp:411] inception_4d/1x1 -> inception_4d/1x1
I1028 13:11:01.190359 28065 cudnn_conv_layer.cpp:194] Reallocating workspace storage: 10080
I1028 13:11:01.190384 28065 net.cpp:150] Setting up inception_4d/1x1
I1028 13:11:01.190392 28065 net.cpp:157] Top shape: 32 112 14 14 (702464)
I1028 13:11:01.190397 28065 net.cpp:165] Memory required for data: 1484366596
I1028 13:11:01.190405 28065 layer_factory.hpp:76] Creating layer inception_4d/prelu_1x1
I1028 13:11:01.190413 28065 net.cpp:106] Creating Layer inception_4d/prelu_1x1
I1028 13:11:01.190418 28065 net.cpp:454] inception_4d/prelu_1x1 <- inception_4d/1x1
I1028 13:11:01.190424 28065 net.cpp:397] inception_4d/prelu_1x1 -> inception_4d/1x1 (in-place)
I1028 13:11:01.190522 28065 net.cpp:150] Setting up inception_4d/prelu_1x1
I1028 13:11:01.190532 28065 net.cpp:157] Top shape: 32 112 14 14 (702464)
I1028 13:11:01.190536 28065 net.cpp:165] Memory required for data: 1487176452
I1028 13:11:01.190541 28065 layer_factory.hpp:76] Creating layer inception_4d/3x3_reduce
I1028 13:11:01.190551 28065 net.cpp:106] Creating Layer inception_4d/3x3_reduce
I1028 13:11:01.190557 28065 net.cpp:454] inception_4d/3x3_reduce <- inception_4c/output_inception_4c/output_0_split_1
I1028 13:11:01.190565 28065 net.cpp:411] inception_4d/3x3_reduce -> inception_4d/3x3_reduce
I1028 13:11:01.191840 28065 cudnn_conv_layer.cpp:194] Reallocating workspace storage: 10080
I1028 13:11:01.191864 28065 net.cpp:150] Setting up inception_4d/3x3_reduce
I1028 13:11:01.191872 28065 net.cpp:157] Top shape: 32 144 14 14 (903168)
I1028 13:11:01.191879 28065 net.cpp:165] Memory required for data: 1490789124
I1028 13:11:01.191885 28065 layer_factory.hpp:76] Creating layer inception_4d/prelu_3x3_reduce
I1028 13:11:01.191892 28065 net.cpp:106] Creating Layer inception_4d/prelu_3x3_reduce
I1028 13:11:01.191897 28065 net.cpp:454] inception_4d/prelu_3x3_reduce <- inception_4d/3x3_reduce
I1028 13:11:01.191905 28065 net.cpp:397] inception_4d/prelu_3x3_reduce -> inception_4d/3x3_reduce (in-place)
I1028 13:11:01.192013 28065 net.cpp:150] Setting up inception_4d/prelu_3x3_reduce
I1028 13:11:01.192023 28065 net.cpp:157] Top shape: 32 144 14 14 (903168)
I1028 13:11:01.192026 28065 net.cpp:165] Memory required for data: 1494401796
I1028 13:11:01.192031 28065 layer_factory.hpp:76] Creating layer inception_4d/3x3
I1028 13:11:01.192040 28065 net.cpp:106] Creating Layer inception_4d/3x3
I1028 13:11:01.192046 28065 net.cpp:454] inception_4d/3x3 <- inception_4d/3x3_reduce
I1028 13:11:01.192054 28065 net.cpp:411] inception_4d/3x3 -> inception_4d/3x3
I1028 13:11:01.195662 28065 cudnn_conv_layer.cpp:194] Reallocating workspace storage: 10080
I1028 13:11:01.195703 28065 net.cpp:150] Setting up inception_4d/3x3
I1028 13:11:01.195713 28065 net.cpp:157] Top shape: 32 288 14 14 (1806336)
I1028 13:11:01.195718 28065 net.cpp:165] Memory required for data: 1501627140
I1028 13:11:01.195727 28065 layer_factory.hpp:76] Creating layer inception_4d/prelu_3x3
I1028 13:11:01.195750 28065 net.cpp:106] Creating Layer inception_4d/prelu_3x3
I1028 13:11:01.195756 28065 net.cpp:454] inception_4d/prelu_3x3 <- inception_4d/3x3
I1028 13:11:01.195763 28065 net.cpp:397] inception_4d/prelu_3x3 -> inception_4d/3x3 (in-place)
I1028 13:11:01.195914 28065 net.cpp:150] Setting up inception_4d/prelu_3x3
I1028 13:11:01.195924 28065 net.cpp:157] Top shape: 32 288 14 14 (1806336)
I1028 13:11:01.195927 28065 net.cpp:165] Memory required for data: 1508852484
I1028 13:11:01.195932 28065 layer_factory.hpp:76] Creating layer inception_4d/5x5_reduce
I1028 13:11:01.195942 28065 net.cpp:106] Creating Layer inception_4d/5x5_reduce
I1028 13:11:01.195947 28065 net.cpp:454] inception_4d/5x5_reduce <- inception_4c/output_inception_4c/output_0_split_2
I1028 13:11:01.195955 28065 net.cpp:411] inception_4d/5x5_reduce -> inception_4d/5x5_reduce
I1028 13:11:01.197278 28065 cudnn_conv_layer.cpp:194] Reallocating workspace storage: 10080
I1028 13:11:01.197306 28065 net.cpp:150] Setting up inception_4d/5x5_reduce
I1028 13:11:01.197317 28065 net.cpp:157] Top shape: 32 32 14 14 (200704)
I1028 13:11:01.197332 28065 net.cpp:165] Memory required for data: 1509655300
I1028 13:11:01.197341 28065 layer_factory.hpp:76] Creating layer inception_4d/prelu_5x5_reduce
I1028 13:11:01.197352 28065 net.cpp:106] Creating Layer inception_4d/prelu_5x5_reduce
I1028 13:11:01.197358 28065 net.cpp:454] inception_4d/prelu_5x5_reduce <- inception_4d/5x5_reduce
I1028 13:11:01.197367 28065 net.cpp:397] inception_4d/prelu_5x5_reduce -> inception_4d/5x5_reduce (in-place)
I1028 13:11:01.197491 28065 net.cpp:150] Setting up inception_4d/prelu_5x5_reduce
I1028 13:11:01.197502 28065 net.cpp:157] Top shape: 32 32 14 14 (200704)
I1028 13:11:01.197507 28065 net.cpp:165] Memory required for data: 1510458116
I1028 13:11:01.197513 28065 layer_factory.hpp:76] Creating layer inception_4d/5x5
I1028 13:11:01.197558 28065 net.cpp:106] Creating Layer inception_4d/5x5
I1028 13:11:01.197563 28065 net.cpp:454] inception_4d/5x5 <- inception_4d/5x5_reduce
I1028 13:11:01.197571 28065 net.cpp:411] inception_4d/5x5 -> inception_4d/5x5
I1028 13:11:01.199445 28065 cudnn_conv_layer.cpp:194] Reallocating workspace storage: 13080
I1028 13:11:01.199486 28065 net.cpp:150] Setting up inception_4d/5x5
I1028 13:11:01.199496 28065 net.cpp:157] Top shape: 32 64 14 14 (401408)
I1028 13:11:01.199501 28065 net.cpp:165] Memory required for data: 1512063748
I1028 13:11:01.199512 28065 layer_factory.hpp:76] Creating layer inception_4d/prelu_5x5
I1028 13:11:01.199538 28065 net.cpp:106] Creating Layer inception_4d/prelu_5x5
I1028 13:11:01.199549 28065 net.cpp:454] inception_4d/prelu_5x5 <- inception_4d/5x5
I1028 13:11:01.199574 28065 net.cpp:397] inception_4d/prelu_5x5 -> inception_4d/5x5 (in-place)
I1028 13:11:01.199717 28065 net.cpp:150] Setting up inception_4d/prelu_5x5
I1028 13:11:01.199726 28065 net.cpp:157] Top shape: 32 64 14 14 (401408)
I1028 13:11:01.199730 28065 net.cpp:165] Memory required for data: 1513669380
I1028 13:11:01.199748 28065 layer_factory.hpp:76] Creating layer inception_4d/pool
I1028 13:11:01.199756 28065 net.cpp:106] Creating Layer inception_4d/pool
I1028 13:11:01.199762 28065 net.cpp:454] inception_4d/pool <- inception_4c/output_inception_4c/output_0_split_3
I1028 13:11:01.199769 28065 net.cpp:411] inception_4d/pool -> inception_4d/pool
I1028 13:11:01.199961 28065 net.cpp:150] Setting up inception_4d/pool
I1028 13:11:01.199975 28065 net.cpp:157] Top shape: 32 512 14 14 (3211264)
I1028 13:11:01.199982 28065 net.cpp:165] Memory required for data: 1526514436
I1028 13:11:01.199992 28065 layer_factory.hpp:76] Creating layer inception_4d/pool_proj
I1028 13:11:01.200006 28065 net.cpp:106] Creating Layer inception_4d/pool_proj
I1028 13:11:01.200012 28065 net.cpp:454] inception_4d/pool_proj <- inception_4d/pool
I1028 13:11:01.200036 28065 net.cpp:411] inception_4d/pool_proj -> inception_4d/pool_proj
I1028 13:11:01.201287 28065 cudnn_conv_layer.cpp:194] Reallocating workspace storage: 10080
I1028 13:11:01.201319 28065 net.cpp:150] Setting up inception_4d/pool_proj
I1028 13:11:01.201328 28065 net.cpp:157] Top shape: 32 64 14 14 (401408)
I1028 13:11:01.201333 28065 net.cpp:165] Memory required for data: 1528120068
I1028 13:11:01.201339 28065 layer_factory.hpp:76] Creating layer inception_4d/prelu_pool_proj
I1028 13:11:01.201349 28065 net.cpp:106] Creating Layer inception_4d/prelu_pool_proj
I1028 13:11:01.201356 28065 net.cpp:454] inception_4d/prelu_pool_proj <- inception_4d/pool_proj
I1028 13:11:01.201362 28065 net.cpp:397] inception_4d/prelu_pool_proj -> inception_4d/pool_proj (in-place)
I1028 13:11:01.201467 28065 net.cpp:150] Setting up inception_4d/prelu_pool_proj
I1028 13:11:01.201475 28065 net.cpp:157] Top shape: 32 64 14 14 (401408)
I1028 13:11:01.201479 28065 net.cpp:165] Memory required for data: 1529725700
I1028 13:11:01.201484 28065 layer_factory.hpp:76] Creating layer inception_4d/output
I1028 13:11:01.201493 28065 net.cpp:106] Creating Layer inception_4d/output
I1028 13:11:01.201500 28065 net.cpp:454] inception_4d/output <- inception_4d/1x1
I1028 13:11:01.201506 28065 net.cpp:454] inception_4d/output <- inception_4d/3x3
I1028 13:11:01.201510 28065 net.cpp:454] inception_4d/output <- inception_4d/5x5
I1028 13:11:01.201515 28065 net.cpp:454] inception_4d/output <- inception_4d/pool_proj
I1028 13:11:01.201522 28065 net.cpp:411] inception_4d/output -> inception_4d/output
I1028 13:11:01.201550 28065 net.cpp:150] Setting up inception_4d/output
I1028 13:11:01.201557 28065 net.cpp:157] Top shape: 32 528 14 14 (3311616)
I1028 13:11:01.201562 28065 net.cpp:165] Memory required for data: 1542972164
I1028 13:11:01.201566 28065 layer_factory.hpp:76] Creating layer inception_4d/output_inception_4d/output_0_split
I1028 13:11:01.201576 28065 net.cpp:106] Creating Layer inception_4d/output_inception_4d/output_0_split
I1028 13:11:01.201582 28065 net.cpp:454] inception_4d/output_inception_4d/output_0_split <- inception_4d/output
I1028 13:11:01.201591 28065 net.cpp:411] inception_4d/output_inception_4d/output_0_split -> inception_4d/output_inception_4d/output_0_split_0
I1028 13:11:01.201599 28065 net.cpp:411] inception_4d/output_inception_4d/output_0_split -> inception_4d/output_inception_4d/output_0_split_1
I1028 13:11:01.201606 28065 net.cpp:411] inception_4d/output_inception_4d/output_0_split -> inception_4d/output_inception_4d/output_0_split_2
I1028 13:11:01.201614 28065 net.cpp:411] inception_4d/output_inception_4d/output_0_split -> inception_4d/output_inception_4d/output_0_split_3
I1028 13:11:01.201622 28065 net.cpp:411] inception_4d/output_inception_4d/output_0_split -> inception_4d/output_inception_4d/output_0_split_4
I1028 13:11:01.201697 28065 net.cpp:150] Setting up inception_4d/output_inception_4d/output_0_split
I1028 13:11:01.201706 28065 net.cpp:157] Top shape: 32 528 14 14 (3311616)
I1028 13:11:01.201712 28065 net.cpp:157] Top shape: 32 528 14 14 (3311616)
I1028 13:11:01.201717 28065 net.cpp:157] Top shape: 32 528 14 14 (3311616)
I1028 13:11:01.201721 28065 net.cpp:157] Top shape: 32 528 14 14 (3311616)
I1028 13:11:01.201727 28065 net.cpp:157] Top shape: 32 528 14 14 (3311616)
I1028 13:11:01.201732 28065 net.cpp:165] Memory required for data: 1609204484
I1028 13:11:01.201736 28065 layer_factory.hpp:76] Creating layer loss2/ave_pool
I1028 13:11:01.201745 28065 net.cpp:106] Creating Layer loss2/ave_pool
I1028 13:11:01.201751 28065 net.cpp:454] loss2/ave_pool <- inception_4d/output_inception_4d/output_0_split_0
I1028 13:11:01.201760 28065 net.cpp:411] loss2/ave_pool -> loss2/ave_pool
I1028 13:11:01.202136 28065 net.cpp:150] Setting up loss2/ave_pool
I1028 13:11:01.202149 28065 net.cpp:157] Top shape: 32 528 4 4 (270336)
I1028 13:11:01.202155 28065 net.cpp:165] Memory required for data: 1610285828
I1028 13:11:01.202160 28065 layer_factory.hpp:76] Creating layer loss2/conv
I1028 13:11:01.202184 28065 net.cpp:106] Creating Layer loss2/conv
I1028 13:11:01.202191 28065 net.cpp:454] loss2/conv <- loss2/ave_pool
I1028 13:11:01.202199 28065 net.cpp:411] loss2/conv -> loss2/conv
I1028 13:11:01.203691 28065 cudnn_conv_layer.cpp:194] Reallocating workspace storage: 6840
I1028 13:11:01.203718 28065 net.cpp:150] Setting up loss2/conv
I1028 13:11:01.203727 28065 net.cpp:157] Top shape: 32 128 4 4 (65536)
I1028 13:11:01.203732 28065 net.cpp:165] Memory required for data: 1610547972
I1028 13:11:01.203742 28065 layer_factory.hpp:76] Creating layer loss2/prelu_conv
I1028 13:11:01.203753 28065 net.cpp:106] Creating Layer loss2/prelu_conv
I1028 13:11:01.203759 28065 net.cpp:454] loss2/prelu_conv <- loss2/conv
I1028 13:11:01.203765 28065 net.cpp:397] loss2/prelu_conv -> loss2/conv (in-place)
I1028 13:11:01.203866 28065 net.cpp:150] Setting up loss2/prelu_conv
I1028 13:11:01.203876 28065 net.cpp:157] Top shape: 32 128 4 4 (65536)
I1028 13:11:01.203881 28065 net.cpp:165] Memory required for data: 1610810116
I1028 13:11:01.203886 28065 layer_factory.hpp:76] Creating layer loss2/fc
I1028 13:11:01.203896 28065 net.cpp:106] Creating Layer loss2/fc
I1028 13:11:01.203901 28065 net.cpp:454] loss2/fc <- loss2/conv
I1028 13:11:01.203909 28065 net.cpp:411] loss2/fc -> loss2/fc
I1028 13:11:01.219156 28065 net.cpp:150] Setting up loss2/fc
I1028 13:11:01.219197 28065 net.cpp:157] Top shape: 32 1024 (32768)
I1028 13:11:01.219202 28065 net.cpp:165] Memory required for data: 1610941188
I1028 13:11:01.219229 28065 layer_factory.hpp:76] Creating layer loss2/prelu_fc
I1028 13:11:01.219243 28065 net.cpp:106] Creating Layer loss2/prelu_fc
I1028 13:11:01.219251 28065 net.cpp:454] loss2/prelu_fc <- loss2/fc
I1028 13:11:01.219266 28065 net.cpp:397] loss2/prelu_fc -> loss2/fc (in-place)
I1028 13:11:01.219390 28065 net.cpp:150] Setting up loss2/prelu_fc
I1028 13:11:01.219398 28065 net.cpp:157] Top shape: 32 1024 (32768)
I1028 13:11:01.219403 28065 net.cpp:165] Memory required for data: 1611072260
I1028 13:11:01.219415 28065 layer_factory.hpp:76] Creating layer loss2/drop_fc
I1028 13:11:01.219425 28065 net.cpp:106] Creating Layer loss2/drop_fc
I1028 13:11:01.219431 28065 net.cpp:454] loss2/drop_fc <- loss2/fc
I1028 13:11:01.219436 28065 net.cpp:397] loss2/drop_fc -> loss2/fc (in-place)
I1028 13:11:01.219480 28065 net.cpp:150] Setting up loss2/drop_fc
I1028 13:11:01.219487 28065 net.cpp:157] Top shape: 32 1024 (32768)
I1028 13:11:01.219491 28065 net.cpp:165] Memory required for data: 1611203332
I1028 13:11:01.219511 28065 layer_factory.hpp:76] Creating layer loss2/classifier2
I1028 13:11:01.219527 28065 net.cpp:106] Creating Layer loss2/classifier2
I1028 13:11:01.219532 28065 net.cpp:454] loss2/classifier2 <- loss2/fc
I1028 13:11:01.219540 28065 net.cpp:411] loss2/classifier2 -> loss2/classifier
I1028 13:11:01.219699 28065 net.cpp:150] Setting up loss2/classifier2
I1028 13:11:01.219708 28065 net.cpp:157] Top shape: 32 2 (64)
I1028 13:11:01.219712 28065 net.cpp:165] Memory required for data: 1611203588
I1028 13:11:01.219725 28065 layer_factory.hpp:76] Creating layer loss2/loss
I1028 13:11:01.219732 28065 net.cpp:106] Creating Layer loss2/loss
I1028 13:11:01.219738 28065 net.cpp:454] loss2/loss <- loss2/classifier
I1028 13:11:01.219743 28065 net.cpp:454] loss2/loss <- label_data_1_split_1
I1028 13:11:01.219748 28065 net.cpp:411] loss2/loss -> loss2/loss1
I1028 13:11:01.219758 28065 layer_factory.hpp:76] Creating layer loss2/loss
I1028 13:11:01.220098 28065 net.cpp:150] Setting up loss2/loss
I1028 13:11:01.220108 28065 net.cpp:157] Top shape: (1)
I1028 13:11:01.220120 28065 net.cpp:160]     with loss weight 0.3
I1028 13:11:01.220132 28065 net.cpp:165] Memory required for data: 1611203592
I1028 13:11:01.220137 28065 layer_factory.hpp:76] Creating layer inception_4e/1x1
I1028 13:11:01.220147 28065 net.cpp:106] Creating Layer inception_4e/1x1
I1028 13:11:01.220155 28065 net.cpp:454] inception_4e/1x1 <- inception_4d/output_inception_4d/output_0_split_1
I1028 13:11:01.220176 28065 net.cpp:411] inception_4e/1x1 -> inception_4e/1x1
I1028 13:11:01.222574 28065 cudnn_conv_layer.cpp:194] Reallocating workspace storage: 10080
I1028 13:11:01.222617 28065 net.cpp:150] Setting up inception_4e/1x1
I1028 13:11:01.222625 28065 net.cpp:157] Top shape: 32 256 14 14 (1605632)
I1028 13:11:01.222630 28065 net.cpp:165] Memory required for data: 1617626120
I1028 13:11:01.222636 28065 layer_factory.hpp:76] Creating layer inception_4e/prelu_1x1
I1028 13:11:01.222643 28065 net.cpp:106] Creating Layer inception_4e/prelu_1x1
I1028 13:11:01.222648 28065 net.cpp:454] inception_4e/prelu_1x1 <- inception_4e/1x1
I1028 13:11:01.222656 28065 net.cpp:397] inception_4e/prelu_1x1 -> inception_4e/1x1 (in-place)
I1028 13:11:01.222805 28065 net.cpp:150] Setting up inception_4e/prelu_1x1
I1028 13:11:01.222816 28065 net.cpp:157] Top shape: 32 256 14 14 (1605632)
I1028 13:11:01.222820 28065 net.cpp:165] Memory required for data: 1624048648
I1028 13:11:01.222826 28065 layer_factory.hpp:76] Creating layer inception_4e/3x3_reduce
I1028 13:11:01.222833 28065 net.cpp:106] Creating Layer inception_4e/3x3_reduce
I1028 13:11:01.222837 28065 net.cpp:454] inception_4e/3x3_reduce <- inception_4d/output_inception_4d/output_0_split_2
I1028 13:11:01.222844 28065 net.cpp:411] inception_4e/3x3_reduce -> inception_4e/3x3_reduce
I1028 13:11:01.224354 28065 cudnn_conv_layer.cpp:194] Reallocating workspace storage: 10080
I1028 13:11:01.224382 28065 net.cpp:150] Setting up inception_4e/3x3_reduce
I1028 13:11:01.224390 28065 net.cpp:157] Top shape: 32 160 14 14 (1003520)
I1028 13:11:01.224393 28065 net.cpp:165] Memory required for data: 1628062728
I1028 13:11:01.224400 28065 layer_factory.hpp:76] Creating layer inception_4e/prelu_3x3_reduce
I1028 13:11:01.224408 28065 net.cpp:106] Creating Layer inception_4e/prelu_3x3_reduce
I1028 13:11:01.224413 28065 net.cpp:454] inception_4e/prelu_3x3_reduce <- inception_4e/3x3_reduce
I1028 13:11:01.224421 28065 net.cpp:397] inception_4e/prelu_3x3_reduce -> inception_4e/3x3_reduce (in-place)
I1028 13:11:01.224534 28065 net.cpp:150] Setting up inception_4e/prelu_3x3_reduce
I1028 13:11:01.224542 28065 net.cpp:157] Top shape: 32 160 14 14 (1003520)
I1028 13:11:01.224546 28065 net.cpp:165] Memory required for data: 1632076808
I1028 13:11:01.224552 28065 layer_factory.hpp:76] Creating layer inception_4e/3x3
I1028 13:11:01.224560 28065 net.cpp:106] Creating Layer inception_4e/3x3
I1028 13:11:01.224567 28065 net.cpp:454] inception_4e/3x3 <- inception_4e/3x3_reduce
I1028 13:11:01.224575 28065 net.cpp:411] inception_4e/3x3 -> inception_4e/3x3
I1028 13:11:01.229204 28065 cudnn_conv_layer.cpp:194] Reallocating workspace storage: 10080
I1028 13:11:01.229254 28065 net.cpp:150] Setting up inception_4e/3x3
I1028 13:11:01.229266 28065 net.cpp:157] Top shape: 32 320 14 14 (2007040)
I1028 13:11:01.229271 28065 net.cpp:165] Memory required for data: 1640104968
I1028 13:11:01.229281 28065 layer_factory.hpp:76] Creating layer inception_4e/prelu_3x3
I1028 13:11:01.229295 28065 net.cpp:106] Creating Layer inception_4e/prelu_3x3
I1028 13:11:01.229301 28065 net.cpp:454] inception_4e/prelu_3x3 <- inception_4e/3x3
I1028 13:11:01.229310 28065 net.cpp:397] inception_4e/prelu_3x3 -> inception_4e/3x3 (in-place)
I1028 13:11:01.229490 28065 net.cpp:150] Setting up inception_4e/prelu_3x3
I1028 13:11:01.229501 28065 net.cpp:157] Top shape: 32 320 14 14 (2007040)
I1028 13:11:01.229506 28065 net.cpp:165] Memory required for data: 1648133128
I1028 13:11:01.229511 28065 layer_factory.hpp:76] Creating layer inception_4e/5x5_reduce
I1028 13:11:01.229519 28065 net.cpp:106] Creating Layer inception_4e/5x5_reduce
I1028 13:11:01.229524 28065 net.cpp:454] inception_4e/5x5_reduce <- inception_4d/output_inception_4d/output_0_split_3
I1028 13:11:01.229532 28065 net.cpp:411] inception_4e/5x5_reduce -> inception_4e/5x5_reduce
I1028 13:11:01.230746 28065 cudnn_conv_layer.cpp:194] Reallocating workspace storage: 10080
I1028 13:11:01.230774 28065 net.cpp:150] Setting up inception_4e/5x5_reduce
I1028 13:11:01.230782 28065 net.cpp:157] Top shape: 32 32 14 14 (200704)
I1028 13:11:01.230787 28065 net.cpp:165] Memory required for data: 1648935944
I1028 13:11:01.230821 28065 layer_factory.hpp:76] Creating layer inception_4e/prelu_5x5_reduce
I1028 13:11:01.230833 28065 net.cpp:106] Creating Layer inception_4e/prelu_5x5_reduce
I1028 13:11:01.230837 28065 net.cpp:454] inception_4e/prelu_5x5_reduce <- inception_4e/5x5_reduce
I1028 13:11:01.230845 28065 net.cpp:397] inception_4e/prelu_5x5_reduce -> inception_4e/5x5_reduce (in-place)
I1028 13:11:01.230964 28065 net.cpp:150] Setting up inception_4e/prelu_5x5_reduce
I1028 13:11:01.230973 28065 net.cpp:157] Top shape: 32 32 14 14 (200704)
I1028 13:11:01.230978 28065 net.cpp:165] Memory required for data: 1649738760
I1028 13:11:01.230994 28065 layer_factory.hpp:76] Creating layer inception_4e/5x5
I1028 13:11:01.231019 28065 net.cpp:106] Creating Layer inception_4e/5x5
I1028 13:11:01.231026 28065 net.cpp:454] inception_4e/5x5 <- inception_4e/5x5_reduce
I1028 13:11:01.231034 28065 net.cpp:411] inception_4e/5x5 -> inception_4e/5x5
I1028 13:11:01.233158 28065 cudnn_conv_layer.cpp:194] Reallocating workspace storage: 13080
I1028 13:11:01.233197 28065 net.cpp:150] Setting up inception_4e/5x5
I1028 13:11:01.233209 28065 net.cpp:157] Top shape: 32 128 14 14 (802816)
I1028 13:11:01.233214 28065 net.cpp:165] Memory required for data: 1652950024
I1028 13:11:01.233222 28065 layer_factory.hpp:76] Creating layer inception_4e/prelu_5x5
I1028 13:11:01.233243 28065 net.cpp:106] Creating Layer inception_4e/prelu_5x5
I1028 13:11:01.233249 28065 net.cpp:454] inception_4e/prelu_5x5 <- inception_4e/5x5
I1028 13:11:01.233255 28065 net.cpp:397] inception_4e/prelu_5x5 -> inception_4e/5x5 (in-place)
I1028 13:11:01.233384 28065 net.cpp:150] Setting up inception_4e/prelu_5x5
I1028 13:11:01.233396 28065 net.cpp:157] Top shape: 32 128 14 14 (802816)
I1028 13:11:01.233399 28065 net.cpp:165] Memory required for data: 1656161288
I1028 13:11:01.233404 28065 layer_factory.hpp:76] Creating layer inception_4e/pool
I1028 13:11:01.233414 28065 net.cpp:106] Creating Layer inception_4e/pool
I1028 13:11:01.233419 28065 net.cpp:454] inception_4e/pool <- inception_4d/output_inception_4d/output_0_split_4
I1028 13:11:01.233425 28065 net.cpp:411] inception_4e/pool -> inception_4e/pool
I1028 13:11:01.233830 28065 net.cpp:150] Setting up inception_4e/pool
I1028 13:11:01.233845 28065 net.cpp:157] Top shape: 32 528 14 14 (3311616)
I1028 13:11:01.233850 28065 net.cpp:165] Memory required for data: 1669407752
I1028 13:11:01.233855 28065 layer_factory.hpp:76] Creating layer inception_4e/pool_proj
I1028 13:11:01.233865 28065 net.cpp:106] Creating Layer inception_4e/pool_proj
I1028 13:11:01.233870 28065 net.cpp:454] inception_4e/pool_proj <- inception_4e/pool
I1028 13:11:01.233878 28065 net.cpp:411] inception_4e/pool_proj -> inception_4e/pool_proj
I1028 13:11:01.235179 28065 cudnn_conv_layer.cpp:194] Reallocating workspace storage: 10080
I1028 13:11:01.235213 28065 net.cpp:150] Setting up inception_4e/pool_proj
I1028 13:11:01.235224 28065 net.cpp:157] Top shape: 32 128 14 14 (802816)
I1028 13:11:01.235227 28065 net.cpp:165] Memory required for data: 1672619016
I1028 13:11:01.235245 28065 layer_factory.hpp:76] Creating layer inception_4e/prelu_pool_proj
I1028 13:11:01.235255 28065 net.cpp:106] Creating Layer inception_4e/prelu_pool_proj
I1028 13:11:01.235260 28065 net.cpp:454] inception_4e/prelu_pool_proj <- inception_4e/pool_proj
I1028 13:11:01.235266 28065 net.cpp:397] inception_4e/prelu_pool_proj -> inception_4e/pool_proj (in-place)
I1028 13:11:01.235390 28065 net.cpp:150] Setting up inception_4e/prelu_pool_proj
I1028 13:11:01.235399 28065 net.cpp:157] Top shape: 32 128 14 14 (802816)
I1028 13:11:01.235404 28065 net.cpp:165] Memory required for data: 1675830280
I1028 13:11:01.235419 28065 layer_factory.hpp:76] Creating layer inception_4e/output
I1028 13:11:01.235426 28065 net.cpp:106] Creating Layer inception_4e/output
I1028 13:11:01.235430 28065 net.cpp:454] inception_4e/output <- inception_4e/1x1
I1028 13:11:01.235435 28065 net.cpp:454] inception_4e/output <- inception_4e/3x3
I1028 13:11:01.235440 28065 net.cpp:454] inception_4e/output <- inception_4e/5x5
I1028 13:11:01.235445 28065 net.cpp:454] inception_4e/output <- inception_4e/pool_proj
I1028 13:11:01.235477 28065 net.cpp:411] inception_4e/output -> inception_4e/output
I1028 13:11:01.235518 28065 net.cpp:150] Setting up inception_4e/output
I1028 13:11:01.235546 28065 net.cpp:157] Top shape: 32 832 14 14 (5218304)
I1028 13:11:01.235551 28065 net.cpp:165] Memory required for data: 1696703496
I1028 13:11:01.235555 28065 layer_factory.hpp:76] Creating layer pool4/3x3_s2
I1028 13:11:01.235563 28065 net.cpp:106] Creating Layer pool4/3x3_s2
I1028 13:11:01.235569 28065 net.cpp:454] pool4/3x3_s2 <- inception_4e/output
I1028 13:11:01.235575 28065 net.cpp:411] pool4/3x3_s2 -> pool4/3x3_s2
I1028 13:11:01.235977 28065 net.cpp:150] Setting up pool4/3x3_s2
I1028 13:11:01.235991 28065 net.cpp:157] Top shape: 32 832 7 7 (1304576)
I1028 13:11:01.236006 28065 net.cpp:165] Memory required for data: 1701921800
I1028 13:11:01.236011 28065 layer_factory.hpp:76] Creating layer pool4/3x3_s2_pool4/3x3_s2_0_split
I1028 13:11:01.236017 28065 net.cpp:106] Creating Layer pool4/3x3_s2_pool4/3x3_s2_0_split
I1028 13:11:01.236022 28065 net.cpp:454] pool4/3x3_s2_pool4/3x3_s2_0_split <- pool4/3x3_s2
I1028 13:11:01.236029 28065 net.cpp:411] pool4/3x3_s2_pool4/3x3_s2_0_split -> pool4/3x3_s2_pool4/3x3_s2_0_split_0
I1028 13:11:01.236037 28065 net.cpp:411] pool4/3x3_s2_pool4/3x3_s2_0_split -> pool4/3x3_s2_pool4/3x3_s2_0_split_1
I1028 13:11:01.236044 28065 net.cpp:411] pool4/3x3_s2_pool4/3x3_s2_0_split -> pool4/3x3_s2_pool4/3x3_s2_0_split_2
I1028 13:11:01.236050 28065 net.cpp:411] pool4/3x3_s2_pool4/3x3_s2_0_split -> pool4/3x3_s2_pool4/3x3_s2_0_split_3
I1028 13:11:01.236127 28065 net.cpp:150] Setting up pool4/3x3_s2_pool4/3x3_s2_0_split
I1028 13:11:01.236137 28065 net.cpp:157] Top shape: 32 832 7 7 (1304576)
I1028 13:11:01.236153 28065 net.cpp:157] Top shape: 32 832 7 7 (1304576)
I1028 13:11:01.236158 28065 net.cpp:157] Top shape: 32 832 7 7 (1304576)
I1028 13:11:01.236163 28065 net.cpp:157] Top shape: 32 832 7 7 (1304576)
I1028 13:11:01.236167 28065 net.cpp:165] Memory required for data: 1722795016
I1028 13:11:01.236171 28065 layer_factory.hpp:76] Creating layer inception_5a/1x1
I1028 13:11:01.236189 28065 net.cpp:106] Creating Layer inception_5a/1x1
I1028 13:11:01.236204 28065 net.cpp:454] inception_5a/1x1 <- pool4/3x3_s2_pool4/3x3_s2_0_split_0
I1028 13:11:01.236213 28065 net.cpp:411] inception_5a/1x1 -> inception_5a/1x1
I1028 13:11:01.238968 28065 cudnn_conv_layer.cpp:194] Reallocating workspace storage: 7428
I1028 13:11:01.239002 28065 net.cpp:150] Setting up inception_5a/1x1
I1028 13:11:01.239012 28065 net.cpp:157] Top shape: 32 256 7 7 (401408)
I1028 13:11:01.239015 28065 net.cpp:165] Memory required for data: 1724400648
I1028 13:11:01.239023 28065 layer_factory.hpp:76] Creating layer inception_5a/prelu_1x1
I1028 13:11:01.239033 28065 net.cpp:106] Creating Layer inception_5a/prelu_1x1
I1028 13:11:01.239038 28065 net.cpp:454] inception_5a/prelu_1x1 <- inception_5a/1x1
I1028 13:11:01.239054 28065 net.cpp:397] inception_5a/prelu_1x1 -> inception_5a/1x1 (in-place)
I1028 13:11:01.239639 28065 net.cpp:150] Setting up inception_5a/prelu_1x1
I1028 13:11:01.239652 28065 net.cpp:157] Top shape: 32 256 7 7 (401408)
I1028 13:11:01.239656 28065 net.cpp:165] Memory required for data: 1726006280
I1028 13:11:01.239662 28065 layer_factory.hpp:76] Creating layer inception_5a/3x3_reduce
I1028 13:11:01.239672 28065 net.cpp:106] Creating Layer inception_5a/3x3_reduce
I1028 13:11:01.239677 28065 net.cpp:454] inception_5a/3x3_reduce <- pool4/3x3_s2_pool4/3x3_s2_0_split_1
I1028 13:11:01.239684 28065 net.cpp:411] inception_5a/3x3_reduce -> inception_5a/3x3_reduce
I1028 13:11:01.241938 28065 cudnn_conv_layer.cpp:194] Reallocating workspace storage: 7428
I1028 13:11:01.241971 28065 net.cpp:150] Setting up inception_5a/3x3_reduce
I1028 13:11:01.241981 28065 net.cpp:157] Top shape: 32 160 7 7 (250880)
I1028 13:11:01.241986 28065 net.cpp:165] Memory required for data: 1727009800
I1028 13:11:01.241999 28065 layer_factory.hpp:76] Creating layer inception_5a/prelu_3x3_reduce
I1028 13:11:01.242008 28065 net.cpp:106] Creating Layer inception_5a/prelu_3x3_reduce
I1028 13:11:01.242041 28065 net.cpp:454] inception_5a/prelu_3x3_reduce <- inception_5a/3x3_reduce
I1028 13:11:01.242050 28065 net.cpp:397] inception_5a/prelu_3x3_reduce -> inception_5a/3x3_reduce (in-place)
I1028 13:11:01.242169 28065 net.cpp:150] Setting up inception_5a/prelu_3x3_reduce
I1028 13:11:01.242179 28065 net.cpp:157] Top shape: 32 160 7 7 (250880)
I1028 13:11:01.242182 28065 net.cpp:165] Memory required for data: 1728013320
I1028 13:11:01.242188 28065 layer_factory.hpp:76] Creating layer inception_5a/3x3
I1028 13:11:01.242197 28065 net.cpp:106] Creating Layer inception_5a/3x3
I1028 13:11:01.242202 28065 net.cpp:454] inception_5a/3x3 <- inception_5a/3x3_reduce
I1028 13:11:01.242209 28065 net.cpp:411] inception_5a/3x3 -> inception_5a/3x3
I1028 13:11:01.246264 28065 cudnn_conv_layer.cpp:194] Reallocating workspace storage: 7788
I1028 13:11:01.246309 28065 net.cpp:150] Setting up inception_5a/3x3
I1028 13:11:01.246318 28065 net.cpp:157] Top shape: 32 320 7 7 (501760)
I1028 13:11:01.246323 28065 net.cpp:165] Memory required for data: 1730020360
I1028 13:11:01.246331 28065 layer_factory.hpp:76] Creating layer inception_5a/prelu_3x3
I1028 13:11:01.246346 28065 net.cpp:106] Creating Layer inception_5a/prelu_3x3
I1028 13:11:01.246366 28065 net.cpp:454] inception_5a/prelu_3x3 <- inception_5a/3x3
I1028 13:11:01.246392 28065 net.cpp:397] inception_5a/prelu_3x3 -> inception_5a/3x3 (in-place)
I1028 13:11:01.246529 28065 net.cpp:150] Setting up inception_5a/prelu_3x3
I1028 13:11:01.246538 28065 net.cpp:157] Top shape: 32 320 7 7 (501760)
I1028 13:11:01.246542 28065 net.cpp:165] Memory required for data: 1732027400
I1028 13:11:01.246547 28065 layer_factory.hpp:76] Creating layer inception_5a/5x5_reduce
I1028 13:11:01.246556 28065 net.cpp:106] Creating Layer inception_5a/5x5_reduce
I1028 13:11:01.246562 28065 net.cpp:454] inception_5a/5x5_reduce <- pool4/3x3_s2_pool4/3x3_s2_0_split_2
I1028 13:11:01.246569 28065 net.cpp:411] inception_5a/5x5_reduce -> inception_5a/5x5_reduce
I1028 13:11:01.247810 28065 cudnn_conv_layer.cpp:194] Reallocating workspace storage: 7428
I1028 13:11:01.247836 28065 net.cpp:150] Setting up inception_5a/5x5_reduce
I1028 13:11:01.247844 28065 net.cpp:157] Top shape: 32 32 7 7 (50176)
I1028 13:11:01.247848 28065 net.cpp:165] Memory required for data: 1732228104
I1028 13:11:01.247855 28065 layer_factory.hpp:76] Creating layer inception_5a/prelu_5x5_reduce
I1028 13:11:01.247862 28065 net.cpp:106] Creating Layer inception_5a/prelu_5x5_reduce
I1028 13:11:01.247867 28065 net.cpp:454] inception_5a/prelu_5x5_reduce <- inception_5a/5x5_reduce
I1028 13:11:01.247874 28065 net.cpp:397] inception_5a/prelu_5x5_reduce -> inception_5a/5x5_reduce (in-place)
I1028 13:11:01.247975 28065 net.cpp:150] Setting up inception_5a/prelu_5x5_reduce
I1028 13:11:01.247984 28065 net.cpp:157] Top shape: 32 32 7 7 (50176)
I1028 13:11:01.247988 28065 net.cpp:165] Memory required for data: 1732428808
I1028 13:11:01.247994 28065 layer_factory.hpp:76] Creating layer inception_5a/5x5
I1028 13:11:01.248003 28065 net.cpp:106] Creating Layer inception_5a/5x5
I1028 13:11:01.248008 28065 net.cpp:454] inception_5a/5x5 <- inception_5a/5x5_reduce
I1028 13:11:01.248015 28065 net.cpp:411] inception_5a/5x5 -> inception_5a/5x5
I1028 13:11:01.249634 28065 cudnn_conv_layer.cpp:194] Reallocating workspace storage: 9804
I1028 13:11:01.249660 28065 net.cpp:150] Setting up inception_5a/5x5
I1028 13:11:01.249666 28065 net.cpp:157] Top shape: 32 128 7 7 (200704)
I1028 13:11:01.249670 28065 net.cpp:165] Memory required for data: 1733231624
I1028 13:11:01.249677 28065 layer_factory.hpp:76] Creating layer inception_5a/prelu_5x5
I1028 13:11:01.249686 28065 net.cpp:106] Creating Layer inception_5a/prelu_5x5
I1028 13:11:01.249691 28065 net.cpp:454] inception_5a/prelu_5x5 <- inception_5a/5x5
I1028 13:11:01.249697 28065 net.cpp:397] inception_5a/prelu_5x5 -> inception_5a/5x5 (in-place)
I1028 13:11:01.249799 28065 net.cpp:150] Setting up inception_5a/prelu_5x5
I1028 13:11:01.249807 28065 net.cpp:157] Top shape: 32 128 7 7 (200704)
I1028 13:11:01.249825 28065 net.cpp:165] Memory required for data: 1734034440
I1028 13:11:01.249830 28065 layer_factory.hpp:76] Creating layer inception_5a/pool
I1028 13:11:01.249837 28065 net.cpp:106] Creating Layer inception_5a/pool
I1028 13:11:01.249841 28065 net.cpp:454] inception_5a/pool <- pool4/3x3_s2_pool4/3x3_s2_0_split_3
I1028 13:11:01.249850 28065 net.cpp:411] inception_5a/pool -> inception_5a/pool
I1028 13:11:01.250036 28065 net.cpp:150] Setting up inception_5a/pool
I1028 13:11:01.250047 28065 net.cpp:157] Top shape: 32 832 7 7 (1304576)
I1028 13:11:01.250051 28065 net.cpp:165] Memory required for data: 1739252744
I1028 13:11:01.250056 28065 layer_factory.hpp:76] Creating layer inception_5a/pool_proj
I1028 13:11:01.250062 28065 net.cpp:106] Creating Layer inception_5a/pool_proj
I1028 13:11:01.250067 28065 net.cpp:454] inception_5a/pool_proj <- inception_5a/pool
I1028 13:11:01.250075 28065 net.cpp:411] inception_5a/pool_proj -> inception_5a/pool_proj
I1028 13:11:01.252440 28065 cudnn_conv_layer.cpp:194] Reallocating workspace storage: 7428
I1028 13:11:01.252485 28065 net.cpp:150] Setting up inception_5a/pool_proj
I1028 13:11:01.252495 28065 net.cpp:157] Top shape: 32 128 7 7 (200704)
I1028 13:11:01.252498 28065 net.cpp:165] Memory required for data: 1740055560
I1028 13:11:01.252506 28065 layer_factory.hpp:76] Creating layer inception_5a/prelu_pool_proj
I1028 13:11:01.252527 28065 net.cpp:106] Creating Layer inception_5a/prelu_pool_proj
I1028 13:11:01.252542 28065 net.cpp:454] inception_5a/prelu_pool_proj <- inception_5a/pool_proj
I1028 13:11:01.252555 28065 net.cpp:397] inception_5a/prelu_pool_proj -> inception_5a/pool_proj (in-place)
I1028 13:11:01.252671 28065 net.cpp:150] Setting up inception_5a/prelu_pool_proj
I1028 13:11:01.252679 28065 net.cpp:157] Top shape: 32 128 7 7 (200704)
I1028 13:11:01.252684 28065 net.cpp:165] Memory required for data: 1740858376
I1028 13:11:01.252701 28065 layer_factory.hpp:76] Creating layer inception_5a/output
I1028 13:11:01.252713 28065 net.cpp:106] Creating Layer inception_5a/output
I1028 13:11:01.252724 28065 net.cpp:454] inception_5a/output <- inception_5a/1x1
I1028 13:11:01.252743 28065 net.cpp:454] inception_5a/output <- inception_5a/3x3
I1028 13:11:01.252759 28065 net.cpp:454] inception_5a/output <- inception_5a/5x5
I1028 13:11:01.252764 28065 net.cpp:454] inception_5a/output <- inception_5a/pool_proj
I1028 13:11:01.252774 28065 net.cpp:411] inception_5a/output -> inception_5a/output
I1028 13:11:01.252811 28065 net.cpp:150] Setting up inception_5a/output
I1028 13:11:01.252820 28065 net.cpp:157] Top shape: 32 832 7 7 (1304576)
I1028 13:11:01.252836 28065 net.cpp:165] Memory required for data: 1746076680
I1028 13:11:01.252840 28065 layer_factory.hpp:76] Creating layer inception_5a/output_inception_5a/output_0_split
I1028 13:11:01.252849 28065 net.cpp:106] Creating Layer inception_5a/output_inception_5a/output_0_split
I1028 13:11:01.252854 28065 net.cpp:454] inception_5a/output_inception_5a/output_0_split <- inception_5a/output
I1028 13:11:01.252861 28065 net.cpp:411] inception_5a/output_inception_5a/output_0_split -> inception_5a/output_inception_5a/output_0_split_0
I1028 13:11:01.252868 28065 net.cpp:411] inception_5a/output_inception_5a/output_0_split -> inception_5a/output_inception_5a/output_0_split_1
I1028 13:11:01.252884 28065 net.cpp:411] inception_5a/output_inception_5a/output_0_split -> inception_5a/output_inception_5a/output_0_split_2
I1028 13:11:01.252892 28065 net.cpp:411] inception_5a/output_inception_5a/output_0_split -> inception_5a/output_inception_5a/output_0_split_3
I1028 13:11:01.252992 28065 net.cpp:150] Setting up inception_5a/output_inception_5a/output_0_split
I1028 13:11:01.253000 28065 net.cpp:157] Top shape: 32 832 7 7 (1304576)
I1028 13:11:01.253006 28065 net.cpp:157] Top shape: 32 832 7 7 (1304576)
I1028 13:11:01.253010 28065 net.cpp:157] Top shape: 32 832 7 7 (1304576)
I1028 13:11:01.253015 28065 net.cpp:157] Top shape: 32 832 7 7 (1304576)
I1028 13:11:01.253020 28065 net.cpp:165] Memory required for data: 1766949896
I1028 13:11:01.253036 28065 layer_factory.hpp:76] Creating layer inception_5b/1x1
I1028 13:11:01.253046 28065 net.cpp:106] Creating Layer inception_5b/1x1
I1028 13:11:01.253051 28065 net.cpp:454] inception_5b/1x1 <- inception_5a/output_inception_5a/output_0_split_0
I1028 13:11:01.253057 28065 net.cpp:411] inception_5b/1x1 -> inception_5b/1x1
I1028 13:11:01.256521 28065 cudnn_conv_layer.cpp:194] Reallocating workspace storage: 7428
I1028 13:11:01.256564 28065 net.cpp:150] Setting up inception_5b/1x1
I1028 13:11:01.256575 28065 net.cpp:157] Top shape: 32 384 7 7 (602112)
I1028 13:11:01.256582 28065 net.cpp:165] Memory required for data: 1769358344
I1028 13:11:01.256589 28065 layer_factory.hpp:76] Creating layer inception_5b/prelu_1x1
I1028 13:11:01.256606 28065 net.cpp:106] Creating Layer inception_5b/prelu_1x1
I1028 13:11:01.256613 28065 net.cpp:454] inception_5b/prelu_1x1 <- inception_5b/1x1
I1028 13:11:01.256626 28065 net.cpp:397] inception_5b/prelu_1x1 -> inception_5b/1x1 (in-place)
I1028 13:11:01.257199 28065 net.cpp:150] Setting up inception_5b/prelu_1x1
I1028 13:11:01.257211 28065 net.cpp:157] Top shape: 32 384 7 7 (602112)
I1028 13:11:01.257215 28065 net.cpp:165] Memory required for data: 1771766792
I1028 13:11:01.257220 28065 layer_factory.hpp:76] Creating layer inception_5b/3x3_reduce
I1028 13:11:01.257231 28065 net.cpp:106] Creating Layer inception_5b/3x3_reduce
I1028 13:11:01.257238 28065 net.cpp:454] inception_5b/3x3_reduce <- inception_5a/output_inception_5a/output_0_split_1
I1028 13:11:01.257262 28065 net.cpp:411] inception_5b/3x3_reduce -> inception_5b/3x3_reduce
I1028 13:11:01.259992 28065 cudnn_conv_layer.cpp:194] Reallocating workspace storage: 7428
I1028 13:11:01.260040 28065 net.cpp:150] Setting up inception_5b/3x3_reduce
I1028 13:11:01.260049 28065 net.cpp:157] Top shape: 32 192 7 7 (301056)
I1028 13:11:01.260054 28065 net.cpp:165] Memory required for data: 1772971016
I1028 13:11:01.260072 28065 layer_factory.hpp:76] Creating layer inception_5b/prelu_3x3_reduce
I1028 13:11:01.260087 28065 net.cpp:106] Creating Layer inception_5b/prelu_3x3_reduce
I1028 13:11:01.260097 28065 net.cpp:454] inception_5b/prelu_3x3_reduce <- inception_5b/3x3_reduce
I1028 13:11:01.260123 28065 net.cpp:397] inception_5b/prelu_3x3_reduce -> inception_5b/3x3_reduce (in-place)
I1028 13:11:01.260256 28065 net.cpp:150] Setting up inception_5b/prelu_3x3_reduce
I1028 13:11:01.260267 28065 net.cpp:157] Top shape: 32 192 7 7 (301056)
I1028 13:11:01.260275 28065 net.cpp:165] Memory required for data: 1774175240
I1028 13:11:01.260287 28065 layer_factory.hpp:76] Creating layer inception_5b/3x3
I1028 13:11:01.260324 28065 net.cpp:106] Creating Layer inception_5b/3x3
I1028 13:11:01.260334 28065 net.cpp:454] inception_5b/3x3 <- inception_5b/3x3_reduce
I1028 13:11:01.260349 28065 net.cpp:411] inception_5b/3x3 -> inception_5b/3x3
I1028 13:11:01.268084 28065 cudnn_conv_layer.cpp:194] Reallocating workspace storage: 7788
I1028 13:11:01.268167 28065 net.cpp:150] Setting up inception_5b/3x3
I1028 13:11:01.268234 28065 net.cpp:157] Top shape: 32 384 7 7 (602112)
I1028 13:11:01.268254 28065 net.cpp:165] Memory required for data: 1776583688
I1028 13:11:01.268271 28065 layer_factory.hpp:76] Creating layer inception_5b/prelu_3x3
I1028 13:11:01.268309 28065 net.cpp:106] Creating Layer inception_5b/prelu_3x3
I1028 13:11:01.268322 28065 net.cpp:454] inception_5b/prelu_3x3 <- inception_5b/3x3
I1028 13:11:01.268339 28065 net.cpp:397] inception_5b/prelu_3x3 -> inception_5b/3x3 (in-place)
I1028 13:11:01.268520 28065 net.cpp:150] Setting up inception_5b/prelu_3x3
I1028 13:11:01.268534 28065 net.cpp:157] Top shape: 32 384 7 7 (602112)
I1028 13:11:01.268543 28065 net.cpp:165] Memory required for data: 1778992136
I1028 13:11:01.268553 28065 layer_factory.hpp:76] Creating layer inception_5b/5x5_reduce
I1028 13:11:01.268582 28065 net.cpp:106] Creating Layer inception_5b/5x5_reduce
I1028 13:11:01.268592 28065 net.cpp:454] inception_5b/5x5_reduce <- inception_5a/output_inception_5a/output_0_split_2
I1028 13:11:01.268606 28065 net.cpp:411] inception_5b/5x5_reduce -> inception_5b/5x5_reduce
I1028 13:11:01.269860 28065 cudnn_conv_layer.cpp:194] Reallocating workspace storage: 7428
I1028 13:11:01.269902 28065 net.cpp:150] Setting up inception_5b/5x5_reduce
I1028 13:11:01.269917 28065 net.cpp:157] Top shape: 32 48 7 7 (75264)
I1028 13:11:01.269924 28065 net.cpp:165] Memory required for data: 1779293192
I1028 13:11:01.269938 28065 layer_factory.hpp:76] Creating layer inception_5b/prelu_5x5_reduce
I1028 13:11:01.269956 28065 net.cpp:106] Creating Layer inception_5b/prelu_5x5_reduce
I1028 13:11:01.269968 28065 net.cpp:454] inception_5b/prelu_5x5_reduce <- inception_5b/5x5_reduce
I1028 13:11:01.269979 28065 net.cpp:397] inception_5b/prelu_5x5_reduce -> inception_5b/5x5_reduce (in-place)
I1028 13:11:01.270124 28065 net.cpp:150] Setting up inception_5b/prelu_5x5_reduce
I1028 13:11:01.270138 28065 net.cpp:157] Top shape: 32 48 7 7 (75264)
I1028 13:11:01.270145 28065 net.cpp:165] Memory required for data: 1779594248
I1028 13:11:01.270155 28065 layer_factory.hpp:76] Creating layer inception_5b/5x5
I1028 13:11:01.270171 28065 net.cpp:106] Creating Layer inception_5b/5x5
I1028 13:11:01.270182 28065 net.cpp:454] inception_5b/5x5 <- inception_5b/5x5_reduce
I1028 13:11:01.270200 28065 net.cpp:411] inception_5b/5x5 -> inception_5b/5x5
I1028 13:11:01.272253 28065 cudnn_conv_layer.cpp:194] Reallocating workspace storage: 9804
I1028 13:11:01.272294 28065 net.cpp:150] Setting up inception_5b/5x5
I1028 13:11:01.272307 28065 net.cpp:157] Top shape: 32 128 7 7 (200704)
I1028 13:11:01.272315 28065 net.cpp:165] Memory required for data: 1780397064
I1028 13:11:01.272328 28065 layer_factory.hpp:76] Creating layer inception_5b/prelu_5x5
I1028 13:11:01.272344 28065 net.cpp:106] Creating Layer inception_5b/prelu_5x5
I1028 13:11:01.272354 28065 net.cpp:454] inception_5b/prelu_5x5 <- inception_5b/5x5
I1028 13:11:01.272367 28065 net.cpp:397] inception_5b/prelu_5x5 -> inception_5b/5x5 (in-place)
I1028 13:11:01.272486 28065 net.cpp:150] Setting up inception_5b/prelu_5x5
I1028 13:11:01.272497 28065 net.cpp:157] Top shape: 32 128 7 7 (200704)
I1028 13:11:01.272505 28065 net.cpp:165] Memory required for data: 1781199880
I1028 13:11:01.272522 28065 layer_factory.hpp:76] Creating layer inception_5b/pool
I1028 13:11:01.272534 28065 net.cpp:106] Creating Layer inception_5b/pool
I1028 13:11:01.272543 28065 net.cpp:454] inception_5b/pool <- inception_5a/output_inception_5a/output_0_split_3
I1028 13:11:01.272557 28065 net.cpp:411] inception_5b/pool -> inception_5b/pool
I1028 13:11:01.272946 28065 net.cpp:150] Setting up inception_5b/pool
I1028 13:11:01.272959 28065 net.cpp:157] Top shape: 32 832 7 7 (1304576)
I1028 13:11:01.272967 28065 net.cpp:165] Memory required for data: 1786418184
I1028 13:11:01.272975 28065 layer_factory.hpp:76] Creating layer inception_5b/pool_proj
I1028 13:11:01.272999 28065 net.cpp:106] Creating Layer inception_5b/pool_proj
I1028 13:11:01.273010 28065 net.cpp:454] inception_5b/pool_proj <- inception_5b/pool
I1028 13:11:01.273025 28065 net.cpp:411] inception_5b/pool_proj -> inception_5b/pool_proj
I1028 13:11:01.275229 28065 cudnn_conv_layer.cpp:194] Reallocating workspace storage: 7428
I1028 13:11:01.275279 28065 net.cpp:150] Setting up inception_5b/pool_proj
I1028 13:11:01.275291 28065 net.cpp:157] Top shape: 32 128 7 7 (200704)
I1028 13:11:01.275313 28065 net.cpp:165] Memory required for data: 1787221000
I1028 13:11:01.275329 28065 layer_factory.hpp:76] Creating layer inception_5b/prelu_pool_proj
I1028 13:11:01.275344 28065 net.cpp:106] Creating Layer inception_5b/prelu_pool_proj
I1028 13:11:01.275369 28065 net.cpp:454] inception_5b/prelu_pool_proj <- inception_5b/pool_proj
I1028 13:11:01.275390 28065 net.cpp:397] inception_5b/prelu_pool_proj -> inception_5b/pool_proj (in-place)
I1028 13:11:01.275532 28065 net.cpp:150] Setting up inception_5b/prelu_pool_proj
I1028 13:11:01.275547 28065 net.cpp:157] Top shape: 32 128 7 7 (200704)
I1028 13:11:01.275554 28065 net.cpp:165] Memory required for data: 1788023816
I1028 13:11:01.275573 28065 layer_factory.hpp:76] Creating layer inception_5b/output
I1028 13:11:01.275583 28065 net.cpp:106] Creating Layer inception_5b/output
I1028 13:11:01.275605 28065 net.cpp:454] inception_5b/output <- inception_5b/1x1
I1028 13:11:01.275616 28065 net.cpp:454] inception_5b/output <- inception_5b/3x3
I1028 13:11:01.275625 28065 net.cpp:454] inception_5b/output <- inception_5b/5x5
I1028 13:11:01.275635 28065 net.cpp:454] inception_5b/output <- inception_5b/pool_proj
I1028 13:11:01.275645 28065 net.cpp:411] inception_5b/output -> inception_5b/output
I1028 13:11:01.275684 28065 net.cpp:150] Setting up inception_5b/output
I1028 13:11:01.275696 28065 net.cpp:157] Top shape: 32 1024 7 7 (1605632)
I1028 13:11:01.275703 28065 net.cpp:165] Memory required for data: 1794446344
I1028 13:11:01.275712 28065 layer_factory.hpp:76] Creating layer pool5/7x7_s1
I1028 13:11:01.275725 28065 net.cpp:106] Creating Layer pool5/7x7_s1
I1028 13:11:01.275734 28065 net.cpp:454] pool5/7x7_s1 <- inception_5b/output
I1028 13:11:01.275753 28065 net.cpp:411] pool5/7x7_s1 -> pool5/7x7_s1
I1028 13:11:01.275938 28065 net.cpp:150] Setting up pool5/7x7_s1
I1028 13:11:01.275950 28065 net.cpp:157] Top shape: 32 1024 1 1 (32768)
I1028 13:11:01.275959 28065 net.cpp:165] Memory required for data: 1794577416
I1028 13:11:01.275966 28065 layer_factory.hpp:76] Creating layer pool5/drop_7x7_s1
I1028 13:11:01.275977 28065 net.cpp:106] Creating Layer pool5/drop_7x7_s1
I1028 13:11:01.275986 28065 net.cpp:454] pool5/drop_7x7_s1 <- pool5/7x7_s1
I1028 13:11:01.275996 28065 net.cpp:397] pool5/drop_7x7_s1 -> pool5/7x7_s1 (in-place)
I1028 13:11:01.276036 28065 net.cpp:150] Setting up pool5/drop_7x7_s1
I1028 13:11:01.276047 28065 net.cpp:157] Top shape: 32 1024 1 1 (32768)
I1028 13:11:01.276056 28065 net.cpp:165] Memory required for data: 1794708488
I1028 13:11:01.276063 28065 layer_factory.hpp:76] Creating layer loss3/classifier2
I1028 13:11:01.276077 28065 net.cpp:106] Creating Layer loss3/classifier2
I1028 13:11:01.276085 28065 net.cpp:454] loss3/classifier2 <- pool5/7x7_s1
I1028 13:11:01.276098 28065 net.cpp:411] loss3/classifier2 -> loss3/classifier
I1028 13:11:01.276250 28065 net.cpp:150] Setting up loss3/classifier2
I1028 13:11:01.276262 28065 net.cpp:157] Top shape: 32 2 (64)
I1028 13:11:01.276269 28065 net.cpp:165] Memory required for data: 1794708744
I1028 13:11:01.276283 28065 layer_factory.hpp:76] Creating layer loss3/loss3
I1028 13:11:01.276296 28065 net.cpp:106] Creating Layer loss3/loss3
I1028 13:11:01.276306 28065 net.cpp:454] loss3/loss3 <- loss3/classifier
I1028 13:11:01.276316 28065 net.cpp:454] loss3/loss3 <- label_data_1_split_2
I1028 13:11:01.276327 28065 net.cpp:411] loss3/loss3 -> loss3/loss3
…
I1028 13:11:01.281878 28065 net.cpp:322] The NetState phase (1) differed from the phase (0) specified by a rule in layer data
I1028 13:11:01.282898 28065 net.cpp:49] Initializing net from parameters: 
name: "GoogleNet"
state {
  phase: TEST
}
layer {
  name: "data"
  type: "Data"
  top: "data"
  top: "label"
  include {
    phase: TEST
  }
  transform_param {
    mirror: false
    crop_size: 224
    mean_value: 104
    mean_value: 117
    mean_value: 123
  }
  data_param {
    source: "../../LMDB/val_0-lmdb"
    batch_size: 50
    backend: LMDB
  }
}
layer {
  name: "conv1/7x7_s2"
  type: "Convolution"
  bottom: "data"
  top: "conv1/7x7_s2"
  param {
    lr_mult: 1
    decay_mult: 1
  }
  param {
    lr_mult: 2
    decay_mult: 0
  }
  convolution_param {
    num_output: 64
    pad: 3
    kernel_size: 7
    stride: 2
    weight_filler {
      type: "xavier"
    }
    bias_filler {
      type: "constant"
      value: 0.2
    }
  }
}
layer {
  name: "conv1/prelu_7x7"
  type: "PReLU"
  bottom: "conv1/7x7_s2"
  top: "conv1/7x7_s2"
  param {
    lr_mult: 1
    decay_mult: 0
  }
  prelu_param {
    filler {
      type: "constant"
      value: 0.01
    }
  }
}
layer {
  name: "pool1/3x3_s2"
  type: "Pooling"
  bottom: "conv1/7x7_s2"
  top: "pool1/3x3_s2"
  pooling_param {
    pool: MAX
    kernel_size: 3
    stride: 2
  }
}
layer {
  name: "pool1/norm1"
  type: "LRN"
  bottom: "pool1/3x3_s2"
  top: "pool1/norm1"
  lrn_param {
    local_size: 5
    alpha: 0.0001
    beta: 0.75
  }
}
layer {
  name: "conv2/3x3_reduce"
  type: "Convolution"
  bottom: "pool1/norm1"
  top: "conv2/3x3_reduce"
  param {
    lr_mult: 1
    decay_mult: 1
  }
  param {
    lr_mult: 2
    decay_mult: 0
  }
  convolution_param {
    num_output: 64
    kernel_size: 1
    weight_filler {
      type: "xavier"
    }
    bias_filler {
      type: "constant"
      value: 0.2
    }
  }
}
layer {
  name: "conv2/prelu_3x3_reduce"
  type: "PReLU"
  bottom: "conv2/3x3_reduce"
  top: "conv2/3x3_reduce"
  param {
    lr_mult: 1
    decay_mult: 0
  }
  prelu_param {
    filler {
      type: "constant"
      value: 0.01
    }
  }
}
layer {
  name: "conv2/3x3"
  type: "Convolution"
  bottom: "conv2/3x3_reduce"
  top: "conv2/3x3"
  param {
    lr_mult: 1
    decay_mult: 1
  }
  param {
    lr_mult: 2
    decay_mult: 0
  }
  convolution_param {
    num_output: 192
    pad: 1
    kernel_size: 3
    weight_filler {
      type: "xavier"
    }
    bias_filler {
      type: "constant"
      value: 0.2
    }
  }
}
layer {
  name: "conv2/prelu_3x3"
  type: "PReLU"
  bottom: "conv2/3x3"
  top: "conv2/3x3"
  param {
    lr_mult: 1
    decay_mult: 0
  }
  prelu_param {
    filler {
      type: "constant"
      value: 0.01
    }
  }
}
layer {
  name: "conv2/norm2"
  type: "LRN"
  bottom: "conv2/3x3"
  top: "conv2/norm2"
  lrn_param {
    local_size: 5
    alpha: 0.0001
    beta: 0.75
  }
}
layer {
  name: "pool2/3x3_s2"
  type: "Pooling"
  bottom: "conv2/norm2"
  top: "pool2/3x3_s2"
  pooling_param {
    pool: MAX
    kernel_size: 3
    stride: 2
  }
}
layer {
  name: "inception_3a/1x1"
  type: "Convolution"
  bottom: "pool2/3x3_s2"
  top: "inception_3a/1x1"
  param {
    lr_mult: 1
    decay_mult: 1
  }
  param {
    lr_mult: 2
    decay_mult: 0
  }
  convolution_param {
    num_output: 64
    kernel_size: 1
    weight_filler {
      type: "xavier"
    }
    bias_filler {
      type: "constant"
      value: 0.2
    }
  }
}
layer {
  name: "inception_3a/prelu_1x1"
  type: "PReLU"
  bottom: "inception_3a/1x1"
  top: "inception_3a/1x1"
  param {
    lr_mult: 1
    decay_mult: 0
  }
  prelu_param {
    filler {
      type: "constant"
      value: 0.01
    }
  }
}
layer {
  name: "inception_3a/3x3_reduce"
  type: "Convolution"
  bottom: "pool2/3x3_s2"
  top: "inception_3a/3x3_reduce"
  param {
    lr_mult: 1
    decay_mult: 1
  }
  param {
    lr_mult: 2
    decay_mult: 0
  }
  convolution_param {
    num_output: 96
    kernel_size: 1
    weight_filler {
      type: "xavier"
    }
    bias_filler {
      type: "constant"
      value: 0.2
    }
  }
}
layer {
  name: "inception_3a/prelu_3x3_reduce"
  type: "PReLU"
  bottom: "inception_3a/3x3_reduce"
  top: "inception_3a/3x3_reduce"
  param {
    lr_mult: 1
    decay_mult: 0
  }
  prelu_param {
    filler {
      type: "constant"
      value: 0.01
    }
  }
}
layer {
  name: "inception_3a/3x3"
  type: "Convolution"
  bottom: "inception_3a/3x3_reduce"
  top: "inception_3a/3x3"
  param {
    lr_mult: 1
    decay_mult: 1
  }
  param {
    lr_mult: 2
    decay_mult: 0
  }
  convolution_param {
    num_output: 128
    pad: 1
    kernel_size: 3
    weight_filler {
      type: "xavier"
    }
    bias_filler {
      type: "constant"
      value: 0.2
    }
  }
}
layer {
  name: "inception_3a/prelu_3x3"
  type: "PReLU"
  bottom: "inception_3a/3x3"
  top: "inception_3a/3x3"
  param {
    lr_mult: 1
    decay_mult: 0
  }
  prelu_param {
    filler {
      type: "constant"
      value: 0.01
    }
  }
}
layer {
  name: "inception_3a/5x5_reduce"
  type: "Convolution"
  bottom: "pool2/3x3_s2"
  top: "inception_3a/5x5_reduce"
  param {
    lr_mult: 1
    decay_mult: 1
  }
  param {
    lr_mult: 2
    decay_mult: 0
  }
  convolution_param {
    num_output: 16
    kernel_size: 1
    weight_filler {
      type: "xavier"
    }
    bias_filler {
      type: "constant"
      value: 0.2
    }
  }
}
layer {
  name: "inception_3a/prelu_5x5_reduce"
  type: "PReLU"
  bottom: "inception_3a/5x5_reduce"
  top: "inception_3a/5x5_reduce"
  param {
    lr_mult: 1
    decay_mult: 0
  }
  prelu_param {
    filler {
      type: "constant"
      value: 0.01
    }
  }
}
layer {
  name: "inception_3a/5x5"
  type: "Convolution"
  bottom: "inception_3a/5x5_reduce"
  top: "inception_3a/5x5"
  param {
    lr_mult: 1
    decay_mult: 1
  }
  param {
    lr_mult: 2
    decay_mult: 0
  }
  convolution_param {
    num_output: 32
    pad: 2
    kernel_size: 5
    weight_filler {
      type: "xavier"
    }
    bias_filler {
      type: "constant"
      value: 0.2
    }
  }
}
layer {
  name: "inception_3a/prelu_5x5"
  type: "PReLU"
  bottom: "inception_3a/5x5"
  top: "inception_3a/5x5"
  param {
    lr_mult: 1
    decay_mult: 0
  }
  prelu_param {
    filler {
      type: "constant"
      value: 0.01
    }
  }
}
layer {
  name: "inception_3a/pool"
  type: "Pooling"
  bottom: "pool2/3x3_s2"
  top: "inception_3a/pool"
  pooling_param {
    pool: MAX
    kernel_size: 3
    stride: 1
    pad: 1
  }
}
layer {
  name: "inception_3a/pool_proj"
  type: "Convolution"
  bottom: "inception_3a/pool"
  top: "inception_3a/pool_proj"
  param {
    lr_mult: 1
    decay_mult: 1
  }
  param {
    lr_mult: 2
    decay_mult: 0
  }
  convolution_param {
    num_output: 32
    kernel_size: 1
    weight_filler {
      type: "xavier"
    }
    bias_filler {
      type: "constant"
      value: 0.2
    }
  }
}
layer {
  name: "inception_3a/prelu_pool_proj"
  type: "PReLU"
  bottom: "inception_3a/pool_proj"
  top: "inception_3a/pool_proj"
  param {
    lr_mult: 1
    decay_mult: 0
  }
  prelu_param {
    filler {
      type: "constant"
      value: 0.01
    }
  }
}
layer {
  name: "inception_3a/output"
  type: "Concat"
  bottom: "inception_3a/1x1"
  bottom: "inception_3a/3x3"
  bottom: "inception_3a/5x5"
  bottom: "inception_3a/pool_proj"
  top: "inception_3a/output"
}
layer {
  name: "inception_3b/1x1"
  type: "Convolution"
  bottom: "inception_3a/output"
  top: "inception_3b/1x1"
  param {
    lr_mult: 1
    decay_mult: 1
  }
  param {
    lr_mult: 2
    decay_mult: 0
  }
  convolution_param {
    num_output: 128
    kernel_size: 1
    weight_filler {
      type: "xavier"
    }
    bias_filler {
      type: "constant"
      value: 0.2
    }
  }
}
layer {
  name: "inception_3b/prelu_1x1"
  type: "PReLU"
  bottom: "inception_3b/1x1"
  top: "inception_3b/1x1"
  param {
    lr_mult: 1
    decay_mult: 0
  }
  prelu_param {
    filler {
      type: "constant"
      value: 0.01
    }
  }
}
layer {
  name: "inception_3b/3x3_reduce"
  type: "Convolution"
  bottom: "inception_3a/output"
  top: "inception_3b/3x3_reduce"
  param {
    lr_mult: 1
    decay_mult: 1
  }
  param {
    lr_mult: 2
    decay_mult: 0
  }
  convolution_param {
    num_output: 128
    kernel_size: 1
    weight_filler {
      type: "xavier"
    }
    bias_filler {
      type: "constant"
      value: 0.2
    }
  }
}
layer {
  name: "inception_3b/prelu_3x3_reduce"
  type: "PReLU"
  bottom: "inception_3b/3x3_reduce"
  top: "inception_3b/3x3_reduce"
  param {
    lr_mult: 1
    decay_mult: 0
  }
  prelu_param {
    filler {
      type: "constant"
      value: 0.01
    }
  }
}
layer {
  name: "inception_3b/3x3"
  type: "Convolution"
  bottom: "inception_3b/3x3_reduce"
  top: "inception_3b/3x3"
  param {
    lr_mult: 1
    decay_mult: 1
  }
  param {
    lr_mult: 2
    decay_mult: 0
  }
  convolution_param {
    num_output: 192
    pad: 1
    kernel_size: 3
    weight_filler {
      type: "xavier"
    }
…
I1028 13:11:01.631830 28065 net.cpp:106] Creating Layer inception_4c/output
I1028 13:11:01.631840 28065 net.cpp:454] inception_4c/output <- inception_4c/1x1
I1028 13:11:01.631850 28065 net.cpp:454] inception_4c/output <- inception_4c/3x3
I1028 13:11:01.631860 28065 net.cpp:454] inception_4c/output <- inception_4c/5x5
I1028 13:11:01.631870 28065 net.cpp:454] inception_4c/output <- inception_4c/pool_proj
I1028 13:11:01.631881 28065 net.cpp:411] inception_4c/output -> inception_4c/output
I1028 13:11:01.631923 28065 net.cpp:150] Setting up inception_4c/output
I1028 13:11:01.631935 28065 net.cpp:157] Top shape: 50 512 14 14 (5017600)
I1028 13:11:01.631943 28065 net.cpp:165] Memory required for data: 2234652208
I1028 13:11:01.631953 28065 layer_factory.hpp:76] Creating layer inception_4c/output_inception_4c/output_0_split
I1028 13:11:01.631968 28065 net.cpp:106] Creating Layer inception_4c/output_inception_4c/output_0_split
I1028 13:11:01.631976 28065 net.cpp:454] inception_4c/output_inception_4c/output_0_split <- inception_4c/output
I1028 13:11:01.631992 28065 net.cpp:411] inception_4c/output_inception_4c/output_0_split -> inception_4c/output_inception_4c/output_0_split_0
I1028 13:11:01.632009 28065 net.cpp:411] inception_4c/output_inception_4c/output_0_split -> inception_4c/output_inception_4c/output_0_split_1
I1028 13:11:01.632024 28065 net.cpp:411] inception_4c/output_inception_4c/output_0_split -> inception_4c/output_inception_4c/output_0_split_2
I1028 13:11:01.632037 28065 net.cpp:411] inception_4c/output_inception_4c/output_0_split -> inception_4c/output_inception_4c/output_0_split_3
I1028 13:11:01.632117 28065 net.cpp:150] Setting up inception_4c/output_inception_4c/output_0_split
I1028 13:11:01.632129 28065 net.cpp:157] Top shape: 50 512 14 14 (5017600)
I1028 13:11:01.632140 28065 net.cpp:157] Top shape: 50 512 14 14 (5017600)
I1028 13:11:01.632149 28065 net.cpp:157] Top shape: 50 512 14 14 (5017600)
I1028 13:11:01.632159 28065 net.cpp:157] Top shape: 50 512 14 14 (5017600)
I1028 13:11:01.632166 28065 net.cpp:165] Memory required for data: 2314933808
I1028 13:11:01.632174 28065 layer_factory.hpp:76] Creating layer inception_4d/1x1
I1028 13:11:01.632192 28065 net.cpp:106] Creating Layer inception_4d/1x1
I1028 13:11:01.632203 28065 net.cpp:454] inception_4d/1x1 <- inception_4c/output_inception_4c/output_0_split_0
I1028 13:11:01.632215 28065 net.cpp:411] inception_4d/1x1 -> inception_4d/1x1
I1028 13:11:01.633961 28065 cudnn_conv_layer.cpp:194] Reallocating workspace storage: 10080
I1028 13:11:01.634028 28065 net.cpp:150] Setting up inception_4d/1x1
I1028 13:11:01.634042 28065 net.cpp:157] Top shape: 50 112 14 14 (1097600)
I1028 13:11:01.634053 28065 net.cpp:165] Memory required for data: 2319324208
I1028 13:11:01.634068 28065 layer_factory.hpp:76] Creating layer inception_4d/prelu_1x1
I1028 13:11:01.634084 28065 net.cpp:106] Creating Layer inception_4d/prelu_1x1
I1028 13:11:01.634095 28065 net.cpp:454] inception_4d/prelu_1x1 <- inception_4d/1x1
I1028 13:11:01.634109 28065 net.cpp:397] inception_4d/prelu_1x1 -> inception_4d/1x1 (in-place)
I1028 13:11:01.634222 28065 net.cpp:150] Setting up inception_4d/prelu_1x1
I1028 13:11:01.634235 28065 net.cpp:157] Top shape: 50 112 14 14 (1097600)
I1028 13:11:01.634243 28065 net.cpp:165] Memory required for data: 2323714608
I1028 13:11:01.634253 28065 layer_factory.hpp:76] Creating layer inception_4d/3x3_reduce
I1028 13:11:01.634269 28065 net.cpp:106] Creating Layer inception_4d/3x3_reduce
I1028 13:11:01.634280 28065 net.cpp:454] inception_4d/3x3_reduce <- inception_4c/output_inception_4c/output_0_split_1
I1028 13:11:01.634296 28065 net.cpp:411] inception_4d/3x3_reduce -> inception_4d/3x3_reduce
I1028 13:11:01.636054 28065 cudnn_conv_layer.cpp:194] Reallocating workspace storage: 10080
I1028 13:11:01.636097 28065 net.cpp:150] Setting up inception_4d/3x3_reduce
I1028 13:11:01.636111 28065 net.cpp:157] Top shape: 50 144 14 14 (1411200)
I1028 13:11:01.636118 28065 net.cpp:165] Memory required for data: 2329359408
I1028 13:11:01.636132 28065 layer_factory.hpp:76] Creating layer inception_4d/prelu_3x3_reduce
I1028 13:11:01.636148 28065 net.cpp:106] Creating Layer inception_4d/prelu_3x3_reduce
I1028 13:11:01.636159 28065 net.cpp:454] inception_4d/prelu_3x3_reduce <- inception_4d/3x3_reduce
I1028 13:11:01.636174 28065 net.cpp:397] inception_4d/prelu_3x3_reduce -> inception_4d/3x3_reduce (in-place)
I1028 13:11:01.636297 28065 net.cpp:150] Setting up inception_4d/prelu_3x3_reduce
I1028 13:11:01.636309 28065 net.cpp:157] Top shape: 50 144 14 14 (1411200)
I1028 13:11:01.636317 28065 net.cpp:165] Memory required for data: 2335004208
I1028 13:11:01.636328 28065 layer_factory.hpp:76] Creating layer inception_4d/3x3
I1028 13:11:01.636348 28065 net.cpp:106] Creating Layer inception_4d/3x3
I1028 13:11:01.636358 28065 net.cpp:454] inception_4d/3x3 <- inception_4d/3x3_reduce
I1028 13:11:01.636370 28065 net.cpp:411] inception_4d/3x3 -> inception_4d/3x3
I1028 13:11:01.640616 28065 cudnn_conv_layer.cpp:194] Reallocating workspace storage: 10080
I1028 13:11:01.640674 28065 net.cpp:150] Setting up inception_4d/3x3
I1028 13:11:01.640697 28065 net.cpp:157] Top shape: 50 288 14 14 (2822400)
I1028 13:11:01.640712 28065 net.cpp:165] Memory required for data: 2346293808
I1028 13:11:01.640727 28065 layer_factory.hpp:76] Creating layer inception_4d/prelu_3x3
I1028 13:11:01.640768 28065 net.cpp:106] Creating Layer inception_4d/prelu_3x3
I1028 13:11:01.640779 28065 net.cpp:454] inception_4d/prelu_3x3 <- inception_4d/3x3
I1028 13:11:01.640794 28065 net.cpp:397] inception_4d/prelu_3x3 -> inception_4d/3x3 (in-place)
I1028 13:11:01.641495 28065 net.cpp:150] Setting up inception_4d/prelu_3x3
I1028 13:11:01.641510 28065 net.cpp:157] Top shape: 50 288 14 14 (2822400)
I1028 13:11:01.641517 28065 net.cpp:165] Memory required for data: 2357583408
I1028 13:11:01.641528 28065 layer_factory.hpp:76] Creating layer inception_4d/5x5_reduce
I1028 13:11:01.641546 28065 net.cpp:106] Creating Layer inception_4d/5x5_reduce
I1028 13:11:01.641557 28065 net.cpp:454] inception_4d/5x5_reduce <- inception_4c/output_inception_4c/output_0_split_2
I1028 13:11:01.641572 28065 net.cpp:411] inception_4d/5x5_reduce -> inception_4d/5x5_reduce
I1028 13:11:01.643215 28065 cudnn_conv_layer.cpp:194] Reallocating workspace storage: 10080
I1028 13:11:01.643254 28065 net.cpp:150] Setting up inception_4d/5x5_reduce
I1028 13:11:01.643267 28065 net.cpp:157] Top shape: 50 32 14 14 (313600)
I1028 13:11:01.643275 28065 net.cpp:165] Memory required for data: 2358837808
I1028 13:11:01.643288 28065 layer_factory.hpp:76] Creating layer inception_4d/prelu_5x5_reduce
I1028 13:11:01.643302 28065 net.cpp:106] Creating Layer inception_4d/prelu_5x5_reduce
I1028 13:11:01.643313 28065 net.cpp:454] inception_4d/prelu_5x5_reduce <- inception_4d/5x5_reduce
I1028 13:11:01.643329 28065 net.cpp:397] inception_4d/prelu_5x5_reduce -> inception_4d/5x5_reduce (in-place)
I1028 13:11:01.643432 28065 net.cpp:150] Setting up inception_4d/prelu_5x5_reduce
I1028 13:11:01.643445 28065 net.cpp:157] Top shape: 50 32 14 14 (313600)
I1028 13:11:01.643452 28065 net.cpp:165] Memory required for data: 2360092208
I1028 13:11:01.643463 28065 layer_factory.hpp:76] Creating layer inception_4d/5x5
I1028 13:11:01.643479 28065 net.cpp:106] Creating Layer inception_4d/5x5
I1028 13:11:01.643489 28065 net.cpp:454] inception_4d/5x5 <- inception_4d/5x5_reduce
I1028 13:11:01.643506 28065 net.cpp:411] inception_4d/5x5 -> inception_4d/5x5
I1028 13:11:01.644769 28065 cudnn_conv_layer.cpp:194] Reallocating workspace storage: 13080
I1028 13:11:01.644809 28065 net.cpp:150] Setting up inception_4d/5x5
I1028 13:11:01.644820 28065 net.cpp:157] Top shape: 50 64 14 14 (627200)
I1028 13:11:01.644829 28065 net.cpp:165] Memory required for data: 2362601008
I1028 13:11:01.644841 28065 layer_factory.hpp:76] Creating layer inception_4d/prelu_5x5
I1028 13:11:01.644855 28065 net.cpp:106] Creating Layer inception_4d/prelu_5x5
I1028 13:11:01.644865 28065 net.cpp:454] inception_4d/prelu_5x5 <- inception_4d/5x5
I1028 13:11:01.644881 28065 net.cpp:397] inception_4d/prelu_5x5 -> inception_4d/5x5 (in-place)
I1028 13:11:01.644978 28065 net.cpp:150] Setting up inception_4d/prelu_5x5
I1028 13:11:01.644989 28065 net.cpp:157] Top shape: 50 64 14 14 (627200)
I1028 13:11:01.644996 28065 net.cpp:165] Memory required for data: 2365109808
I1028 13:11:01.645007 28065 layer_factory.hpp:76] Creating layer inception_4d/pool
I1028 13:11:01.645023 28065 net.cpp:106] Creating Layer inception_4d/pool
I1028 13:11:01.645035 28065 net.cpp:454] inception_4d/pool <- inception_4c/output_inception_4c/output_0_split_3
I1028 13:11:01.645047 28065 net.cpp:411] inception_4d/pool -> inception_4d/pool
I1028 13:11:01.645542 28065 net.cpp:150] Setting up inception_4d/pool
I1028 13:11:01.645556 28065 net.cpp:157] Top shape: 50 512 14 14 (5017600)
I1028 13:11:01.645565 28065 net.cpp:165] Memory required for data: 2385180208
I1028 13:11:01.645573 28065 layer_factory.hpp:76] Creating layer inception_4d/pool_proj
I1028 13:11:01.645587 28065 net.cpp:106] Creating Layer inception_4d/pool_proj
I1028 13:11:01.645596 28065 net.cpp:454] inception_4d/pool_proj <- inception_4d/pool
I1028 13:11:01.645608 28065 net.cpp:411] inception_4d/pool_proj -> inception_4d/pool_proj
I1028 13:11:01.647052 28065 cudnn_conv_layer.cpp:194] Reallocating workspace storage: 10080
I1028 13:11:01.647094 28065 net.cpp:150] Setting up inception_4d/pool_proj
I1028 13:11:01.647109 28065 net.cpp:157] Top shape: 50 64 14 14 (627200)
I1028 13:11:01.647116 28065 net.cpp:165] Memory required for data: 2387689008
I1028 13:11:01.647130 28065 layer_factory.hpp:76] Creating layer inception_4d/prelu_pool_proj
I1028 13:11:01.647155 28065 net.cpp:106] Creating Layer inception_4d/prelu_pool_proj
I1028 13:11:01.647164 28065 net.cpp:454] inception_4d/prelu_pool_proj <- inception_4d/pool_proj
I1028 13:11:01.647178 28065 net.cpp:397] inception_4d/prelu_pool_proj -> inception_4d/pool_proj (in-place)
I1028 13:11:01.647272 28065 net.cpp:150] Setting up inception_4d/prelu_pool_proj
I1028 13:11:01.647286 28065 net.cpp:157] Top shape: 50 64 14 14 (627200)
I1028 13:11:01.647294 28065 net.cpp:165] Memory required for data: 2390197808
I1028 13:11:01.647305 28065 layer_factory.hpp:76] Creating layer inception_4d/output
I1028 13:11:01.647316 28065 net.cpp:106] Creating Layer inception_4d/output
I1028 13:11:01.647325 28065 net.cpp:454] inception_4d/output <- inception_4d/1x1
I1028 13:11:01.647341 28065 net.cpp:454] inception_4d/output <- inception_4d/3x3
I1028 13:11:01.647351 28065 net.cpp:454] inception_4d/output <- inception_4d/5x5
I1028 13:11:01.647361 28065 net.cpp:454] inception_4d/output <- inception_4d/pool_proj
I1028 13:11:01.647372 28065 net.cpp:411] inception_4d/output -> inception_4d/output
I1028 13:11:01.647413 28065 net.cpp:150] Setting up inception_4d/output
I1028 13:11:01.647424 28065 net.cpp:157] Top shape: 50 528 14 14 (5174400)
I1028 13:11:01.647433 28065 net.cpp:165] Memory required for data: 2410895408
I1028 13:11:01.647439 28065 layer_factory.hpp:76] Creating layer inception_4d/output_inception_4d/output_0_split
I1028 13:11:01.647451 28065 net.cpp:106] Creating Layer inception_4d/output_inception_4d/output_0_split
I1028 13:11:01.647459 28065 net.cpp:454] inception_4d/output_inception_4d/output_0_split <- inception_4d/output
I1028 13:11:01.647472 28065 net.cpp:411] inception_4d/output_inception_4d/output_0_split -> inception_4d/output_inception_4d/output_0_split_0
I1028 13:11:01.647486 28065 net.cpp:411] inception_4d/output_inception_4d/output_0_split -> inception_4d/output_inception_4d/output_0_split_1
I1028 13:11:01.647501 28065 net.cpp:411] inception_4d/output_inception_4d/output_0_split -> inception_4d/output_inception_4d/output_0_split_2
I1028 13:11:01.647516 28065 net.cpp:411] inception_4d/output_inception_4d/output_0_split -> inception_4d/output_inception_4d/output_0_split_3
I1028 13:11:01.647531 28065 net.cpp:411] inception_4d/output_inception_4d/output_0_split -> inception_4d/output_inception_4d/output_0_split_4
I1028 13:11:01.647600 28065 net.cpp:150] Setting up inception_4d/output_inception_4d/output_0_split
I1028 13:11:01.647613 28065 net.cpp:157] Top shape: 50 528 14 14 (5174400)
I1028 13:11:01.647621 28065 net.cpp:157] Top shape: 50 528 14 14 (5174400)
I1028 13:11:01.647631 28065 net.cpp:157] Top shape: 50 528 14 14 (5174400)
I1028 13:11:01.647641 28065 net.cpp:157] Top shape: 50 528 14 14 (5174400)
I1028 13:11:01.647650 28065 net.cpp:157] Top shape: 50 528 14 14 (5174400)
I1028 13:11:01.647658 28065 net.cpp:165] Memory required for data: 2514383408
I1028 13:11:01.647666 28065 layer_factory.hpp:76] Creating layer loss2/ave_pool
I1028 13:11:01.647680 28065 net.cpp:106] Creating Layer loss2/ave_pool
I1028 13:11:01.647689 28065 net.cpp:454] loss2/ave_pool <- inception_4d/output_inception_4d/output_0_split_0
I1028 13:11:01.647701 28065 net.cpp:411] loss2/ave_pool -> loss2/ave_pool
I1028 13:11:01.647907 28065 net.cpp:150] Setting up loss2/ave_pool
I1028 13:11:01.647920 28065 net.cpp:157] Top shape: 50 528 4 4 (422400)
I1028 13:11:01.647930 28065 net.cpp:165] Memory required for data: 2516073008
I1028 13:11:01.647938 28065 layer_factory.hpp:76] Creating layer loss2/conv
I1028 13:11:01.647953 28065 net.cpp:106] Creating Layer loss2/conv
I1028 13:11:01.647961 28065 net.cpp:454] loss2/conv <- loss2/ave_pool
I1028 13:11:01.647975 28065 net.cpp:411] loss2/conv -> loss2/conv
I1028 13:11:01.649641 28065 cudnn_conv_layer.cpp:194] Reallocating workspace storage: 6840
I1028 13:11:01.649679 28065 net.cpp:150] Setting up loss2/conv
I1028 13:11:01.649693 28065 net.cpp:157] Top shape: 50 128 4 4 (102400)
I1028 13:11:01.649700 28065 net.cpp:165] Memory required for data: 2516482608
I1028 13:11:01.649713 28065 layer_factory.hpp:76] Creating layer loss2/prelu_conv
I1028 13:11:01.649744 28065 net.cpp:106] Creating Layer loss2/prelu_conv
I1028 13:11:01.649752 28065 net.cpp:454] loss2/prelu_conv <- loss2/conv
I1028 13:11:01.649765 28065 net.cpp:397] loss2/prelu_conv -> loss2/conv (in-place)
I1028 13:11:01.649885 28065 net.cpp:150] Setting up loss2/prelu_conv
I1028 13:11:01.649898 28065 net.cpp:157] Top shape: 50 128 4 4 (102400)
I1028 13:11:01.649905 28065 net.cpp:165] Memory required for data: 2516892208
I1028 13:11:01.649924 28065 layer_factory.hpp:76] Creating layer loss2/fc
I1028 13:11:01.649936 28065 net.cpp:106] Creating Layer loss2/fc
I1028 13:11:01.649945 28065 net.cpp:454] loss2/fc <- loss2/conv
I1028 13:11:01.649960 28065 net.cpp:411] loss2/fc -> loss2/fc
I1028 13:11:01.665138 28065 net.cpp:150] Setting up loss2/fc
I1028 13:11:01.665184 28065 net.cpp:157] Top shape: 50 1024 (51200)
I1028 13:11:01.665191 28065 net.cpp:165] Memory required for data: 2517097008
I1028 13:11:01.665242 28065 layer_factory.hpp:76] Creating layer loss2/prelu_fc
I1028 13:11:01.665287 28065 net.cpp:106] Creating Layer loss2/prelu_fc
I1028 13:11:01.665299 28065 net.cpp:454] loss2/prelu_fc <- loss2/fc
I1028 13:11:01.665333 28065 net.cpp:397] loss2/prelu_fc -> loss2/fc (in-place)
I1028 13:11:01.665482 28065 net.cpp:150] Setting up loss2/prelu_fc
I1028 13:11:01.665498 28065 net.cpp:157] Top shape: 50 1024 (51200)
I1028 13:11:01.665505 28065 net.cpp:165] Memory required for data: 2517301808
I1028 13:11:01.665516 28065 layer_factory.hpp:76] Creating layer loss2/drop_fc
I1028 13:11:01.665532 28065 net.cpp:106] Creating Layer loss2/drop_fc
I1028 13:11:01.665544 28065 net.cpp:454] loss2/drop_fc <- loss2/fc
I1028 13:11:01.665556 28065 net.cpp:397] loss2/drop_fc -> loss2/fc (in-place)
I1028 13:11:01.665593 28065 net.cpp:150] Setting up loss2/drop_fc
I1028 13:11:01.665604 28065 net.cpp:157] Top shape: 50 1024 (51200)
I1028 13:11:01.665612 28065 net.cpp:165] Memory required for data: 2517506608
I1028 13:11:01.665619 28065 layer_factory.hpp:76] Creating layer loss2/classifier2
I1028 13:11:01.665635 28065 net.cpp:106] Creating Layer loss2/classifier2
I1028 13:11:01.665643 28065 net.cpp:454] loss2/classifier2 <- loss2/fc
I1028 13:11:01.665655 28065 net.cpp:411] loss2/classifier2 -> loss2/classifier
I1028 13:11:01.665803 28065 net.cpp:150] Setting up loss2/classifier2
I1028 13:11:01.665817 28065 net.cpp:157] Top shape: 50 2 (100)
I1028 13:11:01.665824 28065 net.cpp:165] Memory required for data: 2517507008
I1028 13:11:01.665838 28065 layer_factory.hpp:76] Creating layer loss2/classifier_loss2/classifier2_0_split
I1028 13:11:01.665849 28065 net.cpp:106] Creating Layer loss2/classifier_loss2/classifier2_0_split
I1028 13:11:01.665858 28065 net.cpp:454] loss2/classifier_loss2/classifier2_0_split <- loss2/classifier
I1028 13:11:01.665870 28065 net.cpp:411] loss2/classifier_loss2/classifier2_0_split -> loss2/classifier_loss2/classifier2_0_split_0
I1028 13:11:01.665884 28065 net.cpp:411] loss2/classifier_loss2/classifier2_0_split -> loss2/classifier_loss2/classifier2_0_split_1
I1028 13:11:01.665932 28065 net.cpp:150] Setting up loss2/classifier_loss2/classifier2_0_split
I1028 13:11:01.665946 28065 net.cpp:157] Top shape: 50 2 (100)
I1028 13:11:01.665956 28065 net.cpp:157] Top shape: 50 2 (100)
I1028 13:11:01.665964 28065 net.cpp:165] Memory required for data: 2517507808
I1028 13:11:01.665972 28065 layer_factory.hpp:76] Creating layer loss2/loss
I1028 13:11:01.665984 28065 net.cpp:106] Creating Layer loss2/loss
I1028 13:11:01.665993 28065 net.cpp:454] loss2/loss <- loss2/classifier_loss2/classifier2_0_split_0
I1028 13:11:01.666003 28065 net.cpp:454] loss2/loss <- label_data_1_split_2
…
I1028 13:11:01.666977 28065 net.cpp:165] Memory required for data: 2517507816
I1028 13:11:01.666985 28065 layer_factory.hpp:76] Creating layer inception_4e/1x1
I1028 13:11:01.667006 28065 net.cpp:106] Creating Layer inception_4e/1x1
I1028 13:11:01.667017 28065 net.cpp:454] inception_4e/1x1 <- inception_4d/output_inception_4d/output_0_split_1
I1028 13:11:01.667031 28065 net.cpp:411] inception_4e/1x1 -> inception_4e/1x1
I1028 13:11:01.669325 28065 cudnn_conv_layer.cpp:194] Reallocating workspace storage: 10080
I1028 13:11:01.669378 28065 net.cpp:150] Setting up inception_4e/1x1
I1028 13:11:01.669394 28065 net.cpp:157] Top shape: 50 256 14 14 (2508800)
I1028 13:11:01.669404 28065 net.cpp:165] Memory required for data: 2527543016
I1028 13:11:01.669417 28065 layer_factory.hpp:76] Creating layer inception_4e/prelu_1x1
I1028 13:11:01.669435 28065 net.cpp:106] Creating Layer inception_4e/prelu_1x1
I1028 13:11:01.669445 28065 net.cpp:454] inception_4e/prelu_1x1 <- inception_4e/1x1
I1028 13:11:01.669457 28065 net.cpp:397] inception_4e/prelu_1x1 -> inception_4e/1x1 (in-place)
I1028 13:11:01.669587 28065 net.cpp:150] Setting up inception_4e/prelu_1x1
I1028 13:11:01.669600 28065 net.cpp:157] Top shape: 50 256 14 14 (2508800)
I1028 13:11:01.669606 28065 net.cpp:165] Memory required for data: 2537578216
I1028 13:11:01.669617 28065 layer_factory.hpp:76] Creating layer inception_4e/3x3_reduce
I1028 13:11:01.669633 28065 net.cpp:106] Creating Layer inception_4e/3x3_reduce
I1028 13:11:01.669644 28065 net.cpp:454] inception_4e/3x3_reduce <- inception_4d/output_inception_4d/output_0_split_2
I1028 13:11:01.669659 28065 net.cpp:411] inception_4e/3x3_reduce -> inception_4e/3x3_reduce
I1028 13:11:01.671241 28065 cudnn_conv_layer.cpp:194] Reallocating workspace storage: 10080
I1028 13:11:01.671284 28065 net.cpp:150] Setting up inception_4e/3x3_reduce
I1028 13:11:01.671296 28065 net.cpp:157] Top shape: 50 160 14 14 (1568000)
I1028 13:11:01.671304 28065 net.cpp:165] Memory required for data: 2543850216
I1028 13:11:01.671317 28065 layer_factory.hpp:76] Creating layer inception_4e/prelu_3x3_reduce
I1028 13:11:01.671330 28065 net.cpp:106] Creating Layer inception_4e/prelu_3x3_reduce
I1028 13:11:01.671340 28065 net.cpp:454] inception_4e/prelu_3x3_reduce <- inception_4e/3x3_reduce
I1028 13:11:01.671353 28065 net.cpp:397] inception_4e/prelu_3x3_reduce -> inception_4e/3x3_reduce (in-place)
I1028 13:11:01.671460 28065 net.cpp:150] Setting up inception_4e/prelu_3x3_reduce
I1028 13:11:01.671473 28065 net.cpp:157] Top shape: 50 160 14 14 (1568000)
I1028 13:11:01.671479 28065 net.cpp:165] Memory required for data: 2550122216
I1028 13:11:01.671490 28065 layer_factory.hpp:76] Creating layer inception_4e/3x3
I1028 13:11:01.671519 28065 net.cpp:106] Creating Layer inception_4e/3x3
I1028 13:11:01.671527 28065 net.cpp:454] inception_4e/3x3 <- inception_4e/3x3_reduce
I1028 13:11:01.671541 28065 net.cpp:411] inception_4e/3x3 -> inception_4e/3x3
I1028 13:11:01.675866 28065 cudnn_conv_layer.cpp:194] Reallocating workspace storage: 10080
I1028 13:11:01.675916 28065 net.cpp:150] Setting up inception_4e/3x3
I1028 13:11:01.675930 28065 net.cpp:157] Top shape: 50 320 14 14 (3136000)
I1028 13:11:01.675937 28065 net.cpp:165] Memory required for data: 2562666216
I1028 13:11:01.675951 28065 layer_factory.hpp:76] Creating layer inception_4e/prelu_3x3
I1028 13:11:01.675964 28065 net.cpp:106] Creating Layer inception_4e/prelu_3x3
I1028 13:11:01.675977 28065 net.cpp:454] inception_4e/prelu_3x3 <- inception_4e/3x3
I1028 13:11:01.675989 28065 net.cpp:397] inception_4e/prelu_3x3 -> inception_4e/3x3 (in-place)
I1028 13:11:01.676659 28065 net.cpp:150] Setting up inception_4e/prelu_3x3
I1028 13:11:01.676674 28065 net.cpp:157] Top shape: 50 320 14 14 (3136000)
I1028 13:11:01.676682 28065 net.cpp:165] Memory required for data: 2575210216
I1028 13:11:01.676692 28065 layer_factory.hpp:76] Creating layer inception_4e/5x5_reduce
I1028 13:11:01.676707 28065 net.cpp:106] Creating Layer inception_4e/5x5_reduce
I1028 13:11:01.676717 28065 net.cpp:454] inception_4e/5x5_reduce <- inception_4d/output_inception_4d/output_0_split_3
I1028 13:11:01.676731 28065 net.cpp:411] inception_4e/5x5_reduce -> inception_4e/5x5_reduce
I1028 13:11:01.677922 28065 cudnn_conv_layer.cpp:194] Reallocating workspace storage: 10080
I1028 13:11:01.677960 28065 net.cpp:150] Setting up inception_4e/5x5_reduce
I1028 13:11:01.677975 28065 net.cpp:157] Top shape: 50 32 14 14 (313600)
I1028 13:11:01.677983 28065 net.cpp:165] Memory required for data: 2576464616
I1028 13:11:01.677996 28065 layer_factory.hpp:76] Creating layer inception_4e/prelu_5x5_reduce
I1028 13:11:01.678010 28065 net.cpp:106] Creating Layer inception_4e/prelu_5x5_reduce
I1028 13:11:01.678031 28065 net.cpp:454] inception_4e/prelu_5x5_reduce <- inception_4e/5x5_reduce
I1028 13:11:01.678045 28065 net.cpp:397] inception_4e/prelu_5x5_reduce -> inception_4e/5x5_reduce (in-place)
I1028 13:11:01.678143 28065 net.cpp:150] Setting up inception_4e/prelu_5x5_reduce
I1028 13:11:01.678155 28065 net.cpp:157] Top shape: 50 32 14 14 (313600)
I1028 13:11:01.678163 28065 net.cpp:165] Memory required for data: 2577719016
I1028 13:11:01.678174 28065 layer_factory.hpp:76] Creating layer inception_4e/5x5
I1028 13:11:01.678189 28065 net.cpp:106] Creating Layer inception_4e/5x5
I1028 13:11:01.678200 28065 net.cpp:454] inception_4e/5x5 <- inception_4e/5x5_reduce
I1028 13:11:01.678212 28065 net.cpp:411] inception_4e/5x5 -> inception_4e/5x5
I1028 13:11:01.680343 28065 cudnn_conv_layer.cpp:194] Reallocating workspace storage: 13080
I1028 13:11:01.680387 28065 net.cpp:150] Setting up inception_4e/5x5
I1028 13:11:01.680399 28065 net.cpp:157] Top shape: 50 128 14 14 (1254400)
I1028 13:11:01.680408 28065 net.cpp:165] Memory required for data: 2582736616
I1028 13:11:01.680420 28065 layer_factory.hpp:76] Creating layer inception_4e/prelu_5x5
I1028 13:11:01.680435 28065 net.cpp:106] Creating Layer inception_4e/prelu_5x5
I1028 13:11:01.680446 28065 net.cpp:454] inception_4e/prelu_5x5 <- inception_4e/5x5
I1028 13:11:01.680457 28065 net.cpp:397] inception_4e/prelu_5x5 -> inception_4e/5x5 (in-place)
I1028 13:11:01.680553 28065 net.cpp:150] Setting up inception_4e/prelu_5x5
I1028 13:11:01.680565 28065 net.cpp:157] Top shape: 50 128 14 14 (1254400)
I1028 13:11:01.680572 28065 net.cpp:165] Memory required for data: 2587754216
I1028 13:11:01.680583 28065 layer_factory.hpp:76] Creating layer inception_4e/pool
I1028 13:11:01.680594 28065 net.cpp:106] Creating Layer inception_4e/pool
I1028 13:11:01.680603 28065 net.cpp:454] inception_4e/pool <- inception_4d/output_inception_4d/output_0_split_4
I1028 13:11:01.680613 28065 net.cpp:411] inception_4e/pool -> inception_4e/pool
I1028 13:11:01.680812 28065 net.cpp:150] Setting up inception_4e/pool
I1028 13:11:01.680825 28065 net.cpp:157] Top shape: 50 528 14 14 (5174400)
I1028 13:11:01.680832 28065 net.cpp:165] Memory required for data: 2608451816
I1028 13:11:01.680840 28065 layer_factory.hpp:76] Creating layer inception_4e/pool_proj
I1028 13:11:01.680855 28065 net.cpp:106] Creating Layer inception_4e/pool_proj
I1028 13:11:01.680863 28065 net.cpp:454] inception_4e/pool_proj <- inception_4e/pool
I1028 13:11:01.680883 28065 net.cpp:411] inception_4e/pool_proj -> inception_4e/pool_proj
I1028 13:11:01.682515 28065 cudnn_conv_layer.cpp:194] Reallocating workspace storage: 10080
I1028 13:11:01.682559 28065 net.cpp:150] Setting up inception_4e/pool_proj
I1028 13:11:01.682570 28065 net.cpp:157] Top shape: 50 128 14 14 (1254400)
I1028 13:11:01.682577 28065 net.cpp:165] Memory required for data: 2613469416
I1028 13:11:01.682590 28065 layer_factory.hpp:76] Creating layer inception_4e/prelu_pool_proj
I1028 13:11:01.682620 28065 net.cpp:106] Creating Layer inception_4e/prelu_pool_proj
I1028 13:11:01.682629 28065 net.cpp:454] inception_4e/prelu_pool_proj <- inception_4e/pool_proj
I1028 13:11:01.682643 28065 net.cpp:397] inception_4e/prelu_pool_proj -> inception_4e/pool_proj (in-place)
I1028 13:11:01.682742 28065 net.cpp:150] Setting up inception_4e/prelu_pool_proj
I1028 13:11:01.682754 28065 net.cpp:157] Top shape: 50 128 14 14 (1254400)
I1028 13:11:01.682761 28065 net.cpp:165] Memory required for data: 2618487016
I1028 13:11:01.682771 28065 layer_factory.hpp:76] Creating layer inception_4e/output
I1028 13:11:01.682783 28065 net.cpp:106] Creating Layer inception_4e/output
I1028 13:11:01.682791 28065 net.cpp:454] inception_4e/output <- inception_4e/1x1
I1028 13:11:01.682801 28065 net.cpp:454] inception_4e/output <- inception_4e/3x3
I1028 13:11:01.682809 28065 net.cpp:454] inception_4e/output <- inception_4e/5x5
I1028 13:11:01.682817 28065 net.cpp:454] inception_4e/output <- inception_4e/pool_proj
I1028 13:11:01.682831 28065 net.cpp:411] inception_4e/output -> inception_4e/output
I1028 13:11:01.682865 28065 net.cpp:150] Setting up inception_4e/output
I1028 13:11:01.682876 28065 net.cpp:157] Top shape: 50 832 14 14 (8153600)
I1028 13:11:01.682883 28065 net.cpp:165] Memory required for data: 2651101416
I1028 13:11:01.682891 28065 layer_factory.hpp:76] Creating layer pool4/3x3_s2
I1028 13:11:01.682901 28065 net.cpp:106] Creating Layer pool4/3x3_s2
I1028 13:11:01.682910 28065 net.cpp:454] pool4/3x3_s2 <- inception_4e/output
I1028 13:11:01.682924 28065 net.cpp:411] pool4/3x3_s2 -> pool4/3x3_s2
I1028 13:11:01.683135 28065 net.cpp:150] Setting up pool4/3x3_s2
I1028 13:11:01.683150 28065 net.cpp:157] Top shape: 50 832 7 7 (2038400)
I1028 13:11:01.683157 28065 net.cpp:165] Memory required for data: 2659255016
I1028 13:11:01.683166 28065 layer_factory.hpp:76] Creating layer pool4/3x3_s2_pool4/3x3_s2_0_split
I1028 13:11:01.683178 28065 net.cpp:106] Creating Layer pool4/3x3_s2_pool4/3x3_s2_0_split
I1028 13:11:01.683187 28065 net.cpp:454] pool4/3x3_s2_pool4/3x3_s2_0_split <- pool4/3x3_s2
I1028 13:11:01.683197 28065 net.cpp:411] pool4/3x3_s2_pool4/3x3_s2_0_split -> pool4/3x3_s2_pool4/3x3_s2_0_split_0
I1028 13:11:01.683210 28065 net.cpp:411] pool4/3x3_s2_pool4/3x3_s2_0_split -> pool4/3x3_s2_pool4/3x3_s2_0_split_1
I1028 13:11:01.683224 28065 net.cpp:411] pool4/3x3_s2_pool4/3x3_s2_0_split -> pool4/3x3_s2_pool4/3x3_s2_0_split_2
I1028 13:11:01.683238 28065 net.cpp:411] pool4/3x3_s2_pool4/3x3_s2_0_split -> pool4/3x3_s2_pool4/3x3_s2_0_split_3
I1028 13:11:01.683305 28065 net.cpp:150] Setting up pool4/3x3_s2_pool4/3x3_s2_0_split
I1028 13:11:01.683316 28065 net.cpp:157] Top shape: 50 832 7 7 (2038400)
I1028 13:11:01.683326 28065 net.cpp:157] Top shape: 50 832 7 7 (2038400)
I1028 13:11:01.683336 28065 net.cpp:157] Top shape: 50 832 7 7 (2038400)
I1028 13:11:01.683346 28065 net.cpp:157] Top shape: 50 832 7 7 (2038400)
I1028 13:11:01.683352 28065 net.cpp:165] Memory required for data: 2691869416
I1028 13:11:01.683361 28065 layer_factory.hpp:76] Creating layer inception_5a/1x1
I1028 13:11:01.683375 28065 net.cpp:106] Creating Layer inception_5a/1x1
I1028 13:11:01.683387 28065 net.cpp:454] inception_5a/1x1 <- pool4/3x3_s2_pool4/3x3_s2_0_split_0
I1028 13:11:01.683401 28065 net.cpp:411] inception_5a/1x1 -> inception_5a/1x1
I1028 13:11:01.686689 28065 cudnn_conv_layer.cpp:194] Reallocating workspace storage: 7428
I1028 13:11:01.686753 28065 net.cpp:150] Setting up inception_5a/1x1
I1028 13:11:01.686769 28065 net.cpp:157] Top shape: 50 256 7 7 (627200)
I1028 13:11:01.686779 28065 net.cpp:165] Memory required for data: 2694378216
I1028 13:11:01.686794 28065 layer_factory.hpp:76] Creating layer inception_5a/prelu_1x1
I1028 13:11:01.686815 28065 net.cpp:106] Creating Layer inception_5a/prelu_1x1
I1028 13:11:01.686826 28065 net.cpp:454] inception_5a/prelu_1x1 <- inception_5a/1x1
I1028 13:11:01.686841 28065 net.cpp:397] inception_5a/prelu_1x1 -> inception_5a/1x1 (in-place)
I1028 13:11:01.686947 28065 net.cpp:150] Setting up inception_5a/prelu_1x1
I1028 13:11:01.686974 28065 net.cpp:157] Top shape: 50 256 7 7 (627200)
I1028 13:11:01.686981 28065 net.cpp:165] Memory required for data: 2696887016
I1028 13:11:01.686992 28065 layer_factory.hpp:76] Creating layer inception_5a/3x3_reduce
I1028 13:11:01.687021 28065 net.cpp:106] Creating Layer inception_5a/3x3_reduce
I1028 13:11:01.687031 28065 net.cpp:454] inception_5a/3x3_reduce <- pool4/3x3_s2_pool4/3x3_s2_0_split_1
I1028 13:11:01.687046 28065 net.cpp:411] inception_5a/3x3_reduce -> inception_5a/3x3_reduce
I1028 13:11:01.689579 28065 cudnn_conv_layer.cpp:194] Reallocating workspace storage: 7428
I1028 13:11:01.689651 28065 net.cpp:150] Setting up inception_5a/3x3_reduce
I1028 13:11:01.689663 28065 net.cpp:157] Top shape: 50 160 7 7 (392000)
I1028 13:11:01.689692 28065 net.cpp:165] Memory required for data: 2698455016
I1028 13:11:01.689707 28065 layer_factory.hpp:76] Creating layer inception_5a/prelu_3x3_reduce
I1028 13:11:01.689725 28065 net.cpp:106] Creating Layer inception_5a/prelu_3x3_reduce
I1028 13:11:01.689736 28065 net.cpp:454] inception_5a/prelu_3x3_reduce <- inception_5a/3x3_reduce
I1028 13:11:01.689769 28065 net.cpp:397] inception_5a/prelu_3x3_reduce -> inception_5a/3x3_reduce (in-place)
I1028 13:11:01.689880 28065 net.cpp:150] Setting up inception_5a/prelu_3x3_reduce
I1028 13:11:01.689892 28065 net.cpp:157] Top shape: 50 160 7 7 (392000)
I1028 13:11:01.689899 28065 net.cpp:165] Memory required for data: 2700023016
I1028 13:11:01.689909 28065 layer_factory.hpp:76] Creating layer inception_5a/3x3
I1028 13:11:01.689925 28065 net.cpp:106] Creating Layer inception_5a/3x3
I1028 13:11:01.689945 28065 net.cpp:454] inception_5a/3x3 <- inception_5a/3x3_reduce
I1028 13:11:01.689959 28065 net.cpp:411] inception_5a/3x3 -> inception_5a/3x3
I1028 13:11:01.694784 28065 cudnn_conv_layer.cpp:194] Reallocating workspace storage: 7788
I1028 13:11:01.694861 28065 net.cpp:150] Setting up inception_5a/3x3
I1028 13:11:01.694887 28065 net.cpp:157] Top shape: 50 320 7 7 (784000)
I1028 13:11:01.694910 28065 net.cpp:165] Memory required for data: 2703159016
I1028 13:11:01.694944 28065 layer_factory.hpp:76] Creating layer inception_5a/prelu_3x3
I1028 13:11:01.694984 28065 net.cpp:106] Creating Layer inception_5a/prelu_3x3
I1028 13:11:01.694996 28065 net.cpp:454] inception_5a/prelu_3x3 <- inception_5a/3x3
I1028 13:11:01.695009 28065 net.cpp:397] inception_5a/prelu_3x3 -> inception_5a/3x3 (in-place)
I1028 13:11:01.695152 28065 net.cpp:150] Setting up inception_5a/prelu_3x3
I1028 13:11:01.695164 28065 net.cpp:157] Top shape: 50 320 7 7 (784000)
I1028 13:11:01.695171 28065 net.cpp:165] Memory required for data: 2706295016
I1028 13:11:01.695183 28065 layer_factory.hpp:76] Creating layer inception_5a/5x5_reduce
I1028 13:11:01.695199 28065 net.cpp:106] Creating Layer inception_5a/5x5_reduce
I1028 13:11:01.695211 28065 net.cpp:454] inception_5a/5x5_reduce <- pool4/3x3_s2_pool4/3x3_s2_0_split_2
I1028 13:11:01.695226 28065 net.cpp:411] inception_5a/5x5_reduce -> inception_5a/5x5_reduce
I1028 13:11:01.696620 28065 cudnn_conv_layer.cpp:194] Reallocating workspace storage: 7428
I1028 13:11:01.696671 28065 net.cpp:150] Setting up inception_5a/5x5_reduce
I1028 13:11:01.696683 28065 net.cpp:157] Top shape: 50 32 7 7 (78400)
I1028 13:11:01.696691 28065 net.cpp:165] Memory required for data: 2706608616
I1028 13:11:01.696707 28065 layer_factory.hpp:76] Creating layer inception_5a/prelu_5x5_reduce
I1028 13:11:01.696722 28065 net.cpp:106] Creating Layer inception_5a/prelu_5x5_reduce
I1028 13:11:01.696732 28065 net.cpp:454] inception_5a/prelu_5x5_reduce <- inception_5a/5x5_reduce
I1028 13:11:01.696748 28065 net.cpp:397] inception_5a/prelu_5x5_reduce -> inception_5a/5x5_reduce (in-place)
I1028 13:11:01.696861 28065 net.cpp:150] Setting up inception_5a/prelu_5x5_reduce
I1028 13:11:01.696873 28065 net.cpp:157] Top shape: 50 32 7 7 (78400)
I1028 13:11:01.696882 28065 net.cpp:165] Memory required for data: 2706922216
I1028 13:11:01.696892 28065 layer_factory.hpp:76] Creating layer inception_5a/5x5
I1028 13:11:01.696905 28065 net.cpp:106] Creating Layer inception_5a/5x5
I1028 13:11:01.696931 28065 net.cpp:454] inception_5a/5x5 <- inception_5a/5x5_reduce
I1028 13:11:01.696946 28065 net.cpp:411] inception_5a/5x5 -> inception_5a/5x5
I1028 13:11:01.698503 28065 cudnn_conv_layer.cpp:194] Reallocating workspace storage: 9804
I1028 13:11:01.698549 28065 net.cpp:150] Setting up inception_5a/5x5
I1028 13:11:01.698562 28065 net.cpp:157] Top shape: 50 128 7 7 (313600)
I1028 13:11:01.698570 28065 net.cpp:165] Memory required for data: 2708176616
I1028 13:11:01.698585 28065 layer_factory.hpp:76] Creating layer inception_5a/prelu_5x5
I1028 13:11:01.698597 28065 net.cpp:106] Creating Layer inception_5a/prelu_5x5
I1028 13:11:01.698607 28065 net.cpp:454] inception_5a/prelu_5x5 <- inception_5a/5x5
I1028 13:11:01.698622 28065 net.cpp:397] inception_5a/prelu_5x5 -> inception_5a/5x5 (in-place)
I1028 13:11:01.698730 28065 net.cpp:150] Setting up inception_5a/prelu_5x5
I1028 13:11:01.698742 28065 net.cpp:157] Top shape: 50 128 7 7 (313600)
I1028 13:11:01.698750 28065 net.cpp:165] Memory required for data: 2709431016
I1028 13:11:01.698760 28065 layer_factory.hpp:76] Creating layer inception_5a/pool
I1028 13:11:01.698773 28065 net.cpp:106] Creating Layer inception_5a/pool
I1028 13:11:01.698781 28065 net.cpp:454] inception_5a/pool <- pool4/3x3_s2_pool4/3x3_s2_0_split_3
I1028 13:11:01.698792 28065 net.cpp:411] inception_5a/pool -> inception_5a/pool
I1028 13:11:01.699213 28065 net.cpp:150] Setting up inception_5a/pool
I1028 13:11:01.699229 28065 net.cpp:157] Top shape: 50 832 7 7 (2038400)
I1028 13:11:01.699237 28065 net.cpp:165] Memory required for data: 2717584616
I1028 13:11:01.699246 28065 layer_factory.hpp:76] Creating layer inception_5a/pool_proj
I1028 13:11:01.699259 28065 net.cpp:106] Creating Layer inception_5a/pool_proj
I1028 13:11:01.699268 28065 net.cpp:454] inception_5a/pool_proj <- inception_5a/pool
I1028 13:11:01.699282 28065 net.cpp:411] inception_5a/pool_proj -> inception_5a/pool_proj
I1028 13:11:01.701516 28065 cudnn_conv_layer.cpp:194] Reallocating workspace storage: 7428
I1028 13:11:01.701568 28065 net.cpp:150] Setting up inception_5a/pool_proj
I1028 13:11:01.701591 28065 net.cpp:157] Top shape: 50 128 7 7 (313600)
I1028 13:11:01.701609 28065 net.cpp:165] Memory required for data: 2718839016
I1028 13:11:01.701623 28065 layer_factory.hpp:76] Creating layer inception_5a/prelu_pool_proj
I1028 13:11:01.701639 28065 net.cpp:106] Creating Layer inception_5a/prelu_pool_proj
I1028 13:11:01.701652 28065 net.cpp:454] inception_5a/prelu_pool_proj <- inception_5a/pool_proj
I1028 13:11:01.701663 28065 net.cpp:397] inception_5a/prelu_pool_proj -> inception_5a/pool_proj (in-place)
I1028 13:11:01.701756 28065 net.cpp:150] Setting up inception_5a/prelu_pool_proj
I1028 13:11:01.701768 28065 net.cpp:157] Top shape: 50 128 7 7 (313600)
I1028 13:11:01.701776 28065 net.cpp:165] Memory required for data: 2720093416
I1028 13:11:01.701786 28065 layer_factory.hpp:76] Creating layer inception_5a/output
I1028 13:11:01.701797 28065 net.cpp:106] Creating Layer inception_5a/output
I1028 13:11:01.701805 28065 net.cpp:454] inception_5a/output <- inception_5a/1x1
I1028 13:11:01.701815 28065 net.cpp:454] inception_5a/output <- inception_5a/3x3
I1028 13:11:01.701824 28065 net.cpp:454] inception_5a/output <- inception_5a/5x5
I1028 13:11:01.701833 28065 net.cpp:454] inception_5a/output <- inception_5a/pool_proj
I1028 13:11:01.701846 28065 net.cpp:411] inception_5a/output -> inception_5a/output
I1028 13:11:01.701879 28065 net.cpp:150] Setting up inception_5a/output
I1028 13:11:01.701889 28065 net.cpp:157] Top shape: 50 832 7 7 (2038400)
I1028 13:11:01.701897 28065 net.cpp:165] Memory required for data: 2728247016
I1028 13:11:01.701905 28065 layer_factory.hpp:76] Creating layer inception_5a/output_inception_5a/output_0_split
I1028 13:11:01.701922 28065 net.cpp:106] Creating Layer inception_5a/output_inception_5a/output_0_split
I1028 13:11:01.701932 28065 net.cpp:454] inception_5a/output_inception_5a/output_0_split <- inception_5a/output
I1028 13:11:01.701944 28065 net.cpp:411] inception_5a/output_inception_5a/output_0_split -> inception_5a/output_inception_5a/output_0_split_0
I1028 13:11:01.701974 28065 net.cpp:411] inception_5a/output_inception_5a/output_0_split -> inception_5a/output_inception_5a/output_0_split_1
I1028 13:11:01.701988 28065 net.cpp:411] inception_5a/output_inception_5a/output_0_split -> inception_5a/output_inception_5a/output_0_split_2
I1028 13:11:01.702003 28065 net.cpp:411] inception_5a/output_inception_5a/output_0_split -> inception_5a/output_inception_5a/output_0_split_3
I1028 13:11:01.702095 28065 net.cpp:150] Setting up inception_5a/output_inception_5a/output_0_split
I1028 13:11:01.702106 28065 net.cpp:157] Top shape: 50 832 7 7 (2038400)
I1028 13:11:01.702116 28065 net.cpp:157] Top shape: 50 832 7 7 (2038400)
I1028 13:11:01.702126 28065 net.cpp:157] Top shape: 50 832 7 7 (2038400)
I1028 13:11:01.702136 28065 net.cpp:157] Top shape: 50 832 7 7 (2038400)
I1028 13:11:01.702143 28065 net.cpp:165] Memory required for data: 2760861416
I1028 13:11:01.702152 28065 layer_factory.hpp:76] Creating layer inception_5b/1x1
I1028 13:11:01.702164 28065 net.cpp:106] Creating Layer inception_5b/1x1
I1028 13:11:01.702172 28065 net.cpp:454] inception_5b/1x1 <- inception_5a/output_inception_5a/output_0_split_0
I1028 13:11:01.702188 28065 net.cpp:411] inception_5b/1x1 -> inception_5b/1x1
I1028 13:11:01.705631 28065 cudnn_conv_layer.cpp:194] Reallocating workspace storage: 7428
I1028 13:11:01.705682 28065 net.cpp:150] Setting up inception_5b/1x1
I1028 13:11:01.705694 28065 net.cpp:157] Top shape: 50 384 7 7 (940800)
I1028 13:11:01.705703 28065 net.cpp:165] Memory required for data: 2764624616
I1028 13:11:01.705716 28065 layer_factory.hpp:76] Creating layer inception_5b/prelu_1x1
I1028 13:11:01.705730 28065 net.cpp:106] Creating Layer inception_5b/prelu_1x1
I1028 13:11:01.705744 28065 net.cpp:454] inception_5b/prelu_1x1 <- inception_5b/1x1
I1028 13:11:01.705755 28065 net.cpp:397] inception_5b/prelu_1x1 -> inception_5b/1x1 (in-place)
I1028 13:11:01.705871 28065 net.cpp:150] Setting up inception_5b/prelu_1x1
I1028 13:11:01.705883 28065 net.cpp:157] Top shape: 50 384 7 7 (940800)
I1028 13:11:01.705890 28065 net.cpp:165] Memory required for data: 2768387816
I1028 13:11:01.705900 28065 layer_factory.hpp:76] Creating layer inception_5b/3x3_reduce
I1028 13:11:01.705914 28065 net.cpp:106] Creating Layer inception_5b/3x3_reduce
I1028 13:11:01.705924 28065 net.cpp:454] inception_5b/3x3_reduce <- inception_5a/output_inception_5a/output_0_split_1
I1028 13:11:01.705940 28065 net.cpp:411] inception_5b/3x3_reduce -> inception_5b/3x3_reduce
I1028 13:11:01.708211 28065 cudnn_conv_layer.cpp:194] Reallocating workspace storage: 7428
I1028 13:11:01.708262 28065 net.cpp:150] Setting up inception_5b/3x3_reduce
I1028 13:11:01.708274 28065 net.cpp:157] Top shape: 50 192 7 7 (470400)
I1028 13:11:01.708282 28065 net.cpp:165] Memory required for data: 2770269416
I1028 13:11:01.708295 28065 layer_factory.hpp:76] Creating layer inception_5b/prelu_3x3_reduce
I1028 13:11:01.708308 28065 net.cpp:106] Creating Layer inception_5b/prelu_3x3_reduce
I1028 13:11:01.708318 28065 net.cpp:454] inception_5b/prelu_3x3_reduce <- inception_5b/3x3_reduce
I1028 13:11:01.708334 28065 net.cpp:397] inception_5b/prelu_3x3_reduce -> inception_5b/3x3_reduce (in-place)
I1028 13:11:01.708436 28065 net.cpp:150] Setting up inception_5b/prelu_3x3_reduce
I1028 13:11:01.708447 28065 net.cpp:157] Top shape: 50 192 7 7 (470400)
I1028 13:11:01.708454 28065 net.cpp:165] Memory required for data: 2772151016
I1028 13:11:01.708472 28065 layer_factory.hpp:76] Creating layer inception_5b/3x3
I1028 13:11:01.708487 28065 net.cpp:106] Creating Layer inception_5b/3x3
I1028 13:11:01.708499 28065 net.cpp:454] inception_5b/3x3 <- inception_5b/3x3_reduce
I1028 13:11:01.708526 28065 net.cpp:411] inception_5b/3x3 -> inception_5b/3x3
I1028 13:11:01.714448 28065 cudnn_conv_layer.cpp:194] Reallocating workspace storage: 7788
I1028 13:11:01.714509 28065 net.cpp:150] Setting up inception_5b/3x3
I1028 13:11:01.714522 28065 net.cpp:157] Top shape: 50 384 7 7 (940800)
I1028 13:11:01.714531 28065 net.cpp:165] Memory required for data: 2775914216
I1028 13:11:01.714565 28065 layer_factory.hpp:76] Creating layer inception_5b/prelu_3x3
I1028 13:11:01.714584 28065 net.cpp:106] Creating Layer inception_5b/prelu_3x3
I1028 13:11:01.714604 28065 net.cpp:454] inception_5b/prelu_3x3 <- inception_5b/3x3
I1028 13:11:01.714618 28065 net.cpp:397] inception_5b/prelu_3x3 -> inception_5b/3x3 (in-place)
I1028 13:11:01.714753 28065 net.cpp:150] Setting up inception_5b/prelu_3x3
I1028 13:11:01.714766 28065 net.cpp:157] Top shape: 50 384 7 7 (940800)
I1028 13:11:01.714772 28065 net.cpp:165] Memory required for data: 2779677416
I1028 13:11:01.714783 28065 layer_factory.hpp:76] Creating layer inception_5b/5x5_reduce
I1028 13:11:01.714812 28065 net.cpp:106] Creating Layer inception_5b/5x5_reduce
I1028 13:11:01.714821 28065 net.cpp:454] inception_5b/5x5_reduce <- inception_5a/output_inception_5a/output_0_split_2
I1028 13:11:01.714834 28065 net.cpp:411] inception_5b/5x5_reduce -> inception_5b/5x5_reduce
I1028 13:11:01.716624 28065 cudnn_conv_layer.cpp:194] Reallocating workspace storage: 7428
I1028 13:11:01.716678 28065 net.cpp:150] Setting up inception_5b/5x5_reduce
I1028 13:11:01.716694 28065 net.cpp:157] Top shape: 50 48 7 7 (117600)
I1028 13:11:01.716702 28065 net.cpp:165] Memory required for data: 2780147816
I1028 13:11:01.716718 28065 layer_factory.hpp:76] Creating layer inception_5b/prelu_5x5_reduce
I1028 13:11:01.716738 28065 net.cpp:106] Creating Layer inception_5b/prelu_5x5_reduce
I1028 13:11:01.716750 28065 net.cpp:454] inception_5b/prelu_5x5_reduce <- inception_5b/5x5_reduce
I1028 13:11:01.716774 28065 net.cpp:397] inception_5b/prelu_5x5_reduce -> inception_5b/5x5_reduce (in-place)
I1028 13:11:01.716938 28065 net.cpp:150] Setting up inception_5b/prelu_5x5_reduce
I1028 13:11:01.716953 28065 net.cpp:157] Top shape: 50 48 7 7 (117600)
I1028 13:11:01.716961 28065 net.cpp:165] Memory required for data: 2780618216
I1028 13:11:01.716972 28065 layer_factory.hpp:76] Creating layer inception_5b/5x5
I1028 13:11:01.716991 28065 net.cpp:106] Creating Layer inception_5b/5x5
I1028 13:11:01.717002 28065 net.cpp:454] inception_5b/5x5 <- inception_5b/5x5_reduce
I1028 13:11:01.717016 28065 net.cpp:411] inception_5b/5x5 -> inception_5b/5x5
I1028 13:11:01.719223 28065 cudnn_conv_layer.cpp:194] Reallocating workspace storage: 9804
I1028 13:11:01.719280 28065 net.cpp:150] Setting up inception_5b/5x5
I1028 13:11:01.719295 28065 net.cpp:157] Top shape: 50 128 7 7 (313600)
I1028 13:11:01.719303 28065 net.cpp:165] Memory required for data: 2781872616
I1028 13:11:01.719317 28065 layer_factory.hpp:76] Creating layer inception_5b/prelu_5x5
I1028 13:11:01.719334 28065 net.cpp:106] Creating Layer inception_5b/prelu_5x5
I1028 13:11:01.719346 28065 net.cpp:454] inception_5b/prelu_5x5 <- inception_5b/5x5
I1028 13:11:01.719358 28065 net.cpp:397] inception_5b/prelu_5x5 -> inception_5b/5x5 (in-place)
I1028 13:11:01.719470 28065 net.cpp:150] Setting up inception_5b/prelu_5x5
I1028 13:11:01.719482 28065 net.cpp:157] Top shape: 50 128 7 7 (313600)
I1028 13:11:01.719491 28065 net.cpp:165] Memory required for data: 2783127016
I1028 13:11:01.719501 28065 layer_factory.hpp:76] Creating layer inception_5b/pool
I1028 13:11:01.719516 28065 net.cpp:106] Creating Layer inception_5b/pool
I1028 13:11:01.719527 28065 net.cpp:454] inception_5b/pool <- inception_5a/output_inception_5a/output_0_split_3
I1028 13:11:01.719538 28065 net.cpp:411] inception_5b/pool -> inception_5b/pool
I1028 13:11:01.719810 28065 net.cpp:150] Setting up inception_5b/pool
I1028 13:11:01.719823 28065 net.cpp:157] Top shape: 50 832 7 7 (2038400)
I1028 13:11:01.719851 28065 net.cpp:165] Memory required for data: 2791280616
I1028 13:11:01.719859 28065 layer_factory.hpp:76] Creating layer inception_5b/pool_proj
I1028 13:11:01.719878 28065 net.cpp:106] Creating Layer inception_5b/pool_proj
I1028 13:11:01.719899 28065 net.cpp:454] inception_5b/pool_proj <- inception_5b/pool
I1028 13:11:01.719913 28065 net.cpp:411] inception_5b/pool_proj -> inception_5b/pool_proj
I1028 13:11:01.722380 28065 cudnn_conv_layer.cpp:194] Reallocating workspace storage: 7428
I1028 13:11:01.722460 28065 net.cpp:150] Setting up inception_5b/pool_proj
I1028 13:11:01.722476 28065 net.cpp:157] Top shape: 50 128 7 7 (313600)
I1028 13:11:01.722483 28065 net.cpp:165] Memory required for data: 2792535016
I1028 13:11:01.722498 28065 layer_factory.hpp:76] Creating layer inception_5b/prelu_pool_proj
I1028 13:11:01.722519 28065 net.cpp:106] Creating Layer inception_5b/prelu_pool_proj
I1028 13:11:01.722530 28065 net.cpp:454] inception_5b/prelu_pool_proj <- inception_5b/pool_proj
I1028 13:11:01.722543 28065 net.cpp:397] inception_5b/prelu_pool_proj -> inception_5b/pool_proj (in-place)
I1028 13:11:01.722652 28065 net.cpp:150] Setting up inception_5b/prelu_pool_proj
I1028 13:11:01.722664 28065 net.cpp:157] Top shape: 50 128 7 7 (313600)
I1028 13:11:01.722671 28065 net.cpp:165] Memory required for data: 2793789416
I1028 13:11:01.722683 28065 layer_factory.hpp:76] Creating layer inception_5b/output
I1028 13:11:01.722695 28065 net.cpp:106] Creating Layer inception_5b/output
I1028 13:11:01.722704 28065 net.cpp:454] inception_5b/output <- inception_5b/1x1
I1028 13:11:01.722713 28065 net.cpp:454] inception_5b/output <- inception_5b/3x3
I1028 13:11:01.722723 28065 net.cpp:454] inception_5b/output <- inception_5b/5x5
I1028 13:11:01.722733 28065 net.cpp:454] inception_5b/output <- inception_5b/pool_proj
I1028 13:11:01.722743 28065 net.cpp:411] inception_5b/output -> inception_5b/output
I1028 13:11:01.722780 28065 net.cpp:150] Setting up inception_5b/output
I1028 13:11:01.722791 28065 net.cpp:157] Top shape: 50 1024 7 7 (2508800)
I1028 13:11:01.722800 28065 net.cpp:165] Memory required for data: 2803824616
I1028 13:11:01.722806 28065 layer_factory.hpp:76] Creating layer pool5/7x7_s1
I1028 13:11:01.722821 28065 net.cpp:106] Creating Layer pool5/7x7_s1
I1028 13:11:01.722831 28065 net.cpp:454] pool5/7x7_s1 <- inception_5b/output
I1028 13:11:01.722842 28065 net.cpp:411] pool5/7x7_s1 -> pool5/7x7_s1
I1028 13:11:01.723263 28065 net.cpp:150] Setting up pool5/7x7_s1
I1028 13:11:01.723278 28065 net.cpp:157] Top shape: 50 1024 1 1 (51200)
I1028 13:11:01.723285 28065 net.cpp:165] Memory required for data: 2804029416
I1028 13:11:01.723294 28065 layer_factory.hpp:76] Creating layer pool5/drop_7x7_s1
I1028 13:11:01.723319 28065 net.cpp:106] Creating Layer pool5/drop_7x7_s1
I1028 13:11:01.723327 28065 net.cpp:454] pool5/drop_7x7_s1 <- pool5/7x7_s1
I1028 13:11:01.723343 28065 net.cpp:397] pool5/drop_7x7_s1 -> pool5/7x7_s1 (in-place)
I1028 13:11:01.723384 28065 net.cpp:150] Setting up pool5/drop_7x7_s1
I1028 13:11:01.723397 28065 net.cpp:157] Top shape: 50 1024 1 1 (51200)
I1028 13:11:01.723413 28065 net.cpp:165] Memory required for data: 2804234216
I1028 13:11:01.723422 28065 layer_factory.hpp:76] Creating layer loss3/classifier2
I1028 13:11:01.723436 28065 net.cpp:106] Creating Layer loss3/classifier2
I1028 13:11:01.723445 28065 net.cpp:454] loss3/classifier2 <- pool5/7x7_s1
I1028 13:11:01.723459 28065 net.cpp:411] loss3/classifier2 -> loss3/classifier
I1028 13:11:01.723623 28065 net.cpp:150] Setting up loss3/classifier2
I1028 13:11:01.723636 28065 net.cpp:157] Top shape: 50 2 (100)
I1028 13:11:01.723644 28065 net.cpp:165] Memory required for data: 2804234616
I1028 13:11:01.723657 28065 layer_factory.hpp:76] Creating layer loss3/classifier_loss3/classifier2_0_split
I1028 13:11:01.723671 28065 net.cpp:106] Creating Layer loss3/classifier_loss3/classifier2_0_split
I1028 13:11:01.723682 28065 net.cpp:454] loss3/classifier_loss3/classifier2_0_split <- loss3/classifier
I1028 13:11:01.723693 28065 net.cpp:411] loss3/classifier_loss3/classifier2_0_split -> loss3/classifier_loss3/classifier2_0_split_0
I1028 13:11:01.723706 28065 net.cpp:411] loss3/classifier_loss3/classifier2_0_split -> loss3/classifier_loss3/classifier2_0_split_1
I1028 13:11:01.723759 28065 net.cpp:150] Setting up loss3/classifier_loss3/classifier2_0_split
I1028 13:11:01.723770 28065 net.cpp:157] Top shape: 50 2 (100)
I1028 13:11:01.723780 28065 net.cpp:157] Top shape: 50 2 (100)
I1028 13:11:01.723788 28065 net.cpp:165] Memory required for data: 2804235416
I1028 13:11:01.723796 28065 layer_factory.hpp:76] Creating layer loss3/loss3
I1028 13:11:01.723822 28065 net.cpp:106] Creating Layer loss3/loss3
I1028 13:11:01.723834 28065 net.cpp:454] loss3/loss3 <- loss3/classifier_loss3/classifier2_0_split_0
I1028 13:11:01.723845 28065 net.cpp:454] loss3/loss3 <- label_data_1_split_4
…
