…
I1126 10:46:49.966543 10450 net.cpp:322] The NetState phase (0) differed from the phase (1) specified by a rule in layer loss3/top-1
I1126 10:46:49.968003 10450 net.cpp:49] Initializing net from parameters: 
name: "GoogleNet"
state {
  phase: TRAIN
}
layer {
  name: "data"
  type: "Data"
  top: "data"
  top: "label"
  include {
    phase: TRAIN
  }
  transform_param {
    mirror: true
    crop_size: 224
    mean_value: 104
    mean_value: 117
    mean_value: 123
  }
  data_param {
    source: "../../LMDB-s300/train_9-lmdb"
    batch_size: 32
    backend: LMDB
  }
}
layer {
  name: "conv1/7x7_s2"
  type: "Convolution"
  bottom: "data"
  top: "conv1/7x7_s2"
  param {
    lr_mult: 1
    decay_mult: 1
  }
  param {
    lr_mult: 2
    decay_mult: 0
  }
  convolution_param {
    num_output: 64
    pad: 3
    kernel_size: 7
    stride: 2
    weight_filler {
      type: "xavier"
    }
    bias_filler {
      type: "constant"
      value: 0.2
    }
  }
}
layer {
  name: "conv1/prelu_7x7"
  type: "PReLU"
  bottom: "conv1/7x7_s2"
  top: "conv1/7x7_s2"
  param {
    lr_mult: 1
    decay_mult: 0
  }
  prelu_param {
    filler {
      type: "constant"
      value: 0.01
    }
  }
}
layer {
  name: "pool1/3x3_s2"
  type: "Pooling"
  bottom: "conv1/7x7_s2"
  top: "pool1/3x3_s2"
  pooling_param {
    pool: MAX
    kernel_size: 3
    stride: 2
  }
}
layer {
  name: "pool1/norm1"
  type: "LRN"
  bottom: "pool1/3x3_s2"
  top: "pool1/norm1"
  lrn_param {
    local_size: 5
    alpha: 0.0001
    beta: 0.75
  }
}
layer {
  name: "conv2/3x3_reduce"
  type: "Convolution"
  bottom: "pool1/norm1"
  top: "conv2/3x3_reduce"
  param {
    lr_mult: 1
    decay_mult: 1
  }
  param {
    lr_mult: 2
    decay_mult: 0
  }
  convolution_param {
    num_output: 64
    kernel_size: 1
    weight_filler {
      type: "xavier"
    }
    bias_filler {
      type: "constant"
      value: 0.2
    }
  }
}
layer {
  name: "conv2/prelu_3x3_reduce"
  type: "PReLU"
  bottom: "conv2/3x3_reduce"
  top: "conv2/3x3_reduce"
  param {
    lr_mult: 1
    decay_mult: 0
  }
  prelu_param {
    filler {
      type: "constant"
      value: 0.01
    }
  }
}
layer {
  name: "conv2/3x3"
  type: "Convolution"
  bottom: "conv2/3x3_reduce"
  top: "conv2/3x3"
  param {
    lr_mult: 1
    decay_mult: 1
  }
  param {
    lr_mult: 2
    decay_mult: 0
  }
  convolution_param {
    num_output: 192
    pad: 1
    kernel_size: 3
    weight_filler {
      type: "xavier"
    }
    bias_filler {
      type: "constant"
      value: 0.2
    }
  }
}
layer {
  name: "conv2/prelu_3x3"
  type: "PReLU"
  bottom: "conv2/3x3"
  top: "conv2/3x3"
  param {
    lr_mult: 1
    decay_mult: 0
  }
  prelu_param {
    filler {
      type: "constant"
      value: 0.01
    }
  }
}
layer {
  name: "conv2/norm2"
  type: "LRN"
  bottom: "conv2/3x3"
  top: "conv2/norm2"
  lrn_param {
    local_size: 5
    alpha: 0.0001
    beta: 0.75
  }
}
layer {
  name: "pool2/3x3_s2"
  type: "Pooling"
  bottom: "conv2/norm2"
  top: "pool2/3x3_s2"
  pooling_param {
    pool: MAX
    kernel_size: 3
    stride: 2
  }
}
layer {
  name: "inception_3a/1x1"
  type: "Convolution"
  bottom: "pool2/3x3_s2"
  top: "inception_3a/1x1"
  param {
    lr_mult: 1
    decay_mult: 1
  }
  param {
    lr_mult: 2
    decay_mult: 0
  }
  convolution_param {
    num_output: 64
    kernel_size: 1
    weight_filler {
      type: "xavier"
    }
    bias_filler {
      type: "constant"
      value: 0.2
    }
  }
}
layer {
  name: "inception_3a/prelu_1x1"
  type: "PReLU"
  bottom: "inception_3a/1x1"
  top: "inception_3a/1x1"
  param {
    lr_mult: 1
    decay_mult: 0
  }
  prelu_param {
    filler {
      type: "constant"
      value: 0.01
    }
  }
}
layer {
  name: "inception_3a/3x3_reduce"
  type: "Convolution"
  bottom: "pool2/3x3_s2"
  top: "inception_3a/3x3_reduce"
  param {
    lr_mult: 1
    decay_mult: 1
  }
  param {
    lr_mult: 2
    decay_mult: 0
  }
  convolution_param {
    num_output: 96
    kernel_size: 1
    weight_filler {
      type: "xavier"
    }
    bias_filler {
      type: "constant"
      value: 0.2
    }
  }
}
layer {
  name: "inception_3a/prelu_3x3_reduce"
  type: "PReLU"
  bottom: "inception_3a/3x3_reduce"
  top: "inception_3a/3x3_reduce"
  param {
    lr_mult: 1
    decay_mult: 0
  }
  prelu_param {
    filler {
      type: "constant"
      value: 0.01
    }
  }
}
layer {
  name: "inception_3a/3x3"
  type: "Convolution"
  bottom: "inception_3a/3x3_reduce"
  top: "inception_3a/3x3"
  param {
    lr_mult: 1
    decay_mult: 1
  }
  param {
    lr_mult: 2
    decay_mult: 0
  }
  convolution_param {
    num_output: 128
    pad: 1
    kernel_size: 3
    weight_filler {
      type: "xavier"
    }
    bias_filler {
      type: "constant"
      value: 0.2
    }
  }
}
layer {
  name: "inception_3a/prelu_3x3"
  type: "PReLU"
  bottom: "inception_3a/3x3"
  top: "inception_3a/3x3"
  param {
    lr_mult: 1
    decay_mult: 0
  }
  prelu_param {
    filler {
      type: "constant"
      value: 0.01
    }
  }
}
layer {
  name: "inception_3a/5x5_reduce"
  type: "Convolution"
  bottom: "pool2/3x3_s2"
  top: "inception_3a/5x5_reduce"
  param {
    lr_mult: 1
    decay_mult: 1
  }
  param {
    lr_mult: 2
    decay_mult: 0
  }
  convolution_param {
    num_output: 16
    kernel_size: 1
    weight_filler {
      type: "xavier"
    }
    bias_filler {
      type: "constant"
      value: 0.2
    }
  }
}
layer {
  name: "inception_3a/prelu_5x5_reduce"
  type: "PReLU"
  bottom: "inception_3a/5x5_reduce"
  top: "inception_3a/5x5_reduce"
  param {
    lr_mult: 1
    decay_mult: 0
  }
  prelu_param {
    filler {
      type: "constant"
      value: 0.01
    }
  }
}
layer {
  name: "inception_3a/5x5"
  type: "Convolution"
  bottom: "inception_3a/5x5_reduce"
  top: "inception_3a/5x5"
  param {
    lr_mult: 1
    decay_mult: 1
  }
  param {
    lr_mult: 2
    decay_mult: 0
  }
  convolution_param {
    num_output: 32
    pad: 2
    kernel_size: 5
    weight_filler {
      type: "xavier"
    }
    bias_filler {
      type: "constant"
      value: 0.2
    }
  }
}
layer {
  name: "inception_3a/prelu_5x5"
  type: "PReLU"
  bottom: "inception_3a/5x5"
  top: "inception_3a/5x5"
  param {
    lr_mult: 1
    decay_mult: 0
  }
  prelu_param {
    filler {
      type: "constant"
      value: 0.01
    }
  }
}
layer {
  name: "inception_3a/pool"
  type: "Pooling"
  bottom: "pool2/3x3_s2"
  top: "inception_3a/pool"
  pooling_param {
    pool: MAX
    kernel_size: 3
    stride: 1
    pad: 1
  }
}
layer {
  name: "inception_3a/pool_proj"
  type: "Convolution"
  bottom: "inception_3a/pool"
  top: "inception_3a/pool_proj"
  param {
    lr_mult: 1
    decay_mult: 1
  }
  param {
    lr_mult: 2
    decay_mult: 0
  }
  convolution_param {
    num_output: 32
    kernel_size: 1
    weight_filler {
      type: "xavier"
    }
    bias_filler {
      type: "constant"
      value: 0.2
    }
  }
}
layer {
  name: "inception_3a/prelu_pool_proj"
  type: "PReLU"
  bottom: "inception_3a/pool_proj"
  top: "inception_3a/pool_proj"
  param {
    lr_mult: 1
    decay_mult: 0
  }
  prelu_param {
    filler {
      type: "constant"
      value: 0.01
    }
  }
}
layer {
  name: "inception_3a/output"
  type: "Concat"
  bottom: "inception_3a/1x1"
  bottom: "inception_3a/3x3"
  bottom: "inception_3a/5x5"
  bottom: "inception_3a/pool_proj"
  top: "inception_3a/output"
}
layer {
  name: "inception_3b/1x1"
  type: "Convolution"
  bottom: "inception_3a/output"
  top: "inception_3b/1x1"
  param {
    lr_mult: 1
    decay_mult: 1
  }
  param {
    lr_mult: 2
    decay_mult: 0
  }
  convolution_param {
    num_output: 128
    kernel_size: 1
    weight_filler {
      type: "xavier"
    }
    bias_filler {
      type: "constant"
      value: 0.2
    }
  }
}
layer {
  name: "inception_3b/prelu_1x1"
  type: "PReLU"
  bottom: "inception_3b/1x1"
  top: "inception_3b/1x1"
  param {
    lr_mult: 1
    decay_mult: 0
  }
  prelu_param {
    filler {
      type: "constant"
      value: 0.01
    }
  }
}
layer {
  name: "inception_3b/3x3_reduce"
  type: "Convolution"
  bottom: "inception_3a/output"
  top: "inception_3b/3x3_reduce"
  param {
    lr_mult: 1
    decay_mult: 1
  }
  param {
    lr_mult: 2
    decay_mult: 0
  }
  convolution_param {
    num_output: 128
    kernel_size: 1
    weight_filler {
      type: "xavier"
    }
    bias_filler {
      type: "constant"
      value: 0.2
    }
  }
}
layer {
  name: "inception_3b/prelu_3x3_reduce"
  type: "PReLU"
  bottom: "inception_3b/3x3_reduce"
  top: "inception_3b/3x3_reduce"
  param {
    lr_mult: 1
    decay_mult: 0
  }
  prelu_param {
    filler {
      type: "constant"
      value: 0.01
    }
  }
}
layer {
  name: "inception_3b/3x3"
  type: "Convolution"
  bottom: "inception_3b/3x3_reduce"
  top: "inception_3b/3x3"
  param {
    lr_mult: 1
    decay_mult: 1
  }
  param {
    lr_mult: 2
    decay_mult: 0
  }
  convolution_param {
    num_output: 192
    pad: 1
    kernel_size: 3
    weight_filler {
      type: "xavier"
    }
    bias_filler {
      type: "constant"
      value: 0.2
    }
  }
}
layer {
  name: "inception_3b/prelu_3x3"
  type: "PReLU"
  bottom: "inception_3b/3x3"
  top: "inception_3b/3x3"
  param {
    lr_mult: 1
    decay_mult: 0
  }
  prelu_param {
    filler {
      type: "constant"
      value: 0.01
    }
  }
}
layer {
  name: "inception_3b/5x5_reduce"
  type: "Convolution"
  bottom: "inception_3a/output"
  top: "inception_3b/5x5_reduce"
  param {
    lr_mult: 1
    decay_mult: 1
  }
  param {
    lr_mult: 2
    decay_mult: 0
  }
  convolution_param {
    num_output: 32
    kernel_size: 1
    weight_filler {
      type: "xavier"
    }
    bias_filler {
      type: "constant"
      value: 0.2
    }
  }
}
layer {
  name: "inception_3b/prelu_5x5_reduce"
  type: "PReLU"
  bottom: "inception_3b/5x5_reduce"
  top: "inception_3b/5x5_reduce"
  param {
    lr_mult: 1
    decay_mult: 0
  }
  prelu_param {
    filler {
      type: "constant"
      value: 0.01
    }
  }
}
layer {
  name: "inception_3b/5x5"
  type: "Convolution"
  bottom: "inception_3b/5x5_reduce"
  top: "inception_3b/5x5"
  param {
    lr_mult: 1
    decay_mult: 1
  }
  param {
    lr_mult: 2
    decay_mult: 0
  }
  convolution_param {
    num_output: 96
    pad: 2
    kernel_size: 5
    weight_filler {
      type: "xavier"
    }
    bias_filler {
      type: "constant"
      value: 0.2
    }
  }
}
layer {
  name: "inception_3b/prelu_5x5"
  type: "PReLU"
  bottom: "inception_3b/5x5"
  top: "inception_3b/5x5"
  param {
    lr_mult: 1
    decay_mult: 0
  }
  prelu_param {
    filler {
      type: "constant"
      value: 0.01
    }
  }
}
layer {
  name: "inception_3b/pool"
  type: "Pooling"
  bottom: "inception_3a/output"
  top: "inception_3b/pool"
  pooling_param {
    pool: MAX
    kernel_size: 3
    stride: 1
    pad: 1
  }
}
layer {
  name: "inception_3b/pool_proj"
  type: "Convolution"
  bottom: "inception_3b/pool"
  top: "inception_3b/pool_proj"
  param {
    lr_mult: 1
    decay_mult: 1
  }
  param {
    lr_mult: 2
    decay_mult: 0
  }
  convolution_param {
    num_output: 64
    kernel_size: 1
    weight_filler {
      type: "xavier"
    }
    bias_filler {
      type: "constant"
      value: 0.2
    }
  }
}
layer {
  name: "inception_3b/prelu_pool_proj"
  type: "PReLU"
  bottom: "inception_3b/pool_proj"
  top: "inception_3b/pool_proj"
  param {
    lr_mult: 1
    decay_mult: 0
  }
  prelu_param {
    filler {
      type: "constant"
      value: 0.01
    }
  }
}
layer {
  name: "inception_3b/output"
  type: "Concat"
  bottom: "inception_3b/1x1"
  bottom: "inception_3b/3x3"
  bottom: "inception_3b/5x5"
  bottom: "inception_3b/pool_proj"
  top: "inception_3b/output"
}
layer {
  name: "pool3/3x3_s2"
  type: "Pooling"
  bottom: "inception_3b/output"
  top: "pool3/3x3_s2"
  pooling_param {
    pool: MAX
    kernel_size: 3
    stride: 2
  }
}
layer {
  name: "inception_4a/1x1"
  type: "Convolution"
  bottom: "pool3/3x3_s2"
  top: "inception_4a/1x1"
  param {
    lr_mult: 1
    decay_mult: 1
  }
  param {
    lr_mult: 2
    decay_mult: 0
  }
  convolution_param {
    num_output: 192
    kernel_size: 1
    weight_filler {
      type: "xavier"
    }
    bias_filler {
      type: "constant"
      value: 0.2
    }
  }
}
layer {
  name: "inception_4a/prelu_1x1"
  type: "PReLU"
  bottom: "inception_4a/1x1"
  top: "inception_4a/1x1"
  param {
    lr_mult: 1
    decay_mult: 0
  }
  prelu_param {
    filler {
      type: "constant"
      value: 0.01
    }
  }
}
layer {
  name: "inception_4a/3x3_reduce"
  type: "Convolution"
  bottom: "pool3/3x3_s2"
  top: "inception_4a/3x3_reduce"
  param {
    lr_mult: 1
    decay_mult: 1
  }
  param {
    lr_mult: 2
    decay_mult: 0
  }
  convolution_param {
    num_output: 96
    kernel_size: 1
    weight_filler {
      type: "xavier"
    }
    bias_filler {
      type: "constant"
      value: 0.2
    }
  }
}
layer {
  name: "inception_4a/prelu_3x3_reduce"
  type: "PReLU"
  bottom: "inception_4a/3x3_reduce"
  top: "inception_4a/3x3_reduce"
  param {
    lr_mult: 1
    decay_mult: 0
  }
  prelu_param {
    filler {
      type: "constant"
      value: 0.01
    }
  }
}
layer {
  name: "inception_4a/3x3"
  type: "Convolution"
  bottom: "inception_4a/3x3_reduce"
  top: "inception_4a/3x3"
  param {
    lr_mult: 1
    decay_mult: 1
  }
  param {
    lr_mult: 2
    decay_mult: 0
  }
  convolution_param {
    num_output: 208
    pad: 1
    kernel_size: 3
    weight_filler {
      type: "xavier"
    }
    bias_filler {
      type: "constant"
      value: 0.2
    }
  }
}
layer {
  name: "inception_4a/prelu_3x3"
  type: "PReLU"
  bottom: "inception_4a/3x3"
  top: "inception_4a/3x3"
  param {
    lr_mult: 1
    decay_mult: 0
  }
  prelu_param {
    filler {
      type: "constant"
      value: 0.01
    }
  }
}
layer {
  name: "inception_4a/5x5_reduce"
  type: "Convolution"
  bottom: "pool3/3x3_s2"
  top: "inception_4a/5x5_reduce"
  param {
    lr_mult: 1
    decay_mult: 1
  }
  param {
    lr_mult: 2
    decay_mult: 0
  }
  convolution_param {
    num_output: 16
    kernel_size: 1
    weight_filler {
      type: "xavier"
    }
    bias_filler {
      type: "constant"
      value: 0.2
    }
  }
}
layer {
  name: "inception_4a/prelu_5x5_reduce"
  type: "PReLU"
  bottom: "inception_4a/5x5_reduce"
  top: "inception_4a/5x5_reduce"
  param {
    lr_mult: 1
    decay_mult: 0
  }
  prelu_param {
    filler {
      type: "constant"
      value: 0.01
    }
  }
}
layer {
  name: "inception_4a/5x5"
  type: "Convolution"
  bottom: "inception_4a/5x5_reduce"
  top: "inception_4a/5x5"
  param {
    lr_mult: 1
    decay_mult: 1
  }
  param {
    lr_mult: 2
    decay_mult: 0
  }
  convolution_param {
    num_output: 48
    pad: 2
    kernel_size: 5
    weight_filler {
      type: "xavier"
    }
    bias_filler {
      type: "constant"
      value: 0.2
    }
  }
}
layer {
  name: "inception_4a/prelu_5x5"
  type: "PReLU"
  bottom: "inception_4a/5x5"
  top: "inception_4a/5x5"
  param {
    lr_mult: 1
    decay_mult: 0
  }
  prelu_param {
    filler {
      type: "constant"
      value: 0.01
    }
  }
}
layer {
  name: "inception_4a/pool"
  type: "Pooling"
  bottom: "pool3/3x3_s2"
  top: "inception_4a/pool"
  pooling_param {
    pool: MAX
    kernel_size: 3
    stride: 1
    pad: 1
  }
}
layer {
  name: "inception_4a/pool_proj"
  type: "Convolution"
  bottom: "inception_4a/pool"
  top: "inception_4a/pool_proj"
  param {
    lr_mult: 1
    decay_mult: 1
  }
  param {
    lr_mult: 2
    decay_mult: 0
  }
  convolution_param {
    num_output: 64
    kernel_size: 1
    weight_filler {
      type: "xavier"
    }
    bias_filler {
      type: "constant"
      value: 0.2
    }
  }
}
layer {
  name: "inception_4a/prelu_pool_proj"
  type: "PReLU"
  bottom: "inception_4a/pool_proj"
  top: "inception_4a/pool_proj"
  param {
    lr_mult: 1
    decay_mult: 0
  }
  prelu_param {
    filler {
      type: "constant"
      value: 0.01
    }
  }
}
layer {
  name: "inception_4a/output"
  type: "Concat"
  bottom: "inception_4a/1x1"
  bottom: "inception_4a/3x3"
  bottom: "inception_4a/5x5"
  bottom: "inception_4a/pool_proj"
  top: "inception_4a/output"
}
layer {
  name: "loss1/ave_pool"
  type: "Pooling"
  bottom: "inception_4a/output"
  top: "loss1/ave_pool"
  pooling_param {
    pool: AVE
    kernel_size: 5
    stride: 3
  }
}
layer {
  name: "loss1/conv"
  type: "Convolution"
  bottom: "loss1/ave_pool"
  top: "loss1/conv"
  param {
    lr_mult: 1
    decay_mult: 1
  }
  param {
    lr_mult: 2
    decay_mult: 0
  }
  convolution_param {
    num_output: 128
    kernel_size: 1
    weight_filler {
      type: "xavier"
    }
    bias_filler {
      type: "constant"
      value: 0.2
    }
  }
}
layer {
  name: "loss1/prelu_conv"
  type: "PReLU"
  bottom: "loss1/conv"
  top: "loss1/conv"
  param {
    lr_mult: 1
    decay_mult: 0
  }
  prelu_param {
    filler {
      type: "constant"
      value: 0.01
    }
  }
}
layer {
  name: "loss1/fc"
  type: "InnerProduct"
  bottom: "loss1/conv"
  top: "loss1/fc"
  param {
    lr_mult: 1
    decay_mult: 1
  }
  param {
    lr_mult: 2
    decay_mult: 0
  }
  inner_product_param {
    num_output: 1024
    weight_filler {
      type: "xavier"
    }
    bias_filler {
      type: "constant"
      value: 0.2
    }
  }
}
layer {
  name: "loss1/prelu_fc"
  type: "PReLU"
  bottom: "loss1/fc"
  top: "loss1/fc"
  param {
    lr_mult: 1
    decay_mult: 0
  }
  prelu_param {
    filler {
      type: "constant"
      value: 0.01
    }
  }
}
layer {
  name: "loss1/drop_fc"
  type: "Dropout"
  bottom: "loss1/fc"
  top: "loss1/fc"
  dropout_param {
    dropout_ratio: 0.7
  }
}
layer {
  name: "loss1/classifier2"
  type: "InnerProduct"
  bottom: "loss1/fc"
  top: "loss1/classifier"
  param {
    lr_mult: 1
    decay_mult: 1
  }
  param {
    lr_mult: 2
    decay_mult: 0
  }
  inner_product_param {
    num_output: 2
    weight_filler {
      type: "xavier"
    }
    bias_filler {
      type: "constant"
      value: 0
    }
  }
}
layer {
  name: "loss1/loss"
  type: "SoftmaxWithLoss"
  bottom: "loss1/classifier"
  bottom: "label"
  top: "loss1/loss1"
  loss_weight: 0.3
}
layer {
  name: "inception_4b/1x1"
  type: "Convolution"
  bottom: "inception_4a/output"
  top: "inception_4b/1x1"
  param {
    lr_mult: 1
    decay_mult: 1
  }
  param {
    lr_mult: 2
    decay_mult: 0
  }
  convolution_param {
    num_output: 160
    kernel_size: 1
    weight_filler {
      type: "xavier"
    }
    bias_filler {
      type: "constant"
      value: 0.2
    }
  }
}
layer {
  name: "inception_4b/prelu_1x1"
  type: "PReLU"
  bottom: "inception_4b/1x1"
  top: "inception_4b/1x1"
  param {
    lr_mult: 1
    decay_mult: 0
  }
  prelu_param {
    filler {
      type: "constant"
      value: 0.01
    }
  }
}
layer {
  name: "inception_4b/3x3_reduce"
  type: "Convolution"
  bottom: "inception_4a/output"
  top: "inception_4b/3x3_reduce"
  param {
    lr_mult: 1
    decay_mult: 1
  }
  param {
    lr_mult: 2
    decay_mult: 0
  }
  convolution_param {
    num_output: 112
    kernel_size: 1
    weight_filler {
      type: "xavier"
    }
    bias_filler {
      type: "constant"
      value: 0.2
    }
  }
}
layer {
  name: "inception_4b/prelu_3x3_reduce"
  type: "PReLU"
  bottom: "inception_4b/3x3_reduce"
  top: "inception_4b/3x3_reduce"
  param {
    lr_mult: 1
    decay_mult: 0
  }
  prelu_param {
    filler {
      type: "constant"
      value: 0.01
    }
  }
}
layer {
  name: "inception_4b/3x3"
  type: "Convolution"
  bottom: "inception_4b/3x3_reduce"
  top: "inception_4b/3x3"
  param {
    lr_mult: 1
    decay_mult: 1
  }
  param {
    lr_mult: 2
    decay_mult: 0
  }
  convolution_param {
    num_output: 224
    pad: 1
    kernel_size: 3
    weight_filler {
      type: "xavier"
    }
    bias_filler {
      type: "constant"
      value: 0.2
    }
  }
}
layer {
  name: "inception_4b/prelu_3x3"
  type: "PReLU"
  bottom: "inception_4b/3x3"
  top: "inception_4b/3x3"
  param {
    lr_mult: 1
    decay_mult: 0
  }
  prelu_param {
    filler {
      type: "constant"
      value: 0.01
    }
  }
}
layer {
  name: "inception_4b/5x5_reduce"
  type: "Convolution"
  bottom: "inception_4a/output"
  top: "inception_4b/5x5_reduce"
  param {
    lr_mult: 1
    decay_mult: 1
  }
  param {
    lr_mult: 2
    decay_mult: 0
  }
  convolution_param {
    num_output: 24
    kernel_size: 1
    weight_filler {
      type: "xavier"
    }
    bias_filler {
      type: "constant"
      value: 0.2
    }
  }
}
layer {
  name: "inception_4b/prelu_5x5_reduce"
  type: "PReLU"
  bottom: "inception_4b/5x5_reduce"
  top: "inception_4b/5x5_reduce"
  param {
    lr_mult: 1
    decay_mult: 0
  }
  prelu_param {
    filler {
      type: "constant"
      value: 0.01
    }
  }
}
layer {
  name: "inception_4b/5x5"
  type: "Convolution"
  bottom: "inception_4b/5x5_reduce"
  top: "inception_4b/5x5"
  param {
    lr_mult: 1
    decay_mult: 1
  }
  param {
    lr_mult: 2
    decay_mult: 0
  }
  convolution_param {
    num_output: 64
    pad: 2
    kernel_size: 5
    weight_filler {
      type: "xavier"
    }
    bias_filler {
      type: "constant"
      value: 0.2
    }
  }
}
layer {
  name: "inception_4b/prelu_5x5"
  type: "PReLU"
  bottom: "inception_4b/5x5"
  top: "inception_4b/5x5"
  param {
    lr_mult: 1
    decay_mult: 0
  }
  prelu_param {
    filler {
      type: "constant"
      value: 0.01
    }
  }
}
layer {
  name: "inception_4b/pool"
  type: "Pooling"
  bottom: "inception_4a/output"
  top: "inception_4b/pool"
  pooling_param {
    pool: MAX
    kernel_size: 3
    stride: 1
    pad: 1
  }
}
layer {
  name: "inception_4b/pool_proj"
  type: "Convolution"
  bottom: "inception_4b/pool"
  top: "inception_4b/pool_proj"
  param {
    lr_mult: 1
    decay_mult: 1
  }
  param {
    lr_mult: 2
    decay_mult: 0
  }
  convolution_param {
    num_output: 64
    kernel_size: 1
    weight_filler {
      type: "xavier"
    }
    bias_filler {
      type: "constant"
      value: 0.2
    }
  }
}
layer {
  name: "inception_4b/prelu_pool_proj"
  type: "PReLU"
  bottom: "inception_4b/pool_proj"
  top: "inception_4b/pool_proj"
  param {
    lr_mult: 1
    decay_mult: 0
  }
  prelu_param {
    filler {
      type: "constant"
      value: 0.01
    }
  }
}
layer {
  name: "inception_4b/output"
  type: "Concat"
  bottom: "inception_4b/1x1"
  bottom: "inception_4b/3x3"
  bottom: "inception_4b/5x5"
  bottom: "inception_4b/pool_proj"
  top: "inception_4b/output"
}
layer {
  name: "inception_4c/1x1"
  type: "Convolution"
  bottom: "inception_4b/output"
  top: "inception_4c/1x1"
  param {
    lr_mult: 1
    decay_mult: 1
  }
  param {
    lr_mult: 2
    decay_mult: 0
  }
  convolution_param {
    num_output: 128
    kernel_size: 1
    weight_filler {
      type: "xavier"
    }
    bias_filler {
      type: "constant"
      value: 0.2
    }
  }
}
layer {
  name: "inception_4c/prelu_1x1"
  type: "PReLU"
  bottom: "inception_4c/1x1"
  top: "inception_4c/1x1"
  param {
    lr_mult: 1
    decay_mult: 0
  }
  prelu_param {
    filler {
      type: "constant"
      value: 0.01
    }
  }
}
layer {
  name: "inception_4c/3x3_reduce"
  type: "Convolution"
  bottom: "inception_4b/output"
  top: "inception_4c/3x3_reduce"
  param {
    lr_mult: 1
    decay_mult: 1
  }
  param {
    lr_mult: 2
    decay_mult: 0
  }
  convolution_param {
    num_output: 128
    kernel_size: 1
    weight_filler {
      type: "xavier"
    }
    bias_filler {
      type: "constant"
      value: 0.2
    }
  }
}
layer {
  name: "inception_4c/prelu_3x3_reduce"
  type: "PReLU"
  bottom: "inception_4c/3x3_reduce"
  top: "inception_4c/3x3_reduce"
  param {
    lr_mult: 1
    decay_mult: 0
  }
  prelu_param {
    filler {
      type: "constant"
      value: 0.01
    }
  }
}
layer {
  name: "inception_4c/3x3"
  type: "Convolution"
  bottom: "inception_4c/3x3_reduce"
  top: "inception_4c/3x3"
  param {
    lr_mult: 1
    decay_mult: 1
  }
  param {
    lr_mult: 2
    decay_mult: 0
  }
  convolution_param {
    num_output: 256
    pad: 1
    kernel_size: 3
    weight_filler {
      type: "xavier"
    }
    bias_filler {
      type: "constant"
      value: 0.2
    }
  }
}
layer {
  name: "inception_4c/prelu_3x3"
  type: "PReLU"
  bottom: "inception_4c/3x3"
  top: "inception_4c/3x3"
  param {
    lr_mult: 1
    decay_mult: 0
  }
  prelu_param {
    filler {
      type: "constant"
      value: 0.01
    }
  }
}
layer {
  name: "inception_4c/5x5_reduce"
  type: "Convolution"
  bottom: "inception_4b/output"
  top: "inception_4c/5x5_reduce"
  param {
    lr_mult: 1
    decay_mult: 1
  }
  param {
    lr_mult: 2
    decay_mult: 0
  }
  convolution_param {
    num_output: 24
    kernel_size: 1
    weight_filler {
      type: "xavier"
    }
    bias_filler {
      type: "constant"
      value: 0.2
    }
  }
}
layer {
  name: "inception_4c/prelu_5x5_reduce"
  type: "PReLU"
  bottom: "inception_4c/5x5_reduce"
  top: "inception_4c/5x5_reduce"
  param {
    lr_mult: 1
    decay_mult: 0
  }
  prelu_param {
    filler {
      type: "constant"
      value: 0.01
    }
  }
}
layer {
  name: "inception_4c/5x5"
  type: "Convolution"
  bottom: "inception_4c/5x5_reduce"
  top: "inception_4c/5x5"
  param {
    lr_mult: 1
    decay_mult: 1
  }
  param {
    lr_mult: 2
    decay_mult: 0
  }
  convolution_param {
    num_output: 64
    pad: 2
    kernel_size: 5
    weight_filler {
      type: "xavier"
    }
    bias_filler {
      type: "constant"
      value: 0.2
    }
  }
}
layer {
  name: "inception_4c/prelu_5x5"
  type: "PReLU"
  bottom: "inception_4c/5x5"
  top: "inception_4c/5x5"
  param {
    lr_mult: 1
    decay_mult: 0
  }
  prelu_param {
    filler {
      type: "constant"
      value: 0.01
    }
  }
}
layer {
  name: "inception_4c/pool"
  type: "Pooling"
  bottom: "inception_4b/output"
  top: "inception_4c/pool"
  pooling_param {
    pool: MAX
    kernel_size: 3
    stride: 1
    pad: 1
  }
}
layer {
  name: "inception_4c/pool_proj"
  type: "Convolution"
  bottom: "inception_4c/pool"
  top: "inception_4c/pool_proj"
  param {
    lr_mult: 1
    decay_mult: 1
  }
  param {
    lr_mult: 2
    decay_mult: 0
  }
  convolution_param {
    num_output: 64
    kernel_size: 1
    weight_filler {
      type: "xavier"
    }
    bias_filler {
      type: "constant"
      value: 0.2
    }
  }
}
layer {
  name: "inception_4c/prelu_pool_proj"
  type: "PReLU"
  bottom: "inception_4c/pool_proj"
  top: "inception_4c/pool_proj"
  param {
    lr_mult: 1
    decay_mult: 0
  }
  prelu_param {
    filler {
      type: "constant"
      value: 0.01
    }
  }
}
layer {
  name: "inception_4c/output"
  type: "Concat"
  bottom: "inception_4c/1x1"
  bottom: "inception_4c/3x3"
  bottom: "inception_4c/5x5"
  bottom: "inception_4c/pool_proj"
  top: "inception_4c/output"
}
layer {
  name: "inception_4d/1x1"
  type: "Convolution"
  bottom: "inception_4c/output"
  top: "inception_4d/1x1"
  param {
    lr_mult: 1
    decay_mult: 1
  }
  param {
    lr_mult: 2
    decay_mult: 0
  }
  convolution_param {
    num_output: 112
    kernel_size: 1
    weight_filler {
      type: "xavier"
    }
    bias_filler {
      type: "constant"
      value: 0.2
    }
  }
}
layer {
  name: "inception_4d/prelu_1x1"
  type: "PReLU"
  bottom: "inception_4d/1x1"
  top: "inception_4d/1x1"
  param {
    lr_mult: 1
    decay_mult: 0
  }
  prelu_param {
    filler {
      type: "constant"
      value: 0.01
    }
  }
}
layer {
  name: "inception_4d/3x3_reduce"
  type: "Convolution"
  bottom: "inception_4c/output"
  top: "inception_4d/3x3_reduce"
  param {
    lr_mult: 1
    decay_mult: 1
  }
  param {
    lr_mult: 2
    decay_mult: 0
  }
  convolution_param {
    num_output: 144
    kernel_size: 1
    weight_filler {
      type: "xavier"
    }
    bias_filler {
      type: "constant"
      value: 0.2
    }
  }
}
layer {
  name: "inception_4d/prelu_3x3_reduce"
  type: "PReLU"
  bottom: "inception_4d/3x3_reduce"
  top: "inception_4d/3x3_reduce"
  param {
    lr_mult: 1
    decay_mult: 0
  }
  prelu_param {
    filler {
      type: "constant"
      value: 0.01
    }
  }
}
layer {
  name: "inception_4d/3x3"
  type: "Convolution"
  bottom: "inception_4d/3x3_reduce"
  top: "inception_4d/3x3"
  param {
    lr_mult: 1
    decay_mult: 1
  }
  param {
    lr_mult: 2
    decay_mult: 0
  }
  convolution_param {
    num_output: 288
    pad: 1
    kernel_size: 3
    weight_filler {
      type: "xavier"
    }
    bias_filler {
      type: "constant"
      value: 0.2
    }
  }
}
layer {
  name: "inception_4d/prelu_3x3"
  type: "PReLU"
  bottom: "inception_4d/3x3"
  top: "inception_4d/3x3"
  param {
    lr_mult: 1
    decay_mult: 0
  }
  prelu_param {
    filler {
      type: "constant"
      value: 0.01
    }
  }
}
layer {
  name: "inception_4d/5x5_reduce"
  type: "Convolution"
  bottom: "inception_4c/output"
  top: "inception_4d/5x5_reduce"
  param {
    lr_mult: 1
    decay_mult: 1
  }
  param {
    lr_mult: 2
    decay_mult: 0
  }
  convolution_param {
    num_output: 32
    kernel_size: 1
    weight_filler {
      type: "xavier"
    }
    bias_filler {
      type: "constant"
      value: 0.2
    }
  }
}
layer {
  name: "inception_4d/prelu_5x5_reduce"
  type: "PReLU"
  bottom: "inception_4d/5x5_reduce"
  top: "inception_4d/5x5_reduce"
  param {
    lr_mult: 1
    decay_mult: 0
  }
  prelu_param {
    filler {
      type: "constant"
      value: 0.01
    }
  }
}
layer {
  name: "inception_4d/5x5"
  type: "Convolution"
  bottom: "inception_4d/5x5_reduce"
  top: "inception_4d/5x5"
  param {
    lr_mult: 1
    decay_mult: 1
  }
  param {
    lr_mult: 2
    decay_mult: 0
  }
  convolution_param {
    num_output: 64
    pad: 2
    kernel_size: 5
    weight_filler {
      type: "xavier"
    }
    bias_filler {
      type: "constant"
      value: 0.2
    }
  }
}
layer {
  name: "inception_4d/prelu_5x5"
  type: "PReLU"
  bottom: "inception_4d/5x5"
  top: "inception_4d/5x5"
  param {
    lr_mult: 1
    decay_mult: 0
  }
  prelu_param {
    filler {
      type: "constant"
      value: 0.01
    }
  }
}
layer {
  name: "inception_4d/pool"
  type: "Pooling"
  bottom: "inception_4c/output"
  top: "inception_4d/pool"
  pooling_param {
    pool: MAX
    kernel_size: 3
    stride: 1
    pad: 1
  }
}
layer {
  name: "inception_4d/pool_proj"
  type: "Convolution"
  bottom: 
I1126 10:46:49.969064 10450 layer_factory.hpp:76] Creating layer data
I1126 10:46:49.969679 10450 net.cpp:106] Creating Layer data
I1126 10:46:49.969702 10450 net.cpp:411] data -> data
I1126 10:46:49.969751 10450 net.cpp:411] data -> label
I1126 10:46:50.009927 10455 db_lmdb.cpp:38] Opened lmdb ../../LMDB-s300/train_9-lmdb
I1126 10:46:50.035363 10450 data_layer.cpp:41] output data size: 32,3,224,224
I1126 10:46:50.104398 10450 net.cpp:150] Setting up data
I1126 10:46:50.104454 10450 net.cpp:157] Top shape: 32 3 224 224 (4816896)
I1126 10:46:50.104461 10450 net.cpp:157] Top shape: 32 (32)
I1126 10:46:50.104465 10450 net.cpp:165] Memory required for data: 19267712
I1126 10:46:50.104477 10450 layer_factory.hpp:76] Creating layer label_data_1_split
I1126 10:46:50.104492 10450 net.cpp:106] Creating Layer label_data_1_split
I1126 10:46:50.104499 10450 net.cpp:454] label_data_1_split <- label
I1126 10:46:50.104522 10450 net.cpp:411] label_data_1_split -> label_data_1_split_0
I1126 10:46:50.104534 10450 net.cpp:411] label_data_1_split -> label_data_1_split_1
I1126 10:46:50.104540 10450 net.cpp:411] label_data_1_split -> label_data_1_split_2
I1126 10:46:50.104604 10450 net.cpp:150] Setting up label_data_1_split
I1126 10:46:50.104610 10450 net.cpp:157] Top shape: 32 (32)
I1126 10:46:50.104615 10450 net.cpp:157] Top shape: 32 (32)
I1126 10:46:50.104620 10450 net.cpp:157] Top shape: 32 (32)
I1126 10:46:50.104624 10450 net.cpp:165] Memory required for data: 19268096
I1126 10:46:50.104629 10450 layer_factory.hpp:76] Creating layer conv1/7x7_s2
I1126 10:46:50.104645 10450 net.cpp:106] Creating Layer conv1/7x7_s2
I1126 10:46:50.104650 10450 net.cpp:454] conv1/7x7_s2 <- data
I1126 10:46:50.104657 10450 net.cpp:411] conv1/7x7_s2 -> conv1/7x7_s2
I1126 10:46:50.187140 10456 blocking_queue.cpp:50] Waiting for data
I1126 10:46:50.329530 10450 cudnn_conv_layer.cpp:194] Reallocating workspace storage: 225816
I1126 10:46:50.329782 10450 net.cpp:150] Setting up conv1/7x7_s2
I1126 10:46:50.329797 10450 net.cpp:157] Top shape: 32 64 112 112 (25690112)
I1126 10:46:50.329802 10450 net.cpp:165] Memory required for data: 122028544
I1126 10:46:50.329819 10450 layer_factory.hpp:76] Creating layer conv1/prelu_7x7
I1126 10:46:50.329835 10450 net.cpp:106] Creating Layer conv1/prelu_7x7
I1126 10:46:50.329843 10450 net.cpp:454] conv1/prelu_7x7 <- conv1/7x7_s2
I1126 10:46:50.329849 10450 net.cpp:397] conv1/prelu_7x7 -> conv1/7x7_s2 (in-place)
I1126 10:46:50.331547 10450 net.cpp:150] Setting up conv1/prelu_7x7
I1126 10:46:50.331559 10450 net.cpp:157] Top shape: 32 64 112 112 (25690112)
I1126 10:46:50.331564 10450 net.cpp:165] Memory required for data: 224788992
I1126 10:46:50.331571 10450 layer_factory.hpp:76] Creating layer pool1/3x3_s2
I1126 10:46:50.331583 10450 net.cpp:106] Creating Layer pool1/3x3_s2
I1126 10:46:50.331588 10450 net.cpp:454] pool1/3x3_s2 <- conv1/7x7_s2
I1126 10:46:50.331594 10450 net.cpp:411] pool1/3x3_s2 -> pool1/3x3_s2
I1126 10:46:50.331956 10450 net.cpp:150] Setting up pool1/3x3_s2
I1126 10:46:50.331966 10450 net.cpp:157] Top shape: 32 64 56 56 (6422528)
I1126 10:46:50.331970 10450 net.cpp:165] Memory required for data: 250479104
I1126 10:46:50.331975 10450 layer_factory.hpp:76] Creating layer pool1/norm1
I1126 10:46:50.331986 10450 net.cpp:106] Creating Layer pool1/norm1
I1126 10:46:50.331990 10450 net.cpp:454] pool1/norm1 <- pool1/3x3_s2
I1126 10:46:50.331996 10450 net.cpp:411] pool1/norm1 -> pool1/norm1
I1126 10:46:50.332144 10450 net.cpp:150] Setting up pool1/norm1
I1126 10:46:50.332151 10450 net.cpp:157] Top shape: 32 64 56 56 (6422528)
I1126 10:46:50.332155 10450 net.cpp:165] Memory required for data: 276169216
I1126 10:46:50.332160 10450 layer_factory.hpp:76] Creating layer conv2/3x3_reduce
I1126 10:46:50.332170 10450 net.cpp:106] Creating Layer conv2/3x3_reduce
I1126 10:46:50.332175 10450 net.cpp:454] conv2/3x3_reduce <- pool1/norm1
I1126 10:46:50.332180 10450 net.cpp:411] conv2/3x3_reduce -> conv2/3x3_reduce
I1126 10:46:50.333567 10450 cudnn_conv_layer.cpp:194] Reallocating workspace storage: 63000
I1126 10:46:50.333587 10450 net.cpp:150] Setting up conv2/3x3_reduce
I1126 10:46:50.333595 10450 net.cpp:157] Top shape: 32 64 56 56 (6422528)
I1126 10:46:50.333600 10450 net.cpp:165] Memory required for data: 301859328
I1126 10:46:50.333609 10450 layer_factory.hpp:76] Creating layer conv2/prelu_3x3_reduce
I1126 10:46:50.333618 10450 net.cpp:106] Creating Layer conv2/prelu_3x3_reduce
I1126 10:46:50.333622 10450 net.cpp:454] conv2/prelu_3x3_reduce <- conv2/3x3_reduce
I1126 10:46:50.333631 10450 net.cpp:397] conv2/prelu_3x3_reduce -> conv2/3x3_reduce (in-place)
I1126 10:46:50.334254 10450 net.cpp:150] Setting up conv2/prelu_3x3_reduce
I1126 10:46:50.334264 10450 net.cpp:157] Top shape: 32 64 56 56 (6422528)
I1126 10:46:50.334267 10450 net.cpp:165] Memory required for data: 327549440
I1126 10:46:50.334274 10450 layer_factory.hpp:76] Creating layer conv2/3x3
I1126 10:46:50.334285 10450 net.cpp:106] Creating Layer conv2/3x3
I1126 10:46:50.334288 10450 net.cpp:454] conv2/3x3 <- conv2/3x3_reduce
I1126 10:46:50.334295 10450 net.cpp:411] conv2/3x3 -> conv2/3x3
I1126 10:46:50.336339 10450 cudnn_conv_layer.cpp:194] Reallocating workspace storage: 63000
I1126 10:46:50.336361 10450 net.cpp:150] Setting up conv2/3x3
I1126 10:46:50.336369 10450 net.cpp:157] Top shape: 32 192 56 56 (19267584)
I1126 10:46:50.336374 10450 net.cpp:165] Memory required for data: 404619776
I1126 10:46:50.336380 10450 layer_factory.hpp:76] Creating layer conv2/prelu_3x3
I1126 10:46:50.336388 10450 net.cpp:106] Creating Layer conv2/prelu_3x3
I1126 10:46:50.336393 10450 net.cpp:454] conv2/prelu_3x3 <- conv2/3x3
I1126 10:46:50.336400 10450 net.cpp:397] conv2/prelu_3x3 -> conv2/3x3 (in-place)
I1126 10:46:50.337574 10450 net.cpp:150] Setting up conv2/prelu_3x3
I1126 10:46:50.337589 10450 net.cpp:157] Top shape: 32 192 56 56 (19267584)
I1126 10:46:50.337615 10450 net.cpp:165] Memory required for data: 481690112
I1126 10:46:50.337626 10450 layer_factory.hpp:76] Creating layer conv2/norm2
I1126 10:46:50.337637 10450 net.cpp:106] Creating Layer conv2/norm2
I1126 10:46:50.337642 10450 net.cpp:454] conv2/norm2 <- conv2/3x3
I1126 10:46:50.337648 10450 net.cpp:411] conv2/norm2 -> conv2/norm2
I1126 10:46:50.337810 10450 net.cpp:150] Setting up conv2/norm2
I1126 10:46:50.337818 10450 net.cpp:157] Top shape: 32 192 56 56 (19267584)
I1126 10:46:50.337822 10450 net.cpp:165] Memory required for data: 558760448
I1126 10:46:50.337826 10450 layer_factory.hpp:76] Creating layer pool2/3x3_s2
I1126 10:46:50.337834 10450 net.cpp:106] Creating Layer pool2/3x3_s2
I1126 10:46:50.337838 10450 net.cpp:454] pool2/3x3_s2 <- conv2/norm2
I1126 10:46:50.337846 10450 net.cpp:411] pool2/3x3_s2 -> pool2/3x3_s2
I1126 10:46:50.338196 10450 net.cpp:150] Setting up pool2/3x3_s2
I1126 10:46:50.338204 10450 net.cpp:157] Top shape: 32 192 28 28 (4816896)
I1126 10:46:50.338208 10450 net.cpp:165] Memory required for data: 578028032
I1126 10:46:50.338213 10450 layer_factory.hpp:76] Creating layer pool2/3x3_s2_pool2/3x3_s2_0_split
I1126 10:46:50.338219 10450 net.cpp:106] Creating Layer pool2/3x3_s2_pool2/3x3_s2_0_split
I1126 10:46:50.338223 10450 net.cpp:454] pool2/3x3_s2_pool2/3x3_s2_0_split <- pool2/3x3_s2
I1126 10:46:50.338230 10450 net.cpp:411] pool2/3x3_s2_pool2/3x3_s2_0_split -> pool2/3x3_s2_pool2/3x3_s2_0_split_0
I1126 10:46:50.338238 10450 net.cpp:411] pool2/3x3_s2_pool2/3x3_s2_0_split -> pool2/3x3_s2_pool2/3x3_s2_0_split_1
I1126 10:46:50.338243 10450 net.cpp:411] pool2/3x3_s2_pool2/3x3_s2_0_split -> pool2/3x3_s2_pool2/3x3_s2_0_split_2
I1126 10:46:50.338249 10450 net.cpp:411] pool2/3x3_s2_pool2/3x3_s2_0_split -> pool2/3x3_s2_pool2/3x3_s2_0_split_3
I1126 10:46:50.338295 10450 net.cpp:150] Setting up pool2/3x3_s2_pool2/3x3_s2_0_split
I1126 10:46:50.338304 10450 net.cpp:157] Top shape: 32 192 28 28 (4816896)
I1126 10:46:50.338309 10450 net.cpp:157] Top shape: 32 192 28 28 (4816896)
I1126 10:46:50.338313 10450 net.cpp:157] Top shape: 32 192 28 28 (4816896)
I1126 10:46:50.338317 10450 net.cpp:157] Top shape: 32 192 28 28 (4816896)
I1126 10:46:50.338321 10450 net.cpp:165] Memory required for data: 655098368
I1126 10:46:50.338325 10450 layer_factory.hpp:76] Creating layer inception_3a/1x1
I1126 10:46:50.338332 10450 net.cpp:106] Creating Layer inception_3a/1x1
I1126 10:46:50.338336 10450 net.cpp:454] inception_3a/1x1 <- pool2/3x3_s2_pool2/3x3_s2_0_split_0
I1126 10:46:50.338343 10450 net.cpp:411] inception_3a/1x1 -> inception_3a/1x1
I1126 10:46:50.340036 10450 cudnn_conv_layer.cpp:194] Reallocating workspace storage: 20664
I1126 10:46:50.340059 10450 net.cpp:150] Setting up inception_3a/1x1
I1126 10:46:50.340068 10450 net.cpp:157] Top shape: 32 64 28 28 (1605632)
I1126 10:46:50.340072 10450 net.cpp:165] Memory required for data: 661520896
I1126 10:46:50.340080 10450 layer_factory.hpp:76] Creating layer inception_3a/prelu_1x1
I1126 10:46:50.340090 10450 net.cpp:106] Creating Layer inception_3a/prelu_1x1
I1126 10:46:50.340095 10450 net.cpp:454] inception_3a/prelu_1x1 <- inception_3a/1x1
I1126 10:46:50.340101 10450 net.cpp:397] inception_3a/prelu_1x1 -> inception_3a/1x1 (in-place)
I1126 10:46:50.340711 10450 net.cpp:150] Setting up inception_3a/prelu_1x1
I1126 10:46:50.340728 10450 net.cpp:157] Top shape: 32 64 28 28 (1605632)
I1126 10:46:50.340733 10450 net.cpp:165] Memory required for data: 667943424
I1126 10:46:50.340749 10450 layer_factory.hpp:76] Creating layer inception_3a/3x3_reduce
I1126 10:46:50.340760 10450 net.cpp:106] Creating Layer inception_3a/3x3_reduce
I1126 10:46:50.340765 10450 net.cpp:454] inception_3a/3x3_reduce <- pool2/3x3_s2_pool2/3x3_s2_0_split_1
I1126 10:46:50.340773 10450 net.cpp:411] inception_3a/3x3_reduce -> inception_3a/3x3_reduce
I1126 10:46:50.341660 10450 cudnn_conv_layer.cpp:194] Reallocating workspace storage: 20664
I1126 10:46:50.341678 10450 net.cpp:150] Setting up inception_3a/3x3_reduce
I1126 10:46:50.341686 10450 net.cpp:157] Top shape: 32 96 28 28 (2408448)
I1126 10:46:50.341703 10450 net.cpp:165] Memory required for data: 677577216
I1126 10:46:50.341711 10450 layer_factory.hpp:76] Creating layer inception_3a/prelu_3x3_reduce
I1126 10:46:50.341722 10450 net.cpp:106] Creating Layer inception_3a/prelu_3x3_reduce
I1126 10:46:50.341727 10450 net.cpp:454] inception_3a/prelu_3x3_reduce <- inception_3a/3x3_reduce
I1126 10:46:50.341735 10450 net.cpp:397] inception_3a/prelu_3x3_reduce -> inception_3a/3x3_reduce (in-place)
I1126 10:46:50.341863 10450 net.cpp:150] Setting up inception_3a/prelu_3x3_reduce
I1126 10:46:50.341871 10450 net.cpp:157] Top shape: 32 96 28 28 (2408448)
I1126 10:46:50.341876 10450 net.cpp:165] Memory required for data: 687211008
I1126 10:46:50.341881 10450 layer_factory.hpp:76] Creating layer inception_3a/3x3
I1126 10:46:50.341891 10450 net.cpp:106] Creating Layer inception_3a/3x3
I1126 10:46:50.341894 10450 net.cpp:454] inception_3a/3x3 <- inception_3a/3x3_reduce
I1126 10:46:50.341902 10450 net.cpp:411] inception_3a/3x3 -> inception_3a/3x3
I1126 10:46:50.344110 10450 cudnn_conv_layer.cpp:194] Reallocating workspace storage: 20664
I1126 10:46:50.344144 10450 net.cpp:150] Setting up inception_3a/3x3
I1126 10:46:50.344153 10450 net.cpp:157] Top shape: 32 128 28 28 (3211264)
I1126 10:46:50.344158 10450 net.cpp:165] Memory required for data: 700056064
I1126 10:46:50.344172 10450 layer_factory.hpp:76] Creating layer inception_3a/prelu_3x3
I1126 10:46:50.344183 10450 net.cpp:106] Creating Layer inception_3a/prelu_3x3
I1126 10:46:50.344189 10450 net.cpp:454] inception_3a/prelu_3x3 <- inception_3a/3x3
I1126 10:46:50.344197 10450 net.cpp:397] inception_3a/prelu_3x3 -> inception_3a/3x3 (in-place)
I1126 10:46:50.344327 10450 net.cpp:150] Setting up inception_3a/prelu_3x3
I1126 10:46:50.344336 10450 net.cpp:157] Top shape: 32 128 28 28 (3211264)
I1126 10:46:50.344341 10450 net.cpp:165] Memory required for data: 712901120
I1126 10:46:50.344347 10450 layer_factory.hpp:76] Creating layer inception_3a/5x5_reduce
I1126 10:46:50.344357 10450 net.cpp:106] Creating Layer inception_3a/5x5_reduce
I1126 10:46:50.344362 10450 net.cpp:454] inception_3a/5x5_reduce <- pool2/3x3_s2_pool2/3x3_s2_0_split_2
I1126 10:46:50.344368 10450 net.cpp:411] inception_3a/5x5_reduce -> inception_3a/5x5_reduce
I1126 10:46:50.345605 10450 cudnn_conv_layer.cpp:194] Reallocating workspace storage: 20664
I1126 10:46:50.345628 10450 net.cpp:150] Setting up inception_3a/5x5_reduce
I1126 10:46:50.345635 10450 net.cpp:157] Top shape: 32 16 28 28 (401408)
I1126 10:46:50.345639 10450 net.cpp:165] Memory required for data: 714506752
I1126 10:46:50.345646 10450 layer_factory.hpp:76] Creating layer inception_3a/prelu_5x5_reduce
I1126 10:46:50.345655 10450 net.cpp:106] Creating Layer inception_3a/prelu_5x5_reduce
I1126 10:46:50.345660 10450 net.cpp:454] inception_3a/prelu_5x5_reduce <- inception_3a/5x5_reduce
I1126 10:46:50.345667 10450 net.cpp:397] inception_3a/prelu_5x5_reduce -> inception_3a/5x5_reduce (in-place)
I1126 10:46:50.345767 10450 net.cpp:150] Setting up inception_3a/prelu_5x5_reduce
I1126 10:46:50.345774 10450 net.cpp:157] Top shape: 32 16 28 28 (401408)
I1126 10:46:50.345777 10450 net.cpp:165] Memory required for data: 716112384
I1126 10:46:50.345783 10450 layer_factory.hpp:76] Creating layer inception_3a/5x5
I1126 10:46:50.345803 10450 net.cpp:106] Creating Layer inception_3a/5x5
I1126 10:46:50.345808 10450 net.cpp:454] inception_3a/5x5 <- inception_3a/5x5_reduce
I1126 10:46:50.345815 10450 net.cpp:411] inception_3a/5x5 -> inception_3a/5x5
I1126 10:46:50.346845 10450 cudnn_conv_layer.cpp:194] Reallocating workspace storage: 20664
I1126 10:46:50.346865 10450 net.cpp:150] Setting up inception_3a/5x5
I1126 10:46:50.346873 10450 net.cpp:157] Top shape: 32 32 28 28 (802816)
I1126 10:46:50.346876 10450 net.cpp:165] Memory required for data: 719323648
I1126 10:46:50.346884 10450 layer_factory.hpp:76] Creating layer inception_3a/prelu_5x5
I1126 10:46:50.346892 10450 net.cpp:106] Creating Layer inception_3a/prelu_5x5
I1126 10:46:50.346897 10450 net.cpp:454] inception_3a/prelu_5x5 <- inception_3a/5x5
I1126 10:46:50.346904 10450 net.cpp:397] inception_3a/prelu_5x5 -> inception_3a/5x5 (in-place)
I1126 10:46:50.347014 10450 net.cpp:150] Setting up inception_3a/prelu_5x5
I1126 10:46:50.347023 10450 net.cpp:157] Top shape: 32 32 28 28 (802816)
I1126 10:46:50.347025 10450 net.cpp:165] Memory required for data: 722534912
I1126 10:46:50.347030 10450 layer_factory.hpp:76] Creating layer inception_3a/pool
I1126 10:46:50.347038 10450 net.cpp:106] Creating Layer inception_3a/pool
I1126 10:46:50.347043 10450 net.cpp:454] inception_3a/pool <- pool2/3x3_s2_pool2/3x3_s2_0_split_3
I1126 10:46:50.347049 10450 net.cpp:411] inception_3a/pool -> inception_3a/pool
I1126 10:46:50.347219 10450 net.cpp:150] Setting up inception_3a/pool
I1126 10:46:50.347229 10450 net.cpp:157] Top shape: 32 192 28 28 (4816896)
I1126 10:46:50.347232 10450 net.cpp:165] Memory required for data: 741802496
I1126 10:46:50.347236 10450 layer_factory.hpp:76] Creating layer inception_3a/pool_proj
I1126 10:46:50.347245 10450 net.cpp:106] Creating Layer inception_3a/pool_proj
I1126 10:46:50.347250 10450 net.cpp:454] inception_3a/pool_proj <- inception_3a/pool
I1126 10:46:50.347256 10450 net.cpp:411] inception_3a/pool_proj -> inception_3a/pool_proj
I1126 10:46:50.348296 10450 cudnn_conv_layer.cpp:194] Reallocating workspace storage: 20664
I1126 10:46:50.348315 10450 net.cpp:150] Setting up inception_3a/pool_proj
I1126 10:46:50.348322 10450 net.cpp:157] Top shape: 32 32 28 28 (802816)
I1126 10:46:50.348326 10450 net.cpp:165] Memory required for data: 745013760
I1126 10:46:50.348332 10450 layer_factory.hpp:76] Creating layer inception_3a/prelu_pool_proj
I1126 10:46:50.348340 10450 net.cpp:106] Creating Layer inception_3a/prelu_pool_proj
I1126 10:46:50.348345 10450 net.cpp:454] inception_3a/prelu_pool_proj <- inception_3a/pool_proj
I1126 10:46:50.348351 10450 net.cpp:397] inception_3a/prelu_pool_proj -> inception_3a/pool_proj (in-place)
I1126 10:46:50.348439 10450 net.cpp:150] Setting up inception_3a/prelu_pool_proj
I1126 10:46:50.348448 10450 net.cpp:157] Top shape: 32 32 28 28 (802816)
I1126 10:46:50.348450 10450 net.cpp:165] Memory required for data: 748225024
I1126 10:46:50.348455 10450 layer_factory.hpp:76] Creating layer inception_3a/output
I1126 10:46:50.348466 10450 net.cpp:106] Creating Layer inception_3a/output
I1126 10:46:50.348470 10450 net.cpp:454] inception_3a/output <- inception_3a/1x1
I1126 10:46:50.348475 10450 net.cpp:454] inception_3a/output <- inception_3a/3x3
I1126 10:46:50.348481 10450 net.cpp:454] inception_3a/output <- inception_3a/5x5
I1126 10:46:50.348485 10450 net.cpp:454] inception_3a/output <- inception_3a/pool_proj
I1126 10:46:50.348490 10450 net.cpp:411] inception_3a/output -> inception_3a/output
I1126 10:46:50.348515 10450 net.cpp:150] Setting up inception_3a/output
I1126 10:46:50.348520 10450 net.cpp:157] Top shape: 32 256 28 28 (6422528)
I1126 10:46:50.348525 10450 net.cpp:165] Memory required for data: 773915136
I1126 10:46:50.348528 10450 layer_factory.hpp:76] Creating layer inception_3a/output_inception_3a/output_0_split
I1126 10:46:50.348536 10450 net.cpp:106] Creating Layer inception_3a/output_inception_3a/output_0_split
I1126 10:46:50.348541 10450 net.cpp:454] inception_3a/output_inception_3a/output_0_split <- inception_3a/output
I1126 10:46:50.348546 10450 net.cpp:411] inception_3a/output_inception_3a/output_0_split -> inception_3a/output_inception_3a/output_0_split_0
I1126 10:46:50.348553 10450 net.cpp:411] inception_3a/output_inception_3a/output_0_split -> inception_3a/output_inception_3a/output_0_split_1
I1126 10:46:50.348559 10450 net.cpp:411] inception_3a/output_inception_3a/output_0_split -> inception_3a/output_inception_3a/output_0_split_2
I1126 10:46:50.348565 10450 net.cpp:411] inception_3a/output_inception_3a/output_0_split -> inception_3a/output_inception_3a/output_0_split_3
I1126 10:46:50.348613 10450 net.cpp:150] Setting up inception_3a/output_inception_3a/output_0_split
I1126 10:46:50.348619 10450 net.cpp:157] Top shape: 32 256 28 28 (6422528)
I1126 10:46:50.348623 10450 net.cpp:157] Top shape: 32 256 28 28 (6422528)
I1126 10:46:50.348628 10450 net.cpp:157] Top shape: 32 256 28 28 (6422528)
I1126 10:46:50.348645 10450 net.cpp:157] Top shape: 32 256 28 28 (6422528)
I1126 10:46:50.348649 10450 net.cpp:165] Memory required for data: 876675584
I1126 10:46:50.348654 10450 layer_factory.hpp:76] Creating layer inception_3b/1x1
I1126 10:46:50.348661 10450 net.cpp:106] Creating Layer inception_3b/1x1
I1126 10:46:50.348665 10450 net.cpp:454] inception_3b/1x1 <- inception_3a/output_inception_3a/output_0_split_0
I1126 10:46:50.348672 10450 net.cpp:411] inception_3b/1x1 -> inception_3b/1x1
I1126 10:46:50.349915 10450 cudnn_conv_layer.cpp:194] Reallocating workspace storage: 20664
I1126 10:46:50.349932 10450 net.cpp:150] Setting up inception_3b/1x1
I1126 10:46:50.349939 10450 net.cpp:157] Top shape: 32 128 28 28 (3211264)
I1126 10:46:50.349943 10450 net.cpp:165] Memory required for data: 889520640
I1126 10:46:50.349951 10450 layer_factory.hpp:76] Creating layer inception_3b/prelu_1x1
I1126 10:46:50.349961 10450 net.cpp:106] Creating Layer inception_3b/prelu_1x1
I1126 10:46:50.349966 10450 net.cpp:454] inception_3b/prelu_1x1 <- inception_3b/1x1
I1126 10:46:50.349972 10450 net.cpp:397] inception_3b/prelu_1x1 -> inception_3b/1x1 (in-place)
I1126 10:46:50.350605 10450 net.cpp:150] Setting up inception_3b/prelu_1x1
I1126 10:46:50.350616 10450 net.cpp:157] Top shape: 32 128 28 28 (3211264)
I1126 10:46:50.350620 10450 net.cpp:165] Memory required for data: 902365696
I1126 10:46:50.350626 10450 layer_factory.hpp:76] Creating layer inception_3b/3x3_reduce
I1126 10:46:50.350637 10450 net.cpp:106] Creating Layer inception_3b/3x3_reduce
I1126 10:46:50.350642 10450 net.cpp:454] inception_3b/3x3_reduce <- inception_3a/output_inception_3a/output_0_split_1
I1126 10:46:50.350648 10450 net.cpp:411] inception_3b/3x3_reduce -> inception_3b/3x3_reduce
I1126 10:46:50.351827 10450 cudnn_conv_layer.cpp:194] Reallocating workspace storage: 20664
I1126 10:46:50.351845 10450 net.cpp:150] Setting up inception_3b/3x3_reduce
I1126 10:46:50.351853 10450 net.cpp:157] Top shape: 32 128 28 28 (3211264)
I1126 10:46:50.351857 10450 net.cpp:165] Memory required for data: 915210752
I1126 10:46:50.351865 10450 layer_factory.hpp:76] Creating layer inception_3b/prelu_3x3_reduce
I1126 10:46:50.351872 10450 net.cpp:106] Creating Layer inception_3b/prelu_3x3_reduce
I1126 10:46:50.351877 10450 net.cpp:454] inception_3b/prelu_3x3_reduce <- inception_3b/3x3_reduce
I1126 10:46:50.351883 10450 net.cpp:397] inception_3b/prelu_3x3_reduce -> inception_3b/3x3_reduce (in-place)
I1126 10:46:50.352020 10450 net.cpp:150] Setting up inception_3b/prelu_3x3_reduce
I1126 10:46:50.352030 10450 net.cpp:157] Top shape: 32 128 28 28 (3211264)
I1126 10:46:50.352033 10450 net.cpp:165] Memory required for data: 928055808
I1126 10:46:50.352046 10450 layer_factory.hpp:76] Creating layer inception_3b/3x3
I1126 10:46:50.352057 10450 net.cpp:106] Creating Layer inception_3b/3x3
I1126 10:46:50.352062 10450 net.cpp:454] inception_3b/3x3 <- inception_3b/3x3_reduce
I1126 10:46:50.352071 10450 net.cpp:411] inception_3b/3x3 -> inception_3b/3x3
I1126 10:46:50.354830 10450 cudnn_conv_layer.cpp:194] Reallocating workspace storage: 20664
I1126 10:46:50.354852 10450 net.cpp:150] Setting up inception_3b/3x3
I1126 10:46:50.354861 10450 net.cpp:157] Top shape: 32 192 28 28 (4816896)
I1126 10:46:50.354864 10450 net.cpp:165] Memory required for data: 947323392
I1126 10:46:50.354871 10450 layer_factory.hpp:76] Creating layer inception_3b/prelu_3x3
I1126 10:46:50.354879 10450 net.cpp:106] Creating Layer inception_3b/prelu_3x3
I1126 10:46:50.354884 10450 net.cpp:454] inception_3b/prelu_3x3 <- inception_3b/3x3
I1126 10:46:50.354892 10450 net.cpp:397] inception_3b/prelu_3x3 -> inception_3b/3x3 (in-place)
I1126 10:46:50.355582 10450 net.cpp:150] Setting up inception_3b/prelu_3x3
I1126 10:46:50.355597 10450 net.cpp:157] Top shape: 32 192 28 28 (4816896)
I1126 10:46:50.355600 10450 net.cpp:165] Memory required for data: 966590976
I1126 10:46:50.355607 10450 layer_factory.hpp:76] Creating layer inception_3b/5x5_reduce
I1126 10:46:50.355618 10450 net.cpp:106] Creating Layer inception_3b/5x5_reduce
I1126 10:46:50.355648 10450 net.cpp:454] inception_3b/5x5_reduce <- inception_3a/output_inception_3a/output_0_split_2
I1126 10:46:50.355656 10450 net.cpp:411] inception_3b/5x5_reduce -> inception_3b/5x5_reduce
I1126 10:46:50.356580 10450 cudnn_conv_layer.cpp:194] Reallocating workspace storage: 20664
I1126 10:46:50.356598 10450 net.cpp:150] Setting up inception_3b/5x5_reduce
I1126 10:46:50.356606 10450 net.cpp:157] Top shape: 32 32 28 28 (802816)
I1126 10:46:50.356609 10450 net.cpp:165] Memory required for data: 969802240
I1126 10:46:50.356616 10450 layer_factory.hpp:76] Creating layer inception_3b/prelu_5x5_reduce
I1126 10:46:50.356627 10450 net.cpp:106] Creating Layer inception_3b/prelu_5x5_reduce
I1126 10:46:50.356632 10450 net.cpp:454] inception_3b/prelu_5x5_reduce <- inception_3b/5x5_reduce
I1126 10:46:50.356639 10450 net.cpp:397] inception_3b/prelu_5x5_reduce -> inception_3b/5x5_reduce (in-place)
I1126 10:46:50.356763 10450 net.cpp:150] Setting up inception_3b/prelu_5x5_reduce
I1126 10:46:50.356772 10450 net.cpp:157] Top shape: 32 32 28 28 (802816)
I1126 10:46:50.356776 10450 net.cpp:165] Memory required for data: 973013504
I1126 10:46:50.356782 10450 layer_factory.hpp:76] Creating layer inception_3b/5x5
I1126 10:46:50.356792 10450 net.cpp:106] Creating Layer inception_3b/5x5
I1126 10:46:50.356796 10450 net.cpp:454] inception_3b/5x5 <- inception_3b/5x5_reduce
I1126 10:46:50.356804 10450 net.cpp:411] inception_3b/5x5 -> inception_3b/5x5
I1126 10:46:50.358269 10450 cudnn_conv_layer.cpp:194] Reallocating workspace storage: 20664
I1126 10:46:50.358286 10450 net.cpp:150] Setting up inception_3b/5x5
I1126 10:46:50.358294 10450 net.cpp:157] Top shape: 32 96 28 28 (2408448)
I1126 10:46:50.358299 10450 net.cpp:165] Memory required for data: 982647296
I1126 10:46:50.358305 10450 layer_factory.hpp:76] Creating layer inception_3b/prelu_5x5
I1126 10:46:50.358314 10450 net.cpp:106] Creating Layer inception_3b/prelu_5x5
I1126 10:46:50.358319 10450 net.cpp:454] inception_3b/prelu_5x5 <- inception_3b/5x5
I1126 10:46:50.358325 10450 net.cpp:397] inception_3b/prelu_5x5 -> inception_3b/5x5 (in-place)
I1126 10:46:50.358469 10450 net.cpp:150] Setting up inception_3b/prelu_5x5
I1126 10:46:50.358476 10450 net.cpp:157] Top shape: 32 96 28 28 (2408448)
I1126 10:46:50.358480 10450 net.cpp:165] Memory required for data: 992281088
I1126 10:46:50.358486 10450 layer_factory.hpp:76] Creating layer inception_3b/pool
I1126 10:46:50.358494 10450 net.cpp:106] Creating Layer inception_3b/pool
I1126 10:46:50.358500 10450 net.cpp:454] inception_3b/pool <- inception_3a/output_inception_3a/output_0_split_3
I1126 10:46:50.358505 10450 net.cpp:411] inception_3b/pool -> inception_3b/pool
I1126 10:46:50.358863 10450 net.cpp:150] Setting up inception_3b/pool
I1126 10:46:50.358873 10450 net.cpp:157] Top shape: 32 256 28 28 (6422528)
I1126 10:46:50.358877 10450 net.cpp:165] Memory required for data: 1017971200
I1126 10:46:50.358882 10450 layer_factory.hpp:76] Creating layer inception_3b/pool_proj
I1126 10:46:50.358892 10450 net.cpp:106] Creating Layer inception_3b/pool_proj
I1126 10:46:50.358897 10450 net.cpp:454] inception_3b/pool_proj <- inception_3b/pool
I1126 10:46:50.358904 10450 net.cpp:411] inception_3b/pool_proj -> inception_3b/pool_proj
I1126 10:46:50.360028 10450 cudnn_conv_layer.cpp:194] Reallocating workspace storage: 20664
I1126 10:46:50.360047 10450 net.cpp:150] Setting up inception_3b/pool_proj
I1126 10:46:50.360055 10450 net.cpp:157] Top shape: 32 64 28 28 (1605632)
I1126 10:46:50.360059 10450 net.cpp:165] Memory required for data: 1024393728
I1126 10:46:50.360066 10450 layer_factory.hpp:76] Creating layer inception_3b/prelu_pool_proj
I1126 10:46:50.360074 10450 net.cpp:106] Creating Layer inception_3b/prelu_pool_proj
I1126 10:46:50.360080 10450 net.cpp:454] inception_3b/prelu_pool_proj <- inception_3b/pool_proj
I1126 10:46:50.360086 10450 net.cpp:397] inception_3b/prelu_pool_proj -> inception_3b/pool_proj (in-place)
I1126 10:46:50.360205 10450 net.cpp:150] Setting up inception_3b/prelu_pool_proj
I1126 10:46:50.360235 10450 net.cpp:157] Top shape: 32 64 28 28 (1605632)
I1126 10:46:50.360239 10450 net.cpp:165] Memory required for data: 1030816256
I1126 10:46:50.360245 10450 layer_factory.hpp:76] Creating layer inception_3b/output
I1126 10:46:50.360251 10450 net.cpp:106] Creating Layer inception_3b/output
I1126 10:46:50.360256 10450 net.cpp:454] inception_3b/output <- inception_3b/1x1
I1126 10:46:50.360261 10450 net.cpp:454] inception_3b/output <- inception_3b/3x3
I1126 10:46:50.360265 10450 net.cpp:454] inception_3b/output <- inception_3b/5x5
I1126 10:46:50.360270 10450 net.cpp:454] inception_3b/output <- inception_3b/pool_proj
I1126 10:46:50.360275 10450 net.cpp:411] inception_3b/output -> inception_3b/output
I1126 10:46:50.360299 10450 net.cpp:150] Setting up inception_3b/output
I1126 10:46:50.360306 10450 net.cpp:157] Top shape: 32 480 28 28 (12042240)
I1126 10:46:50.360311 10450 net.cpp:165] Memory required for data: 1078985216
I1126 10:46:50.360314 10450 layer_factory.hpp:76] Creating layer pool3/3x3_s2
I1126 10:46:50.360322 10450 net.cpp:106] Creating Layer pool3/3x3_s2
I1126 10:46:50.360327 10450 net.cpp:454] pool3/3x3_s2 <- inception_3b/output
I1126 10:46:50.360332 10450 net.cpp:411] pool3/3x3_s2 -> pool3/3x3_s2
I1126 10:46:50.360684 10450 net.cpp:150] Setting up pool3/3x3_s2
I1126 10:46:50.360695 10450 net.cpp:157] Top shape: 32 480 14 14 (3010560)
I1126 10:46:50.360700 10450 net.cpp:165] Memory required for data: 1091027456
I1126 10:46:50.360704 10450 layer_factory.hpp:76] Creating layer pool3/3x3_s2_pool3/3x3_s2_0_split
I1126 10:46:50.360712 10450 net.cpp:106] Creating Layer pool3/3x3_s2_pool3/3x3_s2_0_split
I1126 10:46:50.360759 10450 net.cpp:454] pool3/3x3_s2_pool3/3x3_s2_0_split <- pool3/3x3_s2
I1126 10:46:50.360775 10450 net.cpp:411] pool3/3x3_s2_pool3/3x3_s2_0_split -> pool3/3x3_s2_pool3/3x3_s2_0_split_0
I1126 10:46:50.360783 10450 net.cpp:411] pool3/3x3_s2_pool3/3x3_s2_0_split -> pool3/3x3_s2_pool3/3x3_s2_0_split_1
I1126 10:46:50.360791 10450 net.cpp:411] pool3/3x3_s2_pool3/3x3_s2_0_split -> pool3/3x3_s2_pool3/3x3_s2_0_split_2
I1126 10:46:50.360808 10450 net.cpp:411] pool3/3x3_s2_pool3/3x3_s2_0_split -> pool3/3x3_s2_pool3/3x3_s2_0_split_3
I1126 10:46:50.360862 10450 net.cpp:150] Setting up pool3/3x3_s2_pool3/3x3_s2_0_split
I1126 10:46:50.360869 10450 net.cpp:157] Top shape: 32 480 14 14 (3010560)
I1126 10:46:50.360874 10450 net.cpp:157] Top shape: 32 480 14 14 (3010560)
I1126 10:46:50.360879 10450 net.cpp:157] Top shape: 32 480 14 14 (3010560)
I1126 10:46:50.360884 10450 net.cpp:157] Top shape: 32 480 14 14 (3010560)
I1126 10:46:50.360888 10450 net.cpp:165] Memory required for data: 1139196416
I1126 10:46:50.360893 10450 layer_factory.hpp:76] Creating layer inception_4a/1x1
I1126 10:46:50.360900 10450 net.cpp:106] Creating Layer inception_4a/1x1
I1126 10:46:50.360905 10450 net.cpp:454] inception_4a/1x1 <- pool3/3x3_s2_pool3/3x3_s2_0_split_0
I1126 10:46:50.360913 10450 net.cpp:411] inception_4a/1x1 -> inception_4a/1x1
I1126 10:46:50.363006 10450 cudnn_conv_layer.cpp:194] Reallocating workspace storage: 10080
I1126 10:46:50.363211 10450 net.cpp:150] Setting up inception_4a/1x1
I1126 10:46:50.363221 10450 net.cpp:157] Top shape: 32 192 14 14 (1204224)
I1126 10:46:50.363225 10450 net.cpp:165] Memory required for data: 1144013312
I1126 10:46:50.363234 10450 layer_factory.hpp:76] Creating layer inception_4a/prelu_1x1
I1126 10:46:50.363243 10450 net.cpp:106] Creating Layer inception_4a/prelu_1x1
I1126 10:46:50.363248 10450 net.cpp:454] inception_4a/prelu_1x1 <- inception_4a/1x1
I1126 10:46:50.363255 10450 net.cpp:397] inception_4a/prelu_1x1 -> inception_4a/1x1 (in-place)
I1126 10:46:50.363867 10450 net.cpp:150] Setting up inception_4a/prelu_1x1
I1126 10:46:50.363878 10450 net.cpp:157] Top shape: 32 192 14 14 (1204224)
I1126 10:46:50.363881 10450 net.cpp:165] Memory required for data: 1148830208
I1126 10:46:50.363888 10450 layer_factory.hpp:76] Creating layer inception_4a/3x3_reduce
I1126 10:46:50.363898 10450 net.cpp:106] Creating Layer inception_4a/3x3_reduce
I1126 10:46:50.363903 10450 net.cpp:454] inception_4a/3x3_reduce <- pool3/3x3_s2_pool3/3x3_s2_0_split_1
I1126 10:46:50.363929 10450 net.cpp:411] inception_4a/3x3_reduce -> inception_4a/3x3_reduce
I1126 10:46:50.365265 10450 cudnn_conv_layer.cpp:194] Reallocating workspace storage: 10080
I1126 10:46:50.365293 10450 net.cpp:150] Setting up inception_4a/3x3_reduce
I1126 10:46:50.365300 10450 net.cpp:157] Top shape: 32 96 14 14 (602112)
I1126 10:46:50.365305 10450 net.cpp:165] Memory required for data: 1151238656
I1126 10:46:50.365311 10450 layer_factory.hpp:76] Creating layer inception_4a/prelu_3x3_reduce
I1126 10:46:50.365321 10450 net.cpp:106] Creating Layer inception_4a/prelu_3x3_reduce
I1126 10:46:50.365326 10450 net.cpp:454] inception_4a/prelu_3x3_reduce <- inception_4a/3x3_reduce
I1126 10:46:50.365334 10450 net.cpp:397] inception_4a/prelu_3x3_reduce -> inception_4a/3x3_reduce (in-place)
I1126 10:46:50.365424 10450 net.cpp:150] Setting up inception_4a/prelu_3x3_reduce
I1126 10:46:50.365432 10450 net.cpp:157] Top shape: 32 96 14 14 (602112)
I1126 10:46:50.365437 10450 net.cpp:165] Memory required for data: 1153647104
I1126 10:46:50.365442 10450 layer_factory.hpp:76] Creating layer inception_4a/3x3
I1126 10:46:50.365452 10450 net.cpp:106] Creating Layer inception_4a/3x3
I1126 10:46:50.365456 10450 net.cpp:454] inception_4a/3x3 <- inception_4a/3x3_reduce
I1126 10:46:50.365463 10450 net.cpp:411] inception_4a/3x3 -> inception_4a/3x3
I1126 10:46:50.367835 10450 cudnn_conv_layer.cpp:194] Reallocating workspace storage: 10080
I1126 10:46:50.367871 10450 net.cpp:150] Setting up inception_4a/3x3
I1126 10:46:50.367879 10450 net.cpp:157] Top shape: 32 208 14 14 (1304576)
I1126 10:46:50.367883 10450 net.cpp:165] Memory required for data: 1158865408
I1126 10:46:50.367892 10450 layer_factory.hpp:76] Creating layer inception_4a/prelu_3x3
I1126 10:46:50.367899 10450 net.cpp:106] Creating Layer inception_4a/prelu_3x3
I1126 10:46:50.367904 10450 net.cpp:454] inception_4a/prelu_3x3 <- inception_4a/3x3
I1126 10:46:50.367911 10450 net.cpp:397] inception_4a/prelu_3x3 -> inception_4a/3x3 (in-place)
I1126 10:46:50.368021 10450 net.cpp:150] Setting up inception_4a/prelu_3x3
I1126 10:46:50.368028 10450 net.cpp:157] Top shape: 32 208 14 14 (1304576)
I1126 10:46:50.368032 10450 net.cpp:165] Memory required for data: 1164083712
I1126 10:46:50.368037 10450 layer_factory.hpp:76] Creating layer inception_4a/5x5_reduce
I1126 10:46:50.368048 10450 net.cpp:106] Creating Layer inception_4a/5x5_reduce
I1126 10:46:50.368053 10450 net.cpp:454] inception_4a/5x5_reduce <- pool3/3x3_s2_pool3/3x3_s2_0_split_2
I1126 10:46:50.368059 10450 net.cpp:411] inception_4a/5x5_reduce -> inception_4a/5x5_reduce
I1126 10:46:50.369114 10450 cudnn_conv_layer.cpp:194] Reallocating workspace storage: 10080
I1126 10:46:50.369138 10450 net.cpp:150] Setting up inception_4a/5x5_reduce
I1126 10:46:50.369145 10450 net.cpp:157] Top shape: 32 16 14 14 (100352)
I1126 10:46:50.369149 10450 net.cpp:165] Memory required for data: 1164485120
I1126 10:46:50.369156 10450 layer_factory.hpp:76] Creating layer inception_4a/prelu_5x5_reduce
I1126 10:46:50.369164 10450 net.cpp:106] Creating Layer inception_4a/prelu_5x5_reduce
I1126 10:46:50.369168 10450 net.cpp:454] inception_4a/prelu_5x5_reduce <- inception_4a/5x5_reduce
I1126 10:46:50.369176 10450 net.cpp:397] inception_4a/prelu_5x5_reduce -> inception_4a/5x5_reduce (in-place)
I1126 10:46:50.369261 10450 net.cpp:150] Setting up inception_4a/prelu_5x5_reduce
I1126 10:46:50.369268 10450 net.cpp:157] Top shape: 32 16 14 14 (100352)
I1126 10:46:50.369272 10450 net.cpp:165] Memory required for data: 1164886528
I1126 10:46:50.369277 10450 layer_factory.hpp:76] Creating layer inception_4a/5x5
I1126 10:46:50.369287 10450 net.cpp:106] Creating Layer inception_4a/5x5
I1126 10:46:50.369292 10450 net.cpp:454] inception_4a/5x5 <- inception_4a/5x5_reduce
I1126 10:46:50.369298 10450 net.cpp:411] inception_4a/5x5 -> inception_4a/5x5
I1126 10:46:50.370446 10450 cudnn_conv_layer.cpp:194] Reallocating workspace storage: 13080
I1126 10:46:50.370473 10450 net.cpp:150] Setting up inception_4a/5x5
I1126 10:46:50.370481 10450 net.cpp:157] Top shape: 32 48 14 14 (301056)
I1126 10:46:50.370504 10450 net.cpp:165] Memory required for data: 1166090752
I1126 10:46:50.370512 10450 layer_factory.hpp:76] Creating layer inception_4a/prelu_5x5
I1126 10:46:50.370519 10450 net.cpp:106] Creating Layer inception_4a/prelu_5x5
I1126 10:46:50.370524 10450 net.cpp:454] inception_4a/prelu_5x5 <- inception_4a/5x5
I1126 10:46:50.370532 10450 net.cpp:397] inception_4a/prelu_5x5 -> inception_4a/5x5 (in-place)
I1126 10:46:50.370623 10450 net.cpp:150] Setting up inception_4a/prelu_5x5
I1126 10:46:50.370632 10450 net.cpp:157] Top shape: 32 48 14 14 (301056)
I1126 10:46:50.370636 10450 net.cpp:165] Memory required for data: 1167294976
I1126 10:46:50.370641 10450 layer_factory.hpp:76] Creating layer inception_4a/pool
I1126 10:46:50.370650 10450 net.cpp:106] Creating Layer inception_4a/pool
I1126 10:46:50.370653 10450 net.cpp:454] inception_4a/pool <- pool3/3x3_s2_pool3/3x3_s2_0_split_3
I1126 10:46:50.370658 10450 net.cpp:411] inception_4a/pool -> inception_4a/pool
I1126 10:46:50.371018 10450 net.cpp:150] Setting up inception_4a/pool
I1126 10:46:50.371027 10450 net.cpp:157] Top shape: 32 480 14 14 (3010560)
I1126 10:46:50.371031 10450 net.cpp:165] Memory required for data: 1179337216
I1126 10:46:50.371037 10450 layer_factory.hpp:76] Creating layer inception_4a/pool_proj
I1126 10:46:50.371050 10450 net.cpp:106] Creating Layer inception_4a/pool_proj
I1126 10:46:50.371055 10450 net.cpp:454] inception_4a/pool_proj <- inception_4a/pool
I1126 10:46:50.371062 10450 net.cpp:411] inception_4a/pool_proj -> inception_4a/pool_proj
I1126 10:46:50.372035 10450 cudnn_conv_layer.cpp:194] Reallocating workspace storage: 10080
I1126 10:46:50.372063 10450 net.cpp:150] Setting up inception_4a/pool_proj
I1126 10:46:50.372071 10450 net.cpp:157] Top shape: 32 64 14 14 (401408)
I1126 10:46:50.372076 10450 net.cpp:165] Memory required for data: 1180942848
I1126 10:46:50.372081 10450 layer_factory.hpp:76] Creating layer inception_4a/prelu_pool_proj
I1126 10:46:50.372090 10450 net.cpp:106] Creating Layer inception_4a/prelu_pool_proj
I1126 10:46:50.372095 10450 net.cpp:454] inception_4a/prelu_pool_proj <- inception_4a/pool_proj
I1126 10:46:50.372102 10450 net.cpp:397] inception_4a/prelu_pool_proj -> inception_4a/pool_proj (in-place)
I1126 10:46:50.372198 10450 net.cpp:150] Setting up inception_4a/prelu_pool_proj
I1126 10:46:50.372206 10450 net.cpp:157] Top shape: 32 64 14 14 (401408)
I1126 10:46:50.372210 10450 net.cpp:165] Memory required for data: 1182548480
I1126 10:46:50.372215 10450 layer_factory.hpp:76] Creating layer inception_4a/output
I1126 10:46:50.372223 10450 net.cpp:106] Creating Layer inception_4a/output
I1126 10:46:50.372227 10450 net.cpp:454] inception_4a/output <- inception_4a/1x1
I1126 10:46:50.372232 10450 net.cpp:454] inception_4a/output <- inception_4a/3x3
I1126 10:46:50.372237 10450 net.cpp:454] inception_4a/output <- inception_4a/5x5
I1126 10:46:50.372241 10450 net.cpp:454] inception_4a/output <- inception_4a/pool_proj
I1126 10:46:50.372246 10450 net.cpp:411] inception_4a/output -> inception_4a/output
I1126 10:46:50.372272 10450 net.cpp:150] Setting up inception_4a/output
I1126 10:46:50.372278 10450 net.cpp:157] Top shape: 32 512 14 14 (3211264)
I1126 10:46:50.372282 10450 net.cpp:165] Memory required for data: 1195393536
I1126 10:46:50.372285 10450 layer_factory.hpp:76] Creating layer inception_4a/output_inception_4a/output_0_split
I1126 10:46:50.372292 10450 net.cpp:106] Creating Layer inception_4a/output_inception_4a/output_0_split
I1126 10:46:50.372297 10450 net.cpp:454] inception_4a/output_inception_4a/output_0_split <- inception_4a/output
I1126 10:46:50.372304 10450 net.cpp:411] inception_4a/output_inception_4a/output_0_split -> inception_4a/output_inception_4a/output_0_split_0
I1126 10:46:50.372311 10450 net.cpp:411] inception_4a/output_inception_4a/output_0_split -> inception_4a/output_inception_4a/output_0_split_1
I1126 10:46:50.372318 10450 net.cpp:411] inception_4a/output_inception_4a/output_0_split -> inception_4a/output_inception_4a/output_0_split_2
I1126 10:46:50.372337 10450 net.cpp:411] inception_4a/output_inception_4a/output_0_split -> inception_4a/output_inception_4a/output_0_split_3
I1126 10:46:50.372344 10450 net.cpp:411] inception_4a/output_inception_4a/output_0_split -> inception_4a/output_inception_4a/output_0_split_4
I1126 10:46:50.372406 10450 net.cpp:150] Setting up inception_4a/output_inception_4a/output_0_split
I1126 10:46:50.372413 10450 net.cpp:157] Top shape: 32 512 14 14 (3211264)
I1126 10:46:50.372418 10450 net.cpp:157] Top shape: 32 512 14 14 (3211264)
I1126 10:46:50.372422 10450 net.cpp:157] Top shape: 32 512 14 14 (3211264)
I1126 10:46:50.372427 10450 net.cpp:157] Top shape: 32 512 14 14 (3211264)
I1126 10:46:50.372431 10450 net.cpp:157] Top shape: 32 512 14 14 (3211264)
I1126 10:46:50.372436 10450 net.cpp:165] Memory required for data: 1259618816
I1126 10:46:50.372439 10450 layer_factory.hpp:76] Creating layer loss1/ave_pool
I1126 10:46:50.372447 10450 net.cpp:106] Creating Layer loss1/ave_pool
I1126 10:46:50.372450 10450 net.cpp:454] loss1/ave_pool <- inception_4a/output_inception_4a/output_0_split_0
I1126 10:46:50.372457 10450 net.cpp:411] loss1/ave_pool -> loss1/ave_pool
I1126 10:46:50.372846 10450 net.cpp:150] Setting up loss1/ave_pool
I1126 10:46:50.372856 10450 net.cpp:157] Top shape: 32 512 4 4 (262144)
I1126 10:46:50.372860 10450 net.cpp:165] Memory required for data: 1260667392
I1126 10:46:50.372864 10450 layer_factory.hpp:76] Creating layer loss1/conv
I1126 10:46:50.372874 10450 net.cpp:106] Creating Layer loss1/conv
I1126 10:46:50.372879 10450 net.cpp:454] loss1/conv <- loss1/ave_pool
I1126 10:46:50.372885 10450 net.cpp:411] loss1/conv -> loss1/conv
I1126 10:46:50.374274 10450 cudnn_conv_layer.cpp:194] Reallocating workspace storage: 6840
I1126 10:46:50.374296 10450 net.cpp:150] Setting up loss1/conv
I1126 10:46:50.374303 10450 net.cpp:157] Top shape: 32 128 4 4 (65536)
I1126 10:46:50.374307 10450 net.cpp:165] Memory required for data: 1260929536
I1126 10:46:50.374325 10450 layer_factory.hpp:76] Creating layer loss1/prelu_conv
I1126 10:46:50.374333 10450 net.cpp:106] Creating Layer loss1/prelu_conv
I1126 10:46:50.374338 10450 net.cpp:454] loss1/prelu_conv <- loss1/conv
I1126 10:46:50.374344 10450 net.cpp:397] loss1/prelu_conv -> loss1/conv (in-place)
I1126 10:46:50.374430 10450 net.cpp:150] Setting up loss1/prelu_conv
I1126 10:46:50.374439 10450 net.cpp:157] Top shape: 32 128 4 4 (65536)
I1126 10:46:50.374441 10450 net.cpp:165] Memory required for data: 1261191680
I1126 10:46:50.374446 10450 layer_factory.hpp:76] Creating layer loss1/fc
I1126 10:46:50.374460 10450 net.cpp:106] Creating Layer loss1/fc
I1126 10:46:50.374464 10450 net.cpp:454] loss1/fc <- loss1/conv
I1126 10:46:50.374470 10450 net.cpp:411] loss1/fc -> loss1/fc
I1126 10:46:50.389276 10450 net.cpp:150] Setting up loss1/fc
I1126 10:46:50.389310 10450 net.cpp:157] Top shape: 32 1024 (32768)
I1126 10:46:50.389314 10450 net.cpp:165] Memory required for data: 1261322752
I1126 10:46:50.389324 10450 layer_factory.hpp:76] Creating layer loss1/prelu_fc
I1126 10:46:50.389338 10450 net.cpp:106] Creating Layer loss1/prelu_fc
I1126 10:46:50.389343 10450 net.cpp:454] loss1/prelu_fc <- loss1/fc
I1126 10:46:50.389351 10450 net.cpp:397] loss1/prelu_fc -> loss1/fc (in-place)
I1126 10:46:50.389449 10450 net.cpp:150] Setting up loss1/prelu_fc
I1126 10:46:50.389456 10450 net.cpp:157] Top shape: 32 1024 (32768)
I1126 10:46:50.389461 10450 net.cpp:165] Memory required for data: 1261453824
I1126 10:46:50.389466 10450 layer_factory.hpp:76] Creating layer loss1/drop_fc
I1126 10:46:50.389485 10450 net.cpp:106] Creating Layer loss1/drop_fc
I1126 10:46:50.389489 10450 net.cpp:454] loss1/drop_fc <- loss1/fc
I1126 10:46:50.389495 10450 net.cpp:397] loss1/drop_fc -> loss1/fc (in-place)
I1126 10:46:50.389525 10450 net.cpp:150] Setting up loss1/drop_fc
I1126 10:46:50.389533 10450 net.cpp:157] Top shape: 32 1024 (32768)
I1126 10:46:50.389538 10450 net.cpp:165] Memory required for data: 1261584896
I1126 10:46:50.389541 10450 layer_factory.hpp:76] Creating layer loss1/classifier2
I1126 10:46:50.389550 10450 net.cpp:106] Creating Layer loss1/classifier2
I1126 10:46:50.389585 10450 net.cpp:454] loss1/classifier2 <- loss1/fc
I1126 10:46:50.389595 10450 net.cpp:411] loss1/classifier2 -> loss1/classifier
I1126 10:46:50.389724 10450 net.cpp:150] Setting up loss1/classifier2
I1126 10:46:50.389731 10450 net.cpp:157] Top shape: 32 2 (64)
I1126 10:46:50.389735 10450 net.cpp:165] Memory required for data: 1261585152
I1126 10:46:50.389741 10450 layer_factory.hpp:76] Creating layer loss1/loss
I1126 10:46:50.389751 10450 net.cpp:106] Creating Layer loss1/loss
I1126 10:46:50.389756 10450 net.cpp:454] loss1/loss <- loss1/classifier
I1126 10:46:50.389761 10450 net.cpp:454] loss1/loss <- label_data_1_split_0
I1126 10:46:50.389766 10450 net.cpp:411] loss1/loss -> loss1/loss1
I1126 10:46:50.389787 10450 layer_factory.hpp:76] Creating layer loss1/loss
I1126 10:46:50.390074 10450 net.cpp:150] Setting up loss1/loss
I1126 10:46:50.390082 10450 net.cpp:157] Top shape: (1)
I1126 10:46:50.390086 10450 net.cpp:160]     with loss weight 0.3
I1126 10:46:50.390108 10450 net.cpp:165] Memory required for data: 1261585156
I1126 10:46:50.390113 10450 layer_factory.hpp:76] Creating layer inception_4b/1x1
I1126 10:46:50.390123 10450 net.cpp:106] Creating Layer inception_4b/1x1
I1126 10:46:50.390130 10450 net.cpp:454] inception_4b/1x1 <- inception_4a/output_inception_4a/output_0_split_1
I1126 10:46:50.390136 10450 net.cpp:411] inception_4b/1x1 -> inception_4b/1x1
I1126 10:46:50.391669 10450 cudnn_conv_layer.cpp:194] Reallocating workspace storage: 10080
I1126 10:46:50.391695 10450 net.cpp:150] Setting up inception_4b/1x1
I1126 10:46:50.391702 10450 net.cpp:157] Top shape: 32 160 14 14 (1003520)
I1126 10:46:50.391706 10450 net.cpp:165] Memory required for data: 1265599236
I1126 10:46:50.391712 10450 layer_factory.hpp:76] Creating layer inception_4b/prelu_1x1
I1126 10:46:50.391719 10450 net.cpp:106] Creating Layer inception_4b/prelu_1x1
I1126 10:46:50.391724 10450 net.cpp:454] inception_4b/prelu_1x1 <- inception_4b/1x1
I1126 10:46:50.391731 10450 net.cpp:397] inception_4b/prelu_1x1 -> inception_4b/1x1 (in-place)
I1126 10:46:50.392308 10450 net.cpp:150] Setting up inception_4b/prelu_1x1
I1126 10:46:50.392318 10450 net.cpp:157] Top shape: 32 160 14 14 (1003520)
I1126 10:46:50.392323 10450 net.cpp:165] Memory required for data: 1269613316
I1126 10:46:50.392328 10450 layer_factory.hpp:76] Creating layer inception_4b/3x3_reduce
I1126 10:46:50.392338 10450 net.cpp:106] Creating Layer inception_4b/3x3_reduce
I1126 10:46:50.392343 10450 net.cpp:454] inception_4b/3x3_reduce <- inception_4a/output_inception_4a/output_0_split_2
I1126 10:46:50.392349 10450 net.cpp:411] inception_4b/3x3_reduce -> inception_4b/3x3_reduce
I1126 10:46:50.393863 10450 cudnn_conv_layer.cpp:194] Reallocating workspace storage: 10080
I1126 10:46:50.393887 10450 net.cpp:150] Setting up inception_4b/3x3_reduce
I1126 10:46:50.393893 10450 net.cpp:157] Top shape: 32 112 14 14 (702464)
I1126 10:46:50.393898 10450 net.cpp:165] Memory required for data: 1272423172
I1126 10:46:50.393904 10450 layer_factory.hpp:76] Creating layer inception_4b/prelu_3x3_reduce
I1126 10:46:50.393913 10450 net.cpp:106] Creating Layer inception_4b/prelu_3x3_reduce
I1126 10:46:50.393918 10450 net.cpp:454] inception_4b/prelu_3x3_reduce <- inception_4b/3x3_reduce
I1126 10:46:50.393925 10450 net.cpp:397] inception_4b/prelu_3x3_reduce -> inception_4b/3x3_reduce (in-place)
I1126 10:46:50.394016 10450 net.cpp:150] Setting up inception_4b/prelu_3x3_reduce
I1126 10:46:50.394022 10450 net.cpp:157] Top shape: 32 112 14 14 (702464)
I1126 10:46:50.394026 10450 net.cpp:165] Memory required for data: 1275233028
I1126 10:46:50.394032 10450 layer_factory.hpp:76] Creating layer inception_4b/3x3
I1126 10:46:50.394040 10450 net.cpp:106] Creating Layer inception_4b/3x3
I1126 10:46:50.394045 10450 net.cpp:454] inception_4b/3x3 <- inception_4b/3x3_reduce
I1126 10:46:50.394052 10450 net.cpp:411] inception_4b/3x3 -> inception_4b/3x3
I1126 10:46:50.397125 10450 cudnn_conv_layer.cpp:194] Reallocating workspace storage: 10080
I1126 10:46:50.397148 10450 net.cpp:150] Setting up inception_4b/3x3
I1126 10:46:50.397169 10450 net.cpp:157] Top shape: 32 224 14 14 (1404928)
I1126 10:46:50.397174 10450 net.cpp:165] Memory required for data: 1280852740
I1126 10:46:50.397181 10450 layer_factory.hpp:76] Creating layer inception_4b/prelu_3x3
I1126 10:46:50.397191 10450 net.cpp:106] Creating Layer inception_4b/prelu_3x3
I1126 10:46:50.397195 10450 net.cpp:454] inception_4b/prelu_3x3 <- inception_4b/3x3
I1126 10:46:50.397202 10450 net.cpp:397] inception_4b/prelu_3x3 -> inception_4b/3x3 (in-place)
I1126 10:46:50.397307 10450 net.cpp:150] Setting up inception_4b/prelu_3x3
I1126 10:46:50.397315 10450 net.cpp:157] Top shape: 32 224 14 14 (1404928)
I1126 10:46:50.397320 10450 net.cpp:165] Memory required for data: 1286472452
I1126 10:46:50.397325 10450 layer_factory.hpp:76] Creating layer inception_4b/5x5_reduce
I1126 10:46:50.397333 10450 net.cpp:106] Creating Layer inception_4b/5x5_reduce
I1126 10:46:50.397338 10450 net.cpp:454] inception_4b/5x5_reduce <- inception_4a/output_inception_4a/output_0_split_3
I1126 10:46:50.397346 10450 net.cpp:411] inception_4b/5x5_reduce -> inception_4b/5x5_reduce
I1126 10:46:50.398259 10450 cudnn_conv_layer.cpp:194] Reallocating workspace storage: 10080
I1126 10:46:50.398279 10450 net.cpp:150] Setting up inception_4b/5x5_reduce
I1126 10:46:50.398286 10450 net.cpp:157] Top shape: 32 24 14 14 (150528)
I1126 10:46:50.398290 10450 net.cpp:165] Memory required for data: 1287074564
I1126 10:46:50.398296 10450 layer_factory.hpp:76] Creating layer inception_4b/prelu_5x5_reduce
I1126 10:46:50.398305 10450 net.cpp:106] Creating Layer inception_4b/prelu_5x5_reduce
I1126 10:46:50.398310 10450 net.cpp:454] inception_4b/prelu_5x5_reduce <- inception_4b/5x5_reduce
I1126 10:46:50.398318 10450 net.cpp:397] inception_4b/prelu_5x5_reduce -> inception_4b/5x5_reduce (in-place)
I1126 10:46:50.398401 10450 net.cpp:150] Setting up inception_4b/prelu_5x5_reduce
I1126 10:46:50.398409 10450 net.cpp:157] Top shape: 32 24 14 14 (150528)
I1126 10:46:50.398413 10450 net.cpp:165] Memory required for data: 1287676676
I1126 10:46:50.398418 10450 layer_factory.hpp:76] Creating layer inception_4b/5x5
I1126 10:46:50.398427 10450 net.cpp:106] Creating Layer inception_4b/5x5
I1126 10:46:50.398432 10450 net.cpp:454] inception_4b/5x5 <- inception_4b/5x5_reduce
I1126 10:46:50.398438 10450 net.cpp:411] inception_4b/5x5 -> inception_4b/5x5
I1126 10:46:50.399667 10450 cudnn_conv_layer.cpp:194] Reallocating workspace storage: 13080
I1126 10:46:50.399689 10450 net.cpp:150] Setting up inception_4b/5x5
I1126 10:46:50.399696 10450 net.cpp:157] Top shape: 32 64 14 14 (401408)
I1126 10:46:50.399700 10450 net.cpp:165] Memory required for data: 1289282308
I1126 10:46:50.399706 10450 layer_factory.hpp:76] Creating layer inception_4b/prelu_5x5
I1126 10:46:50.399713 10450 net.cpp:106] Creating Layer inception_4b/prelu_5x5
I1126 10:46:50.399718 10450 net.cpp:454] inception_4b/prelu_5x5 <- inception_4b/5x5
I1126 10:46:50.399725 10450 net.cpp:397] inception_4b/prelu_5x5 -> inception_4b/5x5 (in-place)
I1126 10:46:50.399821 10450 net.cpp:150] Setting up inception_4b/prelu_5x5
I1126 10:46:50.399829 10450 net.cpp:157] Top shape: 32 64 14 14 (401408)
I1126 10:46:50.399833 10450 net.cpp:165] Memory required for data: 1290887940
I1126 10:46:50.399838 10450 layer_factory.hpp:76] Creating layer inception_4b/pool
I1126 10:46:50.399845 10450 net.cpp:106] Creating Layer inception_4b/pool
I1126 10:46:50.399849 10450 net.cpp:454] inception_4b/pool <- inception_4a/output_inception_4a/output_0_split_4
I1126 10:46:50.399857 10450 net.cpp:411] inception_4b/pool -> inception_4b/pool
I1126 10:46:50.400225 10450 net.cpp:150] Setting up inception_4b/pool
I1126 10:46:50.400235 10450 net.cpp:157] Top shape: 32 512 14 14 (3211264)
I1126 10:46:50.400240 10450 net.cpp:165] Memory required for data: 1303732996
I1126 10:46:50.400244 10450 layer_factory.hpp:76] Creating layer inception_4b/pool_proj
I1126 10:46:50.400254 10450 net.cpp:106] Creating Layer inception_4b/pool_proj
I1126 10:46:50.400259 10450 net.cpp:454] inception_4b/pool_proj <- inception_4b/pool
I1126 10:46:50.400285 10450 net.cpp:411] inception_4b/pool_proj -> inception_4b/pool_proj
I1126 10:46:50.401444 10450 cudnn_conv_layer.cpp:194] Reallocating workspace storage: 10080
I1126 10:46:50.401470 10450 net.cpp:150] Setting up inception_4b/pool_proj
I1126 10:46:50.401478 10450 net.cpp:157] Top shape: 32 64 14 14 (401408)
I1126 10:46:50.401481 10450 net.cpp:165] Memory required for data: 1305338628
I1126 10:46:50.401489 10450 layer_factory.hpp:76] Creating layer inception_4b/prelu_pool_proj
I1126 10:46:50.401495 10450 net.cpp:106] Creating Layer inception_4b/prelu_pool_proj
I1126 10:46:50.401499 10450 net.cpp:454] inception_4b/prelu_pool_proj <- inception_4b/pool_proj
I1126 10:46:50.401507 10450 net.cpp:397] inception_4b/prelu_pool_proj -> inception_4b/pool_proj (in-place)
I1126 10:46:50.401598 10450 net.cpp:150] Setting up inception_4b/prelu_pool_proj
I1126 10:46:50.401608 10450 net.cpp:157] Top shape: 32 64 14 14 (401408)
I1126 10:46:50.401612 10450 net.cpp:165] Memory required for data: 1306944260
I1126 10:46:50.401618 10450 layer_factory.hpp:76] Creating layer inception_4b/output
I1126 10:46:50.401624 10450 net.cpp:106] Creating Layer inception_4b/output
I1126 10:46:50.401628 10450 net.cpp:454] inception_4b/output <- inception_4b/1x1
I1126 10:46:50.401633 10450 net.cpp:454] inception_4b/output <- inception_4b/3x3
I1126 10:46:50.401638 10450 net.cpp:454] inception_4b/output <- inception_4b/5x5
I1126 10:46:50.401643 10450 net.cpp:454] inception_4b/output <- inception_4b/pool_proj
I1126 10:46:50.401648 10450 net.cpp:411] inception_4b/output -> inception_4b/output
I1126 10:46:50.401672 10450 net.cpp:150] Setting up inception_4b/output
I1126 10:46:50.401679 10450 net.cpp:157] Top shape: 32 512 14 14 (3211264)
I1126 10:46:50.401684 10450 net.cpp:165] Memory required for data: 1319789316
I1126 10:46:50.401687 10450 layer_factory.hpp:76] Creating layer inception_4b/output_inception_4b/output_0_split
I1126 10:46:50.401693 10450 net.cpp:106] Creating Layer inception_4b/output_inception_4b/output_0_split
I1126 10:46:50.401697 10450 net.cpp:454] inception_4b/output_inception_4b/output_0_split <- inception_4b/output
I1126 10:46:50.401705 10450 net.cpp:411] inception_4b/output_inception_4b/output_0_split -> inception_4b/output_inception_4b/output_0_split_0
I1126 10:46:50.401711 10450 net.cpp:411] inception_4b/output_inception_4b/output_0_split -> inception_4b/output_inception_4b/output_0_split_1
I1126 10:46:50.401717 10450 net.cpp:411] inception_4b/output_inception_4b/output_0_split -> inception_4b/output_inception_4b/output_0_split_2
I1126 10:46:50.401723 10450 net.cpp:411] inception_4b/output_inception_4b/output_0_split -> inception_4b/output_inception_4b/output_0_split_3
I1126 10:46:50.401778 10450 net.cpp:150] Setting up inception_4b/output_inception_4b/output_0_split
I1126 10:46:50.401784 10450 net.cpp:157] Top shape: 32 512 14 14 (3211264)
I1126 10:46:50.401789 10450 net.cpp:157] Top shape: 32 512 14 14 (3211264)
I1126 10:46:50.401794 10450 net.cpp:157] Top shape: 32 512 14 14 (3211264)
I1126 10:46:50.401798 10450 net.cpp:157] Top shape: 32 512 14 14 (3211264)
I1126 10:46:50.401803 10450 net.cpp:165] Memory required for data: 1371169540
I1126 10:46:50.401806 10450 layer_factory.hpp:76] Creating layer inception_4c/1x1
I1126 10:46:50.401814 10450 net.cpp:106] Creating Layer inception_4c/1x1
I1126 10:46:50.401818 10450 net.cpp:454] inception_4c/1x1 <- inception_4b/output_inception_4b/output_0_split_0
I1126 10:46:50.401824 10450 net.cpp:411] inception_4c/1x1 -> inception_4c/1x1
I1126 10:46:50.403473 10450 cudnn_conv_layer.cpp:194] Reallocating workspace storage: 10080
I1126 10:46:50.403496 10450 net.cpp:150] Setting up inception_4c/1x1
I1126 10:46:50.403503 10450 net.cpp:157] Top shape: 32 128 14 14 (802816)
I1126 10:46:50.403507 10450 net.cpp:165] Memory required for data: 1374380804
I1126 10:46:50.403514 10450 layer_factory.hpp:76] Creating layer inception_4c/prelu_1x1
I1126 10:46:50.403523 10450 net.cpp:106] Creating Layer inception_4c/prelu_1x1
I1126 10:46:50.403527 10450 net.cpp:454] inception_4c/prelu_1x1 <- inception_4c/1x1
I1126 10:46:50.403544 10450 net.cpp:397] inception_4c/prelu_1x1 -> inception_4c/1x1 (in-place)
I1126 10:46:50.403633 10450 net.cpp:150] Setting up inception_4c/prelu_1x1
I1126 10:46:50.403641 10450 net.cpp:157] Top shape: 32 128 14 14 (802816)
I1126 10:46:50.403645 10450 net.cpp:165] Memory required for data: 1377592068
I1126 10:46:50.403650 10450 layer_factory.hpp:76] Creating layer inception_4c/3x3_reduce
I1126 10:46:50.403659 10450 net.cpp:106] Creating Layer inception_4c/3x3_reduce
I1126 10:46:50.403666 10450 net.cpp:454] inception_4c/3x3_reduce <- inception_4b/output_inception_4b/output_0_split_1
I1126 10:46:50.403671 10450 net.cpp:411] inception_4c/3x3_reduce -> inception_4c/3x3_reduce
I1126 10:46:50.405009 10450 cudnn_conv_layer.cpp:194] Reallocating workspace storage: 10080
I1126 10:46:50.405030 10450 net.cpp:150] Setting up inception_4c/3x3_reduce
I1126 10:46:50.405037 10450 net.cpp:157] Top shape: 32 128 14 14 (802816)
I1126 10:46:50.405041 10450 net.cpp:165] Memory required for data: 1380803332
I1126 10:46:50.405048 10450 layer_factory.hpp:76] Creating layer inception_4c/prelu_3x3_reduce
I1126 10:46:50.405056 10450 net.cpp:106] Creating Layer inception_4c/prelu_3x3_reduce
I1126 10:46:50.405061 10450 net.cpp:454] inception_4c/prelu_3x3_reduce <- inception_4c/3x3_reduce
I1126 10:46:50.405067 10450 net.cpp:397] inception_4c/prelu_3x3_reduce -> inception_4c/3x3_reduce (in-place)
I1126 10:46:50.405158 10450 net.cpp:150] Setting up inception_4c/prelu_3x3_reduce
I1126 10:46:50.405165 10450 net.cpp:157] Top shape: 32 128 14 14 (802816)
I1126 10:46:50.405169 10450 net.cpp:165] Memory required for data: 1384014596
I1126 10:46:50.405174 10450 layer_factory.hpp:76] Creating layer inception_4c/3x3
I1126 10:46:50.405182 10450 net.cpp:106] Creating Layer inception_4c/3x3
I1126 10:46:50.405189 10450 net.cpp:454] inception_4c/3x3 <- inception_4c/3x3_reduce
I1126 10:46:50.405194 10450 net.cpp:411] inception_4c/3x3 -> inception_4c/3x3
I1126 10:46:50.408440 10450 cudnn_conv_layer.cpp:194] Reallocating workspace storage: 10080
I1126 10:46:50.408464 10450 net.cpp:150] Setting up inception_4c/3x3
I1126 10:46:50.408471 10450 net.cpp:157] Top shape: 32 256 14 14 (1605632)
I1126 10:46:50.408475 10450 net.cpp:165] Memory required for data: 1390437124
I1126 10:46:50.408481 10450 layer_factory.hpp:76] Creating layer inception_4c/prelu_3x3
I1126 10:46:50.408490 10450 net.cpp:106] Creating Layer inception_4c/prelu_3x3
I1126 10:46:50.408495 10450 net.cpp:454] inception_4c/prelu_3x3 <- inception_4c/3x3
I1126 10:46:50.408501 10450 net.cpp:397] inception_4c/prelu_3x3 -> inception_4c/3x3 (in-place)
I1126 10:46:50.408606 10450 net.cpp:150] Setting up inception_4c/prelu_3x3
I1126 10:46:50.408613 10450 net.cpp:157] Top shape: 32 256 14 14 (1605632)
I1126 10:46:50.408617 10450 net.cpp:165] Memory required for data: 1396859652
I1126 10:46:50.408622 10450 layer_factory.hpp:76] Creating layer inception_4c/5x5_reduce
I1126 10:46:50.408632 10450 net.cpp:106] Creating Layer inception_4c/5x5_reduce
I1126 10:46:50.408637 10450 net.cpp:454] inception_4c/5x5_reduce <- inception_4b/output_inception_4b/output_0_split_2
I1126 10:46:50.408643 10450 net.cpp:411] inception_4c/5x5_reduce -> inception_4c/5x5_reduce
I1126 10:46:50.409729 10450 cudnn_conv_layer.cpp:194] Reallocating workspace storage: 10080
I1126 10:46:50.409750 10450 net.cpp:150] Setting up inception_4c/5x5_reduce
I1126 10:46:50.409757 10450 net.cpp:157] Top shape: 32 24 14 14 (150528)
I1126 10:46:50.409761 10450 net.cpp:165] Memory required for data: 1397461764
I1126 10:46:50.409767 10450 layer_factory.hpp:76] Creating layer inception_4c/prelu_5x5_reduce
I1126 10:46:50.409776 10450 net.cpp:106] Creating Layer inception_4c/prelu_5x5_reduce
I1126 10:46:50.409781 10450 net.cpp:454] inception_4c/prelu_5x5_reduce <- inception_4c/5x5_reduce
I1126 10:46:50.409787 10450 net.cpp:397] inception_4c/prelu_5x5_reduce -> inception_4c/5x5_reduce (in-place)
I1126 10:46:50.409876 10450 net.cpp:150] Setting up inception_4c/prelu_5x5_reduce
I1126 10:46:50.409883 10450 net.cpp:157] Top shape: 32 24 14 14 (150528)
I1126 10:46:50.409900 10450 net.cpp:165] Memory required for data: 1398063876
I1126 10:46:50.409906 10450 layer_factory.hpp:76] Creating layer inception_4c/5x5
I1126 10:46:50.409915 10450 net.cpp:106] Creating Layer inception_4c/5x5
I1126 10:46:50.409920 10450 net.cpp:454] inception_4c/5x5 <- inception_4c/5x5_reduce
I1126 10:46:50.409926 10450 net.cpp:411] inception_4c/5x5 -> inception_4c/5x5
I1126 10:46:50.411600 10450 cudnn_conv_layer.cpp:194] Reallocating workspace storage: 13080
I1126 10:46:50.411623 10450 net.cpp:150] Setting up inception_4c/5x5
I1126 10:46:50.411630 10450 net.cpp:157] Top shape: 32 64 14 14 (401408)
I1126 10:46:50.411634 10450 net.cpp:165] Memory required for data: 1399669508
I1126 10:46:50.411641 10450 layer_factory.hpp:76] Creating layer inception_4c/prelu_5x5
I1126 10:46:50.411649 10450 net.cpp:106] Creating Layer inception_4c/prelu_5x5
I1126 10:46:50.411654 10450 net.cpp:454] inception_4c/prelu_5x5 <- inception_4c/5x5
I1126 10:46:50.411660 10450 net.cpp:397] inception_4c/prelu_5x5 -> inception_4c/5x5 (in-place)
I1126 10:46:50.411761 10450 net.cpp:150] Setting up inception_4c/prelu_5x5
I1126 10:46:50.411769 10450 net.cpp:157] Top shape: 32 64 14 14 (401408)
I1126 10:46:50.411772 10450 net.cpp:165] Memory required for data: 1401275140
I1126 10:46:50.411778 10450 layer_factory.hpp:76] Creating layer inception_4c/pool
I1126 10:46:50.411787 10450 net.cpp:106] Creating Layer inception_4c/pool
I1126 10:46:50.411792 10450 net.cpp:454] inception_4c/pool <- inception_4b/output_inception_4b/output_0_split_3
I1126 10:46:50.411798 10450 net.cpp:411] inception_4c/pool -> inception_4c/pool
I1126 10:46:50.411963 10450 net.cpp:150] Setting up inception_4c/pool
I1126 10:46:50.411972 10450 net.cpp:157] Top shape: 32 512 14 14 (3211264)
I1126 10:46:50.411977 10450 net.cpp:165] Memory required for data: 1414120196
I1126 10:46:50.411980 10450 layer_factory.hpp:76] Creating layer inception_4c/pool_proj
I1126 10:46:50.411988 10450 net.cpp:106] Creating Layer inception_4c/pool_proj
I1126 10:46:50.411993 10450 net.cpp:454] inception_4c/pool_proj <- inception_4c/pool
I1126 10:46:50.412000 10450 net.cpp:411] inception_4c/pool_proj -> inception_4c/pool_proj
I1126 10:46:50.413352 10450 cudnn_conv_layer.cpp:194] Reallocating workspace storage: 10080
I1126 10:46:50.413374 10450 net.cpp:150] Setting up inception_4c/pool_proj
I1126 10:46:50.413383 10450 net.cpp:157] Top shape: 32 64 14 14 (401408)
I1126 10:46:50.413388 10450 net.cpp:165] Memory required for data: 1415725828
I1126 10:46:50.413394 10450 layer_factory.hpp:76] Creating layer inception_4c/prelu_pool_proj
I1126 10:46:50.413401 10450 net.cpp:106] Creating Layer inception_4c/prelu_pool_proj
I1126 10:46:50.413406 10450 net.cpp:454] inception_4c/prelu_pool_proj <- inception_4c/pool_proj
I1126 10:46:50.413415 10450 net.cpp:397] inception_4c/prelu_pool_proj -> inception_4c/pool_proj (in-place)
I1126 10:46:50.413521 10450 net.cpp:150] Setting up inception_4c/prelu_pool_proj
I1126 10:46:50.413529 10450 net.cpp:157] Top shape: 32 64 14 14 (401408)
I1126 10:46:50.413533 10450 net.cpp:165] Memory required for data: 1417331460
I1126 10:46:50.413539 10450 layer_factory.hpp:76] Creating layer inception_4c/output
I1126 10:46:50.413545 10450 net.cpp:106] Creating Layer inception_4c/output
I1126 10:46:50.413549 10450 net.cpp:454] inception_4c/output <- inception_4c/1x1
I1126 10:46:50.413555 10450 net.cpp:454] inception_4c/output <- inception_4c/3x3
I1126 10:46:50.413559 10450 net.cpp:454] inception_4c/output <- inception_4c/5x5
I1126 10:46:50.413564 10450 net.cpp:454] inception_4c/output <- inception_4c/pool_proj
I1126 10:46:50.413569 10450 net.cpp:411] inception_4c/output -> inception_4c/output
I1126 10:46:50.413595 10450 net.cpp:150] Setting up inception_4c/output
I1126 10:46:50.413602 10450 net.cpp:157] Top shape: 32 512 14 14 (3211264)
I1126 10:46:50.413606 10450 net.cpp:165] Memory required for data: 1430176516
I1126 10:46:50.413610 10450 layer_factory.hpp:76] Creating layer inception_4c/output_inception_4c/output_0_split
I1126 10:46:50.413617 10450 net.cpp:106] Creating Layer inception_4c/output_inception_4c/output_0_split
I1126 10:46:50.413631 10450 net.cpp:454] inception_4c/output_inception_4c/output_0_split <- inception_4c/output
I1126 10:46:50.413640 10450 net.cpp:411] inception_4c/output_inception_4c/output_0_split -> inception_4c/output_inception_4c/output_0_split_0
I1126 10:46:50.413646 10450 net.cpp:411] inception_4c/output_inception_4c/output_0_split -> inception_4c/output_inception_4c/output_0_split_1
I1126 10:46:50.413653 10450 net.cpp:411] inception_4c/output_inception_4c/output_0_split -> inception_4c/output_inception_4c/output_0_split_2
I1126 10:46:50.413660 10450 net.cpp:411] inception_4c/output_inception_4c/output_0_split -> inception_4c/output_inception_4c/output_0_split_3
I1126 10:46:50.413718 10450 net.cpp:150] Setting up inception_4c/output_inception_4c/output_0_split
I1126 10:46:50.413725 10450 net.cpp:157] Top shape: 32 512 14 14 (3211264)
I1126 10:46:50.413730 10450 net.cpp:157] Top shape: 32 512 14 14 (3211264)
I1126 10:46:50.413735 10450 net.cpp:157] Top shape: 32 512 14 14 (3211264)
I1126 10:46:50.413739 10450 net.cpp:157] Top shape: 32 512 14 14 (3211264)
I1126 10:46:50.413743 10450 net.cpp:165] Memory required for data: 1481556740
I1126 10:46:50.413748 10450 layer_factory.hpp:76] Creating layer inception_4d/1x1
I1126 10:46:50.413756 10450 net.cpp:106] Creating Layer inception_4d/1x1
I1126 10:46:50.413760 10450 net.cpp:454] inception_4d/1x1 <- inception_4c/output_inception_4c/output_0_split_0
I1126 10:46:50.413768 10450 net.cpp:411] inception_4d/1x1 -> inception_4d/1x1
I1126 10:46:50.415133 10450 cudnn_conv_layer.cpp:194] Reallocating workspace storage: 10080
I1126 10:46:50.415160 10450 net.cpp:150] Setting up inception_4d/1x1
I1126 10:46:50.415169 10450 net.cpp:157] Top shape: 32 112 14 14 (702464)
I1126 10:46:50.415172 10450 net.cpp:165] Memory required for data: 1484366596
I1126 10:46:50.415179 10450 layer_factory.hpp:76] Creating layer inception_4d/prelu_1x1
I1126 10:46:50.415187 10450 net.cpp:106] Creating Layer inception_4d/prelu_1x1
I1126 10:46:50.415194 10450 net.cpp:454] inception_4d/prelu_1x1 <- inception_4d/1x1
I1126 10:46:50.415199 10450 net.cpp:397] inception_4d/prelu_1x1 -> inception_4d/1x1 (in-place)
I1126 10:46:50.415298 10450 net.cpp:150] Setting up inception_4d/prelu_1x1
I1126 10:46:50.415307 10450 net.cpp:157] Top shape: 32 112 14 14 (702464)
I1126 10:46:50.415310 10450 net.cpp:165] Memory required for data: 1487176452
I1126 10:46:50.415316 10450 layer_factory.hpp:76] Creating layer inception_4d/3x3_reduce
I1126 10:46:50.415328 10450 net.cpp:106] Creating Layer inception_4d/3x3_reduce
I1126 10:46:50.415333 10450 net.cpp:454] inception_4d/3x3_reduce <- inception_4c/output_inception_4c/output_0_split_1
I1126 10:46:50.415338 10450 net.cpp:411] inception_4d/3x3_reduce -> inception_4d/3x3_reduce
I1126 10:46:50.416599 10450 cudnn_conv_layer.cpp:194] Reallocating workspace storage: 10080
I1126 10:46:50.416620 10450 net.cpp:150] Setting up inception_4d/3x3_reduce
I1126 10:46:50.416627 10450 net.cpp:157] Top shape: 32 144 14 14 (903168)
I1126 10:46:50.416631 10450 net.cpp:165] Memory required for data: 1490789124
I1126 10:46:50.416638 10450 layer_factory.hpp:76] Creating layer inception_4d/prelu_3x3_reduce
I1126 10:46:50.416648 10450 net.cpp:106] Creating Layer inception_4d/prelu_3x3_reduce
I1126 10:46:50.416654 10450 net.cpp:454] inception_4d/prelu_3x3_reduce <- inception_4d/3x3_reduce
I1126 10:46:50.416661 10450 net.cpp:397] inception_4d/prelu_3x3_reduce -> inception_4d/3x3_reduce (in-place)
I1126 10:46:50.416795 10450 net.cpp:150] Setting up inception_4d/prelu_3x3_reduce
I1126 10:46:50.482694 10450 net.cpp:157] Top shape: 32 144 14 14 (903168)
I1126 10:46:50.482722 10450 net.cpp:165] Memory required for data: 1494401796
I1126 10:46:50.482738 10450 layer_factory.hpp:76] Creating layer inception_4d/3x3
I1126 10:46:50.482758 10450 net.cpp:106] Creating Layer inception_4d/3x3
I1126 10:46:50.482767 10450 net.cpp:454] inception_4d/3x3 <- inception_4d/3x3_reduce
I1126 10:46:50.482786 10450 net.cpp:411] inception_4d/3x3 -> inception_4d/3x3
I1126 10:46:50.488937 10450 cudnn_conv_layer.cpp:194] Reallocating workspace storage: 10080
I1126 10:46:50.488978 10450 net.cpp:150] Setting up inception_4d/3x3
I1126 10:46:50.488988 10450 net.cpp:157] Top shape: 32 288 14 14 (1806336)
I1126 10:46:50.488993 10450 net.cpp:165] Memory required for data: 1501627140
I1126 10:46:50.489003 10450 layer_factory.hpp:76] Creating layer inception_4d/prelu_3x3
I1126 10:46:50.489018 10450 net.cpp:106] Creating Layer inception_4d/prelu_3x3
I1126 10:46:50.489025 10450 net.cpp:454] inception_4d/prelu_3x3 <- inception_4d/3x3
I1126 10:46:50.489037 10450 net.cpp:397] inception_4d/prelu_3x3 -> inception_4d/3x3 (in-place)
I1126 10:46:50.489212 10450 net.cpp:150] Setting up inception_4d/prelu_3x3
I1126 10:46:50.489222 10450 net.cpp:157] Top shape: 32 288 14 14 (1806336)
I1126 10:46:50.489226 10450 net.cpp:165] Memory required for data: 1508852484
I1126 10:46:50.489233 10450 layer_factory.hpp:76] Creating layer inception_4d/5x5_reduce
I1126 10:46:50.489244 10450 net.cpp:106] Creating Layer inception_4d/5x5_reduce
I1126 10:46:50.489250 10450 net.cpp:454] inception_4d/5x5_reduce <- inception_4c/output_inception_4c/output_0_split_2
I1126 10:46:50.489259 10450 net.cpp:411] inception_4d/5x5_reduce -> inception_4d/5x5_reduce
I1126 10:46:50.490716 10450 cudnn_conv_layer.cpp:194] Reallocating workspace storage: 10080
I1126 10:46:50.490742 10450 net.cpp:150] Setting up inception_4d/5x5_reduce
I1126 10:46:50.490753 10450 net.cpp:157] Top shape: 32 32 14 14 (200704)
I1126 10:46:50.490758 10450 net.cpp:165] Memory required for data: 1509655300
I1126 10:46:50.490767 10450 layer_factory.hpp:76] Creating layer inception_4d/prelu_5x5_reduce
I1126 10:46:50.490774 10450 net.cpp:106] Creating Layer inception_4d/prelu_5x5_reduce
I1126 10:46:50.490780 10450 net.cpp:454] inception_4d/prelu_5x5_reduce <- inception_4d/5x5_reduce
I1126 10:46:50.490787 10450 net.cpp:397] inception_4d/prelu_5x5_reduce -> inception_4d/5x5_reduce (in-place)
I1126 10:46:50.490901 10450 net.cpp:150] Setting up inception_4d/prelu_5x5_reduce
I1126 10:46:50.490911 10450 net.cpp:157] Top shape: 32 32 14 14 (200704)
I1126 10:46:50.490916 10450 net.cpp:165] Memory required for data: 1510458116
I1126 10:46:50.490921 10450 layer_factory.hpp:76] Creating layer inception_4d/5x5
I1126 10:46:50.490931 10450 net.cpp:106] Creating Layer inception_4d/5x5
I1126 10:46:50.490937 10450 net.cpp:454] inception_4d/5x5 <- inception_4d/5x5_reduce
I1126 10:46:50.490947 10450 net.cpp:411] inception_4d/5x5 -> inception_4d/5x5
I1126 10:46:50.493283 10450 cudnn_conv_layer.cpp:194] Reallocating workspace storage: 13080
I1126 10:46:50.493315 10450 net.cpp:150] Setting up inception_4d/5x5
I1126 10:46:50.493325 10450 net.cpp:157] Top shape: 32 64 14 14 (401408)
I1126 10:46:50.493330 10450 net.cpp:165] Memory required for data: 1512063748
I1126 10:46:50.493338 10450 layer_factory.hpp:76] Creating layer inception_4d/prelu_5x5
I1126 10:46:50.493348 10450 net.cpp:106] Creating Layer inception_4d/prelu_5x5
I1126 10:46:50.493353 10450 net.cpp:454] inception_4d/prelu_5x5 <- inception_4d/5x5
I1126 10:46:50.493360 10450 net.cpp:397] inception_4d/prelu_5x5 -> inception_4d/5x5 (in-place)
I1126 10:46:50.493468 10450 net.cpp:150] Setting up inception_4d/prelu_5x5
I1126 10:46:50.493476 10450 net.cpp:157] Top shape: 32 64 14 14 (401408)
I1126 10:46:50.493480 10450 net.cpp:165] Memory required for data: 1513669380
I1126 10:46:50.493486 10450 layer_factory.hpp:76] Creating layer inception_4d/pool
I1126 10:46:50.493495 10450 net.cpp:106] Creating Layer inception_4d/pool
I1126 10:46:50.493500 10450 net.cpp:454] inception_4d/pool <- inception_4c/output_inception_4c/output_0_split_3
I1126 10:46:50.493506 10450 net.cpp:411] inception_4d/pool -> inception_4d/pool
I1126 10:46:50.493688 10450 net.cpp:150] Setting up inception_4d/pool
I1126 10:46:50.493697 10450 net.cpp:157] Top shape: 32 512 14 14 (3211264)
I1126 10:46:50.493702 10450 net.cpp:165] Memory required for data: 1526514436
I1126 10:46:50.493706 10450 layer_factory.hpp:76] Creating layer inception_4d/pool_proj
I1126 10:46:50.493716 10450 net.cpp:106] Creating Layer inception_4d/pool_proj
I1126 10:46:50.493741 10450 net.cpp:454] inception_4d/pool_proj <- inception_4d/pool
I1126 10:46:50.493747 10450 net.cpp:411] inception_4d/pool_proj -> inception_4d/pool_proj
I1126 10:46:50.495491 10450 cudnn_conv_layer.cpp:194] Reallocating workspace storage: 10080
I1126 10:46:50.495529 10450 net.cpp:150] Setting up inception_4d/pool_proj
I1126 10:46:50.495540 10450 net.cpp:157] Top shape: 32 64 14 14 (401408)
I1126 10:46:50.495548 10450 net.cpp:165] Memory required for data: 1528120068
I1126 10:46:50.495560 10450 layer_factory.hpp:76] Creating layer inception_4d/prelu_pool_proj
I1126 10:46:50.495571 10450 net.cpp:106] Creating Layer inception_4d/prelu_pool_proj
I1126 10:46:50.495579 10450 net.cpp:454] inception_4d/prelu_pool_proj <- inception_4d/pool_proj
I1126 10:46:50.495591 10450 net.cpp:397] inception_4d/prelu_pool_proj -> inception_4d/pool_proj (in-place)
I1126 10:46:50.495754 10450 net.cpp:150] Setting up inception_4d/prelu_pool_proj
I1126 10:46:50.495765 10450 net.cpp:157] Top shape: 32 64 14 14 (401408)
I1126 10:46:50.495771 10450 net.cpp:165] Memory required for data: 1529725700
I1126 10:46:50.495781 10450 layer_factory.hpp:76] Creating layer inception_4d/output
I1126 10:46:50.495792 10450 net.cpp:106] Creating Layer inception_4d/output
I1126 10:46:50.495800 10450 net.cpp:454] inception_4d/output <- inception_4d/1x1
I1126 10:46:50.495807 10450 net.cpp:454] inception_4d/output <- inception_4d/3x3
I1126 10:46:50.495815 10450 net.cpp:454] inception_4d/output <- inception_4d/5x5
I1126 10:46:50.495823 10450 net.cpp:454] inception_4d/output <- inception_4d/pool_proj
I1126 10:46:50.495836 10450 net.cpp:411] inception_4d/output -> inception_4d/output
I1126 10:46:50.495877 10450 net.cpp:150] Setting up inception_4d/output
I1126 10:46:50.495889 10450 net.cpp:157] Top shape: 32 528 14 14 (3311616)
I1126 10:46:50.495896 10450 net.cpp:165] Memory required for data: 1542972164
I1126 10:46:50.495904 10450 layer_factory.hpp:76] Creating layer inception_4d/output_inception_4d/output_0_split
I1126 10:46:50.495914 10450 net.cpp:106] Creating Layer inception_4d/output_inception_4d/output_0_split
I1126 10:46:50.495921 10450 net.cpp:454] inception_4d/output_inception_4d/output_0_split <- inception_4d/output
I1126 10:46:50.495931 10450 net.cpp:411] inception_4d/output_inception_4d/output_0_split -> inception_4d/output_inception_4d/output_0_split_0
I1126 10:46:50.495942 10450 net.cpp:411] inception_4d/output_inception_4d/output_0_split -> inception_4d/output_inception_4d/output_0_split_1
I1126 10:46:50.495954 10450 net.cpp:411] inception_4d/output_inception_4d/output_0_split -> inception_4d/output_inception_4d/output_0_split_2
I1126 10:46:50.495970 10450 net.cpp:411] inception_4d/output_inception_4d/output_0_split -> inception_4d/output_inception_4d/output_0_split_3
I1126 10:46:50.495988 10450 net.cpp:411] inception_4d/output_inception_4d/output_0_split -> inception_4d/output_inception_4d/output_0_split_4
I1126 10:46:50.496104 10450 net.cpp:150] Setting up inception_4d/output_inception_4d/output_0_split
I1126 10:46:50.496114 10450 net.cpp:157] Top shape: 32 528 14 14 (3311616)
I1126 10:46:50.496124 10450 net.cpp:157] Top shape: 32 528 14 14 (3311616)
I1126 10:46:50.496132 10450 net.cpp:157] Top shape: 32 528 14 14 (3311616)
I1126 10:46:50.496140 10450 net.cpp:157] Top shape: 32 528 14 14 (3311616)
I1126 10:46:50.496148 10450 net.cpp:157] Top shape: 32 528 14 14 (3311616)
I1126 10:46:50.496155 10450 net.cpp:165] Memory required for data: 1609204484
I1126 10:46:50.496162 10450 layer_factory.hpp:76] Creating layer loss2/ave_pool
I1126 10:46:50.496173 10450 net.cpp:106] Creating Layer loss2/ave_pool
I1126 10:46:50.496181 10450 net.cpp:454] loss2/ave_pool <- inception_4d/output_inception_4d/output_0_split_0
I1126 10:46:50.496188 10450 net.cpp:411] loss2/ave_pool -> loss2/ave_pool
I1126 10:46:50.496772 10450 net.cpp:150] Setting up loss2/ave_pool
I1126 10:46:50.496784 10450 net.cpp:157] Top shape: 32 528 4 4 (270336)
I1126 10:46:50.496788 10450 net.cpp:165] Memory required for data: 1610285828
I1126 10:46:50.496806 10450 layer_factory.hpp:76] Creating layer loss2/conv
I1126 10:46:50.496819 10450 net.cpp:106] Creating Layer loss2/conv
I1126 10:46:50.496826 10450 net.cpp:454] loss2/conv <- loss2/ave_pool
I1126 10:46:50.496834 10450 net.cpp:411] loss2/conv -> loss2/conv
I1126 10:46:50.498574 10450 cudnn_conv_layer.cpp:194] Reallocating workspace storage: 6840
I1126 10:46:50.498607 10450 net.cpp:150] Setting up loss2/conv
I1126 10:46:50.498616 10450 net.cpp:157] Top shape: 32 128 4 4 (65536)
I1126 10:46:50.498620 10450 net.cpp:165] Memory required for data: 1610547972
I1126 10:46:50.498628 10450 layer_factory.hpp:76] Creating layer loss2/prelu_conv
I1126 10:46:50.498638 10450 net.cpp:106] Creating Layer loss2/prelu_conv
I1126 10:46:50.498643 10450 net.cpp:454] loss2/prelu_conv <- loss2/conv
I1126 10:46:50.498651 10450 net.cpp:397] loss2/prelu_conv -> loss2/conv (in-place)
I1126 10:46:50.498749 10450 net.cpp:150] Setting up loss2/prelu_conv
I1126 10:46:50.498757 10450 net.cpp:157] Top shape: 32 128 4 4 (65536)
I1126 10:46:50.498761 10450 net.cpp:165] Memory required for data: 1610810116
I1126 10:46:50.498766 10450 layer_factory.hpp:76] Creating layer loss2/fc
I1126 10:46:50.498776 10450 net.cpp:106] Creating Layer loss2/fc
I1126 10:46:50.498780 10450 net.cpp:454] loss2/fc <- loss2/conv
I1126 10:46:50.498788 10450 net.cpp:411] loss2/fc -> loss2/fc
I1126 10:46:50.516618 10450 net.cpp:150] Setting up loss2/fc
I1126 10:46:50.516657 10450 net.cpp:157] Top shape: 32 1024 (32768)
I1126 10:46:50.516662 10450 net.cpp:165] Memory required for data: 1610941188
I1126 10:46:50.516695 10450 layer_factory.hpp:76] Creating layer loss2/prelu_fc
I1126 10:46:50.516765 10450 net.cpp:106] Creating Layer loss2/prelu_fc
I1126 10:46:50.516785 10450 net.cpp:454] loss2/prelu_fc <- loss2/fc
I1126 10:46:50.516794 10450 net.cpp:397] loss2/prelu_fc -> loss2/fc (in-place)
I1126 10:46:50.516888 10450 net.cpp:150] Setting up loss2/prelu_fc
I1126 10:46:50.516896 10450 net.cpp:157] Top shape: 32 1024 (32768)
I1126 10:46:50.516901 10450 net.cpp:165] Memory required for data: 1611072260
I1126 10:46:50.516906 10450 layer_factory.hpp:76] Creating layer loss2/drop_fc
I1126 10:46:50.516916 10450 net.cpp:106] Creating Layer loss2/drop_fc
I1126 10:46:50.516921 10450 net.cpp:454] loss2/drop_fc <- loss2/fc
I1126 10:46:50.516926 10450 net.cpp:397] loss2/drop_fc -> loss2/fc (in-place)
I1126 10:46:50.516953 10450 net.cpp:150] Setting up loss2/drop_fc
I1126 10:46:50.516960 10450 net.cpp:157] Top shape: 32 1024 (32768)
I1126 10:46:50.516964 10450 net.cpp:165] Memory required for data: 1611203332
I1126 10:46:50.516968 10450 layer_factory.hpp:76] Creating layer loss2/classifier2
I1126 10:46:50.516976 10450 net.cpp:106] Creating Layer loss2/classifier2
I1126 10:46:50.516980 10450 net.cpp:454] loss2/classifier2 <- loss2/fc
I1126 10:46:50.516988 10450 net.cpp:411] loss2/classifier2 -> loss2/classifier
I1126 10:46:50.517118 10450 net.cpp:150] Setting up loss2/classifier2
I1126 10:46:50.517125 10450 net.cpp:157] Top shape: 32 2 (64)
I1126 10:46:50.517129 10450 net.cpp:165] Memory required for data: 1611203588
I1126 10:46:50.517137 10450 layer_factory.hpp:76] Creating layer loss2/loss
I1126 10:46:50.517144 10450 net.cpp:106] Creating Layer loss2/loss
I1126 10:46:50.517148 10450 net.cpp:454] loss2/loss <- loss2/classifier
I1126 10:46:50.517154 10450 net.cpp:454] loss2/loss <- label_data_1_split_1
I1126 10:46:50.517160 10450 net.cpp:411] loss2/loss -> loss2/loss1
I1126 10:46:50.517169 10450 layer_factory.hpp:76] Creating layer loss2/loss
I1126 10:46:50.517479 10450 net.cpp:150] Setting up loss2/loss
I1126 10:46:50.517488 10450 net.cpp:157] Top shape: (1)
I1126 10:46:50.517493 10450 net.cpp:160]     with loss weight 0.3
I1126 10:46:50.517518 10450 net.cpp:165] Memory required for data: 1611203592
I1126 10:46:50.517523 10450 layer_factory.hpp:76] Creating layer inception_4e/1x1
I1126 10:46:50.517532 10450 net.cpp:106] Creating Layer inception_4e/1x1
I1126 10:46:50.517539 10450 net.cpp:454] inception_4e/1x1 <- inception_4d/output_inception_4d/output_0_split_1
I1126 10:46:50.517545 10450 net.cpp:411] inception_4e/1x1 -> inception_4e/1x1
I1126 10:46:50.520349 10450 cudnn_conv_layer.cpp:194] Reallocating workspace storage: 10080
I1126 10:46:50.520390 10450 net.cpp:150] Setting up inception_4e/1x1
I1126 10:46:50.520401 10450 net.cpp:157] Top shape: 32 256 14 14 (1605632)
I1126 10:46:50.520406 10450 net.cpp:165] Memory required for data: 1617626120
I1126 10:46:50.520414 10450 layer_factory.hpp:76] Creating layer inception_4e/prelu_1x1
I1126 10:46:50.520427 10450 net.cpp:106] Creating Layer inception_4e/prelu_1x1
I1126 10:46:50.520433 10450 net.cpp:454] inception_4e/prelu_1x1 <- inception_4e/1x1
I1126 10:46:50.520442 10450 net.cpp:397] inception_4e/prelu_1x1 -> inception_4e/1x1 (in-place)
I1126 10:46:50.520581 10450 net.cpp:150] Setting up inception_4e/prelu_1x1
I1126 10:46:50.520591 10450 net.cpp:157] Top shape: 32 256 14 14 (1605632)
I1126 10:46:50.520594 10450 net.cpp:165] Memory required for data: 1624048648
I1126 10:46:50.520599 10450 layer_factory.hpp:76] Creating layer inception_4e/3x3_reduce
I1126 10:46:50.520611 10450 net.cpp:106] Creating Layer inception_4e/3x3_reduce
I1126 10:46:50.520615 10450 net.cpp:454] inception_4e/3x3_reduce <- inception_4d/output_inception_4d/output_0_split_2
I1126 10:46:50.520624 10450 net.cpp:411] inception_4e/3x3_reduce -> inception_4e/3x3_reduce
I1126 10:46:50.522356 10450 cudnn_conv_layer.cpp:194] Reallocating workspace storage: 10080
I1126 10:46:50.522400 10450 net.cpp:150] Setting up inception_4e/3x3_reduce
I1126 10:46:50.522409 10450 net.cpp:157] Top shape: 32 160 14 14 (1003520)
I1126 10:46:50.522414 10450 net.cpp:165] Memory required for data: 1628062728
I1126 10:46:50.522433 10450 layer_factory.hpp:76] Creating layer inception_4e/prelu_3x3_reduce
I1126 10:46:50.522455 10450 net.cpp:106] Creating Layer inception_4e/prelu_3x3_reduce
I1126 10:46:50.522461 10450 net.cpp:454] inception_4e/prelu_3x3_reduce <- inception_4e/3x3_reduce
I1126 10:46:50.522469 10450 net.cpp:397] inception_4e/prelu_3x3_reduce -> inception_4e/3x3_reduce (in-place)
I1126 10:46:50.522598 10450 net.cpp:150] Setting up inception_4e/prelu_3x3_reduce
I1126 10:46:50.522608 10450 net.cpp:157] Top shape: 32 160 14 14 (1003520)
I1126 10:46:50.522611 10450 net.cpp:165] Memory required for data: 1632076808
I1126 10:46:50.522617 10450 layer_factory.hpp:76] Creating layer inception_4e/3x3
I1126 10:46:50.522627 10450 net.cpp:106] Creating Layer inception_4e/3x3
I1126 10:46:50.522634 10450 net.cpp:454] inception_4e/3x3 <- inception_4e/3x3_reduce
I1126 10:46:50.522639 10450 net.cpp:411] inception_4e/3x3 -> inception_4e/3x3
I1126 10:46:50.527920 10450 cudnn_conv_layer.cpp:194] Reallocating workspace storage: 10080
I1126 10:46:50.527979 10450 net.cpp:150] Setting up inception_4e/3x3
I1126 10:46:50.527992 10450 net.cpp:157] Top shape: 32 320 14 14 (2007040)
I1126 10:46:50.527997 10450 net.cpp:165] Memory required for data: 1640104968
I1126 10:46:50.528017 10450 layer_factory.hpp:76] Creating layer inception_4e/prelu_3x3
I1126 10:46:50.528048 10450 net.cpp:106] Creating Layer inception_4e/prelu_3x3
I1126 10:46:50.528058 10450 net.cpp:454] inception_4e/prelu_3x3 <- inception_4e/3x3
I1126 10:46:50.528067 10450 net.cpp:397] inception_4e/prelu_3x3 -> inception_4e/3x3 (in-place)
I1126 10:46:50.528255 10450 net.cpp:150] Setting up inception_4e/prelu_3x3
I1126 10:46:50.528267 10450 net.cpp:157] Top shape: 32 320 14 14 (2007040)
I1126 10:46:50.528271 10450 net.cpp:165] Memory required for data: 1648133128
I1126 10:46:50.528277 10450 layer_factory.hpp:76] Creating layer inception_4e/5x5_reduce
I1126 10:46:50.528290 10450 net.cpp:106] Creating Layer inception_4e/5x5_reduce
I1126 10:46:50.528296 10450 net.cpp:454] inception_4e/5x5_reduce <- inception_4d/output_inception_4d/output_0_split_3
I1126 10:46:50.528306 10450 net.cpp:411] inception_4e/5x5_reduce -> inception_4e/5x5_reduce
I1126 10:46:50.529647 10450 cudnn_conv_layer.cpp:194] Reallocating workspace storage: 10080
I1126 10:46:50.529683 10450 net.cpp:150] Setting up inception_4e/5x5_reduce
I1126 10:46:50.529693 10450 net.cpp:157] Top shape: 32 32 14 14 (200704)
I1126 10:46:50.529723 10450 net.cpp:165] Memory required for data: 1648935944
I1126 10:46:50.529732 10450 layer_factory.hpp:76] Creating layer inception_4e/prelu_5x5_reduce
I1126 10:46:50.529743 10450 net.cpp:106] Creating Layer inception_4e/prelu_5x5_reduce
I1126 10:46:50.529749 10450 net.cpp:454] inception_4e/prelu_5x5_reduce <- inception_4e/5x5_reduce
I1126 10:46:50.529757 10450 net.cpp:397] inception_4e/prelu_5x5_reduce -> inception_4e/5x5_reduce (in-place)
I1126 10:46:50.529870 10450 net.cpp:150] Setting up inception_4e/prelu_5x5_reduce
I1126 10:46:50.529878 10450 net.cpp:157] Top shape: 32 32 14 14 (200704)
I1126 10:46:50.529882 10450 net.cpp:165] Memory required for data: 1649738760
I1126 10:46:50.529888 10450 layer_factory.hpp:76] Creating layer inception_4e/5x5
I1126 10:46:50.529918 10450 net.cpp:106] Creating Layer inception_4e/5x5
I1126 10:46:50.529924 10450 net.cpp:454] inception_4e/5x5 <- inception_4e/5x5_reduce
I1126 10:46:50.529930 10450 net.cpp:411] inception_4e/5x5 -> inception_4e/5x5
I1126 10:46:50.532635 10450 cudnn_conv_layer.cpp:194] Reallocating workspace storage: 13080
I1126 10:46:50.532690 10450 net.cpp:150] Setting up inception_4e/5x5
I1126 10:46:50.532711 10450 net.cpp:157] Top shape: 32 128 14 14 (802816)
I1126 10:46:50.532733 10450 net.cpp:165] Memory required for data: 1652950024
I1126 10:46:50.532747 10450 layer_factory.hpp:76] Creating layer inception_4e/prelu_5x5
I1126 10:46:50.532762 10450 net.cpp:106] Creating Layer inception_4e/prelu_5x5
I1126 10:46:50.532769 10450 net.cpp:454] inception_4e/prelu_5x5 <- inception_4e/5x5
I1126 10:46:50.532788 10450 net.cpp:397] inception_4e/prelu_5x5 -> inception_4e/5x5 (in-place)
I1126 10:46:50.532922 10450 net.cpp:150] Setting up inception_4e/prelu_5x5
I1126 10:46:50.532932 10450 net.cpp:157] Top shape: 32 128 14 14 (802816)
I1126 10:46:50.532937 10450 net.cpp:165] Memory required for data: 1656161288
I1126 10:46:50.532943 10450 layer_factory.hpp:76] Creating layer inception_4e/pool
I1126 10:46:50.532951 10450 net.cpp:106] Creating Layer inception_4e/pool
I1126 10:46:50.532958 10450 net.cpp:454] inception_4e/pool <- inception_4d/output_inception_4d/output_0_split_4
I1126 10:46:50.532968 10450 net.cpp:411] inception_4e/pool -> inception_4e/pool
I1126 10:46:50.533383 10450 net.cpp:150] Setting up inception_4e/pool
I1126 10:46:50.533397 10450 net.cpp:157] Top shape: 32 528 14 14 (3311616)
I1126 10:46:50.533402 10450 net.cpp:165] Memory required for data: 1669407752
I1126 10:46:50.533407 10450 layer_factory.hpp:76] Creating layer inception_4e/pool_proj
I1126 10:46:50.533419 10450 net.cpp:106] Creating Layer inception_4e/pool_proj
I1126 10:46:50.533424 10450 net.cpp:454] inception_4e/pool_proj <- inception_4e/pool
I1126 10:46:50.533433 10450 net.cpp:411] inception_4e/pool_proj -> inception_4e/pool_proj
I1126 10:46:50.534785 10450 cudnn_conv_layer.cpp:194] Reallocating workspace storage: 10080
I1126 10:46:50.534821 10450 net.cpp:150] Setting up inception_4e/pool_proj
I1126 10:46:50.534829 10450 net.cpp:157] Top shape: 32 128 14 14 (802816)
I1126 10:46:50.534833 10450 net.cpp:165] Memory required for data: 1672619016
I1126 10:46:50.534842 10450 layer_factory.hpp:76] Creating layer inception_4e/prelu_pool_proj
I1126 10:46:50.534852 10450 net.cpp:106] Creating Layer inception_4e/prelu_pool_proj
I1126 10:46:50.534857 10450 net.cpp:454] inception_4e/prelu_pool_proj <- inception_4e/pool_proj
I1126 10:46:50.534864 10450 net.cpp:397] inception_4e/prelu_pool_proj -> inception_4e/pool_proj (in-place)
I1126 10:46:50.535008 10450 net.cpp:150] Setting up inception_4e/prelu_pool_proj
I1126 10:46:50.535017 10450 net.cpp:157] Top shape: 32 128 14 14 (802816)
I1126 10:46:50.535022 10450 net.cpp:165] Memory required for data: 1675830280
I1126 10:46:50.535027 10450 layer_factory.hpp:76] Creating layer inception_4e/output
I1126 10:46:50.535034 10450 net.cpp:106] Creating Layer inception_4e/output
I1126 10:46:50.535049 10450 net.cpp:454] inception_4e/output <- inception_4e/1x1
I1126 10:46:50.535055 10450 net.cpp:454] inception_4e/output <- inception_4e/3x3
I1126 10:46:50.535070 10450 net.cpp:454] inception_4e/output <- inception_4e/5x5
I1126 10:46:50.535099 10450 net.cpp:454] inception_4e/output <- inception_4e/pool_proj
I1126 10:46:50.535104 10450 net.cpp:411] inception_4e/output -> inception_4e/output
I1126 10:46:50.535136 10450 net.cpp:150] Setting up inception_4e/output
I1126 10:46:50.535145 10450 net.cpp:157] Top shape: 32 832 14 14 (5218304)
I1126 10:46:50.535148 10450 net.cpp:165] Memory required for data: 1696703496
I1126 10:46:50.535152 10450 layer_factory.hpp:76] Creating layer pool4/3x3_s2
I1126 10:46:50.535161 10450 net.cpp:106] Creating Layer pool4/3x3_s2
I1126 10:46:50.535166 10450 net.cpp:454] pool4/3x3_s2 <- inception_4e/output
I1126 10:46:50.535171 10450 net.cpp:411] pool4/3x3_s2 -> pool4/3x3_s2
I1126 10:46:50.535555 10450 net.cpp:150] Setting up pool4/3x3_s2
I1126 10:46:50.535568 10450 net.cpp:157] Top shape: 32 832 7 7 (1304576)
I1126 10:46:50.535573 10450 net.cpp:165] Memory required for data: 1701921800
I1126 10:46:50.535578 10450 layer_factory.hpp:76] Creating layer pool4/3x3_s2_pool4/3x3_s2_0_split
I1126 10:46:50.535584 10450 net.cpp:106] Creating Layer pool4/3x3_s2_pool4/3x3_s2_0_split
I1126 10:46:50.535590 10450 net.cpp:454] pool4/3x3_s2_pool4/3x3_s2_0_split <- pool4/3x3_s2
I1126 10:46:50.535596 10450 net.cpp:411] pool4/3x3_s2_pool4/3x3_s2_0_split -> pool4/3x3_s2_pool4/3x3_s2_0_split_0
I1126 10:46:50.535604 10450 net.cpp:411] pool4/3x3_s2_pool4/3x3_s2_0_split -> pool4/3x3_s2_pool4/3x3_s2_0_split_1
I1126 10:46:50.535610 10450 net.cpp:411] pool4/3x3_s2_pool4/3x3_s2_0_split -> pool4/3x3_s2_pool4/3x3_s2_0_split_2
I1126 10:46:50.535619 10450 net.cpp:411] pool4/3x3_s2_pool4/3x3_s2_0_split -> pool4/3x3_s2_pool4/3x3_s2_0_split_3
I1126 10:46:50.535687 10450 net.cpp:150] Setting up pool4/3x3_s2_pool4/3x3_s2_0_split
I1126 10:46:50.535696 10450 net.cpp:157] Top shape: 32 832 7 7 (1304576)
I1126 10:46:50.535701 10450 net.cpp:157] Top shape: 32 832 7 7 (1304576)
I1126 10:46:50.535706 10450 net.cpp:157] Top shape: 32 832 7 7 (1304576)
I1126 10:46:50.535711 10450 net.cpp:157] Top shape: 32 832 7 7 (1304576)
I1126 10:46:50.535714 10450 net.cpp:165] Memory required for data: 1722795016
I1126 10:46:50.535720 10450 layer_factory.hpp:76] Creating layer inception_5a/1x1
I1126 10:46:50.535732 10450 net.cpp:106] Creating Layer inception_5a/1x1
I1126 10:46:50.535737 10450 net.cpp:454] inception_5a/1x1 <- pool4/3x3_s2_pool4/3x3_s2_0_split_0
I1126 10:46:50.535745 10450 net.cpp:411] inception_5a/1x1 -> inception_5a/1x1
I1126 10:46:50.538802 10450 cudnn_conv_layer.cpp:194] Reallocating workspace storage: 7428
I1126 10:46:50.538857 10450 net.cpp:150] Setting up inception_5a/1x1
I1126 10:46:50.538869 10450 net.cpp:157] Top shape: 32 256 7 7 (401408)
I1126 10:46:50.538874 10450 net.cpp:165] Memory required for data: 1724400648
I1126 10:46:50.538892 10450 layer_factory.hpp:76] Creating layer inception_5a/prelu_1x1
I1126 10:46:50.538904 10450 net.cpp:106] Creating Layer inception_5a/prelu_1x1
I1126 10:46:50.538911 10450 net.cpp:454] inception_5a/prelu_1x1 <- inception_5a/1x1
I1126 10:46:50.538920 10450 net.cpp:397] inception_5a/prelu_1x1 -> inception_5a/1x1 (in-place)
I1126 10:46:50.539741 10450 net.cpp:150] Setting up inception_5a/prelu_1x1
I1126 10:46:50.539765 10450 net.cpp:157] Top shape: 32 256 7 7 (401408)
I1126 10:46:50.539778 10450 net.cpp:165] Memory required for data: 1726006280
I1126 10:46:50.539785 10450 layer_factory.hpp:76] Creating layer inception_5a/3x3_reduce
I1126 10:46:50.539808 10450 net.cpp:106] Creating Layer inception_5a/3x3_reduce
I1126 10:46:50.539821 10450 net.cpp:454] inception_5a/3x3_reduce <- pool4/3x3_s2_pool4/3x3_s2_0_split_1
I1126 10:46:50.539829 10450 net.cpp:411] inception_5a/3x3_reduce -> inception_5a/3x3_reduce
I1126 10:46:50.542310 10450 cudnn_conv_layer.cpp:194] Reallocating workspace storage: 7428
I1126 10:46:50.542347 10450 net.cpp:150] Setting up inception_5a/3x3_reduce
I1126 10:46:50.542356 10450 net.cpp:157] Top shape: 32 160 7 7 (250880)
I1126 10:46:50.542361 10450 net.cpp:165] Memory required for data: 1727009800
I1126 10:46:50.542367 10450 layer_factory.hpp:76] Creating layer inception_5a/prelu_3x3_reduce
I1126 10:46:50.542397 10450 net.cpp:106] Creating Layer inception_5a/prelu_3x3_reduce
I1126 10:46:50.542403 10450 net.cpp:454] inception_5a/prelu_3x3_reduce <- inception_5a/3x3_reduce
I1126 10:46:50.542410 10450 net.cpp:397] inception_5a/prelu_3x3_reduce -> inception_5a/3x3_reduce (in-place)
I1126 10:46:50.542516 10450 net.cpp:150] Setting up inception_5a/prelu_3x3_reduce
I1126 10:46:50.542526 10450 net.cpp:157] Top shape: 32 160 7 7 (250880)
I1126 10:46:50.542529 10450 net.cpp:165] Memory required for data: 1728013320
I1126 10:46:50.542536 10450 layer_factory.hpp:76] Creating layer inception_5a/3x3
I1126 10:46:50.542544 10450 net.cpp:106] Creating Layer inception_5a/3x3
I1126 10:46:50.542549 10450 net.cpp:454] inception_5a/3x3 <- inception_5a/3x3_reduce
I1126 10:46:50.542558 10450 net.cpp:411] inception_5a/3x3 -> inception_5a/3x3
I1126 10:46:50.548395 10450 cudnn_conv_layer.cpp:194] Reallocating workspace storage: 7788
I1126 10:46:50.548445 10450 net.cpp:150] Setting up inception_5a/3x3
I1126 10:46:50.548467 10450 net.cpp:157] Top shape: 32 320 7 7 (501760)
I1126 10:46:50.548482 10450 net.cpp:165] Memory required for data: 1730020360
I1126 10:46:50.548493 10450 layer_factory.hpp:76] Creating layer inception_5a/prelu_3x3
I1126 10:46:50.548508 10450 net.cpp:106] Creating Layer inception_5a/prelu_3x3
I1126 10:46:50.548516 10450 net.cpp:454] inception_5a/prelu_3x3 <- inception_5a/3x3
I1126 10:46:50.548526 10450 net.cpp:397] inception_5a/prelu_3x3 -> inception_5a/3x3 (in-place)
I1126 10:46:50.548658 10450 net.cpp:150] Setting up inception_5a/prelu_3x3
I1126 10:46:50.548667 10450 net.cpp:157] Top shape: 32 320 7 7 (501760)
I1126 10:46:50.548672 10450 net.cpp:165] Memory required for data: 1732027400
I1126 10:46:50.548677 10450 layer_factory.hpp:76] Creating layer inception_5a/5x5_reduce
I1126 10:46:50.548687 10450 net.cpp:106] Creating Layer inception_5a/5x5_reduce
I1126 10:46:50.548693 10450 net.cpp:454] inception_5a/5x5_reduce <- pool4/3x3_s2_pool4/3x3_s2_0_split_2
I1126 10:46:50.548702 10450 net.cpp:411] inception_5a/5x5_reduce -> inception_5a/5x5_reduce
I1126 10:46:50.550019 10450 cudnn_conv_layer.cpp:194] Reallocating workspace storage: 7428
I1126 10:46:50.550048 10450 net.cpp:150] Setting up inception_5a/5x5_reduce
I1126 10:46:50.550056 10450 net.cpp:157] Top shape: 32 32 7 7 (50176)
I1126 10:46:50.550060 10450 net.cpp:165] Memory required for data: 1732228104
I1126 10:46:50.550068 10450 layer_factory.hpp:76] Creating layer inception_5a/prelu_5x5_reduce
I1126 10:46:50.550079 10450 net.cpp:106] Creating Layer inception_5a/prelu_5x5_reduce
I1126 10:46:50.550086 10450 net.cpp:454] inception_5a/prelu_5x5_reduce <- inception_5a/5x5_reduce
I1126 10:46:50.550093 10450 net.cpp:397] inception_5a/prelu_5x5_reduce -> inception_5a/5x5_reduce (in-place)
I1126 10:46:50.550218 10450 net.cpp:150] Setting up inception_5a/prelu_5x5_reduce
I1126 10:46:50.550226 10450 net.cpp:157] Top shape: 32 32 7 7 (50176)
I1126 10:46:50.550230 10450 net.cpp:165] Memory required for data: 1732428808
I1126 10:46:50.550236 10450 layer_factory.hpp:76] Creating layer inception_5a/5x5
I1126 10:46:50.550251 10450 net.cpp:106] Creating Layer inception_5a/5x5
I1126 10:46:50.550256 10450 net.cpp:454] inception_5a/5x5 <- inception_5a/5x5_reduce
I1126 10:46:50.550262 10450 net.cpp:411] inception_5a/5x5 -> inception_5a/5x5
I1126 10:46:50.552290 10450 cudnn_conv_layer.cpp:194] Reallocating workspace storage: 9804
I1126 10:46:50.552340 10450 net.cpp:150] Setting up inception_5a/5x5
I1126 10:46:50.552361 10450 net.cpp:157] Top shape: 32 128 7 7 (200704)
I1126 10:46:50.552366 10450 net.cpp:165] Memory required for data: 1733231624
I1126 10:46:50.552386 10450 layer_factory.hpp:76] Creating layer inception_5a/prelu_5x5
I1126 10:46:50.552398 10450 net.cpp:106] Creating Layer inception_5a/prelu_5x5
I1126 10:46:50.552405 10450 net.cpp:454] inception_5a/prelu_5x5 <- inception_5a/5x5
I1126 10:46:50.552414 10450 net.cpp:397] inception_5a/prelu_5x5 -> inception_5a/5x5 (in-place)
I1126 10:46:50.552532 10450 net.cpp:150] Setting up inception_5a/prelu_5x5
I1126 10:46:50.552566 10450 net.cpp:157] Top shape: 32 128 7 7 (200704)
I1126 10:46:50.552569 10450 net.cpp:165] Memory required for data: 1734034440
I1126 10:46:50.552577 10450 layer_factory.hpp:76] Creating layer inception_5a/pool
I1126 10:46:50.552585 10450 net.cpp:106] Creating Layer inception_5a/pool
I1126 10:46:50.552590 10450 net.cpp:454] inception_5a/pool <- pool4/3x3_s2_pool4/3x3_s2_0_split_3
I1126 10:46:50.552598 10450 net.cpp:411] inception_5a/pool -> inception_5a/pool
I1126 10:46:50.552837 10450 net.cpp:150] Setting up inception_5a/pool
I1126 10:46:50.552850 10450 net.cpp:157] Top shape: 32 832 7 7 (1304576)
I1126 10:46:50.552853 10450 net.cpp:165] Memory required for data: 1739252744
I1126 10:46:50.552858 10450 layer_factory.hpp:76] Creating layer inception_5a/pool_proj
I1126 10:46:50.552870 10450 net.cpp:106] Creating Layer inception_5a/pool_proj
I1126 10:46:50.552875 10450 net.cpp:454] inception_5a/pool_proj <- inception_5a/pool
I1126 10:46:50.552883 10450 net.cpp:411] inception_5a/pool_proj -> inception_5a/pool_proj
I1126 10:46:50.555423 10450 cudnn_conv_layer.cpp:194] Reallocating workspace storage: 7428
I1126 10:46:50.555485 10450 net.cpp:150] Setting up inception_5a/pool_proj
I1126 10:46:50.555495 10450 net.cpp:157] Top shape: 32 128 7 7 (200704)
I1126 10:46:50.555498 10450 net.cpp:165] Memory required for data: 1740055560
I1126 10:46:50.555517 10450 layer_factory.hpp:76] Creating layer inception_5a/prelu_pool_proj
I1126 10:46:50.555534 10450 net.cpp:106] Creating Layer inception_5a/prelu_pool_proj
I1126 10:46:50.555552 10450 net.cpp:454] inception_5a/prelu_pool_proj <- inception_5a/pool_proj
I1126 10:46:50.555564 10450 net.cpp:397] inception_5a/prelu_pool_proj -> inception_5a/pool_proj (in-place)
I1126 10:46:50.555749 10450 net.cpp:150] Setting up inception_5a/prelu_pool_proj
I1126 10:46:50.555759 10450 net.cpp:157] Top shape: 32 128 7 7 (200704)
I1126 10:46:50.555763 10450 net.cpp:165] Memory required for data: 1740858376
I1126 10:46:50.555769 10450 layer_factory.hpp:76] Creating layer inception_5a/output
I1126 10:46:50.555779 10450 net.cpp:106] Creating Layer inception_5a/output
I1126 10:46:50.555784 10450 net.cpp:454] inception_5a/output <- inception_5a/1x1
I1126 10:46:50.555791 10450 net.cpp:454] inception_5a/output <- inception_5a/3x3
I1126 10:46:50.555796 10450 net.cpp:454] inception_5a/output <- inception_5a/5x5
I1126 10:46:50.555802 10450 net.cpp:454] inception_5a/output <- inception_5a/pool_proj
I1126 10:46:50.555807 10450 net.cpp:411] inception_5a/output -> inception_5a/output
I1126 10:46:50.555845 10450 net.cpp:150] Setting up inception_5a/output
I1126 10:46:50.555853 10450 net.cpp:157] Top shape: 32 832 7 7 (1304576)
I1126 10:46:50.555857 10450 net.cpp:165] Memory required for data: 1746076680
I1126 10:46:50.555861 10450 layer_factory.hpp:76] Creating layer inception_5a/output_inception_5a/output_0_split
I1126 10:46:50.555868 10450 net.cpp:106] Creating Layer inception_5a/output_inception_5a/output_0_split
I1126 10:46:50.555873 10450 net.cpp:454] inception_5a/output_inception_5a/output_0_split <- inception_5a/output
I1126 10:46:50.555882 10450 net.cpp:411] inception_5a/output_inception_5a/output_0_split -> inception_5a/output_inception_5a/output_0_split_0
I1126 10:46:50.555901 10450 net.cpp:411] inception_5a/output_inception_5a/output_0_split -> inception_5a/output_inception_5a/output_0_split_1
I1126 10:46:50.555908 10450 net.cpp:411] inception_5a/output_inception_5a/output_0_split -> inception_5a/output_inception_5a/output_0_split_2
I1126 10:46:50.555924 10450 net.cpp:411] inception_5a/output_inception_5a/output_0_split -> inception_5a/output_inception_5a/output_0_split_3
I1126 10:46:50.556010 10450 net.cpp:150] Setting up inception_5a/output_inception_5a/output_0_split
I1126 10:46:50.556017 10450 net.cpp:157] Top shape: 32 832 7 7 (1304576)
I1126 10:46:50.556022 10450 net.cpp:157] Top shape: 32 832 7 7 (1304576)
I1126 10:46:50.556026 10450 net.cpp:157] Top shape: 32 832 7 7 (1304576)
I1126 10:46:50.556031 10450 net.cpp:157] Top shape: 32 832 7 7 (1304576)
I1126 10:46:50.556056 10450 net.cpp:165] Memory required for data: 1766949896
I1126 10:46:50.556061 10450 layer_factory.hpp:76] Creating layer inception_5b/1x1
I1126 10:46:50.556071 10450 net.cpp:106] Creating Layer inception_5b/1x1
I1126 10:46:50.556077 10450 net.cpp:454] inception_5b/1x1 <- inception_5a/output_inception_5a/output_0_split_0
I1126 10:46:50.556083 10450 net.cpp:411] inception_5b/1x1 -> inception_5b/1x1
I1126 10:46:50.560195 10450 cudnn_conv_layer.cpp:194] Reallocating workspace storage: 7428
I1126 10:46:50.560247 10450 net.cpp:150] Setting up inception_5b/1x1
I1126 10:46:50.560267 10450 net.cpp:157] Top shape: 32 384 7 7 (602112)
I1126 10:46:50.560272 10450 net.cpp:165] Memory required for data: 1769358344
I1126 10:46:50.560292 10450 layer_factory.hpp:76] Creating layer inception_5b/prelu_1x1
I1126 10:46:50.560307 10450 net.cpp:106] Creating Layer inception_5b/prelu_1x1
I1126 10:46:50.560313 10450 net.cpp:454] inception_5b/prelu_1x1 <- inception_5b/1x1
I1126 10:46:50.560322 10450 net.cpp:397] inception_5b/prelu_1x1 -> inception_5b/1x1 (in-place)
I1126 10:46:50.561022 10450 net.cpp:150] Setting up inception_5b/prelu_1x1
I1126 10:46:50.561038 10450 net.cpp:157] Top shape: 32 384 7 7 (602112)
I1126 10:46:50.561043 10450 net.cpp:165] Memory required for data: 1771766792
I1126 10:46:50.561050 10450 layer_factory.hpp:76] Creating layer inception_5b/3x3_reduce
I1126 10:46:50.561064 10450 net.cpp:106] Creating Layer inception_5b/3x3_reduce
I1126 10:46:50.561070 10450 net.cpp:454] inception_5b/3x3_reduce <- inception_5a/output_inception_5a/output_0_split_1
I1126 10:46:50.561079 10450 net.cpp:411] inception_5b/3x3_reduce -> inception_5b/3x3_reduce
I1126 10:46:50.564000 10450 cudnn_conv_layer.cpp:194] Reallocating workspace storage: 7428
I1126 10:46:50.564045 10450 net.cpp:150] Setting up inception_5b/3x3_reduce
I1126 10:46:50.564057 10450 net.cpp:157] Top shape: 32 192 7 7 (301056)
I1126 10:46:50.564061 10450 net.cpp:165] Memory required for data: 1772971016
I1126 10:46:50.564072 10450 layer_factory.hpp:76] Creating layer inception_5b/prelu_3x3_reduce
I1126 10:46:50.564082 10450 net.cpp:106] Creating Layer inception_5b/prelu_3x3_reduce
I1126 10:46:50.564090 10450 net.cpp:454] inception_5b/prelu_3x3_reduce <- inception_5b/3x3_reduce
I1126 10:46:50.564098 10450 net.cpp:397] inception_5b/prelu_3x3_reduce -> inception_5b/3x3_reduce (in-place)
I1126 10:46:50.564213 10450 net.cpp:150] Setting up inception_5b/prelu_3x3_reduce
I1126 10:46:50.564221 10450 net.cpp:157] Top shape: 32 192 7 7 (301056)
I1126 10:46:50.564225 10450 net.cpp:165] Memory required for data: 1774175240
I1126 10:46:50.564230 10450 layer_factory.hpp:76] Creating layer inception_5b/3x3
I1126 10:46:50.564242 10450 net.cpp:106] Creating Layer inception_5b/3x3
I1126 10:46:50.564247 10450 net.cpp:454] inception_5b/3x3 <- inception_5b/3x3_reduce
I1126 10:46:50.564254 10450 net.cpp:411] inception_5b/3x3 -> inception_5b/3x3
I1126 10:46:50.570399 10450 cudnn_conv_layer.cpp:194] Reallocating workspace storage: 7788
I1126 10:46:50.570448 10450 net.cpp:150] Setting up inception_5b/3x3
I1126 10:46:50.570461 10450 net.cpp:157] Top shape: 32 384 7 7 (602112)
I1126 10:46:50.570472 10450 net.cpp:165] Memory required for data: 1776583688
I1126 10:46:50.570482 10450 layer_factory.hpp:76] Creating layer inception_5b/prelu_3x3
I1126 10:46:50.570503 10450 net.cpp:106] Creating Layer inception_5b/prelu_3x3
I1126 10:46:50.570510 10450 net.cpp:454] inception_5b/prelu_3x3 <- inception_5b/3x3
I1126 10:46:50.570518 10450 net.cpp:397] inception_5b/prelu_3x3 -> inception_5b/3x3 (in-place)
I1126 10:46:50.570637 10450 net.cpp:150] Setting up inception_5b/prelu_3x3
I1126 10:46:50.570647 10450 net.cpp:157] Top shape: 32 384 7 7 (602112)
I1126 10:46:50.570650 10450 net.cpp:165] Memory required for data: 1778992136
I1126 10:46:50.570655 10450 layer_factory.hpp:76] Creating layer inception_5b/5x5_reduce
I1126 10:46:50.570667 10450 net.cpp:106] Creating Layer inception_5b/5x5_reduce
I1126 10:46:50.570672 10450 net.cpp:454] inception_5b/5x5_reduce <- inception_5a/output_inception_5a/output_0_split_2
I1126 10:46:50.570698 10450 net.cpp:411] inception_5b/5x5_reduce -> inception_5b/5x5_reduce
I1126 10:46:50.571867 10450 cudnn_conv_layer.cpp:194] Reallocating workspace storage: 7428
I1126 10:46:50.571892 10450 net.cpp:150] Setting up inception_5b/5x5_reduce
I1126 10:46:50.571899 10450 net.cpp:157] Top shape: 32 48 7 7 (75264)
I1126 10:46:50.571903 10450 net.cpp:165] Memory required for data: 1779293192
I1126 10:46:50.571910 10450 layer_factory.hpp:76] Creating layer inception_5b/prelu_5x5_reduce
I1126 10:46:50.571918 10450 net.cpp:106] Creating Layer inception_5b/prelu_5x5_reduce
I1126 10:46:50.571923 10450 net.cpp:454] inception_5b/prelu_5x5_reduce <- inception_5b/5x5_reduce
I1126 10:46:50.571929 10450 net.cpp:397] inception_5b/prelu_5x5_reduce -> inception_5b/5x5_reduce (in-place)
I1126 10:46:50.572041 10450 net.cpp:150] Setting up inception_5b/prelu_5x5_reduce
I1126 10:46:50.572049 10450 net.cpp:157] Top shape: 32 48 7 7 (75264)
I1126 10:46:50.572053 10450 net.cpp:165] Memory required for data: 1779594248
I1126 10:46:50.572058 10450 layer_factory.hpp:76] Creating layer inception_5b/5x5
I1126 10:46:50.572067 10450 net.cpp:106] Creating Layer inception_5b/5x5
I1126 10:46:50.572072 10450 net.cpp:454] inception_5b/5x5 <- inception_5b/5x5_reduce
I1126 10:46:50.572080 10450 net.cpp:411] inception_5b/5x5 -> inception_5b/5x5
I1126 10:46:50.574177 10450 cudnn_conv_layer.cpp:194] Reallocating workspace storage: 9804
I1126 10:46:50.574213 10450 net.cpp:150] Setting up inception_5b/5x5
I1126 10:46:50.574224 10450 net.cpp:157] Top shape: 32 128 7 7 (200704)
I1126 10:46:50.574230 10450 net.cpp:165] Memory required for data: 1780397064
I1126 10:46:50.574244 10450 layer_factory.hpp:76] Creating layer inception_5b/prelu_5x5
I1126 10:46:50.574254 10450 net.cpp:106] Creating Layer inception_5b/prelu_5x5
I1126 10:46:50.574262 10450 net.cpp:454] inception_5b/prelu_5x5 <- inception_5b/5x5
I1126 10:46:50.574273 10450 net.cpp:397] inception_5b/prelu_5x5 -> inception_5b/5x5 (in-place)
I1126 10:46:50.574426 10450 net.cpp:150] Setting up inception_5b/prelu_5x5
I1126 10:46:50.574439 10450 net.cpp:157] Top shape: 32 128 7 7 (200704)
I1126 10:46:50.574445 10450 net.cpp:165] Memory required for data: 1781199880
I1126 10:46:50.574453 10450 layer_factory.hpp:76] Creating layer inception_5b/pool
I1126 10:46:50.574468 10450 net.cpp:106] Creating Layer inception_5b/pool
I1126 10:46:50.574476 10450 net.cpp:454] inception_5b/pool <- inception_5a/output_inception_5a/output_0_split_3
I1126 10:46:50.574486 10450 net.cpp:411] inception_5b/pool -> inception_5b/pool
I1126 10:46:50.574975 10450 net.cpp:150] Setting up inception_5b/pool
I1126 10:46:50.574988 10450 net.cpp:157] Top shape: 32 832 7 7 (1304576)
I1126 10:46:50.574995 10450 net.cpp:165] Memory required for data: 1786418184
I1126 10:46:50.575002 10450 layer_factory.hpp:76] Creating layer inception_5b/pool_proj
I1126 10:46:50.575016 10450 net.cpp:106] Creating Layer inception_5b/pool_proj
I1126 10:46:50.575023 10450 net.cpp:454] inception_5b/pool_proj <- inception_5b/pool
I1126 10:46:50.575034 10450 net.cpp:411] inception_5b/pool_proj -> inception_5b/pool_proj
I1126 10:46:50.578141 10450 cudnn_conv_layer.cpp:194] Reallocating workspace storage: 7428
I1126 10:46:50.578198 10450 net.cpp:150] Setting up inception_5b/pool_proj
I1126 10:46:50.578209 10450 net.cpp:157] Top shape: 32 128 7 7 (200704)
I1126 10:46:50.578225 10450 net.cpp:165] Memory required for data: 1787221000
I1126 10:46:50.578244 10450 layer_factory.hpp:76] Creating layer inception_5b/prelu_pool_proj
I1126 10:46:50.578260 10450 net.cpp:106] Creating Layer inception_5b/prelu_pool_proj
I1126 10:46:50.578269 10450 net.cpp:454] inception_5b/prelu_pool_proj <- inception_5b/pool_proj
I1126 10:46:50.578277 10450 net.cpp:397] inception_5b/prelu_pool_proj -> inception_5b/pool_proj (in-place)
I1126 10:46:50.578402 10450 net.cpp:150] Setting up inception_5b/prelu_pool_proj
I1126 10:46:50.578409 10450 net.cpp:157] Top shape: 32 128 7 7 (200704)
I1126 10:46:50.578413 10450 net.cpp:165] Memory required for data: 1788023816
I1126 10:46:50.578419 10450 layer_factory.hpp:76] Creating layer inception_5b/output
I1126 10:46:50.578447 10450 net.cpp:106] Creating Layer inception_5b/output
I1126 10:46:50.578452 10450 net.cpp:454] inception_5b/output <- inception_5b/1x1
I1126 10:46:50.578459 10450 net.cpp:454] inception_5b/output <- inception_5b/3x3
I1126 10:46:50.578462 10450 net.cpp:454] inception_5b/output <- inception_5b/5x5
I1126 10:46:50.578467 10450 net.cpp:454] inception_5b/output <- inception_5b/pool_proj
I1126 10:46:50.578474 10450 net.cpp:411] inception_5b/output -> inception_5b/output
I1126 10:46:50.578506 10450 net.cpp:150] Setting up inception_5b/output
I1126 10:46:50.578513 10450 net.cpp:157] Top shape: 32 1024 7 7 (1605632)
I1126 10:46:50.578517 10450 net.cpp:165] Memory required for data: 1794446344
I1126 10:46:50.578521 10450 layer_factory.hpp:76] Creating layer pool5/7x7_s1
I1126 10:46:50.578528 10450 net.cpp:106] Creating Layer pool5/7x7_s1
I1126 10:46:50.578533 10450 net.cpp:454] pool5/7x7_s1 <- inception_5b/output
I1126 10:46:50.578541 10450 net.cpp:411] pool5/7x7_s1 -> pool5/7x7_s1
I1126 10:46:50.578717 10450 net.cpp:150] Setting up pool5/7x7_s1
I1126 10:46:50.578727 10450 net.cpp:157] Top shape: 32 1024 1 1 (32768)
I1126 10:46:50.578730 10450 net.cpp:165] Memory required for data: 1794577416
I1126 10:46:50.578734 10450 layer_factory.hpp:76] Creating layer pool5/drop_7x7_s1
I1126 10:46:50.578742 10450 net.cpp:106] Creating Layer pool5/drop_7x7_s1
I1126 10:46:50.578747 10450 net.cpp:454] pool5/drop_7x7_s1 <- pool5/7x7_s1
I1126 10:46:50.578752 10450 net.cpp:397] pool5/drop_7x7_s1 -> pool5/7x7_s1 (in-place)
I1126 10:46:50.578783 10450 net.cpp:150] Setting up pool5/drop_7x7_s1
I1126 10:46:50.578789 10450 net.cpp:157] Top shape: 32 1024 1 1 (32768)
I1126 10:46:50.578794 10450 net.cpp:165] Memory required for data: 1794708488
I1126 10:46:50.578797 10450 layer_factory.hpp:76] Creating layer loss3/classifier2
I1126 10:46:50.578804 10450 net.cpp:106] Creating Layer loss3/classifier2
I1126 10:46:50.578809 10450 net.cpp:454] loss3/classifier2 <- pool5/7x7_s1
I1126 10:46:50.578816 10450 net.cpp:411] loss3/classifier2 -> loss3/classifier
I1126 10:46:50.578969 10450 net.cpp:150] Setting up loss3/classifier2
I1126 10:46:50.578975 10450 net.cpp:157] Top shape: 32 2 (64)
I1126 10:46:50.578979 10450 net.cpp:165] Memory required for data: 1794708744
I1126 10:46:50.578986 10450 layer_factory.hpp:76] Creating layer loss3/loss3
I1126 10:46:50.578994 10450 net.cpp:106] Creating Layer loss3/loss3
I1126 10:46:50.579000 10450 net.cpp:454] loss3/loss3 <- loss3/classifier
I1126 10:46:50.579005 10450 net.cpp:454] loss3/loss3 <- label_data_1_split_2
I1126 10:46:50.579011 10450 net.cpp:411] loss3/loss3 -> loss3/loss3
…
I1126 10:46:50.593300 10450 net.cpp:322] The NetState phase (1) differed from the phase (0) specified by a rule in layer data
I1126 10:46:50.594347 10450 net.cpp:49] Initializing net from parameters: 
name: "GoogleNet"
state {
  phase: TEST
}
layer {
  name: "data"
  type: "Data"
  top: "data"
  top: "label"
  include {
    phase: TEST
  }
  transform_param {
    mirror: false
    crop_size: 224
    mean_value: 104
    mean_value: 117
    mean_value: 123
  }
  data_param {
    source: "../../LMDB/val_9-lmdb"
    batch_size: 50
    backend: LMDB
  }
}
layer {
  name: "conv1/7x7_s2"
  type: "Convolution"
  bottom: "data"
  top: "conv1/7x7_s2"
  param {
    lr_mult: 1
    decay_mult: 1
  }
  param {
    lr_mult: 2
    decay_mult: 0
  }
  convolution_param {
    num_output: 64
    pad: 3
    kernel_size: 7
    stride: 2
    weight_filler {
      type: "xavier"
    }
    bias_filler {
      type: "constant"
      value: 0.2
    }
  }
}
layer {
  name: "conv1/prelu_7x7"
  type: "PReLU"
  bottom: "conv1/7x7_s2"
  top: "conv1/7x7_s2"
  param {
    lr_mult: 1
    decay_mult: 0
  }
  prelu_param {
    filler {
      type: "constant"
      value: 0.01
    }
  }
}
layer {
  name: "pool1/3x3_s2"
  type: "Pooling"
  bottom: "conv1/7x7_s2"
  top: "pool1/3x3_s2"
  pooling_param {
    pool: MAX
    kernel_size: 3
    stride: 2
  }
}
layer {
  name: "pool1/norm1"
  type: "LRN"
  bottom: "pool1/3x3_s2"
  top: "pool1/norm1"
  lrn_param {
    local_size: 5
    alpha: 0.0001
    beta: 0.75
  }
}
layer {
  name: "conv2/3x3_reduce"
  type: "Convolution"
  bottom: "pool1/norm1"
  top: "conv2/3x3_reduce"
  param {
    lr_mult: 1
    decay_mult: 1
  }
  param {
    lr_mult: 2
    decay_mult: 0
  }
  convolution_param {
    num_output: 64
    kernel_size: 1
    weight_filler {
      type: "xavier"
    }
    bias_filler {
      type: "constant"
      value: 0.2
    }
  }
}
layer {
  name: "conv2/prelu_3x3_reduce"
  type: "PReLU"
  bottom: "conv2/3x3_reduce"
  top: "conv2/3x3_reduce"
  param {
    lr_mult: 1
    decay_mult: 0
  }
  prelu_param {
    filler {
      type: "constant"
      value: 0.01
    }
  }
}
layer {
  name: "conv2/3x3"
  type: "Convolution"
  bottom: "conv2/3x3_reduce"
  top: "conv2/3x3"
  param {
    lr_mult: 1
    decay_mult: 1
  }
  param {
    lr_mult: 2
    decay_mult: 0
  }
  convolution_param {
    num_output: 192
    pad: 1
    kernel_size: 3
    weight_filler {
      type: "xavier"
    }
    bias_filler {
      type: "constant"
      value: 0.2
    }
  }
}
layer {
  name: "conv2/prelu_3x3"
  type: "PReLU"
  bottom: "conv2/3x3"
  top: "conv2/3x3"
  param {
    lr_mult: 1
    decay_mult: 0
  }
  prelu_param {
    filler {
      type: "constant"
      value: 0.01
    }
  }
}
layer {
  name: "conv2/norm2"
  type: "LRN"
  bottom: "conv2/3x3"
  top: "conv2/norm2"
  lrn_param {
    local_size: 5
    alpha: 0.0001
    beta: 0.75
  }
}
layer {
  name: "pool2/3x3_s2"
  type: "Pooling"
  bottom: "conv2/norm2"
  top: "pool2/3x3_s2"
  pooling_param {
    pool: MAX
    kernel_size: 3
    stride: 2
  }
}
layer {
  name: "inception_3a/1x1"
  type: "Convolution"
  bottom: "pool2/3x3_s2"
  top: "inception_3a/1x1"
  param {
    lr_mult: 1
    decay_mult: 1
  }
  param {
    lr_mult: 2
    decay_mult: 0
  }
  convolution_param {
    num_output: 64
    kernel_size: 1
    weight_filler {
      type: "xavier"
    }
    bias_filler {
      type: "constant"
      value: 0.2
    }
  }
}
layer {
  name: "inception_3a/prelu_1x1"
  type: "PReLU"
  bottom: "inception_3a/1x1"
  top: "inception_3a/1x1"
  param {
    lr_mult: 1
    decay_mult: 0
  }
  prelu_param {
    filler {
      type: "constant"
      value: 0.01
    }
  }
}
layer {
  name: "inception_3a/3x3_reduce"
  type: "Convolution"
  bottom: "pool2/3x3_s2"
  top: "inception_3a/3x3_reduce"
  param {
    lr_mult: 1
    decay_mult: 1
  }
  param {
    lr_mult: 2
    decay_mult: 0
  }
  convolution_param {
    num_output: 96
    kernel_size: 1
    weight_filler {
      type: "xavier"
    }
    bias_filler {
      type: "constant"
      value: 0.2
    }
  }
}
layer {
  name: "inception_3a/prelu_3x3_reduce"
  type: "PReLU"
  bottom: "inception_3a/3x3_reduce"
  top: "inception_3a/3x3_reduce"
  param {
    lr_mult: 1
    decay_mult: 0
  }
  prelu_param {
    filler {
      type: "constant"
      value: 0.01
    }
  }
}
layer {
  name: "inception_3a/3x3"
  type: "Convolution"
  bottom: "inception_3a/3x3_reduce"
  top: "inception_3a/3x3"
  param {
    lr_mult: 1
    decay_mult: 1
  }
  param {
    lr_mult: 2
    decay_mult: 0
  }
  convolution_param {
    num_output: 128
    pad: 1
    kernel_size: 3
    weight_filler {
      type: "xavier"
    }
    bias_filler {
      type: "constant"
      value: 0.2
    }
  }
}
layer {
  name: "inception_3a/prelu_3x3"
  type: "PReLU"
  bottom: "inception_3a/3x3"
  top: "inception_3a/3x3"
  param {
    lr_mult: 1
    decay_mult: 0
  }
  prelu_param {
    filler {
      type: "constant"
      value: 0.01
    }
  }
}
layer {
  name: "inception_3a/5x5_reduce"
  type: "Convolution"
  bottom: "pool2/3x3_s2"
  top: "inception_3a/5x5_reduce"
  param {
    lr_mult: 1
    decay_mult: 1
  }
  param {
    lr_mult: 2
    decay_mult: 0
  }
  convolution_param {
    num_output: 16
    kernel_size: 1
    weight_filler {
      type: "xavier"
    }
    bias_filler {
      type: "constant"
      value: 0.2
    }
  }
}
layer {
  name: "inception_3a/prelu_5x5_reduce"
  type: "PReLU"
  bottom: "inception_3a/5x5_reduce"
  top: "inception_3a/5x5_reduce"
  param {
    lr_mult: 1
    decay_mult: 0
  }
  prelu_param {
    filler {
      type: "constant"
      value: 0.01
    }
  }
}
layer {
  name: "inception_3a/5x5"
  type: "Convolution"
  bottom: "inception_3a/5x5_reduce"
  top: "inception_3a/5x5"
  param {
    lr_mult: 1
    decay_mult: 1
  }
  param {
    lr_mult: 2
    decay_mult: 0
  }
  convolution_param {
    num_output: 32
    pad: 2
    kernel_size: 5
    weight_filler {
      type: "xavier"
    }
    bias_filler {
      type: "constant"
      value: 0.2
    }
  }
}
layer {
  name: "inception_3a/prelu_5x5"
  type: "PReLU"
  bottom: "inception_3a/5x5"
  top: "inception_3a/5x5"
  param {
    lr_mult: 1
    decay_mult: 0
  }
  prelu_param {
    filler {
      type: "constant"
      value: 0.01
    }
  }
}
layer {
  name: "inception_3a/pool"
  type: "Pooling"
  bottom: "pool2/3x3_s2"
  top: "inception_3a/pool"
  pooling_param {
    pool: MAX
    kernel_size: 3
    stride: 1
    pad: 1
  }
}
layer {
  name: "inception_3a/pool_proj"
  type: "Convolution"
  bottom: "inception_3a/pool"
  top: "inception_3a/pool_proj"
  param {
    lr_mult: 1
    decay_mult: 1
  }
  param {
    lr_mult: 2
    decay_mult: 0
  }
  convolution_param {
    num_output: 32
    kernel_size: 1
    weight_filler {
      type: "xavier"
    }
    bias_filler {
      type: "constant"
      value: 0.2
    }
  }
}
layer {
  name: "inception_3a/prelu_pool_proj"
  type: "PReLU"
  bottom: "inception_3a/pool_proj"
  top: "inception_3a/pool_proj"
  param {
    lr_mult: 1
    decay_mult: 0
  }
  prelu_param {
    filler {
      type: "constant"
      value: 0.01
    }
  }
}
layer {
  name: "inception_3a/output"
  type: "Concat"
  bottom: "inception_3a/1x1"
  bottom: "inception_3a/3x3"
  bottom: "inception_3a/5x5"
  bottom: "inception_3a/pool_proj"
  top: "inception_3a/output"
}
layer {
  name: "inception_3b/1x1"
  type: "Convolution"
  bottom: "inception_3a/output"
  top: "inception_3b/1x1"
  param {
    lr_mult: 1
    decay_mult: 1
  }
  param {
    lr_mult: 2
    decay_mult: 0
  }
  convolution_param {
    num_output: 128
    kernel_size: 1
    weight_filler {
      type: "xavier"
    }
    bias_filler {
      type: "constant"
      value: 0.2
    }
  }
}
layer {
  name: "inception_3b/prelu_1x1"
  type: "PReLU"
  bottom: "inception_3b/1x1"
  top: "inception_3b/1x1"
  param {
    lr_mult: 1
    decay_mult: 0
  }
  prelu_param {
    filler {
      type: "constant"
      value: 0.01
    }
  }
}
layer {
  name: "inception_3b/3x3_reduce"
  type: "Convolution"
  bottom: "inception_3a/output"
  top: "inception_3b/3x3_reduce"
  param {
    lr_mult: 1
    decay_mult: 1
  }
  param {
    lr_mult: 2
    decay_mult: 0
  }
  convolution_param {
    num_output: 128
    kernel_size: 1
    weight_filler {
      type: "xavier"
    }
    bias_filler {
      type: "constant"
      value: 0.2
    }
  }
}
layer {
  name: "inception_3b/prelu_3x3_reduce"
  type: "PReLU"
  bottom: "inception_3b/3x3_reduce"
  top: "inception_3b/3x3_reduce"
  param {
    lr_mult: 1
    decay_mult: 0
  }
  prelu_param {
    filler {
      type: "constant"
      value: 0.01
    }
  }
}
layer {
  name: "inception_3b/3x3"
  type: "Convolution"
  bottom: "inception_3b/3x3_reduce"
  top: "inception_3b/3x3"
  param {
    lr_mult: 1
    decay_mult: 1
  }
  param {
    lr_mult: 2
    decay_mult: 0
  }
  convolution_param {
    num_output: 192
    pad: 1
…
I1126 10:46:51.046735 10450 net.cpp:106] Creating Layer inception_4c/output
I1126 10:46:51.046739 10450 net.cpp:454] inception_4c/output <- inception_4c/1x1
I1126 10:46:51.046744 10450 net.cpp:454] inception_4c/output <- inception_4c/3x3
I1126 10:46:51.046748 10450 net.cpp:454] inception_4c/output <- inception_4c/5x5
I1126 10:46:51.046752 10450 net.cpp:454] inception_4c/output <- inception_4c/pool_proj
I1126 10:46:51.046758 10450 net.cpp:411] inception_4c/output -> inception_4c/output
I1126 10:46:51.046780 10450 net.cpp:150] Setting up inception_4c/output
I1126 10:46:51.046787 10450 net.cpp:157] Top shape: 50 512 14 14 (5017600)
I1126 10:46:51.046792 10450 net.cpp:165] Memory required for data: 2234652208
I1126 10:46:51.046795 10450 layer_factory.hpp:76] Creating layer inception_4c/output_inception_4c/output_0_split
I1126 10:46:51.046803 10450 net.cpp:106] Creating Layer inception_4c/output_inception_4c/output_0_split
I1126 10:46:51.046808 10450 net.cpp:454] inception_4c/output_inception_4c/output_0_split <- inception_4c/output
I1126 10:46:51.046813 10450 net.cpp:411] inception_4c/output_inception_4c/output_0_split -> inception_4c/output_inception_4c/output_0_split_0
I1126 10:46:51.093899 10450 net.cpp:411] inception_4c/output_inception_4c/output_0_split -> inception_4c/output_inception_4c/output_0_split_1
I1126 10:46:51.093917 10450 net.cpp:411] inception_4c/output_inception_4c/output_0_split -> inception_4c/output_inception_4c/output_0_split_2
I1126 10:46:51.093950 10450 net.cpp:411] inception_4c/output_inception_4c/output_0_split -> inception_4c/output_inception_4c/output_0_split_3
I1126 10:46:51.094053 10450 net.cpp:150] Setting up inception_4c/output_inception_4c/output_0_split
I1126 10:46:51.094063 10450 net.cpp:157] Top shape: 50 512 14 14 (5017600)
I1126 10:46:51.094068 10450 net.cpp:157] Top shape: 50 512 14 14 (5017600)
I1126 10:46:51.094072 10450 net.cpp:157] Top shape: 50 512 14 14 (5017600)
I1126 10:46:51.094077 10450 net.cpp:157] Top shape: 50 512 14 14 (5017600)
I1126 10:46:51.094081 10450 net.cpp:165] Memory required for data: 2314933808
I1126 10:46:51.094086 10450 layer_factory.hpp:76] Creating layer inception_4d/1x1
I1126 10:46:51.094099 10450 net.cpp:106] Creating Layer inception_4d/1x1
I1126 10:46:51.094104 10450 net.cpp:454] inception_4d/1x1 <- inception_4c/output_inception_4c/output_0_split_0
I1126 10:46:51.094111 10450 net.cpp:411] inception_4d/1x1 -> inception_4d/1x1
I1126 10:46:51.097311 10450 cudnn_conv_layer.cpp:194] Reallocating workspace storage: 10080
I1126 10:46:51.097364 10450 net.cpp:150] Setting up inception_4d/1x1
I1126 10:46:51.097378 10450 net.cpp:157] Top shape: 50 112 14 14 (1097600)
I1126 10:46:51.097383 10450 net.cpp:165] Memory required for data: 2319324208
I1126 10:46:51.097398 10450 layer_factory.hpp:76] Creating layer inception_4d/prelu_1x1
I1126 10:46:51.097414 10450 net.cpp:106] Creating Layer inception_4d/prelu_1x1
I1126 10:46:51.097422 10450 net.cpp:454] inception_4d/prelu_1x1 <- inception_4d/1x1
I1126 10:46:51.097430 10450 net.cpp:397] inception_4d/prelu_1x1 -> inception_4d/1x1 (in-place)
I1126 10:46:51.097558 10450 net.cpp:150] Setting up inception_4d/prelu_1x1
I1126 10:46:51.097576 10450 net.cpp:157] Top shape: 50 112 14 14 (1097600)
I1126 10:46:51.097585 10450 net.cpp:165] Memory required for data: 2323714608
I1126 10:46:51.097597 10450 layer_factory.hpp:76] Creating layer inception_4d/3x3_reduce
I1126 10:46:51.097620 10450 net.cpp:106] Creating Layer inception_4d/3x3_reduce
I1126 10:46:51.097631 10450 net.cpp:454] inception_4d/3x3_reduce <- inception_4c/output_inception_4c/output_0_split_1
I1126 10:46:51.097646 10450 net.cpp:411] inception_4d/3x3_reduce -> inception_4d/3x3_reduce
I1126 10:46:51.100838 10450 cudnn_conv_layer.cpp:194] Reallocating workspace storage: 10080
I1126 10:46:51.100879 10450 net.cpp:150] Setting up inception_4d/3x3_reduce
I1126 10:46:51.100889 10450 net.cpp:157] Top shape: 50 144 14 14 (1411200)
I1126 10:46:51.100894 10450 net.cpp:165] Memory required for data: 2329359408
I1126 10:46:51.100903 10450 layer_factory.hpp:76] Creating layer inception_4d/prelu_3x3_reduce
I1126 10:46:51.100913 10450 net.cpp:106] Creating Layer inception_4d/prelu_3x3_reduce
I1126 10:46:51.100919 10450 net.cpp:454] inception_4d/prelu_3x3_reduce <- inception_4d/3x3_reduce
I1126 10:46:51.100929 10450 net.cpp:397] inception_4d/prelu_3x3_reduce -> inception_4d/3x3_reduce (in-place)
I1126 10:46:51.101078 10450 net.cpp:150] Setting up inception_4d/prelu_3x3_reduce
I1126 10:46:51.101088 10450 net.cpp:157] Top shape: 50 144 14 14 (1411200)
I1126 10:46:51.101091 10450 net.cpp:165] Memory required for data: 2335004208
I1126 10:46:51.101096 10450 layer_factory.hpp:76] Creating layer inception_4d/3x3
I1126 10:46:51.101107 10450 net.cpp:106] Creating Layer inception_4d/3x3
I1126 10:46:51.101112 10450 net.cpp:454] inception_4d/3x3 <- inception_4d/3x3_reduce
I1126 10:46:51.101120 10450 net.cpp:411] inception_4d/3x3 -> inception_4d/3x3
I1126 10:46:51.107064 10450 cudnn_conv_layer.cpp:194] Reallocating workspace storage: 10080
I1126 10:46:51.107125 10450 net.cpp:150] Setting up inception_4d/3x3
I1126 10:46:51.107139 10450 net.cpp:157] Top shape: 50 288 14 14 (2822400)
I1126 10:46:51.107146 10450 net.cpp:165] Memory required for data: 2346293808
I1126 10:46:51.107158 10450 layer_factory.hpp:76] Creating layer inception_4d/prelu_3x3
I1126 10:46:51.107174 10450 net.cpp:106] Creating Layer inception_4d/prelu_3x3
I1126 10:46:51.107183 10450 net.cpp:454] inception_4d/prelu_3x3 <- inception_4d/3x3
I1126 10:46:51.107221 10450 net.cpp:397] inception_4d/prelu_3x3 -> inception_4d/3x3 (in-place)
I1126 10:46:51.107916 10450 net.cpp:150] Setting up inception_4d/prelu_3x3
I1126 10:46:51.107928 10450 net.cpp:157] Top shape: 50 288 14 14 (2822400)
I1126 10:46:51.107933 10450 net.cpp:165] Memory required for data: 2357583408
I1126 10:46:51.107939 10450 layer_factory.hpp:76] Creating layer inception_4d/5x5_reduce
I1126 10:46:51.107950 10450 net.cpp:106] Creating Layer inception_4d/5x5_reduce
I1126 10:46:51.107956 10450 net.cpp:454] inception_4d/5x5_reduce <- inception_4c/output_inception_4c/output_0_split_2
I1126 10:46:51.107964 10450 net.cpp:411] inception_4d/5x5_reduce -> inception_4d/5x5_reduce
I1126 10:46:51.109670 10450 cudnn_conv_layer.cpp:194] Reallocating workspace storage: 10080
I1126 10:46:51.109731 10450 net.cpp:150] Setting up inception_4d/5x5_reduce
I1126 10:46:51.109745 10450 net.cpp:157] Top shape: 50 32 14 14 (313600)
I1126 10:46:51.109748 10450 net.cpp:165] Memory required for data: 2358837808
I1126 10:46:51.109758 10450 layer_factory.hpp:76] Creating layer inception_4d/prelu_5x5_reduce
I1126 10:46:51.109771 10450 net.cpp:106] Creating Layer inception_4d/prelu_5x5_reduce
I1126 10:46:51.109778 10450 net.cpp:454] inception_4d/prelu_5x5_reduce <- inception_4d/5x5_reduce
I1126 10:46:51.109787 10450 net.cpp:397] inception_4d/prelu_5x5_reduce -> inception_4d/5x5_reduce (in-place)
I1126 10:46:51.109894 10450 net.cpp:150] Setting up inception_4d/prelu_5x5_reduce
I1126 10:46:51.109904 10450 net.cpp:157] Top shape: 50 32 14 14 (313600)
I1126 10:46:51.109907 10450 net.cpp:165] Memory required for data: 2360092208
I1126 10:46:51.109913 10450 layer_factory.hpp:76] Creating layer inception_4d/5x5
I1126 10:46:51.109925 10450 net.cpp:106] Creating Layer inception_4d/5x5
I1126 10:46:51.109930 10450 net.cpp:454] inception_4d/5x5 <- inception_4d/5x5_reduce
I1126 10:46:51.109936 10450 net.cpp:411] inception_4d/5x5 -> inception_4d/5x5
I1126 10:46:51.111433 10450 cudnn_conv_layer.cpp:194] Reallocating workspace storage: 13080
I1126 10:46:51.111498 10450 net.cpp:150] Setting up inception_4d/5x5
I1126 10:46:51.111512 10450 net.cpp:157] Top shape: 50 64 14 14 (627200)
I1126 10:46:51.111518 10450 net.cpp:165] Memory required for data: 2362601008
I1126 10:46:51.111532 10450 layer_factory.hpp:76] Creating layer inception_4d/prelu_5x5
I1126 10:46:51.111554 10450 net.cpp:106] Creating Layer inception_4d/prelu_5x5
I1126 10:46:51.111563 10450 net.cpp:454] inception_4d/prelu_5x5 <- inception_4d/5x5
I1126 10:46:51.111572 10450 net.cpp:397] inception_4d/prelu_5x5 -> inception_4d/5x5 (in-place)
I1126 10:46:51.111701 10450 net.cpp:150] Setting up inception_4d/prelu_5x5
I1126 10:46:51.111723 10450 net.cpp:157] Top shape: 50 64 14 14 (627200)
I1126 10:46:51.111728 10450 net.cpp:165] Memory required for data: 2365109808
I1126 10:46:51.111737 10450 layer_factory.hpp:76] Creating layer inception_4d/pool
I1126 10:46:51.111749 10450 net.cpp:106] Creating Layer inception_4d/pool
I1126 10:46:51.111757 10450 net.cpp:454] inception_4d/pool <- inception_4c/output_inception_4c/output_0_split_3
I1126 10:46:51.111768 10450 net.cpp:411] inception_4d/pool -> inception_4d/pool
I1126 10:46:51.112375 10450 net.cpp:150] Setting up inception_4d/pool
I1126 10:46:51.112390 10450 net.cpp:157] Top shape: 50 512 14 14 (5017600)
I1126 10:46:51.112396 10450 net.cpp:165] Memory required for data: 2385180208
I1126 10:46:51.112401 10450 layer_factory.hpp:76] Creating layer inception_4d/pool_proj
I1126 10:46:51.112413 10450 net.cpp:106] Creating Layer inception_4d/pool_proj
I1126 10:46:51.112421 10450 net.cpp:454] inception_4d/pool_proj <- inception_4d/pool
I1126 10:46:51.112429 10450 net.cpp:411] inception_4d/pool_proj -> inception_4d/pool_proj
I1126 10:46:51.114138 10450 cudnn_conv_layer.cpp:194] Reallocating workspace storage: 10080
I1126 10:46:51.114187 10450 net.cpp:150] Setting up inception_4d/pool_proj
I1126 10:46:51.114195 10450 net.cpp:157] Top shape: 50 64 14 14 (627200)
I1126 10:46:51.114199 10450 net.cpp:165] Memory required for data: 2387689008
I1126 10:46:51.114208 10450 layer_factory.hpp:76] Creating layer inception_4d/prelu_pool_proj
I1126 10:46:51.114243 10450 net.cpp:106] Creating Layer inception_4d/prelu_pool_proj
I1126 10:46:51.114250 10450 net.cpp:454] inception_4d/prelu_pool_proj <- inception_4d/pool_proj
I1126 10:46:51.114258 10450 net.cpp:397] inception_4d/prelu_pool_proj -> inception_4d/pool_proj (in-place)
I1126 10:46:51.114357 10450 net.cpp:150] Setting up inception_4d/prelu_pool_proj
I1126 10:46:51.114365 10450 net.cpp:157] Top shape: 50 64 14 14 (627200)
I1126 10:46:51.114369 10450 net.cpp:165] Memory required for data: 2390197808
I1126 10:46:51.114375 10450 layer_factory.hpp:76] Creating layer inception_4d/output
I1126 10:46:51.114382 10450 net.cpp:106] Creating Layer inception_4d/output
I1126 10:46:51.114387 10450 net.cpp:454] inception_4d/output <- inception_4d/1x1
I1126 10:46:51.114393 10450 net.cpp:454] inception_4d/output <- inception_4d/3x3
I1126 10:46:51.114398 10450 net.cpp:454] inception_4d/output <- inception_4d/5x5
I1126 10:46:51.114403 10450 net.cpp:454] inception_4d/output <- inception_4d/pool_proj
I1126 10:46:51.114409 10450 net.cpp:411] inception_4d/output -> inception_4d/output
I1126 10:46:51.114434 10450 net.cpp:150] Setting up inception_4d/output
I1126 10:46:51.114441 10450 net.cpp:157] Top shape: 50 528 14 14 (5174400)
I1126 10:46:51.114445 10450 net.cpp:165] Memory required for data: 2410895408
I1126 10:46:51.114449 10450 layer_factory.hpp:76] Creating layer inception_4d/output_inception_4d/output_0_split
I1126 10:46:51.114457 10450 net.cpp:106] Creating Layer inception_4d/output_inception_4d/output_0_split
I1126 10:46:51.114462 10450 net.cpp:454] inception_4d/output_inception_4d/output_0_split <- inception_4d/output
I1126 10:46:51.114469 10450 net.cpp:411] inception_4d/output_inception_4d/output_0_split -> inception_4d/output_inception_4d/output_0_split_0
I1126 10:46:51.114475 10450 net.cpp:411] inception_4d/output_inception_4d/output_0_split -> inception_4d/output_inception_4d/output_0_split_1
I1126 10:46:51.114482 10450 net.cpp:411] inception_4d/output_inception_4d/output_0_split -> inception_4d/output_inception_4d/output_0_split_2
I1126 10:46:51.114491 10450 net.cpp:411] inception_4d/output_inception_4d/output_0_split -> inception_4d/output_inception_4d/output_0_split_3
I1126 10:46:51.114497 10450 net.cpp:411] inception_4d/output_inception_4d/output_0_split -> inception_4d/output_inception_4d/output_0_split_4
I1126 10:46:51.114557 10450 net.cpp:150] Setting up inception_4d/output_inception_4d/output_0_split
I1126 10:46:51.114565 10450 net.cpp:157] Top shape: 50 528 14 14 (5174400)
I1126 10:46:51.114570 10450 net.cpp:157] Top shape: 50 528 14 14 (5174400)
I1126 10:46:51.114575 10450 net.cpp:157] Top shape: 50 528 14 14 (5174400)
I1126 10:46:51.114580 10450 net.cpp:157] Top shape: 50 528 14 14 (5174400)
I1126 10:46:51.114585 10450 net.cpp:157] Top shape: 50 528 14 14 (5174400)
I1126 10:46:51.114589 10450 net.cpp:165] Memory required for data: 2514383408
I1126 10:46:51.114593 10450 layer_factory.hpp:76] Creating layer loss2/ave_pool
I1126 10:46:51.114600 10450 net.cpp:106] Creating Layer loss2/ave_pool
I1126 10:46:51.114605 10450 net.cpp:454] loss2/ave_pool <- inception_4d/output_inception_4d/output_0_split_0
I1126 10:46:51.114614 10450 net.cpp:411] loss2/ave_pool -> loss2/ave_pool
I1126 10:46:51.114809 10450 net.cpp:150] Setting up loss2/ave_pool
I1126 10:46:51.114820 10450 net.cpp:157] Top shape: 50 528 4 4 (422400)
I1126 10:46:51.114823 10450 net.cpp:165] Memory required for data: 2516073008
I1126 10:46:51.114827 10450 layer_factory.hpp:76] Creating layer loss2/conv
I1126 10:46:51.114841 10450 net.cpp:106] Creating Layer loss2/conv
I1126 10:46:51.114847 10450 net.cpp:454] loss2/conv <- loss2/ave_pool
I1126 10:46:51.114855 10450 net.cpp:411] loss2/conv -> loss2/conv
I1126 10:46:51.116483 10450 cudnn_conv_layer.cpp:194] Reallocating workspace storage: 6840
I1126 10:46:51.116523 10450 net.cpp:150] Setting up loss2/conv
I1126 10:46:51.116533 10450 net.cpp:157] Top shape: 50 128 4 4 (102400)
I1126 10:46:51.116538 10450 net.cpp:165] Memory required for data: 2516482608
I1126 10:46:51.116564 10450 layer_factory.hpp:76] Creating layer loss2/prelu_conv
I1126 10:46:51.116574 10450 net.cpp:106] Creating Layer loss2/prelu_conv
I1126 10:46:51.116580 10450 net.cpp:454] loss2/prelu_conv <- loss2/conv
I1126 10:46:51.116587 10450 net.cpp:397] loss2/prelu_conv -> loss2/conv (in-place)
I1126 10:46:51.116696 10450 net.cpp:150] Setting up loss2/prelu_conv
I1126 10:46:51.116704 10450 net.cpp:157] Top shape: 50 128 4 4 (102400)
I1126 10:46:51.116709 10450 net.cpp:165] Memory required for data: 2516892208
I1126 10:46:51.116736 10450 layer_factory.hpp:76] Creating layer loss2/fc
I1126 10:46:51.116749 10450 net.cpp:106] Creating Layer loss2/fc
I1126 10:46:51.116753 10450 net.cpp:454] loss2/fc <- loss2/conv
I1126 10:46:51.116760 10450 net.cpp:411] loss2/fc -> loss2/fc
I1126 10:46:51.136394 10450 net.cpp:150] Setting up loss2/fc
I1126 10:46:51.136453 10450 net.cpp:157] Top shape: 50 1024 (51200)
I1126 10:46:51.136461 10450 net.cpp:165] Memory required for data: 2517097008
I1126 10:46:51.136523 10450 layer_factory.hpp:76] Creating layer loss2/prelu_fc
I1126 10:46:51.136543 10450 net.cpp:106] Creating Layer loss2/prelu_fc
I1126 10:46:51.136554 10450 net.cpp:454] loss2/prelu_fc <- loss2/fc
I1126 10:46:51.136566 10450 net.cpp:397] loss2/prelu_fc -> loss2/fc (in-place)
I1126 10:46:51.136761 10450 net.cpp:150] Setting up loss2/prelu_fc
I1126 10:46:51.136778 10450 net.cpp:157] Top shape: 50 1024 (51200)
I1126 10:46:51.136785 10450 net.cpp:165] Memory required for data: 2517301808
I1126 10:46:51.136795 10450 layer_factory.hpp:76] Creating layer loss2/drop_fc
I1126 10:46:51.136808 10450 net.cpp:106] Creating Layer loss2/drop_fc
I1126 10:46:51.136816 10450 net.cpp:454] loss2/drop_fc <- loss2/fc
I1126 10:46:51.136829 10450 net.cpp:397] loss2/drop_fc -> loss2/fc (in-place)
I1126 10:46:51.136873 10450 net.cpp:150] Setting up loss2/drop_fc
I1126 10:46:51.136890 10450 net.cpp:157] Top shape: 50 1024 (51200)
I1126 10:46:51.136898 10450 net.cpp:165] Memory required for data: 2517506608
I1126 10:46:51.136906 10450 layer_factory.hpp:76] Creating layer loss2/classifier2
I1126 10:46:51.136920 10450 net.cpp:106] Creating Layer loss2/classifier2
I1126 10:46:51.136927 10450 net.cpp:454] loss2/classifier2 <- loss2/fc
I1126 10:46:51.136940 10450 net.cpp:411] loss2/classifier2 -> loss2/classifier
I1126 10:46:51.137169 10450 net.cpp:150] Setting up loss2/classifier2
I1126 10:46:51.137187 10450 net.cpp:157] Top shape: 50 2 (100)
I1126 10:46:51.137193 10450 net.cpp:165] Memory required for data: 2517507008
I1126 10:46:51.137205 10450 layer_factory.hpp:76] Creating layer loss2/classifier_loss2/classifier2_0_split
I1126 10:46:51.137215 10450 net.cpp:106] Creating Layer loss2/classifier_loss2/classifier2_0_split
I1126 10:46:51.137223 10450 net.cpp:454] loss2/classifier_loss2/classifier2_0_split <- loss2/classifier
I1126 10:46:51.137235 10450 net.cpp:411] loss2/classifier_loss2/classifier2_0_split -> loss2/classifier_loss2/classifier2_0_split_0
I1126 10:46:51.137248 10450 net.cpp:411] loss2/classifier_loss2/classifier2_0_split -> loss2/classifier_loss2/classifier2_0_split_1
I1126 10:46:51.137300 10450 net.cpp:150] Setting up loss2/classifier_loss2/classifier2_0_split
I1126 10:46:51.137311 10450 net.cpp:157] Top shape: 50 2 (100)
I1126 10:46:51.137320 10450 net.cpp:157] Top shape: 50 2 (100)
I1126 10:46:51.137326 10450 net.cpp:165] Memory required for data: 2517507808
I1126 10:46:51.137332 10450 layer_factory.hpp:76] Creating layer loss2/loss
I1126 10:46:51.137343 10450 net.cpp:106] Creating Layer loss2/loss
I1126 10:46:51.137351 10450 net.cpp:454] loss2/loss <- loss2/classifier_loss2/classifier2_0_split_0
I1126 10:46:51.137359 10450 net.cpp:454] loss2/loss <- label_data_1_split_2
…
I1126 10:46:51.138630 10450 net.cpp:165] Memory required for data: 2517507816
I1126 10:46:51.138636 10450 layer_factory.hpp:76] Creating layer inception_4e/1x1
I1126 10:46:51.138655 10450 net.cpp:106] Creating Layer inception_4e/1x1
I1126 10:46:51.138664 10450 net.cpp:454] inception_4e/1x1 <- inception_4d/output_inception_4d/output_0_split_1
I1126 10:46:51.138677 10450 net.cpp:411] inception_4e/1x1 -> inception_4e/1x1
I1126 10:46:51.142786 10450 cudnn_conv_layer.cpp:194] Reallocating workspace storage: 10080
I1126 10:46:51.142868 10450 net.cpp:150] Setting up inception_4e/1x1
I1126 10:46:51.142884 10450 net.cpp:157] Top shape: 50 256 14 14 (2508800)
I1126 10:46:51.142890 10450 net.cpp:165] Memory required for data: 2527543016
I1126 10:46:51.142911 10450 layer_factory.hpp:76] Creating layer inception_4e/prelu_1x1
I1126 10:46:51.142930 10450 net.cpp:106] Creating Layer inception_4e/prelu_1x1
I1126 10:46:51.142941 10450 net.cpp:454] inception_4e/prelu_1x1 <- inception_4e/1x1
I1126 10:46:51.142956 10450 net.cpp:397] inception_4e/prelu_1x1 -> inception_4e/1x1 (in-place)
I1126 10:46:51.143165 10450 net.cpp:150] Setting up inception_4e/prelu_1x1
I1126 10:46:51.143180 10450 net.cpp:157] Top shape: 50 256 14 14 (2508800)
I1126 10:46:51.143187 10450 net.cpp:165] Memory required for data: 2537578216
I1126 10:46:51.143198 10450 layer_factory.hpp:76] Creating layer inception_4e/3x3_reduce
I1126 10:46:51.143214 10450 net.cpp:106] Creating Layer inception_4e/3x3_reduce
I1126 10:46:51.143224 10450 net.cpp:454] inception_4e/3x3_reduce <- inception_4d/output_inception_4d/output_0_split_2
I1126 10:46:51.143239 10450 net.cpp:411] inception_4e/3x3_reduce -> inception_4e/3x3_reduce
I1126 10:46:51.146072 10450 cudnn_conv_layer.cpp:194] Reallocating workspace storage: 10080
I1126 10:46:51.146136 10450 net.cpp:150] Setting up inception_4e/3x3_reduce
I1126 10:46:51.146150 10450 net.cpp:157] Top shape: 50 160 14 14 (1568000)
I1126 10:46:51.146157 10450 net.cpp:165] Memory required for data: 2543850216
I1126 10:46:51.146172 10450 layer_factory.hpp:76] Creating layer inception_4e/prelu_3x3_reduce
I1126 10:46:51.146188 10450 net.cpp:106] Creating Layer inception_4e/prelu_3x3_reduce
I1126 10:46:51.146198 10450 net.cpp:454] inception_4e/prelu_3x3_reduce <- inception_4e/3x3_reduce
I1126 10:46:51.146209 10450 net.cpp:397] inception_4e/prelu_3x3_reduce -> inception_4e/3x3_reduce (in-place)
I1126 10:46:51.146383 10450 net.cpp:150] Setting up inception_4e/prelu_3x3_reduce
I1126 10:46:51.146395 10450 net.cpp:157] Top shape: 50 160 14 14 (1568000)
I1126 10:46:51.146402 10450 net.cpp:165] Memory required for data: 2550122216
I1126 10:46:51.146412 10450 layer_factory.hpp:76] Creating layer inception_4e/3x3
I1126 10:46:51.146448 10450 net.cpp:106] Creating Layer inception_4e/3x3
I1126 10:46:51.146456 10450 net.cpp:454] inception_4e/3x3 <- inception_4e/3x3_reduce
I1126 10:46:51.146467 10450 net.cpp:411] inception_4e/3x3 -> inception_4e/3x3
I1126 10:46:51.169045 10450 cudnn_conv_layer.cpp:194] Reallocating workspace storage: 10080
I1126 10:46:51.169131 10450 net.cpp:150] Setting up inception_4e/3x3
I1126 10:46:51.169148 10450 net.cpp:157] Top shape: 50 320 14 14 (3136000)
I1126 10:46:51.169155 10450 net.cpp:165] Memory required for data: 2562666216
I1126 10:46:51.169173 10450 layer_factory.hpp:76] Creating layer inception_4e/prelu_3x3
I1126 10:46:51.169194 10450 net.cpp:106] Creating Layer inception_4e/prelu_3x3
I1126 10:46:51.169205 10450 net.cpp:454] inception_4e/prelu_3x3 <- inception_4e/3x3
I1126 10:46:51.169255 10450 net.cpp:397] inception_4e/prelu_3x3 -> inception_4e/3x3 (in-place)
I1126 10:46:51.170282 10450 net.cpp:150] Setting up inception_4e/prelu_3x3
I1126 10:46:51.170307 10450 net.cpp:157] Top shape: 50 320 14 14 (3136000)
I1126 10:46:51.170313 10450 net.cpp:165] Memory required for data: 2575210216
I1126 10:46:51.170325 10450 layer_factory.hpp:76] Creating layer inception_4e/5x5_reduce
I1126 10:46:51.170344 10450 net.cpp:106] Creating Layer inception_4e/5x5_reduce
I1126 10:46:51.170353 10450 net.cpp:454] inception_4e/5x5_reduce <- inception_4d/output_inception_4d/output_0_split_3
I1126 10:46:51.170367 10450 net.cpp:411] inception_4e/5x5_reduce -> inception_4e/5x5_reduce
I1126 10:46:51.172132 10450 cudnn_conv_layer.cpp:194] Reallocating workspace storage: 10080
I1126 10:46:51.172183 10450 net.cpp:150] Setting up inception_4e/5x5_reduce
I1126 10:46:51.172196 10450 net.cpp:157] Top shape: 50 32 14 14 (313600)
I1126 10:46:51.172202 10450 net.cpp:165] Memory required for data: 2576464616
I1126 10:46:51.172214 10450 layer_factory.hpp:76] Creating layer inception_4e/prelu_5x5_reduce
I1126 10:46:51.172227 10450 net.cpp:106] Creating Layer inception_4e/prelu_5x5_reduce
I1126 10:46:51.172235 10450 net.cpp:454] inception_4e/prelu_5x5_reduce <- inception_4e/5x5_reduce
I1126 10:46:51.172245 10450 net.cpp:397] inception_4e/prelu_5x5_reduce -> inception_4e/5x5_reduce (in-place)
I1126 10:46:51.172384 10450 net.cpp:150] Setting up inception_4e/prelu_5x5_reduce
I1126 10:46:51.172394 10450 net.cpp:157] Top shape: 50 32 14 14 (313600)
I1126 10:46:51.172399 10450 net.cpp:165] Memory required for data: 2577719016
I1126 10:46:51.172405 10450 layer_factory.hpp:76] Creating layer inception_4e/5x5
I1126 10:46:51.172415 10450 net.cpp:106] Creating Layer inception_4e/5x5
I1126 10:46:51.172420 10450 net.cpp:454] inception_4e/5x5 <- inception_4e/5x5_reduce
I1126 10:46:51.172430 10450 net.cpp:411] inception_4e/5x5 -> inception_4e/5x5
I1126 10:46:51.175027 10450 cudnn_conv_layer.cpp:194] Reallocating workspace storage: 13080
I1126 10:46:51.175110 10450 net.cpp:150] Setting up inception_4e/5x5
I1126 10:46:51.175130 10450 net.cpp:157] Top shape: 50 128 14 14 (1254400)
I1126 10:46:51.175140 10450 net.cpp:165] Memory required for data: 2582736616
I1126 10:46:51.175158 10450 layer_factory.hpp:76] Creating layer inception_4e/prelu_5x5
I1126 10:46:51.175179 10450 net.cpp:106] Creating Layer inception_4e/prelu_5x5
I1126 10:46:51.175190 10450 net.cpp:454] inception_4e/prelu_5x5 <- inception_4e/5x5
I1126 10:46:51.175204 10450 net.cpp:397] inception_4e/prelu_5x5 -> inception_4e/5x5 (in-place)
I1126 10:46:51.175410 10450 net.cpp:150] Setting up inception_4e/prelu_5x5
I1126 10:46:51.175427 10450 net.cpp:157] Top shape: 50 128 14 14 (1254400)
I1126 10:46:51.175436 10450 net.cpp:165] Memory required for data: 2587754216
I1126 10:46:51.175449 10450 layer_factory.hpp:76] Creating layer inception_4e/pool
I1126 10:46:51.175464 10450 net.cpp:106] Creating Layer inception_4e/pool
I1126 10:46:51.175475 10450 net.cpp:454] inception_4e/pool <- inception_4d/output_inception_4d/output_0_split_4
I1126 10:46:51.175493 10450 net.cpp:411] inception_4e/pool -> inception_4e/pool
I1126 10:46:51.175940 10450 net.cpp:150] Setting up inception_4e/pool
I1126 10:46:51.175961 10450 net.cpp:157] Top shape: 50 528 14 14 (5174400)
I1126 10:46:51.175971 10450 net.cpp:165] Memory required for data: 2608451816
I1126 10:46:51.175979 10450 layer_factory.hpp:76] Creating layer inception_4e/pool_proj
I1126 10:46:51.175999 10450 net.cpp:106] Creating Layer inception_4e/pool_proj
I1126 10:46:51.176012 10450 net.cpp:454] inception_4e/pool_proj <- inception_4e/pool
I1126 10:46:51.176028 10450 net.cpp:411] inception_4e/pool_proj -> inception_4e/pool_proj
I1126 10:46:51.178138 10450 cudnn_conv_layer.cpp:194] Reallocating workspace storage: 10080
I1126 10:46:51.178184 10450 net.cpp:150] Setting up inception_4e/pool_proj
I1126 10:46:51.178194 10450 net.cpp:157] Top shape: 50 128 14 14 (1254400)
I1126 10:46:51.178197 10450 net.cpp:165] Memory required for data: 2613469416
I1126 10:46:51.178205 10450 layer_factory.hpp:76] Creating layer inception_4e/prelu_pool_proj
I1126 10:46:51.178242 10450 net.cpp:106] Creating Layer inception_4e/prelu_pool_proj
I1126 10:46:51.178248 10450 net.cpp:454] inception_4e/prelu_pool_proj <- inception_4e/pool_proj
I1126 10:46:51.178258 10450 net.cpp:397] inception_4e/prelu_pool_proj -> inception_4e/pool_proj (in-place)
I1126 10:46:51.178364 10450 net.cpp:150] Setting up inception_4e/prelu_pool_proj
I1126 10:46:51.178374 10450 net.cpp:157] Top shape: 50 128 14 14 (1254400)
I1126 10:46:51.178377 10450 net.cpp:165] Memory required for data: 2618487016
I1126 10:46:51.178383 10450 layer_factory.hpp:76] Creating layer inception_4e/output
I1126 10:46:51.178390 10450 net.cpp:106] Creating Layer inception_4e/output
I1126 10:46:51.178395 10450 net.cpp:454] inception_4e/output <- inception_4e/1x1
I1126 10:46:51.178401 10450 net.cpp:454] inception_4e/output <- inception_4e/3x3
I1126 10:46:51.178406 10450 net.cpp:454] inception_4e/output <- inception_4e/5x5
I1126 10:46:51.178411 10450 net.cpp:454] inception_4e/output <- inception_4e/pool_proj
I1126 10:46:51.178416 10450 net.cpp:411] inception_4e/output -> inception_4e/output
I1126 10:46:51.178445 10450 net.cpp:150] Setting up inception_4e/output
I1126 10:46:51.178452 10450 net.cpp:157] Top shape: 50 832 14 14 (8153600)
I1126 10:46:51.178457 10450 net.cpp:165] Memory required for data: 2651101416
I1126 10:46:51.178460 10450 layer_factory.hpp:76] Creating layer pool4/3x3_s2
I1126 10:46:51.178469 10450 net.cpp:106] Creating Layer pool4/3x3_s2
I1126 10:46:51.178474 10450 net.cpp:454] pool4/3x3_s2 <- inception_4e/output
I1126 10:46:51.178481 10450 net.cpp:411] pool4/3x3_s2 -> pool4/3x3_s2
I1126 10:46:51.178700 10450 net.cpp:150] Setting up pool4/3x3_s2
I1126 10:46:51.178710 10450 net.cpp:157] Top shape: 50 832 7 7 (2038400)
I1126 10:46:51.178714 10450 net.cpp:165] Memory required for data: 2659255016
I1126 10:46:51.178719 10450 layer_factory.hpp:76] Creating layer pool4/3x3_s2_pool4/3x3_s2_0_split
I1126 10:46:51.178727 10450 net.cpp:106] Creating Layer pool4/3x3_s2_pool4/3x3_s2_0_split
I1126 10:46:51.178732 10450 net.cpp:454] pool4/3x3_s2_pool4/3x3_s2_0_split <- pool4/3x3_s2
I1126 10:46:51.178738 10450 net.cpp:411] pool4/3x3_s2_pool4/3x3_s2_0_split -> pool4/3x3_s2_pool4/3x3_s2_0_split_0
I1126 10:46:51.178750 10450 net.cpp:411] pool4/3x3_s2_pool4/3x3_s2_0_split -> pool4/3x3_s2_pool4/3x3_s2_0_split_1
I1126 10:46:51.178756 10450 net.cpp:411] pool4/3x3_s2_pool4/3x3_s2_0_split -> pool4/3x3_s2_pool4/3x3_s2_0_split_2
I1126 10:46:51.178763 10450 net.cpp:411] pool4/3x3_s2_pool4/3x3_s2_0_split -> pool4/3x3_s2_pool4/3x3_s2_0_split_3
I1126 10:46:51.178818 10450 net.cpp:150] Setting up pool4/3x3_s2_pool4/3x3_s2_0_split
I1126 10:46:51.178825 10450 net.cpp:157] Top shape: 50 832 7 7 (2038400)
I1126 10:46:51.178830 10450 net.cpp:157] Top shape: 50 832 7 7 (2038400)
I1126 10:46:51.178835 10450 net.cpp:157] Top shape: 50 832 7 7 (2038400)
I1126 10:46:51.178840 10450 net.cpp:157] Top shape: 50 832 7 7 (2038400)
I1126 10:46:51.178844 10450 net.cpp:165] Memory required for data: 2691869416
I1126 10:46:51.178848 10450 layer_factory.hpp:76] Creating layer inception_5a/1x1
I1126 10:46:51.178858 10450 net.cpp:106] Creating Layer inception_5a/1x1
I1126 10:46:51.178863 10450 net.cpp:454] inception_5a/1x1 <- pool4/3x3_s2_pool4/3x3_s2_0_split_0
I1126 10:46:51.178874 10450 net.cpp:411] inception_5a/1x1 -> inception_5a/1x1
I1126 10:46:51.181953 10450 cudnn_conv_layer.cpp:194] Reallocating workspace storage: 7428
I1126 10:46:51.182003 10450 net.cpp:150] Setting up inception_5a/1x1
I1126 10:46:51.182013 10450 net.cpp:157] Top shape: 50 256 7 7 (627200)
I1126 10:46:51.182018 10450 net.cpp:165] Memory required for data: 2694378216
I1126 10:46:51.182025 10450 layer_factory.hpp:76] Creating layer inception_5a/prelu_1x1
I1126 10:46:51.182037 10450 net.cpp:106] Creating Layer inception_5a/prelu_1x1
I1126 10:46:51.182044 10450 net.cpp:454] inception_5a/prelu_1x1 <- inception_5a/1x1
I1126 10:46:51.182051 10450 net.cpp:397] inception_5a/prelu_1x1 -> inception_5a/1x1 (in-place)
I1126 10:46:51.182149 10450 net.cpp:150] Setting up inception_5a/prelu_1x1
I1126 10:46:51.182179 10450 net.cpp:157] Top shape: 50 256 7 7 (627200)
I1126 10:46:51.182183 10450 net.cpp:165] Memory required for data: 2696887016
I1126 10:46:51.182188 10450 layer_factory.hpp:76] Creating layer inception_5a/3x3_reduce
I1126 10:46:51.182200 10450 net.cpp:106] Creating Layer inception_5a/3x3_reduce
I1126 10:46:51.182206 10450 net.cpp:454] inception_5a/3x3_reduce <- pool4/3x3_s2_pool4/3x3_s2_0_split_1
I1126 10:46:51.182215 10450 net.cpp:411] inception_5a/3x3_reduce -> inception_5a/3x3_reduce
I1126 10:46:51.184778 10450 cudnn_conv_layer.cpp:194] Reallocating workspace storage: 7428
I1126 10:46:51.184842 10450 net.cpp:150] Setting up inception_5a/3x3_reduce
I1126 10:46:51.184852 10450 net.cpp:157] Top shape: 50 160 7 7 (392000)
I1126 10:46:51.184857 10450 net.cpp:165] Memory required for data: 2698455016
I1126 10:46:51.184865 10450 layer_factory.hpp:76] Creating layer inception_5a/prelu_3x3_reduce
I1126 10:46:51.184887 10450 net.cpp:106] Creating Layer inception_5a/prelu_3x3_reduce
I1126 10:46:51.184893 10450 net.cpp:454] inception_5a/prelu_3x3_reduce <- inception_5a/3x3_reduce
I1126 10:46:51.184900 10450 net.cpp:397] inception_5a/prelu_3x3_reduce -> inception_5a/3x3_reduce (in-place)
I1126 10:46:51.184996 10450 net.cpp:150] Setting up inception_5a/prelu_3x3_reduce
I1126 10:46:51.185004 10450 net.cpp:157] Top shape: 50 160 7 7 (392000)
I1126 10:46:51.185009 10450 net.cpp:165] Memory required for data: 2700023016
I1126 10:46:51.185014 10450 layer_factory.hpp:76] Creating layer inception_5a/3x3
I1126 10:46:51.185024 10450 net.cpp:106] Creating Layer inception_5a/3x3
I1126 10:46:51.185029 10450 net.cpp:454] inception_5a/3x3 <- inception_5a/3x3_reduce
I1126 10:46:51.185037 10450 net.cpp:411] inception_5a/3x3 -> inception_5a/3x3
I1126 10:46:51.190234 10450 cudnn_conv_layer.cpp:194] Reallocating workspace storage: 7788
I1126 10:46:51.190292 10450 net.cpp:150] Setting up inception_5a/3x3
I1126 10:46:51.190304 10450 net.cpp:157] Top shape: 50 320 7 7 (784000)
I1126 10:46:51.190309 10450 net.cpp:165] Memory required for data: 2703159016
I1126 10:46:51.190317 10450 layer_factory.hpp:76] Creating layer inception_5a/prelu_3x3
I1126 10:46:51.190331 10450 net.cpp:106] Creating Layer inception_5a/prelu_3x3
I1126 10:46:51.190338 10450 net.cpp:454] inception_5a/prelu_3x3 <- inception_5a/3x3
I1126 10:46:51.190346 10450 net.cpp:397] inception_5a/prelu_3x3 -> inception_5a/3x3 (in-place)
I1126 10:46:51.190472 10450 net.cpp:150] Setting up inception_5a/prelu_3x3
I1126 10:46:51.190480 10450 net.cpp:157] Top shape: 50 320 7 7 (784000)
I1126 10:46:51.190485 10450 net.cpp:165] Memory required for data: 2706295016
I1126 10:46:51.190490 10450 layer_factory.hpp:76] Creating layer inception_5a/5x5_reduce
I1126 10:46:51.190501 10450 net.cpp:106] Creating Layer inception_5a/5x5_reduce
I1126 10:46:51.190506 10450 net.cpp:454] inception_5a/5x5_reduce <- pool4/3x3_s2_pool4/3x3_s2_0_split_2
I1126 10:46:51.190515 10450 net.cpp:411] inception_5a/5x5_reduce -> inception_5a/5x5_reduce
I1126 10:46:51.191952 10450 cudnn_conv_layer.cpp:194] Reallocating workspace storage: 7428
I1126 10:46:51.191994 10450 net.cpp:150] Setting up inception_5a/5x5_reduce
I1126 10:46:51.192004 10450 net.cpp:157] Top shape: 50 32 7 7 (78400)
I1126 10:46:51.192008 10450 net.cpp:165] Memory required for data: 2706608616
I1126 10:46:51.192018 10450 layer_factory.hpp:76] Creating layer inception_5a/prelu_5x5_reduce
I1126 10:46:51.192028 10450 net.cpp:106] Creating Layer inception_5a/prelu_5x5_reduce
I1126 10:46:51.192034 10450 net.cpp:454] inception_5a/prelu_5x5_reduce <- inception_5a/5x5_reduce
I1126 10:46:51.192041 10450 net.cpp:397] inception_5a/prelu_5x5_reduce -> inception_5a/5x5_reduce (in-place)
I1126 10:46:51.192162 10450 net.cpp:150] Setting up inception_5a/prelu_5x5_reduce
I1126 10:46:51.192169 10450 net.cpp:157] Top shape: 50 32 7 7 (78400)
I1126 10:46:51.192173 10450 net.cpp:165] Memory required for data: 2706922216
I1126 10:46:51.192188 10450 layer_factory.hpp:76] Creating layer inception_5a/5x5
I1126 10:46:51.192245 10450 net.cpp:106] Creating Layer inception_5a/5x5
I1126 10:46:51.192250 10450 net.cpp:454] inception_5a/5x5 <- inception_5a/5x5_reduce
I1126 10:46:51.192256 10450 net.cpp:411] inception_5a/5x5 -> inception_5a/5x5
I1126 10:46:51.193835 10450 cudnn_conv_layer.cpp:194] Reallocating workspace storage: 9804
I1126 10:46:51.193876 10450 net.cpp:150] Setting up inception_5a/5x5
I1126 10:46:51.193886 10450 net.cpp:157] Top shape: 50 128 7 7 (313600)
I1126 10:46:51.193889 10450 net.cpp:165] Memory required for data: 2708176616
I1126 10:46:51.193897 10450 layer_factory.hpp:76] Creating layer inception_5a/prelu_5x5
I1126 10:46:51.193907 10450 net.cpp:106] Creating Layer inception_5a/prelu_5x5
I1126 10:46:51.193912 10450 net.cpp:454] inception_5a/prelu_5x5 <- inception_5a/5x5
I1126 10:46:51.193919 10450 net.cpp:397] inception_5a/prelu_5x5 -> inception_5a/5x5 (in-place)
I1126 10:46:51.194018 10450 net.cpp:150] Setting up inception_5a/prelu_5x5
I1126 10:46:51.194026 10450 net.cpp:157] Top shape: 50 128 7 7 (313600)
I1126 10:46:51.194031 10450 net.cpp:165] Memory required for data: 2709431016
I1126 10:46:51.194036 10450 layer_factory.hpp:76] Creating layer inception_5a/pool
I1126 10:46:51.194044 10450 net.cpp:106] Creating Layer inception_5a/pool
I1126 10:46:51.194051 10450 net.cpp:454] inception_5a/pool <- pool4/3x3_s2_pool4/3x3_s2_0_split_3
I1126 10:46:51.194057 10450 net.cpp:411] inception_5a/pool -> inception_5a/pool
I1126 10:46:51.194521 10450 net.cpp:150] Setting up inception_5a/pool
I1126 10:46:51.194536 10450 net.cpp:157] Top shape: 50 832 7 7 (2038400)
I1126 10:46:51.194540 10450 net.cpp:165] Memory required for data: 2717584616
I1126 10:46:51.194545 10450 layer_factory.hpp:76] Creating layer inception_5a/pool_proj
I1126 10:46:51.194555 10450 net.cpp:106] Creating Layer inception_5a/pool_proj
I1126 10:46:51.194561 10450 net.cpp:454] inception_5a/pool_proj <- inception_5a/pool
I1126 10:46:51.194567 10450 net.cpp:411] inception_5a/pool_proj -> inception_5a/pool_proj
I1126 10:46:51.197424 10450 cudnn_conv_layer.cpp:194] Reallocating workspace storage: 7428
I1126 10:46:51.197468 10450 net.cpp:150] Setting up inception_5a/pool_proj
I1126 10:46:51.197479 10450 net.cpp:157] Top shape: 50 128 7 7 (313600)
I1126 10:46:51.197482 10450 net.cpp:165] Memory required for data: 2718839016
I1126 10:46:51.197495 10450 layer_factory.hpp:76] Creating layer inception_5a/prelu_pool_proj
I1126 10:46:51.197505 10450 net.cpp:106] Creating Layer inception_5a/prelu_pool_proj
I1126 10:46:51.197512 10450 net.cpp:454] inception_5a/prelu_pool_proj <- inception_5a/pool_proj
I1126 10:46:51.197520 10450 net.cpp:397] inception_5a/prelu_pool_proj -> inception_5a/pool_proj (in-place)
I1126 10:46:51.197612 10450 net.cpp:150] Setting up inception_5a/prelu_pool_proj
I1126 10:46:51.197619 10450 net.cpp:157] Top shape: 50 128 7 7 (313600)
I1126 10:46:51.197623 10450 net.cpp:165] Memory required for data: 2720093416
I1126 10:46:51.197629 10450 layer_factory.hpp:76] Creating layer inception_5a/output
I1126 10:46:51.197638 10450 net.cpp:106] Creating Layer inception_5a/output
I1126 10:46:51.197643 10450 net.cpp:454] inception_5a/output <- inception_5a/1x1
I1126 10:46:51.197649 10450 net.cpp:454] inception_5a/output <- inception_5a/3x3
I1126 10:46:51.197652 10450 net.cpp:454] inception_5a/output <- inception_5a/5x5
I1126 10:46:51.197657 10450 net.cpp:454] inception_5a/output <- inception_5a/pool_proj
I1126 10:46:51.197662 10450 net.cpp:411] inception_5a/output -> inception_5a/output
I1126 10:46:51.197688 10450 net.cpp:150] Setting up inception_5a/output
I1126 10:46:51.197696 10450 net.cpp:157] Top shape: 50 832 7 7 (2038400)
I1126 10:46:51.197700 10450 net.cpp:165] Memory required for data: 2728247016
I1126 10:46:51.197703 10450 layer_factory.hpp:76] Creating layer inception_5a/output_inception_5a/output_0_split
I1126 10:46:51.197710 10450 net.cpp:106] Creating Layer inception_5a/output_inception_5a/output_0_split
I1126 10:46:51.197715 10450 net.cpp:454] inception_5a/output_inception_5a/output_0_split <- inception_5a/output
I1126 10:46:51.197722 10450 net.cpp:411] inception_5a/output_inception_5a/output_0_split -> inception_5a/output_inception_5a/output_0_split_0
I1126 10:46:51.197749 10450 net.cpp:411] inception_5a/output_inception_5a/output_0_split -> inception_5a/output_inception_5a/output_0_split_1
I1126 10:46:51.197757 10450 net.cpp:411] inception_5a/output_inception_5a/output_0_split -> inception_5a/output_inception_5a/output_0_split_2
I1126 10:46:51.197763 10450 net.cpp:411] inception_5a/output_inception_5a/output_0_split -> inception_5a/output_inception_5a/output_0_split_3
I1126 10:46:51.197820 10450 net.cpp:150] Setting up inception_5a/output_inception_5a/output_0_split
I1126 10:46:51.197829 10450 net.cpp:157] Top shape: 50 832 7 7 (2038400)
I1126 10:46:51.197834 10450 net.cpp:157] Top shape: 50 832 7 7 (2038400)
I1126 10:46:51.197839 10450 net.cpp:157] Top shape: 50 832 7 7 (2038400)
I1126 10:46:51.197842 10450 net.cpp:157] Top shape: 50 832 7 7 (2038400)
I1126 10:46:51.197846 10450 net.cpp:165] Memory required for data: 2760861416
I1126 10:46:51.197850 10450 layer_factory.hpp:76] Creating layer inception_5b/1x1
I1126 10:46:51.197860 10450 net.cpp:106] Creating Layer inception_5b/1x1
I1126 10:46:51.197865 10450 net.cpp:454] inception_5b/1x1 <- inception_5a/output_inception_5a/output_0_split_0
I1126 10:46:51.197871 10450 net.cpp:411] inception_5b/1x1 -> inception_5b/1x1
I1126 10:46:51.201937 10450 cudnn_conv_layer.cpp:194] Reallocating workspace storage: 7428
I1126 10:46:51.201990 10450 net.cpp:150] Setting up inception_5b/1x1
I1126 10:46:51.202000 10450 net.cpp:157] Top shape: 50 384 7 7 (940800)
I1126 10:46:51.202004 10450 net.cpp:165] Memory required for data: 2764624616
I1126 10:46:51.202013 10450 layer_factory.hpp:76] Creating layer inception_5b/prelu_1x1
I1126 10:46:51.202024 10450 net.cpp:106] Creating Layer inception_5b/prelu_1x1
I1126 10:46:51.202030 10450 net.cpp:454] inception_5b/prelu_1x1 <- inception_5b/1x1
I1126 10:46:51.202038 10450 net.cpp:397] inception_5b/prelu_1x1 -> inception_5b/1x1 (in-place)
I1126 10:46:51.202168 10450 net.cpp:150] Setting up inception_5b/prelu_1x1
I1126 10:46:51.202178 10450 net.cpp:157] Top shape: 50 384 7 7 (940800)
I1126 10:46:51.202183 10450 net.cpp:165] Memory required for data: 2768387816
I1126 10:46:51.202188 10450 layer_factory.hpp:76] Creating layer inception_5b/3x3_reduce
I1126 10:46:51.202198 10450 net.cpp:106] Creating Layer inception_5b/3x3_reduce
I1126 10:46:51.202203 10450 net.cpp:454] inception_5b/3x3_reduce <- inception_5a/output_inception_5a/output_0_split_1
I1126 10:46:51.202209 10450 net.cpp:411] inception_5b/3x3_reduce -> inception_5b/3x3_reduce
I1126 10:46:51.205013 10450 cudnn_conv_layer.cpp:194] Reallocating workspace storage: 7428
I1126 10:46:51.205057 10450 net.cpp:150] Setting up inception_5b/3x3_reduce
I1126 10:46:51.205066 10450 net.cpp:157] Top shape: 50 192 7 7 (470400)
I1126 10:46:51.205070 10450 net.cpp:165] Memory required for data: 2770269416
I1126 10:46:51.205078 10450 layer_factory.hpp:76] Creating layer inception_5b/prelu_3x3_reduce
I1126 10:46:51.205087 10450 net.cpp:106] Creating Layer inception_5b/prelu_3x3_reduce
I1126 10:46:51.205093 10450 net.cpp:454] inception_5b/prelu_3x3_reduce <- inception_5b/3x3_reduce
I1126 10:46:51.205101 10450 net.cpp:397] inception_5b/prelu_3x3_reduce -> inception_5b/3x3_reduce (in-place)
I1126 10:46:51.205194 10450 net.cpp:150] Setting up inception_5b/prelu_3x3_reduce
I1126 10:46:51.205202 10450 net.cpp:157] Top shape: 50 192 7 7 (470400)
I1126 10:46:51.205206 10450 net.cpp:165] Memory required for data: 2772151016
I1126 10:46:51.205211 10450 layer_factory.hpp:76] Creating layer inception_5b/3x3
I1126 10:46:51.205220 10450 net.cpp:106] Creating Layer inception_5b/3x3
I1126 10:46:51.205225 10450 net.cpp:454] inception_5b/3x3 <- inception_5b/3x3_reduce
I1126 10:46:51.205232 10450 net.cpp:411] inception_5b/3x3 -> inception_5b/3x3
I1126 10:46:51.212002 10450 cudnn_conv_layer.cpp:194] Reallocating workspace storage: 7788
I1126 10:46:51.212059 10450 net.cpp:150] Setting up inception_5b/3x3
I1126 10:46:51.212070 10450 net.cpp:157] Top shape: 50 384 7 7 (940800)
I1126 10:46:51.212097 10450 net.cpp:165] Memory required for data: 2775914216
I1126 10:46:51.212108 10450 layer_factory.hpp:76] Creating layer inception_5b/prelu_3x3
I1126 10:46:51.212123 10450 net.cpp:106] Creating Layer inception_5b/prelu_3x3
I1126 10:46:51.212131 10450 net.cpp:454] inception_5b/prelu_3x3 <- inception_5b/3x3
I1126 10:46:51.212138 10450 net.cpp:397] inception_5b/prelu_3x3 -> inception_5b/3x3 (in-place)
I1126 10:46:51.212258 10450 net.cpp:150] Setting up inception_5b/prelu_3x3
I1126 10:46:51.212267 10450 net.cpp:157] Top shape: 50 384 7 7 (940800)
I1126 10:46:51.212270 10450 net.cpp:165] Memory required for data: 2779677416
I1126 10:46:51.212276 10450 layer_factory.hpp:76] Creating layer inception_5b/5x5_reduce
I1126 10:46:51.212287 10450 net.cpp:106] Creating Layer inception_5b/5x5_reduce
I1126 10:46:51.212293 10450 net.cpp:454] inception_5b/5x5_reduce <- inception_5a/output_inception_5a/output_0_split_2
I1126 10:46:51.212301 10450 net.cpp:411] inception_5b/5x5_reduce -> inception_5b/5x5_reduce
I1126 10:46:51.214200 10450 cudnn_conv_layer.cpp:194] Reallocating workspace storage: 7428
I1126 10:46:51.214246 10450 net.cpp:150] Setting up inception_5b/5x5_reduce
I1126 10:46:51.214254 10450 net.cpp:157] Top shape: 50 48 7 7 (117600)
I1126 10:46:51.214259 10450 net.cpp:165] Memory required for data: 2780147816
I1126 10:46:51.214267 10450 layer_factory.hpp:76] Creating layer inception_5b/prelu_5x5_reduce
I1126 10:46:51.214277 10450 net.cpp:106] Creating Layer inception_5b/prelu_5x5_reduce
I1126 10:46:51.214283 10450 net.cpp:454] inception_5b/prelu_5x5_reduce <- inception_5b/5x5_reduce
I1126 10:46:51.214293 10450 net.cpp:397] inception_5b/prelu_5x5_reduce -> inception_5b/5x5_reduce (in-place)
I1126 10:46:51.214411 10450 net.cpp:150] Setting up inception_5b/prelu_5x5_reduce
I1126 10:46:51.214419 10450 net.cpp:157] Top shape: 50 48 7 7 (117600)
I1126 10:46:51.214423 10450 net.cpp:165] Memory required for data: 2780618216
I1126 10:46:51.214428 10450 layer_factory.hpp:76] Creating layer inception_5b/5x5
I1126 10:46:51.214438 10450 net.cpp:106] Creating Layer inception_5b/5x5
I1126 10:46:51.214443 10450 net.cpp:454] inception_5b/5x5 <- inception_5b/5x5_reduce
I1126 10:46:51.214452 10450 net.cpp:411] inception_5b/5x5 -> inception_5b/5x5
I1126 10:46:51.216951 10450 cudnn_conv_layer.cpp:194] Reallocating workspace storage: 9804
I1126 10:46:51.217005 10450 net.cpp:150] Setting up inception_5b/5x5
I1126 10:46:51.217016 10450 net.cpp:157] Top shape: 50 128 7 7 (313600)
I1126 10:46:51.217020 10450 net.cpp:165] Memory required for data: 2781872616
I1126 10:46:51.217031 10450 layer_factory.hpp:76] Creating layer inception_5b/prelu_5x5
I1126 10:46:51.217044 10450 net.cpp:106] Creating Layer inception_5b/prelu_5x5
I1126 10:46:51.217051 10450 net.cpp:454] inception_5b/prelu_5x5 <- inception_5b/5x5
I1126 10:46:51.217061 10450 net.cpp:397] inception_5b/prelu_5x5 -> inception_5b/5x5 (in-place)
I1126 10:46:51.217176 10450 net.cpp:150] Setting up inception_5b/prelu_5x5
I1126 10:46:51.217185 10450 net.cpp:157] Top shape: 50 128 7 7 (313600)
I1126 10:46:51.217190 10450 net.cpp:165] Memory required for data: 2783127016
I1126 10:46:51.217195 10450 layer_factory.hpp:76] Creating layer inception_5b/pool
I1126 10:46:51.217206 10450 net.cpp:106] Creating Layer inception_5b/pool
I1126 10:46:51.217211 10450 net.cpp:454] inception_5b/pool <- inception_5a/output_inception_5a/output_0_split_3
I1126 10:46:51.217218 10450 net.cpp:411] inception_5b/pool -> inception_5b/pool
I1126 10:46:51.217576 10450 net.cpp:150] Setting up inception_5b/pool
I1126 10:46:51.217592 10450 net.cpp:157] Top shape: 50 832 7 7 (2038400)
I1126 10:46:51.217595 10450 net.cpp:165] Memory required for data: 2791280616
I1126 10:46:51.217600 10450 layer_factory.hpp:76] Creating layer inception_5b/pool_proj
I1126 10:46:51.217612 10450 net.cpp:106] Creating Layer inception_5b/pool_proj
I1126 10:46:51.217618 10450 net.cpp:454] inception_5b/pool_proj <- inception_5b/pool
I1126 10:46:51.217627 10450 net.cpp:411] inception_5b/pool_proj -> inception_5b/pool_proj
I1126 10:46:51.221457 10450 cudnn_conv_layer.cpp:194] Reallocating workspace storage: 7428
I1126 10:46:51.221554 10450 net.cpp:150] Setting up inception_5b/pool_proj
I1126 10:46:51.221568 10450 net.cpp:157] Top shape: 50 128 7 7 (313600)
I1126 10:46:51.221573 10450 net.cpp:165] Memory required for data: 2792535016
I1126 10:46:51.221585 10450 layer_factory.hpp:76] Creating layer inception_5b/prelu_pool_proj
I1126 10:46:51.221602 10450 net.cpp:106] Creating Layer inception_5b/prelu_pool_proj
I1126 10:46:51.221611 10450 net.cpp:454] inception_5b/prelu_pool_proj <- inception_5b/pool_proj
I1126 10:46:51.221621 10450 net.cpp:397] inception_5b/prelu_pool_proj -> inception_5b/pool_proj (in-place)
I1126 10:46:51.221737 10450 net.cpp:150] Setting up inception_5b/prelu_pool_proj
I1126 10:46:51.221747 10450 net.cpp:157] Top shape: 50 128 7 7 (313600)
I1126 10:46:51.221751 10450 net.cpp:165] Memory required for data: 2793789416
I1126 10:46:51.221757 10450 layer_factory.hpp:76] Creating layer inception_5b/output
I1126 10:46:51.221765 10450 net.cpp:106] Creating Layer inception_5b/output
I1126 10:46:51.221771 10450 net.cpp:454] inception_5b/output <- inception_5b/1x1
I1126 10:46:51.221776 10450 net.cpp:454] inception_5b/output <- inception_5b/3x3
I1126 10:46:51.221782 10450 net.cpp:454] inception_5b/output <- inception_5b/5x5
I1126 10:46:51.221786 10450 net.cpp:454] inception_5b/output <- inception_5b/pool_proj
I1126 10:46:51.221794 10450 net.cpp:411] inception_5b/output -> inception_5b/output
I1126 10:46:51.221823 10450 net.cpp:150] Setting up inception_5b/output
I1126 10:46:51.221830 10450 net.cpp:157] Top shape: 50 1024 7 7 (2508800)
I1126 10:46:51.221834 10450 net.cpp:165] Memory required for data: 2803824616
I1126 10:46:51.221839 10450 layer_factory.hpp:76] Creating layer pool5/7x7_s1
I1126 10:46:51.221850 10450 net.cpp:106] Creating Layer pool5/7x7_s1
I1126 10:46:51.221855 10450 net.cpp:454] pool5/7x7_s1 <- inception_5b/output
I1126 10:46:51.221863 10450 net.cpp:411] pool5/7x7_s1 -> pool5/7x7_s1
I1126 10:46:51.222484 10450 net.cpp:150] Setting up pool5/7x7_s1
I1126 10:46:51.222512 10450 net.cpp:157] Top shape: 50 1024 1 1 (51200)
I1126 10:46:51.222517 10450 net.cpp:165] Memory required for data: 2804029416
I1126 10:46:51.222527 10450 layer_factory.hpp:76] Creating layer pool5/drop_7x7_s1
I1126 10:46:51.222543 10450 net.cpp:106] Creating Layer pool5/drop_7x7_s1
I1126 10:46:51.222553 10450 net.cpp:454] pool5/drop_7x7_s1 <- pool5/7x7_s1
I1126 10:46:51.222563 10450 net.cpp:397] pool5/drop_7x7_s1 -> pool5/7x7_s1 (in-place)
I1126 10:46:51.222604 10450 net.cpp:150] Setting up pool5/drop_7x7_s1
I1126 10:46:51.222615 10450 net.cpp:157] Top shape: 50 1024 1 1 (51200)
I1126 10:46:51.222620 10450 net.cpp:165] Memory required for data: 2804234216
I1126 10:46:51.222626 10450 layer_factory.hpp:76] Creating layer loss3/classifier2
I1126 10:46:51.222642 10450 net.cpp:106] Creating Layer loss3/classifier2
I1126 10:46:51.222650 10450 net.cpp:454] loss3/classifier2 <- pool5/7x7_s1
I1126 10:46:51.222662 10450 net.cpp:411] loss3/classifier2 -> loss3/classifier
I1126 10:46:51.222911 10450 net.cpp:150] Setting up loss3/classifier2
I1126 10:46:51.222924 10450 net.cpp:157] Top shape: 50 2 (100)
I1126 10:46:51.222930 10450 net.cpp:165] Memory required for data: 2804234616
I1126 10:46:51.222942 10450 layer_factory.hpp:76] Creating layer loss3/classifier_loss3/classifier2_0_split
I1126 10:46:51.222954 10450 net.cpp:106] Creating Layer loss3/classifier_loss3/classifier2_0_split
I1126 10:46:51.222960 10450 net.cpp:454] loss3/classifier_loss3/classifier2_0_split <- loss3/classifier
I1126 10:46:51.222970 10450 net.cpp:411] loss3/classifier_loss3/classifier2_0_split -> loss3/classifier_loss3/classifier2_0_split_0
I1126 10:46:51.222981 10450 net.cpp:411] loss3/classifier_loss3/classifier2_0_split -> loss3/classifier_loss3/classifier2_0_split_1
I1126 10:46:51.223036 10450 net.cpp:150] Setting up loss3/classifier_loss3/classifier2_0_split
I1126 10:46:51.223043 10450 net.cpp:157] Top shape: 50 2 (100)
I1126 10:46:51.223048 10450 net.cpp:157] Top shape: 50 2 (100)
I1126 10:46:51.223052 10450 net.cpp:165] Memory required for data: 2804235416
I1126 10:46:51.223075 10450 layer_factory.hpp:76] Creating layer loss3/loss3
I1126 10:46:51.223084 10450 net.cpp:106] Creating Layer loss3/loss3
I1126 10:46:51.223089 10450 net.cpp:454] loss3/loss3 <- loss3/classifier_loss3/classifier2_0_split_0
I1126 10:46:51.223095 10450 net.cpp:454] loss3/loss3 <- label_data_1_split_4
…
