…
I1126 10:40:47.678328 10429 net.cpp:322] The NetState phase (0) differed from the phase (1) specified by a rule in layer loss3/top-1
I1126 10:40:47.679813 10429 net.cpp:49] Initializing net from parameters: 
name: "GoogleNet"
state {
  phase: TRAIN
}
layer {
  name: "data"
  type: "Data"
  top: "data"
  top: "label"
  include {
    phase: TRAIN
  }
  transform_param {
    mirror: true
    crop_size: 224
    mean_value: 104
    mean_value: 117
    mean_value: 123
  }
  data_param {
    source: "../../LMDB-s300/train_8-lmdb"
    batch_size: 32
    backend: LMDB
  }
}
layer {
  name: "conv1/7x7_s2"
  type: "Convolution"
  bottom: "data"
  top: "conv1/7x7_s2"
  param {
    lr_mult: 1
    decay_mult: 1
  }
  param {
    lr_mult: 2
    decay_mult: 0
  }
  convolution_param {
    num_output: 64
    pad: 3
    kernel_size: 7
    stride: 2
    weight_filler {
      type: "xavier"
    }
    bias_filler {
      type: "constant"
      value: 0.2
    }
  }
}
layer {
  name: "conv1/prelu_7x7"
  type: "PReLU"
  bottom: "conv1/7x7_s2"
  top: "conv1/7x7_s2"
  param {
    lr_mult: 1
    decay_mult: 0
  }
  prelu_param {
    filler {
      type: "constant"
      value: 0.01
    }
  }
}
layer {
  name: "pool1/3x3_s2"
  type: "Pooling"
  bottom: "conv1/7x7_s2"
  top: "pool1/3x3_s2"
  pooling_param {
    pool: MAX
    kernel_size: 3
    stride: 2
  }
}
layer {
  name: "pool1/norm1"
  type: "LRN"
  bottom: "pool1/3x3_s2"
  top: "pool1/norm1"
  lrn_param {
    local_size: 5
    alpha: 0.0001
    beta: 0.75
  }
}
layer {
  name: "conv2/3x3_reduce"
  type: "Convolution"
  bottom: "pool1/norm1"
  top: "conv2/3x3_reduce"
  param {
    lr_mult: 1
    decay_mult: 1
  }
  param {
    lr_mult: 2
    decay_mult: 0
  }
  convolution_param {
    num_output: 64
    kernel_size: 1
    weight_filler {
      type: "xavier"
    }
    bias_filler {
      type: "constant"
      value: 0.2
    }
  }
}
layer {
  name: "conv2/prelu_3x3_reduce"
  type: "PReLU"
  bottom: "conv2/3x3_reduce"
  top: "conv2/3x3_reduce"
  param {
    lr_mult: 1
    decay_mult: 0
  }
  prelu_param {
    filler {
      type: "constant"
      value: 0.01
    }
  }
}
layer {
  name: "conv2/3x3"
  type: "Convolution"
  bottom: "conv2/3x3_reduce"
  top: "conv2/3x3"
  param {
    lr_mult: 1
    decay_mult: 1
  }
  param {
    lr_mult: 2
    decay_mult: 0
  }
  convolution_param {
    num_output: 192
    pad: 1
    kernel_size: 3
    weight_filler {
      type: "xavier"
    }
    bias_filler {
      type: "constant"
      value: 0.2
    }
  }
}
layer {
  name: "conv2/prelu_3x3"
  type: "PReLU"
  bottom: "conv2/3x3"
  top: "conv2/3x3"
  param {
    lr_mult: 1
    decay_mult: 0
  }
  prelu_param {
    filler {
      type: "constant"
      value: 0.01
    }
  }
}
layer {
  name: "conv2/norm2"
  type: "LRN"
  bottom: "conv2/3x3"
  top: "conv2/norm2"
  lrn_param {
    local_size: 5
    alpha: 0.0001
    beta: 0.75
  }
}
layer {
  name: "pool2/3x3_s2"
  type: "Pooling"
  bottom: "conv2/norm2"
  top: "pool2/3x3_s2"
  pooling_param {
    pool: MAX
    kernel_size: 3
    stride: 2
  }
}
layer {
  name: "inception_3a/1x1"
  type: "Convolution"
  bottom: "pool2/3x3_s2"
  top: "inception_3a/1x1"
  param {
    lr_mult: 1
    decay_mult: 1
  }
  param {
    lr_mult: 2
    decay_mult: 0
  }
  convolution_param {
    num_output: 64
    kernel_size: 1
    weight_filler {
      type: "xavier"
    }
    bias_filler {
      type: "constant"
      value: 0.2
    }
  }
}
layer {
  name: "inception_3a/prelu_1x1"
  type: "PReLU"
  bottom: "inception_3a/1x1"
  top: "inception_3a/1x1"
  param {
    lr_mult: 1
    decay_mult: 0
  }
  prelu_param {
    filler {
      type: "constant"
      value: 0.01
    }
  }
}
layer {
  name: "inception_3a/3x3_reduce"
  type: "Convolution"
  bottom: "pool2/3x3_s2"
  top: "inception_3a/3x3_reduce"
  param {
    lr_mult: 1
    decay_mult: 1
  }
  param {
    lr_mult: 2
    decay_mult: 0
  }
  convolution_param {
    num_output: 96
    kernel_size: 1
    weight_filler {
      type: "xavier"
    }
    bias_filler {
      type: "constant"
      value: 0.2
    }
  }
}
layer {
  name: "inception_3a/prelu_3x3_reduce"
  type: "PReLU"
  bottom: "inception_3a/3x3_reduce"
  top: "inception_3a/3x3_reduce"
  param {
    lr_mult: 1
    decay_mult: 0
  }
  prelu_param {
    filler {
      type: "constant"
      value: 0.01
    }
  }
}
layer {
  name: "inception_3a/3x3"
  type: "Convolution"
  bottom: "inception_3a/3x3_reduce"
  top: "inception_3a/3x3"
  param {
    lr_mult: 1
    decay_mult: 1
  }
  param {
    lr_mult: 2
    decay_mult: 0
  }
  convolution_param {
    num_output: 128
    pad: 1
    kernel_size: 3
    weight_filler {
      type: "xavier"
    }
    bias_filler {
      type: "constant"
      value: 0.2
    }
  }
}
layer {
  name: "inception_3a/prelu_3x3"
  type: "PReLU"
  bottom: "inception_3a/3x3"
  top: "inception_3a/3x3"
  param {
    lr_mult: 1
    decay_mult: 0
  }
  prelu_param {
    filler {
      type: "constant"
      value: 0.01
    }
  }
}
layer {
  name: "inception_3a/5x5_reduce"
  type: "Convolution"
  bottom: "pool2/3x3_s2"
  top: "inception_3a/5x5_reduce"
  param {
    lr_mult: 1
    decay_mult: 1
  }
  param {
    lr_mult: 2
    decay_mult: 0
  }
  convolution_param {
    num_output: 16
    kernel_size: 1
    weight_filler {
      type: "xavier"
    }
    bias_filler {
      type: "constant"
      value: 0.2
    }
  }
}
layer {
  name: "inception_3a/prelu_5x5_reduce"
  type: "PReLU"
  bottom: "inception_3a/5x5_reduce"
  top: "inception_3a/5x5_reduce"
  param {
    lr_mult: 1
    decay_mult: 0
  }
  prelu_param {
    filler {
      type: "constant"
      value: 0.01
    }
  }
}
layer {
  name: "inception_3a/5x5"
  type: "Convolution"
  bottom: "inception_3a/5x5_reduce"
  top: "inception_3a/5x5"
  param {
    lr_mult: 1
    decay_mult: 1
  }
  param {
    lr_mult: 2
    decay_mult: 0
  }
  convolution_param {
    num_output: 32
    pad: 2
    kernel_size: 5
    weight_filler {
      type: "xavier"
    }
    bias_filler {
      type: "constant"
      value: 0.2
    }
  }
}
layer {
  name: "inception_3a/prelu_5x5"
  type: "PReLU"
  bottom: "inception_3a/5x5"
  top: "inception_3a/5x5"
  param {
    lr_mult: 1
    decay_mult: 0
  }
  prelu_param {
    filler {
      type: "constant"
      value: 0.01
    }
  }
}
layer {
  name: "inception_3a/pool"
  type: "Pooling"
  bottom: "pool2/3x3_s2"
  top: "inception_3a/pool"
  pooling_param {
    pool: MAX
    kernel_size: 3
    stride: 1
    pad: 1
  }
}
layer {
  name: "inception_3a/pool_proj"
  type: "Convolution"
  bottom: "inception_3a/pool"
  top: "inception_3a/pool_proj"
  param {
    lr_mult: 1
    decay_mult: 1
  }
  param {
    lr_mult: 2
    decay_mult: 0
  }
  convolution_param {
    num_output: 32
    kernel_size: 1
    weight_filler {
      type: "xavier"
    }
    bias_filler {
      type: "constant"
      value: 0.2
    }
  }
}
layer {
  name: "inception_3a/prelu_pool_proj"
  type: "PReLU"
  bottom: "inception_3a/pool_proj"
  top: "inception_3a/pool_proj"
  param {
    lr_mult: 1
    decay_mult: 0
  }
  prelu_param {
    filler {
      type: "constant"
      value: 0.01
    }
  }
}
layer {
  name: "inception_3a/output"
  type: "Concat"
  bottom: "inception_3a/1x1"
  bottom: "inception_3a/3x3"
  bottom: "inception_3a/5x5"
  bottom: "inception_3a/pool_proj"
  top: "inception_3a/output"
}
layer {
  name: "inception_3b/1x1"
  type: "Convolution"
  bottom: "inception_3a/output"
  top: "inception_3b/1x1"
  param {
    lr_mult: 1
    decay_mult: 1
  }
  param {
    lr_mult: 2
    decay_mult: 0
  }
  convolution_param {
    num_output: 128
    kernel_size: 1
    weight_filler {
      type: "xavier"
    }
    bias_filler {
      type: "constant"
      value: 0.2
    }
  }
}
layer {
  name: "inception_3b/prelu_1x1"
  type: "PReLU"
  bottom: "inception_3b/1x1"
  top: "inception_3b/1x1"
  param {
    lr_mult: 1
    decay_mult: 0
  }
  prelu_param {
    filler {
      type: "constant"
      value: 0.01
    }
  }
}
layer {
  name: "inception_3b/3x3_reduce"
  type: "Convolution"
  bottom: "inception_3a/output"
  top: "inception_3b/3x3_reduce"
  param {
    lr_mult: 1
    decay_mult: 1
  }
  param {
    lr_mult: 2
    decay_mult: 0
  }
  convolution_param {
    num_output: 128
    kernel_size: 1
    weight_filler {
      type: "xavier"
    }
    bias_filler {
      type: "constant"
      value: 0.2
    }
  }
}
layer {
  name: "inception_3b/prelu_3x3_reduce"
  type: "PReLU"
  bottom: "inception_3b/3x3_reduce"
  top: "inception_3b/3x3_reduce"
  param {
    lr_mult: 1
    decay_mult: 0
  }
  prelu_param {
    filler {
      type: "constant"
      value: 0.01
    }
  }
}
layer {
  name: "inception_3b/3x3"
  type: "Convolution"
  bottom: "inception_3b/3x3_reduce"
  top: "inception_3b/3x3"
  param {
    lr_mult: 1
    decay_mult: 1
  }
  param {
    lr_mult: 2
    decay_mult: 0
  }
  convolution_param {
    num_output: 192
    pad: 1
    kernel_size: 3
    weight_filler {
      type: "xavier"
    }
    bias_filler {
      type: "constant"
      value: 0.2
    }
  }
}
layer {
  name: "inception_3b/prelu_3x3"
  type: "PReLU"
  bottom: "inception_3b/3x3"
  top: "inception_3b/3x3"
  param {
    lr_mult: 1
    decay_mult: 0
  }
  prelu_param {
    filler {
      type: "constant"
      value: 0.01
    }
  }
}
layer {
  name: "inception_3b/5x5_reduce"
  type: "Convolution"
  bottom: "inception_3a/output"
  top: "inception_3b/5x5_reduce"
  param {
    lr_mult: 1
    decay_mult: 1
  }
  param {
    lr_mult: 2
    decay_mult: 0
  }
  convolution_param {
    num_output: 32
    kernel_size: 1
    weight_filler {
      type: "xavier"
    }
    bias_filler {
      type: "constant"
      value: 0.2
    }
  }
}
layer {
  name: "inception_3b/prelu_5x5_reduce"
  type: "PReLU"
  bottom: "inception_3b/5x5_reduce"
  top: "inception_3b/5x5_reduce"
  param {
    lr_mult: 1
    decay_mult: 0
  }
  prelu_param {
    filler {
      type: "constant"
      value: 0.01
    }
  }
}
layer {
  name: "inception_3b/5x5"
  type: "Convolution"
  bottom: "inception_3b/5x5_reduce"
  top: "inception_3b/5x5"
  param {
    lr_mult: 1
    decay_mult: 1
  }
  param {
    lr_mult: 2
    decay_mult: 0
  }
  convolution_param {
    num_output: 96
    pad: 2
    kernel_size: 5
    weight_filler {
      type: "xavier"
    }
    bias_filler {
      type: "constant"
      value: 0.2
    }
  }
}
layer {
  name: "inception_3b/prelu_5x5"
  type: "PReLU"
  bottom: "inception_3b/5x5"
  top: "inception_3b/5x5"
  param {
    lr_mult: 1
    decay_mult: 0
  }
  prelu_param {
    filler {
      type: "constant"
      value: 0.01
    }
  }
}
layer {
  name: "inception_3b/pool"
  type: "Pooling"
  bottom: "inception_3a/output"
  top: "inception_3b/pool"
  pooling_param {
    pool: MAX
    kernel_size: 3
    stride: 1
    pad: 1
  }
}
layer {
  name: "inception_3b/pool_proj"
  type: "Convolution"
  bottom: "inception_3b/pool"
  top: "inception_3b/pool_proj"
  param {
    lr_mult: 1
    decay_mult: 1
  }
  param {
    lr_mult: 2
    decay_mult: 0
  }
  convolution_param {
    num_output: 64
    kernel_size: 1
    weight_filler {
      type: "xavier"
    }
    bias_filler {
      type: "constant"
      value: 0.2
    }
  }
}
layer {
  name: "inception_3b/prelu_pool_proj"
  type: "PReLU"
  bottom: "inception_3b/pool_proj"
  top: "inception_3b/pool_proj"
  param {
    lr_mult: 1
    decay_mult: 0
  }
  prelu_param {
    filler {
      type: "constant"
      value: 0.01
    }
  }
}
layer {
  name: "inception_3b/output"
  type: "Concat"
  bottom: "inception_3b/1x1"
  bottom: "inception_3b/3x3"
  bottom: "inception_3b/5x5"
  bottom: "inception_3b/pool_proj"
  top: "inception_3b/output"
}
layer {
  name: "pool3/3x3_s2"
  type: "Pooling"
  bottom: "inception_3b/output"
  top: "pool3/3x3_s2"
  pooling_param {
    pool: MAX
    kernel_size: 3
    stride: 2
  }
}
layer {
  name: "inception_4a/1x1"
  type: "Convolution"
  bottom: "pool3/3x3_s2"
  top: "inception_4a/1x1"
  param {
    lr_mult: 1
    decay_mult: 1
  }
  param {
    lr_mult: 2
    decay_mult: 0
  }
  convolution_param {
    num_output: 192
    kernel_size: 1
    weight_filler {
      type: "xavier"
    }
    bias_filler {
      type: "constant"
      value: 0.2
    }
  }
}
layer {
  name: "inception_4a/prelu_1x1"
  type: "PReLU"
  bottom: "inception_4a/1x1"
  top: "inception_4a/1x1"
  param {
    lr_mult: 1
    decay_mult: 0
  }
  prelu_param {
    filler {
      type: "constant"
      value: 0.01
    }
  }
}
layer {
  name: "inception_4a/3x3_reduce"
  type: "Convolution"
  bottom: "pool3/3x3_s2"
  top: "inception_4a/3x3_reduce"
  param {
    lr_mult: 1
    decay_mult: 1
  }
  param {
    lr_mult: 2
    decay_mult: 0
  }
  convolution_param {
    num_output: 96
    kernel_size: 1
    weight_filler {
      type: "xavier"
    }
    bias_filler {
      type: "constant"
      value: 0.2
    }
  }
}
layer {
  name: "inception_4a/prelu_3x3_reduce"
  type: "PReLU"
  bottom: "inception_4a/3x3_reduce"
  top: "inception_4a/3x3_reduce"
  param {
    lr_mult: 1
    decay_mult: 0
  }
  prelu_param {
    filler {
      type: "constant"
      value: 0.01
    }
  }
}
layer {
  name: "inception_4a/3x3"
  type: "Convolution"
  bottom: "inception_4a/3x3_reduce"
  top: "inception_4a/3x3"
  param {
    lr_mult: 1
    decay_mult: 1
  }
  param {
    lr_mult: 2
    decay_mult: 0
  }
  convolution_param {
    num_output: 208
    pad: 1
    kernel_size: 3
    weight_filler {
      type: "xavier"
    }
    bias_filler {
      type: "constant"
      value: 0.2
    }
  }
}
layer {
  name: "inception_4a/prelu_3x3"
  type: "PReLU"
  bottom: "inception_4a/3x3"
  top: "inception_4a/3x3"
  param {
    lr_mult: 1
    decay_mult: 0
  }
  prelu_param {
    filler {
      type: "constant"
      value: 0.01
    }
  }
}
layer {
  name: "inception_4a/5x5_reduce"
  type: "Convolution"
  bottom: "pool3/3x3_s2"
  top: "inception_4a/5x5_reduce"
  param {
    lr_mult: 1
    decay_mult: 1
  }
  param {
    lr_mult: 2
    decay_mult: 0
  }
  convolution_param {
    num_output: 16
    kernel_size: 1
    weight_filler {
      type: "xavier"
    }
    bias_filler {
      type: "constant"
      value: 0.2
    }
  }
}
layer {
  name: "inception_4a/prelu_5x5_reduce"
  type: "PReLU"
  bottom: "inception_4a/5x5_reduce"
  top: "inception_4a/5x5_reduce"
  param {
    lr_mult: 1
    decay_mult: 0
  }
  prelu_param {
    filler {
      type: "constant"
      value: 0.01
    }
  }
}
layer {
  name: "inception_4a/5x5"
  type: "Convolution"
  bottom: "inception_4a/5x5_reduce"
  top: "inception_4a/5x5"
  param {
    lr_mult: 1
    decay_mult: 1
  }
  param {
    lr_mult: 2
    decay_mult: 0
  }
  convolution_param {
    num_output: 48
    pad: 2
    kernel_size: 5
    weight_filler {
      type: "xavier"
    }
    bias_filler {
      type: "constant"
      value: 0.2
    }
  }
}
layer {
  name: "inception_4a/prelu_5x5"
  type: "PReLU"
  bottom: "inception_4a/5x5"
  top: "inception_4a/5x5"
  param {
    lr_mult: 1
    decay_mult: 0
  }
  prelu_param {
    filler {
      type: "constant"
      value: 0.01
    }
  }
}
layer {
  name: "inception_4a/pool"
  type: "Pooling"
  bottom: "pool3/3x3_s2"
  top: "inception_4a/pool"
  pooling_param {
    pool: MAX
    kernel_size: 3
    stride: 1
    pad: 1
  }
}
layer {
  name: "inception_4a/pool_proj"
  type: "Convolution"
  bottom: "inception_4a/pool"
  top: "inception_4a/pool_proj"
  param {
    lr_mult: 1
    decay_mult: 1
  }
  param {
    lr_mult: 2
    decay_mult: 0
  }
  convolution_param {
    num_output: 64
    kernel_size: 1
    weight_filler {
      type: "xavier"
    }
    bias_filler {
      type: "constant"
      value: 0.2
    }
  }
}
layer {
  name: "inception_4a/prelu_pool_proj"
  type: "PReLU"
  bottom: "inception_4a/pool_proj"
  top: "inception_4a/pool_proj"
  param {
    lr_mult: 1
    decay_mult: 0
  }
  prelu_param {
    filler {
      type: "constant"
      value: 0.01
    }
  }
}
layer {
  name: "inception_4a/output"
  type: "Concat"
  bottom: "inception_4a/1x1"
  bottom: "inception_4a/3x3"
  bottom: "inception_4a/5x5"
  bottom: "inception_4a/pool_proj"
  top: "inception_4a/output"
}
layer {
  name: "loss1/ave_pool"
  type: "Pooling"
  bottom: "inception_4a/output"
  top: "loss1/ave_pool"
  pooling_param {
    pool: AVE
    kernel_size: 5
    stride: 3
  }
}
layer {
  name: "loss1/conv"
  type: "Convolution"
  bottom: "loss1/ave_pool"
  top: "loss1/conv"
  param {
    lr_mult: 1
    decay_mult: 1
  }
  param {
    lr_mult: 2
    decay_mult: 0
  }
  convolution_param {
    num_output: 128
    kernel_size: 1
    weight_filler {
      type: "xavier"
    }
    bias_filler {
      type: "constant"
      value: 0.2
    }
  }
}
layer {
  name: "loss1/prelu_conv"
  type: "PReLU"
  bottom: "loss1/conv"
  top: "loss1/conv"
  param {
    lr_mult: 1
    decay_mult: 0
  }
  prelu_param {
    filler {
      type: "constant"
      value: 0.01
    }
  }
}
layer {
  name: "loss1/fc"
  type: "InnerProduct"
  bottom: "loss1/conv"
  top: "loss1/fc"
  param {
    lr_mult: 1
    decay_mult: 1
  }
  param {
    lr_mult: 2
    decay_mult: 0
  }
  inner_product_param {
    num_output: 1024
    weight_filler {
      type: "xavier"
    }
    bias_filler {
      type: "constant"
      value: 0.2
    }
  }
}
layer {
  name: "loss1/prelu_fc"
  type: "PReLU"
  bottom: "loss1/fc"
  top: "loss1/fc"
  param {
    lr_mult: 1
    decay_mult: 0
  }
  prelu_param {
    filler {
      type: "constant"
      value: 0.01
    }
  }
}
layer {
  name: "loss1/drop_fc"
  type: "Dropout"
  bottom: "loss1/fc"
  top: "loss1/fc"
  dropout_param {
    dropout_ratio: 0.7
  }
}
layer {
  name: "loss1/classifier2"
  type: "InnerProduct"
  bottom: "loss1/fc"
  top: "loss1/classifier"
  param {
    lr_mult: 1
    decay_mult: 1
  }
  param {
    lr_mult: 2
    decay_mult: 0
  }
  inner_product_param {
    num_output: 2
    weight_filler {
      type: "xavier"
    }
    bias_filler {
      type: "constant"
      value: 0
    }
  }
}
layer {
  name: "loss1/loss"
  type: "SoftmaxWithLoss"
  bottom: "loss1/classifier"
  bottom: "label"
  top: "loss1/loss1"
  loss_weight: 0.3
}
layer {
  name: "inception_4b/1x1"
  type: "Convolution"
  bottom: "inception_4a/output"
  top: "inception_4b/1x1"
  param {
    lr_mult: 1
    decay_mult: 1
  }
  param {
    lr_mult: 2
    decay_mult: 0
  }
  convolution_param {
    num_output: 160
    kernel_size: 1
    weight_filler {
      type: "xavier"
    }
    bias_filler {
      type: "constant"
      value: 0.2
    }
  }
}
layer {
  name: "inception_4b/prelu_1x1"
  type: "PReLU"
  bottom: "inception_4b/1x1"
  top: "inception_4b/1x1"
  param {
    lr_mult: 1
    decay_mult: 0
  }
  prelu_param {
    filler {
      type: "constant"
      value: 0.01
    }
  }
}
layer {
  name: "inception_4b/3x3_reduce"
  type: "Convolution"
  bottom: "inception_4a/output"
  top: "inception_4b/3x3_reduce"
  param {
    lr_mult: 1
    decay_mult: 1
  }
  param {
    lr_mult: 2
    decay_mult: 0
  }
  convolution_param {
    num_output: 112
    kernel_size: 1
    weight_filler {
      type: "xavier"
    }
    bias_filler {
      type: "constant"
      value: 0.2
    }
  }
}
layer {
  name: "inception_4b/prelu_3x3_reduce"
  type: "PReLU"
  bottom: "inception_4b/3x3_reduce"
  top: "inception_4b/3x3_reduce"
  param {
    lr_mult: 1
    decay_mult: 0
  }
  prelu_param {
    filler {
      type: "constant"
      value: 0.01
    }
  }
}
layer {
  name: "inception_4b/3x3"
  type: "Convolution"
  bottom: "inception_4b/3x3_reduce"
  top: "inception_4b/3x3"
  param {
    lr_mult: 1
    decay_mult: 1
  }
  param {
    lr_mult: 2
    decay_mult: 0
  }
  convolution_param {
    num_output: 224
    pad: 1
    kernel_size: 3
    weight_filler {
      type: "xavier"
    }
    bias_filler {
      type: "constant"
      value: 0.2
    }
  }
}
layer {
  name: "inception_4b/prelu_3x3"
  type: "PReLU"
  bottom: "inception_4b/3x3"
  top: "inception_4b/3x3"
  param {
    lr_mult: 1
    decay_mult: 0
  }
  prelu_param {
    filler {
      type: "constant"
      value: 0.01
    }
  }
}
layer {
  name: "inception_4b/5x5_reduce"
  type: "Convolution"
  bottom: "inception_4a/output"
  top: "inception_4b/5x5_reduce"
  param {
    lr_mult: 1
    decay_mult: 1
  }
  param {
    lr_mult: 2
    decay_mult: 0
  }
  convolution_param {
    num_output: 24
    kernel_size: 1
    weight_filler {
      type: "xavier"
    }
    bias_filler {
      type: "constant"
      value: 0.2
    }
  }
}
layer {
  name: "inception_4b/prelu_5x5_reduce"
  type: "PReLU"
  bottom: "inception_4b/5x5_reduce"
  top: "inception_4b/5x5_reduce"
  param {
    lr_mult: 1
    decay_mult: 0
  }
  prelu_param {
    filler {
      type: "constant"
      value: 0.01
    }
  }
}
layer {
  name: "inception_4b/5x5"
  type: "Convolution"
  bottom: "inception_4b/5x5_reduce"
  top: "inception_4b/5x5"
  param {
    lr_mult: 1
    decay_mult: 1
  }
  param {
    lr_mult: 2
    decay_mult: 0
  }
  convolution_param {
    num_output: 64
    pad: 2
    kernel_size: 5
    weight_filler {
      type: "xavier"
    }
    bias_filler {
      type: "constant"
      value: 0.2
    }
  }
}
layer {
  name: "inception_4b/prelu_5x5"
  type: "PReLU"
  bottom: "inception_4b/5x5"
  top: "inception_4b/5x5"
  param {
    lr_mult: 1
    decay_mult: 0
  }
  prelu_param {
    filler {
      type: "constant"
      value: 0.01
    }
  }
}
layer {
  name: "inception_4b/pool"
  type: "Pooling"
  bottom: "inception_4a/output"
  top: "inception_4b/pool"
  pooling_param {
    pool: MAX
    kernel_size: 3
    stride: 1
    pad: 1
  }
}
layer {
  name: "inception_4b/pool_proj"
  type: "Convolution"
  bottom: "inception_4b/pool"
  top: "inception_4b/pool_proj"
  param {
    lr_mult: 1
    decay_mult: 1
  }
  param {
    lr_mult: 2
    decay_mult: 0
  }
  convolution_param {
    num_output: 64
    kernel_size: 1
    weight_filler {
      type: "xavier"
    }
    bias_filler {
      type: "constant"
      value: 0.2
    }
  }
}
layer {
  name: "inception_4b/prelu_pool_proj"
  type: "PReLU"
  bottom: "inception_4b/pool_proj"
  top: "inception_4b/pool_proj"
  param {
    lr_mult: 1
    decay_mult: 0
  }
  prelu_param {
    filler {
      type: "constant"
      value: 0.01
    }
  }
}
layer {
  name: "inception_4b/output"
  type: "Concat"
  bottom: "inception_4b/1x1"
  bottom: "inception_4b/3x3"
  bottom: "inception_4b/5x5"
  bottom: "inception_4b/pool_proj"
  top: "inception_4b/output"
}
layer {
  name: "inception_4c/1x1"
  type: "Convolution"
  bottom: "inception_4b/output"
  top: "inception_4c/1x1"
  param {
    lr_mult: 1
    decay_mult: 1
  }
  param {
    lr_mult: 2
    decay_mult: 0
  }
  convolution_param {
    num_output: 128
    kernel_size: 1
    weight_filler {
      type: "xavier"
    }
    bias_filler {
      type: "constant"
      value: 0.2
    }
  }
}
layer {
  name: "inception_4c/prelu_1x1"
  type: "PReLU"
  bottom: "inception_4c/1x1"
  top: "inception_4c/1x1"
  param {
    lr_mult: 1
    decay_mult: 0
  }
  prelu_param {
    filler {
      type: "constant"
      value: 0.01
    }
  }
}
layer {
  name: "inception_4c/3x3_reduce"
  type: "Convolution"
  bottom: "inception_4b/output"
  top: "inception_4c/3x3_reduce"
  param {
    lr_mult: 1
    decay_mult: 1
  }
  param {
    lr_mult: 2
    decay_mult: 0
  }
  convolution_param {
    num_output: 128
    kernel_size: 1
    weight_filler {
      type: "xavier"
    }
    bias_filler {
      type: "constant"
      value: 0.2
    }
  }
}
layer {
  name: "inception_4c/prelu_3x3_reduce"
  type: "PReLU"
  bottom: "inception_4c/3x3_reduce"
  top: "inception_4c/3x3_reduce"
  param {
    lr_mult: 1
    decay_mult: 0
  }
  prelu_param {
    filler {
      type: "constant"
      value: 0.01
    }
  }
}
layer {
  name: "inception_4c/3x3"
  type: "Convolution"
  bottom: "inception_4c/3x3_reduce"
  top: "inception_4c/3x3"
  param {
    lr_mult: 1
    decay_mult: 1
  }
  param {
    lr_mult: 2
    decay_mult: 0
  }
  convolution_param {
    num_output: 256
    pad: 1
    kernel_size: 3
    weight_filler {
      type: "xavier"
    }
    bias_filler {
      type: "constant"
      value: 0.2
    }
  }
}
layer {
  name: "inception_4c/prelu_3x3"
  type: "PReLU"
  bottom: "inception_4c/3x3"
  top: "inception_4c/3x3"
  param {
    lr_mult: 1
    decay_mult: 0
  }
  prelu_param {
    filler {
      type: "constant"
      value: 0.01
    }
  }
}
layer {
  name: "inception_4c/5x5_reduce"
  type: "Convolution"
  bottom: "inception_4b/output"
  top: "inception_4c/5x5_reduce"
  param {
    lr_mult: 1
    decay_mult: 1
  }
  param {
    lr_mult: 2
    decay_mult: 0
  }
  convolution_param {
    num_output: 24
    kernel_size: 1
    weight_filler {
      type: "xavier"
    }
    bias_filler {
      type: "constant"
      value: 0.2
    }
  }
}
layer {
  name: "inception_4c/prelu_5x5_reduce"
  type: "PReLU"
  bottom: "inception_4c/5x5_reduce"
  top: "inception_4c/5x5_reduce"
  param {
    lr_mult: 1
    decay_mult: 0
  }
  prelu_param {
    filler {
      type: "constant"
      value: 0.01
    }
  }
}
layer {
  name: "inception_4c/5x5"
  type: "Convolution"
  bottom: "inception_4c/5x5_reduce"
  top: "inception_4c/5x5"
  param {
    lr_mult: 1
    decay_mult: 1
  }
  param {
    lr_mult: 2
    decay_mult: 0
  }
  convolution_param {
    num_output: 64
    pad: 2
    kernel_size: 5
    weight_filler {
      type: "xavier"
    }
    bias_filler {
      type: "constant"
      value: 0.2
    }
  }
}
layer {
  name: "inception_4c/prelu_5x5"
  type: "PReLU"
  bottom: "inception_4c/5x5"
  top: "inception_4c/5x5"
  param {
    lr_mult: 1
    decay_mult: 0
  }
  prelu_param {
    filler {
      type: "constant"
      value: 0.01
    }
  }
}
layer {
  name: "inception_4c/pool"
  type: "Pooling"
  bottom: "inception_4b/output"
  top: "inception_4c/pool"
  pooling_param {
    pool: MAX
    kernel_size: 3
    stride: 1
    pad: 1
  }
}
layer {
  name: "inception_4c/pool_proj"
  type: "Convolution"
  bottom: "inception_4c/pool"
  top: "inception_4c/pool_proj"
  param {
    lr_mult: 1
    decay_mult: 1
  }
  param {
    lr_mult: 2
    decay_mult: 0
  }
  convolution_param {
    num_output: 64
    kernel_size: 1
    weight_filler {
      type: "xavier"
    }
    bias_filler {
      type: "constant"
      value: 0.2
    }
  }
}
layer {
  name: "inception_4c/prelu_pool_proj"
  type: "PReLU"
  bottom: "inception_4c/pool_proj"
  top: "inception_4c/pool_proj"
  param {
    lr_mult: 1
    decay_mult: 0
  }
  prelu_param {
    filler {
      type: "constant"
      value: 0.01
    }
  }
}
layer {
  name: "inception_4c/output"
  type: "Concat"
  bottom: "inception_4c/1x1"
  bottom: "inception_4c/3x3"
  bottom: "inception_4c/5x5"
  bottom: "inception_4c/pool_proj"
  top: "inception_4c/output"
}
layer {
  name: "inception_4d/1x1"
  type: "Convolution"
  bottom: "inception_4c/output"
  top: "inception_4d/1x1"
  param {
    lr_mult: 1
    decay_mult: 1
  }
  param {
    lr_mult: 2
    decay_mult: 0
  }
  convolution_param {
    num_output: 112
    kernel_size: 1
    weight_filler {
      type: "xavier"
    }
    bias_filler {
      type: "constant"
      value: 0.2
    }
  }
}
layer {
  name: "inception_4d/prelu_1x1"
  type: "PReLU"
  bottom: "inception_4d/1x1"
  top: "inception_4d/1x1"
  param {
    lr_mult: 1
    decay_mult: 0
  }
  prelu_param {
    filler {
      type: "constant"
      value: 0.01
    }
  }
}
layer {
  name: "inception_4d/3x3_reduce"
  type: "Convolution"
  bottom: "inception_4c/output"
  top: "inception_4d/3x3_reduce"
  param {
    lr_mult: 1
    decay_mult: 1
  }
  param {
    lr_mult: 2
    decay_mult: 0
  }
  convolution_param {
    num_output: 144
    kernel_size: 1
    weight_filler {
      type: "xavier"
    }
    bias_filler {
      type: "constant"
      value: 0.2
    }
  }
}
layer {
  name: "inception_4d/prelu_3x3_reduce"
  type: "PReLU"
  bottom: "inception_4d/3x3_reduce"
  top: "inception_4d/3x3_reduce"
  param {
    lr_mult: 1
    decay_mult: 0
  }
  prelu_param {
    filler {
      type: "constant"
      value: 0.01
    }
  }
}
layer {
  name: "inception_4d/3x3"
  type: "Convolution"
  bottom: "inception_4d/3x3_reduce"
  top: "inception_4d/3x3"
  param {
    lr_mult: 1
    decay_mult: 1
  }
  param {
    lr_mult: 2
    decay_mult: 0
  }
  convolution_param {
    num_output: 288
    pad: 1
    kernel_size: 3
    weight_filler {
      type: "xavier"
    }
    bias_filler {
      type: "constant"
      value: 0.2
    }
  }
}
layer {
  name: "inception_4d/prelu_3x3"
  type: "PReLU"
  bottom: "inception_4d/3x3"
  top: "inception_4d/3x3"
  param {
    lr_mult: 1
    decay_mult: 0
  }
  prelu_param {
    filler {
      type: "constant"
      value: 0.01
    }
  }
}
layer {
  name: "inception_4d/5x5_reduce"
  type: "Convolution"
  bottom: "inception_4c/output"
  top: "inception_4d/5x5_reduce"
  param {
    lr_mult: 1
    decay_mult: 1
  }
  param {
    lr_mult: 2
    decay_mult: 0
  }
  convolution_param {
    num_output: 32
    kernel_size: 1
    weight_filler {
      type: "xavier"
    }
    bias_filler {
      type: "constant"
      value: 0.2
    }
  }
}
layer {
  name: "inception_4d/prelu_5x5_reduce"
  type: "PReLU"
  bottom: "inception_4d/5x5_reduce"
  top: "inception_4d/5x5_reduce"
  param {
    lr_mult: 1
    decay_mult: 0
  }
  prelu_param {
    filler {
      type: "constant"
      value: 0.01
    }
  }
}
layer {
  name: "inception_4d/5x5"
  type: "Convolution"
  bottom: "inception_4d/5x5_reduce"
  top: "inception_4d/5x5"
  param {
    lr_mult: 1
    decay_mult: 1
  }
  param {
    lr_mult: 2
    decay_mult: 0
  }
  convolution_param {
    num_output: 64
    pad: 2
    kernel_size: 5
    weight_filler {
      type: "xavier"
    }
    bias_filler {
      type: "constant"
      value: 0.2
    }
  }
}
layer {
  name: "inception_4d/prelu_5x5"
  type: "PReLU"
  bottom: "inception_4d/5x5"
  top: "inception_4d/5x5"
  param {
    lr_mult: 1
    decay_mult: 0
  }
  prelu_param {
    filler {
      type: "constant"
      value: 0.01
    }
  }
}
layer {
  name: "inception_4d/pool"
  type: "Pooling"
  bottom: "inception_4c/output"
  top: "inception_4d/pool"
  pooling_param {
    pool: MAX
    kernel_size: 3
    stride: 1
    pad: 1
  }
}
layer {
  name: "inception_4d/pool_proj"
  type: "Convolution"
  bottom: 
I1126 10:40:47.680830 10429 layer_factory.hpp:76] Creating layer data
I1126 10:40:47.681440 10429 net.cpp:106] Creating Layer data
I1126 10:40:47.681474 10429 net.cpp:411] data -> data
I1126 10:40:47.681514 10429 net.cpp:411] data -> label
I1126 10:40:47.731881 10433 db_lmdb.cpp:38] Opened lmdb ../../LMDB-s300/train_8-lmdb
I1126 10:40:47.760633 10429 data_layer.cpp:41] output data size: 32,3,224,224
I1126 10:40:47.829800 10429 net.cpp:150] Setting up data
I1126 10:40:47.829846 10429 net.cpp:157] Top shape: 32 3 224 224 (4816896)
I1126 10:40:47.829854 10429 net.cpp:157] Top shape: 32 (32)
I1126 10:40:47.829859 10429 net.cpp:165] Memory required for data: 19267712
I1126 10:40:47.829869 10429 layer_factory.hpp:76] Creating layer label_data_1_split
I1126 10:40:47.829885 10429 net.cpp:106] Creating Layer label_data_1_split
I1126 10:40:47.829891 10429 net.cpp:454] label_data_1_split <- label
I1126 10:40:47.829907 10429 net.cpp:411] label_data_1_split -> label_data_1_split_0
I1126 10:40:47.829918 10429 net.cpp:411] label_data_1_split -> label_data_1_split_1
I1126 10:40:47.829927 10429 net.cpp:411] label_data_1_split -> label_data_1_split_2
I1126 10:40:47.829996 10429 net.cpp:150] Setting up label_data_1_split
I1126 10:40:47.830006 10429 net.cpp:157] Top shape: 32 (32)
I1126 10:40:47.830011 10429 net.cpp:157] Top shape: 32 (32)
I1126 10:40:47.830016 10429 net.cpp:157] Top shape: 32 (32)
I1126 10:40:47.830020 10429 net.cpp:165] Memory required for data: 19268096
I1126 10:40:47.830024 10429 layer_factory.hpp:76] Creating layer conv1/7x7_s2
I1126 10:40:47.830041 10429 net.cpp:106] Creating Layer conv1/7x7_s2
I1126 10:40:47.830046 10429 net.cpp:454] conv1/7x7_s2 <- data
I1126 10:40:47.830054 10429 net.cpp:411] conv1/7x7_s2 -> conv1/7x7_s2
I1126 10:40:47.891582 10434 blocking_queue.cpp:50] Waiting for data
I1126 10:40:48.017526 10429 cudnn_conv_layer.cpp:194] Reallocating workspace storage: 225816
I1126 10:40:48.017784 10429 net.cpp:150] Setting up conv1/7x7_s2
I1126 10:40:48.017799 10429 net.cpp:157] Top shape: 32 64 112 112 (25690112)
I1126 10:40:48.017804 10429 net.cpp:165] Memory required for data: 122028544
I1126 10:40:48.017823 10429 layer_factory.hpp:76] Creating layer conv1/prelu_7x7
I1126 10:40:48.017840 10429 net.cpp:106] Creating Layer conv1/prelu_7x7
I1126 10:40:48.017846 10429 net.cpp:454] conv1/prelu_7x7 <- conv1/7x7_s2
I1126 10:40:48.017854 10429 net.cpp:397] conv1/prelu_7x7 -> conv1/7x7_s2 (in-place)
I1126 10:40:48.019563 10429 net.cpp:150] Setting up conv1/prelu_7x7
I1126 10:40:48.019577 10429 net.cpp:157] Top shape: 32 64 112 112 (25690112)
I1126 10:40:48.019582 10429 net.cpp:165] Memory required for data: 224788992
I1126 10:40:48.019589 10429 layer_factory.hpp:76] Creating layer pool1/3x3_s2
I1126 10:40:48.019603 10429 net.cpp:106] Creating Layer pool1/3x3_s2
I1126 10:40:48.019608 10429 net.cpp:454] pool1/3x3_s2 <- conv1/7x7_s2
I1126 10:40:48.019614 10429 net.cpp:411] pool1/3x3_s2 -> pool1/3x3_s2
I1126 10:40:48.019986 10429 net.cpp:150] Setting up pool1/3x3_s2
I1126 10:40:48.019996 10429 net.cpp:157] Top shape: 32 64 56 56 (6422528)
I1126 10:40:48.020000 10429 net.cpp:165] Memory required for data: 250479104
I1126 10:40:48.020005 10429 layer_factory.hpp:76] Creating layer pool1/norm1
I1126 10:40:48.020016 10429 net.cpp:106] Creating Layer pool1/norm1
I1126 10:40:48.020021 10429 net.cpp:454] pool1/norm1 <- pool1/3x3_s2
I1126 10:40:48.020027 10429 net.cpp:411] pool1/norm1 -> pool1/norm1
I1126 10:40:48.020180 10429 net.cpp:150] Setting up pool1/norm1
I1126 10:40:48.020189 10429 net.cpp:157] Top shape: 32 64 56 56 (6422528)
I1126 10:40:48.020194 10429 net.cpp:165] Memory required for data: 276169216
I1126 10:40:48.020197 10429 layer_factory.hpp:76] Creating layer conv2/3x3_reduce
I1126 10:40:48.020207 10429 net.cpp:106] Creating Layer conv2/3x3_reduce
I1126 10:40:48.020212 10429 net.cpp:454] conv2/3x3_reduce <- pool1/norm1
I1126 10:40:48.020218 10429 net.cpp:411] conv2/3x3_reduce -> conv2/3x3_reduce
I1126 10:40:48.021623 10429 cudnn_conv_layer.cpp:194] Reallocating workspace storage: 63000
I1126 10:40:48.021643 10429 net.cpp:150] Setting up conv2/3x3_reduce
I1126 10:40:48.021651 10429 net.cpp:157] Top shape: 32 64 56 56 (6422528)
I1126 10:40:48.021656 10429 net.cpp:165] Memory required for data: 301859328
I1126 10:40:48.021664 10429 layer_factory.hpp:76] Creating layer conv2/prelu_3x3_reduce
I1126 10:40:48.021672 10429 net.cpp:106] Creating Layer conv2/prelu_3x3_reduce
I1126 10:40:48.021677 10429 net.cpp:454] conv2/prelu_3x3_reduce <- conv2/3x3_reduce
I1126 10:40:48.021683 10429 net.cpp:397] conv2/prelu_3x3_reduce -> conv2/3x3_reduce (in-place)
I1126 10:40:48.022294 10429 net.cpp:150] Setting up conv2/prelu_3x3_reduce
I1126 10:40:48.022303 10429 net.cpp:157] Top shape: 32 64 56 56 (6422528)
I1126 10:40:48.022307 10429 net.cpp:165] Memory required for data: 327549440
I1126 10:40:48.022313 10429 layer_factory.hpp:76] Creating layer conv2/3x3
I1126 10:40:48.022323 10429 net.cpp:106] Creating Layer conv2/3x3
I1126 10:40:48.022327 10429 net.cpp:454] conv2/3x3 <- conv2/3x3_reduce
I1126 10:40:48.022335 10429 net.cpp:411] conv2/3x3 -> conv2/3x3
I1126 10:40:48.024425 10429 cudnn_conv_layer.cpp:194] Reallocating workspace storage: 63000
I1126 10:40:48.024443 10429 net.cpp:150] Setting up conv2/3x3
I1126 10:40:48.024451 10429 net.cpp:157] Top shape: 32 192 56 56 (19267584)
I1126 10:40:48.024456 10429 net.cpp:165] Memory required for data: 404619776
I1126 10:40:48.024462 10429 layer_factory.hpp:76] Creating layer conv2/prelu_3x3
I1126 10:40:48.024471 10429 net.cpp:106] Creating Layer conv2/prelu_3x3
I1126 10:40:48.024477 10429 net.cpp:454] conv2/prelu_3x3 <- conv2/3x3
I1126 10:40:48.024482 10429 net.cpp:397] conv2/prelu_3x3 -> conv2/3x3 (in-place)
I1126 10:40:48.025657 10429 net.cpp:150] Setting up conv2/prelu_3x3
I1126 10:40:48.025670 10429 net.cpp:157] Top shape: 32 192 56 56 (19267584)
I1126 10:40:48.025696 10429 net.cpp:165] Memory required for data: 481690112
I1126 10:40:48.025706 10429 layer_factory.hpp:76] Creating layer conv2/norm2
I1126 10:40:48.025717 10429 net.cpp:106] Creating Layer conv2/norm2
I1126 10:40:48.025720 10429 net.cpp:454] conv2/norm2 <- conv2/3x3
I1126 10:40:48.025727 10429 net.cpp:411] conv2/norm2 -> conv2/norm2
I1126 10:40:48.025892 10429 net.cpp:150] Setting up conv2/norm2
I1126 10:40:48.025900 10429 net.cpp:157] Top shape: 32 192 56 56 (19267584)
I1126 10:40:48.025904 10429 net.cpp:165] Memory required for data: 558760448
I1126 10:40:48.025908 10429 layer_factory.hpp:76] Creating layer pool2/3x3_s2
I1126 10:40:48.025917 10429 net.cpp:106] Creating Layer pool2/3x3_s2
I1126 10:40:48.025920 10429 net.cpp:454] pool2/3x3_s2 <- conv2/norm2
I1126 10:40:48.025926 10429 net.cpp:411] pool2/3x3_s2 -> pool2/3x3_s2
I1126 10:40:48.026265 10429 net.cpp:150] Setting up pool2/3x3_s2
I1126 10:40:48.026276 10429 net.cpp:157] Top shape: 32 192 28 28 (4816896)
I1126 10:40:48.026280 10429 net.cpp:165] Memory required for data: 578028032
I1126 10:40:48.026285 10429 layer_factory.hpp:76] Creating layer pool2/3x3_s2_pool2/3x3_s2_0_split
I1126 10:40:48.026291 10429 net.cpp:106] Creating Layer pool2/3x3_s2_pool2/3x3_s2_0_split
I1126 10:40:48.026295 10429 net.cpp:454] pool2/3x3_s2_pool2/3x3_s2_0_split <- pool2/3x3_s2
I1126 10:40:48.026301 10429 net.cpp:411] pool2/3x3_s2_pool2/3x3_s2_0_split -> pool2/3x3_s2_pool2/3x3_s2_0_split_0
I1126 10:40:48.026307 10429 net.cpp:411] pool2/3x3_s2_pool2/3x3_s2_0_split -> pool2/3x3_s2_pool2/3x3_s2_0_split_1
I1126 10:40:48.026314 10429 net.cpp:411] pool2/3x3_s2_pool2/3x3_s2_0_split -> pool2/3x3_s2_pool2/3x3_s2_0_split_2
I1126 10:40:48.026321 10429 net.cpp:411] pool2/3x3_s2_pool2/3x3_s2_0_split -> pool2/3x3_s2_pool2/3x3_s2_0_split_3
I1126 10:40:48.026368 10429 net.cpp:150] Setting up pool2/3x3_s2_pool2/3x3_s2_0_split
I1126 10:40:48.026376 10429 net.cpp:157] Top shape: 32 192 28 28 (4816896)
I1126 10:40:48.026379 10429 net.cpp:157] Top shape: 32 192 28 28 (4816896)
I1126 10:40:48.026384 10429 net.cpp:157] Top shape: 32 192 28 28 (4816896)
I1126 10:40:48.026388 10429 net.cpp:157] Top shape: 32 192 28 28 (4816896)
I1126 10:40:48.026392 10429 net.cpp:165] Memory required for data: 655098368
I1126 10:40:48.026396 10429 layer_factory.hpp:76] Creating layer inception_3a/1x1
I1126 10:40:48.026406 10429 net.cpp:106] Creating Layer inception_3a/1x1
I1126 10:40:48.026409 10429 net.cpp:454] inception_3a/1x1 <- pool2/3x3_s2_pool2/3x3_s2_0_split_0
I1126 10:40:48.026417 10429 net.cpp:411] inception_3a/1x1 -> inception_3a/1x1
I1126 10:40:48.027879 10429 cudnn_conv_layer.cpp:194] Reallocating workspace storage: 20664
I1126 10:40:48.027899 10429 net.cpp:150] Setting up inception_3a/1x1
I1126 10:40:48.027909 10429 net.cpp:157] Top shape: 32 64 28 28 (1605632)
I1126 10:40:48.027914 10429 net.cpp:165] Memory required for data: 661520896
I1126 10:40:48.027920 10429 layer_factory.hpp:76] Creating layer inception_3a/prelu_1x1
I1126 10:40:48.027927 10429 net.cpp:106] Creating Layer inception_3a/prelu_1x1
I1126 10:40:48.027932 10429 net.cpp:454] inception_3a/prelu_1x1 <- inception_3a/1x1
I1126 10:40:48.027938 10429 net.cpp:397] inception_3a/prelu_1x1 -> inception_3a/1x1 (in-place)
I1126 10:40:48.028528 10429 net.cpp:150] Setting up inception_3a/prelu_1x1
I1126 10:40:48.028540 10429 net.cpp:157] Top shape: 32 64 28 28 (1605632)
I1126 10:40:48.028544 10429 net.cpp:165] Memory required for data: 667943424
I1126 10:40:48.028550 10429 layer_factory.hpp:76] Creating layer inception_3a/3x3_reduce
I1126 10:40:48.028559 10429 net.cpp:106] Creating Layer inception_3a/3x3_reduce
I1126 10:40:48.028564 10429 net.cpp:454] inception_3a/3x3_reduce <- pool2/3x3_s2_pool2/3x3_s2_0_split_1
I1126 10:40:48.028573 10429 net.cpp:411] inception_3a/3x3_reduce -> inception_3a/3x3_reduce
I1126 10:40:48.029536 10429 cudnn_conv_layer.cpp:194] Reallocating workspace storage: 20664
I1126 10:40:48.029554 10429 net.cpp:150] Setting up inception_3a/3x3_reduce
I1126 10:40:48.029562 10429 net.cpp:157] Top shape: 32 96 28 28 (2408448)
I1126 10:40:48.029580 10429 net.cpp:165] Memory required for data: 677577216
I1126 10:40:48.029587 10429 layer_factory.hpp:76] Creating layer inception_3a/prelu_3x3_reduce
I1126 10:40:48.029599 10429 net.cpp:106] Creating Layer inception_3a/prelu_3x3_reduce
I1126 10:40:48.029604 10429 net.cpp:454] inception_3a/prelu_3x3_reduce <- inception_3a/3x3_reduce
I1126 10:40:48.029610 10429 net.cpp:397] inception_3a/prelu_3x3_reduce -> inception_3a/3x3_reduce (in-place)
I1126 10:40:48.029744 10429 net.cpp:150] Setting up inception_3a/prelu_3x3_reduce
I1126 10:40:48.029752 10429 net.cpp:157] Top shape: 32 96 28 28 (2408448)
I1126 10:40:48.029757 10429 net.cpp:165] Memory required for data: 687211008
I1126 10:40:48.029762 10429 layer_factory.hpp:76] Creating layer inception_3a/3x3
I1126 10:40:48.029770 10429 net.cpp:106] Creating Layer inception_3a/3x3
I1126 10:40:48.029775 10429 net.cpp:454] inception_3a/3x3 <- inception_3a/3x3_reduce
I1126 10:40:48.029781 10429 net.cpp:411] inception_3a/3x3 -> inception_3a/3x3
I1126 10:40:48.032073 10429 cudnn_conv_layer.cpp:194] Reallocating workspace storage: 20664
I1126 10:40:48.032105 10429 net.cpp:150] Setting up inception_3a/3x3
I1126 10:40:48.032115 10429 net.cpp:157] Top shape: 32 128 28 28 (3211264)
I1126 10:40:48.032119 10429 net.cpp:165] Memory required for data: 700056064
I1126 10:40:48.032135 10429 layer_factory.hpp:76] Creating layer inception_3a/prelu_3x3
I1126 10:40:48.032146 10429 net.cpp:106] Creating Layer inception_3a/prelu_3x3
I1126 10:40:48.032152 10429 net.cpp:454] inception_3a/prelu_3x3 <- inception_3a/3x3
I1126 10:40:48.032161 10429 net.cpp:397] inception_3a/prelu_3x3 -> inception_3a/3x3 (in-place)
I1126 10:40:48.032294 10429 net.cpp:150] Setting up inception_3a/prelu_3x3
I1126 10:40:48.032304 10429 net.cpp:157] Top shape: 32 128 28 28 (3211264)
I1126 10:40:48.032307 10429 net.cpp:165] Memory required for data: 712901120
I1126 10:40:48.032312 10429 layer_factory.hpp:76] Creating layer inception_3a/5x5_reduce
I1126 10:40:48.032325 10429 net.cpp:106] Creating Layer inception_3a/5x5_reduce
I1126 10:40:48.032330 10429 net.cpp:454] inception_3a/5x5_reduce <- pool2/3x3_s2_pool2/3x3_s2_0_split_2
I1126 10:40:48.032337 10429 net.cpp:411] inception_3a/5x5_reduce -> inception_3a/5x5_reduce
I1126 10:40:48.033627 10429 cudnn_conv_layer.cpp:194] Reallocating workspace storage: 20664
I1126 10:40:48.033649 10429 net.cpp:150] Setting up inception_3a/5x5_reduce
I1126 10:40:48.033658 10429 net.cpp:157] Top shape: 32 16 28 28 (401408)
I1126 10:40:48.033663 10429 net.cpp:165] Memory required for data: 714506752
I1126 10:40:48.033669 10429 layer_factory.hpp:76] Creating layer inception_3a/prelu_5x5_reduce
I1126 10:40:48.033679 10429 net.cpp:106] Creating Layer inception_3a/prelu_5x5_reduce
I1126 10:40:48.033685 10429 net.cpp:454] inception_3a/prelu_5x5_reduce <- inception_3a/5x5_reduce
I1126 10:40:48.033694 10429 net.cpp:397] inception_3a/prelu_5x5_reduce -> inception_3a/5x5_reduce (in-place)
I1126 10:40:48.033784 10429 net.cpp:150] Setting up inception_3a/prelu_5x5_reduce
I1126 10:40:48.033792 10429 net.cpp:157] Top shape: 32 16 28 28 (401408)
I1126 10:40:48.033797 10429 net.cpp:165] Memory required for data: 716112384
I1126 10:40:48.033802 10429 layer_factory.hpp:76] Creating layer inception_3a/5x5
I1126 10:40:48.033812 10429 net.cpp:106] Creating Layer inception_3a/5x5
I1126 10:40:48.033817 10429 net.cpp:454] inception_3a/5x5 <- inception_3a/5x5_reduce
I1126 10:40:48.033824 10429 net.cpp:411] inception_3a/5x5 -> inception_3a/5x5
I1126 10:40:48.034899 10429 cudnn_conv_layer.cpp:194] Reallocating workspace storage: 20664
I1126 10:40:48.034917 10429 net.cpp:150] Setting up inception_3a/5x5
I1126 10:40:48.034927 10429 net.cpp:157] Top shape: 32 32 28 28 (802816)
I1126 10:40:48.034931 10429 net.cpp:165] Memory required for data: 719323648
I1126 10:40:48.034940 10429 layer_factory.hpp:76] Creating layer inception_3a/prelu_5x5
I1126 10:40:48.034947 10429 net.cpp:106] Creating Layer inception_3a/prelu_5x5
I1126 10:40:48.034952 10429 net.cpp:454] inception_3a/prelu_5x5 <- inception_3a/5x5
I1126 10:40:48.034961 10429 net.cpp:397] inception_3a/prelu_5x5 -> inception_3a/5x5 (in-place)
I1126 10:40:48.035079 10429 net.cpp:150] Setting up inception_3a/prelu_5x5
I1126 10:40:48.035089 10429 net.cpp:157] Top shape: 32 32 28 28 (802816)
I1126 10:40:48.035094 10429 net.cpp:165] Memory required for data: 722534912
I1126 10:40:48.035099 10429 layer_factory.hpp:76] Creating layer inception_3a/pool
I1126 10:40:48.035106 10429 net.cpp:106] Creating Layer inception_3a/pool
I1126 10:40:48.035110 10429 net.cpp:454] inception_3a/pool <- pool2/3x3_s2_pool2/3x3_s2_0_split_3
I1126 10:40:48.035116 10429 net.cpp:411] inception_3a/pool -> inception_3a/pool
I1126 10:40:48.035308 10429 net.cpp:150] Setting up inception_3a/pool
I1126 10:40:48.035316 10429 net.cpp:157] Top shape: 32 192 28 28 (4816896)
I1126 10:40:48.035320 10429 net.cpp:165] Memory required for data: 741802496
I1126 10:40:48.035326 10429 layer_factory.hpp:76] Creating layer inception_3a/pool_proj
I1126 10:40:48.035334 10429 net.cpp:106] Creating Layer inception_3a/pool_proj
I1126 10:40:48.035339 10429 net.cpp:454] inception_3a/pool_proj <- inception_3a/pool
I1126 10:40:48.035346 10429 net.cpp:411] inception_3a/pool_proj -> inception_3a/pool_proj
I1126 10:40:48.036357 10429 cudnn_conv_layer.cpp:194] Reallocating workspace storage: 20664
I1126 10:40:48.036375 10429 net.cpp:150] Setting up inception_3a/pool_proj
I1126 10:40:48.036382 10429 net.cpp:157] Top shape: 32 32 28 28 (802816)
I1126 10:40:48.036386 10429 net.cpp:165] Memory required for data: 745013760
I1126 10:40:48.036393 10429 layer_factory.hpp:76] Creating layer inception_3a/prelu_pool_proj
I1126 10:40:48.036401 10429 net.cpp:106] Creating Layer inception_3a/prelu_pool_proj
I1126 10:40:48.036406 10429 net.cpp:454] inception_3a/prelu_pool_proj <- inception_3a/pool_proj
I1126 10:40:48.036413 10429 net.cpp:397] inception_3a/prelu_pool_proj -> inception_3a/pool_proj (in-place)
I1126 10:40:48.036504 10429 net.cpp:150] Setting up inception_3a/prelu_pool_proj
I1126 10:40:48.036514 10429 net.cpp:157] Top shape: 32 32 28 28 (802816)
I1126 10:40:48.036517 10429 net.cpp:165] Memory required for data: 748225024
I1126 10:40:48.036522 10429 layer_factory.hpp:76] Creating layer inception_3a/output
I1126 10:40:48.036533 10429 net.cpp:106] Creating Layer inception_3a/output
I1126 10:40:48.036537 10429 net.cpp:454] inception_3a/output <- inception_3a/1x1
I1126 10:40:48.036542 10429 net.cpp:454] inception_3a/output <- inception_3a/3x3
I1126 10:40:48.036547 10429 net.cpp:454] inception_3a/output <- inception_3a/5x5
I1126 10:40:48.036551 10429 net.cpp:454] inception_3a/output <- inception_3a/pool_proj
I1126 10:40:48.036556 10429 net.cpp:411] inception_3a/output -> inception_3a/output
I1126 10:40:48.036582 10429 net.cpp:150] Setting up inception_3a/output
I1126 10:40:48.036589 10429 net.cpp:157] Top shape: 32 256 28 28 (6422528)
I1126 10:40:48.036592 10429 net.cpp:165] Memory required for data: 773915136
I1126 10:40:48.036597 10429 layer_factory.hpp:76] Creating layer inception_3a/output_inception_3a/output_0_split
I1126 10:40:48.036602 10429 net.cpp:106] Creating Layer inception_3a/output_inception_3a/output_0_split
I1126 10:40:48.036608 10429 net.cpp:454] inception_3a/output_inception_3a/output_0_split <- inception_3a/output
I1126 10:40:48.036613 10429 net.cpp:411] inception_3a/output_inception_3a/output_0_split -> inception_3a/output_inception_3a/output_0_split_0
I1126 10:40:48.036620 10429 net.cpp:411] inception_3a/output_inception_3a/output_0_split -> inception_3a/output_inception_3a/output_0_split_1
I1126 10:40:48.036626 10429 net.cpp:411] inception_3a/output_inception_3a/output_0_split -> inception_3a/output_inception_3a/output_0_split_2
I1126 10:40:48.036633 10429 net.cpp:411] inception_3a/output_inception_3a/output_0_split -> inception_3a/output_inception_3a/output_0_split_3
I1126 10:40:48.036680 10429 net.cpp:150] Setting up inception_3a/output_inception_3a/output_0_split
I1126 10:40:48.036687 10429 net.cpp:157] Top shape: 32 256 28 28 (6422528)
I1126 10:40:48.036691 10429 net.cpp:157] Top shape: 32 256 28 28 (6422528)
I1126 10:40:48.036696 10429 net.cpp:157] Top shape: 32 256 28 28 (6422528)
I1126 10:40:48.036720 10429 net.cpp:157] Top shape: 32 256 28 28 (6422528)
I1126 10:40:48.036725 10429 net.cpp:165] Memory required for data: 876675584
I1126 10:40:48.036730 10429 layer_factory.hpp:76] Creating layer inception_3b/1x1
I1126 10:40:48.036738 10429 net.cpp:106] Creating Layer inception_3b/1x1
I1126 10:40:48.036742 10429 net.cpp:454] inception_3b/1x1 <- inception_3a/output_inception_3a/output_0_split_0
I1126 10:40:48.036748 10429 net.cpp:411] inception_3b/1x1 -> inception_3b/1x1
I1126 10:40:48.037904 10429 cudnn_conv_layer.cpp:194] Reallocating workspace storage: 20664
I1126 10:40:48.037919 10429 net.cpp:150] Setting up inception_3b/1x1
I1126 10:40:48.037926 10429 net.cpp:157] Top shape: 32 128 28 28 (3211264)
I1126 10:40:48.037930 10429 net.cpp:165] Memory required for data: 889520640
I1126 10:40:48.037937 10429 layer_factory.hpp:76] Creating layer inception_3b/prelu_1x1
I1126 10:40:48.037947 10429 net.cpp:106] Creating Layer inception_3b/prelu_1x1
I1126 10:40:48.037952 10429 net.cpp:454] inception_3b/prelu_1x1 <- inception_3b/1x1
I1126 10:40:48.037961 10429 net.cpp:397] inception_3b/prelu_1x1 -> inception_3b/1x1 (in-place)
I1126 10:40:48.038626 10429 net.cpp:150] Setting up inception_3b/prelu_1x1
I1126 10:40:48.038637 10429 net.cpp:157] Top shape: 32 128 28 28 (3211264)
I1126 10:40:48.038642 10429 net.cpp:165] Memory required for data: 902365696
I1126 10:40:48.038648 10429 layer_factory.hpp:76] Creating layer inception_3b/3x3_reduce
I1126 10:40:48.038660 10429 net.cpp:106] Creating Layer inception_3b/3x3_reduce
I1126 10:40:48.038666 10429 net.cpp:454] inception_3b/3x3_reduce <- inception_3a/output_inception_3a/output_0_split_1
I1126 10:40:48.038673 10429 net.cpp:411] inception_3b/3x3_reduce -> inception_3b/3x3_reduce
I1126 10:40:48.039930 10429 cudnn_conv_layer.cpp:194] Reallocating workspace storage: 20664
I1126 10:40:48.039949 10429 net.cpp:150] Setting up inception_3b/3x3_reduce
I1126 10:40:48.039957 10429 net.cpp:157] Top shape: 32 128 28 28 (3211264)
I1126 10:40:48.039960 10429 net.cpp:165] Memory required for data: 915210752
I1126 10:40:48.039968 10429 layer_factory.hpp:76] Creating layer inception_3b/prelu_3x3_reduce
I1126 10:40:48.039975 10429 net.cpp:106] Creating Layer inception_3b/prelu_3x3_reduce
I1126 10:40:48.039980 10429 net.cpp:454] inception_3b/prelu_3x3_reduce <- inception_3b/3x3_reduce
I1126 10:40:48.039988 10429 net.cpp:397] inception_3b/prelu_3x3_reduce -> inception_3b/3x3_reduce (in-place)
I1126 10:40:48.040120 10429 net.cpp:150] Setting up inception_3b/prelu_3x3_reduce
I1126 10:40:48.040128 10429 net.cpp:157] Top shape: 32 128 28 28 (3211264)
I1126 10:40:48.040132 10429 net.cpp:165] Memory required for data: 928055808
I1126 10:40:48.040143 10429 layer_factory.hpp:76] Creating layer inception_3b/3x3
I1126 10:40:48.040156 10429 net.cpp:106] Creating Layer inception_3b/3x3
I1126 10:40:48.040160 10429 net.cpp:454] inception_3b/3x3 <- inception_3b/3x3_reduce
I1126 10:40:48.040168 10429 net.cpp:411] inception_3b/3x3 -> inception_3b/3x3
I1126 10:40:48.042881 10429 cudnn_conv_layer.cpp:194] Reallocating workspace storage: 20664
I1126 10:40:48.042901 10429 net.cpp:150] Setting up inception_3b/3x3
I1126 10:40:48.042908 10429 net.cpp:157] Top shape: 32 192 28 28 (4816896)
I1126 10:40:48.042912 10429 net.cpp:165] Memory required for data: 947323392
I1126 10:40:48.042919 10429 layer_factory.hpp:76] Creating layer inception_3b/prelu_3x3
I1126 10:40:48.042929 10429 net.cpp:106] Creating Layer inception_3b/prelu_3x3
I1126 10:40:48.042934 10429 net.cpp:454] inception_3b/prelu_3x3 <- inception_3b/3x3
I1126 10:40:48.042943 10429 net.cpp:397] inception_3b/prelu_3x3 -> inception_3b/3x3 (in-place)
I1126 10:40:48.043612 10429 net.cpp:150] Setting up inception_3b/prelu_3x3
I1126 10:40:48.043625 10429 net.cpp:157] Top shape: 32 192 28 28 (4816896)
I1126 10:40:48.043629 10429 net.cpp:165] Memory required for data: 966590976
I1126 10:40:48.043635 10429 layer_factory.hpp:76] Creating layer inception_3b/5x5_reduce
I1126 10:40:48.043647 10429 net.cpp:106] Creating Layer inception_3b/5x5_reduce
I1126 10:40:48.043678 10429 net.cpp:454] inception_3b/5x5_reduce <- inception_3a/output_inception_3a/output_0_split_2
I1126 10:40:48.043689 10429 net.cpp:411] inception_3b/5x5_reduce -> inception_3b/5x5_reduce
I1126 10:40:48.044637 10429 cudnn_conv_layer.cpp:194] Reallocating workspace storage: 20664
I1126 10:40:48.044657 10429 net.cpp:150] Setting up inception_3b/5x5_reduce
I1126 10:40:48.044664 10429 net.cpp:157] Top shape: 32 32 28 28 (802816)
I1126 10:40:48.044668 10429 net.cpp:165] Memory required for data: 969802240
I1126 10:40:48.044675 10429 layer_factory.hpp:76] Creating layer inception_3b/prelu_5x5_reduce
I1126 10:40:48.044682 10429 net.cpp:106] Creating Layer inception_3b/prelu_5x5_reduce
I1126 10:40:48.044687 10429 net.cpp:454] inception_3b/prelu_5x5_reduce <- inception_3b/5x5_reduce
I1126 10:40:48.044695 10429 net.cpp:397] inception_3b/prelu_5x5_reduce -> inception_3b/5x5_reduce (in-place)
I1126 10:40:48.044812 10429 net.cpp:150] Setting up inception_3b/prelu_5x5_reduce
I1126 10:40:48.044821 10429 net.cpp:157] Top shape: 32 32 28 28 (802816)
I1126 10:40:48.044826 10429 net.cpp:165] Memory required for data: 973013504
I1126 10:40:48.044831 10429 layer_factory.hpp:76] Creating layer inception_3b/5x5
I1126 10:40:48.044839 10429 net.cpp:106] Creating Layer inception_3b/5x5
I1126 10:40:48.044844 10429 net.cpp:454] inception_3b/5x5 <- inception_3b/5x5_reduce
I1126 10:40:48.044850 10429 net.cpp:411] inception_3b/5x5 -> inception_3b/5x5
I1126 10:40:48.046355 10429 cudnn_conv_layer.cpp:194] Reallocating workspace storage: 20664
I1126 10:40:48.046372 10429 net.cpp:150] Setting up inception_3b/5x5
I1126 10:40:48.046382 10429 net.cpp:157] Top shape: 32 96 28 28 (2408448)
I1126 10:40:48.046386 10429 net.cpp:165] Memory required for data: 982647296
I1126 10:40:48.046393 10429 layer_factory.hpp:76] Creating layer inception_3b/prelu_5x5
I1126 10:40:48.046401 10429 net.cpp:106] Creating Layer inception_3b/prelu_5x5
I1126 10:40:48.046406 10429 net.cpp:454] inception_3b/prelu_5x5 <- inception_3b/5x5
I1126 10:40:48.046413 10429 net.cpp:397] inception_3b/prelu_5x5 -> inception_3b/5x5 (in-place)
I1126 10:40:48.046560 10429 net.cpp:150] Setting up inception_3b/prelu_5x5
I1126 10:40:48.046568 10429 net.cpp:157] Top shape: 32 96 28 28 (2408448)
I1126 10:40:48.046572 10429 net.cpp:165] Memory required for data: 992281088
I1126 10:40:48.046577 10429 layer_factory.hpp:76] Creating layer inception_3b/pool
I1126 10:40:48.046586 10429 net.cpp:106] Creating Layer inception_3b/pool
I1126 10:40:48.046591 10429 net.cpp:454] inception_3b/pool <- inception_3a/output_inception_3a/output_0_split_3
I1126 10:40:48.046598 10429 net.cpp:411] inception_3b/pool -> inception_3b/pool
I1126 10:40:48.046962 10429 net.cpp:150] Setting up inception_3b/pool
I1126 10:40:48.046972 10429 net.cpp:157] Top shape: 32 256 28 28 (6422528)
I1126 10:40:48.046977 10429 net.cpp:165] Memory required for data: 1017971200
I1126 10:40:48.046980 10429 layer_factory.hpp:76] Creating layer inception_3b/pool_proj
I1126 10:40:48.046993 10429 net.cpp:106] Creating Layer inception_3b/pool_proj
I1126 10:40:48.046998 10429 net.cpp:454] inception_3b/pool_proj <- inception_3b/pool
I1126 10:40:48.047006 10429 net.cpp:411] inception_3b/pool_proj -> inception_3b/pool_proj
I1126 10:40:48.048120 10429 cudnn_conv_layer.cpp:194] Reallocating workspace storage: 20664
I1126 10:40:48.048136 10429 net.cpp:150] Setting up inception_3b/pool_proj
I1126 10:40:48.048143 10429 net.cpp:157] Top shape: 32 64 28 28 (1605632)
I1126 10:40:48.048147 10429 net.cpp:165] Memory required for data: 1024393728
I1126 10:40:48.048156 10429 layer_factory.hpp:76] Creating layer inception_3b/prelu_pool_proj
I1126 10:40:48.048164 10429 net.cpp:106] Creating Layer inception_3b/prelu_pool_proj
I1126 10:40:48.048171 10429 net.cpp:454] inception_3b/prelu_pool_proj <- inception_3b/pool_proj
I1126 10:40:48.048177 10429 net.cpp:397] inception_3b/prelu_pool_proj -> inception_3b/pool_proj (in-place)
I1126 10:40:48.048318 10429 net.cpp:150] Setting up inception_3b/prelu_pool_proj
I1126 10:40:48.048348 10429 net.cpp:157] Top shape: 32 64 28 28 (1605632)
I1126 10:40:48.048364 10429 net.cpp:165] Memory required for data: 1030816256
I1126 10:40:48.048369 10429 layer_factory.hpp:76] Creating layer inception_3b/output
I1126 10:40:48.048377 10429 net.cpp:106] Creating Layer inception_3b/output
I1126 10:40:48.048382 10429 net.cpp:454] inception_3b/output <- inception_3b/1x1
I1126 10:40:48.048387 10429 net.cpp:454] inception_3b/output <- inception_3b/3x3
I1126 10:40:48.048391 10429 net.cpp:454] inception_3b/output <- inception_3b/5x5
I1126 10:40:48.048396 10429 net.cpp:454] inception_3b/output <- inception_3b/pool_proj
I1126 10:40:48.048403 10429 net.cpp:411] inception_3b/output -> inception_3b/output
I1126 10:40:48.048429 10429 net.cpp:150] Setting up inception_3b/output
I1126 10:40:48.048436 10429 net.cpp:157] Top shape: 32 480 28 28 (12042240)
I1126 10:40:48.048440 10429 net.cpp:165] Memory required for data: 1078985216
I1126 10:40:48.048444 10429 layer_factory.hpp:76] Creating layer pool3/3x3_s2
I1126 10:40:48.048450 10429 net.cpp:106] Creating Layer pool3/3x3_s2
I1126 10:40:48.048455 10429 net.cpp:454] pool3/3x3_s2 <- inception_3b/output
I1126 10:40:48.048461 10429 net.cpp:411] pool3/3x3_s2 -> pool3/3x3_s2
I1126 10:40:48.048826 10429 net.cpp:150] Setting up pool3/3x3_s2
I1126 10:40:48.048836 10429 net.cpp:157] Top shape: 32 480 14 14 (3010560)
I1126 10:40:48.048841 10429 net.cpp:165] Memory required for data: 1091027456
I1126 10:40:48.048846 10429 layer_factory.hpp:76] Creating layer pool3/3x3_s2_pool3/3x3_s2_0_split
I1126 10:40:48.048852 10429 net.cpp:106] Creating Layer pool3/3x3_s2_pool3/3x3_s2_0_split
I1126 10:40:48.048856 10429 net.cpp:454] pool3/3x3_s2_pool3/3x3_s2_0_split <- pool3/3x3_s2
I1126 10:40:48.048864 10429 net.cpp:411] pool3/3x3_s2_pool3/3x3_s2_0_split -> pool3/3x3_s2_pool3/3x3_s2_0_split_0
I1126 10:40:48.048871 10429 net.cpp:411] pool3/3x3_s2_pool3/3x3_s2_0_split -> pool3/3x3_s2_pool3/3x3_s2_0_split_1
I1126 10:40:48.048878 10429 net.cpp:411] pool3/3x3_s2_pool3/3x3_s2_0_split -> pool3/3x3_s2_pool3/3x3_s2_0_split_2
I1126 10:40:48.048885 10429 net.cpp:411] pool3/3x3_s2_pool3/3x3_s2_0_split -> pool3/3x3_s2_pool3/3x3_s2_0_split_3
I1126 10:40:48.048938 10429 net.cpp:150] Setting up pool3/3x3_s2_pool3/3x3_s2_0_split
I1126 10:40:48.048945 10429 net.cpp:157] Top shape: 32 480 14 14 (3010560)
I1126 10:40:48.048950 10429 net.cpp:157] Top shape: 32 480 14 14 (3010560)
I1126 10:40:48.048955 10429 net.cpp:157] Top shape: 32 480 14 14 (3010560)
I1126 10:40:48.048960 10429 net.cpp:157] Top shape: 32 480 14 14 (3010560)
I1126 10:40:48.048964 10429 net.cpp:165] Memory required for data: 1139196416
I1126 10:40:48.048969 10429 layer_factory.hpp:76] Creating layer inception_4a/1x1
I1126 10:40:48.048979 10429 net.cpp:106] Creating Layer inception_4a/1x1
I1126 10:40:48.048985 10429 net.cpp:454] inception_4a/1x1 <- pool3/3x3_s2_pool3/3x3_s2_0_split_0
I1126 10:40:48.048991 10429 net.cpp:411] inception_4a/1x1 -> inception_4a/1x1
I1126 10:40:48.050978 10429 cudnn_conv_layer.cpp:194] Reallocating workspace storage: 10080
I1126 10:40:48.051179 10429 net.cpp:150] Setting up inception_4a/1x1
I1126 10:40:48.051190 10429 net.cpp:157] Top shape: 32 192 14 14 (1204224)
I1126 10:40:48.051195 10429 net.cpp:165] Memory required for data: 1144013312
I1126 10:40:48.051203 10429 layer_factory.hpp:76] Creating layer inception_4a/prelu_1x1
I1126 10:40:48.051210 10429 net.cpp:106] Creating Layer inception_4a/prelu_1x1
I1126 10:40:48.051215 10429 net.cpp:454] inception_4a/prelu_1x1 <- inception_4a/1x1
I1126 10:40:48.051221 10429 net.cpp:397] inception_4a/prelu_1x1 -> inception_4a/1x1 (in-place)
I1126 10:40:48.051795 10429 net.cpp:150] Setting up inception_4a/prelu_1x1
I1126 10:40:48.051805 10429 net.cpp:157] Top shape: 32 192 14 14 (1204224)
I1126 10:40:48.051808 10429 net.cpp:165] Memory required for data: 1148830208
I1126 10:40:48.051815 10429 layer_factory.hpp:76] Creating layer inception_4a/3x3_reduce
I1126 10:40:48.051825 10429 net.cpp:106] Creating Layer inception_4a/3x3_reduce
I1126 10:40:48.051830 10429 net.cpp:454] inception_4a/3x3_reduce <- pool3/3x3_s2_pool3/3x3_s2_0_split_1
I1126 10:40:48.051853 10429 net.cpp:411] inception_4a/3x3_reduce -> inception_4a/3x3_reduce
I1126 10:40:48.053138 10429 cudnn_conv_layer.cpp:194] Reallocating workspace storage: 10080
I1126 10:40:48.053165 10429 net.cpp:150] Setting up inception_4a/3x3_reduce
I1126 10:40:48.053174 10429 net.cpp:157] Top shape: 32 96 14 14 (602112)
I1126 10:40:48.053177 10429 net.cpp:165] Memory required for data: 1151238656
I1126 10:40:48.053184 10429 layer_factory.hpp:76] Creating layer inception_4a/prelu_3x3_reduce
I1126 10:40:48.053203 10429 net.cpp:106] Creating Layer inception_4a/prelu_3x3_reduce
I1126 10:40:48.053208 10429 net.cpp:454] inception_4a/prelu_3x3_reduce <- inception_4a/3x3_reduce
I1126 10:40:48.053215 10429 net.cpp:397] inception_4a/prelu_3x3_reduce -> inception_4a/3x3_reduce (in-place)
I1126 10:40:48.053305 10429 net.cpp:150] Setting up inception_4a/prelu_3x3_reduce
I1126 10:40:48.053313 10429 net.cpp:157] Top shape: 32 96 14 14 (602112)
I1126 10:40:48.053316 10429 net.cpp:165] Memory required for data: 1153647104
I1126 10:40:48.053323 10429 layer_factory.hpp:76] Creating layer inception_4a/3x3
I1126 10:40:48.053331 10429 net.cpp:106] Creating Layer inception_4a/3x3
I1126 10:40:48.053335 10429 net.cpp:454] inception_4a/3x3 <- inception_4a/3x3_reduce
I1126 10:40:48.053341 10429 net.cpp:411] inception_4a/3x3 -> inception_4a/3x3
I1126 10:40:48.055831 10429 cudnn_conv_layer.cpp:194] Reallocating workspace storage: 10080
I1126 10:40:48.055860 10429 net.cpp:150] Setting up inception_4a/3x3
I1126 10:40:48.055868 10429 net.cpp:157] Top shape: 32 208 14 14 (1304576)
I1126 10:40:48.055873 10429 net.cpp:165] Memory required for data: 1158865408
I1126 10:40:48.055881 10429 layer_factory.hpp:76] Creating layer inception_4a/prelu_3x3
I1126 10:40:48.055891 10429 net.cpp:106] Creating Layer inception_4a/prelu_3x3
I1126 10:40:48.055896 10429 net.cpp:454] inception_4a/prelu_3x3 <- inception_4a/3x3
I1126 10:40:48.055903 10429 net.cpp:397] inception_4a/prelu_3x3 -> inception_4a/3x3 (in-place)
I1126 10:40:48.056010 10429 net.cpp:150] Setting up inception_4a/prelu_3x3
I1126 10:40:48.056020 10429 net.cpp:157] Top shape: 32 208 14 14 (1304576)
I1126 10:40:48.056023 10429 net.cpp:165] Memory required for data: 1164083712
I1126 10:40:48.056028 10429 layer_factory.hpp:76] Creating layer inception_4a/5x5_reduce
I1126 10:40:48.056038 10429 net.cpp:106] Creating Layer inception_4a/5x5_reduce
I1126 10:40:48.056043 10429 net.cpp:454] inception_4a/5x5_reduce <- pool3/3x3_s2_pool3/3x3_s2_0_split_2
I1126 10:40:48.056051 10429 net.cpp:411] inception_4a/5x5_reduce -> inception_4a/5x5_reduce
I1126 10:40:48.057103 10429 cudnn_conv_layer.cpp:194] Reallocating workspace storage: 10080
I1126 10:40:48.057128 10429 net.cpp:150] Setting up inception_4a/5x5_reduce
I1126 10:40:48.057135 10429 net.cpp:157] Top shape: 32 16 14 14 (100352)
I1126 10:40:48.057139 10429 net.cpp:165] Memory required for data: 1164485120
I1126 10:40:48.057147 10429 layer_factory.hpp:76] Creating layer inception_4a/prelu_5x5_reduce
I1126 10:40:48.057157 10429 net.cpp:106] Creating Layer inception_4a/prelu_5x5_reduce
I1126 10:40:48.057162 10429 net.cpp:454] inception_4a/prelu_5x5_reduce <- inception_4a/5x5_reduce
I1126 10:40:48.057168 10429 net.cpp:397] inception_4a/prelu_5x5_reduce -> inception_4a/5x5_reduce (in-place)
I1126 10:40:48.057251 10429 net.cpp:150] Setting up inception_4a/prelu_5x5_reduce
I1126 10:40:48.057258 10429 net.cpp:157] Top shape: 32 16 14 14 (100352)
I1126 10:40:48.057262 10429 net.cpp:165] Memory required for data: 1164886528
I1126 10:40:48.057267 10429 layer_factory.hpp:76] Creating layer inception_4a/5x5
I1126 10:40:48.057276 10429 net.cpp:106] Creating Layer inception_4a/5x5
I1126 10:40:48.057281 10429 net.cpp:454] inception_4a/5x5 <- inception_4a/5x5_reduce
I1126 10:40:48.057288 10429 net.cpp:411] inception_4a/5x5 -> inception_4a/5x5
I1126 10:40:48.058394 10429 cudnn_conv_layer.cpp:194] Reallocating workspace storage: 13080
I1126 10:40:48.058418 10429 net.cpp:150] Setting up inception_4a/5x5
I1126 10:40:48.058425 10429 net.cpp:157] Top shape: 32 48 14 14 (301056)
I1126 10:40:48.058449 10429 net.cpp:165] Memory required for data: 1166090752
I1126 10:40:48.058456 10429 layer_factory.hpp:76] Creating layer inception_4a/prelu_5x5
I1126 10:40:48.058465 10429 net.cpp:106] Creating Layer inception_4a/prelu_5x5
I1126 10:40:48.058470 10429 net.cpp:454] inception_4a/prelu_5x5 <- inception_4a/5x5
I1126 10:40:48.058476 10429 net.cpp:397] inception_4a/prelu_5x5 -> inception_4a/5x5 (in-place)
I1126 10:40:48.058570 10429 net.cpp:150] Setting up inception_4a/prelu_5x5
I1126 10:40:48.058578 10429 net.cpp:157] Top shape: 32 48 14 14 (301056)
I1126 10:40:48.058583 10429 net.cpp:165] Memory required for data: 1167294976
I1126 10:40:48.058588 10429 layer_factory.hpp:76] Creating layer inception_4a/pool
I1126 10:40:48.058595 10429 net.cpp:106] Creating Layer inception_4a/pool
I1126 10:40:48.058600 10429 net.cpp:454] inception_4a/pool <- pool3/3x3_s2_pool3/3x3_s2_0_split_3
I1126 10:40:48.058609 10429 net.cpp:411] inception_4a/pool -> inception_4a/pool
I1126 10:40:48.058966 10429 net.cpp:150] Setting up inception_4a/pool
I1126 10:40:48.058976 10429 net.cpp:157] Top shape: 32 480 14 14 (3010560)
I1126 10:40:48.058980 10429 net.cpp:165] Memory required for data: 1179337216
I1126 10:40:48.058984 10429 layer_factory.hpp:76] Creating layer inception_4a/pool_proj
I1126 10:40:48.058995 10429 net.cpp:106] Creating Layer inception_4a/pool_proj
I1126 10:40:48.059000 10429 net.cpp:454] inception_4a/pool_proj <- inception_4a/pool
I1126 10:40:48.059007 10429 net.cpp:411] inception_4a/pool_proj -> inception_4a/pool_proj
I1126 10:40:48.060051 10429 cudnn_conv_layer.cpp:194] Reallocating workspace storage: 10080
I1126 10:40:48.060078 10429 net.cpp:150] Setting up inception_4a/pool_proj
I1126 10:40:48.060086 10429 net.cpp:157] Top shape: 32 64 14 14 (401408)
I1126 10:40:48.060089 10429 net.cpp:165] Memory required for data: 1180942848
I1126 10:40:48.060096 10429 layer_factory.hpp:76] Creating layer inception_4a/prelu_pool_proj
I1126 10:40:48.060104 10429 net.cpp:106] Creating Layer inception_4a/prelu_pool_proj
I1126 10:40:48.060111 10429 net.cpp:454] inception_4a/prelu_pool_proj <- inception_4a/pool_proj
I1126 10:40:48.060117 10429 net.cpp:397] inception_4a/prelu_pool_proj -> inception_4a/pool_proj (in-place)
I1126 10:40:48.060214 10429 net.cpp:150] Setting up inception_4a/prelu_pool_proj
I1126 10:40:48.060221 10429 net.cpp:157] Top shape: 32 64 14 14 (401408)
I1126 10:40:48.060225 10429 net.cpp:165] Memory required for data: 1182548480
I1126 10:40:48.060230 10429 layer_factory.hpp:76] Creating layer inception_4a/output
I1126 10:40:48.060237 10429 net.cpp:106] Creating Layer inception_4a/output
I1126 10:40:48.060241 10429 net.cpp:454] inception_4a/output <- inception_4a/1x1
I1126 10:40:48.060246 10429 net.cpp:454] inception_4a/output <- inception_4a/3x3
I1126 10:40:48.060251 10429 net.cpp:454] inception_4a/output <- inception_4a/5x5
I1126 10:40:48.060256 10429 net.cpp:454] inception_4a/output <- inception_4a/pool_proj
I1126 10:40:48.060262 10429 net.cpp:411] inception_4a/output -> inception_4a/output
I1126 10:40:48.060286 10429 net.cpp:150] Setting up inception_4a/output
I1126 10:40:48.060292 10429 net.cpp:157] Top shape: 32 512 14 14 (3211264)
I1126 10:40:48.060297 10429 net.cpp:165] Memory required for data: 1195393536
I1126 10:40:48.060300 10429 layer_factory.hpp:76] Creating layer inception_4a/output_inception_4a/output_0_split
I1126 10:40:48.060310 10429 net.cpp:106] Creating Layer inception_4a/output_inception_4a/output_0_split
I1126 10:40:48.060315 10429 net.cpp:454] inception_4a/output_inception_4a/output_0_split <- inception_4a/output
I1126 10:40:48.060320 10429 net.cpp:411] inception_4a/output_inception_4a/output_0_split -> inception_4a/output_inception_4a/output_0_split_0
I1126 10:40:48.060328 10429 net.cpp:411] inception_4a/output_inception_4a/output_0_split -> inception_4a/output_inception_4a/output_0_split_1
I1126 10:40:48.060336 10429 net.cpp:411] inception_4a/output_inception_4a/output_0_split -> inception_4a/output_inception_4a/output_0_split_2
I1126 10:40:48.060355 10429 net.cpp:411] inception_4a/output_inception_4a/output_0_split -> inception_4a/output_inception_4a/output_0_split_3
I1126 10:40:48.060362 10429 net.cpp:411] inception_4a/output_inception_4a/output_0_split -> inception_4a/output_inception_4a/output_0_split_4
I1126 10:40:48.060423 10429 net.cpp:150] Setting up inception_4a/output_inception_4a/output_0_split
I1126 10:40:48.060431 10429 net.cpp:157] Top shape: 32 512 14 14 (3211264)
I1126 10:40:48.060436 10429 net.cpp:157] Top shape: 32 512 14 14 (3211264)
I1126 10:40:48.060441 10429 net.cpp:157] Top shape: 32 512 14 14 (3211264)
I1126 10:40:48.060444 10429 net.cpp:157] Top shape: 32 512 14 14 (3211264)
I1126 10:40:48.060449 10429 net.cpp:157] Top shape: 32 512 14 14 (3211264)
I1126 10:40:48.060452 10429 net.cpp:165] Memory required for data: 1259618816
I1126 10:40:48.060456 10429 layer_factory.hpp:76] Creating layer loss1/ave_pool
I1126 10:40:48.060463 10429 net.cpp:106] Creating Layer loss1/ave_pool
I1126 10:40:48.060467 10429 net.cpp:454] loss1/ave_pool <- inception_4a/output_inception_4a/output_0_split_0
I1126 10:40:48.060474 10429 net.cpp:411] loss1/ave_pool -> loss1/ave_pool
I1126 10:40:48.060828 10429 net.cpp:150] Setting up loss1/ave_pool
I1126 10:40:48.060840 10429 net.cpp:157] Top shape: 32 512 4 4 (262144)
I1126 10:40:48.060844 10429 net.cpp:165] Memory required for data: 1260667392
I1126 10:40:48.060848 10429 layer_factory.hpp:76] Creating layer loss1/conv
I1126 10:40:48.060856 10429 net.cpp:106] Creating Layer loss1/conv
I1126 10:40:48.060861 10429 net.cpp:454] loss1/conv <- loss1/ave_pool
I1126 10:40:48.060868 10429 net.cpp:411] loss1/conv -> loss1/conv
I1126 10:40:48.062232 10429 cudnn_conv_layer.cpp:194] Reallocating workspace storage: 6840
I1126 10:40:48.062255 10429 net.cpp:150] Setting up loss1/conv
I1126 10:40:48.062263 10429 net.cpp:157] Top shape: 32 128 4 4 (65536)
I1126 10:40:48.062266 10429 net.cpp:165] Memory required for data: 1260929536
I1126 10:40:48.062283 10429 layer_factory.hpp:76] Creating layer loss1/prelu_conv
I1126 10:40:48.062291 10429 net.cpp:106] Creating Layer loss1/prelu_conv
I1126 10:40:48.062296 10429 net.cpp:454] loss1/prelu_conv <- loss1/conv
I1126 10:40:48.062305 10429 net.cpp:397] loss1/prelu_conv -> loss1/conv (in-place)
I1126 10:40:48.062386 10429 net.cpp:150] Setting up loss1/prelu_conv
I1126 10:40:48.062396 10429 net.cpp:157] Top shape: 32 128 4 4 (65536)
I1126 10:40:48.062399 10429 net.cpp:165] Memory required for data: 1261191680
I1126 10:40:48.062404 10429 layer_factory.hpp:76] Creating layer loss1/fc
I1126 10:40:48.062417 10429 net.cpp:106] Creating Layer loss1/fc
I1126 10:40:48.062420 10429 net.cpp:454] loss1/fc <- loss1/conv
I1126 10:40:48.062427 10429 net.cpp:411] loss1/fc -> loss1/fc
I1126 10:40:48.078987 10429 net.cpp:150] Setting up loss1/fc
I1126 10:40:48.079017 10429 net.cpp:157] Top shape: 32 1024 (32768)
I1126 10:40:48.079022 10429 net.cpp:165] Memory required for data: 1261322752
I1126 10:40:48.079033 10429 layer_factory.hpp:76] Creating layer loss1/prelu_fc
I1126 10:40:48.079046 10429 net.cpp:106] Creating Layer loss1/prelu_fc
I1126 10:40:48.079052 10429 net.cpp:454] loss1/prelu_fc <- loss1/fc
I1126 10:40:48.079062 10429 net.cpp:397] loss1/prelu_fc -> loss1/fc (in-place)
I1126 10:40:48.079149 10429 net.cpp:150] Setting up loss1/prelu_fc
I1126 10:40:48.079159 10429 net.cpp:157] Top shape: 32 1024 (32768)
I1126 10:40:48.079162 10429 net.cpp:165] Memory required for data: 1261453824
I1126 10:40:48.079167 10429 layer_factory.hpp:76] Creating layer loss1/drop_fc
I1126 10:40:48.079190 10429 net.cpp:106] Creating Layer loss1/drop_fc
I1126 10:40:48.079195 10429 net.cpp:454] loss1/drop_fc <- loss1/fc
I1126 10:40:48.079200 10429 net.cpp:397] loss1/drop_fc -> loss1/fc (in-place)
I1126 10:40:48.079234 10429 net.cpp:150] Setting up loss1/drop_fc
I1126 10:40:48.079242 10429 net.cpp:157] Top shape: 32 1024 (32768)
I1126 10:40:48.079246 10429 net.cpp:165] Memory required for data: 1261584896
I1126 10:40:48.079252 10429 layer_factory.hpp:76] Creating layer loss1/classifier2
I1126 10:40:48.079258 10429 net.cpp:106] Creating Layer loss1/classifier2
I1126 10:40:48.079285 10429 net.cpp:454] loss1/classifier2 <- loss1/fc
I1126 10:40:48.079293 10429 net.cpp:411] loss1/classifier2 -> loss1/classifier
I1126 10:40:48.079413 10429 net.cpp:150] Setting up loss1/classifier2
I1126 10:40:48.079421 10429 net.cpp:157] Top shape: 32 2 (64)
I1126 10:40:48.079426 10429 net.cpp:165] Memory required for data: 1261585152
I1126 10:40:48.079432 10429 layer_factory.hpp:76] Creating layer loss1/loss
I1126 10:40:48.079442 10429 net.cpp:106] Creating Layer loss1/loss
I1126 10:40:48.079447 10429 net.cpp:454] loss1/loss <- loss1/classifier
I1126 10:40:48.079452 10429 net.cpp:454] loss1/loss <- label_data_1_split_0
I1126 10:40:48.079462 10429 net.cpp:411] loss1/loss -> loss1/loss1
I1126 10:40:48.079475 10429 layer_factory.hpp:76] Creating layer loss1/loss
I1126 10:40:48.079779 10429 net.cpp:150] Setting up loss1/loss
I1126 10:40:48.079788 10429 net.cpp:157] Top shape: (1)
I1126 10:40:48.079795 10429 net.cpp:160]     with loss weight 0.3
I1126 10:40:48.079818 10429 net.cpp:165] Memory required for data: 1261585156
I1126 10:40:48.079823 10429 layer_factory.hpp:76] Creating layer inception_4b/1x1
I1126 10:40:48.079833 10429 net.cpp:106] Creating Layer inception_4b/1x1
I1126 10:40:48.079838 10429 net.cpp:454] inception_4b/1x1 <- inception_4a/output_inception_4a/output_0_split_1
I1126 10:40:48.079848 10429 net.cpp:411] inception_4b/1x1 -> inception_4b/1x1
I1126 10:40:48.081707 10429 cudnn_conv_layer.cpp:194] Reallocating workspace storage: 10080
I1126 10:40:48.081748 10429 net.cpp:150] Setting up inception_4b/1x1
I1126 10:40:48.081760 10429 net.cpp:157] Top shape: 32 160 14 14 (1003520)
I1126 10:40:48.081765 10429 net.cpp:165] Memory required for data: 1265599236
I1126 10:40:48.081776 10429 layer_factory.hpp:76] Creating layer inception_4b/prelu_1x1
I1126 10:40:48.081792 10429 net.cpp:106] Creating Layer inception_4b/prelu_1x1
I1126 10:40:48.081799 10429 net.cpp:454] inception_4b/prelu_1x1 <- inception_4b/1x1
I1126 10:40:48.081809 10429 net.cpp:397] inception_4b/prelu_1x1 -> inception_4b/1x1 (in-place)
I1126 10:40:48.082533 10429 net.cpp:150] Setting up inception_4b/prelu_1x1
I1126 10:40:48.082550 10429 net.cpp:157] Top shape: 32 160 14 14 (1003520)
I1126 10:40:48.082553 10429 net.cpp:165] Memory required for data: 1269613316
I1126 10:40:48.082561 10429 layer_factory.hpp:76] Creating layer inception_4b/3x3_reduce
I1126 10:40:48.082576 10429 net.cpp:106] Creating Layer inception_4b/3x3_reduce
I1126 10:40:48.082581 10429 net.cpp:454] inception_4b/3x3_reduce <- inception_4a/output_inception_4a/output_0_split_2
I1126 10:40:48.082590 10429 net.cpp:411] inception_4b/3x3_reduce -> inception_4b/3x3_reduce
I1126 10:40:48.084465 10429 cudnn_conv_layer.cpp:194] Reallocating workspace storage: 10080
I1126 10:40:48.084501 10429 net.cpp:150] Setting up inception_4b/3x3_reduce
I1126 10:40:48.084511 10429 net.cpp:157] Top shape: 32 112 14 14 (702464)
I1126 10:40:48.084516 10429 net.cpp:165] Memory required for data: 1272423172
I1126 10:40:48.084523 10429 layer_factory.hpp:76] Creating layer inception_4b/prelu_3x3_reduce
I1126 10:40:48.084537 10429 net.cpp:106] Creating Layer inception_4b/prelu_3x3_reduce
I1126 10:40:48.084542 10429 net.cpp:454] inception_4b/prelu_3x3_reduce <- inception_4b/3x3_reduce
I1126 10:40:48.084549 10429 net.cpp:397] inception_4b/prelu_3x3_reduce -> inception_4b/3x3_reduce (in-place)
I1126 10:40:48.084657 10429 net.cpp:150] Setting up inception_4b/prelu_3x3_reduce
I1126 10:40:48.084666 10429 net.cpp:157] Top shape: 32 112 14 14 (702464)
I1126 10:40:48.084671 10429 net.cpp:165] Memory required for data: 1275233028
I1126 10:40:48.084676 10429 layer_factory.hpp:76] Creating layer inception_4b/3x3
I1126 10:40:48.084687 10429 net.cpp:106] Creating Layer inception_4b/3x3
I1126 10:40:48.084693 10429 net.cpp:454] inception_4b/3x3 <- inception_4b/3x3_reduce
I1126 10:40:48.084699 10429 net.cpp:411] inception_4b/3x3 -> inception_4b/3x3
I1126 10:40:48.088127 10429 cudnn_conv_layer.cpp:194] Reallocating workspace storage: 10080
I1126 10:40:48.088173 10429 net.cpp:150] Setting up inception_4b/3x3
I1126 10:40:48.088254 10429 net.cpp:157] Top shape: 32 224 14 14 (1404928)
I1126 10:40:48.088259 10429 net.cpp:165] Memory required for data: 1280852740
I1126 10:40:48.088270 10429 layer_factory.hpp:76] Creating layer inception_4b/prelu_3x3
I1126 10:40:48.088286 10429 net.cpp:106] Creating Layer inception_4b/prelu_3x3
I1126 10:40:48.088294 10429 net.cpp:454] inception_4b/prelu_3x3 <- inception_4b/3x3
I1126 10:40:48.088304 10429 net.cpp:397] inception_4b/prelu_3x3 -> inception_4b/3x3 (in-place)
I1126 10:40:48.088472 10429 net.cpp:150] Setting up inception_4b/prelu_3x3
I1126 10:40:48.088484 10429 net.cpp:157] Top shape: 32 224 14 14 (1404928)
I1126 10:40:48.088487 10429 net.cpp:165] Memory required for data: 1286472452
I1126 10:40:48.088495 10429 layer_factory.hpp:76] Creating layer inception_4b/5x5_reduce
I1126 10:40:48.088510 10429 net.cpp:106] Creating Layer inception_4b/5x5_reduce
I1126 10:40:48.088515 10429 net.cpp:454] inception_4b/5x5_reduce <- inception_4a/output_inception_4a/output_0_split_3
I1126 10:40:48.088522 10429 net.cpp:411] inception_4b/5x5_reduce -> inception_4b/5x5_reduce
I1126 10:40:48.089553 10429 cudnn_conv_layer.cpp:194] Reallocating workspace storage: 10080
I1126 10:40:48.089581 10429 net.cpp:150] Setting up inception_4b/5x5_reduce
I1126 10:40:48.089589 10429 net.cpp:157] Top shape: 32 24 14 14 (150528)
I1126 10:40:48.089594 10429 net.cpp:165] Memory required for data: 1287074564
I1126 10:40:48.089602 10429 layer_factory.hpp:76] Creating layer inception_4b/prelu_5x5_reduce
I1126 10:40:48.089613 10429 net.cpp:106] Creating Layer inception_4b/prelu_5x5_reduce
I1126 10:40:48.089618 10429 net.cpp:454] inception_4b/prelu_5x5_reduce <- inception_4b/5x5_reduce
I1126 10:40:48.089625 10429 net.cpp:397] inception_4b/prelu_5x5_reduce -> inception_4b/5x5_reduce (in-place)
I1126 10:40:48.089722 10429 net.cpp:150] Setting up inception_4b/prelu_5x5_reduce
I1126 10:40:48.089730 10429 net.cpp:157] Top shape: 32 24 14 14 (150528)
I1126 10:40:48.089735 10429 net.cpp:165] Memory required for data: 1287676676
I1126 10:40:48.089740 10429 layer_factory.hpp:76] Creating layer inception_4b/5x5
I1126 10:40:48.089751 10429 net.cpp:106] Creating Layer inception_4b/5x5
I1126 10:40:48.089756 10429 net.cpp:454] inception_4b/5x5 <- inception_4b/5x5_reduce
I1126 10:40:48.089763 10429 net.cpp:411] inception_4b/5x5 -> inception_4b/5x5
I1126 10:40:48.091089 10429 cudnn_conv_layer.cpp:194] Reallocating workspace storage: 13080
I1126 10:40:48.091115 10429 net.cpp:150] Setting up inception_4b/5x5
I1126 10:40:48.091122 10429 net.cpp:157] Top shape: 32 64 14 14 (401408)
I1126 10:40:48.091127 10429 net.cpp:165] Memory required for data: 1289282308
I1126 10:40:48.091135 10429 layer_factory.hpp:76] Creating layer inception_4b/prelu_5x5
I1126 10:40:48.091145 10429 net.cpp:106] Creating Layer inception_4b/prelu_5x5
I1126 10:40:48.091150 10429 net.cpp:454] inception_4b/prelu_5x5 <- inception_4b/5x5
I1126 10:40:48.091156 10429 net.cpp:397] inception_4b/prelu_5x5 -> inception_4b/5x5 (in-place)
I1126 10:40:48.091264 10429 net.cpp:150] Setting up inception_4b/prelu_5x5
I1126 10:40:48.091271 10429 net.cpp:157] Top shape: 32 64 14 14 (401408)
I1126 10:40:48.091275 10429 net.cpp:165] Memory required for data: 1290887940
I1126 10:40:48.091281 10429 layer_factory.hpp:76] Creating layer inception_4b/pool
I1126 10:40:48.091291 10429 net.cpp:106] Creating Layer inception_4b/pool
I1126 10:40:48.091296 10429 net.cpp:454] inception_4b/pool <- inception_4a/output_inception_4a/output_0_split_4
I1126 10:40:48.091302 10429 net.cpp:411] inception_4b/pool -> inception_4b/pool
I1126 10:40:48.091692 10429 net.cpp:150] Setting up inception_4b/pool
I1126 10:40:48.091706 10429 net.cpp:157] Top shape: 32 512 14 14 (3211264)
I1126 10:40:48.091711 10429 net.cpp:165] Memory required for data: 1303732996
I1126 10:40:48.091716 10429 layer_factory.hpp:76] Creating layer inception_4b/pool_proj
I1126 10:40:48.091724 10429 net.cpp:106] Creating Layer inception_4b/pool_proj
I1126 10:40:48.091729 10429 net.cpp:454] inception_4b/pool_proj <- inception_4b/pool
I1126 10:40:48.091758 10429 net.cpp:411] inception_4b/pool_proj -> inception_4b/pool_proj
I1126 10:40:48.093035 10429 cudnn_conv_layer.cpp:194] Reallocating workspace storage: 10080
I1126 10:40:48.093065 10429 net.cpp:150] Setting up inception_4b/pool_proj
I1126 10:40:48.093072 10429 net.cpp:157] Top shape: 32 64 14 14 (401408)
I1126 10:40:48.093076 10429 net.cpp:165] Memory required for data: 1305338628
I1126 10:40:48.093085 10429 layer_factory.hpp:76] Creating layer inception_4b/prelu_pool_proj
I1126 10:40:48.093093 10429 net.cpp:106] Creating Layer inception_4b/prelu_pool_proj
I1126 10:40:48.093099 10429 net.cpp:454] inception_4b/prelu_pool_proj <- inception_4b/pool_proj
I1126 10:40:48.093106 10429 net.cpp:397] inception_4b/prelu_pool_proj -> inception_4b/pool_proj (in-place)
I1126 10:40:48.093216 10429 net.cpp:150] Setting up inception_4b/prelu_pool_proj
I1126 10:40:48.093225 10429 net.cpp:157] Top shape: 32 64 14 14 (401408)
I1126 10:40:48.093227 10429 net.cpp:165] Memory required for data: 1306944260
I1126 10:40:48.093233 10429 layer_factory.hpp:76] Creating layer inception_4b/output
I1126 10:40:48.093240 10429 net.cpp:106] Creating Layer inception_4b/output
I1126 10:40:48.093243 10429 net.cpp:454] inception_4b/output <- inception_4b/1x1
I1126 10:40:48.093248 10429 net.cpp:454] inception_4b/output <- inception_4b/3x3
I1126 10:40:48.093253 10429 net.cpp:454] inception_4b/output <- inception_4b/5x5
I1126 10:40:48.093258 10429 net.cpp:454] inception_4b/output <- inception_4b/pool_proj
I1126 10:40:48.093264 10429 net.cpp:411] inception_4b/output -> inception_4b/output
I1126 10:40:48.093288 10429 net.cpp:150] Setting up inception_4b/output
I1126 10:40:48.093297 10429 net.cpp:157] Top shape: 32 512 14 14 (3211264)
I1126 10:40:48.093300 10429 net.cpp:165] Memory required for data: 1319789316
I1126 10:40:48.093304 10429 layer_factory.hpp:76] Creating layer inception_4b/output_inception_4b/output_0_split
I1126 10:40:48.093312 10429 net.cpp:106] Creating Layer inception_4b/output_inception_4b/output_0_split
I1126 10:40:48.093315 10429 net.cpp:454] inception_4b/output_inception_4b/output_0_split <- inception_4b/output
I1126 10:40:48.093320 10429 net.cpp:411] inception_4b/output_inception_4b/output_0_split -> inception_4b/output_inception_4b/output_0_split_0
I1126 10:40:48.093327 10429 net.cpp:411] inception_4b/output_inception_4b/output_0_split -> inception_4b/output_inception_4b/output_0_split_1
I1126 10:40:48.093333 10429 net.cpp:411] inception_4b/output_inception_4b/output_0_split -> inception_4b/output_inception_4b/output_0_split_2
I1126 10:40:48.093341 10429 net.cpp:411] inception_4b/output_inception_4b/output_0_split -> inception_4b/output_inception_4b/output_0_split_3
I1126 10:40:48.093446 10429 net.cpp:150] Setting up inception_4b/output_inception_4b/output_0_split
I1126 10:40:48.093454 10429 net.cpp:157] Top shape: 32 512 14 14 (3211264)
I1126 10:40:48.093459 10429 net.cpp:157] Top shape: 32 512 14 14 (3211264)
I1126 10:40:48.093474 10429 net.cpp:157] Top shape: 32 512 14 14 (3211264)
I1126 10:40:48.093479 10429 net.cpp:157] Top shape: 32 512 14 14 (3211264)
I1126 10:40:48.093483 10429 net.cpp:165] Memory required for data: 1371169540
I1126 10:40:48.093487 10429 layer_factory.hpp:76] Creating layer inception_4c/1x1
I1126 10:40:48.093510 10429 net.cpp:106] Creating Layer inception_4c/1x1
I1126 10:40:48.093525 10429 net.cpp:454] inception_4c/1x1 <- inception_4b/output_inception_4b/output_0_split_0
I1126 10:40:48.093533 10429 net.cpp:411] inception_4c/1x1 -> inception_4c/1x1
I1126 10:40:48.095556 10429 cudnn_conv_layer.cpp:194] Reallocating workspace storage: 10080
I1126 10:40:48.095597 10429 net.cpp:150] Setting up inception_4c/1x1
I1126 10:40:48.095607 10429 net.cpp:157] Top shape: 32 128 14 14 (802816)
I1126 10:40:48.095621 10429 net.cpp:165] Memory required for data: 1374380804
I1126 10:40:48.095630 10429 layer_factory.hpp:76] Creating layer inception_4c/prelu_1x1
I1126 10:40:48.095643 10429 net.cpp:106] Creating Layer inception_4c/prelu_1x1
I1126 10:40:48.095650 10429 net.cpp:454] inception_4c/prelu_1x1 <- inception_4c/1x1
I1126 10:40:48.095687 10429 net.cpp:397] inception_4c/prelu_1x1 -> inception_4c/1x1 (in-place)
I1126 10:40:48.095793 10429 net.cpp:150] Setting up inception_4c/prelu_1x1
I1126 10:40:48.095801 10429 net.cpp:157] Top shape: 32 128 14 14 (802816)
I1126 10:40:48.095805 10429 net.cpp:165] Memory required for data: 1377592068
I1126 10:40:48.095810 10429 layer_factory.hpp:76] Creating layer inception_4c/3x3_reduce
I1126 10:40:48.095821 10429 net.cpp:106] Creating Layer inception_4c/3x3_reduce
I1126 10:40:48.095826 10429 net.cpp:454] inception_4c/3x3_reduce <- inception_4b/output_inception_4b/output_0_split_1
I1126 10:40:48.095834 10429 net.cpp:411] inception_4c/3x3_reduce -> inception_4c/3x3_reduce
I1126 10:40:48.097283 10429 cudnn_conv_layer.cpp:194] Reallocating workspace storage: 10080
I1126 10:40:48.097306 10429 net.cpp:150] Setting up inception_4c/3x3_reduce
I1126 10:40:48.097314 10429 net.cpp:157] Top shape: 32 128 14 14 (802816)
I1126 10:40:48.097318 10429 net.cpp:165] Memory required for data: 1380803332
I1126 10:40:48.097326 10429 layer_factory.hpp:76] Creating layer inception_4c/prelu_3x3_reduce
I1126 10:40:48.097334 10429 net.cpp:106] Creating Layer inception_4c/prelu_3x3_reduce
I1126 10:40:48.097339 10429 net.cpp:454] inception_4c/prelu_3x3_reduce <- inception_4c/3x3_reduce
I1126 10:40:48.097345 10429 net.cpp:397] inception_4c/prelu_3x3_reduce -> inception_4c/3x3_reduce (in-place)
I1126 10:40:48.097439 10429 net.cpp:150] Setting up inception_4c/prelu_3x3_reduce
I1126 10:40:48.097447 10429 net.cpp:157] Top shape: 32 128 14 14 (802816)
I1126 10:40:48.097451 10429 net.cpp:165] Memory required for data: 1384014596
I1126 10:40:48.097456 10429 layer_factory.hpp:76] Creating layer inception_4c/3x3
I1126 10:40:48.097465 10429 net.cpp:106] Creating Layer inception_4c/3x3
I1126 10:40:48.097470 10429 net.cpp:454] inception_4c/3x3 <- inception_4c/3x3_reduce
I1126 10:40:48.097478 10429 net.cpp:411] inception_4c/3x3 -> inception_4c/3x3
I1126 10:40:48.101059 10429 cudnn_conv_layer.cpp:194] Reallocating workspace storage: 10080
I1126 10:40:48.101094 10429 net.cpp:150] Setting up inception_4c/3x3
I1126 10:40:48.101104 10429 net.cpp:157] Top shape: 32 256 14 14 (1605632)
I1126 10:40:48.101107 10429 net.cpp:165] Memory required for data: 1390437124
I1126 10:40:48.101116 10429 layer_factory.hpp:76] Creating layer inception_4c/prelu_3x3
I1126 10:40:48.101146 10429 net.cpp:106] Creating Layer inception_4c/prelu_3x3
I1126 10:40:48.101153 10429 net.cpp:454] inception_4c/prelu_3x3 <- inception_4c/3x3
I1126 10:40:48.101162 10429 net.cpp:397] inception_4c/prelu_3x3 -> inception_4c/3x3 (in-place)
I1126 10:40:48.101300 10429 net.cpp:150] Setting up inception_4c/prelu_3x3
I1126 10:40:48.101310 10429 net.cpp:157] Top shape: 32 256 14 14 (1605632)
I1126 10:40:48.101313 10429 net.cpp:165] Memory required for data: 1396859652
I1126 10:40:48.101320 10429 layer_factory.hpp:76] Creating layer inception_4c/5x5_reduce
I1126 10:40:48.101331 10429 net.cpp:106] Creating Layer inception_4c/5x5_reduce
I1126 10:40:48.101336 10429 net.cpp:454] inception_4c/5x5_reduce <- inception_4b/output_inception_4b/output_0_split_2
I1126 10:40:48.101344 10429 net.cpp:411] inception_4c/5x5_reduce -> inception_4c/5x5_reduce
I1126 10:40:48.102491 10429 cudnn_conv_layer.cpp:194] Reallocating workspace storage: 10080
I1126 10:40:48.102514 10429 net.cpp:150] Setting up inception_4c/5x5_reduce
I1126 10:40:48.102524 10429 net.cpp:157] Top shape: 32 24 14 14 (150528)
I1126 10:40:48.102529 10429 net.cpp:165] Memory required for data: 1397461764
I1126 10:40:48.102535 10429 layer_factory.hpp:76] Creating layer inception_4c/prelu_5x5_reduce
I1126 10:40:48.102542 10429 net.cpp:106] Creating Layer inception_4c/prelu_5x5_reduce
I1126 10:40:48.102547 10429 net.cpp:454] inception_4c/prelu_5x5_reduce <- inception_4c/5x5_reduce
I1126 10:40:48.102555 10429 net.cpp:397] inception_4c/prelu_5x5_reduce -> inception_4c/5x5_reduce (in-place)
I1126 10:40:48.102648 10429 net.cpp:150] Setting up inception_4c/prelu_5x5_reduce
I1126 10:40:48.102658 10429 net.cpp:157] Top shape: 32 24 14 14 (150528)
I1126 10:40:48.102679 10429 net.cpp:165] Memory required for data: 1398063876
I1126 10:40:48.102686 10429 layer_factory.hpp:76] Creating layer inception_4c/5x5
I1126 10:40:48.102695 10429 net.cpp:106] Creating Layer inception_4c/5x5
I1126 10:40:48.102700 10429 net.cpp:454] inception_4c/5x5 <- inception_4c/5x5_reduce
I1126 10:40:48.102707 10429 net.cpp:411] inception_4c/5x5 -> inception_4c/5x5
I1126 10:40:48.104472 10429 cudnn_conv_layer.cpp:194] Reallocating workspace storage: 13080
I1126 10:40:48.104495 10429 net.cpp:150] Setting up inception_4c/5x5
I1126 10:40:48.104501 10429 net.cpp:157] Top shape: 32 64 14 14 (401408)
I1126 10:40:48.104506 10429 net.cpp:165] Memory required for data: 1399669508
I1126 10:40:48.104512 10429 layer_factory.hpp:76] Creating layer inception_4c/prelu_5x5
I1126 10:40:48.104523 10429 net.cpp:106] Creating Layer inception_4c/prelu_5x5
I1126 10:40:48.104528 10429 net.cpp:454] inception_4c/prelu_5x5 <- inception_4c/5x5
I1126 10:40:48.104537 10429 net.cpp:397] inception_4c/prelu_5x5 -> inception_4c/5x5 (in-place)
I1126 10:40:48.104642 10429 net.cpp:150] Setting up inception_4c/prelu_5x5
I1126 10:40:48.104650 10429 net.cpp:157] Top shape: 32 64 14 14 (401408)
I1126 10:40:48.104655 10429 net.cpp:165] Memory required for data: 1401275140
I1126 10:40:48.104660 10429 layer_factory.hpp:76] Creating layer inception_4c/pool
I1126 10:40:48.104667 10429 net.cpp:106] Creating Layer inception_4c/pool
I1126 10:40:48.104671 10429 net.cpp:454] inception_4c/pool <- inception_4b/output_inception_4b/output_0_split_3
I1126 10:40:48.104679 10429 net.cpp:411] inception_4c/pool -> inception_4c/pool
I1126 10:40:48.104873 10429 net.cpp:150] Setting up inception_4c/pool
I1126 10:40:48.104883 10429 net.cpp:157] Top shape: 32 512 14 14 (3211264)
I1126 10:40:48.104887 10429 net.cpp:165] Memory required for data: 1414120196
I1126 10:40:48.104892 10429 layer_factory.hpp:76] Creating layer inception_4c/pool_proj
I1126 10:40:48.104900 10429 net.cpp:106] Creating Layer inception_4c/pool_proj
I1126 10:40:48.104905 10429 net.cpp:454] inception_4c/pool_proj <- inception_4c/pool
I1126 10:40:48.104913 10429 net.cpp:411] inception_4c/pool_proj -> inception_4c/pool_proj
I1126 10:40:48.106415 10429 cudnn_conv_layer.cpp:194] Reallocating workspace storage: 10080
I1126 10:40:48.106456 10429 net.cpp:150] Setting up inception_4c/pool_proj
I1126 10:40:48.106465 10429 net.cpp:157] Top shape: 32 64 14 14 (401408)
I1126 10:40:48.106469 10429 net.cpp:165] Memory required for data: 1415725828
I1126 10:40:48.106478 10429 layer_factory.hpp:76] Creating layer inception_4c/prelu_pool_proj
I1126 10:40:48.106498 10429 net.cpp:106] Creating Layer inception_4c/prelu_pool_proj
I1126 10:40:48.106504 10429 net.cpp:454] inception_4c/prelu_pool_proj <- inception_4c/pool_proj
I1126 10:40:48.106519 10429 net.cpp:397] inception_4c/prelu_pool_proj -> inception_4c/pool_proj (in-place)
I1126 10:40:48.106623 10429 net.cpp:150] Setting up inception_4c/prelu_pool_proj
I1126 10:40:48.106631 10429 net.cpp:157] Top shape: 32 64 14 14 (401408)
I1126 10:40:48.106636 10429 net.cpp:165] Memory required for data: 1417331460
I1126 10:40:48.106640 10429 layer_factory.hpp:76] Creating layer inception_4c/output
I1126 10:40:48.106647 10429 net.cpp:106] Creating Layer inception_4c/output
I1126 10:40:48.106660 10429 net.cpp:454] inception_4c/output <- inception_4c/1x1
I1126 10:40:48.106665 10429 net.cpp:454] inception_4c/output <- inception_4c/3x3
I1126 10:40:48.106670 10429 net.cpp:454] inception_4c/output <- inception_4c/5x5
I1126 10:40:48.106675 10429 net.cpp:454] inception_4c/output <- inception_4c/pool_proj
I1126 10:40:48.106683 10429 net.cpp:411] inception_4c/output -> inception_4c/output
I1126 10:40:48.106736 10429 net.cpp:150] Setting up inception_4c/output
I1126 10:40:48.106747 10429 net.cpp:157] Top shape: 32 512 14 14 (3211264)
I1126 10:40:48.106751 10429 net.cpp:165] Memory required for data: 1430176516
I1126 10:40:48.106755 10429 layer_factory.hpp:76] Creating layer inception_4c/output_inception_4c/output_0_split
I1126 10:40:48.106763 10429 net.cpp:106] Creating Layer inception_4c/output_inception_4c/output_0_split
I1126 10:40:48.106784 10429 net.cpp:454] inception_4c/output_inception_4c/output_0_split <- inception_4c/output
I1126 10:40:48.106791 10429 net.cpp:411] inception_4c/output_inception_4c/output_0_split -> inception_4c/output_inception_4c/output_0_split_0
I1126 10:40:48.106799 10429 net.cpp:411] inception_4c/output_inception_4c/output_0_split -> inception_4c/output_inception_4c/output_0_split_1
I1126 10:40:48.106806 10429 net.cpp:411] inception_4c/output_inception_4c/output_0_split -> inception_4c/output_inception_4c/output_0_split_2
I1126 10:40:48.106814 10429 net.cpp:411] inception_4c/output_inception_4c/output_0_split -> inception_4c/output_inception_4c/output_0_split_3
I1126 10:40:48.106880 10429 net.cpp:150] Setting up inception_4c/output_inception_4c/output_0_split
I1126 10:40:48.106889 10429 net.cpp:157] Top shape: 32 512 14 14 (3211264)
I1126 10:40:48.106894 10429 net.cpp:157] Top shape: 32 512 14 14 (3211264)
I1126 10:40:48.106899 10429 net.cpp:157] Top shape: 32 512 14 14 (3211264)
I1126 10:40:48.106911 10429 net.cpp:157] Top shape: 32 512 14 14 (3211264)
I1126 10:40:48.106915 10429 net.cpp:165] Memory required for data: 1481556740
I1126 10:40:48.106927 10429 layer_factory.hpp:76] Creating layer inception_4d/1x1
I1126 10:40:48.106938 10429 net.cpp:106] Creating Layer inception_4d/1x1
I1126 10:40:48.106943 10429 net.cpp:454] inception_4d/1x1 <- inception_4c/output_inception_4c/output_0_split_0
I1126 10:40:48.106950 10429 net.cpp:411] inception_4d/1x1 -> inception_4d/1x1
I1126 10:40:48.108639 10429 cudnn_conv_layer.cpp:194] Reallocating workspace storage: 10080
I1126 10:40:48.108675 10429 net.cpp:150] Setting up inception_4d/1x1
I1126 10:40:48.108685 10429 net.cpp:157] Top shape: 32 112 14 14 (702464)
I1126 10:40:48.108690 10429 net.cpp:165] Memory required for data: 1484366596
I1126 10:40:48.108698 10429 layer_factory.hpp:76] Creating layer inception_4d/prelu_1x1
I1126 10:40:48.108711 10429 net.cpp:106] Creating Layer inception_4d/prelu_1x1
I1126 10:40:48.108729 10429 net.cpp:454] inception_4d/prelu_1x1 <- inception_4d/1x1
I1126 10:40:48.108737 10429 net.cpp:397] inception_4d/prelu_1x1 -> inception_4d/1x1 (in-place)
I1126 10:40:48.108860 10429 net.cpp:150] Setting up inception_4d/prelu_1x1
I1126 10:40:48.108867 10429 net.cpp:157] Top shape: 32 112 14 14 (702464)
I1126 10:40:48.108871 10429 net.cpp:165] Memory required for data: 1487176452
I1126 10:40:48.108877 10429 layer_factory.hpp:76] Creating layer inception_4d/3x3_reduce
I1126 10:40:48.108887 10429 net.cpp:106] Creating Layer inception_4d/3x3_reduce
I1126 10:40:48.108893 10429 net.cpp:454] inception_4d/3x3_reduce <- inception_4c/output_inception_4c/output_0_split_1
I1126 10:40:48.108901 10429 net.cpp:411] inception_4d/3x3_reduce -> inception_4d/3x3_reduce
I1126 10:40:48.110272 10429 cudnn_conv_layer.cpp:194] Reallocating workspace storage: 10080
I1126 10:40:48.110303 10429 net.cpp:150] Setting up inception_4d/3x3_reduce
I1126 10:40:48.110311 10429 net.cpp:157] Top shape: 32 144 14 14 (903168)
I1126 10:40:48.110316 10429 net.cpp:165] Memory required for data: 1490789124
I1126 10:40:48.110323 10429 layer_factory.hpp:76] Creating layer inception_4d/prelu_3x3_reduce
I1126 10:40:48.110332 10429 net.cpp:106] Creating Layer inception_4d/prelu_3x3_reduce
I1126 10:40:48.110338 10429 net.cpp:454] inception_4d/prelu_3x3_reduce <- inception_4d/3x3_reduce
I1126 10:40:48.110344 10429 net.cpp:397] inception_4d/prelu_3x3_reduce -> inception_4d/3x3_reduce (in-place)
I1126 10:40:48.110465 10429 net.cpp:150] Setting up inception_4d/prelu_3x3_reduce
I1126 10:40:48.110472 10429 net.cpp:157] Top shape: 32 144 14 14 (903168)
I1126 10:40:48.110476 10429 net.cpp:165] Memory required for data: 1494401796
I1126 10:40:48.110482 10429 layer_factory.hpp:76] Creating layer inception_4d/3x3
I1126 10:40:48.110491 10429 net.cpp:106] Creating Layer inception_4d/3x3
I1126 10:40:48.110496 10429 net.cpp:454] inception_4d/3x3 <- inception_4d/3x3_reduce
I1126 10:40:48.110503 10429 net.cpp:411] inception_4d/3x3 -> inception_4d/3x3
I1126 10:40:48.115002 10429 cudnn_conv_layer.cpp:194] Reallocating workspace storage: 10080
I1126 10:40:48.115057 10429 net.cpp:150] Setting up inception_4d/3x3
I1126 10:40:48.115070 10429 net.cpp:157] Top shape: 32 288 14 14 (1806336)
I1126 10:40:48.115075 10429 net.cpp:165] Memory required for data: 1501627140
I1126 10:40:48.115087 10429 layer_factory.hpp:76] Creating layer inception_4d/prelu_3x3
I1126 10:40:48.115105 10429 net.cpp:106] Creating Layer inception_4d/prelu_3x3
I1126 10:40:48.115113 10429 net.cpp:454] inception_4d/prelu_3x3 <- inception_4d/3x3
I1126 10:40:48.115123 10429 net.cpp:397] inception_4d/prelu_3x3 -> inception_4d/3x3 (in-place)
I1126 10:40:48.115316 10429 net.cpp:150] Setting up inception_4d/prelu_3x3
I1126 10:40:48.115329 10429 net.cpp:157] Top shape: 32 288 14 14 (1806336)
I1126 10:40:48.115332 10429 net.cpp:165] Memory required for data: 1508852484
I1126 10:40:48.115339 10429 layer_factory.hpp:76] Creating layer inception_4d/5x5_reduce
I1126 10:40:48.115353 10429 net.cpp:106] Creating Layer inception_4d/5x5_reduce
I1126 10:40:48.115360 10429 net.cpp:454] inception_4d/5x5_reduce <- inception_4c/output_inception_4c/output_0_split_2
I1126 10:40:48.115368 10429 net.cpp:411] inception_4d/5x5_reduce -> inception_4d/5x5_reduce
I1126 10:40:48.116663 10429 cudnn_conv_layer.cpp:194] Reallocating workspace storage: 10080
I1126 10:40:48.116703 10429 net.cpp:150] Setting up inception_4d/5x5_reduce
I1126 10:40:48.116711 10429 net.cpp:157] Top shape: 32 32 14 14 (200704)
I1126 10:40:48.116734 10429 net.cpp:165] Memory required for data: 1509655300
I1126 10:40:48.116742 10429 layer_factory.hpp:76] Creating layer inception_4d/prelu_5x5_reduce
I1126 10:40:48.116752 10429 net.cpp:106] Creating Layer inception_4d/prelu_5x5_reduce
I1126 10:40:48.116758 10429 net.cpp:454] inception_4d/prelu_5x5_reduce <- inception_4d/5x5_reduce
I1126 10:40:48.116767 10429 net.cpp:397] inception_4d/prelu_5x5_reduce -> inception_4d/5x5_reduce (in-place)
I1126 10:40:48.116881 10429 net.cpp:150] Setting up inception_4d/prelu_5x5_reduce
I1126 10:40:48.116889 10429 net.cpp:157] Top shape: 32 32 14 14 (200704)
I1126 10:40:48.116894 10429 net.cpp:165] Memory required for data: 1510458116
I1126 10:40:48.116899 10429 layer_factory.hpp:76] Creating layer inception_4d/5x5
I1126 10:40:48.116909 10429 net.cpp:106] Creating Layer inception_4d/5x5
I1126 10:40:48.116914 10429 net.cpp:454] inception_4d/5x5 <- inception_4d/5x5_reduce
I1126 10:40:48.116921 10429 net.cpp:411] inception_4d/5x5 -> inception_4d/5x5
I1126 10:40:48.118985 10429 cudnn_conv_layer.cpp:194] Reallocating workspace storage: 13080
I1126 10:40:48.119036 10429 net.cpp:150] Setting up inception_4d/5x5
I1126 10:40:48.119047 10429 net.cpp:157] Top shape: 32 64 14 14 (401408)
I1126 10:40:48.119052 10429 net.cpp:165] Memory required for data: 1512063748
I1126 10:40:48.119061 10429 layer_factory.hpp:76] Creating layer inception_4d/prelu_5x5
I1126 10:40:48.119074 10429 net.cpp:106] Creating Layer inception_4d/prelu_5x5
I1126 10:40:48.119081 10429 net.cpp:454] inception_4d/prelu_5x5 <- inception_4d/5x5
I1126 10:40:48.119093 10429 net.cpp:397] inception_4d/prelu_5x5 -> inception_4d/5x5 (in-place)
I1126 10:40:48.119251 10429 net.cpp:150] Setting up inception_4d/prelu_5x5
I1126 10:40:48.119263 10429 net.cpp:157] Top shape: 32 64 14 14 (401408)
I1126 10:40:48.119267 10429 net.cpp:165] Memory required for data: 1513669380
I1126 10:40:48.119273 10429 layer_factory.hpp:76] Creating layer inception_4d/pool
I1126 10:40:48.119285 10429 net.cpp:106] Creating Layer inception_4d/pool
I1126 10:40:48.119290 10429 net.cpp:454] inception_4d/pool <- inception_4c/output_inception_4c/output_0_split_3
I1126 10:40:48.119298 10429 net.cpp:411] inception_4d/pool -> inception_4d/pool
I1126 10:40:48.119521 10429 net.cpp:150] Setting up inception_4d/pool
I1126 10:40:48.119531 10429 net.cpp:157] Top shape: 32 512 14 14 (3211264)
I1126 10:40:48.119535 10429 net.cpp:165] Memory required for data: 1526514436
I1126 10:40:48.119540 10429 layer_factory.hpp:76] Creating layer inception_4d/pool_proj
I1126 10:40:48.119554 10429 net.cpp:106] Creating Layer inception_4d/pool_proj
I1126 10:40:48.119590 10429 net.cpp:454] inception_4d/pool_proj <- inception_4d/pool
I1126 10:40:48.119597 10429 net.cpp:411] inception_4d/pool_proj -> inception_4d/pool_proj
I1126 10:40:48.121258 10429 cudnn_conv_layer.cpp:194] Reallocating workspace storage: 10080
I1126 10:40:48.121342 10429 net.cpp:150] Setting up inception_4d/pool_proj
I1126 10:40:48.121353 10429 net.cpp:157] Top shape: 32 64 14 14 (401408)
I1126 10:40:48.121357 10429 net.cpp:165] Memory required for data: 1528120068
I1126 10:40:48.121366 10429 layer_factory.hpp:76] Creating layer inception_4d/prelu_pool_proj
I1126 10:40:48.121376 10429 net.cpp:106] Creating Layer inception_4d/prelu_pool_proj
I1126 10:40:48.121382 10429 net.cpp:454] inception_4d/prelu_pool_proj <- inception_4d/pool_proj
I1126 10:40:48.121390 10429 net.cpp:397] inception_4d/prelu_pool_proj -> inception_4d/pool_proj (in-place)
I1126 10:40:48.121507 10429 net.cpp:150] Setting up inception_4d/prelu_pool_proj
I1126 10:40:48.121516 10429 net.cpp:157] Top shape: 32 64 14 14 (401408)
I1126 10:40:48.121520 10429 net.cpp:165] Memory required for data: 1529725700
I1126 10:40:48.121526 10429 layer_factory.hpp:76] Creating layer inception_4d/output
I1126 10:40:48.121532 10429 net.cpp:106] Creating Layer inception_4d/output
I1126 10:40:48.121537 10429 net.cpp:454] inception_4d/output <- inception_4d/1x1
I1126 10:40:48.121543 10429 net.cpp:454] inception_4d/output <- inception_4d/3x3
I1126 10:40:48.121548 10429 net.cpp:454] inception_4d/output <- inception_4d/5x5
I1126 10:40:48.121552 10429 net.cpp:454] inception_4d/output <- inception_4d/pool_proj
I1126 10:40:48.121561 10429 net.cpp:411] inception_4d/output -> inception_4d/output
I1126 10:40:48.121588 10429 net.cpp:150] Setting up inception_4d/output
I1126 10:40:48.121601 10429 net.cpp:157] Top shape: 32 528 14 14 (3311616)
I1126 10:40:48.121605 10429 net.cpp:165] Memory required for data: 1542972164
I1126 10:40:48.121609 10429 layer_factory.hpp:76] Creating layer inception_4d/output_inception_4d/output_0_split
I1126 10:40:48.121618 10429 net.cpp:106] Creating Layer inception_4d/output_inception_4d/output_0_split
I1126 10:40:48.121621 10429 net.cpp:454] inception_4d/output_inception_4d/output_0_split <- inception_4d/output
I1126 10:40:48.121628 10429 net.cpp:411] inception_4d/output_inception_4d/output_0_split -> inception_4d/output_inception_4d/output_0_split_0
I1126 10:40:48.121634 10429 net.cpp:411] inception_4d/output_inception_4d/output_0_split -> inception_4d/output_inception_4d/output_0_split_1
I1126 10:40:48.121641 10429 net.cpp:411] inception_4d/output_inception_4d/output_0_split -> inception_4d/output_inception_4d/output_0_split_2
I1126 10:40:48.121649 10429 net.cpp:411] inception_4d/output_inception_4d/output_0_split -> inception_4d/output_inception_4d/output_0_split_3
I1126 10:40:48.121656 10429 net.cpp:411] inception_4d/output_inception_4d/output_0_split -> inception_4d/output_inception_4d/output_0_split_4
I1126 10:40:48.121731 10429 net.cpp:150] Setting up inception_4d/output_inception_4d/output_0_split
I1126 10:40:48.121739 10429 net.cpp:157] Top shape: 32 528 14 14 (3311616)
I1126 10:40:48.121744 10429 net.cpp:157] Top shape: 32 528 14 14 (3311616)
I1126 10:40:48.121749 10429 net.cpp:157] Top shape: 32 528 14 14 (3311616)
I1126 10:40:48.121754 10429 net.cpp:157] Top shape: 32 528 14 14 (3311616)
I1126 10:40:48.121758 10429 net.cpp:157] Top shape: 32 528 14 14 (3311616)
I1126 10:40:48.121762 10429 net.cpp:165] Memory required for data: 1609204484
I1126 10:40:48.121767 10429 layer_factory.hpp:76] Creating layer loss2/ave_pool
I1126 10:40:48.121773 10429 net.cpp:106] Creating Layer loss2/ave_pool
I1126 10:40:48.121778 10429 net.cpp:454] loss2/ave_pool <- inception_4d/output_inception_4d/output_0_split_0
I1126 10:40:48.121784 10429 net.cpp:411] loss2/ave_pool -> loss2/ave_pool
I1126 10:40:48.122254 10429 net.cpp:150] Setting up loss2/ave_pool
I1126 10:40:48.122265 10429 net.cpp:157] Top shape: 32 528 4 4 (270336)
I1126 10:40:48.122269 10429 net.cpp:165] Memory required for data: 1610285828
I1126 10:40:48.122292 10429 layer_factory.hpp:76] Creating layer loss2/conv
I1126 10:40:48.122303 10429 net.cpp:106] Creating Layer loss2/conv
I1126 10:40:48.122310 10429 net.cpp:454] loss2/conv <- loss2/ave_pool
I1126 10:40:48.122316 10429 net.cpp:411] loss2/conv -> loss2/conv
I1126 10:40:48.124152 10429 cudnn_conv_layer.cpp:194] Reallocating workspace storage: 6840
I1126 10:40:48.124189 10429 net.cpp:150] Setting up loss2/conv
I1126 10:40:48.124198 10429 net.cpp:157] Top shape: 32 128 4 4 (65536)
I1126 10:40:48.124202 10429 net.cpp:165] Memory required for data: 1610547972
I1126 10:40:48.124210 10429 layer_factory.hpp:76] Creating layer loss2/prelu_conv
I1126 10:40:48.124222 10429 net.cpp:106] Creating Layer loss2/prelu_conv
I1126 10:40:48.124228 10429 net.cpp:454] loss2/prelu_conv <- loss2/conv
I1126 10:40:48.124235 10429 net.cpp:397] loss2/prelu_conv -> loss2/conv (in-place)
I1126 10:40:48.124341 10429 net.cpp:150] Setting up loss2/prelu_conv
I1126 10:40:48.124349 10429 net.cpp:157] Top shape: 32 128 4 4 (65536)
I1126 10:40:48.124353 10429 net.cpp:165] Memory required for data: 1610810116
I1126 10:40:48.124359 10429 layer_factory.hpp:76] Creating layer loss2/fc
I1126 10:40:48.124368 10429 net.cpp:106] Creating Layer loss2/fc
I1126 10:40:48.124373 10429 net.cpp:454] loss2/fc <- loss2/conv
I1126 10:40:48.124382 10429 net.cpp:411] loss2/fc -> loss2/fc
I1126 10:40:48.145194 10429 net.cpp:150] Setting up loss2/fc
I1126 10:40:48.145241 10429 net.cpp:157] Top shape: 32 1024 (32768)
I1126 10:40:48.145247 10429 net.cpp:165] Memory required for data: 1610941188
I1126 10:40:48.145288 10429 layer_factory.hpp:76] Creating layer loss2/prelu_fc
I1126 10:40:48.145308 10429 net.cpp:106] Creating Layer loss2/prelu_fc
I1126 10:40:48.145316 10429 net.cpp:454] loss2/prelu_fc <- loss2/fc
I1126 10:40:48.145325 10429 net.cpp:397] loss2/prelu_fc -> loss2/fc (in-place)
I1126 10:40:48.145444 10429 net.cpp:150] Setting up loss2/prelu_fc
I1126 10:40:48.145455 10429 net.cpp:157] Top shape: 32 1024 (32768)
I1126 10:40:48.145459 10429 net.cpp:165] Memory required for data: 1611072260
I1126 10:40:48.145467 10429 layer_factory.hpp:76] Creating layer loss2/drop_fc
I1126 10:40:48.145476 10429 net.cpp:106] Creating Layer loss2/drop_fc
I1126 10:40:48.145481 10429 net.cpp:454] loss2/drop_fc <- loss2/fc
I1126 10:40:48.145488 10429 net.cpp:397] loss2/drop_fc -> loss2/fc (in-place)
I1126 10:40:48.145519 10429 net.cpp:150] Setting up loss2/drop_fc
I1126 10:40:48.145526 10429 net.cpp:157] Top shape: 32 1024 (32768)
I1126 10:40:48.145530 10429 net.cpp:165] Memory required for data: 1611203332
I1126 10:40:48.145534 10429 layer_factory.hpp:76] Creating layer loss2/classifier2
I1126 10:40:48.145545 10429 net.cpp:106] Creating Layer loss2/classifier2
I1126 10:40:48.145548 10429 net.cpp:454] loss2/classifier2 <- loss2/fc
I1126 10:40:48.145557 10429 net.cpp:411] loss2/classifier2 -> loss2/classifier
I1126 10:40:48.145695 10429 net.cpp:150] Setting up loss2/classifier2
I1126 10:40:48.145706 10429 net.cpp:157] Top shape: 32 2 (64)
I1126 10:40:48.145710 10429 net.cpp:165] Memory required for data: 1611203588
I1126 10:40:48.145717 10429 layer_factory.hpp:76] Creating layer loss2/loss
I1126 10:40:48.145725 10429 net.cpp:106] Creating Layer loss2/loss
I1126 10:40:48.145730 10429 net.cpp:454] loss2/loss <- loss2/classifier
I1126 10:40:48.145735 10429 net.cpp:454] loss2/loss <- label_data_1_split_1
I1126 10:40:48.145742 10429 net.cpp:411] loss2/loss -> loss2/loss1
I1126 10:40:48.145752 10429 layer_factory.hpp:76] Creating layer loss2/loss
I1126 10:40:48.146100 10429 net.cpp:150] Setting up loss2/loss
I1126 10:40:48.146114 10429 net.cpp:157] Top shape: (1)
I1126 10:40:48.146119 10429 net.cpp:160]     with loss weight 0.3
I1126 10:40:48.146136 10429 net.cpp:165] Memory required for data: 1611203592
I1126 10:40:48.146141 10429 layer_factory.hpp:76] Creating layer inception_4e/1x1
I1126 10:40:48.146155 10429 net.cpp:106] Creating Layer inception_4e/1x1
I1126 10:40:48.146162 10429 net.cpp:454] inception_4e/1x1 <- inception_4d/output_inception_4d/output_0_split_1
I1126 10:40:48.146170 10429 net.cpp:411] inception_4e/1x1 -> inception_4e/1x1
I1126 10:40:48.149889 10429 cudnn_conv_layer.cpp:194] Reallocating workspace storage: 10080
I1126 10:40:48.149951 10429 net.cpp:150] Setting up inception_4e/1x1
I1126 10:40:48.149966 10429 net.cpp:157] Top shape: 32 256 14 14 (1605632)
I1126 10:40:48.149971 10429 net.cpp:165] Memory required for data: 1617626120
I1126 10:40:48.149983 10429 layer_factory.hpp:76] Creating layer inception_4e/prelu_1x1
I1126 10:40:48.150005 10429 net.cpp:106] Creating Layer inception_4e/prelu_1x1
I1126 10:40:48.150014 10429 net.cpp:454] inception_4e/prelu_1x1 <- inception_4e/1x1
I1126 10:40:48.150027 10429 net.cpp:397] inception_4e/prelu_1x1 -> inception_4e/1x1 (in-place)
I1126 10:40:48.150228 10429 net.cpp:150] Setting up inception_4e/prelu_1x1
I1126 10:40:48.150241 10429 net.cpp:157] Top shape: 32 256 14 14 (1605632)
I1126 10:40:48.150245 10429 net.cpp:165] Memory required for data: 1624048648
I1126 10:40:48.150254 10429 layer_factory.hpp:76] Creating layer inception_4e/3x3_reduce
I1126 10:40:48.150272 10429 net.cpp:106] Creating Layer inception_4e/3x3_reduce
I1126 10:40:48.150279 10429 net.cpp:454] inception_4e/3x3_reduce <- inception_4d/output_inception_4d/output_0_split_2
I1126 10:40:48.150290 10429 net.cpp:411] inception_4e/3x3_reduce -> inception_4e/3x3_reduce
I1126 10:40:48.152297 10429 cudnn_conv_layer.cpp:194] Reallocating workspace storage: 10080
I1126 10:40:48.152339 10429 net.cpp:150] Setting up inception_4e/3x3_reduce
I1126 10:40:48.152349 10429 net.cpp:157] Top shape: 32 160 14 14 (1003520)
I1126 10:40:48.152354 10429 net.cpp:165] Memory required for data: 1628062728
I1126 10:40:48.152364 10429 layer_factory.hpp:76] Creating layer inception_4e/prelu_3x3_reduce
I1126 10:40:48.152376 10429 net.cpp:106] Creating Layer inception_4e/prelu_3x3_reduce
I1126 10:40:48.152384 10429 net.cpp:454] inception_4e/prelu_3x3_reduce <- inception_4e/3x3_reduce
I1126 10:40:48.152390 10429 net.cpp:397] inception_4e/prelu_3x3_reduce -> inception_4e/3x3_reduce (in-place)
I1126 10:40:48.152532 10429 net.cpp:150] Setting up inception_4e/prelu_3x3_reduce
I1126 10:40:48.152542 10429 net.cpp:157] Top shape: 32 160 14 14 (1003520)
I1126 10:40:48.152546 10429 net.cpp:165] Memory required for data: 1632076808
I1126 10:40:48.152552 10429 layer_factory.hpp:76] Creating layer inception_4e/3x3
I1126 10:40:48.152565 10429 net.cpp:106] Creating Layer inception_4e/3x3
I1126 10:40:48.152570 10429 net.cpp:454] inception_4e/3x3 <- inception_4e/3x3_reduce
I1126 10:40:48.152576 10429 net.cpp:411] inception_4e/3x3 -> inception_4e/3x3
I1126 10:40:48.157994 10429 cudnn_conv_layer.cpp:194] Reallocating workspace storage: 10080
I1126 10:40:48.158040 10429 net.cpp:150] Setting up inception_4e/3x3
I1126 10:40:48.158051 10429 net.cpp:157] Top shape: 32 320 14 14 (2007040)
I1126 10:40:48.158056 10429 net.cpp:165] Memory required for data: 1640104968
I1126 10:40:48.158071 10429 layer_factory.hpp:76] Creating layer inception_4e/prelu_3x3
I1126 10:40:48.158092 10429 net.cpp:106] Creating Layer inception_4e/prelu_3x3
I1126 10:40:48.158102 10429 net.cpp:454] inception_4e/prelu_3x3 <- inception_4e/3x3
I1126 10:40:48.158119 10429 net.cpp:397] inception_4e/prelu_3x3 -> inception_4e/3x3 (in-place)
I1126 10:40:48.158277 10429 net.cpp:150] Setting up inception_4e/prelu_3x3
I1126 10:40:48.158285 10429 net.cpp:157] Top shape: 32 320 14 14 (2007040)
I1126 10:40:48.158289 10429 net.cpp:165] Memory required for data: 1648133128
I1126 10:40:48.158295 10429 layer_factory.hpp:76] Creating layer inception_4e/5x5_reduce
I1126 10:40:48.158306 10429 net.cpp:106] Creating Layer inception_4e/5x5_reduce
I1126 10:40:48.158313 10429 net.cpp:454] inception_4e/5x5_reduce <- inception_4d/output_inception_4d/output_0_split_3
I1126 10:40:48.158321 10429 net.cpp:411] inception_4e/5x5_reduce -> inception_4e/5x5_reduce
I1126 10:40:48.159538 10429 cudnn_conv_layer.cpp:194] Reallocating workspace storage: 10080
I1126 10:40:48.159560 10429 net.cpp:150] Setting up inception_4e/5x5_reduce
I1126 10:40:48.159569 10429 net.cpp:157] Top shape: 32 32 14 14 (200704)
I1126 10:40:48.159597 10429 net.cpp:165] Memory required for data: 1648935944
I1126 10:40:48.159605 10429 layer_factory.hpp:76] Creating layer inception_4e/prelu_5x5_reduce
I1126 10:40:48.159612 10429 net.cpp:106] Creating Layer inception_4e/prelu_5x5_reduce
I1126 10:40:48.159617 10429 net.cpp:454] inception_4e/prelu_5x5_reduce <- inception_4e/5x5_reduce
I1126 10:40:48.159623 10429 net.cpp:397] inception_4e/prelu_5x5_reduce -> inception_4e/5x5_reduce (in-place)
I1126 10:40:48.159734 10429 net.cpp:150] Setting up inception_4e/prelu_5x5_reduce
I1126 10:40:48.159742 10429 net.cpp:157] Top shape: 32 32 14 14 (200704)
I1126 10:40:48.159746 10429 net.cpp:165] Memory required for data: 1649738760
I1126 10:40:48.159752 10429 layer_factory.hpp:76] Creating layer inception_4e/5x5
I1126 10:40:48.159780 10429 net.cpp:106] Creating Layer inception_4e/5x5
I1126 10:40:48.159785 10429 net.cpp:454] inception_4e/5x5 <- inception_4e/5x5_reduce
I1126 10:40:48.159791 10429 net.cpp:411] inception_4e/5x5 -> inception_4e/5x5
I1126 10:40:48.162765 10429 cudnn_conv_layer.cpp:194] Reallocating workspace storage: 13080
I1126 10:40:48.162812 10429 net.cpp:150] Setting up inception_4e/5x5
I1126 10:40:48.162832 10429 net.cpp:157] Top shape: 32 128 14 14 (802816)
I1126 10:40:48.162842 10429 net.cpp:165] Memory required for data: 1652950024
I1126 10:40:48.162868 10429 layer_factory.hpp:76] Creating layer inception_4e/prelu_5x5
I1126 10:40:48.162881 10429 net.cpp:106] Creating Layer inception_4e/prelu_5x5
I1126 10:40:48.162889 10429 net.cpp:454] inception_4e/prelu_5x5 <- inception_4e/5x5
I1126 10:40:48.162896 10429 net.cpp:397] inception_4e/prelu_5x5 -> inception_4e/5x5 (in-place)
I1126 10:40:48.163033 10429 net.cpp:150] Setting up inception_4e/prelu_5x5
I1126 10:40:48.163043 10429 net.cpp:157] Top shape: 32 128 14 14 (802816)
I1126 10:40:48.163048 10429 net.cpp:165] Memory required for data: 1656161288
I1126 10:40:48.163055 10429 layer_factory.hpp:76] Creating layer inception_4e/pool
I1126 10:40:48.163064 10429 net.cpp:106] Creating Layer inception_4e/pool
I1126 10:40:48.163069 10429 net.cpp:454] inception_4e/pool <- inception_4d/output_inception_4d/output_0_split_4
I1126 10:40:48.163081 10429 net.cpp:411] inception_4e/pool -> inception_4e/pool
I1126 10:40:48.163508 10429 net.cpp:150] Setting up inception_4e/pool
I1126 10:40:48.163518 10429 net.cpp:157] Top shape: 32 528 14 14 (3311616)
I1126 10:40:48.163523 10429 net.cpp:165] Memory required for data: 1669407752
I1126 10:40:48.163527 10429 layer_factory.hpp:76] Creating layer inception_4e/pool_proj
I1126 10:40:48.163538 10429 net.cpp:106] Creating Layer inception_4e/pool_proj
I1126 10:40:48.163543 10429 net.cpp:454] inception_4e/pool_proj <- inception_4e/pool
I1126 10:40:48.163552 10429 net.cpp:411] inception_4e/pool_proj -> inception_4e/pool_proj
I1126 10:40:48.165014 10429 cudnn_conv_layer.cpp:194] Reallocating workspace storage: 10080
I1126 10:40:48.165057 10429 net.cpp:150] Setting up inception_4e/pool_proj
I1126 10:40:48.165072 10429 net.cpp:157] Top shape: 32 128 14 14 (802816)
I1126 10:40:48.165081 10429 net.cpp:165] Memory required for data: 1672619016
I1126 10:40:48.165091 10429 layer_factory.hpp:76] Creating layer inception_4e/prelu_pool_proj
I1126 10:40:48.165102 10429 net.cpp:106] Creating Layer inception_4e/prelu_pool_proj
I1126 10:40:48.165109 10429 net.cpp:454] inception_4e/prelu_pool_proj <- inception_4e/pool_proj
I1126 10:40:48.165117 10429 net.cpp:397] inception_4e/prelu_pool_proj -> inception_4e/pool_proj (in-place)
I1126 10:40:48.165244 10429 net.cpp:150] Setting up inception_4e/prelu_pool_proj
I1126 10:40:48.165253 10429 net.cpp:157] Top shape: 32 128 14 14 (802816)
I1126 10:40:48.165257 10429 net.cpp:165] Memory required for data: 1675830280
I1126 10:40:48.165262 10429 layer_factory.hpp:76] Creating layer inception_4e/output
I1126 10:40:48.165269 10429 net.cpp:106] Creating Layer inception_4e/output
I1126 10:40:48.165274 10429 net.cpp:454] inception_4e/output <- inception_4e/1x1
I1126 10:40:48.165279 10429 net.cpp:454] inception_4e/output <- inception_4e/3x3
I1126 10:40:48.165284 10429 net.cpp:454] inception_4e/output <- inception_4e/5x5
I1126 10:40:48.165308 10429 net.cpp:454] inception_4e/output <- inception_4e/pool_proj
I1126 10:40:48.165315 10429 net.cpp:411] inception_4e/output -> inception_4e/output
I1126 10:40:48.165345 10429 net.cpp:150] Setting up inception_4e/output
I1126 10:40:48.165354 10429 net.cpp:157] Top shape: 32 832 14 14 (5218304)
I1126 10:40:48.165357 10429 net.cpp:165] Memory required for data: 1696703496
I1126 10:40:48.165361 10429 layer_factory.hpp:76] Creating layer pool4/3x3_s2
I1126 10:40:48.165369 10429 net.cpp:106] Creating Layer pool4/3x3_s2
I1126 10:40:48.165374 10429 net.cpp:454] pool4/3x3_s2 <- inception_4e/output
I1126 10:40:48.165380 10429 net.cpp:411] pool4/3x3_s2 -> pool4/3x3_s2
I1126 10:40:48.165755 10429 net.cpp:150] Setting up pool4/3x3_s2
I1126 10:40:48.165767 10429 net.cpp:157] Top shape: 32 832 7 7 (1304576)
I1126 10:40:48.165771 10429 net.cpp:165] Memory required for data: 1701921800
I1126 10:40:48.165776 10429 layer_factory.hpp:76] Creating layer pool4/3x3_s2_pool4/3x3_s2_0_split
I1126 10:40:48.165783 10429 net.cpp:106] Creating Layer pool4/3x3_s2_pool4/3x3_s2_0_split
I1126 10:40:48.165787 10429 net.cpp:454] pool4/3x3_s2_pool4/3x3_s2_0_split <- pool4/3x3_s2
I1126 10:40:48.165793 10429 net.cpp:411] pool4/3x3_s2_pool4/3x3_s2_0_split -> pool4/3x3_s2_pool4/3x3_s2_0_split_0
I1126 10:40:48.165801 10429 net.cpp:411] pool4/3x3_s2_pool4/3x3_s2_0_split -> pool4/3x3_s2_pool4/3x3_s2_0_split_1
I1126 10:40:48.165807 10429 net.cpp:411] pool4/3x3_s2_pool4/3x3_s2_0_split -> pool4/3x3_s2_pool4/3x3_s2_0_split_2
I1126 10:40:48.165815 10429 net.cpp:411] pool4/3x3_s2_pool4/3x3_s2_0_split -> pool4/3x3_s2_pool4/3x3_s2_0_split_3
I1126 10:40:48.165882 10429 net.cpp:150] Setting up pool4/3x3_s2_pool4/3x3_s2_0_split
I1126 10:40:48.165890 10429 net.cpp:157] Top shape: 32 832 7 7 (1304576)
I1126 10:40:48.165895 10429 net.cpp:157] Top shape: 32 832 7 7 (1304576)
I1126 10:40:48.165900 10429 net.cpp:157] Top shape: 32 832 7 7 (1304576)
I1126 10:40:48.165905 10429 net.cpp:157] Top shape: 32 832 7 7 (1304576)
I1126 10:40:48.165909 10429 net.cpp:165] Memory required for data: 1722795016
I1126 10:40:48.165912 10429 layer_factory.hpp:76] Creating layer inception_5a/1x1
I1126 10:40:48.165925 10429 net.cpp:106] Creating Layer inception_5a/1x1
I1126 10:40:48.165930 10429 net.cpp:454] inception_5a/1x1 <- pool4/3x3_s2_pool4/3x3_s2_0_split_0
I1126 10:40:48.165937 10429 net.cpp:411] inception_5a/1x1 -> inception_5a/1x1
I1126 10:40:48.169316 10429 cudnn_conv_layer.cpp:194] Reallocating workspace storage: 7428
I1126 10:40:48.169368 10429 net.cpp:150] Setting up inception_5a/1x1
I1126 10:40:48.169386 10429 net.cpp:157] Top shape: 32 256 7 7 (401408)
I1126 10:40:48.169394 10429 net.cpp:165] Memory required for data: 1724400648
I1126 10:40:48.169409 10429 layer_factory.hpp:76] Creating layer inception_5a/prelu_1x1
I1126 10:40:48.169427 10429 net.cpp:106] Creating Layer inception_5a/prelu_1x1
I1126 10:40:48.169435 10429 net.cpp:454] inception_5a/prelu_1x1 <- inception_5a/1x1
I1126 10:40:48.169445 10429 net.cpp:397] inception_5a/prelu_1x1 -> inception_5a/1x1 (in-place)
I1126 10:40:48.170078 10429 net.cpp:150] Setting up inception_5a/prelu_1x1
I1126 10:40:48.170090 10429 net.cpp:157] Top shape: 32 256 7 7 (401408)
I1126 10:40:48.170094 10429 net.cpp:165] Memory required for data: 1726006280
I1126 10:40:48.170101 10429 layer_factory.hpp:76] Creating layer inception_5a/3x3_reduce
I1126 10:40:48.170114 10429 net.cpp:106] Creating Layer inception_5a/3x3_reduce
I1126 10:40:48.170188 10429 net.cpp:454] inception_5a/3x3_reduce <- pool4/3x3_s2_pool4/3x3_s2_0_split_1
I1126 10:40:48.170197 10429 net.cpp:411] inception_5a/3x3_reduce -> inception_5a/3x3_reduce
I1126 10:40:48.172806 10429 cudnn_conv_layer.cpp:194] Reallocating workspace storage: 7428
I1126 10:40:48.172853 10429 net.cpp:150] Setting up inception_5a/3x3_reduce
I1126 10:40:48.172863 10429 net.cpp:157] Top shape: 32 160 7 7 (250880)
I1126 10:40:48.172868 10429 net.cpp:165] Memory required for data: 1727009800
I1126 10:40:48.172878 10429 layer_factory.hpp:76] Creating layer inception_5a/prelu_3x3_reduce
I1126 10:40:48.172919 10429 net.cpp:106] Creating Layer inception_5a/prelu_3x3_reduce
I1126 10:40:48.172926 10429 net.cpp:454] inception_5a/prelu_3x3_reduce <- inception_5a/3x3_reduce
I1126 10:40:48.172935 10429 net.cpp:397] inception_5a/prelu_3x3_reduce -> inception_5a/3x3_reduce (in-place)
I1126 10:40:48.173045 10429 net.cpp:150] Setting up inception_5a/prelu_3x3_reduce
I1126 10:40:48.173054 10429 net.cpp:157] Top shape: 32 160 7 7 (250880)
I1126 10:40:48.173058 10429 net.cpp:165] Memory required for data: 1728013320
I1126 10:40:48.173063 10429 layer_factory.hpp:76] Creating layer inception_5a/3x3
I1126 10:40:48.173075 10429 net.cpp:106] Creating Layer inception_5a/3x3
I1126 10:40:48.173080 10429 net.cpp:454] inception_5a/3x3 <- inception_5a/3x3_reduce
I1126 10:40:48.173089 10429 net.cpp:411] inception_5a/3x3 -> inception_5a/3x3
I1126 10:40:48.178285 10429 cudnn_conv_layer.cpp:194] Reallocating workspace storage: 7788
I1126 10:40:48.178361 10429 net.cpp:150] Setting up inception_5a/3x3
I1126 10:40:48.178380 10429 net.cpp:157] Top shape: 32 320 7 7 (501760)
I1126 10:40:48.178390 10429 net.cpp:165] Memory required for data: 1730020360
I1126 10:40:48.178411 10429 layer_factory.hpp:76] Creating layer inception_5a/prelu_3x3
I1126 10:40:48.178432 10429 net.cpp:106] Creating Layer inception_5a/prelu_3x3
I1126 10:40:48.178447 10429 net.cpp:454] inception_5a/prelu_3x3 <- inception_5a/3x3
I1126 10:40:48.178462 10429 net.cpp:397] inception_5a/prelu_3x3 -> inception_5a/3x3 (in-place)
I1126 10:40:48.178637 10429 net.cpp:150] Setting up inception_5a/prelu_3x3
I1126 10:40:48.178650 10429 net.cpp:157] Top shape: 32 320 7 7 (501760)
I1126 10:40:48.178654 10429 net.cpp:165] Memory required for data: 1732027400
I1126 10:40:48.178660 10429 layer_factory.hpp:76] Creating layer inception_5a/5x5_reduce
I1126 10:40:48.178674 10429 net.cpp:106] Creating Layer inception_5a/5x5_reduce
I1126 10:40:48.178679 10429 net.cpp:454] inception_5a/5x5_reduce <- pool4/3x3_s2_pool4/3x3_s2_0_split_2
I1126 10:40:48.178689 10429 net.cpp:411] inception_5a/5x5_reduce -> inception_5a/5x5_reduce
I1126 10:40:48.180397 10429 cudnn_conv_layer.cpp:194] Reallocating workspace storage: 7428
I1126 10:40:48.180433 10429 net.cpp:150] Setting up inception_5a/5x5_reduce
I1126 10:40:48.180444 10429 net.cpp:157] Top shape: 32 32 7 7 (50176)
I1126 10:40:48.180449 10429 net.cpp:165] Memory required for data: 1732228104
I1126 10:40:48.180457 10429 layer_factory.hpp:76] Creating layer inception_5a/prelu_5x5_reduce
I1126 10:40:48.180474 10429 net.cpp:106] Creating Layer inception_5a/prelu_5x5_reduce
I1126 10:40:48.180480 10429 net.cpp:454] inception_5a/prelu_5x5_reduce <- inception_5a/5x5_reduce
I1126 10:40:48.180490 10429 net.cpp:397] inception_5a/prelu_5x5_reduce -> inception_5a/5x5_reduce (in-place)
I1126 10:40:48.180605 10429 net.cpp:150] Setting up inception_5a/prelu_5x5_reduce
I1126 10:40:48.180613 10429 net.cpp:157] Top shape: 32 32 7 7 (50176)
I1126 10:40:48.180618 10429 net.cpp:165] Memory required for data: 1732428808
I1126 10:40:48.180624 10429 layer_factory.hpp:76] Creating layer inception_5a/5x5
I1126 10:40:48.180636 10429 net.cpp:106] Creating Layer inception_5a/5x5
I1126 10:40:48.180641 10429 net.cpp:454] inception_5a/5x5 <- inception_5a/5x5_reduce
I1126 10:40:48.180649 10429 net.cpp:411] inception_5a/5x5 -> inception_5a/5x5
I1126 10:40:48.182852 10429 cudnn_conv_layer.cpp:194] Reallocating workspace storage: 9804
I1126 10:40:48.182895 10429 net.cpp:150] Setting up inception_5a/5x5
I1126 10:40:48.182906 10429 net.cpp:157] Top shape: 32 128 7 7 (200704)
I1126 10:40:48.182914 10429 net.cpp:165] Memory required for data: 1733231624
I1126 10:40:48.182927 10429 layer_factory.hpp:76] Creating layer inception_5a/prelu_5x5
I1126 10:40:48.182946 10429 net.cpp:106] Creating Layer inception_5a/prelu_5x5
I1126 10:40:48.182955 10429 net.cpp:454] inception_5a/prelu_5x5 <- inception_5a/5x5
I1126 10:40:48.182963 10429 net.cpp:397] inception_5a/prelu_5x5 -> inception_5a/5x5 (in-place)
I1126 10:40:48.183089 10429 net.cpp:150] Setting up inception_5a/prelu_5x5
I1126 10:40:48.183125 10429 net.cpp:157] Top shape: 32 128 7 7 (200704)
I1126 10:40:48.183130 10429 net.cpp:165] Memory required for data: 1734034440
I1126 10:40:48.183135 10429 layer_factory.hpp:76] Creating layer inception_5a/pool
I1126 10:40:48.183145 10429 net.cpp:106] Creating Layer inception_5a/pool
I1126 10:40:48.183151 10429 net.cpp:454] inception_5a/pool <- pool4/3x3_s2_pool4/3x3_s2_0_split_3
I1126 10:40:48.183158 10429 net.cpp:411] inception_5a/pool -> inception_5a/pool
I1126 10:40:48.183364 10429 net.cpp:150] Setting up inception_5a/pool
I1126 10:40:48.183374 10429 net.cpp:157] Top shape: 32 832 7 7 (1304576)
I1126 10:40:48.183378 10429 net.cpp:165] Memory required for data: 1739252744
I1126 10:40:48.183383 10429 layer_factory.hpp:76] Creating layer inception_5a/pool_proj
I1126 10:40:48.183395 10429 net.cpp:106] Creating Layer inception_5a/pool_proj
I1126 10:40:48.183400 10429 net.cpp:454] inception_5a/pool_proj <- inception_5a/pool
I1126 10:40:48.183408 10429 net.cpp:411] inception_5a/pool_proj -> inception_5a/pool_proj
I1126 10:40:48.185909 10429 cudnn_conv_layer.cpp:194] Reallocating workspace storage: 7428
I1126 10:40:48.185936 10429 net.cpp:150] Setting up inception_5a/pool_proj
I1126 10:40:48.185946 10429 net.cpp:157] Top shape: 32 128 7 7 (200704)
I1126 10:40:48.185951 10429 net.cpp:165] Memory required for data: 1740055560
I1126 10:40:48.185959 10429 layer_factory.hpp:76] Creating layer inception_5a/prelu_pool_proj
I1126 10:40:48.185968 10429 net.cpp:106] Creating Layer inception_5a/prelu_pool_proj
I1126 10:40:48.185973 10429 net.cpp:454] inception_5a/prelu_pool_proj <- inception_5a/pool_proj
I1126 10:40:48.185981 10429 net.cpp:397] inception_5a/prelu_pool_proj -> inception_5a/pool_proj (in-place)
I1126 10:40:48.186081 10429 net.cpp:150] Setting up inception_5a/prelu_pool_proj
I1126 10:40:48.186089 10429 net.cpp:157] Top shape: 32 128 7 7 (200704)
I1126 10:40:48.186094 10429 net.cpp:165] Memory required for data: 1740858376
I1126 10:40:48.186100 10429 layer_factory.hpp:76] Creating layer inception_5a/output
I1126 10:40:48.186107 10429 net.cpp:106] Creating Layer inception_5a/output
I1126 10:40:48.186111 10429 net.cpp:454] inception_5a/output <- inception_5a/1x1
I1126 10:40:48.186116 10429 net.cpp:454] inception_5a/output <- inception_5a/3x3
I1126 10:40:48.186121 10429 net.cpp:454] inception_5a/output <- inception_5a/5x5
I1126 10:40:48.186126 10429 net.cpp:454] inception_5a/output <- inception_5a/pool_proj
I1126 10:40:48.186131 10429 net.cpp:411] inception_5a/output -> inception_5a/output
I1126 10:40:48.186161 10429 net.cpp:150] Setting up inception_5a/output
I1126 10:40:48.186168 10429 net.cpp:157] Top shape: 32 832 7 7 (1304576)
I1126 10:40:48.186172 10429 net.cpp:165] Memory required for data: 1746076680
I1126 10:40:48.186177 10429 layer_factory.hpp:76] Creating layer inception_5a/output_inception_5a/output_0_split
I1126 10:40:48.186182 10429 net.cpp:106] Creating Layer inception_5a/output_inception_5a/output_0_split
I1126 10:40:48.186187 10429 net.cpp:454] inception_5a/output_inception_5a/output_0_split <- inception_5a/output
I1126 10:40:48.186195 10429 net.cpp:411] inception_5a/output_inception_5a/output_0_split -> inception_5a/output_inception_5a/output_0_split_0
I1126 10:40:48.186203 10429 net.cpp:411] inception_5a/output_inception_5a/output_0_split -> inception_5a/output_inception_5a/output_0_split_1
I1126 10:40:48.186209 10429 net.cpp:411] inception_5a/output_inception_5a/output_0_split -> inception_5a/output_inception_5a/output_0_split_2
I1126 10:40:48.186216 10429 net.cpp:411] inception_5a/output_inception_5a/output_0_split -> inception_5a/output_inception_5a/output_0_split_3
I1126 10:40:48.186286 10429 net.cpp:150] Setting up inception_5a/output_inception_5a/output_0_split
I1126 10:40:48.186293 10429 net.cpp:157] Top shape: 32 832 7 7 (1304576)
I1126 10:40:48.186298 10429 net.cpp:157] Top shape: 32 832 7 7 (1304576)
I1126 10:40:48.186303 10429 net.cpp:157] Top shape: 32 832 7 7 (1304576)
I1126 10:40:48.186307 10429 net.cpp:157] Top shape: 32 832 7 7 (1304576)
I1126 10:40:48.186328 10429 net.cpp:165] Memory required for data: 1766949896
I1126 10:40:48.186333 10429 layer_factory.hpp:76] Creating layer inception_5b/1x1
I1126 10:40:48.186343 10429 net.cpp:106] Creating Layer inception_5b/1x1
I1126 10:40:48.186347 10429 net.cpp:454] inception_5b/1x1 <- inception_5a/output_inception_5a/output_0_split_0
I1126 10:40:48.186354 10429 net.cpp:411] inception_5b/1x1 -> inception_5b/1x1
I1126 10:40:48.189800 10429 cudnn_conv_layer.cpp:194] Reallocating workspace storage: 7428
I1126 10:40:48.189829 10429 net.cpp:150] Setting up inception_5b/1x1
I1126 10:40:48.189836 10429 net.cpp:157] Top shape: 32 384 7 7 (602112)
I1126 10:40:48.189841 10429 net.cpp:165] Memory required for data: 1769358344
I1126 10:40:48.189848 10429 layer_factory.hpp:76] Creating layer inception_5b/prelu_1x1
I1126 10:40:48.189857 10429 net.cpp:106] Creating Layer inception_5b/prelu_1x1
I1126 10:40:48.189862 10429 net.cpp:454] inception_5b/prelu_1x1 <- inception_5b/1x1
I1126 10:40:48.189868 10429 net.cpp:397] inception_5b/prelu_1x1 -> inception_5b/1x1 (in-place)
I1126 10:40:48.190459 10429 net.cpp:150] Setting up inception_5b/prelu_1x1
I1126 10:40:48.190469 10429 net.cpp:157] Top shape: 32 384 7 7 (602112)
I1126 10:40:48.190474 10429 net.cpp:165] Memory required for data: 1771766792
I1126 10:40:48.190479 10429 layer_factory.hpp:76] Creating layer inception_5b/3x3_reduce
I1126 10:40:48.190490 10429 net.cpp:106] Creating Layer inception_5b/3x3_reduce
I1126 10:40:48.190495 10429 net.cpp:454] inception_5b/3x3_reduce <- inception_5a/output_inception_5a/output_0_split_1
I1126 10:40:48.190502 10429 net.cpp:411] inception_5b/3x3_reduce -> inception_5b/3x3_reduce
I1126 10:40:48.193020 10429 cudnn_conv_layer.cpp:194] Reallocating workspace storage: 7428
I1126 10:40:48.193049 10429 net.cpp:150] Setting up inception_5b/3x3_reduce
I1126 10:40:48.193058 10429 net.cpp:157] Top shape: 32 192 7 7 (301056)
I1126 10:40:48.193063 10429 net.cpp:165] Memory required for data: 1772971016
I1126 10:40:48.193070 10429 layer_factory.hpp:76] Creating layer inception_5b/prelu_3x3_reduce
I1126 10:40:48.193078 10429 net.cpp:106] Creating Layer inception_5b/prelu_3x3_reduce
I1126 10:40:48.193084 10429 net.cpp:454] inception_5b/prelu_3x3_reduce <- inception_5b/3x3_reduce
I1126 10:40:48.193094 10429 net.cpp:397] inception_5b/prelu_3x3_reduce -> inception_5b/3x3_reduce (in-place)
I1126 10:40:48.193197 10429 net.cpp:150] Setting up inception_5b/prelu_3x3_reduce
I1126 10:40:48.193205 10429 net.cpp:157] Top shape: 32 192 7 7 (301056)
I1126 10:40:48.193209 10429 net.cpp:165] Memory required for data: 1774175240
I1126 10:40:48.193215 10429 layer_factory.hpp:76] Creating layer inception_5b/3x3
I1126 10:40:48.193225 10429 net.cpp:106] Creating Layer inception_5b/3x3
I1126 10:40:48.193229 10429 net.cpp:454] inception_5b/3x3 <- inception_5b/3x3_reduce
I1126 10:40:48.193236 10429 net.cpp:411] inception_5b/3x3 -> inception_5b/3x3
I1126 10:40:48.199059 10429 cudnn_conv_layer.cpp:194] Reallocating workspace storage: 7788
I1126 10:40:48.199120 10429 net.cpp:150] Setting up inception_5b/3x3
I1126 10:40:48.199132 10429 net.cpp:157] Top shape: 32 384 7 7 (602112)
I1126 10:40:48.199137 10429 net.cpp:165] Memory required for data: 1776583688
I1126 10:40:48.199147 10429 layer_factory.hpp:76] Creating layer inception_5b/prelu_3x3
I1126 10:40:48.199161 10429 net.cpp:106] Creating Layer inception_5b/prelu_3x3
I1126 10:40:48.199167 10429 net.cpp:454] inception_5b/prelu_3x3 <- inception_5b/3x3
I1126 10:40:48.199175 10429 net.cpp:397] inception_5b/prelu_3x3 -> inception_5b/3x3 (in-place)
I1126 10:40:48.199292 10429 net.cpp:150] Setting up inception_5b/prelu_3x3
I1126 10:40:48.199301 10429 net.cpp:157] Top shape: 32 384 7 7 (602112)
I1126 10:40:48.199306 10429 net.cpp:165] Memory required for data: 1778992136
I1126 10:40:48.199311 10429 layer_factory.hpp:76] Creating layer inception_5b/5x5_reduce
I1126 10:40:48.199321 10429 net.cpp:106] Creating Layer inception_5b/5x5_reduce
I1126 10:40:48.199326 10429 net.cpp:454] inception_5b/5x5_reduce <- inception_5a/output_inception_5a/output_0_split_2
I1126 10:40:48.199357 10429 net.cpp:411] inception_5b/5x5_reduce -> inception_5b/5x5_reduce
I1126 10:40:48.200741 10429 cudnn_conv_layer.cpp:194] Reallocating workspace storage: 7428
I1126 10:40:48.200773 10429 net.cpp:150] Setting up inception_5b/5x5_reduce
I1126 10:40:48.200783 10429 net.cpp:157] Top shape: 32 48 7 7 (75264)
I1126 10:40:48.200786 10429 net.cpp:165] Memory required for data: 1779293192
I1126 10:40:48.200794 10429 layer_factory.hpp:76] Creating layer inception_5b/prelu_5x5_reduce
I1126 10:40:48.200803 10429 net.cpp:106] Creating Layer inception_5b/prelu_5x5_reduce
I1126 10:40:48.200809 10429 net.cpp:454] inception_5b/prelu_5x5_reduce <- inception_5b/5x5_reduce
I1126 10:40:48.200817 10429 net.cpp:397] inception_5b/prelu_5x5_reduce -> inception_5b/5x5_reduce (in-place)
I1126 10:40:48.200935 10429 net.cpp:150] Setting up inception_5b/prelu_5x5_reduce
I1126 10:40:48.200944 10429 net.cpp:157] Top shape: 32 48 7 7 (75264)
I1126 10:40:48.200948 10429 net.cpp:165] Memory required for data: 1779594248
I1126 10:40:48.200953 10429 layer_factory.hpp:76] Creating layer inception_5b/5x5
I1126 10:40:48.200963 10429 net.cpp:106] Creating Layer inception_5b/5x5
I1126 10:40:48.200968 10429 net.cpp:454] inception_5b/5x5 <- inception_5b/5x5_reduce
I1126 10:40:48.200976 10429 net.cpp:411] inception_5b/5x5 -> inception_5b/5x5
I1126 10:40:48.203164 10429 cudnn_conv_layer.cpp:194] Reallocating workspace storage: 9804
I1126 10:40:48.203204 10429 net.cpp:150] Setting up inception_5b/5x5
I1126 10:40:48.203213 10429 net.cpp:157] Top shape: 32 128 7 7 (200704)
I1126 10:40:48.203217 10429 net.cpp:165] Memory required for data: 1780397064
I1126 10:40:48.203227 10429 layer_factory.hpp:76] Creating layer inception_5b/prelu_5x5
I1126 10:40:48.203234 10429 net.cpp:106] Creating Layer inception_5b/prelu_5x5
I1126 10:40:48.203241 10429 net.cpp:454] inception_5b/prelu_5x5 <- inception_5b/5x5
I1126 10:40:48.203249 10429 net.cpp:397] inception_5b/prelu_5x5 -> inception_5b/5x5 (in-place)
I1126 10:40:48.203368 10429 net.cpp:150] Setting up inception_5b/prelu_5x5
I1126 10:40:48.203377 10429 net.cpp:157] Top shape: 32 128 7 7 (200704)
I1126 10:40:48.203382 10429 net.cpp:165] Memory required for data: 1781199880
I1126 10:40:48.203387 10429 layer_factory.hpp:76] Creating layer inception_5b/pool
I1126 10:40:48.203397 10429 net.cpp:106] Creating Layer inception_5b/pool
I1126 10:40:48.203402 10429 net.cpp:454] inception_5b/pool <- inception_5a/output_inception_5a/output_0_split_3
I1126 10:40:48.203409 10429 net.cpp:411] inception_5b/pool -> inception_5b/pool
I1126 10:40:48.203815 10429 net.cpp:150] Setting up inception_5b/pool
I1126 10:40:48.203829 10429 net.cpp:157] Top shape: 32 832 7 7 (1304576)
I1126 10:40:48.203832 10429 net.cpp:165] Memory required for data: 1786418184
I1126 10:40:48.203837 10429 layer_factory.hpp:76] Creating layer inception_5b/pool_proj
I1126 10:40:48.203847 10429 net.cpp:106] Creating Layer inception_5b/pool_proj
I1126 10:40:48.203853 10429 net.cpp:454] inception_5b/pool_proj <- inception_5b/pool
I1126 10:40:48.203860 10429 net.cpp:411] inception_5b/pool_proj -> inception_5b/pool_proj
I1126 10:40:48.206200 10429 cudnn_conv_layer.cpp:194] Reallocating workspace storage: 7428
I1126 10:40:48.206235 10429 net.cpp:150] Setting up inception_5b/pool_proj
I1126 10:40:48.206244 10429 net.cpp:157] Top shape: 32 128 7 7 (200704)
I1126 10:40:48.206248 10429 net.cpp:165] Memory required for data: 1787221000
I1126 10:40:48.206257 10429 layer_factory.hpp:76] Creating layer inception_5b/prelu_pool_proj
I1126 10:40:48.206267 10429 net.cpp:106] Creating Layer inception_5b/prelu_pool_proj
I1126 10:40:48.206274 10429 net.cpp:454] inception_5b/prelu_pool_proj <- inception_5b/pool_proj
I1126 10:40:48.206281 10429 net.cpp:397] inception_5b/prelu_pool_proj -> inception_5b/pool_proj (in-place)
I1126 10:40:48.206387 10429 net.cpp:150] Setting up inception_5b/prelu_pool_proj
I1126 10:40:48.206396 10429 net.cpp:157] Top shape: 32 128 7 7 (200704)
I1126 10:40:48.206399 10429 net.cpp:165] Memory required for data: 1788023816
I1126 10:40:48.206405 10429 layer_factory.hpp:76] Creating layer inception_5b/output
I1126 10:40:48.206440 10429 net.cpp:106] Creating Layer inception_5b/output
I1126 10:40:48.206445 10429 net.cpp:454] inception_5b/output <- inception_5b/1x1
I1126 10:40:48.206452 10429 net.cpp:454] inception_5b/output <- inception_5b/3x3
I1126 10:40:48.206457 10429 net.cpp:454] inception_5b/output <- inception_5b/5x5
I1126 10:40:48.206462 10429 net.cpp:454] inception_5b/output <- inception_5b/pool_proj
I1126 10:40:48.206468 10429 net.cpp:411] inception_5b/output -> inception_5b/output
I1126 10:40:48.206502 10429 net.cpp:150] Setting up inception_5b/output
I1126 10:40:48.206511 10429 net.cpp:157] Top shape: 32 1024 7 7 (1605632)
I1126 10:40:48.206514 10429 net.cpp:165] Memory required for data: 1794446344
I1126 10:40:48.206518 10429 layer_factory.hpp:76] Creating layer pool5/7x7_s1
I1126 10:40:48.206526 10429 net.cpp:106] Creating Layer pool5/7x7_s1
I1126 10:40:48.206529 10429 net.cpp:454] pool5/7x7_s1 <- inception_5b/output
I1126 10:40:48.206537 10429 net.cpp:411] pool5/7x7_s1 -> pool5/7x7_s1
I1126 10:40:48.206719 10429 net.cpp:150] Setting up pool5/7x7_s1
I1126 10:40:48.206728 10429 net.cpp:157] Top shape: 32 1024 1 1 (32768)
I1126 10:40:48.206732 10429 net.cpp:165] Memory required for data: 1794577416
I1126 10:40:48.206737 10429 layer_factory.hpp:76] Creating layer pool5/drop_7x7_s1
I1126 10:40:48.206745 10429 net.cpp:106] Creating Layer pool5/drop_7x7_s1
I1126 10:40:48.206750 10429 net.cpp:454] pool5/drop_7x7_s1 <- pool5/7x7_s1
I1126 10:40:48.206755 10429 net.cpp:397] pool5/drop_7x7_s1 -> pool5/7x7_s1 (in-place)
I1126 10:40:48.206789 10429 net.cpp:150] Setting up pool5/drop_7x7_s1
I1126 10:40:48.206796 10429 net.cpp:157] Top shape: 32 1024 1 1 (32768)
I1126 10:40:48.206799 10429 net.cpp:165] Memory required for data: 1794708488
I1126 10:40:48.206804 10429 layer_factory.hpp:76] Creating layer loss3/classifier2
I1126 10:40:48.206811 10429 net.cpp:106] Creating Layer loss3/classifier2
I1126 10:40:48.206815 10429 net.cpp:454] loss3/classifier2 <- pool5/7x7_s1
I1126 10:40:48.206823 10429 net.cpp:411] loss3/classifier2 -> loss3/classifier
I1126 10:40:48.206967 10429 net.cpp:150] Setting up loss3/classifier2
I1126 10:40:48.206975 10429 net.cpp:157] Top shape: 32 2 (64)
I1126 10:40:48.206979 10429 net.cpp:165] Memory required for data: 1794708744
I1126 10:40:48.206985 10429 layer_factory.hpp:76] Creating layer loss3/loss3
I1126 10:40:48.206995 10429 net.cpp:106] Creating Layer loss3/loss3
I1126 10:40:48.207000 10429 net.cpp:454] loss3/loss3 <- loss3/classifier
I1126 10:40:48.207005 10429 net.cpp:454] loss3/loss3 <- label_data_1_split_2
I1126 10:40:48.207010 10429 net.cpp:411] loss3/loss3 -> loss3/loss3
…
I1126 10:40:48.346072 10429 net.cpp:322] The NetState phase (1) differed from the phase (0) specified by a rule in layer data
I1126 10:40:48.348130 10429 net.cpp:49] Initializing net from parameters: 
name: "GoogleNet"
state {
  phase: TEST
}
layer {
  name: "data"
  type: "Data"
  top: "data"
  top: "label"
  include {
    phase: TEST
  }
  transform_param {
    mirror: false
    crop_size: 224
    mean_value: 104
    mean_value: 117
    mean_value: 123
  }
  data_param {
    source: "../../LMDB/val_8-lmdb"
    batch_size: 50
    backend: LMDB
  }
}
layer {
  name: "conv1/7x7_s2"
  type: "Convolution"
  bottom: "data"
  top: "conv1/7x7_s2"
  param {
    lr_mult: 1
    decay_mult: 1
  }
  param {
    lr_mult: 2
    decay_mult: 0
  }
  convolution_param {
    num_output: 64
    pad: 3
    kernel_size: 7
    stride: 2
    weight_filler {
      type: "xavier"
    }
    bias_filler {
      type: "constant"
      value: 0.2
    }
  }
}
layer {
  name: "conv1/prelu_7x7"
  type: "PReLU"
  bottom: "conv1/7x7_s2"
  top: "conv1/7x7_s2"
  param {
    lr_mult: 1
    decay_mult: 0
  }
  prelu_param {
    filler {
      type: "constant"
      value: 0.01
    }
  }
}
layer {
  name: "pool1/3x3_s2"
  type: "Pooling"
  bottom: "conv1/7x7_s2"
  top: "pool1/3x3_s2"
  pooling_param {
    pool: MAX
    kernel_size: 3
    stride: 2
  }
}
layer {
  name: "pool1/norm1"
  type: "LRN"
  bottom: "pool1/3x3_s2"
  top: "pool1/norm1"
  lrn_param {
    local_size: 5
    alpha: 0.0001
    beta: 0.75
  }
}
layer {
  name: "conv2/3x3_reduce"
  type: "Convolution"
  bottom: "pool1/norm1"
  top: "conv2/3x3_reduce"
  param {
    lr_mult: 1
    decay_mult: 1
  }
  param {
    lr_mult: 2
    decay_mult: 0
  }
  convolution_param {
    num_output: 64
    kernel_size: 1
    weight_filler {
      type: "xavier"
    }
    bias_filler {
      type: "constant"
      value: 0.2
    }
  }
}
layer {
  name: "conv2/prelu_3x3_reduce"
  type: "PReLU"
  bottom: "conv2/3x3_reduce"
  top: "conv2/3x3_reduce"
  param {
    lr_mult: 1
    decay_mult: 0
  }
  prelu_param {
    filler {
      type: "constant"
      value: 0.01
    }
  }
}
layer {
  name: "conv2/3x3"
  type: "Convolution"
  bottom: "conv2/3x3_reduce"
  top: "conv2/3x3"
  param {
    lr_mult: 1
    decay_mult: 1
  }
  param {
    lr_mult: 2
    decay_mult: 0
  }
  convolution_param {
    num_output: 192
    pad: 1
    kernel_size: 3
    weight_filler {
      type: "xavier"
    }
    bias_filler {
      type: "constant"
      value: 0.2
    }
  }
}
layer {
  name: "conv2/prelu_3x3"
  type: "PReLU"
  bottom: "conv2/3x3"
  top: "conv2/3x3"
  param {
    lr_mult: 1
    decay_mult: 0
  }
  prelu_param {
    filler {
      type: "constant"
      value: 0.01
    }
  }
}
layer {
  name: "conv2/norm2"
  type: "LRN"
  bottom: "conv2/3x3"
  top: "conv2/norm2"
  lrn_param {
    local_size: 5
    alpha: 0.0001
    beta: 0.75
  }
}
layer {
  name: "pool2/3x3_s2"
  type: "Pooling"
  bottom: "conv2/norm2"
  top: "pool2/3x3_s2"
  pooling_param {
    pool: MAX
    kernel_size: 3
    stride: 2
  }
}
layer {
  name: "inception_3a/1x1"
  type: "Convolution"
  bottom: "pool2/3x3_s2"
  top: "inception_3a/1x1"
  param {
    lr_mult: 1
    decay_mult: 1
  }
  param {
    lr_mult: 2
    decay_mult: 0
  }
  convolution_param {
    num_output: 64
    kernel_size: 1
    weight_filler {
      type: "xavier"
    }
    bias_filler {
      type: "constant"
      value: 0.2
    }
  }
}
layer {
  name: "inception_3a/prelu_1x1"
  type: "PReLU"
  bottom: "inception_3a/1x1"
  top: "inception_3a/1x1"
  param {
    lr_mult: 1
    decay_mult: 0
  }
  prelu_param {
    filler {
      type: "constant"
      value: 0.01
    }
  }
}
layer {
  name: "inception_3a/3x3_reduce"
  type: "Convolution"
  bottom: "pool2/3x3_s2"
  top: "inception_3a/3x3_reduce"
  param {
    lr_mult: 1
    decay_mult: 1
  }
  param {
    lr_mult: 2
    decay_mult: 0
  }
  convolution_param {
    num_output: 96
    kernel_size: 1
    weight_filler {
      type: "xavier"
    }
    bias_filler {
      type: "constant"
      value: 0.2
    }
  }
}
layer {
  name: "inception_3a/prelu_3x3_reduce"
  type: "PReLU"
  bottom: "inception_3a/3x3_reduce"
  top: "inception_3a/3x3_reduce"
  param {
    lr_mult: 1
    decay_mult: 0
  }
  prelu_param {
    filler {
      type: "constant"
      value: 0.01
    }
  }
}
layer {
  name: "inception_3a/3x3"
  type: "Convolution"
  bottom: "inception_3a/3x3_reduce"
  top: "inception_3a/3x3"
  param {
    lr_mult: 1
    decay_mult: 1
  }
  param {
    lr_mult: 2
    decay_mult: 0
  }
  convolution_param {
    num_output: 128
    pad: 1
    kernel_size: 3
    weight_filler {
      type: "xavier"
    }
    bias_filler {
      type: "constant"
      value: 0.2
    }
  }
}
layer {
  name: "inception_3a/prelu_3x3"
  type: "PReLU"
  bottom: "inception_3a/3x3"
  top: "inception_3a/3x3"
  param {
    lr_mult: 1
    decay_mult: 0
  }
  prelu_param {
    filler {
      type: "constant"
      value: 0.01
    }
  }
}
layer {
  name: "inception_3a/5x5_reduce"
  type: "Convolution"
  bottom: "pool2/3x3_s2"
  top: "inception_3a/5x5_reduce"
  param {
    lr_mult: 1
    decay_mult: 1
  }
  param {
    lr_mult: 2
    decay_mult: 0
  }
  convolution_param {
    num_output: 16
    kernel_size: 1
    weight_filler {
      type: "xavier"
    }
    bias_filler {
      type: "constant"
      value: 0.2
    }
  }
}
layer {
  name: "inception_3a/prelu_5x5_reduce"
  type: "PReLU"
  bottom: "inception_3a/5x5_reduce"
  top: "inception_3a/5x5_reduce"
  param {
    lr_mult: 1
    decay_mult: 0
  }
  prelu_param {
    filler {
      type: "constant"
      value: 0.01
    }
  }
}
layer {
  name: "inception_3a/5x5"
  type: "Convolution"
  bottom: "inception_3a/5x5_reduce"
  top: "inception_3a/5x5"
  param {
    lr_mult: 1
    decay_mult: 1
  }
  param {
    lr_mult: 2
    decay_mult: 0
  }
  convolution_param {
    num_output: 32
    pad: 2
    kernel_size: 5
    weight_filler {
      type: "xavier"
    }
    bias_filler {
      type: "constant"
      value: 0.2
    }
  }
}
layer {
  name: "inception_3a/prelu_5x5"
  type: "PReLU"
  bottom: "inception_3a/5x5"
  top: "inception_3a/5x5"
  param {
    lr_mult: 1
    decay_mult: 0
  }
  prelu_param {
    filler {
      type: "constant"
      value: 0.01
    }
  }
}
layer {
  name: "inception_3a/pool"
  type: "Pooling"
  bottom: "pool2/3x3_s2"
  top: "inception_3a/pool"
  pooling_param {
    pool: MAX
    kernel_size: 3
    stride: 1
    pad: 1
  }
}
layer {
  name: "inception_3a/pool_proj"
  type: "Convolution"
  bottom: "inception_3a/pool"
  top: "inception_3a/pool_proj"
  param {
    lr_mult: 1
    decay_mult: 1
  }
  param {
    lr_mult: 2
    decay_mult: 0
  }
  convolution_param {
    num_output: 32
    kernel_size: 1
    weight_filler {
      type: "xavier"
    }
    bias_filler {
      type: "constant"
      value: 0.2
    }
  }
}
layer {
  name: "inception_3a/prelu_pool_proj"
  type: "PReLU"
  bottom: "inception_3a/pool_proj"
  top: "inception_3a/pool_proj"
  param {
    lr_mult: 1
    decay_mult: 0
  }
  prelu_param {
    filler {
      type: "constant"
      value: 0.01
    }
  }
}
layer {
  name: "inception_3a/output"
  type: "Concat"
  bottom: "inception_3a/1x1"
  bottom: "inception_3a/3x3"
  bottom: "inception_3a/5x5"
  bottom: "inception_3a/pool_proj"
  top: "inception_3a/output"
}
layer {
  name: "inception_3b/1x1"
  type: "Convolution"
  bottom: "inception_3a/output"
  top: "inception_3b/1x1"
  param {
    lr_mult: 1
    decay_mult: 1
  }
  param {
    lr_mult: 2
    decay_mult: 0
  }
  convolution_param {
    num_output: 128
    kernel_size: 1
    weight_filler {
      type: "xavier"
    }
    bias_filler {
      type: "constant"
      value: 0.2
    }
  }
}
layer {
  name: "inception_3b/prelu_1x1"
  type: "PReLU"
  bottom: "inception_3b/1x1"
  top: "inception_3b/1x1"
  param {
    lr_mult: 1
    decay_mult: 0
  }
  prelu_param {
    filler {
      type: "constant"
      value: 0.01
    }
  }
}
layer {
  name: "inception_3b/3x3_reduce"
  type: "Convolution"
  bottom: "inception_3a/output"
  top: "inception_3b/3x3_reduce"
  param {
    lr_mult: 1
    decay_mult: 1
  }
  param {
    lr_mult: 2
    decay_mult: 0
  }
  convolution_param {
    num_output: 128
    kernel_size: 1
    weight_filler {
      type: "xavier"
    }
    bias_filler {
      type: "constant"
      value: 0.2
    }
  }
}
layer {
  name: "inception_3b/prelu_3x3_reduce"
  type: "PReLU"
  bottom: "inception_3b/3x3_reduce"
  top: "inception_3b/3x3_reduce"
  param {
    lr_mult: 1
    decay_mult: 0
  }
  prelu_param {
    filler {
      type: "constant"
      value: 0.01
    }
  }
}
layer {
  name: "inception_3b/3x3"
  type: "Convolution"
  bottom: "inception_3b/3x3_reduce"
  top: "inception_3b/3x3"
  param {
    lr_mult: 1
    decay_mult: 1
  }
  param {
    lr_mult: 2
    decay_mult: 0
  }
  convolution_param {
    num_output: 192
    pad: 1
…
I1126 10:40:48.835145 10429 net.cpp:106] Creating Layer inception_4c/output
I1126 10:40:48.835153 10429 net.cpp:454] inception_4c/output <- inception_4c/1x1
I1126 10:40:48.835161 10429 net.cpp:454] inception_4c/output <- inception_4c/3x3
I1126 10:40:48.835170 10429 net.cpp:454] inception_4c/output <- inception_4c/5x5
I1126 10:40:48.835178 10429 net.cpp:454] inception_4c/output <- inception_4c/pool_proj
I1126 10:40:48.835187 10429 net.cpp:411] inception_4c/output -> inception_4c/output
I1126 10:40:48.835222 10429 net.cpp:150] Setting up inception_4c/output
I1126 10:40:48.835232 10429 net.cpp:157] Top shape: 50 512 14 14 (5017600)
I1126 10:40:48.835239 10429 net.cpp:165] Memory required for data: 2234652208
I1126 10:40:48.835247 10429 layer_factory.hpp:76] Creating layer inception_4c/output_inception_4c/output_0_split
I1126 10:40:48.835259 10429 net.cpp:106] Creating Layer inception_4c/output_inception_4c/output_0_split
I1126 10:40:48.835268 10429 net.cpp:454] inception_4c/output_inception_4c/output_0_split <- inception_4c/output
I1126 10:40:48.835278 10429 net.cpp:411] inception_4c/output_inception_4c/output_0_split -> inception_4c/output_inception_4c/output_0_split_0
I1126 10:40:48.835289 10429 net.cpp:411] inception_4c/output_inception_4c/output_0_split -> inception_4c/output_inception_4c/output_0_split_1
I1126 10:40:48.835299 10429 net.cpp:411] inception_4c/output_inception_4c/output_0_split -> inception_4c/output_inception_4c/output_0_split_2
I1126 10:40:48.835330 10429 net.cpp:411] inception_4c/output_inception_4c/output_0_split -> inception_4c/output_inception_4c/output_0_split_3
I1126 10:40:48.835405 10429 net.cpp:150] Setting up inception_4c/output_inception_4c/output_0_split
I1126 10:40:48.835417 10429 net.cpp:157] Top shape: 50 512 14 14 (5017600)
I1126 10:40:48.835425 10429 net.cpp:157] Top shape: 50 512 14 14 (5017600)
I1126 10:40:48.835434 10429 net.cpp:157] Top shape: 50 512 14 14 (5017600)
I1126 10:40:48.835443 10429 net.cpp:157] Top shape: 50 512 14 14 (5017600)
I1126 10:40:48.835448 10429 net.cpp:165] Memory required for data: 2314933808
I1126 10:40:48.835456 10429 layer_factory.hpp:76] Creating layer inception_4d/1x1
I1126 10:40:48.835470 10429 net.cpp:106] Creating Layer inception_4d/1x1
I1126 10:40:48.835479 10429 net.cpp:454] inception_4d/1x1 <- inception_4c/output_inception_4c/output_0_split_0
I1126 10:40:48.835489 10429 net.cpp:411] inception_4d/1x1 -> inception_4d/1x1
I1126 10:40:48.837008 10429 cudnn_conv_layer.cpp:194] Reallocating workspace storage: 10080
I1126 10:40:48.837044 10429 net.cpp:150] Setting up inception_4d/1x1
I1126 10:40:48.837054 10429 net.cpp:157] Top shape: 50 112 14 14 (1097600)
I1126 10:40:48.837057 10429 net.cpp:165] Memory required for data: 2319324208
I1126 10:40:48.837064 10429 layer_factory.hpp:76] Creating layer inception_4d/prelu_1x1
I1126 10:40:48.837077 10429 net.cpp:106] Creating Layer inception_4d/prelu_1x1
I1126 10:40:48.837082 10429 net.cpp:454] inception_4d/prelu_1x1 <- inception_4d/1x1
I1126 10:40:48.837090 10429 net.cpp:397] inception_4d/prelu_1x1 -> inception_4d/1x1 (in-place)
I1126 10:40:48.837187 10429 net.cpp:150] Setting up inception_4d/prelu_1x1
I1126 10:40:48.837195 10429 net.cpp:157] Top shape: 50 112 14 14 (1097600)
I1126 10:40:48.837199 10429 net.cpp:165] Memory required for data: 2323714608
I1126 10:40:48.837204 10429 layer_factory.hpp:76] Creating layer inception_4d/3x3_reduce
I1126 10:40:48.837215 10429 net.cpp:106] Creating Layer inception_4d/3x3_reduce
I1126 10:40:48.837220 10429 net.cpp:454] inception_4d/3x3_reduce <- inception_4c/output_inception_4c/output_0_split_1
I1126 10:40:48.837227 10429 net.cpp:411] inception_4d/3x3_reduce -> inception_4d/3x3_reduce
I1126 10:40:48.838959 10429 cudnn_conv_layer.cpp:194] Reallocating workspace storage: 10080
I1126 10:40:48.839002 10429 net.cpp:150] Setting up inception_4d/3x3_reduce
I1126 10:40:48.839015 10429 net.cpp:157] Top shape: 50 144 14 14 (1411200)
I1126 10:40:48.839021 10429 net.cpp:165] Memory required for data: 2329359408
I1126 10:40:48.839033 10429 layer_factory.hpp:76] Creating layer inception_4d/prelu_3x3_reduce
I1126 10:40:48.839046 10429 net.cpp:106] Creating Layer inception_4d/prelu_3x3_reduce
I1126 10:40:48.839053 10429 net.cpp:454] inception_4d/prelu_3x3_reduce <- inception_4d/3x3_reduce
I1126 10:40:48.839066 10429 net.cpp:397] inception_4d/prelu_3x3_reduce -> inception_4d/3x3_reduce (in-place)
I1126 10:40:48.839227 10429 net.cpp:150] Setting up inception_4d/prelu_3x3_reduce
I1126 10:40:48.839239 10429 net.cpp:157] Top shape: 50 144 14 14 (1411200)
I1126 10:40:48.839246 10429 net.cpp:165] Memory required for data: 2335004208
I1126 10:40:48.839256 10429 layer_factory.hpp:76] Creating layer inception_4d/3x3
I1126 10:40:48.839268 10429 net.cpp:106] Creating Layer inception_4d/3x3
I1126 10:40:48.839277 10429 net.cpp:454] inception_4d/3x3 <- inception_4d/3x3_reduce
I1126 10:40:48.839288 10429 net.cpp:411] inception_4d/3x3 -> inception_4d/3x3
I1126 10:40:48.844202 10429 cudnn_conv_layer.cpp:194] Reallocating workspace storage: 10080
I1126 10:40:48.844275 10429 net.cpp:150] Setting up inception_4d/3x3
I1126 10:40:48.844295 10429 net.cpp:157] Top shape: 50 288 14 14 (2822400)
I1126 10:40:48.844302 10429 net.cpp:165] Memory required for data: 2346293808
I1126 10:40:48.844318 10429 layer_factory.hpp:76] Creating layer inception_4d/prelu_3x3
I1126 10:40:48.844337 10429 net.cpp:106] Creating Layer inception_4d/prelu_3x3
I1126 10:40:48.844349 10429 net.cpp:454] inception_4d/prelu_3x3 <- inception_4d/3x3
I1126 10:40:48.844394 10429 net.cpp:397] inception_4d/prelu_3x3 -> inception_4d/3x3 (in-place)
I1126 10:40:48.845403 10429 net.cpp:150] Setting up inception_4d/prelu_3x3
I1126 10:40:48.845432 10429 net.cpp:157] Top shape: 50 288 14 14 (2822400)
I1126 10:40:48.845437 10429 net.cpp:165] Memory required for data: 2357583408
I1126 10:40:48.845444 10429 layer_factory.hpp:76] Creating layer inception_4d/5x5_reduce
I1126 10:40:48.845459 10429 net.cpp:106] Creating Layer inception_4d/5x5_reduce
I1126 10:40:48.845466 10429 net.cpp:454] inception_4d/5x5_reduce <- inception_4c/output_inception_4c/output_0_split_2
I1126 10:40:48.845476 10429 net.cpp:411] inception_4d/5x5_reduce -> inception_4d/5x5_reduce
I1126 10:40:48.847183 10429 cudnn_conv_layer.cpp:194] Reallocating workspace storage: 10080
I1126 10:40:48.847226 10429 net.cpp:150] Setting up inception_4d/5x5_reduce
I1126 10:40:48.847237 10429 net.cpp:157] Top shape: 50 32 14 14 (313600)
I1126 10:40:48.847241 10429 net.cpp:165] Memory required for data: 2358837808
I1126 10:40:48.847249 10429 layer_factory.hpp:76] Creating layer inception_4d/prelu_5x5_reduce
I1126 10:40:48.847260 10429 net.cpp:106] Creating Layer inception_4d/prelu_5x5_reduce
I1126 10:40:48.847266 10429 net.cpp:454] inception_4d/prelu_5x5_reduce <- inception_4d/5x5_reduce
I1126 10:40:48.847275 10429 net.cpp:397] inception_4d/prelu_5x5_reduce -> inception_4d/5x5_reduce (in-place)
I1126 10:40:48.847370 10429 net.cpp:150] Setting up inception_4d/prelu_5x5_reduce
I1126 10:40:48.847381 10429 net.cpp:157] Top shape: 50 32 14 14 (313600)
I1126 10:40:48.847385 10429 net.cpp:165] Memory required for data: 2360092208
I1126 10:40:48.847391 10429 layer_factory.hpp:76] Creating layer inception_4d/5x5
I1126 10:40:48.847401 10429 net.cpp:106] Creating Layer inception_4d/5x5
I1126 10:40:48.847405 10429 net.cpp:454] inception_4d/5x5 <- inception_4d/5x5_reduce
I1126 10:40:48.847414 10429 net.cpp:411] inception_4d/5x5 -> inception_4d/5x5
I1126 10:40:48.849050 10429 cudnn_conv_layer.cpp:194] Reallocating workspace storage: 13080
I1126 10:40:48.849102 10429 net.cpp:150] Setting up inception_4d/5x5
I1126 10:40:48.849115 10429 net.cpp:157] Top shape: 50 64 14 14 (627200)
I1126 10:40:48.849123 10429 net.cpp:165] Memory required for data: 2362601008
I1126 10:40:48.849136 10429 layer_factory.hpp:76] Creating layer inception_4d/prelu_5x5
I1126 10:40:48.849150 10429 net.cpp:106] Creating Layer inception_4d/prelu_5x5
I1126 10:40:48.849160 10429 net.cpp:454] inception_4d/prelu_5x5 <- inception_4d/5x5
I1126 10:40:48.849174 10429 net.cpp:397] inception_4d/prelu_5x5 -> inception_4d/5x5 (in-place)
I1126 10:40:48.849310 10429 net.cpp:150] Setting up inception_4d/prelu_5x5
I1126 10:40:48.849323 10429 net.cpp:157] Top shape: 50 64 14 14 (627200)
I1126 10:40:48.849329 10429 net.cpp:165] Memory required for data: 2365109808
I1126 10:40:48.849339 10429 layer_factory.hpp:76] Creating layer inception_4d/pool
I1126 10:40:48.849352 10429 net.cpp:106] Creating Layer inception_4d/pool
I1126 10:40:48.849361 10429 net.cpp:454] inception_4d/pool <- inception_4c/output_inception_4c/output_0_split_3
I1126 10:40:48.849372 10429 net.cpp:411] inception_4d/pool -> inception_4d/pool
I1126 10:40:48.849887 10429 net.cpp:150] Setting up inception_4d/pool
I1126 10:40:48.849900 10429 net.cpp:157] Top shape: 50 512 14 14 (5017600)
I1126 10:40:48.849903 10429 net.cpp:165] Memory required for data: 2385180208
I1126 10:40:48.849908 10429 layer_factory.hpp:76] Creating layer inception_4d/pool_proj
I1126 10:40:48.849920 10429 net.cpp:106] Creating Layer inception_4d/pool_proj
I1126 10:40:48.849925 10429 net.cpp:454] inception_4d/pool_proj <- inception_4d/pool
I1126 10:40:48.849933 10429 net.cpp:411] inception_4d/pool_proj -> inception_4d/pool_proj
I1126 10:40:48.851737 10429 cudnn_conv_layer.cpp:194] Reallocating workspace storage: 10080
I1126 10:40:48.851802 10429 net.cpp:150] Setting up inception_4d/pool_proj
I1126 10:40:48.851819 10429 net.cpp:157] Top shape: 50 64 14 14 (627200)
I1126 10:40:48.851825 10429 net.cpp:165] Memory required for data: 2387689008
I1126 10:40:48.851841 10429 layer_factory.hpp:76] Creating layer inception_4d/prelu_pool_proj
I1126 10:40:48.851917 10429 net.cpp:106] Creating Layer inception_4d/prelu_pool_proj
I1126 10:40:48.851924 10429 net.cpp:454] inception_4d/prelu_pool_proj <- inception_4d/pool_proj
I1126 10:40:48.851933 10429 net.cpp:397] inception_4d/prelu_pool_proj -> inception_4d/pool_proj (in-place)
I1126 10:40:48.852036 10429 net.cpp:150] Setting up inception_4d/prelu_pool_proj
I1126 10:40:48.852046 10429 net.cpp:157] Top shape: 50 64 14 14 (627200)
I1126 10:40:48.852049 10429 net.cpp:165] Memory required for data: 2390197808
I1126 10:40:48.852056 10429 layer_factory.hpp:76] Creating layer inception_4d/output
I1126 10:40:48.852062 10429 net.cpp:106] Creating Layer inception_4d/output
I1126 10:40:48.852067 10429 net.cpp:454] inception_4d/output <- inception_4d/1x1
I1126 10:40:48.852072 10429 net.cpp:454] inception_4d/output <- inception_4d/3x3
I1126 10:40:48.852077 10429 net.cpp:454] inception_4d/output <- inception_4d/5x5
I1126 10:40:48.852082 10429 net.cpp:454] inception_4d/output <- inception_4d/pool_proj
I1126 10:40:48.852089 10429 net.cpp:411] inception_4d/output -> inception_4d/output
I1126 10:40:48.852115 10429 net.cpp:150] Setting up inception_4d/output
I1126 10:40:48.852123 10429 net.cpp:157] Top shape: 50 528 14 14 (5174400)
I1126 10:40:48.852126 10429 net.cpp:165] Memory required for data: 2410895408
I1126 10:40:48.852131 10429 layer_factory.hpp:76] Creating layer inception_4d/output_inception_4d/output_0_split
I1126 10:40:48.852138 10429 net.cpp:106] Creating Layer inception_4d/output_inception_4d/output_0_split
I1126 10:40:48.852143 10429 net.cpp:454] inception_4d/output_inception_4d/output_0_split <- inception_4d/output
I1126 10:40:48.852147 10429 net.cpp:411] inception_4d/output_inception_4d/output_0_split -> inception_4d/output_inception_4d/output_0_split_0
I1126 10:40:48.852156 10429 net.cpp:411] inception_4d/output_inception_4d/output_0_split -> inception_4d/output_inception_4d/output_0_split_1
I1126 10:40:48.852164 10429 net.cpp:411] inception_4d/output_inception_4d/output_0_split -> inception_4d/output_inception_4d/output_0_split_2
I1126 10:40:48.852171 10429 net.cpp:411] inception_4d/output_inception_4d/output_0_split -> inception_4d/output_inception_4d/output_0_split_3
I1126 10:40:48.852177 10429 net.cpp:411] inception_4d/output_inception_4d/output_0_split -> inception_4d/output_inception_4d/output_0_split_4
I1126 10:40:48.852237 10429 net.cpp:150] Setting up inception_4d/output_inception_4d/output_0_split
I1126 10:40:48.852246 10429 net.cpp:157] Top shape: 50 528 14 14 (5174400)
I1126 10:40:48.852251 10429 net.cpp:157] Top shape: 50 528 14 14 (5174400)
I1126 10:40:48.852255 10429 net.cpp:157] Top shape: 50 528 14 14 (5174400)
I1126 10:40:48.852260 10429 net.cpp:157] Top shape: 50 528 14 14 (5174400)
I1126 10:40:48.852264 10429 net.cpp:157] Top shape: 50 528 14 14 (5174400)
I1126 10:40:48.852268 10429 net.cpp:165] Memory required for data: 2514383408
I1126 10:40:48.852272 10429 layer_factory.hpp:76] Creating layer loss2/ave_pool
I1126 10:40:48.852280 10429 net.cpp:106] Creating Layer loss2/ave_pool
I1126 10:40:48.852285 10429 net.cpp:454] loss2/ave_pool <- inception_4d/output_inception_4d/output_0_split_0
I1126 10:40:48.852291 10429 net.cpp:411] loss2/ave_pool -> loss2/ave_pool
I1126 10:40:48.852494 10429 net.cpp:150] Setting up loss2/ave_pool
I1126 10:40:48.852504 10429 net.cpp:157] Top shape: 50 528 4 4 (422400)
I1126 10:40:48.852509 10429 net.cpp:165] Memory required for data: 2516073008
I1126 10:40:48.852514 10429 layer_factory.hpp:76] Creating layer loss2/conv
I1126 10:40:48.852535 10429 net.cpp:106] Creating Layer loss2/conv
I1126 10:40:48.852553 10429 net.cpp:454] loss2/conv <- loss2/ave_pool
I1126 10:40:48.852562 10429 net.cpp:411] loss2/conv -> loss2/conv
I1126 10:40:48.854228 10429 cudnn_conv_layer.cpp:194] Reallocating workspace storage: 6840
I1126 10:40:48.854274 10429 net.cpp:150] Setting up loss2/conv
I1126 10:40:48.854284 10429 net.cpp:157] Top shape: 50 128 4 4 (102400)
I1126 10:40:48.854287 10429 net.cpp:165] Memory required for data: 2516482608
I1126 10:40:48.854316 10429 layer_factory.hpp:76] Creating layer loss2/prelu_conv
I1126 10:40:48.854329 10429 net.cpp:106] Creating Layer loss2/prelu_conv
I1126 10:40:48.854336 10429 net.cpp:454] loss2/prelu_conv <- loss2/conv
I1126 10:40:48.854343 10429 net.cpp:397] loss2/prelu_conv -> loss2/conv (in-place)
I1126 10:40:48.854454 10429 net.cpp:150] Setting up loss2/prelu_conv
I1126 10:40:48.854463 10429 net.cpp:157] Top shape: 50 128 4 4 (102400)
I1126 10:40:48.854467 10429 net.cpp:165] Memory required for data: 2516892208
I1126 10:40:48.854473 10429 layer_factory.hpp:76] Creating layer loss2/fc
I1126 10:40:48.854483 10429 net.cpp:106] Creating Layer loss2/fc
I1126 10:40:48.854488 10429 net.cpp:454] loss2/fc <- loss2/conv
I1126 10:40:48.854496 10429 net.cpp:411] loss2/fc -> loss2/fc
I1126 10:40:48.872421 10429 net.cpp:150] Setting up loss2/fc
I1126 10:40:48.872480 10429 net.cpp:157] Top shape: 50 1024 (51200)
I1126 10:40:48.872488 10429 net.cpp:165] Memory required for data: 2517097008
I1126 10:40:48.872525 10429 layer_factory.hpp:76] Creating layer loss2/prelu_fc
I1126 10:40:48.872557 10429 net.cpp:106] Creating Layer loss2/prelu_fc
I1126 10:40:48.872572 10429 net.cpp:454] loss2/prelu_fc <- loss2/fc
I1126 10:40:48.872588 10429 net.cpp:397] loss2/prelu_fc -> loss2/fc (in-place)
I1126 10:40:48.872773 10429 net.cpp:150] Setting up loss2/prelu_fc
I1126 10:40:48.872786 10429 net.cpp:157] Top shape: 50 1024 (51200)
I1126 10:40:48.872791 10429 net.cpp:165] Memory required for data: 2517301808
I1126 10:40:48.872797 10429 layer_factory.hpp:76] Creating layer loss2/drop_fc
I1126 10:40:48.872808 10429 net.cpp:106] Creating Layer loss2/drop_fc
I1126 10:40:48.872813 10429 net.cpp:454] loss2/drop_fc <- loss2/fc
I1126 10:40:48.872820 10429 net.cpp:397] loss2/drop_fc -> loss2/fc (in-place)
I1126 10:40:48.872848 10429 net.cpp:150] Setting up loss2/drop_fc
I1126 10:40:48.872855 10429 net.cpp:157] Top shape: 50 1024 (51200)
I1126 10:40:48.872859 10429 net.cpp:165] Memory required for data: 2517506608
I1126 10:40:48.872864 10429 layer_factory.hpp:76] Creating layer loss2/classifier2
I1126 10:40:48.872872 10429 net.cpp:106] Creating Layer loss2/classifier2
I1126 10:40:48.872877 10429 net.cpp:454] loss2/classifier2 <- loss2/fc
I1126 10:40:48.872884 10429 net.cpp:411] loss2/classifier2 -> loss2/classifier
I1126 10:40:48.873028 10429 net.cpp:150] Setting up loss2/classifier2
I1126 10:40:48.873039 10429 net.cpp:157] Top shape: 50 2 (100)
I1126 10:40:48.873042 10429 net.cpp:165] Memory required for data: 2517507008
I1126 10:40:48.873050 10429 layer_factory.hpp:76] Creating layer loss2/classifier_loss2/classifier2_0_split
I1126 10:40:48.873057 10429 net.cpp:106] Creating Layer loss2/classifier_loss2/classifier2_0_split
I1126 10:40:48.873062 10429 net.cpp:454] loss2/classifier_loss2/classifier2_0_split <- loss2/classifier
I1126 10:40:48.873069 10429 net.cpp:411] loss2/classifier_loss2/classifier2_0_split -> loss2/classifier_loss2/classifier2_0_split_0
I1126 10:40:48.873076 10429 net.cpp:411] loss2/classifier_loss2/classifier2_0_split -> loss2/classifier_loss2/classifier2_0_split_1
I1126 10:40:48.873112 10429 net.cpp:150] Setting up loss2/classifier_loss2/classifier2_0_split
I1126 10:40:48.873119 10429 net.cpp:157] Top shape: 50 2 (100)
I1126 10:40:48.873124 10429 net.cpp:157] Top shape: 50 2 (100)
I1126 10:40:48.873128 10429 net.cpp:165] Memory required for data: 2517507808
I1126 10:40:48.873132 10429 layer_factory.hpp:76] Creating layer loss2/loss
I1126 10:40:48.873141 10429 net.cpp:106] Creating Layer loss2/loss
I1126 10:40:48.873145 10429 net.cpp:454] loss2/loss <- loss2/classifier_loss2/classifier2_0_split_0
I1126 10:40:48.873152 10429 net.cpp:454] loss2/loss <- label_data_1_split_2
…
I1126 10:40:48.874164 10429 net.cpp:165] Memory required for data: 2517507816
I1126 10:40:48.874168 10429 layer_factory.hpp:76] Creating layer inception_4e/1x1
I1126 10:40:48.874182 10429 net.cpp:106] Creating Layer inception_4e/1x1
I1126 10:40:48.874189 10429 net.cpp:454] inception_4e/1x1 <- inception_4d/output_inception_4d/output_0_split_1
I1126 10:40:48.874197 10429 net.cpp:411] inception_4e/1x1 -> inception_4e/1x1
I1126 10:40:48.877285 10429 cudnn_conv_layer.cpp:194] Reallocating workspace storage: 10080
I1126 10:40:48.877359 10429 net.cpp:150] Setting up inception_4e/1x1
I1126 10:40:48.877378 10429 net.cpp:157] Top shape: 50 256 14 14 (2508800)
I1126 10:40:48.877387 10429 net.cpp:165] Memory required for data: 2527543016
I1126 10:40:48.877399 10429 layer_factory.hpp:76] Creating layer inception_4e/prelu_1x1
I1126 10:40:48.877418 10429 net.cpp:106] Creating Layer inception_4e/prelu_1x1
I1126 10:40:48.877427 10429 net.cpp:454] inception_4e/prelu_1x1 <- inception_4e/1x1
I1126 10:40:48.877436 10429 net.cpp:397] inception_4e/prelu_1x1 -> inception_4e/1x1 (in-place)
I1126 10:40:48.877601 10429 net.cpp:150] Setting up inception_4e/prelu_1x1
I1126 10:40:48.877612 10429 net.cpp:157] Top shape: 50 256 14 14 (2508800)
I1126 10:40:48.877616 10429 net.cpp:165] Memory required for data: 2537578216
I1126 10:40:48.877624 10429 layer_factory.hpp:76] Creating layer inception_4e/3x3_reduce
I1126 10:40:48.877640 10429 net.cpp:106] Creating Layer inception_4e/3x3_reduce
I1126 10:40:48.877646 10429 net.cpp:454] inception_4e/3x3_reduce <- inception_4d/output_inception_4d/output_0_split_2
I1126 10:40:48.877655 10429 net.cpp:411] inception_4e/3x3_reduce -> inception_4e/3x3_reduce
I1126 10:40:48.879817 10429 cudnn_conv_layer.cpp:194] Reallocating workspace storage: 10080
I1126 10:40:48.879866 10429 net.cpp:150] Setting up inception_4e/3x3_reduce
I1126 10:40:48.879876 10429 net.cpp:157] Top shape: 50 160 14 14 (1568000)
I1126 10:40:48.879881 10429 net.cpp:165] Memory required for data: 2543850216
I1126 10:40:48.879891 10429 layer_factory.hpp:76] Creating layer inception_4e/prelu_3x3_reduce
I1126 10:40:48.879905 10429 net.cpp:106] Creating Layer inception_4e/prelu_3x3_reduce
I1126 10:40:48.879914 10429 net.cpp:454] inception_4e/prelu_3x3_reduce <- inception_4e/3x3_reduce
I1126 10:40:48.879922 10429 net.cpp:397] inception_4e/prelu_3x3_reduce -> inception_4e/3x3_reduce (in-place)
I1126 10:40:48.880046 10429 net.cpp:150] Setting up inception_4e/prelu_3x3_reduce
I1126 10:40:48.880055 10429 net.cpp:157] Top shape: 50 160 14 14 (1568000)
I1126 10:40:48.880059 10429 net.cpp:165] Memory required for data: 2550122216
I1126 10:40:48.880064 10429 layer_factory.hpp:76] Creating layer inception_4e/3x3
I1126 10:40:48.880090 10429 net.cpp:106] Creating Layer inception_4e/3x3
I1126 10:40:48.880096 10429 net.cpp:454] inception_4e/3x3 <- inception_4e/3x3_reduce
I1126 10:40:48.880105 10429 net.cpp:411] inception_4e/3x3 -> inception_4e/3x3
I1126 10:40:48.885149 10429 cudnn_conv_layer.cpp:194] Reallocating workspace storage: 10080
I1126 10:40:48.885210 10429 net.cpp:150] Setting up inception_4e/3x3
I1126 10:40:48.885228 10429 net.cpp:157] Top shape: 50 320 14 14 (3136000)
I1126 10:40:48.885242 10429 net.cpp:165] Memory required for data: 2562666216
I1126 10:40:48.885257 10429 layer_factory.hpp:76] Creating layer inception_4e/prelu_3x3
I1126 10:40:48.885274 10429 net.cpp:106] Creating Layer inception_4e/prelu_3x3
I1126 10:40:48.885285 10429 net.cpp:454] inception_4e/prelu_3x3 <- inception_4e/3x3
I1126 10:40:48.885315 10429 net.cpp:397] inception_4e/prelu_3x3 -> inception_4e/3x3 (in-place)
I1126 10:40:48.886123 10429 net.cpp:150] Setting up inception_4e/prelu_3x3
I1126 10:40:48.886135 10429 net.cpp:157] Top shape: 50 320 14 14 (3136000)
I1126 10:40:48.886139 10429 net.cpp:165] Memory required for data: 2575210216
I1126 10:40:48.886145 10429 layer_factory.hpp:76] Creating layer inception_4e/5x5_reduce
I1126 10:40:48.886157 10429 net.cpp:106] Creating Layer inception_4e/5x5_reduce
I1126 10:40:48.886162 10429 net.cpp:454] inception_4e/5x5_reduce <- inception_4d/output_inception_4d/output_0_split_3
I1126 10:40:48.886171 10429 net.cpp:411] inception_4e/5x5_reduce -> inception_4e/5x5_reduce
I1126 10:40:48.887596 10429 cudnn_conv_layer.cpp:194] Reallocating workspace storage: 10080
I1126 10:40:48.887639 10429 net.cpp:150] Setting up inception_4e/5x5_reduce
I1126 10:40:48.887650 10429 net.cpp:157] Top shape: 50 32 14 14 (313600)
I1126 10:40:48.887655 10429 net.cpp:165] Memory required for data: 2576464616
I1126 10:40:48.887665 10429 layer_factory.hpp:76] Creating layer inception_4e/prelu_5x5_reduce
I1126 10:40:48.887676 10429 net.cpp:106] Creating Layer inception_4e/prelu_5x5_reduce
I1126 10:40:48.887683 10429 net.cpp:454] inception_4e/prelu_5x5_reduce <- inception_4e/5x5_reduce
I1126 10:40:48.887691 10429 net.cpp:397] inception_4e/prelu_5x5_reduce -> inception_4e/5x5_reduce (in-place)
I1126 10:40:48.887791 10429 net.cpp:150] Setting up inception_4e/prelu_5x5_reduce
I1126 10:40:48.887800 10429 net.cpp:157] Top shape: 50 32 14 14 (313600)
I1126 10:40:48.887804 10429 net.cpp:165] Memory required for data: 2577719016
I1126 10:40:48.887810 10429 layer_factory.hpp:76] Creating layer inception_4e/5x5
I1126 10:40:48.887820 10429 net.cpp:106] Creating Layer inception_4e/5x5
I1126 10:40:48.887825 10429 net.cpp:454] inception_4e/5x5 <- inception_4e/5x5_reduce
I1126 10:40:48.887833 10429 net.cpp:411] inception_4e/5x5 -> inception_4e/5x5
I1126 10:40:48.890594 10429 cudnn_conv_layer.cpp:194] Reallocating workspace storage: 13080
I1126 10:40:48.890637 10429 net.cpp:150] Setting up inception_4e/5x5
I1126 10:40:48.890652 10429 net.cpp:157] Top shape: 50 128 14 14 (1254400)
I1126 10:40:48.890657 10429 net.cpp:165] Memory required for data: 2582736616
I1126 10:40:48.890666 10429 layer_factory.hpp:76] Creating layer inception_4e/prelu_5x5
I1126 10:40:48.890678 10429 net.cpp:106] Creating Layer inception_4e/prelu_5x5
I1126 10:40:48.890686 10429 net.cpp:454] inception_4e/prelu_5x5 <- inception_4e/5x5
I1126 10:40:48.890696 10429 net.cpp:397] inception_4e/prelu_5x5 -> inception_4e/5x5 (in-place)
I1126 10:40:48.890804 10429 net.cpp:150] Setting up inception_4e/prelu_5x5
I1126 10:40:48.890811 10429 net.cpp:157] Top shape: 50 128 14 14 (1254400)
I1126 10:40:48.890815 10429 net.cpp:165] Memory required for data: 2587754216
I1126 10:40:48.890821 10429 layer_factory.hpp:76] Creating layer inception_4e/pool
I1126 10:40:48.890830 10429 net.cpp:106] Creating Layer inception_4e/pool
I1126 10:40:48.890836 10429 net.cpp:454] inception_4e/pool <- inception_4d/output_inception_4d/output_0_split_4
I1126 10:40:48.890843 10429 net.cpp:411] inception_4e/pool -> inception_4e/pool
I1126 10:40:48.891065 10429 net.cpp:150] Setting up inception_4e/pool
I1126 10:40:48.891075 10429 net.cpp:157] Top shape: 50 528 14 14 (5174400)
I1126 10:40:48.891079 10429 net.cpp:165] Memory required for data: 2608451816
I1126 10:40:48.891083 10429 layer_factory.hpp:76] Creating layer inception_4e/pool_proj
I1126 10:40:48.891094 10429 net.cpp:106] Creating Layer inception_4e/pool_proj
I1126 10:40:48.891106 10429 net.cpp:454] inception_4e/pool_proj <- inception_4e/pool
I1126 10:40:48.891115 10429 net.cpp:411] inception_4e/pool_proj -> inception_4e/pool_proj
I1126 10:40:48.893363 10429 cudnn_conv_layer.cpp:194] Reallocating workspace storage: 10080
I1126 10:40:48.893434 10429 net.cpp:150] Setting up inception_4e/pool_proj
I1126 10:40:48.893450 10429 net.cpp:157] Top shape: 50 128 14 14 (1254400)
I1126 10:40:48.893455 10429 net.cpp:165] Memory required for data: 2613469416
I1126 10:40:48.893465 10429 layer_factory.hpp:76] Creating layer inception_4e/prelu_pool_proj
I1126 10:40:48.893499 10429 net.cpp:106] Creating Layer inception_4e/prelu_pool_proj
I1126 10:40:48.893507 10429 net.cpp:454] inception_4e/prelu_pool_proj <- inception_4e/pool_proj
I1126 10:40:48.893517 10429 net.cpp:397] inception_4e/prelu_pool_proj -> inception_4e/pool_proj (in-place)
I1126 10:40:48.893631 10429 net.cpp:150] Setting up inception_4e/prelu_pool_proj
I1126 10:40:48.893640 10429 net.cpp:157] Top shape: 50 128 14 14 (1254400)
I1126 10:40:48.893645 10429 net.cpp:165] Memory required for data: 2618487016
I1126 10:40:48.893651 10429 layer_factory.hpp:76] Creating layer inception_4e/output
I1126 10:40:48.893658 10429 net.cpp:106] Creating Layer inception_4e/output
I1126 10:40:48.893663 10429 net.cpp:454] inception_4e/output <- inception_4e/1x1
I1126 10:40:48.893668 10429 net.cpp:454] inception_4e/output <- inception_4e/3x3
I1126 10:40:48.893674 10429 net.cpp:454] inception_4e/output <- inception_4e/5x5
I1126 10:40:48.893679 10429 net.cpp:454] inception_4e/output <- inception_4e/pool_proj
I1126 10:40:48.893687 10429 net.cpp:411] inception_4e/output -> inception_4e/output
I1126 10:40:48.893712 10429 net.cpp:150] Setting up inception_4e/output
I1126 10:40:48.893720 10429 net.cpp:157] Top shape: 50 832 14 14 (8153600)
I1126 10:40:48.893724 10429 net.cpp:165] Memory required for data: 2651101416
I1126 10:40:48.893728 10429 layer_factory.hpp:76] Creating layer pool4/3x3_s2
I1126 10:40:48.893738 10429 net.cpp:106] Creating Layer pool4/3x3_s2
I1126 10:40:48.893743 10429 net.cpp:454] pool4/3x3_s2 <- inception_4e/output
I1126 10:40:48.893748 10429 net.cpp:411] pool4/3x3_s2 -> pool4/3x3_s2
I1126 10:40:48.893996 10429 net.cpp:150] Setting up pool4/3x3_s2
I1126 10:40:48.894006 10429 net.cpp:157] Top shape: 50 832 7 7 (2038400)
I1126 10:40:48.894011 10429 net.cpp:165] Memory required for data: 2659255016
I1126 10:40:48.894016 10429 layer_factory.hpp:76] Creating layer pool4/3x3_s2_pool4/3x3_s2_0_split
I1126 10:40:48.894022 10429 net.cpp:106] Creating Layer pool4/3x3_s2_pool4/3x3_s2_0_split
I1126 10:40:48.894027 10429 net.cpp:454] pool4/3x3_s2_pool4/3x3_s2_0_split <- pool4/3x3_s2
I1126 10:40:48.894035 10429 net.cpp:411] pool4/3x3_s2_pool4/3x3_s2_0_split -> pool4/3x3_s2_pool4/3x3_s2_0_split_0
I1126 10:40:48.894042 10429 net.cpp:411] pool4/3x3_s2_pool4/3x3_s2_0_split -> pool4/3x3_s2_pool4/3x3_s2_0_split_1
I1126 10:40:48.894050 10429 net.cpp:411] pool4/3x3_s2_pool4/3x3_s2_0_split -> pool4/3x3_s2_pool4/3x3_s2_0_split_2
I1126 10:40:48.894057 10429 net.cpp:411] pool4/3x3_s2_pool4/3x3_s2_0_split -> pool4/3x3_s2_pool4/3x3_s2_0_split_3
I1126 10:40:48.894114 10429 net.cpp:150] Setting up pool4/3x3_s2_pool4/3x3_s2_0_split
I1126 10:40:48.894121 10429 net.cpp:157] Top shape: 50 832 7 7 (2038400)
I1126 10:40:48.894126 10429 net.cpp:157] Top shape: 50 832 7 7 (2038400)
I1126 10:40:48.894131 10429 net.cpp:157] Top shape: 50 832 7 7 (2038400)
I1126 10:40:48.894135 10429 net.cpp:157] Top shape: 50 832 7 7 (2038400)
I1126 10:40:48.894140 10429 net.cpp:165] Memory required for data: 2691869416
I1126 10:40:48.894145 10429 layer_factory.hpp:76] Creating layer inception_5a/1x1
I1126 10:40:48.894155 10429 net.cpp:106] Creating Layer inception_5a/1x1
I1126 10:40:48.894160 10429 net.cpp:454] inception_5a/1x1 <- pool4/3x3_s2_pool4/3x3_s2_0_split_0
I1126 10:40:48.894168 10429 net.cpp:411] inception_5a/1x1 -> inception_5a/1x1
I1126 10:40:48.898288 10429 cudnn_conv_layer.cpp:194] Reallocating workspace storage: 7428
I1126 10:40:48.898354 10429 net.cpp:150] Setting up inception_5a/1x1
I1126 10:40:48.898366 10429 net.cpp:157] Top shape: 50 256 7 7 (627200)
I1126 10:40:48.898370 10429 net.cpp:165] Memory required for data: 2694378216
I1126 10:40:48.898381 10429 layer_factory.hpp:76] Creating layer inception_5a/prelu_1x1
I1126 10:40:48.898397 10429 net.cpp:106] Creating Layer inception_5a/prelu_1x1
I1126 10:40:48.898406 10429 net.cpp:454] inception_5a/prelu_1x1 <- inception_5a/1x1
I1126 10:40:48.898414 10429 net.cpp:397] inception_5a/prelu_1x1 -> inception_5a/1x1 (in-place)
I1126 10:40:48.898540 10429 net.cpp:150] Setting up inception_5a/prelu_1x1
I1126 10:40:48.898609 10429 net.cpp:157] Top shape: 50 256 7 7 (627200)
I1126 10:40:48.898614 10429 net.cpp:165] Memory required for data: 2696887016
I1126 10:40:48.898622 10429 layer_factory.hpp:76] Creating layer inception_5a/3x3_reduce
I1126 10:40:48.898638 10429 net.cpp:106] Creating Layer inception_5a/3x3_reduce
I1126 10:40:48.898645 10429 net.cpp:454] inception_5a/3x3_reduce <- pool4/3x3_s2_pool4/3x3_s2_0_split_1
I1126 10:40:48.898654 10429 net.cpp:411] inception_5a/3x3_reduce -> inception_5a/3x3_reduce
I1126 10:40:48.902783 10429 cudnn_conv_layer.cpp:194] Reallocating workspace storage: 7428
I1126 10:40:48.902858 10429 net.cpp:150] Setting up inception_5a/3x3_reduce
I1126 10:40:48.902871 10429 net.cpp:157] Top shape: 50 160 7 7 (392000)
I1126 10:40:48.902875 10429 net.cpp:165] Memory required for data: 2698455016
I1126 10:40:48.902889 10429 layer_factory.hpp:76] Creating layer inception_5a/prelu_3x3_reduce
I1126 10:40:48.902905 10429 net.cpp:106] Creating Layer inception_5a/prelu_3x3_reduce
I1126 10:40:48.902915 10429 net.cpp:454] inception_5a/prelu_3x3_reduce <- inception_5a/3x3_reduce
I1126 10:40:48.902926 10429 net.cpp:397] inception_5a/prelu_3x3_reduce -> inception_5a/3x3_reduce (in-place)
I1126 10:40:48.903051 10429 net.cpp:150] Setting up inception_5a/prelu_3x3_reduce
I1126 10:40:48.903062 10429 net.cpp:157] Top shape: 50 160 7 7 (392000)
I1126 10:40:48.903066 10429 net.cpp:165] Memory required for data: 2700023016
I1126 10:40:48.903072 10429 layer_factory.hpp:76] Creating layer inception_5a/3x3
I1126 10:40:48.903086 10429 net.cpp:106] Creating Layer inception_5a/3x3
I1126 10:40:48.903091 10429 net.cpp:454] inception_5a/3x3 <- inception_5a/3x3_reduce
I1126 10:40:48.903102 10429 net.cpp:411] inception_5a/3x3 -> inception_5a/3x3
I1126 10:40:48.908829 10429 cudnn_conv_layer.cpp:194] Reallocating workspace storage: 7788
I1126 10:40:48.908885 10429 net.cpp:150] Setting up inception_5a/3x3
I1126 10:40:48.908898 10429 net.cpp:157] Top shape: 50 320 7 7 (784000)
I1126 10:40:48.908903 10429 net.cpp:165] Memory required for data: 2703159016
I1126 10:40:48.908913 10429 layer_factory.hpp:76] Creating layer inception_5a/prelu_3x3
I1126 10:40:48.908927 10429 net.cpp:106] Creating Layer inception_5a/prelu_3x3
I1126 10:40:48.908933 10429 net.cpp:454] inception_5a/prelu_3x3 <- inception_5a/3x3
I1126 10:40:48.908943 10429 net.cpp:397] inception_5a/prelu_3x3 -> inception_5a/3x3 (in-place)
I1126 10:40:48.909082 10429 net.cpp:150] Setting up inception_5a/prelu_3x3
I1126 10:40:48.909091 10429 net.cpp:157] Top shape: 50 320 7 7 (784000)
I1126 10:40:48.909096 10429 net.cpp:165] Memory required for data: 2706295016
I1126 10:40:48.909101 10429 layer_factory.hpp:76] Creating layer inception_5a/5x5_reduce
I1126 10:40:48.909112 10429 net.cpp:106] Creating Layer inception_5a/5x5_reduce
I1126 10:40:48.909118 10429 net.cpp:454] inception_5a/5x5_reduce <- pool4/3x3_s2_pool4/3x3_s2_0_split_2
I1126 10:40:48.909126 10429 net.cpp:411] inception_5a/5x5_reduce -> inception_5a/5x5_reduce
I1126 10:40:48.910475 10429 cudnn_conv_layer.cpp:194] Reallocating workspace storage: 7428
I1126 10:40:48.910509 10429 net.cpp:150] Setting up inception_5a/5x5_reduce
I1126 10:40:48.910517 10429 net.cpp:157] Top shape: 50 32 7 7 (78400)
I1126 10:40:48.910521 10429 net.cpp:165] Memory required for data: 2706608616
I1126 10:40:48.910528 10429 layer_factory.hpp:76] Creating layer inception_5a/prelu_5x5_reduce
I1126 10:40:48.910538 10429 net.cpp:106] Creating Layer inception_5a/prelu_5x5_reduce
I1126 10:40:48.910543 10429 net.cpp:454] inception_5a/prelu_5x5_reduce <- inception_5a/5x5_reduce
I1126 10:40:48.910552 10429 net.cpp:397] inception_5a/prelu_5x5_reduce -> inception_5a/5x5_reduce (in-place)
I1126 10:40:48.910653 10429 net.cpp:150] Setting up inception_5a/prelu_5x5_reduce
I1126 10:40:48.910662 10429 net.cpp:157] Top shape: 50 32 7 7 (78400)
I1126 10:40:48.910666 10429 net.cpp:165] Memory required for data: 2706922216
I1126 10:40:48.910671 10429 layer_factory.hpp:76] Creating layer inception_5a/5x5
I1126 10:40:48.910702 10429 net.cpp:106] Creating Layer inception_5a/5x5
I1126 10:40:48.910708 10429 net.cpp:454] inception_5a/5x5 <- inception_5a/5x5_reduce
I1126 10:40:48.910717 10429 net.cpp:411] inception_5a/5x5 -> inception_5a/5x5
I1126 10:40:48.912506 10429 cudnn_conv_layer.cpp:194] Reallocating workspace storage: 9804
I1126 10:40:48.912560 10429 net.cpp:150] Setting up inception_5a/5x5
I1126 10:40:48.912576 10429 net.cpp:157] Top shape: 50 128 7 7 (313600)
I1126 10:40:48.912585 10429 net.cpp:165] Memory required for data: 2708176616
I1126 10:40:48.912595 10429 layer_factory.hpp:76] Creating layer inception_5a/prelu_5x5
I1126 10:40:48.912605 10429 net.cpp:106] Creating Layer inception_5a/prelu_5x5
I1126 10:40:48.912611 10429 net.cpp:454] inception_5a/prelu_5x5 <- inception_5a/5x5
I1126 10:40:48.912618 10429 net.cpp:397] inception_5a/prelu_5x5 -> inception_5a/5x5 (in-place)
I1126 10:40:48.912725 10429 net.cpp:150] Setting up inception_5a/prelu_5x5
I1126 10:40:48.912735 10429 net.cpp:157] Top shape: 50 128 7 7 (313600)
I1126 10:40:48.912739 10429 net.cpp:165] Memory required for data: 2709431016
I1126 10:40:48.912753 10429 layer_factory.hpp:76] Creating layer inception_5a/pool
I1126 10:40:48.912762 10429 net.cpp:106] Creating Layer inception_5a/pool
I1126 10:40:48.912767 10429 net.cpp:454] inception_5a/pool <- pool4/3x3_s2_pool4/3x3_s2_0_split_3
I1126 10:40:48.912775 10429 net.cpp:411] inception_5a/pool -> inception_5a/pool
I1126 10:40:48.913195 10429 net.cpp:150] Setting up inception_5a/pool
I1126 10:40:48.913206 10429 net.cpp:157] Top shape: 50 832 7 7 (2038400)
I1126 10:40:48.913210 10429 net.cpp:165] Memory required for data: 2717584616
I1126 10:40:48.913214 10429 layer_factory.hpp:76] Creating layer inception_5a/pool_proj
I1126 10:40:48.913224 10429 net.cpp:106] Creating Layer inception_5a/pool_proj
I1126 10:40:48.913230 10429 net.cpp:454] inception_5a/pool_proj <- inception_5a/pool
I1126 10:40:48.913239 10429 net.cpp:411] inception_5a/pool_proj -> inception_5a/pool_proj
I1126 10:40:48.929481 10429 cudnn_conv_layer.cpp:194] Reallocating workspace storage: 7428
I1126 10:40:48.929561 10429 net.cpp:150] Setting up inception_5a/pool_proj
I1126 10:40:48.929575 10429 net.cpp:157] Top shape: 50 128 7 7 (313600)
I1126 10:40:48.929580 10429 net.cpp:165] Memory required for data: 2718839016
I1126 10:40:48.929602 10429 layer_factory.hpp:76] Creating layer inception_5a/prelu_pool_proj
I1126 10:40:48.929620 10429 net.cpp:106] Creating Layer inception_5a/prelu_pool_proj
I1126 10:40:48.929628 10429 net.cpp:454] inception_5a/prelu_pool_proj <- inception_5a/pool_proj
I1126 10:40:48.929638 10429 net.cpp:397] inception_5a/prelu_pool_proj -> inception_5a/pool_proj (in-place)
I1126 10:40:48.929744 10429 net.cpp:150] Setting up inception_5a/prelu_pool_proj
I1126 10:40:48.929752 10429 net.cpp:157] Top shape: 50 128 7 7 (313600)
I1126 10:40:48.929756 10429 net.cpp:165] Memory required for data: 2720093416
I1126 10:40:48.929762 10429 layer_factory.hpp:76] Creating layer inception_5a/output
I1126 10:40:48.929769 10429 net.cpp:106] Creating Layer inception_5a/output
I1126 10:40:48.929774 10429 net.cpp:454] inception_5a/output <- inception_5a/1x1
I1126 10:40:48.929780 10429 net.cpp:454] inception_5a/output <- inception_5a/3x3
I1126 10:40:48.929785 10429 net.cpp:454] inception_5a/output <- inception_5a/5x5
I1126 10:40:48.929790 10429 net.cpp:454] inception_5a/output <- inception_5a/pool_proj
I1126 10:40:48.929795 10429 net.cpp:411] inception_5a/output -> inception_5a/output
I1126 10:40:48.929822 10429 net.cpp:150] Setting up inception_5a/output
I1126 10:40:48.929829 10429 net.cpp:157] Top shape: 50 832 7 7 (2038400)
I1126 10:40:48.929833 10429 net.cpp:165] Memory required for data: 2728247016
I1126 10:40:48.929837 10429 layer_factory.hpp:76] Creating layer inception_5a/output_inception_5a/output_0_split
I1126 10:40:48.929846 10429 net.cpp:106] Creating Layer inception_5a/output_inception_5a/output_0_split
I1126 10:40:48.929850 10429 net.cpp:454] inception_5a/output_inception_5a/output_0_split <- inception_5a/output
I1126 10:40:48.929855 10429 net.cpp:411] inception_5a/output_inception_5a/output_0_split -> inception_5a/output_inception_5a/output_0_split_0
I1126 10:40:48.929893 10429 net.cpp:411] inception_5a/output_inception_5a/output_0_split -> inception_5a/output_inception_5a/output_0_split_1
I1126 10:40:48.929900 10429 net.cpp:411] inception_5a/output_inception_5a/output_0_split -> inception_5a/output_inception_5a/output_0_split_2
I1126 10:40:48.929908 10429 net.cpp:411] inception_5a/output_inception_5a/output_0_split -> inception_5a/output_inception_5a/output_0_split_3
I1126 10:40:48.929965 10429 net.cpp:150] Setting up inception_5a/output_inception_5a/output_0_split
I1126 10:40:48.929972 10429 net.cpp:157] Top shape: 50 832 7 7 (2038400)
I1126 10:40:48.929977 10429 net.cpp:157] Top shape: 50 832 7 7 (2038400)
I1126 10:40:48.929982 10429 net.cpp:157] Top shape: 50 832 7 7 (2038400)
I1126 10:40:48.929986 10429 net.cpp:157] Top shape: 50 832 7 7 (2038400)
I1126 10:40:48.929991 10429 net.cpp:165] Memory required for data: 2760861416
I1126 10:40:48.929994 10429 layer_factory.hpp:76] Creating layer inception_5b/1x1
I1126 10:40:48.930008 10429 net.cpp:106] Creating Layer inception_5b/1x1
I1126 10:40:48.930013 10429 net.cpp:454] inception_5b/1x1 <- inception_5a/output_inception_5a/output_0_split_0
I1126 10:40:48.930019 10429 net.cpp:411] inception_5b/1x1 -> inception_5b/1x1
I1126 10:40:48.934202 10429 cudnn_conv_layer.cpp:194] Reallocating workspace storage: 7428
I1126 10:40:48.934257 10429 net.cpp:150] Setting up inception_5b/1x1
I1126 10:40:48.934270 10429 net.cpp:157] Top shape: 50 384 7 7 (940800)
I1126 10:40:48.934275 10429 net.cpp:165] Memory required for data: 2764624616
I1126 10:40:48.934283 10429 layer_factory.hpp:76] Creating layer inception_5b/prelu_1x1
I1126 10:40:48.934294 10429 net.cpp:106] Creating Layer inception_5b/prelu_1x1
I1126 10:40:48.934300 10429 net.cpp:454] inception_5b/prelu_1x1 <- inception_5b/1x1
I1126 10:40:48.934309 10429 net.cpp:397] inception_5b/prelu_1x1 -> inception_5b/1x1 (in-place)
I1126 10:40:48.934442 10429 net.cpp:150] Setting up inception_5b/prelu_1x1
I1126 10:40:48.934451 10429 net.cpp:157] Top shape: 50 384 7 7 (940800)
I1126 10:40:48.934465 10429 net.cpp:165] Memory required for data: 2768387816
I1126 10:40:48.934471 10429 layer_factory.hpp:76] Creating layer inception_5b/3x3_reduce
I1126 10:40:48.934484 10429 net.cpp:106] Creating Layer inception_5b/3x3_reduce
I1126 10:40:48.934489 10429 net.cpp:454] inception_5b/3x3_reduce <- inception_5a/output_inception_5a/output_0_split_1
I1126 10:40:48.934496 10429 net.cpp:411] inception_5b/3x3_reduce -> inception_5b/3x3_reduce
I1126 10:40:48.937305 10429 cudnn_conv_layer.cpp:194] Reallocating workspace storage: 7428
I1126 10:40:48.937348 10429 net.cpp:150] Setting up inception_5b/3x3_reduce
I1126 10:40:48.937357 10429 net.cpp:157] Top shape: 50 192 7 7 (470400)
I1126 10:40:48.937361 10429 net.cpp:165] Memory required for data: 2770269416
I1126 10:40:48.937369 10429 layer_factory.hpp:76] Creating layer inception_5b/prelu_3x3_reduce
I1126 10:40:48.937381 10429 net.cpp:106] Creating Layer inception_5b/prelu_3x3_reduce
I1126 10:40:48.937388 10429 net.cpp:454] inception_5b/prelu_3x3_reduce <- inception_5b/3x3_reduce
I1126 10:40:48.937397 10429 net.cpp:397] inception_5b/prelu_3x3_reduce -> inception_5b/3x3_reduce (in-place)
I1126 10:40:48.937491 10429 net.cpp:150] Setting up inception_5b/prelu_3x3_reduce
I1126 10:40:48.937500 10429 net.cpp:157] Top shape: 50 192 7 7 (470400)
I1126 10:40:48.937504 10429 net.cpp:165] Memory required for data: 2772151016
I1126 10:40:48.937508 10429 layer_factory.hpp:76] Creating layer inception_5b/3x3
I1126 10:40:48.937520 10429 net.cpp:106] Creating Layer inception_5b/3x3
I1126 10:40:48.937525 10429 net.cpp:454] inception_5b/3x3 <- inception_5b/3x3_reduce
I1126 10:40:48.937531 10429 net.cpp:411] inception_5b/3x3 -> inception_5b/3x3
I1126 10:40:48.943456 10429 cudnn_conv_layer.cpp:194] Reallocating workspace storage: 7788
I1126 10:40:48.943503 10429 net.cpp:150] Setting up inception_5b/3x3
I1126 10:40:48.943513 10429 net.cpp:157] Top shape: 50 384 7 7 (940800)
I1126 10:40:48.943538 10429 net.cpp:165] Memory required for data: 2775914216
I1126 10:40:48.943547 10429 layer_factory.hpp:76] Creating layer inception_5b/prelu_3x3
I1126 10:40:48.943557 10429 net.cpp:106] Creating Layer inception_5b/prelu_3x3
I1126 10:40:48.943562 10429 net.cpp:454] inception_5b/prelu_3x3 <- inception_5b/3x3
I1126 10:40:48.943572 10429 net.cpp:397] inception_5b/prelu_3x3 -> inception_5b/3x3 (in-place)
I1126 10:40:48.943681 10429 net.cpp:150] Setting up inception_5b/prelu_3x3
I1126 10:40:48.943689 10429 net.cpp:157] Top shape: 50 384 7 7 (940800)
I1126 10:40:48.943692 10429 net.cpp:165] Memory required for data: 2779677416
I1126 10:40:48.943698 10429 layer_factory.hpp:76] Creating layer inception_5b/5x5_reduce
I1126 10:40:48.943708 10429 net.cpp:106] Creating Layer inception_5b/5x5_reduce
I1126 10:40:48.943713 10429 net.cpp:454] inception_5b/5x5_reduce <- inception_5a/output_inception_5a/output_0_split_2
I1126 10:40:48.943722 10429 net.cpp:411] inception_5b/5x5_reduce -> inception_5b/5x5_reduce
I1126 10:40:48.945297 10429 cudnn_conv_layer.cpp:194] Reallocating workspace storage: 7428
I1126 10:40:48.945335 10429 net.cpp:150] Setting up inception_5b/5x5_reduce
I1126 10:40:48.945344 10429 net.cpp:157] Top shape: 50 48 7 7 (117600)
I1126 10:40:48.945348 10429 net.cpp:165] Memory required for data: 2780147816
I1126 10:40:48.945355 10429 layer_factory.hpp:76] Creating layer inception_5b/prelu_5x5_reduce
I1126 10:40:48.945365 10429 net.cpp:106] Creating Layer inception_5b/prelu_5x5_reduce
I1126 10:40:48.945370 10429 net.cpp:454] inception_5b/prelu_5x5_reduce <- inception_5b/5x5_reduce
I1126 10:40:48.945376 10429 net.cpp:397] inception_5b/prelu_5x5_reduce -> inception_5b/5x5_reduce (in-place)
I1126 10:40:48.945488 10429 net.cpp:150] Setting up inception_5b/prelu_5x5_reduce
I1126 10:40:48.945497 10429 net.cpp:157] Top shape: 50 48 7 7 (117600)
I1126 10:40:48.945500 10429 net.cpp:165] Memory required for data: 2780618216
I1126 10:40:48.945505 10429 layer_factory.hpp:76] Creating layer inception_5b/5x5
I1126 10:40:48.945515 10429 net.cpp:106] Creating Layer inception_5b/5x5
I1126 10:40:48.945520 10429 net.cpp:454] inception_5b/5x5 <- inception_5b/5x5_reduce
I1126 10:40:48.945528 10429 net.cpp:411] inception_5b/5x5 -> inception_5b/5x5
I1126 10:40:48.947603 10429 cudnn_conv_layer.cpp:194] Reallocating workspace storage: 9804
I1126 10:40:48.947638 10429 net.cpp:150] Setting up inception_5b/5x5
I1126 10:40:48.947645 10429 net.cpp:157] Top shape: 50 128 7 7 (313600)
I1126 10:40:48.947649 10429 net.cpp:165] Memory required for data: 2781872616
I1126 10:40:48.947656 10429 layer_factory.hpp:76] Creating layer inception_5b/prelu_5x5
I1126 10:40:48.947665 10429 net.cpp:106] Creating Layer inception_5b/prelu_5x5
I1126 10:40:48.947670 10429 net.cpp:454] inception_5b/prelu_5x5 <- inception_5b/5x5
I1126 10:40:48.947676 10429 net.cpp:397] inception_5b/prelu_5x5 -> inception_5b/5x5 (in-place)
I1126 10:40:48.947788 10429 net.cpp:150] Setting up inception_5b/prelu_5x5
I1126 10:40:48.947795 10429 net.cpp:157] Top shape: 50 128 7 7 (313600)
I1126 10:40:48.947798 10429 net.cpp:165] Memory required for data: 2783127016
I1126 10:40:48.947804 10429 layer_factory.hpp:76] Creating layer inception_5b/pool
I1126 10:40:48.947811 10429 net.cpp:106] Creating Layer inception_5b/pool
I1126 10:40:48.947815 10429 net.cpp:454] inception_5b/pool <- inception_5a/output_inception_5a/output_0_split_3
I1126 10:40:48.947823 10429 net.cpp:411] inception_5b/pool -> inception_5b/pool
I1126 10:40:48.948019 10429 net.cpp:150] Setting up inception_5b/pool
I1126 10:40:48.948029 10429 net.cpp:157] Top shape: 50 832 7 7 (2038400)
I1126 10:40:48.948032 10429 net.cpp:165] Memory required for data: 2791280616
I1126 10:40:48.948036 10429 layer_factory.hpp:76] Creating layer inception_5b/pool_proj
I1126 10:40:48.948043 10429 net.cpp:106] Creating Layer inception_5b/pool_proj
I1126 10:40:48.948048 10429 net.cpp:454] inception_5b/pool_proj <- inception_5b/pool
I1126 10:40:48.948056 10429 net.cpp:411] inception_5b/pool_proj -> inception_5b/pool_proj
I1126 10:40:48.950636 10429 cudnn_conv_layer.cpp:194] Reallocating workspace storage: 7428
I1126 10:40:48.950692 10429 net.cpp:150] Setting up inception_5b/pool_proj
I1126 10:40:48.950700 10429 net.cpp:157] Top shape: 50 128 7 7 (313600)
I1126 10:40:48.950705 10429 net.cpp:165] Memory required for data: 2792535016
I1126 10:40:48.950711 10429 layer_factory.hpp:76] Creating layer inception_5b/prelu_pool_proj
I1126 10:40:48.950719 10429 net.cpp:106] Creating Layer inception_5b/prelu_pool_proj
I1126 10:40:48.950726 10429 net.cpp:454] inception_5b/prelu_pool_proj <- inception_5b/pool_proj
I1126 10:40:48.950732 10429 net.cpp:397] inception_5b/prelu_pool_proj -> inception_5b/pool_proj (in-place)
I1126 10:40:48.950819 10429 net.cpp:150] Setting up inception_5b/prelu_pool_proj
I1126 10:40:48.950826 10429 net.cpp:157] Top shape: 50 128 7 7 (313600)
I1126 10:40:48.950829 10429 net.cpp:165] Memory required for data: 2793789416
I1126 10:40:48.950835 10429 layer_factory.hpp:76] Creating layer inception_5b/output
I1126 10:40:48.950847 10429 net.cpp:106] Creating Layer inception_5b/output
I1126 10:40:48.950855 10429 net.cpp:454] inception_5b/output <- inception_5b/1x1
I1126 10:40:48.950865 10429 net.cpp:454] inception_5b/output <- inception_5b/3x3
I1126 10:40:48.950870 10429 net.cpp:454] inception_5b/output <- inception_5b/5x5
I1126 10:40:48.950873 10429 net.cpp:454] inception_5b/output <- inception_5b/pool_proj
I1126 10:40:48.950880 10429 net.cpp:411] inception_5b/output -> inception_5b/output
I1126 10:40:48.950907 10429 net.cpp:150] Setting up inception_5b/output
I1126 10:40:48.950914 10429 net.cpp:157] Top shape: 50 1024 7 7 (2508800)
I1126 10:40:48.950918 10429 net.cpp:165] Memory required for data: 2803824616
I1126 10:40:48.950922 10429 layer_factory.hpp:76] Creating layer pool5/7x7_s1
I1126 10:40:48.950928 10429 net.cpp:106] Creating Layer pool5/7x7_s1
I1126 10:40:48.950933 10429 net.cpp:454] pool5/7x7_s1 <- inception_5b/output
I1126 10:40:48.950940 10429 net.cpp:411] pool5/7x7_s1 -> pool5/7x7_s1
I1126 10:40:48.951330 10429 net.cpp:150] Setting up pool5/7x7_s1
I1126 10:40:48.951340 10429 net.cpp:157] Top shape: 50 1024 1 1 (51200)
I1126 10:40:48.951344 10429 net.cpp:165] Memory required for data: 2804029416
I1126 10:40:48.951349 10429 layer_factory.hpp:76] Creating layer pool5/drop_7x7_s1
I1126 10:40:48.951357 10429 net.cpp:106] Creating Layer pool5/drop_7x7_s1
I1126 10:40:48.951361 10429 net.cpp:454] pool5/drop_7x7_s1 <- pool5/7x7_s1
I1126 10:40:48.951367 10429 net.cpp:397] pool5/drop_7x7_s1 -> pool5/7x7_s1 (in-place)
I1126 10:40:48.951392 10429 net.cpp:150] Setting up pool5/drop_7x7_s1
I1126 10:40:48.951400 10429 net.cpp:157] Top shape: 50 1024 1 1 (51200)
I1126 10:40:48.951403 10429 net.cpp:165] Memory required for data: 2804234216
I1126 10:40:48.951407 10429 layer_factory.hpp:76] Creating layer loss3/classifier2
I1126 10:40:48.951414 10429 net.cpp:106] Creating Layer loss3/classifier2
I1126 10:40:48.951418 10429 net.cpp:454] loss3/classifier2 <- pool5/7x7_s1
I1126 10:40:48.951426 10429 net.cpp:411] loss3/classifier2 -> loss3/classifier
I1126 10:40:48.951561 10429 net.cpp:150] Setting up loss3/classifier2
I1126 10:40:48.951570 10429 net.cpp:157] Top shape: 50 2 (100)
I1126 10:40:48.951573 10429 net.cpp:165] Memory required for data: 2804234616
I1126 10:40:48.951580 10429 layer_factory.hpp:76] Creating layer loss3/classifier_loss3/classifier2_0_split
I1126 10:40:48.951586 10429 net.cpp:106] Creating Layer loss3/classifier_loss3/classifier2_0_split
I1126 10:40:48.951591 10429 net.cpp:454] loss3/classifier_loss3/classifier2_0_split <- loss3/classifier
I1126 10:40:48.951597 10429 net.cpp:411] loss3/classifier_loss3/classifier2_0_split -> loss3/classifier_loss3/classifier2_0_split_0
I1126 10:40:48.951604 10429 net.cpp:411] loss3/classifier_loss3/classifier2_0_split -> loss3/classifier_loss3/classifier2_0_split_1
I1126 10:40:48.951643 10429 net.cpp:150] Setting up loss3/classifier_loss3/classifier2_0_split
I1126 10:40:48.951650 10429 net.cpp:157] Top shape: 50 2 (100)
I1126 10:40:48.951655 10429 net.cpp:157] Top shape: 50 2 (100)
I1126 10:40:48.951658 10429 net.cpp:165] Memory required for data: 2804235416
I1126 10:40:48.951673 10429 layer_factory.hpp:76] Creating layer loss3/loss3
I1126 10:40:48.951681 10429 net.cpp:106] Creating Layer loss3/loss3
I1126 10:40:48.951685 10429 net.cpp:454] loss3/loss3 <- loss3/classifier_loss3/classifier2_0_split_0
I1126 10:40:48.951690 10429 net.cpp:454] loss3/loss3 <- label_data_1_split_4
…
