…
I1028 13:45:22.864224 28243 net.cpp:322] The NetState phase (0) differed from the phase (1) specified by a rule in layer loss3/top-1
I1028 13:45:22.865141 28243 net.cpp:49] Initializing net from parameters: 
name: "GoogleNet"
state {
  phase: TRAIN
}
layer {
  name: "data"
  type: "Data"
  top: "data"
  top: "label"
  include {
    phase: TRAIN
  }
  transform_param {
    mirror: true
    crop_size: 224
    mean_value: 104
    mean_value: 117
    mean_value: 123
  }
  data_param {
    source: "../../LMDB/train_9-lmdb"
    batch_size: 32
    backend: LMDB
  }
}
layer {
  name: "conv1/7x7_s2"
  type: "Convolution"
  bottom: "data"
  top: "conv1/7x7_s2"
  param {
    lr_mult: 1
    decay_mult: 1
  }
  param {
    lr_mult: 2
    decay_mult: 0
  }
  convolution_param {
    num_output: 64
    pad: 3
    kernel_size: 7
    stride: 2
    weight_filler {
      type: "xavier"
    }
    bias_filler {
      type: "constant"
      value: 0.2
    }
  }
}
layer {
  name: "conv1/prelu_7x7"
  type: "PReLU"
  bottom: "conv1/7x7_s2"
  top: "conv1/7x7_s2"
  param {
    lr_mult: 1
    decay_mult: 0
  }
  prelu_param {
    filler {
      type: "constant"
      value: 0.01
    }
  }
}
layer {
  name: "pool1/3x3_s2"
  type: "Pooling"
  bottom: "conv1/7x7_s2"
  top: "pool1/3x3_s2"
  pooling_param {
    pool: MAX
    kernel_size: 3
    stride: 2
  }
}
layer {
  name: "pool1/norm1"
  type: "LRN"
  bottom: "pool1/3x3_s2"
  top: "pool1/norm1"
  lrn_param {
    local_size: 5
    alpha: 0.0001
    beta: 0.75
  }
}
layer {
  name: "conv2/3x3_reduce"
  type: "Convolution"
  bottom: "pool1/norm1"
  top: "conv2/3x3_reduce"
  param {
    lr_mult: 1
    decay_mult: 1
  }
  param {
    lr_mult: 2
    decay_mult: 0
  }
  convolution_param {
    num_output: 64
    kernel_size: 1
    weight_filler {
      type: "xavier"
    }
    bias_filler {
      type: "constant"
      value: 0.2
    }
  }
}
layer {
  name: "conv2/prelu_3x3_reduce"
  type: "PReLU"
  bottom: "conv2/3x3_reduce"
  top: "conv2/3x3_reduce"
  param {
    lr_mult: 1
    decay_mult: 0
  }
  prelu_param {
    filler {
      type: "constant"
      value: 0.01
    }
  }
}
layer {
  name: "conv2/3x3"
  type: "Convolution"
  bottom: "conv2/3x3_reduce"
  top: "conv2/3x3"
  param {
    lr_mult: 1
    decay_mult: 1
  }
  param {
    lr_mult: 2
    decay_mult: 0
  }
  convolution_param {
    num_output: 192
    pad: 1
    kernel_size: 3
    weight_filler {
      type: "xavier"
    }
    bias_filler {
      type: "constant"
      value: 0.2
    }
  }
}
layer {
  name: "conv2/prelu_3x3"
  type: "PReLU"
  bottom: "conv2/3x3"
  top: "conv2/3x3"
  param {
    lr_mult: 1
    decay_mult: 0
  }
  prelu_param {
    filler {
      type: "constant"
      value: 0.01
    }
  }
}
layer {
  name: "conv2/norm2"
  type: "LRN"
  bottom: "conv2/3x3"
  top: "conv2/norm2"
  lrn_param {
    local_size: 5
    alpha: 0.0001
    beta: 0.75
  }
}
layer {
  name: "pool2/3x3_s2"
  type: "Pooling"
  bottom: "conv2/norm2"
  top: "pool2/3x3_s2"
  pooling_param {
    pool: MAX
    kernel_size: 3
    stride: 2
  }
}
layer {
  name: "inception_3a/1x1"
  type: "Convolution"
  bottom: "pool2/3x3_s2"
  top: "inception_3a/1x1"
  param {
    lr_mult: 1
    decay_mult: 1
  }
  param {
    lr_mult: 2
    decay_mult: 0
  }
  convolution_param {
    num_output: 64
    kernel_size: 1
    weight_filler {
      type: "xavier"
    }
    bias_filler {
      type: "constant"
      value: 0.2
    }
  }
}
layer {
  name: "inception_3a/prelu_1x1"
  type: "PReLU"
  bottom: "inception_3a/1x1"
  top: "inception_3a/1x1"
  param {
    lr_mult: 1
    decay_mult: 0
  }
  prelu_param {
    filler {
      type: "constant"
      value: 0.01
    }
  }
}
layer {
  name: "inception_3a/3x3_reduce"
  type: "Convolution"
  bottom: "pool2/3x3_s2"
  top: "inception_3a/3x3_reduce"
  param {
    lr_mult: 1
    decay_mult: 1
  }
  param {
    lr_mult: 2
    decay_mult: 0
  }
  convolution_param {
    num_output: 96
    kernel_size: 1
    weight_filler {
      type: "xavier"
    }
    bias_filler {
      type: "constant"
      value: 0.2
    }
  }
}
layer {
  name: "inception_3a/prelu_3x3_reduce"
  type: "PReLU"
  bottom: "inception_3a/3x3_reduce"
  top: "inception_3a/3x3_reduce"
  param {
    lr_mult: 1
    decay_mult: 0
  }
  prelu_param {
    filler {
      type: "constant"
      value: 0.01
    }
  }
}
layer {
  name: "inception_3a/3x3"
  type: "Convolution"
  bottom: "inception_3a/3x3_reduce"
  top: "inception_3a/3x3"
  param {
    lr_mult: 1
    decay_mult: 1
  }
  param {
    lr_mult: 2
    decay_mult: 0
  }
  convolution_param {
    num_output: 128
    pad: 1
    kernel_size: 3
    weight_filler {
      type: "xavier"
    }
    bias_filler {
      type: "constant"
      value: 0.2
    }
  }
}
layer {
  name: "inception_3a/prelu_3x3"
  type: "PReLU"
  bottom: "inception_3a/3x3"
  top: "inception_3a/3x3"
  param {
    lr_mult: 1
    decay_mult: 0
  }
  prelu_param {
    filler {
      type: "constant"
      value: 0.01
    }
  }
}
layer {
  name: "inception_3a/5x5_reduce"
  type: "Convolution"
  bottom: "pool2/3x3_s2"
  top: "inception_3a/5x5_reduce"
  param {
    lr_mult: 1
    decay_mult: 1
  }
  param {
    lr_mult: 2
    decay_mult: 0
  }
  convolution_param {
    num_output: 16
    kernel_size: 1
    weight_filler {
      type: "xavier"
    }
    bias_filler {
      type: "constant"
      value: 0.2
    }
  }
}
layer {
  name: "inception_3a/prelu_5x5_reduce"
  type: "PReLU"
  bottom: "inception_3a/5x5_reduce"
  top: "inception_3a/5x5_reduce"
  param {
    lr_mult: 1
    decay_mult: 0
  }
  prelu_param {
    filler {
      type: "constant"
      value: 0.01
    }
  }
}
layer {
  name: "inception_3a/5x5"
  type: "Convolution"
  bottom: "inception_3a/5x5_reduce"
  top: "inception_3a/5x5"
  param {
    lr_mult: 1
    decay_mult: 1
  }
  param {
    lr_mult: 2
    decay_mult: 0
  }
  convolution_param {
    num_output: 32
    pad: 2
    kernel_size: 5
    weight_filler {
      type: "xavier"
    }
    bias_filler {
      type: "constant"
      value: 0.2
    }
  }
}
layer {
  name: "inception_3a/prelu_5x5"
  type: "PReLU"
  bottom: "inception_3a/5x5"
  top: "inception_3a/5x5"
  param {
    lr_mult: 1
    decay_mult: 0
  }
  prelu_param {
    filler {
      type: "constant"
      value: 0.01
    }
  }
}
layer {
  name: "inception_3a/pool"
  type: "Pooling"
  bottom: "pool2/3x3_s2"
  top: "inception_3a/pool"
  pooling_param {
    pool: MAX
    kernel_size: 3
    stride: 1
    pad: 1
  }
}
layer {
  name: "inception_3a/pool_proj"
  type: "Convolution"
  bottom: "inception_3a/pool"
  top: "inception_3a/pool_proj"
  param {
    lr_mult: 1
    decay_mult: 1
  }
  param {
    lr_mult: 2
    decay_mult: 0
  }
  convolution_param {
    num_output: 32
    kernel_size: 1
    weight_filler {
      type: "xavier"
    }
    bias_filler {
      type: "constant"
      value: 0.2
    }
  }
}
layer {
  name: "inception_3a/prelu_pool_proj"
  type: "PReLU"
  bottom: "inception_3a/pool_proj"
  top: "inception_3a/pool_proj"
  param {
    lr_mult: 1
    decay_mult: 0
  }
  prelu_param {
    filler {
      type: "constant"
      value: 0.01
    }
  }
}
layer {
  name: "inception_3a/output"
  type: "Concat"
  bottom: "inception_3a/1x1"
  bottom: "inception_3a/3x3"
  bottom: "inception_3a/5x5"
  bottom: "inception_3a/pool_proj"
  top: "inception_3a/output"
}
layer {
  name: "inception_3b/1x1"
  type: "Convolution"
  bottom: "inception_3a/output"
  top: "inception_3b/1x1"
  param {
    lr_mult: 1
    decay_mult: 1
  }
  param {
    lr_mult: 2
    decay_mult: 0
  }
  convolution_param {
    num_output: 128
    kernel_size: 1
    weight_filler {
      type: "xavier"
    }
    bias_filler {
      type: "constant"
      value: 0.2
    }
  }
}
layer {
  name: "inception_3b/prelu_1x1"
  type: "PReLU"
  bottom: "inception_3b/1x1"
  top: "inception_3b/1x1"
  param {
    lr_mult: 1
    decay_mult: 0
  }
  prelu_param {
    filler {
      type: "constant"
      value: 0.01
    }
  }
}
layer {
  name: "inception_3b/3x3_reduce"
  type: "Convolution"
  bottom: "inception_3a/output"
  top: "inception_3b/3x3_reduce"
  param {
    lr_mult: 1
    decay_mult: 1
  }
  param {
    lr_mult: 2
    decay_mult: 0
  }
  convolution_param {
    num_output: 128
    kernel_size: 1
    weight_filler {
      type: "xavier"
    }
    bias_filler {
      type: "constant"
      value: 0.2
    }
  }
}
layer {
  name: "inception_3b/prelu_3x3_reduce"
  type: "PReLU"
  bottom: "inception_3b/3x3_reduce"
  top: "inception_3b/3x3_reduce"
  param {
    lr_mult: 1
    decay_mult: 0
  }
  prelu_param {
    filler {
      type: "constant"
      value: 0.01
    }
  }
}
layer {
  name: "inception_3b/3x3"
  type: "Convolution"
  bottom: "inception_3b/3x3_reduce"
  top: "inception_3b/3x3"
  param {
    lr_mult: 1
    decay_mult: 1
  }
  param {
    lr_mult: 2
    decay_mult: 0
  }
  convolution_param {
    num_output: 192
    pad: 1
    kernel_size: 3
    weight_filler {
      type: "xavier"
    }
    bias_filler {
      type: "constant"
      value: 0.2
    }
  }
}
layer {
  name: "inception_3b/prelu_3x3"
  type: "PReLU"
  bottom: "inception_3b/3x3"
  top: "inception_3b/3x3"
  param {
    lr_mult: 1
    decay_mult: 0
  }
  prelu_param {
    filler {
      type: "constant"
      value: 0.01
    }
  }
}
layer {
  name: "inception_3b/5x5_reduce"
  type: "Convolution"
  bottom: "inception_3a/output"
  top: "inception_3b/5x5_reduce"
  param {
    lr_mult: 1
    decay_mult: 1
  }
  param {
    lr_mult: 2
    decay_mult: 0
  }
  convolution_param {
    num_output: 32
    kernel_size: 1
    weight_filler {
      type: "xavier"
    }
    bias_filler {
      type: "constant"
      value: 0.2
    }
  }
}
layer {
  name: "inception_3b/prelu_5x5_reduce"
  type: "PReLU"
  bottom: "inception_3b/5x5_reduce"
  top: "inception_3b/5x5_reduce"
  param {
    lr_mult: 1
    decay_mult: 0
  }
  prelu_param {
    filler {
      type: "constant"
      value: 0.01
    }
  }
}
layer {
  name: "inception_3b/5x5"
  type: "Convolution"
  bottom: "inception_3b/5x5_reduce"
  top: "inception_3b/5x5"
  param {
    lr_mult: 1
    decay_mult: 1
  }
  param {
    lr_mult: 2
    decay_mult: 0
  }
  convolution_param {
    num_output: 96
    pad: 2
    kernel_size: 5
    weight_filler {
      type: "xavier"
    }
    bias_filler {
      type: "constant"
      value: 0.2
    }
  }
}
layer {
  name: "inception_3b/prelu_5x5"
  type: "PReLU"
  bottom: "inception_3b/5x5"
  top: "inception_3b/5x5"
  param {
    lr_mult: 1
    decay_mult: 0
  }
  prelu_param {
    filler {
      type: "constant"
      value: 0.01
    }
  }
}
layer {
  name: "inception_3b/pool"
  type: "Pooling"
  bottom: "inception_3a/output"
  top: "inception_3b/pool"
  pooling_param {
    pool: MAX
    kernel_size: 3
    stride: 1
    pad: 1
  }
}
layer {
  name: "inception_3b/pool_proj"
  type: "Convolution"
  bottom: "inception_3b/pool"
  top: "inception_3b/pool_proj"
  param {
    lr_mult: 1
    decay_mult: 1
  }
  param {
    lr_mult: 2
    decay_mult: 0
  }
  convolution_param {
    num_output: 64
    kernel_size: 1
    weight_filler {
      type: "xavier"
    }
    bias_filler {
      type: "constant"
      value: 0.2
    }
  }
}
layer {
  name: "inception_3b/prelu_pool_proj"
  type: "PReLU"
  bottom: "inception_3b/pool_proj"
  top: "inception_3b/pool_proj"
  param {
    lr_mult: 1
    decay_mult: 0
  }
  prelu_param {
    filler {
      type: "constant"
      value: 0.01
    }
  }
}
layer {
  name: "inception_3b/output"
  type: "Concat"
  bottom: "inception_3b/1x1"
  bottom: "inception_3b/3x3"
  bottom: "inception_3b/5x5"
  bottom: "inception_3b/pool_proj"
  top: "inception_3b/output"
}
layer {
  name: "pool3/3x3_s2"
  type: "Pooling"
  bottom: "inception_3b/output"
  top: "pool3/3x3_s2"
  pooling_param {
    pool: MAX
    kernel_size: 3
    stride: 2
  }
}
layer {
  name: "inception_4a/1x1"
  type: "Convolution"
  bottom: "pool3/3x3_s2"
  top: "inception_4a/1x1"
  param {
    lr_mult: 1
    decay_mult: 1
  }
  param {
    lr_mult: 2
    decay_mult: 0
  }
  convolution_param {
    num_output: 192
    kernel_size: 1
    weight_filler {
      type: "xavier"
    }
    bias_filler {
      type: "constant"
      value: 0.2
    }
  }
}
layer {
  name: "inception_4a/prelu_1x1"
  type: "PReLU"
  bottom: "inception_4a/1x1"
  top: "inception_4a/1x1"
  param {
    lr_mult: 1
    decay_mult: 0
  }
  prelu_param {
    filler {
      type: "constant"
      value: 0.01
    }
  }
}
layer {
  name: "inception_4a/3x3_reduce"
  type: "Convolution"
  bottom: "pool3/3x3_s2"
  top: "inception_4a/3x3_reduce"
  param {
    lr_mult: 1
    decay_mult: 1
  }
  param {
    lr_mult: 2
    decay_mult: 0
  }
  convolution_param {
    num_output: 96
    kernel_size: 1
    weight_filler {
      type: "xavier"
    }
    bias_filler {
      type: "constant"
      value: 0.2
    }
  }
}
layer {
  name: "inception_4a/prelu_3x3_reduce"
  type: "PReLU"
  bottom: "inception_4a/3x3_reduce"
  top: "inception_4a/3x3_reduce"
  param {
    lr_mult: 1
    decay_mult: 0
  }
  prelu_param {
    filler {
      type: "constant"
      value: 0.01
    }
  }
}
layer {
  name: "inception_4a/3x3"
  type: "Convolution"
  bottom: "inception_4a/3x3_reduce"
  top: "inception_4a/3x3"
  param {
    lr_mult: 1
    decay_mult: 1
  }
  param {
    lr_mult: 2
    decay_mult: 0
  }
  convolution_param {
    num_output: 208
    pad: 1
    kernel_size: 3
    weight_filler {
      type: "xavier"
    }
    bias_filler {
      type: "constant"
      value: 0.2
    }
  }
}
layer {
  name: "inception_4a/prelu_3x3"
  type: "PReLU"
  bottom: "inception_4a/3x3"
  top: "inception_4a/3x3"
  param {
    lr_mult: 1
    decay_mult: 0
  }
  prelu_param {
    filler {
      type: "constant"
      value: 0.01
    }
  }
}
layer {
  name: "inception_4a/5x5_reduce"
  type: "Convolution"
  bottom: "pool3/3x3_s2"
  top: "inception_4a/5x5_reduce"
  param {
    lr_mult: 1
    decay_mult: 1
  }
  param {
    lr_mult: 2
    decay_mult: 0
  }
  convolution_param {
    num_output: 16
    kernel_size: 1
    weight_filler {
      type: "xavier"
    }
    bias_filler {
      type: "constant"
      value: 0.2
    }
  }
}
layer {
  name: "inception_4a/prelu_5x5_reduce"
  type: "PReLU"
  bottom: "inception_4a/5x5_reduce"
  top: "inception_4a/5x5_reduce"
  param {
    lr_mult: 1
    decay_mult: 0
  }
  prelu_param {
    filler {
      type: "constant"
      value: 0.01
    }
  }
}
layer {
  name: "inception_4a/5x5"
  type: "Convolution"
  bottom: "inception_4a/5x5_reduce"
  top: "inception_4a/5x5"
  param {
    lr_mult: 1
    decay_mult: 1
  }
  param {
    lr_mult: 2
    decay_mult: 0
  }
  convolution_param {
    num_output: 48
    pad: 2
    kernel_size: 5
    weight_filler {
      type: "xavier"
    }
    bias_filler {
      type: "constant"
      value: 0.2
    }
  }
}
layer {
  name: "inception_4a/prelu_5x5"
  type: "PReLU"
  bottom: "inception_4a/5x5"
  top: "inception_4a/5x5"
  param {
    lr_mult: 1
    decay_mult: 0
  }
  prelu_param {
    filler {
      type: "constant"
      value: 0.01
    }
  }
}
layer {
  name: "inception_4a/pool"
  type: "Pooling"
  bottom: "pool3/3x3_s2"
  top: "inception_4a/pool"
  pooling_param {
    pool: MAX
    kernel_size: 3
    stride: 1
    pad: 1
  }
}
layer {
  name: "inception_4a/pool_proj"
  type: "Convolution"
  bottom: "inception_4a/pool"
  top: "inception_4a/pool_proj"
  param {
    lr_mult: 1
    decay_mult: 1
  }
  param {
    lr_mult: 2
    decay_mult: 0
  }
  convolution_param {
    num_output: 64
    kernel_size: 1
    weight_filler {
      type: "xavier"
    }
    bias_filler {
      type: "constant"
      value: 0.2
    }
  }
}
layer {
  name: "inception_4a/prelu_pool_proj"
  type: "PReLU"
  bottom: "inception_4a/pool_proj"
  top: "inception_4a/pool_proj"
  param {
    lr_mult: 1
    decay_mult: 0
  }
  prelu_param {
    filler {
      type: "constant"
      value: 0.01
    }
  }
}
layer {
  name: "inception_4a/output"
  type: "Concat"
  bottom: "inception_4a/1x1"
  bottom: "inception_4a/3x3"
  bottom: "inception_4a/5x5"
  bottom: "inception_4a/pool_proj"
  top: "inception_4a/output"
}
layer {
  name: "loss1/ave_pool"
  type: "Pooling"
  bottom: "inception_4a/output"
  top: "loss1/ave_pool"
  pooling_param {
    pool: AVE
    kernel_size: 5
    stride: 3
  }
}
layer {
  name: "loss1/conv"
  type: "Convolution"
  bottom: "loss1/ave_pool"
  top: "loss1/conv"
  param {
    lr_mult: 1
    decay_mult: 1
  }
  param {
    lr_mult: 2
    decay_mult: 0
  }
  convolution_param {
    num_output: 128
    kernel_size: 1
    weight_filler {
      type: "xavier"
    }
    bias_filler {
      type: "constant"
      value: 0.2
    }
  }
}
layer {
  name: "loss1/prelu_conv"
  type: "PReLU"
  bottom: "loss1/conv"
  top: "loss1/conv"
  param {
    lr_mult: 1
    decay_mult: 0
  }
  prelu_param {
    filler {
      type: "constant"
      value: 0.01
    }
  }
}
layer {
  name: "loss1/fc"
  type: "InnerProduct"
  bottom: "loss1/conv"
  top: "loss1/fc"
  param {
    lr_mult: 1
    decay_mult: 1
  }
  param {
    lr_mult: 2
    decay_mult: 0
  }
  inner_product_param {
    num_output: 1024
    weight_filler {
      type: "xavier"
    }
    bias_filler {
      type: "constant"
      value: 0.2
    }
  }
}
layer {
  name: "loss1/prelu_fc"
  type: "PReLU"
  bottom: "loss1/fc"
  top: "loss1/fc"
  param {
    lr_mult: 1
    decay_mult: 0
  }
  prelu_param {
    filler {
      type: "constant"
      value: 0.01
    }
  }
}
layer {
  name: "loss1/drop_fc"
  type: "Dropout"
  bottom: "loss1/fc"
  top: "loss1/fc"
  dropout_param {
    dropout_ratio: 0.7
  }
}
layer {
  name: "loss1/classifier2"
  type: "InnerProduct"
  bottom: "loss1/fc"
  top: "loss1/classifier"
  param {
    lr_mult: 1
    decay_mult: 1
  }
  param {
    lr_mult: 2
    decay_mult: 0
  }
  inner_product_param {
    num_output: 2
    weight_filler {
      type: "xavier"
    }
    bias_filler {
      type: "constant"
      value: 0
    }
  }
}
layer {
  name: "loss1/loss"
  type: "SoftmaxWithLoss"
  bottom: "loss1/classifier"
  bottom: "label"
  top: "loss1/loss1"
  loss_weight: 0.3
}
layer {
  name: "inception_4b/1x1"
  type: "Convolution"
  bottom: "inception_4a/output"
  top: "inception_4b/1x1"
  param {
    lr_mult: 1
    decay_mult: 1
  }
  param {
    lr_mult: 2
    decay_mult: 0
  }
  convolution_param {
    num_output: 160
    kernel_size: 1
    weight_filler {
      type: "xavier"
    }
    bias_filler {
      type: "constant"
      value: 0.2
    }
  }
}
layer {
  name: "inception_4b/prelu_1x1"
  type: "PReLU"
  bottom: "inception_4b/1x1"
  top: "inception_4b/1x1"
  param {
    lr_mult: 1
    decay_mult: 0
  }
  prelu_param {
    filler {
      type: "constant"
      value: 0.01
    }
  }
}
layer {
  name: "inception_4b/3x3_reduce"
  type: "Convolution"
  bottom: "inception_4a/output"
  top: "inception_4b/3x3_reduce"
  param {
    lr_mult: 1
    decay_mult: 1
  }
  param {
    lr_mult: 2
    decay_mult: 0
  }
  convolution_param {
    num_output: 112
    kernel_size: 1
    weight_filler {
      type: "xavier"
    }
    bias_filler {
      type: "constant"
      value: 0.2
    }
  }
}
layer {
  name: "inception_4b/prelu_3x3_reduce"
  type: "PReLU"
  bottom: "inception_4b/3x3_reduce"
  top: "inception_4b/3x3_reduce"
  param {
    lr_mult: 1
    decay_mult: 0
  }
  prelu_param {
    filler {
      type: "constant"
      value: 0.01
    }
  }
}
layer {
  name: "inception_4b/3x3"
  type: "Convolution"
  bottom: "inception_4b/3x3_reduce"
  top: "inception_4b/3x3"
  param {
    lr_mult: 1
    decay_mult: 1
  }
  param {
    lr_mult: 2
    decay_mult: 0
  }
  convolution_param {
    num_output: 224
    pad: 1
    kernel_size: 3
    weight_filler {
      type: "xavier"
    }
    bias_filler {
      type: "constant"
      value: 0.2
    }
  }
}
layer {
  name: "inception_4b/prelu_3x3"
  type: "PReLU"
  bottom: "inception_4b/3x3"
  top: "inception_4b/3x3"
  param {
    lr_mult: 1
    decay_mult: 0
  }
  prelu_param {
    filler {
      type: "constant"
      value: 0.01
    }
  }
}
layer {
  name: "inception_4b/5x5_reduce"
  type: "Convolution"
  bottom: "inception_4a/output"
  top: "inception_4b/5x5_reduce"
  param {
    lr_mult: 1
    decay_mult: 1
  }
  param {
    lr_mult: 2
    decay_mult: 0
  }
  convolution_param {
    num_output: 24
    kernel_size: 1
    weight_filler {
      type: "xavier"
    }
    bias_filler {
      type: "constant"
      value: 0.2
    }
  }
}
layer {
  name: "inception_4b/prelu_5x5_reduce"
  type: "PReLU"
  bottom: "inception_4b/5x5_reduce"
  top: "inception_4b/5x5_reduce"
  param {
    lr_mult: 1
    decay_mult: 0
  }
  prelu_param {
    filler {
      type: "constant"
      value: 0.01
    }
  }
}
layer {
  name: "inception_4b/5x5"
  type: "Convolution"
  bottom: "inception_4b/5x5_reduce"
  top: "inception_4b/5x5"
  param {
    lr_mult: 1
    decay_mult: 1
  }
  param {
    lr_mult: 2
    decay_mult: 0
  }
  convolution_param {
    num_output: 64
    pad: 2
    kernel_size: 5
    weight_filler {
      type: "xavier"
    }
    bias_filler {
      type: "constant"
      value: 0.2
    }
  }
}
layer {
  name: "inception_4b/prelu_5x5"
  type: "PReLU"
  bottom: "inception_4b/5x5"
  top: "inception_4b/5x5"
  param {
    lr_mult: 1
    decay_mult: 0
  }
  prelu_param {
    filler {
      type: "constant"
      value: 0.01
    }
  }
}
layer {
  name: "inception_4b/pool"
  type: "Pooling"
  bottom: "inception_4a/output"
  top: "inception_4b/pool"
  pooling_param {
    pool: MAX
    kernel_size: 3
    stride: 1
    pad: 1
  }
}
layer {
  name: "inception_4b/pool_proj"
  type: "Convolution"
  bottom: "inception_4b/pool"
  top: "inception_4b/pool_proj"
  param {
    lr_mult: 1
    decay_mult: 1
  }
  param {
    lr_mult: 2
    decay_mult: 0
  }
  convolution_param {
    num_output: 64
    kernel_size: 1
    weight_filler {
      type: "xavier"
    }
    bias_filler {
      type: "constant"
      value: 0.2
    }
  }
}
layer {
  name: "inception_4b/prelu_pool_proj"
  type: "PReLU"
  bottom: "inception_4b/pool_proj"
  top: "inception_4b/pool_proj"
  param {
    lr_mult: 1
    decay_mult: 0
  }
  prelu_param {
    filler {
      type: "constant"
      value: 0.01
    }
  }
}
layer {
  name: "inception_4b/output"
  type: "Concat"
  bottom: "inception_4b/1x1"
  bottom: "inception_4b/3x3"
  bottom: "inception_4b/5x5"
  bottom: "inception_4b/pool_proj"
  top: "inception_4b/output"
}
layer {
  name: "inception_4c/1x1"
  type: "Convolution"
  bottom: "inception_4b/output"
  top: "inception_4c/1x1"
  param {
    lr_mult: 1
    decay_mult: 1
  }
  param {
    lr_mult: 2
    decay_mult: 0
  }
  convolution_param {
    num_output: 128
    kernel_size: 1
    weight_filler {
      type: "xavier"
    }
    bias_filler {
      type: "constant"
      value: 0.2
    }
  }
}
layer {
  name: "inception_4c/prelu_1x1"
  type: "PReLU"
  bottom: "inception_4c/1x1"
  top: "inception_4c/1x1"
  param {
    lr_mult: 1
    decay_mult: 0
  }
  prelu_param {
    filler {
      type: "constant"
      value: 0.01
    }
  }
}
layer {
  name: "inception_4c/3x3_reduce"
  type: "Convolution"
  bottom: "inception_4b/output"
  top: "inception_4c/3x3_reduce"
  param {
    lr_mult: 1
    decay_mult: 1
  }
  param {
    lr_mult: 2
    decay_mult: 0
  }
  convolution_param {
    num_output: 128
    kernel_size: 1
    weight_filler {
      type: "xavier"
    }
    bias_filler {
      type: "constant"
      value: 0.2
    }
  }
}
layer {
  name: "inception_4c/prelu_3x3_reduce"
  type: "PReLU"
  bottom: "inception_4c/3x3_reduce"
  top: "inception_4c/3x3_reduce"
  param {
    lr_mult: 1
    decay_mult: 0
  }
  prelu_param {
    filler {
      type: "constant"
      value: 0.01
    }
  }
}
layer {
  name: "inception_4c/3x3"
  type: "Convolution"
  bottom: "inception_4c/3x3_reduce"
  top: "inception_4c/3x3"
  param {
    lr_mult: 1
    decay_mult: 1
  }
  param {
    lr_mult: 2
    decay_mult: 0
  }
  convolution_param {
    num_output: 256
    pad: 1
    kernel_size: 3
    weight_filler {
      type: "xavier"
    }
    bias_filler {
      type: "constant"
      value: 0.2
    }
  }
}
layer {
  name: "inception_4c/prelu_3x3"
  type: "PReLU"
  bottom: "inception_4c/3x3"
  top: "inception_4c/3x3"
  param {
    lr_mult: 1
    decay_mult: 0
  }
  prelu_param {
    filler {
      type: "constant"
      value: 0.01
    }
  }
}
layer {
  name: "inception_4c/5x5_reduce"
  type: "Convolution"
  bottom: "inception_4b/output"
  top: "inception_4c/5x5_reduce"
  param {
    lr_mult: 1
    decay_mult: 1
  }
  param {
    lr_mult: 2
    decay_mult: 0
  }
  convolution_param {
    num_output: 24
    kernel_size: 1
    weight_filler {
      type: "xavier"
    }
    bias_filler {
      type: "constant"
      value: 0.2
    }
  }
}
layer {
  name: "inception_4c/prelu_5x5_reduce"
  type: "PReLU"
  bottom: "inception_4c/5x5_reduce"
  top: "inception_4c/5x5_reduce"
  param {
    lr_mult: 1
    decay_mult: 0
  }
  prelu_param {
    filler {
      type: "constant"
      value: 0.01
    }
  }
}
layer {
  name: "inception_4c/5x5"
  type: "Convolution"
  bottom: "inception_4c/5x5_reduce"
  top: "inception_4c/5x5"
  param {
    lr_mult: 1
    decay_mult: 1
  }
  param {
    lr_mult: 2
    decay_mult: 0
  }
  convolution_param {
    num_output: 64
    pad: 2
    kernel_size: 5
    weight_filler {
      type: "xavier"
    }
    bias_filler {
      type: "constant"
      value: 0.2
    }
  }
}
layer {
  name: "inception_4c/prelu_5x5"
  type: "PReLU"
  bottom: "inception_4c/5x5"
  top: "inception_4c/5x5"
  param {
    lr_mult: 1
    decay_mult: 0
  }
  prelu_param {
    filler {
      type: "constant"
      value: 0.01
    }
  }
}
layer {
  name: "inception_4c/pool"
  type: "Pooling"
  bottom: "inception_4b/output"
  top: "inception_4c/pool"
  pooling_param {
    pool: MAX
    kernel_size: 3
    stride: 1
    pad: 1
  }
}
layer {
  name: "inception_4c/pool_proj"
  type: "Convolution"
  bottom: "inception_4c/pool"
  top: "inception_4c/pool_proj"
  param {
    lr_mult: 1
    decay_mult: 1
  }
  param {
    lr_mult: 2
    decay_mult: 0
  }
  convolution_param {
    num_output: 64
    kernel_size: 1
    weight_filler {
      type: "xavier"
    }
    bias_filler {
      type: "constant"
      value: 0.2
    }
  }
}
layer {
  name: "inception_4c/prelu_pool_proj"
  type: "PReLU"
  bottom: "inception_4c/pool_proj"
  top: "inception_4c/pool_proj"
  param {
    lr_mult: 1
    decay_mult: 0
  }
  prelu_param {
    filler {
      type: "constant"
      value: 0.01
    }
  }
}
layer {
  name: "inception_4c/output"
  type: "Concat"
  bottom: "inception_4c/1x1"
  bottom: "inception_4c/3x3"
  bottom: "inception_4c/5x5"
  bottom: "inception_4c/pool_proj"
  top: "inception_4c/output"
}
layer {
  name: "inception_4d/1x1"
  type: "Convolution"
  bottom: "inception_4c/output"
  top: "inception_4d/1x1"
  param {
    lr_mult: 1
    decay_mult: 1
  }
  param {
    lr_mult: 2
    decay_mult: 0
  }
  convolution_param {
    num_output: 112
    kernel_size: 1
    weight_filler {
      type: "xavier"
    }
    bias_filler {
      type: "constant"
      value: 0.2
    }
  }
}
layer {
  name: "inception_4d/prelu_1x1"
  type: "PReLU"
  bottom: "inception_4d/1x1"
  top: "inception_4d/1x1"
  param {
    lr_mult: 1
    decay_mult: 0
  }
  prelu_param {
    filler {
      type: "constant"
      value: 0.01
    }
  }
}
layer {
  name: "inception_4d/3x3_reduce"
  type: "Convolution"
  bottom: "inception_4c/output"
  top: "inception_4d/3x3_reduce"
  param {
    lr_mult: 1
    decay_mult: 1
  }
  param {
    lr_mult: 2
    decay_mult: 0
  }
  convolution_param {
    num_output: 144
    kernel_size: 1
    weight_filler {
      type: "xavier"
    }
    bias_filler {
      type: "constant"
      value: 0.2
    }
  }
}
layer {
  name: "inception_4d/prelu_3x3_reduce"
  type: "PReLU"
  bottom: "inception_4d/3x3_reduce"
  top: "inception_4d/3x3_reduce"
  param {
    lr_mult: 1
    decay_mult: 0
  }
  prelu_param {
    filler {
      type: "constant"
      value: 0.01
    }
  }
}
layer {
  name: "inception_4d/3x3"
  type: "Convolution"
  bottom: "inception_4d/3x3_reduce"
  top: "inception_4d/3x3"
  param {
    lr_mult: 1
    decay_mult: 1
  }
  param {
    lr_mult: 2
    decay_mult: 0
  }
  convolution_param {
    num_output: 288
    pad: 1
    kernel_size: 3
    weight_filler {
      type: "xavier"
    }
    bias_filler {
      type: "constant"
      value: 0.2
    }
  }
}
layer {
  name: "inception_4d/prelu_3x3"
  type: "PReLU"
  bottom: "inception_4d/3x3"
  top: "inception_4d/3x3"
  param {
    lr_mult: 1
    decay_mult: 0
  }
  prelu_param {
    filler {
      type: "constant"
      value: 0.01
    }
  }
}
layer {
  name: "inception_4d/5x5_reduce"
  type: "Convolution"
  bottom: "inception_4c/output"
  top: "inception_4d/5x5_reduce"
  param {
    lr_mult: 1
    decay_mult: 1
  }
  param {
    lr_mult: 2
    decay_mult: 0
  }
  convolution_param {
    num_output: 32
    kernel_size: 1
    weight_filler {
      type: "xavier"
    }
    bias_filler {
      type: "constant"
      value: 0.2
    }
  }
}
layer {
  name: "inception_4d/prelu_5x5_reduce"
  type: "PReLU"
  bottom: "inception_4d/5x5_reduce"
  top: "inception_4d/5x5_reduce"
  param {
    lr_mult: 1
    decay_mult: 0
  }
  prelu_param {
    filler {
      type: "constant"
      value: 0.01
    }
  }
}
layer {
  name: "inception_4d/5x5"
  type: "Convolution"
  bottom: "inception_4d/5x5_reduce"
  top: "inception_4d/5x5"
  param {
    lr_mult: 1
    decay_mult: 1
  }
  param {
    lr_mult: 2
    decay_mult: 0
  }
  convolution_param {
    num_output: 64
    pad: 2
    kernel_size: 5
    weight_filler {
      type: "xavier"
    }
    bias_filler {
      type: "constant"
      value: 0.2
    }
  }
}
layer {
  name: "inception_4d/prelu_5x5"
  type: "PReLU"
  bottom: "inception_4d/5x5"
  top: "inception_4d/5x5"
  param {
    lr_mult: 1
    decay_mult: 0
  }
  prelu_param {
    filler {
      type: "constant"
      value: 0.01
    }
  }
}
layer {
  name: "inception_4d/pool"
  type: "Pooling"
  bottom: "inception_4c/output"
  top: "inception_4d/pool"
  pooling_param {
    pool: MAX
    kernel_size: 3
    stride: 1
    pad: 1
  }
}
layer {
  name: "inception_4d/pool_proj"
  type: "Convolution"
  bottom: "ince
I1028 13:45:22.866461 28243 layer_factory.hpp:76] Creating layer data
I1028 13:45:22.867069 28243 net.cpp:106] Creating Layer data
I1028 13:45:22.867089 28243 net.cpp:411] data -> data
I1028 13:45:22.867125 28243 net.cpp:411] data -> label
I1028 13:45:22.868729 28247 db_lmdb.cpp:38] Opened lmdb ../../LMDB/train_9-lmdb
I1028 13:45:22.880683 28243 data_layer.cpp:41] output data size: 32,3,224,224
I1028 13:45:22.948108 28243 net.cpp:150] Setting up data
I1028 13:45:22.948158 28243 net.cpp:157] Top shape: 32 3 224 224 (4816896)
I1028 13:45:22.948165 28243 net.cpp:157] Top shape: 32 (32)
I1028 13:45:22.948169 28243 net.cpp:165] Memory required for data: 19267712
I1028 13:45:22.948181 28243 layer_factory.hpp:76] Creating layer label_data_1_split
I1028 13:45:22.948195 28243 net.cpp:106] Creating Layer label_data_1_split
I1028 13:45:22.948212 28243 net.cpp:454] label_data_1_split <- label
I1028 13:45:22.948241 28243 net.cpp:411] label_data_1_split -> label_data_1_split_0
I1028 13:45:22.948262 28243 net.cpp:411] label_data_1_split -> label_data_1_split_1
I1028 13:45:22.948292 28243 net.cpp:411] label_data_1_split -> label_data_1_split_2
I1028 13:45:22.948372 28243 net.cpp:150] Setting up label_data_1_split
I1028 13:45:22.948385 28243 net.cpp:157] Top shape: 32 (32)
I1028 13:45:22.948393 28243 net.cpp:157] Top shape: 32 (32)
I1028 13:45:22.948410 28243 net.cpp:157] Top shape: 32 (32)
I1028 13:45:22.948418 28243 net.cpp:165] Memory required for data: 19268096
I1028 13:45:22.948426 28243 layer_factory.hpp:76] Creating layer conv1/7x7_s2
I1028 13:45:22.948463 28243 net.cpp:106] Creating Layer conv1/7x7_s2
I1028 13:45:22.948472 28243 net.cpp:454] conv1/7x7_s2 <- data
I1028 13:45:22.948484 28243 net.cpp:411] conv1/7x7_s2 -> conv1/7x7_s2
I1028 13:45:23.164949 28243 cudnn_conv_layer.cpp:194] Reallocating workspace storage: 225816
I1028 13:45:23.165218 28243 net.cpp:150] Setting up conv1/7x7_s2
I1028 13:45:23.165237 28243 net.cpp:157] Top shape: 32 64 112 112 (25690112)
I1028 13:45:23.165251 28243 net.cpp:165] Memory required for data: 122028544
I1028 13:45:23.165277 28243 layer_factory.hpp:76] Creating layer conv1/prelu_7x7
I1028 13:45:23.165323 28243 net.cpp:106] Creating Layer conv1/prelu_7x7
I1028 13:45:23.165333 28243 net.cpp:454] conv1/prelu_7x7 <- conv1/7x7_s2
I1028 13:45:23.165345 28243 net.cpp:397] conv1/prelu_7x7 -> conv1/7x7_s2 (in-place)
I1028 13:45:23.167126 28243 net.cpp:150] Setting up conv1/prelu_7x7
I1028 13:45:23.167145 28243 net.cpp:157] Top shape: 32 64 112 112 (25690112)
I1028 13:45:23.167151 28243 net.cpp:165] Memory required for data: 224788992
I1028 13:45:23.167165 28243 layer_factory.hpp:76] Creating layer pool1/3x3_s2
I1028 13:45:23.167183 28243 net.cpp:106] Creating Layer pool1/3x3_s2
I1028 13:45:23.167192 28243 net.cpp:454] pool1/3x3_s2 <- conv1/7x7_s2
I1028 13:45:23.167204 28243 net.cpp:411] pool1/3x3_s2 -> pool1/3x3_s2
I1028 13:45:23.167585 28243 net.cpp:150] Setting up pool1/3x3_s2
I1028 13:45:23.167599 28243 net.cpp:157] Top shape: 32 64 56 56 (6422528)
I1028 13:45:23.167608 28243 net.cpp:165] Memory required for data: 250479104
I1028 13:45:23.167616 28243 layer_factory.hpp:76] Creating layer pool1/norm1
I1028 13:45:23.167634 28243 net.cpp:106] Creating Layer pool1/norm1
I1028 13:45:23.167645 28243 net.cpp:454] pool1/norm1 <- pool1/3x3_s2
I1028 13:45:23.167656 28243 net.cpp:411] pool1/norm1 -> pool1/norm1
I1028 13:45:23.167819 28243 net.cpp:150] Setting up pool1/norm1
I1028 13:45:23.167831 28243 net.cpp:157] Top shape: 32 64 56 56 (6422528)
I1028 13:45:23.167840 28243 net.cpp:165] Memory required for data: 276169216
I1028 13:45:23.167847 28243 layer_factory.hpp:76] Creating layer conv2/3x3_reduce
I1028 13:45:23.167863 28243 net.cpp:106] Creating Layer conv2/3x3_reduce
I1028 13:45:23.167872 28243 net.cpp:454] conv2/3x3_reduce <- pool1/norm1
I1028 13:45:23.167884 28243 net.cpp:411] conv2/3x3_reduce -> conv2/3x3_reduce
I1028 13:45:23.169260 28243 cudnn_conv_layer.cpp:194] Reallocating workspace storage: 63000
I1028 13:45:23.169286 28243 net.cpp:150] Setting up conv2/3x3_reduce
I1028 13:45:23.169301 28243 net.cpp:157] Top shape: 32 64 56 56 (6422528)
I1028 13:45:23.169308 28243 net.cpp:165] Memory required for data: 301859328
I1028 13:45:23.169324 28243 layer_factory.hpp:76] Creating layer conv2/prelu_3x3_reduce
I1028 13:45:23.169354 28243 net.cpp:106] Creating Layer conv2/prelu_3x3_reduce
I1028 13:45:23.169364 28243 net.cpp:454] conv2/prelu_3x3_reduce <- conv2/3x3_reduce
I1028 13:45:23.169376 28243 net.cpp:397] conv2/prelu_3x3_reduce -> conv2/3x3_reduce (in-place)
I1028 13:45:23.169991 28243 net.cpp:150] Setting up conv2/prelu_3x3_reduce
I1028 13:45:23.170004 28243 net.cpp:157] Top shape: 32 64 56 56 (6422528)
I1028 13:45:23.170012 28243 net.cpp:165] Memory required for data: 327549440
I1028 13:45:23.170037 28243 layer_factory.hpp:76] Creating layer conv2/3x3
I1028 13:45:23.170053 28243 net.cpp:106] Creating Layer conv2/3x3
I1028 13:45:23.170063 28243 net.cpp:454] conv2/3x3 <- conv2/3x3_reduce
I1028 13:45:23.170076 28243 net.cpp:411] conv2/3x3 -> conv2/3x3
I1028 13:45:23.172049 28243 cudnn_conv_layer.cpp:194] Reallocating workspace storage: 63000
I1028 13:45:23.172075 28243 net.cpp:150] Setting up conv2/3x3
I1028 13:45:23.172090 28243 net.cpp:157] Top shape: 32 192 56 56 (19267584)
I1028 13:45:23.172097 28243 net.cpp:165] Memory required for data: 404619776
I1028 13:45:23.172111 28243 layer_factory.hpp:76] Creating layer conv2/prelu_3x3
I1028 13:45:23.172125 28243 net.cpp:106] Creating Layer conv2/prelu_3x3
I1028 13:45:23.172137 28243 net.cpp:454] conv2/prelu_3x3 <- conv2/3x3
I1028 13:45:23.172148 28243 net.cpp:397] conv2/prelu_3x3 -> conv2/3x3 (in-place)
I1028 13:45:23.173265 28243 net.cpp:150] Setting up conv2/prelu_3x3
I1028 13:45:23.173281 28243 net.cpp:157] Top shape: 32 192 56 56 (19267584)
I1028 13:45:23.173290 28243 net.cpp:165] Memory required for data: 481690112
I1028 13:45:23.173324 28243 layer_factory.hpp:76] Creating layer conv2/norm2
I1028 13:45:23.173355 28243 net.cpp:106] Creating Layer conv2/norm2
I1028 13:45:23.173374 28243 net.cpp:454] conv2/norm2 <- conv2/3x3
I1028 13:45:23.173385 28243 net.cpp:411] conv2/norm2 -> conv2/norm2
I1028 13:45:23.173584 28243 net.cpp:150] Setting up conv2/norm2
I1028 13:45:23.173598 28243 net.cpp:157] Top shape: 32 192 56 56 (19267584)
I1028 13:45:23.173605 28243 net.cpp:165] Memory required for data: 558760448
I1028 13:45:23.173614 28243 layer_factory.hpp:76] Creating layer pool2/3x3_s2
I1028 13:45:23.173626 28243 net.cpp:106] Creating Layer pool2/3x3_s2
I1028 13:45:23.173635 28243 net.cpp:454] pool2/3x3_s2 <- conv2/norm2
I1028 13:45:23.173645 28243 net.cpp:411] pool2/3x3_s2 -> pool2/3x3_s2
I1028 13:45:23.173987 28243 net.cpp:150] Setting up pool2/3x3_s2
I1028 13:45:23.174001 28243 net.cpp:157] Top shape: 32 192 28 28 (4816896)
I1028 13:45:23.174008 28243 net.cpp:165] Memory required for data: 578028032
I1028 13:45:23.174031 28243 layer_factory.hpp:76] Creating layer pool2/3x3_s2_pool2/3x3_s2_0_split
I1028 13:45:23.174042 28243 net.cpp:106] Creating Layer pool2/3x3_s2_pool2/3x3_s2_0_split
I1028 13:45:23.174059 28243 net.cpp:454] pool2/3x3_s2_pool2/3x3_s2_0_split <- pool2/3x3_s2
I1028 13:45:23.174073 28243 net.cpp:411] pool2/3x3_s2_pool2/3x3_s2_0_split -> pool2/3x3_s2_pool2/3x3_s2_0_split_0
I1028 13:45:23.174087 28243 net.cpp:411] pool2/3x3_s2_pool2/3x3_s2_0_split -> pool2/3x3_s2_pool2/3x3_s2_0_split_1
I1028 13:45:23.174101 28243 net.cpp:411] pool2/3x3_s2_pool2/3x3_s2_0_split -> pool2/3x3_s2_pool2/3x3_s2_0_split_2
I1028 13:45:23.174114 28243 net.cpp:411] pool2/3x3_s2_pool2/3x3_s2_0_split -> pool2/3x3_s2_pool2/3x3_s2_0_split_3
I1028 13:45:23.174170 28243 net.cpp:150] Setting up pool2/3x3_s2_pool2/3x3_s2_0_split
I1028 13:45:23.174181 28243 net.cpp:157] Top shape: 32 192 28 28 (4816896)
I1028 13:45:23.174191 28243 net.cpp:157] Top shape: 32 192 28 28 (4816896)
I1028 13:45:23.174201 28243 net.cpp:157] Top shape: 32 192 28 28 (4816896)
I1028 13:45:23.174211 28243 net.cpp:157] Top shape: 32 192 28 28 (4816896)
I1028 13:45:23.174217 28243 net.cpp:165] Memory required for data: 655098368
I1028 13:45:23.174226 28243 layer_factory.hpp:76] Creating layer inception_3a/1x1
I1028 13:45:23.174239 28243 net.cpp:106] Creating Layer inception_3a/1x1
I1028 13:45:23.174248 28243 net.cpp:454] inception_3a/1x1 <- pool2/3x3_s2_pool2/3x3_s2_0_split_0
I1028 13:45:23.174260 28243 net.cpp:411] inception_3a/1x1 -> inception_3a/1x1
I1028 13:45:23.175679 28243 cudnn_conv_layer.cpp:194] Reallocating workspace storage: 20664
I1028 13:45:23.175710 28243 net.cpp:150] Setting up inception_3a/1x1
I1028 13:45:23.175726 28243 net.cpp:157] Top shape: 32 64 28 28 (1605632)
I1028 13:45:23.175735 28243 net.cpp:165] Memory required for data: 661520896
I1028 13:45:23.175748 28243 layer_factory.hpp:76] Creating layer inception_3a/prelu_1x1
I1028 13:45:23.175765 28243 net.cpp:106] Creating Layer inception_3a/prelu_1x1
I1028 13:45:23.175776 28243 net.cpp:454] inception_3a/prelu_1x1 <- inception_3a/1x1
I1028 13:45:23.175788 28243 net.cpp:397] inception_3a/prelu_1x1 -> inception_3a/1x1 (in-place)
I1028 13:45:23.176326 28243 net.cpp:150] Setting up inception_3a/prelu_1x1
I1028 13:45:23.176339 28243 net.cpp:157] Top shape: 32 64 28 28 (1605632)
I1028 13:45:23.176347 28243 net.cpp:165] Memory required for data: 667943424
I1028 13:45:23.176357 28243 layer_factory.hpp:76] Creating layer inception_3a/3x3_reduce
I1028 13:45:23.176373 28243 net.cpp:106] Creating Layer inception_3a/3x3_reduce
I1028 13:45:23.176383 28243 net.cpp:454] inception_3a/3x3_reduce <- pool2/3x3_s2_pool2/3x3_s2_0_split_1
I1028 13:45:23.176395 28243 net.cpp:411] inception_3a/3x3_reduce -> inception_3a/3x3_reduce
I1028 13:45:23.177332 28243 cudnn_conv_layer.cpp:194] Reallocating workspace storage: 20664
I1028 13:45:23.177361 28243 net.cpp:150] Setting up inception_3a/3x3_reduce
I1028 13:45:23.177374 28243 net.cpp:157] Top shape: 32 96 28 28 (2408448)
I1028 13:45:23.177383 28243 net.cpp:165] Memory required for data: 677577216
I1028 13:45:23.177413 28243 layer_factory.hpp:76] Creating layer inception_3a/prelu_3x3_reduce
I1028 13:45:23.177431 28243 net.cpp:106] Creating Layer inception_3a/prelu_3x3_reduce
I1028 13:45:23.177441 28243 net.cpp:454] inception_3a/prelu_3x3_reduce <- inception_3a/3x3_reduce
I1028 13:45:23.177453 28243 net.cpp:397] inception_3a/prelu_3x3_reduce -> inception_3a/3x3_reduce (in-place)
I1028 13:45:23.177590 28243 net.cpp:150] Setting up inception_3a/prelu_3x3_reduce
I1028 13:45:23.177603 28243 net.cpp:157] Top shape: 32 96 28 28 (2408448)
I1028 13:45:23.177610 28243 net.cpp:165] Memory required for data: 687211008
I1028 13:45:23.177620 28243 layer_factory.hpp:76] Creating layer inception_3a/3x3
I1028 13:45:23.177634 28243 net.cpp:106] Creating Layer inception_3a/3x3
I1028 13:45:23.177644 28243 net.cpp:454] inception_3a/3x3 <- inception_3a/3x3_reduce
I1028 13:45:23.177656 28243 net.cpp:411] inception_3a/3x3 -> inception_3a/3x3
I1028 13:45:23.179687 28243 cudnn_conv_layer.cpp:194] Reallocating workspace storage: 20664
I1028 13:45:23.179723 28243 net.cpp:150] Setting up inception_3a/3x3
I1028 13:45:23.179736 28243 net.cpp:157] Top shape: 32 128 28 28 (3211264)
I1028 13:45:23.179744 28243 net.cpp:165] Memory required for data: 700056064
I1028 13:45:23.179767 28243 layer_factory.hpp:76] Creating layer inception_3a/prelu_3x3
I1028 13:45:23.179783 28243 net.cpp:106] Creating Layer inception_3a/prelu_3x3
I1028 13:45:23.179795 28243 net.cpp:454] inception_3a/prelu_3x3 <- inception_3a/3x3
I1028 13:45:23.179807 28243 net.cpp:397] inception_3a/prelu_3x3 -> inception_3a/3x3 (in-place)
I1028 13:45:23.179965 28243 net.cpp:150] Setting up inception_3a/prelu_3x3
I1028 13:45:23.179978 28243 net.cpp:157] Top shape: 32 128 28 28 (3211264)
I1028 13:45:23.179986 28243 net.cpp:165] Memory required for data: 712901120
I1028 13:45:23.179996 28243 layer_factory.hpp:76] Creating layer inception_3a/5x5_reduce
I1028 13:45:23.180042 28243 net.cpp:106] Creating Layer inception_3a/5x5_reduce
I1028 13:45:23.180053 28243 net.cpp:454] inception_3a/5x5_reduce <- pool2/3x3_s2_pool2/3x3_s2_0_split_2
I1028 13:45:23.180066 28243 net.cpp:411] inception_3a/5x5_reduce -> inception_3a/5x5_reduce
I1028 13:45:23.181390 28243 cudnn_conv_layer.cpp:194] Reallocating workspace storage: 20664
I1028 13:45:23.181421 28243 net.cpp:150] Setting up inception_3a/5x5_reduce
I1028 13:45:23.181434 28243 net.cpp:157] Top shape: 32 16 28 28 (401408)
I1028 13:45:23.181442 28243 net.cpp:165] Memory required for data: 714506752
I1028 13:45:23.181457 28243 layer_factory.hpp:76] Creating layer inception_3a/prelu_5x5_reduce
I1028 13:45:23.181471 28243 net.cpp:106] Creating Layer inception_3a/prelu_5x5_reduce
I1028 13:45:23.181483 28243 net.cpp:454] inception_3a/prelu_5x5_reduce <- inception_3a/5x5_reduce
I1028 13:45:23.181496 28243 net.cpp:397] inception_3a/prelu_5x5_reduce -> inception_3a/5x5_reduce (in-place)
I1028 13:45:23.181591 28243 net.cpp:150] Setting up inception_3a/prelu_5x5_reduce
I1028 13:45:23.181603 28243 net.cpp:157] Top shape: 32 16 28 28 (401408)
I1028 13:45:23.181612 28243 net.cpp:165] Memory required for data: 716112384
I1028 13:45:23.181622 28243 layer_factory.hpp:76] Creating layer inception_3a/5x5
I1028 13:45:23.181637 28243 net.cpp:106] Creating Layer inception_3a/5x5
I1028 13:45:23.181646 28243 net.cpp:454] inception_3a/5x5 <- inception_3a/5x5_reduce
I1028 13:45:23.181659 28243 net.cpp:411] inception_3a/5x5 -> inception_3a/5x5
I1028 13:45:23.182732 28243 cudnn_conv_layer.cpp:194] Reallocating workspace storage: 20664
I1028 13:45:23.182759 28243 net.cpp:150] Setting up inception_3a/5x5
I1028 13:45:23.182772 28243 net.cpp:157] Top shape: 32 32 28 28 (802816)
I1028 13:45:23.182781 28243 net.cpp:165] Memory required for data: 719323648
I1028 13:45:23.182796 28243 layer_factory.hpp:76] Creating layer inception_3a/prelu_5x5
I1028 13:45:23.182811 28243 net.cpp:106] Creating Layer inception_3a/prelu_5x5
I1028 13:45:23.182821 28243 net.cpp:454] inception_3a/prelu_5x5 <- inception_3a/5x5
I1028 13:45:23.182833 28243 net.cpp:397] inception_3a/prelu_5x5 -> inception_3a/5x5 (in-place)
I1028 13:45:23.182958 28243 net.cpp:150] Setting up inception_3a/prelu_5x5
I1028 13:45:23.182971 28243 net.cpp:157] Top shape: 32 32 28 28 (802816)
I1028 13:45:23.182978 28243 net.cpp:165] Memory required for data: 722534912
I1028 13:45:23.182989 28243 layer_factory.hpp:76] Creating layer inception_3a/pool
I1028 13:45:23.183002 28243 net.cpp:106] Creating Layer inception_3a/pool
I1028 13:45:23.183010 28243 net.cpp:454] inception_3a/pool <- pool2/3x3_s2_pool2/3x3_s2_0_split_3
I1028 13:45:23.183022 28243 net.cpp:411] inception_3a/pool -> inception_3a/pool
I1028 13:45:23.183200 28243 net.cpp:150] Setting up inception_3a/pool
I1028 13:45:23.183213 28243 net.cpp:157] Top shape: 32 192 28 28 (4816896)
I1028 13:45:23.183221 28243 net.cpp:165] Memory required for data: 741802496
I1028 13:45:23.183229 28243 layer_factory.hpp:76] Creating layer inception_3a/pool_proj
I1028 13:45:23.183243 28243 net.cpp:106] Creating Layer inception_3a/pool_proj
I1028 13:45:23.183251 28243 net.cpp:454] inception_3a/pool_proj <- inception_3a/pool
I1028 13:45:23.183264 28243 net.cpp:411] inception_3a/pool_proj -> inception_3a/pool_proj
I1028 13:45:23.184233 28243 cudnn_conv_layer.cpp:194] Reallocating workspace storage: 20664
I1028 13:45:23.184258 28243 net.cpp:150] Setting up inception_3a/pool_proj
I1028 13:45:23.184273 28243 net.cpp:157] Top shape: 32 32 28 28 (802816)
I1028 13:45:23.184280 28243 net.cpp:165] Memory required for data: 745013760
I1028 13:45:23.184294 28243 layer_factory.hpp:76] Creating layer inception_3a/prelu_pool_proj
I1028 13:45:23.184308 28243 net.cpp:106] Creating Layer inception_3a/prelu_pool_proj
I1028 13:45:23.184319 28243 net.cpp:454] inception_3a/prelu_pool_proj <- inception_3a/pool_proj
I1028 13:45:23.184330 28243 net.cpp:397] inception_3a/prelu_pool_proj -> inception_3a/pool_proj (in-place)
I1028 13:45:23.184428 28243 net.cpp:150] Setting up inception_3a/prelu_pool_proj
I1028 13:45:23.184440 28243 net.cpp:157] Top shape: 32 32 28 28 (802816)
I1028 13:45:23.184448 28243 net.cpp:165] Memory required for data: 748225024
I1028 13:45:23.184458 28243 layer_factory.hpp:76] Creating layer inception_3a/output
I1028 13:45:23.184478 28243 net.cpp:106] Creating Layer inception_3a/output
I1028 13:45:23.184486 28243 net.cpp:454] inception_3a/output <- inception_3a/1x1
I1028 13:45:23.184496 28243 net.cpp:454] inception_3a/output <- inception_3a/3x3
I1028 13:45:23.184505 28243 net.cpp:454] inception_3a/output <- inception_3a/5x5
I1028 13:45:23.184514 28243 net.cpp:454] inception_3a/output <- inception_3a/pool_proj
I1028 13:45:23.184525 28243 net.cpp:411] inception_3a/output -> inception_3a/output
I1028 13:45:23.184559 28243 net.cpp:150] Setting up inception_3a/output
I1028 13:45:23.184571 28243 net.cpp:157] Top shape: 32 256 28 28 (6422528)
I1028 13:45:23.184578 28243 net.cpp:165] Memory required for data: 773915136
I1028 13:45:23.184587 28243 layer_factory.hpp:76] Creating layer inception_3a/output_inception_3a/output_0_split
I1028 13:45:23.184597 28243 net.cpp:106] Creating Layer inception_3a/output_inception_3a/output_0_split
I1028 13:45:23.184607 28243 net.cpp:454] inception_3a/output_inception_3a/output_0_split <- inception_3a/output
I1028 13:45:23.184626 28243 net.cpp:411] inception_3a/output_inception_3a/output_0_split -> inception_3a/output_inception_3a/output_0_split_0
I1028 13:45:23.184638 28243 net.cpp:411] inception_3a/output_inception_3a/output_0_split -> inception_3a/output_inception_3a/output_0_split_1
I1028 13:45:23.184651 28243 net.cpp:411] inception_3a/output_inception_3a/output_0_split -> inception_3a/output_inception_3a/output_0_split_2
I1028 13:45:23.184665 28243 net.cpp:411] inception_3a/output_inception_3a/output_0_split -> inception_3a/output_inception_3a/output_0_split_3
I1028 13:45:23.184721 28243 net.cpp:150] Setting up inception_3a/output_inception_3a/output_0_split
I1028 13:45:23.184732 28243 net.cpp:157] Top shape: 32 256 28 28 (6422528)
I1028 13:45:23.184742 28243 net.cpp:157] Top shape: 32 256 28 28 (6422528)
I1028 13:45:23.184751 28243 net.cpp:157] Top shape: 32 256 28 28 (6422528)
I1028 13:45:23.184773 28243 net.cpp:157] Top shape: 32 256 28 28 (6422528)
I1028 13:45:23.184782 28243 net.cpp:165] Memory required for data: 876675584
I1028 13:45:23.184789 28243 layer_factory.hpp:76] Creating layer inception_3b/1x1
I1028 13:45:23.184803 28243 net.cpp:106] Creating Layer inception_3b/1x1
I1028 13:45:23.184810 28243 net.cpp:454] inception_3b/1x1 <- inception_3a/output_inception_3a/output_0_split_0
I1028 13:45:23.184823 28243 net.cpp:411] inception_3b/1x1 -> inception_3b/1x1
I1028 13:45:23.185945 28243 cudnn_conv_layer.cpp:194] Reallocating workspace storage: 20664
I1028 13:45:23.185969 28243 net.cpp:150] Setting up inception_3b/1x1
I1028 13:45:23.185982 28243 net.cpp:157] Top shape: 32 128 28 28 (3211264)
I1028 13:45:23.185991 28243 net.cpp:165] Memory required for data: 889520640
I1028 13:45:23.186003 28243 layer_factory.hpp:76] Creating layer inception_3b/prelu_1x1
I1028 13:45:23.186022 28243 net.cpp:106] Creating Layer inception_3b/prelu_1x1
I1028 13:45:23.186033 28243 net.cpp:454] inception_3b/prelu_1x1 <- inception_3b/1x1
I1028 13:45:23.186044 28243 net.cpp:397] inception_3b/prelu_1x1 -> inception_3b/1x1 (in-place)
I1028 13:45:23.186682 28243 net.cpp:150] Setting up inception_3b/prelu_1x1
I1028 13:45:23.186697 28243 net.cpp:157] Top shape: 32 128 28 28 (3211264)
I1028 13:45:23.186704 28243 net.cpp:165] Memory required for data: 902365696
I1028 13:45:23.186714 28243 layer_factory.hpp:76] Creating layer inception_3b/3x3_reduce
I1028 13:45:23.186728 28243 net.cpp:106] Creating Layer inception_3b/3x3_reduce
I1028 13:45:23.186738 28243 net.cpp:454] inception_3b/3x3_reduce <- inception_3a/output_inception_3a/output_0_split_1
I1028 13:45:23.186749 28243 net.cpp:411] inception_3b/3x3_reduce -> inception_3b/3x3_reduce
I1028 13:45:23.187907 28243 cudnn_conv_layer.cpp:194] Reallocating workspace storage: 20664
I1028 13:45:23.187932 28243 net.cpp:150] Setting up inception_3b/3x3_reduce
I1028 13:45:23.187945 28243 net.cpp:157] Top shape: 32 128 28 28 (3211264)
I1028 13:45:23.187953 28243 net.cpp:165] Memory required for data: 915210752
I1028 13:45:23.187968 28243 layer_factory.hpp:76] Creating layer inception_3b/prelu_3x3_reduce
I1028 13:45:23.187980 28243 net.cpp:106] Creating Layer inception_3b/prelu_3x3_reduce
I1028 13:45:23.187990 28243 net.cpp:454] inception_3b/prelu_3x3_reduce <- inception_3b/3x3_reduce
I1028 13:45:23.188002 28243 net.cpp:397] inception_3b/prelu_3x3_reduce -> inception_3b/3x3_reduce (in-place)
I1028 13:45:23.188138 28243 net.cpp:150] Setting up inception_3b/prelu_3x3_reduce
I1028 13:45:23.188150 28243 net.cpp:157] Top shape: 32 128 28 28 (3211264)
I1028 13:45:23.188158 28243 net.cpp:165] Memory required for data: 928055808
I1028 13:45:23.188174 28243 layer_factory.hpp:76] Creating layer inception_3b/3x3
I1028 13:45:23.188195 28243 net.cpp:106] Creating Layer inception_3b/3x3
I1028 13:45:23.188204 28243 net.cpp:454] inception_3b/3x3 <- inception_3b/3x3_reduce
I1028 13:45:23.188215 28243 net.cpp:411] inception_3b/3x3 -> inception_3b/3x3
I1028 13:45:23.190898 28243 cudnn_conv_layer.cpp:194] Reallocating workspace storage: 20664
I1028 13:45:23.190925 28243 net.cpp:150] Setting up inception_3b/3x3
I1028 13:45:23.190937 28243 net.cpp:157] Top shape: 32 192 28 28 (4816896)
I1028 13:45:23.190945 28243 net.cpp:165] Memory required for data: 947323392
I1028 13:45:23.190959 28243 layer_factory.hpp:76] Creating layer inception_3b/prelu_3x3
I1028 13:45:23.190973 28243 net.cpp:106] Creating Layer inception_3b/prelu_3x3
I1028 13:45:23.190984 28243 net.cpp:454] inception_3b/prelu_3x3 <- inception_3b/3x3
I1028 13:45:23.190996 28243 net.cpp:397] inception_3b/prelu_3x3 -> inception_3b/3x3 (in-place)
I1028 13:45:23.191629 28243 net.cpp:150] Setting up inception_3b/prelu_3x3
I1028 13:45:23.191647 28243 net.cpp:157] Top shape: 32 192 28 28 (4816896)
I1028 13:45:23.191654 28243 net.cpp:165] Memory required for data: 966590976
I1028 13:45:23.191665 28243 layer_factory.hpp:76] Creating layer inception_3b/5x5_reduce
I1028 13:45:23.191682 28243 net.cpp:106] Creating Layer inception_3b/5x5_reduce
I1028 13:45:23.191692 28243 net.cpp:454] inception_3b/5x5_reduce <- inception_3a/output_inception_3a/output_0_split_2
I1028 13:45:23.191722 28243 net.cpp:411] inception_3b/5x5_reduce -> inception_3b/5x5_reduce
I1028 13:45:23.192589 28243 cudnn_conv_layer.cpp:194] Reallocating workspace storage: 20664
I1028 13:45:23.192613 28243 net.cpp:150] Setting up inception_3b/5x5_reduce
I1028 13:45:23.192628 28243 net.cpp:157] Top shape: 32 32 28 28 (802816)
I1028 13:45:23.192637 28243 net.cpp:165] Memory required for data: 969802240
I1028 13:45:23.192651 28243 layer_factory.hpp:76] Creating layer inception_3b/prelu_5x5_reduce
I1028 13:45:23.192666 28243 net.cpp:106] Creating Layer inception_3b/prelu_5x5_reduce
I1028 13:45:23.192675 28243 net.cpp:454] inception_3b/prelu_5x5_reduce <- inception_3b/5x5_reduce
I1028 13:45:23.192687 28243 net.cpp:397] inception_3b/prelu_5x5_reduce -> inception_3b/5x5_reduce (in-place)
I1028 13:45:23.192795 28243 net.cpp:150] Setting up inception_3b/prelu_5x5_reduce
I1028 13:45:23.192807 28243 net.cpp:157] Top shape: 32 32 28 28 (802816)
I1028 13:45:23.192814 28243 net.cpp:165] Memory required for data: 973013504
I1028 13:45:23.192826 28243 layer_factory.hpp:76] Creating layer inception_3b/5x5
I1028 13:45:23.192841 28243 net.cpp:106] Creating Layer inception_3b/5x5
I1028 13:45:23.192850 28243 net.cpp:454] inception_3b/5x5 <- inception_3b/5x5_reduce
I1028 13:45:23.192862 28243 net.cpp:411] inception_3b/5x5 -> inception_3b/5x5
I1028 13:45:23.194322 28243 cudnn_conv_layer.cpp:194] Reallocating workspace storage: 20664
I1028 13:45:23.194355 28243 net.cpp:150] Setting up inception_3b/5x5
I1028 13:45:23.194370 28243 net.cpp:157] Top shape: 32 96 28 28 (2408448)
I1028 13:45:23.194380 28243 net.cpp:165] Memory required for data: 982647296
I1028 13:45:23.194406 28243 layer_factory.hpp:76] Creating layer inception_3b/prelu_5x5
I1028 13:45:23.194421 28243 net.cpp:106] Creating Layer inception_3b/prelu_5x5
I1028 13:45:23.194432 28243 net.cpp:454] inception_3b/prelu_5x5 <- inception_3b/5x5
I1028 13:45:23.194444 28243 net.cpp:397] inception_3b/prelu_5x5 -> inception_3b/5x5 (in-place)
I1028 13:45:23.194612 28243 net.cpp:150] Setting up inception_3b/prelu_5x5
I1028 13:45:23.194624 28243 net.cpp:157] Top shape: 32 96 28 28 (2408448)
I1028 13:45:23.194632 28243 net.cpp:165] Memory required for data: 992281088
I1028 13:45:23.194641 28243 layer_factory.hpp:76] Creating layer inception_3b/pool
I1028 13:45:23.194654 28243 net.cpp:106] Creating Layer inception_3b/pool
I1028 13:45:23.194664 28243 net.cpp:454] inception_3b/pool <- inception_3a/output_inception_3a/output_0_split_3
I1028 13:45:23.194674 28243 net.cpp:411] inception_3b/pool -> inception_3b/pool
I1028 13:45:23.195044 28243 net.cpp:150] Setting up inception_3b/pool
I1028 13:45:23.195058 28243 net.cpp:157] Top shape: 32 256 28 28 (6422528)
I1028 13:45:23.195065 28243 net.cpp:165] Memory required for data: 1017971200
I1028 13:45:23.195073 28243 layer_factory.hpp:76] Creating layer inception_3b/pool_proj
I1028 13:45:23.195087 28243 net.cpp:106] Creating Layer inception_3b/pool_proj
I1028 13:45:23.195096 28243 net.cpp:454] inception_3b/pool_proj <- inception_3b/pool
I1028 13:45:23.195108 28243 net.cpp:411] inception_3b/pool_proj -> inception_3b/pool_proj
I1028 13:45:23.196313 28243 cudnn_conv_layer.cpp:194] Reallocating workspace storage: 20664
I1028 13:45:23.196338 28243 net.cpp:150] Setting up inception_3b/pool_proj
I1028 13:45:23.196362 28243 net.cpp:157] Top shape: 32 64 28 28 (1605632)
I1028 13:45:23.196370 28243 net.cpp:165] Memory required for data: 1024393728
I1028 13:45:23.196385 28243 layer_factory.hpp:76] Creating layer inception_3b/prelu_pool_proj
I1028 13:45:23.196399 28243 net.cpp:106] Creating Layer inception_3b/prelu_pool_proj
I1028 13:45:23.196409 28243 net.cpp:454] inception_3b/prelu_pool_proj <- inception_3b/pool_proj
I1028 13:45:23.196421 28243 net.cpp:397] inception_3b/prelu_pool_proj -> inception_3b/pool_proj (in-place)
I1028 13:45:23.196562 28243 net.cpp:150] Setting up inception_3b/prelu_pool_proj
I1028 13:45:23.196573 28243 net.cpp:157] Top shape: 32 64 28 28 (1605632)
I1028 13:45:23.196598 28243 net.cpp:165] Memory required for data: 1030816256
I1028 13:45:23.196609 28243 layer_factory.hpp:76] Creating layer inception_3b/output
I1028 13:45:23.196624 28243 net.cpp:106] Creating Layer inception_3b/output
I1028 13:45:23.196632 28243 net.cpp:454] inception_3b/output <- inception_3b/1x1
I1028 13:45:23.196642 28243 net.cpp:454] inception_3b/output <- inception_3b/3x3
I1028 13:45:23.196651 28243 net.cpp:454] inception_3b/output <- inception_3b/5x5
I1028 13:45:23.196660 28243 net.cpp:454] inception_3b/output <- inception_3b/pool_proj
I1028 13:45:23.196671 28243 net.cpp:411] inception_3b/output -> inception_3b/output
I1028 13:45:23.196703 28243 net.cpp:150] Setting up inception_3b/output
I1028 13:45:23.196715 28243 net.cpp:157] Top shape: 32 480 28 28 (12042240)
I1028 13:45:23.196722 28243 net.cpp:165] Memory required for data: 1078985216
I1028 13:45:23.196729 28243 layer_factory.hpp:76] Creating layer pool3/3x3_s2
I1028 13:45:23.196741 28243 net.cpp:106] Creating Layer pool3/3x3_s2
I1028 13:45:23.196749 28243 net.cpp:454] pool3/3x3_s2 <- inception_3b/output
I1028 13:45:23.196764 28243 net.cpp:411] pool3/3x3_s2 -> pool3/3x3_s2
I1028 13:45:23.197154 28243 net.cpp:150] Setting up pool3/3x3_s2
I1028 13:45:23.197167 28243 net.cpp:157] Top shape: 32 480 14 14 (3010560)
I1028 13:45:23.197175 28243 net.cpp:165] Memory required for data: 1091027456
I1028 13:45:23.197183 28243 layer_factory.hpp:76] Creating layer pool3/3x3_s2_pool3/3x3_s2_0_split
I1028 13:45:23.197197 28243 net.cpp:106] Creating Layer pool3/3x3_s2_pool3/3x3_s2_0_split
I1028 13:45:23.197206 28243 net.cpp:454] pool3/3x3_s2_pool3/3x3_s2_0_split <- pool3/3x3_s2
I1028 13:45:23.197216 28243 net.cpp:411] pool3/3x3_s2_pool3/3x3_s2_0_split -> pool3/3x3_s2_pool3/3x3_s2_0_split_0
I1028 13:45:23.197228 28243 net.cpp:411] pool3/3x3_s2_pool3/3x3_s2_0_split -> pool3/3x3_s2_pool3/3x3_s2_0_split_1
I1028 13:45:23.197239 28243 net.cpp:411] pool3/3x3_s2_pool3/3x3_s2_0_split -> pool3/3x3_s2_pool3/3x3_s2_0_split_2
I1028 13:45:23.197253 28243 net.cpp:411] pool3/3x3_s2_pool3/3x3_s2_0_split -> pool3/3x3_s2_pool3/3x3_s2_0_split_3
I1028 13:45:23.197316 28243 net.cpp:150] Setting up pool3/3x3_s2_pool3/3x3_s2_0_split
I1028 13:45:23.197329 28243 net.cpp:157] Top shape: 32 480 14 14 (3010560)
I1028 13:45:23.197347 28243 net.cpp:157] Top shape: 32 480 14 14 (3010560)
I1028 13:45:23.197357 28243 net.cpp:157] Top shape: 32 480 14 14 (3010560)
I1028 13:45:23.197366 28243 net.cpp:157] Top shape: 32 480 14 14 (3010560)
I1028 13:45:23.197374 28243 net.cpp:165] Memory required for data: 1139196416
I1028 13:45:23.197381 28243 layer_factory.hpp:76] Creating layer inception_4a/1x1
I1028 13:45:23.197397 28243 net.cpp:106] Creating Layer inception_4a/1x1
I1028 13:45:23.197406 28243 net.cpp:454] inception_4a/1x1 <- pool3/3x3_s2_pool3/3x3_s2_0_split_0
I1028 13:45:23.197420 28243 net.cpp:411] inception_4a/1x1 -> inception_4a/1x1
I1028 13:45:23.199507 28243 cudnn_conv_layer.cpp:194] Reallocating workspace storage: 10080
I1028 13:45:23.199718 28243 net.cpp:150] Setting up inception_4a/1x1
I1028 13:45:23.199731 28243 net.cpp:157] Top shape: 32 192 14 14 (1204224)
I1028 13:45:23.199740 28243 net.cpp:165] Memory required for data: 1144013312
I1028 13:45:23.199758 28243 layer_factory.hpp:76] Creating layer inception_4a/prelu_1x1
I1028 13:45:23.199774 28243 net.cpp:106] Creating Layer inception_4a/prelu_1x1
I1028 13:45:23.199784 28243 net.cpp:454] inception_4a/prelu_1x1 <- inception_4a/1x1
I1028 13:45:23.199797 28243 net.cpp:397] inception_4a/prelu_1x1 -> inception_4a/1x1 (in-place)
I1028 13:45:23.200359 28243 net.cpp:150] Setting up inception_4a/prelu_1x1
I1028 13:45:23.200376 28243 net.cpp:157] Top shape: 32 192 14 14 (1204224)
I1028 13:45:23.200383 28243 net.cpp:165] Memory required for data: 1148830208
I1028 13:45:23.200394 28243 layer_factory.hpp:76] Creating layer inception_4a/3x3_reduce
I1028 13:45:23.200408 28243 net.cpp:106] Creating Layer inception_4a/3x3_reduce
I1028 13:45:23.200418 28243 net.cpp:454] inception_4a/3x3_reduce <- pool3/3x3_s2_pool3/3x3_s2_0_split_1
I1028 13:45:23.200433 28243 net.cpp:411] inception_4a/3x3_reduce -> inception_4a/3x3_reduce
I1028 13:45:23.201747 28243 cudnn_conv_layer.cpp:194] Reallocating workspace storage: 10080
I1028 13:45:23.201781 28243 net.cpp:150] Setting up inception_4a/3x3_reduce
I1028 13:45:23.201803 28243 net.cpp:157] Top shape: 32 96 14 14 (602112)
I1028 13:45:23.201812 28243 net.cpp:165] Memory required for data: 1151238656
I1028 13:45:23.201834 28243 layer_factory.hpp:76] Creating layer inception_4a/prelu_3x3_reduce
I1028 13:45:23.201850 28243 net.cpp:106] Creating Layer inception_4a/prelu_3x3_reduce
I1028 13:45:23.201861 28243 net.cpp:454] inception_4a/prelu_3x3_reduce <- inception_4a/3x3_reduce
I1028 13:45:23.201872 28243 net.cpp:397] inception_4a/prelu_3x3_reduce -> inception_4a/3x3_reduce (in-place)
I1028 13:45:23.201973 28243 net.cpp:150] Setting up inception_4a/prelu_3x3_reduce
I1028 13:45:23.201985 28243 net.cpp:157] Top shape: 32 96 14 14 (602112)
I1028 13:45:23.201993 28243 net.cpp:165] Memory required for data: 1153647104
I1028 13:45:23.202004 28243 layer_factory.hpp:76] Creating layer inception_4a/3x3
I1028 13:45:23.202024 28243 net.cpp:106] Creating Layer inception_4a/3x3
I1028 13:45:23.202035 28243 net.cpp:454] inception_4a/3x3 <- inception_4a/3x3_reduce
I1028 13:45:23.202050 28243 net.cpp:411] inception_4a/3x3 -> inception_4a/3x3
I1028 13:45:23.204335 28243 cudnn_conv_layer.cpp:194] Reallocating workspace storage: 10080
I1028 13:45:23.204368 28243 net.cpp:150] Setting up inception_4a/3x3
I1028 13:45:23.204383 28243 net.cpp:157] Top shape: 32 208 14 14 (1304576)
I1028 13:45:23.204393 28243 net.cpp:165] Memory required for data: 1158865408
I1028 13:45:23.204407 28243 layer_factory.hpp:76] Creating layer inception_4a/prelu_3x3
I1028 13:45:23.204421 28243 net.cpp:106] Creating Layer inception_4a/prelu_3x3
I1028 13:45:23.204432 28243 net.cpp:454] inception_4a/prelu_3x3 <- inception_4a/3x3
I1028 13:45:23.204444 28243 net.cpp:397] inception_4a/prelu_3x3 -> inception_4a/3x3 (in-place)
I1028 13:45:23.204562 28243 net.cpp:150] Setting up inception_4a/prelu_3x3
I1028 13:45:23.204573 28243 net.cpp:157] Top shape: 32 208 14 14 (1304576)
I1028 13:45:23.204581 28243 net.cpp:165] Memory required for data: 1164083712
I1028 13:45:23.204592 28243 layer_factory.hpp:76] Creating layer inception_4a/5x5_reduce
I1028 13:45:23.204607 28243 net.cpp:106] Creating Layer inception_4a/5x5_reduce
I1028 13:45:23.204617 28243 net.cpp:454] inception_4a/5x5_reduce <- pool3/3x3_s2_pool3/3x3_s2_0_split_2
I1028 13:45:23.204632 28243 net.cpp:411] inception_4a/5x5_reduce -> inception_4a/5x5_reduce
I1028 13:45:23.205672 28243 cudnn_conv_layer.cpp:194] Reallocating workspace storage: 10080
I1028 13:45:23.205700 28243 net.cpp:150] Setting up inception_4a/5x5_reduce
I1028 13:45:23.205713 28243 net.cpp:157] Top shape: 32 16 14 14 (100352)
I1028 13:45:23.205720 28243 net.cpp:165] Memory required for data: 1164485120
I1028 13:45:23.205734 28243 layer_factory.hpp:76] Creating layer inception_4a/prelu_5x5_reduce
I1028 13:45:23.205749 28243 net.cpp:106] Creating Layer inception_4a/prelu_5x5_reduce
I1028 13:45:23.205760 28243 net.cpp:454] inception_4a/prelu_5x5_reduce <- inception_4a/5x5_reduce
I1028 13:45:23.205773 28243 net.cpp:397] inception_4a/prelu_5x5_reduce -> inception_4a/5x5_reduce (in-place)
I1028 13:45:23.205868 28243 net.cpp:150] Setting up inception_4a/prelu_5x5_reduce
I1028 13:45:23.205879 28243 net.cpp:157] Top shape: 32 16 14 14 (100352)
I1028 13:45:23.205886 28243 net.cpp:165] Memory required for data: 1164886528
I1028 13:45:23.205898 28243 layer_factory.hpp:76] Creating layer inception_4a/5x5
I1028 13:45:23.205912 28243 net.cpp:106] Creating Layer inception_4a/5x5
I1028 13:45:23.205931 28243 net.cpp:454] inception_4a/5x5 <- inception_4a/5x5_reduce
I1028 13:45:23.205945 28243 net.cpp:411] inception_4a/5x5 -> inception_4a/5x5
I1028 13:45:23.207092 28243 cudnn_conv_layer.cpp:194] Reallocating workspace storage: 13080
I1028 13:45:23.207123 28243 net.cpp:150] Setting up inception_4a/5x5
I1028 13:45:23.207134 28243 net.cpp:157] Top shape: 32 48 14 14 (301056)
I1028 13:45:23.207141 28243 net.cpp:165] Memory required for data: 1166090752
I1028 13:45:23.207170 28243 layer_factory.hpp:76] Creating layer inception_4a/prelu_5x5
I1028 13:45:23.207185 28243 net.cpp:106] Creating Layer inception_4a/prelu_5x5
I1028 13:45:23.207195 28243 net.cpp:454] inception_4a/prelu_5x5 <- inception_4a/5x5
I1028 13:45:23.207207 28243 net.cpp:397] inception_4a/prelu_5x5 -> inception_4a/5x5 (in-place)
I1028 13:45:23.207319 28243 net.cpp:150] Setting up inception_4a/prelu_5x5
I1028 13:45:23.207340 28243 net.cpp:157] Top shape: 32 48 14 14 (301056)
I1028 13:45:23.207346 28243 net.cpp:165] Memory required for data: 1167294976
I1028 13:45:23.207357 28243 layer_factory.hpp:76] Creating layer inception_4a/pool
I1028 13:45:23.207392 28243 net.cpp:106] Creating Layer inception_4a/pool
I1028 13:45:23.207401 28243 net.cpp:454] inception_4a/pool <- pool3/3x3_s2_pool3/3x3_s2_0_split_3
I1028 13:45:23.207412 28243 net.cpp:411] inception_4a/pool -> inception_4a/pool
I1028 13:45:23.207785 28243 net.cpp:150] Setting up inception_4a/pool
I1028 13:45:23.207800 28243 net.cpp:157] Top shape: 32 480 14 14 (3010560)
I1028 13:45:23.207808 28243 net.cpp:165] Memory required for data: 1179337216
I1028 13:45:23.207816 28243 layer_factory.hpp:76] Creating layer inception_4a/pool_proj
I1028 13:45:23.207828 28243 net.cpp:106] Creating Layer inception_4a/pool_proj
I1028 13:45:23.207837 28243 net.cpp:454] inception_4a/pool_proj <- inception_4a/pool
I1028 13:45:23.207851 28243 net.cpp:411] inception_4a/pool_proj -> inception_4a/pool_proj
I1028 13:45:23.208838 28243 cudnn_conv_layer.cpp:194] Reallocating workspace storage: 10080
I1028 13:45:23.208873 28243 net.cpp:150] Setting up inception_4a/pool_proj
I1028 13:45:23.208885 28243 net.cpp:157] Top shape: 32 64 14 14 (401408)
I1028 13:45:23.208892 28243 net.cpp:165] Memory required for data: 1180942848
I1028 13:45:23.208905 28243 layer_factory.hpp:76] Creating layer inception_4a/prelu_pool_proj
I1028 13:45:23.208917 28243 net.cpp:106] Creating Layer inception_4a/prelu_pool_proj
I1028 13:45:23.208927 28243 net.cpp:454] inception_4a/prelu_pool_proj <- inception_4a/pool_proj
I1028 13:45:23.208941 28243 net.cpp:397] inception_4a/prelu_pool_proj -> inception_4a/pool_proj (in-place)
I1028 13:45:23.209048 28243 net.cpp:150] Setting up inception_4a/prelu_pool_proj
I1028 13:45:23.209059 28243 net.cpp:157] Top shape: 32 64 14 14 (401408)
I1028 13:45:23.209066 28243 net.cpp:165] Memory required for data: 1182548480
I1028 13:45:23.209076 28243 layer_factory.hpp:76] Creating layer inception_4a/output
I1028 13:45:23.209087 28243 net.cpp:106] Creating Layer inception_4a/output
I1028 13:45:23.209095 28243 net.cpp:454] inception_4a/output <- inception_4a/1x1
I1028 13:45:23.209105 28243 net.cpp:454] inception_4a/output <- inception_4a/3x3
I1028 13:45:23.209113 28243 net.cpp:454] inception_4a/output <- inception_4a/5x5
I1028 13:45:23.209122 28243 net.cpp:454] inception_4a/output <- inception_4a/pool_proj
I1028 13:45:23.209134 28243 net.cpp:411] inception_4a/output -> inception_4a/output
I1028 13:45:23.209168 28243 net.cpp:150] Setting up inception_4a/output
I1028 13:45:23.209179 28243 net.cpp:157] Top shape: 32 512 14 14 (3211264)
I1028 13:45:23.209187 28243 net.cpp:165] Memory required for data: 1195393536
I1028 13:45:23.209193 28243 layer_factory.hpp:76] Creating layer inception_4a/output_inception_4a/output_0_split
I1028 13:45:23.209204 28243 net.cpp:106] Creating Layer inception_4a/output_inception_4a/output_0_split
I1028 13:45:23.209221 28243 net.cpp:454] inception_4a/output_inception_4a/output_0_split <- inception_4a/output
I1028 13:45:23.209231 28243 net.cpp:411] inception_4a/output_inception_4a/output_0_split -> inception_4a/output_inception_4a/output_0_split_0
I1028 13:45:23.209244 28243 net.cpp:411] inception_4a/output_inception_4a/output_0_split -> inception_4a/output_inception_4a/output_0_split_1
I1028 13:45:23.209259 28243 net.cpp:411] inception_4a/output_inception_4a/output_0_split -> inception_4a/output_inception_4a/output_0_split_2
I1028 13:45:23.209275 28243 net.cpp:411] inception_4a/output_inception_4a/output_0_split -> inception_4a/output_inception_4a/output_0_split_3
I1028 13:45:23.209307 28243 net.cpp:411] inception_4a/output_inception_4a/output_0_split -> inception_4a/output_inception_4a/output_0_split_4
I1028 13:45:23.209380 28243 net.cpp:150] Setting up inception_4a/output_inception_4a/output_0_split
I1028 13:45:23.209393 28243 net.cpp:157] Top shape: 32 512 14 14 (3211264)
I1028 13:45:23.209401 28243 net.cpp:157] Top shape: 32 512 14 14 (3211264)
I1028 13:45:23.209410 28243 net.cpp:157] Top shape: 32 512 14 14 (3211264)
I1028 13:45:23.209419 28243 net.cpp:157] Top shape: 32 512 14 14 (3211264)
I1028 13:45:23.209429 28243 net.cpp:157] Top shape: 32 512 14 14 (3211264)
I1028 13:45:23.209436 28243 net.cpp:165] Memory required for data: 1259618816
I1028 13:45:23.209444 28243 layer_factory.hpp:76] Creating layer loss1/ave_pool
I1028 13:45:23.209455 28243 net.cpp:106] Creating Layer loss1/ave_pool
I1028 13:45:23.209461 28243 net.cpp:454] loss1/ave_pool <- inception_4a/output_inception_4a/output_0_split_0
I1028 13:45:23.209472 28243 net.cpp:411] loss1/ave_pool -> loss1/ave_pool
I1028 13:45:23.209827 28243 net.cpp:150] Setting up loss1/ave_pool
I1028 13:45:23.209839 28243 net.cpp:157] Top shape: 32 512 4 4 (262144)
I1028 13:45:23.209847 28243 net.cpp:165] Memory required for data: 1260667392
I1028 13:45:23.209856 28243 layer_factory.hpp:76] Creating layer loss1/conv
I1028 13:45:23.209872 28243 net.cpp:106] Creating Layer loss1/conv
I1028 13:45:23.209892 28243 net.cpp:454] loss1/conv <- loss1/ave_pool
I1028 13:45:23.209904 28243 net.cpp:411] loss1/conv -> loss1/conv
I1028 13:45:23.211302 28243 cudnn_conv_layer.cpp:194] Reallocating workspace storage: 6840
I1028 13:45:23.211344 28243 net.cpp:150] Setting up loss1/conv
I1028 13:45:23.211356 28243 net.cpp:157] Top shape: 32 128 4 4 (65536)
I1028 13:45:23.211364 28243 net.cpp:165] Memory required for data: 1260929536
I1028 13:45:23.211392 28243 layer_factory.hpp:76] Creating layer loss1/prelu_conv
I1028 13:45:23.211406 28243 net.cpp:106] Creating Layer loss1/prelu_conv
I1028 13:45:23.211426 28243 net.cpp:454] loss1/prelu_conv <- loss1/conv
I1028 13:45:23.211438 28243 net.cpp:397] loss1/prelu_conv -> loss1/conv (in-place)
I1028 13:45:23.211532 28243 net.cpp:150] Setting up loss1/prelu_conv
I1028 13:45:23.211544 28243 net.cpp:157] Top shape: 32 128 4 4 (65536)
I1028 13:45:23.211551 28243 net.cpp:165] Memory required for data: 1261191680
I1028 13:45:23.211561 28243 layer_factory.hpp:76] Creating layer loss1/fc
I1028 13:45:23.211580 28243 net.cpp:106] Creating Layer loss1/fc
I1028 13:45:23.211590 28243 net.cpp:454] loss1/fc <- loss1/conv
I1028 13:45:23.211602 28243 net.cpp:411] loss1/fc -> loss1/fc
I1028 13:45:23.227263 28243 net.cpp:150] Setting up loss1/fc
I1028 13:45:23.227351 28243 net.cpp:157] Top shape: 32 1024 (32768)
I1028 13:45:23.227361 28243 net.cpp:165] Memory required for data: 1261322752
I1028 13:45:23.227390 28243 layer_factory.hpp:76] Creating layer loss1/prelu_fc
I1028 13:45:23.227432 28243 net.cpp:106] Creating Layer loss1/prelu_fc
I1028 13:45:23.227453 28243 net.cpp:454] loss1/prelu_fc <- loss1/fc
I1028 13:45:23.227476 28243 net.cpp:397] loss1/prelu_fc -> loss1/fc (in-place)
I1028 13:45:23.227605 28243 net.cpp:150] Setting up loss1/prelu_fc
I1028 13:45:23.227617 28243 net.cpp:157] Top shape: 32 1024 (32768)
I1028 13:45:23.227623 28243 net.cpp:165] Memory required for data: 1261453824
I1028 13:45:23.227643 28243 layer_factory.hpp:76] Creating layer loss1/drop_fc
I1028 13:45:23.227669 28243 net.cpp:106] Creating Layer loss1/drop_fc
I1028 13:45:23.227677 28243 net.cpp:454] loss1/drop_fc <- loss1/fc
I1028 13:45:23.227689 28243 net.cpp:397] loss1/drop_fc -> loss1/fc (in-place)
I1028 13:45:23.227728 28243 net.cpp:150] Setting up loss1/drop_fc
I1028 13:45:23.227740 28243 net.cpp:157] Top shape: 32 1024 (32768)
I1028 13:45:23.227746 28243 net.cpp:165] Memory required for data: 1261584896
I1028 13:45:23.227756 28243 layer_factory.hpp:76] Creating layer loss1/classifier2
I1028 13:45:23.227771 28243 net.cpp:106] Creating Layer loss1/classifier2
I1028 13:45:23.227778 28243 net.cpp:454] loss1/classifier2 <- loss1/fc
I1028 13:45:23.227807 28243 net.cpp:411] loss1/classifier2 -> loss1/classifier
I1028 13:45:23.227938 28243 net.cpp:150] Setting up loss1/classifier2
I1028 13:45:23.227951 28243 net.cpp:157] Top shape: 32 2 (64)
I1028 13:45:23.227957 28243 net.cpp:165] Memory required for data: 1261585152
I1028 13:45:23.227970 28243 layer_factory.hpp:76] Creating layer loss1/loss
I1028 13:45:23.227984 28243 net.cpp:106] Creating Layer loss1/loss
I1028 13:45:23.227995 28243 net.cpp:454] loss1/loss <- loss1/classifier
I1028 13:45:23.228005 28243 net.cpp:454] loss1/loss <- label_data_1_split_0
I1028 13:45:23.228016 28243 net.cpp:411] loss1/loss -> loss1/loss1
I1028 13:45:23.228036 28243 layer_factory.hpp:76] Creating layer loss1/loss
I1028 13:45:23.228329 28243 net.cpp:150] Setting up loss1/loss
I1028 13:45:23.228343 28243 net.cpp:157] Top shape: (1)
I1028 13:45:23.228350 28243 net.cpp:160]     with loss weight 0.3
I1028 13:45:23.228380 28243 net.cpp:165] Memory required for data: 1261585156
I1028 13:45:23.228389 28243 layer_factory.hpp:76] Creating layer inception_4b/1x1
I1028 13:45:23.228409 28243 net.cpp:106] Creating Layer inception_4b/1x1
I1028 13:45:23.228420 28243 net.cpp:454] inception_4b/1x1 <- inception_4a/output_inception_4a/output_0_split_1
I1028 13:45:23.228431 28243 net.cpp:411] inception_4b/1x1 -> inception_4b/1x1
I1028 13:45:23.230170 28243 cudnn_conv_layer.cpp:194] Reallocating workspace storage: 10080
I1028 13:45:23.230231 28243 net.cpp:150] Setting up inception_4b/1x1
I1028 13:45:23.230267 28243 net.cpp:157] Top shape: 32 160 14 14 (1003520)
I1028 13:45:23.230309 28243 net.cpp:165] Memory required for data: 1265599236
I1028 13:45:23.230336 28243 layer_factory.hpp:76] Creating layer inception_4b/prelu_1x1
I1028 13:45:23.230353 28243 net.cpp:106] Creating Layer inception_4b/prelu_1x1
I1028 13:45:23.230365 28243 net.cpp:454] inception_4b/prelu_1x1 <- inception_4b/1x1
I1028 13:45:23.230381 28243 net.cpp:397] inception_4b/prelu_1x1 -> inception_4b/1x1 (in-place)
I1028 13:45:23.231063 28243 net.cpp:150] Setting up inception_4b/prelu_1x1
I1028 13:45:23.231083 28243 net.cpp:157] Top shape: 32 160 14 14 (1003520)
I1028 13:45:23.231091 28243 net.cpp:165] Memory required for data: 1269613316
I1028 13:45:23.231102 28243 layer_factory.hpp:76] Creating layer inception_4b/3x3_reduce
I1028 13:45:23.231122 28243 net.cpp:106] Creating Layer inception_4b/3x3_reduce
I1028 13:45:23.231132 28243 net.cpp:454] inception_4b/3x3_reduce <- inception_4a/output_inception_4a/output_0_split_2
I1028 13:45:23.231148 28243 net.cpp:411] inception_4b/3x3_reduce -> inception_4b/3x3_reduce
I1028 13:45:23.232769 28243 cudnn_conv_layer.cpp:194] Reallocating workspace storage: 10080
I1028 13:45:23.232807 28243 net.cpp:150] Setting up inception_4b/3x3_reduce
I1028 13:45:23.232820 28243 net.cpp:157] Top shape: 32 112 14 14 (702464)
I1028 13:45:23.232828 28243 net.cpp:165] Memory required for data: 1272423172
I1028 13:45:23.232842 28243 layer_factory.hpp:76] Creating layer inception_4b/prelu_3x3_reduce
I1028 13:45:23.232862 28243 net.cpp:106] Creating Layer inception_4b/prelu_3x3_reduce
I1028 13:45:23.232873 28243 net.cpp:454] inception_4b/prelu_3x3_reduce <- inception_4b/3x3_reduce
I1028 13:45:23.232887 28243 net.cpp:397] inception_4b/prelu_3x3_reduce -> inception_4b/3x3_reduce (in-place)
I1028 13:45:23.233021 28243 net.cpp:150] Setting up inception_4b/prelu_3x3_reduce
I1028 13:45:23.233031 28243 net.cpp:157] Top shape: 32 112 14 14 (702464)
I1028 13:45:23.233038 28243 net.cpp:165] Memory required for data: 1275233028
I1028 13:45:23.233049 28243 layer_factory.hpp:76] Creating layer inception_4b/3x3
I1028 13:45:23.233065 28243 net.cpp:106] Creating Layer inception_4b/3x3
I1028 13:45:23.233075 28243 net.cpp:454] inception_4b/3x3 <- inception_4b/3x3_reduce
I1028 13:45:23.233089 28243 net.cpp:411] inception_4b/3x3 -> inception_4b/3x3
I1028 13:45:23.235884 28243 cudnn_conv_layer.cpp:194] Reallocating workspace storage: 10080
I1028 13:45:23.235923 28243 net.cpp:150] Setting up inception_4b/3x3
I1028 13:45:23.235937 28243 net.cpp:157] Top shape: 32 224 14 14 (1404928)
I1028 13:45:23.235980 28243 net.cpp:165] Memory required for data: 1280852740
I1028 13:45:23.235996 28243 layer_factory.hpp:76] Creating layer inception_4b/prelu_3x3
I1028 13:45:23.236029 28243 net.cpp:106] Creating Layer inception_4b/prelu_3x3
I1028 13:45:23.236039 28243 net.cpp:454] inception_4b/prelu_3x3 <- inception_4b/3x3
I1028 13:45:23.236063 28243 net.cpp:397] inception_4b/prelu_3x3 -> inception_4b/3x3 (in-place)
I1028 13:45:23.236223 28243 net.cpp:150] Setting up inception_4b/prelu_3x3
I1028 13:45:23.236235 28243 net.cpp:157] Top shape: 32 224 14 14 (1404928)
I1028 13:45:23.236243 28243 net.cpp:165] Memory required for data: 1286472452
I1028 13:45:23.236263 28243 layer_factory.hpp:76] Creating layer inception_4b/5x5_reduce
I1028 13:45:23.236279 28243 net.cpp:106] Creating Layer inception_4b/5x5_reduce
I1028 13:45:23.236289 28243 net.cpp:454] inception_4b/5x5_reduce <- inception_4a/output_inception_4a/output_0_split_3
I1028 13:45:23.236323 28243 net.cpp:411] inception_4b/5x5_reduce -> inception_4b/5x5_reduce
I1028 13:45:23.237229 28243 cudnn_conv_layer.cpp:194] Reallocating workspace storage: 10080
I1028 13:45:23.237268 28243 net.cpp:150] Setting up inception_4b/5x5_reduce
I1028 13:45:23.237280 28243 net.cpp:157] Top shape: 32 24 14 14 (150528)
I1028 13:45:23.237287 28243 net.cpp:165] Memory required for data: 1287074564
I1028 13:45:23.237300 28243 layer_factory.hpp:76] Creating layer inception_4b/prelu_5x5_reduce
I1028 13:45:23.237321 28243 net.cpp:106] Creating Layer inception_4b/prelu_5x5_reduce
I1028 13:45:23.237340 28243 net.cpp:454] inception_4b/prelu_5x5_reduce <- inception_4b/5x5_reduce
I1028 13:45:23.237362 28243 net.cpp:397] inception_4b/prelu_5x5_reduce -> inception_4b/5x5_reduce (in-place)
I1028 13:45:23.237488 28243 net.cpp:150] Setting up inception_4b/prelu_5x5_reduce
I1028 13:45:23.237498 28243 net.cpp:157] Top shape: 32 24 14 14 (150528)
I1028 13:45:23.237505 28243 net.cpp:165] Memory required for data: 1287676676
I1028 13:45:23.237534 28243 layer_factory.hpp:76] Creating layer inception_4b/5x5
I1028 13:45:23.237550 28243 net.cpp:106] Creating Layer inception_4b/5x5
I1028 13:45:23.237560 28243 net.cpp:454] inception_4b/5x5 <- inception_4b/5x5_reduce
I1028 13:45:23.237574 28243 net.cpp:411] inception_4b/5x5 -> inception_4b/5x5
I1028 13:45:23.238826 28243 cudnn_conv_layer.cpp:194] Reallocating workspace storage: 13080
I1028 13:45:23.238860 28243 net.cpp:150] Setting up inception_4b/5x5
I1028 13:45:23.238873 28243 net.cpp:157] Top shape: 32 64 14 14 (401408)
I1028 13:45:23.238883 28243 net.cpp:165] Memory required for data: 1289282308
I1028 13:45:23.238895 28243 layer_factory.hpp:76] Creating layer inception_4b/prelu_5x5
I1028 13:45:23.238909 28243 net.cpp:106] Creating Layer inception_4b/prelu_5x5
I1028 13:45:23.238919 28243 net.cpp:454] inception_4b/prelu_5x5 <- inception_4b/5x5
I1028 13:45:23.238929 28243 net.cpp:397] inception_4b/prelu_5x5 -> inception_4b/5x5 (in-place)
I1028 13:45:23.239042 28243 net.cpp:150] Setting up inception_4b/prelu_5x5
I1028 13:45:23.239055 28243 net.cpp:157] Top shape: 32 64 14 14 (401408)
I1028 13:45:23.239063 28243 net.cpp:165] Memory required for data: 1290887940
I1028 13:45:23.239073 28243 layer_factory.hpp:76] Creating layer inception_4b/pool
I1028 13:45:23.239086 28243 net.cpp:106] Creating Layer inception_4b/pool
I1028 13:45:23.239096 28243 net.cpp:454] inception_4b/pool <- inception_4a/output_inception_4a/output_0_split_4
I1028 13:45:23.239106 28243 net.cpp:411] inception_4b/pool -> inception_4b/pool
I1028 13:45:23.239508 28243 net.cpp:150] Setting up inception_4b/pool
I1028 13:45:23.239523 28243 net.cpp:157] Top shape: 32 512 14 14 (3211264)
I1028 13:45:23.239531 28243 net.cpp:165] Memory required for data: 1303732996
I1028 13:45:23.239539 28243 layer_factory.hpp:76] Creating layer inception_4b/pool_proj
I1028 13:45:23.239557 28243 net.cpp:106] Creating Layer inception_4b/pool_proj
I1028 13:45:23.239568 28243 net.cpp:454] inception_4b/pool_proj <- inception_4b/pool
I1028 13:45:23.239580 28243 net.cpp:411] inception_4b/pool_proj -> inception_4b/pool_proj
I1028 13:45:23.240808 28243 cudnn_conv_layer.cpp:194] Reallocating workspace storage: 10080
I1028 13:45:23.240845 28243 net.cpp:150] Setting up inception_4b/pool_proj
I1028 13:45:23.240856 28243 net.cpp:157] Top shape: 32 64 14 14 (401408)
I1028 13:45:23.240864 28243 net.cpp:165] Memory required for data: 1305338628
I1028 13:45:23.240877 28243 layer_factory.hpp:76] Creating layer inception_4b/prelu_pool_proj
I1028 13:45:23.240893 28243 net.cpp:106] Creating Layer inception_4b/prelu_pool_proj
I1028 13:45:23.240905 28243 net.cpp:454] inception_4b/prelu_pool_proj <- inception_4b/pool_proj
I1028 13:45:23.240916 28243 net.cpp:397] inception_4b/prelu_pool_proj -> inception_4b/pool_proj (in-place)
I1028 13:45:23.241024 28243 net.cpp:150] Setting up inception_4b/prelu_pool_proj
I1028 13:45:23.241036 28243 net.cpp:157] Top shape: 32 64 14 14 (401408)
I1028 13:45:23.241044 28243 net.cpp:165] Memory required for data: 1306944260
I1028 13:45:23.241055 28243 layer_factory.hpp:76] Creating layer inception_4b/output
I1028 13:45:23.241068 28243 net.cpp:106] Creating Layer inception_4b/output
I1028 13:45:23.241078 28243 net.cpp:454] inception_4b/output <- inception_4b/1x1
I1028 13:45:23.241088 28243 net.cpp:454] inception_4b/output <- inception_4b/3x3
I1028 13:45:23.241098 28243 net.cpp:454] inception_4b/output <- inception_4b/5x5
I1028 13:45:23.241106 28243 net.cpp:454] inception_4b/output <- inception_4b/pool_proj
I1028 13:45:23.241117 28243 net.cpp:411] inception_4b/output -> inception_4b/output
I1028 13:45:23.241153 28243 net.cpp:150] Setting up inception_4b/output
I1028 13:45:23.241165 28243 net.cpp:157] Top shape: 32 512 14 14 (3211264)
I1028 13:45:23.241173 28243 net.cpp:165] Memory required for data: 1319789316
I1028 13:45:23.241180 28243 layer_factory.hpp:76] Creating layer inception_4b/output_inception_4b/output_0_split
I1028 13:45:23.241191 28243 net.cpp:106] Creating Layer inception_4b/output_inception_4b/output_0_split
I1028 13:45:23.241199 28243 net.cpp:454] inception_4b/output_inception_4b/output_0_split <- inception_4b/output
I1028 13:45:23.241212 28243 net.cpp:411] inception_4b/output_inception_4b/output_0_split -> inception_4b/output_inception_4b/output_0_split_0
I1028 13:45:23.241225 28243 net.cpp:411] inception_4b/output_inception_4b/output_0_split -> inception_4b/output_inception_4b/output_0_split_1
I1028 13:45:23.241237 28243 net.cpp:411] inception_4b/output_inception_4b/output_0_split -> inception_4b/output_inception_4b/output_0_split_2
I1028 13:45:23.241252 28243 net.cpp:411] inception_4b/output_inception_4b/output_0_split -> inception_4b/output_inception_4b/output_0_split_3
I1028 13:45:23.241320 28243 net.cpp:150] Setting up inception_4b/output_inception_4b/output_0_split
I1028 13:45:23.241331 28243 net.cpp:157] Top shape: 32 512 14 14 (3211264)
I1028 13:45:23.241340 28243 net.cpp:157] Top shape: 32 512 14 14 (3211264)
I1028 13:45:23.241350 28243 net.cpp:157] Top shape: 32 512 14 14 (3211264)
I1028 13:45:23.241359 28243 net.cpp:157] Top shape: 32 512 14 14 (3211264)
I1028 13:45:23.241366 28243 net.cpp:165] Memory required for data: 1371169540
I1028 13:45:23.241374 28243 layer_factory.hpp:76] Creating layer inception_4c/1x1
I1028 13:45:23.241385 28243 net.cpp:106] Creating Layer inception_4c/1x1
I1028 13:45:23.241394 28243 net.cpp:454] inception_4c/1x1 <- inception_4b/output_inception_4b/output_0_split_0
I1028 13:45:23.241408 28243 net.cpp:411] inception_4c/1x1 -> inception_4c/1x1
I1028 13:45:23.243140 28243 cudnn_conv_layer.cpp:194] Reallocating workspace storage: 10080
I1028 13:45:23.243175 28243 net.cpp:150] Setting up inception_4c/1x1
I1028 13:45:23.243187 28243 net.cpp:157] Top shape: 32 128 14 14 (802816)
I1028 13:45:23.243194 28243 net.cpp:165] Memory required for data: 1374380804
I1028 13:45:23.243207 28243 layer_factory.hpp:76] Creating layer inception_4c/prelu_1x1
I1028 13:45:23.243221 28243 net.cpp:106] Creating Layer inception_4c/prelu_1x1
I1028 13:45:23.243232 28243 net.cpp:454] inception_4c/prelu_1x1 <- inception_4c/1x1
I1028 13:45:23.243244 28243 net.cpp:397] inception_4c/prelu_1x1 -> inception_4c/1x1 (in-place)
I1028 13:45:23.243360 28243 net.cpp:150] Setting up inception_4c/prelu_1x1
I1028 13:45:23.243372 28243 net.cpp:157] Top shape: 32 128 14 14 (802816)
I1028 13:45:23.243379 28243 net.cpp:165] Memory required for data: 1377592068
I1028 13:45:23.243389 28243 layer_factory.hpp:76] Creating layer inception_4c/3x3_reduce
I1028 13:45:23.243404 28243 net.cpp:106] Creating Layer inception_4c/3x3_reduce
I1028 13:45:23.243414 28243 net.cpp:454] inception_4c/3x3_reduce <- inception_4b/output_inception_4b/output_0_split_1
I1028 13:45:23.243428 28243 net.cpp:411] inception_4c/3x3_reduce -> inception_4c/3x3_reduce
I1028 13:45:23.244817 28243 cudnn_conv_layer.cpp:194] Reallocating workspace storage: 10080
I1028 13:45:23.244848 28243 net.cpp:150] Setting up inception_4c/3x3_reduce
I1028 13:45:23.244859 28243 net.cpp:157] Top shape: 32 128 14 14 (802816)
I1028 13:45:23.244866 28243 net.cpp:165] Memory required for data: 1380803332
I1028 13:45:23.244879 28243 layer_factory.hpp:76] Creating layer inception_4c/prelu_3x3_reduce
I1028 13:45:23.244895 28243 net.cpp:106] Creating Layer inception_4c/prelu_3x3_reduce
I1028 13:45:23.244904 28243 net.cpp:454] inception_4c/prelu_3x3_reduce <- inception_4c/3x3_reduce
I1028 13:45:23.244918 28243 net.cpp:397] inception_4c/prelu_3x3_reduce -> inception_4c/3x3_reduce (in-place)
I1028 13:45:23.245034 28243 net.cpp:150] Setting up inception_4c/prelu_3x3_reduce
I1028 13:45:23.245046 28243 net.cpp:157] Top shape: 32 128 14 14 (802816)
I1028 13:45:23.245054 28243 net.cpp:165] Memory required for data: 1384014596
I1028 13:45:23.245064 28243 layer_factory.hpp:76] Creating layer inception_4c/3x3
I1028 13:45:23.245079 28243 net.cpp:106] Creating Layer inception_4c/3x3
I1028 13:45:23.245088 28243 net.cpp:454] inception_4c/3x3 <- inception_4c/3x3_reduce
I1028 13:45:23.245112 28243 net.cpp:411] inception_4c/3x3 -> inception_4c/3x3
I1028 13:45:23.248296 28243 cudnn_conv_layer.cpp:194] Reallocating workspace storage: 10080
I1028 13:45:23.248332 28243 net.cpp:150] Setting up inception_4c/3x3
I1028 13:45:23.248345 28243 net.cpp:157] Top shape: 32 256 14 14 (1605632)
I1028 13:45:23.248353 28243 net.cpp:165] Memory required for data: 1390437124
I1028 13:45:23.248368 28243 layer_factory.hpp:76] Creating layer inception_4c/prelu_3x3
I1028 13:45:23.248381 28243 net.cpp:106] Creating Layer inception_4c/prelu_3x3
I1028 13:45:23.248392 28243 net.cpp:454] inception_4c/prelu_3x3 <- inception_4c/3x3
I1028 13:45:23.248405 28243 net.cpp:397] inception_4c/prelu_3x3 -> inception_4c/3x3 (in-place)
I1028 13:45:23.248533 28243 net.cpp:150] Setting up inception_4c/prelu_3x3
I1028 13:45:23.248546 28243 net.cpp:157] Top shape: 32 256 14 14 (1605632)
I1028 13:45:23.248553 28243 net.cpp:165] Memory required for data: 1396859652
I1028 13:45:23.248564 28243 layer_factory.hpp:76] Creating layer inception_4c/5x5_reduce
I1028 13:45:23.248577 28243 net.cpp:106] Creating Layer inception_4c/5x5_reduce
I1028 13:45:23.248587 28243 net.cpp:454] inception_4c/5x5_reduce <- inception_4b/output_inception_4b/output_0_split_2
I1028 13:45:23.248601 28243 net.cpp:411] inception_4c/5x5_reduce -> inception_4c/5x5_reduce
I1028 13:45:23.249714 28243 cudnn_conv_layer.cpp:194] Reallocating workspace storage: 10080
I1028 13:45:23.249743 28243 net.cpp:150] Setting up inception_4c/5x5_reduce
I1028 13:45:23.249754 28243 net.cpp:157] Top shape: 32 24 14 14 (150528)
I1028 13:45:23.249763 28243 net.cpp:165] Memory required for data: 1397461764
I1028 13:45:23.249774 28243 layer_factory.hpp:76] Creating layer inception_4c/prelu_5x5_reduce
I1028 13:45:23.249789 28243 net.cpp:106] Creating Layer inception_4c/prelu_5x5_reduce
I1028 13:45:23.249799 28243 net.cpp:454] inception_4c/prelu_5x5_reduce <- inception_4c/5x5_reduce
I1028 13:45:23.249812 28243 net.cpp:397] inception_4c/prelu_5x5_reduce -> inception_4c/5x5_reduce (in-place)
I1028 13:45:23.249910 28243 net.cpp:150] Setting up inception_4c/prelu_5x5_reduce
I1028 13:45:23.249922 28243 net.cpp:157] Top shape: 32 24 14 14 (150528)
I1028 13:45:23.249928 28243 net.cpp:165] Memory required for data: 1398063876
I1028 13:45:23.249954 28243 layer_factory.hpp:76] Creating layer inception_4c/5x5
I1028 13:45:23.249974 28243 net.cpp:106] Creating Layer inception_4c/5x5
I1028 13:45:23.249982 28243 net.cpp:454] inception_4c/5x5 <- inception_4c/5x5_reduce
I1028 13:45:23.249994 28243 net.cpp:411] inception_4c/5x5 -> inception_4c/5x5
I1028 13:45:23.251683 28243 cudnn_conv_layer.cpp:194] Reallocating workspace storage: 13080
I1028 13:45:23.251718 28243 net.cpp:150] Setting up inception_4c/5x5
I1028 13:45:23.251729 28243 net.cpp:157] Top shape: 32 64 14 14 (401408)
I1028 13:45:23.251737 28243 net.cpp:165] Memory required for data: 1399669508
I1028 13:45:23.251750 28243 layer_factory.hpp:76] Creating layer inception_4c/prelu_5x5
I1028 13:45:23.251762 28243 net.cpp:106] Creating Layer inception_4c/prelu_5x5
I1028 13:45:23.251772 28243 net.cpp:454] inception_4c/prelu_5x5 <- inception_4c/5x5
I1028 13:45:23.251785 28243 net.cpp:397] inception_4c/prelu_5x5 -> inception_4c/5x5 (in-place)
I1028 13:45:23.251907 28243 net.cpp:150] Setting up inception_4c/prelu_5x5
I1028 13:45:23.251924 28243 net.cpp:157] Top shape: 32 64 14 14 (401408)
I1028 13:45:23.251932 28243 net.cpp:165] Memory required for data: 1401275140
I1028 13:45:23.251943 28243 layer_factory.hpp:76] Creating layer inception_4c/pool
I1028 13:45:23.251962 28243 net.cpp:106] Creating Layer inception_4c/pool
I1028 13:45:23.251973 28243 net.cpp:454] inception_4c/pool <- inception_4b/output_inception_4b/output_0_split_3
I1028 13:45:23.251987 28243 net.cpp:411] inception_4c/pool -> inception_4c/pool
I1028 13:45:23.252188 28243 net.cpp:150] Setting up inception_4c/pool
I1028 13:45:23.252202 28243 net.cpp:157] Top shape: 32 512 14 14 (3211264)
I1028 13:45:23.252218 28243 net.cpp:165] Memory required for data: 1414120196
I1028 13:45:23.252225 28243 layer_factory.hpp:76] Creating layer inception_4c/pool_proj
I1028 13:45:23.252238 28243 net.cpp:106] Creating Layer inception_4c/pool_proj
I1028 13:45:23.252249 28243 net.cpp:454] inception_4c/pool_proj <- inception_4c/pool
I1028 13:45:23.252276 28243 net.cpp:411] inception_4c/pool_proj -> inception_4c/pool_proj
I1028 13:45:23.253672 28243 cudnn_conv_layer.cpp:194] Reallocating workspace storage: 10080
I1028 13:45:23.253706 28243 net.cpp:150] Setting up inception_4c/pool_proj
I1028 13:45:23.253718 28243 net.cpp:157] Top shape: 32 64 14 14 (401408)
I1028 13:45:23.253726 28243 net.cpp:165] Memory required for data: 1415725828
I1028 13:45:23.253738 28243 layer_factory.hpp:76] Creating layer inception_4c/prelu_pool_proj
I1028 13:45:23.253753 28243 net.cpp:106] Creating Layer inception_4c/prelu_pool_proj
I1028 13:45:23.253765 28243 net.cpp:454] inception_4c/prelu_pool_proj <- inception_4c/pool_proj
I1028 13:45:23.253777 28243 net.cpp:397] inception_4c/prelu_pool_proj -> inception_4c/pool_proj (in-place)
I1028 13:45:23.253885 28243 net.cpp:150] Setting up inception_4c/prelu_pool_proj
I1028 13:45:23.253895 28243 net.cpp:157] Top shape: 32 64 14 14 (401408)
I1028 13:45:23.253903 28243 net.cpp:165] Memory required for data: 1417331460
I1028 13:45:23.253913 28243 layer_factory.hpp:76] Creating layer inception_4c/output
I1028 13:45:23.253926 28243 net.cpp:106] Creating Layer inception_4c/output
I1028 13:45:23.253934 28243 net.cpp:454] inception_4c/output <- inception_4c/1x1
I1028 13:45:23.253944 28243 net.cpp:454] inception_4c/output <- inception_4c/3x3
I1028 13:45:23.253952 28243 net.cpp:454] inception_4c/output <- inception_4c/5x5
I1028 13:45:23.253962 28243 net.cpp:454] inception_4c/output <- inception_4c/pool_proj
I1028 13:45:23.253973 28243 net.cpp:411] inception_4c/output -> inception_4c/output
I1028 13:45:23.254006 28243 net.cpp:150] Setting up inception_4c/output
I1028 13:45:23.254036 28243 net.cpp:157] Top shape: 32 512 14 14 (3211264)
I1028 13:45:23.254045 28243 net.cpp:165] Memory required for data: 1430176516
I1028 13:45:23.254053 28243 layer_factory.hpp:76] Creating layer inception_4c/output_inception_4c/output_0_split
I1028 13:45:23.254066 28243 net.cpp:106] Creating Layer inception_4c/output_inception_4c/output_0_split
I1028 13:45:23.254101 28243 net.cpp:454] inception_4c/output_inception_4c/output_0_split <- inception_4c/output
I1028 13:45:23.254115 28243 net.cpp:411] inception_4c/output_inception_4c/output_0_split -> inception_4c/output_inception_4c/output_0_split_0
I1028 13:45:23.254128 28243 net.cpp:411] inception_4c/output_inception_4c/output_0_split -> inception_4c/output_inception_4c/output_0_split_1
I1028 13:45:23.254142 28243 net.cpp:411] inception_4c/output_inception_4c/output_0_split -> inception_4c/output_inception_4c/output_0_split_2
I1028 13:45:23.254154 28243 net.cpp:411] inception_4c/output_inception_4c/output_0_split -> inception_4c/output_inception_4c/output_0_split_3
I1028 13:45:23.254225 28243 net.cpp:150] Setting up inception_4c/output_inception_4c/output_0_split
I1028 13:45:23.254236 28243 net.cpp:157] Top shape: 32 512 14 14 (3211264)
I1028 13:45:23.254246 28243 net.cpp:157] Top shape: 32 512 14 14 (3211264)
I1028 13:45:23.254256 28243 net.cpp:157] Top shape: 32 512 14 14 (3211264)
I1028 13:45:23.254264 28243 net.cpp:157] Top shape: 32 512 14 14 (3211264)
I1028 13:45:23.254271 28243 net.cpp:165] Memory required for data: 1481556740
I1028 13:45:23.254279 28243 layer_factory.hpp:76] Creating layer inception_4d/1x1
I1028 13:45:23.254292 28243 net.cpp:106] Creating Layer inception_4d/1x1
I1028 13:45:23.254299 28243 net.cpp:454] inception_4d/1x1 <- inception_4c/output_inception_4c/output_0_split_0
I1028 13:45:23.254313 28243 net.cpp:411] inception_4d/1x1 -> inception_4d/1x1
I1028 13:45:23.255686 28243 cudnn_conv_layer.cpp:194] Reallocating workspace storage: 10080
I1028 13:45:23.255715 28243 net.cpp:150] Setting up inception_4d/1x1
I1028 13:45:23.255728 28243 net.cpp:157] Top shape: 32 112 14 14 (702464)
I1028 13:45:23.255735 28243 net.cpp:165] Memory required for data: 1484366596
I1028 13:45:23.255748 28243 layer_factory.hpp:76] Creating layer inception_4d/prelu_1x1
I1028 13:45:23.255762 28243 net.cpp:106] Creating Layer inception_4d/prelu_1x1
I1028 13:45:23.255772 28243 net.cpp:454] inception_4d/prelu_1x1 <- inception_4d/1x1
I1028 13:45:23.255786 28243 net.cpp:397] inception_4d/prelu_1x1 -> inception_4d/1x1 (in-place)
I1028 13:45:23.255934 28243 net.cpp:150] Setting up inception_4d/prelu_1x1
I1028 13:45:23.255945 28243 net.cpp:157] Top shape: 32 112 14 14 (702464)
I1028 13:45:23.255954 28243 net.cpp:165] Memory required for data: 1487176452
I1028 13:45:23.255971 28243 layer_factory.hpp:76] Creating layer inception_4d/3x3_reduce
I1028 13:45:23.255986 28243 net.cpp:106] Creating Layer inception_4d/3x3_reduce
I1028 13:45:23.255996 28243 net.cpp:454] inception_4d/3x3_reduce <- inception_4c/output_inception_4c/output_0_split_1
I1028 13:45:23.256012 28243 net.cpp:411] inception_4d/3x3_reduce -> inception_4d/3x3_reduce
I1028 13:45:23.257318 28243 cudnn_conv_layer.cpp:194] Reallocating workspace storage: 10080
I1028 13:45:23.257352 28243 net.cpp:150] Setting up inception_4d/3x3_reduce
I1028 13:45:23.257365 28243 net.cpp:157] Top shape: 32 144 14 14 (903168)
I1028 13:45:23.257374 28243 net.cpp:165] Memory required for data: 1490789124
I1028 13:45:23.257393 28243 layer_factory.hpp:76] Creating layer inception_4d/prelu_3x3_reduce
I1028 13:45:23.257408 28243 net.cpp:106] Creating Layer inception_4d/prelu_3x3_reduce
I1028 13:45:23.257419 28243 net.cpp:454] inception_4d/prelu_3x3_reduce <- inception_4d/3x3_reduce
I1028 13:45:23.257433 28243 net.cpp:397] inception_4d/prelu_3x3_reduce -> inception_4d/3x3_reduce (in-place)
I1028 13:45:23.257553 28243 net.cpp:150] Setting up inception_4d/prelu_3x3_reduce
I1028 13:45:23.257565 28243 net.cpp:157] Top shape: 32 144 14 14 (903168)
I1028 13:45:23.257572 28243 net.cpp:165] Memory required for data: 1494401796
I1028 13:45:23.257582 28243 layer_factory.hpp:76] Creating layer inception_4d/3x3
I1028 13:45:23.257598 28243 net.cpp:106] Creating Layer inception_4d/3x3
I1028 13:45:23.257608 28243 net.cpp:454] inception_4d/3x3 <- inception_4d/3x3_reduce
I1028 13:45:23.257621 28243 net.cpp:411] inception_4d/3x3 -> inception_4d/3x3
I1028 13:45:23.261708 28243 cudnn_conv_layer.cpp:194] Reallocating workspace storage: 10080
I1028 13:45:23.261790 28243 net.cpp:150] Setting up inception_4d/3x3
I1028 13:45:23.261809 28243 net.cpp:157] Top shape: 32 288 14 14 (1806336)
I1028 13:45:23.261819 28243 net.cpp:165] Memory required for data: 1501627140
I1028 13:45:23.261837 28243 layer_factory.hpp:76] Creating layer inception_4d/prelu_3x3
I1028 13:45:23.261857 28243 net.cpp:106] Creating Layer inception_4d/prelu_3x3
I1028 13:45:23.261869 28243 net.cpp:454] inception_4d/prelu_3x3 <- inception_4d/3x3
I1028 13:45:23.261884 28243 net.cpp:397] inception_4d/prelu_3x3 -> inception_4d/3x3 (in-place)
I1028 13:45:23.262066 28243 net.cpp:150] Setting up inception_4d/prelu_3x3
I1028 13:45:23.262081 28243 net.cpp:157] Top shape: 32 288 14 14 (1806336)
I1028 13:45:23.262089 28243 net.cpp:165] Memory required for data: 1508852484
I1028 13:45:23.262100 28243 layer_factory.hpp:76] Creating layer inception_4d/5x5_reduce
I1028 13:45:23.262120 28243 net.cpp:106] Creating Layer inception_4d/5x5_reduce
I1028 13:45:23.262130 28243 net.cpp:454] inception_4d/5x5_reduce <- inception_4c/output_inception_4c/output_0_split_2
I1028 13:45:23.262142 28243 net.cpp:411] inception_4d/5x5_reduce -> inception_4d/5x5_reduce
I1028 13:45:23.263339 28243 cudnn_conv_layer.cpp:194] Reallocating workspace storage: 10080
I1028 13:45:23.263391 28243 net.cpp:150] Setting up inception_4d/5x5_reduce
I1028 13:45:23.263404 28243 net.cpp:157] Top shape: 32 32 14 14 (200704)
I1028 13:45:23.263411 28243 net.cpp:165] Memory required for data: 1509655300
I1028 13:45:23.263447 28243 layer_factory.hpp:76] Creating layer inception_4d/prelu_5x5_reduce
I1028 13:45:23.263463 28243 net.cpp:106] Creating Layer inception_4d/prelu_5x5_reduce
I1028 13:45:23.263474 28243 net.cpp:454] inception_4d/prelu_5x5_reduce <- inception_4d/5x5_reduce
I1028 13:45:23.263506 28243 net.cpp:397] inception_4d/prelu_5x5_reduce -> inception_4d/5x5_reduce (in-place)
I1028 13:45:23.263629 28243 net.cpp:150] Setting up inception_4d/prelu_5x5_reduce
I1028 13:45:23.263640 28243 net.cpp:157] Top shape: 32 32 14 14 (200704)
I1028 13:45:23.263648 28243 net.cpp:165] Memory required for data: 1510458116
I1028 13:45:23.263667 28243 layer_factory.hpp:76] Creating layer inception_4d/5x5
I1028 13:45:23.263684 28243 net.cpp:106] Creating Layer inception_4d/5x5
I1028 13:45:23.263694 28243 net.cpp:454] inception_4d/5x5 <- inception_4d/5x5_reduce
I1028 13:45:23.263726 28243 net.cpp:411] inception_4d/5x5 -> inception_4d/5x5
I1028 13:45:23.265578 28243 cudnn_conv_layer.cpp:194] Reallocating workspace storage: 13080
I1028 13:45:23.265619 28243 net.cpp:150] Setting up inception_4d/5x5
I1028 13:45:23.265632 28243 net.cpp:157] Top shape: 32 64 14 14 (401408)
I1028 13:45:23.265640 28243 net.cpp:165] Memory required for data: 1512063748
I1028 13:45:23.265655 28243 layer_factory.hpp:76] Creating layer inception_4d/prelu_5x5
I1028 13:45:23.265671 28243 net.cpp:106] Creating Layer inception_4d/prelu_5x5
I1028 13:45:23.265681 28243 net.cpp:454] inception_4d/prelu_5x5 <- inception_4d/5x5
I1028 13:45:23.265693 28243 net.cpp:397] inception_4d/prelu_5x5 -> inception_4d/5x5 (in-place)
I1028 13:45:23.265828 28243 net.cpp:150] Setting up inception_4d/prelu_5x5
I1028 13:45:23.265840 28243 net.cpp:157] Top shape: 32 64 14 14 (401408)
I1028 13:45:23.265847 28243 net.cpp:165] Memory required for data: 1513669380
I1028 13:45:23.265858 28243 layer_factory.hpp:76] Creating layer inception_4d/pool
I1028 13:45:23.265872 28243 net.cpp:106] Creating Layer inception_4d/pool
I1028 13:45:23.265882 28243 net.cpp:454] inception_4d/pool <- inception_4c/output_inception_4c/output_0_split_3
I1028 13:45:23.265894 28243 net.cpp:411] inception_4d/pool -> inception_4d/pool
I1028 13:45:23.266103 28243 net.cpp:150] Setting up inception_4d/pool
I1028 13:45:23.266116 28243 net.cpp:157] Top shape: 32 512 14 14 (3211264)
I1028 13:45:23.266124 28243 net.cpp:165] Memory required for data: 1526514436
I1028 13:45:23.266132 28243 layer_factory.hpp:76] Creating layer inception_4d/pool_proj
I1028 13:45:23.266149 28243 net.cpp:106] Creating Layer inception_4d/pool_proj
I1028 13:45:23.266160 28243 net.cpp:454] inception_4d/pool_proj <- inception_4d/pool
I1028 13:45:23.266186 28243 net.cpp:411] inception_4d/pool_proj -> inception_4d/pool_proj
I1028 13:45:23.267433 28243 cudnn_conv_layer.cpp:194] Reallocating workspace storage: 10080
I1028 13:45:23.267472 28243 net.cpp:150] Setting up inception_4d/pool_proj
I1028 13:45:23.267484 28243 net.cpp:157] Top shape: 32 64 14 14 (401408)
I1028 13:45:23.267493 28243 net.cpp:165] Memory required for data: 1528120068
I1028 13:45:23.267506 28243 layer_factory.hpp:76] Creating layer inception_4d/prelu_pool_proj
I1028 13:45:23.267520 28243 net.cpp:106] Creating Layer inception_4d/prelu_pool_proj
I1028 13:45:23.267531 28243 net.cpp:454] inception_4d/prelu_pool_proj <- inception_4d/pool_proj
I1028 13:45:23.267546 28243 net.cpp:397] inception_4d/prelu_pool_proj -> inception_4d/pool_proj (in-place)
I1028 13:45:23.267663 28243 net.cpp:150] Setting up inception_4d/prelu_pool_proj
I1028 13:45:23.267674 28243 net.cpp:157] Top shape: 32 64 14 14 (401408)
I1028 13:45:23.267683 28243 net.cpp:165] Memory required for data: 1529725700
I1028 13:45:23.267693 28243 layer_factory.hpp:76] Creating layer inception_4d/output
I1028 13:45:23.267704 28243 net.cpp:106] Creating Layer inception_4d/output
I1028 13:45:23.267712 28243 net.cpp:454] inception_4d/output <- inception_4d/1x1
I1028 13:45:23.267722 28243 net.cpp:454] inception_4d/output <- inception_4d/3x3
I1028 13:45:23.267731 28243 net.cpp:454] inception_4d/output <- inception_4d/5x5
I1028 13:45:23.267741 28243 net.cpp:454] inception_4d/output <- inception_4d/pool_proj
I1028 13:45:23.267751 28243 net.cpp:411] inception_4d/output -> inception_4d/output
I1028 13:45:23.267789 28243 net.cpp:150] Setting up inception_4d/output
I1028 13:45:23.267801 28243 net.cpp:157] Top shape: 32 528 14 14 (3311616)
I1028 13:45:23.267807 28243 net.cpp:165] Memory required for data: 1542972164
I1028 13:45:23.267814 28243 layer_factory.hpp:76] Creating layer inception_4d/output_inception_4d/output_0_split
I1028 13:45:23.267828 28243 net.cpp:106] Creating Layer inception_4d/output_inception_4d/output_0_split
I1028 13:45:23.267838 28243 net.cpp:454] inception_4d/output_inception_4d/output_0_split <- inception_4d/output
I1028 13:45:23.267848 28243 net.cpp:411] inception_4d/output_inception_4d/output_0_split -> inception_4d/output_inception_4d/output_0_split_0
I1028 13:45:23.267860 28243 net.cpp:411] inception_4d/output_inception_4d/output_0_split -> inception_4d/output_inception_4d/output_0_split_1
I1028 13:45:23.267875 28243 net.cpp:411] inception_4d/output_inception_4d/output_0_split -> inception_4d/output_inception_4d/output_0_split_2
I1028 13:45:23.267889 28243 net.cpp:411] inception_4d/output_inception_4d/output_0_split -> inception_4d/output_inception_4d/output_0_split_3
I1028 13:45:23.267904 28243 net.cpp:411] inception_4d/output_inception_4d/output_0_split -> inception_4d/output_inception_4d/output_0_split_4
I1028 13:45:23.267988 28243 net.cpp:150] Setting up inception_4d/output_inception_4d/output_0_split
I1028 13:45:23.267999 28243 net.cpp:157] Top shape: 32 528 14 14 (3311616)
I1028 13:45:23.268009 28243 net.cpp:157] Top shape: 32 528 14 14 (3311616)
I1028 13:45:23.268018 28243 net.cpp:157] Top shape: 32 528 14 14 (3311616)
I1028 13:45:23.268028 28243 net.cpp:157] Top shape: 32 528 14 14 (3311616)
I1028 13:45:23.268036 28243 net.cpp:157] Top shape: 32 528 14 14 (3311616)
I1028 13:45:23.268044 28243 net.cpp:165] Memory required for data: 1609204484
I1028 13:45:23.268051 28243 layer_factory.hpp:76] Creating layer loss2/ave_pool
I1028 13:45:23.268062 28243 net.cpp:106] Creating Layer loss2/ave_pool
I1028 13:45:23.268070 28243 net.cpp:454] loss2/ave_pool <- inception_4d/output_inception_4d/output_0_split_0
I1028 13:45:23.268082 28243 net.cpp:411] loss2/ave_pool -> loss2/ave_pool
I1028 13:45:23.268461 28243 net.cpp:150] Setting up loss2/ave_pool
I1028 13:45:23.268474 28243 net.cpp:157] Top shape: 32 528 4 4 (270336)
I1028 13:45:23.268481 28243 net.cpp:165] Memory required for data: 1610285828
I1028 13:45:23.268499 28243 layer_factory.hpp:76] Creating layer loss2/conv
I1028 13:45:23.268528 28243 net.cpp:106] Creating Layer loss2/conv
I1028 13:45:23.268550 28243 net.cpp:454] loss2/conv <- loss2/ave_pool
I1028 13:45:23.268566 28243 net.cpp:411] loss2/conv -> loss2/conv
I1028 13:45:23.270128 28243 cudnn_conv_layer.cpp:194] Reallocating workspace storage: 6840
I1028 13:45:23.270162 28243 net.cpp:150] Setting up loss2/conv
I1028 13:45:23.270175 28243 net.cpp:157] Top shape: 32 128 4 4 (65536)
I1028 13:45:23.270184 28243 net.cpp:165] Memory required for data: 1610547972
I1028 13:45:23.270197 28243 layer_factory.hpp:76] Creating layer loss2/prelu_conv
I1028 13:45:23.270213 28243 net.cpp:106] Creating Layer loss2/prelu_conv
I1028 13:45:23.270223 28243 net.cpp:454] loss2/prelu_conv <- loss2/conv
I1028 13:45:23.270237 28243 net.cpp:397] loss2/prelu_conv -> loss2/conv (in-place)
I1028 13:45:23.270344 28243 net.cpp:150] Setting up loss2/prelu_conv
I1028 13:45:23.270355 28243 net.cpp:157] Top shape: 32 128 4 4 (65536)
I1028 13:45:23.270362 28243 net.cpp:165] Memory required for data: 1610810116
I1028 13:45:23.270373 28243 layer_factory.hpp:76] Creating layer loss2/fc
I1028 13:45:23.270388 28243 net.cpp:106] Creating Layer loss2/fc
I1028 13:45:23.270398 28243 net.cpp:454] loss2/fc <- loss2/conv
I1028 13:45:23.270409 28243 net.cpp:411] loss2/fc -> loss2/fc
I1028 13:45:23.285702 28243 net.cpp:150] Setting up loss2/fc
I1028 13:45:23.285740 28243 net.cpp:157] Top shape: 32 1024 (32768)
I1028 13:45:23.285748 28243 net.cpp:165] Memory required for data: 1610941188
I1028 13:45:23.285789 28243 layer_factory.hpp:76] Creating layer loss2/prelu_fc
I1028 13:45:23.285810 28243 net.cpp:106] Creating Layer loss2/prelu_fc
I1028 13:45:23.285822 28243 net.cpp:454] loss2/prelu_fc <- loss2/fc
I1028 13:45:23.285835 28243 net.cpp:397] loss2/prelu_fc -> loss2/fc (in-place)
I1028 13:45:23.285948 28243 net.cpp:150] Setting up loss2/prelu_fc
I1028 13:45:23.285959 28243 net.cpp:157] Top shape: 32 1024 (32768)
I1028 13:45:23.285966 28243 net.cpp:165] Memory required for data: 1611072260
I1028 13:45:23.285977 28243 layer_factory.hpp:76] Creating layer loss2/drop_fc
I1028 13:45:23.285989 28243 net.cpp:106] Creating Layer loss2/drop_fc
I1028 13:45:23.285997 28243 net.cpp:454] loss2/drop_fc <- loss2/fc
I1028 13:45:23.286010 28243 net.cpp:397] loss2/drop_fc -> loss2/fc (in-place)
I1028 13:45:23.286051 28243 net.cpp:150] Setting up loss2/drop_fc
I1028 13:45:23.286062 28243 net.cpp:157] Top shape: 32 1024 (32768)
I1028 13:45:23.286068 28243 net.cpp:165] Memory required for data: 1611203332
I1028 13:45:23.286077 28243 layer_factory.hpp:76] Creating layer loss2/classifier2
I1028 13:45:23.286090 28243 net.cpp:106] Creating Layer loss2/classifier2
I1028 13:45:23.286098 28243 net.cpp:454] loss2/classifier2 <- loss2/fc
I1028 13:45:23.286111 28243 net.cpp:411] loss2/classifier2 -> loss2/classifier
I1028 13:45:23.286242 28243 net.cpp:150] Setting up loss2/classifier2
I1028 13:45:23.286253 28243 net.cpp:157] Top shape: 32 2 (64)
I1028 13:45:23.286260 28243 net.cpp:165] Memory required for data: 1611203588
I1028 13:45:23.286273 28243 layer_factory.hpp:76] Creating layer loss2/loss
I1028 13:45:23.286284 28243 net.cpp:106] Creating Layer loss2/loss
I1028 13:45:23.286293 28243 net.cpp:454] loss2/loss <- loss2/classifier
I1028 13:45:23.286301 28243 net.cpp:454] loss2/loss <- label_data_1_split_1
I1028 13:45:23.286312 28243 net.cpp:411] loss2/loss -> loss2/loss1
I1028 13:45:23.286327 28243 layer_factory.hpp:76] Creating layer loss2/loss
I1028 13:45:23.286634 28243 net.cpp:150] Setting up loss2/loss
I1028 13:45:23.286646 28243 net.cpp:157] Top shape: (1)
I1028 13:45:23.286654 28243 net.cpp:160]     with loss weight 0.3
I1028 13:45:23.286679 28243 net.cpp:165] Memory required for data: 1611203592
I1028 13:45:23.286689 28243 layer_factory.hpp:76] Creating layer inception_4e/1x1
I1028 13:45:23.286705 28243 net.cpp:106] Creating Layer inception_4e/1x1
I1028 13:45:23.286715 28243 net.cpp:454] inception_4e/1x1 <- inception_4d/output_inception_4d/output_0_split_1
I1028 13:45:23.286727 28243 net.cpp:411] inception_4e/1x1 -> inception_4e/1x1
I1028 13:45:23.289335 28243 cudnn_conv_layer.cpp:194] Reallocating workspace storage: 10080
I1028 13:45:23.289438 28243 net.cpp:150] Setting up inception_4e/1x1
I1028 13:45:23.289454 28243 net.cpp:157] Top shape: 32 256 14 14 (1605632)
I1028 13:45:23.289465 28243 net.cpp:165] Memory required for data: 1617626120
I1028 13:45:23.289482 28243 layer_factory.hpp:76] Creating layer inception_4e/prelu_1x1
I1028 13:45:23.289500 28243 net.cpp:106] Creating Layer inception_4e/prelu_1x1
I1028 13:45:23.289510 28243 net.cpp:454] inception_4e/prelu_1x1 <- inception_4e/1x1
I1028 13:45:23.289523 28243 net.cpp:397] inception_4e/prelu_1x1 -> inception_4e/1x1 (in-place)
I1028 13:45:23.289679 28243 net.cpp:150] Setting up inception_4e/prelu_1x1
I1028 13:45:23.289690 28243 net.cpp:157] Top shape: 32 256 14 14 (1605632)
I1028 13:45:23.289697 28243 net.cpp:165] Memory required for data: 1624048648
I1028 13:45:23.289708 28243 layer_factory.hpp:76] Creating layer inception_4e/3x3_reduce
I1028 13:45:23.289726 28243 net.cpp:106] Creating Layer inception_4e/3x3_reduce
I1028 13:45:23.289734 28243 net.cpp:454] inception_4e/3x3_reduce <- inception_4d/output_inception_4d/output_0_split_2
I1028 13:45:23.289751 28243 net.cpp:411] inception_4e/3x3_reduce -> inception_4e/3x3_reduce
I1028 13:45:23.291486 28243 cudnn_conv_layer.cpp:194] Reallocating workspace storage: 10080
I1028 13:45:23.291529 28243 net.cpp:150] Setting up inception_4e/3x3_reduce
I1028 13:45:23.291543 28243 net.cpp:157] Top shape: 32 160 14 14 (1003520)
I1028 13:45:23.291551 28243 net.cpp:165] Memory required for data: 1628062728
I1028 13:45:23.291568 28243 layer_factory.hpp:76] Creating layer inception_4e/prelu_3x3_reduce
I1028 13:45:23.291584 28243 net.cpp:106] Creating Layer inception_4e/prelu_3x3_reduce
I1028 13:45:23.291594 28243 net.cpp:454] inception_4e/prelu_3x3_reduce <- inception_4e/3x3_reduce
I1028 13:45:23.291610 28243 net.cpp:397] inception_4e/prelu_3x3_reduce -> inception_4e/3x3_reduce (in-place)
I1028 13:45:23.291746 28243 net.cpp:150] Setting up inception_4e/prelu_3x3_reduce
I1028 13:45:23.291759 28243 net.cpp:157] Top shape: 32 160 14 14 (1003520)
I1028 13:45:23.291765 28243 net.cpp:165] Memory required for data: 1632076808
I1028 13:45:23.291776 28243 layer_factory.hpp:76] Creating layer inception_4e/3x3
I1028 13:45:23.291793 28243 net.cpp:106] Creating Layer inception_4e/3x3
I1028 13:45:23.291820 28243 net.cpp:454] inception_4e/3x3 <- inception_4e/3x3_reduce
I1028 13:45:23.291832 28243 net.cpp:411] inception_4e/3x3 -> inception_4e/3x3
I1028 13:45:23.296355 28243 cudnn_conv_layer.cpp:194] Reallocating workspace storage: 10080
I1028 13:45:23.296419 28243 net.cpp:150] Setting up inception_4e/3x3
I1028 13:45:23.296437 28243 net.cpp:157] Top shape: 32 320 14 14 (2007040)
I1028 13:45:23.296455 28243 net.cpp:165] Memory required for data: 1640104968
I1028 13:45:23.296480 28243 layer_factory.hpp:76] Creating layer inception_4e/prelu_3x3
I1028 13:45:23.296500 28243 net.cpp:106] Creating Layer inception_4e/prelu_3x3
I1028 13:45:23.296522 28243 net.cpp:454] inception_4e/prelu_3x3 <- inception_4e/3x3
I1028 13:45:23.296535 28243 net.cpp:397] inception_4e/prelu_3x3 -> inception_4e/3x3 (in-place)
I1028 13:45:23.296710 28243 net.cpp:150] Setting up inception_4e/prelu_3x3
I1028 13:45:23.296725 28243 net.cpp:157] Top shape: 32 320 14 14 (2007040)
I1028 13:45:23.296731 28243 net.cpp:165] Memory required for data: 1648133128
I1028 13:45:23.296741 28243 layer_factory.hpp:76] Creating layer inception_4e/5x5_reduce
I1028 13:45:23.296768 28243 net.cpp:106] Creating Layer inception_4e/5x5_reduce
I1028 13:45:23.296778 28243 net.cpp:454] inception_4e/5x5_reduce <- inception_4d/output_inception_4d/output_0_split_3
I1028 13:45:23.296793 28243 net.cpp:411] inception_4e/5x5_reduce -> inception_4e/5x5_reduce
I1028 13:45:23.298028 28243 cudnn_conv_layer.cpp:194] Reallocating workspace storage: 10080
I1028 13:45:23.298079 28243 net.cpp:150] Setting up inception_4e/5x5_reduce
I1028 13:45:23.298102 28243 net.cpp:157] Top shape: 32 32 14 14 (200704)
I1028 13:45:23.298120 28243 net.cpp:165] Memory required for data: 1648935944
I1028 13:45:23.298152 28243 layer_factory.hpp:76] Creating layer inception_4e/prelu_5x5_reduce
I1028 13:45:23.298171 28243 net.cpp:106] Creating Layer inception_4e/prelu_5x5_reduce
I1028 13:45:23.298182 28243 net.cpp:454] inception_4e/prelu_5x5_reduce <- inception_4e/5x5_reduce
I1028 13:45:23.298193 28243 net.cpp:397] inception_4e/prelu_5x5_reduce -> inception_4e/5x5_reduce (in-place)
I1028 13:45:23.298321 28243 net.cpp:150] Setting up inception_4e/prelu_5x5_reduce
I1028 13:45:23.298332 28243 net.cpp:157] Top shape: 32 32 14 14 (200704)
I1028 13:45:23.298339 28243 net.cpp:165] Memory required for data: 1649738760
I1028 13:45:23.298351 28243 layer_factory.hpp:76] Creating layer inception_4e/5x5
I1028 13:45:23.298382 28243 net.cpp:106] Creating Layer inception_4e/5x5
I1028 13:45:23.298389 28243 net.cpp:454] inception_4e/5x5 <- inception_4e/5x5_reduce
I1028 13:45:23.298403 28243 net.cpp:411] inception_4e/5x5 -> inception_4e/5x5
I1028 13:45:23.300676 28243 cudnn_conv_layer.cpp:194] Reallocating workspace storage: 13080
I1028 13:45:23.300742 28243 net.cpp:150] Setting up inception_4e/5x5
I1028 13:45:23.300760 28243 net.cpp:157] Top shape: 32 128 14 14 (802816)
I1028 13:45:23.300771 28243 net.cpp:165] Memory required for data: 1652950024
I1028 13:45:23.300787 28243 layer_factory.hpp:76] Creating layer inception_4e/prelu_5x5
I1028 13:45:23.300817 28243 net.cpp:106] Creating Layer inception_4e/prelu_5x5
I1028 13:45:23.300827 28243 net.cpp:454] inception_4e/prelu_5x5 <- inception_4e/5x5
I1028 13:45:23.300843 28243 net.cpp:397] inception_4e/prelu_5x5 -> inception_4e/5x5 (in-place)
I1028 13:45:23.300981 28243 net.cpp:150] Setting up inception_4e/prelu_5x5
I1028 13:45:23.300995 28243 net.cpp:157] Top shape: 32 128 14 14 (802816)
I1028 13:45:23.301003 28243 net.cpp:165] Memory required for data: 1656161288
I1028 13:45:23.301014 28243 layer_factory.hpp:76] Creating layer inception_4e/pool
I1028 13:45:23.301028 28243 net.cpp:106] Creating Layer inception_4e/pool
I1028 13:45:23.301036 28243 net.cpp:454] inception_4e/pool <- inception_4d/output_inception_4d/output_0_split_4
I1028 13:45:23.301048 28243 net.cpp:411] inception_4e/pool -> inception_4e/pool
I1028 13:45:23.301465 28243 net.cpp:150] Setting up inception_4e/pool
I1028 13:45:23.301483 28243 net.cpp:157] Top shape: 32 528 14 14 (3311616)
I1028 13:45:23.301491 28243 net.cpp:165] Memory required for data: 1669407752
I1028 13:45:23.301499 28243 layer_factory.hpp:76] Creating layer inception_4e/pool_proj
I1028 13:45:23.301517 28243 net.cpp:106] Creating Layer inception_4e/pool_proj
I1028 13:45:23.301527 28243 net.cpp:454] inception_4e/pool_proj <- inception_4e/pool
I1028 13:45:23.301539 28243 net.cpp:411] inception_4e/pool_proj -> inception_4e/pool_proj
I1028 13:45:23.302908 28243 cudnn_conv_layer.cpp:194] Reallocating workspace storage: 10080
I1028 13:45:23.302963 28243 net.cpp:150] Setting up inception_4e/pool_proj
I1028 13:45:23.302978 28243 net.cpp:157] Top shape: 32 128 14 14 (802816)
I1028 13:45:23.302985 28243 net.cpp:165] Memory required for data: 1672619016
I1028 13:45:23.303000 28243 layer_factory.hpp:76] Creating layer inception_4e/prelu_pool_proj
I1028 13:45:23.303019 28243 net.cpp:106] Creating Layer inception_4e/prelu_pool_proj
I1028 13:45:23.303030 28243 net.cpp:454] inception_4e/prelu_pool_proj <- inception_4e/pool_proj
I1028 13:45:23.303046 28243 net.cpp:397] inception_4e/prelu_pool_proj -> inception_4e/pool_proj (in-place)
I1028 13:45:23.303184 28243 net.cpp:150] Setting up inception_4e/prelu_pool_proj
I1028 13:45:23.303199 28243 net.cpp:157] Top shape: 32 128 14 14 (802816)
I1028 13:45:23.303206 28243 net.cpp:165] Memory required for data: 1675830280
I1028 13:45:23.303218 28243 layer_factory.hpp:76] Creating layer inception_4e/output
I1028 13:45:23.303233 28243 net.cpp:106] Creating Layer inception_4e/output
I1028 13:45:23.303244 28243 net.cpp:454] inception_4e/output <- inception_4e/1x1
I1028 13:45:23.303254 28243 net.cpp:454] inception_4e/output <- inception_4e/3x3
I1028 13:45:23.303263 28243 net.cpp:454] inception_4e/output <- inception_4e/5x5
I1028 13:45:23.303272 28243 net.cpp:454] inception_4e/output <- inception_4e/pool_proj
I1028 13:45:23.303302 28243 net.cpp:411] inception_4e/output -> inception_4e/output
I1028 13:45:23.303345 28243 net.cpp:150] Setting up inception_4e/output
I1028 13:45:23.303356 28243 net.cpp:157] Top shape: 32 832 14 14 (5218304)
I1028 13:45:23.303364 28243 net.cpp:165] Memory required for data: 1696703496
I1028 13:45:23.303371 28243 layer_factory.hpp:76] Creating layer pool4/3x3_s2
I1028 13:45:23.303385 28243 net.cpp:106] Creating Layer pool4/3x3_s2
I1028 13:45:23.303395 28243 net.cpp:454] pool4/3x3_s2 <- inception_4e/output
I1028 13:45:23.303407 28243 net.cpp:411] pool4/3x3_s2 -> pool4/3x3_s2
I1028 13:45:23.303822 28243 net.cpp:150] Setting up pool4/3x3_s2
I1028 13:45:23.303836 28243 net.cpp:157] Top shape: 32 832 7 7 (1304576)
I1028 13:45:23.303844 28243 net.cpp:165] Memory required for data: 1701921800
I1028 13:45:23.303853 28243 layer_factory.hpp:76] Creating layer pool4/3x3_s2_pool4/3x3_s2_0_split
I1028 13:45:23.303870 28243 net.cpp:106] Creating Layer pool4/3x3_s2_pool4/3x3_s2_0_split
I1028 13:45:23.303881 28243 net.cpp:454] pool4/3x3_s2_pool4/3x3_s2_0_split <- pool4/3x3_s2
I1028 13:45:23.303894 28243 net.cpp:411] pool4/3x3_s2_pool4/3x3_s2_0_split -> pool4/3x3_s2_pool4/3x3_s2_0_split_0
I1028 13:45:23.303907 28243 net.cpp:411] pool4/3x3_s2_pool4/3x3_s2_0_split -> pool4/3x3_s2_pool4/3x3_s2_0_split_1
I1028 13:45:23.303921 28243 net.cpp:411] pool4/3x3_s2_pool4/3x3_s2_0_split -> pool4/3x3_s2_pool4/3x3_s2_0_split_2
I1028 13:45:23.303936 28243 net.cpp:411] pool4/3x3_s2_pool4/3x3_s2_0_split -> pool4/3x3_s2_pool4/3x3_s2_0_split_3
I1028 13:45:23.304013 28243 net.cpp:150] Setting up pool4/3x3_s2_pool4/3x3_s2_0_split
I1028 13:45:23.304024 28243 net.cpp:157] Top shape: 32 832 7 7 (1304576)
I1028 13:45:23.304034 28243 net.cpp:157] Top shape: 32 832 7 7 (1304576)
I1028 13:45:23.304044 28243 net.cpp:157] Top shape: 32 832 7 7 (1304576)
I1028 13:45:23.304052 28243 net.cpp:157] Top shape: 32 832 7 7 (1304576)
I1028 13:45:23.304059 28243 net.cpp:165] Memory required for data: 1722795016
I1028 13:45:23.304067 28243 layer_factory.hpp:76] Creating layer inception_5a/1x1
I1028 13:45:23.304083 28243 net.cpp:106] Creating Layer inception_5a/1x1
I1028 13:45:23.304093 28243 net.cpp:454] inception_5a/1x1 <- pool4/3x3_s2_pool4/3x3_s2_0_split_0
I1028 13:45:23.304107 28243 net.cpp:411] inception_5a/1x1 -> inception_5a/1x1
I1028 13:45:23.306970 28243 cudnn_conv_layer.cpp:194] Reallocating workspace storage: 7428
I1028 13:45:23.307015 28243 net.cpp:150] Setting up inception_5a/1x1
I1028 13:45:23.307029 28243 net.cpp:157] Top shape: 32 256 7 7 (401408)
I1028 13:45:23.307036 28243 net.cpp:165] Memory required for data: 1724400648
I1028 13:45:23.307050 28243 layer_factory.hpp:76] Creating layer inception_5a/prelu_1x1
I1028 13:45:23.307065 28243 net.cpp:106] Creating Layer inception_5a/prelu_1x1
I1028 13:45:23.307076 28243 net.cpp:454] inception_5a/prelu_1x1 <- inception_5a/1x1
I1028 13:45:23.307090 28243 net.cpp:397] inception_5a/prelu_1x1 -> inception_5a/1x1 (in-place)
I1028 13:45:23.307675 28243 net.cpp:150] Setting up inception_5a/prelu_1x1
I1028 13:45:23.307690 28243 net.cpp:157] Top shape: 32 256 7 7 (401408)
I1028 13:45:23.307698 28243 net.cpp:165] Memory required for data: 1726006280
I1028 13:45:23.307708 28243 layer_factory.hpp:76] Creating layer inception_5a/3x3_reduce
I1028 13:45:23.307725 28243 net.cpp:106] Creating Layer inception_5a/3x3_reduce
I1028 13:45:23.307736 28243 net.cpp:454] inception_5a/3x3_reduce <- pool4/3x3_s2_pool4/3x3_s2_0_split_1
I1028 13:45:23.307760 28243 net.cpp:411] inception_5a/3x3_reduce -> inception_5a/3x3_reduce
I1028 13:45:23.310093 28243 cudnn_conv_layer.cpp:194] Reallocating workspace storage: 7428
I1028 13:45:23.310134 28243 net.cpp:150] Setting up inception_5a/3x3_reduce
I1028 13:45:23.310147 28243 net.cpp:157] Top shape: 32 160 7 7 (250880)
I1028 13:45:23.310153 28243 net.cpp:165] Memory required for data: 1727009800
I1028 13:45:23.310166 28243 layer_factory.hpp:76] Creating layer inception_5a/prelu_3x3_reduce
I1028 13:45:23.310179 28243 net.cpp:106] Creating Layer inception_5a/prelu_3x3_reduce
I1028 13:45:23.310200 28243 net.cpp:454] inception_5a/prelu_3x3_reduce <- inception_5a/3x3_reduce
I1028 13:45:23.310214 28243 net.cpp:397] inception_5a/prelu_3x3_reduce -> inception_5a/3x3_reduce (in-place)
I1028 13:45:23.310323 28243 net.cpp:150] Setting up inception_5a/prelu_3x3_reduce
I1028 13:45:23.310334 28243 net.cpp:157] Top shape: 32 160 7 7 (250880)
I1028 13:45:23.310341 28243 net.cpp:165] Memory required for data: 1728013320
I1028 13:45:23.310351 28243 layer_factory.hpp:76] Creating layer inception_5a/3x3
I1028 13:45:23.310366 28243 net.cpp:106] Creating Layer inception_5a/3x3
I1028 13:45:23.310376 28243 net.cpp:454] inception_5a/3x3 <- inception_5a/3x3_reduce
I1028 13:45:23.310389 28243 net.cpp:411] inception_5a/3x3 -> inception_5a/3x3
I1028 13:45:23.314486 28243 cudnn_conv_layer.cpp:194] Reallocating workspace storage: 7788
I1028 13:45:23.314525 28243 net.cpp:150] Setting up inception_5a/3x3
I1028 13:45:23.314538 28243 net.cpp:157] Top shape: 32 320 7 7 (501760)
I1028 13:45:23.314546 28243 net.cpp:165] Memory required for data: 1730020360
I1028 13:45:23.314559 28243 layer_factory.hpp:76] Creating layer inception_5a/prelu_3x3
I1028 13:45:23.314574 28243 net.cpp:106] Creating Layer inception_5a/prelu_3x3
I1028 13:45:23.314586 28243 net.cpp:454] inception_5a/prelu_3x3 <- inception_5a/3x3
I1028 13:45:23.314597 28243 net.cpp:397] inception_5a/prelu_3x3 -> inception_5a/3x3 (in-place)
I1028 13:45:23.314726 28243 net.cpp:150] Setting up inception_5a/prelu_3x3
I1028 13:45:23.314738 28243 net.cpp:157] Top shape: 32 320 7 7 (501760)
I1028 13:45:23.314745 28243 net.cpp:165] Memory required for data: 1732027400
I1028 13:45:23.314756 28243 layer_factory.hpp:76] Creating layer inception_5a/5x5_reduce
I1028 13:45:23.314771 28243 net.cpp:106] Creating Layer inception_5a/5x5_reduce
I1028 13:45:23.314821 28243 net.cpp:454] inception_5a/5x5_reduce <- pool4/3x3_s2_pool4/3x3_s2_0_split_2
I1028 13:45:23.314837 28243 net.cpp:411] inception_5a/5x5_reduce -> inception_5a/5x5_reduce
I1028 13:45:23.316084 28243 cudnn_conv_layer.cpp:194] Reallocating workspace storage: 7428
I1028 13:45:23.316118 28243 net.cpp:150] Setting up inception_5a/5x5_reduce
I1028 13:45:23.316129 28243 net.cpp:157] Top shape: 32 32 7 7 (50176)
I1028 13:45:23.316138 28243 net.cpp:165] Memory required for data: 1732228104
I1028 13:45:23.316149 28243 layer_factory.hpp:76] Creating layer inception_5a/prelu_5x5_reduce
I1028 13:45:23.316165 28243 net.cpp:106] Creating Layer inception_5a/prelu_5x5_reduce
I1028 13:45:23.316176 28243 net.cpp:454] inception_5a/prelu_5x5_reduce <- inception_5a/5x5_reduce
I1028 13:45:23.316190 28243 net.cpp:397] inception_5a/prelu_5x5_reduce -> inception_5a/5x5_reduce (in-place)
I1028 13:45:23.316301 28243 net.cpp:150] Setting up inception_5a/prelu_5x5_reduce
I1028 13:45:23.316313 28243 net.cpp:157] Top shape: 32 32 7 7 (50176)
I1028 13:45:23.316320 28243 net.cpp:165] Memory required for data: 1732428808
I1028 13:45:23.316330 28243 layer_factory.hpp:76] Creating layer inception_5a/5x5
I1028 13:45:23.316345 28243 net.cpp:106] Creating Layer inception_5a/5x5
I1028 13:45:23.316355 28243 net.cpp:454] inception_5a/5x5 <- inception_5a/5x5_reduce
I1028 13:45:23.316370 28243 net.cpp:411] inception_5a/5x5 -> inception_5a/5x5
I1028 13:45:23.318002 28243 cudnn_conv_layer.cpp:194] Reallocating workspace storage: 9804
I1028 13:45:23.318055 28243 net.cpp:150] Setting up inception_5a/5x5
I1028 13:45:23.318068 28243 net.cpp:157] Top shape: 32 128 7 7 (200704)
I1028 13:45:23.318076 28243 net.cpp:165] Memory required for data: 1733231624
I1028 13:45:23.318097 28243 layer_factory.hpp:76] Creating layer inception_5a/prelu_5x5
I1028 13:45:23.318119 28243 net.cpp:106] Creating Layer inception_5a/prelu_5x5
I1028 13:45:23.318128 28243 net.cpp:454] inception_5a/prelu_5x5 <- inception_5a/5x5
I1028 13:45:23.318156 28243 net.cpp:397] inception_5a/prelu_5x5 -> inception_5a/5x5 (in-place)
I1028 13:45:23.318271 28243 net.cpp:150] Setting up inception_5a/prelu_5x5
I1028 13:45:23.318282 28243 net.cpp:157] Top shape: 32 128 7 7 (200704)
I1028 13:45:23.318308 28243 net.cpp:165] Memory required for data: 1734034440
I1028 13:45:23.318325 28243 layer_factory.hpp:76] Creating layer inception_5a/pool
I1028 13:45:23.318347 28243 net.cpp:106] Creating Layer inception_5a/pool
I1028 13:45:23.318358 28243 net.cpp:454] inception_5a/pool <- pool4/3x3_s2_pool4/3x3_s2_0_split_3
I1028 13:45:23.318369 28243 net.cpp:411] inception_5a/pool -> inception_5a/pool
I1028 13:45:23.318562 28243 net.cpp:150] Setting up inception_5a/pool
I1028 13:45:23.318573 28243 net.cpp:157] Top shape: 32 832 7 7 (1304576)
I1028 13:45:23.318581 28243 net.cpp:165] Memory required for data: 1739252744
I1028 13:45:23.318589 28243 layer_factory.hpp:76] Creating layer inception_5a/pool_proj
I1028 13:45:23.318603 28243 net.cpp:106] Creating Layer inception_5a/pool_proj
I1028 13:45:23.318613 28243 net.cpp:454] inception_5a/pool_proj <- inception_5a/pool
I1028 13:45:23.318626 28243 net.cpp:411] inception_5a/pool_proj -> inception_5a/pool_proj
I1028 13:45:23.321084 28243 cudnn_conv_layer.cpp:194] Reallocating workspace storage: 7428
I1028 13:45:23.321131 28243 net.cpp:150] Setting up inception_5a/pool_proj
I1028 13:45:23.321146 28243 net.cpp:157] Top shape: 32 128 7 7 (200704)
I1028 13:45:23.321153 28243 net.cpp:165] Memory required for data: 1740055560
I1028 13:45:23.321167 28243 layer_factory.hpp:76] Creating layer inception_5a/prelu_pool_proj
I1028 13:45:23.321188 28243 net.cpp:106] Creating Layer inception_5a/prelu_pool_proj
I1028 13:45:23.321199 28243 net.cpp:454] inception_5a/prelu_pool_proj <- inception_5a/pool_proj
I1028 13:45:23.321215 28243 net.cpp:397] inception_5a/prelu_pool_proj -> inception_5a/pool_proj (in-place)
I1028 13:45:23.321328 28243 net.cpp:150] Setting up inception_5a/prelu_pool_proj
I1028 13:45:23.321341 28243 net.cpp:157] Top shape: 32 128 7 7 (200704)
I1028 13:45:23.321348 28243 net.cpp:165] Memory required for data: 1740858376
I1028 13:45:23.321359 28243 layer_factory.hpp:76] Creating layer inception_5a/output
I1028 13:45:23.321372 28243 net.cpp:106] Creating Layer inception_5a/output
I1028 13:45:23.321382 28243 net.cpp:454] inception_5a/output <- inception_5a/1x1
I1028 13:45:23.321391 28243 net.cpp:454] inception_5a/output <- inception_5a/3x3
I1028 13:45:23.321400 28243 net.cpp:454] inception_5a/output <- inception_5a/5x5
I1028 13:45:23.321409 28243 net.cpp:454] inception_5a/output <- inception_5a/pool_proj
I1028 13:45:23.321423 28243 net.cpp:411] inception_5a/output -> inception_5a/output
I1028 13:45:23.321462 28243 net.cpp:150] Setting up inception_5a/output
I1028 13:45:23.321475 28243 net.cpp:157] Top shape: 32 832 7 7 (1304576)
I1028 13:45:23.321481 28243 net.cpp:165] Memory required for data: 1746076680
I1028 13:45:23.321490 28243 layer_factory.hpp:76] Creating layer inception_5a/output_inception_5a/output_0_split
I1028 13:45:23.321501 28243 net.cpp:106] Creating Layer inception_5a/output_inception_5a/output_0_split
I1028 13:45:23.321509 28243 net.cpp:454] inception_5a/output_inception_5a/output_0_split <- inception_5a/output
I1028 13:45:23.321521 28243 net.cpp:411] inception_5a/output_inception_5a/output_0_split -> inception_5a/output_inception_5a/output_0_split_0
I1028 13:45:23.321533 28243 net.cpp:411] inception_5a/output_inception_5a/output_0_split -> inception_5a/output_inception_5a/output_0_split_1
I1028 13:45:23.321549 28243 net.cpp:411] inception_5a/output_inception_5a/output_0_split -> inception_5a/output_inception_5a/output_0_split_2
I1028 13:45:23.321564 28243 net.cpp:411] inception_5a/output_inception_5a/output_0_split -> inception_5a/output_inception_5a/output_0_split_3
I1028 13:45:23.321645 28243 net.cpp:150] Setting up inception_5a/output_inception_5a/output_0_split
I1028 13:45:23.321657 28243 net.cpp:157] Top shape: 32 832 7 7 (1304576)
I1028 13:45:23.321667 28243 net.cpp:157] Top shape: 32 832 7 7 (1304576)
I1028 13:45:23.321676 28243 net.cpp:157] Top shape: 32 832 7 7 (1304576)
I1028 13:45:23.321686 28243 net.cpp:157] Top shape: 32 832 7 7 (1304576)
I1028 13:45:23.321693 28243 net.cpp:165] Memory required for data: 1766949896
I1028 13:45:23.321717 28243 layer_factory.hpp:76] Creating layer inception_5b/1x1
I1028 13:45:23.321734 28243 net.cpp:106] Creating Layer inception_5b/1x1
I1028 13:45:23.321743 28243 net.cpp:454] inception_5b/1x1 <- inception_5a/output_inception_5a/output_0_split_0
I1028 13:45:23.321755 28243 net.cpp:411] inception_5b/1x1 -> inception_5b/1x1
I1028 13:45:23.325570 28243 cudnn_conv_layer.cpp:194] Reallocating workspace storage: 7428
I1028 13:45:23.325628 28243 net.cpp:150] Setting up inception_5b/1x1
I1028 13:45:23.325644 28243 net.cpp:157] Top shape: 32 384 7 7 (602112)
I1028 13:45:23.325652 28243 net.cpp:165] Memory required for data: 1769358344
I1028 13:45:23.325669 28243 layer_factory.hpp:76] Creating layer inception_5b/prelu_1x1
I1028 13:45:23.325685 28243 net.cpp:106] Creating Layer inception_5b/prelu_1x1
I1028 13:45:23.325696 28243 net.cpp:454] inception_5b/prelu_1x1 <- inception_5b/1x1
I1028 13:45:23.325711 28243 net.cpp:397] inception_5b/prelu_1x1 -> inception_5b/1x1 (in-place)
I1028 13:45:23.326378 28243 net.cpp:150] Setting up inception_5b/prelu_1x1
I1028 13:45:23.326396 28243 net.cpp:157] Top shape: 32 384 7 7 (602112)
I1028 13:45:23.326403 28243 net.cpp:165] Memory required for data: 1771766792
I1028 13:45:23.326416 28243 layer_factory.hpp:76] Creating layer inception_5b/3x3_reduce
I1028 13:45:23.326432 28243 net.cpp:106] Creating Layer inception_5b/3x3_reduce
I1028 13:45:23.326444 28243 net.cpp:454] inception_5b/3x3_reduce <- inception_5a/output_inception_5a/output_0_split_1
I1028 13:45:23.326460 28243 net.cpp:411] inception_5b/3x3_reduce -> inception_5b/3x3_reduce
I1028 13:45:23.329135 28243 cudnn_conv_layer.cpp:194] Reallocating workspace storage: 7428
I1028 13:45:23.329180 28243 net.cpp:150] Setting up inception_5b/3x3_reduce
I1028 13:45:23.329192 28243 net.cpp:157] Top shape: 32 192 7 7 (301056)
I1028 13:45:23.329200 28243 net.cpp:165] Memory required for data: 1772971016
I1028 13:45:23.329216 28243 layer_factory.hpp:76] Creating layer inception_5b/prelu_3x3_reduce
I1028 13:45:23.329236 28243 net.cpp:106] Creating Layer inception_5b/prelu_3x3_reduce
I1028 13:45:23.329246 28243 net.cpp:454] inception_5b/prelu_3x3_reduce <- inception_5b/3x3_reduce
I1028 13:45:23.329259 28243 net.cpp:397] inception_5b/prelu_3x3_reduce -> inception_5b/3x3_reduce (in-place)
I1028 13:45:23.329437 28243 net.cpp:150] Setting up inception_5b/prelu_3x3_reduce
I1028 13:45:23.329448 28243 net.cpp:157] Top shape: 32 192 7 7 (301056)
I1028 13:45:23.329457 28243 net.cpp:165] Memory required for data: 1774175240
I1028 13:45:23.329466 28243 layer_factory.hpp:76] Creating layer inception_5b/3x3
I1028 13:45:23.329483 28243 net.cpp:106] Creating Layer inception_5b/3x3
I1028 13:45:23.329493 28243 net.cpp:454] inception_5b/3x3 <- inception_5b/3x3_reduce
I1028 13:45:23.329506 28243 net.cpp:411] inception_5b/3x3 -> inception_5b/3x3
I1028 13:45:23.335500 28243 cudnn_conv_layer.cpp:194] Reallocating workspace storage: 7788
I1028 13:45:23.335554 28243 net.cpp:150] Setting up inception_5b/3x3
I1028 13:45:23.335577 28243 net.cpp:157] Top shape: 32 384 7 7 (602112)
I1028 13:45:23.335585 28243 net.cpp:165] Memory required for data: 1776583688
I1028 13:45:23.335611 28243 layer_factory.hpp:76] Creating layer inception_5b/prelu_3x3
I1028 13:45:23.335629 28243 net.cpp:106] Creating Layer inception_5b/prelu_3x3
I1028 13:45:23.335724 28243 net.cpp:454] inception_5b/prelu_3x3 <- inception_5b/3x3
I1028 13:45:23.335741 28243 net.cpp:397] inception_5b/prelu_3x3 -> inception_5b/3x3 (in-place)
I1028 13:45:23.335877 28243 net.cpp:150] Setting up inception_5b/prelu_3x3
I1028 13:45:23.335894 28243 net.cpp:157] Top shape: 32 384 7 7 (602112)
I1028 13:45:23.335901 28243 net.cpp:165] Memory required for data: 1778992136
I1028 13:45:23.335912 28243 layer_factory.hpp:76] Creating layer inception_5b/5x5_reduce
I1028 13:45:23.335927 28243 net.cpp:106] Creating Layer inception_5b/5x5_reduce
I1028 13:45:23.335937 28243 net.cpp:454] inception_5b/5x5_reduce <- inception_5a/output_inception_5a/output_0_split_2
I1028 13:45:23.335952 28243 net.cpp:411] inception_5b/5x5_reduce -> inception_5b/5x5_reduce
I1028 13:45:23.337190 28243 cudnn_conv_layer.cpp:194] Reallocating workspace storage: 7428
I1028 13:45:23.337231 28243 net.cpp:150] Setting up inception_5b/5x5_reduce
I1028 13:45:23.337246 28243 net.cpp:157] Top shape: 32 48 7 7 (75264)
I1028 13:45:23.337255 28243 net.cpp:165] Memory required for data: 1779293192
I1028 13:45:23.337268 28243 layer_factory.hpp:76] Creating layer inception_5b/prelu_5x5_reduce
I1028 13:45:23.337283 28243 net.cpp:106] Creating Layer inception_5b/prelu_5x5_reduce
I1028 13:45:23.337294 28243 net.cpp:454] inception_5b/prelu_5x5_reduce <- inception_5b/5x5_reduce
I1028 13:45:23.337307 28243 net.cpp:397] inception_5b/prelu_5x5_reduce -> inception_5b/5x5_reduce (in-place)
I1028 13:45:23.337437 28243 net.cpp:150] Setting up inception_5b/prelu_5x5_reduce
I1028 13:45:23.337450 28243 net.cpp:157] Top shape: 32 48 7 7 (75264)
I1028 13:45:23.337456 28243 net.cpp:165] Memory required for data: 1779594248
I1028 13:45:23.337467 28243 layer_factory.hpp:76] Creating layer inception_5b/5x5
I1028 13:45:23.337481 28243 net.cpp:106] Creating Layer inception_5b/5x5
I1028 13:45:23.337491 28243 net.cpp:454] inception_5b/5x5 <- inception_5b/5x5_reduce
I1028 13:45:23.337505 28243 net.cpp:411] inception_5b/5x5 -> inception_5b/5x5
I1028 13:45:23.339609 28243 cudnn_conv_layer.cpp:194] Reallocating workspace storage: 9804
I1028 13:45:23.339649 28243 net.cpp:150] Setting up inception_5b/5x5
I1028 13:45:23.339663 28243 net.cpp:157] Top shape: 32 128 7 7 (200704)
I1028 13:45:23.339679 28243 net.cpp:165] Memory required for data: 1780397064
I1028 13:45:23.339692 28243 layer_factory.hpp:76] Creating layer inception_5b/prelu_5x5
I1028 13:45:23.339707 28243 net.cpp:106] Creating Layer inception_5b/prelu_5x5
I1028 13:45:23.339717 28243 net.cpp:454] inception_5b/prelu_5x5 <- inception_5b/5x5
I1028 13:45:23.339731 28243 net.cpp:397] inception_5b/prelu_5x5 -> inception_5b/5x5 (in-place)
I1028 13:45:23.339850 28243 net.cpp:150] Setting up inception_5b/prelu_5x5
I1028 13:45:23.339861 28243 net.cpp:157] Top shape: 32 128 7 7 (200704)
I1028 13:45:23.339869 28243 net.cpp:165] Memory required for data: 1781199880
I1028 13:45:23.339879 28243 layer_factory.hpp:76] Creating layer inception_5b/pool
I1028 13:45:23.339893 28243 net.cpp:106] Creating Layer inception_5b/pool
I1028 13:45:23.339902 28243 net.cpp:454] inception_5b/pool <- inception_5a/output_inception_5a/output_0_split_3
I1028 13:45:23.339915 28243 net.cpp:411] inception_5b/pool -> inception_5b/pool
I1028 13:45:23.340299 28243 net.cpp:150] Setting up inception_5b/pool
I1028 13:45:23.340312 28243 net.cpp:157] Top shape: 32 832 7 7 (1304576)
I1028 13:45:23.340320 28243 net.cpp:165] Memory required for data: 1786418184
I1028 13:45:23.340327 28243 layer_factory.hpp:76] Creating layer inception_5b/pool_proj
I1028 13:45:23.340345 28243 net.cpp:106] Creating Layer inception_5b/pool_proj
I1028 13:45:23.340366 28243 net.cpp:454] inception_5b/pool_proj <- inception_5b/pool
I1028 13:45:23.340378 28243 net.cpp:411] inception_5b/pool_proj -> inception_5b/pool_proj
I1028 13:45:23.342536 28243 cudnn_conv_layer.cpp:194] Reallocating workspace storage: 7428
I1028 13:45:23.342572 28243 net.cpp:150] Setting up inception_5b/pool_proj
I1028 13:45:23.342584 28243 net.cpp:157] Top shape: 32 128 7 7 (200704)
I1028 13:45:23.342592 28243 net.cpp:165] Memory required for data: 1787221000
I1028 13:45:23.342613 28243 layer_factory.hpp:76] Creating layer inception_5b/prelu_pool_proj
I1028 13:45:23.342638 28243 net.cpp:106] Creating Layer inception_5b/prelu_pool_proj
I1028 13:45:23.342648 28243 net.cpp:454] inception_5b/prelu_pool_proj <- inception_5b/pool_proj
I1028 13:45:23.342660 28243 net.cpp:397] inception_5b/prelu_pool_proj -> inception_5b/pool_proj (in-place)
I1028 13:45:23.342773 28243 net.cpp:150] Setting up inception_5b/prelu_pool_proj
I1028 13:45:23.342784 28243 net.cpp:157] Top shape: 32 128 7 7 (200704)
I1028 13:45:23.342792 28243 net.cpp:165] Memory required for data: 1788023816
I1028 13:45:23.342803 28243 layer_factory.hpp:76] Creating layer inception_5b/output
I1028 13:45:23.342814 28243 net.cpp:106] Creating Layer inception_5b/output
I1028 13:45:23.342836 28243 net.cpp:454] inception_5b/output <- inception_5b/1x1
I1028 13:45:23.342846 28243 net.cpp:454] inception_5b/output <- inception_5b/3x3
I1028 13:45:23.342855 28243 net.cpp:454] inception_5b/output <- inception_5b/5x5
I1028 13:45:23.342864 28243 net.cpp:454] inception_5b/output <- inception_5b/pool_proj
I1028 13:45:23.342876 28243 net.cpp:411] inception_5b/output -> inception_5b/output
I1028 13:45:23.342916 28243 net.cpp:150] Setting up inception_5b/output
I1028 13:45:23.342931 28243 net.cpp:157] Top shape: 32 1024 7 7 (1605632)
I1028 13:45:23.342938 28243 net.cpp:165] Memory required for data: 1794446344
I1028 13:45:23.342946 28243 layer_factory.hpp:76] Creating layer pool5/7x7_s1
I1028 13:45:23.342957 28243 net.cpp:106] Creating Layer pool5/7x7_s1
I1028 13:45:23.342965 28243 net.cpp:454] pool5/7x7_s1 <- inception_5b/output
I1028 13:45:23.342977 28243 net.cpp:411] pool5/7x7_s1 -> pool5/7x7_s1
I1028 13:45:23.343152 28243 net.cpp:150] Setting up pool5/7x7_s1
I1028 13:45:23.343165 28243 net.cpp:157] Top shape: 32 1024 1 1 (32768)
I1028 13:45:23.343173 28243 net.cpp:165] Memory required for data: 1794577416
I1028 13:45:23.343180 28243 layer_factory.hpp:76] Creating layer pool5/drop_7x7_s1
I1028 13:45:23.343192 28243 net.cpp:106] Creating Layer pool5/drop_7x7_s1
I1028 13:45:23.343199 28243 net.cpp:454] pool5/drop_7x7_s1 <- pool5/7x7_s1
I1028 13:45:23.343212 28243 net.cpp:397] pool5/drop_7x7_s1 -> pool5/7x7_s1 (in-place)
I1028 13:45:23.343251 28243 net.cpp:150] Setting up pool5/drop_7x7_s1
I1028 13:45:23.343262 28243 net.cpp:157] Top shape: 32 1024 1 1 (32768)
I1028 13:45:23.343269 28243 net.cpp:165] Memory required for data: 1794708488
I1028 13:45:23.343277 28243 layer_factory.hpp:76] Creating layer loss3/classifier2
I1028 13:45:23.343289 28243 net.cpp:106] Creating Layer loss3/classifier2
I1028 13:45:23.343297 28243 net.cpp:454] loss3/classifier2 <- pool5/7x7_s1
I1028 13:45:23.343310 28243 net.cpp:411] loss3/classifier2 -> loss3/classifier
I1028 13:45:23.343463 28243 net.cpp:150] Setting up loss3/classifier2
I1028 13:45:23.343475 28243 net.cpp:157] Top shape: 32 2 (64)
I1028 13:45:23.343483 28243 net.cpp:165] Memory required for data: 1794708744
I1028 13:45:23.343497 28243 layer_factory.hpp:76] Creating layer loss3/loss3
I1028 13:45:23.343508 28243 net.cpp:106] Creating Layer loss3/loss3
I1028 13:45:23.343515 28243 net.cpp:454] loss3/loss3 <- loss3/classifier
I1028 13:45:23.343525 28243 net.cpp:454] loss3/loss3 <- label_data_1_split_2
I1028 13:45:23.343538 28243 net.cpp:411] loss3/loss3 -> loss3/loss3
…
I1028 13:45:23.349213 28243 net.cpp:322] The NetState phase (1) differed from the phase (0) specified by a rule in layer data
I1028 13:45:23.350415 28243 net.cpp:49] Initializing net from parameters: 
name: "GoogleNet"
state {
  phase: TEST
}
layer {
  name: "data"
  type: "Data"
  top: "data"
  top: "label"
  include {
    phase: TEST
  }
  transform_param {
    mirror: false
    crop_size: 224
    mean_value: 104
    mean_value: 117
    mean_value: 123
  }
  data_param {
    source: "../../LMDB/val_9-lmdb"
    batch_size: 50
    backend: LMDB
  }
}
layer {
  name: "conv1/7x7_s2"
  type: "Convolution"
  bottom: "data"
  top: "conv1/7x7_s2"
  param {
    lr_mult: 1
    decay_mult: 1
  }
  param {
    lr_mult: 2
    decay_mult: 0
  }
  convolution_param {
    num_output: 64
    pad: 3
    kernel_size: 7
    stride: 2
    weight_filler {
      type: "xavier"
    }
    bias_filler {
      type: "constant"
      value: 0.2
    }
  }
}
layer {
  name: "conv1/prelu_7x7"
  type: "PReLU"
  bottom: "conv1/7x7_s2"
  top: "conv1/7x7_s2"
  param {
    lr_mult: 1
    decay_mult: 0
  }
  prelu_param {
    filler {
      type: "constant"
      value: 0.01
    }
  }
}
layer {
  name: "pool1/3x3_s2"
  type: "Pooling"
  bottom: "conv1/7x7_s2"
  top: "pool1/3x3_s2"
  pooling_param {
    pool: MAX
    kernel_size: 3
    stride: 2
  }
}
layer {
  name: "pool1/norm1"
  type: "LRN"
  bottom: "pool1/3x3_s2"
  top: "pool1/norm1"
  lrn_param {
    local_size: 5
    alpha: 0.0001
    beta: 0.75
  }
}
layer {
  name: "conv2/3x3_reduce"
  type: "Convolution"
  bottom: "pool1/norm1"
  top: "conv2/3x3_reduce"
  param {
    lr_mult: 1
    decay_mult: 1
  }
  param {
    lr_mult: 2
    decay_mult: 0
  }
  convolution_param {
    num_output: 64
    kernel_size: 1
    weight_filler {
      type: "xavier"
    }
    bias_filler {
      type: "constant"
      value: 0.2
    }
  }
}
layer {
  name: "conv2/prelu_3x3_reduce"
  type: "PReLU"
  bottom: "conv2/3x3_reduce"
  top: "conv2/3x3_reduce"
  param {
    lr_mult: 1
    decay_mult: 0
  }
  prelu_param {
    filler {
      type: "constant"
      value: 0.01
    }
  }
}
layer {
  name: "conv2/3x3"
  type: "Convolution"
  bottom: "conv2/3x3_reduce"
  top: "conv2/3x3"
  param {
    lr_mult: 1
    decay_mult: 1
  }
  param {
    lr_mult: 2
    decay_mult: 0
  }
  convolution_param {
    num_output: 192
    pad: 1
    kernel_size: 3
    weight_filler {
      type: "xavier"
    }
    bias_filler {
      type: "constant"
      value: 0.2
    }
  }
}
layer {
  name: "conv2/prelu_3x3"
  type: "PReLU"
  bottom: "conv2/3x3"
  top: "conv2/3x3"
  param {
    lr_mult: 1
    decay_mult: 0
  }
  prelu_param {
    filler {
      type: "constant"
      value: 0.01
    }
  }
}
layer {
  name: "conv2/norm2"
  type: "LRN"
  bottom: "conv2/3x3"
  top: "conv2/norm2"
  lrn_param {
    local_size: 5
    alpha: 0.0001
    beta: 0.75
  }
}
layer {
  name: "pool2/3x3_s2"
  type: "Pooling"
  bottom: "conv2/norm2"
  top: "pool2/3x3_s2"
  pooling_param {
    pool: MAX
    kernel_size: 3
    stride: 2
  }
}
layer {
  name: "inception_3a/1x1"
  type: "Convolution"
  bottom: "pool2/3x3_s2"
  top: "inception_3a/1x1"
  param {
    lr_mult: 1
    decay_mult: 1
  }
  param {
    lr_mult: 2
    decay_mult: 0
  }
  convolution_param {
    num_output: 64
    kernel_size: 1
    weight_filler {
      type: "xavier"
    }
    bias_filler {
      type: "constant"
      value: 0.2
    }
  }
}
layer {
  name: "inception_3a/prelu_1x1"
  type: "PReLU"
  bottom: "inception_3a/1x1"
  top: "inception_3a/1x1"
  param {
    lr_mult: 1
    decay_mult: 0
  }
  prelu_param {
    filler {
      type: "constant"
      value: 0.01
    }
  }
}
layer {
  name: "inception_3a/3x3_reduce"
  type: "Convolution"
  bottom: "pool2/3x3_s2"
  top: "inception_3a/3x3_reduce"
  param {
    lr_mult: 1
    decay_mult: 1
  }
  param {
    lr_mult: 2
    decay_mult: 0
  }
  convolution_param {
    num_output: 96
    kernel_size: 1
    weight_filler {
      type: "xavier"
    }
    bias_filler {
      type: "constant"
      value: 0.2
    }
  }
}
layer {
  name: "inception_3a/prelu_3x3_reduce"
  type: "PReLU"
  bottom: "inception_3a/3x3_reduce"
  top: "inception_3a/3x3_reduce"
  param {
    lr_mult: 1
    decay_mult: 0
  }
  prelu_param {
    filler {
      type: "constant"
      value: 0.01
    }
  }
}
layer {
  name: "inception_3a/3x3"
  type: "Convolution"
  bottom: "inception_3a/3x3_reduce"
  top: "inception_3a/3x3"
  param {
    lr_mult: 1
    decay_mult: 1
  }
  param {
    lr_mult: 2
    decay_mult: 0
  }
  convolution_param {
    num_output: 128
    pad: 1
    kernel_size: 3
    weight_filler {
      type: "xavier"
    }
    bias_filler {
      type: "constant"
      value: 0.2
    }
  }
}
layer {
  name: "inception_3a/prelu_3x3"
  type: "PReLU"
  bottom: "inception_3a/3x3"
  top: "inception_3a/3x3"
  param {
    lr_mult: 1
    decay_mult: 0
  }
  prelu_param {
    filler {
      type: "constant"
      value: 0.01
    }
  }
}
layer {
  name: "inception_3a/5x5_reduce"
  type: "Convolution"
  bottom: "pool2/3x3_s2"
  top: "inception_3a/5x5_reduce"
  param {
    lr_mult: 1
    decay_mult: 1
  }
  param {
    lr_mult: 2
    decay_mult: 0
  }
  convolution_param {
    num_output: 16
    kernel_size: 1
    weight_filler {
      type: "xavier"
    }
    bias_filler {
      type: "constant"
      value: 0.2
    }
  }
}
layer {
  name: "inception_3a/prelu_5x5_reduce"
  type: "PReLU"
  bottom: "inception_3a/5x5_reduce"
  top: "inception_3a/5x5_reduce"
  param {
    lr_mult: 1
    decay_mult: 0
  }
  prelu_param {
    filler {
      type: "constant"
      value: 0.01
    }
  }
}
layer {
  name: "inception_3a/5x5"
  type: "Convolution"
  bottom: "inception_3a/5x5_reduce"
  top: "inception_3a/5x5"
  param {
    lr_mult: 1
    decay_mult: 1
  }
  param {
    lr_mult: 2
    decay_mult: 0
  }
  convolution_param {
    num_output: 32
    pad: 2
    kernel_size: 5
    weight_filler {
      type: "xavier"
    }
    bias_filler {
      type: "constant"
      value: 0.2
    }
  }
}
layer {
  name: "inception_3a/prelu_5x5"
  type: "PReLU"
  bottom: "inception_3a/5x5"
  top: "inception_3a/5x5"
  param {
    lr_mult: 1
    decay_mult: 0
  }
  prelu_param {
    filler {
      type: "constant"
      value: 0.01
    }
  }
}
layer {
  name: "inception_3a/pool"
  type: "Pooling"
  bottom: "pool2/3x3_s2"
  top: "inception_3a/pool"
  pooling_param {
    pool: MAX
    kernel_size: 3
    stride: 1
    pad: 1
  }
}
layer {
  name: "inception_3a/pool_proj"
  type: "Convolution"
  bottom: "inception_3a/pool"
  top: "inception_3a/pool_proj"
  param {
    lr_mult: 1
    decay_mult: 1
  }
  param {
    lr_mult: 2
    decay_mult: 0
  }
  convolution_param {
    num_output: 32
    kernel_size: 1
    weight_filler {
      type: "xavier"
    }
    bias_filler {
      type: "constant"
      value: 0.2
    }
  }
}
layer {
  name: "inception_3a/prelu_pool_proj"
  type: "PReLU"
  bottom: "inception_3a/pool_proj"
  top: "inception_3a/pool_proj"
  param {
    lr_mult: 1
    decay_mult: 0
  }
  prelu_param {
    filler {
      type: "constant"
      value: 0.01
    }
  }
}
layer {
  name: "inception_3a/output"
  type: "Concat"
  bottom: "inception_3a/1x1"
  bottom: "inception_3a/3x3"
  bottom: "inception_3a/5x5"
  bottom: "inception_3a/pool_proj"
  top: "inception_3a/output"
}
layer {
  name: "inception_3b/1x1"
  type: "Convolution"
  bottom: "inception_3a/output"
  top: "inception_3b/1x1"
  param {
    lr_mult: 1
    decay_mult: 1
  }
  param {
    lr_mult: 2
    decay_mult: 0
  }
  convolution_param {
    num_output: 128
    kernel_size: 1
    weight_filler {
      type: "xavier"
    }
    bias_filler {
      type: "constant"
      value: 0.2
    }
  }
}
layer {
  name: "inception_3b/prelu_1x1"
  type: "PReLU"
  bottom: "inception_3b/1x1"
  top: "inception_3b/1x1"
  param {
    lr_mult: 1
    decay_mult: 0
  }
  prelu_param {
    filler {
      type: "constant"
      value: 0.01
    }
  }
}
layer {
  name: "inception_3b/3x3_reduce"
  type: "Convolution"
  bottom: "inception_3a/output"
  top: "inception_3b/3x3_reduce"
  param {
    lr_mult: 1
    decay_mult: 1
  }
  param {
    lr_mult: 2
    decay_mult: 0
  }
  convolution_param {
    num_output: 128
    kernel_size: 1
    weight_filler {
      type: "xavier"
    }
    bias_filler {
      type: "constant"
      value: 0.2
    }
  }
}
layer {
  name: "inception_3b/prelu_3x3_reduce"
  type: "PReLU"
  bottom: "inception_3b/3x3_reduce"
  top: "inception_3b/3x3_reduce"
  param {
    lr_mult: 1
    decay_mult: 0
  }
  prelu_param {
    filler {
      type: "constant"
      value: 0.01
    }
  }
}
layer {
  name: "inception_3b/3x3"
  type: "Convolution"
  bottom: "inception_3b/3x3_reduce"
  top: "inception_3b/3x3"
  param {
    lr_mult: 1
    decay_mult: 1
  }
  param {
    lr_mult: 2
    decay_mult: 0
  }
  convolution_param {
    num_output: 192
    pad: 1
    kernel_size: 3
    weight_filler {
      type: "xavier"
    }
…
I1028 13:45:23.695628 28243 net.cpp:106] Creating Layer inception_4c/output
I1028 13:45:23.695633 28243 net.cpp:454] inception_4c/output <- inception_4c/1x1
I1028 13:45:23.695638 28243 net.cpp:454] inception_4c/output <- inception_4c/3x3
I1028 13:45:23.695643 28243 net.cpp:454] inception_4c/output <- inception_4c/5x5
I1028 13:45:23.695658 28243 net.cpp:454] inception_4c/output <- inception_4c/pool_proj
I1028 13:45:23.695664 28243 net.cpp:411] inception_4c/output -> inception_4c/output
I1028 13:45:23.695689 28243 net.cpp:150] Setting up inception_4c/output
I1028 13:45:23.695696 28243 net.cpp:157] Top shape: 50 512 14 14 (5017600)
I1028 13:45:23.695699 28243 net.cpp:165] Memory required for data: 2234652208
I1028 13:45:23.695703 28243 layer_factory.hpp:76] Creating layer inception_4c/output_inception_4c/output_0_split
I1028 13:45:23.695710 28243 net.cpp:106] Creating Layer inception_4c/output_inception_4c/output_0_split
I1028 13:45:23.695714 28243 net.cpp:454] inception_4c/output_inception_4c/output_0_split <- inception_4c/output
I1028 13:45:23.695722 28243 net.cpp:411] inception_4c/output_inception_4c/output_0_split -> inception_4c/output_inception_4c/output_0_split_0
I1028 13:45:23.695729 28243 net.cpp:411] inception_4c/output_inception_4c/output_0_split -> inception_4c/output_inception_4c/output_0_split_1
I1028 13:45:23.695736 28243 net.cpp:411] inception_4c/output_inception_4c/output_0_split -> inception_4c/output_inception_4c/output_0_split_2
I1028 13:45:23.695746 28243 net.cpp:411] inception_4c/output_inception_4c/output_0_split -> inception_4c/output_inception_4c/output_0_split_3
I1028 13:45:23.695821 28243 net.cpp:150] Setting up inception_4c/output_inception_4c/output_0_split
I1028 13:45:23.695828 28243 net.cpp:157] Top shape: 50 512 14 14 (5017600)
I1028 13:45:23.695833 28243 net.cpp:157] Top shape: 50 512 14 14 (5017600)
I1028 13:45:23.695847 28243 net.cpp:157] Top shape: 50 512 14 14 (5017600)
I1028 13:45:23.695852 28243 net.cpp:157] Top shape: 50 512 14 14 (5017600)
I1028 13:45:23.695857 28243 net.cpp:165] Memory required for data: 2314933808
I1028 13:45:23.695860 28243 layer_factory.hpp:76] Creating layer inception_4d/1x1
I1028 13:45:23.695868 28243 net.cpp:106] Creating Layer inception_4d/1x1
I1028 13:45:23.695873 28243 net.cpp:454] inception_4d/1x1 <- inception_4c/output_inception_4c/output_0_split_0
I1028 13:45:23.695879 28243 net.cpp:411] inception_4d/1x1 -> inception_4d/1x1
I1028 13:45:23.697635 28243 cudnn_conv_layer.cpp:194] Reallocating workspace storage: 10080
I1028 13:45:23.697687 28243 net.cpp:150] Setting up inception_4d/1x1
I1028 13:45:23.697697 28243 net.cpp:157] Top shape: 50 112 14 14 (1097600)
I1028 13:45:23.697701 28243 net.cpp:165] Memory required for data: 2319324208
I1028 13:45:23.697710 28243 layer_factory.hpp:76] Creating layer inception_4d/prelu_1x1
I1028 13:45:23.697718 28243 net.cpp:106] Creating Layer inception_4d/prelu_1x1
I1028 13:45:23.697723 28243 net.cpp:454] inception_4d/prelu_1x1 <- inception_4d/1x1
I1028 13:45:23.697731 28243 net.cpp:397] inception_4d/prelu_1x1 -> inception_4d/1x1 (in-place)
I1028 13:45:23.697844 28243 net.cpp:150] Setting up inception_4d/prelu_1x1
I1028 13:45:23.697856 28243 net.cpp:157] Top shape: 50 112 14 14 (1097600)
I1028 13:45:23.697860 28243 net.cpp:165] Memory required for data: 2323714608
I1028 13:45:23.697876 28243 layer_factory.hpp:76] Creating layer inception_4d/3x3_reduce
I1028 13:45:23.697885 28243 net.cpp:106] Creating Layer inception_4d/3x3_reduce
I1028 13:45:23.697890 28243 net.cpp:454] inception_4d/3x3_reduce <- inception_4c/output_inception_4c/output_0_split_1
I1028 13:45:23.697898 28243 net.cpp:411] inception_4d/3x3_reduce -> inception_4d/3x3_reduce
I1028 13:45:23.699687 28243 cudnn_conv_layer.cpp:194] Reallocating workspace storage: 10080
I1028 13:45:23.699740 28243 net.cpp:150] Setting up inception_4d/3x3_reduce
I1028 13:45:23.699749 28243 net.cpp:157] Top shape: 50 144 14 14 (1411200)
I1028 13:45:23.699754 28243 net.cpp:165] Memory required for data: 2329359408
I1028 13:45:23.699762 28243 layer_factory.hpp:76] Creating layer inception_4d/prelu_3x3_reduce
I1028 13:45:23.699774 28243 net.cpp:106] Creating Layer inception_4d/prelu_3x3_reduce
I1028 13:45:23.699780 28243 net.cpp:454] inception_4d/prelu_3x3_reduce <- inception_4d/3x3_reduce
I1028 13:45:23.699789 28243 net.cpp:397] inception_4d/prelu_3x3_reduce -> inception_4d/3x3_reduce (in-place)
I1028 13:45:23.699925 28243 net.cpp:150] Setting up inception_4d/prelu_3x3_reduce
I1028 13:45:23.699934 28243 net.cpp:157] Top shape: 50 144 14 14 (1411200)
I1028 13:45:23.699939 28243 net.cpp:165] Memory required for data: 2335004208
I1028 13:45:23.699954 28243 layer_factory.hpp:76] Creating layer inception_4d/3x3
I1028 13:45:23.699966 28243 net.cpp:106] Creating Layer inception_4d/3x3
I1028 13:45:23.699970 28243 net.cpp:454] inception_4d/3x3 <- inception_4d/3x3_reduce
I1028 13:45:23.699977 28243 net.cpp:411] inception_4d/3x3 -> inception_4d/3x3
I1028 13:45:23.704823 28243 cudnn_conv_layer.cpp:194] Reallocating workspace storage: 10080
I1028 13:45:23.704900 28243 net.cpp:150] Setting up inception_4d/3x3
I1028 13:45:23.704922 28243 net.cpp:157] Top shape: 50 288 14 14 (2822400)
I1028 13:45:23.704927 28243 net.cpp:165] Memory required for data: 2346293808
I1028 13:45:23.704938 28243 layer_factory.hpp:76] Creating layer inception_4d/prelu_3x3
I1028 13:45:23.704952 28243 net.cpp:106] Creating Layer inception_4d/prelu_3x3
I1028 13:45:23.704964 28243 net.cpp:454] inception_4d/prelu_3x3 <- inception_4d/3x3
I1028 13:45:23.704978 28243 net.cpp:397] inception_4d/prelu_3x3 -> inception_4d/3x3 (in-place)
I1028 13:45:23.705870 28243 net.cpp:150] Setting up inception_4d/prelu_3x3
I1028 13:45:23.705893 28243 net.cpp:157] Top shape: 50 288 14 14 (2822400)
I1028 13:45:23.705896 28243 net.cpp:165] Memory required for data: 2357583408
I1028 13:45:23.705904 28243 layer_factory.hpp:76] Creating layer inception_4d/5x5_reduce
I1028 13:45:23.705916 28243 net.cpp:106] Creating Layer inception_4d/5x5_reduce
I1028 13:45:23.705924 28243 net.cpp:454] inception_4d/5x5_reduce <- inception_4c/output_inception_4c/output_0_split_2
I1028 13:45:23.705942 28243 net.cpp:411] inception_4d/5x5_reduce -> inception_4d/5x5_reduce
I1028 13:45:23.707803 28243 cudnn_conv_layer.cpp:194] Reallocating workspace storage: 10080
I1028 13:45:23.707859 28243 net.cpp:150] Setting up inception_4d/5x5_reduce
I1028 13:45:23.707867 28243 net.cpp:157] Top shape: 50 32 14 14 (313600)
I1028 13:45:23.707871 28243 net.cpp:165] Memory required for data: 2358837808
I1028 13:45:23.707878 28243 layer_factory.hpp:76] Creating layer inception_4d/prelu_5x5_reduce
I1028 13:45:23.707890 28243 net.cpp:106] Creating Layer inception_4d/prelu_5x5_reduce
I1028 13:45:23.707895 28243 net.cpp:454] inception_4d/prelu_5x5_reduce <- inception_4d/5x5_reduce
I1028 13:45:23.707906 28243 net.cpp:397] inception_4d/prelu_5x5_reduce -> inception_4d/5x5_reduce (in-place)
I1028 13:45:23.708009 28243 net.cpp:150] Setting up inception_4d/prelu_5x5_reduce
I1028 13:45:23.708019 28243 net.cpp:157] Top shape: 50 32 14 14 (313600)
I1028 13:45:23.708022 28243 net.cpp:165] Memory required for data: 2360092208
I1028 13:45:23.708037 28243 layer_factory.hpp:76] Creating layer inception_4d/5x5
I1028 13:45:23.708051 28243 net.cpp:106] Creating Layer inception_4d/5x5
I1028 13:45:23.708055 28243 net.cpp:454] inception_4d/5x5 <- inception_4d/5x5_reduce
I1028 13:45:23.708062 28243 net.cpp:411] inception_4d/5x5 -> inception_4d/5x5
I1028 13:45:23.709399 28243 cudnn_conv_layer.cpp:194] Reallocating workspace storage: 13080
I1028 13:45:23.709439 28243 net.cpp:150] Setting up inception_4d/5x5
I1028 13:45:23.709447 28243 net.cpp:157] Top shape: 50 64 14 14 (627200)
I1028 13:45:23.709451 28243 net.cpp:165] Memory required for data: 2362601008
I1028 13:45:23.709470 28243 layer_factory.hpp:76] Creating layer inception_4d/prelu_5x5
I1028 13:45:23.709480 28243 net.cpp:106] Creating Layer inception_4d/prelu_5x5
I1028 13:45:23.709484 28243 net.cpp:454] inception_4d/prelu_5x5 <- inception_4d/5x5
I1028 13:45:23.709491 28243 net.cpp:397] inception_4d/prelu_5x5 -> inception_4d/5x5 (in-place)
I1028 13:45:23.709601 28243 net.cpp:150] Setting up inception_4d/prelu_5x5
I1028 13:45:23.709610 28243 net.cpp:157] Top shape: 50 64 14 14 (627200)
I1028 13:45:23.709614 28243 net.cpp:165] Memory required for data: 2365109808
I1028 13:45:23.709630 28243 layer_factory.hpp:76] Creating layer inception_4d/pool
I1028 13:45:23.709637 28243 net.cpp:106] Creating Layer inception_4d/pool
I1028 13:45:23.709642 28243 net.cpp:454] inception_4d/pool <- inception_4c/output_inception_4c/output_0_split_3
I1028 13:45:23.709650 28243 net.cpp:411] inception_4d/pool -> inception_4d/pool
I1028 13:45:23.710083 28243 net.cpp:150] Setting up inception_4d/pool
I1028 13:45:23.710095 28243 net.cpp:157] Top shape: 50 512 14 14 (5017600)
I1028 13:45:23.710099 28243 net.cpp:165] Memory required for data: 2385180208
I1028 13:45:23.710103 28243 layer_factory.hpp:76] Creating layer inception_4d/pool_proj
I1028 13:45:23.710114 28243 net.cpp:106] Creating Layer inception_4d/pool_proj
I1028 13:45:23.710119 28243 net.cpp:454] inception_4d/pool_proj <- inception_4d/pool
I1028 13:45:23.710126 28243 net.cpp:411] inception_4d/pool_proj -> inception_4d/pool_proj
I1028 13:45:23.711436 28243 cudnn_conv_layer.cpp:194] Reallocating workspace storage: 10080
I1028 13:45:23.711475 28243 net.cpp:150] Setting up inception_4d/pool_proj
I1028 13:45:23.711483 28243 net.cpp:157] Top shape: 50 64 14 14 (627200)
I1028 13:45:23.711488 28243 net.cpp:165] Memory required for data: 2387689008
I1028 13:45:23.711494 28243 layer_factory.hpp:76] Creating layer inception_4d/prelu_pool_proj
I1028 13:45:23.711529 28243 net.cpp:106] Creating Layer inception_4d/prelu_pool_proj
I1028 13:45:23.711535 28243 net.cpp:454] inception_4d/prelu_pool_proj <- inception_4d/pool_proj
I1028 13:45:23.711542 28243 net.cpp:397] inception_4d/prelu_pool_proj -> inception_4d/pool_proj (in-place)
I1028 13:45:23.711660 28243 net.cpp:150] Setting up inception_4d/prelu_pool_proj
I1028 13:45:23.711669 28243 net.cpp:157] Top shape: 50 64 14 14 (627200)
I1028 13:45:23.711673 28243 net.cpp:165] Memory required for data: 2390197808
I1028 13:45:23.711678 28243 layer_factory.hpp:76] Creating layer inception_4d/output
I1028 13:45:23.711685 28243 net.cpp:106] Creating Layer inception_4d/output
I1028 13:45:23.711689 28243 net.cpp:454] inception_4d/output <- inception_4d/1x1
I1028 13:45:23.711694 28243 net.cpp:454] inception_4d/output <- inception_4d/3x3
I1028 13:45:23.711699 28243 net.cpp:454] inception_4d/output <- inception_4d/5x5
I1028 13:45:23.711704 28243 net.cpp:454] inception_4d/output <- inception_4d/pool_proj
I1028 13:45:23.711719 28243 net.cpp:411] inception_4d/output -> inception_4d/output
I1028 13:45:23.711746 28243 net.cpp:150] Setting up inception_4d/output
I1028 13:45:23.711753 28243 net.cpp:157] Top shape: 50 528 14 14 (5174400)
I1028 13:45:23.711757 28243 net.cpp:165] Memory required for data: 2410895408
I1028 13:45:23.711761 28243 layer_factory.hpp:76] Creating layer inception_4d/output_inception_4d/output_0_split
I1028 13:45:23.711769 28243 net.cpp:106] Creating Layer inception_4d/output_inception_4d/output_0_split
I1028 13:45:23.711773 28243 net.cpp:454] inception_4d/output_inception_4d/output_0_split <- inception_4d/output
I1028 13:45:23.711779 28243 net.cpp:411] inception_4d/output_inception_4d/output_0_split -> inception_4d/output_inception_4d/output_0_split_0
I1028 13:45:23.711786 28243 net.cpp:411] inception_4d/output_inception_4d/output_0_split -> inception_4d/output_inception_4d/output_0_split_1
I1028 13:45:23.711793 28243 net.cpp:411] inception_4d/output_inception_4d/output_0_split -> inception_4d/output_inception_4d/output_0_split_2
I1028 13:45:23.711801 28243 net.cpp:411] inception_4d/output_inception_4d/output_0_split -> inception_4d/output_inception_4d/output_0_split_3
I1028 13:45:23.711807 28243 net.cpp:411] inception_4d/output_inception_4d/output_0_split -> inception_4d/output_inception_4d/output_0_split_4
I1028 13:45:23.711876 28243 net.cpp:150] Setting up inception_4d/output_inception_4d/output_0_split
I1028 13:45:23.711885 28243 net.cpp:157] Top shape: 50 528 14 14 (5174400)
I1028 13:45:23.711900 28243 net.cpp:157] Top shape: 50 528 14 14 (5174400)
I1028 13:45:23.711905 28243 net.cpp:157] Top shape: 50 528 14 14 (5174400)
I1028 13:45:23.711910 28243 net.cpp:157] Top shape: 50 528 14 14 (5174400)
I1028 13:45:23.711915 28243 net.cpp:157] Top shape: 50 528 14 14 (5174400)
I1028 13:45:23.711918 28243 net.cpp:165] Memory required for data: 2514383408
I1028 13:45:23.711922 28243 layer_factory.hpp:76] Creating layer loss2/ave_pool
I1028 13:45:23.711928 28243 net.cpp:106] Creating Layer loss2/ave_pool
I1028 13:45:23.711933 28243 net.cpp:454] loss2/ave_pool <- inception_4d/output_inception_4d/output_0_split_0
I1028 13:45:23.711940 28243 net.cpp:411] loss2/ave_pool -> loss2/ave_pool
I1028 13:45:23.712131 28243 net.cpp:150] Setting up loss2/ave_pool
I1028 13:45:23.712141 28243 net.cpp:157] Top shape: 50 528 4 4 (422400)
I1028 13:45:23.712155 28243 net.cpp:165] Memory required for data: 2516073008
I1028 13:45:23.712160 28243 layer_factory.hpp:76] Creating layer loss2/conv
I1028 13:45:23.712168 28243 net.cpp:106] Creating Layer loss2/conv
I1028 13:45:23.712172 28243 net.cpp:454] loss2/conv <- loss2/ave_pool
I1028 13:45:23.712179 28243 net.cpp:411] loss2/conv -> loss2/conv
I1028 13:45:23.713816 28243 cudnn_conv_layer.cpp:194] Reallocating workspace storage: 6840
I1028 13:45:23.713850 28243 net.cpp:150] Setting up loss2/conv
I1028 13:45:23.713860 28243 net.cpp:157] Top shape: 50 128 4 4 (102400)
I1028 13:45:23.713863 28243 net.cpp:165] Memory required for data: 2516482608
I1028 13:45:23.713871 28243 layer_factory.hpp:76] Creating layer loss2/prelu_conv
I1028 13:45:23.713889 28243 net.cpp:106] Creating Layer loss2/prelu_conv
I1028 13:45:23.713896 28243 net.cpp:454] loss2/prelu_conv <- loss2/conv
I1028 13:45:23.713903 28243 net.cpp:397] loss2/prelu_conv -> loss2/conv (in-place)
I1028 13:45:23.714026 28243 net.cpp:150] Setting up loss2/prelu_conv
I1028 13:45:23.714040 28243 net.cpp:157] Top shape: 50 128 4 4 (102400)
I1028 13:45:23.714046 28243 net.cpp:165] Memory required for data: 2516892208
I1028 13:45:23.714056 28243 layer_factory.hpp:76] Creating layer loss2/fc
I1028 13:45:23.714067 28243 net.cpp:106] Creating Layer loss2/fc
I1028 13:45:23.714073 28243 net.cpp:454] loss2/fc <- loss2/conv
I1028 13:45:23.714084 28243 net.cpp:411] loss2/fc -> loss2/fc
I1028 13:45:23.735555 28243 net.cpp:150] Setting up loss2/fc
I1028 13:45:23.735594 28243 net.cpp:157] Top shape: 50 1024 (51200)
I1028 13:45:23.735599 28243 net.cpp:165] Memory required for data: 2517097008
I1028 13:45:23.735633 28243 layer_factory.hpp:76] Creating layer loss2/prelu_fc
I1028 13:45:23.735659 28243 net.cpp:106] Creating Layer loss2/prelu_fc
I1028 13:45:23.735668 28243 net.cpp:454] loss2/prelu_fc <- loss2/fc
I1028 13:45:23.735677 28243 net.cpp:397] loss2/prelu_fc -> loss2/fc (in-place)
I1028 13:45:23.735864 28243 net.cpp:150] Setting up loss2/prelu_fc
I1028 13:45:23.735874 28243 net.cpp:157] Top shape: 50 1024 (51200)
I1028 13:45:23.735878 28243 net.cpp:165] Memory required for data: 2517301808
I1028 13:45:23.735894 28243 layer_factory.hpp:76] Creating layer loss2/drop_fc
I1028 13:45:23.735903 28243 net.cpp:106] Creating Layer loss2/drop_fc
I1028 13:45:23.735906 28243 net.cpp:454] loss2/drop_fc <- loss2/fc
I1028 13:45:23.735913 28243 net.cpp:397] loss2/drop_fc -> loss2/fc (in-place)
I1028 13:45:23.735936 28243 net.cpp:150] Setting up loss2/drop_fc
I1028 13:45:23.735944 28243 net.cpp:157] Top shape: 50 1024 (51200)
I1028 13:45:23.735947 28243 net.cpp:165] Memory required for data: 2517506608
I1028 13:45:23.735951 28243 layer_factory.hpp:76] Creating layer loss2/classifier2
I1028 13:45:23.735960 28243 net.cpp:106] Creating Layer loss2/classifier2
I1028 13:45:23.735965 28243 net.cpp:454] loss2/classifier2 <- loss2/fc
I1028 13:45:23.735975 28243 net.cpp:411] loss2/classifier2 -> loss2/classifier
I1028 13:45:23.736101 28243 net.cpp:150] Setting up loss2/classifier2
I1028 13:45:23.736110 28243 net.cpp:157] Top shape: 50 2 (100)
I1028 13:45:23.736114 28243 net.cpp:165] Memory required for data: 2517507008
I1028 13:45:23.736121 28243 layer_factory.hpp:76] Creating layer loss2/classifier_loss2/classifier2_0_split
I1028 13:45:23.736127 28243 net.cpp:106] Creating Layer loss2/classifier_loss2/classifier2_0_split
I1028 13:45:23.736132 28243 net.cpp:454] loss2/classifier_loss2/classifier2_0_split <- loss2/classifier
I1028 13:45:23.736137 28243 net.cpp:411] loss2/classifier_loss2/classifier2_0_split -> loss2/classifier_loss2/classifier2_0_split_0
I1028 13:45:23.736145 28243 net.cpp:411] loss2/classifier_loss2/classifier2_0_split -> loss2/classifier_loss2/classifier2_0_split_1
I1028 13:45:23.736177 28243 net.cpp:150] Setting up loss2/classifier_loss2/classifier2_0_split
I1028 13:45:23.736186 28243 net.cpp:157] Top shape: 50 2 (100)
I1028 13:45:23.736189 28243 net.cpp:157] Top shape: 50 2 (100)
I1028 13:45:23.736193 28243 net.cpp:165] Memory required for data: 2517507808
I1028 13:45:23.736197 28243 layer_factory.hpp:76] Creating layer loss2/loss
I1028 13:45:23.736204 28243 net.cpp:106] Creating Layer loss2/loss
I1028 13:45:23.736208 28243 net.cpp:454] loss2/loss <- loss2/classifier_loss2/classifier2_0_split_0
I1028 13:45:23.736213 28243 net.cpp:454] loss2/loss <- label_data_1_split_2
…
I1028 13:45:23.737004 28243 net.cpp:165] Memory required for data: 2517507816
I1028 13:45:23.737007 28243 layer_factory.hpp:76] Creating layer inception_4e/1x1
I1028 13:45:23.737020 28243 net.cpp:106] Creating Layer inception_4e/1x1
I1028 13:45:23.737026 28243 net.cpp:454] inception_4e/1x1 <- inception_4d/output_inception_4d/output_0_split_1
I1028 13:45:23.737043 28243 net.cpp:411] inception_4e/1x1 -> inception_4e/1x1
I1028 13:45:23.739209 28243 cudnn_conv_layer.cpp:194] Reallocating workspace storage: 10080
I1028 13:45:23.739249 28243 net.cpp:150] Setting up inception_4e/1x1
I1028 13:45:23.739259 28243 net.cpp:157] Top shape: 50 256 14 14 (2508800)
I1028 13:45:23.739262 28243 net.cpp:165] Memory required for data: 2527543016
I1028 13:45:23.739270 28243 layer_factory.hpp:76] Creating layer inception_4e/prelu_1x1
I1028 13:45:23.739277 28243 net.cpp:106] Creating Layer inception_4e/prelu_1x1
I1028 13:45:23.739282 28243 net.cpp:454] inception_4e/prelu_1x1 <- inception_4e/1x1
I1028 13:45:23.739289 28243 net.cpp:397] inception_4e/prelu_1x1 -> inception_4e/1x1 (in-place)
I1028 13:45:23.739423 28243 net.cpp:150] Setting up inception_4e/prelu_1x1
I1028 13:45:23.739434 28243 net.cpp:157] Top shape: 50 256 14 14 (2508800)
I1028 13:45:23.739437 28243 net.cpp:165] Memory required for data: 2537578216
I1028 13:45:23.739442 28243 layer_factory.hpp:76] Creating layer inception_4e/3x3_reduce
I1028 13:45:23.739451 28243 net.cpp:106] Creating Layer inception_4e/3x3_reduce
I1028 13:45:23.739456 28243 net.cpp:454] inception_4e/3x3_reduce <- inception_4d/output_inception_4d/output_0_split_2
I1028 13:45:23.739464 28243 net.cpp:411] inception_4e/3x3_reduce -> inception_4e/3x3_reduce
I1028 13:45:23.741019 28243 cudnn_conv_layer.cpp:194] Reallocating workspace storage: 10080
I1028 13:45:23.741055 28243 net.cpp:150] Setting up inception_4e/3x3_reduce
I1028 13:45:23.741062 28243 net.cpp:157] Top shape: 50 160 14 14 (1568000)
I1028 13:45:23.741066 28243 net.cpp:165] Memory required for data: 2543850216
I1028 13:45:23.741073 28243 layer_factory.hpp:76] Creating layer inception_4e/prelu_3x3_reduce
I1028 13:45:23.741080 28243 net.cpp:106] Creating Layer inception_4e/prelu_3x3_reduce
I1028 13:45:23.741085 28243 net.cpp:454] inception_4e/prelu_3x3_reduce <- inception_4e/3x3_reduce
I1028 13:45:23.741091 28243 net.cpp:397] inception_4e/prelu_3x3_reduce -> inception_4e/3x3_reduce (in-place)
I1028 13:45:23.741214 28243 net.cpp:150] Setting up inception_4e/prelu_3x3_reduce
I1028 13:45:23.741224 28243 net.cpp:157] Top shape: 50 160 14 14 (1568000)
I1028 13:45:23.741227 28243 net.cpp:165] Memory required for data: 2550122216
I1028 13:45:23.741232 28243 layer_factory.hpp:76] Creating layer inception_4e/3x3
I1028 13:45:23.741253 28243 net.cpp:106] Creating Layer inception_4e/3x3
I1028 13:45:23.741258 28243 net.cpp:454] inception_4e/3x3 <- inception_4e/3x3_reduce
I1028 13:45:23.741266 28243 net.cpp:411] inception_4e/3x3 -> inception_4e/3x3
I1028 13:45:23.746052 28243 cudnn_conv_layer.cpp:194] Reallocating workspace storage: 10080
I1028 13:45:23.746109 28243 net.cpp:150] Setting up inception_4e/3x3
I1028 13:45:23.746130 28243 net.cpp:157] Top shape: 50 320 14 14 (3136000)
I1028 13:45:23.746136 28243 net.cpp:165] Memory required for data: 2562666216
I1028 13:45:23.746147 28243 layer_factory.hpp:76] Creating layer inception_4e/prelu_3x3
I1028 13:45:23.746161 28243 net.cpp:106] Creating Layer inception_4e/prelu_3x3
I1028 13:45:23.746181 28243 net.cpp:454] inception_4e/prelu_3x3 <- inception_4e/3x3
I1028 13:45:23.746196 28243 net.cpp:397] inception_4e/prelu_3x3 -> inception_4e/3x3 (in-place)
I1028 13:45:23.747092 28243 net.cpp:150] Setting up inception_4e/prelu_3x3
I1028 13:45:23.747118 28243 net.cpp:157] Top shape: 50 320 14 14 (3136000)
I1028 13:45:23.747134 28243 net.cpp:165] Memory required for data: 2575210216
I1028 13:45:23.747143 28243 layer_factory.hpp:76] Creating layer inception_4e/5x5_reduce
I1028 13:45:23.747159 28243 net.cpp:106] Creating Layer inception_4e/5x5_reduce
I1028 13:45:23.747166 28243 net.cpp:454] inception_4e/5x5_reduce <- inception_4d/output_inception_4d/output_0_split_3
I1028 13:45:23.747177 28243 net.cpp:411] inception_4e/5x5_reduce -> inception_4e/5x5_reduce
I1028 13:45:23.748824 28243 cudnn_conv_layer.cpp:194] Reallocating workspace storage: 10080
I1028 13:45:23.748874 28243 net.cpp:150] Setting up inception_4e/5x5_reduce
I1028 13:45:23.748884 28243 net.cpp:157] Top shape: 50 32 14 14 (313600)
I1028 13:45:23.748889 28243 net.cpp:165] Memory required for data: 2576464616
I1028 13:45:23.748898 28243 layer_factory.hpp:76] Creating layer inception_4e/prelu_5x5_reduce
I1028 13:45:23.748910 28243 net.cpp:106] Creating Layer inception_4e/prelu_5x5_reduce
I1028 13:45:23.748917 28243 net.cpp:454] inception_4e/prelu_5x5_reduce <- inception_4e/5x5_reduce
I1028 13:45:23.748924 28243 net.cpp:397] inception_4e/prelu_5x5_reduce -> inception_4e/5x5_reduce (in-place)
I1028 13:45:23.749042 28243 net.cpp:150] Setting up inception_4e/prelu_5x5_reduce
I1028 13:45:23.749053 28243 net.cpp:157] Top shape: 50 32 14 14 (313600)
I1028 13:45:23.749055 28243 net.cpp:165] Memory required for data: 2577719016
I1028 13:45:23.749061 28243 layer_factory.hpp:76] Creating layer inception_4e/5x5
I1028 13:45:23.749073 28243 net.cpp:106] Creating Layer inception_4e/5x5
I1028 13:45:23.749078 28243 net.cpp:454] inception_4e/5x5 <- inception_4e/5x5_reduce
I1028 13:45:23.749084 28243 net.cpp:411] inception_4e/5x5 -> inception_4e/5x5
I1028 13:45:23.751515 28243 cudnn_conv_layer.cpp:194] Reallocating workspace storage: 13080
I1028 13:45:23.751570 28243 net.cpp:150] Setting up inception_4e/5x5
I1028 13:45:23.751580 28243 net.cpp:157] Top shape: 50 128 14 14 (1254400)
I1028 13:45:23.751585 28243 net.cpp:165] Memory required for data: 2582736616
I1028 13:45:23.751605 28243 layer_factory.hpp:76] Creating layer inception_4e/prelu_5x5
I1028 13:45:23.751616 28243 net.cpp:106] Creating Layer inception_4e/prelu_5x5
I1028 13:45:23.751623 28243 net.cpp:454] inception_4e/prelu_5x5 <- inception_4e/5x5
I1028 13:45:23.751631 28243 net.cpp:397] inception_4e/prelu_5x5 -> inception_4e/5x5 (in-place)
I1028 13:45:23.751749 28243 net.cpp:150] Setting up inception_4e/prelu_5x5
I1028 13:45:23.751760 28243 net.cpp:157] Top shape: 50 128 14 14 (1254400)
I1028 13:45:23.751763 28243 net.cpp:165] Memory required for data: 2587754216
I1028 13:45:23.751770 28243 layer_factory.hpp:76] Creating layer inception_4e/pool
I1028 13:45:23.751778 28243 net.cpp:106] Creating Layer inception_4e/pool
I1028 13:45:23.751782 28243 net.cpp:454] inception_4e/pool <- inception_4d/output_inception_4d/output_0_split_4
I1028 13:45:23.751791 28243 net.cpp:411] inception_4e/pool -> inception_4e/pool
I1028 13:45:23.752044 28243 net.cpp:150] Setting up inception_4e/pool
I1028 13:45:23.752058 28243 net.cpp:157] Top shape: 50 528 14 14 (5174400)
I1028 13:45:23.752061 28243 net.cpp:165] Memory required for data: 2608451816
I1028 13:45:23.752065 28243 layer_factory.hpp:76] Creating layer inception_4e/pool_proj
I1028 13:45:23.752079 28243 net.cpp:106] Creating Layer inception_4e/pool_proj
I1028 13:45:23.752084 28243 net.cpp:454] inception_4e/pool_proj <- inception_4e/pool
I1028 13:45:23.752091 28243 net.cpp:411] inception_4e/pool_proj -> inception_4e/pool_proj
I1028 13:45:23.753912 28243 cudnn_conv_layer.cpp:194] Reallocating workspace storage: 10080
I1028 13:45:23.753958 28243 net.cpp:150] Setting up inception_4e/pool_proj
I1028 13:45:23.753967 28243 net.cpp:157] Top shape: 50 128 14 14 (1254400)
I1028 13:45:23.753970 28243 net.cpp:165] Memory required for data: 2613469416
I1028 13:45:23.753990 28243 layer_factory.hpp:76] Creating layer inception_4e/prelu_pool_proj
I1028 13:45:23.754051 28243 net.cpp:106] Creating Layer inception_4e/prelu_pool_proj
I1028 13:45:23.754067 28243 net.cpp:454] inception_4e/prelu_pool_proj <- inception_4e/pool_proj
I1028 13:45:23.754076 28243 net.cpp:397] inception_4e/prelu_pool_proj -> inception_4e/pool_proj (in-place)
I1028 13:45:23.754222 28243 net.cpp:150] Setting up inception_4e/prelu_pool_proj
I1028 13:45:23.754231 28243 net.cpp:157] Top shape: 50 128 14 14 (1254400)
I1028 13:45:23.754235 28243 net.cpp:165] Memory required for data: 2618487016
I1028 13:45:23.754251 28243 layer_factory.hpp:76] Creating layer inception_4e/output
I1028 13:45:23.754261 28243 net.cpp:106] Creating Layer inception_4e/output
I1028 13:45:23.754266 28243 net.cpp:454] inception_4e/output <- inception_4e/1x1
I1028 13:45:23.754271 28243 net.cpp:454] inception_4e/output <- inception_4e/3x3
I1028 13:45:23.754276 28243 net.cpp:454] inception_4e/output <- inception_4e/5x5
I1028 13:45:23.754281 28243 net.cpp:454] inception_4e/output <- inception_4e/pool_proj
I1028 13:45:23.754286 28243 net.cpp:411] inception_4e/output -> inception_4e/output
I1028 13:45:23.754312 28243 net.cpp:150] Setting up inception_4e/output
I1028 13:45:23.754320 28243 net.cpp:157] Top shape: 50 832 14 14 (8153600)
I1028 13:45:23.754323 28243 net.cpp:165] Memory required for data: 2651101416
I1028 13:45:23.754328 28243 layer_factory.hpp:76] Creating layer pool4/3x3_s2
I1028 13:45:23.754335 28243 net.cpp:106] Creating Layer pool4/3x3_s2
I1028 13:45:23.754339 28243 net.cpp:454] pool4/3x3_s2 <- inception_4e/output
I1028 13:45:23.754348 28243 net.cpp:411] pool4/3x3_s2 -> pool4/3x3_s2
I1028 13:45:23.754570 28243 net.cpp:150] Setting up pool4/3x3_s2
I1028 13:45:23.754580 28243 net.cpp:157] Top shape: 50 832 7 7 (2038400)
I1028 13:45:23.754595 28243 net.cpp:165] Memory required for data: 2659255016
I1028 13:45:23.754600 28243 layer_factory.hpp:76] Creating layer pool4/3x3_s2_pool4/3x3_s2_0_split
I1028 13:45:23.754606 28243 net.cpp:106] Creating Layer pool4/3x3_s2_pool4/3x3_s2_0_split
I1028 13:45:23.754611 28243 net.cpp:454] pool4/3x3_s2_pool4/3x3_s2_0_split <- pool4/3x3_s2
I1028 13:45:23.754617 28243 net.cpp:411] pool4/3x3_s2_pool4/3x3_s2_0_split -> pool4/3x3_s2_pool4/3x3_s2_0_split_0
I1028 13:45:23.754623 28243 net.cpp:411] pool4/3x3_s2_pool4/3x3_s2_0_split -> pool4/3x3_s2_pool4/3x3_s2_0_split_1
I1028 13:45:23.754631 28243 net.cpp:411] pool4/3x3_s2_pool4/3x3_s2_0_split -> pool4/3x3_s2_pool4/3x3_s2_0_split_2
I1028 13:45:23.754639 28243 net.cpp:411] pool4/3x3_s2_pool4/3x3_s2_0_split -> pool4/3x3_s2_pool4/3x3_s2_0_split_3
I1028 13:45:23.754703 28243 net.cpp:150] Setting up pool4/3x3_s2_pool4/3x3_s2_0_split
I1028 13:45:23.754711 28243 net.cpp:157] Top shape: 50 832 7 7 (2038400)
I1028 13:45:23.754726 28243 net.cpp:157] Top shape: 50 832 7 7 (2038400)
I1028 13:45:23.754731 28243 net.cpp:157] Top shape: 50 832 7 7 (2038400)
I1028 13:45:23.754736 28243 net.cpp:157] Top shape: 50 832 7 7 (2038400)
I1028 13:45:23.754740 28243 net.cpp:165] Memory required for data: 2691869416
I1028 13:45:23.754745 28243 layer_factory.hpp:76] Creating layer inception_5a/1x1
I1028 13:45:23.754755 28243 net.cpp:106] Creating Layer inception_5a/1x1
I1028 13:45:23.754760 28243 net.cpp:454] inception_5a/1x1 <- pool4/3x3_s2_pool4/3x3_s2_0_split_0
I1028 13:45:23.754767 28243 net.cpp:411] inception_5a/1x1 -> inception_5a/1x1
I1028 13:45:23.757890 28243 cudnn_conv_layer.cpp:194] Reallocating workspace storage: 7428
I1028 13:45:23.757941 28243 net.cpp:150] Setting up inception_5a/1x1
I1028 13:45:23.757951 28243 net.cpp:157] Top shape: 50 256 7 7 (627200)
I1028 13:45:23.757956 28243 net.cpp:165] Memory required for data: 2694378216
I1028 13:45:23.757966 28243 layer_factory.hpp:76] Creating layer inception_5a/prelu_1x1
I1028 13:45:23.757978 28243 net.cpp:106] Creating Layer inception_5a/prelu_1x1
I1028 13:45:23.757984 28243 net.cpp:454] inception_5a/prelu_1x1 <- inception_5a/1x1
I1028 13:45:23.757992 28243 net.cpp:397] inception_5a/prelu_1x1 -> inception_5a/1x1 (in-place)
I1028 13:45:23.758116 28243 net.cpp:150] Setting up inception_5a/prelu_1x1
I1028 13:45:23.758141 28243 net.cpp:157] Top shape: 50 256 7 7 (627200)
I1028 13:45:23.758147 28243 net.cpp:165] Memory required for data: 2696887016
I1028 13:45:23.758152 28243 layer_factory.hpp:76] Creating layer inception_5a/3x3_reduce
I1028 13:45:23.758163 28243 net.cpp:106] Creating Layer inception_5a/3x3_reduce
I1028 13:45:23.758168 28243 net.cpp:454] inception_5a/3x3_reduce <- pool4/3x3_s2_pool4/3x3_s2_0_split_1
I1028 13:45:23.758177 28243 net.cpp:411] inception_5a/3x3_reduce -> inception_5a/3x3_reduce
I1028 13:45:23.760731 28243 cudnn_conv_layer.cpp:194] Reallocating workspace storage: 7428
I1028 13:45:23.760782 28243 net.cpp:150] Setting up inception_5a/3x3_reduce
I1028 13:45:23.760802 28243 net.cpp:157] Top shape: 50 160 7 7 (392000)
I1028 13:45:23.760807 28243 net.cpp:165] Memory required for data: 2698455016
I1028 13:45:23.760815 28243 layer_factory.hpp:76] Creating layer inception_5a/prelu_3x3_reduce
I1028 13:45:23.760828 28243 net.cpp:106] Creating Layer inception_5a/prelu_3x3_reduce
I1028 13:45:23.760833 28243 net.cpp:454] inception_5a/prelu_3x3_reduce <- inception_5a/3x3_reduce
I1028 13:45:23.760840 28243 net.cpp:397] inception_5a/prelu_3x3_reduce -> inception_5a/3x3_reduce (in-place)
I1028 13:45:23.760943 28243 net.cpp:150] Setting up inception_5a/prelu_3x3_reduce
I1028 13:45:23.760953 28243 net.cpp:157] Top shape: 50 160 7 7 (392000)
I1028 13:45:23.760957 28243 net.cpp:165] Memory required for data: 2700023016
I1028 13:45:23.760962 28243 layer_factory.hpp:76] Creating layer inception_5a/3x3
I1028 13:45:23.760973 28243 net.cpp:106] Creating Layer inception_5a/3x3
I1028 13:45:23.760977 28243 net.cpp:454] inception_5a/3x3 <- inception_5a/3x3_reduce
I1028 13:45:23.760985 28243 net.cpp:411] inception_5a/3x3 -> inception_5a/3x3
I1028 13:45:23.765720 28243 cudnn_conv_layer.cpp:194] Reallocating workspace storage: 7788
I1028 13:45:23.765784 28243 net.cpp:150] Setting up inception_5a/3x3
I1028 13:45:23.765804 28243 net.cpp:157] Top shape: 50 320 7 7 (784000)
I1028 13:45:23.765808 28243 net.cpp:165] Memory required for data: 2703159016
I1028 13:45:23.765817 28243 layer_factory.hpp:76] Creating layer inception_5a/prelu_3x3
I1028 13:45:23.765830 28243 net.cpp:106] Creating Layer inception_5a/prelu_3x3
I1028 13:45:23.765841 28243 net.cpp:454] inception_5a/prelu_3x3 <- inception_5a/3x3
I1028 13:45:23.765859 28243 net.cpp:397] inception_5a/prelu_3x3 -> inception_5a/3x3 (in-place)
I1028 13:45:23.766011 28243 net.cpp:150] Setting up inception_5a/prelu_3x3
I1028 13:45:23.766032 28243 net.cpp:157] Top shape: 50 320 7 7 (784000)
I1028 13:45:23.766036 28243 net.cpp:165] Memory required for data: 2706295016
I1028 13:45:23.766052 28243 layer_factory.hpp:76] Creating layer inception_5a/5x5_reduce
I1028 13:45:23.766063 28243 net.cpp:106] Creating Layer inception_5a/5x5_reduce
I1028 13:45:23.766069 28243 net.cpp:454] inception_5a/5x5_reduce <- pool4/3x3_s2_pool4/3x3_s2_0_split_2
I1028 13:45:23.766077 28243 net.cpp:411] inception_5a/5x5_reduce -> inception_5a/5x5_reduce
I1028 13:45:23.767359 28243 cudnn_conv_layer.cpp:194] Reallocating workspace storage: 7428
I1028 13:45:23.767392 28243 net.cpp:150] Setting up inception_5a/5x5_reduce
I1028 13:45:23.767400 28243 net.cpp:157] Top shape: 50 32 7 7 (78400)
I1028 13:45:23.767405 28243 net.cpp:165] Memory required for data: 2706608616
I1028 13:45:23.767421 28243 layer_factory.hpp:76] Creating layer inception_5a/prelu_5x5_reduce
I1028 13:45:23.767428 28243 net.cpp:106] Creating Layer inception_5a/prelu_5x5_reduce
I1028 13:45:23.767432 28243 net.cpp:454] inception_5a/prelu_5x5_reduce <- inception_5a/5x5_reduce
I1028 13:45:23.767451 28243 net.cpp:397] inception_5a/prelu_5x5_reduce -> inception_5a/5x5_reduce (in-place)
I1028 13:45:23.767578 28243 net.cpp:150] Setting up inception_5a/prelu_5x5_reduce
I1028 13:45:23.767587 28243 net.cpp:157] Top shape: 50 32 7 7 (78400)
I1028 13:45:23.767590 28243 net.cpp:165] Memory required for data: 2706922216
I1028 13:45:23.767606 28243 layer_factory.hpp:76] Creating layer inception_5a/5x5
I1028 13:45:23.767616 28243 net.cpp:106] Creating Layer inception_5a/5x5
I1028 13:45:23.767634 28243 net.cpp:454] inception_5a/5x5 <- inception_5a/5x5_reduce
I1028 13:45:23.767642 28243 net.cpp:411] inception_5a/5x5 -> inception_5a/5x5
I1028 13:45:23.769157 28243 cudnn_conv_layer.cpp:194] Reallocating workspace storage: 9804
I1028 13:45:23.769191 28243 net.cpp:150] Setting up inception_5a/5x5
I1028 13:45:23.769199 28243 net.cpp:157] Top shape: 50 128 7 7 (313600)
I1028 13:45:23.769203 28243 net.cpp:165] Memory required for data: 2708176616
I1028 13:45:23.769210 28243 layer_factory.hpp:76] Creating layer inception_5a/prelu_5x5
I1028 13:45:23.769217 28243 net.cpp:106] Creating Layer inception_5a/prelu_5x5
I1028 13:45:23.769222 28243 net.cpp:454] inception_5a/prelu_5x5 <- inception_5a/5x5
I1028 13:45:23.769229 28243 net.cpp:397] inception_5a/prelu_5x5 -> inception_5a/5x5 (in-place)
I1028 13:45:23.769322 28243 net.cpp:150] Setting up inception_5a/prelu_5x5
I1028 13:45:23.769332 28243 net.cpp:157] Top shape: 50 128 7 7 (313600)
I1028 13:45:23.769336 28243 net.cpp:165] Memory required for data: 2709431016
I1028 13:45:23.769341 28243 layer_factory.hpp:76] Creating layer inception_5a/pool
I1028 13:45:23.769348 28243 net.cpp:106] Creating Layer inception_5a/pool
I1028 13:45:23.769353 28243 net.cpp:454] inception_5a/pool <- pool4/3x3_s2_pool4/3x3_s2_0_split_3
I1028 13:45:23.769361 28243 net.cpp:411] inception_5a/pool -> inception_5a/pool
I1028 13:45:23.769785 28243 net.cpp:150] Setting up inception_5a/pool
I1028 13:45:23.769798 28243 net.cpp:157] Top shape: 50 832 7 7 (2038400)
I1028 13:45:23.769804 28243 net.cpp:165] Memory required for data: 2717584616
I1028 13:45:23.769807 28243 layer_factory.hpp:76] Creating layer inception_5a/pool_proj
I1028 13:45:23.769816 28243 net.cpp:106] Creating Layer inception_5a/pool_proj
I1028 13:45:23.769821 28243 net.cpp:454] inception_5a/pool_proj <- inception_5a/pool
I1028 13:45:23.769829 28243 net.cpp:411] inception_5a/pool_proj -> inception_5a/pool_proj
I1028 13:45:23.772030 28243 cudnn_conv_layer.cpp:194] Reallocating workspace storage: 7428
I1028 13:45:23.772063 28243 net.cpp:150] Setting up inception_5a/pool_proj
I1028 13:45:23.772071 28243 net.cpp:157] Top shape: 50 128 7 7 (313600)
I1028 13:45:23.772075 28243 net.cpp:165] Memory required for data: 2718839016
I1028 13:45:23.772092 28243 layer_factory.hpp:76] Creating layer inception_5a/prelu_pool_proj
I1028 13:45:23.772100 28243 net.cpp:106] Creating Layer inception_5a/prelu_pool_proj
I1028 13:45:23.772104 28243 net.cpp:454] inception_5a/prelu_pool_proj <- inception_5a/pool_proj
I1028 13:45:23.772112 28243 net.cpp:397] inception_5a/prelu_pool_proj -> inception_5a/pool_proj (in-place)
I1028 13:45:23.772202 28243 net.cpp:150] Setting up inception_5a/prelu_pool_proj
I1028 13:45:23.772212 28243 net.cpp:157] Top shape: 50 128 7 7 (313600)
I1028 13:45:23.772215 28243 net.cpp:165] Memory required for data: 2720093416
I1028 13:45:23.772230 28243 layer_factory.hpp:76] Creating layer inception_5a/output
I1028 13:45:23.772238 28243 net.cpp:106] Creating Layer inception_5a/output
I1028 13:45:23.772243 28243 net.cpp:454] inception_5a/output <- inception_5a/1x1
I1028 13:45:23.772248 28243 net.cpp:454] inception_5a/output <- inception_5a/3x3
I1028 13:45:23.772253 28243 net.cpp:454] inception_5a/output <- inception_5a/5x5
I1028 13:45:23.772258 28243 net.cpp:454] inception_5a/output <- inception_5a/pool_proj
I1028 13:45:23.772263 28243 net.cpp:411] inception_5a/output -> inception_5a/output
I1028 13:45:23.772297 28243 net.cpp:150] Setting up inception_5a/output
I1028 13:45:23.772305 28243 net.cpp:157] Top shape: 50 832 7 7 (2038400)
I1028 13:45:23.772320 28243 net.cpp:165] Memory required for data: 2728247016
I1028 13:45:23.772333 28243 layer_factory.hpp:76] Creating layer inception_5a/output_inception_5a/output_0_split
I1028 13:45:23.772341 28243 net.cpp:106] Creating Layer inception_5a/output_inception_5a/output_0_split
I1028 13:45:23.772344 28243 net.cpp:454] inception_5a/output_inception_5a/output_0_split <- inception_5a/output
I1028 13:45:23.772352 28243 net.cpp:411] inception_5a/output_inception_5a/output_0_split -> inception_5a/output_inception_5a/output_0_split_0
I1028 13:45:23.772379 28243 net.cpp:411] inception_5a/output_inception_5a/output_0_split -> inception_5a/output_inception_5a/output_0_split_1
I1028 13:45:23.772387 28243 net.cpp:411] inception_5a/output_inception_5a/output_0_split -> inception_5a/output_inception_5a/output_0_split_2
I1028 13:45:23.772393 28243 net.cpp:411] inception_5a/output_inception_5a/output_0_split -> inception_5a/output_inception_5a/output_0_split_3
I1028 13:45:23.772457 28243 net.cpp:150] Setting up inception_5a/output_inception_5a/output_0_split
I1028 13:45:23.772465 28243 net.cpp:157] Top shape: 50 832 7 7 (2038400)
I1028 13:45:23.772480 28243 net.cpp:157] Top shape: 50 832 7 7 (2038400)
I1028 13:45:23.772485 28243 net.cpp:157] Top shape: 50 832 7 7 (2038400)
I1028 13:45:23.772490 28243 net.cpp:157] Top shape: 50 832 7 7 (2038400)
I1028 13:45:23.772492 28243 net.cpp:165] Memory required for data: 2760861416
I1028 13:45:23.772506 28243 layer_factory.hpp:76] Creating layer inception_5b/1x1
I1028 13:45:23.772513 28243 net.cpp:106] Creating Layer inception_5b/1x1
I1028 13:45:23.772527 28243 net.cpp:454] inception_5b/1x1 <- inception_5a/output_inception_5a/output_0_split_0
I1028 13:45:23.772534 28243 net.cpp:411] inception_5b/1x1 -> inception_5b/1x1
I1028 13:45:23.776566 28243 cudnn_conv_layer.cpp:194] Reallocating workspace storage: 7428
I1028 13:45:23.776621 28243 net.cpp:150] Setting up inception_5b/1x1
I1028 13:45:23.776634 28243 net.cpp:157] Top shape: 50 384 7 7 (940800)
I1028 13:45:23.776644 28243 net.cpp:165] Memory required for data: 2764624616
I1028 13:45:23.776656 28243 layer_factory.hpp:76] Creating layer inception_5b/prelu_1x1
I1028 13:45:23.776671 28243 net.cpp:106] Creating Layer inception_5b/prelu_1x1
I1028 13:45:23.776682 28243 net.cpp:454] inception_5b/prelu_1x1 <- inception_5b/1x1
I1028 13:45:23.776692 28243 net.cpp:397] inception_5b/prelu_1x1 -> inception_5b/1x1 (in-place)
I1028 13:45:23.776855 28243 net.cpp:150] Setting up inception_5b/prelu_1x1
I1028 13:45:23.776867 28243 net.cpp:157] Top shape: 50 384 7 7 (940800)
I1028 13:45:23.776875 28243 net.cpp:165] Memory required for data: 2768387816
I1028 13:45:23.776883 28243 layer_factory.hpp:76] Creating layer inception_5b/3x3_reduce
I1028 13:45:23.776897 28243 net.cpp:106] Creating Layer inception_5b/3x3_reduce
I1028 13:45:23.776914 28243 net.cpp:454] inception_5b/3x3_reduce <- inception_5a/output_inception_5a/output_0_split_1
I1028 13:45:23.776926 28243 net.cpp:411] inception_5b/3x3_reduce -> inception_5b/3x3_reduce
I1028 13:45:23.779692 28243 cudnn_conv_layer.cpp:194] Reallocating workspace storage: 7428
I1028 13:45:23.779743 28243 net.cpp:150] Setting up inception_5b/3x3_reduce
I1028 13:45:23.779754 28243 net.cpp:157] Top shape: 50 192 7 7 (470400)
I1028 13:45:23.779758 28243 net.cpp:165] Memory required for data: 2770269416
I1028 13:45:23.779767 28243 layer_factory.hpp:76] Creating layer inception_5b/prelu_3x3_reduce
I1028 13:45:23.779778 28243 net.cpp:106] Creating Layer inception_5b/prelu_3x3_reduce
I1028 13:45:23.779793 28243 net.cpp:454] inception_5b/prelu_3x3_reduce <- inception_5b/3x3_reduce
I1028 13:45:23.779804 28243 net.cpp:397] inception_5b/prelu_3x3_reduce -> inception_5b/3x3_reduce (in-place)
I1028 13:45:23.779914 28243 net.cpp:150] Setting up inception_5b/prelu_3x3_reduce
I1028 13:45:23.779923 28243 net.cpp:157] Top shape: 50 192 7 7 (470400)
I1028 13:45:23.779927 28243 net.cpp:165] Memory required for data: 2772151016
I1028 13:45:23.779932 28243 layer_factory.hpp:76] Creating layer inception_5b/3x3
I1028 13:45:23.779943 28243 net.cpp:106] Creating Layer inception_5b/3x3
I1028 13:45:23.779947 28243 net.cpp:454] inception_5b/3x3 <- inception_5b/3x3_reduce
I1028 13:45:23.779955 28243 net.cpp:411] inception_5b/3x3 -> inception_5b/3x3
I1028 13:45:23.786321 28243 cudnn_conv_layer.cpp:194] Reallocating workspace storage: 7788
I1028 13:45:23.786411 28243 net.cpp:150] Setting up inception_5b/3x3
I1028 13:45:23.786433 28243 net.cpp:157] Top shape: 50 384 7 7 (940800)
I1028 13:45:23.786438 28243 net.cpp:165] Memory required for data: 2775914216
I1028 13:45:23.786483 28243 layer_factory.hpp:76] Creating layer inception_5b/prelu_3x3
I1028 13:45:23.786510 28243 net.cpp:106] Creating Layer inception_5b/prelu_3x3
I1028 13:45:23.786520 28243 net.cpp:454] inception_5b/prelu_3x3 <- inception_5b/3x3
I1028 13:45:23.786530 28243 net.cpp:397] inception_5b/prelu_3x3 -> inception_5b/3x3 (in-place)
I1028 13:45:23.786705 28243 net.cpp:150] Setting up inception_5b/prelu_3x3
I1028 13:45:23.786716 28243 net.cpp:157] Top shape: 50 384 7 7 (940800)
I1028 13:45:23.786720 28243 net.cpp:165] Memory required for data: 2779677416
I1028 13:45:23.786736 28243 layer_factory.hpp:76] Creating layer inception_5b/5x5_reduce
I1028 13:45:23.786749 28243 net.cpp:106] Creating Layer inception_5b/5x5_reduce
I1028 13:45:23.786754 28243 net.cpp:454] inception_5b/5x5_reduce <- inception_5a/output_inception_5a/output_0_split_2
I1028 13:45:23.786772 28243 net.cpp:411] inception_5b/5x5_reduce -> inception_5b/5x5_reduce
I1028 13:45:23.788511 28243 cudnn_conv_layer.cpp:194] Reallocating workspace storage: 7428
I1028 13:45:23.788559 28243 net.cpp:150] Setting up inception_5b/5x5_reduce
I1028 13:45:23.788583 28243 net.cpp:157] Top shape: 50 48 7 7 (117600)
I1028 13:45:23.788586 28243 net.cpp:165] Memory required for data: 2780147816
I1028 13:45:23.788595 28243 layer_factory.hpp:76] Creating layer inception_5b/prelu_5x5_reduce
I1028 13:45:23.788607 28243 net.cpp:106] Creating Layer inception_5b/prelu_5x5_reduce
I1028 13:45:23.788616 28243 net.cpp:454] inception_5b/prelu_5x5_reduce <- inception_5b/5x5_reduce
I1028 13:45:23.788636 28243 net.cpp:397] inception_5b/prelu_5x5_reduce -> inception_5b/5x5_reduce (in-place)
I1028 13:45:23.788780 28243 net.cpp:150] Setting up inception_5b/prelu_5x5_reduce
I1028 13:45:23.788790 28243 net.cpp:157] Top shape: 50 48 7 7 (117600)
I1028 13:45:23.788794 28243 net.cpp:165] Memory required for data: 2780618216
I1028 13:45:23.788800 28243 layer_factory.hpp:76] Creating layer inception_5b/5x5
I1028 13:45:23.788811 28243 net.cpp:106] Creating Layer inception_5b/5x5
I1028 13:45:23.788816 28243 net.cpp:454] inception_5b/5x5 <- inception_5b/5x5_reduce
I1028 13:45:23.788823 28243 net.cpp:411] inception_5b/5x5 -> inception_5b/5x5
I1028 13:45:23.790961 28243 cudnn_conv_layer.cpp:194] Reallocating workspace storage: 9804
I1028 13:45:23.791003 28243 net.cpp:150] Setting up inception_5b/5x5
I1028 13:45:23.791013 28243 net.cpp:157] Top shape: 50 128 7 7 (313600)
I1028 13:45:23.791018 28243 net.cpp:165] Memory required for data: 2781872616
I1028 13:45:23.791024 28243 layer_factory.hpp:76] Creating layer inception_5b/prelu_5x5
I1028 13:45:23.791033 28243 net.cpp:106] Creating Layer inception_5b/prelu_5x5
I1028 13:45:23.791038 28243 net.cpp:454] inception_5b/prelu_5x5 <- inception_5b/5x5
I1028 13:45:23.791044 28243 net.cpp:397] inception_5b/prelu_5x5 -> inception_5b/5x5 (in-place)
I1028 13:45:23.791170 28243 net.cpp:150] Setting up inception_5b/prelu_5x5
I1028 13:45:23.791179 28243 net.cpp:157] Top shape: 50 128 7 7 (313600)
I1028 13:45:23.791183 28243 net.cpp:165] Memory required for data: 2783127016
I1028 13:45:23.791188 28243 layer_factory.hpp:76] Creating layer inception_5b/pool
I1028 13:45:23.791198 28243 net.cpp:106] Creating Layer inception_5b/pool
I1028 13:45:23.791204 28243 net.cpp:454] inception_5b/pool <- inception_5a/output_inception_5a/output_0_split_3
I1028 13:45:23.791210 28243 net.cpp:411] inception_5b/pool -> inception_5b/pool
I1028 13:45:23.791424 28243 net.cpp:150] Setting up inception_5b/pool
I1028 13:45:23.791434 28243 net.cpp:157] Top shape: 50 832 7 7 (2038400)
I1028 13:45:23.791437 28243 net.cpp:165] Memory required for data: 2791280616
I1028 13:45:23.791441 28243 layer_factory.hpp:76] Creating layer inception_5b/pool_proj
I1028 13:45:23.791452 28243 net.cpp:106] Creating Layer inception_5b/pool_proj
I1028 13:45:23.791457 28243 net.cpp:454] inception_5b/pool_proj <- inception_5b/pool
I1028 13:45:23.791465 28243 net.cpp:411] inception_5b/pool_proj -> inception_5b/pool_proj
I1028 13:45:23.793962 28243 cudnn_conv_layer.cpp:194] Reallocating workspace storage: 7428
I1028 13:45:23.794040 28243 net.cpp:150] Setting up inception_5b/pool_proj
I1028 13:45:23.794050 28243 net.cpp:157] Top shape: 50 128 7 7 (313600)
I1028 13:45:23.794055 28243 net.cpp:165] Memory required for data: 2792535016
I1028 13:45:23.794064 28243 layer_factory.hpp:76] Creating layer inception_5b/prelu_pool_proj
I1028 13:45:23.794075 28243 net.cpp:106] Creating Layer inception_5b/prelu_pool_proj
I1028 13:45:23.794085 28243 net.cpp:454] inception_5b/prelu_pool_proj <- inception_5b/pool_proj
I1028 13:45:23.794091 28243 net.cpp:397] inception_5b/prelu_pool_proj -> inception_5b/pool_proj (in-place)
I1028 13:45:23.794185 28243 net.cpp:150] Setting up inception_5b/prelu_pool_proj
I1028 13:45:23.794194 28243 net.cpp:157] Top shape: 50 128 7 7 (313600)
I1028 13:45:23.794198 28243 net.cpp:165] Memory required for data: 2793789416
I1028 13:45:23.794203 28243 layer_factory.hpp:76] Creating layer inception_5b/output
I1028 13:45:23.794210 28243 net.cpp:106] Creating Layer inception_5b/output
I1028 13:45:23.794214 28243 net.cpp:454] inception_5b/output <- inception_5b/1x1
I1028 13:45:23.794219 28243 net.cpp:454] inception_5b/output <- inception_5b/3x3
I1028 13:45:23.794224 28243 net.cpp:454] inception_5b/output <- inception_5b/5x5
I1028 13:45:23.794229 28243 net.cpp:454] inception_5b/output <- inception_5b/pool_proj
I1028 13:45:23.794234 28243 net.cpp:411] inception_5b/output -> inception_5b/output
I1028 13:45:23.794261 28243 net.cpp:150] Setting up inception_5b/output
I1028 13:45:23.794282 28243 net.cpp:157] Top shape: 50 1024 7 7 (2508800)
I1028 13:45:23.794286 28243 net.cpp:165] Memory required for data: 2803824616
I1028 13:45:23.794291 28243 layer_factory.hpp:76] Creating layer pool5/7x7_s1
I1028 13:45:23.794297 28243 net.cpp:106] Creating Layer pool5/7x7_s1
I1028 13:45:23.794301 28243 net.cpp:454] pool5/7x7_s1 <- inception_5b/output
I1028 13:45:23.794308 28243 net.cpp:411] pool5/7x7_s1 -> pool5/7x7_s1
I1028 13:45:23.794718 28243 net.cpp:150] Setting up pool5/7x7_s1
I1028 13:45:23.794729 28243 net.cpp:157] Top shape: 50 1024 1 1 (51200)
I1028 13:45:23.794734 28243 net.cpp:165] Memory required for data: 2804029416
I1028 13:45:23.794739 28243 layer_factory.hpp:76] Creating layer pool5/drop_7x7_s1
I1028 13:45:23.794746 28243 net.cpp:106] Creating Layer pool5/drop_7x7_s1
I1028 13:45:23.794750 28243 net.cpp:454] pool5/drop_7x7_s1 <- pool5/7x7_s1
I1028 13:45:23.794757 28243 net.cpp:397] pool5/drop_7x7_s1 -> pool5/7x7_s1 (in-place)
I1028 13:45:23.794782 28243 net.cpp:150] Setting up pool5/drop_7x7_s1
I1028 13:45:23.794790 28243 net.cpp:157] Top shape: 50 1024 1 1 (51200)
I1028 13:45:23.794795 28243 net.cpp:165] Memory required for data: 2804234216
I1028 13:45:23.794798 28243 layer_factory.hpp:76] Creating layer loss3/classifier2
I1028 13:45:23.794806 28243 net.cpp:106] Creating Layer loss3/classifier2
I1028 13:45:23.794811 28243 net.cpp:454] loss3/classifier2 <- pool5/7x7_s1
I1028 13:45:23.794817 28243 net.cpp:411] loss3/classifier2 -> loss3/classifier
I1028 13:45:23.794960 28243 net.cpp:150] Setting up loss3/classifier2
I1028 13:45:23.794970 28243 net.cpp:157] Top shape: 50 2 (100)
I1028 13:45:23.794973 28243 net.cpp:165] Memory required for data: 2804234616
I1028 13:45:23.794981 28243 layer_factory.hpp:76] Creating layer loss3/classifier_loss3/classifier2_0_split
I1028 13:45:23.794986 28243 net.cpp:106] Creating Layer loss3/classifier_loss3/classifier2_0_split
I1028 13:45:23.794991 28243 net.cpp:454] loss3/classifier_loss3/classifier2_0_split <- loss3/classifier
I1028 13:45:23.794996 28243 net.cpp:411] loss3/classifier_loss3/classifier2_0_split -> loss3/classifier_loss3/classifier2_0_split_0
I1028 13:45:23.795002 28243 net.cpp:411] loss3/classifier_loss3/classifier2_0_split -> loss3/classifier_loss3/classifier2_0_split_1
I1028 13:45:23.795042 28243 net.cpp:150] Setting up loss3/classifier_loss3/classifier2_0_split
I1028 13:45:23.795049 28243 net.cpp:157] Top shape: 50 2 (100)
I1028 13:45:23.795054 28243 net.cpp:157] Top shape: 50 2 (100)
I1028 13:45:23.795058 28243 net.cpp:165] Memory required for data: 2804235416
I1028 13:45:23.795063 28243 layer_factory.hpp:76] Creating layer loss3/loss3
I1028 13:45:23.795078 28243 net.cpp:106] Creating Layer loss3/loss3
I1028 13:45:23.795084 28243 net.cpp:454] loss3/loss3 <- loss3/classifier_loss3/classifier2_0_split_0
I1028 13:45:23.795090 28243 net.cpp:454] loss3/loss3 <- label_data_1_split_4
…
