…
I1028 13:30:00.373721 28179 net.cpp:322] The NetState phase (0) differed from the phase (1) specified by a rule in layer loss3/top-1
I1028 13:30:00.374644 28179 net.cpp:49] Initializing net from parameters: 
name: "GoogleNet"
state {
  phase: TRAIN
}
layer {
  name: "data"
  type: "Data"
  top: "data"
  top: "label"
  include {
    phase: TRAIN
  }
  transform_param {
    mirror: true
    crop_size: 224
    mean_value: 104
    mean_value: 117
    mean_value: 123
  }
  data_param {
    source: "../../LMDB/train_5-lmdb"
    batch_size: 32
    backend: LMDB
  }
}
layer {
  name: "conv1/7x7_s2"
  type: "Convolution"
  bottom: "data"
  top: "conv1/7x7_s2"
  param {
    lr_mult: 1
    decay_mult: 1
  }
  param {
    lr_mult: 2
    decay_mult: 0
  }
  convolution_param {
    num_output: 64
    pad: 3
    kernel_size: 7
    stride: 2
    weight_filler {
      type: "xavier"
    }
    bias_filler {
      type: "constant"
      value: 0.2
    }
  }
}
layer {
  name: "conv1/prelu_7x7"
  type: "PReLU"
  bottom: "conv1/7x7_s2"
  top: "conv1/7x7_s2"
  param {
    lr_mult: 1
    decay_mult: 0
  }
  prelu_param {
    filler {
      type: "constant"
      value: 0.01
    }
  }
}
layer {
  name: "pool1/3x3_s2"
  type: "Pooling"
  bottom: "conv1/7x7_s2"
  top: "pool1/3x3_s2"
  pooling_param {
    pool: MAX
    kernel_size: 3
    stride: 2
  }
}
layer {
  name: "pool1/norm1"
  type: "LRN"
  bottom: "pool1/3x3_s2"
  top: "pool1/norm1"
  lrn_param {
    local_size: 5
    alpha: 0.0001
    beta: 0.75
  }
}
layer {
  name: "conv2/3x3_reduce"
  type: "Convolution"
  bottom: "pool1/norm1"
  top: "conv2/3x3_reduce"
  param {
    lr_mult: 1
    decay_mult: 1
  }
  param {
    lr_mult: 2
    decay_mult: 0
  }
  convolution_param {
    num_output: 64
    kernel_size: 1
    weight_filler {
      type: "xavier"
    }
    bias_filler {
      type: "constant"
      value: 0.2
    }
  }
}
layer {
  name: "conv2/prelu_3x3_reduce"
  type: "PReLU"
  bottom: "conv2/3x3_reduce"
  top: "conv2/3x3_reduce"
  param {
    lr_mult: 1
    decay_mult: 0
  }
  prelu_param {
    filler {
      type: "constant"
      value: 0.01
    }
  }
}
layer {
  name: "conv2/3x3"
  type: "Convolution"
  bottom: "conv2/3x3_reduce"
  top: "conv2/3x3"
  param {
    lr_mult: 1
    decay_mult: 1
  }
  param {
    lr_mult: 2
    decay_mult: 0
  }
  convolution_param {
    num_output: 192
    pad: 1
    kernel_size: 3
    weight_filler {
      type: "xavier"
    }
    bias_filler {
      type: "constant"
      value: 0.2
    }
  }
}
layer {
  name: "conv2/prelu_3x3"
  type: "PReLU"
  bottom: "conv2/3x3"
  top: "conv2/3x3"
  param {
    lr_mult: 1
    decay_mult: 0
  }
  prelu_param {
    filler {
      type: "constant"
      value: 0.01
    }
  }
}
layer {
  name: "conv2/norm2"
  type: "LRN"
  bottom: "conv2/3x3"
  top: "conv2/norm2"
  lrn_param {
    local_size: 5
    alpha: 0.0001
    beta: 0.75
  }
}
layer {
  name: "pool2/3x3_s2"
  type: "Pooling"
  bottom: "conv2/norm2"
  top: "pool2/3x3_s2"
  pooling_param {
    pool: MAX
    kernel_size: 3
    stride: 2
  }
}
layer {
  name: "inception_3a/1x1"
  type: "Convolution"
  bottom: "pool2/3x3_s2"
  top: "inception_3a/1x1"
  param {
    lr_mult: 1
    decay_mult: 1
  }
  param {
    lr_mult: 2
    decay_mult: 0
  }
  convolution_param {
    num_output: 64
    kernel_size: 1
    weight_filler {
      type: "xavier"
    }
    bias_filler {
      type: "constant"
      value: 0.2
    }
  }
}
layer {
  name: "inception_3a/prelu_1x1"
  type: "PReLU"
  bottom: "inception_3a/1x1"
  top: "inception_3a/1x1"
  param {
    lr_mult: 1
    decay_mult: 0
  }
  prelu_param {
    filler {
      type: "constant"
      value: 0.01
    }
  }
}
layer {
  name: "inception_3a/3x3_reduce"
  type: "Convolution"
  bottom: "pool2/3x3_s2"
  top: "inception_3a/3x3_reduce"
  param {
    lr_mult: 1
    decay_mult: 1
  }
  param {
    lr_mult: 2
    decay_mult: 0
  }
  convolution_param {
    num_output: 96
    kernel_size: 1
    weight_filler {
      type: "xavier"
    }
    bias_filler {
      type: "constant"
      value: 0.2
    }
  }
}
layer {
  name: "inception_3a/prelu_3x3_reduce"
  type: "PReLU"
  bottom: "inception_3a/3x3_reduce"
  top: "inception_3a/3x3_reduce"
  param {
    lr_mult: 1
    decay_mult: 0
  }
  prelu_param {
    filler {
      type: "constant"
      value: 0.01
    }
  }
}
layer {
  name: "inception_3a/3x3"
  type: "Convolution"
  bottom: "inception_3a/3x3_reduce"
  top: "inception_3a/3x3"
  param {
    lr_mult: 1
    decay_mult: 1
  }
  param {
    lr_mult: 2
    decay_mult: 0
  }
  convolution_param {
    num_output: 128
    pad: 1
    kernel_size: 3
    weight_filler {
      type: "xavier"
    }
    bias_filler {
      type: "constant"
      value: 0.2
    }
  }
}
layer {
  name: "inception_3a/prelu_3x3"
  type: "PReLU"
  bottom: "inception_3a/3x3"
  top: "inception_3a/3x3"
  param {
    lr_mult: 1
    decay_mult: 0
  }
  prelu_param {
    filler {
      type: "constant"
      value: 0.01
    }
  }
}
layer {
  name: "inception_3a/5x5_reduce"
  type: "Convolution"
  bottom: "pool2/3x3_s2"
  top: "inception_3a/5x5_reduce"
  param {
    lr_mult: 1
    decay_mult: 1
  }
  param {
    lr_mult: 2
    decay_mult: 0
  }
  convolution_param {
    num_output: 16
    kernel_size: 1
    weight_filler {
      type: "xavier"
    }
    bias_filler {
      type: "constant"
      value: 0.2
    }
  }
}
layer {
  name: "inception_3a/prelu_5x5_reduce"
  type: "PReLU"
  bottom: "inception_3a/5x5_reduce"
  top: "inception_3a/5x5_reduce"
  param {
    lr_mult: 1
    decay_mult: 0
  }
  prelu_param {
    filler {
      type: "constant"
      value: 0.01
    }
  }
}
layer {
  name: "inception_3a/5x5"
  type: "Convolution"
  bottom: "inception_3a/5x5_reduce"
  top: "inception_3a/5x5"
  param {
    lr_mult: 1
    decay_mult: 1
  }
  param {
    lr_mult: 2
    decay_mult: 0
  }
  convolution_param {
    num_output: 32
    pad: 2
    kernel_size: 5
    weight_filler {
      type: "xavier"
    }
    bias_filler {
      type: "constant"
      value: 0.2
    }
  }
}
layer {
  name: "inception_3a/prelu_5x5"
  type: "PReLU"
  bottom: "inception_3a/5x5"
  top: "inception_3a/5x5"
  param {
    lr_mult: 1
    decay_mult: 0
  }
  prelu_param {
    filler {
      type: "constant"
      value: 0.01
    }
  }
}
layer {
  name: "inception_3a/pool"
  type: "Pooling"
  bottom: "pool2/3x3_s2"
  top: "inception_3a/pool"
  pooling_param {
    pool: MAX
    kernel_size: 3
    stride: 1
    pad: 1
  }
}
layer {
  name: "inception_3a/pool_proj"
  type: "Convolution"
  bottom: "inception_3a/pool"
  top: "inception_3a/pool_proj"
  param {
    lr_mult: 1
    decay_mult: 1
  }
  param {
    lr_mult: 2
    decay_mult: 0
  }
  convolution_param {
    num_output: 32
    kernel_size: 1
    weight_filler {
      type: "xavier"
    }
    bias_filler {
      type: "constant"
      value: 0.2
    }
  }
}
layer {
  name: "inception_3a/prelu_pool_proj"
  type: "PReLU"
  bottom: "inception_3a/pool_proj"
  top: "inception_3a/pool_proj"
  param {
    lr_mult: 1
    decay_mult: 0
  }
  prelu_param {
    filler {
      type: "constant"
      value: 0.01
    }
  }
}
layer {
  name: "inception_3a/output"
  type: "Concat"
  bottom: "inception_3a/1x1"
  bottom: "inception_3a/3x3"
  bottom: "inception_3a/5x5"
  bottom: "inception_3a/pool_proj"
  top: "inception_3a/output"
}
layer {
  name: "inception_3b/1x1"
  type: "Convolution"
  bottom: "inception_3a/output"
  top: "inception_3b/1x1"
  param {
    lr_mult: 1
    decay_mult: 1
  }
  param {
    lr_mult: 2
    decay_mult: 0
  }
  convolution_param {
    num_output: 128
    kernel_size: 1
    weight_filler {
      type: "xavier"
    }
    bias_filler {
      type: "constant"
      value: 0.2
    }
  }
}
layer {
  name: "inception_3b/prelu_1x1"
  type: "PReLU"
  bottom: "inception_3b/1x1"
  top: "inception_3b/1x1"
  param {
    lr_mult: 1
    decay_mult: 0
  }
  prelu_param {
    filler {
      type: "constant"
      value: 0.01
    }
  }
}
layer {
  name: "inception_3b/3x3_reduce"
  type: "Convolution"
  bottom: "inception_3a/output"
  top: "inception_3b/3x3_reduce"
  param {
    lr_mult: 1
    decay_mult: 1
  }
  param {
    lr_mult: 2
    decay_mult: 0
  }
  convolution_param {
    num_output: 128
    kernel_size: 1
    weight_filler {
      type: "xavier"
    }
    bias_filler {
      type: "constant"
      value: 0.2
    }
  }
}
layer {
  name: "inception_3b/prelu_3x3_reduce"
  type: "PReLU"
  bottom: "inception_3b/3x3_reduce"
  top: "inception_3b/3x3_reduce"
  param {
    lr_mult: 1
    decay_mult: 0
  }
  prelu_param {
    filler {
      type: "constant"
      value: 0.01
    }
  }
}
layer {
  name: "inception_3b/3x3"
  type: "Convolution"
  bottom: "inception_3b/3x3_reduce"
  top: "inception_3b/3x3"
  param {
    lr_mult: 1
    decay_mult: 1
  }
  param {
    lr_mult: 2
    decay_mult: 0
  }
  convolution_param {
    num_output: 192
    pad: 1
    kernel_size: 3
    weight_filler {
      type: "xavier"
    }
    bias_filler {
      type: "constant"
      value: 0.2
    }
  }
}
layer {
  name: "inception_3b/prelu_3x3"
  type: "PReLU"
  bottom: "inception_3b/3x3"
  top: "inception_3b/3x3"
  param {
    lr_mult: 1
    decay_mult: 0
  }
  prelu_param {
    filler {
      type: "constant"
      value: 0.01
    }
  }
}
layer {
  name: "inception_3b/5x5_reduce"
  type: "Convolution"
  bottom: "inception_3a/output"
  top: "inception_3b/5x5_reduce"
  param {
    lr_mult: 1
    decay_mult: 1
  }
  param {
    lr_mult: 2
    decay_mult: 0
  }
  convolution_param {
    num_output: 32
    kernel_size: 1
    weight_filler {
      type: "xavier"
    }
    bias_filler {
      type: "constant"
      value: 0.2
    }
  }
}
layer {
  name: "inception_3b/prelu_5x5_reduce"
  type: "PReLU"
  bottom: "inception_3b/5x5_reduce"
  top: "inception_3b/5x5_reduce"
  param {
    lr_mult: 1
    decay_mult: 0
  }
  prelu_param {
    filler {
      type: "constant"
      value: 0.01
    }
  }
}
layer {
  name: "inception_3b/5x5"
  type: "Convolution"
  bottom: "inception_3b/5x5_reduce"
  top: "inception_3b/5x5"
  param {
    lr_mult: 1
    decay_mult: 1
  }
  param {
    lr_mult: 2
    decay_mult: 0
  }
  convolution_param {
    num_output: 96
    pad: 2
    kernel_size: 5
    weight_filler {
      type: "xavier"
    }
    bias_filler {
      type: "constant"
      value: 0.2
    }
  }
}
layer {
  name: "inception_3b/prelu_5x5"
  type: "PReLU"
  bottom: "inception_3b/5x5"
  top: "inception_3b/5x5"
  param {
    lr_mult: 1
    decay_mult: 0
  }
  prelu_param {
    filler {
      type: "constant"
      value: 0.01
    }
  }
}
layer {
  name: "inception_3b/pool"
  type: "Pooling"
  bottom: "inception_3a/output"
  top: "inception_3b/pool"
  pooling_param {
    pool: MAX
    kernel_size: 3
    stride: 1
    pad: 1
  }
}
layer {
  name: "inception_3b/pool_proj"
  type: "Convolution"
  bottom: "inception_3b/pool"
  top: "inception_3b/pool_proj"
  param {
    lr_mult: 1
    decay_mult: 1
  }
  param {
    lr_mult: 2
    decay_mult: 0
  }
  convolution_param {
    num_output: 64
    kernel_size: 1
    weight_filler {
      type: "xavier"
    }
    bias_filler {
      type: "constant"
      value: 0.2
    }
  }
}
layer {
  name: "inception_3b/prelu_pool_proj"
  type: "PReLU"
  bottom: "inception_3b/pool_proj"
  top: "inception_3b/pool_proj"
  param {
    lr_mult: 1
    decay_mult: 0
  }
  prelu_param {
    filler {
      type: "constant"
      value: 0.01
    }
  }
}
layer {
  name: "inception_3b/output"
  type: "Concat"
  bottom: "inception_3b/1x1"
  bottom: "inception_3b/3x3"
  bottom: "inception_3b/5x5"
  bottom: "inception_3b/pool_proj"
  top: "inception_3b/output"
}
layer {
  name: "pool3/3x3_s2"
  type: "Pooling"
  bottom: "inception_3b/output"
  top: "pool3/3x3_s2"
  pooling_param {
    pool: MAX
    kernel_size: 3
    stride: 2
  }
}
layer {
  name: "inception_4a/1x1"
  type: "Convolution"
  bottom: "pool3/3x3_s2"
  top: "inception_4a/1x1"
  param {
    lr_mult: 1
    decay_mult: 1
  }
  param {
    lr_mult: 2
    decay_mult: 0
  }
  convolution_param {
    num_output: 192
    kernel_size: 1
    weight_filler {
      type: "xavier"
    }
    bias_filler {
      type: "constant"
      value: 0.2
    }
  }
}
layer {
  name: "inception_4a/prelu_1x1"
  type: "PReLU"
  bottom: "inception_4a/1x1"
  top: "inception_4a/1x1"
  param {
    lr_mult: 1
    decay_mult: 0
  }
  prelu_param {
    filler {
      type: "constant"
      value: 0.01
    }
  }
}
layer {
  name: "inception_4a/3x3_reduce"
  type: "Convolution"
  bottom: "pool3/3x3_s2"
  top: "inception_4a/3x3_reduce"
  param {
    lr_mult: 1
    decay_mult: 1
  }
  param {
    lr_mult: 2
    decay_mult: 0
  }
  convolution_param {
    num_output: 96
    kernel_size: 1
    weight_filler {
      type: "xavier"
    }
    bias_filler {
      type: "constant"
      value: 0.2
    }
  }
}
layer {
  name: "inception_4a/prelu_3x3_reduce"
  type: "PReLU"
  bottom: "inception_4a/3x3_reduce"
  top: "inception_4a/3x3_reduce"
  param {
    lr_mult: 1
    decay_mult: 0
  }
  prelu_param {
    filler {
      type: "constant"
      value: 0.01
    }
  }
}
layer {
  name: "inception_4a/3x3"
  type: "Convolution"
  bottom: "inception_4a/3x3_reduce"
  top: "inception_4a/3x3"
  param {
    lr_mult: 1
    decay_mult: 1
  }
  param {
    lr_mult: 2
    decay_mult: 0
  }
  convolution_param {
    num_output: 208
    pad: 1
    kernel_size: 3
    weight_filler {
      type: "xavier"
    }
    bias_filler {
      type: "constant"
      value: 0.2
    }
  }
}
layer {
  name: "inception_4a/prelu_3x3"
  type: "PReLU"
  bottom: "inception_4a/3x3"
  top: "inception_4a/3x3"
  param {
    lr_mult: 1
    decay_mult: 0
  }
  prelu_param {
    filler {
      type: "constant"
      value: 0.01
    }
  }
}
layer {
  name: "inception_4a/5x5_reduce"
  type: "Convolution"
  bottom: "pool3/3x3_s2"
  top: "inception_4a/5x5_reduce"
  param {
    lr_mult: 1
    decay_mult: 1
  }
  param {
    lr_mult: 2
    decay_mult: 0
  }
  convolution_param {
    num_output: 16
    kernel_size: 1
    weight_filler {
      type: "xavier"
    }
    bias_filler {
      type: "constant"
      value: 0.2
    }
  }
}
layer {
  name: "inception_4a/prelu_5x5_reduce"
  type: "PReLU"
  bottom: "inception_4a/5x5_reduce"
  top: "inception_4a/5x5_reduce"
  param {
    lr_mult: 1
    decay_mult: 0
  }
  prelu_param {
    filler {
      type: "constant"
      value: 0.01
    }
  }
}
layer {
  name: "inception_4a/5x5"
  type: "Convolution"
  bottom: "inception_4a/5x5_reduce"
  top: "inception_4a/5x5"
  param {
    lr_mult: 1
    decay_mult: 1
  }
  param {
    lr_mult: 2
    decay_mult: 0
  }
  convolution_param {
    num_output: 48
    pad: 2
    kernel_size: 5
    weight_filler {
      type: "xavier"
    }
    bias_filler {
      type: "constant"
      value: 0.2
    }
  }
}
layer {
  name: "inception_4a/prelu_5x5"
  type: "PReLU"
  bottom: "inception_4a/5x5"
  top: "inception_4a/5x5"
  param {
    lr_mult: 1
    decay_mult: 0
  }
  prelu_param {
    filler {
      type: "constant"
      value: 0.01
    }
  }
}
layer {
  name: "inception_4a/pool"
  type: "Pooling"
  bottom: "pool3/3x3_s2"
  top: "inception_4a/pool"
  pooling_param {
    pool: MAX
    kernel_size: 3
    stride: 1
    pad: 1
  }
}
layer {
  name: "inception_4a/pool_proj"
  type: "Convolution"
  bottom: "inception_4a/pool"
  top: "inception_4a/pool_proj"
  param {
    lr_mult: 1
    decay_mult: 1
  }
  param {
    lr_mult: 2
    decay_mult: 0
  }
  convolution_param {
    num_output: 64
    kernel_size: 1
    weight_filler {
      type: "xavier"
    }
    bias_filler {
      type: "constant"
      value: 0.2
    }
  }
}
layer {
  name: "inception_4a/prelu_pool_proj"
  type: "PReLU"
  bottom: "inception_4a/pool_proj"
  top: "inception_4a/pool_proj"
  param {
    lr_mult: 1
    decay_mult: 0
  }
  prelu_param {
    filler {
      type: "constant"
      value: 0.01
    }
  }
}
layer {
  name: "inception_4a/output"
  type: "Concat"
  bottom: "inception_4a/1x1"
  bottom: "inception_4a/3x3"
  bottom: "inception_4a/5x5"
  bottom: "inception_4a/pool_proj"
  top: "inception_4a/output"
}
layer {
  name: "loss1/ave_pool"
  type: "Pooling"
  bottom: "inception_4a/output"
  top: "loss1/ave_pool"
  pooling_param {
    pool: AVE
    kernel_size: 5
    stride: 3
  }
}
layer {
  name: "loss1/conv"
  type: "Convolution"
  bottom: "loss1/ave_pool"
  top: "loss1/conv"
  param {
    lr_mult: 1
    decay_mult: 1
  }
  param {
    lr_mult: 2
    decay_mult: 0
  }
  convolution_param {
    num_output: 128
    kernel_size: 1
    weight_filler {
      type: "xavier"
    }
    bias_filler {
      type: "constant"
      value: 0.2
    }
  }
}
layer {
  name: "loss1/prelu_conv"
  type: "PReLU"
  bottom: "loss1/conv"
  top: "loss1/conv"
  param {
    lr_mult: 1
    decay_mult: 0
  }
  prelu_param {
    filler {
      type: "constant"
      value: 0.01
    }
  }
}
layer {
  name: "loss1/fc"
  type: "InnerProduct"
  bottom: "loss1/conv"
  top: "loss1/fc"
  param {
    lr_mult: 1
    decay_mult: 1
  }
  param {
    lr_mult: 2
    decay_mult: 0
  }
  inner_product_param {
    num_output: 1024
    weight_filler {
      type: "xavier"
    }
    bias_filler {
      type: "constant"
      value: 0.2
    }
  }
}
layer {
  name: "loss1/prelu_fc"
  type: "PReLU"
  bottom: "loss1/fc"
  top: "loss1/fc"
  param {
    lr_mult: 1
    decay_mult: 0
  }
  prelu_param {
    filler {
      type: "constant"
      value: 0.01
    }
  }
}
layer {
  name: "loss1/drop_fc"
  type: "Dropout"
  bottom: "loss1/fc"
  top: "loss1/fc"
  dropout_param {
    dropout_ratio: 0.7
  }
}
layer {
  name: "loss1/classifier2"
  type: "InnerProduct"
  bottom: "loss1/fc"
  top: "loss1/classifier"
  param {
    lr_mult: 1
    decay_mult: 1
  }
  param {
    lr_mult: 2
    decay_mult: 0
  }
  inner_product_param {
    num_output: 2
    weight_filler {
      type: "xavier"
    }
    bias_filler {
      type: "constant"
      value: 0
    }
  }
}
layer {
  name: "loss1/loss"
  type: "SoftmaxWithLoss"
  bottom: "loss1/classifier"
  bottom: "label"
  top: "loss1/loss1"
  loss_weight: 0.3
}
layer {
  name: "inception_4b/1x1"
  type: "Convolution"
  bottom: "inception_4a/output"
  top: "inception_4b/1x1"
  param {
    lr_mult: 1
    decay_mult: 1
  }
  param {
    lr_mult: 2
    decay_mult: 0
  }
  convolution_param {
    num_output: 160
    kernel_size: 1
    weight_filler {
      type: "xavier"
    }
    bias_filler {
      type: "constant"
      value: 0.2
    }
  }
}
layer {
  name: "inception_4b/prelu_1x1"
  type: "PReLU"
  bottom: "inception_4b/1x1"
  top: "inception_4b/1x1"
  param {
    lr_mult: 1
    decay_mult: 0
  }
  prelu_param {
    filler {
      type: "constant"
      value: 0.01
    }
  }
}
layer {
  name: "inception_4b/3x3_reduce"
  type: "Convolution"
  bottom: "inception_4a/output"
  top: "inception_4b/3x3_reduce"
  param {
    lr_mult: 1
    decay_mult: 1
  }
  param {
    lr_mult: 2
    decay_mult: 0
  }
  convolution_param {
    num_output: 112
    kernel_size: 1
    weight_filler {
      type: "xavier"
    }
    bias_filler {
      type: "constant"
      value: 0.2
    }
  }
}
layer {
  name: "inception_4b/prelu_3x3_reduce"
  type: "PReLU"
  bottom: "inception_4b/3x3_reduce"
  top: "inception_4b/3x3_reduce"
  param {
    lr_mult: 1
    decay_mult: 0
  }
  prelu_param {
    filler {
      type: "constant"
      value: 0.01
    }
  }
}
layer {
  name: "inception_4b/3x3"
  type: "Convolution"
  bottom: "inception_4b/3x3_reduce"
  top: "inception_4b/3x3"
  param {
    lr_mult: 1
    decay_mult: 1
  }
  param {
    lr_mult: 2
    decay_mult: 0
  }
  convolution_param {
    num_output: 224
    pad: 1
    kernel_size: 3
    weight_filler {
      type: "xavier"
    }
    bias_filler {
      type: "constant"
      value: 0.2
    }
  }
}
layer {
  name: "inception_4b/prelu_3x3"
  type: "PReLU"
  bottom: "inception_4b/3x3"
  top: "inception_4b/3x3"
  param {
    lr_mult: 1
    decay_mult: 0
  }
  prelu_param {
    filler {
      type: "constant"
      value: 0.01
    }
  }
}
layer {
  name: "inception_4b/5x5_reduce"
  type: "Convolution"
  bottom: "inception_4a/output"
  top: "inception_4b/5x5_reduce"
  param {
    lr_mult: 1
    decay_mult: 1
  }
  param {
    lr_mult: 2
    decay_mult: 0
  }
  convolution_param {
    num_output: 24
    kernel_size: 1
    weight_filler {
      type: "xavier"
    }
    bias_filler {
      type: "constant"
      value: 0.2
    }
  }
}
layer {
  name: "inception_4b/prelu_5x5_reduce"
  type: "PReLU"
  bottom: "inception_4b/5x5_reduce"
  top: "inception_4b/5x5_reduce"
  param {
    lr_mult: 1
    decay_mult: 0
  }
  prelu_param {
    filler {
      type: "constant"
      value: 0.01
    }
  }
}
layer {
  name: "inception_4b/5x5"
  type: "Convolution"
  bottom: "inception_4b/5x5_reduce"
  top: "inception_4b/5x5"
  param {
    lr_mult: 1
    decay_mult: 1
  }
  param {
    lr_mult: 2
    decay_mult: 0
  }
  convolution_param {
    num_output: 64
    pad: 2
    kernel_size: 5
    weight_filler {
      type: "xavier"
    }
    bias_filler {
      type: "constant"
      value: 0.2
    }
  }
}
layer {
  name: "inception_4b/prelu_5x5"
  type: "PReLU"
  bottom: "inception_4b/5x5"
  top: "inception_4b/5x5"
  param {
    lr_mult: 1
    decay_mult: 0
  }
  prelu_param {
    filler {
      type: "constant"
      value: 0.01
    }
  }
}
layer {
  name: "inception_4b/pool"
  type: "Pooling"
  bottom: "inception_4a/output"
  top: "inception_4b/pool"
  pooling_param {
    pool: MAX
    kernel_size: 3
    stride: 1
    pad: 1
  }
}
layer {
  name: "inception_4b/pool_proj"
  type: "Convolution"
  bottom: "inception_4b/pool"
  top: "inception_4b/pool_proj"
  param {
    lr_mult: 1
    decay_mult: 1
  }
  param {
    lr_mult: 2
    decay_mult: 0
  }
  convolution_param {
    num_output: 64
    kernel_size: 1
    weight_filler {
      type: "xavier"
    }
    bias_filler {
      type: "constant"
      value: 0.2
    }
  }
}
layer {
  name: "inception_4b/prelu_pool_proj"
  type: "PReLU"
  bottom: "inception_4b/pool_proj"
  top: "inception_4b/pool_proj"
  param {
    lr_mult: 1
    decay_mult: 0
  }
  prelu_param {
    filler {
      type: "constant"
      value: 0.01
    }
  }
}
layer {
  name: "inception_4b/output"
  type: "Concat"
  bottom: "inception_4b/1x1"
  bottom: "inception_4b/3x3"
  bottom: "inception_4b/5x5"
  bottom: "inception_4b/pool_proj"
  top: "inception_4b/output"
}
layer {
  name: "inception_4c/1x1"
  type: "Convolution"
  bottom: "inception_4b/output"
  top: "inception_4c/1x1"
  param {
    lr_mult: 1
    decay_mult: 1
  }
  param {
    lr_mult: 2
    decay_mult: 0
  }
  convolution_param {
    num_output: 128
    kernel_size: 1
    weight_filler {
      type: "xavier"
    }
    bias_filler {
      type: "constant"
      value: 0.2
    }
  }
}
layer {
  name: "inception_4c/prelu_1x1"
  type: "PReLU"
  bottom: "inception_4c/1x1"
  top: "inception_4c/1x1"
  param {
    lr_mult: 1
    decay_mult: 0
  }
  prelu_param {
    filler {
      type: "constant"
      value: 0.01
    }
  }
}
layer {
  name: "inception_4c/3x3_reduce"
  type: "Convolution"
  bottom: "inception_4b/output"
  top: "inception_4c/3x3_reduce"
  param {
    lr_mult: 1
    decay_mult: 1
  }
  param {
    lr_mult: 2
    decay_mult: 0
  }
  convolution_param {
    num_output: 128
    kernel_size: 1
    weight_filler {
      type: "xavier"
    }
    bias_filler {
      type: "constant"
      value: 0.2
    }
  }
}
layer {
  name: "inception_4c/prelu_3x3_reduce"
  type: "PReLU"
  bottom: "inception_4c/3x3_reduce"
  top: "inception_4c/3x3_reduce"
  param {
    lr_mult: 1
    decay_mult: 0
  }
  prelu_param {
    filler {
      type: "constant"
      value: 0.01
    }
  }
}
layer {
  name: "inception_4c/3x3"
  type: "Convolution"
  bottom: "inception_4c/3x3_reduce"
  top: "inception_4c/3x3"
  param {
    lr_mult: 1
    decay_mult: 1
  }
  param {
    lr_mult: 2
    decay_mult: 0
  }
  convolution_param {
    num_output: 256
    pad: 1
    kernel_size: 3
    weight_filler {
      type: "xavier"
    }
    bias_filler {
      type: "constant"
      value: 0.2
    }
  }
}
layer {
  name: "inception_4c/prelu_3x3"
  type: "PReLU"
  bottom: "inception_4c/3x3"
  top: "inception_4c/3x3"
  param {
    lr_mult: 1
    decay_mult: 0
  }
  prelu_param {
    filler {
      type: "constant"
      value: 0.01
    }
  }
}
layer {
  name: "inception_4c/5x5_reduce"
  type: "Convolution"
  bottom: "inception_4b/output"
  top: "inception_4c/5x5_reduce"
  param {
    lr_mult: 1
    decay_mult: 1
  }
  param {
    lr_mult: 2
    decay_mult: 0
  }
  convolution_param {
    num_output: 24
    kernel_size: 1
    weight_filler {
      type: "xavier"
    }
    bias_filler {
      type: "constant"
      value: 0.2
    }
  }
}
layer {
  name: "inception_4c/prelu_5x5_reduce"
  type: "PReLU"
  bottom: "inception_4c/5x5_reduce"
  top: "inception_4c/5x5_reduce"
  param {
    lr_mult: 1
    decay_mult: 0
  }
  prelu_param {
    filler {
      type: "constant"
      value: 0.01
    }
  }
}
layer {
  name: "inception_4c/5x5"
  type: "Convolution"
  bottom: "inception_4c/5x5_reduce"
  top: "inception_4c/5x5"
  param {
    lr_mult: 1
    decay_mult: 1
  }
  param {
    lr_mult: 2
    decay_mult: 0
  }
  convolution_param {
    num_output: 64
    pad: 2
    kernel_size: 5
    weight_filler {
      type: "xavier"
    }
    bias_filler {
      type: "constant"
      value: 0.2
    }
  }
}
layer {
  name: "inception_4c/prelu_5x5"
  type: "PReLU"
  bottom: "inception_4c/5x5"
  top: "inception_4c/5x5"
  param {
    lr_mult: 1
    decay_mult: 0
  }
  prelu_param {
    filler {
      type: "constant"
      value: 0.01
    }
  }
}
layer {
  name: "inception_4c/pool"
  type: "Pooling"
  bottom: "inception_4b/output"
  top: "inception_4c/pool"
  pooling_param {
    pool: MAX
    kernel_size: 3
    stride: 1
    pad: 1
  }
}
layer {
  name: "inception_4c/pool_proj"
  type: "Convolution"
  bottom: "inception_4c/pool"
  top: "inception_4c/pool_proj"
  param {
    lr_mult: 1
    decay_mult: 1
  }
  param {
    lr_mult: 2
    decay_mult: 0
  }
  convolution_param {
    num_output: 64
    kernel_size: 1
    weight_filler {
      type: "xavier"
    }
    bias_filler {
      type: "constant"
      value: 0.2
    }
  }
}
layer {
  name: "inception_4c/prelu_pool_proj"
  type: "PReLU"
  bottom: "inception_4c/pool_proj"
  top: "inception_4c/pool_proj"
  param {
    lr_mult: 1
    decay_mult: 0
  }
  prelu_param {
    filler {
      type: "constant"
      value: 0.01
    }
  }
}
layer {
  name: "inception_4c/output"
  type: "Concat"
  bottom: "inception_4c/1x1"
  bottom: "inception_4c/3x3"
  bottom: "inception_4c/5x5"
  bottom: "inception_4c/pool_proj"
  top: "inception_4c/output"
}
layer {
  name: "inception_4d/1x1"
  type: "Convolution"
  bottom: "inception_4c/output"
  top: "inception_4d/1x1"
  param {
    lr_mult: 1
    decay_mult: 1
  }
  param {
    lr_mult: 2
    decay_mult: 0
  }
  convolution_param {
    num_output: 112
    kernel_size: 1
    weight_filler {
      type: "xavier"
    }
    bias_filler {
      type: "constant"
      value: 0.2
    }
  }
}
layer {
  name: "inception_4d/prelu_1x1"
  type: "PReLU"
  bottom: "inception_4d/1x1"
  top: "inception_4d/1x1"
  param {
    lr_mult: 1
    decay_mult: 0
  }
  prelu_param {
    filler {
      type: "constant"
      value: 0.01
    }
  }
}
layer {
  name: "inception_4d/3x3_reduce"
  type: "Convolution"
  bottom: "inception_4c/output"
  top: "inception_4d/3x3_reduce"
  param {
    lr_mult: 1
    decay_mult: 1
  }
  param {
    lr_mult: 2
    decay_mult: 0
  }
  convolution_param {
    num_output: 144
    kernel_size: 1
    weight_filler {
      type: "xavier"
    }
    bias_filler {
      type: "constant"
      value: 0.2
    }
  }
}
layer {
  name: "inception_4d/prelu_3x3_reduce"
  type: "PReLU"
  bottom: "inception_4d/3x3_reduce"
  top: "inception_4d/3x3_reduce"
  param {
    lr_mult: 1
    decay_mult: 0
  }
  prelu_param {
    filler {
      type: "constant"
      value: 0.01
    }
  }
}
layer {
  name: "inception_4d/3x3"
  type: "Convolution"
  bottom: "inception_4d/3x3_reduce"
  top: "inception_4d/3x3"
  param {
    lr_mult: 1
    decay_mult: 1
  }
  param {
    lr_mult: 2
    decay_mult: 0
  }
  convolution_param {
    num_output: 288
    pad: 1
    kernel_size: 3
    weight_filler {
      type: "xavier"
    }
    bias_filler {
      type: "constant"
      value: 0.2
    }
  }
}
layer {
  name: "inception_4d/prelu_3x3"
  type: "PReLU"
  bottom: "inception_4d/3x3"
  top: "inception_4d/3x3"
  param {
    lr_mult: 1
    decay_mult: 0
  }
  prelu_param {
    filler {
      type: "constant"
      value: 0.01
    }
  }
}
layer {
  name: "inception_4d/5x5_reduce"
  type: "Convolution"
  bottom: "inception_4c/output"
  top: "inception_4d/5x5_reduce"
  param {
    lr_mult: 1
    decay_mult: 1
  }
  param {
    lr_mult: 2
    decay_mult: 0
  }
  convolution_param {
    num_output: 32
    kernel_size: 1
    weight_filler {
      type: "xavier"
    }
    bias_filler {
      type: "constant"
      value: 0.2
    }
  }
}
layer {
  name: "inception_4d/prelu_5x5_reduce"
  type: "PReLU"
  bottom: "inception_4d/5x5_reduce"
  top: "inception_4d/5x5_reduce"
  param {
    lr_mult: 1
    decay_mult: 0
  }
  prelu_param {
    filler {
      type: "constant"
      value: 0.01
    }
  }
}
layer {
  name: "inception_4d/5x5"
  type: "Convolution"
  bottom: "inception_4d/5x5_reduce"
  top: "inception_4d/5x5"
  param {
    lr_mult: 1
    decay_mult: 1
  }
  param {
    lr_mult: 2
    decay_mult: 0
  }
  convolution_param {
    num_output: 64
    pad: 2
    kernel_size: 5
    weight_filler {
      type: "xavier"
    }
    bias_filler {
      type: "constant"
      value: 0.2
    }
  }
}
layer {
  name: "inception_4d/prelu_5x5"
  type: "PReLU"
  bottom: "inception_4d/5x5"
  top: "inception_4d/5x5"
  param {
    lr_mult: 1
    decay_mult: 0
  }
  prelu_param {
    filler {
      type: "constant"
      value: 0.01
    }
  }
}
layer {
  name: "inception_4d/pool"
  type: "Pooling"
  bottom: "inception_4c/output"
  top: "inception_4d/pool"
  pooling_param {
    pool: MAX
    kernel_size: 3
    stride: 1
    pad: 1
  }
}
layer {
  name: "inception_4d/pool_proj"
  type: "Convolution"
  bottom: "ince
I1028 13:30:00.375857 28179 layer_factory.hpp:76] Creating layer data
I1028 13:30:00.376485 28179 net.cpp:106] Creating Layer data
I1028 13:30:00.376507 28179 net.cpp:411] data -> data
I1028 13:30:00.376544 28179 net.cpp:411] data -> label
I1028 13:30:00.377595 28183 db_lmdb.cpp:38] Opened lmdb ../../LMDB/train_5-lmdb
I1028 13:30:00.391265 28179 data_layer.cpp:41] output data size: 32,3,224,224
I1028 13:30:00.456253 28179 net.cpp:150] Setting up data
I1028 13:30:00.456300 28179 net.cpp:157] Top shape: 32 3 224 224 (4816896)
I1028 13:30:00.456315 28179 net.cpp:157] Top shape: 32 (32)
I1028 13:30:00.456321 28179 net.cpp:165] Memory required for data: 19267712
I1028 13:30:00.456331 28179 layer_factory.hpp:76] Creating layer label_data_1_split
I1028 13:30:00.456346 28179 net.cpp:106] Creating Layer label_data_1_split
I1028 13:30:00.456356 28179 net.cpp:454] label_data_1_split <- label
I1028 13:30:00.456382 28179 net.cpp:411] label_data_1_split -> label_data_1_split_0
I1028 13:30:00.456414 28179 net.cpp:411] label_data_1_split -> label_data_1_split_1
I1028 13:30:00.456428 28179 net.cpp:411] label_data_1_split -> label_data_1_split_2
I1028 13:30:00.456523 28179 net.cpp:150] Setting up label_data_1_split
I1028 13:30:00.456532 28179 net.cpp:157] Top shape: 32 (32)
I1028 13:30:00.456537 28179 net.cpp:157] Top shape: 32 (32)
I1028 13:30:00.456552 28179 net.cpp:157] Top shape: 32 (32)
I1028 13:30:00.456555 28179 net.cpp:165] Memory required for data: 19268096
I1028 13:30:00.456560 28179 layer_factory.hpp:76] Creating layer conv1/7x7_s2
I1028 13:30:00.456581 28179 net.cpp:106] Creating Layer conv1/7x7_s2
I1028 13:30:00.456591 28179 net.cpp:454] conv1/7x7_s2 <- data
I1028 13:30:00.456604 28179 net.cpp:411] conv1/7x7_s2 -> conv1/7x7_s2
I1028 13:30:00.671000 28179 cudnn_conv_layer.cpp:194] Reallocating workspace storage: 225816
I1028 13:30:00.671282 28179 net.cpp:150] Setting up conv1/7x7_s2
I1028 13:30:00.671298 28179 net.cpp:157] Top shape: 32 64 112 112 (25690112)
I1028 13:30:00.671303 28179 net.cpp:165] Memory required for data: 122028544
I1028 13:30:00.671331 28179 layer_factory.hpp:76] Creating layer conv1/prelu_7x7
I1028 13:30:00.671370 28179 net.cpp:106] Creating Layer conv1/prelu_7x7
I1028 13:30:00.671376 28179 net.cpp:454] conv1/prelu_7x7 <- conv1/7x7_s2
I1028 13:30:00.671385 28179 net.cpp:397] conv1/prelu_7x7 -> conv1/7x7_s2 (in-place)
I1028 13:30:00.673038 28179 net.cpp:150] Setting up conv1/prelu_7x7
I1028 13:30:00.673053 28179 net.cpp:157] Top shape: 32 64 112 112 (25690112)
I1028 13:30:00.673058 28179 net.cpp:165] Memory required for data: 224788992
I1028 13:30:00.673065 28179 layer_factory.hpp:76] Creating layer pool1/3x3_s2
I1028 13:30:00.673077 28179 net.cpp:106] Creating Layer pool1/3x3_s2
I1028 13:30:00.673082 28179 net.cpp:454] pool1/3x3_s2 <- conv1/7x7_s2
I1028 13:30:00.673089 28179 net.cpp:411] pool1/3x3_s2 -> pool1/3x3_s2
I1028 13:30:00.673481 28179 net.cpp:150] Setting up pool1/3x3_s2
I1028 13:30:00.673493 28179 net.cpp:157] Top shape: 32 64 56 56 (6422528)
I1028 13:30:00.673497 28179 net.cpp:165] Memory required for data: 250479104
I1028 13:30:00.673502 28179 layer_factory.hpp:76] Creating layer pool1/norm1
I1028 13:30:00.673513 28179 net.cpp:106] Creating Layer pool1/norm1
I1028 13:30:00.673517 28179 net.cpp:454] pool1/norm1 <- pool1/3x3_s2
I1028 13:30:00.673523 28179 net.cpp:411] pool1/norm1 -> pool1/norm1
I1028 13:30:00.673697 28179 net.cpp:150] Setting up pool1/norm1
I1028 13:30:00.673707 28179 net.cpp:157] Top shape: 32 64 56 56 (6422528)
I1028 13:30:00.673712 28179 net.cpp:165] Memory required for data: 276169216
I1028 13:30:00.673717 28179 layer_factory.hpp:76] Creating layer conv2/3x3_reduce
I1028 13:30:00.673725 28179 net.cpp:106] Creating Layer conv2/3x3_reduce
I1028 13:30:00.673730 28179 net.cpp:454] conv2/3x3_reduce <- pool1/norm1
I1028 13:30:00.673737 28179 net.cpp:411] conv2/3x3_reduce -> conv2/3x3_reduce
I1028 13:30:00.675182 28179 cudnn_conv_layer.cpp:194] Reallocating workspace storage: 63000
I1028 13:30:00.675204 28179 net.cpp:150] Setting up conv2/3x3_reduce
I1028 13:30:00.675212 28179 net.cpp:157] Top shape: 32 64 56 56 (6422528)
I1028 13:30:00.675218 28179 net.cpp:165] Memory required for data: 301859328
I1028 13:30:00.675227 28179 layer_factory.hpp:76] Creating layer conv2/prelu_3x3_reduce
I1028 13:30:00.675235 28179 net.cpp:106] Creating Layer conv2/prelu_3x3_reduce
I1028 13:30:00.675240 28179 net.cpp:454] conv2/prelu_3x3_reduce <- conv2/3x3_reduce
I1028 13:30:00.675246 28179 net.cpp:397] conv2/prelu_3x3_reduce -> conv2/3x3_reduce (in-place)
I1028 13:30:00.675834 28179 net.cpp:150] Setting up conv2/prelu_3x3_reduce
I1028 13:30:00.675847 28179 net.cpp:157] Top shape: 32 64 56 56 (6422528)
I1028 13:30:00.675850 28179 net.cpp:165] Memory required for data: 327549440
I1028 13:30:00.675856 28179 layer_factory.hpp:76] Creating layer conv2/3x3
I1028 13:30:00.675868 28179 net.cpp:106] Creating Layer conv2/3x3
I1028 13:30:00.675873 28179 net.cpp:454] conv2/3x3 <- conv2/3x3_reduce
I1028 13:30:00.675879 28179 net.cpp:411] conv2/3x3 -> conv2/3x3
I1028 13:30:00.677858 28179 cudnn_conv_layer.cpp:194] Reallocating workspace storage: 63000
I1028 13:30:00.677880 28179 net.cpp:150] Setting up conv2/3x3
I1028 13:30:00.677886 28179 net.cpp:157] Top shape: 32 192 56 56 (19267584)
I1028 13:30:00.677891 28179 net.cpp:165] Memory required for data: 404619776
I1028 13:30:00.677897 28179 layer_factory.hpp:76] Creating layer conv2/prelu_3x3
I1028 13:30:00.677906 28179 net.cpp:106] Creating Layer conv2/prelu_3x3
I1028 13:30:00.677919 28179 net.cpp:454] conv2/prelu_3x3 <- conv2/3x3
I1028 13:30:00.677927 28179 net.cpp:397] conv2/prelu_3x3 -> conv2/3x3 (in-place)
I1028 13:30:00.679064 28179 net.cpp:150] Setting up conv2/prelu_3x3
I1028 13:30:00.679080 28179 net.cpp:157] Top shape: 32 192 56 56 (19267584)
I1028 13:30:00.679085 28179 net.cpp:165] Memory required for data: 481690112
I1028 13:30:00.679112 28179 layer_factory.hpp:76] Creating layer conv2/norm2
I1028 13:30:00.679128 28179 net.cpp:106] Creating Layer conv2/norm2
I1028 13:30:00.679134 28179 net.cpp:454] conv2/norm2 <- conv2/3x3
I1028 13:30:00.679141 28179 net.cpp:411] conv2/norm2 -> conv2/norm2
I1028 13:30:00.679333 28179 net.cpp:150] Setting up conv2/norm2
I1028 13:30:00.679344 28179 net.cpp:157] Top shape: 32 192 56 56 (19267584)
I1028 13:30:00.679348 28179 net.cpp:165] Memory required for data: 558760448
I1028 13:30:00.679352 28179 layer_factory.hpp:76] Creating layer pool2/3x3_s2
I1028 13:30:00.679359 28179 net.cpp:106] Creating Layer pool2/3x3_s2
I1028 13:30:00.679373 28179 net.cpp:454] pool2/3x3_s2 <- conv2/norm2
I1028 13:30:00.679378 28179 net.cpp:411] pool2/3x3_s2 -> pool2/3x3_s2
I1028 13:30:00.679730 28179 net.cpp:150] Setting up pool2/3x3_s2
I1028 13:30:00.679740 28179 net.cpp:157] Top shape: 32 192 28 28 (4816896)
I1028 13:30:00.679744 28179 net.cpp:165] Memory required for data: 578028032
I1028 13:30:00.679749 28179 layer_factory.hpp:76] Creating layer pool2/3x3_s2_pool2/3x3_s2_0_split
I1028 13:30:00.679755 28179 net.cpp:106] Creating Layer pool2/3x3_s2_pool2/3x3_s2_0_split
I1028 13:30:00.679759 28179 net.cpp:454] pool2/3x3_s2_pool2/3x3_s2_0_split <- pool2/3x3_s2
I1028 13:30:00.679764 28179 net.cpp:411] pool2/3x3_s2_pool2/3x3_s2_0_split -> pool2/3x3_s2_pool2/3x3_s2_0_split_0
I1028 13:30:00.679771 28179 net.cpp:411] pool2/3x3_s2_pool2/3x3_s2_0_split -> pool2/3x3_s2_pool2/3x3_s2_0_split_1
I1028 13:30:00.679786 28179 net.cpp:411] pool2/3x3_s2_pool2/3x3_s2_0_split -> pool2/3x3_s2_pool2/3x3_s2_0_split_2
I1028 13:30:00.679793 28179 net.cpp:411] pool2/3x3_s2_pool2/3x3_s2_0_split -> pool2/3x3_s2_pool2/3x3_s2_0_split_3
I1028 13:30:00.679852 28179 net.cpp:150] Setting up pool2/3x3_s2_pool2/3x3_s2_0_split
I1028 13:30:00.679859 28179 net.cpp:157] Top shape: 32 192 28 28 (4816896)
I1028 13:30:00.679864 28179 net.cpp:157] Top shape: 32 192 28 28 (4816896)
I1028 13:30:00.679869 28179 net.cpp:157] Top shape: 32 192 28 28 (4816896)
I1028 13:30:00.679873 28179 net.cpp:157] Top shape: 32 192 28 28 (4816896)
I1028 13:30:00.679877 28179 net.cpp:165] Memory required for data: 655098368
I1028 13:30:00.679880 28179 layer_factory.hpp:76] Creating layer inception_3a/1x1
I1028 13:30:00.679889 28179 net.cpp:106] Creating Layer inception_3a/1x1
I1028 13:30:00.679893 28179 net.cpp:454] inception_3a/1x1 <- pool2/3x3_s2_pool2/3x3_s2_0_split_0
I1028 13:30:00.679908 28179 net.cpp:411] inception_3a/1x1 -> inception_3a/1x1
I1028 13:30:00.681367 28179 cudnn_conv_layer.cpp:194] Reallocating workspace storage: 20664
I1028 13:30:00.681393 28179 net.cpp:150] Setting up inception_3a/1x1
I1028 13:30:00.681402 28179 net.cpp:157] Top shape: 32 64 28 28 (1605632)
I1028 13:30:00.681406 28179 net.cpp:165] Memory required for data: 661520896
I1028 13:30:00.681413 28179 layer_factory.hpp:76] Creating layer inception_3a/prelu_1x1
I1028 13:30:00.681429 28179 net.cpp:106] Creating Layer inception_3a/prelu_1x1
I1028 13:30:00.681434 28179 net.cpp:454] inception_3a/prelu_1x1 <- inception_3a/1x1
I1028 13:30:00.681442 28179 net.cpp:397] inception_3a/prelu_1x1 -> inception_3a/1x1 (in-place)
I1028 13:30:00.681985 28179 net.cpp:150] Setting up inception_3a/prelu_1x1
I1028 13:30:00.681998 28179 net.cpp:157] Top shape: 32 64 28 28 (1605632)
I1028 13:30:00.682001 28179 net.cpp:165] Memory required for data: 667943424
I1028 13:30:00.682008 28179 layer_factory.hpp:76] Creating layer inception_3a/3x3_reduce
I1028 13:30:00.682031 28179 net.cpp:106] Creating Layer inception_3a/3x3_reduce
I1028 13:30:00.682046 28179 net.cpp:454] inception_3a/3x3_reduce <- pool2/3x3_s2_pool2/3x3_s2_0_split_1
I1028 13:30:00.682054 28179 net.cpp:411] inception_3a/3x3_reduce -> inception_3a/3x3_reduce
I1028 13:30:00.683100 28179 cudnn_conv_layer.cpp:194] Reallocating workspace storage: 20664
I1028 13:30:00.683125 28179 net.cpp:150] Setting up inception_3a/3x3_reduce
I1028 13:30:00.683133 28179 net.cpp:157] Top shape: 32 96 28 28 (2408448)
I1028 13:30:00.683146 28179 net.cpp:165] Memory required for data: 677577216
I1028 13:30:00.683166 28179 layer_factory.hpp:76] Creating layer inception_3a/prelu_3x3_reduce
I1028 13:30:00.683178 28179 net.cpp:106] Creating Layer inception_3a/prelu_3x3_reduce
I1028 13:30:00.683185 28179 net.cpp:454] inception_3a/prelu_3x3_reduce <- inception_3a/3x3_reduce
I1028 13:30:00.683192 28179 net.cpp:397] inception_3a/prelu_3x3_reduce -> inception_3a/3x3_reduce (in-place)
I1028 13:30:00.683327 28179 net.cpp:150] Setting up inception_3a/prelu_3x3_reduce
I1028 13:30:00.683336 28179 net.cpp:157] Top shape: 32 96 28 28 (2408448)
I1028 13:30:00.683341 28179 net.cpp:165] Memory required for data: 687211008
I1028 13:30:00.683346 28179 layer_factory.hpp:76] Creating layer inception_3a/3x3
I1028 13:30:00.683362 28179 net.cpp:106] Creating Layer inception_3a/3x3
I1028 13:30:00.683369 28179 net.cpp:454] inception_3a/3x3 <- inception_3a/3x3_reduce
I1028 13:30:00.683377 28179 net.cpp:411] inception_3a/3x3 -> inception_3a/3x3
I1028 13:30:00.685742 28179 cudnn_conv_layer.cpp:194] Reallocating workspace storage: 20664
I1028 13:30:00.685778 28179 net.cpp:150] Setting up inception_3a/3x3
I1028 13:30:00.685787 28179 net.cpp:157] Top shape: 32 128 28 28 (3211264)
I1028 13:30:00.685792 28179 net.cpp:165] Memory required for data: 700056064
I1028 13:30:00.685807 28179 layer_factory.hpp:76] Creating layer inception_3a/prelu_3x3
I1028 13:30:00.685819 28179 net.cpp:106] Creating Layer inception_3a/prelu_3x3
I1028 13:30:00.685827 28179 net.cpp:454] inception_3a/prelu_3x3 <- inception_3a/3x3
I1028 13:30:00.685845 28179 net.cpp:397] inception_3a/prelu_3x3 -> inception_3a/3x3 (in-place)
I1028 13:30:00.685992 28179 net.cpp:150] Setting up inception_3a/prelu_3x3
I1028 13:30:00.686002 28179 net.cpp:157] Top shape: 32 128 28 28 (3211264)
I1028 13:30:00.686022 28179 net.cpp:165] Memory required for data: 712901120
I1028 13:30:00.686029 28179 layer_factory.hpp:76] Creating layer inception_3a/5x5_reduce
I1028 13:30:00.686041 28179 net.cpp:106] Creating Layer inception_3a/5x5_reduce
I1028 13:30:00.686048 28179 net.cpp:454] inception_3a/5x5_reduce <- pool2/3x3_s2_pool2/3x3_s2_0_split_2
I1028 13:30:00.686054 28179 net.cpp:411] inception_3a/5x5_reduce -> inception_3a/5x5_reduce
I1028 13:30:00.687312 28179 cudnn_conv_layer.cpp:194] Reallocating workspace storage: 20664
I1028 13:30:00.687335 28179 net.cpp:150] Setting up inception_3a/5x5_reduce
I1028 13:30:00.687345 28179 net.cpp:157] Top shape: 32 16 28 28 (401408)
I1028 13:30:00.687350 28179 net.cpp:165] Memory required for data: 714506752
I1028 13:30:00.687356 28179 layer_factory.hpp:76] Creating layer inception_3a/prelu_5x5_reduce
I1028 13:30:00.687364 28179 net.cpp:106] Creating Layer inception_3a/prelu_5x5_reduce
I1028 13:30:00.687369 28179 net.cpp:454] inception_3a/prelu_5x5_reduce <- inception_3a/5x5_reduce
I1028 13:30:00.687408 28179 net.cpp:397] inception_3a/prelu_5x5_reduce -> inception_3a/5x5_reduce (in-place)
I1028 13:30:00.687506 28179 net.cpp:150] Setting up inception_3a/prelu_5x5_reduce
I1028 13:30:00.687515 28179 net.cpp:157] Top shape: 32 16 28 28 (401408)
I1028 13:30:00.687520 28179 net.cpp:165] Memory required for data: 716112384
I1028 13:30:00.687525 28179 layer_factory.hpp:76] Creating layer inception_3a/5x5
I1028 13:30:00.687536 28179 net.cpp:106] Creating Layer inception_3a/5x5
I1028 13:30:00.687539 28179 net.cpp:454] inception_3a/5x5 <- inception_3a/5x5_reduce
I1028 13:30:00.687546 28179 net.cpp:411] inception_3a/5x5 -> inception_3a/5x5
I1028 13:30:00.688604 28179 cudnn_conv_layer.cpp:194] Reallocating workspace storage: 20664
I1028 13:30:00.688626 28179 net.cpp:150] Setting up inception_3a/5x5
I1028 13:30:00.688633 28179 net.cpp:157] Top shape: 32 32 28 28 (802816)
I1028 13:30:00.688637 28179 net.cpp:165] Memory required for data: 719323648
I1028 13:30:00.688644 28179 layer_factory.hpp:76] Creating layer inception_3a/prelu_5x5
I1028 13:30:00.688652 28179 net.cpp:106] Creating Layer inception_3a/prelu_5x5
I1028 13:30:00.688655 28179 net.cpp:454] inception_3a/prelu_5x5 <- inception_3a/5x5
I1028 13:30:00.688673 28179 net.cpp:397] inception_3a/prelu_5x5 -> inception_3a/5x5 (in-place)
I1028 13:30:00.688812 28179 net.cpp:150] Setting up inception_3a/prelu_5x5
I1028 13:30:00.688822 28179 net.cpp:157] Top shape: 32 32 28 28 (802816)
I1028 13:30:00.688827 28179 net.cpp:165] Memory required for data: 722534912
I1028 13:30:00.688832 28179 layer_factory.hpp:76] Creating layer inception_3a/pool
I1028 13:30:00.688839 28179 net.cpp:106] Creating Layer inception_3a/pool
I1028 13:30:00.688844 28179 net.cpp:454] inception_3a/pool <- pool2/3x3_s2_pool2/3x3_s2_0_split_3
I1028 13:30:00.688849 28179 net.cpp:411] inception_3a/pool -> inception_3a/pool
I1028 13:30:00.689028 28179 net.cpp:150] Setting up inception_3a/pool
I1028 13:30:00.689038 28179 net.cpp:157] Top shape: 32 192 28 28 (4816896)
I1028 13:30:00.689043 28179 net.cpp:165] Memory required for data: 741802496
I1028 13:30:00.689046 28179 layer_factory.hpp:76] Creating layer inception_3a/pool_proj
I1028 13:30:00.689054 28179 net.cpp:106] Creating Layer inception_3a/pool_proj
I1028 13:30:00.689059 28179 net.cpp:454] inception_3a/pool_proj <- inception_3a/pool
I1028 13:30:00.689066 28179 net.cpp:411] inception_3a/pool_proj -> inception_3a/pool_proj
I1028 13:30:00.690199 28179 cudnn_conv_layer.cpp:194] Reallocating workspace storage: 20664
I1028 13:30:00.690219 28179 net.cpp:150] Setting up inception_3a/pool_proj
I1028 13:30:00.690227 28179 net.cpp:157] Top shape: 32 32 28 28 (802816)
I1028 13:30:00.690232 28179 net.cpp:165] Memory required for data: 745013760
I1028 13:30:00.690237 28179 layer_factory.hpp:76] Creating layer inception_3a/prelu_pool_proj
I1028 13:30:00.690245 28179 net.cpp:106] Creating Layer inception_3a/prelu_pool_proj
I1028 13:30:00.690249 28179 net.cpp:454] inception_3a/prelu_pool_proj <- inception_3a/pool_proj
I1028 13:30:00.690258 28179 net.cpp:397] inception_3a/prelu_pool_proj -> inception_3a/pool_proj (in-place)
I1028 13:30:00.690346 28179 net.cpp:150] Setting up inception_3a/prelu_pool_proj
I1028 13:30:00.690354 28179 net.cpp:157] Top shape: 32 32 28 28 (802816)
I1028 13:30:00.690358 28179 net.cpp:165] Memory required for data: 748225024
I1028 13:30:00.690363 28179 layer_factory.hpp:76] Creating layer inception_3a/output
I1028 13:30:00.690374 28179 net.cpp:106] Creating Layer inception_3a/output
I1028 13:30:00.690378 28179 net.cpp:454] inception_3a/output <- inception_3a/1x1
I1028 13:30:00.690383 28179 net.cpp:454] inception_3a/output <- inception_3a/3x3
I1028 13:30:00.690388 28179 net.cpp:454] inception_3a/output <- inception_3a/5x5
I1028 13:30:00.690392 28179 net.cpp:454] inception_3a/output <- inception_3a/pool_proj
I1028 13:30:00.690397 28179 net.cpp:411] inception_3a/output -> inception_3a/output
I1028 13:30:00.690423 28179 net.cpp:150] Setting up inception_3a/output
I1028 13:30:00.690431 28179 net.cpp:157] Top shape: 32 256 28 28 (6422528)
I1028 13:30:00.690434 28179 net.cpp:165] Memory required for data: 773915136
I1028 13:30:00.690438 28179 layer_factory.hpp:76] Creating layer inception_3a/output_inception_3a/output_0_split
I1028 13:30:00.690446 28179 net.cpp:106] Creating Layer inception_3a/output_inception_3a/output_0_split
I1028 13:30:00.690450 28179 net.cpp:454] inception_3a/output_inception_3a/output_0_split <- inception_3a/output
I1028 13:30:00.690455 28179 net.cpp:411] inception_3a/output_inception_3a/output_0_split -> inception_3a/output_inception_3a/output_0_split_0
I1028 13:30:00.690470 28179 net.cpp:411] inception_3a/output_inception_3a/output_0_split -> inception_3a/output_inception_3a/output_0_split_1
I1028 13:30:00.690485 28179 net.cpp:411] inception_3a/output_inception_3a/output_0_split -> inception_3a/output_inception_3a/output_0_split_2
I1028 13:30:00.690491 28179 net.cpp:411] inception_3a/output_inception_3a/output_0_split -> inception_3a/output_inception_3a/output_0_split_3
I1028 13:30:00.690559 28179 net.cpp:150] Setting up inception_3a/output_inception_3a/output_0_split
I1028 13:30:00.690568 28179 net.cpp:157] Top shape: 32 256 28 28 (6422528)
I1028 13:30:00.690572 28179 net.cpp:157] Top shape: 32 256 28 28 (6422528)
I1028 13:30:00.690577 28179 net.cpp:157] Top shape: 32 256 28 28 (6422528)
I1028 13:30:00.690593 28179 net.cpp:157] Top shape: 32 256 28 28 (6422528)
I1028 13:30:00.690596 28179 net.cpp:165] Memory required for data: 876675584
I1028 13:30:00.690600 28179 layer_factory.hpp:76] Creating layer inception_3b/1x1
I1028 13:30:00.690609 28179 net.cpp:106] Creating Layer inception_3b/1x1
I1028 13:30:00.690613 28179 net.cpp:454] inception_3b/1x1 <- inception_3a/output_inception_3a/output_0_split_0
I1028 13:30:00.690620 28179 net.cpp:411] inception_3b/1x1 -> inception_3b/1x1
I1028 13:30:00.691764 28179 cudnn_conv_layer.cpp:194] Reallocating workspace storage: 20664
I1028 13:30:00.691783 28179 net.cpp:150] Setting up inception_3b/1x1
I1028 13:30:00.691790 28179 net.cpp:157] Top shape: 32 128 28 28 (3211264)
I1028 13:30:00.691794 28179 net.cpp:165] Memory required for data: 889520640
I1028 13:30:00.691802 28179 layer_factory.hpp:76] Creating layer inception_3b/prelu_1x1
I1028 13:30:00.691809 28179 net.cpp:106] Creating Layer inception_3b/prelu_1x1
I1028 13:30:00.691814 28179 net.cpp:454] inception_3b/prelu_1x1 <- inception_3b/1x1
I1028 13:30:00.691820 28179 net.cpp:397] inception_3b/prelu_1x1 -> inception_3b/1x1 (in-place)
I1028 13:30:00.692387 28179 net.cpp:150] Setting up inception_3b/prelu_1x1
I1028 13:30:00.692399 28179 net.cpp:157] Top shape: 32 128 28 28 (3211264)
I1028 13:30:00.692404 28179 net.cpp:165] Memory required for data: 902365696
I1028 13:30:00.692409 28179 layer_factory.hpp:76] Creating layer inception_3b/3x3_reduce
I1028 13:30:00.692417 28179 net.cpp:106] Creating Layer inception_3b/3x3_reduce
I1028 13:30:00.692422 28179 net.cpp:454] inception_3b/3x3_reduce <- inception_3a/output_inception_3a/output_0_split_1
I1028 13:30:00.692430 28179 net.cpp:411] inception_3b/3x3_reduce -> inception_3b/3x3_reduce
I1028 13:30:00.693567 28179 cudnn_conv_layer.cpp:194] Reallocating workspace storage: 20664
I1028 13:30:00.693584 28179 net.cpp:150] Setting up inception_3b/3x3_reduce
I1028 13:30:00.693591 28179 net.cpp:157] Top shape: 32 128 28 28 (3211264)
I1028 13:30:00.693595 28179 net.cpp:165] Memory required for data: 915210752
I1028 13:30:00.693601 28179 layer_factory.hpp:76] Creating layer inception_3b/prelu_3x3_reduce
I1028 13:30:00.693610 28179 net.cpp:106] Creating Layer inception_3b/prelu_3x3_reduce
I1028 13:30:00.693615 28179 net.cpp:454] inception_3b/prelu_3x3_reduce <- inception_3b/3x3_reduce
I1028 13:30:00.693621 28179 net.cpp:397] inception_3b/prelu_3x3_reduce -> inception_3b/3x3_reduce (in-place)
I1028 13:30:00.693738 28179 net.cpp:150] Setting up inception_3b/prelu_3x3_reduce
I1028 13:30:00.693747 28179 net.cpp:157] Top shape: 32 128 28 28 (3211264)
I1028 13:30:00.693752 28179 net.cpp:165] Memory required for data: 928055808
I1028 13:30:00.693763 28179 layer_factory.hpp:76] Creating layer inception_3b/3x3
I1028 13:30:00.693774 28179 net.cpp:106] Creating Layer inception_3b/3x3
I1028 13:30:00.693779 28179 net.cpp:454] inception_3b/3x3 <- inception_3b/3x3_reduce
I1028 13:30:00.693786 28179 net.cpp:411] inception_3b/3x3 -> inception_3b/3x3
I1028 13:30:00.696660 28179 cudnn_conv_layer.cpp:194] Reallocating workspace storage: 20664
I1028 13:30:00.696689 28179 net.cpp:150] Setting up inception_3b/3x3
I1028 13:30:00.696696 28179 net.cpp:157] Top shape: 32 192 28 28 (4816896)
I1028 13:30:00.696701 28179 net.cpp:165] Memory required for data: 947323392
I1028 13:30:00.696717 28179 layer_factory.hpp:76] Creating layer inception_3b/prelu_3x3
I1028 13:30:00.696727 28179 net.cpp:106] Creating Layer inception_3b/prelu_3x3
I1028 13:30:00.696730 28179 net.cpp:454] inception_3b/prelu_3x3 <- inception_3b/3x3
I1028 13:30:00.696738 28179 net.cpp:397] inception_3b/prelu_3x3 -> inception_3b/3x3 (in-place)
I1028 13:30:00.697356 28179 net.cpp:150] Setting up inception_3b/prelu_3x3
I1028 13:30:00.697371 28179 net.cpp:157] Top shape: 32 192 28 28 (4816896)
I1028 13:30:00.697376 28179 net.cpp:165] Memory required for data: 966590976
I1028 13:30:00.697381 28179 layer_factory.hpp:76] Creating layer inception_3b/5x5_reduce
I1028 13:30:00.697399 28179 net.cpp:106] Creating Layer inception_3b/5x5_reduce
I1028 13:30:00.697404 28179 net.cpp:454] inception_3b/5x5_reduce <- inception_3a/output_inception_3a/output_0_split_2
I1028 13:30:00.697423 28179 net.cpp:411] inception_3b/5x5_reduce -> inception_3b/5x5_reduce
I1028 13:30:00.698442 28179 cudnn_conv_layer.cpp:194] Reallocating workspace storage: 20664
I1028 13:30:00.698465 28179 net.cpp:150] Setting up inception_3b/5x5_reduce
I1028 13:30:00.698472 28179 net.cpp:157] Top shape: 32 32 28 28 (802816)
I1028 13:30:00.698477 28179 net.cpp:165] Memory required for data: 969802240
I1028 13:30:00.698483 28179 layer_factory.hpp:76] Creating layer inception_3b/prelu_5x5_reduce
I1028 13:30:00.698501 28179 net.cpp:106] Creating Layer inception_3b/prelu_5x5_reduce
I1028 13:30:00.698506 28179 net.cpp:454] inception_3b/prelu_5x5_reduce <- inception_3b/5x5_reduce
I1028 13:30:00.698513 28179 net.cpp:397] inception_3b/prelu_5x5_reduce -> inception_3b/5x5_reduce (in-place)
I1028 13:30:00.698617 28179 net.cpp:150] Setting up inception_3b/prelu_5x5_reduce
I1028 13:30:00.698627 28179 net.cpp:157] Top shape: 32 32 28 28 (802816)
I1028 13:30:00.698631 28179 net.cpp:165] Memory required for data: 973013504
I1028 13:30:00.698637 28179 layer_factory.hpp:76] Creating layer inception_3b/5x5
I1028 13:30:00.698644 28179 net.cpp:106] Creating Layer inception_3b/5x5
I1028 13:30:00.698649 28179 net.cpp:454] inception_3b/5x5 <- inception_3b/5x5_reduce
I1028 13:30:00.698657 28179 net.cpp:411] inception_3b/5x5 -> inception_3b/5x5
I1028 13:30:00.700197 28179 cudnn_conv_layer.cpp:194] Reallocating workspace storage: 20664
I1028 13:30:00.700227 28179 net.cpp:150] Setting up inception_3b/5x5
I1028 13:30:00.700237 28179 net.cpp:157] Top shape: 32 96 28 28 (2408448)
I1028 13:30:00.700243 28179 net.cpp:165] Memory required for data: 982647296
I1028 13:30:00.700254 28179 layer_factory.hpp:76] Creating layer inception_3b/prelu_5x5
I1028 13:30:00.700269 28179 net.cpp:106] Creating Layer inception_3b/prelu_5x5
I1028 13:30:00.700278 28179 net.cpp:454] inception_3b/prelu_5x5 <- inception_3b/5x5
I1028 13:30:00.700289 28179 net.cpp:397] inception_3b/prelu_5x5 -> inception_3b/5x5 (in-place)
I1028 13:30:00.700505 28179 net.cpp:150] Setting up inception_3b/prelu_5x5
I1028 13:30:00.700518 28179 net.cpp:157] Top shape: 32 96 28 28 (2408448)
I1028 13:30:00.700525 28179 net.cpp:165] Memory required for data: 992281088
I1028 13:30:00.700532 28179 layer_factory.hpp:76] Creating layer inception_3b/pool
I1028 13:30:00.700542 28179 net.cpp:106] Creating Layer inception_3b/pool
I1028 13:30:00.700549 28179 net.cpp:454] inception_3b/pool <- inception_3a/output_inception_3a/output_0_split_3
I1028 13:30:00.700561 28179 net.cpp:411] inception_3b/pool -> inception_3b/pool
I1028 13:30:00.701040 28179 net.cpp:150] Setting up inception_3b/pool
I1028 13:30:00.701056 28179 net.cpp:157] Top shape: 32 256 28 28 (6422528)
I1028 13:30:00.701063 28179 net.cpp:165] Memory required for data: 1017971200
I1028 13:30:00.701071 28179 layer_factory.hpp:76] Creating layer inception_3b/pool_proj
I1028 13:30:00.701086 28179 net.cpp:106] Creating Layer inception_3b/pool_proj
I1028 13:30:00.701097 28179 net.cpp:454] inception_3b/pool_proj <- inception_3b/pool
I1028 13:30:00.701112 28179 net.cpp:411] inception_3b/pool_proj -> inception_3b/pool_proj
I1028 13:30:00.702536 28179 cudnn_conv_layer.cpp:194] Reallocating workspace storage: 20664
I1028 13:30:00.702558 28179 net.cpp:150] Setting up inception_3b/pool_proj
I1028 13:30:00.702566 28179 net.cpp:157] Top shape: 32 64 28 28 (1605632)
I1028 13:30:00.702570 28179 net.cpp:165] Memory required for data: 1024393728
I1028 13:30:00.702579 28179 layer_factory.hpp:76] Creating layer inception_3b/prelu_pool_proj
I1028 13:30:00.702601 28179 net.cpp:106] Creating Layer inception_3b/prelu_pool_proj
I1028 13:30:00.702606 28179 net.cpp:454] inception_3b/prelu_pool_proj <- inception_3b/pool_proj
I1028 13:30:00.702615 28179 net.cpp:397] inception_3b/prelu_pool_proj -> inception_3b/pool_proj (in-place)
I1028 13:30:00.702746 28179 net.cpp:150] Setting up inception_3b/prelu_pool_proj
I1028 13:30:00.702756 28179 net.cpp:157] Top shape: 32 64 28 28 (1605632)
I1028 13:30:00.702775 28179 net.cpp:165] Memory required for data: 1030816256
I1028 13:30:00.702782 28179 layer_factory.hpp:76] Creating layer inception_3b/output
I1028 13:30:00.702791 28179 net.cpp:106] Creating Layer inception_3b/output
I1028 13:30:00.702795 28179 net.cpp:454] inception_3b/output <- inception_3b/1x1
I1028 13:30:00.702800 28179 net.cpp:454] inception_3b/output <- inception_3b/3x3
I1028 13:30:00.702805 28179 net.cpp:454] inception_3b/output <- inception_3b/5x5
I1028 13:30:00.702811 28179 net.cpp:454] inception_3b/output <- inception_3b/pool_proj
I1028 13:30:00.702816 28179 net.cpp:411] inception_3b/output -> inception_3b/output
I1028 13:30:00.702841 28179 net.cpp:150] Setting up inception_3b/output
I1028 13:30:00.702850 28179 net.cpp:157] Top shape: 32 480 28 28 (12042240)
I1028 13:30:00.702854 28179 net.cpp:165] Memory required for data: 1078985216
I1028 13:30:00.702857 28179 layer_factory.hpp:76] Creating layer pool3/3x3_s2
I1028 13:30:00.702864 28179 net.cpp:106] Creating Layer pool3/3x3_s2
I1028 13:30:00.702869 28179 net.cpp:454] pool3/3x3_s2 <- inception_3b/output
I1028 13:30:00.702877 28179 net.cpp:411] pool3/3x3_s2 -> pool3/3x3_s2
I1028 13:30:00.703261 28179 net.cpp:150] Setting up pool3/3x3_s2
I1028 13:30:00.703274 28179 net.cpp:157] Top shape: 32 480 14 14 (3010560)
I1028 13:30:00.703277 28179 net.cpp:165] Memory required for data: 1091027456
I1028 13:30:00.703282 28179 layer_factory.hpp:76] Creating layer pool3/3x3_s2_pool3/3x3_s2_0_split
I1028 13:30:00.703302 28179 net.cpp:106] Creating Layer pool3/3x3_s2_pool3/3x3_s2_0_split
I1028 13:30:00.703306 28179 net.cpp:454] pool3/3x3_s2_pool3/3x3_s2_0_split <- pool3/3x3_s2
I1028 13:30:00.703312 28179 net.cpp:411] pool3/3x3_s2_pool3/3x3_s2_0_split -> pool3/3x3_s2_pool3/3x3_s2_0_split_0
I1028 13:30:00.703320 28179 net.cpp:411] pool3/3x3_s2_pool3/3x3_s2_0_split -> pool3/3x3_s2_pool3/3x3_s2_0_split_1
I1028 13:30:00.703326 28179 net.cpp:411] pool3/3x3_s2_pool3/3x3_s2_0_split -> pool3/3x3_s2_pool3/3x3_s2_0_split_2
I1028 13:30:00.703335 28179 net.cpp:411] pool3/3x3_s2_pool3/3x3_s2_0_split -> pool3/3x3_s2_pool3/3x3_s2_0_split_3
I1028 13:30:00.703400 28179 net.cpp:150] Setting up pool3/3x3_s2_pool3/3x3_s2_0_split
I1028 13:30:00.703409 28179 net.cpp:157] Top shape: 32 480 14 14 (3010560)
I1028 13:30:00.703414 28179 net.cpp:157] Top shape: 32 480 14 14 (3010560)
I1028 13:30:00.703418 28179 net.cpp:157] Top shape: 32 480 14 14 (3010560)
I1028 13:30:00.703423 28179 net.cpp:157] Top shape: 32 480 14 14 (3010560)
I1028 13:30:00.703428 28179 net.cpp:165] Memory required for data: 1139196416
I1028 13:30:00.703431 28179 layer_factory.hpp:76] Creating layer inception_4a/1x1
I1028 13:30:00.703450 28179 net.cpp:106] Creating Layer inception_4a/1x1
I1028 13:30:00.703455 28179 net.cpp:454] inception_4a/1x1 <- pool3/3x3_s2_pool3/3x3_s2_0_split_0
I1028 13:30:00.703464 28179 net.cpp:411] inception_4a/1x1 -> inception_4a/1x1
I1028 13:30:00.705451 28179 cudnn_conv_layer.cpp:194] Reallocating workspace storage: 10080
I1028 13:30:00.705659 28179 net.cpp:150] Setting up inception_4a/1x1
I1028 13:30:00.705670 28179 net.cpp:157] Top shape: 32 192 14 14 (1204224)
I1028 13:30:00.705674 28179 net.cpp:165] Memory required for data: 1144013312
I1028 13:30:00.705682 28179 layer_factory.hpp:76] Creating layer inception_4a/prelu_1x1
I1028 13:30:00.705690 28179 net.cpp:106] Creating Layer inception_4a/prelu_1x1
I1028 13:30:00.705695 28179 net.cpp:454] inception_4a/prelu_1x1 <- inception_4a/1x1
I1028 13:30:00.705703 28179 net.cpp:397] inception_4a/prelu_1x1 -> inception_4a/1x1 (in-place)
I1028 13:30:00.706279 28179 net.cpp:150] Setting up inception_4a/prelu_1x1
I1028 13:30:00.706292 28179 net.cpp:157] Top shape: 32 192 14 14 (1204224)
I1028 13:30:00.706296 28179 net.cpp:165] Memory required for data: 1148830208
I1028 13:30:00.706302 28179 layer_factory.hpp:76] Creating layer inception_4a/3x3_reduce
I1028 13:30:00.706313 28179 net.cpp:106] Creating Layer inception_4a/3x3_reduce
I1028 13:30:00.706318 28179 net.cpp:454] inception_4a/3x3_reduce <- pool3/3x3_s2_pool3/3x3_s2_0_split_1
I1028 13:30:00.706326 28179 net.cpp:411] inception_4a/3x3_reduce -> inception_4a/3x3_reduce
I1028 13:30:00.707651 28179 cudnn_conv_layer.cpp:194] Reallocating workspace storage: 10080
I1028 13:30:00.707679 28179 net.cpp:150] Setting up inception_4a/3x3_reduce
I1028 13:30:00.707686 28179 net.cpp:157] Top shape: 32 96 14 14 (602112)
I1028 13:30:00.707690 28179 net.cpp:165] Memory required for data: 1151238656
I1028 13:30:00.707697 28179 layer_factory.hpp:76] Creating layer inception_4a/prelu_3x3_reduce
I1028 13:30:00.707706 28179 net.cpp:106] Creating Layer inception_4a/prelu_3x3_reduce
I1028 13:30:00.707711 28179 net.cpp:454] inception_4a/prelu_3x3_reduce <- inception_4a/3x3_reduce
I1028 13:30:00.707717 28179 net.cpp:397] inception_4a/prelu_3x3_reduce -> inception_4a/3x3_reduce (in-place)
I1028 13:30:00.707806 28179 net.cpp:150] Setting up inception_4a/prelu_3x3_reduce
I1028 13:30:00.707815 28179 net.cpp:157] Top shape: 32 96 14 14 (602112)
I1028 13:30:00.707818 28179 net.cpp:165] Memory required for data: 1153647104
I1028 13:30:00.707824 28179 layer_factory.hpp:76] Creating layer inception_4a/3x3
I1028 13:30:00.707834 28179 net.cpp:106] Creating Layer inception_4a/3x3
I1028 13:30:00.707837 28179 net.cpp:454] inception_4a/3x3 <- inception_4a/3x3_reduce
I1028 13:30:00.707844 28179 net.cpp:411] inception_4a/3x3 -> inception_4a/3x3
I1028 13:30:00.710263 28179 cudnn_conv_layer.cpp:194] Reallocating workspace storage: 10080
I1028 13:30:00.710286 28179 net.cpp:150] Setting up inception_4a/3x3
I1028 13:30:00.710294 28179 net.cpp:157] Top shape: 32 208 14 14 (1304576)
I1028 13:30:00.710297 28179 net.cpp:165] Memory required for data: 1158865408
I1028 13:30:00.710304 28179 layer_factory.hpp:76] Creating layer inception_4a/prelu_3x3
I1028 13:30:00.710314 28179 net.cpp:106] Creating Layer inception_4a/prelu_3x3
I1028 13:30:00.710319 28179 net.cpp:454] inception_4a/prelu_3x3 <- inception_4a/3x3
I1028 13:30:00.710335 28179 net.cpp:397] inception_4a/prelu_3x3 -> inception_4a/3x3 (in-place)
I1028 13:30:00.710441 28179 net.cpp:150] Setting up inception_4a/prelu_3x3
I1028 13:30:00.710450 28179 net.cpp:157] Top shape: 32 208 14 14 (1304576)
I1028 13:30:00.710454 28179 net.cpp:165] Memory required for data: 1164083712
I1028 13:30:00.710459 28179 layer_factory.hpp:76] Creating layer inception_4a/5x5_reduce
I1028 13:30:00.710469 28179 net.cpp:106] Creating Layer inception_4a/5x5_reduce
I1028 13:30:00.710474 28179 net.cpp:454] inception_4a/5x5_reduce <- pool3/3x3_s2_pool3/3x3_s2_0_split_2
I1028 13:30:00.710481 28179 net.cpp:411] inception_4a/5x5_reduce -> inception_4a/5x5_reduce
I1028 13:30:00.711491 28179 cudnn_conv_layer.cpp:194] Reallocating workspace storage: 10080
I1028 13:30:00.711513 28179 net.cpp:150] Setting up inception_4a/5x5_reduce
I1028 13:30:00.711521 28179 net.cpp:157] Top shape: 32 16 14 14 (100352)
I1028 13:30:00.711525 28179 net.cpp:165] Memory required for data: 1164485120
I1028 13:30:00.711532 28179 layer_factory.hpp:76] Creating layer inception_4a/prelu_5x5_reduce
I1028 13:30:00.711539 28179 net.cpp:106] Creating Layer inception_4a/prelu_5x5_reduce
I1028 13:30:00.711544 28179 net.cpp:454] inception_4a/prelu_5x5_reduce <- inception_4a/5x5_reduce
I1028 13:30:00.711551 28179 net.cpp:397] inception_4a/prelu_5x5_reduce -> inception_4a/5x5_reduce (in-place)
I1028 13:30:00.711629 28179 net.cpp:150] Setting up inception_4a/prelu_5x5_reduce
I1028 13:30:00.711639 28179 net.cpp:157] Top shape: 32 16 14 14 (100352)
I1028 13:30:00.711643 28179 net.cpp:165] Memory required for data: 1164886528
I1028 13:30:00.711648 28179 layer_factory.hpp:76] Creating layer inception_4a/5x5
I1028 13:30:00.711655 28179 net.cpp:106] Creating Layer inception_4a/5x5
I1028 13:30:00.711660 28179 net.cpp:454] inception_4a/5x5 <- inception_4a/5x5_reduce
I1028 13:30:00.711668 28179 net.cpp:411] inception_4a/5x5 -> inception_4a/5x5
I1028 13:30:00.712915 28179 cudnn_conv_layer.cpp:194] Reallocating workspace storage: 13080
I1028 13:30:00.712949 28179 net.cpp:150] Setting up inception_4a/5x5
I1028 13:30:00.712956 28179 net.cpp:157] Top shape: 32 48 14 14 (301056)
I1028 13:30:00.712960 28179 net.cpp:165] Memory required for data: 1166090752
I1028 13:30:00.712980 28179 layer_factory.hpp:76] Creating layer inception_4a/prelu_5x5
I1028 13:30:00.713006 28179 net.cpp:106] Creating Layer inception_4a/prelu_5x5
I1028 13:30:00.713013 28179 net.cpp:454] inception_4a/prelu_5x5 <- inception_4a/5x5
I1028 13:30:00.713037 28179 net.cpp:397] inception_4a/prelu_5x5 -> inception_4a/5x5 (in-place)
I1028 13:30:00.713135 28179 net.cpp:150] Setting up inception_4a/prelu_5x5
I1028 13:30:00.713143 28179 net.cpp:157] Top shape: 32 48 14 14 (301056)
I1028 13:30:00.713155 28179 net.cpp:165] Memory required for data: 1167294976
I1028 13:30:00.713161 28179 layer_factory.hpp:76] Creating layer inception_4a/pool
I1028 13:30:00.713172 28179 net.cpp:106] Creating Layer inception_4a/pool
I1028 13:30:00.713177 28179 net.cpp:454] inception_4a/pool <- pool3/3x3_s2_pool3/3x3_s2_0_split_3
I1028 13:30:00.713182 28179 net.cpp:411] inception_4a/pool -> inception_4a/pool
I1028 13:30:00.713554 28179 net.cpp:150] Setting up inception_4a/pool
I1028 13:30:00.713565 28179 net.cpp:157] Top shape: 32 480 14 14 (3010560)
I1028 13:30:00.713570 28179 net.cpp:165] Memory required for data: 1179337216
I1028 13:30:00.713574 28179 layer_factory.hpp:76] Creating layer inception_4a/pool_proj
I1028 13:30:00.713584 28179 net.cpp:106] Creating Layer inception_4a/pool_proj
I1028 13:30:00.713590 28179 net.cpp:454] inception_4a/pool_proj <- inception_4a/pool
I1028 13:30:00.713598 28179 net.cpp:411] inception_4a/pool_proj -> inception_4a/pool_proj
I1028 13:30:00.714598 28179 cudnn_conv_layer.cpp:194] Reallocating workspace storage: 10080
I1028 13:30:00.714627 28179 net.cpp:150] Setting up inception_4a/pool_proj
I1028 13:30:00.714633 28179 net.cpp:157] Top shape: 32 64 14 14 (401408)
I1028 13:30:00.714637 28179 net.cpp:165] Memory required for data: 1180942848
I1028 13:30:00.714644 28179 layer_factory.hpp:76] Creating layer inception_4a/prelu_pool_proj
I1028 13:30:00.714653 28179 net.cpp:106] Creating Layer inception_4a/prelu_pool_proj
I1028 13:30:00.714658 28179 net.cpp:454] inception_4a/prelu_pool_proj <- inception_4a/pool_proj
I1028 13:30:00.714663 28179 net.cpp:397] inception_4a/prelu_pool_proj -> inception_4a/pool_proj (in-place)
I1028 13:30:00.714756 28179 net.cpp:150] Setting up inception_4a/prelu_pool_proj
I1028 13:30:00.714764 28179 net.cpp:157] Top shape: 32 64 14 14 (401408)
I1028 13:30:00.714768 28179 net.cpp:165] Memory required for data: 1182548480
I1028 13:30:00.714774 28179 layer_factory.hpp:76] Creating layer inception_4a/output
I1028 13:30:00.714781 28179 net.cpp:106] Creating Layer inception_4a/output
I1028 13:30:00.714787 28179 net.cpp:454] inception_4a/output <- inception_4a/1x1
I1028 13:30:00.714792 28179 net.cpp:454] inception_4a/output <- inception_4a/3x3
I1028 13:30:00.714797 28179 net.cpp:454] inception_4a/output <- inception_4a/5x5
I1028 13:30:00.714802 28179 net.cpp:454] inception_4a/output <- inception_4a/pool_proj
I1028 13:30:00.714807 28179 net.cpp:411] inception_4a/output -> inception_4a/output
I1028 13:30:00.714830 28179 net.cpp:150] Setting up inception_4a/output
I1028 13:30:00.714838 28179 net.cpp:157] Top shape: 32 512 14 14 (3211264)
I1028 13:30:00.714843 28179 net.cpp:165] Memory required for data: 1195393536
I1028 13:30:00.714846 28179 layer_factory.hpp:76] Creating layer inception_4a/output_inception_4a/output_0_split
I1028 13:30:00.714854 28179 net.cpp:106] Creating Layer inception_4a/output_inception_4a/output_0_split
I1028 13:30:00.714859 28179 net.cpp:454] inception_4a/output_inception_4a/output_0_split <- inception_4a/output
I1028 13:30:00.714865 28179 net.cpp:411] inception_4a/output_inception_4a/output_0_split -> inception_4a/output_inception_4a/output_0_split_0
I1028 13:30:00.714872 28179 net.cpp:411] inception_4a/output_inception_4a/output_0_split -> inception_4a/output_inception_4a/output_0_split_1
I1028 13:30:00.714879 28179 net.cpp:411] inception_4a/output_inception_4a/output_0_split -> inception_4a/output_inception_4a/output_0_split_2
I1028 13:30:00.714886 28179 net.cpp:411] inception_4a/output_inception_4a/output_0_split -> inception_4a/output_inception_4a/output_0_split_3
I1028 13:30:00.714903 28179 net.cpp:411] inception_4a/output_inception_4a/output_0_split -> inception_4a/output_inception_4a/output_0_split_4
I1028 13:30:00.714967 28179 net.cpp:150] Setting up inception_4a/output_inception_4a/output_0_split
I1028 13:30:00.714975 28179 net.cpp:157] Top shape: 32 512 14 14 (3211264)
I1028 13:30:00.714982 28179 net.cpp:157] Top shape: 32 512 14 14 (3211264)
I1028 13:30:00.714987 28179 net.cpp:157] Top shape: 32 512 14 14 (3211264)
I1028 13:30:00.714990 28179 net.cpp:157] Top shape: 32 512 14 14 (3211264)
I1028 13:30:00.714995 28179 net.cpp:157] Top shape: 32 512 14 14 (3211264)
I1028 13:30:00.714999 28179 net.cpp:165] Memory required for data: 1259618816
I1028 13:30:00.715003 28179 layer_factory.hpp:76] Creating layer loss1/ave_pool
I1028 13:30:00.715010 28179 net.cpp:106] Creating Layer loss1/ave_pool
I1028 13:30:00.715014 28179 net.cpp:454] loss1/ave_pool <- inception_4a/output_inception_4a/output_0_split_0
I1028 13:30:00.715020 28179 net.cpp:411] loss1/ave_pool -> loss1/ave_pool
I1028 13:30:00.715364 28179 net.cpp:150] Setting up loss1/ave_pool
I1028 13:30:00.715376 28179 net.cpp:157] Top shape: 32 512 4 4 (262144)
I1028 13:30:00.715380 28179 net.cpp:165] Memory required for data: 1260667392
I1028 13:30:00.715385 28179 layer_factory.hpp:76] Creating layer loss1/conv
I1028 13:30:00.715394 28179 net.cpp:106] Creating Layer loss1/conv
I1028 13:30:00.715399 28179 net.cpp:454] loss1/conv <- loss1/ave_pool
I1028 13:30:00.715405 28179 net.cpp:411] loss1/conv -> loss1/conv
I1028 13:30:00.716779 28179 cudnn_conv_layer.cpp:194] Reallocating workspace storage: 6840
I1028 13:30:00.716804 28179 net.cpp:150] Setting up loss1/conv
I1028 13:30:00.716812 28179 net.cpp:157] Top shape: 32 128 4 4 (65536)
I1028 13:30:00.716823 28179 net.cpp:165] Memory required for data: 1260929536
I1028 13:30:00.716841 28179 layer_factory.hpp:76] Creating layer loss1/prelu_conv
I1028 13:30:00.716858 28179 net.cpp:106] Creating Layer loss1/prelu_conv
I1028 13:30:00.716871 28179 net.cpp:454] loss1/prelu_conv <- loss1/conv
I1028 13:30:00.716881 28179 net.cpp:397] loss1/prelu_conv -> loss1/conv (in-place)
I1028 13:30:00.716972 28179 net.cpp:150] Setting up loss1/prelu_conv
I1028 13:30:00.716981 28179 net.cpp:157] Top shape: 32 128 4 4 (65536)
I1028 13:30:00.716985 28179 net.cpp:165] Memory required for data: 1261191680
I1028 13:30:00.717000 28179 layer_factory.hpp:76] Creating layer loss1/fc
I1028 13:30:00.717010 28179 net.cpp:106] Creating Layer loss1/fc
I1028 13:30:00.717015 28179 net.cpp:454] loss1/fc <- loss1/conv
I1028 13:30:00.717022 28179 net.cpp:411] loss1/fc -> loss1/fc
I1028 13:30:00.731446 28179 net.cpp:150] Setting up loss1/fc
I1028 13:30:00.731488 28179 net.cpp:157] Top shape: 32 1024 (32768)
I1028 13:30:00.731493 28179 net.cpp:165] Memory required for data: 1261322752
I1028 13:30:00.731504 28179 layer_factory.hpp:76] Creating layer loss1/prelu_fc
I1028 13:30:00.731518 28179 net.cpp:106] Creating Layer loss1/prelu_fc
I1028 13:30:00.731524 28179 net.cpp:454] loss1/prelu_fc <- loss1/fc
I1028 13:30:00.731534 28179 net.cpp:397] loss1/prelu_fc -> loss1/fc (in-place)
I1028 13:30:00.731639 28179 net.cpp:150] Setting up loss1/prelu_fc
I1028 13:30:00.731648 28179 net.cpp:157] Top shape: 32 1024 (32768)
I1028 13:30:00.731652 28179 net.cpp:165] Memory required for data: 1261453824
I1028 13:30:00.731657 28179 layer_factory.hpp:76] Creating layer loss1/drop_fc
I1028 13:30:00.731683 28179 net.cpp:106] Creating Layer loss1/drop_fc
I1028 13:30:00.731689 28179 net.cpp:454] loss1/drop_fc <- loss1/fc
I1028 13:30:00.731695 28179 net.cpp:397] loss1/drop_fc -> loss1/fc (in-place)
I1028 13:30:00.731737 28179 net.cpp:150] Setting up loss1/drop_fc
I1028 13:30:00.731745 28179 net.cpp:157] Top shape: 32 1024 (32768)
I1028 13:30:00.731750 28179 net.cpp:165] Memory required for data: 1261584896
I1028 13:30:00.731753 28179 layer_factory.hpp:76] Creating layer loss1/classifier2
I1028 13:30:00.731760 28179 net.cpp:106] Creating Layer loss1/classifier2
I1028 13:30:00.731765 28179 net.cpp:454] loss1/classifier2 <- loss1/fc
I1028 13:30:00.731783 28179 net.cpp:411] loss1/classifier2 -> loss1/classifier
I1028 13:30:00.731911 28179 net.cpp:150] Setting up loss1/classifier2
I1028 13:30:00.731921 28179 net.cpp:157] Top shape: 32 2 (64)
I1028 13:30:00.731925 28179 net.cpp:165] Memory required for data: 1261585152
I1028 13:30:00.731931 28179 layer_factory.hpp:76] Creating layer loss1/loss
I1028 13:30:00.731952 28179 net.cpp:106] Creating Layer loss1/loss
I1028 13:30:00.731957 28179 net.cpp:454] loss1/loss <- loss1/classifier
I1028 13:30:00.731962 28179 net.cpp:454] loss1/loss <- label_data_1_split_0
I1028 13:30:00.731982 28179 net.cpp:411] loss1/loss -> loss1/loss1
I1028 13:30:00.732000 28179 layer_factory.hpp:76] Creating layer loss1/loss
I1028 13:30:00.732413 28179 net.cpp:150] Setting up loss1/loss
I1028 13:30:00.732429 28179 net.cpp:157] Top shape: (1)
I1028 13:30:00.732434 28179 net.cpp:160]     with loss weight 0.3
I1028 13:30:00.732466 28179 net.cpp:165] Memory required for data: 1261585156
I1028 13:30:00.732471 28179 layer_factory.hpp:76] Creating layer inception_4b/1x1
I1028 13:30:00.732492 28179 net.cpp:106] Creating Layer inception_4b/1x1
I1028 13:30:00.732498 28179 net.cpp:454] inception_4b/1x1 <- inception_4a/output_inception_4a/output_0_split_1
I1028 13:30:00.732506 28179 net.cpp:411] inception_4b/1x1 -> inception_4b/1x1
I1028 13:30:00.734465 28179 cudnn_conv_layer.cpp:194] Reallocating workspace storage: 10080
I1028 13:30:00.734505 28179 net.cpp:150] Setting up inception_4b/1x1
I1028 13:30:00.734516 28179 net.cpp:157] Top shape: 32 160 14 14 (1003520)
I1028 13:30:00.734522 28179 net.cpp:165] Memory required for data: 1265599236
I1028 13:30:00.734535 28179 layer_factory.hpp:76] Creating layer inception_4b/prelu_1x1
I1028 13:30:00.734547 28179 net.cpp:106] Creating Layer inception_4b/prelu_1x1
I1028 13:30:00.734558 28179 net.cpp:454] inception_4b/prelu_1x1 <- inception_4b/1x1
I1028 13:30:00.734572 28179 net.cpp:397] inception_4b/prelu_1x1 -> inception_4b/1x1 (in-place)
I1028 13:30:00.735317 28179 net.cpp:150] Setting up inception_4b/prelu_1x1
I1028 13:30:00.735335 28179 net.cpp:157] Top shape: 32 160 14 14 (1003520)
I1028 13:30:00.735340 28179 net.cpp:165] Memory required for data: 1269613316
I1028 13:30:00.735347 28179 layer_factory.hpp:76] Creating layer inception_4b/3x3_reduce
I1028 13:30:00.735359 28179 net.cpp:106] Creating Layer inception_4b/3x3_reduce
I1028 13:30:00.735364 28179 net.cpp:454] inception_4b/3x3_reduce <- inception_4a/output_inception_4a/output_0_split_2
I1028 13:30:00.735373 28179 net.cpp:411] inception_4b/3x3_reduce -> inception_4b/3x3_reduce
I1028 13:30:00.736997 28179 cudnn_conv_layer.cpp:194] Reallocating workspace storage: 10080
I1028 13:30:00.737040 28179 net.cpp:150] Setting up inception_4b/3x3_reduce
I1028 13:30:00.737047 28179 net.cpp:157] Top shape: 32 112 14 14 (702464)
I1028 13:30:00.737051 28179 net.cpp:165] Memory required for data: 1272423172
I1028 13:30:00.737058 28179 layer_factory.hpp:76] Creating layer inception_4b/prelu_3x3_reduce
I1028 13:30:00.737068 28179 net.cpp:106] Creating Layer inception_4b/prelu_3x3_reduce
I1028 13:30:00.737083 28179 net.cpp:454] inception_4b/prelu_3x3_reduce <- inception_4b/3x3_reduce
I1028 13:30:00.737090 28179 net.cpp:397] inception_4b/prelu_3x3_reduce -> inception_4b/3x3_reduce (in-place)
I1028 13:30:00.737208 28179 net.cpp:150] Setting up inception_4b/prelu_3x3_reduce
I1028 13:30:00.737217 28179 net.cpp:157] Top shape: 32 112 14 14 (702464)
I1028 13:30:00.737221 28179 net.cpp:165] Memory required for data: 1275233028
I1028 13:30:00.737226 28179 layer_factory.hpp:76] Creating layer inception_4b/3x3
I1028 13:30:00.737236 28179 net.cpp:106] Creating Layer inception_4b/3x3
I1028 13:30:00.737241 28179 net.cpp:454] inception_4b/3x3 <- inception_4b/3x3_reduce
I1028 13:30:00.737247 28179 net.cpp:411] inception_4b/3x3 -> inception_4b/3x3
I1028 13:30:00.740020 28179 cudnn_conv_layer.cpp:194] Reallocating workspace storage: 10080
I1028 13:30:00.740049 28179 net.cpp:150] Setting up inception_4b/3x3
I1028 13:30:00.740058 28179 net.cpp:157] Top shape: 32 224 14 14 (1404928)
I1028 13:30:00.740090 28179 net.cpp:165] Memory required for data: 1280852740
I1028 13:30:00.740099 28179 layer_factory.hpp:76] Creating layer inception_4b/prelu_3x3
I1028 13:30:00.740108 28179 net.cpp:106] Creating Layer inception_4b/prelu_3x3
I1028 13:30:00.740114 28179 net.cpp:454] inception_4b/prelu_3x3 <- inception_4b/3x3
I1028 13:30:00.740131 28179 net.cpp:397] inception_4b/prelu_3x3 -> inception_4b/3x3 (in-place)
I1028 13:30:00.740269 28179 net.cpp:150] Setting up inception_4b/prelu_3x3
I1028 13:30:00.740279 28179 net.cpp:157] Top shape: 32 224 14 14 (1404928)
I1028 13:30:00.740283 28179 net.cpp:165] Memory required for data: 1286472452
I1028 13:30:00.740288 28179 layer_factory.hpp:76] Creating layer inception_4b/5x5_reduce
I1028 13:30:00.740298 28179 net.cpp:106] Creating Layer inception_4b/5x5_reduce
I1028 13:30:00.740303 28179 net.cpp:454] inception_4b/5x5_reduce <- inception_4a/output_inception_4a/output_0_split_3
I1028 13:30:00.740309 28179 net.cpp:411] inception_4b/5x5_reduce -> inception_4b/5x5_reduce
I1028 13:30:00.741199 28179 cudnn_conv_layer.cpp:194] Reallocating workspace storage: 10080
I1028 13:30:00.741222 28179 net.cpp:150] Setting up inception_4b/5x5_reduce
I1028 13:30:00.741230 28179 net.cpp:157] Top shape: 32 24 14 14 (150528)
I1028 13:30:00.741235 28179 net.cpp:165] Memory required for data: 1287074564
I1028 13:30:00.741241 28179 layer_factory.hpp:76] Creating layer inception_4b/prelu_5x5_reduce
I1028 13:30:00.741248 28179 net.cpp:106] Creating Layer inception_4b/prelu_5x5_reduce
I1028 13:30:00.741261 28179 net.cpp:454] inception_4b/prelu_5x5_reduce <- inception_4b/5x5_reduce
I1028 13:30:00.741266 28179 net.cpp:397] inception_4b/prelu_5x5_reduce -> inception_4b/5x5_reduce (in-place)
I1028 13:30:00.741375 28179 net.cpp:150] Setting up inception_4b/prelu_5x5_reduce
I1028 13:30:00.741384 28179 net.cpp:157] Top shape: 32 24 14 14 (150528)
I1028 13:30:00.741389 28179 net.cpp:165] Memory required for data: 1287676676
I1028 13:30:00.741394 28179 layer_factory.hpp:76] Creating layer inception_4b/5x5
I1028 13:30:00.741402 28179 net.cpp:106] Creating Layer inception_4b/5x5
I1028 13:30:00.741406 28179 net.cpp:454] inception_4b/5x5 <- inception_4b/5x5_reduce
I1028 13:30:00.741413 28179 net.cpp:411] inception_4b/5x5 -> inception_4b/5x5
I1028 13:30:00.742622 28179 cudnn_conv_layer.cpp:194] Reallocating workspace storage: 13080
I1028 13:30:00.742645 28179 net.cpp:150] Setting up inception_4b/5x5
I1028 13:30:00.742651 28179 net.cpp:157] Top shape: 32 64 14 14 (401408)
I1028 13:30:00.742655 28179 net.cpp:165] Memory required for data: 1289282308
I1028 13:30:00.742661 28179 layer_factory.hpp:76] Creating layer inception_4b/prelu_5x5
I1028 13:30:00.742671 28179 net.cpp:106] Creating Layer inception_4b/prelu_5x5
I1028 13:30:00.742682 28179 net.cpp:454] inception_4b/prelu_5x5 <- inception_4b/5x5
I1028 13:30:00.742699 28179 net.cpp:397] inception_4b/prelu_5x5 -> inception_4b/5x5 (in-place)
I1028 13:30:00.742812 28179 net.cpp:150] Setting up inception_4b/prelu_5x5
I1028 13:30:00.742821 28179 net.cpp:157] Top shape: 32 64 14 14 (401408)
I1028 13:30:00.742825 28179 net.cpp:165] Memory required for data: 1290887940
I1028 13:30:00.742838 28179 layer_factory.hpp:76] Creating layer inception_4b/pool
I1028 13:30:00.742847 28179 net.cpp:106] Creating Layer inception_4b/pool
I1028 13:30:00.742852 28179 net.cpp:454] inception_4b/pool <- inception_4a/output_inception_4a/output_0_split_4
I1028 13:30:00.742866 28179 net.cpp:411] inception_4b/pool -> inception_4b/pool
I1028 13:30:00.743244 28179 net.cpp:150] Setting up inception_4b/pool
I1028 13:30:00.743257 28179 net.cpp:157] Top shape: 32 512 14 14 (3211264)
I1028 13:30:00.743262 28179 net.cpp:165] Memory required for data: 1303732996
I1028 13:30:00.743266 28179 layer_factory.hpp:76] Creating layer inception_4b/pool_proj
I1028 13:30:00.743276 28179 net.cpp:106] Creating Layer inception_4b/pool_proj
I1028 13:30:00.743280 28179 net.cpp:454] inception_4b/pool_proj <- inception_4b/pool
I1028 13:30:00.743288 28179 net.cpp:411] inception_4b/pool_proj -> inception_4b/pool_proj
I1028 13:30:00.744482 28179 cudnn_conv_layer.cpp:194] Reallocating workspace storage: 10080
I1028 13:30:00.744508 28179 net.cpp:150] Setting up inception_4b/pool_proj
I1028 13:30:00.744515 28179 net.cpp:157] Top shape: 32 64 14 14 (401408)
I1028 13:30:00.744519 28179 net.cpp:165] Memory required for data: 1305338628
I1028 13:30:00.744526 28179 layer_factory.hpp:76] Creating layer inception_4b/prelu_pool_proj
I1028 13:30:00.744534 28179 net.cpp:106] Creating Layer inception_4b/prelu_pool_proj
I1028 13:30:00.744539 28179 net.cpp:454] inception_4b/prelu_pool_proj <- inception_4b/pool_proj
I1028 13:30:00.744546 28179 net.cpp:397] inception_4b/prelu_pool_proj -> inception_4b/pool_proj (in-place)
I1028 13:30:00.744639 28179 net.cpp:150] Setting up inception_4b/prelu_pool_proj
I1028 13:30:00.744648 28179 net.cpp:157] Top shape: 32 64 14 14 (401408)
I1028 13:30:00.744652 28179 net.cpp:165] Memory required for data: 1306944260
I1028 13:30:00.744657 28179 layer_factory.hpp:76] Creating layer inception_4b/output
I1028 13:30:00.744664 28179 net.cpp:106] Creating Layer inception_4b/output
I1028 13:30:00.744668 28179 net.cpp:454] inception_4b/output <- inception_4b/1x1
I1028 13:30:00.744674 28179 net.cpp:454] inception_4b/output <- inception_4b/3x3
I1028 13:30:00.744679 28179 net.cpp:454] inception_4b/output <- inception_4b/5x5
I1028 13:30:00.744683 28179 net.cpp:454] inception_4b/output <- inception_4b/pool_proj
I1028 13:30:00.744688 28179 net.cpp:411] inception_4b/output -> inception_4b/output
I1028 13:30:00.744722 28179 net.cpp:150] Setting up inception_4b/output
I1028 13:30:00.744730 28179 net.cpp:157] Top shape: 32 512 14 14 (3211264)
I1028 13:30:00.744734 28179 net.cpp:165] Memory required for data: 1319789316
I1028 13:30:00.744737 28179 layer_factory.hpp:76] Creating layer inception_4b/output_inception_4b/output_0_split
I1028 13:30:00.744745 28179 net.cpp:106] Creating Layer inception_4b/output_inception_4b/output_0_split
I1028 13:30:00.744748 28179 net.cpp:454] inception_4b/output_inception_4b/output_0_split <- inception_4b/output
I1028 13:30:00.744753 28179 net.cpp:411] inception_4b/output_inception_4b/output_0_split -> inception_4b/output_inception_4b/output_0_split_0
I1028 13:30:00.744761 28179 net.cpp:411] inception_4b/output_inception_4b/output_0_split -> inception_4b/output_inception_4b/output_0_split_1
I1028 13:30:00.744768 28179 net.cpp:411] inception_4b/output_inception_4b/output_0_split -> inception_4b/output_inception_4b/output_0_split_2
I1028 13:30:00.744791 28179 net.cpp:411] inception_4b/output_inception_4b/output_0_split -> inception_4b/output_inception_4b/output_0_split_3
I1028 13:30:00.744855 28179 net.cpp:150] Setting up inception_4b/output_inception_4b/output_0_split
I1028 13:30:00.744864 28179 net.cpp:157] Top shape: 32 512 14 14 (3211264)
I1028 13:30:00.744869 28179 net.cpp:157] Top shape: 32 512 14 14 (3211264)
I1028 13:30:00.744874 28179 net.cpp:157] Top shape: 32 512 14 14 (3211264)
I1028 13:30:00.744879 28179 net.cpp:157] Top shape: 32 512 14 14 (3211264)
I1028 13:30:00.744882 28179 net.cpp:165] Memory required for data: 1371169540
I1028 13:30:00.744886 28179 layer_factory.hpp:76] Creating layer inception_4c/1x1
I1028 13:30:00.744894 28179 net.cpp:106] Creating Layer inception_4c/1x1
I1028 13:30:00.744899 28179 net.cpp:454] inception_4c/1x1 <- inception_4b/output_inception_4b/output_0_split_0
I1028 13:30:00.744904 28179 net.cpp:411] inception_4c/1x1 -> inception_4c/1x1
I1028 13:30:00.746531 28179 cudnn_conv_layer.cpp:194] Reallocating workspace storage: 10080
I1028 13:30:00.746557 28179 net.cpp:150] Setting up inception_4c/1x1
I1028 13:30:00.746564 28179 net.cpp:157] Top shape: 32 128 14 14 (802816)
I1028 13:30:00.746568 28179 net.cpp:165] Memory required for data: 1374380804
I1028 13:30:00.746575 28179 layer_factory.hpp:76] Creating layer inception_4c/prelu_1x1
I1028 13:30:00.746582 28179 net.cpp:106] Creating Layer inception_4c/prelu_1x1
I1028 13:30:00.746587 28179 net.cpp:454] inception_4c/prelu_1x1 <- inception_4c/1x1
I1028 13:30:00.746594 28179 net.cpp:397] inception_4c/prelu_1x1 -> inception_4c/1x1 (in-place)
I1028 13:30:00.746712 28179 net.cpp:150] Setting up inception_4c/prelu_1x1
I1028 13:30:00.746722 28179 net.cpp:157] Top shape: 32 128 14 14 (802816)
I1028 13:30:00.746726 28179 net.cpp:165] Memory required for data: 1377592068
I1028 13:30:00.746731 28179 layer_factory.hpp:76] Creating layer inception_4c/3x3_reduce
I1028 13:30:00.746740 28179 net.cpp:106] Creating Layer inception_4c/3x3_reduce
I1028 13:30:00.746745 28179 net.cpp:454] inception_4c/3x3_reduce <- inception_4b/output_inception_4b/output_0_split_1
I1028 13:30:00.746753 28179 net.cpp:411] inception_4c/3x3_reduce -> inception_4c/3x3_reduce
I1028 13:30:00.748128 28179 cudnn_conv_layer.cpp:194] Reallocating workspace storage: 10080
I1028 13:30:00.748152 28179 net.cpp:150] Setting up inception_4c/3x3_reduce
I1028 13:30:00.748160 28179 net.cpp:157] Top shape: 32 128 14 14 (802816)
I1028 13:30:00.748164 28179 net.cpp:165] Memory required for data: 1380803332
I1028 13:30:00.748170 28179 layer_factory.hpp:76] Creating layer inception_4c/prelu_3x3_reduce
I1028 13:30:00.748178 28179 net.cpp:106] Creating Layer inception_4c/prelu_3x3_reduce
I1028 13:30:00.748183 28179 net.cpp:454] inception_4c/prelu_3x3_reduce <- inception_4c/3x3_reduce
I1028 13:30:00.748189 28179 net.cpp:397] inception_4c/prelu_3x3_reduce -> inception_4c/3x3_reduce (in-place)
I1028 13:30:00.748281 28179 net.cpp:150] Setting up inception_4c/prelu_3x3_reduce
I1028 13:30:00.748291 28179 net.cpp:157] Top shape: 32 128 14 14 (802816)
I1028 13:30:00.748294 28179 net.cpp:165] Memory required for data: 1384014596
I1028 13:30:00.748299 28179 layer_factory.hpp:76] Creating layer inception_4c/3x3
I1028 13:30:00.748308 28179 net.cpp:106] Creating Layer inception_4c/3x3
I1028 13:30:00.748312 28179 net.cpp:454] inception_4c/3x3 <- inception_4c/3x3_reduce
I1028 13:30:00.748320 28179 net.cpp:411] inception_4c/3x3 -> inception_4c/3x3
I1028 13:30:00.751533 28179 cudnn_conv_layer.cpp:194] Reallocating workspace storage: 10080
I1028 13:30:00.751562 28179 net.cpp:150] Setting up inception_4c/3x3
I1028 13:30:00.751570 28179 net.cpp:157] Top shape: 32 256 14 14 (1605632)
I1028 13:30:00.751574 28179 net.cpp:165] Memory required for data: 1390437124
I1028 13:30:00.751581 28179 layer_factory.hpp:76] Creating layer inception_4c/prelu_3x3
I1028 13:30:00.751591 28179 net.cpp:106] Creating Layer inception_4c/prelu_3x3
I1028 13:30:00.751605 28179 net.cpp:454] inception_4c/prelu_3x3 <- inception_4c/3x3
I1028 13:30:00.751610 28179 net.cpp:397] inception_4c/prelu_3x3 -> inception_4c/3x3 (in-place)
I1028 13:30:00.751729 28179 net.cpp:150] Setting up inception_4c/prelu_3x3
I1028 13:30:00.751739 28179 net.cpp:157] Top shape: 32 256 14 14 (1605632)
I1028 13:30:00.751741 28179 net.cpp:165] Memory required for data: 1396859652
I1028 13:30:00.751747 28179 layer_factory.hpp:76] Creating layer inception_4c/5x5_reduce
I1028 13:30:00.751759 28179 net.cpp:106] Creating Layer inception_4c/5x5_reduce
I1028 13:30:00.751762 28179 net.cpp:454] inception_4c/5x5_reduce <- inception_4b/output_inception_4b/output_0_split_2
I1028 13:30:00.751770 28179 net.cpp:411] inception_4c/5x5_reduce -> inception_4c/5x5_reduce
I1028 13:30:00.752881 28179 cudnn_conv_layer.cpp:194] Reallocating workspace storage: 10080
I1028 13:30:00.752907 28179 net.cpp:150] Setting up inception_4c/5x5_reduce
I1028 13:30:00.752915 28179 net.cpp:157] Top shape: 32 24 14 14 (150528)
I1028 13:30:00.752919 28179 net.cpp:165] Memory required for data: 1397461764
I1028 13:30:00.752926 28179 layer_factory.hpp:76] Creating layer inception_4c/prelu_5x5_reduce
I1028 13:30:00.752943 28179 net.cpp:106] Creating Layer inception_4c/prelu_5x5_reduce
I1028 13:30:00.752948 28179 net.cpp:454] inception_4c/prelu_5x5_reduce <- inception_4c/5x5_reduce
I1028 13:30:00.752955 28179 net.cpp:397] inception_4c/prelu_5x5_reduce -> inception_4c/5x5_reduce (in-place)
I1028 13:30:00.753058 28179 net.cpp:150] Setting up inception_4c/prelu_5x5_reduce
I1028 13:30:00.753068 28179 net.cpp:157] Top shape: 32 24 14 14 (150528)
I1028 13:30:00.753072 28179 net.cpp:165] Memory required for data: 1398063876
I1028 13:30:00.753090 28179 layer_factory.hpp:76] Creating layer inception_4c/5x5
I1028 13:30:00.753099 28179 net.cpp:106] Creating Layer inception_4c/5x5
I1028 13:30:00.753104 28179 net.cpp:454] inception_4c/5x5 <- inception_4c/5x5_reduce
I1028 13:30:00.753120 28179 net.cpp:411] inception_4c/5x5 -> inception_4c/5x5
I1028 13:30:00.755102 28179 cudnn_conv_layer.cpp:194] Reallocating workspace storage: 13080
I1028 13:30:00.755156 28179 net.cpp:150] Setting up inception_4c/5x5
I1028 13:30:00.755167 28179 net.cpp:157] Top shape: 32 64 14 14 (401408)
I1028 13:30:00.755172 28179 net.cpp:165] Memory required for data: 1399669508
I1028 13:30:00.755180 28179 layer_factory.hpp:76] Creating layer inception_4c/prelu_5x5
I1028 13:30:00.755195 28179 net.cpp:106] Creating Layer inception_4c/prelu_5x5
I1028 13:30:00.755203 28179 net.cpp:454] inception_4c/prelu_5x5 <- inception_4c/5x5
I1028 13:30:00.755210 28179 net.cpp:397] inception_4c/prelu_5x5 -> inception_4c/5x5 (in-place)
I1028 13:30:00.755326 28179 net.cpp:150] Setting up inception_4c/prelu_5x5
I1028 13:30:00.755336 28179 net.cpp:157] Top shape: 32 64 14 14 (401408)
I1028 13:30:00.755339 28179 net.cpp:165] Memory required for data: 1401275140
I1028 13:30:00.755345 28179 layer_factory.hpp:76] Creating layer inception_4c/pool
I1028 13:30:00.755357 28179 net.cpp:106] Creating Layer inception_4c/pool
I1028 13:30:00.755362 28179 net.cpp:454] inception_4c/pool <- inception_4b/output_inception_4b/output_0_split_3
I1028 13:30:00.755368 28179 net.cpp:411] inception_4c/pool -> inception_4c/pool
I1028 13:30:00.755556 28179 net.cpp:150] Setting up inception_4c/pool
I1028 13:30:00.755568 28179 net.cpp:157] Top shape: 32 512 14 14 (3211264)
I1028 13:30:00.755571 28179 net.cpp:165] Memory required for data: 1414120196
I1028 13:30:00.755576 28179 layer_factory.hpp:76] Creating layer inception_4c/pool_proj
I1028 13:30:00.755607 28179 net.cpp:106] Creating Layer inception_4c/pool_proj
I1028 13:30:00.755614 28179 net.cpp:454] inception_4c/pool_proj <- inception_4c/pool
I1028 13:30:00.755621 28179 net.cpp:411] inception_4c/pool_proj -> inception_4c/pool_proj
I1028 13:30:00.757122 28179 cudnn_conv_layer.cpp:194] Reallocating workspace storage: 10080
I1028 13:30:00.757163 28179 net.cpp:150] Setting up inception_4c/pool_proj
I1028 13:30:00.757179 28179 net.cpp:157] Top shape: 32 64 14 14 (401408)
I1028 13:30:00.757184 28179 net.cpp:165] Memory required for data: 1415725828
I1028 13:30:00.757191 28179 layer_factory.hpp:76] Creating layer inception_4c/prelu_pool_proj
I1028 13:30:00.757201 28179 net.cpp:106] Creating Layer inception_4c/prelu_pool_proj
I1028 13:30:00.757206 28179 net.cpp:454] inception_4c/prelu_pool_proj <- inception_4c/pool_proj
I1028 13:30:00.757212 28179 net.cpp:397] inception_4c/prelu_pool_proj -> inception_4c/pool_proj (in-place)
I1028 13:30:00.757315 28179 net.cpp:150] Setting up inception_4c/prelu_pool_proj
I1028 13:30:00.757324 28179 net.cpp:157] Top shape: 32 64 14 14 (401408)
I1028 13:30:00.757328 28179 net.cpp:165] Memory required for data: 1417331460
I1028 13:30:00.757333 28179 layer_factory.hpp:76] Creating layer inception_4c/output
I1028 13:30:00.757340 28179 net.cpp:106] Creating Layer inception_4c/output
I1028 13:30:00.757344 28179 net.cpp:454] inception_4c/output <- inception_4c/1x1
I1028 13:30:00.757349 28179 net.cpp:454] inception_4c/output <- inception_4c/3x3
I1028 13:30:00.757354 28179 net.cpp:454] inception_4c/output <- inception_4c/5x5
I1028 13:30:00.757359 28179 net.cpp:454] inception_4c/output <- inception_4c/pool_proj
I1028 13:30:00.757365 28179 net.cpp:411] inception_4c/output -> inception_4c/output
I1028 13:30:00.757401 28179 net.cpp:150] Setting up inception_4c/output
I1028 13:30:00.757417 28179 net.cpp:157] Top shape: 32 512 14 14 (3211264)
I1028 13:30:00.757421 28179 net.cpp:165] Memory required for data: 1430176516
I1028 13:30:00.757432 28179 layer_factory.hpp:76] Creating layer inception_4c/output_inception_4c/output_0_split
I1028 13:30:00.757455 28179 net.cpp:106] Creating Layer inception_4c/output_inception_4c/output_0_split
I1028 13:30:00.757484 28179 net.cpp:454] inception_4c/output_inception_4c/output_0_split <- inception_4c/output
I1028 13:30:00.757499 28179 net.cpp:411] inception_4c/output_inception_4c/output_0_split -> inception_4c/output_inception_4c/output_0_split_0
I1028 13:30:00.757524 28179 net.cpp:411] inception_4c/output_inception_4c/output_0_split -> inception_4c/output_inception_4c/output_0_split_1
I1028 13:30:00.757532 28179 net.cpp:411] inception_4c/output_inception_4c/output_0_split -> inception_4c/output_inception_4c/output_0_split_2
I1028 13:30:00.757539 28179 net.cpp:411] inception_4c/output_inception_4c/output_0_split -> inception_4c/output_inception_4c/output_0_split_3
I1028 13:30:00.757608 28179 net.cpp:150] Setting up inception_4c/output_inception_4c/output_0_split
I1028 13:30:00.757616 28179 net.cpp:157] Top shape: 32 512 14 14 (3211264)
I1028 13:30:00.757622 28179 net.cpp:157] Top shape: 32 512 14 14 (3211264)
I1028 13:30:00.757627 28179 net.cpp:157] Top shape: 32 512 14 14 (3211264)
I1028 13:30:00.757632 28179 net.cpp:157] Top shape: 32 512 14 14 (3211264)
I1028 13:30:00.757634 28179 net.cpp:165] Memory required for data: 1481556740
I1028 13:30:00.757638 28179 layer_factory.hpp:76] Creating layer inception_4d/1x1
I1028 13:30:00.757657 28179 net.cpp:106] Creating Layer inception_4d/1x1
I1028 13:30:00.757661 28179 net.cpp:454] inception_4d/1x1 <- inception_4c/output_inception_4c/output_0_split_0
I1028 13:30:00.757668 28179 net.cpp:411] inception_4d/1x1 -> inception_4d/1x1
I1028 13:30:00.759191 28179 cudnn_conv_layer.cpp:194] Reallocating workspace storage: 10080
I1028 13:30:00.759229 28179 net.cpp:150] Setting up inception_4d/1x1
I1028 13:30:00.759239 28179 net.cpp:157] Top shape: 32 112 14 14 (702464)
I1028 13:30:00.759243 28179 net.cpp:165] Memory required for data: 1484366596
I1028 13:30:00.759251 28179 layer_factory.hpp:76] Creating layer inception_4d/prelu_1x1
I1028 13:30:00.759261 28179 net.cpp:106] Creating Layer inception_4d/prelu_1x1
I1028 13:30:00.759268 28179 net.cpp:454] inception_4d/prelu_1x1 <- inception_4d/1x1
I1028 13:30:00.759304 28179 net.cpp:397] inception_4d/prelu_1x1 -> inception_4d/1x1 (in-place)
I1028 13:30:00.759438 28179 net.cpp:150] Setting up inception_4d/prelu_1x1
I1028 13:30:00.759449 28179 net.cpp:157] Top shape: 32 112 14 14 (702464)
I1028 13:30:00.759454 28179 net.cpp:165] Memory required for data: 1487176452
I1028 13:30:00.759459 28179 layer_factory.hpp:76] Creating layer inception_4d/3x3_reduce
I1028 13:30:00.759469 28179 net.cpp:106] Creating Layer inception_4d/3x3_reduce
I1028 13:30:00.759474 28179 net.cpp:454] inception_4d/3x3_reduce <- inception_4c/output_inception_4c/output_0_split_1
I1028 13:30:00.759484 28179 net.cpp:411] inception_4d/3x3_reduce -> inception_4d/3x3_reduce
I1028 13:30:00.760871 28179 cudnn_conv_layer.cpp:194] Reallocating workspace storage: 10080
I1028 13:30:00.760901 28179 net.cpp:150] Setting up inception_4d/3x3_reduce
I1028 13:30:00.760911 28179 net.cpp:157] Top shape: 32 144 14 14 (903168)
I1028 13:30:00.760915 28179 net.cpp:165] Memory required for data: 1490789124
I1028 13:30:00.760923 28179 layer_factory.hpp:76] Creating layer inception_4d/prelu_3x3_reduce
I1028 13:30:00.760931 28179 net.cpp:106] Creating Layer inception_4d/prelu_3x3_reduce
I1028 13:30:00.760936 28179 net.cpp:454] inception_4d/prelu_3x3_reduce <- inception_4d/3x3_reduce
I1028 13:30:00.760943 28179 net.cpp:397] inception_4d/prelu_3x3_reduce -> inception_4d/3x3_reduce (in-place)
I1028 13:30:00.761064 28179 net.cpp:150] Setting up inception_4d/prelu_3x3_reduce
I1028 13:30:00.761073 28179 net.cpp:157] Top shape: 32 144 14 14 (903168)
I1028 13:30:00.761080 28179 net.cpp:165] Memory required for data: 1494401796
I1028 13:30:00.761088 28179 layer_factory.hpp:76] Creating layer inception_4d/3x3
I1028 13:30:00.761099 28179 net.cpp:106] Creating Layer inception_4d/3x3
I1028 13:30:00.761106 28179 net.cpp:454] inception_4d/3x3 <- inception_4d/3x3_reduce
I1028 13:30:00.761118 28179 net.cpp:411] inception_4d/3x3 -> inception_4d/3x3
I1028 13:30:00.765033 28179 cudnn_conv_layer.cpp:194] Reallocating workspace storage: 10080
I1028 13:30:00.765094 28179 net.cpp:150] Setting up inception_4d/3x3
I1028 13:30:00.765105 28179 net.cpp:157] Top shape: 32 288 14 14 (1806336)
I1028 13:30:00.765110 28179 net.cpp:165] Memory required for data: 1501627140
I1028 13:30:00.765118 28179 layer_factory.hpp:76] Creating layer inception_4d/prelu_3x3
I1028 13:30:00.765128 28179 net.cpp:106] Creating Layer inception_4d/prelu_3x3
I1028 13:30:00.765135 28179 net.cpp:454] inception_4d/prelu_3x3 <- inception_4d/3x3
I1028 13:30:00.765142 28179 net.cpp:397] inception_4d/prelu_3x3 -> inception_4d/3x3 (in-place)
I1028 13:30:00.765321 28179 net.cpp:150] Setting up inception_4d/prelu_3x3
I1028 13:30:00.765331 28179 net.cpp:157] Top shape: 32 288 14 14 (1806336)
I1028 13:30:00.765334 28179 net.cpp:165] Memory required for data: 1508852484
I1028 13:30:00.765341 28179 layer_factory.hpp:76] Creating layer inception_4d/5x5_reduce
I1028 13:30:00.765349 28179 net.cpp:106] Creating Layer inception_4d/5x5_reduce
I1028 13:30:00.765353 28179 net.cpp:454] inception_4d/5x5_reduce <- inception_4c/output_inception_4c/output_0_split_2
I1028 13:30:00.765372 28179 net.cpp:411] inception_4d/5x5_reduce -> inception_4d/5x5_reduce
I1028 13:30:00.766526 28179 cudnn_conv_layer.cpp:194] Reallocating workspace storage: 10080
I1028 13:30:00.766553 28179 net.cpp:150] Setting up inception_4d/5x5_reduce
I1028 13:30:00.766561 28179 net.cpp:157] Top shape: 32 32 14 14 (200704)
I1028 13:30:00.766564 28179 net.cpp:165] Memory required for data: 1509655300
I1028 13:30:00.766592 28179 layer_factory.hpp:76] Creating layer inception_4d/prelu_5x5_reduce
I1028 13:30:00.766602 28179 net.cpp:106] Creating Layer inception_4d/prelu_5x5_reduce
I1028 13:30:00.766607 28179 net.cpp:454] inception_4d/prelu_5x5_reduce <- inception_4d/5x5_reduce
I1028 13:30:00.766613 28179 net.cpp:397] inception_4d/prelu_5x5_reduce -> inception_4d/5x5_reduce (in-place)
I1028 13:30:00.766737 28179 net.cpp:150] Setting up inception_4d/prelu_5x5_reduce
I1028 13:30:00.766747 28179 net.cpp:157] Top shape: 32 32 14 14 (200704)
I1028 13:30:00.766751 28179 net.cpp:165] Memory required for data: 1510458116
I1028 13:30:00.766757 28179 layer_factory.hpp:76] Creating layer inception_4d/5x5
I1028 13:30:00.766765 28179 net.cpp:106] Creating Layer inception_4d/5x5
I1028 13:30:00.766770 28179 net.cpp:454] inception_4d/5x5 <- inception_4d/5x5_reduce
I1028 13:30:00.766788 28179 net.cpp:411] inception_4d/5x5 -> inception_4d/5x5
I1028 13:30:00.768667 28179 cudnn_conv_layer.cpp:194] Reallocating workspace storage: 13080
I1028 13:30:00.768700 28179 net.cpp:150] Setting up inception_4d/5x5
I1028 13:30:00.768708 28179 net.cpp:157] Top shape: 32 64 14 14 (401408)
I1028 13:30:00.768713 28179 net.cpp:165] Memory required for data: 1512063748
I1028 13:30:00.768728 28179 layer_factory.hpp:76] Creating layer inception_4d/prelu_5x5
I1028 13:30:00.768738 28179 net.cpp:106] Creating Layer inception_4d/prelu_5x5
I1028 13:30:00.768743 28179 net.cpp:454] inception_4d/prelu_5x5 <- inception_4d/5x5
I1028 13:30:00.768750 28179 net.cpp:397] inception_4d/prelu_5x5 -> inception_4d/5x5 (in-place)
I1028 13:30:00.768877 28179 net.cpp:150] Setting up inception_4d/prelu_5x5
I1028 13:30:00.768887 28179 net.cpp:157] Top shape: 32 64 14 14 (401408)
I1028 13:30:00.768890 28179 net.cpp:165] Memory required for data: 1513669380
I1028 13:30:00.768895 28179 layer_factory.hpp:76] Creating layer inception_4d/pool
I1028 13:30:00.768903 28179 net.cpp:106] Creating Layer inception_4d/pool
I1028 13:30:00.768908 28179 net.cpp:454] inception_4d/pool <- inception_4c/output_inception_4c/output_0_split_3
I1028 13:30:00.768923 28179 net.cpp:411] inception_4d/pool -> inception_4d/pool
I1028 13:30:00.769104 28179 net.cpp:150] Setting up inception_4d/pool
I1028 13:30:00.769114 28179 net.cpp:157] Top shape: 32 512 14 14 (3211264)
I1028 13:30:00.769119 28179 net.cpp:165] Memory required for data: 1526514436
I1028 13:30:00.769122 28179 layer_factory.hpp:76] Creating layer inception_4d/pool_proj
I1028 13:30:00.769130 28179 net.cpp:106] Creating Layer inception_4d/pool_proj
I1028 13:30:00.769134 28179 net.cpp:454] inception_4d/pool_proj <- inception_4d/pool
I1028 13:30:00.769162 28179 net.cpp:411] inception_4d/pool_proj -> inception_4d/pool_proj
I1028 13:30:00.770391 28179 cudnn_conv_layer.cpp:194] Reallocating workspace storage: 10080
I1028 13:30:00.770427 28179 net.cpp:150] Setting up inception_4d/pool_proj
I1028 13:30:00.770445 28179 net.cpp:157] Top shape: 32 64 14 14 (401408)
I1028 13:30:00.770457 28179 net.cpp:165] Memory required for data: 1528120068
I1028 13:30:00.770464 28179 layer_factory.hpp:76] Creating layer inception_4d/prelu_pool_proj
I1028 13:30:00.770473 28179 net.cpp:106] Creating Layer inception_4d/prelu_pool_proj
I1028 13:30:00.770476 28179 net.cpp:454] inception_4d/prelu_pool_proj <- inception_4d/pool_proj
I1028 13:30:00.770484 28179 net.cpp:397] inception_4d/prelu_pool_proj -> inception_4d/pool_proj (in-place)
I1028 13:30:00.770592 28179 net.cpp:150] Setting up inception_4d/prelu_pool_proj
I1028 13:30:00.770601 28179 net.cpp:157] Top shape: 32 64 14 14 (401408)
I1028 13:30:00.770604 28179 net.cpp:165] Memory required for data: 1529725700
I1028 13:30:00.770618 28179 layer_factory.hpp:76] Creating layer inception_4d/output
I1028 13:30:00.770634 28179 net.cpp:106] Creating Layer inception_4d/output
I1028 13:30:00.770639 28179 net.cpp:454] inception_4d/output <- inception_4d/1x1
I1028 13:30:00.770644 28179 net.cpp:454] inception_4d/output <- inception_4d/3x3
I1028 13:30:00.770649 28179 net.cpp:454] inception_4d/output <- inception_4d/5x5
I1028 13:30:00.770654 28179 net.cpp:454] inception_4d/output <- inception_4d/pool_proj
I1028 13:30:00.770659 28179 net.cpp:411] inception_4d/output -> inception_4d/output
I1028 13:30:00.770695 28179 net.cpp:150] Setting up inception_4d/output
I1028 13:30:00.770719 28179 net.cpp:157] Top shape: 32 528 14 14 (3311616)
I1028 13:30:00.770722 28179 net.cpp:165] Memory required for data: 1542972164
I1028 13:30:00.770726 28179 layer_factory.hpp:76] Creating layer inception_4d/output_inception_4d/output_0_split
I1028 13:30:00.770741 28179 net.cpp:106] Creating Layer inception_4d/output_inception_4d/output_0_split
I1028 13:30:00.770746 28179 net.cpp:454] inception_4d/output_inception_4d/output_0_split <- inception_4d/output
I1028 13:30:00.770756 28179 net.cpp:411] inception_4d/output_inception_4d/output_0_split -> inception_4d/output_inception_4d/output_0_split_0
I1028 13:30:00.770762 28179 net.cpp:411] inception_4d/output_inception_4d/output_0_split -> inception_4d/output_inception_4d/output_0_split_1
I1028 13:30:00.770769 28179 net.cpp:411] inception_4d/output_inception_4d/output_0_split -> inception_4d/output_inception_4d/output_0_split_2
I1028 13:30:00.770776 28179 net.cpp:411] inception_4d/output_inception_4d/output_0_split -> inception_4d/output_inception_4d/output_0_split_3
I1028 13:30:00.770792 28179 net.cpp:411] inception_4d/output_inception_4d/output_0_split -> inception_4d/output_inception_4d/output_0_split_4
I1028 13:30:00.770872 28179 net.cpp:150] Setting up inception_4d/output_inception_4d/output_0_split
I1028 13:30:00.770880 28179 net.cpp:157] Top shape: 32 528 14 14 (3311616)
I1028 13:30:00.770892 28179 net.cpp:157] Top shape: 32 528 14 14 (3311616)
I1028 13:30:00.770897 28179 net.cpp:157] Top shape: 32 528 14 14 (3311616)
I1028 13:30:00.770902 28179 net.cpp:157] Top shape: 32 528 14 14 (3311616)
I1028 13:30:00.770906 28179 net.cpp:157] Top shape: 32 528 14 14 (3311616)
I1028 13:30:00.770910 28179 net.cpp:165] Memory required for data: 1609204484
I1028 13:30:00.770915 28179 layer_factory.hpp:76] Creating layer loss2/ave_pool
I1028 13:30:00.770920 28179 net.cpp:106] Creating Layer loss2/ave_pool
I1028 13:30:00.770925 28179 net.cpp:454] loss2/ave_pool <- inception_4d/output_inception_4d/output_0_split_0
I1028 13:30:00.770931 28179 net.cpp:411] loss2/ave_pool -> loss2/ave_pool
I1028 13:30:00.771284 28179 net.cpp:150] Setting up loss2/ave_pool
I1028 13:30:00.771294 28179 net.cpp:157] Top shape: 32 528 4 4 (270336)
I1028 13:30:00.771306 28179 net.cpp:165] Memory required for data: 1610285828
I1028 13:30:00.771311 28179 layer_factory.hpp:76] Creating layer loss2/conv
I1028 13:30:00.771329 28179 net.cpp:106] Creating Layer loss2/conv
I1028 13:30:00.771334 28179 net.cpp:454] loss2/conv <- loss2/ave_pool
I1028 13:30:00.771342 28179 net.cpp:411] loss2/conv -> loss2/conv
I1028 13:30:00.772788 28179 cudnn_conv_layer.cpp:194] Reallocating workspace storage: 6840
I1028 13:30:00.772814 28179 net.cpp:150] Setting up loss2/conv
I1028 13:30:00.772821 28179 net.cpp:157] Top shape: 32 128 4 4 (65536)
I1028 13:30:00.772825 28179 net.cpp:165] Memory required for data: 1610547972
I1028 13:30:00.772832 28179 layer_factory.hpp:76] Creating layer loss2/prelu_conv
I1028 13:30:00.772840 28179 net.cpp:106] Creating Layer loss2/prelu_conv
I1028 13:30:00.772845 28179 net.cpp:454] loss2/prelu_conv <- loss2/conv
I1028 13:30:00.772851 28179 net.cpp:397] loss2/prelu_conv -> loss2/conv (in-place)
I1028 13:30:00.772945 28179 net.cpp:150] Setting up loss2/prelu_conv
I1028 13:30:00.772953 28179 net.cpp:157] Top shape: 32 128 4 4 (65536)
I1028 13:30:00.772958 28179 net.cpp:165] Memory required for data: 1610810116
I1028 13:30:00.772964 28179 layer_factory.hpp:76] Creating layer loss2/fc
I1028 13:30:00.772972 28179 net.cpp:106] Creating Layer loss2/fc
I1028 13:30:00.772976 28179 net.cpp:454] loss2/fc <- loss2/conv
I1028 13:30:00.772982 28179 net.cpp:411] loss2/fc -> loss2/fc
I1028 13:30:00.787714 28179 net.cpp:150] Setting up loss2/fc
I1028 13:30:00.787749 28179 net.cpp:157] Top shape: 32 1024 (32768)
I1028 13:30:00.787760 28179 net.cpp:165] Memory required for data: 1610941188
I1028 13:30:00.787788 28179 layer_factory.hpp:76] Creating layer loss2/prelu_fc
I1028 13:30:00.787809 28179 net.cpp:106] Creating Layer loss2/prelu_fc
I1028 13:30:00.787817 28179 net.cpp:454] loss2/prelu_fc <- loss2/fc
I1028 13:30:00.787824 28179 net.cpp:397] loss2/prelu_fc -> loss2/fc (in-place)
I1028 13:30:00.787938 28179 net.cpp:150] Setting up loss2/prelu_fc
I1028 13:30:00.787947 28179 net.cpp:157] Top shape: 32 1024 (32768)
I1028 13:30:00.787951 28179 net.cpp:165] Memory required for data: 1611072260
I1028 13:30:00.787964 28179 layer_factory.hpp:76] Creating layer loss2/drop_fc
I1028 13:30:00.787972 28179 net.cpp:106] Creating Layer loss2/drop_fc
I1028 13:30:00.787976 28179 net.cpp:454] loss2/drop_fc <- loss2/fc
I1028 13:30:00.787982 28179 net.cpp:397] loss2/drop_fc -> loss2/fc (in-place)
I1028 13:30:00.788017 28179 net.cpp:150] Setting up loss2/drop_fc
I1028 13:30:00.788028 28179 net.cpp:157] Top shape: 32 1024 (32768)
I1028 13:30:00.788031 28179 net.cpp:165] Memory required for data: 1611203332
I1028 13:30:00.788035 28179 layer_factory.hpp:76] Creating layer loss2/classifier2
I1028 13:30:00.788043 28179 net.cpp:106] Creating Layer loss2/classifier2
I1028 13:30:00.788055 28179 net.cpp:454] loss2/classifier2 <- loss2/fc
I1028 13:30:00.788063 28179 net.cpp:411] loss2/classifier2 -> loss2/classifier
I1028 13:30:00.788194 28179 net.cpp:150] Setting up loss2/classifier2
I1028 13:30:00.788203 28179 net.cpp:157] Top shape: 32 2 (64)
I1028 13:30:00.788206 28179 net.cpp:165] Memory required for data: 1611203588
I1028 13:30:00.788221 28179 layer_factory.hpp:76] Creating layer loss2/loss
I1028 13:30:00.788230 28179 net.cpp:106] Creating Layer loss2/loss
I1028 13:30:00.788234 28179 net.cpp:454] loss2/loss <- loss2/classifier
I1028 13:30:00.788239 28179 net.cpp:454] loss2/loss <- label_data_1_split_1
I1028 13:30:00.788254 28179 net.cpp:411] loss2/loss -> loss2/loss1
I1028 13:30:00.788262 28179 layer_factory.hpp:76] Creating layer loss2/loss
I1028 13:30:00.788564 28179 net.cpp:150] Setting up loss2/loss
I1028 13:30:00.788574 28179 net.cpp:157] Top shape: (1)
I1028 13:30:00.788578 28179 net.cpp:160]     with loss weight 0.3
I1028 13:30:00.788599 28179 net.cpp:165] Memory required for data: 1611203592
I1028 13:30:00.788604 28179 layer_factory.hpp:76] Creating layer inception_4e/1x1
I1028 13:30:00.788614 28179 net.cpp:106] Creating Layer inception_4e/1x1
I1028 13:30:00.788619 28179 net.cpp:454] inception_4e/1x1 <- inception_4d/output_inception_4d/output_0_split_1
I1028 13:30:00.788627 28179 net.cpp:411] inception_4e/1x1 -> inception_4e/1x1
I1028 13:30:00.791043 28179 cudnn_conv_layer.cpp:194] Reallocating workspace storage: 10080
I1028 13:30:00.791090 28179 net.cpp:150] Setting up inception_4e/1x1
I1028 13:30:00.791102 28179 net.cpp:157] Top shape: 32 256 14 14 (1605632)
I1028 13:30:00.791108 28179 net.cpp:165] Memory required for data: 1617626120
I1028 13:30:00.791115 28179 layer_factory.hpp:76] Creating layer inception_4e/prelu_1x1
I1028 13:30:00.791131 28179 net.cpp:106] Creating Layer inception_4e/prelu_1x1
I1028 13:30:00.791136 28179 net.cpp:454] inception_4e/prelu_1x1 <- inception_4e/1x1
I1028 13:30:00.791151 28179 net.cpp:397] inception_4e/prelu_1x1 -> inception_4e/1x1 (in-place)
I1028 13:30:00.791349 28179 net.cpp:150] Setting up inception_4e/prelu_1x1
I1028 13:30:00.791364 28179 net.cpp:157] Top shape: 32 256 14 14 (1605632)
I1028 13:30:00.791371 28179 net.cpp:165] Memory required for data: 1624048648
I1028 13:30:00.791381 28179 layer_factory.hpp:76] Creating layer inception_4e/3x3_reduce
I1028 13:30:00.791402 28179 net.cpp:106] Creating Layer inception_4e/3x3_reduce
I1028 13:30:00.791412 28179 net.cpp:454] inception_4e/3x3_reduce <- inception_4d/output_inception_4d/output_0_split_2
I1028 13:30:00.791420 28179 net.cpp:411] inception_4e/3x3_reduce -> inception_4e/3x3_reduce
I1028 13:30:00.793251 28179 cudnn_conv_layer.cpp:194] Reallocating workspace storage: 10080
I1028 13:30:00.793292 28179 net.cpp:150] Setting up inception_4e/3x3_reduce
I1028 13:30:00.793300 28179 net.cpp:157] Top shape: 32 160 14 14 (1003520)
I1028 13:30:00.793305 28179 net.cpp:165] Memory required for data: 1628062728
I1028 13:30:00.793313 28179 layer_factory.hpp:76] Creating layer inception_4e/prelu_3x3_reduce
I1028 13:30:00.793324 28179 net.cpp:106] Creating Layer inception_4e/prelu_3x3_reduce
I1028 13:30:00.793329 28179 net.cpp:454] inception_4e/prelu_3x3_reduce <- inception_4e/3x3_reduce
I1028 13:30:00.793340 28179 net.cpp:397] inception_4e/prelu_3x3_reduce -> inception_4e/3x3_reduce (in-place)
I1028 13:30:00.793465 28179 net.cpp:150] Setting up inception_4e/prelu_3x3_reduce
I1028 13:30:00.793475 28179 net.cpp:157] Top shape: 32 160 14 14 (1003520)
I1028 13:30:00.793479 28179 net.cpp:165] Memory required for data: 1632076808
I1028 13:30:00.793484 28179 layer_factory.hpp:76] Creating layer inception_4e/3x3
I1028 13:30:00.793495 28179 net.cpp:106] Creating Layer inception_4e/3x3
I1028 13:30:00.793500 28179 net.cpp:454] inception_4e/3x3 <- inception_4e/3x3_reduce
I1028 13:30:00.793508 28179 net.cpp:411] inception_4e/3x3 -> inception_4e/3x3
I1028 13:30:00.798073 28179 cudnn_conv_layer.cpp:194] Reallocating workspace storage: 10080
I1028 13:30:00.798133 28179 net.cpp:150] Setting up inception_4e/3x3
I1028 13:30:00.798143 28179 net.cpp:157] Top shape: 32 320 14 14 (2007040)
I1028 13:30:00.798158 28179 net.cpp:165] Memory required for data: 1640104968
I1028 13:30:00.798168 28179 layer_factory.hpp:76] Creating layer inception_4e/prelu_3x3
I1028 13:30:00.798182 28179 net.cpp:106] Creating Layer inception_4e/prelu_3x3
I1028 13:30:00.798187 28179 net.cpp:454] inception_4e/prelu_3x3 <- inception_4e/3x3
I1028 13:30:00.798197 28179 net.cpp:397] inception_4e/prelu_3x3 -> inception_4e/3x3 (in-place)
I1028 13:30:00.798373 28179 net.cpp:150] Setting up inception_4e/prelu_3x3
I1028 13:30:00.798385 28179 net.cpp:157] Top shape: 32 320 14 14 (2007040)
I1028 13:30:00.798389 28179 net.cpp:165] Memory required for data: 1648133128
I1028 13:30:00.798405 28179 layer_factory.hpp:76] Creating layer inception_4e/5x5_reduce
I1028 13:30:00.798418 28179 net.cpp:106] Creating Layer inception_4e/5x5_reduce
I1028 13:30:00.798424 28179 net.cpp:454] inception_4e/5x5_reduce <- inception_4d/output_inception_4d/output_0_split_3
I1028 13:30:00.798431 28179 net.cpp:411] inception_4e/5x5_reduce -> inception_4e/5x5_reduce
I1028 13:30:00.799813 28179 cudnn_conv_layer.cpp:194] Reallocating workspace storage: 10080
I1028 13:30:00.799849 28179 net.cpp:150] Setting up inception_4e/5x5_reduce
I1028 13:30:00.799859 28179 net.cpp:157] Top shape: 32 32 14 14 (200704)
I1028 13:30:00.799862 28179 net.cpp:165] Memory required for data: 1648935944
I1028 13:30:00.799887 28179 layer_factory.hpp:76] Creating layer inception_4e/prelu_5x5_reduce
I1028 13:30:00.799899 28179 net.cpp:106] Creating Layer inception_4e/prelu_5x5_reduce
I1028 13:30:00.799906 28179 net.cpp:454] inception_4e/prelu_5x5_reduce <- inception_4e/5x5_reduce
I1028 13:30:00.799911 28179 net.cpp:397] inception_4e/prelu_5x5_reduce -> inception_4e/5x5_reduce (in-place)
I1028 13:30:00.800047 28179 net.cpp:150] Setting up inception_4e/prelu_5x5_reduce
I1028 13:30:00.800056 28179 net.cpp:157] Top shape: 32 32 14 14 (200704)
I1028 13:30:00.800060 28179 net.cpp:165] Memory required for data: 1649738760
I1028 13:30:00.800065 28179 layer_factory.hpp:76] Creating layer inception_4e/5x5
I1028 13:30:00.800094 28179 net.cpp:106] Creating Layer inception_4e/5x5
I1028 13:30:00.800099 28179 net.cpp:454] inception_4e/5x5 <- inception_4e/5x5_reduce
I1028 13:30:00.800107 28179 net.cpp:411] inception_4e/5x5 -> inception_4e/5x5
I1028 13:30:00.802299 28179 cudnn_conv_layer.cpp:194] Reallocating workspace storage: 13080
I1028 13:30:00.802332 28179 net.cpp:150] Setting up inception_4e/5x5
I1028 13:30:00.802340 28179 net.cpp:157] Top shape: 32 128 14 14 (802816)
I1028 13:30:00.802345 28179 net.cpp:165] Memory required for data: 1652950024
I1028 13:30:00.802352 28179 layer_factory.hpp:76] Creating layer inception_4e/prelu_5x5
I1028 13:30:00.802362 28179 net.cpp:106] Creating Layer inception_4e/prelu_5x5
I1028 13:30:00.802368 28179 net.cpp:454] inception_4e/prelu_5x5 <- inception_4e/5x5
I1028 13:30:00.802374 28179 net.cpp:397] inception_4e/prelu_5x5 -> inception_4e/5x5 (in-place)
I1028 13:30:00.802489 28179 net.cpp:150] Setting up inception_4e/prelu_5x5
I1028 13:30:00.802498 28179 net.cpp:157] Top shape: 32 128 14 14 (802816)
I1028 13:30:00.802502 28179 net.cpp:165] Memory required for data: 1656161288
I1028 13:30:00.802507 28179 layer_factory.hpp:76] Creating layer inception_4e/pool
I1028 13:30:00.802516 28179 net.cpp:106] Creating Layer inception_4e/pool
I1028 13:30:00.802521 28179 net.cpp:454] inception_4e/pool <- inception_4d/output_inception_4d/output_0_split_4
I1028 13:30:00.802527 28179 net.cpp:411] inception_4e/pool -> inception_4e/pool
I1028 13:30:00.802908 28179 net.cpp:150] Setting up inception_4e/pool
I1028 13:30:00.802919 28179 net.cpp:157] Top shape: 32 528 14 14 (3311616)
I1028 13:30:00.802924 28179 net.cpp:165] Memory required for data: 1669407752
I1028 13:30:00.802928 28179 layer_factory.hpp:76] Creating layer inception_4e/pool_proj
I1028 13:30:00.802938 28179 net.cpp:106] Creating Layer inception_4e/pool_proj
I1028 13:30:00.802943 28179 net.cpp:454] inception_4e/pool_proj <- inception_4e/pool
I1028 13:30:00.802949 28179 net.cpp:411] inception_4e/pool_proj -> inception_4e/pool_proj
I1028 13:30:00.804189 28179 cudnn_conv_layer.cpp:194] Reallocating workspace storage: 10080
I1028 13:30:00.804220 28179 net.cpp:150] Setting up inception_4e/pool_proj
I1028 13:30:00.804227 28179 net.cpp:157] Top shape: 32 128 14 14 (802816)
I1028 13:30:00.804239 28179 net.cpp:165] Memory required for data: 1672619016
I1028 13:30:00.804246 28179 layer_factory.hpp:76] Creating layer inception_4e/prelu_pool_proj
I1028 13:30:00.804263 28179 net.cpp:106] Creating Layer inception_4e/prelu_pool_proj
I1028 13:30:00.804270 28179 net.cpp:454] inception_4e/prelu_pool_proj <- inception_4e/pool_proj
I1028 13:30:00.804275 28179 net.cpp:397] inception_4e/prelu_pool_proj -> inception_4e/pool_proj (in-place)
I1028 13:30:00.804404 28179 net.cpp:150] Setting up inception_4e/prelu_pool_proj
I1028 13:30:00.804412 28179 net.cpp:157] Top shape: 32 128 14 14 (802816)
I1028 13:30:00.804416 28179 net.cpp:165] Memory required for data: 1675830280
I1028 13:30:00.804421 28179 layer_factory.hpp:76] Creating layer inception_4e/output
I1028 13:30:00.804430 28179 net.cpp:106] Creating Layer inception_4e/output
I1028 13:30:00.804442 28179 net.cpp:454] inception_4e/output <- inception_4e/1x1
I1028 13:30:00.804447 28179 net.cpp:454] inception_4e/output <- inception_4e/3x3
I1028 13:30:00.804452 28179 net.cpp:454] inception_4e/output <- inception_4e/5x5
I1028 13:30:00.804456 28179 net.cpp:454] inception_4e/output <- inception_4e/pool_proj
I1028 13:30:00.804476 28179 net.cpp:411] inception_4e/output -> inception_4e/output
I1028 13:30:00.804505 28179 net.cpp:150] Setting up inception_4e/output
I1028 13:30:00.804513 28179 net.cpp:157] Top shape: 32 832 14 14 (5218304)
I1028 13:30:00.804517 28179 net.cpp:165] Memory required for data: 1696703496
I1028 13:30:00.804522 28179 layer_factory.hpp:76] Creating layer pool4/3x3_s2
I1028 13:30:00.804528 28179 net.cpp:106] Creating Layer pool4/3x3_s2
I1028 13:30:00.804533 28179 net.cpp:454] pool4/3x3_s2 <- inception_4e/output
I1028 13:30:00.804540 28179 net.cpp:411] pool4/3x3_s2 -> pool4/3x3_s2
I1028 13:30:00.804914 28179 net.cpp:150] Setting up pool4/3x3_s2
I1028 13:30:00.804925 28179 net.cpp:157] Top shape: 32 832 7 7 (1304576)
I1028 13:30:00.804930 28179 net.cpp:165] Memory required for data: 1701921800
I1028 13:30:00.804934 28179 layer_factory.hpp:76] Creating layer pool4/3x3_s2_pool4/3x3_s2_0_split
I1028 13:30:00.804941 28179 net.cpp:106] Creating Layer pool4/3x3_s2_pool4/3x3_s2_0_split
I1028 13:30:00.804945 28179 net.cpp:454] pool4/3x3_s2_pool4/3x3_s2_0_split <- pool4/3x3_s2
I1028 13:30:00.804952 28179 net.cpp:411] pool4/3x3_s2_pool4/3x3_s2_0_split -> pool4/3x3_s2_pool4/3x3_s2_0_split_0
I1028 13:30:00.804960 28179 net.cpp:411] pool4/3x3_s2_pool4/3x3_s2_0_split -> pool4/3x3_s2_pool4/3x3_s2_0_split_1
I1028 13:30:00.804966 28179 net.cpp:411] pool4/3x3_s2_pool4/3x3_s2_0_split -> pool4/3x3_s2_pool4/3x3_s2_0_split_2
I1028 13:30:00.804990 28179 net.cpp:411] pool4/3x3_s2_pool4/3x3_s2_0_split -> pool4/3x3_s2_pool4/3x3_s2_0_split_3
I1028 13:30:00.805054 28179 net.cpp:150] Setting up pool4/3x3_s2_pool4/3x3_s2_0_split
I1028 13:30:00.805063 28179 net.cpp:157] Top shape: 32 832 7 7 (1304576)
I1028 13:30:00.805068 28179 net.cpp:157] Top shape: 32 832 7 7 (1304576)
I1028 13:30:00.805073 28179 net.cpp:157] Top shape: 32 832 7 7 (1304576)
I1028 13:30:00.805078 28179 net.cpp:157] Top shape: 32 832 7 7 (1304576)
I1028 13:30:00.805080 28179 net.cpp:165] Memory required for data: 1722795016
I1028 13:30:00.805084 28179 layer_factory.hpp:76] Creating layer inception_5a/1x1
I1028 13:30:00.805094 28179 net.cpp:106] Creating Layer inception_5a/1x1
I1028 13:30:00.805097 28179 net.cpp:454] inception_5a/1x1 <- pool4/3x3_s2_pool4/3x3_s2_0_split_0
I1028 13:30:00.805106 28179 net.cpp:411] inception_5a/1x1 -> inception_5a/1x1
I1028 13:30:00.807822 28179 cudnn_conv_layer.cpp:194] Reallocating workspace storage: 7428
I1028 13:30:00.807850 28179 net.cpp:150] Setting up inception_5a/1x1
I1028 13:30:00.807860 28179 net.cpp:157] Top shape: 32 256 7 7 (401408)
I1028 13:30:00.807864 28179 net.cpp:165] Memory required for data: 1724400648
I1028 13:30:00.807871 28179 layer_factory.hpp:76] Creating layer inception_5a/prelu_1x1
I1028 13:30:00.807878 28179 net.cpp:106] Creating Layer inception_5a/prelu_1x1
I1028 13:30:00.807883 28179 net.cpp:454] inception_5a/prelu_1x1 <- inception_5a/1x1
I1028 13:30:00.807890 28179 net.cpp:397] inception_5a/prelu_1x1 -> inception_5a/1x1 (in-place)
I1028 13:30:00.808439 28179 net.cpp:150] Setting up inception_5a/prelu_1x1
I1028 13:30:00.808451 28179 net.cpp:157] Top shape: 32 256 7 7 (401408)
I1028 13:30:00.808455 28179 net.cpp:165] Memory required for data: 1726006280
I1028 13:30:00.808461 28179 layer_factory.hpp:76] Creating layer inception_5a/3x3_reduce
I1028 13:30:00.808471 28179 net.cpp:106] Creating Layer inception_5a/3x3_reduce
I1028 13:30:00.808476 28179 net.cpp:454] inception_5a/3x3_reduce <- pool4/3x3_s2_pool4/3x3_s2_0_split_1
I1028 13:30:00.808483 28179 net.cpp:411] inception_5a/3x3_reduce -> inception_5a/3x3_reduce
I1028 13:30:00.810761 28179 cudnn_conv_layer.cpp:194] Reallocating workspace storage: 7428
I1028 13:30:00.810794 28179 net.cpp:150] Setting up inception_5a/3x3_reduce
I1028 13:30:00.810802 28179 net.cpp:157] Top shape: 32 160 7 7 (250880)
I1028 13:30:00.810806 28179 net.cpp:165] Memory required for data: 1727009800
I1028 13:30:00.810820 28179 layer_factory.hpp:76] Creating layer inception_5a/prelu_3x3_reduce
I1028 13:30:00.810829 28179 net.cpp:106] Creating Layer inception_5a/prelu_3x3_reduce
I1028 13:30:00.810863 28179 net.cpp:454] inception_5a/prelu_3x3_reduce <- inception_5a/3x3_reduce
I1028 13:30:00.810870 28179 net.cpp:397] inception_5a/prelu_3x3_reduce -> inception_5a/3x3_reduce (in-place)
I1028 13:30:00.810976 28179 net.cpp:150] Setting up inception_5a/prelu_3x3_reduce
I1028 13:30:00.810986 28179 net.cpp:157] Top shape: 32 160 7 7 (250880)
I1028 13:30:00.810997 28179 net.cpp:165] Memory required for data: 1728013320
I1028 13:30:00.811002 28179 layer_factory.hpp:76] Creating layer inception_5a/3x3
I1028 13:30:00.811012 28179 net.cpp:106] Creating Layer inception_5a/3x3
I1028 13:30:00.811017 28179 net.cpp:454] inception_5a/3x3 <- inception_5a/3x3_reduce
I1028 13:30:00.811022 28179 net.cpp:411] inception_5a/3x3 -> inception_5a/3x3
I1028 13:30:00.814992 28179 cudnn_conv_layer.cpp:194] Reallocating workspace storage: 7788
I1028 13:30:00.815021 28179 net.cpp:150] Setting up inception_5a/3x3
I1028 13:30:00.815029 28179 net.cpp:157] Top shape: 32 320 7 7 (501760)
I1028 13:30:00.815033 28179 net.cpp:165] Memory required for data: 1730020360
I1028 13:30:00.815040 28179 layer_factory.hpp:76] Creating layer inception_5a/prelu_3x3
I1028 13:30:00.815058 28179 net.cpp:106] Creating Layer inception_5a/prelu_3x3
I1028 13:30:00.815063 28179 net.cpp:454] inception_5a/prelu_3x3 <- inception_5a/3x3
I1028 13:30:00.815069 28179 net.cpp:397] inception_5a/prelu_3x3 -> inception_5a/3x3 (in-place)
I1028 13:30:00.815206 28179 net.cpp:150] Setting up inception_5a/prelu_3x3
I1028 13:30:00.815214 28179 net.cpp:157] Top shape: 32 320 7 7 (501760)
I1028 13:30:00.815218 28179 net.cpp:165] Memory required for data: 1732027400
I1028 13:30:00.815239 28179 layer_factory.hpp:76] Creating layer inception_5a/5x5_reduce
I1028 13:30:00.815248 28179 net.cpp:106] Creating Layer inception_5a/5x5_reduce
I1028 13:30:00.815253 28179 net.cpp:454] inception_5a/5x5_reduce <- pool4/3x3_s2_pool4/3x3_s2_0_split_2
I1028 13:30:00.815260 28179 net.cpp:411] inception_5a/5x5_reduce -> inception_5a/5x5_reduce
I1028 13:30:00.816484 28179 cudnn_conv_layer.cpp:194] Reallocating workspace storage: 7428
I1028 13:30:00.816509 28179 net.cpp:150] Setting up inception_5a/5x5_reduce
I1028 13:30:00.816519 28179 net.cpp:157] Top shape: 32 32 7 7 (50176)
I1028 13:30:00.816522 28179 net.cpp:165] Memory required for data: 1732228104
I1028 13:30:00.816529 28179 layer_factory.hpp:76] Creating layer inception_5a/prelu_5x5_reduce
I1028 13:30:00.816543 28179 net.cpp:106] Creating Layer inception_5a/prelu_5x5_reduce
I1028 13:30:00.816548 28179 net.cpp:454] inception_5a/prelu_5x5_reduce <- inception_5a/5x5_reduce
I1028 13:30:00.816555 28179 net.cpp:397] inception_5a/prelu_5x5_reduce -> inception_5a/5x5_reduce (in-place)
I1028 13:30:00.816663 28179 net.cpp:150] Setting up inception_5a/prelu_5x5_reduce
I1028 13:30:00.816671 28179 net.cpp:157] Top shape: 32 32 7 7 (50176)
I1028 13:30:00.816675 28179 net.cpp:165] Memory required for data: 1732428808
I1028 13:30:00.816680 28179 layer_factory.hpp:76] Creating layer inception_5a/5x5
I1028 13:30:00.816689 28179 net.cpp:106] Creating Layer inception_5a/5x5
I1028 13:30:00.816694 28179 net.cpp:454] inception_5a/5x5 <- inception_5a/5x5_reduce
I1028 13:30:00.816700 28179 net.cpp:411] inception_5a/5x5 -> inception_5a/5x5
I1028 13:30:00.818330 28179 cudnn_conv_layer.cpp:194] Reallocating workspace storage: 9804
I1028 13:30:00.818356 28179 net.cpp:150] Setting up inception_5a/5x5
I1028 13:30:00.818364 28179 net.cpp:157] Top shape: 32 128 7 7 (200704)
I1028 13:30:00.818368 28179 net.cpp:165] Memory required for data: 1733231624
I1028 13:30:00.818374 28179 layer_factory.hpp:76] Creating layer inception_5a/prelu_5x5
I1028 13:30:00.818389 28179 net.cpp:106] Creating Layer inception_5a/prelu_5x5
I1028 13:30:00.818394 28179 net.cpp:454] inception_5a/prelu_5x5 <- inception_5a/5x5
I1028 13:30:00.818402 28179 net.cpp:397] inception_5a/prelu_5x5 -> inception_5a/5x5 (in-place)
I1028 13:30:00.818528 28179 net.cpp:150] Setting up inception_5a/prelu_5x5
I1028 13:30:00.818536 28179 net.cpp:157] Top shape: 32 128 7 7 (200704)
I1028 13:30:00.818559 28179 net.cpp:165] Memory required for data: 1734034440
I1028 13:30:00.818567 28179 layer_factory.hpp:76] Creating layer inception_5a/pool
I1028 13:30:00.818573 28179 net.cpp:106] Creating Layer inception_5a/pool
I1028 13:30:00.818578 28179 net.cpp:454] inception_5a/pool <- pool4/3x3_s2_pool4/3x3_s2_0_split_3
I1028 13:30:00.818591 28179 net.cpp:411] inception_5a/pool -> inception_5a/pool
I1028 13:30:00.818797 28179 net.cpp:150] Setting up inception_5a/pool
I1028 13:30:00.818807 28179 net.cpp:157] Top shape: 32 832 7 7 (1304576)
I1028 13:30:00.818811 28179 net.cpp:165] Memory required for data: 1739252744
I1028 13:30:00.818815 28179 layer_factory.hpp:76] Creating layer inception_5a/pool_proj
I1028 13:30:00.818824 28179 net.cpp:106] Creating Layer inception_5a/pool_proj
I1028 13:30:00.818828 28179 net.cpp:454] inception_5a/pool_proj <- inception_5a/pool
I1028 13:30:00.818835 28179 net.cpp:411] inception_5a/pool_proj -> inception_5a/pool_proj
I1028 13:30:00.821137 28179 cudnn_conv_layer.cpp:194] Reallocating workspace storage: 7428
I1028 13:30:00.821168 28179 net.cpp:150] Setting up inception_5a/pool_proj
I1028 13:30:00.821177 28179 net.cpp:157] Top shape: 32 128 7 7 (200704)
I1028 13:30:00.821182 28179 net.cpp:165] Memory required for data: 1740055560
I1028 13:30:00.821189 28179 layer_factory.hpp:76] Creating layer inception_5a/prelu_pool_proj
I1028 13:30:00.821197 28179 net.cpp:106] Creating Layer inception_5a/prelu_pool_proj
I1028 13:30:00.821203 28179 net.cpp:454] inception_5a/prelu_pool_proj <- inception_5a/pool_proj
I1028 13:30:00.821219 28179 net.cpp:397] inception_5a/prelu_pool_proj -> inception_5a/pool_proj (in-place)
I1028 13:30:00.821369 28179 net.cpp:150] Setting up inception_5a/prelu_pool_proj
I1028 13:30:00.821383 28179 net.cpp:157] Top shape: 32 128 7 7 (200704)
I1028 13:30:00.821389 28179 net.cpp:165] Memory required for data: 1740858376
I1028 13:30:00.821399 28179 layer_factory.hpp:76] Creating layer inception_5a/output
I1028 13:30:00.821419 28179 net.cpp:106] Creating Layer inception_5a/output
I1028 13:30:00.821431 28179 net.cpp:454] inception_5a/output <- inception_5a/1x1
I1028 13:30:00.821441 28179 net.cpp:454] inception_5a/output <- inception_5a/3x3
I1028 13:30:00.821454 28179 net.cpp:454] inception_5a/output <- inception_5a/5x5
I1028 13:30:00.821475 28179 net.cpp:454] inception_5a/output <- inception_5a/pool_proj
I1028 13:30:00.821480 28179 net.cpp:411] inception_5a/output -> inception_5a/output
I1028 13:30:00.821516 28179 net.cpp:150] Setting up inception_5a/output
I1028 13:30:00.821529 28179 net.cpp:157] Top shape: 32 832 7 7 (1304576)
I1028 13:30:00.821537 28179 net.cpp:165] Memory required for data: 1746076680
I1028 13:30:00.821544 28179 layer_factory.hpp:76] Creating layer inception_5a/output_inception_5a/output_0_split
I1028 13:30:00.821564 28179 net.cpp:106] Creating Layer inception_5a/output_inception_5a/output_0_split
I1028 13:30:00.821584 28179 net.cpp:454] inception_5a/output_inception_5a/output_0_split <- inception_5a/output
I1028 13:30:00.821598 28179 net.cpp:411] inception_5a/output_inception_5a/output_0_split -> inception_5a/output_inception_5a/output_0_split_0
I1028 13:30:00.821607 28179 net.cpp:411] inception_5a/output_inception_5a/output_0_split -> inception_5a/output_inception_5a/output_0_split_1
I1028 13:30:00.821614 28179 net.cpp:411] inception_5a/output_inception_5a/output_0_split -> inception_5a/output_inception_5a/output_0_split_2
I1028 13:30:00.821621 28179 net.cpp:411] inception_5a/output_inception_5a/output_0_split -> inception_5a/output_inception_5a/output_0_split_3
I1028 13:30:00.821699 28179 net.cpp:150] Setting up inception_5a/output_inception_5a/output_0_split
I1028 13:30:00.821707 28179 net.cpp:157] Top shape: 32 832 7 7 (1304576)
I1028 13:30:00.821712 28179 net.cpp:157] Top shape: 32 832 7 7 (1304576)
I1028 13:30:00.821717 28179 net.cpp:157] Top shape: 32 832 7 7 (1304576)
I1028 13:30:00.821722 28179 net.cpp:157] Top shape: 32 832 7 7 (1304576)
I1028 13:30:00.821725 28179 net.cpp:165] Memory required for data: 1766949896
I1028 13:30:00.821748 28179 layer_factory.hpp:76] Creating layer inception_5b/1x1
I1028 13:30:00.821756 28179 net.cpp:106] Creating Layer inception_5b/1x1
I1028 13:30:00.821761 28179 net.cpp:454] inception_5b/1x1 <- inception_5a/output_inception_5a/output_0_split_0
I1028 13:30:00.821768 28179 net.cpp:411] inception_5b/1x1 -> inception_5b/1x1
I1028 13:30:00.825345 28179 cudnn_conv_layer.cpp:194] Reallocating workspace storage: 7428
I1028 13:30:00.825392 28179 net.cpp:150] Setting up inception_5b/1x1
I1028 13:30:00.825402 28179 net.cpp:157] Top shape: 32 384 7 7 (602112)
I1028 13:30:00.825407 28179 net.cpp:165] Memory required for data: 1769358344
I1028 13:30:00.825425 28179 layer_factory.hpp:76] Creating layer inception_5b/prelu_1x1
I1028 13:30:00.825438 28179 net.cpp:106] Creating Layer inception_5b/prelu_1x1
I1028 13:30:00.825444 28179 net.cpp:454] inception_5b/prelu_1x1 <- inception_5b/1x1
I1028 13:30:00.825451 28179 net.cpp:397] inception_5b/prelu_1x1 -> inception_5b/1x1 (in-place)
I1028 13:30:00.826129 28179 net.cpp:150] Setting up inception_5b/prelu_1x1
I1028 13:30:00.826146 28179 net.cpp:157] Top shape: 32 384 7 7 (602112)
I1028 13:30:00.826151 28179 net.cpp:165] Memory required for data: 1771766792
I1028 13:30:00.826158 28179 layer_factory.hpp:76] Creating layer inception_5b/3x3_reduce
I1028 13:30:00.826169 28179 net.cpp:106] Creating Layer inception_5b/3x3_reduce
I1028 13:30:00.826174 28179 net.cpp:454] inception_5b/3x3_reduce <- inception_5a/output_inception_5a/output_0_split_1
I1028 13:30:00.826182 28179 net.cpp:411] inception_5b/3x3_reduce -> inception_5b/3x3_reduce
I1028 13:30:00.828812 28179 cudnn_conv_layer.cpp:194] Reallocating workspace storage: 7428
I1028 13:30:00.828855 28179 net.cpp:150] Setting up inception_5b/3x3_reduce
I1028 13:30:00.828865 28179 net.cpp:157] Top shape: 32 192 7 7 (301056)
I1028 13:30:00.828869 28179 net.cpp:165] Memory required for data: 1772971016
I1028 13:30:00.828877 28179 layer_factory.hpp:76] Creating layer inception_5b/prelu_3x3_reduce
I1028 13:30:00.828886 28179 net.cpp:106] Creating Layer inception_5b/prelu_3x3_reduce
I1028 13:30:00.828892 28179 net.cpp:454] inception_5b/prelu_3x3_reduce <- inception_5b/3x3_reduce
I1028 13:30:00.828901 28179 net.cpp:397] inception_5b/prelu_3x3_reduce -> inception_5b/3x3_reduce (in-place)
I1028 13:30:00.829037 28179 net.cpp:150] Setting up inception_5b/prelu_3x3_reduce
I1028 13:30:00.829048 28179 net.cpp:157] Top shape: 32 192 7 7 (301056)
I1028 13:30:00.829052 28179 net.cpp:165] Memory required for data: 1774175240
I1028 13:30:00.829057 28179 layer_factory.hpp:76] Creating layer inception_5b/3x3
I1028 13:30:00.829066 28179 net.cpp:106] Creating Layer inception_5b/3x3
I1028 13:30:00.829071 28179 net.cpp:454] inception_5b/3x3 <- inception_5b/3x3_reduce
I1028 13:30:00.829077 28179 net.cpp:411] inception_5b/3x3 -> inception_5b/3x3
I1028 13:30:00.834826 28179 cudnn_conv_layer.cpp:194] Reallocating workspace storage: 7788
I1028 13:30:00.834877 28179 net.cpp:150] Setting up inception_5b/3x3
I1028 13:30:00.834888 28179 net.cpp:157] Top shape: 32 384 7 7 (602112)
I1028 13:30:00.834892 28179 net.cpp:165] Memory required for data: 1776583688
I1028 13:30:00.834909 28179 layer_factory.hpp:76] Creating layer inception_5b/prelu_3x3
I1028 13:30:00.834920 28179 net.cpp:106] Creating Layer inception_5b/prelu_3x3
I1028 13:30:00.834928 28179 net.cpp:454] inception_5b/prelu_3x3 <- inception_5b/3x3
I1028 13:30:00.834934 28179 net.cpp:397] inception_5b/prelu_3x3 -> inception_5b/3x3 (in-place)
I1028 13:30:00.835070 28179 net.cpp:150] Setting up inception_5b/prelu_3x3
I1028 13:30:00.835079 28179 net.cpp:157] Top shape: 32 384 7 7 (602112)
I1028 13:30:00.835083 28179 net.cpp:165] Memory required for data: 1778992136
I1028 13:30:00.835088 28179 layer_factory.hpp:76] Creating layer inception_5b/5x5_reduce
I1028 13:30:00.835106 28179 net.cpp:106] Creating Layer inception_5b/5x5_reduce
I1028 13:30:00.835113 28179 net.cpp:454] inception_5b/5x5_reduce <- inception_5a/output_inception_5a/output_0_split_2
I1028 13:30:00.835119 28179 net.cpp:411] inception_5b/5x5_reduce -> inception_5b/5x5_reduce
I1028 13:30:00.836285 28179 cudnn_conv_layer.cpp:194] Reallocating workspace storage: 7428
I1028 13:30:00.836311 28179 net.cpp:150] Setting up inception_5b/5x5_reduce
I1028 13:30:00.836319 28179 net.cpp:157] Top shape: 32 48 7 7 (75264)
I1028 13:30:00.836323 28179 net.cpp:165] Memory required for data: 1779293192
I1028 13:30:00.836330 28179 layer_factory.hpp:76] Creating layer inception_5b/prelu_5x5_reduce
I1028 13:30:00.836339 28179 net.cpp:106] Creating Layer inception_5b/prelu_5x5_reduce
I1028 13:30:00.836345 28179 net.cpp:454] inception_5b/prelu_5x5_reduce <- inception_5b/5x5_reduce
I1028 13:30:00.836354 28179 net.cpp:397] inception_5b/prelu_5x5_reduce -> inception_5b/5x5_reduce (in-place)
I1028 13:30:00.836557 28179 net.cpp:150] Setting up inception_5b/prelu_5x5_reduce
I1028 13:30:00.836567 28179 net.cpp:157] Top shape: 32 48 7 7 (75264)
I1028 13:30:00.836571 28179 net.cpp:165] Memory required for data: 1779594248
I1028 13:30:00.836576 28179 layer_factory.hpp:76] Creating layer inception_5b/5x5
I1028 13:30:00.836588 28179 net.cpp:106] Creating Layer inception_5b/5x5
I1028 13:30:00.836593 28179 net.cpp:454] inception_5b/5x5 <- inception_5b/5x5_reduce
I1028 13:30:00.836601 28179 net.cpp:411] inception_5b/5x5 -> inception_5b/5x5
I1028 13:30:00.838562 28179 cudnn_conv_layer.cpp:194] Reallocating workspace storage: 9804
I1028 13:30:00.838589 28179 net.cpp:150] Setting up inception_5b/5x5
I1028 13:30:00.838598 28179 net.cpp:157] Top shape: 32 128 7 7 (200704)
I1028 13:30:00.838603 28179 net.cpp:165] Memory required for data: 1780397064
I1028 13:30:00.838609 28179 layer_factory.hpp:76] Creating layer inception_5b/prelu_5x5
I1028 13:30:00.838616 28179 net.cpp:106] Creating Layer inception_5b/prelu_5x5
I1028 13:30:00.838629 28179 net.cpp:454] inception_5b/prelu_5x5 <- inception_5b/5x5
I1028 13:30:00.838637 28179 net.cpp:397] inception_5b/prelu_5x5 -> inception_5b/5x5 (in-place)
I1028 13:30:00.838755 28179 net.cpp:150] Setting up inception_5b/prelu_5x5
I1028 13:30:00.838765 28179 net.cpp:157] Top shape: 32 128 7 7 (200704)
I1028 13:30:00.838769 28179 net.cpp:165] Memory required for data: 1781199880
I1028 13:30:00.838775 28179 layer_factory.hpp:76] Creating layer inception_5b/pool
I1028 13:30:00.838783 28179 net.cpp:106] Creating Layer inception_5b/pool
I1028 13:30:00.838788 28179 net.cpp:454] inception_5b/pool <- inception_5a/output_inception_5a/output_0_split_3
I1028 13:30:00.838793 28179 net.cpp:411] inception_5b/pool -> inception_5b/pool
I1028 13:30:00.839175 28179 net.cpp:150] Setting up inception_5b/pool
I1028 13:30:00.839186 28179 net.cpp:157] Top shape: 32 832 7 7 (1304576)
I1028 13:30:00.839190 28179 net.cpp:165] Memory required for data: 1786418184
I1028 13:30:00.839195 28179 layer_factory.hpp:76] Creating layer inception_5b/pool_proj
I1028 13:30:00.839202 28179 net.cpp:106] Creating Layer inception_5b/pool_proj
I1028 13:30:00.839206 28179 net.cpp:454] inception_5b/pool_proj <- inception_5b/pool
I1028 13:30:00.839215 28179 net.cpp:411] inception_5b/pool_proj -> inception_5b/pool_proj
I1028 13:30:00.841393 28179 cudnn_conv_layer.cpp:194] Reallocating workspace storage: 7428
I1028 13:30:00.841423 28179 net.cpp:150] Setting up inception_5b/pool_proj
I1028 13:30:00.841430 28179 net.cpp:157] Top shape: 32 128 7 7 (200704)
I1028 13:30:00.841434 28179 net.cpp:165] Memory required for data: 1787221000
I1028 13:30:00.841441 28179 layer_factory.hpp:76] Creating layer inception_5b/prelu_pool_proj
I1028 13:30:00.841456 28179 net.cpp:106] Creating Layer inception_5b/prelu_pool_proj
I1028 13:30:00.841461 28179 net.cpp:454] inception_5b/prelu_pool_proj <- inception_5b/pool_proj
I1028 13:30:00.841467 28179 net.cpp:397] inception_5b/prelu_pool_proj -> inception_5b/pool_proj (in-place)
I1028 13:30:00.841574 28179 net.cpp:150] Setting up inception_5b/prelu_pool_proj
I1028 13:30:00.841583 28179 net.cpp:157] Top shape: 32 128 7 7 (200704)
I1028 13:30:00.841586 28179 net.cpp:165] Memory required for data: 1788023816
I1028 13:30:00.841591 28179 layer_factory.hpp:76] Creating layer inception_5b/output
I1028 13:30:00.841598 28179 net.cpp:106] Creating Layer inception_5b/output
I1028 13:30:00.841612 28179 net.cpp:454] inception_5b/output <- inception_5b/1x1
I1028 13:30:00.841619 28179 net.cpp:454] inception_5b/output <- inception_5b/3x3
I1028 13:30:00.841634 28179 net.cpp:454] inception_5b/output <- inception_5b/5x5
I1028 13:30:00.841639 28179 net.cpp:454] inception_5b/output <- inception_5b/pool_proj
I1028 13:30:00.841645 28179 net.cpp:411] inception_5b/output -> inception_5b/output
I1028 13:30:00.841682 28179 net.cpp:150] Setting up inception_5b/output
I1028 13:30:00.841691 28179 net.cpp:157] Top shape: 32 1024 7 7 (1605632)
I1028 13:30:00.841696 28179 net.cpp:165] Memory required for data: 1794446344
I1028 13:30:00.841699 28179 layer_factory.hpp:76] Creating layer pool5/7x7_s1
I1028 13:30:00.841708 28179 net.cpp:106] Creating Layer pool5/7x7_s1
I1028 13:30:00.841722 28179 net.cpp:454] pool5/7x7_s1 <- inception_5b/output
I1028 13:30:00.841728 28179 net.cpp:411] pool5/7x7_s1 -> pool5/7x7_s1
I1028 13:30:00.841920 28179 net.cpp:150] Setting up pool5/7x7_s1
I1028 13:30:00.841930 28179 net.cpp:157] Top shape: 32 1024 1 1 (32768)
I1028 13:30:00.841933 28179 net.cpp:165] Memory required for data: 1794577416
I1028 13:30:00.841946 28179 layer_factory.hpp:76] Creating layer pool5/drop_7x7_s1
I1028 13:30:00.841953 28179 net.cpp:106] Creating Layer pool5/drop_7x7_s1
I1028 13:30:00.841958 28179 net.cpp:454] pool5/drop_7x7_s1 <- pool5/7x7_s1
I1028 13:30:00.841964 28179 net.cpp:397] pool5/drop_7x7_s1 -> pool5/7x7_s1 (in-place)
I1028 13:30:00.842000 28179 net.cpp:150] Setting up pool5/drop_7x7_s1
I1028 13:30:00.842010 28179 net.cpp:157] Top shape: 32 1024 1 1 (32768)
I1028 13:30:00.842013 28179 net.cpp:165] Memory required for data: 1794708488
I1028 13:30:00.842025 28179 layer_factory.hpp:76] Creating layer loss3/classifier2
I1028 13:30:00.842032 28179 net.cpp:106] Creating Layer loss3/classifier2
I1028 13:30:00.842052 28179 net.cpp:454] loss3/classifier2 <- pool5/7x7_s1
I1028 13:30:00.842067 28179 net.cpp:411] loss3/classifier2 -> loss3/classifier
I1028 13:30:00.842212 28179 net.cpp:150] Setting up loss3/classifier2
I1028 13:30:00.842221 28179 net.cpp:157] Top shape: 32 2 (64)
I1028 13:30:00.842226 28179 net.cpp:165] Memory required for data: 1794708744
I1028 13:30:00.842231 28179 layer_factory.hpp:76] Creating layer loss3/loss3
I1028 13:30:00.842238 28179 net.cpp:106] Creating Layer loss3/loss3
I1028 13:30:00.842242 28179 net.cpp:454] loss3/loss3 <- loss3/classifier
I1028 13:30:00.842247 28179 net.cpp:454] loss3/loss3 <- label_data_1_split_2
I1028 13:30:00.842263 28179 net.cpp:411] loss3/loss3 -> loss3/loss3
…
I1028 13:30:00.847120 28179 net.cpp:322] The NetState phase (1) differed from the phase (0) specified by a rule in layer data
I1028 13:30:00.848116 28179 net.cpp:49] Initializing net from parameters: 
name: "GoogleNet"
state {
  phase: TEST
}
layer {
  name: "data"
  type: "Data"
  top: "data"
  top: "label"
  include {
    phase: TEST
  }
  transform_param {
    mirror: false
    crop_size: 224
    mean_value: 104
    mean_value: 117
    mean_value: 123
  }
  data_param {
    source: "../../LMDB/val_5-lmdb"
    batch_size: 50
    backend: LMDB
  }
}
layer {
  name: "conv1/7x7_s2"
  type: "Convolution"
  bottom: "data"
  top: "conv1/7x7_s2"
  param {
    lr_mult: 1
    decay_mult: 1
  }
  param {
    lr_mult: 2
    decay_mult: 0
  }
  convolution_param {
    num_output: 64
    pad: 3
    kernel_size: 7
    stride: 2
    weight_filler {
      type: "xavier"
    }
    bias_filler {
      type: "constant"
      value: 0.2
    }
  }
}
layer {
  name: "conv1/prelu_7x7"
  type: "PReLU"
  bottom: "conv1/7x7_s2"
  top: "conv1/7x7_s2"
  param {
    lr_mult: 1
    decay_mult: 0
  }
  prelu_param {
    filler {
      type: "constant"
      value: 0.01
    }
  }
}
layer {
  name: "pool1/3x3_s2"
  type: "Pooling"
  bottom: "conv1/7x7_s2"
  top: "pool1/3x3_s2"
  pooling_param {
    pool: MAX
    kernel_size: 3
    stride: 2
  }
}
layer {
  name: "pool1/norm1"
  type: "LRN"
  bottom: "pool1/3x3_s2"
  top: "pool1/norm1"
  lrn_param {
    local_size: 5
    alpha: 0.0001
    beta: 0.75
  }
}
layer {
  name: "conv2/3x3_reduce"
  type: "Convolution"
  bottom: "pool1/norm1"
  top: "conv2/3x3_reduce"
  param {
    lr_mult: 1
    decay_mult: 1
  }
  param {
    lr_mult: 2
    decay_mult: 0
  }
  convolution_param {
    num_output: 64
    kernel_size: 1
    weight_filler {
      type: "xavier"
    }
    bias_filler {
      type: "constant"
      value: 0.2
    }
  }
}
layer {
  name: "conv2/prelu_3x3_reduce"
  type: "PReLU"
  bottom: "conv2/3x3_reduce"
  top: "conv2/3x3_reduce"
  param {
    lr_mult: 1
    decay_mult: 0
  }
  prelu_param {
    filler {
      type: "constant"
      value: 0.01
    }
  }
}
layer {
  name: "conv2/3x3"
  type: "Convolution"
  bottom: "conv2/3x3_reduce"
  top: "conv2/3x3"
  param {
    lr_mult: 1
    decay_mult: 1
  }
  param {
    lr_mult: 2
    decay_mult: 0
  }
  convolution_param {
    num_output: 192
    pad: 1
    kernel_size: 3
    weight_filler {
      type: "xavier"
    }
    bias_filler {
      type: "constant"
      value: 0.2
    }
  }
}
layer {
  name: "conv2/prelu_3x3"
  type: "PReLU"
  bottom: "conv2/3x3"
  top: "conv2/3x3"
  param {
    lr_mult: 1
    decay_mult: 0
  }
  prelu_param {
    filler {
      type: "constant"
      value: 0.01
    }
  }
}
layer {
  name: "conv2/norm2"
  type: "LRN"
  bottom: "conv2/3x3"
  top: "conv2/norm2"
  lrn_param {
    local_size: 5
    alpha: 0.0001
    beta: 0.75
  }
}
layer {
  name: "pool2/3x3_s2"
  type: "Pooling"
  bottom: "conv2/norm2"
  top: "pool2/3x3_s2"
  pooling_param {
    pool: MAX
    kernel_size: 3
    stride: 2
  }
}
layer {
  name: "inception_3a/1x1"
  type: "Convolution"
  bottom: "pool2/3x3_s2"
  top: "inception_3a/1x1"
  param {
    lr_mult: 1
    decay_mult: 1
  }
  param {
    lr_mult: 2
    decay_mult: 0
  }
  convolution_param {
    num_output: 64
    kernel_size: 1
    weight_filler {
      type: "xavier"
    }
    bias_filler {
      type: "constant"
      value: 0.2
    }
  }
}
layer {
  name: "inception_3a/prelu_1x1"
  type: "PReLU"
  bottom: "inception_3a/1x1"
  top: "inception_3a/1x1"
  param {
    lr_mult: 1
    decay_mult: 0
  }
  prelu_param {
    filler {
      type: "constant"
      value: 0.01
    }
  }
}
layer {
  name: "inception_3a/3x3_reduce"
  type: "Convolution"
  bottom: "pool2/3x3_s2"
  top: "inception_3a/3x3_reduce"
  param {
    lr_mult: 1
    decay_mult: 1
  }
  param {
    lr_mult: 2
    decay_mult: 0
  }
  convolution_param {
    num_output: 96
    kernel_size: 1
    weight_filler {
      type: "xavier"
    }
    bias_filler {
      type: "constant"
      value: 0.2
    }
  }
}
layer {
  name: "inception_3a/prelu_3x3_reduce"
  type: "PReLU"
  bottom: "inception_3a/3x3_reduce"
  top: "inception_3a/3x3_reduce"
  param {
    lr_mult: 1
    decay_mult: 0
  }
  prelu_param {
    filler {
      type: "constant"
      value: 0.01
    }
  }
}
layer {
  name: "inception_3a/3x3"
  type: "Convolution"
  bottom: "inception_3a/3x3_reduce"
  top: "inception_3a/3x3"
  param {
    lr_mult: 1
    decay_mult: 1
  }
  param {
    lr_mult: 2
    decay_mult: 0
  }
  convolution_param {
    num_output: 128
    pad: 1
    kernel_size: 3
    weight_filler {
      type: "xavier"
    }
    bias_filler {
      type: "constant"
      value: 0.2
    }
  }
}
layer {
  name: "inception_3a/prelu_3x3"
  type: "PReLU"
  bottom: "inception_3a/3x3"
  top: "inception_3a/3x3"
  param {
    lr_mult: 1
    decay_mult: 0
  }
  prelu_param {
    filler {
      type: "constant"
      value: 0.01
    }
  }
}
layer {
  name: "inception_3a/5x5_reduce"
  type: "Convolution"
  bottom: "pool2/3x3_s2"
  top: "inception_3a/5x5_reduce"
  param {
    lr_mult: 1
    decay_mult: 1
  }
  param {
    lr_mult: 2
    decay_mult: 0
  }
  convolution_param {
    num_output: 16
    kernel_size: 1
    weight_filler {
      type: "xavier"
    }
    bias_filler {
      type: "constant"
      value: 0.2
    }
  }
}
layer {
  name: "inception_3a/prelu_5x5_reduce"
  type: "PReLU"
  bottom: "inception_3a/5x5_reduce"
  top: "inception_3a/5x5_reduce"
  param {
    lr_mult: 1
    decay_mult: 0
  }
  prelu_param {
    filler {
      type: "constant"
      value: 0.01
    }
  }
}
layer {
  name: "inception_3a/5x5"
  type: "Convolution"
  bottom: "inception_3a/5x5_reduce"
  top: "inception_3a/5x5"
  param {
    lr_mult: 1
    decay_mult: 1
  }
  param {
    lr_mult: 2
    decay_mult: 0
  }
  convolution_param {
    num_output: 32
    pad: 2
    kernel_size: 5
    weight_filler {
      type: "xavier"
    }
    bias_filler {
      type: "constant"
      value: 0.2
    }
  }
}
layer {
  name: "inception_3a/prelu_5x5"
  type: "PReLU"
  bottom: "inception_3a/5x5"
  top: "inception_3a/5x5"
  param {
    lr_mult: 1
    decay_mult: 0
  }
  prelu_param {
    filler {
      type: "constant"
      value: 0.01
    }
  }
}
layer {
  name: "inception_3a/pool"
  type: "Pooling"
  bottom: "pool2/3x3_s2"
  top: "inception_3a/pool"
  pooling_param {
    pool: MAX
    kernel_size: 3
    stride: 1
    pad: 1
  }
}
layer {
  name: "inception_3a/pool_proj"
  type: "Convolution"
  bottom: "inception_3a/pool"
  top: "inception_3a/pool_proj"
  param {
    lr_mult: 1
    decay_mult: 1
  }
  param {
    lr_mult: 2
    decay_mult: 0
  }
  convolution_param {
    num_output: 32
    kernel_size: 1
    weight_filler {
      type: "xavier"
    }
    bias_filler {
      type: "constant"
      value: 0.2
    }
  }
}
layer {
  name: "inception_3a/prelu_pool_proj"
  type: "PReLU"
  bottom: "inception_3a/pool_proj"
  top: "inception_3a/pool_proj"
  param {
    lr_mult: 1
    decay_mult: 0
  }
  prelu_param {
    filler {
      type: "constant"
      value: 0.01
    }
  }
}
layer {
  name: "inception_3a/output"
  type: "Concat"
  bottom: "inception_3a/1x1"
  bottom: "inception_3a/3x3"
  bottom: "inception_3a/5x5"
  bottom: "inception_3a/pool_proj"
  top: "inception_3a/output"
}
layer {
  name: "inception_3b/1x1"
  type: "Convolution"
  bottom: "inception_3a/output"
  top: "inception_3b/1x1"
  param {
    lr_mult: 1
    decay_mult: 1
  }
  param {
    lr_mult: 2
    decay_mult: 0
  }
  convolution_param {
    num_output: 128
    kernel_size: 1
    weight_filler {
      type: "xavier"
    }
    bias_filler {
      type: "constant"
      value: 0.2
    }
  }
}
layer {
  name: "inception_3b/prelu_1x1"
  type: "PReLU"
  bottom: "inception_3b/1x1"
  top: "inception_3b/1x1"
  param {
    lr_mult: 1
    decay_mult: 0
  }
  prelu_param {
    filler {
      type: "constant"
      value: 0.01
    }
  }
}
layer {
  name: "inception_3b/3x3_reduce"
  type: "Convolution"
  bottom: "inception_3a/output"
  top: "inception_3b/3x3_reduce"
  param {
    lr_mult: 1
    decay_mult: 1
  }
  param {
    lr_mult: 2
    decay_mult: 0
  }
  convolution_param {
    num_output: 128
    kernel_size: 1
    weight_filler {
      type: "xavier"
    }
    bias_filler {
      type: "constant"
      value: 0.2
    }
  }
}
layer {
  name: "inception_3b/prelu_3x3_reduce"
  type: "PReLU"
  bottom: "inception_3b/3x3_reduce"
  top: "inception_3b/3x3_reduce"
  param {
    lr_mult: 1
    decay_mult: 0
  }
  prelu_param {
    filler {
      type: "constant"
      value: 0.01
    }
  }
}
layer {
  name: "inception_3b/3x3"
  type: "Convolution"
  bottom: "inception_3b/3x3_reduce"
  top: "inception_3b/3x3"
  param {
    lr_mult: 1
    decay_mult: 1
  }
  param {
    lr_mult: 2
    decay_mult: 0
  }
  convolution_param {
    num_output: 192
    pad: 1
    kernel_size: 3
    weight_filler {
      type: "xavier"
    }
…
I1028 13:30:01.122782 28179 net.cpp:106] Creating Layer inception_4c/output
I1028 13:30:01.122787 28179 net.cpp:454] inception_4c/output <- inception_4c/1x1
I1028 13:30:01.122797 28179 net.cpp:454] inception_4c/output <- inception_4c/3x3
I1028 13:30:01.122803 28179 net.cpp:454] inception_4c/output <- inception_4c/5x5
I1028 13:30:01.122807 28179 net.cpp:454] inception_4c/output <- inception_4c/pool_proj
I1028 13:30:01.122813 28179 net.cpp:411] inception_4c/output -> inception_4c/output
I1028 13:30:01.122838 28179 net.cpp:150] Setting up inception_4c/output
I1028 13:30:01.122854 28179 net.cpp:157] Top shape: 50 512 14 14 (5017600)
I1028 13:30:01.122866 28179 net.cpp:165] Memory required for data: 2234652208
I1028 13:30:01.122870 28179 layer_factory.hpp:76] Creating layer inception_4c/output_inception_4c/output_0_split
I1028 13:30:01.122877 28179 net.cpp:106] Creating Layer inception_4c/output_inception_4c/output_0_split
I1028 13:30:01.122881 28179 net.cpp:454] inception_4c/output_inception_4c/output_0_split <- inception_4c/output
I1028 13:30:01.122889 28179 net.cpp:411] inception_4c/output_inception_4c/output_0_split -> inception_4c/output_inception_4c/output_0_split_0
I1028 13:30:01.122895 28179 net.cpp:411] inception_4c/output_inception_4c/output_0_split -> inception_4c/output_inception_4c/output_0_split_1
I1028 13:30:01.122902 28179 net.cpp:411] inception_4c/output_inception_4c/output_0_split -> inception_4c/output_inception_4c/output_0_split_2
I1028 13:30:01.122910 28179 net.cpp:411] inception_4c/output_inception_4c/output_0_split -> inception_4c/output_inception_4c/output_0_split_3
I1028 13:30:01.122973 28179 net.cpp:150] Setting up inception_4c/output_inception_4c/output_0_split
I1028 13:30:01.122982 28179 net.cpp:157] Top shape: 50 512 14 14 (5017600)
I1028 13:30:01.122987 28179 net.cpp:157] Top shape: 50 512 14 14 (5017600)
I1028 13:30:01.122992 28179 net.cpp:157] Top shape: 50 512 14 14 (5017600)
I1028 13:30:01.122997 28179 net.cpp:157] Top shape: 50 512 14 14 (5017600)
I1028 13:30:01.123000 28179 net.cpp:165] Memory required for data: 2314933808
I1028 13:30:01.123004 28179 layer_factory.hpp:76] Creating layer inception_4d/1x1
I1028 13:30:01.123013 28179 net.cpp:106] Creating Layer inception_4d/1x1
I1028 13:30:01.123018 28179 net.cpp:454] inception_4d/1x1 <- inception_4c/output_inception_4c/output_0_split_0
I1028 13:30:01.123024 28179 net.cpp:411] inception_4d/1x1 -> inception_4d/1x1
I1028 13:30:01.124519 28179 cudnn_conv_layer.cpp:194] Reallocating workspace storage: 10080
I1028 13:30:01.124560 28179 net.cpp:150] Setting up inception_4d/1x1
I1028 13:30:01.124570 28179 net.cpp:157] Top shape: 50 112 14 14 (1097600)
I1028 13:30:01.124574 28179 net.cpp:165] Memory required for data: 2319324208
I1028 13:30:01.124583 28179 layer_factory.hpp:76] Creating layer inception_4d/prelu_1x1
I1028 13:30:01.124593 28179 net.cpp:106] Creating Layer inception_4d/prelu_1x1
I1028 13:30:01.124598 28179 net.cpp:454] inception_4d/prelu_1x1 <- inception_4d/1x1
I1028 13:30:01.124604 28179 net.cpp:397] inception_4d/prelu_1x1 -> inception_4d/1x1 (in-place)
I1028 13:30:01.124699 28179 net.cpp:150] Setting up inception_4d/prelu_1x1
I1028 13:30:01.124708 28179 net.cpp:157] Top shape: 50 112 14 14 (1097600)
I1028 13:30:01.124712 28179 net.cpp:165] Memory required for data: 2323714608
I1028 13:30:01.124717 28179 layer_factory.hpp:76] Creating layer inception_4d/3x3_reduce
I1028 13:30:01.124728 28179 net.cpp:106] Creating Layer inception_4d/3x3_reduce
I1028 13:30:01.124733 28179 net.cpp:454] inception_4d/3x3_reduce <- inception_4c/output_inception_4c/output_0_split_1
I1028 13:30:01.124742 28179 net.cpp:411] inception_4d/3x3_reduce -> inception_4d/3x3_reduce
I1028 13:30:01.126344 28179 cudnn_conv_layer.cpp:194] Reallocating workspace storage: 10080
I1028 13:30:01.126401 28179 net.cpp:150] Setting up inception_4d/3x3_reduce
I1028 13:30:01.126412 28179 net.cpp:157] Top shape: 50 144 14 14 (1411200)
I1028 13:30:01.126417 28179 net.cpp:165] Memory required for data: 2329359408
I1028 13:30:01.126428 28179 layer_factory.hpp:76] Creating layer inception_4d/prelu_3x3_reduce
I1028 13:30:01.126441 28179 net.cpp:106] Creating Layer inception_4d/prelu_3x3_reduce
I1028 13:30:01.126446 28179 net.cpp:454] inception_4d/prelu_3x3_reduce <- inception_4d/3x3_reduce
I1028 13:30:01.126452 28179 net.cpp:397] inception_4d/prelu_3x3_reduce -> inception_4d/3x3_reduce (in-place)
I1028 13:30:01.126574 28179 net.cpp:150] Setting up inception_4d/prelu_3x3_reduce
I1028 13:30:01.126585 28179 net.cpp:157] Top shape: 50 144 14 14 (1411200)
I1028 13:30:01.126592 28179 net.cpp:165] Memory required for data: 2335004208
I1028 13:30:01.126598 28179 layer_factory.hpp:76] Creating layer inception_4d/3x3
I1028 13:30:01.126608 28179 net.cpp:106] Creating Layer inception_4d/3x3
I1028 13:30:01.126612 28179 net.cpp:454] inception_4d/3x3 <- inception_4d/3x3_reduce
I1028 13:30:01.126621 28179 net.cpp:411] inception_4d/3x3 -> inception_4d/3x3
I1028 13:30:01.131181 28179 cudnn_conv_layer.cpp:194] Reallocating workspace storage: 10080
I1028 13:30:01.131266 28179 net.cpp:150] Setting up inception_4d/3x3
I1028 13:30:01.131283 28179 net.cpp:157] Top shape: 50 288 14 14 (2822400)
I1028 13:30:01.131288 28179 net.cpp:165] Memory required for data: 2346293808
I1028 13:30:01.131297 28179 layer_factory.hpp:76] Creating layer inception_4d/prelu_3x3
I1028 13:30:01.131314 28179 net.cpp:106] Creating Layer inception_4d/prelu_3x3
I1028 13:30:01.131322 28179 net.cpp:454] inception_4d/prelu_3x3 <- inception_4d/3x3
I1028 13:30:01.131332 28179 net.cpp:397] inception_4d/prelu_3x3 -> inception_4d/3x3 (in-place)
I1028 13:30:01.132141 28179 net.cpp:150] Setting up inception_4d/prelu_3x3
I1028 13:30:01.132161 28179 net.cpp:157] Top shape: 50 288 14 14 (2822400)
I1028 13:30:01.132165 28179 net.cpp:165] Memory required for data: 2357583408
I1028 13:30:01.132172 28179 layer_factory.hpp:76] Creating layer inception_4d/5x5_reduce
I1028 13:30:01.132186 28179 net.cpp:106] Creating Layer inception_4d/5x5_reduce
I1028 13:30:01.132203 28179 net.cpp:454] inception_4d/5x5_reduce <- inception_4c/output_inception_4c/output_0_split_2
I1028 13:30:01.132213 28179 net.cpp:411] inception_4d/5x5_reduce -> inception_4d/5x5_reduce
I1028 13:30:01.134083 28179 cudnn_conv_layer.cpp:194] Reallocating workspace storage: 10080
I1028 13:30:01.134136 28179 net.cpp:150] Setting up inception_4d/5x5_reduce
I1028 13:30:01.134147 28179 net.cpp:157] Top shape: 50 32 14 14 (313600)
I1028 13:30:01.134153 28179 net.cpp:165] Memory required for data: 2358837808
I1028 13:30:01.134161 28179 layer_factory.hpp:76] Creating layer inception_4d/prelu_5x5_reduce
I1028 13:30:01.134172 28179 net.cpp:106] Creating Layer inception_4d/prelu_5x5_reduce
I1028 13:30:01.134178 28179 net.cpp:454] inception_4d/prelu_5x5_reduce <- inception_4d/5x5_reduce
I1028 13:30:01.134186 28179 net.cpp:397] inception_4d/prelu_5x5_reduce -> inception_4d/5x5_reduce (in-place)
I1028 13:30:01.134276 28179 net.cpp:150] Setting up inception_4d/prelu_5x5_reduce
I1028 13:30:01.134285 28179 net.cpp:157] Top shape: 50 32 14 14 (313600)
I1028 13:30:01.134289 28179 net.cpp:165] Memory required for data: 2360092208
I1028 13:30:01.134294 28179 layer_factory.hpp:76] Creating layer inception_4d/5x5
I1028 13:30:01.134305 28179 net.cpp:106] Creating Layer inception_4d/5x5
I1028 13:30:01.134310 28179 net.cpp:454] inception_4d/5x5 <- inception_4d/5x5_reduce
I1028 13:30:01.134318 28179 net.cpp:411] inception_4d/5x5 -> inception_4d/5x5
I1028 13:30:01.135663 28179 cudnn_conv_layer.cpp:194] Reallocating workspace storage: 13080
I1028 13:30:01.135712 28179 net.cpp:150] Setting up inception_4d/5x5
I1028 13:30:01.135732 28179 net.cpp:157] Top shape: 50 64 14 14 (627200)
I1028 13:30:01.135736 28179 net.cpp:165] Memory required for data: 2362601008
I1028 13:30:01.135754 28179 layer_factory.hpp:76] Creating layer inception_4d/prelu_5x5
I1028 13:30:01.135764 28179 net.cpp:106] Creating Layer inception_4d/prelu_5x5
I1028 13:30:01.135790 28179 net.cpp:454] inception_4d/prelu_5x5 <- inception_4d/5x5
I1028 13:30:01.135799 28179 net.cpp:397] inception_4d/prelu_5x5 -> inception_4d/5x5 (in-place)
I1028 13:30:01.135890 28179 net.cpp:150] Setting up inception_4d/prelu_5x5
I1028 13:30:01.135898 28179 net.cpp:157] Top shape: 50 64 14 14 (627200)
I1028 13:30:01.135902 28179 net.cpp:165] Memory required for data: 2365109808
I1028 13:30:01.135908 28179 layer_factory.hpp:76] Creating layer inception_4d/pool
I1028 13:30:01.135916 28179 net.cpp:106] Creating Layer inception_4d/pool
I1028 13:30:01.135921 28179 net.cpp:454] inception_4d/pool <- inception_4c/output_inception_4c/output_0_split_3
I1028 13:30:01.135927 28179 net.cpp:411] inception_4d/pool -> inception_4d/pool
I1028 13:30:01.136423 28179 net.cpp:150] Setting up inception_4d/pool
I1028 13:30:01.136435 28179 net.cpp:157] Top shape: 50 512 14 14 (5017600)
I1028 13:30:01.136440 28179 net.cpp:165] Memory required for data: 2385180208
I1028 13:30:01.136445 28179 layer_factory.hpp:76] Creating layer inception_4d/pool_proj
I1028 13:30:01.136454 28179 net.cpp:106] Creating Layer inception_4d/pool_proj
I1028 13:30:01.136461 28179 net.cpp:454] inception_4d/pool_proj <- inception_4d/pool
I1028 13:30:01.136468 28179 net.cpp:411] inception_4d/pool_proj -> inception_4d/pool_proj
I1028 13:30:01.137965 28179 cudnn_conv_layer.cpp:194] Reallocating workspace storage: 10080
I1028 13:30:01.138005 28179 net.cpp:150] Setting up inception_4d/pool_proj
I1028 13:30:01.138025 28179 net.cpp:157] Top shape: 50 64 14 14 (627200)
I1028 13:30:01.138031 28179 net.cpp:165] Memory required for data: 2387689008
I1028 13:30:01.138037 28179 layer_factory.hpp:76] Creating layer inception_4d/prelu_pool_proj
I1028 13:30:01.138062 28179 net.cpp:106] Creating Layer inception_4d/prelu_pool_proj
I1028 13:30:01.138068 28179 net.cpp:454] inception_4d/prelu_pool_proj <- inception_4d/pool_proj
I1028 13:30:01.138075 28179 net.cpp:397] inception_4d/prelu_pool_proj -> inception_4d/pool_proj (in-place)
I1028 13:30:01.138161 28179 net.cpp:150] Setting up inception_4d/prelu_pool_proj
I1028 13:30:01.138171 28179 net.cpp:157] Top shape: 50 64 14 14 (627200)
I1028 13:30:01.138175 28179 net.cpp:165] Memory required for data: 2390197808
I1028 13:30:01.138181 28179 layer_factory.hpp:76] Creating layer inception_4d/output
I1028 13:30:01.138191 28179 net.cpp:106] Creating Layer inception_4d/output
I1028 13:30:01.138196 28179 net.cpp:454] inception_4d/output <- inception_4d/1x1
I1028 13:30:01.138202 28179 net.cpp:454] inception_4d/output <- inception_4d/3x3
I1028 13:30:01.138207 28179 net.cpp:454] inception_4d/output <- inception_4d/5x5
I1028 13:30:01.138212 28179 net.cpp:454] inception_4d/output <- inception_4d/pool_proj
I1028 13:30:01.138217 28179 net.cpp:411] inception_4d/output -> inception_4d/output
I1028 13:30:01.138242 28179 net.cpp:150] Setting up inception_4d/output
I1028 13:30:01.138249 28179 net.cpp:157] Top shape: 50 528 14 14 (5174400)
I1028 13:30:01.138253 28179 net.cpp:165] Memory required for data: 2410895408
I1028 13:30:01.138257 28179 layer_factory.hpp:76] Creating layer inception_4d/output_inception_4d/output_0_split
I1028 13:30:01.138264 28179 net.cpp:106] Creating Layer inception_4d/output_inception_4d/output_0_split
I1028 13:30:01.138268 28179 net.cpp:454] inception_4d/output_inception_4d/output_0_split <- inception_4d/output
I1028 13:30:01.138275 28179 net.cpp:411] inception_4d/output_inception_4d/output_0_split -> inception_4d/output_inception_4d/output_0_split_0
I1028 13:30:01.138283 28179 net.cpp:411] inception_4d/output_inception_4d/output_0_split -> inception_4d/output_inception_4d/output_0_split_1
I1028 13:30:01.138289 28179 net.cpp:411] inception_4d/output_inception_4d/output_0_split -> inception_4d/output_inception_4d/output_0_split_2
I1028 13:30:01.138296 28179 net.cpp:411] inception_4d/output_inception_4d/output_0_split -> inception_4d/output_inception_4d/output_0_split_3
I1028 13:30:01.138303 28179 net.cpp:411] inception_4d/output_inception_4d/output_0_split -> inception_4d/output_inception_4d/output_0_split_4
I1028 13:30:01.138361 28179 net.cpp:150] Setting up inception_4d/output_inception_4d/output_0_split
I1028 13:30:01.138370 28179 net.cpp:157] Top shape: 50 528 14 14 (5174400)
I1028 13:30:01.138375 28179 net.cpp:157] Top shape: 50 528 14 14 (5174400)
I1028 13:30:01.138380 28179 net.cpp:157] Top shape: 50 528 14 14 (5174400)
I1028 13:30:01.138384 28179 net.cpp:157] Top shape: 50 528 14 14 (5174400)
I1028 13:30:01.138388 28179 net.cpp:157] Top shape: 50 528 14 14 (5174400)
I1028 13:30:01.138392 28179 net.cpp:165] Memory required for data: 2514383408
I1028 13:30:01.138396 28179 layer_factory.hpp:76] Creating layer loss2/ave_pool
I1028 13:30:01.138403 28179 net.cpp:106] Creating Layer loss2/ave_pool
I1028 13:30:01.138407 28179 net.cpp:454] loss2/ave_pool <- inception_4d/output_inception_4d/output_0_split_0
I1028 13:30:01.138417 28179 net.cpp:411] loss2/ave_pool -> loss2/ave_pool
I1028 13:30:01.138607 28179 net.cpp:150] Setting up loss2/ave_pool
I1028 13:30:01.138617 28179 net.cpp:157] Top shape: 50 528 4 4 (422400)
I1028 13:30:01.138622 28179 net.cpp:165] Memory required for data: 2516073008
I1028 13:30:01.138625 28179 layer_factory.hpp:76] Creating layer loss2/conv
I1028 13:30:01.138634 28179 net.cpp:106] Creating Layer loss2/conv
I1028 13:30:01.138639 28179 net.cpp:454] loss2/conv <- loss2/ave_pool
I1028 13:30:01.138646 28179 net.cpp:411] loss2/conv -> loss2/conv
I1028 13:30:01.140337 28179 cudnn_conv_layer.cpp:194] Reallocating workspace storage: 6840
I1028 13:30:01.140375 28179 net.cpp:150] Setting up loss2/conv
I1028 13:30:01.140384 28179 net.cpp:157] Top shape: 50 128 4 4 (102400)
I1028 13:30:01.140388 28179 net.cpp:165] Memory required for data: 2516482608
I1028 13:30:01.140396 28179 layer_factory.hpp:76] Creating layer loss2/prelu_conv
I1028 13:30:01.140415 28179 net.cpp:106] Creating Layer loss2/prelu_conv
I1028 13:30:01.140421 28179 net.cpp:454] loss2/prelu_conv <- loss2/conv
I1028 13:30:01.140427 28179 net.cpp:397] loss2/prelu_conv -> loss2/conv (in-place)
I1028 13:30:01.140527 28179 net.cpp:150] Setting up loss2/prelu_conv
I1028 13:30:01.140537 28179 net.cpp:157] Top shape: 50 128 4 4 (102400)
I1028 13:30:01.140540 28179 net.cpp:165] Memory required for data: 2516892208
I1028 13:30:01.140547 28179 layer_factory.hpp:76] Creating layer loss2/fc
I1028 13:30:01.140554 28179 net.cpp:106] Creating Layer loss2/fc
I1028 13:30:01.140558 28179 net.cpp:454] loss2/fc <- loss2/conv
I1028 13:30:01.140565 28179 net.cpp:411] loss2/fc -> loss2/fc
I1028 13:30:01.175830 28179 net.cpp:150] Setting up loss2/fc
I1028 13:30:01.175873 28179 net.cpp:157] Top shape: 50 1024 (51200)
I1028 13:30:01.175879 28179 net.cpp:165] Memory required for data: 2517097008
I1028 13:30:01.175915 28179 layer_factory.hpp:76] Creating layer loss2/prelu_fc
I1028 13:30:01.175937 28179 net.cpp:106] Creating Layer loss2/prelu_fc
I1028 13:30:01.175948 28179 net.cpp:454] loss2/prelu_fc <- loss2/fc
I1028 13:30:01.175956 28179 net.cpp:397] loss2/prelu_fc -> loss2/fc (in-place)
I1028 13:30:01.176060 28179 net.cpp:150] Setting up loss2/prelu_fc
I1028 13:30:01.176071 28179 net.cpp:157] Top shape: 50 1024 (51200)
I1028 13:30:01.176082 28179 net.cpp:165] Memory required for data: 2517301808
I1028 13:30:01.176089 28179 layer_factory.hpp:76] Creating layer loss2/drop_fc
I1028 13:30:01.176096 28179 net.cpp:106] Creating Layer loss2/drop_fc
I1028 13:30:01.176100 28179 net.cpp:454] loss2/drop_fc <- loss2/fc
I1028 13:30:01.176105 28179 net.cpp:397] loss2/drop_fc -> loss2/fc (in-place)
I1028 13:30:01.176131 28179 net.cpp:150] Setting up loss2/drop_fc
I1028 13:30:01.176138 28179 net.cpp:157] Top shape: 50 1024 (51200)
I1028 13:30:01.176141 28179 net.cpp:165] Memory required for data: 2517506608
I1028 13:30:01.176146 28179 layer_factory.hpp:76] Creating layer loss2/classifier2
I1028 13:30:01.176154 28179 net.cpp:106] Creating Layer loss2/classifier2
I1028 13:30:01.176158 28179 net.cpp:454] loss2/classifier2 <- loss2/fc
I1028 13:30:01.176165 28179 net.cpp:411] loss2/classifier2 -> loss2/classifier
I1028 13:30:01.176288 28179 net.cpp:150] Setting up loss2/classifier2
I1028 13:30:01.176298 28179 net.cpp:157] Top shape: 50 2 (100)
I1028 13:30:01.176302 28179 net.cpp:165] Memory required for data: 2517507008
I1028 13:30:01.176308 28179 layer_factory.hpp:76] Creating layer loss2/classifier_loss2/classifier2_0_split
I1028 13:30:01.176316 28179 net.cpp:106] Creating Layer loss2/classifier_loss2/classifier2_0_split
I1028 13:30:01.176319 28179 net.cpp:454] loss2/classifier_loss2/classifier2_0_split <- loss2/classifier
I1028 13:30:01.176326 28179 net.cpp:411] loss2/classifier_loss2/classifier2_0_split -> loss2/classifier_loss2/classifier2_0_split_0
I1028 13:30:01.176334 28179 net.cpp:411] loss2/classifier_loss2/classifier2_0_split -> loss2/classifier_loss2/classifier2_0_split_1
I1028 13:30:01.176365 28179 net.cpp:150] Setting up loss2/classifier_loss2/classifier2_0_split
I1028 13:30:01.176374 28179 net.cpp:157] Top shape: 50 2 (100)
I1028 13:30:01.176379 28179 net.cpp:157] Top shape: 50 2 (100)
I1028 13:30:01.176383 28179 net.cpp:165] Memory required for data: 2517507808
I1028 13:30:01.176388 28179 layer_factory.hpp:76] Creating layer loss2/loss
I1028 13:30:01.176395 28179 net.cpp:106] Creating Layer loss2/loss
I1028 13:30:01.176399 28179 net.cpp:454] loss2/loss <- loss2/classifier_loss2/classifier2_0_split_0
I1028 13:30:01.176405 28179 net.cpp:454] loss2/loss <- label_data_1_split_2
…
I1028 13:30:01.177181 28179 net.cpp:165] Memory required for data: 2517507816
I1028 13:30:01.177186 28179 layer_factory.hpp:76] Creating layer inception_4e/1x1
I1028 13:30:01.177194 28179 net.cpp:106] Creating Layer inception_4e/1x1
I1028 13:30:01.177199 28179 net.cpp:454] inception_4e/1x1 <- inception_4d/output_inception_4d/output_0_split_1
I1028 13:30:01.177207 28179 net.cpp:411] inception_4e/1x1 -> inception_4e/1x1
I1028 13:30:01.179522 28179 cudnn_conv_layer.cpp:194] Reallocating workspace storage: 10080
I1028 13:30:01.179569 28179 net.cpp:150] Setting up inception_4e/1x1
I1028 13:30:01.179577 28179 net.cpp:157] Top shape: 50 256 14 14 (2508800)
I1028 13:30:01.179581 28179 net.cpp:165] Memory required for data: 2527543016
I1028 13:30:01.179589 28179 layer_factory.hpp:76] Creating layer inception_4e/prelu_1x1
I1028 13:30:01.179600 28179 net.cpp:106] Creating Layer inception_4e/prelu_1x1
I1028 13:30:01.179605 28179 net.cpp:454] inception_4e/prelu_1x1 <- inception_4e/1x1
I1028 13:30:01.179615 28179 net.cpp:397] inception_4e/prelu_1x1 -> inception_4e/1x1 (in-place)
I1028 13:30:01.179729 28179 net.cpp:150] Setting up inception_4e/prelu_1x1
I1028 13:30:01.179738 28179 net.cpp:157] Top shape: 50 256 14 14 (2508800)
I1028 13:30:01.179743 28179 net.cpp:165] Memory required for data: 2537578216
I1028 13:30:01.179749 28179 layer_factory.hpp:76] Creating layer inception_4e/3x3_reduce
I1028 13:30:01.179759 28179 net.cpp:106] Creating Layer inception_4e/3x3_reduce
I1028 13:30:01.179764 28179 net.cpp:454] inception_4e/3x3_reduce <- inception_4d/output_inception_4d/output_0_split_2
I1028 13:30:01.179771 28179 net.cpp:411] inception_4e/3x3_reduce -> inception_4e/3x3_reduce
I1028 13:30:01.181377 28179 cudnn_conv_layer.cpp:194] Reallocating workspace storage: 10080
I1028 13:30:01.181412 28179 net.cpp:150] Setting up inception_4e/3x3_reduce
I1028 13:30:01.181419 28179 net.cpp:157] Top shape: 50 160 14 14 (1568000)
I1028 13:30:01.181424 28179 net.cpp:165] Memory required for data: 2543850216
I1028 13:30:01.181439 28179 layer_factory.hpp:76] Creating layer inception_4e/prelu_3x3_reduce
I1028 13:30:01.181448 28179 net.cpp:106] Creating Layer inception_4e/prelu_3x3_reduce
I1028 13:30:01.181453 28179 net.cpp:454] inception_4e/prelu_3x3_reduce <- inception_4e/3x3_reduce
I1028 13:30:01.181462 28179 net.cpp:397] inception_4e/prelu_3x3_reduce -> inception_4e/3x3_reduce (in-place)
I1028 13:30:01.181568 28179 net.cpp:150] Setting up inception_4e/prelu_3x3_reduce
I1028 13:30:01.181577 28179 net.cpp:157] Top shape: 50 160 14 14 (1568000)
I1028 13:30:01.181581 28179 net.cpp:165] Memory required for data: 2550122216
I1028 13:30:01.181587 28179 layer_factory.hpp:76] Creating layer inception_4e/3x3
I1028 13:30:01.181612 28179 net.cpp:106] Creating Layer inception_4e/3x3
I1028 13:30:01.181617 28179 net.cpp:454] inception_4e/3x3 <- inception_4e/3x3_reduce
I1028 13:30:01.181624 28179 net.cpp:411] inception_4e/3x3 -> inception_4e/3x3
I1028 13:30:01.186211 28179 cudnn_conv_layer.cpp:194] Reallocating workspace storage: 10080
I1028 13:30:01.186265 28179 net.cpp:150] Setting up inception_4e/3x3
I1028 13:30:01.186275 28179 net.cpp:157] Top shape: 50 320 14 14 (3136000)
I1028 13:30:01.186286 28179 net.cpp:165] Memory required for data: 2562666216
I1028 13:30:01.186295 28179 layer_factory.hpp:76] Creating layer inception_4e/prelu_3x3
I1028 13:30:01.186305 28179 net.cpp:106] Creating Layer inception_4e/prelu_3x3
I1028 13:30:01.186311 28179 net.cpp:454] inception_4e/prelu_3x3 <- inception_4e/3x3
I1028 13:30:01.186321 28179 net.cpp:397] inception_4e/prelu_3x3 -> inception_4e/3x3 (in-place)
I1028 13:30:01.187110 28179 net.cpp:150] Setting up inception_4e/prelu_3x3
I1028 13:30:01.187129 28179 net.cpp:157] Top shape: 50 320 14 14 (3136000)
I1028 13:30:01.187137 28179 net.cpp:165] Memory required for data: 2575210216
I1028 13:30:01.187147 28179 layer_factory.hpp:76] Creating layer inception_4e/5x5_reduce
I1028 13:30:01.187173 28179 net.cpp:106] Creating Layer inception_4e/5x5_reduce
I1028 13:30:01.187182 28179 net.cpp:454] inception_4e/5x5_reduce <- inception_4d/output_inception_4d/output_0_split_3
I1028 13:30:01.187191 28179 net.cpp:411] inception_4e/5x5_reduce -> inception_4e/5x5_reduce
I1028 13:30:01.188709 28179 cudnn_conv_layer.cpp:194] Reallocating workspace storage: 10080
I1028 13:30:01.188763 28179 net.cpp:150] Setting up inception_4e/5x5_reduce
I1028 13:30:01.188773 28179 net.cpp:157] Top shape: 50 32 14 14 (313600)
I1028 13:30:01.188788 28179 net.cpp:165] Memory required for data: 2576464616
I1028 13:30:01.188798 28179 layer_factory.hpp:76] Creating layer inception_4e/prelu_5x5_reduce
I1028 13:30:01.188809 28179 net.cpp:106] Creating Layer inception_4e/prelu_5x5_reduce
I1028 13:30:01.188815 28179 net.cpp:454] inception_4e/prelu_5x5_reduce <- inception_4e/5x5_reduce
I1028 13:30:01.188827 28179 net.cpp:397] inception_4e/prelu_5x5_reduce -> inception_4e/5x5_reduce (in-place)
I1028 13:30:01.188943 28179 net.cpp:150] Setting up inception_4e/prelu_5x5_reduce
I1028 13:30:01.188952 28179 net.cpp:157] Top shape: 50 32 14 14 (313600)
I1028 13:30:01.188956 28179 net.cpp:165] Memory required for data: 2577719016
I1028 13:30:01.188962 28179 layer_factory.hpp:76] Creating layer inception_4e/5x5
I1028 13:30:01.188971 28179 net.cpp:106] Creating Layer inception_4e/5x5
I1028 13:30:01.188976 28179 net.cpp:454] inception_4e/5x5 <- inception_4e/5x5_reduce
I1028 13:30:01.188987 28179 net.cpp:411] inception_4e/5x5 -> inception_4e/5x5
I1028 13:30:01.191452 28179 cudnn_conv_layer.cpp:194] Reallocating workspace storage: 13080
I1028 13:30:01.191506 28179 net.cpp:150] Setting up inception_4e/5x5
I1028 13:30:01.191529 28179 net.cpp:157] Top shape: 50 128 14 14 (1254400)
I1028 13:30:01.191532 28179 net.cpp:165] Memory required for data: 2582736616
I1028 13:30:01.191541 28179 layer_factory.hpp:76] Creating layer inception_4e/prelu_5x5
I1028 13:30:01.191553 28179 net.cpp:106] Creating Layer inception_4e/prelu_5x5
I1028 13:30:01.191562 28179 net.cpp:454] inception_4e/prelu_5x5 <- inception_4e/5x5
I1028 13:30:01.191581 28179 net.cpp:397] inception_4e/prelu_5x5 -> inception_4e/5x5 (in-place)
I1028 13:30:01.191684 28179 net.cpp:150] Setting up inception_4e/prelu_5x5
I1028 13:30:01.191694 28179 net.cpp:157] Top shape: 50 128 14 14 (1254400)
I1028 13:30:01.191697 28179 net.cpp:165] Memory required for data: 2587754216
I1028 13:30:01.191704 28179 layer_factory.hpp:76] Creating layer inception_4e/pool
I1028 13:30:01.191712 28179 net.cpp:106] Creating Layer inception_4e/pool
I1028 13:30:01.191717 28179 net.cpp:454] inception_4e/pool <- inception_4d/output_inception_4d/output_0_split_4
I1028 13:30:01.191723 28179 net.cpp:411] inception_4e/pool -> inception_4e/pool
I1028 13:30:01.191956 28179 net.cpp:150] Setting up inception_4e/pool
I1028 13:30:01.191965 28179 net.cpp:157] Top shape: 50 528 14 14 (5174400)
I1028 13:30:01.191969 28179 net.cpp:165] Memory required for data: 2608451816
I1028 13:30:01.191973 28179 layer_factory.hpp:76] Creating layer inception_4e/pool_proj
I1028 13:30:01.191994 28179 net.cpp:106] Creating Layer inception_4e/pool_proj
I1028 13:30:01.192000 28179 net.cpp:454] inception_4e/pool_proj <- inception_4e/pool
I1028 13:30:01.192008 28179 net.cpp:411] inception_4e/pool_proj -> inception_4e/pool_proj
I1028 13:30:01.193804 28179 cudnn_conv_layer.cpp:194] Reallocating workspace storage: 10080
I1028 13:30:01.193871 28179 net.cpp:150] Setting up inception_4e/pool_proj
I1028 13:30:01.193884 28179 net.cpp:157] Top shape: 50 128 14 14 (1254400)
I1028 13:30:01.193891 28179 net.cpp:165] Memory required for data: 2613469416
I1028 13:30:01.193899 28179 layer_factory.hpp:76] Creating layer inception_4e/prelu_pool_proj
I1028 13:30:01.193943 28179 net.cpp:106] Creating Layer inception_4e/prelu_pool_proj
I1028 13:30:01.193961 28179 net.cpp:454] inception_4e/prelu_pool_proj <- inception_4e/pool_proj
I1028 13:30:01.193974 28179 net.cpp:397] inception_4e/prelu_pool_proj -> inception_4e/pool_proj (in-place)
I1028 13:30:01.194095 28179 net.cpp:150] Setting up inception_4e/prelu_pool_proj
I1028 13:30:01.194105 28179 net.cpp:157] Top shape: 50 128 14 14 (1254400)
I1028 13:30:01.194109 28179 net.cpp:165] Memory required for data: 2618487016
I1028 13:30:01.194115 28179 layer_factory.hpp:76] Creating layer inception_4e/output
I1028 13:30:01.194123 28179 net.cpp:106] Creating Layer inception_4e/output
I1028 13:30:01.194128 28179 net.cpp:454] inception_4e/output <- inception_4e/1x1
I1028 13:30:01.194133 28179 net.cpp:454] inception_4e/output <- inception_4e/3x3
I1028 13:30:01.194139 28179 net.cpp:454] inception_4e/output <- inception_4e/5x5
I1028 13:30:01.194144 28179 net.cpp:454] inception_4e/output <- inception_4e/pool_proj
I1028 13:30:01.194149 28179 net.cpp:411] inception_4e/output -> inception_4e/output
I1028 13:30:01.194174 28179 net.cpp:150] Setting up inception_4e/output
I1028 13:30:01.194181 28179 net.cpp:157] Top shape: 50 832 14 14 (8153600)
I1028 13:30:01.194185 28179 net.cpp:165] Memory required for data: 2651101416
I1028 13:30:01.194188 28179 layer_factory.hpp:76] Creating layer pool4/3x3_s2
I1028 13:30:01.194197 28179 net.cpp:106] Creating Layer pool4/3x3_s2
I1028 13:30:01.194202 28179 net.cpp:454] pool4/3x3_s2 <- inception_4e/output
I1028 13:30:01.194210 28179 net.cpp:411] pool4/3x3_s2 -> pool4/3x3_s2
I1028 13:30:01.194458 28179 net.cpp:150] Setting up pool4/3x3_s2
I1028 13:30:01.194470 28179 net.cpp:157] Top shape: 50 832 7 7 (2038400)
I1028 13:30:01.194474 28179 net.cpp:165] Memory required for data: 2659255016
I1028 13:30:01.194478 28179 layer_factory.hpp:76] Creating layer pool4/3x3_s2_pool4/3x3_s2_0_split
I1028 13:30:01.194484 28179 net.cpp:106] Creating Layer pool4/3x3_s2_pool4/3x3_s2_0_split
I1028 13:30:01.194489 28179 net.cpp:454] pool4/3x3_s2_pool4/3x3_s2_0_split <- pool4/3x3_s2
I1028 13:30:01.194506 28179 net.cpp:411] pool4/3x3_s2_pool4/3x3_s2_0_split -> pool4/3x3_s2_pool4/3x3_s2_0_split_0
I1028 13:30:01.194514 28179 net.cpp:411] pool4/3x3_s2_pool4/3x3_s2_0_split -> pool4/3x3_s2_pool4/3x3_s2_0_split_1
I1028 13:30:01.194521 28179 net.cpp:411] pool4/3x3_s2_pool4/3x3_s2_0_split -> pool4/3x3_s2_pool4/3x3_s2_0_split_2
I1028 13:30:01.194528 28179 net.cpp:411] pool4/3x3_s2_pool4/3x3_s2_0_split -> pool4/3x3_s2_pool4/3x3_s2_0_split_3
I1028 13:30:01.194597 28179 net.cpp:150] Setting up pool4/3x3_s2_pool4/3x3_s2_0_split
I1028 13:30:01.194605 28179 net.cpp:157] Top shape: 50 832 7 7 (2038400)
I1028 13:30:01.194610 28179 net.cpp:157] Top shape: 50 832 7 7 (2038400)
I1028 13:30:01.194614 28179 net.cpp:157] Top shape: 50 832 7 7 (2038400)
I1028 13:30:01.194619 28179 net.cpp:157] Top shape: 50 832 7 7 (2038400)
I1028 13:30:01.194622 28179 net.cpp:165] Memory required for data: 2691869416
I1028 13:30:01.194627 28179 layer_factory.hpp:76] Creating layer inception_5a/1x1
I1028 13:30:01.194646 28179 net.cpp:106] Creating Layer inception_5a/1x1
I1028 13:30:01.194651 28179 net.cpp:454] inception_5a/1x1 <- pool4/3x3_s2_pool4/3x3_s2_0_split_0
I1028 13:30:01.194658 28179 net.cpp:411] inception_5a/1x1 -> inception_5a/1x1
I1028 13:30:01.197746 28179 cudnn_conv_layer.cpp:194] Reallocating workspace storage: 7428
I1028 13:30:01.197796 28179 net.cpp:150] Setting up inception_5a/1x1
I1028 13:30:01.197805 28179 net.cpp:157] Top shape: 50 256 7 7 (627200)
I1028 13:30:01.197809 28179 net.cpp:165] Memory required for data: 2694378216
I1028 13:30:01.197818 28179 layer_factory.hpp:76] Creating layer inception_5a/prelu_1x1
I1028 13:30:01.197829 28179 net.cpp:106] Creating Layer inception_5a/prelu_1x1
I1028 13:30:01.197836 28179 net.cpp:454] inception_5a/prelu_1x1 <- inception_5a/1x1
I1028 13:30:01.197844 28179 net.cpp:397] inception_5a/prelu_1x1 -> inception_5a/1x1 (in-place)
I1028 13:30:01.197942 28179 net.cpp:150] Setting up inception_5a/prelu_1x1
I1028 13:30:01.197967 28179 net.cpp:157] Top shape: 50 256 7 7 (627200)
I1028 13:30:01.197970 28179 net.cpp:165] Memory required for data: 2696887016
I1028 13:30:01.197976 28179 layer_factory.hpp:76] Creating layer inception_5a/3x3_reduce
I1028 13:30:01.197985 28179 net.cpp:106] Creating Layer inception_5a/3x3_reduce
I1028 13:30:01.197991 28179 net.cpp:454] inception_5a/3x3_reduce <- pool4/3x3_s2_pool4/3x3_s2_0_split_1
I1028 13:30:01.197999 28179 net.cpp:411] inception_5a/3x3_reduce -> inception_5a/3x3_reduce
I1028 13:30:01.200438 28179 cudnn_conv_layer.cpp:194] Reallocating workspace storage: 7428
I1028 13:30:01.200492 28179 net.cpp:150] Setting up inception_5a/3x3_reduce
I1028 13:30:01.200502 28179 net.cpp:157] Top shape: 50 160 7 7 (392000)
I1028 13:30:01.200506 28179 net.cpp:165] Memory required for data: 2698455016
I1028 13:30:01.200513 28179 layer_factory.hpp:76] Creating layer inception_5a/prelu_3x3_reduce
I1028 13:30:01.200522 28179 net.cpp:106] Creating Layer inception_5a/prelu_3x3_reduce
I1028 13:30:01.200528 28179 net.cpp:454] inception_5a/prelu_3x3_reduce <- inception_5a/3x3_reduce
I1028 13:30:01.200536 28179 net.cpp:397] inception_5a/prelu_3x3_reduce -> inception_5a/3x3_reduce (in-place)
I1028 13:30:01.200631 28179 net.cpp:150] Setting up inception_5a/prelu_3x3_reduce
I1028 13:30:01.200640 28179 net.cpp:157] Top shape: 50 160 7 7 (392000)
I1028 13:30:01.200644 28179 net.cpp:165] Memory required for data: 2700023016
I1028 13:30:01.200657 28179 layer_factory.hpp:76] Creating layer inception_5a/3x3
I1028 13:30:01.200667 28179 net.cpp:106] Creating Layer inception_5a/3x3
I1028 13:30:01.200671 28179 net.cpp:454] inception_5a/3x3 <- inception_5a/3x3_reduce
I1028 13:30:01.200687 28179 net.cpp:411] inception_5a/3x3 -> inception_5a/3x3
I1028 13:30:01.205137 28179 cudnn_conv_layer.cpp:194] Reallocating workspace storage: 7788
I1028 13:30:01.205181 28179 net.cpp:150] Setting up inception_5a/3x3
I1028 13:30:01.205199 28179 net.cpp:157] Top shape: 50 320 7 7 (784000)
I1028 13:30:01.205202 28179 net.cpp:165] Memory required for data: 2703159016
I1028 13:30:01.205210 28179 layer_factory.hpp:76] Creating layer inception_5a/prelu_3x3
I1028 13:30:01.205219 28179 net.cpp:106] Creating Layer inception_5a/prelu_3x3
I1028 13:30:01.205224 28179 net.cpp:454] inception_5a/prelu_3x3 <- inception_5a/3x3
I1028 13:30:01.205250 28179 net.cpp:397] inception_5a/prelu_3x3 -> inception_5a/3x3 (in-place)
I1028 13:30:01.205370 28179 net.cpp:150] Setting up inception_5a/prelu_3x3
I1028 13:30:01.205379 28179 net.cpp:157] Top shape: 50 320 7 7 (784000)
I1028 13:30:01.205384 28179 net.cpp:165] Memory required for data: 2706295016
I1028 13:30:01.205389 28179 layer_factory.hpp:76] Creating layer inception_5a/5x5_reduce
I1028 13:30:01.205397 28179 net.cpp:106] Creating Layer inception_5a/5x5_reduce
I1028 13:30:01.205402 28179 net.cpp:454] inception_5a/5x5_reduce <- pool4/3x3_s2_pool4/3x3_s2_0_split_2
I1028 13:30:01.205418 28179 net.cpp:411] inception_5a/5x5_reduce -> inception_5a/5x5_reduce
I1028 13:30:01.206687 28179 cudnn_conv_layer.cpp:194] Reallocating workspace storage: 7428
I1028 13:30:01.206720 28179 net.cpp:150] Setting up inception_5a/5x5_reduce
I1028 13:30:01.206739 28179 net.cpp:157] Top shape: 50 32 7 7 (78400)
I1028 13:30:01.206744 28179 net.cpp:165] Memory required for data: 2706608616
I1028 13:30:01.206750 28179 layer_factory.hpp:76] Creating layer inception_5a/prelu_5x5_reduce
I1028 13:30:01.206759 28179 net.cpp:106] Creating Layer inception_5a/prelu_5x5_reduce
I1028 13:30:01.206773 28179 net.cpp:454] inception_5a/prelu_5x5_reduce <- inception_5a/5x5_reduce
I1028 13:30:01.206789 28179 net.cpp:397] inception_5a/prelu_5x5_reduce -> inception_5a/5x5_reduce (in-place)
I1028 13:30:01.206909 28179 net.cpp:150] Setting up inception_5a/prelu_5x5_reduce
I1028 13:30:01.206918 28179 net.cpp:157] Top shape: 50 32 7 7 (78400)
I1028 13:30:01.206921 28179 net.cpp:165] Memory required for data: 2706922216
I1028 13:30:01.206928 28179 layer_factory.hpp:76] Creating layer inception_5a/5x5
I1028 13:30:01.206936 28179 net.cpp:106] Creating Layer inception_5a/5x5
I1028 13:30:01.206964 28179 net.cpp:454] inception_5a/5x5 <- inception_5a/5x5_reduce
I1028 13:30:01.206972 28179 net.cpp:411] inception_5a/5x5 -> inception_5a/5x5
I1028 13:30:01.208454 28179 cudnn_conv_layer.cpp:194] Reallocating workspace storage: 9804
I1028 13:30:01.208487 28179 net.cpp:150] Setting up inception_5a/5x5
I1028 13:30:01.208498 28179 net.cpp:157] Top shape: 50 128 7 7 (313600)
I1028 13:30:01.208501 28179 net.cpp:165] Memory required for data: 2708176616
I1028 13:30:01.208510 28179 layer_factory.hpp:76] Creating layer inception_5a/prelu_5x5
I1028 13:30:01.208518 28179 net.cpp:106] Creating Layer inception_5a/prelu_5x5
I1028 13:30:01.208523 28179 net.cpp:454] inception_5a/prelu_5x5 <- inception_5a/5x5
I1028 13:30:01.208529 28179 net.cpp:397] inception_5a/prelu_5x5 -> inception_5a/5x5 (in-place)
I1028 13:30:01.208634 28179 net.cpp:150] Setting up inception_5a/prelu_5x5
I1028 13:30:01.208643 28179 net.cpp:157] Top shape: 50 128 7 7 (313600)
I1028 13:30:01.208647 28179 net.cpp:165] Memory required for data: 2709431016
I1028 13:30:01.208652 28179 layer_factory.hpp:76] Creating layer inception_5a/pool
I1028 13:30:01.208660 28179 net.cpp:106] Creating Layer inception_5a/pool
I1028 13:30:01.208665 28179 net.cpp:454] inception_5a/pool <- pool4/3x3_s2_pool4/3x3_s2_0_split_3
I1028 13:30:01.208673 28179 net.cpp:411] inception_5a/pool -> inception_5a/pool
I1028 13:30:01.209085 28179 net.cpp:150] Setting up inception_5a/pool
I1028 13:30:01.209097 28179 net.cpp:157] Top shape: 50 832 7 7 (2038400)
I1028 13:30:01.209101 28179 net.cpp:165] Memory required for data: 2717584616
I1028 13:30:01.209106 28179 layer_factory.hpp:76] Creating layer inception_5a/pool_proj
I1028 13:30:01.209116 28179 net.cpp:106] Creating Layer inception_5a/pool_proj
I1028 13:30:01.209121 28179 net.cpp:454] inception_5a/pool_proj <- inception_5a/pool
I1028 13:30:01.209128 28179 net.cpp:411] inception_5a/pool_proj -> inception_5a/pool_proj
I1028 13:30:01.211321 28179 cudnn_conv_layer.cpp:194] Reallocating workspace storage: 7428
I1028 13:30:01.211359 28179 net.cpp:150] Setting up inception_5a/pool_proj
I1028 13:30:01.211366 28179 net.cpp:157] Top shape: 50 128 7 7 (313600)
I1028 13:30:01.211370 28179 net.cpp:165] Memory required for data: 2718839016
I1028 13:30:01.211377 28179 layer_factory.hpp:76] Creating layer inception_5a/prelu_pool_proj
I1028 13:30:01.211386 28179 net.cpp:106] Creating Layer inception_5a/prelu_pool_proj
I1028 13:30:01.211391 28179 net.cpp:454] inception_5a/prelu_pool_proj <- inception_5a/pool_proj
I1028 13:30:01.211398 28179 net.cpp:397] inception_5a/prelu_pool_proj -> inception_5a/pool_proj (in-place)
I1028 13:30:01.211500 28179 net.cpp:150] Setting up inception_5a/prelu_pool_proj
I1028 13:30:01.211509 28179 net.cpp:157] Top shape: 50 128 7 7 (313600)
I1028 13:30:01.211513 28179 net.cpp:165] Memory required for data: 2720093416
I1028 13:30:01.211519 28179 layer_factory.hpp:76] Creating layer inception_5a/output
I1028 13:30:01.211525 28179 net.cpp:106] Creating Layer inception_5a/output
I1028 13:30:01.211529 28179 net.cpp:454] inception_5a/output <- inception_5a/1x1
I1028 13:30:01.211534 28179 net.cpp:454] inception_5a/output <- inception_5a/3x3
I1028 13:30:01.211539 28179 net.cpp:454] inception_5a/output <- inception_5a/5x5
I1028 13:30:01.211544 28179 net.cpp:454] inception_5a/output <- inception_5a/pool_proj
I1028 13:30:01.211550 28179 net.cpp:411] inception_5a/output -> inception_5a/output
I1028 13:30:01.211573 28179 net.cpp:150] Setting up inception_5a/output
I1028 13:30:01.211583 28179 net.cpp:157] Top shape: 50 832 7 7 (2038400)
I1028 13:30:01.211587 28179 net.cpp:165] Memory required for data: 2728247016
I1028 13:30:01.211591 28179 layer_factory.hpp:76] Creating layer inception_5a/output_inception_5a/output_0_split
I1028 13:30:01.211597 28179 net.cpp:106] Creating Layer inception_5a/output_inception_5a/output_0_split
I1028 13:30:01.211602 28179 net.cpp:454] inception_5a/output_inception_5a/output_0_split <- inception_5a/output
I1028 13:30:01.211607 28179 net.cpp:411] inception_5a/output_inception_5a/output_0_split -> inception_5a/output_inception_5a/output_0_split_0
I1028 13:30:01.211626 28179 net.cpp:411] inception_5a/output_inception_5a/output_0_split -> inception_5a/output_inception_5a/output_0_split_1
I1028 13:30:01.211632 28179 net.cpp:411] inception_5a/output_inception_5a/output_0_split -> inception_5a/output_inception_5a/output_0_split_2
I1028 13:30:01.211640 28179 net.cpp:411] inception_5a/output_inception_5a/output_0_split -> inception_5a/output_inception_5a/output_0_split_3
I1028 13:30:01.211694 28179 net.cpp:150] Setting up inception_5a/output_inception_5a/output_0_split
I1028 13:30:01.211704 28179 net.cpp:157] Top shape: 50 832 7 7 (2038400)
I1028 13:30:01.211709 28179 net.cpp:157] Top shape: 50 832 7 7 (2038400)
I1028 13:30:01.211714 28179 net.cpp:157] Top shape: 50 832 7 7 (2038400)
I1028 13:30:01.211717 28179 net.cpp:157] Top shape: 50 832 7 7 (2038400)
I1028 13:30:01.211721 28179 net.cpp:165] Memory required for data: 2760861416
I1028 13:30:01.211725 28179 layer_factory.hpp:76] Creating layer inception_5b/1x1
I1028 13:30:01.211736 28179 net.cpp:106] Creating Layer inception_5b/1x1
I1028 13:30:01.211740 28179 net.cpp:454] inception_5b/1x1 <- inception_5a/output_inception_5a/output_0_split_0
I1028 13:30:01.211746 28179 net.cpp:411] inception_5b/1x1 -> inception_5b/1x1
I1028 13:30:01.215172 28179 cudnn_conv_layer.cpp:194] Reallocating workspace storage: 7428
I1028 13:30:01.215211 28179 net.cpp:150] Setting up inception_5b/1x1
I1028 13:30:01.215222 28179 net.cpp:157] Top shape: 50 384 7 7 (940800)
I1028 13:30:01.215226 28179 net.cpp:165] Memory required for data: 2764624616
I1028 13:30:01.215234 28179 layer_factory.hpp:76] Creating layer inception_5b/prelu_1x1
I1028 13:30:01.215241 28179 net.cpp:106] Creating Layer inception_5b/prelu_1x1
I1028 13:30:01.215246 28179 net.cpp:454] inception_5b/prelu_1x1 <- inception_5b/1x1
I1028 13:30:01.215253 28179 net.cpp:397] inception_5b/prelu_1x1 -> inception_5b/1x1 (in-place)
I1028 13:30:01.215358 28179 net.cpp:150] Setting up inception_5b/prelu_1x1
I1028 13:30:01.215368 28179 net.cpp:157] Top shape: 50 384 7 7 (940800)
I1028 13:30:01.215371 28179 net.cpp:165] Memory required for data: 2768387816
I1028 13:30:01.215376 28179 layer_factory.hpp:76] Creating layer inception_5b/3x3_reduce
I1028 13:30:01.215385 28179 net.cpp:106] Creating Layer inception_5b/3x3_reduce
I1028 13:30:01.215389 28179 net.cpp:454] inception_5b/3x3_reduce <- inception_5a/output_inception_5a/output_0_split_1
I1028 13:30:01.215396 28179 net.cpp:411] inception_5b/3x3_reduce -> inception_5b/3x3_reduce
I1028 13:30:01.217748 28179 cudnn_conv_layer.cpp:194] Reallocating workspace storage: 7428
I1028 13:30:01.217814 28179 net.cpp:150] Setting up inception_5b/3x3_reduce
I1028 13:30:01.217833 28179 net.cpp:157] Top shape: 50 192 7 7 (470400)
I1028 13:30:01.217838 28179 net.cpp:165] Memory required for data: 2770269416
I1028 13:30:01.217845 28179 layer_factory.hpp:76] Creating layer inception_5b/prelu_3x3_reduce
I1028 13:30:01.217854 28179 net.cpp:106] Creating Layer inception_5b/prelu_3x3_reduce
I1028 13:30:01.217859 28179 net.cpp:454] inception_5b/prelu_3x3_reduce <- inception_5b/3x3_reduce
I1028 13:30:01.217867 28179 net.cpp:397] inception_5b/prelu_3x3_reduce -> inception_5b/3x3_reduce (in-place)
I1028 13:30:01.217974 28179 net.cpp:150] Setting up inception_5b/prelu_3x3_reduce
I1028 13:30:01.217991 28179 net.cpp:157] Top shape: 50 192 7 7 (470400)
I1028 13:30:01.218003 28179 net.cpp:165] Memory required for data: 2772151016
I1028 13:30:01.218009 28179 layer_factory.hpp:76] Creating layer inception_5b/3x3
I1028 13:30:01.218029 28179 net.cpp:106] Creating Layer inception_5b/3x3
I1028 13:30:01.218035 28179 net.cpp:454] inception_5b/3x3 <- inception_5b/3x3_reduce
I1028 13:30:01.218044 28179 net.cpp:411] inception_5b/3x3 -> inception_5b/3x3
I1028 13:30:01.224524 28179 cudnn_conv_layer.cpp:194] Reallocating workspace storage: 7788
I1028 13:30:01.224617 28179 net.cpp:150] Setting up inception_5b/3x3
I1028 13:30:01.224650 28179 net.cpp:157] Top shape: 50 384 7 7 (940800)
I1028 13:30:01.224655 28179 net.cpp:165] Memory required for data: 2775914216
I1028 13:30:01.224704 28179 layer_factory.hpp:76] Creating layer inception_5b/prelu_3x3
I1028 13:30:01.224720 28179 net.cpp:106] Creating Layer inception_5b/prelu_3x3
I1028 13:30:01.224728 28179 net.cpp:454] inception_5b/prelu_3x3 <- inception_5b/3x3
I1028 13:30:01.224738 28179 net.cpp:397] inception_5b/prelu_3x3 -> inception_5b/3x3 (in-place)
I1028 13:30:01.224910 28179 net.cpp:150] Setting up inception_5b/prelu_3x3
I1028 13:30:01.224922 28179 net.cpp:157] Top shape: 50 384 7 7 (940800)
I1028 13:30:01.224936 28179 net.cpp:165] Memory required for data: 2779677416
I1028 13:30:01.224942 28179 layer_factory.hpp:76] Creating layer inception_5b/5x5_reduce
I1028 13:30:01.224963 28179 net.cpp:106] Creating Layer inception_5b/5x5_reduce
I1028 13:30:01.224968 28179 net.cpp:454] inception_5b/5x5_reduce <- inception_5a/output_inception_5a/output_0_split_2
I1028 13:30:01.224977 28179 net.cpp:411] inception_5b/5x5_reduce -> inception_5b/5x5_reduce
I1028 13:30:01.226719 28179 cudnn_conv_layer.cpp:194] Reallocating workspace storage: 7428
I1028 13:30:01.226770 28179 net.cpp:150] Setting up inception_5b/5x5_reduce
I1028 13:30:01.226781 28179 net.cpp:157] Top shape: 50 48 7 7 (117600)
I1028 13:30:01.226786 28179 net.cpp:165] Memory required for data: 2780147816
I1028 13:30:01.226794 28179 layer_factory.hpp:76] Creating layer inception_5b/prelu_5x5_reduce
I1028 13:30:01.226805 28179 net.cpp:106] Creating Layer inception_5b/prelu_5x5_reduce
I1028 13:30:01.226811 28179 net.cpp:454] inception_5b/prelu_5x5_reduce <- inception_5b/5x5_reduce
I1028 13:30:01.226817 28179 net.cpp:397] inception_5b/prelu_5x5_reduce -> inception_5b/5x5_reduce (in-place)
I1028 13:30:01.226933 28179 net.cpp:150] Setting up inception_5b/prelu_5x5_reduce
I1028 13:30:01.226943 28179 net.cpp:157] Top shape: 50 48 7 7 (117600)
I1028 13:30:01.226948 28179 net.cpp:165] Memory required for data: 2780618216
I1028 13:30:01.226953 28179 layer_factory.hpp:76] Creating layer inception_5b/5x5
I1028 13:30:01.226963 28179 net.cpp:106] Creating Layer inception_5b/5x5
I1028 13:30:01.226966 28179 net.cpp:454] inception_5b/5x5 <- inception_5b/5x5_reduce
I1028 13:30:01.226974 28179 net.cpp:411] inception_5b/5x5 -> inception_5b/5x5
I1028 13:30:01.229080 28179 cudnn_conv_layer.cpp:194] Reallocating workspace storage: 9804
I1028 13:30:01.229120 28179 net.cpp:150] Setting up inception_5b/5x5
I1028 13:30:01.229130 28179 net.cpp:157] Top shape: 50 128 7 7 (313600)
I1028 13:30:01.229135 28179 net.cpp:165] Memory required for data: 2781872616
I1028 13:30:01.229142 28179 layer_factory.hpp:76] Creating layer inception_5b/prelu_5x5
I1028 13:30:01.229152 28179 net.cpp:106] Creating Layer inception_5b/prelu_5x5
I1028 13:30:01.229157 28179 net.cpp:454] inception_5b/prelu_5x5 <- inception_5b/5x5
I1028 13:30:01.229163 28179 net.cpp:397] inception_5b/prelu_5x5 -> inception_5b/5x5 (in-place)
I1028 13:30:01.229261 28179 net.cpp:150] Setting up inception_5b/prelu_5x5
I1028 13:30:01.229270 28179 net.cpp:157] Top shape: 50 128 7 7 (313600)
I1028 13:30:01.229274 28179 net.cpp:165] Memory required for data: 2783127016
I1028 13:30:01.229279 28179 layer_factory.hpp:76] Creating layer inception_5b/pool
I1028 13:30:01.229287 28179 net.cpp:106] Creating Layer inception_5b/pool
I1028 13:30:01.229291 28179 net.cpp:454] inception_5b/pool <- inception_5a/output_inception_5a/output_0_split_3
I1028 13:30:01.229300 28179 net.cpp:411] inception_5b/pool -> inception_5b/pool
I1028 13:30:01.229503 28179 net.cpp:150] Setting up inception_5b/pool
I1028 13:30:01.229513 28179 net.cpp:157] Top shape: 50 832 7 7 (2038400)
I1028 13:30:01.229517 28179 net.cpp:165] Memory required for data: 2791280616
I1028 13:30:01.229522 28179 layer_factory.hpp:76] Creating layer inception_5b/pool_proj
I1028 13:30:01.229532 28179 net.cpp:106] Creating Layer inception_5b/pool_proj
I1028 13:30:01.229537 28179 net.cpp:454] inception_5b/pool_proj <- inception_5b/pool
I1028 13:30:01.229543 28179 net.cpp:411] inception_5b/pool_proj -> inception_5b/pool_proj
I1028 13:30:01.231806 28179 cudnn_conv_layer.cpp:194] Reallocating workspace storage: 7428
I1028 13:30:01.231863 28179 net.cpp:150] Setting up inception_5b/pool_proj
I1028 13:30:01.231873 28179 net.cpp:157] Top shape: 50 128 7 7 (313600)
I1028 13:30:01.231876 28179 net.cpp:165] Memory required for data: 2792535016
I1028 13:30:01.231884 28179 layer_factory.hpp:76] Creating layer inception_5b/prelu_pool_proj
I1028 13:30:01.231892 28179 net.cpp:106] Creating Layer inception_5b/prelu_pool_proj
I1028 13:30:01.231899 28179 net.cpp:454] inception_5b/prelu_pool_proj <- inception_5b/pool_proj
I1028 13:30:01.231904 28179 net.cpp:397] inception_5b/prelu_pool_proj -> inception_5b/pool_proj (in-place)
I1028 13:30:01.232007 28179 net.cpp:150] Setting up inception_5b/prelu_pool_proj
I1028 13:30:01.232015 28179 net.cpp:157] Top shape: 50 128 7 7 (313600)
I1028 13:30:01.232019 28179 net.cpp:165] Memory required for data: 2793789416
I1028 13:30:01.232025 28179 layer_factory.hpp:76] Creating layer inception_5b/output
I1028 13:30:01.232033 28179 net.cpp:106] Creating Layer inception_5b/output
I1028 13:30:01.232038 28179 net.cpp:454] inception_5b/output <- inception_5b/1x1
I1028 13:30:01.232043 28179 net.cpp:454] inception_5b/output <- inception_5b/3x3
I1028 13:30:01.232048 28179 net.cpp:454] inception_5b/output <- inception_5b/5x5
I1028 13:30:01.232060 28179 net.cpp:454] inception_5b/output <- inception_5b/pool_proj
I1028 13:30:01.232066 28179 net.cpp:411] inception_5b/output -> inception_5b/output
I1028 13:30:01.232102 28179 net.cpp:150] Setting up inception_5b/output
I1028 13:30:01.232111 28179 net.cpp:157] Top shape: 50 1024 7 7 (2508800)
I1028 13:30:01.232115 28179 net.cpp:165] Memory required for data: 2803824616
I1028 13:30:01.232118 28179 layer_factory.hpp:76] Creating layer pool5/7x7_s1
I1028 13:30:01.232126 28179 net.cpp:106] Creating Layer pool5/7x7_s1
I1028 13:30:01.232131 28179 net.cpp:454] pool5/7x7_s1 <- inception_5b/output
I1028 13:30:01.232146 28179 net.cpp:411] pool5/7x7_s1 -> pool5/7x7_s1
I1028 13:30:01.232543 28179 net.cpp:150] Setting up pool5/7x7_s1
I1028 13:30:01.232556 28179 net.cpp:157] Top shape: 50 1024 1 1 (51200)
I1028 13:30:01.232560 28179 net.cpp:165] Memory required for data: 2804029416
I1028 13:30:01.232564 28179 layer_factory.hpp:76] Creating layer pool5/drop_7x7_s1
I1028 13:30:01.232571 28179 net.cpp:106] Creating Layer pool5/drop_7x7_s1
I1028 13:30:01.232575 28179 net.cpp:454] pool5/drop_7x7_s1 <- pool5/7x7_s1
I1028 13:30:01.232581 28179 net.cpp:397] pool5/drop_7x7_s1 -> pool5/7x7_s1 (in-place)
I1028 13:30:01.232607 28179 net.cpp:150] Setting up pool5/drop_7x7_s1
I1028 13:30:01.232615 28179 net.cpp:157] Top shape: 50 1024 1 1 (51200)
I1028 13:30:01.232620 28179 net.cpp:165] Memory required for data: 2804234216
I1028 13:30:01.232623 28179 layer_factory.hpp:76] Creating layer loss3/classifier2
I1028 13:30:01.232631 28179 net.cpp:106] Creating Layer loss3/classifier2
I1028 13:30:01.232636 28179 net.cpp:454] loss3/classifier2 <- pool5/7x7_s1
I1028 13:30:01.232642 28179 net.cpp:411] loss3/classifier2 -> loss3/classifier
I1028 13:30:01.232777 28179 net.cpp:150] Setting up loss3/classifier2
I1028 13:30:01.232786 28179 net.cpp:157] Top shape: 50 2 (100)
I1028 13:30:01.232790 28179 net.cpp:165] Memory required for data: 2804234616
I1028 13:30:01.232796 28179 layer_factory.hpp:76] Creating layer loss3/classifier_loss3/classifier2_0_split
I1028 13:30:01.232803 28179 net.cpp:106] Creating Layer loss3/classifier_loss3/classifier2_0_split
I1028 13:30:01.232807 28179 net.cpp:454] loss3/classifier_loss3/classifier2_0_split <- loss3/classifier
I1028 13:30:01.232815 28179 net.cpp:411] loss3/classifier_loss3/classifier2_0_split -> loss3/classifier_loss3/classifier2_0_split_0
I1028 13:30:01.232822 28179 net.cpp:411] loss3/classifier_loss3/classifier2_0_split -> loss3/classifier_loss3/classifier2_0_split_1
I1028 13:30:01.232861 28179 net.cpp:150] Setting up loss3/classifier_loss3/classifier2_0_split
I1028 13:30:01.232868 28179 net.cpp:157] Top shape: 50 2 (100)
I1028 13:30:01.232873 28179 net.cpp:157] Top shape: 50 2 (100)
I1028 13:30:01.232877 28179 net.cpp:165] Memory required for data: 2804235416
I1028 13:30:01.232882 28179 layer_factory.hpp:76] Creating layer loss3/loss3
I1028 13:30:01.232897 28179 net.cpp:106] Creating Layer loss3/loss3
I1028 13:30:01.232903 28179 net.cpp:454] loss3/loss3 <- loss3/classifier_loss3/classifier2_0_split_0
I1028 13:30:01.232908 28179 net.cpp:454] loss3/loss3 <- label_data_1_split_4
…
