…
I1105 17:20:23.029285 24412 net.cpp:322] The NetState phase (0) differed from the phase (1) specified by a rule in layer loss3/top-1
I1105 17:20:23.030283 24412 net.cpp:49] Initializing net from parameters: 
name: "GoogleNet"
state {
  phase: TRAIN
}
layer {
  name: "data"
  type: "Data"
  top: "data"
  top: "label"
  include {
    phase: TRAIN
  }
  transform_param {
    mirror: true
    crop_size: 224
    mean_value: 104
    mean_value: 117
    mean_value: 123
  }
  data_param {
    source: "../../LMDB/train_2-lmdb"
    batch_size: 32
    backend: LMDB
  }
}
layer {
  name: "conv1/7x7_s2"
  type: "Convolution"
  bottom: "data"
  top: "conv1/7x7_s2"
  param {
    lr_mult: 1
    decay_mult: 1
  }
  param {
    lr_mult: 2
    decay_mult: 0
  }
  convolution_param {
    num_output: 64
    pad: 3
    kernel_size: 7
    stride: 2
    weight_filler {
      type: "xavier"
    }
    bias_filler {
      type: "constant"
      value: 0.2
    }
  }
}
layer {
  name: "conv1/prelu_7x7"
  type: "PReLU"
  bottom: "conv1/7x7_s2"
  top: "conv1/7x7_s2"
  param {
    lr_mult: 1
    decay_mult: 0
  }
  prelu_param {
    filler {
      type: "constant"
      value: 0.01
    }
  }
}
layer {
  name: "pool1/3x3_s2"
  type: "Pooling"
  bottom: "conv1/7x7_s2"
  top: "pool1/3x3_s2"
  pooling_param {
    pool: MAX
    kernel_size: 3
    stride: 2
  }
}
layer {
  name: "pool1/norm1"
  type: "LRN"
  bottom: "pool1/3x3_s2"
  top: "pool1/norm1"
  lrn_param {
    local_size: 5
    alpha: 0.0001
    beta: 0.75
  }
}
layer {
  name: "conv2/3x3_reduce"
  type: "Convolution"
  bottom: "pool1/norm1"
  top: "conv2/3x3_reduce"
  param {
    lr_mult: 1
    decay_mult: 1
  }
  param {
    lr_mult: 2
    decay_mult: 0
  }
  convolution_param {
    num_output: 64
    kernel_size: 1
    weight_filler {
      type: "xavier"
    }
    bias_filler {
      type: "constant"
      value: 0.2
    }
  }
}
layer {
  name: "conv2/prelu_3x3_reduce"
  type: "PReLU"
  bottom: "conv2/3x3_reduce"
  top: "conv2/3x3_reduce"
  param {
    lr_mult: 1
    decay_mult: 0
  }
  prelu_param {
    filler {
      type: "constant"
      value: 0.01
    }
  }
}
layer {
  name: "conv2/3x3"
  type: "Convolution"
  bottom: "conv2/3x3_reduce"
  top: "conv2/3x3"
  param {
    lr_mult: 1
    decay_mult: 1
  }
  param {
    lr_mult: 2
    decay_mult: 0
  }
  convolution_param {
    num_output: 192
    pad: 1
    kernel_size: 3
    weight_filler {
      type: "xavier"
    }
    bias_filler {
      type: "constant"
      value: 0.2
    }
  }
}
layer {
  name: "conv2/prelu_3x3"
  type: "PReLU"
  bottom: "conv2/3x3"
  top: "conv2/3x3"
  param {
    lr_mult: 1
    decay_mult: 0
  }
  prelu_param {
    filler {
      type: "constant"
      value: 0.01
    }
  }
}
layer {
  name: "conv2/norm2"
  type: "LRN"
  bottom: "conv2/3x3"
  top: "conv2/norm2"
  lrn_param {
    local_size: 5
    alpha: 0.0001
    beta: 0.75
  }
}
layer {
  name: "pool2/3x3_s2"
  type: "Pooling"
  bottom: "conv2/norm2"
  top: "pool2/3x3_s2"
  pooling_param {
    pool: MAX
    kernel_size: 3
    stride: 2
  }
}
layer {
  name: "inception_3a/1x1"
  type: "Convolution"
  bottom: "pool2/3x3_s2"
  top: "inception_3a/1x1"
  param {
    lr_mult: 1
    decay_mult: 1
  }
  param {
    lr_mult: 2
    decay_mult: 0
  }
  convolution_param {
    num_output: 64
    kernel_size: 1
    weight_filler {
      type: "xavier"
    }
    bias_filler {
      type: "constant"
      value: 0.2
    }
  }
}
layer {
  name: "inception_3a/prelu_1x1"
  type: "PReLU"
  bottom: "inception_3a/1x1"
  top: "inception_3a/1x1"
  param {
    lr_mult: 1
    decay_mult: 0
  }
  prelu_param {
    filler {
      type: "constant"
      value: 0.01
    }
  }
}
layer {
  name: "inception_3a/3x3_reduce"
  type: "Convolution"
  bottom: "pool2/3x3_s2"
  top: "inception_3a/3x3_reduce"
  param {
    lr_mult: 1
    decay_mult: 1
  }
  param {
    lr_mult: 2
    decay_mult: 0
  }
  convolution_param {
    num_output: 96
    kernel_size: 1
    weight_filler {
      type: "xavier"
    }
    bias_filler {
      type: "constant"
      value: 0.2
    }
  }
}
layer {
  name: "inception_3a/prelu_3x3_reduce"
  type: "PReLU"
  bottom: "inception_3a/3x3_reduce"
  top: "inception_3a/3x3_reduce"
  param {
    lr_mult: 1
    decay_mult: 0
  }
  prelu_param {
    filler {
      type: "constant"
      value: 0.01
    }
  }
}
layer {
  name: "inception_3a/3x3"
  type: "Convolution"
  bottom: "inception_3a/3x3_reduce"
  top: "inception_3a/3x3"
  param {
    lr_mult: 1
    decay_mult: 1
  }
  param {
    lr_mult: 2
    decay_mult: 0
  }
  convolution_param {
    num_output: 128
    pad: 1
    kernel_size: 3
    weight_filler {
      type: "xavier"
    }
    bias_filler {
      type: "constant"
      value: 0.2
    }
  }
}
layer {
  name: "inception_3a/prelu_3x3"
  type: "PReLU"
  bottom: "inception_3a/3x3"
  top: "inception_3a/3x3"
  param {
    lr_mult: 1
    decay_mult: 0
  }
  prelu_param {
    filler {
      type: "constant"
      value: 0.01
    }
  }
}
layer {
  name: "inception_3a/5x5_reduce"
  type: "Convolution"
  bottom: "pool2/3x3_s2"
  top: "inception_3a/5x5_reduce"
  param {
    lr_mult: 1
    decay_mult: 1
  }
  param {
    lr_mult: 2
    decay_mult: 0
  }
  convolution_param {
    num_output: 16
    kernel_size: 1
    weight_filler {
      type: "xavier"
    }
    bias_filler {
      type: "constant"
      value: 0.2
    }
  }
}
layer {
  name: "inception_3a/prelu_5x5_reduce"
  type: "PReLU"
  bottom: "inception_3a/5x5_reduce"
  top: "inception_3a/5x5_reduce"
  param {
    lr_mult: 1
    decay_mult: 0
  }
  prelu_param {
    filler {
      type: "constant"
      value: 0.01
    }
  }
}
layer {
  name: "inception_3a/5x5"
  type: "Convolution"
  bottom: "inception_3a/5x5_reduce"
  top: "inception_3a/5x5"
  param {
    lr_mult: 1
    decay_mult: 1
  }
  param {
    lr_mult: 2
    decay_mult: 0
  }
  convolution_param {
    num_output: 32
    pad: 2
    kernel_size: 5
    weight_filler {
      type: "xavier"
    }
    bias_filler {
      type: "constant"
      value: 0.2
    }
  }
}
layer {
  name: "inception_3a/prelu_5x5"
  type: "PReLU"
  bottom: "inception_3a/5x5"
  top: "inception_3a/5x5"
  param {
    lr_mult: 1
    decay_mult: 0
  }
  prelu_param {
    filler {
      type: "constant"
      value: 0.01
    }
  }
}
layer {
  name: "inception_3a/pool"
  type: "Pooling"
  bottom: "pool2/3x3_s2"
  top: "inception_3a/pool"
  pooling_param {
    pool: MAX
    kernel_size: 3
    stride: 1
    pad: 1
  }
}
layer {
  name: "inception_3a/pool_proj"
  type: "Convolution"
  bottom: "inception_3a/pool"
  top: "inception_3a/pool_proj"
  param {
    lr_mult: 1
    decay_mult: 1
  }
  param {
    lr_mult: 2
    decay_mult: 0
  }
  convolution_param {
    num_output: 32
    kernel_size: 1
    weight_filler {
      type: "xavier"
    }
    bias_filler {
      type: "constant"
      value: 0.2
    }
  }
}
layer {
  name: "inception_3a/prelu_pool_proj"
  type: "PReLU"
  bottom: "inception_3a/pool_proj"
  top: "inception_3a/pool_proj"
  param {
    lr_mult: 1
    decay_mult: 0
  }
  prelu_param {
    filler {
      type: "constant"
      value: 0.01
    }
  }
}
layer {
  name: "inception_3a/output"
  type: "Concat"
  bottom: "inception_3a/1x1"
  bottom: "inception_3a/3x3"
  bottom: "inception_3a/5x5"
  bottom: "inception_3a/pool_proj"
  top: "inception_3a/output"
}
layer {
  name: "inception_3b/1x1"
  type: "Convolution"
  bottom: "inception_3a/output"
  top: "inception_3b/1x1"
  param {
    lr_mult: 1
    decay_mult: 1
  }
  param {
    lr_mult: 2
    decay_mult: 0
  }
  convolution_param {
    num_output: 128
    kernel_size: 1
    weight_filler {
      type: "xavier"
    }
    bias_filler {
      type: "constant"
      value: 0.2
    }
  }
}
layer {
  name: "inception_3b/prelu_1x1"
  type: "PReLU"
  bottom: "inception_3b/1x1"
  top: "inception_3b/1x1"
  param {
    lr_mult: 1
    decay_mult: 0
  }
  prelu_param {
    filler {
      type: "constant"
      value: 0.01
    }
  }
}
layer {
  name: "inception_3b/3x3_reduce"
  type: "Convolution"
  bottom: "inception_3a/output"
  top: "inception_3b/3x3_reduce"
  param {
    lr_mult: 1
    decay_mult: 1
  }
  param {
    lr_mult: 2
    decay_mult: 0
  }
  convolution_param {
    num_output: 128
    kernel_size: 1
    weight_filler {
      type: "xavier"
    }
    bias_filler {
      type: "constant"
      value: 0.2
    }
  }
}
layer {
  name: "inception_3b/prelu_3x3_reduce"
  type: "PReLU"
  bottom: "inception_3b/3x3_reduce"
  top: "inception_3b/3x3_reduce"
  param {
    lr_mult: 1
    decay_mult: 0
  }
  prelu_param {
    filler {
      type: "constant"
      value: 0.01
    }
  }
}
layer {
  name: "inception_3b/3x3"
  type: "Convolution"
  bottom: "inception_3b/3x3_reduce"
  top: "inception_3b/3x3"
  param {
    lr_mult: 1
    decay_mult: 1
  }
  param {
    lr_mult: 2
    decay_mult: 0
  }
  convolution_param {
    num_output: 192
    pad: 1
    kernel_size: 3
    weight_filler {
      type: "xavier"
    }
    bias_filler {
      type: "constant"
      value: 0.2
    }
  }
}
layer {
  name: "inception_3b/prelu_3x3"
  type: "PReLU"
  bottom: "inception_3b/3x3"
  top: "inception_3b/3x3"
  param {
    lr_mult: 1
    decay_mult: 0
  }
  prelu_param {
    filler {
      type: "constant"
      value: 0.01
    }
  }
}
layer {
  name: "inception_3b/5x5_reduce"
  type: "Convolution"
  bottom: "inception_3a/output"
  top: "inception_3b/5x5_reduce"
  param {
    lr_mult: 1
    decay_mult: 1
  }
  param {
    lr_mult: 2
    decay_mult: 0
  }
  convolution_param {
    num_output: 32
    kernel_size: 1
    weight_filler {
      type: "xavier"
    }
    bias_filler {
      type: "constant"
      value: 0.2
    }
  }
}
layer {
  name: "inception_3b/prelu_5x5_reduce"
  type: "PReLU"
  bottom: "inception_3b/5x5_reduce"
  top: "inception_3b/5x5_reduce"
  param {
    lr_mult: 1
    decay_mult: 0
  }
  prelu_param {
    filler {
      type: "constant"
      value: 0.01
    }
  }
}
layer {
  name: "inception_3b/5x5"
  type: "Convolution"
  bottom: "inception_3b/5x5_reduce"
  top: "inception_3b/5x5"
  param {
    lr_mult: 1
    decay_mult: 1
  }
  param {
    lr_mult: 2
    decay_mult: 0
  }
  convolution_param {
    num_output: 96
    pad: 2
    kernel_size: 5
    weight_filler {
      type: "xavier"
    }
    bias_filler {
      type: "constant"
      value: 0.2
    }
  }
}
layer {
  name: "inception_3b/prelu_5x5"
  type: "PReLU"
  bottom: "inception_3b/5x5"
  top: "inception_3b/5x5"
  param {
    lr_mult: 1
    decay_mult: 0
  }
  prelu_param {
    filler {
      type: "constant"
      value: 0.01
    }
  }
}
layer {
  name: "inception_3b/pool"
  type: "Pooling"
  bottom: "inception_3a/output"
  top: "inception_3b/pool"
  pooling_param {
    pool: MAX
    kernel_size: 3
    stride: 1
    pad: 1
  }
}
layer {
  name: "inception_3b/pool_proj"
  type: "Convolution"
  bottom: "inception_3b/pool"
  top: "inception_3b/pool_proj"
  param {
    lr_mult: 1
    decay_mult: 1
  }
  param {
    lr_mult: 2
    decay_mult: 0
  }
  convolution_param {
    num_output: 64
    kernel_size: 1
    weight_filler {
      type: "xavier"
    }
    bias_filler {
      type: "constant"
      value: 0.2
    }
  }
}
layer {
  name: "inception_3b/prelu_pool_proj"
  type: "PReLU"
  bottom: "inception_3b/pool_proj"
  top: "inception_3b/pool_proj"
  param {
    lr_mult: 1
    decay_mult: 0
  }
  prelu_param {
    filler {
      type: "constant"
      value: 0.01
    }
  }
}
layer {
  name: "inception_3b/output"
  type: "Concat"
  bottom: "inception_3b/1x1"
  bottom: "inception_3b/3x3"
  bottom: "inception_3b/5x5"
  bottom: "inception_3b/pool_proj"
  top: "inception_3b/output"
}
layer {
  name: "pool3/3x3_s2"
  type: "Pooling"
  bottom: "inception_3b/output"
  top: "pool3/3x3_s2"
  pooling_param {
    pool: MAX
    kernel_size: 3
    stride: 2
  }
}
layer {
  name: "inception_4a/1x1"
  type: "Convolution"
  bottom: "pool3/3x3_s2"
  top: "inception_4a/1x1"
  param {
    lr_mult: 1
    decay_mult: 1
  }
  param {
    lr_mult: 2
    decay_mult: 0
  }
  convolution_param {
    num_output: 192
    kernel_size: 1
    weight_filler {
      type: "xavier"
    }
    bias_filler {
      type: "constant"
      value: 0.2
    }
  }
}
layer {
  name: "inception_4a/prelu_1x1"
  type: "PReLU"
  bottom: "inception_4a/1x1"
  top: "inception_4a/1x1"
  param {
    lr_mult: 1
    decay_mult: 0
  }
  prelu_param {
    filler {
      type: "constant"
      value: 0.01
    }
  }
}
layer {
  name: "inception_4a/3x3_reduce"
  type: "Convolution"
  bottom: "pool3/3x3_s2"
  top: "inception_4a/3x3_reduce"
  param {
    lr_mult: 1
    decay_mult: 1
  }
  param {
    lr_mult: 2
    decay_mult: 0
  }
  convolution_param {
    num_output: 96
    kernel_size: 1
    weight_filler {
      type: "xavier"
    }
    bias_filler {
      type: "constant"
      value: 0.2
    }
  }
}
layer {
  name: "inception_4a/prelu_3x3_reduce"
  type: "PReLU"
  bottom: "inception_4a/3x3_reduce"
  top: "inception_4a/3x3_reduce"
  param {
    lr_mult: 1
    decay_mult: 0
  }
  prelu_param {
    filler {
      type: "constant"
      value: 0.01
    }
  }
}
layer {
  name: "inception_4a/3x3"
  type: "Convolution"
  bottom: "inception_4a/3x3_reduce"
  top: "inception_4a/3x3"
  param {
    lr_mult: 1
    decay_mult: 1
  }
  param {
    lr_mult: 2
    decay_mult: 0
  }
  convolution_param {
    num_output: 208
    pad: 1
    kernel_size: 3
    weight_filler {
      type: "xavier"
    }
    bias_filler {
      type: "constant"
      value: 0.2
    }
  }
}
layer {
  name: "inception_4a/prelu_3x3"
  type: "PReLU"
  bottom: "inception_4a/3x3"
  top: "inception_4a/3x3"
  param {
    lr_mult: 1
    decay_mult: 0
  }
  prelu_param {
    filler {
      type: "constant"
      value: 0.01
    }
  }
}
layer {
  name: "inception_4a/5x5_reduce"
  type: "Convolution"
  bottom: "pool3/3x3_s2"
  top: "inception_4a/5x5_reduce"
  param {
    lr_mult: 1
    decay_mult: 1
  }
  param {
    lr_mult: 2
    decay_mult: 0
  }
  convolution_param {
    num_output: 16
    kernel_size: 1
    weight_filler {
      type: "xavier"
    }
    bias_filler {
      type: "constant"
      value: 0.2
    }
  }
}
layer {
  name: "inception_4a/prelu_5x5_reduce"
  type: "PReLU"
  bottom: "inception_4a/5x5_reduce"
  top: "inception_4a/5x5_reduce"
  param {
    lr_mult: 1
    decay_mult: 0
  }
  prelu_param {
    filler {
      type: "constant"
      value: 0.01
    }
  }
}
layer {
  name: "inception_4a/5x5"
  type: "Convolution"
  bottom: "inception_4a/5x5_reduce"
  top: "inception_4a/5x5"
  param {
    lr_mult: 1
    decay_mult: 1
  }
  param {
    lr_mult: 2
    decay_mult: 0
  }
  convolution_param {
    num_output: 48
    pad: 2
    kernel_size: 5
    weight_filler {
      type: "xavier"
    }
    bias_filler {
      type: "constant"
      value: 0.2
    }
  }
}
layer {
  name: "inception_4a/prelu_5x5"
  type: "PReLU"
  bottom: "inception_4a/5x5"
  top: "inception_4a/5x5"
  param {
    lr_mult: 1
    decay_mult: 0
  }
  prelu_param {
    filler {
      type: "constant"
      value: 0.01
    }
  }
}
layer {
  name: "inception_4a/pool"
  type: "Pooling"
  bottom: "pool3/3x3_s2"
  top: "inception_4a/pool"
  pooling_param {
    pool: MAX
    kernel_size: 3
    stride: 1
    pad: 1
  }
}
layer {
  name: "inception_4a/pool_proj"
  type: "Convolution"
  bottom: "inception_4a/pool"
  top: "inception_4a/pool_proj"
  param {
    lr_mult: 1
    decay_mult: 1
  }
  param {
    lr_mult: 2
    decay_mult: 0
  }
  convolution_param {
    num_output: 64
    kernel_size: 1
    weight_filler {
      type: "xavier"
    }
    bias_filler {
      type: "constant"
      value: 0.2
    }
  }
}
layer {
  name: "inception_4a/prelu_pool_proj"
  type: "PReLU"
  bottom: "inception_4a/pool_proj"
  top: "inception_4a/pool_proj"
  param {
    lr_mult: 1
    decay_mult: 0
  }
  prelu_param {
    filler {
      type: "constant"
      value: 0.01
    }
  }
}
layer {
  name: "inception_4a/output"
  type: "Concat"
  bottom: "inception_4a/1x1"
  bottom: "inception_4a/3x3"
  bottom: "inception_4a/5x5"
  bottom: "inception_4a/pool_proj"
  top: "inception_4a/output"
}
layer {
  name: "loss1/ave_pool"
  type: "Pooling"
  bottom: "inception_4a/output"
  top: "loss1/ave_pool"
  pooling_param {
    pool: AVE
    kernel_size: 5
    stride: 3
  }
}
layer {
  name: "loss1/conv"
  type: "Convolution"
  bottom: "loss1/ave_pool"
  top: "loss1/conv"
  param {
    lr_mult: 1
    decay_mult: 1
  }
  param {
    lr_mult: 2
    decay_mult: 0
  }
  convolution_param {
    num_output: 128
    kernel_size: 1
    weight_filler {
      type: "xavier"
    }
    bias_filler {
      type: "constant"
      value: 0.2
    }
  }
}
layer {
  name: "loss1/prelu_conv"
  type: "PReLU"
  bottom: "loss1/conv"
  top: "loss1/conv"
  param {
    lr_mult: 1
    decay_mult: 0
  }
  prelu_param {
    filler {
      type: "constant"
      value: 0.01
    }
  }
}
layer {
  name: "loss1/fc"
  type: "InnerProduct"
  bottom: "loss1/conv"
  top: "loss1/fc"
  param {
    lr_mult: 1
    decay_mult: 1
  }
  param {
    lr_mult: 2
    decay_mult: 0
  }
  inner_product_param {
    num_output: 1024
    weight_filler {
      type: "xavier"
    }
    bias_filler {
      type: "constant"
      value: 0.2
    }
  }
}
layer {
  name: "loss1/prelu_fc"
  type: "PReLU"
  bottom: "loss1/fc"
  top: "loss1/fc"
  param {
    lr_mult: 1
    decay_mult: 0
  }
  prelu_param {
    filler {
      type: "constant"
      value: 0.01
    }
  }
}
layer {
  name: "loss1/drop_fc"
  type: "Dropout"
  bottom: "loss1/fc"
  top: "loss1/fc"
  dropout_param {
    dropout_ratio: 0.7
  }
}
layer {
  name: "loss1/classifier2"
  type: "InnerProduct"
  bottom: "loss1/fc"
  top: "loss1/classifier"
  param {
    lr_mult: 1
    decay_mult: 1
  }
  param {
    lr_mult: 2
    decay_mult: 0
  }
  inner_product_param {
    num_output: 2
    weight_filler {
      type: "xavier"
    }
    bias_filler {
      type: "constant"
      value: 0
    }
  }
}
layer {
  name: "loss1/loss"
  type: "SoftmaxWithLoss"
  bottom: "loss1/classifier"
  bottom: "label"
  top: "loss1/loss1"
  loss_weight: 0.3
}
layer {
  name: "inception_4b/1x1"
  type: "Convolution"
  bottom: "inception_4a/output"
  top: "inception_4b/1x1"
  param {
    lr_mult: 1
    decay_mult: 1
  }
  param {
    lr_mult: 2
    decay_mult: 0
  }
  convolution_param {
    num_output: 160
    kernel_size: 1
    weight_filler {
      type: "xavier"
    }
    bias_filler {
      type: "constant"
      value: 0.2
    }
  }
}
layer {
  name: "inception_4b/prelu_1x1"
  type: "PReLU"
  bottom: "inception_4b/1x1"
  top: "inception_4b/1x1"
  param {
    lr_mult: 1
    decay_mult: 0
  }
  prelu_param {
    filler {
      type: "constant"
      value: 0.01
    }
  }
}
layer {
  name: "inception_4b/3x3_reduce"
  type: "Convolution"
  bottom: "inception_4a/output"
  top: "inception_4b/3x3_reduce"
  param {
    lr_mult: 1
    decay_mult: 1
  }
  param {
    lr_mult: 2
    decay_mult: 0
  }
  convolution_param {
    num_output: 112
    kernel_size: 1
    weight_filler {
      type: "xavier"
    }
    bias_filler {
      type: "constant"
      value: 0.2
    }
  }
}
layer {
  name: "inception_4b/prelu_3x3_reduce"
  type: "PReLU"
  bottom: "inception_4b/3x3_reduce"
  top: "inception_4b/3x3_reduce"
  param {
    lr_mult: 1
    decay_mult: 0
  }
  prelu_param {
    filler {
      type: "constant"
      value: 0.01
    }
  }
}
layer {
  name: "inception_4b/3x3"
  type: "Convolution"
  bottom: "inception_4b/3x3_reduce"
  top: "inception_4b/3x3"
  param {
    lr_mult: 1
    decay_mult: 1
  }
  param {
    lr_mult: 2
    decay_mult: 0
  }
  convolution_param {
    num_output: 224
    pad: 1
    kernel_size: 3
    weight_filler {
      type: "xavier"
    }
    bias_filler {
      type: "constant"
      value: 0.2
    }
  }
}
layer {
  name: "inception_4b/prelu_3x3"
  type: "PReLU"
  bottom: "inception_4b/3x3"
  top: "inception_4b/3x3"
  param {
    lr_mult: 1
    decay_mult: 0
  }
  prelu_param {
    filler {
      type: "constant"
      value: 0.01
    }
  }
}
layer {
  name: "inception_4b/5x5_reduce"
  type: "Convolution"
  bottom: "inception_4a/output"
  top: "inception_4b/5x5_reduce"
  param {
    lr_mult: 1
    decay_mult: 1
  }
  param {
    lr_mult: 2
    decay_mult: 0
  }
  convolution_param {
    num_output: 24
    kernel_size: 1
    weight_filler {
      type: "xavier"
    }
    bias_filler {
      type: "constant"
      value: 0.2
    }
  }
}
layer {
  name: "inception_4b/prelu_5x5_reduce"
  type: "PReLU"
  bottom: "inception_4b/5x5_reduce"
  top: "inception_4b/5x5_reduce"
  param {
    lr_mult: 1
    decay_mult: 0
  }
  prelu_param {
    filler {
      type: "constant"
      value: 0.01
    }
  }
}
layer {
  name: "inception_4b/5x5"
  type: "Convolution"
  bottom: "inception_4b/5x5_reduce"
  top: "inception_4b/5x5"
  param {
    lr_mult: 1
    decay_mult: 1
  }
  param {
    lr_mult: 2
    decay_mult: 0
  }
  convolution_param {
    num_output: 64
    pad: 2
    kernel_size: 5
    weight_filler {
      type: "xavier"
    }
    bias_filler {
      type: "constant"
      value: 0.2
    }
  }
}
layer {
  name: "inception_4b/prelu_5x5"
  type: "PReLU"
  bottom: "inception_4b/5x5"
  top: "inception_4b/5x5"
  param {
    lr_mult: 1
    decay_mult: 0
  }
  prelu_param {
    filler {
      type: "constant"
      value: 0.01
    }
  }
}
layer {
  name: "inception_4b/pool"
  type: "Pooling"
  bottom: "inception_4a/output"
  top: "inception_4b/pool"
  pooling_param {
    pool: MAX
    kernel_size: 3
    stride: 1
    pad: 1
  }
}
layer {
  name: "inception_4b/pool_proj"
  type: "Convolution"
  bottom: "inception_4b/pool"
  top: "inception_4b/pool_proj"
  param {
    lr_mult: 1
    decay_mult: 1
  }
  param {
    lr_mult: 2
    decay_mult: 0
  }
  convolution_param {
    num_output: 64
    kernel_size: 1
    weight_filler {
      type: "xavier"
    }
    bias_filler {
      type: "constant"
      value: 0.2
    }
  }
}
layer {
  name: "inception_4b/prelu_pool_proj"
  type: "PReLU"
  bottom: "inception_4b/pool_proj"
  top: "inception_4b/pool_proj"
  param {
    lr_mult: 1
    decay_mult: 0
  }
  prelu_param {
    filler {
      type: "constant"
      value: 0.01
    }
  }
}
layer {
  name: "inception_4b/output"
  type: "Concat"
  bottom: "inception_4b/1x1"
  bottom: "inception_4b/3x3"
  bottom: "inception_4b/5x5"
  bottom: "inception_4b/pool_proj"
  top: "inception_4b/output"
}
layer {
  name: "inception_4c/1x1"
  type: "Convolution"
  bottom: "inception_4b/output"
  top: "inception_4c/1x1"
  param {
    lr_mult: 1
    decay_mult: 1
  }
  param {
    lr_mult: 2
    decay_mult: 0
  }
  convolution_param {
    num_output: 128
    kernel_size: 1
    weight_filler {
      type: "xavier"
    }
    bias_filler {
      type: "constant"
      value: 0.2
    }
  }
}
layer {
  name: "inception_4c/prelu_1x1"
  type: "PReLU"
  bottom: "inception_4c/1x1"
  top: "inception_4c/1x1"
  param {
    lr_mult: 1
    decay_mult: 0
  }
  prelu_param {
    filler {
      type: "constant"
      value: 0.01
    }
  }
}
layer {
  name: "inception_4c/3x3_reduce"
  type: "Convolution"
  bottom: "inception_4b/output"
  top: "inception_4c/3x3_reduce"
  param {
    lr_mult: 1
    decay_mult: 1
  }
  param {
    lr_mult: 2
    decay_mult: 0
  }
  convolution_param {
    num_output: 128
    kernel_size: 1
    weight_filler {
      type: "xavier"
    }
    bias_filler {
      type: "constant"
      value: 0.2
    }
  }
}
layer {
  name: "inception_4c/prelu_3x3_reduce"
  type: "PReLU"
  bottom: "inception_4c/3x3_reduce"
  top: "inception_4c/3x3_reduce"
  param {
    lr_mult: 1
    decay_mult: 0
  }
  prelu_param {
    filler {
      type: "constant"
      value: 0.01
    }
  }
}
layer {
  name: "inception_4c/3x3"
  type: "Convolution"
  bottom: "inception_4c/3x3_reduce"
  top: "inception_4c/3x3"
  param {
    lr_mult: 1
    decay_mult: 1
  }
  param {
    lr_mult: 2
    decay_mult: 0
  }
  convolution_param {
    num_output: 256
    pad: 1
    kernel_size: 3
    weight_filler {
      type: "xavier"
    }
    bias_filler {
      type: "constant"
      value: 0.2
    }
  }
}
layer {
  name: "inception_4c/prelu_3x3"
  type: "PReLU"
  bottom: "inception_4c/3x3"
  top: "inception_4c/3x3"
  param {
    lr_mult: 1
    decay_mult: 0
  }
  prelu_param {
    filler {
      type: "constant"
      value: 0.01
    }
  }
}
layer {
  name: "inception_4c/5x5_reduce"
  type: "Convolution"
  bottom: "inception_4b/output"
  top: "inception_4c/5x5_reduce"
  param {
    lr_mult: 1
    decay_mult: 1
  }
  param {
    lr_mult: 2
    decay_mult: 0
  }
  convolution_param {
    num_output: 24
    kernel_size: 1
    weight_filler {
      type: "xavier"
    }
    bias_filler {
      type: "constant"
      value: 0.2
    }
  }
}
layer {
  name: "inception_4c/prelu_5x5_reduce"
  type: "PReLU"
  bottom: "inception_4c/5x5_reduce"
  top: "inception_4c/5x5_reduce"
  param {
    lr_mult: 1
    decay_mult: 0
  }
  prelu_param {
    filler {
      type: "constant"
      value: 0.01
    }
  }
}
layer {
  name: "inception_4c/5x5"
  type: "Convolution"
  bottom: "inception_4c/5x5_reduce"
  top: "inception_4c/5x5"
  param {
    lr_mult: 1
    decay_mult: 1
  }
  param {
    lr_mult: 2
    decay_mult: 0
  }
  convolution_param {
    num_output: 64
    pad: 2
    kernel_size: 5
    weight_filler {
      type: "xavier"
    }
    bias_filler {
      type: "constant"
      value: 0.2
    }
  }
}
layer {
  name: "inception_4c/prelu_5x5"
  type: "PReLU"
  bottom: "inception_4c/5x5"
  top: "inception_4c/5x5"
  param {
    lr_mult: 1
    decay_mult: 0
  }
  prelu_param {
    filler {
      type: "constant"
      value: 0.01
    }
  }
}
layer {
  name: "inception_4c/pool"
  type: "Pooling"
  bottom: "inception_4b/output"
  top: "inception_4c/pool"
  pooling_param {
    pool: MAX
    kernel_size: 3
    stride: 1
    pad: 1
  }
}
layer {
  name: "inception_4c/pool_proj"
  type: "Convolution"
  bottom: "inception_4c/pool"
  top: "inception_4c/pool_proj"
  param {
    lr_mult: 1
    decay_mult: 1
  }
  param {
    lr_mult: 2
    decay_mult: 0
  }
  convolution_param {
    num_output: 64
    kernel_size: 1
    weight_filler {
      type: "xavier"
    }
    bias_filler {
      type: "constant"
      value: 0.2
    }
  }
}
layer {
  name: "inception_4c/prelu_pool_proj"
  type: "PReLU"
  bottom: "inception_4c/pool_proj"
  top: "inception_4c/pool_proj"
  param {
    lr_mult: 1
    decay_mult: 0
  }
  prelu_param {
    filler {
      type: "constant"
      value: 0.01
    }
  }
}
layer {
  name: "inception_4c/output"
  type: "Concat"
  bottom: "inception_4c/1x1"
  bottom: "inception_4c/3x3"
  bottom: "inception_4c/5x5"
  bottom: "inception_4c/pool_proj"
  top: "inception_4c/output"
}
layer {
  name: "inception_4d/1x1"
  type: "Convolution"
  bottom: "inception_4c/output"
  top: "inception_4d/1x1"
  param {
    lr_mult: 1
    decay_mult: 1
  }
  param {
    lr_mult: 2
    decay_mult: 0
  }
  convolution_param {
    num_output: 112
    kernel_size: 1
    weight_filler {
      type: "xavier"
    }
    bias_filler {
      type: "constant"
      value: 0.2
    }
  }
}
layer {
  name: "inception_4d/prelu_1x1"
  type: "PReLU"
  bottom: "inception_4d/1x1"
  top: "inception_4d/1x1"
  param {
    lr_mult: 1
    decay_mult: 0
  }
  prelu_param {
    filler {
      type: "constant"
      value: 0.01
    }
  }
}
layer {
  name: "inception_4d/3x3_reduce"
  type: "Convolution"
  bottom: "inception_4c/output"
  top: "inception_4d/3x3_reduce"
  param {
    lr_mult: 1
    decay_mult: 1
  }
  param {
    lr_mult: 2
    decay_mult: 0
  }
  convolution_param {
    num_output: 144
    kernel_size: 1
    weight_filler {
      type: "xavier"
    }
    bias_filler {
      type: "constant"
      value: 0.2
    }
  }
}
layer {
  name: "inception_4d/prelu_3x3_reduce"
  type: "PReLU"
  bottom: "inception_4d/3x3_reduce"
  top: "inception_4d/3x3_reduce"
  param {
    lr_mult: 1
    decay_mult: 0
  }
  prelu_param {
    filler {
      type: "constant"
      value: 0.01
    }
  }
}
layer {
  name: "inception_4d/3x3"
  type: "Convolution"
  bottom: "inception_4d/3x3_reduce"
  top: "inception_4d/3x3"
  param {
    lr_mult: 1
    decay_mult: 1
  }
  param {
    lr_mult: 2
    decay_mult: 0
  }
  convolution_param {
    num_output: 288
    pad: 1
    kernel_size: 3
    weight_filler {
      type: "xavier"
    }
    bias_filler {
      type: "constant"
      value: 0.2
    }
  }
}
layer {
  name: "inception_4d/prelu_3x3"
  type: "PReLU"
  bottom: "inception_4d/3x3"
  top: "inception_4d/3x3"
  param {
    lr_mult: 1
    decay_mult: 0
  }
  prelu_param {
    filler {
      type: "constant"
      value: 0.01
    }
  }
}
layer {
  name: "inception_4d/5x5_reduce"
  type: "Convolution"
  bottom: "inception_4c/output"
  top: "inception_4d/5x5_reduce"
  param {
    lr_mult: 1
    decay_mult: 1
  }
  param {
    lr_mult: 2
    decay_mult: 0
  }
  convolution_param {
    num_output: 32
    kernel_size: 1
    weight_filler {
      type: "xavier"
    }
    bias_filler {
      type: "constant"
      value: 0.2
    }
  }
}
layer {
  name: "inception_4d/prelu_5x5_reduce"
  type: "PReLU"
  bottom: "inception_4d/5x5_reduce"
  top: "inception_4d/5x5_reduce"
  param {
    lr_mult: 1
    decay_mult: 0
  }
  prelu_param {
    filler {
      type: "constant"
      value: 0.01
    }
  }
}
layer {
  name: "inception_4d/5x5"
  type: "Convolution"
  bottom: "inception_4d/5x5_reduce"
  top: "inception_4d/5x5"
  param {
    lr_mult: 1
    decay_mult: 1
  }
  param {
    lr_mult: 2
    decay_mult: 0
  }
  convolution_param {
    num_output: 64
    pad: 2
    kernel_size: 5
    weight_filler {
      type: "xavier"
    }
    bias_filler {
      type: "constant"
      value: 0.2
    }
  }
}
layer {
  name: "inception_4d/prelu_5x5"
  type: "PReLU"
  bottom: "inception_4d/5x5"
  top: "inception_4d/5x5"
  param {
    lr_mult: 1
    decay_mult: 0
  }
  prelu_param {
    filler {
      type: "constant"
      value: 0.01
    }
  }
}
layer {
  name: "inception_4d/pool"
  type: "Pooling"
  bottom: "inception_4c/output"
  top: "inception_4d/pool"
  pooling_param {
    pool: MAX
    kernel_size: 3
    stride: 1
    pad: 1
  }
}
layer {
  name: "inception_4d/pool_proj"
  type: "Convolution"
  bottom: "ince
I1105 17:20:23.031075 24412 layer_factory.hpp:76] Creating layer data
I1105 17:20:23.031550 24412 net.cpp:106] Creating Layer data
I1105 17:20:23.031566 24412 net.cpp:411] data -> data
I1105 17:20:23.031599 24412 net.cpp:411] data -> label
I1105 17:20:23.033859 24417 db_lmdb.cpp:38] Opened lmdb ../../LMDB/train_2-lmdb
I1105 17:20:23.045846 24412 data_layer.cpp:41] output data size: 32,3,224,224
I1105 17:20:23.113603 24412 net.cpp:150] Setting up data
I1105 17:20:23.113657 24412 net.cpp:157] Top shape: 32 3 224 224 (4816896)
I1105 17:20:23.113664 24412 net.cpp:157] Top shape: 32 (32)
I1105 17:20:23.113677 24412 net.cpp:165] Memory required for data: 19267712
I1105 17:20:23.113689 24412 layer_factory.hpp:76] Creating layer label_data_1_split
I1105 17:20:23.113714 24412 net.cpp:106] Creating Layer label_data_1_split
I1105 17:20:23.113730 24412 net.cpp:454] label_data_1_split <- label
I1105 17:20:23.113749 24412 net.cpp:411] label_data_1_split -> label_data_1_split_0
I1105 17:20:23.113760 24412 net.cpp:411] label_data_1_split -> label_data_1_split_1
I1105 17:20:23.113766 24412 net.cpp:411] label_data_1_split -> label_data_1_split_2
I1105 17:20:23.113837 24412 net.cpp:150] Setting up label_data_1_split
I1105 17:20:23.113845 24412 net.cpp:157] Top shape: 32 (32)
I1105 17:20:23.113858 24412 net.cpp:157] Top shape: 32 (32)
I1105 17:20:23.113863 24412 net.cpp:157] Top shape: 32 (32)
I1105 17:20:23.113867 24412 net.cpp:165] Memory required for data: 19268096
I1105 17:20:23.113873 24412 layer_factory.hpp:76] Creating layer conv1/7x7_s2
I1105 17:20:23.113893 24412 net.cpp:106] Creating Layer conv1/7x7_s2
I1105 17:20:23.113898 24412 net.cpp:454] conv1/7x7_s2 <- data
I1105 17:20:23.113904 24412 net.cpp:411] conv1/7x7_s2 -> conv1/7x7_s2
I1105 17:20:23.314998 24412 cudnn_conv_layer.cpp:194] Reallocating workspace storage: 225816
I1105 17:20:23.315292 24412 net.cpp:150] Setting up conv1/7x7_s2
I1105 17:20:23.315307 24412 net.cpp:157] Top shape: 32 64 112 112 (25690112)
I1105 17:20:23.315320 24412 net.cpp:165] Memory required for data: 122028544
I1105 17:20:23.315340 24412 layer_factory.hpp:76] Creating layer conv1/prelu_7x7
I1105 17:20:23.315364 24412 net.cpp:106] Creating Layer conv1/prelu_7x7
I1105 17:20:23.315374 24412 net.cpp:454] conv1/prelu_7x7 <- conv1/7x7_s2
I1105 17:20:23.315382 24412 net.cpp:397] conv1/prelu_7x7 -> conv1/7x7_s2 (in-place)
I1105 17:20:23.317005 24412 net.cpp:150] Setting up conv1/prelu_7x7
I1105 17:20:23.317019 24412 net.cpp:157] Top shape: 32 64 112 112 (25690112)
I1105 17:20:23.317024 24412 net.cpp:165] Memory required for data: 224788992
I1105 17:20:23.317033 24412 layer_factory.hpp:76] Creating layer pool1/3x3_s2
I1105 17:20:23.317044 24412 net.cpp:106] Creating Layer pool1/3x3_s2
I1105 17:20:23.317049 24412 net.cpp:454] pool1/3x3_s2 <- conv1/7x7_s2
I1105 17:20:23.317054 24412 net.cpp:411] pool1/3x3_s2 -> pool1/3x3_s2
I1105 17:20:23.317458 24412 net.cpp:150] Setting up pool1/3x3_s2
I1105 17:20:23.317472 24412 net.cpp:157] Top shape: 32 64 56 56 (6422528)
I1105 17:20:23.317476 24412 net.cpp:165] Memory required for data: 250479104
I1105 17:20:23.317481 24412 layer_factory.hpp:76] Creating layer pool1/norm1
I1105 17:20:23.317492 24412 net.cpp:106] Creating Layer pool1/norm1
I1105 17:20:23.317497 24412 net.cpp:454] pool1/norm1 <- pool1/3x3_s2
I1105 17:20:23.317502 24412 net.cpp:411] pool1/norm1 -> pool1/norm1
I1105 17:20:23.317694 24412 net.cpp:150] Setting up pool1/norm1
I1105 17:20:23.317704 24412 net.cpp:157] Top shape: 32 64 56 56 (6422528)
I1105 17:20:23.317708 24412 net.cpp:165] Memory required for data: 276169216
I1105 17:20:23.317713 24412 layer_factory.hpp:76] Creating layer conv2/3x3_reduce
I1105 17:20:23.317723 24412 net.cpp:106] Creating Layer conv2/3x3_reduce
I1105 17:20:23.317728 24412 net.cpp:454] conv2/3x3_reduce <- pool1/norm1
I1105 17:20:23.317735 24412 net.cpp:411] conv2/3x3_reduce -> conv2/3x3_reduce
I1105 17:20:23.319159 24412 cudnn_conv_layer.cpp:194] Reallocating workspace storage: 63000
I1105 17:20:23.319182 24412 net.cpp:150] Setting up conv2/3x3_reduce
I1105 17:20:23.319190 24412 net.cpp:157] Top shape: 32 64 56 56 (6422528)
I1105 17:20:23.319195 24412 net.cpp:165] Memory required for data: 301859328
I1105 17:20:23.319205 24412 layer_factory.hpp:76] Creating layer conv2/prelu_3x3_reduce
I1105 17:20:23.319212 24412 net.cpp:106] Creating Layer conv2/prelu_3x3_reduce
I1105 17:20:23.319216 24412 net.cpp:454] conv2/prelu_3x3_reduce <- conv2/3x3_reduce
I1105 17:20:23.319224 24412 net.cpp:397] conv2/prelu_3x3_reduce -> conv2/3x3_reduce (in-place)
I1105 17:20:23.319823 24412 net.cpp:150] Setting up conv2/prelu_3x3_reduce
I1105 17:20:23.319834 24412 net.cpp:157] Top shape: 32 64 56 56 (6422528)
I1105 17:20:23.319839 24412 net.cpp:165] Memory required for data: 327549440
I1105 17:20:23.319844 24412 layer_factory.hpp:76] Creating layer conv2/3x3
I1105 17:20:23.319855 24412 net.cpp:106] Creating Layer conv2/3x3
I1105 17:20:23.319860 24412 net.cpp:454] conv2/3x3 <- conv2/3x3_reduce
I1105 17:20:23.319866 24412 net.cpp:411] conv2/3x3 -> conv2/3x3
I1105 17:20:23.321871 24412 cudnn_conv_layer.cpp:194] Reallocating workspace storage: 63000
I1105 17:20:23.321894 24412 net.cpp:150] Setting up conv2/3x3
I1105 17:20:23.321902 24412 net.cpp:157] Top shape: 32 192 56 56 (19267584)
I1105 17:20:23.321905 24412 net.cpp:165] Memory required for data: 404619776
I1105 17:20:23.321913 24412 layer_factory.hpp:76] Creating layer conv2/prelu_3x3
I1105 17:20:23.321921 24412 net.cpp:106] Creating Layer conv2/prelu_3x3
I1105 17:20:23.321934 24412 net.cpp:454] conv2/prelu_3x3 <- conv2/3x3
I1105 17:20:23.321940 24412 net.cpp:397] conv2/prelu_3x3 -> conv2/3x3 (in-place)
I1105 17:20:23.323029 24412 net.cpp:150] Setting up conv2/prelu_3x3
I1105 17:20:23.323041 24412 net.cpp:157] Top shape: 32 192 56 56 (19267584)
I1105 17:20:23.323045 24412 net.cpp:165] Memory required for data: 481690112
I1105 17:20:23.323071 24412 layer_factory.hpp:76] Creating layer conv2/norm2
I1105 17:20:23.323088 24412 net.cpp:106] Creating Layer conv2/norm2
I1105 17:20:23.323093 24412 net.cpp:454] conv2/norm2 <- conv2/3x3
I1105 17:20:23.323101 24412 net.cpp:411] conv2/norm2 -> conv2/norm2
I1105 17:20:23.323288 24412 net.cpp:150] Setting up conv2/norm2
I1105 17:20:23.323298 24412 net.cpp:157] Top shape: 32 192 56 56 (19267584)
I1105 17:20:23.323302 24412 net.cpp:165] Memory required for data: 558760448
I1105 17:20:23.323307 24412 layer_factory.hpp:76] Creating layer pool2/3x3_s2
I1105 17:20:23.323314 24412 net.cpp:106] Creating Layer pool2/3x3_s2
I1105 17:20:23.323318 24412 net.cpp:454] pool2/3x3_s2 <- conv2/norm2
I1105 17:20:23.323325 24412 net.cpp:411] pool2/3x3_s2 -> pool2/3x3_s2
I1105 17:20:23.323683 24412 net.cpp:150] Setting up pool2/3x3_s2
I1105 17:20:23.323694 24412 net.cpp:157] Top shape: 32 192 28 28 (4816896)
I1105 17:20:23.323699 24412 net.cpp:165] Memory required for data: 578028032
I1105 17:20:23.323704 24412 layer_factory.hpp:76] Creating layer pool2/3x3_s2_pool2/3x3_s2_0_split
I1105 17:20:23.323709 24412 net.cpp:106] Creating Layer pool2/3x3_s2_pool2/3x3_s2_0_split
I1105 17:20:23.323714 24412 net.cpp:454] pool2/3x3_s2_pool2/3x3_s2_0_split <- pool2/3x3_s2
I1105 17:20:23.323720 24412 net.cpp:411] pool2/3x3_s2_pool2/3x3_s2_0_split -> pool2/3x3_s2_pool2/3x3_s2_0_split_0
I1105 17:20:23.323727 24412 net.cpp:411] pool2/3x3_s2_pool2/3x3_s2_0_split -> pool2/3x3_s2_pool2/3x3_s2_0_split_1
I1105 17:20:23.323742 24412 net.cpp:411] pool2/3x3_s2_pool2/3x3_s2_0_split -> pool2/3x3_s2_pool2/3x3_s2_0_split_2
I1105 17:20:23.323748 24412 net.cpp:411] pool2/3x3_s2_pool2/3x3_s2_0_split -> pool2/3x3_s2_pool2/3x3_s2_0_split_3
I1105 17:20:23.323807 24412 net.cpp:150] Setting up pool2/3x3_s2_pool2/3x3_s2_0_split
I1105 17:20:23.323815 24412 net.cpp:157] Top shape: 32 192 28 28 (4816896)
I1105 17:20:23.323820 24412 net.cpp:157] Top shape: 32 192 28 28 (4816896)
I1105 17:20:23.323825 24412 net.cpp:157] Top shape: 32 192 28 28 (4816896)
I1105 17:20:23.323829 24412 net.cpp:157] Top shape: 32 192 28 28 (4816896)
I1105 17:20:23.323833 24412 net.cpp:165] Memory required for data: 655098368
I1105 17:20:23.323837 24412 layer_factory.hpp:76] Creating layer inception_3a/1x1
I1105 17:20:23.323854 24412 net.cpp:106] Creating Layer inception_3a/1x1
I1105 17:20:23.323859 24412 net.cpp:454] inception_3a/1x1 <- pool2/3x3_s2_pool2/3x3_s2_0_split_0
I1105 17:20:23.323865 24412 net.cpp:411] inception_3a/1x1 -> inception_3a/1x1
I1105 17:20:23.325348 24412 cudnn_conv_layer.cpp:194] Reallocating workspace storage: 20664
I1105 17:20:23.325371 24412 net.cpp:150] Setting up inception_3a/1x1
I1105 17:20:23.325379 24412 net.cpp:157] Top shape: 32 64 28 28 (1605632)
I1105 17:20:23.325383 24412 net.cpp:165] Memory required for data: 661520896
I1105 17:20:23.325390 24412 layer_factory.hpp:76] Creating layer inception_3a/prelu_1x1
I1105 17:20:23.325400 24412 net.cpp:106] Creating Layer inception_3a/prelu_1x1
I1105 17:20:23.325413 24412 net.cpp:454] inception_3a/prelu_1x1 <- inception_3a/1x1
I1105 17:20:23.325420 24412 net.cpp:397] inception_3a/prelu_1x1 -> inception_3a/1x1 (in-place)
I1105 17:20:23.325952 24412 net.cpp:150] Setting up inception_3a/prelu_1x1
I1105 17:20:23.325963 24412 net.cpp:157] Top shape: 32 64 28 28 (1605632)
I1105 17:20:23.325976 24412 net.cpp:165] Memory required for data: 667943424
I1105 17:20:23.325983 24412 layer_factory.hpp:76] Creating layer inception_3a/3x3_reduce
I1105 17:20:23.326009 24412 net.cpp:106] Creating Layer inception_3a/3x3_reduce
I1105 17:20:23.326014 24412 net.cpp:454] inception_3a/3x3_reduce <- pool2/3x3_s2_pool2/3x3_s2_0_split_1
I1105 17:20:23.326021 24412 net.cpp:411] inception_3a/3x3_reduce -> inception_3a/3x3_reduce
I1105 17:20:23.326948 24412 cudnn_conv_layer.cpp:194] Reallocating workspace storage: 20664
I1105 17:20:23.326969 24412 net.cpp:150] Setting up inception_3a/3x3_reduce
I1105 17:20:23.326979 24412 net.cpp:157] Top shape: 32 96 28 28 (2408448)
I1105 17:20:23.326983 24412 net.cpp:165] Memory required for data: 677577216
I1105 17:20:23.327002 24412 layer_factory.hpp:76] Creating layer inception_3a/prelu_3x3_reduce
I1105 17:20:23.327011 24412 net.cpp:106] Creating Layer inception_3a/prelu_3x3_reduce
I1105 17:20:23.327016 24412 net.cpp:454] inception_3a/prelu_3x3_reduce <- inception_3a/3x3_reduce
I1105 17:20:23.327024 24412 net.cpp:397] inception_3a/prelu_3x3_reduce -> inception_3a/3x3_reduce (in-place)
I1105 17:20:23.327153 24412 net.cpp:150] Setting up inception_3a/prelu_3x3_reduce
I1105 17:20:23.327162 24412 net.cpp:157] Top shape: 32 96 28 28 (2408448)
I1105 17:20:23.327167 24412 net.cpp:165] Memory required for data: 687211008
I1105 17:20:23.327172 24412 layer_factory.hpp:76] Creating layer inception_3a/3x3
I1105 17:20:23.327179 24412 net.cpp:106] Creating Layer inception_3a/3x3
I1105 17:20:23.327184 24412 net.cpp:454] inception_3a/3x3 <- inception_3a/3x3_reduce
I1105 17:20:23.327199 24412 net.cpp:411] inception_3a/3x3 -> inception_3a/3x3
I1105 17:20:23.329357 24412 cudnn_conv_layer.cpp:194] Reallocating workspace storage: 20664
I1105 17:20:23.329396 24412 net.cpp:150] Setting up inception_3a/3x3
I1105 17:20:23.329406 24412 net.cpp:157] Top shape: 32 128 28 28 (3211264)
I1105 17:20:23.329411 24412 net.cpp:165] Memory required for data: 700056064
I1105 17:20:23.329426 24412 layer_factory.hpp:76] Creating layer inception_3a/prelu_3x3
I1105 17:20:23.329449 24412 net.cpp:106] Creating Layer inception_3a/prelu_3x3
I1105 17:20:23.329455 24412 net.cpp:454] inception_3a/prelu_3x3 <- inception_3a/3x3
I1105 17:20:23.329463 24412 net.cpp:397] inception_3a/prelu_3x3 -> inception_3a/3x3 (in-place)
I1105 17:20:23.329638 24412 net.cpp:150] Setting up inception_3a/prelu_3x3
I1105 17:20:23.329648 24412 net.cpp:157] Top shape: 32 128 28 28 (3211264)
I1105 17:20:23.329663 24412 net.cpp:165] Memory required for data: 712901120
I1105 17:20:23.329669 24412 layer_factory.hpp:76] Creating layer inception_3a/5x5_reduce
I1105 17:20:23.329680 24412 net.cpp:106] Creating Layer inception_3a/5x5_reduce
I1105 17:20:23.329684 24412 net.cpp:454] inception_3a/5x5_reduce <- pool2/3x3_s2_pool2/3x3_s2_0_split_2
I1105 17:20:23.329692 24412 net.cpp:411] inception_3a/5x5_reduce -> inception_3a/5x5_reduce
I1105 17:20:23.331018 24412 cudnn_conv_layer.cpp:194] Reallocating workspace storage: 20664
I1105 17:20:23.331040 24412 net.cpp:150] Setting up inception_3a/5x5_reduce
I1105 17:20:23.331049 24412 net.cpp:157] Top shape: 32 16 28 28 (401408)
I1105 17:20:23.331053 24412 net.cpp:165] Memory required for data: 714506752
I1105 17:20:23.331060 24412 layer_factory.hpp:76] Creating layer inception_3a/prelu_5x5_reduce
I1105 17:20:23.331071 24412 net.cpp:106] Creating Layer inception_3a/prelu_5x5_reduce
I1105 17:20:23.331076 24412 net.cpp:454] inception_3a/prelu_5x5_reduce <- inception_3a/5x5_reduce
I1105 17:20:23.331082 24412 net.cpp:397] inception_3a/prelu_5x5_reduce -> inception_3a/5x5_reduce (in-place)
I1105 17:20:23.331193 24412 net.cpp:150] Setting up inception_3a/prelu_5x5_reduce
I1105 17:20:23.331203 24412 net.cpp:157] Top shape: 32 16 28 28 (401408)
I1105 17:20:23.331207 24412 net.cpp:165] Memory required for data: 716112384
I1105 17:20:23.331212 24412 layer_factory.hpp:76] Creating layer inception_3a/5x5
I1105 17:20:23.331223 24412 net.cpp:106] Creating Layer inception_3a/5x5
I1105 17:20:23.331226 24412 net.cpp:454] inception_3a/5x5 <- inception_3a/5x5_reduce
I1105 17:20:23.331234 24412 net.cpp:411] inception_3a/5x5 -> inception_3a/5x5
I1105 17:20:23.332337 24412 cudnn_conv_layer.cpp:194] Reallocating workspace storage: 20664
I1105 17:20:23.332356 24412 net.cpp:150] Setting up inception_3a/5x5
I1105 17:20:23.332363 24412 net.cpp:157] Top shape: 32 32 28 28 (802816)
I1105 17:20:23.332367 24412 net.cpp:165] Memory required for data: 719323648
I1105 17:20:23.332375 24412 layer_factory.hpp:76] Creating layer inception_3a/prelu_5x5
I1105 17:20:23.332384 24412 net.cpp:106] Creating Layer inception_3a/prelu_5x5
I1105 17:20:23.332389 24412 net.cpp:454] inception_3a/prelu_5x5 <- inception_3a/5x5
I1105 17:20:23.332396 24412 net.cpp:397] inception_3a/prelu_5x5 -> inception_3a/5x5 (in-place)
I1105 17:20:23.332533 24412 net.cpp:150] Setting up inception_3a/prelu_5x5
I1105 17:20:23.332542 24412 net.cpp:157] Top shape: 32 32 28 28 (802816)
I1105 17:20:23.332546 24412 net.cpp:165] Memory required for data: 722534912
I1105 17:20:23.332552 24412 layer_factory.hpp:76] Creating layer inception_3a/pool
I1105 17:20:23.332561 24412 net.cpp:106] Creating Layer inception_3a/pool
I1105 17:20:23.332566 24412 net.cpp:454] inception_3a/pool <- pool2/3x3_s2_pool2/3x3_s2_0_split_3
I1105 17:20:23.332572 24412 net.cpp:411] inception_3a/pool -> inception_3a/pool
I1105 17:20:23.332751 24412 net.cpp:150] Setting up inception_3a/pool
I1105 17:20:23.332761 24412 net.cpp:157] Top shape: 32 192 28 28 (4816896)
I1105 17:20:23.332764 24412 net.cpp:165] Memory required for data: 741802496
I1105 17:20:23.332769 24412 layer_factory.hpp:76] Creating layer inception_3a/pool_proj
I1105 17:20:23.332778 24412 net.cpp:106] Creating Layer inception_3a/pool_proj
I1105 17:20:23.332782 24412 net.cpp:454] inception_3a/pool_proj <- inception_3a/pool
I1105 17:20:23.332792 24412 net.cpp:411] inception_3a/pool_proj -> inception_3a/pool_proj
I1105 17:20:23.333827 24412 cudnn_conv_layer.cpp:194] Reallocating workspace storage: 20664
I1105 17:20:23.333845 24412 net.cpp:150] Setting up inception_3a/pool_proj
I1105 17:20:23.333853 24412 net.cpp:157] Top shape: 32 32 28 28 (802816)
I1105 17:20:23.333858 24412 net.cpp:165] Memory required for data: 745013760
I1105 17:20:23.333864 24412 layer_factory.hpp:76] Creating layer inception_3a/prelu_pool_proj
I1105 17:20:23.333873 24412 net.cpp:106] Creating Layer inception_3a/prelu_pool_proj
I1105 17:20:23.333878 24412 net.cpp:454] inception_3a/prelu_pool_proj <- inception_3a/pool_proj
I1105 17:20:23.333885 24412 net.cpp:397] inception_3a/prelu_pool_proj -> inception_3a/pool_proj (in-place)
I1105 17:20:23.333981 24412 net.cpp:150] Setting up inception_3a/prelu_pool_proj
I1105 17:20:23.333991 24412 net.cpp:157] Top shape: 32 32 28 28 (802816)
I1105 17:20:23.333994 24412 net.cpp:165] Memory required for data: 748225024
I1105 17:20:23.334000 24412 layer_factory.hpp:76] Creating layer inception_3a/output
I1105 17:20:23.334012 24412 net.cpp:106] Creating Layer inception_3a/output
I1105 17:20:23.334017 24412 net.cpp:454] inception_3a/output <- inception_3a/1x1
I1105 17:20:23.334022 24412 net.cpp:454] inception_3a/output <- inception_3a/3x3
I1105 17:20:23.334028 24412 net.cpp:454] inception_3a/output <- inception_3a/5x5
I1105 17:20:23.334031 24412 net.cpp:454] inception_3a/output <- inception_3a/pool_proj
I1105 17:20:23.334038 24412 net.cpp:411] inception_3a/output -> inception_3a/output
I1105 17:20:23.334063 24412 net.cpp:150] Setting up inception_3a/output
I1105 17:20:23.334070 24412 net.cpp:157] Top shape: 32 256 28 28 (6422528)
I1105 17:20:23.334074 24412 net.cpp:165] Memory required for data: 773915136
I1105 17:20:23.334079 24412 layer_factory.hpp:76] Creating layer inception_3a/output_inception_3a/output_0_split
I1105 17:20:23.334085 24412 net.cpp:106] Creating Layer inception_3a/output_inception_3a/output_0_split
I1105 17:20:23.334089 24412 net.cpp:454] inception_3a/output_inception_3a/output_0_split <- inception_3a/output
I1105 17:20:23.334117 24412 net.cpp:411] inception_3a/output_inception_3a/output_0_split -> inception_3a/output_inception_3a/output_0_split_0
I1105 17:20:23.334125 24412 net.cpp:411] inception_3a/output_inception_3a/output_0_split -> inception_3a/output_inception_3a/output_0_split_1
I1105 17:20:23.334131 24412 net.cpp:411] inception_3a/output_inception_3a/output_0_split -> inception_3a/output_inception_3a/output_0_split_2
I1105 17:20:23.334139 24412 net.cpp:411] inception_3a/output_inception_3a/output_0_split -> inception_3a/output_inception_3a/output_0_split_3
I1105 17:20:23.334213 24412 net.cpp:150] Setting up inception_3a/output_inception_3a/output_0_split
I1105 17:20:23.334223 24412 net.cpp:157] Top shape: 32 256 28 28 (6422528)
I1105 17:20:23.334228 24412 net.cpp:157] Top shape: 32 256 28 28 (6422528)
I1105 17:20:23.334233 24412 net.cpp:157] Top shape: 32 256 28 28 (6422528)
I1105 17:20:23.334249 24412 net.cpp:157] Top shape: 32 256 28 28 (6422528)
I1105 17:20:23.334252 24412 net.cpp:165] Memory required for data: 876675584
I1105 17:20:23.334256 24412 layer_factory.hpp:76] Creating layer inception_3b/1x1
I1105 17:20:23.334265 24412 net.cpp:106] Creating Layer inception_3b/1x1
I1105 17:20:23.334270 24412 net.cpp:454] inception_3b/1x1 <- inception_3a/output_inception_3a/output_0_split_0
I1105 17:20:23.334276 24412 net.cpp:411] inception_3b/1x1 -> inception_3b/1x1
I1105 17:20:23.335449 24412 cudnn_conv_layer.cpp:194] Reallocating workspace storage: 20664
I1105 17:20:23.335469 24412 net.cpp:150] Setting up inception_3b/1x1
I1105 17:20:23.335476 24412 net.cpp:157] Top shape: 32 128 28 28 (3211264)
I1105 17:20:23.335481 24412 net.cpp:165] Memory required for data: 889520640
I1105 17:20:23.335489 24412 layer_factory.hpp:76] Creating layer inception_3b/prelu_1x1
I1105 17:20:23.335497 24412 net.cpp:106] Creating Layer inception_3b/prelu_1x1
I1105 17:20:23.335502 24412 net.cpp:454] inception_3b/prelu_1x1 <- inception_3b/1x1
I1105 17:20:23.335508 24412 net.cpp:397] inception_3b/prelu_1x1 -> inception_3b/1x1 (in-place)
I1105 17:20:23.336100 24412 net.cpp:150] Setting up inception_3b/prelu_1x1
I1105 17:20:23.336112 24412 net.cpp:157] Top shape: 32 128 28 28 (3211264)
I1105 17:20:23.336117 24412 net.cpp:165] Memory required for data: 902365696
I1105 17:20:23.336122 24412 layer_factory.hpp:76] Creating layer inception_3b/3x3_reduce
I1105 17:20:23.336132 24412 net.cpp:106] Creating Layer inception_3b/3x3_reduce
I1105 17:20:23.336138 24412 net.cpp:454] inception_3b/3x3_reduce <- inception_3a/output_inception_3a/output_0_split_1
I1105 17:20:23.336144 24412 net.cpp:411] inception_3b/3x3_reduce -> inception_3b/3x3_reduce
I1105 17:20:23.337334 24412 cudnn_conv_layer.cpp:194] Reallocating workspace storage: 20664
I1105 17:20:23.337353 24412 net.cpp:150] Setting up inception_3b/3x3_reduce
I1105 17:20:23.337363 24412 net.cpp:157] Top shape: 32 128 28 28 (3211264)
I1105 17:20:23.337368 24412 net.cpp:165] Memory required for data: 915210752
I1105 17:20:23.337374 24412 layer_factory.hpp:76] Creating layer inception_3b/prelu_3x3_reduce
I1105 17:20:23.337383 24412 net.cpp:106] Creating Layer inception_3b/prelu_3x3_reduce
I1105 17:20:23.337388 24412 net.cpp:454] inception_3b/prelu_3x3_reduce <- inception_3b/3x3_reduce
I1105 17:20:23.337394 24412 net.cpp:397] inception_3b/prelu_3x3_reduce -> inception_3b/3x3_reduce (in-place)
I1105 17:20:23.337532 24412 net.cpp:150] Setting up inception_3b/prelu_3x3_reduce
I1105 17:20:23.337540 24412 net.cpp:157] Top shape: 32 128 28 28 (3211264)
I1105 17:20:23.337544 24412 net.cpp:165] Memory required for data: 928055808
I1105 17:20:23.337556 24412 layer_factory.hpp:76] Creating layer inception_3b/3x3
I1105 17:20:23.337569 24412 net.cpp:106] Creating Layer inception_3b/3x3
I1105 17:20:23.337574 24412 net.cpp:454] inception_3b/3x3 <- inception_3b/3x3_reduce
I1105 17:20:23.337581 24412 net.cpp:411] inception_3b/3x3 -> inception_3b/3x3
I1105 17:20:23.340252 24412 cudnn_conv_layer.cpp:194] Reallocating workspace storage: 20664
I1105 17:20:23.340273 24412 net.cpp:150] Setting up inception_3b/3x3
I1105 17:20:23.340281 24412 net.cpp:157] Top shape: 32 192 28 28 (4816896)
I1105 17:20:23.340286 24412 net.cpp:165] Memory required for data: 947323392
I1105 17:20:23.340292 24412 layer_factory.hpp:76] Creating layer inception_3b/prelu_3x3
I1105 17:20:23.340301 24412 net.cpp:106] Creating Layer inception_3b/prelu_3x3
I1105 17:20:23.340317 24412 net.cpp:454] inception_3b/prelu_3x3 <- inception_3b/3x3
I1105 17:20:23.340323 24412 net.cpp:397] inception_3b/prelu_3x3 -> inception_3b/3x3 (in-place)
I1105 17:20:23.340965 24412 net.cpp:150] Setting up inception_3b/prelu_3x3
I1105 17:20:23.340977 24412 net.cpp:157] Top shape: 32 192 28 28 (4816896)
I1105 17:20:23.340981 24412 net.cpp:165] Memory required for data: 966590976
I1105 17:20:23.340987 24412 layer_factory.hpp:76] Creating layer inception_3b/5x5_reduce
I1105 17:20:23.341008 24412 net.cpp:106] Creating Layer inception_3b/5x5_reduce
I1105 17:20:23.341013 24412 net.cpp:454] inception_3b/5x5_reduce <- inception_3a/output_inception_3a/output_0_split_2
I1105 17:20:23.341048 24412 net.cpp:411] inception_3b/5x5_reduce -> inception_3b/5x5_reduce
I1105 17:20:23.341974 24412 cudnn_conv_layer.cpp:194] Reallocating workspace storage: 20664
I1105 17:20:23.341992 24412 net.cpp:150] Setting up inception_3b/5x5_reduce
I1105 17:20:23.342000 24412 net.cpp:157] Top shape: 32 32 28 28 (802816)
I1105 17:20:23.342015 24412 net.cpp:165] Memory required for data: 969802240
I1105 17:20:23.342023 24412 layer_factory.hpp:76] Creating layer inception_3b/prelu_5x5_reduce
I1105 17:20:23.342032 24412 net.cpp:106] Creating Layer inception_3b/prelu_5x5_reduce
I1105 17:20:23.342037 24412 net.cpp:454] inception_3b/prelu_5x5_reduce <- inception_3b/5x5_reduce
I1105 17:20:23.342046 24412 net.cpp:397] inception_3b/prelu_5x5_reduce -> inception_3b/5x5_reduce (in-place)
I1105 17:20:23.342149 24412 net.cpp:150] Setting up inception_3b/prelu_5x5_reduce
I1105 17:20:23.342159 24412 net.cpp:157] Top shape: 32 32 28 28 (802816)
I1105 17:20:23.342162 24412 net.cpp:165] Memory required for data: 973013504
I1105 17:20:23.342167 24412 layer_factory.hpp:76] Creating layer inception_3b/5x5
I1105 17:20:23.342177 24412 net.cpp:106] Creating Layer inception_3b/5x5
I1105 17:20:23.342182 24412 net.cpp:454] inception_3b/5x5 <- inception_3b/5x5_reduce
I1105 17:20:23.342190 24412 net.cpp:411] inception_3b/5x5 -> inception_3b/5x5
I1105 17:20:23.343680 24412 cudnn_conv_layer.cpp:194] Reallocating workspace storage: 20664
I1105 17:20:23.343703 24412 net.cpp:150] Setting up inception_3b/5x5
I1105 17:20:23.343714 24412 net.cpp:157] Top shape: 32 96 28 28 (2408448)
I1105 17:20:23.343730 24412 net.cpp:165] Memory required for data: 982647296
I1105 17:20:23.343739 24412 layer_factory.hpp:76] Creating layer inception_3b/prelu_5x5
I1105 17:20:23.343750 24412 net.cpp:106] Creating Layer inception_3b/prelu_5x5
I1105 17:20:23.343755 24412 net.cpp:454] inception_3b/prelu_5x5 <- inception_3b/5x5
I1105 17:20:23.343762 24412 net.cpp:397] inception_3b/prelu_5x5 -> inception_3b/5x5 (in-place)
I1105 17:20:23.343950 24412 net.cpp:150] Setting up inception_3b/prelu_5x5
I1105 17:20:23.343961 24412 net.cpp:157] Top shape: 32 96 28 28 (2408448)
I1105 17:20:23.343966 24412 net.cpp:165] Memory required for data: 992281088
I1105 17:20:23.343971 24412 layer_factory.hpp:76] Creating layer inception_3b/pool
I1105 17:20:23.343979 24412 net.cpp:106] Creating Layer inception_3b/pool
I1105 17:20:23.343984 24412 net.cpp:454] inception_3b/pool <- inception_3a/output_inception_3a/output_0_split_3
I1105 17:20:23.343991 24412 net.cpp:411] inception_3b/pool -> inception_3b/pool
I1105 17:20:23.344385 24412 net.cpp:150] Setting up inception_3b/pool
I1105 17:20:23.344398 24412 net.cpp:157] Top shape: 32 256 28 28 (6422528)
I1105 17:20:23.344401 24412 net.cpp:165] Memory required for data: 1017971200
I1105 17:20:23.344405 24412 layer_factory.hpp:76] Creating layer inception_3b/pool_proj
I1105 17:20:23.344415 24412 net.cpp:106] Creating Layer inception_3b/pool_proj
I1105 17:20:23.344420 24412 net.cpp:454] inception_3b/pool_proj <- inception_3b/pool
I1105 17:20:23.344429 24412 net.cpp:411] inception_3b/pool_proj -> inception_3b/pool_proj
I1105 17:20:23.345547 24412 cudnn_conv_layer.cpp:194] Reallocating workspace storage: 20664
I1105 17:20:23.345568 24412 net.cpp:150] Setting up inception_3b/pool_proj
I1105 17:20:23.345576 24412 net.cpp:157] Top shape: 32 64 28 28 (1605632)
I1105 17:20:23.345579 24412 net.cpp:165] Memory required for data: 1024393728
I1105 17:20:23.345587 24412 layer_factory.hpp:76] Creating layer inception_3b/prelu_pool_proj
I1105 17:20:23.345597 24412 net.cpp:106] Creating Layer inception_3b/prelu_pool_proj
I1105 17:20:23.345600 24412 net.cpp:454] inception_3b/prelu_pool_proj <- inception_3b/pool_proj
I1105 17:20:23.345607 24412 net.cpp:397] inception_3b/prelu_pool_proj -> inception_3b/pool_proj (in-place)
I1105 17:20:23.345726 24412 net.cpp:150] Setting up inception_3b/prelu_pool_proj
I1105 17:20:23.345734 24412 net.cpp:157] Top shape: 32 64 28 28 (1605632)
I1105 17:20:23.345753 24412 net.cpp:165] Memory required for data: 1030816256
I1105 17:20:23.345759 24412 layer_factory.hpp:76] Creating layer inception_3b/output
I1105 17:20:23.345765 24412 net.cpp:106] Creating Layer inception_3b/output
I1105 17:20:23.345770 24412 net.cpp:454] inception_3b/output <- inception_3b/1x1
I1105 17:20:23.345775 24412 net.cpp:454] inception_3b/output <- inception_3b/3x3
I1105 17:20:23.345779 24412 net.cpp:454] inception_3b/output <- inception_3b/5x5
I1105 17:20:23.345784 24412 net.cpp:454] inception_3b/output <- inception_3b/pool_proj
I1105 17:20:23.345790 24412 net.cpp:411] inception_3b/output -> inception_3b/output
I1105 17:20:23.345814 24412 net.cpp:150] Setting up inception_3b/output
I1105 17:20:23.345832 24412 net.cpp:157] Top shape: 32 480 28 28 (12042240)
I1105 17:20:23.345849 24412 net.cpp:165] Memory required for data: 1078985216
I1105 17:20:23.345852 24412 layer_factory.hpp:76] Creating layer pool3/3x3_s2
I1105 17:20:23.345860 24412 net.cpp:106] Creating Layer pool3/3x3_s2
I1105 17:20:23.345865 24412 net.cpp:454] pool3/3x3_s2 <- inception_3b/output
I1105 17:20:23.345870 24412 net.cpp:411] pool3/3x3_s2 -> pool3/3x3_s2
I1105 17:20:23.346251 24412 net.cpp:150] Setting up pool3/3x3_s2
I1105 17:20:23.346261 24412 net.cpp:157] Top shape: 32 480 14 14 (3010560)
I1105 17:20:23.346266 24412 net.cpp:165] Memory required for data: 1091027456
I1105 17:20:23.346271 24412 layer_factory.hpp:76] Creating layer pool3/3x3_s2_pool3/3x3_s2_0_split
I1105 17:20:23.346277 24412 net.cpp:106] Creating Layer pool3/3x3_s2_pool3/3x3_s2_0_split
I1105 17:20:23.346282 24412 net.cpp:454] pool3/3x3_s2_pool3/3x3_s2_0_split <- pool3/3x3_s2
I1105 17:20:23.346289 24412 net.cpp:411] pool3/3x3_s2_pool3/3x3_s2_0_split -> pool3/3x3_s2_pool3/3x3_s2_0_split_0
I1105 17:20:23.346297 24412 net.cpp:411] pool3/3x3_s2_pool3/3x3_s2_0_split -> pool3/3x3_s2_pool3/3x3_s2_0_split_1
I1105 17:20:23.346302 24412 net.cpp:411] pool3/3x3_s2_pool3/3x3_s2_0_split -> pool3/3x3_s2_pool3/3x3_s2_0_split_2
I1105 17:20:23.346308 24412 net.cpp:411] pool3/3x3_s2_pool3/3x3_s2_0_split -> pool3/3x3_s2_pool3/3x3_s2_0_split_3
I1105 17:20:23.346360 24412 net.cpp:150] Setting up pool3/3x3_s2_pool3/3x3_s2_0_split
I1105 17:20:23.346370 24412 net.cpp:157] Top shape: 32 480 14 14 (3010560)
I1105 17:20:23.346375 24412 net.cpp:157] Top shape: 32 480 14 14 (3010560)
I1105 17:20:23.346380 24412 net.cpp:157] Top shape: 32 480 14 14 (3010560)
I1105 17:20:23.346385 24412 net.cpp:157] Top shape: 32 480 14 14 (3010560)
I1105 17:20:23.346388 24412 net.cpp:165] Memory required for data: 1139196416
I1105 17:20:23.346392 24412 layer_factory.hpp:76] Creating layer inception_4a/1x1
I1105 17:20:23.346400 24412 net.cpp:106] Creating Layer inception_4a/1x1
I1105 17:20:23.346405 24412 net.cpp:454] inception_4a/1x1 <- pool3/3x3_s2_pool3/3x3_s2_0_split_0
I1105 17:20:23.346412 24412 net.cpp:411] inception_4a/1x1 -> inception_4a/1x1
I1105 17:20:23.348364 24412 cudnn_conv_layer.cpp:194] Reallocating workspace storage: 10080
I1105 17:20:23.348572 24412 net.cpp:150] Setting up inception_4a/1x1
I1105 17:20:23.348582 24412 net.cpp:157] Top shape: 32 192 14 14 (1204224)
I1105 17:20:23.348587 24412 net.cpp:165] Memory required for data: 1144013312
I1105 17:20:23.348594 24412 layer_factory.hpp:76] Creating layer inception_4a/prelu_1x1
I1105 17:20:23.348604 24412 net.cpp:106] Creating Layer inception_4a/prelu_1x1
I1105 17:20:23.348609 24412 net.cpp:454] inception_4a/prelu_1x1 <- inception_4a/1x1
I1105 17:20:23.348615 24412 net.cpp:397] inception_4a/prelu_1x1 -> inception_4a/1x1 (in-place)
I1105 17:20:23.349184 24412 net.cpp:150] Setting up inception_4a/prelu_1x1
I1105 17:20:23.349197 24412 net.cpp:157] Top shape: 32 192 14 14 (1204224)
I1105 17:20:23.349201 24412 net.cpp:165] Memory required for data: 1148830208
I1105 17:20:23.349207 24412 layer_factory.hpp:76] Creating layer inception_4a/3x3_reduce
I1105 17:20:23.349217 24412 net.cpp:106] Creating Layer inception_4a/3x3_reduce
I1105 17:20:23.349222 24412 net.cpp:454] inception_4a/3x3_reduce <- pool3/3x3_s2_pool3/3x3_s2_0_split_1
I1105 17:20:23.349231 24412 net.cpp:411] inception_4a/3x3_reduce -> inception_4a/3x3_reduce
I1105 17:20:23.350528 24412 cudnn_conv_layer.cpp:194] Reallocating workspace storage: 10080
I1105 17:20:23.350554 24412 net.cpp:150] Setting up inception_4a/3x3_reduce
I1105 17:20:23.350563 24412 net.cpp:157] Top shape: 32 96 14 14 (602112)
I1105 17:20:23.350566 24412 net.cpp:165] Memory required for data: 1151238656
I1105 17:20:23.350574 24412 layer_factory.hpp:76] Creating layer inception_4a/prelu_3x3_reduce
I1105 17:20:23.350591 24412 net.cpp:106] Creating Layer inception_4a/prelu_3x3_reduce
I1105 17:20:23.350596 24412 net.cpp:454] inception_4a/prelu_3x3_reduce <- inception_4a/3x3_reduce
I1105 17:20:23.350603 24412 net.cpp:397] inception_4a/prelu_3x3_reduce -> inception_4a/3x3_reduce (in-place)
I1105 17:20:23.350728 24412 net.cpp:150] Setting up inception_4a/prelu_3x3_reduce
I1105 17:20:23.350736 24412 net.cpp:157] Top shape: 32 96 14 14 (602112)
I1105 17:20:23.350740 24412 net.cpp:165] Memory required for data: 1153647104
I1105 17:20:23.350746 24412 layer_factory.hpp:76] Creating layer inception_4a/3x3
I1105 17:20:23.350754 24412 net.cpp:106] Creating Layer inception_4a/3x3
I1105 17:20:23.350757 24412 net.cpp:454] inception_4a/3x3 <- inception_4a/3x3_reduce
I1105 17:20:23.350765 24412 net.cpp:411] inception_4a/3x3 -> inception_4a/3x3
I1105 17:20:23.353091 24412 cudnn_conv_layer.cpp:194] Reallocating workspace storage: 10080
I1105 17:20:23.353116 24412 net.cpp:150] Setting up inception_4a/3x3
I1105 17:20:23.353124 24412 net.cpp:157] Top shape: 32 208 14 14 (1304576)
I1105 17:20:23.353128 24412 net.cpp:165] Memory required for data: 1158865408
I1105 17:20:23.353135 24412 layer_factory.hpp:76] Creating layer inception_4a/prelu_3x3
I1105 17:20:23.353144 24412 net.cpp:106] Creating Layer inception_4a/prelu_3x3
I1105 17:20:23.353149 24412 net.cpp:454] inception_4a/prelu_3x3 <- inception_4a/3x3
I1105 17:20:23.353155 24412 net.cpp:397] inception_4a/prelu_3x3 -> inception_4a/3x3 (in-place)
I1105 17:20:23.353260 24412 net.cpp:150] Setting up inception_4a/prelu_3x3
I1105 17:20:23.353269 24412 net.cpp:157] Top shape: 32 208 14 14 (1304576)
I1105 17:20:23.353273 24412 net.cpp:165] Memory required for data: 1164083712
I1105 17:20:23.353278 24412 layer_factory.hpp:76] Creating layer inception_4a/5x5_reduce
I1105 17:20:23.353287 24412 net.cpp:106] Creating Layer inception_4a/5x5_reduce
I1105 17:20:23.353292 24412 net.cpp:454] inception_4a/5x5_reduce <- pool3/3x3_s2_pool3/3x3_s2_0_split_2
I1105 17:20:23.353299 24412 net.cpp:411] inception_4a/5x5_reduce -> inception_4a/5x5_reduce
I1105 17:20:23.354337 24412 cudnn_conv_layer.cpp:194] Reallocating workspace storage: 10080
I1105 17:20:23.354360 24412 net.cpp:150] Setting up inception_4a/5x5_reduce
I1105 17:20:23.354368 24412 net.cpp:157] Top shape: 32 16 14 14 (100352)
I1105 17:20:23.354372 24412 net.cpp:165] Memory required for data: 1164485120
I1105 17:20:23.354379 24412 layer_factory.hpp:76] Creating layer inception_4a/prelu_5x5_reduce
I1105 17:20:23.354388 24412 net.cpp:106] Creating Layer inception_4a/prelu_5x5_reduce
I1105 17:20:23.354393 24412 net.cpp:454] inception_4a/prelu_5x5_reduce <- inception_4a/5x5_reduce
I1105 17:20:23.354399 24412 net.cpp:397] inception_4a/prelu_5x5_reduce -> inception_4a/5x5_reduce (in-place)
I1105 17:20:23.354482 24412 net.cpp:150] Setting up inception_4a/prelu_5x5_reduce
I1105 17:20:23.354491 24412 net.cpp:157] Top shape: 32 16 14 14 (100352)
I1105 17:20:23.354496 24412 net.cpp:165] Memory required for data: 1164886528
I1105 17:20:23.354501 24412 layer_factory.hpp:76] Creating layer inception_4a/5x5
I1105 17:20:23.354509 24412 net.cpp:106] Creating Layer inception_4a/5x5
I1105 17:20:23.354514 24412 net.cpp:454] inception_4a/5x5 <- inception_4a/5x5_reduce
I1105 17:20:23.354521 24412 net.cpp:411] inception_4a/5x5 -> inception_4a/5x5
I1105 17:20:23.355623 24412 cudnn_conv_layer.cpp:194] Reallocating workspace storage: 13080
I1105 17:20:23.355646 24412 net.cpp:150] Setting up inception_4a/5x5
I1105 17:20:23.355654 24412 net.cpp:157] Top shape: 32 48 14 14 (301056)
I1105 17:20:23.355659 24412 net.cpp:165] Memory required for data: 1166090752
I1105 17:20:23.355677 24412 layer_factory.hpp:76] Creating layer inception_4a/prelu_5x5
I1105 17:20:23.355687 24412 net.cpp:106] Creating Layer inception_4a/prelu_5x5
I1105 17:20:23.355692 24412 net.cpp:454] inception_4a/prelu_5x5 <- inception_4a/5x5
I1105 17:20:23.355698 24412 net.cpp:397] inception_4a/prelu_5x5 -> inception_4a/5x5 (in-place)
I1105 17:20:23.355824 24412 net.cpp:150] Setting up inception_4a/prelu_5x5
I1105 17:20:23.355834 24412 net.cpp:157] Top shape: 32 48 14 14 (301056)
I1105 17:20:23.355837 24412 net.cpp:165] Memory required for data: 1167294976
I1105 17:20:23.355842 24412 layer_factory.hpp:76] Creating layer inception_4a/pool
I1105 17:20:23.355849 24412 net.cpp:106] Creating Layer inception_4a/pool
I1105 17:20:23.355854 24412 net.cpp:454] inception_4a/pool <- pool3/3x3_s2_pool3/3x3_s2_0_split_3
I1105 17:20:23.355861 24412 net.cpp:411] inception_4a/pool -> inception_4a/pool
I1105 17:20:23.356279 24412 net.cpp:150] Setting up inception_4a/pool
I1105 17:20:23.356292 24412 net.cpp:157] Top shape: 32 480 14 14 (3010560)
I1105 17:20:23.356295 24412 net.cpp:165] Memory required for data: 1179337216
I1105 17:20:23.356300 24412 layer_factory.hpp:76] Creating layer inception_4a/pool_proj
I1105 17:20:23.356309 24412 net.cpp:106] Creating Layer inception_4a/pool_proj
I1105 17:20:23.356314 24412 net.cpp:454] inception_4a/pool_proj <- inception_4a/pool
I1105 17:20:23.356323 24412 net.cpp:411] inception_4a/pool_proj -> inception_4a/pool_proj
I1105 17:20:23.357326 24412 cudnn_conv_layer.cpp:194] Reallocating workspace storage: 10080
I1105 17:20:23.357354 24412 net.cpp:150] Setting up inception_4a/pool_proj
I1105 17:20:23.357362 24412 net.cpp:157] Top shape: 32 64 14 14 (401408)
I1105 17:20:23.357367 24412 net.cpp:165] Memory required for data: 1180942848
I1105 17:20:23.357374 24412 layer_factory.hpp:76] Creating layer inception_4a/prelu_pool_proj
I1105 17:20:23.357381 24412 net.cpp:106] Creating Layer inception_4a/prelu_pool_proj
I1105 17:20:23.357386 24412 net.cpp:454] inception_4a/prelu_pool_proj <- inception_4a/pool_proj
I1105 17:20:23.357393 24412 net.cpp:397] inception_4a/prelu_pool_proj -> inception_4a/pool_proj (in-place)
I1105 17:20:23.357492 24412 net.cpp:150] Setting up inception_4a/prelu_pool_proj
I1105 17:20:23.357501 24412 net.cpp:157] Top shape: 32 64 14 14 (401408)
I1105 17:20:23.357506 24412 net.cpp:165] Memory required for data: 1182548480
I1105 17:20:23.357511 24412 layer_factory.hpp:76] Creating layer inception_4a/output
I1105 17:20:23.357518 24412 net.cpp:106] Creating Layer inception_4a/output
I1105 17:20:23.357522 24412 net.cpp:454] inception_4a/output <- inception_4a/1x1
I1105 17:20:23.357527 24412 net.cpp:454] inception_4a/output <- inception_4a/3x3
I1105 17:20:23.357532 24412 net.cpp:454] inception_4a/output <- inception_4a/5x5
I1105 17:20:23.357537 24412 net.cpp:454] inception_4a/output <- inception_4a/pool_proj
I1105 17:20:23.357553 24412 net.cpp:411] inception_4a/output -> inception_4a/output
I1105 17:20:23.357578 24412 net.cpp:150] Setting up inception_4a/output
I1105 17:20:23.357586 24412 net.cpp:157] Top shape: 32 512 14 14 (3211264)
I1105 17:20:23.357589 24412 net.cpp:165] Memory required for data: 1195393536
I1105 17:20:23.357594 24412 layer_factory.hpp:76] Creating layer inception_4a/output_inception_4a/output_0_split
I1105 17:20:23.357602 24412 net.cpp:106] Creating Layer inception_4a/output_inception_4a/output_0_split
I1105 17:20:23.357607 24412 net.cpp:454] inception_4a/output_inception_4a/output_0_split <- inception_4a/output
I1105 17:20:23.357614 24412 net.cpp:411] inception_4a/output_inception_4a/output_0_split -> inception_4a/output_inception_4a/output_0_split_0
I1105 17:20:23.357620 24412 net.cpp:411] inception_4a/output_inception_4a/output_0_split -> inception_4a/output_inception_4a/output_0_split_1
I1105 17:20:23.357627 24412 net.cpp:411] inception_4a/output_inception_4a/output_0_split -> inception_4a/output_inception_4a/output_0_split_2
I1105 17:20:23.357633 24412 net.cpp:411] inception_4a/output_inception_4a/output_0_split -> inception_4a/output_inception_4a/output_0_split_3
I1105 17:20:23.357652 24412 net.cpp:411] inception_4a/output_inception_4a/output_0_split -> inception_4a/output_inception_4a/output_0_split_4
I1105 17:20:23.357753 24412 net.cpp:150] Setting up inception_4a/output_inception_4a/output_0_split
I1105 17:20:23.357760 24412 net.cpp:157] Top shape: 32 512 14 14 (3211264)
I1105 17:20:23.357765 24412 net.cpp:157] Top shape: 32 512 14 14 (3211264)
I1105 17:20:23.357770 24412 net.cpp:157] Top shape: 32 512 14 14 (3211264)
I1105 17:20:23.357775 24412 net.cpp:157] Top shape: 32 512 14 14 (3211264)
I1105 17:20:23.357780 24412 net.cpp:157] Top shape: 32 512 14 14 (3211264)
I1105 17:20:23.357784 24412 net.cpp:165] Memory required for data: 1259618816
I1105 17:20:23.357789 24412 layer_factory.hpp:76] Creating layer loss1/ave_pool
I1105 17:20:23.357795 24412 net.cpp:106] Creating Layer loss1/ave_pool
I1105 17:20:23.357800 24412 net.cpp:454] loss1/ave_pool <- inception_4a/output_inception_4a/output_0_split_0
I1105 17:20:23.357805 24412 net.cpp:411] loss1/ave_pool -> loss1/ave_pool
I1105 17:20:23.358162 24412 net.cpp:150] Setting up loss1/ave_pool
I1105 17:20:23.358175 24412 net.cpp:157] Top shape: 32 512 4 4 (262144)
I1105 17:20:23.358178 24412 net.cpp:165] Memory required for data: 1260667392
I1105 17:20:23.358182 24412 layer_factory.hpp:76] Creating layer loss1/conv
I1105 17:20:23.358192 24412 net.cpp:106] Creating Layer loss1/conv
I1105 17:20:23.358197 24412 net.cpp:454] loss1/conv <- loss1/ave_pool
I1105 17:20:23.358204 24412 net.cpp:411] loss1/conv -> loss1/conv
I1105 17:20:23.359601 24412 cudnn_conv_layer.cpp:194] Reallocating workspace storage: 6840
I1105 17:20:23.359624 24412 net.cpp:150] Setting up loss1/conv
I1105 17:20:23.359632 24412 net.cpp:157] Top shape: 32 128 4 4 (65536)
I1105 17:20:23.359637 24412 net.cpp:165] Memory required for data: 1260929536
I1105 17:20:23.359654 24412 layer_factory.hpp:76] Creating layer loss1/prelu_conv
I1105 17:20:23.359668 24412 net.cpp:106] Creating Layer loss1/prelu_conv
I1105 17:20:23.359673 24412 net.cpp:454] loss1/prelu_conv <- loss1/conv
I1105 17:20:23.359681 24412 net.cpp:397] loss1/prelu_conv -> loss1/conv (in-place)
I1105 17:20:23.359768 24412 net.cpp:150] Setting up loss1/prelu_conv
I1105 17:20:23.359777 24412 net.cpp:157] Top shape: 32 128 4 4 (65536)
I1105 17:20:23.359781 24412 net.cpp:165] Memory required for data: 1261191680
I1105 17:20:23.359786 24412 layer_factory.hpp:76] Creating layer loss1/fc
I1105 17:20:23.359799 24412 net.cpp:106] Creating Layer loss1/fc
I1105 17:20:23.359803 24412 net.cpp:454] loss1/fc <- loss1/conv
I1105 17:20:23.359810 24412 net.cpp:411] loss1/fc -> loss1/fc
I1105 17:20:23.374902 24412 net.cpp:150] Setting up loss1/fc
I1105 17:20:23.374948 24412 net.cpp:157] Top shape: 32 1024 (32768)
I1105 17:20:23.374953 24412 net.cpp:165] Memory required for data: 1261322752
I1105 17:20:23.374965 24412 layer_factory.hpp:76] Creating layer loss1/prelu_fc
I1105 17:20:23.374992 24412 net.cpp:106] Creating Layer loss1/prelu_fc
I1105 17:20:23.375000 24412 net.cpp:454] loss1/prelu_fc <- loss1/fc
I1105 17:20:23.375011 24412 net.cpp:397] loss1/prelu_fc -> loss1/fc (in-place)
I1105 17:20:23.375144 24412 net.cpp:150] Setting up loss1/prelu_fc
I1105 17:20:23.375154 24412 net.cpp:157] Top shape: 32 1024 (32768)
I1105 17:20:23.375159 24412 net.cpp:165] Memory required for data: 1261453824
I1105 17:20:23.375164 24412 layer_factory.hpp:76] Creating layer loss1/drop_fc
I1105 17:20:23.375196 24412 net.cpp:106] Creating Layer loss1/drop_fc
I1105 17:20:23.375202 24412 net.cpp:454] loss1/drop_fc <- loss1/fc
I1105 17:20:23.375208 24412 net.cpp:397] loss1/drop_fc -> loss1/fc (in-place)
I1105 17:20:23.375263 24412 net.cpp:150] Setting up loss1/drop_fc
I1105 17:20:23.375272 24412 net.cpp:157] Top shape: 32 1024 (32768)
I1105 17:20:23.375275 24412 net.cpp:165] Memory required for data: 1261584896
I1105 17:20:23.375280 24412 layer_factory.hpp:76] Creating layer loss1/classifier2
I1105 17:20:23.375309 24412 net.cpp:106] Creating Layer loss1/classifier2
I1105 17:20:23.375313 24412 net.cpp:454] loss1/classifier2 <- loss1/fc
I1105 17:20:23.375339 24412 net.cpp:411] loss1/classifier2 -> loss1/classifier
I1105 17:20:23.375491 24412 net.cpp:150] Setting up loss1/classifier2
I1105 17:20:23.375501 24412 net.cpp:157] Top shape: 32 2 (64)
I1105 17:20:23.375505 24412 net.cpp:165] Memory required for data: 1261585152
I1105 17:20:23.375511 24412 layer_factory.hpp:76] Creating layer loss1/loss
I1105 17:20:23.375531 24412 net.cpp:106] Creating Layer loss1/loss
I1105 17:20:23.375536 24412 net.cpp:454] loss1/loss <- loss1/classifier
I1105 17:20:23.375542 24412 net.cpp:454] loss1/loss <- label_data_1_split_0
I1105 17:20:23.375547 24412 net.cpp:411] loss1/loss -> loss1/loss1
I1105 17:20:23.375582 24412 layer_factory.hpp:76] Creating layer loss1/loss
I1105 17:20:23.375963 24412 net.cpp:150] Setting up loss1/loss
I1105 17:20:23.375977 24412 net.cpp:157] Top shape: (1)
I1105 17:20:23.375982 24412 net.cpp:160]     with loss weight 0.3
I1105 17:20:23.376026 24412 net.cpp:165] Memory required for data: 1261585156
I1105 17:20:23.376032 24412 layer_factory.hpp:76] Creating layer inception_4b/1x1
I1105 17:20:23.376046 24412 net.cpp:106] Creating Layer inception_4b/1x1
I1105 17:20:23.376052 24412 net.cpp:454] inception_4b/1x1 <- inception_4a/output_inception_4a/output_0_split_1
I1105 17:20:23.376061 24412 net.cpp:411] inception_4b/1x1 -> inception_4b/1x1
I1105 17:20:23.377845 24412 cudnn_conv_layer.cpp:194] Reallocating workspace storage: 10080
I1105 17:20:23.377882 24412 net.cpp:150] Setting up inception_4b/1x1
I1105 17:20:23.377893 24412 net.cpp:157] Top shape: 32 160 14 14 (1003520)
I1105 17:20:23.377897 24412 net.cpp:165] Memory required for data: 1265599236
I1105 17:20:23.377905 24412 layer_factory.hpp:76] Creating layer inception_4b/prelu_1x1
I1105 17:20:23.377919 24412 net.cpp:106] Creating Layer inception_4b/prelu_1x1
I1105 17:20:23.377924 24412 net.cpp:454] inception_4b/prelu_1x1 <- inception_4b/1x1
I1105 17:20:23.377931 24412 net.cpp:397] inception_4b/prelu_1x1 -> inception_4b/1x1 (in-place)
I1105 17:20:23.378531 24412 net.cpp:150] Setting up inception_4b/prelu_1x1
I1105 17:20:23.378546 24412 net.cpp:157] Top shape: 32 160 14 14 (1003520)
I1105 17:20:23.378551 24412 net.cpp:165] Memory required for data: 1269613316
I1105 17:20:23.378556 24412 layer_factory.hpp:76] Creating layer inception_4b/3x3_reduce
I1105 17:20:23.378568 24412 net.cpp:106] Creating Layer inception_4b/3x3_reduce
I1105 17:20:23.378573 24412 net.cpp:454] inception_4b/3x3_reduce <- inception_4a/output_inception_4a/output_0_split_2
I1105 17:20:23.378582 24412 net.cpp:411] inception_4b/3x3_reduce -> inception_4b/3x3_reduce
I1105 17:20:23.380184 24412 cudnn_conv_layer.cpp:194] Reallocating workspace storage: 10080
I1105 17:20:23.380214 24412 net.cpp:150] Setting up inception_4b/3x3_reduce
I1105 17:20:23.380223 24412 net.cpp:157] Top shape: 32 112 14 14 (702464)
I1105 17:20:23.380226 24412 net.cpp:165] Memory required for data: 1272423172
I1105 17:20:23.380234 24412 layer_factory.hpp:76] Creating layer inception_4b/prelu_3x3_reduce
I1105 17:20:23.380242 24412 net.cpp:106] Creating Layer inception_4b/prelu_3x3_reduce
I1105 17:20:23.380247 24412 net.cpp:454] inception_4b/prelu_3x3_reduce <- inception_4b/3x3_reduce
I1105 17:20:23.380254 24412 net.cpp:397] inception_4b/prelu_3x3_reduce -> inception_4b/3x3_reduce (in-place)
I1105 17:20:23.380352 24412 net.cpp:150] Setting up inception_4b/prelu_3x3_reduce
I1105 17:20:23.380362 24412 net.cpp:157] Top shape: 32 112 14 14 (702464)
I1105 17:20:23.380365 24412 net.cpp:165] Memory required for data: 1275233028
I1105 17:20:23.380372 24412 layer_factory.hpp:76] Creating layer inception_4b/3x3
I1105 17:20:23.380379 24412 net.cpp:106] Creating Layer inception_4b/3x3
I1105 17:20:23.380384 24412 net.cpp:454] inception_4b/3x3 <- inception_4b/3x3_reduce
I1105 17:20:23.380390 24412 net.cpp:411] inception_4b/3x3 -> inception_4b/3x3
I1105 17:20:23.383224 24412 cudnn_conv_layer.cpp:194] Reallocating workspace storage: 10080
I1105 17:20:23.383256 24412 net.cpp:150] Setting up inception_4b/3x3
I1105 17:20:23.383265 24412 net.cpp:157] Top shape: 32 224 14 14 (1404928)
I1105 17:20:23.383299 24412 net.cpp:165] Memory required for data: 1280852740
I1105 17:20:23.383309 24412 layer_factory.hpp:76] Creating layer inception_4b/prelu_3x3
I1105 17:20:23.383321 24412 net.cpp:106] Creating Layer inception_4b/prelu_3x3
I1105 17:20:23.383326 24412 net.cpp:454] inception_4b/prelu_3x3 <- inception_4b/3x3
I1105 17:20:23.383344 24412 net.cpp:397] inception_4b/prelu_3x3 -> inception_4b/3x3 (in-place)
I1105 17:20:23.383489 24412 net.cpp:150] Setting up inception_4b/prelu_3x3
I1105 17:20:23.383501 24412 net.cpp:157] Top shape: 32 224 14 14 (1404928)
I1105 17:20:23.383504 24412 net.cpp:165] Memory required for data: 1286472452
I1105 17:20:23.383510 24412 layer_factory.hpp:76] Creating layer inception_4b/5x5_reduce
I1105 17:20:23.383518 24412 net.cpp:106] Creating Layer inception_4b/5x5_reduce
I1105 17:20:23.383523 24412 net.cpp:454] inception_4b/5x5_reduce <- inception_4a/output_inception_4a/output_0_split_3
I1105 17:20:23.383530 24412 net.cpp:411] inception_4b/5x5_reduce -> inception_4b/5x5_reduce
I1105 17:20:23.384455 24412 cudnn_conv_layer.cpp:194] Reallocating workspace storage: 10080
I1105 17:20:23.384481 24412 net.cpp:150] Setting up inception_4b/5x5_reduce
I1105 17:20:23.384488 24412 net.cpp:157] Top shape: 32 24 14 14 (150528)
I1105 17:20:23.384492 24412 net.cpp:165] Memory required for data: 1287074564
I1105 17:20:23.384500 24412 layer_factory.hpp:76] Creating layer inception_4b/prelu_5x5_reduce
I1105 17:20:23.384518 24412 net.cpp:106] Creating Layer inception_4b/prelu_5x5_reduce
I1105 17:20:23.384524 24412 net.cpp:454] inception_4b/prelu_5x5_reduce <- inception_4b/5x5_reduce
I1105 17:20:23.384532 24412 net.cpp:397] inception_4b/prelu_5x5_reduce -> inception_4b/5x5_reduce (in-place)
I1105 17:20:23.384657 24412 net.cpp:150] Setting up inception_4b/prelu_5x5_reduce
I1105 17:20:23.384666 24412 net.cpp:157] Top shape: 32 24 14 14 (150528)
I1105 17:20:23.384670 24412 net.cpp:165] Memory required for data: 1287676676
I1105 17:20:23.384675 24412 layer_factory.hpp:76] Creating layer inception_4b/5x5
I1105 17:20:23.384685 24412 net.cpp:106] Creating Layer inception_4b/5x5
I1105 17:20:23.384690 24412 net.cpp:454] inception_4b/5x5 <- inception_4b/5x5_reduce
I1105 17:20:23.384696 24412 net.cpp:411] inception_4b/5x5 -> inception_4b/5x5
I1105 17:20:23.385973 24412 cudnn_conv_layer.cpp:194] Reallocating workspace storage: 13080
I1105 17:20:23.385999 24412 net.cpp:150] Setting up inception_4b/5x5
I1105 17:20:23.386008 24412 net.cpp:157] Top shape: 32 64 14 14 (401408)
I1105 17:20:23.386011 24412 net.cpp:165] Memory required for data: 1289282308
I1105 17:20:23.386018 24412 layer_factory.hpp:76] Creating layer inception_4b/prelu_5x5
I1105 17:20:23.386037 24412 net.cpp:106] Creating Layer inception_4b/prelu_5x5
I1105 17:20:23.386044 24412 net.cpp:454] inception_4b/prelu_5x5 <- inception_4b/5x5
I1105 17:20:23.386049 24412 net.cpp:397] inception_4b/prelu_5x5 -> inception_4b/5x5 (in-place)
I1105 17:20:23.386185 24412 net.cpp:150] Setting up inception_4b/prelu_5x5
I1105 17:20:23.386194 24412 net.cpp:157] Top shape: 32 64 14 14 (401408)
I1105 17:20:23.386198 24412 net.cpp:165] Memory required for data: 1290887940
I1105 17:20:23.386214 24412 layer_factory.hpp:76] Creating layer inception_4b/pool
I1105 17:20:23.386222 24412 net.cpp:106] Creating Layer inception_4b/pool
I1105 17:20:23.386230 24412 net.cpp:454] inception_4b/pool <- inception_4a/output_inception_4a/output_0_split_4
I1105 17:20:23.386236 24412 net.cpp:411] inception_4b/pool -> inception_4b/pool
I1105 17:20:23.386641 24412 net.cpp:150] Setting up inception_4b/pool
I1105 17:20:23.386654 24412 net.cpp:157] Top shape: 32 512 14 14 (3211264)
I1105 17:20:23.386658 24412 net.cpp:165] Memory required for data: 1303732996
I1105 17:20:23.386663 24412 layer_factory.hpp:76] Creating layer inception_4b/pool_proj
I1105 17:20:23.386673 24412 net.cpp:106] Creating Layer inception_4b/pool_proj
I1105 17:20:23.386679 24412 net.cpp:454] inception_4b/pool_proj <- inception_4b/pool
I1105 17:20:23.386687 24412 net.cpp:411] inception_4b/pool_proj -> inception_4b/pool_proj
I1105 17:20:23.387925 24412 cudnn_conv_layer.cpp:194] Reallocating workspace storage: 10080
I1105 17:20:23.387955 24412 net.cpp:150] Setting up inception_4b/pool_proj
I1105 17:20:23.387964 24412 net.cpp:157] Top shape: 32 64 14 14 (401408)
I1105 17:20:23.387967 24412 net.cpp:165] Memory required for data: 1305338628
I1105 17:20:23.387974 24412 layer_factory.hpp:76] Creating layer inception_4b/prelu_pool_proj
I1105 17:20:23.387984 24412 net.cpp:106] Creating Layer inception_4b/prelu_pool_proj
I1105 17:20:23.387989 24412 net.cpp:454] inception_4b/prelu_pool_proj <- inception_4b/pool_proj
I1105 17:20:23.387995 24412 net.cpp:397] inception_4b/prelu_pool_proj -> inception_4b/pool_proj (in-place)
I1105 17:20:23.388095 24412 net.cpp:150] Setting up inception_4b/prelu_pool_proj
I1105 17:20:23.388104 24412 net.cpp:157] Top shape: 32 64 14 14 (401408)
I1105 17:20:23.388108 24412 net.cpp:165] Memory required for data: 1306944260
I1105 17:20:23.388114 24412 layer_factory.hpp:76] Creating layer inception_4b/output
I1105 17:20:23.388121 24412 net.cpp:106] Creating Layer inception_4b/output
I1105 17:20:23.388125 24412 net.cpp:454] inception_4b/output <- inception_4b/1x1
I1105 17:20:23.388130 24412 net.cpp:454] inception_4b/output <- inception_4b/3x3
I1105 17:20:23.388135 24412 net.cpp:454] inception_4b/output <- inception_4b/5x5
I1105 17:20:23.388140 24412 net.cpp:454] inception_4b/output <- inception_4b/pool_proj
I1105 17:20:23.388146 24412 net.cpp:411] inception_4b/output -> inception_4b/output
I1105 17:20:23.388172 24412 net.cpp:150] Setting up inception_4b/output
I1105 17:20:23.388181 24412 net.cpp:157] Top shape: 32 512 14 14 (3211264)
I1105 17:20:23.388185 24412 net.cpp:165] Memory required for data: 1319789316
I1105 17:20:23.388190 24412 layer_factory.hpp:76] Creating layer inception_4b/output_inception_4b/output_0_split
I1105 17:20:23.388218 24412 net.cpp:106] Creating Layer inception_4b/output_inception_4b/output_0_split
I1105 17:20:23.388223 24412 net.cpp:454] inception_4b/output_inception_4b/output_0_split <- inception_4b/output
I1105 17:20:23.388228 24412 net.cpp:411] inception_4b/output_inception_4b/output_0_split -> inception_4b/output_inception_4b/output_0_split_0
I1105 17:20:23.388236 24412 net.cpp:411] inception_4b/output_inception_4b/output_0_split -> inception_4b/output_inception_4b/output_0_split_1
I1105 17:20:23.388242 24412 net.cpp:411] inception_4b/output_inception_4b/output_0_split -> inception_4b/output_inception_4b/output_0_split_2
I1105 17:20:23.388252 24412 net.cpp:411] inception_4b/output_inception_4b/output_0_split -> inception_4b/output_inception_4b/output_0_split_3
I1105 17:20:23.388329 24412 net.cpp:150] Setting up inception_4b/output_inception_4b/output_0_split
I1105 17:20:23.388339 24412 net.cpp:157] Top shape: 32 512 14 14 (3211264)
I1105 17:20:23.388344 24412 net.cpp:157] Top shape: 32 512 14 14 (3211264)
I1105 17:20:23.388348 24412 net.cpp:157] Top shape: 32 512 14 14 (3211264)
I1105 17:20:23.388352 24412 net.cpp:157] Top shape: 32 512 14 14 (3211264)
I1105 17:20:23.388356 24412 net.cpp:165] Memory required for data: 1371169540
I1105 17:20:23.388360 24412 layer_factory.hpp:76] Creating layer inception_4c/1x1
I1105 17:20:23.388368 24412 net.cpp:106] Creating Layer inception_4c/1x1
I1105 17:20:23.388372 24412 net.cpp:454] inception_4c/1x1 <- inception_4b/output_inception_4b/output_0_split_0
I1105 17:20:23.388381 24412 net.cpp:411] inception_4c/1x1 -> inception_4c/1x1
I1105 17:20:23.390132 24412 cudnn_conv_layer.cpp:194] Reallocating workspace storage: 10080
I1105 17:20:23.390163 24412 net.cpp:150] Setting up inception_4c/1x1
I1105 17:20:23.390172 24412 net.cpp:157] Top shape: 32 128 14 14 (802816)
I1105 17:20:23.390177 24412 net.cpp:165] Memory required for data: 1374380804
I1105 17:20:23.390184 24412 layer_factory.hpp:76] Creating layer inception_4c/prelu_1x1
I1105 17:20:23.390193 24412 net.cpp:106] Creating Layer inception_4c/prelu_1x1
I1105 17:20:23.390198 24412 net.cpp:454] inception_4c/prelu_1x1 <- inception_4c/1x1
I1105 17:20:23.390205 24412 net.cpp:397] inception_4c/prelu_1x1 -> inception_4c/1x1 (in-place)
I1105 17:20:23.390321 24412 net.cpp:150] Setting up inception_4c/prelu_1x1
I1105 17:20:23.390331 24412 net.cpp:157] Top shape: 32 128 14 14 (802816)
I1105 17:20:23.390336 24412 net.cpp:165] Memory required for data: 1377592068
I1105 17:20:23.390341 24412 layer_factory.hpp:76] Creating layer inception_4c/3x3_reduce
I1105 17:20:23.390350 24412 net.cpp:106] Creating Layer inception_4c/3x3_reduce
I1105 17:20:23.390354 24412 net.cpp:454] inception_4c/3x3_reduce <- inception_4b/output_inception_4b/output_0_split_1
I1105 17:20:23.390362 24412 net.cpp:411] inception_4c/3x3_reduce -> inception_4c/3x3_reduce
I1105 17:20:23.391775 24412 cudnn_conv_layer.cpp:194] Reallocating workspace storage: 10080
I1105 17:20:23.391800 24412 net.cpp:150] Setting up inception_4c/3x3_reduce
I1105 17:20:23.391808 24412 net.cpp:157] Top shape: 32 128 14 14 (802816)
I1105 17:20:23.391813 24412 net.cpp:165] Memory required for data: 1380803332
I1105 17:20:23.391819 24412 layer_factory.hpp:76] Creating layer inception_4c/prelu_3x3_reduce
I1105 17:20:23.391829 24412 net.cpp:106] Creating Layer inception_4c/prelu_3x3_reduce
I1105 17:20:23.391835 24412 net.cpp:454] inception_4c/prelu_3x3_reduce <- inception_4c/3x3_reduce
I1105 17:20:23.391841 24412 net.cpp:397] inception_4c/prelu_3x3_reduce -> inception_4c/3x3_reduce (in-place)
I1105 17:20:23.391942 24412 net.cpp:150] Setting up inception_4c/prelu_3x3_reduce
I1105 17:20:23.391950 24412 net.cpp:157] Top shape: 32 128 14 14 (802816)
I1105 17:20:23.391954 24412 net.cpp:165] Memory required for data: 1384014596
I1105 17:20:23.391960 24412 layer_factory.hpp:76] Creating layer inception_4c/3x3
I1105 17:20:23.391969 24412 net.cpp:106] Creating Layer inception_4c/3x3
I1105 17:20:23.391974 24412 net.cpp:454] inception_4c/3x3 <- inception_4c/3x3_reduce
I1105 17:20:23.391980 24412 net.cpp:411] inception_4c/3x3 -> inception_4c/3x3
I1105 17:20:23.395174 24412 cudnn_conv_layer.cpp:194] Reallocating workspace storage: 10080
I1105 17:20:23.395201 24412 net.cpp:150] Setting up inception_4c/3x3
I1105 17:20:23.395210 24412 net.cpp:157] Top shape: 32 256 14 14 (1605632)
I1105 17:20:23.395215 24412 net.cpp:165] Memory required for data: 1390437124
I1105 17:20:23.395221 24412 layer_factory.hpp:76] Creating layer inception_4c/prelu_3x3
I1105 17:20:23.395241 24412 net.cpp:106] Creating Layer inception_4c/prelu_3x3
I1105 17:20:23.395246 24412 net.cpp:454] inception_4c/prelu_3x3 <- inception_4c/3x3
I1105 17:20:23.395252 24412 net.cpp:397] inception_4c/prelu_3x3 -> inception_4c/3x3 (in-place)
I1105 17:20:23.395401 24412 net.cpp:150] Setting up inception_4c/prelu_3x3
I1105 17:20:23.395411 24412 net.cpp:157] Top shape: 32 256 14 14 (1605632)
I1105 17:20:23.395414 24412 net.cpp:165] Memory required for data: 1396859652
I1105 17:20:23.395419 24412 layer_factory.hpp:76] Creating layer inception_4c/5x5_reduce
I1105 17:20:23.395429 24412 net.cpp:106] Creating Layer inception_4c/5x5_reduce
I1105 17:20:23.395434 24412 net.cpp:454] inception_4c/5x5_reduce <- inception_4b/output_inception_4b/output_0_split_2
I1105 17:20:23.395442 24412 net.cpp:411] inception_4c/5x5_reduce -> inception_4c/5x5_reduce
I1105 17:20:23.396553 24412 cudnn_conv_layer.cpp:194] Reallocating workspace storage: 10080
I1105 17:20:23.396585 24412 net.cpp:150] Setting up inception_4c/5x5_reduce
I1105 17:20:23.396595 24412 net.cpp:157] Top shape: 32 24 14 14 (150528)
I1105 17:20:23.396598 24412 net.cpp:165] Memory required for data: 1397461764
I1105 17:20:23.396605 24412 layer_factory.hpp:76] Creating layer inception_4c/prelu_5x5_reduce
I1105 17:20:23.396622 24412 net.cpp:106] Creating Layer inception_4c/prelu_5x5_reduce
I1105 17:20:23.396636 24412 net.cpp:454] inception_4c/prelu_5x5_reduce <- inception_4c/5x5_reduce
I1105 17:20:23.396643 24412 net.cpp:397] inception_4c/prelu_5x5_reduce -> inception_4c/5x5_reduce (in-place)
I1105 17:20:23.396764 24412 net.cpp:150] Setting up inception_4c/prelu_5x5_reduce
I1105 17:20:23.396772 24412 net.cpp:157] Top shape: 32 24 14 14 (150528)
I1105 17:20:23.396776 24412 net.cpp:165] Memory required for data: 1398063876
I1105 17:20:23.396793 24412 layer_factory.hpp:76] Creating layer inception_4c/5x5
I1105 17:20:23.396803 24412 net.cpp:106] Creating Layer inception_4c/5x5
I1105 17:20:23.396807 24412 net.cpp:454] inception_4c/5x5 <- inception_4c/5x5_reduce
I1105 17:20:23.396823 24412 net.cpp:411] inception_4c/5x5 -> inception_4c/5x5
I1105 17:20:23.398499 24412 cudnn_conv_layer.cpp:194] Reallocating workspace storage: 13080
I1105 17:20:23.398524 24412 net.cpp:150] Setting up inception_4c/5x5
I1105 17:20:23.398532 24412 net.cpp:157] Top shape: 32 64 14 14 (401408)
I1105 17:20:23.398536 24412 net.cpp:165] Memory required for data: 1399669508
I1105 17:20:23.398543 24412 layer_factory.hpp:76] Creating layer inception_4c/prelu_5x5
I1105 17:20:23.398551 24412 net.cpp:106] Creating Layer inception_4c/prelu_5x5
I1105 17:20:23.398556 24412 net.cpp:454] inception_4c/prelu_5x5 <- inception_4c/5x5
I1105 17:20:23.398561 24412 net.cpp:397] inception_4c/prelu_5x5 -> inception_4c/5x5 (in-place)
I1105 17:20:23.398668 24412 net.cpp:150] Setting up inception_4c/prelu_5x5
I1105 17:20:23.398676 24412 net.cpp:157] Top shape: 32 64 14 14 (401408)
I1105 17:20:23.398680 24412 net.cpp:165] Memory required for data: 1401275140
I1105 17:20:23.398685 24412 layer_factory.hpp:76] Creating layer inception_4c/pool
I1105 17:20:23.398694 24412 net.cpp:106] Creating Layer inception_4c/pool
I1105 17:20:23.398697 24412 net.cpp:454] inception_4c/pool <- inception_4b/output_inception_4b/output_0_split_3
I1105 17:20:23.398704 24412 net.cpp:411] inception_4c/pool -> inception_4c/pool
I1105 17:20:23.398880 24412 net.cpp:150] Setting up inception_4c/pool
I1105 17:20:23.398890 24412 net.cpp:157] Top shape: 32 512 14 14 (3211264)
I1105 17:20:23.398895 24412 net.cpp:165] Memory required for data: 1414120196
I1105 17:20:23.398898 24412 layer_factory.hpp:76] Creating layer inception_4c/pool_proj
I1105 17:20:23.398907 24412 net.cpp:106] Creating Layer inception_4c/pool_proj
I1105 17:20:23.398911 24412 net.cpp:454] inception_4c/pool_proj <- inception_4c/pool
I1105 17:20:23.398919 24412 net.cpp:411] inception_4c/pool_proj -> inception_4c/pool_proj
I1105 17:20:23.400306 24412 cudnn_conv_layer.cpp:194] Reallocating workspace storage: 10080
I1105 17:20:23.400334 24412 net.cpp:150] Setting up inception_4c/pool_proj
I1105 17:20:23.400342 24412 net.cpp:157] Top shape: 32 64 14 14 (401408)
I1105 17:20:23.400346 24412 net.cpp:165] Memory required for data: 1415725828
I1105 17:20:23.400353 24412 layer_factory.hpp:76] Creating layer inception_4c/prelu_pool_proj
I1105 17:20:23.400360 24412 net.cpp:106] Creating Layer inception_4c/prelu_pool_proj
I1105 17:20:23.400367 24412 net.cpp:454] inception_4c/prelu_pool_proj <- inception_4c/pool_proj
I1105 17:20:23.400373 24412 net.cpp:397] inception_4c/prelu_pool_proj -> inception_4c/pool_proj (in-place)
I1105 17:20:23.400473 24412 net.cpp:150] Setting up inception_4c/prelu_pool_proj
I1105 17:20:23.400482 24412 net.cpp:157] Top shape: 32 64 14 14 (401408)
I1105 17:20:23.400486 24412 net.cpp:165] Memory required for data: 1417331460
I1105 17:20:23.400492 24412 layer_factory.hpp:76] Creating layer inception_4c/output
I1105 17:20:23.400499 24412 net.cpp:106] Creating Layer inception_4c/output
I1105 17:20:23.400504 24412 net.cpp:454] inception_4c/output <- inception_4c/1x1
I1105 17:20:23.400509 24412 net.cpp:454] inception_4c/output <- inception_4c/3x3
I1105 17:20:23.400514 24412 net.cpp:454] inception_4c/output <- inception_4c/5x5
I1105 17:20:23.400518 24412 net.cpp:454] inception_4c/output <- inception_4c/pool_proj
I1105 17:20:23.400526 24412 net.cpp:411] inception_4c/output -> inception_4c/output
I1105 17:20:23.400550 24412 net.cpp:150] Setting up inception_4c/output
I1105 17:20:23.400559 24412 net.cpp:157] Top shape: 32 512 14 14 (3211264)
I1105 17:20:23.400563 24412 net.cpp:165] Memory required for data: 1430176516
I1105 17:20:23.400566 24412 layer_factory.hpp:76] Creating layer inception_4c/output_inception_4c/output_0_split
I1105 17:20:23.400573 24412 net.cpp:106] Creating Layer inception_4c/output_inception_4c/output_0_split
I1105 17:20:23.400578 24412 net.cpp:454] inception_4c/output_inception_4c/output_0_split <- inception_4c/output
I1105 17:20:23.400594 24412 net.cpp:411] inception_4c/output_inception_4c/output_0_split -> inception_4c/output_inception_4c/output_0_split_0
I1105 17:20:23.400602 24412 net.cpp:411] inception_4c/output_inception_4c/output_0_split -> inception_4c/output_inception_4c/output_0_split_1
I1105 17:20:23.400609 24412 net.cpp:411] inception_4c/output_inception_4c/output_0_split -> inception_4c/output_inception_4c/output_0_split_2
I1105 17:20:23.400616 24412 net.cpp:411] inception_4c/output_inception_4c/output_0_split -> inception_4c/output_inception_4c/output_0_split_3
I1105 17:20:23.400677 24412 net.cpp:150] Setting up inception_4c/output_inception_4c/output_0_split
I1105 17:20:23.400686 24412 net.cpp:157] Top shape: 32 512 14 14 (3211264)
I1105 17:20:23.400691 24412 net.cpp:157] Top shape: 32 512 14 14 (3211264)
I1105 17:20:23.400696 24412 net.cpp:157] Top shape: 32 512 14 14 (3211264)
I1105 17:20:23.400701 24412 net.cpp:157] Top shape: 32 512 14 14 (3211264)
I1105 17:20:23.400704 24412 net.cpp:165] Memory required for data: 1481556740
I1105 17:20:23.400708 24412 layer_factory.hpp:76] Creating layer inception_4d/1x1
I1105 17:20:23.400717 24412 net.cpp:106] Creating Layer inception_4d/1x1
I1105 17:20:23.400720 24412 net.cpp:454] inception_4d/1x1 <- inception_4c/output_inception_4c/output_0_split_0
I1105 17:20:23.400727 24412 net.cpp:411] inception_4d/1x1 -> inception_4d/1x1
I1105 17:20:23.402117 24412 cudnn_conv_layer.cpp:194] Reallocating workspace storage: 10080
I1105 17:20:23.402149 24412 net.cpp:150] Setting up inception_4d/1x1
I1105 17:20:23.402158 24412 net.cpp:157] Top shape: 32 112 14 14 (702464)
I1105 17:20:23.402161 24412 net.cpp:165] Memory required for data: 1484366596
I1105 17:20:23.402176 24412 layer_factory.hpp:76] Creating layer inception_4d/prelu_1x1
I1105 17:20:23.402185 24412 net.cpp:106] Creating Layer inception_4d/prelu_1x1
I1105 17:20:23.402190 24412 net.cpp:454] inception_4d/prelu_1x1 <- inception_4d/1x1
I1105 17:20:23.402196 24412 net.cpp:397] inception_4d/prelu_1x1 -> inception_4d/1x1 (in-place)
I1105 17:20:23.402323 24412 net.cpp:150] Setting up inception_4d/prelu_1x1
I1105 17:20:23.402331 24412 net.cpp:157] Top shape: 32 112 14 14 (702464)
I1105 17:20:23.402335 24412 net.cpp:165] Memory required for data: 1487176452
I1105 17:20:23.402341 24412 layer_factory.hpp:76] Creating layer inception_4d/3x3_reduce
I1105 17:20:23.402349 24412 net.cpp:106] Creating Layer inception_4d/3x3_reduce
I1105 17:20:23.402354 24412 net.cpp:454] inception_4d/3x3_reduce <- inception_4c/output_inception_4c/output_0_split_1
I1105 17:20:23.402362 24412 net.cpp:411] inception_4d/3x3_reduce -> inception_4d/3x3_reduce
I1105 17:20:23.403638 24412 cudnn_conv_layer.cpp:194] Reallocating workspace storage: 10080
I1105 17:20:23.403662 24412 net.cpp:150] Setting up inception_4d/3x3_reduce
I1105 17:20:23.403671 24412 net.cpp:157] Top shape: 32 144 14 14 (903168)
I1105 17:20:23.403674 24412 net.cpp:165] Memory required for data: 1490789124
I1105 17:20:23.403681 24412 layer_factory.hpp:76] Creating layer inception_4d/prelu_3x3_reduce
I1105 17:20:23.403688 24412 net.cpp:106] Creating Layer inception_4d/prelu_3x3_reduce
I1105 17:20:23.403693 24412 net.cpp:454] inception_4d/prelu_3x3_reduce <- inception_4d/3x3_reduce
I1105 17:20:23.403700 24412 net.cpp:397] inception_4d/prelu_3x3_reduce -> inception_4d/3x3_reduce (in-place)
I1105 17:20:23.403825 24412 net.cpp:150] Setting up inception_4d/prelu_3x3_reduce
I1105 17:20:23.403834 24412 net.cpp:157] Top shape: 32 144 14 14 (903168)
I1105 17:20:23.403838 24412 net.cpp:165] Memory required for data: 1494401796
I1105 17:20:23.403844 24412 layer_factory.hpp:76] Creating layer inception_4d/3x3
I1105 17:20:23.403853 24412 net.cpp:106] Creating Layer inception_4d/3x3
I1105 17:20:23.403858 24412 net.cpp:454] inception_4d/3x3 <- inception_4d/3x3_reduce
I1105 17:20:23.403874 24412 net.cpp:411] inception_4d/3x3 -> inception_4d/3x3
I1105 17:20:23.407672 24412 cudnn_conv_layer.cpp:194] Reallocating workspace storage: 10080
I1105 17:20:23.407738 24412 net.cpp:150] Setting up inception_4d/3x3
I1105 17:20:23.407748 24412 net.cpp:157] Top shape: 32 288 14 14 (1806336)
I1105 17:20:23.407752 24412 net.cpp:165] Memory required for data: 1501627140
I1105 17:20:23.407762 24412 layer_factory.hpp:76] Creating layer inception_4d/prelu_3x3
I1105 17:20:23.407781 24412 net.cpp:106] Creating Layer inception_4d/prelu_3x3
I1105 17:20:23.407788 24412 net.cpp:454] inception_4d/prelu_3x3 <- inception_4d/3x3
I1105 17:20:23.407798 24412 net.cpp:397] inception_4d/prelu_3x3 -> inception_4d/3x3 (in-place)
I1105 17:20:23.407975 24412 net.cpp:150] Setting up inception_4d/prelu_3x3
I1105 17:20:23.407985 24412 net.cpp:157] Top shape: 32 288 14 14 (1806336)
I1105 17:20:23.407989 24412 net.cpp:165] Memory required for data: 1508852484
I1105 17:20:23.407994 24412 layer_factory.hpp:76] Creating layer inception_4d/5x5_reduce
I1105 17:20:23.408004 24412 net.cpp:106] Creating Layer inception_4d/5x5_reduce
I1105 17:20:23.408010 24412 net.cpp:454] inception_4d/5x5_reduce <- inception_4c/output_inception_4c/output_0_split_2
I1105 17:20:23.408017 24412 net.cpp:411] inception_4d/5x5_reduce -> inception_4d/5x5_reduce
I1105 17:20:23.409272 24412 cudnn_conv_layer.cpp:194] Reallocating workspace storage: 10080
I1105 17:20:23.409304 24412 net.cpp:150] Setting up inception_4d/5x5_reduce
I1105 17:20:23.409312 24412 net.cpp:157] Top shape: 32 32 14 14 (200704)
I1105 17:20:23.409317 24412 net.cpp:165] Memory required for data: 1509655300
I1105 17:20:23.409324 24412 layer_factory.hpp:76] Creating layer inception_4d/prelu_5x5_reduce
I1105 17:20:23.409344 24412 net.cpp:106] Creating Layer inception_4d/prelu_5x5_reduce
I1105 17:20:23.409349 24412 net.cpp:454] inception_4d/prelu_5x5_reduce <- inception_4d/5x5_reduce
I1105 17:20:23.409358 24412 net.cpp:397] inception_4d/prelu_5x5_reduce -> inception_4d/5x5_reduce (in-place)
I1105 17:20:23.409479 24412 net.cpp:150] Setting up inception_4d/prelu_5x5_reduce
I1105 17:20:23.409488 24412 net.cpp:157] Top shape: 32 32 14 14 (200704)
I1105 17:20:23.409492 24412 net.cpp:165] Memory required for data: 1510458116
I1105 17:20:23.409509 24412 layer_factory.hpp:76] Creating layer inception_4d/5x5
I1105 17:20:23.409520 24412 net.cpp:106] Creating Layer inception_4d/5x5
I1105 17:20:23.409525 24412 net.cpp:454] inception_4d/5x5 <- inception_4d/5x5_reduce
I1105 17:20:23.409533 24412 net.cpp:411] inception_4d/5x5 -> inception_4d/5x5
I1105 17:20:23.411413 24412 cudnn_conv_layer.cpp:194] Reallocating workspace storage: 13080
I1105 17:20:23.411456 24412 net.cpp:150] Setting up inception_4d/5x5
I1105 17:20:23.411468 24412 net.cpp:157] Top shape: 32 64 14 14 (401408)
I1105 17:20:23.411478 24412 net.cpp:165] Memory required for data: 1512063748
I1105 17:20:23.411485 24412 layer_factory.hpp:76] Creating layer inception_4d/prelu_5x5
I1105 17:20:23.411515 24412 net.cpp:106] Creating Layer inception_4d/prelu_5x5
I1105 17:20:23.411520 24412 net.cpp:454] inception_4d/prelu_5x5 <- inception_4d/5x5
I1105 17:20:23.411528 24412 net.cpp:397] inception_4d/prelu_5x5 -> inception_4d/5x5 (in-place)
I1105 17:20:23.411640 24412 net.cpp:150] Setting up inception_4d/prelu_5x5
I1105 17:20:23.411650 24412 net.cpp:157] Top shape: 32 64 14 14 (401408)
I1105 17:20:23.411654 24412 net.cpp:165] Memory required for data: 1513669380
I1105 17:20:23.411659 24412 layer_factory.hpp:76] Creating layer inception_4d/pool
I1105 17:20:23.411669 24412 net.cpp:106] Creating Layer inception_4d/pool
I1105 17:20:23.411677 24412 net.cpp:454] inception_4d/pool <- inception_4c/output_inception_4c/output_0_split_3
I1105 17:20:23.411685 24412 net.cpp:411] inception_4d/pool -> inception_4d/pool
I1105 17:20:23.411897 24412 net.cpp:150] Setting up inception_4d/pool
I1105 17:20:23.411918 24412 net.cpp:157] Top shape: 32 512 14 14 (3211264)
I1105 17:20:23.411923 24412 net.cpp:165] Memory required for data: 1526514436
I1105 17:20:23.411928 24412 layer_factory.hpp:76] Creating layer inception_4d/pool_proj
I1105 17:20:23.411949 24412 net.cpp:106] Creating Layer inception_4d/pool_proj
I1105 17:20:23.411954 24412 net.cpp:454] inception_4d/pool_proj <- inception_4d/pool
I1105 17:20:23.411979 24412 net.cpp:411] inception_4d/pool_proj -> inception_4d/pool_proj
I1105 17:20:23.413358 24412 cudnn_conv_layer.cpp:194] Reallocating workspace storage: 10080
I1105 17:20:23.413404 24412 net.cpp:150] Setting up inception_4d/pool_proj
I1105 17:20:23.413424 24412 net.cpp:157] Top shape: 32 64 14 14 (401408)
I1105 17:20:23.413429 24412 net.cpp:165] Memory required for data: 1528120068
I1105 17:20:23.413439 24412 layer_factory.hpp:76] Creating layer inception_4d/prelu_pool_proj
I1105 17:20:23.413460 24412 net.cpp:106] Creating Layer inception_4d/prelu_pool_proj
I1105 17:20:23.413467 24412 net.cpp:454] inception_4d/prelu_pool_proj <- inception_4d/pool_proj
I1105 17:20:23.413475 24412 net.cpp:397] inception_4d/prelu_pool_proj -> inception_4d/pool_proj (in-place)
I1105 17:20:23.413600 24412 net.cpp:150] Setting up inception_4d/prelu_pool_proj
I1105 17:20:23.413610 24412 net.cpp:157] Top shape: 32 64 14 14 (401408)
I1105 17:20:23.413614 24412 net.cpp:165] Memory required for data: 1529725700
I1105 17:20:23.413620 24412 layer_factory.hpp:76] Creating layer inception_4d/output
I1105 17:20:23.413628 24412 net.cpp:106] Creating Layer inception_4d/output
I1105 17:20:23.413633 24412 net.cpp:454] inception_4d/output <- inception_4d/1x1
I1105 17:20:23.413638 24412 net.cpp:454] inception_4d/output <- inception_4d/3x3
I1105 17:20:23.413643 24412 net.cpp:454] inception_4d/output <- inception_4d/5x5
I1105 17:20:23.413648 24412 net.cpp:454] inception_4d/output <- inception_4d/pool_proj
I1105 17:20:23.413666 24412 net.cpp:411] inception_4d/output -> inception_4d/output
I1105 17:20:23.413697 24412 net.cpp:150] Setting up inception_4d/output
I1105 17:20:23.413715 24412 net.cpp:157] Top shape: 32 528 14 14 (3311616)
I1105 17:20:23.413719 24412 net.cpp:165] Memory required for data: 1542972164
I1105 17:20:23.413723 24412 layer_factory.hpp:76] Creating layer inception_4d/output_inception_4d/output_0_split
I1105 17:20:23.413741 24412 net.cpp:106] Creating Layer inception_4d/output_inception_4d/output_0_split
I1105 17:20:23.413745 24412 net.cpp:454] inception_4d/output_inception_4d/output_0_split <- inception_4d/output
I1105 17:20:23.413753 24412 net.cpp:411] inception_4d/output_inception_4d/output_0_split -> inception_4d/output_inception_4d/output_0_split_0
I1105 17:20:23.413760 24412 net.cpp:411] inception_4d/output_inception_4d/output_0_split -> inception_4d/output_inception_4d/output_0_split_1
I1105 17:20:23.413768 24412 net.cpp:411] inception_4d/output_inception_4d/output_0_split -> inception_4d/output_inception_4d/output_0_split_2
I1105 17:20:23.413774 24412 net.cpp:411] inception_4d/output_inception_4d/output_0_split -> inception_4d/output_inception_4d/output_0_split_3
I1105 17:20:23.413780 24412 net.cpp:411] inception_4d/output_inception_4d/output_0_split -> inception_4d/output_inception_4d/output_0_split_4
I1105 17:20:23.413864 24412 net.cpp:150] Setting up inception_4d/output_inception_4d/output_0_split
I1105 17:20:23.413872 24412 net.cpp:157] Top shape: 32 528 14 14 (3311616)
I1105 17:20:23.413878 24412 net.cpp:157] Top shape: 32 528 14 14 (3311616)
I1105 17:20:23.413882 24412 net.cpp:157] Top shape: 32 528 14 14 (3311616)
I1105 17:20:23.413887 24412 net.cpp:157] Top shape: 32 528 14 14 (3311616)
I1105 17:20:23.413892 24412 net.cpp:157] Top shape: 32 528 14 14 (3311616)
I1105 17:20:23.413895 24412 net.cpp:165] Memory required for data: 1609204484
I1105 17:20:23.413910 24412 layer_factory.hpp:76] Creating layer loss2/ave_pool
I1105 17:20:23.413920 24412 net.cpp:106] Creating Layer loss2/ave_pool
I1105 17:20:23.413925 24412 net.cpp:454] loss2/ave_pool <- inception_4d/output_inception_4d/output_0_split_0
I1105 17:20:23.413933 24412 net.cpp:411] loss2/ave_pool -> loss2/ave_pool
I1105 17:20:23.414348 24412 net.cpp:150] Setting up loss2/ave_pool
I1105 17:20:23.414365 24412 net.cpp:157] Top shape: 32 528 4 4 (270336)
I1105 17:20:23.414369 24412 net.cpp:165] Memory required for data: 1610285828
I1105 17:20:23.414373 24412 layer_factory.hpp:76] Creating layer loss2/conv
I1105 17:20:23.414418 24412 net.cpp:106] Creating Layer loss2/conv
I1105 17:20:23.414425 24412 net.cpp:454] loss2/conv <- loss2/ave_pool
I1105 17:20:23.414433 24412 net.cpp:411] loss2/conv -> loss2/conv
I1105 17:20:23.416188 24412 cudnn_conv_layer.cpp:194] Reallocating workspace storage: 6840
I1105 17:20:23.416249 24412 net.cpp:150] Setting up loss2/conv
I1105 17:20:23.416271 24412 net.cpp:157] Top shape: 32 128 4 4 (65536)
I1105 17:20:23.416277 24412 net.cpp:165] Memory required for data: 1610547972
I1105 17:20:23.416292 24412 layer_factory.hpp:76] Creating layer loss2/prelu_conv
I1105 17:20:23.416311 24412 net.cpp:106] Creating Layer loss2/prelu_conv
I1105 17:20:23.416316 24412 net.cpp:454] loss2/prelu_conv <- loss2/conv
I1105 17:20:23.416326 24412 net.cpp:397] loss2/prelu_conv -> loss2/conv (in-place)
I1105 17:20:23.416456 24412 net.cpp:150] Setting up loss2/prelu_conv
I1105 17:20:23.416468 24412 net.cpp:157] Top shape: 32 128 4 4 (65536)
I1105 17:20:23.416472 24412 net.cpp:165] Memory required for data: 1610810116
I1105 17:20:23.416478 24412 layer_factory.hpp:76] Creating layer loss2/fc
I1105 17:20:23.416497 24412 net.cpp:106] Creating Layer loss2/fc
I1105 17:20:23.416502 24412 net.cpp:454] loss2/fc <- loss2/conv
I1105 17:20:23.416510 24412 net.cpp:411] loss2/fc -> loss2/fc
I1105 17:20:23.432173 24412 net.cpp:150] Setting up loss2/fc
I1105 17:20:23.432216 24412 net.cpp:157] Top shape: 32 1024 (32768)
I1105 17:20:23.432232 24412 net.cpp:165] Memory required for data: 1610941188
I1105 17:20:23.432267 24412 layer_factory.hpp:76] Creating layer loss2/prelu_fc
I1105 17:20:23.432294 24412 net.cpp:106] Creating Layer loss2/prelu_fc
I1105 17:20:23.432313 24412 net.cpp:454] loss2/prelu_fc <- loss2/fc
I1105 17:20:23.432323 24412 net.cpp:397] loss2/prelu_fc -> loss2/fc (in-place)
I1105 17:20:23.432463 24412 net.cpp:150] Setting up loss2/prelu_fc
I1105 17:20:23.432474 24412 net.cpp:157] Top shape: 32 1024 (32768)
I1105 17:20:23.432478 24412 net.cpp:165] Memory required for data: 1611072260
I1105 17:20:23.432494 24412 layer_factory.hpp:76] Creating layer loss2/drop_fc
I1105 17:20:23.432505 24412 net.cpp:106] Creating Layer loss2/drop_fc
I1105 17:20:23.432509 24412 net.cpp:454] loss2/drop_fc <- loss2/fc
I1105 17:20:23.432515 24412 net.cpp:397] loss2/drop_fc -> loss2/fc (in-place)
I1105 17:20:23.432556 24412 net.cpp:150] Setting up loss2/drop_fc
I1105 17:20:23.432565 24412 net.cpp:157] Top shape: 32 1024 (32768)
I1105 17:20:23.432569 24412 net.cpp:165] Memory required for data: 1611203332
I1105 17:20:23.432584 24412 layer_factory.hpp:76] Creating layer loss2/classifier2
I1105 17:20:23.432603 24412 net.cpp:106] Creating Layer loss2/classifier2
I1105 17:20:23.432608 24412 net.cpp:454] loss2/classifier2 <- loss2/fc
I1105 17:20:23.432615 24412 net.cpp:411] loss2/classifier2 -> loss2/classifier
I1105 17:20:23.432792 24412 net.cpp:150] Setting up loss2/classifier2
I1105 17:20:23.432803 24412 net.cpp:157] Top shape: 32 2 (64)
I1105 17:20:23.432807 24412 net.cpp:165] Memory required for data: 1611203588
I1105 17:20:23.432826 24412 layer_factory.hpp:76] Creating layer loss2/loss
I1105 17:20:23.432832 24412 net.cpp:106] Creating Layer loss2/loss
I1105 17:20:23.432837 24412 net.cpp:454] loss2/loss <- loss2/classifier
I1105 17:20:23.432843 24412 net.cpp:454] loss2/loss <- label_data_1_split_1
I1105 17:20:23.432848 24412 net.cpp:411] loss2/loss -> loss2/loss1
I1105 17:20:23.432869 24412 layer_factory.hpp:76] Creating layer loss2/loss
I1105 17:20:23.433341 24412 net.cpp:150] Setting up loss2/loss
I1105 17:20:23.433363 24412 net.cpp:157] Top shape: (1)
I1105 17:20:23.433382 24412 net.cpp:160]     with loss weight 0.3
I1105 17:20:23.433404 24412 net.cpp:165] Memory required for data: 1611203592
I1105 17:20:23.433421 24412 layer_factory.hpp:76] Creating layer inception_4e/1x1
I1105 17:20:23.433435 24412 net.cpp:106] Creating Layer inception_4e/1x1
I1105 17:20:23.433441 24412 net.cpp:454] inception_4e/1x1 <- inception_4d/output_inception_4d/output_0_split_1
I1105 17:20:23.433451 24412 net.cpp:411] inception_4e/1x1 -> inception_4e/1x1
I1105 17:20:23.436113 24412 cudnn_conv_layer.cpp:194] Reallocating workspace storage: 10080
I1105 17:20:23.436172 24412 net.cpp:150] Setting up inception_4e/1x1
I1105 17:20:23.436182 24412 net.cpp:157] Top shape: 32 256 14 14 (1605632)
I1105 17:20:23.436187 24412 net.cpp:165] Memory required for data: 1617626120
I1105 17:20:23.436208 24412 layer_factory.hpp:76] Creating layer inception_4e/prelu_1x1
I1105 17:20:23.436218 24412 net.cpp:106] Creating Layer inception_4e/prelu_1x1
I1105 17:20:23.436224 24412 net.cpp:454] inception_4e/prelu_1x1 <- inception_4e/1x1
I1105 17:20:23.436233 24412 net.cpp:397] inception_4e/prelu_1x1 -> inception_4e/1x1 (in-place)
I1105 17:20:23.436404 24412 net.cpp:150] Setting up inception_4e/prelu_1x1
I1105 17:20:23.436417 24412 net.cpp:157] Top shape: 32 256 14 14 (1605632)
I1105 17:20:23.436421 24412 net.cpp:165] Memory required for data: 1624048648
I1105 17:20:23.436427 24412 layer_factory.hpp:76] Creating layer inception_4e/3x3_reduce
I1105 17:20:23.436435 24412 net.cpp:106] Creating Layer inception_4e/3x3_reduce
I1105 17:20:23.436440 24412 net.cpp:454] inception_4e/3x3_reduce <- inception_4d/output_inception_4d/output_0_split_2
I1105 17:20:23.436450 24412 net.cpp:411] inception_4e/3x3_reduce -> inception_4e/3x3_reduce
I1105 17:20:23.438160 24412 cudnn_conv_layer.cpp:194] Reallocating workspace storage: 10080
I1105 17:20:23.438213 24412 net.cpp:150] Setting up inception_4e/3x3_reduce
I1105 17:20:23.438223 24412 net.cpp:157] Top shape: 32 160 14 14 (1003520)
I1105 17:20:23.438238 24412 net.cpp:165] Memory required for data: 1628062728
I1105 17:20:23.438248 24412 layer_factory.hpp:76] Creating layer inception_4e/prelu_3x3_reduce
I1105 17:20:23.438261 24412 net.cpp:106] Creating Layer inception_4e/prelu_3x3_reduce
I1105 17:20:23.438267 24412 net.cpp:454] inception_4e/prelu_3x3_reduce <- inception_4e/3x3_reduce
I1105 17:20:23.438276 24412 net.cpp:397] inception_4e/prelu_3x3_reduce -> inception_4e/3x3_reduce (in-place)
I1105 17:20:23.438428 24412 net.cpp:150] Setting up inception_4e/prelu_3x3_reduce
I1105 17:20:23.438439 24412 net.cpp:157] Top shape: 32 160 14 14 (1003520)
I1105 17:20:23.438443 24412 net.cpp:165] Memory required for data: 1632076808
I1105 17:20:23.438449 24412 layer_factory.hpp:76] Creating layer inception_4e/3x3
I1105 17:20:23.438473 24412 net.cpp:106] Creating Layer inception_4e/3x3
I1105 17:20:23.438478 24412 net.cpp:454] inception_4e/3x3 <- inception_4e/3x3_reduce
I1105 17:20:23.438487 24412 net.cpp:411] inception_4e/3x3 -> inception_4e/3x3
I1105 17:20:23.443023 24412 cudnn_conv_layer.cpp:194] Reallocating workspace storage: 10080
I1105 17:20:23.443061 24412 net.cpp:150] Setting up inception_4e/3x3
I1105 17:20:23.443070 24412 net.cpp:157] Top shape: 32 320 14 14 (2007040)
I1105 17:20:23.443074 24412 net.cpp:165] Memory required for data: 1640104968
I1105 17:20:23.443083 24412 layer_factory.hpp:76] Creating layer inception_4e/prelu_3x3
I1105 17:20:23.443092 24412 net.cpp:106] Creating Layer inception_4e/prelu_3x3
I1105 17:20:23.443099 24412 net.cpp:454] inception_4e/prelu_3x3 <- inception_4e/3x3
I1105 17:20:23.443106 24412 net.cpp:397] inception_4e/prelu_3x3 -> inception_4e/3x3 (in-place)
I1105 17:20:23.443262 24412 net.cpp:150] Setting up inception_4e/prelu_3x3
I1105 17:20:23.443271 24412 net.cpp:157] Top shape: 32 320 14 14 (2007040)
I1105 17:20:23.443275 24412 net.cpp:165] Memory required for data: 1648133128
I1105 17:20:23.443281 24412 layer_factory.hpp:76] Creating layer inception_4e/5x5_reduce
I1105 17:20:23.443290 24412 net.cpp:106] Creating Layer inception_4e/5x5_reduce
I1105 17:20:23.443295 24412 net.cpp:454] inception_4e/5x5_reduce <- inception_4d/output_inception_4d/output_0_split_3
I1105 17:20:23.443303 24412 net.cpp:411] inception_4e/5x5_reduce -> inception_4e/5x5_reduce
I1105 17:20:23.444466 24412 cudnn_conv_layer.cpp:194] Reallocating workspace storage: 10080
I1105 17:20:23.444504 24412 net.cpp:150] Setting up inception_4e/5x5_reduce
I1105 17:20:23.444510 24412 net.cpp:157] Top shape: 32 32 14 14 (200704)
I1105 17:20:23.444515 24412 net.cpp:165] Memory required for data: 1648935944
I1105 17:20:23.444550 24412 layer_factory.hpp:76] Creating layer inception_4e/prelu_5x5_reduce
I1105 17:20:23.444561 24412 net.cpp:106] Creating Layer inception_4e/prelu_5x5_reduce
I1105 17:20:23.444566 24412 net.cpp:454] inception_4e/prelu_5x5_reduce <- inception_4e/5x5_reduce
I1105 17:20:23.444573 24412 net.cpp:397] inception_4e/prelu_5x5_reduce -> inception_4e/5x5_reduce (in-place)
I1105 17:20:23.444705 24412 net.cpp:150] Setting up inception_4e/prelu_5x5_reduce
I1105 17:20:23.444713 24412 net.cpp:157] Top shape: 32 32 14 14 (200704)
I1105 17:20:23.444717 24412 net.cpp:165] Memory required for data: 1649738760
I1105 17:20:23.444733 24412 layer_factory.hpp:76] Creating layer inception_4e/5x5
I1105 17:20:23.444766 24412 net.cpp:106] Creating Layer inception_4e/5x5
I1105 17:20:23.444772 24412 net.cpp:454] inception_4e/5x5 <- inception_4e/5x5_reduce
I1105 17:20:23.444778 24412 net.cpp:411] inception_4e/5x5 -> inception_4e/5x5
I1105 17:20:23.447000 24412 cudnn_conv_layer.cpp:194] Reallocating workspace storage: 13080
I1105 17:20:23.447042 24412 net.cpp:150] Setting up inception_4e/5x5
I1105 17:20:23.447053 24412 net.cpp:157] Top shape: 32 128 14 14 (802816)
I1105 17:20:23.447058 24412 net.cpp:165] Memory required for data: 1652950024
I1105 17:20:23.447067 24412 layer_factory.hpp:76] Creating layer inception_4e/prelu_5x5
I1105 17:20:23.447075 24412 net.cpp:106] Creating Layer inception_4e/prelu_5x5
I1105 17:20:23.447082 24412 net.cpp:454] inception_4e/prelu_5x5 <- inception_4e/5x5
I1105 17:20:23.447088 24412 net.cpp:397] inception_4e/prelu_5x5 -> inception_4e/5x5 (in-place)
I1105 17:20:23.447219 24412 net.cpp:150] Setting up inception_4e/prelu_5x5
I1105 17:20:23.447228 24412 net.cpp:157] Top shape: 32 128 14 14 (802816)
I1105 17:20:23.447232 24412 net.cpp:165] Memory required for data: 1656161288
I1105 17:20:23.447238 24412 layer_factory.hpp:76] Creating layer inception_4e/pool
I1105 17:20:23.447247 24412 net.cpp:106] Creating Layer inception_4e/pool
I1105 17:20:23.447252 24412 net.cpp:454] inception_4e/pool <- inception_4d/output_inception_4d/output_0_split_4
I1105 17:20:23.447259 24412 net.cpp:411] inception_4e/pool -> inception_4e/pool
I1105 17:20:23.447691 24412 net.cpp:150] Setting up inception_4e/pool
I1105 17:20:23.447703 24412 net.cpp:157] Top shape: 32 528 14 14 (3311616)
I1105 17:20:23.447707 24412 net.cpp:165] Memory required for data: 1669407752
I1105 17:20:23.447712 24412 layer_factory.hpp:76] Creating layer inception_4e/pool_proj
I1105 17:20:23.447721 24412 net.cpp:106] Creating Layer inception_4e/pool_proj
I1105 17:20:23.447727 24412 net.cpp:454] inception_4e/pool_proj <- inception_4e/pool
I1105 17:20:23.447736 24412 net.cpp:411] inception_4e/pool_proj -> inception_4e/pool_proj
I1105 17:20:23.449031 24412 cudnn_conv_layer.cpp:194] Reallocating workspace storage: 10080
I1105 17:20:23.449062 24412 net.cpp:150] Setting up inception_4e/pool_proj
I1105 17:20:23.449081 24412 net.cpp:157] Top shape: 32 128 14 14 (802816)
I1105 17:20:23.449087 24412 net.cpp:165] Memory required for data: 1672619016
I1105 17:20:23.449105 24412 layer_factory.hpp:76] Creating layer inception_4e/prelu_pool_proj
I1105 17:20:23.449113 24412 net.cpp:106] Creating Layer inception_4e/prelu_pool_proj
I1105 17:20:23.449118 24412 net.cpp:454] inception_4e/prelu_pool_proj <- inception_4e/pool_proj
I1105 17:20:23.449125 24412 net.cpp:397] inception_4e/prelu_pool_proj -> inception_4e/pool_proj (in-place)
I1105 17:20:23.449256 24412 net.cpp:150] Setting up inception_4e/prelu_pool_proj
I1105 17:20:23.449266 24412 net.cpp:157] Top shape: 32 128 14 14 (802816)
I1105 17:20:23.449270 24412 net.cpp:165] Memory required for data: 1675830280
I1105 17:20:23.449275 24412 layer_factory.hpp:76] Creating layer inception_4e/output
I1105 17:20:23.449282 24412 net.cpp:106] Creating Layer inception_4e/output
I1105 17:20:23.449286 24412 net.cpp:454] inception_4e/output <- inception_4e/1x1
I1105 17:20:23.449292 24412 net.cpp:454] inception_4e/output <- inception_4e/3x3
I1105 17:20:23.449298 24412 net.cpp:454] inception_4e/output <- inception_4e/5x5
I1105 17:20:23.449303 24412 net.cpp:454] inception_4e/output <- inception_4e/pool_proj
I1105 17:20:23.449333 24412 net.cpp:411] inception_4e/output -> inception_4e/output
I1105 17:20:23.449385 24412 net.cpp:150] Setting up inception_4e/output
I1105 17:20:23.449394 24412 net.cpp:157] Top shape: 32 832 14 14 (5218304)
I1105 17:20:23.449398 24412 net.cpp:165] Memory required for data: 1696703496
I1105 17:20:23.449403 24412 layer_factory.hpp:76] Creating layer pool4/3x3_s2
I1105 17:20:23.449411 24412 net.cpp:106] Creating Layer pool4/3x3_s2
I1105 17:20:23.449415 24412 net.cpp:454] pool4/3x3_s2 <- inception_4e/output
I1105 17:20:23.449424 24412 net.cpp:411] pool4/3x3_s2 -> pool4/3x3_s2
I1105 17:20:23.449841 24412 net.cpp:150] Setting up pool4/3x3_s2
I1105 17:20:23.449851 24412 net.cpp:157] Top shape: 32 832 7 7 (1304576)
I1105 17:20:23.449856 24412 net.cpp:165] Memory required for data: 1701921800
I1105 17:20:23.449861 24412 layer_factory.hpp:76] Creating layer pool4/3x3_s2_pool4/3x3_s2_0_split
I1105 17:20:23.449868 24412 net.cpp:106] Creating Layer pool4/3x3_s2_pool4/3x3_s2_0_split
I1105 17:20:23.449872 24412 net.cpp:454] pool4/3x3_s2_pool4/3x3_s2_0_split <- pool4/3x3_s2
I1105 17:20:23.449879 24412 net.cpp:411] pool4/3x3_s2_pool4/3x3_s2_0_split -> pool4/3x3_s2_pool4/3x3_s2_0_split_0
I1105 17:20:23.449887 24412 net.cpp:411] pool4/3x3_s2_pool4/3x3_s2_0_split -> pool4/3x3_s2_pool4/3x3_s2_0_split_1
I1105 17:20:23.449904 24412 net.cpp:411] pool4/3x3_s2_pool4/3x3_s2_0_split -> pool4/3x3_s2_pool4/3x3_s2_0_split_2
I1105 17:20:23.449911 24412 net.cpp:411] pool4/3x3_s2_pool4/3x3_s2_0_split -> pool4/3x3_s2_pool4/3x3_s2_0_split_3
I1105 17:20:23.449988 24412 net.cpp:150] Setting up pool4/3x3_s2_pool4/3x3_s2_0_split
I1105 17:20:23.449998 24412 net.cpp:157] Top shape: 32 832 7 7 (1304576)
I1105 17:20:23.450004 24412 net.cpp:157] Top shape: 32 832 7 7 (1304576)
I1105 17:20:23.450009 24412 net.cpp:157] Top shape: 32 832 7 7 (1304576)
I1105 17:20:23.450013 24412 net.cpp:157] Top shape: 32 832 7 7 (1304576)
I1105 17:20:23.450017 24412 net.cpp:165] Memory required for data: 1722795016
I1105 17:20:23.450022 24412 layer_factory.hpp:76] Creating layer inception_5a/1x1
I1105 17:20:23.450029 24412 net.cpp:106] Creating Layer inception_5a/1x1
I1105 17:20:23.450034 24412 net.cpp:454] inception_5a/1x1 <- pool4/3x3_s2_pool4/3x3_s2_0_split_0
I1105 17:20:23.450042 24412 net.cpp:411] inception_5a/1x1 -> inception_5a/1x1
I1105 17:20:23.452903 24412 cudnn_conv_layer.cpp:194] Reallocating workspace storage: 7428
I1105 17:20:23.452934 24412 net.cpp:150] Setting up inception_5a/1x1
I1105 17:20:23.452942 24412 net.cpp:157] Top shape: 32 256 7 7 (401408)
I1105 17:20:23.452946 24412 net.cpp:165] Memory required for data: 1724400648
I1105 17:20:23.452955 24412 layer_factory.hpp:76] Creating layer inception_5a/prelu_1x1
I1105 17:20:23.452965 24412 net.cpp:106] Creating Layer inception_5a/prelu_1x1
I1105 17:20:23.452970 24412 net.cpp:454] inception_5a/prelu_1x1 <- inception_5a/1x1
I1105 17:20:23.452977 24412 net.cpp:397] inception_5a/prelu_1x1 -> inception_5a/1x1 (in-place)
I1105 17:20:23.453577 24412 net.cpp:150] Setting up inception_5a/prelu_1x1
I1105 17:20:23.453589 24412 net.cpp:157] Top shape: 32 256 7 7 (401408)
I1105 17:20:23.453593 24412 net.cpp:165] Memory required for data: 1726006280
I1105 17:20:23.453600 24412 layer_factory.hpp:76] Creating layer inception_5a/3x3_reduce
I1105 17:20:23.453610 24412 net.cpp:106] Creating Layer inception_5a/3x3_reduce
I1105 17:20:23.453616 24412 net.cpp:454] inception_5a/3x3_reduce <- pool4/3x3_s2_pool4/3x3_s2_0_split_1
I1105 17:20:23.453624 24412 net.cpp:411] inception_5a/3x3_reduce -> inception_5a/3x3_reduce
I1105 17:20:23.455941 24412 cudnn_conv_layer.cpp:194] Reallocating workspace storage: 7428
I1105 17:20:23.455973 24412 net.cpp:150] Setting up inception_5a/3x3_reduce
I1105 17:20:23.455982 24412 net.cpp:157] Top shape: 32 160 7 7 (250880)
I1105 17:20:23.455987 24412 net.cpp:165] Memory required for data: 1727009800
I1105 17:20:23.456004 24412 layer_factory.hpp:76] Creating layer inception_5a/prelu_3x3_reduce
I1105 17:20:23.456013 24412 net.cpp:106] Creating Layer inception_5a/prelu_3x3_reduce
I1105 17:20:23.456035 24412 net.cpp:454] inception_5a/prelu_3x3_reduce <- inception_5a/3x3_reduce
I1105 17:20:23.456043 24412 net.cpp:397] inception_5a/prelu_3x3_reduce -> inception_5a/3x3_reduce (in-place)
I1105 17:20:23.456178 24412 net.cpp:150] Setting up inception_5a/prelu_3x3_reduce
I1105 17:20:23.456187 24412 net.cpp:157] Top shape: 32 160 7 7 (250880)
I1105 17:20:23.456192 24412 net.cpp:165] Memory required for data: 1728013320
I1105 17:20:23.456197 24412 layer_factory.hpp:76] Creating layer inception_5a/3x3
I1105 17:20:23.456207 24412 net.cpp:106] Creating Layer inception_5a/3x3
I1105 17:20:23.456212 24412 net.cpp:454] inception_5a/3x3 <- inception_5a/3x3_reduce
I1105 17:20:23.456220 24412 net.cpp:411] inception_5a/3x3 -> inception_5a/3x3
I1105 17:20:23.460469 24412 cudnn_conv_layer.cpp:194] Reallocating workspace storage: 7788
I1105 17:20:23.460510 24412 net.cpp:150] Setting up inception_5a/3x3
I1105 17:20:23.460520 24412 net.cpp:157] Top shape: 32 320 7 7 (501760)
I1105 17:20:23.460523 24412 net.cpp:165] Memory required for data: 1730020360
I1105 17:20:23.460541 24412 layer_factory.hpp:76] Creating layer inception_5a/prelu_3x3
I1105 17:20:23.460551 24412 net.cpp:106] Creating Layer inception_5a/prelu_3x3
I1105 17:20:23.460556 24412 net.cpp:454] inception_5a/prelu_3x3 <- inception_5a/3x3
I1105 17:20:23.460563 24412 net.cpp:397] inception_5a/prelu_3x3 -> inception_5a/3x3 (in-place)
I1105 17:20:23.460717 24412 net.cpp:150] Setting up inception_5a/prelu_3x3
I1105 17:20:23.460726 24412 net.cpp:157] Top shape: 32 320 7 7 (501760)
I1105 17:20:23.460731 24412 net.cpp:165] Memory required for data: 1732027400
I1105 17:20:23.460746 24412 layer_factory.hpp:76] Creating layer inception_5a/5x5_reduce
I1105 17:20:23.460755 24412 net.cpp:106] Creating Layer inception_5a/5x5_reduce
I1105 17:20:23.460760 24412 net.cpp:454] inception_5a/5x5_reduce <- pool4/3x3_s2_pool4/3x3_s2_0_split_2
I1105 17:20:23.460767 24412 net.cpp:411] inception_5a/5x5_reduce -> inception_5a/5x5_reduce
I1105 17:20:23.462015 24412 cudnn_conv_layer.cpp:194] Reallocating workspace storage: 7428
I1105 17:20:23.462051 24412 net.cpp:150] Setting up inception_5a/5x5_reduce
I1105 17:20:23.462059 24412 net.cpp:157] Top shape: 32 32 7 7 (50176)
I1105 17:20:23.462062 24412 net.cpp:165] Memory required for data: 1732228104
I1105 17:20:23.462069 24412 layer_factory.hpp:76] Creating layer inception_5a/prelu_5x5_reduce
I1105 17:20:23.462087 24412 net.cpp:106] Creating Layer inception_5a/prelu_5x5_reduce
I1105 17:20:23.462092 24412 net.cpp:454] inception_5a/prelu_5x5_reduce <- inception_5a/5x5_reduce
I1105 17:20:23.462100 24412 net.cpp:397] inception_5a/prelu_5x5_reduce -> inception_5a/5x5_reduce (in-place)
I1105 17:20:23.462224 24412 net.cpp:150] Setting up inception_5a/prelu_5x5_reduce
I1105 17:20:23.462232 24412 net.cpp:157] Top shape: 32 32 7 7 (50176)
I1105 17:20:23.462236 24412 net.cpp:165] Memory required for data: 1732428808
I1105 17:20:23.462262 24412 layer_factory.hpp:76] Creating layer inception_5a/5x5
I1105 17:20:23.462272 24412 net.cpp:106] Creating Layer inception_5a/5x5
I1105 17:20:23.462277 24412 net.cpp:454] inception_5a/5x5 <- inception_5a/5x5_reduce
I1105 17:20:23.462285 24412 net.cpp:411] inception_5a/5x5 -> inception_5a/5x5
I1105 17:20:23.463959 24412 cudnn_conv_layer.cpp:194] Reallocating workspace storage: 9804
I1105 17:20:23.463985 24412 net.cpp:150] Setting up inception_5a/5x5
I1105 17:20:23.463994 24412 net.cpp:157] Top shape: 32 128 7 7 (200704)
I1105 17:20:23.463997 24412 net.cpp:165] Memory required for data: 1733231624
I1105 17:20:23.464004 24412 layer_factory.hpp:76] Creating layer inception_5a/prelu_5x5
I1105 17:20:23.464012 24412 net.cpp:106] Creating Layer inception_5a/prelu_5x5
I1105 17:20:23.464018 24412 net.cpp:454] inception_5a/prelu_5x5 <- inception_5a/5x5
I1105 17:20:23.464025 24412 net.cpp:397] inception_5a/prelu_5x5 -> inception_5a/5x5 (in-place)
I1105 17:20:23.464126 24412 net.cpp:150] Setting up inception_5a/prelu_5x5
I1105 17:20:23.464135 24412 net.cpp:157] Top shape: 32 128 7 7 (200704)
I1105 17:20:23.464153 24412 net.cpp:165] Memory required for data: 1734034440
I1105 17:20:23.464159 24412 layer_factory.hpp:76] Creating layer inception_5a/pool
I1105 17:20:23.464166 24412 net.cpp:106] Creating Layer inception_5a/pool
I1105 17:20:23.464171 24412 net.cpp:454] inception_5a/pool <- pool4/3x3_s2_pool4/3x3_s2_0_split_3
I1105 17:20:23.464179 24412 net.cpp:411] inception_5a/pool -> inception_5a/pool
I1105 17:20:23.464366 24412 net.cpp:150] Setting up inception_5a/pool
I1105 17:20:23.464376 24412 net.cpp:157] Top shape: 32 832 7 7 (1304576)
I1105 17:20:23.464380 24412 net.cpp:165] Memory required for data: 1739252744
I1105 17:20:23.464385 24412 layer_factory.hpp:76] Creating layer inception_5a/pool_proj
I1105 17:20:23.464393 24412 net.cpp:106] Creating Layer inception_5a/pool_proj
I1105 17:20:23.464398 24412 net.cpp:454] inception_5a/pool_proj <- inception_5a/pool
I1105 17:20:23.464406 24412 net.cpp:411] inception_5a/pool_proj -> inception_5a/pool_proj
I1105 17:20:23.466714 24412 cudnn_conv_layer.cpp:194] Reallocating workspace storage: 7428
I1105 17:20:23.466743 24412 net.cpp:150] Setting up inception_5a/pool_proj
I1105 17:20:23.466752 24412 net.cpp:157] Top shape: 32 128 7 7 (200704)
I1105 17:20:23.466755 24412 net.cpp:165] Memory required for data: 1740055560
I1105 17:20:23.466761 24412 layer_factory.hpp:76] Creating layer inception_5a/prelu_pool_proj
I1105 17:20:23.466780 24412 net.cpp:106] Creating Layer inception_5a/prelu_pool_proj
I1105 17:20:23.466786 24412 net.cpp:454] inception_5a/prelu_pool_proj <- inception_5a/pool_proj
I1105 17:20:23.466794 24412 net.cpp:397] inception_5a/prelu_pool_proj -> inception_5a/pool_proj (in-place)
I1105 17:20:23.466907 24412 net.cpp:150] Setting up inception_5a/prelu_pool_proj
I1105 17:20:23.466915 24412 net.cpp:157] Top shape: 32 128 7 7 (200704)
I1105 17:20:23.466919 24412 net.cpp:165] Memory required for data: 1740858376
I1105 17:20:23.466925 24412 layer_factory.hpp:76] Creating layer inception_5a/output
I1105 17:20:23.466931 24412 net.cpp:106] Creating Layer inception_5a/output
I1105 17:20:23.466936 24412 net.cpp:454] inception_5a/output <- inception_5a/1x1
I1105 17:20:23.466941 24412 net.cpp:454] inception_5a/output <- inception_5a/3x3
I1105 17:20:23.466946 24412 net.cpp:454] inception_5a/output <- inception_5a/5x5
I1105 17:20:23.466950 24412 net.cpp:454] inception_5a/output <- inception_5a/pool_proj
I1105 17:20:23.466966 24412 net.cpp:411] inception_5a/output -> inception_5a/output
I1105 17:20:23.466997 24412 net.cpp:150] Setting up inception_5a/output
I1105 17:20:23.467005 24412 net.cpp:157] Top shape: 32 832 7 7 (1304576)
I1105 17:20:23.467020 24412 net.cpp:165] Memory required for data: 1746076680
I1105 17:20:23.467034 24412 layer_factory.hpp:76] Creating layer inception_5a/output_inception_5a/output_0_split
I1105 17:20:23.467042 24412 net.cpp:106] Creating Layer inception_5a/output_inception_5a/output_0_split
I1105 17:20:23.467047 24412 net.cpp:454] inception_5a/output_inception_5a/output_0_split <- inception_5a/output
I1105 17:20:23.467053 24412 net.cpp:411] inception_5a/output_inception_5a/output_0_split -> inception_5a/output_inception_5a/output_0_split_0
I1105 17:20:23.467061 24412 net.cpp:411] inception_5a/output_inception_5a/output_0_split -> inception_5a/output_inception_5a/output_0_split_1
I1105 17:20:23.467067 24412 net.cpp:411] inception_5a/output_inception_5a/output_0_split -> inception_5a/output_inception_5a/output_0_split_2
I1105 17:20:23.467077 24412 net.cpp:411] inception_5a/output_inception_5a/output_0_split -> inception_5a/output_inception_5a/output_0_split_3
I1105 17:20:23.467157 24412 net.cpp:150] Setting up inception_5a/output_inception_5a/output_0_split
I1105 17:20:23.467166 24412 net.cpp:157] Top shape: 32 832 7 7 (1304576)
I1105 17:20:23.467181 24412 net.cpp:157] Top shape: 32 832 7 7 (1304576)
I1105 17:20:23.467186 24412 net.cpp:157] Top shape: 32 832 7 7 (1304576)
I1105 17:20:23.467191 24412 net.cpp:157] Top shape: 32 832 7 7 (1304576)
I1105 17:20:23.467195 24412 net.cpp:165] Memory required for data: 1766949896
I1105 17:20:23.467209 24412 layer_factory.hpp:76] Creating layer inception_5b/1x1
I1105 17:20:23.467219 24412 net.cpp:106] Creating Layer inception_5b/1x1
I1105 17:20:23.467224 24412 net.cpp:454] inception_5b/1x1 <- inception_5a/output_inception_5a/output_0_split_0
I1105 17:20:23.467231 24412 net.cpp:411] inception_5b/1x1 -> inception_5b/1x1
I1105 17:20:23.471067 24412 cudnn_conv_layer.cpp:194] Reallocating workspace storage: 7428
I1105 17:20:23.471122 24412 net.cpp:150] Setting up inception_5b/1x1
I1105 17:20:23.471134 24412 net.cpp:157] Top shape: 32 384 7 7 (602112)
I1105 17:20:23.471139 24412 net.cpp:165] Memory required for data: 1769358344
I1105 17:20:23.471148 24412 layer_factory.hpp:76] Creating layer inception_5b/prelu_1x1
I1105 17:20:23.471163 24412 net.cpp:106] Creating Layer inception_5b/prelu_1x1
I1105 17:20:23.471168 24412 net.cpp:454] inception_5b/prelu_1x1 <- inception_5b/1x1
I1105 17:20:23.471176 24412 net.cpp:397] inception_5b/prelu_1x1 -> inception_5b/1x1 (in-place)
I1105 17:20:23.471820 24412 net.cpp:150] Setting up inception_5b/prelu_1x1
I1105 17:20:23.471839 24412 net.cpp:157] Top shape: 32 384 7 7 (602112)
I1105 17:20:23.471853 24412 net.cpp:165] Memory required for data: 1771766792
I1105 17:20:23.471860 24412 layer_factory.hpp:76] Creating layer inception_5b/3x3_reduce
I1105 17:20:23.471874 24412 net.cpp:106] Creating Layer inception_5b/3x3_reduce
I1105 17:20:23.471880 24412 net.cpp:454] inception_5b/3x3_reduce <- inception_5a/output_inception_5a/output_0_split_1
I1105 17:20:23.471899 24412 net.cpp:411] inception_5b/3x3_reduce -> inception_5b/3x3_reduce
I1105 17:20:23.474597 24412 cudnn_conv_layer.cpp:194] Reallocating workspace storage: 7428
I1105 17:20:23.474637 24412 net.cpp:150] Setting up inception_5b/3x3_reduce
I1105 17:20:23.474645 24412 net.cpp:157] Top shape: 32 192 7 7 (301056)
I1105 17:20:23.474650 24412 net.cpp:165] Memory required for data: 1772971016
I1105 17:20:23.474669 24412 layer_factory.hpp:76] Creating layer inception_5b/prelu_3x3_reduce
I1105 17:20:23.474681 24412 net.cpp:106] Creating Layer inception_5b/prelu_3x3_reduce
I1105 17:20:23.474689 24412 net.cpp:454] inception_5b/prelu_3x3_reduce <- inception_5b/3x3_reduce
I1105 17:20:23.474695 24412 net.cpp:397] inception_5b/prelu_3x3_reduce -> inception_5b/3x3_reduce (in-place)
I1105 17:20:23.474822 24412 net.cpp:150] Setting up inception_5b/prelu_3x3_reduce
I1105 17:20:23.474833 24412 net.cpp:157] Top shape: 32 192 7 7 (301056)
I1105 17:20:23.474836 24412 net.cpp:165] Memory required for data: 1774175240
I1105 17:20:23.474841 24412 layer_factory.hpp:76] Creating layer inception_5b/3x3
I1105 17:20:23.474853 24412 net.cpp:106] Creating Layer inception_5b/3x3
I1105 17:20:23.474858 24412 net.cpp:454] inception_5b/3x3 <- inception_5b/3x3_reduce
I1105 17:20:23.474865 24412 net.cpp:411] inception_5b/3x3 -> inception_5b/3x3
I1105 17:20:23.481043 24412 cudnn_conv_layer.cpp:194] Reallocating workspace storage: 7788
I1105 17:20:23.481148 24412 net.cpp:150] Setting up inception_5b/3x3
I1105 17:20:23.481178 24412 net.cpp:157] Top shape: 32 384 7 7 (602112)
I1105 17:20:23.481194 24412 net.cpp:165] Memory required for data: 1776583688
I1105 17:20:23.481204 24412 layer_factory.hpp:76] Creating layer inception_5b/prelu_3x3
I1105 17:20:23.481216 24412 net.cpp:106] Creating Layer inception_5b/prelu_3x3
I1105 17:20:23.481225 24412 net.cpp:454] inception_5b/prelu_3x3 <- inception_5b/3x3
I1105 17:20:23.481233 24412 net.cpp:397] inception_5b/prelu_3x3 -> inception_5b/3x3 (in-place)
I1105 17:20:23.481377 24412 net.cpp:150] Setting up inception_5b/prelu_3x3
I1105 17:20:23.481389 24412 net.cpp:157] Top shape: 32 384 7 7 (602112)
I1105 17:20:23.481392 24412 net.cpp:165] Memory required for data: 1778992136
I1105 17:20:23.481408 24412 layer_factory.hpp:76] Creating layer inception_5b/5x5_reduce
I1105 17:20:23.481430 24412 net.cpp:106] Creating Layer inception_5b/5x5_reduce
I1105 17:20:23.481436 24412 net.cpp:454] inception_5b/5x5_reduce <- inception_5a/output_inception_5a/output_0_split_2
I1105 17:20:23.481444 24412 net.cpp:411] inception_5b/5x5_reduce -> inception_5b/5x5_reduce
I1105 17:20:23.482748 24412 cudnn_conv_layer.cpp:194] Reallocating workspace storage: 7428
I1105 17:20:23.482795 24412 net.cpp:150] Setting up inception_5b/5x5_reduce
I1105 17:20:23.482805 24412 net.cpp:157] Top shape: 32 48 7 7 (75264)
I1105 17:20:23.482810 24412 net.cpp:165] Memory required for data: 1779293192
I1105 17:20:23.482817 24412 layer_factory.hpp:76] Creating layer inception_5b/prelu_5x5_reduce
I1105 17:20:23.482828 24412 net.cpp:106] Creating Layer inception_5b/prelu_5x5_reduce
I1105 17:20:23.482834 24412 net.cpp:454] inception_5b/prelu_5x5_reduce <- inception_5b/5x5_reduce
I1105 17:20:23.482841 24412 net.cpp:397] inception_5b/prelu_5x5_reduce -> inception_5b/5x5_reduce (in-place)
I1105 17:20:23.482972 24412 net.cpp:150] Setting up inception_5b/prelu_5x5_reduce
I1105 17:20:23.482982 24412 net.cpp:157] Top shape: 32 48 7 7 (75264)
I1105 17:20:23.482986 24412 net.cpp:165] Memory required for data: 1779594248
I1105 17:20:23.482991 24412 layer_factory.hpp:76] Creating layer inception_5b/5x5
I1105 17:20:23.483001 24412 net.cpp:106] Creating Layer inception_5b/5x5
I1105 17:20:23.483006 24412 net.cpp:454] inception_5b/5x5 <- inception_5b/5x5_reduce
I1105 17:20:23.483016 24412 net.cpp:411] inception_5b/5x5 -> inception_5b/5x5
I1105 17:20:23.485085 24412 cudnn_conv_layer.cpp:194] Reallocating workspace storage: 9804
I1105 17:20:23.485119 24412 net.cpp:150] Setting up inception_5b/5x5
I1105 17:20:23.485128 24412 net.cpp:157] Top shape: 32 128 7 7 (200704)
I1105 17:20:23.485132 24412 net.cpp:165] Memory required for data: 1780397064
I1105 17:20:23.485149 24412 layer_factory.hpp:76] Creating layer inception_5b/prelu_5x5
I1105 17:20:23.485160 24412 net.cpp:106] Creating Layer inception_5b/prelu_5x5
I1105 17:20:23.485167 24412 net.cpp:454] inception_5b/prelu_5x5 <- inception_5b/5x5
I1105 17:20:23.485172 24412 net.cpp:397] inception_5b/prelu_5x5 -> inception_5b/5x5 (in-place)
I1105 17:20:23.485297 24412 net.cpp:150] Setting up inception_5b/prelu_5x5
I1105 17:20:23.485307 24412 net.cpp:157] Top shape: 32 128 7 7 (200704)
I1105 17:20:23.485311 24412 net.cpp:165] Memory required for data: 1781199880
I1105 17:20:23.485317 24412 layer_factory.hpp:76] Creating layer inception_5b/pool
I1105 17:20:23.485335 24412 net.cpp:106] Creating Layer inception_5b/pool
I1105 17:20:23.485340 24412 net.cpp:454] inception_5b/pool <- inception_5a/output_inception_5a/output_0_split_3
I1105 17:20:23.485348 24412 net.cpp:411] inception_5b/pool -> inception_5b/pool
I1105 17:20:23.485893 24412 net.cpp:150] Setting up inception_5b/pool
I1105 17:20:23.485906 24412 net.cpp:157] Top shape: 32 832 7 7 (1304576)
I1105 17:20:23.485911 24412 net.cpp:165] Memory required for data: 1786418184
I1105 17:20:23.485915 24412 layer_factory.hpp:76] Creating layer inception_5b/pool_proj
I1105 17:20:23.485926 24412 net.cpp:106] Creating Layer inception_5b/pool_proj
I1105 17:20:23.485942 24412 net.cpp:454] inception_5b/pool_proj <- inception_5b/pool
I1105 17:20:23.485950 24412 net.cpp:411] inception_5b/pool_proj -> inception_5b/pool_proj
I1105 17:20:23.488251 24412 cudnn_conv_layer.cpp:194] Reallocating workspace storage: 7428
I1105 17:20:23.488286 24412 net.cpp:150] Setting up inception_5b/pool_proj
I1105 17:20:23.488294 24412 net.cpp:157] Top shape: 32 128 7 7 (200704)
I1105 17:20:23.488299 24412 net.cpp:165] Memory required for data: 1787221000
I1105 17:20:23.488306 24412 layer_factory.hpp:76] Creating layer inception_5b/prelu_pool_proj
I1105 17:20:23.488315 24412 net.cpp:106] Creating Layer inception_5b/prelu_pool_proj
I1105 17:20:23.488320 24412 net.cpp:454] inception_5b/prelu_pool_proj <- inception_5b/pool_proj
I1105 17:20:23.488328 24412 net.cpp:397] inception_5b/prelu_pool_proj -> inception_5b/pool_proj (in-place)
I1105 17:20:23.488433 24412 net.cpp:150] Setting up inception_5b/prelu_pool_proj
I1105 17:20:23.488445 24412 net.cpp:157] Top shape: 32 128 7 7 (200704)
I1105 17:20:23.488448 24412 net.cpp:165] Memory required for data: 1788023816
I1105 17:20:23.488453 24412 layer_factory.hpp:76] Creating layer inception_5b/output
I1105 17:20:23.488461 24412 net.cpp:106] Creating Layer inception_5b/output
I1105 17:20:23.488481 24412 net.cpp:454] inception_5b/output <- inception_5b/1x1
I1105 17:20:23.488487 24412 net.cpp:454] inception_5b/output <- inception_5b/3x3
I1105 17:20:23.488492 24412 net.cpp:454] inception_5b/output <- inception_5b/5x5
I1105 17:20:23.488497 24412 net.cpp:454] inception_5b/output <- inception_5b/pool_proj
I1105 17:20:23.488502 24412 net.cpp:411] inception_5b/output -> inception_5b/output
I1105 17:20:23.488533 24412 net.cpp:150] Setting up inception_5b/output
I1105 17:20:23.488543 24412 net.cpp:157] Top shape: 32 1024 7 7 (1605632)
I1105 17:20:23.488546 24412 net.cpp:165] Memory required for data: 1794446344
I1105 17:20:23.488550 24412 layer_factory.hpp:76] Creating layer pool5/7x7_s1
I1105 17:20:23.488559 24412 net.cpp:106] Creating Layer pool5/7x7_s1
I1105 17:20:23.488564 24412 net.cpp:454] pool5/7x7_s1 <- inception_5b/output
I1105 17:20:23.488571 24412 net.cpp:411] pool5/7x7_s1 -> pool5/7x7_s1
I1105 17:20:23.488746 24412 net.cpp:150] Setting up pool5/7x7_s1
I1105 17:20:23.488757 24412 net.cpp:157] Top shape: 32 1024 1 1 (32768)
I1105 17:20:23.488761 24412 net.cpp:165] Memory required for data: 1794577416
I1105 17:20:23.488765 24412 layer_factory.hpp:76] Creating layer pool5/drop_7x7_s1
I1105 17:20:23.488773 24412 net.cpp:106] Creating Layer pool5/drop_7x7_s1
I1105 17:20:23.488777 24412 net.cpp:454] pool5/drop_7x7_s1 <- pool5/7x7_s1
I1105 17:20:23.488783 24412 net.cpp:397] pool5/drop_7x7_s1 -> pool5/7x7_s1 (in-place)
I1105 17:20:23.488814 24412 net.cpp:150] Setting up pool5/drop_7x7_s1
I1105 17:20:23.488822 24412 net.cpp:157] Top shape: 32 1024 1 1 (32768)
I1105 17:20:23.488826 24412 net.cpp:165] Memory required for data: 1794708488
I1105 17:20:23.488831 24412 layer_factory.hpp:76] Creating layer loss3/classifier2
I1105 17:20:23.488839 24412 net.cpp:106] Creating Layer loss3/classifier2
I1105 17:20:23.488844 24412 net.cpp:454] loss3/classifier2 <- pool5/7x7_s1
I1105 17:20:23.488850 24412 net.cpp:411] loss3/classifier2 -> loss3/classifier
I1105 17:20:23.489001 24412 net.cpp:150] Setting up loss3/classifier2
I1105 17:20:23.489009 24412 net.cpp:157] Top shape: 32 2 (64)
I1105 17:20:23.489013 24412 net.cpp:165] Memory required for data: 1794708744
I1105 17:20:23.489020 24412 layer_factory.hpp:76] Creating layer loss3/loss3
I1105 17:20:23.489029 24412 net.cpp:106] Creating Layer loss3/loss3
I1105 17:20:23.489033 24412 net.cpp:454] loss3/loss3 <- loss3/classifier
I1105 17:20:23.489038 24412 net.cpp:454] loss3/loss3 <- label_data_1_split_2
I1105 17:20:23.489044 24412 net.cpp:411] loss3/loss3 -> loss3/loss3
…
I1105 17:20:23.493937 24412 net.cpp:322] The NetState phase (1) differed from the phase (0) specified by a rule in layer data
I1105 17:20:23.494963 24412 net.cpp:49] Initializing net from parameters: 
name: "GoogleNet"
state {
  phase: TEST
}
layer {
  name: "data"
  type: "Data"
  top: "data"
  top: "label"
  include {
    phase: TEST
  }
  transform_param {
    mirror: false
    crop_size: 224
    mean_value: 104
    mean_value: 117
    mean_value: 123
  }
  data_param {
    source: "../../LMDB/val_2-lmdb"
    batch_size: 50
    backend: LMDB
  }
}
layer {
  name: "conv1/7x7_s2"
  type: "Convolution"
  bottom: "data"
  top: "conv1/7x7_s2"
  param {
    lr_mult: 1
    decay_mult: 1
  }
  param {
    lr_mult: 2
    decay_mult: 0
  }
  convolution_param {
    num_output: 64
    pad: 3
    kernel_size: 7
    stride: 2
    weight_filler {
      type: "xavier"
    }
    bias_filler {
      type: "constant"
      value: 0.2
    }
  }
}
layer {
  name: "conv1/prelu_7x7"
  type: "PReLU"
  bottom: "conv1/7x7_s2"
  top: "conv1/7x7_s2"
  param {
    lr_mult: 1
    decay_mult: 0
  }
  prelu_param {
    filler {
      type: "constant"
      value: 0.01
    }
  }
}
layer {
  name: "pool1/3x3_s2"
  type: "Pooling"
  bottom: "conv1/7x7_s2"
  top: "pool1/3x3_s2"
  pooling_param {
    pool: MAX
    kernel_size: 3
    stride: 2
  }
}
layer {
  name: "pool1/norm1"
  type: "LRN"
  bottom: "pool1/3x3_s2"
  top: "pool1/norm1"
  lrn_param {
    local_size: 5
    alpha: 0.0001
    beta: 0.75
  }
}
layer {
  name: "conv2/3x3_reduce"
  type: "Convolution"
  bottom: "pool1/norm1"
  top: "conv2/3x3_reduce"
  param {
    lr_mult: 1
    decay_mult: 1
  }
  param {
    lr_mult: 2
    decay_mult: 0
  }
  convolution_param {
    num_output: 64
    kernel_size: 1
    weight_filler {
      type: "xavier"
    }
    bias_filler {
      type: "constant"
      value: 0.2
    }
  }
}
layer {
  name: "conv2/prelu_3x3_reduce"
  type: "PReLU"
  bottom: "conv2/3x3_reduce"
  top: "conv2/3x3_reduce"
  param {
    lr_mult: 1
    decay_mult: 0
  }
  prelu_param {
    filler {
      type: "constant"
      value: 0.01
    }
  }
}
layer {
  name: "conv2/3x3"
  type: "Convolution"
  bottom: "conv2/3x3_reduce"
  top: "conv2/3x3"
  param {
    lr_mult: 1
    decay_mult: 1
  }
  param {
    lr_mult: 2
    decay_mult: 0
  }
  convolution_param {
    num_output: 192
    pad: 1
    kernel_size: 3
    weight_filler {
      type: "xavier"
    }
    bias_filler {
      type: "constant"
      value: 0.2
    }
  }
}
layer {
  name: "conv2/prelu_3x3"
  type: "PReLU"
  bottom: "conv2/3x3"
  top: "conv2/3x3"
  param {
    lr_mult: 1
    decay_mult: 0
  }
  prelu_param {
    filler {
      type: "constant"
      value: 0.01
    }
  }
}
layer {
  name: "conv2/norm2"
  type: "LRN"
  bottom: "conv2/3x3"
  top: "conv2/norm2"
  lrn_param {
    local_size: 5
    alpha: 0.0001
    beta: 0.75
  }
}
layer {
  name: "pool2/3x3_s2"
  type: "Pooling"
  bottom: "conv2/norm2"
  top: "pool2/3x3_s2"
  pooling_param {
    pool: MAX
    kernel_size: 3
    stride: 2
  }
}
layer {
  name: "inception_3a/1x1"
  type: "Convolution"
  bottom: "pool2/3x3_s2"
  top: "inception_3a/1x1"
  param {
    lr_mult: 1
    decay_mult: 1
  }
  param {
    lr_mult: 2
    decay_mult: 0
  }
  convolution_param {
    num_output: 64
    kernel_size: 1
    weight_filler {
      type: "xavier"
    }
    bias_filler {
      type: "constant"
      value: 0.2
    }
  }
}
layer {
  name: "inception_3a/prelu_1x1"
  type: "PReLU"
  bottom: "inception_3a/1x1"
  top: "inception_3a/1x1"
  param {
    lr_mult: 1
    decay_mult: 0
  }
  prelu_param {
    filler {
      type: "constant"
      value: 0.01
    }
  }
}
layer {
  name: "inception_3a/3x3_reduce"
  type: "Convolution"
  bottom: "pool2/3x3_s2"
  top: "inception_3a/3x3_reduce"
  param {
    lr_mult: 1
    decay_mult: 1
  }
  param {
    lr_mult: 2
    decay_mult: 0
  }
  convolution_param {
    num_output: 96
    kernel_size: 1
    weight_filler {
      type: "xavier"
    }
    bias_filler {
      type: "constant"
      value: 0.2
    }
  }
}
layer {
  name: "inception_3a/prelu_3x3_reduce"
  type: "PReLU"
  bottom: "inception_3a/3x3_reduce"
  top: "inception_3a/3x3_reduce"
  param {
    lr_mult: 1
    decay_mult: 0
  }
  prelu_param {
    filler {
      type: "constant"
      value: 0.01
    }
  }
}
layer {
  name: "inception_3a/3x3"
  type: "Convolution"
  bottom: "inception_3a/3x3_reduce"
  top: "inception_3a/3x3"
  param {
    lr_mult: 1
    decay_mult: 1
  }
  param {
    lr_mult: 2
    decay_mult: 0
  }
  convolution_param {
    num_output: 128
    pad: 1
    kernel_size: 3
    weight_filler {
      type: "xavier"
    }
    bias_filler {
      type: "constant"
      value: 0.2
    }
  }
}
layer {
  name: "inception_3a/prelu_3x3"
  type: "PReLU"
  bottom: "inception_3a/3x3"
  top: "inception_3a/3x3"
  param {
    lr_mult: 1
    decay_mult: 0
  }
  prelu_param {
    filler {
      type: "constant"
      value: 0.01
    }
  }
}
layer {
  name: "inception_3a/5x5_reduce"
  type: "Convolution"
  bottom: "pool2/3x3_s2"
  top: "inception_3a/5x5_reduce"
  param {
    lr_mult: 1
    decay_mult: 1
  }
  param {
    lr_mult: 2
    decay_mult: 0
  }
  convolution_param {
    num_output: 16
    kernel_size: 1
    weight_filler {
      type: "xavier"
    }
    bias_filler {
      type: "constant"
      value: 0.2
    }
  }
}
layer {
  name: "inception_3a/prelu_5x5_reduce"
  type: "PReLU"
  bottom: "inception_3a/5x5_reduce"
  top: "inception_3a/5x5_reduce"
  param {
    lr_mult: 1
    decay_mult: 0
  }
  prelu_param {
    filler {
      type: "constant"
      value: 0.01
    }
  }
}
layer {
  name: "inception_3a/5x5"
  type: "Convolution"
  bottom: "inception_3a/5x5_reduce"
  top: "inception_3a/5x5"
  param {
    lr_mult: 1
    decay_mult: 1
  }
  param {
    lr_mult: 2
    decay_mult: 0
  }
  convolution_param {
    num_output: 32
    pad: 2
    kernel_size: 5
    weight_filler {
      type: "xavier"
    }
    bias_filler {
      type: "constant"
      value: 0.2
    }
  }
}
layer {
  name: "inception_3a/prelu_5x5"
  type: "PReLU"
  bottom: "inception_3a/5x5"
  top: "inception_3a/5x5"
  param {
    lr_mult: 1
    decay_mult: 0
  }
  prelu_param {
    filler {
      type: "constant"
      value: 0.01
    }
  }
}
layer {
  name: "inception_3a/pool"
  type: "Pooling"
  bottom: "pool2/3x3_s2"
  top: "inception_3a/pool"
  pooling_param {
    pool: MAX
    kernel_size: 3
    stride: 1
    pad: 1
  }
}
layer {
  name: "inception_3a/pool_proj"
  type: "Convolution"
  bottom: "inception_3a/pool"
  top: "inception_3a/pool_proj"
  param {
    lr_mult: 1
    decay_mult: 1
  }
  param {
    lr_mult: 2
    decay_mult: 0
  }
  convolution_param {
    num_output: 32
    kernel_size: 1
    weight_filler {
      type: "xavier"
    }
    bias_filler {
      type: "constant"
      value: 0.2
    }
  }
}
layer {
  name: "inception_3a/prelu_pool_proj"
  type: "PReLU"
  bottom: "inception_3a/pool_proj"
  top: "inception_3a/pool_proj"
  param {
    lr_mult: 1
    decay_mult: 0
  }
  prelu_param {
    filler {
      type: "constant"
      value: 0.01
    }
  }
}
layer {
  name: "inception_3a/output"
  type: "Concat"
  bottom: "inception_3a/1x1"
  bottom: "inception_3a/3x3"
  bottom: "inception_3a/5x5"
  bottom: "inception_3a/pool_proj"
  top: "inception_3a/output"
}
layer {
  name: "inception_3b/1x1"
  type: "Convolution"
  bottom: "inception_3a/output"
  top: "inception_3b/1x1"
  param {
    lr_mult: 1
    decay_mult: 1
  }
  param {
    lr_mult: 2
    decay_mult: 0
  }
  convolution_param {
    num_output: 128
    kernel_size: 1
    weight_filler {
      type: "xavier"
    }
    bias_filler {
      type: "constant"
      value: 0.2
    }
  }
}
layer {
  name: "inception_3b/prelu_1x1"
  type: "PReLU"
  bottom: "inception_3b/1x1"
  top: "inception_3b/1x1"
  param {
    lr_mult: 1
    decay_mult: 0
  }
  prelu_param {
    filler {
      type: "constant"
      value: 0.01
    }
  }
}
layer {
  name: "inception_3b/3x3_reduce"
  type: "Convolution"
  bottom: "inception_3a/output"
  top: "inception_3b/3x3_reduce"
  param {
    lr_mult: 1
    decay_mult: 1
  }
  param {
    lr_mult: 2
    decay_mult: 0
  }
  convolution_param {
    num_output: 128
    kernel_size: 1
    weight_filler {
      type: "xavier"
    }
    bias_filler {
      type: "constant"
      value: 0.2
    }
  }
}
layer {
  name: "inception_3b/prelu_3x3_reduce"
  type: "PReLU"
  bottom: "inception_3b/3x3_reduce"
  top: "inception_3b/3x3_reduce"
  param {
    lr_mult: 1
    decay_mult: 0
  }
  prelu_param {
    filler {
      type: "constant"
      value: 0.01
    }
  }
}
layer {
  name: "inception_3b/3x3"
  type: "Convolution"
  bottom: "inception_3b/3x3_reduce"
  top: "inception_3b/3x3"
  param {
    lr_mult: 1
    decay_mult: 1
  }
  param {
    lr_mult: 2
    decay_mult: 0
  }
  convolution_param {
    num_output: 192
    pad: 1
    kernel_size: 3
    weight_filler {
      type: "xavier"
    }
…
I1105 17:20:23.781641 24412 net.cpp:106] Creating Layer inception_4c/output
I1105 17:20:23.781646 24412 net.cpp:454] inception_4c/output <- inception_4c/1x1
I1105 17:20:23.781651 24412 net.cpp:454] inception_4c/output <- inception_4c/3x3
I1105 17:20:23.781656 24412 net.cpp:454] inception_4c/output <- inception_4c/5x5
I1105 17:20:23.781661 24412 net.cpp:454] inception_4c/output <- inception_4c/pool_proj
I1105 17:20:23.781668 24412 net.cpp:411] inception_4c/output -> inception_4c/output
I1105 17:20:23.781693 24412 net.cpp:150] Setting up inception_4c/output
I1105 17:20:23.781703 24412 net.cpp:157] Top shape: 50 512 14 14 (5017600)
I1105 17:20:23.781708 24412 net.cpp:165] Memory required for data: 2234652208
I1105 17:20:23.781713 24412 layer_factory.hpp:76] Creating layer inception_4c/output_inception_4c/output_0_split
I1105 17:20:23.781719 24412 net.cpp:106] Creating Layer inception_4c/output_inception_4c/output_0_split
I1105 17:20:23.781724 24412 net.cpp:454] inception_4c/output_inception_4c/output_0_split <- inception_4c/output
I1105 17:20:23.781729 24412 net.cpp:411] inception_4c/output_inception_4c/output_0_split -> inception_4c/output_inception_4c/output_0_split_0
I1105 17:20:23.781738 24412 net.cpp:411] inception_4c/output_inception_4c/output_0_split -> inception_4c/output_inception_4c/output_0_split_1
I1105 17:20:23.781744 24412 net.cpp:411] inception_4c/output_inception_4c/output_0_split -> inception_4c/output_inception_4c/output_0_split_2
I1105 17:20:23.781751 24412 net.cpp:411] inception_4c/output_inception_4c/output_0_split -> inception_4c/output_inception_4c/output_0_split_3
I1105 17:20:23.781822 24412 net.cpp:150] Setting up inception_4c/output_inception_4c/output_0_split
I1105 17:20:23.781831 24412 net.cpp:157] Top shape: 50 512 14 14 (5017600)
I1105 17:20:23.781837 24412 net.cpp:157] Top shape: 50 512 14 14 (5017600)
I1105 17:20:23.781842 24412 net.cpp:157] Top shape: 50 512 14 14 (5017600)
I1105 17:20:23.781847 24412 net.cpp:157] Top shape: 50 512 14 14 (5017600)
I1105 17:20:23.781851 24412 net.cpp:165] Memory required for data: 2314933808
I1105 17:20:23.781855 24412 layer_factory.hpp:76] Creating layer inception_4d/1x1
I1105 17:20:23.781873 24412 net.cpp:106] Creating Layer inception_4d/1x1
I1105 17:20:23.781880 24412 net.cpp:454] inception_4d/1x1 <- inception_4c/output_inception_4c/output_0_split_0
I1105 17:20:23.781888 24412 net.cpp:411] inception_4d/1x1 -> inception_4d/1x1
I1105 17:20:23.783747 24412 cudnn_conv_layer.cpp:194] Reallocating workspace storage: 10080
I1105 17:20:23.783807 24412 net.cpp:150] Setting up inception_4d/1x1
I1105 17:20:23.783818 24412 net.cpp:157] Top shape: 50 112 14 14 (1097600)
I1105 17:20:23.783823 24412 net.cpp:165] Memory required for data: 2319324208
I1105 17:20:23.783833 24412 layer_factory.hpp:76] Creating layer inception_4d/prelu_1x1
I1105 17:20:23.783848 24412 net.cpp:106] Creating Layer inception_4d/prelu_1x1
I1105 17:20:23.783856 24412 net.cpp:454] inception_4d/prelu_1x1 <- inception_4d/1x1
I1105 17:20:23.783865 24412 net.cpp:397] inception_4d/prelu_1x1 -> inception_4d/1x1 (in-place)
I1105 17:20:23.784001 24412 net.cpp:150] Setting up inception_4d/prelu_1x1
I1105 17:20:23.784013 24412 net.cpp:157] Top shape: 50 112 14 14 (1097600)
I1105 17:20:23.784016 24412 net.cpp:165] Memory required for data: 2323714608
I1105 17:20:23.784021 24412 layer_factory.hpp:76] Creating layer inception_4d/3x3_reduce
I1105 17:20:23.784036 24412 net.cpp:106] Creating Layer inception_4d/3x3_reduce
I1105 17:20:23.784044 24412 net.cpp:454] inception_4d/3x3_reduce <- inception_4c/output_inception_4c/output_0_split_1
I1105 17:20:23.784050 24412 net.cpp:411] inception_4d/3x3_reduce -> inception_4d/3x3_reduce
I1105 17:20:23.785922 24412 cudnn_conv_layer.cpp:194] Reallocating workspace storage: 10080
I1105 17:20:23.785969 24412 net.cpp:150] Setting up inception_4d/3x3_reduce
I1105 17:20:23.785979 24412 net.cpp:157] Top shape: 50 144 14 14 (1411200)
I1105 17:20:23.785984 24412 net.cpp:165] Memory required for data: 2329359408
I1105 17:20:23.785991 24412 layer_factory.hpp:76] Creating layer inception_4d/prelu_3x3_reduce
I1105 17:20:23.786002 24412 net.cpp:106] Creating Layer inception_4d/prelu_3x3_reduce
I1105 17:20:23.786010 24412 net.cpp:454] inception_4d/prelu_3x3_reduce <- inception_4d/3x3_reduce
I1105 17:20:23.786018 24412 net.cpp:397] inception_4d/prelu_3x3_reduce -> inception_4d/3x3_reduce (in-place)
I1105 17:20:23.786149 24412 net.cpp:150] Setting up inception_4d/prelu_3x3_reduce
I1105 17:20:23.786159 24412 net.cpp:157] Top shape: 50 144 14 14 (1411200)
I1105 17:20:23.786164 24412 net.cpp:165] Memory required for data: 2335004208
I1105 17:20:23.786170 24412 layer_factory.hpp:76] Creating layer inception_4d/3x3
I1105 17:20:23.786181 24412 net.cpp:106] Creating Layer inception_4d/3x3
I1105 17:20:23.786187 24412 net.cpp:454] inception_4d/3x3 <- inception_4d/3x3_reduce
I1105 17:20:23.786195 24412 net.cpp:411] inception_4d/3x3 -> inception_4d/3x3
I1105 17:20:23.790761 24412 cudnn_conv_layer.cpp:194] Reallocating workspace storage: 10080
I1105 17:20:23.790818 24412 net.cpp:150] Setting up inception_4d/3x3
I1105 17:20:23.790840 24412 net.cpp:157] Top shape: 50 288 14 14 (2822400)
I1105 17:20:23.790856 24412 net.cpp:165] Memory required for data: 2346293808
I1105 17:20:23.790865 24412 layer_factory.hpp:76] Creating layer inception_4d/prelu_3x3
I1105 17:20:23.790876 24412 net.cpp:106] Creating Layer inception_4d/prelu_3x3
I1105 17:20:23.790884 24412 net.cpp:454] inception_4d/prelu_3x3 <- inception_4d/3x3
I1105 17:20:23.790892 24412 net.cpp:397] inception_4d/prelu_3x3 -> inception_4d/3x3 (in-place)
I1105 17:20:23.791615 24412 net.cpp:150] Setting up inception_4d/prelu_3x3
I1105 17:20:23.791628 24412 net.cpp:157] Top shape: 50 288 14 14 (2822400)
I1105 17:20:23.791632 24412 net.cpp:165] Memory required for data: 2357583408
I1105 17:20:23.791638 24412 layer_factory.hpp:76] Creating layer inception_4d/5x5_reduce
I1105 17:20:23.791651 24412 net.cpp:106] Creating Layer inception_4d/5x5_reduce
I1105 17:20:23.791657 24412 net.cpp:454] inception_4d/5x5_reduce <- inception_4c/output_inception_4c/output_0_split_2
I1105 17:20:23.791666 24412 net.cpp:411] inception_4d/5x5_reduce -> inception_4d/5x5_reduce
I1105 17:20:23.793373 24412 cudnn_conv_layer.cpp:194] Reallocating workspace storage: 10080
I1105 17:20:23.793419 24412 net.cpp:150] Setting up inception_4d/5x5_reduce
I1105 17:20:23.793428 24412 net.cpp:157] Top shape: 50 32 14 14 (313600)
I1105 17:20:23.793432 24412 net.cpp:165] Memory required for data: 2358837808
I1105 17:20:23.793439 24412 layer_factory.hpp:76] Creating layer inception_4d/prelu_5x5_reduce
I1105 17:20:23.793448 24412 net.cpp:106] Creating Layer inception_4d/prelu_5x5_reduce
I1105 17:20:23.793453 24412 net.cpp:454] inception_4d/prelu_5x5_reduce <- inception_4d/5x5_reduce
I1105 17:20:23.793462 24412 net.cpp:397] inception_4d/prelu_5x5_reduce -> inception_4d/5x5_reduce (in-place)
I1105 17:20:23.793560 24412 net.cpp:150] Setting up inception_4d/prelu_5x5_reduce
I1105 17:20:23.793568 24412 net.cpp:157] Top shape: 50 32 14 14 (313600)
I1105 17:20:23.793572 24412 net.cpp:165] Memory required for data: 2360092208
I1105 17:20:23.793588 24412 layer_factory.hpp:76] Creating layer inception_4d/5x5
I1105 17:20:23.793597 24412 net.cpp:106] Creating Layer inception_4d/5x5
I1105 17:20:23.793602 24412 net.cpp:454] inception_4d/5x5 <- inception_4d/5x5_reduce
I1105 17:20:23.793608 24412 net.cpp:411] inception_4d/5x5 -> inception_4d/5x5
I1105 17:20:23.794880 24412 cudnn_conv_layer.cpp:194] Reallocating workspace storage: 13080
I1105 17:20:23.794924 24412 net.cpp:150] Setting up inception_4d/5x5
I1105 17:20:23.794932 24412 net.cpp:157] Top shape: 50 64 14 14 (627200)
I1105 17:20:23.794936 24412 net.cpp:165] Memory required for data: 2362601008
I1105 17:20:23.794944 24412 layer_factory.hpp:76] Creating layer inception_4d/prelu_5x5
I1105 17:20:23.794953 24412 net.cpp:106] Creating Layer inception_4d/prelu_5x5
I1105 17:20:23.794958 24412 net.cpp:454] inception_4d/prelu_5x5 <- inception_4d/5x5
I1105 17:20:23.794965 24412 net.cpp:397] inception_4d/prelu_5x5 -> inception_4d/5x5 (in-place)
I1105 17:20:23.795061 24412 net.cpp:150] Setting up inception_4d/prelu_5x5
I1105 17:20:23.795070 24412 net.cpp:157] Top shape: 50 64 14 14 (627200)
I1105 17:20:23.795074 24412 net.cpp:165] Memory required for data: 2365109808
I1105 17:20:23.795090 24412 layer_factory.hpp:76] Creating layer inception_4d/pool
I1105 17:20:23.795099 24412 net.cpp:106] Creating Layer inception_4d/pool
I1105 17:20:23.795102 24412 net.cpp:454] inception_4d/pool <- inception_4c/output_inception_4c/output_0_split_3
I1105 17:20:23.795110 24412 net.cpp:411] inception_4d/pool -> inception_4d/pool
I1105 17:20:23.795608 24412 net.cpp:150] Setting up inception_4d/pool
I1105 17:20:23.795619 24412 net.cpp:157] Top shape: 50 512 14 14 (5017600)
I1105 17:20:23.795634 24412 net.cpp:165] Memory required for data: 2385180208
I1105 17:20:23.795639 24412 layer_factory.hpp:76] Creating layer inception_4d/pool_proj
I1105 17:20:23.795649 24412 net.cpp:106] Creating Layer inception_4d/pool_proj
I1105 17:20:23.795653 24412 net.cpp:454] inception_4d/pool_proj <- inception_4d/pool
I1105 17:20:23.795661 24412 net.cpp:411] inception_4d/pool_proj -> inception_4d/pool_proj
I1105 17:20:23.797137 24412 cudnn_conv_layer.cpp:194] Reallocating workspace storage: 10080
I1105 17:20:23.797185 24412 net.cpp:150] Setting up inception_4d/pool_proj
I1105 17:20:23.797194 24412 net.cpp:157] Top shape: 50 64 14 14 (627200)
I1105 17:20:23.797199 24412 net.cpp:165] Memory required for data: 2387689008
I1105 17:20:23.797205 24412 layer_factory.hpp:76] Creating layer inception_4d/prelu_pool_proj
I1105 17:20:23.797229 24412 net.cpp:106] Creating Layer inception_4d/prelu_pool_proj
I1105 17:20:23.797235 24412 net.cpp:454] inception_4d/prelu_pool_proj <- inception_4d/pool_proj
I1105 17:20:23.797240 24412 net.cpp:397] inception_4d/prelu_pool_proj -> inception_4d/pool_proj (in-place)
I1105 17:20:23.797338 24412 net.cpp:150] Setting up inception_4d/prelu_pool_proj
I1105 17:20:23.797346 24412 net.cpp:157] Top shape: 50 64 14 14 (627200)
I1105 17:20:23.797350 24412 net.cpp:165] Memory required for data: 2390197808
I1105 17:20:23.797366 24412 layer_factory.hpp:76] Creating layer inception_4d/output
I1105 17:20:23.797374 24412 net.cpp:106] Creating Layer inception_4d/output
I1105 17:20:23.797379 24412 net.cpp:454] inception_4d/output <- inception_4d/1x1
I1105 17:20:23.797384 24412 net.cpp:454] inception_4d/output <- inception_4d/3x3
I1105 17:20:23.797389 24412 net.cpp:454] inception_4d/output <- inception_4d/5x5
I1105 17:20:23.797394 24412 net.cpp:454] inception_4d/output <- inception_4d/pool_proj
I1105 17:20:23.797400 24412 net.cpp:411] inception_4d/output -> inception_4d/output
I1105 17:20:23.797425 24412 net.cpp:150] Setting up inception_4d/output
I1105 17:20:23.797431 24412 net.cpp:157] Top shape: 50 528 14 14 (5174400)
I1105 17:20:23.797435 24412 net.cpp:165] Memory required for data: 2410895408
I1105 17:20:23.797438 24412 layer_factory.hpp:76] Creating layer inception_4d/output_inception_4d/output_0_split
I1105 17:20:23.797446 24412 net.cpp:106] Creating Layer inception_4d/output_inception_4d/output_0_split
I1105 17:20:23.797451 24412 net.cpp:454] inception_4d/output_inception_4d/output_0_split <- inception_4d/output
I1105 17:20:23.797456 24412 net.cpp:411] inception_4d/output_inception_4d/output_0_split -> inception_4d/output_inception_4d/output_0_split_0
I1105 17:20:23.797464 24412 net.cpp:411] inception_4d/output_inception_4d/output_0_split -> inception_4d/output_inception_4d/output_0_split_1
I1105 17:20:23.797472 24412 net.cpp:411] inception_4d/output_inception_4d/output_0_split -> inception_4d/output_inception_4d/output_0_split_2
I1105 17:20:23.797479 24412 net.cpp:411] inception_4d/output_inception_4d/output_0_split -> inception_4d/output_inception_4d/output_0_split_3
I1105 17:20:23.797485 24412 net.cpp:411] inception_4d/output_inception_4d/output_0_split -> inception_4d/output_inception_4d/output_0_split_4
I1105 17:20:23.797556 24412 net.cpp:150] Setting up inception_4d/output_inception_4d/output_0_split
I1105 17:20:23.797566 24412 net.cpp:157] Top shape: 50 528 14 14 (5174400)
I1105 17:20:23.797581 24412 net.cpp:157] Top shape: 50 528 14 14 (5174400)
I1105 17:20:23.797586 24412 net.cpp:157] Top shape: 50 528 14 14 (5174400)
I1105 17:20:23.797591 24412 net.cpp:157] Top shape: 50 528 14 14 (5174400)
I1105 17:20:23.797596 24412 net.cpp:157] Top shape: 50 528 14 14 (5174400)
I1105 17:20:23.797600 24412 net.cpp:165] Memory required for data: 2514383408
I1105 17:20:23.797605 24412 layer_factory.hpp:76] Creating layer loss2/ave_pool
I1105 17:20:23.797612 24412 net.cpp:106] Creating Layer loss2/ave_pool
I1105 17:20:23.797617 24412 net.cpp:454] loss2/ave_pool <- inception_4d/output_inception_4d/output_0_split_0
I1105 17:20:23.797624 24412 net.cpp:411] loss2/ave_pool -> loss2/ave_pool
I1105 17:20:23.797818 24412 net.cpp:150] Setting up loss2/ave_pool
I1105 17:20:23.797828 24412 net.cpp:157] Top shape: 50 528 4 4 (422400)
I1105 17:20:23.797842 24412 net.cpp:165] Memory required for data: 2516073008
I1105 17:20:23.797847 24412 layer_factory.hpp:76] Creating layer loss2/conv
I1105 17:20:23.797857 24412 net.cpp:106] Creating Layer loss2/conv
I1105 17:20:23.797862 24412 net.cpp:454] loss2/conv <- loss2/ave_pool
I1105 17:20:23.797868 24412 net.cpp:411] loss2/conv -> loss2/conv
I1105 17:20:23.799613 24412 cudnn_conv_layer.cpp:194] Reallocating workspace storage: 6840
I1105 17:20:23.799651 24412 net.cpp:150] Setting up loss2/conv
I1105 17:20:23.799660 24412 net.cpp:157] Top shape: 50 128 4 4 (102400)
I1105 17:20:23.799664 24412 net.cpp:165] Memory required for data: 2516482608
I1105 17:20:23.799672 24412 layer_factory.hpp:76] Creating layer loss2/prelu_conv
I1105 17:20:23.799690 24412 net.cpp:106] Creating Layer loss2/prelu_conv
I1105 17:20:23.799695 24412 net.cpp:454] loss2/prelu_conv <- loss2/conv
I1105 17:20:23.799703 24412 net.cpp:397] loss2/prelu_conv -> loss2/conv (in-place)
I1105 17:20:23.799803 24412 net.cpp:150] Setting up loss2/prelu_conv
I1105 17:20:23.799811 24412 net.cpp:157] Top shape: 50 128 4 4 (102400)
I1105 17:20:23.799815 24412 net.cpp:165] Memory required for data: 2516892208
I1105 17:20:23.799821 24412 layer_factory.hpp:76] Creating layer loss2/fc
I1105 17:20:23.799830 24412 net.cpp:106] Creating Layer loss2/fc
I1105 17:20:23.799834 24412 net.cpp:454] loss2/fc <- loss2/conv
I1105 17:20:23.799841 24412 net.cpp:411] loss2/fc -> loss2/fc
I1105 17:20:23.815702 24412 net.cpp:150] Setting up loss2/fc
I1105 17:20:23.815784 24412 net.cpp:157] Top shape: 50 1024 (51200)
I1105 17:20:23.815793 24412 net.cpp:165] Memory required for data: 2517097008
I1105 17:20:23.815840 24412 layer_factory.hpp:76] Creating layer loss2/prelu_fc
I1105 17:20:23.815860 24412 net.cpp:106] Creating Layer loss2/prelu_fc
I1105 17:20:23.815867 24412 net.cpp:454] loss2/prelu_fc <- loss2/fc
I1105 17:20:23.815877 24412 net.cpp:397] loss2/prelu_fc -> loss2/fc (in-place)
I1105 17:20:23.816027 24412 net.cpp:150] Setting up loss2/prelu_fc
I1105 17:20:23.816040 24412 net.cpp:157] Top shape: 50 1024 (51200)
I1105 17:20:23.816054 24412 net.cpp:165] Memory required for data: 2517301808
I1105 17:20:23.816061 24412 layer_factory.hpp:76] Creating layer loss2/drop_fc
I1105 17:20:23.816071 24412 net.cpp:106] Creating Layer loss2/drop_fc
I1105 17:20:23.816076 24412 net.cpp:454] loss2/drop_fc <- loss2/fc
I1105 17:20:23.816082 24412 net.cpp:397] loss2/drop_fc -> loss2/fc (in-place)
I1105 17:20:23.816110 24412 net.cpp:150] Setting up loss2/drop_fc
I1105 17:20:23.816139 24412 net.cpp:157] Top shape: 50 1024 (51200)
I1105 17:20:23.816144 24412 net.cpp:165] Memory required for data: 2517506608
I1105 17:20:23.816148 24412 layer_factory.hpp:76] Creating layer loss2/classifier2
I1105 17:20:23.816157 24412 net.cpp:106] Creating Layer loss2/classifier2
I1105 17:20:23.816161 24412 net.cpp:454] loss2/classifier2 <- loss2/fc
I1105 17:20:23.816169 24412 net.cpp:411] loss2/classifier2 -> loss2/classifier
I1105 17:20:23.816325 24412 net.cpp:150] Setting up loss2/classifier2
I1105 17:20:23.816337 24412 net.cpp:157] Top shape: 50 2 (100)
I1105 17:20:23.816351 24412 net.cpp:165] Memory required for data: 2517507008
I1105 17:20:23.816359 24412 layer_factory.hpp:76] Creating layer loss2/classifier_loss2/classifier2_0_split
I1105 17:20:23.816370 24412 net.cpp:106] Creating Layer loss2/classifier_loss2/classifier2_0_split
I1105 17:20:23.816375 24412 net.cpp:454] loss2/classifier_loss2/classifier2_0_split <- loss2/classifier
I1105 17:20:23.816382 24412 net.cpp:411] loss2/classifier_loss2/classifier2_0_split -> loss2/classifier_loss2/classifier2_0_split_0
I1105 17:20:23.816391 24412 net.cpp:411] loss2/classifier_loss2/classifier2_0_split -> loss2/classifier_loss2/classifier2_0_split_1
I1105 17:20:23.816452 24412 net.cpp:150] Setting up loss2/classifier_loss2/classifier2_0_split
I1105 17:20:23.816462 24412 net.cpp:157] Top shape: 50 2 (100)
I1105 17:20:23.816468 24412 net.cpp:157] Top shape: 50 2 (100)
I1105 17:20:23.816481 24412 net.cpp:165] Memory required for data: 2517507808
I1105 17:20:23.816496 24412 layer_factory.hpp:76] Creating layer loss2/loss
I1105 17:20:23.816504 24412 net.cpp:106] Creating Layer loss2/loss
I1105 17:20:23.816509 24412 net.cpp:454] loss2/loss <- loss2/classifier_loss2/classifier2_0_split_0
I1105 17:20:23.816515 24412 net.cpp:454] loss2/loss <- label_data_1_split_2
…
I1105 17:20:23.817561 24412 net.cpp:165] Memory required for data: 2517507816
I1105 17:20:23.817565 24412 layer_factory.hpp:76] Creating layer inception_4e/1x1
I1105 17:20:23.817584 24412 net.cpp:106] Creating Layer inception_4e/1x1
I1105 17:20:23.817591 24412 net.cpp:454] inception_4e/1x1 <- inception_4d/output_inception_4d/output_0_split_1
I1105 17:20:23.817610 24412 net.cpp:411] inception_4e/1x1 -> inception_4e/1x1
I1105 17:20:23.820214 24412 cudnn_conv_layer.cpp:194] Reallocating workspace storage: 10080
I1105 17:20:23.820268 24412 net.cpp:150] Setting up inception_4e/1x1
I1105 17:20:23.820281 24412 net.cpp:157] Top shape: 50 256 14 14 (2508800)
I1105 17:20:23.820284 24412 net.cpp:165] Memory required for data: 2527543016
I1105 17:20:23.820294 24412 layer_factory.hpp:76] Creating layer inception_4e/prelu_1x1
I1105 17:20:23.820307 24412 net.cpp:106] Creating Layer inception_4e/prelu_1x1
I1105 17:20:23.820320 24412 net.cpp:454] inception_4e/prelu_1x1 <- inception_4e/1x1
I1105 17:20:23.820329 24412 net.cpp:397] inception_4e/prelu_1x1 -> inception_4e/1x1 (in-place)
I1105 17:20:23.820466 24412 net.cpp:150] Setting up inception_4e/prelu_1x1
I1105 17:20:23.820475 24412 net.cpp:157] Top shape: 50 256 14 14 (2508800)
I1105 17:20:23.820479 24412 net.cpp:165] Memory required for data: 2537578216
I1105 17:20:23.820485 24412 layer_factory.hpp:76] Creating layer inception_4e/3x3_reduce
I1105 17:20:23.820497 24412 net.cpp:106] Creating Layer inception_4e/3x3_reduce
I1105 17:20:23.820502 24412 net.cpp:454] inception_4e/3x3_reduce <- inception_4d/output_inception_4d/output_0_split_2
I1105 17:20:23.820511 24412 net.cpp:411] inception_4e/3x3_reduce -> inception_4e/3x3_reduce
I1105 17:20:23.822185 24412 cudnn_conv_layer.cpp:194] Reallocating workspace storage: 10080
I1105 17:20:23.822232 24412 net.cpp:150] Setting up inception_4e/3x3_reduce
I1105 17:20:23.822250 24412 net.cpp:157] Top shape: 50 160 14 14 (1568000)
I1105 17:20:23.822255 24412 net.cpp:165] Memory required for data: 2543850216
I1105 17:20:23.822263 24412 layer_factory.hpp:76] Creating layer inception_4e/prelu_3x3_reduce
I1105 17:20:23.822273 24412 net.cpp:106] Creating Layer inception_4e/prelu_3x3_reduce
I1105 17:20:23.822278 24412 net.cpp:454] inception_4e/prelu_3x3_reduce <- inception_4e/3x3_reduce
I1105 17:20:23.822284 24412 net.cpp:397] inception_4e/prelu_3x3_reduce -> inception_4e/3x3_reduce (in-place)
I1105 17:20:23.822399 24412 net.cpp:150] Setting up inception_4e/prelu_3x3_reduce
I1105 17:20:23.822408 24412 net.cpp:157] Top shape: 50 160 14 14 (1568000)
I1105 17:20:23.822413 24412 net.cpp:165] Memory required for data: 2550122216
I1105 17:20:23.822418 24412 layer_factory.hpp:76] Creating layer inception_4e/3x3
I1105 17:20:23.822443 24412 net.cpp:106] Creating Layer inception_4e/3x3
I1105 17:20:23.822459 24412 net.cpp:454] inception_4e/3x3 <- inception_4e/3x3_reduce
I1105 17:20:23.822468 24412 net.cpp:411] inception_4e/3x3 -> inception_4e/3x3
I1105 17:20:23.826984 24412 cudnn_conv_layer.cpp:194] Reallocating workspace storage: 10080
I1105 17:20:23.827042 24412 net.cpp:150] Setting up inception_4e/3x3
I1105 17:20:23.827064 24412 net.cpp:157] Top shape: 50 320 14 14 (3136000)
I1105 17:20:23.827069 24412 net.cpp:165] Memory required for data: 2562666216
I1105 17:20:23.827077 24412 layer_factory.hpp:76] Creating layer inception_4e/prelu_3x3
I1105 17:20:23.827090 24412 net.cpp:106] Creating Layer inception_4e/prelu_3x3
I1105 17:20:23.827095 24412 net.cpp:454] inception_4e/prelu_3x3 <- inception_4e/3x3
I1105 17:20:23.827102 24412 net.cpp:397] inception_4e/prelu_3x3 -> inception_4e/3x3 (in-place)
I1105 17:20:23.827849 24412 net.cpp:150] Setting up inception_4e/prelu_3x3
I1105 17:20:23.827862 24412 net.cpp:157] Top shape: 50 320 14 14 (3136000)
I1105 17:20:23.827877 24412 net.cpp:165] Memory required for data: 2575210216
I1105 17:20:23.827884 24412 layer_factory.hpp:76] Creating layer inception_4e/5x5_reduce
I1105 17:20:23.827896 24412 net.cpp:106] Creating Layer inception_4e/5x5_reduce
I1105 17:20:23.827901 24412 net.cpp:454] inception_4e/5x5_reduce <- inception_4d/output_inception_4d/output_0_split_3
I1105 17:20:23.827910 24412 net.cpp:411] inception_4e/5x5_reduce -> inception_4e/5x5_reduce
I1105 17:20:23.829206 24412 cudnn_conv_layer.cpp:194] Reallocating workspace storage: 10080
I1105 17:20:23.829254 24412 net.cpp:150] Setting up inception_4e/5x5_reduce
I1105 17:20:23.829263 24412 net.cpp:157] Top shape: 50 32 14 14 (313600)
I1105 17:20:23.829268 24412 net.cpp:165] Memory required for data: 2576464616
I1105 17:20:23.829275 24412 layer_factory.hpp:76] Creating layer inception_4e/prelu_5x5_reduce
I1105 17:20:23.829285 24412 net.cpp:106] Creating Layer inception_4e/prelu_5x5_reduce
I1105 17:20:23.829291 24412 net.cpp:454] inception_4e/prelu_5x5_reduce <- inception_4e/5x5_reduce
I1105 17:20:23.829298 24412 net.cpp:397] inception_4e/prelu_5x5_reduce -> inception_4e/5x5_reduce (in-place)
I1105 17:20:23.829428 24412 net.cpp:150] Setting up inception_4e/prelu_5x5_reduce
I1105 17:20:23.829438 24412 net.cpp:157] Top shape: 50 32 14 14 (313600)
I1105 17:20:23.829452 24412 net.cpp:165] Memory required for data: 2577719016
I1105 17:20:23.829458 24412 layer_factory.hpp:76] Creating layer inception_4e/5x5
I1105 17:20:23.829468 24412 net.cpp:106] Creating Layer inception_4e/5x5
I1105 17:20:23.829473 24412 net.cpp:454] inception_4e/5x5 <- inception_4e/5x5_reduce
I1105 17:20:23.829480 24412 net.cpp:411] inception_4e/5x5 -> inception_4e/5x5
I1105 17:20:23.831734 24412 cudnn_conv_layer.cpp:194] Reallocating workspace storage: 13080
I1105 17:20:23.831773 24412 net.cpp:150] Setting up inception_4e/5x5
I1105 17:20:23.831784 24412 net.cpp:157] Top shape: 50 128 14 14 (1254400)
I1105 17:20:23.831789 24412 net.cpp:165] Memory required for data: 2582736616
I1105 17:20:23.831796 24412 layer_factory.hpp:76] Creating layer inception_4e/prelu_5x5
I1105 17:20:23.831805 24412 net.cpp:106] Creating Layer inception_4e/prelu_5x5
I1105 17:20:23.831810 24412 net.cpp:454] inception_4e/prelu_5x5 <- inception_4e/5x5
I1105 17:20:23.831817 24412 net.cpp:397] inception_4e/prelu_5x5 -> inception_4e/5x5 (in-place)
I1105 17:20:23.831913 24412 net.cpp:150] Setting up inception_4e/prelu_5x5
I1105 17:20:23.831923 24412 net.cpp:157] Top shape: 50 128 14 14 (1254400)
I1105 17:20:23.831926 24412 net.cpp:165] Memory required for data: 2587754216
I1105 17:20:23.831933 24412 layer_factory.hpp:76] Creating layer inception_4e/pool
I1105 17:20:23.831941 24412 net.cpp:106] Creating Layer inception_4e/pool
I1105 17:20:23.831946 24412 net.cpp:454] inception_4e/pool <- inception_4d/output_inception_4d/output_0_split_4
I1105 17:20:23.831954 24412 net.cpp:411] inception_4e/pool -> inception_4e/pool
I1105 17:20:23.832159 24412 net.cpp:150] Setting up inception_4e/pool
I1105 17:20:23.832170 24412 net.cpp:157] Top shape: 50 528 14 14 (5174400)
I1105 17:20:23.832173 24412 net.cpp:165] Memory required for data: 2608451816
I1105 17:20:23.832178 24412 layer_factory.hpp:76] Creating layer inception_4e/pool_proj
I1105 17:20:23.832188 24412 net.cpp:106] Creating Layer inception_4e/pool_proj
I1105 17:20:23.832193 24412 net.cpp:454] inception_4e/pool_proj <- inception_4e/pool
I1105 17:20:23.832201 24412 net.cpp:411] inception_4e/pool_proj -> inception_4e/pool_proj
I1105 17:20:23.833941 24412 cudnn_conv_layer.cpp:194] Reallocating workspace storage: 10080
I1105 17:20:23.833984 24412 net.cpp:150] Setting up inception_4e/pool_proj
I1105 17:20:23.833993 24412 net.cpp:157] Top shape: 50 128 14 14 (1254400)
I1105 17:20:23.834007 24412 net.cpp:165] Memory required for data: 2613469416
I1105 17:20:23.834015 24412 layer_factory.hpp:76] Creating layer inception_4e/prelu_pool_proj
I1105 17:20:23.834039 24412 net.cpp:106] Creating Layer inception_4e/prelu_pool_proj
I1105 17:20:23.834044 24412 net.cpp:454] inception_4e/prelu_pool_proj <- inception_4e/pool_proj
I1105 17:20:23.834053 24412 net.cpp:397] inception_4e/prelu_pool_proj -> inception_4e/pool_proj (in-place)
I1105 17:20:23.834159 24412 net.cpp:150] Setting up inception_4e/prelu_pool_proj
I1105 17:20:23.834168 24412 net.cpp:157] Top shape: 50 128 14 14 (1254400)
I1105 17:20:23.834172 24412 net.cpp:165] Memory required for data: 2618487016
I1105 17:20:23.834178 24412 layer_factory.hpp:76] Creating layer inception_4e/output
I1105 17:20:23.834185 24412 net.cpp:106] Creating Layer inception_4e/output
I1105 17:20:23.834189 24412 net.cpp:454] inception_4e/output <- inception_4e/1x1
I1105 17:20:23.834194 24412 net.cpp:454] inception_4e/output <- inception_4e/3x3
I1105 17:20:23.834199 24412 net.cpp:454] inception_4e/output <- inception_4e/5x5
I1105 17:20:23.834204 24412 net.cpp:454] inception_4e/output <- inception_4e/pool_proj
I1105 17:20:23.834220 24412 net.cpp:411] inception_4e/output -> inception_4e/output
I1105 17:20:23.834245 24412 net.cpp:150] Setting up inception_4e/output
I1105 17:20:23.834255 24412 net.cpp:157] Top shape: 50 832 14 14 (8153600)
I1105 17:20:23.834259 24412 net.cpp:165] Memory required for data: 2651101416
I1105 17:20:23.834264 24412 layer_factory.hpp:76] Creating layer pool4/3x3_s2
I1105 17:20:23.834270 24412 net.cpp:106] Creating Layer pool4/3x3_s2
I1105 17:20:23.834275 24412 net.cpp:454] pool4/3x3_s2 <- inception_4e/output
I1105 17:20:23.834291 24412 net.cpp:411] pool4/3x3_s2 -> pool4/3x3_s2
I1105 17:20:23.834494 24412 net.cpp:150] Setting up pool4/3x3_s2
I1105 17:20:23.834504 24412 net.cpp:157] Top shape: 50 832 7 7 (2038400)
I1105 17:20:23.834508 24412 net.cpp:165] Memory required for data: 2659255016
I1105 17:20:23.834513 24412 layer_factory.hpp:76] Creating layer pool4/3x3_s2_pool4/3x3_s2_0_split
I1105 17:20:23.834522 24412 net.cpp:106] Creating Layer pool4/3x3_s2_pool4/3x3_s2_0_split
I1105 17:20:23.834525 24412 net.cpp:454] pool4/3x3_s2_pool4/3x3_s2_0_split <- pool4/3x3_s2
I1105 17:20:23.834533 24412 net.cpp:411] pool4/3x3_s2_pool4/3x3_s2_0_split -> pool4/3x3_s2_pool4/3x3_s2_0_split_0
I1105 17:20:23.834540 24412 net.cpp:411] pool4/3x3_s2_pool4/3x3_s2_0_split -> pool4/3x3_s2_pool4/3x3_s2_0_split_1
I1105 17:20:23.834547 24412 net.cpp:411] pool4/3x3_s2_pool4/3x3_s2_0_split -> pool4/3x3_s2_pool4/3x3_s2_0_split_2
I1105 17:20:23.834553 24412 net.cpp:411] pool4/3x3_s2_pool4/3x3_s2_0_split -> pool4/3x3_s2_pool4/3x3_s2_0_split_3
I1105 17:20:23.834606 24412 net.cpp:150] Setting up pool4/3x3_s2_pool4/3x3_s2_0_split
I1105 17:20:23.834614 24412 net.cpp:157] Top shape: 50 832 7 7 (2038400)
I1105 17:20:23.834620 24412 net.cpp:157] Top shape: 50 832 7 7 (2038400)
I1105 17:20:23.834625 24412 net.cpp:157] Top shape: 50 832 7 7 (2038400)
I1105 17:20:23.834630 24412 net.cpp:157] Top shape: 50 832 7 7 (2038400)
I1105 17:20:23.834633 24412 net.cpp:165] Memory required for data: 2691869416
I1105 17:20:23.834637 24412 layer_factory.hpp:76] Creating layer inception_5a/1x1
I1105 17:20:23.834645 24412 net.cpp:106] Creating Layer inception_5a/1x1
I1105 17:20:23.834650 24412 net.cpp:454] inception_5a/1x1 <- pool4/3x3_s2_pool4/3x3_s2_0_split_0
I1105 17:20:23.834660 24412 net.cpp:411] inception_5a/1x1 -> inception_5a/1x1
I1105 17:20:23.837884 24412 cudnn_conv_layer.cpp:194] Reallocating workspace storage: 7428
I1105 17:20:23.837939 24412 net.cpp:150] Setting up inception_5a/1x1
I1105 17:20:23.837956 24412 net.cpp:157] Top shape: 50 256 7 7 (627200)
I1105 17:20:23.837961 24412 net.cpp:165] Memory required for data: 2694378216
I1105 17:20:23.837981 24412 layer_factory.hpp:76] Creating layer inception_5a/prelu_1x1
I1105 17:20:23.837996 24412 net.cpp:106] Creating Layer inception_5a/prelu_1x1
I1105 17:20:23.838003 24412 net.cpp:454] inception_5a/prelu_1x1 <- inception_5a/1x1
I1105 17:20:23.838013 24412 net.cpp:397] inception_5a/prelu_1x1 -> inception_5a/1x1 (in-place)
I1105 17:20:23.838155 24412 net.cpp:150] Setting up inception_5a/prelu_1x1
I1105 17:20:23.838167 24412 net.cpp:157] Top shape: 50 256 7 7 (627200)
I1105 17:20:23.838188 24412 net.cpp:165] Memory required for data: 2696887016
I1105 17:20:23.838196 24412 layer_factory.hpp:76] Creating layer inception_5a/3x3_reduce
I1105 17:20:23.838208 24412 net.cpp:106] Creating Layer inception_5a/3x3_reduce
I1105 17:20:23.838213 24412 net.cpp:454] inception_5a/3x3_reduce <- pool4/3x3_s2_pool4/3x3_s2_0_split_1
I1105 17:20:23.838222 24412 net.cpp:411] inception_5a/3x3_reduce -> inception_5a/3x3_reduce
I1105 17:20:23.841012 24412 cudnn_conv_layer.cpp:194] Reallocating workspace storage: 7428
I1105 17:20:23.841111 24412 net.cpp:150] Setting up inception_5a/3x3_reduce
I1105 17:20:23.841125 24412 net.cpp:157] Top shape: 50 160 7 7 (392000)
I1105 17:20:23.841130 24412 net.cpp:165] Memory required for data: 2698455016
I1105 17:20:23.841140 24412 layer_factory.hpp:76] Creating layer inception_5a/prelu_3x3_reduce
I1105 17:20:23.841164 24412 net.cpp:106] Creating Layer inception_5a/prelu_3x3_reduce
I1105 17:20:23.841173 24412 net.cpp:454] inception_5a/prelu_3x3_reduce <- inception_5a/3x3_reduce
I1105 17:20:23.841182 24412 net.cpp:397] inception_5a/prelu_3x3_reduce -> inception_5a/3x3_reduce (in-place)
I1105 17:20:23.841284 24412 net.cpp:150] Setting up inception_5a/prelu_3x3_reduce
I1105 17:20:23.841294 24412 net.cpp:157] Top shape: 50 160 7 7 (392000)
I1105 17:20:23.841298 24412 net.cpp:165] Memory required for data: 2700023016
I1105 17:20:23.841303 24412 layer_factory.hpp:76] Creating layer inception_5a/3x3
I1105 17:20:23.841315 24412 net.cpp:106] Creating Layer inception_5a/3x3
I1105 17:20:23.841320 24412 net.cpp:454] inception_5a/3x3 <- inception_5a/3x3_reduce
I1105 17:20:23.841327 24412 net.cpp:411] inception_5a/3x3 -> inception_5a/3x3
I1105 17:20:23.846204 24412 cudnn_conv_layer.cpp:194] Reallocating workspace storage: 7788
I1105 17:20:23.846290 24412 net.cpp:150] Setting up inception_5a/3x3
I1105 17:20:23.846323 24412 net.cpp:157] Top shape: 50 320 7 7 (784000)
I1105 17:20:23.846329 24412 net.cpp:165] Memory required for data: 2703159016
I1105 17:20:23.846339 24412 layer_factory.hpp:76] Creating layer inception_5a/prelu_3x3
I1105 17:20:23.846374 24412 net.cpp:106] Creating Layer inception_5a/prelu_3x3
I1105 17:20:23.846381 24412 net.cpp:454] inception_5a/prelu_3x3 <- inception_5a/3x3
I1105 17:20:23.846390 24412 net.cpp:397] inception_5a/prelu_3x3 -> inception_5a/3x3 (in-place)
I1105 17:20:23.846566 24412 net.cpp:150] Setting up inception_5a/prelu_3x3
I1105 17:20:23.846577 24412 net.cpp:157] Top shape: 50 320 7 7 (784000)
I1105 17:20:23.846581 24412 net.cpp:165] Memory required for data: 2706295016
I1105 17:20:23.846597 24412 layer_factory.hpp:76] Creating layer inception_5a/5x5_reduce
I1105 17:20:23.846621 24412 net.cpp:106] Creating Layer inception_5a/5x5_reduce
I1105 17:20:23.846627 24412 net.cpp:454] inception_5a/5x5_reduce <- pool4/3x3_s2_pool4/3x3_s2_0_split_2
I1105 17:20:23.846635 24412 net.cpp:411] inception_5a/5x5_reduce -> inception_5a/5x5_reduce
I1105 17:20:23.848067 24412 cudnn_conv_layer.cpp:194] Reallocating workspace storage: 7428
I1105 17:20:23.848124 24412 net.cpp:150] Setting up inception_5a/5x5_reduce
I1105 17:20:23.848135 24412 net.cpp:157] Top shape: 50 32 7 7 (78400)
I1105 17:20:23.848140 24412 net.cpp:165] Memory required for data: 2706608616
I1105 17:20:23.848148 24412 layer_factory.hpp:76] Creating layer inception_5a/prelu_5x5_reduce
I1105 17:20:23.848170 24412 net.cpp:106] Creating Layer inception_5a/prelu_5x5_reduce
I1105 17:20:23.848186 24412 net.cpp:454] inception_5a/prelu_5x5_reduce <- inception_5a/5x5_reduce
I1105 17:20:23.848193 24412 net.cpp:397] inception_5a/prelu_5x5_reduce -> inception_5a/5x5_reduce (in-place)
I1105 17:20:23.848342 24412 net.cpp:150] Setting up inception_5a/prelu_5x5_reduce
I1105 17:20:23.848353 24412 net.cpp:157] Top shape: 50 32 7 7 (78400)
I1105 17:20:23.848357 24412 net.cpp:165] Memory required for data: 2706922216
I1105 17:20:23.848362 24412 layer_factory.hpp:76] Creating layer inception_5a/5x5
I1105 17:20:23.848373 24412 net.cpp:106] Creating Layer inception_5a/5x5
I1105 17:20:23.848397 24412 net.cpp:454] inception_5a/5x5 <- inception_5a/5x5_reduce
I1105 17:20:23.848405 24412 net.cpp:411] inception_5a/5x5 -> inception_5a/5x5
I1105 17:20:23.850014 24412 cudnn_conv_layer.cpp:194] Reallocating workspace storage: 9804
I1105 17:20:23.850056 24412 net.cpp:150] Setting up inception_5a/5x5
I1105 17:20:23.850065 24412 net.cpp:157] Top shape: 50 128 7 7 (313600)
I1105 17:20:23.850069 24412 net.cpp:165] Memory required for data: 2708176616
I1105 17:20:23.850076 24412 layer_factory.hpp:76] Creating layer inception_5a/prelu_5x5
I1105 17:20:23.850086 24412 net.cpp:106] Creating Layer inception_5a/prelu_5x5
I1105 17:20:23.850091 24412 net.cpp:454] inception_5a/prelu_5x5 <- inception_5a/5x5
I1105 17:20:23.850098 24412 net.cpp:397] inception_5a/prelu_5x5 -> inception_5a/5x5 (in-place)
I1105 17:20:23.850213 24412 net.cpp:150] Setting up inception_5a/prelu_5x5
I1105 17:20:23.850221 24412 net.cpp:157] Top shape: 50 128 7 7 (313600)
I1105 17:20:23.850225 24412 net.cpp:165] Memory required for data: 2709431016
I1105 17:20:23.850230 24412 layer_factory.hpp:76] Creating layer inception_5a/pool
I1105 17:20:23.850239 24412 net.cpp:106] Creating Layer inception_5a/pool
I1105 17:20:23.850245 24412 net.cpp:454] inception_5a/pool <- pool4/3x3_s2_pool4/3x3_s2_0_split_3
I1105 17:20:23.850251 24412 net.cpp:411] inception_5a/pool -> inception_5a/pool
I1105 17:20:23.850671 24412 net.cpp:150] Setting up inception_5a/pool
I1105 17:20:23.850684 24412 net.cpp:157] Top shape: 50 832 7 7 (2038400)
I1105 17:20:23.850689 24412 net.cpp:165] Memory required for data: 2717584616
I1105 17:20:23.850693 24412 layer_factory.hpp:76] Creating layer inception_5a/pool_proj
I1105 17:20:23.850703 24412 net.cpp:106] Creating Layer inception_5a/pool_proj
I1105 17:20:23.850708 24412 net.cpp:454] inception_5a/pool_proj <- inception_5a/pool
I1105 17:20:23.850718 24412 net.cpp:411] inception_5a/pool_proj -> inception_5a/pool_proj
I1105 17:20:23.852910 24412 cudnn_conv_layer.cpp:194] Reallocating workspace storage: 7428
I1105 17:20:23.852947 24412 net.cpp:150] Setting up inception_5a/pool_proj
I1105 17:20:23.852957 24412 net.cpp:157] Top shape: 50 128 7 7 (313600)
I1105 17:20:23.852962 24412 net.cpp:165] Memory required for data: 2718839016
I1105 17:20:23.852968 24412 layer_factory.hpp:76] Creating layer inception_5a/prelu_pool_proj
I1105 17:20:23.852977 24412 net.cpp:106] Creating Layer inception_5a/prelu_pool_proj
I1105 17:20:23.852982 24412 net.cpp:454] inception_5a/prelu_pool_proj <- inception_5a/pool_proj
I1105 17:20:23.852988 24412 net.cpp:397] inception_5a/prelu_pool_proj -> inception_5a/pool_proj (in-place)
I1105 17:20:23.853108 24412 net.cpp:150] Setting up inception_5a/prelu_pool_proj
I1105 17:20:23.853118 24412 net.cpp:157] Top shape: 50 128 7 7 (313600)
I1105 17:20:23.853123 24412 net.cpp:165] Memory required for data: 2720093416
I1105 17:20:23.853128 24412 layer_factory.hpp:76] Creating layer inception_5a/output
I1105 17:20:23.853137 24412 net.cpp:106] Creating Layer inception_5a/output
I1105 17:20:23.853142 24412 net.cpp:454] inception_5a/output <- inception_5a/1x1
I1105 17:20:23.853147 24412 net.cpp:454] inception_5a/output <- inception_5a/3x3
I1105 17:20:23.853152 24412 net.cpp:454] inception_5a/output <- inception_5a/5x5
I1105 17:20:23.853157 24412 net.cpp:454] inception_5a/output <- inception_5a/pool_proj
I1105 17:20:23.853163 24412 net.cpp:411] inception_5a/output -> inception_5a/output
I1105 17:20:23.853209 24412 net.cpp:150] Setting up inception_5a/output
I1105 17:20:23.853215 24412 net.cpp:157] Top shape: 50 832 7 7 (2038400)
I1105 17:20:23.853219 24412 net.cpp:165] Memory required for data: 2728247016
I1105 17:20:23.853224 24412 layer_factory.hpp:76] Creating layer inception_5a/output_inception_5a/output_0_split
I1105 17:20:23.853240 24412 net.cpp:106] Creating Layer inception_5a/output_inception_5a/output_0_split
I1105 17:20:23.853255 24412 net.cpp:454] inception_5a/output_inception_5a/output_0_split <- inception_5a/output
I1105 17:20:23.853261 24412 net.cpp:411] inception_5a/output_inception_5a/output_0_split -> inception_5a/output_inception_5a/output_0_split_0
I1105 17:20:23.853283 24412 net.cpp:411] inception_5a/output_inception_5a/output_0_split -> inception_5a/output_inception_5a/output_0_split_1
I1105 17:20:23.853291 24412 net.cpp:411] inception_5a/output_inception_5a/output_0_split -> inception_5a/output_inception_5a/output_0_split_2
I1105 17:20:23.853297 24412 net.cpp:411] inception_5a/output_inception_5a/output_0_split -> inception_5a/output_inception_5a/output_0_split_3
I1105 17:20:23.853354 24412 net.cpp:150] Setting up inception_5a/output_inception_5a/output_0_split
I1105 17:20:23.853363 24412 net.cpp:157] Top shape: 50 832 7 7 (2038400)
I1105 17:20:23.853368 24412 net.cpp:157] Top shape: 50 832 7 7 (2038400)
I1105 17:20:23.853373 24412 net.cpp:157] Top shape: 50 832 7 7 (2038400)
I1105 17:20:23.853377 24412 net.cpp:157] Top shape: 50 832 7 7 (2038400)
I1105 17:20:23.853381 24412 net.cpp:165] Memory required for data: 2760861416
I1105 17:20:23.853385 24412 layer_factory.hpp:76] Creating layer inception_5b/1x1
I1105 17:20:23.853394 24412 net.cpp:106] Creating Layer inception_5b/1x1
I1105 17:20:23.853399 24412 net.cpp:454] inception_5b/1x1 <- inception_5a/output_inception_5a/output_0_split_0
I1105 17:20:23.853405 24412 net.cpp:411] inception_5b/1x1 -> inception_5b/1x1
I1105 17:20:23.856863 24412 cudnn_conv_layer.cpp:194] Reallocating workspace storage: 7428
I1105 17:20:23.856901 24412 net.cpp:150] Setting up inception_5b/1x1
I1105 17:20:23.856914 24412 net.cpp:157] Top shape: 50 384 7 7 (940800)
I1105 17:20:23.856917 24412 net.cpp:165] Memory required for data: 2764624616
I1105 17:20:23.856925 24412 layer_factory.hpp:76] Creating layer inception_5b/prelu_1x1
I1105 17:20:23.856935 24412 net.cpp:106] Creating Layer inception_5b/prelu_1x1
I1105 17:20:23.856940 24412 net.cpp:454] inception_5b/prelu_1x1 <- inception_5b/1x1
I1105 17:20:23.856946 24412 net.cpp:397] inception_5b/prelu_1x1 -> inception_5b/1x1 (in-place)
I1105 17:20:23.857077 24412 net.cpp:150] Setting up inception_5b/prelu_1x1
I1105 17:20:23.857087 24412 net.cpp:157] Top shape: 50 384 7 7 (940800)
I1105 17:20:23.857091 24412 net.cpp:165] Memory required for data: 2768387816
I1105 17:20:23.857097 24412 layer_factory.hpp:76] Creating layer inception_5b/3x3_reduce
I1105 17:20:23.857107 24412 net.cpp:106] Creating Layer inception_5b/3x3_reduce
I1105 17:20:23.857112 24412 net.cpp:454] inception_5b/3x3_reduce <- inception_5a/output_inception_5a/output_0_split_1
I1105 17:20:23.857120 24412 net.cpp:411] inception_5b/3x3_reduce -> inception_5b/3x3_reduce
I1105 17:20:23.859402 24412 cudnn_conv_layer.cpp:194] Reallocating workspace storage: 7428
I1105 17:20:23.859441 24412 net.cpp:150] Setting up inception_5b/3x3_reduce
I1105 17:20:23.859449 24412 net.cpp:157] Top shape: 50 192 7 7 (470400)
I1105 17:20:23.859453 24412 net.cpp:165] Memory required for data: 2770269416
I1105 17:20:23.859470 24412 layer_factory.hpp:76] Creating layer inception_5b/prelu_3x3_reduce
I1105 17:20:23.859479 24412 net.cpp:106] Creating Layer inception_5b/prelu_3x3_reduce
I1105 17:20:23.859485 24412 net.cpp:454] inception_5b/prelu_3x3_reduce <- inception_5b/3x3_reduce
I1105 17:20:23.859491 24412 net.cpp:397] inception_5b/prelu_3x3_reduce -> inception_5b/3x3_reduce (in-place)
I1105 17:20:23.859612 24412 net.cpp:150] Setting up inception_5b/prelu_3x3_reduce
I1105 17:20:23.859622 24412 net.cpp:157] Top shape: 50 192 7 7 (470400)
I1105 17:20:23.859625 24412 net.cpp:165] Memory required for data: 2772151016
I1105 17:20:23.859630 24412 layer_factory.hpp:76] Creating layer inception_5b/3x3
I1105 17:20:23.859639 24412 net.cpp:106] Creating Layer inception_5b/3x3
I1105 17:20:23.859643 24412 net.cpp:454] inception_5b/3x3 <- inception_5b/3x3_reduce
I1105 17:20:23.859652 24412 net.cpp:411] inception_5b/3x3 -> inception_5b/3x3
I1105 17:20:23.865386 24412 cudnn_conv_layer.cpp:194] Reallocating workspace storage: 7788
I1105 17:20:23.865440 24412 net.cpp:150] Setting up inception_5b/3x3
I1105 17:20:23.865460 24412 net.cpp:157] Top shape: 50 384 7 7 (940800)
I1105 17:20:23.865465 24412 net.cpp:165] Memory required for data: 2775914216
I1105 17:20:23.865489 24412 layer_factory.hpp:76] Creating layer inception_5b/prelu_3x3
I1105 17:20:23.865499 24412 net.cpp:106] Creating Layer inception_5b/prelu_3x3
I1105 17:20:23.865506 24412 net.cpp:454] inception_5b/prelu_3x3 <- inception_5b/3x3
I1105 17:20:23.865515 24412 net.cpp:397] inception_5b/prelu_3x3 -> inception_5b/3x3 (in-place)
I1105 17:20:23.865669 24412 net.cpp:150] Setting up inception_5b/prelu_3x3
I1105 17:20:23.865677 24412 net.cpp:157] Top shape: 50 384 7 7 (940800)
I1105 17:20:23.865681 24412 net.cpp:165] Memory required for data: 2779677416
I1105 17:20:23.865697 24412 layer_factory.hpp:76] Creating layer inception_5b/5x5_reduce
I1105 17:20:23.865707 24412 net.cpp:106] Creating Layer inception_5b/5x5_reduce
I1105 17:20:23.865712 24412 net.cpp:454] inception_5b/5x5_reduce <- inception_5a/output_inception_5a/output_0_split_2
I1105 17:20:23.865731 24412 net.cpp:411] inception_5b/5x5_reduce -> inception_5b/5x5_reduce
I1105 17:20:23.867537 24412 cudnn_conv_layer.cpp:194] Reallocating workspace storage: 7428
I1105 17:20:23.867604 24412 net.cpp:150] Setting up inception_5b/5x5_reduce
I1105 17:20:23.867620 24412 net.cpp:157] Top shape: 50 48 7 7 (117600)
I1105 17:20:23.867625 24412 net.cpp:165] Memory required for data: 2780147816
I1105 17:20:23.867635 24412 layer_factory.hpp:76] Creating layer inception_5b/prelu_5x5_reduce
I1105 17:20:23.867645 24412 net.cpp:106] Creating Layer inception_5b/prelu_5x5_reduce
I1105 17:20:23.867650 24412 net.cpp:454] inception_5b/prelu_5x5_reduce <- inception_5b/5x5_reduce
I1105 17:20:23.867660 24412 net.cpp:397] inception_5b/prelu_5x5_reduce -> inception_5b/5x5_reduce (in-place)
I1105 17:20:23.867815 24412 net.cpp:150] Setting up inception_5b/prelu_5x5_reduce
I1105 17:20:23.867825 24412 net.cpp:157] Top shape: 50 48 7 7 (117600)
I1105 17:20:23.867830 24412 net.cpp:165] Memory required for data: 2780618216
I1105 17:20:23.867835 24412 layer_factory.hpp:76] Creating layer inception_5b/5x5
I1105 17:20:23.867844 24412 net.cpp:106] Creating Layer inception_5b/5x5
I1105 17:20:23.867849 24412 net.cpp:454] inception_5b/5x5 <- inception_5b/5x5_reduce
I1105 17:20:23.867856 24412 net.cpp:411] inception_5b/5x5 -> inception_5b/5x5
I1105 17:20:23.870020 24412 cudnn_conv_layer.cpp:194] Reallocating workspace storage: 9804
I1105 17:20:23.870069 24412 net.cpp:150] Setting up inception_5b/5x5
I1105 17:20:23.870079 24412 net.cpp:157] Top shape: 50 128 7 7 (313600)
I1105 17:20:23.870084 24412 net.cpp:165] Memory required for data: 2781872616
I1105 17:20:23.870091 24412 layer_factory.hpp:76] Creating layer inception_5b/prelu_5x5
I1105 17:20:23.870116 24412 net.cpp:106] Creating Layer inception_5b/prelu_5x5
I1105 17:20:23.870141 24412 net.cpp:454] inception_5b/prelu_5x5 <- inception_5b/5x5
I1105 17:20:23.870156 24412 net.cpp:397] inception_5b/prelu_5x5 -> inception_5b/5x5 (in-place)
I1105 17:20:23.870324 24412 net.cpp:150] Setting up inception_5b/prelu_5x5
I1105 17:20:23.870338 24412 net.cpp:157] Top shape: 50 128 7 7 (313600)
I1105 17:20:23.870342 24412 net.cpp:165] Memory required for data: 2783127016
I1105 17:20:23.870348 24412 layer_factory.hpp:76] Creating layer inception_5b/pool
I1105 17:20:23.870359 24412 net.cpp:106] Creating Layer inception_5b/pool
I1105 17:20:23.870365 24412 net.cpp:454] inception_5b/pool <- inception_5a/output_inception_5a/output_0_split_3
I1105 17:20:23.870373 24412 net.cpp:411] inception_5b/pool -> inception_5b/pool
I1105 17:20:23.870610 24412 net.cpp:150] Setting up inception_5b/pool
I1105 17:20:23.870621 24412 net.cpp:157] Top shape: 50 832 7 7 (2038400)
I1105 17:20:23.870625 24412 net.cpp:165] Memory required for data: 2791280616
I1105 17:20:23.870630 24412 layer_factory.hpp:76] Creating layer inception_5b/pool_proj
I1105 17:20:23.870641 24412 net.cpp:106] Creating Layer inception_5b/pool_proj
I1105 17:20:23.870646 24412 net.cpp:454] inception_5b/pool_proj <- inception_5b/pool
I1105 17:20:23.870654 24412 net.cpp:411] inception_5b/pool_proj -> inception_5b/pool_proj
I1105 17:20:23.872990 24412 cudnn_conv_layer.cpp:194] Reallocating workspace storage: 7428
I1105 17:20:23.873050 24412 net.cpp:150] Setting up inception_5b/pool_proj
I1105 17:20:23.873061 24412 net.cpp:157] Top shape: 50 128 7 7 (313600)
I1105 17:20:23.873066 24412 net.cpp:165] Memory required for data: 2792535016
I1105 17:20:23.873080 24412 layer_factory.hpp:76] Creating layer inception_5b/prelu_pool_proj
I1105 17:20:23.873090 24412 net.cpp:106] Creating Layer inception_5b/prelu_pool_proj
I1105 17:20:23.873095 24412 net.cpp:454] inception_5b/prelu_pool_proj <- inception_5b/pool_proj
I1105 17:20:23.873112 24412 net.cpp:397] inception_5b/prelu_pool_proj -> inception_5b/pool_proj (in-place)
I1105 17:20:23.873215 24412 net.cpp:150] Setting up inception_5b/prelu_pool_proj
I1105 17:20:23.873224 24412 net.cpp:157] Top shape: 50 128 7 7 (313600)
I1105 17:20:23.873229 24412 net.cpp:165] Memory required for data: 2793789416
I1105 17:20:23.873234 24412 layer_factory.hpp:76] Creating layer inception_5b/output
I1105 17:20:23.873241 24412 net.cpp:106] Creating Layer inception_5b/output
I1105 17:20:23.873247 24412 net.cpp:454] inception_5b/output <- inception_5b/1x1
I1105 17:20:23.873252 24412 net.cpp:454] inception_5b/output <- inception_5b/3x3
I1105 17:20:23.873257 24412 net.cpp:454] inception_5b/output <- inception_5b/5x5
I1105 17:20:23.873262 24412 net.cpp:454] inception_5b/output <- inception_5b/pool_proj
I1105 17:20:23.873267 24412 net.cpp:411] inception_5b/output -> inception_5b/output
I1105 17:20:23.873294 24412 net.cpp:150] Setting up inception_5b/output
I1105 17:20:23.873303 24412 net.cpp:157] Top shape: 50 1024 7 7 (2508800)
I1105 17:20:23.873307 24412 net.cpp:165] Memory required for data: 2803824616
I1105 17:20:23.873311 24412 layer_factory.hpp:76] Creating layer pool5/7x7_s1
I1105 17:20:23.873320 24412 net.cpp:106] Creating Layer pool5/7x7_s1
I1105 17:20:23.873335 24412 net.cpp:454] pool5/7x7_s1 <- inception_5b/output
I1105 17:20:23.873344 24412 net.cpp:411] pool5/7x7_s1 -> pool5/7x7_s1
I1105 17:20:23.873800 24412 net.cpp:150] Setting up pool5/7x7_s1
I1105 17:20:23.873811 24412 net.cpp:157] Top shape: 50 1024 1 1 (51200)
I1105 17:20:23.873826 24412 net.cpp:165] Memory required for data: 2804029416
I1105 17:20:23.873831 24412 layer_factory.hpp:76] Creating layer pool5/drop_7x7_s1
I1105 17:20:23.873839 24412 net.cpp:106] Creating Layer pool5/drop_7x7_s1
I1105 17:20:23.873854 24412 net.cpp:454] pool5/drop_7x7_s1 <- pool5/7x7_s1
I1105 17:20:23.873862 24412 net.cpp:397] pool5/drop_7x7_s1 -> pool5/7x7_s1 (in-place)
I1105 17:20:23.873900 24412 net.cpp:150] Setting up pool5/drop_7x7_s1
I1105 17:20:23.873920 24412 net.cpp:157] Top shape: 50 1024 1 1 (51200)
I1105 17:20:23.873935 24412 net.cpp:165] Memory required for data: 2804234216
I1105 17:20:23.873939 24412 layer_factory.hpp:76] Creating layer loss3/classifier2
I1105 17:20:23.873957 24412 net.cpp:106] Creating Layer loss3/classifier2
I1105 17:20:23.873961 24412 net.cpp:454] loss3/classifier2 <- pool5/7x7_s1
I1105 17:20:23.873970 24412 net.cpp:411] loss3/classifier2 -> loss3/classifier
I1105 17:20:23.874141 24412 net.cpp:150] Setting up loss3/classifier2
I1105 17:20:23.874150 24412 net.cpp:157] Top shape: 50 2 (100)
I1105 17:20:23.874164 24412 net.cpp:165] Memory required for data: 2804234616
I1105 17:20:23.874172 24412 layer_factory.hpp:76] Creating layer loss3/classifier_loss3/classifier2_0_split
I1105 17:20:23.874192 24412 net.cpp:106] Creating Layer loss3/classifier_loss3/classifier2_0_split
I1105 17:20:23.874198 24412 net.cpp:454] loss3/classifier_loss3/classifier2_0_split <- loss3/classifier
I1105 17:20:23.874204 24412 net.cpp:411] loss3/classifier_loss3/classifier2_0_split -> loss3/classifier_loss3/classifier2_0_split_0
I1105 17:20:23.874212 24412 net.cpp:411] loss3/classifier_loss3/classifier2_0_split -> loss3/classifier_loss3/classifier2_0_split_1
I1105 17:20:23.874265 24412 net.cpp:150] Setting up loss3/classifier_loss3/classifier2_0_split
I1105 17:20:23.874274 24412 net.cpp:157] Top shape: 50 2 (100)
I1105 17:20:23.874279 24412 net.cpp:157] Top shape: 50 2 (100)
I1105 17:20:23.874282 24412 net.cpp:165] Memory required for data: 2804235416
I1105 17:20:23.874286 24412 layer_factory.hpp:76] Creating layer loss3/loss3
I1105 17:20:23.874310 24412 net.cpp:106] Creating Layer loss3/loss3
I1105 17:20:23.874315 24412 net.cpp:454] loss3/loss3 <- loss3/classifier_loss3/classifier2_0_split_0
I1105 17:20:23.874321 24412 net.cpp:454] loss3/loss3 <- label_data_1_split_4
…
