…
I1105 17:49:47.801780 24694 net.cpp:322] The NetState phase (0) differed from the phase (1) specified by a rule in layer loss3/top-1
I1105 17:49:47.802772 24694 net.cpp:49] Initializing net from parameters: 
name: "GoogleNet"
state {
  phase: TRAIN
}
layer {
  name: "data"
  type: "Data"
  top: "data"
  top: "label"
  include {
    phase: TRAIN
  }
  transform_param {
    mirror: true
    crop_size: 224
    mean_value: 104
    mean_value: 117
    mean_value: 123
  }
  data_param {
    source: "../../LMDB/train_8-lmdb"
    batch_size: 32
    backend: LMDB
  }
}
layer {
  name: "conv1/7x7_s2"
  type: "Convolution"
  bottom: "data"
  top: "conv1/7x7_s2"
  param {
    lr_mult: 1
    decay_mult: 1
  }
  param {
    lr_mult: 2
    decay_mult: 0
  }
  convolution_param {
    num_output: 64
    pad: 3
    kernel_size: 7
    stride: 2
    weight_filler {
      type: "xavier"
    }
    bias_filler {
      type: "constant"
      value: 0.2
    }
  }
}
layer {
  name: "conv1/prelu_7x7"
  type: "PReLU"
  bottom: "conv1/7x7_s2"
  top: "conv1/7x7_s2"
  param {
    lr_mult: 1
    decay_mult: 0
  }
  prelu_param {
    filler {
      type: "constant"
      value: 0.01
    }
  }
}
layer {
  name: "pool1/3x3_s2"
  type: "Pooling"
  bottom: "conv1/7x7_s2"
  top: "pool1/3x3_s2"
  pooling_param {
    pool: MAX
    kernel_size: 3
    stride: 2
  }
}
layer {
  name: "pool1/norm1"
  type: "LRN"
  bottom: "pool1/3x3_s2"
  top: "pool1/norm1"
  lrn_param {
    local_size: 5
    alpha: 0.0001
    beta: 0.75
  }
}
layer {
  name: "conv2/3x3_reduce"
  type: "Convolution"
  bottom: "pool1/norm1"
  top: "conv2/3x3_reduce"
  param {
    lr_mult: 1
    decay_mult: 1
  }
  param {
    lr_mult: 2
    decay_mult: 0
  }
  convolution_param {
    num_output: 64
    kernel_size: 1
    weight_filler {
      type: "xavier"
    }
    bias_filler {
      type: "constant"
      value: 0.2
    }
  }
}
layer {
  name: "conv2/prelu_3x3_reduce"
  type: "PReLU"
  bottom: "conv2/3x3_reduce"
  top: "conv2/3x3_reduce"
  param {
    lr_mult: 1
    decay_mult: 0
  }
  prelu_param {
    filler {
      type: "constant"
      value: 0.01
    }
  }
}
layer {
  name: "conv2/3x3"
  type: "Convolution"
  bottom: "conv2/3x3_reduce"
  top: "conv2/3x3"
  param {
    lr_mult: 1
    decay_mult: 1
  }
  param {
    lr_mult: 2
    decay_mult: 0
  }
  convolution_param {
    num_output: 192
    pad: 1
    kernel_size: 3
    weight_filler {
      type: "xavier"
    }
    bias_filler {
      type: "constant"
      value: 0.2
    }
  }
}
layer {
  name: "conv2/prelu_3x3"
  type: "PReLU"
  bottom: "conv2/3x3"
  top: "conv2/3x3"
  param {
    lr_mult: 1
    decay_mult: 0
  }
  prelu_param {
    filler {
      type: "constant"
      value: 0.01
    }
  }
}
layer {
  name: "conv2/norm2"
  type: "LRN"
  bottom: "conv2/3x3"
  top: "conv2/norm2"
  lrn_param {
    local_size: 5
    alpha: 0.0001
    beta: 0.75
  }
}
layer {
  name: "pool2/3x3_s2"
  type: "Pooling"
  bottom: "conv2/norm2"
  top: "pool2/3x3_s2"
  pooling_param {
    pool: MAX
    kernel_size: 3
    stride: 2
  }
}
layer {
  name: "inception_3a/1x1"
  type: "Convolution"
  bottom: "pool2/3x3_s2"
  top: "inception_3a/1x1"
  param {
    lr_mult: 1
    decay_mult: 1
  }
  param {
    lr_mult: 2
    decay_mult: 0
  }
  convolution_param {
    num_output: 64
    kernel_size: 1
    weight_filler {
      type: "xavier"
    }
    bias_filler {
      type: "constant"
      value: 0.2
    }
  }
}
layer {
  name: "inception_3a/prelu_1x1"
  type: "PReLU"
  bottom: "inception_3a/1x1"
  top: "inception_3a/1x1"
  param {
    lr_mult: 1
    decay_mult: 0
  }
  prelu_param {
    filler {
      type: "constant"
      value: 0.01
    }
  }
}
layer {
  name: "inception_3a/3x3_reduce"
  type: "Convolution"
  bottom: "pool2/3x3_s2"
  top: "inception_3a/3x3_reduce"
  param {
    lr_mult: 1
    decay_mult: 1
  }
  param {
    lr_mult: 2
    decay_mult: 0
  }
  convolution_param {
    num_output: 96
    kernel_size: 1
    weight_filler {
      type: "xavier"
    }
    bias_filler {
      type: "constant"
      value: 0.2
    }
  }
}
layer {
  name: "inception_3a/prelu_3x3_reduce"
  type: "PReLU"
  bottom: "inception_3a/3x3_reduce"
  top: "inception_3a/3x3_reduce"
  param {
    lr_mult: 1
    decay_mult: 0
  }
  prelu_param {
    filler {
      type: "constant"
      value: 0.01
    }
  }
}
layer {
  name: "inception_3a/3x3"
  type: "Convolution"
  bottom: "inception_3a/3x3_reduce"
  top: "inception_3a/3x3"
  param {
    lr_mult: 1
    decay_mult: 1
  }
  param {
    lr_mult: 2
    decay_mult: 0
  }
  convolution_param {
    num_output: 128
    pad: 1
    kernel_size: 3
    weight_filler {
      type: "xavier"
    }
    bias_filler {
      type: "constant"
      value: 0.2
    }
  }
}
layer {
  name: "inception_3a/prelu_3x3"
  type: "PReLU"
  bottom: "inception_3a/3x3"
  top: "inception_3a/3x3"
  param {
    lr_mult: 1
    decay_mult: 0
  }
  prelu_param {
    filler {
      type: "constant"
      value: 0.01
    }
  }
}
layer {
  name: "inception_3a/5x5_reduce"
  type: "Convolution"
  bottom: "pool2/3x3_s2"
  top: "inception_3a/5x5_reduce"
  param {
    lr_mult: 1
    decay_mult: 1
  }
  param {
    lr_mult: 2
    decay_mult: 0
  }
  convolution_param {
    num_output: 16
    kernel_size: 1
    weight_filler {
      type: "xavier"
    }
    bias_filler {
      type: "constant"
      value: 0.2
    }
  }
}
layer {
  name: "inception_3a/prelu_5x5_reduce"
  type: "PReLU"
  bottom: "inception_3a/5x5_reduce"
  top: "inception_3a/5x5_reduce"
  param {
    lr_mult: 1
    decay_mult: 0
  }
  prelu_param {
    filler {
      type: "constant"
      value: 0.01
    }
  }
}
layer {
  name: "inception_3a/5x5"
  type: "Convolution"
  bottom: "inception_3a/5x5_reduce"
  top: "inception_3a/5x5"
  param {
    lr_mult: 1
    decay_mult: 1
  }
  param {
    lr_mult: 2
    decay_mult: 0
  }
  convolution_param {
    num_output: 32
    pad: 2
    kernel_size: 5
    weight_filler {
      type: "xavier"
    }
    bias_filler {
      type: "constant"
      value: 0.2
    }
  }
}
layer {
  name: "inception_3a/prelu_5x5"
  type: "PReLU"
  bottom: "inception_3a/5x5"
  top: "inception_3a/5x5"
  param {
    lr_mult: 1
    decay_mult: 0
  }
  prelu_param {
    filler {
      type: "constant"
      value: 0.01
    }
  }
}
layer {
  name: "inception_3a/pool"
  type: "Pooling"
  bottom: "pool2/3x3_s2"
  top: "inception_3a/pool"
  pooling_param {
    pool: MAX
    kernel_size: 3
    stride: 1
    pad: 1
  }
}
layer {
  name: "inception_3a/pool_proj"
  type: "Convolution"
  bottom: "inception_3a/pool"
  top: "inception_3a/pool_proj"
  param {
    lr_mult: 1
    decay_mult: 1
  }
  param {
    lr_mult: 2
    decay_mult: 0
  }
  convolution_param {
    num_output: 32
    kernel_size: 1
    weight_filler {
      type: "xavier"
    }
    bias_filler {
      type: "constant"
      value: 0.2
    }
  }
}
layer {
  name: "inception_3a/prelu_pool_proj"
  type: "PReLU"
  bottom: "inception_3a/pool_proj"
  top: "inception_3a/pool_proj"
  param {
    lr_mult: 1
    decay_mult: 0
  }
  prelu_param {
    filler {
      type: "constant"
      value: 0.01
    }
  }
}
layer {
  name: "inception_3a/output"
  type: "Concat"
  bottom: "inception_3a/1x1"
  bottom: "inception_3a/3x3"
  bottom: "inception_3a/5x5"
  bottom: "inception_3a/pool_proj"
  top: "inception_3a/output"
}
layer {
  name: "inception_3b/1x1"
  type: "Convolution"
  bottom: "inception_3a/output"
  top: "inception_3b/1x1"
  param {
    lr_mult: 1
    decay_mult: 1
  }
  param {
    lr_mult: 2
    decay_mult: 0
  }
  convolution_param {
    num_output: 128
    kernel_size: 1
    weight_filler {
      type: "xavier"
    }
    bias_filler {
      type: "constant"
      value: 0.2
    }
  }
}
layer {
  name: "inception_3b/prelu_1x1"
  type: "PReLU"
  bottom: "inception_3b/1x1"
  top: "inception_3b/1x1"
  param {
    lr_mult: 1
    decay_mult: 0
  }
  prelu_param {
    filler {
      type: "constant"
      value: 0.01
    }
  }
}
layer {
  name: "inception_3b/3x3_reduce"
  type: "Convolution"
  bottom: "inception_3a/output"
  top: "inception_3b/3x3_reduce"
  param {
    lr_mult: 1
    decay_mult: 1
  }
  param {
    lr_mult: 2
    decay_mult: 0
  }
  convolution_param {
    num_output: 128
    kernel_size: 1
    weight_filler {
      type: "xavier"
    }
    bias_filler {
      type: "constant"
      value: 0.2
    }
  }
}
layer {
  name: "inception_3b/prelu_3x3_reduce"
  type: "PReLU"
  bottom: "inception_3b/3x3_reduce"
  top: "inception_3b/3x3_reduce"
  param {
    lr_mult: 1
    decay_mult: 0
  }
  prelu_param {
    filler {
      type: "constant"
      value: 0.01
    }
  }
}
layer {
  name: "inception_3b/3x3"
  type: "Convolution"
  bottom: "inception_3b/3x3_reduce"
  top: "inception_3b/3x3"
  param {
    lr_mult: 1
    decay_mult: 1
  }
  param {
    lr_mult: 2
    decay_mult: 0
  }
  convolution_param {
    num_output: 192
    pad: 1
    kernel_size: 3
    weight_filler {
      type: "xavier"
    }
    bias_filler {
      type: "constant"
      value: 0.2
    }
  }
}
layer {
  name: "inception_3b/prelu_3x3"
  type: "PReLU"
  bottom: "inception_3b/3x3"
  top: "inception_3b/3x3"
  param {
    lr_mult: 1
    decay_mult: 0
  }
  prelu_param {
    filler {
      type: "constant"
      value: 0.01
    }
  }
}
layer {
  name: "inception_3b/5x5_reduce"
  type: "Convolution"
  bottom: "inception_3a/output"
  top: "inception_3b/5x5_reduce"
  param {
    lr_mult: 1
    decay_mult: 1
  }
  param {
    lr_mult: 2
    decay_mult: 0
  }
  convolution_param {
    num_output: 32
    kernel_size: 1
    weight_filler {
      type: "xavier"
    }
    bias_filler {
      type: "constant"
      value: 0.2
    }
  }
}
layer {
  name: "inception_3b/prelu_5x5_reduce"
  type: "PReLU"
  bottom: "inception_3b/5x5_reduce"
  top: "inception_3b/5x5_reduce"
  param {
    lr_mult: 1
    decay_mult: 0
  }
  prelu_param {
    filler {
      type: "constant"
      value: 0.01
    }
  }
}
layer {
  name: "inception_3b/5x5"
  type: "Convolution"
  bottom: "inception_3b/5x5_reduce"
  top: "inception_3b/5x5"
  param {
    lr_mult: 1
    decay_mult: 1
  }
  param {
    lr_mult: 2
    decay_mult: 0
  }
  convolution_param {
    num_output: 96
    pad: 2
    kernel_size: 5
    weight_filler {
      type: "xavier"
    }
    bias_filler {
      type: "constant"
      value: 0.2
    }
  }
}
layer {
  name: "inception_3b/prelu_5x5"
  type: "PReLU"
  bottom: "inception_3b/5x5"
  top: "inception_3b/5x5"
  param {
    lr_mult: 1
    decay_mult: 0
  }
  prelu_param {
    filler {
      type: "constant"
      value: 0.01
    }
  }
}
layer {
  name: "inception_3b/pool"
  type: "Pooling"
  bottom: "inception_3a/output"
  top: "inception_3b/pool"
  pooling_param {
    pool: MAX
    kernel_size: 3
    stride: 1
    pad: 1
  }
}
layer {
  name: "inception_3b/pool_proj"
  type: "Convolution"
  bottom: "inception_3b/pool"
  top: "inception_3b/pool_proj"
  param {
    lr_mult: 1
    decay_mult: 1
  }
  param {
    lr_mult: 2
    decay_mult: 0
  }
  convolution_param {
    num_output: 64
    kernel_size: 1
    weight_filler {
      type: "xavier"
    }
    bias_filler {
      type: "constant"
      value: 0.2
    }
  }
}
layer {
  name: "inception_3b/prelu_pool_proj"
  type: "PReLU"
  bottom: "inception_3b/pool_proj"
  top: "inception_3b/pool_proj"
  param {
    lr_mult: 1
    decay_mult: 0
  }
  prelu_param {
    filler {
      type: "constant"
      value: 0.01
    }
  }
}
layer {
  name: "inception_3b/output"
  type: "Concat"
  bottom: "inception_3b/1x1"
  bottom: "inception_3b/3x3"
  bottom: "inception_3b/5x5"
  bottom: "inception_3b/pool_proj"
  top: "inception_3b/output"
}
layer {
  name: "pool3/3x3_s2"
  type: "Pooling"
  bottom: "inception_3b/output"
  top: "pool3/3x3_s2"
  pooling_param {
    pool: MAX
    kernel_size: 3
    stride: 2
  }
}
layer {
  name: "inception_4a/1x1"
  type: "Convolution"
  bottom: "pool3/3x3_s2"
  top: "inception_4a/1x1"
  param {
    lr_mult: 1
    decay_mult: 1
  }
  param {
    lr_mult: 2
    decay_mult: 0
  }
  convolution_param {
    num_output: 192
    kernel_size: 1
    weight_filler {
      type: "xavier"
    }
    bias_filler {
      type: "constant"
      value: 0.2
    }
  }
}
layer {
  name: "inception_4a/prelu_1x1"
  type: "PReLU"
  bottom: "inception_4a/1x1"
  top: "inception_4a/1x1"
  param {
    lr_mult: 1
    decay_mult: 0
  }
  prelu_param {
    filler {
      type: "constant"
      value: 0.01
    }
  }
}
layer {
  name: "inception_4a/3x3_reduce"
  type: "Convolution"
  bottom: "pool3/3x3_s2"
  top: "inception_4a/3x3_reduce"
  param {
    lr_mult: 1
    decay_mult: 1
  }
  param {
    lr_mult: 2
    decay_mult: 0
  }
  convolution_param {
    num_output: 96
    kernel_size: 1
    weight_filler {
      type: "xavier"
    }
    bias_filler {
      type: "constant"
      value: 0.2
    }
  }
}
layer {
  name: "inception_4a/prelu_3x3_reduce"
  type: "PReLU"
  bottom: "inception_4a/3x3_reduce"
  top: "inception_4a/3x3_reduce"
  param {
    lr_mult: 1
    decay_mult: 0
  }
  prelu_param {
    filler {
      type: "constant"
      value: 0.01
    }
  }
}
layer {
  name: "inception_4a/3x3"
  type: "Convolution"
  bottom: "inception_4a/3x3_reduce"
  top: "inception_4a/3x3"
  param {
    lr_mult: 1
    decay_mult: 1
  }
  param {
    lr_mult: 2
    decay_mult: 0
  }
  convolution_param {
    num_output: 208
    pad: 1
    kernel_size: 3
    weight_filler {
      type: "xavier"
    }
    bias_filler {
      type: "constant"
      value: 0.2
    }
  }
}
layer {
  name: "inception_4a/prelu_3x3"
  type: "PReLU"
  bottom: "inception_4a/3x3"
  top: "inception_4a/3x3"
  param {
    lr_mult: 1
    decay_mult: 0
  }
  prelu_param {
    filler {
      type: "constant"
      value: 0.01
    }
  }
}
layer {
  name: "inception_4a/5x5_reduce"
  type: "Convolution"
  bottom: "pool3/3x3_s2"
  top: "inception_4a/5x5_reduce"
  param {
    lr_mult: 1
    decay_mult: 1
  }
  param {
    lr_mult: 2
    decay_mult: 0
  }
  convolution_param {
    num_output: 16
    kernel_size: 1
    weight_filler {
      type: "xavier"
    }
    bias_filler {
      type: "constant"
      value: 0.2
    }
  }
}
layer {
  name: "inception_4a/prelu_5x5_reduce"
  type: "PReLU"
  bottom: "inception_4a/5x5_reduce"
  top: "inception_4a/5x5_reduce"
  param {
    lr_mult: 1
    decay_mult: 0
  }
  prelu_param {
    filler {
      type: "constant"
      value: 0.01
    }
  }
}
layer {
  name: "inception_4a/5x5"
  type: "Convolution"
  bottom: "inception_4a/5x5_reduce"
  top: "inception_4a/5x5"
  param {
    lr_mult: 1
    decay_mult: 1
  }
  param {
    lr_mult: 2
    decay_mult: 0
  }
  convolution_param {
    num_output: 48
    pad: 2
    kernel_size: 5
    weight_filler {
      type: "xavier"
    }
    bias_filler {
      type: "constant"
      value: 0.2
    }
  }
}
layer {
  name: "inception_4a/prelu_5x5"
  type: "PReLU"
  bottom: "inception_4a/5x5"
  top: "inception_4a/5x5"
  param {
    lr_mult: 1
    decay_mult: 0
  }
  prelu_param {
    filler {
      type: "constant"
      value: 0.01
    }
  }
}
layer {
  name: "inception_4a/pool"
  type: "Pooling"
  bottom: "pool3/3x3_s2"
  top: "inception_4a/pool"
  pooling_param {
    pool: MAX
    kernel_size: 3
    stride: 1
    pad: 1
  }
}
layer {
  name: "inception_4a/pool_proj"
  type: "Convolution"
  bottom: "inception_4a/pool"
  top: "inception_4a/pool_proj"
  param {
    lr_mult: 1
    decay_mult: 1
  }
  param {
    lr_mult: 2
    decay_mult: 0
  }
  convolution_param {
    num_output: 64
    kernel_size: 1
    weight_filler {
      type: "xavier"
    }
    bias_filler {
      type: "constant"
      value: 0.2
    }
  }
}
layer {
  name: "inception_4a/prelu_pool_proj"
  type: "PReLU"
  bottom: "inception_4a/pool_proj"
  top: "inception_4a/pool_proj"
  param {
    lr_mult: 1
    decay_mult: 0
  }
  prelu_param {
    filler {
      type: "constant"
      value: 0.01
    }
  }
}
layer {
  name: "inception_4a/output"
  type: "Concat"
  bottom: "inception_4a/1x1"
  bottom: "inception_4a/3x3"
  bottom: "inception_4a/5x5"
  bottom: "inception_4a/pool_proj"
  top: "inception_4a/output"
}
layer {
  name: "loss1/ave_pool"
  type: "Pooling"
  bottom: "inception_4a/output"
  top: "loss1/ave_pool"
  pooling_param {
    pool: AVE
    kernel_size: 5
    stride: 3
  }
}
layer {
  name: "loss1/conv"
  type: "Convolution"
  bottom: "loss1/ave_pool"
  top: "loss1/conv"
  param {
    lr_mult: 1
    decay_mult: 1
  }
  param {
    lr_mult: 2
    decay_mult: 0
  }
  convolution_param {
    num_output: 128
    kernel_size: 1
    weight_filler {
      type: "xavier"
    }
    bias_filler {
      type: "constant"
      value: 0.2
    }
  }
}
layer {
  name: "loss1/prelu_conv"
  type: "PReLU"
  bottom: "loss1/conv"
  top: "loss1/conv"
  param {
    lr_mult: 1
    decay_mult: 0
  }
  prelu_param {
    filler {
      type: "constant"
      value: 0.01
    }
  }
}
layer {
  name: "loss1/fc"
  type: "InnerProduct"
  bottom: "loss1/conv"
  top: "loss1/fc"
  param {
    lr_mult: 1
    decay_mult: 1
  }
  param {
    lr_mult: 2
    decay_mult: 0
  }
  inner_product_param {
    num_output: 1024
    weight_filler {
      type: "xavier"
    }
    bias_filler {
      type: "constant"
      value: 0.2
    }
  }
}
layer {
  name: "loss1/prelu_fc"
  type: "PReLU"
  bottom: "loss1/fc"
  top: "loss1/fc"
  param {
    lr_mult: 1
    decay_mult: 0
  }
  prelu_param {
    filler {
      type: "constant"
      value: 0.01
    }
  }
}
layer {
  name: "loss1/drop_fc"
  type: "Dropout"
  bottom: "loss1/fc"
  top: "loss1/fc"
  dropout_param {
    dropout_ratio: 0.7
  }
}
layer {
  name: "loss1/classifier2"
  type: "InnerProduct"
  bottom: "loss1/fc"
  top: "loss1/classifier"
  param {
    lr_mult: 1
    decay_mult: 1
  }
  param {
    lr_mult: 2
    decay_mult: 0
  }
  inner_product_param {
    num_output: 2
    weight_filler {
      type: "xavier"
    }
    bias_filler {
      type: "constant"
      value: 0
    }
  }
}
layer {
  name: "loss1/loss"
  type: "SoftmaxWithLoss"
  bottom: "loss1/classifier"
  bottom: "label"
  top: "loss1/loss1"
  loss_weight: 0.3
}
layer {
  name: "inception_4b/1x1"
  type: "Convolution"
  bottom: "inception_4a/output"
  top: "inception_4b/1x1"
  param {
    lr_mult: 1
    decay_mult: 1
  }
  param {
    lr_mult: 2
    decay_mult: 0
  }
  convolution_param {
    num_output: 160
    kernel_size: 1
    weight_filler {
      type: "xavier"
    }
    bias_filler {
      type: "constant"
      value: 0.2
    }
  }
}
layer {
  name: "inception_4b/prelu_1x1"
  type: "PReLU"
  bottom: "inception_4b/1x1"
  top: "inception_4b/1x1"
  param {
    lr_mult: 1
    decay_mult: 0
  }
  prelu_param {
    filler {
      type: "constant"
      value: 0.01
    }
  }
}
layer {
  name: "inception_4b/3x3_reduce"
  type: "Convolution"
  bottom: "inception_4a/output"
  top: "inception_4b/3x3_reduce"
  param {
    lr_mult: 1
    decay_mult: 1
  }
  param {
    lr_mult: 2
    decay_mult: 0
  }
  convolution_param {
    num_output: 112
    kernel_size: 1
    weight_filler {
      type: "xavier"
    }
    bias_filler {
      type: "constant"
      value: 0.2
    }
  }
}
layer {
  name: "inception_4b/prelu_3x3_reduce"
  type: "PReLU"
  bottom: "inception_4b/3x3_reduce"
  top: "inception_4b/3x3_reduce"
  param {
    lr_mult: 1
    decay_mult: 0
  }
  prelu_param {
    filler {
      type: "constant"
      value: 0.01
    }
  }
}
layer {
  name: "inception_4b/3x3"
  type: "Convolution"
  bottom: "inception_4b/3x3_reduce"
  top: "inception_4b/3x3"
  param {
    lr_mult: 1
    decay_mult: 1
  }
  param {
    lr_mult: 2
    decay_mult: 0
  }
  convolution_param {
    num_output: 224
    pad: 1
    kernel_size: 3
    weight_filler {
      type: "xavier"
    }
    bias_filler {
      type: "constant"
      value: 0.2
    }
  }
}
layer {
  name: "inception_4b/prelu_3x3"
  type: "PReLU"
  bottom: "inception_4b/3x3"
  top: "inception_4b/3x3"
  param {
    lr_mult: 1
    decay_mult: 0
  }
  prelu_param {
    filler {
      type: "constant"
      value: 0.01
    }
  }
}
layer {
  name: "inception_4b/5x5_reduce"
  type: "Convolution"
  bottom: "inception_4a/output"
  top: "inception_4b/5x5_reduce"
  param {
    lr_mult: 1
    decay_mult: 1
  }
  param {
    lr_mult: 2
    decay_mult: 0
  }
  convolution_param {
    num_output: 24
    kernel_size: 1
    weight_filler {
      type: "xavier"
    }
    bias_filler {
      type: "constant"
      value: 0.2
    }
  }
}
layer {
  name: "inception_4b/prelu_5x5_reduce"
  type: "PReLU"
  bottom: "inception_4b/5x5_reduce"
  top: "inception_4b/5x5_reduce"
  param {
    lr_mult: 1
    decay_mult: 0
  }
  prelu_param {
    filler {
      type: "constant"
      value: 0.01
    }
  }
}
layer {
  name: "inception_4b/5x5"
  type: "Convolution"
  bottom: "inception_4b/5x5_reduce"
  top: "inception_4b/5x5"
  param {
    lr_mult: 1
    decay_mult: 1
  }
  param {
    lr_mult: 2
    decay_mult: 0
  }
  convolution_param {
    num_output: 64
    pad: 2
    kernel_size: 5
    weight_filler {
      type: "xavier"
    }
    bias_filler {
      type: "constant"
      value: 0.2
    }
  }
}
layer {
  name: "inception_4b/prelu_5x5"
  type: "PReLU"
  bottom: "inception_4b/5x5"
  top: "inception_4b/5x5"
  param {
    lr_mult: 1
    decay_mult: 0
  }
  prelu_param {
    filler {
      type: "constant"
      value: 0.01
    }
  }
}
layer {
  name: "inception_4b/pool"
  type: "Pooling"
  bottom: "inception_4a/output"
  top: "inception_4b/pool"
  pooling_param {
    pool: MAX
    kernel_size: 3
    stride: 1
    pad: 1
  }
}
layer {
  name: "inception_4b/pool_proj"
  type: "Convolution"
  bottom: "inception_4b/pool"
  top: "inception_4b/pool_proj"
  param {
    lr_mult: 1
    decay_mult: 1
  }
  param {
    lr_mult: 2
    decay_mult: 0
  }
  convolution_param {
    num_output: 64
    kernel_size: 1
    weight_filler {
      type: "xavier"
    }
    bias_filler {
      type: "constant"
      value: 0.2
    }
  }
}
layer {
  name: "inception_4b/prelu_pool_proj"
  type: "PReLU"
  bottom: "inception_4b/pool_proj"
  top: "inception_4b/pool_proj"
  param {
    lr_mult: 1
    decay_mult: 0
  }
  prelu_param {
    filler {
      type: "constant"
      value: 0.01
    }
  }
}
layer {
  name: "inception_4b/output"
  type: "Concat"
  bottom: "inception_4b/1x1"
  bottom: "inception_4b/3x3"
  bottom: "inception_4b/5x5"
  bottom: "inception_4b/pool_proj"
  top: "inception_4b/output"
}
layer {
  name: "inception_4c/1x1"
  type: "Convolution"
  bottom: "inception_4b/output"
  top: "inception_4c/1x1"
  param {
    lr_mult: 1
    decay_mult: 1
  }
  param {
    lr_mult: 2
    decay_mult: 0
  }
  convolution_param {
    num_output: 128
    kernel_size: 1
    weight_filler {
      type: "xavier"
    }
    bias_filler {
      type: "constant"
      value: 0.2
    }
  }
}
layer {
  name: "inception_4c/prelu_1x1"
  type: "PReLU"
  bottom: "inception_4c/1x1"
  top: "inception_4c/1x1"
  param {
    lr_mult: 1
    decay_mult: 0
  }
  prelu_param {
    filler {
      type: "constant"
      value: 0.01
    }
  }
}
layer {
  name: "inception_4c/3x3_reduce"
  type: "Convolution"
  bottom: "inception_4b/output"
  top: "inception_4c/3x3_reduce"
  param {
    lr_mult: 1
    decay_mult: 1
  }
  param {
    lr_mult: 2
    decay_mult: 0
  }
  convolution_param {
    num_output: 128
    kernel_size: 1
    weight_filler {
      type: "xavier"
    }
    bias_filler {
      type: "constant"
      value: 0.2
    }
  }
}
layer {
  name: "inception_4c/prelu_3x3_reduce"
  type: "PReLU"
  bottom: "inception_4c/3x3_reduce"
  top: "inception_4c/3x3_reduce"
  param {
    lr_mult: 1
    decay_mult: 0
  }
  prelu_param {
    filler {
      type: "constant"
      value: 0.01
    }
  }
}
layer {
  name: "inception_4c/3x3"
  type: "Convolution"
  bottom: "inception_4c/3x3_reduce"
  top: "inception_4c/3x3"
  param {
    lr_mult: 1
    decay_mult: 1
  }
  param {
    lr_mult: 2
    decay_mult: 0
  }
  convolution_param {
    num_output: 256
    pad: 1
    kernel_size: 3
    weight_filler {
      type: "xavier"
    }
    bias_filler {
      type: "constant"
      value: 0.2
    }
  }
}
layer {
  name: "inception_4c/prelu_3x3"
  type: "PReLU"
  bottom: "inception_4c/3x3"
  top: "inception_4c/3x3"
  param {
    lr_mult: 1
    decay_mult: 0
  }
  prelu_param {
    filler {
      type: "constant"
      value: 0.01
    }
  }
}
layer {
  name: "inception_4c/5x5_reduce"
  type: "Convolution"
  bottom: "inception_4b/output"
  top: "inception_4c/5x5_reduce"
  param {
    lr_mult: 1
    decay_mult: 1
  }
  param {
    lr_mult: 2
    decay_mult: 0
  }
  convolution_param {
    num_output: 24
    kernel_size: 1
    weight_filler {
      type: "xavier"
    }
    bias_filler {
      type: "constant"
      value: 0.2
    }
  }
}
layer {
  name: "inception_4c/prelu_5x5_reduce"
  type: "PReLU"
  bottom: "inception_4c/5x5_reduce"
  top: "inception_4c/5x5_reduce"
  param {
    lr_mult: 1
    decay_mult: 0
  }
  prelu_param {
    filler {
      type: "constant"
      value: 0.01
    }
  }
}
layer {
  name: "inception_4c/5x5"
  type: "Convolution"
  bottom: "inception_4c/5x5_reduce"
  top: "inception_4c/5x5"
  param {
    lr_mult: 1
    decay_mult: 1
  }
  param {
    lr_mult: 2
    decay_mult: 0
  }
  convolution_param {
    num_output: 64
    pad: 2
    kernel_size: 5
    weight_filler {
      type: "xavier"
    }
    bias_filler {
      type: "constant"
      value: 0.2
    }
  }
}
layer {
  name: "inception_4c/prelu_5x5"
  type: "PReLU"
  bottom: "inception_4c/5x5"
  top: "inception_4c/5x5"
  param {
    lr_mult: 1
    decay_mult: 0
  }
  prelu_param {
    filler {
      type: "constant"
      value: 0.01
    }
  }
}
layer {
  name: "inception_4c/pool"
  type: "Pooling"
  bottom: "inception_4b/output"
  top: "inception_4c/pool"
  pooling_param {
    pool: MAX
    kernel_size: 3
    stride: 1
    pad: 1
  }
}
layer {
  name: "inception_4c/pool_proj"
  type: "Convolution"
  bottom: "inception_4c/pool"
  top: "inception_4c/pool_proj"
  param {
    lr_mult: 1
    decay_mult: 1
  }
  param {
    lr_mult: 2
    decay_mult: 0
  }
  convolution_param {
    num_output: 64
    kernel_size: 1
    weight_filler {
      type: "xavier"
    }
    bias_filler {
      type: "constant"
      value: 0.2
    }
  }
}
layer {
  name: "inception_4c/prelu_pool_proj"
  type: "PReLU"
  bottom: "inception_4c/pool_proj"
  top: "inception_4c/pool_proj"
  param {
    lr_mult: 1
    decay_mult: 0
  }
  prelu_param {
    filler {
      type: "constant"
      value: 0.01
    }
  }
}
layer {
  name: "inception_4c/output"
  type: "Concat"
  bottom: "inception_4c/1x1"
  bottom: "inception_4c/3x3"
  bottom: "inception_4c/5x5"
  bottom: "inception_4c/pool_proj"
  top: "inception_4c/output"
}
layer {
  name: "inception_4d/1x1"
  type: "Convolution"
  bottom: "inception_4c/output"
  top: "inception_4d/1x1"
  param {
    lr_mult: 1
    decay_mult: 1
  }
  param {
    lr_mult: 2
    decay_mult: 0
  }
  convolution_param {
    num_output: 112
    kernel_size: 1
    weight_filler {
      type: "xavier"
    }
    bias_filler {
      type: "constant"
      value: 0.2
    }
  }
}
layer {
  name: "inception_4d/prelu_1x1"
  type: "PReLU"
  bottom: "inception_4d/1x1"
  top: "inception_4d/1x1"
  param {
    lr_mult: 1
    decay_mult: 0
  }
  prelu_param {
    filler {
      type: "constant"
      value: 0.01
    }
  }
}
layer {
  name: "inception_4d/3x3_reduce"
  type: "Convolution"
  bottom: "inception_4c/output"
  top: "inception_4d/3x3_reduce"
  param {
    lr_mult: 1
    decay_mult: 1
  }
  param {
    lr_mult: 2
    decay_mult: 0
  }
  convolution_param {
    num_output: 144
    kernel_size: 1
    weight_filler {
      type: "xavier"
    }
    bias_filler {
      type: "constant"
      value: 0.2
    }
  }
}
layer {
  name: "inception_4d/prelu_3x3_reduce"
  type: "PReLU"
  bottom: "inception_4d/3x3_reduce"
  top: "inception_4d/3x3_reduce"
  param {
    lr_mult: 1
    decay_mult: 0
  }
  prelu_param {
    filler {
      type: "constant"
      value: 0.01
    }
  }
}
layer {
  name: "inception_4d/3x3"
  type: "Convolution"
  bottom: "inception_4d/3x3_reduce"
  top: "inception_4d/3x3"
  param {
    lr_mult: 1
    decay_mult: 1
  }
  param {
    lr_mult: 2
    decay_mult: 0
  }
  convolution_param {
    num_output: 288
    pad: 1
    kernel_size: 3
    weight_filler {
      type: "xavier"
    }
    bias_filler {
      type: "constant"
      value: 0.2
    }
  }
}
layer {
  name: "inception_4d/prelu_3x3"
  type: "PReLU"
  bottom: "inception_4d/3x3"
  top: "inception_4d/3x3"
  param {
    lr_mult: 1
    decay_mult: 0
  }
  prelu_param {
    filler {
      type: "constant"
      value: 0.01
    }
  }
}
layer {
  name: "inception_4d/5x5_reduce"
  type: "Convolution"
  bottom: "inception_4c/output"
  top: "inception_4d/5x5_reduce"
  param {
    lr_mult: 1
    decay_mult: 1
  }
  param {
    lr_mult: 2
    decay_mult: 0
  }
  convolution_param {
    num_output: 32
    kernel_size: 1
    weight_filler {
      type: "xavier"
    }
    bias_filler {
      type: "constant"
      value: 0.2
    }
  }
}
layer {
  name: "inception_4d/prelu_5x5_reduce"
  type: "PReLU"
  bottom: "inception_4d/5x5_reduce"
  top: "inception_4d/5x5_reduce"
  param {
    lr_mult: 1
    decay_mult: 0
  }
  prelu_param {
    filler {
      type: "constant"
      value: 0.01
    }
  }
}
layer {
  name: "inception_4d/5x5"
  type: "Convolution"
  bottom: "inception_4d/5x5_reduce"
  top: "inception_4d/5x5"
  param {
    lr_mult: 1
    decay_mult: 1
  }
  param {
    lr_mult: 2
    decay_mult: 0
  }
  convolution_param {
    num_output: 64
    pad: 2
    kernel_size: 5
    weight_filler {
      type: "xavier"
    }
    bias_filler {
      type: "constant"
      value: 0.2
    }
  }
}
layer {
  name: "inception_4d/prelu_5x5"
  type: "PReLU"
  bottom: "inception_4d/5x5"
  top: "inception_4d/5x5"
  param {
    lr_mult: 1
    decay_mult: 0
  }
  prelu_param {
    filler {
      type: "constant"
      value: 0.01
    }
  }
}
layer {
  name: "inception_4d/pool"
  type: "Pooling"
  bottom: "inception_4c/output"
  top: "inception_4d/pool"
  pooling_param {
    pool: MAX
    kernel_size: 3
    stride: 1
    pad: 1
  }
}
layer {
  name: "inception_4d/pool_proj"
  type: "Convolution"
  bottom: "ince
I1105 17:49:47.804069 24694 layer_factory.hpp:76] Creating layer data
I1105 17:49:47.804715 24694 net.cpp:106] Creating Layer data
I1105 17:49:47.804738 24694 net.cpp:411] data -> data
I1105 17:49:47.804776 24694 net.cpp:411] data -> label
I1105 17:49:47.807062 24698 db_lmdb.cpp:38] Opened lmdb ../../LMDB/train_8-lmdb
I1105 17:49:47.819442 24694 data_layer.cpp:41] output data size: 32,3,224,224
I1105 17:49:47.883220 24694 net.cpp:150] Setting up data
I1105 17:49:47.883275 24694 net.cpp:157] Top shape: 32 3 224 224 (4816896)
I1105 17:49:47.883281 24694 net.cpp:157] Top shape: 32 (32)
I1105 17:49:47.883286 24694 net.cpp:165] Memory required for data: 19267712
I1105 17:49:47.883298 24694 layer_factory.hpp:76] Creating layer label_data_1_split
I1105 17:49:47.883313 24694 net.cpp:106] Creating Layer label_data_1_split
I1105 17:49:47.883321 24694 net.cpp:454] label_data_1_split <- label
I1105 17:49:47.883335 24694 net.cpp:411] label_data_1_split -> label_data_1_split_0
I1105 17:49:47.883349 24694 net.cpp:411] label_data_1_split -> label_data_1_split_1
I1105 17:49:47.883358 24694 net.cpp:411] label_data_1_split -> label_data_1_split_2
I1105 17:49:47.883419 24694 net.cpp:150] Setting up label_data_1_split
I1105 17:49:47.883426 24694 net.cpp:157] Top shape: 32 (32)
I1105 17:49:47.883440 24694 net.cpp:157] Top shape: 32 (32)
I1105 17:49:47.883445 24694 net.cpp:157] Top shape: 32 (32)
I1105 17:49:47.883450 24694 net.cpp:165] Memory required for data: 19268096
I1105 17:49:47.883455 24694 layer_factory.hpp:76] Creating layer conv1/7x7_s2
I1105 17:49:47.883469 24694 net.cpp:106] Creating Layer conv1/7x7_s2
I1105 17:49:47.883474 24694 net.cpp:454] conv1/7x7_s2 <- data
I1105 17:49:47.883482 24694 net.cpp:411] conv1/7x7_s2 -> conv1/7x7_s2
I1105 17:49:48.099033 24694 cudnn_conv_layer.cpp:194] Reallocating workspace storage: 225816
I1105 17:49:48.099313 24694 net.cpp:150] Setting up conv1/7x7_s2
I1105 17:49:48.099333 24694 net.cpp:157] Top shape: 32 64 112 112 (25690112)
I1105 17:49:48.099341 24694 net.cpp:165] Memory required for data: 122028544
I1105 17:49:48.099377 24694 layer_factory.hpp:76] Creating layer conv1/prelu_7x7
I1105 17:49:48.099417 24694 net.cpp:106] Creating Layer conv1/prelu_7x7
I1105 17:49:48.099427 24694 net.cpp:454] conv1/prelu_7x7 <- conv1/7x7_s2
I1105 17:49:48.099445 24694 net.cpp:397] conv1/prelu_7x7 -> conv1/7x7_s2 (in-place)
I1105 17:49:48.101161 24694 net.cpp:150] Setting up conv1/prelu_7x7
I1105 17:49:48.101176 24694 net.cpp:157] Top shape: 32 64 112 112 (25690112)
I1105 17:49:48.101181 24694 net.cpp:165] Memory required for data: 224788992
I1105 17:49:48.101197 24694 layer_factory.hpp:76] Creating layer pool1/3x3_s2
I1105 17:49:48.101208 24694 net.cpp:106] Creating Layer pool1/3x3_s2
I1105 17:49:48.101214 24694 net.cpp:454] pool1/3x3_s2 <- conv1/7x7_s2
I1105 17:49:48.101228 24694 net.cpp:411] pool1/3x3_s2 -> pool1/3x3_s2
I1105 17:49:48.101987 24694 net.cpp:150] Setting up pool1/3x3_s2
I1105 17:49:48.102021 24694 net.cpp:157] Top shape: 32 64 56 56 (6422528)
I1105 17:49:48.102033 24694 net.cpp:165] Memory required for data: 250479104
I1105 17:49:48.102046 24694 layer_factory.hpp:76] Creating layer pool1/norm1
I1105 17:49:48.102079 24694 net.cpp:106] Creating Layer pool1/norm1
I1105 17:49:48.102095 24694 net.cpp:454] pool1/norm1 <- pool1/3x3_s2
I1105 17:49:48.102114 24694 net.cpp:411] pool1/norm1 -> pool1/norm1
I1105 17:49:48.102478 24694 net.cpp:150] Setting up pool1/norm1
I1105 17:49:48.102502 24694 net.cpp:157] Top shape: 32 64 56 56 (6422528)
I1105 17:49:48.102512 24694 net.cpp:165] Memory required for data: 276169216
I1105 17:49:48.102524 24694 layer_factory.hpp:76] Creating layer conv2/3x3_reduce
I1105 17:49:48.102543 24694 net.cpp:106] Creating Layer conv2/3x3_reduce
I1105 17:49:48.102555 24694 net.cpp:454] conv2/3x3_reduce <- pool1/norm1
I1105 17:49:48.102576 24694 net.cpp:411] conv2/3x3_reduce -> conv2/3x3_reduce
I1105 17:49:48.105254 24694 cudnn_conv_layer.cpp:194] Reallocating workspace storage: 63000
I1105 17:49:48.105412 24694 net.cpp:150] Setting up conv2/3x3_reduce
I1105 17:49:48.105437 24694 net.cpp:157] Top shape: 32 64 56 56 (6422528)
I1105 17:49:48.105448 24694 net.cpp:165] Memory required for data: 301859328
I1105 17:49:48.105469 24694 layer_factory.hpp:76] Creating layer conv2/prelu_3x3_reduce
I1105 17:49:48.105487 24694 net.cpp:106] Creating Layer conv2/prelu_3x3_reduce
I1105 17:49:48.105505 24694 net.cpp:454] conv2/prelu_3x3_reduce <- conv2/3x3_reduce
I1105 17:49:48.105518 24694 net.cpp:397] conv2/prelu_3x3_reduce -> conv2/3x3_reduce (in-place)
I1105 17:49:48.106664 24694 net.cpp:150] Setting up conv2/prelu_3x3_reduce
I1105 17:49:48.106693 24694 net.cpp:157] Top shape: 32 64 56 56 (6422528)
I1105 17:49:48.106703 24694 net.cpp:165] Memory required for data: 327549440
I1105 17:49:48.106715 24694 layer_factory.hpp:76] Creating layer conv2/3x3
I1105 17:49:48.106739 24694 net.cpp:106] Creating Layer conv2/3x3
I1105 17:49:48.106757 24694 net.cpp:454] conv2/3x3 <- conv2/3x3_reduce
I1105 17:49:48.106770 24694 net.cpp:411] conv2/3x3 -> conv2/3x3
I1105 17:49:48.110769 24694 cudnn_conv_layer.cpp:194] Reallocating workspace storage: 63000
I1105 17:49:48.110821 24694 net.cpp:150] Setting up conv2/3x3
I1105 17:49:48.110841 24694 net.cpp:157] Top shape: 32 192 56 56 (19267584)
I1105 17:49:48.110851 24694 net.cpp:165] Memory required for data: 404619776
I1105 17:49:48.110873 24694 layer_factory.hpp:76] Creating layer conv2/prelu_3x3
I1105 17:49:48.110889 24694 net.cpp:106] Creating Layer conv2/prelu_3x3
I1105 17:49:48.110898 24694 net.cpp:454] conv2/prelu_3x3 <- conv2/3x3
I1105 17:49:48.110908 24694 net.cpp:397] conv2/prelu_3x3 -> conv2/3x3 (in-place)
I1105 17:49:48.113106 24694 net.cpp:150] Setting up conv2/prelu_3x3
I1105 17:49:48.113138 24694 net.cpp:157] Top shape: 32 192 56 56 (19267584)
I1105 17:49:48.113148 24694 net.cpp:165] Memory required for data: 481690112
I1105 17:49:48.113205 24694 layer_factory.hpp:76] Creating layer conv2/norm2
I1105 17:49:48.113224 24694 net.cpp:106] Creating Layer conv2/norm2
I1105 17:49:48.113232 24694 net.cpp:454] conv2/norm2 <- conv2/3x3
I1105 17:49:48.113243 24694 net.cpp:411] conv2/norm2 -> conv2/norm2
I1105 17:49:48.113626 24694 net.cpp:150] Setting up conv2/norm2
I1105 17:49:48.113648 24694 net.cpp:157] Top shape: 32 192 56 56 (19267584)
I1105 17:49:48.113659 24694 net.cpp:165] Memory required for data: 558760448
I1105 17:49:48.113669 24694 layer_factory.hpp:76] Creating layer pool2/3x3_s2
I1105 17:49:48.113684 24694 net.cpp:106] Creating Layer pool2/3x3_s2
I1105 17:49:48.113693 24694 net.cpp:454] pool2/3x3_s2 <- conv2/norm2
I1105 17:49:48.113720 24694 net.cpp:411] pool2/3x3_s2 -> pool2/3x3_s2
I1105 17:49:48.114361 24694 net.cpp:150] Setting up pool2/3x3_s2
I1105 17:49:48.114387 24694 net.cpp:157] Top shape: 32 192 28 28 (4816896)
I1105 17:49:48.114405 24694 net.cpp:165] Memory required for data: 578028032
I1105 17:49:48.114413 24694 layer_factory.hpp:76] Creating layer pool2/3x3_s2_pool2/3x3_s2_0_split
I1105 17:49:48.114425 24694 net.cpp:106] Creating Layer pool2/3x3_s2_pool2/3x3_s2_0_split
I1105 17:49:48.114433 24694 net.cpp:454] pool2/3x3_s2_pool2/3x3_s2_0_split <- pool2/3x3_s2
I1105 17:49:48.114444 24694 net.cpp:411] pool2/3x3_s2_pool2/3x3_s2_0_split -> pool2/3x3_s2_pool2/3x3_s2_0_split_0
I1105 17:49:48.114457 24694 net.cpp:411] pool2/3x3_s2_pool2/3x3_s2_0_split -> pool2/3x3_s2_pool2/3x3_s2_0_split_1
I1105 17:49:48.114470 24694 net.cpp:411] pool2/3x3_s2_pool2/3x3_s2_0_split -> pool2/3x3_s2_pool2/3x3_s2_0_split_2
I1105 17:49:48.114480 24694 net.cpp:411] pool2/3x3_s2_pool2/3x3_s2_0_split -> pool2/3x3_s2_pool2/3x3_s2_0_split_3
I1105 17:49:48.114558 24694 net.cpp:150] Setting up pool2/3x3_s2_pool2/3x3_s2_0_split
I1105 17:49:48.114579 24694 net.cpp:157] Top shape: 32 192 28 28 (4816896)
I1105 17:49:48.114589 24694 net.cpp:157] Top shape: 32 192 28 28 (4816896)
I1105 17:49:48.114598 24694 net.cpp:157] Top shape: 32 192 28 28 (4816896)
I1105 17:49:48.114606 24694 net.cpp:157] Top shape: 32 192 28 28 (4816896)
I1105 17:49:48.114620 24694 net.cpp:165] Memory required for data: 655098368
I1105 17:49:48.114624 24694 layer_factory.hpp:76] Creating layer inception_3a/1x1
I1105 17:49:48.114635 24694 net.cpp:106] Creating Layer inception_3a/1x1
I1105 17:49:48.114648 24694 net.cpp:454] inception_3a/1x1 <- pool2/3x3_s2_pool2/3x3_s2_0_split_0
I1105 17:49:48.114655 24694 net.cpp:411] inception_3a/1x1 -> inception_3a/1x1
I1105 17:49:48.116972 24694 cudnn_conv_layer.cpp:194] Reallocating workspace storage: 20664
I1105 17:49:48.117029 24694 net.cpp:150] Setting up inception_3a/1x1
I1105 17:49:48.117043 24694 net.cpp:157] Top shape: 32 64 28 28 (1605632)
I1105 17:49:48.117050 24694 net.cpp:165] Memory required for data: 661520896
I1105 17:49:48.117063 24694 layer_factory.hpp:76] Creating layer inception_3a/prelu_1x1
I1105 17:49:48.117116 24694 net.cpp:106] Creating Layer inception_3a/prelu_1x1
I1105 17:49:48.117128 24694 net.cpp:454] inception_3a/prelu_1x1 <- inception_3a/1x1
I1105 17:49:48.117137 24694 net.cpp:397] inception_3a/prelu_1x1 -> inception_3a/1x1 (in-place)
I1105 17:49:48.117755 24694 net.cpp:150] Setting up inception_3a/prelu_1x1
I1105 17:49:48.117771 24694 net.cpp:157] Top shape: 32 64 28 28 (1605632)
I1105 17:49:48.117776 24694 net.cpp:165] Memory required for data: 667943424
I1105 17:49:48.117784 24694 layer_factory.hpp:76] Creating layer inception_3a/3x3_reduce
I1105 17:49:48.117794 24694 net.cpp:106] Creating Layer inception_3a/3x3_reduce
I1105 17:49:48.117800 24694 net.cpp:454] inception_3a/3x3_reduce <- pool2/3x3_s2_pool2/3x3_s2_0_split_1
I1105 17:49:48.117810 24694 net.cpp:411] inception_3a/3x3_reduce -> inception_3a/3x3_reduce
I1105 17:49:48.118755 24694 cudnn_conv_layer.cpp:194] Reallocating workspace storage: 20664
I1105 17:49:48.118777 24694 net.cpp:150] Setting up inception_3a/3x3_reduce
I1105 17:49:48.118785 24694 net.cpp:157] Top shape: 32 96 28 28 (2408448)
I1105 17:49:48.118789 24694 net.cpp:165] Memory required for data: 677577216
I1105 17:49:48.118818 24694 layer_factory.hpp:76] Creating layer inception_3a/prelu_3x3_reduce
I1105 17:49:48.118829 24694 net.cpp:106] Creating Layer inception_3a/prelu_3x3_reduce
I1105 17:49:48.118834 24694 net.cpp:454] inception_3a/prelu_3x3_reduce <- inception_3a/3x3_reduce
I1105 17:49:48.118841 24694 net.cpp:397] inception_3a/prelu_3x3_reduce -> inception_3a/3x3_reduce (in-place)
I1105 17:49:48.118986 24694 net.cpp:150] Setting up inception_3a/prelu_3x3_reduce
I1105 17:49:48.118996 24694 net.cpp:157] Top shape: 32 96 28 28 (2408448)
I1105 17:49:48.119000 24694 net.cpp:165] Memory required for data: 687211008
I1105 17:49:48.119006 24694 layer_factory.hpp:76] Creating layer inception_3a/3x3
I1105 17:49:48.119014 24694 net.cpp:106] Creating Layer inception_3a/3x3
I1105 17:49:48.119019 24694 net.cpp:454] inception_3a/3x3 <- inception_3a/3x3_reduce
I1105 17:49:48.119026 24694 net.cpp:411] inception_3a/3x3 -> inception_3a/3x3
I1105 17:49:48.121062 24694 cudnn_conv_layer.cpp:194] Reallocating workspace storage: 20664
I1105 17:49:48.121094 24694 net.cpp:150] Setting up inception_3a/3x3
I1105 17:49:48.121103 24694 net.cpp:157] Top shape: 32 128 28 28 (3211264)
I1105 17:49:48.121107 24694 net.cpp:165] Memory required for data: 700056064
I1105 17:49:48.121117 24694 layer_factory.hpp:76] Creating layer inception_3a/prelu_3x3
I1105 17:49:48.121127 24694 net.cpp:106] Creating Layer inception_3a/prelu_3x3
I1105 17:49:48.121137 24694 net.cpp:454] inception_3a/prelu_3x3 <- inception_3a/3x3
I1105 17:49:48.121143 24694 net.cpp:397] inception_3a/prelu_3x3 -> inception_3a/3x3 (in-place)
I1105 17:49:48.121279 24694 net.cpp:150] Setting up inception_3a/prelu_3x3
I1105 17:49:48.121289 24694 net.cpp:157] Top shape: 32 128 28 28 (3211264)
I1105 17:49:48.121292 24694 net.cpp:165] Memory required for data: 712901120
I1105 17:49:48.121299 24694 layer_factory.hpp:76] Creating layer inception_3a/5x5_reduce
I1105 17:49:48.121307 24694 net.cpp:106] Creating Layer inception_3a/5x5_reduce
I1105 17:49:48.121314 24694 net.cpp:454] inception_3a/5x5_reduce <- pool2/3x3_s2_pool2/3x3_s2_0_split_2
I1105 17:49:48.121322 24694 net.cpp:411] inception_3a/5x5_reduce -> inception_3a/5x5_reduce
I1105 17:49:48.122512 24694 cudnn_conv_layer.cpp:194] Reallocating workspace storage: 20664
I1105 17:49:48.122530 24694 net.cpp:150] Setting up inception_3a/5x5_reduce
I1105 17:49:48.122537 24694 net.cpp:157] Top shape: 32 16 28 28 (401408)
I1105 17:49:48.122541 24694 net.cpp:165] Memory required for data: 714506752
I1105 17:49:48.122548 24694 layer_factory.hpp:76] Creating layer inception_3a/prelu_5x5_reduce
I1105 17:49:48.122556 24694 net.cpp:106] Creating Layer inception_3a/prelu_5x5_reduce
I1105 17:49:48.122561 24694 net.cpp:454] inception_3a/prelu_5x5_reduce <- inception_3a/5x5_reduce
I1105 17:49:48.122576 24694 net.cpp:397] inception_3a/prelu_5x5_reduce -> inception_3a/5x5_reduce (in-place)
I1105 17:49:48.122666 24694 net.cpp:150] Setting up inception_3a/prelu_5x5_reduce
I1105 17:49:48.122675 24694 net.cpp:157] Top shape: 32 16 28 28 (401408)
I1105 17:49:48.122679 24694 net.cpp:165] Memory required for data: 716112384
I1105 17:49:48.122685 24694 layer_factory.hpp:76] Creating layer inception_3a/5x5
I1105 17:49:48.122694 24694 net.cpp:106] Creating Layer inception_3a/5x5
I1105 17:49:48.122697 24694 net.cpp:454] inception_3a/5x5 <- inception_3a/5x5_reduce
I1105 17:49:48.122705 24694 net.cpp:411] inception_3a/5x5 -> inception_3a/5x5
I1105 17:49:48.123760 24694 cudnn_conv_layer.cpp:194] Reallocating workspace storage: 20664
I1105 17:49:48.123778 24694 net.cpp:150] Setting up inception_3a/5x5
I1105 17:49:48.123785 24694 net.cpp:157] Top shape: 32 32 28 28 (802816)
I1105 17:49:48.123790 24694 net.cpp:165] Memory required for data: 719323648
I1105 17:49:48.123797 24694 layer_factory.hpp:76] Creating layer inception_3a/prelu_5x5
I1105 17:49:48.123806 24694 net.cpp:106] Creating Layer inception_3a/prelu_5x5
I1105 17:49:48.123811 24694 net.cpp:454] inception_3a/prelu_5x5 <- inception_3a/5x5
I1105 17:49:48.123818 24694 net.cpp:397] inception_3a/prelu_5x5 -> inception_3a/5x5 (in-place)
I1105 17:49:48.123915 24694 net.cpp:150] Setting up inception_3a/prelu_5x5
I1105 17:49:48.123924 24694 net.cpp:157] Top shape: 32 32 28 28 (802816)
I1105 17:49:48.123929 24694 net.cpp:165] Memory required for data: 722534912
I1105 17:49:48.123934 24694 layer_factory.hpp:76] Creating layer inception_3a/pool
I1105 17:49:48.123942 24694 net.cpp:106] Creating Layer inception_3a/pool
I1105 17:49:48.123947 24694 net.cpp:454] inception_3a/pool <- pool2/3x3_s2_pool2/3x3_s2_0_split_3
I1105 17:49:48.123955 24694 net.cpp:411] inception_3a/pool -> inception_3a/pool
I1105 17:49:48.124132 24694 net.cpp:150] Setting up inception_3a/pool
I1105 17:49:48.124143 24694 net.cpp:157] Top shape: 32 192 28 28 (4816896)
I1105 17:49:48.124147 24694 net.cpp:165] Memory required for data: 741802496
I1105 17:49:48.124151 24694 layer_factory.hpp:76] Creating layer inception_3a/pool_proj
I1105 17:49:48.124161 24694 net.cpp:106] Creating Layer inception_3a/pool_proj
I1105 17:49:48.124166 24694 net.cpp:454] inception_3a/pool_proj <- inception_3a/pool
I1105 17:49:48.124173 24694 net.cpp:411] inception_3a/pool_proj -> inception_3a/pool_proj
I1105 17:49:48.125170 24694 cudnn_conv_layer.cpp:194] Reallocating workspace storage: 20664
I1105 17:49:48.125190 24694 net.cpp:150] Setting up inception_3a/pool_proj
I1105 17:49:48.125196 24694 net.cpp:157] Top shape: 32 32 28 28 (802816)
I1105 17:49:48.125201 24694 net.cpp:165] Memory required for data: 745013760
I1105 17:49:48.125208 24694 layer_factory.hpp:76] Creating layer inception_3a/prelu_pool_proj
I1105 17:49:48.125217 24694 net.cpp:106] Creating Layer inception_3a/prelu_pool_proj
I1105 17:49:48.125222 24694 net.cpp:454] inception_3a/prelu_pool_proj <- inception_3a/pool_proj
I1105 17:49:48.125229 24694 net.cpp:397] inception_3a/prelu_pool_proj -> inception_3a/pool_proj (in-place)
I1105 17:49:48.125318 24694 net.cpp:150] Setting up inception_3a/prelu_pool_proj
I1105 17:49:48.125327 24694 net.cpp:157] Top shape: 32 32 28 28 (802816)
I1105 17:49:48.125331 24694 net.cpp:165] Memory required for data: 748225024
I1105 17:49:48.125337 24694 layer_factory.hpp:76] Creating layer inception_3a/output
I1105 17:49:48.125349 24694 net.cpp:106] Creating Layer inception_3a/output
I1105 17:49:48.125354 24694 net.cpp:454] inception_3a/output <- inception_3a/1x1
I1105 17:49:48.125358 24694 net.cpp:454] inception_3a/output <- inception_3a/3x3
I1105 17:49:48.125363 24694 net.cpp:454] inception_3a/output <- inception_3a/5x5
I1105 17:49:48.125367 24694 net.cpp:454] inception_3a/output <- inception_3a/pool_proj
I1105 17:49:48.125373 24694 net.cpp:411] inception_3a/output -> inception_3a/output
I1105 17:49:48.125407 24694 net.cpp:150] Setting up inception_3a/output
I1105 17:49:48.125416 24694 net.cpp:157] Top shape: 32 256 28 28 (6422528)
I1105 17:49:48.125437 24694 net.cpp:165] Memory required for data: 773915136
I1105 17:49:48.125449 24694 layer_factory.hpp:76] Creating layer inception_3a/output_inception_3a/output_0_split
I1105 17:49:48.125457 24694 net.cpp:106] Creating Layer inception_3a/output_inception_3a/output_0_split
I1105 17:49:48.125461 24694 net.cpp:454] inception_3a/output_inception_3a/output_0_split <- inception_3a/output
I1105 17:49:48.125468 24694 net.cpp:411] inception_3a/output_inception_3a/output_0_split -> inception_3a/output_inception_3a/output_0_split_0
I1105 17:49:48.125483 24694 net.cpp:411] inception_3a/output_inception_3a/output_0_split -> inception_3a/output_inception_3a/output_0_split_1
I1105 17:49:48.125490 24694 net.cpp:411] inception_3a/output_inception_3a/output_0_split -> inception_3a/output_inception_3a/output_0_split_2
I1105 17:49:48.125497 24694 net.cpp:411] inception_3a/output_inception_3a/output_0_split -> inception_3a/output_inception_3a/output_0_split_3
I1105 17:49:48.125556 24694 net.cpp:150] Setting up inception_3a/output_inception_3a/output_0_split
I1105 17:49:48.125565 24694 net.cpp:157] Top shape: 32 256 28 28 (6422528)
I1105 17:49:48.125571 24694 net.cpp:157] Top shape: 32 256 28 28 (6422528)
I1105 17:49:48.125576 24694 net.cpp:157] Top shape: 32 256 28 28 (6422528)
I1105 17:49:48.125589 24694 net.cpp:157] Top shape: 32 256 28 28 (6422528)
I1105 17:49:48.125593 24694 net.cpp:165] Memory required for data: 876675584
I1105 17:49:48.125597 24694 layer_factory.hpp:76] Creating layer inception_3b/1x1
I1105 17:49:48.125607 24694 net.cpp:106] Creating Layer inception_3b/1x1
I1105 17:49:48.125619 24694 net.cpp:454] inception_3b/1x1 <- inception_3a/output_inception_3a/output_0_split_0
I1105 17:49:48.125627 24694 net.cpp:411] inception_3b/1x1 -> inception_3b/1x1
I1105 17:49:48.126796 24694 cudnn_conv_layer.cpp:194] Reallocating workspace storage: 20664
I1105 17:49:48.126822 24694 net.cpp:150] Setting up inception_3b/1x1
I1105 17:49:48.126830 24694 net.cpp:157] Top shape: 32 128 28 28 (3211264)
I1105 17:49:48.126837 24694 net.cpp:165] Memory required for data: 889520640
I1105 17:49:48.126852 24694 layer_factory.hpp:76] Creating layer inception_3b/prelu_1x1
I1105 17:49:48.126860 24694 net.cpp:106] Creating Layer inception_3b/prelu_1x1
I1105 17:49:48.126865 24694 net.cpp:454] inception_3b/prelu_1x1 <- inception_3b/1x1
I1105 17:49:48.126871 24694 net.cpp:397] inception_3b/prelu_1x1 -> inception_3b/1x1 (in-place)
I1105 17:49:48.127554 24694 net.cpp:150] Setting up inception_3b/prelu_1x1
I1105 17:49:48.127569 24694 net.cpp:157] Top shape: 32 128 28 28 (3211264)
I1105 17:49:48.127573 24694 net.cpp:165] Memory required for data: 902365696
I1105 17:49:48.127580 24694 layer_factory.hpp:76] Creating layer inception_3b/3x3_reduce
I1105 17:49:48.127593 24694 net.cpp:106] Creating Layer inception_3b/3x3_reduce
I1105 17:49:48.127599 24694 net.cpp:454] inception_3b/3x3_reduce <- inception_3a/output_inception_3a/output_0_split_1
I1105 17:49:48.127607 24694 net.cpp:411] inception_3b/3x3_reduce -> inception_3b/3x3_reduce
I1105 17:49:48.128870 24694 cudnn_conv_layer.cpp:194] Reallocating workspace storage: 20664
I1105 17:49:48.128891 24694 net.cpp:150] Setting up inception_3b/3x3_reduce
I1105 17:49:48.128901 24694 net.cpp:157] Top shape: 32 128 28 28 (3211264)
I1105 17:49:48.128906 24694 net.cpp:165] Memory required for data: 915210752
I1105 17:49:48.128914 24694 layer_factory.hpp:76] Creating layer inception_3b/prelu_3x3_reduce
I1105 17:49:48.128922 24694 net.cpp:106] Creating Layer inception_3b/prelu_3x3_reduce
I1105 17:49:48.128927 24694 net.cpp:454] inception_3b/prelu_3x3_reduce <- inception_3b/3x3_reduce
I1105 17:49:48.128947 24694 net.cpp:397] inception_3b/prelu_3x3_reduce -> inception_3b/3x3_reduce (in-place)
I1105 17:49:48.129103 24694 net.cpp:150] Setting up inception_3b/prelu_3x3_reduce
I1105 17:49:48.129115 24694 net.cpp:157] Top shape: 32 128 28 28 (3211264)
I1105 17:49:48.129119 24694 net.cpp:165] Memory required for data: 928055808
I1105 17:49:48.129132 24694 layer_factory.hpp:76] Creating layer inception_3b/3x3
I1105 17:49:48.129148 24694 net.cpp:106] Creating Layer inception_3b/3x3
I1105 17:49:48.129153 24694 net.cpp:454] inception_3b/3x3 <- inception_3b/3x3_reduce
I1105 17:49:48.129159 24694 net.cpp:411] inception_3b/3x3 -> inception_3b/3x3
I1105 17:49:48.131984 24694 cudnn_conv_layer.cpp:194] Reallocating workspace storage: 20664
I1105 17:49:48.132009 24694 net.cpp:150] Setting up inception_3b/3x3
I1105 17:49:48.132017 24694 net.cpp:157] Top shape: 32 192 28 28 (4816896)
I1105 17:49:48.132021 24694 net.cpp:165] Memory required for data: 947323392
I1105 17:49:48.132030 24694 layer_factory.hpp:76] Creating layer inception_3b/prelu_3x3
I1105 17:49:48.132040 24694 net.cpp:106] Creating Layer inception_3b/prelu_3x3
I1105 17:49:48.132046 24694 net.cpp:454] inception_3b/prelu_3x3 <- inception_3b/3x3
I1105 17:49:48.132053 24694 net.cpp:397] inception_3b/prelu_3x3 -> inception_3b/3x3 (in-place)
I1105 17:49:48.132688 24694 net.cpp:150] Setting up inception_3b/prelu_3x3
I1105 17:49:48.132700 24694 net.cpp:157] Top shape: 32 192 28 28 (4816896)
I1105 17:49:48.132705 24694 net.cpp:165] Memory required for data: 966590976
I1105 17:49:48.132711 24694 layer_factory.hpp:76] Creating layer inception_3b/5x5_reduce
I1105 17:49:48.132721 24694 net.cpp:106] Creating Layer inception_3b/5x5_reduce
I1105 17:49:48.132726 24694 net.cpp:454] inception_3b/5x5_reduce <- inception_3a/output_inception_3a/output_0_split_2
I1105 17:49:48.132752 24694 net.cpp:411] inception_3b/5x5_reduce -> inception_3b/5x5_reduce
I1105 17:49:48.133648 24694 cudnn_conv_layer.cpp:194] Reallocating workspace storage: 20664
I1105 17:49:48.133667 24694 net.cpp:150] Setting up inception_3b/5x5_reduce
I1105 17:49:48.133674 24694 net.cpp:157] Top shape: 32 32 28 28 (802816)
I1105 17:49:48.133679 24694 net.cpp:165] Memory required for data: 969802240
I1105 17:49:48.133687 24694 layer_factory.hpp:76] Creating layer inception_3b/prelu_5x5_reduce
I1105 17:49:48.133695 24694 net.cpp:106] Creating Layer inception_3b/prelu_5x5_reduce
I1105 17:49:48.133700 24694 net.cpp:454] inception_3b/prelu_5x5_reduce <- inception_3b/5x5_reduce
I1105 17:49:48.133708 24694 net.cpp:397] inception_3b/prelu_5x5_reduce -> inception_3b/5x5_reduce (in-place)
I1105 17:49:48.133821 24694 net.cpp:150] Setting up inception_3b/prelu_5x5_reduce
I1105 17:49:48.133831 24694 net.cpp:157] Top shape: 32 32 28 28 (802816)
I1105 17:49:48.133834 24694 net.cpp:165] Memory required for data: 973013504
I1105 17:49:48.133841 24694 layer_factory.hpp:76] Creating layer inception_3b/5x5
I1105 17:49:48.133849 24694 net.cpp:106] Creating Layer inception_3b/5x5
I1105 17:49:48.133854 24694 net.cpp:454] inception_3b/5x5 <- inception_3b/5x5_reduce
I1105 17:49:48.133862 24694 net.cpp:411] inception_3b/5x5 -> inception_3b/5x5
I1105 17:49:48.135298 24694 cudnn_conv_layer.cpp:194] Reallocating workspace storage: 20664
I1105 17:49:48.135318 24694 net.cpp:150] Setting up inception_3b/5x5
I1105 17:49:48.135329 24694 net.cpp:157] Top shape: 32 96 28 28 (2408448)
I1105 17:49:48.135332 24694 net.cpp:165] Memory required for data: 982647296
I1105 17:49:48.135339 24694 layer_factory.hpp:76] Creating layer inception_3b/prelu_5x5
I1105 17:49:48.135347 24694 net.cpp:106] Creating Layer inception_3b/prelu_5x5
I1105 17:49:48.135354 24694 net.cpp:454] inception_3b/prelu_5x5 <- inception_3b/5x5
I1105 17:49:48.135360 24694 net.cpp:397] inception_3b/prelu_5x5 -> inception_3b/5x5 (in-place)
I1105 17:49:48.135540 24694 net.cpp:150] Setting up inception_3b/prelu_5x5
I1105 17:49:48.135553 24694 net.cpp:157] Top shape: 32 96 28 28 (2408448)
I1105 17:49:48.135568 24694 net.cpp:165] Memory required for data: 992281088
I1105 17:49:48.135576 24694 layer_factory.hpp:76] Creating layer inception_3b/pool
I1105 17:49:48.135584 24694 net.cpp:106] Creating Layer inception_3b/pool
I1105 17:49:48.135589 24694 net.cpp:454] inception_3b/pool <- inception_3a/output_inception_3a/output_0_split_3
I1105 17:49:48.135596 24694 net.cpp:411] inception_3b/pool -> inception_3b/pool
I1105 17:49:48.136023 24694 net.cpp:150] Setting up inception_3b/pool
I1105 17:49:48.136036 24694 net.cpp:157] Top shape: 32 256 28 28 (6422528)
I1105 17:49:48.136041 24694 net.cpp:165] Memory required for data: 1017971200
I1105 17:49:48.136045 24694 layer_factory.hpp:76] Creating layer inception_3b/pool_proj
I1105 17:49:48.136055 24694 net.cpp:106] Creating Layer inception_3b/pool_proj
I1105 17:49:48.136061 24694 net.cpp:454] inception_3b/pool_proj <- inception_3b/pool
I1105 17:49:48.136070 24694 net.cpp:411] inception_3b/pool_proj -> inception_3b/pool_proj
I1105 17:49:48.137210 24694 cudnn_conv_layer.cpp:194] Reallocating workspace storage: 20664
I1105 17:49:48.137231 24694 net.cpp:150] Setting up inception_3b/pool_proj
I1105 17:49:48.137239 24694 net.cpp:157] Top shape: 32 64 28 28 (1605632)
I1105 17:49:48.137244 24694 net.cpp:165] Memory required for data: 1024393728
I1105 17:49:48.137253 24694 layer_factory.hpp:76] Creating layer inception_3b/prelu_pool_proj
I1105 17:49:48.137262 24694 net.cpp:106] Creating Layer inception_3b/prelu_pool_proj
I1105 17:49:48.137267 24694 net.cpp:454] inception_3b/prelu_pool_proj <- inception_3b/pool_proj
I1105 17:49:48.137274 24694 net.cpp:397] inception_3b/prelu_pool_proj -> inception_3b/pool_proj (in-place)
I1105 17:49:48.137405 24694 net.cpp:150] Setting up inception_3b/prelu_pool_proj
I1105 17:49:48.137415 24694 net.cpp:157] Top shape: 32 64 28 28 (1605632)
I1105 17:49:48.137431 24694 net.cpp:165] Memory required for data: 1030816256
I1105 17:49:48.137439 24694 layer_factory.hpp:76] Creating layer inception_3b/output
I1105 17:49:48.137445 24694 net.cpp:106] Creating Layer inception_3b/output
I1105 17:49:48.137450 24694 net.cpp:454] inception_3b/output <- inception_3b/1x1
I1105 17:49:48.137455 24694 net.cpp:454] inception_3b/output <- inception_3b/3x3
I1105 17:49:48.137460 24694 net.cpp:454] inception_3b/output <- inception_3b/5x5
I1105 17:49:48.137465 24694 net.cpp:454] inception_3b/output <- inception_3b/pool_proj
I1105 17:49:48.137472 24694 net.cpp:411] inception_3b/output -> inception_3b/output
I1105 17:49:48.137519 24694 net.cpp:150] Setting up inception_3b/output
I1105 17:49:48.137528 24694 net.cpp:157] Top shape: 32 480 28 28 (12042240)
I1105 17:49:48.137532 24694 net.cpp:165] Memory required for data: 1078985216
I1105 17:49:48.137537 24694 layer_factory.hpp:76] Creating layer pool3/3x3_s2
I1105 17:49:48.137545 24694 net.cpp:106] Creating Layer pool3/3x3_s2
I1105 17:49:48.137562 24694 net.cpp:454] pool3/3x3_s2 <- inception_3b/output
I1105 17:49:48.137578 24694 net.cpp:411] pool3/3x3_s2 -> pool3/3x3_s2
I1105 17:49:48.137951 24694 net.cpp:150] Setting up pool3/3x3_s2
I1105 17:49:48.137964 24694 net.cpp:157] Top shape: 32 480 14 14 (3010560)
I1105 17:49:48.137967 24694 net.cpp:165] Memory required for data: 1091027456
I1105 17:49:48.137972 24694 layer_factory.hpp:76] Creating layer pool3/3x3_s2_pool3/3x3_s2_0_split
I1105 17:49:48.137979 24694 net.cpp:106] Creating Layer pool3/3x3_s2_pool3/3x3_s2_0_split
I1105 17:49:48.137984 24694 net.cpp:454] pool3/3x3_s2_pool3/3x3_s2_0_split <- pool3/3x3_s2
I1105 17:49:48.137991 24694 net.cpp:411] pool3/3x3_s2_pool3/3x3_s2_0_split -> pool3/3x3_s2_pool3/3x3_s2_0_split_0
I1105 17:49:48.138000 24694 net.cpp:411] pool3/3x3_s2_pool3/3x3_s2_0_split -> pool3/3x3_s2_pool3/3x3_s2_0_split_1
I1105 17:49:48.138006 24694 net.cpp:411] pool3/3x3_s2_pool3/3x3_s2_0_split -> pool3/3x3_s2_pool3/3x3_s2_0_split_2
I1105 17:49:48.138012 24694 net.cpp:411] pool3/3x3_s2_pool3/3x3_s2_0_split -> pool3/3x3_s2_pool3/3x3_s2_0_split_3
I1105 17:49:48.138066 24694 net.cpp:150] Setting up pool3/3x3_s2_pool3/3x3_s2_0_split
I1105 17:49:48.138075 24694 net.cpp:157] Top shape: 32 480 14 14 (3010560)
I1105 17:49:48.138082 24694 net.cpp:157] Top shape: 32 480 14 14 (3010560)
I1105 17:49:48.138085 24694 net.cpp:157] Top shape: 32 480 14 14 (3010560)
I1105 17:49:48.138090 24694 net.cpp:157] Top shape: 32 480 14 14 (3010560)
I1105 17:49:48.138094 24694 net.cpp:165] Memory required for data: 1139196416
I1105 17:49:48.138098 24694 layer_factory.hpp:76] Creating layer inception_4a/1x1
I1105 17:49:48.138108 24694 net.cpp:106] Creating Layer inception_4a/1x1
I1105 17:49:48.138111 24694 net.cpp:454] inception_4a/1x1 <- pool3/3x3_s2_pool3/3x3_s2_0_split_0
I1105 17:49:48.138120 24694 net.cpp:411] inception_4a/1x1 -> inception_4a/1x1
I1105 17:49:48.140143 24694 cudnn_conv_layer.cpp:194] Reallocating workspace storage: 10080
I1105 17:49:48.140350 24694 net.cpp:150] Setting up inception_4a/1x1
I1105 17:49:48.140362 24694 net.cpp:157] Top shape: 32 192 14 14 (1204224)
I1105 17:49:48.140367 24694 net.cpp:165] Memory required for data: 1144013312
I1105 17:49:48.140375 24694 layer_factory.hpp:76] Creating layer inception_4a/prelu_1x1
I1105 17:49:48.140384 24694 net.cpp:106] Creating Layer inception_4a/prelu_1x1
I1105 17:49:48.140389 24694 net.cpp:454] inception_4a/prelu_1x1 <- inception_4a/1x1
I1105 17:49:48.140396 24694 net.cpp:397] inception_4a/prelu_1x1 -> inception_4a/1x1 (in-place)
I1105 17:49:48.140961 24694 net.cpp:150] Setting up inception_4a/prelu_1x1
I1105 17:49:48.140974 24694 net.cpp:157] Top shape: 32 192 14 14 (1204224)
I1105 17:49:48.140979 24694 net.cpp:165] Memory required for data: 1148830208
I1105 17:49:48.140985 24694 layer_factory.hpp:76] Creating layer inception_4a/3x3_reduce
I1105 17:49:48.140995 24694 net.cpp:106] Creating Layer inception_4a/3x3_reduce
I1105 17:49:48.141000 24694 net.cpp:454] inception_4a/3x3_reduce <- pool3/3x3_s2_pool3/3x3_s2_0_split_1
I1105 17:49:48.141007 24694 net.cpp:411] inception_4a/3x3_reduce -> inception_4a/3x3_reduce
I1105 17:49:48.142331 24694 cudnn_conv_layer.cpp:194] Reallocating workspace storage: 10080
I1105 17:49:48.142369 24694 net.cpp:150] Setting up inception_4a/3x3_reduce
I1105 17:49:48.142375 24694 net.cpp:157] Top shape: 32 96 14 14 (602112)
I1105 17:49:48.142387 24694 net.cpp:165] Memory required for data: 1151238656
I1105 17:49:48.142395 24694 layer_factory.hpp:76] Creating layer inception_4a/prelu_3x3_reduce
I1105 17:49:48.142402 24694 net.cpp:106] Creating Layer inception_4a/prelu_3x3_reduce
I1105 17:49:48.142407 24694 net.cpp:454] inception_4a/prelu_3x3_reduce <- inception_4a/3x3_reduce
I1105 17:49:48.142416 24694 net.cpp:397] inception_4a/prelu_3x3_reduce -> inception_4a/3x3_reduce (in-place)
I1105 17:49:48.142527 24694 net.cpp:150] Setting up inception_4a/prelu_3x3_reduce
I1105 17:49:48.142536 24694 net.cpp:157] Top shape: 32 96 14 14 (602112)
I1105 17:49:48.142540 24694 net.cpp:165] Memory required for data: 1153647104
I1105 17:49:48.142554 24694 layer_factory.hpp:76] Creating layer inception_4a/3x3
I1105 17:49:48.142562 24694 net.cpp:106] Creating Layer inception_4a/3x3
I1105 17:49:48.142568 24694 net.cpp:454] inception_4a/3x3 <- inception_4a/3x3_reduce
I1105 17:49:48.142591 24694 net.cpp:411] inception_4a/3x3 -> inception_4a/3x3
I1105 17:49:48.144875 24694 cudnn_conv_layer.cpp:194] Reallocating workspace storage: 10080
I1105 17:49:48.144898 24694 net.cpp:150] Setting up inception_4a/3x3
I1105 17:49:48.144906 24694 net.cpp:157] Top shape: 32 208 14 14 (1304576)
I1105 17:49:48.144911 24694 net.cpp:165] Memory required for data: 1158865408
I1105 17:49:48.144918 24694 layer_factory.hpp:76] Creating layer inception_4a/prelu_3x3
I1105 17:49:48.144927 24694 net.cpp:106] Creating Layer inception_4a/prelu_3x3
I1105 17:49:48.144932 24694 net.cpp:454] inception_4a/prelu_3x3 <- inception_4a/3x3
I1105 17:49:48.144938 24694 net.cpp:397] inception_4a/prelu_3x3 -> inception_4a/3x3 (in-place)
I1105 17:49:48.145035 24694 net.cpp:150] Setting up inception_4a/prelu_3x3
I1105 17:49:48.145045 24694 net.cpp:157] Top shape: 32 208 14 14 (1304576)
I1105 17:49:48.145050 24694 net.cpp:165] Memory required for data: 1164083712
I1105 17:49:48.145056 24694 layer_factory.hpp:76] Creating layer inception_4a/5x5_reduce
I1105 17:49:48.145064 24694 net.cpp:106] Creating Layer inception_4a/5x5_reduce
I1105 17:49:48.145073 24694 net.cpp:454] inception_4a/5x5_reduce <- pool3/3x3_s2_pool3/3x3_s2_0_split_2
I1105 17:49:48.145081 24694 net.cpp:411] inception_4a/5x5_reduce -> inception_4a/5x5_reduce
I1105 17:49:48.146103 24694 cudnn_conv_layer.cpp:194] Reallocating workspace storage: 10080
I1105 17:49:48.146126 24694 net.cpp:150] Setting up inception_4a/5x5_reduce
I1105 17:49:48.146133 24694 net.cpp:157] Top shape: 32 16 14 14 (100352)
I1105 17:49:48.146137 24694 net.cpp:165] Memory required for data: 1164485120
I1105 17:49:48.146144 24694 layer_factory.hpp:76] Creating layer inception_4a/prelu_5x5_reduce
I1105 17:49:48.146153 24694 net.cpp:106] Creating Layer inception_4a/prelu_5x5_reduce
I1105 17:49:48.146158 24694 net.cpp:454] inception_4a/prelu_5x5_reduce <- inception_4a/5x5_reduce
I1105 17:49:48.146164 24694 net.cpp:397] inception_4a/prelu_5x5_reduce -> inception_4a/5x5_reduce (in-place)
I1105 17:49:48.146246 24694 net.cpp:150] Setting up inception_4a/prelu_5x5_reduce
I1105 17:49:48.146255 24694 net.cpp:157] Top shape: 32 16 14 14 (100352)
I1105 17:49:48.146260 24694 net.cpp:165] Memory required for data: 1164886528
I1105 17:49:48.146265 24694 layer_factory.hpp:76] Creating layer inception_4a/5x5
I1105 17:49:48.146275 24694 net.cpp:106] Creating Layer inception_4a/5x5
I1105 17:49:48.146280 24694 net.cpp:454] inception_4a/5x5 <- inception_4a/5x5_reduce
I1105 17:49:48.146287 24694 net.cpp:411] inception_4a/5x5 -> inception_4a/5x5
I1105 17:49:48.147372 24694 cudnn_conv_layer.cpp:194] Reallocating workspace storage: 13080
I1105 17:49:48.147394 24694 net.cpp:150] Setting up inception_4a/5x5
I1105 17:49:48.147403 24694 net.cpp:157] Top shape: 32 48 14 14 (301056)
I1105 17:49:48.147406 24694 net.cpp:165] Memory required for data: 1166090752
I1105 17:49:48.147433 24694 layer_factory.hpp:76] Creating layer inception_4a/prelu_5x5
I1105 17:49:48.147444 24694 net.cpp:106] Creating Layer inception_4a/prelu_5x5
I1105 17:49:48.147456 24694 net.cpp:454] inception_4a/prelu_5x5 <- inception_4a/5x5
I1105 17:49:48.147470 24694 net.cpp:397] inception_4a/prelu_5x5 -> inception_4a/5x5 (in-place)
I1105 17:49:48.147568 24694 net.cpp:150] Setting up inception_4a/prelu_5x5
I1105 17:49:48.147578 24694 net.cpp:157] Top shape: 32 48 14 14 (301056)
I1105 17:49:48.147583 24694 net.cpp:165] Memory required for data: 1167294976
I1105 17:49:48.147588 24694 layer_factory.hpp:76] Creating layer inception_4a/pool
I1105 17:49:48.147595 24694 net.cpp:106] Creating Layer inception_4a/pool
I1105 17:49:48.147599 24694 net.cpp:454] inception_4a/pool <- pool3/3x3_s2_pool3/3x3_s2_0_split_3
I1105 17:49:48.147606 24694 net.cpp:411] inception_4a/pool -> inception_4a/pool
I1105 17:49:48.147975 24694 net.cpp:150] Setting up inception_4a/pool
I1105 17:49:48.147986 24694 net.cpp:157] Top shape: 32 480 14 14 (3010560)
I1105 17:49:48.147990 24694 net.cpp:165] Memory required for data: 1179337216
I1105 17:49:48.147995 24694 layer_factory.hpp:76] Creating layer inception_4a/pool_proj
I1105 17:49:48.148003 24694 net.cpp:106] Creating Layer inception_4a/pool_proj
I1105 17:49:48.148008 24694 net.cpp:454] inception_4a/pool_proj <- inception_4a/pool
I1105 17:49:48.148017 24694 net.cpp:411] inception_4a/pool_proj -> inception_4a/pool_proj
I1105 17:49:48.149063 24694 cudnn_conv_layer.cpp:194] Reallocating workspace storage: 10080
I1105 17:49:48.149094 24694 net.cpp:150] Setting up inception_4a/pool_proj
I1105 17:49:48.149104 24694 net.cpp:157] Top shape: 32 64 14 14 (401408)
I1105 17:49:48.149108 24694 net.cpp:165] Memory required for data: 1180942848
I1105 17:49:48.149116 24694 layer_factory.hpp:76] Creating layer inception_4a/prelu_pool_proj
I1105 17:49:48.149123 24694 net.cpp:106] Creating Layer inception_4a/prelu_pool_proj
I1105 17:49:48.149128 24694 net.cpp:454] inception_4a/prelu_pool_proj <- inception_4a/pool_proj
I1105 17:49:48.149134 24694 net.cpp:397] inception_4a/prelu_pool_proj -> inception_4a/pool_proj (in-place)
I1105 17:49:48.149227 24694 net.cpp:150] Setting up inception_4a/prelu_pool_proj
I1105 17:49:48.149237 24694 net.cpp:157] Top shape: 32 64 14 14 (401408)
I1105 17:49:48.149241 24694 net.cpp:165] Memory required for data: 1182548480
I1105 17:49:48.149247 24694 layer_factory.hpp:76] Creating layer inception_4a/output
I1105 17:49:48.149255 24694 net.cpp:106] Creating Layer inception_4a/output
I1105 17:49:48.149258 24694 net.cpp:454] inception_4a/output <- inception_4a/1x1
I1105 17:49:48.149263 24694 net.cpp:454] inception_4a/output <- inception_4a/3x3
I1105 17:49:48.149268 24694 net.cpp:454] inception_4a/output <- inception_4a/5x5
I1105 17:49:48.149272 24694 net.cpp:454] inception_4a/output <- inception_4a/pool_proj
I1105 17:49:48.149277 24694 net.cpp:411] inception_4a/output -> inception_4a/output
I1105 17:49:48.149302 24694 net.cpp:150] Setting up inception_4a/output
I1105 17:49:48.149312 24694 net.cpp:157] Top shape: 32 512 14 14 (3211264)
I1105 17:49:48.149317 24694 net.cpp:165] Memory required for data: 1195393536
I1105 17:49:48.149322 24694 layer_factory.hpp:76] Creating layer inception_4a/output_inception_4a/output_0_split
I1105 17:49:48.149345 24694 net.cpp:106] Creating Layer inception_4a/output_inception_4a/output_0_split
I1105 17:49:48.149350 24694 net.cpp:454] inception_4a/output_inception_4a/output_0_split <- inception_4a/output
I1105 17:49:48.149356 24694 net.cpp:411] inception_4a/output_inception_4a/output_0_split -> inception_4a/output_inception_4a/output_0_split_0
I1105 17:49:48.149363 24694 net.cpp:411] inception_4a/output_inception_4a/output_0_split -> inception_4a/output_inception_4a/output_0_split_1
I1105 17:49:48.149370 24694 net.cpp:411] inception_4a/output_inception_4a/output_0_split -> inception_4a/output_inception_4a/output_0_split_2
I1105 17:49:48.149379 24694 net.cpp:411] inception_4a/output_inception_4a/output_0_split -> inception_4a/output_inception_4a/output_0_split_3
I1105 17:49:48.149396 24694 net.cpp:411] inception_4a/output_inception_4a/output_0_split -> inception_4a/output_inception_4a/output_0_split_4
I1105 17:49:48.149462 24694 net.cpp:150] Setting up inception_4a/output_inception_4a/output_0_split
I1105 17:49:48.149471 24694 net.cpp:157] Top shape: 32 512 14 14 (3211264)
I1105 17:49:48.149477 24694 net.cpp:157] Top shape: 32 512 14 14 (3211264)
I1105 17:49:48.149482 24694 net.cpp:157] Top shape: 32 512 14 14 (3211264)
I1105 17:49:48.149487 24694 net.cpp:157] Top shape: 32 512 14 14 (3211264)
I1105 17:49:48.149490 24694 net.cpp:157] Top shape: 32 512 14 14 (3211264)
I1105 17:49:48.149494 24694 net.cpp:165] Memory required for data: 1259618816
I1105 17:49:48.149498 24694 layer_factory.hpp:76] Creating layer loss1/ave_pool
I1105 17:49:48.149505 24694 net.cpp:106] Creating Layer loss1/ave_pool
I1105 17:49:48.149509 24694 net.cpp:454] loss1/ave_pool <- inception_4a/output_inception_4a/output_0_split_0
I1105 17:49:48.149515 24694 net.cpp:411] loss1/ave_pool -> loss1/ave_pool
I1105 17:49:48.149865 24694 net.cpp:150] Setting up loss1/ave_pool
I1105 17:49:48.149876 24694 net.cpp:157] Top shape: 32 512 4 4 (262144)
I1105 17:49:48.149881 24694 net.cpp:165] Memory required for data: 1260667392
I1105 17:49:48.149885 24694 layer_factory.hpp:76] Creating layer loss1/conv
I1105 17:49:48.149895 24694 net.cpp:106] Creating Layer loss1/conv
I1105 17:49:48.149900 24694 net.cpp:454] loss1/conv <- loss1/ave_pool
I1105 17:49:48.149907 24694 net.cpp:411] loss1/conv -> loss1/conv
I1105 17:49:48.151291 24694 cudnn_conv_layer.cpp:194] Reallocating workspace storage: 6840
I1105 17:49:48.151314 24694 net.cpp:150] Setting up loss1/conv
I1105 17:49:48.151321 24694 net.cpp:157] Top shape: 32 128 4 4 (65536)
I1105 17:49:48.151326 24694 net.cpp:165] Memory required for data: 1260929536
I1105 17:49:48.151343 24694 layer_factory.hpp:76] Creating layer loss1/prelu_conv
I1105 17:49:48.151355 24694 net.cpp:106] Creating Layer loss1/prelu_conv
I1105 17:49:48.151361 24694 net.cpp:454] loss1/prelu_conv <- loss1/conv
I1105 17:49:48.151368 24694 net.cpp:397] loss1/prelu_conv -> loss1/conv (in-place)
I1105 17:49:48.151453 24694 net.cpp:150] Setting up loss1/prelu_conv
I1105 17:49:48.151463 24694 net.cpp:157] Top shape: 32 128 4 4 (65536)
I1105 17:49:48.151466 24694 net.cpp:165] Memory required for data: 1261191680
I1105 17:49:48.151473 24694 layer_factory.hpp:76] Creating layer loss1/fc
I1105 17:49:48.151484 24694 net.cpp:106] Creating Layer loss1/fc
I1105 17:49:48.151489 24694 net.cpp:454] loss1/fc <- loss1/conv
I1105 17:49:48.151495 24694 net.cpp:411] loss1/fc -> loss1/fc
I1105 17:49:48.166656 24694 net.cpp:150] Setting up loss1/fc
I1105 17:49:48.166708 24694 net.cpp:157] Top shape: 32 1024 (32768)
I1105 17:49:48.166717 24694 net.cpp:165] Memory required for data: 1261322752
I1105 17:49:48.166733 24694 layer_factory.hpp:76] Creating layer loss1/prelu_fc
I1105 17:49:48.166761 24694 net.cpp:106] Creating Layer loss1/prelu_fc
I1105 17:49:48.166771 24694 net.cpp:454] loss1/prelu_fc <- loss1/fc
I1105 17:49:48.166786 24694 net.cpp:397] loss1/prelu_fc -> loss1/fc (in-place)
I1105 17:49:48.166918 24694 net.cpp:150] Setting up loss1/prelu_fc
I1105 17:49:48.166928 24694 net.cpp:157] Top shape: 32 1024 (32768)
I1105 17:49:48.166942 24694 net.cpp:165] Memory required for data: 1261453824
I1105 17:49:48.166949 24694 layer_factory.hpp:76] Creating layer loss1/drop_fc
I1105 17:49:48.166971 24694 net.cpp:106] Creating Layer loss1/drop_fc
I1105 17:49:48.166976 24694 net.cpp:454] loss1/drop_fc <- loss1/fc
I1105 17:49:48.166982 24694 net.cpp:397] loss1/drop_fc -> loss1/fc (in-place)
I1105 17:49:48.167028 24694 net.cpp:150] Setting up loss1/drop_fc
I1105 17:49:48.167037 24694 net.cpp:157] Top shape: 32 1024 (32768)
I1105 17:49:48.167052 24694 net.cpp:165] Memory required for data: 1261584896
I1105 17:49:48.167057 24694 layer_factory.hpp:76] Creating layer loss1/classifier2
I1105 17:49:48.167067 24694 net.cpp:106] Creating Layer loss1/classifier2
I1105 17:49:48.167070 24694 net.cpp:454] loss1/classifier2 <- loss1/fc
I1105 17:49:48.167104 24694 net.cpp:411] loss1/classifier2 -> loss1/classifier
I1105 17:49:48.167234 24694 net.cpp:150] Setting up loss1/classifier2
I1105 17:49:48.167245 24694 net.cpp:157] Top shape: 32 2 (64)
I1105 17:49:48.167259 24694 net.cpp:165] Memory required for data: 1261585152
I1105 17:49:48.167268 24694 layer_factory.hpp:76] Creating layer loss1/loss
I1105 17:49:48.167279 24694 net.cpp:106] Creating Layer loss1/loss
I1105 17:49:48.167284 24694 net.cpp:454] loss1/loss <- loss1/classifier
I1105 17:49:48.167289 24694 net.cpp:454] loss1/loss <- label_data_1_split_0
I1105 17:49:48.167295 24694 net.cpp:411] loss1/loss -> loss1/loss1
I1105 17:49:48.167309 24694 layer_factory.hpp:76] Creating layer loss1/loss
I1105 17:49:48.167634 24694 net.cpp:150] Setting up loss1/loss
I1105 17:49:48.167647 24694 net.cpp:157] Top shape: (1)
I1105 17:49:48.167651 24694 net.cpp:160]     with loss weight 0.3
I1105 17:49:48.167678 24694 net.cpp:165] Memory required for data: 1261585156
I1105 17:49:48.167683 24694 layer_factory.hpp:76] Creating layer inception_4b/1x1
I1105 17:49:48.167695 24694 net.cpp:106] Creating Layer inception_4b/1x1
I1105 17:49:48.167701 24694 net.cpp:454] inception_4b/1x1 <- inception_4a/output_inception_4a/output_0_split_1
I1105 17:49:48.167711 24694 net.cpp:411] inception_4b/1x1 -> inception_4b/1x1
I1105 17:49:48.169565 24694 cudnn_conv_layer.cpp:194] Reallocating workspace storage: 10080
I1105 17:49:48.169607 24694 net.cpp:150] Setting up inception_4b/1x1
I1105 17:49:48.169617 24694 net.cpp:157] Top shape: 32 160 14 14 (1003520)
I1105 17:49:48.169622 24694 net.cpp:165] Memory required for data: 1265599236
I1105 17:49:48.169639 24694 layer_factory.hpp:76] Creating layer inception_4b/prelu_1x1
I1105 17:49:48.169653 24694 net.cpp:106] Creating Layer inception_4b/prelu_1x1
I1105 17:49:48.169659 24694 net.cpp:454] inception_4b/prelu_1x1 <- inception_4b/1x1
I1105 17:49:48.169667 24694 net.cpp:397] inception_4b/prelu_1x1 -> inception_4b/1x1 (in-place)
I1105 17:49:48.170264 24694 net.cpp:150] Setting up inception_4b/prelu_1x1
I1105 17:49:48.170277 24694 net.cpp:157] Top shape: 32 160 14 14 (1003520)
I1105 17:49:48.170282 24694 net.cpp:165] Memory required for data: 1269613316
I1105 17:49:48.170289 24694 layer_factory.hpp:76] Creating layer inception_4b/3x3_reduce
I1105 17:49:48.170300 24694 net.cpp:106] Creating Layer inception_4b/3x3_reduce
I1105 17:49:48.170305 24694 net.cpp:454] inception_4b/3x3_reduce <- inception_4a/output_inception_4a/output_0_split_2
I1105 17:49:48.170311 24694 net.cpp:411] inception_4b/3x3_reduce -> inception_4b/3x3_reduce
I1105 17:49:48.171866 24694 cudnn_conv_layer.cpp:194] Reallocating workspace storage: 10080
I1105 17:49:48.171895 24694 net.cpp:150] Setting up inception_4b/3x3_reduce
I1105 17:49:48.171902 24694 net.cpp:157] Top shape: 32 112 14 14 (702464)
I1105 17:49:48.171907 24694 net.cpp:165] Memory required for data: 1272423172
I1105 17:49:48.171914 24694 layer_factory.hpp:76] Creating layer inception_4b/prelu_3x3_reduce
I1105 17:49:48.171929 24694 net.cpp:106] Creating Layer inception_4b/prelu_3x3_reduce
I1105 17:49:48.171934 24694 net.cpp:454] inception_4b/prelu_3x3_reduce <- inception_4b/3x3_reduce
I1105 17:49:48.171942 24694 net.cpp:397] inception_4b/prelu_3x3_reduce -> inception_4b/3x3_reduce (in-place)
I1105 17:49:48.172050 24694 net.cpp:150] Setting up inception_4b/prelu_3x3_reduce
I1105 17:49:48.172060 24694 net.cpp:157] Top shape: 32 112 14 14 (702464)
I1105 17:49:48.172065 24694 net.cpp:165] Memory required for data: 1275233028
I1105 17:49:48.172070 24694 layer_factory.hpp:76] Creating layer inception_4b/3x3
I1105 17:49:48.172080 24694 net.cpp:106] Creating Layer inception_4b/3x3
I1105 17:49:48.172085 24694 net.cpp:454] inception_4b/3x3 <- inception_4b/3x3_reduce
I1105 17:49:48.172091 24694 net.cpp:411] inception_4b/3x3 -> inception_4b/3x3
I1105 17:49:48.174968 24694 cudnn_conv_layer.cpp:194] Reallocating workspace storage: 10080
I1105 17:49:48.174996 24694 net.cpp:150] Setting up inception_4b/3x3
I1105 17:49:48.175004 24694 net.cpp:157] Top shape: 32 224 14 14 (1404928)
I1105 17:49:48.175041 24694 net.cpp:165] Memory required for data: 1280852740
I1105 17:49:48.175050 24694 layer_factory.hpp:76] Creating layer inception_4b/prelu_3x3
I1105 17:49:48.175060 24694 net.cpp:106] Creating Layer inception_4b/prelu_3x3
I1105 17:49:48.175065 24694 net.cpp:454] inception_4b/prelu_3x3 <- inception_4b/3x3
I1105 17:49:48.175072 24694 net.cpp:397] inception_4b/prelu_3x3 -> inception_4b/3x3 (in-place)
I1105 17:49:48.175204 24694 net.cpp:150] Setting up inception_4b/prelu_3x3
I1105 17:49:48.175215 24694 net.cpp:157] Top shape: 32 224 14 14 (1404928)
I1105 17:49:48.175220 24694 net.cpp:165] Memory required for data: 1286472452
I1105 17:49:48.175225 24694 layer_factory.hpp:76] Creating layer inception_4b/5x5_reduce
I1105 17:49:48.175233 24694 net.cpp:106] Creating Layer inception_4b/5x5_reduce
I1105 17:49:48.175238 24694 net.cpp:454] inception_4b/5x5_reduce <- inception_4a/output_inception_4a/output_0_split_3
I1105 17:49:48.175246 24694 net.cpp:411] inception_4b/5x5_reduce -> inception_4b/5x5_reduce
I1105 17:49:48.176147 24694 cudnn_conv_layer.cpp:194] Reallocating workspace storage: 10080
I1105 17:49:48.176170 24694 net.cpp:150] Setting up inception_4b/5x5_reduce
I1105 17:49:48.176178 24694 net.cpp:157] Top shape: 32 24 14 14 (150528)
I1105 17:49:48.176183 24694 net.cpp:165] Memory required for data: 1287074564
I1105 17:49:48.176189 24694 layer_factory.hpp:76] Creating layer inception_4b/prelu_5x5_reduce
I1105 17:49:48.176198 24694 net.cpp:106] Creating Layer inception_4b/prelu_5x5_reduce
I1105 17:49:48.176203 24694 net.cpp:454] inception_4b/prelu_5x5_reduce <- inception_4b/5x5_reduce
I1105 17:49:48.176210 24694 net.cpp:397] inception_4b/prelu_5x5_reduce -> inception_4b/5x5_reduce (in-place)
I1105 17:49:48.176308 24694 net.cpp:150] Setting up inception_4b/prelu_5x5_reduce
I1105 17:49:48.176318 24694 net.cpp:157] Top shape: 32 24 14 14 (150528)
I1105 17:49:48.176322 24694 net.cpp:165] Memory required for data: 1287676676
I1105 17:49:48.176327 24694 layer_factory.hpp:76] Creating layer inception_4b/5x5
I1105 17:49:48.176337 24694 net.cpp:106] Creating Layer inception_4b/5x5
I1105 17:49:48.176342 24694 net.cpp:454] inception_4b/5x5 <- inception_4b/5x5_reduce
I1105 17:49:48.176348 24694 net.cpp:411] inception_4b/5x5 -> inception_4b/5x5
I1105 17:49:48.177628 24694 cudnn_conv_layer.cpp:194] Reallocating workspace storage: 13080
I1105 17:49:48.177654 24694 net.cpp:150] Setting up inception_4b/5x5
I1105 17:49:48.177661 24694 net.cpp:157] Top shape: 32 64 14 14 (401408)
I1105 17:49:48.177665 24694 net.cpp:165] Memory required for data: 1289282308
I1105 17:49:48.177672 24694 layer_factory.hpp:76] Creating layer inception_4b/prelu_5x5
I1105 17:49:48.177681 24694 net.cpp:106] Creating Layer inception_4b/prelu_5x5
I1105 17:49:48.177686 24694 net.cpp:454] inception_4b/prelu_5x5 <- inception_4b/5x5
I1105 17:49:48.177692 24694 net.cpp:397] inception_4b/prelu_5x5 -> inception_4b/5x5 (in-place)
I1105 17:49:48.177793 24694 net.cpp:150] Setting up inception_4b/prelu_5x5
I1105 17:49:48.177803 24694 net.cpp:157] Top shape: 32 64 14 14 (401408)
I1105 17:49:48.177808 24694 net.cpp:165] Memory required for data: 1290887940
I1105 17:49:48.177813 24694 layer_factory.hpp:76] Creating layer inception_4b/pool
I1105 17:49:48.177821 24694 net.cpp:106] Creating Layer inception_4b/pool
I1105 17:49:48.177826 24694 net.cpp:454] inception_4b/pool <- inception_4a/output_inception_4a/output_0_split_4
I1105 17:49:48.177832 24694 net.cpp:411] inception_4b/pool -> inception_4b/pool
I1105 17:49:48.178205 24694 net.cpp:150] Setting up inception_4b/pool
I1105 17:49:48.178217 24694 net.cpp:157] Top shape: 32 512 14 14 (3211264)
I1105 17:49:48.178222 24694 net.cpp:165] Memory required for data: 1303732996
I1105 17:49:48.178226 24694 layer_factory.hpp:76] Creating layer inception_4b/pool_proj
I1105 17:49:48.178237 24694 net.cpp:106] Creating Layer inception_4b/pool_proj
I1105 17:49:48.178242 24694 net.cpp:454] inception_4b/pool_proj <- inception_4b/pool
I1105 17:49:48.178251 24694 net.cpp:411] inception_4b/pool_proj -> inception_4b/pool_proj
I1105 17:49:48.179460 24694 cudnn_conv_layer.cpp:194] Reallocating workspace storage: 10080
I1105 17:49:48.179487 24694 net.cpp:150] Setting up inception_4b/pool_proj
I1105 17:49:48.179496 24694 net.cpp:157] Top shape: 32 64 14 14 (401408)
I1105 17:49:48.179499 24694 net.cpp:165] Memory required for data: 1305338628
I1105 17:49:48.179507 24694 layer_factory.hpp:76] Creating layer inception_4b/prelu_pool_proj
I1105 17:49:48.179515 24694 net.cpp:106] Creating Layer inception_4b/prelu_pool_proj
I1105 17:49:48.179522 24694 net.cpp:454] inception_4b/prelu_pool_proj <- inception_4b/pool_proj
I1105 17:49:48.179527 24694 net.cpp:397] inception_4b/prelu_pool_proj -> inception_4b/pool_proj (in-place)
I1105 17:49:48.179625 24694 net.cpp:150] Setting up inception_4b/prelu_pool_proj
I1105 17:49:48.179633 24694 net.cpp:157] Top shape: 32 64 14 14 (401408)
I1105 17:49:48.179638 24694 net.cpp:165] Memory required for data: 1306944260
I1105 17:49:48.179643 24694 layer_factory.hpp:76] Creating layer inception_4b/output
I1105 17:49:48.179651 24694 net.cpp:106] Creating Layer inception_4b/output
I1105 17:49:48.179654 24694 net.cpp:454] inception_4b/output <- inception_4b/1x1
I1105 17:49:48.179659 24694 net.cpp:454] inception_4b/output <- inception_4b/3x3
I1105 17:49:48.179664 24694 net.cpp:454] inception_4b/output <- inception_4b/5x5
I1105 17:49:48.179669 24694 net.cpp:454] inception_4b/output <- inception_4b/pool_proj
I1105 17:49:48.179675 24694 net.cpp:411] inception_4b/output -> inception_4b/output
I1105 17:49:48.179702 24694 net.cpp:150] Setting up inception_4b/output
I1105 17:49:48.179709 24694 net.cpp:157] Top shape: 32 512 14 14 (3211264)
I1105 17:49:48.179713 24694 net.cpp:165] Memory required for data: 1319789316
I1105 17:49:48.179718 24694 layer_factory.hpp:76] Creating layer inception_4b/output_inception_4b/output_0_split
I1105 17:49:48.179726 24694 net.cpp:106] Creating Layer inception_4b/output_inception_4b/output_0_split
I1105 17:49:48.179731 24694 net.cpp:454] inception_4b/output_inception_4b/output_0_split <- inception_4b/output
I1105 17:49:48.179738 24694 net.cpp:411] inception_4b/output_inception_4b/output_0_split -> inception_4b/output_inception_4b/output_0_split_0
I1105 17:49:48.179744 24694 net.cpp:411] inception_4b/output_inception_4b/output_0_split -> inception_4b/output_inception_4b/output_0_split_1
I1105 17:49:48.179750 24694 net.cpp:411] inception_4b/output_inception_4b/output_0_split -> inception_4b/output_inception_4b/output_0_split_2
I1105 17:49:48.179759 24694 net.cpp:411] inception_4b/output_inception_4b/output_0_split -> inception_4b/output_inception_4b/output_0_split_3
I1105 17:49:48.179816 24694 net.cpp:150] Setting up inception_4b/output_inception_4b/output_0_split
I1105 17:49:48.179824 24694 net.cpp:157] Top shape: 32 512 14 14 (3211264)
I1105 17:49:48.179829 24694 net.cpp:157] Top shape: 32 512 14 14 (3211264)
I1105 17:49:48.179834 24694 net.cpp:157] Top shape: 32 512 14 14 (3211264)
I1105 17:49:48.179839 24694 net.cpp:157] Top shape: 32 512 14 14 (3211264)
I1105 17:49:48.179842 24694 net.cpp:165] Memory required for data: 1371169540
I1105 17:49:48.179847 24694 layer_factory.hpp:76] Creating layer inception_4c/1x1
I1105 17:49:48.179854 24694 net.cpp:106] Creating Layer inception_4c/1x1
I1105 17:49:48.179858 24694 net.cpp:454] inception_4c/1x1 <- inception_4b/output_inception_4b/output_0_split_0
I1105 17:49:48.179874 24694 net.cpp:411] inception_4c/1x1 -> inception_4c/1x1
I1105 17:49:48.181536 24694 cudnn_conv_layer.cpp:194] Reallocating workspace storage: 10080
I1105 17:49:48.181571 24694 net.cpp:150] Setting up inception_4c/1x1
I1105 17:49:48.181583 24694 net.cpp:157] Top shape: 32 128 14 14 (802816)
I1105 17:49:48.181588 24694 net.cpp:165] Memory required for data: 1374380804
I1105 17:49:48.181596 24694 layer_factory.hpp:76] Creating layer inception_4c/prelu_1x1
I1105 17:49:48.181607 24694 net.cpp:106] Creating Layer inception_4c/prelu_1x1
I1105 17:49:48.181612 24694 net.cpp:454] inception_4c/prelu_1x1 <- inception_4c/1x1
I1105 17:49:48.181618 24694 net.cpp:397] inception_4c/prelu_1x1 -> inception_4c/1x1 (in-place)
I1105 17:49:48.181730 24694 net.cpp:150] Setting up inception_4c/prelu_1x1
I1105 17:49:48.181740 24694 net.cpp:157] Top shape: 32 128 14 14 (802816)
I1105 17:49:48.181751 24694 net.cpp:165] Memory required for data: 1377592068
I1105 17:49:48.181757 24694 layer_factory.hpp:76] Creating layer inception_4c/3x3_reduce
I1105 17:49:48.181766 24694 net.cpp:106] Creating Layer inception_4c/3x3_reduce
I1105 17:49:48.181772 24694 net.cpp:454] inception_4c/3x3_reduce <- inception_4b/output_inception_4b/output_0_split_1
I1105 17:49:48.181778 24694 net.cpp:411] inception_4c/3x3_reduce -> inception_4c/3x3_reduce
I1105 17:49:48.183156 24694 cudnn_conv_layer.cpp:194] Reallocating workspace storage: 10080
I1105 17:49:48.183187 24694 net.cpp:150] Setting up inception_4c/3x3_reduce
I1105 17:49:48.183195 24694 net.cpp:157] Top shape: 32 128 14 14 (802816)
I1105 17:49:48.183199 24694 net.cpp:165] Memory required for data: 1380803332
I1105 17:49:48.183207 24694 layer_factory.hpp:76] Creating layer inception_4c/prelu_3x3_reduce
I1105 17:49:48.183218 24694 net.cpp:106] Creating Layer inception_4c/prelu_3x3_reduce
I1105 17:49:48.183223 24694 net.cpp:454] inception_4c/prelu_3x3_reduce <- inception_4c/3x3_reduce
I1105 17:49:48.183238 24694 net.cpp:397] inception_4c/prelu_3x3_reduce -> inception_4c/3x3_reduce (in-place)
I1105 17:49:48.183348 24694 net.cpp:150] Setting up inception_4c/prelu_3x3_reduce
I1105 17:49:48.183357 24694 net.cpp:157] Top shape: 32 128 14 14 (802816)
I1105 17:49:48.183369 24694 net.cpp:165] Memory required for data: 1384014596
I1105 17:49:48.183377 24694 layer_factory.hpp:76] Creating layer inception_4c/3x3
I1105 17:49:48.183385 24694 net.cpp:106] Creating Layer inception_4c/3x3
I1105 17:49:48.183389 24694 net.cpp:454] inception_4c/3x3 <- inception_4c/3x3_reduce
I1105 17:49:48.183404 24694 net.cpp:411] inception_4c/3x3 -> inception_4c/3x3
I1105 17:49:48.186691 24694 cudnn_conv_layer.cpp:194] Reallocating workspace storage: 10080
I1105 17:49:48.186717 24694 net.cpp:150] Setting up inception_4c/3x3
I1105 17:49:48.186727 24694 net.cpp:157] Top shape: 32 256 14 14 (1605632)
I1105 17:49:48.186731 24694 net.cpp:165] Memory required for data: 1390437124
I1105 17:49:48.186738 24694 layer_factory.hpp:76] Creating layer inception_4c/prelu_3x3
I1105 17:49:48.186755 24694 net.cpp:106] Creating Layer inception_4c/prelu_3x3
I1105 17:49:48.186760 24694 net.cpp:454] inception_4c/prelu_3x3 <- inception_4c/3x3
I1105 17:49:48.186767 24694 net.cpp:397] inception_4c/prelu_3x3 -> inception_4c/3x3 (in-place)
I1105 17:49:48.186892 24694 net.cpp:150] Setting up inception_4c/prelu_3x3
I1105 17:49:48.186902 24694 net.cpp:157] Top shape: 32 256 14 14 (1605632)
I1105 17:49:48.186905 24694 net.cpp:165] Memory required for data: 1396859652
I1105 17:49:48.186911 24694 layer_factory.hpp:76] Creating layer inception_4c/5x5_reduce
I1105 17:49:48.186921 24694 net.cpp:106] Creating Layer inception_4c/5x5_reduce
I1105 17:49:48.186926 24694 net.cpp:454] inception_4c/5x5_reduce <- inception_4b/output_inception_4b/output_0_split_2
I1105 17:49:48.186935 24694 net.cpp:411] inception_4c/5x5_reduce -> inception_4c/5x5_reduce
I1105 17:49:48.188030 24694 cudnn_conv_layer.cpp:194] Reallocating workspace storage: 10080
I1105 17:49:48.188055 24694 net.cpp:150] Setting up inception_4c/5x5_reduce
I1105 17:49:48.188062 24694 net.cpp:157] Top shape: 32 24 14 14 (150528)
I1105 17:49:48.188066 24694 net.cpp:165] Memory required for data: 1397461764
I1105 17:49:48.188073 24694 layer_factory.hpp:76] Creating layer inception_4c/prelu_5x5_reduce
I1105 17:49:48.188082 24694 net.cpp:106] Creating Layer inception_4c/prelu_5x5_reduce
I1105 17:49:48.188096 24694 net.cpp:454] inception_4c/prelu_5x5_reduce <- inception_4c/5x5_reduce
I1105 17:49:48.188102 24694 net.cpp:397] inception_4c/prelu_5x5_reduce -> inception_4c/5x5_reduce (in-place)
I1105 17:49:48.188206 24694 net.cpp:150] Setting up inception_4c/prelu_5x5_reduce
I1105 17:49:48.188215 24694 net.cpp:157] Top shape: 32 24 14 14 (150528)
I1105 17:49:48.188220 24694 net.cpp:165] Memory required for data: 1398063876
I1105 17:49:48.188236 24694 layer_factory.hpp:76] Creating layer inception_4c/5x5
I1105 17:49:48.188246 24694 net.cpp:106] Creating Layer inception_4c/5x5
I1105 17:49:48.188251 24694 net.cpp:454] inception_4c/5x5 <- inception_4c/5x5_reduce
I1105 17:49:48.188267 24694 net.cpp:411] inception_4c/5x5 -> inception_4c/5x5
I1105 17:49:48.190018 24694 cudnn_conv_layer.cpp:194] Reallocating workspace storage: 13080
I1105 17:49:48.190045 24694 net.cpp:150] Setting up inception_4c/5x5
I1105 17:49:48.190054 24694 net.cpp:157] Top shape: 32 64 14 14 (401408)
I1105 17:49:48.190059 24694 net.cpp:165] Memory required for data: 1399669508
I1105 17:49:48.190068 24694 layer_factory.hpp:76] Creating layer inception_4c/prelu_5x5
I1105 17:49:48.190083 24694 net.cpp:106] Creating Layer inception_4c/prelu_5x5
I1105 17:49:48.190096 24694 net.cpp:454] inception_4c/prelu_5x5 <- inception_4c/5x5
I1105 17:49:48.190104 24694 net.cpp:397] inception_4c/prelu_5x5 -> inception_4c/5x5 (in-place)
I1105 17:49:48.190230 24694 net.cpp:150] Setting up inception_4c/prelu_5x5
I1105 17:49:48.190240 24694 net.cpp:157] Top shape: 32 64 14 14 (401408)
I1105 17:49:48.190244 24694 net.cpp:165] Memory required for data: 1401275140
I1105 17:49:48.190250 24694 layer_factory.hpp:76] Creating layer inception_4c/pool
I1105 17:49:48.190258 24694 net.cpp:106] Creating Layer inception_4c/pool
I1105 17:49:48.190263 24694 net.cpp:454] inception_4c/pool <- inception_4b/output_inception_4b/output_0_split_3
I1105 17:49:48.190268 24694 net.cpp:411] inception_4c/pool -> inception_4c/pool
I1105 17:49:48.190479 24694 net.cpp:150] Setting up inception_4c/pool
I1105 17:49:48.190490 24694 net.cpp:157] Top shape: 32 512 14 14 (3211264)
I1105 17:49:48.190495 24694 net.cpp:165] Memory required for data: 1414120196
I1105 17:49:48.190500 24694 layer_factory.hpp:76] Creating layer inception_4c/pool_proj
I1105 17:49:48.190510 24694 net.cpp:106] Creating Layer inception_4c/pool_proj
I1105 17:49:48.190515 24694 net.cpp:454] inception_4c/pool_proj <- inception_4c/pool
I1105 17:49:48.190522 24694 net.cpp:411] inception_4c/pool_proj -> inception_4c/pool_proj
I1105 17:49:48.192029 24694 cudnn_conv_layer.cpp:194] Reallocating workspace storage: 10080
I1105 17:49:48.192062 24694 net.cpp:150] Setting up inception_4c/pool_proj
I1105 17:49:48.192070 24694 net.cpp:157] Top shape: 32 64 14 14 (401408)
I1105 17:49:48.192075 24694 net.cpp:165] Memory required for data: 1415725828
I1105 17:49:48.192082 24694 layer_factory.hpp:76] Creating layer inception_4c/prelu_pool_proj
I1105 17:49:48.192091 24694 net.cpp:106] Creating Layer inception_4c/prelu_pool_proj
I1105 17:49:48.192101 24694 net.cpp:454] inception_4c/prelu_pool_proj <- inception_4c/pool_proj
I1105 17:49:48.192107 24694 net.cpp:397] inception_4c/prelu_pool_proj -> inception_4c/pool_proj (in-place)
I1105 17:49:48.192234 24694 net.cpp:150] Setting up inception_4c/prelu_pool_proj
I1105 17:49:48.192244 24694 net.cpp:157] Top shape: 32 64 14 14 (401408)
I1105 17:49:48.192248 24694 net.cpp:165] Memory required for data: 1417331460
I1105 17:49:48.192253 24694 layer_factory.hpp:76] Creating layer inception_4c/output
I1105 17:49:48.192261 24694 net.cpp:106] Creating Layer inception_4c/output
I1105 17:49:48.192266 24694 net.cpp:454] inception_4c/output <- inception_4c/1x1
I1105 17:49:48.192271 24694 net.cpp:454] inception_4c/output <- inception_4c/3x3
I1105 17:49:48.192276 24694 net.cpp:454] inception_4c/output <- inception_4c/5x5
I1105 17:49:48.192281 24694 net.cpp:454] inception_4c/output <- inception_4c/pool_proj
I1105 17:49:48.192287 24694 net.cpp:411] inception_4c/output -> inception_4c/output
I1105 17:49:48.192327 24694 net.cpp:150] Setting up inception_4c/output
I1105 17:49:48.192335 24694 net.cpp:157] Top shape: 32 512 14 14 (3211264)
I1105 17:49:48.192340 24694 net.cpp:165] Memory required for data: 1430176516
I1105 17:49:48.192344 24694 layer_factory.hpp:76] Creating layer inception_4c/output_inception_4c/output_0_split
I1105 17:49:48.192351 24694 net.cpp:106] Creating Layer inception_4c/output_inception_4c/output_0_split
I1105 17:49:48.192356 24694 net.cpp:454] inception_4c/output_inception_4c/output_0_split <- inception_4c/output
I1105 17:49:48.192378 24694 net.cpp:411] inception_4c/output_inception_4c/output_0_split -> inception_4c/output_inception_4c/output_0_split_0
I1105 17:49:48.192397 24694 net.cpp:411] inception_4c/output_inception_4c/output_0_split -> inception_4c/output_inception_4c/output_0_split_1
I1105 17:49:48.192415 24694 net.cpp:411] inception_4c/output_inception_4c/output_0_split -> inception_4c/output_inception_4c/output_0_split_2
I1105 17:49:48.192461 24694 net.cpp:411] inception_4c/output_inception_4c/output_0_split -> inception_4c/output_inception_4c/output_0_split_3
I1105 17:49:48.192553 24694 net.cpp:150] Setting up inception_4c/output_inception_4c/output_0_split
I1105 17:49:48.192561 24694 net.cpp:157] Top shape: 32 512 14 14 (3211264)
I1105 17:49:48.192566 24694 net.cpp:157] Top shape: 32 512 14 14 (3211264)
I1105 17:49:48.192572 24694 net.cpp:157] Top shape: 32 512 14 14 (3211264)
I1105 17:49:48.192587 24694 net.cpp:157] Top shape: 32 512 14 14 (3211264)
I1105 17:49:48.192591 24694 net.cpp:165] Memory required for data: 1481556740
I1105 17:49:48.192596 24694 layer_factory.hpp:76] Creating layer inception_4d/1x1
I1105 17:49:48.192605 24694 net.cpp:106] Creating Layer inception_4d/1x1
I1105 17:49:48.192610 24694 net.cpp:454] inception_4d/1x1 <- inception_4c/output_inception_4c/output_0_split_0
I1105 17:49:48.192616 24694 net.cpp:411] inception_4d/1x1 -> inception_4d/1x1
I1105 17:49:48.194154 24694 cudnn_conv_layer.cpp:194] Reallocating workspace storage: 10080
I1105 17:49:48.194190 24694 net.cpp:150] Setting up inception_4d/1x1
I1105 17:49:48.194200 24694 net.cpp:157] Top shape: 32 112 14 14 (702464)
I1105 17:49:48.194205 24694 net.cpp:165] Memory required for data: 1484366596
I1105 17:49:48.194213 24694 layer_factory.hpp:76] Creating layer inception_4d/prelu_1x1
I1105 17:49:48.194226 24694 net.cpp:106] Creating Layer inception_4d/prelu_1x1
I1105 17:49:48.194231 24694 net.cpp:454] inception_4d/prelu_1x1 <- inception_4d/1x1
I1105 17:49:48.194239 24694 net.cpp:397] inception_4d/prelu_1x1 -> inception_4d/1x1 (in-place)
I1105 17:49:48.194356 24694 net.cpp:150] Setting up inception_4d/prelu_1x1
I1105 17:49:48.194366 24694 net.cpp:157] Top shape: 32 112 14 14 (702464)
I1105 17:49:48.194371 24694 net.cpp:165] Memory required for data: 1487176452
I1105 17:49:48.194377 24694 layer_factory.hpp:76] Creating layer inception_4d/3x3_reduce
I1105 17:49:48.194391 24694 net.cpp:106] Creating Layer inception_4d/3x3_reduce
I1105 17:49:48.194396 24694 net.cpp:454] inception_4d/3x3_reduce <- inception_4c/output_inception_4c/output_0_split_1
I1105 17:49:48.194404 24694 net.cpp:411] inception_4d/3x3_reduce -> inception_4d/3x3_reduce
I1105 17:49:48.195777 24694 cudnn_conv_layer.cpp:194] Reallocating workspace storage: 10080
I1105 17:49:48.195807 24694 net.cpp:150] Setting up inception_4d/3x3_reduce
I1105 17:49:48.195816 24694 net.cpp:157] Top shape: 32 144 14 14 (903168)
I1105 17:49:48.195821 24694 net.cpp:165] Memory required for data: 1490789124
I1105 17:49:48.195828 24694 layer_factory.hpp:76] Creating layer inception_4d/prelu_3x3_reduce
I1105 17:49:48.195837 24694 net.cpp:106] Creating Layer inception_4d/prelu_3x3_reduce
I1105 17:49:48.195843 24694 net.cpp:454] inception_4d/prelu_3x3_reduce <- inception_4d/3x3_reduce
I1105 17:49:48.195852 24694 net.cpp:397] inception_4d/prelu_3x3_reduce -> inception_4d/3x3_reduce (in-place)
I1105 17:49:48.195981 24694 net.cpp:150] Setting up inception_4d/prelu_3x3_reduce
I1105 17:49:48.195991 24694 net.cpp:157] Top shape: 32 144 14 14 (903168)
I1105 17:49:48.195996 24694 net.cpp:165] Memory required for data: 1494401796
I1105 17:49:48.196002 24694 layer_factory.hpp:76] Creating layer inception_4d/3x3
I1105 17:49:48.196012 24694 net.cpp:106] Creating Layer inception_4d/3x3
I1105 17:49:48.196017 24694 net.cpp:454] inception_4d/3x3 <- inception_4d/3x3_reduce
I1105 17:49:48.196024 24694 net.cpp:411] inception_4d/3x3 -> inception_4d/3x3
I1105 17:49:48.199832 24694 cudnn_conv_layer.cpp:194] Reallocating workspace storage: 10080
I1105 17:49:48.199877 24694 net.cpp:150] Setting up inception_4d/3x3
I1105 17:49:48.199887 24694 net.cpp:157] Top shape: 32 288 14 14 (1806336)
I1105 17:49:48.199892 24694 net.cpp:165] Memory required for data: 1501627140
I1105 17:49:48.199898 24694 layer_factory.hpp:76] Creating layer inception_4d/prelu_3x3
I1105 17:49:48.199914 24694 net.cpp:106] Creating Layer inception_4d/prelu_3x3
I1105 17:49:48.199920 24694 net.cpp:454] inception_4d/prelu_3x3 <- inception_4d/3x3
I1105 17:49:48.199928 24694 net.cpp:397] inception_4d/prelu_3x3 -> inception_4d/3x3 (in-place)
I1105 17:49:48.200080 24694 net.cpp:150] Setting up inception_4d/prelu_3x3
I1105 17:49:48.200090 24694 net.cpp:157] Top shape: 32 288 14 14 (1806336)
I1105 17:49:48.200094 24694 net.cpp:165] Memory required for data: 1508852484
I1105 17:49:48.200100 24694 layer_factory.hpp:76] Creating layer inception_4d/5x5_reduce
I1105 17:49:48.200109 24694 net.cpp:106] Creating Layer inception_4d/5x5_reduce
I1105 17:49:48.200114 24694 net.cpp:454] inception_4d/5x5_reduce <- inception_4c/output_inception_4c/output_0_split_2
I1105 17:49:48.200122 24694 net.cpp:411] inception_4d/5x5_reduce -> inception_4d/5x5_reduce
I1105 17:49:48.201445 24694 cudnn_conv_layer.cpp:194] Reallocating workspace storage: 10080
I1105 17:49:48.201484 24694 net.cpp:150] Setting up inception_4d/5x5_reduce
I1105 17:49:48.201500 24694 net.cpp:157] Top shape: 32 32 14 14 (200704)
I1105 17:49:48.201514 24694 net.cpp:165] Memory required for data: 1509655300
I1105 17:49:48.201521 24694 layer_factory.hpp:76] Creating layer inception_4d/prelu_5x5_reduce
I1105 17:49:48.201530 24694 net.cpp:106] Creating Layer inception_4d/prelu_5x5_reduce
I1105 17:49:48.201535 24694 net.cpp:454] inception_4d/prelu_5x5_reduce <- inception_4d/5x5_reduce
I1105 17:49:48.201544 24694 net.cpp:397] inception_4d/prelu_5x5_reduce -> inception_4d/5x5_reduce (in-place)
I1105 17:49:48.201661 24694 net.cpp:150] Setting up inception_4d/prelu_5x5_reduce
I1105 17:49:48.201671 24694 net.cpp:157] Top shape: 32 32 14 14 (200704)
I1105 17:49:48.201675 24694 net.cpp:165] Memory required for data: 1510458116
I1105 17:49:48.201689 24694 layer_factory.hpp:76] Creating layer inception_4d/5x5
I1105 17:49:48.201699 24694 net.cpp:106] Creating Layer inception_4d/5x5
I1105 17:49:48.201704 24694 net.cpp:454] inception_4d/5x5 <- inception_4d/5x5_reduce
I1105 17:49:48.201719 24694 net.cpp:411] inception_4d/5x5 -> inception_4d/5x5
I1105 17:49:48.203567 24694 cudnn_conv_layer.cpp:194] Reallocating workspace storage: 13080
I1105 17:49:48.203594 24694 net.cpp:150] Setting up inception_4d/5x5
I1105 17:49:48.203603 24694 net.cpp:157] Top shape: 32 64 14 14 (401408)
I1105 17:49:48.203608 24694 net.cpp:165] Memory required for data: 1512063748
I1105 17:49:48.203615 24694 layer_factory.hpp:76] Creating layer inception_4d/prelu_5x5
I1105 17:49:48.203624 24694 net.cpp:106] Creating Layer inception_4d/prelu_5x5
I1105 17:49:48.203629 24694 net.cpp:454] inception_4d/prelu_5x5 <- inception_4d/5x5
I1105 17:49:48.203637 24694 net.cpp:397] inception_4d/prelu_5x5 -> inception_4d/5x5 (in-place)
I1105 17:49:48.203743 24694 net.cpp:150] Setting up inception_4d/prelu_5x5
I1105 17:49:48.203752 24694 net.cpp:157] Top shape: 32 64 14 14 (401408)
I1105 17:49:48.203757 24694 net.cpp:165] Memory required for data: 1513669380
I1105 17:49:48.203763 24694 layer_factory.hpp:76] Creating layer inception_4d/pool
I1105 17:49:48.203771 24694 net.cpp:106] Creating Layer inception_4d/pool
I1105 17:49:48.203776 24694 net.cpp:454] inception_4d/pool <- inception_4c/output_inception_4c/output_0_split_3
I1105 17:49:48.203783 24694 net.cpp:411] inception_4d/pool -> inception_4d/pool
I1105 17:49:48.203963 24694 net.cpp:150] Setting up inception_4d/pool
I1105 17:49:48.203974 24694 net.cpp:157] Top shape: 32 512 14 14 (3211264)
I1105 17:49:48.203979 24694 net.cpp:165] Memory required for data: 1526514436
I1105 17:49:48.203982 24694 layer_factory.hpp:76] Creating layer inception_4d/pool_proj
I1105 17:49:48.203991 24694 net.cpp:106] Creating Layer inception_4d/pool_proj
I1105 17:49:48.203996 24694 net.cpp:454] inception_4d/pool_proj <- inception_4d/pool
I1105 17:49:48.204015 24694 net.cpp:411] inception_4d/pool_proj -> inception_4d/pool_proj
I1105 17:49:48.205255 24694 cudnn_conv_layer.cpp:194] Reallocating workspace storage: 10080
I1105 17:49:48.205286 24694 net.cpp:150] Setting up inception_4d/pool_proj
I1105 17:49:48.205293 24694 net.cpp:157] Top shape: 32 64 14 14 (401408)
I1105 17:49:48.205297 24694 net.cpp:165] Memory required for data: 1528120068
I1105 17:49:48.205304 24694 layer_factory.hpp:76] Creating layer inception_4d/prelu_pool_proj
I1105 17:49:48.205313 24694 net.cpp:106] Creating Layer inception_4d/prelu_pool_proj
I1105 17:49:48.205319 24694 net.cpp:454] inception_4d/prelu_pool_proj <- inception_4d/pool_proj
I1105 17:49:48.205325 24694 net.cpp:397] inception_4d/prelu_pool_proj -> inception_4d/pool_proj (in-place)
I1105 17:49:48.205426 24694 net.cpp:150] Setting up inception_4d/prelu_pool_proj
I1105 17:49:48.205436 24694 net.cpp:157] Top shape: 32 64 14 14 (401408)
I1105 17:49:48.205440 24694 net.cpp:165] Memory required for data: 1529725700
I1105 17:49:48.205446 24694 layer_factory.hpp:76] Creating layer inception_4d/output
I1105 17:49:48.205453 24694 net.cpp:106] Creating Layer inception_4d/output
I1105 17:49:48.205458 24694 net.cpp:454] inception_4d/output <- inception_4d/1x1
I1105 17:49:48.205464 24694 net.cpp:454] inception_4d/output <- inception_4d/3x3
I1105 17:49:48.205468 24694 net.cpp:454] inception_4d/output <- inception_4d/5x5
I1105 17:49:48.205473 24694 net.cpp:454] inception_4d/output <- inception_4d/pool_proj
I1105 17:49:48.205478 24694 net.cpp:411] inception_4d/output -> inception_4d/output
I1105 17:49:48.205507 24694 net.cpp:150] Setting up inception_4d/output
I1105 17:49:48.205515 24694 net.cpp:157] Top shape: 32 528 14 14 (3311616)
I1105 17:49:48.205519 24694 net.cpp:165] Memory required for data: 1542972164
I1105 17:49:48.205523 24694 layer_factory.hpp:76] Creating layer inception_4d/output_inception_4d/output_0_split
I1105 17:49:48.205530 24694 net.cpp:106] Creating Layer inception_4d/output_inception_4d/output_0_split
I1105 17:49:48.205534 24694 net.cpp:454] inception_4d/output_inception_4d/output_0_split <- inception_4d/output
I1105 17:49:48.205559 24694 net.cpp:411] inception_4d/output_inception_4d/output_0_split -> inception_4d/output_inception_4d/output_0_split_0
I1105 17:49:48.205565 24694 net.cpp:411] inception_4d/output_inception_4d/output_0_split -> inception_4d/output_inception_4d/output_0_split_1
I1105 17:49:48.205574 24694 net.cpp:411] inception_4d/output_inception_4d/output_0_split -> inception_4d/output_inception_4d/output_0_split_2
I1105 17:49:48.205585 24694 net.cpp:411] inception_4d/output_inception_4d/output_0_split -> inception_4d/output_inception_4d/output_0_split_3
I1105 17:49:48.205590 24694 net.cpp:411] inception_4d/output_inception_4d/output_0_split -> inception_4d/output_inception_4d/output_0_split_4
I1105 17:49:48.205680 24694 net.cpp:150] Setting up inception_4d/output_inception_4d/output_0_split
I1105 17:49:48.205689 24694 net.cpp:157] Top shape: 32 528 14 14 (3311616)
I1105 17:49:48.205694 24694 net.cpp:157] Top shape: 32 528 14 14 (3311616)
I1105 17:49:48.205699 24694 net.cpp:157] Top shape: 32 528 14 14 (3311616)
I1105 17:49:48.205704 24694 net.cpp:157] Top shape: 32 528 14 14 (3311616)
I1105 17:49:48.205709 24694 net.cpp:157] Top shape: 32 528 14 14 (3311616)
I1105 17:49:48.205713 24694 net.cpp:165] Memory required for data: 1609204484
I1105 17:49:48.205718 24694 layer_factory.hpp:76] Creating layer loss2/ave_pool
I1105 17:49:48.205724 24694 net.cpp:106] Creating Layer loss2/ave_pool
I1105 17:49:48.205729 24694 net.cpp:454] loss2/ave_pool <- inception_4d/output_inception_4d/output_0_split_0
I1105 17:49:48.205735 24694 net.cpp:411] loss2/ave_pool -> loss2/ave_pool
I1105 17:49:48.206094 24694 net.cpp:150] Setting up loss2/ave_pool
I1105 17:49:48.206105 24694 net.cpp:157] Top shape: 32 528 4 4 (270336)
I1105 17:49:48.206110 24694 net.cpp:165] Memory required for data: 1610285828
I1105 17:49:48.206115 24694 layer_factory.hpp:76] Creating layer loss2/conv
I1105 17:49:48.206135 24694 net.cpp:106] Creating Layer loss2/conv
I1105 17:49:48.206140 24694 net.cpp:454] loss2/conv <- loss2/ave_pool
I1105 17:49:48.206146 24694 net.cpp:411] loss2/conv -> loss2/conv
I1105 17:49:48.207602 24694 cudnn_conv_layer.cpp:194] Reallocating workspace storage: 6840
I1105 17:49:48.207628 24694 net.cpp:150] Setting up loss2/conv
I1105 17:49:48.207635 24694 net.cpp:157] Top shape: 32 128 4 4 (65536)
I1105 17:49:48.207639 24694 net.cpp:165] Memory required for data: 1610547972
I1105 17:49:48.207646 24694 layer_factory.hpp:76] Creating layer loss2/prelu_conv
I1105 17:49:48.207655 24694 net.cpp:106] Creating Layer loss2/prelu_conv
I1105 17:49:48.207660 24694 net.cpp:454] loss2/prelu_conv <- loss2/conv
I1105 17:49:48.207666 24694 net.cpp:397] loss2/prelu_conv -> loss2/conv (in-place)
I1105 17:49:48.207763 24694 net.cpp:150] Setting up loss2/prelu_conv
I1105 17:49:48.207772 24694 net.cpp:157] Top shape: 32 128 4 4 (65536)
I1105 17:49:48.207777 24694 net.cpp:165] Memory required for data: 1610810116
I1105 17:49:48.207782 24694 layer_factory.hpp:76] Creating layer loss2/fc
I1105 17:49:48.207790 24694 net.cpp:106] Creating Layer loss2/fc
I1105 17:49:48.207795 24694 net.cpp:454] loss2/fc <- loss2/conv
I1105 17:49:48.207803 24694 net.cpp:411] loss2/fc -> loss2/fc
I1105 17:49:48.228895 24694 net.cpp:150] Setting up loss2/fc
I1105 17:49:48.228937 24694 net.cpp:157] Top shape: 32 1024 (32768)
I1105 17:49:48.228943 24694 net.cpp:165] Memory required for data: 1610941188
I1105 17:49:48.228978 24694 layer_factory.hpp:76] Creating layer loss2/prelu_fc
I1105 17:49:48.229006 24694 net.cpp:106] Creating Layer loss2/prelu_fc
I1105 17:49:48.229012 24694 net.cpp:454] loss2/prelu_fc <- loss2/fc
I1105 17:49:48.229020 24694 net.cpp:397] loss2/prelu_fc -> loss2/fc (in-place)
I1105 17:49:48.229161 24694 net.cpp:150] Setting up loss2/prelu_fc
I1105 17:49:48.229172 24694 net.cpp:157] Top shape: 32 1024 (32768)
I1105 17:49:48.229177 24694 net.cpp:165] Memory required for data: 1611072260
I1105 17:49:48.229183 24694 layer_factory.hpp:76] Creating layer loss2/drop_fc
I1105 17:49:48.229194 24694 net.cpp:106] Creating Layer loss2/drop_fc
I1105 17:49:48.229199 24694 net.cpp:454] loss2/drop_fc <- loss2/fc
I1105 17:49:48.229204 24694 net.cpp:397] loss2/drop_fc -> loss2/fc (in-place)
I1105 17:49:48.229244 24694 net.cpp:150] Setting up loss2/drop_fc
I1105 17:49:48.229254 24694 net.cpp:157] Top shape: 32 1024 (32768)
I1105 17:49:48.229257 24694 net.cpp:165] Memory required for data: 1611203332
I1105 17:49:48.229262 24694 layer_factory.hpp:76] Creating layer loss2/classifier2
I1105 17:49:48.229271 24694 net.cpp:106] Creating Layer loss2/classifier2
I1105 17:49:48.229297 24694 net.cpp:454] loss2/classifier2 <- loss2/fc
I1105 17:49:48.229305 24694 net.cpp:411] loss2/classifier2 -> loss2/classifier
I1105 17:49:48.229447 24694 net.cpp:150] Setting up loss2/classifier2
I1105 17:49:48.229456 24694 net.cpp:157] Top shape: 32 2 (64)
I1105 17:49:48.229461 24694 net.cpp:165] Memory required for data: 1611203588
I1105 17:49:48.229478 24694 layer_factory.hpp:76] Creating layer loss2/loss
I1105 17:49:48.229487 24694 net.cpp:106] Creating Layer loss2/loss
I1105 17:49:48.229491 24694 net.cpp:454] loss2/loss <- loss2/classifier
I1105 17:49:48.229497 24694 net.cpp:454] loss2/loss <- label_data_1_split_1
I1105 17:49:48.229503 24694 net.cpp:411] loss2/loss -> loss2/loss1
I1105 17:49:48.229512 24694 layer_factory.hpp:76] Creating layer loss2/loss
I1105 17:49:48.229851 24694 net.cpp:150] Setting up loss2/loss
I1105 17:49:48.229862 24694 net.cpp:157] Top shape: (1)
I1105 17:49:48.229867 24694 net.cpp:160]     with loss weight 0.3
I1105 17:49:48.229882 24694 net.cpp:165] Memory required for data: 1611203592
I1105 17:49:48.229887 24694 layer_factory.hpp:76] Creating layer inception_4e/1x1
I1105 17:49:48.229898 24694 net.cpp:106] Creating Layer inception_4e/1x1
I1105 17:49:48.229914 24694 net.cpp:454] inception_4e/1x1 <- inception_4d/output_inception_4d/output_0_split_1
I1105 17:49:48.229923 24694 net.cpp:411] inception_4e/1x1 -> inception_4e/1x1
I1105 17:49:48.232542 24694 cudnn_conv_layer.cpp:194] Reallocating workspace storage: 10080
I1105 17:49:48.232600 24694 net.cpp:150] Setting up inception_4e/1x1
I1105 17:49:48.232610 24694 net.cpp:157] Top shape: 32 256 14 14 (1605632)
I1105 17:49:48.232615 24694 net.cpp:165] Memory required for data: 1617626120
I1105 17:49:48.232623 24694 layer_factory.hpp:76] Creating layer inception_4e/prelu_1x1
I1105 17:49:48.232633 24694 net.cpp:106] Creating Layer inception_4e/prelu_1x1
I1105 17:49:48.232640 24694 net.cpp:454] inception_4e/prelu_1x1 <- inception_4e/1x1
I1105 17:49:48.232647 24694 net.cpp:397] inception_4e/prelu_1x1 -> inception_4e/1x1 (in-place)
I1105 17:49:48.232800 24694 net.cpp:150] Setting up inception_4e/prelu_1x1
I1105 17:49:48.232811 24694 net.cpp:157] Top shape: 32 256 14 14 (1605632)
I1105 17:49:48.232816 24694 net.cpp:165] Memory required for data: 1624048648
I1105 17:49:48.232822 24694 layer_factory.hpp:76] Creating layer inception_4e/3x3_reduce
I1105 17:49:48.232831 24694 net.cpp:106] Creating Layer inception_4e/3x3_reduce
I1105 17:49:48.232836 24694 net.cpp:454] inception_4e/3x3_reduce <- inception_4d/output_inception_4d/output_0_split_2
I1105 17:49:48.232844 24694 net.cpp:411] inception_4e/3x3_reduce -> inception_4e/3x3_reduce
I1105 17:49:48.234439 24694 cudnn_conv_layer.cpp:194] Reallocating workspace storage: 10080
I1105 17:49:48.234468 24694 net.cpp:150] Setting up inception_4e/3x3_reduce
I1105 17:49:48.234475 24694 net.cpp:157] Top shape: 32 160 14 14 (1003520)
I1105 17:49:48.234480 24694 net.cpp:165] Memory required for data: 1628062728
I1105 17:49:48.234486 24694 layer_factory.hpp:76] Creating layer inception_4e/prelu_3x3_reduce
I1105 17:49:48.234504 24694 net.cpp:106] Creating Layer inception_4e/prelu_3x3_reduce
I1105 17:49:48.234509 24694 net.cpp:454] inception_4e/prelu_3x3_reduce <- inception_4e/3x3_reduce
I1105 17:49:48.234516 24694 net.cpp:397] inception_4e/prelu_3x3_reduce -> inception_4e/3x3_reduce (in-place)
I1105 17:49:48.234658 24694 net.cpp:150] Setting up inception_4e/prelu_3x3_reduce
I1105 17:49:48.234668 24694 net.cpp:157] Top shape: 32 160 14 14 (1003520)
I1105 17:49:48.234671 24694 net.cpp:165] Memory required for data: 1632076808
I1105 17:49:48.234678 24694 layer_factory.hpp:76] Creating layer inception_4e/3x3
I1105 17:49:48.234686 24694 net.cpp:106] Creating Layer inception_4e/3x3
I1105 17:49:48.234691 24694 net.cpp:454] inception_4e/3x3 <- inception_4e/3x3_reduce
I1105 17:49:48.234699 24694 net.cpp:411] inception_4e/3x3 -> inception_4e/3x3
I1105 17:49:48.239027 24694 cudnn_conv_layer.cpp:194] Reallocating workspace storage: 10080
I1105 17:49:48.239066 24694 net.cpp:150] Setting up inception_4e/3x3
I1105 17:49:48.239075 24694 net.cpp:157] Top shape: 32 320 14 14 (2007040)
I1105 17:49:48.239079 24694 net.cpp:165] Memory required for data: 1640104968
I1105 17:49:48.239095 24694 layer_factory.hpp:76] Creating layer inception_4e/prelu_3x3
I1105 17:49:48.239104 24694 net.cpp:106] Creating Layer inception_4e/prelu_3x3
I1105 17:49:48.239110 24694 net.cpp:454] inception_4e/prelu_3x3 <- inception_4e/3x3
I1105 17:49:48.239119 24694 net.cpp:397] inception_4e/prelu_3x3 -> inception_4e/3x3 (in-place)
I1105 17:49:48.239296 24694 net.cpp:150] Setting up inception_4e/prelu_3x3
I1105 17:49:48.239306 24694 net.cpp:157] Top shape: 32 320 14 14 (2007040)
I1105 17:49:48.239310 24694 net.cpp:165] Memory required for data: 1648133128
I1105 17:49:48.239323 24694 layer_factory.hpp:76] Creating layer inception_4e/5x5_reduce
I1105 17:49:48.239332 24694 net.cpp:106] Creating Layer inception_4e/5x5_reduce
I1105 17:49:48.239336 24694 net.cpp:454] inception_4e/5x5_reduce <- inception_4d/output_inception_4d/output_0_split_3
I1105 17:49:48.239346 24694 net.cpp:411] inception_4e/5x5_reduce -> inception_4e/5x5_reduce
I1105 17:49:48.240504 24694 cudnn_conv_layer.cpp:194] Reallocating workspace storage: 10080
I1105 17:49:48.240535 24694 net.cpp:150] Setting up inception_4e/5x5_reduce
I1105 17:49:48.240542 24694 net.cpp:157] Top shape: 32 32 14 14 (200704)
I1105 17:49:48.240547 24694 net.cpp:165] Memory required for data: 1648935944
I1105 17:49:48.240576 24694 layer_factory.hpp:76] Creating layer inception_4e/prelu_5x5_reduce
I1105 17:49:48.240584 24694 net.cpp:106] Creating Layer inception_4e/prelu_5x5_reduce
I1105 17:49:48.240589 24694 net.cpp:454] inception_4e/prelu_5x5_reduce <- inception_4e/5x5_reduce
I1105 17:49:48.240597 24694 net.cpp:397] inception_4e/prelu_5x5_reduce -> inception_4e/5x5_reduce (in-place)
I1105 17:49:48.240733 24694 net.cpp:150] Setting up inception_4e/prelu_5x5_reduce
I1105 17:49:48.240742 24694 net.cpp:157] Top shape: 32 32 14 14 (200704)
I1105 17:49:48.240746 24694 net.cpp:165] Memory required for data: 1649738760
I1105 17:49:48.240759 24694 layer_factory.hpp:76] Creating layer inception_4e/5x5
I1105 17:49:48.240780 24694 net.cpp:106] Creating Layer inception_4e/5x5
I1105 17:49:48.240793 24694 net.cpp:454] inception_4e/5x5 <- inception_4e/5x5_reduce
I1105 17:49:48.240802 24694 net.cpp:411] inception_4e/5x5 -> inception_4e/5x5
I1105 17:49:48.243006 24694 cudnn_conv_layer.cpp:194] Reallocating workspace storage: 13080
I1105 17:49:48.243034 24694 net.cpp:150] Setting up inception_4e/5x5
I1105 17:49:48.243044 24694 net.cpp:157] Top shape: 32 128 14 14 (802816)
I1105 17:49:48.243048 24694 net.cpp:165] Memory required for data: 1652950024
I1105 17:49:48.243057 24694 layer_factory.hpp:76] Creating layer inception_4e/prelu_5x5
I1105 17:49:48.243064 24694 net.cpp:106] Creating Layer inception_4e/prelu_5x5
I1105 17:49:48.243070 24694 net.cpp:454] inception_4e/prelu_5x5 <- inception_4e/5x5
I1105 17:49:48.243077 24694 net.cpp:397] inception_4e/prelu_5x5 -> inception_4e/5x5 (in-place)
I1105 17:49:48.243190 24694 net.cpp:150] Setting up inception_4e/prelu_5x5
I1105 17:49:48.243198 24694 net.cpp:157] Top shape: 32 128 14 14 (802816)
I1105 17:49:48.243203 24694 net.cpp:165] Memory required for data: 1656161288
I1105 17:49:48.243208 24694 layer_factory.hpp:76] Creating layer inception_4e/pool
I1105 17:49:48.243218 24694 net.cpp:106] Creating Layer inception_4e/pool
I1105 17:49:48.243223 24694 net.cpp:454] inception_4e/pool <- inception_4d/output_inception_4d/output_0_split_4
I1105 17:49:48.243229 24694 net.cpp:411] inception_4e/pool -> inception_4e/pool
I1105 17:49:48.243607 24694 net.cpp:150] Setting up inception_4e/pool
I1105 17:49:48.243619 24694 net.cpp:157] Top shape: 32 528 14 14 (3311616)
I1105 17:49:48.243624 24694 net.cpp:165] Memory required for data: 1669407752
I1105 17:49:48.243628 24694 layer_factory.hpp:76] Creating layer inception_4e/pool_proj
I1105 17:49:48.243638 24694 net.cpp:106] Creating Layer inception_4e/pool_proj
I1105 17:49:48.243643 24694 net.cpp:454] inception_4e/pool_proj <- inception_4e/pool
I1105 17:49:48.243650 24694 net.cpp:411] inception_4e/pool_proj -> inception_4e/pool_proj
I1105 17:49:48.244925 24694 cudnn_conv_layer.cpp:194] Reallocating workspace storage: 10080
I1105 17:49:48.244956 24694 net.cpp:150] Setting up inception_4e/pool_proj
I1105 17:49:48.244964 24694 net.cpp:157] Top shape: 32 128 14 14 (802816)
I1105 17:49:48.244969 24694 net.cpp:165] Memory required for data: 1672619016
I1105 17:49:48.244984 24694 layer_factory.hpp:76] Creating layer inception_4e/prelu_pool_proj
I1105 17:49:48.244992 24694 net.cpp:106] Creating Layer inception_4e/prelu_pool_proj
I1105 17:49:48.244997 24694 net.cpp:454] inception_4e/prelu_pool_proj <- inception_4e/pool_proj
I1105 17:49:48.245003 24694 net.cpp:397] inception_4e/prelu_pool_proj -> inception_4e/pool_proj (in-place)
I1105 17:49:48.245146 24694 net.cpp:150] Setting up inception_4e/prelu_pool_proj
I1105 17:49:48.245157 24694 net.cpp:157] Top shape: 32 128 14 14 (802816)
I1105 17:49:48.245160 24694 net.cpp:165] Memory required for data: 1675830280
I1105 17:49:48.245165 24694 layer_factory.hpp:76] Creating layer inception_4e/output
I1105 17:49:48.245172 24694 net.cpp:106] Creating Layer inception_4e/output
I1105 17:49:48.245177 24694 net.cpp:454] inception_4e/output <- inception_4e/1x1
I1105 17:49:48.245182 24694 net.cpp:454] inception_4e/output <- inception_4e/3x3
I1105 17:49:48.245188 24694 net.cpp:454] inception_4e/output <- inception_4e/5x5
I1105 17:49:48.245193 24694 net.cpp:454] inception_4e/output <- inception_4e/pool_proj
I1105 17:49:48.245218 24694 net.cpp:411] inception_4e/output -> inception_4e/output
I1105 17:49:48.245247 24694 net.cpp:150] Setting up inception_4e/output
I1105 17:49:48.245256 24694 net.cpp:157] Top shape: 32 832 14 14 (5218304)
I1105 17:49:48.245268 24694 net.cpp:165] Memory required for data: 1696703496
I1105 17:49:48.245281 24694 layer_factory.hpp:76] Creating layer pool4/3x3_s2
I1105 17:49:48.245290 24694 net.cpp:106] Creating Layer pool4/3x3_s2
I1105 17:49:48.245297 24694 net.cpp:454] pool4/3x3_s2 <- inception_4e/output
I1105 17:49:48.245306 24694 net.cpp:411] pool4/3x3_s2 -> pool4/3x3_s2
I1105 17:49:48.245705 24694 net.cpp:150] Setting up pool4/3x3_s2
I1105 17:49:48.245717 24694 net.cpp:157] Top shape: 32 832 7 7 (1304576)
I1105 17:49:48.245720 24694 net.cpp:165] Memory required for data: 1701921800
I1105 17:49:48.245725 24694 layer_factory.hpp:76] Creating layer pool4/3x3_s2_pool4/3x3_s2_0_split
I1105 17:49:48.245733 24694 net.cpp:106] Creating Layer pool4/3x3_s2_pool4/3x3_s2_0_split
I1105 17:49:48.245736 24694 net.cpp:454] pool4/3x3_s2_pool4/3x3_s2_0_split <- pool4/3x3_s2
I1105 17:49:48.245743 24694 net.cpp:411] pool4/3x3_s2_pool4/3x3_s2_0_split -> pool4/3x3_s2_pool4/3x3_s2_0_split_0
I1105 17:49:48.245750 24694 net.cpp:411] pool4/3x3_s2_pool4/3x3_s2_0_split -> pool4/3x3_s2_pool4/3x3_s2_0_split_1
I1105 17:49:48.245765 24694 net.cpp:411] pool4/3x3_s2_pool4/3x3_s2_0_split -> pool4/3x3_s2_pool4/3x3_s2_0_split_2
I1105 17:49:48.245772 24694 net.cpp:411] pool4/3x3_s2_pool4/3x3_s2_0_split -> pool4/3x3_s2_pool4/3x3_s2_0_split_3
I1105 17:49:48.245847 24694 net.cpp:150] Setting up pool4/3x3_s2_pool4/3x3_s2_0_split
I1105 17:49:48.245857 24694 net.cpp:157] Top shape: 32 832 7 7 (1304576)
I1105 17:49:48.245863 24694 net.cpp:157] Top shape: 32 832 7 7 (1304576)
I1105 17:49:48.245867 24694 net.cpp:157] Top shape: 32 832 7 7 (1304576)
I1105 17:49:48.245872 24694 net.cpp:157] Top shape: 32 832 7 7 (1304576)
I1105 17:49:48.245875 24694 net.cpp:165] Memory required for data: 1722795016
I1105 17:49:48.245879 24694 layer_factory.hpp:76] Creating layer inception_5a/1x1
I1105 17:49:48.245887 24694 net.cpp:106] Creating Layer inception_5a/1x1
I1105 17:49:48.245892 24694 net.cpp:454] inception_5a/1x1 <- pool4/3x3_s2_pool4/3x3_s2_0_split_0
I1105 17:49:48.245908 24694 net.cpp:411] inception_5a/1x1 -> inception_5a/1x1
I1105 17:49:48.248632 24694 cudnn_conv_layer.cpp:194] Reallocating workspace storage: 7428
I1105 17:49:48.248661 24694 net.cpp:150] Setting up inception_5a/1x1
I1105 17:49:48.248670 24694 net.cpp:157] Top shape: 32 256 7 7 (401408)
I1105 17:49:48.248674 24694 net.cpp:165] Memory required for data: 1724400648
I1105 17:49:48.248682 24694 layer_factory.hpp:76] Creating layer inception_5a/prelu_1x1
I1105 17:49:48.248692 24694 net.cpp:106] Creating Layer inception_5a/prelu_1x1
I1105 17:49:48.248697 24694 net.cpp:454] inception_5a/prelu_1x1 <- inception_5a/1x1
I1105 17:49:48.248703 24694 net.cpp:397] inception_5a/prelu_1x1 -> inception_5a/1x1 (in-place)
I1105 17:49:48.249284 24694 net.cpp:150] Setting up inception_5a/prelu_1x1
I1105 17:49:48.249297 24694 net.cpp:157] Top shape: 32 256 7 7 (401408)
I1105 17:49:48.249301 24694 net.cpp:165] Memory required for data: 1726006280
I1105 17:49:48.249307 24694 layer_factory.hpp:76] Creating layer inception_5a/3x3_reduce
I1105 17:49:48.249317 24694 net.cpp:106] Creating Layer inception_5a/3x3_reduce
I1105 17:49:48.249322 24694 net.cpp:454] inception_5a/3x3_reduce <- pool4/3x3_s2_pool4/3x3_s2_0_split_1
I1105 17:49:48.249330 24694 net.cpp:411] inception_5a/3x3_reduce -> inception_5a/3x3_reduce
I1105 17:49:48.251677 24694 cudnn_conv_layer.cpp:194] Reallocating workspace storage: 7428
I1105 17:49:48.251724 24694 net.cpp:150] Setting up inception_5a/3x3_reduce
I1105 17:49:48.251734 24694 net.cpp:157] Top shape: 32 160 7 7 (250880)
I1105 17:49:48.251739 24694 net.cpp:165] Memory required for data: 1727009800
I1105 17:49:48.251747 24694 layer_factory.hpp:76] Creating layer inception_5a/prelu_3x3_reduce
I1105 17:49:48.251756 24694 net.cpp:106] Creating Layer inception_5a/prelu_3x3_reduce
I1105 17:49:48.251780 24694 net.cpp:454] inception_5a/prelu_3x3_reduce <- inception_5a/3x3_reduce
I1105 17:49:48.251790 24694 net.cpp:397] inception_5a/prelu_3x3_reduce -> inception_5a/3x3_reduce (in-place)
I1105 17:49:48.251902 24694 net.cpp:150] Setting up inception_5a/prelu_3x3_reduce
I1105 17:49:48.251914 24694 net.cpp:157] Top shape: 32 160 7 7 (250880)
I1105 17:49:48.251917 24694 net.cpp:165] Memory required for data: 1728013320
I1105 17:49:48.251924 24694 layer_factory.hpp:76] Creating layer inception_5a/3x3
I1105 17:49:48.251943 24694 net.cpp:106] Creating Layer inception_5a/3x3
I1105 17:49:48.251957 24694 net.cpp:454] inception_5a/3x3 <- inception_5a/3x3_reduce
I1105 17:49:48.251966 24694 net.cpp:411] inception_5a/3x3 -> inception_5a/3x3
I1105 17:49:48.256746 24694 cudnn_conv_layer.cpp:194] Reallocating workspace storage: 7788
I1105 17:49:48.256806 24694 net.cpp:150] Setting up inception_5a/3x3
I1105 17:49:48.256819 24694 net.cpp:157] Top shape: 32 320 7 7 (501760)
I1105 17:49:48.256822 24694 net.cpp:165] Memory required for data: 1730020360
I1105 17:49:48.256844 24694 layer_factory.hpp:76] Creating layer inception_5a/prelu_3x3
I1105 17:49:48.256857 24694 net.cpp:106] Creating Layer inception_5a/prelu_3x3
I1105 17:49:48.256865 24694 net.cpp:454] inception_5a/prelu_3x3 <- inception_5a/3x3
I1105 17:49:48.256875 24694 net.cpp:397] inception_5a/prelu_3x3 -> inception_5a/3x3 (in-place)
I1105 17:49:48.257041 24694 net.cpp:150] Setting up inception_5a/prelu_3x3
I1105 17:49:48.257051 24694 net.cpp:157] Top shape: 32 320 7 7 (501760)
I1105 17:49:48.257055 24694 net.cpp:165] Memory required for data: 1732027400
I1105 17:49:48.257078 24694 layer_factory.hpp:76] Creating layer inception_5a/5x5_reduce
I1105 17:49:48.257091 24694 net.cpp:106] Creating Layer inception_5a/5x5_reduce
I1105 17:49:48.257107 24694 net.cpp:454] inception_5a/5x5_reduce <- pool4/3x3_s2_pool4/3x3_s2_0_split_2
I1105 17:49:48.257114 24694 net.cpp:411] inception_5a/5x5_reduce -> inception_5a/5x5_reduce
I1105 17:49:48.258443 24694 cudnn_conv_layer.cpp:194] Reallocating workspace storage: 7428
I1105 17:49:48.258488 24694 net.cpp:150] Setting up inception_5a/5x5_reduce
I1105 17:49:48.258497 24694 net.cpp:157] Top shape: 32 32 7 7 (50176)
I1105 17:49:48.258502 24694 net.cpp:165] Memory required for data: 1732228104
I1105 17:49:48.258520 24694 layer_factory.hpp:76] Creating layer inception_5a/prelu_5x5_reduce
I1105 17:49:48.258530 24694 net.cpp:106] Creating Layer inception_5a/prelu_5x5_reduce
I1105 17:49:48.258536 24694 net.cpp:454] inception_5a/prelu_5x5_reduce <- inception_5a/5x5_reduce
I1105 17:49:48.258544 24694 net.cpp:397] inception_5a/prelu_5x5_reduce -> inception_5a/5x5_reduce (in-place)
I1105 17:49:48.258695 24694 net.cpp:150] Setting up inception_5a/prelu_5x5_reduce
I1105 17:49:48.258704 24694 net.cpp:157] Top shape: 32 32 7 7 (50176)
I1105 17:49:48.258708 24694 net.cpp:165] Memory required for data: 1732428808
I1105 17:49:48.258724 24694 layer_factory.hpp:76] Creating layer inception_5a/5x5
I1105 17:49:48.258734 24694 net.cpp:106] Creating Layer inception_5a/5x5
I1105 17:49:48.258739 24694 net.cpp:454] inception_5a/5x5 <- inception_5a/5x5_reduce
I1105 17:49:48.258746 24694 net.cpp:411] inception_5a/5x5 -> inception_5a/5x5
I1105 17:49:48.260517 24694 cudnn_conv_layer.cpp:194] Reallocating workspace storage: 9804
I1105 17:49:48.260550 24694 net.cpp:150] Setting up inception_5a/5x5
I1105 17:49:48.260560 24694 net.cpp:157] Top shape: 32 128 7 7 (200704)
I1105 17:49:48.260563 24694 net.cpp:165] Memory required for data: 1733231624
I1105 17:49:48.260571 24694 layer_factory.hpp:76] Creating layer inception_5a/prelu_5x5
I1105 17:49:48.260581 24694 net.cpp:106] Creating Layer inception_5a/prelu_5x5
I1105 17:49:48.260587 24694 net.cpp:454] inception_5a/prelu_5x5 <- inception_5a/5x5
I1105 17:49:48.260594 24694 net.cpp:397] inception_5a/prelu_5x5 -> inception_5a/5x5 (in-place)
I1105 17:49:48.260701 24694 net.cpp:150] Setting up inception_5a/prelu_5x5
I1105 17:49:48.260711 24694 net.cpp:157] Top shape: 32 128 7 7 (200704)
I1105 17:49:48.260732 24694 net.cpp:165] Memory required for data: 1734034440
I1105 17:49:48.260738 24694 layer_factory.hpp:76] Creating layer inception_5a/pool
I1105 17:49:48.260747 24694 net.cpp:106] Creating Layer inception_5a/pool
I1105 17:49:48.260752 24694 net.cpp:454] inception_5a/pool <- pool4/3x3_s2_pool4/3x3_s2_0_split_3
I1105 17:49:48.260759 24694 net.cpp:411] inception_5a/pool -> inception_5a/pool
I1105 17:49:48.260947 24694 net.cpp:150] Setting up inception_5a/pool
I1105 17:49:48.260958 24694 net.cpp:157] Top shape: 32 832 7 7 (1304576)
I1105 17:49:48.260962 24694 net.cpp:165] Memory required for data: 1739252744
I1105 17:49:48.260967 24694 layer_factory.hpp:76] Creating layer inception_5a/pool_proj
I1105 17:49:48.260977 24694 net.cpp:106] Creating Layer inception_5a/pool_proj
I1105 17:49:48.260982 24694 net.cpp:454] inception_5a/pool_proj <- inception_5a/pool
I1105 17:49:48.260987 24694 net.cpp:411] inception_5a/pool_proj -> inception_5a/pool_proj
I1105 17:49:48.263340 24694 cudnn_conv_layer.cpp:194] Reallocating workspace storage: 7428
I1105 17:49:48.263370 24694 net.cpp:150] Setting up inception_5a/pool_proj
I1105 17:49:48.263377 24694 net.cpp:157] Top shape: 32 128 7 7 (200704)
I1105 17:49:48.263381 24694 net.cpp:165] Memory required for data: 1740055560
I1105 17:49:48.263389 24694 layer_factory.hpp:76] Creating layer inception_5a/prelu_pool_proj
I1105 17:49:48.263406 24694 net.cpp:106] Creating Layer inception_5a/prelu_pool_proj
I1105 17:49:48.263411 24694 net.cpp:454] inception_5a/prelu_pool_proj <- inception_5a/pool_proj
I1105 17:49:48.263418 24694 net.cpp:397] inception_5a/prelu_pool_proj -> inception_5a/pool_proj (in-place)
I1105 17:49:48.263541 24694 net.cpp:150] Setting up inception_5a/prelu_pool_proj
I1105 17:49:48.263551 24694 net.cpp:157] Top shape: 32 128 7 7 (200704)
I1105 17:49:48.263563 24694 net.cpp:165] Memory required for data: 1740858376
I1105 17:49:48.263569 24694 layer_factory.hpp:76] Creating layer inception_5a/output
I1105 17:49:48.263576 24694 net.cpp:106] Creating Layer inception_5a/output
I1105 17:49:48.263581 24694 net.cpp:454] inception_5a/output <- inception_5a/1x1
I1105 17:49:48.263586 24694 net.cpp:454] inception_5a/output <- inception_5a/3x3
I1105 17:49:48.263592 24694 net.cpp:454] inception_5a/output <- inception_5a/5x5
I1105 17:49:48.263597 24694 net.cpp:454] inception_5a/output <- inception_5a/pool_proj
I1105 17:49:48.263602 24694 net.cpp:411] inception_5a/output -> inception_5a/output
I1105 17:49:48.263641 24694 net.cpp:150] Setting up inception_5a/output
I1105 17:49:48.263650 24694 net.cpp:157] Top shape: 32 832 7 7 (1304576)
I1105 17:49:48.263671 24694 net.cpp:165] Memory required for data: 1746076680
I1105 17:49:48.263684 24694 layer_factory.hpp:76] Creating layer inception_5a/output_inception_5a/output_0_split
I1105 17:49:48.263691 24694 net.cpp:106] Creating Layer inception_5a/output_inception_5a/output_0_split
I1105 17:49:48.263696 24694 net.cpp:454] inception_5a/output_inception_5a/output_0_split <- inception_5a/output
I1105 17:49:48.263702 24694 net.cpp:411] inception_5a/output_inception_5a/output_0_split -> inception_5a/output_inception_5a/output_0_split_0
I1105 17:49:48.263725 24694 net.cpp:411] inception_5a/output_inception_5a/output_0_split -> inception_5a/output_inception_5a/output_0_split_1
I1105 17:49:48.263732 24694 net.cpp:411] inception_5a/output_inception_5a/output_0_split -> inception_5a/output_inception_5a/output_0_split_2
I1105 17:49:48.263739 24694 net.cpp:411] inception_5a/output_inception_5a/output_0_split -> inception_5a/output_inception_5a/output_0_split_3
I1105 17:49:48.263819 24694 net.cpp:150] Setting up inception_5a/output_inception_5a/output_0_split
I1105 17:49:48.263828 24694 net.cpp:157] Top shape: 32 832 7 7 (1304576)
I1105 17:49:48.263834 24694 net.cpp:157] Top shape: 32 832 7 7 (1304576)
I1105 17:49:48.263839 24694 net.cpp:157] Top shape: 32 832 7 7 (1304576)
I1105 17:49:48.263844 24694 net.cpp:157] Top shape: 32 832 7 7 (1304576)
I1105 17:49:48.263847 24694 net.cpp:165] Memory required for data: 1766949896
I1105 17:49:48.263860 24694 layer_factory.hpp:76] Creating layer inception_5b/1x1
I1105 17:49:48.263878 24694 net.cpp:106] Creating Layer inception_5b/1x1
I1105 17:49:48.263883 24694 net.cpp:454] inception_5b/1x1 <- inception_5a/output_inception_5a/output_0_split_0
I1105 17:49:48.263890 24694 net.cpp:411] inception_5b/1x1 -> inception_5b/1x1
I1105 17:49:48.267343 24694 cudnn_conv_layer.cpp:194] Reallocating workspace storage: 7428
I1105 17:49:48.267374 24694 net.cpp:150] Setting up inception_5b/1x1
I1105 17:49:48.267384 24694 net.cpp:157] Top shape: 32 384 7 7 (602112)
I1105 17:49:48.267387 24694 net.cpp:165] Memory required for data: 1769358344
I1105 17:49:48.267395 24694 layer_factory.hpp:76] Creating layer inception_5b/prelu_1x1
I1105 17:49:48.267402 24694 net.cpp:106] Creating Layer inception_5b/prelu_1x1
I1105 17:49:48.267407 24694 net.cpp:454] inception_5b/prelu_1x1 <- inception_5b/1x1
I1105 17:49:48.267415 24694 net.cpp:397] inception_5b/prelu_1x1 -> inception_5b/1x1 (in-place)
I1105 17:49:48.268018 24694 net.cpp:150] Setting up inception_5b/prelu_1x1
I1105 17:49:48.268030 24694 net.cpp:157] Top shape: 32 384 7 7 (602112)
I1105 17:49:48.268035 24694 net.cpp:165] Memory required for data: 1771766792
I1105 17:49:48.268041 24694 layer_factory.hpp:76] Creating layer inception_5b/3x3_reduce
I1105 17:49:48.268051 24694 net.cpp:106] Creating Layer inception_5b/3x3_reduce
I1105 17:49:48.268056 24694 net.cpp:454] inception_5b/3x3_reduce <- inception_5a/output_inception_5a/output_0_split_1
I1105 17:49:48.268065 24694 net.cpp:411] inception_5b/3x3_reduce -> inception_5b/3x3_reduce
I1105 17:49:48.270504 24694 cudnn_conv_layer.cpp:194] Reallocating workspace storage: 7428
I1105 17:49:48.270536 24694 net.cpp:150] Setting up inception_5b/3x3_reduce
I1105 17:49:48.270545 24694 net.cpp:157] Top shape: 32 192 7 7 (301056)
I1105 17:49:48.270548 24694 net.cpp:165] Memory required for data: 1772971016
I1105 17:49:48.270555 24694 layer_factory.hpp:76] Creating layer inception_5b/prelu_3x3_reduce
I1105 17:49:48.270573 24694 net.cpp:106] Creating Layer inception_5b/prelu_3x3_reduce
I1105 17:49:48.270578 24694 net.cpp:454] inception_5b/prelu_3x3_reduce <- inception_5b/3x3_reduce
I1105 17:49:48.270586 24694 net.cpp:397] inception_5b/prelu_3x3_reduce -> inception_5b/3x3_reduce (in-place)
I1105 17:49:48.270717 24694 net.cpp:150] Setting up inception_5b/prelu_3x3_reduce
I1105 17:49:48.270727 24694 net.cpp:157] Top shape: 32 192 7 7 (301056)
I1105 17:49:48.270731 24694 net.cpp:165] Memory required for data: 1774175240
I1105 17:49:48.270736 24694 layer_factory.hpp:76] Creating layer inception_5b/3x3
I1105 17:49:48.270746 24694 net.cpp:106] Creating Layer inception_5b/3x3
I1105 17:49:48.270750 24694 net.cpp:454] inception_5b/3x3 <- inception_5b/3x3_reduce
I1105 17:49:48.270758 24694 net.cpp:411] inception_5b/3x3 -> inception_5b/3x3
I1105 17:49:48.276391 24694 cudnn_conv_layer.cpp:194] Reallocating workspace storage: 7788
I1105 17:49:48.276432 24694 net.cpp:150] Setting up inception_5b/3x3
I1105 17:49:48.276444 24694 net.cpp:157] Top shape: 32 384 7 7 (602112)
I1105 17:49:48.276449 24694 net.cpp:165] Memory required for data: 1776583688
I1105 17:49:48.276464 24694 layer_factory.hpp:76] Creating layer inception_5b/prelu_3x3
I1105 17:49:48.276474 24694 net.cpp:106] Creating Layer inception_5b/prelu_3x3
I1105 17:49:48.276480 24694 net.cpp:454] inception_5b/prelu_3x3 <- inception_5b/3x3
I1105 17:49:48.276486 24694 net.cpp:397] inception_5b/prelu_3x3 -> inception_5b/3x3 (in-place)
I1105 17:49:48.276630 24694 net.cpp:150] Setting up inception_5b/prelu_3x3
I1105 17:49:48.276639 24694 net.cpp:157] Top shape: 32 384 7 7 (602112)
I1105 17:49:48.276643 24694 net.cpp:165] Memory required for data: 1778992136
I1105 17:49:48.276656 24694 layer_factory.hpp:76] Creating layer inception_5b/5x5_reduce
I1105 17:49:48.276666 24694 net.cpp:106] Creating Layer inception_5b/5x5_reduce
I1105 17:49:48.276671 24694 net.cpp:454] inception_5b/5x5_reduce <- inception_5a/output_inception_5a/output_0_split_2
I1105 17:49:48.276679 24694 net.cpp:411] inception_5b/5x5_reduce -> inception_5b/5x5_reduce
I1105 17:49:48.277904 24694 cudnn_conv_layer.cpp:194] Reallocating workspace storage: 7428
I1105 17:49:48.277941 24694 net.cpp:150] Setting up inception_5b/5x5_reduce
I1105 17:49:48.277950 24694 net.cpp:157] Top shape: 32 48 7 7 (75264)
I1105 17:49:48.277954 24694 net.cpp:165] Memory required for data: 1779293192
I1105 17:49:48.277969 24694 layer_factory.hpp:76] Creating layer inception_5b/prelu_5x5_reduce
I1105 17:49:48.277979 24694 net.cpp:106] Creating Layer inception_5b/prelu_5x5_reduce
I1105 17:49:48.277984 24694 net.cpp:454] inception_5b/prelu_5x5_reduce <- inception_5b/5x5_reduce
I1105 17:49:48.277992 24694 net.cpp:397] inception_5b/prelu_5x5_reduce -> inception_5b/5x5_reduce (in-place)
I1105 17:49:48.278116 24694 net.cpp:150] Setting up inception_5b/prelu_5x5_reduce
I1105 17:49:48.278126 24694 net.cpp:157] Top shape: 32 48 7 7 (75264)
I1105 17:49:48.278129 24694 net.cpp:165] Memory required for data: 1779594248
I1105 17:49:48.278134 24694 layer_factory.hpp:76] Creating layer inception_5b/5x5
I1105 17:49:48.278143 24694 net.cpp:106] Creating Layer inception_5b/5x5
I1105 17:49:48.278148 24694 net.cpp:454] inception_5b/5x5 <- inception_5b/5x5_reduce
I1105 17:49:48.278157 24694 net.cpp:411] inception_5b/5x5 -> inception_5b/5x5
I1105 17:49:48.280136 24694 cudnn_conv_layer.cpp:194] Reallocating workspace storage: 9804
I1105 17:49:48.280165 24694 net.cpp:150] Setting up inception_5b/5x5
I1105 17:49:48.280172 24694 net.cpp:157] Top shape: 32 128 7 7 (200704)
I1105 17:49:48.280176 24694 net.cpp:165] Memory required for data: 1780397064
I1105 17:49:48.280184 24694 layer_factory.hpp:76] Creating layer inception_5b/prelu_5x5
I1105 17:49:48.280200 24694 net.cpp:106] Creating Layer inception_5b/prelu_5x5
I1105 17:49:48.280206 24694 net.cpp:454] inception_5b/prelu_5x5 <- inception_5b/5x5
I1105 17:49:48.280212 24694 net.cpp:397] inception_5b/prelu_5x5 -> inception_5b/5x5 (in-place)
I1105 17:49:48.280349 24694 net.cpp:150] Setting up inception_5b/prelu_5x5
I1105 17:49:48.280357 24694 net.cpp:157] Top shape: 32 128 7 7 (200704)
I1105 17:49:48.280361 24694 net.cpp:165] Memory required for data: 1781199880
I1105 17:49:48.280366 24694 layer_factory.hpp:76] Creating layer inception_5b/pool
I1105 17:49:48.280375 24694 net.cpp:106] Creating Layer inception_5b/pool
I1105 17:49:48.280380 24694 net.cpp:454] inception_5b/pool <- inception_5a/output_inception_5a/output_0_split_3
I1105 17:49:48.280387 24694 net.cpp:411] inception_5b/pool -> inception_5b/pool
I1105 17:49:48.280783 24694 net.cpp:150] Setting up inception_5b/pool
I1105 17:49:48.280802 24694 net.cpp:157] Top shape: 32 832 7 7 (1304576)
I1105 17:49:48.280807 24694 net.cpp:165] Memory required for data: 1786418184
I1105 17:49:48.280820 24694 layer_factory.hpp:76] Creating layer inception_5b/pool_proj
I1105 17:49:48.280833 24694 net.cpp:106] Creating Layer inception_5b/pool_proj
I1105 17:49:48.280848 24694 net.cpp:454] inception_5b/pool_proj <- inception_5b/pool
I1105 17:49:48.280864 24694 net.cpp:411] inception_5b/pool_proj -> inception_5b/pool_proj
I1105 17:49:48.283380 24694 cudnn_conv_layer.cpp:194] Reallocating workspace storage: 7428
I1105 17:49:48.283437 24694 net.cpp:150] Setting up inception_5b/pool_proj
I1105 17:49:48.283448 24694 net.cpp:157] Top shape: 32 128 7 7 (200704)
I1105 17:49:48.283452 24694 net.cpp:165] Memory required for data: 1787221000
I1105 17:49:48.283462 24694 layer_factory.hpp:76] Creating layer inception_5b/prelu_pool_proj
I1105 17:49:48.283473 24694 net.cpp:106] Creating Layer inception_5b/prelu_pool_proj
I1105 17:49:48.283481 24694 net.cpp:454] inception_5b/prelu_pool_proj <- inception_5b/pool_proj
I1105 17:49:48.283490 24694 net.cpp:397] inception_5b/prelu_pool_proj -> inception_5b/pool_proj (in-place)
I1105 17:49:48.283619 24694 net.cpp:150] Setting up inception_5b/prelu_pool_proj
I1105 17:49:48.283632 24694 net.cpp:157] Top shape: 32 128 7 7 (200704)
I1105 17:49:48.283637 24694 net.cpp:165] Memory required for data: 1788023816
I1105 17:49:48.283643 24694 layer_factory.hpp:76] Creating layer inception_5b/output
I1105 17:49:48.283649 24694 net.cpp:106] Creating Layer inception_5b/output
I1105 17:49:48.283668 24694 net.cpp:454] inception_5b/output <- inception_5b/1x1
I1105 17:49:48.283674 24694 net.cpp:454] inception_5b/output <- inception_5b/3x3
I1105 17:49:48.283679 24694 net.cpp:454] inception_5b/output <- inception_5b/5x5
I1105 17:49:48.283684 24694 net.cpp:454] inception_5b/output <- inception_5b/pool_proj
I1105 17:49:48.283689 24694 net.cpp:411] inception_5b/output -> inception_5b/output
I1105 17:49:48.283743 24694 net.cpp:150] Setting up inception_5b/output
I1105 17:49:48.283752 24694 net.cpp:157] Top shape: 32 1024 7 7 (1605632)
I1105 17:49:48.283756 24694 net.cpp:165] Memory required for data: 1794446344
I1105 17:49:48.283761 24694 layer_factory.hpp:76] Creating layer pool5/7x7_s1
I1105 17:49:48.283771 24694 net.cpp:106] Creating Layer pool5/7x7_s1
I1105 17:49:48.283776 24694 net.cpp:454] pool5/7x7_s1 <- inception_5b/output
I1105 17:49:48.283793 24694 net.cpp:411] pool5/7x7_s1 -> pool5/7x7_s1
I1105 17:49:48.283984 24694 net.cpp:150] Setting up pool5/7x7_s1
I1105 17:49:48.283994 24694 net.cpp:157] Top shape: 32 1024 1 1 (32768)
I1105 17:49:48.283998 24694 net.cpp:165] Memory required for data: 1794577416
I1105 17:49:48.284003 24694 layer_factory.hpp:76] Creating layer pool5/drop_7x7_s1
I1105 17:49:48.284010 24694 net.cpp:106] Creating Layer pool5/drop_7x7_s1
I1105 17:49:48.284015 24694 net.cpp:454] pool5/drop_7x7_s1 <- pool5/7x7_s1
I1105 17:49:48.284020 24694 net.cpp:397] pool5/drop_7x7_s1 -> pool5/7x7_s1 (in-place)
I1105 17:49:48.284051 24694 net.cpp:150] Setting up pool5/drop_7x7_s1
I1105 17:49:48.284061 24694 net.cpp:157] Top shape: 32 1024 1 1 (32768)
I1105 17:49:48.284065 24694 net.cpp:165] Memory required for data: 1794708488
I1105 17:49:48.284070 24694 layer_factory.hpp:76] Creating layer loss3/classifier2
I1105 17:49:48.284077 24694 net.cpp:106] Creating Layer loss3/classifier2
I1105 17:49:48.284082 24694 net.cpp:454] loss3/classifier2 <- pool5/7x7_s1
I1105 17:49:48.284088 24694 net.cpp:411] loss3/classifier2 -> loss3/classifier
I1105 17:49:48.284251 24694 net.cpp:150] Setting up loss3/classifier2
I1105 17:49:48.284260 24694 net.cpp:157] Top shape: 32 2 (64)
I1105 17:49:48.284265 24694 net.cpp:165] Memory required for data: 1794708744
I1105 17:49:48.284272 24694 layer_factory.hpp:76] Creating layer loss3/loss3
I1105 17:49:48.284281 24694 net.cpp:106] Creating Layer loss3/loss3
I1105 17:49:48.284286 24694 net.cpp:454] loss3/loss3 <- loss3/classifier
I1105 17:49:48.284291 24694 net.cpp:454] loss3/loss3 <- label_data_1_split_2
I1105 17:49:48.284296 24694 net.cpp:411] loss3/loss3 -> loss3/loss3
…
I1105 17:49:48.289657 24694 net.cpp:322] The NetState phase (1) differed from the phase (0) specified by a rule in layer data
I1105 17:49:48.290699 24694 net.cpp:49] Initializing net from parameters: 
name: "GoogleNet"
state {
  phase: TEST
}
layer {
  name: "data"
  type: "Data"
  top: "data"
  top: "label"
  include {
    phase: TEST
  }
  transform_param {
    mirror: false
    crop_size: 224
    mean_value: 104
    mean_value: 117
    mean_value: 123
  }
  data_param {
    source: "../../LMDB/val_8-lmdb"
    batch_size: 50
    backend: LMDB
  }
}
layer {
  name: "conv1/7x7_s2"
  type: "Convolution"
  bottom: "data"
  top: "conv1/7x7_s2"
  param {
    lr_mult: 1
    decay_mult: 1
  }
  param {
    lr_mult: 2
    decay_mult: 0
  }
  convolution_param {
    num_output: 64
    pad: 3
    kernel_size: 7
    stride: 2
    weight_filler {
      type: "xavier"
    }
    bias_filler {
      type: "constant"
      value: 0.2
    }
  }
}
layer {
  name: "conv1/prelu_7x7"
  type: "PReLU"
  bottom: "conv1/7x7_s2"
  top: "conv1/7x7_s2"
  param {
    lr_mult: 1
    decay_mult: 0
  }
  prelu_param {
    filler {
      type: "constant"
      value: 0.01
    }
  }
}
layer {
  name: "pool1/3x3_s2"
  type: "Pooling"
  bottom: "conv1/7x7_s2"
  top: "pool1/3x3_s2"
  pooling_param {
    pool: MAX
    kernel_size: 3
    stride: 2
  }
}
layer {
  name: "pool1/norm1"
  type: "LRN"
  bottom: "pool1/3x3_s2"
  top: "pool1/norm1"
  lrn_param {
    local_size: 5
    alpha: 0.0001
    beta: 0.75
  }
}
layer {
  name: "conv2/3x3_reduce"
  type: "Convolution"
  bottom: "pool1/norm1"
  top: "conv2/3x3_reduce"
  param {
    lr_mult: 1
    decay_mult: 1
  }
  param {
    lr_mult: 2
    decay_mult: 0
  }
  convolution_param {
    num_output: 64
    kernel_size: 1
    weight_filler {
      type: "xavier"
    }
    bias_filler {
      type: "constant"
      value: 0.2
    }
  }
}
layer {
  name: "conv2/prelu_3x3_reduce"
  type: "PReLU"
  bottom: "conv2/3x3_reduce"
  top: "conv2/3x3_reduce"
  param {
    lr_mult: 1
    decay_mult: 0
  }
  prelu_param {
    filler {
      type: "constant"
      value: 0.01
    }
  }
}
layer {
  name: "conv2/3x3"
  type: "Convolution"
  bottom: "conv2/3x3_reduce"
  top: "conv2/3x3"
  param {
    lr_mult: 1
    decay_mult: 1
  }
  param {
    lr_mult: 2
    decay_mult: 0
  }
  convolution_param {
    num_output: 192
    pad: 1
    kernel_size: 3
    weight_filler {
      type: "xavier"
    }
    bias_filler {
      type: "constant"
      value: 0.2
    }
  }
}
layer {
  name: "conv2/prelu_3x3"
  type: "PReLU"
  bottom: "conv2/3x3"
  top: "conv2/3x3"
  param {
    lr_mult: 1
    decay_mult: 0
  }
  prelu_param {
    filler {
      type: "constant"
      value: 0.01
    }
  }
}
layer {
  name: "conv2/norm2"
  type: "LRN"
  bottom: "conv2/3x3"
  top: "conv2/norm2"
  lrn_param {
    local_size: 5
    alpha: 0.0001
    beta: 0.75
  }
}
layer {
  name: "pool2/3x3_s2"
  type: "Pooling"
  bottom: "conv2/norm2"
  top: "pool2/3x3_s2"
  pooling_param {
    pool: MAX
    kernel_size: 3
    stride: 2
  }
}
layer {
  name: "inception_3a/1x1"
  type: "Convolution"
  bottom: "pool2/3x3_s2"
  top: "inception_3a/1x1"
  param {
    lr_mult: 1
    decay_mult: 1
  }
  param {
    lr_mult: 2
    decay_mult: 0
  }
  convolution_param {
    num_output: 64
    kernel_size: 1
    weight_filler {
      type: "xavier"
    }
    bias_filler {
      type: "constant"
      value: 0.2
    }
  }
}
layer {
  name: "inception_3a/prelu_1x1"
  type: "PReLU"
  bottom: "inception_3a/1x1"
  top: "inception_3a/1x1"
  param {
    lr_mult: 1
    decay_mult: 0
  }
  prelu_param {
    filler {
      type: "constant"
      value: 0.01
    }
  }
}
layer {
  name: "inception_3a/3x3_reduce"
  type: "Convolution"
  bottom: "pool2/3x3_s2"
  top: "inception_3a/3x3_reduce"
  param {
    lr_mult: 1
    decay_mult: 1
  }
  param {
    lr_mult: 2
    decay_mult: 0
  }
  convolution_param {
    num_output: 96
    kernel_size: 1
    weight_filler {
      type: "xavier"
    }
    bias_filler {
      type: "constant"
      value: 0.2
    }
  }
}
layer {
  name: "inception_3a/prelu_3x3_reduce"
  type: "PReLU"
  bottom: "inception_3a/3x3_reduce"
  top: "inception_3a/3x3_reduce"
  param {
    lr_mult: 1
    decay_mult: 0
  }
  prelu_param {
    filler {
      type: "constant"
      value: 0.01
    }
  }
}
layer {
  name: "inception_3a/3x3"
  type: "Convolution"
  bottom: "inception_3a/3x3_reduce"
  top: "inception_3a/3x3"
  param {
    lr_mult: 1
    decay_mult: 1
  }
  param {
    lr_mult: 2
    decay_mult: 0
  }
  convolution_param {
    num_output: 128
    pad: 1
    kernel_size: 3
    weight_filler {
      type: "xavier"
    }
    bias_filler {
      type: "constant"
      value: 0.2
    }
  }
}
layer {
  name: "inception_3a/prelu_3x3"
  type: "PReLU"
  bottom: "inception_3a/3x3"
  top: "inception_3a/3x3"
  param {
    lr_mult: 1
    decay_mult: 0
  }
  prelu_param {
    filler {
      type: "constant"
      value: 0.01
    }
  }
}
layer {
  name: "inception_3a/5x5_reduce"
  type: "Convolution"
  bottom: "pool2/3x3_s2"
  top: "inception_3a/5x5_reduce"
  param {
    lr_mult: 1
    decay_mult: 1
  }
  param {
    lr_mult: 2
    decay_mult: 0
  }
  convolution_param {
    num_output: 16
    kernel_size: 1
    weight_filler {
      type: "xavier"
    }
    bias_filler {
      type: "constant"
      value: 0.2
    }
  }
}
layer {
  name: "inception_3a/prelu_5x5_reduce"
  type: "PReLU"
  bottom: "inception_3a/5x5_reduce"
  top: "inception_3a/5x5_reduce"
  param {
    lr_mult: 1
    decay_mult: 0
  }
  prelu_param {
    filler {
      type: "constant"
      value: 0.01
    }
  }
}
layer {
  name: "inception_3a/5x5"
  type: "Convolution"
  bottom: "inception_3a/5x5_reduce"
  top: "inception_3a/5x5"
  param {
    lr_mult: 1
    decay_mult: 1
  }
  param {
    lr_mult: 2
    decay_mult: 0
  }
  convolution_param {
    num_output: 32
    pad: 2
    kernel_size: 5
    weight_filler {
      type: "xavier"
    }
    bias_filler {
      type: "constant"
      value: 0.2
    }
  }
}
layer {
  name: "inception_3a/prelu_5x5"
  type: "PReLU"
  bottom: "inception_3a/5x5"
  top: "inception_3a/5x5"
  param {
    lr_mult: 1
    decay_mult: 0
  }
  prelu_param {
    filler {
      type: "constant"
      value: 0.01
    }
  }
}
layer {
  name: "inception_3a/pool"
  type: "Pooling"
  bottom: "pool2/3x3_s2"
  top: "inception_3a/pool"
  pooling_param {
    pool: MAX
    kernel_size: 3
    stride: 1
    pad: 1
  }
}
layer {
  name: "inception_3a/pool_proj"
  type: "Convolution"
  bottom: "inception_3a/pool"
  top: "inception_3a/pool_proj"
  param {
    lr_mult: 1
    decay_mult: 1
  }
  param {
    lr_mult: 2
    decay_mult: 0
  }
  convolution_param {
    num_output: 32
    kernel_size: 1
    weight_filler {
      type: "xavier"
    }
    bias_filler {
      type: "constant"
      value: 0.2
    }
  }
}
layer {
  name: "inception_3a/prelu_pool_proj"
  type: "PReLU"
  bottom: "inception_3a/pool_proj"
  top: "inception_3a/pool_proj"
  param {
    lr_mult: 1
    decay_mult: 0
  }
  prelu_param {
    filler {
      type: "constant"
      value: 0.01
    }
  }
}
layer {
  name: "inception_3a/output"
  type: "Concat"
  bottom: "inception_3a/1x1"
  bottom: "inception_3a/3x3"
  bottom: "inception_3a/5x5"
  bottom: "inception_3a/pool_proj"
  top: "inception_3a/output"
}
layer {
  name: "inception_3b/1x1"
  type: "Convolution"
  bottom: "inception_3a/output"
  top: "inception_3b/1x1"
  param {
    lr_mult: 1
    decay_mult: 1
  }
  param {
    lr_mult: 2
    decay_mult: 0
  }
  convolution_param {
    num_output: 128
    kernel_size: 1
    weight_filler {
      type: "xavier"
    }
    bias_filler {
      type: "constant"
      value: 0.2
    }
  }
}
layer {
  name: "inception_3b/prelu_1x1"
  type: "PReLU"
  bottom: "inception_3b/1x1"
  top: "inception_3b/1x1"
  param {
    lr_mult: 1
    decay_mult: 0
  }
  prelu_param {
    filler {
      type: "constant"
      value: 0.01
    }
  }
}
layer {
  name: "inception_3b/3x3_reduce"
  type: "Convolution"
  bottom: "inception_3a/output"
  top: "inception_3b/3x3_reduce"
  param {
    lr_mult: 1
    decay_mult: 1
  }
  param {
    lr_mult: 2
    decay_mult: 0
  }
  convolution_param {
    num_output: 128
    kernel_size: 1
    weight_filler {
      type: "xavier"
    }
    bias_filler {
      type: "constant"
      value: 0.2
    }
  }
}
layer {
  name: "inception_3b/prelu_3x3_reduce"
  type: "PReLU"
  bottom: "inception_3b/3x3_reduce"
  top: "inception_3b/3x3_reduce"
  param {
    lr_mult: 1
    decay_mult: 0
  }
  prelu_param {
    filler {
      type: "constant"
      value: 0.01
    }
  }
}
layer {
  name: "inception_3b/3x3"
  type: "Convolution"
  bottom: "inception_3b/3x3_reduce"
  top: "inception_3b/3x3"
  param {
    lr_mult: 1
    decay_mult: 1
  }
  param {
    lr_mult: 2
    decay_mult: 0
  }
  convolution_param {
    num_output: 192
    pad: 1
    kernel_size: 3
    weight_filler {
      type: "xavier"
    }
…
I1105 17:49:48.572511 24694 net.cpp:106] Creating Layer inception_4c/output
I1105 17:49:48.572516 24694 net.cpp:454] inception_4c/output <- inception_4c/1x1
I1105 17:49:48.572521 24694 net.cpp:454] inception_4c/output <- inception_4c/3x3
I1105 17:49:48.572527 24694 net.cpp:454] inception_4c/output <- inception_4c/5x5
I1105 17:49:48.572532 24694 net.cpp:454] inception_4c/output <- inception_4c/pool_proj
I1105 17:49:48.572540 24694 net.cpp:411] inception_4c/output -> inception_4c/output
I1105 17:49:48.572562 24694 net.cpp:150] Setting up inception_4c/output
I1105 17:49:48.572572 24694 net.cpp:157] Top shape: 50 512 14 14 (5017600)
I1105 17:49:48.572578 24694 net.cpp:165] Memory required for data: 2234652208
I1105 17:49:48.572582 24694 layer_factory.hpp:76] Creating layer inception_4c/output_inception_4c/output_0_split
I1105 17:49:48.572590 24694 net.cpp:106] Creating Layer inception_4c/output_inception_4c/output_0_split
I1105 17:49:48.572594 24694 net.cpp:454] inception_4c/output_inception_4c/output_0_split <- inception_4c/output
I1105 17:49:48.572602 24694 net.cpp:411] inception_4c/output_inception_4c/output_0_split -> inception_4c/output_inception_4c/output_0_split_0
I1105 17:49:48.572609 24694 net.cpp:411] inception_4c/output_inception_4c/output_0_split -> inception_4c/output_inception_4c/output_0_split_1
I1105 17:49:48.572618 24694 net.cpp:411] inception_4c/output_inception_4c/output_0_split -> inception_4c/output_inception_4c/output_0_split_2
I1105 17:49:48.572625 24694 net.cpp:411] inception_4c/output_inception_4c/output_0_split -> inception_4c/output_inception_4c/output_0_split_3
I1105 17:49:48.572688 24694 net.cpp:150] Setting up inception_4c/output_inception_4c/output_0_split
I1105 17:49:48.572697 24694 net.cpp:157] Top shape: 50 512 14 14 (5017600)
I1105 17:49:48.572703 24694 net.cpp:157] Top shape: 50 512 14 14 (5017600)
I1105 17:49:48.572708 24694 net.cpp:157] Top shape: 50 512 14 14 (5017600)
I1105 17:49:48.572712 24694 net.cpp:157] Top shape: 50 512 14 14 (5017600)
I1105 17:49:48.572716 24694 net.cpp:165] Memory required for data: 2314933808
I1105 17:49:48.572721 24694 layer_factory.hpp:76] Creating layer inception_4d/1x1
I1105 17:49:48.572732 24694 net.cpp:106] Creating Layer inception_4d/1x1
I1105 17:49:48.572739 24694 net.cpp:454] inception_4d/1x1 <- inception_4c/output_inception_4c/output_0_split_0
I1105 17:49:48.572746 24694 net.cpp:411] inception_4d/1x1 -> inception_4d/1x1
I1105 17:49:48.574298 24694 cudnn_conv_layer.cpp:194] Reallocating workspace storage: 10080
I1105 17:49:48.574342 24694 net.cpp:150] Setting up inception_4d/1x1
I1105 17:49:48.574352 24694 net.cpp:157] Top shape: 50 112 14 14 (1097600)
I1105 17:49:48.574357 24694 net.cpp:165] Memory required for data: 2319324208
I1105 17:49:48.574364 24694 layer_factory.hpp:76] Creating layer inception_4d/prelu_1x1
I1105 17:49:48.574376 24694 net.cpp:106] Creating Layer inception_4d/prelu_1x1
I1105 17:49:48.574383 24694 net.cpp:454] inception_4d/prelu_1x1 <- inception_4d/1x1
I1105 17:49:48.574390 24694 net.cpp:397] inception_4d/prelu_1x1 -> inception_4d/1x1 (in-place)
I1105 17:49:48.574491 24694 net.cpp:150] Setting up inception_4d/prelu_1x1
I1105 17:49:48.574501 24694 net.cpp:157] Top shape: 50 112 14 14 (1097600)
I1105 17:49:48.574504 24694 net.cpp:165] Memory required for data: 2323714608
I1105 17:49:48.574511 24694 layer_factory.hpp:76] Creating layer inception_4d/3x3_reduce
I1105 17:49:48.574522 24694 net.cpp:106] Creating Layer inception_4d/3x3_reduce
I1105 17:49:48.574529 24694 net.cpp:454] inception_4d/3x3_reduce <- inception_4c/output_inception_4c/output_0_split_1
I1105 17:49:48.574537 24694 net.cpp:411] inception_4d/3x3_reduce -> inception_4d/3x3_reduce
I1105 17:49:48.576154 24694 cudnn_conv_layer.cpp:194] Reallocating workspace storage: 10080
I1105 17:49:48.576195 24694 net.cpp:150] Setting up inception_4d/3x3_reduce
I1105 17:49:48.576205 24694 net.cpp:157] Top shape: 50 144 14 14 (1411200)
I1105 17:49:48.576210 24694 net.cpp:165] Memory required for data: 2329359408
I1105 17:49:48.576218 24694 layer_factory.hpp:76] Creating layer inception_4d/prelu_3x3_reduce
I1105 17:49:48.576227 24694 net.cpp:106] Creating Layer inception_4d/prelu_3x3_reduce
I1105 17:49:48.576234 24694 net.cpp:454] inception_4d/prelu_3x3_reduce <- inception_4d/3x3_reduce
I1105 17:49:48.576243 24694 net.cpp:397] inception_4d/prelu_3x3_reduce -> inception_4d/3x3_reduce (in-place)
I1105 17:49:48.576383 24694 net.cpp:150] Setting up inception_4d/prelu_3x3_reduce
I1105 17:49:48.576395 24694 net.cpp:157] Top shape: 50 144 14 14 (1411200)
I1105 17:49:48.576400 24694 net.cpp:165] Memory required for data: 2335004208
I1105 17:49:48.576405 24694 layer_factory.hpp:76] Creating layer inception_4d/3x3
I1105 17:49:48.576416 24694 net.cpp:106] Creating Layer inception_4d/3x3
I1105 17:49:48.576422 24694 net.cpp:454] inception_4d/3x3 <- inception_4d/3x3_reduce
I1105 17:49:48.576431 24694 net.cpp:411] inception_4d/3x3 -> inception_4d/3x3
I1105 17:49:48.580605 24694 cudnn_conv_layer.cpp:194] Reallocating workspace storage: 10080
I1105 17:49:48.580665 24694 net.cpp:150] Setting up inception_4d/3x3
I1105 17:49:48.580678 24694 net.cpp:157] Top shape: 50 288 14 14 (2822400)
I1105 17:49:48.580683 24694 net.cpp:165] Memory required for data: 2346293808
I1105 17:49:48.580693 24694 layer_factory.hpp:76] Creating layer inception_4d/prelu_3x3
I1105 17:49:48.580705 24694 net.cpp:106] Creating Layer inception_4d/prelu_3x3
I1105 17:49:48.580713 24694 net.cpp:454] inception_4d/prelu_3x3 <- inception_4d/3x3
I1105 17:49:48.580724 24694 net.cpp:397] inception_4d/prelu_3x3 -> inception_4d/3x3 (in-place)
I1105 17:49:48.581394 24694 net.cpp:150] Setting up inception_4d/prelu_3x3
I1105 17:49:48.581406 24694 net.cpp:157] Top shape: 50 288 14 14 (2822400)
I1105 17:49:48.581411 24694 net.cpp:165] Memory required for data: 2357583408
I1105 17:49:48.581425 24694 layer_factory.hpp:76] Creating layer inception_4d/5x5_reduce
I1105 17:49:48.581439 24694 net.cpp:106] Creating Layer inception_4d/5x5_reduce
I1105 17:49:48.581446 24694 net.cpp:454] inception_4d/5x5_reduce <- inception_4c/output_inception_4c/output_0_split_2
I1105 17:49:48.581454 24694 net.cpp:411] inception_4d/5x5_reduce -> inception_4d/5x5_reduce
I1105 17:49:48.583164 24694 cudnn_conv_layer.cpp:194] Reallocating workspace storage: 10080
I1105 17:49:48.583207 24694 net.cpp:150] Setting up inception_4d/5x5_reduce
I1105 17:49:48.583217 24694 net.cpp:157] Top shape: 50 32 14 14 (313600)
I1105 17:49:48.583222 24694 net.cpp:165] Memory required for data: 2358837808
I1105 17:49:48.583230 24694 layer_factory.hpp:76] Creating layer inception_4d/prelu_5x5_reduce
I1105 17:49:48.583238 24694 net.cpp:106] Creating Layer inception_4d/prelu_5x5_reduce
I1105 17:49:48.583247 24694 net.cpp:454] inception_4d/prelu_5x5_reduce <- inception_4d/5x5_reduce
I1105 17:49:48.583256 24694 net.cpp:397] inception_4d/prelu_5x5_reduce -> inception_4d/5x5_reduce (in-place)
I1105 17:49:48.583353 24694 net.cpp:150] Setting up inception_4d/prelu_5x5_reduce
I1105 17:49:48.583362 24694 net.cpp:157] Top shape: 50 32 14 14 (313600)
I1105 17:49:48.583366 24694 net.cpp:165] Memory required for data: 2360092208
I1105 17:49:48.583380 24694 layer_factory.hpp:76] Creating layer inception_4d/5x5
I1105 17:49:48.583391 24694 net.cpp:106] Creating Layer inception_4d/5x5
I1105 17:49:48.583397 24694 net.cpp:454] inception_4d/5x5 <- inception_4d/5x5_reduce
I1105 17:49:48.583405 24694 net.cpp:411] inception_4d/5x5 -> inception_4d/5x5
I1105 17:49:48.584719 24694 cudnn_conv_layer.cpp:194] Reallocating workspace storage: 13080
I1105 17:49:48.584763 24694 net.cpp:150] Setting up inception_4d/5x5
I1105 17:49:48.584772 24694 net.cpp:157] Top shape: 50 64 14 14 (627200)
I1105 17:49:48.584776 24694 net.cpp:165] Memory required for data: 2362601008
I1105 17:49:48.584784 24694 layer_factory.hpp:76] Creating layer inception_4d/prelu_5x5
I1105 17:49:48.584794 24694 net.cpp:106] Creating Layer inception_4d/prelu_5x5
I1105 17:49:48.584800 24694 net.cpp:454] inception_4d/prelu_5x5 <- inception_4d/5x5
I1105 17:49:48.584815 24694 net.cpp:397] inception_4d/prelu_5x5 -> inception_4d/5x5 (in-place)
I1105 17:49:48.584920 24694 net.cpp:150] Setting up inception_4d/prelu_5x5
I1105 17:49:48.584929 24694 net.cpp:157] Top shape: 50 64 14 14 (627200)
I1105 17:49:48.584933 24694 net.cpp:165] Memory required for data: 2365109808
I1105 17:49:48.584939 24694 layer_factory.hpp:76] Creating layer inception_4d/pool
I1105 17:49:48.584955 24694 net.cpp:106] Creating Layer inception_4d/pool
I1105 17:49:48.584961 24694 net.cpp:454] inception_4d/pool <- inception_4c/output_inception_4c/output_0_split_3
I1105 17:49:48.584970 24694 net.cpp:411] inception_4d/pool -> inception_4d/pool
I1105 17:49:48.585487 24694 net.cpp:150] Setting up inception_4d/pool
I1105 17:49:48.585500 24694 net.cpp:157] Top shape: 50 512 14 14 (5017600)
I1105 17:49:48.585505 24694 net.cpp:165] Memory required for data: 2385180208
I1105 17:49:48.585510 24694 layer_factory.hpp:76] Creating layer inception_4d/pool_proj
I1105 17:49:48.585527 24694 net.cpp:106] Creating Layer inception_4d/pool_proj
I1105 17:49:48.585533 24694 net.cpp:454] inception_4d/pool_proj <- inception_4d/pool
I1105 17:49:48.585543 24694 net.cpp:411] inception_4d/pool_proj -> inception_4d/pool_proj
I1105 17:49:48.587030 24694 cudnn_conv_layer.cpp:194] Reallocating workspace storage: 10080
I1105 17:49:48.587077 24694 net.cpp:150] Setting up inception_4d/pool_proj
I1105 17:49:48.587087 24694 net.cpp:157] Top shape: 50 64 14 14 (627200)
I1105 17:49:48.587092 24694 net.cpp:165] Memory required for data: 2387689008
I1105 17:49:48.587100 24694 layer_factory.hpp:76] Creating layer inception_4d/prelu_pool_proj
I1105 17:49:48.587121 24694 net.cpp:106] Creating Layer inception_4d/prelu_pool_proj
I1105 17:49:48.587128 24694 net.cpp:454] inception_4d/prelu_pool_proj <- inception_4d/pool_proj
I1105 17:49:48.587134 24694 net.cpp:397] inception_4d/prelu_pool_proj -> inception_4d/pool_proj (in-place)
I1105 17:49:48.587225 24694 net.cpp:150] Setting up inception_4d/prelu_pool_proj
I1105 17:49:48.587235 24694 net.cpp:157] Top shape: 50 64 14 14 (627200)
I1105 17:49:48.587239 24694 net.cpp:165] Memory required for data: 2390197808
I1105 17:49:48.587245 24694 layer_factory.hpp:76] Creating layer inception_4d/output
I1105 17:49:48.587252 24694 net.cpp:106] Creating Layer inception_4d/output
I1105 17:49:48.587256 24694 net.cpp:454] inception_4d/output <- inception_4d/1x1
I1105 17:49:48.587261 24694 net.cpp:454] inception_4d/output <- inception_4d/3x3
I1105 17:49:48.587266 24694 net.cpp:454] inception_4d/output <- inception_4d/5x5
I1105 17:49:48.587271 24694 net.cpp:454] inception_4d/output <- inception_4d/pool_proj
I1105 17:49:48.587278 24694 net.cpp:411] inception_4d/output -> inception_4d/output
I1105 17:49:48.587302 24694 net.cpp:150] Setting up inception_4d/output
I1105 17:49:48.587311 24694 net.cpp:157] Top shape: 50 528 14 14 (5174400)
I1105 17:49:48.587316 24694 net.cpp:165] Memory required for data: 2410895408
I1105 17:49:48.587319 24694 layer_factory.hpp:76] Creating layer inception_4d/output_inception_4d/output_0_split
I1105 17:49:48.587328 24694 net.cpp:106] Creating Layer inception_4d/output_inception_4d/output_0_split
I1105 17:49:48.587333 24694 net.cpp:454] inception_4d/output_inception_4d/output_0_split <- inception_4d/output
I1105 17:49:48.587339 24694 net.cpp:411] inception_4d/output_inception_4d/output_0_split -> inception_4d/output_inception_4d/output_0_split_0
I1105 17:49:48.587347 24694 net.cpp:411] inception_4d/output_inception_4d/output_0_split -> inception_4d/output_inception_4d/output_0_split_1
I1105 17:49:48.587357 24694 net.cpp:411] inception_4d/output_inception_4d/output_0_split -> inception_4d/output_inception_4d/output_0_split_2
I1105 17:49:48.587366 24694 net.cpp:411] inception_4d/output_inception_4d/output_0_split -> inception_4d/output_inception_4d/output_0_split_3
I1105 17:49:48.587373 24694 net.cpp:411] inception_4d/output_inception_4d/output_0_split -> inception_4d/output_inception_4d/output_0_split_4
I1105 17:49:48.587435 24694 net.cpp:150] Setting up inception_4d/output_inception_4d/output_0_split
I1105 17:49:48.587443 24694 net.cpp:157] Top shape: 50 528 14 14 (5174400)
I1105 17:49:48.587450 24694 net.cpp:157] Top shape: 50 528 14 14 (5174400)
I1105 17:49:48.587453 24694 net.cpp:157] Top shape: 50 528 14 14 (5174400)
I1105 17:49:48.587458 24694 net.cpp:157] Top shape: 50 528 14 14 (5174400)
I1105 17:49:48.587463 24694 net.cpp:157] Top shape: 50 528 14 14 (5174400)
I1105 17:49:48.587467 24694 net.cpp:165] Memory required for data: 2514383408
I1105 17:49:48.587471 24694 layer_factory.hpp:76] Creating layer loss2/ave_pool
I1105 17:49:48.587479 24694 net.cpp:106] Creating Layer loss2/ave_pool
I1105 17:49:48.587484 24694 net.cpp:454] loss2/ave_pool <- inception_4d/output_inception_4d/output_0_split_0
I1105 17:49:48.587491 24694 net.cpp:411] loss2/ave_pool -> loss2/ave_pool
I1105 17:49:48.587684 24694 net.cpp:150] Setting up loss2/ave_pool
I1105 17:49:48.587694 24694 net.cpp:157] Top shape: 50 528 4 4 (422400)
I1105 17:49:48.587699 24694 net.cpp:165] Memory required for data: 2516073008
I1105 17:49:48.587703 24694 layer_factory.hpp:76] Creating layer loss2/conv
I1105 17:49:48.587713 24694 net.cpp:106] Creating Layer loss2/conv
I1105 17:49:48.587719 24694 net.cpp:454] loss2/conv <- loss2/ave_pool
I1105 17:49:48.587726 24694 net.cpp:411] loss2/conv -> loss2/conv
I1105 17:49:48.589941 24694 cudnn_conv_layer.cpp:194] Reallocating workspace storage: 6840
I1105 17:49:48.589993 24694 net.cpp:150] Setting up loss2/conv
I1105 17:49:48.590006 24694 net.cpp:157] Top shape: 50 128 4 4 (102400)
I1105 17:49:48.590015 24694 net.cpp:165] Memory required for data: 2516482608
I1105 17:49:48.590028 24694 layer_factory.hpp:76] Creating layer loss2/prelu_conv
I1105 17:49:48.590054 24694 net.cpp:106] Creating Layer loss2/prelu_conv
I1105 17:49:48.590062 24694 net.cpp:454] loss2/prelu_conv <- loss2/conv
I1105 17:49:48.590078 24694 net.cpp:397] loss2/prelu_conv -> loss2/conv (in-place)
I1105 17:49:48.590214 24694 net.cpp:150] Setting up loss2/prelu_conv
I1105 17:49:48.590227 24694 net.cpp:157] Top shape: 50 128 4 4 (102400)
I1105 17:49:48.590236 24694 net.cpp:165] Memory required for data: 2516892208
I1105 17:49:48.590248 24694 layer_factory.hpp:76] Creating layer loss2/fc
I1105 17:49:48.590265 24694 net.cpp:106] Creating Layer loss2/fc
I1105 17:49:48.590276 24694 net.cpp:454] loss2/fc <- loss2/conv
I1105 17:49:48.590288 24694 net.cpp:411] loss2/fc -> loss2/fc
I1105 17:49:48.606256 24694 net.cpp:150] Setting up loss2/fc
I1105 17:49:48.606300 24694 net.cpp:157] Top shape: 50 1024 (51200)
I1105 17:49:48.606307 24694 net.cpp:165] Memory required for data: 2517097008
I1105 17:49:48.606348 24694 layer_factory.hpp:76] Creating layer loss2/prelu_fc
I1105 17:49:48.606364 24694 net.cpp:106] Creating Layer loss2/prelu_fc
I1105 17:49:48.606370 24694 net.cpp:454] loss2/prelu_fc <- loss2/fc
I1105 17:49:48.606379 24694 net.cpp:397] loss2/prelu_fc -> loss2/fc (in-place)
I1105 17:49:48.606495 24694 net.cpp:150] Setting up loss2/prelu_fc
I1105 17:49:48.606504 24694 net.cpp:157] Top shape: 50 1024 (51200)
I1105 17:49:48.606516 24694 net.cpp:165] Memory required for data: 2517301808
I1105 17:49:48.606523 24694 layer_factory.hpp:76] Creating layer loss2/drop_fc
I1105 17:49:48.606530 24694 net.cpp:106] Creating Layer loss2/drop_fc
I1105 17:49:48.606535 24694 net.cpp:454] loss2/drop_fc <- loss2/fc
I1105 17:49:48.606541 24694 net.cpp:397] loss2/drop_fc -> loss2/fc (in-place)
I1105 17:49:48.606573 24694 net.cpp:150] Setting up loss2/drop_fc
I1105 17:49:48.606585 24694 net.cpp:157] Top shape: 50 1024 (51200)
I1105 17:49:48.606588 24694 net.cpp:165] Memory required for data: 2517506608
I1105 17:49:48.606592 24694 layer_factory.hpp:76] Creating layer loss2/classifier2
I1105 17:49:48.606608 24694 net.cpp:106] Creating Layer loss2/classifier2
I1105 17:49:48.606613 24694 net.cpp:454] loss2/classifier2 <- loss2/fc
I1105 17:49:48.606621 24694 net.cpp:411] loss2/classifier2 -> loss2/classifier
I1105 17:49:48.606751 24694 net.cpp:150] Setting up loss2/classifier2
I1105 17:49:48.606761 24694 net.cpp:157] Top shape: 50 2 (100)
I1105 17:49:48.606765 24694 net.cpp:165] Memory required for data: 2517507008
I1105 17:49:48.606781 24694 layer_factory.hpp:76] Creating layer loss2/classifier_loss2/classifier2_0_split
I1105 17:49:48.606788 24694 net.cpp:106] Creating Layer loss2/classifier_loss2/classifier2_0_split
I1105 17:49:48.606793 24694 net.cpp:454] loss2/classifier_loss2/classifier2_0_split <- loss2/classifier
I1105 17:49:48.606799 24694 net.cpp:411] loss2/classifier_loss2/classifier2_0_split -> loss2/classifier_loss2/classifier2_0_split_0
I1105 17:49:48.606816 24694 net.cpp:411] loss2/classifier_loss2/classifier2_0_split -> loss2/classifier_loss2/classifier2_0_split_1
I1105 17:49:48.606858 24694 net.cpp:150] Setting up loss2/classifier_loss2/classifier2_0_split
I1105 17:49:48.606874 24694 net.cpp:157] Top shape: 50 2 (100)
I1105 17:49:48.606887 24694 net.cpp:157] Top shape: 50 2 (100)
I1105 17:49:48.606892 24694 net.cpp:165] Memory required for data: 2517507808
I1105 17:49:48.606896 24694 layer_factory.hpp:76] Creating layer loss2/loss
I1105 17:49:48.606902 24694 net.cpp:106] Creating Layer loss2/loss
I1105 17:49:48.606907 24694 net.cpp:454] loss2/loss <- loss2/classifier_loss2/classifier2_0_split_0
I1105 17:49:48.606921 24694 net.cpp:454] loss2/loss <- label_data_1_split_2
…
I1105 17:49:48.607669 24694 net.cpp:165] Memory required for data: 2517507816
I1105 17:49:48.607673 24694 layer_factory.hpp:76] Creating layer inception_4e/1x1
I1105 17:49:48.607684 24694 net.cpp:106] Creating Layer inception_4e/1x1
I1105 17:49:48.607693 24694 net.cpp:454] inception_4e/1x1 <- inception_4d/output_inception_4d/output_0_split_1
I1105 17:49:48.607702 24694 net.cpp:411] inception_4e/1x1 -> inception_4e/1x1
I1105 17:49:48.609880 24694 cudnn_conv_layer.cpp:194] Reallocating workspace storage: 10080
I1105 17:49:48.609932 24694 net.cpp:150] Setting up inception_4e/1x1
I1105 17:49:48.609942 24694 net.cpp:157] Top shape: 50 256 14 14 (2508800)
I1105 17:49:48.609946 24694 net.cpp:165] Memory required for data: 2527543016
I1105 17:49:48.609953 24694 layer_factory.hpp:76] Creating layer inception_4e/prelu_1x1
I1105 17:49:48.609963 24694 net.cpp:106] Creating Layer inception_4e/prelu_1x1
I1105 17:49:48.609968 24694 net.cpp:454] inception_4e/prelu_1x1 <- inception_4e/1x1
I1105 17:49:48.609976 24694 net.cpp:397] inception_4e/prelu_1x1 -> inception_4e/1x1 (in-place)
I1105 17:49:48.610111 24694 net.cpp:150] Setting up inception_4e/prelu_1x1
I1105 17:49:48.610121 24694 net.cpp:157] Top shape: 50 256 14 14 (2508800)
I1105 17:49:48.610126 24694 net.cpp:165] Memory required for data: 2537578216
I1105 17:49:48.610139 24694 layer_factory.hpp:76] Creating layer inception_4e/3x3_reduce
I1105 17:49:48.610151 24694 net.cpp:106] Creating Layer inception_4e/3x3_reduce
I1105 17:49:48.610155 24694 net.cpp:454] inception_4e/3x3_reduce <- inception_4d/output_inception_4d/output_0_split_2
I1105 17:49:48.610163 24694 net.cpp:411] inception_4e/3x3_reduce -> inception_4e/3x3_reduce
I1105 17:49:48.611726 24694 cudnn_conv_layer.cpp:194] Reallocating workspace storage: 10080
I1105 17:49:48.611770 24694 net.cpp:150] Setting up inception_4e/3x3_reduce
I1105 17:49:48.611779 24694 net.cpp:157] Top shape: 50 160 14 14 (1568000)
I1105 17:49:48.611791 24694 net.cpp:165] Memory required for data: 2543850216
I1105 17:49:48.611799 24694 layer_factory.hpp:76] Creating layer inception_4e/prelu_3x3_reduce
I1105 17:49:48.611807 24694 net.cpp:106] Creating Layer inception_4e/prelu_3x3_reduce
I1105 17:49:48.611814 24694 net.cpp:454] inception_4e/prelu_3x3_reduce <- inception_4e/3x3_reduce
I1105 17:49:48.611819 24694 net.cpp:397] inception_4e/prelu_3x3_reduce -> inception_4e/3x3_reduce (in-place)
I1105 17:49:48.611937 24694 net.cpp:150] Setting up inception_4e/prelu_3x3_reduce
I1105 17:49:48.611948 24694 net.cpp:157] Top shape: 50 160 14 14 (1568000)
I1105 17:49:48.611958 24694 net.cpp:165] Memory required for data: 2550122216
I1105 17:49:48.611965 24694 layer_factory.hpp:76] Creating layer inception_4e/3x3
I1105 17:49:48.611990 24694 net.cpp:106] Creating Layer inception_4e/3x3
I1105 17:49:48.611995 24694 net.cpp:454] inception_4e/3x3 <- inception_4e/3x3_reduce
I1105 17:49:48.612011 24694 net.cpp:411] inception_4e/3x3 -> inception_4e/3x3
I1105 17:49:48.616497 24694 cudnn_conv_layer.cpp:194] Reallocating workspace storage: 10080
I1105 17:49:48.616551 24694 net.cpp:150] Setting up inception_4e/3x3
I1105 17:49:48.616570 24694 net.cpp:157] Top shape: 50 320 14 14 (3136000)
I1105 17:49:48.616575 24694 net.cpp:165] Memory required for data: 2562666216
I1105 17:49:48.616583 24694 layer_factory.hpp:76] Creating layer inception_4e/prelu_3x3
I1105 17:49:48.616595 24694 net.cpp:106] Creating Layer inception_4e/prelu_3x3
I1105 17:49:48.616601 24694 net.cpp:454] inception_4e/prelu_3x3 <- inception_4e/3x3
I1105 17:49:48.616608 24694 net.cpp:397] inception_4e/prelu_3x3 -> inception_4e/3x3 (in-place)
I1105 17:49:48.617264 24694 net.cpp:150] Setting up inception_4e/prelu_3x3
I1105 17:49:48.617275 24694 net.cpp:157] Top shape: 50 320 14 14 (3136000)
I1105 17:49:48.617280 24694 net.cpp:165] Memory required for data: 2575210216
I1105 17:49:48.617286 24694 layer_factory.hpp:76] Creating layer inception_4e/5x5_reduce
I1105 17:49:48.617298 24694 net.cpp:106] Creating Layer inception_4e/5x5_reduce
I1105 17:49:48.617303 24694 net.cpp:454] inception_4e/5x5_reduce <- inception_4d/output_inception_4d/output_0_split_3
I1105 17:49:48.617311 24694 net.cpp:411] inception_4e/5x5_reduce -> inception_4e/5x5_reduce
I1105 17:49:48.618578 24694 cudnn_conv_layer.cpp:194] Reallocating workspace storage: 10080
I1105 17:49:48.618621 24694 net.cpp:150] Setting up inception_4e/5x5_reduce
I1105 17:49:48.618633 24694 net.cpp:157] Top shape: 50 32 14 14 (313600)
I1105 17:49:48.618639 24694 net.cpp:165] Memory required for data: 2576464616
I1105 17:49:48.618649 24694 layer_factory.hpp:76] Creating layer inception_4e/prelu_5x5_reduce
I1105 17:49:48.618662 24694 net.cpp:106] Creating Layer inception_4e/prelu_5x5_reduce
I1105 17:49:48.618674 24694 net.cpp:454] inception_4e/prelu_5x5_reduce <- inception_4e/5x5_reduce
I1105 17:49:48.618685 24694 net.cpp:397] inception_4e/prelu_5x5_reduce -> inception_4e/5x5_reduce (in-place)
I1105 17:49:48.618813 24694 net.cpp:150] Setting up inception_4e/prelu_5x5_reduce
I1105 17:49:48.618825 24694 net.cpp:157] Top shape: 50 32 14 14 (313600)
I1105 17:49:48.618832 24694 net.cpp:165] Memory required for data: 2577719016
I1105 17:49:48.618841 24694 layer_factory.hpp:76] Creating layer inception_4e/5x5
I1105 17:49:48.618854 24694 net.cpp:106] Creating Layer inception_4e/5x5
I1105 17:49:48.618861 24694 net.cpp:454] inception_4e/5x5 <- inception_4e/5x5_reduce
I1105 17:49:48.618873 24694 net.cpp:411] inception_4e/5x5 -> inception_4e/5x5
I1105 17:49:48.621871 24694 cudnn_conv_layer.cpp:194] Reallocating workspace storage: 13080
I1105 17:49:48.621930 24694 net.cpp:150] Setting up inception_4e/5x5
I1105 17:49:48.621943 24694 net.cpp:157] Top shape: 50 128 14 14 (1254400)
I1105 17:49:48.621948 24694 net.cpp:165] Memory required for data: 2582736616
I1105 17:49:48.621958 24694 layer_factory.hpp:76] Creating layer inception_4e/prelu_5x5
I1105 17:49:48.621980 24694 net.cpp:106] Creating Layer inception_4e/prelu_5x5
I1105 17:49:48.621987 24694 net.cpp:454] inception_4e/prelu_5x5 <- inception_4e/5x5
I1105 17:49:48.621995 24694 net.cpp:397] inception_4e/prelu_5x5 -> inception_4e/5x5 (in-place)
I1105 17:49:48.622119 24694 net.cpp:150] Setting up inception_4e/prelu_5x5
I1105 17:49:48.622129 24694 net.cpp:157] Top shape: 50 128 14 14 (1254400)
I1105 17:49:48.622144 24694 net.cpp:165] Memory required for data: 2587754216
I1105 17:49:48.622150 24694 layer_factory.hpp:76] Creating layer inception_4e/pool
I1105 17:49:48.622159 24694 net.cpp:106] Creating Layer inception_4e/pool
I1105 17:49:48.622166 24694 net.cpp:454] inception_4e/pool <- inception_4d/output_inception_4d/output_0_split_4
I1105 17:49:48.622174 24694 net.cpp:411] inception_4e/pool -> inception_4e/pool
I1105 17:49:48.622416 24694 net.cpp:150] Setting up inception_4e/pool
I1105 17:49:48.622427 24694 net.cpp:157] Top shape: 50 528 14 14 (5174400)
I1105 17:49:48.622442 24694 net.cpp:165] Memory required for data: 2608451816
I1105 17:49:48.622447 24694 layer_factory.hpp:76] Creating layer inception_4e/pool_proj
I1105 17:49:48.622462 24694 net.cpp:106] Creating Layer inception_4e/pool_proj
I1105 17:49:48.622468 24694 net.cpp:454] inception_4e/pool_proj <- inception_4e/pool
I1105 17:49:48.622475 24694 net.cpp:411] inception_4e/pool_proj -> inception_4e/pool_proj
I1105 17:49:48.624429 24694 cudnn_conv_layer.cpp:194] Reallocating workspace storage: 10080
I1105 17:49:48.624501 24694 net.cpp:150] Setting up inception_4e/pool_proj
I1105 17:49:48.624526 24694 net.cpp:157] Top shape: 50 128 14 14 (1254400)
I1105 17:49:48.624541 24694 net.cpp:165] Memory required for data: 2613469416
I1105 17:49:48.624552 24694 layer_factory.hpp:76] Creating layer inception_4e/prelu_pool_proj
I1105 17:49:48.624595 24694 net.cpp:106] Creating Layer inception_4e/prelu_pool_proj
I1105 17:49:48.624615 24694 net.cpp:454] inception_4e/prelu_pool_proj <- inception_4e/pool_proj
I1105 17:49:48.624627 24694 net.cpp:397] inception_4e/prelu_pool_proj -> inception_4e/pool_proj (in-place)
I1105 17:49:48.624759 24694 net.cpp:150] Setting up inception_4e/prelu_pool_proj
I1105 17:49:48.624771 24694 net.cpp:157] Top shape: 50 128 14 14 (1254400)
I1105 17:49:48.624775 24694 net.cpp:165] Memory required for data: 2618487016
I1105 17:49:48.624783 24694 layer_factory.hpp:76] Creating layer inception_4e/output
I1105 17:49:48.624794 24694 net.cpp:106] Creating Layer inception_4e/output
I1105 17:49:48.624800 24694 net.cpp:454] inception_4e/output <- inception_4e/1x1
I1105 17:49:48.624805 24694 net.cpp:454] inception_4e/output <- inception_4e/3x3
I1105 17:49:48.624811 24694 net.cpp:454] inception_4e/output <- inception_4e/5x5
I1105 17:49:48.624816 24694 net.cpp:454] inception_4e/output <- inception_4e/pool_proj
I1105 17:49:48.624822 24694 net.cpp:411] inception_4e/output -> inception_4e/output
I1105 17:49:48.624851 24694 net.cpp:150] Setting up inception_4e/output
I1105 17:49:48.624861 24694 net.cpp:157] Top shape: 50 832 14 14 (8153600)
I1105 17:49:48.624866 24694 net.cpp:165] Memory required for data: 2651101416
I1105 17:49:48.624869 24694 layer_factory.hpp:76] Creating layer pool4/3x3_s2
I1105 17:49:48.624878 24694 net.cpp:106] Creating Layer pool4/3x3_s2
I1105 17:49:48.624883 24694 net.cpp:454] pool4/3x3_s2 <- inception_4e/output
I1105 17:49:48.624891 24694 net.cpp:411] pool4/3x3_s2 -> pool4/3x3_s2
I1105 17:49:48.625164 24694 net.cpp:150] Setting up pool4/3x3_s2
I1105 17:49:48.625177 24694 net.cpp:157] Top shape: 50 832 7 7 (2038400)
I1105 17:49:48.625182 24694 net.cpp:165] Memory required for data: 2659255016
I1105 17:49:48.625197 24694 layer_factory.hpp:76] Creating layer pool4/3x3_s2_pool4/3x3_s2_0_split
I1105 17:49:48.625206 24694 net.cpp:106] Creating Layer pool4/3x3_s2_pool4/3x3_s2_0_split
I1105 17:49:48.625212 24694 net.cpp:454] pool4/3x3_s2_pool4/3x3_s2_0_split <- pool4/3x3_s2
I1105 17:49:48.625221 24694 net.cpp:411] pool4/3x3_s2_pool4/3x3_s2_0_split -> pool4/3x3_s2_pool4/3x3_s2_0_split_0
I1105 17:49:48.625231 24694 net.cpp:411] pool4/3x3_s2_pool4/3x3_s2_0_split -> pool4/3x3_s2_pool4/3x3_s2_0_split_1
I1105 17:49:48.625239 24694 net.cpp:411] pool4/3x3_s2_pool4/3x3_s2_0_split -> pool4/3x3_s2_pool4/3x3_s2_0_split_2
I1105 17:49:48.625247 24694 net.cpp:411] pool4/3x3_s2_pool4/3x3_s2_0_split -> pool4/3x3_s2_pool4/3x3_s2_0_split_3
I1105 17:49:48.625314 24694 net.cpp:150] Setting up pool4/3x3_s2_pool4/3x3_s2_0_split
I1105 17:49:48.625324 24694 net.cpp:157] Top shape: 50 832 7 7 (2038400)
I1105 17:49:48.625329 24694 net.cpp:157] Top shape: 50 832 7 7 (2038400)
I1105 17:49:48.625344 24694 net.cpp:157] Top shape: 50 832 7 7 (2038400)
I1105 17:49:48.625349 24694 net.cpp:157] Top shape: 50 832 7 7 (2038400)
I1105 17:49:48.625354 24694 net.cpp:165] Memory required for data: 2691869416
I1105 17:49:48.625358 24694 layer_factory.hpp:76] Creating layer inception_5a/1x1
I1105 17:49:48.625370 24694 net.cpp:106] Creating Layer inception_5a/1x1
I1105 17:49:48.625375 24694 net.cpp:454] inception_5a/1x1 <- pool4/3x3_s2_pool4/3x3_s2_0_split_0
I1105 17:49:48.625385 24694 net.cpp:411] inception_5a/1x1 -> inception_5a/1x1
I1105 17:49:48.628523 24694 cudnn_conv_layer.cpp:194] Reallocating workspace storage: 7428
I1105 17:49:48.628588 24694 net.cpp:150] Setting up inception_5a/1x1
I1105 17:49:48.628602 24694 net.cpp:157] Top shape: 50 256 7 7 (627200)
I1105 17:49:48.628607 24694 net.cpp:165] Memory required for data: 2694378216
I1105 17:49:48.628618 24694 layer_factory.hpp:76] Creating layer inception_5a/prelu_1x1
I1105 17:49:48.628641 24694 net.cpp:106] Creating Layer inception_5a/prelu_1x1
I1105 17:49:48.628649 24694 net.cpp:454] inception_5a/prelu_1x1 <- inception_5a/1x1
I1105 17:49:48.628659 24694 net.cpp:397] inception_5a/prelu_1x1 -> inception_5a/1x1 (in-place)
I1105 17:49:48.628784 24694 net.cpp:150] Setting up inception_5a/prelu_1x1
I1105 17:49:48.628798 24694 net.cpp:157] Top shape: 50 256 7 7 (627200)
I1105 17:49:48.628831 24694 net.cpp:165] Memory required for data: 2696887016
I1105 17:49:48.628844 24694 layer_factory.hpp:76] Creating layer inception_5a/3x3_reduce
I1105 17:49:48.628871 24694 net.cpp:106] Creating Layer inception_5a/3x3_reduce
I1105 17:49:48.628878 24694 net.cpp:454] inception_5a/3x3_reduce <- pool4/3x3_s2_pool4/3x3_s2_0_split_1
I1105 17:49:48.628897 24694 net.cpp:411] inception_5a/3x3_reduce -> inception_5a/3x3_reduce
I1105 17:49:48.631424 24694 cudnn_conv_layer.cpp:194] Reallocating workspace storage: 7428
I1105 17:49:48.631474 24694 net.cpp:150] Setting up inception_5a/3x3_reduce
I1105 17:49:48.631485 24694 net.cpp:157] Top shape: 50 160 7 7 (392000)
I1105 17:49:48.631491 24694 net.cpp:165] Memory required for data: 2698455016
I1105 17:49:48.631499 24694 layer_factory.hpp:76] Creating layer inception_5a/prelu_3x3_reduce
I1105 17:49:48.631511 24694 net.cpp:106] Creating Layer inception_5a/prelu_3x3_reduce
I1105 17:49:48.631518 24694 net.cpp:454] inception_5a/prelu_3x3_reduce <- inception_5a/3x3_reduce
I1105 17:49:48.631526 24694 net.cpp:397] inception_5a/prelu_3x3_reduce -> inception_5a/3x3_reduce (in-place)
I1105 17:49:48.631636 24694 net.cpp:150] Setting up inception_5a/prelu_3x3_reduce
I1105 17:49:48.631646 24694 net.cpp:157] Top shape: 50 160 7 7 (392000)
I1105 17:49:48.631650 24694 net.cpp:165] Memory required for data: 2700023016
I1105 17:49:48.631656 24694 layer_factory.hpp:76] Creating layer inception_5a/3x3
I1105 17:49:48.631675 24694 net.cpp:106] Creating Layer inception_5a/3x3
I1105 17:49:48.631681 24694 net.cpp:454] inception_5a/3x3 <- inception_5a/3x3_reduce
I1105 17:49:48.631690 24694 net.cpp:411] inception_5a/3x3 -> inception_5a/3x3
I1105 17:49:48.636287 24694 cudnn_conv_layer.cpp:194] Reallocating workspace storage: 7788
I1105 17:49:48.636359 24694 net.cpp:150] Setting up inception_5a/3x3
I1105 17:49:48.636373 24694 net.cpp:157] Top shape: 50 320 7 7 (784000)
I1105 17:49:48.636378 24694 net.cpp:165] Memory required for data: 2703159016
I1105 17:49:48.636389 24694 layer_factory.hpp:76] Creating layer inception_5a/prelu_3x3
I1105 17:49:48.636410 24694 net.cpp:106] Creating Layer inception_5a/prelu_3x3
I1105 17:49:48.636416 24694 net.cpp:454] inception_5a/prelu_3x3 <- inception_5a/3x3
I1105 17:49:48.636425 24694 net.cpp:397] inception_5a/prelu_3x3 -> inception_5a/3x3 (in-place)
I1105 17:49:48.636580 24694 net.cpp:150] Setting up inception_5a/prelu_3x3
I1105 17:49:48.636590 24694 net.cpp:157] Top shape: 50 320 7 7 (784000)
I1105 17:49:48.636601 24694 net.cpp:165] Memory required for data: 2706295016
I1105 17:49:48.636608 24694 layer_factory.hpp:76] Creating layer inception_5a/5x5_reduce
I1105 17:49:48.636618 24694 net.cpp:106] Creating Layer inception_5a/5x5_reduce
I1105 17:49:48.636626 24694 net.cpp:454] inception_5a/5x5_reduce <- pool4/3x3_s2_pool4/3x3_s2_0_split_2
I1105 17:49:48.636633 24694 net.cpp:411] inception_5a/5x5_reduce -> inception_5a/5x5_reduce
I1105 17:49:48.637956 24694 cudnn_conv_layer.cpp:194] Reallocating workspace storage: 7428
I1105 17:49:48.637991 24694 net.cpp:150] Setting up inception_5a/5x5_reduce
I1105 17:49:48.638001 24694 net.cpp:157] Top shape: 50 32 7 7 (78400)
I1105 17:49:48.638006 24694 net.cpp:165] Memory required for data: 2706608616
I1105 17:49:48.638013 24694 layer_factory.hpp:76] Creating layer inception_5a/prelu_5x5_reduce
I1105 17:49:48.638023 24694 net.cpp:106] Creating Layer inception_5a/prelu_5x5_reduce
I1105 17:49:48.638030 24694 net.cpp:454] inception_5a/prelu_5x5_reduce <- inception_5a/5x5_reduce
I1105 17:49:48.638036 24694 net.cpp:397] inception_5a/prelu_5x5_reduce -> inception_5a/5x5_reduce (in-place)
I1105 17:49:48.638154 24694 net.cpp:150] Setting up inception_5a/prelu_5x5_reduce
I1105 17:49:48.638164 24694 net.cpp:157] Top shape: 50 32 7 7 (78400)
I1105 17:49:48.638167 24694 net.cpp:165] Memory required for data: 2706922216
I1105 17:49:48.638181 24694 layer_factory.hpp:76] Creating layer inception_5a/5x5
I1105 17:49:48.638191 24694 net.cpp:106] Creating Layer inception_5a/5x5
I1105 17:49:48.638211 24694 net.cpp:454] inception_5a/5x5 <- inception_5a/5x5_reduce
I1105 17:49:48.638221 24694 net.cpp:411] inception_5a/5x5 -> inception_5a/5x5
I1105 17:49:48.639797 24694 cudnn_conv_layer.cpp:194] Reallocating workspace storage: 9804
I1105 17:49:48.639847 24694 net.cpp:150] Setting up inception_5a/5x5
I1105 17:49:48.639858 24694 net.cpp:157] Top shape: 50 128 7 7 (313600)
I1105 17:49:48.639861 24694 net.cpp:165] Memory required for data: 2708176616
I1105 17:49:48.639869 24694 layer_factory.hpp:76] Creating layer inception_5a/prelu_5x5
I1105 17:49:48.639880 24694 net.cpp:106] Creating Layer inception_5a/prelu_5x5
I1105 17:49:48.639888 24694 net.cpp:454] inception_5a/prelu_5x5 <- inception_5a/5x5
I1105 17:49:48.639894 24694 net.cpp:397] inception_5a/prelu_5x5 -> inception_5a/5x5 (in-place)
I1105 17:49:48.640017 24694 net.cpp:150] Setting up inception_5a/prelu_5x5
I1105 17:49:48.640028 24694 net.cpp:157] Top shape: 50 128 7 7 (313600)
I1105 17:49:48.640033 24694 net.cpp:165] Memory required for data: 2709431016
I1105 17:49:48.640048 24694 layer_factory.hpp:76] Creating layer inception_5a/pool
I1105 17:49:48.640058 24694 net.cpp:106] Creating Layer inception_5a/pool
I1105 17:49:48.640064 24694 net.cpp:454] inception_5a/pool <- pool4/3x3_s2_pool4/3x3_s2_0_split_3
I1105 17:49:48.640071 24694 net.cpp:411] inception_5a/pool -> inception_5a/pool
I1105 17:49:48.640558 24694 net.cpp:150] Setting up inception_5a/pool
I1105 17:49:48.640573 24694 net.cpp:157] Top shape: 50 832 7 7 (2038400)
I1105 17:49:48.640579 24694 net.cpp:165] Memory required for data: 2717584616
I1105 17:49:48.640584 24694 layer_factory.hpp:76] Creating layer inception_5a/pool_proj
I1105 17:49:48.640595 24694 net.cpp:106] Creating Layer inception_5a/pool_proj
I1105 17:49:48.640601 24694 net.cpp:454] inception_5a/pool_proj <- inception_5a/pool
I1105 17:49:48.640610 24694 net.cpp:411] inception_5a/pool_proj -> inception_5a/pool_proj
I1105 17:49:48.642997 24694 cudnn_conv_layer.cpp:194] Reallocating workspace storage: 7428
I1105 17:49:48.643049 24694 net.cpp:150] Setting up inception_5a/pool_proj
I1105 17:49:48.643059 24694 net.cpp:157] Top shape: 50 128 7 7 (313600)
I1105 17:49:48.643065 24694 net.cpp:165] Memory required for data: 2718839016
I1105 17:49:48.643074 24694 layer_factory.hpp:76] Creating layer inception_5a/prelu_pool_proj
I1105 17:49:48.643101 24694 net.cpp:106] Creating Layer inception_5a/prelu_pool_proj
I1105 17:49:48.643111 24694 net.cpp:454] inception_5a/prelu_pool_proj <- inception_5a/pool_proj
I1105 17:49:48.643121 24694 net.cpp:397] inception_5a/prelu_pool_proj -> inception_5a/pool_proj (in-place)
I1105 17:49:48.643230 24694 net.cpp:150] Setting up inception_5a/prelu_pool_proj
I1105 17:49:48.643239 24694 net.cpp:157] Top shape: 50 128 7 7 (313600)
I1105 17:49:48.643244 24694 net.cpp:165] Memory required for data: 2720093416
I1105 17:49:48.643249 24694 layer_factory.hpp:76] Creating layer inception_5a/output
I1105 17:49:48.643259 24694 net.cpp:106] Creating Layer inception_5a/output
I1105 17:49:48.643263 24694 net.cpp:454] inception_5a/output <- inception_5a/1x1
I1105 17:49:48.643270 24694 net.cpp:454] inception_5a/output <- inception_5a/3x3
I1105 17:49:48.643282 24694 net.cpp:454] inception_5a/output <- inception_5a/5x5
I1105 17:49:48.643301 24694 net.cpp:454] inception_5a/output <- inception_5a/pool_proj
I1105 17:49:48.643311 24694 net.cpp:411] inception_5a/output -> inception_5a/output
I1105 17:49:48.643358 24694 net.cpp:150] Setting up inception_5a/output
I1105 17:49:48.643379 24694 net.cpp:157] Top shape: 50 832 7 7 (2038400)
I1105 17:49:48.643390 24694 net.cpp:165] Memory required for data: 2728247016
I1105 17:49:48.643398 24694 layer_factory.hpp:76] Creating layer inception_5a/output_inception_5a/output_0_split
I1105 17:49:48.643406 24694 net.cpp:106] Creating Layer inception_5a/output_inception_5a/output_0_split
I1105 17:49:48.643416 24694 net.cpp:454] inception_5a/output_inception_5a/output_0_split <- inception_5a/output
I1105 17:49:48.643425 24694 net.cpp:411] inception_5a/output_inception_5a/output_0_split -> inception_5a/output_inception_5a/output_0_split_0
I1105 17:49:48.643457 24694 net.cpp:411] inception_5a/output_inception_5a/output_0_split -> inception_5a/output_inception_5a/output_0_split_1
I1105 17:49:48.643473 24694 net.cpp:411] inception_5a/output_inception_5a/output_0_split -> inception_5a/output_inception_5a/output_0_split_2
I1105 17:49:48.643481 24694 net.cpp:411] inception_5a/output_inception_5a/output_0_split -> inception_5a/output_inception_5a/output_0_split_3
I1105 17:49:48.643544 24694 net.cpp:150] Setting up inception_5a/output_inception_5a/output_0_split
I1105 17:49:48.643553 24694 net.cpp:157] Top shape: 50 832 7 7 (2038400)
I1105 17:49:48.643559 24694 net.cpp:157] Top shape: 50 832 7 7 (2038400)
I1105 17:49:48.643563 24694 net.cpp:157] Top shape: 50 832 7 7 (2038400)
I1105 17:49:48.643568 24694 net.cpp:157] Top shape: 50 832 7 7 (2038400)
I1105 17:49:48.643573 24694 net.cpp:165] Memory required for data: 2760861416
I1105 17:49:48.643578 24694 layer_factory.hpp:76] Creating layer inception_5b/1x1
I1105 17:49:48.643589 24694 net.cpp:106] Creating Layer inception_5b/1x1
I1105 17:49:48.643594 24694 net.cpp:454] inception_5b/1x1 <- inception_5a/output_inception_5a/output_0_split_0
I1105 17:49:48.643601 24694 net.cpp:411] inception_5b/1x1 -> inception_5b/1x1
I1105 17:49:48.647171 24694 cudnn_conv_layer.cpp:194] Reallocating workspace storage: 7428
I1105 17:49:48.647217 24694 net.cpp:150] Setting up inception_5b/1x1
I1105 17:49:48.647227 24694 net.cpp:157] Top shape: 50 384 7 7 (940800)
I1105 17:49:48.647230 24694 net.cpp:165] Memory required for data: 2764624616
I1105 17:49:48.647238 24694 layer_factory.hpp:76] Creating layer inception_5b/prelu_1x1
I1105 17:49:48.647249 24694 net.cpp:106] Creating Layer inception_5b/prelu_1x1
I1105 17:49:48.647254 24694 net.cpp:454] inception_5b/prelu_1x1 <- inception_5b/1x1
I1105 17:49:48.647261 24694 net.cpp:397] inception_5b/prelu_1x1 -> inception_5b/1x1 (in-place)
I1105 17:49:48.647371 24694 net.cpp:150] Setting up inception_5b/prelu_1x1
I1105 17:49:48.647380 24694 net.cpp:157] Top shape: 50 384 7 7 (940800)
I1105 17:49:48.647384 24694 net.cpp:165] Memory required for data: 2768387816
I1105 17:49:48.647389 24694 layer_factory.hpp:76] Creating layer inception_5b/3x3_reduce
I1105 17:49:48.647399 24694 net.cpp:106] Creating Layer inception_5b/3x3_reduce
I1105 17:49:48.647404 24694 net.cpp:454] inception_5b/3x3_reduce <- inception_5a/output_inception_5a/output_0_split_1
I1105 17:49:48.647413 24694 net.cpp:411] inception_5b/3x3_reduce -> inception_5b/3x3_reduce
I1105 17:49:48.649974 24694 cudnn_conv_layer.cpp:194] Reallocating workspace storage: 7428
I1105 17:49:48.650020 24694 net.cpp:150] Setting up inception_5b/3x3_reduce
I1105 17:49:48.650039 24694 net.cpp:157] Top shape: 50 192 7 7 (470400)
I1105 17:49:48.650046 24694 net.cpp:165] Memory required for data: 2770269416
I1105 17:49:48.650058 24694 layer_factory.hpp:76] Creating layer inception_5b/prelu_3x3_reduce
I1105 17:49:48.650075 24694 net.cpp:106] Creating Layer inception_5b/prelu_3x3_reduce
I1105 17:49:48.650084 24694 net.cpp:454] inception_5b/prelu_3x3_reduce <- inception_5b/3x3_reduce
I1105 17:49:48.650102 24694 net.cpp:397] inception_5b/prelu_3x3_reduce -> inception_5b/3x3_reduce (in-place)
I1105 17:49:48.650245 24694 net.cpp:150] Setting up inception_5b/prelu_3x3_reduce
I1105 17:49:48.650259 24694 net.cpp:157] Top shape: 50 192 7 7 (470400)
I1105 17:49:48.650264 24694 net.cpp:165] Memory required for data: 2772151016
I1105 17:49:48.650274 24694 layer_factory.hpp:76] Creating layer inception_5b/3x3
I1105 17:49:48.650286 24694 net.cpp:106] Creating Layer inception_5b/3x3
I1105 17:49:48.650293 24694 net.cpp:454] inception_5b/3x3 <- inception_5b/3x3_reduce
I1105 17:49:48.650313 24694 net.cpp:411] inception_5b/3x3 -> inception_5b/3x3
I1105 17:49:48.656908 24694 cudnn_conv_layer.cpp:194] Reallocating workspace storage: 7788
I1105 17:49:48.656981 24694 net.cpp:150] Setting up inception_5b/3x3
I1105 17:49:48.656992 24694 net.cpp:157] Top shape: 50 384 7 7 (940800)
I1105 17:49:48.656997 24694 net.cpp:165] Memory required for data: 2775914216
I1105 17:49:48.657034 24694 layer_factory.hpp:76] Creating layer inception_5b/prelu_3x3
I1105 17:49:48.657050 24694 net.cpp:106] Creating Layer inception_5b/prelu_3x3
I1105 17:49:48.657059 24694 net.cpp:454] inception_5b/prelu_3x3 <- inception_5b/3x3
I1105 17:49:48.657085 24694 net.cpp:397] inception_5b/prelu_3x3 -> inception_5b/3x3 (in-place)
I1105 17:49:48.657225 24694 net.cpp:150] Setting up inception_5b/prelu_3x3
I1105 17:49:48.657235 24694 net.cpp:157] Top shape: 50 384 7 7 (940800)
I1105 17:49:48.657248 24694 net.cpp:165] Memory required for data: 2779677416
I1105 17:49:48.657254 24694 layer_factory.hpp:76] Creating layer inception_5b/5x5_reduce
I1105 17:49:48.657268 24694 net.cpp:106] Creating Layer inception_5b/5x5_reduce
I1105 17:49:48.657274 24694 net.cpp:454] inception_5b/5x5_reduce <- inception_5a/output_inception_5a/output_0_split_2
I1105 17:49:48.657291 24694 net.cpp:411] inception_5b/5x5_reduce -> inception_5b/5x5_reduce
I1105 17:49:48.659077 24694 cudnn_conv_layer.cpp:194] Reallocating workspace storage: 7428
I1105 17:49:48.659128 24694 net.cpp:150] Setting up inception_5b/5x5_reduce
I1105 17:49:48.659139 24694 net.cpp:157] Top shape: 50 48 7 7 (117600)
I1105 17:49:48.659143 24694 net.cpp:165] Memory required for data: 2780147816
I1105 17:49:48.659152 24694 layer_factory.hpp:76] Creating layer inception_5b/prelu_5x5_reduce
I1105 17:49:48.659162 24694 net.cpp:106] Creating Layer inception_5b/prelu_5x5_reduce
I1105 17:49:48.659168 24694 net.cpp:454] inception_5b/prelu_5x5_reduce <- inception_5b/5x5_reduce
I1105 17:49:48.659198 24694 net.cpp:397] inception_5b/prelu_5x5_reduce -> inception_5b/5x5_reduce (in-place)
I1105 17:49:48.659322 24694 net.cpp:150] Setting up inception_5b/prelu_5x5_reduce
I1105 17:49:48.659332 24694 net.cpp:157] Top shape: 50 48 7 7 (117600)
I1105 17:49:48.659337 24694 net.cpp:165] Memory required for data: 2780618216
I1105 17:49:48.659342 24694 layer_factory.hpp:76] Creating layer inception_5b/5x5
I1105 17:49:48.659353 24694 net.cpp:106] Creating Layer inception_5b/5x5
I1105 17:49:48.659358 24694 net.cpp:454] inception_5b/5x5 <- inception_5b/5x5_reduce
I1105 17:49:48.659365 24694 net.cpp:411] inception_5b/5x5 -> inception_5b/5x5
I1105 17:49:48.661519 24694 cudnn_conv_layer.cpp:194] Reallocating workspace storage: 9804
I1105 17:49:48.661559 24694 net.cpp:150] Setting up inception_5b/5x5
I1105 17:49:48.661569 24694 net.cpp:157] Top shape: 50 128 7 7 (313600)
I1105 17:49:48.661576 24694 net.cpp:165] Memory required for data: 2781872616
I1105 17:49:48.661583 24694 layer_factory.hpp:76] Creating layer inception_5b/prelu_5x5
I1105 17:49:48.661593 24694 net.cpp:106] Creating Layer inception_5b/prelu_5x5
I1105 17:49:48.661600 24694 net.cpp:454] inception_5b/prelu_5x5 <- inception_5b/5x5
I1105 17:49:48.661608 24694 net.cpp:397] inception_5b/prelu_5x5 -> inception_5b/5x5 (in-place)
I1105 17:49:48.661734 24694 net.cpp:150] Setting up inception_5b/prelu_5x5
I1105 17:49:48.661743 24694 net.cpp:157] Top shape: 50 128 7 7 (313600)
I1105 17:49:48.661747 24694 net.cpp:165] Memory required for data: 2783127016
I1105 17:49:48.661753 24694 layer_factory.hpp:76] Creating layer inception_5b/pool
I1105 17:49:48.661763 24694 net.cpp:106] Creating Layer inception_5b/pool
I1105 17:49:48.661769 24694 net.cpp:454] inception_5b/pool <- inception_5a/output_inception_5a/output_0_split_3
I1105 17:49:48.661777 24694 net.cpp:411] inception_5b/pool -> inception_5b/pool
I1105 17:49:48.662009 24694 net.cpp:150] Setting up inception_5b/pool
I1105 17:49:48.662020 24694 net.cpp:157] Top shape: 50 832 7 7 (2038400)
I1105 17:49:48.662024 24694 net.cpp:165] Memory required for data: 2791280616
I1105 17:49:48.662029 24694 layer_factory.hpp:76] Creating layer inception_5b/pool_proj
I1105 17:49:48.662039 24694 net.cpp:106] Creating Layer inception_5b/pool_proj
I1105 17:49:48.662045 24694 net.cpp:454] inception_5b/pool_proj <- inception_5b/pool
I1105 17:49:48.662055 24694 net.cpp:411] inception_5b/pool_proj -> inception_5b/pool_proj
I1105 17:49:48.664360 24694 cudnn_conv_layer.cpp:194] Reallocating workspace storage: 7428
I1105 17:49:48.664410 24694 net.cpp:150] Setting up inception_5b/pool_proj
I1105 17:49:48.664422 24694 net.cpp:157] Top shape: 50 128 7 7 (313600)
I1105 17:49:48.664425 24694 net.cpp:165] Memory required for data: 2792535016
I1105 17:49:48.664433 24694 layer_factory.hpp:76] Creating layer inception_5b/prelu_pool_proj
I1105 17:49:48.664441 24694 net.cpp:106] Creating Layer inception_5b/prelu_pool_proj
I1105 17:49:48.664448 24694 net.cpp:454] inception_5b/prelu_pool_proj <- inception_5b/pool_proj
I1105 17:49:48.664454 24694 net.cpp:397] inception_5b/prelu_pool_proj -> inception_5b/pool_proj (in-place)
I1105 17:49:48.664561 24694 net.cpp:150] Setting up inception_5b/prelu_pool_proj
I1105 17:49:48.664572 24694 net.cpp:157] Top shape: 50 128 7 7 (313600)
I1105 17:49:48.664576 24694 net.cpp:165] Memory required for data: 2793789416
I1105 17:49:48.664582 24694 layer_factory.hpp:76] Creating layer inception_5b/output
I1105 17:49:48.664588 24694 net.cpp:106] Creating Layer inception_5b/output
I1105 17:49:48.664594 24694 net.cpp:454] inception_5b/output <- inception_5b/1x1
I1105 17:49:48.664600 24694 net.cpp:454] inception_5b/output <- inception_5b/3x3
I1105 17:49:48.664604 24694 net.cpp:454] inception_5b/output <- inception_5b/5x5
I1105 17:49:48.664609 24694 net.cpp:454] inception_5b/output <- inception_5b/pool_proj
I1105 17:49:48.664615 24694 net.cpp:411] inception_5b/output -> inception_5b/output
I1105 17:49:48.664640 24694 net.cpp:150] Setting up inception_5b/output
I1105 17:49:48.664649 24694 net.cpp:157] Top shape: 50 1024 7 7 (2508800)
I1105 17:49:48.664654 24694 net.cpp:165] Memory required for data: 2803824616
I1105 17:49:48.664657 24694 layer_factory.hpp:76] Creating layer pool5/7x7_s1
I1105 17:49:48.664667 24694 net.cpp:106] Creating Layer pool5/7x7_s1
I1105 17:49:48.664672 24694 net.cpp:454] pool5/7x7_s1 <- inception_5b/output
I1105 17:49:48.664680 24694 net.cpp:411] pool5/7x7_s1 -> pool5/7x7_s1
I1105 17:49:48.665086 24694 net.cpp:150] Setting up pool5/7x7_s1
I1105 17:49:48.665097 24694 net.cpp:157] Top shape: 50 1024 1 1 (51200)
I1105 17:49:48.665102 24694 net.cpp:165] Memory required for data: 2804029416
I1105 17:49:48.665107 24694 layer_factory.hpp:76] Creating layer pool5/drop_7x7_s1
I1105 17:49:48.665113 24694 net.cpp:106] Creating Layer pool5/drop_7x7_s1
I1105 17:49:48.665118 24694 net.cpp:454] pool5/drop_7x7_s1 <- pool5/7x7_s1
I1105 17:49:48.665127 24694 net.cpp:397] pool5/drop_7x7_s1 -> pool5/7x7_s1 (in-place)
I1105 17:49:48.665153 24694 net.cpp:150] Setting up pool5/drop_7x7_s1
I1105 17:49:48.665160 24694 net.cpp:157] Top shape: 50 1024 1 1 (51200)
I1105 17:49:48.665164 24694 net.cpp:165] Memory required for data: 2804234216
I1105 17:49:48.665169 24694 layer_factory.hpp:76] Creating layer loss3/classifier2
I1105 17:49:48.665176 24694 net.cpp:106] Creating Layer loss3/classifier2
I1105 17:49:48.665180 24694 net.cpp:454] loss3/classifier2 <- pool5/7x7_s1
I1105 17:49:48.665189 24694 net.cpp:411] loss3/classifier2 -> loss3/classifier
I1105 17:49:48.665340 24694 net.cpp:150] Setting up loss3/classifier2
I1105 17:49:48.665350 24694 net.cpp:157] Top shape: 50 2 (100)
I1105 17:49:48.665355 24694 net.cpp:165] Memory required for data: 2804234616
I1105 17:49:48.665361 24694 layer_factory.hpp:76] Creating layer loss3/classifier_loss3/classifier2_0_split
I1105 17:49:48.665370 24694 net.cpp:106] Creating Layer loss3/classifier_loss3/classifier2_0_split
I1105 17:49:48.665375 24694 net.cpp:454] loss3/classifier_loss3/classifier2_0_split <- loss3/classifier
I1105 17:49:48.665381 24694 net.cpp:411] loss3/classifier_loss3/classifier2_0_split -> loss3/classifier_loss3/classifier2_0_split_0
I1105 17:49:48.665388 24694 net.cpp:411] loss3/classifier_loss3/classifier2_0_split -> loss3/classifier_loss3/classifier2_0_split_1
I1105 17:49:48.665428 24694 net.cpp:150] Setting up loss3/classifier_loss3/classifier2_0_split
I1105 17:49:48.665437 24694 net.cpp:157] Top shape: 50 2 (100)
I1105 17:49:48.665442 24694 net.cpp:157] Top shape: 50 2 (100)
I1105 17:49:48.665446 24694 net.cpp:165] Memory required for data: 2804235416
I1105 17:49:48.665451 24694 layer_factory.hpp:76] Creating layer loss3/loss3
I1105 17:49:48.665469 24694 net.cpp:106] Creating Layer loss3/loss3
I1105 17:49:48.665474 24694 net.cpp:454] loss3/loss3 <- loss3/classifier_loss3/classifier2_0_split_0
I1105 17:49:48.665479 24694 net.cpp:454] loss3/loss3 <- label_data_1_split_4
…
