…
I1028 13:26:09.690583 28156 net.cpp:322] The NetState phase (0) differed from the phase (1) specified by a rule in layer loss3/top-1
I1028 13:26:09.691522 28156 net.cpp:49] Initializing net from parameters: 
name: "GoogleNet"
state {
  phase: TRAIN
}
layer {
  name: "data"
  type: "Data"
  top: "data"
  top: "label"
  include {
    phase: TRAIN
  }
  transform_param {
    mirror: true
    crop_size: 224
    mean_value: 104
    mean_value: 117
    mean_value: 123
  }
  data_param {
    source: "../../LMDB/train_4-lmdb"
    batch_size: 32
    backend: LMDB
  }
}
layer {
  name: "conv1/7x7_s2"
  type: "Convolution"
  bottom: "data"
  top: "conv1/7x7_s2"
  param {
    lr_mult: 1
    decay_mult: 1
  }
  param {
    lr_mult: 2
    decay_mult: 0
  }
  convolution_param {
    num_output: 64
    pad: 3
    kernel_size: 7
    stride: 2
    weight_filler {
      type: "xavier"
    }
    bias_filler {
      type: "constant"
      value: 0.2
    }
  }
}
layer {
  name: "conv1/prelu_7x7"
  type: "PReLU"
  bottom: "conv1/7x7_s2"
  top: "conv1/7x7_s2"
  param {
    lr_mult: 1
    decay_mult: 0
  }
  prelu_param {
    filler {
      type: "constant"
      value: 0.01
    }
  }
}
layer {
  name: "pool1/3x3_s2"
  type: "Pooling"
  bottom: "conv1/7x7_s2"
  top: "pool1/3x3_s2"
  pooling_param {
    pool: MAX
    kernel_size: 3
    stride: 2
  }
}
layer {
  name: "pool1/norm1"
  type: "LRN"
  bottom: "pool1/3x3_s2"
  top: "pool1/norm1"
  lrn_param {
    local_size: 5
    alpha: 0.0001
    beta: 0.75
  }
}
layer {
  name: "conv2/3x3_reduce"
  type: "Convolution"
  bottom: "pool1/norm1"
  top: "conv2/3x3_reduce"
  param {
    lr_mult: 1
    decay_mult: 1
  }
  param {
    lr_mult: 2
    decay_mult: 0
  }
  convolution_param {
    num_output: 64
    kernel_size: 1
    weight_filler {
      type: "xavier"
    }
    bias_filler {
      type: "constant"
      value: 0.2
    }
  }
}
layer {
  name: "conv2/prelu_3x3_reduce"
  type: "PReLU"
  bottom: "conv2/3x3_reduce"
  top: "conv2/3x3_reduce"
  param {
    lr_mult: 1
    decay_mult: 0
  }
  prelu_param {
    filler {
      type: "constant"
      value: 0.01
    }
  }
}
layer {
  name: "conv2/3x3"
  type: "Convolution"
  bottom: "conv2/3x3_reduce"
  top: "conv2/3x3"
  param {
    lr_mult: 1
    decay_mult: 1
  }
  param {
    lr_mult: 2
    decay_mult: 0
  }
  convolution_param {
    num_output: 192
    pad: 1
    kernel_size: 3
    weight_filler {
      type: "xavier"
    }
    bias_filler {
      type: "constant"
      value: 0.2
    }
  }
}
layer {
  name: "conv2/prelu_3x3"
  type: "PReLU"
  bottom: "conv2/3x3"
  top: "conv2/3x3"
  param {
    lr_mult: 1
    decay_mult: 0
  }
  prelu_param {
    filler {
      type: "constant"
      value: 0.01
    }
  }
}
layer {
  name: "conv2/norm2"
  type: "LRN"
  bottom: "conv2/3x3"
  top: "conv2/norm2"
  lrn_param {
    local_size: 5
    alpha: 0.0001
    beta: 0.75
  }
}
layer {
  name: "pool2/3x3_s2"
  type: "Pooling"
  bottom: "conv2/norm2"
  top: "pool2/3x3_s2"
  pooling_param {
    pool: MAX
    kernel_size: 3
    stride: 2
  }
}
layer {
  name: "inception_3a/1x1"
  type: "Convolution"
  bottom: "pool2/3x3_s2"
  top: "inception_3a/1x1"
  param {
    lr_mult: 1
    decay_mult: 1
  }
  param {
    lr_mult: 2
    decay_mult: 0
  }
  convolution_param {
    num_output: 64
    kernel_size: 1
    weight_filler {
      type: "xavier"
    }
    bias_filler {
      type: "constant"
      value: 0.2
    }
  }
}
layer {
  name: "inception_3a/prelu_1x1"
  type: "PReLU"
  bottom: "inception_3a/1x1"
  top: "inception_3a/1x1"
  param {
    lr_mult: 1
    decay_mult: 0
  }
  prelu_param {
    filler {
      type: "constant"
      value: 0.01
    }
  }
}
layer {
  name: "inception_3a/3x3_reduce"
  type: "Convolution"
  bottom: "pool2/3x3_s2"
  top: "inception_3a/3x3_reduce"
  param {
    lr_mult: 1
    decay_mult: 1
  }
  param {
    lr_mult: 2
    decay_mult: 0
  }
  convolution_param {
    num_output: 96
    kernel_size: 1
    weight_filler {
      type: "xavier"
    }
    bias_filler {
      type: "constant"
      value: 0.2
    }
  }
}
layer {
  name: "inception_3a/prelu_3x3_reduce"
  type: "PReLU"
  bottom: "inception_3a/3x3_reduce"
  top: "inception_3a/3x3_reduce"
  param {
    lr_mult: 1
    decay_mult: 0
  }
  prelu_param {
    filler {
      type: "constant"
      value: 0.01
    }
  }
}
layer {
  name: "inception_3a/3x3"
  type: "Convolution"
  bottom: "inception_3a/3x3_reduce"
  top: "inception_3a/3x3"
  param {
    lr_mult: 1
    decay_mult: 1
  }
  param {
    lr_mult: 2
    decay_mult: 0
  }
  convolution_param {
    num_output: 128
    pad: 1
    kernel_size: 3
    weight_filler {
      type: "xavier"
    }
    bias_filler {
      type: "constant"
      value: 0.2
    }
  }
}
layer {
  name: "inception_3a/prelu_3x3"
  type: "PReLU"
  bottom: "inception_3a/3x3"
  top: "inception_3a/3x3"
  param {
    lr_mult: 1
    decay_mult: 0
  }
  prelu_param {
    filler {
      type: "constant"
      value: 0.01
    }
  }
}
layer {
  name: "inception_3a/5x5_reduce"
  type: "Convolution"
  bottom: "pool2/3x3_s2"
  top: "inception_3a/5x5_reduce"
  param {
    lr_mult: 1
    decay_mult: 1
  }
  param {
    lr_mult: 2
    decay_mult: 0
  }
  convolution_param {
    num_output: 16
    kernel_size: 1
    weight_filler {
      type: "xavier"
    }
    bias_filler {
      type: "constant"
      value: 0.2
    }
  }
}
layer {
  name: "inception_3a/prelu_5x5_reduce"
  type: "PReLU"
  bottom: "inception_3a/5x5_reduce"
  top: "inception_3a/5x5_reduce"
  param {
    lr_mult: 1
    decay_mult: 0
  }
  prelu_param {
    filler {
      type: "constant"
      value: 0.01
    }
  }
}
layer {
  name: "inception_3a/5x5"
  type: "Convolution"
  bottom: "inception_3a/5x5_reduce"
  top: "inception_3a/5x5"
  param {
    lr_mult: 1
    decay_mult: 1
  }
  param {
    lr_mult: 2
    decay_mult: 0
  }
  convolution_param {
    num_output: 32
    pad: 2
    kernel_size: 5
    weight_filler {
      type: "xavier"
    }
    bias_filler {
      type: "constant"
      value: 0.2
    }
  }
}
layer {
  name: "inception_3a/prelu_5x5"
  type: "PReLU"
  bottom: "inception_3a/5x5"
  top: "inception_3a/5x5"
  param {
    lr_mult: 1
    decay_mult: 0
  }
  prelu_param {
    filler {
      type: "constant"
      value: 0.01
    }
  }
}
layer {
  name: "inception_3a/pool"
  type: "Pooling"
  bottom: "pool2/3x3_s2"
  top: "inception_3a/pool"
  pooling_param {
    pool: MAX
    kernel_size: 3
    stride: 1
    pad: 1
  }
}
layer {
  name: "inception_3a/pool_proj"
  type: "Convolution"
  bottom: "inception_3a/pool"
  top: "inception_3a/pool_proj"
  param {
    lr_mult: 1
    decay_mult: 1
  }
  param {
    lr_mult: 2
    decay_mult: 0
  }
  convolution_param {
    num_output: 32
    kernel_size: 1
    weight_filler {
      type: "xavier"
    }
    bias_filler {
      type: "constant"
      value: 0.2
    }
  }
}
layer {
  name: "inception_3a/prelu_pool_proj"
  type: "PReLU"
  bottom: "inception_3a/pool_proj"
  top: "inception_3a/pool_proj"
  param {
    lr_mult: 1
    decay_mult: 0
  }
  prelu_param {
    filler {
      type: "constant"
      value: 0.01
    }
  }
}
layer {
  name: "inception_3a/output"
  type: "Concat"
  bottom: "inception_3a/1x1"
  bottom: "inception_3a/3x3"
  bottom: "inception_3a/5x5"
  bottom: "inception_3a/pool_proj"
  top: "inception_3a/output"
}
layer {
  name: "inception_3b/1x1"
  type: "Convolution"
  bottom: "inception_3a/output"
  top: "inception_3b/1x1"
  param {
    lr_mult: 1
    decay_mult: 1
  }
  param {
    lr_mult: 2
    decay_mult: 0
  }
  convolution_param {
    num_output: 128
    kernel_size: 1
    weight_filler {
      type: "xavier"
    }
    bias_filler {
      type: "constant"
      value: 0.2
    }
  }
}
layer {
  name: "inception_3b/prelu_1x1"
  type: "PReLU"
  bottom: "inception_3b/1x1"
  top: "inception_3b/1x1"
  param {
    lr_mult: 1
    decay_mult: 0
  }
  prelu_param {
    filler {
      type: "constant"
      value: 0.01
    }
  }
}
layer {
  name: "inception_3b/3x3_reduce"
  type: "Convolution"
  bottom: "inception_3a/output"
  top: "inception_3b/3x3_reduce"
  param {
    lr_mult: 1
    decay_mult: 1
  }
  param {
    lr_mult: 2
    decay_mult: 0
  }
  convolution_param {
    num_output: 128
    kernel_size: 1
    weight_filler {
      type: "xavier"
    }
    bias_filler {
      type: "constant"
      value: 0.2
    }
  }
}
layer {
  name: "inception_3b/prelu_3x3_reduce"
  type: "PReLU"
  bottom: "inception_3b/3x3_reduce"
  top: "inception_3b/3x3_reduce"
  param {
    lr_mult: 1
    decay_mult: 0
  }
  prelu_param {
    filler {
      type: "constant"
      value: 0.01
    }
  }
}
layer {
  name: "inception_3b/3x3"
  type: "Convolution"
  bottom: "inception_3b/3x3_reduce"
  top: "inception_3b/3x3"
  param {
    lr_mult: 1
    decay_mult: 1
  }
  param {
    lr_mult: 2
    decay_mult: 0
  }
  convolution_param {
    num_output: 192
    pad: 1
    kernel_size: 3
    weight_filler {
      type: "xavier"
    }
    bias_filler {
      type: "constant"
      value: 0.2
    }
  }
}
layer {
  name: "inception_3b/prelu_3x3"
  type: "PReLU"
  bottom: "inception_3b/3x3"
  top: "inception_3b/3x3"
  param {
    lr_mult: 1
    decay_mult: 0
  }
  prelu_param {
    filler {
      type: "constant"
      value: 0.01
    }
  }
}
layer {
  name: "inception_3b/5x5_reduce"
  type: "Convolution"
  bottom: "inception_3a/output"
  top: "inception_3b/5x5_reduce"
  param {
    lr_mult: 1
    decay_mult: 1
  }
  param {
    lr_mult: 2
    decay_mult: 0
  }
  convolution_param {
    num_output: 32
    kernel_size: 1
    weight_filler {
      type: "xavier"
    }
    bias_filler {
      type: "constant"
      value: 0.2
    }
  }
}
layer {
  name: "inception_3b/prelu_5x5_reduce"
  type: "PReLU"
  bottom: "inception_3b/5x5_reduce"
  top: "inception_3b/5x5_reduce"
  param {
    lr_mult: 1
    decay_mult: 0
  }
  prelu_param {
    filler {
      type: "constant"
      value: 0.01
    }
  }
}
layer {
  name: "inception_3b/5x5"
  type: "Convolution"
  bottom: "inception_3b/5x5_reduce"
  top: "inception_3b/5x5"
  param {
    lr_mult: 1
    decay_mult: 1
  }
  param {
    lr_mult: 2
    decay_mult: 0
  }
  convolution_param {
    num_output: 96
    pad: 2
    kernel_size: 5
    weight_filler {
      type: "xavier"
    }
    bias_filler {
      type: "constant"
      value: 0.2
    }
  }
}
layer {
  name: "inception_3b/prelu_5x5"
  type: "PReLU"
  bottom: "inception_3b/5x5"
  top: "inception_3b/5x5"
  param {
    lr_mult: 1
    decay_mult: 0
  }
  prelu_param {
    filler {
      type: "constant"
      value: 0.01
    }
  }
}
layer {
  name: "inception_3b/pool"
  type: "Pooling"
  bottom: "inception_3a/output"
  top: "inception_3b/pool"
  pooling_param {
    pool: MAX
    kernel_size: 3
    stride: 1
    pad: 1
  }
}
layer {
  name: "inception_3b/pool_proj"
  type: "Convolution"
  bottom: "inception_3b/pool"
  top: "inception_3b/pool_proj"
  param {
    lr_mult: 1
    decay_mult: 1
  }
  param {
    lr_mult: 2
    decay_mult: 0
  }
  convolution_param {
    num_output: 64
    kernel_size: 1
    weight_filler {
      type: "xavier"
    }
    bias_filler {
      type: "constant"
      value: 0.2
    }
  }
}
layer {
  name: "inception_3b/prelu_pool_proj"
  type: "PReLU"
  bottom: "inception_3b/pool_proj"
  top: "inception_3b/pool_proj"
  param {
    lr_mult: 1
    decay_mult: 0
  }
  prelu_param {
    filler {
      type: "constant"
      value: 0.01
    }
  }
}
layer {
  name: "inception_3b/output"
  type: "Concat"
  bottom: "inception_3b/1x1"
  bottom: "inception_3b/3x3"
  bottom: "inception_3b/5x5"
  bottom: "inception_3b/pool_proj"
  top: "inception_3b/output"
}
layer {
  name: "pool3/3x3_s2"
  type: "Pooling"
  bottom: "inception_3b/output"
  top: "pool3/3x3_s2"
  pooling_param {
    pool: MAX
    kernel_size: 3
    stride: 2
  }
}
layer {
  name: "inception_4a/1x1"
  type: "Convolution"
  bottom: "pool3/3x3_s2"
  top: "inception_4a/1x1"
  param {
    lr_mult: 1
    decay_mult: 1
  }
  param {
    lr_mult: 2
    decay_mult: 0
  }
  convolution_param {
    num_output: 192
    kernel_size: 1
    weight_filler {
      type: "xavier"
    }
    bias_filler {
      type: "constant"
      value: 0.2
    }
  }
}
layer {
  name: "inception_4a/prelu_1x1"
  type: "PReLU"
  bottom: "inception_4a/1x1"
  top: "inception_4a/1x1"
  param {
    lr_mult: 1
    decay_mult: 0
  }
  prelu_param {
    filler {
      type: "constant"
      value: 0.01
    }
  }
}
layer {
  name: "inception_4a/3x3_reduce"
  type: "Convolution"
  bottom: "pool3/3x3_s2"
  top: "inception_4a/3x3_reduce"
  param {
    lr_mult: 1
    decay_mult: 1
  }
  param {
    lr_mult: 2
    decay_mult: 0
  }
  convolution_param {
    num_output: 96
    kernel_size: 1
    weight_filler {
      type: "xavier"
    }
    bias_filler {
      type: "constant"
      value: 0.2
    }
  }
}
layer {
  name: "inception_4a/prelu_3x3_reduce"
  type: "PReLU"
  bottom: "inception_4a/3x3_reduce"
  top: "inception_4a/3x3_reduce"
  param {
    lr_mult: 1
    decay_mult: 0
  }
  prelu_param {
    filler {
      type: "constant"
      value: 0.01
    }
  }
}
layer {
  name: "inception_4a/3x3"
  type: "Convolution"
  bottom: "inception_4a/3x3_reduce"
  top: "inception_4a/3x3"
  param {
    lr_mult: 1
    decay_mult: 1
  }
  param {
    lr_mult: 2
    decay_mult: 0
  }
  convolution_param {
    num_output: 208
    pad: 1
    kernel_size: 3
    weight_filler {
      type: "xavier"
    }
    bias_filler {
      type: "constant"
      value: 0.2
    }
  }
}
layer {
  name: "inception_4a/prelu_3x3"
  type: "PReLU"
  bottom: "inception_4a/3x3"
  top: "inception_4a/3x3"
  param {
    lr_mult: 1
    decay_mult: 0
  }
  prelu_param {
    filler {
      type: "constant"
      value: 0.01
    }
  }
}
layer {
  name: "inception_4a/5x5_reduce"
  type: "Convolution"
  bottom: "pool3/3x3_s2"
  top: "inception_4a/5x5_reduce"
  param {
    lr_mult: 1
    decay_mult: 1
  }
  param {
    lr_mult: 2
    decay_mult: 0
  }
  convolution_param {
    num_output: 16
    kernel_size: 1
    weight_filler {
      type: "xavier"
    }
    bias_filler {
      type: "constant"
      value: 0.2
    }
  }
}
layer {
  name: "inception_4a/prelu_5x5_reduce"
  type: "PReLU"
  bottom: "inception_4a/5x5_reduce"
  top: "inception_4a/5x5_reduce"
  param {
    lr_mult: 1
    decay_mult: 0
  }
  prelu_param {
    filler {
      type: "constant"
      value: 0.01
    }
  }
}
layer {
  name: "inception_4a/5x5"
  type: "Convolution"
  bottom: "inception_4a/5x5_reduce"
  top: "inception_4a/5x5"
  param {
    lr_mult: 1
    decay_mult: 1
  }
  param {
    lr_mult: 2
    decay_mult: 0
  }
  convolution_param {
    num_output: 48
    pad: 2
    kernel_size: 5
    weight_filler {
      type: "xavier"
    }
    bias_filler {
      type: "constant"
      value: 0.2
    }
  }
}
layer {
  name: "inception_4a/prelu_5x5"
  type: "PReLU"
  bottom: "inception_4a/5x5"
  top: "inception_4a/5x5"
  param {
    lr_mult: 1
    decay_mult: 0
  }
  prelu_param {
    filler {
      type: "constant"
      value: 0.01
    }
  }
}
layer {
  name: "inception_4a/pool"
  type: "Pooling"
  bottom: "pool3/3x3_s2"
  top: "inception_4a/pool"
  pooling_param {
    pool: MAX
    kernel_size: 3
    stride: 1
    pad: 1
  }
}
layer {
  name: "inception_4a/pool_proj"
  type: "Convolution"
  bottom: "inception_4a/pool"
  top: "inception_4a/pool_proj"
  param {
    lr_mult: 1
    decay_mult: 1
  }
  param {
    lr_mult: 2
    decay_mult: 0
  }
  convolution_param {
    num_output: 64
    kernel_size: 1
    weight_filler {
      type: "xavier"
    }
    bias_filler {
      type: "constant"
      value: 0.2
    }
  }
}
layer {
  name: "inception_4a/prelu_pool_proj"
  type: "PReLU"
  bottom: "inception_4a/pool_proj"
  top: "inception_4a/pool_proj"
  param {
    lr_mult: 1
    decay_mult: 0
  }
  prelu_param {
    filler {
      type: "constant"
      value: 0.01
    }
  }
}
layer {
  name: "inception_4a/output"
  type: "Concat"
  bottom: "inception_4a/1x1"
  bottom: "inception_4a/3x3"
  bottom: "inception_4a/5x5"
  bottom: "inception_4a/pool_proj"
  top: "inception_4a/output"
}
layer {
  name: "loss1/ave_pool"
  type: "Pooling"
  bottom: "inception_4a/output"
  top: "loss1/ave_pool"
  pooling_param {
    pool: AVE
    kernel_size: 5
    stride: 3
  }
}
layer {
  name: "loss1/conv"
  type: "Convolution"
  bottom: "loss1/ave_pool"
  top: "loss1/conv"
  param {
    lr_mult: 1
    decay_mult: 1
  }
  param {
    lr_mult: 2
    decay_mult: 0
  }
  convolution_param {
    num_output: 128
    kernel_size: 1
    weight_filler {
      type: "xavier"
    }
    bias_filler {
      type: "constant"
      value: 0.2
    }
  }
}
layer {
  name: "loss1/prelu_conv"
  type: "PReLU"
  bottom: "loss1/conv"
  top: "loss1/conv"
  param {
    lr_mult: 1
    decay_mult: 0
  }
  prelu_param {
    filler {
      type: "constant"
      value: 0.01
    }
  }
}
layer {
  name: "loss1/fc"
  type: "InnerProduct"
  bottom: "loss1/conv"
  top: "loss1/fc"
  param {
    lr_mult: 1
    decay_mult: 1
  }
  param {
    lr_mult: 2
    decay_mult: 0
  }
  inner_product_param {
    num_output: 1024
    weight_filler {
      type: "xavier"
    }
    bias_filler {
      type: "constant"
      value: 0.2
    }
  }
}
layer {
  name: "loss1/prelu_fc"
  type: "PReLU"
  bottom: "loss1/fc"
  top: "loss1/fc"
  param {
    lr_mult: 1
    decay_mult: 0
  }
  prelu_param {
    filler {
      type: "constant"
      value: 0.01
    }
  }
}
layer {
  name: "loss1/drop_fc"
  type: "Dropout"
  bottom: "loss1/fc"
  top: "loss1/fc"
  dropout_param {
    dropout_ratio: 0.7
  }
}
layer {
  name: "loss1/classifier2"
  type: "InnerProduct"
  bottom: "loss1/fc"
  top: "loss1/classifier"
  param {
    lr_mult: 1
    decay_mult: 1
  }
  param {
    lr_mult: 2
    decay_mult: 0
  }
  inner_product_param {
    num_output: 2
    weight_filler {
      type: "xavier"
    }
    bias_filler {
      type: "constant"
      value: 0
    }
  }
}
layer {
  name: "loss1/loss"
  type: "SoftmaxWithLoss"
  bottom: "loss1/classifier"
  bottom: "label"
  top: "loss1/loss1"
  loss_weight: 0.3
}
layer {
  name: "inception_4b/1x1"
  type: "Convolution"
  bottom: "inception_4a/output"
  top: "inception_4b/1x1"
  param {
    lr_mult: 1
    decay_mult: 1
  }
  param {
    lr_mult: 2
    decay_mult: 0
  }
  convolution_param {
    num_output: 160
    kernel_size: 1
    weight_filler {
      type: "xavier"
    }
    bias_filler {
      type: "constant"
      value: 0.2
    }
  }
}
layer {
  name: "inception_4b/prelu_1x1"
  type: "PReLU"
  bottom: "inception_4b/1x1"
  top: "inception_4b/1x1"
  param {
    lr_mult: 1
    decay_mult: 0
  }
  prelu_param {
    filler {
      type: "constant"
      value: 0.01
    }
  }
}
layer {
  name: "inception_4b/3x3_reduce"
  type: "Convolution"
  bottom: "inception_4a/output"
  top: "inception_4b/3x3_reduce"
  param {
    lr_mult: 1
    decay_mult: 1
  }
  param {
    lr_mult: 2
    decay_mult: 0
  }
  convolution_param {
    num_output: 112
    kernel_size: 1
    weight_filler {
      type: "xavier"
    }
    bias_filler {
      type: "constant"
      value: 0.2
    }
  }
}
layer {
  name: "inception_4b/prelu_3x3_reduce"
  type: "PReLU"
  bottom: "inception_4b/3x3_reduce"
  top: "inception_4b/3x3_reduce"
  param {
    lr_mult: 1
    decay_mult: 0
  }
  prelu_param {
    filler {
      type: "constant"
      value: 0.01
    }
  }
}
layer {
  name: "inception_4b/3x3"
  type: "Convolution"
  bottom: "inception_4b/3x3_reduce"
  top: "inception_4b/3x3"
  param {
    lr_mult: 1
    decay_mult: 1
  }
  param {
    lr_mult: 2
    decay_mult: 0
  }
  convolution_param {
    num_output: 224
    pad: 1
    kernel_size: 3
    weight_filler {
      type: "xavier"
    }
    bias_filler {
      type: "constant"
      value: 0.2
    }
  }
}
layer {
  name: "inception_4b/prelu_3x3"
  type: "PReLU"
  bottom: "inception_4b/3x3"
  top: "inception_4b/3x3"
  param {
    lr_mult: 1
    decay_mult: 0
  }
  prelu_param {
    filler {
      type: "constant"
      value: 0.01
    }
  }
}
layer {
  name: "inception_4b/5x5_reduce"
  type: "Convolution"
  bottom: "inception_4a/output"
  top: "inception_4b/5x5_reduce"
  param {
    lr_mult: 1
    decay_mult: 1
  }
  param {
    lr_mult: 2
    decay_mult: 0
  }
  convolution_param {
    num_output: 24
    kernel_size: 1
    weight_filler {
      type: "xavier"
    }
    bias_filler {
      type: "constant"
      value: 0.2
    }
  }
}
layer {
  name: "inception_4b/prelu_5x5_reduce"
  type: "PReLU"
  bottom: "inception_4b/5x5_reduce"
  top: "inception_4b/5x5_reduce"
  param {
    lr_mult: 1
    decay_mult: 0
  }
  prelu_param {
    filler {
      type: "constant"
      value: 0.01
    }
  }
}
layer {
  name: "inception_4b/5x5"
  type: "Convolution"
  bottom: "inception_4b/5x5_reduce"
  top: "inception_4b/5x5"
  param {
    lr_mult: 1
    decay_mult: 1
  }
  param {
    lr_mult: 2
    decay_mult: 0
  }
  convolution_param {
    num_output: 64
    pad: 2
    kernel_size: 5
    weight_filler {
      type: "xavier"
    }
    bias_filler {
      type: "constant"
      value: 0.2
    }
  }
}
layer {
  name: "inception_4b/prelu_5x5"
  type: "PReLU"
  bottom: "inception_4b/5x5"
  top: "inception_4b/5x5"
  param {
    lr_mult: 1
    decay_mult: 0
  }
  prelu_param {
    filler {
      type: "constant"
      value: 0.01
    }
  }
}
layer {
  name: "inception_4b/pool"
  type: "Pooling"
  bottom: "inception_4a/output"
  top: "inception_4b/pool"
  pooling_param {
    pool: MAX
    kernel_size: 3
    stride: 1
    pad: 1
  }
}
layer {
  name: "inception_4b/pool_proj"
  type: "Convolution"
  bottom: "inception_4b/pool"
  top: "inception_4b/pool_proj"
  param {
    lr_mult: 1
    decay_mult: 1
  }
  param {
    lr_mult: 2
    decay_mult: 0
  }
  convolution_param {
    num_output: 64
    kernel_size: 1
    weight_filler {
      type: "xavier"
    }
    bias_filler {
      type: "constant"
      value: 0.2
    }
  }
}
layer {
  name: "inception_4b/prelu_pool_proj"
  type: "PReLU"
  bottom: "inception_4b/pool_proj"
  top: "inception_4b/pool_proj"
  param {
    lr_mult: 1
    decay_mult: 0
  }
  prelu_param {
    filler {
      type: "constant"
      value: 0.01
    }
  }
}
layer {
  name: "inception_4b/output"
  type: "Concat"
  bottom: "inception_4b/1x1"
  bottom: "inception_4b/3x3"
  bottom: "inception_4b/5x5"
  bottom: "inception_4b/pool_proj"
  top: "inception_4b/output"
}
layer {
  name: "inception_4c/1x1"
  type: "Convolution"
  bottom: "inception_4b/output"
  top: "inception_4c/1x1"
  param {
    lr_mult: 1
    decay_mult: 1
  }
  param {
    lr_mult: 2
    decay_mult: 0
  }
  convolution_param {
    num_output: 128
    kernel_size: 1
    weight_filler {
      type: "xavier"
    }
    bias_filler {
      type: "constant"
      value: 0.2
    }
  }
}
layer {
  name: "inception_4c/prelu_1x1"
  type: "PReLU"
  bottom: "inception_4c/1x1"
  top: "inception_4c/1x1"
  param {
    lr_mult: 1
    decay_mult: 0
  }
  prelu_param {
    filler {
      type: "constant"
      value: 0.01
    }
  }
}
layer {
  name: "inception_4c/3x3_reduce"
  type: "Convolution"
  bottom: "inception_4b/output"
  top: "inception_4c/3x3_reduce"
  param {
    lr_mult: 1
    decay_mult: 1
  }
  param {
    lr_mult: 2
    decay_mult: 0
  }
  convolution_param {
    num_output: 128
    kernel_size: 1
    weight_filler {
      type: "xavier"
    }
    bias_filler {
      type: "constant"
      value: 0.2
    }
  }
}
layer {
  name: "inception_4c/prelu_3x3_reduce"
  type: "PReLU"
  bottom: "inception_4c/3x3_reduce"
  top: "inception_4c/3x3_reduce"
  param {
    lr_mult: 1
    decay_mult: 0
  }
  prelu_param {
    filler {
      type: "constant"
      value: 0.01
    }
  }
}
layer {
  name: "inception_4c/3x3"
  type: "Convolution"
  bottom: "inception_4c/3x3_reduce"
  top: "inception_4c/3x3"
  param {
    lr_mult: 1
    decay_mult: 1
  }
  param {
    lr_mult: 2
    decay_mult: 0
  }
  convolution_param {
    num_output: 256
    pad: 1
    kernel_size: 3
    weight_filler {
      type: "xavier"
    }
    bias_filler {
      type: "constant"
      value: 0.2
    }
  }
}
layer {
  name: "inception_4c/prelu_3x3"
  type: "PReLU"
  bottom: "inception_4c/3x3"
  top: "inception_4c/3x3"
  param {
    lr_mult: 1
    decay_mult: 0
  }
  prelu_param {
    filler {
      type: "constant"
      value: 0.01
    }
  }
}
layer {
  name: "inception_4c/5x5_reduce"
  type: "Convolution"
  bottom: "inception_4b/output"
  top: "inception_4c/5x5_reduce"
  param {
    lr_mult: 1
    decay_mult: 1
  }
  param {
    lr_mult: 2
    decay_mult: 0
  }
  convolution_param {
    num_output: 24
    kernel_size: 1
    weight_filler {
      type: "xavier"
    }
    bias_filler {
      type: "constant"
      value: 0.2
    }
  }
}
layer {
  name: "inception_4c/prelu_5x5_reduce"
  type: "PReLU"
  bottom: "inception_4c/5x5_reduce"
  top: "inception_4c/5x5_reduce"
  param {
    lr_mult: 1
    decay_mult: 0
  }
  prelu_param {
    filler {
      type: "constant"
      value: 0.01
    }
  }
}
layer {
  name: "inception_4c/5x5"
  type: "Convolution"
  bottom: "inception_4c/5x5_reduce"
  top: "inception_4c/5x5"
  param {
    lr_mult: 1
    decay_mult: 1
  }
  param {
    lr_mult: 2
    decay_mult: 0
  }
  convolution_param {
    num_output: 64
    pad: 2
    kernel_size: 5
    weight_filler {
      type: "xavier"
    }
    bias_filler {
      type: "constant"
      value: 0.2
    }
  }
}
layer {
  name: "inception_4c/prelu_5x5"
  type: "PReLU"
  bottom: "inception_4c/5x5"
  top: "inception_4c/5x5"
  param {
    lr_mult: 1
    decay_mult: 0
  }
  prelu_param {
    filler {
      type: "constant"
      value: 0.01
    }
  }
}
layer {
  name: "inception_4c/pool"
  type: "Pooling"
  bottom: "inception_4b/output"
  top: "inception_4c/pool"
  pooling_param {
    pool: MAX
    kernel_size: 3
    stride: 1
    pad: 1
  }
}
layer {
  name: "inception_4c/pool_proj"
  type: "Convolution"
  bottom: "inception_4c/pool"
  top: "inception_4c/pool_proj"
  param {
    lr_mult: 1
    decay_mult: 1
  }
  param {
    lr_mult: 2
    decay_mult: 0
  }
  convolution_param {
    num_output: 64
    kernel_size: 1
    weight_filler {
      type: "xavier"
    }
    bias_filler {
      type: "constant"
      value: 0.2
    }
  }
}
layer {
  name: "inception_4c/prelu_pool_proj"
  type: "PReLU"
  bottom: "inception_4c/pool_proj"
  top: "inception_4c/pool_proj"
  param {
    lr_mult: 1
    decay_mult: 0
  }
  prelu_param {
    filler {
      type: "constant"
      value: 0.01
    }
  }
}
layer {
  name: "inception_4c/output"
  type: "Concat"
  bottom: "inception_4c/1x1"
  bottom: "inception_4c/3x3"
  bottom: "inception_4c/5x5"
  bottom: "inception_4c/pool_proj"
  top: "inception_4c/output"
}
layer {
  name: "inception_4d/1x1"
  type: "Convolution"
  bottom: "inception_4c/output"
  top: "inception_4d/1x1"
  param {
    lr_mult: 1
    decay_mult: 1
  }
  param {
    lr_mult: 2
    decay_mult: 0
  }
  convolution_param {
    num_output: 112
    kernel_size: 1
    weight_filler {
      type: "xavier"
    }
    bias_filler {
      type: "constant"
      value: 0.2
    }
  }
}
layer {
  name: "inception_4d/prelu_1x1"
  type: "PReLU"
  bottom: "inception_4d/1x1"
  top: "inception_4d/1x1"
  param {
    lr_mult: 1
    decay_mult: 0
  }
  prelu_param {
    filler {
      type: "constant"
      value: 0.01
    }
  }
}
layer {
  name: "inception_4d/3x3_reduce"
  type: "Convolution"
  bottom: "inception_4c/output"
  top: "inception_4d/3x3_reduce"
  param {
    lr_mult: 1
    decay_mult: 1
  }
  param {
    lr_mult: 2
    decay_mult: 0
  }
  convolution_param {
    num_output: 144
    kernel_size: 1
    weight_filler {
      type: "xavier"
    }
    bias_filler {
      type: "constant"
      value: 0.2
    }
  }
}
layer {
  name: "inception_4d/prelu_3x3_reduce"
  type: "PReLU"
  bottom: "inception_4d/3x3_reduce"
  top: "inception_4d/3x3_reduce"
  param {
    lr_mult: 1
    decay_mult: 0
  }
  prelu_param {
    filler {
      type: "constant"
      value: 0.01
    }
  }
}
layer {
  name: "inception_4d/3x3"
  type: "Convolution"
  bottom: "inception_4d/3x3_reduce"
  top: "inception_4d/3x3"
  param {
    lr_mult: 1
    decay_mult: 1
  }
  param {
    lr_mult: 2
    decay_mult: 0
  }
  convolution_param {
    num_output: 288
    pad: 1
    kernel_size: 3
    weight_filler {
      type: "xavier"
    }
    bias_filler {
      type: "constant"
      value: 0.2
    }
  }
}
layer {
  name: "inception_4d/prelu_3x3"
  type: "PReLU"
  bottom: "inception_4d/3x3"
  top: "inception_4d/3x3"
  param {
    lr_mult: 1
    decay_mult: 0
  }
  prelu_param {
    filler {
      type: "constant"
      value: 0.01
    }
  }
}
layer {
  name: "inception_4d/5x5_reduce"
  type: "Convolution"
  bottom: "inception_4c/output"
  top: "inception_4d/5x5_reduce"
  param {
    lr_mult: 1
    decay_mult: 1
  }
  param {
    lr_mult: 2
    decay_mult: 0
  }
  convolution_param {
    num_output: 32
    kernel_size: 1
    weight_filler {
      type: "xavier"
    }
    bias_filler {
      type: "constant"
      value: 0.2
    }
  }
}
layer {
  name: "inception_4d/prelu_5x5_reduce"
  type: "PReLU"
  bottom: "inception_4d/5x5_reduce"
  top: "inception_4d/5x5_reduce"
  param {
    lr_mult: 1
    decay_mult: 0
  }
  prelu_param {
    filler {
      type: "constant"
      value: 0.01
    }
  }
}
layer {
  name: "inception_4d/5x5"
  type: "Convolution"
  bottom: "inception_4d/5x5_reduce"
  top: "inception_4d/5x5"
  param {
    lr_mult: 1
    decay_mult: 1
  }
  param {
    lr_mult: 2
    decay_mult: 0
  }
  convolution_param {
    num_output: 64
    pad: 2
    kernel_size: 5
    weight_filler {
      type: "xavier"
    }
    bias_filler {
      type: "constant"
      value: 0.2
    }
  }
}
layer {
  name: "inception_4d/prelu_5x5"
  type: "PReLU"
  bottom: "inception_4d/5x5"
  top: "inception_4d/5x5"
  param {
    lr_mult: 1
    decay_mult: 0
  }
  prelu_param {
    filler {
      type: "constant"
      value: 0.01
    }
  }
}
layer {
  name: "inception_4d/pool"
  type: "Pooling"
  bottom: "inception_4c/output"
  top: "inception_4d/pool"
  pooling_param {
    pool: MAX
    kernel_size: 3
    stride: 1
    pad: 1
  }
}
layer {
  name: "inception_4d/pool_proj"
  type: "Convolution"
  bottom: "ince
I1028 13:26:09.692147 28156 layer_factory.hpp:76] Creating layer data
I1028 13:26:09.692570 28156 net.cpp:106] Creating Layer data
I1028 13:26:09.692598 28156 net.cpp:411] data -> data
I1028 13:26:09.692636 28156 net.cpp:411] data -> label
I1028 13:26:09.694344 28160 db_lmdb.cpp:38] Opened lmdb ../../LMDB/train_4-lmdb
I1028 13:26:09.706642 28156 data_layer.cpp:41] output data size: 32,3,224,224
I1028 13:26:09.769592 28156 net.cpp:150] Setting up data
I1028 13:26:09.769636 28156 net.cpp:157] Top shape: 32 3 224 224 (4816896)
I1028 13:26:09.769644 28156 net.cpp:157] Top shape: 32 (32)
I1028 13:26:09.769647 28156 net.cpp:165] Memory required for data: 19267712
I1028 13:26:09.769659 28156 layer_factory.hpp:76] Creating layer label_data_1_split
I1028 13:26:09.769690 28156 net.cpp:106] Creating Layer label_data_1_split
I1028 13:26:09.769696 28156 net.cpp:454] label_data_1_split <- label
I1028 13:26:09.769711 28156 net.cpp:411] label_data_1_split -> label_data_1_split_0
I1028 13:26:09.769726 28156 net.cpp:411] label_data_1_split -> label_data_1_split_1
I1028 13:26:09.769734 28156 net.cpp:411] label_data_1_split -> label_data_1_split_2
I1028 13:26:09.769795 28156 net.cpp:150] Setting up label_data_1_split
I1028 13:26:09.769804 28156 net.cpp:157] Top shape: 32 (32)
I1028 13:26:09.769817 28156 net.cpp:157] Top shape: 32 (32)
I1028 13:26:09.769822 28156 net.cpp:157] Top shape: 32 (32)
I1028 13:26:09.769826 28156 net.cpp:165] Memory required for data: 19268096
I1028 13:26:09.769830 28156 layer_factory.hpp:76] Creating layer conv1/7x7_s2
I1028 13:26:09.769845 28156 net.cpp:106] Creating Layer conv1/7x7_s2
I1028 13:26:09.769852 28156 net.cpp:454] conv1/7x7_s2 <- data
I1028 13:26:09.769860 28156 net.cpp:411] conv1/7x7_s2 -> conv1/7x7_s2
I1028 13:26:09.983615 28156 cudnn_conv_layer.cpp:194] Reallocating workspace storage: 225816
I1028 13:26:09.983903 28156 net.cpp:150] Setting up conv1/7x7_s2
I1028 13:26:09.983918 28156 net.cpp:157] Top shape: 32 64 112 112 (25690112)
I1028 13:26:09.983930 28156 net.cpp:165] Memory required for data: 122028544
I1028 13:26:09.983950 28156 layer_factory.hpp:76] Creating layer conv1/prelu_7x7
I1028 13:26:09.983973 28156 net.cpp:106] Creating Layer conv1/prelu_7x7
I1028 13:26:09.983984 28156 net.cpp:454] conv1/prelu_7x7 <- conv1/7x7_s2
I1028 13:26:09.983993 28156 net.cpp:397] conv1/prelu_7x7 -> conv1/7x7_s2 (in-place)
I1028 13:26:09.985882 28156 net.cpp:150] Setting up conv1/prelu_7x7
I1028 13:26:09.985903 28156 net.cpp:157] Top shape: 32 64 112 112 (25690112)
I1028 13:26:09.985906 28156 net.cpp:165] Memory required for data: 224788992
I1028 13:26:09.985916 28156 layer_factory.hpp:76] Creating layer pool1/3x3_s2
I1028 13:26:09.985929 28156 net.cpp:106] Creating Layer pool1/3x3_s2
I1028 13:26:09.985934 28156 net.cpp:454] pool1/3x3_s2 <- conv1/7x7_s2
I1028 13:26:09.985940 28156 net.cpp:411] pool1/3x3_s2 -> pool1/3x3_s2
I1028 13:26:09.986353 28156 net.cpp:150] Setting up pool1/3x3_s2
I1028 13:26:09.986366 28156 net.cpp:157] Top shape: 32 64 56 56 (6422528)
I1028 13:26:09.986369 28156 net.cpp:165] Memory required for data: 250479104
I1028 13:26:09.986374 28156 layer_factory.hpp:76] Creating layer pool1/norm1
I1028 13:26:09.986385 28156 net.cpp:106] Creating Layer pool1/norm1
I1028 13:26:09.986390 28156 net.cpp:454] pool1/norm1 <- pool1/3x3_s2
I1028 13:26:09.986395 28156 net.cpp:411] pool1/norm1 -> pool1/norm1
I1028 13:26:09.986559 28156 net.cpp:150] Setting up pool1/norm1
I1028 13:26:09.986569 28156 net.cpp:157] Top shape: 32 64 56 56 (6422528)
I1028 13:26:09.986580 28156 net.cpp:165] Memory required for data: 276169216
I1028 13:26:09.986585 28156 layer_factory.hpp:76] Creating layer conv2/3x3_reduce
I1028 13:26:09.986595 28156 net.cpp:106] Creating Layer conv2/3x3_reduce
I1028 13:26:09.986600 28156 net.cpp:454] conv2/3x3_reduce <- pool1/norm1
I1028 13:26:09.986606 28156 net.cpp:411] conv2/3x3_reduce -> conv2/3x3_reduce
I1028 13:26:09.987951 28156 cudnn_conv_layer.cpp:194] Reallocating workspace storage: 63000
I1028 13:26:09.987972 28156 net.cpp:150] Setting up conv2/3x3_reduce
I1028 13:26:09.987979 28156 net.cpp:157] Top shape: 32 64 56 56 (6422528)
I1028 13:26:09.987983 28156 net.cpp:165] Memory required for data: 301859328
I1028 13:26:09.987992 28156 layer_factory.hpp:76] Creating layer conv2/prelu_3x3_reduce
I1028 13:26:09.987999 28156 net.cpp:106] Creating Layer conv2/prelu_3x3_reduce
I1028 13:26:09.988004 28156 net.cpp:454] conv2/prelu_3x3_reduce <- conv2/3x3_reduce
I1028 13:26:09.988011 28156 net.cpp:397] conv2/prelu_3x3_reduce -> conv2/3x3_reduce (in-place)
I1028 13:26:09.988605 28156 net.cpp:150] Setting up conv2/prelu_3x3_reduce
I1028 13:26:09.988615 28156 net.cpp:157] Top shape: 32 64 56 56 (6422528)
I1028 13:26:09.988620 28156 net.cpp:165] Memory required for data: 327549440
I1028 13:26:09.988633 28156 layer_factory.hpp:76] Creating layer conv2/3x3
I1028 13:26:09.988642 28156 net.cpp:106] Creating Layer conv2/3x3
I1028 13:26:09.988646 28156 net.cpp:454] conv2/3x3 <- conv2/3x3_reduce
I1028 13:26:09.988653 28156 net.cpp:411] conv2/3x3 -> conv2/3x3
I1028 13:26:09.990597 28156 cudnn_conv_layer.cpp:194] Reallocating workspace storage: 63000
I1028 13:26:09.990617 28156 net.cpp:150] Setting up conv2/3x3
I1028 13:26:09.990624 28156 net.cpp:157] Top shape: 32 192 56 56 (19267584)
I1028 13:26:09.990628 28156 net.cpp:165] Memory required for data: 404619776
I1028 13:26:09.990635 28156 layer_factory.hpp:76] Creating layer conv2/prelu_3x3
I1028 13:26:09.990643 28156 net.cpp:106] Creating Layer conv2/prelu_3x3
I1028 13:26:09.990648 28156 net.cpp:454] conv2/prelu_3x3 <- conv2/3x3
I1028 13:26:09.990654 28156 net.cpp:397] conv2/prelu_3x3 -> conv2/3x3 (in-place)
I1028 13:26:09.991737 28156 net.cpp:150] Setting up conv2/prelu_3x3
I1028 13:26:09.991751 28156 net.cpp:157] Top shape: 32 192 56 56 (19267584)
I1028 13:26:09.991756 28156 net.cpp:165] Memory required for data: 481690112
I1028 13:26:09.991783 28156 layer_factory.hpp:76] Creating layer conv2/norm2
I1028 13:26:09.991792 28156 net.cpp:106] Creating Layer conv2/norm2
I1028 13:26:09.991797 28156 net.cpp:454] conv2/norm2 <- conv2/3x3
I1028 13:26:09.991803 28156 net.cpp:411] conv2/norm2 -> conv2/norm2
I1028 13:26:09.991961 28156 net.cpp:150] Setting up conv2/norm2
I1028 13:26:09.991971 28156 net.cpp:157] Top shape: 32 192 56 56 (19267584)
I1028 13:26:09.991976 28156 net.cpp:165] Memory required for data: 558760448
I1028 13:26:09.991981 28156 layer_factory.hpp:76] Creating layer pool2/3x3_s2
I1028 13:26:09.991987 28156 net.cpp:106] Creating Layer pool2/3x3_s2
I1028 13:26:09.991991 28156 net.cpp:454] pool2/3x3_s2 <- conv2/norm2
I1028 13:26:09.991997 28156 net.cpp:411] pool2/3x3_s2 -> pool2/3x3_s2
I1028 13:26:09.992333 28156 net.cpp:150] Setting up pool2/3x3_s2
I1028 13:26:09.992343 28156 net.cpp:157] Top shape: 32 192 28 28 (4816896)
I1028 13:26:09.992354 28156 net.cpp:165] Memory required for data: 578028032
I1028 13:26:09.992359 28156 layer_factory.hpp:76] Creating layer pool2/3x3_s2_pool2/3x3_s2_0_split
I1028 13:26:09.992365 28156 net.cpp:106] Creating Layer pool2/3x3_s2_pool2/3x3_s2_0_split
I1028 13:26:09.992377 28156 net.cpp:454] pool2/3x3_s2_pool2/3x3_s2_0_split <- pool2/3x3_s2
I1028 13:26:09.992383 28156 net.cpp:411] pool2/3x3_s2_pool2/3x3_s2_0_split -> pool2/3x3_s2_pool2/3x3_s2_0_split_0
I1028 13:26:09.992390 28156 net.cpp:411] pool2/3x3_s2_pool2/3x3_s2_0_split -> pool2/3x3_s2_pool2/3x3_s2_0_split_1
I1028 13:26:09.992398 28156 net.cpp:411] pool2/3x3_s2_pool2/3x3_s2_0_split -> pool2/3x3_s2_pool2/3x3_s2_0_split_2
I1028 13:26:09.992403 28156 net.cpp:411] pool2/3x3_s2_pool2/3x3_s2_0_split -> pool2/3x3_s2_pool2/3x3_s2_0_split_3
I1028 13:26:09.992463 28156 net.cpp:150] Setting up pool2/3x3_s2_pool2/3x3_s2_0_split
I1028 13:26:09.992478 28156 net.cpp:157] Top shape: 32 192 28 28 (4816896)
I1028 13:26:09.992483 28156 net.cpp:157] Top shape: 32 192 28 28 (4816896)
I1028 13:26:09.992496 28156 net.cpp:157] Top shape: 32 192 28 28 (4816896)
I1028 13:26:09.992501 28156 net.cpp:157] Top shape: 32 192 28 28 (4816896)
I1028 13:26:09.992504 28156 net.cpp:165] Memory required for data: 655098368
I1028 13:26:09.992508 28156 layer_factory.hpp:76] Creating layer inception_3a/1x1
I1028 13:26:09.992517 28156 net.cpp:106] Creating Layer inception_3a/1x1
I1028 13:26:09.992522 28156 net.cpp:454] inception_3a/1x1 <- pool2/3x3_s2_pool2/3x3_s2_0_split_0
I1028 13:26:09.992535 28156 net.cpp:411] inception_3a/1x1 -> inception_3a/1x1
I1028 13:26:09.993980 28156 cudnn_conv_layer.cpp:194] Reallocating workspace storage: 20664
I1028 13:26:09.994004 28156 net.cpp:150] Setting up inception_3a/1x1
I1028 13:26:09.994011 28156 net.cpp:157] Top shape: 32 64 28 28 (1605632)
I1028 13:26:09.994035 28156 net.cpp:165] Memory required for data: 661520896
I1028 13:26:09.994043 28156 layer_factory.hpp:76] Creating layer inception_3a/prelu_1x1
I1028 13:26:09.994053 28156 net.cpp:106] Creating Layer inception_3a/prelu_1x1
I1028 13:26:09.994058 28156 net.cpp:454] inception_3a/prelu_1x1 <- inception_3a/1x1
I1028 13:26:09.994073 28156 net.cpp:397] inception_3a/prelu_1x1 -> inception_3a/1x1 (in-place)
I1028 13:26:09.994611 28156 net.cpp:150] Setting up inception_3a/prelu_1x1
I1028 13:26:09.994626 28156 net.cpp:157] Top shape: 32 64 28 28 (1605632)
I1028 13:26:09.994629 28156 net.cpp:165] Memory required for data: 667943424
I1028 13:26:09.994635 28156 layer_factory.hpp:76] Creating layer inception_3a/3x3_reduce
I1028 13:26:09.994643 28156 net.cpp:106] Creating Layer inception_3a/3x3_reduce
I1028 13:26:09.994647 28156 net.cpp:454] inception_3a/3x3_reduce <- pool2/3x3_s2_pool2/3x3_s2_0_split_1
I1028 13:26:09.994655 28156 net.cpp:411] inception_3a/3x3_reduce -> inception_3a/3x3_reduce
I1028 13:26:09.995570 28156 cudnn_conv_layer.cpp:194] Reallocating workspace storage: 20664
I1028 13:26:09.995602 28156 net.cpp:150] Setting up inception_3a/3x3_reduce
I1028 13:26:09.995610 28156 net.cpp:157] Top shape: 32 96 28 28 (2408448)
I1028 13:26:09.995615 28156 net.cpp:165] Memory required for data: 677577216
I1028 13:26:09.995635 28156 layer_factory.hpp:76] Creating layer inception_3a/prelu_3x3_reduce
I1028 13:26:09.995647 28156 net.cpp:106] Creating Layer inception_3a/prelu_3x3_reduce
I1028 13:26:09.995662 28156 net.cpp:454] inception_3a/prelu_3x3_reduce <- inception_3a/3x3_reduce
I1028 13:26:09.995677 28156 net.cpp:397] inception_3a/prelu_3x3_reduce -> inception_3a/3x3_reduce (in-place)
I1028 13:26:09.995818 28156 net.cpp:150] Setting up inception_3a/prelu_3x3_reduce
I1028 13:26:09.995827 28156 net.cpp:157] Top shape: 32 96 28 28 (2408448)
I1028 13:26:09.995831 28156 net.cpp:165] Memory required for data: 687211008
I1028 13:26:09.995836 28156 layer_factory.hpp:76] Creating layer inception_3a/3x3
I1028 13:26:09.995846 28156 net.cpp:106] Creating Layer inception_3a/3x3
I1028 13:26:09.995851 28156 net.cpp:454] inception_3a/3x3 <- inception_3a/3x3_reduce
I1028 13:26:09.995857 28156 net.cpp:411] inception_3a/3x3 -> inception_3a/3x3
I1028 13:26:09.997838 28156 cudnn_conv_layer.cpp:194] Reallocating workspace storage: 20664
I1028 13:26:09.997877 28156 net.cpp:150] Setting up inception_3a/3x3
I1028 13:26:09.997885 28156 net.cpp:157] Top shape: 32 128 28 28 (3211264)
I1028 13:26:09.997891 28156 net.cpp:165] Memory required for data: 700056064
I1028 13:26:09.997905 28156 layer_factory.hpp:76] Creating layer inception_3a/prelu_3x3
I1028 13:26:09.997916 28156 net.cpp:106] Creating Layer inception_3a/prelu_3x3
I1028 13:26:09.997921 28156 net.cpp:454] inception_3a/prelu_3x3 <- inception_3a/3x3
I1028 13:26:09.997930 28156 net.cpp:397] inception_3a/prelu_3x3 -> inception_3a/3x3 (in-place)
I1028 13:26:09.998087 28156 net.cpp:150] Setting up inception_3a/prelu_3x3
I1028 13:26:09.998101 28156 net.cpp:157] Top shape: 32 128 28 28 (3211264)
I1028 13:26:09.998106 28156 net.cpp:165] Memory required for data: 712901120
I1028 13:26:09.998112 28156 layer_factory.hpp:76] Creating layer inception_3a/5x5_reduce
I1028 13:26:09.998121 28156 net.cpp:106] Creating Layer inception_3a/5x5_reduce
I1028 13:26:09.998128 28156 net.cpp:454] inception_3a/5x5_reduce <- pool2/3x3_s2_pool2/3x3_s2_0_split_2
I1028 13:26:09.998136 28156 net.cpp:411] inception_3a/5x5_reduce -> inception_3a/5x5_reduce
I1028 13:26:09.999413 28156 cudnn_conv_layer.cpp:194] Reallocating workspace storage: 20664
I1028 13:26:09.999442 28156 net.cpp:150] Setting up inception_3a/5x5_reduce
I1028 13:26:09.999450 28156 net.cpp:157] Top shape: 32 16 28 28 (401408)
I1028 13:26:09.999454 28156 net.cpp:165] Memory required for data: 714506752
I1028 13:26:09.999462 28156 layer_factory.hpp:76] Creating layer inception_3a/prelu_5x5_reduce
I1028 13:26:09.999474 28156 net.cpp:106] Creating Layer inception_3a/prelu_5x5_reduce
I1028 13:26:09.999478 28156 net.cpp:454] inception_3a/prelu_5x5_reduce <- inception_3a/5x5_reduce
I1028 13:26:09.999487 28156 net.cpp:397] inception_3a/prelu_5x5_reduce -> inception_3a/5x5_reduce (in-place)
I1028 13:26:09.999598 28156 net.cpp:150] Setting up inception_3a/prelu_5x5_reduce
I1028 13:26:09.999606 28156 net.cpp:157] Top shape: 32 16 28 28 (401408)
I1028 13:26:09.999610 28156 net.cpp:165] Memory required for data: 716112384
I1028 13:26:09.999626 28156 layer_factory.hpp:76] Creating layer inception_3a/5x5
I1028 13:26:09.999635 28156 net.cpp:106] Creating Layer inception_3a/5x5
I1028 13:26:09.999639 28156 net.cpp:454] inception_3a/5x5 <- inception_3a/5x5_reduce
I1028 13:26:09.999647 28156 net.cpp:411] inception_3a/5x5 -> inception_3a/5x5
I1028 13:26:10.000711 28156 cudnn_conv_layer.cpp:194] Reallocating workspace storage: 20664
I1028 13:26:10.000732 28156 net.cpp:150] Setting up inception_3a/5x5
I1028 13:26:10.000751 28156 net.cpp:157] Top shape: 32 32 28 28 (802816)
I1028 13:26:10.000756 28156 net.cpp:165] Memory required for data: 719323648
I1028 13:26:10.000763 28156 layer_factory.hpp:76] Creating layer inception_3a/prelu_5x5
I1028 13:26:10.000773 28156 net.cpp:106] Creating Layer inception_3a/prelu_5x5
I1028 13:26:10.000777 28156 net.cpp:454] inception_3a/prelu_5x5 <- inception_3a/5x5
I1028 13:26:10.000785 28156 net.cpp:397] inception_3a/prelu_5x5 -> inception_3a/5x5 (in-place)
I1028 13:26:10.000906 28156 net.cpp:150] Setting up inception_3a/prelu_5x5
I1028 13:26:10.000916 28156 net.cpp:157] Top shape: 32 32 28 28 (802816)
I1028 13:26:10.000919 28156 net.cpp:165] Memory required for data: 722534912
I1028 13:26:10.000924 28156 layer_factory.hpp:76] Creating layer inception_3a/pool
I1028 13:26:10.000933 28156 net.cpp:106] Creating Layer inception_3a/pool
I1028 13:26:10.000938 28156 net.cpp:454] inception_3a/pool <- pool2/3x3_s2_pool2/3x3_s2_0_split_3
I1028 13:26:10.000946 28156 net.cpp:411] inception_3a/pool -> inception_3a/pool
I1028 13:26:10.001116 28156 net.cpp:150] Setting up inception_3a/pool
I1028 13:26:10.001127 28156 net.cpp:157] Top shape: 32 192 28 28 (4816896)
I1028 13:26:10.001130 28156 net.cpp:165] Memory required for data: 741802496
I1028 13:26:10.001134 28156 layer_factory.hpp:76] Creating layer inception_3a/pool_proj
I1028 13:26:10.001143 28156 net.cpp:106] Creating Layer inception_3a/pool_proj
I1028 13:26:10.001149 28156 net.cpp:454] inception_3a/pool_proj <- inception_3a/pool
I1028 13:26:10.001157 28156 net.cpp:411] inception_3a/pool_proj -> inception_3a/pool_proj
I1028 13:26:10.002137 28156 cudnn_conv_layer.cpp:194] Reallocating workspace storage: 20664
I1028 13:26:10.002156 28156 net.cpp:150] Setting up inception_3a/pool_proj
I1028 13:26:10.002164 28156 net.cpp:157] Top shape: 32 32 28 28 (802816)
I1028 13:26:10.002168 28156 net.cpp:165] Memory required for data: 745013760
I1028 13:26:10.002176 28156 layer_factory.hpp:76] Creating layer inception_3a/prelu_pool_proj
I1028 13:26:10.002183 28156 net.cpp:106] Creating Layer inception_3a/prelu_pool_proj
I1028 13:26:10.002189 28156 net.cpp:454] inception_3a/prelu_pool_proj <- inception_3a/pool_proj
I1028 13:26:10.002195 28156 net.cpp:397] inception_3a/prelu_pool_proj -> inception_3a/pool_proj (in-place)
I1028 13:26:10.002281 28156 net.cpp:150] Setting up inception_3a/prelu_pool_proj
I1028 13:26:10.002290 28156 net.cpp:157] Top shape: 32 32 28 28 (802816)
I1028 13:26:10.002295 28156 net.cpp:165] Memory required for data: 748225024
I1028 13:26:10.002300 28156 layer_factory.hpp:76] Creating layer inception_3a/output
I1028 13:26:10.002310 28156 net.cpp:106] Creating Layer inception_3a/output
I1028 13:26:10.002316 28156 net.cpp:454] inception_3a/output <- inception_3a/1x1
I1028 13:26:10.002321 28156 net.cpp:454] inception_3a/output <- inception_3a/3x3
I1028 13:26:10.002326 28156 net.cpp:454] inception_3a/output <- inception_3a/5x5
I1028 13:26:10.002329 28156 net.cpp:454] inception_3a/output <- inception_3a/pool_proj
I1028 13:26:10.002336 28156 net.cpp:411] inception_3a/output -> inception_3a/output
I1028 13:26:10.002375 28156 net.cpp:150] Setting up inception_3a/output
I1028 13:26:10.002383 28156 net.cpp:157] Top shape: 32 256 28 28 (6422528)
I1028 13:26:10.002388 28156 net.cpp:165] Memory required for data: 773915136
I1028 13:26:10.002392 28156 layer_factory.hpp:76] Creating layer inception_3a/output_inception_3a/output_0_split
I1028 13:26:10.002404 28156 net.cpp:106] Creating Layer inception_3a/output_inception_3a/output_0_split
I1028 13:26:10.002416 28156 net.cpp:454] inception_3a/output_inception_3a/output_0_split <- inception_3a/output
I1028 13:26:10.002425 28156 net.cpp:411] inception_3a/output_inception_3a/output_0_split -> inception_3a/output_inception_3a/output_0_split_0
I1028 13:26:10.002432 28156 net.cpp:411] inception_3a/output_inception_3a/output_0_split -> inception_3a/output_inception_3a/output_0_split_1
I1028 13:26:10.002440 28156 net.cpp:411] inception_3a/output_inception_3a/output_0_split -> inception_3a/output_inception_3a/output_0_split_2
I1028 13:26:10.002455 28156 net.cpp:411] inception_3a/output_inception_3a/output_0_split -> inception_3a/output_inception_3a/output_0_split_3
I1028 13:26:10.002511 28156 net.cpp:150] Setting up inception_3a/output_inception_3a/output_0_split
I1028 13:26:10.002519 28156 net.cpp:157] Top shape: 32 256 28 28 (6422528)
I1028 13:26:10.002524 28156 net.cpp:157] Top shape: 32 256 28 28 (6422528)
I1028 13:26:10.002529 28156 net.cpp:157] Top shape: 32 256 28 28 (6422528)
I1028 13:26:10.002544 28156 net.cpp:157] Top shape: 32 256 28 28 (6422528)
I1028 13:26:10.002549 28156 net.cpp:165] Memory required for data: 876675584
I1028 13:26:10.002553 28156 layer_factory.hpp:76] Creating layer inception_3b/1x1
I1028 13:26:10.002560 28156 net.cpp:106] Creating Layer inception_3b/1x1
I1028 13:26:10.002564 28156 net.cpp:454] inception_3b/1x1 <- inception_3a/output_inception_3a/output_0_split_0
I1028 13:26:10.002578 28156 net.cpp:411] inception_3b/1x1 -> inception_3b/1x1
I1028 13:26:10.003703 28156 cudnn_conv_layer.cpp:194] Reallocating workspace storage: 20664
I1028 13:26:10.003722 28156 net.cpp:150] Setting up inception_3b/1x1
I1028 13:26:10.003731 28156 net.cpp:157] Top shape: 32 128 28 28 (3211264)
I1028 13:26:10.003734 28156 net.cpp:165] Memory required for data: 889520640
I1028 13:26:10.003741 28156 layer_factory.hpp:76] Creating layer inception_3b/prelu_1x1
I1028 13:26:10.003749 28156 net.cpp:106] Creating Layer inception_3b/prelu_1x1
I1028 13:26:10.003754 28156 net.cpp:454] inception_3b/prelu_1x1 <- inception_3b/1x1
I1028 13:26:10.003762 28156 net.cpp:397] inception_3b/prelu_1x1 -> inception_3b/1x1 (in-place)
I1028 13:26:10.004338 28156 net.cpp:150] Setting up inception_3b/prelu_1x1
I1028 13:26:10.004350 28156 net.cpp:157] Top shape: 32 128 28 28 (3211264)
I1028 13:26:10.004354 28156 net.cpp:165] Memory required for data: 902365696
I1028 13:26:10.004360 28156 layer_factory.hpp:76] Creating layer inception_3b/3x3_reduce
I1028 13:26:10.004369 28156 net.cpp:106] Creating Layer inception_3b/3x3_reduce
I1028 13:26:10.004374 28156 net.cpp:454] inception_3b/3x3_reduce <- inception_3a/output_inception_3a/output_0_split_1
I1028 13:26:10.004382 28156 net.cpp:411] inception_3b/3x3_reduce -> inception_3b/3x3_reduce
I1028 13:26:10.005522 28156 cudnn_conv_layer.cpp:194] Reallocating workspace storage: 20664
I1028 13:26:10.005543 28156 net.cpp:150] Setting up inception_3b/3x3_reduce
I1028 13:26:10.005552 28156 net.cpp:157] Top shape: 32 128 28 28 (3211264)
I1028 13:26:10.005556 28156 net.cpp:165] Memory required for data: 915210752
I1028 13:26:10.005563 28156 layer_factory.hpp:76] Creating layer inception_3b/prelu_3x3_reduce
I1028 13:26:10.005579 28156 net.cpp:106] Creating Layer inception_3b/prelu_3x3_reduce
I1028 13:26:10.005584 28156 net.cpp:454] inception_3b/prelu_3x3_reduce <- inception_3b/3x3_reduce
I1028 13:26:10.005590 28156 net.cpp:397] inception_3b/prelu_3x3_reduce -> inception_3b/3x3_reduce (in-place)
I1028 13:26:10.005717 28156 net.cpp:150] Setting up inception_3b/prelu_3x3_reduce
I1028 13:26:10.005727 28156 net.cpp:157] Top shape: 32 128 28 28 (3211264)
I1028 13:26:10.005729 28156 net.cpp:165] Memory required for data: 928055808
I1028 13:26:10.005743 28156 layer_factory.hpp:76] Creating layer inception_3b/3x3
I1028 13:26:10.005754 28156 net.cpp:106] Creating Layer inception_3b/3x3
I1028 13:26:10.005760 28156 net.cpp:454] inception_3b/3x3 <- inception_3b/3x3_reduce
I1028 13:26:10.005767 28156 net.cpp:411] inception_3b/3x3 -> inception_3b/3x3
I1028 13:26:10.008378 28156 cudnn_conv_layer.cpp:194] Reallocating workspace storage: 20664
I1028 13:26:10.008399 28156 net.cpp:150] Setting up inception_3b/3x3
I1028 13:26:10.008405 28156 net.cpp:157] Top shape: 32 192 28 28 (4816896)
I1028 13:26:10.008409 28156 net.cpp:165] Memory required for data: 947323392
I1028 13:26:10.008416 28156 layer_factory.hpp:76] Creating layer inception_3b/prelu_3x3
I1028 13:26:10.008424 28156 net.cpp:106] Creating Layer inception_3b/prelu_3x3
I1028 13:26:10.008429 28156 net.cpp:454] inception_3b/prelu_3x3 <- inception_3b/3x3
I1028 13:26:10.008435 28156 net.cpp:397] inception_3b/prelu_3x3 -> inception_3b/3x3 (in-place)
I1028 13:26:10.009028 28156 net.cpp:150] Setting up inception_3b/prelu_3x3
I1028 13:26:10.009040 28156 net.cpp:157] Top shape: 32 192 28 28 (4816896)
I1028 13:26:10.009044 28156 net.cpp:165] Memory required for data: 966590976
I1028 13:26:10.009050 28156 layer_factory.hpp:76] Creating layer inception_3b/5x5_reduce
I1028 13:26:10.009060 28156 net.cpp:106] Creating Layer inception_3b/5x5_reduce
I1028 13:26:10.009065 28156 net.cpp:454] inception_3b/5x5_reduce <- inception_3a/output_inception_3a/output_0_split_2
I1028 13:26:10.009084 28156 net.cpp:411] inception_3b/5x5_reduce -> inception_3b/5x5_reduce
I1028 13:26:10.009907 28156 cudnn_conv_layer.cpp:194] Reallocating workspace storage: 20664
I1028 13:26:10.009925 28156 net.cpp:150] Setting up inception_3b/5x5_reduce
I1028 13:26:10.009940 28156 net.cpp:157] Top shape: 32 32 28 28 (802816)
I1028 13:26:10.009944 28156 net.cpp:165] Memory required for data: 969802240
I1028 13:26:10.009951 28156 layer_factory.hpp:76] Creating layer inception_3b/prelu_5x5_reduce
I1028 13:26:10.009960 28156 net.cpp:106] Creating Layer inception_3b/prelu_5x5_reduce
I1028 13:26:10.009964 28156 net.cpp:454] inception_3b/prelu_5x5_reduce <- inception_3b/5x5_reduce
I1028 13:26:10.009970 28156 net.cpp:397] inception_3b/prelu_5x5_reduce -> inception_3b/5x5_reduce (in-place)
I1028 13:26:10.010099 28156 net.cpp:150] Setting up inception_3b/prelu_5x5_reduce
I1028 13:26:10.010109 28156 net.cpp:157] Top shape: 32 32 28 28 (802816)
I1028 13:26:10.010113 28156 net.cpp:165] Memory required for data: 973013504
I1028 13:26:10.010119 28156 layer_factory.hpp:76] Creating layer inception_3b/5x5
I1028 13:26:10.010135 28156 net.cpp:106] Creating Layer inception_3b/5x5
I1028 13:26:10.010140 28156 net.cpp:454] inception_3b/5x5 <- inception_3b/5x5_reduce
I1028 13:26:10.010146 28156 net.cpp:411] inception_3b/5x5 -> inception_3b/5x5
I1028 13:26:10.011569 28156 cudnn_conv_layer.cpp:194] Reallocating workspace storage: 20664
I1028 13:26:10.011592 28156 net.cpp:150] Setting up inception_3b/5x5
I1028 13:26:10.011600 28156 net.cpp:157] Top shape: 32 96 28 28 (2408448)
I1028 13:26:10.011605 28156 net.cpp:165] Memory required for data: 982647296
I1028 13:26:10.011611 28156 layer_factory.hpp:76] Creating layer inception_3b/prelu_5x5
I1028 13:26:10.011620 28156 net.cpp:106] Creating Layer inception_3b/prelu_5x5
I1028 13:26:10.011623 28156 net.cpp:454] inception_3b/prelu_5x5 <- inception_3b/5x5
I1028 13:26:10.011646 28156 net.cpp:397] inception_3b/prelu_5x5 -> inception_3b/5x5 (in-place)
I1028 13:26:10.011782 28156 net.cpp:150] Setting up inception_3b/prelu_5x5
I1028 13:26:10.011791 28156 net.cpp:157] Top shape: 32 96 28 28 (2408448)
I1028 13:26:10.011795 28156 net.cpp:165] Memory required for data: 992281088
I1028 13:26:10.011801 28156 layer_factory.hpp:76] Creating layer inception_3b/pool
I1028 13:26:10.011808 28156 net.cpp:106] Creating Layer inception_3b/pool
I1028 13:26:10.011812 28156 net.cpp:454] inception_3b/pool <- inception_3a/output_inception_3a/output_0_split_3
I1028 13:26:10.011821 28156 net.cpp:411] inception_3b/pool -> inception_3b/pool
I1028 13:26:10.012187 28156 net.cpp:150] Setting up inception_3b/pool
I1028 13:26:10.012200 28156 net.cpp:157] Top shape: 32 256 28 28 (6422528)
I1028 13:26:10.012204 28156 net.cpp:165] Memory required for data: 1017971200
I1028 13:26:10.012209 28156 layer_factory.hpp:76] Creating layer inception_3b/pool_proj
I1028 13:26:10.012233 28156 net.cpp:106] Creating Layer inception_3b/pool_proj
I1028 13:26:10.012238 28156 net.cpp:454] inception_3b/pool_proj <- inception_3b/pool
I1028 13:26:10.012246 28156 net.cpp:411] inception_3b/pool_proj -> inception_3b/pool_proj
I1028 13:26:10.013340 28156 cudnn_conv_layer.cpp:194] Reallocating workspace storage: 20664
I1028 13:26:10.013360 28156 net.cpp:150] Setting up inception_3b/pool_proj
I1028 13:26:10.013366 28156 net.cpp:157] Top shape: 32 64 28 28 (1605632)
I1028 13:26:10.013372 28156 net.cpp:165] Memory required for data: 1024393728
I1028 13:26:10.013380 28156 layer_factory.hpp:76] Creating layer inception_3b/prelu_pool_proj
I1028 13:26:10.013386 28156 net.cpp:106] Creating Layer inception_3b/prelu_pool_proj
I1028 13:26:10.013391 28156 net.cpp:454] inception_3b/prelu_pool_proj <- inception_3b/pool_proj
I1028 13:26:10.013408 28156 net.cpp:397] inception_3b/prelu_pool_proj -> inception_3b/pool_proj (in-place)
I1028 13:26:10.013547 28156 net.cpp:150] Setting up inception_3b/prelu_pool_proj
I1028 13:26:10.013557 28156 net.cpp:157] Top shape: 32 64 28 28 (1605632)
I1028 13:26:10.013576 28156 net.cpp:165] Memory required for data: 1030816256
I1028 13:26:10.013581 28156 layer_factory.hpp:76] Creating layer inception_3b/output
I1028 13:26:10.013589 28156 net.cpp:106] Creating Layer inception_3b/output
I1028 13:26:10.013594 28156 net.cpp:454] inception_3b/output <- inception_3b/1x1
I1028 13:26:10.013599 28156 net.cpp:454] inception_3b/output <- inception_3b/3x3
I1028 13:26:10.013604 28156 net.cpp:454] inception_3b/output <- inception_3b/5x5
I1028 13:26:10.013608 28156 net.cpp:454] inception_3b/output <- inception_3b/pool_proj
I1028 13:26:10.013615 28156 net.cpp:411] inception_3b/output -> inception_3b/output
I1028 13:26:10.013663 28156 net.cpp:150] Setting up inception_3b/output
I1028 13:26:10.013670 28156 net.cpp:157] Top shape: 32 480 28 28 (12042240)
I1028 13:26:10.013684 28156 net.cpp:165] Memory required for data: 1078985216
I1028 13:26:10.013689 28156 layer_factory.hpp:76] Creating layer pool3/3x3_s2
I1028 13:26:10.013706 28156 net.cpp:106] Creating Layer pool3/3x3_s2
I1028 13:26:10.013710 28156 net.cpp:454] pool3/3x3_s2 <- inception_3b/output
I1028 13:26:10.013717 28156 net.cpp:411] pool3/3x3_s2 -> pool3/3x3_s2
I1028 13:26:10.014101 28156 net.cpp:150] Setting up pool3/3x3_s2
I1028 13:26:10.014111 28156 net.cpp:157] Top shape: 32 480 14 14 (3010560)
I1028 13:26:10.014117 28156 net.cpp:165] Memory required for data: 1091027456
I1028 13:26:10.014120 28156 layer_factory.hpp:76] Creating layer pool3/3x3_s2_pool3/3x3_s2_0_split
I1028 13:26:10.014128 28156 net.cpp:106] Creating Layer pool3/3x3_s2_pool3/3x3_s2_0_split
I1028 13:26:10.014132 28156 net.cpp:454] pool3/3x3_s2_pool3/3x3_s2_0_split <- pool3/3x3_s2
I1028 13:26:10.014138 28156 net.cpp:411] pool3/3x3_s2_pool3/3x3_s2_0_split -> pool3/3x3_s2_pool3/3x3_s2_0_split_0
I1028 13:26:10.014145 28156 net.cpp:411] pool3/3x3_s2_pool3/3x3_s2_0_split -> pool3/3x3_s2_pool3/3x3_s2_0_split_1
I1028 13:26:10.014152 28156 net.cpp:411] pool3/3x3_s2_pool3/3x3_s2_0_split -> pool3/3x3_s2_pool3/3x3_s2_0_split_2
I1028 13:26:10.014159 28156 net.cpp:411] pool3/3x3_s2_pool3/3x3_s2_0_split -> pool3/3x3_s2_pool3/3x3_s2_0_split_3
I1028 13:26:10.014232 28156 net.cpp:150] Setting up pool3/3x3_s2_pool3/3x3_s2_0_split
I1028 13:26:10.014240 28156 net.cpp:157] Top shape: 32 480 14 14 (3010560)
I1028 13:26:10.014245 28156 net.cpp:157] Top shape: 32 480 14 14 (3010560)
I1028 13:26:10.014251 28156 net.cpp:157] Top shape: 32 480 14 14 (3010560)
I1028 13:26:10.014256 28156 net.cpp:157] Top shape: 32 480 14 14 (3010560)
I1028 13:26:10.014271 28156 net.cpp:165] Memory required for data: 1139196416
I1028 13:26:10.014274 28156 layer_factory.hpp:76] Creating layer inception_4a/1x1
I1028 13:26:10.014286 28156 net.cpp:106] Creating Layer inception_4a/1x1
I1028 13:26:10.014291 28156 net.cpp:454] inception_4a/1x1 <- pool3/3x3_s2_pool3/3x3_s2_0_split_0
I1028 13:26:10.014298 28156 net.cpp:411] inception_4a/1x1 -> inception_4a/1x1
I1028 13:26:10.016372 28156 cudnn_conv_layer.cpp:194] Reallocating workspace storage: 10080
I1028 13:26:10.016583 28156 net.cpp:150] Setting up inception_4a/1x1
I1028 13:26:10.016597 28156 net.cpp:157] Top shape: 32 192 14 14 (1204224)
I1028 13:26:10.016600 28156 net.cpp:165] Memory required for data: 1144013312
I1028 13:26:10.016612 28156 layer_factory.hpp:76] Creating layer inception_4a/prelu_1x1
I1028 13:26:10.016620 28156 net.cpp:106] Creating Layer inception_4a/prelu_1x1
I1028 13:26:10.016625 28156 net.cpp:454] inception_4a/prelu_1x1 <- inception_4a/1x1
I1028 13:26:10.016633 28156 net.cpp:397] inception_4a/prelu_1x1 -> inception_4a/1x1 (in-place)
I1028 13:26:10.017290 28156 net.cpp:150] Setting up inception_4a/prelu_1x1
I1028 13:26:10.017307 28156 net.cpp:157] Top shape: 32 192 14 14 (1204224)
I1028 13:26:10.017313 28156 net.cpp:165] Memory required for data: 1148830208
I1028 13:26:10.017318 28156 layer_factory.hpp:76] Creating layer inception_4a/3x3_reduce
I1028 13:26:10.017328 28156 net.cpp:106] Creating Layer inception_4a/3x3_reduce
I1028 13:26:10.017333 28156 net.cpp:454] inception_4a/3x3_reduce <- pool3/3x3_s2_pool3/3x3_s2_0_split_1
I1028 13:26:10.017341 28156 net.cpp:411] inception_4a/3x3_reduce -> inception_4a/3x3_reduce
I1028 13:26:10.018687 28156 cudnn_conv_layer.cpp:194] Reallocating workspace storage: 10080
I1028 13:26:10.018718 28156 net.cpp:150] Setting up inception_4a/3x3_reduce
I1028 13:26:10.018725 28156 net.cpp:157] Top shape: 32 96 14 14 (602112)
I1028 13:26:10.018729 28156 net.cpp:165] Memory required for data: 1151238656
I1028 13:26:10.018738 28156 layer_factory.hpp:76] Creating layer inception_4a/prelu_3x3_reduce
I1028 13:26:10.018746 28156 net.cpp:106] Creating Layer inception_4a/prelu_3x3_reduce
I1028 13:26:10.018751 28156 net.cpp:454] inception_4a/prelu_3x3_reduce <- inception_4a/3x3_reduce
I1028 13:26:10.018759 28156 net.cpp:397] inception_4a/prelu_3x3_reduce -> inception_4a/3x3_reduce (in-place)
I1028 13:26:10.018851 28156 net.cpp:150] Setting up inception_4a/prelu_3x3_reduce
I1028 13:26:10.018859 28156 net.cpp:157] Top shape: 32 96 14 14 (602112)
I1028 13:26:10.018863 28156 net.cpp:165] Memory required for data: 1153647104
I1028 13:26:10.018868 28156 layer_factory.hpp:76] Creating layer inception_4a/3x3
I1028 13:26:10.018877 28156 net.cpp:106] Creating Layer inception_4a/3x3
I1028 13:26:10.018882 28156 net.cpp:454] inception_4a/3x3 <- inception_4a/3x3_reduce
I1028 13:26:10.018889 28156 net.cpp:411] inception_4a/3x3 -> inception_4a/3x3
I1028 13:26:10.021113 28156 cudnn_conv_layer.cpp:194] Reallocating workspace storage: 10080
I1028 13:26:10.021139 28156 net.cpp:150] Setting up inception_4a/3x3
I1028 13:26:10.021147 28156 net.cpp:157] Top shape: 32 208 14 14 (1304576)
I1028 13:26:10.021152 28156 net.cpp:165] Memory required for data: 1158865408
I1028 13:26:10.021158 28156 layer_factory.hpp:76] Creating layer inception_4a/prelu_3x3
I1028 13:26:10.021173 28156 net.cpp:106] Creating Layer inception_4a/prelu_3x3
I1028 13:26:10.021178 28156 net.cpp:454] inception_4a/prelu_3x3 <- inception_4a/3x3
I1028 13:26:10.021184 28156 net.cpp:397] inception_4a/prelu_3x3 -> inception_4a/3x3 (in-place)
I1028 13:26:10.021294 28156 net.cpp:150] Setting up inception_4a/prelu_3x3
I1028 13:26:10.021303 28156 net.cpp:157] Top shape: 32 208 14 14 (1304576)
I1028 13:26:10.021307 28156 net.cpp:165] Memory required for data: 1164083712
I1028 13:26:10.021320 28156 layer_factory.hpp:76] Creating layer inception_4a/5x5_reduce
I1028 13:26:10.021329 28156 net.cpp:106] Creating Layer inception_4a/5x5_reduce
I1028 13:26:10.021333 28156 net.cpp:454] inception_4a/5x5_reduce <- pool3/3x3_s2_pool3/3x3_s2_0_split_2
I1028 13:26:10.021342 28156 net.cpp:411] inception_4a/5x5_reduce -> inception_4a/5x5_reduce
I1028 13:26:10.022372 28156 cudnn_conv_layer.cpp:194] Reallocating workspace storage: 10080
I1028 13:26:10.022394 28156 net.cpp:150] Setting up inception_4a/5x5_reduce
I1028 13:26:10.022402 28156 net.cpp:157] Top shape: 32 16 14 14 (100352)
I1028 13:26:10.022405 28156 net.cpp:165] Memory required for data: 1164485120
I1028 13:26:10.022413 28156 layer_factory.hpp:76] Creating layer inception_4a/prelu_5x5_reduce
I1028 13:26:10.022420 28156 net.cpp:106] Creating Layer inception_4a/prelu_5x5_reduce
I1028 13:26:10.022425 28156 net.cpp:454] inception_4a/prelu_5x5_reduce <- inception_4a/5x5_reduce
I1028 13:26:10.022433 28156 net.cpp:397] inception_4a/prelu_5x5_reduce -> inception_4a/5x5_reduce (in-place)
I1028 13:26:10.022511 28156 net.cpp:150] Setting up inception_4a/prelu_5x5_reduce
I1028 13:26:10.022519 28156 net.cpp:157] Top shape: 32 16 14 14 (100352)
I1028 13:26:10.022523 28156 net.cpp:165] Memory required for data: 1164886528
I1028 13:26:10.022528 28156 layer_factory.hpp:76] Creating layer inception_4a/5x5
I1028 13:26:10.022536 28156 net.cpp:106] Creating Layer inception_4a/5x5
I1028 13:26:10.022541 28156 net.cpp:454] inception_4a/5x5 <- inception_4a/5x5_reduce
I1028 13:26:10.022548 28156 net.cpp:411] inception_4a/5x5 -> inception_4a/5x5
I1028 13:26:10.023603 28156 cudnn_conv_layer.cpp:194] Reallocating workspace storage: 13080
I1028 13:26:10.023625 28156 net.cpp:150] Setting up inception_4a/5x5
I1028 13:26:10.023633 28156 net.cpp:157] Top shape: 32 48 14 14 (301056)
I1028 13:26:10.023638 28156 net.cpp:165] Memory required for data: 1166090752
I1028 13:26:10.023655 28156 layer_factory.hpp:76] Creating layer inception_4a/prelu_5x5
I1028 13:26:10.023666 28156 net.cpp:106] Creating Layer inception_4a/prelu_5x5
I1028 13:26:10.023671 28156 net.cpp:454] inception_4a/prelu_5x5 <- inception_4a/5x5
I1028 13:26:10.023676 28156 net.cpp:397] inception_4a/prelu_5x5 -> inception_4a/5x5 (in-place)
I1028 13:26:10.023761 28156 net.cpp:150] Setting up inception_4a/prelu_5x5
I1028 13:26:10.023768 28156 net.cpp:157] Top shape: 32 48 14 14 (301056)
I1028 13:26:10.023772 28156 net.cpp:165] Memory required for data: 1167294976
I1028 13:26:10.023778 28156 layer_factory.hpp:76] Creating layer inception_4a/pool
I1028 13:26:10.023787 28156 net.cpp:106] Creating Layer inception_4a/pool
I1028 13:26:10.023790 28156 net.cpp:454] inception_4a/pool <- pool3/3x3_s2_pool3/3x3_s2_0_split_3
I1028 13:26:10.023797 28156 net.cpp:411] inception_4a/pool -> inception_4a/pool
I1028 13:26:10.024144 28156 net.cpp:150] Setting up inception_4a/pool
I1028 13:26:10.024157 28156 net.cpp:157] Top shape: 32 480 14 14 (3010560)
I1028 13:26:10.024160 28156 net.cpp:165] Memory required for data: 1179337216
I1028 13:26:10.024165 28156 layer_factory.hpp:76] Creating layer inception_4a/pool_proj
I1028 13:26:10.024173 28156 net.cpp:106] Creating Layer inception_4a/pool_proj
I1028 13:26:10.024176 28156 net.cpp:454] inception_4a/pool_proj <- inception_4a/pool
I1028 13:26:10.024184 28156 net.cpp:411] inception_4a/pool_proj -> inception_4a/pool_proj
I1028 13:26:10.025171 28156 cudnn_conv_layer.cpp:194] Reallocating workspace storage: 10080
I1028 13:26:10.025199 28156 net.cpp:150] Setting up inception_4a/pool_proj
I1028 13:26:10.025207 28156 net.cpp:157] Top shape: 32 64 14 14 (401408)
I1028 13:26:10.025210 28156 net.cpp:165] Memory required for data: 1180942848
I1028 13:26:10.025218 28156 layer_factory.hpp:76] Creating layer inception_4a/prelu_pool_proj
I1028 13:26:10.025224 28156 net.cpp:106] Creating Layer inception_4a/prelu_pool_proj
I1028 13:26:10.025229 28156 net.cpp:454] inception_4a/prelu_pool_proj <- inception_4a/pool_proj
I1028 13:26:10.025236 28156 net.cpp:397] inception_4a/prelu_pool_proj -> inception_4a/pool_proj (in-place)
I1028 13:26:10.025326 28156 net.cpp:150] Setting up inception_4a/prelu_pool_proj
I1028 13:26:10.025334 28156 net.cpp:157] Top shape: 32 64 14 14 (401408)
I1028 13:26:10.025338 28156 net.cpp:165] Memory required for data: 1182548480
I1028 13:26:10.025344 28156 layer_factory.hpp:76] Creating layer inception_4a/output
I1028 13:26:10.025351 28156 net.cpp:106] Creating Layer inception_4a/output
I1028 13:26:10.025354 28156 net.cpp:454] inception_4a/output <- inception_4a/1x1
I1028 13:26:10.025359 28156 net.cpp:454] inception_4a/output <- inception_4a/3x3
I1028 13:26:10.025363 28156 net.cpp:454] inception_4a/output <- inception_4a/5x5
I1028 13:26:10.025368 28156 net.cpp:454] inception_4a/output <- inception_4a/pool_proj
I1028 13:26:10.025374 28156 net.cpp:411] inception_4a/output -> inception_4a/output
I1028 13:26:10.025413 28156 net.cpp:150] Setting up inception_4a/output
I1028 13:26:10.025439 28156 net.cpp:157] Top shape: 32 512 14 14 (3211264)
I1028 13:26:10.025445 28156 net.cpp:165] Memory required for data: 1195393536
I1028 13:26:10.025460 28156 layer_factory.hpp:76] Creating layer inception_4a/output_inception_4a/output_0_split
I1028 13:26:10.025468 28156 net.cpp:106] Creating Layer inception_4a/output_inception_4a/output_0_split
I1028 13:26:10.025475 28156 net.cpp:454] inception_4a/output_inception_4a/output_0_split <- inception_4a/output
I1028 13:26:10.025491 28156 net.cpp:411] inception_4a/output_inception_4a/output_0_split -> inception_4a/output_inception_4a/output_0_split_0
I1028 13:26:10.025502 28156 net.cpp:411] inception_4a/output_inception_4a/output_0_split -> inception_4a/output_inception_4a/output_0_split_1
I1028 13:26:10.025516 28156 net.cpp:411] inception_4a/output_inception_4a/output_0_split -> inception_4a/output_inception_4a/output_0_split_2
I1028 13:26:10.025527 28156 net.cpp:411] inception_4a/output_inception_4a/output_0_split -> inception_4a/output_inception_4a/output_0_split_3
I1028 13:26:10.025579 28156 net.cpp:411] inception_4a/output_inception_4a/output_0_split -> inception_4a/output_inception_4a/output_0_split_4
I1028 13:26:10.025660 28156 net.cpp:150] Setting up inception_4a/output_inception_4a/output_0_split
I1028 13:26:10.025668 28156 net.cpp:157] Top shape: 32 512 14 14 (3211264)
I1028 13:26:10.025674 28156 net.cpp:157] Top shape: 32 512 14 14 (3211264)
I1028 13:26:10.025678 28156 net.cpp:157] Top shape: 32 512 14 14 (3211264)
I1028 13:26:10.025683 28156 net.cpp:157] Top shape: 32 512 14 14 (3211264)
I1028 13:26:10.025687 28156 net.cpp:157] Top shape: 32 512 14 14 (3211264)
I1028 13:26:10.025691 28156 net.cpp:165] Memory required for data: 1259618816
I1028 13:26:10.025703 28156 layer_factory.hpp:76] Creating layer loss1/ave_pool
I1028 13:26:10.025709 28156 net.cpp:106] Creating Layer loss1/ave_pool
I1028 13:26:10.025713 28156 net.cpp:454] loss1/ave_pool <- inception_4a/output_inception_4a/output_0_split_0
I1028 13:26:10.025719 28156 net.cpp:411] loss1/ave_pool -> loss1/ave_pool
I1028 13:26:10.026093 28156 net.cpp:150] Setting up loss1/ave_pool
I1028 13:26:10.026104 28156 net.cpp:157] Top shape: 32 512 4 4 (262144)
I1028 13:26:10.026109 28156 net.cpp:165] Memory required for data: 1260667392
I1028 13:26:10.026113 28156 layer_factory.hpp:76] Creating layer loss1/conv
I1028 13:26:10.026124 28156 net.cpp:106] Creating Layer loss1/conv
I1028 13:26:10.026128 28156 net.cpp:454] loss1/conv <- loss1/ave_pool
I1028 13:26:10.026134 28156 net.cpp:411] loss1/conv -> loss1/conv
I1028 13:26:10.027493 28156 cudnn_conv_layer.cpp:194] Reallocating workspace storage: 6840
I1028 13:26:10.027516 28156 net.cpp:150] Setting up loss1/conv
I1028 13:26:10.027523 28156 net.cpp:157] Top shape: 32 128 4 4 (65536)
I1028 13:26:10.027529 28156 net.cpp:165] Memory required for data: 1260929536
I1028 13:26:10.027545 28156 layer_factory.hpp:76] Creating layer loss1/prelu_conv
I1028 13:26:10.027555 28156 net.cpp:106] Creating Layer loss1/prelu_conv
I1028 13:26:10.027560 28156 net.cpp:454] loss1/prelu_conv <- loss1/conv
I1028 13:26:10.027566 28156 net.cpp:397] loss1/prelu_conv -> loss1/conv (in-place)
I1028 13:26:10.027650 28156 net.cpp:150] Setting up loss1/prelu_conv
I1028 13:26:10.027659 28156 net.cpp:157] Top shape: 32 128 4 4 (65536)
I1028 13:26:10.027664 28156 net.cpp:165] Memory required for data: 1261191680
I1028 13:26:10.027669 28156 layer_factory.hpp:76] Creating layer loss1/fc
I1028 13:26:10.027681 28156 net.cpp:106] Creating Layer loss1/fc
I1028 13:26:10.027686 28156 net.cpp:454] loss1/fc <- loss1/conv
I1028 13:26:10.027693 28156 net.cpp:411] loss1/fc -> loss1/fc
I1028 13:26:10.041712 28156 net.cpp:150] Setting up loss1/fc
I1028 13:26:10.041748 28156 net.cpp:157] Top shape: 32 1024 (32768)
I1028 13:26:10.041751 28156 net.cpp:165] Memory required for data: 1261322752
I1028 13:26:10.041769 28156 layer_factory.hpp:76] Creating layer loss1/prelu_fc
I1028 13:26:10.041785 28156 net.cpp:106] Creating Layer loss1/prelu_fc
I1028 13:26:10.041800 28156 net.cpp:454] loss1/prelu_fc <- loss1/fc
I1028 13:26:10.041815 28156 net.cpp:397] loss1/prelu_fc -> loss1/fc (in-place)
I1028 13:26:10.041903 28156 net.cpp:150] Setting up loss1/prelu_fc
I1028 13:26:10.041913 28156 net.cpp:157] Top shape: 32 1024 (32768)
I1028 13:26:10.041916 28156 net.cpp:165] Memory required for data: 1261453824
I1028 13:26:10.041921 28156 layer_factory.hpp:76] Creating layer loss1/drop_fc
I1028 13:26:10.041940 28156 net.cpp:106] Creating Layer loss1/drop_fc
I1028 13:26:10.041945 28156 net.cpp:454] loss1/drop_fc <- loss1/fc
I1028 13:26:10.041959 28156 net.cpp:397] loss1/drop_fc -> loss1/fc (in-place)
I1028 13:26:10.041990 28156 net.cpp:150] Setting up loss1/drop_fc
I1028 13:26:10.042006 28156 net.cpp:157] Top shape: 32 1024 (32768)
I1028 13:26:10.042009 28156 net.cpp:165] Memory required for data: 1261584896
I1028 13:26:10.042021 28156 layer_factory.hpp:76] Creating layer loss1/classifier2
I1028 13:26:10.042032 28156 net.cpp:106] Creating Layer loss1/classifier2
I1028 13:26:10.042035 28156 net.cpp:454] loss1/classifier2 <- loss1/fc
I1028 13:26:10.042067 28156 net.cpp:411] loss1/classifier2 -> loss1/classifier
I1028 13:26:10.042181 28156 net.cpp:150] Setting up loss1/classifier2
I1028 13:26:10.042189 28156 net.cpp:157] Top shape: 32 2 (64)
I1028 13:26:10.042193 28156 net.cpp:165] Memory required for data: 1261585152
I1028 13:26:10.042199 28156 layer_factory.hpp:76] Creating layer loss1/loss
I1028 13:26:10.042207 28156 net.cpp:106] Creating Layer loss1/loss
I1028 13:26:10.042212 28156 net.cpp:454] loss1/loss <- loss1/classifier
I1028 13:26:10.042217 28156 net.cpp:454] loss1/loss <- label_data_1_split_0
I1028 13:26:10.042222 28156 net.cpp:411] loss1/loss -> loss1/loss1
I1028 13:26:10.042244 28156 layer_factory.hpp:76] Creating layer loss1/loss
I1028 13:26:10.042557 28156 net.cpp:150] Setting up loss1/loss
I1028 13:26:10.042567 28156 net.cpp:157] Top shape: (1)
I1028 13:26:10.042570 28156 net.cpp:160]     with loss weight 0.3
I1028 13:26:10.042604 28156 net.cpp:165] Memory required for data: 1261585156
I1028 13:26:10.042618 28156 layer_factory.hpp:76] Creating layer inception_4b/1x1
I1028 13:26:10.042636 28156 net.cpp:106] Creating Layer inception_4b/1x1
I1028 13:26:10.042644 28156 net.cpp:454] inception_4b/1x1 <- inception_4a/output_inception_4a/output_0_split_1
I1028 13:26:10.042659 28156 net.cpp:411] inception_4b/1x1 -> inception_4b/1x1
I1028 13:26:10.044291 28156 cudnn_conv_layer.cpp:194] Reallocating workspace storage: 10080
I1028 13:26:10.044328 28156 net.cpp:150] Setting up inception_4b/1x1
I1028 13:26:10.044348 28156 net.cpp:157] Top shape: 32 160 14 14 (1003520)
I1028 13:26:10.044353 28156 net.cpp:165] Memory required for data: 1265599236
I1028 13:26:10.044359 28156 layer_factory.hpp:76] Creating layer inception_4b/prelu_1x1
I1028 13:26:10.044375 28156 net.cpp:106] Creating Layer inception_4b/prelu_1x1
I1028 13:26:10.044380 28156 net.cpp:454] inception_4b/prelu_1x1 <- inception_4b/1x1
I1028 13:26:10.044387 28156 net.cpp:397] inception_4b/prelu_1x1 -> inception_4b/1x1 (in-place)
I1028 13:26:10.044973 28156 net.cpp:150] Setting up inception_4b/prelu_1x1
I1028 13:26:10.044986 28156 net.cpp:157] Top shape: 32 160 14 14 (1003520)
I1028 13:26:10.044991 28156 net.cpp:165] Memory required for data: 1269613316
I1028 13:26:10.044996 28156 layer_factory.hpp:76] Creating layer inception_4b/3x3_reduce
I1028 13:26:10.045006 28156 net.cpp:106] Creating Layer inception_4b/3x3_reduce
I1028 13:26:10.045011 28156 net.cpp:454] inception_4b/3x3_reduce <- inception_4a/output_inception_4a/output_0_split_2
I1028 13:26:10.045018 28156 net.cpp:411] inception_4b/3x3_reduce -> inception_4b/3x3_reduce
I1028 13:26:10.046648 28156 cudnn_conv_layer.cpp:194] Reallocating workspace storage: 10080
I1028 13:26:10.046701 28156 net.cpp:150] Setting up inception_4b/3x3_reduce
I1028 13:26:10.046720 28156 net.cpp:157] Top shape: 32 112 14 14 (702464)
I1028 13:26:10.046725 28156 net.cpp:165] Memory required for data: 1272423172
I1028 13:26:10.046733 28156 layer_factory.hpp:76] Creating layer inception_4b/prelu_3x3_reduce
I1028 13:26:10.046758 28156 net.cpp:106] Creating Layer inception_4b/prelu_3x3_reduce
I1028 13:26:10.046767 28156 net.cpp:454] inception_4b/prelu_3x3_reduce <- inception_4b/3x3_reduce
I1028 13:26:10.046774 28156 net.cpp:397] inception_4b/prelu_3x3_reduce -> inception_4b/3x3_reduce (in-place)
I1028 13:26:10.046913 28156 net.cpp:150] Setting up inception_4b/prelu_3x3_reduce
I1028 13:26:10.046923 28156 net.cpp:157] Top shape: 32 112 14 14 (702464)
I1028 13:26:10.046927 28156 net.cpp:165] Memory required for data: 1275233028
I1028 13:26:10.046932 28156 layer_factory.hpp:76] Creating layer inception_4b/3x3
I1028 13:26:10.046943 28156 net.cpp:106] Creating Layer inception_4b/3x3
I1028 13:26:10.046948 28156 net.cpp:454] inception_4b/3x3 <- inception_4b/3x3_reduce
I1028 13:26:10.046955 28156 net.cpp:411] inception_4b/3x3 -> inception_4b/3x3
I1028 13:26:10.049779 28156 cudnn_conv_layer.cpp:194] Reallocating workspace storage: 10080
I1028 13:26:10.049818 28156 net.cpp:150] Setting up inception_4b/3x3
I1028 13:26:10.049826 28156 net.cpp:157] Top shape: 32 224 14 14 (1404928)
I1028 13:26:10.049850 28156 net.cpp:165] Memory required for data: 1280852740
I1028 13:26:10.049862 28156 layer_factory.hpp:76] Creating layer inception_4b/prelu_3x3
I1028 13:26:10.049882 28156 net.cpp:106] Creating Layer inception_4b/prelu_3x3
I1028 13:26:10.049899 28156 net.cpp:454] inception_4b/prelu_3x3 <- inception_4b/3x3
I1028 13:26:10.049907 28156 net.cpp:397] inception_4b/prelu_3x3 -> inception_4b/3x3 (in-place)
I1028 13:26:10.050050 28156 net.cpp:150] Setting up inception_4b/prelu_3x3
I1028 13:26:10.050061 28156 net.cpp:157] Top shape: 32 224 14 14 (1404928)
I1028 13:26:10.050065 28156 net.cpp:165] Memory required for data: 1286472452
I1028 13:26:10.050071 28156 layer_factory.hpp:76] Creating layer inception_4b/5x5_reduce
I1028 13:26:10.050081 28156 net.cpp:106] Creating Layer inception_4b/5x5_reduce
I1028 13:26:10.050086 28156 net.cpp:454] inception_4b/5x5_reduce <- inception_4a/output_inception_4a/output_0_split_3
I1028 13:26:10.050096 28156 net.cpp:411] inception_4b/5x5_reduce -> inception_4b/5x5_reduce
I1028 13:26:10.050997 28156 cudnn_conv_layer.cpp:194] Reallocating workspace storage: 10080
I1028 13:26:10.051024 28156 net.cpp:150] Setting up inception_4b/5x5_reduce
I1028 13:26:10.051033 28156 net.cpp:157] Top shape: 32 24 14 14 (150528)
I1028 13:26:10.051036 28156 net.cpp:165] Memory required for data: 1287074564
I1028 13:26:10.051043 28156 layer_factory.hpp:76] Creating layer inception_4b/prelu_5x5_reduce
I1028 13:26:10.051054 28156 net.cpp:106] Creating Layer inception_4b/prelu_5x5_reduce
I1028 13:26:10.051059 28156 net.cpp:454] inception_4b/prelu_5x5_reduce <- inception_4b/5x5_reduce
I1028 13:26:10.051067 28156 net.cpp:397] inception_4b/prelu_5x5_reduce -> inception_4b/5x5_reduce (in-place)
I1028 13:26:10.051158 28156 net.cpp:150] Setting up inception_4b/prelu_5x5_reduce
I1028 13:26:10.051167 28156 net.cpp:157] Top shape: 32 24 14 14 (150528)
I1028 13:26:10.051170 28156 net.cpp:165] Memory required for data: 1287676676
I1028 13:26:10.051177 28156 layer_factory.hpp:76] Creating layer inception_4b/5x5
I1028 13:26:10.051187 28156 net.cpp:106] Creating Layer inception_4b/5x5
I1028 13:26:10.051192 28156 net.cpp:454] inception_4b/5x5 <- inception_4b/5x5_reduce
I1028 13:26:10.051199 28156 net.cpp:411] inception_4b/5x5 -> inception_4b/5x5
I1028 13:26:10.052450 28156 cudnn_conv_layer.cpp:194] Reallocating workspace storage: 13080
I1028 13:26:10.052477 28156 net.cpp:150] Setting up inception_4b/5x5
I1028 13:26:10.052484 28156 net.cpp:157] Top shape: 32 64 14 14 (401408)
I1028 13:26:10.052490 28156 net.cpp:165] Memory required for data: 1289282308
I1028 13:26:10.052497 28156 layer_factory.hpp:76] Creating layer inception_4b/prelu_5x5
I1028 13:26:10.052505 28156 net.cpp:106] Creating Layer inception_4b/prelu_5x5
I1028 13:26:10.052510 28156 net.cpp:454] inception_4b/prelu_5x5 <- inception_4b/5x5
I1028 13:26:10.052517 28156 net.cpp:397] inception_4b/prelu_5x5 -> inception_4b/5x5 (in-place)
I1028 13:26:10.052618 28156 net.cpp:150] Setting up inception_4b/prelu_5x5
I1028 13:26:10.052628 28156 net.cpp:157] Top shape: 32 64 14 14 (401408)
I1028 13:26:10.052633 28156 net.cpp:165] Memory required for data: 1290887940
I1028 13:26:10.052639 28156 layer_factory.hpp:76] Creating layer inception_4b/pool
I1028 13:26:10.052646 28156 net.cpp:106] Creating Layer inception_4b/pool
I1028 13:26:10.052650 28156 net.cpp:454] inception_4b/pool <- inception_4a/output_inception_4a/output_0_split_4
I1028 13:26:10.052657 28156 net.cpp:411] inception_4b/pool -> inception_4b/pool
I1028 13:26:10.053024 28156 net.cpp:150] Setting up inception_4b/pool
I1028 13:26:10.053035 28156 net.cpp:157] Top shape: 32 512 14 14 (3211264)
I1028 13:26:10.053040 28156 net.cpp:165] Memory required for data: 1303732996
I1028 13:26:10.053045 28156 layer_factory.hpp:76] Creating layer inception_4b/pool_proj
I1028 13:26:10.053056 28156 net.cpp:106] Creating Layer inception_4b/pool_proj
I1028 13:26:10.053061 28156 net.cpp:454] inception_4b/pool_proj <- inception_4b/pool
I1028 13:26:10.053066 28156 net.cpp:411] inception_4b/pool_proj -> inception_4b/pool_proj
I1028 13:26:10.054291 28156 cudnn_conv_layer.cpp:194] Reallocating workspace storage: 10080
I1028 13:26:10.054321 28156 net.cpp:150] Setting up inception_4b/pool_proj
I1028 13:26:10.054328 28156 net.cpp:157] Top shape: 32 64 14 14 (401408)
I1028 13:26:10.054332 28156 net.cpp:165] Memory required for data: 1305338628
I1028 13:26:10.054339 28156 layer_factory.hpp:76] Creating layer inception_4b/prelu_pool_proj
I1028 13:26:10.054350 28156 net.cpp:106] Creating Layer inception_4b/prelu_pool_proj
I1028 13:26:10.054363 28156 net.cpp:454] inception_4b/prelu_pool_proj <- inception_4b/pool_proj
I1028 13:26:10.054378 28156 net.cpp:397] inception_4b/prelu_pool_proj -> inception_4b/pool_proj (in-place)
I1028 13:26:10.054471 28156 net.cpp:150] Setting up inception_4b/prelu_pool_proj
I1028 13:26:10.054481 28156 net.cpp:157] Top shape: 32 64 14 14 (401408)
I1028 13:26:10.054484 28156 net.cpp:165] Memory required for data: 1306944260
I1028 13:26:10.054489 28156 layer_factory.hpp:76] Creating layer inception_4b/output
I1028 13:26:10.054498 28156 net.cpp:106] Creating Layer inception_4b/output
I1028 13:26:10.054502 28156 net.cpp:454] inception_4b/output <- inception_4b/1x1
I1028 13:26:10.054507 28156 net.cpp:454] inception_4b/output <- inception_4b/3x3
I1028 13:26:10.054512 28156 net.cpp:454] inception_4b/output <- inception_4b/5x5
I1028 13:26:10.054517 28156 net.cpp:454] inception_4b/output <- inception_4b/pool_proj
I1028 13:26:10.054522 28156 net.cpp:411] inception_4b/output -> inception_4b/output
I1028 13:26:10.054563 28156 net.cpp:150] Setting up inception_4b/output
I1028 13:26:10.054572 28156 net.cpp:157] Top shape: 32 512 14 14 (3211264)
I1028 13:26:10.054575 28156 net.cpp:165] Memory required for data: 1319789316
I1028 13:26:10.054579 28156 layer_factory.hpp:76] Creating layer inception_4b/output_inception_4b/output_0_split
I1028 13:26:10.054586 28156 net.cpp:106] Creating Layer inception_4b/output_inception_4b/output_0_split
I1028 13:26:10.054590 28156 net.cpp:454] inception_4b/output_inception_4b/output_0_split <- inception_4b/output
I1028 13:26:10.054596 28156 net.cpp:411] inception_4b/output_inception_4b/output_0_split -> inception_4b/output_inception_4b/output_0_split_0
I1028 13:26:10.054605 28156 net.cpp:411] inception_4b/output_inception_4b/output_0_split -> inception_4b/output_inception_4b/output_0_split_1
I1028 13:26:10.054612 28156 net.cpp:411] inception_4b/output_inception_4b/output_0_split -> inception_4b/output_inception_4b/output_0_split_2
I1028 13:26:10.054618 28156 net.cpp:411] inception_4b/output_inception_4b/output_0_split -> inception_4b/output_inception_4b/output_0_split_3
I1028 13:26:10.054672 28156 net.cpp:150] Setting up inception_4b/output_inception_4b/output_0_split
I1028 13:26:10.054680 28156 net.cpp:157] Top shape: 32 512 14 14 (3211264)
I1028 13:26:10.054685 28156 net.cpp:157] Top shape: 32 512 14 14 (3211264)
I1028 13:26:10.054689 28156 net.cpp:157] Top shape: 32 512 14 14 (3211264)
I1028 13:26:10.054694 28156 net.cpp:157] Top shape: 32 512 14 14 (3211264)
I1028 13:26:10.054697 28156 net.cpp:165] Memory required for data: 1371169540
I1028 13:26:10.054702 28156 layer_factory.hpp:76] Creating layer inception_4c/1x1
I1028 13:26:10.054709 28156 net.cpp:106] Creating Layer inception_4c/1x1
I1028 13:26:10.054713 28156 net.cpp:454] inception_4c/1x1 <- inception_4b/output_inception_4b/output_0_split_0
I1028 13:26:10.054720 28156 net.cpp:411] inception_4c/1x1 -> inception_4c/1x1
I1028 13:26:10.056408 28156 cudnn_conv_layer.cpp:194] Reallocating workspace storage: 10080
I1028 13:26:10.056435 28156 net.cpp:150] Setting up inception_4c/1x1
I1028 13:26:10.056443 28156 net.cpp:157] Top shape: 32 128 14 14 (802816)
I1028 13:26:10.056447 28156 net.cpp:165] Memory required for data: 1374380804
I1028 13:26:10.056457 28156 layer_factory.hpp:76] Creating layer inception_4c/prelu_1x1
I1028 13:26:10.056468 28156 net.cpp:106] Creating Layer inception_4c/prelu_1x1
I1028 13:26:10.056473 28156 net.cpp:454] inception_4c/prelu_1x1 <- inception_4c/1x1
I1028 13:26:10.056480 28156 net.cpp:397] inception_4c/prelu_1x1 -> inception_4c/1x1 (in-place)
I1028 13:26:10.056584 28156 net.cpp:150] Setting up inception_4c/prelu_1x1
I1028 13:26:10.056593 28156 net.cpp:157] Top shape: 32 128 14 14 (802816)
I1028 13:26:10.056597 28156 net.cpp:165] Memory required for data: 1377592068
I1028 13:26:10.056603 28156 layer_factory.hpp:76] Creating layer inception_4c/3x3_reduce
I1028 13:26:10.056612 28156 net.cpp:106] Creating Layer inception_4c/3x3_reduce
I1028 13:26:10.056617 28156 net.cpp:454] inception_4c/3x3_reduce <- inception_4b/output_inception_4b/output_0_split_1
I1028 13:26:10.056625 28156 net.cpp:411] inception_4c/3x3_reduce -> inception_4c/3x3_reduce
I1028 13:26:10.058151 28156 cudnn_conv_layer.cpp:194] Reallocating workspace storage: 10080
I1028 13:26:10.058178 28156 net.cpp:150] Setting up inception_4c/3x3_reduce
I1028 13:26:10.058190 28156 net.cpp:157] Top shape: 32 128 14 14 (802816)
I1028 13:26:10.058197 28156 net.cpp:165] Memory required for data: 1380803332
I1028 13:26:10.058204 28156 layer_factory.hpp:76] Creating layer inception_4c/prelu_3x3_reduce
I1028 13:26:10.058218 28156 net.cpp:106] Creating Layer inception_4c/prelu_3x3_reduce
I1028 13:26:10.058229 28156 net.cpp:454] inception_4c/prelu_3x3_reduce <- inception_4c/3x3_reduce
I1028 13:26:10.058240 28156 net.cpp:397] inception_4c/prelu_3x3_reduce -> inception_4c/3x3_reduce (in-place)
I1028 13:26:10.058372 28156 net.cpp:150] Setting up inception_4c/prelu_3x3_reduce
I1028 13:26:10.058385 28156 net.cpp:157] Top shape: 32 128 14 14 (802816)
I1028 13:26:10.058410 28156 net.cpp:165] Memory required for data: 1384014596
I1028 13:26:10.058419 28156 layer_factory.hpp:76] Creating layer inception_4c/3x3
I1028 13:26:10.058430 28156 net.cpp:106] Creating Layer inception_4c/3x3
I1028 13:26:10.058436 28156 net.cpp:454] inception_4c/3x3 <- inception_4c/3x3_reduce
I1028 13:26:10.058444 28156 net.cpp:411] inception_4c/3x3 -> inception_4c/3x3
I1028 13:26:10.061775 28156 cudnn_conv_layer.cpp:194] Reallocating workspace storage: 10080
I1028 13:26:10.061806 28156 net.cpp:150] Setting up inception_4c/3x3
I1028 13:26:10.061815 28156 net.cpp:157] Top shape: 32 256 14 14 (1605632)
I1028 13:26:10.061820 28156 net.cpp:165] Memory required for data: 1390437124
I1028 13:26:10.061827 28156 layer_factory.hpp:76] Creating layer inception_4c/prelu_3x3
I1028 13:26:10.061836 28156 net.cpp:106] Creating Layer inception_4c/prelu_3x3
I1028 13:26:10.061841 28156 net.cpp:454] inception_4c/prelu_3x3 <- inception_4c/3x3
I1028 13:26:10.061848 28156 net.cpp:397] inception_4c/prelu_3x3 -> inception_4c/3x3 (in-place)
I1028 13:26:10.061964 28156 net.cpp:150] Setting up inception_4c/prelu_3x3
I1028 13:26:10.061975 28156 net.cpp:157] Top shape: 32 256 14 14 (1605632)
I1028 13:26:10.061980 28156 net.cpp:165] Memory required for data: 1396859652
I1028 13:26:10.061985 28156 layer_factory.hpp:76] Creating layer inception_4c/5x5_reduce
I1028 13:26:10.061993 28156 net.cpp:106] Creating Layer inception_4c/5x5_reduce
I1028 13:26:10.061997 28156 net.cpp:454] inception_4c/5x5_reduce <- inception_4b/output_inception_4b/output_0_split_2
I1028 13:26:10.062005 28156 net.cpp:411] inception_4c/5x5_reduce -> inception_4c/5x5_reduce
I1028 13:26:10.063107 28156 cudnn_conv_layer.cpp:194] Reallocating workspace storage: 10080
I1028 13:26:10.063130 28156 net.cpp:150] Setting up inception_4c/5x5_reduce
I1028 13:26:10.063145 28156 net.cpp:157] Top shape: 32 24 14 14 (150528)
I1028 13:26:10.063150 28156 net.cpp:165] Memory required for data: 1397461764
I1028 13:26:10.063164 28156 layer_factory.hpp:76] Creating layer inception_4c/prelu_5x5_reduce
I1028 13:26:10.063175 28156 net.cpp:106] Creating Layer inception_4c/prelu_5x5_reduce
I1028 13:26:10.063181 28156 net.cpp:454] inception_4c/prelu_5x5_reduce <- inception_4c/5x5_reduce
I1028 13:26:10.063205 28156 net.cpp:397] inception_4c/prelu_5x5_reduce -> inception_4c/5x5_reduce (in-place)
I1028 13:26:10.063299 28156 net.cpp:150] Setting up inception_4c/prelu_5x5_reduce
I1028 13:26:10.063308 28156 net.cpp:157] Top shape: 32 24 14 14 (150528)
I1028 13:26:10.063312 28156 net.cpp:165] Memory required for data: 1398063876
I1028 13:26:10.063331 28156 layer_factory.hpp:76] Creating layer inception_4c/5x5
I1028 13:26:10.063343 28156 net.cpp:106] Creating Layer inception_4c/5x5
I1028 13:26:10.063347 28156 net.cpp:454] inception_4c/5x5 <- inception_4c/5x5_reduce
I1028 13:26:10.063354 28156 net.cpp:411] inception_4c/5x5 -> inception_4c/5x5
I1028 13:26:10.065145 28156 cudnn_conv_layer.cpp:194] Reallocating workspace storage: 13080
I1028 13:26:10.065181 28156 net.cpp:150] Setting up inception_4c/5x5
I1028 13:26:10.065188 28156 net.cpp:157] Top shape: 32 64 14 14 (401408)
I1028 13:26:10.065193 28156 net.cpp:165] Memory required for data: 1399669508
I1028 13:26:10.065201 28156 layer_factory.hpp:76] Creating layer inception_4c/prelu_5x5
I1028 13:26:10.065210 28156 net.cpp:106] Creating Layer inception_4c/prelu_5x5
I1028 13:26:10.065217 28156 net.cpp:454] inception_4c/prelu_5x5 <- inception_4c/5x5
I1028 13:26:10.065225 28156 net.cpp:397] inception_4c/prelu_5x5 -> inception_4c/5x5 (in-place)
I1028 13:26:10.065341 28156 net.cpp:150] Setting up inception_4c/prelu_5x5
I1028 13:26:10.065351 28156 net.cpp:157] Top shape: 32 64 14 14 (401408)
I1028 13:26:10.065354 28156 net.cpp:165] Memory required for data: 1401275140
I1028 13:26:10.065359 28156 layer_factory.hpp:76] Creating layer inception_4c/pool
I1028 13:26:10.065367 28156 net.cpp:106] Creating Layer inception_4c/pool
I1028 13:26:10.065371 28156 net.cpp:454] inception_4c/pool <- inception_4b/output_inception_4b/output_0_split_3
I1028 13:26:10.065379 28156 net.cpp:411] inception_4c/pool -> inception_4c/pool
I1028 13:26:10.065560 28156 net.cpp:150] Setting up inception_4c/pool
I1028 13:26:10.065572 28156 net.cpp:157] Top shape: 32 512 14 14 (3211264)
I1028 13:26:10.065575 28156 net.cpp:165] Memory required for data: 1414120196
I1028 13:26:10.065580 28156 layer_factory.hpp:76] Creating layer inception_4c/pool_proj
I1028 13:26:10.065588 28156 net.cpp:106] Creating Layer inception_4c/pool_proj
I1028 13:26:10.065593 28156 net.cpp:454] inception_4c/pool_proj <- inception_4c/pool
I1028 13:26:10.065600 28156 net.cpp:411] inception_4c/pool_proj -> inception_4c/pool_proj
I1028 13:26:10.067020 28156 cudnn_conv_layer.cpp:194] Reallocating workspace storage: 10080
I1028 13:26:10.067052 28156 net.cpp:150] Setting up inception_4c/pool_proj
I1028 13:26:10.067060 28156 net.cpp:157] Top shape: 32 64 14 14 (401408)
I1028 13:26:10.067065 28156 net.cpp:165] Memory required for data: 1415725828
I1028 13:26:10.067071 28156 layer_factory.hpp:76] Creating layer inception_4c/prelu_pool_proj
I1028 13:26:10.067081 28156 net.cpp:106] Creating Layer inception_4c/prelu_pool_proj
I1028 13:26:10.067087 28156 net.cpp:454] inception_4c/prelu_pool_proj <- inception_4c/pool_proj
I1028 13:26:10.067093 28156 net.cpp:397] inception_4c/prelu_pool_proj -> inception_4c/pool_proj (in-place)
I1028 13:26:10.067194 28156 net.cpp:150] Setting up inception_4c/prelu_pool_proj
I1028 13:26:10.067204 28156 net.cpp:157] Top shape: 32 64 14 14 (401408)
I1028 13:26:10.067209 28156 net.cpp:165] Memory required for data: 1417331460
I1028 13:26:10.067214 28156 layer_factory.hpp:76] Creating layer inception_4c/output
I1028 13:26:10.067221 28156 net.cpp:106] Creating Layer inception_4c/output
I1028 13:26:10.067225 28156 net.cpp:454] inception_4c/output <- inception_4c/1x1
I1028 13:26:10.067230 28156 net.cpp:454] inception_4c/output <- inception_4c/3x3
I1028 13:26:10.067235 28156 net.cpp:454] inception_4c/output <- inception_4c/5x5
I1028 13:26:10.067240 28156 net.cpp:454] inception_4c/output <- inception_4c/pool_proj
I1028 13:26:10.067245 28156 net.cpp:411] inception_4c/output -> inception_4c/output
I1028 13:26:10.067271 28156 net.cpp:150] Setting up inception_4c/output
I1028 13:26:10.067279 28156 net.cpp:157] Top shape: 32 512 14 14 (3211264)
I1028 13:26:10.067283 28156 net.cpp:165] Memory required for data: 1430176516
I1028 13:26:10.067287 28156 layer_factory.hpp:76] Creating layer inception_4c/output_inception_4c/output_0_split
I1028 13:26:10.067296 28156 net.cpp:106] Creating Layer inception_4c/output_inception_4c/output_0_split
I1028 13:26:10.067312 28156 net.cpp:454] inception_4c/output_inception_4c/output_0_split <- inception_4c/output
I1028 13:26:10.067319 28156 net.cpp:411] inception_4c/output_inception_4c/output_0_split -> inception_4c/output_inception_4c/output_0_split_0
I1028 13:26:10.067327 28156 net.cpp:411] inception_4c/output_inception_4c/output_0_split -> inception_4c/output_inception_4c/output_0_split_1
I1028 13:26:10.067334 28156 net.cpp:411] inception_4c/output_inception_4c/output_0_split -> inception_4c/output_inception_4c/output_0_split_2
I1028 13:26:10.067340 28156 net.cpp:411] inception_4c/output_inception_4c/output_0_split -> inception_4c/output_inception_4c/output_0_split_3
I1028 13:26:10.067400 28156 net.cpp:150] Setting up inception_4c/output_inception_4c/output_0_split
I1028 13:26:10.067409 28156 net.cpp:157] Top shape: 32 512 14 14 (3211264)
I1028 13:26:10.067414 28156 net.cpp:157] Top shape: 32 512 14 14 (3211264)
I1028 13:26:10.067419 28156 net.cpp:157] Top shape: 32 512 14 14 (3211264)
I1028 13:26:10.067423 28156 net.cpp:157] Top shape: 32 512 14 14 (3211264)
I1028 13:26:10.067426 28156 net.cpp:165] Memory required for data: 1481556740
I1028 13:26:10.067430 28156 layer_factory.hpp:76] Creating layer inception_4d/1x1
I1028 13:26:10.067437 28156 net.cpp:106] Creating Layer inception_4d/1x1
I1028 13:26:10.067442 28156 net.cpp:454] inception_4d/1x1 <- inception_4c/output_inception_4c/output_0_split_0
I1028 13:26:10.067450 28156 net.cpp:411] inception_4d/1x1 -> inception_4d/1x1
I1028 13:26:10.068819 28156 cudnn_conv_layer.cpp:194] Reallocating workspace storage: 10080
I1028 13:26:10.068845 28156 net.cpp:150] Setting up inception_4d/1x1
I1028 13:26:10.068852 28156 net.cpp:157] Top shape: 32 112 14 14 (702464)
I1028 13:26:10.068856 28156 net.cpp:165] Memory required for data: 1484366596
I1028 13:26:10.068863 28156 layer_factory.hpp:76] Creating layer inception_4d/prelu_1x1
I1028 13:26:10.068871 28156 net.cpp:106] Creating Layer inception_4d/prelu_1x1
I1028 13:26:10.068877 28156 net.cpp:454] inception_4d/prelu_1x1 <- inception_4d/1x1
I1028 13:26:10.068884 28156 net.cpp:397] inception_4d/prelu_1x1 -> inception_4d/1x1 (in-place)
I1028 13:26:10.068992 28156 net.cpp:150] Setting up inception_4d/prelu_1x1
I1028 13:26:10.069001 28156 net.cpp:157] Top shape: 32 112 14 14 (702464)
I1028 13:26:10.069005 28156 net.cpp:165] Memory required for data: 1487176452
I1028 13:26:10.069010 28156 layer_factory.hpp:76] Creating layer inception_4d/3x3_reduce
I1028 13:26:10.069020 28156 net.cpp:106] Creating Layer inception_4d/3x3_reduce
I1028 13:26:10.069025 28156 net.cpp:454] inception_4d/3x3_reduce <- inception_4c/output_inception_4c/output_0_split_1
I1028 13:26:10.069032 28156 net.cpp:411] inception_4d/3x3_reduce -> inception_4d/3x3_reduce
I1028 13:26:10.070298 28156 cudnn_conv_layer.cpp:194] Reallocating workspace storage: 10080
I1028 13:26:10.070322 28156 net.cpp:150] Setting up inception_4d/3x3_reduce
I1028 13:26:10.070330 28156 net.cpp:157] Top shape: 32 144 14 14 (903168)
I1028 13:26:10.070334 28156 net.cpp:165] Memory required for data: 1490789124
I1028 13:26:10.070340 28156 layer_factory.hpp:76] Creating layer inception_4d/prelu_3x3_reduce
I1028 13:26:10.070349 28156 net.cpp:106] Creating Layer inception_4d/prelu_3x3_reduce
I1028 13:26:10.070354 28156 net.cpp:454] inception_4d/prelu_3x3_reduce <- inception_4d/3x3_reduce
I1028 13:26:10.070363 28156 net.cpp:397] inception_4d/prelu_3x3_reduce -> inception_4d/3x3_reduce (in-place)
I1028 13:26:10.070468 28156 net.cpp:150] Setting up inception_4d/prelu_3x3_reduce
I1028 13:26:10.070477 28156 net.cpp:157] Top shape: 32 144 14 14 (903168)
I1028 13:26:10.070482 28156 net.cpp:165] Memory required for data: 1494401796
I1028 13:26:10.070487 28156 layer_factory.hpp:76] Creating layer inception_4d/3x3
I1028 13:26:10.070495 28156 net.cpp:106] Creating Layer inception_4d/3x3
I1028 13:26:10.070502 28156 net.cpp:454] inception_4d/3x3 <- inception_4d/3x3_reduce
I1028 13:26:10.070508 28156 net.cpp:411] inception_4d/3x3 -> inception_4d/3x3
I1028 13:26:10.074226 28156 cudnn_conv_layer.cpp:194] Reallocating workspace storage: 10080
I1028 13:26:10.074278 28156 net.cpp:150] Setting up inception_4d/3x3
I1028 13:26:10.074288 28156 net.cpp:157] Top shape: 32 288 14 14 (1806336)
I1028 13:26:10.074292 28156 net.cpp:165] Memory required for data: 1501627140
I1028 13:26:10.074301 28156 layer_factory.hpp:76] Creating layer inception_4d/prelu_3x3
I1028 13:26:10.074311 28156 net.cpp:106] Creating Layer inception_4d/prelu_3x3
I1028 13:26:10.074317 28156 net.cpp:454] inception_4d/prelu_3x3 <- inception_4d/3x3
I1028 13:26:10.074326 28156 net.cpp:397] inception_4d/prelu_3x3 -> inception_4d/3x3 (in-place)
I1028 13:26:10.074484 28156 net.cpp:150] Setting up inception_4d/prelu_3x3
I1028 13:26:10.074494 28156 net.cpp:157] Top shape: 32 288 14 14 (1806336)
I1028 13:26:10.074498 28156 net.cpp:165] Memory required for data: 1508852484
I1028 13:26:10.074503 28156 layer_factory.hpp:76] Creating layer inception_4d/5x5_reduce
I1028 13:26:10.074515 28156 net.cpp:106] Creating Layer inception_4d/5x5_reduce
I1028 13:26:10.074520 28156 net.cpp:454] inception_4d/5x5_reduce <- inception_4c/output_inception_4c/output_0_split_2
I1028 13:26:10.074527 28156 net.cpp:411] inception_4d/5x5_reduce -> inception_4d/5x5_reduce
I1028 13:26:10.075754 28156 cudnn_conv_layer.cpp:194] Reallocating workspace storage: 10080
I1028 13:26:10.075788 28156 net.cpp:150] Setting up inception_4d/5x5_reduce
I1028 13:26:10.075798 28156 net.cpp:157] Top shape: 32 32 14 14 (200704)
I1028 13:26:10.075801 28156 net.cpp:165] Memory required for data: 1509655300
I1028 13:26:10.075810 28156 layer_factory.hpp:76] Creating layer inception_4d/prelu_5x5_reduce
I1028 13:26:10.075820 28156 net.cpp:106] Creating Layer inception_4d/prelu_5x5_reduce
I1028 13:26:10.075827 28156 net.cpp:454] inception_4d/prelu_5x5_reduce <- inception_4d/5x5_reduce
I1028 13:26:10.075834 28156 net.cpp:397] inception_4d/prelu_5x5_reduce -> inception_4d/5x5_reduce (in-place)
I1028 13:26:10.075953 28156 net.cpp:150] Setting up inception_4d/prelu_5x5_reduce
I1028 13:26:10.075963 28156 net.cpp:157] Top shape: 32 32 14 14 (200704)
I1028 13:26:10.075965 28156 net.cpp:165] Memory required for data: 1510458116
I1028 13:26:10.075971 28156 layer_factory.hpp:76] Creating layer inception_4d/5x5
I1028 13:26:10.075980 28156 net.cpp:106] Creating Layer inception_4d/5x5
I1028 13:26:10.075986 28156 net.cpp:454] inception_4d/5x5 <- inception_4d/5x5_reduce
I1028 13:26:10.075994 28156 net.cpp:411] inception_4d/5x5 -> inception_4d/5x5
I1028 13:26:10.077790 28156 cudnn_conv_layer.cpp:194] Reallocating workspace storage: 13080
I1028 13:26:10.077828 28156 net.cpp:150] Setting up inception_4d/5x5
I1028 13:26:10.077837 28156 net.cpp:157] Top shape: 32 64 14 14 (401408)
I1028 13:26:10.077842 28156 net.cpp:165] Memory required for data: 1512063748
I1028 13:26:10.077848 28156 layer_factory.hpp:76] Creating layer inception_4d/prelu_5x5
I1028 13:26:10.077867 28156 net.cpp:106] Creating Layer inception_4d/prelu_5x5
I1028 13:26:10.077874 28156 net.cpp:454] inception_4d/prelu_5x5 <- inception_4d/5x5
I1028 13:26:10.077880 28156 net.cpp:397] inception_4d/prelu_5x5 -> inception_4d/5x5 (in-place)
I1028 13:26:10.077983 28156 net.cpp:150] Setting up inception_4d/prelu_5x5
I1028 13:26:10.077992 28156 net.cpp:157] Top shape: 32 64 14 14 (401408)
I1028 13:26:10.077996 28156 net.cpp:165] Memory required for data: 1513669380
I1028 13:26:10.078001 28156 layer_factory.hpp:76] Creating layer inception_4d/pool
I1028 13:26:10.078011 28156 net.cpp:106] Creating Layer inception_4d/pool
I1028 13:26:10.078027 28156 net.cpp:454] inception_4d/pool <- inception_4c/output_inception_4c/output_0_split_3
I1028 13:26:10.078034 28156 net.cpp:411] inception_4d/pool -> inception_4d/pool
I1028 13:26:10.078235 28156 net.cpp:150] Setting up inception_4d/pool
I1028 13:26:10.078244 28156 net.cpp:157] Top shape: 32 512 14 14 (3211264)
I1028 13:26:10.078248 28156 net.cpp:165] Memory required for data: 1526514436
I1028 13:26:10.078253 28156 layer_factory.hpp:76] Creating layer inception_4d/pool_proj
I1028 13:26:10.078274 28156 net.cpp:106] Creating Layer inception_4d/pool_proj
I1028 13:26:10.078279 28156 net.cpp:454] inception_4d/pool_proj <- inception_4d/pool
I1028 13:26:10.078299 28156 net.cpp:411] inception_4d/pool_proj -> inception_4d/pool_proj
I1028 13:26:10.079553 28156 cudnn_conv_layer.cpp:194] Reallocating workspace storage: 10080
I1028 13:26:10.079596 28156 net.cpp:150] Setting up inception_4d/pool_proj
I1028 13:26:10.079617 28156 net.cpp:157] Top shape: 32 64 14 14 (401408)
I1028 13:26:10.079620 28156 net.cpp:165] Memory required for data: 1528120068
I1028 13:26:10.079638 28156 layer_factory.hpp:76] Creating layer inception_4d/prelu_pool_proj
I1028 13:26:10.079646 28156 net.cpp:106] Creating Layer inception_4d/prelu_pool_proj
I1028 13:26:10.079651 28156 net.cpp:454] inception_4d/prelu_pool_proj <- inception_4d/pool_proj
I1028 13:26:10.079660 28156 net.cpp:397] inception_4d/prelu_pool_proj -> inception_4d/pool_proj (in-place)
I1028 13:26:10.079771 28156 net.cpp:150] Setting up inception_4d/prelu_pool_proj
I1028 13:26:10.079779 28156 net.cpp:157] Top shape: 32 64 14 14 (401408)
I1028 13:26:10.079783 28156 net.cpp:165] Memory required for data: 1529725700
I1028 13:26:10.079789 28156 layer_factory.hpp:76] Creating layer inception_4d/output
I1028 13:26:10.079797 28156 net.cpp:106] Creating Layer inception_4d/output
I1028 13:26:10.079802 28156 net.cpp:454] inception_4d/output <- inception_4d/1x1
I1028 13:26:10.079807 28156 net.cpp:454] inception_4d/output <- inception_4d/3x3
I1028 13:26:10.079812 28156 net.cpp:454] inception_4d/output <- inception_4d/5x5
I1028 13:26:10.079816 28156 net.cpp:454] inception_4d/output <- inception_4d/pool_proj
I1028 13:26:10.079821 28156 net.cpp:411] inception_4d/output -> inception_4d/output
I1028 13:26:10.079850 28156 net.cpp:150] Setting up inception_4d/output
I1028 13:26:10.079859 28156 net.cpp:157] Top shape: 32 528 14 14 (3311616)
I1028 13:26:10.079862 28156 net.cpp:165] Memory required for data: 1542972164
I1028 13:26:10.079866 28156 layer_factory.hpp:76] Creating layer inception_4d/output_inception_4d/output_0_split
I1028 13:26:10.079876 28156 net.cpp:106] Creating Layer inception_4d/output_inception_4d/output_0_split
I1028 13:26:10.079881 28156 net.cpp:454] inception_4d/output_inception_4d/output_0_split <- inception_4d/output
I1028 13:26:10.079886 28156 net.cpp:411] inception_4d/output_inception_4d/output_0_split -> inception_4d/output_inception_4d/output_0_split_0
I1028 13:26:10.079893 28156 net.cpp:411] inception_4d/output_inception_4d/output_0_split -> inception_4d/output_inception_4d/output_0_split_1
I1028 13:26:10.079900 28156 net.cpp:411] inception_4d/output_inception_4d/output_0_split -> inception_4d/output_inception_4d/output_0_split_2
I1028 13:26:10.079907 28156 net.cpp:411] inception_4d/output_inception_4d/output_0_split -> inception_4d/output_inception_4d/output_0_split_3
I1028 13:26:10.079915 28156 net.cpp:411] inception_4d/output_inception_4d/output_0_split -> inception_4d/output_inception_4d/output_0_split_4
I1028 13:26:10.079990 28156 net.cpp:150] Setting up inception_4d/output_inception_4d/output_0_split
I1028 13:26:10.079998 28156 net.cpp:157] Top shape: 32 528 14 14 (3311616)
I1028 13:26:10.080003 28156 net.cpp:157] Top shape: 32 528 14 14 (3311616)
I1028 13:26:10.080008 28156 net.cpp:157] Top shape: 32 528 14 14 (3311616)
I1028 13:26:10.080013 28156 net.cpp:157] Top shape: 32 528 14 14 (3311616)
I1028 13:26:10.080018 28156 net.cpp:157] Top shape: 32 528 14 14 (3311616)
I1028 13:26:10.080021 28156 net.cpp:165] Memory required for data: 1609204484
I1028 13:26:10.080025 28156 layer_factory.hpp:76] Creating layer loss2/ave_pool
I1028 13:26:10.080031 28156 net.cpp:106] Creating Layer loss2/ave_pool
I1028 13:26:10.080036 28156 net.cpp:454] loss2/ave_pool <- inception_4d/output_inception_4d/output_0_split_0
I1028 13:26:10.080042 28156 net.cpp:411] loss2/ave_pool -> loss2/ave_pool
I1028 13:26:10.080446 28156 net.cpp:150] Setting up loss2/ave_pool
I1028 13:26:10.080459 28156 net.cpp:157] Top shape: 32 528 4 4 (270336)
I1028 13:26:10.080463 28156 net.cpp:165] Memory required for data: 1610285828
I1028 13:26:10.080467 28156 layer_factory.hpp:76] Creating layer loss2/conv
I1028 13:26:10.080492 28156 net.cpp:106] Creating Layer loss2/conv
I1028 13:26:10.080497 28156 net.cpp:454] loss2/conv <- loss2/ave_pool
I1028 13:26:10.080505 28156 net.cpp:411] loss2/conv -> loss2/conv
I1028 13:26:10.081995 28156 cudnn_conv_layer.cpp:194] Reallocating workspace storage: 6840
I1028 13:26:10.082034 28156 net.cpp:150] Setting up loss2/conv
I1028 13:26:10.082046 28156 net.cpp:157] Top shape: 32 128 4 4 (65536)
I1028 13:26:10.082051 28156 net.cpp:165] Memory required for data: 1610547972
I1028 13:26:10.082059 28156 layer_factory.hpp:76] Creating layer loss2/prelu_conv
I1028 13:26:10.082068 28156 net.cpp:106] Creating Layer loss2/prelu_conv
I1028 13:26:10.082073 28156 net.cpp:454] loss2/prelu_conv <- loss2/conv
I1028 13:26:10.082082 28156 net.cpp:397] loss2/prelu_conv -> loss2/conv (in-place)
I1028 13:26:10.082180 28156 net.cpp:150] Setting up loss2/prelu_conv
I1028 13:26:10.082190 28156 net.cpp:157] Top shape: 32 128 4 4 (65536)
I1028 13:26:10.082192 28156 net.cpp:165] Memory required for data: 1610810116
I1028 13:26:10.082198 28156 layer_factory.hpp:76] Creating layer loss2/fc
I1028 13:26:10.082207 28156 net.cpp:106] Creating Layer loss2/fc
I1028 13:26:10.082211 28156 net.cpp:454] loss2/fc <- loss2/conv
I1028 13:26:10.082217 28156 net.cpp:411] loss2/fc -> loss2/fc
I1028 13:26:10.097362 28156 net.cpp:150] Setting up loss2/fc
I1028 13:26:10.097406 28156 net.cpp:157] Top shape: 32 1024 (32768)
I1028 13:26:10.097411 28156 net.cpp:165] Memory required for data: 1610941188
I1028 13:26:10.097450 28156 layer_factory.hpp:76] Creating layer loss2/prelu_fc
I1028 13:26:10.097465 28156 net.cpp:106] Creating Layer loss2/prelu_fc
I1028 13:26:10.097472 28156 net.cpp:454] loss2/prelu_fc <- loss2/fc
I1028 13:26:10.097479 28156 net.cpp:397] loss2/prelu_fc -> loss2/fc (in-place)
I1028 13:26:10.097571 28156 net.cpp:150] Setting up loss2/prelu_fc
I1028 13:26:10.097596 28156 net.cpp:157] Top shape: 32 1024 (32768)
I1028 13:26:10.097600 28156 net.cpp:165] Memory required for data: 1611072260
I1028 13:26:10.097605 28156 layer_factory.hpp:76] Creating layer loss2/drop_fc
I1028 13:26:10.097614 28156 net.cpp:106] Creating Layer loss2/drop_fc
I1028 13:26:10.097617 28156 net.cpp:454] loss2/drop_fc <- loss2/fc
I1028 13:26:10.097625 28156 net.cpp:397] loss2/drop_fc -> loss2/fc (in-place)
I1028 13:26:10.097651 28156 net.cpp:150] Setting up loss2/drop_fc
I1028 13:26:10.097658 28156 net.cpp:157] Top shape: 32 1024 (32768)
I1028 13:26:10.097662 28156 net.cpp:165] Memory required for data: 1611203332
I1028 13:26:10.097666 28156 layer_factory.hpp:76] Creating layer loss2/classifier2
I1028 13:26:10.097674 28156 net.cpp:106] Creating Layer loss2/classifier2
I1028 13:26:10.097679 28156 net.cpp:454] loss2/classifier2 <- loss2/fc
I1028 13:26:10.097687 28156 net.cpp:411] loss2/classifier2 -> loss2/classifier
I1028 13:26:10.097810 28156 net.cpp:150] Setting up loss2/classifier2
I1028 13:26:10.097823 28156 net.cpp:157] Top shape: 32 2 (64)
I1028 13:26:10.097831 28156 net.cpp:165] Memory required for data: 1611203588
I1028 13:26:10.097838 28156 layer_factory.hpp:76] Creating layer loss2/loss
I1028 13:26:10.097846 28156 net.cpp:106] Creating Layer loss2/loss
I1028 13:26:10.097851 28156 net.cpp:454] loss2/loss <- loss2/classifier
I1028 13:26:10.097856 28156 net.cpp:454] loss2/loss <- label_data_1_split_1
I1028 13:26:10.097862 28156 net.cpp:411] loss2/loss -> loss2/loss1
I1028 13:26:10.097872 28156 layer_factory.hpp:76] Creating layer loss2/loss
I1028 13:26:10.098238 28156 net.cpp:150] Setting up loss2/loss
I1028 13:26:10.098253 28156 net.cpp:157] Top shape: (1)
I1028 13:26:10.098260 28156 net.cpp:160]     with loss weight 0.3
I1028 13:26:10.098283 28156 net.cpp:165] Memory required for data: 1611203592
I1028 13:26:10.098290 28156 layer_factory.hpp:76] Creating layer inception_4e/1x1
I1028 13:26:10.098309 28156 net.cpp:106] Creating Layer inception_4e/1x1
I1028 13:26:10.098315 28156 net.cpp:454] inception_4e/1x1 <- inception_4d/output_inception_4d/output_0_split_1
I1028 13:26:10.098322 28156 net.cpp:411] inception_4e/1x1 -> inception_4e/1x1
I1028 13:26:10.100697 28156 cudnn_conv_layer.cpp:194] Reallocating workspace storage: 10080
I1028 13:26:10.100739 28156 net.cpp:150] Setting up inception_4e/1x1
I1028 13:26:10.100746 28156 net.cpp:157] Top shape: 32 256 14 14 (1605632)
I1028 13:26:10.100750 28156 net.cpp:165] Memory required for data: 1617626120
I1028 13:26:10.100757 28156 layer_factory.hpp:76] Creating layer inception_4e/prelu_1x1
I1028 13:26:10.100766 28156 net.cpp:106] Creating Layer inception_4e/prelu_1x1
I1028 13:26:10.100780 28156 net.cpp:454] inception_4e/prelu_1x1 <- inception_4e/1x1
I1028 13:26:10.100795 28156 net.cpp:397] inception_4e/prelu_1x1 -> inception_4e/1x1 (in-place)
I1028 13:26:10.100931 28156 net.cpp:150] Setting up inception_4e/prelu_1x1
I1028 13:26:10.100940 28156 net.cpp:157] Top shape: 32 256 14 14 (1605632)
I1028 13:26:10.100944 28156 net.cpp:165] Memory required for data: 1624048648
I1028 13:26:10.100950 28156 layer_factory.hpp:76] Creating layer inception_4e/3x3_reduce
I1028 13:26:10.100962 28156 net.cpp:106] Creating Layer inception_4e/3x3_reduce
I1028 13:26:10.100967 28156 net.cpp:454] inception_4e/3x3_reduce <- inception_4d/output_inception_4d/output_0_split_2
I1028 13:26:10.100975 28156 net.cpp:411] inception_4e/3x3_reduce -> inception_4e/3x3_reduce
I1028 13:26:10.102480 28156 cudnn_conv_layer.cpp:194] Reallocating workspace storage: 10080
I1028 13:26:10.102509 28156 net.cpp:150] Setting up inception_4e/3x3_reduce
I1028 13:26:10.102519 28156 net.cpp:157] Top shape: 32 160 14 14 (1003520)
I1028 13:26:10.102524 28156 net.cpp:165] Memory required for data: 1628062728
I1028 13:26:10.102531 28156 layer_factory.hpp:76] Creating layer inception_4e/prelu_3x3_reduce
I1028 13:26:10.102545 28156 net.cpp:106] Creating Layer inception_4e/prelu_3x3_reduce
I1028 13:26:10.102551 28156 net.cpp:454] inception_4e/prelu_3x3_reduce <- inception_4e/3x3_reduce
I1028 13:26:10.102558 28156 net.cpp:397] inception_4e/prelu_3x3_reduce -> inception_4e/3x3_reduce (in-place)
I1028 13:26:10.102684 28156 net.cpp:150] Setting up inception_4e/prelu_3x3_reduce
I1028 13:26:10.102694 28156 net.cpp:157] Top shape: 32 160 14 14 (1003520)
I1028 13:26:10.102697 28156 net.cpp:165] Memory required for data: 1632076808
I1028 13:26:10.102710 28156 layer_factory.hpp:76] Creating layer inception_4e/3x3
I1028 13:26:10.102721 28156 net.cpp:106] Creating Layer inception_4e/3x3
I1028 13:26:10.102726 28156 net.cpp:454] inception_4e/3x3 <- inception_4e/3x3_reduce
I1028 13:26:10.102733 28156 net.cpp:411] inception_4e/3x3 -> inception_4e/3x3
I1028 13:26:10.107460 28156 cudnn_conv_layer.cpp:194] Reallocating workspace storage: 10080
I1028 13:26:10.107512 28156 net.cpp:150] Setting up inception_4e/3x3
I1028 13:26:10.107535 28156 net.cpp:157] Top shape: 32 320 14 14 (2007040)
I1028 13:26:10.107542 28156 net.cpp:165] Memory required for data: 1640104968
I1028 13:26:10.107552 28156 layer_factory.hpp:76] Creating layer inception_4e/prelu_3x3
I1028 13:26:10.107568 28156 net.cpp:106] Creating Layer inception_4e/prelu_3x3
I1028 13:26:10.107575 28156 net.cpp:454] inception_4e/prelu_3x3 <- inception_4e/3x3
I1028 13:26:10.107584 28156 net.cpp:397] inception_4e/prelu_3x3 -> inception_4e/3x3 (in-place)
I1028 13:26:10.107784 28156 net.cpp:150] Setting up inception_4e/prelu_3x3
I1028 13:26:10.107794 28156 net.cpp:157] Top shape: 32 320 14 14 (2007040)
I1028 13:26:10.107797 28156 net.cpp:165] Memory required for data: 1648133128
I1028 13:26:10.107803 28156 layer_factory.hpp:76] Creating layer inception_4e/5x5_reduce
I1028 13:26:10.107815 28156 net.cpp:106] Creating Layer inception_4e/5x5_reduce
I1028 13:26:10.107831 28156 net.cpp:454] inception_4e/5x5_reduce <- inception_4d/output_inception_4d/output_0_split_3
I1028 13:26:10.107839 28156 net.cpp:411] inception_4e/5x5_reduce -> inception_4e/5x5_reduce
I1028 13:26:10.109071 28156 cudnn_conv_layer.cpp:194] Reallocating workspace storage: 10080
I1028 13:26:10.109102 28156 net.cpp:150] Setting up inception_4e/5x5_reduce
I1028 13:26:10.109110 28156 net.cpp:157] Top shape: 32 32 14 14 (200704)
I1028 13:26:10.109117 28156 net.cpp:165] Memory required for data: 1648935944
I1028 13:26:10.109139 28156 layer_factory.hpp:76] Creating layer inception_4e/prelu_5x5_reduce
I1028 13:26:10.109149 28156 net.cpp:106] Creating Layer inception_4e/prelu_5x5_reduce
I1028 13:26:10.109154 28156 net.cpp:454] inception_4e/prelu_5x5_reduce <- inception_4e/5x5_reduce
I1028 13:26:10.109160 28156 net.cpp:397] inception_4e/prelu_5x5_reduce -> inception_4e/5x5_reduce (in-place)
I1028 13:26:10.109290 28156 net.cpp:150] Setting up inception_4e/prelu_5x5_reduce
I1028 13:26:10.109299 28156 net.cpp:157] Top shape: 32 32 14 14 (200704)
I1028 13:26:10.109303 28156 net.cpp:165] Memory required for data: 1649738760
I1028 13:26:10.109319 28156 layer_factory.hpp:76] Creating layer inception_4e/5x5
I1028 13:26:10.109344 28156 net.cpp:106] Creating Layer inception_4e/5x5
I1028 13:26:10.109350 28156 net.cpp:454] inception_4e/5x5 <- inception_4e/5x5_reduce
I1028 13:26:10.109379 28156 net.cpp:411] inception_4e/5x5 -> inception_4e/5x5
I1028 13:26:10.111553 28156 cudnn_conv_layer.cpp:194] Reallocating workspace storage: 13080
I1028 13:26:10.111594 28156 net.cpp:150] Setting up inception_4e/5x5
I1028 13:26:10.111604 28156 net.cpp:157] Top shape: 32 128 14 14 (802816)
I1028 13:26:10.111609 28156 net.cpp:165] Memory required for data: 1652950024
I1028 13:26:10.111618 28156 layer_factory.hpp:76] Creating layer inception_4e/prelu_5x5
I1028 13:26:10.111627 28156 net.cpp:106] Creating Layer inception_4e/prelu_5x5
I1028 13:26:10.111634 28156 net.cpp:454] inception_4e/prelu_5x5 <- inception_4e/5x5
I1028 13:26:10.111641 28156 net.cpp:397] inception_4e/prelu_5x5 -> inception_4e/5x5 (in-place)
I1028 13:26:10.111762 28156 net.cpp:150] Setting up inception_4e/prelu_5x5
I1028 13:26:10.111771 28156 net.cpp:157] Top shape: 32 128 14 14 (802816)
I1028 13:26:10.111775 28156 net.cpp:165] Memory required for data: 1656161288
I1028 13:26:10.111781 28156 layer_factory.hpp:76] Creating layer inception_4e/pool
I1028 13:26:10.111788 28156 net.cpp:106] Creating Layer inception_4e/pool
I1028 13:26:10.111793 28156 net.cpp:454] inception_4e/pool <- inception_4d/output_inception_4d/output_0_split_4
I1028 13:26:10.111799 28156 net.cpp:411] inception_4e/pool -> inception_4e/pool
I1028 13:26:10.112190 28156 net.cpp:150] Setting up inception_4e/pool
I1028 13:26:10.112202 28156 net.cpp:157] Top shape: 32 528 14 14 (3311616)
I1028 13:26:10.112206 28156 net.cpp:165] Memory required for data: 1669407752
I1028 13:26:10.112210 28156 layer_factory.hpp:76] Creating layer inception_4e/pool_proj
I1028 13:26:10.112221 28156 net.cpp:106] Creating Layer inception_4e/pool_proj
I1028 13:26:10.112226 28156 net.cpp:454] inception_4e/pool_proj <- inception_4e/pool
I1028 13:26:10.112232 28156 net.cpp:411] inception_4e/pool_proj -> inception_4e/pool_proj
I1028 13:26:10.113561 28156 cudnn_conv_layer.cpp:194] Reallocating workspace storage: 10080
I1028 13:26:10.113610 28156 net.cpp:150] Setting up inception_4e/pool_proj
I1028 13:26:10.113620 28156 net.cpp:157] Top shape: 32 128 14 14 (802816)
I1028 13:26:10.113623 28156 net.cpp:165] Memory required for data: 1672619016
I1028 13:26:10.113631 28156 layer_factory.hpp:76] Creating layer inception_4e/prelu_pool_proj
I1028 13:26:10.113641 28156 net.cpp:106] Creating Layer inception_4e/prelu_pool_proj
I1028 13:26:10.113646 28156 net.cpp:454] inception_4e/prelu_pool_proj <- inception_4e/pool_proj
I1028 13:26:10.113653 28156 net.cpp:397] inception_4e/prelu_pool_proj -> inception_4e/pool_proj (in-place)
I1028 13:26:10.113798 28156 net.cpp:150] Setting up inception_4e/prelu_pool_proj
I1028 13:26:10.113809 28156 net.cpp:157] Top shape: 32 128 14 14 (802816)
I1028 13:26:10.113813 28156 net.cpp:165] Memory required for data: 1675830280
I1028 13:26:10.113818 28156 layer_factory.hpp:76] Creating layer inception_4e/output
I1028 13:26:10.113837 28156 net.cpp:106] Creating Layer inception_4e/output
I1028 13:26:10.113842 28156 net.cpp:454] inception_4e/output <- inception_4e/1x1
I1028 13:26:10.113847 28156 net.cpp:454] inception_4e/output <- inception_4e/3x3
I1028 13:26:10.113852 28156 net.cpp:454] inception_4e/output <- inception_4e/5x5
I1028 13:26:10.113857 28156 net.cpp:454] inception_4e/output <- inception_4e/pool_proj
I1028 13:26:10.113885 28156 net.cpp:411] inception_4e/output -> inception_4e/output
I1028 13:26:10.113940 28156 net.cpp:150] Setting up inception_4e/output
I1028 13:26:10.113948 28156 net.cpp:157] Top shape: 32 832 14 14 (5218304)
I1028 13:26:10.113951 28156 net.cpp:165] Memory required for data: 1696703496
I1028 13:26:10.113955 28156 layer_factory.hpp:76] Creating layer pool4/3x3_s2
I1028 13:26:10.113975 28156 net.cpp:106] Creating Layer pool4/3x3_s2
I1028 13:26:10.113979 28156 net.cpp:454] pool4/3x3_s2 <- inception_4e/output
I1028 13:26:10.113986 28156 net.cpp:411] pool4/3x3_s2 -> pool4/3x3_s2
I1028 13:26:10.114413 28156 net.cpp:150] Setting up pool4/3x3_s2
I1028 13:26:10.114424 28156 net.cpp:157] Top shape: 32 832 7 7 (1304576)
I1028 13:26:10.114428 28156 net.cpp:165] Memory required for data: 1701921800
I1028 13:26:10.114434 28156 layer_factory.hpp:76] Creating layer pool4/3x3_s2_pool4/3x3_s2_0_split
I1028 13:26:10.114442 28156 net.cpp:106] Creating Layer pool4/3x3_s2_pool4/3x3_s2_0_split
I1028 13:26:10.114447 28156 net.cpp:454] pool4/3x3_s2_pool4/3x3_s2_0_split <- pool4/3x3_s2
I1028 13:26:10.114454 28156 net.cpp:411] pool4/3x3_s2_pool4/3x3_s2_0_split -> pool4/3x3_s2_pool4/3x3_s2_0_split_0
I1028 13:26:10.114460 28156 net.cpp:411] pool4/3x3_s2_pool4/3x3_s2_0_split -> pool4/3x3_s2_pool4/3x3_s2_0_split_1
I1028 13:26:10.114467 28156 net.cpp:411] pool4/3x3_s2_pool4/3x3_s2_0_split -> pool4/3x3_s2_pool4/3x3_s2_0_split_2
I1028 13:26:10.114475 28156 net.cpp:411] pool4/3x3_s2_pool4/3x3_s2_0_split -> pool4/3x3_s2_pool4/3x3_s2_0_split_3
I1028 13:26:10.114543 28156 net.cpp:150] Setting up pool4/3x3_s2_pool4/3x3_s2_0_split
I1028 13:26:10.114552 28156 net.cpp:157] Top shape: 32 832 7 7 (1304576)
I1028 13:26:10.114557 28156 net.cpp:157] Top shape: 32 832 7 7 (1304576)
I1028 13:26:10.114573 28156 net.cpp:157] Top shape: 32 832 7 7 (1304576)
I1028 13:26:10.114578 28156 net.cpp:157] Top shape: 32 832 7 7 (1304576)
I1028 13:26:10.114580 28156 net.cpp:165] Memory required for data: 1722795016
I1028 13:26:10.114584 28156 layer_factory.hpp:76] Creating layer inception_5a/1x1
I1028 13:26:10.114593 28156 net.cpp:106] Creating Layer inception_5a/1x1
I1028 13:26:10.114599 28156 net.cpp:454] inception_5a/1x1 <- pool4/3x3_s2_pool4/3x3_s2_0_split_0
I1028 13:26:10.114609 28156 net.cpp:411] inception_5a/1x1 -> inception_5a/1x1
I1028 13:26:10.117383 28156 cudnn_conv_layer.cpp:194] Reallocating workspace storage: 7428
I1028 13:26:10.117424 28156 net.cpp:150] Setting up inception_5a/1x1
I1028 13:26:10.117434 28156 net.cpp:157] Top shape: 32 256 7 7 (401408)
I1028 13:26:10.117437 28156 net.cpp:165] Memory required for data: 1724400648
I1028 13:26:10.117444 28156 layer_factory.hpp:76] Creating layer inception_5a/prelu_1x1
I1028 13:26:10.117452 28156 net.cpp:106] Creating Layer inception_5a/prelu_1x1
I1028 13:26:10.117457 28156 net.cpp:454] inception_5a/prelu_1x1 <- inception_5a/1x1
I1028 13:26:10.117466 28156 net.cpp:397] inception_5a/prelu_1x1 -> inception_5a/1x1 (in-place)
I1028 13:26:10.118023 28156 net.cpp:150] Setting up inception_5a/prelu_1x1
I1028 13:26:10.118039 28156 net.cpp:157] Top shape: 32 256 7 7 (401408)
I1028 13:26:10.118044 28156 net.cpp:165] Memory required for data: 1726006280
I1028 13:26:10.118051 28156 layer_factory.hpp:76] Creating layer inception_5a/3x3_reduce
I1028 13:26:10.118060 28156 net.cpp:106] Creating Layer inception_5a/3x3_reduce
I1028 13:26:10.118067 28156 net.cpp:454] inception_5a/3x3_reduce <- pool4/3x3_s2_pool4/3x3_s2_0_split_1
I1028 13:26:10.118074 28156 net.cpp:411] inception_5a/3x3_reduce -> inception_5a/3x3_reduce
I1028 13:26:10.120380 28156 cudnn_conv_layer.cpp:194] Reallocating workspace storage: 7428
I1028 13:26:10.120414 28156 net.cpp:150] Setting up inception_5a/3x3_reduce
I1028 13:26:10.120422 28156 net.cpp:157] Top shape: 32 160 7 7 (250880)
I1028 13:26:10.120426 28156 net.cpp:165] Memory required for data: 1727009800
I1028 13:26:10.120434 28156 layer_factory.hpp:76] Creating layer inception_5a/prelu_3x3_reduce
I1028 13:26:10.120440 28156 net.cpp:106] Creating Layer inception_5a/prelu_3x3_reduce
I1028 13:26:10.120457 28156 net.cpp:454] inception_5a/prelu_3x3_reduce <- inception_5a/3x3_reduce
I1028 13:26:10.120465 28156 net.cpp:397] inception_5a/prelu_3x3_reduce -> inception_5a/3x3_reduce (in-place)
I1028 13:26:10.120565 28156 net.cpp:150] Setting up inception_5a/prelu_3x3_reduce
I1028 13:26:10.120574 28156 net.cpp:157] Top shape: 32 160 7 7 (250880)
I1028 13:26:10.120579 28156 net.cpp:165] Memory required for data: 1728013320
I1028 13:26:10.120584 28156 layer_factory.hpp:76] Creating layer inception_5a/3x3
I1028 13:26:10.120592 28156 net.cpp:106] Creating Layer inception_5a/3x3
I1028 13:26:10.120597 28156 net.cpp:454] inception_5a/3x3 <- inception_5a/3x3_reduce
I1028 13:26:10.120604 28156 net.cpp:411] inception_5a/3x3 -> inception_5a/3x3
I1028 13:26:10.124761 28156 cudnn_conv_layer.cpp:194] Reallocating workspace storage: 7788
I1028 13:26:10.124806 28156 net.cpp:150] Setting up inception_5a/3x3
I1028 13:26:10.124817 28156 net.cpp:157] Top shape: 32 320 7 7 (501760)
I1028 13:26:10.124824 28156 net.cpp:165] Memory required for data: 1730020360
I1028 13:26:10.124832 28156 layer_factory.hpp:76] Creating layer inception_5a/prelu_3x3
I1028 13:26:10.124850 28156 net.cpp:106] Creating Layer inception_5a/prelu_3x3
I1028 13:26:10.124856 28156 net.cpp:454] inception_5a/prelu_3x3 <- inception_5a/3x3
I1028 13:26:10.124864 28156 net.cpp:397] inception_5a/prelu_3x3 -> inception_5a/3x3 (in-place)
I1028 13:26:10.124989 28156 net.cpp:150] Setting up inception_5a/prelu_3x3
I1028 13:26:10.124999 28156 net.cpp:157] Top shape: 32 320 7 7 (501760)
I1028 13:26:10.125002 28156 net.cpp:165] Memory required for data: 1732027400
I1028 13:26:10.125007 28156 layer_factory.hpp:76] Creating layer inception_5a/5x5_reduce
I1028 13:26:10.125017 28156 net.cpp:106] Creating Layer inception_5a/5x5_reduce
I1028 13:26:10.125023 28156 net.cpp:454] inception_5a/5x5_reduce <- pool4/3x3_s2_pool4/3x3_s2_0_split_2
I1028 13:26:10.125031 28156 net.cpp:411] inception_5a/5x5_reduce -> inception_5a/5x5_reduce
I1028 13:26:10.126252 28156 cudnn_conv_layer.cpp:194] Reallocating workspace storage: 7428
I1028 13:26:10.126276 28156 net.cpp:150] Setting up inception_5a/5x5_reduce
I1028 13:26:10.126292 28156 net.cpp:157] Top shape: 32 32 7 7 (50176)
I1028 13:26:10.126297 28156 net.cpp:165] Memory required for data: 1732228104
I1028 13:26:10.126312 28156 layer_factory.hpp:76] Creating layer inception_5a/prelu_5x5_reduce
I1028 13:26:10.126322 28156 net.cpp:106] Creating Layer inception_5a/prelu_5x5_reduce
I1028 13:26:10.126343 28156 net.cpp:454] inception_5a/prelu_5x5_reduce <- inception_5a/5x5_reduce
I1028 13:26:10.126351 28156 net.cpp:397] inception_5a/prelu_5x5_reduce -> inception_5a/5x5_reduce (in-place)
I1028 13:26:10.126451 28156 net.cpp:150] Setting up inception_5a/prelu_5x5_reduce
I1028 13:26:10.126459 28156 net.cpp:157] Top shape: 32 32 7 7 (50176)
I1028 13:26:10.126463 28156 net.cpp:165] Memory required for data: 1732428808
I1028 13:26:10.126468 28156 layer_factory.hpp:76] Creating layer inception_5a/5x5
I1028 13:26:10.126477 28156 net.cpp:106] Creating Layer inception_5a/5x5
I1028 13:26:10.126482 28156 net.cpp:454] inception_5a/5x5 <- inception_5a/5x5_reduce
I1028 13:26:10.126488 28156 net.cpp:411] inception_5a/5x5 -> inception_5a/5x5
I1028 13:26:10.128111 28156 cudnn_conv_layer.cpp:194] Reallocating workspace storage: 9804
I1028 13:26:10.128144 28156 net.cpp:150] Setting up inception_5a/5x5
I1028 13:26:10.128152 28156 net.cpp:157] Top shape: 32 128 7 7 (200704)
I1028 13:26:10.128157 28156 net.cpp:165] Memory required for data: 1733231624
I1028 13:26:10.128164 28156 layer_factory.hpp:76] Creating layer inception_5a/prelu_5x5
I1028 13:26:10.128172 28156 net.cpp:106] Creating Layer inception_5a/prelu_5x5
I1028 13:26:10.128185 28156 net.cpp:454] inception_5a/prelu_5x5 <- inception_5a/5x5
I1028 13:26:10.128193 28156 net.cpp:397] inception_5a/prelu_5x5 -> inception_5a/5x5 (in-place)
I1028 13:26:10.128294 28156 net.cpp:150] Setting up inception_5a/prelu_5x5
I1028 13:26:10.128304 28156 net.cpp:157] Top shape: 32 128 7 7 (200704)
I1028 13:26:10.128317 28156 net.cpp:165] Memory required for data: 1734034440
I1028 13:26:10.128324 28156 layer_factory.hpp:76] Creating layer inception_5a/pool
I1028 13:26:10.128331 28156 net.cpp:106] Creating Layer inception_5a/pool
I1028 13:26:10.128337 28156 net.cpp:454] inception_5a/pool <- pool4/3x3_s2_pool4/3x3_s2_0_split_3
I1028 13:26:10.128343 28156 net.cpp:411] inception_5a/pool -> inception_5a/pool
I1028 13:26:10.128525 28156 net.cpp:150] Setting up inception_5a/pool
I1028 13:26:10.128535 28156 net.cpp:157] Top shape: 32 832 7 7 (1304576)
I1028 13:26:10.128540 28156 net.cpp:165] Memory required for data: 1739252744
I1028 13:26:10.128543 28156 layer_factory.hpp:76] Creating layer inception_5a/pool_proj
I1028 13:26:10.128552 28156 net.cpp:106] Creating Layer inception_5a/pool_proj
I1028 13:26:10.128556 28156 net.cpp:454] inception_5a/pool_proj <- inception_5a/pool
I1028 13:26:10.128563 28156 net.cpp:411] inception_5a/pool_proj -> inception_5a/pool_proj
I1028 13:26:10.130887 28156 cudnn_conv_layer.cpp:194] Reallocating workspace storage: 7428
I1028 13:26:10.130921 28156 net.cpp:150] Setting up inception_5a/pool_proj
I1028 13:26:10.130929 28156 net.cpp:157] Top shape: 32 128 7 7 (200704)
I1028 13:26:10.130934 28156 net.cpp:165] Memory required for data: 1740055560
I1028 13:26:10.130940 28156 layer_factory.hpp:76] Creating layer inception_5a/prelu_pool_proj
I1028 13:26:10.130957 28156 net.cpp:106] Creating Layer inception_5a/prelu_pool_proj
I1028 13:26:10.130964 28156 net.cpp:454] inception_5a/prelu_pool_proj <- inception_5a/pool_proj
I1028 13:26:10.130971 28156 net.cpp:397] inception_5a/prelu_pool_proj -> inception_5a/pool_proj (in-place)
I1028 13:26:10.131077 28156 net.cpp:150] Setting up inception_5a/prelu_pool_proj
I1028 13:26:10.131085 28156 net.cpp:157] Top shape: 32 128 7 7 (200704)
I1028 13:26:10.131088 28156 net.cpp:165] Memory required for data: 1740858376
I1028 13:26:10.131094 28156 layer_factory.hpp:76] Creating layer inception_5a/output
I1028 13:26:10.131108 28156 net.cpp:106] Creating Layer inception_5a/output
I1028 13:26:10.131114 28156 net.cpp:454] inception_5a/output <- inception_5a/1x1
I1028 13:26:10.131119 28156 net.cpp:454] inception_5a/output <- inception_5a/3x3
I1028 13:26:10.131124 28156 net.cpp:454] inception_5a/output <- inception_5a/5x5
I1028 13:26:10.131127 28156 net.cpp:454] inception_5a/output <- inception_5a/pool_proj
I1028 13:26:10.131134 28156 net.cpp:411] inception_5a/output -> inception_5a/output
I1028 13:26:10.131180 28156 net.cpp:150] Setting up inception_5a/output
I1028 13:26:10.131188 28156 net.cpp:157] Top shape: 32 832 7 7 (1304576)
I1028 13:26:10.131191 28156 net.cpp:165] Memory required for data: 1746076680
I1028 13:26:10.131196 28156 layer_factory.hpp:76] Creating layer inception_5a/output_inception_5a/output_0_split
I1028 13:26:10.131202 28156 net.cpp:106] Creating Layer inception_5a/output_inception_5a/output_0_split
I1028 13:26:10.131206 28156 net.cpp:454] inception_5a/output_inception_5a/output_0_split <- inception_5a/output
I1028 13:26:10.131219 28156 net.cpp:411] inception_5a/output_inception_5a/output_0_split -> inception_5a/output_inception_5a/output_0_split_0
I1028 13:26:10.131234 28156 net.cpp:411] inception_5a/output_inception_5a/output_0_split -> inception_5a/output_inception_5a/output_0_split_1
I1028 13:26:10.131243 28156 net.cpp:411] inception_5a/output_inception_5a/output_0_split -> inception_5a/output_inception_5a/output_0_split_2
I1028 13:26:10.131250 28156 net.cpp:411] inception_5a/output_inception_5a/output_0_split -> inception_5a/output_inception_5a/output_0_split_3
I1028 13:26:10.131319 28156 net.cpp:150] Setting up inception_5a/output_inception_5a/output_0_split
I1028 13:26:10.131327 28156 net.cpp:157] Top shape: 32 832 7 7 (1304576)
I1028 13:26:10.131332 28156 net.cpp:157] Top shape: 32 832 7 7 (1304576)
I1028 13:26:10.131336 28156 net.cpp:157] Top shape: 32 832 7 7 (1304576)
I1028 13:26:10.131350 28156 net.cpp:157] Top shape: 32 832 7 7 (1304576)
I1028 13:26:10.131353 28156 net.cpp:165] Memory required for data: 1766949896
I1028 13:26:10.131366 28156 layer_factory.hpp:76] Creating layer inception_5b/1x1
I1028 13:26:10.131382 28156 net.cpp:106] Creating Layer inception_5b/1x1
I1028 13:26:10.131387 28156 net.cpp:454] inception_5b/1x1 <- inception_5a/output_inception_5a/output_0_split_0
I1028 13:26:10.131394 28156 net.cpp:411] inception_5b/1x1 -> inception_5b/1x1
I1028 13:26:10.134812 28156 cudnn_conv_layer.cpp:194] Reallocating workspace storage: 7428
I1028 13:26:10.134845 28156 net.cpp:150] Setting up inception_5b/1x1
I1028 13:26:10.134858 28156 net.cpp:157] Top shape: 32 384 7 7 (602112)
I1028 13:26:10.134862 28156 net.cpp:165] Memory required for data: 1769358344
I1028 13:26:10.134871 28156 layer_factory.hpp:76] Creating layer inception_5b/prelu_1x1
I1028 13:26:10.134878 28156 net.cpp:106] Creating Layer inception_5b/prelu_1x1
I1028 13:26:10.134883 28156 net.cpp:454] inception_5b/prelu_1x1 <- inception_5b/1x1
I1028 13:26:10.134891 28156 net.cpp:397] inception_5b/prelu_1x1 -> inception_5b/1x1 (in-place)
I1028 13:26:10.135448 28156 net.cpp:150] Setting up inception_5b/prelu_1x1
I1028 13:26:10.135460 28156 net.cpp:157] Top shape: 32 384 7 7 (602112)
I1028 13:26:10.135465 28156 net.cpp:165] Memory required for data: 1771766792
I1028 13:26:10.135471 28156 layer_factory.hpp:76] Creating layer inception_5b/3x3_reduce
I1028 13:26:10.135481 28156 net.cpp:106] Creating Layer inception_5b/3x3_reduce
I1028 13:26:10.135486 28156 net.cpp:454] inception_5b/3x3_reduce <- inception_5a/output_inception_5a/output_0_split_1
I1028 13:26:10.135494 28156 net.cpp:411] inception_5b/3x3_reduce -> inception_5b/3x3_reduce
I1028 13:26:10.138180 28156 cudnn_conv_layer.cpp:194] Reallocating workspace storage: 7428
I1028 13:26:10.138226 28156 net.cpp:150] Setting up inception_5b/3x3_reduce
I1028 13:26:10.138248 28156 net.cpp:157] Top shape: 32 192 7 7 (301056)
I1028 13:26:10.138253 28156 net.cpp:165] Memory required for data: 1772971016
I1028 13:26:10.138262 28156 layer_factory.hpp:76] Creating layer inception_5b/prelu_3x3_reduce
I1028 13:26:10.138278 28156 net.cpp:106] Creating Layer inception_5b/prelu_3x3_reduce
I1028 13:26:10.138284 28156 net.cpp:454] inception_5b/prelu_3x3_reduce <- inception_5b/3x3_reduce
I1028 13:26:10.138293 28156 net.cpp:397] inception_5b/prelu_3x3_reduce -> inception_5b/3x3_reduce (in-place)
I1028 13:26:10.138408 28156 net.cpp:150] Setting up inception_5b/prelu_3x3_reduce
I1028 13:26:10.138418 28156 net.cpp:157] Top shape: 32 192 7 7 (301056)
I1028 13:26:10.138422 28156 net.cpp:165] Memory required for data: 1774175240
I1028 13:26:10.138427 28156 layer_factory.hpp:76] Creating layer inception_5b/3x3
I1028 13:26:10.138439 28156 net.cpp:106] Creating Layer inception_5b/3x3
I1028 13:26:10.138444 28156 net.cpp:454] inception_5b/3x3 <- inception_5b/3x3_reduce
I1028 13:26:10.138452 28156 net.cpp:411] inception_5b/3x3 -> inception_5b/3x3
I1028 13:26:10.144510 28156 cudnn_conv_layer.cpp:194] Reallocating workspace storage: 7788
I1028 13:26:10.144579 28156 net.cpp:150] Setting up inception_5b/3x3
I1028 13:26:10.144598 28156 net.cpp:157] Top shape: 32 384 7 7 (602112)
I1028 13:26:10.144603 28156 net.cpp:165] Memory required for data: 1776583688
I1028 13:26:10.144625 28156 layer_factory.hpp:76] Creating layer inception_5b/prelu_3x3
I1028 13:26:10.144650 28156 net.cpp:106] Creating Layer inception_5b/prelu_3x3
I1028 13:26:10.144659 28156 net.cpp:454] inception_5b/prelu_3x3 <- inception_5b/3x3
I1028 13:26:10.144690 28156 net.cpp:397] inception_5b/prelu_3x3 -> inception_5b/3x3 (in-place)
I1028 13:26:10.144832 28156 net.cpp:150] Setting up inception_5b/prelu_3x3
I1028 13:26:10.144845 28156 net.cpp:157] Top shape: 32 384 7 7 (602112)
I1028 13:26:10.144848 28156 net.cpp:165] Memory required for data: 1778992136
I1028 13:26:10.144865 28156 layer_factory.hpp:76] Creating layer inception_5b/5x5_reduce
I1028 13:26:10.144876 28156 net.cpp:106] Creating Layer inception_5b/5x5_reduce
I1028 13:26:10.144882 28156 net.cpp:454] inception_5b/5x5_reduce <- inception_5a/output_inception_5a/output_0_split_2
I1028 13:26:10.144891 28156 net.cpp:411] inception_5b/5x5_reduce -> inception_5b/5x5_reduce
I1028 13:26:10.146242 28156 cudnn_conv_layer.cpp:194] Reallocating workspace storage: 7428
I1028 13:26:10.146280 28156 net.cpp:150] Setting up inception_5b/5x5_reduce
I1028 13:26:10.146291 28156 net.cpp:157] Top shape: 32 48 7 7 (75264)
I1028 13:26:10.146296 28156 net.cpp:165] Memory required for data: 1779293192
I1028 13:26:10.146304 28156 layer_factory.hpp:76] Creating layer inception_5b/prelu_5x5_reduce
I1028 13:26:10.146334 28156 net.cpp:106] Creating Layer inception_5b/prelu_5x5_reduce
I1028 13:26:10.146342 28156 net.cpp:454] inception_5b/prelu_5x5_reduce <- inception_5b/5x5_reduce
I1028 13:26:10.146349 28156 net.cpp:397] inception_5b/prelu_5x5_reduce -> inception_5b/5x5_reduce (in-place)
I1028 13:26:10.146468 28156 net.cpp:150] Setting up inception_5b/prelu_5x5_reduce
I1028 13:26:10.146477 28156 net.cpp:157] Top shape: 32 48 7 7 (75264)
I1028 13:26:10.146481 28156 net.cpp:165] Memory required for data: 1779594248
I1028 13:26:10.146486 28156 layer_factory.hpp:76] Creating layer inception_5b/5x5
I1028 13:26:10.146497 28156 net.cpp:106] Creating Layer inception_5b/5x5
I1028 13:26:10.146502 28156 net.cpp:454] inception_5b/5x5 <- inception_5b/5x5_reduce
I1028 13:26:10.146508 28156 net.cpp:411] inception_5b/5x5 -> inception_5b/5x5
I1028 13:26:10.148560 28156 cudnn_conv_layer.cpp:194] Reallocating workspace storage: 9804
I1028 13:26:10.148592 28156 net.cpp:150] Setting up inception_5b/5x5
I1028 13:26:10.148602 28156 net.cpp:157] Top shape: 32 128 7 7 (200704)
I1028 13:26:10.148605 28156 net.cpp:165] Memory required for data: 1780397064
I1028 13:26:10.148612 28156 layer_factory.hpp:76] Creating layer inception_5b/prelu_5x5
I1028 13:26:10.148629 28156 net.cpp:106] Creating Layer inception_5b/prelu_5x5
I1028 13:26:10.148636 28156 net.cpp:454] inception_5b/prelu_5x5 <- inception_5b/5x5
I1028 13:26:10.148644 28156 net.cpp:397] inception_5b/prelu_5x5 -> inception_5b/5x5 (in-place)
I1028 13:26:10.148762 28156 net.cpp:150] Setting up inception_5b/prelu_5x5
I1028 13:26:10.148772 28156 net.cpp:157] Top shape: 32 128 7 7 (200704)
I1028 13:26:10.148775 28156 net.cpp:165] Memory required for data: 1781199880
I1028 13:26:10.148780 28156 layer_factory.hpp:76] Creating layer inception_5b/pool
I1028 13:26:10.148789 28156 net.cpp:106] Creating Layer inception_5b/pool
I1028 13:26:10.148794 28156 net.cpp:454] inception_5b/pool <- inception_5a/output_inception_5a/output_0_split_3
I1028 13:26:10.148800 28156 net.cpp:411] inception_5b/pool -> inception_5b/pool
I1028 13:26:10.149196 28156 net.cpp:150] Setting up inception_5b/pool
I1028 13:26:10.149207 28156 net.cpp:157] Top shape: 32 832 7 7 (1304576)
I1028 13:26:10.149211 28156 net.cpp:165] Memory required for data: 1786418184
I1028 13:26:10.149224 28156 layer_factory.hpp:76] Creating layer inception_5b/pool_proj
I1028 13:26:10.149235 28156 net.cpp:106] Creating Layer inception_5b/pool_proj
I1028 13:26:10.149240 28156 net.cpp:454] inception_5b/pool_proj <- inception_5b/pool
I1028 13:26:10.149247 28156 net.cpp:411] inception_5b/pool_proj -> inception_5b/pool_proj
I1028 13:26:10.151444 28156 cudnn_conv_layer.cpp:194] Reallocating workspace storage: 7428
I1028 13:26:10.151473 28156 net.cpp:150] Setting up inception_5b/pool_proj
I1028 13:26:10.151482 28156 net.cpp:157] Top shape: 32 128 7 7 (200704)
I1028 13:26:10.151486 28156 net.cpp:165] Memory required for data: 1787221000
I1028 13:26:10.151494 28156 layer_factory.hpp:76] Creating layer inception_5b/prelu_pool_proj
I1028 13:26:10.151501 28156 net.cpp:106] Creating Layer inception_5b/prelu_pool_proj
I1028 13:26:10.151515 28156 net.cpp:454] inception_5b/prelu_pool_proj <- inception_5b/pool_proj
I1028 13:26:10.151531 28156 net.cpp:397] inception_5b/prelu_pool_proj -> inception_5b/pool_proj (in-place)
I1028 13:26:10.151631 28156 net.cpp:150] Setting up inception_5b/prelu_pool_proj
I1028 13:26:10.151639 28156 net.cpp:157] Top shape: 32 128 7 7 (200704)
I1028 13:26:10.151643 28156 net.cpp:165] Memory required for data: 1788023816
I1028 13:26:10.151648 28156 layer_factory.hpp:76] Creating layer inception_5b/output
I1028 13:26:10.151655 28156 net.cpp:106] Creating Layer inception_5b/output
I1028 13:26:10.151670 28156 net.cpp:454] inception_5b/output <- inception_5b/1x1
I1028 13:26:10.151676 28156 net.cpp:454] inception_5b/output <- inception_5b/3x3
I1028 13:26:10.151681 28156 net.cpp:454] inception_5b/output <- inception_5b/5x5
I1028 13:26:10.151685 28156 net.cpp:454] inception_5b/output <- inception_5b/pool_proj
I1028 13:26:10.151707 28156 net.cpp:411] inception_5b/output -> inception_5b/output
I1028 13:26:10.151738 28156 net.cpp:150] Setting up inception_5b/output
I1028 13:26:10.151748 28156 net.cpp:157] Top shape: 32 1024 7 7 (1605632)
I1028 13:26:10.151752 28156 net.cpp:165] Memory required for data: 1794446344
I1028 13:26:10.151757 28156 layer_factory.hpp:76] Creating layer pool5/7x7_s1
I1028 13:26:10.151770 28156 net.cpp:106] Creating Layer pool5/7x7_s1
I1028 13:26:10.151775 28156 net.cpp:454] pool5/7x7_s1 <- inception_5b/output
I1028 13:26:10.151782 28156 net.cpp:411] pool5/7x7_s1 -> pool5/7x7_s1
I1028 13:26:10.151959 28156 net.cpp:150] Setting up pool5/7x7_s1
I1028 13:26:10.151968 28156 net.cpp:157] Top shape: 32 1024 1 1 (32768)
I1028 13:26:10.151973 28156 net.cpp:165] Memory required for data: 1794577416
I1028 13:26:10.151984 28156 layer_factory.hpp:76] Creating layer pool5/drop_7x7_s1
I1028 13:26:10.151991 28156 net.cpp:106] Creating Layer pool5/drop_7x7_s1
I1028 13:26:10.151998 28156 net.cpp:454] pool5/drop_7x7_s1 <- pool5/7x7_s1
I1028 13:26:10.152007 28156 net.cpp:397] pool5/drop_7x7_s1 -> pool5/7x7_s1 (in-place)
I1028 13:26:10.152047 28156 net.cpp:150] Setting up pool5/drop_7x7_s1
I1028 13:26:10.152056 28156 net.cpp:157] Top shape: 32 1024 1 1 (32768)
I1028 13:26:10.152060 28156 net.cpp:165] Memory required for data: 1794708488
I1028 13:26:10.152063 28156 layer_factory.hpp:76] Creating layer loss3/classifier2
I1028 13:26:10.152079 28156 net.cpp:106] Creating Layer loss3/classifier2
I1028 13:26:10.152083 28156 net.cpp:454] loss3/classifier2 <- pool5/7x7_s1
I1028 13:26:10.152091 28156 net.cpp:411] loss3/classifier2 -> loss3/classifier
I1028 13:26:10.152245 28156 net.cpp:150] Setting up loss3/classifier2
I1028 13:26:10.152253 28156 net.cpp:157] Top shape: 32 2 (64)
I1028 13:26:10.152257 28156 net.cpp:165] Memory required for data: 1794708744
I1028 13:26:10.152264 28156 layer_factory.hpp:76] Creating layer loss3/loss3
I1028 13:26:10.152271 28156 net.cpp:106] Creating Layer loss3/loss3
I1028 13:26:10.152276 28156 net.cpp:454] loss3/loss3 <- loss3/classifier
I1028 13:26:10.152281 28156 net.cpp:454] loss3/loss3 <- label_data_1_split_2
I1028 13:26:10.152288 28156 net.cpp:411] loss3/loss3 -> loss3/loss3
…
I1028 13:26:10.157032 28156 net.cpp:322] The NetState phase (1) differed from the phase (0) specified by a rule in layer data
I1028 13:26:10.158033 28156 net.cpp:49] Initializing net from parameters: 
name: "GoogleNet"
state {
  phase: TEST
}
layer {
  name: "data"
  type: "Data"
  top: "data"
  top: "label"
  include {
    phase: TEST
  }
  transform_param {
    mirror: false
    crop_size: 224
    mean_value: 104
    mean_value: 117
    mean_value: 123
  }
  data_param {
    source: "../../LMDB/val_4-lmdb"
    batch_size: 50
    backend: LMDB
  }
}
layer {
  name: "conv1/7x7_s2"
  type: "Convolution"
  bottom: "data"
  top: "conv1/7x7_s2"
  param {
    lr_mult: 1
    decay_mult: 1
  }
  param {
    lr_mult: 2
    decay_mult: 0
  }
  convolution_param {
    num_output: 64
    pad: 3
    kernel_size: 7
    stride: 2
    weight_filler {
      type: "xavier"
    }
    bias_filler {
      type: "constant"
      value: 0.2
    }
  }
}
layer {
  name: "conv1/prelu_7x7"
  type: "PReLU"
  bottom: "conv1/7x7_s2"
  top: "conv1/7x7_s2"
  param {
    lr_mult: 1
    decay_mult: 0
  }
  prelu_param {
    filler {
      type: "constant"
      value: 0.01
    }
  }
}
layer {
  name: "pool1/3x3_s2"
  type: "Pooling"
  bottom: "conv1/7x7_s2"
  top: "pool1/3x3_s2"
  pooling_param {
    pool: MAX
    kernel_size: 3
    stride: 2
  }
}
layer {
  name: "pool1/norm1"
  type: "LRN"
  bottom: "pool1/3x3_s2"
  top: "pool1/norm1"
  lrn_param {
    local_size: 5
    alpha: 0.0001
    beta: 0.75
  }
}
layer {
  name: "conv2/3x3_reduce"
  type: "Convolution"
  bottom: "pool1/norm1"
  top: "conv2/3x3_reduce"
  param {
    lr_mult: 1
    decay_mult: 1
  }
  param {
    lr_mult: 2
    decay_mult: 0
  }
  convolution_param {
    num_output: 64
    kernel_size: 1
    weight_filler {
      type: "xavier"
    }
    bias_filler {
      type: "constant"
      value: 0.2
    }
  }
}
layer {
  name: "conv2/prelu_3x3_reduce"
  type: "PReLU"
  bottom: "conv2/3x3_reduce"
  top: "conv2/3x3_reduce"
  param {
    lr_mult: 1
    decay_mult: 0
  }
  prelu_param {
    filler {
      type: "constant"
      value: 0.01
    }
  }
}
layer {
  name: "conv2/3x3"
  type: "Convolution"
  bottom: "conv2/3x3_reduce"
  top: "conv2/3x3"
  param {
    lr_mult: 1
    decay_mult: 1
  }
  param {
    lr_mult: 2
    decay_mult: 0
  }
  convolution_param {
    num_output: 192
    pad: 1
    kernel_size: 3
    weight_filler {
      type: "xavier"
    }
    bias_filler {
      type: "constant"
      value: 0.2
    }
  }
}
layer {
  name: "conv2/prelu_3x3"
  type: "PReLU"
  bottom: "conv2/3x3"
  top: "conv2/3x3"
  param {
    lr_mult: 1
    decay_mult: 0
  }
  prelu_param {
    filler {
      type: "constant"
      value: 0.01
    }
  }
}
layer {
  name: "conv2/norm2"
  type: "LRN"
  bottom: "conv2/3x3"
  top: "conv2/norm2"
  lrn_param {
    local_size: 5
    alpha: 0.0001
    beta: 0.75
  }
}
layer {
  name: "pool2/3x3_s2"
  type: "Pooling"
  bottom: "conv2/norm2"
  top: "pool2/3x3_s2"
  pooling_param {
    pool: MAX
    kernel_size: 3
    stride: 2
  }
}
layer {
  name: "inception_3a/1x1"
  type: "Convolution"
  bottom: "pool2/3x3_s2"
  top: "inception_3a/1x1"
  param {
    lr_mult: 1
    decay_mult: 1
  }
  param {
    lr_mult: 2
    decay_mult: 0
  }
  convolution_param {
    num_output: 64
    kernel_size: 1
    weight_filler {
      type: "xavier"
    }
    bias_filler {
      type: "constant"
      value: 0.2
    }
  }
}
layer {
  name: "inception_3a/prelu_1x1"
  type: "PReLU"
  bottom: "inception_3a/1x1"
  top: "inception_3a/1x1"
  param {
    lr_mult: 1
    decay_mult: 0
  }
  prelu_param {
    filler {
      type: "constant"
      value: 0.01
    }
  }
}
layer {
  name: "inception_3a/3x3_reduce"
  type: "Convolution"
  bottom: "pool2/3x3_s2"
  top: "inception_3a/3x3_reduce"
  param {
    lr_mult: 1
    decay_mult: 1
  }
  param {
    lr_mult: 2
    decay_mult: 0
  }
  convolution_param {
    num_output: 96
    kernel_size: 1
    weight_filler {
      type: "xavier"
    }
    bias_filler {
      type: "constant"
      value: 0.2
    }
  }
}
layer {
  name: "inception_3a/prelu_3x3_reduce"
  type: "PReLU"
  bottom: "inception_3a/3x3_reduce"
  top: "inception_3a/3x3_reduce"
  param {
    lr_mult: 1
    decay_mult: 0
  }
  prelu_param {
    filler {
      type: "constant"
      value: 0.01
    }
  }
}
layer {
  name: "inception_3a/3x3"
  type: "Convolution"
  bottom: "inception_3a/3x3_reduce"
  top: "inception_3a/3x3"
  param {
    lr_mult: 1
    decay_mult: 1
  }
  param {
    lr_mult: 2
    decay_mult: 0
  }
  convolution_param {
    num_output: 128
    pad: 1
    kernel_size: 3
    weight_filler {
      type: "xavier"
    }
    bias_filler {
      type: "constant"
      value: 0.2
    }
  }
}
layer {
  name: "inception_3a/prelu_3x3"
  type: "PReLU"
  bottom: "inception_3a/3x3"
  top: "inception_3a/3x3"
  param {
    lr_mult: 1
    decay_mult: 0
  }
  prelu_param {
    filler {
      type: "constant"
      value: 0.01
    }
  }
}
layer {
  name: "inception_3a/5x5_reduce"
  type: "Convolution"
  bottom: "pool2/3x3_s2"
  top: "inception_3a/5x5_reduce"
  param {
    lr_mult: 1
    decay_mult: 1
  }
  param {
    lr_mult: 2
    decay_mult: 0
  }
  convolution_param {
    num_output: 16
    kernel_size: 1
    weight_filler {
      type: "xavier"
    }
    bias_filler {
      type: "constant"
      value: 0.2
    }
  }
}
layer {
  name: "inception_3a/prelu_5x5_reduce"
  type: "PReLU"
  bottom: "inception_3a/5x5_reduce"
  top: "inception_3a/5x5_reduce"
  param {
    lr_mult: 1
    decay_mult: 0
  }
  prelu_param {
    filler {
      type: "constant"
      value: 0.01
    }
  }
}
layer {
  name: "inception_3a/5x5"
  type: "Convolution"
  bottom: "inception_3a/5x5_reduce"
  top: "inception_3a/5x5"
  param {
    lr_mult: 1
    decay_mult: 1
  }
  param {
    lr_mult: 2
    decay_mult: 0
  }
  convolution_param {
    num_output: 32
    pad: 2
    kernel_size: 5
    weight_filler {
      type: "xavier"
    }
    bias_filler {
      type: "constant"
      value: 0.2
    }
  }
}
layer {
  name: "inception_3a/prelu_5x5"
  type: "PReLU"
  bottom: "inception_3a/5x5"
  top: "inception_3a/5x5"
  param {
    lr_mult: 1
    decay_mult: 0
  }
  prelu_param {
    filler {
      type: "constant"
      value: 0.01
    }
  }
}
layer {
  name: "inception_3a/pool"
  type: "Pooling"
  bottom: "pool2/3x3_s2"
  top: "inception_3a/pool"
  pooling_param {
    pool: MAX
    kernel_size: 3
    stride: 1
    pad: 1
  }
}
layer {
  name: "inception_3a/pool_proj"
  type: "Convolution"
  bottom: "inception_3a/pool"
  top: "inception_3a/pool_proj"
  param {
    lr_mult: 1
    decay_mult: 1
  }
  param {
    lr_mult: 2
    decay_mult: 0
  }
  convolution_param {
    num_output: 32
    kernel_size: 1
    weight_filler {
      type: "xavier"
    }
    bias_filler {
      type: "constant"
      value: 0.2
    }
  }
}
layer {
  name: "inception_3a/prelu_pool_proj"
  type: "PReLU"
  bottom: "inception_3a/pool_proj"
  top: "inception_3a/pool_proj"
  param {
    lr_mult: 1
    decay_mult: 0
  }
  prelu_param {
    filler {
      type: "constant"
      value: 0.01
    }
  }
}
layer {
  name: "inception_3a/output"
  type: "Concat"
  bottom: "inception_3a/1x1"
  bottom: "inception_3a/3x3"
  bottom: "inception_3a/5x5"
  bottom: "inception_3a/pool_proj"
  top: "inception_3a/output"
}
layer {
  name: "inception_3b/1x1"
  type: "Convolution"
  bottom: "inception_3a/output"
  top: "inception_3b/1x1"
  param {
    lr_mult: 1
    decay_mult: 1
  }
  param {
    lr_mult: 2
    decay_mult: 0
  }
  convolution_param {
    num_output: 128
    kernel_size: 1
    weight_filler {
      type: "xavier"
    }
    bias_filler {
      type: "constant"
      value: 0.2
    }
  }
}
layer {
  name: "inception_3b/prelu_1x1"
  type: "PReLU"
  bottom: "inception_3b/1x1"
  top: "inception_3b/1x1"
  param {
    lr_mult: 1
    decay_mult: 0
  }
  prelu_param {
    filler {
      type: "constant"
      value: 0.01
    }
  }
}
layer {
  name: "inception_3b/3x3_reduce"
  type: "Convolution"
  bottom: "inception_3a/output"
  top: "inception_3b/3x3_reduce"
  param {
    lr_mult: 1
    decay_mult: 1
  }
  param {
    lr_mult: 2
    decay_mult: 0
  }
  convolution_param {
    num_output: 128
    kernel_size: 1
    weight_filler {
      type: "xavier"
    }
    bias_filler {
      type: "constant"
      value: 0.2
    }
  }
}
layer {
  name: "inception_3b/prelu_3x3_reduce"
  type: "PReLU"
  bottom: "inception_3b/3x3_reduce"
  top: "inception_3b/3x3_reduce"
  param {
    lr_mult: 1
    decay_mult: 0
  }
  prelu_param {
    filler {
      type: "constant"
      value: 0.01
    }
  }
}
layer {
  name: "inception_3b/3x3"
  type: "Convolution"
  bottom: "inception_3b/3x3_reduce"
  top: "inception_3b/3x3"
  param {
    lr_mult: 1
    decay_mult: 1
  }
  param {
    lr_mult: 2
    decay_mult: 0
  }
  convolution_param {
    num_output: 192
    pad: 1
    kernel_size: 3
    weight_filler {
      type: "xavier"
    }
…
I1028 13:26:10.491550 28156 net.cpp:106] Creating Layer inception_4c/output
I1028 13:26:10.491559 28156 net.cpp:454] inception_4c/output <- inception_4c/1x1
I1028 13:26:10.491570 28156 net.cpp:454] inception_4c/output <- inception_4c/3x3
I1028 13:26:10.491582 28156 net.cpp:454] inception_4c/output <- inception_4c/5x5
I1028 13:26:10.491591 28156 net.cpp:454] inception_4c/output <- inception_4c/pool_proj
I1028 13:26:10.491603 28156 net.cpp:411] inception_4c/output -> inception_4c/output
I1028 13:26:10.491641 28156 net.cpp:150] Setting up inception_4c/output
I1028 13:26:10.491652 28156 net.cpp:157] Top shape: 50 512 14 14 (5017600)
I1028 13:26:10.491659 28156 net.cpp:165] Memory required for data: 2234652208
I1028 13:26:10.491667 28156 layer_factory.hpp:76] Creating layer inception_4c/output_inception_4c/output_0_split
I1028 13:26:10.491679 28156 net.cpp:106] Creating Layer inception_4c/output_inception_4c/output_0_split
I1028 13:26:10.491688 28156 net.cpp:454] inception_4c/output_inception_4c/output_0_split <- inception_4c/output
I1028 13:26:10.491703 28156 net.cpp:411] inception_4c/output_inception_4c/output_0_split -> inception_4c/output_inception_4c/output_0_split_0
I1028 13:26:10.491716 28156 net.cpp:411] inception_4c/output_inception_4c/output_0_split -> inception_4c/output_inception_4c/output_0_split_1
I1028 13:26:10.491731 28156 net.cpp:411] inception_4c/output_inception_4c/output_0_split -> inception_4c/output_inception_4c/output_0_split_2
I1028 13:26:10.491745 28156 net.cpp:411] inception_4c/output_inception_4c/output_0_split -> inception_4c/output_inception_4c/output_0_split_3
I1028 13:26:10.491823 28156 net.cpp:150] Setting up inception_4c/output_inception_4c/output_0_split
I1028 13:26:10.491835 28156 net.cpp:157] Top shape: 50 512 14 14 (5017600)
I1028 13:26:10.491847 28156 net.cpp:157] Top shape: 50 512 14 14 (5017600)
I1028 13:26:10.491857 28156 net.cpp:157] Top shape: 50 512 14 14 (5017600)
I1028 13:26:10.491866 28156 net.cpp:157] Top shape: 50 512 14 14 (5017600)
I1028 13:26:10.491874 28156 net.cpp:165] Memory required for data: 2314933808
I1028 13:26:10.491883 28156 layer_factory.hpp:76] Creating layer inception_4d/1x1
I1028 13:26:10.491905 28156 net.cpp:106] Creating Layer inception_4d/1x1
I1028 13:26:10.491914 28156 net.cpp:454] inception_4d/1x1 <- inception_4c/output_inception_4c/output_0_split_0
I1028 13:26:10.491928 28156 net.cpp:411] inception_4d/1x1 -> inception_4d/1x1
I1028 13:26:10.493722 28156 cudnn_conv_layer.cpp:194] Reallocating workspace storage: 10080
I1028 13:26:10.493777 28156 net.cpp:150] Setting up inception_4d/1x1
I1028 13:26:10.493790 28156 net.cpp:157] Top shape: 50 112 14 14 (1097600)
I1028 13:26:10.493798 28156 net.cpp:165] Memory required for data: 2319324208
I1028 13:26:10.493814 28156 layer_factory.hpp:76] Creating layer inception_4d/prelu_1x1
I1028 13:26:10.493841 28156 net.cpp:106] Creating Layer inception_4d/prelu_1x1
I1028 13:26:10.493852 28156 net.cpp:454] inception_4d/prelu_1x1 <- inception_4d/1x1
I1028 13:26:10.493867 28156 net.cpp:397] inception_4d/prelu_1x1 -> inception_4d/1x1 (in-place)
I1028 13:26:10.493985 28156 net.cpp:150] Setting up inception_4d/prelu_1x1
I1028 13:26:10.493998 28156 net.cpp:157] Top shape: 50 112 14 14 (1097600)
I1028 13:26:10.494005 28156 net.cpp:165] Memory required for data: 2323714608
I1028 13:26:10.494024 28156 layer_factory.hpp:76] Creating layer inception_4d/3x3_reduce
I1028 13:26:10.494041 28156 net.cpp:106] Creating Layer inception_4d/3x3_reduce
I1028 13:26:10.494060 28156 net.cpp:454] inception_4d/3x3_reduce <- inception_4c/output_inception_4c/output_0_split_1
I1028 13:26:10.494086 28156 net.cpp:411] inception_4d/3x3_reduce -> inception_4d/3x3_reduce
I1028 13:26:10.495859 28156 cudnn_conv_layer.cpp:194] Reallocating workspace storage: 10080
I1028 13:26:10.495905 28156 net.cpp:150] Setting up inception_4d/3x3_reduce
I1028 13:26:10.495918 28156 net.cpp:157] Top shape: 50 144 14 14 (1411200)
I1028 13:26:10.495925 28156 net.cpp:165] Memory required for data: 2329359408
I1028 13:26:10.495939 28156 layer_factory.hpp:76] Creating layer inception_4d/prelu_3x3_reduce
I1028 13:26:10.495954 28156 net.cpp:106] Creating Layer inception_4d/prelu_3x3_reduce
I1028 13:26:10.495965 28156 net.cpp:454] inception_4d/prelu_3x3_reduce <- inception_4d/3x3_reduce
I1028 13:26:10.495976 28156 net.cpp:397] inception_4d/prelu_3x3_reduce -> inception_4d/3x3_reduce (in-place)
I1028 13:26:10.496095 28156 net.cpp:150] Setting up inception_4d/prelu_3x3_reduce
I1028 13:26:10.496107 28156 net.cpp:157] Top shape: 50 144 14 14 (1411200)
I1028 13:26:10.496114 28156 net.cpp:165] Memory required for data: 2335004208
I1028 13:26:10.496125 28156 layer_factory.hpp:76] Creating layer inception_4d/3x3
I1028 13:26:10.496140 28156 net.cpp:106] Creating Layer inception_4d/3x3
I1028 13:26:10.496150 28156 net.cpp:454] inception_4d/3x3 <- inception_4d/3x3_reduce
I1028 13:26:10.496166 28156 net.cpp:411] inception_4d/3x3 -> inception_4d/3x3
I1028 13:26:10.500381 28156 cudnn_conv_layer.cpp:194] Reallocating workspace storage: 10080
I1028 13:26:10.500452 28156 net.cpp:150] Setting up inception_4d/3x3
I1028 13:26:10.500475 28156 net.cpp:157] Top shape: 50 288 14 14 (2822400)
I1028 13:26:10.500488 28156 net.cpp:165] Memory required for data: 2346293808
I1028 13:26:10.500502 28156 layer_factory.hpp:76] Creating layer inception_4d/prelu_3x3
I1028 13:26:10.500521 28156 net.cpp:106] Creating Layer inception_4d/prelu_3x3
I1028 13:26:10.500532 28156 net.cpp:454] inception_4d/prelu_3x3 <- inception_4d/3x3
I1028 13:26:10.500545 28156 net.cpp:397] inception_4d/prelu_3x3 -> inception_4d/3x3 (in-place)
I1028 13:26:10.501233 28156 net.cpp:150] Setting up inception_4d/prelu_3x3
I1028 13:26:10.501246 28156 net.cpp:157] Top shape: 50 288 14 14 (2822400)
I1028 13:26:10.501255 28156 net.cpp:165] Memory required for data: 2357583408
I1028 13:26:10.501265 28156 layer_factory.hpp:76] Creating layer inception_4d/5x5_reduce
I1028 13:26:10.501281 28156 net.cpp:106] Creating Layer inception_4d/5x5_reduce
I1028 13:26:10.501292 28156 net.cpp:454] inception_4d/5x5_reduce <- inception_4c/output_inception_4c/output_0_split_2
I1028 13:26:10.501307 28156 net.cpp:411] inception_4d/5x5_reduce -> inception_4d/5x5_reduce
I1028 13:26:10.502743 28156 cudnn_conv_layer.cpp:194] Reallocating workspace storage: 10080
I1028 13:26:10.502786 28156 net.cpp:150] Setting up inception_4d/5x5_reduce
I1028 13:26:10.502799 28156 net.cpp:157] Top shape: 50 32 14 14 (313600)
I1028 13:26:10.502807 28156 net.cpp:165] Memory required for data: 2358837808
I1028 13:26:10.502830 28156 layer_factory.hpp:76] Creating layer inception_4d/prelu_5x5_reduce
I1028 13:26:10.502847 28156 net.cpp:106] Creating Layer inception_4d/prelu_5x5_reduce
I1028 13:26:10.502858 28156 net.cpp:454] inception_4d/prelu_5x5_reduce <- inception_4d/5x5_reduce
I1028 13:26:10.502871 28156 net.cpp:397] inception_4d/prelu_5x5_reduce -> inception_4d/5x5_reduce (in-place)
I1028 13:26:10.502972 28156 net.cpp:150] Setting up inception_4d/prelu_5x5_reduce
I1028 13:26:10.502985 28156 net.cpp:157] Top shape: 50 32 14 14 (313600)
I1028 13:26:10.502992 28156 net.cpp:165] Memory required for data: 2360092208
I1028 13:26:10.503003 28156 layer_factory.hpp:76] Creating layer inception_4d/5x5
I1028 13:26:10.503023 28156 net.cpp:106] Creating Layer inception_4d/5x5
I1028 13:26:10.503033 28156 net.cpp:454] inception_4d/5x5 <- inception_4d/5x5_reduce
I1028 13:26:10.503048 28156 net.cpp:411] inception_4d/5x5 -> inception_4d/5x5
I1028 13:26:10.504412 28156 cudnn_conv_layer.cpp:194] Reallocating workspace storage: 13080
I1028 13:26:10.504488 28156 net.cpp:150] Setting up inception_4d/5x5
I1028 13:26:10.504506 28156 net.cpp:157] Top shape: 50 64 14 14 (627200)
I1028 13:26:10.504516 28156 net.cpp:165] Memory required for data: 2362601008
I1028 13:26:10.504544 28156 layer_factory.hpp:76] Creating layer inception_4d/prelu_5x5
I1028 13:26:10.504575 28156 net.cpp:106] Creating Layer inception_4d/prelu_5x5
I1028 13:26:10.504586 28156 net.cpp:454] inception_4d/prelu_5x5 <- inception_4d/5x5
I1028 13:26:10.504604 28156 net.cpp:397] inception_4d/prelu_5x5 -> inception_4d/5x5 (in-place)
I1028 13:26:10.504748 28156 net.cpp:150] Setting up inception_4d/prelu_5x5
I1028 13:26:10.504760 28156 net.cpp:157] Top shape: 50 64 14 14 (627200)
I1028 13:26:10.504768 28156 net.cpp:165] Memory required for data: 2365109808
I1028 13:26:10.504778 28156 layer_factory.hpp:76] Creating layer inception_4d/pool
I1028 13:26:10.504797 28156 net.cpp:106] Creating Layer inception_4d/pool
I1028 13:26:10.504818 28156 net.cpp:454] inception_4d/pool <- inception_4c/output_inception_4c/output_0_split_3
I1028 13:26:10.504842 28156 net.cpp:411] inception_4d/pool -> inception_4d/pool
I1028 13:26:10.505390 28156 net.cpp:150] Setting up inception_4d/pool
I1028 13:26:10.505411 28156 net.cpp:157] Top shape: 50 512 14 14 (5017600)
I1028 13:26:10.505420 28156 net.cpp:165] Memory required for data: 2385180208
I1028 13:26:10.505429 28156 layer_factory.hpp:76] Creating layer inception_4d/pool_proj
I1028 13:26:10.505451 28156 net.cpp:106] Creating Layer inception_4d/pool_proj
I1028 13:26:10.505461 28156 net.cpp:454] inception_4d/pool_proj <- inception_4d/pool
I1028 13:26:10.505475 28156 net.cpp:411] inception_4d/pool_proj -> inception_4d/pool_proj
I1028 13:26:10.506880 28156 cudnn_conv_layer.cpp:194] Reallocating workspace storage: 10080
I1028 13:26:10.506937 28156 net.cpp:150] Setting up inception_4d/pool_proj
I1028 13:26:10.506950 28156 net.cpp:157] Top shape: 50 64 14 14 (627200)
I1028 13:26:10.506963 28156 net.cpp:165] Memory required for data: 2387689008
I1028 13:26:10.506978 28156 layer_factory.hpp:76] Creating layer inception_4d/prelu_pool_proj
I1028 13:26:10.507009 28156 net.cpp:106] Creating Layer inception_4d/prelu_pool_proj
I1028 13:26:10.507020 28156 net.cpp:454] inception_4d/prelu_pool_proj <- inception_4d/pool_proj
I1028 13:26:10.507033 28156 net.cpp:397] inception_4d/prelu_pool_proj -> inception_4d/pool_proj (in-place)
I1028 13:26:10.507140 28156 net.cpp:150] Setting up inception_4d/prelu_pool_proj
I1028 13:26:10.507153 28156 net.cpp:157] Top shape: 50 64 14 14 (627200)
I1028 13:26:10.507160 28156 net.cpp:165] Memory required for data: 2390197808
I1028 13:26:10.507171 28156 layer_factory.hpp:76] Creating layer inception_4d/output
I1028 13:26:10.507185 28156 net.cpp:106] Creating Layer inception_4d/output
I1028 13:26:10.507195 28156 net.cpp:454] inception_4d/output <- inception_4d/1x1
I1028 13:26:10.507206 28156 net.cpp:454] inception_4d/output <- inception_4d/3x3
I1028 13:26:10.507217 28156 net.cpp:454] inception_4d/output <- inception_4d/5x5
I1028 13:26:10.507227 28156 net.cpp:454] inception_4d/output <- inception_4d/pool_proj
I1028 13:26:10.507238 28156 net.cpp:411] inception_4d/output -> inception_4d/output
I1028 13:26:10.507277 28156 net.cpp:150] Setting up inception_4d/output
I1028 13:26:10.507287 28156 net.cpp:157] Top shape: 50 528 14 14 (5174400)
I1028 13:26:10.507295 28156 net.cpp:165] Memory required for data: 2410895408
I1028 13:26:10.507303 28156 layer_factory.hpp:76] Creating layer inception_4d/output_inception_4d/output_0_split
I1028 13:26:10.507315 28156 net.cpp:106] Creating Layer inception_4d/output_inception_4d/output_0_split
I1028 13:26:10.507324 28156 net.cpp:454] inception_4d/output_inception_4d/output_0_split <- inception_4d/output
I1028 13:26:10.507338 28156 net.cpp:411] inception_4d/output_inception_4d/output_0_split -> inception_4d/output_inception_4d/output_0_split_0
I1028 13:26:10.507351 28156 net.cpp:411] inception_4d/output_inception_4d/output_0_split -> inception_4d/output_inception_4d/output_0_split_1
I1028 13:26:10.507365 28156 net.cpp:411] inception_4d/output_inception_4d/output_0_split -> inception_4d/output_inception_4d/output_0_split_2
I1028 13:26:10.507380 28156 net.cpp:411] inception_4d/output_inception_4d/output_0_split -> inception_4d/output_inception_4d/output_0_split_3
I1028 13:26:10.507393 28156 net.cpp:411] inception_4d/output_inception_4d/output_0_split -> inception_4d/output_inception_4d/output_0_split_4
I1028 13:26:10.507468 28156 net.cpp:150] Setting up inception_4d/output_inception_4d/output_0_split
I1028 13:26:10.507479 28156 net.cpp:157] Top shape: 50 528 14 14 (5174400)
I1028 13:26:10.507489 28156 net.cpp:157] Top shape: 50 528 14 14 (5174400)
I1028 13:26:10.507500 28156 net.cpp:157] Top shape: 50 528 14 14 (5174400)
I1028 13:26:10.507509 28156 net.cpp:157] Top shape: 50 528 14 14 (5174400)
I1028 13:26:10.507519 28156 net.cpp:157] Top shape: 50 528 14 14 (5174400)
I1028 13:26:10.507526 28156 net.cpp:165] Memory required for data: 2514383408
I1028 13:26:10.507535 28156 layer_factory.hpp:76] Creating layer loss2/ave_pool
I1028 13:26:10.507553 28156 net.cpp:106] Creating Layer loss2/ave_pool
I1028 13:26:10.507565 28156 net.cpp:454] loss2/ave_pool <- inception_4d/output_inception_4d/output_0_split_0
I1028 13:26:10.507577 28156 net.cpp:411] loss2/ave_pool -> loss2/ave_pool
I1028 13:26:10.507815 28156 net.cpp:150] Setting up loss2/ave_pool
I1028 13:26:10.507832 28156 net.cpp:157] Top shape: 50 528 4 4 (422400)
I1028 13:26:10.507839 28156 net.cpp:165] Memory required for data: 2516073008
I1028 13:26:10.507848 28156 layer_factory.hpp:76] Creating layer loss2/conv
I1028 13:26:10.507865 28156 net.cpp:106] Creating Layer loss2/conv
I1028 13:26:10.507879 28156 net.cpp:454] loss2/conv <- loss2/ave_pool
I1028 13:26:10.507894 28156 net.cpp:411] loss2/conv -> loss2/conv
I1028 13:26:10.509636 28156 cudnn_conv_layer.cpp:194] Reallocating workspace storage: 6840
I1028 13:26:10.509696 28156 net.cpp:150] Setting up loss2/conv
I1028 13:26:10.509711 28156 net.cpp:157] Top shape: 50 128 4 4 (102400)
I1028 13:26:10.509718 28156 net.cpp:165] Memory required for data: 2516482608
I1028 13:26:10.509733 28156 layer_factory.hpp:76] Creating layer loss2/prelu_conv
I1028 13:26:10.509766 28156 net.cpp:106] Creating Layer loss2/prelu_conv
I1028 13:26:10.509778 28156 net.cpp:454] loss2/prelu_conv <- loss2/conv
I1028 13:26:10.509791 28156 net.cpp:397] loss2/prelu_conv -> loss2/conv (in-place)
I1028 13:26:10.509914 28156 net.cpp:150] Setting up loss2/prelu_conv
I1028 13:26:10.509927 28156 net.cpp:157] Top shape: 50 128 4 4 (102400)
I1028 13:26:10.509935 28156 net.cpp:165] Memory required for data: 2516892208
I1028 13:26:10.509945 28156 layer_factory.hpp:76] Creating layer loss2/fc
I1028 13:26:10.509959 28156 net.cpp:106] Creating Layer loss2/fc
I1028 13:26:10.509969 28156 net.cpp:454] loss2/fc <- loss2/conv
I1028 13:26:10.509984 28156 net.cpp:411] loss2/fc -> loss2/fc
I1028 13:26:10.525197 28156 net.cpp:150] Setting up loss2/fc
I1028 13:26:10.525233 28156 net.cpp:157] Top shape: 50 1024 (51200)
I1028 13:26:10.525240 28156 net.cpp:165] Memory required for data: 2517097008
I1028 13:26:10.525282 28156 layer_factory.hpp:76] Creating layer loss2/prelu_fc
I1028 13:26:10.525303 28156 net.cpp:106] Creating Layer loss2/prelu_fc
I1028 13:26:10.525326 28156 net.cpp:454] loss2/prelu_fc <- loss2/fc
I1028 13:26:10.525338 28156 net.cpp:397] loss2/prelu_fc -> loss2/fc (in-place)
I1028 13:26:10.525454 28156 net.cpp:150] Setting up loss2/prelu_fc
I1028 13:26:10.525465 28156 net.cpp:157] Top shape: 50 1024 (51200)
I1028 13:26:10.525472 28156 net.cpp:165] Memory required for data: 2517301808
I1028 13:26:10.525490 28156 layer_factory.hpp:76] Creating layer loss2/drop_fc
I1028 13:26:10.525506 28156 net.cpp:106] Creating Layer loss2/drop_fc
I1028 13:26:10.525527 28156 net.cpp:454] loss2/drop_fc <- loss2/fc
I1028 13:26:10.525537 28156 net.cpp:397] loss2/drop_fc -> loss2/fc (in-place)
I1028 13:26:10.525583 28156 net.cpp:150] Setting up loss2/drop_fc
I1028 13:26:10.525594 28156 net.cpp:157] Top shape: 50 1024 (51200)
I1028 13:26:10.525601 28156 net.cpp:165] Memory required for data: 2517506608
I1028 13:26:10.525609 28156 layer_factory.hpp:76] Creating layer loss2/classifier2
I1028 13:26:10.525622 28156 net.cpp:106] Creating Layer loss2/classifier2
I1028 13:26:10.525630 28156 net.cpp:454] loss2/classifier2 <- loss2/fc
I1028 13:26:10.525645 28156 net.cpp:411] loss2/classifier2 -> loss2/classifier
I1028 13:26:10.525776 28156 net.cpp:150] Setting up loss2/classifier2
I1028 13:26:10.525787 28156 net.cpp:157] Top shape: 50 2 (100)
I1028 13:26:10.525795 28156 net.cpp:165] Memory required for data: 2517507008
I1028 13:26:10.525807 28156 layer_factory.hpp:76] Creating layer loss2/classifier_loss2/classifier2_0_split
I1028 13:26:10.525820 28156 net.cpp:106] Creating Layer loss2/classifier_loss2/classifier2_0_split
I1028 13:26:10.525827 28156 net.cpp:454] loss2/classifier_loss2/classifier2_0_split <- loss2/classifier
I1028 13:26:10.525838 28156 net.cpp:411] loss2/classifier_loss2/classifier2_0_split -> loss2/classifier_loss2/classifier2_0_split_0
I1028 13:26:10.525851 28156 net.cpp:411] loss2/classifier_loss2/classifier2_0_split -> loss2/classifier_loss2/classifier2_0_split_1
I1028 13:26:10.525895 28156 net.cpp:150] Setting up loss2/classifier_loss2/classifier2_0_split
I1028 13:26:10.525907 28156 net.cpp:157] Top shape: 50 2 (100)
I1028 13:26:10.525917 28156 net.cpp:157] Top shape: 50 2 (100)
I1028 13:26:10.525924 28156 net.cpp:165] Memory required for data: 2517507808
I1028 13:26:10.525931 28156 layer_factory.hpp:76] Creating layer loss2/loss
I1028 13:26:10.525945 28156 net.cpp:106] Creating Layer loss2/loss
I1028 13:26:10.525954 28156 net.cpp:454] loss2/loss <- loss2/classifier_loss2/classifier2_0_split_0
I1028 13:26:10.525964 28156 net.cpp:454] loss2/loss <- label_data_1_split_2
…
I1028 13:26:10.526784 28156 net.cpp:165] Memory required for data: 2517507816
I1028 13:26:10.526793 28156 layer_factory.hpp:76] Creating layer inception_4e/1x1
I1028 13:26:10.526808 28156 net.cpp:106] Creating Layer inception_4e/1x1
I1028 13:26:10.526819 28156 net.cpp:454] inception_4e/1x1 <- inception_4d/output_inception_4d/output_0_split_1
I1028 13:26:10.526835 28156 net.cpp:411] inception_4e/1x1 -> inception_4e/1x1
I1028 13:26:10.529075 28156 cudnn_conv_layer.cpp:194] Reallocating workspace storage: 10080
I1028 13:26:10.529122 28156 net.cpp:150] Setting up inception_4e/1x1
I1028 13:26:10.529135 28156 net.cpp:157] Top shape: 50 256 14 14 (2508800)
I1028 13:26:10.529142 28156 net.cpp:165] Memory required for data: 2527543016
I1028 13:26:10.529155 28156 layer_factory.hpp:76] Creating layer inception_4e/prelu_1x1
I1028 13:26:10.529171 28156 net.cpp:106] Creating Layer inception_4e/prelu_1x1
I1028 13:26:10.529181 28156 net.cpp:454] inception_4e/prelu_1x1 <- inception_4e/1x1
I1028 13:26:10.529192 28156 net.cpp:397] inception_4e/prelu_1x1 -> inception_4e/1x1 (in-place)
I1028 13:26:10.529323 28156 net.cpp:150] Setting up inception_4e/prelu_1x1
I1028 13:26:10.529335 28156 net.cpp:157] Top shape: 50 256 14 14 (2508800)
I1028 13:26:10.529342 28156 net.cpp:165] Memory required for data: 2537578216
I1028 13:26:10.529353 28156 layer_factory.hpp:76] Creating layer inception_4e/3x3_reduce
I1028 13:26:10.529369 28156 net.cpp:106] Creating Layer inception_4e/3x3_reduce
I1028 13:26:10.529381 28156 net.cpp:454] inception_4e/3x3_reduce <- inception_4d/output_inception_4d/output_0_split_2
I1028 13:26:10.529393 28156 net.cpp:411] inception_4e/3x3_reduce -> inception_4e/3x3_reduce
I1028 13:26:10.530954 28156 cudnn_conv_layer.cpp:194] Reallocating workspace storage: 10080
I1028 13:26:10.530995 28156 net.cpp:150] Setting up inception_4e/3x3_reduce
I1028 13:26:10.531009 28156 net.cpp:157] Top shape: 50 160 14 14 (1568000)
I1028 13:26:10.531018 28156 net.cpp:165] Memory required for data: 2543850216
I1028 13:26:10.531030 28156 layer_factory.hpp:76] Creating layer inception_4e/prelu_3x3_reduce
I1028 13:26:10.531045 28156 net.cpp:106] Creating Layer inception_4e/prelu_3x3_reduce
I1028 13:26:10.531055 28156 net.cpp:454] inception_4e/prelu_3x3_reduce <- inception_4e/3x3_reduce
I1028 13:26:10.531069 28156 net.cpp:397] inception_4e/prelu_3x3_reduce -> inception_4e/3x3_reduce (in-place)
I1028 13:26:10.531182 28156 net.cpp:150] Setting up inception_4e/prelu_3x3_reduce
I1028 13:26:10.531194 28156 net.cpp:157] Top shape: 50 160 14 14 (1568000)
I1028 13:26:10.531201 28156 net.cpp:165] Memory required for data: 2550122216
I1028 13:26:10.531213 28156 layer_factory.hpp:76] Creating layer inception_4e/3x3
I1028 13:26:10.531250 28156 net.cpp:106] Creating Layer inception_4e/3x3
I1028 13:26:10.531258 28156 net.cpp:454] inception_4e/3x3 <- inception_4e/3x3_reduce
I1028 13:26:10.531271 28156 net.cpp:411] inception_4e/3x3 -> inception_4e/3x3
I1028 13:26:10.536068 28156 cudnn_conv_layer.cpp:194] Reallocating workspace storage: 10080
I1028 13:26:10.536149 28156 net.cpp:150] Setting up inception_4e/3x3
I1028 13:26:10.536166 28156 net.cpp:157] Top shape: 50 320 14 14 (3136000)
I1028 13:26:10.536180 28156 net.cpp:165] Memory required for data: 2562666216
I1028 13:26:10.536201 28156 layer_factory.hpp:76] Creating layer inception_4e/prelu_3x3
I1028 13:26:10.536229 28156 net.cpp:106] Creating Layer inception_4e/prelu_3x3
I1028 13:26:10.536242 28156 net.cpp:454] inception_4e/prelu_3x3 <- inception_4e/3x3
I1028 13:26:10.536257 28156 net.cpp:397] inception_4e/prelu_3x3 -> inception_4e/3x3 (in-place)
I1028 13:26:10.537009 28156 net.cpp:150] Setting up inception_4e/prelu_3x3
I1028 13:26:10.537031 28156 net.cpp:157] Top shape: 50 320 14 14 (3136000)
I1028 13:26:10.537036 28156 net.cpp:165] Memory required for data: 2575210216
I1028 13:26:10.537044 28156 layer_factory.hpp:76] Creating layer inception_4e/5x5_reduce
I1028 13:26:10.537067 28156 net.cpp:106] Creating Layer inception_4e/5x5_reduce
I1028 13:26:10.537075 28156 net.cpp:454] inception_4e/5x5_reduce <- inception_4d/output_inception_4d/output_0_split_3
I1028 13:26:10.537084 28156 net.cpp:411] inception_4e/5x5_reduce -> inception_4e/5x5_reduce
I1028 13:26:10.538580 28156 cudnn_conv_layer.cpp:194] Reallocating workspace storage: 10080
I1028 13:26:10.538635 28156 net.cpp:150] Setting up inception_4e/5x5_reduce
I1028 13:26:10.538646 28156 net.cpp:157] Top shape: 50 32 14 14 (313600)
I1028 13:26:10.538652 28156 net.cpp:165] Memory required for data: 2576464616
I1028 13:26:10.538671 28156 layer_factory.hpp:76] Creating layer inception_4e/prelu_5x5_reduce
I1028 13:26:10.538692 28156 net.cpp:106] Creating Layer inception_4e/prelu_5x5_reduce
I1028 13:26:10.538699 28156 net.cpp:454] inception_4e/prelu_5x5_reduce <- inception_4e/5x5_reduce
I1028 13:26:10.538708 28156 net.cpp:397] inception_4e/prelu_5x5_reduce -> inception_4e/5x5_reduce (in-place)
I1028 13:26:10.538839 28156 net.cpp:150] Setting up inception_4e/prelu_5x5_reduce
I1028 13:26:10.538848 28156 net.cpp:157] Top shape: 50 32 14 14 (313600)
I1028 13:26:10.538853 28156 net.cpp:165] Memory required for data: 2577719016
I1028 13:26:10.538869 28156 layer_factory.hpp:76] Creating layer inception_4e/5x5
I1028 13:26:10.538880 28156 net.cpp:106] Creating Layer inception_4e/5x5
I1028 13:26:10.538887 28156 net.cpp:454] inception_4e/5x5 <- inception_4e/5x5_reduce
I1028 13:26:10.538893 28156 net.cpp:411] inception_4e/5x5 -> inception_4e/5x5
I1028 13:26:10.541257 28156 cudnn_conv_layer.cpp:194] Reallocating workspace storage: 13080
I1028 13:26:10.541298 28156 net.cpp:150] Setting up inception_4e/5x5
I1028 13:26:10.541308 28156 net.cpp:157] Top shape: 50 128 14 14 (1254400)
I1028 13:26:10.541313 28156 net.cpp:165] Memory required for data: 2582736616
I1028 13:26:10.541323 28156 layer_factory.hpp:76] Creating layer inception_4e/prelu_5x5
I1028 13:26:10.541332 28156 net.cpp:106] Creating Layer inception_4e/prelu_5x5
I1028 13:26:10.541338 28156 net.cpp:454] inception_4e/prelu_5x5 <- inception_4e/5x5
I1028 13:26:10.541348 28156 net.cpp:397] inception_4e/prelu_5x5 -> inception_4e/5x5 (in-place)
I1028 13:26:10.541448 28156 net.cpp:150] Setting up inception_4e/prelu_5x5
I1028 13:26:10.541458 28156 net.cpp:157] Top shape: 50 128 14 14 (1254400)
I1028 13:26:10.541463 28156 net.cpp:165] Memory required for data: 2587754216
I1028 13:26:10.541470 28156 layer_factory.hpp:76] Creating layer inception_4e/pool
I1028 13:26:10.541477 28156 net.cpp:106] Creating Layer inception_4e/pool
I1028 13:26:10.541483 28156 net.cpp:454] inception_4e/pool <- inception_4d/output_inception_4d/output_0_split_4
I1028 13:26:10.541491 28156 net.cpp:411] inception_4e/pool -> inception_4e/pool
I1028 13:26:10.541699 28156 net.cpp:150] Setting up inception_4e/pool
I1028 13:26:10.541709 28156 net.cpp:157] Top shape: 50 528 14 14 (5174400)
I1028 13:26:10.541713 28156 net.cpp:165] Memory required for data: 2608451816
I1028 13:26:10.541718 28156 layer_factory.hpp:76] Creating layer inception_4e/pool_proj
I1028 13:26:10.541728 28156 net.cpp:106] Creating Layer inception_4e/pool_proj
I1028 13:26:10.541733 28156 net.cpp:454] inception_4e/pool_proj <- inception_4e/pool
I1028 13:26:10.541745 28156 net.cpp:411] inception_4e/pool_proj -> inception_4e/pool_proj
I1028 13:26:10.543464 28156 cudnn_conv_layer.cpp:194] Reallocating workspace storage: 10080
I1028 13:26:10.543510 28156 net.cpp:150] Setting up inception_4e/pool_proj
I1028 13:26:10.543524 28156 net.cpp:157] Top shape: 50 128 14 14 (1254400)
I1028 13:26:10.543531 28156 net.cpp:165] Memory required for data: 2613469416
I1028 13:26:10.543545 28156 layer_factory.hpp:76] Creating layer inception_4e/prelu_pool_proj
I1028 13:26:10.543577 28156 net.cpp:106] Creating Layer inception_4e/prelu_pool_proj
I1028 13:26:10.543588 28156 net.cpp:454] inception_4e/prelu_pool_proj <- inception_4e/pool_proj
I1028 13:26:10.543601 28156 net.cpp:397] inception_4e/prelu_pool_proj -> inception_4e/pool_proj (in-place)
I1028 13:26:10.543706 28156 net.cpp:150] Setting up inception_4e/prelu_pool_proj
I1028 13:26:10.543719 28156 net.cpp:157] Top shape: 50 128 14 14 (1254400)
I1028 13:26:10.543726 28156 net.cpp:165] Memory required for data: 2618487016
I1028 13:26:10.543737 28156 layer_factory.hpp:76] Creating layer inception_4e/output
I1028 13:26:10.543757 28156 net.cpp:106] Creating Layer inception_4e/output
I1028 13:26:10.543766 28156 net.cpp:454] inception_4e/output <- inception_4e/1x1
I1028 13:26:10.543776 28156 net.cpp:454] inception_4e/output <- inception_4e/3x3
I1028 13:26:10.543786 28156 net.cpp:454] inception_4e/output <- inception_4e/5x5
I1028 13:26:10.543794 28156 net.cpp:454] inception_4e/output <- inception_4e/pool_proj
I1028 13:26:10.543807 28156 net.cpp:411] inception_4e/output -> inception_4e/output
I1028 13:26:10.543840 28156 net.cpp:150] Setting up inception_4e/output
I1028 13:26:10.543851 28156 net.cpp:157] Top shape: 50 832 14 14 (8153600)
I1028 13:26:10.543859 28156 net.cpp:165] Memory required for data: 2651101416
I1028 13:26:10.543866 28156 layer_factory.hpp:76] Creating layer pool4/3x3_s2
I1028 13:26:10.543877 28156 net.cpp:106] Creating Layer pool4/3x3_s2
I1028 13:26:10.543886 28156 net.cpp:454] pool4/3x3_s2 <- inception_4e/output
I1028 13:26:10.543897 28156 net.cpp:411] pool4/3x3_s2 -> pool4/3x3_s2
I1028 13:26:10.544106 28156 net.cpp:150] Setting up pool4/3x3_s2
I1028 13:26:10.544117 28156 net.cpp:157] Top shape: 50 832 7 7 (2038400)
I1028 13:26:10.544126 28156 net.cpp:165] Memory required for data: 2659255016
I1028 13:26:10.544133 28156 layer_factory.hpp:76] Creating layer pool4/3x3_s2_pool4/3x3_s2_0_split
I1028 13:26:10.544144 28156 net.cpp:106] Creating Layer pool4/3x3_s2_pool4/3x3_s2_0_split
I1028 13:26:10.544154 28156 net.cpp:454] pool4/3x3_s2_pool4/3x3_s2_0_split <- pool4/3x3_s2
I1028 13:26:10.544165 28156 net.cpp:411] pool4/3x3_s2_pool4/3x3_s2_0_split -> pool4/3x3_s2_pool4/3x3_s2_0_split_0
I1028 13:26:10.544178 28156 net.cpp:411] pool4/3x3_s2_pool4/3x3_s2_0_split -> pool4/3x3_s2_pool4/3x3_s2_0_split_1
I1028 13:26:10.544190 28156 net.cpp:411] pool4/3x3_s2_pool4/3x3_s2_0_split -> pool4/3x3_s2_pool4/3x3_s2_0_split_2
I1028 13:26:10.544205 28156 net.cpp:411] pool4/3x3_s2_pool4/3x3_s2_0_split -> pool4/3x3_s2_pool4/3x3_s2_0_split_3
I1028 13:26:10.544273 28156 net.cpp:150] Setting up pool4/3x3_s2_pool4/3x3_s2_0_split
I1028 13:26:10.544286 28156 net.cpp:157] Top shape: 50 832 7 7 (2038400)
I1028 13:26:10.544294 28156 net.cpp:157] Top shape: 50 832 7 7 (2038400)
I1028 13:26:10.544304 28156 net.cpp:157] Top shape: 50 832 7 7 (2038400)
I1028 13:26:10.544313 28156 net.cpp:157] Top shape: 50 832 7 7 (2038400)
I1028 13:26:10.544320 28156 net.cpp:165] Memory required for data: 2691869416
I1028 13:26:10.544328 28156 layer_factory.hpp:76] Creating layer inception_5a/1x1
I1028 13:26:10.544343 28156 net.cpp:106] Creating Layer inception_5a/1x1
I1028 13:26:10.544351 28156 net.cpp:454] inception_5a/1x1 <- pool4/3x3_s2_pool4/3x3_s2_0_split_0
I1028 13:26:10.544363 28156 net.cpp:411] inception_5a/1x1 -> inception_5a/1x1
I1028 13:26:10.547235 28156 cudnn_conv_layer.cpp:194] Reallocating workspace storage: 7428
I1028 13:26:10.547283 28156 net.cpp:150] Setting up inception_5a/1x1
I1028 13:26:10.547297 28156 net.cpp:157] Top shape: 50 256 7 7 (627200)
I1028 13:26:10.547303 28156 net.cpp:165] Memory required for data: 2694378216
I1028 13:26:10.547327 28156 layer_factory.hpp:76] Creating layer inception_5a/prelu_1x1
I1028 13:26:10.547341 28156 net.cpp:106] Creating Layer inception_5a/prelu_1x1
I1028 13:26:10.547351 28156 net.cpp:454] inception_5a/prelu_1x1 <- inception_5a/1x1
I1028 13:26:10.547364 28156 net.cpp:397] inception_5a/prelu_1x1 -> inception_5a/1x1 (in-place)
I1028 13:26:10.547479 28156 net.cpp:150] Setting up inception_5a/prelu_1x1
I1028 13:26:10.547500 28156 net.cpp:157] Top shape: 50 256 7 7 (627200)
I1028 13:26:10.547508 28156 net.cpp:165] Memory required for data: 2696887016
I1028 13:26:10.547519 28156 layer_factory.hpp:76] Creating layer inception_5a/3x3_reduce
I1028 13:26:10.547544 28156 net.cpp:106] Creating Layer inception_5a/3x3_reduce
I1028 13:26:10.547555 28156 net.cpp:454] inception_5a/3x3_reduce <- pool4/3x3_s2_pool4/3x3_s2_0_split_1
I1028 13:26:10.547569 28156 net.cpp:411] inception_5a/3x3_reduce -> inception_5a/3x3_reduce
I1028 13:26:10.550132 28156 cudnn_conv_layer.cpp:194] Reallocating workspace storage: 7428
I1028 13:26:10.550223 28156 net.cpp:150] Setting up inception_5a/3x3_reduce
I1028 13:26:10.550240 28156 net.cpp:157] Top shape: 50 160 7 7 (392000)
I1028 13:26:10.550258 28156 net.cpp:165] Memory required for data: 2698455016
I1028 13:26:10.550276 28156 layer_factory.hpp:76] Creating layer inception_5a/prelu_3x3_reduce
I1028 13:26:10.550313 28156 net.cpp:106] Creating Layer inception_5a/prelu_3x3_reduce
I1028 13:26:10.550336 28156 net.cpp:454] inception_5a/prelu_3x3_reduce <- inception_5a/3x3_reduce
I1028 13:26:10.550361 28156 net.cpp:397] inception_5a/prelu_3x3_reduce -> inception_5a/3x3_reduce (in-place)
I1028 13:26:10.550523 28156 net.cpp:150] Setting up inception_5a/prelu_3x3_reduce
I1028 13:26:10.550530 28156 net.cpp:157] Top shape: 50 160 7 7 (392000)
I1028 13:26:10.550534 28156 net.cpp:165] Memory required for data: 2700023016
I1028 13:26:10.550539 28156 layer_factory.hpp:76] Creating layer inception_5a/3x3
I1028 13:26:10.550552 28156 net.cpp:106] Creating Layer inception_5a/3x3
I1028 13:26:10.550556 28156 net.cpp:454] inception_5a/3x3 <- inception_5a/3x3_reduce
I1028 13:26:10.550564 28156 net.cpp:411] inception_5a/3x3 -> inception_5a/3x3
I1028 13:26:10.555341 28156 cudnn_conv_layer.cpp:194] Reallocating workspace storage: 7788
I1028 13:26:10.555388 28156 net.cpp:150] Setting up inception_5a/3x3
I1028 13:26:10.555398 28156 net.cpp:157] Top shape: 50 320 7 7 (784000)
I1028 13:26:10.555404 28156 net.cpp:165] Memory required for data: 2703159016
I1028 13:26:10.555413 28156 layer_factory.hpp:76] Creating layer inception_5a/prelu_3x3
I1028 13:26:10.555433 28156 net.cpp:106] Creating Layer inception_5a/prelu_3x3
I1028 13:26:10.555440 28156 net.cpp:454] inception_5a/prelu_3x3 <- inception_5a/3x3
I1028 13:26:10.555449 28156 net.cpp:397] inception_5a/prelu_3x3 -> inception_5a/3x3 (in-place)
I1028 13:26:10.555564 28156 net.cpp:150] Setting up inception_5a/prelu_3x3
I1028 13:26:10.555573 28156 net.cpp:157] Top shape: 50 320 7 7 (784000)
I1028 13:26:10.555577 28156 net.cpp:165] Memory required for data: 2706295016
I1028 13:26:10.555583 28156 layer_factory.hpp:76] Creating layer inception_5a/5x5_reduce
I1028 13:26:10.555593 28156 net.cpp:106] Creating Layer inception_5a/5x5_reduce
I1028 13:26:10.555599 28156 net.cpp:454] inception_5a/5x5_reduce <- pool4/3x3_s2_pool4/3x3_s2_0_split_2
I1028 13:26:10.555616 28156 net.cpp:411] inception_5a/5x5_reduce -> inception_5a/5x5_reduce
I1028 13:26:10.556879 28156 cudnn_conv_layer.cpp:194] Reallocating workspace storage: 7428
I1028 13:26:10.556910 28156 net.cpp:150] Setting up inception_5a/5x5_reduce
I1028 13:26:10.556920 28156 net.cpp:157] Top shape: 50 32 7 7 (78400)
I1028 13:26:10.556923 28156 net.cpp:165] Memory required for data: 2706608616
I1028 13:26:10.556931 28156 layer_factory.hpp:76] Creating layer inception_5a/prelu_5x5_reduce
I1028 13:26:10.556939 28156 net.cpp:106] Creating Layer inception_5a/prelu_5x5_reduce
I1028 13:26:10.556954 28156 net.cpp:454] inception_5a/prelu_5x5_reduce <- inception_5a/5x5_reduce
I1028 13:26:10.556972 28156 net.cpp:397] inception_5a/prelu_5x5_reduce -> inception_5a/5x5_reduce (in-place)
I1028 13:26:10.557091 28156 net.cpp:150] Setting up inception_5a/prelu_5x5_reduce
I1028 13:26:10.557101 28156 net.cpp:157] Top shape: 50 32 7 7 (78400)
I1028 13:26:10.557106 28156 net.cpp:165] Memory required for data: 2706922216
I1028 13:26:10.557121 28156 layer_factory.hpp:76] Creating layer inception_5a/5x5
I1028 13:26:10.557129 28156 net.cpp:106] Creating Layer inception_5a/5x5
I1028 13:26:10.557149 28156 net.cpp:454] inception_5a/5x5 <- inception_5a/5x5_reduce
I1028 13:26:10.557168 28156 net.cpp:411] inception_5a/5x5 -> inception_5a/5x5
I1028 13:26:10.558673 28156 cudnn_conv_layer.cpp:194] Reallocating workspace storage: 9804
I1028 13:26:10.558704 28156 net.cpp:150] Setting up inception_5a/5x5
I1028 13:26:10.558715 28156 net.cpp:157] Top shape: 50 128 7 7 (313600)
I1028 13:26:10.558719 28156 net.cpp:165] Memory required for data: 2708176616
I1028 13:26:10.558727 28156 layer_factory.hpp:76] Creating layer inception_5a/prelu_5x5
I1028 13:26:10.558733 28156 net.cpp:106] Creating Layer inception_5a/prelu_5x5
I1028 13:26:10.558738 28156 net.cpp:454] inception_5a/prelu_5x5 <- inception_5a/5x5
I1028 13:26:10.558745 28156 net.cpp:397] inception_5a/prelu_5x5 -> inception_5a/5x5 (in-place)
I1028 13:26:10.558853 28156 net.cpp:150] Setting up inception_5a/prelu_5x5
I1028 13:26:10.558863 28156 net.cpp:157] Top shape: 50 128 7 7 (313600)
I1028 13:26:10.558867 28156 net.cpp:165] Memory required for data: 2709431016
I1028 13:26:10.558872 28156 layer_factory.hpp:76] Creating layer inception_5a/pool
I1028 13:26:10.558879 28156 net.cpp:106] Creating Layer inception_5a/pool
I1028 13:26:10.558884 28156 net.cpp:454] inception_5a/pool <- pool4/3x3_s2_pool4/3x3_s2_0_split_3
I1028 13:26:10.558890 28156 net.cpp:411] inception_5a/pool -> inception_5a/pool
I1028 13:26:10.559295 28156 net.cpp:150] Setting up inception_5a/pool
I1028 13:26:10.559309 28156 net.cpp:157] Top shape: 50 832 7 7 (2038400)
I1028 13:26:10.559312 28156 net.cpp:165] Memory required for data: 2717584616
I1028 13:26:10.559316 28156 layer_factory.hpp:76] Creating layer inception_5a/pool_proj
I1028 13:26:10.559324 28156 net.cpp:106] Creating Layer inception_5a/pool_proj
I1028 13:26:10.559329 28156 net.cpp:454] inception_5a/pool_proj <- inception_5a/pool
I1028 13:26:10.559336 28156 net.cpp:411] inception_5a/pool_proj -> inception_5a/pool_proj
I1028 13:26:10.561542 28156 cudnn_conv_layer.cpp:194] Reallocating workspace storage: 7428
I1028 13:26:10.561578 28156 net.cpp:150] Setting up inception_5a/pool_proj
I1028 13:26:10.561588 28156 net.cpp:157] Top shape: 50 128 7 7 (313600)
I1028 13:26:10.561591 28156 net.cpp:165] Memory required for data: 2718839016
I1028 13:26:10.561599 28156 layer_factory.hpp:76] Creating layer inception_5a/prelu_pool_proj
I1028 13:26:10.561607 28156 net.cpp:106] Creating Layer inception_5a/prelu_pool_proj
I1028 13:26:10.561615 28156 net.cpp:454] inception_5a/prelu_pool_proj <- inception_5a/pool_proj
I1028 13:26:10.561622 28156 net.cpp:397] inception_5a/prelu_pool_proj -> inception_5a/pool_proj (in-place)
I1028 13:26:10.561705 28156 net.cpp:150] Setting up inception_5a/prelu_pool_proj
I1028 13:26:10.561713 28156 net.cpp:157] Top shape: 50 128 7 7 (313600)
I1028 13:26:10.561717 28156 net.cpp:165] Memory required for data: 2720093416
I1028 13:26:10.561722 28156 layer_factory.hpp:76] Creating layer inception_5a/output
I1028 13:26:10.561728 28156 net.cpp:106] Creating Layer inception_5a/output
I1028 13:26:10.561733 28156 net.cpp:454] inception_5a/output <- inception_5a/1x1
I1028 13:26:10.561738 28156 net.cpp:454] inception_5a/output <- inception_5a/3x3
I1028 13:26:10.561743 28156 net.cpp:454] inception_5a/output <- inception_5a/5x5
I1028 13:26:10.561748 28156 net.cpp:454] inception_5a/output <- inception_5a/pool_proj
I1028 13:26:10.561753 28156 net.cpp:411] inception_5a/output -> inception_5a/output
I1028 13:26:10.561776 28156 net.cpp:150] Setting up inception_5a/output
I1028 13:26:10.561784 28156 net.cpp:157] Top shape: 50 832 7 7 (2038400)
I1028 13:26:10.561787 28156 net.cpp:165] Memory required for data: 2728247016
I1028 13:26:10.561791 28156 layer_factory.hpp:76] Creating layer inception_5a/output_inception_5a/output_0_split
I1028 13:26:10.561800 28156 net.cpp:106] Creating Layer inception_5a/output_inception_5a/output_0_split
I1028 13:26:10.561805 28156 net.cpp:454] inception_5a/output_inception_5a/output_0_split <- inception_5a/output
I1028 13:26:10.561810 28156 net.cpp:411] inception_5a/output_inception_5a/output_0_split -> inception_5a/output_inception_5a/output_0_split_0
I1028 13:26:10.561826 28156 net.cpp:411] inception_5a/output_inception_5a/output_0_split -> inception_5a/output_inception_5a/output_0_split_1
I1028 13:26:10.561835 28156 net.cpp:411] inception_5a/output_inception_5a/output_0_split -> inception_5a/output_inception_5a/output_0_split_2
I1028 13:26:10.561852 28156 net.cpp:411] inception_5a/output_inception_5a/output_0_split -> inception_5a/output_inception_5a/output_0_split_3
I1028 13:26:10.561918 28156 net.cpp:150] Setting up inception_5a/output_inception_5a/output_0_split
I1028 13:26:10.561926 28156 net.cpp:157] Top shape: 50 832 7 7 (2038400)
I1028 13:26:10.561940 28156 net.cpp:157] Top shape: 50 832 7 7 (2038400)
I1028 13:26:10.561946 28156 net.cpp:157] Top shape: 50 832 7 7 (2038400)
I1028 13:26:10.561950 28156 net.cpp:157] Top shape: 50 832 7 7 (2038400)
I1028 13:26:10.561954 28156 net.cpp:165] Memory required for data: 2760861416
I1028 13:26:10.561959 28156 layer_factory.hpp:76] Creating layer inception_5b/1x1
I1028 13:26:10.561965 28156 net.cpp:106] Creating Layer inception_5b/1x1
I1028 13:26:10.561970 28156 net.cpp:454] inception_5b/1x1 <- inception_5a/output_inception_5a/output_0_split_0
I1028 13:26:10.561977 28156 net.cpp:411] inception_5b/1x1 -> inception_5b/1x1
I1028 13:26:10.565670 28156 cudnn_conv_layer.cpp:194] Reallocating workspace storage: 7428
I1028 13:26:10.565750 28156 net.cpp:150] Setting up inception_5b/1x1
I1028 13:26:10.565780 28156 net.cpp:157] Top shape: 50 384 7 7 (940800)
I1028 13:26:10.565798 28156 net.cpp:165] Memory required for data: 2764624616
I1028 13:26:10.565812 28156 layer_factory.hpp:76] Creating layer inception_5b/prelu_1x1
I1028 13:26:10.565830 28156 net.cpp:106] Creating Layer inception_5b/prelu_1x1
I1028 13:26:10.565851 28156 net.cpp:454] inception_5b/prelu_1x1 <- inception_5b/1x1
I1028 13:26:10.565881 28156 net.cpp:397] inception_5b/prelu_1x1 -> inception_5b/1x1 (in-place)
I1028 13:26:10.566061 28156 net.cpp:150] Setting up inception_5b/prelu_1x1
I1028 13:26:10.566084 28156 net.cpp:157] Top shape: 50 384 7 7 (940800)
I1028 13:26:10.566092 28156 net.cpp:165] Memory required for data: 2768387816
I1028 13:26:10.566112 28156 layer_factory.hpp:76] Creating layer inception_5b/3x3_reduce
I1028 13:26:10.566133 28156 net.cpp:106] Creating Layer inception_5b/3x3_reduce
I1028 13:26:10.566143 28156 net.cpp:454] inception_5b/3x3_reduce <- inception_5a/output_inception_5a/output_0_split_1
I1028 13:26:10.566167 28156 net.cpp:411] inception_5b/3x3_reduce -> inception_5b/3x3_reduce
I1028 13:26:10.568642 28156 cudnn_conv_layer.cpp:194] Reallocating workspace storage: 7428
I1028 13:26:10.568706 28156 net.cpp:150] Setting up inception_5b/3x3_reduce
I1028 13:26:10.568719 28156 net.cpp:157] Top shape: 50 192 7 7 (470400)
I1028 13:26:10.568728 28156 net.cpp:165] Memory required for data: 2770269416
I1028 13:26:10.568742 28156 layer_factory.hpp:76] Creating layer inception_5b/prelu_3x3_reduce
I1028 13:26:10.568760 28156 net.cpp:106] Creating Layer inception_5b/prelu_3x3_reduce
I1028 13:26:10.568773 28156 net.cpp:454] inception_5b/prelu_3x3_reduce <- inception_5b/3x3_reduce
I1028 13:26:10.568790 28156 net.cpp:397] inception_5b/prelu_3x3_reduce -> inception_5b/3x3_reduce (in-place)
I1028 13:26:10.568902 28156 net.cpp:150] Setting up inception_5b/prelu_3x3_reduce
I1028 13:26:10.568914 28156 net.cpp:157] Top shape: 50 192 7 7 (470400)
I1028 13:26:10.568922 28156 net.cpp:165] Memory required for data: 2772151016
I1028 13:26:10.568933 28156 layer_factory.hpp:76] Creating layer inception_5b/3x3
I1028 13:26:10.568948 28156 net.cpp:106] Creating Layer inception_5b/3x3
I1028 13:26:10.568958 28156 net.cpp:454] inception_5b/3x3 <- inception_5b/3x3_reduce
I1028 13:26:10.568974 28156 net.cpp:411] inception_5b/3x3 -> inception_5b/3x3
I1028 13:26:10.575011 28156 cudnn_conv_layer.cpp:194] Reallocating workspace storage: 7788
I1028 13:26:10.575084 28156 net.cpp:150] Setting up inception_5b/3x3
I1028 13:26:10.575108 28156 net.cpp:157] Top shape: 50 384 7 7 (940800)
I1028 13:26:10.575116 28156 net.cpp:165] Memory required for data: 2775914216
I1028 13:26:10.575167 28156 layer_factory.hpp:76] Creating layer inception_5b/prelu_3x3
I1028 13:26:10.575193 28156 net.cpp:106] Creating Layer inception_5b/prelu_3x3
I1028 13:26:10.575227 28156 net.cpp:454] inception_5b/prelu_3x3 <- inception_5b/3x3
I1028 13:26:10.575253 28156 net.cpp:397] inception_5b/prelu_3x3 -> inception_5b/3x3 (in-place)
I1028 13:26:10.575420 28156 net.cpp:150] Setting up inception_5b/prelu_3x3
I1028 13:26:10.575433 28156 net.cpp:157] Top shape: 50 384 7 7 (940800)
I1028 13:26:10.575439 28156 net.cpp:165] Memory required for data: 2779677416
I1028 13:26:10.575449 28156 layer_factory.hpp:76] Creating layer inception_5b/5x5_reduce
I1028 13:26:10.575466 28156 net.cpp:106] Creating Layer inception_5b/5x5_reduce
I1028 13:26:10.575476 28156 net.cpp:454] inception_5b/5x5_reduce <- inception_5a/output_inception_5a/output_0_split_2
I1028 13:26:10.575490 28156 net.cpp:411] inception_5b/5x5_reduce -> inception_5b/5x5_reduce
I1028 13:26:10.577008 28156 cudnn_conv_layer.cpp:194] Reallocating workspace storage: 7428
I1028 13:26:10.577057 28156 net.cpp:150] Setting up inception_5b/5x5_reduce
I1028 13:26:10.577080 28156 net.cpp:157] Top shape: 50 48 7 7 (117600)
I1028 13:26:10.577086 28156 net.cpp:165] Memory required for data: 2780147816
I1028 13:26:10.577100 28156 layer_factory.hpp:76] Creating layer inception_5b/prelu_5x5_reduce
I1028 13:26:10.577131 28156 net.cpp:106] Creating Layer inception_5b/prelu_5x5_reduce
I1028 13:26:10.577142 28156 net.cpp:454] inception_5b/prelu_5x5_reduce <- inception_5b/5x5_reduce
I1028 13:26:10.577153 28156 net.cpp:397] inception_5b/prelu_5x5_reduce -> inception_5b/5x5_reduce (in-place)
I1028 13:26:10.577286 28156 net.cpp:150] Setting up inception_5b/prelu_5x5_reduce
I1028 13:26:10.577297 28156 net.cpp:157] Top shape: 50 48 7 7 (117600)
I1028 13:26:10.577306 28156 net.cpp:165] Memory required for data: 2780618216
I1028 13:26:10.577316 28156 layer_factory.hpp:76] Creating layer inception_5b/5x5
I1028 13:26:10.577330 28156 net.cpp:106] Creating Layer inception_5b/5x5
I1028 13:26:10.577342 28156 net.cpp:454] inception_5b/5x5 <- inception_5b/5x5_reduce
I1028 13:26:10.577355 28156 net.cpp:411] inception_5b/5x5 -> inception_5b/5x5
I1028 13:26:10.579345 28156 cudnn_conv_layer.cpp:194] Reallocating workspace storage: 9804
I1028 13:26:10.579399 28156 net.cpp:150] Setting up inception_5b/5x5
I1028 13:26:10.579421 28156 net.cpp:157] Top shape: 50 128 7 7 (313600)
I1028 13:26:10.579428 28156 net.cpp:165] Memory required for data: 2781872616
I1028 13:26:10.579442 28156 layer_factory.hpp:76] Creating layer inception_5b/prelu_5x5
I1028 13:26:10.579455 28156 net.cpp:106] Creating Layer inception_5b/prelu_5x5
I1028 13:26:10.579465 28156 net.cpp:454] inception_5b/prelu_5x5 <- inception_5b/5x5
I1028 13:26:10.579476 28156 net.cpp:397] inception_5b/prelu_5x5 -> inception_5b/5x5 (in-place)
I1028 13:26:10.579582 28156 net.cpp:150] Setting up inception_5b/prelu_5x5
I1028 13:26:10.579593 28156 net.cpp:157] Top shape: 50 128 7 7 (313600)
I1028 13:26:10.579602 28156 net.cpp:165] Memory required for data: 2783127016
I1028 13:26:10.579612 28156 layer_factory.hpp:76] Creating layer inception_5b/pool
I1028 13:26:10.579625 28156 net.cpp:106] Creating Layer inception_5b/pool
I1028 13:26:10.579645 28156 net.cpp:454] inception_5b/pool <- inception_5a/output_inception_5a/output_0_split_3
I1028 13:26:10.579656 28156 net.cpp:411] inception_5b/pool -> inception_5b/pool
I1028 13:26:10.579875 28156 net.cpp:150] Setting up inception_5b/pool
I1028 13:26:10.579887 28156 net.cpp:157] Top shape: 50 832 7 7 (2038400)
I1028 13:26:10.579895 28156 net.cpp:165] Memory required for data: 2791280616
I1028 13:26:10.579902 28156 layer_factory.hpp:76] Creating layer inception_5b/pool_proj
I1028 13:26:10.579918 28156 net.cpp:106] Creating Layer inception_5b/pool_proj
I1028 13:26:10.579929 28156 net.cpp:454] inception_5b/pool_proj <- inception_5b/pool
I1028 13:26:10.579942 28156 net.cpp:411] inception_5b/pool_proj -> inception_5b/pool_proj
I1028 13:26:10.582263 28156 cudnn_conv_layer.cpp:194] Reallocating workspace storage: 7428
I1028 13:26:10.582320 28156 net.cpp:150] Setting up inception_5b/pool_proj
I1028 13:26:10.582332 28156 net.cpp:157] Top shape: 50 128 7 7 (313600)
I1028 13:26:10.582340 28156 net.cpp:165] Memory required for data: 2792535016
I1028 13:26:10.582353 28156 layer_factory.hpp:76] Creating layer inception_5b/prelu_pool_proj
I1028 13:26:10.582366 28156 net.cpp:106] Creating Layer inception_5b/prelu_pool_proj
I1028 13:26:10.582376 28156 net.cpp:454] inception_5b/prelu_pool_proj <- inception_5b/pool_proj
I1028 13:26:10.582389 28156 net.cpp:397] inception_5b/prelu_pool_proj -> inception_5b/pool_proj (in-place)
I1028 13:26:10.582483 28156 net.cpp:150] Setting up inception_5b/prelu_pool_proj
I1028 13:26:10.582495 28156 net.cpp:157] Top shape: 50 128 7 7 (313600)
I1028 13:26:10.582502 28156 net.cpp:165] Memory required for data: 2793789416
I1028 13:26:10.582512 28156 layer_factory.hpp:76] Creating layer inception_5b/output
I1028 13:26:10.582525 28156 net.cpp:106] Creating Layer inception_5b/output
I1028 13:26:10.582532 28156 net.cpp:454] inception_5b/output <- inception_5b/1x1
I1028 13:26:10.582542 28156 net.cpp:454] inception_5b/output <- inception_5b/3x3
I1028 13:26:10.582551 28156 net.cpp:454] inception_5b/output <- inception_5b/5x5
I1028 13:26:10.582561 28156 net.cpp:454] inception_5b/output <- inception_5b/pool_proj
I1028 13:26:10.582571 28156 net.cpp:411] inception_5b/output -> inception_5b/output
I1028 13:26:10.582604 28156 net.cpp:150] Setting up inception_5b/output
I1028 13:26:10.582615 28156 net.cpp:157] Top shape: 50 1024 7 7 (2508800)
I1028 13:26:10.582623 28156 net.cpp:165] Memory required for data: 2803824616
I1028 13:26:10.582630 28156 layer_factory.hpp:76] Creating layer pool5/7x7_s1
I1028 13:26:10.582643 28156 net.cpp:106] Creating Layer pool5/7x7_s1
I1028 13:26:10.582651 28156 net.cpp:454] pool5/7x7_s1 <- inception_5b/output
I1028 13:26:10.582662 28156 net.cpp:411] pool5/7x7_s1 -> pool5/7x7_s1
I1028 13:26:10.583050 28156 net.cpp:150] Setting up pool5/7x7_s1
I1028 13:26:10.583063 28156 net.cpp:157] Top shape: 50 1024 1 1 (51200)
I1028 13:26:10.583070 28156 net.cpp:165] Memory required for data: 2804029416
I1028 13:26:10.583078 28156 layer_factory.hpp:76] Creating layer pool5/drop_7x7_s1
I1028 13:26:10.583091 28156 net.cpp:106] Creating Layer pool5/drop_7x7_s1
I1028 13:26:10.583099 28156 net.cpp:454] pool5/drop_7x7_s1 <- pool5/7x7_s1
I1028 13:26:10.583118 28156 net.cpp:397] pool5/drop_7x7_s1 -> pool5/7x7_s1 (in-place)
I1028 13:26:10.583163 28156 net.cpp:150] Setting up pool5/drop_7x7_s1
I1028 13:26:10.583173 28156 net.cpp:157] Top shape: 50 1024 1 1 (51200)
I1028 13:26:10.583190 28156 net.cpp:165] Memory required for data: 2804234216
I1028 13:26:10.583199 28156 layer_factory.hpp:76] Creating layer loss3/classifier2
I1028 13:26:10.583210 28156 net.cpp:106] Creating Layer loss3/classifier2
I1028 13:26:10.583219 28156 net.cpp:454] loss3/classifier2 <- pool5/7x7_s1
I1028 13:26:10.583242 28156 net.cpp:411] loss3/classifier2 -> loss3/classifier
I1028 13:26:10.583405 28156 net.cpp:150] Setting up loss3/classifier2
I1028 13:26:10.583416 28156 net.cpp:157] Top shape: 50 2 (100)
I1028 13:26:10.583425 28156 net.cpp:165] Memory required for data: 2804234616
I1028 13:26:10.583447 28156 layer_factory.hpp:76] Creating layer loss3/classifier_loss3/classifier2_0_split
I1028 13:26:10.583459 28156 net.cpp:106] Creating Layer loss3/classifier_loss3/classifier2_0_split
I1028 13:26:10.583477 28156 net.cpp:454] loss3/classifier_loss3/classifier2_0_split <- loss3/classifier
I1028 13:26:10.583498 28156 net.cpp:411] loss3/classifier_loss3/classifier2_0_split -> loss3/classifier_loss3/classifier2_0_split_0
I1028 13:26:10.583514 28156 net.cpp:411] loss3/classifier_loss3/classifier2_0_split -> loss3/classifier_loss3/classifier2_0_split_1
I1028 13:26:10.583573 28156 net.cpp:150] Setting up loss3/classifier_loss3/classifier2_0_split
I1028 13:26:10.583585 28156 net.cpp:157] Top shape: 50 2 (100)
I1028 13:26:10.583595 28156 net.cpp:157] Top shape: 50 2 (100)
I1028 13:26:10.583602 28156 net.cpp:165] Memory required for data: 2804235416
I1028 13:26:10.583609 28156 layer_factory.hpp:76] Creating layer loss3/loss3
I1028 13:26:10.583629 28156 net.cpp:106] Creating Layer loss3/loss3
I1028 13:26:10.583639 28156 net.cpp:454] loss3/loss3 <- loss3/classifier_loss3/classifier2_0_split_0
I1028 13:26:10.583648 28156 net.cpp:454] loss3/loss3 <- label_data_1_split_4
…
