…
I1105 17:25:15.890329 24483 net.cpp:322] The NetState phase (0) differed from the phase (1) specified by a rule in layer loss3/top-1
I1105 17:25:15.891347 24483 net.cpp:49] Initializing net from parameters: 
name: "GoogleNet"
state {
  phase: TRAIN
}
layer {
  name: "data"
  type: "Data"
  top: "data"
  top: "label"
  include {
    phase: TRAIN
  }
  transform_param {
    mirror: true
    crop_size: 224
    mean_value: 104
    mean_value: 117
    mean_value: 123
  }
  data_param {
    source: "../../LMDB/train_3-lmdb"
    batch_size: 32
    backend: LMDB
  }
}
layer {
  name: "conv1/7x7_s2"
  type: "Convolution"
  bottom: "data"
  top: "conv1/7x7_s2"
  param {
    lr_mult: 1
    decay_mult: 1
  }
  param {
    lr_mult: 2
    decay_mult: 0
  }
  convolution_param {
    num_output: 64
    pad: 3
    kernel_size: 7
    stride: 2
    weight_filler {
      type: "xavier"
    }
    bias_filler {
      type: "constant"
      value: 0.2
    }
  }
}
layer {
  name: "conv1/prelu_7x7"
  type: "PReLU"
  bottom: "conv1/7x7_s2"
  top: "conv1/7x7_s2"
  param {
    lr_mult: 1
    decay_mult: 0
  }
  prelu_param {
    filler {
      type: "constant"
      value: 0.01
    }
  }
}
layer {
  name: "pool1/3x3_s2"
  type: "Pooling"
  bottom: "conv1/7x7_s2"
  top: "pool1/3x3_s2"
  pooling_param {
    pool: MAX
    kernel_size: 3
    stride: 2
  }
}
layer {
  name: "pool1/norm1"
  type: "LRN"
  bottom: "pool1/3x3_s2"
  top: "pool1/norm1"
  lrn_param {
    local_size: 5
    alpha: 0.0001
    beta: 0.75
  }
}
layer {
  name: "conv2/3x3_reduce"
  type: "Convolution"
  bottom: "pool1/norm1"
  top: "conv2/3x3_reduce"
  param {
    lr_mult: 1
    decay_mult: 1
  }
  param {
    lr_mult: 2
    decay_mult: 0
  }
  convolution_param {
    num_output: 64
    kernel_size: 1
    weight_filler {
      type: "xavier"
    }
    bias_filler {
      type: "constant"
      value: 0.2
    }
  }
}
layer {
  name: "conv2/prelu_3x3_reduce"
  type: "PReLU"
  bottom: "conv2/3x3_reduce"
  top: "conv2/3x3_reduce"
  param {
    lr_mult: 1
    decay_mult: 0
  }
  prelu_param {
    filler {
      type: "constant"
      value: 0.01
    }
  }
}
layer {
  name: "conv2/3x3"
  type: "Convolution"
  bottom: "conv2/3x3_reduce"
  top: "conv2/3x3"
  param {
    lr_mult: 1
    decay_mult: 1
  }
  param {
    lr_mult: 2
    decay_mult: 0
  }
  convolution_param {
    num_output: 192
    pad: 1
    kernel_size: 3
    weight_filler {
      type: "xavier"
    }
    bias_filler {
      type: "constant"
      value: 0.2
    }
  }
}
layer {
  name: "conv2/prelu_3x3"
  type: "PReLU"
  bottom: "conv2/3x3"
  top: "conv2/3x3"
  param {
    lr_mult: 1
    decay_mult: 0
  }
  prelu_param {
    filler {
      type: "constant"
      value: 0.01
    }
  }
}
layer {
  name: "conv2/norm2"
  type: "LRN"
  bottom: "conv2/3x3"
  top: "conv2/norm2"
  lrn_param {
    local_size: 5
    alpha: 0.0001
    beta: 0.75
  }
}
layer {
  name: "pool2/3x3_s2"
  type: "Pooling"
  bottom: "conv2/norm2"
  top: "pool2/3x3_s2"
  pooling_param {
    pool: MAX
    kernel_size: 3
    stride: 2
  }
}
layer {
  name: "inception_3a/1x1"
  type: "Convolution"
  bottom: "pool2/3x3_s2"
  top: "inception_3a/1x1"
  param {
    lr_mult: 1
    decay_mult: 1
  }
  param {
    lr_mult: 2
    decay_mult: 0
  }
  convolution_param {
    num_output: 64
    kernel_size: 1
    weight_filler {
      type: "xavier"
    }
    bias_filler {
      type: "constant"
      value: 0.2
    }
  }
}
layer {
  name: "inception_3a/prelu_1x1"
  type: "PReLU"
  bottom: "inception_3a/1x1"
  top: "inception_3a/1x1"
  param {
    lr_mult: 1
    decay_mult: 0
  }
  prelu_param {
    filler {
      type: "constant"
      value: 0.01
    }
  }
}
layer {
  name: "inception_3a/3x3_reduce"
  type: "Convolution"
  bottom: "pool2/3x3_s2"
  top: "inception_3a/3x3_reduce"
  param {
    lr_mult: 1
    decay_mult: 1
  }
  param {
    lr_mult: 2
    decay_mult: 0
  }
  convolution_param {
    num_output: 96
    kernel_size: 1
    weight_filler {
      type: "xavier"
    }
    bias_filler {
      type: "constant"
      value: 0.2
    }
  }
}
layer {
  name: "inception_3a/prelu_3x3_reduce"
  type: "PReLU"
  bottom: "inception_3a/3x3_reduce"
  top: "inception_3a/3x3_reduce"
  param {
    lr_mult: 1
    decay_mult: 0
  }
  prelu_param {
    filler {
      type: "constant"
      value: 0.01
    }
  }
}
layer {
  name: "inception_3a/3x3"
  type: "Convolution"
  bottom: "inception_3a/3x3_reduce"
  top: "inception_3a/3x3"
  param {
    lr_mult: 1
    decay_mult: 1
  }
  param {
    lr_mult: 2
    decay_mult: 0
  }
  convolution_param {
    num_output: 128
    pad: 1
    kernel_size: 3
    weight_filler {
      type: "xavier"
    }
    bias_filler {
      type: "constant"
      value: 0.2
    }
  }
}
layer {
  name: "inception_3a/prelu_3x3"
  type: "PReLU"
  bottom: "inception_3a/3x3"
  top: "inception_3a/3x3"
  param {
    lr_mult: 1
    decay_mult: 0
  }
  prelu_param {
    filler {
      type: "constant"
      value: 0.01
    }
  }
}
layer {
  name: "inception_3a/5x5_reduce"
  type: "Convolution"
  bottom: "pool2/3x3_s2"
  top: "inception_3a/5x5_reduce"
  param {
    lr_mult: 1
    decay_mult: 1
  }
  param {
    lr_mult: 2
    decay_mult: 0
  }
  convolution_param {
    num_output: 16
    kernel_size: 1
    weight_filler {
      type: "xavier"
    }
    bias_filler {
      type: "constant"
      value: 0.2
    }
  }
}
layer {
  name: "inception_3a/prelu_5x5_reduce"
  type: "PReLU"
  bottom: "inception_3a/5x5_reduce"
  top: "inception_3a/5x5_reduce"
  param {
    lr_mult: 1
    decay_mult: 0
  }
  prelu_param {
    filler {
      type: "constant"
      value: 0.01
    }
  }
}
layer {
  name: "inception_3a/5x5"
  type: "Convolution"
  bottom: "inception_3a/5x5_reduce"
  top: "inception_3a/5x5"
  param {
    lr_mult: 1
    decay_mult: 1
  }
  param {
    lr_mult: 2
    decay_mult: 0
  }
  convolution_param {
    num_output: 32
    pad: 2
    kernel_size: 5
    weight_filler {
      type: "xavier"
    }
    bias_filler {
      type: "constant"
      value: 0.2
    }
  }
}
layer {
  name: "inception_3a/prelu_5x5"
  type: "PReLU"
  bottom: "inception_3a/5x5"
  top: "inception_3a/5x5"
  param {
    lr_mult: 1
    decay_mult: 0
  }
  prelu_param {
    filler {
      type: "constant"
      value: 0.01
    }
  }
}
layer {
  name: "inception_3a/pool"
  type: "Pooling"
  bottom: "pool2/3x3_s2"
  top: "inception_3a/pool"
  pooling_param {
    pool: MAX
    kernel_size: 3
    stride: 1
    pad: 1
  }
}
layer {
  name: "inception_3a/pool_proj"
  type: "Convolution"
  bottom: "inception_3a/pool"
  top: "inception_3a/pool_proj"
  param {
    lr_mult: 1
    decay_mult: 1
  }
  param {
    lr_mult: 2
    decay_mult: 0
  }
  convolution_param {
    num_output: 32
    kernel_size: 1
    weight_filler {
      type: "xavier"
    }
    bias_filler {
      type: "constant"
      value: 0.2
    }
  }
}
layer {
  name: "inception_3a/prelu_pool_proj"
  type: "PReLU"
  bottom: "inception_3a/pool_proj"
  top: "inception_3a/pool_proj"
  param {
    lr_mult: 1
    decay_mult: 0
  }
  prelu_param {
    filler {
      type: "constant"
      value: 0.01
    }
  }
}
layer {
  name: "inception_3a/output"
  type: "Concat"
  bottom: "inception_3a/1x1"
  bottom: "inception_3a/3x3"
  bottom: "inception_3a/5x5"
  bottom: "inception_3a/pool_proj"
  top: "inception_3a/output"
}
layer {
  name: "inception_3b/1x1"
  type: "Convolution"
  bottom: "inception_3a/output"
  top: "inception_3b/1x1"
  param {
    lr_mult: 1
    decay_mult: 1
  }
  param {
    lr_mult: 2
    decay_mult: 0
  }
  convolution_param {
    num_output: 128
    kernel_size: 1
    weight_filler {
      type: "xavier"
    }
    bias_filler {
      type: "constant"
      value: 0.2
    }
  }
}
layer {
  name: "inception_3b/prelu_1x1"
  type: "PReLU"
  bottom: "inception_3b/1x1"
  top: "inception_3b/1x1"
  param {
    lr_mult: 1
    decay_mult: 0
  }
  prelu_param {
    filler {
      type: "constant"
      value: 0.01
    }
  }
}
layer {
  name: "inception_3b/3x3_reduce"
  type: "Convolution"
  bottom: "inception_3a/output"
  top: "inception_3b/3x3_reduce"
  param {
    lr_mult: 1
    decay_mult: 1
  }
  param {
    lr_mult: 2
    decay_mult: 0
  }
  convolution_param {
    num_output: 128
    kernel_size: 1
    weight_filler {
      type: "xavier"
    }
    bias_filler {
      type: "constant"
      value: 0.2
    }
  }
}
layer {
  name: "inception_3b/prelu_3x3_reduce"
  type: "PReLU"
  bottom: "inception_3b/3x3_reduce"
  top: "inception_3b/3x3_reduce"
  param {
    lr_mult: 1
    decay_mult: 0
  }
  prelu_param {
    filler {
      type: "constant"
      value: 0.01
    }
  }
}
layer {
  name: "inception_3b/3x3"
  type: "Convolution"
  bottom: "inception_3b/3x3_reduce"
  top: "inception_3b/3x3"
  param {
    lr_mult: 1
    decay_mult: 1
  }
  param {
    lr_mult: 2
    decay_mult: 0
  }
  convolution_param {
    num_output: 192
    pad: 1
    kernel_size: 3
    weight_filler {
      type: "xavier"
    }
    bias_filler {
      type: "constant"
      value: 0.2
    }
  }
}
layer {
  name: "inception_3b/prelu_3x3"
  type: "PReLU"
  bottom: "inception_3b/3x3"
  top: "inception_3b/3x3"
  param {
    lr_mult: 1
    decay_mult: 0
  }
  prelu_param {
    filler {
      type: "constant"
      value: 0.01
    }
  }
}
layer {
  name: "inception_3b/5x5_reduce"
  type: "Convolution"
  bottom: "inception_3a/output"
  top: "inception_3b/5x5_reduce"
  param {
    lr_mult: 1
    decay_mult: 1
  }
  param {
    lr_mult: 2
    decay_mult: 0
  }
  convolution_param {
    num_output: 32
    kernel_size: 1
    weight_filler {
      type: "xavier"
    }
    bias_filler {
      type: "constant"
      value: 0.2
    }
  }
}
layer {
  name: "inception_3b/prelu_5x5_reduce"
  type: "PReLU"
  bottom: "inception_3b/5x5_reduce"
  top: "inception_3b/5x5_reduce"
  param {
    lr_mult: 1
    decay_mult: 0
  }
  prelu_param {
    filler {
      type: "constant"
      value: 0.01
    }
  }
}
layer {
  name: "inception_3b/5x5"
  type: "Convolution"
  bottom: "inception_3b/5x5_reduce"
  top: "inception_3b/5x5"
  param {
    lr_mult: 1
    decay_mult: 1
  }
  param {
    lr_mult: 2
    decay_mult: 0
  }
  convolution_param {
    num_output: 96
    pad: 2
    kernel_size: 5
    weight_filler {
      type: "xavier"
    }
    bias_filler {
      type: "constant"
      value: 0.2
    }
  }
}
layer {
  name: "inception_3b/prelu_5x5"
  type: "PReLU"
  bottom: "inception_3b/5x5"
  top: "inception_3b/5x5"
  param {
    lr_mult: 1
    decay_mult: 0
  }
  prelu_param {
    filler {
      type: "constant"
      value: 0.01
    }
  }
}
layer {
  name: "inception_3b/pool"
  type: "Pooling"
  bottom: "inception_3a/output"
  top: "inception_3b/pool"
  pooling_param {
    pool: MAX
    kernel_size: 3
    stride: 1
    pad: 1
  }
}
layer {
  name: "inception_3b/pool_proj"
  type: "Convolution"
  bottom: "inception_3b/pool"
  top: "inception_3b/pool_proj"
  param {
    lr_mult: 1
    decay_mult: 1
  }
  param {
    lr_mult: 2
    decay_mult: 0
  }
  convolution_param {
    num_output: 64
    kernel_size: 1
    weight_filler {
      type: "xavier"
    }
    bias_filler {
      type: "constant"
      value: 0.2
    }
  }
}
layer {
  name: "inception_3b/prelu_pool_proj"
  type: "PReLU"
  bottom: "inception_3b/pool_proj"
  top: "inception_3b/pool_proj"
  param {
    lr_mult: 1
    decay_mult: 0
  }
  prelu_param {
    filler {
      type: "constant"
      value: 0.01
    }
  }
}
layer {
  name: "inception_3b/output"
  type: "Concat"
  bottom: "inception_3b/1x1"
  bottom: "inception_3b/3x3"
  bottom: "inception_3b/5x5"
  bottom: "inception_3b/pool_proj"
  top: "inception_3b/output"
}
layer {
  name: "pool3/3x3_s2"
  type: "Pooling"
  bottom: "inception_3b/output"
  top: "pool3/3x3_s2"
  pooling_param {
    pool: MAX
    kernel_size: 3
    stride: 2
  }
}
layer {
  name: "inception_4a/1x1"
  type: "Convolution"
  bottom: "pool3/3x3_s2"
  top: "inception_4a/1x1"
  param {
    lr_mult: 1
    decay_mult: 1
  }
  param {
    lr_mult: 2
    decay_mult: 0
  }
  convolution_param {
    num_output: 192
    kernel_size: 1
    weight_filler {
      type: "xavier"
    }
    bias_filler {
      type: "constant"
      value: 0.2
    }
  }
}
layer {
  name: "inception_4a/prelu_1x1"
  type: "PReLU"
  bottom: "inception_4a/1x1"
  top: "inception_4a/1x1"
  param {
    lr_mult: 1
    decay_mult: 0
  }
  prelu_param {
    filler {
      type: "constant"
      value: 0.01
    }
  }
}
layer {
  name: "inception_4a/3x3_reduce"
  type: "Convolution"
  bottom: "pool3/3x3_s2"
  top: "inception_4a/3x3_reduce"
  param {
    lr_mult: 1
    decay_mult: 1
  }
  param {
    lr_mult: 2
    decay_mult: 0
  }
  convolution_param {
    num_output: 96
    kernel_size: 1
    weight_filler {
      type: "xavier"
    }
    bias_filler {
      type: "constant"
      value: 0.2
    }
  }
}
layer {
  name: "inception_4a/prelu_3x3_reduce"
  type: "PReLU"
  bottom: "inception_4a/3x3_reduce"
  top: "inception_4a/3x3_reduce"
  param {
    lr_mult: 1
    decay_mult: 0
  }
  prelu_param {
    filler {
      type: "constant"
      value: 0.01
    }
  }
}
layer {
  name: "inception_4a/3x3"
  type: "Convolution"
  bottom: "inception_4a/3x3_reduce"
  top: "inception_4a/3x3"
  param {
    lr_mult: 1
    decay_mult: 1
  }
  param {
    lr_mult: 2
    decay_mult: 0
  }
  convolution_param {
    num_output: 208
    pad: 1
    kernel_size: 3
    weight_filler {
      type: "xavier"
    }
    bias_filler {
      type: "constant"
      value: 0.2
    }
  }
}
layer {
  name: "inception_4a/prelu_3x3"
  type: "PReLU"
  bottom: "inception_4a/3x3"
  top: "inception_4a/3x3"
  param {
    lr_mult: 1
    decay_mult: 0
  }
  prelu_param {
    filler {
      type: "constant"
      value: 0.01
    }
  }
}
layer {
  name: "inception_4a/5x5_reduce"
  type: "Convolution"
  bottom: "pool3/3x3_s2"
  top: "inception_4a/5x5_reduce"
  param {
    lr_mult: 1
    decay_mult: 1
  }
  param {
    lr_mult: 2
    decay_mult: 0
  }
  convolution_param {
    num_output: 16
    kernel_size: 1
    weight_filler {
      type: "xavier"
    }
    bias_filler {
      type: "constant"
      value: 0.2
    }
  }
}
layer {
  name: "inception_4a/prelu_5x5_reduce"
  type: "PReLU"
  bottom: "inception_4a/5x5_reduce"
  top: "inception_4a/5x5_reduce"
  param {
    lr_mult: 1
    decay_mult: 0
  }
  prelu_param {
    filler {
      type: "constant"
      value: 0.01
    }
  }
}
layer {
  name: "inception_4a/5x5"
  type: "Convolution"
  bottom: "inception_4a/5x5_reduce"
  top: "inception_4a/5x5"
  param {
    lr_mult: 1
    decay_mult: 1
  }
  param {
    lr_mult: 2
    decay_mult: 0
  }
  convolution_param {
    num_output: 48
    pad: 2
    kernel_size: 5
    weight_filler {
      type: "xavier"
    }
    bias_filler {
      type: "constant"
      value: 0.2
    }
  }
}
layer {
  name: "inception_4a/prelu_5x5"
  type: "PReLU"
  bottom: "inception_4a/5x5"
  top: "inception_4a/5x5"
  param {
    lr_mult: 1
    decay_mult: 0
  }
  prelu_param {
    filler {
      type: "constant"
      value: 0.01
    }
  }
}
layer {
  name: "inception_4a/pool"
  type: "Pooling"
  bottom: "pool3/3x3_s2"
  top: "inception_4a/pool"
  pooling_param {
    pool: MAX
    kernel_size: 3
    stride: 1
    pad: 1
  }
}
layer {
  name: "inception_4a/pool_proj"
  type: "Convolution"
  bottom: "inception_4a/pool"
  top: "inception_4a/pool_proj"
  param {
    lr_mult: 1
    decay_mult: 1
  }
  param {
    lr_mult: 2
    decay_mult: 0
  }
  convolution_param {
    num_output: 64
    kernel_size: 1
    weight_filler {
      type: "xavier"
    }
    bias_filler {
      type: "constant"
      value: 0.2
    }
  }
}
layer {
  name: "inception_4a/prelu_pool_proj"
  type: "PReLU"
  bottom: "inception_4a/pool_proj"
  top: "inception_4a/pool_proj"
  param {
    lr_mult: 1
    decay_mult: 0
  }
  prelu_param {
    filler {
      type: "constant"
      value: 0.01
    }
  }
}
layer {
  name: "inception_4a/output"
  type: "Concat"
  bottom: "inception_4a/1x1"
  bottom: "inception_4a/3x3"
  bottom: "inception_4a/5x5"
  bottom: "inception_4a/pool_proj"
  top: "inception_4a/output"
}
layer {
  name: "loss1/ave_pool"
  type: "Pooling"
  bottom: "inception_4a/output"
  top: "loss1/ave_pool"
  pooling_param {
    pool: AVE
    kernel_size: 5
    stride: 3
  }
}
layer {
  name: "loss1/conv"
  type: "Convolution"
  bottom: "loss1/ave_pool"
  top: "loss1/conv"
  param {
    lr_mult: 1
    decay_mult: 1
  }
  param {
    lr_mult: 2
    decay_mult: 0
  }
  convolution_param {
    num_output: 128
    kernel_size: 1
    weight_filler {
      type: "xavier"
    }
    bias_filler {
      type: "constant"
      value: 0.2
    }
  }
}
layer {
  name: "loss1/prelu_conv"
  type: "PReLU"
  bottom: "loss1/conv"
  top: "loss1/conv"
  param {
    lr_mult: 1
    decay_mult: 0
  }
  prelu_param {
    filler {
      type: "constant"
      value: 0.01
    }
  }
}
layer {
  name: "loss1/fc"
  type: "InnerProduct"
  bottom: "loss1/conv"
  top: "loss1/fc"
  param {
    lr_mult: 1
    decay_mult: 1
  }
  param {
    lr_mult: 2
    decay_mult: 0
  }
  inner_product_param {
    num_output: 1024
    weight_filler {
      type: "xavier"
    }
    bias_filler {
      type: "constant"
      value: 0.2
    }
  }
}
layer {
  name: "loss1/prelu_fc"
  type: "PReLU"
  bottom: "loss1/fc"
  top: "loss1/fc"
  param {
    lr_mult: 1
    decay_mult: 0
  }
  prelu_param {
    filler {
      type: "constant"
      value: 0.01
    }
  }
}
layer {
  name: "loss1/drop_fc"
  type: "Dropout"
  bottom: "loss1/fc"
  top: "loss1/fc"
  dropout_param {
    dropout_ratio: 0.7
  }
}
layer {
  name: "loss1/classifier2"
  type: "InnerProduct"
  bottom: "loss1/fc"
  top: "loss1/classifier"
  param {
    lr_mult: 1
    decay_mult: 1
  }
  param {
    lr_mult: 2
    decay_mult: 0
  }
  inner_product_param {
    num_output: 2
    weight_filler {
      type: "xavier"
    }
    bias_filler {
      type: "constant"
      value: 0
    }
  }
}
layer {
  name: "loss1/loss"
  type: "SoftmaxWithLoss"
  bottom: "loss1/classifier"
  bottom: "label"
  top: "loss1/loss1"
  loss_weight: 0.3
}
layer {
  name: "inception_4b/1x1"
  type: "Convolution"
  bottom: "inception_4a/output"
  top: "inception_4b/1x1"
  param {
    lr_mult: 1
    decay_mult: 1
  }
  param {
    lr_mult: 2
    decay_mult: 0
  }
  convolution_param {
    num_output: 160
    kernel_size: 1
    weight_filler {
      type: "xavier"
    }
    bias_filler {
      type: "constant"
      value: 0.2
    }
  }
}
layer {
  name: "inception_4b/prelu_1x1"
  type: "PReLU"
  bottom: "inception_4b/1x1"
  top: "inception_4b/1x1"
  param {
    lr_mult: 1
    decay_mult: 0
  }
  prelu_param {
    filler {
      type: "constant"
      value: 0.01
    }
  }
}
layer {
  name: "inception_4b/3x3_reduce"
  type: "Convolution"
  bottom: "inception_4a/output"
  top: "inception_4b/3x3_reduce"
  param {
    lr_mult: 1
    decay_mult: 1
  }
  param {
    lr_mult: 2
    decay_mult: 0
  }
  convolution_param {
    num_output: 112
    kernel_size: 1
    weight_filler {
      type: "xavier"
    }
    bias_filler {
      type: "constant"
      value: 0.2
    }
  }
}
layer {
  name: "inception_4b/prelu_3x3_reduce"
  type: "PReLU"
  bottom: "inception_4b/3x3_reduce"
  top: "inception_4b/3x3_reduce"
  param {
    lr_mult: 1
    decay_mult: 0
  }
  prelu_param {
    filler {
      type: "constant"
      value: 0.01
    }
  }
}
layer {
  name: "inception_4b/3x3"
  type: "Convolution"
  bottom: "inception_4b/3x3_reduce"
  top: "inception_4b/3x3"
  param {
    lr_mult: 1
    decay_mult: 1
  }
  param {
    lr_mult: 2
    decay_mult: 0
  }
  convolution_param {
    num_output: 224
    pad: 1
    kernel_size: 3
    weight_filler {
      type: "xavier"
    }
    bias_filler {
      type: "constant"
      value: 0.2
    }
  }
}
layer {
  name: "inception_4b/prelu_3x3"
  type: "PReLU"
  bottom: "inception_4b/3x3"
  top: "inception_4b/3x3"
  param {
    lr_mult: 1
    decay_mult: 0
  }
  prelu_param {
    filler {
      type: "constant"
      value: 0.01
    }
  }
}
layer {
  name: "inception_4b/5x5_reduce"
  type: "Convolution"
  bottom: "inception_4a/output"
  top: "inception_4b/5x5_reduce"
  param {
    lr_mult: 1
    decay_mult: 1
  }
  param {
    lr_mult: 2
    decay_mult: 0
  }
  convolution_param {
    num_output: 24
    kernel_size: 1
    weight_filler {
      type: "xavier"
    }
    bias_filler {
      type: "constant"
      value: 0.2
    }
  }
}
layer {
  name: "inception_4b/prelu_5x5_reduce"
  type: "PReLU"
  bottom: "inception_4b/5x5_reduce"
  top: "inception_4b/5x5_reduce"
  param {
    lr_mult: 1
    decay_mult: 0
  }
  prelu_param {
    filler {
      type: "constant"
      value: 0.01
    }
  }
}
layer {
  name: "inception_4b/5x5"
  type: "Convolution"
  bottom: "inception_4b/5x5_reduce"
  top: "inception_4b/5x5"
  param {
    lr_mult: 1
    decay_mult: 1
  }
  param {
    lr_mult: 2
    decay_mult: 0
  }
  convolution_param {
    num_output: 64
    pad: 2
    kernel_size: 5
    weight_filler {
      type: "xavier"
    }
    bias_filler {
      type: "constant"
      value: 0.2
    }
  }
}
layer {
  name: "inception_4b/prelu_5x5"
  type: "PReLU"
  bottom: "inception_4b/5x5"
  top: "inception_4b/5x5"
  param {
    lr_mult: 1
    decay_mult: 0
  }
  prelu_param {
    filler {
      type: "constant"
      value: 0.01
    }
  }
}
layer {
  name: "inception_4b/pool"
  type: "Pooling"
  bottom: "inception_4a/output"
  top: "inception_4b/pool"
  pooling_param {
    pool: MAX
    kernel_size: 3
    stride: 1
    pad: 1
  }
}
layer {
  name: "inception_4b/pool_proj"
  type: "Convolution"
  bottom: "inception_4b/pool"
  top: "inception_4b/pool_proj"
  param {
    lr_mult: 1
    decay_mult: 1
  }
  param {
    lr_mult: 2
    decay_mult: 0
  }
  convolution_param {
    num_output: 64
    kernel_size: 1
    weight_filler {
      type: "xavier"
    }
    bias_filler {
      type: "constant"
      value: 0.2
    }
  }
}
layer {
  name: "inception_4b/prelu_pool_proj"
  type: "PReLU"
  bottom: "inception_4b/pool_proj"
  top: "inception_4b/pool_proj"
  param {
    lr_mult: 1
    decay_mult: 0
  }
  prelu_param {
    filler {
      type: "constant"
      value: 0.01
    }
  }
}
layer {
  name: "inception_4b/output"
  type: "Concat"
  bottom: "inception_4b/1x1"
  bottom: "inception_4b/3x3"
  bottom: "inception_4b/5x5"
  bottom: "inception_4b/pool_proj"
  top: "inception_4b/output"
}
layer {
  name: "inception_4c/1x1"
  type: "Convolution"
  bottom: "inception_4b/output"
  top: "inception_4c/1x1"
  param {
    lr_mult: 1
    decay_mult: 1
  }
  param {
    lr_mult: 2
    decay_mult: 0
  }
  convolution_param {
    num_output: 128
    kernel_size: 1
    weight_filler {
      type: "xavier"
    }
    bias_filler {
      type: "constant"
      value: 0.2
    }
  }
}
layer {
  name: "inception_4c/prelu_1x1"
  type: "PReLU"
  bottom: "inception_4c/1x1"
  top: "inception_4c/1x1"
  param {
    lr_mult: 1
    decay_mult: 0
  }
  prelu_param {
    filler {
      type: "constant"
      value: 0.01
    }
  }
}
layer {
  name: "inception_4c/3x3_reduce"
  type: "Convolution"
  bottom: "inception_4b/output"
  top: "inception_4c/3x3_reduce"
  param {
    lr_mult: 1
    decay_mult: 1
  }
  param {
    lr_mult: 2
    decay_mult: 0
  }
  convolution_param {
    num_output: 128
    kernel_size: 1
    weight_filler {
      type: "xavier"
    }
    bias_filler {
      type: "constant"
      value: 0.2
    }
  }
}
layer {
  name: "inception_4c/prelu_3x3_reduce"
  type: "PReLU"
  bottom: "inception_4c/3x3_reduce"
  top: "inception_4c/3x3_reduce"
  param {
    lr_mult: 1
    decay_mult: 0
  }
  prelu_param {
    filler {
      type: "constant"
      value: 0.01
    }
  }
}
layer {
  name: "inception_4c/3x3"
  type: "Convolution"
  bottom: "inception_4c/3x3_reduce"
  top: "inception_4c/3x3"
  param {
    lr_mult: 1
    decay_mult: 1
  }
  param {
    lr_mult: 2
    decay_mult: 0
  }
  convolution_param {
    num_output: 256
    pad: 1
    kernel_size: 3
    weight_filler {
      type: "xavier"
    }
    bias_filler {
      type: "constant"
      value: 0.2
    }
  }
}
layer {
  name: "inception_4c/prelu_3x3"
  type: "PReLU"
  bottom: "inception_4c/3x3"
  top: "inception_4c/3x3"
  param {
    lr_mult: 1
    decay_mult: 0
  }
  prelu_param {
    filler {
      type: "constant"
      value: 0.01
    }
  }
}
layer {
  name: "inception_4c/5x5_reduce"
  type: "Convolution"
  bottom: "inception_4b/output"
  top: "inception_4c/5x5_reduce"
  param {
    lr_mult: 1
    decay_mult: 1
  }
  param {
    lr_mult: 2
    decay_mult: 0
  }
  convolution_param {
    num_output: 24
    kernel_size: 1
    weight_filler {
      type: "xavier"
    }
    bias_filler {
      type: "constant"
      value: 0.2
    }
  }
}
layer {
  name: "inception_4c/prelu_5x5_reduce"
  type: "PReLU"
  bottom: "inception_4c/5x5_reduce"
  top: "inception_4c/5x5_reduce"
  param {
    lr_mult: 1
    decay_mult: 0
  }
  prelu_param {
    filler {
      type: "constant"
      value: 0.01
    }
  }
}
layer {
  name: "inception_4c/5x5"
  type: "Convolution"
  bottom: "inception_4c/5x5_reduce"
  top: "inception_4c/5x5"
  param {
    lr_mult: 1
    decay_mult: 1
  }
  param {
    lr_mult: 2
    decay_mult: 0
  }
  convolution_param {
    num_output: 64
    pad: 2
    kernel_size: 5
    weight_filler {
      type: "xavier"
    }
    bias_filler {
      type: "constant"
      value: 0.2
    }
  }
}
layer {
  name: "inception_4c/prelu_5x5"
  type: "PReLU"
  bottom: "inception_4c/5x5"
  top: "inception_4c/5x5"
  param {
    lr_mult: 1
    decay_mult: 0
  }
  prelu_param {
    filler {
      type: "constant"
      value: 0.01
    }
  }
}
layer {
  name: "inception_4c/pool"
  type: "Pooling"
  bottom: "inception_4b/output"
  top: "inception_4c/pool"
  pooling_param {
    pool: MAX
    kernel_size: 3
    stride: 1
    pad: 1
  }
}
layer {
  name: "inception_4c/pool_proj"
  type: "Convolution"
  bottom: "inception_4c/pool"
  top: "inception_4c/pool_proj"
  param {
    lr_mult: 1
    decay_mult: 1
  }
  param {
    lr_mult: 2
    decay_mult: 0
  }
  convolution_param {
    num_output: 64
    kernel_size: 1
    weight_filler {
      type: "xavier"
    }
    bias_filler {
      type: "constant"
      value: 0.2
    }
  }
}
layer {
  name: "inception_4c/prelu_pool_proj"
  type: "PReLU"
  bottom: "inception_4c/pool_proj"
  top: "inception_4c/pool_proj"
  param {
    lr_mult: 1
    decay_mult: 0
  }
  prelu_param {
    filler {
      type: "constant"
      value: 0.01
    }
  }
}
layer {
  name: "inception_4c/output"
  type: "Concat"
  bottom: "inception_4c/1x1"
  bottom: "inception_4c/3x3"
  bottom: "inception_4c/5x5"
  bottom: "inception_4c/pool_proj"
  top: "inception_4c/output"
}
layer {
  name: "inception_4d/1x1"
  type: "Convolution"
  bottom: "inception_4c/output"
  top: "inception_4d/1x1"
  param {
    lr_mult: 1
    decay_mult: 1
  }
  param {
    lr_mult: 2
    decay_mult: 0
  }
  convolution_param {
    num_output: 112
    kernel_size: 1
    weight_filler {
      type: "xavier"
    }
    bias_filler {
      type: "constant"
      value: 0.2
    }
  }
}
layer {
  name: "inception_4d/prelu_1x1"
  type: "PReLU"
  bottom: "inception_4d/1x1"
  top: "inception_4d/1x1"
  param {
    lr_mult: 1
    decay_mult: 0
  }
  prelu_param {
    filler {
      type: "constant"
      value: 0.01
    }
  }
}
layer {
  name: "inception_4d/3x3_reduce"
  type: "Convolution"
  bottom: "inception_4c/output"
  top: "inception_4d/3x3_reduce"
  param {
    lr_mult: 1
    decay_mult: 1
  }
  param {
    lr_mult: 2
    decay_mult: 0
  }
  convolution_param {
    num_output: 144
    kernel_size: 1
    weight_filler {
      type: "xavier"
    }
    bias_filler {
      type: "constant"
      value: 0.2
    }
  }
}
layer {
  name: "inception_4d/prelu_3x3_reduce"
  type: "PReLU"
  bottom: "inception_4d/3x3_reduce"
  top: "inception_4d/3x3_reduce"
  param {
    lr_mult: 1
    decay_mult: 0
  }
  prelu_param {
    filler {
      type: "constant"
      value: 0.01
    }
  }
}
layer {
  name: "inception_4d/3x3"
  type: "Convolution"
  bottom: "inception_4d/3x3_reduce"
  top: "inception_4d/3x3"
  param {
    lr_mult: 1
    decay_mult: 1
  }
  param {
    lr_mult: 2
    decay_mult: 0
  }
  convolution_param {
    num_output: 288
    pad: 1
    kernel_size: 3
    weight_filler {
      type: "xavier"
    }
    bias_filler {
      type: "constant"
      value: 0.2
    }
  }
}
layer {
  name: "inception_4d/prelu_3x3"
  type: "PReLU"
  bottom: "inception_4d/3x3"
  top: "inception_4d/3x3"
  param {
    lr_mult: 1
    decay_mult: 0
  }
  prelu_param {
    filler {
      type: "constant"
      value: 0.01
    }
  }
}
layer {
  name: "inception_4d/5x5_reduce"
  type: "Convolution"
  bottom: "inception_4c/output"
  top: "inception_4d/5x5_reduce"
  param {
    lr_mult: 1
    decay_mult: 1
  }
  param {
    lr_mult: 2
    decay_mult: 0
  }
  convolution_param {
    num_output: 32
    kernel_size: 1
    weight_filler {
      type: "xavier"
    }
    bias_filler {
      type: "constant"
      value: 0.2
    }
  }
}
layer {
  name: "inception_4d/prelu_5x5_reduce"
  type: "PReLU"
  bottom: "inception_4d/5x5_reduce"
  top: "inception_4d/5x5_reduce"
  param {
    lr_mult: 1
    decay_mult: 0
  }
  prelu_param {
    filler {
      type: "constant"
      value: 0.01
    }
  }
}
layer {
  name: "inception_4d/5x5"
  type: "Convolution"
  bottom: "inception_4d/5x5_reduce"
  top: "inception_4d/5x5"
  param {
    lr_mult: 1
    decay_mult: 1
  }
  param {
    lr_mult: 2
    decay_mult: 0
  }
  convolution_param {
    num_output: 64
    pad: 2
    kernel_size: 5
    weight_filler {
      type: "xavier"
    }
    bias_filler {
      type: "constant"
      value: 0.2
    }
  }
}
layer {
  name: "inception_4d/prelu_5x5"
  type: "PReLU"
  bottom: "inception_4d/5x5"
  top: "inception_4d/5x5"
  param {
    lr_mult: 1
    decay_mult: 0
  }
  prelu_param {
    filler {
      type: "constant"
      value: 0.01
    }
  }
}
layer {
  name: "inception_4d/pool"
  type: "Pooling"
  bottom: "inception_4c/output"
  top: "inception_4d/pool"
  pooling_param {
    pool: MAX
    kernel_size: 3
    stride: 1
    pad: 1
  }
}
layer {
  name: "inception_4d/pool_proj"
  type: "Convolution"
  bottom: "ince
I1105 17:25:15.892197 24483 layer_factory.hpp:76] Creating layer data
I1105 17:25:15.892593 24483 net.cpp:106] Creating Layer data
I1105 17:25:15.892607 24483 net.cpp:411] data -> data
I1105 17:25:15.892637 24483 net.cpp:411] data -> label
I1105 17:25:16.284871 24488 db_lmdb.cpp:38] Opened lmdb ../../LMDB/train_3-lmdb
I1105 17:25:16.622257 24483 data_layer.cpp:41] output data size: 32,3,224,224
I1105 17:25:16.691306 24483 net.cpp:150] Setting up data
I1105 17:25:16.691368 24483 net.cpp:157] Top shape: 32 3 224 224 (4816896)
I1105 17:25:16.691376 24483 net.cpp:157] Top shape: 32 (32)
I1105 17:25:16.691381 24483 net.cpp:165] Memory required for data: 19267712
I1105 17:25:16.691401 24483 layer_factory.hpp:76] Creating layer label_data_1_split
I1105 17:25:16.691418 24483 net.cpp:106] Creating Layer label_data_1_split
I1105 17:25:16.691426 24483 net.cpp:454] label_data_1_split <- label
I1105 17:25:16.691442 24483 net.cpp:411] label_data_1_split -> label_data_1_split_0
I1105 17:25:16.691458 24483 net.cpp:411] label_data_1_split -> label_data_1_split_1
I1105 17:25:16.691480 24483 net.cpp:411] label_data_1_split -> label_data_1_split_2
I1105 17:25:16.691591 24483 net.cpp:150] Setting up label_data_1_split
I1105 17:25:16.691609 24483 net.cpp:157] Top shape: 32 (32)
I1105 17:25:16.691623 24483 net.cpp:157] Top shape: 32 (32)
I1105 17:25:16.691628 24483 net.cpp:157] Top shape: 32 (32)
I1105 17:25:16.691632 24483 net.cpp:165] Memory required for data: 19268096
I1105 17:25:16.691637 24483 layer_factory.hpp:76] Creating layer conv1/7x7_s2
I1105 17:25:16.691653 24483 net.cpp:106] Creating Layer conv1/7x7_s2
I1105 17:25:16.691669 24483 net.cpp:454] conv1/7x7_s2 <- data
I1105 17:25:16.691678 24483 net.cpp:411] conv1/7x7_s2 -> conv1/7x7_s2
I1105 17:25:16.705518 24489 blocking_queue.cpp:50] Waiting for data
I1105 17:25:16.841475 24483 cudnn_conv_layer.cpp:194] Reallocating workspace storage: 225816
I1105 17:25:16.841723 24483 net.cpp:150] Setting up conv1/7x7_s2
I1105 17:25:16.841738 24483 net.cpp:157] Top shape: 32 64 112 112 (25690112)
I1105 17:25:16.841752 24483 net.cpp:165] Memory required for data: 122028544
I1105 17:25:16.841770 24483 layer_factory.hpp:76] Creating layer conv1/prelu_7x7
I1105 17:25:16.841799 24483 net.cpp:106] Creating Layer conv1/prelu_7x7
I1105 17:25:16.841806 24483 net.cpp:454] conv1/prelu_7x7 <- conv1/7x7_s2
I1105 17:25:16.841814 24483 net.cpp:397] conv1/prelu_7x7 -> conv1/7x7_s2 (in-place)
I1105 17:25:16.843528 24483 net.cpp:150] Setting up conv1/prelu_7x7
I1105 17:25:16.843545 24483 net.cpp:157] Top shape: 32 64 112 112 (25690112)
I1105 17:25:16.843559 24483 net.cpp:165] Memory required for data: 224788992
I1105 17:25:16.843567 24483 layer_factory.hpp:76] Creating layer pool1/3x3_s2
I1105 17:25:16.843580 24483 net.cpp:106] Creating Layer pool1/3x3_s2
I1105 17:25:16.843586 24483 net.cpp:454] pool1/3x3_s2 <- conv1/7x7_s2
I1105 17:25:16.843596 24483 net.cpp:411] pool1/3x3_s2 -> pool1/3x3_s2
I1105 17:25:16.844002 24483 net.cpp:150] Setting up pool1/3x3_s2
I1105 17:25:16.844012 24483 net.cpp:157] Top shape: 32 64 56 56 (6422528)
I1105 17:25:16.844025 24483 net.cpp:165] Memory required for data: 250479104
I1105 17:25:16.844030 24483 layer_factory.hpp:76] Creating layer pool1/norm1
I1105 17:25:16.844043 24483 net.cpp:106] Creating Layer pool1/norm1
I1105 17:25:16.844048 24483 net.cpp:454] pool1/norm1 <- pool1/3x3_s2
I1105 17:25:16.844053 24483 net.cpp:411] pool1/norm1 -> pool1/norm1
I1105 17:25:16.844247 24483 net.cpp:150] Setting up pool1/norm1
I1105 17:25:16.844257 24483 net.cpp:157] Top shape: 32 64 56 56 (6422528)
I1105 17:25:16.844269 24483 net.cpp:165] Memory required for data: 276169216
I1105 17:25:16.844274 24483 layer_factory.hpp:76] Creating layer conv2/3x3_reduce
I1105 17:25:16.844286 24483 net.cpp:106] Creating Layer conv2/3x3_reduce
I1105 17:25:16.844290 24483 net.cpp:454] conv2/3x3_reduce <- pool1/norm1
I1105 17:25:16.844297 24483 net.cpp:411] conv2/3x3_reduce -> conv2/3x3_reduce
I1105 17:25:16.845721 24483 cudnn_conv_layer.cpp:194] Reallocating workspace storage: 63000
I1105 17:25:16.845744 24483 net.cpp:150] Setting up conv2/3x3_reduce
I1105 17:25:16.845752 24483 net.cpp:157] Top shape: 32 64 56 56 (6422528)
I1105 17:25:16.845757 24483 net.cpp:165] Memory required for data: 301859328
I1105 17:25:16.845767 24483 layer_factory.hpp:76] Creating layer conv2/prelu_3x3_reduce
I1105 17:25:16.845777 24483 net.cpp:106] Creating Layer conv2/prelu_3x3_reduce
I1105 17:25:16.845782 24483 net.cpp:454] conv2/prelu_3x3_reduce <- conv2/3x3_reduce
I1105 17:25:16.845798 24483 net.cpp:397] conv2/prelu_3x3_reduce -> conv2/3x3_reduce (in-place)
I1105 17:25:16.846420 24483 net.cpp:150] Setting up conv2/prelu_3x3_reduce
I1105 17:25:16.846431 24483 net.cpp:157] Top shape: 32 64 56 56 (6422528)
I1105 17:25:16.846436 24483 net.cpp:165] Memory required for data: 327549440
I1105 17:25:16.846441 24483 layer_factory.hpp:76] Creating layer conv2/3x3
I1105 17:25:16.846454 24483 net.cpp:106] Creating Layer conv2/3x3
I1105 17:25:16.846459 24483 net.cpp:454] conv2/3x3 <- conv2/3x3_reduce
I1105 17:25:16.846467 24483 net.cpp:411] conv2/3x3 -> conv2/3x3
I1105 17:25:16.848448 24483 cudnn_conv_layer.cpp:194] Reallocating workspace storage: 63000
I1105 17:25:16.848469 24483 net.cpp:150] Setting up conv2/3x3
I1105 17:25:16.848477 24483 net.cpp:157] Top shape: 32 192 56 56 (19267584)
I1105 17:25:16.848481 24483 net.cpp:165] Memory required for data: 404619776
I1105 17:25:16.848489 24483 layer_factory.hpp:76] Creating layer conv2/prelu_3x3
I1105 17:25:16.848497 24483 net.cpp:106] Creating Layer conv2/prelu_3x3
I1105 17:25:16.848505 24483 net.cpp:454] conv2/prelu_3x3 <- conv2/3x3
I1105 17:25:16.848520 24483 net.cpp:397] conv2/prelu_3x3 -> conv2/3x3 (in-place)
I1105 17:25:16.849642 24483 net.cpp:150] Setting up conv2/prelu_3x3
I1105 17:25:16.849658 24483 net.cpp:157] Top shape: 32 192 56 56 (19267584)
I1105 17:25:16.849679 24483 net.cpp:165] Memory required for data: 481690112
I1105 17:25:16.849689 24483 layer_factory.hpp:76] Creating layer conv2/norm2
I1105 17:25:16.849699 24483 net.cpp:106] Creating Layer conv2/norm2
I1105 17:25:16.849702 24483 net.cpp:454] conv2/norm2 <- conv2/3x3
I1105 17:25:16.849712 24483 net.cpp:411] conv2/norm2 -> conv2/norm2
I1105 17:25:16.849905 24483 net.cpp:150] Setting up conv2/norm2
I1105 17:25:16.849915 24483 net.cpp:157] Top shape: 32 192 56 56 (19267584)
I1105 17:25:16.849926 24483 net.cpp:165] Memory required for data: 558760448
I1105 17:25:16.849931 24483 layer_factory.hpp:76] Creating layer pool2/3x3_s2
I1105 17:25:16.849938 24483 net.cpp:106] Creating Layer pool2/3x3_s2
I1105 17:25:16.849942 24483 net.cpp:454] pool2/3x3_s2 <- conv2/norm2
I1105 17:25:16.849949 24483 net.cpp:411] pool2/3x3_s2 -> pool2/3x3_s2
I1105 17:25:16.850314 24483 net.cpp:150] Setting up pool2/3x3_s2
I1105 17:25:16.850333 24483 net.cpp:157] Top shape: 32 192 28 28 (4816896)
I1105 17:25:16.850338 24483 net.cpp:165] Memory required for data: 578028032
I1105 17:25:16.850343 24483 layer_factory.hpp:76] Creating layer pool2/3x3_s2_pool2/3x3_s2_0_split
I1105 17:25:16.850350 24483 net.cpp:106] Creating Layer pool2/3x3_s2_pool2/3x3_s2_0_split
I1105 17:25:16.850354 24483 net.cpp:454] pool2/3x3_s2_pool2/3x3_s2_0_split <- pool2/3x3_s2
I1105 17:25:16.850361 24483 net.cpp:411] pool2/3x3_s2_pool2/3x3_s2_0_split -> pool2/3x3_s2_pool2/3x3_s2_0_split_0
I1105 17:25:16.850369 24483 net.cpp:411] pool2/3x3_s2_pool2/3x3_s2_0_split -> pool2/3x3_s2_pool2/3x3_s2_0_split_1
I1105 17:25:16.850378 24483 net.cpp:411] pool2/3x3_s2_pool2/3x3_s2_0_split -> pool2/3x3_s2_pool2/3x3_s2_0_split_2
I1105 17:25:16.850392 24483 net.cpp:411] pool2/3x3_s2_pool2/3x3_s2_0_split -> pool2/3x3_s2_pool2/3x3_s2_0_split_3
I1105 17:25:16.850450 24483 net.cpp:150] Setting up pool2/3x3_s2_pool2/3x3_s2_0_split
I1105 17:25:16.850458 24483 net.cpp:157] Top shape: 32 192 28 28 (4816896)
I1105 17:25:16.850463 24483 net.cpp:157] Top shape: 32 192 28 28 (4816896)
I1105 17:25:16.850468 24483 net.cpp:157] Top shape: 32 192 28 28 (4816896)
I1105 17:25:16.850473 24483 net.cpp:157] Top shape: 32 192 28 28 (4816896)
I1105 17:25:16.850477 24483 net.cpp:165] Memory required for data: 655098368
I1105 17:25:16.850482 24483 layer_factory.hpp:76] Creating layer inception_3a/1x1
I1105 17:25:16.850492 24483 net.cpp:106] Creating Layer inception_3a/1x1
I1105 17:25:16.850497 24483 net.cpp:454] inception_3a/1x1 <- pool2/3x3_s2_pool2/3x3_s2_0_split_0
I1105 17:25:16.850505 24483 net.cpp:411] inception_3a/1x1 -> inception_3a/1x1
I1105 17:25:16.851953 24483 cudnn_conv_layer.cpp:194] Reallocating workspace storage: 20664
I1105 17:25:16.851977 24483 net.cpp:150] Setting up inception_3a/1x1
I1105 17:25:16.851985 24483 net.cpp:157] Top shape: 32 64 28 28 (1605632)
I1105 17:25:16.851989 24483 net.cpp:165] Memory required for data: 661520896
I1105 17:25:16.851997 24483 layer_factory.hpp:76] Creating layer inception_3a/prelu_1x1
I1105 17:25:16.852007 24483 net.cpp:106] Creating Layer inception_3a/prelu_1x1
I1105 17:25:16.852015 24483 net.cpp:454] inception_3a/prelu_1x1 <- inception_3a/1x1
I1105 17:25:16.852028 24483 net.cpp:397] inception_3a/prelu_1x1 -> inception_3a/1x1 (in-place)
I1105 17:25:16.852565 24483 net.cpp:150] Setting up inception_3a/prelu_1x1
I1105 17:25:16.852576 24483 net.cpp:157] Top shape: 32 64 28 28 (1605632)
I1105 17:25:16.852581 24483 net.cpp:165] Memory required for data: 667943424
I1105 17:25:16.852587 24483 layer_factory.hpp:76] Creating layer inception_3a/3x3_reduce
I1105 17:25:16.852597 24483 net.cpp:106] Creating Layer inception_3a/3x3_reduce
I1105 17:25:16.852602 24483 net.cpp:454] inception_3a/3x3_reduce <- pool2/3x3_s2_pool2/3x3_s2_0_split_1
I1105 17:25:16.852609 24483 net.cpp:411] inception_3a/3x3_reduce -> inception_3a/3x3_reduce
I1105 17:25:16.853616 24483 cudnn_conv_layer.cpp:194] Reallocating workspace storage: 20664
I1105 17:25:16.853638 24483 net.cpp:150] Setting up inception_3a/3x3_reduce
I1105 17:25:16.853646 24483 net.cpp:157] Top shape: 32 96 28 28 (2408448)
I1105 17:25:16.853662 24483 net.cpp:165] Memory required for data: 677577216
I1105 17:25:16.853669 24483 layer_factory.hpp:76] Creating layer inception_3a/prelu_3x3_reduce
I1105 17:25:16.853682 24483 net.cpp:106] Creating Layer inception_3a/prelu_3x3_reduce
I1105 17:25:16.853688 24483 net.cpp:454] inception_3a/prelu_3x3_reduce <- inception_3a/3x3_reduce
I1105 17:25:16.853693 24483 net.cpp:397] inception_3a/prelu_3x3_reduce -> inception_3a/3x3_reduce (in-place)
I1105 17:25:16.853824 24483 net.cpp:150] Setting up inception_3a/prelu_3x3_reduce
I1105 17:25:16.853834 24483 net.cpp:157] Top shape: 32 96 28 28 (2408448)
I1105 17:25:16.853838 24483 net.cpp:165] Memory required for data: 687211008
I1105 17:25:16.853844 24483 layer_factory.hpp:76] Creating layer inception_3a/3x3
I1105 17:25:16.853853 24483 net.cpp:106] Creating Layer inception_3a/3x3
I1105 17:25:16.853858 24483 net.cpp:454] inception_3a/3x3 <- inception_3a/3x3_reduce
I1105 17:25:16.853866 24483 net.cpp:411] inception_3a/3x3 -> inception_3a/3x3
I1105 17:25:16.855999 24483 cudnn_conv_layer.cpp:194] Reallocating workspace storage: 20664
I1105 17:25:16.856039 24483 net.cpp:150] Setting up inception_3a/3x3
I1105 17:25:16.856050 24483 net.cpp:157] Top shape: 32 128 28 28 (3211264)
I1105 17:25:16.856060 24483 net.cpp:165] Memory required for data: 700056064
I1105 17:25:16.856088 24483 layer_factory.hpp:76] Creating layer inception_3a/prelu_3x3
I1105 17:25:16.856124 24483 net.cpp:106] Creating Layer inception_3a/prelu_3x3
I1105 17:25:16.856147 24483 net.cpp:454] inception_3a/prelu_3x3 <- inception_3a/3x3
I1105 17:25:16.856179 24483 net.cpp:397] inception_3a/prelu_3x3 -> inception_3a/3x3 (in-place)
I1105 17:25:16.856365 24483 net.cpp:150] Setting up inception_3a/prelu_3x3
I1105 17:25:16.856377 24483 net.cpp:157] Top shape: 32 128 28 28 (3211264)
I1105 17:25:16.856381 24483 net.cpp:165] Memory required for data: 712901120
I1105 17:25:16.856387 24483 layer_factory.hpp:76] Creating layer inception_3a/5x5_reduce
I1105 17:25:16.856403 24483 net.cpp:106] Creating Layer inception_3a/5x5_reduce
I1105 17:25:16.856410 24483 net.cpp:454] inception_3a/5x5_reduce <- pool2/3x3_s2_pool2/3x3_s2_0_split_2
I1105 17:25:16.856417 24483 net.cpp:411] inception_3a/5x5_reduce -> inception_3a/5x5_reduce
I1105 17:25:16.857708 24483 cudnn_conv_layer.cpp:194] Reallocating workspace storage: 20664
I1105 17:25:16.857738 24483 net.cpp:150] Setting up inception_3a/5x5_reduce
I1105 17:25:16.857746 24483 net.cpp:157] Top shape: 32 16 28 28 (401408)
I1105 17:25:16.857755 24483 net.cpp:165] Memory required for data: 714506752
I1105 17:25:16.857774 24483 layer_factory.hpp:76] Creating layer inception_3a/prelu_5x5_reduce
I1105 17:25:16.857787 24483 net.cpp:106] Creating Layer inception_3a/prelu_5x5_reduce
I1105 17:25:16.857795 24483 net.cpp:454] inception_3a/prelu_5x5_reduce <- inception_3a/5x5_reduce
I1105 17:25:16.857802 24483 net.cpp:397] inception_3a/prelu_5x5_reduce -> inception_3a/5x5_reduce (in-place)
I1105 17:25:16.857906 24483 net.cpp:150] Setting up inception_3a/prelu_5x5_reduce
I1105 17:25:16.857915 24483 net.cpp:157] Top shape: 32 16 28 28 (401408)
I1105 17:25:16.857919 24483 net.cpp:165] Memory required for data: 716112384
I1105 17:25:16.857929 24483 layer_factory.hpp:76] Creating layer inception_3a/5x5
I1105 17:25:16.857956 24483 net.cpp:106] Creating Layer inception_3a/5x5
I1105 17:25:16.857967 24483 net.cpp:454] inception_3a/5x5 <- inception_3a/5x5_reduce
I1105 17:25:16.857990 24483 net.cpp:411] inception_3a/5x5 -> inception_3a/5x5
I1105 17:25:16.859033 24483 cudnn_conv_layer.cpp:194] Reallocating workspace storage: 20664
I1105 17:25:16.859056 24483 net.cpp:150] Setting up inception_3a/5x5
I1105 17:25:16.859071 24483 net.cpp:157] Top shape: 32 32 28 28 (802816)
I1105 17:25:16.859081 24483 net.cpp:165] Memory required for data: 719323648
I1105 17:25:16.859102 24483 layer_factory.hpp:76] Creating layer inception_3a/prelu_5x5
I1105 17:25:16.859113 24483 net.cpp:106] Creating Layer inception_3a/prelu_5x5
I1105 17:25:16.859127 24483 net.cpp:454] inception_3a/prelu_5x5 <- inception_3a/5x5
I1105 17:25:16.859133 24483 net.cpp:397] inception_3a/prelu_5x5 -> inception_3a/5x5 (in-place)
I1105 17:25:16.859253 24483 net.cpp:150] Setting up inception_3a/prelu_5x5
I1105 17:25:16.859262 24483 net.cpp:157] Top shape: 32 32 28 28 (802816)
I1105 17:25:16.859268 24483 net.cpp:165] Memory required for data: 722534912
I1105 17:25:16.859275 24483 layer_factory.hpp:76] Creating layer inception_3a/pool
I1105 17:25:16.859292 24483 net.cpp:106] Creating Layer inception_3a/pool
I1105 17:25:16.859297 24483 net.cpp:454] inception_3a/pool <- pool2/3x3_s2_pool2/3x3_s2_0_split_3
I1105 17:25:16.859304 24483 net.cpp:411] inception_3a/pool -> inception_3a/pool
I1105 17:25:16.859493 24483 net.cpp:150] Setting up inception_3a/pool
I1105 17:25:16.859503 24483 net.cpp:157] Top shape: 32 192 28 28 (4816896)
I1105 17:25:16.859508 24483 net.cpp:165] Memory required for data: 741802496
I1105 17:25:16.859511 24483 layer_factory.hpp:76] Creating layer inception_3a/pool_proj
I1105 17:25:16.859520 24483 net.cpp:106] Creating Layer inception_3a/pool_proj
I1105 17:25:16.859525 24483 net.cpp:454] inception_3a/pool_proj <- inception_3a/pool
I1105 17:25:16.859532 24483 net.cpp:411] inception_3a/pool_proj -> inception_3a/pool_proj
I1105 17:25:16.860532 24483 cudnn_conv_layer.cpp:194] Reallocating workspace storage: 20664
I1105 17:25:16.860549 24483 net.cpp:150] Setting up inception_3a/pool_proj
I1105 17:25:16.860556 24483 net.cpp:157] Top shape: 32 32 28 28 (802816)
I1105 17:25:16.860560 24483 net.cpp:165] Memory required for data: 745013760
I1105 17:25:16.860568 24483 layer_factory.hpp:76] Creating layer inception_3a/prelu_pool_proj
I1105 17:25:16.860579 24483 net.cpp:106] Creating Layer inception_3a/prelu_pool_proj
I1105 17:25:16.860585 24483 net.cpp:454] inception_3a/prelu_pool_proj <- inception_3a/pool_proj
I1105 17:25:16.860599 24483 net.cpp:397] inception_3a/prelu_pool_proj -> inception_3a/pool_proj (in-place)
I1105 17:25:16.860698 24483 net.cpp:150] Setting up inception_3a/prelu_pool_proj
I1105 17:25:16.860708 24483 net.cpp:157] Top shape: 32 32 28 28 (802816)
I1105 17:25:16.860713 24483 net.cpp:165] Memory required for data: 748225024
I1105 17:25:16.860720 24483 layer_factory.hpp:76] Creating layer inception_3a/output
I1105 17:25:16.860738 24483 net.cpp:106] Creating Layer inception_3a/output
I1105 17:25:16.860743 24483 net.cpp:454] inception_3a/output <- inception_3a/1x1
I1105 17:25:16.860749 24483 net.cpp:454] inception_3a/output <- inception_3a/3x3
I1105 17:25:16.860754 24483 net.cpp:454] inception_3a/output <- inception_3a/5x5
I1105 17:25:16.860759 24483 net.cpp:454] inception_3a/output <- inception_3a/pool_proj
I1105 17:25:16.860766 24483 net.cpp:411] inception_3a/output -> inception_3a/output
I1105 17:25:16.860818 24483 net.cpp:150] Setting up inception_3a/output
I1105 17:25:16.860826 24483 net.cpp:157] Top shape: 32 256 28 28 (6422528)
I1105 17:25:16.860832 24483 net.cpp:165] Memory required for data: 773915136
I1105 17:25:16.860837 24483 layer_factory.hpp:76] Creating layer inception_3a/output_inception_3a/output_0_split
I1105 17:25:16.860853 24483 net.cpp:106] Creating Layer inception_3a/output_inception_3a/output_0_split
I1105 17:25:16.860865 24483 net.cpp:454] inception_3a/output_inception_3a/output_0_split <- inception_3a/output
I1105 17:25:16.860872 24483 net.cpp:411] inception_3a/output_inception_3a/output_0_split -> inception_3a/output_inception_3a/output_0_split_0
I1105 17:25:16.860878 24483 net.cpp:411] inception_3a/output_inception_3a/output_0_split -> inception_3a/output_inception_3a/output_0_split_1
I1105 17:25:16.860887 24483 net.cpp:411] inception_3a/output_inception_3a/output_0_split -> inception_3a/output_inception_3a/output_0_split_2
I1105 17:25:16.860894 24483 net.cpp:411] inception_3a/output_inception_3a/output_0_split -> inception_3a/output_inception_3a/output_0_split_3
I1105 17:25:16.860965 24483 net.cpp:150] Setting up inception_3a/output_inception_3a/output_0_split
I1105 17:25:16.860973 24483 net.cpp:157] Top shape: 32 256 28 28 (6422528)
I1105 17:25:16.860980 24483 net.cpp:157] Top shape: 32 256 28 28 (6422528)
I1105 17:25:16.860985 24483 net.cpp:157] Top shape: 32 256 28 28 (6422528)
I1105 17:25:16.860999 24483 net.cpp:157] Top shape: 32 256 28 28 (6422528)
I1105 17:25:16.861004 24483 net.cpp:165] Memory required for data: 876675584
I1105 17:25:16.861011 24483 layer_factory.hpp:76] Creating layer inception_3b/1x1
I1105 17:25:16.861028 24483 net.cpp:106] Creating Layer inception_3b/1x1
I1105 17:25:16.861033 24483 net.cpp:454] inception_3b/1x1 <- inception_3a/output_inception_3a/output_0_split_0
I1105 17:25:16.861040 24483 net.cpp:411] inception_3b/1x1 -> inception_3b/1x1
I1105 17:25:16.862196 24483 cudnn_conv_layer.cpp:194] Reallocating workspace storage: 20664
I1105 17:25:16.862224 24483 net.cpp:150] Setting up inception_3b/1x1
I1105 17:25:16.862232 24483 net.cpp:157] Top shape: 32 128 28 28 (3211264)
I1105 17:25:16.862237 24483 net.cpp:165] Memory required for data: 889520640
I1105 17:25:16.862244 24483 layer_factory.hpp:76] Creating layer inception_3b/prelu_1x1
I1105 17:25:16.862253 24483 net.cpp:106] Creating Layer inception_3b/prelu_1x1
I1105 17:25:16.862260 24483 net.cpp:454] inception_3b/prelu_1x1 <- inception_3b/1x1
I1105 17:25:16.862267 24483 net.cpp:397] inception_3b/prelu_1x1 -> inception_3b/1x1 (in-place)
I1105 17:25:16.862881 24483 net.cpp:150] Setting up inception_3b/prelu_1x1
I1105 17:25:16.862893 24483 net.cpp:157] Top shape: 32 128 28 28 (3211264)
I1105 17:25:16.862900 24483 net.cpp:165] Memory required for data: 902365696
I1105 17:25:16.862905 24483 layer_factory.hpp:76] Creating layer inception_3b/3x3_reduce
I1105 17:25:16.862915 24483 net.cpp:106] Creating Layer inception_3b/3x3_reduce
I1105 17:25:16.862920 24483 net.cpp:454] inception_3b/3x3_reduce <- inception_3a/output_inception_3a/output_0_split_1
I1105 17:25:16.862927 24483 net.cpp:411] inception_3b/3x3_reduce -> inception_3b/3x3_reduce
I1105 17:25:16.864086 24483 cudnn_conv_layer.cpp:194] Reallocating workspace storage: 20664
I1105 17:25:16.864105 24483 net.cpp:150] Setting up inception_3b/3x3_reduce
I1105 17:25:16.864112 24483 net.cpp:157] Top shape: 32 128 28 28 (3211264)
I1105 17:25:16.864117 24483 net.cpp:165] Memory required for data: 915210752
I1105 17:25:16.864125 24483 layer_factory.hpp:76] Creating layer inception_3b/prelu_3x3_reduce
I1105 17:25:16.864133 24483 net.cpp:106] Creating Layer inception_3b/prelu_3x3_reduce
I1105 17:25:16.864142 24483 net.cpp:454] inception_3b/prelu_3x3_reduce <- inception_3b/3x3_reduce
I1105 17:25:16.864151 24483 net.cpp:397] inception_3b/prelu_3x3_reduce -> inception_3b/3x3_reduce (in-place)
I1105 17:25:16.864274 24483 net.cpp:150] Setting up inception_3b/prelu_3x3_reduce
I1105 17:25:16.864282 24483 net.cpp:157] Top shape: 32 128 28 28 (3211264)
I1105 17:25:16.864287 24483 net.cpp:165] Memory required for data: 928055808
I1105 17:25:16.864300 24483 layer_factory.hpp:76] Creating layer inception_3b/3x3
I1105 17:25:16.864311 24483 net.cpp:106] Creating Layer inception_3b/3x3
I1105 17:25:16.864318 24483 net.cpp:454] inception_3b/3x3 <- inception_3b/3x3_reduce
I1105 17:25:16.864326 24483 net.cpp:411] inception_3b/3x3 -> inception_3b/3x3
I1105 17:25:16.867023 24483 cudnn_conv_layer.cpp:194] Reallocating workspace storage: 20664
I1105 17:25:16.867044 24483 net.cpp:150] Setting up inception_3b/3x3
I1105 17:25:16.867053 24483 net.cpp:157] Top shape: 32 192 28 28 (4816896)
I1105 17:25:16.867056 24483 net.cpp:165] Memory required for data: 947323392
I1105 17:25:16.867064 24483 layer_factory.hpp:76] Creating layer inception_3b/prelu_3x3
I1105 17:25:16.867075 24483 net.cpp:106] Creating Layer inception_3b/prelu_3x3
I1105 17:25:16.867089 24483 net.cpp:454] inception_3b/prelu_3x3 <- inception_3b/3x3
I1105 17:25:16.867096 24483 net.cpp:397] inception_3b/prelu_3x3 -> inception_3b/3x3 (in-place)
I1105 17:25:16.867678 24483 net.cpp:150] Setting up inception_3b/prelu_3x3
I1105 17:25:16.867689 24483 net.cpp:157] Top shape: 32 192 28 28 (4816896)
I1105 17:25:16.867702 24483 net.cpp:165] Memory required for data: 966590976
I1105 17:25:16.867708 24483 layer_factory.hpp:76] Creating layer inception_3b/5x5_reduce
I1105 17:25:16.867718 24483 net.cpp:106] Creating Layer inception_3b/5x5_reduce
I1105 17:25:16.867735 24483 net.cpp:454] inception_3b/5x5_reduce <- inception_3a/output_inception_3a/output_0_split_2
I1105 17:25:16.867746 24483 net.cpp:411] inception_3b/5x5_reduce -> inception_3b/5x5_reduce
I1105 17:25:16.868638 24483 cudnn_conv_layer.cpp:194] Reallocating workspace storage: 20664
I1105 17:25:16.868656 24483 net.cpp:150] Setting up inception_3b/5x5_reduce
I1105 17:25:16.868664 24483 net.cpp:157] Top shape: 32 32 28 28 (802816)
I1105 17:25:16.868667 24483 net.cpp:165] Memory required for data: 969802240
I1105 17:25:16.868674 24483 layer_factory.hpp:76] Creating layer inception_3b/prelu_5x5_reduce
I1105 17:25:16.868685 24483 net.cpp:106] Creating Layer inception_3b/prelu_5x5_reduce
I1105 17:25:16.868692 24483 net.cpp:454] inception_3b/prelu_5x5_reduce <- inception_3b/5x5_reduce
I1105 17:25:16.868707 24483 net.cpp:397] inception_3b/prelu_5x5_reduce -> inception_3b/5x5_reduce (in-place)
I1105 17:25:16.868814 24483 net.cpp:150] Setting up inception_3b/prelu_5x5_reduce
I1105 17:25:16.868824 24483 net.cpp:157] Top shape: 32 32 28 28 (802816)
I1105 17:25:16.868829 24483 net.cpp:165] Memory required for data: 973013504
I1105 17:25:16.868834 24483 layer_factory.hpp:76] Creating layer inception_3b/5x5
I1105 17:25:16.868844 24483 net.cpp:106] Creating Layer inception_3b/5x5
I1105 17:25:16.868850 24483 net.cpp:454] inception_3b/5x5 <- inception_3b/5x5_reduce
I1105 17:25:16.868866 24483 net.cpp:411] inception_3b/5x5 -> inception_3b/5x5
I1105 17:25:16.870398 24483 cudnn_conv_layer.cpp:194] Reallocating workspace storage: 20664
I1105 17:25:16.870422 24483 net.cpp:150] Setting up inception_3b/5x5
I1105 17:25:16.870430 24483 net.cpp:157] Top shape: 32 96 28 28 (2408448)
I1105 17:25:16.870434 24483 net.cpp:165] Memory required for data: 982647296
I1105 17:25:16.870442 24483 layer_factory.hpp:76] Creating layer inception_3b/prelu_5x5
I1105 17:25:16.870452 24483 net.cpp:106] Creating Layer inception_3b/prelu_5x5
I1105 17:25:16.870460 24483 net.cpp:454] inception_3b/prelu_5x5 <- inception_3b/5x5
I1105 17:25:16.870478 24483 net.cpp:397] inception_3b/prelu_5x5 -> inception_3b/5x5 (in-place)
I1105 17:25:16.870630 24483 net.cpp:150] Setting up inception_3b/prelu_5x5
I1105 17:25:16.870640 24483 net.cpp:157] Top shape: 32 96 28 28 (2408448)
I1105 17:25:16.870643 24483 net.cpp:165] Memory required for data: 992281088
I1105 17:25:16.870650 24483 layer_factory.hpp:76] Creating layer inception_3b/pool
I1105 17:25:16.870659 24483 net.cpp:106] Creating Layer inception_3b/pool
I1105 17:25:16.870664 24483 net.cpp:454] inception_3b/pool <- inception_3a/output_inception_3a/output_0_split_3
I1105 17:25:16.870672 24483 net.cpp:411] inception_3b/pool -> inception_3b/pool
I1105 17:25:16.871050 24483 net.cpp:150] Setting up inception_3b/pool
I1105 17:25:16.871062 24483 net.cpp:157] Top shape: 32 256 28 28 (6422528)
I1105 17:25:16.871068 24483 net.cpp:165] Memory required for data: 1017971200
I1105 17:25:16.871074 24483 layer_factory.hpp:76] Creating layer inception_3b/pool_proj
I1105 17:25:16.871083 24483 net.cpp:106] Creating Layer inception_3b/pool_proj
I1105 17:25:16.871088 24483 net.cpp:454] inception_3b/pool_proj <- inception_3b/pool
I1105 17:25:16.871095 24483 net.cpp:411] inception_3b/pool_proj -> inception_3b/pool_proj
I1105 17:25:16.872191 24483 cudnn_conv_layer.cpp:194] Reallocating workspace storage: 20664
I1105 17:25:16.872211 24483 net.cpp:150] Setting up inception_3b/pool_proj
I1105 17:25:16.872220 24483 net.cpp:157] Top shape: 32 64 28 28 (1605632)
I1105 17:25:16.872223 24483 net.cpp:165] Memory required for data: 1024393728
I1105 17:25:16.872231 24483 layer_factory.hpp:76] Creating layer inception_3b/prelu_pool_proj
I1105 17:25:16.872265 24483 net.cpp:106] Creating Layer inception_3b/prelu_pool_proj
I1105 17:25:16.872278 24483 net.cpp:454] inception_3b/prelu_pool_proj <- inception_3b/pool_proj
I1105 17:25:16.872301 24483 net.cpp:397] inception_3b/prelu_pool_proj -> inception_3b/pool_proj (in-place)
I1105 17:25:16.872455 24483 net.cpp:150] Setting up inception_3b/prelu_pool_proj
I1105 17:25:16.872467 24483 net.cpp:157] Top shape: 32 64 28 28 (1605632)
I1105 17:25:16.872484 24483 net.cpp:165] Memory required for data: 1030816256
I1105 17:25:16.872491 24483 layer_factory.hpp:76] Creating layer inception_3b/output
I1105 17:25:16.872500 24483 net.cpp:106] Creating Layer inception_3b/output
I1105 17:25:16.872508 24483 net.cpp:454] inception_3b/output <- inception_3b/1x1
I1105 17:25:16.872514 24483 net.cpp:454] inception_3b/output <- inception_3b/3x3
I1105 17:25:16.872521 24483 net.cpp:454] inception_3b/output <- inception_3b/5x5
I1105 17:25:16.872530 24483 net.cpp:454] inception_3b/output <- inception_3b/pool_proj
I1105 17:25:16.872544 24483 net.cpp:411] inception_3b/output -> inception_3b/output
I1105 17:25:16.872576 24483 net.cpp:150] Setting up inception_3b/output
I1105 17:25:16.872586 24483 net.cpp:157] Top shape: 32 480 28 28 (12042240)
I1105 17:25:16.872591 24483 net.cpp:165] Memory required for data: 1078985216
I1105 17:25:16.872598 24483 layer_factory.hpp:76] Creating layer pool3/3x3_s2
I1105 17:25:16.872611 24483 net.cpp:106] Creating Layer pool3/3x3_s2
I1105 17:25:16.872622 24483 net.cpp:454] pool3/3x3_s2 <- inception_3b/output
I1105 17:25:16.872637 24483 net.cpp:411] pool3/3x3_s2 -> pool3/3x3_s2
I1105 17:25:16.873016 24483 net.cpp:150] Setting up pool3/3x3_s2
I1105 17:25:16.873028 24483 net.cpp:157] Top shape: 32 480 14 14 (3010560)
I1105 17:25:16.873034 24483 net.cpp:165] Memory required for data: 1091027456
I1105 17:25:16.873040 24483 layer_factory.hpp:76] Creating layer pool3/3x3_s2_pool3/3x3_s2_0_split
I1105 17:25:16.873054 24483 net.cpp:106] Creating Layer pool3/3x3_s2_pool3/3x3_s2_0_split
I1105 17:25:16.873065 24483 net.cpp:454] pool3/3x3_s2_pool3/3x3_s2_0_split <- pool3/3x3_s2
I1105 17:25:16.873092 24483 net.cpp:411] pool3/3x3_s2_pool3/3x3_s2_0_split -> pool3/3x3_s2_pool3/3x3_s2_0_split_0
I1105 17:25:16.873105 24483 net.cpp:411] pool3/3x3_s2_pool3/3x3_s2_0_split -> pool3/3x3_s2_pool3/3x3_s2_0_split_1
I1105 17:25:16.873113 24483 net.cpp:411] pool3/3x3_s2_pool3/3x3_s2_0_split -> pool3/3x3_s2_pool3/3x3_s2_0_split_2
I1105 17:25:16.873121 24483 net.cpp:411] pool3/3x3_s2_pool3/3x3_s2_0_split -> pool3/3x3_s2_pool3/3x3_s2_0_split_3
I1105 17:25:16.873179 24483 net.cpp:150] Setting up pool3/3x3_s2_pool3/3x3_s2_0_split
I1105 17:25:16.873189 24483 net.cpp:157] Top shape: 32 480 14 14 (3010560)
I1105 17:25:16.873195 24483 net.cpp:157] Top shape: 32 480 14 14 (3010560)
I1105 17:25:16.873203 24483 net.cpp:157] Top shape: 32 480 14 14 (3010560)
I1105 17:25:16.873208 24483 net.cpp:157] Top shape: 32 480 14 14 (3010560)
I1105 17:25:16.873214 24483 net.cpp:165] Memory required for data: 1139196416
I1105 17:25:16.873220 24483 layer_factory.hpp:76] Creating layer inception_4a/1x1
I1105 17:25:16.873236 24483 net.cpp:106] Creating Layer inception_4a/1x1
I1105 17:25:16.873247 24483 net.cpp:454] inception_4a/1x1 <- pool3/3x3_s2_pool3/3x3_s2_0_split_0
I1105 17:25:16.873262 24483 net.cpp:411] inception_4a/1x1 -> inception_4a/1x1
I1105 17:25:16.875370 24483 cudnn_conv_layer.cpp:194] Reallocating workspace storage: 10080
I1105 17:25:16.875586 24483 net.cpp:150] Setting up inception_4a/1x1
I1105 17:25:16.875602 24483 net.cpp:157] Top shape: 32 192 14 14 (1204224)
I1105 17:25:16.875612 24483 net.cpp:165] Memory required for data: 1144013312
I1105 17:25:16.875627 24483 layer_factory.hpp:76] Creating layer inception_4a/prelu_1x1
I1105 17:25:16.875638 24483 net.cpp:106] Creating Layer inception_4a/prelu_1x1
I1105 17:25:16.875643 24483 net.cpp:454] inception_4a/prelu_1x1 <- inception_4a/1x1
I1105 17:25:16.875654 24483 net.cpp:397] inception_4a/prelu_1x1 -> inception_4a/1x1 (in-place)
I1105 17:25:16.876257 24483 net.cpp:150] Setting up inception_4a/prelu_1x1
I1105 17:25:16.876269 24483 net.cpp:157] Top shape: 32 192 14 14 (1204224)
I1105 17:25:16.876284 24483 net.cpp:165] Memory required for data: 1148830208
I1105 17:25:16.876291 24483 layer_factory.hpp:76] Creating layer inception_4a/3x3_reduce
I1105 17:25:16.876302 24483 net.cpp:106] Creating Layer inception_4a/3x3_reduce
I1105 17:25:16.876308 24483 net.cpp:454] inception_4a/3x3_reduce <- pool3/3x3_s2_pool3/3x3_s2_0_split_1
I1105 17:25:16.876329 24483 net.cpp:411] inception_4a/3x3_reduce -> inception_4a/3x3_reduce
I1105 17:25:16.877652 24483 cudnn_conv_layer.cpp:194] Reallocating workspace storage: 10080
I1105 17:25:16.877681 24483 net.cpp:150] Setting up inception_4a/3x3_reduce
I1105 17:25:16.877691 24483 net.cpp:157] Top shape: 32 96 14 14 (602112)
I1105 17:25:16.877696 24483 net.cpp:165] Memory required for data: 1151238656
I1105 17:25:16.877704 24483 layer_factory.hpp:76] Creating layer inception_4a/prelu_3x3_reduce
I1105 17:25:16.877724 24483 net.cpp:106] Creating Layer inception_4a/prelu_3x3_reduce
I1105 17:25:16.877729 24483 net.cpp:454] inception_4a/prelu_3x3_reduce <- inception_4a/3x3_reduce
I1105 17:25:16.877737 24483 net.cpp:397] inception_4a/prelu_3x3_reduce -> inception_4a/3x3_reduce (in-place)
I1105 17:25:16.877841 24483 net.cpp:150] Setting up inception_4a/prelu_3x3_reduce
I1105 17:25:16.877852 24483 net.cpp:157] Top shape: 32 96 14 14 (602112)
I1105 17:25:16.877867 24483 net.cpp:165] Memory required for data: 1153647104
I1105 17:25:16.877873 24483 layer_factory.hpp:76] Creating layer inception_4a/3x3
I1105 17:25:16.877882 24483 net.cpp:106] Creating Layer inception_4a/3x3
I1105 17:25:16.877887 24483 net.cpp:454] inception_4a/3x3 <- inception_4a/3x3_reduce
I1105 17:25:16.877895 24483 net.cpp:411] inception_4a/3x3 -> inception_4a/3x3
I1105 17:25:16.880177 24483 cudnn_conv_layer.cpp:194] Reallocating workspace storage: 10080
I1105 17:25:16.880203 24483 net.cpp:150] Setting up inception_4a/3x3
I1105 17:25:16.880213 24483 net.cpp:157] Top shape: 32 208 14 14 (1304576)
I1105 17:25:16.880216 24483 net.cpp:165] Memory required for data: 1158865408
I1105 17:25:16.880224 24483 layer_factory.hpp:76] Creating layer inception_4a/prelu_3x3
I1105 17:25:16.880233 24483 net.cpp:106] Creating Layer inception_4a/prelu_3x3
I1105 17:25:16.880240 24483 net.cpp:454] inception_4a/prelu_3x3 <- inception_4a/3x3
I1105 17:25:16.880255 24483 net.cpp:397] inception_4a/prelu_3x3 -> inception_4a/3x3 (in-place)
I1105 17:25:16.880363 24483 net.cpp:150] Setting up inception_4a/prelu_3x3
I1105 17:25:16.880373 24483 net.cpp:157] Top shape: 32 208 14 14 (1304576)
I1105 17:25:16.880378 24483 net.cpp:165] Memory required for data: 1164083712
I1105 17:25:16.880383 24483 layer_factory.hpp:76] Creating layer inception_4a/5x5_reduce
I1105 17:25:16.880393 24483 net.cpp:106] Creating Layer inception_4a/5x5_reduce
I1105 17:25:16.880400 24483 net.cpp:454] inception_4a/5x5_reduce <- pool3/3x3_s2_pool3/3x3_s2_0_split_2
I1105 17:25:16.880415 24483 net.cpp:411] inception_4a/5x5_reduce -> inception_4a/5x5_reduce
I1105 17:25:16.881448 24483 cudnn_conv_layer.cpp:194] Reallocating workspace storage: 10080
I1105 17:25:16.881472 24483 net.cpp:150] Setting up inception_4a/5x5_reduce
I1105 17:25:16.881480 24483 net.cpp:157] Top shape: 32 16 14 14 (100352)
I1105 17:25:16.881484 24483 net.cpp:165] Memory required for data: 1164485120
I1105 17:25:16.881491 24483 layer_factory.hpp:76] Creating layer inception_4a/prelu_5x5_reduce
I1105 17:25:16.881500 24483 net.cpp:106] Creating Layer inception_4a/prelu_5x5_reduce
I1105 17:25:16.881506 24483 net.cpp:454] inception_4a/prelu_5x5_reduce <- inception_4a/5x5_reduce
I1105 17:25:16.881515 24483 net.cpp:397] inception_4a/prelu_5x5_reduce -> inception_4a/5x5_reduce (in-place)
I1105 17:25:16.881595 24483 net.cpp:150] Setting up inception_4a/prelu_5x5_reduce
I1105 17:25:16.881604 24483 net.cpp:157] Top shape: 32 16 14 14 (100352)
I1105 17:25:16.881608 24483 net.cpp:165] Memory required for data: 1164886528
I1105 17:25:16.881614 24483 layer_factory.hpp:76] Creating layer inception_4a/5x5
I1105 17:25:16.881623 24483 net.cpp:106] Creating Layer inception_4a/5x5
I1105 17:25:16.881628 24483 net.cpp:454] inception_4a/5x5 <- inception_4a/5x5_reduce
I1105 17:25:16.881634 24483 net.cpp:411] inception_4a/5x5 -> inception_4a/5x5
I1105 17:25:16.882748 24483 cudnn_conv_layer.cpp:194] Reallocating workspace storage: 13080
I1105 17:25:16.882771 24483 net.cpp:150] Setting up inception_4a/5x5
I1105 17:25:16.882777 24483 net.cpp:157] Top shape: 32 48 14 14 (301056)
I1105 17:25:16.882793 24483 net.cpp:165] Memory required for data: 1166090752
I1105 17:25:16.882802 24483 layer_factory.hpp:76] Creating layer inception_4a/prelu_5x5
I1105 17:25:16.882810 24483 net.cpp:106] Creating Layer inception_4a/prelu_5x5
I1105 17:25:16.882815 24483 net.cpp:454] inception_4a/prelu_5x5 <- inception_4a/5x5
I1105 17:25:16.882823 24483 net.cpp:397] inception_4a/prelu_5x5 -> inception_4a/5x5 (in-place)
I1105 17:25:16.882910 24483 net.cpp:150] Setting up inception_4a/prelu_5x5
I1105 17:25:16.882920 24483 net.cpp:157] Top shape: 32 48 14 14 (301056)
I1105 17:25:16.882923 24483 net.cpp:165] Memory required for data: 1167294976
I1105 17:25:16.882930 24483 layer_factory.hpp:76] Creating layer inception_4a/pool
I1105 17:25:16.882939 24483 net.cpp:106] Creating Layer inception_4a/pool
I1105 17:25:16.882944 24483 net.cpp:454] inception_4a/pool <- pool3/3x3_s2_pool3/3x3_s2_0_split_3
I1105 17:25:16.882951 24483 net.cpp:411] inception_4a/pool -> inception_4a/pool
I1105 17:25:16.883323 24483 net.cpp:150] Setting up inception_4a/pool
I1105 17:25:16.883334 24483 net.cpp:157] Top shape: 32 480 14 14 (3010560)
I1105 17:25:16.883338 24483 net.cpp:165] Memory required for data: 1179337216
I1105 17:25:16.883343 24483 layer_factory.hpp:76] Creating layer inception_4a/pool_proj
I1105 17:25:16.883354 24483 net.cpp:106] Creating Layer inception_4a/pool_proj
I1105 17:25:16.883359 24483 net.cpp:454] inception_4a/pool_proj <- inception_4a/pool
I1105 17:25:16.883374 24483 net.cpp:411] inception_4a/pool_proj -> inception_4a/pool_proj
I1105 17:25:16.884356 24483 cudnn_conv_layer.cpp:194] Reallocating workspace storage: 10080
I1105 17:25:16.884393 24483 net.cpp:150] Setting up inception_4a/pool_proj
I1105 17:25:16.884402 24483 net.cpp:157] Top shape: 32 64 14 14 (401408)
I1105 17:25:16.884407 24483 net.cpp:165] Memory required for data: 1180942848
I1105 17:25:16.884414 24483 layer_factory.hpp:76] Creating layer inception_4a/prelu_pool_proj
I1105 17:25:16.884431 24483 net.cpp:106] Creating Layer inception_4a/prelu_pool_proj
I1105 17:25:16.884445 24483 net.cpp:454] inception_4a/prelu_pool_proj <- inception_4a/pool_proj
I1105 17:25:16.884452 24483 net.cpp:397] inception_4a/prelu_pool_proj -> inception_4a/pool_proj (in-place)
I1105 17:25:16.884557 24483 net.cpp:150] Setting up inception_4a/prelu_pool_proj
I1105 17:25:16.884567 24483 net.cpp:157] Top shape: 32 64 14 14 (401408)
I1105 17:25:16.884570 24483 net.cpp:165] Memory required for data: 1182548480
I1105 17:25:16.884584 24483 layer_factory.hpp:76] Creating layer inception_4a/output
I1105 17:25:16.884594 24483 net.cpp:106] Creating Layer inception_4a/output
I1105 17:25:16.884600 24483 net.cpp:454] inception_4a/output <- inception_4a/1x1
I1105 17:25:16.884605 24483 net.cpp:454] inception_4a/output <- inception_4a/3x3
I1105 17:25:16.884610 24483 net.cpp:454] inception_4a/output <- inception_4a/5x5
I1105 17:25:16.884615 24483 net.cpp:454] inception_4a/output <- inception_4a/pool_proj
I1105 17:25:16.884621 24483 net.cpp:411] inception_4a/output -> inception_4a/output
I1105 17:25:16.884663 24483 net.cpp:150] Setting up inception_4a/output
I1105 17:25:16.884671 24483 net.cpp:157] Top shape: 32 512 14 14 (3211264)
I1105 17:25:16.884675 24483 net.cpp:165] Memory required for data: 1195393536
I1105 17:25:16.884680 24483 layer_factory.hpp:76] Creating layer inception_4a/output_inception_4a/output_0_split
I1105 17:25:16.884687 24483 net.cpp:106] Creating Layer inception_4a/output_inception_4a/output_0_split
I1105 17:25:16.884707 24483 net.cpp:454] inception_4a/output_inception_4a/output_0_split <- inception_4a/output
I1105 17:25:16.884716 24483 net.cpp:411] inception_4a/output_inception_4a/output_0_split -> inception_4a/output_inception_4a/output_0_split_0
I1105 17:25:16.884724 24483 net.cpp:411] inception_4a/output_inception_4a/output_0_split -> inception_4a/output_inception_4a/output_0_split_1
I1105 17:25:16.884732 24483 net.cpp:411] inception_4a/output_inception_4a/output_0_split -> inception_4a/output_inception_4a/output_0_split_2
I1105 17:25:16.884740 24483 net.cpp:411] inception_4a/output_inception_4a/output_0_split -> inception_4a/output_inception_4a/output_0_split_3
I1105 17:25:16.884757 24483 net.cpp:411] inception_4a/output_inception_4a/output_0_split -> inception_4a/output_inception_4a/output_0_split_4
I1105 17:25:16.884840 24483 net.cpp:150] Setting up inception_4a/output_inception_4a/output_0_split
I1105 17:25:16.884850 24483 net.cpp:157] Top shape: 32 512 14 14 (3211264)
I1105 17:25:16.884855 24483 net.cpp:157] Top shape: 32 512 14 14 (3211264)
I1105 17:25:16.884860 24483 net.cpp:157] Top shape: 32 512 14 14 (3211264)
I1105 17:25:16.884865 24483 net.cpp:157] Top shape: 32 512 14 14 (3211264)
I1105 17:25:16.884870 24483 net.cpp:157] Top shape: 32 512 14 14 (3211264)
I1105 17:25:16.884873 24483 net.cpp:165] Memory required for data: 1259618816
I1105 17:25:16.884877 24483 layer_factory.hpp:76] Creating layer loss1/ave_pool
I1105 17:25:16.884886 24483 net.cpp:106] Creating Layer loss1/ave_pool
I1105 17:25:16.884891 24483 net.cpp:454] loss1/ave_pool <- inception_4a/output_inception_4a/output_0_split_0
I1105 17:25:16.884896 24483 net.cpp:411] loss1/ave_pool -> loss1/ave_pool
I1105 17:25:16.885251 24483 net.cpp:150] Setting up loss1/ave_pool
I1105 17:25:16.885262 24483 net.cpp:157] Top shape: 32 512 4 4 (262144)
I1105 17:25:16.885267 24483 net.cpp:165] Memory required for data: 1260667392
I1105 17:25:16.885272 24483 layer_factory.hpp:76] Creating layer loss1/conv
I1105 17:25:16.885280 24483 net.cpp:106] Creating Layer loss1/conv
I1105 17:25:16.885288 24483 net.cpp:454] loss1/conv <- loss1/ave_pool
I1105 17:25:16.885295 24483 net.cpp:411] loss1/conv -> loss1/conv
I1105 17:25:16.886668 24483 cudnn_conv_layer.cpp:194] Reallocating workspace storage: 6840
I1105 17:25:16.886692 24483 net.cpp:150] Setting up loss1/conv
I1105 17:25:16.886699 24483 net.cpp:157] Top shape: 32 128 4 4 (65536)
I1105 17:25:16.886704 24483 net.cpp:165] Memory required for data: 1260929536
I1105 17:25:16.886723 24483 layer_factory.hpp:76] Creating layer loss1/prelu_conv
I1105 17:25:16.886734 24483 net.cpp:106] Creating Layer loss1/prelu_conv
I1105 17:25:16.886741 24483 net.cpp:454] loss1/prelu_conv <- loss1/conv
I1105 17:25:16.886747 24483 net.cpp:397] loss1/prelu_conv -> loss1/conv (in-place)
I1105 17:25:16.886833 24483 net.cpp:150] Setting up loss1/prelu_conv
I1105 17:25:16.886843 24483 net.cpp:157] Top shape: 32 128 4 4 (65536)
I1105 17:25:16.886847 24483 net.cpp:165] Memory required for data: 1261191680
I1105 17:25:16.886853 24483 layer_factory.hpp:76] Creating layer loss1/fc
I1105 17:25:16.886864 24483 net.cpp:106] Creating Layer loss1/fc
I1105 17:25:16.886870 24483 net.cpp:454] loss1/fc <- loss1/conv
I1105 17:25:16.886878 24483 net.cpp:411] loss1/fc -> loss1/fc
I1105 17:25:16.901908 24483 net.cpp:150] Setting up loss1/fc
I1105 17:25:16.901957 24483 net.cpp:157] Top shape: 32 1024 (32768)
I1105 17:25:16.901968 24483 net.cpp:165] Memory required for data: 1261322752
I1105 17:25:16.901986 24483 layer_factory.hpp:76] Creating layer loss1/prelu_fc
I1105 17:25:16.902004 24483 net.cpp:106] Creating Layer loss1/prelu_fc
I1105 17:25:16.902014 24483 net.cpp:454] loss1/prelu_fc <- loss1/fc
I1105 17:25:16.902025 24483 net.cpp:397] loss1/prelu_fc -> loss1/fc (in-place)
I1105 17:25:16.902113 24483 net.cpp:150] Setting up loss1/prelu_fc
I1105 17:25:16.902122 24483 net.cpp:157] Top shape: 32 1024 (32768)
I1105 17:25:16.902127 24483 net.cpp:165] Memory required for data: 1261453824
I1105 17:25:16.902133 24483 layer_factory.hpp:76] Creating layer loss1/drop_fc
I1105 17:25:16.902168 24483 net.cpp:106] Creating Layer loss1/drop_fc
I1105 17:25:16.902175 24483 net.cpp:454] loss1/drop_fc <- loss1/fc
I1105 17:25:16.902184 24483 net.cpp:397] loss1/drop_fc -> loss1/fc (in-place)
I1105 17:25:16.902225 24483 net.cpp:150] Setting up loss1/drop_fc
I1105 17:25:16.902233 24483 net.cpp:157] Top shape: 32 1024 (32768)
I1105 17:25:16.902237 24483 net.cpp:165] Memory required for data: 1261584896
I1105 17:25:16.902251 24483 layer_factory.hpp:76] Creating layer loss1/classifier2
I1105 17:25:16.902259 24483 net.cpp:106] Creating Layer loss1/classifier2
I1105 17:25:16.902277 24483 net.cpp:454] loss1/classifier2 <- loss1/fc
I1105 17:25:16.902287 24483 net.cpp:411] loss1/classifier2 -> loss1/classifier
I1105 17:25:16.902407 24483 net.cpp:150] Setting up loss1/classifier2
I1105 17:25:16.902417 24483 net.cpp:157] Top shape: 32 2 (64)
I1105 17:25:16.902421 24483 net.cpp:165] Memory required for data: 1261585152
I1105 17:25:16.902428 24483 layer_factory.hpp:76] Creating layer loss1/loss
I1105 17:25:16.902444 24483 net.cpp:106] Creating Layer loss1/loss
I1105 17:25:16.902451 24483 net.cpp:454] loss1/loss <- loss1/classifier
I1105 17:25:16.902456 24483 net.cpp:454] loss1/loss <- label_data_1_split_0
I1105 17:25:16.902463 24483 net.cpp:411] loss1/loss -> loss1/loss1
I1105 17:25:16.902482 24483 layer_factory.hpp:76] Creating layer loss1/loss
I1105 17:25:16.902811 24483 net.cpp:150] Setting up loss1/loss
I1105 17:25:16.902823 24483 net.cpp:157] Top shape: (1)
I1105 17:25:16.902828 24483 net.cpp:160]     with loss weight 0.3
I1105 17:25:16.902851 24483 net.cpp:165] Memory required for data: 1261585156
I1105 17:25:16.902856 24483 layer_factory.hpp:76] Creating layer inception_4b/1x1
I1105 17:25:16.902868 24483 net.cpp:106] Creating Layer inception_4b/1x1
I1105 17:25:16.902874 24483 net.cpp:454] inception_4b/1x1 <- inception_4a/output_inception_4a/output_0_split_1
I1105 17:25:16.902884 24483 net.cpp:411] inception_4b/1x1 -> inception_4b/1x1
I1105 17:25:16.904548 24483 cudnn_conv_layer.cpp:194] Reallocating workspace storage: 10080
I1105 17:25:16.904585 24483 net.cpp:150] Setting up inception_4b/1x1
I1105 17:25:16.904595 24483 net.cpp:157] Top shape: 32 160 14 14 (1003520)
I1105 17:25:16.904603 24483 net.cpp:165] Memory required for data: 1265599236
I1105 17:25:16.904610 24483 layer_factory.hpp:76] Creating layer inception_4b/prelu_1x1
I1105 17:25:16.904621 24483 net.cpp:106] Creating Layer inception_4b/prelu_1x1
I1105 17:25:16.904628 24483 net.cpp:454] inception_4b/prelu_1x1 <- inception_4b/1x1
I1105 17:25:16.904635 24483 net.cpp:397] inception_4b/prelu_1x1 -> inception_4b/1x1 (in-place)
I1105 17:25:16.905303 24483 net.cpp:150] Setting up inception_4b/prelu_1x1
I1105 17:25:16.905324 24483 net.cpp:157] Top shape: 32 160 14 14 (1003520)
I1105 17:25:16.905329 24483 net.cpp:165] Memory required for data: 1269613316
I1105 17:25:16.905338 24483 layer_factory.hpp:76] Creating layer inception_4b/3x3_reduce
I1105 17:25:16.905350 24483 net.cpp:106] Creating Layer inception_4b/3x3_reduce
I1105 17:25:16.905355 24483 net.cpp:454] inception_4b/3x3_reduce <- inception_4a/output_inception_4a/output_0_split_2
I1105 17:25:16.905365 24483 net.cpp:411] inception_4b/3x3_reduce -> inception_4b/3x3_reduce
I1105 17:25:16.907028 24483 cudnn_conv_layer.cpp:194] Reallocating workspace storage: 10080
I1105 17:25:16.907062 24483 net.cpp:150] Setting up inception_4b/3x3_reduce
I1105 17:25:16.907073 24483 net.cpp:157] Top shape: 32 112 14 14 (702464)
I1105 17:25:16.907078 24483 net.cpp:165] Memory required for data: 1272423172
I1105 17:25:16.907085 24483 layer_factory.hpp:76] Creating layer inception_4b/prelu_3x3_reduce
I1105 17:25:16.907094 24483 net.cpp:106] Creating Layer inception_4b/prelu_3x3_reduce
I1105 17:25:16.907100 24483 net.cpp:454] inception_4b/prelu_3x3_reduce <- inception_4b/3x3_reduce
I1105 17:25:16.907109 24483 net.cpp:397] inception_4b/prelu_3x3_reduce -> inception_4b/3x3_reduce (in-place)
I1105 17:25:16.907210 24483 net.cpp:150] Setting up inception_4b/prelu_3x3_reduce
I1105 17:25:16.907222 24483 net.cpp:157] Top shape: 32 112 14 14 (702464)
I1105 17:25:16.907227 24483 net.cpp:165] Memory required for data: 1275233028
I1105 17:25:16.907232 24483 layer_factory.hpp:76] Creating layer inception_4b/3x3
I1105 17:25:16.907241 24483 net.cpp:106] Creating Layer inception_4b/3x3
I1105 17:25:16.907246 24483 net.cpp:454] inception_4b/3x3 <- inception_4b/3x3_reduce
I1105 17:25:16.907254 24483 net.cpp:411] inception_4b/3x3 -> inception_4b/3x3
I1105 17:25:16.910087 24483 cudnn_conv_layer.cpp:194] Reallocating workspace storage: 10080
I1105 17:25:16.910120 24483 net.cpp:150] Setting up inception_4b/3x3
I1105 17:25:16.910141 24483 net.cpp:157] Top shape: 32 224 14 14 (1404928)
I1105 17:25:16.910148 24483 net.cpp:165] Memory required for data: 1280852740
I1105 17:25:16.910156 24483 layer_factory.hpp:76] Creating layer inception_4b/prelu_3x3
I1105 17:25:16.910166 24483 net.cpp:106] Creating Layer inception_4b/prelu_3x3
I1105 17:25:16.910172 24483 net.cpp:454] inception_4b/prelu_3x3 <- inception_4b/3x3
I1105 17:25:16.910179 24483 net.cpp:397] inception_4b/prelu_3x3 -> inception_4b/3x3 (in-place)
I1105 17:25:16.910297 24483 net.cpp:150] Setting up inception_4b/prelu_3x3
I1105 17:25:16.910307 24483 net.cpp:157] Top shape: 32 224 14 14 (1404928)
I1105 17:25:16.910311 24483 net.cpp:165] Memory required for data: 1286472452
I1105 17:25:16.910317 24483 layer_factory.hpp:76] Creating layer inception_4b/5x5_reduce
I1105 17:25:16.910327 24483 net.cpp:106] Creating Layer inception_4b/5x5_reduce
I1105 17:25:16.910333 24483 net.cpp:454] inception_4b/5x5_reduce <- inception_4a/output_inception_4a/output_0_split_3
I1105 17:25:16.910341 24483 net.cpp:411] inception_4b/5x5_reduce -> inception_4b/5x5_reduce
I1105 17:25:16.911238 24483 cudnn_conv_layer.cpp:194] Reallocating workspace storage: 10080
I1105 17:25:16.911262 24483 net.cpp:150] Setting up inception_4b/5x5_reduce
I1105 17:25:16.911270 24483 net.cpp:157] Top shape: 32 24 14 14 (150528)
I1105 17:25:16.911275 24483 net.cpp:165] Memory required for data: 1287074564
I1105 17:25:16.911283 24483 layer_factory.hpp:76] Creating layer inception_4b/prelu_5x5_reduce
I1105 17:25:16.911289 24483 net.cpp:106] Creating Layer inception_4b/prelu_5x5_reduce
I1105 17:25:16.911295 24483 net.cpp:454] inception_4b/prelu_5x5_reduce <- inception_4b/5x5_reduce
I1105 17:25:16.911303 24483 net.cpp:397] inception_4b/prelu_5x5_reduce -> inception_4b/5x5_reduce (in-place)
I1105 17:25:16.911389 24483 net.cpp:150] Setting up inception_4b/prelu_5x5_reduce
I1105 17:25:16.911398 24483 net.cpp:157] Top shape: 32 24 14 14 (150528)
I1105 17:25:16.911402 24483 net.cpp:165] Memory required for data: 1287676676
I1105 17:25:16.911408 24483 layer_factory.hpp:76] Creating layer inception_4b/5x5
I1105 17:25:16.911415 24483 net.cpp:106] Creating Layer inception_4b/5x5
I1105 17:25:16.911420 24483 net.cpp:454] inception_4b/5x5 <- inception_4b/5x5_reduce
I1105 17:25:16.911427 24483 net.cpp:411] inception_4b/5x5 -> inception_4b/5x5
I1105 17:25:16.912665 24483 cudnn_conv_layer.cpp:194] Reallocating workspace storage: 13080
I1105 17:25:16.912696 24483 net.cpp:150] Setting up inception_4b/5x5
I1105 17:25:16.912703 24483 net.cpp:157] Top shape: 32 64 14 14 (401408)
I1105 17:25:16.912708 24483 net.cpp:165] Memory required for data: 1289282308
I1105 17:25:16.912714 24483 layer_factory.hpp:76] Creating layer inception_4b/prelu_5x5
I1105 17:25:16.912724 24483 net.cpp:106] Creating Layer inception_4b/prelu_5x5
I1105 17:25:16.912729 24483 net.cpp:454] inception_4b/prelu_5x5 <- inception_4b/5x5
I1105 17:25:16.912737 24483 net.cpp:397] inception_4b/prelu_5x5 -> inception_4b/5x5 (in-place)
I1105 17:25:16.912859 24483 net.cpp:150] Setting up inception_4b/prelu_5x5
I1105 17:25:16.912868 24483 net.cpp:157] Top shape: 32 64 14 14 (401408)
I1105 17:25:16.912873 24483 net.cpp:165] Memory required for data: 1290887940
I1105 17:25:16.912888 24483 layer_factory.hpp:76] Creating layer inception_4b/pool
I1105 17:25:16.912904 24483 net.cpp:106] Creating Layer inception_4b/pool
I1105 17:25:16.912909 24483 net.cpp:454] inception_4b/pool <- inception_4a/output_inception_4a/output_0_split_4
I1105 17:25:16.912916 24483 net.cpp:411] inception_4b/pool -> inception_4b/pool
I1105 17:25:16.913296 24483 net.cpp:150] Setting up inception_4b/pool
I1105 17:25:16.913310 24483 net.cpp:157] Top shape: 32 512 14 14 (3211264)
I1105 17:25:16.913313 24483 net.cpp:165] Memory required for data: 1303732996
I1105 17:25:16.913326 24483 layer_factory.hpp:76] Creating layer inception_4b/pool_proj
I1105 17:25:16.913338 24483 net.cpp:106] Creating Layer inception_4b/pool_proj
I1105 17:25:16.913346 24483 net.cpp:454] inception_4b/pool_proj <- inception_4b/pool
I1105 17:25:16.913373 24483 net.cpp:411] inception_4b/pool_proj -> inception_4b/pool_proj
I1105 17:25:16.914592 24483 cudnn_conv_layer.cpp:194] Reallocating workspace storage: 10080
I1105 17:25:16.914626 24483 net.cpp:150] Setting up inception_4b/pool_proj
I1105 17:25:16.914635 24483 net.cpp:157] Top shape: 32 64 14 14 (401408)
I1105 17:25:16.914640 24483 net.cpp:165] Memory required for data: 1305338628
I1105 17:25:16.914649 24483 layer_factory.hpp:76] Creating layer inception_4b/prelu_pool_proj
I1105 17:25:16.914657 24483 net.cpp:106] Creating Layer inception_4b/prelu_pool_proj
I1105 17:25:16.914664 24483 net.cpp:454] inception_4b/prelu_pool_proj <- inception_4b/pool_proj
I1105 17:25:16.914670 24483 net.cpp:397] inception_4b/prelu_pool_proj -> inception_4b/pool_proj (in-place)
I1105 17:25:16.914773 24483 net.cpp:150] Setting up inception_4b/prelu_pool_proj
I1105 17:25:16.914783 24483 net.cpp:157] Top shape: 32 64 14 14 (401408)
I1105 17:25:16.914788 24483 net.cpp:165] Memory required for data: 1306944260
I1105 17:25:16.914793 24483 layer_factory.hpp:76] Creating layer inception_4b/output
I1105 17:25:16.914801 24483 net.cpp:106] Creating Layer inception_4b/output
I1105 17:25:16.914808 24483 net.cpp:454] inception_4b/output <- inception_4b/1x1
I1105 17:25:16.914813 24483 net.cpp:454] inception_4b/output <- inception_4b/3x3
I1105 17:25:16.914818 24483 net.cpp:454] inception_4b/output <- inception_4b/5x5
I1105 17:25:16.914821 24483 net.cpp:454] inception_4b/output <- inception_4b/pool_proj
I1105 17:25:16.914827 24483 net.cpp:411] inception_4b/output -> inception_4b/output
I1105 17:25:16.914854 24483 net.cpp:150] Setting up inception_4b/output
I1105 17:25:16.914862 24483 net.cpp:157] Top shape: 32 512 14 14 (3211264)
I1105 17:25:16.914866 24483 net.cpp:165] Memory required for data: 1319789316
I1105 17:25:16.914870 24483 layer_factory.hpp:76] Creating layer inception_4b/output_inception_4b/output_0_split
I1105 17:25:16.914876 24483 net.cpp:106] Creating Layer inception_4b/output_inception_4b/output_0_split
I1105 17:25:16.914880 24483 net.cpp:454] inception_4b/output_inception_4b/output_0_split <- inception_4b/output
I1105 17:25:16.914887 24483 net.cpp:411] inception_4b/output_inception_4b/output_0_split -> inception_4b/output_inception_4b/output_0_split_0
I1105 17:25:16.914896 24483 net.cpp:411] inception_4b/output_inception_4b/output_0_split -> inception_4b/output_inception_4b/output_0_split_1
I1105 17:25:16.914902 24483 net.cpp:411] inception_4b/output_inception_4b/output_0_split -> inception_4b/output_inception_4b/output_0_split_2
I1105 17:25:16.914908 24483 net.cpp:411] inception_4b/output_inception_4b/output_0_split -> inception_4b/output_inception_4b/output_0_split_3
I1105 17:25:16.914965 24483 net.cpp:150] Setting up inception_4b/output_inception_4b/output_0_split
I1105 17:25:16.914974 24483 net.cpp:157] Top shape: 32 512 14 14 (3211264)
I1105 17:25:16.914981 24483 net.cpp:157] Top shape: 32 512 14 14 (3211264)
I1105 17:25:16.914986 24483 net.cpp:157] Top shape: 32 512 14 14 (3211264)
I1105 17:25:16.914991 24483 net.cpp:157] Top shape: 32 512 14 14 (3211264)
I1105 17:25:16.914995 24483 net.cpp:165] Memory required for data: 1371169540
I1105 17:25:16.914999 24483 layer_factory.hpp:76] Creating layer inception_4c/1x1
I1105 17:25:16.915007 24483 net.cpp:106] Creating Layer inception_4c/1x1
I1105 17:25:16.915012 24483 net.cpp:454] inception_4c/1x1 <- inception_4b/output_inception_4b/output_0_split_0
I1105 17:25:16.915019 24483 net.cpp:411] inception_4c/1x1 -> inception_4c/1x1
I1105 17:25:16.916662 24483 cudnn_conv_layer.cpp:194] Reallocating workspace storage: 10080
I1105 17:25:16.916688 24483 net.cpp:150] Setting up inception_4c/1x1
I1105 17:25:16.916697 24483 net.cpp:157] Top shape: 32 128 14 14 (802816)
I1105 17:25:16.916702 24483 net.cpp:165] Memory required for data: 1374380804
I1105 17:25:16.916708 24483 layer_factory.hpp:76] Creating layer inception_4c/prelu_1x1
I1105 17:25:16.916717 24483 net.cpp:106] Creating Layer inception_4c/prelu_1x1
I1105 17:25:16.916723 24483 net.cpp:454] inception_4c/prelu_1x1 <- inception_4c/1x1
I1105 17:25:16.916740 24483 net.cpp:397] inception_4c/prelu_1x1 -> inception_4c/1x1 (in-place)
I1105 17:25:16.916833 24483 net.cpp:150] Setting up inception_4c/prelu_1x1
I1105 17:25:16.916844 24483 net.cpp:157] Top shape: 32 128 14 14 (802816)
I1105 17:25:16.916849 24483 net.cpp:165] Memory required for data: 1377592068
I1105 17:25:16.916856 24483 layer_factory.hpp:76] Creating layer inception_4c/3x3_reduce
I1105 17:25:16.916863 24483 net.cpp:106] Creating Layer inception_4c/3x3_reduce
I1105 17:25:16.916867 24483 net.cpp:454] inception_4c/3x3_reduce <- inception_4b/output_inception_4b/output_0_split_1
I1105 17:25:16.916875 24483 net.cpp:411] inception_4c/3x3_reduce -> inception_4c/3x3_reduce
I1105 17:25:16.918273 24483 cudnn_conv_layer.cpp:194] Reallocating workspace storage: 10080
I1105 17:25:16.918299 24483 net.cpp:150] Setting up inception_4c/3x3_reduce
I1105 17:25:16.918308 24483 net.cpp:157] Top shape: 32 128 14 14 (802816)
I1105 17:25:16.918313 24483 net.cpp:165] Memory required for data: 1380803332
I1105 17:25:16.918319 24483 layer_factory.hpp:76] Creating layer inception_4c/prelu_3x3_reduce
I1105 17:25:16.918326 24483 net.cpp:106] Creating Layer inception_4c/prelu_3x3_reduce
I1105 17:25:16.918333 24483 net.cpp:454] inception_4c/prelu_3x3_reduce <- inception_4c/3x3_reduce
I1105 17:25:16.918340 24483 net.cpp:397] inception_4c/prelu_3x3_reduce -> inception_4c/3x3_reduce (in-place)
I1105 17:25:16.918433 24483 net.cpp:150] Setting up inception_4c/prelu_3x3_reduce
I1105 17:25:16.918444 24483 net.cpp:157] Top shape: 32 128 14 14 (802816)
I1105 17:25:16.918449 24483 net.cpp:165] Memory required for data: 1384014596
I1105 17:25:16.918455 24483 layer_factory.hpp:76] Creating layer inception_4c/3x3
I1105 17:25:16.918463 24483 net.cpp:106] Creating Layer inception_4c/3x3
I1105 17:25:16.918467 24483 net.cpp:454] inception_4c/3x3 <- inception_4c/3x3_reduce
I1105 17:25:16.918475 24483 net.cpp:411] inception_4c/3x3 -> inception_4c/3x3
I1105 17:25:16.921614 24483 cudnn_conv_layer.cpp:194] Reallocating workspace storage: 10080
I1105 17:25:16.921641 24483 net.cpp:150] Setting up inception_4c/3x3
I1105 17:25:16.921650 24483 net.cpp:157] Top shape: 32 256 14 14 (1605632)
I1105 17:25:16.921655 24483 net.cpp:165] Memory required for data: 1390437124
I1105 17:25:16.921663 24483 layer_factory.hpp:76] Creating layer inception_4c/prelu_3x3
I1105 17:25:16.921674 24483 net.cpp:106] Creating Layer inception_4c/prelu_3x3
I1105 17:25:16.921679 24483 net.cpp:454] inception_4c/prelu_3x3 <- inception_4c/3x3
I1105 17:25:16.921686 24483 net.cpp:397] inception_4c/prelu_3x3 -> inception_4c/3x3 (in-place)
I1105 17:25:16.921795 24483 net.cpp:150] Setting up inception_4c/prelu_3x3
I1105 17:25:16.921804 24483 net.cpp:157] Top shape: 32 256 14 14 (1605632)
I1105 17:25:16.921808 24483 net.cpp:165] Memory required for data: 1396859652
I1105 17:25:16.921814 24483 layer_factory.hpp:76] Creating layer inception_4c/5x5_reduce
I1105 17:25:16.921823 24483 net.cpp:106] Creating Layer inception_4c/5x5_reduce
I1105 17:25:16.921829 24483 net.cpp:454] inception_4c/5x5_reduce <- inception_4b/output_inception_4b/output_0_split_2
I1105 17:25:16.921836 24483 net.cpp:411] inception_4c/5x5_reduce -> inception_4c/5x5_reduce
I1105 17:25:16.922940 24483 cudnn_conv_layer.cpp:194] Reallocating workspace storage: 10080
I1105 17:25:16.922963 24483 net.cpp:150] Setting up inception_4c/5x5_reduce
I1105 17:25:16.922972 24483 net.cpp:157] Top shape: 32 24 14 14 (150528)
I1105 17:25:16.922976 24483 net.cpp:165] Memory required for data: 1397461764
I1105 17:25:16.922983 24483 layer_factory.hpp:76] Creating layer inception_4c/prelu_5x5_reduce
I1105 17:25:16.922991 24483 net.cpp:106] Creating Layer inception_4c/prelu_5x5_reduce
I1105 17:25:16.922996 24483 net.cpp:454] inception_4c/prelu_5x5_reduce <- inception_4c/5x5_reduce
I1105 17:25:16.923004 24483 net.cpp:397] inception_4c/prelu_5x5_reduce -> inception_4c/5x5_reduce (in-place)
I1105 17:25:16.923096 24483 net.cpp:150] Setting up inception_4c/prelu_5x5_reduce
I1105 17:25:16.923105 24483 net.cpp:157] Top shape: 32 24 14 14 (150528)
I1105 17:25:16.923120 24483 net.cpp:165] Memory required for data: 1398063876
I1105 17:25:16.923126 24483 layer_factory.hpp:76] Creating layer inception_4c/5x5
I1105 17:25:16.923136 24483 net.cpp:106] Creating Layer inception_4c/5x5
I1105 17:25:16.923142 24483 net.cpp:454] inception_4c/5x5 <- inception_4c/5x5_reduce
I1105 17:25:16.923151 24483 net.cpp:411] inception_4c/5x5 -> inception_4c/5x5
I1105 17:25:16.924836 24483 cudnn_conv_layer.cpp:194] Reallocating workspace storage: 13080
I1105 17:25:16.924865 24483 net.cpp:150] Setting up inception_4c/5x5
I1105 17:25:16.924875 24483 net.cpp:157] Top shape: 32 64 14 14 (401408)
I1105 17:25:16.924878 24483 net.cpp:165] Memory required for data: 1399669508
I1105 17:25:16.924886 24483 layer_factory.hpp:76] Creating layer inception_4c/prelu_5x5
I1105 17:25:16.924897 24483 net.cpp:106] Creating Layer inception_4c/prelu_5x5
I1105 17:25:16.924903 24483 net.cpp:454] inception_4c/prelu_5x5 <- inception_4c/5x5
I1105 17:25:16.924911 24483 net.cpp:397] inception_4c/prelu_5x5 -> inception_4c/5x5 (in-place)
I1105 17:25:16.925017 24483 net.cpp:150] Setting up inception_4c/prelu_5x5
I1105 17:25:16.925026 24483 net.cpp:157] Top shape: 32 64 14 14 (401408)
I1105 17:25:16.925031 24483 net.cpp:165] Memory required for data: 1401275140
I1105 17:25:16.925036 24483 layer_factory.hpp:76] Creating layer inception_4c/pool
I1105 17:25:16.925045 24483 net.cpp:106] Creating Layer inception_4c/pool
I1105 17:25:16.925051 24483 net.cpp:454] inception_4c/pool <- inception_4b/output_inception_4b/output_0_split_3
I1105 17:25:16.925057 24483 net.cpp:411] inception_4c/pool -> inception_4c/pool
I1105 17:25:16.925246 24483 net.cpp:150] Setting up inception_4c/pool
I1105 17:25:16.925256 24483 net.cpp:157] Top shape: 32 512 14 14 (3211264)
I1105 17:25:16.925261 24483 net.cpp:165] Memory required for data: 1414120196
I1105 17:25:16.925266 24483 layer_factory.hpp:76] Creating layer inception_4c/pool_proj
I1105 17:25:16.925276 24483 net.cpp:106] Creating Layer inception_4c/pool_proj
I1105 17:25:16.925281 24483 net.cpp:454] inception_4c/pool_proj <- inception_4c/pool
I1105 17:25:16.925287 24483 net.cpp:411] inception_4c/pool_proj -> inception_4c/pool_proj
I1105 17:25:16.926672 24483 cudnn_conv_layer.cpp:194] Reallocating workspace storage: 10080
I1105 17:25:16.926700 24483 net.cpp:150] Setting up inception_4c/pool_proj
I1105 17:25:16.926708 24483 net.cpp:157] Top shape: 32 64 14 14 (401408)
I1105 17:25:16.926713 24483 net.cpp:165] Memory required for data: 1415725828
I1105 17:25:16.926719 24483 layer_factory.hpp:76] Creating layer inception_4c/prelu_pool_proj
I1105 17:25:16.926729 24483 net.cpp:106] Creating Layer inception_4c/prelu_pool_proj
I1105 17:25:16.926735 24483 net.cpp:454] inception_4c/prelu_pool_proj <- inception_4c/pool_proj
I1105 17:25:16.926743 24483 net.cpp:397] inception_4c/prelu_pool_proj -> inception_4c/pool_proj (in-place)
I1105 17:25:16.926846 24483 net.cpp:150] Setting up inception_4c/prelu_pool_proj
I1105 17:25:16.926854 24483 net.cpp:157] Top shape: 32 64 14 14 (401408)
I1105 17:25:16.926858 24483 net.cpp:165] Memory required for data: 1417331460
I1105 17:25:16.926864 24483 layer_factory.hpp:76] Creating layer inception_4c/output
I1105 17:25:16.926872 24483 net.cpp:106] Creating Layer inception_4c/output
I1105 17:25:16.926878 24483 net.cpp:454] inception_4c/output <- inception_4c/1x1
I1105 17:25:16.926884 24483 net.cpp:454] inception_4c/output <- inception_4c/3x3
I1105 17:25:16.926888 24483 net.cpp:454] inception_4c/output <- inception_4c/5x5
I1105 17:25:16.926893 24483 net.cpp:454] inception_4c/output <- inception_4c/pool_proj
I1105 17:25:16.926899 24483 net.cpp:411] inception_4c/output -> inception_4c/output
I1105 17:25:16.926926 24483 net.cpp:150] Setting up inception_4c/output
I1105 17:25:16.926934 24483 net.cpp:157] Top shape: 32 512 14 14 (3211264)
I1105 17:25:16.926939 24483 net.cpp:165] Memory required for data: 1430176516
I1105 17:25:16.926944 24483 layer_factory.hpp:76] Creating layer inception_4c/output_inception_4c/output_0_split
I1105 17:25:16.926949 24483 net.cpp:106] Creating Layer inception_4c/output_inception_4c/output_0_split
I1105 17:25:16.926964 24483 net.cpp:454] inception_4c/output_inception_4c/output_0_split <- inception_4c/output
I1105 17:25:16.926972 24483 net.cpp:411] inception_4c/output_inception_4c/output_0_split -> inception_4c/output_inception_4c/output_0_split_0
I1105 17:25:16.926980 24483 net.cpp:411] inception_4c/output_inception_4c/output_0_split -> inception_4c/output_inception_4c/output_0_split_1
I1105 17:25:16.926988 24483 net.cpp:411] inception_4c/output_inception_4c/output_0_split -> inception_4c/output_inception_4c/output_0_split_2
I1105 17:25:16.926995 24483 net.cpp:411] inception_4c/output_inception_4c/output_0_split -> inception_4c/output_inception_4c/output_0_split_3
I1105 17:25:16.927058 24483 net.cpp:150] Setting up inception_4c/output_inception_4c/output_0_split
I1105 17:25:16.927067 24483 net.cpp:157] Top shape: 32 512 14 14 (3211264)
I1105 17:25:16.927073 24483 net.cpp:157] Top shape: 32 512 14 14 (3211264)
I1105 17:25:16.927076 24483 net.cpp:157] Top shape: 32 512 14 14 (3211264)
I1105 17:25:16.927081 24483 net.cpp:157] Top shape: 32 512 14 14 (3211264)
I1105 17:25:16.927085 24483 net.cpp:165] Memory required for data: 1481556740
I1105 17:25:16.927089 24483 layer_factory.hpp:76] Creating layer inception_4d/1x1
I1105 17:25:16.927098 24483 net.cpp:106] Creating Layer inception_4d/1x1
I1105 17:25:16.927104 24483 net.cpp:454] inception_4d/1x1 <- inception_4c/output_inception_4c/output_0_split_0
I1105 17:25:16.927111 24483 net.cpp:411] inception_4d/1x1 -> inception_4d/1x1
I1105 17:25:16.928459 24483 cudnn_conv_layer.cpp:194] Reallocating workspace storage: 10080
I1105 17:25:16.928493 24483 net.cpp:150] Setting up inception_4d/1x1
I1105 17:25:16.928501 24483 net.cpp:157] Top shape: 32 112 14 14 (702464)
I1105 17:25:16.928506 24483 net.cpp:165] Memory required for data: 1484366596
I1105 17:25:16.928514 24483 layer_factory.hpp:76] Creating layer inception_4d/prelu_1x1
I1105 17:25:16.928524 24483 net.cpp:106] Creating Layer inception_4d/prelu_1x1
I1105 17:25:16.928529 24483 net.cpp:454] inception_4d/prelu_1x1 <- inception_4d/1x1
I1105 17:25:16.928544 24483 net.cpp:397] inception_4d/prelu_1x1 -> inception_4d/1x1 (in-place)
I1105 17:25:16.928644 24483 net.cpp:150] Setting up inception_4d/prelu_1x1
I1105 17:25:16.928653 24483 net.cpp:157] Top shape: 32 112 14 14 (702464)
I1105 17:25:16.928658 24483 net.cpp:165] Memory required for data: 1487176452
I1105 17:25:16.928663 24483 layer_factory.hpp:76] Creating layer inception_4d/3x3_reduce
I1105 17:25:16.928673 24483 net.cpp:106] Creating Layer inception_4d/3x3_reduce
I1105 17:25:16.928678 24483 net.cpp:454] inception_4d/3x3_reduce <- inception_4c/output_inception_4c/output_0_split_1
I1105 17:25:16.928684 24483 net.cpp:411] inception_4d/3x3_reduce -> inception_4d/3x3_reduce
I1105 17:25:16.929983 24483 cudnn_conv_layer.cpp:194] Reallocating workspace storage: 10080
I1105 17:25:16.930008 24483 net.cpp:150] Setting up inception_4d/3x3_reduce
I1105 17:25:16.930017 24483 net.cpp:157] Top shape: 32 144 14 14 (903168)
I1105 17:25:16.930022 24483 net.cpp:165] Memory required for data: 1490789124
I1105 17:25:16.930028 24483 layer_factory.hpp:76] Creating layer inception_4d/prelu_3x3_reduce
I1105 17:25:16.930037 24483 net.cpp:106] Creating Layer inception_4d/prelu_3x3_reduce
I1105 17:25:16.930042 24483 net.cpp:454] inception_4d/prelu_3x3_reduce <- inception_4d/3x3_reduce
I1105 17:25:16.930050 24483 net.cpp:397] inception_4d/prelu_3x3_reduce -> inception_4d/3x3_reduce (in-place)
I1105 17:25:16.930155 24483 net.cpp:150] Setting up inception_4d/prelu_3x3_reduce
I1105 17:25:16.930166 24483 net.cpp:157] Top shape: 32 144 14 14 (903168)
I1105 17:25:16.930169 24483 net.cpp:165] Memory required for data: 1494401796
I1105 17:25:16.930176 24483 layer_factory.hpp:76] Creating layer inception_4d/3x3
I1105 17:25:16.930186 24483 net.cpp:106] Creating Layer inception_4d/3x3
I1105 17:25:16.930191 24483 net.cpp:454] inception_4d/3x3 <- inception_4d/3x3_reduce
I1105 17:25:16.930199 24483 net.cpp:411] inception_4d/3x3 -> inception_4d/3x3
I1105 17:25:16.934186 24483 cudnn_conv_layer.cpp:194] Reallocating workspace storage: 10080
I1105 17:25:16.934243 24483 net.cpp:150] Setting up inception_4d/3x3
I1105 17:25:16.934254 24483 net.cpp:157] Top shape: 32 288 14 14 (1806336)
I1105 17:25:16.934259 24483 net.cpp:165] Memory required for data: 1501627140
I1105 17:25:16.934269 24483 layer_factory.hpp:76] Creating layer inception_4d/prelu_3x3
I1105 17:25:16.934281 24483 net.cpp:106] Creating Layer inception_4d/prelu_3x3
I1105 17:25:16.934288 24483 net.cpp:454] inception_4d/prelu_3x3 <- inception_4d/3x3
I1105 17:25:16.934298 24483 net.cpp:397] inception_4d/prelu_3x3 -> inception_4d/3x3 (in-place)
I1105 17:25:16.934459 24483 net.cpp:150] Setting up inception_4d/prelu_3x3
I1105 17:25:16.934469 24483 net.cpp:157] Top shape: 32 288 14 14 (1806336)
I1105 17:25:16.934474 24483 net.cpp:165] Memory required for data: 1508852484
I1105 17:25:16.934480 24483 layer_factory.hpp:76] Creating layer inception_4d/5x5_reduce
I1105 17:25:16.934491 24483 net.cpp:106] Creating Layer inception_4d/5x5_reduce
I1105 17:25:16.934497 24483 net.cpp:454] inception_4d/5x5_reduce <- inception_4c/output_inception_4c/output_0_split_2
I1105 17:25:16.934505 24483 net.cpp:411] inception_4d/5x5_reduce -> inception_4d/5x5_reduce
I1105 17:25:16.935719 24483 cudnn_conv_layer.cpp:194] Reallocating workspace storage: 10080
I1105 17:25:16.935751 24483 net.cpp:150] Setting up inception_4d/5x5_reduce
I1105 17:25:16.935760 24483 net.cpp:157] Top shape: 32 32 14 14 (200704)
I1105 17:25:16.935765 24483 net.cpp:165] Memory required for data: 1509655300
I1105 17:25:16.935772 24483 layer_factory.hpp:76] Creating layer inception_4d/prelu_5x5_reduce
I1105 17:25:16.935784 24483 net.cpp:106] Creating Layer inception_4d/prelu_5x5_reduce
I1105 17:25:16.935791 24483 net.cpp:454] inception_4d/prelu_5x5_reduce <- inception_4d/5x5_reduce
I1105 17:25:16.935799 24483 net.cpp:397] inception_4d/prelu_5x5_reduce -> inception_4d/5x5_reduce (in-place)
I1105 17:25:16.935917 24483 net.cpp:150] Setting up inception_4d/prelu_5x5_reduce
I1105 17:25:16.935927 24483 net.cpp:157] Top shape: 32 32 14 14 (200704)
I1105 17:25:16.935931 24483 net.cpp:165] Memory required for data: 1510458116
I1105 17:25:16.935938 24483 layer_factory.hpp:76] Creating layer inception_4d/5x5
I1105 17:25:16.935948 24483 net.cpp:106] Creating Layer inception_4d/5x5
I1105 17:25:16.935953 24483 net.cpp:454] inception_4d/5x5 <- inception_4d/5x5_reduce
I1105 17:25:16.935961 24483 net.cpp:411] inception_4d/5x5 -> inception_4d/5x5
I1105 17:25:16.937850 24483 cudnn_conv_layer.cpp:194] Reallocating workspace storage: 13080
I1105 17:25:16.937880 24483 net.cpp:150] Setting up inception_4d/5x5
I1105 17:25:16.937888 24483 net.cpp:157] Top shape: 32 64 14 14 (401408)
I1105 17:25:16.937903 24483 net.cpp:165] Memory required for data: 1512063748
I1105 17:25:16.937912 24483 layer_factory.hpp:76] Creating layer inception_4d/prelu_5x5
I1105 17:25:16.937922 24483 net.cpp:106] Creating Layer inception_4d/prelu_5x5
I1105 17:25:16.937928 24483 net.cpp:454] inception_4d/prelu_5x5 <- inception_4d/5x5
I1105 17:25:16.937937 24483 net.cpp:397] inception_4d/prelu_5x5 -> inception_4d/5x5 (in-place)
I1105 17:25:16.938057 24483 net.cpp:150] Setting up inception_4d/prelu_5x5
I1105 17:25:16.938067 24483 net.cpp:157] Top shape: 32 64 14 14 (401408)
I1105 17:25:16.938071 24483 net.cpp:165] Memory required for data: 1513669380
I1105 17:25:16.938077 24483 layer_factory.hpp:76] Creating layer inception_4d/pool
I1105 17:25:16.938086 24483 net.cpp:106] Creating Layer inception_4d/pool
I1105 17:25:16.938092 24483 net.cpp:454] inception_4d/pool <- inception_4c/output_inception_4c/output_0_split_3
I1105 17:25:16.938098 24483 net.cpp:411] inception_4d/pool -> inception_4d/pool
I1105 17:25:16.938288 24483 net.cpp:150] Setting up inception_4d/pool
I1105 17:25:16.938299 24483 net.cpp:157] Top shape: 32 512 14 14 (3211264)
I1105 17:25:16.938303 24483 net.cpp:165] Memory required for data: 1526514436
I1105 17:25:16.938308 24483 layer_factory.hpp:76] Creating layer inception_4d/pool_proj
I1105 17:25:16.938318 24483 net.cpp:106] Creating Layer inception_4d/pool_proj
I1105 17:25:16.938334 24483 net.cpp:454] inception_4d/pool_proj <- inception_4d/pool
I1105 17:25:16.938344 24483 net.cpp:411] inception_4d/pool_proj -> inception_4d/pool_proj
I1105 17:25:16.939607 24483 cudnn_conv_layer.cpp:194] Reallocating workspace storage: 10080
I1105 17:25:16.939640 24483 net.cpp:150] Setting up inception_4d/pool_proj
I1105 17:25:16.939648 24483 net.cpp:157] Top shape: 32 64 14 14 (401408)
I1105 17:25:16.939652 24483 net.cpp:165] Memory required for data: 1528120068
I1105 17:25:16.939661 24483 layer_factory.hpp:76] Creating layer inception_4d/prelu_pool_proj
I1105 17:25:16.939671 24483 net.cpp:106] Creating Layer inception_4d/prelu_pool_proj
I1105 17:25:16.939677 24483 net.cpp:454] inception_4d/prelu_pool_proj <- inception_4d/pool_proj
I1105 17:25:16.939682 24483 net.cpp:397] inception_4d/prelu_pool_proj -> inception_4d/pool_proj (in-place)
I1105 17:25:16.939810 24483 net.cpp:150] Setting up inception_4d/prelu_pool_proj
I1105 17:25:16.939829 24483 net.cpp:157] Top shape: 32 64 14 14 (401408)
I1105 17:25:16.939843 24483 net.cpp:165] Memory required for data: 1529725700
I1105 17:25:16.939849 24483 layer_factory.hpp:76] Creating layer inception_4d/output
I1105 17:25:16.939857 24483 net.cpp:106] Creating Layer inception_4d/output
I1105 17:25:16.939862 24483 net.cpp:454] inception_4d/output <- inception_4d/1x1
I1105 17:25:16.939867 24483 net.cpp:454] inception_4d/output <- inception_4d/3x3
I1105 17:25:16.939882 24483 net.cpp:454] inception_4d/output <- inception_4d/5x5
I1105 17:25:16.939888 24483 net.cpp:454] inception_4d/output <- inception_4d/pool_proj
I1105 17:25:16.939895 24483 net.cpp:411] inception_4d/output -> inception_4d/output
I1105 17:25:16.939923 24483 net.cpp:150] Setting up inception_4d/output
I1105 17:25:16.939956 24483 net.cpp:157] Top shape: 32 528 14 14 (3311616)
I1105 17:25:16.939960 24483 net.cpp:165] Memory required for data: 1542972164
I1105 17:25:16.939975 24483 layer_factory.hpp:76] Creating layer inception_4d/output_inception_4d/output_0_split
I1105 17:25:16.939985 24483 net.cpp:106] Creating Layer inception_4d/output_inception_4d/output_0_split
I1105 17:25:16.939988 24483 net.cpp:454] inception_4d/output_inception_4d/output_0_split <- inception_4d/output
I1105 17:25:16.939995 24483 net.cpp:411] inception_4d/output_inception_4d/output_0_split -> inception_4d/output_inception_4d/output_0_split_0
I1105 17:25:16.940001 24483 net.cpp:411] inception_4d/output_inception_4d/output_0_split -> inception_4d/output_inception_4d/output_0_split_1
I1105 17:25:16.940011 24483 net.cpp:411] inception_4d/output_inception_4d/output_0_split -> inception_4d/output_inception_4d/output_0_split_2
I1105 17:25:16.940017 24483 net.cpp:411] inception_4d/output_inception_4d/output_0_split -> inception_4d/output_inception_4d/output_0_split_3
I1105 17:25:16.940023 24483 net.cpp:411] inception_4d/output_inception_4d/output_0_split -> inception_4d/output_inception_4d/output_0_split_4
I1105 17:25:16.940105 24483 net.cpp:150] Setting up inception_4d/output_inception_4d/output_0_split
I1105 17:25:16.940114 24483 net.cpp:157] Top shape: 32 528 14 14 (3311616)
I1105 17:25:16.940129 24483 net.cpp:157] Top shape: 32 528 14 14 (3311616)
I1105 17:25:16.940135 24483 net.cpp:157] Top shape: 32 528 14 14 (3311616)
I1105 17:25:16.940140 24483 net.cpp:157] Top shape: 32 528 14 14 (3311616)
I1105 17:25:16.940145 24483 net.cpp:157] Top shape: 32 528 14 14 (3311616)
I1105 17:25:16.940148 24483 net.cpp:165] Memory required for data: 1609204484
I1105 17:25:16.940152 24483 layer_factory.hpp:76] Creating layer loss2/ave_pool
I1105 17:25:16.940160 24483 net.cpp:106] Creating Layer loss2/ave_pool
I1105 17:25:16.940165 24483 net.cpp:454] loss2/ave_pool <- inception_4d/output_inception_4d/output_0_split_0
I1105 17:25:16.940171 24483 net.cpp:411] loss2/ave_pool -> loss2/ave_pool
I1105 17:25:16.940534 24483 net.cpp:150] Setting up loss2/ave_pool
I1105 17:25:16.940546 24483 net.cpp:157] Top shape: 32 528 4 4 (270336)
I1105 17:25:16.940551 24483 net.cpp:165] Memory required for data: 1610285828
I1105 17:25:16.940567 24483 layer_factory.hpp:76] Creating layer loss2/conv
I1105 17:25:16.940575 24483 net.cpp:106] Creating Layer loss2/conv
I1105 17:25:16.940580 24483 net.cpp:454] loss2/conv <- loss2/ave_pool
I1105 17:25:16.940590 24483 net.cpp:411] loss2/conv -> loss2/conv
I1105 17:25:16.942087 24483 cudnn_conv_layer.cpp:194] Reallocating workspace storage: 6840
I1105 17:25:16.942116 24483 net.cpp:150] Setting up loss2/conv
I1105 17:25:16.942124 24483 net.cpp:157] Top shape: 32 128 4 4 (65536)
I1105 17:25:16.942128 24483 net.cpp:165] Memory required for data: 1610547972
I1105 17:25:16.942137 24483 layer_factory.hpp:76] Creating layer loss2/prelu_conv
I1105 17:25:16.942145 24483 net.cpp:106] Creating Layer loss2/prelu_conv
I1105 17:25:16.942152 24483 net.cpp:454] loss2/prelu_conv <- loss2/conv
I1105 17:25:16.942160 24483 net.cpp:397] loss2/prelu_conv -> loss2/conv (in-place)
I1105 17:25:16.942256 24483 net.cpp:150] Setting up loss2/prelu_conv
I1105 17:25:16.942275 24483 net.cpp:157] Top shape: 32 128 4 4 (65536)
I1105 17:25:16.942279 24483 net.cpp:165] Memory required for data: 1610810116
I1105 17:25:16.942286 24483 layer_factory.hpp:76] Creating layer loss2/fc
I1105 17:25:16.942293 24483 net.cpp:106] Creating Layer loss2/fc
I1105 17:25:16.942297 24483 net.cpp:454] loss2/fc <- loss2/conv
I1105 17:25:16.942306 24483 net.cpp:411] loss2/fc -> loss2/fc
I1105 17:25:16.957002 24483 net.cpp:150] Setting up loss2/fc
I1105 17:25:16.957046 24483 net.cpp:157] Top shape: 32 1024 (32768)
I1105 17:25:16.957051 24483 net.cpp:165] Memory required for data: 1610941188
I1105 17:25:16.957093 24483 layer_factory.hpp:76] Creating layer loss2/prelu_fc
I1105 17:25:16.957108 24483 net.cpp:106] Creating Layer loss2/prelu_fc
I1105 17:25:16.957115 24483 net.cpp:454] loss2/prelu_fc <- loss2/fc
I1105 17:25:16.957139 24483 net.cpp:397] loss2/prelu_fc -> loss2/fc (in-place)
I1105 17:25:16.957238 24483 net.cpp:150] Setting up loss2/prelu_fc
I1105 17:25:16.957247 24483 net.cpp:157] Top shape: 32 1024 (32768)
I1105 17:25:16.957252 24483 net.cpp:165] Memory required for data: 1611072260
I1105 17:25:16.957265 24483 layer_factory.hpp:76] Creating layer loss2/drop_fc
I1105 17:25:16.957275 24483 net.cpp:106] Creating Layer loss2/drop_fc
I1105 17:25:16.957281 24483 net.cpp:454] loss2/drop_fc <- loss2/fc
I1105 17:25:16.957286 24483 net.cpp:397] loss2/drop_fc -> loss2/fc (in-place)
I1105 17:25:16.957315 24483 net.cpp:150] Setting up loss2/drop_fc
I1105 17:25:16.957324 24483 net.cpp:157] Top shape: 32 1024 (32768)
I1105 17:25:16.957337 24483 net.cpp:165] Memory required for data: 1611203332
I1105 17:25:16.957350 24483 layer_factory.hpp:76] Creating layer loss2/classifier2
I1105 17:25:16.957357 24483 net.cpp:106] Creating Layer loss2/classifier2
I1105 17:25:16.957365 24483 net.cpp:454] loss2/classifier2 <- loss2/fc
I1105 17:25:16.957373 24483 net.cpp:411] loss2/classifier2 -> loss2/classifier
I1105 17:25:16.957509 24483 net.cpp:150] Setting up loss2/classifier2
I1105 17:25:16.957520 24483 net.cpp:157] Top shape: 32 2 (64)
I1105 17:25:16.957523 24483 net.cpp:165] Memory required for data: 1611203588
I1105 17:25:16.957538 24483 layer_factory.hpp:76] Creating layer loss2/loss
I1105 17:25:16.957547 24483 net.cpp:106] Creating Layer loss2/loss
I1105 17:25:16.957553 24483 net.cpp:454] loss2/loss <- loss2/classifier
I1105 17:25:16.957558 24483 net.cpp:454] loss2/loss <- label_data_1_split_1
I1105 17:25:16.957566 24483 net.cpp:411] loss2/loss -> loss2/loss1
I1105 17:25:16.957589 24483 layer_factory.hpp:76] Creating layer loss2/loss
I1105 17:25:16.957892 24483 net.cpp:150] Setting up loss2/loss
I1105 17:25:16.957902 24483 net.cpp:157] Top shape: (1)
I1105 17:25:16.957907 24483 net.cpp:160]     with loss weight 0.3
I1105 17:25:16.957931 24483 net.cpp:165] Memory required for data: 1611203592
I1105 17:25:16.957936 24483 layer_factory.hpp:76] Creating layer inception_4e/1x1
I1105 17:25:16.957947 24483 net.cpp:106] Creating Layer inception_4e/1x1
I1105 17:25:16.957960 24483 net.cpp:454] inception_4e/1x1 <- inception_4d/output_inception_4d/output_0_split_1
I1105 17:25:16.957969 24483 net.cpp:411] inception_4e/1x1 -> inception_4e/1x1
I1105 17:25:16.960433 24483 cudnn_conv_layer.cpp:194] Reallocating workspace storage: 10080
I1105 17:25:16.960466 24483 net.cpp:150] Setting up inception_4e/1x1
I1105 17:25:16.960475 24483 net.cpp:157] Top shape: 32 256 14 14 (1605632)
I1105 17:25:16.960480 24483 net.cpp:165] Memory required for data: 1617626120
I1105 17:25:16.960487 24483 layer_factory.hpp:76] Creating layer inception_4e/prelu_1x1
I1105 17:25:16.960496 24483 net.cpp:106] Creating Layer inception_4e/prelu_1x1
I1105 17:25:16.960502 24483 net.cpp:454] inception_4e/prelu_1x1 <- inception_4e/1x1
I1105 17:25:16.960510 24483 net.cpp:397] inception_4e/prelu_1x1 -> inception_4e/1x1 (in-place)
I1105 17:25:16.960650 24483 net.cpp:150] Setting up inception_4e/prelu_1x1
I1105 17:25:16.960660 24483 net.cpp:157] Top shape: 32 256 14 14 (1605632)
I1105 17:25:16.960664 24483 net.cpp:165] Memory required for data: 1624048648
I1105 17:25:16.960670 24483 layer_factory.hpp:76] Creating layer inception_4e/3x3_reduce
I1105 17:25:16.960680 24483 net.cpp:106] Creating Layer inception_4e/3x3_reduce
I1105 17:25:16.960686 24483 net.cpp:454] inception_4e/3x3_reduce <- inception_4d/output_inception_4d/output_0_split_2
I1105 17:25:16.960695 24483 net.cpp:411] inception_4e/3x3_reduce -> inception_4e/3x3_reduce
I1105 17:25:16.962286 24483 cudnn_conv_layer.cpp:194] Reallocating workspace storage: 10080
I1105 17:25:16.962318 24483 net.cpp:150] Setting up inception_4e/3x3_reduce
I1105 17:25:16.962328 24483 net.cpp:157] Top shape: 32 160 14 14 (1003520)
I1105 17:25:16.962334 24483 net.cpp:165] Memory required for data: 1628062728
I1105 17:25:16.962342 24483 layer_factory.hpp:76] Creating layer inception_4e/prelu_3x3_reduce
I1105 17:25:16.962352 24483 net.cpp:106] Creating Layer inception_4e/prelu_3x3_reduce
I1105 17:25:16.962358 24483 net.cpp:454] inception_4e/prelu_3x3_reduce <- inception_4e/3x3_reduce
I1105 17:25:16.962364 24483 net.cpp:397] inception_4e/prelu_3x3_reduce -> inception_4e/3x3_reduce (in-place)
I1105 17:25:16.962507 24483 net.cpp:150] Setting up inception_4e/prelu_3x3_reduce
I1105 17:25:16.962517 24483 net.cpp:157] Top shape: 32 160 14 14 (1003520)
I1105 17:25:16.962522 24483 net.cpp:165] Memory required for data: 1632076808
I1105 17:25:16.962529 24483 layer_factory.hpp:76] Creating layer inception_4e/3x3
I1105 17:25:16.962538 24483 net.cpp:106] Creating Layer inception_4e/3x3
I1105 17:25:16.962544 24483 net.cpp:454] inception_4e/3x3 <- inception_4e/3x3_reduce
I1105 17:25:16.962560 24483 net.cpp:411] inception_4e/3x3 -> inception_4e/3x3
I1105 17:25:16.967739 24483 cudnn_conv_layer.cpp:194] Reallocating workspace storage: 10080
I1105 17:25:16.967798 24483 net.cpp:150] Setting up inception_4e/3x3
I1105 17:25:16.967824 24483 net.cpp:157] Top shape: 32 320 14 14 (2007040)
I1105 17:25:16.967831 24483 net.cpp:165] Memory required for data: 1640104968
I1105 17:25:16.967844 24483 layer_factory.hpp:76] Creating layer inception_4e/prelu_3x3
I1105 17:25:16.967859 24483 net.cpp:106] Creating Layer inception_4e/prelu_3x3
I1105 17:25:16.967867 24483 net.cpp:454] inception_4e/prelu_3x3 <- inception_4e/3x3
I1105 17:25:16.967876 24483 net.cpp:397] inception_4e/prelu_3x3 -> inception_4e/3x3 (in-place)
I1105 17:25:16.968067 24483 net.cpp:150] Setting up inception_4e/prelu_3x3
I1105 17:25:16.968080 24483 net.cpp:157] Top shape: 32 320 14 14 (2007040)
I1105 17:25:16.968083 24483 net.cpp:165] Memory required for data: 1648133128
I1105 17:25:16.968101 24483 layer_factory.hpp:76] Creating layer inception_4e/5x5_reduce
I1105 17:25:16.968116 24483 net.cpp:106] Creating Layer inception_4e/5x5_reduce
I1105 17:25:16.968122 24483 net.cpp:454] inception_4e/5x5_reduce <- inception_4d/output_inception_4d/output_0_split_3
I1105 17:25:16.968142 24483 net.cpp:411] inception_4e/5x5_reduce -> inception_4e/5x5_reduce
I1105 17:25:16.969444 24483 cudnn_conv_layer.cpp:194] Reallocating workspace storage: 10080
I1105 17:25:16.969480 24483 net.cpp:150] Setting up inception_4e/5x5_reduce
I1105 17:25:16.969490 24483 net.cpp:157] Top shape: 32 32 14 14 (200704)
I1105 17:25:16.969512 24483 net.cpp:165] Memory required for data: 1648935944
I1105 17:25:16.969521 24483 layer_factory.hpp:76] Creating layer inception_4e/prelu_5x5_reduce
I1105 17:25:16.969533 24483 net.cpp:106] Creating Layer inception_4e/prelu_5x5_reduce
I1105 17:25:16.969540 24483 net.cpp:454] inception_4e/prelu_5x5_reduce <- inception_4e/5x5_reduce
I1105 17:25:16.969548 24483 net.cpp:397] inception_4e/prelu_5x5_reduce -> inception_4e/5x5_reduce (in-place)
I1105 17:25:16.969658 24483 net.cpp:150] Setting up inception_4e/prelu_5x5_reduce
I1105 17:25:16.969667 24483 net.cpp:157] Top shape: 32 32 14 14 (200704)
I1105 17:25:16.969672 24483 net.cpp:165] Memory required for data: 1649738760
I1105 17:25:16.969677 24483 layer_factory.hpp:76] Creating layer inception_4e/5x5
I1105 17:25:16.969707 24483 net.cpp:106] Creating Layer inception_4e/5x5
I1105 17:25:16.969712 24483 net.cpp:454] inception_4e/5x5 <- inception_4e/5x5_reduce
I1105 17:25:16.969722 24483 net.cpp:411] inception_4e/5x5 -> inception_4e/5x5
I1105 17:25:16.971861 24483 cudnn_conv_layer.cpp:194] Reallocating workspace storage: 13080
I1105 17:25:16.971901 24483 net.cpp:150] Setting up inception_4e/5x5
I1105 17:25:16.971911 24483 net.cpp:157] Top shape: 32 128 14 14 (802816)
I1105 17:25:16.971917 24483 net.cpp:165] Memory required for data: 1652950024
I1105 17:25:16.971925 24483 layer_factory.hpp:76] Creating layer inception_4e/prelu_5x5
I1105 17:25:16.971935 24483 net.cpp:106] Creating Layer inception_4e/prelu_5x5
I1105 17:25:16.971942 24483 net.cpp:454] inception_4e/prelu_5x5 <- inception_4e/5x5
I1105 17:25:16.971948 24483 net.cpp:397] inception_4e/prelu_5x5 -> inception_4e/5x5 (in-place)
I1105 17:25:16.972077 24483 net.cpp:150] Setting up inception_4e/prelu_5x5
I1105 17:25:16.972095 24483 net.cpp:157] Top shape: 32 128 14 14 (802816)
I1105 17:25:16.972100 24483 net.cpp:165] Memory required for data: 1656161288
I1105 17:25:16.972106 24483 layer_factory.hpp:76] Creating layer inception_4e/pool
I1105 17:25:16.972115 24483 net.cpp:106] Creating Layer inception_4e/pool
I1105 17:25:16.972120 24483 net.cpp:454] inception_4e/pool <- inception_4d/output_inception_4d/output_0_split_4
I1105 17:25:16.972127 24483 net.cpp:411] inception_4e/pool -> inception_4e/pool
I1105 17:25:16.972519 24483 net.cpp:150] Setting up inception_4e/pool
I1105 17:25:16.972532 24483 net.cpp:157] Top shape: 32 528 14 14 (3311616)
I1105 17:25:16.972537 24483 net.cpp:165] Memory required for data: 1669407752
I1105 17:25:16.972540 24483 layer_factory.hpp:76] Creating layer inception_4e/pool_proj
I1105 17:25:16.972550 24483 net.cpp:106] Creating Layer inception_4e/pool_proj
I1105 17:25:16.972556 24483 net.cpp:454] inception_4e/pool_proj <- inception_4e/pool
I1105 17:25:16.972564 24483 net.cpp:411] inception_4e/pool_proj -> inception_4e/pool_proj
I1105 17:25:16.973848 24483 cudnn_conv_layer.cpp:194] Reallocating workspace storage: 10080
I1105 17:25:16.973881 24483 net.cpp:150] Setting up inception_4e/pool_proj
I1105 17:25:16.973889 24483 net.cpp:157] Top shape: 32 128 14 14 (802816)
I1105 17:25:16.973893 24483 net.cpp:165] Memory required for data: 1672619016
I1105 17:25:16.973901 24483 layer_factory.hpp:76] Creating layer inception_4e/prelu_pool_proj
I1105 17:25:16.973912 24483 net.cpp:106] Creating Layer inception_4e/prelu_pool_proj
I1105 17:25:16.973917 24483 net.cpp:454] inception_4e/prelu_pool_proj <- inception_4e/pool_proj
I1105 17:25:16.973923 24483 net.cpp:397] inception_4e/prelu_pool_proj -> inception_4e/pool_proj (in-place)
I1105 17:25:16.974032 24483 net.cpp:150] Setting up inception_4e/prelu_pool_proj
I1105 17:25:16.974041 24483 net.cpp:157] Top shape: 32 128 14 14 (802816)
I1105 17:25:16.974053 24483 net.cpp:165] Memory required for data: 1675830280
I1105 17:25:16.974061 24483 layer_factory.hpp:76] Creating layer inception_4e/output
I1105 17:25:16.974067 24483 net.cpp:106] Creating Layer inception_4e/output
I1105 17:25:16.974072 24483 net.cpp:454] inception_4e/output <- inception_4e/1x1
I1105 17:25:16.974077 24483 net.cpp:454] inception_4e/output <- inception_4e/3x3
I1105 17:25:16.974082 24483 net.cpp:454] inception_4e/output <- inception_4e/5x5
I1105 17:25:16.974098 24483 net.cpp:454] inception_4e/output <- inception_4e/pool_proj
I1105 17:25:16.974107 24483 net.cpp:411] inception_4e/output -> inception_4e/output
I1105 17:25:16.974138 24483 net.cpp:150] Setting up inception_4e/output
I1105 17:25:16.974145 24483 net.cpp:157] Top shape: 32 832 14 14 (5218304)
I1105 17:25:16.974149 24483 net.cpp:165] Memory required for data: 1696703496
I1105 17:25:16.974154 24483 layer_factory.hpp:76] Creating layer pool4/3x3_s2
I1105 17:25:16.974162 24483 net.cpp:106] Creating Layer pool4/3x3_s2
I1105 17:25:16.974167 24483 net.cpp:454] pool4/3x3_s2 <- inception_4e/output
I1105 17:25:16.974174 24483 net.cpp:411] pool4/3x3_s2 -> pool4/3x3_s2
I1105 17:25:16.974546 24483 net.cpp:150] Setting up pool4/3x3_s2
I1105 17:25:16.974557 24483 net.cpp:157] Top shape: 32 832 7 7 (1304576)
I1105 17:25:16.974562 24483 net.cpp:165] Memory required for data: 1701921800
I1105 17:25:16.974567 24483 layer_factory.hpp:76] Creating layer pool4/3x3_s2_pool4/3x3_s2_0_split
I1105 17:25:16.974576 24483 net.cpp:106] Creating Layer pool4/3x3_s2_pool4/3x3_s2_0_split
I1105 17:25:16.974582 24483 net.cpp:454] pool4/3x3_s2_pool4/3x3_s2_0_split <- pool4/3x3_s2
I1105 17:25:16.974588 24483 net.cpp:411] pool4/3x3_s2_pool4/3x3_s2_0_split -> pool4/3x3_s2_pool4/3x3_s2_0_split_0
I1105 17:25:16.974597 24483 net.cpp:411] pool4/3x3_s2_pool4/3x3_s2_0_split -> pool4/3x3_s2_pool4/3x3_s2_0_split_1
I1105 17:25:16.974606 24483 net.cpp:411] pool4/3x3_s2_pool4/3x3_s2_0_split -> pool4/3x3_s2_pool4/3x3_s2_0_split_2
I1105 17:25:16.974614 24483 net.cpp:411] pool4/3x3_s2_pool4/3x3_s2_0_split -> pool4/3x3_s2_pool4/3x3_s2_0_split_3
I1105 17:25:16.974681 24483 net.cpp:150] Setting up pool4/3x3_s2_pool4/3x3_s2_0_split
I1105 17:25:16.974690 24483 net.cpp:157] Top shape: 32 832 7 7 (1304576)
I1105 17:25:16.974695 24483 net.cpp:157] Top shape: 32 832 7 7 (1304576)
I1105 17:25:16.974700 24483 net.cpp:157] Top shape: 32 832 7 7 (1304576)
I1105 17:25:16.974705 24483 net.cpp:157] Top shape: 32 832 7 7 (1304576)
I1105 17:25:16.974709 24483 net.cpp:165] Memory required for data: 1722795016
I1105 17:25:16.974714 24483 layer_factory.hpp:76] Creating layer inception_5a/1x1
I1105 17:25:16.974722 24483 net.cpp:106] Creating Layer inception_5a/1x1
I1105 17:25:16.974728 24483 net.cpp:454] inception_5a/1x1 <- pool4/3x3_s2_pool4/3x3_s2_0_split_0
I1105 17:25:16.974735 24483 net.cpp:411] inception_5a/1x1 -> inception_5a/1x1
I1105 17:25:16.977524 24483 cudnn_conv_layer.cpp:194] Reallocating workspace storage: 7428
I1105 17:25:16.977565 24483 net.cpp:150] Setting up inception_5a/1x1
I1105 17:25:16.977573 24483 net.cpp:157] Top shape: 32 256 7 7 (401408)
I1105 17:25:16.977577 24483 net.cpp:165] Memory required for data: 1724400648
I1105 17:25:16.977586 24483 layer_factory.hpp:76] Creating layer inception_5a/prelu_1x1
I1105 17:25:16.977596 24483 net.cpp:106] Creating Layer inception_5a/prelu_1x1
I1105 17:25:16.977602 24483 net.cpp:454] inception_5a/prelu_1x1 <- inception_5a/1x1
I1105 17:25:16.977608 24483 net.cpp:397] inception_5a/prelu_1x1 -> inception_5a/1x1 (in-place)
I1105 17:25:16.978180 24483 net.cpp:150] Setting up inception_5a/prelu_1x1
I1105 17:25:16.978193 24483 net.cpp:157] Top shape: 32 256 7 7 (401408)
I1105 17:25:16.978198 24483 net.cpp:165] Memory required for data: 1726006280
I1105 17:25:16.978211 24483 layer_factory.hpp:76] Creating layer inception_5a/3x3_reduce
I1105 17:25:16.978224 24483 net.cpp:106] Creating Layer inception_5a/3x3_reduce
I1105 17:25:16.978229 24483 net.cpp:454] inception_5a/3x3_reduce <- pool4/3x3_s2_pool4/3x3_s2_0_split_1
I1105 17:25:16.978255 24483 net.cpp:411] inception_5a/3x3_reduce -> inception_5a/3x3_reduce
I1105 17:25:16.980559 24483 cudnn_conv_layer.cpp:194] Reallocating workspace storage: 7428
I1105 17:25:16.980602 24483 net.cpp:150] Setting up inception_5a/3x3_reduce
I1105 17:25:16.980620 24483 net.cpp:157] Top shape: 32 160 7 7 (250880)
I1105 17:25:16.980626 24483 net.cpp:165] Memory required for data: 1727009800
I1105 17:25:16.980643 24483 layer_factory.hpp:76] Creating layer inception_5a/prelu_3x3_reduce
I1105 17:25:16.980670 24483 net.cpp:106] Creating Layer inception_5a/prelu_3x3_reduce
I1105 17:25:16.980685 24483 net.cpp:454] inception_5a/prelu_3x3_reduce <- inception_5a/3x3_reduce
I1105 17:25:16.980693 24483 net.cpp:397] inception_5a/prelu_3x3_reduce -> inception_5a/3x3_reduce (in-place)
I1105 17:25:16.980816 24483 net.cpp:150] Setting up inception_5a/prelu_3x3_reduce
I1105 17:25:16.980826 24483 net.cpp:157] Top shape: 32 160 7 7 (250880)
I1105 17:25:16.980830 24483 net.cpp:165] Memory required for data: 1728013320
I1105 17:25:16.980844 24483 layer_factory.hpp:76] Creating layer inception_5a/3x3
I1105 17:25:16.980855 24483 net.cpp:106] Creating Layer inception_5a/3x3
I1105 17:25:16.980861 24483 net.cpp:454] inception_5a/3x3 <- inception_5a/3x3_reduce
I1105 17:25:16.980885 24483 net.cpp:411] inception_5a/3x3 -> inception_5a/3x3
I1105 17:25:16.985117 24483 cudnn_conv_layer.cpp:194] Reallocating workspace storage: 7788
I1105 17:25:16.985148 24483 net.cpp:150] Setting up inception_5a/3x3
I1105 17:25:16.985158 24483 net.cpp:157] Top shape: 32 320 7 7 (501760)
I1105 17:25:16.985167 24483 net.cpp:165] Memory required for data: 1730020360
I1105 17:25:16.985174 24483 layer_factory.hpp:76] Creating layer inception_5a/prelu_3x3
I1105 17:25:16.985185 24483 net.cpp:106] Creating Layer inception_5a/prelu_3x3
I1105 17:25:16.985193 24483 net.cpp:454] inception_5a/prelu_3x3 <- inception_5a/3x3
I1105 17:25:16.985200 24483 net.cpp:397] inception_5a/prelu_3x3 -> inception_5a/3x3 (in-place)
I1105 17:25:16.985314 24483 net.cpp:150] Setting up inception_5a/prelu_3x3
I1105 17:25:16.985324 24483 net.cpp:157] Top shape: 32 320 7 7 (501760)
I1105 17:25:16.985328 24483 net.cpp:165] Memory required for data: 1732027400
I1105 17:25:16.985334 24483 layer_factory.hpp:76] Creating layer inception_5a/5x5_reduce
I1105 17:25:16.985345 24483 net.cpp:106] Creating Layer inception_5a/5x5_reduce
I1105 17:25:16.985352 24483 net.cpp:454] inception_5a/5x5_reduce <- pool4/3x3_s2_pool4/3x3_s2_0_split_2
I1105 17:25:16.985358 24483 net.cpp:411] inception_5a/5x5_reduce -> inception_5a/5x5_reduce
I1105 17:25:16.986582 24483 cudnn_conv_layer.cpp:194] Reallocating workspace storage: 7428
I1105 17:25:16.986610 24483 net.cpp:150] Setting up inception_5a/5x5_reduce
I1105 17:25:16.986618 24483 net.cpp:157] Top shape: 32 32 7 7 (50176)
I1105 17:25:16.986624 24483 net.cpp:165] Memory required for data: 1732228104
I1105 17:25:16.986631 24483 layer_factory.hpp:76] Creating layer inception_5a/prelu_5x5_reduce
I1105 17:25:16.986647 24483 net.cpp:106] Creating Layer inception_5a/prelu_5x5_reduce
I1105 17:25:16.986654 24483 net.cpp:454] inception_5a/prelu_5x5_reduce <- inception_5a/5x5_reduce
I1105 17:25:16.986670 24483 net.cpp:397] inception_5a/prelu_5x5_reduce -> inception_5a/5x5_reduce (in-place)
I1105 17:25:16.986788 24483 net.cpp:150] Setting up inception_5a/prelu_5x5_reduce
I1105 17:25:16.986796 24483 net.cpp:157] Top shape: 32 32 7 7 (50176)
I1105 17:25:16.986800 24483 net.cpp:165] Memory required for data: 1732428808
I1105 17:25:16.986806 24483 layer_factory.hpp:76] Creating layer inception_5a/5x5
I1105 17:25:16.986814 24483 net.cpp:106] Creating Layer inception_5a/5x5
I1105 17:25:16.986819 24483 net.cpp:454] inception_5a/5x5 <- inception_5a/5x5_reduce
I1105 17:25:16.986827 24483 net.cpp:411] inception_5a/5x5 -> inception_5a/5x5
I1105 17:25:16.988471 24483 cudnn_conv_layer.cpp:194] Reallocating workspace storage: 9804
I1105 17:25:16.988507 24483 net.cpp:150] Setting up inception_5a/5x5
I1105 17:25:16.988517 24483 net.cpp:157] Top shape: 32 128 7 7 (200704)
I1105 17:25:16.988529 24483 net.cpp:165] Memory required for data: 1733231624
I1105 17:25:16.988545 24483 layer_factory.hpp:76] Creating layer inception_5a/prelu_5x5
I1105 17:25:16.988555 24483 net.cpp:106] Creating Layer inception_5a/prelu_5x5
I1105 17:25:16.988561 24483 net.cpp:454] inception_5a/prelu_5x5 <- inception_5a/5x5
I1105 17:25:16.988569 24483 net.cpp:397] inception_5a/prelu_5x5 -> inception_5a/5x5 (in-place)
I1105 17:25:16.988679 24483 net.cpp:150] Setting up inception_5a/prelu_5x5
I1105 17:25:16.988698 24483 net.cpp:157] Top shape: 32 128 7 7 (200704)
I1105 17:25:16.988703 24483 net.cpp:165] Memory required for data: 1734034440
I1105 17:25:16.988708 24483 layer_factory.hpp:76] Creating layer inception_5a/pool
I1105 17:25:16.988723 24483 net.cpp:106] Creating Layer inception_5a/pool
I1105 17:25:16.988730 24483 net.cpp:454] inception_5a/pool <- pool4/3x3_s2_pool4/3x3_s2_0_split_3
I1105 17:25:16.988739 24483 net.cpp:411] inception_5a/pool -> inception_5a/pool
I1105 17:25:16.988950 24483 net.cpp:150] Setting up inception_5a/pool
I1105 17:25:16.988962 24483 net.cpp:157] Top shape: 32 832 7 7 (1304576)
I1105 17:25:16.988966 24483 net.cpp:165] Memory required for data: 1739252744
I1105 17:25:16.988979 24483 layer_factory.hpp:76] Creating layer inception_5a/pool_proj
I1105 17:25:16.988987 24483 net.cpp:106] Creating Layer inception_5a/pool_proj
I1105 17:25:16.988992 24483 net.cpp:454] inception_5a/pool_proj <- inception_5a/pool
I1105 17:25:16.989017 24483 net.cpp:411] inception_5a/pool_proj -> inception_5a/pool_proj
I1105 17:25:16.991380 24483 cudnn_conv_layer.cpp:194] Reallocating workspace storage: 7428
I1105 17:25:16.991415 24483 net.cpp:150] Setting up inception_5a/pool_proj
I1105 17:25:16.991425 24483 net.cpp:157] Top shape: 32 128 7 7 (200704)
I1105 17:25:16.991430 24483 net.cpp:165] Memory required for data: 1740055560
I1105 17:25:16.991437 24483 layer_factory.hpp:76] Creating layer inception_5a/prelu_pool_proj
I1105 17:25:16.991446 24483 net.cpp:106] Creating Layer inception_5a/prelu_pool_proj
I1105 17:25:16.991452 24483 net.cpp:454] inception_5a/prelu_pool_proj <- inception_5a/pool_proj
I1105 17:25:16.991462 24483 net.cpp:397] inception_5a/prelu_pool_proj -> inception_5a/pool_proj (in-place)
I1105 17:25:16.991570 24483 net.cpp:150] Setting up inception_5a/prelu_pool_proj
I1105 17:25:16.991581 24483 net.cpp:157] Top shape: 32 128 7 7 (200704)
I1105 17:25:16.991587 24483 net.cpp:165] Memory required for data: 1740858376
I1105 17:25:16.991593 24483 layer_factory.hpp:76] Creating layer inception_5a/output
I1105 17:25:16.991601 24483 net.cpp:106] Creating Layer inception_5a/output
I1105 17:25:16.991607 24483 net.cpp:454] inception_5a/output <- inception_5a/1x1
I1105 17:25:16.991612 24483 net.cpp:454] inception_5a/output <- inception_5a/3x3
I1105 17:25:16.991619 24483 net.cpp:454] inception_5a/output <- inception_5a/5x5
I1105 17:25:16.991624 24483 net.cpp:454] inception_5a/output <- inception_5a/pool_proj
I1105 17:25:16.991631 24483 net.cpp:411] inception_5a/output -> inception_5a/output
I1105 17:25:16.991667 24483 net.cpp:150] Setting up inception_5a/output
I1105 17:25:16.991677 24483 net.cpp:157] Top shape: 32 832 7 7 (1304576)
I1105 17:25:16.991680 24483 net.cpp:165] Memory required for data: 1746076680
I1105 17:25:16.991685 24483 layer_factory.hpp:76] Creating layer inception_5a/output_inception_5a/output_0_split
I1105 17:25:16.991693 24483 net.cpp:106] Creating Layer inception_5a/output_inception_5a/output_0_split
I1105 17:25:16.991699 24483 net.cpp:454] inception_5a/output_inception_5a/output_0_split <- inception_5a/output
I1105 17:25:16.991708 24483 net.cpp:411] inception_5a/output_inception_5a/output_0_split -> inception_5a/output_inception_5a/output_0_split_0
I1105 17:25:16.991716 24483 net.cpp:411] inception_5a/output_inception_5a/output_0_split -> inception_5a/output_inception_5a/output_0_split_1
I1105 17:25:16.991725 24483 net.cpp:411] inception_5a/output_inception_5a/output_0_split -> inception_5a/output_inception_5a/output_0_split_2
I1105 17:25:16.991734 24483 net.cpp:411] inception_5a/output_inception_5a/output_0_split -> inception_5a/output_inception_5a/output_0_split_3
I1105 17:25:16.991802 24483 net.cpp:150] Setting up inception_5a/output_inception_5a/output_0_split
I1105 17:25:16.991811 24483 net.cpp:157] Top shape: 32 832 7 7 (1304576)
I1105 17:25:16.991818 24483 net.cpp:157] Top shape: 32 832 7 7 (1304576)
I1105 17:25:16.991828 24483 net.cpp:157] Top shape: 32 832 7 7 (1304576)
I1105 17:25:16.991837 24483 net.cpp:157] Top shape: 32 832 7 7 (1304576)
I1105 17:25:16.991845 24483 net.cpp:165] Memory required for data: 1766949896
I1105 17:25:16.991865 24483 layer_factory.hpp:76] Creating layer inception_5b/1x1
I1105 17:25:16.991879 24483 net.cpp:106] Creating Layer inception_5b/1x1
I1105 17:25:16.991885 24483 net.cpp:454] inception_5b/1x1 <- inception_5a/output_inception_5a/output_0_split_0
I1105 17:25:16.991896 24483 net.cpp:411] inception_5b/1x1 -> inception_5b/1x1
I1105 17:25:16.995723 24483 cudnn_conv_layer.cpp:194] Reallocating workspace storage: 7428
I1105 17:25:16.995784 24483 net.cpp:150] Setting up inception_5b/1x1
I1105 17:25:16.995796 24483 net.cpp:157] Top shape: 32 384 7 7 (602112)
I1105 17:25:16.995812 24483 net.cpp:165] Memory required for data: 1769358344
I1105 17:25:16.995832 24483 layer_factory.hpp:76] Creating layer inception_5b/prelu_1x1
I1105 17:25:16.995846 24483 net.cpp:106] Creating Layer inception_5b/prelu_1x1
I1105 17:25:16.995852 24483 net.cpp:454] inception_5b/prelu_1x1 <- inception_5b/1x1
I1105 17:25:16.995861 24483 net.cpp:397] inception_5b/prelu_1x1 -> inception_5b/1x1 (in-place)
I1105 17:25:16.996446 24483 net.cpp:150] Setting up inception_5b/prelu_1x1
I1105 17:25:16.996459 24483 net.cpp:157] Top shape: 32 384 7 7 (602112)
I1105 17:25:16.996474 24483 net.cpp:165] Memory required for data: 1771766792
I1105 17:25:16.996480 24483 layer_factory.hpp:76] Creating layer inception_5b/3x3_reduce
I1105 17:25:16.996493 24483 net.cpp:106] Creating Layer inception_5b/3x3_reduce
I1105 17:25:16.996498 24483 net.cpp:454] inception_5b/3x3_reduce <- inception_5a/output_inception_5a/output_0_split_1
I1105 17:25:16.996506 24483 net.cpp:411] inception_5b/3x3_reduce -> inception_5b/3x3_reduce
I1105 17:25:16.999114 24483 cudnn_conv_layer.cpp:194] Reallocating workspace storage: 7428
I1105 17:25:16.999172 24483 net.cpp:150] Setting up inception_5b/3x3_reduce
I1105 17:25:16.999182 24483 net.cpp:157] Top shape: 32 192 7 7 (301056)
I1105 17:25:16.999187 24483 net.cpp:165] Memory required for data: 1772971016
I1105 17:25:16.999196 24483 layer_factory.hpp:76] Creating layer inception_5b/prelu_3x3_reduce
I1105 17:25:16.999207 24483 net.cpp:106] Creating Layer inception_5b/prelu_3x3_reduce
I1105 17:25:16.999214 24483 net.cpp:454] inception_5b/prelu_3x3_reduce <- inception_5b/3x3_reduce
I1105 17:25:16.999224 24483 net.cpp:397] inception_5b/prelu_3x3_reduce -> inception_5b/3x3_reduce (in-place)
I1105 17:25:16.999354 24483 net.cpp:150] Setting up inception_5b/prelu_3x3_reduce
I1105 17:25:16.999364 24483 net.cpp:157] Top shape: 32 192 7 7 (301056)
I1105 17:25:16.999368 24483 net.cpp:165] Memory required for data: 1774175240
I1105 17:25:16.999385 24483 layer_factory.hpp:76] Creating layer inception_5b/3x3
I1105 17:25:16.999397 24483 net.cpp:106] Creating Layer inception_5b/3x3
I1105 17:25:16.999402 24483 net.cpp:454] inception_5b/3x3 <- inception_5b/3x3_reduce
I1105 17:25:16.999409 24483 net.cpp:411] inception_5b/3x3 -> inception_5b/3x3
I1105 17:25:17.005585 24483 cudnn_conv_layer.cpp:194] Reallocating workspace storage: 7788
I1105 17:25:17.005633 24483 net.cpp:150] Setting up inception_5b/3x3
I1105 17:25:17.005646 24483 net.cpp:157] Top shape: 32 384 7 7 (602112)
I1105 17:25:17.005651 24483 net.cpp:165] Memory required for data: 1776583688
I1105 17:25:17.005661 24483 layer_factory.hpp:76] Creating layer inception_5b/prelu_3x3
I1105 17:25:17.005673 24483 net.cpp:106] Creating Layer inception_5b/prelu_3x3
I1105 17:25:17.005679 24483 net.cpp:454] inception_5b/prelu_3x3 <- inception_5b/3x3
I1105 17:25:17.005687 24483 net.cpp:397] inception_5b/prelu_3x3 -> inception_5b/3x3 (in-place)
I1105 17:25:17.005805 24483 net.cpp:150] Setting up inception_5b/prelu_3x3
I1105 17:25:17.005815 24483 net.cpp:157] Top shape: 32 384 7 7 (602112)
I1105 17:25:17.005820 24483 net.cpp:165] Memory required for data: 1778992136
I1105 17:25:17.005825 24483 layer_factory.hpp:76] Creating layer inception_5b/5x5_reduce
I1105 17:25:17.005836 24483 net.cpp:106] Creating Layer inception_5b/5x5_reduce
I1105 17:25:17.005841 24483 net.cpp:454] inception_5b/5x5_reduce <- inception_5a/output_inception_5a/output_0_split_2
I1105 17:25:17.005874 24483 net.cpp:411] inception_5b/5x5_reduce -> inception_5b/5x5_reduce
I1105 17:25:17.007038 24483 cudnn_conv_layer.cpp:194] Reallocating workspace storage: 7428
I1105 17:25:17.007074 24483 net.cpp:150] Setting up inception_5b/5x5_reduce
I1105 17:25:17.007083 24483 net.cpp:157] Top shape: 32 48 7 7 (75264)
I1105 17:25:17.007096 24483 net.cpp:165] Memory required for data: 1779293192
I1105 17:25:17.007112 24483 layer_factory.hpp:76] Creating layer inception_5b/prelu_5x5_reduce
I1105 17:25:17.007119 24483 net.cpp:106] Creating Layer inception_5b/prelu_5x5_reduce
I1105 17:25:17.007141 24483 net.cpp:454] inception_5b/prelu_5x5_reduce <- inception_5b/5x5_reduce
I1105 17:25:17.007148 24483 net.cpp:397] inception_5b/prelu_5x5_reduce -> inception_5b/5x5_reduce (in-place)
I1105 17:25:17.007282 24483 net.cpp:150] Setting up inception_5b/prelu_5x5_reduce
I1105 17:25:17.007292 24483 net.cpp:157] Top shape: 32 48 7 7 (75264)
I1105 17:25:17.007295 24483 net.cpp:165] Memory required for data: 1779594248
I1105 17:25:17.007302 24483 layer_factory.hpp:76] Creating layer inception_5b/5x5
I1105 17:25:17.007310 24483 net.cpp:106] Creating Layer inception_5b/5x5
I1105 17:25:17.007333 24483 net.cpp:454] inception_5b/5x5 <- inception_5b/5x5_reduce
I1105 17:25:17.007342 24483 net.cpp:411] inception_5b/5x5 -> inception_5b/5x5
I1105 17:25:17.009331 24483 cudnn_conv_layer.cpp:194] Reallocating workspace storage: 9804
I1105 17:25:17.009359 24483 net.cpp:150] Setting up inception_5b/5x5
I1105 17:25:17.009367 24483 net.cpp:157] Top shape: 32 128 7 7 (200704)
I1105 17:25:17.009371 24483 net.cpp:165] Memory required for data: 1780397064
I1105 17:25:17.009378 24483 layer_factory.hpp:76] Creating layer inception_5b/prelu_5x5
I1105 17:25:17.009387 24483 net.cpp:106] Creating Layer inception_5b/prelu_5x5
I1105 17:25:17.009392 24483 net.cpp:454] inception_5b/prelu_5x5 <- inception_5b/5x5
I1105 17:25:17.009399 24483 net.cpp:397] inception_5b/prelu_5x5 -> inception_5b/5x5 (in-place)
I1105 17:25:17.009508 24483 net.cpp:150] Setting up inception_5b/prelu_5x5
I1105 17:25:17.009518 24483 net.cpp:157] Top shape: 32 128 7 7 (200704)
I1105 17:25:17.009522 24483 net.cpp:165] Memory required for data: 1781199880
I1105 17:25:17.009527 24483 layer_factory.hpp:76] Creating layer inception_5b/pool
I1105 17:25:17.009536 24483 net.cpp:106] Creating Layer inception_5b/pool
I1105 17:25:17.009541 24483 net.cpp:454] inception_5b/pool <- inception_5a/output_inception_5a/output_0_split_3
I1105 17:25:17.009546 24483 net.cpp:411] inception_5b/pool -> inception_5b/pool
I1105 17:25:17.009924 24483 net.cpp:150] Setting up inception_5b/pool
I1105 17:25:17.009935 24483 net.cpp:157] Top shape: 32 832 7 7 (1304576)
I1105 17:25:17.009940 24483 net.cpp:165] Memory required for data: 1786418184
I1105 17:25:17.009944 24483 layer_factory.hpp:76] Creating layer inception_5b/pool_proj
I1105 17:25:17.009954 24483 net.cpp:106] Creating Layer inception_5b/pool_proj
I1105 17:25:17.009959 24483 net.cpp:454] inception_5b/pool_proj <- inception_5b/pool
I1105 17:25:17.009968 24483 net.cpp:411] inception_5b/pool_proj -> inception_5b/pool_proj
I1105 17:25:17.012176 24483 cudnn_conv_layer.cpp:194] Reallocating workspace storage: 7428
I1105 17:25:17.012217 24483 net.cpp:150] Setting up inception_5b/pool_proj
I1105 17:25:17.012226 24483 net.cpp:157] Top shape: 32 128 7 7 (200704)
I1105 17:25:17.012231 24483 net.cpp:165] Memory required for data: 1787221000
I1105 17:25:17.012239 24483 layer_factory.hpp:76] Creating layer inception_5b/prelu_pool_proj
I1105 17:25:17.012250 24483 net.cpp:106] Creating Layer inception_5b/prelu_pool_proj
I1105 17:25:17.012256 24483 net.cpp:454] inception_5b/prelu_pool_proj <- inception_5b/pool_proj
I1105 17:25:17.012264 24483 net.cpp:397] inception_5b/prelu_pool_proj -> inception_5b/pool_proj (in-place)
I1105 17:25:17.012398 24483 net.cpp:150] Setting up inception_5b/prelu_pool_proj
I1105 17:25:17.012409 24483 net.cpp:157] Top shape: 32 128 7 7 (200704)
I1105 17:25:17.012413 24483 net.cpp:165] Memory required for data: 1788023816
I1105 17:25:17.012419 24483 layer_factory.hpp:76] Creating layer inception_5b/output
I1105 17:25:17.012444 24483 net.cpp:106] Creating Layer inception_5b/output
I1105 17:25:17.012449 24483 net.cpp:454] inception_5b/output <- inception_5b/1x1
I1105 17:25:17.012455 24483 net.cpp:454] inception_5b/output <- inception_5b/3x3
I1105 17:25:17.012460 24483 net.cpp:454] inception_5b/output <- inception_5b/5x5
I1105 17:25:17.012465 24483 net.cpp:454] inception_5b/output <- inception_5b/pool_proj
I1105 17:25:17.012471 24483 net.cpp:411] inception_5b/output -> inception_5b/output
I1105 17:25:17.012504 24483 net.cpp:150] Setting up inception_5b/output
I1105 17:25:17.012514 24483 net.cpp:157] Top shape: 32 1024 7 7 (1605632)
I1105 17:25:17.012518 24483 net.cpp:165] Memory required for data: 1794446344
I1105 17:25:17.012522 24483 layer_factory.hpp:76] Creating layer pool5/7x7_s1
I1105 17:25:17.012529 24483 net.cpp:106] Creating Layer pool5/7x7_s1
I1105 17:25:17.012534 24483 net.cpp:454] pool5/7x7_s1 <- inception_5b/output
I1105 17:25:17.012543 24483 net.cpp:411] pool5/7x7_s1 -> pool5/7x7_s1
I1105 17:25:17.012742 24483 net.cpp:150] Setting up pool5/7x7_s1
I1105 17:25:17.012755 24483 net.cpp:157] Top shape: 32 1024 1 1 (32768)
I1105 17:25:17.012760 24483 net.cpp:165] Memory required for data: 1794577416
I1105 17:25:17.012764 24483 layer_factory.hpp:76] Creating layer pool5/drop_7x7_s1
I1105 17:25:17.012773 24483 net.cpp:106] Creating Layer pool5/drop_7x7_s1
I1105 17:25:17.012778 24483 net.cpp:454] pool5/drop_7x7_s1 <- pool5/7x7_s1
I1105 17:25:17.012784 24483 net.cpp:397] pool5/drop_7x7_s1 -> pool5/7x7_s1 (in-place)
I1105 17:25:17.012815 24483 net.cpp:150] Setting up pool5/drop_7x7_s1
I1105 17:25:17.012825 24483 net.cpp:157] Top shape: 32 1024 1 1 (32768)
I1105 17:25:17.012828 24483 net.cpp:165] Memory required for data: 1794708488
I1105 17:25:17.012832 24483 layer_factory.hpp:76] Creating layer loss3/classifier2
I1105 17:25:17.012841 24483 net.cpp:106] Creating Layer loss3/classifier2
I1105 17:25:17.012846 24483 net.cpp:454] loss3/classifier2 <- pool5/7x7_s1
I1105 17:25:17.012853 24483 net.cpp:411] loss3/classifier2 -> loss3/classifier
I1105 17:25:17.013010 24483 net.cpp:150] Setting up loss3/classifier2
I1105 17:25:17.013020 24483 net.cpp:157] Top shape: 32 2 (64)
I1105 17:25:17.013025 24483 net.cpp:165] Memory required for data: 1794708744
I1105 17:25:17.013032 24483 layer_factory.hpp:76] Creating layer loss3/loss3
I1105 17:25:17.013041 24483 net.cpp:106] Creating Layer loss3/loss3
I1105 17:25:17.013046 24483 net.cpp:454] loss3/loss3 <- loss3/classifier
I1105 17:25:17.013051 24483 net.cpp:454] loss3/loss3 <- label_data_1_split_2
I1105 17:25:17.013058 24483 net.cpp:411] loss3/loss3 -> loss3/loss3
…
I1105 17:25:17.018143 24483 net.cpp:322] The NetState phase (1) differed from the phase (0) specified by a rule in layer data
I1105 17:25:17.019178 24483 net.cpp:49] Initializing net from parameters: 
name: "GoogleNet"
state {
  phase: TEST
}
layer {
  name: "data"
  type: "Data"
  top: "data"
  top: "label"
  include {
    phase: TEST
  }
  transform_param {
    mirror: false
    crop_size: 224
    mean_value: 104
    mean_value: 117
    mean_value: 123
  }
  data_param {
    source: "../../LMDB/val_3-lmdb"
    batch_size: 50
    backend: LMDB
  }
}
layer {
  name: "conv1/7x7_s2"
  type: "Convolution"
  bottom: "data"
  top: "conv1/7x7_s2"
  param {
    lr_mult: 1
    decay_mult: 1
  }
  param {
    lr_mult: 2
    decay_mult: 0
  }
  convolution_param {
    num_output: 64
    pad: 3
    kernel_size: 7
    stride: 2
    weight_filler {
      type: "xavier"
    }
    bias_filler {
      type: "constant"
      value: 0.2
    }
  }
}
layer {
  name: "conv1/prelu_7x7"
  type: "PReLU"
  bottom: "conv1/7x7_s2"
  top: "conv1/7x7_s2"
  param {
    lr_mult: 1
    decay_mult: 0
  }
  prelu_param {
    filler {
      type: "constant"
      value: 0.01
    }
  }
}
layer {
  name: "pool1/3x3_s2"
  type: "Pooling"
  bottom: "conv1/7x7_s2"
  top: "pool1/3x3_s2"
  pooling_param {
    pool: MAX
    kernel_size: 3
    stride: 2
  }
}
layer {
  name: "pool1/norm1"
  type: "LRN"
  bottom: "pool1/3x3_s2"
  top: "pool1/norm1"
  lrn_param {
    local_size: 5
    alpha: 0.0001
    beta: 0.75
  }
}
layer {
  name: "conv2/3x3_reduce"
  type: "Convolution"
  bottom: "pool1/norm1"
  top: "conv2/3x3_reduce"
  param {
    lr_mult: 1
    decay_mult: 1
  }
  param {
    lr_mult: 2
    decay_mult: 0
  }
  convolution_param {
    num_output: 64
    kernel_size: 1
    weight_filler {
      type: "xavier"
    }
    bias_filler {
      type: "constant"
      value: 0.2
    }
  }
}
layer {
  name: "conv2/prelu_3x3_reduce"
  type: "PReLU"
  bottom: "conv2/3x3_reduce"
  top: "conv2/3x3_reduce"
  param {
    lr_mult: 1
    decay_mult: 0
  }
  prelu_param {
    filler {
      type: "constant"
      value: 0.01
    }
  }
}
layer {
  name: "conv2/3x3"
  type: "Convolution"
  bottom: "conv2/3x3_reduce"
  top: "conv2/3x3"
  param {
    lr_mult: 1
    decay_mult: 1
  }
  param {
    lr_mult: 2
    decay_mult: 0
  }
  convolution_param {
    num_output: 192
    pad: 1
    kernel_size: 3
    weight_filler {
      type: "xavier"
    }
    bias_filler {
      type: "constant"
      value: 0.2
    }
  }
}
layer {
  name: "conv2/prelu_3x3"
  type: "PReLU"
  bottom: "conv2/3x3"
  top: "conv2/3x3"
  param {
    lr_mult: 1
    decay_mult: 0
  }
  prelu_param {
    filler {
      type: "constant"
      value: 0.01
    }
  }
}
layer {
  name: "conv2/norm2"
  type: "LRN"
  bottom: "conv2/3x3"
  top: "conv2/norm2"
  lrn_param {
    local_size: 5
    alpha: 0.0001
    beta: 0.75
  }
}
layer {
  name: "pool2/3x3_s2"
  type: "Pooling"
  bottom: "conv2/norm2"
  top: "pool2/3x3_s2"
  pooling_param {
    pool: MAX
    kernel_size: 3
    stride: 2
  }
}
layer {
  name: "inception_3a/1x1"
  type: "Convolution"
  bottom: "pool2/3x3_s2"
  top: "inception_3a/1x1"
  param {
    lr_mult: 1
    decay_mult: 1
  }
  param {
    lr_mult: 2
    decay_mult: 0
  }
  convolution_param {
    num_output: 64
    kernel_size: 1
    weight_filler {
      type: "xavier"
    }
    bias_filler {
      type: "constant"
      value: 0.2
    }
  }
}
layer {
  name: "inception_3a/prelu_1x1"
  type: "PReLU"
  bottom: "inception_3a/1x1"
  top: "inception_3a/1x1"
  param {
    lr_mult: 1
    decay_mult: 0
  }
  prelu_param {
    filler {
      type: "constant"
      value: 0.01
    }
  }
}
layer {
  name: "inception_3a/3x3_reduce"
  type: "Convolution"
  bottom: "pool2/3x3_s2"
  top: "inception_3a/3x3_reduce"
  param {
    lr_mult: 1
    decay_mult: 1
  }
  param {
    lr_mult: 2
    decay_mult: 0
  }
  convolution_param {
    num_output: 96
    kernel_size: 1
    weight_filler {
      type: "xavier"
    }
    bias_filler {
      type: "constant"
      value: 0.2
    }
  }
}
layer {
  name: "inception_3a/prelu_3x3_reduce"
  type: "PReLU"
  bottom: "inception_3a/3x3_reduce"
  top: "inception_3a/3x3_reduce"
  param {
    lr_mult: 1
    decay_mult: 0
  }
  prelu_param {
    filler {
      type: "constant"
      value: 0.01
    }
  }
}
layer {
  name: "inception_3a/3x3"
  type: "Convolution"
  bottom: "inception_3a/3x3_reduce"
  top: "inception_3a/3x3"
  param {
    lr_mult: 1
    decay_mult: 1
  }
  param {
    lr_mult: 2
    decay_mult: 0
  }
  convolution_param {
    num_output: 128
    pad: 1
    kernel_size: 3
    weight_filler {
      type: "xavier"
    }
    bias_filler {
      type: "constant"
      value: 0.2
    }
  }
}
layer {
  name: "inception_3a/prelu_3x3"
  type: "PReLU"
  bottom: "inception_3a/3x3"
  top: "inception_3a/3x3"
  param {
    lr_mult: 1
    decay_mult: 0
  }
  prelu_param {
    filler {
      type: "constant"
      value: 0.01
    }
  }
}
layer {
  name: "inception_3a/5x5_reduce"
  type: "Convolution"
  bottom: "pool2/3x3_s2"
  top: "inception_3a/5x5_reduce"
  param {
    lr_mult: 1
    decay_mult: 1
  }
  param {
    lr_mult: 2
    decay_mult: 0
  }
  convolution_param {
    num_output: 16
    kernel_size: 1
    weight_filler {
      type: "xavier"
    }
    bias_filler {
      type: "constant"
      value: 0.2
    }
  }
}
layer {
  name: "inception_3a/prelu_5x5_reduce"
  type: "PReLU"
  bottom: "inception_3a/5x5_reduce"
  top: "inception_3a/5x5_reduce"
  param {
    lr_mult: 1
    decay_mult: 0
  }
  prelu_param {
    filler {
      type: "constant"
      value: 0.01
    }
  }
}
layer {
  name: "inception_3a/5x5"
  type: "Convolution"
  bottom: "inception_3a/5x5_reduce"
  top: "inception_3a/5x5"
  param {
    lr_mult: 1
    decay_mult: 1
  }
  param {
    lr_mult: 2
    decay_mult: 0
  }
  convolution_param {
    num_output: 32
    pad: 2
    kernel_size: 5
    weight_filler {
      type: "xavier"
    }
    bias_filler {
      type: "constant"
      value: 0.2
    }
  }
}
layer {
  name: "inception_3a/prelu_5x5"
  type: "PReLU"
  bottom: "inception_3a/5x5"
  top: "inception_3a/5x5"
  param {
    lr_mult: 1
    decay_mult: 0
  }
  prelu_param {
    filler {
      type: "constant"
      value: 0.01
    }
  }
}
layer {
  name: "inception_3a/pool"
  type: "Pooling"
  bottom: "pool2/3x3_s2"
  top: "inception_3a/pool"
  pooling_param {
    pool: MAX
    kernel_size: 3
    stride: 1
    pad: 1
  }
}
layer {
  name: "inception_3a/pool_proj"
  type: "Convolution"
  bottom: "inception_3a/pool"
  top: "inception_3a/pool_proj"
  param {
    lr_mult: 1
    decay_mult: 1
  }
  param {
    lr_mult: 2
    decay_mult: 0
  }
  convolution_param {
    num_output: 32
    kernel_size: 1
    weight_filler {
      type: "xavier"
    }
    bias_filler {
      type: "constant"
      value: 0.2
    }
  }
}
layer {
  name: "inception_3a/prelu_pool_proj"
  type: "PReLU"
  bottom: "inception_3a/pool_proj"
  top: "inception_3a/pool_proj"
  param {
    lr_mult: 1
    decay_mult: 0
  }
  prelu_param {
    filler {
      type: "constant"
      value: 0.01
    }
  }
}
layer {
  name: "inception_3a/output"
  type: "Concat"
  bottom: "inception_3a/1x1"
  bottom: "inception_3a/3x3"
  bottom: "inception_3a/5x5"
  bottom: "inception_3a/pool_proj"
  top: "inception_3a/output"
}
layer {
  name: "inception_3b/1x1"
  type: "Convolution"
  bottom: "inception_3a/output"
  top: "inception_3b/1x1"
  param {
    lr_mult: 1
    decay_mult: 1
  }
  param {
    lr_mult: 2
    decay_mult: 0
  }
  convolution_param {
    num_output: 128
    kernel_size: 1
    weight_filler {
      type: "xavier"
    }
    bias_filler {
      type: "constant"
      value: 0.2
    }
  }
}
layer {
  name: "inception_3b/prelu_1x1"
  type: "PReLU"
  bottom: "inception_3b/1x1"
  top: "inception_3b/1x1"
  param {
    lr_mult: 1
    decay_mult: 0
  }
  prelu_param {
    filler {
      type: "constant"
      value: 0.01
    }
  }
}
layer {
  name: "inception_3b/3x3_reduce"
  type: "Convolution"
  bottom: "inception_3a/output"
  top: "inception_3b/3x3_reduce"
  param {
    lr_mult: 1
    decay_mult: 1
  }
  param {
    lr_mult: 2
    decay_mult: 0
  }
  convolution_param {
    num_output: 128
    kernel_size: 1
    weight_filler {
      type: "xavier"
    }
    bias_filler {
      type: "constant"
      value: 0.2
    }
  }
}
layer {
  name: "inception_3b/prelu_3x3_reduce"
  type: "PReLU"
  bottom: "inception_3b/3x3_reduce"
  top: "inception_3b/3x3_reduce"
  param {
    lr_mult: 1
    decay_mult: 0
  }
  prelu_param {
    filler {
      type: "constant"
      value: 0.01
    }
  }
}
layer {
  name: "inception_3b/3x3"
  type: "Convolution"
  bottom: "inception_3b/3x3_reduce"
  top: "inception_3b/3x3"
  param {
    lr_mult: 1
    decay_mult: 1
  }
  param {
    lr_mult: 2
    decay_mult: 0
  }
  convolution_param {
    num_output: 192
    pad: 1
…
I1105 17:25:17.905671 24483 net.cpp:106] Creating Layer inception_4c/output
I1105 17:25:17.905676 24483 net.cpp:454] inception_4c/output <- inception_4c/1x1
I1105 17:25:17.905681 24483 net.cpp:454] inception_4c/output <- inception_4c/3x3
I1105 17:25:17.905686 24483 net.cpp:454] inception_4c/output <- inception_4c/5x5
I1105 17:25:17.905691 24483 net.cpp:454] inception_4c/output <- inception_4c/pool_proj
I1105 17:25:17.905699 24483 net.cpp:411] inception_4c/output -> inception_4c/output
I1105 17:25:17.905721 24483 net.cpp:150] Setting up inception_4c/output
I1105 17:25:17.905731 24483 net.cpp:157] Top shape: 50 512 14 14 (5017600)
I1105 17:25:17.905735 24483 net.cpp:165] Memory required for data: 2234652208
I1105 17:25:17.905740 24483 layer_factory.hpp:76] Creating layer inception_4c/output_inception_4c/output_0_split
I1105 17:25:17.905748 24483 net.cpp:106] Creating Layer inception_4c/output_inception_4c/output_0_split
I1105 17:25:17.905753 24483 net.cpp:454] inception_4c/output_inception_4c/output_0_split <- inception_4c/output
I1105 17:25:17.905760 24483 net.cpp:411] inception_4c/output_inception_4c/output_0_split -> inception_4c/output_inception_4c/output_0_split_0
I1105 17:25:17.905768 24483 net.cpp:411] inception_4c/output_inception_4c/output_0_split -> inception_4c/output_inception_4c/output_0_split_1
I1105 17:25:17.905776 24483 net.cpp:411] inception_4c/output_inception_4c/output_0_split -> inception_4c/output_inception_4c/output_0_split_2
I1105 17:25:17.905809 24483 net.cpp:411] inception_4c/output_inception_4c/output_0_split -> inception_4c/output_inception_4c/output_0_split_3
I1105 17:25:17.905892 24483 net.cpp:150] Setting up inception_4c/output_inception_4c/output_0_split
I1105 17:25:17.905900 24483 net.cpp:157] Top shape: 50 512 14 14 (5017600)
I1105 17:25:17.905913 24483 net.cpp:157] Top shape: 50 512 14 14 (5017600)
I1105 17:25:17.905918 24483 net.cpp:157] Top shape: 50 512 14 14 (5017600)
I1105 17:25:17.905923 24483 net.cpp:157] Top shape: 50 512 14 14 (5017600)
I1105 17:25:17.905927 24483 net.cpp:165] Memory required for data: 2314933808
I1105 17:25:17.905931 24483 layer_factory.hpp:76] Creating layer inception_4d/1x1
I1105 17:25:17.905939 24483 net.cpp:106] Creating Layer inception_4d/1x1
I1105 17:25:17.905952 24483 net.cpp:454] inception_4d/1x1 <- inception_4c/output_inception_4c/output_0_split_0
I1105 17:25:17.905961 24483 net.cpp:411] inception_4d/1x1 -> inception_4d/1x1
I1105 17:25:17.907399 24483 cudnn_conv_layer.cpp:194] Reallocating workspace storage: 10080
I1105 17:25:17.907433 24483 net.cpp:150] Setting up inception_4d/1x1
I1105 17:25:17.907441 24483 net.cpp:157] Top shape: 50 112 14 14 (1097600)
I1105 17:25:17.907445 24483 net.cpp:165] Memory required for data: 2319324208
I1105 17:25:17.907452 24483 layer_factory.hpp:76] Creating layer inception_4d/prelu_1x1
I1105 17:25:17.907460 24483 net.cpp:106] Creating Layer inception_4d/prelu_1x1
I1105 17:25:17.907465 24483 net.cpp:454] inception_4d/prelu_1x1 <- inception_4d/1x1
I1105 17:25:17.907474 24483 net.cpp:397] inception_4d/prelu_1x1 -> inception_4d/1x1 (in-place)
I1105 17:25:17.907562 24483 net.cpp:150] Setting up inception_4d/prelu_1x1
I1105 17:25:17.907572 24483 net.cpp:157] Top shape: 50 112 14 14 (1097600)
I1105 17:25:17.907577 24483 net.cpp:165] Memory required for data: 2323714608
I1105 17:25:17.907582 24483 layer_factory.hpp:76] Creating layer inception_4d/3x3_reduce
I1105 17:25:17.907593 24483 net.cpp:106] Creating Layer inception_4d/3x3_reduce
I1105 17:25:17.907598 24483 net.cpp:454] inception_4d/3x3_reduce <- inception_4c/output_inception_4c/output_0_split_1
I1105 17:25:17.907604 24483 net.cpp:411] inception_4d/3x3_reduce -> inception_4d/3x3_reduce
I1105 17:25:17.909132 24483 cudnn_conv_layer.cpp:194] Reallocating workspace storage: 10080
I1105 17:25:17.909165 24483 net.cpp:150] Setting up inception_4d/3x3_reduce
I1105 17:25:17.909176 24483 net.cpp:157] Top shape: 50 144 14 14 (1411200)
I1105 17:25:17.909181 24483 net.cpp:165] Memory required for data: 2329359408
I1105 17:25:17.909188 24483 layer_factory.hpp:76] Creating layer inception_4d/prelu_3x3_reduce
I1105 17:25:17.909198 24483 net.cpp:106] Creating Layer inception_4d/prelu_3x3_reduce
I1105 17:25:17.909204 24483 net.cpp:454] inception_4d/prelu_3x3_reduce <- inception_4d/3x3_reduce
I1105 17:25:17.909210 24483 net.cpp:397] inception_4d/prelu_3x3_reduce -> inception_4d/3x3_reduce (in-place)
I1105 17:25:17.909309 24483 net.cpp:150] Setting up inception_4d/prelu_3x3_reduce
I1105 17:25:17.909319 24483 net.cpp:157] Top shape: 50 144 14 14 (1411200)
I1105 17:25:17.909323 24483 net.cpp:165] Memory required for data: 2335004208
I1105 17:25:17.909329 24483 layer_factory.hpp:76] Creating layer inception_4d/3x3
I1105 17:25:17.909338 24483 net.cpp:106] Creating Layer inception_4d/3x3
I1105 17:25:17.909343 24483 net.cpp:454] inception_4d/3x3 <- inception_4d/3x3_reduce
I1105 17:25:17.909351 24483 net.cpp:411] inception_4d/3x3 -> inception_4d/3x3
I1105 17:25:17.913492 24483 cudnn_conv_layer.cpp:194] Reallocating workspace storage: 10080
I1105 17:25:17.913553 24483 net.cpp:150] Setting up inception_4d/3x3
I1105 17:25:17.913566 24483 net.cpp:157] Top shape: 50 288 14 14 (2822400)
I1105 17:25:17.913571 24483 net.cpp:165] Memory required for data: 2346293808
I1105 17:25:17.913583 24483 layer_factory.hpp:76] Creating layer inception_4d/prelu_3x3
I1105 17:25:17.913596 24483 net.cpp:106] Creating Layer inception_4d/prelu_3x3
I1105 17:25:17.913604 24483 net.cpp:454] inception_4d/prelu_3x3 <- inception_4d/3x3
I1105 17:25:17.913633 24483 net.cpp:397] inception_4d/prelu_3x3 -> inception_4d/3x3 (in-place)
I1105 17:25:17.914314 24483 net.cpp:150] Setting up inception_4d/prelu_3x3
I1105 17:25:17.914331 24483 net.cpp:157] Top shape: 50 288 14 14 (2822400)
I1105 17:25:17.914336 24483 net.cpp:165] Memory required for data: 2357583408
I1105 17:25:17.914343 24483 layer_factory.hpp:76] Creating layer inception_4d/5x5_reduce
I1105 17:25:17.914357 24483 net.cpp:106] Creating Layer inception_4d/5x5_reduce
I1105 17:25:17.914365 24483 net.cpp:454] inception_4d/5x5_reduce <- inception_4c/output_inception_4c/output_0_split_2
I1105 17:25:17.914372 24483 net.cpp:411] inception_4d/5x5_reduce -> inception_4d/5x5_reduce
I1105 17:25:17.915853 24483 cudnn_conv_layer.cpp:194] Reallocating workspace storage: 10080
I1105 17:25:17.915891 24483 net.cpp:150] Setting up inception_4d/5x5_reduce
I1105 17:25:17.915899 24483 net.cpp:157] Top shape: 50 32 14 14 (313600)
I1105 17:25:17.915904 24483 net.cpp:165] Memory required for data: 2358837808
I1105 17:25:17.915922 24483 layer_factory.hpp:76] Creating layer inception_4d/prelu_5x5_reduce
I1105 17:25:17.915932 24483 net.cpp:106] Creating Layer inception_4d/prelu_5x5_reduce
I1105 17:25:17.915938 24483 net.cpp:454] inception_4d/prelu_5x5_reduce <- inception_4d/5x5_reduce
I1105 17:25:17.915945 24483 net.cpp:397] inception_4d/prelu_5x5_reduce -> inception_4d/5x5_reduce (in-place)
I1105 17:25:17.916043 24483 net.cpp:150] Setting up inception_4d/prelu_5x5_reduce
I1105 17:25:17.916054 24483 net.cpp:157] Top shape: 50 32 14 14 (313600)
I1105 17:25:17.916057 24483 net.cpp:165] Memory required for data: 2360092208
I1105 17:25:17.916074 24483 layer_factory.hpp:76] Creating layer inception_4d/5x5
I1105 17:25:17.916085 24483 net.cpp:106] Creating Layer inception_4d/5x5
I1105 17:25:17.916090 24483 net.cpp:454] inception_4d/5x5 <- inception_4d/5x5_reduce
I1105 17:25:17.916096 24483 net.cpp:411] inception_4d/5x5 -> inception_4d/5x5
I1105 17:25:17.917515 24483 cudnn_conv_layer.cpp:194] Reallocating workspace storage: 13080
I1105 17:25:17.917553 24483 net.cpp:150] Setting up inception_4d/5x5
I1105 17:25:17.917562 24483 net.cpp:157] Top shape: 50 64 14 14 (627200)
I1105 17:25:17.917567 24483 net.cpp:165] Memory required for data: 2362601008
I1105 17:25:17.917574 24483 layer_factory.hpp:76] Creating layer inception_4d/prelu_5x5
I1105 17:25:17.917584 24483 net.cpp:106] Creating Layer inception_4d/prelu_5x5
I1105 17:25:17.917590 24483 net.cpp:454] inception_4d/prelu_5x5 <- inception_4d/5x5
I1105 17:25:17.917608 24483 net.cpp:397] inception_4d/prelu_5x5 -> inception_4d/5x5 (in-place)
I1105 17:25:17.917716 24483 net.cpp:150] Setting up inception_4d/prelu_5x5
I1105 17:25:17.917726 24483 net.cpp:157] Top shape: 50 64 14 14 (627200)
I1105 17:25:17.917731 24483 net.cpp:165] Memory required for data: 2365109808
I1105 17:25:17.917737 24483 layer_factory.hpp:76] Creating layer inception_4d/pool
I1105 17:25:17.917745 24483 net.cpp:106] Creating Layer inception_4d/pool
I1105 17:25:17.917752 24483 net.cpp:454] inception_4d/pool <- inception_4c/output_inception_4c/output_0_split_3
I1105 17:25:17.917758 24483 net.cpp:411] inception_4d/pool -> inception_4d/pool
I1105 17:25:17.918177 24483 net.cpp:150] Setting up inception_4d/pool
I1105 17:25:17.918190 24483 net.cpp:157] Top shape: 50 512 14 14 (5017600)
I1105 17:25:17.918195 24483 net.cpp:165] Memory required for data: 2385180208
I1105 17:25:17.918200 24483 layer_factory.hpp:76] Creating layer inception_4d/pool_proj
I1105 17:25:17.918208 24483 net.cpp:106] Creating Layer inception_4d/pool_proj
I1105 17:25:17.918215 24483 net.cpp:454] inception_4d/pool_proj <- inception_4d/pool
I1105 17:25:17.918222 24483 net.cpp:411] inception_4d/pool_proj -> inception_4d/pool_proj
I1105 17:25:17.919517 24483 cudnn_conv_layer.cpp:194] Reallocating workspace storage: 10080
I1105 17:25:17.919554 24483 net.cpp:150] Setting up inception_4d/pool_proj
I1105 17:25:17.919562 24483 net.cpp:157] Top shape: 50 64 14 14 (627200)
I1105 17:25:17.919567 24483 net.cpp:165] Memory required for data: 2387689008
I1105 17:25:17.919574 24483 layer_factory.hpp:76] Creating layer inception_4d/prelu_pool_proj
I1105 17:25:17.919597 24483 net.cpp:106] Creating Layer inception_4d/prelu_pool_proj
I1105 17:25:17.919605 24483 net.cpp:454] inception_4d/prelu_pool_proj <- inception_4d/pool_proj
I1105 17:25:17.919610 24483 net.cpp:397] inception_4d/prelu_pool_proj -> inception_4d/pool_proj (in-place)
I1105 17:25:17.919697 24483 net.cpp:150] Setting up inception_4d/prelu_pool_proj
I1105 17:25:17.919706 24483 net.cpp:157] Top shape: 50 64 14 14 (627200)
I1105 17:25:17.919710 24483 net.cpp:165] Memory required for data: 2390197808
I1105 17:25:17.919716 24483 layer_factory.hpp:76] Creating layer inception_4d/output
I1105 17:25:17.919723 24483 net.cpp:106] Creating Layer inception_4d/output
I1105 17:25:17.919728 24483 net.cpp:454] inception_4d/output <- inception_4d/1x1
I1105 17:25:17.919734 24483 net.cpp:454] inception_4d/output <- inception_4d/3x3
I1105 17:25:17.919739 24483 net.cpp:454] inception_4d/output <- inception_4d/5x5
I1105 17:25:17.919742 24483 net.cpp:454] inception_4d/output <- inception_4d/pool_proj
I1105 17:25:17.919751 24483 net.cpp:411] inception_4d/output -> inception_4d/output
I1105 17:25:17.919783 24483 net.cpp:150] Setting up inception_4d/output
I1105 17:25:17.919802 24483 net.cpp:157] Top shape: 50 528 14 14 (5174400)
I1105 17:25:17.919807 24483 net.cpp:165] Memory required for data: 2410895408
I1105 17:25:17.919819 24483 layer_factory.hpp:76] Creating layer inception_4d/output_inception_4d/output_0_split
I1105 17:25:17.919827 24483 net.cpp:106] Creating Layer inception_4d/output_inception_4d/output_0_split
I1105 17:25:17.919832 24483 net.cpp:454] inception_4d/output_inception_4d/output_0_split <- inception_4d/output
I1105 17:25:17.919838 24483 net.cpp:411] inception_4d/output_inception_4d/output_0_split -> inception_4d/output_inception_4d/output_0_split_0
I1105 17:25:17.919845 24483 net.cpp:411] inception_4d/output_inception_4d/output_0_split -> inception_4d/output_inception_4d/output_0_split_1
I1105 17:25:17.919852 24483 net.cpp:411] inception_4d/output_inception_4d/output_0_split -> inception_4d/output_inception_4d/output_0_split_2
I1105 17:25:17.919862 24483 net.cpp:411] inception_4d/output_inception_4d/output_0_split -> inception_4d/output_inception_4d/output_0_split_3
I1105 17:25:17.919870 24483 net.cpp:411] inception_4d/output_inception_4d/output_0_split -> inception_4d/output_inception_4d/output_0_split_4
I1105 17:25:17.919939 24483 net.cpp:150] Setting up inception_4d/output_inception_4d/output_0_split
I1105 17:25:17.919947 24483 net.cpp:157] Top shape: 50 528 14 14 (5174400)
I1105 17:25:17.919952 24483 net.cpp:157] Top shape: 50 528 14 14 (5174400)
I1105 17:25:17.919957 24483 net.cpp:157] Top shape: 50 528 14 14 (5174400)
I1105 17:25:17.919962 24483 net.cpp:157] Top shape: 50 528 14 14 (5174400)
I1105 17:25:17.919967 24483 net.cpp:157] Top shape: 50 528 14 14 (5174400)
I1105 17:25:17.919971 24483 net.cpp:165] Memory required for data: 2514383408
I1105 17:25:17.919975 24483 layer_factory.hpp:76] Creating layer loss2/ave_pool
I1105 17:25:17.919983 24483 net.cpp:106] Creating Layer loss2/ave_pool
I1105 17:25:17.919996 24483 net.cpp:454] loss2/ave_pool <- inception_4d/output_inception_4d/output_0_split_0
I1105 17:25:17.920002 24483 net.cpp:411] loss2/ave_pool -> loss2/ave_pool
I1105 17:25:17.920210 24483 net.cpp:150] Setting up loss2/ave_pool
I1105 17:25:17.920220 24483 net.cpp:157] Top shape: 50 528 4 4 (422400)
I1105 17:25:17.920224 24483 net.cpp:165] Memory required for data: 2516073008
I1105 17:25:17.920228 24483 layer_factory.hpp:76] Creating layer loss2/conv
I1105 17:25:17.920238 24483 net.cpp:106] Creating Layer loss2/conv
I1105 17:25:17.920243 24483 net.cpp:454] loss2/conv <- loss2/ave_pool
I1105 17:25:17.920251 24483 net.cpp:411] loss2/conv -> loss2/conv
I1105 17:25:17.921794 24483 cudnn_conv_layer.cpp:194] Reallocating workspace storage: 6840
I1105 17:25:17.921828 24483 net.cpp:150] Setting up loss2/conv
I1105 17:25:17.921836 24483 net.cpp:157] Top shape: 50 128 4 4 (102400)
I1105 17:25:17.921840 24483 net.cpp:165] Memory required for data: 2516482608
I1105 17:25:17.921860 24483 layer_factory.hpp:76] Creating layer loss2/prelu_conv
I1105 17:25:17.921869 24483 net.cpp:106] Creating Layer loss2/prelu_conv
I1105 17:25:17.921875 24483 net.cpp:454] loss2/prelu_conv <- loss2/conv
I1105 17:25:17.921882 24483 net.cpp:397] loss2/prelu_conv -> loss2/conv (in-place)
I1105 17:25:17.921980 24483 net.cpp:150] Setting up loss2/prelu_conv
I1105 17:25:17.921990 24483 net.cpp:157] Top shape: 50 128 4 4 (102400)
I1105 17:25:17.921994 24483 net.cpp:165] Memory required for data: 2516892208
I1105 17:25:17.922000 24483 layer_factory.hpp:76] Creating layer loss2/fc
I1105 17:25:17.922009 24483 net.cpp:106] Creating Layer loss2/fc
I1105 17:25:17.922015 24483 net.cpp:454] loss2/fc <- loss2/conv
I1105 17:25:17.922022 24483 net.cpp:411] loss2/fc -> loss2/fc
I1105 17:25:17.937026 24483 net.cpp:150] Setting up loss2/fc
I1105 17:25:17.937086 24483 net.cpp:157] Top shape: 50 1024 (51200)
I1105 17:25:17.937100 24483 net.cpp:165] Memory required for data: 2517097008
I1105 17:25:17.937139 24483 layer_factory.hpp:76] Creating layer loss2/prelu_fc
I1105 17:25:17.937155 24483 net.cpp:106] Creating Layer loss2/prelu_fc
I1105 17:25:17.937181 24483 net.cpp:454] loss2/prelu_fc <- loss2/fc
I1105 17:25:17.937193 24483 net.cpp:397] loss2/prelu_fc -> loss2/fc (in-place)
I1105 17:25:17.937319 24483 net.cpp:150] Setting up loss2/prelu_fc
I1105 17:25:17.937327 24483 net.cpp:157] Top shape: 50 1024 (51200)
I1105 17:25:17.937331 24483 net.cpp:165] Memory required for data: 2517301808
I1105 17:25:17.937345 24483 layer_factory.hpp:76] Creating layer loss2/drop_fc
I1105 17:25:17.937355 24483 net.cpp:106] Creating Layer loss2/drop_fc
I1105 17:25:17.937360 24483 net.cpp:454] loss2/drop_fc <- loss2/fc
I1105 17:25:17.937364 24483 net.cpp:397] loss2/drop_fc -> loss2/fc (in-place)
I1105 17:25:17.937396 24483 net.cpp:150] Setting up loss2/drop_fc
I1105 17:25:17.937404 24483 net.cpp:157] Top shape: 50 1024 (51200)
I1105 17:25:17.937408 24483 net.cpp:165] Memory required for data: 2517506608
I1105 17:25:17.937412 24483 layer_factory.hpp:76] Creating layer loss2/classifier2
I1105 17:25:17.937423 24483 net.cpp:106] Creating Layer loss2/classifier2
I1105 17:25:17.937428 24483 net.cpp:454] loss2/classifier2 <- loss2/fc
I1105 17:25:17.937436 24483 net.cpp:411] loss2/classifier2 -> loss2/classifier
I1105 17:25:17.937589 24483 net.cpp:150] Setting up loss2/classifier2
I1105 17:25:17.937598 24483 net.cpp:157] Top shape: 50 2 (100)
I1105 17:25:17.937602 24483 net.cpp:165] Memory required for data: 2517507008
I1105 17:25:17.937618 24483 layer_factory.hpp:76] Creating layer loss2/classifier_loss2/classifier2_0_split
I1105 17:25:17.937624 24483 net.cpp:106] Creating Layer loss2/classifier_loss2/classifier2_0_split
I1105 17:25:17.937628 24483 net.cpp:454] loss2/classifier_loss2/classifier2_0_split <- loss2/classifier
I1105 17:25:17.937634 24483 net.cpp:411] loss2/classifier_loss2/classifier2_0_split -> loss2/classifier_loss2/classifier2_0_split_0
I1105 17:25:17.937650 24483 net.cpp:411] loss2/classifier_loss2/classifier2_0_split -> loss2/classifier_loss2/classifier2_0_split_1
I1105 17:25:17.937700 24483 net.cpp:150] Setting up loss2/classifier_loss2/classifier2_0_split
I1105 17:25:17.937708 24483 net.cpp:157] Top shape: 50 2 (100)
I1105 17:25:17.937721 24483 net.cpp:157] Top shape: 50 2 (100)
I1105 17:25:17.937726 24483 net.cpp:165] Memory required for data: 2517507808
I1105 17:25:17.937731 24483 layer_factory.hpp:76] Creating layer loss2/loss
I1105 17:25:17.937736 24483 net.cpp:106] Creating Layer loss2/loss
I1105 17:25:17.937741 24483 net.cpp:454] loss2/loss <- loss2/classifier_loss2/classifier2_0_split_0
I1105 17:25:17.937747 24483 net.cpp:454] loss2/loss <- label_data_1_split_2
…
I1105 17:25:17.938527 24483 net.cpp:165] Memory required for data: 2517507816
I1105 17:25:17.938531 24483 layer_factory.hpp:76] Creating layer inception_4e/1x1
I1105 17:25:17.938544 24483 net.cpp:106] Creating Layer inception_4e/1x1
I1105 17:25:17.938550 24483 net.cpp:454] inception_4e/1x1 <- inception_4d/output_inception_4d/output_0_split_1
I1105 17:25:17.938558 24483 net.cpp:411] inception_4e/1x1 -> inception_4e/1x1
I1105 17:25:17.940737 24483 cudnn_conv_layer.cpp:194] Reallocating workspace storage: 10080
I1105 17:25:17.940779 24483 net.cpp:150] Setting up inception_4e/1x1
I1105 17:25:17.940788 24483 net.cpp:157] Top shape: 50 256 14 14 (2508800)
I1105 17:25:17.940793 24483 net.cpp:165] Memory required for data: 2527543016
I1105 17:25:17.940800 24483 layer_factory.hpp:76] Creating layer inception_4e/prelu_1x1
I1105 17:25:17.940809 24483 net.cpp:106] Creating Layer inception_4e/prelu_1x1
I1105 17:25:17.940814 24483 net.cpp:454] inception_4e/prelu_1x1 <- inception_4e/1x1
I1105 17:25:17.940822 24483 net.cpp:397] inception_4e/prelu_1x1 -> inception_4e/1x1 (in-place)
I1105 17:25:17.940948 24483 net.cpp:150] Setting up inception_4e/prelu_1x1
I1105 17:25:17.940959 24483 net.cpp:157] Top shape: 50 256 14 14 (2508800)
I1105 17:25:17.940964 24483 net.cpp:165] Memory required for data: 2537578216
I1105 17:25:17.940970 24483 layer_factory.hpp:76] Creating layer inception_4e/3x3_reduce
I1105 17:25:17.940979 24483 net.cpp:106] Creating Layer inception_4e/3x3_reduce
I1105 17:25:17.940984 24483 net.cpp:454] inception_4e/3x3_reduce <- inception_4d/output_inception_4d/output_0_split_2
I1105 17:25:17.940991 24483 net.cpp:411] inception_4e/3x3_reduce -> inception_4e/3x3_reduce
I1105 17:25:17.942780 24483 cudnn_conv_layer.cpp:194] Reallocating workspace storage: 10080
I1105 17:25:17.942836 24483 net.cpp:150] Setting up inception_4e/3x3_reduce
I1105 17:25:17.942845 24483 net.cpp:157] Top shape: 50 160 14 14 (1568000)
I1105 17:25:17.942850 24483 net.cpp:165] Memory required for data: 2543850216
I1105 17:25:17.942859 24483 layer_factory.hpp:76] Creating layer inception_4e/prelu_3x3_reduce
I1105 17:25:17.942872 24483 net.cpp:106] Creating Layer inception_4e/prelu_3x3_reduce
I1105 17:25:17.942878 24483 net.cpp:454] inception_4e/prelu_3x3_reduce <- inception_4e/3x3_reduce
I1105 17:25:17.942885 24483 net.cpp:397] inception_4e/prelu_3x3_reduce -> inception_4e/3x3_reduce (in-place)
I1105 17:25:17.943009 24483 net.cpp:150] Setting up inception_4e/prelu_3x3_reduce
I1105 17:25:17.943019 24483 net.cpp:157] Top shape: 50 160 14 14 (1568000)
I1105 17:25:17.943033 24483 net.cpp:165] Memory required for data: 2550122216
I1105 17:25:17.943040 24483 layer_factory.hpp:76] Creating layer inception_4e/3x3
I1105 17:25:17.943066 24483 net.cpp:106] Creating Layer inception_4e/3x3
I1105 17:25:17.943071 24483 net.cpp:454] inception_4e/3x3 <- inception_4e/3x3_reduce
I1105 17:25:17.943079 24483 net.cpp:411] inception_4e/3x3 -> inception_4e/3x3
I1105 17:25:17.947703 24483 cudnn_conv_layer.cpp:194] Reallocating workspace storage: 10080
I1105 17:25:17.947774 24483 net.cpp:150] Setting up inception_4e/3x3
I1105 17:25:17.947787 24483 net.cpp:157] Top shape: 50 320 14 14 (3136000)
I1105 17:25:17.947792 24483 net.cpp:165] Memory required for data: 2562666216
I1105 17:25:17.947803 24483 layer_factory.hpp:76] Creating layer inception_4e/prelu_3x3
I1105 17:25:17.947815 24483 net.cpp:106] Creating Layer inception_4e/prelu_3x3
I1105 17:25:17.947824 24483 net.cpp:454] inception_4e/prelu_3x3 <- inception_4e/3x3
I1105 17:25:17.947837 24483 net.cpp:397] inception_4e/prelu_3x3 -> inception_4e/3x3 (in-place)
I1105 17:25:17.948519 24483 net.cpp:150] Setting up inception_4e/prelu_3x3
I1105 17:25:17.948539 24483 net.cpp:157] Top shape: 50 320 14 14 (3136000)
I1105 17:25:17.948554 24483 net.cpp:165] Memory required for data: 2575210216
I1105 17:25:17.948561 24483 layer_factory.hpp:76] Creating layer inception_4e/5x5_reduce
I1105 17:25:17.948575 24483 net.cpp:106] Creating Layer inception_4e/5x5_reduce
I1105 17:25:17.948581 24483 net.cpp:454] inception_4e/5x5_reduce <- inception_4d/output_inception_4d/output_0_split_3
I1105 17:25:17.948592 24483 net.cpp:411] inception_4e/5x5_reduce -> inception_4e/5x5_reduce
I1105 17:25:17.949935 24483 cudnn_conv_layer.cpp:194] Reallocating workspace storage: 10080
I1105 17:25:17.949986 24483 net.cpp:150] Setting up inception_4e/5x5_reduce
I1105 17:25:17.950006 24483 net.cpp:157] Top shape: 50 32 14 14 (313600)
I1105 17:25:17.950012 24483 net.cpp:165] Memory required for data: 2576464616
I1105 17:25:17.950021 24483 layer_factory.hpp:76] Creating layer inception_4e/prelu_5x5_reduce
I1105 17:25:17.950031 24483 net.cpp:106] Creating Layer inception_4e/prelu_5x5_reduce
I1105 17:25:17.950037 24483 net.cpp:454] inception_4e/prelu_5x5_reduce <- inception_4e/5x5_reduce
I1105 17:25:17.950043 24483 net.cpp:397] inception_4e/prelu_5x5_reduce -> inception_4e/5x5_reduce (in-place)
I1105 17:25:17.950160 24483 net.cpp:150] Setting up inception_4e/prelu_5x5_reduce
I1105 17:25:17.950170 24483 net.cpp:157] Top shape: 50 32 14 14 (313600)
I1105 17:25:17.950175 24483 net.cpp:165] Memory required for data: 2577719016
I1105 17:25:17.950191 24483 layer_factory.hpp:76] Creating layer inception_4e/5x5
I1105 17:25:17.950201 24483 net.cpp:106] Creating Layer inception_4e/5x5
I1105 17:25:17.950206 24483 net.cpp:454] inception_4e/5x5 <- inception_4e/5x5_reduce
I1105 17:25:17.950213 24483 net.cpp:411] inception_4e/5x5 -> inception_4e/5x5
I1105 17:25:17.952482 24483 cudnn_conv_layer.cpp:194] Reallocating workspace storage: 13080
I1105 17:25:17.952522 24483 net.cpp:150] Setting up inception_4e/5x5
I1105 17:25:17.952530 24483 net.cpp:157] Top shape: 50 128 14 14 (1254400)
I1105 17:25:17.952535 24483 net.cpp:165] Memory required for data: 2582736616
I1105 17:25:17.952543 24483 layer_factory.hpp:76] Creating layer inception_4e/prelu_5x5
I1105 17:25:17.952554 24483 net.cpp:106] Creating Layer inception_4e/prelu_5x5
I1105 17:25:17.952560 24483 net.cpp:454] inception_4e/prelu_5x5 <- inception_4e/5x5
I1105 17:25:17.952580 24483 net.cpp:397] inception_4e/prelu_5x5 -> inception_4e/5x5 (in-place)
I1105 17:25:17.952687 24483 net.cpp:150] Setting up inception_4e/prelu_5x5
I1105 17:25:17.952697 24483 net.cpp:157] Top shape: 50 128 14 14 (1254400)
I1105 17:25:17.952700 24483 net.cpp:165] Memory required for data: 2587754216
I1105 17:25:17.952707 24483 layer_factory.hpp:76] Creating layer inception_4e/pool
I1105 17:25:17.952715 24483 net.cpp:106] Creating Layer inception_4e/pool
I1105 17:25:17.952719 24483 net.cpp:454] inception_4e/pool <- inception_4d/output_inception_4d/output_0_split_4
I1105 17:25:17.952728 24483 net.cpp:411] inception_4e/pool -> inception_4e/pool
I1105 17:25:17.952952 24483 net.cpp:150] Setting up inception_4e/pool
I1105 17:25:17.952962 24483 net.cpp:157] Top shape: 50 528 14 14 (5174400)
I1105 17:25:17.952966 24483 net.cpp:165] Memory required for data: 2608451816
I1105 17:25:17.952971 24483 layer_factory.hpp:76] Creating layer inception_4e/pool_proj
I1105 17:25:17.952981 24483 net.cpp:106] Creating Layer inception_4e/pool_proj
I1105 17:25:17.952986 24483 net.cpp:454] inception_4e/pool_proj <- inception_4e/pool
I1105 17:25:17.952993 24483 net.cpp:411] inception_4e/pool_proj -> inception_4e/pool_proj
I1105 17:25:17.954666 24483 cudnn_conv_layer.cpp:194] Reallocating workspace storage: 10080
I1105 17:25:17.954715 24483 net.cpp:150] Setting up inception_4e/pool_proj
I1105 17:25:17.954723 24483 net.cpp:157] Top shape: 50 128 14 14 (1254400)
I1105 17:25:17.954727 24483 net.cpp:165] Memory required for data: 2613469416
I1105 17:25:17.954735 24483 layer_factory.hpp:76] Creating layer inception_4e/prelu_pool_proj
I1105 17:25:17.954763 24483 net.cpp:106] Creating Layer inception_4e/prelu_pool_proj
I1105 17:25:17.954769 24483 net.cpp:454] inception_4e/prelu_pool_proj <- inception_4e/pool_proj
I1105 17:25:17.954777 24483 net.cpp:397] inception_4e/prelu_pool_proj -> inception_4e/pool_proj (in-place)
I1105 17:25:17.954874 24483 net.cpp:150] Setting up inception_4e/prelu_pool_proj
I1105 17:25:17.954884 24483 net.cpp:157] Top shape: 50 128 14 14 (1254400)
I1105 17:25:17.954895 24483 net.cpp:165] Memory required for data: 2618487016
I1105 17:25:17.954902 24483 layer_factory.hpp:76] Creating layer inception_4e/output
I1105 17:25:17.954910 24483 net.cpp:106] Creating Layer inception_4e/output
I1105 17:25:17.954916 24483 net.cpp:454] inception_4e/output <- inception_4e/1x1
I1105 17:25:17.954921 24483 net.cpp:454] inception_4e/output <- inception_4e/3x3
I1105 17:25:17.954926 24483 net.cpp:454] inception_4e/output <- inception_4e/5x5
I1105 17:25:17.954931 24483 net.cpp:454] inception_4e/output <- inception_4e/pool_proj
I1105 17:25:17.954937 24483 net.cpp:411] inception_4e/output -> inception_4e/output
I1105 17:25:17.954962 24483 net.cpp:150] Setting up inception_4e/output
I1105 17:25:17.954972 24483 net.cpp:157] Top shape: 50 832 14 14 (8153600)
I1105 17:25:17.954977 24483 net.cpp:165] Memory required for data: 2651101416
I1105 17:25:17.954980 24483 layer_factory.hpp:76] Creating layer pool4/3x3_s2
I1105 17:25:17.954988 24483 net.cpp:106] Creating Layer pool4/3x3_s2
I1105 17:25:17.954993 24483 net.cpp:454] pool4/3x3_s2 <- inception_4e/output
I1105 17:25:17.954999 24483 net.cpp:411] pool4/3x3_s2 -> pool4/3x3_s2
I1105 17:25:17.955215 24483 net.cpp:150] Setting up pool4/3x3_s2
I1105 17:25:17.955225 24483 net.cpp:157] Top shape: 50 832 7 7 (2038400)
I1105 17:25:17.955237 24483 net.cpp:165] Memory required for data: 2659255016
I1105 17:25:17.955243 24483 layer_factory.hpp:76] Creating layer pool4/3x3_s2_pool4/3x3_s2_0_split
I1105 17:25:17.955250 24483 net.cpp:106] Creating Layer pool4/3x3_s2_pool4/3x3_s2_0_split
I1105 17:25:17.955255 24483 net.cpp:454] pool4/3x3_s2_pool4/3x3_s2_0_split <- pool4/3x3_s2
I1105 17:25:17.955261 24483 net.cpp:411] pool4/3x3_s2_pool4/3x3_s2_0_split -> pool4/3x3_s2_pool4/3x3_s2_0_split_0
I1105 17:25:17.955271 24483 net.cpp:411] pool4/3x3_s2_pool4/3x3_s2_0_split -> pool4/3x3_s2_pool4/3x3_s2_0_split_1
I1105 17:25:17.955277 24483 net.cpp:411] pool4/3x3_s2_pool4/3x3_s2_0_split -> pool4/3x3_s2_pool4/3x3_s2_0_split_2
I1105 17:25:17.955284 24483 net.cpp:411] pool4/3x3_s2_pool4/3x3_s2_0_split -> pool4/3x3_s2_pool4/3x3_s2_0_split_3
I1105 17:25:17.955348 24483 net.cpp:150] Setting up pool4/3x3_s2_pool4/3x3_s2_0_split
I1105 17:25:17.955358 24483 net.cpp:157] Top shape: 50 832 7 7 (2038400)
I1105 17:25:17.955370 24483 net.cpp:157] Top shape: 50 832 7 7 (2038400)
I1105 17:25:17.955376 24483 net.cpp:157] Top shape: 50 832 7 7 (2038400)
I1105 17:25:17.955381 24483 net.cpp:157] Top shape: 50 832 7 7 (2038400)
I1105 17:25:17.955385 24483 net.cpp:165] Memory required for data: 2691869416
I1105 17:25:17.955389 24483 layer_factory.hpp:76] Creating layer inception_5a/1x1
I1105 17:25:17.955399 24483 net.cpp:106] Creating Layer inception_5a/1x1
I1105 17:25:17.955404 24483 net.cpp:454] inception_5a/1x1 <- pool4/3x3_s2_pool4/3x3_s2_0_split_0
I1105 17:25:17.955411 24483 net.cpp:411] inception_5a/1x1 -> inception_5a/1x1
I1105 17:25:17.958214 24483 cudnn_conv_layer.cpp:194] Reallocating workspace storage: 7428
I1105 17:25:17.958252 24483 net.cpp:150] Setting up inception_5a/1x1
I1105 17:25:17.958261 24483 net.cpp:157] Top shape: 50 256 7 7 (627200)
I1105 17:25:17.958266 24483 net.cpp:165] Memory required for data: 2694378216
I1105 17:25:17.958272 24483 layer_factory.hpp:76] Creating layer inception_5a/prelu_1x1
I1105 17:25:17.958281 24483 net.cpp:106] Creating Layer inception_5a/prelu_1x1
I1105 17:25:17.958295 24483 net.cpp:454] inception_5a/prelu_1x1 <- inception_5a/1x1
I1105 17:25:17.958304 24483 net.cpp:397] inception_5a/prelu_1x1 -> inception_5a/1x1 (in-place)
I1105 17:25:17.958407 24483 net.cpp:150] Setting up inception_5a/prelu_1x1
I1105 17:25:17.958426 24483 net.cpp:157] Top shape: 50 256 7 7 (627200)
I1105 17:25:17.958431 24483 net.cpp:165] Memory required for data: 2696887016
I1105 17:25:17.958437 24483 layer_factory.hpp:76] Creating layer inception_5a/3x3_reduce
I1105 17:25:17.958446 24483 net.cpp:106] Creating Layer inception_5a/3x3_reduce
I1105 17:25:17.958451 24483 net.cpp:454] inception_5a/3x3_reduce <- pool4/3x3_s2_pool4/3x3_s2_0_split_1
I1105 17:25:17.958459 24483 net.cpp:411] inception_5a/3x3_reduce -> inception_5a/3x3_reduce
I1105 17:25:17.960773 24483 cudnn_conv_layer.cpp:194] Reallocating workspace storage: 7428
I1105 17:25:17.960819 24483 net.cpp:150] Setting up inception_5a/3x3_reduce
I1105 17:25:17.960837 24483 net.cpp:157] Top shape: 50 160 7 7 (392000)
I1105 17:25:17.960842 24483 net.cpp:165] Memory required for data: 2698455016
I1105 17:25:17.960850 24483 layer_factory.hpp:76] Creating layer inception_5a/prelu_3x3_reduce
I1105 17:25:17.960860 24483 net.cpp:106] Creating Layer inception_5a/prelu_3x3_reduce
I1105 17:25:17.960865 24483 net.cpp:454] inception_5a/prelu_3x3_reduce <- inception_5a/3x3_reduce
I1105 17:25:17.960871 24483 net.cpp:397] inception_5a/prelu_3x3_reduce -> inception_5a/3x3_reduce (in-place)
I1105 17:25:17.960990 24483 net.cpp:150] Setting up inception_5a/prelu_3x3_reduce
I1105 17:25:17.960999 24483 net.cpp:157] Top shape: 50 160 7 7 (392000)
I1105 17:25:17.961011 24483 net.cpp:165] Memory required for data: 2700023016
I1105 17:25:17.961017 24483 layer_factory.hpp:76] Creating layer inception_5a/3x3
I1105 17:25:17.961026 24483 net.cpp:106] Creating Layer inception_5a/3x3
I1105 17:25:17.961032 24483 net.cpp:454] inception_5a/3x3 <- inception_5a/3x3_reduce
I1105 17:25:17.961047 24483 net.cpp:411] inception_5a/3x3 -> inception_5a/3x3
I1105 17:25:17.965446 24483 cudnn_conv_layer.cpp:194] Reallocating workspace storage: 7788
I1105 17:25:17.965484 24483 net.cpp:150] Setting up inception_5a/3x3
I1105 17:25:17.965493 24483 net.cpp:157] Top shape: 50 320 7 7 (784000)
I1105 17:25:17.965499 24483 net.cpp:165] Memory required for data: 2703159016
I1105 17:25:17.965515 24483 layer_factory.hpp:76] Creating layer inception_5a/prelu_3x3
I1105 17:25:17.965524 24483 net.cpp:106] Creating Layer inception_5a/prelu_3x3
I1105 17:25:17.965529 24483 net.cpp:454] inception_5a/prelu_3x3 <- inception_5a/3x3
I1105 17:25:17.965536 24483 net.cpp:397] inception_5a/prelu_3x3 -> inception_5a/3x3 (in-place)
I1105 17:25:17.965662 24483 net.cpp:150] Setting up inception_5a/prelu_3x3
I1105 17:25:17.965672 24483 net.cpp:157] Top shape: 50 320 7 7 (784000)
I1105 17:25:17.965677 24483 net.cpp:165] Memory required for data: 2706295016
I1105 17:25:17.965682 24483 layer_factory.hpp:76] Creating layer inception_5a/5x5_reduce
I1105 17:25:17.965690 24483 net.cpp:106] Creating Layer inception_5a/5x5_reduce
I1105 17:25:17.965697 24483 net.cpp:454] inception_5a/5x5_reduce <- pool4/3x3_s2_pool4/3x3_s2_0_split_2
I1105 17:25:17.965704 24483 net.cpp:411] inception_5a/5x5_reduce -> inception_5a/5x5_reduce
I1105 17:25:17.967003 24483 cudnn_conv_layer.cpp:194] Reallocating workspace storage: 7428
I1105 17:25:17.967038 24483 net.cpp:150] Setting up inception_5a/5x5_reduce
I1105 17:25:17.967046 24483 net.cpp:157] Top shape: 50 32 7 7 (78400)
I1105 17:25:17.967051 24483 net.cpp:165] Memory required for data: 2706608616
I1105 17:25:17.967067 24483 layer_factory.hpp:76] Creating layer inception_5a/prelu_5x5_reduce
I1105 17:25:17.967077 24483 net.cpp:106] Creating Layer inception_5a/prelu_5x5_reduce
I1105 17:25:17.967082 24483 net.cpp:454] inception_5a/prelu_5x5_reduce <- inception_5a/5x5_reduce
I1105 17:25:17.967088 24483 net.cpp:397] inception_5a/prelu_5x5_reduce -> inception_5a/5x5_reduce (in-place)
I1105 17:25:17.967198 24483 net.cpp:150] Setting up inception_5a/prelu_5x5_reduce
I1105 17:25:17.967208 24483 net.cpp:157] Top shape: 50 32 7 7 (78400)
I1105 17:25:17.967212 24483 net.cpp:165] Memory required for data: 2706922216
I1105 17:25:17.967218 24483 layer_factory.hpp:76] Creating layer inception_5a/5x5
I1105 17:25:17.967241 24483 net.cpp:106] Creating Layer inception_5a/5x5
I1105 17:25:17.967254 24483 net.cpp:454] inception_5a/5x5 <- inception_5a/5x5_reduce
I1105 17:25:17.967263 24483 net.cpp:411] inception_5a/5x5 -> inception_5a/5x5
I1105 17:25:17.968773 24483 cudnn_conv_layer.cpp:194] Reallocating workspace storage: 9804
I1105 17:25:17.968806 24483 net.cpp:150] Setting up inception_5a/5x5
I1105 17:25:17.968814 24483 net.cpp:157] Top shape: 50 128 7 7 (313600)
I1105 17:25:17.968818 24483 net.cpp:165] Memory required for data: 2708176616
I1105 17:25:17.968833 24483 layer_factory.hpp:76] Creating layer inception_5a/prelu_5x5
I1105 17:25:17.968843 24483 net.cpp:106] Creating Layer inception_5a/prelu_5x5
I1105 17:25:17.968848 24483 net.cpp:454] inception_5a/prelu_5x5 <- inception_5a/5x5
I1105 17:25:17.968855 24483 net.cpp:397] inception_5a/prelu_5x5 -> inception_5a/5x5 (in-place)
I1105 17:25:17.968974 24483 net.cpp:150] Setting up inception_5a/prelu_5x5
I1105 17:25:17.968983 24483 net.cpp:157] Top shape: 50 128 7 7 (313600)
I1105 17:25:17.968988 24483 net.cpp:165] Memory required for data: 2709431016
I1105 17:25:17.968993 24483 layer_factory.hpp:76] Creating layer inception_5a/pool
I1105 17:25:17.969002 24483 net.cpp:106] Creating Layer inception_5a/pool
I1105 17:25:17.969007 24483 net.cpp:454] inception_5a/pool <- pool4/3x3_s2_pool4/3x3_s2_0_split_3
I1105 17:25:17.969013 24483 net.cpp:411] inception_5a/pool -> inception_5a/pool
I1105 17:25:17.969449 24483 net.cpp:150] Setting up inception_5a/pool
I1105 17:25:17.969461 24483 net.cpp:157] Top shape: 50 832 7 7 (2038400)
I1105 17:25:17.969466 24483 net.cpp:165] Memory required for data: 2717584616
I1105 17:25:17.969471 24483 layer_factory.hpp:76] Creating layer inception_5a/pool_proj
I1105 17:25:17.969481 24483 net.cpp:106] Creating Layer inception_5a/pool_proj
I1105 17:25:17.969486 24483 net.cpp:454] inception_5a/pool_proj <- inception_5a/pool
I1105 17:25:17.969496 24483 net.cpp:411] inception_5a/pool_proj -> inception_5a/pool_proj
I1105 17:25:17.971745 24483 cudnn_conv_layer.cpp:194] Reallocating workspace storage: 7428
I1105 17:25:17.971788 24483 net.cpp:150] Setting up inception_5a/pool_proj
I1105 17:25:17.971798 24483 net.cpp:157] Top shape: 50 128 7 7 (313600)
I1105 17:25:17.971803 24483 net.cpp:165] Memory required for data: 2718839016
I1105 17:25:17.971812 24483 layer_factory.hpp:76] Creating layer inception_5a/prelu_pool_proj
I1105 17:25:17.971820 24483 net.cpp:106] Creating Layer inception_5a/prelu_pool_proj
I1105 17:25:17.971827 24483 net.cpp:454] inception_5a/prelu_pool_proj <- inception_5a/pool_proj
I1105 17:25:17.971834 24483 net.cpp:397] inception_5a/prelu_pool_proj -> inception_5a/pool_proj (in-place)
I1105 17:25:17.971935 24483 net.cpp:150] Setting up inception_5a/prelu_pool_proj
I1105 17:25:17.971951 24483 net.cpp:157] Top shape: 50 128 7 7 (313600)
I1105 17:25:17.971956 24483 net.cpp:165] Memory required for data: 2720093416
I1105 17:25:17.971961 24483 layer_factory.hpp:76] Creating layer inception_5a/output
I1105 17:25:17.971972 24483 net.cpp:106] Creating Layer inception_5a/output
I1105 17:25:17.971977 24483 net.cpp:454] inception_5a/output <- inception_5a/1x1
I1105 17:25:17.971983 24483 net.cpp:454] inception_5a/output <- inception_5a/3x3
I1105 17:25:17.971988 24483 net.cpp:454] inception_5a/output <- inception_5a/5x5
I1105 17:25:17.971995 24483 net.cpp:454] inception_5a/output <- inception_5a/pool_proj
I1105 17:25:17.972002 24483 net.cpp:411] inception_5a/output -> inception_5a/output
I1105 17:25:17.972030 24483 net.cpp:150] Setting up inception_5a/output
I1105 17:25:17.972064 24483 net.cpp:157] Top shape: 50 832 7 7 (2038400)
I1105 17:25:17.972079 24483 net.cpp:165] Memory required for data: 2728247016
I1105 17:25:17.972084 24483 layer_factory.hpp:76] Creating layer inception_5a/output_inception_5a/output_0_split
I1105 17:25:17.972092 24483 net.cpp:106] Creating Layer inception_5a/output_inception_5a/output_0_split
I1105 17:25:17.972098 24483 net.cpp:454] inception_5a/output_inception_5a/output_0_split <- inception_5a/output
I1105 17:25:17.972105 24483 net.cpp:411] inception_5a/output_inception_5a/output_0_split -> inception_5a/output_inception_5a/output_0_split_0
I1105 17:25:17.972126 24483 net.cpp:411] inception_5a/output_inception_5a/output_0_split -> inception_5a/output_inception_5a/output_0_split_1
I1105 17:25:17.972133 24483 net.cpp:411] inception_5a/output_inception_5a/output_0_split -> inception_5a/output_inception_5a/output_0_split_2
I1105 17:25:17.972141 24483 net.cpp:411] inception_5a/output_inception_5a/output_0_split -> inception_5a/output_inception_5a/output_0_split_3
I1105 17:25:17.972221 24483 net.cpp:150] Setting up inception_5a/output_inception_5a/output_0_split
I1105 17:25:17.972230 24483 net.cpp:157] Top shape: 50 832 7 7 (2038400)
I1105 17:25:17.972235 24483 net.cpp:157] Top shape: 50 832 7 7 (2038400)
I1105 17:25:17.972240 24483 net.cpp:157] Top shape: 50 832 7 7 (2038400)
I1105 17:25:17.972245 24483 net.cpp:157] Top shape: 50 832 7 7 (2038400)
I1105 17:25:17.972249 24483 net.cpp:165] Memory required for data: 2760861416
I1105 17:25:17.972254 24483 layer_factory.hpp:76] Creating layer inception_5b/1x1
I1105 17:25:17.972264 24483 net.cpp:106] Creating Layer inception_5b/1x1
I1105 17:25:17.972280 24483 net.cpp:454] inception_5b/1x1 <- inception_5a/output_inception_5a/output_0_split_0
I1105 17:25:17.972286 24483 net.cpp:411] inception_5b/1x1 -> inception_5b/1x1
I1105 17:25:17.976115 24483 cudnn_conv_layer.cpp:194] Reallocating workspace storage: 7428
I1105 17:25:17.976174 24483 net.cpp:150] Setting up inception_5b/1x1
I1105 17:25:17.976186 24483 net.cpp:157] Top shape: 50 384 7 7 (940800)
I1105 17:25:17.976191 24483 net.cpp:165] Memory required for data: 2764624616
I1105 17:25:17.976199 24483 layer_factory.hpp:76] Creating layer inception_5b/prelu_1x1
I1105 17:25:17.976212 24483 net.cpp:106] Creating Layer inception_5b/prelu_1x1
I1105 17:25:17.976223 24483 net.cpp:454] inception_5b/prelu_1x1 <- inception_5b/1x1
I1105 17:25:17.976233 24483 net.cpp:397] inception_5b/prelu_1x1 -> inception_5b/1x1 (in-place)
I1105 17:25:17.976356 24483 net.cpp:150] Setting up inception_5b/prelu_1x1
I1105 17:25:17.976366 24483 net.cpp:157] Top shape: 50 384 7 7 (940800)
I1105 17:25:17.976371 24483 net.cpp:165] Memory required for data: 2768387816
I1105 17:25:17.976377 24483 layer_factory.hpp:76] Creating layer inception_5b/3x3_reduce
I1105 17:25:17.976388 24483 net.cpp:106] Creating Layer inception_5b/3x3_reduce
I1105 17:25:17.976393 24483 net.cpp:454] inception_5b/3x3_reduce <- inception_5a/output_inception_5a/output_0_split_1
I1105 17:25:17.976402 24483 net.cpp:411] inception_5b/3x3_reduce -> inception_5b/3x3_reduce
I1105 17:25:17.978834 24483 cudnn_conv_layer.cpp:194] Reallocating workspace storage: 7428
I1105 17:25:17.978878 24483 net.cpp:150] Setting up inception_5b/3x3_reduce
I1105 17:25:17.978886 24483 net.cpp:157] Top shape: 50 192 7 7 (470400)
I1105 17:25:17.978890 24483 net.cpp:165] Memory required for data: 2770269416
I1105 17:25:17.978899 24483 layer_factory.hpp:76] Creating layer inception_5b/prelu_3x3_reduce
I1105 17:25:17.978912 24483 net.cpp:106] Creating Layer inception_5b/prelu_3x3_reduce
I1105 17:25:17.978919 24483 net.cpp:454] inception_5b/prelu_3x3_reduce <- inception_5b/3x3_reduce
I1105 17:25:17.978926 24483 net.cpp:397] inception_5b/prelu_3x3_reduce -> inception_5b/3x3_reduce (in-place)
I1105 17:25:17.979023 24483 net.cpp:150] Setting up inception_5b/prelu_3x3_reduce
I1105 17:25:17.979032 24483 net.cpp:157] Top shape: 50 192 7 7 (470400)
I1105 17:25:17.979037 24483 net.cpp:165] Memory required for data: 2772151016
I1105 17:25:17.979043 24483 layer_factory.hpp:76] Creating layer inception_5b/3x3
I1105 17:25:17.979053 24483 net.cpp:106] Creating Layer inception_5b/3x3
I1105 17:25:17.979058 24483 net.cpp:454] inception_5b/3x3 <- inception_5b/3x3_reduce
I1105 17:25:17.979065 24483 net.cpp:411] inception_5b/3x3 -> inception_5b/3x3
I1105 17:25:17.984848 24483 cudnn_conv_layer.cpp:194] Reallocating workspace storage: 7788
I1105 17:25:17.984904 24483 net.cpp:150] Setting up inception_5b/3x3
I1105 17:25:17.984915 24483 net.cpp:157] Top shape: 50 384 7 7 (940800)
I1105 17:25:17.984943 24483 net.cpp:165] Memory required for data: 2775914216
I1105 17:25:17.984952 24483 layer_factory.hpp:76] Creating layer inception_5b/prelu_3x3
I1105 17:25:17.984963 24483 net.cpp:106] Creating Layer inception_5b/prelu_3x3
I1105 17:25:17.984969 24483 net.cpp:454] inception_5b/prelu_3x3 <- inception_5b/3x3
I1105 17:25:17.984977 24483 net.cpp:397] inception_5b/prelu_3x3 -> inception_5b/3x3 (in-place)
I1105 17:25:17.985136 24483 net.cpp:150] Setting up inception_5b/prelu_3x3
I1105 17:25:17.985146 24483 net.cpp:157] Top shape: 50 384 7 7 (940800)
I1105 17:25:17.985157 24483 net.cpp:165] Memory required for data: 2779677416
I1105 17:25:17.985163 24483 layer_factory.hpp:76] Creating layer inception_5b/5x5_reduce
I1105 17:25:17.985174 24483 net.cpp:106] Creating Layer inception_5b/5x5_reduce
I1105 17:25:17.985179 24483 net.cpp:454] inception_5b/5x5_reduce <- inception_5a/output_inception_5a/output_0_split_2
I1105 17:25:17.985195 24483 net.cpp:411] inception_5b/5x5_reduce -> inception_5b/5x5_reduce
I1105 17:25:17.986729 24483 cudnn_conv_layer.cpp:194] Reallocating workspace storage: 7428
I1105 17:25:17.986764 24483 net.cpp:150] Setting up inception_5b/5x5_reduce
I1105 17:25:17.986773 24483 net.cpp:157] Top shape: 50 48 7 7 (117600)
I1105 17:25:17.986776 24483 net.cpp:165] Memory required for data: 2780147816
I1105 17:25:17.986791 24483 layer_factory.hpp:76] Creating layer inception_5b/prelu_5x5_reduce
I1105 17:25:17.986799 24483 net.cpp:106] Creating Layer inception_5b/prelu_5x5_reduce
I1105 17:25:17.986806 24483 net.cpp:454] inception_5b/prelu_5x5_reduce <- inception_5b/5x5_reduce
I1105 17:25:17.986812 24483 net.cpp:397] inception_5b/prelu_5x5_reduce -> inception_5b/5x5_reduce (in-place)
I1105 17:25:17.986946 24483 net.cpp:150] Setting up inception_5b/prelu_5x5_reduce
I1105 17:25:17.986955 24483 net.cpp:157] Top shape: 50 48 7 7 (117600)
I1105 17:25:17.986959 24483 net.cpp:165] Memory required for data: 2780618216
I1105 17:25:17.986974 24483 layer_factory.hpp:76] Creating layer inception_5b/5x5
I1105 17:25:17.986982 24483 net.cpp:106] Creating Layer inception_5b/5x5
I1105 17:25:17.986987 24483 net.cpp:454] inception_5b/5x5 <- inception_5b/5x5_reduce
I1105 17:25:17.986995 24483 net.cpp:411] inception_5b/5x5 -> inception_5b/5x5
I1105 17:25:17.989012 24483 cudnn_conv_layer.cpp:194] Reallocating workspace storage: 9804
I1105 17:25:17.989056 24483 net.cpp:150] Setting up inception_5b/5x5
I1105 17:25:17.989064 24483 net.cpp:157] Top shape: 50 128 7 7 (313600)
I1105 17:25:17.989073 24483 net.cpp:165] Memory required for data: 2781872616
I1105 17:25:17.989089 24483 layer_factory.hpp:76] Creating layer inception_5b/prelu_5x5
I1105 17:25:17.989097 24483 net.cpp:106] Creating Layer inception_5b/prelu_5x5
I1105 17:25:17.989102 24483 net.cpp:454] inception_5b/prelu_5x5 <- inception_5b/5x5
I1105 17:25:17.989115 24483 net.cpp:397] inception_5b/prelu_5x5 -> inception_5b/5x5 (in-place)
I1105 17:25:17.989229 24483 net.cpp:150] Setting up inception_5b/prelu_5x5
I1105 17:25:17.989239 24483 net.cpp:157] Top shape: 50 128 7 7 (313600)
I1105 17:25:17.989243 24483 net.cpp:165] Memory required for data: 2783127016
I1105 17:25:17.989256 24483 layer_factory.hpp:76] Creating layer inception_5b/pool
I1105 17:25:17.989264 24483 net.cpp:106] Creating Layer inception_5b/pool
I1105 17:25:17.989269 24483 net.cpp:454] inception_5b/pool <- inception_5a/output_inception_5a/output_0_split_3
I1105 17:25:17.989275 24483 net.cpp:411] inception_5b/pool -> inception_5b/pool
I1105 17:25:17.989500 24483 net.cpp:150] Setting up inception_5b/pool
I1105 17:25:17.989511 24483 net.cpp:157] Top shape: 50 832 7 7 (2038400)
I1105 17:25:17.989522 24483 net.cpp:165] Memory required for data: 2791280616
I1105 17:25:17.989527 24483 layer_factory.hpp:76] Creating layer inception_5b/pool_proj
I1105 17:25:17.989537 24483 net.cpp:106] Creating Layer inception_5b/pool_proj
I1105 17:25:17.989542 24483 net.cpp:454] inception_5b/pool_proj <- inception_5b/pool
I1105 17:25:17.989557 24483 net.cpp:411] inception_5b/pool_proj -> inception_5b/pool_proj
I1105 17:25:17.991750 24483 cudnn_conv_layer.cpp:194] Reallocating workspace storage: 7428
I1105 17:25:17.991796 24483 net.cpp:150] Setting up inception_5b/pool_proj
I1105 17:25:17.991806 24483 net.cpp:157] Top shape: 50 128 7 7 (313600)
I1105 17:25:17.991809 24483 net.cpp:165] Memory required for data: 2792535016
I1105 17:25:17.991825 24483 layer_factory.hpp:76] Creating layer inception_5b/prelu_pool_proj
I1105 17:25:17.991835 24483 net.cpp:106] Creating Layer inception_5b/prelu_pool_proj
I1105 17:25:17.991840 24483 net.cpp:454] inception_5b/prelu_pool_proj <- inception_5b/pool_proj
I1105 17:25:17.991848 24483 net.cpp:397] inception_5b/prelu_pool_proj -> inception_5b/pool_proj (in-place)
I1105 17:25:17.991947 24483 net.cpp:150] Setting up inception_5b/prelu_pool_proj
I1105 17:25:17.991956 24483 net.cpp:157] Top shape: 50 128 7 7 (313600)
I1105 17:25:17.991961 24483 net.cpp:165] Memory required for data: 2793789416
I1105 17:25:17.991966 24483 layer_factory.hpp:76] Creating layer inception_5b/output
I1105 17:25:17.991973 24483 net.cpp:106] Creating Layer inception_5b/output
I1105 17:25:17.991978 24483 net.cpp:454] inception_5b/output <- inception_5b/1x1
I1105 17:25:17.991984 24483 net.cpp:454] inception_5b/output <- inception_5b/3x3
I1105 17:25:17.991988 24483 net.cpp:454] inception_5b/output <- inception_5b/5x5
I1105 17:25:17.991993 24483 net.cpp:454] inception_5b/output <- inception_5b/pool_proj
I1105 17:25:17.992009 24483 net.cpp:411] inception_5b/output -> inception_5b/output
I1105 17:25:17.992038 24483 net.cpp:150] Setting up inception_5b/output
I1105 17:25:17.992046 24483 net.cpp:157] Top shape: 50 1024 7 7 (2508800)
I1105 17:25:17.992059 24483 net.cpp:165] Memory required for data: 2803824616
I1105 17:25:17.992063 24483 layer_factory.hpp:76] Creating layer pool5/7x7_s1
I1105 17:25:17.992070 24483 net.cpp:106] Creating Layer pool5/7x7_s1
I1105 17:25:17.992075 24483 net.cpp:454] pool5/7x7_s1 <- inception_5b/output
I1105 17:25:17.992082 24483 net.cpp:411] pool5/7x7_s1 -> pool5/7x7_s1
I1105 17:25:17.992487 24483 net.cpp:150] Setting up pool5/7x7_s1
I1105 17:25:17.992499 24483 net.cpp:157] Top shape: 50 1024 1 1 (51200)
I1105 17:25:17.992503 24483 net.cpp:165] Memory required for data: 2804029416
I1105 17:25:17.992508 24483 layer_factory.hpp:76] Creating layer pool5/drop_7x7_s1
I1105 17:25:17.992516 24483 net.cpp:106] Creating Layer pool5/drop_7x7_s1
I1105 17:25:17.992519 24483 net.cpp:454] pool5/drop_7x7_s1 <- pool5/7x7_s1
I1105 17:25:17.992527 24483 net.cpp:397] pool5/drop_7x7_s1 -> pool5/7x7_s1 (in-place)
I1105 17:25:17.992561 24483 net.cpp:150] Setting up pool5/drop_7x7_s1
I1105 17:25:17.992568 24483 net.cpp:157] Top shape: 50 1024 1 1 (51200)
I1105 17:25:17.992573 24483 net.cpp:165] Memory required for data: 2804234216
I1105 17:25:17.992578 24483 layer_factory.hpp:76] Creating layer loss3/classifier2
I1105 17:25:17.992594 24483 net.cpp:106] Creating Layer loss3/classifier2
I1105 17:25:17.992599 24483 net.cpp:454] loss3/classifier2 <- pool5/7x7_s1
I1105 17:25:17.992607 24483 net.cpp:411] loss3/classifier2 -> loss3/classifier
I1105 17:25:17.992739 24483 net.cpp:150] Setting up loss3/classifier2
I1105 17:25:17.992749 24483 net.cpp:157] Top shape: 50 2 (100)
I1105 17:25:17.992753 24483 net.cpp:165] Memory required for data: 2804234616
I1105 17:25:17.992760 24483 layer_factory.hpp:76] Creating layer loss3/classifier_loss3/classifier2_0_split
I1105 17:25:17.992766 24483 net.cpp:106] Creating Layer loss3/classifier_loss3/classifier2_0_split
I1105 17:25:17.992771 24483 net.cpp:454] loss3/classifier_loss3/classifier2_0_split <- loss3/classifier
I1105 17:25:17.992777 24483 net.cpp:411] loss3/classifier_loss3/classifier2_0_split -> loss3/classifier_loss3/classifier2_0_split_0
I1105 17:25:17.992784 24483 net.cpp:411] loss3/classifier_loss3/classifier2_0_split -> loss3/classifier_loss3/classifier2_0_split_1
I1105 17:25:17.992832 24483 net.cpp:150] Setting up loss3/classifier_loss3/classifier2_0_split
I1105 17:25:17.992857 24483 net.cpp:157] Top shape: 50 2 (100)
I1105 17:25:17.992863 24483 net.cpp:157] Top shape: 50 2 (100)
I1105 17:25:17.992876 24483 net.cpp:165] Memory required for data: 2804235416
I1105 17:25:17.992887 24483 layer_factory.hpp:76] Creating layer loss3/loss3
I1105 17:25:17.992904 24483 net.cpp:106] Creating Layer loss3/loss3
I1105 17:25:17.992909 24483 net.cpp:454] loss3/loss3 <- loss3/classifier_loss3/classifier2_0_split_0
I1105 17:25:17.992915 24483 net.cpp:454] loss3/loss3 <- label_data_1_split_4
…
