…
I1105 17:35:03.407621 24588 net.cpp:322] The NetState phase (0) differed from the phase (1) specified by a rule in layer loss3/top-1
I1105 17:35:03.408594 24588 net.cpp:49] Initializing net from parameters: 
name: "GoogleNet"
state {
  phase: TRAIN
}
layer {
  name: "data"
  type: "Data"
  top: "data"
  top: "label"
  include {
    phase: TRAIN
  }
  transform_param {
    mirror: true
    crop_size: 224
    mean_value: 104
    mean_value: 117
    mean_value: 123
  }
  data_param {
    source: "../../LMDB/train_5-lmdb"
    batch_size: 32
    backend: LMDB
  }
}
layer {
  name: "conv1/7x7_s2"
  type: "Convolution"
  bottom: "data"
  top: "conv1/7x7_s2"
  param {
    lr_mult: 1
    decay_mult: 1
  }
  param {
    lr_mult: 2
    decay_mult: 0
  }
  convolution_param {
    num_output: 64
    pad: 3
    kernel_size: 7
    stride: 2
    weight_filler {
      type: "xavier"
    }
    bias_filler {
      type: "constant"
      value: 0.2
    }
  }
}
layer {
  name: "conv1/prelu_7x7"
  type: "PReLU"
  bottom: "conv1/7x7_s2"
  top: "conv1/7x7_s2"
  param {
    lr_mult: 1
    decay_mult: 0
  }
  prelu_param {
    filler {
      type: "constant"
      value: 0.01
    }
  }
}
layer {
  name: "pool1/3x3_s2"
  type: "Pooling"
  bottom: "conv1/7x7_s2"
  top: "pool1/3x3_s2"
  pooling_param {
    pool: MAX
    kernel_size: 3
    stride: 2
  }
}
layer {
  name: "pool1/norm1"
  type: "LRN"
  bottom: "pool1/3x3_s2"
  top: "pool1/norm1"
  lrn_param {
    local_size: 5
    alpha: 0.0001
    beta: 0.75
  }
}
layer {
  name: "conv2/3x3_reduce"
  type: "Convolution"
  bottom: "pool1/norm1"
  top: "conv2/3x3_reduce"
  param {
    lr_mult: 1
    decay_mult: 1
  }
  param {
    lr_mult: 2
    decay_mult: 0
  }
  convolution_param {
    num_output: 64
    kernel_size: 1
    weight_filler {
      type: "xavier"
    }
    bias_filler {
      type: "constant"
      value: 0.2
    }
  }
}
layer {
  name: "conv2/prelu_3x3_reduce"
  type: "PReLU"
  bottom: "conv2/3x3_reduce"
  top: "conv2/3x3_reduce"
  param {
    lr_mult: 1
    decay_mult: 0
  }
  prelu_param {
    filler {
      type: "constant"
      value: 0.01
    }
  }
}
layer {
  name: "conv2/3x3"
  type: "Convolution"
  bottom: "conv2/3x3_reduce"
  top: "conv2/3x3"
  param {
    lr_mult: 1
    decay_mult: 1
  }
  param {
    lr_mult: 2
    decay_mult: 0
  }
  convolution_param {
    num_output: 192
    pad: 1
    kernel_size: 3
    weight_filler {
      type: "xavier"
    }
    bias_filler {
      type: "constant"
      value: 0.2
    }
  }
}
layer {
  name: "conv2/prelu_3x3"
  type: "PReLU"
  bottom: "conv2/3x3"
  top: "conv2/3x3"
  param {
    lr_mult: 1
    decay_mult: 0
  }
  prelu_param {
    filler {
      type: "constant"
      value: 0.01
    }
  }
}
layer {
  name: "conv2/norm2"
  type: "LRN"
  bottom: "conv2/3x3"
  top: "conv2/norm2"
  lrn_param {
    local_size: 5
    alpha: 0.0001
    beta: 0.75
  }
}
layer {
  name: "pool2/3x3_s2"
  type: "Pooling"
  bottom: "conv2/norm2"
  top: "pool2/3x3_s2"
  pooling_param {
    pool: MAX
    kernel_size: 3
    stride: 2
  }
}
layer {
  name: "inception_3a/1x1"
  type: "Convolution"
  bottom: "pool2/3x3_s2"
  top: "inception_3a/1x1"
  param {
    lr_mult: 1
    decay_mult: 1
  }
  param {
    lr_mult: 2
    decay_mult: 0
  }
  convolution_param {
    num_output: 64
    kernel_size: 1
    weight_filler {
      type: "xavier"
    }
    bias_filler {
      type: "constant"
      value: 0.2
    }
  }
}
layer {
  name: "inception_3a/prelu_1x1"
  type: "PReLU"
  bottom: "inception_3a/1x1"
  top: "inception_3a/1x1"
  param {
    lr_mult: 1
    decay_mult: 0
  }
  prelu_param {
    filler {
      type: "constant"
      value: 0.01
    }
  }
}
layer {
  name: "inception_3a/3x3_reduce"
  type: "Convolution"
  bottom: "pool2/3x3_s2"
  top: "inception_3a/3x3_reduce"
  param {
    lr_mult: 1
    decay_mult: 1
  }
  param {
    lr_mult: 2
    decay_mult: 0
  }
  convolution_param {
    num_output: 96
    kernel_size: 1
    weight_filler {
      type: "xavier"
    }
    bias_filler {
      type: "constant"
      value: 0.2
    }
  }
}
layer {
  name: "inception_3a/prelu_3x3_reduce"
  type: "PReLU"
  bottom: "inception_3a/3x3_reduce"
  top: "inception_3a/3x3_reduce"
  param {
    lr_mult: 1
    decay_mult: 0
  }
  prelu_param {
    filler {
      type: "constant"
      value: 0.01
    }
  }
}
layer {
  name: "inception_3a/3x3"
  type: "Convolution"
  bottom: "inception_3a/3x3_reduce"
  top: "inception_3a/3x3"
  param {
    lr_mult: 1
    decay_mult: 1
  }
  param {
    lr_mult: 2
    decay_mult: 0
  }
  convolution_param {
    num_output: 128
    pad: 1
    kernel_size: 3
    weight_filler {
      type: "xavier"
    }
    bias_filler {
      type: "constant"
      value: 0.2
    }
  }
}
layer {
  name: "inception_3a/prelu_3x3"
  type: "PReLU"
  bottom: "inception_3a/3x3"
  top: "inception_3a/3x3"
  param {
    lr_mult: 1
    decay_mult: 0
  }
  prelu_param {
    filler {
      type: "constant"
      value: 0.01
    }
  }
}
layer {
  name: "inception_3a/5x5_reduce"
  type: "Convolution"
  bottom: "pool2/3x3_s2"
  top: "inception_3a/5x5_reduce"
  param {
    lr_mult: 1
    decay_mult: 1
  }
  param {
    lr_mult: 2
    decay_mult: 0
  }
  convolution_param {
    num_output: 16
    kernel_size: 1
    weight_filler {
      type: "xavier"
    }
    bias_filler {
      type: "constant"
      value: 0.2
    }
  }
}
layer {
  name: "inception_3a/prelu_5x5_reduce"
  type: "PReLU"
  bottom: "inception_3a/5x5_reduce"
  top: "inception_3a/5x5_reduce"
  param {
    lr_mult: 1
    decay_mult: 0
  }
  prelu_param {
    filler {
      type: "constant"
      value: 0.01
    }
  }
}
layer {
  name: "inception_3a/5x5"
  type: "Convolution"
  bottom: "inception_3a/5x5_reduce"
  top: "inception_3a/5x5"
  param {
    lr_mult: 1
    decay_mult: 1
  }
  param {
    lr_mult: 2
    decay_mult: 0
  }
  convolution_param {
    num_output: 32
    pad: 2
    kernel_size: 5
    weight_filler {
      type: "xavier"
    }
    bias_filler {
      type: "constant"
      value: 0.2
    }
  }
}
layer {
  name: "inception_3a/prelu_5x5"
  type: "PReLU"
  bottom: "inception_3a/5x5"
  top: "inception_3a/5x5"
  param {
    lr_mult: 1
    decay_mult: 0
  }
  prelu_param {
    filler {
      type: "constant"
      value: 0.01
    }
  }
}
layer {
  name: "inception_3a/pool"
  type: "Pooling"
  bottom: "pool2/3x3_s2"
  top: "inception_3a/pool"
  pooling_param {
    pool: MAX
    kernel_size: 3
    stride: 1
    pad: 1
  }
}
layer {
  name: "inception_3a/pool_proj"
  type: "Convolution"
  bottom: "inception_3a/pool"
  top: "inception_3a/pool_proj"
  param {
    lr_mult: 1
    decay_mult: 1
  }
  param {
    lr_mult: 2
    decay_mult: 0
  }
  convolution_param {
    num_output: 32
    kernel_size: 1
    weight_filler {
      type: "xavier"
    }
    bias_filler {
      type: "constant"
      value: 0.2
    }
  }
}
layer {
  name: "inception_3a/prelu_pool_proj"
  type: "PReLU"
  bottom: "inception_3a/pool_proj"
  top: "inception_3a/pool_proj"
  param {
    lr_mult: 1
    decay_mult: 0
  }
  prelu_param {
    filler {
      type: "constant"
      value: 0.01
    }
  }
}
layer {
  name: "inception_3a/output"
  type: "Concat"
  bottom: "inception_3a/1x1"
  bottom: "inception_3a/3x3"
  bottom: "inception_3a/5x5"
  bottom: "inception_3a/pool_proj"
  top: "inception_3a/output"
}
layer {
  name: "inception_3b/1x1"
  type: "Convolution"
  bottom: "inception_3a/output"
  top: "inception_3b/1x1"
  param {
    lr_mult: 1
    decay_mult: 1
  }
  param {
    lr_mult: 2
    decay_mult: 0
  }
  convolution_param {
    num_output: 128
    kernel_size: 1
    weight_filler {
      type: "xavier"
    }
    bias_filler {
      type: "constant"
      value: 0.2
    }
  }
}
layer {
  name: "inception_3b/prelu_1x1"
  type: "PReLU"
  bottom: "inception_3b/1x1"
  top: "inception_3b/1x1"
  param {
    lr_mult: 1
    decay_mult: 0
  }
  prelu_param {
    filler {
      type: "constant"
      value: 0.01
    }
  }
}
layer {
  name: "inception_3b/3x3_reduce"
  type: "Convolution"
  bottom: "inception_3a/output"
  top: "inception_3b/3x3_reduce"
  param {
    lr_mult: 1
    decay_mult: 1
  }
  param {
    lr_mult: 2
    decay_mult: 0
  }
  convolution_param {
    num_output: 128
    kernel_size: 1
    weight_filler {
      type: "xavier"
    }
    bias_filler {
      type: "constant"
      value: 0.2
    }
  }
}
layer {
  name: "inception_3b/prelu_3x3_reduce"
  type: "PReLU"
  bottom: "inception_3b/3x3_reduce"
  top: "inception_3b/3x3_reduce"
  param {
    lr_mult: 1
    decay_mult: 0
  }
  prelu_param {
    filler {
      type: "constant"
      value: 0.01
    }
  }
}
layer {
  name: "inception_3b/3x3"
  type: "Convolution"
  bottom: "inception_3b/3x3_reduce"
  top: "inception_3b/3x3"
  param {
    lr_mult: 1
    decay_mult: 1
  }
  param {
    lr_mult: 2
    decay_mult: 0
  }
  convolution_param {
    num_output: 192
    pad: 1
    kernel_size: 3
    weight_filler {
      type: "xavier"
    }
    bias_filler {
      type: "constant"
      value: 0.2
    }
  }
}
layer {
  name: "inception_3b/prelu_3x3"
  type: "PReLU"
  bottom: "inception_3b/3x3"
  top: "inception_3b/3x3"
  param {
    lr_mult: 1
    decay_mult: 0
  }
  prelu_param {
    filler {
      type: "constant"
      value: 0.01
    }
  }
}
layer {
  name: "inception_3b/5x5_reduce"
  type: "Convolution"
  bottom: "inception_3a/output"
  top: "inception_3b/5x5_reduce"
  param {
    lr_mult: 1
    decay_mult: 1
  }
  param {
    lr_mult: 2
    decay_mult: 0
  }
  convolution_param {
    num_output: 32
    kernel_size: 1
    weight_filler {
      type: "xavier"
    }
    bias_filler {
      type: "constant"
      value: 0.2
    }
  }
}
layer {
  name: "inception_3b/prelu_5x5_reduce"
  type: "PReLU"
  bottom: "inception_3b/5x5_reduce"
  top: "inception_3b/5x5_reduce"
  param {
    lr_mult: 1
    decay_mult: 0
  }
  prelu_param {
    filler {
      type: "constant"
      value: 0.01
    }
  }
}
layer {
  name: "inception_3b/5x5"
  type: "Convolution"
  bottom: "inception_3b/5x5_reduce"
  top: "inception_3b/5x5"
  param {
    lr_mult: 1
    decay_mult: 1
  }
  param {
    lr_mult: 2
    decay_mult: 0
  }
  convolution_param {
    num_output: 96
    pad: 2
    kernel_size: 5
    weight_filler {
      type: "xavier"
    }
    bias_filler {
      type: "constant"
      value: 0.2
    }
  }
}
layer {
  name: "inception_3b/prelu_5x5"
  type: "PReLU"
  bottom: "inception_3b/5x5"
  top: "inception_3b/5x5"
  param {
    lr_mult: 1
    decay_mult: 0
  }
  prelu_param {
    filler {
      type: "constant"
      value: 0.01
    }
  }
}
layer {
  name: "inception_3b/pool"
  type: "Pooling"
  bottom: "inception_3a/output"
  top: "inception_3b/pool"
  pooling_param {
    pool: MAX
    kernel_size: 3
    stride: 1
    pad: 1
  }
}
layer {
  name: "inception_3b/pool_proj"
  type: "Convolution"
  bottom: "inception_3b/pool"
  top: "inception_3b/pool_proj"
  param {
    lr_mult: 1
    decay_mult: 1
  }
  param {
    lr_mult: 2
    decay_mult: 0
  }
  convolution_param {
    num_output: 64
    kernel_size: 1
    weight_filler {
      type: "xavier"
    }
    bias_filler {
      type: "constant"
      value: 0.2
    }
  }
}
layer {
  name: "inception_3b/prelu_pool_proj"
  type: "PReLU"
  bottom: "inception_3b/pool_proj"
  top: "inception_3b/pool_proj"
  param {
    lr_mult: 1
    decay_mult: 0
  }
  prelu_param {
    filler {
      type: "constant"
      value: 0.01
    }
  }
}
layer {
  name: "inception_3b/output"
  type: "Concat"
  bottom: "inception_3b/1x1"
  bottom: "inception_3b/3x3"
  bottom: "inception_3b/5x5"
  bottom: "inception_3b/pool_proj"
  top: "inception_3b/output"
}
layer {
  name: "pool3/3x3_s2"
  type: "Pooling"
  bottom: "inception_3b/output"
  top: "pool3/3x3_s2"
  pooling_param {
    pool: MAX
    kernel_size: 3
    stride: 2
  }
}
layer {
  name: "inception_4a/1x1"
  type: "Convolution"
  bottom: "pool3/3x3_s2"
  top: "inception_4a/1x1"
  param {
    lr_mult: 1
    decay_mult: 1
  }
  param {
    lr_mult: 2
    decay_mult: 0
  }
  convolution_param {
    num_output: 192
    kernel_size: 1
    weight_filler {
      type: "xavier"
    }
    bias_filler {
      type: "constant"
      value: 0.2
    }
  }
}
layer {
  name: "inception_4a/prelu_1x1"
  type: "PReLU"
  bottom: "inception_4a/1x1"
  top: "inception_4a/1x1"
  param {
    lr_mult: 1
    decay_mult: 0
  }
  prelu_param {
    filler {
      type: "constant"
      value: 0.01
    }
  }
}
layer {
  name: "inception_4a/3x3_reduce"
  type: "Convolution"
  bottom: "pool3/3x3_s2"
  top: "inception_4a/3x3_reduce"
  param {
    lr_mult: 1
    decay_mult: 1
  }
  param {
    lr_mult: 2
    decay_mult: 0
  }
  convolution_param {
    num_output: 96
    kernel_size: 1
    weight_filler {
      type: "xavier"
    }
    bias_filler {
      type: "constant"
      value: 0.2
    }
  }
}
layer {
  name: "inception_4a/prelu_3x3_reduce"
  type: "PReLU"
  bottom: "inception_4a/3x3_reduce"
  top: "inception_4a/3x3_reduce"
  param {
    lr_mult: 1
    decay_mult: 0
  }
  prelu_param {
    filler {
      type: "constant"
      value: 0.01
    }
  }
}
layer {
  name: "inception_4a/3x3"
  type: "Convolution"
  bottom: "inception_4a/3x3_reduce"
  top: "inception_4a/3x3"
  param {
    lr_mult: 1
    decay_mult: 1
  }
  param {
    lr_mult: 2
    decay_mult: 0
  }
  convolution_param {
    num_output: 208
    pad: 1
    kernel_size: 3
    weight_filler {
      type: "xavier"
    }
    bias_filler {
      type: "constant"
      value: 0.2
    }
  }
}
layer {
  name: "inception_4a/prelu_3x3"
  type: "PReLU"
  bottom: "inception_4a/3x3"
  top: "inception_4a/3x3"
  param {
    lr_mult: 1
    decay_mult: 0
  }
  prelu_param {
    filler {
      type: "constant"
      value: 0.01
    }
  }
}
layer {
  name: "inception_4a/5x5_reduce"
  type: "Convolution"
  bottom: "pool3/3x3_s2"
  top: "inception_4a/5x5_reduce"
  param {
    lr_mult: 1
    decay_mult: 1
  }
  param {
    lr_mult: 2
    decay_mult: 0
  }
  convolution_param {
    num_output: 16
    kernel_size: 1
    weight_filler {
      type: "xavier"
    }
    bias_filler {
      type: "constant"
      value: 0.2
    }
  }
}
layer {
  name: "inception_4a/prelu_5x5_reduce"
  type: "PReLU"
  bottom: "inception_4a/5x5_reduce"
  top: "inception_4a/5x5_reduce"
  param {
    lr_mult: 1
    decay_mult: 0
  }
  prelu_param {
    filler {
      type: "constant"
      value: 0.01
    }
  }
}
layer {
  name: "inception_4a/5x5"
  type: "Convolution"
  bottom: "inception_4a/5x5_reduce"
  top: "inception_4a/5x5"
  param {
    lr_mult: 1
    decay_mult: 1
  }
  param {
    lr_mult: 2
    decay_mult: 0
  }
  convolution_param {
    num_output: 48
    pad: 2
    kernel_size: 5
    weight_filler {
      type: "xavier"
    }
    bias_filler {
      type: "constant"
      value: 0.2
    }
  }
}
layer {
  name: "inception_4a/prelu_5x5"
  type: "PReLU"
  bottom: "inception_4a/5x5"
  top: "inception_4a/5x5"
  param {
    lr_mult: 1
    decay_mult: 0
  }
  prelu_param {
    filler {
      type: "constant"
      value: 0.01
    }
  }
}
layer {
  name: "inception_4a/pool"
  type: "Pooling"
  bottom: "pool3/3x3_s2"
  top: "inception_4a/pool"
  pooling_param {
    pool: MAX
    kernel_size: 3
    stride: 1
    pad: 1
  }
}
layer {
  name: "inception_4a/pool_proj"
  type: "Convolution"
  bottom: "inception_4a/pool"
  top: "inception_4a/pool_proj"
  param {
    lr_mult: 1
    decay_mult: 1
  }
  param {
    lr_mult: 2
    decay_mult: 0
  }
  convolution_param {
    num_output: 64
    kernel_size: 1
    weight_filler {
      type: "xavier"
    }
    bias_filler {
      type: "constant"
      value: 0.2
    }
  }
}
layer {
  name: "inception_4a/prelu_pool_proj"
  type: "PReLU"
  bottom: "inception_4a/pool_proj"
  top: "inception_4a/pool_proj"
  param {
    lr_mult: 1
    decay_mult: 0
  }
  prelu_param {
    filler {
      type: "constant"
      value: 0.01
    }
  }
}
layer {
  name: "inception_4a/output"
  type: "Concat"
  bottom: "inception_4a/1x1"
  bottom: "inception_4a/3x3"
  bottom: "inception_4a/5x5"
  bottom: "inception_4a/pool_proj"
  top: "inception_4a/output"
}
layer {
  name: "loss1/ave_pool"
  type: "Pooling"
  bottom: "inception_4a/output"
  top: "loss1/ave_pool"
  pooling_param {
    pool: AVE
    kernel_size: 5
    stride: 3
  }
}
layer {
  name: "loss1/conv"
  type: "Convolution"
  bottom: "loss1/ave_pool"
  top: "loss1/conv"
  param {
    lr_mult: 1
    decay_mult: 1
  }
  param {
    lr_mult: 2
    decay_mult: 0
  }
  convolution_param {
    num_output: 128
    kernel_size: 1
    weight_filler {
      type: "xavier"
    }
    bias_filler {
      type: "constant"
      value: 0.2
    }
  }
}
layer {
  name: "loss1/prelu_conv"
  type: "PReLU"
  bottom: "loss1/conv"
  top: "loss1/conv"
  param {
    lr_mult: 1
    decay_mult: 0
  }
  prelu_param {
    filler {
      type: "constant"
      value: 0.01
    }
  }
}
layer {
  name: "loss1/fc"
  type: "InnerProduct"
  bottom: "loss1/conv"
  top: "loss1/fc"
  param {
    lr_mult: 1
    decay_mult: 1
  }
  param {
    lr_mult: 2
    decay_mult: 0
  }
  inner_product_param {
    num_output: 1024
    weight_filler {
      type: "xavier"
    }
    bias_filler {
      type: "constant"
      value: 0.2
    }
  }
}
layer {
  name: "loss1/prelu_fc"
  type: "PReLU"
  bottom: "loss1/fc"
  top: "loss1/fc"
  param {
    lr_mult: 1
    decay_mult: 0
  }
  prelu_param {
    filler {
      type: "constant"
      value: 0.01
    }
  }
}
layer {
  name: "loss1/drop_fc"
  type: "Dropout"
  bottom: "loss1/fc"
  top: "loss1/fc"
  dropout_param {
    dropout_ratio: 0.7
  }
}
layer {
  name: "loss1/classifier2"
  type: "InnerProduct"
  bottom: "loss1/fc"
  top: "loss1/classifier"
  param {
    lr_mult: 1
    decay_mult: 1
  }
  param {
    lr_mult: 2
    decay_mult: 0
  }
  inner_product_param {
    num_output: 2
    weight_filler {
      type: "xavier"
    }
    bias_filler {
      type: "constant"
      value: 0
    }
  }
}
layer {
  name: "loss1/loss"
  type: "SoftmaxWithLoss"
  bottom: "loss1/classifier"
  bottom: "label"
  top: "loss1/loss1"
  loss_weight: 0.3
}
layer {
  name: "inception_4b/1x1"
  type: "Convolution"
  bottom: "inception_4a/output"
  top: "inception_4b/1x1"
  param {
    lr_mult: 1
    decay_mult: 1
  }
  param {
    lr_mult: 2
    decay_mult: 0
  }
  convolution_param {
    num_output: 160
    kernel_size: 1
    weight_filler {
      type: "xavier"
    }
    bias_filler {
      type: "constant"
      value: 0.2
    }
  }
}
layer {
  name: "inception_4b/prelu_1x1"
  type: "PReLU"
  bottom: "inception_4b/1x1"
  top: "inception_4b/1x1"
  param {
    lr_mult: 1
    decay_mult: 0
  }
  prelu_param {
    filler {
      type: "constant"
      value: 0.01
    }
  }
}
layer {
  name: "inception_4b/3x3_reduce"
  type: "Convolution"
  bottom: "inception_4a/output"
  top: "inception_4b/3x3_reduce"
  param {
    lr_mult: 1
    decay_mult: 1
  }
  param {
    lr_mult: 2
    decay_mult: 0
  }
  convolution_param {
    num_output: 112
    kernel_size: 1
    weight_filler {
      type: "xavier"
    }
    bias_filler {
      type: "constant"
      value: 0.2
    }
  }
}
layer {
  name: "inception_4b/prelu_3x3_reduce"
  type: "PReLU"
  bottom: "inception_4b/3x3_reduce"
  top: "inception_4b/3x3_reduce"
  param {
    lr_mult: 1
    decay_mult: 0
  }
  prelu_param {
    filler {
      type: "constant"
      value: 0.01
    }
  }
}
layer {
  name: "inception_4b/3x3"
  type: "Convolution"
  bottom: "inception_4b/3x3_reduce"
  top: "inception_4b/3x3"
  param {
    lr_mult: 1
    decay_mult: 1
  }
  param {
    lr_mult: 2
    decay_mult: 0
  }
  convolution_param {
    num_output: 224
    pad: 1
    kernel_size: 3
    weight_filler {
      type: "xavier"
    }
    bias_filler {
      type: "constant"
      value: 0.2
    }
  }
}
layer {
  name: "inception_4b/prelu_3x3"
  type: "PReLU"
  bottom: "inception_4b/3x3"
  top: "inception_4b/3x3"
  param {
    lr_mult: 1
    decay_mult: 0
  }
  prelu_param {
    filler {
      type: "constant"
      value: 0.01
    }
  }
}
layer {
  name: "inception_4b/5x5_reduce"
  type: "Convolution"
  bottom: "inception_4a/output"
  top: "inception_4b/5x5_reduce"
  param {
    lr_mult: 1
    decay_mult: 1
  }
  param {
    lr_mult: 2
    decay_mult: 0
  }
  convolution_param {
    num_output: 24
    kernel_size: 1
    weight_filler {
      type: "xavier"
    }
    bias_filler {
      type: "constant"
      value: 0.2
    }
  }
}
layer {
  name: "inception_4b/prelu_5x5_reduce"
  type: "PReLU"
  bottom: "inception_4b/5x5_reduce"
  top: "inception_4b/5x5_reduce"
  param {
    lr_mult: 1
    decay_mult: 0
  }
  prelu_param {
    filler {
      type: "constant"
      value: 0.01
    }
  }
}
layer {
  name: "inception_4b/5x5"
  type: "Convolution"
  bottom: "inception_4b/5x5_reduce"
  top: "inception_4b/5x5"
  param {
    lr_mult: 1
    decay_mult: 1
  }
  param {
    lr_mult: 2
    decay_mult: 0
  }
  convolution_param {
    num_output: 64
    pad: 2
    kernel_size: 5
    weight_filler {
      type: "xavier"
    }
    bias_filler {
      type: "constant"
      value: 0.2
    }
  }
}
layer {
  name: "inception_4b/prelu_5x5"
  type: "PReLU"
  bottom: "inception_4b/5x5"
  top: "inception_4b/5x5"
  param {
    lr_mult: 1
    decay_mult: 0
  }
  prelu_param {
    filler {
      type: "constant"
      value: 0.01
    }
  }
}
layer {
  name: "inception_4b/pool"
  type: "Pooling"
  bottom: "inception_4a/output"
  top: "inception_4b/pool"
  pooling_param {
    pool: MAX
    kernel_size: 3
    stride: 1
    pad: 1
  }
}
layer {
  name: "inception_4b/pool_proj"
  type: "Convolution"
  bottom: "inception_4b/pool"
  top: "inception_4b/pool_proj"
  param {
    lr_mult: 1
    decay_mult: 1
  }
  param {
    lr_mult: 2
    decay_mult: 0
  }
  convolution_param {
    num_output: 64
    kernel_size: 1
    weight_filler {
      type: "xavier"
    }
    bias_filler {
      type: "constant"
      value: 0.2
    }
  }
}
layer {
  name: "inception_4b/prelu_pool_proj"
  type: "PReLU"
  bottom: "inception_4b/pool_proj"
  top: "inception_4b/pool_proj"
  param {
    lr_mult: 1
    decay_mult: 0
  }
  prelu_param {
    filler {
      type: "constant"
      value: 0.01
    }
  }
}
layer {
  name: "inception_4b/output"
  type: "Concat"
  bottom: "inception_4b/1x1"
  bottom: "inception_4b/3x3"
  bottom: "inception_4b/5x5"
  bottom: "inception_4b/pool_proj"
  top: "inception_4b/output"
}
layer {
  name: "inception_4c/1x1"
  type: "Convolution"
  bottom: "inception_4b/output"
  top: "inception_4c/1x1"
  param {
    lr_mult: 1
    decay_mult: 1
  }
  param {
    lr_mult: 2
    decay_mult: 0
  }
  convolution_param {
    num_output: 128
    kernel_size: 1
    weight_filler {
      type: "xavier"
    }
    bias_filler {
      type: "constant"
      value: 0.2
    }
  }
}
layer {
  name: "inception_4c/prelu_1x1"
  type: "PReLU"
  bottom: "inception_4c/1x1"
  top: "inception_4c/1x1"
  param {
    lr_mult: 1
    decay_mult: 0
  }
  prelu_param {
    filler {
      type: "constant"
      value: 0.01
    }
  }
}
layer {
  name: "inception_4c/3x3_reduce"
  type: "Convolution"
  bottom: "inception_4b/output"
  top: "inception_4c/3x3_reduce"
  param {
    lr_mult: 1
    decay_mult: 1
  }
  param {
    lr_mult: 2
    decay_mult: 0
  }
  convolution_param {
    num_output: 128
    kernel_size: 1
    weight_filler {
      type: "xavier"
    }
    bias_filler {
      type: "constant"
      value: 0.2
    }
  }
}
layer {
  name: "inception_4c/prelu_3x3_reduce"
  type: "PReLU"
  bottom: "inception_4c/3x3_reduce"
  top: "inception_4c/3x3_reduce"
  param {
    lr_mult: 1
    decay_mult: 0
  }
  prelu_param {
    filler {
      type: "constant"
      value: 0.01
    }
  }
}
layer {
  name: "inception_4c/3x3"
  type: "Convolution"
  bottom: "inception_4c/3x3_reduce"
  top: "inception_4c/3x3"
  param {
    lr_mult: 1
    decay_mult: 1
  }
  param {
    lr_mult: 2
    decay_mult: 0
  }
  convolution_param {
    num_output: 256
    pad: 1
    kernel_size: 3
    weight_filler {
      type: "xavier"
    }
    bias_filler {
      type: "constant"
      value: 0.2
    }
  }
}
layer {
  name: "inception_4c/prelu_3x3"
  type: "PReLU"
  bottom: "inception_4c/3x3"
  top: "inception_4c/3x3"
  param {
    lr_mult: 1
    decay_mult: 0
  }
  prelu_param {
    filler {
      type: "constant"
      value: 0.01
    }
  }
}
layer {
  name: "inception_4c/5x5_reduce"
  type: "Convolution"
  bottom: "inception_4b/output"
  top: "inception_4c/5x5_reduce"
  param {
    lr_mult: 1
    decay_mult: 1
  }
  param {
    lr_mult: 2
    decay_mult: 0
  }
  convolution_param {
    num_output: 24
    kernel_size: 1
    weight_filler {
      type: "xavier"
    }
    bias_filler {
      type: "constant"
      value: 0.2
    }
  }
}
layer {
  name: "inception_4c/prelu_5x5_reduce"
  type: "PReLU"
  bottom: "inception_4c/5x5_reduce"
  top: "inception_4c/5x5_reduce"
  param {
    lr_mult: 1
    decay_mult: 0
  }
  prelu_param {
    filler {
      type: "constant"
      value: 0.01
    }
  }
}
layer {
  name: "inception_4c/5x5"
  type: "Convolution"
  bottom: "inception_4c/5x5_reduce"
  top: "inception_4c/5x5"
  param {
    lr_mult: 1
    decay_mult: 1
  }
  param {
    lr_mult: 2
    decay_mult: 0
  }
  convolution_param {
    num_output: 64
    pad: 2
    kernel_size: 5
    weight_filler {
      type: "xavier"
    }
    bias_filler {
      type: "constant"
      value: 0.2
    }
  }
}
layer {
  name: "inception_4c/prelu_5x5"
  type: "PReLU"
  bottom: "inception_4c/5x5"
  top: "inception_4c/5x5"
  param {
    lr_mult: 1
    decay_mult: 0
  }
  prelu_param {
    filler {
      type: "constant"
      value: 0.01
    }
  }
}
layer {
  name: "inception_4c/pool"
  type: "Pooling"
  bottom: "inception_4b/output"
  top: "inception_4c/pool"
  pooling_param {
    pool: MAX
    kernel_size: 3
    stride: 1
    pad: 1
  }
}
layer {
  name: "inception_4c/pool_proj"
  type: "Convolution"
  bottom: "inception_4c/pool"
  top: "inception_4c/pool_proj"
  param {
    lr_mult: 1
    decay_mult: 1
  }
  param {
    lr_mult: 2
    decay_mult: 0
  }
  convolution_param {
    num_output: 64
    kernel_size: 1
    weight_filler {
      type: "xavier"
    }
    bias_filler {
      type: "constant"
      value: 0.2
    }
  }
}
layer {
  name: "inception_4c/prelu_pool_proj"
  type: "PReLU"
  bottom: "inception_4c/pool_proj"
  top: "inception_4c/pool_proj"
  param {
    lr_mult: 1
    decay_mult: 0
  }
  prelu_param {
    filler {
      type: "constant"
      value: 0.01
    }
  }
}
layer {
  name: "inception_4c/output"
  type: "Concat"
  bottom: "inception_4c/1x1"
  bottom: "inception_4c/3x3"
  bottom: "inception_4c/5x5"
  bottom: "inception_4c/pool_proj"
  top: "inception_4c/output"
}
layer {
  name: "inception_4d/1x1"
  type: "Convolution"
  bottom: "inception_4c/output"
  top: "inception_4d/1x1"
  param {
    lr_mult: 1
    decay_mult: 1
  }
  param {
    lr_mult: 2
    decay_mult: 0
  }
  convolution_param {
    num_output: 112
    kernel_size: 1
    weight_filler {
      type: "xavier"
    }
    bias_filler {
      type: "constant"
      value: 0.2
    }
  }
}
layer {
  name: "inception_4d/prelu_1x1"
  type: "PReLU"
  bottom: "inception_4d/1x1"
  top: "inception_4d/1x1"
  param {
    lr_mult: 1
    decay_mult: 0
  }
  prelu_param {
    filler {
      type: "constant"
      value: 0.01
    }
  }
}
layer {
  name: "inception_4d/3x3_reduce"
  type: "Convolution"
  bottom: "inception_4c/output"
  top: "inception_4d/3x3_reduce"
  param {
    lr_mult: 1
    decay_mult: 1
  }
  param {
    lr_mult: 2
    decay_mult: 0
  }
  convolution_param {
    num_output: 144
    kernel_size: 1
    weight_filler {
      type: "xavier"
    }
    bias_filler {
      type: "constant"
      value: 0.2
    }
  }
}
layer {
  name: "inception_4d/prelu_3x3_reduce"
  type: "PReLU"
  bottom: "inception_4d/3x3_reduce"
  top: "inception_4d/3x3_reduce"
  param {
    lr_mult: 1
    decay_mult: 0
  }
  prelu_param {
    filler {
      type: "constant"
      value: 0.01
    }
  }
}
layer {
  name: "inception_4d/3x3"
  type: "Convolution"
  bottom: "inception_4d/3x3_reduce"
  top: "inception_4d/3x3"
  param {
    lr_mult: 1
    decay_mult: 1
  }
  param {
    lr_mult: 2
    decay_mult: 0
  }
  convolution_param {
    num_output: 288
    pad: 1
    kernel_size: 3
    weight_filler {
      type: "xavier"
    }
    bias_filler {
      type: "constant"
      value: 0.2
    }
  }
}
layer {
  name: "inception_4d/prelu_3x3"
  type: "PReLU"
  bottom: "inception_4d/3x3"
  top: "inception_4d/3x3"
  param {
    lr_mult: 1
    decay_mult: 0
  }
  prelu_param {
    filler {
      type: "constant"
      value: 0.01
    }
  }
}
layer {
  name: "inception_4d/5x5_reduce"
  type: "Convolution"
  bottom: "inception_4c/output"
  top: "inception_4d/5x5_reduce"
  param {
    lr_mult: 1
    decay_mult: 1
  }
  param {
    lr_mult: 2
    decay_mult: 0
  }
  convolution_param {
    num_output: 32
    kernel_size: 1
    weight_filler {
      type: "xavier"
    }
    bias_filler {
      type: "constant"
      value: 0.2
    }
  }
}
layer {
  name: "inception_4d/prelu_5x5_reduce"
  type: "PReLU"
  bottom: "inception_4d/5x5_reduce"
  top: "inception_4d/5x5_reduce"
  param {
    lr_mult: 1
    decay_mult: 0
  }
  prelu_param {
    filler {
      type: "constant"
      value: 0.01
    }
  }
}
layer {
  name: "inception_4d/5x5"
  type: "Convolution"
  bottom: "inception_4d/5x5_reduce"
  top: "inception_4d/5x5"
  param {
    lr_mult: 1
    decay_mult: 1
  }
  param {
    lr_mult: 2
    decay_mult: 0
  }
  convolution_param {
    num_output: 64
    pad: 2
    kernel_size: 5
    weight_filler {
      type: "xavier"
    }
    bias_filler {
      type: "constant"
      value: 0.2
    }
  }
}
layer {
  name: "inception_4d/prelu_5x5"
  type: "PReLU"
  bottom: "inception_4d/5x5"
  top: "inception_4d/5x5"
  param {
    lr_mult: 1
    decay_mult: 0
  }
  prelu_param {
    filler {
      type: "constant"
      value: 0.01
    }
  }
}
layer {
  name: "inception_4d/pool"
  type: "Pooling"
  bottom: "inception_4c/output"
  top: "inception_4d/pool"
  pooling_param {
    pool: MAX
    kernel_size: 3
    stride: 1
    pad: 1
  }
}
layer {
  name: "inception_4d/pool_proj"
  type: "Convolution"
  bottom: "ince
I1105 17:35:03.410039 24588 layer_factory.hpp:76] Creating layer data
I1105 17:35:03.410684 24588 net.cpp:106] Creating Layer data
I1105 17:35:03.410704 24588 net.cpp:411] data -> data
I1105 17:35:03.410743 24588 net.cpp:411] data -> label
I1105 17:35:03.412902 24593 db_lmdb.cpp:38] Opened lmdb ../../LMDB/train_5-lmdb
I1105 17:35:03.424824 24588 data_layer.cpp:41] output data size: 32,3,224,224
I1105 17:35:03.489267 24588 net.cpp:150] Setting up data
I1105 17:35:03.489312 24588 net.cpp:157] Top shape: 32 3 224 224 (4816896)
I1105 17:35:03.489320 24588 net.cpp:157] Top shape: 32 (32)
I1105 17:35:03.489332 24588 net.cpp:165] Memory required for data: 19267712
I1105 17:35:03.489343 24588 layer_factory.hpp:76] Creating layer label_data_1_split
I1105 17:35:03.489358 24588 net.cpp:106] Creating Layer label_data_1_split
I1105 17:35:03.489375 24588 net.cpp:454] label_data_1_split <- label
I1105 17:35:03.489413 24588 net.cpp:411] label_data_1_split -> label_data_1_split_0
I1105 17:35:03.489431 24588 net.cpp:411] label_data_1_split -> label_data_1_split_1
I1105 17:35:03.489459 24588 net.cpp:411] label_data_1_split -> label_data_1_split_2
I1105 17:35:03.489539 24588 net.cpp:150] Setting up label_data_1_split
I1105 17:35:03.489552 24588 net.cpp:157] Top shape: 32 (32)
I1105 17:35:03.489569 24588 net.cpp:157] Top shape: 32 (32)
I1105 17:35:03.489580 24588 net.cpp:157] Top shape: 32 (32)
I1105 17:35:03.489589 24588 net.cpp:165] Memory required for data: 19268096
I1105 17:35:03.489598 24588 layer_factory.hpp:76] Creating layer conv1/7x7_s2
I1105 17:35:03.489631 24588 net.cpp:106] Creating Layer conv1/7x7_s2
I1105 17:35:03.489640 24588 net.cpp:454] conv1/7x7_s2 <- data
I1105 17:35:03.489655 24588 net.cpp:411] conv1/7x7_s2 -> conv1/7x7_s2
I1105 17:35:03.703332 24588 cudnn_conv_layer.cpp:194] Reallocating workspace storage: 225816
I1105 17:35:03.703603 24588 net.cpp:150] Setting up conv1/7x7_s2
I1105 17:35:03.703621 24588 net.cpp:157] Top shape: 32 64 112 112 (25690112)
I1105 17:35:03.703626 24588 net.cpp:165] Memory required for data: 122028544
I1105 17:35:03.703646 24588 layer_factory.hpp:76] Creating layer conv1/prelu_7x7
I1105 17:35:03.703666 24588 net.cpp:106] Creating Layer conv1/prelu_7x7
I1105 17:35:03.703675 24588 net.cpp:454] conv1/prelu_7x7 <- conv1/7x7_s2
I1105 17:35:03.703688 24588 net.cpp:397] conv1/prelu_7x7 -> conv1/7x7_s2 (in-place)
I1105 17:35:03.705483 24588 net.cpp:150] Setting up conv1/prelu_7x7
I1105 17:35:03.705507 24588 net.cpp:157] Top shape: 32 64 112 112 (25690112)
I1105 17:35:03.705513 24588 net.cpp:165] Memory required for data: 224788992
I1105 17:35:03.705523 24588 layer_factory.hpp:76] Creating layer pool1/3x3_s2
I1105 17:35:03.705536 24588 net.cpp:106] Creating Layer pool1/3x3_s2
I1105 17:35:03.705543 24588 net.cpp:454] pool1/3x3_s2 <- conv1/7x7_s2
I1105 17:35:03.705549 24588 net.cpp:411] pool1/3x3_s2 -> pool1/3x3_s2
I1105 17:35:03.705998 24588 net.cpp:150] Setting up pool1/3x3_s2
I1105 17:35:03.706010 24588 net.cpp:157] Top shape: 32 64 56 56 (6422528)
I1105 17:35:03.706023 24588 net.cpp:165] Memory required for data: 250479104
I1105 17:35:03.706030 24588 layer_factory.hpp:76] Creating layer pool1/norm1
I1105 17:35:03.706051 24588 net.cpp:106] Creating Layer pool1/norm1
I1105 17:35:03.706063 24588 net.cpp:454] pool1/norm1 <- pool1/3x3_s2
I1105 17:35:03.706074 24588 net.cpp:411] pool1/norm1 -> pool1/norm1
I1105 17:35:03.706275 24588 net.cpp:150] Setting up pool1/norm1
I1105 17:35:03.706286 24588 net.cpp:157] Top shape: 32 64 56 56 (6422528)
I1105 17:35:03.706292 24588 net.cpp:165] Memory required for data: 276169216
I1105 17:35:03.706296 24588 layer_factory.hpp:76] Creating layer conv2/3x3_reduce
I1105 17:35:03.706307 24588 net.cpp:106] Creating Layer conv2/3x3_reduce
I1105 17:35:03.706312 24588 net.cpp:454] conv2/3x3_reduce <- pool1/norm1
I1105 17:35:03.706321 24588 net.cpp:411] conv2/3x3_reduce -> conv2/3x3_reduce
I1105 17:35:03.707739 24588 cudnn_conv_layer.cpp:194] Reallocating workspace storage: 63000
I1105 17:35:03.707762 24588 net.cpp:150] Setting up conv2/3x3_reduce
I1105 17:35:03.707770 24588 net.cpp:157] Top shape: 32 64 56 56 (6422528)
I1105 17:35:03.707775 24588 net.cpp:165] Memory required for data: 301859328
I1105 17:35:03.707787 24588 layer_factory.hpp:76] Creating layer conv2/prelu_3x3_reduce
I1105 17:35:03.707801 24588 net.cpp:106] Creating Layer conv2/prelu_3x3_reduce
I1105 17:35:03.707811 24588 net.cpp:454] conv2/prelu_3x3_reduce <- conv2/3x3_reduce
I1105 17:35:03.707831 24588 net.cpp:397] conv2/prelu_3x3_reduce -> conv2/3x3_reduce (in-place)
I1105 17:35:03.708461 24588 net.cpp:150] Setting up conv2/prelu_3x3_reduce
I1105 17:35:03.708474 24588 net.cpp:157] Top shape: 32 64 56 56 (6422528)
I1105 17:35:03.708478 24588 net.cpp:165] Memory required for data: 327549440
I1105 17:35:03.708487 24588 layer_factory.hpp:76] Creating layer conv2/3x3
I1105 17:35:03.708511 24588 net.cpp:106] Creating Layer conv2/3x3
I1105 17:35:03.708521 24588 net.cpp:454] conv2/3x3 <- conv2/3x3_reduce
I1105 17:35:03.708544 24588 net.cpp:411] conv2/3x3 -> conv2/3x3
I1105 17:35:03.710559 24588 cudnn_conv_layer.cpp:194] Reallocating workspace storage: 63000
I1105 17:35:03.710582 24588 net.cpp:150] Setting up conv2/3x3
I1105 17:35:03.710589 24588 net.cpp:157] Top shape: 32 192 56 56 (19267584)
I1105 17:35:03.710595 24588 net.cpp:165] Memory required for data: 404619776
I1105 17:35:03.710603 24588 layer_factory.hpp:76] Creating layer conv2/prelu_3x3
I1105 17:35:03.710611 24588 net.cpp:106] Creating Layer conv2/prelu_3x3
I1105 17:35:03.710625 24588 net.cpp:454] conv2/prelu_3x3 <- conv2/3x3
I1105 17:35:03.710633 24588 net.cpp:397] conv2/prelu_3x3 -> conv2/3x3 (in-place)
I1105 17:35:03.711906 24588 net.cpp:150] Setting up conv2/prelu_3x3
I1105 17:35:03.711925 24588 net.cpp:157] Top shape: 32 192 56 56 (19267584)
I1105 17:35:03.711930 24588 net.cpp:165] Memory required for data: 481690112
I1105 17:35:03.711974 24588 layer_factory.hpp:76] Creating layer conv2/norm2
I1105 17:35:03.711999 24588 net.cpp:106] Creating Layer conv2/norm2
I1105 17:35:03.712018 24588 net.cpp:454] conv2/norm2 <- conv2/3x3
I1105 17:35:03.712038 24588 net.cpp:411] conv2/norm2 -> conv2/norm2
I1105 17:35:03.712214 24588 net.cpp:150] Setting up conv2/norm2
I1105 17:35:03.712224 24588 net.cpp:157] Top shape: 32 192 56 56 (19267584)
I1105 17:35:03.712229 24588 net.cpp:165] Memory required for data: 558760448
I1105 17:35:03.712232 24588 layer_factory.hpp:76] Creating layer pool2/3x3_s2
I1105 17:35:03.712240 24588 net.cpp:106] Creating Layer pool2/3x3_s2
I1105 17:35:03.712244 24588 net.cpp:454] pool2/3x3_s2 <- conv2/norm2
I1105 17:35:03.712250 24588 net.cpp:411] pool2/3x3_s2 -> pool2/3x3_s2
I1105 17:35:03.712615 24588 net.cpp:150] Setting up pool2/3x3_s2
I1105 17:35:03.712626 24588 net.cpp:157] Top shape: 32 192 28 28 (4816896)
I1105 17:35:03.712631 24588 net.cpp:165] Memory required for data: 578028032
I1105 17:35:03.712636 24588 layer_factory.hpp:76] Creating layer pool2/3x3_s2_pool2/3x3_s2_0_split
I1105 17:35:03.712643 24588 net.cpp:106] Creating Layer pool2/3x3_s2_pool2/3x3_s2_0_split
I1105 17:35:03.712648 24588 net.cpp:454] pool2/3x3_s2_pool2/3x3_s2_0_split <- pool2/3x3_s2
I1105 17:35:03.712654 24588 net.cpp:411] pool2/3x3_s2_pool2/3x3_s2_0_split -> pool2/3x3_s2_pool2/3x3_s2_0_split_0
I1105 17:35:03.712661 24588 net.cpp:411] pool2/3x3_s2_pool2/3x3_s2_0_split -> pool2/3x3_s2_pool2/3x3_s2_0_split_1
I1105 17:35:03.712669 24588 net.cpp:411] pool2/3x3_s2_pool2/3x3_s2_0_split -> pool2/3x3_s2_pool2/3x3_s2_0_split_2
I1105 17:35:03.712677 24588 net.cpp:411] pool2/3x3_s2_pool2/3x3_s2_0_split -> pool2/3x3_s2_pool2/3x3_s2_0_split_3
I1105 17:35:03.712724 24588 net.cpp:150] Setting up pool2/3x3_s2_pool2/3x3_s2_0_split
I1105 17:35:03.712733 24588 net.cpp:157] Top shape: 32 192 28 28 (4816896)
I1105 17:35:03.712738 24588 net.cpp:157] Top shape: 32 192 28 28 (4816896)
I1105 17:35:03.712743 24588 net.cpp:157] Top shape: 32 192 28 28 (4816896)
I1105 17:35:03.712748 24588 net.cpp:157] Top shape: 32 192 28 28 (4816896)
I1105 17:35:03.712751 24588 net.cpp:165] Memory required for data: 655098368
I1105 17:35:03.712755 24588 layer_factory.hpp:76] Creating layer inception_3a/1x1
I1105 17:35:03.712765 24588 net.cpp:106] Creating Layer inception_3a/1x1
I1105 17:35:03.712770 24588 net.cpp:454] inception_3a/1x1 <- pool2/3x3_s2_pool2/3x3_s2_0_split_0
I1105 17:35:03.712776 24588 net.cpp:411] inception_3a/1x1 -> inception_3a/1x1
I1105 17:35:03.714275 24588 cudnn_conv_layer.cpp:194] Reallocating workspace storage: 20664
I1105 17:35:03.714306 24588 net.cpp:150] Setting up inception_3a/1x1
I1105 17:35:03.714320 24588 net.cpp:157] Top shape: 32 64 28 28 (1605632)
I1105 17:35:03.714329 24588 net.cpp:165] Memory required for data: 661520896
I1105 17:35:03.714341 24588 layer_factory.hpp:76] Creating layer inception_3a/prelu_1x1
I1105 17:35:03.714355 24588 net.cpp:106] Creating Layer inception_3a/prelu_1x1
I1105 17:35:03.714364 24588 net.cpp:454] inception_3a/prelu_1x1 <- inception_3a/1x1
I1105 17:35:03.714375 24588 net.cpp:397] inception_3a/prelu_1x1 -> inception_3a/1x1 (in-place)
I1105 17:35:03.715096 24588 net.cpp:150] Setting up inception_3a/prelu_1x1
I1105 17:35:03.715114 24588 net.cpp:157] Top shape: 32 64 28 28 (1605632)
I1105 17:35:03.715123 24588 net.cpp:165] Memory required for data: 667943424
I1105 17:35:03.715136 24588 layer_factory.hpp:76] Creating layer inception_3a/3x3_reduce
I1105 17:35:03.715148 24588 net.cpp:106] Creating Layer inception_3a/3x3_reduce
I1105 17:35:03.715157 24588 net.cpp:454] inception_3a/3x3_reduce <- pool2/3x3_s2_pool2/3x3_s2_0_split_1
I1105 17:35:03.715170 24588 net.cpp:411] inception_3a/3x3_reduce -> inception_3a/3x3_reduce
I1105 17:35:03.716253 24588 cudnn_conv_layer.cpp:194] Reallocating workspace storage: 20664
I1105 17:35:03.716274 24588 net.cpp:150] Setting up inception_3a/3x3_reduce
I1105 17:35:03.716284 24588 net.cpp:157] Top shape: 32 96 28 28 (2408448)
I1105 17:35:03.716294 24588 net.cpp:165] Memory required for data: 677577216
I1105 17:35:03.716325 24588 layer_factory.hpp:76] Creating layer inception_3a/prelu_3x3_reduce
I1105 17:35:03.716342 24588 net.cpp:106] Creating Layer inception_3a/prelu_3x3_reduce
I1105 17:35:03.716352 24588 net.cpp:454] inception_3a/prelu_3x3_reduce <- inception_3a/3x3_reduce
I1105 17:35:03.716366 24588 net.cpp:397] inception_3a/prelu_3x3_reduce -> inception_3a/3x3_reduce (in-place)
I1105 17:35:03.716508 24588 net.cpp:150] Setting up inception_3a/prelu_3x3_reduce
I1105 17:35:03.716519 24588 net.cpp:157] Top shape: 32 96 28 28 (2408448)
I1105 17:35:03.716523 24588 net.cpp:165] Memory required for data: 687211008
I1105 17:35:03.716533 24588 layer_factory.hpp:76] Creating layer inception_3a/3x3
I1105 17:35:03.716548 24588 net.cpp:106] Creating Layer inception_3a/3x3
I1105 17:35:03.716557 24588 net.cpp:454] inception_3a/3x3 <- inception_3a/3x3_reduce
I1105 17:35:03.716570 24588 net.cpp:411] inception_3a/3x3 -> inception_3a/3x3
I1105 17:35:03.718823 24588 cudnn_conv_layer.cpp:194] Reallocating workspace storage: 20664
I1105 17:35:03.718863 24588 net.cpp:150] Setting up inception_3a/3x3
I1105 17:35:03.718874 24588 net.cpp:157] Top shape: 32 128 28 28 (3211264)
I1105 17:35:03.718878 24588 net.cpp:165] Memory required for data: 700056064
I1105 17:35:03.718900 24588 layer_factory.hpp:76] Creating layer inception_3a/prelu_3x3
I1105 17:35:03.718931 24588 net.cpp:106] Creating Layer inception_3a/prelu_3x3
I1105 17:35:03.718952 24588 net.cpp:454] inception_3a/prelu_3x3 <- inception_3a/3x3
I1105 17:35:03.718976 24588 net.cpp:397] inception_3a/prelu_3x3 -> inception_3a/3x3 (in-place)
I1105 17:35:03.719133 24588 net.cpp:150] Setting up inception_3a/prelu_3x3
I1105 17:35:03.719144 24588 net.cpp:157] Top shape: 32 128 28 28 (3211264)
I1105 17:35:03.719149 24588 net.cpp:165] Memory required for data: 712901120
I1105 17:35:03.719156 24588 layer_factory.hpp:76] Creating layer inception_3a/5x5_reduce
I1105 17:35:03.719171 24588 net.cpp:106] Creating Layer inception_3a/5x5_reduce
I1105 17:35:03.719180 24588 net.cpp:454] inception_3a/5x5_reduce <- pool2/3x3_s2_pool2/3x3_s2_0_split_2
I1105 17:35:03.719192 24588 net.cpp:411] inception_3a/5x5_reduce -> inception_3a/5x5_reduce
I1105 17:35:03.720424 24588 cudnn_conv_layer.cpp:194] Reallocating workspace storage: 20664
I1105 17:35:03.720450 24588 net.cpp:150] Setting up inception_3a/5x5_reduce
I1105 17:35:03.720469 24588 net.cpp:157] Top shape: 32 16 28 28 (401408)
I1105 17:35:03.720474 24588 net.cpp:165] Memory required for data: 714506752
I1105 17:35:03.720482 24588 layer_factory.hpp:76] Creating layer inception_3a/prelu_5x5_reduce
I1105 17:35:03.720505 24588 net.cpp:106] Creating Layer inception_3a/prelu_5x5_reduce
I1105 17:35:03.720515 24588 net.cpp:454] inception_3a/prelu_5x5_reduce <- inception_3a/5x5_reduce
I1105 17:35:03.720526 24588 net.cpp:397] inception_3a/prelu_5x5_reduce -> inception_3a/5x5_reduce (in-place)
I1105 17:35:03.720613 24588 net.cpp:150] Setting up inception_3a/prelu_5x5_reduce
I1105 17:35:03.720623 24588 net.cpp:157] Top shape: 32 16 28 28 (401408)
I1105 17:35:03.720628 24588 net.cpp:165] Memory required for data: 716112384
I1105 17:35:03.720633 24588 layer_factory.hpp:76] Creating layer inception_3a/5x5
I1105 17:35:03.720650 24588 net.cpp:106] Creating Layer inception_3a/5x5
I1105 17:35:03.720655 24588 net.cpp:454] inception_3a/5x5 <- inception_3a/5x5_reduce
I1105 17:35:03.720662 24588 net.cpp:411] inception_3a/5x5 -> inception_3a/5x5
I1105 17:35:03.721658 24588 cudnn_conv_layer.cpp:194] Reallocating workspace storage: 20664
I1105 17:35:03.721678 24588 net.cpp:150] Setting up inception_3a/5x5
I1105 17:35:03.721685 24588 net.cpp:157] Top shape: 32 32 28 28 (802816)
I1105 17:35:03.721689 24588 net.cpp:165] Memory required for data: 719323648
I1105 17:35:03.721696 24588 layer_factory.hpp:76] Creating layer inception_3a/prelu_5x5
I1105 17:35:03.721704 24588 net.cpp:106] Creating Layer inception_3a/prelu_5x5
I1105 17:35:03.721709 24588 net.cpp:454] inception_3a/prelu_5x5 <- inception_3a/5x5
I1105 17:35:03.721715 24588 net.cpp:397] inception_3a/prelu_5x5 -> inception_3a/5x5 (in-place)
I1105 17:35:03.721815 24588 net.cpp:150] Setting up inception_3a/prelu_5x5
I1105 17:35:03.721825 24588 net.cpp:157] Top shape: 32 32 28 28 (802816)
I1105 17:35:03.721829 24588 net.cpp:165] Memory required for data: 722534912
I1105 17:35:03.721835 24588 layer_factory.hpp:76] Creating layer inception_3a/pool
I1105 17:35:03.721843 24588 net.cpp:106] Creating Layer inception_3a/pool
I1105 17:35:03.721848 24588 net.cpp:454] inception_3a/pool <- pool2/3x3_s2_pool2/3x3_s2_0_split_3
I1105 17:35:03.721854 24588 net.cpp:411] inception_3a/pool -> inception_3a/pool
I1105 17:35:03.722012 24588 net.cpp:150] Setting up inception_3a/pool
I1105 17:35:03.722021 24588 net.cpp:157] Top shape: 32 192 28 28 (4816896)
I1105 17:35:03.722026 24588 net.cpp:165] Memory required for data: 741802496
I1105 17:35:03.722030 24588 layer_factory.hpp:76] Creating layer inception_3a/pool_proj
I1105 17:35:03.722038 24588 net.cpp:106] Creating Layer inception_3a/pool_proj
I1105 17:35:03.722043 24588 net.cpp:454] inception_3a/pool_proj <- inception_3a/pool
I1105 17:35:03.722049 24588 net.cpp:411] inception_3a/pool_proj -> inception_3a/pool_proj
I1105 17:35:03.722966 24588 cudnn_conv_layer.cpp:194] Reallocating workspace storage: 20664
I1105 17:35:03.722985 24588 net.cpp:150] Setting up inception_3a/pool_proj
I1105 17:35:03.722992 24588 net.cpp:157] Top shape: 32 32 28 28 (802816)
I1105 17:35:03.722996 24588 net.cpp:165] Memory required for data: 745013760
I1105 17:35:03.723004 24588 layer_factory.hpp:76] Creating layer inception_3a/prelu_pool_proj
I1105 17:35:03.723011 24588 net.cpp:106] Creating Layer inception_3a/prelu_pool_proj
I1105 17:35:03.723017 24588 net.cpp:454] inception_3a/prelu_pool_proj <- inception_3a/pool_proj
I1105 17:35:03.723023 24588 net.cpp:397] inception_3a/prelu_pool_proj -> inception_3a/pool_proj (in-place)
I1105 17:35:03.723105 24588 net.cpp:150] Setting up inception_3a/prelu_pool_proj
I1105 17:35:03.723114 24588 net.cpp:157] Top shape: 32 32 28 28 (802816)
I1105 17:35:03.723119 24588 net.cpp:165] Memory required for data: 748225024
I1105 17:35:03.723124 24588 layer_factory.hpp:76] Creating layer inception_3a/output
I1105 17:35:03.723136 24588 net.cpp:106] Creating Layer inception_3a/output
I1105 17:35:03.723141 24588 net.cpp:454] inception_3a/output <- inception_3a/1x1
I1105 17:35:03.723147 24588 net.cpp:454] inception_3a/output <- inception_3a/3x3
I1105 17:35:03.723152 24588 net.cpp:454] inception_3a/output <- inception_3a/5x5
I1105 17:35:03.723157 24588 net.cpp:454] inception_3a/output <- inception_3a/pool_proj
I1105 17:35:03.723162 24588 net.cpp:411] inception_3a/output -> inception_3a/output
I1105 17:35:03.723186 24588 net.cpp:150] Setting up inception_3a/output
I1105 17:35:03.723193 24588 net.cpp:157] Top shape: 32 256 28 28 (6422528)
I1105 17:35:03.723197 24588 net.cpp:165] Memory required for data: 773915136
I1105 17:35:03.723201 24588 layer_factory.hpp:76] Creating layer inception_3a/output_inception_3a/output_0_split
I1105 17:35:03.723208 24588 net.cpp:106] Creating Layer inception_3a/output_inception_3a/output_0_split
I1105 17:35:03.723212 24588 net.cpp:454] inception_3a/output_inception_3a/output_0_split <- inception_3a/output
I1105 17:35:03.723218 24588 net.cpp:411] inception_3a/output_inception_3a/output_0_split -> inception_3a/output_inception_3a/output_0_split_0
I1105 17:35:03.723225 24588 net.cpp:411] inception_3a/output_inception_3a/output_0_split -> inception_3a/output_inception_3a/output_0_split_1
I1105 17:35:03.723232 24588 net.cpp:411] inception_3a/output_inception_3a/output_0_split -> inception_3a/output_inception_3a/output_0_split_2
I1105 17:35:03.723239 24588 net.cpp:411] inception_3a/output_inception_3a/output_0_split -> inception_3a/output_inception_3a/output_0_split_3
I1105 17:35:03.723301 24588 net.cpp:150] Setting up inception_3a/output_inception_3a/output_0_split
I1105 17:35:03.723309 24588 net.cpp:157] Top shape: 32 256 28 28 (6422528)
I1105 17:35:03.723315 24588 net.cpp:157] Top shape: 32 256 28 28 (6422528)
I1105 17:35:03.723327 24588 net.cpp:157] Top shape: 32 256 28 28 (6422528)
I1105 17:35:03.723351 24588 net.cpp:157] Top shape: 32 256 28 28 (6422528)
I1105 17:35:03.723356 24588 net.cpp:165] Memory required for data: 876675584
I1105 17:35:03.723368 24588 layer_factory.hpp:76] Creating layer inception_3b/1x1
I1105 17:35:03.723376 24588 net.cpp:106] Creating Layer inception_3b/1x1
I1105 17:35:03.723381 24588 net.cpp:454] inception_3b/1x1 <- inception_3a/output_inception_3a/output_0_split_0
I1105 17:35:03.723387 24588 net.cpp:411] inception_3b/1x1 -> inception_3b/1x1
I1105 17:35:03.724500 24588 cudnn_conv_layer.cpp:194] Reallocating workspace storage: 20664
I1105 17:35:03.724519 24588 net.cpp:150] Setting up inception_3b/1x1
I1105 17:35:03.724527 24588 net.cpp:157] Top shape: 32 128 28 28 (3211264)
I1105 17:35:03.724531 24588 net.cpp:165] Memory required for data: 889520640
I1105 17:35:03.724539 24588 layer_factory.hpp:76] Creating layer inception_3b/prelu_1x1
I1105 17:35:03.724547 24588 net.cpp:106] Creating Layer inception_3b/prelu_1x1
I1105 17:35:03.724552 24588 net.cpp:454] inception_3b/prelu_1x1 <- inception_3b/1x1
I1105 17:35:03.724560 24588 net.cpp:397] inception_3b/prelu_1x1 -> inception_3b/1x1 (in-place)
I1105 17:35:03.725157 24588 net.cpp:150] Setting up inception_3b/prelu_1x1
I1105 17:35:03.725172 24588 net.cpp:157] Top shape: 32 128 28 28 (3211264)
I1105 17:35:03.725175 24588 net.cpp:165] Memory required for data: 902365696
I1105 17:35:03.725181 24588 layer_factory.hpp:76] Creating layer inception_3b/3x3_reduce
I1105 17:35:03.725190 24588 net.cpp:106] Creating Layer inception_3b/3x3_reduce
I1105 17:35:03.725195 24588 net.cpp:454] inception_3b/3x3_reduce <- inception_3a/output_inception_3a/output_0_split_1
I1105 17:35:03.725203 24588 net.cpp:411] inception_3b/3x3_reduce -> inception_3b/3x3_reduce
I1105 17:35:03.726320 24588 cudnn_conv_layer.cpp:194] Reallocating workspace storage: 20664
I1105 17:35:03.726338 24588 net.cpp:150] Setting up inception_3b/3x3_reduce
I1105 17:35:03.726346 24588 net.cpp:157] Top shape: 32 128 28 28 (3211264)
I1105 17:35:03.726351 24588 net.cpp:165] Memory required for data: 915210752
I1105 17:35:03.726358 24588 layer_factory.hpp:76] Creating layer inception_3b/prelu_3x3_reduce
I1105 17:35:03.726366 24588 net.cpp:106] Creating Layer inception_3b/prelu_3x3_reduce
I1105 17:35:03.726372 24588 net.cpp:454] inception_3b/prelu_3x3_reduce <- inception_3b/3x3_reduce
I1105 17:35:03.726377 24588 net.cpp:397] inception_3b/prelu_3x3_reduce -> inception_3b/3x3_reduce (in-place)
I1105 17:35:03.726488 24588 net.cpp:150] Setting up inception_3b/prelu_3x3_reduce
I1105 17:35:03.726498 24588 net.cpp:157] Top shape: 32 128 28 28 (3211264)
I1105 17:35:03.726502 24588 net.cpp:165] Memory required for data: 928055808
I1105 17:35:03.726512 24588 layer_factory.hpp:76] Creating layer inception_3b/3x3
I1105 17:35:03.726524 24588 net.cpp:106] Creating Layer inception_3b/3x3
I1105 17:35:03.726529 24588 net.cpp:454] inception_3b/3x3 <- inception_3b/3x3_reduce
I1105 17:35:03.726536 24588 net.cpp:411] inception_3b/3x3 -> inception_3b/3x3
I1105 17:35:03.729200 24588 cudnn_conv_layer.cpp:194] Reallocating workspace storage: 20664
I1105 17:35:03.729223 24588 net.cpp:150] Setting up inception_3b/3x3
I1105 17:35:03.729230 24588 net.cpp:157] Top shape: 32 192 28 28 (4816896)
I1105 17:35:03.729234 24588 net.cpp:165] Memory required for data: 947323392
I1105 17:35:03.729241 24588 layer_factory.hpp:76] Creating layer inception_3b/prelu_3x3
I1105 17:35:03.729250 24588 net.cpp:106] Creating Layer inception_3b/prelu_3x3
I1105 17:35:03.729255 24588 net.cpp:454] inception_3b/prelu_3x3 <- inception_3b/3x3
I1105 17:35:03.729262 24588 net.cpp:397] inception_3b/prelu_3x3 -> inception_3b/3x3 (in-place)
I1105 17:35:03.729943 24588 net.cpp:150] Setting up inception_3b/prelu_3x3
I1105 17:35:03.729959 24588 net.cpp:157] Top shape: 32 192 28 28 (4816896)
I1105 17:35:03.729969 24588 net.cpp:165] Memory required for data: 966590976
I1105 17:35:03.729979 24588 layer_factory.hpp:76] Creating layer inception_3b/5x5_reduce
I1105 17:35:03.729992 24588 net.cpp:106] Creating Layer inception_3b/5x5_reduce
I1105 17:35:03.730000 24588 net.cpp:454] inception_3b/5x5_reduce <- inception_3a/output_inception_3a/output_0_split_2
I1105 17:35:03.730026 24588 net.cpp:411] inception_3b/5x5_reduce -> inception_3b/5x5_reduce
I1105 17:35:03.731153 24588 cudnn_conv_layer.cpp:194] Reallocating workspace storage: 20664
I1105 17:35:03.731185 24588 net.cpp:150] Setting up inception_3b/5x5_reduce
I1105 17:35:03.731199 24588 net.cpp:157] Top shape: 32 32 28 28 (802816)
I1105 17:35:03.731207 24588 net.cpp:165] Memory required for data: 969802240
I1105 17:35:03.731220 24588 layer_factory.hpp:76] Creating layer inception_3b/prelu_5x5_reduce
I1105 17:35:03.731235 24588 net.cpp:106] Creating Layer inception_3b/prelu_5x5_reduce
I1105 17:35:03.731241 24588 net.cpp:454] inception_3b/prelu_5x5_reduce <- inception_3b/5x5_reduce
I1105 17:35:03.731248 24588 net.cpp:397] inception_3b/prelu_5x5_reduce -> inception_3b/5x5_reduce (in-place)
I1105 17:35:03.731380 24588 net.cpp:150] Setting up inception_3b/prelu_5x5_reduce
I1105 17:35:03.731395 24588 net.cpp:157] Top shape: 32 32 28 28 (802816)
I1105 17:35:03.731412 24588 net.cpp:165] Memory required for data: 973013504
I1105 17:35:03.731422 24588 layer_factory.hpp:76] Creating layer inception_3b/5x5
I1105 17:35:03.731434 24588 net.cpp:106] Creating Layer inception_3b/5x5
I1105 17:35:03.731444 24588 net.cpp:454] inception_3b/5x5 <- inception_3b/5x5_reduce
I1105 17:35:03.731462 24588 net.cpp:411] inception_3b/5x5 -> inception_3b/5x5
I1105 17:35:03.733139 24588 cudnn_conv_layer.cpp:194] Reallocating workspace storage: 20664
I1105 17:35:03.733160 24588 net.cpp:150] Setting up inception_3b/5x5
I1105 17:35:03.733168 24588 net.cpp:157] Top shape: 32 96 28 28 (2408448)
I1105 17:35:03.733173 24588 net.cpp:165] Memory required for data: 982647296
I1105 17:35:03.733181 24588 layer_factory.hpp:76] Creating layer inception_3b/prelu_5x5
I1105 17:35:03.733191 24588 net.cpp:106] Creating Layer inception_3b/prelu_5x5
I1105 17:35:03.733197 24588 net.cpp:454] inception_3b/prelu_5x5 <- inception_3b/5x5
I1105 17:35:03.733204 24588 net.cpp:397] inception_3b/prelu_5x5 -> inception_3b/5x5 (in-place)
I1105 17:35:03.733356 24588 net.cpp:150] Setting up inception_3b/prelu_5x5
I1105 17:35:03.733367 24588 net.cpp:157] Top shape: 32 96 28 28 (2408448)
I1105 17:35:03.733371 24588 net.cpp:165] Memory required for data: 992281088
I1105 17:35:03.733376 24588 layer_factory.hpp:76] Creating layer inception_3b/pool
I1105 17:35:03.733396 24588 net.cpp:106] Creating Layer inception_3b/pool
I1105 17:35:03.733402 24588 net.cpp:454] inception_3b/pool <- inception_3a/output_inception_3a/output_0_split_3
I1105 17:35:03.733409 24588 net.cpp:411] inception_3b/pool -> inception_3b/pool
I1105 17:35:03.733782 24588 net.cpp:150] Setting up inception_3b/pool
I1105 17:35:03.733793 24588 net.cpp:157] Top shape: 32 256 28 28 (6422528)
I1105 17:35:03.733798 24588 net.cpp:165] Memory required for data: 1017971200
I1105 17:35:03.733803 24588 layer_factory.hpp:76] Creating layer inception_3b/pool_proj
I1105 17:35:03.733813 24588 net.cpp:106] Creating Layer inception_3b/pool_proj
I1105 17:35:03.733817 24588 net.cpp:454] inception_3b/pool_proj <- inception_3b/pool
I1105 17:35:03.733835 24588 net.cpp:411] inception_3b/pool_proj -> inception_3b/pool_proj
I1105 17:35:03.734997 24588 cudnn_conv_layer.cpp:194] Reallocating workspace storage: 20664
I1105 17:35:03.735018 24588 net.cpp:150] Setting up inception_3b/pool_proj
I1105 17:35:03.735026 24588 net.cpp:157] Top shape: 32 64 28 28 (1605632)
I1105 17:35:03.735030 24588 net.cpp:165] Memory required for data: 1024393728
I1105 17:35:03.735039 24588 layer_factory.hpp:76] Creating layer inception_3b/prelu_pool_proj
I1105 17:35:03.735049 24588 net.cpp:106] Creating Layer inception_3b/prelu_pool_proj
I1105 17:35:03.735054 24588 net.cpp:454] inception_3b/prelu_pool_proj <- inception_3b/pool_proj
I1105 17:35:03.735061 24588 net.cpp:397] inception_3b/prelu_pool_proj -> inception_3b/pool_proj (in-place)
I1105 17:35:03.735183 24588 net.cpp:150] Setting up inception_3b/prelu_pool_proj
I1105 17:35:03.735193 24588 net.cpp:157] Top shape: 32 64 28 28 (1605632)
I1105 17:35:03.735214 24588 net.cpp:165] Memory required for data: 1030816256
I1105 17:35:03.735221 24588 layer_factory.hpp:76] Creating layer inception_3b/output
I1105 17:35:03.735229 24588 net.cpp:106] Creating Layer inception_3b/output
I1105 17:35:03.735234 24588 net.cpp:454] inception_3b/output <- inception_3b/1x1
I1105 17:35:03.735239 24588 net.cpp:454] inception_3b/output <- inception_3b/3x3
I1105 17:35:03.735244 24588 net.cpp:454] inception_3b/output <- inception_3b/5x5
I1105 17:35:03.735249 24588 net.cpp:454] inception_3b/output <- inception_3b/pool_proj
I1105 17:35:03.735256 24588 net.cpp:411] inception_3b/output -> inception_3b/output
I1105 17:35:03.735282 24588 net.cpp:150] Setting up inception_3b/output
I1105 17:35:03.735291 24588 net.cpp:157] Top shape: 32 480 28 28 (12042240)
I1105 17:35:03.735296 24588 net.cpp:165] Memory required for data: 1078985216
I1105 17:35:03.735301 24588 layer_factory.hpp:76] Creating layer pool3/3x3_s2
I1105 17:35:03.735307 24588 net.cpp:106] Creating Layer pool3/3x3_s2
I1105 17:35:03.735311 24588 net.cpp:454] pool3/3x3_s2 <- inception_3b/output
I1105 17:35:03.735321 24588 net.cpp:411] pool3/3x3_s2 -> pool3/3x3_s2
I1105 17:35:03.735831 24588 net.cpp:150] Setting up pool3/3x3_s2
I1105 17:35:03.735855 24588 net.cpp:157] Top shape: 32 480 14 14 (3010560)
I1105 17:35:03.735860 24588 net.cpp:165] Memory required for data: 1091027456
I1105 17:35:03.735865 24588 layer_factory.hpp:76] Creating layer pool3/3x3_s2_pool3/3x3_s2_0_split
I1105 17:35:03.735883 24588 net.cpp:106] Creating Layer pool3/3x3_s2_pool3/3x3_s2_0_split
I1105 17:35:03.735888 24588 net.cpp:454] pool3/3x3_s2_pool3/3x3_s2_0_split <- pool3/3x3_s2
I1105 17:35:03.735896 24588 net.cpp:411] pool3/3x3_s2_pool3/3x3_s2_0_split -> pool3/3x3_s2_pool3/3x3_s2_0_split_0
I1105 17:35:03.735904 24588 net.cpp:411] pool3/3x3_s2_pool3/3x3_s2_0_split -> pool3/3x3_s2_pool3/3x3_s2_0_split_1
I1105 17:35:03.735911 24588 net.cpp:411] pool3/3x3_s2_pool3/3x3_s2_0_split -> pool3/3x3_s2_pool3/3x3_s2_0_split_2
I1105 17:35:03.735918 24588 net.cpp:411] pool3/3x3_s2_pool3/3x3_s2_0_split -> pool3/3x3_s2_pool3/3x3_s2_0_split_3
I1105 17:35:03.735982 24588 net.cpp:150] Setting up pool3/3x3_s2_pool3/3x3_s2_0_split
I1105 17:35:03.735991 24588 net.cpp:157] Top shape: 32 480 14 14 (3010560)
I1105 17:35:03.735996 24588 net.cpp:157] Top shape: 32 480 14 14 (3010560)
I1105 17:35:03.736001 24588 net.cpp:157] Top shape: 32 480 14 14 (3010560)
I1105 17:35:03.736006 24588 net.cpp:157] Top shape: 32 480 14 14 (3010560)
I1105 17:35:03.736009 24588 net.cpp:165] Memory required for data: 1139196416
I1105 17:35:03.736013 24588 layer_factory.hpp:76] Creating layer inception_4a/1x1
I1105 17:35:03.736024 24588 net.cpp:106] Creating Layer inception_4a/1x1
I1105 17:35:03.736029 24588 net.cpp:454] inception_4a/1x1 <- pool3/3x3_s2_pool3/3x3_s2_0_split_0
I1105 17:35:03.736035 24588 net.cpp:411] inception_4a/1x1 -> inception_4a/1x1
I1105 17:35:03.738139 24588 cudnn_conv_layer.cpp:194] Reallocating workspace storage: 10080
I1105 17:35:03.738348 24588 net.cpp:150] Setting up inception_4a/1x1
I1105 17:35:03.738361 24588 net.cpp:157] Top shape: 32 192 14 14 (1204224)
I1105 17:35:03.738368 24588 net.cpp:165] Memory required for data: 1144013312
I1105 17:35:03.738376 24588 layer_factory.hpp:76] Creating layer inception_4a/prelu_1x1
I1105 17:35:03.738386 24588 net.cpp:106] Creating Layer inception_4a/prelu_1x1
I1105 17:35:03.738391 24588 net.cpp:454] inception_4a/prelu_1x1 <- inception_4a/1x1
I1105 17:35:03.738399 24588 net.cpp:397] inception_4a/prelu_1x1 -> inception_4a/1x1 (in-place)
I1105 17:35:03.738976 24588 net.cpp:150] Setting up inception_4a/prelu_1x1
I1105 17:35:03.738986 24588 net.cpp:157] Top shape: 32 192 14 14 (1204224)
I1105 17:35:03.738991 24588 net.cpp:165] Memory required for data: 1148830208
I1105 17:35:03.738997 24588 layer_factory.hpp:76] Creating layer inception_4a/3x3_reduce
I1105 17:35:03.739007 24588 net.cpp:106] Creating Layer inception_4a/3x3_reduce
I1105 17:35:03.739013 24588 net.cpp:454] inception_4a/3x3_reduce <- pool3/3x3_s2_pool3/3x3_s2_0_split_1
I1105 17:35:03.739022 24588 net.cpp:411] inception_4a/3x3_reduce -> inception_4a/3x3_reduce
I1105 17:35:03.740317 24588 cudnn_conv_layer.cpp:194] Reallocating workspace storage: 10080
I1105 17:35:03.740353 24588 net.cpp:150] Setting up inception_4a/3x3_reduce
I1105 17:35:03.740361 24588 net.cpp:157] Top shape: 32 96 14 14 (602112)
I1105 17:35:03.740366 24588 net.cpp:165] Memory required for data: 1151238656
I1105 17:35:03.740373 24588 layer_factory.hpp:76] Creating layer inception_4a/prelu_3x3_reduce
I1105 17:35:03.740382 24588 net.cpp:106] Creating Layer inception_4a/prelu_3x3_reduce
I1105 17:35:03.740387 24588 net.cpp:454] inception_4a/prelu_3x3_reduce <- inception_4a/3x3_reduce
I1105 17:35:03.740394 24588 net.cpp:397] inception_4a/prelu_3x3_reduce -> inception_4a/3x3_reduce (in-place)
I1105 17:35:03.740488 24588 net.cpp:150] Setting up inception_4a/prelu_3x3_reduce
I1105 17:35:03.740496 24588 net.cpp:157] Top shape: 32 96 14 14 (602112)
I1105 17:35:03.740500 24588 net.cpp:165] Memory required for data: 1153647104
I1105 17:35:03.740506 24588 layer_factory.hpp:76] Creating layer inception_4a/3x3
I1105 17:35:03.740515 24588 net.cpp:106] Creating Layer inception_4a/3x3
I1105 17:35:03.740521 24588 net.cpp:454] inception_4a/3x3 <- inception_4a/3x3_reduce
I1105 17:35:03.740530 24588 net.cpp:411] inception_4a/3x3 -> inception_4a/3x3
I1105 17:35:03.742801 24588 cudnn_conv_layer.cpp:194] Reallocating workspace storage: 10080
I1105 17:35:03.742825 24588 net.cpp:150] Setting up inception_4a/3x3
I1105 17:35:03.742833 24588 net.cpp:157] Top shape: 32 208 14 14 (1304576)
I1105 17:35:03.742838 24588 net.cpp:165] Memory required for data: 1158865408
I1105 17:35:03.742846 24588 layer_factory.hpp:76] Creating layer inception_4a/prelu_3x3
I1105 17:35:03.742856 24588 net.cpp:106] Creating Layer inception_4a/prelu_3x3
I1105 17:35:03.742861 24588 net.cpp:454] inception_4a/prelu_3x3 <- inception_4a/3x3
I1105 17:35:03.742867 24588 net.cpp:397] inception_4a/prelu_3x3 -> inception_4a/3x3 (in-place)
I1105 17:35:03.742980 24588 net.cpp:150] Setting up inception_4a/prelu_3x3
I1105 17:35:03.742990 24588 net.cpp:157] Top shape: 32 208 14 14 (1304576)
I1105 17:35:03.742995 24588 net.cpp:165] Memory required for data: 1164083712
I1105 17:35:03.743000 24588 layer_factory.hpp:76] Creating layer inception_4a/5x5_reduce
I1105 17:35:03.743010 24588 net.cpp:106] Creating Layer inception_4a/5x5_reduce
I1105 17:35:03.743015 24588 net.cpp:454] inception_4a/5x5_reduce <- pool3/3x3_s2_pool3/3x3_s2_0_split_2
I1105 17:35:03.743021 24588 net.cpp:411] inception_4a/5x5_reduce -> inception_4a/5x5_reduce
I1105 17:35:03.744035 24588 cudnn_conv_layer.cpp:194] Reallocating workspace storage: 10080
I1105 17:35:03.744056 24588 net.cpp:150] Setting up inception_4a/5x5_reduce
I1105 17:35:03.744065 24588 net.cpp:157] Top shape: 32 16 14 14 (100352)
I1105 17:35:03.744070 24588 net.cpp:165] Memory required for data: 1164485120
I1105 17:35:03.744076 24588 layer_factory.hpp:76] Creating layer inception_4a/prelu_5x5_reduce
I1105 17:35:03.744083 24588 net.cpp:106] Creating Layer inception_4a/prelu_5x5_reduce
I1105 17:35:03.744091 24588 net.cpp:454] inception_4a/prelu_5x5_reduce <- inception_4a/5x5_reduce
I1105 17:35:03.744097 24588 net.cpp:397] inception_4a/prelu_5x5_reduce -> inception_4a/5x5_reduce (in-place)
I1105 17:35:03.744177 24588 net.cpp:150] Setting up inception_4a/prelu_5x5_reduce
I1105 17:35:03.744186 24588 net.cpp:157] Top shape: 32 16 14 14 (100352)
I1105 17:35:03.744190 24588 net.cpp:165] Memory required for data: 1164886528
I1105 17:35:03.744196 24588 layer_factory.hpp:76] Creating layer inception_4a/5x5
I1105 17:35:03.744205 24588 net.cpp:106] Creating Layer inception_4a/5x5
I1105 17:35:03.744210 24588 net.cpp:454] inception_4a/5x5 <- inception_4a/5x5_reduce
I1105 17:35:03.744217 24588 net.cpp:411] inception_4a/5x5 -> inception_4a/5x5
I1105 17:35:03.745297 24588 cudnn_conv_layer.cpp:194] Reallocating workspace storage: 13080
I1105 17:35:03.745319 24588 net.cpp:150] Setting up inception_4a/5x5
I1105 17:35:03.745327 24588 net.cpp:157] Top shape: 32 48 14 14 (301056)
I1105 17:35:03.745332 24588 net.cpp:165] Memory required for data: 1166090752
I1105 17:35:03.745352 24588 layer_factory.hpp:76] Creating layer inception_4a/prelu_5x5
I1105 17:35:03.745362 24588 net.cpp:106] Creating Layer inception_4a/prelu_5x5
I1105 17:35:03.745368 24588 net.cpp:454] inception_4a/prelu_5x5 <- inception_4a/5x5
I1105 17:35:03.745374 24588 net.cpp:397] inception_4a/prelu_5x5 -> inception_4a/5x5 (in-place)
I1105 17:35:03.745460 24588 net.cpp:150] Setting up inception_4a/prelu_5x5
I1105 17:35:03.745470 24588 net.cpp:157] Top shape: 32 48 14 14 (301056)
I1105 17:35:03.745473 24588 net.cpp:165] Memory required for data: 1167294976
I1105 17:35:03.745478 24588 layer_factory.hpp:76] Creating layer inception_4a/pool
I1105 17:35:03.745486 24588 net.cpp:106] Creating Layer inception_4a/pool
I1105 17:35:03.745491 24588 net.cpp:454] inception_4a/pool <- pool3/3x3_s2_pool3/3x3_s2_0_split_3
I1105 17:35:03.745497 24588 net.cpp:411] inception_4a/pool -> inception_4a/pool
I1105 17:35:03.745851 24588 net.cpp:150] Setting up inception_4a/pool
I1105 17:35:03.745862 24588 net.cpp:157] Top shape: 32 480 14 14 (3010560)
I1105 17:35:03.745867 24588 net.cpp:165] Memory required for data: 1179337216
I1105 17:35:03.745870 24588 layer_factory.hpp:76] Creating layer inception_4a/pool_proj
I1105 17:35:03.745880 24588 net.cpp:106] Creating Layer inception_4a/pool_proj
I1105 17:35:03.745887 24588 net.cpp:454] inception_4a/pool_proj <- inception_4a/pool
I1105 17:35:03.745894 24588 net.cpp:411] inception_4a/pool_proj -> inception_4a/pool_proj
I1105 17:35:03.746876 24588 cudnn_conv_layer.cpp:194] Reallocating workspace storage: 10080
I1105 17:35:03.746903 24588 net.cpp:150] Setting up inception_4a/pool_proj
I1105 17:35:03.746912 24588 net.cpp:157] Top shape: 32 64 14 14 (401408)
I1105 17:35:03.746915 24588 net.cpp:165] Memory required for data: 1180942848
I1105 17:35:03.746922 24588 layer_factory.hpp:76] Creating layer inception_4a/prelu_pool_proj
I1105 17:35:03.746929 24588 net.cpp:106] Creating Layer inception_4a/prelu_pool_proj
I1105 17:35:03.746937 24588 net.cpp:454] inception_4a/prelu_pool_proj <- inception_4a/pool_proj
I1105 17:35:03.746942 24588 net.cpp:397] inception_4a/prelu_pool_proj -> inception_4a/pool_proj (in-place)
I1105 17:35:03.747033 24588 net.cpp:150] Setting up inception_4a/prelu_pool_proj
I1105 17:35:03.747043 24588 net.cpp:157] Top shape: 32 64 14 14 (401408)
I1105 17:35:03.747047 24588 net.cpp:165] Memory required for data: 1182548480
I1105 17:35:03.747052 24588 layer_factory.hpp:76] Creating layer inception_4a/output
I1105 17:35:03.747058 24588 net.cpp:106] Creating Layer inception_4a/output
I1105 17:35:03.747063 24588 net.cpp:454] inception_4a/output <- inception_4a/1x1
I1105 17:35:03.747068 24588 net.cpp:454] inception_4a/output <- inception_4a/3x3
I1105 17:35:03.747073 24588 net.cpp:454] inception_4a/output <- inception_4a/5x5
I1105 17:35:03.747077 24588 net.cpp:454] inception_4a/output <- inception_4a/pool_proj
I1105 17:35:03.747084 24588 net.cpp:411] inception_4a/output -> inception_4a/output
I1105 17:35:03.747107 24588 net.cpp:150] Setting up inception_4a/output
I1105 17:35:03.747115 24588 net.cpp:157] Top shape: 32 512 14 14 (3211264)
I1105 17:35:03.747119 24588 net.cpp:165] Memory required for data: 1195393536
I1105 17:35:03.747123 24588 layer_factory.hpp:76] Creating layer inception_4a/output_inception_4a/output_0_split
I1105 17:35:03.747131 24588 net.cpp:106] Creating Layer inception_4a/output_inception_4a/output_0_split
I1105 17:35:03.747135 24588 net.cpp:454] inception_4a/output_inception_4a/output_0_split <- inception_4a/output
I1105 17:35:03.747141 24588 net.cpp:411] inception_4a/output_inception_4a/output_0_split -> inception_4a/output_inception_4a/output_0_split_0
I1105 17:35:03.747150 24588 net.cpp:411] inception_4a/output_inception_4a/output_0_split -> inception_4a/output_inception_4a/output_0_split_1
I1105 17:35:03.747158 24588 net.cpp:411] inception_4a/output_inception_4a/output_0_split -> inception_4a/output_inception_4a/output_0_split_2
I1105 17:35:03.747164 24588 net.cpp:411] inception_4a/output_inception_4a/output_0_split -> inception_4a/output_inception_4a/output_0_split_3
I1105 17:35:03.747189 24588 net.cpp:411] inception_4a/output_inception_4a/output_0_split -> inception_4a/output_inception_4a/output_0_split_4
I1105 17:35:03.747261 24588 net.cpp:150] Setting up inception_4a/output_inception_4a/output_0_split
I1105 17:35:03.747268 24588 net.cpp:157] Top shape: 32 512 14 14 (3211264)
I1105 17:35:03.747273 24588 net.cpp:157] Top shape: 32 512 14 14 (3211264)
I1105 17:35:03.747287 24588 net.cpp:157] Top shape: 32 512 14 14 (3211264)
I1105 17:35:03.747292 24588 net.cpp:157] Top shape: 32 512 14 14 (3211264)
I1105 17:35:03.747297 24588 net.cpp:157] Top shape: 32 512 14 14 (3211264)
I1105 17:35:03.747300 24588 net.cpp:165] Memory required for data: 1259618816
I1105 17:35:03.747304 24588 layer_factory.hpp:76] Creating layer loss1/ave_pool
I1105 17:35:03.747313 24588 net.cpp:106] Creating Layer loss1/ave_pool
I1105 17:35:03.747316 24588 net.cpp:454] loss1/ave_pool <- inception_4a/output_inception_4a/output_0_split_0
I1105 17:35:03.747323 24588 net.cpp:411] loss1/ave_pool -> loss1/ave_pool
I1105 17:35:03.747669 24588 net.cpp:150] Setting up loss1/ave_pool
I1105 17:35:03.747683 24588 net.cpp:157] Top shape: 32 512 4 4 (262144)
I1105 17:35:03.747689 24588 net.cpp:165] Memory required for data: 1260667392
I1105 17:35:03.747692 24588 layer_factory.hpp:76] Creating layer loss1/conv
I1105 17:35:03.747700 24588 net.cpp:106] Creating Layer loss1/conv
I1105 17:35:03.747705 24588 net.cpp:454] loss1/conv <- loss1/ave_pool
I1105 17:35:03.747714 24588 net.cpp:411] loss1/conv -> loss1/conv
I1105 17:35:03.749092 24588 cudnn_conv_layer.cpp:194] Reallocating workspace storage: 6840
I1105 17:35:03.749116 24588 net.cpp:150] Setting up loss1/conv
I1105 17:35:03.749125 24588 net.cpp:157] Top shape: 32 128 4 4 (65536)
I1105 17:35:03.749128 24588 net.cpp:165] Memory required for data: 1260929536
I1105 17:35:03.749147 24588 layer_factory.hpp:76] Creating layer loss1/prelu_conv
I1105 17:35:03.749156 24588 net.cpp:106] Creating Layer loss1/prelu_conv
I1105 17:35:03.749162 24588 net.cpp:454] loss1/prelu_conv <- loss1/conv
I1105 17:35:03.749169 24588 net.cpp:397] loss1/prelu_conv -> loss1/conv (in-place)
I1105 17:35:03.749250 24588 net.cpp:150] Setting up loss1/prelu_conv
I1105 17:35:03.749259 24588 net.cpp:157] Top shape: 32 128 4 4 (65536)
I1105 17:35:03.749264 24588 net.cpp:165] Memory required for data: 1261191680
I1105 17:35:03.749269 24588 layer_factory.hpp:76] Creating layer loss1/fc
I1105 17:35:03.749280 24588 net.cpp:106] Creating Layer loss1/fc
I1105 17:35:03.749286 24588 net.cpp:454] loss1/fc <- loss1/conv
I1105 17:35:03.749294 24588 net.cpp:411] loss1/fc -> loss1/fc
I1105 17:35:03.765022 24588 net.cpp:150] Setting up loss1/fc
I1105 17:35:03.765094 24588 net.cpp:157] Top shape: 32 1024 (32768)
I1105 17:35:03.765112 24588 net.cpp:165] Memory required for data: 1261322752
I1105 17:35:03.765128 24588 layer_factory.hpp:76] Creating layer loss1/prelu_fc
I1105 17:35:03.765147 24588 net.cpp:106] Creating Layer loss1/prelu_fc
I1105 17:35:03.765158 24588 net.cpp:454] loss1/prelu_fc <- loss1/fc
I1105 17:35:03.765172 24588 net.cpp:397] loss1/prelu_fc -> loss1/fc (in-place)
I1105 17:35:03.765296 24588 net.cpp:150] Setting up loss1/prelu_fc
I1105 17:35:03.765308 24588 net.cpp:157] Top shape: 32 1024 (32768)
I1105 17:35:03.765313 24588 net.cpp:165] Memory required for data: 1261453824
I1105 17:35:03.765327 24588 layer_factory.hpp:76] Creating layer loss1/drop_fc
I1105 17:35:03.765349 24588 net.cpp:106] Creating Layer loss1/drop_fc
I1105 17:35:03.765363 24588 net.cpp:454] loss1/drop_fc <- loss1/fc
I1105 17:35:03.765377 24588 net.cpp:397] loss1/drop_fc -> loss1/fc (in-place)
I1105 17:35:03.765420 24588 net.cpp:150] Setting up loss1/drop_fc
I1105 17:35:03.765429 24588 net.cpp:157] Top shape: 32 1024 (32768)
I1105 17:35:03.765434 24588 net.cpp:165] Memory required for data: 1261584896
I1105 17:35:03.765439 24588 layer_factory.hpp:76] Creating layer loss1/classifier2
I1105 17:35:03.765446 24588 net.cpp:106] Creating Layer loss1/classifier2
I1105 17:35:03.765450 24588 net.cpp:454] loss1/classifier2 <- loss1/fc
I1105 17:35:03.765475 24588 net.cpp:411] loss1/classifier2 -> loss1/classifier
I1105 17:35:03.765612 24588 net.cpp:150] Setting up loss1/classifier2
I1105 17:35:03.765624 24588 net.cpp:157] Top shape: 32 2 (64)
I1105 17:35:03.765627 24588 net.cpp:165] Memory required for data: 1261585152
I1105 17:35:03.765646 24588 layer_factory.hpp:76] Creating layer loss1/loss
I1105 17:35:03.765657 24588 net.cpp:106] Creating Layer loss1/loss
I1105 17:35:03.765663 24588 net.cpp:454] loss1/loss <- loss1/classifier
I1105 17:35:03.765669 24588 net.cpp:454] loss1/loss <- label_data_1_split_0
I1105 17:35:03.765679 24588 net.cpp:411] loss1/loss -> loss1/loss1
I1105 17:35:03.765697 24588 layer_factory.hpp:76] Creating layer loss1/loss
I1105 17:35:03.766074 24588 net.cpp:150] Setting up loss1/loss
I1105 17:35:03.766090 24588 net.cpp:157] Top shape: (1)
I1105 17:35:03.766095 24588 net.cpp:160]     with loss weight 0.3
I1105 17:35:03.766131 24588 net.cpp:165] Memory required for data: 1261585156
I1105 17:35:03.766137 24588 layer_factory.hpp:76] Creating layer inception_4b/1x1
I1105 17:35:03.766149 24588 net.cpp:106] Creating Layer inception_4b/1x1
I1105 17:35:03.766155 24588 net.cpp:454] inception_4b/1x1 <- inception_4a/output_inception_4a/output_0_split_1
I1105 17:35:03.766185 24588 net.cpp:411] inception_4b/1x1 -> inception_4b/1x1
I1105 17:35:03.767930 24588 cudnn_conv_layer.cpp:194] Reallocating workspace storage: 10080
I1105 17:35:03.767971 24588 net.cpp:150] Setting up inception_4b/1x1
I1105 17:35:03.767982 24588 net.cpp:157] Top shape: 32 160 14 14 (1003520)
I1105 17:35:03.767987 24588 net.cpp:165] Memory required for data: 1265599236
I1105 17:35:03.767997 24588 layer_factory.hpp:76] Creating layer inception_4b/prelu_1x1
I1105 17:35:03.768012 24588 net.cpp:106] Creating Layer inception_4b/prelu_1x1
I1105 17:35:03.768018 24588 net.cpp:454] inception_4b/prelu_1x1 <- inception_4b/1x1
I1105 17:35:03.768028 24588 net.cpp:397] inception_4b/prelu_1x1 -> inception_4b/1x1 (in-place)
I1105 17:35:03.768641 24588 net.cpp:150] Setting up inception_4b/prelu_1x1
I1105 17:35:03.768657 24588 net.cpp:157] Top shape: 32 160 14 14 (1003520)
I1105 17:35:03.768662 24588 net.cpp:165] Memory required for data: 1269613316
I1105 17:35:03.768669 24588 layer_factory.hpp:76] Creating layer inception_4b/3x3_reduce
I1105 17:35:03.768682 24588 net.cpp:106] Creating Layer inception_4b/3x3_reduce
I1105 17:35:03.768690 24588 net.cpp:454] inception_4b/3x3_reduce <- inception_4a/output_inception_4a/output_0_split_2
I1105 17:35:03.768698 24588 net.cpp:411] inception_4b/3x3_reduce -> inception_4b/3x3_reduce
I1105 17:35:03.770333 24588 cudnn_conv_layer.cpp:194] Reallocating workspace storage: 10080
I1105 17:35:03.770369 24588 net.cpp:150] Setting up inception_4b/3x3_reduce
I1105 17:35:03.770378 24588 net.cpp:157] Top shape: 32 112 14 14 (702464)
I1105 17:35:03.770382 24588 net.cpp:165] Memory required for data: 1272423172
I1105 17:35:03.770390 24588 layer_factory.hpp:76] Creating layer inception_4b/prelu_3x3_reduce
I1105 17:35:03.770401 24588 net.cpp:106] Creating Layer inception_4b/prelu_3x3_reduce
I1105 17:35:03.770408 24588 net.cpp:454] inception_4b/prelu_3x3_reduce <- inception_4b/3x3_reduce
I1105 17:35:03.770416 24588 net.cpp:397] inception_4b/prelu_3x3_reduce -> inception_4b/3x3_reduce (in-place)
I1105 17:35:03.770515 24588 net.cpp:150] Setting up inception_4b/prelu_3x3_reduce
I1105 17:35:03.770525 24588 net.cpp:157] Top shape: 32 112 14 14 (702464)
I1105 17:35:03.770529 24588 net.cpp:165] Memory required for data: 1275233028
I1105 17:35:03.770535 24588 layer_factory.hpp:76] Creating layer inception_4b/3x3
I1105 17:35:03.770545 24588 net.cpp:106] Creating Layer inception_4b/3x3
I1105 17:35:03.770551 24588 net.cpp:454] inception_4b/3x3 <- inception_4b/3x3_reduce
I1105 17:35:03.770560 24588 net.cpp:411] inception_4b/3x3 -> inception_4b/3x3
I1105 17:35:03.773386 24588 cudnn_conv_layer.cpp:194] Reallocating workspace storage: 10080
I1105 17:35:03.773411 24588 net.cpp:150] Setting up inception_4b/3x3
I1105 17:35:03.773421 24588 net.cpp:157] Top shape: 32 224 14 14 (1404928)
I1105 17:35:03.773439 24588 net.cpp:165] Memory required for data: 1280852740
I1105 17:35:03.773447 24588 layer_factory.hpp:76] Creating layer inception_4b/prelu_3x3
I1105 17:35:03.773459 24588 net.cpp:106] Creating Layer inception_4b/prelu_3x3
I1105 17:35:03.773465 24588 net.cpp:454] inception_4b/prelu_3x3 <- inception_4b/3x3
I1105 17:35:03.773473 24588 net.cpp:397] inception_4b/prelu_3x3 -> inception_4b/3x3 (in-place)
I1105 17:35:03.773592 24588 net.cpp:150] Setting up inception_4b/prelu_3x3
I1105 17:35:03.773602 24588 net.cpp:157] Top shape: 32 224 14 14 (1404928)
I1105 17:35:03.773607 24588 net.cpp:165] Memory required for data: 1286472452
I1105 17:35:03.773612 24588 layer_factory.hpp:76] Creating layer inception_4b/5x5_reduce
I1105 17:35:03.773622 24588 net.cpp:106] Creating Layer inception_4b/5x5_reduce
I1105 17:35:03.773628 24588 net.cpp:454] inception_4b/5x5_reduce <- inception_4a/output_inception_4a/output_0_split_3
I1105 17:35:03.773635 24588 net.cpp:411] inception_4b/5x5_reduce -> inception_4b/5x5_reduce
I1105 17:35:03.774523 24588 cudnn_conv_layer.cpp:194] Reallocating workspace storage: 10080
I1105 17:35:03.774548 24588 net.cpp:150] Setting up inception_4b/5x5_reduce
I1105 17:35:03.774555 24588 net.cpp:157] Top shape: 32 24 14 14 (150528)
I1105 17:35:03.774559 24588 net.cpp:165] Memory required for data: 1287074564
I1105 17:35:03.774566 24588 layer_factory.hpp:76] Creating layer inception_4b/prelu_5x5_reduce
I1105 17:35:03.774575 24588 net.cpp:106] Creating Layer inception_4b/prelu_5x5_reduce
I1105 17:35:03.774581 24588 net.cpp:454] inception_4b/prelu_5x5_reduce <- inception_4b/5x5_reduce
I1105 17:35:03.774596 24588 net.cpp:397] inception_4b/prelu_5x5_reduce -> inception_4b/5x5_reduce (in-place)
I1105 17:35:03.774684 24588 net.cpp:150] Setting up inception_4b/prelu_5x5_reduce
I1105 17:35:03.774694 24588 net.cpp:157] Top shape: 32 24 14 14 (150528)
I1105 17:35:03.774698 24588 net.cpp:165] Memory required for data: 1287676676
I1105 17:35:03.774704 24588 layer_factory.hpp:76] Creating layer inception_4b/5x5
I1105 17:35:03.774713 24588 net.cpp:106] Creating Layer inception_4b/5x5
I1105 17:35:03.774718 24588 net.cpp:454] inception_4b/5x5 <- inception_4b/5x5_reduce
I1105 17:35:03.774726 24588 net.cpp:411] inception_4b/5x5 -> inception_4b/5x5
I1105 17:35:03.776180 24588 cudnn_conv_layer.cpp:194] Reallocating workspace storage: 13080
I1105 17:35:03.776206 24588 net.cpp:150] Setting up inception_4b/5x5
I1105 17:35:03.776214 24588 net.cpp:157] Top shape: 32 64 14 14 (401408)
I1105 17:35:03.776218 24588 net.cpp:165] Memory required for data: 1289282308
I1105 17:35:03.776226 24588 layer_factory.hpp:76] Creating layer inception_4b/prelu_5x5
I1105 17:35:03.776237 24588 net.cpp:106] Creating Layer inception_4b/prelu_5x5
I1105 17:35:03.776242 24588 net.cpp:454] inception_4b/prelu_5x5 <- inception_4b/5x5
I1105 17:35:03.776248 24588 net.cpp:397] inception_4b/prelu_5x5 -> inception_4b/5x5 (in-place)
I1105 17:35:03.776351 24588 net.cpp:150] Setting up inception_4b/prelu_5x5
I1105 17:35:03.776361 24588 net.cpp:157] Top shape: 32 64 14 14 (401408)
I1105 17:35:03.776365 24588 net.cpp:165] Memory required for data: 1290887940
I1105 17:35:03.776371 24588 layer_factory.hpp:76] Creating layer inception_4b/pool
I1105 17:35:03.776381 24588 net.cpp:106] Creating Layer inception_4b/pool
I1105 17:35:03.776387 24588 net.cpp:454] inception_4b/pool <- inception_4a/output_inception_4a/output_0_split_4
I1105 17:35:03.776393 24588 net.cpp:411] inception_4b/pool -> inception_4b/pool
I1105 17:35:03.776769 24588 net.cpp:150] Setting up inception_4b/pool
I1105 17:35:03.776783 24588 net.cpp:157] Top shape: 32 512 14 14 (3211264)
I1105 17:35:03.776789 24588 net.cpp:165] Memory required for data: 1303732996
I1105 17:35:03.776794 24588 layer_factory.hpp:76] Creating layer inception_4b/pool_proj
I1105 17:35:03.776803 24588 net.cpp:106] Creating Layer inception_4b/pool_proj
I1105 17:35:03.776808 24588 net.cpp:454] inception_4b/pool_proj <- inception_4b/pool
I1105 17:35:03.776818 24588 net.cpp:411] inception_4b/pool_proj -> inception_4b/pool_proj
I1105 17:35:03.778058 24588 cudnn_conv_layer.cpp:194] Reallocating workspace storage: 10080
I1105 17:35:03.778085 24588 net.cpp:150] Setting up inception_4b/pool_proj
I1105 17:35:03.778094 24588 net.cpp:157] Top shape: 32 64 14 14 (401408)
I1105 17:35:03.778098 24588 net.cpp:165] Memory required for data: 1305338628
I1105 17:35:03.778105 24588 layer_factory.hpp:76] Creating layer inception_4b/prelu_pool_proj
I1105 17:35:03.778115 24588 net.cpp:106] Creating Layer inception_4b/prelu_pool_proj
I1105 17:35:03.778120 24588 net.cpp:454] inception_4b/prelu_pool_proj <- inception_4b/pool_proj
I1105 17:35:03.778127 24588 net.cpp:397] inception_4b/prelu_pool_proj -> inception_4b/pool_proj (in-place)
I1105 17:35:03.778223 24588 net.cpp:150] Setting up inception_4b/prelu_pool_proj
I1105 17:35:03.778233 24588 net.cpp:157] Top shape: 32 64 14 14 (401408)
I1105 17:35:03.778236 24588 net.cpp:165] Memory required for data: 1306944260
I1105 17:35:03.778242 24588 layer_factory.hpp:76] Creating layer inception_4b/output
I1105 17:35:03.778249 24588 net.cpp:106] Creating Layer inception_4b/output
I1105 17:35:03.778254 24588 net.cpp:454] inception_4b/output <- inception_4b/1x1
I1105 17:35:03.778259 24588 net.cpp:454] inception_4b/output <- inception_4b/3x3
I1105 17:35:03.778264 24588 net.cpp:454] inception_4b/output <- inception_4b/5x5
I1105 17:35:03.778269 24588 net.cpp:454] inception_4b/output <- inception_4b/pool_proj
I1105 17:35:03.778275 24588 net.cpp:411] inception_4b/output -> inception_4b/output
I1105 17:35:03.778302 24588 net.cpp:150] Setting up inception_4b/output
I1105 17:35:03.778311 24588 net.cpp:157] Top shape: 32 512 14 14 (3211264)
I1105 17:35:03.778314 24588 net.cpp:165] Memory required for data: 1319789316
I1105 17:35:03.778319 24588 layer_factory.hpp:76] Creating layer inception_4b/output_inception_4b/output_0_split
I1105 17:35:03.778326 24588 net.cpp:106] Creating Layer inception_4b/output_inception_4b/output_0_split
I1105 17:35:03.778331 24588 net.cpp:454] inception_4b/output_inception_4b/output_0_split <- inception_4b/output
I1105 17:35:03.778337 24588 net.cpp:411] inception_4b/output_inception_4b/output_0_split -> inception_4b/output_inception_4b/output_0_split_0
I1105 17:35:03.778344 24588 net.cpp:411] inception_4b/output_inception_4b/output_0_split -> inception_4b/output_inception_4b/output_0_split_1
I1105 17:35:03.778352 24588 net.cpp:411] inception_4b/output_inception_4b/output_0_split -> inception_4b/output_inception_4b/output_0_split_2
I1105 17:35:03.778358 24588 net.cpp:411] inception_4b/output_inception_4b/output_0_split -> inception_4b/output_inception_4b/output_0_split_3
I1105 17:35:03.778415 24588 net.cpp:150] Setting up inception_4b/output_inception_4b/output_0_split
I1105 17:35:03.778424 24588 net.cpp:157] Top shape: 32 512 14 14 (3211264)
I1105 17:35:03.778429 24588 net.cpp:157] Top shape: 32 512 14 14 (3211264)
I1105 17:35:03.778434 24588 net.cpp:157] Top shape: 32 512 14 14 (3211264)
I1105 17:35:03.778439 24588 net.cpp:157] Top shape: 32 512 14 14 (3211264)
I1105 17:35:03.778442 24588 net.cpp:165] Memory required for data: 1371169540
I1105 17:35:03.778446 24588 layer_factory.hpp:76] Creating layer inception_4c/1x1
I1105 17:35:03.778455 24588 net.cpp:106] Creating Layer inception_4c/1x1
I1105 17:35:03.778460 24588 net.cpp:454] inception_4c/1x1 <- inception_4b/output_inception_4b/output_0_split_0
I1105 17:35:03.778466 24588 net.cpp:411] inception_4c/1x1 -> inception_4c/1x1
I1105 17:35:03.780170 24588 cudnn_conv_layer.cpp:194] Reallocating workspace storage: 10080
I1105 17:35:03.780196 24588 net.cpp:150] Setting up inception_4c/1x1
I1105 17:35:03.780207 24588 net.cpp:157] Top shape: 32 128 14 14 (802816)
I1105 17:35:03.780211 24588 net.cpp:165] Memory required for data: 1374380804
I1105 17:35:03.780220 24588 layer_factory.hpp:76] Creating layer inception_4c/prelu_1x1
I1105 17:35:03.780227 24588 net.cpp:106] Creating Layer inception_4c/prelu_1x1
I1105 17:35:03.780233 24588 net.cpp:454] inception_4c/prelu_1x1 <- inception_4c/1x1
I1105 17:35:03.780241 24588 net.cpp:397] inception_4c/prelu_1x1 -> inception_4c/1x1 (in-place)
I1105 17:35:03.780344 24588 net.cpp:150] Setting up inception_4c/prelu_1x1
I1105 17:35:03.780354 24588 net.cpp:157] Top shape: 32 128 14 14 (802816)
I1105 17:35:03.780359 24588 net.cpp:165] Memory required for data: 1377592068
I1105 17:35:03.780364 24588 layer_factory.hpp:76] Creating layer inception_4c/3x3_reduce
I1105 17:35:03.780374 24588 net.cpp:106] Creating Layer inception_4c/3x3_reduce
I1105 17:35:03.780378 24588 net.cpp:454] inception_4c/3x3_reduce <- inception_4b/output_inception_4b/output_0_split_1
I1105 17:35:03.780386 24588 net.cpp:411] inception_4c/3x3_reduce -> inception_4c/3x3_reduce
I1105 17:35:03.781790 24588 cudnn_conv_layer.cpp:194] Reallocating workspace storage: 10080
I1105 17:35:03.781815 24588 net.cpp:150] Setting up inception_4c/3x3_reduce
I1105 17:35:03.781824 24588 net.cpp:157] Top shape: 32 128 14 14 (802816)
I1105 17:35:03.781828 24588 net.cpp:165] Memory required for data: 1380803332
I1105 17:35:03.781836 24588 layer_factory.hpp:76] Creating layer inception_4c/prelu_3x3_reduce
I1105 17:35:03.781843 24588 net.cpp:106] Creating Layer inception_4c/prelu_3x3_reduce
I1105 17:35:03.781849 24588 net.cpp:454] inception_4c/prelu_3x3_reduce <- inception_4c/3x3_reduce
I1105 17:35:03.781855 24588 net.cpp:397] inception_4c/prelu_3x3_reduce -> inception_4c/3x3_reduce (in-place)
I1105 17:35:03.781949 24588 net.cpp:150] Setting up inception_4c/prelu_3x3_reduce
I1105 17:35:03.781957 24588 net.cpp:157] Top shape: 32 128 14 14 (802816)
I1105 17:35:03.781962 24588 net.cpp:165] Memory required for data: 1384014596
I1105 17:35:03.781967 24588 layer_factory.hpp:76] Creating layer inception_4c/3x3
I1105 17:35:03.781977 24588 net.cpp:106] Creating Layer inception_4c/3x3
I1105 17:35:03.781982 24588 net.cpp:454] inception_4c/3x3 <- inception_4c/3x3_reduce
I1105 17:35:03.781991 24588 net.cpp:411] inception_4c/3x3 -> inception_4c/3x3
I1105 17:35:03.785563 24588 cudnn_conv_layer.cpp:194] Reallocating workspace storage: 10080
I1105 17:35:03.785594 24588 net.cpp:150] Setting up inception_4c/3x3
I1105 17:35:03.785604 24588 net.cpp:157] Top shape: 32 256 14 14 (1605632)
I1105 17:35:03.785608 24588 net.cpp:165] Memory required for data: 1390437124
I1105 17:35:03.785615 24588 layer_factory.hpp:76] Creating layer inception_4c/prelu_3x3
I1105 17:35:03.785625 24588 net.cpp:106] Creating Layer inception_4c/prelu_3x3
I1105 17:35:03.785632 24588 net.cpp:454] inception_4c/prelu_3x3 <- inception_4c/3x3
I1105 17:35:03.785640 24588 net.cpp:397] inception_4c/prelu_3x3 -> inception_4c/3x3 (in-place)
I1105 17:35:03.785753 24588 net.cpp:150] Setting up inception_4c/prelu_3x3
I1105 17:35:03.785763 24588 net.cpp:157] Top shape: 32 256 14 14 (1605632)
I1105 17:35:03.785768 24588 net.cpp:165] Memory required for data: 1396859652
I1105 17:35:03.785773 24588 layer_factory.hpp:76] Creating layer inception_4c/5x5_reduce
I1105 17:35:03.785784 24588 net.cpp:106] Creating Layer inception_4c/5x5_reduce
I1105 17:35:03.785790 24588 net.cpp:454] inception_4c/5x5_reduce <- inception_4b/output_inception_4b/output_0_split_2
I1105 17:35:03.785799 24588 net.cpp:411] inception_4c/5x5_reduce -> inception_4c/5x5_reduce
I1105 17:35:03.786906 24588 cudnn_conv_layer.cpp:194] Reallocating workspace storage: 10080
I1105 17:35:03.786931 24588 net.cpp:150] Setting up inception_4c/5x5_reduce
I1105 17:35:03.786941 24588 net.cpp:157] Top shape: 32 24 14 14 (150528)
I1105 17:35:03.786947 24588 net.cpp:165] Memory required for data: 1397461764
I1105 17:35:03.786954 24588 layer_factory.hpp:76] Creating layer inception_4c/prelu_5x5_reduce
I1105 17:35:03.786963 24588 net.cpp:106] Creating Layer inception_4c/prelu_5x5_reduce
I1105 17:35:03.786969 24588 net.cpp:454] inception_4c/prelu_5x5_reduce <- inception_4c/5x5_reduce
I1105 17:35:03.786978 24588 net.cpp:397] inception_4c/prelu_5x5_reduce -> inception_4c/5x5_reduce (in-place)
I1105 17:35:03.787067 24588 net.cpp:150] Setting up inception_4c/prelu_5x5_reduce
I1105 17:35:03.787078 24588 net.cpp:157] Top shape: 32 24 14 14 (150528)
I1105 17:35:03.787082 24588 net.cpp:165] Memory required for data: 1398063876
I1105 17:35:03.787099 24588 layer_factory.hpp:76] Creating layer inception_4c/5x5
I1105 17:35:03.787107 24588 net.cpp:106] Creating Layer inception_4c/5x5
I1105 17:35:03.787112 24588 net.cpp:454] inception_4c/5x5 <- inception_4c/5x5_reduce
I1105 17:35:03.787120 24588 net.cpp:411] inception_4c/5x5 -> inception_4c/5x5
I1105 17:35:03.788820 24588 cudnn_conv_layer.cpp:194] Reallocating workspace storage: 13080
I1105 17:35:03.788854 24588 net.cpp:150] Setting up inception_4c/5x5
I1105 17:35:03.788864 24588 net.cpp:157] Top shape: 32 64 14 14 (401408)
I1105 17:35:03.788877 24588 net.cpp:165] Memory required for data: 1399669508
I1105 17:35:03.788892 24588 layer_factory.hpp:76] Creating layer inception_4c/prelu_5x5
I1105 17:35:03.788902 24588 net.cpp:106] Creating Layer inception_4c/prelu_5x5
I1105 17:35:03.788908 24588 net.cpp:454] inception_4c/prelu_5x5 <- inception_4c/5x5
I1105 17:35:03.788915 24588 net.cpp:397] inception_4c/prelu_5x5 -> inception_4c/5x5 (in-place)
I1105 17:35:03.789042 24588 net.cpp:150] Setting up inception_4c/prelu_5x5
I1105 17:35:03.789052 24588 net.cpp:157] Top shape: 32 64 14 14 (401408)
I1105 17:35:03.789055 24588 net.cpp:165] Memory required for data: 1401275140
I1105 17:35:03.789060 24588 layer_factory.hpp:76] Creating layer inception_4c/pool
I1105 17:35:03.789077 24588 net.cpp:106] Creating Layer inception_4c/pool
I1105 17:35:03.789084 24588 net.cpp:454] inception_4c/pool <- inception_4b/output_inception_4b/output_0_split_3
I1105 17:35:03.789093 24588 net.cpp:411] inception_4c/pool -> inception_4c/pool
I1105 17:35:03.789268 24588 net.cpp:150] Setting up inception_4c/pool
I1105 17:35:03.789278 24588 net.cpp:157] Top shape: 32 512 14 14 (3211264)
I1105 17:35:03.789283 24588 net.cpp:165] Memory required for data: 1414120196
I1105 17:35:03.789288 24588 layer_factory.hpp:76] Creating layer inception_4c/pool_proj
I1105 17:35:03.789304 24588 net.cpp:106] Creating Layer inception_4c/pool_proj
I1105 17:35:03.789311 24588 net.cpp:454] inception_4c/pool_proj <- inception_4c/pool
I1105 17:35:03.789325 24588 net.cpp:411] inception_4c/pool_proj -> inception_4c/pool_proj
I1105 17:35:03.790735 24588 cudnn_conv_layer.cpp:194] Reallocating workspace storage: 10080
I1105 17:35:03.790762 24588 net.cpp:150] Setting up inception_4c/pool_proj
I1105 17:35:03.790771 24588 net.cpp:157] Top shape: 32 64 14 14 (401408)
I1105 17:35:03.790774 24588 net.cpp:165] Memory required for data: 1415725828
I1105 17:35:03.790781 24588 layer_factory.hpp:76] Creating layer inception_4c/prelu_pool_proj
I1105 17:35:03.790791 24588 net.cpp:106] Creating Layer inception_4c/prelu_pool_proj
I1105 17:35:03.790796 24588 net.cpp:454] inception_4c/prelu_pool_proj <- inception_4c/pool_proj
I1105 17:35:03.790802 24588 net.cpp:397] inception_4c/prelu_pool_proj -> inception_4c/pool_proj (in-place)
I1105 17:35:03.790917 24588 net.cpp:150] Setting up inception_4c/prelu_pool_proj
I1105 17:35:03.790927 24588 net.cpp:157] Top shape: 32 64 14 14 (401408)
I1105 17:35:03.790930 24588 net.cpp:165] Memory required for data: 1417331460
I1105 17:35:03.790936 24588 layer_factory.hpp:76] Creating layer inception_4c/output
I1105 17:35:03.790951 24588 net.cpp:106] Creating Layer inception_4c/output
I1105 17:35:03.790956 24588 net.cpp:454] inception_4c/output <- inception_4c/1x1
I1105 17:35:03.790961 24588 net.cpp:454] inception_4c/output <- inception_4c/3x3
I1105 17:35:03.790982 24588 net.cpp:454] inception_4c/output <- inception_4c/5x5
I1105 17:35:03.790987 24588 net.cpp:454] inception_4c/output <- inception_4c/pool_proj
I1105 17:35:03.790994 24588 net.cpp:411] inception_4c/output -> inception_4c/output
I1105 17:35:03.791038 24588 net.cpp:150] Setting up inception_4c/output
I1105 17:35:03.791046 24588 net.cpp:157] Top shape: 32 512 14 14 (3211264)
I1105 17:35:03.791050 24588 net.cpp:165] Memory required for data: 1430176516
I1105 17:35:03.791055 24588 layer_factory.hpp:76] Creating layer inception_4c/output_inception_4c/output_0_split
I1105 17:35:03.791061 24588 net.cpp:106] Creating Layer inception_4c/output_inception_4c/output_0_split
I1105 17:35:03.791065 24588 net.cpp:454] inception_4c/output_inception_4c/output_0_split <- inception_4c/output
I1105 17:35:03.791082 24588 net.cpp:411] inception_4c/output_inception_4c/output_0_split -> inception_4c/output_inception_4c/output_0_split_0
I1105 17:35:03.791090 24588 net.cpp:411] inception_4c/output_inception_4c/output_0_split -> inception_4c/output_inception_4c/output_0_split_1
I1105 17:35:03.791100 24588 net.cpp:411] inception_4c/output_inception_4c/output_0_split -> inception_4c/output_inception_4c/output_0_split_2
I1105 17:35:03.791106 24588 net.cpp:411] inception_4c/output_inception_4c/output_0_split -> inception_4c/output_inception_4c/output_0_split_3
I1105 17:35:03.791167 24588 net.cpp:150] Setting up inception_4c/output_inception_4c/output_0_split
I1105 17:35:03.791184 24588 net.cpp:157] Top shape: 32 512 14 14 (3211264)
I1105 17:35:03.791198 24588 net.cpp:157] Top shape: 32 512 14 14 (3211264)
I1105 17:35:03.791203 24588 net.cpp:157] Top shape: 32 512 14 14 (3211264)
I1105 17:35:03.791208 24588 net.cpp:157] Top shape: 32 512 14 14 (3211264)
I1105 17:35:03.791211 24588 net.cpp:165] Memory required for data: 1481556740
I1105 17:35:03.791216 24588 layer_factory.hpp:76] Creating layer inception_4d/1x1
I1105 17:35:03.791224 24588 net.cpp:106] Creating Layer inception_4d/1x1
I1105 17:35:03.791229 24588 net.cpp:454] inception_4d/1x1 <- inception_4c/output_inception_4c/output_0_split_0
I1105 17:35:03.791236 24588 net.cpp:411] inception_4d/1x1 -> inception_4d/1x1
I1105 17:35:03.792625 24588 cudnn_conv_layer.cpp:194] Reallocating workspace storage: 10080
I1105 17:35:03.792650 24588 net.cpp:150] Setting up inception_4d/1x1
I1105 17:35:03.792660 24588 net.cpp:157] Top shape: 32 112 14 14 (702464)
I1105 17:35:03.792665 24588 net.cpp:165] Memory required for data: 1484366596
I1105 17:35:03.792671 24588 layer_factory.hpp:76] Creating layer inception_4d/prelu_1x1
I1105 17:35:03.792680 24588 net.cpp:106] Creating Layer inception_4d/prelu_1x1
I1105 17:35:03.792685 24588 net.cpp:454] inception_4d/prelu_1x1 <- inception_4d/1x1
I1105 17:35:03.792690 24588 net.cpp:397] inception_4d/prelu_1x1 -> inception_4d/1x1 (in-place)
I1105 17:35:03.792788 24588 net.cpp:150] Setting up inception_4d/prelu_1x1
I1105 17:35:03.792798 24588 net.cpp:157] Top shape: 32 112 14 14 (702464)
I1105 17:35:03.792801 24588 net.cpp:165] Memory required for data: 1487176452
I1105 17:35:03.792807 24588 layer_factory.hpp:76] Creating layer inception_4d/3x3_reduce
I1105 17:35:03.792816 24588 net.cpp:106] Creating Layer inception_4d/3x3_reduce
I1105 17:35:03.792821 24588 net.cpp:454] inception_4d/3x3_reduce <- inception_4c/output_inception_4c/output_0_split_1
I1105 17:35:03.792829 24588 net.cpp:411] inception_4d/3x3_reduce -> inception_4d/3x3_reduce
I1105 17:35:03.794608 24588 cudnn_conv_layer.cpp:194] Reallocating workspace storage: 10080
I1105 17:35:03.794644 24588 net.cpp:150] Setting up inception_4d/3x3_reduce
I1105 17:35:03.794658 24588 net.cpp:157] Top shape: 32 144 14 14 (903168)
I1105 17:35:03.794667 24588 net.cpp:165] Memory required for data: 1490789124
I1105 17:35:03.794678 24588 layer_factory.hpp:76] Creating layer inception_4d/prelu_3x3_reduce
I1105 17:35:03.794692 24588 net.cpp:106] Creating Layer inception_4d/prelu_3x3_reduce
I1105 17:35:03.794702 24588 net.cpp:454] inception_4d/prelu_3x3_reduce <- inception_4d/3x3_reduce
I1105 17:35:03.794711 24588 net.cpp:397] inception_4d/prelu_3x3_reduce -> inception_4d/3x3_reduce (in-place)
I1105 17:35:03.794883 24588 net.cpp:150] Setting up inception_4d/prelu_3x3_reduce
I1105 17:35:03.794898 24588 net.cpp:157] Top shape: 32 144 14 14 (903168)
I1105 17:35:03.794908 24588 net.cpp:165] Memory required for data: 1494401796
I1105 17:35:03.794917 24588 layer_factory.hpp:76] Creating layer inception_4d/3x3
I1105 17:35:03.794931 24588 net.cpp:106] Creating Layer inception_4d/3x3
I1105 17:35:03.794940 24588 net.cpp:454] inception_4d/3x3 <- inception_4d/3x3_reduce
I1105 17:35:03.794955 24588 net.cpp:411] inception_4d/3x3 -> inception_4d/3x3
I1105 17:35:03.799195 24588 cudnn_conv_layer.cpp:194] Reallocating workspace storage: 10080
I1105 17:35:03.799279 24588 net.cpp:150] Setting up inception_4d/3x3
I1105 17:35:03.799293 24588 net.cpp:157] Top shape: 32 288 14 14 (1806336)
I1105 17:35:03.799296 24588 net.cpp:165] Memory required for data: 1501627140
I1105 17:35:03.799306 24588 layer_factory.hpp:76] Creating layer inception_4d/prelu_3x3
I1105 17:35:03.799321 24588 net.cpp:106] Creating Layer inception_4d/prelu_3x3
I1105 17:35:03.799329 24588 net.cpp:454] inception_4d/prelu_3x3 <- inception_4d/3x3
I1105 17:35:03.799337 24588 net.cpp:397] inception_4d/prelu_3x3 -> inception_4d/3x3 (in-place)
I1105 17:35:03.799520 24588 net.cpp:150] Setting up inception_4d/prelu_3x3
I1105 17:35:03.799535 24588 net.cpp:157] Top shape: 32 288 14 14 (1806336)
I1105 17:35:03.799540 24588 net.cpp:165] Memory required for data: 1508852484
I1105 17:35:03.799546 24588 layer_factory.hpp:76] Creating layer inception_4d/5x5_reduce
I1105 17:35:03.799568 24588 net.cpp:106] Creating Layer inception_4d/5x5_reduce
I1105 17:35:03.799573 24588 net.cpp:454] inception_4d/5x5_reduce <- inception_4c/output_inception_4c/output_0_split_2
I1105 17:35:03.799603 24588 net.cpp:411] inception_4d/5x5_reduce -> inception_4d/5x5_reduce
I1105 17:35:03.800818 24588 cudnn_conv_layer.cpp:194] Reallocating workspace storage: 10080
I1105 17:35:03.800853 24588 net.cpp:150] Setting up inception_4d/5x5_reduce
I1105 17:35:03.800863 24588 net.cpp:157] Top shape: 32 32 14 14 (200704)
I1105 17:35:03.800868 24588 net.cpp:165] Memory required for data: 1509655300
I1105 17:35:03.800875 24588 layer_factory.hpp:76] Creating layer inception_4d/prelu_5x5_reduce
I1105 17:35:03.800886 24588 net.cpp:106] Creating Layer inception_4d/prelu_5x5_reduce
I1105 17:35:03.800894 24588 net.cpp:454] inception_4d/prelu_5x5_reduce <- inception_4d/5x5_reduce
I1105 17:35:03.800901 24588 net.cpp:397] inception_4d/prelu_5x5_reduce -> inception_4d/5x5_reduce (in-place)
I1105 17:35:03.801008 24588 net.cpp:150] Setting up inception_4d/prelu_5x5_reduce
I1105 17:35:03.801018 24588 net.cpp:157] Top shape: 32 32 14 14 (200704)
I1105 17:35:03.801023 24588 net.cpp:165] Memory required for data: 1510458116
I1105 17:35:03.801028 24588 layer_factory.hpp:76] Creating layer inception_4d/5x5
I1105 17:35:03.801038 24588 net.cpp:106] Creating Layer inception_4d/5x5
I1105 17:35:03.801044 24588 net.cpp:454] inception_4d/5x5 <- inception_4d/5x5_reduce
I1105 17:35:03.801053 24588 net.cpp:411] inception_4d/5x5 -> inception_4d/5x5
I1105 17:35:03.802927 24588 cudnn_conv_layer.cpp:194] Reallocating workspace storage: 13080
I1105 17:35:03.802958 24588 net.cpp:150] Setting up inception_4d/5x5
I1105 17:35:03.802966 24588 net.cpp:157] Top shape: 32 64 14 14 (401408)
I1105 17:35:03.802971 24588 net.cpp:165] Memory required for data: 1512063748
I1105 17:35:03.802978 24588 layer_factory.hpp:76] Creating layer inception_4d/prelu_5x5
I1105 17:35:03.802989 24588 net.cpp:106] Creating Layer inception_4d/prelu_5x5
I1105 17:35:03.802995 24588 net.cpp:454] inception_4d/prelu_5x5 <- inception_4d/5x5
I1105 17:35:03.803002 24588 net.cpp:397] inception_4d/prelu_5x5 -> inception_4d/5x5 (in-place)
I1105 17:35:03.803109 24588 net.cpp:150] Setting up inception_4d/prelu_5x5
I1105 17:35:03.803119 24588 net.cpp:157] Top shape: 32 64 14 14 (401408)
I1105 17:35:03.803123 24588 net.cpp:165] Memory required for data: 1513669380
I1105 17:35:03.803128 24588 layer_factory.hpp:76] Creating layer inception_4d/pool
I1105 17:35:03.803136 24588 net.cpp:106] Creating Layer inception_4d/pool
I1105 17:35:03.803141 24588 net.cpp:454] inception_4d/pool <- inception_4c/output_inception_4c/output_0_split_3
I1105 17:35:03.803149 24588 net.cpp:411] inception_4d/pool -> inception_4d/pool
I1105 17:35:03.803330 24588 net.cpp:150] Setting up inception_4d/pool
I1105 17:35:03.803341 24588 net.cpp:157] Top shape: 32 512 14 14 (3211264)
I1105 17:35:03.803346 24588 net.cpp:165] Memory required for data: 1526514436
I1105 17:35:03.803350 24588 layer_factory.hpp:76] Creating layer inception_4d/pool_proj
I1105 17:35:03.803359 24588 net.cpp:106] Creating Layer inception_4d/pool_proj
I1105 17:35:03.803364 24588 net.cpp:454] inception_4d/pool_proj <- inception_4d/pool
I1105 17:35:03.803385 24588 net.cpp:411] inception_4d/pool_proj -> inception_4d/pool_proj
I1105 17:35:03.804635 24588 cudnn_conv_layer.cpp:194] Reallocating workspace storage: 10080
I1105 17:35:03.804662 24588 net.cpp:150] Setting up inception_4d/pool_proj
I1105 17:35:03.804672 24588 net.cpp:157] Top shape: 32 64 14 14 (401408)
I1105 17:35:03.804675 24588 net.cpp:165] Memory required for data: 1528120068
I1105 17:35:03.804682 24588 layer_factory.hpp:76] Creating layer inception_4d/prelu_pool_proj
I1105 17:35:03.804693 24588 net.cpp:106] Creating Layer inception_4d/prelu_pool_proj
I1105 17:35:03.804699 24588 net.cpp:454] inception_4d/prelu_pool_proj <- inception_4d/pool_proj
I1105 17:35:03.804708 24588 net.cpp:397] inception_4d/prelu_pool_proj -> inception_4d/pool_proj (in-place)
I1105 17:35:03.804808 24588 net.cpp:150] Setting up inception_4d/prelu_pool_proj
I1105 17:35:03.804817 24588 net.cpp:157] Top shape: 32 64 14 14 (401408)
I1105 17:35:03.804822 24588 net.cpp:165] Memory required for data: 1529725700
I1105 17:35:03.804827 24588 layer_factory.hpp:76] Creating layer inception_4d/output
I1105 17:35:03.804836 24588 net.cpp:106] Creating Layer inception_4d/output
I1105 17:35:03.804841 24588 net.cpp:454] inception_4d/output <- inception_4d/1x1
I1105 17:35:03.804847 24588 net.cpp:454] inception_4d/output <- inception_4d/3x3
I1105 17:35:03.804852 24588 net.cpp:454] inception_4d/output <- inception_4d/5x5
I1105 17:35:03.804857 24588 net.cpp:454] inception_4d/output <- inception_4d/pool_proj
I1105 17:35:03.804862 24588 net.cpp:411] inception_4d/output -> inception_4d/output
I1105 17:35:03.804890 24588 net.cpp:150] Setting up inception_4d/output
I1105 17:35:03.804898 24588 net.cpp:157] Top shape: 32 528 14 14 (3311616)
I1105 17:35:03.804903 24588 net.cpp:165] Memory required for data: 1542972164
I1105 17:35:03.804906 24588 layer_factory.hpp:76] Creating layer inception_4d/output_inception_4d/output_0_split
I1105 17:35:03.804914 24588 net.cpp:106] Creating Layer inception_4d/output_inception_4d/output_0_split
I1105 17:35:03.804919 24588 net.cpp:454] inception_4d/output_inception_4d/output_0_split <- inception_4d/output
I1105 17:35:03.804925 24588 net.cpp:411] inception_4d/output_inception_4d/output_0_split -> inception_4d/output_inception_4d/output_0_split_0
I1105 17:35:03.804934 24588 net.cpp:411] inception_4d/output_inception_4d/output_0_split -> inception_4d/output_inception_4d/output_0_split_1
I1105 17:35:03.804940 24588 net.cpp:411] inception_4d/output_inception_4d/output_0_split -> inception_4d/output_inception_4d/output_0_split_2
I1105 17:35:03.804947 24588 net.cpp:411] inception_4d/output_inception_4d/output_0_split -> inception_4d/output_inception_4d/output_0_split_3
I1105 17:35:03.804955 24588 net.cpp:411] inception_4d/output_inception_4d/output_0_split -> inception_4d/output_inception_4d/output_0_split_4
I1105 17:35:03.805028 24588 net.cpp:150] Setting up inception_4d/output_inception_4d/output_0_split
I1105 17:35:03.805037 24588 net.cpp:157] Top shape: 32 528 14 14 (3311616)
I1105 17:35:03.805042 24588 net.cpp:157] Top shape: 32 528 14 14 (3311616)
I1105 17:35:03.805047 24588 net.cpp:157] Top shape: 32 528 14 14 (3311616)
I1105 17:35:03.805052 24588 net.cpp:157] Top shape: 32 528 14 14 (3311616)
I1105 17:35:03.805057 24588 net.cpp:157] Top shape: 32 528 14 14 (3311616)
I1105 17:35:03.805060 24588 net.cpp:165] Memory required for data: 1609204484
I1105 17:35:03.805064 24588 layer_factory.hpp:76] Creating layer loss2/ave_pool
I1105 17:35:03.805078 24588 net.cpp:106] Creating Layer loss2/ave_pool
I1105 17:35:03.805083 24588 net.cpp:454] loss2/ave_pool <- inception_4d/output_inception_4d/output_0_split_0
I1105 17:35:03.805091 24588 net.cpp:411] loss2/ave_pool -> loss2/ave_pool
I1105 17:35:03.805455 24588 net.cpp:150] Setting up loss2/ave_pool
I1105 17:35:03.805466 24588 net.cpp:157] Top shape: 32 528 4 4 (270336)
I1105 17:35:03.805470 24588 net.cpp:165] Memory required for data: 1610285828
I1105 17:35:03.805475 24588 layer_factory.hpp:76] Creating layer loss2/conv
I1105 17:35:03.805493 24588 net.cpp:106] Creating Layer loss2/conv
I1105 17:35:03.805500 24588 net.cpp:454] loss2/conv <- loss2/ave_pool
I1105 17:35:03.805508 24588 net.cpp:411] loss2/conv -> loss2/conv
I1105 17:35:03.806942 24588 cudnn_conv_layer.cpp:194] Reallocating workspace storage: 6840
I1105 17:35:03.806968 24588 net.cpp:150] Setting up loss2/conv
I1105 17:35:03.806978 24588 net.cpp:157] Top shape: 32 128 4 4 (65536)
I1105 17:35:03.806983 24588 net.cpp:165] Memory required for data: 1610547972
I1105 17:35:03.806998 24588 layer_factory.hpp:76] Creating layer loss2/prelu_conv
I1105 17:35:03.807006 24588 net.cpp:106] Creating Layer loss2/prelu_conv
I1105 17:35:03.807011 24588 net.cpp:454] loss2/prelu_conv <- loss2/conv
I1105 17:35:03.807020 24588 net.cpp:397] loss2/prelu_conv -> loss2/conv (in-place)
I1105 17:35:03.807122 24588 net.cpp:150] Setting up loss2/prelu_conv
I1105 17:35:03.807132 24588 net.cpp:157] Top shape: 32 128 4 4 (65536)
I1105 17:35:03.807137 24588 net.cpp:165] Memory required for data: 1610810116
I1105 17:35:03.807142 24588 layer_factory.hpp:76] Creating layer loss2/fc
I1105 17:35:03.807159 24588 net.cpp:106] Creating Layer loss2/fc
I1105 17:35:03.807164 24588 net.cpp:454] loss2/fc <- loss2/conv
I1105 17:35:03.807170 24588 net.cpp:411] loss2/fc -> loss2/fc
I1105 17:35:03.821831 24588 net.cpp:150] Setting up loss2/fc
I1105 17:35:03.821866 24588 net.cpp:157] Top shape: 32 1024 (32768)
I1105 17:35:03.821871 24588 net.cpp:165] Memory required for data: 1610941188
I1105 17:35:03.821907 24588 layer_factory.hpp:76] Creating layer loss2/prelu_fc
I1105 17:35:03.821924 24588 net.cpp:106] Creating Layer loss2/prelu_fc
I1105 17:35:03.821933 24588 net.cpp:454] loss2/prelu_fc <- loss2/fc
I1105 17:35:03.821940 24588 net.cpp:397] loss2/prelu_fc -> loss2/fc (in-place)
I1105 17:35:03.822043 24588 net.cpp:150] Setting up loss2/prelu_fc
I1105 17:35:03.822053 24588 net.cpp:157] Top shape: 32 1024 (32768)
I1105 17:35:03.822057 24588 net.cpp:165] Memory required for data: 1611072260
I1105 17:35:03.822062 24588 layer_factory.hpp:76] Creating layer loss2/drop_fc
I1105 17:35:03.822078 24588 net.cpp:106] Creating Layer loss2/drop_fc
I1105 17:35:03.822083 24588 net.cpp:454] loss2/drop_fc <- loss2/fc
I1105 17:35:03.822090 24588 net.cpp:397] loss2/drop_fc -> loss2/fc (in-place)
I1105 17:35:03.822118 24588 net.cpp:150] Setting up loss2/drop_fc
I1105 17:35:03.822136 24588 net.cpp:157] Top shape: 32 1024 (32768)
I1105 17:35:03.822140 24588 net.cpp:165] Memory required for data: 1611203332
I1105 17:35:03.822152 24588 layer_factory.hpp:76] Creating layer loss2/classifier2
I1105 17:35:03.822160 24588 net.cpp:106] Creating Layer loss2/classifier2
I1105 17:35:03.822166 24588 net.cpp:454] loss2/classifier2 <- loss2/fc
I1105 17:35:03.822175 24588 net.cpp:411] loss2/classifier2 -> loss2/classifier
I1105 17:35:03.822307 24588 net.cpp:150] Setting up loss2/classifier2
I1105 17:35:03.822324 24588 net.cpp:157] Top shape: 32 2 (64)
I1105 17:35:03.822329 24588 net.cpp:165] Memory required for data: 1611203588
I1105 17:35:03.822343 24588 layer_factory.hpp:76] Creating layer loss2/loss
I1105 17:35:03.822351 24588 net.cpp:106] Creating Layer loss2/loss
I1105 17:35:03.822357 24588 net.cpp:454] loss2/loss <- loss2/classifier
I1105 17:35:03.822362 24588 net.cpp:454] loss2/loss <- label_data_1_split_1
I1105 17:35:03.822368 24588 net.cpp:411] loss2/loss -> loss2/loss1
I1105 17:35:03.822394 24588 layer_factory.hpp:76] Creating layer loss2/loss
I1105 17:35:03.822702 24588 net.cpp:150] Setting up loss2/loss
I1105 17:35:03.822712 24588 net.cpp:157] Top shape: (1)
I1105 17:35:03.822716 24588 net.cpp:160]     with loss weight 0.3
I1105 17:35:03.822731 24588 net.cpp:165] Memory required for data: 1611203592
I1105 17:35:03.822742 24588 layer_factory.hpp:76] Creating layer inception_4e/1x1
I1105 17:35:03.822762 24588 net.cpp:106] Creating Layer inception_4e/1x1
I1105 17:35:03.822768 24588 net.cpp:454] inception_4e/1x1 <- inception_4d/output_inception_4d/output_0_split_1
I1105 17:35:03.822775 24588 net.cpp:411] inception_4e/1x1 -> inception_4e/1x1
I1105 17:35:03.826115 24588 cudnn_conv_layer.cpp:194] Reallocating workspace storage: 10080
I1105 17:35:03.826174 24588 net.cpp:150] Setting up inception_4e/1x1
I1105 17:35:03.826187 24588 net.cpp:157] Top shape: 32 256 14 14 (1605632)
I1105 17:35:03.826192 24588 net.cpp:165] Memory required for data: 1617626120
I1105 17:35:03.826200 24588 layer_factory.hpp:76] Creating layer inception_4e/prelu_1x1
I1105 17:35:03.826212 24588 net.cpp:106] Creating Layer inception_4e/prelu_1x1
I1105 17:35:03.826220 24588 net.cpp:454] inception_4e/prelu_1x1 <- inception_4e/1x1
I1105 17:35:03.826226 24588 net.cpp:397] inception_4e/prelu_1x1 -> inception_4e/1x1 (in-place)
I1105 17:35:03.826369 24588 net.cpp:150] Setting up inception_4e/prelu_1x1
I1105 17:35:03.826378 24588 net.cpp:157] Top shape: 32 256 14 14 (1605632)
I1105 17:35:03.826382 24588 net.cpp:165] Memory required for data: 1624048648
I1105 17:35:03.826388 24588 layer_factory.hpp:76] Creating layer inception_4e/3x3_reduce
I1105 17:35:03.826398 24588 net.cpp:106] Creating Layer inception_4e/3x3_reduce
I1105 17:35:03.826403 24588 net.cpp:454] inception_4e/3x3_reduce <- inception_4d/output_inception_4d/output_0_split_2
I1105 17:35:03.826411 24588 net.cpp:411] inception_4e/3x3_reduce -> inception_4e/3x3_reduce
I1105 17:35:03.828186 24588 cudnn_conv_layer.cpp:194] Reallocating workspace storage: 10080
I1105 17:35:03.828224 24588 net.cpp:150] Setting up inception_4e/3x3_reduce
I1105 17:35:03.828235 24588 net.cpp:157] Top shape: 32 160 14 14 (1003520)
I1105 17:35:03.828239 24588 net.cpp:165] Memory required for data: 1628062728
I1105 17:35:03.828248 24588 layer_factory.hpp:76] Creating layer inception_4e/prelu_3x3_reduce
I1105 17:35:03.828259 24588 net.cpp:106] Creating Layer inception_4e/prelu_3x3_reduce
I1105 17:35:03.828266 24588 net.cpp:454] inception_4e/prelu_3x3_reduce <- inception_4e/3x3_reduce
I1105 17:35:03.828274 24588 net.cpp:397] inception_4e/prelu_3x3_reduce -> inception_4e/3x3_reduce (in-place)
I1105 17:35:03.828397 24588 net.cpp:150] Setting up inception_4e/prelu_3x3_reduce
I1105 17:35:03.828408 24588 net.cpp:157] Top shape: 32 160 14 14 (1003520)
I1105 17:35:03.828411 24588 net.cpp:165] Memory required for data: 1632076808
I1105 17:35:03.828418 24588 layer_factory.hpp:76] Creating layer inception_4e/3x3
I1105 17:35:03.828426 24588 net.cpp:106] Creating Layer inception_4e/3x3
I1105 17:35:03.828430 24588 net.cpp:454] inception_4e/3x3 <- inception_4e/3x3_reduce
I1105 17:35:03.828438 24588 net.cpp:411] inception_4e/3x3 -> inception_4e/3x3
I1105 17:35:03.833325 24588 cudnn_conv_layer.cpp:194] Reallocating workspace storage: 10080
I1105 17:35:03.833374 24588 net.cpp:150] Setting up inception_4e/3x3
I1105 17:35:03.833384 24588 net.cpp:157] Top shape: 32 320 14 14 (2007040)
I1105 17:35:03.833389 24588 net.cpp:165] Memory required for data: 1640104968
I1105 17:35:03.833397 24588 layer_factory.hpp:76] Creating layer inception_4e/prelu_3x3
I1105 17:35:03.833410 24588 net.cpp:106] Creating Layer inception_4e/prelu_3x3
I1105 17:35:03.833417 24588 net.cpp:454] inception_4e/prelu_3x3 <- inception_4e/3x3
I1105 17:35:03.833426 24588 net.cpp:397] inception_4e/prelu_3x3 -> inception_4e/3x3 (in-place)
I1105 17:35:03.833577 24588 net.cpp:150] Setting up inception_4e/prelu_3x3
I1105 17:35:03.833587 24588 net.cpp:157] Top shape: 32 320 14 14 (2007040)
I1105 17:35:03.833592 24588 net.cpp:165] Memory required for data: 1648133128
I1105 17:35:03.833597 24588 layer_factory.hpp:76] Creating layer inception_4e/5x5_reduce
I1105 17:35:03.833608 24588 net.cpp:106] Creating Layer inception_4e/5x5_reduce
I1105 17:35:03.833616 24588 net.cpp:454] inception_4e/5x5_reduce <- inception_4d/output_inception_4d/output_0_split_3
I1105 17:35:03.833623 24588 net.cpp:411] inception_4e/5x5_reduce -> inception_4e/5x5_reduce
I1105 17:35:03.834784 24588 cudnn_conv_layer.cpp:194] Reallocating workspace storage: 10080
I1105 17:35:03.834811 24588 net.cpp:150] Setting up inception_4e/5x5_reduce
I1105 17:35:03.834820 24588 net.cpp:157] Top shape: 32 32 14 14 (200704)
I1105 17:35:03.834825 24588 net.cpp:165] Memory required for data: 1648935944
I1105 17:35:03.834849 24588 layer_factory.hpp:76] Creating layer inception_4e/prelu_5x5_reduce
I1105 17:35:03.834859 24588 net.cpp:106] Creating Layer inception_4e/prelu_5x5_reduce
I1105 17:35:03.834864 24588 net.cpp:454] inception_4e/prelu_5x5_reduce <- inception_4e/5x5_reduce
I1105 17:35:03.834872 24588 net.cpp:397] inception_4e/prelu_5x5_reduce -> inception_4e/5x5_reduce (in-place)
I1105 17:35:03.834975 24588 net.cpp:150] Setting up inception_4e/prelu_5x5_reduce
I1105 17:35:03.834985 24588 net.cpp:157] Top shape: 32 32 14 14 (200704)
I1105 17:35:03.834990 24588 net.cpp:165] Memory required for data: 1649738760
I1105 17:35:03.834995 24588 layer_factory.hpp:76] Creating layer inception_4e/5x5
I1105 17:35:03.835016 24588 net.cpp:106] Creating Layer inception_4e/5x5
I1105 17:35:03.835021 24588 net.cpp:454] inception_4e/5x5 <- inception_4e/5x5_reduce
I1105 17:35:03.835028 24588 net.cpp:411] inception_4e/5x5 -> inception_4e/5x5
I1105 17:35:03.837157 24588 cudnn_conv_layer.cpp:194] Reallocating workspace storage: 13080
I1105 17:35:03.837183 24588 net.cpp:150] Setting up inception_4e/5x5
I1105 17:35:03.837193 24588 net.cpp:157] Top shape: 32 128 14 14 (802816)
I1105 17:35:03.837198 24588 net.cpp:165] Memory required for data: 1652950024
I1105 17:35:03.837204 24588 layer_factory.hpp:76] Creating layer inception_4e/prelu_5x5
I1105 17:35:03.837213 24588 net.cpp:106] Creating Layer inception_4e/prelu_5x5
I1105 17:35:03.837220 24588 net.cpp:454] inception_4e/prelu_5x5 <- inception_4e/5x5
I1105 17:35:03.837226 24588 net.cpp:397] inception_4e/prelu_5x5 -> inception_4e/5x5 (in-place)
I1105 17:35:03.837334 24588 net.cpp:150] Setting up inception_4e/prelu_5x5
I1105 17:35:03.837344 24588 net.cpp:157] Top shape: 32 128 14 14 (802816)
I1105 17:35:03.837348 24588 net.cpp:165] Memory required for data: 1656161288
I1105 17:35:03.837353 24588 layer_factory.hpp:76] Creating layer inception_4e/pool
I1105 17:35:03.837363 24588 net.cpp:106] Creating Layer inception_4e/pool
I1105 17:35:03.837368 24588 net.cpp:454] inception_4e/pool <- inception_4d/output_inception_4d/output_0_split_4
I1105 17:35:03.837373 24588 net.cpp:411] inception_4e/pool -> inception_4e/pool
I1105 17:35:03.837745 24588 net.cpp:150] Setting up inception_4e/pool
I1105 17:35:03.837757 24588 net.cpp:157] Top shape: 32 528 14 14 (3311616)
I1105 17:35:03.837761 24588 net.cpp:165] Memory required for data: 1669407752
I1105 17:35:03.837765 24588 layer_factory.hpp:76] Creating layer inception_4e/pool_proj
I1105 17:35:03.837776 24588 net.cpp:106] Creating Layer inception_4e/pool_proj
I1105 17:35:03.837782 24588 net.cpp:454] inception_4e/pool_proj <- inception_4e/pool
I1105 17:35:03.837790 24588 net.cpp:411] inception_4e/pool_proj -> inception_4e/pool_proj
I1105 17:35:03.839041 24588 cudnn_conv_layer.cpp:194] Reallocating workspace storage: 10080
I1105 17:35:03.839071 24588 net.cpp:150] Setting up inception_4e/pool_proj
I1105 17:35:03.839079 24588 net.cpp:157] Top shape: 32 128 14 14 (802816)
I1105 17:35:03.839083 24588 net.cpp:165] Memory required for data: 1672619016
I1105 17:35:03.839090 24588 layer_factory.hpp:76] Creating layer inception_4e/prelu_pool_proj
I1105 17:35:03.839098 24588 net.cpp:106] Creating Layer inception_4e/prelu_pool_proj
I1105 17:35:03.839105 24588 net.cpp:454] inception_4e/prelu_pool_proj <- inception_4e/pool_proj
I1105 17:35:03.839112 24588 net.cpp:397] inception_4e/prelu_pool_proj -> inception_4e/pool_proj (in-place)
I1105 17:35:03.839236 24588 net.cpp:150] Setting up inception_4e/prelu_pool_proj
I1105 17:35:03.839246 24588 net.cpp:157] Top shape: 32 128 14 14 (802816)
I1105 17:35:03.839248 24588 net.cpp:165] Memory required for data: 1675830280
I1105 17:35:03.839254 24588 layer_factory.hpp:76] Creating layer inception_4e/output
I1105 17:35:03.839262 24588 net.cpp:106] Creating Layer inception_4e/output
I1105 17:35:03.839275 24588 net.cpp:454] inception_4e/output <- inception_4e/1x1
I1105 17:35:03.839280 24588 net.cpp:454] inception_4e/output <- inception_4e/3x3
I1105 17:35:03.839285 24588 net.cpp:454] inception_4e/output <- inception_4e/5x5
I1105 17:35:03.839290 24588 net.cpp:454] inception_4e/output <- inception_4e/pool_proj
I1105 17:35:03.839306 24588 net.cpp:411] inception_4e/output -> inception_4e/output
I1105 17:35:03.839354 24588 net.cpp:150] Setting up inception_4e/output
I1105 17:35:03.839362 24588 net.cpp:157] Top shape: 32 832 14 14 (5218304)
I1105 17:35:03.839366 24588 net.cpp:165] Memory required for data: 1696703496
I1105 17:35:03.839371 24588 layer_factory.hpp:76] Creating layer pool4/3x3_s2
I1105 17:35:03.839378 24588 net.cpp:106] Creating Layer pool4/3x3_s2
I1105 17:35:03.839382 24588 net.cpp:454] pool4/3x3_s2 <- inception_4e/output
I1105 17:35:03.839390 24588 net.cpp:411] pool4/3x3_s2 -> pool4/3x3_s2
I1105 17:35:03.839778 24588 net.cpp:150] Setting up pool4/3x3_s2
I1105 17:35:03.839789 24588 net.cpp:157] Top shape: 32 832 7 7 (1304576)
I1105 17:35:03.839793 24588 net.cpp:165] Memory required for data: 1701921800
I1105 17:35:03.839798 24588 layer_factory.hpp:76] Creating layer pool4/3x3_s2_pool4/3x3_s2_0_split
I1105 17:35:03.839813 24588 net.cpp:106] Creating Layer pool4/3x3_s2_pool4/3x3_s2_0_split
I1105 17:35:03.839818 24588 net.cpp:454] pool4/3x3_s2_pool4/3x3_s2_0_split <- pool4/3x3_s2
I1105 17:35:03.839826 24588 net.cpp:411] pool4/3x3_s2_pool4/3x3_s2_0_split -> pool4/3x3_s2_pool4/3x3_s2_0_split_0
I1105 17:35:03.839834 24588 net.cpp:411] pool4/3x3_s2_pool4/3x3_s2_0_split -> pool4/3x3_s2_pool4/3x3_s2_0_split_1
I1105 17:35:03.839843 24588 net.cpp:411] pool4/3x3_s2_pool4/3x3_s2_0_split -> pool4/3x3_s2_pool4/3x3_s2_0_split_2
I1105 17:35:03.839859 24588 net.cpp:411] pool4/3x3_s2_pool4/3x3_s2_0_split -> pool4/3x3_s2_pool4/3x3_s2_0_split_3
I1105 17:35:03.839928 24588 net.cpp:150] Setting up pool4/3x3_s2_pool4/3x3_s2_0_split
I1105 17:35:03.839937 24588 net.cpp:157] Top shape: 32 832 7 7 (1304576)
I1105 17:35:03.839942 24588 net.cpp:157] Top shape: 32 832 7 7 (1304576)
I1105 17:35:03.839947 24588 net.cpp:157] Top shape: 32 832 7 7 (1304576)
I1105 17:35:03.839951 24588 net.cpp:157] Top shape: 32 832 7 7 (1304576)
I1105 17:35:03.839956 24588 net.cpp:165] Memory required for data: 1722795016
I1105 17:35:03.839959 24588 layer_factory.hpp:76] Creating layer inception_5a/1x1
I1105 17:35:03.839967 24588 net.cpp:106] Creating Layer inception_5a/1x1
I1105 17:35:03.839972 24588 net.cpp:454] inception_5a/1x1 <- pool4/3x3_s2_pool4/3x3_s2_0_split_0
I1105 17:35:03.839978 24588 net.cpp:411] inception_5a/1x1 -> inception_5a/1x1
I1105 17:35:03.842696 24588 cudnn_conv_layer.cpp:194] Reallocating workspace storage: 7428
I1105 17:35:03.842726 24588 net.cpp:150] Setting up inception_5a/1x1
I1105 17:35:03.842736 24588 net.cpp:157] Top shape: 32 256 7 7 (401408)
I1105 17:35:03.842739 24588 net.cpp:165] Memory required for data: 1724400648
I1105 17:35:03.842746 24588 layer_factory.hpp:76] Creating layer inception_5a/prelu_1x1
I1105 17:35:03.842756 24588 net.cpp:106] Creating Layer inception_5a/prelu_1x1
I1105 17:35:03.842762 24588 net.cpp:454] inception_5a/prelu_1x1 <- inception_5a/1x1
I1105 17:35:03.842769 24588 net.cpp:397] inception_5a/prelu_1x1 -> inception_5a/1x1 (in-place)
I1105 17:35:03.843332 24588 net.cpp:150] Setting up inception_5a/prelu_1x1
I1105 17:35:03.843343 24588 net.cpp:157] Top shape: 32 256 7 7 (401408)
I1105 17:35:03.843348 24588 net.cpp:165] Memory required for data: 1726006280
I1105 17:35:03.843354 24588 layer_factory.hpp:76] Creating layer inception_5a/3x3_reduce
I1105 17:35:03.843365 24588 net.cpp:106] Creating Layer inception_5a/3x3_reduce
I1105 17:35:03.843371 24588 net.cpp:454] inception_5a/3x3_reduce <- pool4/3x3_s2_pool4/3x3_s2_0_split_1
I1105 17:35:03.843379 24588 net.cpp:411] inception_5a/3x3_reduce -> inception_5a/3x3_reduce
I1105 17:35:03.845664 24588 cudnn_conv_layer.cpp:194] Reallocating workspace storage: 7428
I1105 17:35:03.845696 24588 net.cpp:150] Setting up inception_5a/3x3_reduce
I1105 17:35:03.845705 24588 net.cpp:157] Top shape: 32 160 7 7 (250880)
I1105 17:35:03.845710 24588 net.cpp:165] Memory required for data: 1727009800
I1105 17:35:03.845717 24588 layer_factory.hpp:76] Creating layer inception_5a/prelu_3x3_reduce
I1105 17:35:03.845726 24588 net.cpp:106] Creating Layer inception_5a/prelu_3x3_reduce
I1105 17:35:03.845759 24588 net.cpp:454] inception_5a/prelu_3x3_reduce <- inception_5a/3x3_reduce
I1105 17:35:03.845767 24588 net.cpp:397] inception_5a/prelu_3x3_reduce -> inception_5a/3x3_reduce (in-place)
I1105 17:35:03.845882 24588 net.cpp:150] Setting up inception_5a/prelu_3x3_reduce
I1105 17:35:03.845891 24588 net.cpp:157] Top shape: 32 160 7 7 (250880)
I1105 17:35:03.845896 24588 net.cpp:165] Memory required for data: 1728013320
I1105 17:35:03.845909 24588 layer_factory.hpp:76] Creating layer inception_5a/3x3
I1105 17:35:03.845921 24588 net.cpp:106] Creating Layer inception_5a/3x3
I1105 17:35:03.845927 24588 net.cpp:454] inception_5a/3x3 <- inception_5a/3x3_reduce
I1105 17:35:03.845933 24588 net.cpp:411] inception_5a/3x3 -> inception_5a/3x3
I1105 17:35:03.850162 24588 cudnn_conv_layer.cpp:194] Reallocating workspace storage: 7788
I1105 17:35:03.850203 24588 net.cpp:150] Setting up inception_5a/3x3
I1105 17:35:03.850213 24588 net.cpp:157] Top shape: 32 320 7 7 (501760)
I1105 17:35:03.850217 24588 net.cpp:165] Memory required for data: 1730020360
I1105 17:35:03.850224 24588 layer_factory.hpp:76] Creating layer inception_5a/prelu_3x3
I1105 17:35:03.850236 24588 net.cpp:106] Creating Layer inception_5a/prelu_3x3
I1105 17:35:03.850260 24588 net.cpp:454] inception_5a/prelu_3x3 <- inception_5a/3x3
I1105 17:35:03.850268 24588 net.cpp:397] inception_5a/prelu_3x3 -> inception_5a/3x3 (in-place)
I1105 17:35:03.850383 24588 net.cpp:150] Setting up inception_5a/prelu_3x3
I1105 17:35:03.850392 24588 net.cpp:157] Top shape: 32 320 7 7 (501760)
I1105 17:35:03.850396 24588 net.cpp:165] Memory required for data: 1732027400
I1105 17:35:03.850402 24588 layer_factory.hpp:76] Creating layer inception_5a/5x5_reduce
I1105 17:35:03.850412 24588 net.cpp:106] Creating Layer inception_5a/5x5_reduce
I1105 17:35:03.850419 24588 net.cpp:454] inception_5a/5x5_reduce <- pool4/3x3_s2_pool4/3x3_s2_0_split_2
I1105 17:35:03.850426 24588 net.cpp:411] inception_5a/5x5_reduce -> inception_5a/5x5_reduce
I1105 17:35:03.851649 24588 cudnn_conv_layer.cpp:194] Reallocating workspace storage: 7428
I1105 17:35:03.851676 24588 net.cpp:150] Setting up inception_5a/5x5_reduce
I1105 17:35:03.851685 24588 net.cpp:157] Top shape: 32 32 7 7 (50176)
I1105 17:35:03.851689 24588 net.cpp:165] Memory required for data: 1732228104
I1105 17:35:03.851696 24588 layer_factory.hpp:76] Creating layer inception_5a/prelu_5x5_reduce
I1105 17:35:03.851704 24588 net.cpp:106] Creating Layer inception_5a/prelu_5x5_reduce
I1105 17:35:03.851711 24588 net.cpp:454] inception_5a/prelu_5x5_reduce <- inception_5a/5x5_reduce
I1105 17:35:03.851717 24588 net.cpp:397] inception_5a/prelu_5x5_reduce -> inception_5a/5x5_reduce (in-place)
I1105 17:35:03.851825 24588 net.cpp:150] Setting up inception_5a/prelu_5x5_reduce
I1105 17:35:03.851835 24588 net.cpp:157] Top shape: 32 32 7 7 (50176)
I1105 17:35:03.851838 24588 net.cpp:165] Memory required for data: 1732428808
I1105 17:35:03.851845 24588 layer_factory.hpp:76] Creating layer inception_5a/5x5
I1105 17:35:03.851855 24588 net.cpp:106] Creating Layer inception_5a/5x5
I1105 17:35:03.851860 24588 net.cpp:454] inception_5a/5x5 <- inception_5a/5x5_reduce
I1105 17:35:03.851874 24588 net.cpp:411] inception_5a/5x5 -> inception_5a/5x5
I1105 17:35:03.853529 24588 cudnn_conv_layer.cpp:194] Reallocating workspace storage: 9804
I1105 17:35:03.853556 24588 net.cpp:150] Setting up inception_5a/5x5
I1105 17:35:03.853574 24588 net.cpp:157] Top shape: 32 128 7 7 (200704)
I1105 17:35:03.853577 24588 net.cpp:165] Memory required for data: 1733231624
I1105 17:35:03.853592 24588 layer_factory.hpp:76] Creating layer inception_5a/prelu_5x5
I1105 17:35:03.853601 24588 net.cpp:106] Creating Layer inception_5a/prelu_5x5
I1105 17:35:03.853607 24588 net.cpp:454] inception_5a/prelu_5x5 <- inception_5a/5x5
I1105 17:35:03.853615 24588 net.cpp:397] inception_5a/prelu_5x5 -> inception_5a/5x5 (in-place)
I1105 17:35:03.853759 24588 net.cpp:150] Setting up inception_5a/prelu_5x5
I1105 17:35:03.853773 24588 net.cpp:157] Top shape: 32 128 7 7 (200704)
I1105 17:35:03.853802 24588 net.cpp:165] Memory required for data: 1734034440
I1105 17:35:03.853812 24588 layer_factory.hpp:76] Creating layer inception_5a/pool
I1105 17:35:03.853835 24588 net.cpp:106] Creating Layer inception_5a/pool
I1105 17:35:03.853843 24588 net.cpp:454] inception_5a/pool <- pool4/3x3_s2_pool4/3x3_s2_0_split_3
I1105 17:35:03.853853 24588 net.cpp:411] inception_5a/pool -> inception_5a/pool
I1105 17:35:03.854133 24588 net.cpp:150] Setting up inception_5a/pool
I1105 17:35:03.854147 24588 net.cpp:157] Top shape: 32 832 7 7 (1304576)
I1105 17:35:03.854162 24588 net.cpp:165] Memory required for data: 1739252744
I1105 17:35:03.854171 24588 layer_factory.hpp:76] Creating layer inception_5a/pool_proj
I1105 17:35:03.854185 24588 net.cpp:106] Creating Layer inception_5a/pool_proj
I1105 17:35:03.854194 24588 net.cpp:454] inception_5a/pool_proj <- inception_5a/pool
I1105 17:35:03.854223 24588 net.cpp:411] inception_5a/pool_proj -> inception_5a/pool_proj
I1105 17:35:03.857405 24588 cudnn_conv_layer.cpp:194] Reallocating workspace storage: 7428
I1105 17:35:03.857460 24588 net.cpp:150] Setting up inception_5a/pool_proj
I1105 17:35:03.857475 24588 net.cpp:157] Top shape: 32 128 7 7 (200704)
I1105 17:35:03.857481 24588 net.cpp:165] Memory required for data: 1740055560
I1105 17:35:03.857491 24588 layer_factory.hpp:76] Creating layer inception_5a/prelu_pool_proj
I1105 17:35:03.857502 24588 net.cpp:106] Creating Layer inception_5a/prelu_pool_proj
I1105 17:35:03.857511 24588 net.cpp:454] inception_5a/prelu_pool_proj <- inception_5a/pool_proj
I1105 17:35:03.857518 24588 net.cpp:397] inception_5a/prelu_pool_proj -> inception_5a/pool_proj (in-place)
I1105 17:35:03.857636 24588 net.cpp:150] Setting up inception_5a/prelu_pool_proj
I1105 17:35:03.857646 24588 net.cpp:157] Top shape: 32 128 7 7 (200704)
I1105 17:35:03.857650 24588 net.cpp:165] Memory required for data: 1740858376
I1105 17:35:03.857666 24588 layer_factory.hpp:76] Creating layer inception_5a/output
I1105 17:35:03.857674 24588 net.cpp:106] Creating Layer inception_5a/output
I1105 17:35:03.857681 24588 net.cpp:454] inception_5a/output <- inception_5a/1x1
I1105 17:35:03.857686 24588 net.cpp:454] inception_5a/output <- inception_5a/3x3
I1105 17:35:03.857694 24588 net.cpp:454] inception_5a/output <- inception_5a/5x5
I1105 17:35:03.857700 24588 net.cpp:454] inception_5a/output <- inception_5a/pool_proj
I1105 17:35:03.857705 24588 net.cpp:411] inception_5a/output -> inception_5a/output
I1105 17:35:03.857745 24588 net.cpp:150] Setting up inception_5a/output
I1105 17:35:03.857753 24588 net.cpp:157] Top shape: 32 832 7 7 (1304576)
I1105 17:35:03.857758 24588 net.cpp:165] Memory required for data: 1746076680
I1105 17:35:03.857761 24588 layer_factory.hpp:76] Creating layer inception_5a/output_inception_5a/output_0_split
I1105 17:35:03.857770 24588 net.cpp:106] Creating Layer inception_5a/output_inception_5a/output_0_split
I1105 17:35:03.857776 24588 net.cpp:454] inception_5a/output_inception_5a/output_0_split <- inception_5a/output
I1105 17:35:03.857782 24588 net.cpp:411] inception_5a/output_inception_5a/output_0_split -> inception_5a/output_inception_5a/output_0_split_0
I1105 17:35:03.857802 24588 net.cpp:411] inception_5a/output_inception_5a/output_0_split -> inception_5a/output_inception_5a/output_0_split_1
I1105 17:35:03.857811 24588 net.cpp:411] inception_5a/output_inception_5a/output_0_split -> inception_5a/output_inception_5a/output_0_split_2
I1105 17:35:03.857820 24588 net.cpp:411] inception_5a/output_inception_5a/output_0_split -> inception_5a/output_inception_5a/output_0_split_3
I1105 17:35:03.857897 24588 net.cpp:150] Setting up inception_5a/output_inception_5a/output_0_split
I1105 17:35:03.857906 24588 net.cpp:157] Top shape: 32 832 7 7 (1304576)
I1105 17:35:03.857911 24588 net.cpp:157] Top shape: 32 832 7 7 (1304576)
I1105 17:35:03.857916 24588 net.cpp:157] Top shape: 32 832 7 7 (1304576)
I1105 17:35:03.857921 24588 net.cpp:157] Top shape: 32 832 7 7 (1304576)
I1105 17:35:03.857925 24588 net.cpp:165] Memory required for data: 1766949896
I1105 17:35:03.857944 24588 layer_factory.hpp:76] Creating layer inception_5b/1x1
I1105 17:35:03.857954 24588 net.cpp:106] Creating Layer inception_5b/1x1
I1105 17:35:03.857959 24588 net.cpp:454] inception_5b/1x1 <- inception_5a/output_inception_5a/output_0_split_0
I1105 17:35:03.857966 24588 net.cpp:411] inception_5b/1x1 -> inception_5b/1x1
I1105 17:35:03.861608 24588 cudnn_conv_layer.cpp:194] Reallocating workspace storage: 7428
I1105 17:35:03.861657 24588 net.cpp:150] Setting up inception_5b/1x1
I1105 17:35:03.861670 24588 net.cpp:157] Top shape: 32 384 7 7 (602112)
I1105 17:35:03.861676 24588 net.cpp:165] Memory required for data: 1769358344
I1105 17:35:03.861685 24588 layer_factory.hpp:76] Creating layer inception_5b/prelu_1x1
I1105 17:35:03.861697 24588 net.cpp:106] Creating Layer inception_5b/prelu_1x1
I1105 17:35:03.861706 24588 net.cpp:454] inception_5b/prelu_1x1 <- inception_5b/1x1
I1105 17:35:03.861713 24588 net.cpp:397] inception_5b/prelu_1x1 -> inception_5b/1x1 (in-place)
I1105 17:35:03.862299 24588 net.cpp:150] Setting up inception_5b/prelu_1x1
I1105 17:35:03.862314 24588 net.cpp:157] Top shape: 32 384 7 7 (602112)
I1105 17:35:03.862318 24588 net.cpp:165] Memory required for data: 1771766792
I1105 17:35:03.862326 24588 layer_factory.hpp:76] Creating layer inception_5b/3x3_reduce
I1105 17:35:03.862339 24588 net.cpp:106] Creating Layer inception_5b/3x3_reduce
I1105 17:35:03.862344 24588 net.cpp:454] inception_5b/3x3_reduce <- inception_5a/output_inception_5a/output_0_split_1
I1105 17:35:03.862354 24588 net.cpp:411] inception_5b/3x3_reduce -> inception_5b/3x3_reduce
I1105 17:35:03.864948 24588 cudnn_conv_layer.cpp:194] Reallocating workspace storage: 7428
I1105 17:35:03.864985 24588 net.cpp:150] Setting up inception_5b/3x3_reduce
I1105 17:35:03.864997 24588 net.cpp:157] Top shape: 32 192 7 7 (301056)
I1105 17:35:03.865003 24588 net.cpp:165] Memory required for data: 1772971016
I1105 17:35:03.865011 24588 layer_factory.hpp:76] Creating layer inception_5b/prelu_3x3_reduce
I1105 17:35:03.865020 24588 net.cpp:106] Creating Layer inception_5b/prelu_3x3_reduce
I1105 17:35:03.865026 24588 net.cpp:454] inception_5b/prelu_3x3_reduce <- inception_5b/3x3_reduce
I1105 17:35:03.865034 24588 net.cpp:397] inception_5b/prelu_3x3_reduce -> inception_5b/3x3_reduce (in-place)
I1105 17:35:03.865159 24588 net.cpp:150] Setting up inception_5b/prelu_3x3_reduce
I1105 17:35:03.865169 24588 net.cpp:157] Top shape: 32 192 7 7 (301056)
I1105 17:35:03.865172 24588 net.cpp:165] Memory required for data: 1774175240
I1105 17:35:03.865178 24588 layer_factory.hpp:76] Creating layer inception_5b/3x3
I1105 17:35:03.865188 24588 net.cpp:106] Creating Layer inception_5b/3x3
I1105 17:35:03.865193 24588 net.cpp:454] inception_5b/3x3 <- inception_5b/3x3_reduce
I1105 17:35:03.865201 24588 net.cpp:411] inception_5b/3x3 -> inception_5b/3x3
I1105 17:35:03.870970 24588 cudnn_conv_layer.cpp:194] Reallocating workspace storage: 7788
I1105 17:35:03.871007 24588 net.cpp:150] Setting up inception_5b/3x3
I1105 17:35:03.871019 24588 net.cpp:157] Top shape: 32 384 7 7 (602112)
I1105 17:35:03.871023 24588 net.cpp:165] Memory required for data: 1776583688
I1105 17:35:03.871032 24588 layer_factory.hpp:76] Creating layer inception_5b/prelu_3x3
I1105 17:35:03.871042 24588 net.cpp:106] Creating Layer inception_5b/prelu_3x3
I1105 17:35:03.871047 24588 net.cpp:454] inception_5b/prelu_3x3 <- inception_5b/3x3
I1105 17:35:03.871055 24588 net.cpp:397] inception_5b/prelu_3x3 -> inception_5b/3x3 (in-place)
I1105 17:35:03.871165 24588 net.cpp:150] Setting up inception_5b/prelu_3x3
I1105 17:35:03.871176 24588 net.cpp:157] Top shape: 32 384 7 7 (602112)
I1105 17:35:03.871179 24588 net.cpp:165] Memory required for data: 1778992136
I1105 17:35:03.871186 24588 layer_factory.hpp:76] Creating layer inception_5b/5x5_reduce
I1105 17:35:03.871194 24588 net.cpp:106] Creating Layer inception_5b/5x5_reduce
I1105 17:35:03.871201 24588 net.cpp:454] inception_5b/5x5_reduce <- inception_5a/output_inception_5a/output_0_split_2
I1105 17:35:03.871217 24588 net.cpp:411] inception_5b/5x5_reduce -> inception_5b/5x5_reduce
I1105 17:35:03.872395 24588 cudnn_conv_layer.cpp:194] Reallocating workspace storage: 7428
I1105 17:35:03.872428 24588 net.cpp:150] Setting up inception_5b/5x5_reduce
I1105 17:35:03.872437 24588 net.cpp:157] Top shape: 32 48 7 7 (75264)
I1105 17:35:03.872442 24588 net.cpp:165] Memory required for data: 1779293192
I1105 17:35:03.872448 24588 layer_factory.hpp:76] Creating layer inception_5b/prelu_5x5_reduce
I1105 17:35:03.872458 24588 net.cpp:106] Creating Layer inception_5b/prelu_5x5_reduce
I1105 17:35:03.872473 24588 net.cpp:454] inception_5b/prelu_5x5_reduce <- inception_5b/5x5_reduce
I1105 17:35:03.872480 24588 net.cpp:397] inception_5b/prelu_5x5_reduce -> inception_5b/5x5_reduce (in-place)
I1105 17:35:03.872593 24588 net.cpp:150] Setting up inception_5b/prelu_5x5_reduce
I1105 17:35:03.872603 24588 net.cpp:157] Top shape: 32 48 7 7 (75264)
I1105 17:35:03.872607 24588 net.cpp:165] Memory required for data: 1779594248
I1105 17:35:03.872612 24588 layer_factory.hpp:76] Creating layer inception_5b/5x5
I1105 17:35:03.872624 24588 net.cpp:106] Creating Layer inception_5b/5x5
I1105 17:35:03.872630 24588 net.cpp:454] inception_5b/5x5 <- inception_5b/5x5_reduce
I1105 17:35:03.872637 24588 net.cpp:411] inception_5b/5x5 -> inception_5b/5x5
I1105 17:35:03.874703 24588 cudnn_conv_layer.cpp:194] Reallocating workspace storage: 9804
I1105 17:35:03.874732 24588 net.cpp:150] Setting up inception_5b/5x5
I1105 17:35:03.874742 24588 net.cpp:157] Top shape: 32 128 7 7 (200704)
I1105 17:35:03.874747 24588 net.cpp:165] Memory required for data: 1780397064
I1105 17:35:03.874754 24588 layer_factory.hpp:76] Creating layer inception_5b/prelu_5x5
I1105 17:35:03.874761 24588 net.cpp:106] Creating Layer inception_5b/prelu_5x5
I1105 17:35:03.874768 24588 net.cpp:454] inception_5b/prelu_5x5 <- inception_5b/5x5
I1105 17:35:03.874774 24588 net.cpp:397] inception_5b/prelu_5x5 -> inception_5b/5x5 (in-place)
I1105 17:35:03.874882 24588 net.cpp:150] Setting up inception_5b/prelu_5x5
I1105 17:35:03.874891 24588 net.cpp:157] Top shape: 32 128 7 7 (200704)
I1105 17:35:03.874896 24588 net.cpp:165] Memory required for data: 1781199880
I1105 17:35:03.874900 24588 layer_factory.hpp:76] Creating layer inception_5b/pool
I1105 17:35:03.874909 24588 net.cpp:106] Creating Layer inception_5b/pool
I1105 17:35:03.874914 24588 net.cpp:454] inception_5b/pool <- inception_5a/output_inception_5a/output_0_split_3
I1105 17:35:03.874920 24588 net.cpp:411] inception_5b/pool -> inception_5b/pool
I1105 17:35:03.875300 24588 net.cpp:150] Setting up inception_5b/pool
I1105 17:35:03.875313 24588 net.cpp:157] Top shape: 32 832 7 7 (1304576)
I1105 17:35:03.875319 24588 net.cpp:165] Memory required for data: 1786418184
I1105 17:35:03.875324 24588 layer_factory.hpp:76] Creating layer inception_5b/pool_proj
I1105 17:35:03.875331 24588 net.cpp:106] Creating Layer inception_5b/pool_proj
I1105 17:35:03.875336 24588 net.cpp:454] inception_5b/pool_proj <- inception_5b/pool
I1105 17:35:03.875344 24588 net.cpp:411] inception_5b/pool_proj -> inception_5b/pool_proj
I1105 17:35:03.877499 24588 cudnn_conv_layer.cpp:194] Reallocating workspace storage: 7428
I1105 17:35:03.877529 24588 net.cpp:150] Setting up inception_5b/pool_proj
I1105 17:35:03.877538 24588 net.cpp:157] Top shape: 32 128 7 7 (200704)
I1105 17:35:03.877542 24588 net.cpp:165] Memory required for data: 1787221000
I1105 17:35:03.877549 24588 layer_factory.hpp:76] Creating layer inception_5b/prelu_pool_proj
I1105 17:35:03.877559 24588 net.cpp:106] Creating Layer inception_5b/prelu_pool_proj
I1105 17:35:03.877565 24588 net.cpp:454] inception_5b/prelu_pool_proj <- inception_5b/pool_proj
I1105 17:35:03.877573 24588 net.cpp:397] inception_5b/prelu_pool_proj -> inception_5b/pool_proj (in-place)
I1105 17:35:03.877671 24588 net.cpp:150] Setting up inception_5b/prelu_pool_proj
I1105 17:35:03.877681 24588 net.cpp:157] Top shape: 32 128 7 7 (200704)
I1105 17:35:03.877684 24588 net.cpp:165] Memory required for data: 1788023816
I1105 17:35:03.877689 24588 layer_factory.hpp:76] Creating layer inception_5b/output
I1105 17:35:03.877696 24588 net.cpp:106] Creating Layer inception_5b/output
I1105 17:35:03.877712 24588 net.cpp:454] inception_5b/output <- inception_5b/1x1
I1105 17:35:03.877718 24588 net.cpp:454] inception_5b/output <- inception_5b/3x3
I1105 17:35:03.877723 24588 net.cpp:454] inception_5b/output <- inception_5b/5x5
I1105 17:35:03.877728 24588 net.cpp:454] inception_5b/output <- inception_5b/pool_proj
I1105 17:35:03.877737 24588 net.cpp:411] inception_5b/output -> inception_5b/output
I1105 17:35:03.877774 24588 net.cpp:150] Setting up inception_5b/output
I1105 17:35:03.877784 24588 net.cpp:157] Top shape: 32 1024 7 7 (1605632)
I1105 17:35:03.877787 24588 net.cpp:165] Memory required for data: 1794446344
I1105 17:35:03.877791 24588 layer_factory.hpp:76] Creating layer pool5/7x7_s1
I1105 17:35:03.877799 24588 net.cpp:106] Creating Layer pool5/7x7_s1
I1105 17:35:03.877804 24588 net.cpp:454] pool5/7x7_s1 <- inception_5b/output
I1105 17:35:03.877811 24588 net.cpp:411] pool5/7x7_s1 -> pool5/7x7_s1
I1105 17:35:03.877985 24588 net.cpp:150] Setting up pool5/7x7_s1
I1105 17:35:03.877996 24588 net.cpp:157] Top shape: 32 1024 1 1 (32768)
I1105 17:35:03.878000 24588 net.cpp:165] Memory required for data: 1794577416
I1105 17:35:03.878005 24588 layer_factory.hpp:76] Creating layer pool5/drop_7x7_s1
I1105 17:35:03.878012 24588 net.cpp:106] Creating Layer pool5/drop_7x7_s1
I1105 17:35:03.878017 24588 net.cpp:454] pool5/drop_7x7_s1 <- pool5/7x7_s1
I1105 17:35:03.878022 24588 net.cpp:397] pool5/drop_7x7_s1 -> pool5/7x7_s1 (in-place)
I1105 17:35:03.878051 24588 net.cpp:150] Setting up pool5/drop_7x7_s1
I1105 17:35:03.878059 24588 net.cpp:157] Top shape: 32 1024 1 1 (32768)
I1105 17:35:03.878063 24588 net.cpp:165] Memory required for data: 1794708488
I1105 17:35:03.878067 24588 layer_factory.hpp:76] Creating layer loss3/classifier2
I1105 17:35:03.878078 24588 net.cpp:106] Creating Layer loss3/classifier2
I1105 17:35:03.878084 24588 net.cpp:454] loss3/classifier2 <- pool5/7x7_s1
I1105 17:35:03.878093 24588 net.cpp:411] loss3/classifier2 -> loss3/classifier
I1105 17:35:03.878232 24588 net.cpp:150] Setting up loss3/classifier2
I1105 17:35:03.878242 24588 net.cpp:157] Top shape: 32 2 (64)
I1105 17:35:03.878245 24588 net.cpp:165] Memory required for data: 1794708744
I1105 17:35:03.878252 24588 layer_factory.hpp:76] Creating layer loss3/loss3
I1105 17:35:03.878259 24588 net.cpp:106] Creating Layer loss3/loss3
I1105 17:35:03.878263 24588 net.cpp:454] loss3/loss3 <- loss3/classifier
I1105 17:35:03.878268 24588 net.cpp:454] loss3/loss3 <- label_data_1_split_2
I1105 17:35:03.878274 24588 net.cpp:411] loss3/loss3 -> loss3/loss3
…
I1105 17:35:03.883205 24588 net.cpp:322] The NetState phase (1) differed from the phase (0) specified by a rule in layer data
I1105 17:35:03.884320 24588 net.cpp:49] Initializing net from parameters: 
name: "GoogleNet"
state {
  phase: TEST
}
layer {
  name: "data"
  type: "Data"
  top: "data"
  top: "label"
  include {
    phase: TEST
  }
  transform_param {
    mirror: false
    crop_size: 224
    mean_value: 104
    mean_value: 117
    mean_value: 123
  }
  data_param {
    source: "../../LMDB/val_5-lmdb"
    batch_size: 50
    backend: LMDB
  }
}
layer {
  name: "conv1/7x7_s2"
  type: "Convolution"
  bottom: "data"
  top: "conv1/7x7_s2"
  param {
    lr_mult: 1
    decay_mult: 1
  }
  param {
    lr_mult: 2
    decay_mult: 0
  }
  convolution_param {
    num_output: 64
    pad: 3
    kernel_size: 7
    stride: 2
    weight_filler {
      type: "xavier"
    }
    bias_filler {
      type: "constant"
      value: 0.2
    }
  }
}
layer {
  name: "conv1/prelu_7x7"
  type: "PReLU"
  bottom: "conv1/7x7_s2"
  top: "conv1/7x7_s2"
  param {
    lr_mult: 1
    decay_mult: 0
  }
  prelu_param {
    filler {
      type: "constant"
      value: 0.01
    }
  }
}
layer {
  name: "pool1/3x3_s2"
  type: "Pooling"
  bottom: "conv1/7x7_s2"
  top: "pool1/3x3_s2"
  pooling_param {
    pool: MAX
    kernel_size: 3
    stride: 2
  }
}
layer {
  name: "pool1/norm1"
  type: "LRN"
  bottom: "pool1/3x3_s2"
  top: "pool1/norm1"
  lrn_param {
    local_size: 5
    alpha: 0.0001
    beta: 0.75
  }
}
layer {
  name: "conv2/3x3_reduce"
  type: "Convolution"
  bottom: "pool1/norm1"
  top: "conv2/3x3_reduce"
  param {
    lr_mult: 1
    decay_mult: 1
  }
  param {
    lr_mult: 2
    decay_mult: 0
  }
  convolution_param {
    num_output: 64
    kernel_size: 1
    weight_filler {
      type: "xavier"
    }
    bias_filler {
      type: "constant"
      value: 0.2
    }
  }
}
layer {
  name: "conv2/prelu_3x3_reduce"
  type: "PReLU"
  bottom: "conv2/3x3_reduce"
  top: "conv2/3x3_reduce"
  param {
    lr_mult: 1
    decay_mult: 0
  }
  prelu_param {
    filler {
      type: "constant"
      value: 0.01
    }
  }
}
layer {
  name: "conv2/3x3"
  type: "Convolution"
  bottom: "conv2/3x3_reduce"
  top: "conv2/3x3"
  param {
    lr_mult: 1
    decay_mult: 1
  }
  param {
    lr_mult: 2
    decay_mult: 0
  }
  convolution_param {
    num_output: 192
    pad: 1
    kernel_size: 3
    weight_filler {
      type: "xavier"
    }
    bias_filler {
      type: "constant"
      value: 0.2
    }
  }
}
layer {
  name: "conv2/prelu_3x3"
  type: "PReLU"
  bottom: "conv2/3x3"
  top: "conv2/3x3"
  param {
    lr_mult: 1
    decay_mult: 0
  }
  prelu_param {
    filler {
      type: "constant"
      value: 0.01
    }
  }
}
layer {
  name: "conv2/norm2"
  type: "LRN"
  bottom: "conv2/3x3"
  top: "conv2/norm2"
  lrn_param {
    local_size: 5
    alpha: 0.0001
    beta: 0.75
  }
}
layer {
  name: "pool2/3x3_s2"
  type: "Pooling"
  bottom: "conv2/norm2"
  top: "pool2/3x3_s2"
  pooling_param {
    pool: MAX
    kernel_size: 3
    stride: 2
  }
}
layer {
  name: "inception_3a/1x1"
  type: "Convolution"
  bottom: "pool2/3x3_s2"
  top: "inception_3a/1x1"
  param {
    lr_mult: 1
    decay_mult: 1
  }
  param {
    lr_mult: 2
    decay_mult: 0
  }
  convolution_param {
    num_output: 64
    kernel_size: 1
    weight_filler {
      type: "xavier"
    }
    bias_filler {
      type: "constant"
      value: 0.2
    }
  }
}
layer {
  name: "inception_3a/prelu_1x1"
  type: "PReLU"
  bottom: "inception_3a/1x1"
  top: "inception_3a/1x1"
  param {
    lr_mult: 1
    decay_mult: 0
  }
  prelu_param {
    filler {
      type: "constant"
      value: 0.01
    }
  }
}
layer {
  name: "inception_3a/3x3_reduce"
  type: "Convolution"
  bottom: "pool2/3x3_s2"
  top: "inception_3a/3x3_reduce"
  param {
    lr_mult: 1
    decay_mult: 1
  }
  param {
    lr_mult: 2
    decay_mult: 0
  }
  convolution_param {
    num_output: 96
    kernel_size: 1
    weight_filler {
      type: "xavier"
    }
    bias_filler {
      type: "constant"
      value: 0.2
    }
  }
}
layer {
  name: "inception_3a/prelu_3x3_reduce"
  type: "PReLU"
  bottom: "inception_3a/3x3_reduce"
  top: "inception_3a/3x3_reduce"
  param {
    lr_mult: 1
    decay_mult: 0
  }
  prelu_param {
    filler {
      type: "constant"
      value: 0.01
    }
  }
}
layer {
  name: "inception_3a/3x3"
  type: "Convolution"
  bottom: "inception_3a/3x3_reduce"
  top: "inception_3a/3x3"
  param {
    lr_mult: 1
    decay_mult: 1
  }
  param {
    lr_mult: 2
    decay_mult: 0
  }
  convolution_param {
    num_output: 128
    pad: 1
    kernel_size: 3
    weight_filler {
      type: "xavier"
    }
    bias_filler {
      type: "constant"
      value: 0.2
    }
  }
}
layer {
  name: "inception_3a/prelu_3x3"
  type: "PReLU"
  bottom: "inception_3a/3x3"
  top: "inception_3a/3x3"
  param {
    lr_mult: 1
    decay_mult: 0
  }
  prelu_param {
    filler {
      type: "constant"
      value: 0.01
    }
  }
}
layer {
  name: "inception_3a/5x5_reduce"
  type: "Convolution"
  bottom: "pool2/3x3_s2"
  top: "inception_3a/5x5_reduce"
  param {
    lr_mult: 1
    decay_mult: 1
  }
  param {
    lr_mult: 2
    decay_mult: 0
  }
  convolution_param {
    num_output: 16
    kernel_size: 1
    weight_filler {
      type: "xavier"
    }
    bias_filler {
      type: "constant"
      value: 0.2
    }
  }
}
layer {
  name: "inception_3a/prelu_5x5_reduce"
  type: "PReLU"
  bottom: "inception_3a/5x5_reduce"
  top: "inception_3a/5x5_reduce"
  param {
    lr_mult: 1
    decay_mult: 0
  }
  prelu_param {
    filler {
      type: "constant"
      value: 0.01
    }
  }
}
layer {
  name: "inception_3a/5x5"
  type: "Convolution"
  bottom: "inception_3a/5x5_reduce"
  top: "inception_3a/5x5"
  param {
    lr_mult: 1
    decay_mult: 1
  }
  param {
    lr_mult: 2
    decay_mult: 0
  }
  convolution_param {
    num_output: 32
    pad: 2
    kernel_size: 5
    weight_filler {
      type: "xavier"
    }
    bias_filler {
      type: "constant"
      value: 0.2
    }
  }
}
layer {
  name: "inception_3a/prelu_5x5"
  type: "PReLU"
  bottom: "inception_3a/5x5"
  top: "inception_3a/5x5"
  param {
    lr_mult: 1
    decay_mult: 0
  }
  prelu_param {
    filler {
      type: "constant"
      value: 0.01
    }
  }
}
layer {
  name: "inception_3a/pool"
  type: "Pooling"
  bottom: "pool2/3x3_s2"
  top: "inception_3a/pool"
  pooling_param {
    pool: MAX
    kernel_size: 3
    stride: 1
    pad: 1
  }
}
layer {
  name: "inception_3a/pool_proj"
  type: "Convolution"
  bottom: "inception_3a/pool"
  top: "inception_3a/pool_proj"
  param {
    lr_mult: 1
    decay_mult: 1
  }
  param {
    lr_mult: 2
    decay_mult: 0
  }
  convolution_param {
    num_output: 32
    kernel_size: 1
    weight_filler {
      type: "xavier"
    }
    bias_filler {
      type: "constant"
      value: 0.2
    }
  }
}
layer {
  name: "inception_3a/prelu_pool_proj"
  type: "PReLU"
  bottom: "inception_3a/pool_proj"
  top: "inception_3a/pool_proj"
  param {
    lr_mult: 1
    decay_mult: 0
  }
  prelu_param {
    filler {
      type: "constant"
      value: 0.01
    }
  }
}
layer {
  name: "inception_3a/output"
  type: "Concat"
  bottom: "inception_3a/1x1"
  bottom: "inception_3a/3x3"
  bottom: "inception_3a/5x5"
  bottom: "inception_3a/pool_proj"
  top: "inception_3a/output"
}
layer {
  name: "inception_3b/1x1"
  type: "Convolution"
  bottom: "inception_3a/output"
  top: "inception_3b/1x1"
  param {
    lr_mult: 1
    decay_mult: 1
  }
  param {
    lr_mult: 2
    decay_mult: 0
  }
  convolution_param {
    num_output: 128
    kernel_size: 1
    weight_filler {
      type: "xavier"
    }
    bias_filler {
      type: "constant"
      value: 0.2
    }
  }
}
layer {
  name: "inception_3b/prelu_1x1"
  type: "PReLU"
  bottom: "inception_3b/1x1"
  top: "inception_3b/1x1"
  param {
    lr_mult: 1
    decay_mult: 0
  }
  prelu_param {
    filler {
      type: "constant"
      value: 0.01
    }
  }
}
layer {
  name: "inception_3b/3x3_reduce"
  type: "Convolution"
  bottom: "inception_3a/output"
  top: "inception_3b/3x3_reduce"
  param {
    lr_mult: 1
    decay_mult: 1
  }
  param {
    lr_mult: 2
    decay_mult: 0
  }
  convolution_param {
    num_output: 128
    kernel_size: 1
    weight_filler {
      type: "xavier"
    }
    bias_filler {
      type: "constant"
      value: 0.2
    }
  }
}
layer {
  name: "inception_3b/prelu_3x3_reduce"
  type: "PReLU"
  bottom: "inception_3b/3x3_reduce"
  top: "inception_3b/3x3_reduce"
  param {
    lr_mult: 1
    decay_mult: 0
  }
  prelu_param {
    filler {
      type: "constant"
      value: 0.01
    }
  }
}
layer {
  name: "inception_3b/3x3"
  type: "Convolution"
  bottom: "inception_3b/3x3_reduce"
  top: "inception_3b/3x3"
  param {
    lr_mult: 1
    decay_mult: 1
  }
  param {
    lr_mult: 2
    decay_mult: 0
  }
  convolution_param {
    num_output: 192
    pad: 1
    kernel_size: 3
    weight_filler {
      type: "xavier"
    }
…
I1105 17:35:04.160321 24588 net.cpp:106] Creating Layer inception_4c/output
I1105 17:35:04.160326 24588 net.cpp:454] inception_4c/output <- inception_4c/1x1
I1105 17:35:04.160332 24588 net.cpp:454] inception_4c/output <- inception_4c/3x3
I1105 17:35:04.160337 24588 net.cpp:454] inception_4c/output <- inception_4c/5x5
I1105 17:35:04.160342 24588 net.cpp:454] inception_4c/output <- inception_4c/pool_proj
I1105 17:35:04.160348 24588 net.cpp:411] inception_4c/output -> inception_4c/output
I1105 17:35:04.160372 24588 net.cpp:150] Setting up inception_4c/output
I1105 17:35:04.160379 24588 net.cpp:157] Top shape: 50 512 14 14 (5017600)
I1105 17:35:04.160383 24588 net.cpp:165] Memory required for data: 2234652208
I1105 17:35:04.160387 24588 layer_factory.hpp:76] Creating layer inception_4c/output_inception_4c/output_0_split
I1105 17:35:04.160394 24588 net.cpp:106] Creating Layer inception_4c/output_inception_4c/output_0_split
I1105 17:35:04.160398 24588 net.cpp:454] inception_4c/output_inception_4c/output_0_split <- inception_4c/output
I1105 17:35:04.160408 24588 net.cpp:411] inception_4c/output_inception_4c/output_0_split -> inception_4c/output_inception_4c/output_0_split_0
I1105 17:35:04.160414 24588 net.cpp:411] inception_4c/output_inception_4c/output_0_split -> inception_4c/output_inception_4c/output_0_split_1
I1105 17:35:04.160421 24588 net.cpp:411] inception_4c/output_inception_4c/output_0_split -> inception_4c/output_inception_4c/output_0_split_2
I1105 17:35:04.160429 24588 net.cpp:411] inception_4c/output_inception_4c/output_0_split -> inception_4c/output_inception_4c/output_0_split_3
I1105 17:35:04.160491 24588 net.cpp:150] Setting up inception_4c/output_inception_4c/output_0_split
I1105 17:35:04.160501 24588 net.cpp:157] Top shape: 50 512 14 14 (5017600)
I1105 17:35:04.160506 24588 net.cpp:157] Top shape: 50 512 14 14 (5017600)
I1105 17:35:04.160511 24588 net.cpp:157] Top shape: 50 512 14 14 (5017600)
I1105 17:35:04.160516 24588 net.cpp:157] Top shape: 50 512 14 14 (5017600)
I1105 17:35:04.160519 24588 net.cpp:165] Memory required for data: 2314933808
I1105 17:35:04.160523 24588 layer_factory.hpp:76] Creating layer inception_4d/1x1
I1105 17:35:04.160531 24588 net.cpp:106] Creating Layer inception_4d/1x1
I1105 17:35:04.160536 24588 net.cpp:454] inception_4d/1x1 <- inception_4c/output_inception_4c/output_0_split_0
I1105 17:35:04.160543 24588 net.cpp:411] inception_4d/1x1 -> inception_4d/1x1
I1105 17:35:04.162386 24588 cudnn_conv_layer.cpp:194] Reallocating workspace storage: 10080
I1105 17:35:04.162442 24588 net.cpp:150] Setting up inception_4d/1x1
I1105 17:35:04.162456 24588 net.cpp:157] Top shape: 50 112 14 14 (1097600)
I1105 17:35:04.162461 24588 net.cpp:165] Memory required for data: 2319324208
I1105 17:35:04.162470 24588 layer_factory.hpp:76] Creating layer inception_4d/prelu_1x1
I1105 17:35:04.162487 24588 net.cpp:106] Creating Layer inception_4d/prelu_1x1
I1105 17:35:04.162494 24588 net.cpp:454] inception_4d/prelu_1x1 <- inception_4d/1x1
I1105 17:35:04.162503 24588 net.cpp:397] inception_4d/prelu_1x1 -> inception_4d/1x1 (in-place)
I1105 17:35:04.162616 24588 net.cpp:150] Setting up inception_4d/prelu_1x1
I1105 17:35:04.162624 24588 net.cpp:157] Top shape: 50 112 14 14 (1097600)
I1105 17:35:04.162628 24588 net.cpp:165] Memory required for data: 2323714608
I1105 17:35:04.162634 24588 layer_factory.hpp:76] Creating layer inception_4d/3x3_reduce
I1105 17:35:04.162650 24588 net.cpp:106] Creating Layer inception_4d/3x3_reduce
I1105 17:35:04.162665 24588 net.cpp:454] inception_4d/3x3_reduce <- inception_4c/output_inception_4c/output_0_split_1
I1105 17:35:04.162677 24588 net.cpp:411] inception_4d/3x3_reduce -> inception_4d/3x3_reduce
I1105 17:35:04.164788 24588 cudnn_conv_layer.cpp:194] Reallocating workspace storage: 10080
I1105 17:35:04.164855 24588 net.cpp:150] Setting up inception_4d/3x3_reduce
I1105 17:35:04.164868 24588 net.cpp:157] Top shape: 50 144 14 14 (1411200)
I1105 17:35:04.164873 24588 net.cpp:165] Memory required for data: 2329359408
I1105 17:35:04.164885 24588 layer_factory.hpp:76] Creating layer inception_4d/prelu_3x3_reduce
I1105 17:35:04.164904 24588 net.cpp:106] Creating Layer inception_4d/prelu_3x3_reduce
I1105 17:35:04.164913 24588 net.cpp:454] inception_4d/prelu_3x3_reduce <- inception_4d/3x3_reduce
I1105 17:35:04.164924 24588 net.cpp:397] inception_4d/prelu_3x3_reduce -> inception_4d/3x3_reduce (in-place)
I1105 17:35:04.165081 24588 net.cpp:150] Setting up inception_4d/prelu_3x3_reduce
I1105 17:35:04.165096 24588 net.cpp:157] Top shape: 50 144 14 14 (1411200)
I1105 17:35:04.165099 24588 net.cpp:165] Memory required for data: 2335004208
I1105 17:35:04.165107 24588 layer_factory.hpp:76] Creating layer inception_4d/3x3
I1105 17:35:04.165130 24588 net.cpp:106] Creating Layer inception_4d/3x3
I1105 17:35:04.165137 24588 net.cpp:454] inception_4d/3x3 <- inception_4d/3x3_reduce
I1105 17:35:04.165144 24588 net.cpp:411] inception_4d/3x3 -> inception_4d/3x3
I1105 17:35:04.169728 24588 cudnn_conv_layer.cpp:194] Reallocating workspace storage: 10080
I1105 17:35:04.169795 24588 net.cpp:150] Setting up inception_4d/3x3
I1105 17:35:04.169808 24588 net.cpp:157] Top shape: 50 288 14 14 (2822400)
I1105 17:35:04.169812 24588 net.cpp:165] Memory required for data: 2346293808
I1105 17:35:04.169823 24588 layer_factory.hpp:76] Creating layer inception_4d/prelu_3x3
I1105 17:35:04.169837 24588 net.cpp:106] Creating Layer inception_4d/prelu_3x3
I1105 17:35:04.169847 24588 net.cpp:454] inception_4d/prelu_3x3 <- inception_4d/3x3
I1105 17:35:04.169855 24588 net.cpp:397] inception_4d/prelu_3x3 -> inception_4d/3x3 (in-place)
I1105 17:35:04.170572 24588 net.cpp:150] Setting up inception_4d/prelu_3x3
I1105 17:35:04.170585 24588 net.cpp:157] Top shape: 50 288 14 14 (2822400)
I1105 17:35:04.170589 24588 net.cpp:165] Memory required for data: 2357583408
I1105 17:35:04.170596 24588 layer_factory.hpp:76] Creating layer inception_4d/5x5_reduce
I1105 17:35:04.170610 24588 net.cpp:106] Creating Layer inception_4d/5x5_reduce
I1105 17:35:04.170617 24588 net.cpp:454] inception_4d/5x5_reduce <- inception_4c/output_inception_4c/output_0_split_2
I1105 17:35:04.170626 24588 net.cpp:411] inception_4d/5x5_reduce -> inception_4d/5x5_reduce
I1105 17:35:04.172222 24588 cudnn_conv_layer.cpp:194] Reallocating workspace storage: 10080
I1105 17:35:04.172274 24588 net.cpp:150] Setting up inception_4d/5x5_reduce
I1105 17:35:04.172286 24588 net.cpp:157] Top shape: 50 32 14 14 (313600)
I1105 17:35:04.172291 24588 net.cpp:165] Memory required for data: 2358837808
I1105 17:35:04.172298 24588 layer_factory.hpp:76] Creating layer inception_4d/prelu_5x5_reduce
I1105 17:35:04.172310 24588 net.cpp:106] Creating Layer inception_4d/prelu_5x5_reduce
I1105 17:35:04.172317 24588 net.cpp:454] inception_4d/prelu_5x5_reduce <- inception_4d/5x5_reduce
I1105 17:35:04.172325 24588 net.cpp:397] inception_4d/prelu_5x5_reduce -> inception_4d/5x5_reduce (in-place)
I1105 17:35:04.172420 24588 net.cpp:150] Setting up inception_4d/prelu_5x5_reduce
I1105 17:35:04.172430 24588 net.cpp:157] Top shape: 50 32 14 14 (313600)
I1105 17:35:04.172433 24588 net.cpp:165] Memory required for data: 2360092208
I1105 17:35:04.172440 24588 layer_factory.hpp:76] Creating layer inception_4d/5x5
I1105 17:35:04.172449 24588 net.cpp:106] Creating Layer inception_4d/5x5
I1105 17:35:04.172456 24588 net.cpp:454] inception_4d/5x5 <- inception_4d/5x5_reduce
I1105 17:35:04.172463 24588 net.cpp:411] inception_4d/5x5 -> inception_4d/5x5
I1105 17:35:04.173794 24588 cudnn_conv_layer.cpp:194] Reallocating workspace storage: 13080
I1105 17:35:04.173831 24588 net.cpp:150] Setting up inception_4d/5x5
I1105 17:35:04.173841 24588 net.cpp:157] Top shape: 50 64 14 14 (627200)
I1105 17:35:04.173846 24588 net.cpp:165] Memory required for data: 2362601008
I1105 17:35:04.173852 24588 layer_factory.hpp:76] Creating layer inception_4d/prelu_5x5
I1105 17:35:04.173861 24588 net.cpp:106] Creating Layer inception_4d/prelu_5x5
I1105 17:35:04.173867 24588 net.cpp:454] inception_4d/prelu_5x5 <- inception_4d/5x5
I1105 17:35:04.173877 24588 net.cpp:397] inception_4d/prelu_5x5 -> inception_4d/5x5 (in-place)
I1105 17:35:04.173970 24588 net.cpp:150] Setting up inception_4d/prelu_5x5
I1105 17:35:04.173980 24588 net.cpp:157] Top shape: 50 64 14 14 (627200)
I1105 17:35:04.173985 24588 net.cpp:165] Memory required for data: 2365109808
I1105 17:35:04.173990 24588 layer_factory.hpp:76] Creating layer inception_4d/pool
I1105 17:35:04.173998 24588 net.cpp:106] Creating Layer inception_4d/pool
I1105 17:35:04.174003 24588 net.cpp:454] inception_4d/pool <- inception_4c/output_inception_4c/output_0_split_3
I1105 17:35:04.174010 24588 net.cpp:411] inception_4d/pool -> inception_4d/pool
I1105 17:35:04.174517 24588 net.cpp:150] Setting up inception_4d/pool
I1105 17:35:04.174530 24588 net.cpp:157] Top shape: 50 512 14 14 (5017600)
I1105 17:35:04.174533 24588 net.cpp:165] Memory required for data: 2385180208
I1105 17:35:04.174538 24588 layer_factory.hpp:76] Creating layer inception_4d/pool_proj
I1105 17:35:04.174548 24588 net.cpp:106] Creating Layer inception_4d/pool_proj
I1105 17:35:04.174554 24588 net.cpp:454] inception_4d/pool_proj <- inception_4d/pool
I1105 17:35:04.174561 24588 net.cpp:411] inception_4d/pool_proj -> inception_4d/pool_proj
I1105 17:35:04.176159 24588 cudnn_conv_layer.cpp:194] Reallocating workspace storage: 10080
I1105 17:35:04.176200 24588 net.cpp:150] Setting up inception_4d/pool_proj
I1105 17:35:04.176209 24588 net.cpp:157] Top shape: 50 64 14 14 (627200)
I1105 17:35:04.176214 24588 net.cpp:165] Memory required for data: 2387689008
I1105 17:35:04.176221 24588 layer_factory.hpp:76] Creating layer inception_4d/prelu_pool_proj
I1105 17:35:04.176247 24588 net.cpp:106] Creating Layer inception_4d/prelu_pool_proj
I1105 17:35:04.176254 24588 net.cpp:454] inception_4d/prelu_pool_proj <- inception_4d/pool_proj
I1105 17:35:04.176261 24588 net.cpp:397] inception_4d/prelu_pool_proj -> inception_4d/pool_proj (in-place)
I1105 17:35:04.176357 24588 net.cpp:150] Setting up inception_4d/prelu_pool_proj
I1105 17:35:04.176365 24588 net.cpp:157] Top shape: 50 64 14 14 (627200)
I1105 17:35:04.176369 24588 net.cpp:165] Memory required for data: 2390197808
I1105 17:35:04.176375 24588 layer_factory.hpp:76] Creating layer inception_4d/output
I1105 17:35:04.176385 24588 net.cpp:106] Creating Layer inception_4d/output
I1105 17:35:04.176391 24588 net.cpp:454] inception_4d/output <- inception_4d/1x1
I1105 17:35:04.176398 24588 net.cpp:454] inception_4d/output <- inception_4d/3x3
I1105 17:35:04.176403 24588 net.cpp:454] inception_4d/output <- inception_4d/5x5
I1105 17:35:04.176408 24588 net.cpp:454] inception_4d/output <- inception_4d/pool_proj
I1105 17:35:04.176414 24588 net.cpp:411] inception_4d/output -> inception_4d/output
I1105 17:35:04.176446 24588 net.cpp:150] Setting up inception_4d/output
I1105 17:35:04.176455 24588 net.cpp:157] Top shape: 50 528 14 14 (5174400)
I1105 17:35:04.176460 24588 net.cpp:165] Memory required for data: 2410895408
I1105 17:35:04.176465 24588 layer_factory.hpp:76] Creating layer inception_4d/output_inception_4d/output_0_split
I1105 17:35:04.176471 24588 net.cpp:106] Creating Layer inception_4d/output_inception_4d/output_0_split
I1105 17:35:04.176476 24588 net.cpp:454] inception_4d/output_inception_4d/output_0_split <- inception_4d/output
I1105 17:35:04.176483 24588 net.cpp:411] inception_4d/output_inception_4d/output_0_split -> inception_4d/output_inception_4d/output_0_split_0
I1105 17:35:04.176491 24588 net.cpp:411] inception_4d/output_inception_4d/output_0_split -> inception_4d/output_inception_4d/output_0_split_1
I1105 17:35:04.176498 24588 net.cpp:411] inception_4d/output_inception_4d/output_0_split -> inception_4d/output_inception_4d/output_0_split_2
I1105 17:35:04.176507 24588 net.cpp:411] inception_4d/output_inception_4d/output_0_split -> inception_4d/output_inception_4d/output_0_split_3
I1105 17:35:04.176514 24588 net.cpp:411] inception_4d/output_inception_4d/output_0_split -> inception_4d/output_inception_4d/output_0_split_4
I1105 17:35:04.176576 24588 net.cpp:150] Setting up inception_4d/output_inception_4d/output_0_split
I1105 17:35:04.176585 24588 net.cpp:157] Top shape: 50 528 14 14 (5174400)
I1105 17:35:04.176590 24588 net.cpp:157] Top shape: 50 528 14 14 (5174400)
I1105 17:35:04.176595 24588 net.cpp:157] Top shape: 50 528 14 14 (5174400)
I1105 17:35:04.176600 24588 net.cpp:157] Top shape: 50 528 14 14 (5174400)
I1105 17:35:04.176605 24588 net.cpp:157] Top shape: 50 528 14 14 (5174400)
I1105 17:35:04.176609 24588 net.cpp:165] Memory required for data: 2514383408
I1105 17:35:04.176614 24588 layer_factory.hpp:76] Creating layer loss2/ave_pool
I1105 17:35:04.176620 24588 net.cpp:106] Creating Layer loss2/ave_pool
I1105 17:35:04.176623 24588 net.cpp:454] loss2/ave_pool <- inception_4d/output_inception_4d/output_0_split_0
I1105 17:35:04.176630 24588 net.cpp:411] loss2/ave_pool -> loss2/ave_pool
I1105 17:35:04.176818 24588 net.cpp:150] Setting up loss2/ave_pool
I1105 17:35:04.176830 24588 net.cpp:157] Top shape: 50 528 4 4 (422400)
I1105 17:35:04.176833 24588 net.cpp:165] Memory required for data: 2516073008
I1105 17:35:04.176837 24588 layer_factory.hpp:76] Creating layer loss2/conv
I1105 17:35:04.176847 24588 net.cpp:106] Creating Layer loss2/conv
I1105 17:35:04.176853 24588 net.cpp:454] loss2/conv <- loss2/ave_pool
I1105 17:35:04.176862 24588 net.cpp:411] loss2/conv -> loss2/conv
I1105 17:35:04.178607 24588 cudnn_conv_layer.cpp:194] Reallocating workspace storage: 6840
I1105 17:35:04.178643 24588 net.cpp:150] Setting up loss2/conv
I1105 17:35:04.178653 24588 net.cpp:157] Top shape: 50 128 4 4 (102400)
I1105 17:35:04.178658 24588 net.cpp:165] Memory required for data: 2516482608
I1105 17:35:04.178665 24588 layer_factory.hpp:76] Creating layer loss2/prelu_conv
I1105 17:35:04.178686 24588 net.cpp:106] Creating Layer loss2/prelu_conv
I1105 17:35:04.178694 24588 net.cpp:454] loss2/prelu_conv <- loss2/conv
I1105 17:35:04.178699 24588 net.cpp:397] loss2/prelu_conv -> loss2/conv (in-place)
I1105 17:35:04.178800 24588 net.cpp:150] Setting up loss2/prelu_conv
I1105 17:35:04.178809 24588 net.cpp:157] Top shape: 50 128 4 4 (102400)
I1105 17:35:04.178814 24588 net.cpp:165] Memory required for data: 2516892208
I1105 17:35:04.178819 24588 layer_factory.hpp:76] Creating layer loss2/fc
I1105 17:35:04.178829 24588 net.cpp:106] Creating Layer loss2/fc
I1105 17:35:04.178835 24588 net.cpp:454] loss2/fc <- loss2/conv
I1105 17:35:04.178853 24588 net.cpp:411] loss2/fc -> loss2/fc
I1105 17:35:04.194694 24588 net.cpp:150] Setting up loss2/fc
I1105 17:35:04.194731 24588 net.cpp:157] Top shape: 50 1024 (51200)
I1105 17:35:04.194759 24588 net.cpp:165] Memory required for data: 2517097008
I1105 17:35:04.194795 24588 layer_factory.hpp:76] Creating layer loss2/prelu_fc
I1105 17:35:04.194809 24588 net.cpp:106] Creating Layer loss2/prelu_fc
I1105 17:35:04.194818 24588 net.cpp:454] loss2/prelu_fc <- loss2/fc
I1105 17:35:04.194824 24588 net.cpp:397] loss2/prelu_fc -> loss2/fc (in-place)
I1105 17:35:04.194955 24588 net.cpp:150] Setting up loss2/prelu_fc
I1105 17:35:04.194967 24588 net.cpp:157] Top shape: 50 1024 (51200)
I1105 17:35:04.194970 24588 net.cpp:165] Memory required for data: 2517301808
I1105 17:35:04.194988 24588 layer_factory.hpp:76] Creating layer loss2/drop_fc
I1105 17:35:04.194996 24588 net.cpp:106] Creating Layer loss2/drop_fc
I1105 17:35:04.195000 24588 net.cpp:454] loss2/drop_fc <- loss2/fc
I1105 17:35:04.195006 24588 net.cpp:397] loss2/drop_fc -> loss2/fc (in-place)
I1105 17:35:04.195032 24588 net.cpp:150] Setting up loss2/drop_fc
I1105 17:35:04.195039 24588 net.cpp:157] Top shape: 50 1024 (51200)
I1105 17:35:04.195044 24588 net.cpp:165] Memory required for data: 2517506608
I1105 17:35:04.195049 24588 layer_factory.hpp:76] Creating layer loss2/classifier2
I1105 17:35:04.195056 24588 net.cpp:106] Creating Layer loss2/classifier2
I1105 17:35:04.195061 24588 net.cpp:454] loss2/classifier2 <- loss2/fc
I1105 17:35:04.195068 24588 net.cpp:411] loss2/classifier2 -> loss2/classifier
I1105 17:35:04.195210 24588 net.cpp:150] Setting up loss2/classifier2
I1105 17:35:04.195220 24588 net.cpp:157] Top shape: 50 2 (100)
I1105 17:35:04.195225 24588 net.cpp:165] Memory required for data: 2517507008
I1105 17:35:04.195242 24588 layer_factory.hpp:76] Creating layer loss2/classifier_loss2/classifier2_0_split
I1105 17:35:04.195250 24588 net.cpp:106] Creating Layer loss2/classifier_loss2/classifier2_0_split
I1105 17:35:04.195255 24588 net.cpp:454] loss2/classifier_loss2/classifier2_0_split <- loss2/classifier
I1105 17:35:04.195261 24588 net.cpp:411] loss2/classifier_loss2/classifier2_0_split -> loss2/classifier_loss2/classifier2_0_split_0
I1105 17:35:04.195271 24588 net.cpp:411] loss2/classifier_loss2/classifier2_0_split -> loss2/classifier_loss2/classifier2_0_split_1
I1105 17:35:04.195304 24588 net.cpp:150] Setting up loss2/classifier_loss2/classifier2_0_split
I1105 17:35:04.195323 24588 net.cpp:157] Top shape: 50 2 (100)
I1105 17:35:04.195340 24588 net.cpp:157] Top shape: 50 2 (100)
I1105 17:35:04.195344 24588 net.cpp:165] Memory required for data: 2517507808
I1105 17:35:04.195358 24588 layer_factory.hpp:76] Creating layer loss2/loss
I1105 17:35:04.195366 24588 net.cpp:106] Creating Layer loss2/loss
I1105 17:35:04.195371 24588 net.cpp:454] loss2/loss <- loss2/classifier_loss2/classifier2_0_split_0
I1105 17:35:04.195377 24588 net.cpp:454] loss2/loss <- label_data_1_split_2
…
I1105 17:35:04.196260 24588 net.cpp:165] Memory required for data: 2517507816
I1105 17:35:04.196264 24588 layer_factory.hpp:76] Creating layer inception_4e/1x1
I1105 17:35:04.196274 24588 net.cpp:106] Creating Layer inception_4e/1x1
I1105 17:35:04.196280 24588 net.cpp:454] inception_4e/1x1 <- inception_4d/output_inception_4d/output_0_split_1
I1105 17:35:04.196288 24588 net.cpp:411] inception_4e/1x1 -> inception_4e/1x1
I1105 17:35:04.198765 24588 cudnn_conv_layer.cpp:194] Reallocating workspace storage: 10080
I1105 17:35:04.198814 24588 net.cpp:150] Setting up inception_4e/1x1
I1105 17:35:04.198824 24588 net.cpp:157] Top shape: 50 256 14 14 (2508800)
I1105 17:35:04.198829 24588 net.cpp:165] Memory required for data: 2527543016
I1105 17:35:04.198838 24588 layer_factory.hpp:76] Creating layer inception_4e/prelu_1x1
I1105 17:35:04.198851 24588 net.cpp:106] Creating Layer inception_4e/prelu_1x1
I1105 17:35:04.198858 24588 net.cpp:454] inception_4e/prelu_1x1 <- inception_4e/1x1
I1105 17:35:04.198865 24588 net.cpp:397] inception_4e/prelu_1x1 -> inception_4e/1x1 (in-place)
I1105 17:35:04.198992 24588 net.cpp:150] Setting up inception_4e/prelu_1x1
I1105 17:35:04.199002 24588 net.cpp:157] Top shape: 50 256 14 14 (2508800)
I1105 17:35:04.199007 24588 net.cpp:165] Memory required for data: 2537578216
I1105 17:35:04.199012 24588 layer_factory.hpp:76] Creating layer inception_4e/3x3_reduce
I1105 17:35:04.199023 24588 net.cpp:106] Creating Layer inception_4e/3x3_reduce
I1105 17:35:04.199028 24588 net.cpp:454] inception_4e/3x3_reduce <- inception_4d/output_inception_4d/output_0_split_2
I1105 17:35:04.199038 24588 net.cpp:411] inception_4e/3x3_reduce -> inception_4e/3x3_reduce
I1105 17:35:04.200765 24588 cudnn_conv_layer.cpp:194] Reallocating workspace storage: 10080
I1105 17:35:04.200803 24588 net.cpp:150] Setting up inception_4e/3x3_reduce
I1105 17:35:04.200812 24588 net.cpp:157] Top shape: 50 160 14 14 (1568000)
I1105 17:35:04.200817 24588 net.cpp:165] Memory required for data: 2543850216
I1105 17:35:04.200824 24588 layer_factory.hpp:76] Creating layer inception_4e/prelu_3x3_reduce
I1105 17:35:04.200834 24588 net.cpp:106] Creating Layer inception_4e/prelu_3x3_reduce
I1105 17:35:04.200841 24588 net.cpp:454] inception_4e/prelu_3x3_reduce <- inception_4e/3x3_reduce
I1105 17:35:04.200850 24588 net.cpp:397] inception_4e/prelu_3x3_reduce -> inception_4e/3x3_reduce (in-place)
I1105 17:35:04.200953 24588 net.cpp:150] Setting up inception_4e/prelu_3x3_reduce
I1105 17:35:04.200963 24588 net.cpp:157] Top shape: 50 160 14 14 (1568000)
I1105 17:35:04.200966 24588 net.cpp:165] Memory required for data: 2550122216
I1105 17:35:04.200973 24588 layer_factory.hpp:76] Creating layer inception_4e/3x3
I1105 17:35:04.200996 24588 net.cpp:106] Creating Layer inception_4e/3x3
I1105 17:35:04.201004 24588 net.cpp:454] inception_4e/3x3 <- inception_4e/3x3_reduce
I1105 17:35:04.201012 24588 net.cpp:411] inception_4e/3x3 -> inception_4e/3x3
I1105 17:35:04.205688 24588 cudnn_conv_layer.cpp:194] Reallocating workspace storage: 10080
I1105 17:35:04.205754 24588 net.cpp:150] Setting up inception_4e/3x3
I1105 17:35:04.205765 24588 net.cpp:157] Top shape: 50 320 14 14 (3136000)
I1105 17:35:04.205770 24588 net.cpp:165] Memory required for data: 2562666216
I1105 17:35:04.205780 24588 layer_factory.hpp:76] Creating layer inception_4e/prelu_3x3
I1105 17:35:04.205790 24588 net.cpp:106] Creating Layer inception_4e/prelu_3x3
I1105 17:35:04.205796 24588 net.cpp:454] inception_4e/prelu_3x3 <- inception_4e/3x3
I1105 17:35:04.205804 24588 net.cpp:397] inception_4e/prelu_3x3 -> inception_4e/3x3 (in-place)
I1105 17:35:04.206444 24588 net.cpp:150] Setting up inception_4e/prelu_3x3
I1105 17:35:04.206464 24588 net.cpp:157] Top shape: 50 320 14 14 (3136000)
I1105 17:35:04.206475 24588 net.cpp:165] Memory required for data: 2575210216
I1105 17:35:04.206482 24588 layer_factory.hpp:76] Creating layer inception_4e/5x5_reduce
I1105 17:35:04.206496 24588 net.cpp:106] Creating Layer inception_4e/5x5_reduce
I1105 17:35:04.206502 24588 net.cpp:454] inception_4e/5x5_reduce <- inception_4d/output_inception_4d/output_0_split_3
I1105 17:35:04.206511 24588 net.cpp:411] inception_4e/5x5_reduce -> inception_4e/5x5_reduce
I1105 17:35:04.207818 24588 cudnn_conv_layer.cpp:194] Reallocating workspace storage: 10080
I1105 17:35:04.207859 24588 net.cpp:150] Setting up inception_4e/5x5_reduce
I1105 17:35:04.207876 24588 net.cpp:157] Top shape: 50 32 14 14 (313600)
I1105 17:35:04.207880 24588 net.cpp:165] Memory required for data: 2576464616
I1105 17:35:04.207896 24588 layer_factory.hpp:76] Creating layer inception_4e/prelu_5x5_reduce
I1105 17:35:04.207906 24588 net.cpp:106] Creating Layer inception_4e/prelu_5x5_reduce
I1105 17:35:04.207911 24588 net.cpp:454] inception_4e/prelu_5x5_reduce <- inception_4e/5x5_reduce
I1105 17:35:04.207921 24588 net.cpp:397] inception_4e/prelu_5x5_reduce -> inception_4e/5x5_reduce (in-place)
I1105 17:35:04.208039 24588 net.cpp:150] Setting up inception_4e/prelu_5x5_reduce
I1105 17:35:04.208050 24588 net.cpp:157] Top shape: 50 32 14 14 (313600)
I1105 17:35:04.208053 24588 net.cpp:165] Memory required for data: 2577719016
I1105 17:35:04.208060 24588 layer_factory.hpp:76] Creating layer inception_4e/5x5
I1105 17:35:04.208076 24588 net.cpp:106] Creating Layer inception_4e/5x5
I1105 17:35:04.208081 24588 net.cpp:454] inception_4e/5x5 <- inception_4e/5x5_reduce
I1105 17:35:04.208096 24588 net.cpp:411] inception_4e/5x5 -> inception_4e/5x5
I1105 17:35:04.210355 24588 cudnn_conv_layer.cpp:194] Reallocating workspace storage: 13080
I1105 17:35:04.210408 24588 net.cpp:150] Setting up inception_4e/5x5
I1105 17:35:04.210427 24588 net.cpp:157] Top shape: 50 128 14 14 (1254400)
I1105 17:35:04.210432 24588 net.cpp:165] Memory required for data: 2582736616
I1105 17:35:04.210448 24588 layer_factory.hpp:76] Creating layer inception_4e/prelu_5x5
I1105 17:35:04.210456 24588 net.cpp:106] Creating Layer inception_4e/prelu_5x5
I1105 17:35:04.210464 24588 net.cpp:454] inception_4e/prelu_5x5 <- inception_4e/5x5
I1105 17:35:04.210471 24588 net.cpp:397] inception_4e/prelu_5x5 -> inception_4e/5x5 (in-place)
I1105 17:35:04.210572 24588 net.cpp:150] Setting up inception_4e/prelu_5x5
I1105 17:35:04.210582 24588 net.cpp:157] Top shape: 50 128 14 14 (1254400)
I1105 17:35:04.210585 24588 net.cpp:165] Memory required for data: 2587754216
I1105 17:35:04.210590 24588 layer_factory.hpp:76] Creating layer inception_4e/pool
I1105 17:35:04.210600 24588 net.cpp:106] Creating Layer inception_4e/pool
I1105 17:35:04.210608 24588 net.cpp:454] inception_4e/pool <- inception_4d/output_inception_4d/output_0_split_4
I1105 17:35:04.210613 24588 net.cpp:411] inception_4e/pool -> inception_4e/pool
I1105 17:35:04.210810 24588 net.cpp:150] Setting up inception_4e/pool
I1105 17:35:04.210821 24588 net.cpp:157] Top shape: 50 528 14 14 (5174400)
I1105 17:35:04.210825 24588 net.cpp:165] Memory required for data: 2608451816
I1105 17:35:04.210829 24588 layer_factory.hpp:76] Creating layer inception_4e/pool_proj
I1105 17:35:04.210839 24588 net.cpp:106] Creating Layer inception_4e/pool_proj
I1105 17:35:04.210844 24588 net.cpp:454] inception_4e/pool_proj <- inception_4e/pool
I1105 17:35:04.210852 24588 net.cpp:411] inception_4e/pool_proj -> inception_4e/pool_proj
I1105 17:35:04.212586 24588 cudnn_conv_layer.cpp:194] Reallocating workspace storage: 10080
I1105 17:35:04.212623 24588 net.cpp:150] Setting up inception_4e/pool_proj
I1105 17:35:04.212632 24588 net.cpp:157] Top shape: 50 128 14 14 (1254400)
I1105 17:35:04.212640 24588 net.cpp:165] Memory required for data: 2613469416
I1105 17:35:04.212646 24588 layer_factory.hpp:76] Creating layer inception_4e/prelu_pool_proj
I1105 17:35:04.212669 24588 net.cpp:106] Creating Layer inception_4e/prelu_pool_proj
I1105 17:35:04.212676 24588 net.cpp:454] inception_4e/prelu_pool_proj <- inception_4e/pool_proj
I1105 17:35:04.212682 24588 net.cpp:397] inception_4e/prelu_pool_proj -> inception_4e/pool_proj (in-place)
I1105 17:35:04.212775 24588 net.cpp:150] Setting up inception_4e/prelu_pool_proj
I1105 17:35:04.212785 24588 net.cpp:157] Top shape: 50 128 14 14 (1254400)
I1105 17:35:04.212790 24588 net.cpp:165] Memory required for data: 2618487016
I1105 17:35:04.212795 24588 layer_factory.hpp:76] Creating layer inception_4e/output
I1105 17:35:04.212801 24588 net.cpp:106] Creating Layer inception_4e/output
I1105 17:35:04.212806 24588 net.cpp:454] inception_4e/output <- inception_4e/1x1
I1105 17:35:04.212811 24588 net.cpp:454] inception_4e/output <- inception_4e/3x3
I1105 17:35:04.212816 24588 net.cpp:454] inception_4e/output <- inception_4e/5x5
I1105 17:35:04.212821 24588 net.cpp:454] inception_4e/output <- inception_4e/pool_proj
I1105 17:35:04.212828 24588 net.cpp:411] inception_4e/output -> inception_4e/output
I1105 17:35:04.212869 24588 net.cpp:150] Setting up inception_4e/output
I1105 17:35:04.212878 24588 net.cpp:157] Top shape: 50 832 14 14 (8153600)
I1105 17:35:04.212882 24588 net.cpp:165] Memory required for data: 2651101416
I1105 17:35:04.212888 24588 layer_factory.hpp:76] Creating layer pool4/3x3_s2
I1105 17:35:04.212895 24588 net.cpp:106] Creating Layer pool4/3x3_s2
I1105 17:35:04.212903 24588 net.cpp:454] pool4/3x3_s2 <- inception_4e/output
I1105 17:35:04.212909 24588 net.cpp:411] pool4/3x3_s2 -> pool4/3x3_s2
I1105 17:35:04.213138 24588 net.cpp:150] Setting up pool4/3x3_s2
I1105 17:35:04.213150 24588 net.cpp:157] Top shape: 50 832 7 7 (2038400)
I1105 17:35:04.213153 24588 net.cpp:165] Memory required for data: 2659255016
I1105 17:35:04.213157 24588 layer_factory.hpp:76] Creating layer pool4/3x3_s2_pool4/3x3_s2_0_split
I1105 17:35:04.213165 24588 net.cpp:106] Creating Layer pool4/3x3_s2_pool4/3x3_s2_0_split
I1105 17:35:04.213176 24588 net.cpp:454] pool4/3x3_s2_pool4/3x3_s2_0_split <- pool4/3x3_s2
I1105 17:35:04.213184 24588 net.cpp:411] pool4/3x3_s2_pool4/3x3_s2_0_split -> pool4/3x3_s2_pool4/3x3_s2_0_split_0
I1105 17:35:04.213192 24588 net.cpp:411] pool4/3x3_s2_pool4/3x3_s2_0_split -> pool4/3x3_s2_pool4/3x3_s2_0_split_1
I1105 17:35:04.213201 24588 net.cpp:411] pool4/3x3_s2_pool4/3x3_s2_0_split -> pool4/3x3_s2_pool4/3x3_s2_0_split_2
I1105 17:35:04.213208 24588 net.cpp:411] pool4/3x3_s2_pool4/3x3_s2_0_split -> pool4/3x3_s2_pool4/3x3_s2_0_split_3
I1105 17:35:04.213273 24588 net.cpp:150] Setting up pool4/3x3_s2_pool4/3x3_s2_0_split
I1105 17:35:04.213282 24588 net.cpp:157] Top shape: 50 832 7 7 (2038400)
I1105 17:35:04.213289 24588 net.cpp:157] Top shape: 50 832 7 7 (2038400)
I1105 17:35:04.213294 24588 net.cpp:157] Top shape: 50 832 7 7 (2038400)
I1105 17:35:04.213299 24588 net.cpp:157] Top shape: 50 832 7 7 (2038400)
I1105 17:35:04.213302 24588 net.cpp:165] Memory required for data: 2691869416
I1105 17:35:04.213306 24588 layer_factory.hpp:76] Creating layer inception_5a/1x1
I1105 17:35:04.213317 24588 net.cpp:106] Creating Layer inception_5a/1x1
I1105 17:35:04.213322 24588 net.cpp:454] inception_5a/1x1 <- pool4/3x3_s2_pool4/3x3_s2_0_split_0
I1105 17:35:04.213330 24588 net.cpp:411] inception_5a/1x1 -> inception_5a/1x1
I1105 17:35:04.216430 24588 cudnn_conv_layer.cpp:194] Reallocating workspace storage: 7428
I1105 17:35:04.216503 24588 net.cpp:150] Setting up inception_5a/1x1
I1105 17:35:04.216516 24588 net.cpp:157] Top shape: 50 256 7 7 (627200)
I1105 17:35:04.216521 24588 net.cpp:165] Memory required for data: 2694378216
I1105 17:35:04.216531 24588 layer_factory.hpp:76] Creating layer inception_5a/prelu_1x1
I1105 17:35:04.216547 24588 net.cpp:106] Creating Layer inception_5a/prelu_1x1
I1105 17:35:04.216553 24588 net.cpp:454] inception_5a/prelu_1x1 <- inception_5a/1x1
I1105 17:35:04.216562 24588 net.cpp:397] inception_5a/prelu_1x1 -> inception_5a/1x1 (in-place)
I1105 17:35:04.216663 24588 net.cpp:150] Setting up inception_5a/prelu_1x1
I1105 17:35:04.216672 24588 net.cpp:157] Top shape: 50 256 7 7 (627200)
I1105 17:35:04.216689 24588 net.cpp:165] Memory required for data: 2696887016
I1105 17:35:04.216696 24588 layer_factory.hpp:76] Creating layer inception_5a/3x3_reduce
I1105 17:35:04.216708 24588 net.cpp:106] Creating Layer inception_5a/3x3_reduce
I1105 17:35:04.216716 24588 net.cpp:454] inception_5a/3x3_reduce <- pool4/3x3_s2_pool4/3x3_s2_0_split_1
I1105 17:35:04.216722 24588 net.cpp:411] inception_5a/3x3_reduce -> inception_5a/3x3_reduce
I1105 17:35:04.219318 24588 cudnn_conv_layer.cpp:194] Reallocating workspace storage: 7428
I1105 17:35:04.219373 24588 net.cpp:150] Setting up inception_5a/3x3_reduce
I1105 17:35:04.219385 24588 net.cpp:157] Top shape: 50 160 7 7 (392000)
I1105 17:35:04.219390 24588 net.cpp:165] Memory required for data: 2698455016
I1105 17:35:04.219399 24588 layer_factory.hpp:76] Creating layer inception_5a/prelu_3x3_reduce
I1105 17:35:04.219410 24588 net.cpp:106] Creating Layer inception_5a/prelu_3x3_reduce
I1105 17:35:04.219418 24588 net.cpp:454] inception_5a/prelu_3x3_reduce <- inception_5a/3x3_reduce
I1105 17:35:04.219426 24588 net.cpp:397] inception_5a/prelu_3x3_reduce -> inception_5a/3x3_reduce (in-place)
I1105 17:35:04.219526 24588 net.cpp:150] Setting up inception_5a/prelu_3x3_reduce
I1105 17:35:04.219535 24588 net.cpp:157] Top shape: 50 160 7 7 (392000)
I1105 17:35:04.219539 24588 net.cpp:165] Memory required for data: 2700023016
I1105 17:35:04.219545 24588 layer_factory.hpp:76] Creating layer inception_5a/3x3
I1105 17:35:04.219557 24588 net.cpp:106] Creating Layer inception_5a/3x3
I1105 17:35:04.219562 24588 net.cpp:454] inception_5a/3x3 <- inception_5a/3x3_reduce
I1105 17:35:04.219568 24588 net.cpp:411] inception_5a/3x3 -> inception_5a/3x3
I1105 17:35:04.224881 24588 cudnn_conv_layer.cpp:194] Reallocating workspace storage: 7788
I1105 17:35:04.224956 24588 net.cpp:150] Setting up inception_5a/3x3
I1105 17:35:04.224968 24588 net.cpp:157] Top shape: 50 320 7 7 (784000)
I1105 17:35:04.224973 24588 net.cpp:165] Memory required for data: 2703159016
I1105 17:35:04.224983 24588 layer_factory.hpp:76] Creating layer inception_5a/prelu_3x3
I1105 17:35:04.224997 24588 net.cpp:106] Creating Layer inception_5a/prelu_3x3
I1105 17:35:04.225004 24588 net.cpp:454] inception_5a/prelu_3x3 <- inception_5a/3x3
I1105 17:35:04.225015 24588 net.cpp:397] inception_5a/prelu_3x3 -> inception_5a/3x3 (in-place)
I1105 17:35:04.225184 24588 net.cpp:150] Setting up inception_5a/prelu_3x3
I1105 17:35:04.225195 24588 net.cpp:157] Top shape: 50 320 7 7 (784000)
I1105 17:35:04.225199 24588 net.cpp:165] Memory required for data: 2706295016
I1105 17:35:04.225205 24588 layer_factory.hpp:76] Creating layer inception_5a/5x5_reduce
I1105 17:35:04.225219 24588 net.cpp:106] Creating Layer inception_5a/5x5_reduce
I1105 17:35:04.225225 24588 net.cpp:454] inception_5a/5x5_reduce <- pool4/3x3_s2_pool4/3x3_s2_0_split_2
I1105 17:35:04.225234 24588 net.cpp:411] inception_5a/5x5_reduce -> inception_5a/5x5_reduce
I1105 17:35:04.226676 24588 cudnn_conv_layer.cpp:194] Reallocating workspace storage: 7428
I1105 17:35:04.226722 24588 net.cpp:150] Setting up inception_5a/5x5_reduce
I1105 17:35:04.226734 24588 net.cpp:157] Top shape: 50 32 7 7 (78400)
I1105 17:35:04.226739 24588 net.cpp:165] Memory required for data: 2706608616
I1105 17:35:04.226748 24588 layer_factory.hpp:76] Creating layer inception_5a/prelu_5x5_reduce
I1105 17:35:04.226759 24588 net.cpp:106] Creating Layer inception_5a/prelu_5x5_reduce
I1105 17:35:04.226766 24588 net.cpp:454] inception_5a/prelu_5x5_reduce <- inception_5a/5x5_reduce
I1105 17:35:04.226775 24588 net.cpp:397] inception_5a/prelu_5x5_reduce -> inception_5a/5x5_reduce (in-place)
I1105 17:35:04.226893 24588 net.cpp:150] Setting up inception_5a/prelu_5x5_reduce
I1105 17:35:04.226903 24588 net.cpp:157] Top shape: 50 32 7 7 (78400)
I1105 17:35:04.226907 24588 net.cpp:165] Memory required for data: 2706922216
I1105 17:35:04.226913 24588 layer_factory.hpp:76] Creating layer inception_5a/5x5
I1105 17:35:04.226923 24588 net.cpp:106] Creating Layer inception_5a/5x5
I1105 17:35:04.226946 24588 net.cpp:454] inception_5a/5x5 <- inception_5a/5x5_reduce
I1105 17:35:04.226955 24588 net.cpp:411] inception_5a/5x5 -> inception_5a/5x5
I1105 17:35:04.228574 24588 cudnn_conv_layer.cpp:194] Reallocating workspace storage: 9804
I1105 17:35:04.228621 24588 net.cpp:150] Setting up inception_5a/5x5
I1105 17:35:04.228631 24588 net.cpp:157] Top shape: 50 128 7 7 (313600)
I1105 17:35:04.228636 24588 net.cpp:165] Memory required for data: 2708176616
I1105 17:35:04.228659 24588 layer_factory.hpp:76] Creating layer inception_5a/prelu_5x5
I1105 17:35:04.228669 24588 net.cpp:106] Creating Layer inception_5a/prelu_5x5
I1105 17:35:04.228674 24588 net.cpp:454] inception_5a/prelu_5x5 <- inception_5a/5x5
I1105 17:35:04.228682 24588 net.cpp:397] inception_5a/prelu_5x5 -> inception_5a/5x5 (in-place)
I1105 17:35:04.228785 24588 net.cpp:150] Setting up inception_5a/prelu_5x5
I1105 17:35:04.228796 24588 net.cpp:157] Top shape: 50 128 7 7 (313600)
I1105 17:35:04.228799 24588 net.cpp:165] Memory required for data: 2709431016
I1105 17:35:04.228813 24588 layer_factory.hpp:76] Creating layer inception_5a/pool
I1105 17:35:04.228822 24588 net.cpp:106] Creating Layer inception_5a/pool
I1105 17:35:04.228828 24588 net.cpp:454] inception_5a/pool <- pool4/3x3_s2_pool4/3x3_s2_0_split_3
I1105 17:35:04.228835 24588 net.cpp:411] inception_5a/pool -> inception_5a/pool
I1105 17:35:04.229312 24588 net.cpp:150] Setting up inception_5a/pool
I1105 17:35:04.229326 24588 net.cpp:157] Top shape: 50 832 7 7 (2038400)
I1105 17:35:04.229329 24588 net.cpp:165] Memory required for data: 2717584616
I1105 17:35:04.229334 24588 layer_factory.hpp:76] Creating layer inception_5a/pool_proj
I1105 17:35:04.229344 24588 net.cpp:106] Creating Layer inception_5a/pool_proj
I1105 17:35:04.229349 24588 net.cpp:454] inception_5a/pool_proj <- inception_5a/pool
I1105 17:35:04.229357 24588 net.cpp:411] inception_5a/pool_proj -> inception_5a/pool_proj
I1105 17:35:04.231794 24588 cudnn_conv_layer.cpp:194] Reallocating workspace storage: 7428
I1105 17:35:04.231851 24588 net.cpp:150] Setting up inception_5a/pool_proj
I1105 17:35:04.231863 24588 net.cpp:157] Top shape: 50 128 7 7 (313600)
I1105 17:35:04.231869 24588 net.cpp:165] Memory required for data: 2718839016
I1105 17:35:04.231878 24588 layer_factory.hpp:76] Creating layer inception_5a/prelu_pool_proj
I1105 17:35:04.231890 24588 net.cpp:106] Creating Layer inception_5a/prelu_pool_proj
I1105 17:35:04.231899 24588 net.cpp:454] inception_5a/prelu_pool_proj <- inception_5a/pool_proj
I1105 17:35:04.231906 24588 net.cpp:397] inception_5a/prelu_pool_proj -> inception_5a/pool_proj (in-place)
I1105 17:35:04.232010 24588 net.cpp:150] Setting up inception_5a/prelu_pool_proj
I1105 17:35:04.232020 24588 net.cpp:157] Top shape: 50 128 7 7 (313600)
I1105 17:35:04.232024 24588 net.cpp:165] Memory required for data: 2720093416
I1105 17:35:04.232030 24588 layer_factory.hpp:76] Creating layer inception_5a/output
I1105 17:35:04.232038 24588 net.cpp:106] Creating Layer inception_5a/output
I1105 17:35:04.232043 24588 net.cpp:454] inception_5a/output <- inception_5a/1x1
I1105 17:35:04.232049 24588 net.cpp:454] inception_5a/output <- inception_5a/3x3
I1105 17:35:04.232054 24588 net.cpp:454] inception_5a/output <- inception_5a/5x5
I1105 17:35:04.232059 24588 net.cpp:454] inception_5a/output <- inception_5a/pool_proj
I1105 17:35:04.232065 24588 net.cpp:411] inception_5a/output -> inception_5a/output
I1105 17:35:04.232092 24588 net.cpp:150] Setting up inception_5a/output
I1105 17:35:04.232101 24588 net.cpp:157] Top shape: 50 832 7 7 (2038400)
I1105 17:35:04.232105 24588 net.cpp:165] Memory required for data: 2728247016
I1105 17:35:04.232110 24588 layer_factory.hpp:76] Creating layer inception_5a/output_inception_5a/output_0_split
I1105 17:35:04.232116 24588 net.cpp:106] Creating Layer inception_5a/output_inception_5a/output_0_split
I1105 17:35:04.232121 24588 net.cpp:454] inception_5a/output_inception_5a/output_0_split <- inception_5a/output
I1105 17:35:04.232126 24588 net.cpp:411] inception_5a/output_inception_5a/output_0_split -> inception_5a/output_inception_5a/output_0_split_0
I1105 17:35:04.232151 24588 net.cpp:411] inception_5a/output_inception_5a/output_0_split -> inception_5a/output_inception_5a/output_0_split_1
I1105 17:35:04.232158 24588 net.cpp:411] inception_5a/output_inception_5a/output_0_split -> inception_5a/output_inception_5a/output_0_split_2
I1105 17:35:04.232167 24588 net.cpp:411] inception_5a/output_inception_5a/output_0_split -> inception_5a/output_inception_5a/output_0_split_3
I1105 17:35:04.232234 24588 net.cpp:150] Setting up inception_5a/output_inception_5a/output_0_split
I1105 17:35:04.232242 24588 net.cpp:157] Top shape: 50 832 7 7 (2038400)
I1105 17:35:04.232247 24588 net.cpp:157] Top shape: 50 832 7 7 (2038400)
I1105 17:35:04.232252 24588 net.cpp:157] Top shape: 50 832 7 7 (2038400)
I1105 17:35:04.232257 24588 net.cpp:157] Top shape: 50 832 7 7 (2038400)
I1105 17:35:04.232261 24588 net.cpp:165] Memory required for data: 2760861416
I1105 17:35:04.232265 24588 layer_factory.hpp:76] Creating layer inception_5b/1x1
I1105 17:35:04.232275 24588 net.cpp:106] Creating Layer inception_5b/1x1
I1105 17:35:04.232281 24588 net.cpp:454] inception_5b/1x1 <- inception_5a/output_inception_5a/output_0_split_0
I1105 17:35:04.232288 24588 net.cpp:411] inception_5b/1x1 -> inception_5b/1x1
I1105 17:35:04.236233 24588 cudnn_conv_layer.cpp:194] Reallocating workspace storage: 7428
I1105 17:35:04.236310 24588 net.cpp:150] Setting up inception_5b/1x1
I1105 17:35:04.236323 24588 net.cpp:157] Top shape: 50 384 7 7 (940800)
I1105 17:35:04.236328 24588 net.cpp:165] Memory required for data: 2764624616
I1105 17:35:04.236338 24588 layer_factory.hpp:76] Creating layer inception_5b/prelu_1x1
I1105 17:35:04.236349 24588 net.cpp:106] Creating Layer inception_5b/prelu_1x1
I1105 17:35:04.236356 24588 net.cpp:454] inception_5b/prelu_1x1 <- inception_5b/1x1
I1105 17:35:04.236366 24588 net.cpp:397] inception_5b/prelu_1x1 -> inception_5b/1x1 (in-place)
I1105 17:35:04.236508 24588 net.cpp:150] Setting up inception_5b/prelu_1x1
I1105 17:35:04.236518 24588 net.cpp:157] Top shape: 50 384 7 7 (940800)
I1105 17:35:04.236522 24588 net.cpp:165] Memory required for data: 2768387816
I1105 17:35:04.236528 24588 layer_factory.hpp:76] Creating layer inception_5b/3x3_reduce
I1105 17:35:04.236546 24588 net.cpp:106] Creating Layer inception_5b/3x3_reduce
I1105 17:35:04.236552 24588 net.cpp:454] inception_5b/3x3_reduce <- inception_5a/output_inception_5a/output_0_split_1
I1105 17:35:04.236560 24588 net.cpp:411] inception_5b/3x3_reduce -> inception_5b/3x3_reduce
I1105 17:35:04.239038 24588 cudnn_conv_layer.cpp:194] Reallocating workspace storage: 7428
I1105 17:35:04.239084 24588 net.cpp:150] Setting up inception_5b/3x3_reduce
I1105 17:35:04.239094 24588 net.cpp:157] Top shape: 50 192 7 7 (470400)
I1105 17:35:04.239099 24588 net.cpp:165] Memory required for data: 2770269416
I1105 17:35:04.239106 24588 layer_factory.hpp:76] Creating layer inception_5b/prelu_3x3_reduce
I1105 17:35:04.239120 24588 net.cpp:106] Creating Layer inception_5b/prelu_3x3_reduce
I1105 17:35:04.239127 24588 net.cpp:454] inception_5b/prelu_3x3_reduce <- inception_5b/3x3_reduce
I1105 17:35:04.239135 24588 net.cpp:397] inception_5b/prelu_3x3_reduce -> inception_5b/3x3_reduce (in-place)
I1105 17:35:04.239233 24588 net.cpp:150] Setting up inception_5b/prelu_3x3_reduce
I1105 17:35:04.239243 24588 net.cpp:157] Top shape: 50 192 7 7 (470400)
I1105 17:35:04.239248 24588 net.cpp:165] Memory required for data: 2772151016
I1105 17:35:04.239253 24588 layer_factory.hpp:76] Creating layer inception_5b/3x3
I1105 17:35:04.239264 24588 net.cpp:106] Creating Layer inception_5b/3x3
I1105 17:35:04.239269 24588 net.cpp:454] inception_5b/3x3 <- inception_5b/3x3_reduce
I1105 17:35:04.239275 24588 net.cpp:411] inception_5b/3x3 -> inception_5b/3x3
I1105 17:35:04.245555 24588 cudnn_conv_layer.cpp:194] Reallocating workspace storage: 7788
I1105 17:35:04.245626 24588 net.cpp:150] Setting up inception_5b/3x3
I1105 17:35:04.245640 24588 net.cpp:157] Top shape: 50 384 7 7 (940800)
I1105 17:35:04.245643 24588 net.cpp:165] Memory required for data: 2775914216
I1105 17:35:04.245671 24588 layer_factory.hpp:76] Creating layer inception_5b/prelu_3x3
I1105 17:35:04.245684 24588 net.cpp:106] Creating Layer inception_5b/prelu_3x3
I1105 17:35:04.245692 24588 net.cpp:454] inception_5b/prelu_3x3 <- inception_5b/3x3
I1105 17:35:04.245702 24588 net.cpp:397] inception_5b/prelu_3x3 -> inception_5b/3x3 (in-place)
I1105 17:35:04.245839 24588 net.cpp:150] Setting up inception_5b/prelu_3x3
I1105 17:35:04.245851 24588 net.cpp:157] Top shape: 50 384 7 7 (940800)
I1105 17:35:04.245862 24588 net.cpp:165] Memory required for data: 2779677416
I1105 17:35:04.245868 24588 layer_factory.hpp:76] Creating layer inception_5b/5x5_reduce
I1105 17:35:04.245878 24588 net.cpp:106] Creating Layer inception_5b/5x5_reduce
I1105 17:35:04.245883 24588 net.cpp:454] inception_5b/5x5_reduce <- inception_5a/output_inception_5a/output_0_split_2
I1105 17:35:04.245900 24588 net.cpp:411] inception_5b/5x5_reduce -> inception_5b/5x5_reduce
I1105 17:35:04.247499 24588 cudnn_conv_layer.cpp:194] Reallocating workspace storage: 7428
I1105 17:35:04.247534 24588 net.cpp:150] Setting up inception_5b/5x5_reduce
I1105 17:35:04.247552 24588 net.cpp:157] Top shape: 50 48 7 7 (117600)
I1105 17:35:04.247573 24588 net.cpp:165] Memory required for data: 2780147816
I1105 17:35:04.247581 24588 layer_factory.hpp:76] Creating layer inception_5b/prelu_5x5_reduce
I1105 17:35:04.247606 24588 net.cpp:106] Creating Layer inception_5b/prelu_5x5_reduce
I1105 17:35:04.247611 24588 net.cpp:454] inception_5b/prelu_5x5_reduce <- inception_5b/5x5_reduce
I1105 17:35:04.247618 24588 net.cpp:397] inception_5b/prelu_5x5_reduce -> inception_5b/5x5_reduce (in-place)
I1105 17:35:04.247756 24588 net.cpp:150] Setting up inception_5b/prelu_5x5_reduce
I1105 17:35:04.247764 24588 net.cpp:157] Top shape: 50 48 7 7 (117600)
I1105 17:35:04.247768 24588 net.cpp:165] Memory required for data: 2780618216
I1105 17:35:04.247774 24588 layer_factory.hpp:76] Creating layer inception_5b/5x5
I1105 17:35:04.247783 24588 net.cpp:106] Creating Layer inception_5b/5x5
I1105 17:35:04.247787 24588 net.cpp:454] inception_5b/5x5 <- inception_5b/5x5_reduce
I1105 17:35:04.247803 24588 net.cpp:411] inception_5b/5x5 -> inception_5b/5x5
I1105 17:35:04.249932 24588 cudnn_conv_layer.cpp:194] Reallocating workspace storage: 9804
I1105 17:35:04.249974 24588 net.cpp:150] Setting up inception_5b/5x5
I1105 17:35:04.249984 24588 net.cpp:157] Top shape: 50 128 7 7 (313600)
I1105 17:35:04.249989 24588 net.cpp:165] Memory required for data: 2781872616
I1105 17:35:04.249996 24588 layer_factory.hpp:76] Creating layer inception_5b/prelu_5x5
I1105 17:35:04.250006 24588 net.cpp:106] Creating Layer inception_5b/prelu_5x5
I1105 17:35:04.250012 24588 net.cpp:454] inception_5b/prelu_5x5 <- inception_5b/5x5
I1105 17:35:04.250020 24588 net.cpp:397] inception_5b/prelu_5x5 -> inception_5b/5x5 (in-place)
I1105 17:35:04.250121 24588 net.cpp:150] Setting up inception_5b/prelu_5x5
I1105 17:35:04.250130 24588 net.cpp:157] Top shape: 50 128 7 7 (313600)
I1105 17:35:04.250135 24588 net.cpp:165] Memory required for data: 2783127016
I1105 17:35:04.250140 24588 layer_factory.hpp:76] Creating layer inception_5b/pool
I1105 17:35:04.250149 24588 net.cpp:106] Creating Layer inception_5b/pool
I1105 17:35:04.250154 24588 net.cpp:454] inception_5b/pool <- inception_5a/output_inception_5a/output_0_split_3
I1105 17:35:04.250161 24588 net.cpp:411] inception_5b/pool -> inception_5b/pool
I1105 17:35:04.250367 24588 net.cpp:150] Setting up inception_5b/pool
I1105 17:35:04.250380 24588 net.cpp:157] Top shape: 50 832 7 7 (2038400)
I1105 17:35:04.250385 24588 net.cpp:165] Memory required for data: 2791280616
I1105 17:35:04.250390 24588 layer_factory.hpp:76] Creating layer inception_5b/pool_proj
I1105 17:35:04.250397 24588 net.cpp:106] Creating Layer inception_5b/pool_proj
I1105 17:35:04.250402 24588 net.cpp:454] inception_5b/pool_proj <- inception_5b/pool
I1105 17:35:04.250411 24588 net.cpp:411] inception_5b/pool_proj -> inception_5b/pool_proj
I1105 17:35:04.252960 24588 cudnn_conv_layer.cpp:194] Reallocating workspace storage: 7428
I1105 17:35:04.253088 24588 net.cpp:150] Setting up inception_5b/pool_proj
I1105 17:35:04.253113 24588 net.cpp:157] Top shape: 50 128 7 7 (313600)
I1105 17:35:04.253129 24588 net.cpp:165] Memory required for data: 2792535016
I1105 17:35:04.253137 24588 layer_factory.hpp:76] Creating layer inception_5b/prelu_pool_proj
I1105 17:35:04.253151 24588 net.cpp:106] Creating Layer inception_5b/prelu_pool_proj
I1105 17:35:04.253159 24588 net.cpp:454] inception_5b/prelu_pool_proj <- inception_5b/pool_proj
I1105 17:35:04.253167 24588 net.cpp:397] inception_5b/prelu_pool_proj -> inception_5b/pool_proj (in-place)
I1105 17:35:04.253351 24588 net.cpp:150] Setting up inception_5b/prelu_pool_proj
I1105 17:35:04.253360 24588 net.cpp:157] Top shape: 50 128 7 7 (313600)
I1105 17:35:04.253386 24588 net.cpp:165] Memory required for data: 2793789416
I1105 17:35:04.253392 24588 layer_factory.hpp:76] Creating layer inception_5b/output
I1105 17:35:04.253401 24588 net.cpp:106] Creating Layer inception_5b/output
I1105 17:35:04.253407 24588 net.cpp:454] inception_5b/output <- inception_5b/1x1
I1105 17:35:04.253433 24588 net.cpp:454] inception_5b/output <- inception_5b/3x3
I1105 17:35:04.253439 24588 net.cpp:454] inception_5b/output <- inception_5b/5x5
I1105 17:35:04.253444 24588 net.cpp:454] inception_5b/output <- inception_5b/pool_proj
I1105 17:35:04.253450 24588 net.cpp:411] inception_5b/output -> inception_5b/output
I1105 17:35:04.253489 24588 net.cpp:150] Setting up inception_5b/output
I1105 17:35:04.253509 24588 net.cpp:157] Top shape: 50 1024 7 7 (2508800)
I1105 17:35:04.253522 24588 net.cpp:165] Memory required for data: 2803824616
I1105 17:35:04.253527 24588 layer_factory.hpp:76] Creating layer pool5/7x7_s1
I1105 17:35:04.253535 24588 net.cpp:106] Creating Layer pool5/7x7_s1
I1105 17:35:04.253551 24588 net.cpp:454] pool5/7x7_s1 <- inception_5b/output
I1105 17:35:04.253559 24588 net.cpp:411] pool5/7x7_s1 -> pool5/7x7_s1
I1105 17:35:04.253975 24588 net.cpp:150] Setting up pool5/7x7_s1
I1105 17:35:04.253998 24588 net.cpp:157] Top shape: 50 1024 1 1 (51200)
I1105 17:35:04.254004 24588 net.cpp:165] Memory required for data: 2804029416
I1105 17:35:04.254009 24588 layer_factory.hpp:76] Creating layer pool5/drop_7x7_s1
I1105 17:35:04.254016 24588 net.cpp:106] Creating Layer pool5/drop_7x7_s1
I1105 17:35:04.254021 24588 net.cpp:454] pool5/drop_7x7_s1 <- pool5/7x7_s1
I1105 17:35:04.254027 24588 net.cpp:397] pool5/drop_7x7_s1 -> pool5/7x7_s1 (in-place)
I1105 17:35:04.254055 24588 net.cpp:150] Setting up pool5/drop_7x7_s1
I1105 17:35:04.254073 24588 net.cpp:157] Top shape: 50 1024 1 1 (51200)
I1105 17:35:04.254088 24588 net.cpp:165] Memory required for data: 2804234216
I1105 17:35:04.254093 24588 layer_factory.hpp:76] Creating layer loss3/classifier2
I1105 17:35:04.254102 24588 net.cpp:106] Creating Layer loss3/classifier2
I1105 17:35:04.254106 24588 net.cpp:454] loss3/classifier2 <- pool5/7x7_s1
I1105 17:35:04.254113 24588 net.cpp:411] loss3/classifier2 -> loss3/classifier
I1105 17:35:04.254276 24588 net.cpp:150] Setting up loss3/classifier2
I1105 17:35:04.254287 24588 net.cpp:157] Top shape: 50 2 (100)
I1105 17:35:04.254302 24588 net.cpp:165] Memory required for data: 2804234616
I1105 17:35:04.254309 24588 layer_factory.hpp:76] Creating layer loss3/classifier_loss3/classifier2_0_split
I1105 17:35:04.254317 24588 net.cpp:106] Creating Layer loss3/classifier_loss3/classifier2_0_split
I1105 17:35:04.254322 24588 net.cpp:454] loss3/classifier_loss3/classifier2_0_split <- loss3/classifier
I1105 17:35:04.254328 24588 net.cpp:411] loss3/classifier_loss3/classifier2_0_split -> loss3/classifier_loss3/classifier2_0_split_0
I1105 17:35:04.254336 24588 net.cpp:411] loss3/classifier_loss3/classifier2_0_split -> loss3/classifier_loss3/classifier2_0_split_1
I1105 17:35:04.254390 24588 net.cpp:150] Setting up loss3/classifier_loss3/classifier2_0_split
I1105 17:35:04.254400 24588 net.cpp:157] Top shape: 50 2 (100)
I1105 17:35:04.254415 24588 net.cpp:157] Top shape: 50 2 (100)
I1105 17:35:04.254420 24588 net.cpp:165] Memory required for data: 2804235416
I1105 17:35:04.254423 24588 layer_factory.hpp:76] Creating layer loss3/loss3
I1105 17:35:04.254443 24588 net.cpp:106] Creating Layer loss3/loss3
I1105 17:35:04.254449 24588 net.cpp:454] loss3/loss3 <- loss3/classifier_loss3/classifier2_0_split_0
I1105 17:35:04.254456 24588 net.cpp:454] loss3/loss3 <- label_data_1_split_4
…
