…
I1028 13:37:41.486734 28216 net.cpp:322] The NetState phase (0) differed from the phase (1) specified by a rule in layer loss3/top-1
I1028 13:37:41.488703 28216 net.cpp:49] Initializing net from parameters: 
name: "GoogleNet"
state {
  phase: TRAIN
}
layer {
  name: "data"
  type: "Data"
  top: "data"
  top: "label"
  include {
    phase: TRAIN
  }
  transform_param {
    mirror: true
    crop_size: 224
    mean_value: 104
    mean_value: 117
    mean_value: 123
  }
  data_param {
    source: "../../LMDB/train_7-lmdb"
    batch_size: 32
    backend: LMDB
  }
}
layer {
  name: "conv1/7x7_s2"
  type: "Convolution"
  bottom: "data"
  top: "conv1/7x7_s2"
  param {
    lr_mult: 1
    decay_mult: 1
  }
  param {
    lr_mult: 2
    decay_mult: 0
  }
  convolution_param {
    num_output: 64
    pad: 3
    kernel_size: 7
    stride: 2
    weight_filler {
      type: "xavier"
    }
    bias_filler {
      type: "constant"
      value: 0.2
    }
  }
}
layer {
  name: "conv1/prelu_7x7"
  type: "PReLU"
  bottom: "conv1/7x7_s2"
  top: "conv1/7x7_s2"
  param {
    lr_mult: 1
    decay_mult: 0
  }
  prelu_param {
    filler {
      type: "constant"
      value: 0.01
    }
  }
}
layer {
  name: "pool1/3x3_s2"
  type: "Pooling"
  bottom: "conv1/7x7_s2"
  top: "pool1/3x3_s2"
  pooling_param {
    pool: MAX
    kernel_size: 3
    stride: 2
  }
}
layer {
  name: "pool1/norm1"
  type: "LRN"
  bottom: "pool1/3x3_s2"
  top: "pool1/norm1"
  lrn_param {
    local_size: 5
    alpha: 0.0001
    beta: 0.75
  }
}
layer {
  name: "conv2/3x3_reduce"
  type: "Convolution"
  bottom: "pool1/norm1"
  top: "conv2/3x3_reduce"
  param {
    lr_mult: 1
    decay_mult: 1
  }
  param {
    lr_mult: 2
    decay_mult: 0
  }
  convolution_param {
    num_output: 64
    kernel_size: 1
    weight_filler {
      type: "xavier"
    }
    bias_filler {
      type: "constant"
      value: 0.2
    }
  }
}
layer {
  name: "conv2/prelu_3x3_reduce"
  type: "PReLU"
  bottom: "conv2/3x3_reduce"
  top: "conv2/3x3_reduce"
  param {
    lr_mult: 1
    decay_mult: 0
  }
  prelu_param {
    filler {
      type: "constant"
      value: 0.01
    }
  }
}
layer {
  name: "conv2/3x3"
  type: "Convolution"
  bottom: "conv2/3x3_reduce"
  top: "conv2/3x3"
  param {
    lr_mult: 1
    decay_mult: 1
  }
  param {
    lr_mult: 2
    decay_mult: 0
  }
  convolution_param {
    num_output: 192
    pad: 1
    kernel_size: 3
    weight_filler {
      type: "xavier"
    }
    bias_filler {
      type: "constant"
      value: 0.2
    }
  }
}
layer {
  name: "conv2/prelu_3x3"
  type: "PReLU"
  bottom: "conv2/3x3"
  top: "conv2/3x3"
  param {
    lr_mult: 1
    decay_mult: 0
  }
  prelu_param {
    filler {
      type: "constant"
      value: 0.01
    }
  }
}
layer {
  name: "conv2/norm2"
  type: "LRN"
  bottom: "conv2/3x3"
  top: "conv2/norm2"
  lrn_param {
    local_size: 5
    alpha: 0.0001
    beta: 0.75
  }
}
layer {
  name: "pool2/3x3_s2"
  type: "Pooling"
  bottom: "conv2/norm2"
  top: "pool2/3x3_s2"
  pooling_param {
    pool: MAX
    kernel_size: 3
    stride: 2
  }
}
layer {
  name: "inception_3a/1x1"
  type: "Convolution"
  bottom: "pool2/3x3_s2"
  top: "inception_3a/1x1"
  param {
    lr_mult: 1
    decay_mult: 1
  }
  param {
    lr_mult: 2
    decay_mult: 0
  }
  convolution_param {
    num_output: 64
    kernel_size: 1
    weight_filler {
      type: "xavier"
    }
    bias_filler {
      type: "constant"
      value: 0.2
    }
  }
}
layer {
  name: "inception_3a/prelu_1x1"
  type: "PReLU"
  bottom: "inception_3a/1x1"
  top: "inception_3a/1x1"
  param {
    lr_mult: 1
    decay_mult: 0
  }
  prelu_param {
    filler {
      type: "constant"
      value: 0.01
    }
  }
}
layer {
  name: "inception_3a/3x3_reduce"
  type: "Convolution"
  bottom: "pool2/3x3_s2"
  top: "inception_3a/3x3_reduce"
  param {
    lr_mult: 1
    decay_mult: 1
  }
  param {
    lr_mult: 2
    decay_mult: 0
  }
  convolution_param {
    num_output: 96
    kernel_size: 1
    weight_filler {
      type: "xavier"
    }
    bias_filler {
      type: "constant"
      value: 0.2
    }
  }
}
layer {
  name: "inception_3a/prelu_3x3_reduce"
  type: "PReLU"
  bottom: "inception_3a/3x3_reduce"
  top: "inception_3a/3x3_reduce"
  param {
    lr_mult: 1
    decay_mult: 0
  }
  prelu_param {
    filler {
      type: "constant"
      value: 0.01
    }
  }
}
layer {
  name: "inception_3a/3x3"
  type: "Convolution"
  bottom: "inception_3a/3x3_reduce"
  top: "inception_3a/3x3"
  param {
    lr_mult: 1
    decay_mult: 1
  }
  param {
    lr_mult: 2
    decay_mult: 0
  }
  convolution_param {
    num_output: 128
    pad: 1
    kernel_size: 3
    weight_filler {
      type: "xavier"
    }
    bias_filler {
      type: "constant"
      value: 0.2
    }
  }
}
layer {
  name: "inception_3a/prelu_3x3"
  type: "PReLU"
  bottom: "inception_3a/3x3"
  top: "inception_3a/3x3"
  param {
    lr_mult: 1
    decay_mult: 0
  }
  prelu_param {
    filler {
      type: "constant"
      value: 0.01
    }
  }
}
layer {
  name: "inception_3a/5x5_reduce"
  type: "Convolution"
  bottom: "pool2/3x3_s2"
  top: "inception_3a/5x5_reduce"
  param {
    lr_mult: 1
    decay_mult: 1
  }
  param {
    lr_mult: 2
    decay_mult: 0
  }
  convolution_param {
    num_output: 16
    kernel_size: 1
    weight_filler {
      type: "xavier"
    }
    bias_filler {
      type: "constant"
      value: 0.2
    }
  }
}
layer {
  name: "inception_3a/prelu_5x5_reduce"
  type: "PReLU"
  bottom: "inception_3a/5x5_reduce"
  top: "inception_3a/5x5_reduce"
  param {
    lr_mult: 1
    decay_mult: 0
  }
  prelu_param {
    filler {
      type: "constant"
      value: 0.01
    }
  }
}
layer {
  name: "inception_3a/5x5"
  type: "Convolution"
  bottom: "inception_3a/5x5_reduce"
  top: "inception_3a/5x5"
  param {
    lr_mult: 1
    decay_mult: 1
  }
  param {
    lr_mult: 2
    decay_mult: 0
  }
  convolution_param {
    num_output: 32
    pad: 2
    kernel_size: 5
    weight_filler {
      type: "xavier"
    }
    bias_filler {
      type: "constant"
      value: 0.2
    }
  }
}
layer {
  name: "inception_3a/prelu_5x5"
  type: "PReLU"
  bottom: "inception_3a/5x5"
  top: "inception_3a/5x5"
  param {
    lr_mult: 1
    decay_mult: 0
  }
  prelu_param {
    filler {
      type: "constant"
      value: 0.01
    }
  }
}
layer {
  name: "inception_3a/pool"
  type: "Pooling"
  bottom: "pool2/3x3_s2"
  top: "inception_3a/pool"
  pooling_param {
    pool: MAX
    kernel_size: 3
    stride: 1
    pad: 1
  }
}
layer {
  name: "inception_3a/pool_proj"
  type: "Convolution"
  bottom: "inception_3a/pool"
  top: "inception_3a/pool_proj"
  param {
    lr_mult: 1
    decay_mult: 1
  }
  param {
    lr_mult: 2
    decay_mult: 0
  }
  convolution_param {
    num_output: 32
    kernel_size: 1
    weight_filler {
      type: "xavier"
    }
    bias_filler {
      type: "constant"
      value: 0.2
    }
  }
}
layer {
  name: "inception_3a/prelu_pool_proj"
  type: "PReLU"
  bottom: "inception_3a/pool_proj"
  top: "inception_3a/pool_proj"
  param {
    lr_mult: 1
    decay_mult: 0
  }
  prelu_param {
    filler {
      type: "constant"
      value: 0.01
    }
  }
}
layer {
  name: "inception_3a/output"
  type: "Concat"
  bottom: "inception_3a/1x1"
  bottom: "inception_3a/3x3"
  bottom: "inception_3a/5x5"
  bottom: "inception_3a/pool_proj"
  top: "inception_3a/output"
}
layer {
  name: "inception_3b/1x1"
  type: "Convolution"
  bottom: "inception_3a/output"
  top: "inception_3b/1x1"
  param {
    lr_mult: 1
    decay_mult: 1
  }
  param {
    lr_mult: 2
    decay_mult: 0
  }
  convolution_param {
    num_output: 128
    kernel_size: 1
    weight_filler {
      type: "xavier"
    }
    bias_filler {
      type: "constant"
      value: 0.2
    }
  }
}
layer {
  name: "inception_3b/prelu_1x1"
  type: "PReLU"
  bottom: "inception_3b/1x1"
  top: "inception_3b/1x1"
  param {
    lr_mult: 1
    decay_mult: 0
  }
  prelu_param {
    filler {
      type: "constant"
      value: 0.01
    }
  }
}
layer {
  name: "inception_3b/3x3_reduce"
  type: "Convolution"
  bottom: "inception_3a/output"
  top: "inception_3b/3x3_reduce"
  param {
    lr_mult: 1
    decay_mult: 1
  }
  param {
    lr_mult: 2
    decay_mult: 0
  }
  convolution_param {
    num_output: 128
    kernel_size: 1
    weight_filler {
      type: "xavier"
    }
    bias_filler {
      type: "constant"
      value: 0.2
    }
  }
}
layer {
  name: "inception_3b/prelu_3x3_reduce"
  type: "PReLU"
  bottom: "inception_3b/3x3_reduce"
  top: "inception_3b/3x3_reduce"
  param {
    lr_mult: 1
    decay_mult: 0
  }
  prelu_param {
    filler {
      type: "constant"
      value: 0.01
    }
  }
}
layer {
  name: "inception_3b/3x3"
  type: "Convolution"
  bottom: "inception_3b/3x3_reduce"
  top: "inception_3b/3x3"
  param {
    lr_mult: 1
    decay_mult: 1
  }
  param {
    lr_mult: 2
    decay_mult: 0
  }
  convolution_param {
    num_output: 192
    pad: 1
    kernel_size: 3
    weight_filler {
      type: "xavier"
    }
    bias_filler {
      type: "constant"
      value: 0.2
    }
  }
}
layer {
  name: "inception_3b/prelu_3x3"
  type: "PReLU"
  bottom: "inception_3b/3x3"
  top: "inception_3b/3x3"
  param {
    lr_mult: 1
    decay_mult: 0
  }
  prelu_param {
    filler {
      type: "constant"
      value: 0.01
    }
  }
}
layer {
  name: "inception_3b/5x5_reduce"
  type: "Convolution"
  bottom: "inception_3a/output"
  top: "inception_3b/5x5_reduce"
  param {
    lr_mult: 1
    decay_mult: 1
  }
  param {
    lr_mult: 2
    decay_mult: 0
  }
  convolution_param {
    num_output: 32
    kernel_size: 1
    weight_filler {
      type: "xavier"
    }
    bias_filler {
      type: "constant"
      value: 0.2
    }
  }
}
layer {
  name: "inception_3b/prelu_5x5_reduce"
  type: "PReLU"
  bottom: "inception_3b/5x5_reduce"
  top: "inception_3b/5x5_reduce"
  param {
    lr_mult: 1
    decay_mult: 0
  }
  prelu_param {
    filler {
      type: "constant"
      value: 0.01
    }
  }
}
layer {
  name: "inception_3b/5x5"
  type: "Convolution"
  bottom: "inception_3b/5x5_reduce"
  top: "inception_3b/5x5"
  param {
    lr_mult: 1
    decay_mult: 1
  }
  param {
    lr_mult: 2
    decay_mult: 0
  }
  convolution_param {
    num_output: 96
    pad: 2
    kernel_size: 5
    weight_filler {
      type: "xavier"
    }
    bias_filler {
      type: "constant"
      value: 0.2
    }
  }
}
layer {
  name: "inception_3b/prelu_5x5"
  type: "PReLU"
  bottom: "inception_3b/5x5"
  top: "inception_3b/5x5"
  param {
    lr_mult: 1
    decay_mult: 0
  }
  prelu_param {
    filler {
      type: "constant"
      value: 0.01
    }
  }
}
layer {
  name: "inception_3b/pool"
  type: "Pooling"
  bottom: "inception_3a/output"
  top: "inception_3b/pool"
  pooling_param {
    pool: MAX
    kernel_size: 3
    stride: 1
    pad: 1
  }
}
layer {
  name: "inception_3b/pool_proj"
  type: "Convolution"
  bottom: "inception_3b/pool"
  top: "inception_3b/pool_proj"
  param {
    lr_mult: 1
    decay_mult: 1
  }
  param {
    lr_mult: 2
    decay_mult: 0
  }
  convolution_param {
    num_output: 64
    kernel_size: 1
    weight_filler {
      type: "xavier"
    }
    bias_filler {
      type: "constant"
      value: 0.2
    }
  }
}
layer {
  name: "inception_3b/prelu_pool_proj"
  type: "PReLU"
  bottom: "inception_3b/pool_proj"
  top: "inception_3b/pool_proj"
  param {
    lr_mult: 1
    decay_mult: 0
  }
  prelu_param {
    filler {
      type: "constant"
      value: 0.01
    }
  }
}
layer {
  name: "inception_3b/output"
  type: "Concat"
  bottom: "inception_3b/1x1"
  bottom: "inception_3b/3x3"
  bottom: "inception_3b/5x5"
  bottom: "inception_3b/pool_proj"
  top: "inception_3b/output"
}
layer {
  name: "pool3/3x3_s2"
  type: "Pooling"
  bottom: "inception_3b/output"
  top: "pool3/3x3_s2"
  pooling_param {
    pool: MAX
    kernel_size: 3
    stride: 2
  }
}
layer {
  name: "inception_4a/1x1"
  type: "Convolution"
  bottom: "pool3/3x3_s2"
  top: "inception_4a/1x1"
  param {
    lr_mult: 1
    decay_mult: 1
  }
  param {
    lr_mult: 2
    decay_mult: 0
  }
  convolution_param {
    num_output: 192
    kernel_size: 1
    weight_filler {
      type: "xavier"
    }
    bias_filler {
      type: "constant"
      value: 0.2
    }
  }
}
layer {
  name: "inception_4a/prelu_1x1"
  type: "PReLU"
  bottom: "inception_4a/1x1"
  top: "inception_4a/1x1"
  param {
    lr_mult: 1
    decay_mult: 0
  }
  prelu_param {
    filler {
      type: "constant"
      value: 0.01
    }
  }
}
layer {
  name: "inception_4a/3x3_reduce"
  type: "Convolution"
  bottom: "pool3/3x3_s2"
  top: "inception_4a/3x3_reduce"
  param {
    lr_mult: 1
    decay_mult: 1
  }
  param {
    lr_mult: 2
    decay_mult: 0
  }
  convolution_param {
    num_output: 96
    kernel_size: 1
    weight_filler {
      type: "xavier"
    }
    bias_filler {
      type: "constant"
      value: 0.2
    }
  }
}
layer {
  name: "inception_4a/prelu_3x3_reduce"
  type: "PReLU"
  bottom: "inception_4a/3x3_reduce"
  top: "inception_4a/3x3_reduce"
  param {
    lr_mult: 1
    decay_mult: 0
  }
  prelu_param {
    filler {
      type: "constant"
      value: 0.01
    }
  }
}
layer {
  name: "inception_4a/3x3"
  type: "Convolution"
  bottom: "inception_4a/3x3_reduce"
  top: "inception_4a/3x3"
  param {
    lr_mult: 1
    decay_mult: 1
  }
  param {
    lr_mult: 2
    decay_mult: 0
  }
  convolution_param {
    num_output: 208
    pad: 1
    kernel_size: 3
    weight_filler {
      type: "xavier"
    }
    bias_filler {
      type: "constant"
      value: 0.2
    }
  }
}
layer {
  name: "inception_4a/prelu_3x3"
  type: "PReLU"
  bottom: "inception_4a/3x3"
  top: "inception_4a/3x3"
  param {
    lr_mult: 1
    decay_mult: 0
  }
  prelu_param {
    filler {
      type: "constant"
      value: 0.01
    }
  }
}
layer {
  name: "inception_4a/5x5_reduce"
  type: "Convolution"
  bottom: "pool3/3x3_s2"
  top: "inception_4a/5x5_reduce"
  param {
    lr_mult: 1
    decay_mult: 1
  }
  param {
    lr_mult: 2
    decay_mult: 0
  }
  convolution_param {
    num_output: 16
    kernel_size: 1
    weight_filler {
      type: "xavier"
    }
    bias_filler {
      type: "constant"
      value: 0.2
    }
  }
}
layer {
  name: "inception_4a/prelu_5x5_reduce"
  type: "PReLU"
  bottom: "inception_4a/5x5_reduce"
  top: "inception_4a/5x5_reduce"
  param {
    lr_mult: 1
    decay_mult: 0
  }
  prelu_param {
    filler {
      type: "constant"
      value: 0.01
    }
  }
}
layer {
  name: "inception_4a/5x5"
  type: "Convolution"
  bottom: "inception_4a/5x5_reduce"
  top: "inception_4a/5x5"
  param {
    lr_mult: 1
    decay_mult: 1
  }
  param {
    lr_mult: 2
    decay_mult: 0
  }
  convolution_param {
    num_output: 48
    pad: 2
    kernel_size: 5
    weight_filler {
      type: "xavier"
    }
    bias_filler {
      type: "constant"
      value: 0.2
    }
  }
}
layer {
  name: "inception_4a/prelu_5x5"
  type: "PReLU"
  bottom: "inception_4a/5x5"
  top: "inception_4a/5x5"
  param {
    lr_mult: 1
    decay_mult: 0
  }
  prelu_param {
    filler {
      type: "constant"
      value: 0.01
    }
  }
}
layer {
  name: "inception_4a/pool"
  type: "Pooling"
  bottom: "pool3/3x3_s2"
  top: "inception_4a/pool"
  pooling_param {
    pool: MAX
    kernel_size: 3
    stride: 1
    pad: 1
  }
}
layer {
  name: "inception_4a/pool_proj"
  type: "Convolution"
  bottom: "inception_4a/pool"
  top: "inception_4a/pool_proj"
  param {
    lr_mult: 1
    decay_mult: 1
  }
  param {
    lr_mult: 2
    decay_mult: 0
  }
  convolution_param {
    num_output: 64
    kernel_size: 1
    weight_filler {
      type: "xavier"
    }
    bias_filler {
      type: "constant"
      value: 0.2
    }
  }
}
layer {
  name: "inception_4a/prelu_pool_proj"
  type: "PReLU"
  bottom: "inception_4a/pool_proj"
  top: "inception_4a/pool_proj"
  param {
    lr_mult: 1
    decay_mult: 0
  }
  prelu_param {
    filler {
      type: "constant"
      value: 0.01
    }
  }
}
layer {
  name: "inception_4a/output"
  type: "Concat"
  bottom: "inception_4a/1x1"
  bottom: "inception_4a/3x3"
  bottom: "inception_4a/5x5"
  bottom: "inception_4a/pool_proj"
  top: "inception_4a/output"
}
layer {
  name: "loss1/ave_pool"
  type: "Pooling"
  bottom: "inception_4a/output"
  top: "loss1/ave_pool"
  pooling_param {
    pool: AVE
    kernel_size: 5
    stride: 3
  }
}
layer {
  name: "loss1/conv"
  type: "Convolution"
  bottom: "loss1/ave_pool"
  top: "loss1/conv"
  param {
    lr_mult: 1
    decay_mult: 1
  }
  param {
    lr_mult: 2
    decay_mult: 0
  }
  convolution_param {
    num_output: 128
    kernel_size: 1
    weight_filler {
      type: "xavier"
    }
    bias_filler {
      type: "constant"
      value: 0.2
    }
  }
}
layer {
  name: "loss1/prelu_conv"
  type: "PReLU"
  bottom: "loss1/conv"
  top: "loss1/conv"
  param {
    lr_mult: 1
    decay_mult: 0
  }
  prelu_param {
    filler {
      type: "constant"
      value: 0.01
    }
  }
}
layer {
  name: "loss1/fc"
  type: "InnerProduct"
  bottom: "loss1/conv"
  top: "loss1/fc"
  param {
    lr_mult: 1
    decay_mult: 1
  }
  param {
    lr_mult: 2
    decay_mult: 0
  }
  inner_product_param {
    num_output: 1024
    weight_filler {
      type: "xavier"
    }
    bias_filler {
      type: "constant"
      value: 0.2
    }
  }
}
layer {
  name: "loss1/prelu_fc"
  type: "PReLU"
  bottom: "loss1/fc"
  top: "loss1/fc"
  param {
    lr_mult: 1
    decay_mult: 0
  }
  prelu_param {
    filler {
      type: "constant"
      value: 0.01
    }
  }
}
layer {
  name: "loss1/drop_fc"
  type: "Dropout"
  bottom: "loss1/fc"
  top: "loss1/fc"
  dropout_param {
    dropout_ratio: 0.7
  }
}
layer {
  name: "loss1/classifier2"
  type: "InnerProduct"
  bottom: "loss1/fc"
  top: "loss1/classifier"
  param {
    lr_mult: 1
    decay_mult: 1
  }
  param {
    lr_mult: 2
    decay_mult: 0
  }
  inner_product_param {
    num_output: 2
    weight_filler {
      type: "xavier"
    }
    bias_filler {
      type: "constant"
      value: 0
    }
  }
}
layer {
  name: "loss1/loss"
  type: "SoftmaxWithLoss"
  bottom: "loss1/classifier"
  bottom: "label"
  top: "loss1/loss1"
  loss_weight: 0.3
}
layer {
  name: "inception_4b/1x1"
  type: "Convolution"
  bottom: "inception_4a/output"
  top: "inception_4b/1x1"
  param {
    lr_mult: 1
    decay_mult: 1
  }
  param {
    lr_mult: 2
    decay_mult: 0
  }
  convolution_param {
    num_output: 160
    kernel_size: 1
    weight_filler {
      type: "xavier"
    }
    bias_filler {
      type: "constant"
      value: 0.2
    }
  }
}
layer {
  name: "inception_4b/prelu_1x1"
  type: "PReLU"
  bottom: "inception_4b/1x1"
  top: "inception_4b/1x1"
  param {
    lr_mult: 1
    decay_mult: 0
  }
  prelu_param {
    filler {
      type: "constant"
      value: 0.01
    }
  }
}
layer {
  name: "inception_4b/3x3_reduce"
  type: "Convolution"
  bottom: "inception_4a/output"
  top: "inception_4b/3x3_reduce"
  param {
    lr_mult: 1
    decay_mult: 1
  }
  param {
    lr_mult: 2
    decay_mult: 0
  }
  convolution_param {
    num_output: 112
    kernel_size: 1
    weight_filler {
      type: "xavier"
    }
    bias_filler {
      type: "constant"
      value: 0.2
    }
  }
}
layer {
  name: "inception_4b/prelu_3x3_reduce"
  type: "PReLU"
  bottom: "inception_4b/3x3_reduce"
  top: "inception_4b/3x3_reduce"
  param {
    lr_mult: 1
    decay_mult: 0
  }
  prelu_param {
    filler {
      type: "constant"
      value: 0.01
    }
  }
}
layer {
  name: "inception_4b/3x3"
  type: "Convolution"
  bottom: "inception_4b/3x3_reduce"
  top: "inception_4b/3x3"
  param {
    lr_mult: 1
    decay_mult: 1
  }
  param {
    lr_mult: 2
    decay_mult: 0
  }
  convolution_param {
    num_output: 224
    pad: 1
    kernel_size: 3
    weight_filler {
      type: "xavier"
    }
    bias_filler {
      type: "constant"
      value: 0.2
    }
  }
}
layer {
  name: "inception_4b/prelu_3x3"
  type: "PReLU"
  bottom: "inception_4b/3x3"
  top: "inception_4b/3x3"
  param {
    lr_mult: 1
    decay_mult: 0
  }
  prelu_param {
    filler {
      type: "constant"
      value: 0.01
    }
  }
}
layer {
  name: "inception_4b/5x5_reduce"
  type: "Convolution"
  bottom: "inception_4a/output"
  top: "inception_4b/5x5_reduce"
  param {
    lr_mult: 1
    decay_mult: 1
  }
  param {
    lr_mult: 2
    decay_mult: 0
  }
  convolution_param {
    num_output: 24
    kernel_size: 1
    weight_filler {
      type: "xavier"
    }
    bias_filler {
      type: "constant"
      value: 0.2
    }
  }
}
layer {
  name: "inception_4b/prelu_5x5_reduce"
  type: "PReLU"
  bottom: "inception_4b/5x5_reduce"
  top: "inception_4b/5x5_reduce"
  param {
    lr_mult: 1
    decay_mult: 0
  }
  prelu_param {
    filler {
      type: "constant"
      value: 0.01
    }
  }
}
layer {
  name: "inception_4b/5x5"
  type: "Convolution"
  bottom: "inception_4b/5x5_reduce"
  top: "inception_4b/5x5"
  param {
    lr_mult: 1
    decay_mult: 1
  }
  param {
    lr_mult: 2
    decay_mult: 0
  }
  convolution_param {
    num_output: 64
    pad: 2
    kernel_size: 5
    weight_filler {
      type: "xavier"
    }
    bias_filler {
      type: "constant"
      value: 0.2
    }
  }
}
layer {
  name: "inception_4b/prelu_5x5"
  type: "PReLU"
  bottom: "inception_4b/5x5"
  top: "inception_4b/5x5"
  param {
    lr_mult: 1
    decay_mult: 0
  }
  prelu_param {
    filler {
      type: "constant"
      value: 0.01
    }
  }
}
layer {
  name: "inception_4b/pool"
  type: "Pooling"
  bottom: "inception_4a/output"
  top: "inception_4b/pool"
  pooling_param {
    pool: MAX
    kernel_size: 3
    stride: 1
    pad: 1
  }
}
layer {
  name: "inception_4b/pool_proj"
  type: "Convolution"
  bottom: "inception_4b/pool"
  top: "inception_4b/pool_proj"
  param {
    lr_mult: 1
    decay_mult: 1
  }
  param {
    lr_mult: 2
    decay_mult: 0
  }
  convolution_param {
    num_output: 64
    kernel_size: 1
    weight_filler {
      type: "xavier"
    }
    bias_filler {
      type: "constant"
      value: 0.2
    }
  }
}
layer {
  name: "inception_4b/prelu_pool_proj"
  type: "PReLU"
  bottom: "inception_4b/pool_proj"
  top: "inception_4b/pool_proj"
  param {
    lr_mult: 1
    decay_mult: 0
  }
  prelu_param {
    filler {
      type: "constant"
      value: 0.01
    }
  }
}
layer {
  name: "inception_4b/output"
  type: "Concat"
  bottom: "inception_4b/1x1"
  bottom: "inception_4b/3x3"
  bottom: "inception_4b/5x5"
  bottom: "inception_4b/pool_proj"
  top: "inception_4b/output"
}
layer {
  name: "inception_4c/1x1"
  type: "Convolution"
  bottom: "inception_4b/output"
  top: "inception_4c/1x1"
  param {
    lr_mult: 1
    decay_mult: 1
  }
  param {
    lr_mult: 2
    decay_mult: 0
  }
  convolution_param {
    num_output: 128
    kernel_size: 1
    weight_filler {
      type: "xavier"
    }
    bias_filler {
      type: "constant"
      value: 0.2
    }
  }
}
layer {
  name: "inception_4c/prelu_1x1"
  type: "PReLU"
  bottom: "inception_4c/1x1"
  top: "inception_4c/1x1"
  param {
    lr_mult: 1
    decay_mult: 0
  }
  prelu_param {
    filler {
      type: "constant"
      value: 0.01
    }
  }
}
layer {
  name: "inception_4c/3x3_reduce"
  type: "Convolution"
  bottom: "inception_4b/output"
  top: "inception_4c/3x3_reduce"
  param {
    lr_mult: 1
    decay_mult: 1
  }
  param {
    lr_mult: 2
    decay_mult: 0
  }
  convolution_param {
    num_output: 128
    kernel_size: 1
    weight_filler {
      type: "xavier"
    }
    bias_filler {
      type: "constant"
      value: 0.2
    }
  }
}
layer {
  name: "inception_4c/prelu_3x3_reduce"
  type: "PReLU"
  bottom: "inception_4c/3x3_reduce"
  top: "inception_4c/3x3_reduce"
  param {
    lr_mult: 1
    decay_mult: 0
  }
  prelu_param {
    filler {
      type: "constant"
      value: 0.01
    }
  }
}
layer {
  name: "inception_4c/3x3"
  type: "Convolution"
  bottom: "inception_4c/3x3_reduce"
  top: "inception_4c/3x3"
  param {
    lr_mult: 1
    decay_mult: 1
  }
  param {
    lr_mult: 2
    decay_mult: 0
  }
  convolution_param {
    num_output: 256
    pad: 1
    kernel_size: 3
    weight_filler {
      type: "xavier"
    }
    bias_filler {
      type: "constant"
      value: 0.2
    }
  }
}
layer {
  name: "inception_4c/prelu_3x3"
  type: "PReLU"
  bottom: "inception_4c/3x3"
  top: "inception_4c/3x3"
  param {
    lr_mult: 1
    decay_mult: 0
  }
  prelu_param {
    filler {
      type: "constant"
      value: 0.01
    }
  }
}
layer {
  name: "inception_4c/5x5_reduce"
  type: "Convolution"
  bottom: "inception_4b/output"
  top: "inception_4c/5x5_reduce"
  param {
    lr_mult: 1
    decay_mult: 1
  }
  param {
    lr_mult: 2
    decay_mult: 0
  }
  convolution_param {
    num_output: 24
    kernel_size: 1
    weight_filler {
      type: "xavier"
    }
    bias_filler {
      type: "constant"
      value: 0.2
    }
  }
}
layer {
  name: "inception_4c/prelu_5x5_reduce"
  type: "PReLU"
  bottom: "inception_4c/5x5_reduce"
  top: "inception_4c/5x5_reduce"
  param {
    lr_mult: 1
    decay_mult: 0
  }
  prelu_param {
    filler {
      type: "constant"
      value: 0.01
    }
  }
}
layer {
  name: "inception_4c/5x5"
  type: "Convolution"
  bottom: "inception_4c/5x5_reduce"
  top: "inception_4c/5x5"
  param {
    lr_mult: 1
    decay_mult: 1
  }
  param {
    lr_mult: 2
    decay_mult: 0
  }
  convolution_param {
    num_output: 64
    pad: 2
    kernel_size: 5
    weight_filler {
      type: "xavier"
    }
    bias_filler {
      type: "constant"
      value: 0.2
    }
  }
}
layer {
  name: "inception_4c/prelu_5x5"
  type: "PReLU"
  bottom: "inception_4c/5x5"
  top: "inception_4c/5x5"
  param {
    lr_mult: 1
    decay_mult: 0
  }
  prelu_param {
    filler {
      type: "constant"
      value: 0.01
    }
  }
}
layer {
  name: "inception_4c/pool"
  type: "Pooling"
  bottom: "inception_4b/output"
  top: "inception_4c/pool"
  pooling_param {
    pool: MAX
    kernel_size: 3
    stride: 1
    pad: 1
  }
}
layer {
  name: "inception_4c/pool_proj"
  type: "Convolution"
  bottom: "inception_4c/pool"
  top: "inception_4c/pool_proj"
  param {
    lr_mult: 1
    decay_mult: 1
  }
  param {
    lr_mult: 2
    decay_mult: 0
  }
  convolution_param {
    num_output: 64
    kernel_size: 1
    weight_filler {
      type: "xavier"
    }
    bias_filler {
      type: "constant"
      value: 0.2
    }
  }
}
layer {
  name: "inception_4c/prelu_pool_proj"
  type: "PReLU"
  bottom: "inception_4c/pool_proj"
  top: "inception_4c/pool_proj"
  param {
    lr_mult: 1
    decay_mult: 0
  }
  prelu_param {
    filler {
      type: "constant"
      value: 0.01
    }
  }
}
layer {
  name: "inception_4c/output"
  type: "Concat"
  bottom: "inception_4c/1x1"
  bottom: "inception_4c/3x3"
  bottom: "inception_4c/5x5"
  bottom: "inception_4c/pool_proj"
  top: "inception_4c/output"
}
layer {
  name: "inception_4d/1x1"
  type: "Convolution"
  bottom: "inception_4c/output"
  top: "inception_4d/1x1"
  param {
    lr_mult: 1
    decay_mult: 1
  }
  param {
    lr_mult: 2
    decay_mult: 0
  }
  convolution_param {
    num_output: 112
    kernel_size: 1
    weight_filler {
      type: "xavier"
    }
    bias_filler {
      type: "constant"
      value: 0.2
    }
  }
}
layer {
  name: "inception_4d/prelu_1x1"
  type: "PReLU"
  bottom: "inception_4d/1x1"
  top: "inception_4d/1x1"
  param {
    lr_mult: 1
    decay_mult: 0
  }
  prelu_param {
    filler {
      type: "constant"
      value: 0.01
    }
  }
}
layer {
  name: "inception_4d/3x3_reduce"
  type: "Convolution"
  bottom: "inception_4c/output"
  top: "inception_4d/3x3_reduce"
  param {
    lr_mult: 1
    decay_mult: 1
  }
  param {
    lr_mult: 2
    decay_mult: 0
  }
  convolution_param {
    num_output: 144
    kernel_size: 1
    weight_filler {
      type: "xavier"
    }
    bias_filler {
      type: "constant"
      value: 0.2
    }
  }
}
layer {
  name: "inception_4d/prelu_3x3_reduce"
  type: "PReLU"
  bottom: "inception_4d/3x3_reduce"
  top: "inception_4d/3x3_reduce"
  param {
    lr_mult: 1
    decay_mult: 0
  }
  prelu_param {
    filler {
      type: "constant"
      value: 0.01
    }
  }
}
layer {
  name: "inception_4d/3x3"
  type: "Convolution"
  bottom: "inception_4d/3x3_reduce"
  top: "inception_4d/3x3"
  param {
    lr_mult: 1
    decay_mult: 1
  }
  param {
    lr_mult: 2
    decay_mult: 0
  }
  convolution_param {
    num_output: 288
    pad: 1
    kernel_size: 3
    weight_filler {
      type: "xavier"
    }
    bias_filler {
      type: "constant"
      value: 0.2
    }
  }
}
layer {
  name: "inception_4d/prelu_3x3"
  type: "PReLU"
  bottom: "inception_4d/3x3"
  top: "inception_4d/3x3"
  param {
    lr_mult: 1
    decay_mult: 0
  }
  prelu_param {
    filler {
      type: "constant"
      value: 0.01
    }
  }
}
layer {
  name: "inception_4d/5x5_reduce"
  type: "Convolution"
  bottom: "inception_4c/output"
  top: "inception_4d/5x5_reduce"
  param {
    lr_mult: 1
    decay_mult: 1
  }
  param {
    lr_mult: 2
    decay_mult: 0
  }
  convolution_param {
    num_output: 32
    kernel_size: 1
    weight_filler {
      type: "xavier"
    }
    bias_filler {
      type: "constant"
      value: 0.2
    }
  }
}
layer {
  name: "inception_4d/prelu_5x5_reduce"
  type: "PReLU"
  bottom: "inception_4d/5x5_reduce"
  top: "inception_4d/5x5_reduce"
  param {
    lr_mult: 1
    decay_mult: 0
  }
  prelu_param {
    filler {
      type: "constant"
      value: 0.01
    }
  }
}
layer {
  name: "inception_4d/5x5"
  type: "Convolution"
  bottom: "inception_4d/5x5_reduce"
  top: "inception_4d/5x5"
  param {
    lr_mult: 1
    decay_mult: 1
  }
  param {
    lr_mult: 2
    decay_mult: 0
  }
  convolution_param {
    num_output: 64
    pad: 2
    kernel_size: 5
    weight_filler {
      type: "xavier"
    }
    bias_filler {
      type: "constant"
      value: 0.2
    }
  }
}
layer {
  name: "inception_4d/prelu_5x5"
  type: "PReLU"
  bottom: "inception_4d/5x5"
  top: "inception_4d/5x5"
  param {
    lr_mult: 1
    decay_mult: 0
  }
  prelu_param {
    filler {
      type: "constant"
      value: 0.01
    }
  }
}
layer {
  name: "inception_4d/pool"
  type: "Pooling"
  bottom: "inception_4c/output"
  top: "inception_4d/pool"
  pooling_param {
    pool: MAX
    kernel_size: 3
    stride: 1
    pad: 1
  }
}
layer {
  name: "inception_4d/pool_proj"
  type: "Convolution"
  bottom: "ince
I1028 13:37:41.489992 28216 layer_factory.hpp:76] Creating layer data
I1028 13:37:41.490813 28216 net.cpp:106] Creating Layer data
I1028 13:37:41.490844 28216 net.cpp:411] data -> data
I1028 13:37:41.490876 28216 net.cpp:411] data -> label
I1028 13:37:41.492226 28220 db_lmdb.cpp:38] Opened lmdb ../../LMDB/train_7-lmdb
I1028 13:37:41.504706 28216 data_layer.cpp:41] output data size: 32,3,224,224
I1028 13:37:41.575655 28216 net.cpp:150] Setting up data
I1028 13:37:41.575716 28216 net.cpp:157] Top shape: 32 3 224 224 (4816896)
I1028 13:37:41.575726 28216 net.cpp:157] Top shape: 32 (32)
I1028 13:37:41.575732 28216 net.cpp:165] Memory required for data: 19267712
I1028 13:37:41.575750 28216 layer_factory.hpp:76] Creating layer label_data_1_split
I1028 13:37:41.575772 28216 net.cpp:106] Creating Layer label_data_1_split
I1028 13:37:41.575780 28216 net.cpp:454] label_data_1_split <- label
I1028 13:37:41.575806 28216 net.cpp:411] label_data_1_split -> label_data_1_split_0
I1028 13:37:41.575822 28216 net.cpp:411] label_data_1_split -> label_data_1_split_1
I1028 13:37:41.575829 28216 net.cpp:411] label_data_1_split -> label_data_1_split_2
I1028 13:37:41.575902 28216 net.cpp:150] Setting up label_data_1_split
I1028 13:37:41.575911 28216 net.cpp:157] Top shape: 32 (32)
I1028 13:37:41.575917 28216 net.cpp:157] Top shape: 32 (32)
I1028 13:37:41.575922 28216 net.cpp:157] Top shape: 32 (32)
I1028 13:37:41.575935 28216 net.cpp:165] Memory required for data: 19268096
I1028 13:37:41.575940 28216 layer_factory.hpp:76] Creating layer conv1/7x7_s2
I1028 13:37:41.575958 28216 net.cpp:106] Creating Layer conv1/7x7_s2
I1028 13:37:41.575963 28216 net.cpp:454] conv1/7x7_s2 <- data
I1028 13:37:41.575970 28216 net.cpp:411] conv1/7x7_s2 -> conv1/7x7_s2
I1028 13:37:41.646306 28221 blocking_queue.cpp:50] Waiting for data
I1028 13:37:41.958178 28216 cudnn_conv_layer.cpp:194] Reallocating workspace storage: 225816
I1028 13:37:41.958410 28216 net.cpp:150] Setting up conv1/7x7_s2
I1028 13:37:41.958427 28216 net.cpp:157] Top shape: 32 64 112 112 (25690112)
I1028 13:37:41.958431 28216 net.cpp:165] Memory required for data: 122028544
I1028 13:37:41.958468 28216 layer_factory.hpp:76] Creating layer conv1/prelu_7x7
I1028 13:37:41.958492 28216 net.cpp:106] Creating Layer conv1/prelu_7x7
I1028 13:37:41.958500 28216 net.cpp:454] conv1/prelu_7x7 <- conv1/7x7_s2
I1028 13:37:41.958510 28216 net.cpp:397] conv1/prelu_7x7 -> conv1/7x7_s2 (in-place)
I1028 13:37:41.961184 28216 net.cpp:150] Setting up conv1/prelu_7x7
I1028 13:37:41.961230 28216 net.cpp:157] Top shape: 32 64 112 112 (25690112)
I1028 13:37:41.961236 28216 net.cpp:165] Memory required for data: 224788992
I1028 13:37:41.961256 28216 layer_factory.hpp:76] Creating layer pool1/3x3_s2
I1028 13:37:41.961280 28216 net.cpp:106] Creating Layer pool1/3x3_s2
I1028 13:37:41.961288 28216 net.cpp:454] pool1/3x3_s2 <- conv1/7x7_s2
I1028 13:37:41.961298 28216 net.cpp:411] pool1/3x3_s2 -> pool1/3x3_s2
I1028 13:37:41.961915 28216 net.cpp:150] Setting up pool1/3x3_s2
I1028 13:37:41.961936 28216 net.cpp:157] Top shape: 32 64 56 56 (6422528)
I1028 13:37:41.961941 28216 net.cpp:165] Memory required for data: 250479104
I1028 13:37:41.961946 28216 layer_factory.hpp:76] Creating layer pool1/norm1
I1028 13:37:41.961963 28216 net.cpp:106] Creating Layer pool1/norm1
I1028 13:37:41.961969 28216 net.cpp:454] pool1/norm1 <- pool1/3x3_s2
I1028 13:37:41.961977 28216 net.cpp:411] pool1/norm1 -> pool1/norm1
I1028 13:37:41.962189 28216 net.cpp:150] Setting up pool1/norm1
I1028 13:37:41.962203 28216 net.cpp:157] Top shape: 32 64 56 56 (6422528)
I1028 13:37:41.962208 28216 net.cpp:165] Memory required for data: 276169216
I1028 13:37:41.962213 28216 layer_factory.hpp:76] Creating layer conv2/3x3_reduce
I1028 13:37:41.962229 28216 net.cpp:106] Creating Layer conv2/3x3_reduce
I1028 13:37:41.962234 28216 net.cpp:454] conv2/3x3_reduce <- pool1/norm1
I1028 13:37:41.962240 28216 net.cpp:411] conv2/3x3_reduce -> conv2/3x3_reduce
I1028 13:37:41.964081 28216 cudnn_conv_layer.cpp:194] Reallocating workspace storage: 63000
I1028 13:37:41.964129 28216 net.cpp:150] Setting up conv2/3x3_reduce
I1028 13:37:41.964144 28216 net.cpp:157] Top shape: 32 64 56 56 (6422528)
I1028 13:37:41.964149 28216 net.cpp:165] Memory required for data: 301859328
I1028 13:37:41.964164 28216 layer_factory.hpp:76] Creating layer conv2/prelu_3x3_reduce
I1028 13:37:41.964180 28216 net.cpp:106] Creating Layer conv2/prelu_3x3_reduce
I1028 13:37:41.964189 28216 net.cpp:454] conv2/prelu_3x3_reduce <- conv2/3x3_reduce
I1028 13:37:41.964197 28216 net.cpp:397] conv2/prelu_3x3_reduce -> conv2/3x3_reduce (in-place)
I1028 13:37:41.965020 28216 net.cpp:150] Setting up conv2/prelu_3x3_reduce
I1028 13:37:41.965040 28216 net.cpp:157] Top shape: 32 64 56 56 (6422528)
I1028 13:37:41.965045 28216 net.cpp:165] Memory required for data: 327549440
I1028 13:37:41.965054 28216 layer_factory.hpp:76] Creating layer conv2/3x3
I1028 13:37:41.965083 28216 net.cpp:106] Creating Layer conv2/3x3
I1028 13:37:41.965090 28216 net.cpp:454] conv2/3x3 <- conv2/3x3_reduce
I1028 13:37:41.965101 28216 net.cpp:411] conv2/3x3 -> conv2/3x3
I1028 13:37:41.967605 28216 cudnn_conv_layer.cpp:194] Reallocating workspace storage: 63000
I1028 13:37:41.967636 28216 net.cpp:150] Setting up conv2/3x3
I1028 13:37:41.967645 28216 net.cpp:157] Top shape: 32 192 56 56 (19267584)
I1028 13:37:41.967649 28216 net.cpp:165] Memory required for data: 404619776
I1028 13:37:41.967658 28216 layer_factory.hpp:76] Creating layer conv2/prelu_3x3
I1028 13:37:41.967671 28216 net.cpp:106] Creating Layer conv2/prelu_3x3
I1028 13:37:41.967676 28216 net.cpp:454] conv2/prelu_3x3 <- conv2/3x3
I1028 13:37:41.967694 28216 net.cpp:397] conv2/prelu_3x3 -> conv2/3x3 (in-place)
I1028 13:37:41.969295 28216 net.cpp:150] Setting up conv2/prelu_3x3
I1028 13:37:41.969331 28216 net.cpp:157] Top shape: 32 192 56 56 (19267584)
I1028 13:37:41.969377 28216 net.cpp:165] Memory required for data: 481690112
I1028 13:37:41.969403 28216 layer_factory.hpp:76] Creating layer conv2/norm2
I1028 13:37:41.969421 28216 net.cpp:106] Creating Layer conv2/norm2
I1028 13:37:41.969427 28216 net.cpp:454] conv2/norm2 <- conv2/3x3
I1028 13:37:41.969436 28216 net.cpp:411] conv2/norm2 -> conv2/norm2
I1028 13:37:41.969691 28216 net.cpp:150] Setting up conv2/norm2
I1028 13:37:41.969705 28216 net.cpp:157] Top shape: 32 192 56 56 (19267584)
I1028 13:37:41.969709 28216 net.cpp:165] Memory required for data: 558760448
I1028 13:37:41.969714 28216 layer_factory.hpp:76] Creating layer pool2/3x3_s2
I1028 13:37:41.969727 28216 net.cpp:106] Creating Layer pool2/3x3_s2
I1028 13:37:41.969730 28216 net.cpp:454] pool2/3x3_s2 <- conv2/norm2
I1028 13:37:41.969738 28216 net.cpp:411] pool2/3x3_s2 -> pool2/3x3_s2
I1028 13:37:41.970315 28216 net.cpp:150] Setting up pool2/3x3_s2
I1028 13:37:41.970338 28216 net.cpp:157] Top shape: 32 192 28 28 (4816896)
I1028 13:37:41.970343 28216 net.cpp:165] Memory required for data: 578028032
I1028 13:37:41.970348 28216 layer_factory.hpp:76] Creating layer pool2/3x3_s2_pool2/3x3_s2_0_split
I1028 13:37:41.970358 28216 net.cpp:106] Creating Layer pool2/3x3_s2_pool2/3x3_s2_0_split
I1028 13:37:41.970363 28216 net.cpp:454] pool2/3x3_s2_pool2/3x3_s2_0_split <- pool2/3x3_s2
I1028 13:37:41.970371 28216 net.cpp:411] pool2/3x3_s2_pool2/3x3_s2_0_split -> pool2/3x3_s2_pool2/3x3_s2_0_split_0
I1028 13:37:41.970379 28216 net.cpp:411] pool2/3x3_s2_pool2/3x3_s2_0_split -> pool2/3x3_s2_pool2/3x3_s2_0_split_1
I1028 13:37:41.970387 28216 net.cpp:411] pool2/3x3_s2_pool2/3x3_s2_0_split -> pool2/3x3_s2_pool2/3x3_s2_0_split_2
I1028 13:37:41.970396 28216 net.cpp:411] pool2/3x3_s2_pool2/3x3_s2_0_split -> pool2/3x3_s2_pool2/3x3_s2_0_split_3
I1028 13:37:41.970446 28216 net.cpp:150] Setting up pool2/3x3_s2_pool2/3x3_s2_0_split
I1028 13:37:41.970454 28216 net.cpp:157] Top shape: 32 192 28 28 (4816896)
I1028 13:37:41.970459 28216 net.cpp:157] Top shape: 32 192 28 28 (4816896)
I1028 13:37:41.970464 28216 net.cpp:157] Top shape: 32 192 28 28 (4816896)
I1028 13:37:41.970469 28216 net.cpp:157] Top shape: 32 192 28 28 (4816896)
I1028 13:37:41.970474 28216 net.cpp:165] Memory required for data: 655098368
I1028 13:37:41.970477 28216 layer_factory.hpp:76] Creating layer inception_3a/1x1
I1028 13:37:41.970490 28216 net.cpp:106] Creating Layer inception_3a/1x1
I1028 13:37:41.970495 28216 net.cpp:454] inception_3a/1x1 <- pool2/3x3_s2_pool2/3x3_s2_0_split_0
I1028 13:37:41.970504 28216 net.cpp:411] inception_3a/1x1 -> inception_3a/1x1
I1028 13:37:41.972499 28216 cudnn_conv_layer.cpp:194] Reallocating workspace storage: 20664
I1028 13:37:41.972538 28216 net.cpp:150] Setting up inception_3a/1x1
I1028 13:37:41.972563 28216 net.cpp:157] Top shape: 32 64 28 28 (1605632)
I1028 13:37:41.972568 28216 net.cpp:165] Memory required for data: 661520896
I1028 13:37:41.972579 28216 layer_factory.hpp:76] Creating layer inception_3a/prelu_1x1
I1028 13:37:41.972591 28216 net.cpp:106] Creating Layer inception_3a/prelu_1x1
I1028 13:37:41.972599 28216 net.cpp:454] inception_3a/prelu_1x1 <- inception_3a/1x1
I1028 13:37:41.972620 28216 net.cpp:397] inception_3a/prelu_1x1 -> inception_3a/1x1 (in-place)
I1028 13:37:41.973326 28216 net.cpp:150] Setting up inception_3a/prelu_1x1
I1028 13:37:41.973345 28216 net.cpp:157] Top shape: 32 64 28 28 (1605632)
I1028 13:37:41.973350 28216 net.cpp:165] Memory required for data: 667943424
I1028 13:37:41.973356 28216 layer_factory.hpp:76] Creating layer inception_3a/3x3_reduce
I1028 13:37:41.973383 28216 net.cpp:106] Creating Layer inception_3a/3x3_reduce
I1028 13:37:41.973388 28216 net.cpp:454] inception_3a/3x3_reduce <- pool2/3x3_s2_pool2/3x3_s2_0_split_1
I1028 13:37:41.973397 28216 net.cpp:411] inception_3a/3x3_reduce -> inception_3a/3x3_reduce
I1028 13:37:41.974598 28216 cudnn_conv_layer.cpp:194] Reallocating workspace storage: 20664
I1028 13:37:41.974627 28216 net.cpp:150] Setting up inception_3a/3x3_reduce
I1028 13:37:41.974647 28216 net.cpp:157] Top shape: 32 96 28 28 (2408448)
I1028 13:37:41.974673 28216 net.cpp:165] Memory required for data: 677577216
I1028 13:37:41.974683 28216 layer_factory.hpp:76] Creating layer inception_3a/prelu_3x3_reduce
I1028 13:37:41.974700 28216 net.cpp:106] Creating Layer inception_3a/prelu_3x3_reduce
I1028 13:37:41.974706 28216 net.cpp:454] inception_3a/prelu_3x3_reduce <- inception_3a/3x3_reduce
I1028 13:37:41.974714 28216 net.cpp:397] inception_3a/prelu_3x3_reduce -> inception_3a/3x3_reduce (in-place)
I1028 13:37:41.974876 28216 net.cpp:150] Setting up inception_3a/prelu_3x3_reduce
I1028 13:37:41.974887 28216 net.cpp:157] Top shape: 32 96 28 28 (2408448)
I1028 13:37:41.974891 28216 net.cpp:165] Memory required for data: 687211008
I1028 13:37:41.974896 28216 layer_factory.hpp:76] Creating layer inception_3a/3x3
I1028 13:37:41.974907 28216 net.cpp:106] Creating Layer inception_3a/3x3
I1028 13:37:41.974911 28216 net.cpp:454] inception_3a/3x3 <- inception_3a/3x3_reduce
I1028 13:37:41.974918 28216 net.cpp:411] inception_3a/3x3 -> inception_3a/3x3
I1028 13:37:41.977455 28216 cudnn_conv_layer.cpp:194] Reallocating workspace storage: 20664
I1028 13:37:41.977489 28216 net.cpp:150] Setting up inception_3a/3x3
I1028 13:37:41.977509 28216 net.cpp:157] Top shape: 32 128 28 28 (3211264)
I1028 13:37:41.977512 28216 net.cpp:165] Memory required for data: 700056064
I1028 13:37:41.977529 28216 layer_factory.hpp:76] Creating layer inception_3a/prelu_3x3
I1028 13:37:41.977541 28216 net.cpp:106] Creating Layer inception_3a/prelu_3x3
I1028 13:37:41.977569 28216 net.cpp:454] inception_3a/prelu_3x3 <- inception_3a/3x3
I1028 13:37:41.977578 28216 net.cpp:397] inception_3a/prelu_3x3 -> inception_3a/3x3 (in-place)
I1028 13:37:41.977730 28216 net.cpp:150] Setting up inception_3a/prelu_3x3
I1028 13:37:41.977740 28216 net.cpp:157] Top shape: 32 128 28 28 (3211264)
I1028 13:37:41.977743 28216 net.cpp:165] Memory required for data: 712901120
I1028 13:37:41.977759 28216 layer_factory.hpp:76] Creating layer inception_3a/5x5_reduce
I1028 13:37:41.977771 28216 net.cpp:106] Creating Layer inception_3a/5x5_reduce
I1028 13:37:41.977777 28216 net.cpp:454] inception_3a/5x5_reduce <- pool2/3x3_s2_pool2/3x3_s2_0_split_2
I1028 13:37:41.977785 28216 net.cpp:411] inception_3a/5x5_reduce -> inception_3a/5x5_reduce
I1028 13:37:41.979135 28216 cudnn_conv_layer.cpp:194] Reallocating workspace storage: 20664
I1028 13:37:41.979161 28216 net.cpp:150] Setting up inception_3a/5x5_reduce
I1028 13:37:41.979169 28216 net.cpp:157] Top shape: 32 16 28 28 (401408)
I1028 13:37:41.979173 28216 net.cpp:165] Memory required for data: 714506752
I1028 13:37:41.979192 28216 layer_factory.hpp:76] Creating layer inception_3a/prelu_5x5_reduce
I1028 13:37:41.979204 28216 net.cpp:106] Creating Layer inception_3a/prelu_5x5_reduce
I1028 13:37:41.979210 28216 net.cpp:454] inception_3a/prelu_5x5_reduce <- inception_3a/5x5_reduce
I1028 13:37:41.979219 28216 net.cpp:397] inception_3a/prelu_5x5_reduce -> inception_3a/5x5_reduce (in-place)
I1028 13:37:41.979312 28216 net.cpp:150] Setting up inception_3a/prelu_5x5_reduce
I1028 13:37:41.979321 28216 net.cpp:157] Top shape: 32 16 28 28 (401408)
I1028 13:37:41.979326 28216 net.cpp:165] Memory required for data: 716112384
I1028 13:37:41.979331 28216 layer_factory.hpp:76] Creating layer inception_3a/5x5
I1028 13:37:41.979341 28216 net.cpp:106] Creating Layer inception_3a/5x5
I1028 13:37:41.979347 28216 net.cpp:454] inception_3a/5x5 <- inception_3a/5x5_reduce
I1028 13:37:41.979354 28216 net.cpp:411] inception_3a/5x5 -> inception_3a/5x5
I1028 13:37:41.980453 28216 cudnn_conv_layer.cpp:194] Reallocating workspace storage: 20664
I1028 13:37:41.980473 28216 net.cpp:150] Setting up inception_3a/5x5
I1028 13:37:41.980484 28216 net.cpp:157] Top shape: 32 32 28 28 (802816)
I1028 13:37:41.980487 28216 net.cpp:165] Memory required for data: 719323648
I1028 13:37:41.980495 28216 layer_factory.hpp:76] Creating layer inception_3a/prelu_5x5
I1028 13:37:41.980504 28216 net.cpp:106] Creating Layer inception_3a/prelu_5x5
I1028 13:37:41.980509 28216 net.cpp:454] inception_3a/prelu_5x5 <- inception_3a/5x5
I1028 13:37:41.980517 28216 net.cpp:397] inception_3a/prelu_5x5 -> inception_3a/5x5 (in-place)
I1028 13:37:41.980634 28216 net.cpp:150] Setting up inception_3a/prelu_5x5
I1028 13:37:41.980645 28216 net.cpp:157] Top shape: 32 32 28 28 (802816)
I1028 13:37:41.980650 28216 net.cpp:165] Memory required for data: 722534912
I1028 13:37:41.980656 28216 layer_factory.hpp:76] Creating layer inception_3a/pool
I1028 13:37:41.980664 28216 net.cpp:106] Creating Layer inception_3a/pool
I1028 13:37:41.980670 28216 net.cpp:454] inception_3a/pool <- pool2/3x3_s2_pool2/3x3_s2_0_split_3
I1028 13:37:41.980676 28216 net.cpp:411] inception_3a/pool -> inception_3a/pool
I1028 13:37:41.980865 28216 net.cpp:150] Setting up inception_3a/pool
I1028 13:37:41.980875 28216 net.cpp:157] Top shape: 32 192 28 28 (4816896)
I1028 13:37:41.980878 28216 net.cpp:165] Memory required for data: 741802496
I1028 13:37:41.980882 28216 layer_factory.hpp:76] Creating layer inception_3a/pool_proj
I1028 13:37:41.980892 28216 net.cpp:106] Creating Layer inception_3a/pool_proj
I1028 13:37:41.980898 28216 net.cpp:454] inception_3a/pool_proj <- inception_3a/pool
I1028 13:37:41.980906 28216 net.cpp:411] inception_3a/pool_proj -> inception_3a/pool_proj
I1028 13:37:41.981931 28216 cudnn_conv_layer.cpp:194] Reallocating workspace storage: 20664
I1028 13:37:41.981951 28216 net.cpp:150] Setting up inception_3a/pool_proj
I1028 13:37:41.981959 28216 net.cpp:157] Top shape: 32 32 28 28 (802816)
I1028 13:37:41.981963 28216 net.cpp:165] Memory required for data: 745013760
I1028 13:37:41.981971 28216 layer_factory.hpp:76] Creating layer inception_3a/prelu_pool_proj
I1028 13:37:41.981978 28216 net.cpp:106] Creating Layer inception_3a/prelu_pool_proj
I1028 13:37:41.981983 28216 net.cpp:454] inception_3a/prelu_pool_proj <- inception_3a/pool_proj
I1028 13:37:41.981992 28216 net.cpp:397] inception_3a/prelu_pool_proj -> inception_3a/pool_proj (in-place)
I1028 13:37:41.982105 28216 net.cpp:150] Setting up inception_3a/prelu_pool_proj
I1028 13:37:41.982115 28216 net.cpp:157] Top shape: 32 32 28 28 (802816)
I1028 13:37:41.982120 28216 net.cpp:165] Memory required for data: 748225024
I1028 13:37:41.982125 28216 layer_factory.hpp:76] Creating layer inception_3a/output
I1028 13:37:41.982136 28216 net.cpp:106] Creating Layer inception_3a/output
I1028 13:37:41.982142 28216 net.cpp:454] inception_3a/output <- inception_3a/1x1
I1028 13:37:41.982147 28216 net.cpp:454] inception_3a/output <- inception_3a/3x3
I1028 13:37:41.982152 28216 net.cpp:454] inception_3a/output <- inception_3a/5x5
I1028 13:37:41.982156 28216 net.cpp:454] inception_3a/output <- inception_3a/pool_proj
I1028 13:37:41.982161 28216 net.cpp:411] inception_3a/output -> inception_3a/output
I1028 13:37:41.982192 28216 net.cpp:150] Setting up inception_3a/output
I1028 13:37:41.982202 28216 net.cpp:157] Top shape: 32 256 28 28 (6422528)
I1028 13:37:41.982205 28216 net.cpp:165] Memory required for data: 773915136
I1028 13:37:41.982209 28216 layer_factory.hpp:76] Creating layer inception_3a/output_inception_3a/output_0_split
I1028 13:37:41.982219 28216 net.cpp:106] Creating Layer inception_3a/output_inception_3a/output_0_split
I1028 13:37:41.982224 28216 net.cpp:454] inception_3a/output_inception_3a/output_0_split <- inception_3a/output
I1028 13:37:41.982230 28216 net.cpp:411] inception_3a/output_inception_3a/output_0_split -> inception_3a/output_inception_3a/output_0_split_0
I1028 13:37:41.982237 28216 net.cpp:411] inception_3a/output_inception_3a/output_0_split -> inception_3a/output_inception_3a/output_0_split_1
I1028 13:37:41.982244 28216 net.cpp:411] inception_3a/output_inception_3a/output_0_split -> inception_3a/output_inception_3a/output_0_split_2
I1028 13:37:41.982250 28216 net.cpp:411] inception_3a/output_inception_3a/output_0_split -> inception_3a/output_inception_3a/output_0_split_3
I1028 13:37:41.982311 28216 net.cpp:150] Setting up inception_3a/output_inception_3a/output_0_split
I1028 13:37:41.982318 28216 net.cpp:157] Top shape: 32 256 28 28 (6422528)
I1028 13:37:41.982323 28216 net.cpp:157] Top shape: 32 256 28 28 (6422528)
I1028 13:37:41.982338 28216 net.cpp:157] Top shape: 32 256 28 28 (6422528)
I1028 13:37:41.982364 28216 net.cpp:157] Top shape: 32 256 28 28 (6422528)
I1028 13:37:41.982369 28216 net.cpp:165] Memory required for data: 876675584
I1028 13:37:41.982383 28216 layer_factory.hpp:76] Creating layer inception_3b/1x1
I1028 13:37:41.982393 28216 net.cpp:106] Creating Layer inception_3b/1x1
I1028 13:37:41.982398 28216 net.cpp:454] inception_3b/1x1 <- inception_3a/output_inception_3a/output_0_split_0
I1028 13:37:41.982405 28216 net.cpp:411] inception_3b/1x1 -> inception_3b/1x1
I1028 13:37:41.983595 28216 cudnn_conv_layer.cpp:194] Reallocating workspace storage: 20664
I1028 13:37:41.983613 28216 net.cpp:150] Setting up inception_3b/1x1
I1028 13:37:41.983621 28216 net.cpp:157] Top shape: 32 128 28 28 (3211264)
I1028 13:37:41.983625 28216 net.cpp:165] Memory required for data: 889520640
I1028 13:37:41.983633 28216 layer_factory.hpp:76] Creating layer inception_3b/prelu_1x1
I1028 13:37:41.983641 28216 net.cpp:106] Creating Layer inception_3b/prelu_1x1
I1028 13:37:41.983646 28216 net.cpp:454] inception_3b/prelu_1x1 <- inception_3b/1x1
I1028 13:37:41.983654 28216 net.cpp:397] inception_3b/prelu_1x1 -> inception_3b/1x1 (in-place)
I1028 13:37:41.984310 28216 net.cpp:150] Setting up inception_3b/prelu_1x1
I1028 13:37:41.984323 28216 net.cpp:157] Top shape: 32 128 28 28 (3211264)
I1028 13:37:41.984328 28216 net.cpp:165] Memory required for data: 902365696
I1028 13:37:41.984333 28216 layer_factory.hpp:76] Creating layer inception_3b/3x3_reduce
I1028 13:37:41.984344 28216 net.cpp:106] Creating Layer inception_3b/3x3_reduce
I1028 13:37:41.984349 28216 net.cpp:454] inception_3b/3x3_reduce <- inception_3a/output_inception_3a/output_0_split_1
I1028 13:37:41.984359 28216 net.cpp:411] inception_3b/3x3_reduce -> inception_3b/3x3_reduce
I1028 13:37:41.985580 28216 cudnn_conv_layer.cpp:194] Reallocating workspace storage: 20664
I1028 13:37:41.985601 28216 net.cpp:150] Setting up inception_3b/3x3_reduce
I1028 13:37:41.985610 28216 net.cpp:157] Top shape: 32 128 28 28 (3211264)
I1028 13:37:41.985613 28216 net.cpp:165] Memory required for data: 915210752
I1028 13:37:41.985620 28216 layer_factory.hpp:76] Creating layer inception_3b/prelu_3x3_reduce
I1028 13:37:41.985630 28216 net.cpp:106] Creating Layer inception_3b/prelu_3x3_reduce
I1028 13:37:41.985646 28216 net.cpp:454] inception_3b/prelu_3x3_reduce <- inception_3b/3x3_reduce
I1028 13:37:41.985652 28216 net.cpp:397] inception_3b/prelu_3x3_reduce -> inception_3b/3x3_reduce (in-place)
I1028 13:37:41.985832 28216 net.cpp:150] Setting up inception_3b/prelu_3x3_reduce
I1028 13:37:41.985843 28216 net.cpp:157] Top shape: 32 128 28 28 (3211264)
I1028 13:37:41.985847 28216 net.cpp:165] Memory required for data: 928055808
I1028 13:37:41.985873 28216 layer_factory.hpp:76] Creating layer inception_3b/3x3
I1028 13:37:41.985893 28216 net.cpp:106] Creating Layer inception_3b/3x3
I1028 13:37:41.985899 28216 net.cpp:454] inception_3b/3x3 <- inception_3b/3x3_reduce
I1028 13:37:41.985927 28216 net.cpp:411] inception_3b/3x3 -> inception_3b/3x3
I1028 13:37:41.989037 28216 cudnn_conv_layer.cpp:194] Reallocating workspace storage: 20664
I1028 13:37:41.989074 28216 net.cpp:150] Setting up inception_3b/3x3
I1028 13:37:41.989085 28216 net.cpp:157] Top shape: 32 192 28 28 (4816896)
I1028 13:37:41.989090 28216 net.cpp:165] Memory required for data: 947323392
I1028 13:37:41.989100 28216 layer_factory.hpp:76] Creating layer inception_3b/prelu_3x3
I1028 13:37:41.989114 28216 net.cpp:106] Creating Layer inception_3b/prelu_3x3
I1028 13:37:41.989120 28216 net.cpp:454] inception_3b/prelu_3x3 <- inception_3b/3x3
I1028 13:37:41.989130 28216 net.cpp:397] inception_3b/prelu_3x3 -> inception_3b/3x3 (in-place)
I1028 13:37:41.989806 28216 net.cpp:150] Setting up inception_3b/prelu_3x3
I1028 13:37:41.989825 28216 net.cpp:157] Top shape: 32 192 28 28 (4816896)
I1028 13:37:41.989830 28216 net.cpp:165] Memory required for data: 966590976
I1028 13:37:41.989836 28216 layer_factory.hpp:76] Creating layer inception_3b/5x5_reduce
I1028 13:37:41.989847 28216 net.cpp:106] Creating Layer inception_3b/5x5_reduce
I1028 13:37:41.989866 28216 net.cpp:454] inception_3b/5x5_reduce <- inception_3a/output_inception_3a/output_0_split_2
I1028 13:37:41.989876 28216 net.cpp:411] inception_3b/5x5_reduce -> inception_3b/5x5_reduce
I1028 13:37:41.990847 28216 cudnn_conv_layer.cpp:194] Reallocating workspace storage: 20664
I1028 13:37:41.990875 28216 net.cpp:150] Setting up inception_3b/5x5_reduce
I1028 13:37:41.990883 28216 net.cpp:157] Top shape: 32 32 28 28 (802816)
I1028 13:37:41.990888 28216 net.cpp:165] Memory required for data: 969802240
I1028 13:37:41.990896 28216 layer_factory.hpp:76] Creating layer inception_3b/prelu_5x5_reduce
I1028 13:37:41.990906 28216 net.cpp:106] Creating Layer inception_3b/prelu_5x5_reduce
I1028 13:37:41.990912 28216 net.cpp:454] inception_3b/prelu_5x5_reduce <- inception_3b/5x5_reduce
I1028 13:37:41.990921 28216 net.cpp:397] inception_3b/prelu_5x5_reduce -> inception_3b/5x5_reduce (in-place)
I1028 13:37:41.991029 28216 net.cpp:150] Setting up inception_3b/prelu_5x5_reduce
I1028 13:37:41.991039 28216 net.cpp:157] Top shape: 32 32 28 28 (802816)
I1028 13:37:41.991042 28216 net.cpp:165] Memory required for data: 973013504
I1028 13:37:41.991049 28216 layer_factory.hpp:76] Creating layer inception_3b/5x5
I1028 13:37:41.991060 28216 net.cpp:106] Creating Layer inception_3b/5x5
I1028 13:37:41.991066 28216 net.cpp:454] inception_3b/5x5 <- inception_3b/5x5_reduce
I1028 13:37:41.991072 28216 net.cpp:411] inception_3b/5x5 -> inception_3b/5x5
I1028 13:37:41.992617 28216 cudnn_conv_layer.cpp:194] Reallocating workspace storage: 20664
I1028 13:37:41.992645 28216 net.cpp:150] Setting up inception_3b/5x5
I1028 13:37:41.992665 28216 net.cpp:157] Top shape: 32 96 28 28 (2408448)
I1028 13:37:41.992669 28216 net.cpp:165] Memory required for data: 982647296
I1028 13:37:41.992677 28216 layer_factory.hpp:76] Creating layer inception_3b/prelu_5x5
I1028 13:37:41.992697 28216 net.cpp:106] Creating Layer inception_3b/prelu_5x5
I1028 13:37:41.992714 28216 net.cpp:454] inception_3b/prelu_5x5 <- inception_3b/5x5
I1028 13:37:41.992722 28216 net.cpp:397] inception_3b/prelu_5x5 -> inception_3b/5x5 (in-place)
I1028 13:37:41.992911 28216 net.cpp:150] Setting up inception_3b/prelu_5x5
I1028 13:37:41.992921 28216 net.cpp:157] Top shape: 32 96 28 28 (2408448)
I1028 13:37:41.992925 28216 net.cpp:165] Memory required for data: 992281088
I1028 13:37:41.992941 28216 layer_factory.hpp:76] Creating layer inception_3b/pool
I1028 13:37:41.992949 28216 net.cpp:106] Creating Layer inception_3b/pool
I1028 13:37:41.992954 28216 net.cpp:454] inception_3b/pool <- inception_3a/output_inception_3a/output_0_split_3
I1028 13:37:41.992971 28216 net.cpp:411] inception_3b/pool -> inception_3b/pool
I1028 13:37:41.993351 28216 net.cpp:150] Setting up inception_3b/pool
I1028 13:37:41.993365 28216 net.cpp:157] Top shape: 32 256 28 28 (6422528)
I1028 13:37:41.993369 28216 net.cpp:165] Memory required for data: 1017971200
I1028 13:37:41.993373 28216 layer_factory.hpp:76] Creating layer inception_3b/pool_proj
I1028 13:37:41.993383 28216 net.cpp:106] Creating Layer inception_3b/pool_proj
I1028 13:37:41.993388 28216 net.cpp:454] inception_3b/pool_proj <- inception_3b/pool
I1028 13:37:41.993396 28216 net.cpp:411] inception_3b/pool_proj -> inception_3b/pool_proj
I1028 13:37:41.994495 28216 cudnn_conv_layer.cpp:194] Reallocating workspace storage: 20664
I1028 13:37:41.994515 28216 net.cpp:150] Setting up inception_3b/pool_proj
I1028 13:37:41.994524 28216 net.cpp:157] Top shape: 32 64 28 28 (1605632)
I1028 13:37:41.994527 28216 net.cpp:165] Memory required for data: 1024393728
I1028 13:37:41.994534 28216 layer_factory.hpp:76] Creating layer inception_3b/prelu_pool_proj
I1028 13:37:41.994544 28216 net.cpp:106] Creating Layer inception_3b/prelu_pool_proj
I1028 13:37:41.994549 28216 net.cpp:454] inception_3b/prelu_pool_proj <- inception_3b/pool_proj
I1028 13:37:41.994555 28216 net.cpp:397] inception_3b/prelu_pool_proj -> inception_3b/pool_proj (in-place)
I1028 13:37:41.994676 28216 net.cpp:150] Setting up inception_3b/prelu_pool_proj
I1028 13:37:41.994699 28216 net.cpp:157] Top shape: 32 64 28 28 (1605632)
I1028 13:37:41.994704 28216 net.cpp:165] Memory required for data: 1030816256
I1028 13:37:41.994709 28216 layer_factory.hpp:76] Creating layer inception_3b/output
I1028 13:37:41.994716 28216 net.cpp:106] Creating Layer inception_3b/output
I1028 13:37:41.994720 28216 net.cpp:454] inception_3b/output <- inception_3b/1x1
I1028 13:37:41.994725 28216 net.cpp:454] inception_3b/output <- inception_3b/3x3
I1028 13:37:41.994730 28216 net.cpp:454] inception_3b/output <- inception_3b/5x5
I1028 13:37:41.994735 28216 net.cpp:454] inception_3b/output <- inception_3b/pool_proj
I1028 13:37:41.994741 28216 net.cpp:411] inception_3b/output -> inception_3b/output
I1028 13:37:41.994766 28216 net.cpp:150] Setting up inception_3b/output
I1028 13:37:41.994774 28216 net.cpp:157] Top shape: 32 480 28 28 (12042240)
I1028 13:37:41.994777 28216 net.cpp:165] Memory required for data: 1078985216
I1028 13:37:41.994781 28216 layer_factory.hpp:76] Creating layer pool3/3x3_s2
I1028 13:37:41.994788 28216 net.cpp:106] Creating Layer pool3/3x3_s2
I1028 13:37:41.994792 28216 net.cpp:454] pool3/3x3_s2 <- inception_3b/output
I1028 13:37:41.994798 28216 net.cpp:411] pool3/3x3_s2 -> pool3/3x3_s2
I1028 13:37:41.995157 28216 net.cpp:150] Setting up pool3/3x3_s2
I1028 13:37:41.995168 28216 net.cpp:157] Top shape: 32 480 14 14 (3010560)
I1028 13:37:41.995172 28216 net.cpp:165] Memory required for data: 1091027456
I1028 13:37:41.995177 28216 layer_factory.hpp:76] Creating layer pool3/3x3_s2_pool3/3x3_s2_0_split
I1028 13:37:41.995183 28216 net.cpp:106] Creating Layer pool3/3x3_s2_pool3/3x3_s2_0_split
I1028 13:37:41.995188 28216 net.cpp:454] pool3/3x3_s2_pool3/3x3_s2_0_split <- pool3/3x3_s2
I1028 13:37:41.995194 28216 net.cpp:411] pool3/3x3_s2_pool3/3x3_s2_0_split -> pool3/3x3_s2_pool3/3x3_s2_0_split_0
I1028 13:37:41.995201 28216 net.cpp:411] pool3/3x3_s2_pool3/3x3_s2_0_split -> pool3/3x3_s2_pool3/3x3_s2_0_split_1
I1028 13:37:41.995208 28216 net.cpp:411] pool3/3x3_s2_pool3/3x3_s2_0_split -> pool3/3x3_s2_pool3/3x3_s2_0_split_2
I1028 13:37:41.995214 28216 net.cpp:411] pool3/3x3_s2_pool3/3x3_s2_0_split -> pool3/3x3_s2_pool3/3x3_s2_0_split_3
I1028 13:37:41.995268 28216 net.cpp:150] Setting up pool3/3x3_s2_pool3/3x3_s2_0_split
I1028 13:37:41.995276 28216 net.cpp:157] Top shape: 32 480 14 14 (3010560)
I1028 13:37:41.995281 28216 net.cpp:157] Top shape: 32 480 14 14 (3010560)
I1028 13:37:41.995286 28216 net.cpp:157] Top shape: 32 480 14 14 (3010560)
I1028 13:37:41.995290 28216 net.cpp:157] Top shape: 32 480 14 14 (3010560)
I1028 13:37:41.995295 28216 net.cpp:165] Memory required for data: 1139196416
I1028 13:37:41.995298 28216 layer_factory.hpp:76] Creating layer inception_4a/1x1
I1028 13:37:41.995307 28216 net.cpp:106] Creating Layer inception_4a/1x1
I1028 13:37:41.995311 28216 net.cpp:454] inception_4a/1x1 <- pool3/3x3_s2_pool3/3x3_s2_0_split_0
I1028 13:37:41.995317 28216 net.cpp:411] inception_4a/1x1 -> inception_4a/1x1
I1028 13:37:41.997282 28216 cudnn_conv_layer.cpp:194] Reallocating workspace storage: 10080
I1028 13:37:41.997483 28216 net.cpp:150] Setting up inception_4a/1x1
I1028 13:37:41.997495 28216 net.cpp:157] Top shape: 32 192 14 14 (1204224)
I1028 13:37:41.997499 28216 net.cpp:165] Memory required for data: 1144013312
I1028 13:37:41.997519 28216 layer_factory.hpp:76] Creating layer inception_4a/prelu_1x1
I1028 13:37:41.997527 28216 net.cpp:106] Creating Layer inception_4a/prelu_1x1
I1028 13:37:41.997534 28216 net.cpp:454] inception_4a/prelu_1x1 <- inception_4a/1x1
I1028 13:37:41.997541 28216 net.cpp:397] inception_4a/prelu_1x1 -> inception_4a/1x1 (in-place)
I1028 13:37:41.998147 28216 net.cpp:150] Setting up inception_4a/prelu_1x1
I1028 13:37:41.998162 28216 net.cpp:157] Top shape: 32 192 14 14 (1204224)
I1028 13:37:41.998177 28216 net.cpp:165] Memory required for data: 1148830208
I1028 13:37:41.998183 28216 layer_factory.hpp:76] Creating layer inception_4a/3x3_reduce
I1028 13:37:41.998196 28216 net.cpp:106] Creating Layer inception_4a/3x3_reduce
I1028 13:37:41.998203 28216 net.cpp:454] inception_4a/3x3_reduce <- pool3/3x3_s2_pool3/3x3_s2_0_split_1
I1028 13:37:41.998247 28216 net.cpp:411] inception_4a/3x3_reduce -> inception_4a/3x3_reduce
I1028 13:37:41.999596 28216 cudnn_conv_layer.cpp:194] Reallocating workspace storage: 10080
I1028 13:37:41.999630 28216 net.cpp:150] Setting up inception_4a/3x3_reduce
I1028 13:37:41.999639 28216 net.cpp:157] Top shape: 32 96 14 14 (602112)
I1028 13:37:41.999644 28216 net.cpp:165] Memory required for data: 1151238656
I1028 13:37:41.999651 28216 layer_factory.hpp:76] Creating layer inception_4a/prelu_3x3_reduce
I1028 13:37:41.999661 28216 net.cpp:106] Creating Layer inception_4a/prelu_3x3_reduce
I1028 13:37:41.999667 28216 net.cpp:454] inception_4a/prelu_3x3_reduce <- inception_4a/3x3_reduce
I1028 13:37:41.999675 28216 net.cpp:397] inception_4a/prelu_3x3_reduce -> inception_4a/3x3_reduce (in-place)
I1028 13:37:41.999770 28216 net.cpp:150] Setting up inception_4a/prelu_3x3_reduce
I1028 13:37:41.999779 28216 net.cpp:157] Top shape: 32 96 14 14 (602112)
I1028 13:37:41.999783 28216 net.cpp:165] Memory required for data: 1153647104
I1028 13:37:41.999789 28216 layer_factory.hpp:76] Creating layer inception_4a/3x3
I1028 13:37:41.999799 28216 net.cpp:106] Creating Layer inception_4a/3x3
I1028 13:37:41.999805 28216 net.cpp:454] inception_4a/3x3 <- inception_4a/3x3_reduce
I1028 13:37:41.999814 28216 net.cpp:411] inception_4a/3x3 -> inception_4a/3x3
I1028 13:37:42.002248 28216 cudnn_conv_layer.cpp:194] Reallocating workspace storage: 10080
I1028 13:37:42.002311 28216 net.cpp:150] Setting up inception_4a/3x3
I1028 13:37:42.002322 28216 net.cpp:157] Top shape: 32 208 14 14 (1304576)
I1028 13:37:42.002326 28216 net.cpp:165] Memory required for data: 1158865408
I1028 13:37:42.002336 28216 layer_factory.hpp:76] Creating layer inception_4a/prelu_3x3
I1028 13:37:42.002348 28216 net.cpp:106] Creating Layer inception_4a/prelu_3x3
I1028 13:37:42.002354 28216 net.cpp:454] inception_4a/prelu_3x3 <- inception_4a/3x3
I1028 13:37:42.002362 28216 net.cpp:397] inception_4a/prelu_3x3 -> inception_4a/3x3 (in-place)
I1028 13:37:42.002485 28216 net.cpp:150] Setting up inception_4a/prelu_3x3
I1028 13:37:42.002496 28216 net.cpp:157] Top shape: 32 208 14 14 (1304576)
I1028 13:37:42.002499 28216 net.cpp:165] Memory required for data: 1164083712
I1028 13:37:42.002506 28216 layer_factory.hpp:76] Creating layer inception_4a/5x5_reduce
I1028 13:37:42.002519 28216 net.cpp:106] Creating Layer inception_4a/5x5_reduce
I1028 13:37:42.002526 28216 net.cpp:454] inception_4a/5x5_reduce <- pool3/3x3_s2_pool3/3x3_s2_0_split_2
I1028 13:37:42.002534 28216 net.cpp:411] inception_4a/5x5_reduce -> inception_4a/5x5_reduce
I1028 13:37:42.003639 28216 cudnn_conv_layer.cpp:194] Reallocating workspace storage: 10080
I1028 13:37:42.003672 28216 net.cpp:150] Setting up inception_4a/5x5_reduce
I1028 13:37:42.003681 28216 net.cpp:157] Top shape: 32 16 14 14 (100352)
I1028 13:37:42.003687 28216 net.cpp:165] Memory required for data: 1164485120
I1028 13:37:42.003695 28216 layer_factory.hpp:76] Creating layer inception_4a/prelu_5x5_reduce
I1028 13:37:42.003705 28216 net.cpp:106] Creating Layer inception_4a/prelu_5x5_reduce
I1028 13:37:42.003710 28216 net.cpp:454] inception_4a/prelu_5x5_reduce <- inception_4a/5x5_reduce
I1028 13:37:42.003716 28216 net.cpp:397] inception_4a/prelu_5x5_reduce -> inception_4a/5x5_reduce (in-place)
I1028 13:37:42.003804 28216 net.cpp:150] Setting up inception_4a/prelu_5x5_reduce
I1028 13:37:42.003813 28216 net.cpp:157] Top shape: 32 16 14 14 (100352)
I1028 13:37:42.003818 28216 net.cpp:165] Memory required for data: 1164886528
I1028 13:37:42.003823 28216 layer_factory.hpp:76] Creating layer inception_4a/5x5
I1028 13:37:42.003834 28216 net.cpp:106] Creating Layer inception_4a/5x5
I1028 13:37:42.003839 28216 net.cpp:454] inception_4a/5x5 <- inception_4a/5x5_reduce
I1028 13:37:42.003846 28216 net.cpp:411] inception_4a/5x5 -> inception_4a/5x5
I1028 13:37:42.004989 28216 cudnn_conv_layer.cpp:194] Reallocating workspace storage: 13080
I1028 13:37:42.005020 28216 net.cpp:150] Setting up inception_4a/5x5
I1028 13:37:42.005030 28216 net.cpp:157] Top shape: 32 48 14 14 (301056)
I1028 13:37:42.005056 28216 net.cpp:165] Memory required for data: 1166090752
I1028 13:37:42.005064 28216 layer_factory.hpp:76] Creating layer inception_4a/prelu_5x5
I1028 13:37:42.005076 28216 net.cpp:106] Creating Layer inception_4a/prelu_5x5
I1028 13:37:42.005082 28216 net.cpp:454] inception_4a/prelu_5x5 <- inception_4a/5x5
I1028 13:37:42.005089 28216 net.cpp:397] inception_4a/prelu_5x5 -> inception_4a/5x5 (in-place)
I1028 13:37:42.005183 28216 net.cpp:150] Setting up inception_4a/prelu_5x5
I1028 13:37:42.005192 28216 net.cpp:157] Top shape: 32 48 14 14 (301056)
I1028 13:37:42.005197 28216 net.cpp:165] Memory required for data: 1167294976
I1028 13:37:42.005203 28216 layer_factory.hpp:76] Creating layer inception_4a/pool
I1028 13:37:42.005209 28216 net.cpp:106] Creating Layer inception_4a/pool
I1028 13:37:42.005214 28216 net.cpp:454] inception_4a/pool <- pool3/3x3_s2_pool3/3x3_s2_0_split_3
I1028 13:37:42.005223 28216 net.cpp:411] inception_4a/pool -> inception_4a/pool
I1028 13:37:42.005591 28216 net.cpp:150] Setting up inception_4a/pool
I1028 13:37:42.005604 28216 net.cpp:157] Top shape: 32 480 14 14 (3010560)
I1028 13:37:42.005607 28216 net.cpp:165] Memory required for data: 1179337216
I1028 13:37:42.005611 28216 layer_factory.hpp:76] Creating layer inception_4a/pool_proj
I1028 13:37:42.005622 28216 net.cpp:106] Creating Layer inception_4a/pool_proj
I1028 13:37:42.005627 28216 net.cpp:454] inception_4a/pool_proj <- inception_4a/pool
I1028 13:37:42.005635 28216 net.cpp:411] inception_4a/pool_proj -> inception_4a/pool_proj
I1028 13:37:42.006657 28216 cudnn_conv_layer.cpp:194] Reallocating workspace storage: 10080
I1028 13:37:42.006690 28216 net.cpp:150] Setting up inception_4a/pool_proj
I1028 13:37:42.006698 28216 net.cpp:157] Top shape: 32 64 14 14 (401408)
I1028 13:37:42.006703 28216 net.cpp:165] Memory required for data: 1180942848
I1028 13:37:42.006711 28216 layer_factory.hpp:76] Creating layer inception_4a/prelu_pool_proj
I1028 13:37:42.006719 28216 net.cpp:106] Creating Layer inception_4a/prelu_pool_proj
I1028 13:37:42.006726 28216 net.cpp:454] inception_4a/prelu_pool_proj <- inception_4a/pool_proj
I1028 13:37:42.006733 28216 net.cpp:397] inception_4a/prelu_pool_proj -> inception_4a/pool_proj (in-place)
I1028 13:37:42.006850 28216 net.cpp:150] Setting up inception_4a/prelu_pool_proj
I1028 13:37:42.006861 28216 net.cpp:157] Top shape: 32 64 14 14 (401408)
I1028 13:37:42.006865 28216 net.cpp:165] Memory required for data: 1182548480
I1028 13:37:42.006870 28216 layer_factory.hpp:76] Creating layer inception_4a/output
I1028 13:37:42.006878 28216 net.cpp:106] Creating Layer inception_4a/output
I1028 13:37:42.006885 28216 net.cpp:454] inception_4a/output <- inception_4a/1x1
I1028 13:37:42.006889 28216 net.cpp:454] inception_4a/output <- inception_4a/3x3
I1028 13:37:42.006894 28216 net.cpp:454] inception_4a/output <- inception_4a/5x5
I1028 13:37:42.006901 28216 net.cpp:454] inception_4a/output <- inception_4a/pool_proj
I1028 13:37:42.006908 28216 net.cpp:411] inception_4a/output -> inception_4a/output
I1028 13:37:42.006935 28216 net.cpp:150] Setting up inception_4a/output
I1028 13:37:42.006943 28216 net.cpp:157] Top shape: 32 512 14 14 (3211264)
I1028 13:37:42.006947 28216 net.cpp:165] Memory required for data: 1195393536
I1028 13:37:42.006952 28216 layer_factory.hpp:76] Creating layer inception_4a/output_inception_4a/output_0_split
I1028 13:37:42.006970 28216 net.cpp:106] Creating Layer inception_4a/output_inception_4a/output_0_split
I1028 13:37:42.006975 28216 net.cpp:454] inception_4a/output_inception_4a/output_0_split <- inception_4a/output
I1028 13:37:42.006992 28216 net.cpp:411] inception_4a/output_inception_4a/output_0_split -> inception_4a/output_inception_4a/output_0_split_0
I1028 13:37:42.006999 28216 net.cpp:411] inception_4a/output_inception_4a/output_0_split -> inception_4a/output_inception_4a/output_0_split_1
I1028 13:37:42.007009 28216 net.cpp:411] inception_4a/output_inception_4a/output_0_split -> inception_4a/output_inception_4a/output_0_split_2
I1028 13:37:42.007030 28216 net.cpp:411] inception_4a/output_inception_4a/output_0_split -> inception_4a/output_inception_4a/output_0_split_3
I1028 13:37:42.007037 28216 net.cpp:411] inception_4a/output_inception_4a/output_0_split -> inception_4a/output_inception_4a/output_0_split_4
I1028 13:37:42.007102 28216 net.cpp:150] Setting up inception_4a/output_inception_4a/output_0_split
I1028 13:37:42.007110 28216 net.cpp:157] Top shape: 32 512 14 14 (3211264)
I1028 13:37:42.007115 28216 net.cpp:157] Top shape: 32 512 14 14 (3211264)
I1028 13:37:42.007120 28216 net.cpp:157] Top shape: 32 512 14 14 (3211264)
I1028 13:37:42.007125 28216 net.cpp:157] Top shape: 32 512 14 14 (3211264)
I1028 13:37:42.007129 28216 net.cpp:157] Top shape: 32 512 14 14 (3211264)
I1028 13:37:42.007133 28216 net.cpp:165] Memory required for data: 1259618816
I1028 13:37:42.007138 28216 layer_factory.hpp:76] Creating layer loss1/ave_pool
I1028 13:37:42.007145 28216 net.cpp:106] Creating Layer loss1/ave_pool
I1028 13:37:42.007150 28216 net.cpp:454] loss1/ave_pool <- inception_4a/output_inception_4a/output_0_split_0
I1028 13:37:42.007155 28216 net.cpp:411] loss1/ave_pool -> loss1/ave_pool
I1028 13:37:42.007514 28216 net.cpp:150] Setting up loss1/ave_pool
I1028 13:37:42.007527 28216 net.cpp:157] Top shape: 32 512 4 4 (262144)
I1028 13:37:42.007532 28216 net.cpp:165] Memory required for data: 1260667392
I1028 13:37:42.007537 28216 layer_factory.hpp:76] Creating layer loss1/conv
I1028 13:37:42.007547 28216 net.cpp:106] Creating Layer loss1/conv
I1028 13:37:42.007552 28216 net.cpp:454] loss1/conv <- loss1/ave_pool
I1028 13:37:42.007561 28216 net.cpp:411] loss1/conv -> loss1/conv
I1028 13:37:42.009037 28216 cudnn_conv_layer.cpp:194] Reallocating workspace storage: 6840
I1028 13:37:42.009069 28216 net.cpp:150] Setting up loss1/conv
I1028 13:37:42.009088 28216 net.cpp:157] Top shape: 32 128 4 4 (65536)
I1028 13:37:42.009093 28216 net.cpp:165] Memory required for data: 1260929536
I1028 13:37:42.009121 28216 layer_factory.hpp:76] Creating layer loss1/prelu_conv
I1028 13:37:42.009131 28216 net.cpp:106] Creating Layer loss1/prelu_conv
I1028 13:37:42.009137 28216 net.cpp:454] loss1/prelu_conv <- loss1/conv
I1028 13:37:42.009148 28216 net.cpp:397] loss1/prelu_conv -> loss1/conv (in-place)
I1028 13:37:42.009243 28216 net.cpp:150] Setting up loss1/prelu_conv
I1028 13:37:42.009253 28216 net.cpp:157] Top shape: 32 128 4 4 (65536)
I1028 13:37:42.009256 28216 net.cpp:165] Memory required for data: 1261191680
I1028 13:37:42.009263 28216 layer_factory.hpp:76] Creating layer loss1/fc
I1028 13:37:42.009274 28216 net.cpp:106] Creating Layer loss1/fc
I1028 13:37:42.009279 28216 net.cpp:454] loss1/fc <- loss1/conv
I1028 13:37:42.009286 28216 net.cpp:411] loss1/fc -> loss1/fc
I1028 13:37:42.025312 28216 net.cpp:150] Setting up loss1/fc
I1028 13:37:42.025382 28216 net.cpp:157] Top shape: 32 1024 (32768)
I1028 13:37:42.025388 28216 net.cpp:165] Memory required for data: 1261322752
I1028 13:37:42.025399 28216 layer_factory.hpp:76] Creating layer loss1/prelu_fc
I1028 13:37:42.025415 28216 net.cpp:106] Creating Layer loss1/prelu_fc
I1028 13:37:42.025424 28216 net.cpp:454] loss1/prelu_fc <- loss1/fc
I1028 13:37:42.025434 28216 net.cpp:397] loss1/prelu_fc -> loss1/fc (in-place)
I1028 13:37:42.025539 28216 net.cpp:150] Setting up loss1/prelu_fc
I1028 13:37:42.025550 28216 net.cpp:157] Top shape: 32 1024 (32768)
I1028 13:37:42.025554 28216 net.cpp:165] Memory required for data: 1261453824
I1028 13:37:42.025559 28216 layer_factory.hpp:76] Creating layer loss1/drop_fc
I1028 13:37:42.025583 28216 net.cpp:106] Creating Layer loss1/drop_fc
I1028 13:37:42.025588 28216 net.cpp:454] loss1/drop_fc <- loss1/fc
I1028 13:37:42.025594 28216 net.cpp:397] loss1/drop_fc -> loss1/fc (in-place)
I1028 13:37:42.025636 28216 net.cpp:150] Setting up loss1/drop_fc
I1028 13:37:42.025645 28216 net.cpp:157] Top shape: 32 1024 (32768)
I1028 13:37:42.025650 28216 net.cpp:165] Memory required for data: 1261584896
I1028 13:37:42.025655 28216 layer_factory.hpp:76] Creating layer loss1/classifier2
I1028 13:37:42.025663 28216 net.cpp:106] Creating Layer loss1/classifier2
I1028 13:37:42.025686 28216 net.cpp:454] loss1/classifier2 <- loss1/fc
I1028 13:37:42.025694 28216 net.cpp:411] loss1/classifier2 -> loss1/classifier
I1028 13:37:42.025818 28216 net.cpp:150] Setting up loss1/classifier2
I1028 13:37:42.025830 28216 net.cpp:157] Top shape: 32 2 (64)
I1028 13:37:42.025833 28216 net.cpp:165] Memory required for data: 1261585152
I1028 13:37:42.025841 28216 layer_factory.hpp:76] Creating layer loss1/loss
I1028 13:37:42.025851 28216 net.cpp:106] Creating Layer loss1/loss
I1028 13:37:42.025856 28216 net.cpp:454] loss1/loss <- loss1/classifier
I1028 13:37:42.025862 28216 net.cpp:454] loss1/loss <- label_data_1_split_0
I1028 13:37:42.025868 28216 net.cpp:411] loss1/loss -> loss1/loss1
I1028 13:37:42.025882 28216 layer_factory.hpp:76] Creating layer loss1/loss
I1028 13:37:42.026231 28216 net.cpp:150] Setting up loss1/loss
I1028 13:37:42.026248 28216 net.cpp:157] Top shape: (1)
I1028 13:37:42.026253 28216 net.cpp:160]     with loss weight 0.3
I1028 13:37:42.026281 28216 net.cpp:165] Memory required for data: 1261585156
I1028 13:37:42.026288 28216 layer_factory.hpp:76] Creating layer inception_4b/1x1
I1028 13:37:42.026303 28216 net.cpp:106] Creating Layer inception_4b/1x1
I1028 13:37:42.026309 28216 net.cpp:454] inception_4b/1x1 <- inception_4a/output_inception_4a/output_0_split_1
I1028 13:37:42.026319 28216 net.cpp:411] inception_4b/1x1 -> inception_4b/1x1
I1028 13:37:42.028138 28216 cudnn_conv_layer.cpp:194] Reallocating workspace storage: 10080
I1028 13:37:42.028178 28216 net.cpp:150] Setting up inception_4b/1x1
I1028 13:37:42.028188 28216 net.cpp:157] Top shape: 32 160 14 14 (1003520)
I1028 13:37:42.028193 28216 net.cpp:165] Memory required for data: 1265599236
I1028 13:37:42.028201 28216 layer_factory.hpp:76] Creating layer inception_4b/prelu_1x1
I1028 13:37:42.028213 28216 net.cpp:106] Creating Layer inception_4b/prelu_1x1
I1028 13:37:42.028230 28216 net.cpp:454] inception_4b/prelu_1x1 <- inception_4b/1x1
I1028 13:37:42.028249 28216 net.cpp:397] inception_4b/prelu_1x1 -> inception_4b/1x1 (in-place)
I1028 13:37:42.028890 28216 net.cpp:150] Setting up inception_4b/prelu_1x1
I1028 13:37:42.028905 28216 net.cpp:157] Top shape: 32 160 14 14 (1003520)
I1028 13:37:42.028909 28216 net.cpp:165] Memory required for data: 1269613316
I1028 13:37:42.028915 28216 layer_factory.hpp:76] Creating layer inception_4b/3x3_reduce
I1028 13:37:42.028928 28216 net.cpp:106] Creating Layer inception_4b/3x3_reduce
I1028 13:37:42.028934 28216 net.cpp:454] inception_4b/3x3_reduce <- inception_4a/output_inception_4a/output_0_split_2
I1028 13:37:42.028941 28216 net.cpp:411] inception_4b/3x3_reduce -> inception_4b/3x3_reduce
I1028 13:37:42.030606 28216 cudnn_conv_layer.cpp:194] Reallocating workspace storage: 10080
I1028 13:37:42.030652 28216 net.cpp:150] Setting up inception_4b/3x3_reduce
I1028 13:37:42.030661 28216 net.cpp:157] Top shape: 32 112 14 14 (702464)
I1028 13:37:42.030685 28216 net.cpp:165] Memory required for data: 1272423172
I1028 13:37:42.030694 28216 layer_factory.hpp:76] Creating layer inception_4b/prelu_3x3_reduce
I1028 13:37:42.030714 28216 net.cpp:106] Creating Layer inception_4b/prelu_3x3_reduce
I1028 13:37:42.030730 28216 net.cpp:454] inception_4b/prelu_3x3_reduce <- inception_4b/3x3_reduce
I1028 13:37:42.030737 28216 net.cpp:397] inception_4b/prelu_3x3_reduce -> inception_4b/3x3_reduce (in-place)
I1028 13:37:42.030874 28216 net.cpp:150] Setting up inception_4b/prelu_3x3_reduce
I1028 13:37:42.030884 28216 net.cpp:157] Top shape: 32 112 14 14 (702464)
I1028 13:37:42.030889 28216 net.cpp:165] Memory required for data: 1275233028
I1028 13:37:42.030894 28216 layer_factory.hpp:76] Creating layer inception_4b/3x3
I1028 13:37:42.030905 28216 net.cpp:106] Creating Layer inception_4b/3x3
I1028 13:37:42.030911 28216 net.cpp:454] inception_4b/3x3 <- inception_4b/3x3_reduce
I1028 13:37:42.030918 28216 net.cpp:411] inception_4b/3x3 -> inception_4b/3x3
I1028 13:37:42.033910 28216 cudnn_conv_layer.cpp:194] Reallocating workspace storage: 10080
I1028 13:37:42.033951 28216 net.cpp:150] Setting up inception_4b/3x3
I1028 13:37:42.033978 28216 net.cpp:157] Top shape: 32 224 14 14 (1404928)
I1028 13:37:42.033984 28216 net.cpp:165] Memory required for data: 1280852740
I1028 13:37:42.033993 28216 layer_factory.hpp:76] Creating layer inception_4b/prelu_3x3
I1028 13:37:42.034005 28216 net.cpp:106] Creating Layer inception_4b/prelu_3x3
I1028 13:37:42.034013 28216 net.cpp:454] inception_4b/prelu_3x3 <- inception_4b/3x3
I1028 13:37:42.034054 28216 net.cpp:397] inception_4b/prelu_3x3 -> inception_4b/3x3 (in-place)
I1028 13:37:42.034207 28216 net.cpp:150] Setting up inception_4b/prelu_3x3
I1028 13:37:42.034219 28216 net.cpp:157] Top shape: 32 224 14 14 (1404928)
I1028 13:37:42.034224 28216 net.cpp:165] Memory required for data: 1286472452
I1028 13:37:42.034240 28216 layer_factory.hpp:76] Creating layer inception_4b/5x5_reduce
I1028 13:37:42.034255 28216 net.cpp:106] Creating Layer inception_4b/5x5_reduce
I1028 13:37:42.034261 28216 net.cpp:454] inception_4b/5x5_reduce <- inception_4a/output_inception_4a/output_0_split_3
I1028 13:37:42.034268 28216 net.cpp:411] inception_4b/5x5_reduce -> inception_4b/5x5_reduce
I1028 13:37:42.035226 28216 cudnn_conv_layer.cpp:194] Reallocating workspace storage: 10080
I1028 13:37:42.035266 28216 net.cpp:150] Setting up inception_4b/5x5_reduce
I1028 13:37:42.035275 28216 net.cpp:157] Top shape: 32 24 14 14 (150528)
I1028 13:37:42.035280 28216 net.cpp:165] Memory required for data: 1287074564
I1028 13:37:42.035290 28216 layer_factory.hpp:76] Creating layer inception_4b/prelu_5x5_reduce
I1028 13:37:42.035310 28216 net.cpp:106] Creating Layer inception_4b/prelu_5x5_reduce
I1028 13:37:42.035317 28216 net.cpp:454] inception_4b/prelu_5x5_reduce <- inception_4b/5x5_reduce
I1028 13:37:42.035325 28216 net.cpp:397] inception_4b/prelu_5x5_reduce -> inception_4b/5x5_reduce (in-place)
I1028 13:37:42.035425 28216 net.cpp:150] Setting up inception_4b/prelu_5x5_reduce
I1028 13:37:42.035434 28216 net.cpp:157] Top shape: 32 24 14 14 (150528)
I1028 13:37:42.035439 28216 net.cpp:165] Memory required for data: 1287676676
I1028 13:37:42.035454 28216 layer_factory.hpp:76] Creating layer inception_4b/5x5
I1028 13:37:42.035467 28216 net.cpp:106] Creating Layer inception_4b/5x5
I1028 13:37:42.035473 28216 net.cpp:454] inception_4b/5x5 <- inception_4b/5x5_reduce
I1028 13:37:42.035480 28216 net.cpp:411] inception_4b/5x5 -> inception_4b/5x5
I1028 13:37:42.036772 28216 cudnn_conv_layer.cpp:194] Reallocating workspace storage: 13080
I1028 13:37:42.036809 28216 net.cpp:150] Setting up inception_4b/5x5
I1028 13:37:42.036818 28216 net.cpp:157] Top shape: 32 64 14 14 (401408)
I1028 13:37:42.036833 28216 net.cpp:165] Memory required for data: 1289282308
I1028 13:37:42.036850 28216 layer_factory.hpp:76] Creating layer inception_4b/prelu_5x5
I1028 13:37:42.036860 28216 net.cpp:106] Creating Layer inception_4b/prelu_5x5
I1028 13:37:42.036885 28216 net.cpp:454] inception_4b/prelu_5x5 <- inception_4b/5x5
I1028 13:37:42.036892 28216 net.cpp:397] inception_4b/prelu_5x5 -> inception_4b/5x5 (in-place)
I1028 13:37:42.036999 28216 net.cpp:150] Setting up inception_4b/prelu_5x5
I1028 13:37:42.037009 28216 net.cpp:157] Top shape: 32 64 14 14 (401408)
I1028 13:37:42.037012 28216 net.cpp:165] Memory required for data: 1290887940
I1028 13:37:42.037019 28216 layer_factory.hpp:76] Creating layer inception_4b/pool
I1028 13:37:42.037025 28216 net.cpp:106] Creating Layer inception_4b/pool
I1028 13:37:42.037030 28216 net.cpp:454] inception_4b/pool <- inception_4a/output_inception_4a/output_0_split_4
I1028 13:37:42.037037 28216 net.cpp:411] inception_4b/pool -> inception_4b/pool
I1028 13:37:42.037423 28216 net.cpp:150] Setting up inception_4b/pool
I1028 13:37:42.037434 28216 net.cpp:157] Top shape: 32 512 14 14 (3211264)
I1028 13:37:42.037439 28216 net.cpp:165] Memory required for data: 1303732996
I1028 13:37:42.037443 28216 layer_factory.hpp:76] Creating layer inception_4b/pool_proj
I1028 13:37:42.037453 28216 net.cpp:106] Creating Layer inception_4b/pool_proj
I1028 13:37:42.037459 28216 net.cpp:454] inception_4b/pool_proj <- inception_4b/pool
I1028 13:37:42.037482 28216 net.cpp:411] inception_4b/pool_proj -> inception_4b/pool_proj
I1028 13:37:42.038708 28216 cudnn_conv_layer.cpp:194] Reallocating workspace storage: 10080
I1028 13:37:42.038738 28216 net.cpp:150] Setting up inception_4b/pool_proj
I1028 13:37:42.038745 28216 net.cpp:157] Top shape: 32 64 14 14 (401408)
I1028 13:37:42.038749 28216 net.cpp:165] Memory required for data: 1305338628
I1028 13:37:42.038768 28216 layer_factory.hpp:76] Creating layer inception_4b/prelu_pool_proj
I1028 13:37:42.038776 28216 net.cpp:106] Creating Layer inception_4b/prelu_pool_proj
I1028 13:37:42.038782 28216 net.cpp:454] inception_4b/prelu_pool_proj <- inception_4b/pool_proj
I1028 13:37:42.038800 28216 net.cpp:397] inception_4b/prelu_pool_proj -> inception_4b/pool_proj (in-place)
I1028 13:37:42.038920 28216 net.cpp:150] Setting up inception_4b/prelu_pool_proj
I1028 13:37:42.038929 28216 net.cpp:157] Top shape: 32 64 14 14 (401408)
I1028 13:37:42.038933 28216 net.cpp:165] Memory required for data: 1306944260
I1028 13:37:42.038949 28216 layer_factory.hpp:76] Creating layer inception_4b/output
I1028 13:37:42.038956 28216 net.cpp:106] Creating Layer inception_4b/output
I1028 13:37:42.038960 28216 net.cpp:454] inception_4b/output <- inception_4b/1x1
I1028 13:37:42.038965 28216 net.cpp:454] inception_4b/output <- inception_4b/3x3
I1028 13:37:42.038980 28216 net.cpp:454] inception_4b/output <- inception_4b/5x5
I1028 13:37:42.038995 28216 net.cpp:454] inception_4b/output <- inception_4b/pool_proj
I1028 13:37:42.039001 28216 net.cpp:411] inception_4b/output -> inception_4b/output
I1028 13:37:42.039029 28216 net.cpp:150] Setting up inception_4b/output
I1028 13:37:42.039038 28216 net.cpp:157] Top shape: 32 512 14 14 (3211264)
I1028 13:37:42.039043 28216 net.cpp:165] Memory required for data: 1319789316
I1028 13:37:42.039047 28216 layer_factory.hpp:76] Creating layer inception_4b/output_inception_4b/output_0_split
I1028 13:37:42.039054 28216 net.cpp:106] Creating Layer inception_4b/output_inception_4b/output_0_split
I1028 13:37:42.039059 28216 net.cpp:454] inception_4b/output_inception_4b/output_0_split <- inception_4b/output
I1028 13:37:42.039064 28216 net.cpp:411] inception_4b/output_inception_4b/output_0_split -> inception_4b/output_inception_4b/output_0_split_0
I1028 13:37:42.039072 28216 net.cpp:411] inception_4b/output_inception_4b/output_0_split -> inception_4b/output_inception_4b/output_0_split_1
I1028 13:37:42.039078 28216 net.cpp:411] inception_4b/output_inception_4b/output_0_split -> inception_4b/output_inception_4b/output_0_split_2
I1028 13:37:42.039085 28216 net.cpp:411] inception_4b/output_inception_4b/output_0_split -> inception_4b/output_inception_4b/output_0_split_3
I1028 13:37:42.039144 28216 net.cpp:150] Setting up inception_4b/output_inception_4b/output_0_split
I1028 13:37:42.039151 28216 net.cpp:157] Top shape: 32 512 14 14 (3211264)
I1028 13:37:42.039156 28216 net.cpp:157] Top shape: 32 512 14 14 (3211264)
I1028 13:37:42.039161 28216 net.cpp:157] Top shape: 32 512 14 14 (3211264)
I1028 13:37:42.039165 28216 net.cpp:157] Top shape: 32 512 14 14 (3211264)
I1028 13:37:42.039170 28216 net.cpp:165] Memory required for data: 1371169540
I1028 13:37:42.039175 28216 layer_factory.hpp:76] Creating layer inception_4c/1x1
I1028 13:37:42.039182 28216 net.cpp:106] Creating Layer inception_4c/1x1
I1028 13:37:42.039187 28216 net.cpp:454] inception_4c/1x1 <- inception_4b/output_inception_4b/output_0_split_0
I1028 13:37:42.039193 28216 net.cpp:411] inception_4c/1x1 -> inception_4c/1x1
I1028 13:37:42.040868 28216 cudnn_conv_layer.cpp:194] Reallocating workspace storage: 10080
I1028 13:37:42.040900 28216 net.cpp:150] Setting up inception_4c/1x1
I1028 13:37:42.040910 28216 net.cpp:157] Top shape: 32 128 14 14 (802816)
I1028 13:37:42.040915 28216 net.cpp:165] Memory required for data: 1374380804
I1028 13:37:42.040921 28216 layer_factory.hpp:76] Creating layer inception_4c/prelu_1x1
I1028 13:37:42.040931 28216 net.cpp:106] Creating Layer inception_4c/prelu_1x1
I1028 13:37:42.040936 28216 net.cpp:454] inception_4c/prelu_1x1 <- inception_4c/1x1
I1028 13:37:42.040954 28216 net.cpp:397] inception_4c/prelu_1x1 -> inception_4c/1x1 (in-place)
I1028 13:37:42.041052 28216 net.cpp:150] Setting up inception_4c/prelu_1x1
I1028 13:37:42.041061 28216 net.cpp:157] Top shape: 32 128 14 14 (802816)
I1028 13:37:42.041065 28216 net.cpp:165] Memory required for data: 1377592068
I1028 13:37:42.041070 28216 layer_factory.hpp:76] Creating layer inception_4c/3x3_reduce
I1028 13:37:42.041080 28216 net.cpp:106] Creating Layer inception_4c/3x3_reduce
I1028 13:37:42.041085 28216 net.cpp:454] inception_4c/3x3_reduce <- inception_4b/output_inception_4b/output_0_split_1
I1028 13:37:42.041092 28216 net.cpp:411] inception_4c/3x3_reduce -> inception_4c/3x3_reduce
I1028 13:37:42.042492 28216 cudnn_conv_layer.cpp:194] Reallocating workspace storage: 10080
I1028 13:37:42.042517 28216 net.cpp:150] Setting up inception_4c/3x3_reduce
I1028 13:37:42.042526 28216 net.cpp:157] Top shape: 32 128 14 14 (802816)
I1028 13:37:42.042531 28216 net.cpp:165] Memory required for data: 1380803332
I1028 13:37:42.042537 28216 layer_factory.hpp:76] Creating layer inception_4c/prelu_3x3_reduce
I1028 13:37:42.042546 28216 net.cpp:106] Creating Layer inception_4c/prelu_3x3_reduce
I1028 13:37:42.042551 28216 net.cpp:454] inception_4c/prelu_3x3_reduce <- inception_4c/3x3_reduce
I1028 13:37:42.042558 28216 net.cpp:397] inception_4c/prelu_3x3_reduce -> inception_4c/3x3_reduce (in-place)
I1028 13:37:42.042652 28216 net.cpp:150] Setting up inception_4c/prelu_3x3_reduce
I1028 13:37:42.042662 28216 net.cpp:157] Top shape: 32 128 14 14 (802816)
I1028 13:37:42.042666 28216 net.cpp:165] Memory required for data: 1384014596
I1028 13:37:42.042671 28216 layer_factory.hpp:76] Creating layer inception_4c/3x3
I1028 13:37:42.042680 28216 net.cpp:106] Creating Layer inception_4c/3x3
I1028 13:37:42.042686 28216 net.cpp:454] inception_4c/3x3 <- inception_4c/3x3_reduce
I1028 13:37:42.042692 28216 net.cpp:411] inception_4c/3x3 -> inception_4c/3x3
I1028 13:37:42.045881 28216 cudnn_conv_layer.cpp:194] Reallocating workspace storage: 10080
I1028 13:37:42.045910 28216 net.cpp:150] Setting up inception_4c/3x3
I1028 13:37:42.045919 28216 net.cpp:157] Top shape: 32 256 14 14 (1605632)
I1028 13:37:42.045923 28216 net.cpp:165] Memory required for data: 1390437124
I1028 13:37:42.045931 28216 layer_factory.hpp:76] Creating layer inception_4c/prelu_3x3
I1028 13:37:42.045941 28216 net.cpp:106] Creating Layer inception_4c/prelu_3x3
I1028 13:37:42.045948 28216 net.cpp:454] inception_4c/prelu_3x3 <- inception_4c/3x3
I1028 13:37:42.045956 28216 net.cpp:397] inception_4c/prelu_3x3 -> inception_4c/3x3 (in-place)
I1028 13:37:42.046089 28216 net.cpp:150] Setting up inception_4c/prelu_3x3
I1028 13:37:42.046099 28216 net.cpp:157] Top shape: 32 256 14 14 (1605632)
I1028 13:37:42.046103 28216 net.cpp:165] Memory required for data: 1396859652
I1028 13:37:42.046108 28216 layer_factory.hpp:76] Creating layer inception_4c/5x5_reduce
I1028 13:37:42.046119 28216 net.cpp:106] Creating Layer inception_4c/5x5_reduce
I1028 13:37:42.046124 28216 net.cpp:454] inception_4c/5x5_reduce <- inception_4b/output_inception_4b/output_0_split_2
I1028 13:37:42.046133 28216 net.cpp:411] inception_4c/5x5_reduce -> inception_4c/5x5_reduce
I1028 13:37:42.047240 28216 cudnn_conv_layer.cpp:194] Reallocating workspace storage: 10080
I1028 13:37:42.047265 28216 net.cpp:150] Setting up inception_4c/5x5_reduce
I1028 13:37:42.047273 28216 net.cpp:157] Top shape: 32 24 14 14 (150528)
I1028 13:37:42.047277 28216 net.cpp:165] Memory required for data: 1397461764
I1028 13:37:42.047284 28216 layer_factory.hpp:76] Creating layer inception_4c/prelu_5x5_reduce
I1028 13:37:42.047292 28216 net.cpp:106] Creating Layer inception_4c/prelu_5x5_reduce
I1028 13:37:42.047298 28216 net.cpp:454] inception_4c/prelu_5x5_reduce <- inception_4c/5x5_reduce
I1028 13:37:42.047304 28216 net.cpp:397] inception_4c/prelu_5x5_reduce -> inception_4c/5x5_reduce (in-place)
I1028 13:37:42.047397 28216 net.cpp:150] Setting up inception_4c/prelu_5x5_reduce
I1028 13:37:42.047406 28216 net.cpp:157] Top shape: 32 24 14 14 (150528)
I1028 13:37:42.047421 28216 net.cpp:165] Memory required for data: 1398063876
I1028 13:37:42.047427 28216 layer_factory.hpp:76] Creating layer inception_4c/5x5
I1028 13:37:42.047436 28216 net.cpp:106] Creating Layer inception_4c/5x5
I1028 13:37:42.047442 28216 net.cpp:454] inception_4c/5x5 <- inception_4c/5x5_reduce
I1028 13:37:42.047451 28216 net.cpp:411] inception_4c/5x5 -> inception_4c/5x5
I1028 13:37:42.049180 28216 cudnn_conv_layer.cpp:194] Reallocating workspace storage: 13080
I1028 13:37:42.049207 28216 net.cpp:150] Setting up inception_4c/5x5
I1028 13:37:42.049216 28216 net.cpp:157] Top shape: 32 64 14 14 (401408)
I1028 13:37:42.049221 28216 net.cpp:165] Memory required for data: 1399669508
I1028 13:37:42.049228 28216 layer_factory.hpp:76] Creating layer inception_4c/prelu_5x5
I1028 13:37:42.049239 28216 net.cpp:106] Creating Layer inception_4c/prelu_5x5
I1028 13:37:42.049245 28216 net.cpp:454] inception_4c/prelu_5x5 <- inception_4c/5x5
I1028 13:37:42.049253 28216 net.cpp:397] inception_4c/prelu_5x5 -> inception_4c/5x5 (in-place)
I1028 13:37:42.049362 28216 net.cpp:150] Setting up inception_4c/prelu_5x5
I1028 13:37:42.049371 28216 net.cpp:157] Top shape: 32 64 14 14 (401408)
I1028 13:37:42.049376 28216 net.cpp:165] Memory required for data: 1401275140
I1028 13:37:42.049381 28216 layer_factory.hpp:76] Creating layer inception_4c/pool
I1028 13:37:42.049389 28216 net.cpp:106] Creating Layer inception_4c/pool
I1028 13:37:42.049394 28216 net.cpp:454] inception_4c/pool <- inception_4b/output_inception_4b/output_0_split_3
I1028 13:37:42.049401 28216 net.cpp:411] inception_4c/pool -> inception_4c/pool
I1028 13:37:42.049584 28216 net.cpp:150] Setting up inception_4c/pool
I1028 13:37:42.049594 28216 net.cpp:157] Top shape: 32 512 14 14 (3211264)
I1028 13:37:42.049598 28216 net.cpp:165] Memory required for data: 1414120196
I1028 13:37:42.049602 28216 layer_factory.hpp:76] Creating layer inception_4c/pool_proj
I1028 13:37:42.049612 28216 net.cpp:106] Creating Layer inception_4c/pool_proj
I1028 13:37:42.049619 28216 net.cpp:454] inception_4c/pool_proj <- inception_4c/pool
I1028 13:37:42.049628 28216 net.cpp:411] inception_4c/pool_proj -> inception_4c/pool_proj
I1028 13:37:42.051127 28216 cudnn_conv_layer.cpp:194] Reallocating workspace storage: 10080
I1028 13:37:42.051184 28216 net.cpp:150] Setting up inception_4c/pool_proj
I1028 13:37:42.051195 28216 net.cpp:157] Top shape: 32 64 14 14 (401408)
I1028 13:37:42.051201 28216 net.cpp:165] Memory required for data: 1415725828
I1028 13:37:42.051210 28216 layer_factory.hpp:76] Creating layer inception_4c/prelu_pool_proj
I1028 13:37:42.051221 28216 net.cpp:106] Creating Layer inception_4c/prelu_pool_proj
I1028 13:37:42.051228 28216 net.cpp:454] inception_4c/prelu_pool_proj <- inception_4c/pool_proj
I1028 13:37:42.051236 28216 net.cpp:397] inception_4c/prelu_pool_proj -> inception_4c/pool_proj (in-place)
I1028 13:37:42.051350 28216 net.cpp:150] Setting up inception_4c/prelu_pool_proj
I1028 13:37:42.051359 28216 net.cpp:157] Top shape: 32 64 14 14 (401408)
I1028 13:37:42.051363 28216 net.cpp:165] Memory required for data: 1417331460
I1028 13:37:42.051368 28216 layer_factory.hpp:76] Creating layer inception_4c/output
I1028 13:37:42.051376 28216 net.cpp:106] Creating Layer inception_4c/output
I1028 13:37:42.051380 28216 net.cpp:454] inception_4c/output <- inception_4c/1x1
I1028 13:37:42.051385 28216 net.cpp:454] inception_4c/output <- inception_4c/3x3
I1028 13:37:42.051390 28216 net.cpp:454] inception_4c/output <- inception_4c/5x5
I1028 13:37:42.051395 28216 net.cpp:454] inception_4c/output <- inception_4c/pool_proj
I1028 13:37:42.051400 28216 net.cpp:411] inception_4c/output -> inception_4c/output
I1028 13:37:42.051429 28216 net.cpp:150] Setting up inception_4c/output
I1028 13:37:42.051437 28216 net.cpp:157] Top shape: 32 512 14 14 (3211264)
I1028 13:37:42.051441 28216 net.cpp:165] Memory required for data: 1430176516
I1028 13:37:42.051445 28216 layer_factory.hpp:76] Creating layer inception_4c/output_inception_4c/output_0_split
I1028 13:37:42.051452 28216 net.cpp:106] Creating Layer inception_4c/output_inception_4c/output_0_split
I1028 13:37:42.051470 28216 net.cpp:454] inception_4c/output_inception_4c/output_0_split <- inception_4c/output
I1028 13:37:42.051486 28216 net.cpp:411] inception_4c/output_inception_4c/output_0_split -> inception_4c/output_inception_4c/output_0_split_0
I1028 13:37:42.051493 28216 net.cpp:411] inception_4c/output_inception_4c/output_0_split -> inception_4c/output_inception_4c/output_0_split_1
I1028 13:37:42.051501 28216 net.cpp:411] inception_4c/output_inception_4c/output_0_split -> inception_4c/output_inception_4c/output_0_split_2
I1028 13:37:42.051507 28216 net.cpp:411] inception_4c/output_inception_4c/output_0_split -> inception_4c/output_inception_4c/output_0_split_3
I1028 13:37:42.051569 28216 net.cpp:150] Setting up inception_4c/output_inception_4c/output_0_split
I1028 13:37:42.051578 28216 net.cpp:157] Top shape: 32 512 14 14 (3211264)
I1028 13:37:42.051584 28216 net.cpp:157] Top shape: 32 512 14 14 (3211264)
I1028 13:37:42.051587 28216 net.cpp:157] Top shape: 32 512 14 14 (3211264)
I1028 13:37:42.051592 28216 net.cpp:157] Top shape: 32 512 14 14 (3211264)
I1028 13:37:42.051595 28216 net.cpp:165] Memory required for data: 1481556740
I1028 13:37:42.051599 28216 layer_factory.hpp:76] Creating layer inception_4d/1x1
I1028 13:37:42.051609 28216 net.cpp:106] Creating Layer inception_4d/1x1
I1028 13:37:42.051614 28216 net.cpp:454] inception_4d/1x1 <- inception_4c/output_inception_4c/output_0_split_0
I1028 13:37:42.051621 28216 net.cpp:411] inception_4d/1x1 -> inception_4d/1x1
I1028 13:37:42.053084 28216 cudnn_conv_layer.cpp:194] Reallocating workspace storage: 10080
I1028 13:37:42.053113 28216 net.cpp:150] Setting up inception_4d/1x1
I1028 13:37:42.053122 28216 net.cpp:157] Top shape: 32 112 14 14 (702464)
I1028 13:37:42.053128 28216 net.cpp:165] Memory required for data: 1484366596
I1028 13:37:42.053134 28216 layer_factory.hpp:76] Creating layer inception_4d/prelu_1x1
I1028 13:37:42.053144 28216 net.cpp:106] Creating Layer inception_4d/prelu_1x1
I1028 13:37:42.053150 28216 net.cpp:454] inception_4d/prelu_1x1 <- inception_4d/1x1
I1028 13:37:42.053158 28216 net.cpp:397] inception_4d/prelu_1x1 -> inception_4d/1x1 (in-place)
I1028 13:37:42.053263 28216 net.cpp:150] Setting up inception_4d/prelu_1x1
I1028 13:37:42.053272 28216 net.cpp:157] Top shape: 32 112 14 14 (702464)
I1028 13:37:42.053277 28216 net.cpp:165] Memory required for data: 1487176452
I1028 13:37:42.053282 28216 layer_factory.hpp:76] Creating layer inception_4d/3x3_reduce
I1028 13:37:42.053292 28216 net.cpp:106] Creating Layer inception_4d/3x3_reduce
I1028 13:37:42.053297 28216 net.cpp:454] inception_4d/3x3_reduce <- inception_4c/output_inception_4c/output_0_split_1
I1028 13:37:42.053306 28216 net.cpp:411] inception_4d/3x3_reduce -> inception_4d/3x3_reduce
I1028 13:37:42.054713 28216 cudnn_conv_layer.cpp:194] Reallocating workspace storage: 10080
I1028 13:37:42.054756 28216 net.cpp:150] Setting up inception_4d/3x3_reduce
I1028 13:37:42.054766 28216 net.cpp:157] Top shape: 32 144 14 14 (903168)
I1028 13:37:42.054770 28216 net.cpp:165] Memory required for data: 1490789124
I1028 13:37:42.054780 28216 layer_factory.hpp:76] Creating layer inception_4d/prelu_3x3_reduce
I1028 13:37:42.054790 28216 net.cpp:106] Creating Layer inception_4d/prelu_3x3_reduce
I1028 13:37:42.054796 28216 net.cpp:454] inception_4d/prelu_3x3_reduce <- inception_4d/3x3_reduce
I1028 13:37:42.054813 28216 net.cpp:397] inception_4d/prelu_3x3_reduce -> inception_4d/3x3_reduce (in-place)
I1028 13:37:42.054965 28216 net.cpp:150] Setting up inception_4d/prelu_3x3_reduce
I1028 13:37:42.054973 28216 net.cpp:157] Top shape: 32 144 14 14 (903168)
I1028 13:37:42.054977 28216 net.cpp:165] Memory required for data: 1494401796
I1028 13:37:42.054993 28216 layer_factory.hpp:76] Creating layer inception_4d/3x3
I1028 13:37:42.055003 28216 net.cpp:106] Creating Layer inception_4d/3x3
I1028 13:37:42.055009 28216 net.cpp:454] inception_4d/3x3 <- inception_4d/3x3_reduce
I1028 13:37:42.055016 28216 net.cpp:411] inception_4d/3x3 -> inception_4d/3x3
I1028 13:37:42.059027 28216 cudnn_conv_layer.cpp:194] Reallocating workspace storage: 10080
I1028 13:37:42.059072 28216 net.cpp:150] Setting up inception_4d/3x3
I1028 13:37:42.059082 28216 net.cpp:157] Top shape: 32 288 14 14 (1806336)
I1028 13:37:42.059087 28216 net.cpp:165] Memory required for data: 1501627140
I1028 13:37:42.059095 28216 layer_factory.hpp:76] Creating layer inception_4d/prelu_3x3
I1028 13:37:42.059108 28216 net.cpp:106] Creating Layer inception_4d/prelu_3x3
I1028 13:37:42.059115 28216 net.cpp:454] inception_4d/prelu_3x3 <- inception_4d/3x3
I1028 13:37:42.059133 28216 net.cpp:397] inception_4d/prelu_3x3 -> inception_4d/3x3 (in-place)
I1028 13:37:42.059312 28216 net.cpp:150] Setting up inception_4d/prelu_3x3
I1028 13:37:42.059324 28216 net.cpp:157] Top shape: 32 288 14 14 (1806336)
I1028 13:37:42.059329 28216 net.cpp:165] Memory required for data: 1508852484
I1028 13:37:42.059334 28216 layer_factory.hpp:76] Creating layer inception_4d/5x5_reduce
I1028 13:37:42.059345 28216 net.cpp:106] Creating Layer inception_4d/5x5_reduce
I1028 13:37:42.059351 28216 net.cpp:454] inception_4d/5x5_reduce <- inception_4c/output_inception_4c/output_0_split_2
I1028 13:37:42.059360 28216 net.cpp:411] inception_4d/5x5_reduce -> inception_4d/5x5_reduce
I1028 13:37:42.060566 28216 cudnn_conv_layer.cpp:194] Reallocating workspace storage: 10080
I1028 13:37:42.060600 28216 net.cpp:150] Setting up inception_4d/5x5_reduce
I1028 13:37:42.060608 28216 net.cpp:157] Top shape: 32 32 14 14 (200704)
I1028 13:37:42.060613 28216 net.cpp:165] Memory required for data: 1509655300
I1028 13:37:42.060621 28216 layer_factory.hpp:76] Creating layer inception_4d/prelu_5x5_reduce
I1028 13:37:42.060631 28216 net.cpp:106] Creating Layer inception_4d/prelu_5x5_reduce
I1028 13:37:42.060636 28216 net.cpp:454] inception_4d/prelu_5x5_reduce <- inception_4d/5x5_reduce
I1028 13:37:42.060644 28216 net.cpp:397] inception_4d/prelu_5x5_reduce -> inception_4d/5x5_reduce (in-place)
I1028 13:37:42.060768 28216 net.cpp:150] Setting up inception_4d/prelu_5x5_reduce
I1028 13:37:42.060777 28216 net.cpp:157] Top shape: 32 32 14 14 (200704)
I1028 13:37:42.060781 28216 net.cpp:165] Memory required for data: 1510458116
I1028 13:37:42.060797 28216 layer_factory.hpp:76] Creating layer inception_4d/5x5
I1028 13:37:42.060807 28216 net.cpp:106] Creating Layer inception_4d/5x5
I1028 13:37:42.060812 28216 net.cpp:454] inception_4d/5x5 <- inception_4d/5x5_reduce
I1028 13:37:42.060829 28216 net.cpp:411] inception_4d/5x5 -> inception_4d/5x5
I1028 13:37:42.062731 28216 cudnn_conv_layer.cpp:194] Reallocating workspace storage: 13080
I1028 13:37:42.062762 28216 net.cpp:150] Setting up inception_4d/5x5
I1028 13:37:42.062780 28216 net.cpp:157] Top shape: 32 64 14 14 (401408)
I1028 13:37:42.062785 28216 net.cpp:165] Memory required for data: 1512063748
I1028 13:37:42.062803 28216 layer_factory.hpp:76] Creating layer inception_4d/prelu_5x5
I1028 13:37:42.062811 28216 net.cpp:106] Creating Layer inception_4d/prelu_5x5
I1028 13:37:42.062819 28216 net.cpp:454] inception_4d/prelu_5x5 <- inception_4d/5x5
I1028 13:37:42.062826 28216 net.cpp:397] inception_4d/prelu_5x5 -> inception_4d/5x5 (in-place)
I1028 13:37:42.062976 28216 net.cpp:150] Setting up inception_4d/prelu_5x5
I1028 13:37:42.062985 28216 net.cpp:157] Top shape: 32 64 14 14 (401408)
I1028 13:37:42.062989 28216 net.cpp:165] Memory required for data: 1513669380
I1028 13:37:42.063004 28216 layer_factory.hpp:76] Creating layer inception_4d/pool
I1028 13:37:42.063012 28216 net.cpp:106] Creating Layer inception_4d/pool
I1028 13:37:42.063017 28216 net.cpp:454] inception_4d/pool <- inception_4c/output_inception_4c/output_0_split_3
I1028 13:37:42.063024 28216 net.cpp:411] inception_4d/pool -> inception_4d/pool
I1028 13:37:42.063211 28216 net.cpp:150] Setting up inception_4d/pool
I1028 13:37:42.063221 28216 net.cpp:157] Top shape: 32 512 14 14 (3211264)
I1028 13:37:42.063225 28216 net.cpp:165] Memory required for data: 1526514436
I1028 13:37:42.063230 28216 layer_factory.hpp:76] Creating layer inception_4d/pool_proj
I1028 13:37:42.063240 28216 net.cpp:106] Creating Layer inception_4d/pool_proj
I1028 13:37:42.063257 28216 net.cpp:454] inception_4d/pool_proj <- inception_4d/pool
I1028 13:37:42.063266 28216 net.cpp:411] inception_4d/pool_proj -> inception_4d/pool_proj
I1028 13:37:42.064566 28216 cudnn_conv_layer.cpp:194] Reallocating workspace storage: 10080
I1028 13:37:42.064607 28216 net.cpp:150] Setting up inception_4d/pool_proj
I1028 13:37:42.064616 28216 net.cpp:157] Top shape: 32 64 14 14 (401408)
I1028 13:37:42.064620 28216 net.cpp:165] Memory required for data: 1528120068
I1028 13:37:42.064627 28216 layer_factory.hpp:76] Creating layer inception_4d/prelu_pool_proj
I1028 13:37:42.064637 28216 net.cpp:106] Creating Layer inception_4d/prelu_pool_proj
I1028 13:37:42.064643 28216 net.cpp:454] inception_4d/prelu_pool_proj <- inception_4d/pool_proj
I1028 13:37:42.064651 28216 net.cpp:397] inception_4d/prelu_pool_proj -> inception_4d/pool_proj (in-place)
I1028 13:37:42.064759 28216 net.cpp:150] Setting up inception_4d/prelu_pool_proj
I1028 13:37:42.064769 28216 net.cpp:157] Top shape: 32 64 14 14 (401408)
I1028 13:37:42.064771 28216 net.cpp:165] Memory required for data: 1529725700
I1028 13:37:42.064777 28216 layer_factory.hpp:76] Creating layer inception_4d/output
I1028 13:37:42.064785 28216 net.cpp:106] Creating Layer inception_4d/output
I1028 13:37:42.064790 28216 net.cpp:454] inception_4d/output <- inception_4d/1x1
I1028 13:37:42.064793 28216 net.cpp:454] inception_4d/output <- inception_4d/3x3
I1028 13:37:42.064798 28216 net.cpp:454] inception_4d/output <- inception_4d/5x5
I1028 13:37:42.064803 28216 net.cpp:454] inception_4d/output <- inception_4d/pool_proj
I1028 13:37:42.064810 28216 net.cpp:411] inception_4d/output -> inception_4d/output
I1028 13:37:42.064838 28216 net.cpp:150] Setting up inception_4d/output
I1028 13:37:42.064846 28216 net.cpp:157] Top shape: 32 528 14 14 (3311616)
I1028 13:37:42.064851 28216 net.cpp:165] Memory required for data: 1542972164
I1028 13:37:42.064854 28216 layer_factory.hpp:76] Creating layer inception_4d/output_inception_4d/output_0_split
I1028 13:37:42.064862 28216 net.cpp:106] Creating Layer inception_4d/output_inception_4d/output_0_split
I1028 13:37:42.064865 28216 net.cpp:454] inception_4d/output_inception_4d/output_0_split <- inception_4d/output
I1028 13:37:42.064872 28216 net.cpp:411] inception_4d/output_inception_4d/output_0_split -> inception_4d/output_inception_4d/output_0_split_0
I1028 13:37:42.064879 28216 net.cpp:411] inception_4d/output_inception_4d/output_0_split -> inception_4d/output_inception_4d/output_0_split_1
I1028 13:37:42.064887 28216 net.cpp:411] inception_4d/output_inception_4d/output_0_split -> inception_4d/output_inception_4d/output_0_split_2
I1028 13:37:42.064894 28216 net.cpp:411] inception_4d/output_inception_4d/output_0_split -> inception_4d/output_inception_4d/output_0_split_3
I1028 13:37:42.064900 28216 net.cpp:411] inception_4d/output_inception_4d/output_0_split -> inception_4d/output_inception_4d/output_0_split_4
I1028 13:37:42.064995 28216 net.cpp:150] Setting up inception_4d/output_inception_4d/output_0_split
I1028 13:37:42.065003 28216 net.cpp:157] Top shape: 32 528 14 14 (3311616)
I1028 13:37:42.065008 28216 net.cpp:157] Top shape: 32 528 14 14 (3311616)
I1028 13:37:42.065022 28216 net.cpp:157] Top shape: 32 528 14 14 (3311616)
I1028 13:37:42.065027 28216 net.cpp:157] Top shape: 32 528 14 14 (3311616)
I1028 13:37:42.065032 28216 net.cpp:157] Top shape: 32 528 14 14 (3311616)
I1028 13:37:42.065037 28216 net.cpp:165] Memory required for data: 1609204484
I1028 13:37:42.065040 28216 layer_factory.hpp:76] Creating layer loss2/ave_pool
I1028 13:37:42.065047 28216 net.cpp:106] Creating Layer loss2/ave_pool
I1028 13:37:42.065052 28216 net.cpp:454] loss2/ave_pool <- inception_4d/output_inception_4d/output_0_split_0
I1028 13:37:42.065057 28216 net.cpp:411] loss2/ave_pool -> loss2/ave_pool
I1028 13:37:42.065431 28216 net.cpp:150] Setting up loss2/ave_pool
I1028 13:37:42.065443 28216 net.cpp:157] Top shape: 32 528 4 4 (270336)
I1028 13:37:42.065446 28216 net.cpp:165] Memory required for data: 1610285828
I1028 13:37:42.065464 28216 layer_factory.hpp:76] Creating layer loss2/conv
I1028 13:37:42.065484 28216 net.cpp:106] Creating Layer loss2/conv
I1028 13:37:42.065490 28216 net.cpp:454] loss2/conv <- loss2/ave_pool
I1028 13:37:42.065496 28216 net.cpp:411] loss2/conv -> loss2/conv
I1028 13:37:42.067004 28216 cudnn_conv_layer.cpp:194] Reallocating workspace storage: 6840
I1028 13:37:42.067033 28216 net.cpp:150] Setting up loss2/conv
I1028 13:37:42.067041 28216 net.cpp:157] Top shape: 32 128 4 4 (65536)
I1028 13:37:42.067045 28216 net.cpp:165] Memory required for data: 1610547972
I1028 13:37:42.067052 28216 layer_factory.hpp:76] Creating layer loss2/prelu_conv
I1028 13:37:42.067061 28216 net.cpp:106] Creating Layer loss2/prelu_conv
I1028 13:37:42.067066 28216 net.cpp:454] loss2/prelu_conv <- loss2/conv
I1028 13:37:42.067073 28216 net.cpp:397] loss2/prelu_conv -> loss2/conv (in-place)
I1028 13:37:42.067168 28216 net.cpp:150] Setting up loss2/prelu_conv
I1028 13:37:42.067176 28216 net.cpp:157] Top shape: 32 128 4 4 (65536)
I1028 13:37:42.067180 28216 net.cpp:165] Memory required for data: 1610810116
I1028 13:37:42.067186 28216 layer_factory.hpp:76] Creating layer loss2/fc
I1028 13:37:42.067193 28216 net.cpp:106] Creating Layer loss2/fc
I1028 13:37:42.067198 28216 net.cpp:454] loss2/fc <- loss2/conv
I1028 13:37:42.067204 28216 net.cpp:411] loss2/fc -> loss2/fc
I1028 13:37:42.082330 28216 net.cpp:150] Setting up loss2/fc
I1028 13:37:42.082378 28216 net.cpp:157] Top shape: 32 1024 (32768)
I1028 13:37:42.082383 28216 net.cpp:165] Memory required for data: 1610941188
I1028 13:37:42.082425 28216 layer_factory.hpp:76] Creating layer loss2/prelu_fc
I1028 13:37:42.082442 28216 net.cpp:106] Creating Layer loss2/prelu_fc
I1028 13:37:42.082471 28216 net.cpp:454] loss2/prelu_fc <- loss2/fc
I1028 13:37:42.082480 28216 net.cpp:397] loss2/prelu_fc -> loss2/fc (in-place)
I1028 13:37:42.082603 28216 net.cpp:150] Setting up loss2/prelu_fc
I1028 13:37:42.082612 28216 net.cpp:157] Top shape: 32 1024 (32768)
I1028 13:37:42.082615 28216 net.cpp:165] Memory required for data: 1611072260
I1028 13:37:42.082631 28216 layer_factory.hpp:76] Creating layer loss2/drop_fc
I1028 13:37:42.082650 28216 net.cpp:106] Creating Layer loss2/drop_fc
I1028 13:37:42.082655 28216 net.cpp:454] loss2/drop_fc <- loss2/fc
I1028 13:37:42.082660 28216 net.cpp:397] loss2/drop_fc -> loss2/fc (in-place)
I1028 13:37:42.082690 28216 net.cpp:150] Setting up loss2/drop_fc
I1028 13:37:42.082697 28216 net.cpp:157] Top shape: 32 1024 (32768)
I1028 13:37:42.082701 28216 net.cpp:165] Memory required for data: 1611203332
I1028 13:37:42.082705 28216 layer_factory.hpp:76] Creating layer loss2/classifier2
I1028 13:37:42.082715 28216 net.cpp:106] Creating Layer loss2/classifier2
I1028 13:37:42.082731 28216 net.cpp:454] loss2/classifier2 <- loss2/fc
I1028 13:37:42.082737 28216 net.cpp:411] loss2/classifier2 -> loss2/classifier
I1028 13:37:42.082880 28216 net.cpp:150] Setting up loss2/classifier2
I1028 13:37:42.082890 28216 net.cpp:157] Top shape: 32 2 (64)
I1028 13:37:42.082893 28216 net.cpp:165] Memory required for data: 1611203588
I1028 13:37:42.082911 28216 layer_factory.hpp:76] Creating layer loss2/loss
I1028 13:37:42.082919 28216 net.cpp:106] Creating Layer loss2/loss
I1028 13:37:42.082924 28216 net.cpp:454] loss2/loss <- loss2/classifier
I1028 13:37:42.082931 28216 net.cpp:454] loss2/loss <- label_data_1_split_1
I1028 13:37:42.082938 28216 net.cpp:411] loss2/loss -> loss2/loss1
I1028 13:37:42.082957 28216 layer_factory.hpp:76] Creating layer loss2/loss
I1028 13:37:42.083282 28216 net.cpp:150] Setting up loss2/loss
I1028 13:37:42.083297 28216 net.cpp:157] Top shape: (1)
I1028 13:37:42.083302 28216 net.cpp:160]     with loss weight 0.3
I1028 13:37:42.083317 28216 net.cpp:165] Memory required for data: 1611203592
I1028 13:37:42.083322 28216 layer_factory.hpp:76] Creating layer inception_4e/1x1
I1028 13:37:42.083331 28216 net.cpp:106] Creating Layer inception_4e/1x1
I1028 13:37:42.083338 28216 net.cpp:454] inception_4e/1x1 <- inception_4d/output_inception_4d/output_0_split_1
I1028 13:37:42.083346 28216 net.cpp:411] inception_4e/1x1 -> inception_4e/1x1
I1028 13:37:42.085928 28216 cudnn_conv_layer.cpp:194] Reallocating workspace storage: 10080
I1028 13:37:42.085973 28216 net.cpp:150] Setting up inception_4e/1x1
I1028 13:37:42.085983 28216 net.cpp:157] Top shape: 32 256 14 14 (1605632)
I1028 13:37:42.085988 28216 net.cpp:165] Memory required for data: 1617626120
I1028 13:37:42.085996 28216 layer_factory.hpp:76] Creating layer inception_4e/prelu_1x1
I1028 13:37:42.086009 28216 net.cpp:106] Creating Layer inception_4e/prelu_1x1
I1028 13:37:42.086022 28216 net.cpp:454] inception_4e/prelu_1x1 <- inception_4e/1x1
I1028 13:37:42.086030 28216 net.cpp:397] inception_4e/prelu_1x1 -> inception_4e/1x1 (in-place)
I1028 13:37:42.086172 28216 net.cpp:150] Setting up inception_4e/prelu_1x1
I1028 13:37:42.086184 28216 net.cpp:157] Top shape: 32 256 14 14 (1605632)
I1028 13:37:42.086187 28216 net.cpp:165] Memory required for data: 1624048648
I1028 13:37:42.086194 28216 layer_factory.hpp:76] Creating layer inception_4e/3x3_reduce
I1028 13:37:42.086205 28216 net.cpp:106] Creating Layer inception_4e/3x3_reduce
I1028 13:37:42.086210 28216 net.cpp:454] inception_4e/3x3_reduce <- inception_4d/output_inception_4d/output_0_split_2
I1028 13:37:42.086218 28216 net.cpp:411] inception_4e/3x3_reduce -> inception_4e/3x3_reduce
I1028 13:37:42.087862 28216 cudnn_conv_layer.cpp:194] Reallocating workspace storage: 10080
I1028 13:37:42.087906 28216 net.cpp:150] Setting up inception_4e/3x3_reduce
I1028 13:37:42.087915 28216 net.cpp:157] Top shape: 32 160 14 14 (1003520)
I1028 13:37:42.087923 28216 net.cpp:165] Memory required for data: 1628062728
I1028 13:37:42.087929 28216 layer_factory.hpp:76] Creating layer inception_4e/prelu_3x3_reduce
I1028 13:37:42.087949 28216 net.cpp:106] Creating Layer inception_4e/prelu_3x3_reduce
I1028 13:37:42.087954 28216 net.cpp:454] inception_4e/prelu_3x3_reduce <- inception_4e/3x3_reduce
I1028 13:37:42.087960 28216 net.cpp:397] inception_4e/prelu_3x3_reduce -> inception_4e/3x3_reduce (in-place)
I1028 13:37:42.088078 28216 net.cpp:150] Setting up inception_4e/prelu_3x3_reduce
I1028 13:37:42.088088 28216 net.cpp:157] Top shape: 32 160 14 14 (1003520)
I1028 13:37:42.088091 28216 net.cpp:165] Memory required for data: 1632076808
I1028 13:37:42.088096 28216 layer_factory.hpp:76] Creating layer inception_4e/3x3
I1028 13:37:42.088105 28216 net.cpp:106] Creating Layer inception_4e/3x3
I1028 13:37:42.088111 28216 net.cpp:454] inception_4e/3x3 <- inception_4e/3x3_reduce
I1028 13:37:42.088120 28216 net.cpp:411] inception_4e/3x3 -> inception_4e/3x3
I1028 13:37:42.092546 28216 cudnn_conv_layer.cpp:194] Reallocating workspace storage: 10080
I1028 13:37:42.092612 28216 net.cpp:150] Setting up inception_4e/3x3
I1028 13:37:42.092625 28216 net.cpp:157] Top shape: 32 320 14 14 (2007040)
I1028 13:37:42.092630 28216 net.cpp:165] Memory required for data: 1640104968
I1028 13:37:42.092638 28216 layer_factory.hpp:76] Creating layer inception_4e/prelu_3x3
I1028 13:37:42.092659 28216 net.cpp:106] Creating Layer inception_4e/prelu_3x3
I1028 13:37:42.092675 28216 net.cpp:454] inception_4e/prelu_3x3 <- inception_4e/3x3
I1028 13:37:42.092685 28216 net.cpp:397] inception_4e/prelu_3x3 -> inception_4e/3x3 (in-place)
I1028 13:37:42.092881 28216 net.cpp:150] Setting up inception_4e/prelu_3x3
I1028 13:37:42.092891 28216 net.cpp:157] Top shape: 32 320 14 14 (2007040)
I1028 13:37:42.092895 28216 net.cpp:165] Memory required for data: 1648133128
I1028 13:37:42.092911 28216 layer_factory.hpp:76] Creating layer inception_4e/5x5_reduce
I1028 13:37:42.092922 28216 net.cpp:106] Creating Layer inception_4e/5x5_reduce
I1028 13:37:42.092928 28216 net.cpp:454] inception_4e/5x5_reduce <- inception_4d/output_inception_4d/output_0_split_3
I1028 13:37:42.092936 28216 net.cpp:411] inception_4e/5x5_reduce -> inception_4e/5x5_reduce
I1028 13:37:42.094192 28216 cudnn_conv_layer.cpp:194] Reallocating workspace storage: 10080
I1028 13:37:42.094223 28216 net.cpp:150] Setting up inception_4e/5x5_reduce
I1028 13:37:42.094233 28216 net.cpp:157] Top shape: 32 32 14 14 (200704)
I1028 13:37:42.094255 28216 net.cpp:165] Memory required for data: 1648935944
I1028 13:37:42.094264 28216 layer_factory.hpp:76] Creating layer inception_4e/prelu_5x5_reduce
I1028 13:37:42.094272 28216 net.cpp:106] Creating Layer inception_4e/prelu_5x5_reduce
I1028 13:37:42.094296 28216 net.cpp:454] inception_4e/prelu_5x5_reduce <- inception_4e/5x5_reduce
I1028 13:37:42.094306 28216 net.cpp:397] inception_4e/prelu_5x5_reduce -> inception_4e/5x5_reduce (in-place)
I1028 13:37:42.094421 28216 net.cpp:150] Setting up inception_4e/prelu_5x5_reduce
I1028 13:37:42.094430 28216 net.cpp:157] Top shape: 32 32 14 14 (200704)
I1028 13:37:42.094434 28216 net.cpp:165] Memory required for data: 1649738760
I1028 13:37:42.094449 28216 layer_factory.hpp:76] Creating layer inception_4e/5x5
I1028 13:37:42.094473 28216 net.cpp:106] Creating Layer inception_4e/5x5
I1028 13:37:42.094480 28216 net.cpp:454] inception_4e/5x5 <- inception_4e/5x5_reduce
I1028 13:37:42.094497 28216 net.cpp:411] inception_4e/5x5 -> inception_4e/5x5
I1028 13:37:42.096650 28216 cudnn_conv_layer.cpp:194] Reallocating workspace storage: 13080
I1028 13:37:42.096680 28216 net.cpp:150] Setting up inception_4e/5x5
I1028 13:37:42.096689 28216 net.cpp:157] Top shape: 32 128 14 14 (802816)
I1028 13:37:42.096693 28216 net.cpp:165] Memory required for data: 1652950024
I1028 13:37:42.096701 28216 layer_factory.hpp:76] Creating layer inception_4e/prelu_5x5
I1028 13:37:42.096711 28216 net.cpp:106] Creating Layer inception_4e/prelu_5x5
I1028 13:37:42.096727 28216 net.cpp:454] inception_4e/prelu_5x5 <- inception_4e/5x5
I1028 13:37:42.096745 28216 net.cpp:397] inception_4e/prelu_5x5 -> inception_4e/5x5 (in-place)
I1028 13:37:42.096863 28216 net.cpp:150] Setting up inception_4e/prelu_5x5
I1028 13:37:42.096873 28216 net.cpp:157] Top shape: 32 128 14 14 (802816)
I1028 13:37:42.096876 28216 net.cpp:165] Memory required for data: 1656161288
I1028 13:37:42.096882 28216 layer_factory.hpp:76] Creating layer inception_4e/pool
I1028 13:37:42.096889 28216 net.cpp:106] Creating Layer inception_4e/pool
I1028 13:37:42.096895 28216 net.cpp:454] inception_4e/pool <- inception_4d/output_inception_4d/output_0_split_4
I1028 13:37:42.096902 28216 net.cpp:411] inception_4e/pool -> inception_4e/pool
I1028 13:37:42.097288 28216 net.cpp:150] Setting up inception_4e/pool
I1028 13:37:42.097300 28216 net.cpp:157] Top shape: 32 528 14 14 (3311616)
I1028 13:37:42.097303 28216 net.cpp:165] Memory required for data: 1669407752
I1028 13:37:42.097307 28216 layer_factory.hpp:76] Creating layer inception_4e/pool_proj
I1028 13:37:42.097318 28216 net.cpp:106] Creating Layer inception_4e/pool_proj
I1028 13:37:42.097323 28216 net.cpp:454] inception_4e/pool_proj <- inception_4e/pool
I1028 13:37:42.097332 28216 net.cpp:411] inception_4e/pool_proj -> inception_4e/pool_proj
I1028 13:37:42.098625 28216 cudnn_conv_layer.cpp:194] Reallocating workspace storage: 10080
I1028 13:37:42.098657 28216 net.cpp:150] Setting up inception_4e/pool_proj
I1028 13:37:42.098665 28216 net.cpp:157] Top shape: 32 128 14 14 (802816)
I1028 13:37:42.098670 28216 net.cpp:165] Memory required for data: 1672619016
I1028 13:37:42.098676 28216 layer_factory.hpp:76] Creating layer inception_4e/prelu_pool_proj
I1028 13:37:42.098697 28216 net.cpp:106] Creating Layer inception_4e/prelu_pool_proj
I1028 13:37:42.098703 28216 net.cpp:454] inception_4e/prelu_pool_proj <- inception_4e/pool_proj
I1028 13:37:42.098711 28216 net.cpp:397] inception_4e/prelu_pool_proj -> inception_4e/pool_proj (in-place)
I1028 13:37:42.098842 28216 net.cpp:150] Setting up inception_4e/prelu_pool_proj
I1028 13:37:42.098851 28216 net.cpp:157] Top shape: 32 128 14 14 (802816)
I1028 13:37:42.098855 28216 net.cpp:165] Memory required for data: 1675830280
I1028 13:37:42.098860 28216 layer_factory.hpp:76] Creating layer inception_4e/output
I1028 13:37:42.098867 28216 net.cpp:106] Creating Layer inception_4e/output
I1028 13:37:42.098872 28216 net.cpp:454] inception_4e/output <- inception_4e/1x1
I1028 13:37:42.098877 28216 net.cpp:454] inception_4e/output <- inception_4e/3x3
I1028 13:37:42.098882 28216 net.cpp:454] inception_4e/output <- inception_4e/5x5
I1028 13:37:42.098909 28216 net.cpp:454] inception_4e/output <- inception_4e/pool_proj
I1028 13:37:42.098918 28216 net.cpp:411] inception_4e/output -> inception_4e/output
I1028 13:37:42.098961 28216 net.cpp:150] Setting up inception_4e/output
I1028 13:37:42.098969 28216 net.cpp:157] Top shape: 32 832 14 14 (5218304)
I1028 13:37:42.098973 28216 net.cpp:165] Memory required for data: 1696703496
I1028 13:37:42.098978 28216 layer_factory.hpp:76] Creating layer pool4/3x3_s2
I1028 13:37:42.098985 28216 net.cpp:106] Creating Layer pool4/3x3_s2
I1028 13:37:42.098989 28216 net.cpp:454] pool4/3x3_s2 <- inception_4e/output
I1028 13:37:42.098995 28216 net.cpp:411] pool4/3x3_s2 -> pool4/3x3_s2
I1028 13:37:42.099400 28216 net.cpp:150] Setting up pool4/3x3_s2
I1028 13:37:42.099411 28216 net.cpp:157] Top shape: 32 832 7 7 (1304576)
I1028 13:37:42.099424 28216 net.cpp:165] Memory required for data: 1701921800
I1028 13:37:42.099429 28216 layer_factory.hpp:76] Creating layer pool4/3x3_s2_pool4/3x3_s2_0_split
I1028 13:37:42.099436 28216 net.cpp:106] Creating Layer pool4/3x3_s2_pool4/3x3_s2_0_split
I1028 13:37:42.099442 28216 net.cpp:454] pool4/3x3_s2_pool4/3x3_s2_0_split <- pool4/3x3_s2
I1028 13:37:42.099448 28216 net.cpp:411] pool4/3x3_s2_pool4/3x3_s2_0_split -> pool4/3x3_s2_pool4/3x3_s2_0_split_0
I1028 13:37:42.099457 28216 net.cpp:411] pool4/3x3_s2_pool4/3x3_s2_0_split -> pool4/3x3_s2_pool4/3x3_s2_0_split_1
I1028 13:37:42.099463 28216 net.cpp:411] pool4/3x3_s2_pool4/3x3_s2_0_split -> pool4/3x3_s2_pool4/3x3_s2_0_split_2
I1028 13:37:42.099469 28216 net.cpp:411] pool4/3x3_s2_pool4/3x3_s2_0_split -> pool4/3x3_s2_pool4/3x3_s2_0_split_3
I1028 13:37:42.099547 28216 net.cpp:150] Setting up pool4/3x3_s2_pool4/3x3_s2_0_split
I1028 13:37:42.099556 28216 net.cpp:157] Top shape: 32 832 7 7 (1304576)
I1028 13:37:42.099561 28216 net.cpp:157] Top shape: 32 832 7 7 (1304576)
I1028 13:37:42.099565 28216 net.cpp:157] Top shape: 32 832 7 7 (1304576)
I1028 13:37:42.099570 28216 net.cpp:157] Top shape: 32 832 7 7 (1304576)
I1028 13:37:42.099575 28216 net.cpp:165] Memory required for data: 1722795016
I1028 13:37:42.099578 28216 layer_factory.hpp:76] Creating layer inception_5a/1x1
I1028 13:37:42.099589 28216 net.cpp:106] Creating Layer inception_5a/1x1
I1028 13:37:42.099597 28216 net.cpp:454] inception_5a/1x1 <- pool4/3x3_s2_pool4/3x3_s2_0_split_0
I1028 13:37:42.099617 28216 net.cpp:411] inception_5a/1x1 -> inception_5a/1x1
I1028 13:37:42.102429 28216 cudnn_conv_layer.cpp:194] Reallocating workspace storage: 7428
I1028 13:37:42.102460 28216 net.cpp:150] Setting up inception_5a/1x1
I1028 13:37:42.102469 28216 net.cpp:157] Top shape: 32 256 7 7 (401408)
I1028 13:37:42.102473 28216 net.cpp:165] Memory required for data: 1724400648
I1028 13:37:42.102481 28216 layer_factory.hpp:76] Creating layer inception_5a/prelu_1x1
I1028 13:37:42.102490 28216 net.cpp:106] Creating Layer inception_5a/prelu_1x1
I1028 13:37:42.102496 28216 net.cpp:454] inception_5a/prelu_1x1 <- inception_5a/1x1
I1028 13:37:42.102502 28216 net.cpp:397] inception_5a/prelu_1x1 -> inception_5a/1x1 (in-place)
I1028 13:37:42.103060 28216 net.cpp:150] Setting up inception_5a/prelu_1x1
I1028 13:37:42.103070 28216 net.cpp:157] Top shape: 32 256 7 7 (401408)
I1028 13:37:42.103075 28216 net.cpp:165] Memory required for data: 1726006280
I1028 13:37:42.103091 28216 layer_factory.hpp:76] Creating layer inception_5a/3x3_reduce
I1028 13:37:42.103101 28216 net.cpp:106] Creating Layer inception_5a/3x3_reduce
I1028 13:37:42.103106 28216 net.cpp:454] inception_5a/3x3_reduce <- pool4/3x3_s2_pool4/3x3_s2_0_split_1
I1028 13:37:42.103112 28216 net.cpp:411] inception_5a/3x3_reduce -> inception_5a/3x3_reduce
I1028 13:37:42.105365 28216 cudnn_conv_layer.cpp:194] Reallocating workspace storage: 7428
I1028 13:37:42.105404 28216 net.cpp:150] Setting up inception_5a/3x3_reduce
I1028 13:37:42.105432 28216 net.cpp:157] Top shape: 32 160 7 7 (250880)
I1028 13:37:42.105435 28216 net.cpp:165] Memory required for data: 1727009800
I1028 13:37:42.105443 28216 layer_factory.hpp:76] Creating layer inception_5a/prelu_3x3_reduce
I1028 13:37:42.105463 28216 net.cpp:106] Creating Layer inception_5a/prelu_3x3_reduce
I1028 13:37:42.105469 28216 net.cpp:454] inception_5a/prelu_3x3_reduce <- inception_5a/3x3_reduce
I1028 13:37:42.105476 28216 net.cpp:397] inception_5a/prelu_3x3_reduce -> inception_5a/3x3_reduce (in-place)
I1028 13:37:42.105600 28216 net.cpp:150] Setting up inception_5a/prelu_3x3_reduce
I1028 13:37:42.105609 28216 net.cpp:157] Top shape: 32 160 7 7 (250880)
I1028 13:37:42.105612 28216 net.cpp:165] Memory required for data: 1728013320
I1028 13:37:42.105618 28216 layer_factory.hpp:76] Creating layer inception_5a/3x3
I1028 13:37:42.105626 28216 net.cpp:106] Creating Layer inception_5a/3x3
I1028 13:37:42.105631 28216 net.cpp:454] inception_5a/3x3 <- inception_5a/3x3_reduce
I1028 13:37:42.105640 28216 net.cpp:411] inception_5a/3x3 -> inception_5a/3x3
I1028 13:37:42.109652 28216 cudnn_conv_layer.cpp:194] Reallocating workspace storage: 7788
I1028 13:37:42.109693 28216 net.cpp:150] Setting up inception_5a/3x3
I1028 13:37:42.109704 28216 net.cpp:157] Top shape: 32 320 7 7 (501760)
I1028 13:37:42.109707 28216 net.cpp:165] Memory required for data: 1730020360
I1028 13:37:42.109715 28216 layer_factory.hpp:76] Creating layer inception_5a/prelu_3x3
I1028 13:37:42.109724 28216 net.cpp:106] Creating Layer inception_5a/prelu_3x3
I1028 13:37:42.109738 28216 net.cpp:454] inception_5a/prelu_3x3 <- inception_5a/3x3
I1028 13:37:42.109757 28216 net.cpp:397] inception_5a/prelu_3x3 -> inception_5a/3x3 (in-place)
I1028 13:37:42.109879 28216 net.cpp:150] Setting up inception_5a/prelu_3x3
I1028 13:37:42.109887 28216 net.cpp:157] Top shape: 32 320 7 7 (501760)
I1028 13:37:42.109891 28216 net.cpp:165] Memory required for data: 1732027400
I1028 13:37:42.109896 28216 layer_factory.hpp:76] Creating layer inception_5a/5x5_reduce
I1028 13:37:42.109915 28216 net.cpp:106] Creating Layer inception_5a/5x5_reduce
I1028 13:37:42.109920 28216 net.cpp:454] inception_5a/5x5_reduce <- pool4/3x3_s2_pool4/3x3_s2_0_split_2
I1028 13:37:42.109928 28216 net.cpp:411] inception_5a/5x5_reduce -> inception_5a/5x5_reduce
I1028 13:37:42.111325 28216 cudnn_conv_layer.cpp:194] Reallocating workspace storage: 7428
I1028 13:37:42.111353 28216 net.cpp:150] Setting up inception_5a/5x5_reduce
I1028 13:37:42.111361 28216 net.cpp:157] Top shape: 32 32 7 7 (50176)
I1028 13:37:42.111366 28216 net.cpp:165] Memory required for data: 1732228104
I1028 13:37:42.111372 28216 layer_factory.hpp:76] Creating layer inception_5a/prelu_5x5_reduce
I1028 13:37:42.111382 28216 net.cpp:106] Creating Layer inception_5a/prelu_5x5_reduce
I1028 13:37:42.111388 28216 net.cpp:454] inception_5a/prelu_5x5_reduce <- inception_5a/5x5_reduce
I1028 13:37:42.111394 28216 net.cpp:397] inception_5a/prelu_5x5_reduce -> inception_5a/5x5_reduce (in-place)
I1028 13:37:42.111500 28216 net.cpp:150] Setting up inception_5a/prelu_5x5_reduce
I1028 13:37:42.111508 28216 net.cpp:157] Top shape: 32 32 7 7 (50176)
I1028 13:37:42.111512 28216 net.cpp:165] Memory required for data: 1732428808
I1028 13:37:42.111517 28216 layer_factory.hpp:76] Creating layer inception_5a/5x5
I1028 13:37:42.111528 28216 net.cpp:106] Creating Layer inception_5a/5x5
I1028 13:37:42.111532 28216 net.cpp:454] inception_5a/5x5 <- inception_5a/5x5_reduce
I1028 13:37:42.111539 28216 net.cpp:411] inception_5a/5x5 -> inception_5a/5x5
I1028 13:37:42.113255 28216 cudnn_conv_layer.cpp:194] Reallocating workspace storage: 9804
I1028 13:37:42.113289 28216 net.cpp:150] Setting up inception_5a/5x5
I1028 13:37:42.113297 28216 net.cpp:157] Top shape: 32 128 7 7 (200704)
I1028 13:37:42.113301 28216 net.cpp:165] Memory required for data: 1733231624
I1028 13:37:42.113309 28216 layer_factory.hpp:76] Creating layer inception_5a/prelu_5x5
I1028 13:37:42.113319 28216 net.cpp:106] Creating Layer inception_5a/prelu_5x5
I1028 13:37:42.113324 28216 net.cpp:454] inception_5a/prelu_5x5 <- inception_5a/5x5
I1028 13:37:42.113332 28216 net.cpp:397] inception_5a/prelu_5x5 -> inception_5a/5x5 (in-place)
I1028 13:37:42.113440 28216 net.cpp:150] Setting up inception_5a/prelu_5x5
I1028 13:37:42.113461 28216 net.cpp:157] Top shape: 32 128 7 7 (200704)
I1028 13:37:42.113466 28216 net.cpp:165] Memory required for data: 1734034440
I1028 13:37:42.113471 28216 layer_factory.hpp:76] Creating layer inception_5a/pool
I1028 13:37:42.113481 28216 net.cpp:106] Creating Layer inception_5a/pool
I1028 13:37:42.113487 28216 net.cpp:454] inception_5a/pool <- pool4/3x3_s2_pool4/3x3_s2_0_split_3
I1028 13:37:42.113492 28216 net.cpp:411] inception_5a/pool -> inception_5a/pool
I1028 13:37:42.113685 28216 net.cpp:150] Setting up inception_5a/pool
I1028 13:37:42.113695 28216 net.cpp:157] Top shape: 32 832 7 7 (1304576)
I1028 13:37:42.113699 28216 net.cpp:165] Memory required for data: 1739252744
I1028 13:37:42.113704 28216 layer_factory.hpp:76] Creating layer inception_5a/pool_proj
I1028 13:37:42.113714 28216 net.cpp:106] Creating Layer inception_5a/pool_proj
I1028 13:37:42.113719 28216 net.cpp:454] inception_5a/pool_proj <- inception_5a/pool
I1028 13:37:42.113725 28216 net.cpp:411] inception_5a/pool_proj -> inception_5a/pool_proj
I1028 13:37:42.116205 28216 cudnn_conv_layer.cpp:194] Reallocating workspace storage: 7428
I1028 13:37:42.116246 28216 net.cpp:150] Setting up inception_5a/pool_proj
I1028 13:37:42.116256 28216 net.cpp:157] Top shape: 32 128 7 7 (200704)
I1028 13:37:42.116261 28216 net.cpp:165] Memory required for data: 1740055560
I1028 13:37:42.116269 28216 layer_factory.hpp:76] Creating layer inception_5a/prelu_pool_proj
I1028 13:37:42.116281 28216 net.cpp:106] Creating Layer inception_5a/prelu_pool_proj
I1028 13:37:42.116286 28216 net.cpp:454] inception_5a/prelu_pool_proj <- inception_5a/pool_proj
I1028 13:37:42.116293 28216 net.cpp:397] inception_5a/prelu_pool_proj -> inception_5a/pool_proj (in-place)
I1028 13:37:42.116405 28216 net.cpp:150] Setting up inception_5a/prelu_pool_proj
I1028 13:37:42.116415 28216 net.cpp:157] Top shape: 32 128 7 7 (200704)
I1028 13:37:42.116418 28216 net.cpp:165] Memory required for data: 1740858376
I1028 13:37:42.116425 28216 layer_factory.hpp:76] Creating layer inception_5a/output
I1028 13:37:42.116433 28216 net.cpp:106] Creating Layer inception_5a/output
I1028 13:37:42.116438 28216 net.cpp:454] inception_5a/output <- inception_5a/1x1
I1028 13:37:42.116443 28216 net.cpp:454] inception_5a/output <- inception_5a/3x3
I1028 13:37:42.116448 28216 net.cpp:454] inception_5a/output <- inception_5a/5x5
I1028 13:37:42.116453 28216 net.cpp:454] inception_5a/output <- inception_5a/pool_proj
I1028 13:37:42.116458 28216 net.cpp:411] inception_5a/output -> inception_5a/output
I1028 13:37:42.116489 28216 net.cpp:150] Setting up inception_5a/output
I1028 13:37:42.116498 28216 net.cpp:157] Top shape: 32 832 7 7 (1304576)
I1028 13:37:42.116503 28216 net.cpp:165] Memory required for data: 1746076680
I1028 13:37:42.116507 28216 layer_factory.hpp:76] Creating layer inception_5a/output_inception_5a/output_0_split
I1028 13:37:42.116513 28216 net.cpp:106] Creating Layer inception_5a/output_inception_5a/output_0_split
I1028 13:37:42.116518 28216 net.cpp:454] inception_5a/output_inception_5a/output_0_split <- inception_5a/output
I1028 13:37:42.116526 28216 net.cpp:411] inception_5a/output_inception_5a/output_0_split -> inception_5a/output_inception_5a/output_0_split_0
I1028 13:37:42.116536 28216 net.cpp:411] inception_5a/output_inception_5a/output_0_split -> inception_5a/output_inception_5a/output_0_split_1
I1028 13:37:42.116544 28216 net.cpp:411] inception_5a/output_inception_5a/output_0_split -> inception_5a/output_inception_5a/output_0_split_2
I1028 13:37:42.116552 28216 net.cpp:411] inception_5a/output_inception_5a/output_0_split -> inception_5a/output_inception_5a/output_0_split_3
I1028 13:37:42.116622 28216 net.cpp:150] Setting up inception_5a/output_inception_5a/output_0_split
I1028 13:37:42.116631 28216 net.cpp:157] Top shape: 32 832 7 7 (1304576)
I1028 13:37:42.116636 28216 net.cpp:157] Top shape: 32 832 7 7 (1304576)
I1028 13:37:42.116641 28216 net.cpp:157] Top shape: 32 832 7 7 (1304576)
I1028 13:37:42.116647 28216 net.cpp:157] Top shape: 32 832 7 7 (1304576)
I1028 13:37:42.116665 28216 net.cpp:165] Memory required for data: 1766949896
I1028 13:37:42.116670 28216 layer_factory.hpp:76] Creating layer inception_5b/1x1
I1028 13:37:42.116680 28216 net.cpp:106] Creating Layer inception_5b/1x1
I1028 13:37:42.116684 28216 net.cpp:454] inception_5b/1x1 <- inception_5a/output_inception_5a/output_0_split_0
I1028 13:37:42.116691 28216 net.cpp:411] inception_5b/1x1 -> inception_5b/1x1
I1028 13:37:42.120405 28216 cudnn_conv_layer.cpp:194] Reallocating workspace storage: 7428
I1028 13:37:42.120450 28216 net.cpp:150] Setting up inception_5b/1x1
I1028 13:37:42.120460 28216 net.cpp:157] Top shape: 32 384 7 7 (602112)
I1028 13:37:42.120463 28216 net.cpp:165] Memory required for data: 1769358344
I1028 13:37:42.120472 28216 layer_factory.hpp:76] Creating layer inception_5b/prelu_1x1
I1028 13:37:42.120486 28216 net.cpp:106] Creating Layer inception_5b/prelu_1x1
I1028 13:37:42.120491 28216 net.cpp:454] inception_5b/prelu_1x1 <- inception_5b/1x1
I1028 13:37:42.120501 28216 net.cpp:397] inception_5b/prelu_1x1 -> inception_5b/1x1 (in-place)
I1028 13:37:42.121198 28216 net.cpp:150] Setting up inception_5b/prelu_1x1
I1028 13:37:42.121223 28216 net.cpp:157] Top shape: 32 384 7 7 (602112)
I1028 13:37:42.121237 28216 net.cpp:165] Memory required for data: 1771766792
I1028 13:37:42.121244 28216 layer_factory.hpp:76] Creating layer inception_5b/3x3_reduce
I1028 13:37:42.121256 28216 net.cpp:106] Creating Layer inception_5b/3x3_reduce
I1028 13:37:42.121263 28216 net.cpp:454] inception_5b/3x3_reduce <- inception_5a/output_inception_5a/output_0_split_1
I1028 13:37:42.121281 28216 net.cpp:411] inception_5b/3x3_reduce -> inception_5b/3x3_reduce
I1028 13:37:42.123795 28216 cudnn_conv_layer.cpp:194] Reallocating workspace storage: 7428
I1028 13:37:42.123832 28216 net.cpp:150] Setting up inception_5b/3x3_reduce
I1028 13:37:42.123841 28216 net.cpp:157] Top shape: 32 192 7 7 (301056)
I1028 13:37:42.123844 28216 net.cpp:165] Memory required for data: 1772971016
I1028 13:37:42.123862 28216 layer_factory.hpp:76] Creating layer inception_5b/prelu_3x3_reduce
I1028 13:37:42.123873 28216 net.cpp:106] Creating Layer inception_5b/prelu_3x3_reduce
I1028 13:37:42.123878 28216 net.cpp:454] inception_5b/prelu_3x3_reduce <- inception_5b/3x3_reduce
I1028 13:37:42.123885 28216 net.cpp:397] inception_5b/prelu_3x3_reduce -> inception_5b/3x3_reduce (in-place)
I1028 13:37:42.124025 28216 net.cpp:150] Setting up inception_5b/prelu_3x3_reduce
I1028 13:37:42.124034 28216 net.cpp:157] Top shape: 32 192 7 7 (301056)
I1028 13:37:42.124038 28216 net.cpp:165] Memory required for data: 1774175240
I1028 13:37:42.124044 28216 layer_factory.hpp:76] Creating layer inception_5b/3x3
I1028 13:37:42.124053 28216 net.cpp:106] Creating Layer inception_5b/3x3
I1028 13:37:42.124058 28216 net.cpp:454] inception_5b/3x3 <- inception_5b/3x3_reduce
I1028 13:37:42.124065 28216 net.cpp:411] inception_5b/3x3 -> inception_5b/3x3
I1028 13:37:42.129858 28216 cudnn_conv_layer.cpp:194] Reallocating workspace storage: 7788
I1028 13:37:42.129914 28216 net.cpp:150] Setting up inception_5b/3x3
I1028 13:37:42.129925 28216 net.cpp:157] Top shape: 32 384 7 7 (602112)
I1028 13:37:42.129940 28216 net.cpp:165] Memory required for data: 1776583688
I1028 13:37:42.129950 28216 layer_factory.hpp:76] Creating layer inception_5b/prelu_3x3
I1028 13:37:42.129961 28216 net.cpp:106] Creating Layer inception_5b/prelu_3x3
I1028 13:37:42.129966 28216 net.cpp:454] inception_5b/prelu_3x3 <- inception_5b/3x3
I1028 13:37:42.129984 28216 net.cpp:397] inception_5b/prelu_3x3 -> inception_5b/3x3 (in-place)
I1028 13:37:42.130163 28216 net.cpp:150] Setting up inception_5b/prelu_3x3
I1028 13:37:42.130173 28216 net.cpp:157] Top shape: 32 384 7 7 (602112)
I1028 13:37:42.130177 28216 net.cpp:165] Memory required for data: 1778992136
I1028 13:37:42.130192 28216 layer_factory.hpp:76] Creating layer inception_5b/5x5_reduce
I1028 13:37:42.130203 28216 net.cpp:106] Creating Layer inception_5b/5x5_reduce
I1028 13:37:42.130208 28216 net.cpp:454] inception_5b/5x5_reduce <- inception_5a/output_inception_5a/output_0_split_2
I1028 13:37:42.130242 28216 net.cpp:411] inception_5b/5x5_reduce -> inception_5b/5x5_reduce
I1028 13:37:42.131389 28216 cudnn_conv_layer.cpp:194] Reallocating workspace storage: 7428
I1028 13:37:42.131414 28216 net.cpp:150] Setting up inception_5b/5x5_reduce
I1028 13:37:42.131422 28216 net.cpp:157] Top shape: 32 48 7 7 (75264)
I1028 13:37:42.131427 28216 net.cpp:165] Memory required for data: 1779293192
I1028 13:37:42.131433 28216 layer_factory.hpp:76] Creating layer inception_5b/prelu_5x5_reduce
I1028 13:37:42.131441 28216 net.cpp:106] Creating Layer inception_5b/prelu_5x5_reduce
I1028 13:37:42.131446 28216 net.cpp:454] inception_5b/prelu_5x5_reduce <- inception_5b/5x5_reduce
I1028 13:37:42.131451 28216 net.cpp:397] inception_5b/prelu_5x5_reduce -> inception_5b/5x5_reduce (in-place)
I1028 13:37:42.131562 28216 net.cpp:150] Setting up inception_5b/prelu_5x5_reduce
I1028 13:37:42.131572 28216 net.cpp:157] Top shape: 32 48 7 7 (75264)
I1028 13:37:42.131575 28216 net.cpp:165] Memory required for data: 1779594248
I1028 13:37:42.131580 28216 layer_factory.hpp:76] Creating layer inception_5b/5x5
I1028 13:37:42.131589 28216 net.cpp:106] Creating Layer inception_5b/5x5
I1028 13:37:42.131594 28216 net.cpp:454] inception_5b/5x5 <- inception_5b/5x5_reduce
I1028 13:37:42.131602 28216 net.cpp:411] inception_5b/5x5 -> inception_5b/5x5
I1028 13:37:42.133561 28216 cudnn_conv_layer.cpp:194] Reallocating workspace storage: 9804
I1028 13:37:42.133589 28216 net.cpp:150] Setting up inception_5b/5x5
I1028 13:37:42.133595 28216 net.cpp:157] Top shape: 32 128 7 7 (200704)
I1028 13:37:42.133599 28216 net.cpp:165] Memory required for data: 1780397064
I1028 13:37:42.133606 28216 layer_factory.hpp:76] Creating layer inception_5b/prelu_5x5
I1028 13:37:42.133615 28216 net.cpp:106] Creating Layer inception_5b/prelu_5x5
I1028 13:37:42.133620 28216 net.cpp:454] inception_5b/prelu_5x5 <- inception_5b/5x5
I1028 13:37:42.133625 28216 net.cpp:397] inception_5b/prelu_5x5 -> inception_5b/5x5 (in-place)
I1028 13:37:42.133754 28216 net.cpp:150] Setting up inception_5b/prelu_5x5
I1028 13:37:42.133762 28216 net.cpp:157] Top shape: 32 128 7 7 (200704)
I1028 13:37:42.133766 28216 net.cpp:165] Memory required for data: 1781199880
I1028 13:37:42.133771 28216 layer_factory.hpp:76] Creating layer inception_5b/pool
I1028 13:37:42.133780 28216 net.cpp:106] Creating Layer inception_5b/pool
I1028 13:37:42.133785 28216 net.cpp:454] inception_5b/pool <- inception_5a/output_inception_5a/output_0_split_3
I1028 13:37:42.133790 28216 net.cpp:411] inception_5b/pool -> inception_5b/pool
I1028 13:37:42.134178 28216 net.cpp:150] Setting up inception_5b/pool
I1028 13:37:42.134189 28216 net.cpp:157] Top shape: 32 832 7 7 (1304576)
I1028 13:37:42.134193 28216 net.cpp:165] Memory required for data: 1786418184
I1028 13:37:42.134197 28216 layer_factory.hpp:76] Creating layer inception_5b/pool_proj
I1028 13:37:42.134207 28216 net.cpp:106] Creating Layer inception_5b/pool_proj
I1028 13:37:42.134212 28216 net.cpp:454] inception_5b/pool_proj <- inception_5b/pool
I1028 13:37:42.134218 28216 net.cpp:411] inception_5b/pool_proj -> inception_5b/pool_proj
I1028 13:37:42.136319 28216 cudnn_conv_layer.cpp:194] Reallocating workspace storage: 7428
I1028 13:37:42.136346 28216 net.cpp:150] Setting up inception_5b/pool_proj
I1028 13:37:42.136354 28216 net.cpp:157] Top shape: 32 128 7 7 (200704)
I1028 13:37:42.136358 28216 net.cpp:165] Memory required for data: 1787221000
I1028 13:37:42.136364 28216 layer_factory.hpp:76] Creating layer inception_5b/prelu_pool_proj
I1028 13:37:42.136382 28216 net.cpp:106] Creating Layer inception_5b/prelu_pool_proj
I1028 13:37:42.136389 28216 net.cpp:454] inception_5b/prelu_pool_proj <- inception_5b/pool_proj
I1028 13:37:42.136394 28216 net.cpp:397] inception_5b/prelu_pool_proj -> inception_5b/pool_proj (in-place)
I1028 13:37:42.136521 28216 net.cpp:150] Setting up inception_5b/prelu_pool_proj
I1028 13:37:42.136530 28216 net.cpp:157] Top shape: 32 128 7 7 (200704)
I1028 13:37:42.136534 28216 net.cpp:165] Memory required for data: 1788023816
I1028 13:37:42.136539 28216 layer_factory.hpp:76] Creating layer inception_5b/output
I1028 13:37:42.136556 28216 net.cpp:106] Creating Layer inception_5b/output
I1028 13:37:42.136561 28216 net.cpp:454] inception_5b/output <- inception_5b/1x1
I1028 13:37:42.136566 28216 net.cpp:454] inception_5b/output <- inception_5b/3x3
I1028 13:37:42.136580 28216 net.cpp:454] inception_5b/output <- inception_5b/5x5
I1028 13:37:42.136585 28216 net.cpp:454] inception_5b/output <- inception_5b/pool_proj
I1028 13:37:42.136590 28216 net.cpp:411] inception_5b/output -> inception_5b/output
I1028 13:37:42.136633 28216 net.cpp:150] Setting up inception_5b/output
I1028 13:37:42.136642 28216 net.cpp:157] Top shape: 32 1024 7 7 (1605632)
I1028 13:37:42.136646 28216 net.cpp:165] Memory required for data: 1794446344
I1028 13:37:42.136670 28216 layer_factory.hpp:76] Creating layer pool5/7x7_s1
I1028 13:37:42.136677 28216 net.cpp:106] Creating Layer pool5/7x7_s1
I1028 13:37:42.136682 28216 net.cpp:454] pool5/7x7_s1 <- inception_5b/output
I1028 13:37:42.136688 28216 net.cpp:411] pool5/7x7_s1 -> pool5/7x7_s1
I1028 13:37:42.136873 28216 net.cpp:150] Setting up pool5/7x7_s1
I1028 13:37:42.136883 28216 net.cpp:157] Top shape: 32 1024 1 1 (32768)
I1028 13:37:42.136896 28216 net.cpp:165] Memory required for data: 1794577416
I1028 13:37:42.136901 28216 layer_factory.hpp:76] Creating layer pool5/drop_7x7_s1
I1028 13:37:42.136909 28216 net.cpp:106] Creating Layer pool5/drop_7x7_s1
I1028 13:37:42.136922 28216 net.cpp:454] pool5/drop_7x7_s1 <- pool5/7x7_s1
I1028 13:37:42.136929 28216 net.cpp:397] pool5/drop_7x7_s1 -> pool5/7x7_s1 (in-place)
I1028 13:37:42.136977 28216 net.cpp:150] Setting up pool5/drop_7x7_s1
I1028 13:37:42.136986 28216 net.cpp:157] Top shape: 32 1024 1 1 (32768)
I1028 13:37:42.136989 28216 net.cpp:165] Memory required for data: 1794708488
I1028 13:37:42.137003 28216 layer_factory.hpp:76] Creating layer loss3/classifier2
I1028 13:37:42.137012 28216 net.cpp:106] Creating Layer loss3/classifier2
I1028 13:37:42.137017 28216 net.cpp:454] loss3/classifier2 <- pool5/7x7_s1
I1028 13:37:42.137023 28216 net.cpp:411] loss3/classifier2 -> loss3/classifier
I1028 13:37:42.137169 28216 net.cpp:150] Setting up loss3/classifier2
I1028 13:37:42.137181 28216 net.cpp:157] Top shape: 32 2 (64)
I1028 13:37:42.137194 28216 net.cpp:165] Memory required for data: 1794708744
I1028 13:37:42.137200 28216 layer_factory.hpp:76] Creating layer loss3/loss3
I1028 13:37:42.137207 28216 net.cpp:106] Creating Layer loss3/loss3
I1028 13:37:42.137212 28216 net.cpp:454] loss3/loss3 <- loss3/classifier
I1028 13:37:42.137217 28216 net.cpp:454] loss3/loss3 <- label_data_1_split_2
I1028 13:37:42.137223 28216 net.cpp:411] loss3/loss3 -> loss3/loss3
…
I1028 13:37:42.142169 28216 net.cpp:322] The NetState phase (1) differed from the phase (0) specified by a rule in layer data
I1028 13:37:42.143179 28216 net.cpp:49] Initializing net from parameters: 
name: "GoogleNet"
state {
  phase: TEST
}
layer {
  name: "data"
  type: "Data"
  top: "data"
  top: "label"
  include {
    phase: TEST
  }
  transform_param {
    mirror: false
    crop_size: 224
    mean_value: 104
    mean_value: 117
    mean_value: 123
  }
  data_param {
    source: "../../LMDB/val_7-lmdb"
    batch_size: 50
    backend: LMDB
  }
}
layer {
  name: "conv1/7x7_s2"
  type: "Convolution"
  bottom: "data"
  top: "conv1/7x7_s2"
  param {
    lr_mult: 1
    decay_mult: 1
  }
  param {
    lr_mult: 2
    decay_mult: 0
  }
  convolution_param {
    num_output: 64
    pad: 3
    kernel_size: 7
    stride: 2
    weight_filler {
      type: "xavier"
    }
    bias_filler {
      type: "constant"
      value: 0.2
    }
  }
}
layer {
  name: "conv1/prelu_7x7"
  type: "PReLU"
  bottom: "conv1/7x7_s2"
  top: "conv1/7x7_s2"
  param {
    lr_mult: 1
    decay_mult: 0
  }
  prelu_param {
    filler {
      type: "constant"
      value: 0.01
    }
  }
}
layer {
  name: "pool1/3x3_s2"
  type: "Pooling"
  bottom: "conv1/7x7_s2"
  top: "pool1/3x3_s2"
  pooling_param {
    pool: MAX
    kernel_size: 3
    stride: 2
  }
}
layer {
  name: "pool1/norm1"
  type: "LRN"
  bottom: "pool1/3x3_s2"
  top: "pool1/norm1"
  lrn_param {
    local_size: 5
    alpha: 0.0001
    beta: 0.75
  }
}
layer {
  name: "conv2/3x3_reduce"
  type: "Convolution"
  bottom: "pool1/norm1"
  top: "conv2/3x3_reduce"
  param {
    lr_mult: 1
    decay_mult: 1
  }
  param {
    lr_mult: 2
    decay_mult: 0
  }
  convolution_param {
    num_output: 64
    kernel_size: 1
    weight_filler {
      type: "xavier"
    }
    bias_filler {
      type: "constant"
      value: 0.2
    }
  }
}
layer {
  name: "conv2/prelu_3x3_reduce"
  type: "PReLU"
  bottom: "conv2/3x3_reduce"
  top: "conv2/3x3_reduce"
  param {
    lr_mult: 1
    decay_mult: 0
  }
  prelu_param {
    filler {
      type: "constant"
      value: 0.01
    }
  }
}
layer {
  name: "conv2/3x3"
  type: "Convolution"
  bottom: "conv2/3x3_reduce"
  top: "conv2/3x3"
  param {
    lr_mult: 1
    decay_mult: 1
  }
  param {
    lr_mult: 2
    decay_mult: 0
  }
  convolution_param {
    num_output: 192
    pad: 1
    kernel_size: 3
    weight_filler {
      type: "xavier"
    }
    bias_filler {
      type: "constant"
      value: 0.2
    }
  }
}
layer {
  name: "conv2/prelu_3x3"
  type: "PReLU"
  bottom: "conv2/3x3"
  top: "conv2/3x3"
  param {
    lr_mult: 1
    decay_mult: 0
  }
  prelu_param {
    filler {
      type: "constant"
      value: 0.01
    }
  }
}
layer {
  name: "conv2/norm2"
  type: "LRN"
  bottom: "conv2/3x3"
  top: "conv2/norm2"
  lrn_param {
    local_size: 5
    alpha: 0.0001
    beta: 0.75
  }
}
layer {
  name: "pool2/3x3_s2"
  type: "Pooling"
  bottom: "conv2/norm2"
  top: "pool2/3x3_s2"
  pooling_param {
    pool: MAX
    kernel_size: 3
    stride: 2
  }
}
layer {
  name: "inception_3a/1x1"
  type: "Convolution"
  bottom: "pool2/3x3_s2"
  top: "inception_3a/1x1"
  param {
    lr_mult: 1
    decay_mult: 1
  }
  param {
    lr_mult: 2
    decay_mult: 0
  }
  convolution_param {
    num_output: 64
    kernel_size: 1
    weight_filler {
      type: "xavier"
    }
    bias_filler {
      type: "constant"
      value: 0.2
    }
  }
}
layer {
  name: "inception_3a/prelu_1x1"
  type: "PReLU"
  bottom: "inception_3a/1x1"
  top: "inception_3a/1x1"
  param {
    lr_mult: 1
    decay_mult: 0
  }
  prelu_param {
    filler {
      type: "constant"
      value: 0.01
    }
  }
}
layer {
  name: "inception_3a/3x3_reduce"
  type: "Convolution"
  bottom: "pool2/3x3_s2"
  top: "inception_3a/3x3_reduce"
  param {
    lr_mult: 1
    decay_mult: 1
  }
  param {
    lr_mult: 2
    decay_mult: 0
  }
  convolution_param {
    num_output: 96
    kernel_size: 1
    weight_filler {
      type: "xavier"
    }
    bias_filler {
      type: "constant"
      value: 0.2
    }
  }
}
layer {
  name: "inception_3a/prelu_3x3_reduce"
  type: "PReLU"
  bottom: "inception_3a/3x3_reduce"
  top: "inception_3a/3x3_reduce"
  param {
    lr_mult: 1
    decay_mult: 0
  }
  prelu_param {
    filler {
      type: "constant"
      value: 0.01
    }
  }
}
layer {
  name: "inception_3a/3x3"
  type: "Convolution"
  bottom: "inception_3a/3x3_reduce"
  top: "inception_3a/3x3"
  param {
    lr_mult: 1
    decay_mult: 1
  }
  param {
    lr_mult: 2
    decay_mult: 0
  }
  convolution_param {
    num_output: 128
    pad: 1
    kernel_size: 3
    weight_filler {
      type: "xavier"
    }
    bias_filler {
      type: "constant"
      value: 0.2
    }
  }
}
layer {
  name: "inception_3a/prelu_3x3"
  type: "PReLU"
  bottom: "inception_3a/3x3"
  top: "inception_3a/3x3"
  param {
    lr_mult: 1
    decay_mult: 0
  }
  prelu_param {
    filler {
      type: "constant"
      value: 0.01
    }
  }
}
layer {
  name: "inception_3a/5x5_reduce"
  type: "Convolution"
  bottom: "pool2/3x3_s2"
  top: "inception_3a/5x5_reduce"
  param {
    lr_mult: 1
    decay_mult: 1
  }
  param {
    lr_mult: 2
    decay_mult: 0
  }
  convolution_param {
    num_output: 16
    kernel_size: 1
    weight_filler {
      type: "xavier"
    }
    bias_filler {
      type: "constant"
      value: 0.2
    }
  }
}
layer {
  name: "inception_3a/prelu_5x5_reduce"
  type: "PReLU"
  bottom: "inception_3a/5x5_reduce"
  top: "inception_3a/5x5_reduce"
  param {
    lr_mult: 1
    decay_mult: 0
  }
  prelu_param {
    filler {
      type: "constant"
      value: 0.01
    }
  }
}
layer {
  name: "inception_3a/5x5"
  type: "Convolution"
  bottom: "inception_3a/5x5_reduce"
  top: "inception_3a/5x5"
  param {
    lr_mult: 1
    decay_mult: 1
  }
  param {
    lr_mult: 2
    decay_mult: 0
  }
  convolution_param {
    num_output: 32
    pad: 2
    kernel_size: 5
    weight_filler {
      type: "xavier"
    }
    bias_filler {
      type: "constant"
      value: 0.2
    }
  }
}
layer {
  name: "inception_3a/prelu_5x5"
  type: "PReLU"
  bottom: "inception_3a/5x5"
  top: "inception_3a/5x5"
  param {
    lr_mult: 1
    decay_mult: 0
  }
  prelu_param {
    filler {
      type: "constant"
      value: 0.01
    }
  }
}
layer {
  name: "inception_3a/pool"
  type: "Pooling"
  bottom: "pool2/3x3_s2"
  top: "inception_3a/pool"
  pooling_param {
    pool: MAX
    kernel_size: 3
    stride: 1
    pad: 1
  }
}
layer {
  name: "inception_3a/pool_proj"
  type: "Convolution"
  bottom: "inception_3a/pool"
  top: "inception_3a/pool_proj"
  param {
    lr_mult: 1
    decay_mult: 1
  }
  param {
    lr_mult: 2
    decay_mult: 0
  }
  convolution_param {
    num_output: 32
    kernel_size: 1
    weight_filler {
      type: "xavier"
    }
    bias_filler {
      type: "constant"
      value: 0.2
    }
  }
}
layer {
  name: "inception_3a/prelu_pool_proj"
  type: "PReLU"
  bottom: "inception_3a/pool_proj"
  top: "inception_3a/pool_proj"
  param {
    lr_mult: 1
    decay_mult: 0
  }
  prelu_param {
    filler {
      type: "constant"
      value: 0.01
    }
  }
}
layer {
  name: "inception_3a/output"
  type: "Concat"
  bottom: "inception_3a/1x1"
  bottom: "inception_3a/3x3"
  bottom: "inception_3a/5x5"
  bottom: "inception_3a/pool_proj"
  top: "inception_3a/output"
}
layer {
  name: "inception_3b/1x1"
  type: "Convolution"
  bottom: "inception_3a/output"
  top: "inception_3b/1x1"
  param {
    lr_mult: 1
    decay_mult: 1
  }
  param {
    lr_mult: 2
    decay_mult: 0
  }
  convolution_param {
    num_output: 128
    kernel_size: 1
    weight_filler {
      type: "xavier"
    }
    bias_filler {
      type: "constant"
      value: 0.2
    }
  }
}
layer {
  name: "inception_3b/prelu_1x1"
  type: "PReLU"
  bottom: "inception_3b/1x1"
  top: "inception_3b/1x1"
  param {
    lr_mult: 1
    decay_mult: 0
  }
  prelu_param {
    filler {
      type: "constant"
      value: 0.01
    }
  }
}
layer {
  name: "inception_3b/3x3_reduce"
  type: "Convolution"
  bottom: "inception_3a/output"
  top: "inception_3b/3x3_reduce"
  param {
    lr_mult: 1
    decay_mult: 1
  }
  param {
    lr_mult: 2
    decay_mult: 0
  }
  convolution_param {
    num_output: 128
    kernel_size: 1
    weight_filler {
      type: "xavier"
    }
    bias_filler {
      type: "constant"
      value: 0.2
    }
  }
}
layer {
  name: "inception_3b/prelu_3x3_reduce"
  type: "PReLU"
  bottom: "inception_3b/3x3_reduce"
  top: "inception_3b/3x3_reduce"
  param {
    lr_mult: 1
    decay_mult: 0
  }
  prelu_param {
    filler {
      type: "constant"
      value: 0.01
    }
  }
}
layer {
  name: "inception_3b/3x3"
  type: "Convolution"
  bottom: "inception_3b/3x3_reduce"
  top: "inception_3b/3x3"
  param {
    lr_mult: 1
    decay_mult: 1
  }
  param {
    lr_mult: 2
    decay_mult: 0
  }
  convolution_param {
    num_output: 192
    pad: 1
…
I1028 13:37:42.678767 28216 net.cpp:106] Creating Layer inception_4c/output
I1028 13:37:42.678782 28216 net.cpp:454] inception_4c/output <- inception_4c/1x1
I1028 13:37:42.678791 28216 net.cpp:454] inception_4c/output <- inception_4c/3x3
I1028 13:37:42.678796 28216 net.cpp:454] inception_4c/output <- inception_4c/5x5
I1028 13:37:42.678800 28216 net.cpp:454] inception_4c/output <- inception_4c/pool_proj
I1028 13:37:42.678807 28216 net.cpp:411] inception_4c/output -> inception_4c/output
I1028 13:37:42.678833 28216 net.cpp:150] Setting up inception_4c/output
I1028 13:37:42.678860 28216 net.cpp:157] Top shape: 50 512 14 14 (5017600)
I1028 13:37:42.678864 28216 net.cpp:165] Memory required for data: 2234652208
I1028 13:37:42.678869 28216 layer_factory.hpp:76] Creating layer inception_4c/output_inception_4c/output_0_split
I1028 13:37:42.678877 28216 net.cpp:106] Creating Layer inception_4c/output_inception_4c/output_0_split
I1028 13:37:42.678881 28216 net.cpp:454] inception_4c/output_inception_4c/output_0_split <- inception_4c/output
I1028 13:37:42.678887 28216 net.cpp:411] inception_4c/output_inception_4c/output_0_split -> inception_4c/output_inception_4c/output_0_split_0
I1028 13:37:42.678894 28216 net.cpp:411] inception_4c/output_inception_4c/output_0_split -> inception_4c/output_inception_4c/output_0_split_1
I1028 13:37:42.678903 28216 net.cpp:411] inception_4c/output_inception_4c/output_0_split -> inception_4c/output_inception_4c/output_0_split_2
I1028 13:37:42.678939 28216 net.cpp:411] inception_4c/output_inception_4c/output_0_split -> inception_4c/output_inception_4c/output_0_split_3
I1028 13:37:42.679011 28216 net.cpp:150] Setting up inception_4c/output_inception_4c/output_0_split
I1028 13:37:42.679019 28216 net.cpp:157] Top shape: 50 512 14 14 (5017600)
I1028 13:37:42.679035 28216 net.cpp:157] Top shape: 50 512 14 14 (5017600)
I1028 13:37:42.679040 28216 net.cpp:157] Top shape: 50 512 14 14 (5017600)
I1028 13:37:42.679044 28216 net.cpp:157] Top shape: 50 512 14 14 (5017600)
I1028 13:37:42.679049 28216 net.cpp:165] Memory required for data: 2314933808
I1028 13:37:42.679052 28216 layer_factory.hpp:76] Creating layer inception_4d/1x1
I1028 13:37:42.679061 28216 net.cpp:106] Creating Layer inception_4d/1x1
I1028 13:37:42.679065 28216 net.cpp:454] inception_4d/1x1 <- inception_4c/output_inception_4c/output_0_split_0
I1028 13:37:42.679074 28216 net.cpp:411] inception_4d/1x1 -> inception_4d/1x1
I1028 13:37:42.680901 28216 cudnn_conv_layer.cpp:194] Reallocating workspace storage: 10080
I1028 13:37:42.680958 28216 net.cpp:150] Setting up inception_4d/1x1
I1028 13:37:42.680968 28216 net.cpp:157] Top shape: 50 112 14 14 (1097600)
I1028 13:37:42.680971 28216 net.cpp:165] Memory required for data: 2319324208
I1028 13:37:42.680979 28216 layer_factory.hpp:76] Creating layer inception_4d/prelu_1x1
I1028 13:37:42.680989 28216 net.cpp:106] Creating Layer inception_4d/prelu_1x1
I1028 13:37:42.680994 28216 net.cpp:454] inception_4d/prelu_1x1 <- inception_4d/1x1
I1028 13:37:42.681002 28216 net.cpp:397] inception_4d/prelu_1x1 -> inception_4d/1x1 (in-place)
I1028 13:37:42.681108 28216 net.cpp:150] Setting up inception_4d/prelu_1x1
I1028 13:37:42.681118 28216 net.cpp:157] Top shape: 50 112 14 14 (1097600)
I1028 13:37:42.681121 28216 net.cpp:165] Memory required for data: 2323714608
I1028 13:37:42.681128 28216 layer_factory.hpp:76] Creating layer inception_4d/3x3_reduce
I1028 13:37:42.681138 28216 net.cpp:106] Creating Layer inception_4d/3x3_reduce
I1028 13:37:42.681143 28216 net.cpp:454] inception_4d/3x3_reduce <- inception_4c/output_inception_4c/output_0_split_1
I1028 13:37:42.681149 28216 net.cpp:411] inception_4d/3x3_reduce -> inception_4d/3x3_reduce
I1028 13:37:42.682991 28216 cudnn_conv_layer.cpp:194] Reallocating workspace storage: 10080
I1028 13:37:42.683029 28216 net.cpp:150] Setting up inception_4d/3x3_reduce
I1028 13:37:42.683038 28216 net.cpp:157] Top shape: 50 144 14 14 (1411200)
I1028 13:37:42.683043 28216 net.cpp:165] Memory required for data: 2329359408
I1028 13:37:42.683049 28216 layer_factory.hpp:76] Creating layer inception_4d/prelu_3x3_reduce
I1028 13:37:42.683060 28216 net.cpp:106] Creating Layer inception_4d/prelu_3x3_reduce
I1028 13:37:42.683065 28216 net.cpp:454] inception_4d/prelu_3x3_reduce <- inception_4d/3x3_reduce
I1028 13:37:42.683073 28216 net.cpp:397] inception_4d/prelu_3x3_reduce -> inception_4d/3x3_reduce (in-place)
I1028 13:37:42.683190 28216 net.cpp:150] Setting up inception_4d/prelu_3x3_reduce
I1028 13:37:42.683199 28216 net.cpp:157] Top shape: 50 144 14 14 (1411200)
I1028 13:37:42.683203 28216 net.cpp:165] Memory required for data: 2335004208
I1028 13:37:42.683209 28216 layer_factory.hpp:76] Creating layer inception_4d/3x3
I1028 13:37:42.683219 28216 net.cpp:106] Creating Layer inception_4d/3x3
I1028 13:37:42.683223 28216 net.cpp:454] inception_4d/3x3 <- inception_4d/3x3_reduce
I1028 13:37:42.683231 28216 net.cpp:411] inception_4d/3x3 -> inception_4d/3x3
I1028 13:37:42.688045 28216 cudnn_conv_layer.cpp:194] Reallocating workspace storage: 10080
I1028 13:37:42.688112 28216 net.cpp:150] Setting up inception_4d/3x3
I1028 13:37:42.688125 28216 net.cpp:157] Top shape: 50 288 14 14 (2822400)
I1028 13:37:42.688132 28216 net.cpp:165] Memory required for data: 2346293808
I1028 13:37:42.688141 28216 layer_factory.hpp:76] Creating layer inception_4d/prelu_3x3
I1028 13:37:42.688155 28216 net.cpp:106] Creating Layer inception_4d/prelu_3x3
I1028 13:37:42.688164 28216 net.cpp:454] inception_4d/prelu_3x3 <- inception_4d/3x3
I1028 13:37:42.688189 28216 net.cpp:397] inception_4d/prelu_3x3 -> inception_4d/3x3 (in-place)
I1028 13:37:42.688961 28216 net.cpp:150] Setting up inception_4d/prelu_3x3
I1028 13:37:42.688972 28216 net.cpp:157] Top shape: 50 288 14 14 (2822400)
I1028 13:37:42.688977 28216 net.cpp:165] Memory required for data: 2357583408
I1028 13:37:42.688983 28216 layer_factory.hpp:76] Creating layer inception_4d/5x5_reduce
I1028 13:37:42.688994 28216 net.cpp:106] Creating Layer inception_4d/5x5_reduce
I1028 13:37:42.689000 28216 net.cpp:454] inception_4d/5x5_reduce <- inception_4c/output_inception_4c/output_0_split_2
I1028 13:37:42.689013 28216 net.cpp:411] inception_4d/5x5_reduce -> inception_4d/5x5_reduce
I1028 13:37:42.690934 28216 cudnn_conv_layer.cpp:194] Reallocating workspace storage: 10080
I1028 13:37:42.690984 28216 net.cpp:150] Setting up inception_4d/5x5_reduce
I1028 13:37:42.690995 28216 net.cpp:157] Top shape: 50 32 14 14 (313600)
I1028 13:37:42.691000 28216 net.cpp:165] Memory required for data: 2358837808
I1028 13:37:42.691009 28216 layer_factory.hpp:76] Creating layer inception_4d/prelu_5x5_reduce
I1028 13:37:42.691021 28216 net.cpp:106] Creating Layer inception_4d/prelu_5x5_reduce
I1028 13:37:42.691027 28216 net.cpp:454] inception_4d/prelu_5x5_reduce <- inception_4d/5x5_reduce
I1028 13:37:42.691035 28216 net.cpp:397] inception_4d/prelu_5x5_reduce -> inception_4d/5x5_reduce (in-place)
I1028 13:37:42.691143 28216 net.cpp:150] Setting up inception_4d/prelu_5x5_reduce
I1028 13:37:42.691153 28216 net.cpp:157] Top shape: 50 32 14 14 (313600)
I1028 13:37:42.691156 28216 net.cpp:165] Memory required for data: 2360092208
I1028 13:37:42.691162 28216 layer_factory.hpp:76] Creating layer inception_4d/5x5
I1028 13:37:42.691172 28216 net.cpp:106] Creating Layer inception_4d/5x5
I1028 13:37:42.691177 28216 net.cpp:454] inception_4d/5x5 <- inception_4d/5x5_reduce
I1028 13:37:42.691184 28216 net.cpp:411] inception_4d/5x5 -> inception_4d/5x5
I1028 13:37:42.692538 28216 cudnn_conv_layer.cpp:194] Reallocating workspace storage: 13080
I1028 13:37:42.692574 28216 net.cpp:150] Setting up inception_4d/5x5
I1028 13:37:42.692584 28216 net.cpp:157] Top shape: 50 64 14 14 (627200)
I1028 13:37:42.692587 28216 net.cpp:165] Memory required for data: 2362601008
I1028 13:37:42.692595 28216 layer_factory.hpp:76] Creating layer inception_4d/prelu_5x5
I1028 13:37:42.692603 28216 net.cpp:106] Creating Layer inception_4d/prelu_5x5
I1028 13:37:42.692608 28216 net.cpp:454] inception_4d/prelu_5x5 <- inception_4d/5x5
I1028 13:37:42.692615 28216 net.cpp:397] inception_4d/prelu_5x5 -> inception_4d/5x5 (in-place)
I1028 13:37:42.692715 28216 net.cpp:150] Setting up inception_4d/prelu_5x5
I1028 13:37:42.692724 28216 net.cpp:157] Top shape: 50 64 14 14 (627200)
I1028 13:37:42.692728 28216 net.cpp:165] Memory required for data: 2365109808
I1028 13:37:42.692734 28216 layer_factory.hpp:76] Creating layer inception_4d/pool
I1028 13:37:42.692744 28216 net.cpp:106] Creating Layer inception_4d/pool
I1028 13:37:42.692749 28216 net.cpp:454] inception_4d/pool <- inception_4c/output_inception_4c/output_0_split_3
I1028 13:37:42.692754 28216 net.cpp:411] inception_4d/pool -> inception_4d/pool
I1028 13:37:42.693267 28216 net.cpp:150] Setting up inception_4d/pool
I1028 13:37:42.693280 28216 net.cpp:157] Top shape: 50 512 14 14 (5017600)
I1028 13:37:42.693285 28216 net.cpp:165] Memory required for data: 2385180208
I1028 13:37:42.693289 28216 layer_factory.hpp:76] Creating layer inception_4d/pool_proj
I1028 13:37:42.693300 28216 net.cpp:106] Creating Layer inception_4d/pool_proj
I1028 13:37:42.693305 28216 net.cpp:454] inception_4d/pool_proj <- inception_4d/pool
I1028 13:37:42.693313 28216 net.cpp:411] inception_4d/pool_proj -> inception_4d/pool_proj
I1028 13:37:42.694937 28216 cudnn_conv_layer.cpp:194] Reallocating workspace storage: 10080
I1028 13:37:42.694984 28216 net.cpp:150] Setting up inception_4d/pool_proj
I1028 13:37:42.694993 28216 net.cpp:157] Top shape: 50 64 14 14 (627200)
I1028 13:37:42.694998 28216 net.cpp:165] Memory required for data: 2387689008
I1028 13:37:42.695006 28216 layer_factory.hpp:76] Creating layer inception_4d/prelu_pool_proj
I1028 13:37:42.695036 28216 net.cpp:106] Creating Layer inception_4d/prelu_pool_proj
I1028 13:37:42.695044 28216 net.cpp:454] inception_4d/prelu_pool_proj <- inception_4d/pool_proj
I1028 13:37:42.695050 28216 net.cpp:397] inception_4d/prelu_pool_proj -> inception_4d/pool_proj (in-place)
I1028 13:37:42.695147 28216 net.cpp:150] Setting up inception_4d/prelu_pool_proj
I1028 13:37:42.695157 28216 net.cpp:157] Top shape: 50 64 14 14 (627200)
I1028 13:37:42.695160 28216 net.cpp:165] Memory required for data: 2390197808
I1028 13:37:42.695165 28216 layer_factory.hpp:76] Creating layer inception_4d/output
I1028 13:37:42.695173 28216 net.cpp:106] Creating Layer inception_4d/output
I1028 13:37:42.695178 28216 net.cpp:454] inception_4d/output <- inception_4d/1x1
I1028 13:37:42.695183 28216 net.cpp:454] inception_4d/output <- inception_4d/3x3
I1028 13:37:42.695188 28216 net.cpp:454] inception_4d/output <- inception_4d/5x5
I1028 13:37:42.695193 28216 net.cpp:454] inception_4d/output <- inception_4d/pool_proj
I1028 13:37:42.695201 28216 net.cpp:411] inception_4d/output -> inception_4d/output
I1028 13:37:42.695225 28216 net.cpp:150] Setting up inception_4d/output
I1028 13:37:42.695235 28216 net.cpp:157] Top shape: 50 528 14 14 (5174400)
I1028 13:37:42.695238 28216 net.cpp:165] Memory required for data: 2410895408
I1028 13:37:42.695242 28216 layer_factory.hpp:76] Creating layer inception_4d/output_inception_4d/output_0_split
I1028 13:37:42.695250 28216 net.cpp:106] Creating Layer inception_4d/output_inception_4d/output_0_split
I1028 13:37:42.695255 28216 net.cpp:454] inception_4d/output_inception_4d/output_0_split <- inception_4d/output
I1028 13:37:42.695260 28216 net.cpp:411] inception_4d/output_inception_4d/output_0_split -> inception_4d/output_inception_4d/output_0_split_0
I1028 13:37:42.695266 28216 net.cpp:411] inception_4d/output_inception_4d/output_0_split -> inception_4d/output_inception_4d/output_0_split_1
I1028 13:37:42.695273 28216 net.cpp:411] inception_4d/output_inception_4d/output_0_split -> inception_4d/output_inception_4d/output_0_split_2
I1028 13:37:42.695281 28216 net.cpp:411] inception_4d/output_inception_4d/output_0_split -> inception_4d/output_inception_4d/output_0_split_3
I1028 13:37:42.695287 28216 net.cpp:411] inception_4d/output_inception_4d/output_0_split -> inception_4d/output_inception_4d/output_0_split_4
I1028 13:37:42.695348 28216 net.cpp:150] Setting up inception_4d/output_inception_4d/output_0_split
I1028 13:37:42.695355 28216 net.cpp:157] Top shape: 50 528 14 14 (5174400)
I1028 13:37:42.695360 28216 net.cpp:157] Top shape: 50 528 14 14 (5174400)
I1028 13:37:42.695365 28216 net.cpp:157] Top shape: 50 528 14 14 (5174400)
I1028 13:37:42.695370 28216 net.cpp:157] Top shape: 50 528 14 14 (5174400)
I1028 13:37:42.695374 28216 net.cpp:157] Top shape: 50 528 14 14 (5174400)
I1028 13:37:42.695379 28216 net.cpp:165] Memory required for data: 2514383408
I1028 13:37:42.695382 28216 layer_factory.hpp:76] Creating layer loss2/ave_pool
I1028 13:37:42.695389 28216 net.cpp:106] Creating Layer loss2/ave_pool
I1028 13:37:42.695394 28216 net.cpp:454] loss2/ave_pool <- inception_4d/output_inception_4d/output_0_split_0
I1028 13:37:42.695400 28216 net.cpp:411] loss2/ave_pool -> loss2/ave_pool
I1028 13:37:42.695607 28216 net.cpp:150] Setting up loss2/ave_pool
I1028 13:37:42.695618 28216 net.cpp:157] Top shape: 50 528 4 4 (422400)
I1028 13:37:42.695622 28216 net.cpp:165] Memory required for data: 2516073008
I1028 13:37:42.695626 28216 layer_factory.hpp:76] Creating layer loss2/conv
I1028 13:37:42.695636 28216 net.cpp:106] Creating Layer loss2/conv
I1028 13:37:42.695641 28216 net.cpp:454] loss2/conv <- loss2/ave_pool
I1028 13:37:42.695648 28216 net.cpp:411] loss2/conv -> loss2/conv
I1028 13:37:42.697434 28216 cudnn_conv_layer.cpp:194] Reallocating workspace storage: 6840
I1028 13:37:42.697476 28216 net.cpp:150] Setting up loss2/conv
I1028 13:37:42.697485 28216 net.cpp:157] Top shape: 50 128 4 4 (102400)
I1028 13:37:42.697489 28216 net.cpp:165] Memory required for data: 2516482608
I1028 13:37:42.697520 28216 layer_factory.hpp:76] Creating layer loss2/prelu_conv
I1028 13:37:42.697535 28216 net.cpp:106] Creating Layer loss2/prelu_conv
I1028 13:37:42.697542 28216 net.cpp:454] loss2/prelu_conv <- loss2/conv
I1028 13:37:42.697552 28216 net.cpp:397] loss2/prelu_conv -> loss2/conv (in-place)
I1028 13:37:42.697662 28216 net.cpp:150] Setting up loss2/prelu_conv
I1028 13:37:42.697672 28216 net.cpp:157] Top shape: 50 128 4 4 (102400)
I1028 13:37:42.697676 28216 net.cpp:165] Memory required for data: 2516892208
I1028 13:37:42.697681 28216 layer_factory.hpp:76] Creating layer loss2/fc
I1028 13:37:42.697691 28216 net.cpp:106] Creating Layer loss2/fc
I1028 13:37:42.697696 28216 net.cpp:454] loss2/fc <- loss2/conv
I1028 13:37:42.697705 28216 net.cpp:411] loss2/fc -> loss2/fc
I1028 13:37:42.758126 28216 net.cpp:150] Setting up loss2/fc
I1028 13:37:42.758175 28216 net.cpp:157] Top shape: 50 1024 (51200)
I1028 13:37:42.758182 28216 net.cpp:165] Memory required for data: 2517097008
I1028 13:37:42.758221 28216 layer_factory.hpp:76] Creating layer loss2/prelu_fc
I1028 13:37:42.758240 28216 net.cpp:106] Creating Layer loss2/prelu_fc
I1028 13:37:42.758249 28216 net.cpp:454] loss2/prelu_fc <- loss2/fc
I1028 13:37:42.758258 28216 net.cpp:397] loss2/prelu_fc -> loss2/fc (in-place)
I1028 13:37:42.758406 28216 net.cpp:150] Setting up loss2/prelu_fc
I1028 13:37:42.758419 28216 net.cpp:157] Top shape: 50 1024 (51200)
I1028 13:37:42.758424 28216 net.cpp:165] Memory required for data: 2517301808
I1028 13:37:42.758430 28216 layer_factory.hpp:76] Creating layer loss2/drop_fc
I1028 13:37:42.758438 28216 net.cpp:106] Creating Layer loss2/drop_fc
I1028 13:37:42.758442 28216 net.cpp:454] loss2/drop_fc <- loss2/fc
I1028 13:37:42.758450 28216 net.cpp:397] loss2/drop_fc -> loss2/fc (in-place)
I1028 13:37:42.758487 28216 net.cpp:150] Setting up loss2/drop_fc
I1028 13:37:42.758505 28216 net.cpp:157] Top shape: 50 1024 (51200)
I1028 13:37:42.758509 28216 net.cpp:165] Memory required for data: 2517506608
I1028 13:37:42.758523 28216 layer_factory.hpp:76] Creating layer loss2/classifier2
I1028 13:37:42.758533 28216 net.cpp:106] Creating Layer loss2/classifier2
I1028 13:37:42.758539 28216 net.cpp:454] loss2/classifier2 <- loss2/fc
I1028 13:37:42.758548 28216 net.cpp:411] loss2/classifier2 -> loss2/classifier
I1028 13:37:42.758699 28216 net.cpp:150] Setting up loss2/classifier2
I1028 13:37:42.758712 28216 net.cpp:157] Top shape: 50 2 (100)
I1028 13:37:42.758715 28216 net.cpp:165] Memory required for data: 2517507008
I1028 13:37:42.758723 28216 layer_factory.hpp:76] Creating layer loss2/classifier_loss2/classifier2_0_split
I1028 13:37:42.758730 28216 net.cpp:106] Creating Layer loss2/classifier_loss2/classifier2_0_split
I1028 13:37:42.758734 28216 net.cpp:454] loss2/classifier_loss2/classifier2_0_split <- loss2/classifier
I1028 13:37:42.758740 28216 net.cpp:411] loss2/classifier_loss2/classifier2_0_split -> loss2/classifier_loss2/classifier2_0_split_0
I1028 13:37:42.758749 28216 net.cpp:411] loss2/classifier_loss2/classifier2_0_split -> loss2/classifier_loss2/classifier2_0_split_1
I1028 13:37:42.758796 28216 net.cpp:150] Setting up loss2/classifier_loss2/classifier2_0_split
I1028 13:37:42.758815 28216 net.cpp:157] Top shape: 50 2 (100)
I1028 13:37:42.758819 28216 net.cpp:157] Top shape: 50 2 (100)
I1028 13:37:42.758823 28216 net.cpp:165] Memory required for data: 2517507808
I1028 13:37:42.758828 28216 layer_factory.hpp:76] Creating layer loss2/loss
I1028 13:37:42.758836 28216 net.cpp:106] Creating Layer loss2/loss
I1028 13:37:42.758839 28216 net.cpp:454] loss2/loss <- loss2/classifier_loss2/classifier2_0_split_0
I1028 13:37:42.758846 28216 net.cpp:454] loss2/loss <- label_data_1_split_2
…
I1028 13:37:42.759843 28216 net.cpp:165] Memory required for data: 2517507816
I1028 13:37:42.759847 28216 layer_factory.hpp:76] Creating layer inception_4e/1x1
I1028 13:37:42.759861 28216 net.cpp:106] Creating Layer inception_4e/1x1
I1028 13:37:42.759866 28216 net.cpp:454] inception_4e/1x1 <- inception_4d/output_inception_4d/output_0_split_1
I1028 13:37:42.759873 28216 net.cpp:411] inception_4e/1x1 -> inception_4e/1x1
I1028 13:37:42.762274 28216 cudnn_conv_layer.cpp:194] Reallocating workspace storage: 10080
I1028 13:37:42.762326 28216 net.cpp:150] Setting up inception_4e/1x1
I1028 13:37:42.762334 28216 net.cpp:157] Top shape: 50 256 14 14 (2508800)
I1028 13:37:42.762338 28216 net.cpp:165] Memory required for data: 2527543016
I1028 13:37:42.762346 28216 layer_factory.hpp:76] Creating layer inception_4e/prelu_1x1
I1028 13:37:42.762356 28216 net.cpp:106] Creating Layer inception_4e/prelu_1x1
I1028 13:37:42.762362 28216 net.cpp:454] inception_4e/prelu_1x1 <- inception_4e/1x1
I1028 13:37:42.762370 28216 net.cpp:397] inception_4e/prelu_1x1 -> inception_4e/1x1 (in-place)
I1028 13:37:42.762511 28216 net.cpp:150] Setting up inception_4e/prelu_1x1
I1028 13:37:42.762522 28216 net.cpp:157] Top shape: 50 256 14 14 (2508800)
I1028 13:37:42.762526 28216 net.cpp:165] Memory required for data: 2537578216
I1028 13:37:42.762532 28216 layer_factory.hpp:76] Creating layer inception_4e/3x3_reduce
I1028 13:37:42.762542 28216 net.cpp:106] Creating Layer inception_4e/3x3_reduce
I1028 13:37:42.762547 28216 net.cpp:454] inception_4e/3x3_reduce <- inception_4d/output_inception_4d/output_0_split_2
I1028 13:37:42.762555 28216 net.cpp:411] inception_4e/3x3_reduce -> inception_4e/3x3_reduce
I1028 13:37:42.764163 28216 cudnn_conv_layer.cpp:194] Reallocating workspace storage: 10080
I1028 13:37:42.764200 28216 net.cpp:150] Setting up inception_4e/3x3_reduce
I1028 13:37:42.764209 28216 net.cpp:157] Top shape: 50 160 14 14 (1568000)
I1028 13:37:42.764212 28216 net.cpp:165] Memory required for data: 2543850216
I1028 13:37:42.764230 28216 layer_factory.hpp:76] Creating layer inception_4e/prelu_3x3_reduce
I1028 13:37:42.764238 28216 net.cpp:106] Creating Layer inception_4e/prelu_3x3_reduce
I1028 13:37:42.764243 28216 net.cpp:454] inception_4e/prelu_3x3_reduce <- inception_4e/3x3_reduce
I1028 13:37:42.764250 28216 net.cpp:397] inception_4e/prelu_3x3_reduce -> inception_4e/3x3_reduce (in-place)
I1028 13:37:42.764386 28216 net.cpp:150] Setting up inception_4e/prelu_3x3_reduce
I1028 13:37:42.764395 28216 net.cpp:157] Top shape: 50 160 14 14 (1568000)
I1028 13:37:42.764400 28216 net.cpp:165] Memory required for data: 2550122216
I1028 13:37:42.764415 28216 layer_factory.hpp:76] Creating layer inception_4e/3x3
I1028 13:37:42.764441 28216 net.cpp:106] Creating Layer inception_4e/3x3
I1028 13:37:42.764446 28216 net.cpp:454] inception_4e/3x3 <- inception_4e/3x3_reduce
I1028 13:37:42.764463 28216 net.cpp:411] inception_4e/3x3 -> inception_4e/3x3
I1028 13:37:42.769132 28216 cudnn_conv_layer.cpp:194] Reallocating workspace storage: 10080
I1028 13:37:42.769207 28216 net.cpp:150] Setting up inception_4e/3x3
I1028 13:37:42.769220 28216 net.cpp:157] Top shape: 50 320 14 14 (3136000)
I1028 13:37:42.769225 28216 net.cpp:165] Memory required for data: 2562666216
I1028 13:37:42.769237 28216 layer_factory.hpp:76] Creating layer inception_4e/prelu_3x3
I1028 13:37:42.769251 28216 net.cpp:106] Creating Layer inception_4e/prelu_3x3
I1028 13:37:42.769260 28216 net.cpp:454] inception_4e/prelu_3x3 <- inception_4e/3x3
I1028 13:37:42.769317 28216 net.cpp:397] inception_4e/prelu_3x3 -> inception_4e/3x3 (in-place)
I1028 13:37:42.770061 28216 net.cpp:150] Setting up inception_4e/prelu_3x3
I1028 13:37:42.770083 28216 net.cpp:157] Top shape: 50 320 14 14 (3136000)
I1028 13:37:42.770087 28216 net.cpp:165] Memory required for data: 2575210216
I1028 13:37:42.770095 28216 layer_factory.hpp:76] Creating layer inception_4e/5x5_reduce
I1028 13:37:42.770108 28216 net.cpp:106] Creating Layer inception_4e/5x5_reduce
I1028 13:37:42.770114 28216 net.cpp:454] inception_4e/5x5_reduce <- inception_4d/output_inception_4d/output_0_split_3
I1028 13:37:42.770124 28216 net.cpp:411] inception_4e/5x5_reduce -> inception_4e/5x5_reduce
I1028 13:37:42.771385 28216 cudnn_conv_layer.cpp:194] Reallocating workspace storage: 10080
I1028 13:37:42.771425 28216 net.cpp:150] Setting up inception_4e/5x5_reduce
I1028 13:37:42.771432 28216 net.cpp:157] Top shape: 50 32 14 14 (313600)
I1028 13:37:42.771437 28216 net.cpp:165] Memory required for data: 2576464616
I1028 13:37:42.771445 28216 layer_factory.hpp:76] Creating layer inception_4e/prelu_5x5_reduce
I1028 13:37:42.771455 28216 net.cpp:106] Creating Layer inception_4e/prelu_5x5_reduce
I1028 13:37:42.771461 28216 net.cpp:454] inception_4e/prelu_5x5_reduce <- inception_4e/5x5_reduce
I1028 13:37:42.771466 28216 net.cpp:397] inception_4e/prelu_5x5_reduce -> inception_4e/5x5_reduce (in-place)
I1028 13:37:42.771584 28216 net.cpp:150] Setting up inception_4e/prelu_5x5_reduce
I1028 13:37:42.771592 28216 net.cpp:157] Top shape: 50 32 14 14 (313600)
I1028 13:37:42.771596 28216 net.cpp:165] Memory required for data: 2577719016
I1028 13:37:42.771601 28216 layer_factory.hpp:76] Creating layer inception_4e/5x5
I1028 13:37:42.771611 28216 net.cpp:106] Creating Layer inception_4e/5x5
I1028 13:37:42.771616 28216 net.cpp:454] inception_4e/5x5 <- inception_4e/5x5_reduce
I1028 13:37:42.771626 28216 net.cpp:411] inception_4e/5x5 -> inception_4e/5x5
I1028 13:37:42.773855 28216 cudnn_conv_layer.cpp:194] Reallocating workspace storage: 13080
I1028 13:37:42.773892 28216 net.cpp:150] Setting up inception_4e/5x5
I1028 13:37:42.773901 28216 net.cpp:157] Top shape: 50 128 14 14 (1254400)
I1028 13:37:42.773905 28216 net.cpp:165] Memory required for data: 2582736616
I1028 13:37:42.773922 28216 layer_factory.hpp:76] Creating layer inception_4e/prelu_5x5
I1028 13:37:42.773933 28216 net.cpp:106] Creating Layer inception_4e/prelu_5x5
I1028 13:37:42.773938 28216 net.cpp:454] inception_4e/prelu_5x5 <- inception_4e/5x5
I1028 13:37:42.773947 28216 net.cpp:397] inception_4e/prelu_5x5 -> inception_4e/5x5 (in-place)
I1028 13:37:42.774093 28216 net.cpp:150] Setting up inception_4e/prelu_5x5
I1028 13:37:42.774103 28216 net.cpp:157] Top shape: 50 128 14 14 (1254400)
I1028 13:37:42.774116 28216 net.cpp:165] Memory required for data: 2587754216
I1028 13:37:42.774123 28216 layer_factory.hpp:76] Creating layer inception_4e/pool
I1028 13:37:42.774130 28216 net.cpp:106] Creating Layer inception_4e/pool
I1028 13:37:42.774135 28216 net.cpp:454] inception_4e/pool <- inception_4d/output_inception_4d/output_0_split_4
I1028 13:37:42.774152 28216 net.cpp:411] inception_4e/pool -> inception_4e/pool
I1028 13:37:42.774371 28216 net.cpp:150] Setting up inception_4e/pool
I1028 13:37:42.774382 28216 net.cpp:157] Top shape: 50 528 14 14 (5174400)
I1028 13:37:42.774386 28216 net.cpp:165] Memory required for data: 2608451816
I1028 13:37:42.774390 28216 layer_factory.hpp:76] Creating layer inception_4e/pool_proj
I1028 13:37:42.774399 28216 net.cpp:106] Creating Layer inception_4e/pool_proj
I1028 13:37:42.774402 28216 net.cpp:454] inception_4e/pool_proj <- inception_4e/pool
I1028 13:37:42.774410 28216 net.cpp:411] inception_4e/pool_proj -> inception_4e/pool_proj
I1028 13:37:42.776094 28216 cudnn_conv_layer.cpp:194] Reallocating workspace storage: 10080
I1028 13:37:42.776146 28216 net.cpp:150] Setting up inception_4e/pool_proj
I1028 13:37:42.776165 28216 net.cpp:157] Top shape: 50 128 14 14 (1254400)
I1028 13:37:42.776180 28216 net.cpp:165] Memory required for data: 2613469416
I1028 13:37:42.776187 28216 layer_factory.hpp:76] Creating layer inception_4e/prelu_pool_proj
I1028 13:37:42.776214 28216 net.cpp:106] Creating Layer inception_4e/prelu_pool_proj
I1028 13:37:42.776229 28216 net.cpp:454] inception_4e/prelu_pool_proj <- inception_4e/pool_proj
I1028 13:37:42.776247 28216 net.cpp:397] inception_4e/prelu_pool_proj -> inception_4e/pool_proj (in-place)
I1028 13:37:42.776353 28216 net.cpp:150] Setting up inception_4e/prelu_pool_proj
I1028 13:37:42.776362 28216 net.cpp:157] Top shape: 50 128 14 14 (1254400)
I1028 13:37:42.776366 28216 net.cpp:165] Memory required for data: 2618487016
I1028 13:37:42.776371 28216 layer_factory.hpp:76] Creating layer inception_4e/output
I1028 13:37:42.776379 28216 net.cpp:106] Creating Layer inception_4e/output
I1028 13:37:42.776384 28216 net.cpp:454] inception_4e/output <- inception_4e/1x1
I1028 13:37:42.776399 28216 net.cpp:454] inception_4e/output <- inception_4e/3x3
I1028 13:37:42.776406 28216 net.cpp:454] inception_4e/output <- inception_4e/5x5
I1028 13:37:42.776409 28216 net.cpp:454] inception_4e/output <- inception_4e/pool_proj
I1028 13:37:42.776415 28216 net.cpp:411] inception_4e/output -> inception_4e/output
I1028 13:37:42.776443 28216 net.cpp:150] Setting up inception_4e/output
I1028 13:37:42.776450 28216 net.cpp:157] Top shape: 50 832 14 14 (8153600)
I1028 13:37:42.776464 28216 net.cpp:165] Memory required for data: 2651101416
I1028 13:37:42.776479 28216 layer_factory.hpp:76] Creating layer pool4/3x3_s2
I1028 13:37:42.776486 28216 net.cpp:106] Creating Layer pool4/3x3_s2
I1028 13:37:42.776491 28216 net.cpp:454] pool4/3x3_s2 <- inception_4e/output
I1028 13:37:42.776497 28216 net.cpp:411] pool4/3x3_s2 -> pool4/3x3_s2
I1028 13:37:42.776715 28216 net.cpp:150] Setting up pool4/3x3_s2
I1028 13:37:42.776724 28216 net.cpp:157] Top shape: 50 832 7 7 (2038400)
I1028 13:37:42.776728 28216 net.cpp:165] Memory required for data: 2659255016
I1028 13:37:42.776742 28216 layer_factory.hpp:76] Creating layer pool4/3x3_s2_pool4/3x3_s2_0_split
I1028 13:37:42.776749 28216 net.cpp:106] Creating Layer pool4/3x3_s2_pool4/3x3_s2_0_split
I1028 13:37:42.776754 28216 net.cpp:454] pool4/3x3_s2_pool4/3x3_s2_0_split <- pool4/3x3_s2
I1028 13:37:42.776760 28216 net.cpp:411] pool4/3x3_s2_pool4/3x3_s2_0_split -> pool4/3x3_s2_pool4/3x3_s2_0_split_0
I1028 13:37:42.776770 28216 net.cpp:411] pool4/3x3_s2_pool4/3x3_s2_0_split -> pool4/3x3_s2_pool4/3x3_s2_0_split_1
I1028 13:37:42.776778 28216 net.cpp:411] pool4/3x3_s2_pool4/3x3_s2_0_split -> pool4/3x3_s2_pool4/3x3_s2_0_split_2
I1028 13:37:42.776785 28216 net.cpp:411] pool4/3x3_s2_pool4/3x3_s2_0_split -> pool4/3x3_s2_pool4/3x3_s2_0_split_3
I1028 13:37:42.776851 28216 net.cpp:150] Setting up pool4/3x3_s2_pool4/3x3_s2_0_split
I1028 13:37:42.776859 28216 net.cpp:157] Top shape: 50 832 7 7 (2038400)
I1028 13:37:42.776865 28216 net.cpp:157] Top shape: 50 832 7 7 (2038400)
I1028 13:37:42.776880 28216 net.cpp:157] Top shape: 50 832 7 7 (2038400)
I1028 13:37:42.776885 28216 net.cpp:157] Top shape: 50 832 7 7 (2038400)
I1028 13:37:42.776887 28216 net.cpp:165] Memory required for data: 2691869416
I1028 13:37:42.776891 28216 layer_factory.hpp:76] Creating layer inception_5a/1x1
I1028 13:37:42.776901 28216 net.cpp:106] Creating Layer inception_5a/1x1
I1028 13:37:42.776906 28216 net.cpp:454] inception_5a/1x1 <- pool4/3x3_s2_pool4/3x3_s2_0_split_0
I1028 13:37:42.776914 28216 net.cpp:411] inception_5a/1x1 -> inception_5a/1x1
I1028 13:37:42.780181 28216 cudnn_conv_layer.cpp:194] Reallocating workspace storage: 7428
I1028 13:37:42.780237 28216 net.cpp:150] Setting up inception_5a/1x1
I1028 13:37:42.780248 28216 net.cpp:157] Top shape: 50 256 7 7 (627200)
I1028 13:37:42.780253 28216 net.cpp:165] Memory required for data: 2694378216
I1028 13:37:42.780264 28216 layer_factory.hpp:76] Creating layer inception_5a/prelu_1x1
I1028 13:37:42.780277 28216 net.cpp:106] Creating Layer inception_5a/prelu_1x1
I1028 13:37:42.780283 28216 net.cpp:454] inception_5a/prelu_1x1 <- inception_5a/1x1
I1028 13:37:42.780293 28216 net.cpp:397] inception_5a/prelu_1x1 -> inception_5a/1x1 (in-place)
I1028 13:37:42.780397 28216 net.cpp:150] Setting up inception_5a/prelu_1x1
I1028 13:37:42.780419 28216 net.cpp:157] Top shape: 50 256 7 7 (627200)
I1028 13:37:42.780423 28216 net.cpp:165] Memory required for data: 2696887016
I1028 13:37:42.780429 28216 layer_factory.hpp:76] Creating layer inception_5a/3x3_reduce
I1028 13:37:42.780441 28216 net.cpp:106] Creating Layer inception_5a/3x3_reduce
I1028 13:37:42.780447 28216 net.cpp:454] inception_5a/3x3_reduce <- pool4/3x3_s2_pool4/3x3_s2_0_split_1
I1028 13:37:42.780454 28216 net.cpp:411] inception_5a/3x3_reduce -> inception_5a/3x3_reduce
I1028 13:37:42.782938 28216 cudnn_conv_layer.cpp:194] Reallocating workspace storage: 7428
I1028 13:37:42.782984 28216 net.cpp:150] Setting up inception_5a/3x3_reduce
I1028 13:37:42.782995 28216 net.cpp:157] Top shape: 50 160 7 7 (392000)
I1028 13:37:42.782999 28216 net.cpp:165] Memory required for data: 2698455016
I1028 13:37:42.783006 28216 layer_factory.hpp:76] Creating layer inception_5a/prelu_3x3_reduce
I1028 13:37:42.783016 28216 net.cpp:106] Creating Layer inception_5a/prelu_3x3_reduce
I1028 13:37:42.783021 28216 net.cpp:454] inception_5a/prelu_3x3_reduce <- inception_5a/3x3_reduce
I1028 13:37:42.783028 28216 net.cpp:397] inception_5a/prelu_3x3_reduce -> inception_5a/3x3_reduce (in-place)
I1028 13:37:42.783138 28216 net.cpp:150] Setting up inception_5a/prelu_3x3_reduce
I1028 13:37:42.783146 28216 net.cpp:157] Top shape: 50 160 7 7 (392000)
I1028 13:37:42.783150 28216 net.cpp:165] Memory required for data: 2700023016
I1028 13:37:42.783156 28216 layer_factory.hpp:76] Creating layer inception_5a/3x3
I1028 13:37:42.783165 28216 net.cpp:106] Creating Layer inception_5a/3x3
I1028 13:37:42.783170 28216 net.cpp:454] inception_5a/3x3 <- inception_5a/3x3_reduce
I1028 13:37:42.783177 28216 net.cpp:411] inception_5a/3x3 -> inception_5a/3x3
I1028 13:37:42.787937 28216 cudnn_conv_layer.cpp:194] Reallocating workspace storage: 7788
I1028 13:37:42.788000 28216 net.cpp:150] Setting up inception_5a/3x3
I1028 13:37:42.788012 28216 net.cpp:157] Top shape: 50 320 7 7 (784000)
I1028 13:37:42.788017 28216 net.cpp:165] Memory required for data: 2703159016
I1028 13:37:42.788028 28216 layer_factory.hpp:76] Creating layer inception_5a/prelu_3x3
I1028 13:37:42.788041 28216 net.cpp:106] Creating Layer inception_5a/prelu_3x3
I1028 13:37:42.788048 28216 net.cpp:454] inception_5a/prelu_3x3 <- inception_5a/3x3
I1028 13:37:42.788067 28216 net.cpp:397] inception_5a/prelu_3x3 -> inception_5a/3x3 (in-place)
I1028 13:37:42.788219 28216 net.cpp:150] Setting up inception_5a/prelu_3x3
I1028 13:37:42.788231 28216 net.cpp:157] Top shape: 50 320 7 7 (784000)
I1028 13:37:42.788235 28216 net.cpp:165] Memory required for data: 2706295016
I1028 13:37:42.788241 28216 layer_factory.hpp:76] Creating layer inception_5a/5x5_reduce
I1028 13:37:42.788251 28216 net.cpp:106] Creating Layer inception_5a/5x5_reduce
I1028 13:37:42.788267 28216 net.cpp:454] inception_5a/5x5_reduce <- pool4/3x3_s2_pool4/3x3_s2_0_split_2
I1028 13:37:42.788286 28216 net.cpp:411] inception_5a/5x5_reduce -> inception_5a/5x5_reduce
I1028 13:37:42.789693 28216 cudnn_conv_layer.cpp:194] Reallocating workspace storage: 7428
I1028 13:37:42.789738 28216 net.cpp:150] Setting up inception_5a/5x5_reduce
I1028 13:37:42.789747 28216 net.cpp:157] Top shape: 50 32 7 7 (78400)
I1028 13:37:42.789752 28216 net.cpp:165] Memory required for data: 2706608616
I1028 13:37:42.789760 28216 layer_factory.hpp:76] Creating layer inception_5a/prelu_5x5_reduce
I1028 13:37:42.789772 28216 net.cpp:106] Creating Layer inception_5a/prelu_5x5_reduce
I1028 13:37:42.789777 28216 net.cpp:454] inception_5a/prelu_5x5_reduce <- inception_5a/5x5_reduce
I1028 13:37:42.789784 28216 net.cpp:397] inception_5a/prelu_5x5_reduce -> inception_5a/5x5_reduce (in-place)
I1028 13:37:42.789887 28216 net.cpp:150] Setting up inception_5a/prelu_5x5_reduce
I1028 13:37:42.789896 28216 net.cpp:157] Top shape: 50 32 7 7 (78400)
I1028 13:37:42.789901 28216 net.cpp:165] Memory required for data: 2706922216
I1028 13:37:42.789906 28216 layer_factory.hpp:76] Creating layer inception_5a/5x5
I1028 13:37:42.789933 28216 net.cpp:106] Creating Layer inception_5a/5x5
I1028 13:37:42.789938 28216 net.cpp:454] inception_5a/5x5 <- inception_5a/5x5_reduce
I1028 13:37:42.789947 28216 net.cpp:411] inception_5a/5x5 -> inception_5a/5x5
I1028 13:37:42.791543 28216 cudnn_conv_layer.cpp:194] Reallocating workspace storage: 9804
I1028 13:37:42.791584 28216 net.cpp:150] Setting up inception_5a/5x5
I1028 13:37:42.791592 28216 net.cpp:157] Top shape: 50 128 7 7 (313600)
I1028 13:37:42.791596 28216 net.cpp:165] Memory required for data: 2708176616
I1028 13:37:42.791604 28216 layer_factory.hpp:76] Creating layer inception_5a/prelu_5x5
I1028 13:37:42.791613 28216 net.cpp:106] Creating Layer inception_5a/prelu_5x5
I1028 13:37:42.791618 28216 net.cpp:454] inception_5a/prelu_5x5 <- inception_5a/5x5
I1028 13:37:42.791625 28216 net.cpp:397] inception_5a/prelu_5x5 -> inception_5a/5x5 (in-place)
I1028 13:37:42.791740 28216 net.cpp:150] Setting up inception_5a/prelu_5x5
I1028 13:37:42.791749 28216 net.cpp:157] Top shape: 50 128 7 7 (313600)
I1028 13:37:42.791754 28216 net.cpp:165] Memory required for data: 2709431016
I1028 13:37:42.791759 28216 layer_factory.hpp:76] Creating layer inception_5a/pool
I1028 13:37:42.791766 28216 net.cpp:106] Creating Layer inception_5a/pool
I1028 13:37:42.791771 28216 net.cpp:454] inception_5a/pool <- pool4/3x3_s2_pool4/3x3_s2_0_split_3
I1028 13:37:42.791779 28216 net.cpp:411] inception_5a/pool -> inception_5a/pool
I1028 13:37:42.792207 28216 net.cpp:150] Setting up inception_5a/pool
I1028 13:37:42.792219 28216 net.cpp:157] Top shape: 50 832 7 7 (2038400)
I1028 13:37:42.792223 28216 net.cpp:165] Memory required for data: 2717584616
I1028 13:37:42.792228 28216 layer_factory.hpp:76] Creating layer inception_5a/pool_proj
I1028 13:37:42.792238 28216 net.cpp:106] Creating Layer inception_5a/pool_proj
I1028 13:37:42.792243 28216 net.cpp:454] inception_5a/pool_proj <- inception_5a/pool
I1028 13:37:42.792253 28216 net.cpp:411] inception_5a/pool_proj -> inception_5a/pool_proj
I1028 13:37:42.794585 28216 cudnn_conv_layer.cpp:194] Reallocating workspace storage: 7428
I1028 13:37:42.794626 28216 net.cpp:150] Setting up inception_5a/pool_proj
I1028 13:37:42.794634 28216 net.cpp:157] Top shape: 50 128 7 7 (313600)
I1028 13:37:42.794639 28216 net.cpp:165] Memory required for data: 2718839016
I1028 13:37:42.794646 28216 layer_factory.hpp:76] Creating layer inception_5a/prelu_pool_proj
I1028 13:37:42.794656 28216 net.cpp:106] Creating Layer inception_5a/prelu_pool_proj
I1028 13:37:42.794661 28216 net.cpp:454] inception_5a/prelu_pool_proj <- inception_5a/pool_proj
I1028 13:37:42.794668 28216 net.cpp:397] inception_5a/prelu_pool_proj -> inception_5a/pool_proj (in-place)
I1028 13:37:42.794777 28216 net.cpp:150] Setting up inception_5a/prelu_pool_proj
I1028 13:37:42.794787 28216 net.cpp:157] Top shape: 50 128 7 7 (313600)
I1028 13:37:42.794791 28216 net.cpp:165] Memory required for data: 2720093416
I1028 13:37:42.794797 28216 layer_factory.hpp:76] Creating layer inception_5a/output
I1028 13:37:42.794803 28216 net.cpp:106] Creating Layer inception_5a/output
I1028 13:37:42.794808 28216 net.cpp:454] inception_5a/output <- inception_5a/1x1
I1028 13:37:42.794813 28216 net.cpp:454] inception_5a/output <- inception_5a/3x3
I1028 13:37:42.794818 28216 net.cpp:454] inception_5a/output <- inception_5a/5x5
I1028 13:37:42.794823 28216 net.cpp:454] inception_5a/output <- inception_5a/pool_proj
I1028 13:37:42.794828 28216 net.cpp:411] inception_5a/output -> inception_5a/output
I1028 13:37:42.794854 28216 net.cpp:150] Setting up inception_5a/output
I1028 13:37:42.794863 28216 net.cpp:157] Top shape: 50 832 7 7 (2038400)
I1028 13:37:42.794867 28216 net.cpp:165] Memory required for data: 2728247016
I1028 13:37:42.794870 28216 layer_factory.hpp:76] Creating layer inception_5a/output_inception_5a/output_0_split
I1028 13:37:42.794878 28216 net.cpp:106] Creating Layer inception_5a/output_inception_5a/output_0_split
I1028 13:37:42.794881 28216 net.cpp:454] inception_5a/output_inception_5a/output_0_split <- inception_5a/output
I1028 13:37:42.794888 28216 net.cpp:411] inception_5a/output_inception_5a/output_0_split -> inception_5a/output_inception_5a/output_0_split_0
I1028 13:37:42.794911 28216 net.cpp:411] inception_5a/output_inception_5a/output_0_split -> inception_5a/output_inception_5a/output_0_split_1
I1028 13:37:42.794920 28216 net.cpp:411] inception_5a/output_inception_5a/output_0_split -> inception_5a/output_inception_5a/output_0_split_2
I1028 13:37:42.794927 28216 net.cpp:411] inception_5a/output_inception_5a/output_0_split -> inception_5a/output_inception_5a/output_0_split_3
I1028 13:37:42.794982 28216 net.cpp:150] Setting up inception_5a/output_inception_5a/output_0_split
I1028 13:37:42.794991 28216 net.cpp:157] Top shape: 50 832 7 7 (2038400)
I1028 13:37:42.794996 28216 net.cpp:157] Top shape: 50 832 7 7 (2038400)
I1028 13:37:42.795001 28216 net.cpp:157] Top shape: 50 832 7 7 (2038400)
I1028 13:37:42.795004 28216 net.cpp:157] Top shape: 50 832 7 7 (2038400)
I1028 13:37:42.795008 28216 net.cpp:165] Memory required for data: 2760861416
I1028 13:37:42.795012 28216 layer_factory.hpp:76] Creating layer inception_5b/1x1
I1028 13:37:42.795022 28216 net.cpp:106] Creating Layer inception_5b/1x1
I1028 13:37:42.795025 28216 net.cpp:454] inception_5b/1x1 <- inception_5a/output_inception_5a/output_0_split_0
I1028 13:37:42.795032 28216 net.cpp:411] inception_5b/1x1 -> inception_5b/1x1
I1028 13:37:42.798624 28216 cudnn_conv_layer.cpp:194] Reallocating workspace storage: 7428
I1028 13:37:42.798693 28216 net.cpp:150] Setting up inception_5b/1x1
I1028 13:37:42.798702 28216 net.cpp:157] Top shape: 50 384 7 7 (940800)
I1028 13:37:42.798708 28216 net.cpp:165] Memory required for data: 2764624616
I1028 13:37:42.798727 28216 layer_factory.hpp:76] Creating layer inception_5b/prelu_1x1
I1028 13:37:42.798748 28216 net.cpp:106] Creating Layer inception_5b/prelu_1x1
I1028 13:37:42.798753 28216 net.cpp:454] inception_5b/prelu_1x1 <- inception_5b/1x1
I1028 13:37:42.798760 28216 net.cpp:397] inception_5b/prelu_1x1 -> inception_5b/1x1 (in-place)
I1028 13:37:42.798907 28216 net.cpp:150] Setting up inception_5b/prelu_1x1
I1028 13:37:42.798914 28216 net.cpp:157] Top shape: 50 384 7 7 (940800)
I1028 13:37:42.798918 28216 net.cpp:165] Memory required for data: 2768387816
I1028 13:37:42.798923 28216 layer_factory.hpp:76] Creating layer inception_5b/3x3_reduce
I1028 13:37:42.798933 28216 net.cpp:106] Creating Layer inception_5b/3x3_reduce
I1028 13:37:42.798938 28216 net.cpp:454] inception_5b/3x3_reduce <- inception_5a/output_inception_5a/output_0_split_1
I1028 13:37:42.798944 28216 net.cpp:411] inception_5b/3x3_reduce -> inception_5b/3x3_reduce
I1028 13:37:42.801337 28216 cudnn_conv_layer.cpp:194] Reallocating workspace storage: 7428
I1028 13:37:42.801375 28216 net.cpp:150] Setting up inception_5b/3x3_reduce
I1028 13:37:42.801384 28216 net.cpp:157] Top shape: 50 192 7 7 (470400)
I1028 13:37:42.801388 28216 net.cpp:165] Memory required for data: 2770269416
I1028 13:37:42.801396 28216 layer_factory.hpp:76] Creating layer inception_5b/prelu_3x3_reduce
I1028 13:37:42.801408 28216 net.cpp:106] Creating Layer inception_5b/prelu_3x3_reduce
I1028 13:37:42.801412 28216 net.cpp:454] inception_5b/prelu_3x3_reduce <- inception_5b/3x3_reduce
I1028 13:37:42.801419 28216 net.cpp:397] inception_5b/prelu_3x3_reduce -> inception_5b/3x3_reduce (in-place)
I1028 13:37:42.801512 28216 net.cpp:150] Setting up inception_5b/prelu_3x3_reduce
I1028 13:37:42.801520 28216 net.cpp:157] Top shape: 50 192 7 7 (470400)
I1028 13:37:42.801524 28216 net.cpp:165] Memory required for data: 2772151016
I1028 13:37:42.801529 28216 layer_factory.hpp:76] Creating layer inception_5b/3x3
I1028 13:37:42.801539 28216 net.cpp:106] Creating Layer inception_5b/3x3
I1028 13:37:42.801543 28216 net.cpp:454] inception_5b/3x3 <- inception_5b/3x3_reduce
I1028 13:37:42.801551 28216 net.cpp:411] inception_5b/3x3 -> inception_5b/3x3
I1028 13:37:42.807277 28216 cudnn_conv_layer.cpp:194] Reallocating workspace storage: 7788
I1028 13:37:42.807343 28216 net.cpp:150] Setting up inception_5b/3x3
I1028 13:37:42.807355 28216 net.cpp:157] Top shape: 50 384 7 7 (940800)
I1028 13:37:42.807381 28216 net.cpp:165] Memory required for data: 2775914216
I1028 13:37:42.807391 28216 layer_factory.hpp:76] Creating layer inception_5b/prelu_3x3
I1028 13:37:42.807402 28216 net.cpp:106] Creating Layer inception_5b/prelu_3x3
I1028 13:37:42.807410 28216 net.cpp:454] inception_5b/prelu_3x3 <- inception_5b/3x3
I1028 13:37:42.807418 28216 net.cpp:397] inception_5b/prelu_3x3 -> inception_5b/3x3 (in-place)
I1028 13:37:42.807543 28216 net.cpp:150] Setting up inception_5b/prelu_3x3
I1028 13:37:42.807553 28216 net.cpp:157] Top shape: 50 384 7 7 (940800)
I1028 13:37:42.807556 28216 net.cpp:165] Memory required for data: 2779677416
I1028 13:37:42.807569 28216 layer_factory.hpp:76] Creating layer inception_5b/5x5_reduce
I1028 13:37:42.807580 28216 net.cpp:106] Creating Layer inception_5b/5x5_reduce
I1028 13:37:42.807586 28216 net.cpp:454] inception_5b/5x5_reduce <- inception_5a/output_inception_5a/output_0_split_2
I1028 13:37:42.807595 28216 net.cpp:411] inception_5b/5x5_reduce -> inception_5b/5x5_reduce
I1028 13:37:42.809267 28216 cudnn_conv_layer.cpp:194] Reallocating workspace storage: 7428
I1028 13:37:42.809348 28216 net.cpp:150] Setting up inception_5b/5x5_reduce
I1028 13:37:42.809370 28216 net.cpp:157] Top shape: 50 48 7 7 (117600)
I1028 13:37:42.809377 28216 net.cpp:165] Memory required for data: 2780147816
I1028 13:37:42.809386 28216 layer_factory.hpp:76] Creating layer inception_5b/prelu_5x5_reduce
I1028 13:37:42.809396 28216 net.cpp:106] Creating Layer inception_5b/prelu_5x5_reduce
I1028 13:37:42.809401 28216 net.cpp:454] inception_5b/prelu_5x5_reduce <- inception_5b/5x5_reduce
I1028 13:37:42.809409 28216 net.cpp:397] inception_5b/prelu_5x5_reduce -> inception_5b/5x5_reduce (in-place)
I1028 13:37:42.809540 28216 net.cpp:150] Setting up inception_5b/prelu_5x5_reduce
I1028 13:37:42.809547 28216 net.cpp:157] Top shape: 50 48 7 7 (117600)
I1028 13:37:42.809552 28216 net.cpp:165] Memory required for data: 2780618216
I1028 13:37:42.809557 28216 layer_factory.hpp:76] Creating layer inception_5b/5x5
I1028 13:37:42.809567 28216 net.cpp:106] Creating Layer inception_5b/5x5
I1028 13:37:42.809572 28216 net.cpp:454] inception_5b/5x5 <- inception_5b/5x5_reduce
I1028 13:37:42.809578 28216 net.cpp:411] inception_5b/5x5 -> inception_5b/5x5
I1028 13:37:42.811704 28216 cudnn_conv_layer.cpp:194] Reallocating workspace storage: 9804
I1028 13:37:42.811750 28216 net.cpp:150] Setting up inception_5b/5x5
I1028 13:37:42.811761 28216 net.cpp:157] Top shape: 50 128 7 7 (313600)
I1028 13:37:42.811765 28216 net.cpp:165] Memory required for data: 2781872616
I1028 13:37:42.811774 28216 layer_factory.hpp:76] Creating layer inception_5b/prelu_5x5
I1028 13:37:42.811792 28216 net.cpp:106] Creating Layer inception_5b/prelu_5x5
I1028 13:37:42.811808 28216 net.cpp:454] inception_5b/prelu_5x5 <- inception_5b/5x5
I1028 13:37:42.811816 28216 net.cpp:397] inception_5b/prelu_5x5 -> inception_5b/5x5 (in-place)
I1028 13:37:42.811938 28216 net.cpp:150] Setting up inception_5b/prelu_5x5
I1028 13:37:42.811946 28216 net.cpp:157] Top shape: 50 128 7 7 (313600)
I1028 13:37:42.811949 28216 net.cpp:165] Memory required for data: 2783127016
I1028 13:37:42.811955 28216 layer_factory.hpp:76] Creating layer inception_5b/pool
I1028 13:37:42.811964 28216 net.cpp:106] Creating Layer inception_5b/pool
I1028 13:37:42.811967 28216 net.cpp:454] inception_5b/pool <- inception_5a/output_inception_5a/output_0_split_3
I1028 13:37:42.811974 28216 net.cpp:411] inception_5b/pool -> inception_5b/pool
I1028 13:37:42.812221 28216 net.cpp:150] Setting up inception_5b/pool
I1028 13:37:42.812242 28216 net.cpp:157] Top shape: 50 832 7 7 (2038400)
I1028 13:37:42.812247 28216 net.cpp:165] Memory required for data: 2791280616
I1028 13:37:42.812250 28216 layer_factory.hpp:76] Creating layer inception_5b/pool_proj
I1028 13:37:42.812271 28216 net.cpp:106] Creating Layer inception_5b/pool_proj
I1028 13:37:42.812276 28216 net.cpp:454] inception_5b/pool_proj <- inception_5b/pool
I1028 13:37:42.812286 28216 net.cpp:411] inception_5b/pool_proj -> inception_5b/pool_proj
I1028 13:37:42.814765 28216 cudnn_conv_layer.cpp:194] Reallocating workspace storage: 7428
I1028 13:37:42.814826 28216 net.cpp:150] Setting up inception_5b/pool_proj
I1028 13:37:42.814836 28216 net.cpp:157] Top shape: 50 128 7 7 (313600)
I1028 13:37:42.814839 28216 net.cpp:165] Memory required for data: 2792535016
I1028 13:37:42.814847 28216 layer_factory.hpp:76] Creating layer inception_5b/prelu_pool_proj
I1028 13:37:42.814857 28216 net.cpp:106] Creating Layer inception_5b/prelu_pool_proj
I1028 13:37:42.814863 28216 net.cpp:454] inception_5b/prelu_pool_proj <- inception_5b/pool_proj
I1028 13:37:42.814872 28216 net.cpp:397] inception_5b/prelu_pool_proj -> inception_5b/pool_proj (in-place)
I1028 13:37:42.814985 28216 net.cpp:150] Setting up inception_5b/prelu_pool_proj
I1028 13:37:42.814995 28216 net.cpp:157] Top shape: 50 128 7 7 (313600)
I1028 13:37:42.814997 28216 net.cpp:165] Memory required for data: 2793789416
I1028 13:37:42.815003 28216 layer_factory.hpp:76] Creating layer inception_5b/output
I1028 13:37:42.815009 28216 net.cpp:106] Creating Layer inception_5b/output
I1028 13:37:42.815014 28216 net.cpp:454] inception_5b/output <- inception_5b/1x1
I1028 13:37:42.815019 28216 net.cpp:454] inception_5b/output <- inception_5b/3x3
I1028 13:37:42.815024 28216 net.cpp:454] inception_5b/output <- inception_5b/5x5
I1028 13:37:42.815028 28216 net.cpp:454] inception_5b/output <- inception_5b/pool_proj
I1028 13:37:42.815037 28216 net.cpp:411] inception_5b/output -> inception_5b/output
I1028 13:37:42.815075 28216 net.cpp:150] Setting up inception_5b/output
I1028 13:37:42.815084 28216 net.cpp:157] Top shape: 50 1024 7 7 (2508800)
I1028 13:37:42.815088 28216 net.cpp:165] Memory required for data: 2803824616
I1028 13:37:42.815093 28216 layer_factory.hpp:76] Creating layer pool5/7x7_s1
I1028 13:37:42.815099 28216 net.cpp:106] Creating Layer pool5/7x7_s1
I1028 13:37:42.815114 28216 net.cpp:454] pool5/7x7_s1 <- inception_5b/output
I1028 13:37:42.815120 28216 net.cpp:411] pool5/7x7_s1 -> pool5/7x7_s1
I1028 13:37:42.815524 28216 net.cpp:150] Setting up pool5/7x7_s1
I1028 13:37:42.815537 28216 net.cpp:157] Top shape: 50 1024 1 1 (51200)
I1028 13:37:42.815541 28216 net.cpp:165] Memory required for data: 2804029416
I1028 13:37:42.815546 28216 layer_factory.hpp:76] Creating layer pool5/drop_7x7_s1
I1028 13:37:42.815553 28216 net.cpp:106] Creating Layer pool5/drop_7x7_s1
I1028 13:37:42.815558 28216 net.cpp:454] pool5/drop_7x7_s1 <- pool5/7x7_s1
I1028 13:37:42.815565 28216 net.cpp:397] pool5/drop_7x7_s1 -> pool5/7x7_s1 (in-place)
I1028 13:37:42.815590 28216 net.cpp:150] Setting up pool5/drop_7x7_s1
I1028 13:37:42.815598 28216 net.cpp:157] Top shape: 50 1024 1 1 (51200)
I1028 13:37:42.815601 28216 net.cpp:165] Memory required for data: 2804234216
I1028 13:37:42.815605 28216 layer_factory.hpp:76] Creating layer loss3/classifier2
I1028 13:37:42.815614 28216 net.cpp:106] Creating Layer loss3/classifier2
I1028 13:37:42.815618 28216 net.cpp:454] loss3/classifier2 <- pool5/7x7_s1
I1028 13:37:42.815626 28216 net.cpp:411] loss3/classifier2 -> loss3/classifier
I1028 13:37:42.815780 28216 net.cpp:150] Setting up loss3/classifier2
I1028 13:37:42.815789 28216 net.cpp:157] Top shape: 50 2 (100)
I1028 13:37:42.815793 28216 net.cpp:165] Memory required for data: 2804234616
I1028 13:37:42.815810 28216 layer_factory.hpp:76] Creating layer loss3/classifier_loss3/classifier2_0_split
I1028 13:37:42.815816 28216 net.cpp:106] Creating Layer loss3/classifier_loss3/classifier2_0_split
I1028 13:37:42.815820 28216 net.cpp:454] loss3/classifier_loss3/classifier2_0_split <- loss3/classifier
I1028 13:37:42.815826 28216 net.cpp:411] loss3/classifier_loss3/classifier2_0_split -> loss3/classifier_loss3/classifier2_0_split_0
I1028 13:37:42.815834 28216 net.cpp:411] loss3/classifier_loss3/classifier2_0_split -> loss3/classifier_loss3/classifier2_0_split_1
I1028 13:37:42.815884 28216 net.cpp:150] Setting up loss3/classifier_loss3/classifier2_0_split
I1028 13:37:42.815892 28216 net.cpp:157] Top shape: 50 2 (100)
I1028 13:37:42.815907 28216 net.cpp:157] Top shape: 50 2 (100)
I1028 13:37:42.815910 28216 net.cpp:165] Memory required for data: 2804235416
I1028 13:37:42.815924 28216 layer_factory.hpp:76] Creating layer loss3/loss3
I1028 13:37:42.815932 28216 net.cpp:106] Creating Layer loss3/loss3
I1028 13:37:42.815937 28216 net.cpp:454] loss3/loss3 <- loss3/classifier_loss3/classifier2_0_split_0
I1028 13:37:42.815943 28216 net.cpp:454] loss3/loss3 <- label_data_1_split_4
…
