…
I1105 17:30:10.112071 24559 net.cpp:322] The NetState phase (0) differed from the phase (1) specified by a rule in layer loss3/top-1
I1105 17:30:10.113623 24559 net.cpp:49] Initializing net from parameters: 
name: "GoogleNet"
state {
  phase: TRAIN
}
layer {
  name: "data"
  type: "Data"
  top: "data"
  top: "label"
  include {
    phase: TRAIN
  }
  transform_param {
    mirror: true
    crop_size: 224
    mean_value: 104
    mean_value: 117
    mean_value: 123
  }
  data_param {
    source: "../../LMDB/train_4-lmdb"
    batch_size: 32
    backend: LMDB
  }
}
layer {
  name: "conv1/7x7_s2"
  type: "Convolution"
  bottom: "data"
  top: "conv1/7x7_s2"
  param {
    lr_mult: 1
    decay_mult: 1
  }
  param {
    lr_mult: 2
    decay_mult: 0
  }
  convolution_param {
    num_output: 64
    pad: 3
    kernel_size: 7
    stride: 2
    weight_filler {
      type: "xavier"
    }
    bias_filler {
      type: "constant"
      value: 0.2
    }
  }
}
layer {
  name: "conv1/prelu_7x7"
  type: "PReLU"
  bottom: "conv1/7x7_s2"
  top: "conv1/7x7_s2"
  param {
    lr_mult: 1
    decay_mult: 0
  }
  prelu_param {
    filler {
      type: "constant"
      value: 0.01
    }
  }
}
layer {
  name: "pool1/3x3_s2"
  type: "Pooling"
  bottom: "conv1/7x7_s2"
  top: "pool1/3x3_s2"
  pooling_param {
    pool: MAX
    kernel_size: 3
    stride: 2
  }
}
layer {
  name: "pool1/norm1"
  type: "LRN"
  bottom: "pool1/3x3_s2"
  top: "pool1/norm1"
  lrn_param {
    local_size: 5
    alpha: 0.0001
    beta: 0.75
  }
}
layer {
  name: "conv2/3x3_reduce"
  type: "Convolution"
  bottom: "pool1/norm1"
  top: "conv2/3x3_reduce"
  param {
    lr_mult: 1
    decay_mult: 1
  }
  param {
    lr_mult: 2
    decay_mult: 0
  }
  convolution_param {
    num_output: 64
    kernel_size: 1
    weight_filler {
      type: "xavier"
    }
    bias_filler {
      type: "constant"
      value: 0.2
    }
  }
}
layer {
  name: "conv2/prelu_3x3_reduce"
  type: "PReLU"
  bottom: "conv2/3x3_reduce"
  top: "conv2/3x3_reduce"
  param {
    lr_mult: 1
    decay_mult: 0
  }
  prelu_param {
    filler {
      type: "constant"
      value: 0.01
    }
  }
}
layer {
  name: "conv2/3x3"
  type: "Convolution"
  bottom: "conv2/3x3_reduce"
  top: "conv2/3x3"
  param {
    lr_mult: 1
    decay_mult: 1
  }
  param {
    lr_mult: 2
    decay_mult: 0
  }
  convolution_param {
    num_output: 192
    pad: 1
    kernel_size: 3
    weight_filler {
      type: "xavier"
    }
    bias_filler {
      type: "constant"
      value: 0.2
    }
  }
}
layer {
  name: "conv2/prelu_3x3"
  type: "PReLU"
  bottom: "conv2/3x3"
  top: "conv2/3x3"
  param {
    lr_mult: 1
    decay_mult: 0
  }
  prelu_param {
    filler {
      type: "constant"
      value: 0.01
    }
  }
}
layer {
  name: "conv2/norm2"
  type: "LRN"
  bottom: "conv2/3x3"
  top: "conv2/norm2"
  lrn_param {
    local_size: 5
    alpha: 0.0001
    beta: 0.75
  }
}
layer {
  name: "pool2/3x3_s2"
  type: "Pooling"
  bottom: "conv2/norm2"
  top: "pool2/3x3_s2"
  pooling_param {
    pool: MAX
    kernel_size: 3
    stride: 2
  }
}
layer {
  name: "inception_3a/1x1"
  type: "Convolution"
  bottom: "pool2/3x3_s2"
  top: "inception_3a/1x1"
  param {
    lr_mult: 1
    decay_mult: 1
  }
  param {
    lr_mult: 2
    decay_mult: 0
  }
  convolution_param {
    num_output: 64
    kernel_size: 1
    weight_filler {
      type: "xavier"
    }
    bias_filler {
      type: "constant"
      value: 0.2
    }
  }
}
layer {
  name: "inception_3a/prelu_1x1"
  type: "PReLU"
  bottom: "inception_3a/1x1"
  top: "inception_3a/1x1"
  param {
    lr_mult: 1
    decay_mult: 0
  }
  prelu_param {
    filler {
      type: "constant"
      value: 0.01
    }
  }
}
layer {
  name: "inception_3a/3x3_reduce"
  type: "Convolution"
  bottom: "pool2/3x3_s2"
  top: "inception_3a/3x3_reduce"
  param {
    lr_mult: 1
    decay_mult: 1
  }
  param {
    lr_mult: 2
    decay_mult: 0
  }
  convolution_param {
    num_output: 96
    kernel_size: 1
    weight_filler {
      type: "xavier"
    }
    bias_filler {
      type: "constant"
      value: 0.2
    }
  }
}
layer {
  name: "inception_3a/prelu_3x3_reduce"
  type: "PReLU"
  bottom: "inception_3a/3x3_reduce"
  top: "inception_3a/3x3_reduce"
  param {
    lr_mult: 1
    decay_mult: 0
  }
  prelu_param {
    filler {
      type: "constant"
      value: 0.01
    }
  }
}
layer {
  name: "inception_3a/3x3"
  type: "Convolution"
  bottom: "inception_3a/3x3_reduce"
  top: "inception_3a/3x3"
  param {
    lr_mult: 1
    decay_mult: 1
  }
  param {
    lr_mult: 2
    decay_mult: 0
  }
  convolution_param {
    num_output: 128
    pad: 1
    kernel_size: 3
    weight_filler {
      type: "xavier"
    }
    bias_filler {
      type: "constant"
      value: 0.2
    }
  }
}
layer {
  name: "inception_3a/prelu_3x3"
  type: "PReLU"
  bottom: "inception_3a/3x3"
  top: "inception_3a/3x3"
  param {
    lr_mult: 1
    decay_mult: 0
  }
  prelu_param {
    filler {
      type: "constant"
      value: 0.01
    }
  }
}
layer {
  name: "inception_3a/5x5_reduce"
  type: "Convolution"
  bottom: "pool2/3x3_s2"
  top: "inception_3a/5x5_reduce"
  param {
    lr_mult: 1
    decay_mult: 1
  }
  param {
    lr_mult: 2
    decay_mult: 0
  }
  convolution_param {
    num_output: 16
    kernel_size: 1
    weight_filler {
      type: "xavier"
    }
    bias_filler {
      type: "constant"
      value: 0.2
    }
  }
}
layer {
  name: "inception_3a/prelu_5x5_reduce"
  type: "PReLU"
  bottom: "inception_3a/5x5_reduce"
  top: "inception_3a/5x5_reduce"
  param {
    lr_mult: 1
    decay_mult: 0
  }
  prelu_param {
    filler {
      type: "constant"
      value: 0.01
    }
  }
}
layer {
  name: "inception_3a/5x5"
  type: "Convolution"
  bottom: "inception_3a/5x5_reduce"
  top: "inception_3a/5x5"
  param {
    lr_mult: 1
    decay_mult: 1
  }
  param {
    lr_mult: 2
    decay_mult: 0
  }
  convolution_param {
    num_output: 32
    pad: 2
    kernel_size: 5
    weight_filler {
      type: "xavier"
    }
    bias_filler {
      type: "constant"
      value: 0.2
    }
  }
}
layer {
  name: "inception_3a/prelu_5x5"
  type: "PReLU"
  bottom: "inception_3a/5x5"
  top: "inception_3a/5x5"
  param {
    lr_mult: 1
    decay_mult: 0
  }
  prelu_param {
    filler {
      type: "constant"
      value: 0.01
    }
  }
}
layer {
  name: "inception_3a/pool"
  type: "Pooling"
  bottom: "pool2/3x3_s2"
  top: "inception_3a/pool"
  pooling_param {
    pool: MAX
    kernel_size: 3
    stride: 1
    pad: 1
  }
}
layer {
  name: "inception_3a/pool_proj"
  type: "Convolution"
  bottom: "inception_3a/pool"
  top: "inception_3a/pool_proj"
  param {
    lr_mult: 1
    decay_mult: 1
  }
  param {
    lr_mult: 2
    decay_mult: 0
  }
  convolution_param {
    num_output: 32
    kernel_size: 1
    weight_filler {
      type: "xavier"
    }
    bias_filler {
      type: "constant"
      value: 0.2
    }
  }
}
layer {
  name: "inception_3a/prelu_pool_proj"
  type: "PReLU"
  bottom: "inception_3a/pool_proj"
  top: "inception_3a/pool_proj"
  param {
    lr_mult: 1
    decay_mult: 0
  }
  prelu_param {
    filler {
      type: "constant"
      value: 0.01
    }
  }
}
layer {
  name: "inception_3a/output"
  type: "Concat"
  bottom: "inception_3a/1x1"
  bottom: "inception_3a/3x3"
  bottom: "inception_3a/5x5"
  bottom: "inception_3a/pool_proj"
  top: "inception_3a/output"
}
layer {
  name: "inception_3b/1x1"
  type: "Convolution"
  bottom: "inception_3a/output"
  top: "inception_3b/1x1"
  param {
    lr_mult: 1
    decay_mult: 1
  }
  param {
    lr_mult: 2
    decay_mult: 0
  }
  convolution_param {
    num_output: 128
    kernel_size: 1
    weight_filler {
      type: "xavier"
    }
    bias_filler {
      type: "constant"
      value: 0.2
    }
  }
}
layer {
  name: "inception_3b/prelu_1x1"
  type: "PReLU"
  bottom: "inception_3b/1x1"
  top: "inception_3b/1x1"
  param {
    lr_mult: 1
    decay_mult: 0
  }
  prelu_param {
    filler {
      type: "constant"
      value: 0.01
    }
  }
}
layer {
  name: "inception_3b/3x3_reduce"
  type: "Convolution"
  bottom: "inception_3a/output"
  top: "inception_3b/3x3_reduce"
  param {
    lr_mult: 1
    decay_mult: 1
  }
  param {
    lr_mult: 2
    decay_mult: 0
  }
  convolution_param {
    num_output: 128
    kernel_size: 1
    weight_filler {
      type: "xavier"
    }
    bias_filler {
      type: "constant"
      value: 0.2
    }
  }
}
layer {
  name: "inception_3b/prelu_3x3_reduce"
  type: "PReLU"
  bottom: "inception_3b/3x3_reduce"
  top: "inception_3b/3x3_reduce"
  param {
    lr_mult: 1
    decay_mult: 0
  }
  prelu_param {
    filler {
      type: "constant"
      value: 0.01
    }
  }
}
layer {
  name: "inception_3b/3x3"
  type: "Convolution"
  bottom: "inception_3b/3x3_reduce"
  top: "inception_3b/3x3"
  param {
    lr_mult: 1
    decay_mult: 1
  }
  param {
    lr_mult: 2
    decay_mult: 0
  }
  convolution_param {
    num_output: 192
    pad: 1
    kernel_size: 3
    weight_filler {
      type: "xavier"
    }
    bias_filler {
      type: "constant"
      value: 0.2
    }
  }
}
layer {
  name: "inception_3b/prelu_3x3"
  type: "PReLU"
  bottom: "inception_3b/3x3"
  top: "inception_3b/3x3"
  param {
    lr_mult: 1
    decay_mult: 0
  }
  prelu_param {
    filler {
      type: "constant"
      value: 0.01
    }
  }
}
layer {
  name: "inception_3b/5x5_reduce"
  type: "Convolution"
  bottom: "inception_3a/output"
  top: "inception_3b/5x5_reduce"
  param {
    lr_mult: 1
    decay_mult: 1
  }
  param {
    lr_mult: 2
    decay_mult: 0
  }
  convolution_param {
    num_output: 32
    kernel_size: 1
    weight_filler {
      type: "xavier"
    }
    bias_filler {
      type: "constant"
      value: 0.2
    }
  }
}
layer {
  name: "inception_3b/prelu_5x5_reduce"
  type: "PReLU"
  bottom: "inception_3b/5x5_reduce"
  top: "inception_3b/5x5_reduce"
  param {
    lr_mult: 1
    decay_mult: 0
  }
  prelu_param {
    filler {
      type: "constant"
      value: 0.01
    }
  }
}
layer {
  name: "inception_3b/5x5"
  type: "Convolution"
  bottom: "inception_3b/5x5_reduce"
  top: "inception_3b/5x5"
  param {
    lr_mult: 1
    decay_mult: 1
  }
  param {
    lr_mult: 2
    decay_mult: 0
  }
  convolution_param {
    num_output: 96
    pad: 2
    kernel_size: 5
    weight_filler {
      type: "xavier"
    }
    bias_filler {
      type: "constant"
      value: 0.2
    }
  }
}
layer {
  name: "inception_3b/prelu_5x5"
  type: "PReLU"
  bottom: "inception_3b/5x5"
  top: "inception_3b/5x5"
  param {
    lr_mult: 1
    decay_mult: 0
  }
  prelu_param {
    filler {
      type: "constant"
      value: 0.01
    }
  }
}
layer {
  name: "inception_3b/pool"
  type: "Pooling"
  bottom: "inception_3a/output"
  top: "inception_3b/pool"
  pooling_param {
    pool: MAX
    kernel_size: 3
    stride: 1
    pad: 1
  }
}
layer {
  name: "inception_3b/pool_proj"
  type: "Convolution"
  bottom: "inception_3b/pool"
  top: "inception_3b/pool_proj"
  param {
    lr_mult: 1
    decay_mult: 1
  }
  param {
    lr_mult: 2
    decay_mult: 0
  }
  convolution_param {
    num_output: 64
    kernel_size: 1
    weight_filler {
      type: "xavier"
    }
    bias_filler {
      type: "constant"
      value: 0.2
    }
  }
}
layer {
  name: "inception_3b/prelu_pool_proj"
  type: "PReLU"
  bottom: "inception_3b/pool_proj"
  top: "inception_3b/pool_proj"
  param {
    lr_mult: 1
    decay_mult: 0
  }
  prelu_param {
    filler {
      type: "constant"
      value: 0.01
    }
  }
}
layer {
  name: "inception_3b/output"
  type: "Concat"
  bottom: "inception_3b/1x1"
  bottom: "inception_3b/3x3"
  bottom: "inception_3b/5x5"
  bottom: "inception_3b/pool_proj"
  top: "inception_3b/output"
}
layer {
  name: "pool3/3x3_s2"
  type: "Pooling"
  bottom: "inception_3b/output"
  top: "pool3/3x3_s2"
  pooling_param {
    pool: MAX
    kernel_size: 3
    stride: 2
  }
}
layer {
  name: "inception_4a/1x1"
  type: "Convolution"
  bottom: "pool3/3x3_s2"
  top: "inception_4a/1x1"
  param {
    lr_mult: 1
    decay_mult: 1
  }
  param {
    lr_mult: 2
    decay_mult: 0
  }
  convolution_param {
    num_output: 192
    kernel_size: 1
    weight_filler {
      type: "xavier"
    }
    bias_filler {
      type: "constant"
      value: 0.2
    }
  }
}
layer {
  name: "inception_4a/prelu_1x1"
  type: "PReLU"
  bottom: "inception_4a/1x1"
  top: "inception_4a/1x1"
  param {
    lr_mult: 1
    decay_mult: 0
  }
  prelu_param {
    filler {
      type: "constant"
      value: 0.01
    }
  }
}
layer {
  name: "inception_4a/3x3_reduce"
  type: "Convolution"
  bottom: "pool3/3x3_s2"
  top: "inception_4a/3x3_reduce"
  param {
    lr_mult: 1
    decay_mult: 1
  }
  param {
    lr_mult: 2
    decay_mult: 0
  }
  convolution_param {
    num_output: 96
    kernel_size: 1
    weight_filler {
      type: "xavier"
    }
    bias_filler {
      type: "constant"
      value: 0.2
    }
  }
}
layer {
  name: "inception_4a/prelu_3x3_reduce"
  type: "PReLU"
  bottom: "inception_4a/3x3_reduce"
  top: "inception_4a/3x3_reduce"
  param {
    lr_mult: 1
    decay_mult: 0
  }
  prelu_param {
    filler {
      type: "constant"
      value: 0.01
    }
  }
}
layer {
  name: "inception_4a/3x3"
  type: "Convolution"
  bottom: "inception_4a/3x3_reduce"
  top: "inception_4a/3x3"
  param {
    lr_mult: 1
    decay_mult: 1
  }
  param {
    lr_mult: 2
    decay_mult: 0
  }
  convolution_param {
    num_output: 208
    pad: 1
    kernel_size: 3
    weight_filler {
      type: "xavier"
    }
    bias_filler {
      type: "constant"
      value: 0.2
    }
  }
}
layer {
  name: "inception_4a/prelu_3x3"
  type: "PReLU"
  bottom: "inception_4a/3x3"
  top: "inception_4a/3x3"
  param {
    lr_mult: 1
    decay_mult: 0
  }
  prelu_param {
    filler {
      type: "constant"
      value: 0.01
    }
  }
}
layer {
  name: "inception_4a/5x5_reduce"
  type: "Convolution"
  bottom: "pool3/3x3_s2"
  top: "inception_4a/5x5_reduce"
  param {
    lr_mult: 1
    decay_mult: 1
  }
  param {
    lr_mult: 2
    decay_mult: 0
  }
  convolution_param {
    num_output: 16
    kernel_size: 1
    weight_filler {
      type: "xavier"
    }
    bias_filler {
      type: "constant"
      value: 0.2
    }
  }
}
layer {
  name: "inception_4a/prelu_5x5_reduce"
  type: "PReLU"
  bottom: "inception_4a/5x5_reduce"
  top: "inception_4a/5x5_reduce"
  param {
    lr_mult: 1
    decay_mult: 0
  }
  prelu_param {
    filler {
      type: "constant"
      value: 0.01
    }
  }
}
layer {
  name: "inception_4a/5x5"
  type: "Convolution"
  bottom: "inception_4a/5x5_reduce"
  top: "inception_4a/5x5"
  param {
    lr_mult: 1
    decay_mult: 1
  }
  param {
    lr_mult: 2
    decay_mult: 0
  }
  convolution_param {
    num_output: 48
    pad: 2
    kernel_size: 5
    weight_filler {
      type: "xavier"
    }
    bias_filler {
      type: "constant"
      value: 0.2
    }
  }
}
layer {
  name: "inception_4a/prelu_5x5"
  type: "PReLU"
  bottom: "inception_4a/5x5"
  top: "inception_4a/5x5"
  param {
    lr_mult: 1
    decay_mult: 0
  }
  prelu_param {
    filler {
      type: "constant"
      value: 0.01
    }
  }
}
layer {
  name: "inception_4a/pool"
  type: "Pooling"
  bottom: "pool3/3x3_s2"
  top: "inception_4a/pool"
  pooling_param {
    pool: MAX
    kernel_size: 3
    stride: 1
    pad: 1
  }
}
layer {
  name: "inception_4a/pool_proj"
  type: "Convolution"
  bottom: "inception_4a/pool"
  top: "inception_4a/pool_proj"
  param {
    lr_mult: 1
    decay_mult: 1
  }
  param {
    lr_mult: 2
    decay_mult: 0
  }
  convolution_param {
    num_output: 64
    kernel_size: 1
    weight_filler {
      type: "xavier"
    }
    bias_filler {
      type: "constant"
      value: 0.2
    }
  }
}
layer {
  name: "inception_4a/prelu_pool_proj"
  type: "PReLU"
  bottom: "inception_4a/pool_proj"
  top: "inception_4a/pool_proj"
  param {
    lr_mult: 1
    decay_mult: 0
  }
  prelu_param {
    filler {
      type: "constant"
      value: 0.01
    }
  }
}
layer {
  name: "inception_4a/output"
  type: "Concat"
  bottom: "inception_4a/1x1"
  bottom: "inception_4a/3x3"
  bottom: "inception_4a/5x5"
  bottom: "inception_4a/pool_proj"
  top: "inception_4a/output"
}
layer {
  name: "loss1/ave_pool"
  type: "Pooling"
  bottom: "inception_4a/output"
  top: "loss1/ave_pool"
  pooling_param {
    pool: AVE
    kernel_size: 5
    stride: 3
  }
}
layer {
  name: "loss1/conv"
  type: "Convolution"
  bottom: "loss1/ave_pool"
  top: "loss1/conv"
  param {
    lr_mult: 1
    decay_mult: 1
  }
  param {
    lr_mult: 2
    decay_mult: 0
  }
  convolution_param {
    num_output: 128
    kernel_size: 1
    weight_filler {
      type: "xavier"
    }
    bias_filler {
      type: "constant"
      value: 0.2
    }
  }
}
layer {
  name: "loss1/prelu_conv"
  type: "PReLU"
  bottom: "loss1/conv"
  top: "loss1/conv"
  param {
    lr_mult: 1
    decay_mult: 0
  }
  prelu_param {
    filler {
      type: "constant"
      value: 0.01
    }
  }
}
layer {
  name: "loss1/fc"
  type: "InnerProduct"
  bottom: "loss1/conv"
  top: "loss1/fc"
  param {
    lr_mult: 1
    decay_mult: 1
  }
  param {
    lr_mult: 2
    decay_mult: 0
  }
  inner_product_param {
    num_output: 1024
    weight_filler {
      type: "xavier"
    }
    bias_filler {
      type: "constant"
      value: 0.2
    }
  }
}
layer {
  name: "loss1/prelu_fc"
  type: "PReLU"
  bottom: "loss1/fc"
  top: "loss1/fc"
  param {
    lr_mult: 1
    decay_mult: 0
  }
  prelu_param {
    filler {
      type: "constant"
      value: 0.01
    }
  }
}
layer {
  name: "loss1/drop_fc"
  type: "Dropout"
  bottom: "loss1/fc"
  top: "loss1/fc"
  dropout_param {
    dropout_ratio: 0.7
  }
}
layer {
  name: "loss1/classifier2"
  type: "InnerProduct"
  bottom: "loss1/fc"
  top: "loss1/classifier"
  param {
    lr_mult: 1
    decay_mult: 1
  }
  param {
    lr_mult: 2
    decay_mult: 0
  }
  inner_product_param {
    num_output: 2
    weight_filler {
      type: "xavier"
    }
    bias_filler {
      type: "constant"
      value: 0
    }
  }
}
layer {
  name: "loss1/loss"
  type: "SoftmaxWithLoss"
  bottom: "loss1/classifier"
  bottom: "label"
  top: "loss1/loss1"
  loss_weight: 0.3
}
layer {
  name: "inception_4b/1x1"
  type: "Convolution"
  bottom: "inception_4a/output"
  top: "inception_4b/1x1"
  param {
    lr_mult: 1
    decay_mult: 1
  }
  param {
    lr_mult: 2
    decay_mult: 0
  }
  convolution_param {
    num_output: 160
    kernel_size: 1
    weight_filler {
      type: "xavier"
    }
    bias_filler {
      type: "constant"
      value: 0.2
    }
  }
}
layer {
  name: "inception_4b/prelu_1x1"
  type: "PReLU"
  bottom: "inception_4b/1x1"
  top: "inception_4b/1x1"
  param {
    lr_mult: 1
    decay_mult: 0
  }
  prelu_param {
    filler {
      type: "constant"
      value: 0.01
    }
  }
}
layer {
  name: "inception_4b/3x3_reduce"
  type: "Convolution"
  bottom: "inception_4a/output"
  top: "inception_4b/3x3_reduce"
  param {
    lr_mult: 1
    decay_mult: 1
  }
  param {
    lr_mult: 2
    decay_mult: 0
  }
  convolution_param {
    num_output: 112
    kernel_size: 1
    weight_filler {
      type: "xavier"
    }
    bias_filler {
      type: "constant"
      value: 0.2
    }
  }
}
layer {
  name: "inception_4b/prelu_3x3_reduce"
  type: "PReLU"
  bottom: "inception_4b/3x3_reduce"
  top: "inception_4b/3x3_reduce"
  param {
    lr_mult: 1
    decay_mult: 0
  }
  prelu_param {
    filler {
      type: "constant"
      value: 0.01
    }
  }
}
layer {
  name: "inception_4b/3x3"
  type: "Convolution"
  bottom: "inception_4b/3x3_reduce"
  top: "inception_4b/3x3"
  param {
    lr_mult: 1
    decay_mult: 1
  }
  param {
    lr_mult: 2
    decay_mult: 0
  }
  convolution_param {
    num_output: 224
    pad: 1
    kernel_size: 3
    weight_filler {
      type: "xavier"
    }
    bias_filler {
      type: "constant"
      value: 0.2
    }
  }
}
layer {
  name: "inception_4b/prelu_3x3"
  type: "PReLU"
  bottom: "inception_4b/3x3"
  top: "inception_4b/3x3"
  param {
    lr_mult: 1
    decay_mult: 0
  }
  prelu_param {
    filler {
      type: "constant"
      value: 0.01
    }
  }
}
layer {
  name: "inception_4b/5x5_reduce"
  type: "Convolution"
  bottom: "inception_4a/output"
  top: "inception_4b/5x5_reduce"
  param {
    lr_mult: 1
    decay_mult: 1
  }
  param {
    lr_mult: 2
    decay_mult: 0
  }
  convolution_param {
    num_output: 24
    kernel_size: 1
    weight_filler {
      type: "xavier"
    }
    bias_filler {
      type: "constant"
      value: 0.2
    }
  }
}
layer {
  name: "inception_4b/prelu_5x5_reduce"
  type: "PReLU"
  bottom: "inception_4b/5x5_reduce"
  top: "inception_4b/5x5_reduce"
  param {
    lr_mult: 1
    decay_mult: 0
  }
  prelu_param {
    filler {
      type: "constant"
      value: 0.01
    }
  }
}
layer {
  name: "inception_4b/5x5"
  type: "Convolution"
  bottom: "inception_4b/5x5_reduce"
  top: "inception_4b/5x5"
  param {
    lr_mult: 1
    decay_mult: 1
  }
  param {
    lr_mult: 2
    decay_mult: 0
  }
  convolution_param {
    num_output: 64
    pad: 2
    kernel_size: 5
    weight_filler {
      type: "xavier"
    }
    bias_filler {
      type: "constant"
      value: 0.2
    }
  }
}
layer {
  name: "inception_4b/prelu_5x5"
  type: "PReLU"
  bottom: "inception_4b/5x5"
  top: "inception_4b/5x5"
  param {
    lr_mult: 1
    decay_mult: 0
  }
  prelu_param {
    filler {
      type: "constant"
      value: 0.01
    }
  }
}
layer {
  name: "inception_4b/pool"
  type: "Pooling"
  bottom: "inception_4a/output"
  top: "inception_4b/pool"
  pooling_param {
    pool: MAX
    kernel_size: 3
    stride: 1
    pad: 1
  }
}
layer {
  name: "inception_4b/pool_proj"
  type: "Convolution"
  bottom: "inception_4b/pool"
  top: "inception_4b/pool_proj"
  param {
    lr_mult: 1
    decay_mult: 1
  }
  param {
    lr_mult: 2
    decay_mult: 0
  }
  convolution_param {
    num_output: 64
    kernel_size: 1
    weight_filler {
      type: "xavier"
    }
    bias_filler {
      type: "constant"
      value: 0.2
    }
  }
}
layer {
  name: "inception_4b/prelu_pool_proj"
  type: "PReLU"
  bottom: "inception_4b/pool_proj"
  top: "inception_4b/pool_proj"
  param {
    lr_mult: 1
    decay_mult: 0
  }
  prelu_param {
    filler {
      type: "constant"
      value: 0.01
    }
  }
}
layer {
  name: "inception_4b/output"
  type: "Concat"
  bottom: "inception_4b/1x1"
  bottom: "inception_4b/3x3"
  bottom: "inception_4b/5x5"
  bottom: "inception_4b/pool_proj"
  top: "inception_4b/output"
}
layer {
  name: "inception_4c/1x1"
  type: "Convolution"
  bottom: "inception_4b/output"
  top: "inception_4c/1x1"
  param {
    lr_mult: 1
    decay_mult: 1
  }
  param {
    lr_mult: 2
    decay_mult: 0
  }
  convolution_param {
    num_output: 128
    kernel_size: 1
    weight_filler {
      type: "xavier"
    }
    bias_filler {
      type: "constant"
      value: 0.2
    }
  }
}
layer {
  name: "inception_4c/prelu_1x1"
  type: "PReLU"
  bottom: "inception_4c/1x1"
  top: "inception_4c/1x1"
  param {
    lr_mult: 1
    decay_mult: 0
  }
  prelu_param {
    filler {
      type: "constant"
      value: 0.01
    }
  }
}
layer {
  name: "inception_4c/3x3_reduce"
  type: "Convolution"
  bottom: "inception_4b/output"
  top: "inception_4c/3x3_reduce"
  param {
    lr_mult: 1
    decay_mult: 1
  }
  param {
    lr_mult: 2
    decay_mult: 0
  }
  convolution_param {
    num_output: 128
    kernel_size: 1
    weight_filler {
      type: "xavier"
    }
    bias_filler {
      type: "constant"
      value: 0.2
    }
  }
}
layer {
  name: "inception_4c/prelu_3x3_reduce"
  type: "PReLU"
  bottom: "inception_4c/3x3_reduce"
  top: "inception_4c/3x3_reduce"
  param {
    lr_mult: 1
    decay_mult: 0
  }
  prelu_param {
    filler {
      type: "constant"
      value: 0.01
    }
  }
}
layer {
  name: "inception_4c/3x3"
  type: "Convolution"
  bottom: "inception_4c/3x3_reduce"
  top: "inception_4c/3x3"
  param {
    lr_mult: 1
    decay_mult: 1
  }
  param {
    lr_mult: 2
    decay_mult: 0
  }
  convolution_param {
    num_output: 256
    pad: 1
    kernel_size: 3
    weight_filler {
      type: "xavier"
    }
    bias_filler {
      type: "constant"
      value: 0.2
    }
  }
}
layer {
  name: "inception_4c/prelu_3x3"
  type: "PReLU"
  bottom: "inception_4c/3x3"
  top: "inception_4c/3x3"
  param {
    lr_mult: 1
    decay_mult: 0
  }
  prelu_param {
    filler {
      type: "constant"
      value: 0.01
    }
  }
}
layer {
  name: "inception_4c/5x5_reduce"
  type: "Convolution"
  bottom: "inception_4b/output"
  top: "inception_4c/5x5_reduce"
  param {
    lr_mult: 1
    decay_mult: 1
  }
  param {
    lr_mult: 2
    decay_mult: 0
  }
  convolution_param {
    num_output: 24
    kernel_size: 1
    weight_filler {
      type: "xavier"
    }
    bias_filler {
      type: "constant"
      value: 0.2
    }
  }
}
layer {
  name: "inception_4c/prelu_5x5_reduce"
  type: "PReLU"
  bottom: "inception_4c/5x5_reduce"
  top: "inception_4c/5x5_reduce"
  param {
    lr_mult: 1
    decay_mult: 0
  }
  prelu_param {
    filler {
      type: "constant"
      value: 0.01
    }
  }
}
layer {
  name: "inception_4c/5x5"
  type: "Convolution"
  bottom: "inception_4c/5x5_reduce"
  top: "inception_4c/5x5"
  param {
    lr_mult: 1
    decay_mult: 1
  }
  param {
    lr_mult: 2
    decay_mult: 0
  }
  convolution_param {
    num_output: 64
    pad: 2
    kernel_size: 5
    weight_filler {
      type: "xavier"
    }
    bias_filler {
      type: "constant"
      value: 0.2
    }
  }
}
layer {
  name: "inception_4c/prelu_5x5"
  type: "PReLU"
  bottom: "inception_4c/5x5"
  top: "inception_4c/5x5"
  param {
    lr_mult: 1
    decay_mult: 0
  }
  prelu_param {
    filler {
      type: "constant"
      value: 0.01
    }
  }
}
layer {
  name: "inception_4c/pool"
  type: "Pooling"
  bottom: "inception_4b/output"
  top: "inception_4c/pool"
  pooling_param {
    pool: MAX
    kernel_size: 3
    stride: 1
    pad: 1
  }
}
layer {
  name: "inception_4c/pool_proj"
  type: "Convolution"
  bottom: "inception_4c/pool"
  top: "inception_4c/pool_proj"
  param {
    lr_mult: 1
    decay_mult: 1
  }
  param {
    lr_mult: 2
    decay_mult: 0
  }
  convolution_param {
    num_output: 64
    kernel_size: 1
    weight_filler {
      type: "xavier"
    }
    bias_filler {
      type: "constant"
      value: 0.2
    }
  }
}
layer {
  name: "inception_4c/prelu_pool_proj"
  type: "PReLU"
  bottom: "inception_4c/pool_proj"
  top: "inception_4c/pool_proj"
  param {
    lr_mult: 1
    decay_mult: 0
  }
  prelu_param {
    filler {
      type: "constant"
      value: 0.01
    }
  }
}
layer {
  name: "inception_4c/output"
  type: "Concat"
  bottom: "inception_4c/1x1"
  bottom: "inception_4c/3x3"
  bottom: "inception_4c/5x5"
  bottom: "inception_4c/pool_proj"
  top: "inception_4c/output"
}
layer {
  name: "inception_4d/1x1"
  type: "Convolution"
  bottom: "inception_4c/output"
  top: "inception_4d/1x1"
  param {
    lr_mult: 1
    decay_mult: 1
  }
  param {
    lr_mult: 2
    decay_mult: 0
  }
  convolution_param {
    num_output: 112
    kernel_size: 1
    weight_filler {
      type: "xavier"
    }
    bias_filler {
      type: "constant"
      value: 0.2
    }
  }
}
layer {
  name: "inception_4d/prelu_1x1"
  type: "PReLU"
  bottom: "inception_4d/1x1"
  top: "inception_4d/1x1"
  param {
    lr_mult: 1
    decay_mult: 0
  }
  prelu_param {
    filler {
      type: "constant"
      value: 0.01
    }
  }
}
layer {
  name: "inception_4d/3x3_reduce"
  type: "Convolution"
  bottom: "inception_4c/output"
  top: "inception_4d/3x3_reduce"
  param {
    lr_mult: 1
    decay_mult: 1
  }
  param {
    lr_mult: 2
    decay_mult: 0
  }
  convolution_param {
    num_output: 144
    kernel_size: 1
    weight_filler {
      type: "xavier"
    }
    bias_filler {
      type: "constant"
      value: 0.2
    }
  }
}
layer {
  name: "inception_4d/prelu_3x3_reduce"
  type: "PReLU"
  bottom: "inception_4d/3x3_reduce"
  top: "inception_4d/3x3_reduce"
  param {
    lr_mult: 1
    decay_mult: 0
  }
  prelu_param {
    filler {
      type: "constant"
      value: 0.01
    }
  }
}
layer {
  name: "inception_4d/3x3"
  type: "Convolution"
  bottom: "inception_4d/3x3_reduce"
  top: "inception_4d/3x3"
  param {
    lr_mult: 1
    decay_mult: 1
  }
  param {
    lr_mult: 2
    decay_mult: 0
  }
  convolution_param {
    num_output: 288
    pad: 1
    kernel_size: 3
    weight_filler {
      type: "xavier"
    }
    bias_filler {
      type: "constant"
      value: 0.2
    }
  }
}
layer {
  name: "inception_4d/prelu_3x3"
  type: "PReLU"
  bottom: "inception_4d/3x3"
  top: "inception_4d/3x3"
  param {
    lr_mult: 1
    decay_mult: 0
  }
  prelu_param {
    filler {
      type: "constant"
      value: 0.01
    }
  }
}
layer {
  name: "inception_4d/5x5_reduce"
  type: "Convolution"
  bottom: "inception_4c/output"
  top: "inception_4d/5x5_reduce"
  param {
    lr_mult: 1
    decay_mult: 1
  }
  param {
    lr_mult: 2
    decay_mult: 0
  }
  convolution_param {
    num_output: 32
    kernel_size: 1
    weight_filler {
      type: "xavier"
    }
    bias_filler {
      type: "constant"
      value: 0.2
    }
  }
}
layer {
  name: "inception_4d/prelu_5x5_reduce"
  type: "PReLU"
  bottom: "inception_4d/5x5_reduce"
  top: "inception_4d/5x5_reduce"
  param {
    lr_mult: 1
    decay_mult: 0
  }
  prelu_param {
    filler {
      type: "constant"
      value: 0.01
    }
  }
}
layer {
  name: "inception_4d/5x5"
  type: "Convolution"
  bottom: "inception_4d/5x5_reduce"
  top: "inception_4d/5x5"
  param {
    lr_mult: 1
    decay_mult: 1
  }
  param {
    lr_mult: 2
    decay_mult: 0
  }
  convolution_param {
    num_output: 64
    pad: 2
    kernel_size: 5
    weight_filler {
      type: "xavier"
    }
    bias_filler {
      type: "constant"
      value: 0.2
    }
  }
}
layer {
  name: "inception_4d/prelu_5x5"
  type: "PReLU"
  bottom: "inception_4d/5x5"
  top: "inception_4d/5x5"
  param {
    lr_mult: 1
    decay_mult: 0
  }
  prelu_param {
    filler {
      type: "constant"
      value: 0.01
    }
  }
}
layer {
  name: "inception_4d/pool"
  type: "Pooling"
  bottom: "inception_4c/output"
  top: "inception_4d/pool"
  pooling_param {
    pool: MAX
    kernel_size: 3
    stride: 1
    pad: 1
  }
}
layer {
  name: "inception_4d/pool_proj"
  type: "Convolution"
  bottom: "ince
I1105 17:30:10.114856 24559 layer_factory.hpp:76] Creating layer data
I1105 17:30:10.115535 24559 net.cpp:106] Creating Layer data
I1105 17:30:10.115555 24559 net.cpp:411] data -> data
I1105 17:30:10.115594 24559 net.cpp:411] data -> label
I1105 17:30:10.117113 24564 db_lmdb.cpp:38] Opened lmdb ../../LMDB/train_4-lmdb
I1105 17:30:10.131459 24559 data_layer.cpp:41] output data size: 32,3,224,224
I1105 17:30:10.197509 24559 net.cpp:150] Setting up data
I1105 17:30:10.197558 24559 net.cpp:157] Top shape: 32 3 224 224 (4816896)
I1105 17:30:10.197566 24559 net.cpp:157] Top shape: 32 (32)
I1105 17:30:10.197571 24559 net.cpp:165] Memory required for data: 19267712
I1105 17:30:10.197583 24559 layer_factory.hpp:76] Creating layer label_data_1_split
I1105 17:30:10.197598 24559 net.cpp:106] Creating Layer label_data_1_split
I1105 17:30:10.197605 24559 net.cpp:454] label_data_1_split <- label
I1105 17:30:10.197621 24559 net.cpp:411] label_data_1_split -> label_data_1_split_0
I1105 17:30:10.197633 24559 net.cpp:411] label_data_1_split -> label_data_1_split_1
I1105 17:30:10.197639 24559 net.cpp:411] label_data_1_split -> label_data_1_split_2
I1105 17:30:10.197693 24559 net.cpp:150] Setting up label_data_1_split
I1105 17:30:10.197702 24559 net.cpp:157] Top shape: 32 (32)
I1105 17:30:10.197708 24559 net.cpp:157] Top shape: 32 (32)
I1105 17:30:10.197713 24559 net.cpp:157] Top shape: 32 (32)
I1105 17:30:10.197716 24559 net.cpp:165] Memory required for data: 19268096
I1105 17:30:10.197721 24559 layer_factory.hpp:76] Creating layer conv1/7x7_s2
I1105 17:30:10.197738 24559 net.cpp:106] Creating Layer conv1/7x7_s2
I1105 17:30:10.197742 24559 net.cpp:454] conv1/7x7_s2 <- data
I1105 17:30:10.197751 24559 net.cpp:411] conv1/7x7_s2 -> conv1/7x7_s2
I1105 17:30:10.411348 24559 cudnn_conv_layer.cpp:194] Reallocating workspace storage: 225816
I1105 17:30:10.411619 24559 net.cpp:150] Setting up conv1/7x7_s2
I1105 17:30:10.411636 24559 net.cpp:157] Top shape: 32 64 112 112 (25690112)
I1105 17:30:10.411651 24559 net.cpp:165] Memory required for data: 122028544
I1105 17:30:10.411671 24559 layer_factory.hpp:76] Creating layer conv1/prelu_7x7
I1105 17:30:10.411706 24559 net.cpp:106] Creating Layer conv1/prelu_7x7
I1105 17:30:10.411713 24559 net.cpp:454] conv1/prelu_7x7 <- conv1/7x7_s2
I1105 17:30:10.411721 24559 net.cpp:397] conv1/prelu_7x7 -> conv1/7x7_s2 (in-place)
I1105 17:30:10.413444 24559 net.cpp:150] Setting up conv1/prelu_7x7
I1105 17:30:10.413458 24559 net.cpp:157] Top shape: 32 64 112 112 (25690112)
I1105 17:30:10.413462 24559 net.cpp:165] Memory required for data: 224788992
I1105 17:30:10.413471 24559 layer_factory.hpp:76] Creating layer pool1/3x3_s2
I1105 17:30:10.413483 24559 net.cpp:106] Creating Layer pool1/3x3_s2
I1105 17:30:10.413488 24559 net.cpp:454] pool1/3x3_s2 <- conv1/7x7_s2
I1105 17:30:10.413496 24559 net.cpp:411] pool1/3x3_s2 -> pool1/3x3_s2
I1105 17:30:10.413871 24559 net.cpp:150] Setting up pool1/3x3_s2
I1105 17:30:10.413882 24559 net.cpp:157] Top shape: 32 64 56 56 (6422528)
I1105 17:30:10.413887 24559 net.cpp:165] Memory required for data: 250479104
I1105 17:30:10.413892 24559 layer_factory.hpp:76] Creating layer pool1/norm1
I1105 17:30:10.413903 24559 net.cpp:106] Creating Layer pool1/norm1
I1105 17:30:10.413908 24559 net.cpp:454] pool1/norm1 <- pool1/3x3_s2
I1105 17:30:10.413914 24559 net.cpp:411] pool1/norm1 -> pool1/norm1
I1105 17:30:10.414074 24559 net.cpp:150] Setting up pool1/norm1
I1105 17:30:10.414084 24559 net.cpp:157] Top shape: 32 64 56 56 (6422528)
I1105 17:30:10.414089 24559 net.cpp:165] Memory required for data: 276169216
I1105 17:30:10.414093 24559 layer_factory.hpp:76] Creating layer conv2/3x3_reduce
I1105 17:30:10.414103 24559 net.cpp:106] Creating Layer conv2/3x3_reduce
I1105 17:30:10.414108 24559 net.cpp:454] conv2/3x3_reduce <- pool1/norm1
I1105 17:30:10.414114 24559 net.cpp:411] conv2/3x3_reduce -> conv2/3x3_reduce
I1105 17:30:10.415500 24559 cudnn_conv_layer.cpp:194] Reallocating workspace storage: 63000
I1105 17:30:10.415523 24559 net.cpp:150] Setting up conv2/3x3_reduce
I1105 17:30:10.415531 24559 net.cpp:157] Top shape: 32 64 56 56 (6422528)
I1105 17:30:10.415535 24559 net.cpp:165] Memory required for data: 301859328
I1105 17:30:10.415544 24559 layer_factory.hpp:76] Creating layer conv2/prelu_3x3_reduce
I1105 17:30:10.415554 24559 net.cpp:106] Creating Layer conv2/prelu_3x3_reduce
I1105 17:30:10.415559 24559 net.cpp:454] conv2/prelu_3x3_reduce <- conv2/3x3_reduce
I1105 17:30:10.415565 24559 net.cpp:397] conv2/prelu_3x3_reduce -> conv2/3x3_reduce (in-place)
I1105 17:30:10.416173 24559 net.cpp:150] Setting up conv2/prelu_3x3_reduce
I1105 17:30:10.416187 24559 net.cpp:157] Top shape: 32 64 56 56 (6422528)
I1105 17:30:10.416190 24559 net.cpp:165] Memory required for data: 327549440
I1105 17:30:10.416196 24559 layer_factory.hpp:76] Creating layer conv2/3x3
I1105 17:30:10.416208 24559 net.cpp:106] Creating Layer conv2/3x3
I1105 17:30:10.416211 24559 net.cpp:454] conv2/3x3 <- conv2/3x3_reduce
I1105 17:30:10.416218 24559 net.cpp:411] conv2/3x3 -> conv2/3x3
I1105 17:30:10.418207 24559 cudnn_conv_layer.cpp:194] Reallocating workspace storage: 63000
I1105 17:30:10.418228 24559 net.cpp:150] Setting up conv2/3x3
I1105 17:30:10.418236 24559 net.cpp:157] Top shape: 32 192 56 56 (19267584)
I1105 17:30:10.418241 24559 net.cpp:165] Memory required for data: 404619776
I1105 17:30:10.418247 24559 layer_factory.hpp:76] Creating layer conv2/prelu_3x3
I1105 17:30:10.418256 24559 net.cpp:106] Creating Layer conv2/prelu_3x3
I1105 17:30:10.418259 24559 net.cpp:454] conv2/prelu_3x3 <- conv2/3x3
I1105 17:30:10.418273 24559 net.cpp:397] conv2/prelu_3x3 -> conv2/3x3 (in-place)
I1105 17:30:10.419386 24559 net.cpp:150] Setting up conv2/prelu_3x3
I1105 17:30:10.419400 24559 net.cpp:157] Top shape: 32 192 56 56 (19267584)
I1105 17:30:10.419404 24559 net.cpp:165] Memory required for data: 481690112
I1105 17:30:10.419431 24559 layer_factory.hpp:76] Creating layer conv2/norm2
I1105 17:30:10.419450 24559 net.cpp:106] Creating Layer conv2/norm2
I1105 17:30:10.419455 24559 net.cpp:454] conv2/norm2 <- conv2/3x3
I1105 17:30:10.419461 24559 net.cpp:411] conv2/norm2 -> conv2/norm2
I1105 17:30:10.419646 24559 net.cpp:150] Setting up conv2/norm2
I1105 17:30:10.419656 24559 net.cpp:157] Top shape: 32 192 56 56 (19267584)
I1105 17:30:10.419661 24559 net.cpp:165] Memory required for data: 558760448
I1105 17:30:10.419666 24559 layer_factory.hpp:76] Creating layer pool2/3x3_s2
I1105 17:30:10.419673 24559 net.cpp:106] Creating Layer pool2/3x3_s2
I1105 17:30:10.419677 24559 net.cpp:454] pool2/3x3_s2 <- conv2/norm2
I1105 17:30:10.419683 24559 net.cpp:411] pool2/3x3_s2 -> pool2/3x3_s2
I1105 17:30:10.420063 24559 net.cpp:150] Setting up pool2/3x3_s2
I1105 17:30:10.420074 24559 net.cpp:157] Top shape: 32 192 28 28 (4816896)
I1105 17:30:10.420086 24559 net.cpp:165] Memory required for data: 578028032
I1105 17:30:10.420091 24559 layer_factory.hpp:76] Creating layer pool2/3x3_s2_pool2/3x3_s2_0_split
I1105 17:30:10.420099 24559 net.cpp:106] Creating Layer pool2/3x3_s2_pool2/3x3_s2_0_split
I1105 17:30:10.420102 24559 net.cpp:454] pool2/3x3_s2_pool2/3x3_s2_0_split <- pool2/3x3_s2
I1105 17:30:10.420109 24559 net.cpp:411] pool2/3x3_s2_pool2/3x3_s2_0_split -> pool2/3x3_s2_pool2/3x3_s2_0_split_0
I1105 17:30:10.420125 24559 net.cpp:411] pool2/3x3_s2_pool2/3x3_s2_0_split -> pool2/3x3_s2_pool2/3x3_s2_0_split_1
I1105 17:30:10.420131 24559 net.cpp:411] pool2/3x3_s2_pool2/3x3_s2_0_split -> pool2/3x3_s2_pool2/3x3_s2_0_split_2
I1105 17:30:10.420138 24559 net.cpp:411] pool2/3x3_s2_pool2/3x3_s2_0_split -> pool2/3x3_s2_pool2/3x3_s2_0_split_3
I1105 17:30:10.420202 24559 net.cpp:150] Setting up pool2/3x3_s2_pool2/3x3_s2_0_split
I1105 17:30:10.420210 24559 net.cpp:157] Top shape: 32 192 28 28 (4816896)
I1105 17:30:10.420223 24559 net.cpp:157] Top shape: 32 192 28 28 (4816896)
I1105 17:30:10.420228 24559 net.cpp:157] Top shape: 32 192 28 28 (4816896)
I1105 17:30:10.420233 24559 net.cpp:157] Top shape: 32 192 28 28 (4816896)
I1105 17:30:10.420238 24559 net.cpp:165] Memory required for data: 655098368
I1105 17:30:10.420241 24559 layer_factory.hpp:76] Creating layer inception_3a/1x1
I1105 17:30:10.420258 24559 net.cpp:106] Creating Layer inception_3a/1x1
I1105 17:30:10.420264 24559 net.cpp:454] inception_3a/1x1 <- pool2/3x3_s2_pool2/3x3_s2_0_split_0
I1105 17:30:10.420270 24559 net.cpp:411] inception_3a/1x1 -> inception_3a/1x1
I1105 17:30:10.421741 24559 cudnn_conv_layer.cpp:194] Reallocating workspace storage: 20664
I1105 17:30:10.421766 24559 net.cpp:150] Setting up inception_3a/1x1
I1105 17:30:10.421775 24559 net.cpp:157] Top shape: 32 64 28 28 (1605632)
I1105 17:30:10.421779 24559 net.cpp:165] Memory required for data: 661520896
I1105 17:30:10.421787 24559 layer_factory.hpp:76] Creating layer inception_3a/prelu_1x1
I1105 17:30:10.421804 24559 net.cpp:106] Creating Layer inception_3a/prelu_1x1
I1105 17:30:10.421810 24559 net.cpp:454] inception_3a/prelu_1x1 <- inception_3a/1x1
I1105 17:30:10.421818 24559 net.cpp:397] inception_3a/prelu_1x1 -> inception_3a/1x1 (in-place)
I1105 17:30:10.422360 24559 net.cpp:150] Setting up inception_3a/prelu_1x1
I1105 17:30:10.422372 24559 net.cpp:157] Top shape: 32 64 28 28 (1605632)
I1105 17:30:10.422376 24559 net.cpp:165] Memory required for data: 667943424
I1105 17:30:10.422382 24559 layer_factory.hpp:76] Creating layer inception_3a/3x3_reduce
I1105 17:30:10.422391 24559 net.cpp:106] Creating Layer inception_3a/3x3_reduce
I1105 17:30:10.422396 24559 net.cpp:454] inception_3a/3x3_reduce <- pool2/3x3_s2_pool2/3x3_s2_0_split_1
I1105 17:30:10.422404 24559 net.cpp:411] inception_3a/3x3_reduce -> inception_3a/3x3_reduce
I1105 17:30:10.423316 24559 cudnn_conv_layer.cpp:194] Reallocating workspace storage: 20664
I1105 17:30:10.423347 24559 net.cpp:150] Setting up inception_3a/3x3_reduce
I1105 17:30:10.423355 24559 net.cpp:157] Top shape: 32 96 28 28 (2408448)
I1105 17:30:10.423359 24559 net.cpp:165] Memory required for data: 677577216
I1105 17:30:10.423398 24559 layer_factory.hpp:76] Creating layer inception_3a/prelu_3x3_reduce
I1105 17:30:10.423409 24559 net.cpp:106] Creating Layer inception_3a/prelu_3x3_reduce
I1105 17:30:10.423414 24559 net.cpp:454] inception_3a/prelu_3x3_reduce <- inception_3a/3x3_reduce
I1105 17:30:10.423439 24559 net.cpp:397] inception_3a/prelu_3x3_reduce -> inception_3a/3x3_reduce (in-place)
I1105 17:30:10.423571 24559 net.cpp:150] Setting up inception_3a/prelu_3x3_reduce
I1105 17:30:10.423581 24559 net.cpp:157] Top shape: 32 96 28 28 (2408448)
I1105 17:30:10.423585 24559 net.cpp:165] Memory required for data: 687211008
I1105 17:30:10.423590 24559 layer_factory.hpp:76] Creating layer inception_3a/3x3
I1105 17:30:10.423599 24559 net.cpp:106] Creating Layer inception_3a/3x3
I1105 17:30:10.423604 24559 net.cpp:454] inception_3a/3x3 <- inception_3a/3x3_reduce
I1105 17:30:10.423610 24559 net.cpp:411] inception_3a/3x3 -> inception_3a/3x3
I1105 17:30:10.425665 24559 cudnn_conv_layer.cpp:194] Reallocating workspace storage: 20664
I1105 17:30:10.425693 24559 net.cpp:150] Setting up inception_3a/3x3
I1105 17:30:10.425704 24559 net.cpp:157] Top shape: 32 128 28 28 (3211264)
I1105 17:30:10.425707 24559 net.cpp:165] Memory required for data: 700056064
I1105 17:30:10.425721 24559 layer_factory.hpp:76] Creating layer inception_3a/prelu_3x3
I1105 17:30:10.425734 24559 net.cpp:106] Creating Layer inception_3a/prelu_3x3
I1105 17:30:10.425739 24559 net.cpp:454] inception_3a/prelu_3x3 <- inception_3a/3x3
I1105 17:30:10.425746 24559 net.cpp:397] inception_3a/prelu_3x3 -> inception_3a/3x3 (in-place)
I1105 17:30:10.425878 24559 net.cpp:150] Setting up inception_3a/prelu_3x3
I1105 17:30:10.425889 24559 net.cpp:157] Top shape: 32 128 28 28 (3211264)
I1105 17:30:10.425892 24559 net.cpp:165] Memory required for data: 712901120
I1105 17:30:10.425899 24559 layer_factory.hpp:76] Creating layer inception_3a/5x5_reduce
I1105 17:30:10.425909 24559 net.cpp:106] Creating Layer inception_3a/5x5_reduce
I1105 17:30:10.425915 24559 net.cpp:454] inception_3a/5x5_reduce <- pool2/3x3_s2_pool2/3x3_s2_0_split_2
I1105 17:30:10.425921 24559 net.cpp:411] inception_3a/5x5_reduce -> inception_3a/5x5_reduce
I1105 17:30:10.427160 24559 cudnn_conv_layer.cpp:194] Reallocating workspace storage: 20664
I1105 17:30:10.427192 24559 net.cpp:150] Setting up inception_3a/5x5_reduce
I1105 17:30:10.427201 24559 net.cpp:157] Top shape: 32 16 28 28 (401408)
I1105 17:30:10.427206 24559 net.cpp:165] Memory required for data: 714506752
I1105 17:30:10.427213 24559 layer_factory.hpp:76] Creating layer inception_3a/prelu_5x5_reduce
I1105 17:30:10.427223 24559 net.cpp:106] Creating Layer inception_3a/prelu_5x5_reduce
I1105 17:30:10.427229 24559 net.cpp:454] inception_3a/prelu_5x5_reduce <- inception_3a/5x5_reduce
I1105 17:30:10.427237 24559 net.cpp:397] inception_3a/prelu_5x5_reduce -> inception_3a/5x5_reduce (in-place)
I1105 17:30:10.427325 24559 net.cpp:150] Setting up inception_3a/prelu_5x5_reduce
I1105 17:30:10.427335 24559 net.cpp:157] Top shape: 32 16 28 28 (401408)
I1105 17:30:10.427340 24559 net.cpp:165] Memory required for data: 716112384
I1105 17:30:10.427345 24559 layer_factory.hpp:76] Creating layer inception_3a/5x5
I1105 17:30:10.427355 24559 net.cpp:106] Creating Layer inception_3a/5x5
I1105 17:30:10.427358 24559 net.cpp:454] inception_3a/5x5 <- inception_3a/5x5_reduce
I1105 17:30:10.427366 24559 net.cpp:411] inception_3a/5x5 -> inception_3a/5x5
I1105 17:30:10.428411 24559 cudnn_conv_layer.cpp:194] Reallocating workspace storage: 20664
I1105 17:30:10.428432 24559 net.cpp:150] Setting up inception_3a/5x5
I1105 17:30:10.428441 24559 net.cpp:157] Top shape: 32 32 28 28 (802816)
I1105 17:30:10.428444 24559 net.cpp:165] Memory required for data: 719323648
I1105 17:30:10.428452 24559 layer_factory.hpp:76] Creating layer inception_3a/prelu_5x5
I1105 17:30:10.428459 24559 net.cpp:106] Creating Layer inception_3a/prelu_5x5
I1105 17:30:10.428464 24559 net.cpp:454] inception_3a/prelu_5x5 <- inception_3a/5x5
I1105 17:30:10.428470 24559 net.cpp:397] inception_3a/prelu_5x5 -> inception_3a/5x5 (in-place)
I1105 17:30:10.428578 24559 net.cpp:150] Setting up inception_3a/prelu_5x5
I1105 17:30:10.428588 24559 net.cpp:157] Top shape: 32 32 28 28 (802816)
I1105 17:30:10.428592 24559 net.cpp:165] Memory required for data: 722534912
I1105 17:30:10.428598 24559 layer_factory.hpp:76] Creating layer inception_3a/pool
I1105 17:30:10.428606 24559 net.cpp:106] Creating Layer inception_3a/pool
I1105 17:30:10.428611 24559 net.cpp:454] inception_3a/pool <- pool2/3x3_s2_pool2/3x3_s2_0_split_3
I1105 17:30:10.428617 24559 net.cpp:411] inception_3a/pool -> inception_3a/pool
I1105 17:30:10.428791 24559 net.cpp:150] Setting up inception_3a/pool
I1105 17:30:10.428802 24559 net.cpp:157] Top shape: 32 192 28 28 (4816896)
I1105 17:30:10.428805 24559 net.cpp:165] Memory required for data: 741802496
I1105 17:30:10.428810 24559 layer_factory.hpp:76] Creating layer inception_3a/pool_proj
I1105 17:30:10.428819 24559 net.cpp:106] Creating Layer inception_3a/pool_proj
I1105 17:30:10.428824 24559 net.cpp:454] inception_3a/pool_proj <- inception_3a/pool
I1105 17:30:10.428831 24559 net.cpp:411] inception_3a/pool_proj -> inception_3a/pool_proj
I1105 17:30:10.429811 24559 cudnn_conv_layer.cpp:194] Reallocating workspace storage: 20664
I1105 17:30:10.429831 24559 net.cpp:150] Setting up inception_3a/pool_proj
I1105 17:30:10.429837 24559 net.cpp:157] Top shape: 32 32 28 28 (802816)
I1105 17:30:10.429842 24559 net.cpp:165] Memory required for data: 745013760
I1105 17:30:10.429849 24559 layer_factory.hpp:76] Creating layer inception_3a/prelu_pool_proj
I1105 17:30:10.429857 24559 net.cpp:106] Creating Layer inception_3a/prelu_pool_proj
I1105 17:30:10.429862 24559 net.cpp:454] inception_3a/prelu_pool_proj <- inception_3a/pool_proj
I1105 17:30:10.429867 24559 net.cpp:397] inception_3a/prelu_pool_proj -> inception_3a/pool_proj (in-place)
I1105 17:30:10.429962 24559 net.cpp:150] Setting up inception_3a/prelu_pool_proj
I1105 17:30:10.429971 24559 net.cpp:157] Top shape: 32 32 28 28 (802816)
I1105 17:30:10.429975 24559 net.cpp:165] Memory required for data: 748225024
I1105 17:30:10.429981 24559 layer_factory.hpp:76] Creating layer inception_3a/output
I1105 17:30:10.429993 24559 net.cpp:106] Creating Layer inception_3a/output
I1105 17:30:10.429998 24559 net.cpp:454] inception_3a/output <- inception_3a/1x1
I1105 17:30:10.430003 24559 net.cpp:454] inception_3a/output <- inception_3a/3x3
I1105 17:30:10.430008 24559 net.cpp:454] inception_3a/output <- inception_3a/5x5
I1105 17:30:10.430012 24559 net.cpp:454] inception_3a/output <- inception_3a/pool_proj
I1105 17:30:10.430018 24559 net.cpp:411] inception_3a/output -> inception_3a/output
I1105 17:30:10.430043 24559 net.cpp:150] Setting up inception_3a/output
I1105 17:30:10.430052 24559 net.cpp:157] Top shape: 32 256 28 28 (6422528)
I1105 17:30:10.430057 24559 net.cpp:165] Memory required for data: 773915136
I1105 17:30:10.430060 24559 layer_factory.hpp:76] Creating layer inception_3a/output_inception_3a/output_0_split
I1105 17:30:10.430066 24559 net.cpp:106] Creating Layer inception_3a/output_inception_3a/output_0_split
I1105 17:30:10.430070 24559 net.cpp:454] inception_3a/output_inception_3a/output_0_split <- inception_3a/output
I1105 17:30:10.430076 24559 net.cpp:411] inception_3a/output_inception_3a/output_0_split -> inception_3a/output_inception_3a/output_0_split_0
I1105 17:30:10.430083 24559 net.cpp:411] inception_3a/output_inception_3a/output_0_split -> inception_3a/output_inception_3a/output_0_split_1
I1105 17:30:10.430089 24559 net.cpp:411] inception_3a/output_inception_3a/output_0_split -> inception_3a/output_inception_3a/output_0_split_2
I1105 17:30:10.430096 24559 net.cpp:411] inception_3a/output_inception_3a/output_0_split -> inception_3a/output_inception_3a/output_0_split_3
I1105 17:30:10.430142 24559 net.cpp:150] Setting up inception_3a/output_inception_3a/output_0_split
I1105 17:30:10.430150 24559 net.cpp:157] Top shape: 32 256 28 28 (6422528)
I1105 17:30:10.430155 24559 net.cpp:157] Top shape: 32 256 28 28 (6422528)
I1105 17:30:10.430160 24559 net.cpp:157] Top shape: 32 256 28 28 (6422528)
I1105 17:30:10.430174 24559 net.cpp:157] Top shape: 32 256 28 28 (6422528)
I1105 17:30:10.430178 24559 net.cpp:165] Memory required for data: 876675584
I1105 17:30:10.430182 24559 layer_factory.hpp:76] Creating layer inception_3b/1x1
I1105 17:30:10.430191 24559 net.cpp:106] Creating Layer inception_3b/1x1
I1105 17:30:10.430196 24559 net.cpp:454] inception_3b/1x1 <- inception_3a/output_inception_3a/output_0_split_0
I1105 17:30:10.430202 24559 net.cpp:411] inception_3b/1x1 -> inception_3b/1x1
I1105 17:30:10.431327 24559 cudnn_conv_layer.cpp:194] Reallocating workspace storage: 20664
I1105 17:30:10.431345 24559 net.cpp:150] Setting up inception_3b/1x1
I1105 17:30:10.431352 24559 net.cpp:157] Top shape: 32 128 28 28 (3211264)
I1105 17:30:10.431356 24559 net.cpp:165] Memory required for data: 889520640
I1105 17:30:10.431363 24559 layer_factory.hpp:76] Creating layer inception_3b/prelu_1x1
I1105 17:30:10.431370 24559 net.cpp:106] Creating Layer inception_3b/prelu_1x1
I1105 17:30:10.431376 24559 net.cpp:454] inception_3b/prelu_1x1 <- inception_3b/1x1
I1105 17:30:10.431382 24559 net.cpp:397] inception_3b/prelu_1x1 -> inception_3b/1x1 (in-place)
I1105 17:30:10.431958 24559 net.cpp:150] Setting up inception_3b/prelu_1x1
I1105 17:30:10.431970 24559 net.cpp:157] Top shape: 32 128 28 28 (3211264)
I1105 17:30:10.431974 24559 net.cpp:165] Memory required for data: 902365696
I1105 17:30:10.431980 24559 layer_factory.hpp:76] Creating layer inception_3b/3x3_reduce
I1105 17:30:10.431989 24559 net.cpp:106] Creating Layer inception_3b/3x3_reduce
I1105 17:30:10.431993 24559 net.cpp:454] inception_3b/3x3_reduce <- inception_3a/output_inception_3a/output_0_split_1
I1105 17:30:10.432000 24559 net.cpp:411] inception_3b/3x3_reduce -> inception_3b/3x3_reduce
I1105 17:30:10.433115 24559 cudnn_conv_layer.cpp:194] Reallocating workspace storage: 20664
I1105 17:30:10.433133 24559 net.cpp:150] Setting up inception_3b/3x3_reduce
I1105 17:30:10.433140 24559 net.cpp:157] Top shape: 32 128 28 28 (3211264)
I1105 17:30:10.433145 24559 net.cpp:165] Memory required for data: 915210752
I1105 17:30:10.433152 24559 layer_factory.hpp:76] Creating layer inception_3b/prelu_3x3_reduce
I1105 17:30:10.433161 24559 net.cpp:106] Creating Layer inception_3b/prelu_3x3_reduce
I1105 17:30:10.433166 24559 net.cpp:454] inception_3b/prelu_3x3_reduce <- inception_3b/3x3_reduce
I1105 17:30:10.433171 24559 net.cpp:397] inception_3b/prelu_3x3_reduce -> inception_3b/3x3_reduce (in-place)
I1105 17:30:10.433287 24559 net.cpp:150] Setting up inception_3b/prelu_3x3_reduce
I1105 17:30:10.433297 24559 net.cpp:157] Top shape: 32 128 28 28 (3211264)
I1105 17:30:10.433301 24559 net.cpp:165] Memory required for data: 928055808
I1105 17:30:10.433311 24559 layer_factory.hpp:76] Creating layer inception_3b/3x3
I1105 17:30:10.433322 24559 net.cpp:106] Creating Layer inception_3b/3x3
I1105 17:30:10.433327 24559 net.cpp:454] inception_3b/3x3 <- inception_3b/3x3_reduce
I1105 17:30:10.433333 24559 net.cpp:411] inception_3b/3x3 -> inception_3b/3x3
I1105 17:30:10.435928 24559 cudnn_conv_layer.cpp:194] Reallocating workspace storage: 20664
I1105 17:30:10.435956 24559 net.cpp:150] Setting up inception_3b/3x3
I1105 17:30:10.435963 24559 net.cpp:157] Top shape: 32 192 28 28 (4816896)
I1105 17:30:10.435976 24559 net.cpp:165] Memory required for data: 947323392
I1105 17:30:10.435983 24559 layer_factory.hpp:76] Creating layer inception_3b/prelu_3x3
I1105 17:30:10.435992 24559 net.cpp:106] Creating Layer inception_3b/prelu_3x3
I1105 17:30:10.435997 24559 net.cpp:454] inception_3b/prelu_3x3 <- inception_3b/3x3
I1105 17:30:10.436002 24559 net.cpp:397] inception_3b/prelu_3x3 -> inception_3b/3x3 (in-place)
I1105 17:30:10.436614 24559 net.cpp:150] Setting up inception_3b/prelu_3x3
I1105 17:30:10.436625 24559 net.cpp:157] Top shape: 32 192 28 28 (4816896)
I1105 17:30:10.436630 24559 net.cpp:165] Memory required for data: 966590976
I1105 17:30:10.436635 24559 layer_factory.hpp:76] Creating layer inception_3b/5x5_reduce
I1105 17:30:10.436645 24559 net.cpp:106] Creating Layer inception_3b/5x5_reduce
I1105 17:30:10.436651 24559 net.cpp:454] inception_3b/5x5_reduce <- inception_3a/output_inception_3a/output_0_split_2
I1105 17:30:10.436679 24559 net.cpp:411] inception_3b/5x5_reduce -> inception_3b/5x5_reduce
I1105 17:30:10.437568 24559 cudnn_conv_layer.cpp:194] Reallocating workspace storage: 20664
I1105 17:30:10.437589 24559 net.cpp:150] Setting up inception_3b/5x5_reduce
I1105 17:30:10.437597 24559 net.cpp:157] Top shape: 32 32 28 28 (802816)
I1105 17:30:10.437608 24559 net.cpp:165] Memory required for data: 969802240
I1105 17:30:10.437615 24559 layer_factory.hpp:76] Creating layer inception_3b/prelu_5x5_reduce
I1105 17:30:10.437625 24559 net.cpp:106] Creating Layer inception_3b/prelu_5x5_reduce
I1105 17:30:10.437629 24559 net.cpp:454] inception_3b/prelu_5x5_reduce <- inception_3b/5x5_reduce
I1105 17:30:10.437636 24559 net.cpp:397] inception_3b/prelu_5x5_reduce -> inception_3b/5x5_reduce (in-place)
I1105 17:30:10.437754 24559 net.cpp:150] Setting up inception_3b/prelu_5x5_reduce
I1105 17:30:10.437763 24559 net.cpp:157] Top shape: 32 32 28 28 (802816)
I1105 17:30:10.437767 24559 net.cpp:165] Memory required for data: 973013504
I1105 17:30:10.437773 24559 layer_factory.hpp:76] Creating layer inception_3b/5x5
I1105 17:30:10.437790 24559 net.cpp:106] Creating Layer inception_3b/5x5
I1105 17:30:10.437795 24559 net.cpp:454] inception_3b/5x5 <- inception_3b/5x5_reduce
I1105 17:30:10.437801 24559 net.cpp:411] inception_3b/5x5 -> inception_3b/5x5
I1105 17:30:10.439235 24559 cudnn_conv_layer.cpp:194] Reallocating workspace storage: 20664
I1105 17:30:10.439256 24559 net.cpp:150] Setting up inception_3b/5x5
I1105 17:30:10.439265 24559 net.cpp:157] Top shape: 32 96 28 28 (2408448)
I1105 17:30:10.439268 24559 net.cpp:165] Memory required for data: 982647296
I1105 17:30:10.439275 24559 layer_factory.hpp:76] Creating layer inception_3b/prelu_5x5
I1105 17:30:10.439283 24559 net.cpp:106] Creating Layer inception_3b/prelu_5x5
I1105 17:30:10.439288 24559 net.cpp:454] inception_3b/prelu_5x5 <- inception_3b/5x5
I1105 17:30:10.439296 24559 net.cpp:397] inception_3b/prelu_5x5 -> inception_3b/5x5 (in-place)
I1105 17:30:10.439440 24559 net.cpp:150] Setting up inception_3b/prelu_5x5
I1105 17:30:10.439451 24559 net.cpp:157] Top shape: 32 96 28 28 (2408448)
I1105 17:30:10.439455 24559 net.cpp:165] Memory required for data: 992281088
I1105 17:30:10.439460 24559 layer_factory.hpp:76] Creating layer inception_3b/pool
I1105 17:30:10.439481 24559 net.cpp:106] Creating Layer inception_3b/pool
I1105 17:30:10.439486 24559 net.cpp:454] inception_3b/pool <- inception_3a/output_inception_3a/output_0_split_3
I1105 17:30:10.439493 24559 net.cpp:411] inception_3b/pool -> inception_3b/pool
I1105 17:30:10.439892 24559 net.cpp:150] Setting up inception_3b/pool
I1105 17:30:10.439904 24559 net.cpp:157] Top shape: 32 256 28 28 (6422528)
I1105 17:30:10.439909 24559 net.cpp:165] Memory required for data: 1017971200
I1105 17:30:10.439913 24559 layer_factory.hpp:76] Creating layer inception_3b/pool_proj
I1105 17:30:10.439924 24559 net.cpp:106] Creating Layer inception_3b/pool_proj
I1105 17:30:10.439929 24559 net.cpp:454] inception_3b/pool_proj <- inception_3b/pool
I1105 17:30:10.439936 24559 net.cpp:411] inception_3b/pool_proj -> inception_3b/pool_proj
I1105 17:30:10.441026 24559 cudnn_conv_layer.cpp:194] Reallocating workspace storage: 20664
I1105 17:30:10.441045 24559 net.cpp:150] Setting up inception_3b/pool_proj
I1105 17:30:10.441052 24559 net.cpp:157] Top shape: 32 64 28 28 (1605632)
I1105 17:30:10.441056 24559 net.cpp:165] Memory required for data: 1024393728
I1105 17:30:10.441063 24559 layer_factory.hpp:76] Creating layer inception_3b/prelu_pool_proj
I1105 17:30:10.441089 24559 net.cpp:106] Creating Layer inception_3b/prelu_pool_proj
I1105 17:30:10.441097 24559 net.cpp:454] inception_3b/prelu_pool_proj <- inception_3b/pool_proj
I1105 17:30:10.441102 24559 net.cpp:397] inception_3b/prelu_pool_proj -> inception_3b/pool_proj (in-place)
I1105 17:30:10.441258 24559 net.cpp:150] Setting up inception_3b/prelu_pool_proj
I1105 17:30:10.441268 24559 net.cpp:157] Top shape: 32 64 28 28 (1605632)
I1105 17:30:10.441287 24559 net.cpp:165] Memory required for data: 1030816256
I1105 17:30:10.441293 24559 layer_factory.hpp:76] Creating layer inception_3b/output
I1105 17:30:10.441303 24559 net.cpp:106] Creating Layer inception_3b/output
I1105 17:30:10.441306 24559 net.cpp:454] inception_3b/output <- inception_3b/1x1
I1105 17:30:10.441313 24559 net.cpp:454] inception_3b/output <- inception_3b/3x3
I1105 17:30:10.441316 24559 net.cpp:454] inception_3b/output <- inception_3b/5x5
I1105 17:30:10.441321 24559 net.cpp:454] inception_3b/output <- inception_3b/pool_proj
I1105 17:30:10.441326 24559 net.cpp:411] inception_3b/output -> inception_3b/output
I1105 17:30:10.441352 24559 net.cpp:150] Setting up inception_3b/output
I1105 17:30:10.441359 24559 net.cpp:157] Top shape: 32 480 28 28 (12042240)
I1105 17:30:10.441364 24559 net.cpp:165] Memory required for data: 1078985216
I1105 17:30:10.441367 24559 layer_factory.hpp:76] Creating layer pool3/3x3_s2
I1105 17:30:10.441373 24559 net.cpp:106] Creating Layer pool3/3x3_s2
I1105 17:30:10.441378 24559 net.cpp:454] pool3/3x3_s2 <- inception_3b/output
I1105 17:30:10.441385 24559 net.cpp:411] pool3/3x3_s2 -> pool3/3x3_s2
I1105 17:30:10.441779 24559 net.cpp:150] Setting up pool3/3x3_s2
I1105 17:30:10.441792 24559 net.cpp:157] Top shape: 32 480 14 14 (3010560)
I1105 17:30:10.441797 24559 net.cpp:165] Memory required for data: 1091027456
I1105 17:30:10.441802 24559 layer_factory.hpp:76] Creating layer pool3/3x3_s2_pool3/3x3_s2_0_split
I1105 17:30:10.441810 24559 net.cpp:106] Creating Layer pool3/3x3_s2_pool3/3x3_s2_0_split
I1105 17:30:10.441815 24559 net.cpp:454] pool3/3x3_s2_pool3/3x3_s2_0_split <- pool3/3x3_s2
I1105 17:30:10.441822 24559 net.cpp:411] pool3/3x3_s2_pool3/3x3_s2_0_split -> pool3/3x3_s2_pool3/3x3_s2_0_split_0
I1105 17:30:10.441828 24559 net.cpp:411] pool3/3x3_s2_pool3/3x3_s2_0_split -> pool3/3x3_s2_pool3/3x3_s2_0_split_1
I1105 17:30:10.441846 24559 net.cpp:411] pool3/3x3_s2_pool3/3x3_s2_0_split -> pool3/3x3_s2_pool3/3x3_s2_0_split_2
I1105 17:30:10.441853 24559 net.cpp:411] pool3/3x3_s2_pool3/3x3_s2_0_split -> pool3/3x3_s2_pool3/3x3_s2_0_split_3
I1105 17:30:10.441920 24559 net.cpp:150] Setting up pool3/3x3_s2_pool3/3x3_s2_0_split
I1105 17:30:10.441928 24559 net.cpp:157] Top shape: 32 480 14 14 (3010560)
I1105 17:30:10.441933 24559 net.cpp:157] Top shape: 32 480 14 14 (3010560)
I1105 17:30:10.441938 24559 net.cpp:157] Top shape: 32 480 14 14 (3010560)
I1105 17:30:10.441943 24559 net.cpp:157] Top shape: 32 480 14 14 (3010560)
I1105 17:30:10.441946 24559 net.cpp:165] Memory required for data: 1139196416
I1105 17:30:10.441951 24559 layer_factory.hpp:76] Creating layer inception_4a/1x1
I1105 17:30:10.441962 24559 net.cpp:106] Creating Layer inception_4a/1x1
I1105 17:30:10.441977 24559 net.cpp:454] inception_4a/1x1 <- pool3/3x3_s2_pool3/3x3_s2_0_split_0
I1105 17:30:10.441985 24559 net.cpp:411] inception_4a/1x1 -> inception_4a/1x1
I1105 17:30:10.444198 24559 cudnn_conv_layer.cpp:194] Reallocating workspace storage: 10080
I1105 17:30:10.444414 24559 net.cpp:150] Setting up inception_4a/1x1
I1105 17:30:10.444427 24559 net.cpp:157] Top shape: 32 192 14 14 (1204224)
I1105 17:30:10.444430 24559 net.cpp:165] Memory required for data: 1144013312
I1105 17:30:10.444440 24559 layer_factory.hpp:76] Creating layer inception_4a/prelu_1x1
I1105 17:30:10.444449 24559 net.cpp:106] Creating Layer inception_4a/prelu_1x1
I1105 17:30:10.444454 24559 net.cpp:454] inception_4a/prelu_1x1 <- inception_4a/1x1
I1105 17:30:10.444463 24559 net.cpp:397] inception_4a/prelu_1x1 -> inception_4a/1x1 (in-place)
I1105 17:30:10.445058 24559 net.cpp:150] Setting up inception_4a/prelu_1x1
I1105 17:30:10.445081 24559 net.cpp:157] Top shape: 32 192 14 14 (1204224)
I1105 17:30:10.445086 24559 net.cpp:165] Memory required for data: 1148830208
I1105 17:30:10.445093 24559 layer_factory.hpp:76] Creating layer inception_4a/3x3_reduce
I1105 17:30:10.445103 24559 net.cpp:106] Creating Layer inception_4a/3x3_reduce
I1105 17:30:10.445107 24559 net.cpp:454] inception_4a/3x3_reduce <- pool3/3x3_s2_pool3/3x3_s2_0_split_1
I1105 17:30:10.445116 24559 net.cpp:411] inception_4a/3x3_reduce -> inception_4a/3x3_reduce
I1105 17:30:10.446452 24559 cudnn_conv_layer.cpp:194] Reallocating workspace storage: 10080
I1105 17:30:10.446482 24559 net.cpp:150] Setting up inception_4a/3x3_reduce
I1105 17:30:10.446491 24559 net.cpp:157] Top shape: 32 96 14 14 (602112)
I1105 17:30:10.446506 24559 net.cpp:165] Memory required for data: 1151238656
I1105 17:30:10.446512 24559 layer_factory.hpp:76] Creating layer inception_4a/prelu_3x3_reduce
I1105 17:30:10.446521 24559 net.cpp:106] Creating Layer inception_4a/prelu_3x3_reduce
I1105 17:30:10.446527 24559 net.cpp:454] inception_4a/prelu_3x3_reduce <- inception_4a/3x3_reduce
I1105 17:30:10.446533 24559 net.cpp:397] inception_4a/prelu_3x3_reduce -> inception_4a/3x3_reduce (in-place)
I1105 17:30:10.446650 24559 net.cpp:150] Setting up inception_4a/prelu_3x3_reduce
I1105 17:30:10.446660 24559 net.cpp:157] Top shape: 32 96 14 14 (602112)
I1105 17:30:10.446663 24559 net.cpp:165] Memory required for data: 1153647104
I1105 17:30:10.446668 24559 layer_factory.hpp:76] Creating layer inception_4a/3x3
I1105 17:30:10.446678 24559 net.cpp:106] Creating Layer inception_4a/3x3
I1105 17:30:10.446683 24559 net.cpp:454] inception_4a/3x3 <- inception_4a/3x3_reduce
I1105 17:30:10.446691 24559 net.cpp:411] inception_4a/3x3 -> inception_4a/3x3
I1105 17:30:10.448964 24559 cudnn_conv_layer.cpp:194] Reallocating workspace storage: 10080
I1105 17:30:10.448989 24559 net.cpp:150] Setting up inception_4a/3x3
I1105 17:30:10.448998 24559 net.cpp:157] Top shape: 32 208 14 14 (1304576)
I1105 17:30:10.449002 24559 net.cpp:165] Memory required for data: 1158865408
I1105 17:30:10.449010 24559 layer_factory.hpp:76] Creating layer inception_4a/prelu_3x3
I1105 17:30:10.449018 24559 net.cpp:106] Creating Layer inception_4a/prelu_3x3
I1105 17:30:10.449023 24559 net.cpp:454] inception_4a/prelu_3x3 <- inception_4a/3x3
I1105 17:30:10.449028 24559 net.cpp:397] inception_4a/prelu_3x3 -> inception_4a/3x3 (in-place)
I1105 17:30:10.449144 24559 net.cpp:150] Setting up inception_4a/prelu_3x3
I1105 17:30:10.449154 24559 net.cpp:157] Top shape: 32 208 14 14 (1304576)
I1105 17:30:10.449158 24559 net.cpp:165] Memory required for data: 1164083712
I1105 17:30:10.449164 24559 layer_factory.hpp:76] Creating layer inception_4a/5x5_reduce
I1105 17:30:10.449174 24559 net.cpp:106] Creating Layer inception_4a/5x5_reduce
I1105 17:30:10.449179 24559 net.cpp:454] inception_4a/5x5_reduce <- pool3/3x3_s2_pool3/3x3_s2_0_split_2
I1105 17:30:10.449187 24559 net.cpp:411] inception_4a/5x5_reduce -> inception_4a/5x5_reduce
I1105 17:30:10.450217 24559 cudnn_conv_layer.cpp:194] Reallocating workspace storage: 10080
I1105 17:30:10.450237 24559 net.cpp:150] Setting up inception_4a/5x5_reduce
I1105 17:30:10.450244 24559 net.cpp:157] Top shape: 32 16 14 14 (100352)
I1105 17:30:10.450248 24559 net.cpp:165] Memory required for data: 1164485120
I1105 17:30:10.450255 24559 layer_factory.hpp:76] Creating layer inception_4a/prelu_5x5_reduce
I1105 17:30:10.450263 24559 net.cpp:106] Creating Layer inception_4a/prelu_5x5_reduce
I1105 17:30:10.450276 24559 net.cpp:454] inception_4a/prelu_5x5_reduce <- inception_4a/5x5_reduce
I1105 17:30:10.450284 24559 net.cpp:397] inception_4a/prelu_5x5_reduce -> inception_4a/5x5_reduce (in-place)
I1105 17:30:10.450390 24559 net.cpp:150] Setting up inception_4a/prelu_5x5_reduce
I1105 17:30:10.450399 24559 net.cpp:157] Top shape: 32 16 14 14 (100352)
I1105 17:30:10.450403 24559 net.cpp:165] Memory required for data: 1164886528
I1105 17:30:10.450408 24559 layer_factory.hpp:76] Creating layer inception_4a/5x5
I1105 17:30:10.450417 24559 net.cpp:106] Creating Layer inception_4a/5x5
I1105 17:30:10.450422 24559 net.cpp:454] inception_4a/5x5 <- inception_4a/5x5_reduce
I1105 17:30:10.450438 24559 net.cpp:411] inception_4a/5x5 -> inception_4a/5x5
I1105 17:30:10.451549 24559 cudnn_conv_layer.cpp:194] Reallocating workspace storage: 13080
I1105 17:30:10.451571 24559 net.cpp:150] Setting up inception_4a/5x5
I1105 17:30:10.451578 24559 net.cpp:157] Top shape: 32 48 14 14 (301056)
I1105 17:30:10.451583 24559 net.cpp:165] Memory required for data: 1166090752
I1105 17:30:10.451602 24559 layer_factory.hpp:76] Creating layer inception_4a/prelu_5x5
I1105 17:30:10.451612 24559 net.cpp:106] Creating Layer inception_4a/prelu_5x5
I1105 17:30:10.451622 24559 net.cpp:454] inception_4a/prelu_5x5 <- inception_4a/5x5
I1105 17:30:10.451628 24559 net.cpp:397] inception_4a/prelu_5x5 -> inception_4a/5x5 (in-place)
I1105 17:30:10.451717 24559 net.cpp:150] Setting up inception_4a/prelu_5x5
I1105 17:30:10.451726 24559 net.cpp:157] Top shape: 32 48 14 14 (301056)
I1105 17:30:10.451730 24559 net.cpp:165] Memory required for data: 1167294976
I1105 17:30:10.451735 24559 layer_factory.hpp:76] Creating layer inception_4a/pool
I1105 17:30:10.451745 24559 net.cpp:106] Creating Layer inception_4a/pool
I1105 17:30:10.451750 24559 net.cpp:454] inception_4a/pool <- pool3/3x3_s2_pool3/3x3_s2_0_split_3
I1105 17:30:10.451755 24559 net.cpp:411] inception_4a/pool -> inception_4a/pool
I1105 17:30:10.452112 24559 net.cpp:150] Setting up inception_4a/pool
I1105 17:30:10.452123 24559 net.cpp:157] Top shape: 32 480 14 14 (3010560)
I1105 17:30:10.452129 24559 net.cpp:165] Memory required for data: 1179337216
I1105 17:30:10.452133 24559 layer_factory.hpp:76] Creating layer inception_4a/pool_proj
I1105 17:30:10.452142 24559 net.cpp:106] Creating Layer inception_4a/pool_proj
I1105 17:30:10.452147 24559 net.cpp:454] inception_4a/pool_proj <- inception_4a/pool
I1105 17:30:10.452154 24559 net.cpp:411] inception_4a/pool_proj -> inception_4a/pool_proj
I1105 17:30:10.453138 24559 cudnn_conv_layer.cpp:194] Reallocating workspace storage: 10080
I1105 17:30:10.453166 24559 net.cpp:150] Setting up inception_4a/pool_proj
I1105 17:30:10.453173 24559 net.cpp:157] Top shape: 32 64 14 14 (401408)
I1105 17:30:10.453177 24559 net.cpp:165] Memory required for data: 1180942848
I1105 17:30:10.453184 24559 layer_factory.hpp:76] Creating layer inception_4a/prelu_pool_proj
I1105 17:30:10.453191 24559 net.cpp:106] Creating Layer inception_4a/prelu_pool_proj
I1105 17:30:10.453197 24559 net.cpp:454] inception_4a/prelu_pool_proj <- inception_4a/pool_proj
I1105 17:30:10.453203 24559 net.cpp:397] inception_4a/prelu_pool_proj -> inception_4a/pool_proj (in-place)
I1105 17:30:10.453297 24559 net.cpp:150] Setting up inception_4a/prelu_pool_proj
I1105 17:30:10.453306 24559 net.cpp:157] Top shape: 32 64 14 14 (401408)
I1105 17:30:10.453310 24559 net.cpp:165] Memory required for data: 1182548480
I1105 17:30:10.453316 24559 layer_factory.hpp:76] Creating layer inception_4a/output
I1105 17:30:10.453322 24559 net.cpp:106] Creating Layer inception_4a/output
I1105 17:30:10.453327 24559 net.cpp:454] inception_4a/output <- inception_4a/1x1
I1105 17:30:10.453332 24559 net.cpp:454] inception_4a/output <- inception_4a/3x3
I1105 17:30:10.453337 24559 net.cpp:454] inception_4a/output <- inception_4a/5x5
I1105 17:30:10.453341 24559 net.cpp:454] inception_4a/output <- inception_4a/pool_proj
I1105 17:30:10.453347 24559 net.cpp:411] inception_4a/output -> inception_4a/output
I1105 17:30:10.453372 24559 net.cpp:150] Setting up inception_4a/output
I1105 17:30:10.453382 24559 net.cpp:157] Top shape: 32 512 14 14 (3211264)
I1105 17:30:10.453385 24559 net.cpp:165] Memory required for data: 1195393536
I1105 17:30:10.453389 24559 layer_factory.hpp:76] Creating layer inception_4a/output_inception_4a/output_0_split
I1105 17:30:10.453397 24559 net.cpp:106] Creating Layer inception_4a/output_inception_4a/output_0_split
I1105 17:30:10.453400 24559 net.cpp:454] inception_4a/output_inception_4a/output_0_split <- inception_4a/output
I1105 17:30:10.453405 24559 net.cpp:411] inception_4a/output_inception_4a/output_0_split -> inception_4a/output_inception_4a/output_0_split_0
I1105 17:30:10.453413 24559 net.cpp:411] inception_4a/output_inception_4a/output_0_split -> inception_4a/output_inception_4a/output_0_split_1
I1105 17:30:10.453421 24559 net.cpp:411] inception_4a/output_inception_4a/output_0_split -> inception_4a/output_inception_4a/output_0_split_2
I1105 17:30:10.453429 24559 net.cpp:411] inception_4a/output_inception_4a/output_0_split -> inception_4a/output_inception_4a/output_0_split_3
I1105 17:30:10.453446 24559 net.cpp:411] inception_4a/output_inception_4a/output_0_split -> inception_4a/output_inception_4a/output_0_split_4
I1105 17:30:10.453512 24559 net.cpp:150] Setting up inception_4a/output_inception_4a/output_0_split
I1105 17:30:10.453521 24559 net.cpp:157] Top shape: 32 512 14 14 (3211264)
I1105 17:30:10.453526 24559 net.cpp:157] Top shape: 32 512 14 14 (3211264)
I1105 17:30:10.453531 24559 net.cpp:157] Top shape: 32 512 14 14 (3211264)
I1105 17:30:10.453536 24559 net.cpp:157] Top shape: 32 512 14 14 (3211264)
I1105 17:30:10.453541 24559 net.cpp:157] Top shape: 32 512 14 14 (3211264)
I1105 17:30:10.453544 24559 net.cpp:165] Memory required for data: 1259618816
I1105 17:30:10.453548 24559 layer_factory.hpp:76] Creating layer loss1/ave_pool
I1105 17:30:10.453554 24559 net.cpp:106] Creating Layer loss1/ave_pool
I1105 17:30:10.453558 24559 net.cpp:454] loss1/ave_pool <- inception_4a/output_inception_4a/output_0_split_0
I1105 17:30:10.453564 24559 net.cpp:411] loss1/ave_pool -> loss1/ave_pool
I1105 17:30:10.453909 24559 net.cpp:150] Setting up loss1/ave_pool
I1105 17:30:10.453928 24559 net.cpp:157] Top shape: 32 512 4 4 (262144)
I1105 17:30:10.453933 24559 net.cpp:165] Memory required for data: 1260667392
I1105 17:30:10.453938 24559 layer_factory.hpp:76] Creating layer loss1/conv
I1105 17:30:10.453948 24559 net.cpp:106] Creating Layer loss1/conv
I1105 17:30:10.453953 24559 net.cpp:454] loss1/conv <- loss1/ave_pool
I1105 17:30:10.453968 24559 net.cpp:411] loss1/conv -> loss1/conv
I1105 17:30:10.455338 24559 cudnn_conv_layer.cpp:194] Reallocating workspace storage: 6840
I1105 17:30:10.455361 24559 net.cpp:150] Setting up loss1/conv
I1105 17:30:10.455368 24559 net.cpp:157] Top shape: 32 128 4 4 (65536)
I1105 17:30:10.455374 24559 net.cpp:165] Memory required for data: 1260929536
I1105 17:30:10.455390 24559 layer_factory.hpp:76] Creating layer loss1/prelu_conv
I1105 17:30:10.455400 24559 net.cpp:106] Creating Layer loss1/prelu_conv
I1105 17:30:10.455405 24559 net.cpp:454] loss1/prelu_conv <- loss1/conv
I1105 17:30:10.455411 24559 net.cpp:397] loss1/prelu_conv -> loss1/conv (in-place)
I1105 17:30:10.455494 24559 net.cpp:150] Setting up loss1/prelu_conv
I1105 17:30:10.455504 24559 net.cpp:157] Top shape: 32 128 4 4 (65536)
I1105 17:30:10.455508 24559 net.cpp:165] Memory required for data: 1261191680
I1105 17:30:10.455513 24559 layer_factory.hpp:76] Creating layer loss1/fc
I1105 17:30:10.455526 24559 net.cpp:106] Creating Layer loss1/fc
I1105 17:30:10.455530 24559 net.cpp:454] loss1/fc <- loss1/conv
I1105 17:30:10.455538 24559 net.cpp:411] loss1/fc -> loss1/fc
I1105 17:30:10.469993 24559 net.cpp:150] Setting up loss1/fc
I1105 17:30:10.470041 24559 net.cpp:157] Top shape: 32 1024 (32768)
I1105 17:30:10.470046 24559 net.cpp:165] Memory required for data: 1261322752
I1105 17:30:10.470057 24559 layer_factory.hpp:76] Creating layer loss1/prelu_fc
I1105 17:30:10.470072 24559 net.cpp:106] Creating Layer loss1/prelu_fc
I1105 17:30:10.470079 24559 net.cpp:454] loss1/prelu_fc <- loss1/fc
I1105 17:30:10.470088 24559 net.cpp:397] loss1/prelu_fc -> loss1/fc (in-place)
I1105 17:30:10.470196 24559 net.cpp:150] Setting up loss1/prelu_fc
I1105 17:30:10.470204 24559 net.cpp:157] Top shape: 32 1024 (32768)
I1105 17:30:10.470208 24559 net.cpp:165] Memory required for data: 1261453824
I1105 17:30:10.470222 24559 layer_factory.hpp:76] Creating layer loss1/drop_fc
I1105 17:30:10.470242 24559 net.cpp:106] Creating Layer loss1/drop_fc
I1105 17:30:10.470257 24559 net.cpp:454] loss1/drop_fc <- loss1/fc
I1105 17:30:10.470263 24559 net.cpp:397] loss1/drop_fc -> loss1/fc (in-place)
I1105 17:30:10.470302 24559 net.cpp:150] Setting up loss1/drop_fc
I1105 17:30:10.470319 24559 net.cpp:157] Top shape: 32 1024 (32768)
I1105 17:30:10.470329 24559 net.cpp:165] Memory required for data: 1261584896
I1105 17:30:10.470335 24559 layer_factory.hpp:76] Creating layer loss1/classifier2
I1105 17:30:10.470345 24559 net.cpp:106] Creating Layer loss1/classifier2
I1105 17:30:10.470348 24559 net.cpp:454] loss1/classifier2 <- loss1/fc
I1105 17:30:10.470376 24559 net.cpp:411] loss1/classifier2 -> loss1/classifier
I1105 17:30:10.470516 24559 net.cpp:150] Setting up loss1/classifier2
I1105 17:30:10.470525 24559 net.cpp:157] Top shape: 32 2 (64)
I1105 17:30:10.470530 24559 net.cpp:165] Memory required for data: 1261585152
I1105 17:30:10.470536 24559 layer_factory.hpp:76] Creating layer loss1/loss
I1105 17:30:10.470545 24559 net.cpp:106] Creating Layer loss1/loss
I1105 17:30:10.470549 24559 net.cpp:454] loss1/loss <- loss1/classifier
I1105 17:30:10.470563 24559 net.cpp:454] loss1/loss <- label_data_1_split_0
I1105 17:30:10.470569 24559 net.cpp:411] loss1/loss -> loss1/loss1
I1105 17:30:10.470583 24559 layer_factory.hpp:76] Creating layer loss1/loss
I1105 17:30:10.470888 24559 net.cpp:150] Setting up loss1/loss
I1105 17:30:10.470898 24559 net.cpp:157] Top shape: (1)
I1105 17:30:10.470903 24559 net.cpp:160]     with loss weight 0.3
I1105 17:30:10.470939 24559 net.cpp:165] Memory required for data: 1261585156
I1105 17:30:10.470945 24559 layer_factory.hpp:76] Creating layer inception_4b/1x1
I1105 17:30:10.470957 24559 net.cpp:106] Creating Layer inception_4b/1x1
I1105 17:30:10.470963 24559 net.cpp:454] inception_4b/1x1 <- inception_4a/output_inception_4a/output_0_split_1
I1105 17:30:10.470969 24559 net.cpp:411] inception_4b/1x1 -> inception_4b/1x1
I1105 17:30:10.472671 24559 cudnn_conv_layer.cpp:194] Reallocating workspace storage: 10080
I1105 17:30:10.472703 24559 net.cpp:150] Setting up inception_4b/1x1
I1105 17:30:10.472712 24559 net.cpp:157] Top shape: 32 160 14 14 (1003520)
I1105 17:30:10.472715 24559 net.cpp:165] Memory required for data: 1265599236
I1105 17:30:10.472723 24559 layer_factory.hpp:76] Creating layer inception_4b/prelu_1x1
I1105 17:30:10.472733 24559 net.cpp:106] Creating Layer inception_4b/prelu_1x1
I1105 17:30:10.472738 24559 net.cpp:454] inception_4b/prelu_1x1 <- inception_4b/1x1
I1105 17:30:10.472744 24559 net.cpp:397] inception_4b/prelu_1x1 -> inception_4b/1x1 (in-place)
I1105 17:30:10.473342 24559 net.cpp:150] Setting up inception_4b/prelu_1x1
I1105 17:30:10.473356 24559 net.cpp:157] Top shape: 32 160 14 14 (1003520)
I1105 17:30:10.473361 24559 net.cpp:165] Memory required for data: 1269613316
I1105 17:30:10.473367 24559 layer_factory.hpp:76] Creating layer inception_4b/3x3_reduce
I1105 17:30:10.473378 24559 net.cpp:106] Creating Layer inception_4b/3x3_reduce
I1105 17:30:10.473382 24559 net.cpp:454] inception_4b/3x3_reduce <- inception_4a/output_inception_4a/output_0_split_2
I1105 17:30:10.473392 24559 net.cpp:411] inception_4b/3x3_reduce -> inception_4b/3x3_reduce
I1105 17:30:10.475505 24559 cudnn_conv_layer.cpp:194] Reallocating workspace storage: 10080
I1105 17:30:10.475591 24559 net.cpp:150] Setting up inception_4b/3x3_reduce
I1105 17:30:10.475603 24559 net.cpp:157] Top shape: 32 112 14 14 (702464)
I1105 17:30:10.475610 24559 net.cpp:165] Memory required for data: 1272423172
I1105 17:30:10.475620 24559 layer_factory.hpp:76] Creating layer inception_4b/prelu_3x3_reduce
I1105 17:30:10.475639 24559 net.cpp:106] Creating Layer inception_4b/prelu_3x3_reduce
I1105 17:30:10.475657 24559 net.cpp:454] inception_4b/prelu_3x3_reduce <- inception_4b/3x3_reduce
I1105 17:30:10.475666 24559 net.cpp:397] inception_4b/prelu_3x3_reduce -> inception_4b/3x3_reduce (in-place)
I1105 17:30:10.475811 24559 net.cpp:150] Setting up inception_4b/prelu_3x3_reduce
I1105 17:30:10.475821 24559 net.cpp:157] Top shape: 32 112 14 14 (702464)
I1105 17:30:10.475826 24559 net.cpp:165] Memory required for data: 1275233028
I1105 17:30:10.475842 24559 layer_factory.hpp:76] Creating layer inception_4b/3x3
I1105 17:30:10.475855 24559 net.cpp:106] Creating Layer inception_4b/3x3
I1105 17:30:10.475862 24559 net.cpp:454] inception_4b/3x3 <- inception_4b/3x3_reduce
I1105 17:30:10.475869 24559 net.cpp:411] inception_4b/3x3 -> inception_4b/3x3
I1105 17:30:10.478883 24559 cudnn_conv_layer.cpp:194] Reallocating workspace storage: 10080
I1105 17:30:10.478921 24559 net.cpp:150] Setting up inception_4b/3x3
I1105 17:30:10.478932 24559 net.cpp:157] Top shape: 32 224 14 14 (1404928)
I1105 17:30:10.478952 24559 net.cpp:165] Memory required for data: 1280852740
I1105 17:30:10.478962 24559 layer_factory.hpp:76] Creating layer inception_4b/prelu_3x3
I1105 17:30:10.478973 24559 net.cpp:106] Creating Layer inception_4b/prelu_3x3
I1105 17:30:10.478979 24559 net.cpp:454] inception_4b/prelu_3x3 <- inception_4b/3x3
I1105 17:30:10.478988 24559 net.cpp:397] inception_4b/prelu_3x3 -> inception_4b/3x3 (in-place)
I1105 17:30:10.479127 24559 net.cpp:150] Setting up inception_4b/prelu_3x3
I1105 17:30:10.479137 24559 net.cpp:157] Top shape: 32 224 14 14 (1404928)
I1105 17:30:10.479141 24559 net.cpp:165] Memory required for data: 1286472452
I1105 17:30:10.479146 24559 layer_factory.hpp:76] Creating layer inception_4b/5x5_reduce
I1105 17:30:10.479157 24559 net.cpp:106] Creating Layer inception_4b/5x5_reduce
I1105 17:30:10.479163 24559 net.cpp:454] inception_4b/5x5_reduce <- inception_4a/output_inception_4a/output_0_split_3
I1105 17:30:10.479172 24559 net.cpp:411] inception_4b/5x5_reduce -> inception_4b/5x5_reduce
I1105 17:30:10.480123 24559 cudnn_conv_layer.cpp:194] Reallocating workspace storage: 10080
I1105 17:30:10.480160 24559 net.cpp:150] Setting up inception_4b/5x5_reduce
I1105 17:30:10.480170 24559 net.cpp:157] Top shape: 32 24 14 14 (150528)
I1105 17:30:10.480173 24559 net.cpp:165] Memory required for data: 1287074564
I1105 17:30:10.480180 24559 layer_factory.hpp:76] Creating layer inception_4b/prelu_5x5_reduce
I1105 17:30:10.480190 24559 net.cpp:106] Creating Layer inception_4b/prelu_5x5_reduce
I1105 17:30:10.480207 24559 net.cpp:454] inception_4b/prelu_5x5_reduce <- inception_4b/5x5_reduce
I1105 17:30:10.480214 24559 net.cpp:397] inception_4b/prelu_5x5_reduce -> inception_4b/5x5_reduce (in-place)
I1105 17:30:10.480307 24559 net.cpp:150] Setting up inception_4b/prelu_5x5_reduce
I1105 17:30:10.480316 24559 net.cpp:157] Top shape: 32 24 14 14 (150528)
I1105 17:30:10.480320 24559 net.cpp:165] Memory required for data: 1287676676
I1105 17:30:10.480325 24559 layer_factory.hpp:76] Creating layer inception_4b/5x5
I1105 17:30:10.480335 24559 net.cpp:106] Creating Layer inception_4b/5x5
I1105 17:30:10.480340 24559 net.cpp:454] inception_4b/5x5 <- inception_4b/5x5_reduce
I1105 17:30:10.480348 24559 net.cpp:411] inception_4b/5x5 -> inception_4b/5x5
I1105 17:30:10.481613 24559 cudnn_conv_layer.cpp:194] Reallocating workspace storage: 13080
I1105 17:30:10.481639 24559 net.cpp:150] Setting up inception_4b/5x5
I1105 17:30:10.481657 24559 net.cpp:157] Top shape: 32 64 14 14 (401408)
I1105 17:30:10.481662 24559 net.cpp:165] Memory required for data: 1289282308
I1105 17:30:10.481670 24559 layer_factory.hpp:76] Creating layer inception_4b/prelu_5x5
I1105 17:30:10.481679 24559 net.cpp:106] Creating Layer inception_4b/prelu_5x5
I1105 17:30:10.481685 24559 net.cpp:454] inception_4b/prelu_5x5 <- inception_4b/5x5
I1105 17:30:10.481699 24559 net.cpp:397] inception_4b/prelu_5x5 -> inception_4b/5x5 (in-place)
I1105 17:30:10.481817 24559 net.cpp:150] Setting up inception_4b/prelu_5x5
I1105 17:30:10.481827 24559 net.cpp:157] Top shape: 32 64 14 14 (401408)
I1105 17:30:10.481832 24559 net.cpp:165] Memory required for data: 1290887940
I1105 17:30:10.481837 24559 layer_factory.hpp:76] Creating layer inception_4b/pool
I1105 17:30:10.481844 24559 net.cpp:106] Creating Layer inception_4b/pool
I1105 17:30:10.481848 24559 net.cpp:454] inception_4b/pool <- inception_4a/output_inception_4a/output_0_split_4
I1105 17:30:10.481854 24559 net.cpp:411] inception_4b/pool -> inception_4b/pool
I1105 17:30:10.482228 24559 net.cpp:150] Setting up inception_4b/pool
I1105 17:30:10.482240 24559 net.cpp:157] Top shape: 32 512 14 14 (3211264)
I1105 17:30:10.482244 24559 net.cpp:165] Memory required for data: 1303732996
I1105 17:30:10.482249 24559 layer_factory.hpp:76] Creating layer inception_4b/pool_proj
I1105 17:30:10.482259 24559 net.cpp:106] Creating Layer inception_4b/pool_proj
I1105 17:30:10.482265 24559 net.cpp:454] inception_4b/pool_proj <- inception_4b/pool
I1105 17:30:10.482272 24559 net.cpp:411] inception_4b/pool_proj -> inception_4b/pool_proj
I1105 17:30:10.483518 24559 cudnn_conv_layer.cpp:194] Reallocating workspace storage: 10080
I1105 17:30:10.483556 24559 net.cpp:150] Setting up inception_4b/pool_proj
I1105 17:30:10.483564 24559 net.cpp:157] Top shape: 32 64 14 14 (401408)
I1105 17:30:10.483568 24559 net.cpp:165] Memory required for data: 1305338628
I1105 17:30:10.483577 24559 layer_factory.hpp:76] Creating layer inception_4b/prelu_pool_proj
I1105 17:30:10.483584 24559 net.cpp:106] Creating Layer inception_4b/prelu_pool_proj
I1105 17:30:10.483592 24559 net.cpp:454] inception_4b/prelu_pool_proj <- inception_4b/pool_proj
I1105 17:30:10.483597 24559 net.cpp:397] inception_4b/prelu_pool_proj -> inception_4b/pool_proj (in-place)
I1105 17:30:10.483701 24559 net.cpp:150] Setting up inception_4b/prelu_pool_proj
I1105 17:30:10.483711 24559 net.cpp:157] Top shape: 32 64 14 14 (401408)
I1105 17:30:10.483714 24559 net.cpp:165] Memory required for data: 1306944260
I1105 17:30:10.483719 24559 layer_factory.hpp:76] Creating layer inception_4b/output
I1105 17:30:10.483728 24559 net.cpp:106] Creating Layer inception_4b/output
I1105 17:30:10.483733 24559 net.cpp:454] inception_4b/output <- inception_4b/1x1
I1105 17:30:10.483738 24559 net.cpp:454] inception_4b/output <- inception_4b/3x3
I1105 17:30:10.483742 24559 net.cpp:454] inception_4b/output <- inception_4b/5x5
I1105 17:30:10.483747 24559 net.cpp:454] inception_4b/output <- inception_4b/pool_proj
I1105 17:30:10.483752 24559 net.cpp:411] inception_4b/output -> inception_4b/output
I1105 17:30:10.483777 24559 net.cpp:150] Setting up inception_4b/output
I1105 17:30:10.483785 24559 net.cpp:157] Top shape: 32 512 14 14 (3211264)
I1105 17:30:10.483789 24559 net.cpp:165] Memory required for data: 1319789316
I1105 17:30:10.483794 24559 layer_factory.hpp:76] Creating layer inception_4b/output_inception_4b/output_0_split
I1105 17:30:10.483801 24559 net.cpp:106] Creating Layer inception_4b/output_inception_4b/output_0_split
I1105 17:30:10.483806 24559 net.cpp:454] inception_4b/output_inception_4b/output_0_split <- inception_4b/output
I1105 17:30:10.483813 24559 net.cpp:411] inception_4b/output_inception_4b/output_0_split -> inception_4b/output_inception_4b/output_0_split_0
I1105 17:30:10.483820 24559 net.cpp:411] inception_4b/output_inception_4b/output_0_split -> inception_4b/output_inception_4b/output_0_split_1
I1105 17:30:10.483826 24559 net.cpp:411] inception_4b/output_inception_4b/output_0_split -> inception_4b/output_inception_4b/output_0_split_2
I1105 17:30:10.483834 24559 net.cpp:411] inception_4b/output_inception_4b/output_0_split -> inception_4b/output_inception_4b/output_0_split_3
I1105 17:30:10.483889 24559 net.cpp:150] Setting up inception_4b/output_inception_4b/output_0_split
I1105 17:30:10.483898 24559 net.cpp:157] Top shape: 32 512 14 14 (3211264)
I1105 17:30:10.483903 24559 net.cpp:157] Top shape: 32 512 14 14 (3211264)
I1105 17:30:10.483907 24559 net.cpp:157] Top shape: 32 512 14 14 (3211264)
I1105 17:30:10.483912 24559 net.cpp:157] Top shape: 32 512 14 14 (3211264)
I1105 17:30:10.483916 24559 net.cpp:165] Memory required for data: 1371169540
I1105 17:30:10.483921 24559 layer_factory.hpp:76] Creating layer inception_4c/1x1
I1105 17:30:10.483927 24559 net.cpp:106] Creating Layer inception_4c/1x1
I1105 17:30:10.483932 24559 net.cpp:454] inception_4c/1x1 <- inception_4b/output_inception_4b/output_0_split_0
I1105 17:30:10.483939 24559 net.cpp:411] inception_4c/1x1 -> inception_4c/1x1
I1105 17:30:10.485613 24559 cudnn_conv_layer.cpp:194] Reallocating workspace storage: 10080
I1105 17:30:10.485640 24559 net.cpp:150] Setting up inception_4c/1x1
I1105 17:30:10.485647 24559 net.cpp:157] Top shape: 32 128 14 14 (802816)
I1105 17:30:10.485652 24559 net.cpp:165] Memory required for data: 1374380804
I1105 17:30:10.485659 24559 layer_factory.hpp:76] Creating layer inception_4c/prelu_1x1
I1105 17:30:10.485668 24559 net.cpp:106] Creating Layer inception_4c/prelu_1x1
I1105 17:30:10.485673 24559 net.cpp:454] inception_4c/prelu_1x1 <- inception_4c/1x1
I1105 17:30:10.485682 24559 net.cpp:397] inception_4c/prelu_1x1 -> inception_4c/1x1 (in-place)
I1105 17:30:10.485786 24559 net.cpp:150] Setting up inception_4c/prelu_1x1
I1105 17:30:10.485795 24559 net.cpp:157] Top shape: 32 128 14 14 (802816)
I1105 17:30:10.485800 24559 net.cpp:165] Memory required for data: 1377592068
I1105 17:30:10.485805 24559 layer_factory.hpp:76] Creating layer inception_4c/3x3_reduce
I1105 17:30:10.485815 24559 net.cpp:106] Creating Layer inception_4c/3x3_reduce
I1105 17:30:10.485819 24559 net.cpp:454] inception_4c/3x3_reduce <- inception_4b/output_inception_4b/output_0_split_1
I1105 17:30:10.485828 24559 net.cpp:411] inception_4c/3x3_reduce -> inception_4c/3x3_reduce
I1105 17:30:10.487213 24559 cudnn_conv_layer.cpp:194] Reallocating workspace storage: 10080
I1105 17:30:10.487236 24559 net.cpp:150] Setting up inception_4c/3x3_reduce
I1105 17:30:10.487244 24559 net.cpp:157] Top shape: 32 128 14 14 (802816)
I1105 17:30:10.487249 24559 net.cpp:165] Memory required for data: 1380803332
I1105 17:30:10.487256 24559 layer_factory.hpp:76] Creating layer inception_4c/prelu_3x3_reduce
I1105 17:30:10.487267 24559 net.cpp:106] Creating Layer inception_4c/prelu_3x3_reduce
I1105 17:30:10.487272 24559 net.cpp:454] inception_4c/prelu_3x3_reduce <- inception_4c/3x3_reduce
I1105 17:30:10.487279 24559 net.cpp:397] inception_4c/prelu_3x3_reduce -> inception_4c/3x3_reduce (in-place)
I1105 17:30:10.487371 24559 net.cpp:150] Setting up inception_4c/prelu_3x3_reduce
I1105 17:30:10.487380 24559 net.cpp:157] Top shape: 32 128 14 14 (802816)
I1105 17:30:10.487385 24559 net.cpp:165] Memory required for data: 1384014596
I1105 17:30:10.487390 24559 layer_factory.hpp:76] Creating layer inception_4c/3x3
I1105 17:30:10.487399 24559 net.cpp:106] Creating Layer inception_4c/3x3
I1105 17:30:10.487406 24559 net.cpp:454] inception_4c/3x3 <- inception_4c/3x3_reduce
I1105 17:30:10.487412 24559 net.cpp:411] inception_4c/3x3 -> inception_4c/3x3
I1105 17:30:10.490687 24559 cudnn_conv_layer.cpp:194] Reallocating workspace storage: 10080
I1105 17:30:10.490716 24559 net.cpp:150] Setting up inception_4c/3x3
I1105 17:30:10.490734 24559 net.cpp:157] Top shape: 32 256 14 14 (1605632)
I1105 17:30:10.490747 24559 net.cpp:165] Memory required for data: 1390437124
I1105 17:30:10.490756 24559 layer_factory.hpp:76] Creating layer inception_4c/prelu_3x3
I1105 17:30:10.490766 24559 net.cpp:106] Creating Layer inception_4c/prelu_3x3
I1105 17:30:10.490787 24559 net.cpp:454] inception_4c/prelu_3x3 <- inception_4c/3x3
I1105 17:30:10.490797 24559 net.cpp:397] inception_4c/prelu_3x3 -> inception_4c/3x3 (in-place)
I1105 17:30:10.490922 24559 net.cpp:150] Setting up inception_4c/prelu_3x3
I1105 17:30:10.490933 24559 net.cpp:157] Top shape: 32 256 14 14 (1605632)
I1105 17:30:10.490938 24559 net.cpp:165] Memory required for data: 1396859652
I1105 17:30:10.490952 24559 layer_factory.hpp:76] Creating layer inception_4c/5x5_reduce
I1105 17:30:10.490960 24559 net.cpp:106] Creating Layer inception_4c/5x5_reduce
I1105 17:30:10.490965 24559 net.cpp:454] inception_4c/5x5_reduce <- inception_4b/output_inception_4b/output_0_split_2
I1105 17:30:10.490974 24559 net.cpp:411] inception_4c/5x5_reduce -> inception_4c/5x5_reduce
I1105 17:30:10.492061 24559 cudnn_conv_layer.cpp:194] Reallocating workspace storage: 10080
I1105 17:30:10.492091 24559 net.cpp:150] Setting up inception_4c/5x5_reduce
I1105 17:30:10.492100 24559 net.cpp:157] Top shape: 32 24 14 14 (150528)
I1105 17:30:10.492105 24559 net.cpp:165] Memory required for data: 1397461764
I1105 17:30:10.492111 24559 layer_factory.hpp:76] Creating layer inception_4c/prelu_5x5_reduce
I1105 17:30:10.492128 24559 net.cpp:106] Creating Layer inception_4c/prelu_5x5_reduce
I1105 17:30:10.492143 24559 net.cpp:454] inception_4c/prelu_5x5_reduce <- inception_4c/5x5_reduce
I1105 17:30:10.492151 24559 net.cpp:397] inception_4c/prelu_5x5_reduce -> inception_4c/5x5_reduce (in-place)
I1105 17:30:10.492264 24559 net.cpp:150] Setting up inception_4c/prelu_5x5_reduce
I1105 17:30:10.492272 24559 net.cpp:157] Top shape: 32 24 14 14 (150528)
I1105 17:30:10.492276 24559 net.cpp:165] Memory required for data: 1398063876
I1105 17:30:10.492301 24559 layer_factory.hpp:76] Creating layer inception_4c/5x5
I1105 17:30:10.492321 24559 net.cpp:106] Creating Layer inception_4c/5x5
I1105 17:30:10.492344 24559 net.cpp:454] inception_4c/5x5 <- inception_4c/5x5_reduce
I1105 17:30:10.492352 24559 net.cpp:411] inception_4c/5x5 -> inception_4c/5x5
I1105 17:30:10.494130 24559 cudnn_conv_layer.cpp:194] Reallocating workspace storage: 13080
I1105 17:30:10.494158 24559 net.cpp:150] Setting up inception_4c/5x5
I1105 17:30:10.494168 24559 net.cpp:157] Top shape: 32 64 14 14 (401408)
I1105 17:30:10.494171 24559 net.cpp:165] Memory required for data: 1399669508
I1105 17:30:10.494179 24559 layer_factory.hpp:76] Creating layer inception_4c/prelu_5x5
I1105 17:30:10.494187 24559 net.cpp:106] Creating Layer inception_4c/prelu_5x5
I1105 17:30:10.494194 24559 net.cpp:454] inception_4c/prelu_5x5 <- inception_4c/5x5
I1105 17:30:10.494200 24559 net.cpp:397] inception_4c/prelu_5x5 -> inception_4c/5x5 (in-place)
I1105 17:30:10.494312 24559 net.cpp:150] Setting up inception_4c/prelu_5x5
I1105 17:30:10.494320 24559 net.cpp:157] Top shape: 32 64 14 14 (401408)
I1105 17:30:10.494324 24559 net.cpp:165] Memory required for data: 1401275140
I1105 17:30:10.494330 24559 layer_factory.hpp:76] Creating layer inception_4c/pool
I1105 17:30:10.494338 24559 net.cpp:106] Creating Layer inception_4c/pool
I1105 17:30:10.494343 24559 net.cpp:454] inception_4c/pool <- inception_4b/output_inception_4b/output_0_split_3
I1105 17:30:10.494350 24559 net.cpp:411] inception_4c/pool -> inception_4c/pool
I1105 17:30:10.494535 24559 net.cpp:150] Setting up inception_4c/pool
I1105 17:30:10.494547 24559 net.cpp:157] Top shape: 32 512 14 14 (3211264)
I1105 17:30:10.494552 24559 net.cpp:165] Memory required for data: 1414120196
I1105 17:30:10.494557 24559 layer_factory.hpp:76] Creating layer inception_4c/pool_proj
I1105 17:30:10.494565 24559 net.cpp:106] Creating Layer inception_4c/pool_proj
I1105 17:30:10.494570 24559 net.cpp:454] inception_4c/pool_proj <- inception_4c/pool
I1105 17:30:10.494577 24559 net.cpp:411] inception_4c/pool_proj -> inception_4c/pool_proj
I1105 17:30:10.496008 24559 cudnn_conv_layer.cpp:194] Reallocating workspace storage: 10080
I1105 17:30:10.496037 24559 net.cpp:150] Setting up inception_4c/pool_proj
I1105 17:30:10.496044 24559 net.cpp:157] Top shape: 32 64 14 14 (401408)
I1105 17:30:10.496048 24559 net.cpp:165] Memory required for data: 1415725828
I1105 17:30:10.496055 24559 layer_factory.hpp:76] Creating layer inception_4c/prelu_pool_proj
I1105 17:30:10.496065 24559 net.cpp:106] Creating Layer inception_4c/prelu_pool_proj
I1105 17:30:10.496079 24559 net.cpp:454] inception_4c/prelu_pool_proj <- inception_4c/pool_proj
I1105 17:30:10.496094 24559 net.cpp:397] inception_4c/prelu_pool_proj -> inception_4c/pool_proj (in-place)
I1105 17:30:10.496212 24559 net.cpp:150] Setting up inception_4c/prelu_pool_proj
I1105 17:30:10.496222 24559 net.cpp:157] Top shape: 32 64 14 14 (401408)
I1105 17:30:10.496224 24559 net.cpp:165] Memory required for data: 1417331460
I1105 17:30:10.496230 24559 layer_factory.hpp:76] Creating layer inception_4c/output
I1105 17:30:10.496237 24559 net.cpp:106] Creating Layer inception_4c/output
I1105 17:30:10.496243 24559 net.cpp:454] inception_4c/output <- inception_4c/1x1
I1105 17:30:10.496249 24559 net.cpp:454] inception_4c/output <- inception_4c/3x3
I1105 17:30:10.496253 24559 net.cpp:454] inception_4c/output <- inception_4c/5x5
I1105 17:30:10.496258 24559 net.cpp:454] inception_4c/output <- inception_4c/pool_proj
I1105 17:30:10.496263 24559 net.cpp:411] inception_4c/output -> inception_4c/output
I1105 17:30:10.496305 24559 net.cpp:150] Setting up inception_4c/output
I1105 17:30:10.496314 24559 net.cpp:157] Top shape: 32 512 14 14 (3211264)
I1105 17:30:10.496317 24559 net.cpp:165] Memory required for data: 1430176516
I1105 17:30:10.496321 24559 layer_factory.hpp:76] Creating layer inception_4c/output_inception_4c/output_0_split
I1105 17:30:10.496330 24559 net.cpp:106] Creating Layer inception_4c/output_inception_4c/output_0_split
I1105 17:30:10.496333 24559 net.cpp:454] inception_4c/output_inception_4c/output_0_split <- inception_4c/output
I1105 17:30:10.496351 24559 net.cpp:411] inception_4c/output_inception_4c/output_0_split -> inception_4c/output_inception_4c/output_0_split_0
I1105 17:30:10.496361 24559 net.cpp:411] inception_4c/output_inception_4c/output_0_split -> inception_4c/output_inception_4c/output_0_split_1
I1105 17:30:10.496368 24559 net.cpp:411] inception_4c/output_inception_4c/output_0_split -> inception_4c/output_inception_4c/output_0_split_2
I1105 17:30:10.496376 24559 net.cpp:411] inception_4c/output_inception_4c/output_0_split -> inception_4c/output_inception_4c/output_0_split_3
I1105 17:30:10.496438 24559 net.cpp:150] Setting up inception_4c/output_inception_4c/output_0_split
I1105 17:30:10.496445 24559 net.cpp:157] Top shape: 32 512 14 14 (3211264)
I1105 17:30:10.496450 24559 net.cpp:157] Top shape: 32 512 14 14 (3211264)
I1105 17:30:10.496455 24559 net.cpp:157] Top shape: 32 512 14 14 (3211264)
I1105 17:30:10.496460 24559 net.cpp:157] Top shape: 32 512 14 14 (3211264)
I1105 17:30:10.496464 24559 net.cpp:165] Memory required for data: 1481556740
I1105 17:30:10.496467 24559 layer_factory.hpp:76] Creating layer inception_4d/1x1
I1105 17:30:10.496474 24559 net.cpp:106] Creating Layer inception_4d/1x1
I1105 17:30:10.496479 24559 net.cpp:454] inception_4d/1x1 <- inception_4c/output_inception_4c/output_0_split_0
I1105 17:30:10.496486 24559 net.cpp:411] inception_4d/1x1 -> inception_4d/1x1
I1105 17:30:10.497875 24559 cudnn_conv_layer.cpp:194] Reallocating workspace storage: 10080
I1105 17:30:10.497900 24559 net.cpp:150] Setting up inception_4d/1x1
I1105 17:30:10.497907 24559 net.cpp:157] Top shape: 32 112 14 14 (702464)
I1105 17:30:10.497912 24559 net.cpp:165] Memory required for data: 1484366596
I1105 17:30:10.497918 24559 layer_factory.hpp:76] Creating layer inception_4d/prelu_1x1
I1105 17:30:10.497928 24559 net.cpp:106] Creating Layer inception_4d/prelu_1x1
I1105 17:30:10.497942 24559 net.cpp:454] inception_4d/prelu_1x1 <- inception_4d/1x1
I1105 17:30:10.497958 24559 net.cpp:397] inception_4d/prelu_1x1 -> inception_4d/1x1 (in-place)
I1105 17:30:10.498057 24559 net.cpp:150] Setting up inception_4d/prelu_1x1
I1105 17:30:10.498066 24559 net.cpp:157] Top shape: 32 112 14 14 (702464)
I1105 17:30:10.498070 24559 net.cpp:165] Memory required for data: 1487176452
I1105 17:30:10.498075 24559 layer_factory.hpp:76] Creating layer inception_4d/3x3_reduce
I1105 17:30:10.498085 24559 net.cpp:106] Creating Layer inception_4d/3x3_reduce
I1105 17:30:10.498090 24559 net.cpp:454] inception_4d/3x3_reduce <- inception_4c/output_inception_4c/output_0_split_1
I1105 17:30:10.498098 24559 net.cpp:411] inception_4d/3x3_reduce -> inception_4d/3x3_reduce
I1105 17:30:10.499382 24559 cudnn_conv_layer.cpp:194] Reallocating workspace storage: 10080
I1105 17:30:10.499407 24559 net.cpp:150] Setting up inception_4d/3x3_reduce
I1105 17:30:10.499414 24559 net.cpp:157] Top shape: 32 144 14 14 (903168)
I1105 17:30:10.499418 24559 net.cpp:165] Memory required for data: 1490789124
I1105 17:30:10.499425 24559 layer_factory.hpp:76] Creating layer inception_4d/prelu_3x3_reduce
I1105 17:30:10.499434 24559 net.cpp:106] Creating Layer inception_4d/prelu_3x3_reduce
I1105 17:30:10.499440 24559 net.cpp:454] inception_4d/prelu_3x3_reduce <- inception_4d/3x3_reduce
I1105 17:30:10.499447 24559 net.cpp:397] inception_4d/prelu_3x3_reduce -> inception_4d/3x3_reduce (in-place)
I1105 17:30:10.499572 24559 net.cpp:150] Setting up inception_4d/prelu_3x3_reduce
I1105 17:30:10.499580 24559 net.cpp:157] Top shape: 32 144 14 14 (903168)
I1105 17:30:10.499584 24559 net.cpp:165] Memory required for data: 1494401796
I1105 17:30:10.499589 24559 layer_factory.hpp:76] Creating layer inception_4d/3x3
I1105 17:30:10.499599 24559 net.cpp:106] Creating Layer inception_4d/3x3
I1105 17:30:10.499605 24559 net.cpp:454] inception_4d/3x3 <- inception_4d/3x3_reduce
I1105 17:30:10.499611 24559 net.cpp:411] inception_4d/3x3 -> inception_4d/3x3
I1105 17:30:10.503542 24559 cudnn_conv_layer.cpp:194] Reallocating workspace storage: 10080
I1105 17:30:10.503592 24559 net.cpp:150] Setting up inception_4d/3x3
I1105 17:30:10.503603 24559 net.cpp:157] Top shape: 32 288 14 14 (1806336)
I1105 17:30:10.503607 24559 net.cpp:165] Memory required for data: 1501627140
I1105 17:30:10.503617 24559 layer_factory.hpp:76] Creating layer inception_4d/prelu_3x3
I1105 17:30:10.503628 24559 net.cpp:106] Creating Layer inception_4d/prelu_3x3
I1105 17:30:10.503634 24559 net.cpp:454] inception_4d/prelu_3x3 <- inception_4d/3x3
I1105 17:30:10.503641 24559 net.cpp:397] inception_4d/prelu_3x3 -> inception_4d/3x3 (in-place)
I1105 17:30:10.503789 24559 net.cpp:150] Setting up inception_4d/prelu_3x3
I1105 17:30:10.503799 24559 net.cpp:157] Top shape: 32 288 14 14 (1806336)
I1105 17:30:10.503803 24559 net.cpp:165] Memory required for data: 1508852484
I1105 17:30:10.503809 24559 layer_factory.hpp:76] Creating layer inception_4d/5x5_reduce
I1105 17:30:10.503819 24559 net.cpp:106] Creating Layer inception_4d/5x5_reduce
I1105 17:30:10.503825 24559 net.cpp:454] inception_4d/5x5_reduce <- inception_4c/output_inception_4c/output_0_split_2
I1105 17:30:10.503832 24559 net.cpp:411] inception_4d/5x5_reduce -> inception_4d/5x5_reduce
I1105 17:30:10.505034 24559 cudnn_conv_layer.cpp:194] Reallocating workspace storage: 10080
I1105 17:30:10.505064 24559 net.cpp:150] Setting up inception_4d/5x5_reduce
I1105 17:30:10.505085 24559 net.cpp:157] Top shape: 32 32 14 14 (200704)
I1105 17:30:10.505098 24559 net.cpp:165] Memory required for data: 1509655300
I1105 17:30:10.505110 24559 layer_factory.hpp:76] Creating layer inception_4d/prelu_5x5_reduce
I1105 17:30:10.505120 24559 net.cpp:106] Creating Layer inception_4d/prelu_5x5_reduce
I1105 17:30:10.505126 24559 net.cpp:454] inception_4d/prelu_5x5_reduce <- inception_4d/5x5_reduce
I1105 17:30:10.505133 24559 net.cpp:397] inception_4d/prelu_5x5_reduce -> inception_4d/5x5_reduce (in-place)
I1105 17:30:10.505247 24559 net.cpp:150] Setting up inception_4d/prelu_5x5_reduce
I1105 17:30:10.505256 24559 net.cpp:157] Top shape: 32 32 14 14 (200704)
I1105 17:30:10.505261 24559 net.cpp:165] Memory required for data: 1510458116
I1105 17:30:10.505266 24559 layer_factory.hpp:76] Creating layer inception_4d/5x5
I1105 17:30:10.505276 24559 net.cpp:106] Creating Layer inception_4d/5x5
I1105 17:30:10.505280 24559 net.cpp:454] inception_4d/5x5 <- inception_4d/5x5_reduce
I1105 17:30:10.505288 24559 net.cpp:411] inception_4d/5x5 -> inception_4d/5x5
I1105 17:30:10.507218 24559 cudnn_conv_layer.cpp:194] Reallocating workspace storage: 13080
I1105 17:30:10.507251 24559 net.cpp:150] Setting up inception_4d/5x5
I1105 17:30:10.507258 24559 net.cpp:157] Top shape: 32 64 14 14 (401408)
I1105 17:30:10.507262 24559 net.cpp:165] Memory required for data: 1512063748
I1105 17:30:10.507271 24559 layer_factory.hpp:76] Creating layer inception_4d/prelu_5x5
I1105 17:30:10.507282 24559 net.cpp:106] Creating Layer inception_4d/prelu_5x5
I1105 17:30:10.507287 24559 net.cpp:454] inception_4d/prelu_5x5 <- inception_4d/5x5
I1105 17:30:10.507293 24559 net.cpp:397] inception_4d/prelu_5x5 -> inception_4d/5x5 (in-place)
I1105 17:30:10.507405 24559 net.cpp:150] Setting up inception_4d/prelu_5x5
I1105 17:30:10.507416 24559 net.cpp:157] Top shape: 32 64 14 14 (401408)
I1105 17:30:10.507419 24559 net.cpp:165] Memory required for data: 1513669380
I1105 17:30:10.507424 24559 layer_factory.hpp:76] Creating layer inception_4d/pool
I1105 17:30:10.507434 24559 net.cpp:106] Creating Layer inception_4d/pool
I1105 17:30:10.507439 24559 net.cpp:454] inception_4d/pool <- inception_4c/output_inception_4c/output_0_split_3
I1105 17:30:10.507446 24559 net.cpp:411] inception_4d/pool -> inception_4d/pool
I1105 17:30:10.507658 24559 net.cpp:150] Setting up inception_4d/pool
I1105 17:30:10.507668 24559 net.cpp:157] Top shape: 32 512 14 14 (3211264)
I1105 17:30:10.507673 24559 net.cpp:165] Memory required for data: 1526514436
I1105 17:30:10.507676 24559 layer_factory.hpp:76] Creating layer inception_4d/pool_proj
I1105 17:30:10.507688 24559 net.cpp:106] Creating Layer inception_4d/pool_proj
I1105 17:30:10.507693 24559 net.cpp:454] inception_4d/pool_proj <- inception_4d/pool
I1105 17:30:10.507725 24559 net.cpp:411] inception_4d/pool_proj -> inception_4d/pool_proj
I1105 17:30:10.509011 24559 cudnn_conv_layer.cpp:194] Reallocating workspace storage: 10080
I1105 17:30:10.509042 24559 net.cpp:150] Setting up inception_4d/pool_proj
I1105 17:30:10.509049 24559 net.cpp:157] Top shape: 32 64 14 14 (401408)
I1105 17:30:10.509054 24559 net.cpp:165] Memory required for data: 1528120068
I1105 17:30:10.509062 24559 layer_factory.hpp:76] Creating layer inception_4d/prelu_pool_proj
I1105 17:30:10.509096 24559 net.cpp:106] Creating Layer inception_4d/prelu_pool_proj
I1105 17:30:10.509104 24559 net.cpp:454] inception_4d/prelu_pool_proj <- inception_4d/pool_proj
I1105 17:30:10.509133 24559 net.cpp:397] inception_4d/prelu_pool_proj -> inception_4d/pool_proj (in-place)
I1105 17:30:10.509251 24559 net.cpp:150] Setting up inception_4d/prelu_pool_proj
I1105 17:30:10.509263 24559 net.cpp:157] Top shape: 32 64 14 14 (401408)
I1105 17:30:10.509266 24559 net.cpp:165] Memory required for data: 1529725700
I1105 17:30:10.509273 24559 layer_factory.hpp:76] Creating layer inception_4d/output
I1105 17:30:10.509279 24559 net.cpp:106] Creating Layer inception_4d/output
I1105 17:30:10.509284 24559 net.cpp:454] inception_4d/output <- inception_4d/1x1
I1105 17:30:10.509289 24559 net.cpp:454] inception_4d/output <- inception_4d/3x3
I1105 17:30:10.509294 24559 net.cpp:454] inception_4d/output <- inception_4d/5x5
I1105 17:30:10.509297 24559 net.cpp:454] inception_4d/output <- inception_4d/pool_proj
I1105 17:30:10.509304 24559 net.cpp:411] inception_4d/output -> inception_4d/output
I1105 17:30:10.509331 24559 net.cpp:150] Setting up inception_4d/output
I1105 17:30:10.509341 24559 net.cpp:157] Top shape: 32 528 14 14 (3311616)
I1105 17:30:10.509344 24559 net.cpp:165] Memory required for data: 1542972164
I1105 17:30:10.509348 24559 layer_factory.hpp:76] Creating layer inception_4d/output_inception_4d/output_0_split
I1105 17:30:10.509357 24559 net.cpp:106] Creating Layer inception_4d/output_inception_4d/output_0_split
I1105 17:30:10.509362 24559 net.cpp:454] inception_4d/output_inception_4d/output_0_split <- inception_4d/output
I1105 17:30:10.509379 24559 net.cpp:411] inception_4d/output_inception_4d/output_0_split -> inception_4d/output_inception_4d/output_0_split_0
I1105 17:30:10.509397 24559 net.cpp:411] inception_4d/output_inception_4d/output_0_split -> inception_4d/output_inception_4d/output_0_split_1
I1105 17:30:10.509404 24559 net.cpp:411] inception_4d/output_inception_4d/output_0_split -> inception_4d/output_inception_4d/output_0_split_2
I1105 17:30:10.509413 24559 net.cpp:411] inception_4d/output_inception_4d/output_0_split -> inception_4d/output_inception_4d/output_0_split_3
I1105 17:30:10.509418 24559 net.cpp:411] inception_4d/output_inception_4d/output_0_split -> inception_4d/output_inception_4d/output_0_split_4
I1105 17:30:10.509495 24559 net.cpp:150] Setting up inception_4d/output_inception_4d/output_0_split
I1105 17:30:10.509503 24559 net.cpp:157] Top shape: 32 528 14 14 (3311616)
I1105 17:30:10.509508 24559 net.cpp:157] Top shape: 32 528 14 14 (3311616)
I1105 17:30:10.509513 24559 net.cpp:157] Top shape: 32 528 14 14 (3311616)
I1105 17:30:10.509517 24559 net.cpp:157] Top shape: 32 528 14 14 (3311616)
I1105 17:30:10.509522 24559 net.cpp:157] Top shape: 32 528 14 14 (3311616)
I1105 17:30:10.509526 24559 net.cpp:165] Memory required for data: 1609204484
I1105 17:30:10.509531 24559 layer_factory.hpp:76] Creating layer loss2/ave_pool
I1105 17:30:10.509536 24559 net.cpp:106] Creating Layer loss2/ave_pool
I1105 17:30:10.509541 24559 net.cpp:454] loss2/ave_pool <- inception_4d/output_inception_4d/output_0_split_0
I1105 17:30:10.509547 24559 net.cpp:411] loss2/ave_pool -> loss2/ave_pool
I1105 17:30:10.509915 24559 net.cpp:150] Setting up loss2/ave_pool
I1105 17:30:10.509927 24559 net.cpp:157] Top shape: 32 528 4 4 (270336)
I1105 17:30:10.509932 24559 net.cpp:165] Memory required for data: 1610285828
I1105 17:30:10.509935 24559 layer_factory.hpp:76] Creating layer loss2/conv
I1105 17:30:10.509959 24559 net.cpp:106] Creating Layer loss2/conv
I1105 17:30:10.509965 24559 net.cpp:454] loss2/conv <- loss2/ave_pool
I1105 17:30:10.509974 24559 net.cpp:411] loss2/conv -> loss2/conv
I1105 17:30:10.511440 24559 cudnn_conv_layer.cpp:194] Reallocating workspace storage: 6840
I1105 17:30:10.511466 24559 net.cpp:150] Setting up loss2/conv
I1105 17:30:10.511474 24559 net.cpp:157] Top shape: 32 128 4 4 (65536)
I1105 17:30:10.511481 24559 net.cpp:165] Memory required for data: 1610547972
I1105 17:30:10.511487 24559 layer_factory.hpp:76] Creating layer loss2/prelu_conv
I1105 17:30:10.511497 24559 net.cpp:106] Creating Layer loss2/prelu_conv
I1105 17:30:10.511512 24559 net.cpp:454] loss2/prelu_conv <- loss2/conv
I1105 17:30:10.511528 24559 net.cpp:397] loss2/prelu_conv -> loss2/conv (in-place)
I1105 17:30:10.511623 24559 net.cpp:150] Setting up loss2/prelu_conv
I1105 17:30:10.511632 24559 net.cpp:157] Top shape: 32 128 4 4 (65536)
I1105 17:30:10.511636 24559 net.cpp:165] Memory required for data: 1610810116
I1105 17:30:10.511641 24559 layer_factory.hpp:76] Creating layer loss2/fc
I1105 17:30:10.511651 24559 net.cpp:106] Creating Layer loss2/fc
I1105 17:30:10.511656 24559 net.cpp:454] loss2/fc <- loss2/conv
I1105 17:30:10.511662 24559 net.cpp:411] loss2/fc -> loss2/fc
I1105 17:30:10.526315 24559 net.cpp:150] Setting up loss2/fc
I1105 17:30:10.526350 24559 net.cpp:157] Top shape: 32 1024 (32768)
I1105 17:30:10.526363 24559 net.cpp:165] Memory required for data: 1610941188
I1105 17:30:10.526392 24559 layer_factory.hpp:76] Creating layer loss2/prelu_fc
I1105 17:30:10.526417 24559 net.cpp:106] Creating Layer loss2/prelu_fc
I1105 17:30:10.526424 24559 net.cpp:454] loss2/prelu_fc <- loss2/fc
I1105 17:30:10.526432 24559 net.cpp:397] loss2/prelu_fc -> loss2/fc (in-place)
I1105 17:30:10.526546 24559 net.cpp:150] Setting up loss2/prelu_fc
I1105 17:30:10.526554 24559 net.cpp:157] Top shape: 32 1024 (32768)
I1105 17:30:10.526558 24559 net.cpp:165] Memory required for data: 1611072260
I1105 17:30:10.526571 24559 layer_factory.hpp:76] Creating layer loss2/drop_fc
I1105 17:30:10.526579 24559 net.cpp:106] Creating Layer loss2/drop_fc
I1105 17:30:10.526587 24559 net.cpp:454] loss2/drop_fc <- loss2/fc
I1105 17:30:10.526593 24559 net.cpp:397] loss2/drop_fc -> loss2/fc (in-place)
I1105 17:30:10.526636 24559 net.cpp:150] Setting up loss2/drop_fc
I1105 17:30:10.526644 24559 net.cpp:157] Top shape: 32 1024 (32768)
I1105 17:30:10.526648 24559 net.cpp:165] Memory required for data: 1611203332
I1105 17:30:10.526653 24559 layer_factory.hpp:76] Creating layer loss2/classifier2
I1105 17:30:10.526677 24559 net.cpp:106] Creating Layer loss2/classifier2
I1105 17:30:10.526684 24559 net.cpp:454] loss2/classifier2 <- loss2/fc
I1105 17:30:10.526691 24559 net.cpp:411] loss2/classifier2 -> loss2/classifier
I1105 17:30:10.526834 24559 net.cpp:150] Setting up loss2/classifier2
I1105 17:30:10.526844 24559 net.cpp:157] Top shape: 32 2 (64)
I1105 17:30:10.526847 24559 net.cpp:165] Memory required for data: 1611203588
I1105 17:30:10.526854 24559 layer_factory.hpp:76] Creating layer loss2/loss
I1105 17:30:10.526870 24559 net.cpp:106] Creating Layer loss2/loss
I1105 17:30:10.526875 24559 net.cpp:454] loss2/loss <- loss2/classifier
I1105 17:30:10.526881 24559 net.cpp:454] loss2/loss <- label_data_1_split_1
I1105 17:30:10.526887 24559 net.cpp:411] loss2/loss -> loss2/loss1
I1105 17:30:10.526896 24559 layer_factory.hpp:76] Creating layer loss2/loss
I1105 17:30:10.527205 24559 net.cpp:150] Setting up loss2/loss
I1105 17:30:10.527233 24559 net.cpp:157] Top shape: (1)
I1105 17:30:10.527245 24559 net.cpp:160]     with loss weight 0.3
I1105 17:30:10.527259 24559 net.cpp:165] Memory required for data: 1611203592
I1105 17:30:10.527264 24559 layer_factory.hpp:76] Creating layer inception_4e/1x1
I1105 17:30:10.527282 24559 net.cpp:106] Creating Layer inception_4e/1x1
I1105 17:30:10.527288 24559 net.cpp:454] inception_4e/1x1 <- inception_4d/output_inception_4d/output_0_split_1
I1105 17:30:10.527295 24559 net.cpp:411] inception_4e/1x1 -> inception_4e/1x1
I1105 17:30:10.529963 24559 cudnn_conv_layer.cpp:194] Reallocating workspace storage: 10080
I1105 17:30:10.530028 24559 net.cpp:150] Setting up inception_4e/1x1
I1105 17:30:10.530040 24559 net.cpp:157] Top shape: 32 256 14 14 (1605632)
I1105 17:30:10.530043 24559 net.cpp:165] Memory required for data: 1617626120
I1105 17:30:10.530052 24559 layer_factory.hpp:76] Creating layer inception_4e/prelu_1x1
I1105 17:30:10.530066 24559 net.cpp:106] Creating Layer inception_4e/prelu_1x1
I1105 17:30:10.530072 24559 net.cpp:454] inception_4e/prelu_1x1 <- inception_4e/1x1
I1105 17:30:10.530081 24559 net.cpp:397] inception_4e/prelu_1x1 -> inception_4e/1x1 (in-place)
I1105 17:30:10.530230 24559 net.cpp:150] Setting up inception_4e/prelu_1x1
I1105 17:30:10.530241 24559 net.cpp:157] Top shape: 32 256 14 14 (1605632)
I1105 17:30:10.530244 24559 net.cpp:165] Memory required for data: 1624048648
I1105 17:30:10.530251 24559 layer_factory.hpp:76] Creating layer inception_4e/3x3_reduce
I1105 17:30:10.530261 24559 net.cpp:106] Creating Layer inception_4e/3x3_reduce
I1105 17:30:10.530267 24559 net.cpp:454] inception_4e/3x3_reduce <- inception_4d/output_inception_4d/output_0_split_2
I1105 17:30:10.530275 24559 net.cpp:411] inception_4e/3x3_reduce -> inception_4e/3x3_reduce
I1105 17:30:10.531888 24559 cudnn_conv_layer.cpp:194] Reallocating workspace storage: 10080
I1105 17:30:10.531925 24559 net.cpp:150] Setting up inception_4e/3x3_reduce
I1105 17:30:10.531934 24559 net.cpp:157] Top shape: 32 160 14 14 (1003520)
I1105 17:30:10.531937 24559 net.cpp:165] Memory required for data: 1628062728
I1105 17:30:10.531944 24559 layer_factory.hpp:76] Creating layer inception_4e/prelu_3x3_reduce
I1105 17:30:10.531955 24559 net.cpp:106] Creating Layer inception_4e/prelu_3x3_reduce
I1105 17:30:10.531960 24559 net.cpp:454] inception_4e/prelu_3x3_reduce <- inception_4e/3x3_reduce
I1105 17:30:10.531966 24559 net.cpp:397] inception_4e/prelu_3x3_reduce -> inception_4e/3x3_reduce (in-place)
I1105 17:30:10.532104 24559 net.cpp:150] Setting up inception_4e/prelu_3x3_reduce
I1105 17:30:10.532114 24559 net.cpp:157] Top shape: 32 160 14 14 (1003520)
I1105 17:30:10.532125 24559 net.cpp:165] Memory required for data: 1632076808
I1105 17:30:10.532132 24559 layer_factory.hpp:76] Creating layer inception_4e/3x3
I1105 17:30:10.532143 24559 net.cpp:106] Creating Layer inception_4e/3x3
I1105 17:30:10.532148 24559 net.cpp:454] inception_4e/3x3 <- inception_4e/3x3_reduce
I1105 17:30:10.532155 24559 net.cpp:411] inception_4e/3x3 -> inception_4e/3x3
I1105 17:30:10.536681 24559 cudnn_conv_layer.cpp:194] Reallocating workspace storage: 10080
I1105 17:30:10.536725 24559 net.cpp:150] Setting up inception_4e/3x3
I1105 17:30:10.536736 24559 net.cpp:157] Top shape: 32 320 14 14 (2007040)
I1105 17:30:10.536741 24559 net.cpp:165] Memory required for data: 1640104968
I1105 17:30:10.536748 24559 layer_factory.hpp:76] Creating layer inception_4e/prelu_3x3
I1105 17:30:10.536768 24559 net.cpp:106] Creating Layer inception_4e/prelu_3x3
I1105 17:30:10.536774 24559 net.cpp:454] inception_4e/prelu_3x3 <- inception_4e/3x3
I1105 17:30:10.536782 24559 net.cpp:397] inception_4e/prelu_3x3 -> inception_4e/3x3 (in-place)
I1105 17:30:10.536965 24559 net.cpp:150] Setting up inception_4e/prelu_3x3
I1105 17:30:10.536975 24559 net.cpp:157] Top shape: 32 320 14 14 (2007040)
I1105 17:30:10.536978 24559 net.cpp:165] Memory required for data: 1648133128
I1105 17:30:10.536993 24559 layer_factory.hpp:76] Creating layer inception_4e/5x5_reduce
I1105 17:30:10.537003 24559 net.cpp:106] Creating Layer inception_4e/5x5_reduce
I1105 17:30:10.537009 24559 net.cpp:454] inception_4e/5x5_reduce <- inception_4d/output_inception_4d/output_0_split_3
I1105 17:30:10.537024 24559 net.cpp:411] inception_4e/5x5_reduce -> inception_4e/5x5_reduce
I1105 17:30:10.538195 24559 cudnn_conv_layer.cpp:194] Reallocating workspace storage: 10080
I1105 17:30:10.538229 24559 net.cpp:150] Setting up inception_4e/5x5_reduce
I1105 17:30:10.538238 24559 net.cpp:157] Top shape: 32 32 14 14 (200704)
I1105 17:30:10.538241 24559 net.cpp:165] Memory required for data: 1648935944
I1105 17:30:10.538272 24559 layer_factory.hpp:76] Creating layer inception_4e/prelu_5x5_reduce
I1105 17:30:10.538281 24559 net.cpp:106] Creating Layer inception_4e/prelu_5x5_reduce
I1105 17:30:10.538286 24559 net.cpp:454] inception_4e/prelu_5x5_reduce <- inception_4e/5x5_reduce
I1105 17:30:10.538292 24559 net.cpp:397] inception_4e/prelu_5x5_reduce -> inception_4e/5x5_reduce (in-place)
I1105 17:30:10.538411 24559 net.cpp:150] Setting up inception_4e/prelu_5x5_reduce
I1105 17:30:10.538420 24559 net.cpp:157] Top shape: 32 32 14 14 (200704)
I1105 17:30:10.538424 24559 net.cpp:165] Memory required for data: 1649738760
I1105 17:30:10.538437 24559 layer_factory.hpp:76] Creating layer inception_4e/5x5
I1105 17:30:10.538470 24559 net.cpp:106] Creating Layer inception_4e/5x5
I1105 17:30:10.538476 24559 net.cpp:454] inception_4e/5x5 <- inception_4e/5x5_reduce
I1105 17:30:10.538483 24559 net.cpp:411] inception_4e/5x5 -> inception_4e/5x5
I1105 17:30:10.540577 24559 cudnn_conv_layer.cpp:194] Reallocating workspace storage: 13080
I1105 17:30:10.540606 24559 net.cpp:150] Setting up inception_4e/5x5
I1105 17:30:10.540613 24559 net.cpp:157] Top shape: 32 128 14 14 (802816)
I1105 17:30:10.540617 24559 net.cpp:165] Memory required for data: 1652950024
I1105 17:30:10.540626 24559 layer_factory.hpp:76] Creating layer inception_4e/prelu_5x5
I1105 17:30:10.540633 24559 net.cpp:106] Creating Layer inception_4e/prelu_5x5
I1105 17:30:10.540638 24559 net.cpp:454] inception_4e/prelu_5x5 <- inception_4e/5x5
I1105 17:30:10.540645 24559 net.cpp:397] inception_4e/prelu_5x5 -> inception_4e/5x5 (in-place)
I1105 17:30:10.540756 24559 net.cpp:150] Setting up inception_4e/prelu_5x5
I1105 17:30:10.540767 24559 net.cpp:157] Top shape: 32 128 14 14 (802816)
I1105 17:30:10.540771 24559 net.cpp:165] Memory required for data: 1656161288
I1105 17:30:10.540777 24559 layer_factory.hpp:76] Creating layer inception_4e/pool
I1105 17:30:10.540784 24559 net.cpp:106] Creating Layer inception_4e/pool
I1105 17:30:10.540789 24559 net.cpp:454] inception_4e/pool <- inception_4d/output_inception_4d/output_0_split_4
I1105 17:30:10.540796 24559 net.cpp:411] inception_4e/pool -> inception_4e/pool
I1105 17:30:10.541179 24559 net.cpp:150] Setting up inception_4e/pool
I1105 17:30:10.541191 24559 net.cpp:157] Top shape: 32 528 14 14 (3311616)
I1105 17:30:10.541195 24559 net.cpp:165] Memory required for data: 1669407752
I1105 17:30:10.541200 24559 layer_factory.hpp:76] Creating layer inception_4e/pool_proj
I1105 17:30:10.541208 24559 net.cpp:106] Creating Layer inception_4e/pool_proj
I1105 17:30:10.541213 24559 net.cpp:454] inception_4e/pool_proj <- inception_4e/pool
I1105 17:30:10.541220 24559 net.cpp:411] inception_4e/pool_proj -> inception_4e/pool_proj
I1105 17:30:10.542541 24559 cudnn_conv_layer.cpp:194] Reallocating workspace storage: 10080
I1105 17:30:10.542572 24559 net.cpp:150] Setting up inception_4e/pool_proj
I1105 17:30:10.542579 24559 net.cpp:157] Top shape: 32 128 14 14 (802816)
I1105 17:30:10.542583 24559 net.cpp:165] Memory required for data: 1672619016
I1105 17:30:10.542590 24559 layer_factory.hpp:76] Creating layer inception_4e/prelu_pool_proj
I1105 17:30:10.542598 24559 net.cpp:106] Creating Layer inception_4e/prelu_pool_proj
I1105 17:30:10.542603 24559 net.cpp:454] inception_4e/prelu_pool_proj <- inception_4e/pool_proj
I1105 17:30:10.542610 24559 net.cpp:397] inception_4e/prelu_pool_proj -> inception_4e/pool_proj (in-place)
I1105 17:30:10.542721 24559 net.cpp:150] Setting up inception_4e/prelu_pool_proj
I1105 17:30:10.542732 24559 net.cpp:157] Top shape: 32 128 14 14 (802816)
I1105 17:30:10.542737 24559 net.cpp:165] Memory required for data: 1675830280
I1105 17:30:10.542742 24559 layer_factory.hpp:76] Creating layer inception_4e/output
I1105 17:30:10.542748 24559 net.cpp:106] Creating Layer inception_4e/output
I1105 17:30:10.542753 24559 net.cpp:454] inception_4e/output <- inception_4e/1x1
I1105 17:30:10.542758 24559 net.cpp:454] inception_4e/output <- inception_4e/3x3
I1105 17:30:10.542762 24559 net.cpp:454] inception_4e/output <- inception_4e/5x5
I1105 17:30:10.542768 24559 net.cpp:454] inception_4e/output <- inception_4e/pool_proj
I1105 17:30:10.542783 24559 net.cpp:411] inception_4e/output -> inception_4e/output
I1105 17:30:10.542812 24559 net.cpp:150] Setting up inception_4e/output
I1105 17:30:10.542837 24559 net.cpp:157] Top shape: 32 832 14 14 (5218304)
I1105 17:30:10.542842 24559 net.cpp:165] Memory required for data: 1696703496
I1105 17:30:10.542846 24559 layer_factory.hpp:76] Creating layer pool4/3x3_s2
I1105 17:30:10.542852 24559 net.cpp:106] Creating Layer pool4/3x3_s2
I1105 17:30:10.542858 24559 net.cpp:454] pool4/3x3_s2 <- inception_4e/output
I1105 17:30:10.542865 24559 net.cpp:411] pool4/3x3_s2 -> pool4/3x3_s2
I1105 17:30:10.543261 24559 net.cpp:150] Setting up pool4/3x3_s2
I1105 17:30:10.543272 24559 net.cpp:157] Top shape: 32 832 7 7 (1304576)
I1105 17:30:10.543277 24559 net.cpp:165] Memory required for data: 1701921800
I1105 17:30:10.543282 24559 layer_factory.hpp:76] Creating layer pool4/3x3_s2_pool4/3x3_s2_0_split
I1105 17:30:10.543290 24559 net.cpp:106] Creating Layer pool4/3x3_s2_pool4/3x3_s2_0_split
I1105 17:30:10.543295 24559 net.cpp:454] pool4/3x3_s2_pool4/3x3_s2_0_split <- pool4/3x3_s2
I1105 17:30:10.543301 24559 net.cpp:411] pool4/3x3_s2_pool4/3x3_s2_0_split -> pool4/3x3_s2_pool4/3x3_s2_0_split_0
I1105 17:30:10.543308 24559 net.cpp:411] pool4/3x3_s2_pool4/3x3_s2_0_split -> pool4/3x3_s2_pool4/3x3_s2_0_split_1
I1105 17:30:10.543314 24559 net.cpp:411] pool4/3x3_s2_pool4/3x3_s2_0_split -> pool4/3x3_s2_pool4/3x3_s2_0_split_2
I1105 17:30:10.543321 24559 net.cpp:411] pool4/3x3_s2_pool4/3x3_s2_0_split -> pool4/3x3_s2_pool4/3x3_s2_0_split_3
I1105 17:30:10.543388 24559 net.cpp:150] Setting up pool4/3x3_s2_pool4/3x3_s2_0_split
I1105 17:30:10.543397 24559 net.cpp:157] Top shape: 32 832 7 7 (1304576)
I1105 17:30:10.543402 24559 net.cpp:157] Top shape: 32 832 7 7 (1304576)
I1105 17:30:10.543406 24559 net.cpp:157] Top shape: 32 832 7 7 (1304576)
I1105 17:30:10.543411 24559 net.cpp:157] Top shape: 32 832 7 7 (1304576)
I1105 17:30:10.543416 24559 net.cpp:165] Memory required for data: 1722795016
I1105 17:30:10.543419 24559 layer_factory.hpp:76] Creating layer inception_5a/1x1
I1105 17:30:10.543428 24559 net.cpp:106] Creating Layer inception_5a/1x1
I1105 17:30:10.543433 24559 net.cpp:454] inception_5a/1x1 <- pool4/3x3_s2_pool4/3x3_s2_0_split_0
I1105 17:30:10.543449 24559 net.cpp:411] inception_5a/1x1 -> inception_5a/1x1
I1105 17:30:10.546344 24559 cudnn_conv_layer.cpp:194] Reallocating workspace storage: 7428
I1105 17:30:10.546391 24559 net.cpp:150] Setting up inception_5a/1x1
I1105 17:30:10.546401 24559 net.cpp:157] Top shape: 32 256 7 7 (401408)
I1105 17:30:10.546406 24559 net.cpp:165] Memory required for data: 1724400648
I1105 17:30:10.546413 24559 layer_factory.hpp:76] Creating layer inception_5a/prelu_1x1
I1105 17:30:10.546424 24559 net.cpp:106] Creating Layer inception_5a/prelu_1x1
I1105 17:30:10.546430 24559 net.cpp:454] inception_5a/prelu_1x1 <- inception_5a/1x1
I1105 17:30:10.546439 24559 net.cpp:397] inception_5a/prelu_1x1 -> inception_5a/1x1 (in-place)
I1105 17:30:10.547070 24559 net.cpp:150] Setting up inception_5a/prelu_1x1
I1105 17:30:10.547087 24559 net.cpp:157] Top shape: 32 256 7 7 (401408)
I1105 17:30:10.547091 24559 net.cpp:165] Memory required for data: 1726006280
I1105 17:30:10.547098 24559 layer_factory.hpp:76] Creating layer inception_5a/3x3_reduce
I1105 17:30:10.547111 24559 net.cpp:106] Creating Layer inception_5a/3x3_reduce
I1105 17:30:10.547116 24559 net.cpp:454] inception_5a/3x3_reduce <- pool4/3x3_s2_pool4/3x3_s2_0_split_1
I1105 17:30:10.547127 24559 net.cpp:411] inception_5a/3x3_reduce -> inception_5a/3x3_reduce
I1105 17:30:10.549506 24559 cudnn_conv_layer.cpp:194] Reallocating workspace storage: 7428
I1105 17:30:10.549546 24559 net.cpp:150] Setting up inception_5a/3x3_reduce
I1105 17:30:10.549553 24559 net.cpp:157] Top shape: 32 160 7 7 (250880)
I1105 17:30:10.549558 24559 net.cpp:165] Memory required for data: 1727009800
I1105 17:30:10.549566 24559 layer_factory.hpp:76] Creating layer inception_5a/prelu_3x3_reduce
I1105 17:30:10.549574 24559 net.cpp:106] Creating Layer inception_5a/prelu_3x3_reduce
I1105 17:30:10.549597 24559 net.cpp:454] inception_5a/prelu_3x3_reduce <- inception_5a/3x3_reduce
I1105 17:30:10.549605 24559 net.cpp:397] inception_5a/prelu_3x3_reduce -> inception_5a/3x3_reduce (in-place)
I1105 17:30:10.549731 24559 net.cpp:150] Setting up inception_5a/prelu_3x3_reduce
I1105 17:30:10.549741 24559 net.cpp:157] Top shape: 32 160 7 7 (250880)
I1105 17:30:10.549744 24559 net.cpp:165] Memory required for data: 1728013320
I1105 17:30:10.549751 24559 layer_factory.hpp:76] Creating layer inception_5a/3x3
I1105 17:30:10.549760 24559 net.cpp:106] Creating Layer inception_5a/3x3
I1105 17:30:10.549764 24559 net.cpp:454] inception_5a/3x3 <- inception_5a/3x3_reduce
I1105 17:30:10.549772 24559 net.cpp:411] inception_5a/3x3 -> inception_5a/3x3
I1105 17:30:10.553864 24559 cudnn_conv_layer.cpp:194] Reallocating workspace storage: 7788
I1105 17:30:10.553894 24559 net.cpp:150] Setting up inception_5a/3x3
I1105 17:30:10.553903 24559 net.cpp:157] Top shape: 32 320 7 7 (501760)
I1105 17:30:10.553907 24559 net.cpp:165] Memory required for data: 1730020360
I1105 17:30:10.553915 24559 layer_factory.hpp:76] Creating layer inception_5a/prelu_3x3
I1105 17:30:10.553932 24559 net.cpp:106] Creating Layer inception_5a/prelu_3x3
I1105 17:30:10.553937 24559 net.cpp:454] inception_5a/prelu_3x3 <- inception_5a/3x3
I1105 17:30:10.553944 24559 net.cpp:397] inception_5a/prelu_3x3 -> inception_5a/3x3 (in-place)
I1105 17:30:10.554064 24559 net.cpp:150] Setting up inception_5a/prelu_3x3
I1105 17:30:10.554072 24559 net.cpp:157] Top shape: 32 320 7 7 (501760)
I1105 17:30:10.554076 24559 net.cpp:165] Memory required for data: 1732027400
I1105 17:30:10.554090 24559 layer_factory.hpp:76] Creating layer inception_5a/5x5_reduce
I1105 17:30:10.554098 24559 net.cpp:106] Creating Layer inception_5a/5x5_reduce
I1105 17:30:10.554105 24559 net.cpp:454] inception_5a/5x5_reduce <- pool4/3x3_s2_pool4/3x3_s2_0_split_2
I1105 17:30:10.554111 24559 net.cpp:411] inception_5a/5x5_reduce -> inception_5a/5x5_reduce
I1105 17:30:10.555328 24559 cudnn_conv_layer.cpp:194] Reallocating workspace storage: 7428
I1105 17:30:10.555361 24559 net.cpp:150] Setting up inception_5a/5x5_reduce
I1105 17:30:10.555368 24559 net.cpp:157] Top shape: 32 32 7 7 (50176)
I1105 17:30:10.555372 24559 net.cpp:165] Memory required for data: 1732228104
I1105 17:30:10.555378 24559 layer_factory.hpp:76] Creating layer inception_5a/prelu_5x5_reduce
I1105 17:30:10.555397 24559 net.cpp:106] Creating Layer inception_5a/prelu_5x5_reduce
I1105 17:30:10.555402 24559 net.cpp:454] inception_5a/prelu_5x5_reduce <- inception_5a/5x5_reduce
I1105 17:30:10.555408 24559 net.cpp:397] inception_5a/prelu_5x5_reduce -> inception_5a/5x5_reduce (in-place)
I1105 17:30:10.555524 24559 net.cpp:150] Setting up inception_5a/prelu_5x5_reduce
I1105 17:30:10.555532 24559 net.cpp:157] Top shape: 32 32 7 7 (50176)
I1105 17:30:10.555536 24559 net.cpp:165] Memory required for data: 1732428808
I1105 17:30:10.555549 24559 layer_factory.hpp:76] Creating layer inception_5a/5x5
I1105 17:30:10.555558 24559 net.cpp:106] Creating Layer inception_5a/5x5
I1105 17:30:10.555563 24559 net.cpp:454] inception_5a/5x5 <- inception_5a/5x5_reduce
I1105 17:30:10.555570 24559 net.cpp:411] inception_5a/5x5 -> inception_5a/5x5
I1105 17:30:10.557243 24559 cudnn_conv_layer.cpp:194] Reallocating workspace storage: 9804
I1105 17:30:10.557271 24559 net.cpp:150] Setting up inception_5a/5x5
I1105 17:30:10.557277 24559 net.cpp:157] Top shape: 32 128 7 7 (200704)
I1105 17:30:10.557281 24559 net.cpp:165] Memory required for data: 1733231624
I1105 17:30:10.557288 24559 layer_factory.hpp:76] Creating layer inception_5a/prelu_5x5
I1105 17:30:10.557304 24559 net.cpp:106] Creating Layer inception_5a/prelu_5x5
I1105 17:30:10.557310 24559 net.cpp:454] inception_5a/prelu_5x5 <- inception_5a/5x5
I1105 17:30:10.557317 24559 net.cpp:397] inception_5a/prelu_5x5 -> inception_5a/5x5 (in-place)
I1105 17:30:10.557427 24559 net.cpp:150] Setting up inception_5a/prelu_5x5
I1105 17:30:10.557436 24559 net.cpp:157] Top shape: 32 128 7 7 (200704)
I1105 17:30:10.557452 24559 net.cpp:165] Memory required for data: 1734034440
I1105 17:30:10.557458 24559 layer_factory.hpp:76] Creating layer inception_5a/pool
I1105 17:30:10.557467 24559 net.cpp:106] Creating Layer inception_5a/pool
I1105 17:30:10.557472 24559 net.cpp:454] inception_5a/pool <- pool4/3x3_s2_pool4/3x3_s2_0_split_3
I1105 17:30:10.557487 24559 net.cpp:411] inception_5a/pool -> inception_5a/pool
I1105 17:30:10.557684 24559 net.cpp:150] Setting up inception_5a/pool
I1105 17:30:10.557694 24559 net.cpp:157] Top shape: 32 832 7 7 (1304576)
I1105 17:30:10.557698 24559 net.cpp:165] Memory required for data: 1739252744
I1105 17:30:10.557703 24559 layer_factory.hpp:76] Creating layer inception_5a/pool_proj
I1105 17:30:10.557711 24559 net.cpp:106] Creating Layer inception_5a/pool_proj
I1105 17:30:10.557716 24559 net.cpp:454] inception_5a/pool_proj <- inception_5a/pool
I1105 17:30:10.557723 24559 net.cpp:411] inception_5a/pool_proj -> inception_5a/pool_proj
I1105 17:30:10.560009 24559 cudnn_conv_layer.cpp:194] Reallocating workspace storage: 7428
I1105 17:30:10.560036 24559 net.cpp:150] Setting up inception_5a/pool_proj
I1105 17:30:10.560045 24559 net.cpp:157] Top shape: 32 128 7 7 (200704)
I1105 17:30:10.560048 24559 net.cpp:165] Memory required for data: 1740055560
I1105 17:30:10.560055 24559 layer_factory.hpp:76] Creating layer inception_5a/prelu_pool_proj
I1105 17:30:10.560072 24559 net.cpp:106] Creating Layer inception_5a/prelu_pool_proj
I1105 17:30:10.560077 24559 net.cpp:454] inception_5a/prelu_pool_proj <- inception_5a/pool_proj
I1105 17:30:10.560086 24559 net.cpp:397] inception_5a/prelu_pool_proj -> inception_5a/pool_proj (in-place)
I1105 17:30:10.560200 24559 net.cpp:150] Setting up inception_5a/prelu_pool_proj
I1105 17:30:10.560209 24559 net.cpp:157] Top shape: 32 128 7 7 (200704)
I1105 17:30:10.560214 24559 net.cpp:165] Memory required for data: 1740858376
I1105 17:30:10.560227 24559 layer_factory.hpp:76] Creating layer inception_5a/output
I1105 17:30:10.560235 24559 net.cpp:106] Creating Layer inception_5a/output
I1105 17:30:10.560240 24559 net.cpp:454] inception_5a/output <- inception_5a/1x1
I1105 17:30:10.560245 24559 net.cpp:454] inception_5a/output <- inception_5a/3x3
I1105 17:30:10.560250 24559 net.cpp:454] inception_5a/output <- inception_5a/5x5
I1105 17:30:10.560253 24559 net.cpp:454] inception_5a/output <- inception_5a/pool_proj
I1105 17:30:10.560261 24559 net.cpp:411] inception_5a/output -> inception_5a/output
I1105 17:30:10.560298 24559 net.cpp:150] Setting up inception_5a/output
I1105 17:30:10.560307 24559 net.cpp:157] Top shape: 32 832 7 7 (1304576)
I1105 17:30:10.560310 24559 net.cpp:165] Memory required for data: 1746076680
I1105 17:30:10.560322 24559 layer_factory.hpp:76] Creating layer inception_5a/output_inception_5a/output_0_split
I1105 17:30:10.560330 24559 net.cpp:106] Creating Layer inception_5a/output_inception_5a/output_0_split
I1105 17:30:10.560334 24559 net.cpp:454] inception_5a/output_inception_5a/output_0_split <- inception_5a/output
I1105 17:30:10.560340 24559 net.cpp:411] inception_5a/output_inception_5a/output_0_split -> inception_5a/output_inception_5a/output_0_split_0
I1105 17:30:10.560348 24559 net.cpp:411] inception_5a/output_inception_5a/output_0_split -> inception_5a/output_inception_5a/output_0_split_1
I1105 17:30:10.560359 24559 net.cpp:411] inception_5a/output_inception_5a/output_0_split -> inception_5a/output_inception_5a/output_0_split_2
I1105 17:30:10.560367 24559 net.cpp:411] inception_5a/output_inception_5a/output_0_split -> inception_5a/output_inception_5a/output_0_split_3
I1105 17:30:10.560444 24559 net.cpp:150] Setting up inception_5a/output_inception_5a/output_0_split
I1105 17:30:10.560452 24559 net.cpp:157] Top shape: 32 832 7 7 (1304576)
I1105 17:30:10.560457 24559 net.cpp:157] Top shape: 32 832 7 7 (1304576)
I1105 17:30:10.560470 24559 net.cpp:157] Top shape: 32 832 7 7 (1304576)
I1105 17:30:10.560475 24559 net.cpp:157] Top shape: 32 832 7 7 (1304576)
I1105 17:30:10.560479 24559 net.cpp:165] Memory required for data: 1766949896
I1105 17:30:10.560493 24559 layer_factory.hpp:76] Creating layer inception_5b/1x1
I1105 17:30:10.560520 24559 net.cpp:106] Creating Layer inception_5b/1x1
I1105 17:30:10.560525 24559 net.cpp:454] inception_5b/1x1 <- inception_5a/output_inception_5a/output_0_split_0
I1105 17:30:10.560533 24559 net.cpp:411] inception_5b/1x1 -> inception_5b/1x1
I1105 17:30:10.564198 24559 cudnn_conv_layer.cpp:194] Reallocating workspace storage: 7428
I1105 17:30:10.564245 24559 net.cpp:150] Setting up inception_5b/1x1
I1105 17:30:10.564256 24559 net.cpp:157] Top shape: 32 384 7 7 (602112)
I1105 17:30:10.564260 24559 net.cpp:165] Memory required for data: 1769358344
I1105 17:30:10.564270 24559 layer_factory.hpp:76] Creating layer inception_5b/prelu_1x1
I1105 17:30:10.564281 24559 net.cpp:106] Creating Layer inception_5b/prelu_1x1
I1105 17:30:10.564287 24559 net.cpp:454] inception_5b/prelu_1x1 <- inception_5b/1x1
I1105 17:30:10.564299 24559 net.cpp:397] inception_5b/prelu_1x1 -> inception_5b/1x1 (in-place)
I1105 17:30:10.564915 24559 net.cpp:150] Setting up inception_5b/prelu_1x1
I1105 17:30:10.564929 24559 net.cpp:157] Top shape: 32 384 7 7 (602112)
I1105 17:30:10.564932 24559 net.cpp:165] Memory required for data: 1771766792
I1105 17:30:10.564939 24559 layer_factory.hpp:76] Creating layer inception_5b/3x3_reduce
I1105 17:30:10.564951 24559 net.cpp:106] Creating Layer inception_5b/3x3_reduce
I1105 17:30:10.564957 24559 net.cpp:454] inception_5b/3x3_reduce <- inception_5a/output_inception_5a/output_0_split_1
I1105 17:30:10.564968 24559 net.cpp:411] inception_5b/3x3_reduce -> inception_5b/3x3_reduce
I1105 17:30:10.567633 24559 cudnn_conv_layer.cpp:194] Reallocating workspace storage: 7428
I1105 17:30:10.567678 24559 net.cpp:150] Setting up inception_5b/3x3_reduce
I1105 17:30:10.567688 24559 net.cpp:157] Top shape: 32 192 7 7 (301056)
I1105 17:30:10.567692 24559 net.cpp:165] Memory required for data: 1772971016
I1105 17:30:10.567701 24559 layer_factory.hpp:76] Creating layer inception_5b/prelu_3x3_reduce
I1105 17:30:10.567718 24559 net.cpp:106] Creating Layer inception_5b/prelu_3x3_reduce
I1105 17:30:10.567724 24559 net.cpp:454] inception_5b/prelu_3x3_reduce <- inception_5b/3x3_reduce
I1105 17:30:10.567734 24559 net.cpp:397] inception_5b/prelu_3x3_reduce -> inception_5b/3x3_reduce (in-place)
I1105 17:30:10.567857 24559 net.cpp:150] Setting up inception_5b/prelu_3x3_reduce
I1105 17:30:10.567867 24559 net.cpp:157] Top shape: 32 192 7 7 (301056)
I1105 17:30:10.567870 24559 net.cpp:165] Memory required for data: 1774175240
I1105 17:30:10.567876 24559 layer_factory.hpp:76] Creating layer inception_5b/3x3
I1105 17:30:10.567888 24559 net.cpp:106] Creating Layer inception_5b/3x3
I1105 17:30:10.567903 24559 net.cpp:454] inception_5b/3x3 <- inception_5b/3x3_reduce
I1105 17:30:10.567912 24559 net.cpp:411] inception_5b/3x3 -> inception_5b/3x3
I1105 17:30:10.573832 24559 cudnn_conv_layer.cpp:194] Reallocating workspace storage: 7788
I1105 17:30:10.573884 24559 net.cpp:150] Setting up inception_5b/3x3
I1105 17:30:10.573896 24559 net.cpp:157] Top shape: 32 384 7 7 (602112)
I1105 17:30:10.573909 24559 net.cpp:165] Memory required for data: 1776583688
I1105 17:30:10.573917 24559 layer_factory.hpp:76] Creating layer inception_5b/prelu_3x3
I1105 17:30:10.573928 24559 net.cpp:106] Creating Layer inception_5b/prelu_3x3
I1105 17:30:10.573935 24559 net.cpp:454] inception_5b/prelu_3x3 <- inception_5b/3x3
I1105 17:30:10.573943 24559 net.cpp:397] inception_5b/prelu_3x3 -> inception_5b/3x3 (in-place)
I1105 17:30:10.574087 24559 net.cpp:150] Setting up inception_5b/prelu_3x3
I1105 17:30:10.574097 24559 net.cpp:157] Top shape: 32 384 7 7 (602112)
I1105 17:30:10.574110 24559 net.cpp:165] Memory required for data: 1778992136
I1105 17:30:10.574115 24559 layer_factory.hpp:76] Creating layer inception_5b/5x5_reduce
I1105 17:30:10.574125 24559 net.cpp:106] Creating Layer inception_5b/5x5_reduce
I1105 17:30:10.574129 24559 net.cpp:454] inception_5b/5x5_reduce <- inception_5a/output_inception_5a/output_0_split_2
I1105 17:30:10.574146 24559 net.cpp:411] inception_5b/5x5_reduce -> inception_5b/5x5_reduce
I1105 17:30:10.575320 24559 cudnn_conv_layer.cpp:194] Reallocating workspace storage: 7428
I1105 17:30:10.575345 24559 net.cpp:150] Setting up inception_5b/5x5_reduce
I1105 17:30:10.575355 24559 net.cpp:157] Top shape: 32 48 7 7 (75264)
I1105 17:30:10.575358 24559 net.cpp:165] Memory required for data: 1779293192
I1105 17:30:10.575366 24559 layer_factory.hpp:76] Creating layer inception_5b/prelu_5x5_reduce
I1105 17:30:10.575381 24559 net.cpp:106] Creating Layer inception_5b/prelu_5x5_reduce
I1105 17:30:10.575386 24559 net.cpp:454] inception_5b/prelu_5x5_reduce <- inception_5b/5x5_reduce
I1105 17:30:10.575392 24559 net.cpp:397] inception_5b/prelu_5x5_reduce -> inception_5b/5x5_reduce (in-place)
I1105 17:30:10.575515 24559 net.cpp:150] Setting up inception_5b/prelu_5x5_reduce
I1105 17:30:10.575525 24559 net.cpp:157] Top shape: 32 48 7 7 (75264)
I1105 17:30:10.575528 24559 net.cpp:165] Memory required for data: 1779594248
I1105 17:30:10.575533 24559 layer_factory.hpp:76] Creating layer inception_5b/5x5
I1105 17:30:10.575541 24559 net.cpp:106] Creating Layer inception_5b/5x5
I1105 17:30:10.575546 24559 net.cpp:454] inception_5b/5x5 <- inception_5b/5x5_reduce
I1105 17:30:10.575553 24559 net.cpp:411] inception_5b/5x5 -> inception_5b/5x5
I1105 17:30:10.577519 24559 cudnn_conv_layer.cpp:194] Reallocating workspace storage: 9804
I1105 17:30:10.577546 24559 net.cpp:150] Setting up inception_5b/5x5
I1105 17:30:10.577553 24559 net.cpp:157] Top shape: 32 128 7 7 (200704)
I1105 17:30:10.577558 24559 net.cpp:165] Memory required for data: 1780397064
I1105 17:30:10.577564 24559 layer_factory.hpp:76] Creating layer inception_5b/prelu_5x5
I1105 17:30:10.577581 24559 net.cpp:106] Creating Layer inception_5b/prelu_5x5
I1105 17:30:10.577587 24559 net.cpp:454] inception_5b/prelu_5x5 <- inception_5b/5x5
I1105 17:30:10.577594 24559 net.cpp:397] inception_5b/prelu_5x5 -> inception_5b/5x5 (in-place)
I1105 17:30:10.577711 24559 net.cpp:150] Setting up inception_5b/prelu_5x5
I1105 17:30:10.577720 24559 net.cpp:157] Top shape: 32 128 7 7 (200704)
I1105 17:30:10.577724 24559 net.cpp:165] Memory required for data: 1781199880
I1105 17:30:10.577730 24559 layer_factory.hpp:76] Creating layer inception_5b/pool
I1105 17:30:10.577739 24559 net.cpp:106] Creating Layer inception_5b/pool
I1105 17:30:10.577744 24559 net.cpp:454] inception_5b/pool <- inception_5a/output_inception_5a/output_0_split_3
I1105 17:30:10.577749 24559 net.cpp:411] inception_5b/pool -> inception_5b/pool
I1105 17:30:10.578146 24559 net.cpp:150] Setting up inception_5b/pool
I1105 17:30:10.578157 24559 net.cpp:157] Top shape: 32 832 7 7 (1304576)
I1105 17:30:10.578161 24559 net.cpp:165] Memory required for data: 1786418184
I1105 17:30:10.578166 24559 layer_factory.hpp:76] Creating layer inception_5b/pool_proj
I1105 17:30:10.578176 24559 net.cpp:106] Creating Layer inception_5b/pool_proj
I1105 17:30:10.578182 24559 net.cpp:454] inception_5b/pool_proj <- inception_5b/pool
I1105 17:30:10.578188 24559 net.cpp:411] inception_5b/pool_proj -> inception_5b/pool_proj
I1105 17:30:10.580361 24559 cudnn_conv_layer.cpp:194] Reallocating workspace storage: 7428
I1105 17:30:10.580389 24559 net.cpp:150] Setting up inception_5b/pool_proj
I1105 17:30:10.580397 24559 net.cpp:157] Top shape: 32 128 7 7 (200704)
I1105 17:30:10.580401 24559 net.cpp:165] Memory required for data: 1787221000
I1105 17:30:10.580409 24559 layer_factory.hpp:76] Creating layer inception_5b/prelu_pool_proj
I1105 17:30:10.580426 24559 net.cpp:106] Creating Layer inception_5b/prelu_pool_proj
I1105 17:30:10.580432 24559 net.cpp:454] inception_5b/prelu_pool_proj <- inception_5b/pool_proj
I1105 17:30:10.580438 24559 net.cpp:397] inception_5b/prelu_pool_proj -> inception_5b/pool_proj (in-place)
I1105 17:30:10.580549 24559 net.cpp:150] Setting up inception_5b/prelu_pool_proj
I1105 17:30:10.580559 24559 net.cpp:157] Top shape: 32 128 7 7 (200704)
I1105 17:30:10.580562 24559 net.cpp:165] Memory required for data: 1788023816
I1105 17:30:10.580569 24559 layer_factory.hpp:76] Creating layer inception_5b/output
I1105 17:30:10.580575 24559 net.cpp:106] Creating Layer inception_5b/output
I1105 17:30:10.580590 24559 net.cpp:454] inception_5b/output <- inception_5b/1x1
I1105 17:30:10.580596 24559 net.cpp:454] inception_5b/output <- inception_5b/3x3
I1105 17:30:10.580610 24559 net.cpp:454] inception_5b/output <- inception_5b/5x5
I1105 17:30:10.580615 24559 net.cpp:454] inception_5b/output <- inception_5b/pool_proj
I1105 17:30:10.580621 24559 net.cpp:411] inception_5b/output -> inception_5b/output
I1105 17:30:10.580674 24559 net.cpp:150] Setting up inception_5b/output
I1105 17:30:10.580687 24559 net.cpp:157] Top shape: 32 1024 7 7 (1605632)
I1105 17:30:10.580690 24559 net.cpp:165] Memory required for data: 1794446344
I1105 17:30:10.580694 24559 layer_factory.hpp:76] Creating layer pool5/7x7_s1
I1105 17:30:10.580701 24559 net.cpp:106] Creating Layer pool5/7x7_s1
I1105 17:30:10.580706 24559 net.cpp:454] pool5/7x7_s1 <- inception_5b/output
I1105 17:30:10.580713 24559 net.cpp:411] pool5/7x7_s1 -> pool5/7x7_s1
I1105 17:30:10.580904 24559 net.cpp:150] Setting up pool5/7x7_s1
I1105 17:30:10.580914 24559 net.cpp:157] Top shape: 32 1024 1 1 (32768)
I1105 17:30:10.580919 24559 net.cpp:165] Memory required for data: 1794577416
I1105 17:30:10.580931 24559 layer_factory.hpp:76] Creating layer pool5/drop_7x7_s1
I1105 17:30:10.580938 24559 net.cpp:106] Creating Layer pool5/drop_7x7_s1
I1105 17:30:10.580942 24559 net.cpp:454] pool5/drop_7x7_s1 <- pool5/7x7_s1
I1105 17:30:10.580950 24559 net.cpp:397] pool5/drop_7x7_s1 -> pool5/7x7_s1 (in-place)
I1105 17:30:10.580981 24559 net.cpp:150] Setting up pool5/drop_7x7_s1
I1105 17:30:10.580991 24559 net.cpp:157] Top shape: 32 1024 1 1 (32768)
I1105 17:30:10.581009 24559 net.cpp:165] Memory required for data: 1794708488
I1105 17:30:10.581014 24559 layer_factory.hpp:76] Creating layer loss3/classifier2
I1105 17:30:10.581022 24559 net.cpp:106] Creating Layer loss3/classifier2
I1105 17:30:10.581027 24559 net.cpp:454] loss3/classifier2 <- pool5/7x7_s1
I1105 17:30:10.581033 24559 net.cpp:411] loss3/classifier2 -> loss3/classifier
I1105 17:30:10.581200 24559 net.cpp:150] Setting up loss3/classifier2
I1105 17:30:10.581218 24559 net.cpp:157] Top shape: 32 2 (64)
I1105 17:30:10.581223 24559 net.cpp:165] Memory required for data: 1794708744
I1105 17:30:10.581238 24559 layer_factory.hpp:76] Creating layer loss3/loss3
I1105 17:30:10.581245 24559 net.cpp:106] Creating Layer loss3/loss3
I1105 17:30:10.581257 24559 net.cpp:454] loss3/loss3 <- loss3/classifier
I1105 17:30:10.581264 24559 net.cpp:454] loss3/loss3 <- label_data_1_split_2
I1105 17:30:10.581279 24559 net.cpp:411] loss3/loss3 -> loss3/loss3
…
I1105 17:30:10.586086 24559 net.cpp:322] The NetState phase (1) differed from the phase (0) specified by a rule in layer data
I1105 17:30:10.587070 24559 net.cpp:49] Initializing net from parameters: 
name: "GoogleNet"
state {
  phase: TEST
}
layer {
  name: "data"
  type: "Data"
  top: "data"
  top: "label"
  include {
    phase: TEST
  }
  transform_param {
    mirror: false
    crop_size: 224
    mean_value: 104
    mean_value: 117
    mean_value: 123
  }
  data_param {
    source: "../../LMDB/val_4-lmdb"
    batch_size: 50
    backend: LMDB
  }
}
layer {
  name: "conv1/7x7_s2"
  type: "Convolution"
  bottom: "data"
  top: "conv1/7x7_s2"
  param {
    lr_mult: 1
    decay_mult: 1
  }
  param {
    lr_mult: 2
    decay_mult: 0
  }
  convolution_param {
    num_output: 64
    pad: 3
    kernel_size: 7
    stride: 2
    weight_filler {
      type: "xavier"
    }
    bias_filler {
      type: "constant"
      value: 0.2
    }
  }
}
layer {
  name: "conv1/prelu_7x7"
  type: "PReLU"
  bottom: "conv1/7x7_s2"
  top: "conv1/7x7_s2"
  param {
    lr_mult: 1
    decay_mult: 0
  }
  prelu_param {
    filler {
      type: "constant"
      value: 0.01
    }
  }
}
layer {
  name: "pool1/3x3_s2"
  type: "Pooling"
  bottom: "conv1/7x7_s2"
  top: "pool1/3x3_s2"
  pooling_param {
    pool: MAX
    kernel_size: 3
    stride: 2
  }
}
layer {
  name: "pool1/norm1"
  type: "LRN"
  bottom: "pool1/3x3_s2"
  top: "pool1/norm1"
  lrn_param {
    local_size: 5
    alpha: 0.0001
    beta: 0.75
  }
}
layer {
  name: "conv2/3x3_reduce"
  type: "Convolution"
  bottom: "pool1/norm1"
  top: "conv2/3x3_reduce"
  param {
    lr_mult: 1
    decay_mult: 1
  }
  param {
    lr_mult: 2
    decay_mult: 0
  }
  convolution_param {
    num_output: 64
    kernel_size: 1
    weight_filler {
      type: "xavier"
    }
    bias_filler {
      type: "constant"
      value: 0.2
    }
  }
}
layer {
  name: "conv2/prelu_3x3_reduce"
  type: "PReLU"
  bottom: "conv2/3x3_reduce"
  top: "conv2/3x3_reduce"
  param {
    lr_mult: 1
    decay_mult: 0
  }
  prelu_param {
    filler {
      type: "constant"
      value: 0.01
    }
  }
}
layer {
  name: "conv2/3x3"
  type: "Convolution"
  bottom: "conv2/3x3_reduce"
  top: "conv2/3x3"
  param {
    lr_mult: 1
    decay_mult: 1
  }
  param {
    lr_mult: 2
    decay_mult: 0
  }
  convolution_param {
    num_output: 192
    pad: 1
    kernel_size: 3
    weight_filler {
      type: "xavier"
    }
    bias_filler {
      type: "constant"
      value: 0.2
    }
  }
}
layer {
  name: "conv2/prelu_3x3"
  type: "PReLU"
  bottom: "conv2/3x3"
  top: "conv2/3x3"
  param {
    lr_mult: 1
    decay_mult: 0
  }
  prelu_param {
    filler {
      type: "constant"
      value: 0.01
    }
  }
}
layer {
  name: "conv2/norm2"
  type: "LRN"
  bottom: "conv2/3x3"
  top: "conv2/norm2"
  lrn_param {
    local_size: 5
    alpha: 0.0001
    beta: 0.75
  }
}
layer {
  name: "pool2/3x3_s2"
  type: "Pooling"
  bottom: "conv2/norm2"
  top: "pool2/3x3_s2"
  pooling_param {
    pool: MAX
    kernel_size: 3
    stride: 2
  }
}
layer {
  name: "inception_3a/1x1"
  type: "Convolution"
  bottom: "pool2/3x3_s2"
  top: "inception_3a/1x1"
  param {
    lr_mult: 1
    decay_mult: 1
  }
  param {
    lr_mult: 2
    decay_mult: 0
  }
  convolution_param {
    num_output: 64
    kernel_size: 1
    weight_filler {
      type: "xavier"
    }
    bias_filler {
      type: "constant"
      value: 0.2
    }
  }
}
layer {
  name: "inception_3a/prelu_1x1"
  type: "PReLU"
  bottom: "inception_3a/1x1"
  top: "inception_3a/1x1"
  param {
    lr_mult: 1
    decay_mult: 0
  }
  prelu_param {
    filler {
      type: "constant"
      value: 0.01
    }
  }
}
layer {
  name: "inception_3a/3x3_reduce"
  type: "Convolution"
  bottom: "pool2/3x3_s2"
  top: "inception_3a/3x3_reduce"
  param {
    lr_mult: 1
    decay_mult: 1
  }
  param {
    lr_mult: 2
    decay_mult: 0
  }
  convolution_param {
    num_output: 96
    kernel_size: 1
    weight_filler {
      type: "xavier"
    }
    bias_filler {
      type: "constant"
      value: 0.2
    }
  }
}
layer {
  name: "inception_3a/prelu_3x3_reduce"
  type: "PReLU"
  bottom: "inception_3a/3x3_reduce"
  top: "inception_3a/3x3_reduce"
  param {
    lr_mult: 1
    decay_mult: 0
  }
  prelu_param {
    filler {
      type: "constant"
      value: 0.01
    }
  }
}
layer {
  name: "inception_3a/3x3"
  type: "Convolution"
  bottom: "inception_3a/3x3_reduce"
  top: "inception_3a/3x3"
  param {
    lr_mult: 1
    decay_mult: 1
  }
  param {
    lr_mult: 2
    decay_mult: 0
  }
  convolution_param {
    num_output: 128
    pad: 1
    kernel_size: 3
    weight_filler {
      type: "xavier"
    }
    bias_filler {
      type: "constant"
      value: 0.2
    }
  }
}
layer {
  name: "inception_3a/prelu_3x3"
  type: "PReLU"
  bottom: "inception_3a/3x3"
  top: "inception_3a/3x3"
  param {
    lr_mult: 1
    decay_mult: 0
  }
  prelu_param {
    filler {
      type: "constant"
      value: 0.01
    }
  }
}
layer {
  name: "inception_3a/5x5_reduce"
  type: "Convolution"
  bottom: "pool2/3x3_s2"
  top: "inception_3a/5x5_reduce"
  param {
    lr_mult: 1
    decay_mult: 1
  }
  param {
    lr_mult: 2
    decay_mult: 0
  }
  convolution_param {
    num_output: 16
    kernel_size: 1
    weight_filler {
      type: "xavier"
    }
    bias_filler {
      type: "constant"
      value: 0.2
    }
  }
}
layer {
  name: "inception_3a/prelu_5x5_reduce"
  type: "PReLU"
  bottom: "inception_3a/5x5_reduce"
  top: "inception_3a/5x5_reduce"
  param {
    lr_mult: 1
    decay_mult: 0
  }
  prelu_param {
    filler {
      type: "constant"
      value: 0.01
    }
  }
}
layer {
  name: "inception_3a/5x5"
  type: "Convolution"
  bottom: "inception_3a/5x5_reduce"
  top: "inception_3a/5x5"
  param {
    lr_mult: 1
    decay_mult: 1
  }
  param {
    lr_mult: 2
    decay_mult: 0
  }
  convolution_param {
    num_output: 32
    pad: 2
    kernel_size: 5
    weight_filler {
      type: "xavier"
    }
    bias_filler {
      type: "constant"
      value: 0.2
    }
  }
}
layer {
  name: "inception_3a/prelu_5x5"
  type: "PReLU"
  bottom: "inception_3a/5x5"
  top: "inception_3a/5x5"
  param {
    lr_mult: 1
    decay_mult: 0
  }
  prelu_param {
    filler {
      type: "constant"
      value: 0.01
    }
  }
}
layer {
  name: "inception_3a/pool"
  type: "Pooling"
  bottom: "pool2/3x3_s2"
  top: "inception_3a/pool"
  pooling_param {
    pool: MAX
    kernel_size: 3
    stride: 1
    pad: 1
  }
}
layer {
  name: "inception_3a/pool_proj"
  type: "Convolution"
  bottom: "inception_3a/pool"
  top: "inception_3a/pool_proj"
  param {
    lr_mult: 1
    decay_mult: 1
  }
  param {
    lr_mult: 2
    decay_mult: 0
  }
  convolution_param {
    num_output: 32
    kernel_size: 1
    weight_filler {
      type: "xavier"
    }
    bias_filler {
      type: "constant"
      value: 0.2
    }
  }
}
layer {
  name: "inception_3a/prelu_pool_proj"
  type: "PReLU"
  bottom: "inception_3a/pool_proj"
  top: "inception_3a/pool_proj"
  param {
    lr_mult: 1
    decay_mult: 0
  }
  prelu_param {
    filler {
      type: "constant"
      value: 0.01
    }
  }
}
layer {
  name: "inception_3a/output"
  type: "Concat"
  bottom: "inception_3a/1x1"
  bottom: "inception_3a/3x3"
  bottom: "inception_3a/5x5"
  bottom: "inception_3a/pool_proj"
  top: "inception_3a/output"
}
layer {
  name: "inception_3b/1x1"
  type: "Convolution"
  bottom: "inception_3a/output"
  top: "inception_3b/1x1"
  param {
    lr_mult: 1
    decay_mult: 1
  }
  param {
    lr_mult: 2
    decay_mult: 0
  }
  convolution_param {
    num_output: 128
    kernel_size: 1
    weight_filler {
      type: "xavier"
    }
    bias_filler {
      type: "constant"
      value: 0.2
    }
  }
}
layer {
  name: "inception_3b/prelu_1x1"
  type: "PReLU"
  bottom: "inception_3b/1x1"
  top: "inception_3b/1x1"
  param {
    lr_mult: 1
    decay_mult: 0
  }
  prelu_param {
    filler {
      type: "constant"
      value: 0.01
    }
  }
}
layer {
  name: "inception_3b/3x3_reduce"
  type: "Convolution"
  bottom: "inception_3a/output"
  top: "inception_3b/3x3_reduce"
  param {
    lr_mult: 1
    decay_mult: 1
  }
  param {
    lr_mult: 2
    decay_mult: 0
  }
  convolution_param {
    num_output: 128
    kernel_size: 1
    weight_filler {
      type: "xavier"
    }
    bias_filler {
      type: "constant"
      value: 0.2
    }
  }
}
layer {
  name: "inception_3b/prelu_3x3_reduce"
  type: "PReLU"
  bottom: "inception_3b/3x3_reduce"
  top: "inception_3b/3x3_reduce"
  param {
    lr_mult: 1
    decay_mult: 0
  }
  prelu_param {
    filler {
      type: "constant"
      value: 0.01
    }
  }
}
layer {
  name: "inception_3b/3x3"
  type: "Convolution"
  bottom: "inception_3b/3x3_reduce"
  top: "inception_3b/3x3"
  param {
    lr_mult: 1
    decay_mult: 1
  }
  param {
    lr_mult: 2
    decay_mult: 0
  }
  convolution_param {
    num_output: 192
    pad: 1
    kernel_size: 3
    weight_filler {
      type: "xavier"
    }
…
I1105 17:30:10.862242 24559 net.cpp:106] Creating Layer inception_4c/output
I1105 17:30:10.862247 24559 net.cpp:454] inception_4c/output <- inception_4c/1x1
I1105 17:30:10.862253 24559 net.cpp:454] inception_4c/output <- inception_4c/3x3
I1105 17:30:10.862258 24559 net.cpp:454] inception_4c/output <- inception_4c/5x5
I1105 17:30:10.862262 24559 net.cpp:454] inception_4c/output <- inception_4c/pool_proj
I1105 17:30:10.862268 24559 net.cpp:411] inception_4c/output -> inception_4c/output
I1105 17:30:10.862293 24559 net.cpp:150] Setting up inception_4c/output
I1105 17:30:10.862300 24559 net.cpp:157] Top shape: 50 512 14 14 (5017600)
I1105 17:30:10.862304 24559 net.cpp:165] Memory required for data: 2234652208
I1105 17:30:10.862308 24559 layer_factory.hpp:76] Creating layer inception_4c/output_inception_4c/output_0_split
I1105 17:30:10.862315 24559 net.cpp:106] Creating Layer inception_4c/output_inception_4c/output_0_split
I1105 17:30:10.862320 24559 net.cpp:454] inception_4c/output_inception_4c/output_0_split <- inception_4c/output
I1105 17:30:10.862328 24559 net.cpp:411] inception_4c/output_inception_4c/output_0_split -> inception_4c/output_inception_4c/output_0_split_0
I1105 17:30:10.862335 24559 net.cpp:411] inception_4c/output_inception_4c/output_0_split -> inception_4c/output_inception_4c/output_0_split_1
I1105 17:30:10.862342 24559 net.cpp:411] inception_4c/output_inception_4c/output_0_split -> inception_4c/output_inception_4c/output_0_split_2
I1105 17:30:10.862349 24559 net.cpp:411] inception_4c/output_inception_4c/output_0_split -> inception_4c/output_inception_4c/output_0_split_3
I1105 17:30:10.862423 24559 net.cpp:150] Setting up inception_4c/output_inception_4c/output_0_split
I1105 17:30:10.862432 24559 net.cpp:157] Top shape: 50 512 14 14 (5017600)
I1105 17:30:10.862445 24559 net.cpp:157] Top shape: 50 512 14 14 (5017600)
I1105 17:30:10.862450 24559 net.cpp:157] Top shape: 50 512 14 14 (5017600)
I1105 17:30:10.862455 24559 net.cpp:157] Top shape: 50 512 14 14 (5017600)
I1105 17:30:10.862459 24559 net.cpp:165] Memory required for data: 2314933808
I1105 17:30:10.862463 24559 layer_factory.hpp:76] Creating layer inception_4d/1x1
I1105 17:30:10.862473 24559 net.cpp:106] Creating Layer inception_4d/1x1
I1105 17:30:10.862478 24559 net.cpp:454] inception_4d/1x1 <- inception_4c/output_inception_4c/output_0_split_0
I1105 17:30:10.862486 24559 net.cpp:411] inception_4d/1x1 -> inception_4d/1x1
I1105 17:30:10.863979 24559 cudnn_conv_layer.cpp:194] Reallocating workspace storage: 10080
I1105 17:30:10.864027 24559 net.cpp:150] Setting up inception_4d/1x1
I1105 17:30:10.864037 24559 net.cpp:157] Top shape: 50 112 14 14 (1097600)
I1105 17:30:10.864042 24559 net.cpp:165] Memory required for data: 2319324208
I1105 17:30:10.864048 24559 layer_factory.hpp:76] Creating layer inception_4d/prelu_1x1
I1105 17:30:10.864058 24559 net.cpp:106] Creating Layer inception_4d/prelu_1x1
I1105 17:30:10.864064 24559 net.cpp:454] inception_4d/prelu_1x1 <- inception_4d/1x1
I1105 17:30:10.864070 24559 net.cpp:397] inception_4d/prelu_1x1 -> inception_4d/1x1 (in-place)
I1105 17:30:10.864176 24559 net.cpp:150] Setting up inception_4d/prelu_1x1
I1105 17:30:10.864186 24559 net.cpp:157] Top shape: 50 112 14 14 (1097600)
I1105 17:30:10.864189 24559 net.cpp:165] Memory required for data: 2323714608
I1105 17:30:10.864204 24559 layer_factory.hpp:76] Creating layer inception_4d/3x3_reduce
I1105 17:30:10.864214 24559 net.cpp:106] Creating Layer inception_4d/3x3_reduce
I1105 17:30:10.864219 24559 net.cpp:454] inception_4d/3x3_reduce <- inception_4c/output_inception_4c/output_0_split_1
I1105 17:30:10.864228 24559 net.cpp:411] inception_4d/3x3_reduce -> inception_4d/3x3_reduce
I1105 17:30:10.865797 24559 cudnn_conv_layer.cpp:194] Reallocating workspace storage: 10080
I1105 17:30:10.865844 24559 net.cpp:150] Setting up inception_4d/3x3_reduce
I1105 17:30:10.865854 24559 net.cpp:157] Top shape: 50 144 14 14 (1411200)
I1105 17:30:10.865859 24559 net.cpp:165] Memory required for data: 2329359408
I1105 17:30:10.865866 24559 layer_factory.hpp:76] Creating layer inception_4d/prelu_3x3_reduce
I1105 17:30:10.865876 24559 net.cpp:106] Creating Layer inception_4d/prelu_3x3_reduce
I1105 17:30:10.865882 24559 net.cpp:454] inception_4d/prelu_3x3_reduce <- inception_4d/3x3_reduce
I1105 17:30:10.865890 24559 net.cpp:397] inception_4d/prelu_3x3_reduce -> inception_4d/3x3_reduce (in-place)
I1105 17:30:10.866016 24559 net.cpp:150] Setting up inception_4d/prelu_3x3_reduce
I1105 17:30:10.866026 24559 net.cpp:157] Top shape: 50 144 14 14 (1411200)
I1105 17:30:10.866029 24559 net.cpp:165] Memory required for data: 2335004208
I1105 17:30:10.866044 24559 layer_factory.hpp:76] Creating layer inception_4d/3x3
I1105 17:30:10.866055 24559 net.cpp:106] Creating Layer inception_4d/3x3
I1105 17:30:10.866060 24559 net.cpp:454] inception_4d/3x3 <- inception_4d/3x3_reduce
I1105 17:30:10.866068 24559 net.cpp:411] inception_4d/3x3 -> inception_4d/3x3
I1105 17:30:10.870481 24559 cudnn_conv_layer.cpp:194] Reallocating workspace storage: 10080
I1105 17:30:10.870553 24559 net.cpp:150] Setting up inception_4d/3x3
I1105 17:30:10.870566 24559 net.cpp:157] Top shape: 50 288 14 14 (2822400)
I1105 17:30:10.870571 24559 net.cpp:165] Memory required for data: 2346293808
I1105 17:30:10.870582 24559 layer_factory.hpp:76] Creating layer inception_4d/prelu_3x3
I1105 17:30:10.870599 24559 net.cpp:106] Creating Layer inception_4d/prelu_3x3
I1105 17:30:10.870609 24559 net.cpp:454] inception_4d/prelu_3x3 <- inception_4d/3x3
I1105 17:30:10.870618 24559 net.cpp:397] inception_4d/prelu_3x3 -> inception_4d/3x3 (in-place)
I1105 17:30:10.871415 24559 net.cpp:150] Setting up inception_4d/prelu_3x3
I1105 17:30:10.871448 24559 net.cpp:157] Top shape: 50 288 14 14 (2822400)
I1105 17:30:10.871455 24559 net.cpp:165] Memory required for data: 2357583408
I1105 17:30:10.871466 24559 layer_factory.hpp:76] Creating layer inception_4d/5x5_reduce
I1105 17:30:10.871484 24559 net.cpp:106] Creating Layer inception_4d/5x5_reduce
I1105 17:30:10.871490 24559 net.cpp:454] inception_4d/5x5_reduce <- inception_4c/output_inception_4c/output_0_split_2
I1105 17:30:10.871502 24559 net.cpp:411] inception_4d/5x5_reduce -> inception_4d/5x5_reduce
I1105 17:30:10.873878 24559 cudnn_conv_layer.cpp:194] Reallocating workspace storage: 10080
I1105 17:30:10.873953 24559 net.cpp:150] Setting up inception_4d/5x5_reduce
I1105 17:30:10.873975 24559 net.cpp:157] Top shape: 50 32 14 14 (313600)
I1105 17:30:10.873980 24559 net.cpp:165] Memory required for data: 2358837808
I1105 17:30:10.873991 24559 layer_factory.hpp:76] Creating layer inception_4d/prelu_5x5_reduce
I1105 17:30:10.874011 24559 net.cpp:106] Creating Layer inception_4d/prelu_5x5_reduce
I1105 17:30:10.874022 24559 net.cpp:454] inception_4d/prelu_5x5_reduce <- inception_4d/5x5_reduce
I1105 17:30:10.874037 24559 net.cpp:397] inception_4d/prelu_5x5_reduce -> inception_4d/5x5_reduce (in-place)
I1105 17:30:10.874183 24559 net.cpp:150] Setting up inception_4d/prelu_5x5_reduce
I1105 17:30:10.874197 24559 net.cpp:157] Top shape: 50 32 14 14 (313600)
I1105 17:30:10.874202 24559 net.cpp:165] Memory required for data: 2360092208
I1105 17:30:10.874207 24559 layer_factory.hpp:76] Creating layer inception_4d/5x5
I1105 17:30:10.874220 24559 net.cpp:106] Creating Layer inception_4d/5x5
I1105 17:30:10.874225 24559 net.cpp:454] inception_4d/5x5 <- inception_4d/5x5_reduce
I1105 17:30:10.874234 24559 net.cpp:411] inception_4d/5x5 -> inception_4d/5x5
I1105 17:30:10.875761 24559 cudnn_conv_layer.cpp:194] Reallocating workspace storage: 13080
I1105 17:30:10.875804 24559 net.cpp:150] Setting up inception_4d/5x5
I1105 17:30:10.875814 24559 net.cpp:157] Top shape: 50 64 14 14 (627200)
I1105 17:30:10.875819 24559 net.cpp:165] Memory required for data: 2362601008
I1105 17:30:10.875828 24559 layer_factory.hpp:76] Creating layer inception_4d/prelu_5x5
I1105 17:30:10.875841 24559 net.cpp:106] Creating Layer inception_4d/prelu_5x5
I1105 17:30:10.875849 24559 net.cpp:454] inception_4d/prelu_5x5 <- inception_4d/5x5
I1105 17:30:10.875857 24559 net.cpp:397] inception_4d/prelu_5x5 -> inception_4d/5x5 (in-place)
I1105 17:30:10.875965 24559 net.cpp:150] Setting up inception_4d/prelu_5x5
I1105 17:30:10.875974 24559 net.cpp:157] Top shape: 50 64 14 14 (627200)
I1105 17:30:10.875989 24559 net.cpp:165] Memory required for data: 2365109808
I1105 17:30:10.875995 24559 layer_factory.hpp:76] Creating layer inception_4d/pool
I1105 17:30:10.876006 24559 net.cpp:106] Creating Layer inception_4d/pool
I1105 17:30:10.876013 24559 net.cpp:454] inception_4d/pool <- inception_4c/output_inception_4c/output_0_split_3
I1105 17:30:10.876019 24559 net.cpp:411] inception_4d/pool -> inception_4d/pool
I1105 17:30:10.876587 24559 net.cpp:150] Setting up inception_4d/pool
I1105 17:30:10.876601 24559 net.cpp:157] Top shape: 50 512 14 14 (5017600)
I1105 17:30:10.876617 24559 net.cpp:165] Memory required for data: 2385180208
I1105 17:30:10.876622 24559 layer_factory.hpp:76] Creating layer inception_4d/pool_proj
I1105 17:30:10.876633 24559 net.cpp:106] Creating Layer inception_4d/pool_proj
I1105 17:30:10.876639 24559 net.cpp:454] inception_4d/pool_proj <- inception_4d/pool
I1105 17:30:10.876646 24559 net.cpp:411] inception_4d/pool_proj -> inception_4d/pool_proj
I1105 17:30:10.878177 24559 cudnn_conv_layer.cpp:194] Reallocating workspace storage: 10080
I1105 17:30:10.878232 24559 net.cpp:150] Setting up inception_4d/pool_proj
I1105 17:30:10.878243 24559 net.cpp:157] Top shape: 50 64 14 14 (627200)
I1105 17:30:10.878248 24559 net.cpp:165] Memory required for data: 2387689008
I1105 17:30:10.878257 24559 layer_factory.hpp:76] Creating layer inception_4d/prelu_pool_proj
I1105 17:30:10.878298 24559 net.cpp:106] Creating Layer inception_4d/prelu_pool_proj
I1105 17:30:10.878316 24559 net.cpp:454] inception_4d/prelu_pool_proj <- inception_4d/pool_proj
I1105 17:30:10.878322 24559 net.cpp:397] inception_4d/prelu_pool_proj -> inception_4d/pool_proj (in-place)
I1105 17:30:10.878428 24559 net.cpp:150] Setting up inception_4d/prelu_pool_proj
I1105 17:30:10.878437 24559 net.cpp:157] Top shape: 50 64 14 14 (627200)
I1105 17:30:10.878442 24559 net.cpp:165] Memory required for data: 2390197808
I1105 17:30:10.878458 24559 layer_factory.hpp:76] Creating layer inception_4d/output
I1105 17:30:10.878468 24559 net.cpp:106] Creating Layer inception_4d/output
I1105 17:30:10.878473 24559 net.cpp:454] inception_4d/output <- inception_4d/1x1
I1105 17:30:10.878478 24559 net.cpp:454] inception_4d/output <- inception_4d/3x3
I1105 17:30:10.878482 24559 net.cpp:454] inception_4d/output <- inception_4d/5x5
I1105 17:30:10.878487 24559 net.cpp:454] inception_4d/output <- inception_4d/pool_proj
I1105 17:30:10.878492 24559 net.cpp:411] inception_4d/output -> inception_4d/output
I1105 17:30:10.878520 24559 net.cpp:150] Setting up inception_4d/output
I1105 17:30:10.878530 24559 net.cpp:157] Top shape: 50 528 14 14 (5174400)
I1105 17:30:10.878535 24559 net.cpp:165] Memory required for data: 2410895408
I1105 17:30:10.878538 24559 layer_factory.hpp:76] Creating layer inception_4d/output_inception_4d/output_0_split
I1105 17:30:10.878545 24559 net.cpp:106] Creating Layer inception_4d/output_inception_4d/output_0_split
I1105 17:30:10.878550 24559 net.cpp:454] inception_4d/output_inception_4d/output_0_split <- inception_4d/output
I1105 17:30:10.878557 24559 net.cpp:411] inception_4d/output_inception_4d/output_0_split -> inception_4d/output_inception_4d/output_0_split_0
I1105 17:30:10.878564 24559 net.cpp:411] inception_4d/output_inception_4d/output_0_split -> inception_4d/output_inception_4d/output_0_split_1
I1105 17:30:10.878571 24559 net.cpp:411] inception_4d/output_inception_4d/output_0_split -> inception_4d/output_inception_4d/output_0_split_2
I1105 17:30:10.878578 24559 net.cpp:411] inception_4d/output_inception_4d/output_0_split -> inception_4d/output_inception_4d/output_0_split_3
I1105 17:30:10.878585 24559 net.cpp:411] inception_4d/output_inception_4d/output_0_split -> inception_4d/output_inception_4d/output_0_split_4
I1105 17:30:10.878655 24559 net.cpp:150] Setting up inception_4d/output_inception_4d/output_0_split
I1105 17:30:10.878664 24559 net.cpp:157] Top shape: 50 528 14 14 (5174400)
I1105 17:30:10.878680 24559 net.cpp:157] Top shape: 50 528 14 14 (5174400)
I1105 17:30:10.878685 24559 net.cpp:157] Top shape: 50 528 14 14 (5174400)
I1105 17:30:10.878690 24559 net.cpp:157] Top shape: 50 528 14 14 (5174400)
I1105 17:30:10.878695 24559 net.cpp:157] Top shape: 50 528 14 14 (5174400)
I1105 17:30:10.878700 24559 net.cpp:165] Memory required for data: 2514383408
I1105 17:30:10.878703 24559 layer_factory.hpp:76] Creating layer loss2/ave_pool
I1105 17:30:10.878711 24559 net.cpp:106] Creating Layer loss2/ave_pool
I1105 17:30:10.878716 24559 net.cpp:454] loss2/ave_pool <- inception_4d/output_inception_4d/output_0_split_0
I1105 17:30:10.878723 24559 net.cpp:411] loss2/ave_pool -> loss2/ave_pool
I1105 17:30:10.878926 24559 net.cpp:150] Setting up loss2/ave_pool
I1105 17:30:10.878937 24559 net.cpp:157] Top shape: 50 528 4 4 (422400)
I1105 17:30:10.878952 24559 net.cpp:165] Memory required for data: 2516073008
I1105 17:30:10.878957 24559 layer_factory.hpp:76] Creating layer loss2/conv
I1105 17:30:10.878967 24559 net.cpp:106] Creating Layer loss2/conv
I1105 17:30:10.878972 24559 net.cpp:454] loss2/conv <- loss2/ave_pool
I1105 17:30:10.878979 24559 net.cpp:411] loss2/conv -> loss2/conv
I1105 17:30:10.880753 24559 cudnn_conv_layer.cpp:194] Reallocating workspace storage: 6840
I1105 17:30:10.880802 24559 net.cpp:150] Setting up loss2/conv
I1105 17:30:10.880812 24559 net.cpp:157] Top shape: 50 128 4 4 (102400)
I1105 17:30:10.880816 24559 net.cpp:165] Memory required for data: 2516482608
I1105 17:30:10.880825 24559 layer_factory.hpp:76] Creating layer loss2/prelu_conv
I1105 17:30:10.880847 24559 net.cpp:106] Creating Layer loss2/prelu_conv
I1105 17:30:10.880856 24559 net.cpp:454] loss2/prelu_conv <- loss2/conv
I1105 17:30:10.880863 24559 net.cpp:397] loss2/prelu_conv -> loss2/conv (in-place)
I1105 17:30:10.880977 24559 net.cpp:150] Setting up loss2/prelu_conv
I1105 17:30:10.880986 24559 net.cpp:157] Top shape: 50 128 4 4 (102400)
I1105 17:30:10.880991 24559 net.cpp:165] Memory required for data: 2516892208
I1105 17:30:10.881006 24559 layer_factory.hpp:76] Creating layer loss2/fc
I1105 17:30:10.881013 24559 net.cpp:106] Creating Layer loss2/fc
I1105 17:30:10.881018 24559 net.cpp:454] loss2/fc <- loss2/conv
I1105 17:30:10.881026 24559 net.cpp:411] loss2/fc -> loss2/fc
I1105 17:30:10.896586 24559 net.cpp:150] Setting up loss2/fc
I1105 17:30:10.896634 24559 net.cpp:157] Top shape: 50 1024 (51200)
I1105 17:30:10.896639 24559 net.cpp:165] Memory required for data: 2517097008
I1105 17:30:10.896670 24559 layer_factory.hpp:76] Creating layer loss2/prelu_fc
I1105 17:30:10.896687 24559 net.cpp:106] Creating Layer loss2/prelu_fc
I1105 17:30:10.896693 24559 net.cpp:454] loss2/prelu_fc <- loss2/fc
I1105 17:30:10.896702 24559 net.cpp:397] loss2/prelu_fc -> loss2/fc (in-place)
I1105 17:30:10.896809 24559 net.cpp:150] Setting up loss2/prelu_fc
I1105 17:30:10.896819 24559 net.cpp:157] Top shape: 50 1024 (51200)
I1105 17:30:10.896823 24559 net.cpp:165] Memory required for data: 2517301808
I1105 17:30:10.896837 24559 layer_factory.hpp:76] Creating layer loss2/drop_fc
I1105 17:30:10.896847 24559 net.cpp:106] Creating Layer loss2/drop_fc
I1105 17:30:10.896852 24559 net.cpp:454] loss2/drop_fc <- loss2/fc
I1105 17:30:10.896857 24559 net.cpp:397] loss2/drop_fc -> loss2/fc (in-place)
I1105 17:30:10.896881 24559 net.cpp:150] Setting up loss2/drop_fc
I1105 17:30:10.896891 24559 net.cpp:157] Top shape: 50 1024 (51200)
I1105 17:30:10.896895 24559 net.cpp:165] Memory required for data: 2517506608
I1105 17:30:10.896899 24559 layer_factory.hpp:76] Creating layer loss2/classifier2
I1105 17:30:10.896906 24559 net.cpp:106] Creating Layer loss2/classifier2
I1105 17:30:10.896911 24559 net.cpp:454] loss2/classifier2 <- loss2/fc
I1105 17:30:10.896919 24559 net.cpp:411] loss2/classifier2 -> loss2/classifier
I1105 17:30:10.897049 24559 net.cpp:150] Setting up loss2/classifier2
I1105 17:30:10.897058 24559 net.cpp:157] Top shape: 50 2 (100)
I1105 17:30:10.897075 24559 net.cpp:165] Memory required for data: 2517507008
I1105 17:30:10.897084 24559 layer_factory.hpp:76] Creating layer loss2/classifier_loss2/classifier2_0_split
I1105 17:30:10.897090 24559 net.cpp:106] Creating Layer loss2/classifier_loss2/classifier2_0_split
I1105 17:30:10.897095 24559 net.cpp:454] loss2/classifier_loss2/classifier2_0_split <- loss2/classifier
I1105 17:30:10.897101 24559 net.cpp:411] loss2/classifier_loss2/classifier2_0_split -> loss2/classifier_loss2/classifier2_0_split_0
I1105 17:30:10.897109 24559 net.cpp:411] loss2/classifier_loss2/classifier2_0_split -> loss2/classifier_loss2/classifier2_0_split_1
I1105 17:30:10.897152 24559 net.cpp:150] Setting up loss2/classifier_loss2/classifier2_0_split
I1105 17:30:10.897162 24559 net.cpp:157] Top shape: 50 2 (100)
I1105 17:30:10.897176 24559 net.cpp:157] Top shape: 50 2 (100)
I1105 17:30:10.897179 24559 net.cpp:165] Memory required for data: 2517507808
I1105 17:30:10.897184 24559 layer_factory.hpp:76] Creating layer loss2/loss
I1105 17:30:10.897192 24559 net.cpp:106] Creating Layer loss2/loss
I1105 17:30:10.897197 24559 net.cpp:454] loss2/loss <- loss2/classifier_loss2/classifier2_0_split_0
I1105 17:30:10.897202 24559 net.cpp:454] loss2/loss <- label_data_1_split_2
…
I1105 17:30:10.897989 24559 net.cpp:165] Memory required for data: 2517507816
I1105 17:30:10.897994 24559 layer_factory.hpp:76] Creating layer inception_4e/1x1
I1105 17:30:10.898006 24559 net.cpp:106] Creating Layer inception_4e/1x1
I1105 17:30:10.898015 24559 net.cpp:454] inception_4e/1x1 <- inception_4d/output_inception_4d/output_0_split_1
I1105 17:30:10.898021 24559 net.cpp:411] inception_4e/1x1 -> inception_4e/1x1
I1105 17:30:10.900429 24559 cudnn_conv_layer.cpp:194] Reallocating workspace storage: 10080
I1105 17:30:10.900480 24559 net.cpp:150] Setting up inception_4e/1x1
I1105 17:30:10.900490 24559 net.cpp:157] Top shape: 50 256 14 14 (2508800)
I1105 17:30:10.900495 24559 net.cpp:165] Memory required for data: 2527543016
I1105 17:30:10.900502 24559 layer_factory.hpp:76] Creating layer inception_4e/prelu_1x1
I1105 17:30:10.900514 24559 net.cpp:106] Creating Layer inception_4e/prelu_1x1
I1105 17:30:10.900519 24559 net.cpp:454] inception_4e/prelu_1x1 <- inception_4e/1x1
I1105 17:30:10.900527 24559 net.cpp:397] inception_4e/prelu_1x1 -> inception_4e/1x1 (in-place)
I1105 17:30:10.900739 24559 net.cpp:150] Setting up inception_4e/prelu_1x1
I1105 17:30:10.900758 24559 net.cpp:157] Top shape: 50 256 14 14 (2508800)
I1105 17:30:10.900774 24559 net.cpp:165] Memory required for data: 2537578216
I1105 17:30:10.900781 24559 layer_factory.hpp:76] Creating layer inception_4e/3x3_reduce
I1105 17:30:10.900794 24559 net.cpp:106] Creating Layer inception_4e/3x3_reduce
I1105 17:30:10.900800 24559 net.cpp:454] inception_4e/3x3_reduce <- inception_4d/output_inception_4d/output_0_split_2
I1105 17:30:10.900807 24559 net.cpp:411] inception_4e/3x3_reduce -> inception_4e/3x3_reduce
I1105 17:30:10.902952 24559 cudnn_conv_layer.cpp:194] Reallocating workspace storage: 10080
I1105 17:30:10.903007 24559 net.cpp:150] Setting up inception_4e/3x3_reduce
I1105 17:30:10.903022 24559 net.cpp:157] Top shape: 50 160 14 14 (1568000)
I1105 17:30:10.903026 24559 net.cpp:165] Memory required for data: 2543850216
I1105 17:30:10.903036 24559 layer_factory.hpp:76] Creating layer inception_4e/prelu_3x3_reduce
I1105 17:30:10.903049 24559 net.cpp:106] Creating Layer inception_4e/prelu_3x3_reduce
I1105 17:30:10.903058 24559 net.cpp:454] inception_4e/prelu_3x3_reduce <- inception_4e/3x3_reduce
I1105 17:30:10.903069 24559 net.cpp:397] inception_4e/prelu_3x3_reduce -> inception_4e/3x3_reduce (in-place)
I1105 17:30:10.903198 24559 net.cpp:150] Setting up inception_4e/prelu_3x3_reduce
I1105 17:30:10.903211 24559 net.cpp:157] Top shape: 50 160 14 14 (1568000)
I1105 17:30:10.903216 24559 net.cpp:165] Memory required for data: 2550122216
I1105 17:30:10.903223 24559 layer_factory.hpp:76] Creating layer inception_4e/3x3
I1105 17:30:10.903252 24559 net.cpp:106] Creating Layer inception_4e/3x3
I1105 17:30:10.903259 24559 net.cpp:454] inception_4e/3x3 <- inception_4e/3x3_reduce
I1105 17:30:10.903269 24559 net.cpp:411] inception_4e/3x3 -> inception_4e/3x3
I1105 17:30:10.908830 24559 cudnn_conv_layer.cpp:194] Reallocating workspace storage: 10080
I1105 17:30:10.908917 24559 net.cpp:150] Setting up inception_4e/3x3
I1105 17:30:10.908937 24559 net.cpp:157] Top shape: 50 320 14 14 (3136000)
I1105 17:30:10.908941 24559 net.cpp:165] Memory required for data: 2562666216
I1105 17:30:10.908954 24559 layer_factory.hpp:76] Creating layer inception_4e/prelu_3x3
I1105 17:30:10.908970 24559 net.cpp:106] Creating Layer inception_4e/prelu_3x3
I1105 17:30:10.908979 24559 net.cpp:454] inception_4e/prelu_3x3 <- inception_4e/3x3
I1105 17:30:10.908989 24559 net.cpp:397] inception_4e/prelu_3x3 -> inception_4e/3x3 (in-place)
I1105 17:30:10.909736 24559 net.cpp:150] Setting up inception_4e/prelu_3x3
I1105 17:30:10.909757 24559 net.cpp:157] Top shape: 50 320 14 14 (3136000)
I1105 17:30:10.909773 24559 net.cpp:165] Memory required for data: 2575210216
I1105 17:30:10.909780 24559 layer_factory.hpp:76] Creating layer inception_4e/5x5_reduce
I1105 17:30:10.909793 24559 net.cpp:106] Creating Layer inception_4e/5x5_reduce
I1105 17:30:10.909800 24559 net.cpp:454] inception_4e/5x5_reduce <- inception_4d/output_inception_4d/output_0_split_3
I1105 17:30:10.909808 24559 net.cpp:411] inception_4e/5x5_reduce -> inception_4e/5x5_reduce
I1105 17:30:10.911123 24559 cudnn_conv_layer.cpp:194] Reallocating workspace storage: 10080
I1105 17:30:10.911175 24559 net.cpp:150] Setting up inception_4e/5x5_reduce
I1105 17:30:10.911186 24559 net.cpp:157] Top shape: 50 32 14 14 (313600)
I1105 17:30:10.911190 24559 net.cpp:165] Memory required for data: 2576464616
I1105 17:30:10.911198 24559 layer_factory.hpp:76] Creating layer inception_4e/prelu_5x5_reduce
I1105 17:30:10.911209 24559 net.cpp:106] Creating Layer inception_4e/prelu_5x5_reduce
I1105 17:30:10.911216 24559 net.cpp:454] inception_4e/prelu_5x5_reduce <- inception_4e/5x5_reduce
I1105 17:30:10.911223 24559 net.cpp:397] inception_4e/prelu_5x5_reduce -> inception_4e/5x5_reduce (in-place)
I1105 17:30:10.911332 24559 net.cpp:150] Setting up inception_4e/prelu_5x5_reduce
I1105 17:30:10.911341 24559 net.cpp:157] Top shape: 50 32 14 14 (313600)
I1105 17:30:10.911345 24559 net.cpp:165] Memory required for data: 2577719016
I1105 17:30:10.911362 24559 layer_factory.hpp:76] Creating layer inception_4e/5x5
I1105 17:30:10.911373 24559 net.cpp:106] Creating Layer inception_4e/5x5
I1105 17:30:10.911378 24559 net.cpp:454] inception_4e/5x5 <- inception_4e/5x5_reduce
I1105 17:30:10.911386 24559 net.cpp:411] inception_4e/5x5 -> inception_4e/5x5
I1105 17:30:10.913712 24559 cudnn_conv_layer.cpp:194] Reallocating workspace storage: 13080
I1105 17:30:10.913768 24559 net.cpp:150] Setting up inception_4e/5x5
I1105 17:30:10.913785 24559 net.cpp:157] Top shape: 50 128 14 14 (1254400)
I1105 17:30:10.913789 24559 net.cpp:165] Memory required for data: 2582736616
I1105 17:30:10.913799 24559 layer_factory.hpp:76] Creating layer inception_4e/prelu_5x5
I1105 17:30:10.913808 24559 net.cpp:106] Creating Layer inception_4e/prelu_5x5
I1105 17:30:10.913813 24559 net.cpp:454] inception_4e/prelu_5x5 <- inception_4e/5x5
I1105 17:30:10.913822 24559 net.cpp:397] inception_4e/prelu_5x5 -> inception_4e/5x5 (in-place)
I1105 17:30:10.913951 24559 net.cpp:150] Setting up inception_4e/prelu_5x5
I1105 17:30:10.913961 24559 net.cpp:157] Top shape: 50 128 14 14 (1254400)
I1105 17:30:10.913974 24559 net.cpp:165] Memory required for data: 2587754216
I1105 17:30:10.913980 24559 layer_factory.hpp:76] Creating layer inception_4e/pool
I1105 17:30:10.913987 24559 net.cpp:106] Creating Layer inception_4e/pool
I1105 17:30:10.913992 24559 net.cpp:454] inception_4e/pool <- inception_4d/output_inception_4d/output_0_split_4
I1105 17:30:10.913998 24559 net.cpp:411] inception_4e/pool -> inception_4e/pool
I1105 17:30:10.914223 24559 net.cpp:150] Setting up inception_4e/pool
I1105 17:30:10.914233 24559 net.cpp:157] Top shape: 50 528 14 14 (5174400)
I1105 17:30:10.914245 24559 net.cpp:165] Memory required for data: 2608451816
I1105 17:30:10.914250 24559 layer_factory.hpp:76] Creating layer inception_4e/pool_proj
I1105 17:30:10.914259 24559 net.cpp:106] Creating Layer inception_4e/pool_proj
I1105 17:30:10.914264 24559 net.cpp:454] inception_4e/pool_proj <- inception_4e/pool
I1105 17:30:10.914280 24559 net.cpp:411] inception_4e/pool_proj -> inception_4e/pool_proj
I1105 17:30:10.916014 24559 cudnn_conv_layer.cpp:194] Reallocating workspace storage: 10080
I1105 17:30:10.916052 24559 net.cpp:150] Setting up inception_4e/pool_proj
I1105 17:30:10.916060 24559 net.cpp:157] Top shape: 50 128 14 14 (1254400)
I1105 17:30:10.916065 24559 net.cpp:165] Memory required for data: 2613469416
I1105 17:30:10.916080 24559 layer_factory.hpp:76] Creating layer inception_4e/prelu_pool_proj
I1105 17:30:10.916107 24559 net.cpp:106] Creating Layer inception_4e/prelu_pool_proj
I1105 17:30:10.916113 24559 net.cpp:454] inception_4e/prelu_pool_proj <- inception_4e/pool_proj
I1105 17:30:10.916121 24559 net.cpp:397] inception_4e/prelu_pool_proj -> inception_4e/pool_proj (in-place)
I1105 17:30:10.916240 24559 net.cpp:150] Setting up inception_4e/prelu_pool_proj
I1105 17:30:10.916250 24559 net.cpp:157] Top shape: 50 128 14 14 (1254400)
I1105 17:30:10.916254 24559 net.cpp:165] Memory required for data: 2618487016
I1105 17:30:10.916260 24559 layer_factory.hpp:76] Creating layer inception_4e/output
I1105 17:30:10.916266 24559 net.cpp:106] Creating Layer inception_4e/output
I1105 17:30:10.916270 24559 net.cpp:454] inception_4e/output <- inception_4e/1x1
I1105 17:30:10.916275 24559 net.cpp:454] inception_4e/output <- inception_4e/3x3
I1105 17:30:10.916280 24559 net.cpp:454] inception_4e/output <- inception_4e/5x5
I1105 17:30:10.916285 24559 net.cpp:454] inception_4e/output <- inception_4e/pool_proj
I1105 17:30:10.916299 24559 net.cpp:411] inception_4e/output -> inception_4e/output
I1105 17:30:10.916326 24559 net.cpp:150] Setting up inception_4e/output
I1105 17:30:10.916334 24559 net.cpp:157] Top shape: 50 832 14 14 (8153600)
I1105 17:30:10.916338 24559 net.cpp:165] Memory required for data: 2651101416
I1105 17:30:10.916359 24559 layer_factory.hpp:76] Creating layer pool4/3x3_s2
I1105 17:30:10.916366 24559 net.cpp:106] Creating Layer pool4/3x3_s2
I1105 17:30:10.916370 24559 net.cpp:454] pool4/3x3_s2 <- inception_4e/output
I1105 17:30:10.916376 24559 net.cpp:411] pool4/3x3_s2 -> pool4/3x3_s2
I1105 17:30:10.916595 24559 net.cpp:150] Setting up pool4/3x3_s2
I1105 17:30:10.916605 24559 net.cpp:157] Top shape: 50 832 7 7 (2038400)
I1105 17:30:10.916610 24559 net.cpp:165] Memory required for data: 2659255016
I1105 17:30:10.916613 24559 layer_factory.hpp:76] Creating layer pool4/3x3_s2_pool4/3x3_s2_0_split
I1105 17:30:10.916622 24559 net.cpp:106] Creating Layer pool4/3x3_s2_pool4/3x3_s2_0_split
I1105 17:30:10.916627 24559 net.cpp:454] pool4/3x3_s2_pool4/3x3_s2_0_split <- pool4/3x3_s2
I1105 17:30:10.916632 24559 net.cpp:411] pool4/3x3_s2_pool4/3x3_s2_0_split -> pool4/3x3_s2_pool4/3x3_s2_0_split_0
I1105 17:30:10.916640 24559 net.cpp:411] pool4/3x3_s2_pool4/3x3_s2_0_split -> pool4/3x3_s2_pool4/3x3_s2_0_split_1
I1105 17:30:10.916646 24559 net.cpp:411] pool4/3x3_s2_pool4/3x3_s2_0_split -> pool4/3x3_s2_pool4/3x3_s2_0_split_2
I1105 17:30:10.916661 24559 net.cpp:411] pool4/3x3_s2_pool4/3x3_s2_0_split -> pool4/3x3_s2_pool4/3x3_s2_0_split_3
I1105 17:30:10.916725 24559 net.cpp:150] Setting up pool4/3x3_s2_pool4/3x3_s2_0_split
I1105 17:30:10.916734 24559 net.cpp:157] Top shape: 50 832 7 7 (2038400)
I1105 17:30:10.916739 24559 net.cpp:157] Top shape: 50 832 7 7 (2038400)
I1105 17:30:10.916743 24559 net.cpp:157] Top shape: 50 832 7 7 (2038400)
I1105 17:30:10.916749 24559 net.cpp:157] Top shape: 50 832 7 7 (2038400)
I1105 17:30:10.916751 24559 net.cpp:165] Memory required for data: 2691869416
I1105 17:30:10.916755 24559 layer_factory.hpp:76] Creating layer inception_5a/1x1
I1105 17:30:10.916764 24559 net.cpp:106] Creating Layer inception_5a/1x1
I1105 17:30:10.916769 24559 net.cpp:454] inception_5a/1x1 <- pool4/3x3_s2_pool4/3x3_s2_0_split_0
I1105 17:30:10.916785 24559 net.cpp:411] inception_5a/1x1 -> inception_5a/1x1
I1105 17:30:10.919661 24559 cudnn_conv_layer.cpp:194] Reallocating workspace storage: 7428
I1105 17:30:10.919703 24559 net.cpp:150] Setting up inception_5a/1x1
I1105 17:30:10.919713 24559 net.cpp:157] Top shape: 50 256 7 7 (627200)
I1105 17:30:10.919724 24559 net.cpp:165] Memory required for data: 2694378216
I1105 17:30:10.919734 24559 layer_factory.hpp:76] Creating layer inception_5a/prelu_1x1
I1105 17:30:10.919744 24559 net.cpp:106] Creating Layer inception_5a/prelu_1x1
I1105 17:30:10.919749 24559 net.cpp:454] inception_5a/prelu_1x1 <- inception_5a/1x1
I1105 17:30:10.919755 24559 net.cpp:397] inception_5a/prelu_1x1 -> inception_5a/1x1 (in-place)
I1105 17:30:10.919862 24559 net.cpp:150] Setting up inception_5a/prelu_1x1
I1105 17:30:10.919870 24559 net.cpp:157] Top shape: 50 256 7 7 (627200)
I1105 17:30:10.919885 24559 net.cpp:165] Memory required for data: 2696887016
I1105 17:30:10.919891 24559 layer_factory.hpp:76] Creating layer inception_5a/3x3_reduce
I1105 17:30:10.919901 24559 net.cpp:106] Creating Layer inception_5a/3x3_reduce
I1105 17:30:10.919906 24559 net.cpp:454] inception_5a/3x3_reduce <- pool4/3x3_s2_pool4/3x3_s2_0_split_1
I1105 17:30:10.919921 24559 net.cpp:411] inception_5a/3x3_reduce -> inception_5a/3x3_reduce
I1105 17:30:10.922322 24559 cudnn_conv_layer.cpp:194] Reallocating workspace storage: 7428
I1105 17:30:10.922365 24559 net.cpp:150] Setting up inception_5a/3x3_reduce
I1105 17:30:10.922374 24559 net.cpp:157] Top shape: 50 160 7 7 (392000)
I1105 17:30:10.922386 24559 net.cpp:165] Memory required for data: 2698455016
I1105 17:30:10.922394 24559 layer_factory.hpp:76] Creating layer inception_5a/prelu_3x3_reduce
I1105 17:30:10.922402 24559 net.cpp:106] Creating Layer inception_5a/prelu_3x3_reduce
I1105 17:30:10.922410 24559 net.cpp:454] inception_5a/prelu_3x3_reduce <- inception_5a/3x3_reduce
I1105 17:30:10.922416 24559 net.cpp:397] inception_5a/prelu_3x3_reduce -> inception_5a/3x3_reduce (in-place)
I1105 17:30:10.922515 24559 net.cpp:150] Setting up inception_5a/prelu_3x3_reduce
I1105 17:30:10.922525 24559 net.cpp:157] Top shape: 50 160 7 7 (392000)
I1105 17:30:10.922528 24559 net.cpp:165] Memory required for data: 2700023016
I1105 17:30:10.922544 24559 layer_factory.hpp:76] Creating layer inception_5a/3x3
I1105 17:30:10.922554 24559 net.cpp:106] Creating Layer inception_5a/3x3
I1105 17:30:10.922559 24559 net.cpp:454] inception_5a/3x3 <- inception_5a/3x3_reduce
I1105 17:30:10.922574 24559 net.cpp:411] inception_5a/3x3 -> inception_5a/3x3
I1105 17:30:10.927006 24559 cudnn_conv_layer.cpp:194] Reallocating workspace storage: 7788
I1105 17:30:10.927057 24559 net.cpp:150] Setting up inception_5a/3x3
I1105 17:30:10.927075 24559 net.cpp:157] Top shape: 50 320 7 7 (784000)
I1105 17:30:10.927080 24559 net.cpp:165] Memory required for data: 2703159016
I1105 17:30:10.927090 24559 layer_factory.hpp:76] Creating layer inception_5a/prelu_3x3
I1105 17:30:10.927104 24559 net.cpp:106] Creating Layer inception_5a/prelu_3x3
I1105 17:30:10.927109 24559 net.cpp:454] inception_5a/prelu_3x3 <- inception_5a/3x3
I1105 17:30:10.927117 24559 net.cpp:397] inception_5a/prelu_3x3 -> inception_5a/3x3 (in-place)
I1105 17:30:10.927253 24559 net.cpp:150] Setting up inception_5a/prelu_3x3
I1105 17:30:10.927263 24559 net.cpp:157] Top shape: 50 320 7 7 (784000)
I1105 17:30:10.927266 24559 net.cpp:165] Memory required for data: 2706295016
I1105 17:30:10.927279 24559 layer_factory.hpp:76] Creating layer inception_5a/5x5_reduce
I1105 17:30:10.927289 24559 net.cpp:106] Creating Layer inception_5a/5x5_reduce
I1105 17:30:10.927295 24559 net.cpp:454] inception_5a/5x5_reduce <- pool4/3x3_s2_pool4/3x3_s2_0_split_2
I1105 17:30:10.927310 24559 net.cpp:411] inception_5a/5x5_reduce -> inception_5a/5x5_reduce
I1105 17:30:10.928606 24559 cudnn_conv_layer.cpp:194] Reallocating workspace storage: 7428
I1105 17:30:10.928640 24559 net.cpp:150] Setting up inception_5a/5x5_reduce
I1105 17:30:10.928649 24559 net.cpp:157] Top shape: 50 32 7 7 (78400)
I1105 17:30:10.928654 24559 net.cpp:165] Memory required for data: 2706608616
I1105 17:30:10.928670 24559 layer_factory.hpp:76] Creating layer inception_5a/prelu_5x5_reduce
I1105 17:30:10.928678 24559 net.cpp:106] Creating Layer inception_5a/prelu_5x5_reduce
I1105 17:30:10.928683 24559 net.cpp:454] inception_5a/prelu_5x5_reduce <- inception_5a/5x5_reduce
I1105 17:30:10.928690 24559 net.cpp:397] inception_5a/prelu_5x5_reduce -> inception_5a/5x5_reduce (in-place)
I1105 17:30:10.928798 24559 net.cpp:150] Setting up inception_5a/prelu_5x5_reduce
I1105 17:30:10.928809 24559 net.cpp:157] Top shape: 50 32 7 7 (78400)
I1105 17:30:10.928822 24559 net.cpp:165] Memory required for data: 2706922216
I1105 17:30:10.928828 24559 layer_factory.hpp:76] Creating layer inception_5a/5x5
I1105 17:30:10.928835 24559 net.cpp:106] Creating Layer inception_5a/5x5
I1105 17:30:10.928855 24559 net.cpp:454] inception_5a/5x5 <- inception_5a/5x5_reduce
I1105 17:30:10.928864 24559 net.cpp:411] inception_5a/5x5 -> inception_5a/5x5
I1105 17:30:10.930475 24559 cudnn_conv_layer.cpp:194] Reallocating workspace storage: 9804
I1105 17:30:10.930531 24559 net.cpp:150] Setting up inception_5a/5x5
I1105 17:30:10.930548 24559 net.cpp:157] Top shape: 50 128 7 7 (313600)
I1105 17:30:10.930557 24559 net.cpp:165] Memory required for data: 2708176616
I1105 17:30:10.930572 24559 layer_factory.hpp:76] Creating layer inception_5a/prelu_5x5
I1105 17:30:10.930593 24559 net.cpp:106] Creating Layer inception_5a/prelu_5x5
I1105 17:30:10.930603 24559 net.cpp:454] inception_5a/prelu_5x5 <- inception_5a/5x5
I1105 17:30:10.930618 24559 net.cpp:397] inception_5a/prelu_5x5 -> inception_5a/5x5 (in-place)
I1105 17:30:10.930732 24559 net.cpp:150] Setting up inception_5a/prelu_5x5
I1105 17:30:10.930747 24559 net.cpp:157] Top shape: 50 128 7 7 (313600)
I1105 17:30:10.930754 24559 net.cpp:165] Memory required for data: 2709431016
I1105 17:30:10.930765 24559 layer_factory.hpp:76] Creating layer inception_5a/pool
I1105 17:30:10.930778 24559 net.cpp:106] Creating Layer inception_5a/pool
I1105 17:30:10.930788 24559 net.cpp:454] inception_5a/pool <- pool4/3x3_s2_pool4/3x3_s2_0_split_3
I1105 17:30:10.930799 24559 net.cpp:411] inception_5a/pool -> inception_5a/pool
I1105 17:30:10.931260 24559 net.cpp:150] Setting up inception_5a/pool
I1105 17:30:10.931278 24559 net.cpp:157] Top shape: 50 832 7 7 (2038400)
I1105 17:30:10.931288 24559 net.cpp:165] Memory required for data: 2717584616
I1105 17:30:10.931296 24559 layer_factory.hpp:76] Creating layer inception_5a/pool_proj
I1105 17:30:10.931311 24559 net.cpp:106] Creating Layer inception_5a/pool_proj
I1105 17:30:10.931324 24559 net.cpp:454] inception_5a/pool_proj <- inception_5a/pool
I1105 17:30:10.931340 24559 net.cpp:411] inception_5a/pool_proj -> inception_5a/pool_proj
I1105 17:30:10.934384 24559 cudnn_conv_layer.cpp:194] Reallocating workspace storage: 7428
I1105 17:30:10.934459 24559 net.cpp:150] Setting up inception_5a/pool_proj
I1105 17:30:10.934484 24559 net.cpp:157] Top shape: 50 128 7 7 (313600)
I1105 17:30:10.934489 24559 net.cpp:165] Memory required for data: 2718839016
I1105 17:30:10.934499 24559 layer_factory.hpp:76] Creating layer inception_5a/prelu_pool_proj
I1105 17:30:10.934514 24559 net.cpp:106] Creating Layer inception_5a/prelu_pool_proj
I1105 17:30:10.934523 24559 net.cpp:454] inception_5a/prelu_pool_proj <- inception_5a/pool_proj
I1105 17:30:10.934533 24559 net.cpp:397] inception_5a/prelu_pool_proj -> inception_5a/pool_proj (in-place)
I1105 17:30:10.934643 24559 net.cpp:150] Setting up inception_5a/prelu_pool_proj
I1105 17:30:10.934653 24559 net.cpp:157] Top shape: 50 128 7 7 (313600)
I1105 17:30:10.934656 24559 net.cpp:165] Memory required for data: 2720093416
I1105 17:30:10.934662 24559 layer_factory.hpp:76] Creating layer inception_5a/output
I1105 17:30:10.934680 24559 net.cpp:106] Creating Layer inception_5a/output
I1105 17:30:10.934685 24559 net.cpp:454] inception_5a/output <- inception_5a/1x1
I1105 17:30:10.934691 24559 net.cpp:454] inception_5a/output <- inception_5a/3x3
I1105 17:30:10.934696 24559 net.cpp:454] inception_5a/output <- inception_5a/5x5
I1105 17:30:10.934701 24559 net.cpp:454] inception_5a/output <- inception_5a/pool_proj
I1105 17:30:10.934708 24559 net.cpp:411] inception_5a/output -> inception_5a/output
I1105 17:30:10.934734 24559 net.cpp:150] Setting up inception_5a/output
I1105 17:30:10.934742 24559 net.cpp:157] Top shape: 50 832 7 7 (2038400)
I1105 17:30:10.934746 24559 net.cpp:165] Memory required for data: 2728247016
I1105 17:30:10.934762 24559 layer_factory.hpp:76] Creating layer inception_5a/output_inception_5a/output_0_split
I1105 17:30:10.934782 24559 net.cpp:106] Creating Layer inception_5a/output_inception_5a/output_0_split
I1105 17:30:10.934787 24559 net.cpp:454] inception_5a/output_inception_5a/output_0_split <- inception_5a/output
I1105 17:30:10.934792 24559 net.cpp:411] inception_5a/output_inception_5a/output_0_split -> inception_5a/output_inception_5a/output_0_split_0
I1105 17:30:10.934816 24559 net.cpp:411] inception_5a/output_inception_5a/output_0_split -> inception_5a/output_inception_5a/output_0_split_1
I1105 17:30:10.934825 24559 net.cpp:411] inception_5a/output_inception_5a/output_0_split -> inception_5a/output_inception_5a/output_0_split_2
I1105 17:30:10.934834 24559 net.cpp:411] inception_5a/output_inception_5a/output_0_split -> inception_5a/output_inception_5a/output_0_split_3
I1105 17:30:10.934902 24559 net.cpp:150] Setting up inception_5a/output_inception_5a/output_0_split
I1105 17:30:10.934911 24559 net.cpp:157] Top shape: 50 832 7 7 (2038400)
I1105 17:30:10.934916 24559 net.cpp:157] Top shape: 50 832 7 7 (2038400)
I1105 17:30:10.934921 24559 net.cpp:157] Top shape: 50 832 7 7 (2038400)
I1105 17:30:10.934937 24559 net.cpp:157] Top shape: 50 832 7 7 (2038400)
I1105 17:30:10.934941 24559 net.cpp:165] Memory required for data: 2760861416
I1105 17:30:10.934944 24559 layer_factory.hpp:76] Creating layer inception_5b/1x1
I1105 17:30:10.934954 24559 net.cpp:106] Creating Layer inception_5b/1x1
I1105 17:30:10.934959 24559 net.cpp:454] inception_5b/1x1 <- inception_5a/output_inception_5a/output_0_split_0
I1105 17:30:10.934967 24559 net.cpp:411] inception_5b/1x1 -> inception_5b/1x1
I1105 17:30:10.939014 24559 cudnn_conv_layer.cpp:194] Reallocating workspace storage: 7428
I1105 17:30:10.939098 24559 net.cpp:150] Setting up inception_5b/1x1
I1105 17:30:10.939126 24559 net.cpp:157] Top shape: 50 384 7 7 (940800)
I1105 17:30:10.939132 24559 net.cpp:165] Memory required for data: 2764624616
I1105 17:30:10.939146 24559 layer_factory.hpp:76] Creating layer inception_5b/prelu_1x1
I1105 17:30:10.939167 24559 net.cpp:106] Creating Layer inception_5b/prelu_1x1
I1105 17:30:10.939177 24559 net.cpp:454] inception_5b/prelu_1x1 <- inception_5b/1x1
I1105 17:30:10.939193 24559 net.cpp:397] inception_5b/prelu_1x1 -> inception_5b/1x1 (in-place)
I1105 17:30:10.939352 24559 net.cpp:150] Setting up inception_5b/prelu_1x1
I1105 17:30:10.939365 24559 net.cpp:157] Top shape: 50 384 7 7 (940800)
I1105 17:30:10.939368 24559 net.cpp:165] Memory required for data: 2768387816
I1105 17:30:10.939375 24559 layer_factory.hpp:76] Creating layer inception_5b/3x3_reduce
I1105 17:30:10.939400 24559 net.cpp:106] Creating Layer inception_5b/3x3_reduce
I1105 17:30:10.939406 24559 net.cpp:454] inception_5b/3x3_reduce <- inception_5a/output_inception_5a/output_0_split_1
I1105 17:30:10.939416 24559 net.cpp:411] inception_5b/3x3_reduce -> inception_5b/3x3_reduce
I1105 17:30:10.942093 24559 cudnn_conv_layer.cpp:194] Reallocating workspace storage: 7428
I1105 17:30:10.942165 24559 net.cpp:150] Setting up inception_5b/3x3_reduce
I1105 17:30:10.942178 24559 net.cpp:157] Top shape: 50 192 7 7 (470400)
I1105 17:30:10.942183 24559 net.cpp:165] Memory required for data: 2770269416
I1105 17:30:10.942215 24559 layer_factory.hpp:76] Creating layer inception_5b/prelu_3x3_reduce
I1105 17:30:10.942237 24559 net.cpp:106] Creating Layer inception_5b/prelu_3x3_reduce
I1105 17:30:10.942247 24559 net.cpp:454] inception_5b/prelu_3x3_reduce <- inception_5b/3x3_reduce
I1105 17:30:10.942260 24559 net.cpp:397] inception_5b/prelu_3x3_reduce -> inception_5b/3x3_reduce (in-place)
I1105 17:30:10.942399 24559 net.cpp:150] Setting up inception_5b/prelu_3x3_reduce
I1105 17:30:10.942410 24559 net.cpp:157] Top shape: 50 192 7 7 (470400)
I1105 17:30:10.942414 24559 net.cpp:165] Memory required for data: 2772151016
I1105 17:30:10.942430 24559 layer_factory.hpp:76] Creating layer inception_5b/3x3
I1105 17:30:10.942441 24559 net.cpp:106] Creating Layer inception_5b/3x3
I1105 17:30:10.942445 24559 net.cpp:454] inception_5b/3x3 <- inception_5b/3x3_reduce
I1105 17:30:10.942453 24559 net.cpp:411] inception_5b/3x3 -> inception_5b/3x3
I1105 17:30:10.948545 24559 cudnn_conv_layer.cpp:194] Reallocating workspace storage: 7788
I1105 17:30:10.948607 24559 net.cpp:150] Setting up inception_5b/3x3
I1105 17:30:10.948626 24559 net.cpp:157] Top shape: 50 384 7 7 (940800)
I1105 17:30:10.948631 24559 net.cpp:165] Memory required for data: 2775914216
I1105 17:30:10.948658 24559 layer_factory.hpp:76] Creating layer inception_5b/prelu_3x3
I1105 17:30:10.948680 24559 net.cpp:106] Creating Layer inception_5b/prelu_3x3
I1105 17:30:10.948688 24559 net.cpp:454] inception_5b/prelu_3x3 <- inception_5b/3x3
I1105 17:30:10.948696 24559 net.cpp:397] inception_5b/prelu_3x3 -> inception_5b/3x3 (in-place)
I1105 17:30:10.948838 24559 net.cpp:150] Setting up inception_5b/prelu_3x3
I1105 17:30:10.948848 24559 net.cpp:157] Top shape: 50 384 7 7 (940800)
I1105 17:30:10.948851 24559 net.cpp:165] Memory required for data: 2779677416
I1105 17:30:10.948864 24559 layer_factory.hpp:76] Creating layer inception_5b/5x5_reduce
I1105 17:30:10.948875 24559 net.cpp:106] Creating Layer inception_5b/5x5_reduce
I1105 17:30:10.948881 24559 net.cpp:454] inception_5b/5x5_reduce <- inception_5a/output_inception_5a/output_0_split_2
I1105 17:30:10.948889 24559 net.cpp:411] inception_5b/5x5_reduce -> inception_5b/5x5_reduce
I1105 17:30:10.951006 24559 cudnn_conv_layer.cpp:194] Reallocating workspace storage: 7428
I1105 17:30:10.951061 24559 net.cpp:150] Setting up inception_5b/5x5_reduce
I1105 17:30:10.951076 24559 net.cpp:157] Top shape: 50 48 7 7 (117600)
I1105 17:30:10.951088 24559 net.cpp:165] Memory required for data: 2780147816
I1105 17:30:10.951102 24559 layer_factory.hpp:76] Creating layer inception_5b/prelu_5x5_reduce
I1105 17:30:10.951130 24559 net.cpp:106] Creating Layer inception_5b/prelu_5x5_reduce
I1105 17:30:10.951150 24559 net.cpp:454] inception_5b/prelu_5x5_reduce <- inception_5b/5x5_reduce
I1105 17:30:10.951159 24559 net.cpp:397] inception_5b/prelu_5x5_reduce -> inception_5b/5x5_reduce (in-place)
I1105 17:30:10.951333 24559 net.cpp:150] Setting up inception_5b/prelu_5x5_reduce
I1105 17:30:10.951346 24559 net.cpp:157] Top shape: 50 48 7 7 (117600)
I1105 17:30:10.951350 24559 net.cpp:165] Memory required for data: 2780618216
I1105 17:30:10.951367 24559 layer_factory.hpp:76] Creating layer inception_5b/5x5
I1105 17:30:10.951380 24559 net.cpp:106] Creating Layer inception_5b/5x5
I1105 17:30:10.951385 24559 net.cpp:454] inception_5b/5x5 <- inception_5b/5x5_reduce
I1105 17:30:10.951392 24559 net.cpp:411] inception_5b/5x5 -> inception_5b/5x5
I1105 17:30:10.953598 24559 cudnn_conv_layer.cpp:194] Reallocating workspace storage: 9804
I1105 17:30:10.953647 24559 net.cpp:150] Setting up inception_5b/5x5
I1105 17:30:10.953657 24559 net.cpp:157] Top shape: 50 128 7 7 (313600)
I1105 17:30:10.953661 24559 net.cpp:165] Memory required for data: 2781872616
I1105 17:30:10.953670 24559 layer_factory.hpp:76] Creating layer inception_5b/prelu_5x5
I1105 17:30:10.953680 24559 net.cpp:106] Creating Layer inception_5b/prelu_5x5
I1105 17:30:10.953686 24559 net.cpp:454] inception_5b/prelu_5x5 <- inception_5b/5x5
I1105 17:30:10.953693 24559 net.cpp:397] inception_5b/prelu_5x5 -> inception_5b/5x5 (in-place)
I1105 17:30:10.953819 24559 net.cpp:150] Setting up inception_5b/prelu_5x5
I1105 17:30:10.953830 24559 net.cpp:157] Top shape: 50 128 7 7 (313600)
I1105 17:30:10.953833 24559 net.cpp:165] Memory required for data: 2783127016
I1105 17:30:10.953840 24559 layer_factory.hpp:76] Creating layer inception_5b/pool
I1105 17:30:10.953850 24559 net.cpp:106] Creating Layer inception_5b/pool
I1105 17:30:10.953855 24559 net.cpp:454] inception_5b/pool <- inception_5a/output_inception_5a/output_0_split_3
I1105 17:30:10.953861 24559 net.cpp:411] inception_5b/pool -> inception_5b/pool
I1105 17:30:10.954073 24559 net.cpp:150] Setting up inception_5b/pool
I1105 17:30:10.954084 24559 net.cpp:157] Top shape: 50 832 7 7 (2038400)
I1105 17:30:10.954088 24559 net.cpp:165] Memory required for data: 2791280616
I1105 17:30:10.954092 24559 layer_factory.hpp:76] Creating layer inception_5b/pool_proj
I1105 17:30:10.954103 24559 net.cpp:106] Creating Layer inception_5b/pool_proj
I1105 17:30:10.954108 24559 net.cpp:454] inception_5b/pool_proj <- inception_5b/pool
I1105 17:30:10.954115 24559 net.cpp:411] inception_5b/pool_proj -> inception_5b/pool_proj
I1105 17:30:10.956403 24559 cudnn_conv_layer.cpp:194] Reallocating workspace storage: 7428
I1105 17:30:10.956459 24559 net.cpp:150] Setting up inception_5b/pool_proj
I1105 17:30:10.956467 24559 net.cpp:157] Top shape: 50 128 7 7 (313600)
I1105 17:30:10.956472 24559 net.cpp:165] Memory required for data: 2792535016
I1105 17:30:10.956480 24559 layer_factory.hpp:76] Creating layer inception_5b/prelu_pool_proj
I1105 17:30:10.956487 24559 net.cpp:106] Creating Layer inception_5b/prelu_pool_proj
I1105 17:30:10.956493 24559 net.cpp:454] inception_5b/prelu_pool_proj <- inception_5b/pool_proj
I1105 17:30:10.956501 24559 net.cpp:397] inception_5b/prelu_pool_proj -> inception_5b/pool_proj (in-place)
I1105 17:30:10.956589 24559 net.cpp:150] Setting up inception_5b/prelu_pool_proj
I1105 17:30:10.956600 24559 net.cpp:157] Top shape: 50 128 7 7 (313600)
I1105 17:30:10.956604 24559 net.cpp:165] Memory required for data: 2793789416
I1105 17:30:10.956617 24559 layer_factory.hpp:76] Creating layer inception_5b/output
I1105 17:30:10.956624 24559 net.cpp:106] Creating Layer inception_5b/output
I1105 17:30:10.956637 24559 net.cpp:454] inception_5b/output <- inception_5b/1x1
I1105 17:30:10.956642 24559 net.cpp:454] inception_5b/output <- inception_5b/3x3
I1105 17:30:10.956655 24559 net.cpp:454] inception_5b/output <- inception_5b/5x5
I1105 17:30:10.956660 24559 net.cpp:454] inception_5b/output <- inception_5b/pool_proj
I1105 17:30:10.956666 24559 net.cpp:411] inception_5b/output -> inception_5b/output
I1105 17:30:10.956703 24559 net.cpp:150] Setting up inception_5b/output
I1105 17:30:10.956712 24559 net.cpp:157] Top shape: 50 1024 7 7 (2508800)
I1105 17:30:10.956717 24559 net.cpp:165] Memory required for data: 2803824616
I1105 17:30:10.956720 24559 layer_factory.hpp:76] Creating layer pool5/7x7_s1
I1105 17:30:10.956728 24559 net.cpp:106] Creating Layer pool5/7x7_s1
I1105 17:30:10.956733 24559 net.cpp:454] pool5/7x7_s1 <- inception_5b/output
I1105 17:30:10.956739 24559 net.cpp:411] pool5/7x7_s1 -> pool5/7x7_s1
I1105 17:30:10.957154 24559 net.cpp:150] Setting up pool5/7x7_s1
I1105 17:30:10.957166 24559 net.cpp:157] Top shape: 50 1024 1 1 (51200)
I1105 17:30:10.957170 24559 net.cpp:165] Memory required for data: 2804029416
I1105 17:30:10.957175 24559 layer_factory.hpp:76] Creating layer pool5/drop_7x7_s1
I1105 17:30:10.957182 24559 net.cpp:106] Creating Layer pool5/drop_7x7_s1
I1105 17:30:10.957187 24559 net.cpp:454] pool5/drop_7x7_s1 <- pool5/7x7_s1
I1105 17:30:10.957192 24559 net.cpp:397] pool5/drop_7x7_s1 -> pool5/7x7_s1 (in-place)
I1105 17:30:10.957227 24559 net.cpp:150] Setting up pool5/drop_7x7_s1
I1105 17:30:10.957234 24559 net.cpp:157] Top shape: 50 1024 1 1 (51200)
I1105 17:30:10.957238 24559 net.cpp:165] Memory required for data: 2804234216
I1105 17:30:10.957242 24559 layer_factory.hpp:76] Creating layer loss3/classifier2
I1105 17:30:10.957258 24559 net.cpp:106] Creating Layer loss3/classifier2
I1105 17:30:10.957270 24559 net.cpp:454] loss3/classifier2 <- pool5/7x7_s1
I1105 17:30:10.957279 24559 net.cpp:411] loss3/classifier2 -> loss3/classifier
I1105 17:30:10.957423 24559 net.cpp:150] Setting up loss3/classifier2
I1105 17:30:10.957433 24559 net.cpp:157] Top shape: 50 2 (100)
I1105 17:30:10.957437 24559 net.cpp:165] Memory required for data: 2804234616
I1105 17:30:10.957443 24559 layer_factory.hpp:76] Creating layer loss3/classifier_loss3/classifier2_0_split
I1105 17:30:10.957450 24559 net.cpp:106] Creating Layer loss3/classifier_loss3/classifier2_0_split
I1105 17:30:10.957454 24559 net.cpp:454] loss3/classifier_loss3/classifier2_0_split <- loss3/classifier
I1105 17:30:10.957461 24559 net.cpp:411] loss3/classifier_loss3/classifier2_0_split -> loss3/classifier_loss3/classifier2_0_split_0
I1105 17:30:10.957468 24559 net.cpp:411] loss3/classifier_loss3/classifier2_0_split -> loss3/classifier_loss3/classifier2_0_split_1
I1105 17:30:10.957515 24559 net.cpp:150] Setting up loss3/classifier_loss3/classifier2_0_split
I1105 17:30:10.957533 24559 net.cpp:157] Top shape: 50 2 (100)
I1105 17:30:10.957546 24559 net.cpp:157] Top shape: 50 2 (100)
I1105 17:30:10.957551 24559 net.cpp:165] Memory required for data: 2804235416
I1105 17:30:10.957554 24559 layer_factory.hpp:76] Creating layer loss3/loss3
I1105 17:30:10.957569 24559 net.cpp:106] Creating Layer loss3/loss3
I1105 17:30:10.957574 24559 net.cpp:454] loss3/loss3 <- loss3/classifier_loss3/classifier2_0_split_0
I1105 17:30:10.957579 24559 net.cpp:454] loss3/loss3 <- label_data_1_split_4
…
