…
I1126 10:05:26.317152 10292 net.cpp:322] The NetState phase (0) differed from the phase (1) specified by a rule in layer loss3/top-1
I1126 10:05:26.318599 10292 net.cpp:49] Initializing net from parameters: 
name: "GoogleNet"
state {
  phase: TRAIN
}
layer {
  name: "data"
  type: "Data"
  top: "data"
  top: "label"
  include {
    phase: TRAIN
  }
  transform_param {
    mirror: true
    crop_size: 224
    mean_value: 104
    mean_value: 117
    mean_value: 123
  }
  data_param {
    source: "../../LMDB-s300/train_2-lmdb"
    batch_size: 32
    backend: LMDB
  }
}
layer {
  name: "conv1/7x7_s2"
  type: "Convolution"
  bottom: "data"
  top: "conv1/7x7_s2"
  param {
    lr_mult: 1
    decay_mult: 1
  }
  param {
    lr_mult: 2
    decay_mult: 0
  }
  convolution_param {
    num_output: 64
    pad: 3
    kernel_size: 7
    stride: 2
    weight_filler {
      type: "xavier"
    }
    bias_filler {
      type: "constant"
      value: 0.2
    }
  }
}
layer {
  name: "conv1/prelu_7x7"
  type: "PReLU"
  bottom: "conv1/7x7_s2"
  top: "conv1/7x7_s2"
  param {
    lr_mult: 1
    decay_mult: 0
  }
  prelu_param {
    filler {
      type: "constant"
      value: 0.01
    }
  }
}
layer {
  name: "pool1/3x3_s2"
  type: "Pooling"
  bottom: "conv1/7x7_s2"
  top: "pool1/3x3_s2"
  pooling_param {
    pool: MAX
    kernel_size: 3
    stride: 2
  }
}
layer {
  name: "pool1/norm1"
  type: "LRN"
  bottom: "pool1/3x3_s2"
  top: "pool1/norm1"
  lrn_param {
    local_size: 5
    alpha: 0.0001
    beta: 0.75
  }
}
layer {
  name: "conv2/3x3_reduce"
  type: "Convolution"
  bottom: "pool1/norm1"
  top: "conv2/3x3_reduce"
  param {
    lr_mult: 1
    decay_mult: 1
  }
  param {
    lr_mult: 2
    decay_mult: 0
  }
  convolution_param {
    num_output: 64
    kernel_size: 1
    weight_filler {
      type: "xavier"
    }
    bias_filler {
      type: "constant"
      value: 0.2
    }
  }
}
layer {
  name: "conv2/prelu_3x3_reduce"
  type: "PReLU"
  bottom: "conv2/3x3_reduce"
  top: "conv2/3x3_reduce"
  param {
    lr_mult: 1
    decay_mult: 0
  }
  prelu_param {
    filler {
      type: "constant"
      value: 0.01
    }
  }
}
layer {
  name: "conv2/3x3"
  type: "Convolution"
  bottom: "conv2/3x3_reduce"
  top: "conv2/3x3"
  param {
    lr_mult: 1
    decay_mult: 1
  }
  param {
    lr_mult: 2
    decay_mult: 0
  }
  convolution_param {
    num_output: 192
    pad: 1
    kernel_size: 3
    weight_filler {
      type: "xavier"
    }
    bias_filler {
      type: "constant"
      value: 0.2
    }
  }
}
layer {
  name: "conv2/prelu_3x3"
  type: "PReLU"
  bottom: "conv2/3x3"
  top: "conv2/3x3"
  param {
    lr_mult: 1
    decay_mult: 0
  }
  prelu_param {
    filler {
      type: "constant"
      value: 0.01
    }
  }
}
layer {
  name: "conv2/norm2"
  type: "LRN"
  bottom: "conv2/3x3"
  top: "conv2/norm2"
  lrn_param {
    local_size: 5
    alpha: 0.0001
    beta: 0.75
  }
}
layer {
  name: "pool2/3x3_s2"
  type: "Pooling"
  bottom: "conv2/norm2"
  top: "pool2/3x3_s2"
  pooling_param {
    pool: MAX
    kernel_size: 3
    stride: 2
  }
}
layer {
  name: "inception_3a/1x1"
  type: "Convolution"
  bottom: "pool2/3x3_s2"
  top: "inception_3a/1x1"
  param {
    lr_mult: 1
    decay_mult: 1
  }
  param {
    lr_mult: 2
    decay_mult: 0
  }
  convolution_param {
    num_output: 64
    kernel_size: 1
    weight_filler {
      type: "xavier"
    }
    bias_filler {
      type: "constant"
      value: 0.2
    }
  }
}
layer {
  name: "inception_3a/prelu_1x1"
  type: "PReLU"
  bottom: "inception_3a/1x1"
  top: "inception_3a/1x1"
  param {
    lr_mult: 1
    decay_mult: 0
  }
  prelu_param {
    filler {
      type: "constant"
      value: 0.01
    }
  }
}
layer {
  name: "inception_3a/3x3_reduce"
  type: "Convolution"
  bottom: "pool2/3x3_s2"
  top: "inception_3a/3x3_reduce"
  param {
    lr_mult: 1
    decay_mult: 1
  }
  param {
    lr_mult: 2
    decay_mult: 0
  }
  convolution_param {
    num_output: 96
    kernel_size: 1
    weight_filler {
      type: "xavier"
    }
    bias_filler {
      type: "constant"
      value: 0.2
    }
  }
}
layer {
  name: "inception_3a/prelu_3x3_reduce"
  type: "PReLU"
  bottom: "inception_3a/3x3_reduce"
  top: "inception_3a/3x3_reduce"
  param {
    lr_mult: 1
    decay_mult: 0
  }
  prelu_param {
    filler {
      type: "constant"
      value: 0.01
    }
  }
}
layer {
  name: "inception_3a/3x3"
  type: "Convolution"
  bottom: "inception_3a/3x3_reduce"
  top: "inception_3a/3x3"
  param {
    lr_mult: 1
    decay_mult: 1
  }
  param {
    lr_mult: 2
    decay_mult: 0
  }
  convolution_param {
    num_output: 128
    pad: 1
    kernel_size: 3
    weight_filler {
      type: "xavier"
    }
    bias_filler {
      type: "constant"
      value: 0.2
    }
  }
}
layer {
  name: "inception_3a/prelu_3x3"
  type: "PReLU"
  bottom: "inception_3a/3x3"
  top: "inception_3a/3x3"
  param {
    lr_mult: 1
    decay_mult: 0
  }
  prelu_param {
    filler {
      type: "constant"
      value: 0.01
    }
  }
}
layer {
  name: "inception_3a/5x5_reduce"
  type: "Convolution"
  bottom: "pool2/3x3_s2"
  top: "inception_3a/5x5_reduce"
  param {
    lr_mult: 1
    decay_mult: 1
  }
  param {
    lr_mult: 2
    decay_mult: 0
  }
  convolution_param {
    num_output: 16
    kernel_size: 1
    weight_filler {
      type: "xavier"
    }
    bias_filler {
      type: "constant"
      value: 0.2
    }
  }
}
layer {
  name: "inception_3a/prelu_5x5_reduce"
  type: "PReLU"
  bottom: "inception_3a/5x5_reduce"
  top: "inception_3a/5x5_reduce"
  param {
    lr_mult: 1
    decay_mult: 0
  }
  prelu_param {
    filler {
      type: "constant"
      value: 0.01
    }
  }
}
layer {
  name: "inception_3a/5x5"
  type: "Convolution"
  bottom: "inception_3a/5x5_reduce"
  top: "inception_3a/5x5"
  param {
    lr_mult: 1
    decay_mult: 1
  }
  param {
    lr_mult: 2
    decay_mult: 0
  }
  convolution_param {
    num_output: 32
    pad: 2
    kernel_size: 5
    weight_filler {
      type: "xavier"
    }
    bias_filler {
      type: "constant"
      value: 0.2
    }
  }
}
layer {
  name: "inception_3a/prelu_5x5"
  type: "PReLU"
  bottom: "inception_3a/5x5"
  top: "inception_3a/5x5"
  param {
    lr_mult: 1
    decay_mult: 0
  }
  prelu_param {
    filler {
      type: "constant"
      value: 0.01
    }
  }
}
layer {
  name: "inception_3a/pool"
  type: "Pooling"
  bottom: "pool2/3x3_s2"
  top: "inception_3a/pool"
  pooling_param {
    pool: MAX
    kernel_size: 3
    stride: 1
    pad: 1
  }
}
layer {
  name: "inception_3a/pool_proj"
  type: "Convolution"
  bottom: "inception_3a/pool"
  top: "inception_3a/pool_proj"
  param {
    lr_mult: 1
    decay_mult: 1
  }
  param {
    lr_mult: 2
    decay_mult: 0
  }
  convolution_param {
    num_output: 32
    kernel_size: 1
    weight_filler {
      type: "xavier"
    }
    bias_filler {
      type: "constant"
      value: 0.2
    }
  }
}
layer {
  name: "inception_3a/prelu_pool_proj"
  type: "PReLU"
  bottom: "inception_3a/pool_proj"
  top: "inception_3a/pool_proj"
  param {
    lr_mult: 1
    decay_mult: 0
  }
  prelu_param {
    filler {
      type: "constant"
      value: 0.01
    }
  }
}
layer {
  name: "inception_3a/output"
  type: "Concat"
  bottom: "inception_3a/1x1"
  bottom: "inception_3a/3x3"
  bottom: "inception_3a/5x5"
  bottom: "inception_3a/pool_proj"
  top: "inception_3a/output"
}
layer {
  name: "inception_3b/1x1"
  type: "Convolution"
  bottom: "inception_3a/output"
  top: "inception_3b/1x1"
  param {
    lr_mult: 1
    decay_mult: 1
  }
  param {
    lr_mult: 2
    decay_mult: 0
  }
  convolution_param {
    num_output: 128
    kernel_size: 1
    weight_filler {
      type: "xavier"
    }
    bias_filler {
      type: "constant"
      value: 0.2
    }
  }
}
layer {
  name: "inception_3b/prelu_1x1"
  type: "PReLU"
  bottom: "inception_3b/1x1"
  top: "inception_3b/1x1"
  param {
    lr_mult: 1
    decay_mult: 0
  }
  prelu_param {
    filler {
      type: "constant"
      value: 0.01
    }
  }
}
layer {
  name: "inception_3b/3x3_reduce"
  type: "Convolution"
  bottom: "inception_3a/output"
  top: "inception_3b/3x3_reduce"
  param {
    lr_mult: 1
    decay_mult: 1
  }
  param {
    lr_mult: 2
    decay_mult: 0
  }
  convolution_param {
    num_output: 128
    kernel_size: 1
    weight_filler {
      type: "xavier"
    }
    bias_filler {
      type: "constant"
      value: 0.2
    }
  }
}
layer {
  name: "inception_3b/prelu_3x3_reduce"
  type: "PReLU"
  bottom: "inception_3b/3x3_reduce"
  top: "inception_3b/3x3_reduce"
  param {
    lr_mult: 1
    decay_mult: 0
  }
  prelu_param {
    filler {
      type: "constant"
      value: 0.01
    }
  }
}
layer {
  name: "inception_3b/3x3"
  type: "Convolution"
  bottom: "inception_3b/3x3_reduce"
  top: "inception_3b/3x3"
  param {
    lr_mult: 1
    decay_mult: 1
  }
  param {
    lr_mult: 2
    decay_mult: 0
  }
  convolution_param {
    num_output: 192
    pad: 1
    kernel_size: 3
    weight_filler {
      type: "xavier"
    }
    bias_filler {
      type: "constant"
      value: 0.2
    }
  }
}
layer {
  name: "inception_3b/prelu_3x3"
  type: "PReLU"
  bottom: "inception_3b/3x3"
  top: "inception_3b/3x3"
  param {
    lr_mult: 1
    decay_mult: 0
  }
  prelu_param {
    filler {
      type: "constant"
      value: 0.01
    }
  }
}
layer {
  name: "inception_3b/5x5_reduce"
  type: "Convolution"
  bottom: "inception_3a/output"
  top: "inception_3b/5x5_reduce"
  param {
    lr_mult: 1
    decay_mult: 1
  }
  param {
    lr_mult: 2
    decay_mult: 0
  }
  convolution_param {
    num_output: 32
    kernel_size: 1
    weight_filler {
      type: "xavier"
    }
    bias_filler {
      type: "constant"
      value: 0.2
    }
  }
}
layer {
  name: "inception_3b/prelu_5x5_reduce"
  type: "PReLU"
  bottom: "inception_3b/5x5_reduce"
  top: "inception_3b/5x5_reduce"
  param {
    lr_mult: 1
    decay_mult: 0
  }
  prelu_param {
    filler {
      type: "constant"
      value: 0.01
    }
  }
}
layer {
  name: "inception_3b/5x5"
  type: "Convolution"
  bottom: "inception_3b/5x5_reduce"
  top: "inception_3b/5x5"
  param {
    lr_mult: 1
    decay_mult: 1
  }
  param {
    lr_mult: 2
    decay_mult: 0
  }
  convolution_param {
    num_output: 96
    pad: 2
    kernel_size: 5
    weight_filler {
      type: "xavier"
    }
    bias_filler {
      type: "constant"
      value: 0.2
    }
  }
}
layer {
  name: "inception_3b/prelu_5x5"
  type: "PReLU"
  bottom: "inception_3b/5x5"
  top: "inception_3b/5x5"
  param {
    lr_mult: 1
    decay_mult: 0
  }
  prelu_param {
    filler {
      type: "constant"
      value: 0.01
    }
  }
}
layer {
  name: "inception_3b/pool"
  type: "Pooling"
  bottom: "inception_3a/output"
  top: "inception_3b/pool"
  pooling_param {
    pool: MAX
    kernel_size: 3
    stride: 1
    pad: 1
  }
}
layer {
  name: "inception_3b/pool_proj"
  type: "Convolution"
  bottom: "inception_3b/pool"
  top: "inception_3b/pool_proj"
  param {
    lr_mult: 1
    decay_mult: 1
  }
  param {
    lr_mult: 2
    decay_mult: 0
  }
  convolution_param {
    num_output: 64
    kernel_size: 1
    weight_filler {
      type: "xavier"
    }
    bias_filler {
      type: "constant"
      value: 0.2
    }
  }
}
layer {
  name: "inception_3b/prelu_pool_proj"
  type: "PReLU"
  bottom: "inception_3b/pool_proj"
  top: "inception_3b/pool_proj"
  param {
    lr_mult: 1
    decay_mult: 0
  }
  prelu_param {
    filler {
      type: "constant"
      value: 0.01
    }
  }
}
layer {
  name: "inception_3b/output"
  type: "Concat"
  bottom: "inception_3b/1x1"
  bottom: "inception_3b/3x3"
  bottom: "inception_3b/5x5"
  bottom: "inception_3b/pool_proj"
  top: "inception_3b/output"
}
layer {
  name: "pool3/3x3_s2"
  type: "Pooling"
  bottom: "inception_3b/output"
  top: "pool3/3x3_s2"
  pooling_param {
    pool: MAX
    kernel_size: 3
    stride: 2
  }
}
layer {
  name: "inception_4a/1x1"
  type: "Convolution"
  bottom: "pool3/3x3_s2"
  top: "inception_4a/1x1"
  param {
    lr_mult: 1
    decay_mult: 1
  }
  param {
    lr_mult: 2
    decay_mult: 0
  }
  convolution_param {
    num_output: 192
    kernel_size: 1
    weight_filler {
      type: "xavier"
    }
    bias_filler {
      type: "constant"
      value: 0.2
    }
  }
}
layer {
  name: "inception_4a/prelu_1x1"
  type: "PReLU"
  bottom: "inception_4a/1x1"
  top: "inception_4a/1x1"
  param {
    lr_mult: 1
    decay_mult: 0
  }
  prelu_param {
    filler {
      type: "constant"
      value: 0.01
    }
  }
}
layer {
  name: "inception_4a/3x3_reduce"
  type: "Convolution"
  bottom: "pool3/3x3_s2"
  top: "inception_4a/3x3_reduce"
  param {
    lr_mult: 1
    decay_mult: 1
  }
  param {
    lr_mult: 2
    decay_mult: 0
  }
  convolution_param {
    num_output: 96
    kernel_size: 1
    weight_filler {
      type: "xavier"
    }
    bias_filler {
      type: "constant"
      value: 0.2
    }
  }
}
layer {
  name: "inception_4a/prelu_3x3_reduce"
  type: "PReLU"
  bottom: "inception_4a/3x3_reduce"
  top: "inception_4a/3x3_reduce"
  param {
    lr_mult: 1
    decay_mult: 0
  }
  prelu_param {
    filler {
      type: "constant"
      value: 0.01
    }
  }
}
layer {
  name: "inception_4a/3x3"
  type: "Convolution"
  bottom: "inception_4a/3x3_reduce"
  top: "inception_4a/3x3"
  param {
    lr_mult: 1
    decay_mult: 1
  }
  param {
    lr_mult: 2
    decay_mult: 0
  }
  convolution_param {
    num_output: 208
    pad: 1
    kernel_size: 3
    weight_filler {
      type: "xavier"
    }
    bias_filler {
      type: "constant"
      value: 0.2
    }
  }
}
layer {
  name: "inception_4a/prelu_3x3"
  type: "PReLU"
  bottom: "inception_4a/3x3"
  top: "inception_4a/3x3"
  param {
    lr_mult: 1
    decay_mult: 0
  }
  prelu_param {
    filler {
      type: "constant"
      value: 0.01
    }
  }
}
layer {
  name: "inception_4a/5x5_reduce"
  type: "Convolution"
  bottom: "pool3/3x3_s2"
  top: "inception_4a/5x5_reduce"
  param {
    lr_mult: 1
    decay_mult: 1
  }
  param {
    lr_mult: 2
    decay_mult: 0
  }
  convolution_param {
    num_output: 16
    kernel_size: 1
    weight_filler {
      type: "xavier"
    }
    bias_filler {
      type: "constant"
      value: 0.2
    }
  }
}
layer {
  name: "inception_4a/prelu_5x5_reduce"
  type: "PReLU"
  bottom: "inception_4a/5x5_reduce"
  top: "inception_4a/5x5_reduce"
  param {
    lr_mult: 1
    decay_mult: 0
  }
  prelu_param {
    filler {
      type: "constant"
      value: 0.01
    }
  }
}
layer {
  name: "inception_4a/5x5"
  type: "Convolution"
  bottom: "inception_4a/5x5_reduce"
  top: "inception_4a/5x5"
  param {
    lr_mult: 1
    decay_mult: 1
  }
  param {
    lr_mult: 2
    decay_mult: 0
  }
  convolution_param {
    num_output: 48
    pad: 2
    kernel_size: 5
    weight_filler {
      type: "xavier"
    }
    bias_filler {
      type: "constant"
      value: 0.2
    }
  }
}
layer {
  name: "inception_4a/prelu_5x5"
  type: "PReLU"
  bottom: "inception_4a/5x5"
  top: "inception_4a/5x5"
  param {
    lr_mult: 1
    decay_mult: 0
  }
  prelu_param {
    filler {
      type: "constant"
      value: 0.01
    }
  }
}
layer {
  name: "inception_4a/pool"
  type: "Pooling"
  bottom: "pool3/3x3_s2"
  top: "inception_4a/pool"
  pooling_param {
    pool: MAX
    kernel_size: 3
    stride: 1
    pad: 1
  }
}
layer {
  name: "inception_4a/pool_proj"
  type: "Convolution"
  bottom: "inception_4a/pool"
  top: "inception_4a/pool_proj"
  param {
    lr_mult: 1
    decay_mult: 1
  }
  param {
    lr_mult: 2
    decay_mult: 0
  }
  convolution_param {
    num_output: 64
    kernel_size: 1
    weight_filler {
      type: "xavier"
    }
    bias_filler {
      type: "constant"
      value: 0.2
    }
  }
}
layer {
  name: "inception_4a/prelu_pool_proj"
  type: "PReLU"
  bottom: "inception_4a/pool_proj"
  top: "inception_4a/pool_proj"
  param {
    lr_mult: 1
    decay_mult: 0
  }
  prelu_param {
    filler {
      type: "constant"
      value: 0.01
    }
  }
}
layer {
  name: "inception_4a/output"
  type: "Concat"
  bottom: "inception_4a/1x1"
  bottom: "inception_4a/3x3"
  bottom: "inception_4a/5x5"
  bottom: "inception_4a/pool_proj"
  top: "inception_4a/output"
}
layer {
  name: "loss1/ave_pool"
  type: "Pooling"
  bottom: "inception_4a/output"
  top: "loss1/ave_pool"
  pooling_param {
    pool: AVE
    kernel_size: 5
    stride: 3
  }
}
layer {
  name: "loss1/conv"
  type: "Convolution"
  bottom: "loss1/ave_pool"
  top: "loss1/conv"
  param {
    lr_mult: 1
    decay_mult: 1
  }
  param {
    lr_mult: 2
    decay_mult: 0
  }
  convolution_param {
    num_output: 128
    kernel_size: 1
    weight_filler {
      type: "xavier"
    }
    bias_filler {
      type: "constant"
      value: 0.2
    }
  }
}
layer {
  name: "loss1/prelu_conv"
  type: "PReLU"
  bottom: "loss1/conv"
  top: "loss1/conv"
  param {
    lr_mult: 1
    decay_mult: 0
  }
  prelu_param {
    filler {
      type: "constant"
      value: 0.01
    }
  }
}
layer {
  name: "loss1/fc"
  type: "InnerProduct"
  bottom: "loss1/conv"
  top: "loss1/fc"
  param {
    lr_mult: 1
    decay_mult: 1
  }
  param {
    lr_mult: 2
    decay_mult: 0
  }
  inner_product_param {
    num_output: 1024
    weight_filler {
      type: "xavier"
    }
    bias_filler {
      type: "constant"
      value: 0.2
    }
  }
}
layer {
  name: "loss1/prelu_fc"
  type: "PReLU"
  bottom: "loss1/fc"
  top: "loss1/fc"
  param {
    lr_mult: 1
    decay_mult: 0
  }
  prelu_param {
    filler {
      type: "constant"
      value: 0.01
    }
  }
}
layer {
  name: "loss1/drop_fc"
  type: "Dropout"
  bottom: "loss1/fc"
  top: "loss1/fc"
  dropout_param {
    dropout_ratio: 0.7
  }
}
layer {
  name: "loss1/classifier2"
  type: "InnerProduct"
  bottom: "loss1/fc"
  top: "loss1/classifier"
  param {
    lr_mult: 1
    decay_mult: 1
  }
  param {
    lr_mult: 2
    decay_mult: 0
  }
  inner_product_param {
    num_output: 2
    weight_filler {
      type: "xavier"
    }
    bias_filler {
      type: "constant"
      value: 0
    }
  }
}
layer {
  name: "loss1/loss"
  type: "SoftmaxWithLoss"
  bottom: "loss1/classifier"
  bottom: "label"
  top: "loss1/loss1"
  loss_weight: 0.3
}
layer {
  name: "inception_4b/1x1"
  type: "Convolution"
  bottom: "inception_4a/output"
  top: "inception_4b/1x1"
  param {
    lr_mult: 1
    decay_mult: 1
  }
  param {
    lr_mult: 2
    decay_mult: 0
  }
  convolution_param {
    num_output: 160
    kernel_size: 1
    weight_filler {
      type: "xavier"
    }
    bias_filler {
      type: "constant"
      value: 0.2
    }
  }
}
layer {
  name: "inception_4b/prelu_1x1"
  type: "PReLU"
  bottom: "inception_4b/1x1"
  top: "inception_4b/1x1"
  param {
    lr_mult: 1
    decay_mult: 0
  }
  prelu_param {
    filler {
      type: "constant"
      value: 0.01
    }
  }
}
layer {
  name: "inception_4b/3x3_reduce"
  type: "Convolution"
  bottom: "inception_4a/output"
  top: "inception_4b/3x3_reduce"
  param {
    lr_mult: 1
    decay_mult: 1
  }
  param {
    lr_mult: 2
    decay_mult: 0
  }
  convolution_param {
    num_output: 112
    kernel_size: 1
    weight_filler {
      type: "xavier"
    }
    bias_filler {
      type: "constant"
      value: 0.2
    }
  }
}
layer {
  name: "inception_4b/prelu_3x3_reduce"
  type: "PReLU"
  bottom: "inception_4b/3x3_reduce"
  top: "inception_4b/3x3_reduce"
  param {
    lr_mult: 1
    decay_mult: 0
  }
  prelu_param {
    filler {
      type: "constant"
      value: 0.01
    }
  }
}
layer {
  name: "inception_4b/3x3"
  type: "Convolution"
  bottom: "inception_4b/3x3_reduce"
  top: "inception_4b/3x3"
  param {
    lr_mult: 1
    decay_mult: 1
  }
  param {
    lr_mult: 2
    decay_mult: 0
  }
  convolution_param {
    num_output: 224
    pad: 1
    kernel_size: 3
    weight_filler {
      type: "xavier"
    }
    bias_filler {
      type: "constant"
      value: 0.2
    }
  }
}
layer {
  name: "inception_4b/prelu_3x3"
  type: "PReLU"
  bottom: "inception_4b/3x3"
  top: "inception_4b/3x3"
  param {
    lr_mult: 1
    decay_mult: 0
  }
  prelu_param {
    filler {
      type: "constant"
      value: 0.01
    }
  }
}
layer {
  name: "inception_4b/5x5_reduce"
  type: "Convolution"
  bottom: "inception_4a/output"
  top: "inception_4b/5x5_reduce"
  param {
    lr_mult: 1
    decay_mult: 1
  }
  param {
    lr_mult: 2
    decay_mult: 0
  }
  convolution_param {
    num_output: 24
    kernel_size: 1
    weight_filler {
      type: "xavier"
    }
    bias_filler {
      type: "constant"
      value: 0.2
    }
  }
}
layer {
  name: "inception_4b/prelu_5x5_reduce"
  type: "PReLU"
  bottom: "inception_4b/5x5_reduce"
  top: "inception_4b/5x5_reduce"
  param {
    lr_mult: 1
    decay_mult: 0
  }
  prelu_param {
    filler {
      type: "constant"
      value: 0.01
    }
  }
}
layer {
  name: "inception_4b/5x5"
  type: "Convolution"
  bottom: "inception_4b/5x5_reduce"
  top: "inception_4b/5x5"
  param {
    lr_mult: 1
    decay_mult: 1
  }
  param {
    lr_mult: 2
    decay_mult: 0
  }
  convolution_param {
    num_output: 64
    pad: 2
    kernel_size: 5
    weight_filler {
      type: "xavier"
    }
    bias_filler {
      type: "constant"
      value: 0.2
    }
  }
}
layer {
  name: "inception_4b/prelu_5x5"
  type: "PReLU"
  bottom: "inception_4b/5x5"
  top: "inception_4b/5x5"
  param {
    lr_mult: 1
    decay_mult: 0
  }
  prelu_param {
    filler {
      type: "constant"
      value: 0.01
    }
  }
}
layer {
  name: "inception_4b/pool"
  type: "Pooling"
  bottom: "inception_4a/output"
  top: "inception_4b/pool"
  pooling_param {
    pool: MAX
    kernel_size: 3
    stride: 1
    pad: 1
  }
}
layer {
  name: "inception_4b/pool_proj"
  type: "Convolution"
  bottom: "inception_4b/pool"
  top: "inception_4b/pool_proj"
  param {
    lr_mult: 1
    decay_mult: 1
  }
  param {
    lr_mult: 2
    decay_mult: 0
  }
  convolution_param {
    num_output: 64
    kernel_size: 1
    weight_filler {
      type: "xavier"
    }
    bias_filler {
      type: "constant"
      value: 0.2
    }
  }
}
layer {
  name: "inception_4b/prelu_pool_proj"
  type: "PReLU"
  bottom: "inception_4b/pool_proj"
  top: "inception_4b/pool_proj"
  param {
    lr_mult: 1
    decay_mult: 0
  }
  prelu_param {
    filler {
      type: "constant"
      value: 0.01
    }
  }
}
layer {
  name: "inception_4b/output"
  type: "Concat"
  bottom: "inception_4b/1x1"
  bottom: "inception_4b/3x3"
  bottom: "inception_4b/5x5"
  bottom: "inception_4b/pool_proj"
  top: "inception_4b/output"
}
layer {
  name: "inception_4c/1x1"
  type: "Convolution"
  bottom: "inception_4b/output"
  top: "inception_4c/1x1"
  param {
    lr_mult: 1
    decay_mult: 1
  }
  param {
    lr_mult: 2
    decay_mult: 0
  }
  convolution_param {
    num_output: 128
    kernel_size: 1
    weight_filler {
      type: "xavier"
    }
    bias_filler {
      type: "constant"
      value: 0.2
    }
  }
}
layer {
  name: "inception_4c/prelu_1x1"
  type: "PReLU"
  bottom: "inception_4c/1x1"
  top: "inception_4c/1x1"
  param {
    lr_mult: 1
    decay_mult: 0
  }
  prelu_param {
    filler {
      type: "constant"
      value: 0.01
    }
  }
}
layer {
  name: "inception_4c/3x3_reduce"
  type: "Convolution"
  bottom: "inception_4b/output"
  top: "inception_4c/3x3_reduce"
  param {
    lr_mult: 1
    decay_mult: 1
  }
  param {
    lr_mult: 2
    decay_mult: 0
  }
  convolution_param {
    num_output: 128
    kernel_size: 1
    weight_filler {
      type: "xavier"
    }
    bias_filler {
      type: "constant"
      value: 0.2
    }
  }
}
layer {
  name: "inception_4c/prelu_3x3_reduce"
  type: "PReLU"
  bottom: "inception_4c/3x3_reduce"
  top: "inception_4c/3x3_reduce"
  param {
    lr_mult: 1
    decay_mult: 0
  }
  prelu_param {
    filler {
      type: "constant"
      value: 0.01
    }
  }
}
layer {
  name: "inception_4c/3x3"
  type: "Convolution"
  bottom: "inception_4c/3x3_reduce"
  top: "inception_4c/3x3"
  param {
    lr_mult: 1
    decay_mult: 1
  }
  param {
    lr_mult: 2
    decay_mult: 0
  }
  convolution_param {
    num_output: 256
    pad: 1
    kernel_size: 3
    weight_filler {
      type: "xavier"
    }
    bias_filler {
      type: "constant"
      value: 0.2
    }
  }
}
layer {
  name: "inception_4c/prelu_3x3"
  type: "PReLU"
  bottom: "inception_4c/3x3"
  top: "inception_4c/3x3"
  param {
    lr_mult: 1
    decay_mult: 0
  }
  prelu_param {
    filler {
      type: "constant"
      value: 0.01
    }
  }
}
layer {
  name: "inception_4c/5x5_reduce"
  type: "Convolution"
  bottom: "inception_4b/output"
  top: "inception_4c/5x5_reduce"
  param {
    lr_mult: 1
    decay_mult: 1
  }
  param {
    lr_mult: 2
    decay_mult: 0
  }
  convolution_param {
    num_output: 24
    kernel_size: 1
    weight_filler {
      type: "xavier"
    }
    bias_filler {
      type: "constant"
      value: 0.2
    }
  }
}
layer {
  name: "inception_4c/prelu_5x5_reduce"
  type: "PReLU"
  bottom: "inception_4c/5x5_reduce"
  top: "inception_4c/5x5_reduce"
  param {
    lr_mult: 1
    decay_mult: 0
  }
  prelu_param {
    filler {
      type: "constant"
      value: 0.01
    }
  }
}
layer {
  name: "inception_4c/5x5"
  type: "Convolution"
  bottom: "inception_4c/5x5_reduce"
  top: "inception_4c/5x5"
  param {
    lr_mult: 1
    decay_mult: 1
  }
  param {
    lr_mult: 2
    decay_mult: 0
  }
  convolution_param {
    num_output: 64
    pad: 2
    kernel_size: 5
    weight_filler {
      type: "xavier"
    }
    bias_filler {
      type: "constant"
      value: 0.2
    }
  }
}
layer {
  name: "inception_4c/prelu_5x5"
  type: "PReLU"
  bottom: "inception_4c/5x5"
  top: "inception_4c/5x5"
  param {
    lr_mult: 1
    decay_mult: 0
  }
  prelu_param {
    filler {
      type: "constant"
      value: 0.01
    }
  }
}
layer {
  name: "inception_4c/pool"
  type: "Pooling"
  bottom: "inception_4b/output"
  top: "inception_4c/pool"
  pooling_param {
    pool: MAX
    kernel_size: 3
    stride: 1
    pad: 1
  }
}
layer {
  name: "inception_4c/pool_proj"
  type: "Convolution"
  bottom: "inception_4c/pool"
  top: "inception_4c/pool_proj"
  param {
    lr_mult: 1
    decay_mult: 1
  }
  param {
    lr_mult: 2
    decay_mult: 0
  }
  convolution_param {
    num_output: 64
    kernel_size: 1
    weight_filler {
      type: "xavier"
    }
    bias_filler {
      type: "constant"
      value: 0.2
    }
  }
}
layer {
  name: "inception_4c/prelu_pool_proj"
  type: "PReLU"
  bottom: "inception_4c/pool_proj"
  top: "inception_4c/pool_proj"
  param {
    lr_mult: 1
    decay_mult: 0
  }
  prelu_param {
    filler {
      type: "constant"
      value: 0.01
    }
  }
}
layer {
  name: "inception_4c/output"
  type: "Concat"
  bottom: "inception_4c/1x1"
  bottom: "inception_4c/3x3"
  bottom: "inception_4c/5x5"
  bottom: "inception_4c/pool_proj"
  top: "inception_4c/output"
}
layer {
  name: "inception_4d/1x1"
  type: "Convolution"
  bottom: "inception_4c/output"
  top: "inception_4d/1x1"
  param {
    lr_mult: 1
    decay_mult: 1
  }
  param {
    lr_mult: 2
    decay_mult: 0
  }
  convolution_param {
    num_output: 112
    kernel_size: 1
    weight_filler {
      type: "xavier"
    }
    bias_filler {
      type: "constant"
      value: 0.2
    }
  }
}
layer {
  name: "inception_4d/prelu_1x1"
  type: "PReLU"
  bottom: "inception_4d/1x1"
  top: "inception_4d/1x1"
  param {
    lr_mult: 1
    decay_mult: 0
  }
  prelu_param {
    filler {
      type: "constant"
      value: 0.01
    }
  }
}
layer {
  name: "inception_4d/3x3_reduce"
  type: "Convolution"
  bottom: "inception_4c/output"
  top: "inception_4d/3x3_reduce"
  param {
    lr_mult: 1
    decay_mult: 1
  }
  param {
    lr_mult: 2
    decay_mult: 0
  }
  convolution_param {
    num_output: 144
    kernel_size: 1
    weight_filler {
      type: "xavier"
    }
    bias_filler {
      type: "constant"
      value: 0.2
    }
  }
}
layer {
  name: "inception_4d/prelu_3x3_reduce"
  type: "PReLU"
  bottom: "inception_4d/3x3_reduce"
  top: "inception_4d/3x3_reduce"
  param {
    lr_mult: 1
    decay_mult: 0
  }
  prelu_param {
    filler {
      type: "constant"
      value: 0.01
    }
  }
}
layer {
  name: "inception_4d/3x3"
  type: "Convolution"
  bottom: "inception_4d/3x3_reduce"
  top: "inception_4d/3x3"
  param {
    lr_mult: 1
    decay_mult: 1
  }
  param {
    lr_mult: 2
    decay_mult: 0
  }
  convolution_param {
    num_output: 288
    pad: 1
    kernel_size: 3
    weight_filler {
      type: "xavier"
    }
    bias_filler {
      type: "constant"
      value: 0.2
    }
  }
}
layer {
  name: "inception_4d/prelu_3x3"
  type: "PReLU"
  bottom: "inception_4d/3x3"
  top: "inception_4d/3x3"
  param {
    lr_mult: 1
    decay_mult: 0
  }
  prelu_param {
    filler {
      type: "constant"
      value: 0.01
    }
  }
}
layer {
  name: "inception_4d/5x5_reduce"
  type: "Convolution"
  bottom: "inception_4c/output"
  top: "inception_4d/5x5_reduce"
  param {
    lr_mult: 1
    decay_mult: 1
  }
  param {
    lr_mult: 2
    decay_mult: 0
  }
  convolution_param {
    num_output: 32
    kernel_size: 1
    weight_filler {
      type: "xavier"
    }
    bias_filler {
      type: "constant"
      value: 0.2
    }
  }
}
layer {
  name: "inception_4d/prelu_5x5_reduce"
  type: "PReLU"
  bottom: "inception_4d/5x5_reduce"
  top: "inception_4d/5x5_reduce"
  param {
    lr_mult: 1
    decay_mult: 0
  }
  prelu_param {
    filler {
      type: "constant"
      value: 0.01
    }
  }
}
layer {
  name: "inception_4d/5x5"
  type: "Convolution"
  bottom: "inception_4d/5x5_reduce"
  top: "inception_4d/5x5"
  param {
    lr_mult: 1
    decay_mult: 1
  }
  param {
    lr_mult: 2
    decay_mult: 0
  }
  convolution_param {
    num_output: 64
    pad: 2
    kernel_size: 5
    weight_filler {
      type: "xavier"
    }
    bias_filler {
      type: "constant"
      value: 0.2
    }
  }
}
layer {
  name: "inception_4d/prelu_5x5"
  type: "PReLU"
  bottom: "inception_4d/5x5"
  top: "inception_4d/5x5"
  param {
    lr_mult: 1
    decay_mult: 0
  }
  prelu_param {
    filler {
      type: "constant"
      value: 0.01
    }
  }
}
layer {
  name: "inception_4d/pool"
  type: "Pooling"
  bottom: "inception_4c/output"
  top: "inception_4d/pool"
  pooling_param {
    pool: MAX
    kernel_size: 3
    stride: 1
    pad: 1
  }
}
layer {
  name: "inception_4d/pool_proj"
  type: "Convolution"
  bottom: 
I1126 10:05:26.319437 10292 layer_factory.hpp:76] Creating layer data
I1126 10:05:26.319902 10292 net.cpp:106] Creating Layer data
I1126 10:05:26.319927 10292 net.cpp:411] data -> data
I1126 10:05:26.319974 10292 net.cpp:411] data -> label
I1126 10:05:26.349472 10297 db_lmdb.cpp:38] Opened lmdb ../../LMDB-s300/train_2-lmdb
I1126 10:05:26.374579 10292 data_layer.cpp:41] output data size: 32,3,224,224
I1126 10:05:26.443570 10292 net.cpp:150] Setting up data
I1126 10:05:26.443629 10292 net.cpp:157] Top shape: 32 3 224 224 (4816896)
I1126 10:05:26.443635 10292 net.cpp:157] Top shape: 32 (32)
I1126 10:05:26.443640 10292 net.cpp:165] Memory required for data: 19267712
I1126 10:05:26.443651 10292 layer_factory.hpp:76] Creating layer label_data_1_split
I1126 10:05:26.443666 10292 net.cpp:106] Creating Layer label_data_1_split
I1126 10:05:26.443675 10292 net.cpp:454] label_data_1_split <- label
I1126 10:05:26.443691 10292 net.cpp:411] label_data_1_split -> label_data_1_split_0
I1126 10:05:26.443706 10292 net.cpp:411] label_data_1_split -> label_data_1_split_1
I1126 10:05:26.443732 10292 net.cpp:411] label_data_1_split -> label_data_1_split_2
I1126 10:05:26.443799 10292 net.cpp:150] Setting up label_data_1_split
I1126 10:05:26.443814 10292 net.cpp:157] Top shape: 32 (32)
I1126 10:05:26.443822 10292 net.cpp:157] Top shape: 32 (32)
I1126 10:05:26.443831 10292 net.cpp:157] Top shape: 32 (32)
I1126 10:05:26.443836 10292 net.cpp:165] Memory required for data: 19268096
I1126 10:05:26.443840 10292 layer_factory.hpp:76] Creating layer conv1/7x7_s2
I1126 10:05:26.443866 10292 net.cpp:106] Creating Layer conv1/7x7_s2
I1126 10:05:26.443876 10292 net.cpp:454] conv1/7x7_s2 <- data
I1126 10:05:26.443894 10292 net.cpp:411] conv1/7x7_s2 -> conv1/7x7_s2
I1126 10:05:26.525552 10298 blocking_queue.cpp:50] Waiting for data
I1126 10:05:26.667060 10292 cudnn_conv_layer.cpp:194] Reallocating workspace storage: 225816
I1126 10:05:26.667312 10292 net.cpp:150] Setting up conv1/7x7_s2
I1126 10:05:26.667330 10292 net.cpp:157] Top shape: 32 64 112 112 (25690112)
I1126 10:05:26.667335 10292 net.cpp:165] Memory required for data: 122028544
I1126 10:05:26.667356 10292 layer_factory.hpp:76] Creating layer conv1/prelu_7x7
I1126 10:05:26.667374 10292 net.cpp:106] Creating Layer conv1/prelu_7x7
I1126 10:05:26.667381 10292 net.cpp:454] conv1/prelu_7x7 <- conv1/7x7_s2
I1126 10:05:26.667389 10292 net.cpp:397] conv1/prelu_7x7 -> conv1/7x7_s2 (in-place)
I1126 10:05:26.669739 10292 net.cpp:150] Setting up conv1/prelu_7x7
I1126 10:05:26.669787 10292 net.cpp:157] Top shape: 32 64 112 112 (25690112)
I1126 10:05:26.669792 10292 net.cpp:165] Memory required for data: 224788992
I1126 10:05:26.669812 10292 layer_factory.hpp:76] Creating layer pool1/3x3_s2
I1126 10:05:26.669832 10292 net.cpp:106] Creating Layer pool1/3x3_s2
I1126 10:05:26.669850 10292 net.cpp:454] pool1/3x3_s2 <- conv1/7x7_s2
I1126 10:05:26.669860 10292 net.cpp:411] pool1/3x3_s2 -> pool1/3x3_s2
I1126 10:05:26.670445 10292 net.cpp:150] Setting up pool1/3x3_s2
I1126 10:05:26.670472 10292 net.cpp:157] Top shape: 32 64 56 56 (6422528)
I1126 10:05:26.670476 10292 net.cpp:165] Memory required for data: 250479104
I1126 10:05:26.670481 10292 layer_factory.hpp:76] Creating layer pool1/norm1
I1126 10:05:26.670496 10292 net.cpp:106] Creating Layer pool1/norm1
I1126 10:05:26.670501 10292 net.cpp:454] pool1/norm1 <- pool1/3x3_s2
I1126 10:05:26.670508 10292 net.cpp:411] pool1/norm1 -> pool1/norm1
I1126 10:05:26.670737 10292 net.cpp:150] Setting up pool1/norm1
I1126 10:05:26.670749 10292 net.cpp:157] Top shape: 32 64 56 56 (6422528)
I1126 10:05:26.670753 10292 net.cpp:165] Memory required for data: 276169216
I1126 10:05:26.670758 10292 layer_factory.hpp:76] Creating layer conv2/3x3_reduce
I1126 10:05:26.670773 10292 net.cpp:106] Creating Layer conv2/3x3_reduce
I1126 10:05:26.670778 10292 net.cpp:454] conv2/3x3_reduce <- pool1/norm1
I1126 10:05:26.670794 10292 net.cpp:411] conv2/3x3_reduce -> conv2/3x3_reduce
I1126 10:05:26.672510 10292 cudnn_conv_layer.cpp:194] Reallocating workspace storage: 63000
I1126 10:05:26.672540 10292 net.cpp:150] Setting up conv2/3x3_reduce
I1126 10:05:26.672564 10292 net.cpp:157] Top shape: 32 64 56 56 (6422528)
I1126 10:05:26.672569 10292 net.cpp:165] Memory required for data: 301859328
I1126 10:05:26.672580 10292 layer_factory.hpp:76] Creating layer conv2/prelu_3x3_reduce
I1126 10:05:26.672592 10292 net.cpp:106] Creating Layer conv2/prelu_3x3_reduce
I1126 10:05:26.672598 10292 net.cpp:454] conv2/prelu_3x3_reduce <- conv2/3x3_reduce
I1126 10:05:26.672606 10292 net.cpp:397] conv2/prelu_3x3_reduce -> conv2/3x3_reduce (in-place)
I1126 10:05:26.673362 10292 net.cpp:150] Setting up conv2/prelu_3x3_reduce
I1126 10:05:26.673377 10292 net.cpp:157] Top shape: 32 64 56 56 (6422528)
I1126 10:05:26.673382 10292 net.cpp:165] Memory required for data: 327549440
I1126 10:05:26.673388 10292 layer_factory.hpp:76] Creating layer conv2/3x3
I1126 10:05:26.673403 10292 net.cpp:106] Creating Layer conv2/3x3
I1126 10:05:26.673408 10292 net.cpp:454] conv2/3x3 <- conv2/3x3_reduce
I1126 10:05:26.673415 10292 net.cpp:411] conv2/3x3 -> conv2/3x3
I1126 10:05:26.675585 10292 cudnn_conv_layer.cpp:194] Reallocating workspace storage: 63000
I1126 10:05:26.675607 10292 net.cpp:150] Setting up conv2/3x3
I1126 10:05:26.675616 10292 net.cpp:157] Top shape: 32 192 56 56 (19267584)
I1126 10:05:26.675621 10292 net.cpp:165] Memory required for data: 404619776
I1126 10:05:26.675627 10292 layer_factory.hpp:76] Creating layer conv2/prelu_3x3
I1126 10:05:26.675638 10292 net.cpp:106] Creating Layer conv2/prelu_3x3
I1126 10:05:26.675643 10292 net.cpp:454] conv2/prelu_3x3 <- conv2/3x3
I1126 10:05:26.675650 10292 net.cpp:397] conv2/prelu_3x3 -> conv2/3x3 (in-place)
I1126 10:05:26.677033 10292 net.cpp:150] Setting up conv2/prelu_3x3
I1126 10:05:26.677057 10292 net.cpp:157] Top shape: 32 192 56 56 (19267584)
I1126 10:05:26.677090 10292 net.cpp:165] Memory required for data: 481690112
I1126 10:05:26.677104 10292 layer_factory.hpp:76] Creating layer conv2/norm2
I1126 10:05:26.677114 10292 net.cpp:106] Creating Layer conv2/norm2
I1126 10:05:26.677119 10292 net.cpp:454] conv2/norm2 <- conv2/3x3
I1126 10:05:26.677127 10292 net.cpp:411] conv2/norm2 -> conv2/norm2
I1126 10:05:26.677323 10292 net.cpp:150] Setting up conv2/norm2
I1126 10:05:26.677333 10292 net.cpp:157] Top shape: 32 192 56 56 (19267584)
I1126 10:05:26.677337 10292 net.cpp:165] Memory required for data: 558760448
I1126 10:05:26.677341 10292 layer_factory.hpp:76] Creating layer pool2/3x3_s2
I1126 10:05:26.677350 10292 net.cpp:106] Creating Layer pool2/3x3_s2
I1126 10:05:26.677355 10292 net.cpp:454] pool2/3x3_s2 <- conv2/norm2
I1126 10:05:26.677359 10292 net.cpp:411] pool2/3x3_s2 -> pool2/3x3_s2
I1126 10:05:26.677742 10292 net.cpp:150] Setting up pool2/3x3_s2
I1126 10:05:26.677753 10292 net.cpp:157] Top shape: 32 192 28 28 (4816896)
I1126 10:05:26.677758 10292 net.cpp:165] Memory required for data: 578028032
I1126 10:05:26.677762 10292 layer_factory.hpp:76] Creating layer pool2/3x3_s2_pool2/3x3_s2_0_split
I1126 10:05:26.677772 10292 net.cpp:106] Creating Layer pool2/3x3_s2_pool2/3x3_s2_0_split
I1126 10:05:26.677775 10292 net.cpp:454] pool2/3x3_s2_pool2/3x3_s2_0_split <- pool2/3x3_s2
I1126 10:05:26.677783 10292 net.cpp:411] pool2/3x3_s2_pool2/3x3_s2_0_split -> pool2/3x3_s2_pool2/3x3_s2_0_split_0
I1126 10:05:26.677790 10292 net.cpp:411] pool2/3x3_s2_pool2/3x3_s2_0_split -> pool2/3x3_s2_pool2/3x3_s2_0_split_1
I1126 10:05:26.677798 10292 net.cpp:411] pool2/3x3_s2_pool2/3x3_s2_0_split -> pool2/3x3_s2_pool2/3x3_s2_0_split_2
I1126 10:05:26.677803 10292 net.cpp:411] pool2/3x3_s2_pool2/3x3_s2_0_split -> pool2/3x3_s2_pool2/3x3_s2_0_split_3
I1126 10:05:26.677855 10292 net.cpp:150] Setting up pool2/3x3_s2_pool2/3x3_s2_0_split
I1126 10:05:26.677861 10292 net.cpp:157] Top shape: 32 192 28 28 (4816896)
I1126 10:05:26.677866 10292 net.cpp:157] Top shape: 32 192 28 28 (4816896)
I1126 10:05:26.677871 10292 net.cpp:157] Top shape: 32 192 28 28 (4816896)
I1126 10:05:26.677876 10292 net.cpp:157] Top shape: 32 192 28 28 (4816896)
I1126 10:05:26.677880 10292 net.cpp:165] Memory required for data: 655098368
I1126 10:05:26.677884 10292 layer_factory.hpp:76] Creating layer inception_3a/1x1
I1126 10:05:26.677896 10292 net.cpp:106] Creating Layer inception_3a/1x1
I1126 10:05:26.677901 10292 net.cpp:454] inception_3a/1x1 <- pool2/3x3_s2_pool2/3x3_s2_0_split_0
I1126 10:05:26.677907 10292 net.cpp:411] inception_3a/1x1 -> inception_3a/1x1
I1126 10:05:26.679747 10292 cudnn_conv_layer.cpp:194] Reallocating workspace storage: 20664
I1126 10:05:26.679785 10292 net.cpp:150] Setting up inception_3a/1x1
I1126 10:05:26.679796 10292 net.cpp:157] Top shape: 32 64 28 28 (1605632)
I1126 10:05:26.679800 10292 net.cpp:165] Memory required for data: 661520896
I1126 10:05:26.679810 10292 layer_factory.hpp:76] Creating layer inception_3a/prelu_1x1
I1126 10:05:26.679821 10292 net.cpp:106] Creating Layer inception_3a/prelu_1x1
I1126 10:05:26.679826 10292 net.cpp:454] inception_3a/prelu_1x1 <- inception_3a/1x1
I1126 10:05:26.679836 10292 net.cpp:397] inception_3a/prelu_1x1 -> inception_3a/1x1 (in-place)
I1126 10:05:26.680436 10292 net.cpp:150] Setting up inception_3a/prelu_1x1
I1126 10:05:26.680450 10292 net.cpp:157] Top shape: 32 64 28 28 (1605632)
I1126 10:05:26.680454 10292 net.cpp:165] Memory required for data: 667943424
I1126 10:05:26.680460 10292 layer_factory.hpp:76] Creating layer inception_3a/3x3_reduce
I1126 10:05:26.680472 10292 net.cpp:106] Creating Layer inception_3a/3x3_reduce
I1126 10:05:26.680477 10292 net.cpp:454] inception_3a/3x3_reduce <- pool2/3x3_s2_pool2/3x3_s2_0_split_1
I1126 10:05:26.680485 10292 net.cpp:411] inception_3a/3x3_reduce -> inception_3a/3x3_reduce
I1126 10:05:26.681454 10292 cudnn_conv_layer.cpp:194] Reallocating workspace storage: 20664
I1126 10:05:26.681476 10292 net.cpp:150] Setting up inception_3a/3x3_reduce
I1126 10:05:26.681484 10292 net.cpp:157] Top shape: 32 96 28 28 (2408448)
I1126 10:05:26.681512 10292 net.cpp:165] Memory required for data: 677577216
I1126 10:05:26.681520 10292 layer_factory.hpp:76] Creating layer inception_3a/prelu_3x3_reduce
I1126 10:05:26.681535 10292 net.cpp:106] Creating Layer inception_3a/prelu_3x3_reduce
I1126 10:05:26.681540 10292 net.cpp:454] inception_3a/prelu_3x3_reduce <- inception_3a/3x3_reduce
I1126 10:05:26.681546 10292 net.cpp:397] inception_3a/prelu_3x3_reduce -> inception_3a/3x3_reduce (in-place)
I1126 10:05:26.681696 10292 net.cpp:150] Setting up inception_3a/prelu_3x3_reduce
I1126 10:05:26.681705 10292 net.cpp:157] Top shape: 32 96 28 28 (2408448)
I1126 10:05:26.681710 10292 net.cpp:165] Memory required for data: 687211008
I1126 10:05:26.681715 10292 layer_factory.hpp:76] Creating layer inception_3a/3x3
I1126 10:05:26.681725 10292 net.cpp:106] Creating Layer inception_3a/3x3
I1126 10:05:26.681730 10292 net.cpp:454] inception_3a/3x3 <- inception_3a/3x3_reduce
I1126 10:05:26.681737 10292 net.cpp:411] inception_3a/3x3 -> inception_3a/3x3
I1126 10:05:26.683920 10292 cudnn_conv_layer.cpp:194] Reallocating workspace storage: 20664
I1126 10:05:26.683949 10292 net.cpp:150] Setting up inception_3a/3x3
I1126 10:05:26.683959 10292 net.cpp:157] Top shape: 32 128 28 28 (3211264)
I1126 10:05:26.683962 10292 net.cpp:165] Memory required for data: 700056064
I1126 10:05:26.683977 10292 layer_factory.hpp:76] Creating layer inception_3a/prelu_3x3
I1126 10:05:26.683990 10292 net.cpp:106] Creating Layer inception_3a/prelu_3x3
I1126 10:05:26.683995 10292 net.cpp:454] inception_3a/prelu_3x3 <- inception_3a/3x3
I1126 10:05:26.684011 10292 net.cpp:397] inception_3a/prelu_3x3 -> inception_3a/3x3 (in-place)
I1126 10:05:26.684140 10292 net.cpp:150] Setting up inception_3a/prelu_3x3
I1126 10:05:26.684149 10292 net.cpp:157] Top shape: 32 128 28 28 (3211264)
I1126 10:05:26.684152 10292 net.cpp:165] Memory required for data: 712901120
I1126 10:05:26.684157 10292 layer_factory.hpp:76] Creating layer inception_3a/5x5_reduce
I1126 10:05:26.684170 10292 net.cpp:106] Creating Layer inception_3a/5x5_reduce
I1126 10:05:26.684176 10292 net.cpp:454] inception_3a/5x5_reduce <- pool2/3x3_s2_pool2/3x3_s2_0_split_2
I1126 10:05:26.684182 10292 net.cpp:411] inception_3a/5x5_reduce -> inception_3a/5x5_reduce
I1126 10:05:26.685385 10292 cudnn_conv_layer.cpp:194] Reallocating workspace storage: 20664
I1126 10:05:26.685406 10292 net.cpp:150] Setting up inception_3a/5x5_reduce
I1126 10:05:26.685413 10292 net.cpp:157] Top shape: 32 16 28 28 (401408)
I1126 10:05:26.685418 10292 net.cpp:165] Memory required for data: 714506752
I1126 10:05:26.685425 10292 layer_factory.hpp:76] Creating layer inception_3a/prelu_5x5_reduce
I1126 10:05:26.685434 10292 net.cpp:106] Creating Layer inception_3a/prelu_5x5_reduce
I1126 10:05:26.685439 10292 net.cpp:454] inception_3a/prelu_5x5_reduce <- inception_3a/5x5_reduce
I1126 10:05:26.685446 10292 net.cpp:397] inception_3a/prelu_5x5_reduce -> inception_3a/5x5_reduce (in-place)
I1126 10:05:26.685533 10292 net.cpp:150] Setting up inception_3a/prelu_5x5_reduce
I1126 10:05:26.685540 10292 net.cpp:157] Top shape: 32 16 28 28 (401408)
I1126 10:05:26.685544 10292 net.cpp:165] Memory required for data: 716112384
I1126 10:05:26.685550 10292 layer_factory.hpp:76] Creating layer inception_3a/5x5
I1126 10:05:26.685559 10292 net.cpp:106] Creating Layer inception_3a/5x5
I1126 10:05:26.685564 10292 net.cpp:454] inception_3a/5x5 <- inception_3a/5x5_reduce
I1126 10:05:26.685570 10292 net.cpp:411] inception_3a/5x5 -> inception_3a/5x5
I1126 10:05:26.686650 10292 cudnn_conv_layer.cpp:194] Reallocating workspace storage: 20664
I1126 10:05:26.686671 10292 net.cpp:150] Setting up inception_3a/5x5
I1126 10:05:26.686679 10292 net.cpp:157] Top shape: 32 32 28 28 (802816)
I1126 10:05:26.686683 10292 net.cpp:165] Memory required for data: 719323648
I1126 10:05:26.686691 10292 layer_factory.hpp:76] Creating layer inception_3a/prelu_5x5
I1126 10:05:26.686699 10292 net.cpp:106] Creating Layer inception_3a/prelu_5x5
I1126 10:05:26.686703 10292 net.cpp:454] inception_3a/prelu_5x5 <- inception_3a/5x5
I1126 10:05:26.686712 10292 net.cpp:397] inception_3a/prelu_5x5 -> inception_3a/5x5 (in-place)
I1126 10:05:26.686831 10292 net.cpp:150] Setting up inception_3a/prelu_5x5
I1126 10:05:26.686841 10292 net.cpp:157] Top shape: 32 32 28 28 (802816)
I1126 10:05:26.686844 10292 net.cpp:165] Memory required for data: 722534912
I1126 10:05:26.686849 10292 layer_factory.hpp:76] Creating layer inception_3a/pool
I1126 10:05:26.686858 10292 net.cpp:106] Creating Layer inception_3a/pool
I1126 10:05:26.686862 10292 net.cpp:454] inception_3a/pool <- pool2/3x3_s2_pool2/3x3_s2_0_split_3
I1126 10:05:26.686873 10292 net.cpp:411] inception_3a/pool -> inception_3a/pool
I1126 10:05:26.687055 10292 net.cpp:150] Setting up inception_3a/pool
I1126 10:05:26.687065 10292 net.cpp:157] Top shape: 32 192 28 28 (4816896)
I1126 10:05:26.687069 10292 net.cpp:165] Memory required for data: 741802496
I1126 10:05:26.687073 10292 layer_factory.hpp:76] Creating layer inception_3a/pool_proj
I1126 10:05:26.687083 10292 net.cpp:106] Creating Layer inception_3a/pool_proj
I1126 10:05:26.687086 10292 net.cpp:454] inception_3a/pool_proj <- inception_3a/pool
I1126 10:05:26.687094 10292 net.cpp:411] inception_3a/pool_proj -> inception_3a/pool_proj
I1126 10:05:26.688114 10292 cudnn_conv_layer.cpp:194] Reallocating workspace storage: 20664
I1126 10:05:26.688133 10292 net.cpp:150] Setting up inception_3a/pool_proj
I1126 10:05:26.688139 10292 net.cpp:157] Top shape: 32 32 28 28 (802816)
I1126 10:05:26.688143 10292 net.cpp:165] Memory required for data: 745013760
I1126 10:05:26.688150 10292 layer_factory.hpp:76] Creating layer inception_3a/prelu_pool_proj
I1126 10:05:26.688159 10292 net.cpp:106] Creating Layer inception_3a/prelu_pool_proj
I1126 10:05:26.688165 10292 net.cpp:454] inception_3a/prelu_pool_proj <- inception_3a/pool_proj
I1126 10:05:26.688171 10292 net.cpp:397] inception_3a/prelu_pool_proj -> inception_3a/pool_proj (in-place)
I1126 10:05:26.688264 10292 net.cpp:150] Setting up inception_3a/prelu_pool_proj
I1126 10:05:26.688272 10292 net.cpp:157] Top shape: 32 32 28 28 (802816)
I1126 10:05:26.688277 10292 net.cpp:165] Memory required for data: 748225024
I1126 10:05:26.688282 10292 layer_factory.hpp:76] Creating layer inception_3a/output
I1126 10:05:26.688293 10292 net.cpp:106] Creating Layer inception_3a/output
I1126 10:05:26.688297 10292 net.cpp:454] inception_3a/output <- inception_3a/1x1
I1126 10:05:26.688302 10292 net.cpp:454] inception_3a/output <- inception_3a/3x3
I1126 10:05:26.688308 10292 net.cpp:454] inception_3a/output <- inception_3a/5x5
I1126 10:05:26.688311 10292 net.cpp:454] inception_3a/output <- inception_3a/pool_proj
I1126 10:05:26.688318 10292 net.cpp:411] inception_3a/output -> inception_3a/output
I1126 10:05:26.688345 10292 net.cpp:150] Setting up inception_3a/output
I1126 10:05:26.688351 10292 net.cpp:157] Top shape: 32 256 28 28 (6422528)
I1126 10:05:26.688355 10292 net.cpp:165] Memory required for data: 773915136
I1126 10:05:26.688359 10292 layer_factory.hpp:76] Creating layer inception_3a/output_inception_3a/output_0_split
I1126 10:05:26.688365 10292 net.cpp:106] Creating Layer inception_3a/output_inception_3a/output_0_split
I1126 10:05:26.688369 10292 net.cpp:454] inception_3a/output_inception_3a/output_0_split <- inception_3a/output
I1126 10:05:26.688374 10292 net.cpp:411] inception_3a/output_inception_3a/output_0_split -> inception_3a/output_inception_3a/output_0_split_0
I1126 10:05:26.688381 10292 net.cpp:411] inception_3a/output_inception_3a/output_0_split -> inception_3a/output_inception_3a/output_0_split_1
I1126 10:05:26.688388 10292 net.cpp:411] inception_3a/output_inception_3a/output_0_split -> inception_3a/output_inception_3a/output_0_split_2
I1126 10:05:26.688395 10292 net.cpp:411] inception_3a/output_inception_3a/output_0_split -> inception_3a/output_inception_3a/output_0_split_3
I1126 10:05:26.688442 10292 net.cpp:150] Setting up inception_3a/output_inception_3a/output_0_split
I1126 10:05:26.688449 10292 net.cpp:157] Top shape: 32 256 28 28 (6422528)
I1126 10:05:26.688463 10292 net.cpp:157] Top shape: 32 256 28 28 (6422528)
I1126 10:05:26.688469 10292 net.cpp:157] Top shape: 32 256 28 28 (6422528)
I1126 10:05:26.688490 10292 net.cpp:157] Top shape: 32 256 28 28 (6422528)
I1126 10:05:26.688494 10292 net.cpp:165] Memory required for data: 876675584
I1126 10:05:26.688498 10292 layer_factory.hpp:76] Creating layer inception_3b/1x1
I1126 10:05:26.688508 10292 net.cpp:106] Creating Layer inception_3b/1x1
I1126 10:05:26.688513 10292 net.cpp:454] inception_3b/1x1 <- inception_3a/output_inception_3a/output_0_split_0
I1126 10:05:26.688519 10292 net.cpp:411] inception_3b/1x1 -> inception_3b/1x1
I1126 10:05:26.689714 10292 cudnn_conv_layer.cpp:194] Reallocating workspace storage: 20664
I1126 10:05:26.689733 10292 net.cpp:150] Setting up inception_3b/1x1
I1126 10:05:26.689741 10292 net.cpp:157] Top shape: 32 128 28 28 (3211264)
I1126 10:05:26.689744 10292 net.cpp:165] Memory required for data: 889520640
I1126 10:05:26.689751 10292 layer_factory.hpp:76] Creating layer inception_3b/prelu_1x1
I1126 10:05:26.689761 10292 net.cpp:106] Creating Layer inception_3b/prelu_1x1
I1126 10:05:26.689766 10292 net.cpp:454] inception_3b/prelu_1x1 <- inception_3b/1x1
I1126 10:05:26.689772 10292 net.cpp:397] inception_3b/prelu_1x1 -> inception_3b/1x1 (in-place)
I1126 10:05:26.690448 10292 net.cpp:150] Setting up inception_3b/prelu_1x1
I1126 10:05:26.690460 10292 net.cpp:157] Top shape: 32 128 28 28 (3211264)
I1126 10:05:26.690464 10292 net.cpp:165] Memory required for data: 902365696
I1126 10:05:26.690470 10292 layer_factory.hpp:76] Creating layer inception_3b/3x3_reduce
I1126 10:05:26.690479 10292 net.cpp:106] Creating Layer inception_3b/3x3_reduce
I1126 10:05:26.690484 10292 net.cpp:454] inception_3b/3x3_reduce <- inception_3a/output_inception_3a/output_0_split_1
I1126 10:05:26.690491 10292 net.cpp:411] inception_3b/3x3_reduce -> inception_3b/3x3_reduce
I1126 10:05:26.691850 10292 cudnn_conv_layer.cpp:194] Reallocating workspace storage: 20664
I1126 10:05:26.691867 10292 net.cpp:150] Setting up inception_3b/3x3_reduce
I1126 10:05:26.691874 10292 net.cpp:157] Top shape: 32 128 28 28 (3211264)
I1126 10:05:26.691879 10292 net.cpp:165] Memory required for data: 915210752
I1126 10:05:26.691886 10292 layer_factory.hpp:76] Creating layer inception_3b/prelu_3x3_reduce
I1126 10:05:26.691897 10292 net.cpp:106] Creating Layer inception_3b/prelu_3x3_reduce
I1126 10:05:26.691902 10292 net.cpp:454] inception_3b/prelu_3x3_reduce <- inception_3b/3x3_reduce
I1126 10:05:26.691910 10292 net.cpp:397] inception_3b/prelu_3x3_reduce -> inception_3b/3x3_reduce (in-place)
I1126 10:05:26.692047 10292 net.cpp:150] Setting up inception_3b/prelu_3x3_reduce
I1126 10:05:26.692055 10292 net.cpp:157] Top shape: 32 128 28 28 (3211264)
I1126 10:05:26.692059 10292 net.cpp:165] Memory required for data: 928055808
I1126 10:05:26.692072 10292 layer_factory.hpp:76] Creating layer inception_3b/3x3
I1126 10:05:26.692085 10292 net.cpp:106] Creating Layer inception_3b/3x3
I1126 10:05:26.692090 10292 net.cpp:454] inception_3b/3x3 <- inception_3b/3x3_reduce
I1126 10:05:26.692098 10292 net.cpp:411] inception_3b/3x3 -> inception_3b/3x3
I1126 10:05:26.695088 10292 cudnn_conv_layer.cpp:194] Reallocating workspace storage: 20664
I1126 10:05:26.695125 10292 net.cpp:150] Setting up inception_3b/3x3
I1126 10:05:26.695137 10292 net.cpp:157] Top shape: 32 192 28 28 (4816896)
I1126 10:05:26.695142 10292 net.cpp:165] Memory required for data: 947323392
I1126 10:05:26.695152 10292 layer_factory.hpp:76] Creating layer inception_3b/prelu_3x3
I1126 10:05:26.695164 10292 net.cpp:106] Creating Layer inception_3b/prelu_3x3
I1126 10:05:26.695171 10292 net.cpp:454] inception_3b/prelu_3x3 <- inception_3b/3x3
I1126 10:05:26.695178 10292 net.cpp:397] inception_3b/prelu_3x3 -> inception_3b/3x3 (in-place)
I1126 10:05:26.695897 10292 net.cpp:150] Setting up inception_3b/prelu_3x3
I1126 10:05:26.695912 10292 net.cpp:157] Top shape: 32 192 28 28 (4816896)
I1126 10:05:26.695916 10292 net.cpp:165] Memory required for data: 966590976
I1126 10:05:26.695922 10292 layer_factory.hpp:76] Creating layer inception_3b/5x5_reduce
I1126 10:05:26.695935 10292 net.cpp:106] Creating Layer inception_3b/5x5_reduce
I1126 10:05:26.695965 10292 net.cpp:454] inception_3b/5x5_reduce <- inception_3a/output_inception_3a/output_0_split_2
I1126 10:05:26.695972 10292 net.cpp:411] inception_3b/5x5_reduce -> inception_3b/5x5_reduce
I1126 10:05:26.696872 10292 cudnn_conv_layer.cpp:194] Reallocating workspace storage: 20664
I1126 10:05:26.696892 10292 net.cpp:150] Setting up inception_3b/5x5_reduce
I1126 10:05:26.696899 10292 net.cpp:157] Top shape: 32 32 28 28 (802816)
I1126 10:05:26.696903 10292 net.cpp:165] Memory required for data: 969802240
I1126 10:05:26.696910 10292 layer_factory.hpp:76] Creating layer inception_3b/prelu_5x5_reduce
I1126 10:05:26.696919 10292 net.cpp:106] Creating Layer inception_3b/prelu_5x5_reduce
I1126 10:05:26.696925 10292 net.cpp:454] inception_3b/prelu_5x5_reduce <- inception_3b/5x5_reduce
I1126 10:05:26.696931 10292 net.cpp:397] inception_3b/prelu_5x5_reduce -> inception_3b/5x5_reduce (in-place)
I1126 10:05:26.697031 10292 net.cpp:150] Setting up inception_3b/prelu_5x5_reduce
I1126 10:05:26.697039 10292 net.cpp:157] Top shape: 32 32 28 28 (802816)
I1126 10:05:26.697043 10292 net.cpp:165] Memory required for data: 973013504
I1126 10:05:26.697048 10292 layer_factory.hpp:76] Creating layer inception_3b/5x5
I1126 10:05:26.697058 10292 net.cpp:106] Creating Layer inception_3b/5x5
I1126 10:05:26.697063 10292 net.cpp:454] inception_3b/5x5 <- inception_3b/5x5_reduce
I1126 10:05:26.697070 10292 net.cpp:411] inception_3b/5x5 -> inception_3b/5x5
I1126 10:05:26.698566 10292 cudnn_conv_layer.cpp:194] Reallocating workspace storage: 20664
I1126 10:05:26.698585 10292 net.cpp:150] Setting up inception_3b/5x5
I1126 10:05:26.698592 10292 net.cpp:157] Top shape: 32 96 28 28 (2408448)
I1126 10:05:26.698596 10292 net.cpp:165] Memory required for data: 982647296
I1126 10:05:26.698603 10292 layer_factory.hpp:76] Creating layer inception_3b/prelu_5x5
I1126 10:05:26.698612 10292 net.cpp:106] Creating Layer inception_3b/prelu_5x5
I1126 10:05:26.698617 10292 net.cpp:454] inception_3b/prelu_5x5 <- inception_3b/5x5
I1126 10:05:26.698626 10292 net.cpp:397] inception_3b/prelu_5x5 -> inception_3b/5x5 (in-place)
I1126 10:05:26.698763 10292 net.cpp:150] Setting up inception_3b/prelu_5x5
I1126 10:05:26.698771 10292 net.cpp:157] Top shape: 32 96 28 28 (2408448)
I1126 10:05:26.698776 10292 net.cpp:165] Memory required for data: 992281088
I1126 10:05:26.698781 10292 layer_factory.hpp:76] Creating layer inception_3b/pool
I1126 10:05:26.698791 10292 net.cpp:106] Creating Layer inception_3b/pool
I1126 10:05:26.698796 10292 net.cpp:454] inception_3b/pool <- inception_3a/output_inception_3a/output_0_split_3
I1126 10:05:26.698801 10292 net.cpp:411] inception_3b/pool -> inception_3b/pool
I1126 10:05:26.699228 10292 net.cpp:150] Setting up inception_3b/pool
I1126 10:05:26.699239 10292 net.cpp:157] Top shape: 32 256 28 28 (6422528)
I1126 10:05:26.699244 10292 net.cpp:165] Memory required for data: 1017971200
I1126 10:05:26.699247 10292 layer_factory.hpp:76] Creating layer inception_3b/pool_proj
I1126 10:05:26.699255 10292 net.cpp:106] Creating Layer inception_3b/pool_proj
I1126 10:05:26.699259 10292 net.cpp:454] inception_3b/pool_proj <- inception_3b/pool
I1126 10:05:26.699267 10292 net.cpp:411] inception_3b/pool_proj -> inception_3b/pool_proj
I1126 10:05:26.700359 10292 cudnn_conv_layer.cpp:194] Reallocating workspace storage: 20664
I1126 10:05:26.700376 10292 net.cpp:150] Setting up inception_3b/pool_proj
I1126 10:05:26.700384 10292 net.cpp:157] Top shape: 32 64 28 28 (1605632)
I1126 10:05:26.700388 10292 net.cpp:165] Memory required for data: 1024393728
I1126 10:05:26.700395 10292 layer_factory.hpp:76] Creating layer inception_3b/prelu_pool_proj
I1126 10:05:26.700403 10292 net.cpp:106] Creating Layer inception_3b/prelu_pool_proj
I1126 10:05:26.700409 10292 net.cpp:454] inception_3b/prelu_pool_proj <- inception_3b/pool_proj
I1126 10:05:26.700417 10292 net.cpp:397] inception_3b/prelu_pool_proj -> inception_3b/pool_proj (in-place)
I1126 10:05:26.700530 10292 net.cpp:150] Setting up inception_3b/prelu_pool_proj
I1126 10:05:26.700553 10292 net.cpp:157] Top shape: 32 64 28 28 (1605632)
I1126 10:05:26.700557 10292 net.cpp:165] Memory required for data: 1030816256
I1126 10:05:26.700563 10292 layer_factory.hpp:76] Creating layer inception_3b/output
I1126 10:05:26.700572 10292 net.cpp:106] Creating Layer inception_3b/output
I1126 10:05:26.700577 10292 net.cpp:454] inception_3b/output <- inception_3b/1x1
I1126 10:05:26.700582 10292 net.cpp:454] inception_3b/output <- inception_3b/3x3
I1126 10:05:26.700587 10292 net.cpp:454] inception_3b/output <- inception_3b/5x5
I1126 10:05:26.700590 10292 net.cpp:454] inception_3b/output <- inception_3b/pool_proj
I1126 10:05:26.700595 10292 net.cpp:411] inception_3b/output -> inception_3b/output
I1126 10:05:26.700620 10292 net.cpp:150] Setting up inception_3b/output
I1126 10:05:26.700628 10292 net.cpp:157] Top shape: 32 480 28 28 (12042240)
I1126 10:05:26.700631 10292 net.cpp:165] Memory required for data: 1078985216
I1126 10:05:26.700635 10292 layer_factory.hpp:76] Creating layer pool3/3x3_s2
I1126 10:05:26.700641 10292 net.cpp:106] Creating Layer pool3/3x3_s2
I1126 10:05:26.700645 10292 net.cpp:454] pool3/3x3_s2 <- inception_3b/output
I1126 10:05:26.700652 10292 net.cpp:411] pool3/3x3_s2 -> pool3/3x3_s2
I1126 10:05:26.701010 10292 net.cpp:150] Setting up pool3/3x3_s2
I1126 10:05:26.701021 10292 net.cpp:157] Top shape: 32 480 14 14 (3010560)
I1126 10:05:26.701025 10292 net.cpp:165] Memory required for data: 1091027456
I1126 10:05:26.701030 10292 layer_factory.hpp:76] Creating layer pool3/3x3_s2_pool3/3x3_s2_0_split
I1126 10:05:26.701037 10292 net.cpp:106] Creating Layer pool3/3x3_s2_pool3/3x3_s2_0_split
I1126 10:05:26.701042 10292 net.cpp:454] pool3/3x3_s2_pool3/3x3_s2_0_split <- pool3/3x3_s2
I1126 10:05:26.701047 10292 net.cpp:411] pool3/3x3_s2_pool3/3x3_s2_0_split -> pool3/3x3_s2_pool3/3x3_s2_0_split_0
I1126 10:05:26.701056 10292 net.cpp:411] pool3/3x3_s2_pool3/3x3_s2_0_split -> pool3/3x3_s2_pool3/3x3_s2_0_split_1
I1126 10:05:26.701062 10292 net.cpp:411] pool3/3x3_s2_pool3/3x3_s2_0_split -> pool3/3x3_s2_pool3/3x3_s2_0_split_2
I1126 10:05:26.701069 10292 net.cpp:411] pool3/3x3_s2_pool3/3x3_s2_0_split -> pool3/3x3_s2_pool3/3x3_s2_0_split_3
I1126 10:05:26.701120 10292 net.cpp:150] Setting up pool3/3x3_s2_pool3/3x3_s2_0_split
I1126 10:05:26.701128 10292 net.cpp:157] Top shape: 32 480 14 14 (3010560)
I1126 10:05:26.701133 10292 net.cpp:157] Top shape: 32 480 14 14 (3010560)
I1126 10:05:26.701138 10292 net.cpp:157] Top shape: 32 480 14 14 (3010560)
I1126 10:05:26.701143 10292 net.cpp:157] Top shape: 32 480 14 14 (3010560)
I1126 10:05:26.701146 10292 net.cpp:165] Memory required for data: 1139196416
I1126 10:05:26.701150 10292 layer_factory.hpp:76] Creating layer inception_4a/1x1
I1126 10:05:26.701159 10292 net.cpp:106] Creating Layer inception_4a/1x1
I1126 10:05:26.701164 10292 net.cpp:454] inception_4a/1x1 <- pool3/3x3_s2_pool3/3x3_s2_0_split_0
I1126 10:05:26.701171 10292 net.cpp:411] inception_4a/1x1 -> inception_4a/1x1
I1126 10:05:26.703176 10292 cudnn_conv_layer.cpp:194] Reallocating workspace storage: 10080
I1126 10:05:26.703382 10292 net.cpp:150] Setting up inception_4a/1x1
I1126 10:05:26.703393 10292 net.cpp:157] Top shape: 32 192 14 14 (1204224)
I1126 10:05:26.703397 10292 net.cpp:165] Memory required for data: 1144013312
I1126 10:05:26.703404 10292 layer_factory.hpp:76] Creating layer inception_4a/prelu_1x1
I1126 10:05:26.703413 10292 net.cpp:106] Creating Layer inception_4a/prelu_1x1
I1126 10:05:26.703418 10292 net.cpp:454] inception_4a/prelu_1x1 <- inception_4a/1x1
I1126 10:05:26.703425 10292 net.cpp:397] inception_4a/prelu_1x1 -> inception_4a/1x1 (in-place)
I1126 10:05:26.704035 10292 net.cpp:150] Setting up inception_4a/prelu_1x1
I1126 10:05:26.704056 10292 net.cpp:157] Top shape: 32 192 14 14 (1204224)
I1126 10:05:26.704061 10292 net.cpp:165] Memory required for data: 1148830208
I1126 10:05:26.704066 10292 layer_factory.hpp:76] Creating layer inception_4a/3x3_reduce
I1126 10:05:26.704077 10292 net.cpp:106] Creating Layer inception_4a/3x3_reduce
I1126 10:05:26.704082 10292 net.cpp:454] inception_4a/3x3_reduce <- pool3/3x3_s2_pool3/3x3_s2_0_split_1
I1126 10:05:26.704104 10292 net.cpp:411] inception_4a/3x3_reduce -> inception_4a/3x3_reduce
I1126 10:05:26.705430 10292 cudnn_conv_layer.cpp:194] Reallocating workspace storage: 10080
I1126 10:05:26.705456 10292 net.cpp:150] Setting up inception_4a/3x3_reduce
I1126 10:05:26.705463 10292 net.cpp:157] Top shape: 32 96 14 14 (602112)
I1126 10:05:26.705468 10292 net.cpp:165] Memory required for data: 1151238656
I1126 10:05:26.705474 10292 layer_factory.hpp:76] Creating layer inception_4a/prelu_3x3_reduce
I1126 10:05:26.705482 10292 net.cpp:106] Creating Layer inception_4a/prelu_3x3_reduce
I1126 10:05:26.705487 10292 net.cpp:454] inception_4a/prelu_3x3_reduce <- inception_4a/3x3_reduce
I1126 10:05:26.705493 10292 net.cpp:397] inception_4a/prelu_3x3_reduce -> inception_4a/3x3_reduce (in-place)
I1126 10:05:26.705582 10292 net.cpp:150] Setting up inception_4a/prelu_3x3_reduce
I1126 10:05:26.705590 10292 net.cpp:157] Top shape: 32 96 14 14 (602112)
I1126 10:05:26.705595 10292 net.cpp:165] Memory required for data: 1153647104
I1126 10:05:26.705600 10292 layer_factory.hpp:76] Creating layer inception_4a/3x3
I1126 10:05:26.705608 10292 net.cpp:106] Creating Layer inception_4a/3x3
I1126 10:05:26.705612 10292 net.cpp:454] inception_4a/3x3 <- inception_4a/3x3_reduce
I1126 10:05:26.705621 10292 net.cpp:411] inception_4a/3x3 -> inception_4a/3x3
I1126 10:05:26.707926 10292 cudnn_conv_layer.cpp:194] Reallocating workspace storage: 10080
I1126 10:05:26.707952 10292 net.cpp:150] Setting up inception_4a/3x3
I1126 10:05:26.707962 10292 net.cpp:157] Top shape: 32 208 14 14 (1304576)
I1126 10:05:26.707965 10292 net.cpp:165] Memory required for data: 1158865408
I1126 10:05:26.707973 10292 layer_factory.hpp:76] Creating layer inception_4a/prelu_3x3
I1126 10:05:26.707980 10292 net.cpp:106] Creating Layer inception_4a/prelu_3x3
I1126 10:05:26.707985 10292 net.cpp:454] inception_4a/prelu_3x3 <- inception_4a/3x3
I1126 10:05:26.707995 10292 net.cpp:397] inception_4a/prelu_3x3 -> inception_4a/3x3 (in-place)
I1126 10:05:26.708101 10292 net.cpp:150] Setting up inception_4a/prelu_3x3
I1126 10:05:26.708109 10292 net.cpp:157] Top shape: 32 208 14 14 (1304576)
I1126 10:05:26.708113 10292 net.cpp:165] Memory required for data: 1164083712
I1126 10:05:26.708118 10292 layer_factory.hpp:76] Creating layer inception_4a/5x5_reduce
I1126 10:05:26.708129 10292 net.cpp:106] Creating Layer inception_4a/5x5_reduce
I1126 10:05:26.708134 10292 net.cpp:454] inception_4a/5x5_reduce <- pool3/3x3_s2_pool3/3x3_s2_0_split_2
I1126 10:05:26.708140 10292 net.cpp:411] inception_4a/5x5_reduce -> inception_4a/5x5_reduce
I1126 10:05:26.709206 10292 cudnn_conv_layer.cpp:194] Reallocating workspace storage: 10080
I1126 10:05:26.709229 10292 net.cpp:150] Setting up inception_4a/5x5_reduce
I1126 10:05:26.709236 10292 net.cpp:157] Top shape: 32 16 14 14 (100352)
I1126 10:05:26.709240 10292 net.cpp:165] Memory required for data: 1164485120
I1126 10:05:26.709247 10292 layer_factory.hpp:76] Creating layer inception_4a/prelu_5x5_reduce
I1126 10:05:26.709256 10292 net.cpp:106] Creating Layer inception_4a/prelu_5x5_reduce
I1126 10:05:26.709260 10292 net.cpp:454] inception_4a/prelu_5x5_reduce <- inception_4a/5x5_reduce
I1126 10:05:26.709269 10292 net.cpp:397] inception_4a/prelu_5x5_reduce -> inception_4a/5x5_reduce (in-place)
I1126 10:05:26.709352 10292 net.cpp:150] Setting up inception_4a/prelu_5x5_reduce
I1126 10:05:26.709358 10292 net.cpp:157] Top shape: 32 16 14 14 (100352)
I1126 10:05:26.709362 10292 net.cpp:165] Memory required for data: 1164886528
I1126 10:05:26.709367 10292 layer_factory.hpp:76] Creating layer inception_4a/5x5
I1126 10:05:26.709377 10292 net.cpp:106] Creating Layer inception_4a/5x5
I1126 10:05:26.709381 10292 net.cpp:454] inception_4a/5x5 <- inception_4a/5x5_reduce
I1126 10:05:26.709391 10292 net.cpp:411] inception_4a/5x5 -> inception_4a/5x5
I1126 10:05:26.710547 10292 cudnn_conv_layer.cpp:194] Reallocating workspace storage: 13080
I1126 10:05:26.710572 10292 net.cpp:150] Setting up inception_4a/5x5
I1126 10:05:26.710579 10292 net.cpp:157] Top shape: 32 48 14 14 (301056)
I1126 10:05:26.710607 10292 net.cpp:165] Memory required for data: 1166090752
I1126 10:05:26.710615 10292 layer_factory.hpp:76] Creating layer inception_4a/prelu_5x5
I1126 10:05:26.710625 10292 net.cpp:106] Creating Layer inception_4a/prelu_5x5
I1126 10:05:26.710630 10292 net.cpp:454] inception_4a/prelu_5x5 <- inception_4a/5x5
I1126 10:05:26.710638 10292 net.cpp:397] inception_4a/prelu_5x5 -> inception_4a/5x5 (in-place)
I1126 10:05:26.710731 10292 net.cpp:150] Setting up inception_4a/prelu_5x5
I1126 10:05:26.710739 10292 net.cpp:157] Top shape: 32 48 14 14 (301056)
I1126 10:05:26.710743 10292 net.cpp:165] Memory required for data: 1167294976
I1126 10:05:26.710748 10292 layer_factory.hpp:76] Creating layer inception_4a/pool
I1126 10:05:26.710760 10292 net.cpp:106] Creating Layer inception_4a/pool
I1126 10:05:26.710765 10292 net.cpp:454] inception_4a/pool <- pool3/3x3_s2_pool3/3x3_s2_0_split_3
I1126 10:05:26.710772 10292 net.cpp:411] inception_4a/pool -> inception_4a/pool
I1126 10:05:26.711144 10292 net.cpp:150] Setting up inception_4a/pool
I1126 10:05:26.711154 10292 net.cpp:157] Top shape: 32 480 14 14 (3010560)
I1126 10:05:26.711158 10292 net.cpp:165] Memory required for data: 1179337216
I1126 10:05:26.711163 10292 layer_factory.hpp:76] Creating layer inception_4a/pool_proj
I1126 10:05:26.711174 10292 net.cpp:106] Creating Layer inception_4a/pool_proj
I1126 10:05:26.711179 10292 net.cpp:454] inception_4a/pool_proj <- inception_4a/pool
I1126 10:05:26.711185 10292 net.cpp:411] inception_4a/pool_proj -> inception_4a/pool_proj
I1126 10:05:26.712223 10292 cudnn_conv_layer.cpp:194] Reallocating workspace storage: 10080
I1126 10:05:26.712251 10292 net.cpp:150] Setting up inception_4a/pool_proj
I1126 10:05:26.712258 10292 net.cpp:157] Top shape: 32 64 14 14 (401408)
I1126 10:05:26.712262 10292 net.cpp:165] Memory required for data: 1180942848
I1126 10:05:26.712270 10292 layer_factory.hpp:76] Creating layer inception_4a/prelu_pool_proj
I1126 10:05:26.712280 10292 net.cpp:106] Creating Layer inception_4a/prelu_pool_proj
I1126 10:05:26.712285 10292 net.cpp:454] inception_4a/prelu_pool_proj <- inception_4a/pool_proj
I1126 10:05:26.712290 10292 net.cpp:397] inception_4a/prelu_pool_proj -> inception_4a/pool_proj (in-place)
I1126 10:05:26.712386 10292 net.cpp:150] Setting up inception_4a/prelu_pool_proj
I1126 10:05:26.712394 10292 net.cpp:157] Top shape: 32 64 14 14 (401408)
I1126 10:05:26.712398 10292 net.cpp:165] Memory required for data: 1182548480
I1126 10:05:26.712402 10292 layer_factory.hpp:76] Creating layer inception_4a/output
I1126 10:05:26.712411 10292 net.cpp:106] Creating Layer inception_4a/output
I1126 10:05:26.712416 10292 net.cpp:454] inception_4a/output <- inception_4a/1x1
I1126 10:05:26.712421 10292 net.cpp:454] inception_4a/output <- inception_4a/3x3
I1126 10:05:26.712425 10292 net.cpp:454] inception_4a/output <- inception_4a/5x5
I1126 10:05:26.712430 10292 net.cpp:454] inception_4a/output <- inception_4a/pool_proj
I1126 10:05:26.712435 10292 net.cpp:411] inception_4a/output -> inception_4a/output
I1126 10:05:26.712460 10292 net.cpp:150] Setting up inception_4a/output
I1126 10:05:26.712466 10292 net.cpp:157] Top shape: 32 512 14 14 (3211264)
I1126 10:05:26.712471 10292 net.cpp:165] Memory required for data: 1195393536
I1126 10:05:26.712474 10292 layer_factory.hpp:76] Creating layer inception_4a/output_inception_4a/output_0_split
I1126 10:05:26.712481 10292 net.cpp:106] Creating Layer inception_4a/output_inception_4a/output_0_split
I1126 10:05:26.712486 10292 net.cpp:454] inception_4a/output_inception_4a/output_0_split <- inception_4a/output
I1126 10:05:26.712492 10292 net.cpp:411] inception_4a/output_inception_4a/output_0_split -> inception_4a/output_inception_4a/output_0_split_0
I1126 10:05:26.712499 10292 net.cpp:411] inception_4a/output_inception_4a/output_0_split -> inception_4a/output_inception_4a/output_0_split_1
I1126 10:05:26.712507 10292 net.cpp:411] inception_4a/output_inception_4a/output_0_split -> inception_4a/output_inception_4a/output_0_split_2
I1126 10:05:26.712527 10292 net.cpp:411] inception_4a/output_inception_4a/output_0_split -> inception_4a/output_inception_4a/output_0_split_3
I1126 10:05:26.712534 10292 net.cpp:411] inception_4a/output_inception_4a/output_0_split -> inception_4a/output_inception_4a/output_0_split_4
I1126 10:05:26.712595 10292 net.cpp:150] Setting up inception_4a/output_inception_4a/output_0_split
I1126 10:05:26.712602 10292 net.cpp:157] Top shape: 32 512 14 14 (3211264)
I1126 10:05:26.712607 10292 net.cpp:157] Top shape: 32 512 14 14 (3211264)
I1126 10:05:26.712611 10292 net.cpp:157] Top shape: 32 512 14 14 (3211264)
I1126 10:05:26.712616 10292 net.cpp:157] Top shape: 32 512 14 14 (3211264)
I1126 10:05:26.712620 10292 net.cpp:157] Top shape: 32 512 14 14 (3211264)
I1126 10:05:26.712625 10292 net.cpp:165] Memory required for data: 1259618816
I1126 10:05:26.712628 10292 layer_factory.hpp:76] Creating layer loss1/ave_pool
I1126 10:05:26.712636 10292 net.cpp:106] Creating Layer loss1/ave_pool
I1126 10:05:26.712641 10292 net.cpp:454] loss1/ave_pool <- inception_4a/output_inception_4a/output_0_split_0
I1126 10:05:26.712646 10292 net.cpp:411] loss1/ave_pool -> loss1/ave_pool
I1126 10:05:26.713032 10292 net.cpp:150] Setting up loss1/ave_pool
I1126 10:05:26.713042 10292 net.cpp:157] Top shape: 32 512 4 4 (262144)
I1126 10:05:26.713047 10292 net.cpp:165] Memory required for data: 1260667392
I1126 10:05:26.713050 10292 layer_factory.hpp:76] Creating layer loss1/conv
I1126 10:05:26.713059 10292 net.cpp:106] Creating Layer loss1/conv
I1126 10:05:26.713064 10292 net.cpp:454] loss1/conv <- loss1/ave_pool
I1126 10:05:26.713073 10292 net.cpp:411] loss1/conv -> loss1/conv
I1126 10:05:26.714457 10292 cudnn_conv_layer.cpp:194] Reallocating workspace storage: 6840
I1126 10:05:26.714478 10292 net.cpp:150] Setting up loss1/conv
I1126 10:05:26.714485 10292 net.cpp:157] Top shape: 32 128 4 4 (65536)
I1126 10:05:26.714489 10292 net.cpp:165] Memory required for data: 1260929536
I1126 10:05:26.714509 10292 layer_factory.hpp:76] Creating layer loss1/prelu_conv
I1126 10:05:26.714519 10292 net.cpp:106] Creating Layer loss1/prelu_conv
I1126 10:05:26.714524 10292 net.cpp:454] loss1/prelu_conv <- loss1/conv
I1126 10:05:26.714530 10292 net.cpp:397] loss1/prelu_conv -> loss1/conv (in-place)
I1126 10:05:26.714614 10292 net.cpp:150] Setting up loss1/prelu_conv
I1126 10:05:26.714622 10292 net.cpp:157] Top shape: 32 128 4 4 (65536)
I1126 10:05:26.714627 10292 net.cpp:165] Memory required for data: 1261191680
I1126 10:05:26.714632 10292 layer_factory.hpp:76] Creating layer loss1/fc
I1126 10:05:26.714643 10292 net.cpp:106] Creating Layer loss1/fc
I1126 10:05:26.714648 10292 net.cpp:454] loss1/fc <- loss1/conv
I1126 10:05:26.714656 10292 net.cpp:411] loss1/fc -> loss1/fc
I1126 10:05:26.729115 10292 net.cpp:150] Setting up loss1/fc
I1126 10:05:26.729151 10292 net.cpp:157] Top shape: 32 1024 (32768)
I1126 10:05:26.729154 10292 net.cpp:165] Memory required for data: 1261322752
I1126 10:05:26.729164 10292 layer_factory.hpp:76] Creating layer loss1/prelu_fc
I1126 10:05:26.729176 10292 net.cpp:106] Creating Layer loss1/prelu_fc
I1126 10:05:26.729182 10292 net.cpp:454] loss1/prelu_fc <- loss1/fc
I1126 10:05:26.729192 10292 net.cpp:397] loss1/prelu_fc -> loss1/fc (in-place)
I1126 10:05:26.729270 10292 net.cpp:150] Setting up loss1/prelu_fc
I1126 10:05:26.729279 10292 net.cpp:157] Top shape: 32 1024 (32768)
I1126 10:05:26.729282 10292 net.cpp:165] Memory required for data: 1261453824
I1126 10:05:26.729287 10292 layer_factory.hpp:76] Creating layer loss1/drop_fc
I1126 10:05:26.729305 10292 net.cpp:106] Creating Layer loss1/drop_fc
I1126 10:05:26.729310 10292 net.cpp:454] loss1/drop_fc <- loss1/fc
I1126 10:05:26.729316 10292 net.cpp:397] loss1/drop_fc -> loss1/fc (in-place)
I1126 10:05:26.729346 10292 net.cpp:150] Setting up loss1/drop_fc
I1126 10:05:26.729353 10292 net.cpp:157] Top shape: 32 1024 (32768)
I1126 10:05:26.729357 10292 net.cpp:165] Memory required for data: 1261584896
I1126 10:05:26.729362 10292 layer_factory.hpp:76] Creating layer loss1/classifier2
I1126 10:05:26.729368 10292 net.cpp:106] Creating Layer loss1/classifier2
I1126 10:05:26.729403 10292 net.cpp:454] loss1/classifier2 <- loss1/fc
I1126 10:05:26.729413 10292 net.cpp:411] loss1/classifier2 -> loss1/classifier
I1126 10:05:26.729521 10292 net.cpp:150] Setting up loss1/classifier2
I1126 10:05:26.729529 10292 net.cpp:157] Top shape: 32 2 (64)
I1126 10:05:26.729532 10292 net.cpp:165] Memory required for data: 1261585152
I1126 10:05:26.729539 10292 layer_factory.hpp:76] Creating layer loss1/loss
I1126 10:05:26.729548 10292 net.cpp:106] Creating Layer loss1/loss
I1126 10:05:26.729553 10292 net.cpp:454] loss1/loss <- loss1/classifier
I1126 10:05:26.729558 10292 net.cpp:454] loss1/loss <- label_data_1_split_0
I1126 10:05:26.729564 10292 net.cpp:411] loss1/loss -> loss1/loss1
I1126 10:05:26.729578 10292 layer_factory.hpp:76] Creating layer loss1/loss
I1126 10:05:26.729851 10292 net.cpp:150] Setting up loss1/loss
I1126 10:05:26.729859 10292 net.cpp:157] Top shape: (1)
I1126 10:05:26.729863 10292 net.cpp:160]     with loss weight 0.3
I1126 10:05:26.729885 10292 net.cpp:165] Memory required for data: 1261585156
I1126 10:05:26.729889 10292 layer_factory.hpp:76] Creating layer inception_4b/1x1
I1126 10:05:26.729900 10292 net.cpp:106] Creating Layer inception_4b/1x1
I1126 10:05:26.729905 10292 net.cpp:454] inception_4b/1x1 <- inception_4a/output_inception_4a/output_0_split_1
I1126 10:05:26.729912 10292 net.cpp:411] inception_4b/1x1 -> inception_4b/1x1
I1126 10:05:26.731436 10292 cudnn_conv_layer.cpp:194] Reallocating workspace storage: 10080
I1126 10:05:26.731463 10292 net.cpp:150] Setting up inception_4b/1x1
I1126 10:05:26.731470 10292 net.cpp:157] Top shape: 32 160 14 14 (1003520)
I1126 10:05:26.731475 10292 net.cpp:165] Memory required for data: 1265599236
I1126 10:05:26.731482 10292 layer_factory.hpp:76] Creating layer inception_4b/prelu_1x1
I1126 10:05:26.731490 10292 net.cpp:106] Creating Layer inception_4b/prelu_1x1
I1126 10:05:26.731495 10292 net.cpp:454] inception_4b/prelu_1x1 <- inception_4b/1x1
I1126 10:05:26.731501 10292 net.cpp:397] inception_4b/prelu_1x1 -> inception_4b/1x1 (in-place)
I1126 10:05:26.732079 10292 net.cpp:150] Setting up inception_4b/prelu_1x1
I1126 10:05:26.732090 10292 net.cpp:157] Top shape: 32 160 14 14 (1003520)
I1126 10:05:26.732095 10292 net.cpp:165] Memory required for data: 1269613316
I1126 10:05:26.732100 10292 layer_factory.hpp:76] Creating layer inception_4b/3x3_reduce
I1126 10:05:26.732107 10292 net.cpp:106] Creating Layer inception_4b/3x3_reduce
I1126 10:05:26.732112 10292 net.cpp:454] inception_4b/3x3_reduce <- inception_4a/output_inception_4a/output_0_split_2
I1126 10:05:26.732120 10292 net.cpp:411] inception_4b/3x3_reduce -> inception_4b/3x3_reduce
I1126 10:05:26.733621 10292 cudnn_conv_layer.cpp:194] Reallocating workspace storage: 10080
I1126 10:05:26.733645 10292 net.cpp:150] Setting up inception_4b/3x3_reduce
I1126 10:05:26.733654 10292 net.cpp:157] Top shape: 32 112 14 14 (702464)
I1126 10:05:26.733657 10292 net.cpp:165] Memory required for data: 1272423172
I1126 10:05:26.733664 10292 layer_factory.hpp:76] Creating layer inception_4b/prelu_3x3_reduce
I1126 10:05:26.733671 10292 net.cpp:106] Creating Layer inception_4b/prelu_3x3_reduce
I1126 10:05:26.733675 10292 net.cpp:454] inception_4b/prelu_3x3_reduce <- inception_4b/3x3_reduce
I1126 10:05:26.733681 10292 net.cpp:397] inception_4b/prelu_3x3_reduce -> inception_4b/3x3_reduce (in-place)
I1126 10:05:26.733769 10292 net.cpp:150] Setting up inception_4b/prelu_3x3_reduce
I1126 10:05:26.733777 10292 net.cpp:157] Top shape: 32 112 14 14 (702464)
I1126 10:05:26.733782 10292 net.cpp:165] Memory required for data: 1275233028
I1126 10:05:26.733786 10292 layer_factory.hpp:76] Creating layer inception_4b/3x3
I1126 10:05:26.733794 10292 net.cpp:106] Creating Layer inception_4b/3x3
I1126 10:05:26.733799 10292 net.cpp:454] inception_4b/3x3 <- inception_4b/3x3_reduce
I1126 10:05:26.733806 10292 net.cpp:411] inception_4b/3x3 -> inception_4b/3x3
I1126 10:05:26.736469 10292 cudnn_conv_layer.cpp:194] Reallocating workspace storage: 10080
I1126 10:05:26.736491 10292 net.cpp:150] Setting up inception_4b/3x3
I1126 10:05:26.736510 10292 net.cpp:157] Top shape: 32 224 14 14 (1404928)
I1126 10:05:26.736515 10292 net.cpp:165] Memory required for data: 1280852740
I1126 10:05:26.736521 10292 layer_factory.hpp:76] Creating layer inception_4b/prelu_3x3
I1126 10:05:26.736532 10292 net.cpp:106] Creating Layer inception_4b/prelu_3x3
I1126 10:05:26.736537 10292 net.cpp:454] inception_4b/prelu_3x3 <- inception_4b/3x3
I1126 10:05:26.736543 10292 net.cpp:397] inception_4b/prelu_3x3 -> inception_4b/3x3 (in-place)
I1126 10:05:26.736647 10292 net.cpp:150] Setting up inception_4b/prelu_3x3
I1126 10:05:26.736655 10292 net.cpp:157] Top shape: 32 224 14 14 (1404928)
I1126 10:05:26.736660 10292 net.cpp:165] Memory required for data: 1286472452
I1126 10:05:26.736665 10292 layer_factory.hpp:76] Creating layer inception_4b/5x5_reduce
I1126 10:05:26.736673 10292 net.cpp:106] Creating Layer inception_4b/5x5_reduce
I1126 10:05:26.736677 10292 net.cpp:454] inception_4b/5x5_reduce <- inception_4a/output_inception_4a/output_0_split_3
I1126 10:05:26.736685 10292 net.cpp:411] inception_4b/5x5_reduce -> inception_4b/5x5_reduce
I1126 10:05:26.737550 10292 cudnn_conv_layer.cpp:194] Reallocating workspace storage: 10080
I1126 10:05:26.737573 10292 net.cpp:150] Setting up inception_4b/5x5_reduce
I1126 10:05:26.737581 10292 net.cpp:157] Top shape: 32 24 14 14 (150528)
I1126 10:05:26.737584 10292 net.cpp:165] Memory required for data: 1287074564
I1126 10:05:26.737591 10292 layer_factory.hpp:76] Creating layer inception_4b/prelu_5x5_reduce
I1126 10:05:26.737597 10292 net.cpp:106] Creating Layer inception_4b/prelu_5x5_reduce
I1126 10:05:26.737602 10292 net.cpp:454] inception_4b/prelu_5x5_reduce <- inception_4b/5x5_reduce
I1126 10:05:26.737609 10292 net.cpp:397] inception_4b/prelu_5x5_reduce -> inception_4b/5x5_reduce (in-place)
I1126 10:05:26.737692 10292 net.cpp:150] Setting up inception_4b/prelu_5x5_reduce
I1126 10:05:26.737701 10292 net.cpp:157] Top shape: 32 24 14 14 (150528)
I1126 10:05:26.737705 10292 net.cpp:165] Memory required for data: 1287676676
I1126 10:05:26.737710 10292 layer_factory.hpp:76] Creating layer inception_4b/5x5
I1126 10:05:26.737717 10292 net.cpp:106] Creating Layer inception_4b/5x5
I1126 10:05:26.737721 10292 net.cpp:454] inception_4b/5x5 <- inception_4b/5x5_reduce
I1126 10:05:26.737730 10292 net.cpp:411] inception_4b/5x5 -> inception_4b/5x5
I1126 10:05:26.738904 10292 cudnn_conv_layer.cpp:194] Reallocating workspace storage: 13080
I1126 10:05:26.738934 10292 net.cpp:150] Setting up inception_4b/5x5
I1126 10:05:26.738940 10292 net.cpp:157] Top shape: 32 64 14 14 (401408)
I1126 10:05:26.738945 10292 net.cpp:165] Memory required for data: 1289282308
I1126 10:05:26.738951 10292 layer_factory.hpp:76] Creating layer inception_4b/prelu_5x5
I1126 10:05:26.738960 10292 net.cpp:106] Creating Layer inception_4b/prelu_5x5
I1126 10:05:26.738965 10292 net.cpp:454] inception_4b/prelu_5x5 <- inception_4b/5x5
I1126 10:05:26.738972 10292 net.cpp:397] inception_4b/prelu_5x5 -> inception_4b/5x5 (in-place)
I1126 10:05:26.739076 10292 net.cpp:150] Setting up inception_4b/prelu_5x5
I1126 10:05:26.739084 10292 net.cpp:157] Top shape: 32 64 14 14 (401408)
I1126 10:05:26.739089 10292 net.cpp:165] Memory required for data: 1290887940
I1126 10:05:26.739094 10292 layer_factory.hpp:76] Creating layer inception_4b/pool
I1126 10:05:26.739100 10292 net.cpp:106] Creating Layer inception_4b/pool
I1126 10:05:26.739104 10292 net.cpp:454] inception_4b/pool <- inception_4a/output_inception_4a/output_0_split_4
I1126 10:05:26.739111 10292 net.cpp:411] inception_4b/pool -> inception_4b/pool
I1126 10:05:26.739477 10292 net.cpp:150] Setting up inception_4b/pool
I1126 10:05:26.739488 10292 net.cpp:157] Top shape: 32 512 14 14 (3211264)
I1126 10:05:26.739492 10292 net.cpp:165] Memory required for data: 1303732996
I1126 10:05:26.739496 10292 layer_factory.hpp:76] Creating layer inception_4b/pool_proj
I1126 10:05:26.739507 10292 net.cpp:106] Creating Layer inception_4b/pool_proj
I1126 10:05:26.739512 10292 net.cpp:454] inception_4b/pool_proj <- inception_4b/pool
I1126 10:05:26.739528 10292 net.cpp:411] inception_4b/pool_proj -> inception_4b/pool_proj
I1126 10:05:26.740684 10292 cudnn_conv_layer.cpp:194] Reallocating workspace storage: 10080
I1126 10:05:26.740710 10292 net.cpp:150] Setting up inception_4b/pool_proj
I1126 10:05:26.740722 10292 net.cpp:157] Top shape: 32 64 14 14 (401408)
I1126 10:05:26.740731 10292 net.cpp:165] Memory required for data: 1305338628
I1126 10:05:26.740739 10292 layer_factory.hpp:76] Creating layer inception_4b/prelu_pool_proj
I1126 10:05:26.740747 10292 net.cpp:106] Creating Layer inception_4b/prelu_pool_proj
I1126 10:05:26.740752 10292 net.cpp:454] inception_4b/prelu_pool_proj <- inception_4b/pool_proj
I1126 10:05:26.740759 10292 net.cpp:397] inception_4b/prelu_pool_proj -> inception_4b/pool_proj (in-place)
I1126 10:05:26.740851 10292 net.cpp:150] Setting up inception_4b/prelu_pool_proj
I1126 10:05:26.740859 10292 net.cpp:157] Top shape: 32 64 14 14 (401408)
I1126 10:05:26.740864 10292 net.cpp:165] Memory required for data: 1306944260
I1126 10:05:26.740869 10292 layer_factory.hpp:76] Creating layer inception_4b/output
I1126 10:05:26.740876 10292 net.cpp:106] Creating Layer inception_4b/output
I1126 10:05:26.740880 10292 net.cpp:454] inception_4b/output <- inception_4b/1x1
I1126 10:05:26.740885 10292 net.cpp:454] inception_4b/output <- inception_4b/3x3
I1126 10:05:26.740890 10292 net.cpp:454] inception_4b/output <- inception_4b/5x5
I1126 10:05:26.740893 10292 net.cpp:454] inception_4b/output <- inception_4b/pool_proj
I1126 10:05:26.740898 10292 net.cpp:411] inception_4b/output -> inception_4b/output
I1126 10:05:26.740924 10292 net.cpp:150] Setting up inception_4b/output
I1126 10:05:26.740931 10292 net.cpp:157] Top shape: 32 512 14 14 (3211264)
I1126 10:05:26.740936 10292 net.cpp:165] Memory required for data: 1319789316
I1126 10:05:26.740938 10292 layer_factory.hpp:76] Creating layer inception_4b/output_inception_4b/output_0_split
I1126 10:05:26.740945 10292 net.cpp:106] Creating Layer inception_4b/output_inception_4b/output_0_split
I1126 10:05:26.740949 10292 net.cpp:454] inception_4b/output_inception_4b/output_0_split <- inception_4b/output
I1126 10:05:26.740955 10292 net.cpp:411] inception_4b/output_inception_4b/output_0_split -> inception_4b/output_inception_4b/output_0_split_0
I1126 10:05:26.740962 10292 net.cpp:411] inception_4b/output_inception_4b/output_0_split -> inception_4b/output_inception_4b/output_0_split_1
I1126 10:05:26.740969 10292 net.cpp:411] inception_4b/output_inception_4b/output_0_split -> inception_4b/output_inception_4b/output_0_split_2
I1126 10:05:26.740975 10292 net.cpp:411] inception_4b/output_inception_4b/output_0_split -> inception_4b/output_inception_4b/output_0_split_3
I1126 10:05:26.741029 10292 net.cpp:150] Setting up inception_4b/output_inception_4b/output_0_split
I1126 10:05:26.741036 10292 net.cpp:157] Top shape: 32 512 14 14 (3211264)
I1126 10:05:26.741041 10292 net.cpp:157] Top shape: 32 512 14 14 (3211264)
I1126 10:05:26.741046 10292 net.cpp:157] Top shape: 32 512 14 14 (3211264)
I1126 10:05:26.741050 10292 net.cpp:157] Top shape: 32 512 14 14 (3211264)
I1126 10:05:26.741055 10292 net.cpp:165] Memory required for data: 1371169540
I1126 10:05:26.741057 10292 layer_factory.hpp:76] Creating layer inception_4c/1x1
I1126 10:05:26.741066 10292 net.cpp:106] Creating Layer inception_4c/1x1
I1126 10:05:26.741070 10292 net.cpp:454] inception_4c/1x1 <- inception_4b/output_inception_4b/output_0_split_0
I1126 10:05:26.741076 10292 net.cpp:411] inception_4c/1x1 -> inception_4c/1x1
I1126 10:05:26.742748 10292 cudnn_conv_layer.cpp:194] Reallocating workspace storage: 10080
I1126 10:05:26.742775 10292 net.cpp:150] Setting up inception_4c/1x1
I1126 10:05:26.742782 10292 net.cpp:157] Top shape: 32 128 14 14 (802816)
I1126 10:05:26.742786 10292 net.cpp:165] Memory required for data: 1374380804
I1126 10:05:26.742794 10292 layer_factory.hpp:76] Creating layer inception_4c/prelu_1x1
I1126 10:05:26.742802 10292 net.cpp:106] Creating Layer inception_4c/prelu_1x1
I1126 10:05:26.742806 10292 net.cpp:454] inception_4c/prelu_1x1 <- inception_4c/1x1
I1126 10:05:26.742826 10292 net.cpp:397] inception_4c/prelu_1x1 -> inception_4c/1x1 (in-place)
I1126 10:05:26.742918 10292 net.cpp:150] Setting up inception_4c/prelu_1x1
I1126 10:05:26.742926 10292 net.cpp:157] Top shape: 32 128 14 14 (802816)
I1126 10:05:26.742930 10292 net.cpp:165] Memory required for data: 1377592068
I1126 10:05:26.742935 10292 layer_factory.hpp:76] Creating layer inception_4c/3x3_reduce
I1126 10:05:26.742944 10292 net.cpp:106] Creating Layer inception_4c/3x3_reduce
I1126 10:05:26.742949 10292 net.cpp:454] inception_4c/3x3_reduce <- inception_4b/output_inception_4b/output_0_split_1
I1126 10:05:26.742955 10292 net.cpp:411] inception_4c/3x3_reduce -> inception_4c/3x3_reduce
I1126 10:05:26.744328 10292 cudnn_conv_layer.cpp:194] Reallocating workspace storage: 10080
I1126 10:05:26.744349 10292 net.cpp:150] Setting up inception_4c/3x3_reduce
I1126 10:05:26.744356 10292 net.cpp:157] Top shape: 32 128 14 14 (802816)
I1126 10:05:26.744360 10292 net.cpp:165] Memory required for data: 1380803332
I1126 10:05:26.744367 10292 layer_factory.hpp:76] Creating layer inception_4c/prelu_3x3_reduce
I1126 10:05:26.744374 10292 net.cpp:106] Creating Layer inception_4c/prelu_3x3_reduce
I1126 10:05:26.744379 10292 net.cpp:454] inception_4c/prelu_3x3_reduce <- inception_4c/3x3_reduce
I1126 10:05:26.744388 10292 net.cpp:397] inception_4c/prelu_3x3_reduce -> inception_4c/3x3_reduce (in-place)
I1126 10:05:26.744477 10292 net.cpp:150] Setting up inception_4c/prelu_3x3_reduce
I1126 10:05:26.744485 10292 net.cpp:157] Top shape: 32 128 14 14 (802816)
I1126 10:05:26.744489 10292 net.cpp:165] Memory required for data: 1384014596
I1126 10:05:26.744494 10292 layer_factory.hpp:76] Creating layer inception_4c/3x3
I1126 10:05:26.744503 10292 net.cpp:106] Creating Layer inception_4c/3x3
I1126 10:05:26.744506 10292 net.cpp:454] inception_4c/3x3 <- inception_4c/3x3_reduce
I1126 10:05:26.744513 10292 net.cpp:411] inception_4c/3x3 -> inception_4c/3x3
I1126 10:05:26.747584 10292 cudnn_conv_layer.cpp:194] Reallocating workspace storage: 10080
I1126 10:05:26.747608 10292 net.cpp:150] Setting up inception_4c/3x3
I1126 10:05:26.747616 10292 net.cpp:157] Top shape: 32 256 14 14 (1605632)
I1126 10:05:26.747619 10292 net.cpp:165] Memory required for data: 1390437124
I1126 10:05:26.747627 10292 layer_factory.hpp:76] Creating layer inception_4c/prelu_3x3
I1126 10:05:26.747634 10292 net.cpp:106] Creating Layer inception_4c/prelu_3x3
I1126 10:05:26.747639 10292 net.cpp:454] inception_4c/prelu_3x3 <- inception_4c/3x3
I1126 10:05:26.747645 10292 net.cpp:397] inception_4c/prelu_3x3 -> inception_4c/3x3 (in-place)
I1126 10:05:26.747750 10292 net.cpp:150] Setting up inception_4c/prelu_3x3
I1126 10:05:26.747758 10292 net.cpp:157] Top shape: 32 256 14 14 (1605632)
I1126 10:05:26.747761 10292 net.cpp:165] Memory required for data: 1396859652
I1126 10:05:26.747767 10292 layer_factory.hpp:76] Creating layer inception_4c/5x5_reduce
I1126 10:05:26.747776 10292 net.cpp:106] Creating Layer inception_4c/5x5_reduce
I1126 10:05:26.747781 10292 net.cpp:454] inception_4c/5x5_reduce <- inception_4b/output_inception_4b/output_0_split_2
I1126 10:05:26.747786 10292 net.cpp:411] inception_4c/5x5_reduce -> inception_4c/5x5_reduce
I1126 10:05:26.749200 10292 cudnn_conv_layer.cpp:194] Reallocating workspace storage: 10080
I1126 10:05:26.749223 10292 net.cpp:150] Setting up inception_4c/5x5_reduce
I1126 10:05:26.749230 10292 net.cpp:157] Top shape: 32 24 14 14 (150528)
I1126 10:05:26.749234 10292 net.cpp:165] Memory required for data: 1397461764
I1126 10:05:26.749241 10292 layer_factory.hpp:76] Creating layer inception_4c/prelu_5x5_reduce
I1126 10:05:26.749248 10292 net.cpp:106] Creating Layer inception_4c/prelu_5x5_reduce
I1126 10:05:26.749253 10292 net.cpp:454] inception_4c/prelu_5x5_reduce <- inception_4c/5x5_reduce
I1126 10:05:26.749261 10292 net.cpp:397] inception_4c/prelu_5x5_reduce -> inception_4c/5x5_reduce (in-place)
I1126 10:05:26.749349 10292 net.cpp:150] Setting up inception_4c/prelu_5x5_reduce
I1126 10:05:26.749357 10292 net.cpp:157] Top shape: 32 24 14 14 (150528)
I1126 10:05:26.749372 10292 net.cpp:165] Memory required for data: 1398063876
I1126 10:05:26.749378 10292 layer_factory.hpp:76] Creating layer inception_4c/5x5
I1126 10:05:26.749392 10292 net.cpp:106] Creating Layer inception_4c/5x5
I1126 10:05:26.749399 10292 net.cpp:454] inception_4c/5x5 <- inception_4c/5x5_reduce
I1126 10:05:26.749408 10292 net.cpp:411] inception_4c/5x5 -> inception_4c/5x5
I1126 10:05:26.751052 10292 cudnn_conv_layer.cpp:194] Reallocating workspace storage: 13080
I1126 10:05:26.751077 10292 net.cpp:150] Setting up inception_4c/5x5
I1126 10:05:26.751085 10292 net.cpp:157] Top shape: 32 64 14 14 (401408)
I1126 10:05:26.751088 10292 net.cpp:165] Memory required for data: 1399669508
I1126 10:05:26.751096 10292 layer_factory.hpp:76] Creating layer inception_4c/prelu_5x5
I1126 10:05:26.751103 10292 net.cpp:106] Creating Layer inception_4c/prelu_5x5
I1126 10:05:26.751108 10292 net.cpp:454] inception_4c/prelu_5x5 <- inception_4c/5x5
I1126 10:05:26.751114 10292 net.cpp:397] inception_4c/prelu_5x5 -> inception_4c/5x5 (in-place)
I1126 10:05:26.751212 10292 net.cpp:150] Setting up inception_4c/prelu_5x5
I1126 10:05:26.751220 10292 net.cpp:157] Top shape: 32 64 14 14 (401408)
I1126 10:05:26.751224 10292 net.cpp:165] Memory required for data: 1401275140
I1126 10:05:26.751230 10292 layer_factory.hpp:76] Creating layer inception_4c/pool
I1126 10:05:26.751237 10292 net.cpp:106] Creating Layer inception_4c/pool
I1126 10:05:26.751242 10292 net.cpp:454] inception_4c/pool <- inception_4b/output_inception_4b/output_0_split_3
I1126 10:05:26.751248 10292 net.cpp:411] inception_4c/pool -> inception_4c/pool
I1126 10:05:26.751418 10292 net.cpp:150] Setting up inception_4c/pool
I1126 10:05:26.751427 10292 net.cpp:157] Top shape: 32 512 14 14 (3211264)
I1126 10:05:26.751431 10292 net.cpp:165] Memory required for data: 1414120196
I1126 10:05:26.751435 10292 layer_factory.hpp:76] Creating layer inception_4c/pool_proj
I1126 10:05:26.751443 10292 net.cpp:106] Creating Layer inception_4c/pool_proj
I1126 10:05:26.751448 10292 net.cpp:454] inception_4c/pool_proj <- inception_4c/pool
I1126 10:05:26.751454 10292 net.cpp:411] inception_4c/pool_proj -> inception_4c/pool_proj
I1126 10:05:26.752815 10292 cudnn_conv_layer.cpp:194] Reallocating workspace storage: 10080
I1126 10:05:26.752840 10292 net.cpp:150] Setting up inception_4c/pool_proj
I1126 10:05:26.752846 10292 net.cpp:157] Top shape: 32 64 14 14 (401408)
I1126 10:05:26.752851 10292 net.cpp:165] Memory required for data: 1415725828
I1126 10:05:26.752856 10292 layer_factory.hpp:76] Creating layer inception_4c/prelu_pool_proj
I1126 10:05:26.752866 10292 net.cpp:106] Creating Layer inception_4c/prelu_pool_proj
I1126 10:05:26.752871 10292 net.cpp:454] inception_4c/prelu_pool_proj <- inception_4c/pool_proj
I1126 10:05:26.752878 10292 net.cpp:397] inception_4c/prelu_pool_proj -> inception_4c/pool_proj (in-place)
I1126 10:05:26.752972 10292 net.cpp:150] Setting up inception_4c/prelu_pool_proj
I1126 10:05:26.752980 10292 net.cpp:157] Top shape: 32 64 14 14 (401408)
I1126 10:05:26.752984 10292 net.cpp:165] Memory required for data: 1417331460
I1126 10:05:26.752990 10292 layer_factory.hpp:76] Creating layer inception_4c/output
I1126 10:05:26.752996 10292 net.cpp:106] Creating Layer inception_4c/output
I1126 10:05:26.753001 10292 net.cpp:454] inception_4c/output <- inception_4c/1x1
I1126 10:05:26.753005 10292 net.cpp:454] inception_4c/output <- inception_4c/3x3
I1126 10:05:26.753010 10292 net.cpp:454] inception_4c/output <- inception_4c/5x5
I1126 10:05:26.753015 10292 net.cpp:454] inception_4c/output <- inception_4c/pool_proj
I1126 10:05:26.753020 10292 net.cpp:411] inception_4c/output -> inception_4c/output
I1126 10:05:26.753046 10292 net.cpp:150] Setting up inception_4c/output
I1126 10:05:26.753052 10292 net.cpp:157] Top shape: 32 512 14 14 (3211264)
I1126 10:05:26.753057 10292 net.cpp:165] Memory required for data: 1430176516
I1126 10:05:26.753060 10292 layer_factory.hpp:76] Creating layer inception_4c/output_inception_4c/output_0_split
I1126 10:05:26.753067 10292 net.cpp:106] Creating Layer inception_4c/output_inception_4c/output_0_split
I1126 10:05:26.753088 10292 net.cpp:454] inception_4c/output_inception_4c/output_0_split <- inception_4c/output
I1126 10:05:26.753098 10292 net.cpp:411] inception_4c/output_inception_4c/output_0_split -> inception_4c/output_inception_4c/output_0_split_0
I1126 10:05:26.753104 10292 net.cpp:411] inception_4c/output_inception_4c/output_0_split -> inception_4c/output_inception_4c/output_0_split_1
I1126 10:05:26.753111 10292 net.cpp:411] inception_4c/output_inception_4c/output_0_split -> inception_4c/output_inception_4c/output_0_split_2
I1126 10:05:26.753118 10292 net.cpp:411] inception_4c/output_inception_4c/output_0_split -> inception_4c/output_inception_4c/output_0_split_3
I1126 10:05:26.753187 10292 net.cpp:150] Setting up inception_4c/output_inception_4c/output_0_split
I1126 10:05:26.753196 10292 net.cpp:157] Top shape: 32 512 14 14 (3211264)
I1126 10:05:26.753201 10292 net.cpp:157] Top shape: 32 512 14 14 (3211264)
I1126 10:05:26.753206 10292 net.cpp:157] Top shape: 32 512 14 14 (3211264)
I1126 10:05:26.753209 10292 net.cpp:157] Top shape: 32 512 14 14 (3211264)
I1126 10:05:26.753213 10292 net.cpp:165] Memory required for data: 1481556740
I1126 10:05:26.753216 10292 layer_factory.hpp:76] Creating layer inception_4d/1x1
I1126 10:05:26.753226 10292 net.cpp:106] Creating Layer inception_4d/1x1
I1126 10:05:26.753229 10292 net.cpp:454] inception_4d/1x1 <- inception_4c/output_inception_4c/output_0_split_0
I1126 10:05:26.753235 10292 net.cpp:411] inception_4d/1x1 -> inception_4d/1x1
I1126 10:05:26.754566 10292 cudnn_conv_layer.cpp:194] Reallocating workspace storage: 10080
I1126 10:05:26.754590 10292 net.cpp:150] Setting up inception_4d/1x1
I1126 10:05:26.754596 10292 net.cpp:157] Top shape: 32 112 14 14 (702464)
I1126 10:05:26.754601 10292 net.cpp:165] Memory required for data: 1484366596
I1126 10:05:26.754607 10292 layer_factory.hpp:76] Creating layer inception_4d/prelu_1x1
I1126 10:05:26.754613 10292 net.cpp:106] Creating Layer inception_4d/prelu_1x1
I1126 10:05:26.754618 10292 net.cpp:454] inception_4d/prelu_1x1 <- inception_4d/1x1
I1126 10:05:26.754626 10292 net.cpp:397] inception_4d/prelu_1x1 -> inception_4d/1x1 (in-place)
I1126 10:05:26.754719 10292 net.cpp:150] Setting up inception_4d/prelu_1x1
I1126 10:05:26.754727 10292 net.cpp:157] Top shape: 32 112 14 14 (702464)
I1126 10:05:26.754731 10292 net.cpp:165] Memory required for data: 1487176452
I1126 10:05:26.754736 10292 layer_factory.hpp:76] Creating layer inception_4d/3x3_reduce
I1126 10:05:26.754745 10292 net.cpp:106] Creating Layer inception_4d/3x3_reduce
I1126 10:05:26.754750 10292 net.cpp:454] inception_4d/3x3_reduce <- inception_4c/output_inception_4c/output_0_split_1
I1126 10:05:26.754755 10292 net.cpp:411] inception_4d/3x3_reduce -> inception_4d/3x3_reduce
I1126 10:05:26.755980 10292 cudnn_conv_layer.cpp:194] Reallocating workspace storage: 10080
I1126 10:05:26.756003 10292 net.cpp:150] Setting up inception_4d/3x3_reduce
I1126 10:05:26.756011 10292 net.cpp:157] Top shape: 32 144 14 14 (903168)
I1126 10:05:26.756014 10292 net.cpp:165] Memory required for data: 1490789124
I1126 10:05:26.756021 10292 layer_factory.hpp:76] Creating layer inception_4d/prelu_3x3_reduce
I1126 10:05:26.756028 10292 net.cpp:106] Creating Layer inception_4d/prelu_3x3_reduce
I1126 10:05:26.756033 10292 net.cpp:454] inception_4d/prelu_3x3_reduce <- inception_4d/3x3_reduce
I1126 10:05:26.756041 10292 net.cpp:397] inception_4d/prelu_3x3_reduce -> inception_4d/3x3_reduce (in-place)
I1126 10:05:26.756144 10292 net.cpp:150] Setting up inception_4d/prelu_3x3_reduce
I1126 10:05:26.756151 10292 net.cpp:157] Top shape: 32 144 14 14 (903168)
I1126 10:05:26.756155 10292 net.cpp:165] Memory required for data: 1494401796
I1126 10:05:26.756160 10292 layer_factory.hpp:76] Creating layer inception_4d/3x3
I1126 10:05:26.756168 10292 net.cpp:106] Creating Layer inception_4d/3x3
I1126 10:05:26.756173 10292 net.cpp:454] inception_4d/3x3 <- inception_4d/3x3_reduce
I1126 10:05:26.756181 10292 net.cpp:411] inception_4d/3x3 -> inception_4d/3x3
I1126 10:05:26.759863 10292 cudnn_conv_layer.cpp:194] Reallocating workspace storage: 10080
I1126 10:05:26.759891 10292 net.cpp:150] Setting up inception_4d/3x3
I1126 10:05:26.759898 10292 net.cpp:157] Top shape: 32 288 14 14 (1806336)
I1126 10:05:26.759902 10292 net.cpp:165] Memory required for data: 1501627140
I1126 10:05:26.759909 10292 layer_factory.hpp:76] Creating layer inception_4d/prelu_3x3
I1126 10:05:26.759917 10292 net.cpp:106] Creating Layer inception_4d/prelu_3x3
I1126 10:05:26.759922 10292 net.cpp:454] inception_4d/prelu_3x3 <- inception_4d/3x3
I1126 10:05:26.759930 10292 net.cpp:397] inception_4d/prelu_3x3 -> inception_4d/3x3 (in-place)
I1126 10:05:26.760061 10292 net.cpp:150] Setting up inception_4d/prelu_3x3
I1126 10:05:26.760068 10292 net.cpp:157] Top shape: 32 288 14 14 (1806336)
I1126 10:05:26.760072 10292 net.cpp:165] Memory required for data: 1508852484
I1126 10:05:26.760077 10292 layer_factory.hpp:76] Creating layer inception_4d/5x5_reduce
I1126 10:05:26.760087 10292 net.cpp:106] Creating Layer inception_4d/5x5_reduce
I1126 10:05:26.760092 10292 net.cpp:454] inception_4d/5x5_reduce <- inception_4c/output_inception_4c/output_0_split_2
I1126 10:05:26.760099 10292 net.cpp:411] inception_4d/5x5_reduce -> inception_4d/5x5_reduce
I1126 10:05:26.761199 10292 cudnn_conv_layer.cpp:194] Reallocating workspace storage: 10080
I1126 10:05:26.761221 10292 net.cpp:150] Setting up inception_4d/5x5_reduce
I1126 10:05:26.761227 10292 net.cpp:157] Top shape: 32 32 14 14 (200704)
I1126 10:05:26.761231 10292 net.cpp:165] Memory required for data: 1509655300
I1126 10:05:26.839665 10292 layer_factory.hpp:76] Creating layer inception_4d/prelu_5x5_reduce
I1126 10:05:26.839707 10292 net.cpp:106] Creating Layer inception_4d/prelu_5x5_reduce
I1126 10:05:26.839720 10292 net.cpp:454] inception_4d/prelu_5x5_reduce <- inception_4d/5x5_reduce
I1126 10:05:26.839733 10292 net.cpp:397] inception_4d/prelu_5x5_reduce -> inception_4d/5x5_reduce (in-place)
I1126 10:05:26.840126 10292 net.cpp:150] Setting up inception_4d/prelu_5x5_reduce
I1126 10:05:26.840154 10292 net.cpp:157] Top shape: 32 32 14 14 (200704)
I1126 10:05:26.840169 10292 net.cpp:165] Memory required for data: 1510458116
I1126 10:05:26.840190 10292 layer_factory.hpp:76] Creating layer inception_4d/5x5
I1126 10:05:26.840221 10292 net.cpp:106] Creating Layer inception_4d/5x5
I1126 10:05:26.840240 10292 net.cpp:454] inception_4d/5x5 <- inception_4d/5x5_reduce
I1126 10:05:26.840267 10292 net.cpp:411] inception_4d/5x5 -> inception_4d/5x5
I1126 10:05:26.845374 10292 cudnn_conv_layer.cpp:194] Reallocating workspace storage: 13080
I1126 10:05:26.845422 10292 net.cpp:150] Setting up inception_4d/5x5
I1126 10:05:26.845437 10292 net.cpp:157] Top shape: 32 64 14 14 (401408)
I1126 10:05:26.845443 10292 net.cpp:165] Memory required for data: 1512063748
I1126 10:05:26.845456 10292 layer_factory.hpp:76] Creating layer inception_4d/prelu_5x5
I1126 10:05:26.845473 10292 net.cpp:106] Creating Layer inception_4d/prelu_5x5
I1126 10:05:26.845481 10292 net.cpp:454] inception_4d/prelu_5x5 <- inception_4d/5x5
I1126 10:05:26.845495 10292 net.cpp:397] inception_4d/prelu_5x5 -> inception_4d/5x5 (in-place)
I1126 10:05:26.845821 10292 net.cpp:150] Setting up inception_4d/prelu_5x5
I1126 10:05:26.845847 10292 net.cpp:157] Top shape: 32 64 14 14 (401408)
I1126 10:05:26.845862 10292 net.cpp:165] Memory required for data: 1513669380
I1126 10:05:26.845883 10292 layer_factory.hpp:76] Creating layer inception_4d/pool
I1126 10:05:26.845911 10292 net.cpp:106] Creating Layer inception_4d/pool
I1126 10:05:26.845929 10292 net.cpp:454] inception_4d/pool <- inception_4c/output_inception_4c/output_0_split_3
I1126 10:05:26.845952 10292 net.cpp:411] inception_4d/pool -> inception_4d/pool
I1126 10:05:26.846560 10292 net.cpp:150] Setting up inception_4d/pool
I1126 10:05:26.846590 10292 net.cpp:157] Top shape: 32 512 14 14 (3211264)
I1126 10:05:26.846606 10292 net.cpp:165] Memory required for data: 1526514436
I1126 10:05:26.846622 10292 layer_factory.hpp:76] Creating layer inception_4d/pool_proj
I1126 10:05:26.846654 10292 net.cpp:106] Creating Layer inception_4d/pool_proj
I1126 10:05:26.846711 10292 net.cpp:454] inception_4d/pool_proj <- inception_4d/pool
I1126 10:05:26.846742 10292 net.cpp:411] inception_4d/pool_proj -> inception_4d/pool_proj
I1126 10:05:26.850229 10292 cudnn_conv_layer.cpp:194] Reallocating workspace storage: 10080
I1126 10:05:26.850311 10292 net.cpp:150] Setting up inception_4d/pool_proj
I1126 10:05:26.850337 10292 net.cpp:157] Top shape: 32 64 14 14 (401408)
I1126 10:05:26.850344 10292 net.cpp:165] Memory required for data: 1528120068
I1126 10:05:26.850358 10292 layer_factory.hpp:76] Creating layer inception_4d/prelu_pool_proj
I1126 10:05:26.850371 10292 net.cpp:106] Creating Layer inception_4d/prelu_pool_proj
I1126 10:05:26.850380 10292 net.cpp:454] inception_4d/prelu_pool_proj <- inception_4d/pool_proj
I1126 10:05:26.850391 10292 net.cpp:397] inception_4d/prelu_pool_proj -> inception_4d/pool_proj (in-place)
I1126 10:05:26.850699 10292 net.cpp:150] Setting up inception_4d/prelu_pool_proj
I1126 10:05:26.850713 10292 net.cpp:157] Top shape: 32 64 14 14 (401408)
I1126 10:05:26.850719 10292 net.cpp:165] Memory required for data: 1529725700
I1126 10:05:26.850728 10292 layer_factory.hpp:76] Creating layer inception_4d/output
I1126 10:05:26.850739 10292 net.cpp:106] Creating Layer inception_4d/output
I1126 10:05:26.850747 10292 net.cpp:454] inception_4d/output <- inception_4d/1x1
I1126 10:05:26.850756 10292 net.cpp:454] inception_4d/output <- inception_4d/3x3
I1126 10:05:26.850764 10292 net.cpp:454] inception_4d/output <- inception_4d/5x5
I1126 10:05:26.850772 10292 net.cpp:454] inception_4d/output <- inception_4d/pool_proj
I1126 10:05:26.850785 10292 net.cpp:411] inception_4d/output -> inception_4d/output
I1126 10:05:26.850826 10292 net.cpp:150] Setting up inception_4d/output
I1126 10:05:26.850836 10292 net.cpp:157] Top shape: 32 528 14 14 (3311616)
I1126 10:05:26.850843 10292 net.cpp:165] Memory required for data: 1542972164
I1126 10:05:26.850850 10292 layer_factory.hpp:76] Creating layer inception_4d/output_inception_4d/output_0_split
I1126 10:05:26.850864 10292 net.cpp:106] Creating Layer inception_4d/output_inception_4d/output_0_split
I1126 10:05:26.850872 10292 net.cpp:454] inception_4d/output_inception_4d/output_0_split <- inception_4d/output
I1126 10:05:26.850883 10292 net.cpp:411] inception_4d/output_inception_4d/output_0_split -> inception_4d/output_inception_4d/output_0_split_0
I1126 10:05:26.850894 10292 net.cpp:411] inception_4d/output_inception_4d/output_0_split -> inception_4d/output_inception_4d/output_0_split_1
I1126 10:05:26.850908 10292 net.cpp:411] inception_4d/output_inception_4d/output_0_split -> inception_4d/output_inception_4d/output_0_split_2
I1126 10:05:26.850919 10292 net.cpp:411] inception_4d/output_inception_4d/output_0_split -> inception_4d/output_inception_4d/output_0_split_3
I1126 10:05:26.850930 10292 net.cpp:411] inception_4d/output_inception_4d/output_0_split -> inception_4d/output_inception_4d/output_0_split_4
I1126 10:05:26.851047 10292 net.cpp:150] Setting up inception_4d/output_inception_4d/output_0_split
I1126 10:05:26.851058 10292 net.cpp:157] Top shape: 32 528 14 14 (3311616)
I1126 10:05:26.851068 10292 net.cpp:157] Top shape: 32 528 14 14 (3311616)
I1126 10:05:26.851076 10292 net.cpp:157] Top shape: 32 528 14 14 (3311616)
I1126 10:05:26.851085 10292 net.cpp:157] Top shape: 32 528 14 14 (3311616)
I1126 10:05:26.851094 10292 net.cpp:157] Top shape: 32 528 14 14 (3311616)
I1126 10:05:26.851100 10292 net.cpp:165] Memory required for data: 1609204484
I1126 10:05:26.851109 10292 layer_factory.hpp:76] Creating layer loss2/ave_pool
I1126 10:05:26.851121 10292 net.cpp:106] Creating Layer loss2/ave_pool
I1126 10:05:26.851130 10292 net.cpp:454] loss2/ave_pool <- inception_4d/output_inception_4d/output_0_split_0
I1126 10:05:26.851140 10292 net.cpp:411] loss2/ave_pool -> loss2/ave_pool
I1126 10:05:26.851714 10292 net.cpp:150] Setting up loss2/ave_pool
I1126 10:05:26.851732 10292 net.cpp:157] Top shape: 32 528 4 4 (270336)
I1126 10:05:26.851739 10292 net.cpp:165] Memory required for data: 1610285828
I1126 10:05:26.851766 10292 layer_factory.hpp:76] Creating layer loss2/conv
I1126 10:05:26.851797 10292 net.cpp:106] Creating Layer loss2/conv
I1126 10:05:26.851815 10292 net.cpp:454] loss2/conv <- loss2/ave_pool
I1126 10:05:26.851850 10292 net.cpp:411] loss2/conv -> loss2/conv
I1126 10:05:26.854120 10292 cudnn_conv_layer.cpp:194] Reallocating workspace storage: 6840
I1126 10:05:26.854146 10292 net.cpp:150] Setting up loss2/conv
I1126 10:05:26.854153 10292 net.cpp:157] Top shape: 32 128 4 4 (65536)
I1126 10:05:26.854158 10292 net.cpp:165] Memory required for data: 1610547972
I1126 10:05:26.854166 10292 layer_factory.hpp:76] Creating layer loss2/prelu_conv
I1126 10:05:26.854172 10292 net.cpp:106] Creating Layer loss2/prelu_conv
I1126 10:05:26.854177 10292 net.cpp:454] loss2/prelu_conv <- loss2/conv
I1126 10:05:26.854185 10292 net.cpp:397] loss2/prelu_conv -> loss2/conv (in-place)
I1126 10:05:26.854280 10292 net.cpp:150] Setting up loss2/prelu_conv
I1126 10:05:26.854290 10292 net.cpp:157] Top shape: 32 128 4 4 (65536)
I1126 10:05:26.854295 10292 net.cpp:165] Memory required for data: 1610810116
I1126 10:05:26.854300 10292 layer_factory.hpp:76] Creating layer loss2/fc
I1126 10:05:26.854308 10292 net.cpp:106] Creating Layer loss2/fc
I1126 10:05:26.854312 10292 net.cpp:454] loss2/fc <- loss2/conv
I1126 10:05:26.854320 10292 net.cpp:411] loss2/fc -> loss2/fc
I1126 10:05:26.871434 10292 net.cpp:150] Setting up loss2/fc
I1126 10:05:26.871479 10292 net.cpp:157] Top shape: 32 1024 (32768)
I1126 10:05:26.871485 10292 net.cpp:165] Memory required for data: 1610941188
I1126 10:05:26.871534 10292 layer_factory.hpp:76] Creating layer loss2/prelu_fc
I1126 10:05:26.871556 10292 net.cpp:106] Creating Layer loss2/prelu_fc
I1126 10:05:26.871567 10292 net.cpp:454] loss2/prelu_fc <- loss2/fc
I1126 10:05:26.871577 10292 net.cpp:397] loss2/prelu_fc -> loss2/fc (in-place)
I1126 10:05:26.871686 10292 net.cpp:150] Setting up loss2/prelu_fc
I1126 10:05:26.871696 10292 net.cpp:157] Top shape: 32 1024 (32768)
I1126 10:05:26.871701 10292 net.cpp:165] Memory required for data: 1611072260
I1126 10:05:26.871706 10292 layer_factory.hpp:76] Creating layer loss2/drop_fc
I1126 10:05:26.871714 10292 net.cpp:106] Creating Layer loss2/drop_fc
I1126 10:05:26.871719 10292 net.cpp:454] loss2/drop_fc <- loss2/fc
I1126 10:05:26.871726 10292 net.cpp:397] loss2/drop_fc -> loss2/fc (in-place)
I1126 10:05:26.871758 10292 net.cpp:150] Setting up loss2/drop_fc
I1126 10:05:26.871767 10292 net.cpp:157] Top shape: 32 1024 (32768)
I1126 10:05:26.871770 10292 net.cpp:165] Memory required for data: 1611203332
I1126 10:05:26.871774 10292 layer_factory.hpp:76] Creating layer loss2/classifier2
I1126 10:05:26.871783 10292 net.cpp:106] Creating Layer loss2/classifier2
I1126 10:05:26.871786 10292 net.cpp:454] loss2/classifier2 <- loss2/fc
I1126 10:05:26.871794 10292 net.cpp:411] loss2/classifier2 -> loss2/classifier
I1126 10:05:26.871933 10292 net.cpp:150] Setting up loss2/classifier2
I1126 10:05:26.871943 10292 net.cpp:157] Top shape: 32 2 (64)
I1126 10:05:26.871948 10292 net.cpp:165] Memory required for data: 1611203588
I1126 10:05:26.871954 10292 layer_factory.hpp:76] Creating layer loss2/loss
I1126 10:05:26.871963 10292 net.cpp:106] Creating Layer loss2/loss
I1126 10:05:26.871968 10292 net.cpp:454] loss2/loss <- loss2/classifier
I1126 10:05:26.871974 10292 net.cpp:454] loss2/loss <- label_data_1_split_1
I1126 10:05:26.871980 10292 net.cpp:411] loss2/loss -> loss2/loss1
I1126 10:05:26.871990 10292 layer_factory.hpp:76] Creating layer loss2/loss
I1126 10:05:26.872382 10292 net.cpp:150] Setting up loss2/loss
I1126 10:05:26.872396 10292 net.cpp:157] Top shape: (1)
I1126 10:05:26.872401 10292 net.cpp:160]     with loss weight 0.3
I1126 10:05:26.872416 10292 net.cpp:165] Memory required for data: 1611203592
I1126 10:05:26.872421 10292 layer_factory.hpp:76] Creating layer inception_4e/1x1
I1126 10:05:26.872434 10292 net.cpp:106] Creating Layer inception_4e/1x1
I1126 10:05:26.872441 10292 net.cpp:454] inception_4e/1x1 <- inception_4d/output_inception_4d/output_0_split_1
I1126 10:05:26.872449 10292 net.cpp:411] inception_4e/1x1 -> inception_4e/1x1
I1126 10:05:26.875653 10292 cudnn_conv_layer.cpp:194] Reallocating workspace storage: 10080
I1126 10:05:26.875705 10292 net.cpp:150] Setting up inception_4e/1x1
I1126 10:05:26.875718 10292 net.cpp:157] Top shape: 32 256 14 14 (1605632)
I1126 10:05:26.875723 10292 net.cpp:165] Memory required for data: 1617626120
I1126 10:05:26.875735 10292 layer_factory.hpp:76] Creating layer inception_4e/prelu_1x1
I1126 10:05:26.875747 10292 net.cpp:106] Creating Layer inception_4e/prelu_1x1
I1126 10:05:26.875756 10292 net.cpp:454] inception_4e/prelu_1x1 <- inception_4e/1x1
I1126 10:05:26.875766 10292 net.cpp:397] inception_4e/prelu_1x1 -> inception_4e/1x1 (in-place)
I1126 10:05:26.876032 10292 net.cpp:150] Setting up inception_4e/prelu_1x1
I1126 10:05:26.876045 10292 net.cpp:157] Top shape: 32 256 14 14 (1605632)
I1126 10:05:26.876060 10292 net.cpp:165] Memory required for data: 1624048648
I1126 10:05:26.876067 10292 layer_factory.hpp:76] Creating layer inception_4e/3x3_reduce
I1126 10:05:26.876083 10292 net.cpp:106] Creating Layer inception_4e/3x3_reduce
I1126 10:05:26.876102 10292 net.cpp:454] inception_4e/3x3_reduce <- inception_4d/output_inception_4d/output_0_split_2
I1126 10:05:26.876116 10292 net.cpp:411] inception_4e/3x3_reduce -> inception_4e/3x3_reduce
I1126 10:05:26.877843 10292 cudnn_conv_layer.cpp:194] Reallocating workspace storage: 10080
I1126 10:05:26.877881 10292 net.cpp:150] Setting up inception_4e/3x3_reduce
I1126 10:05:26.877889 10292 net.cpp:157] Top shape: 32 160 14 14 (1003520)
I1126 10:05:26.877893 10292 net.cpp:165] Memory required for data: 1628062728
I1126 10:05:26.877902 10292 layer_factory.hpp:76] Creating layer inception_4e/prelu_3x3_reduce
I1126 10:05:26.877912 10292 net.cpp:106] Creating Layer inception_4e/prelu_3x3_reduce
I1126 10:05:26.877918 10292 net.cpp:454] inception_4e/prelu_3x3_reduce <- inception_4e/3x3_reduce
I1126 10:05:26.877926 10292 net.cpp:397] inception_4e/prelu_3x3_reduce -> inception_4e/3x3_reduce (in-place)
I1126 10:05:26.878056 10292 net.cpp:150] Setting up inception_4e/prelu_3x3_reduce
I1126 10:05:26.878064 10292 net.cpp:157] Top shape: 32 160 14 14 (1003520)
I1126 10:05:26.878068 10292 net.cpp:165] Memory required for data: 1632076808
I1126 10:05:26.878073 10292 layer_factory.hpp:76] Creating layer inception_4e/3x3
I1126 10:05:26.878083 10292 net.cpp:106] Creating Layer inception_4e/3x3
I1126 10:05:26.878088 10292 net.cpp:454] inception_4e/3x3 <- inception_4e/3x3_reduce
I1126 10:05:26.878096 10292 net.cpp:411] inception_4e/3x3 -> inception_4e/3x3
I1126 10:05:26.883136 10292 cudnn_conv_layer.cpp:194] Reallocating workspace storage: 10080
I1126 10:05:26.883199 10292 net.cpp:150] Setting up inception_4e/3x3
I1126 10:05:26.883215 10292 net.cpp:157] Top shape: 32 320 14 14 (2007040)
I1126 10:05:26.883224 10292 net.cpp:165] Memory required for data: 1640104968
I1126 10:05:26.883249 10292 layer_factory.hpp:76] Creating layer inception_4e/prelu_3x3
I1126 10:05:26.883271 10292 net.cpp:106] Creating Layer inception_4e/prelu_3x3
I1126 10:05:26.883280 10292 net.cpp:454] inception_4e/prelu_3x3 <- inception_4e/3x3
I1126 10:05:26.883290 10292 net.cpp:397] inception_4e/prelu_3x3 -> inception_4e/3x3 (in-place)
I1126 10:05:26.883473 10292 net.cpp:150] Setting up inception_4e/prelu_3x3
I1126 10:05:26.883486 10292 net.cpp:157] Top shape: 32 320 14 14 (2007040)
I1126 10:05:26.883491 10292 net.cpp:165] Memory required for data: 1648133128
I1126 10:05:26.883497 10292 layer_factory.hpp:76] Creating layer inception_4e/5x5_reduce
I1126 10:05:26.883512 10292 net.cpp:106] Creating Layer inception_4e/5x5_reduce
I1126 10:05:26.883517 10292 net.cpp:454] inception_4e/5x5_reduce <- inception_4d/output_inception_4d/output_0_split_3
I1126 10:05:26.883525 10292 net.cpp:411] inception_4e/5x5_reduce -> inception_4e/5x5_reduce
I1126 10:05:26.884786 10292 cudnn_conv_layer.cpp:194] Reallocating workspace storage: 10080
I1126 10:05:26.884820 10292 net.cpp:150] Setting up inception_4e/5x5_reduce
I1126 10:05:26.884829 10292 net.cpp:157] Top shape: 32 32 14 14 (200704)
I1126 10:05:26.884858 10292 net.cpp:165] Memory required for data: 1648935944
I1126 10:05:26.884868 10292 layer_factory.hpp:76] Creating layer inception_4e/prelu_5x5_reduce
I1126 10:05:26.884879 10292 net.cpp:106] Creating Layer inception_4e/prelu_5x5_reduce
I1126 10:05:26.884886 10292 net.cpp:454] inception_4e/prelu_5x5_reduce <- inception_4e/5x5_reduce
I1126 10:05:26.884894 10292 net.cpp:397] inception_4e/prelu_5x5_reduce -> inception_4e/5x5_reduce (in-place)
I1126 10:05:26.885010 10292 net.cpp:150] Setting up inception_4e/prelu_5x5_reduce
I1126 10:05:26.885018 10292 net.cpp:157] Top shape: 32 32 14 14 (200704)
I1126 10:05:26.885022 10292 net.cpp:165] Memory required for data: 1649738760
I1126 10:05:26.885028 10292 layer_factory.hpp:76] Creating layer inception_4e/5x5
I1126 10:05:26.885058 10292 net.cpp:106] Creating Layer inception_4e/5x5
I1126 10:05:26.885064 10292 net.cpp:454] inception_4e/5x5 <- inception_4e/5x5_reduce
I1126 10:05:26.885072 10292 net.cpp:411] inception_4e/5x5 -> inception_4e/5x5
I1126 10:05:26.887626 10292 cudnn_conv_layer.cpp:194] Reallocating workspace storage: 13080
I1126 10:05:26.887686 10292 net.cpp:150] Setting up inception_4e/5x5
I1126 10:05:26.887701 10292 net.cpp:157] Top shape: 32 128 14 14 (802816)
I1126 10:05:26.887708 10292 net.cpp:165] Memory required for data: 1652950024
I1126 10:05:26.887725 10292 layer_factory.hpp:76] Creating layer inception_4e/prelu_5x5
I1126 10:05:26.887740 10292 net.cpp:106] Creating Layer inception_4e/prelu_5x5
I1126 10:05:26.887748 10292 net.cpp:454] inception_4e/prelu_5x5 <- inception_4e/5x5
I1126 10:05:26.887755 10292 net.cpp:397] inception_4e/prelu_5x5 -> inception_4e/5x5 (in-place)
I1126 10:05:26.887903 10292 net.cpp:150] Setting up inception_4e/prelu_5x5
I1126 10:05:26.887912 10292 net.cpp:157] Top shape: 32 128 14 14 (802816)
I1126 10:05:26.887917 10292 net.cpp:165] Memory required for data: 1656161288
I1126 10:05:26.887923 10292 layer_factory.hpp:76] Creating layer inception_4e/pool
I1126 10:05:26.887931 10292 net.cpp:106] Creating Layer inception_4e/pool
I1126 10:05:26.887936 10292 net.cpp:454] inception_4e/pool <- inception_4d/output_inception_4d/output_0_split_4
I1126 10:05:26.887945 10292 net.cpp:411] inception_4e/pool -> inception_4e/pool
I1126 10:05:26.888355 10292 net.cpp:150] Setting up inception_4e/pool
I1126 10:05:26.888368 10292 net.cpp:157] Top shape: 32 528 14 14 (3311616)
I1126 10:05:26.888373 10292 net.cpp:165] Memory required for data: 1669407752
I1126 10:05:26.888378 10292 layer_factory.hpp:76] Creating layer inception_4e/pool_proj
I1126 10:05:26.888389 10292 net.cpp:106] Creating Layer inception_4e/pool_proj
I1126 10:05:26.888396 10292 net.cpp:454] inception_4e/pool_proj <- inception_4e/pool
I1126 10:05:26.888404 10292 net.cpp:411] inception_4e/pool_proj -> inception_4e/pool_proj
I1126 10:05:26.889794 10292 cudnn_conv_layer.cpp:194] Reallocating workspace storage: 10080
I1126 10:05:26.889832 10292 net.cpp:150] Setting up inception_4e/pool_proj
I1126 10:05:26.889840 10292 net.cpp:157] Top shape: 32 128 14 14 (802816)
I1126 10:05:26.889845 10292 net.cpp:165] Memory required for data: 1672619016
I1126 10:05:26.889853 10292 layer_factory.hpp:76] Creating layer inception_4e/prelu_pool_proj
I1126 10:05:26.889864 10292 net.cpp:106] Creating Layer inception_4e/prelu_pool_proj
I1126 10:05:26.889870 10292 net.cpp:454] inception_4e/prelu_pool_proj <- inception_4e/pool_proj
I1126 10:05:26.889878 10292 net.cpp:397] inception_4e/prelu_pool_proj -> inception_4e/pool_proj (in-place)
I1126 10:05:26.890003 10292 net.cpp:150] Setting up inception_4e/prelu_pool_proj
I1126 10:05:26.890012 10292 net.cpp:157] Top shape: 32 128 14 14 (802816)
I1126 10:05:26.890017 10292 net.cpp:165] Memory required for data: 1675830280
I1126 10:05:26.890022 10292 layer_factory.hpp:76] Creating layer inception_4e/output
I1126 10:05:26.890029 10292 net.cpp:106] Creating Layer inception_4e/output
I1126 10:05:26.890034 10292 net.cpp:454] inception_4e/output <- inception_4e/1x1
I1126 10:05:26.890039 10292 net.cpp:454] inception_4e/output <- inception_4e/3x3
I1126 10:05:26.890044 10292 net.cpp:454] inception_4e/output <- inception_4e/5x5
I1126 10:05:26.890075 10292 net.cpp:454] inception_4e/output <- inception_4e/pool_proj
I1126 10:05:26.890084 10292 net.cpp:411] inception_4e/output -> inception_4e/output
I1126 10:05:26.890113 10292 net.cpp:150] Setting up inception_4e/output
I1126 10:05:26.890121 10292 net.cpp:157] Top shape: 32 832 14 14 (5218304)
I1126 10:05:26.890125 10292 net.cpp:165] Memory required for data: 1696703496
I1126 10:05:26.890130 10292 layer_factory.hpp:76] Creating layer pool4/3x3_s2
I1126 10:05:26.890138 10292 net.cpp:106] Creating Layer pool4/3x3_s2
I1126 10:05:26.890143 10292 net.cpp:454] pool4/3x3_s2 <- inception_4e/output
I1126 10:05:26.890149 10292 net.cpp:411] pool4/3x3_s2 -> pool4/3x3_s2
I1126 10:05:26.890553 10292 net.cpp:150] Setting up pool4/3x3_s2
I1126 10:05:26.890564 10292 net.cpp:157] Top shape: 32 832 7 7 (1304576)
I1126 10:05:26.890568 10292 net.cpp:165] Memory required for data: 1701921800
I1126 10:05:26.890573 10292 layer_factory.hpp:76] Creating layer pool4/3x3_s2_pool4/3x3_s2_0_split
I1126 10:05:26.890583 10292 net.cpp:106] Creating Layer pool4/3x3_s2_pool4/3x3_s2_0_split
I1126 10:05:26.890589 10292 net.cpp:454] pool4/3x3_s2_pool4/3x3_s2_0_split <- pool4/3x3_s2
I1126 10:05:26.890595 10292 net.cpp:411] pool4/3x3_s2_pool4/3x3_s2_0_split -> pool4/3x3_s2_pool4/3x3_s2_0_split_0
I1126 10:05:26.890602 10292 net.cpp:411] pool4/3x3_s2_pool4/3x3_s2_0_split -> pool4/3x3_s2_pool4/3x3_s2_0_split_1
I1126 10:05:26.890611 10292 net.cpp:411] pool4/3x3_s2_pool4/3x3_s2_0_split -> pool4/3x3_s2_pool4/3x3_s2_0_split_2
I1126 10:05:26.890619 10292 net.cpp:411] pool4/3x3_s2_pool4/3x3_s2_0_split -> pool4/3x3_s2_pool4/3x3_s2_0_split_3
I1126 10:05:26.890684 10292 net.cpp:150] Setting up pool4/3x3_s2_pool4/3x3_s2_0_split
I1126 10:05:26.890692 10292 net.cpp:157] Top shape: 32 832 7 7 (1304576)
I1126 10:05:26.890697 10292 net.cpp:157] Top shape: 32 832 7 7 (1304576)
I1126 10:05:26.890702 10292 net.cpp:157] Top shape: 32 832 7 7 (1304576)
I1126 10:05:26.890707 10292 net.cpp:157] Top shape: 32 832 7 7 (1304576)
I1126 10:05:26.890710 10292 net.cpp:165] Memory required for data: 1722795016
I1126 10:05:26.890714 10292 layer_factory.hpp:76] Creating layer inception_5a/1x1
I1126 10:05:26.890724 10292 net.cpp:106] Creating Layer inception_5a/1x1
I1126 10:05:26.890729 10292 net.cpp:454] inception_5a/1x1 <- pool4/3x3_s2_pool4/3x3_s2_0_split_0
I1126 10:05:26.890748 10292 net.cpp:411] inception_5a/1x1 -> inception_5a/1x1
I1126 10:05:26.894243 10292 cudnn_conv_layer.cpp:194] Reallocating workspace storage: 7428
I1126 10:05:26.894284 10292 net.cpp:150] Setting up inception_5a/1x1
I1126 10:05:26.894294 10292 net.cpp:157] Top shape: 32 256 7 7 (401408)
I1126 10:05:26.894300 10292 net.cpp:165] Memory required for data: 1724400648
I1126 10:05:26.894315 10292 layer_factory.hpp:76] Creating layer inception_5a/prelu_1x1
I1126 10:05:26.894332 10292 net.cpp:106] Creating Layer inception_5a/prelu_1x1
I1126 10:05:26.894343 10292 net.cpp:454] inception_5a/prelu_1x1 <- inception_5a/1x1
I1126 10:05:26.894353 10292 net.cpp:397] inception_5a/prelu_1x1 -> inception_5a/1x1 (in-place)
I1126 10:05:26.894963 10292 net.cpp:150] Setting up inception_5a/prelu_1x1
I1126 10:05:26.894976 10292 net.cpp:157] Top shape: 32 256 7 7 (401408)
I1126 10:05:26.894980 10292 net.cpp:165] Memory required for data: 1726006280
I1126 10:05:26.894986 10292 layer_factory.hpp:76] Creating layer inception_5a/3x3_reduce
I1126 10:05:26.894996 10292 net.cpp:106] Creating Layer inception_5a/3x3_reduce
I1126 10:05:26.895002 10292 net.cpp:454] inception_5a/3x3_reduce <- pool4/3x3_s2_pool4/3x3_s2_0_split_1
I1126 10:05:26.895011 10292 net.cpp:411] inception_5a/3x3_reduce -> inception_5a/3x3_reduce
I1126 10:05:26.897613 10292 cudnn_conv_layer.cpp:194] Reallocating workspace storage: 7428
I1126 10:05:26.897658 10292 net.cpp:150] Setting up inception_5a/3x3_reduce
I1126 10:05:26.897673 10292 net.cpp:157] Top shape: 32 160 7 7 (250880)
I1126 10:05:26.897681 10292 net.cpp:165] Memory required for data: 1727009800
I1126 10:05:26.897691 10292 layer_factory.hpp:76] Creating layer inception_5a/prelu_3x3_reduce
I1126 10:05:26.897721 10292 net.cpp:106] Creating Layer inception_5a/prelu_3x3_reduce
I1126 10:05:26.897727 10292 net.cpp:454] inception_5a/prelu_3x3_reduce <- inception_5a/3x3_reduce
I1126 10:05:26.897733 10292 net.cpp:397] inception_5a/prelu_3x3_reduce -> inception_5a/3x3_reduce (in-place)
I1126 10:05:26.897842 10292 net.cpp:150] Setting up inception_5a/prelu_3x3_reduce
I1126 10:05:26.897850 10292 net.cpp:157] Top shape: 32 160 7 7 (250880)
I1126 10:05:26.897855 10292 net.cpp:165] Memory required for data: 1728013320
I1126 10:05:26.897861 10292 layer_factory.hpp:76] Creating layer inception_5a/3x3
I1126 10:05:26.897871 10292 net.cpp:106] Creating Layer inception_5a/3x3
I1126 10:05:26.897876 10292 net.cpp:454] inception_5a/3x3 <- inception_5a/3x3_reduce
I1126 10:05:26.897883 10292 net.cpp:411] inception_5a/3x3 -> inception_5a/3x3
I1126 10:05:26.902400 10292 cudnn_conv_layer.cpp:194] Reallocating workspace storage: 7788
I1126 10:05:26.902441 10292 net.cpp:150] Setting up inception_5a/3x3
I1126 10:05:26.902451 10292 net.cpp:157] Top shape: 32 320 7 7 (501760)
I1126 10:05:26.902456 10292 net.cpp:165] Memory required for data: 1730020360
I1126 10:05:26.902470 10292 layer_factory.hpp:76] Creating layer inception_5a/prelu_3x3
I1126 10:05:26.902487 10292 net.cpp:106] Creating Layer inception_5a/prelu_3x3
I1126 10:05:26.902498 10292 net.cpp:454] inception_5a/prelu_3x3 <- inception_5a/3x3
I1126 10:05:26.902511 10292 net.cpp:397] inception_5a/prelu_3x3 -> inception_5a/3x3 (in-place)
I1126 10:05:26.902633 10292 net.cpp:150] Setting up inception_5a/prelu_3x3
I1126 10:05:26.902642 10292 net.cpp:157] Top shape: 32 320 7 7 (501760)
I1126 10:05:26.902647 10292 net.cpp:165] Memory required for data: 1732027400
I1126 10:05:26.902652 10292 layer_factory.hpp:76] Creating layer inception_5a/5x5_reduce
I1126 10:05:26.902662 10292 net.cpp:106] Creating Layer inception_5a/5x5_reduce
I1126 10:05:26.902668 10292 net.cpp:454] inception_5a/5x5_reduce <- pool4/3x3_s2_pool4/3x3_s2_0_split_2
I1126 10:05:26.902675 10292 net.cpp:411] inception_5a/5x5_reduce -> inception_5a/5x5_reduce
I1126 10:05:26.904043 10292 cudnn_conv_layer.cpp:194] Reallocating workspace storage: 7428
I1126 10:05:26.904081 10292 net.cpp:150] Setting up inception_5a/5x5_reduce
I1126 10:05:26.904101 10292 net.cpp:157] Top shape: 32 32 7 7 (50176)
I1126 10:05:26.904109 10292 net.cpp:165] Memory required for data: 1732228104
I1126 10:05:26.904115 10292 layer_factory.hpp:76] Creating layer inception_5a/prelu_5x5_reduce
I1126 10:05:26.904124 10292 net.cpp:106] Creating Layer inception_5a/prelu_5x5_reduce
I1126 10:05:26.904129 10292 net.cpp:454] inception_5a/prelu_5x5_reduce <- inception_5a/5x5_reduce
I1126 10:05:26.904136 10292 net.cpp:397] inception_5a/prelu_5x5_reduce -> inception_5a/5x5_reduce (in-place)
I1126 10:05:26.904252 10292 net.cpp:150] Setting up inception_5a/prelu_5x5_reduce
I1126 10:05:26.904261 10292 net.cpp:157] Top shape: 32 32 7 7 (50176)
I1126 10:05:26.904265 10292 net.cpp:165] Memory required for data: 1732428808
I1126 10:05:26.904279 10292 layer_factory.hpp:76] Creating layer inception_5a/5x5
I1126 10:05:26.904289 10292 net.cpp:106] Creating Layer inception_5a/5x5
I1126 10:05:26.904292 10292 net.cpp:454] inception_5a/5x5 <- inception_5a/5x5_reduce
I1126 10:05:26.904300 10292 net.cpp:411] inception_5a/5x5 -> inception_5a/5x5
I1126 10:05:26.906203 10292 cudnn_conv_layer.cpp:194] Reallocating workspace storage: 9804
I1126 10:05:26.906246 10292 net.cpp:150] Setting up inception_5a/5x5
I1126 10:05:26.906260 10292 net.cpp:157] Top shape: 32 128 7 7 (200704)
I1126 10:05:26.906268 10292 net.cpp:165] Memory required for data: 1733231624
I1126 10:05:26.906280 10292 layer_factory.hpp:76] Creating layer inception_5a/prelu_5x5
I1126 10:05:26.906291 10292 net.cpp:106] Creating Layer inception_5a/prelu_5x5
I1126 10:05:26.906296 10292 net.cpp:454] inception_5a/prelu_5x5 <- inception_5a/5x5
I1126 10:05:26.906304 10292 net.cpp:397] inception_5a/prelu_5x5 -> inception_5a/5x5 (in-place)
I1126 10:05:26.906420 10292 net.cpp:150] Setting up inception_5a/prelu_5x5
I1126 10:05:26.906448 10292 net.cpp:157] Top shape: 32 128 7 7 (200704)
I1126 10:05:26.906453 10292 net.cpp:165] Memory required for data: 1734034440
I1126 10:05:26.906460 10292 layer_factory.hpp:76] Creating layer inception_5a/pool
I1126 10:05:26.906467 10292 net.cpp:106] Creating Layer inception_5a/pool
I1126 10:05:26.906473 10292 net.cpp:454] inception_5a/pool <- pool4/3x3_s2_pool4/3x3_s2_0_split_3
I1126 10:05:26.906481 10292 net.cpp:411] inception_5a/pool -> inception_5a/pool
I1126 10:05:26.906683 10292 net.cpp:150] Setting up inception_5a/pool
I1126 10:05:26.906692 10292 net.cpp:157] Top shape: 32 832 7 7 (1304576)
I1126 10:05:26.906697 10292 net.cpp:165] Memory required for data: 1739252744
I1126 10:05:26.906702 10292 layer_factory.hpp:76] Creating layer inception_5a/pool_proj
I1126 10:05:26.906710 10292 net.cpp:106] Creating Layer inception_5a/pool_proj
I1126 10:05:26.906715 10292 net.cpp:454] inception_5a/pool_proj <- inception_5a/pool
I1126 10:05:26.906723 10292 net.cpp:411] inception_5a/pool_proj -> inception_5a/pool_proj
I1126 10:05:26.909399 10292 cudnn_conv_layer.cpp:194] Reallocating workspace storage: 7428
I1126 10:05:26.909467 10292 net.cpp:150] Setting up inception_5a/pool_proj
I1126 10:05:26.909478 10292 net.cpp:157] Top shape: 32 128 7 7 (200704)
I1126 10:05:26.909482 10292 net.cpp:165] Memory required for data: 1740055560
I1126 10:05:26.909502 10292 layer_factory.hpp:76] Creating layer inception_5a/prelu_pool_proj
I1126 10:05:26.909523 10292 net.cpp:106] Creating Layer inception_5a/prelu_pool_proj
I1126 10:05:26.909530 10292 net.cpp:454] inception_5a/prelu_pool_proj <- inception_5a/pool_proj
I1126 10:05:26.909540 10292 net.cpp:397] inception_5a/prelu_pool_proj -> inception_5a/pool_proj (in-place)
I1126 10:05:26.909664 10292 net.cpp:150] Setting up inception_5a/prelu_pool_proj
I1126 10:05:26.909672 10292 net.cpp:157] Top shape: 32 128 7 7 (200704)
I1126 10:05:26.909677 10292 net.cpp:165] Memory required for data: 1740858376
I1126 10:05:26.909682 10292 layer_factory.hpp:76] Creating layer inception_5a/output
I1126 10:05:26.909692 10292 net.cpp:106] Creating Layer inception_5a/output
I1126 10:05:26.909696 10292 net.cpp:454] inception_5a/output <- inception_5a/1x1
I1126 10:05:26.909701 10292 net.cpp:454] inception_5a/output <- inception_5a/3x3
I1126 10:05:26.909706 10292 net.cpp:454] inception_5a/output <- inception_5a/5x5
I1126 10:05:26.909710 10292 net.cpp:454] inception_5a/output <- inception_5a/pool_proj
I1126 10:05:26.909716 10292 net.cpp:411] inception_5a/output -> inception_5a/output
I1126 10:05:26.909746 10292 net.cpp:150] Setting up inception_5a/output
I1126 10:05:26.909754 10292 net.cpp:157] Top shape: 32 832 7 7 (1304576)
I1126 10:05:26.909759 10292 net.cpp:165] Memory required for data: 1746076680
I1126 10:05:26.909762 10292 layer_factory.hpp:76] Creating layer inception_5a/output_inception_5a/output_0_split
I1126 10:05:26.909770 10292 net.cpp:106] Creating Layer inception_5a/output_inception_5a/output_0_split
I1126 10:05:26.909773 10292 net.cpp:454] inception_5a/output_inception_5a/output_0_split <- inception_5a/output
I1126 10:05:26.909782 10292 net.cpp:411] inception_5a/output_inception_5a/output_0_split -> inception_5a/output_inception_5a/output_0_split_0
I1126 10:05:26.909790 10292 net.cpp:411] inception_5a/output_inception_5a/output_0_split -> inception_5a/output_inception_5a/output_0_split_1
I1126 10:05:26.909796 10292 net.cpp:411] inception_5a/output_inception_5a/output_0_split -> inception_5a/output_inception_5a/output_0_split_2
I1126 10:05:26.909804 10292 net.cpp:411] inception_5a/output_inception_5a/output_0_split -> inception_5a/output_inception_5a/output_0_split_3
I1126 10:05:26.909873 10292 net.cpp:150] Setting up inception_5a/output_inception_5a/output_0_split
I1126 10:05:26.909883 10292 net.cpp:157] Top shape: 32 832 7 7 (1304576)
I1126 10:05:26.909888 10292 net.cpp:157] Top shape: 32 832 7 7 (1304576)
I1126 10:05:26.909893 10292 net.cpp:157] Top shape: 32 832 7 7 (1304576)
I1126 10:05:26.909898 10292 net.cpp:157] Top shape: 32 832 7 7 (1304576)
I1126 10:05:26.909925 10292 net.cpp:165] Memory required for data: 1766949896
I1126 10:05:26.909930 10292 layer_factory.hpp:76] Creating layer inception_5b/1x1
I1126 10:05:26.909941 10292 net.cpp:106] Creating Layer inception_5b/1x1
I1126 10:05:26.909945 10292 net.cpp:454] inception_5b/1x1 <- inception_5a/output_inception_5a/output_0_split_0
I1126 10:05:26.909955 10292 net.cpp:411] inception_5b/1x1 -> inception_5b/1x1
I1126 10:05:26.914526 10292 cudnn_conv_layer.cpp:194] Reallocating workspace storage: 7428
I1126 10:05:26.914588 10292 net.cpp:150] Setting up inception_5b/1x1
I1126 10:05:26.914603 10292 net.cpp:157] Top shape: 32 384 7 7 (602112)
I1126 10:05:26.914610 10292 net.cpp:165] Memory required for data: 1769358344
I1126 10:05:26.914625 10292 layer_factory.hpp:76] Creating layer inception_5b/prelu_1x1
I1126 10:05:26.914649 10292 net.cpp:106] Creating Layer inception_5b/prelu_1x1
I1126 10:05:26.914662 10292 net.cpp:454] inception_5b/prelu_1x1 <- inception_5b/1x1
I1126 10:05:26.914675 10292 net.cpp:397] inception_5b/prelu_1x1 -> inception_5b/1x1 (in-place)
I1126 10:05:26.915480 10292 net.cpp:150] Setting up inception_5b/prelu_1x1
I1126 10:05:26.915511 10292 net.cpp:157] Top shape: 32 384 7 7 (602112)
I1126 10:05:26.915519 10292 net.cpp:165] Memory required for data: 1771766792
I1126 10:05:26.915534 10292 layer_factory.hpp:76] Creating layer inception_5b/3x3_reduce
I1126 10:05:26.915562 10292 net.cpp:106] Creating Layer inception_5b/3x3_reduce
I1126 10:05:26.915572 10292 net.cpp:454] inception_5b/3x3_reduce <- inception_5a/output_inception_5a/output_0_split_1
I1126 10:05:26.915581 10292 net.cpp:411] inception_5b/3x3_reduce -> inception_5b/3x3_reduce
I1126 10:05:26.918603 10292 cudnn_conv_layer.cpp:194] Reallocating workspace storage: 7428
I1126 10:05:26.918669 10292 net.cpp:150] Setting up inception_5b/3x3_reduce
I1126 10:05:26.918686 10292 net.cpp:157] Top shape: 32 192 7 7 (301056)
I1126 10:05:26.918694 10292 net.cpp:165] Memory required for data: 1772971016
I1126 10:05:26.918710 10292 layer_factory.hpp:76] Creating layer inception_5b/prelu_3x3_reduce
I1126 10:05:26.918728 10292 net.cpp:106] Creating Layer inception_5b/prelu_3x3_reduce
I1126 10:05:26.918735 10292 net.cpp:454] inception_5b/prelu_3x3_reduce <- inception_5b/3x3_reduce
I1126 10:05:26.918745 10292 net.cpp:397] inception_5b/prelu_3x3_reduce -> inception_5b/3x3_reduce (in-place)
I1126 10:05:26.918884 10292 net.cpp:150] Setting up inception_5b/prelu_3x3_reduce
I1126 10:05:26.918894 10292 net.cpp:157] Top shape: 32 192 7 7 (301056)
I1126 10:05:26.918897 10292 net.cpp:165] Memory required for data: 1774175240
I1126 10:05:26.918903 10292 layer_factory.hpp:76] Creating layer inception_5b/3x3
I1126 10:05:26.918916 10292 net.cpp:106] Creating Layer inception_5b/3x3
I1126 10:05:26.918921 10292 net.cpp:454] inception_5b/3x3 <- inception_5b/3x3_reduce
I1126 10:05:26.918928 10292 net.cpp:411] inception_5b/3x3 -> inception_5b/3x3
I1126 10:05:26.925525 10292 cudnn_conv_layer.cpp:194] Reallocating workspace storage: 7788
I1126 10:05:26.925577 10292 net.cpp:150] Setting up inception_5b/3x3
I1126 10:05:26.925590 10292 net.cpp:157] Top shape: 32 384 7 7 (602112)
I1126 10:05:26.925597 10292 net.cpp:165] Memory required for data: 1776583688
I1126 10:05:26.925611 10292 layer_factory.hpp:76] Creating layer inception_5b/prelu_3x3
I1126 10:05:26.925629 10292 net.cpp:106] Creating Layer inception_5b/prelu_3x3
I1126 10:05:26.925642 10292 net.cpp:454] inception_5b/prelu_3x3 <- inception_5b/3x3
I1126 10:05:26.925652 10292 net.cpp:397] inception_5b/prelu_3x3 -> inception_5b/3x3 (in-place)
I1126 10:05:26.925775 10292 net.cpp:150] Setting up inception_5b/prelu_3x3
I1126 10:05:26.925782 10292 net.cpp:157] Top shape: 32 384 7 7 (602112)
I1126 10:05:26.925786 10292 net.cpp:165] Memory required for data: 1778992136
I1126 10:05:26.925792 10292 layer_factory.hpp:76] Creating layer inception_5b/5x5_reduce
I1126 10:05:26.925803 10292 net.cpp:106] Creating Layer inception_5b/5x5_reduce
I1126 10:05:26.925808 10292 net.cpp:454] inception_5b/5x5_reduce <- inception_5a/output_inception_5a/output_0_split_2
I1126 10:05:26.925838 10292 net.cpp:411] inception_5b/5x5_reduce -> inception_5b/5x5_reduce
I1126 10:05:26.927114 10292 cudnn_conv_layer.cpp:194] Reallocating workspace storage: 7428
I1126 10:05:26.927145 10292 net.cpp:150] Setting up inception_5b/5x5_reduce
I1126 10:05:26.927157 10292 net.cpp:157] Top shape: 32 48 7 7 (75264)
I1126 10:05:26.927165 10292 net.cpp:165] Memory required for data: 1779293192
I1126 10:05:26.927178 10292 layer_factory.hpp:76] Creating layer inception_5b/prelu_5x5_reduce
I1126 10:05:26.927192 10292 net.cpp:106] Creating Layer inception_5b/prelu_5x5_reduce
I1126 10:05:26.927198 10292 net.cpp:454] inception_5b/prelu_5x5_reduce <- inception_5b/5x5_reduce
I1126 10:05:26.927206 10292 net.cpp:397] inception_5b/prelu_5x5_reduce -> inception_5b/5x5_reduce (in-place)
I1126 10:05:26.927323 10292 net.cpp:150] Setting up inception_5b/prelu_5x5_reduce
I1126 10:05:26.927332 10292 net.cpp:157] Top shape: 32 48 7 7 (75264)
I1126 10:05:26.927336 10292 net.cpp:165] Memory required for data: 1779594248
I1126 10:05:26.927341 10292 layer_factory.hpp:76] Creating layer inception_5b/5x5
I1126 10:05:26.927351 10292 net.cpp:106] Creating Layer inception_5b/5x5
I1126 10:05:26.927356 10292 net.cpp:454] inception_5b/5x5 <- inception_5b/5x5_reduce
I1126 10:05:26.927362 10292 net.cpp:411] inception_5b/5x5 -> inception_5b/5x5
I1126 10:05:26.929541 10292 cudnn_conv_layer.cpp:194] Reallocating workspace storage: 9804
I1126 10:05:26.929587 10292 net.cpp:150] Setting up inception_5b/5x5
I1126 10:05:26.929600 10292 net.cpp:157] Top shape: 32 128 7 7 (200704)
I1126 10:05:26.929607 10292 net.cpp:165] Memory required for data: 1780397064
I1126 10:05:26.929627 10292 layer_factory.hpp:76] Creating layer inception_5b/prelu_5x5
I1126 10:05:26.929641 10292 net.cpp:106] Creating Layer inception_5b/prelu_5x5
I1126 10:05:26.929651 10292 net.cpp:454] inception_5b/prelu_5x5 <- inception_5b/5x5
I1126 10:05:26.929661 10292 net.cpp:397] inception_5b/prelu_5x5 -> inception_5b/5x5 (in-place)
I1126 10:05:26.929775 10292 net.cpp:150] Setting up inception_5b/prelu_5x5
I1126 10:05:26.929785 10292 net.cpp:157] Top shape: 32 128 7 7 (200704)
I1126 10:05:26.929788 10292 net.cpp:165] Memory required for data: 1781199880
I1126 10:05:26.929795 10292 layer_factory.hpp:76] Creating layer inception_5b/pool
I1126 10:05:26.929801 10292 net.cpp:106] Creating Layer inception_5b/pool
I1126 10:05:26.929806 10292 net.cpp:454] inception_5b/pool <- inception_5a/output_inception_5a/output_0_split_3
I1126 10:05:26.929811 10292 net.cpp:411] inception_5b/pool -> inception_5b/pool
I1126 10:05:26.930194 10292 net.cpp:150] Setting up inception_5b/pool
I1126 10:05:26.930205 10292 net.cpp:157] Top shape: 32 832 7 7 (1304576)
I1126 10:05:26.930209 10292 net.cpp:165] Memory required for data: 1786418184
I1126 10:05:26.930213 10292 layer_factory.hpp:76] Creating layer inception_5b/pool_proj
I1126 10:05:26.930222 10292 net.cpp:106] Creating Layer inception_5b/pool_proj
I1126 10:05:26.930227 10292 net.cpp:454] inception_5b/pool_proj <- inception_5b/pool
I1126 10:05:26.930234 10292 net.cpp:411] inception_5b/pool_proj -> inception_5b/pool_proj
I1126 10:05:26.932626 10292 cudnn_conv_layer.cpp:194] Reallocating workspace storage: 7428
I1126 10:05:26.932662 10292 net.cpp:150] Setting up inception_5b/pool_proj
I1126 10:05:26.932670 10292 net.cpp:157] Top shape: 32 128 7 7 (200704)
I1126 10:05:26.932677 10292 net.cpp:165] Memory required for data: 1787221000
I1126 10:05:26.932689 10292 layer_factory.hpp:76] Creating layer inception_5b/prelu_pool_proj
I1126 10:05:26.932703 10292 net.cpp:106] Creating Layer inception_5b/prelu_pool_proj
I1126 10:05:26.932718 10292 net.cpp:454] inception_5b/prelu_pool_proj <- inception_5b/pool_proj
I1126 10:05:26.932729 10292 net.cpp:397] inception_5b/prelu_pool_proj -> inception_5b/pool_proj (in-place)
I1126 10:05:26.932837 10292 net.cpp:150] Setting up inception_5b/prelu_pool_proj
I1126 10:05:26.932845 10292 net.cpp:157] Top shape: 32 128 7 7 (200704)
I1126 10:05:26.932849 10292 net.cpp:165] Memory required for data: 1788023816
I1126 10:05:26.932855 10292 layer_factory.hpp:76] Creating layer inception_5b/output
I1126 10:05:26.932880 10292 net.cpp:106] Creating Layer inception_5b/output
I1126 10:05:26.932886 10292 net.cpp:454] inception_5b/output <- inception_5b/1x1
I1126 10:05:26.932891 10292 net.cpp:454] inception_5b/output <- inception_5b/3x3
I1126 10:05:26.932896 10292 net.cpp:454] inception_5b/output <- inception_5b/5x5
I1126 10:05:26.932901 10292 net.cpp:454] inception_5b/output <- inception_5b/pool_proj
I1126 10:05:26.932909 10292 net.cpp:411] inception_5b/output -> inception_5b/output
I1126 10:05:26.932939 10292 net.cpp:150] Setting up inception_5b/output
I1126 10:05:26.932946 10292 net.cpp:157] Top shape: 32 1024 7 7 (1605632)
I1126 10:05:26.932950 10292 net.cpp:165] Memory required for data: 1794446344
I1126 10:05:26.932955 10292 layer_factory.hpp:76] Creating layer pool5/7x7_s1
I1126 10:05:26.932963 10292 net.cpp:106] Creating Layer pool5/7x7_s1
I1126 10:05:26.932968 10292 net.cpp:454] pool5/7x7_s1 <- inception_5b/output
I1126 10:05:26.932976 10292 net.cpp:411] pool5/7x7_s1 -> pool5/7x7_s1
I1126 10:05:26.933148 10292 net.cpp:150] Setting up pool5/7x7_s1
I1126 10:05:26.933157 10292 net.cpp:157] Top shape: 32 1024 1 1 (32768)
I1126 10:05:26.933161 10292 net.cpp:165] Memory required for data: 1794577416
I1126 10:05:26.933166 10292 layer_factory.hpp:76] Creating layer pool5/drop_7x7_s1
I1126 10:05:26.933174 10292 net.cpp:106] Creating Layer pool5/drop_7x7_s1
I1126 10:05:26.933178 10292 net.cpp:454] pool5/drop_7x7_s1 <- pool5/7x7_s1
I1126 10:05:26.933184 10292 net.cpp:397] pool5/drop_7x7_s1 -> pool5/7x7_s1 (in-place)
I1126 10:05:26.933213 10292 net.cpp:150] Setting up pool5/drop_7x7_s1
I1126 10:05:26.933220 10292 net.cpp:157] Top shape: 32 1024 1 1 (32768)
I1126 10:05:26.933224 10292 net.cpp:165] Memory required for data: 1794708488
I1126 10:05:26.933228 10292 layer_factory.hpp:76] Creating layer loss3/classifier2
I1126 10:05:26.933236 10292 net.cpp:106] Creating Layer loss3/classifier2
I1126 10:05:26.933241 10292 net.cpp:454] loss3/classifier2 <- pool5/7x7_s1
I1126 10:05:26.933249 10292 net.cpp:411] loss3/classifier2 -> loss3/classifier
I1126 10:05:26.933394 10292 net.cpp:150] Setting up loss3/classifier2
I1126 10:05:26.933403 10292 net.cpp:157] Top shape: 32 2 (64)
I1126 10:05:26.933406 10292 net.cpp:165] Memory required for data: 1794708744
I1126 10:05:26.933413 10292 layer_factory.hpp:76] Creating layer loss3/loss3
I1126 10:05:26.933420 10292 net.cpp:106] Creating Layer loss3/loss3
I1126 10:05:26.933424 10292 net.cpp:454] loss3/loss3 <- loss3/classifier
I1126 10:05:26.933429 10292 net.cpp:454] loss3/loss3 <- label_data_1_split_2
I1126 10:05:26.933437 10292 net.cpp:411] loss3/loss3 -> loss3/loss3
…
I1126 10:05:26.944844 10292 net.cpp:322] The NetState phase (1) differed from the phase (0) specified by a rule in layer data
I1126 10:05:26.946014 10292 net.cpp:49] Initializing net from parameters: 
name: "GoogleNet"
state {
  phase: TEST
}
layer {
  name: "data"
  type: "Data"
  top: "data"
  top: "label"
  include {
    phase: TEST
  }
  transform_param {
    mirror: false
    crop_size: 224
    mean_value: 104
    mean_value: 117
    mean_value: 123
  }
  data_param {
    source: "../../LMDB/val_2-lmdb"
    batch_size: 50
    backend: LMDB
  }
}
layer {
  name: "conv1/7x7_s2"
  type: "Convolution"
  bottom: "data"
  top: "conv1/7x7_s2"
  param {
    lr_mult: 1
    decay_mult: 1
  }
  param {
    lr_mult: 2
    decay_mult: 0
  }
  convolution_param {
    num_output: 64
    pad: 3
    kernel_size: 7
    stride: 2
    weight_filler {
      type: "xavier"
    }
    bias_filler {
      type: "constant"
      value: 0.2
    }
  }
}
layer {
  name: "conv1/prelu_7x7"
  type: "PReLU"
  bottom: "conv1/7x7_s2"
  top: "conv1/7x7_s2"
  param {
    lr_mult: 1
    decay_mult: 0
  }
  prelu_param {
    filler {
      type: "constant"
      value: 0.01
    }
  }
}
layer {
  name: "pool1/3x3_s2"
  type: "Pooling"
  bottom: "conv1/7x7_s2"
  top: "pool1/3x3_s2"
  pooling_param {
    pool: MAX
    kernel_size: 3
    stride: 2
  }
}
layer {
  name: "pool1/norm1"
  type: "LRN"
  bottom: "pool1/3x3_s2"
  top: "pool1/norm1"
  lrn_param {
    local_size: 5
    alpha: 0.0001
    beta: 0.75
  }
}
layer {
  name: "conv2/3x3_reduce"
  type: "Convolution"
  bottom: "pool1/norm1"
  top: "conv2/3x3_reduce"
  param {
    lr_mult: 1
    decay_mult: 1
  }
  param {
    lr_mult: 2
    decay_mult: 0
  }
  convolution_param {
    num_output: 64
    kernel_size: 1
    weight_filler {
      type: "xavier"
    }
    bias_filler {
      type: "constant"
      value: 0.2
    }
  }
}
layer {
  name: "conv2/prelu_3x3_reduce"
  type: "PReLU"
  bottom: "conv2/3x3_reduce"
  top: "conv2/3x3_reduce"
  param {
    lr_mult: 1
    decay_mult: 0
  }
  prelu_param {
    filler {
      type: "constant"
      value: 0.01
    }
  }
}
layer {
  name: "conv2/3x3"
  type: "Convolution"
  bottom: "conv2/3x3_reduce"
  top: "conv2/3x3"
  param {
    lr_mult: 1
    decay_mult: 1
  }
  param {
    lr_mult: 2
    decay_mult: 0
  }
  convolution_param {
    num_output: 192
    pad: 1
    kernel_size: 3
    weight_filler {
      type: "xavier"
    }
    bias_filler {
      type: "constant"
      value: 0.2
    }
  }
}
layer {
  name: "conv2/prelu_3x3"
  type: "PReLU"
  bottom: "conv2/3x3"
  top: "conv2/3x3"
  param {
    lr_mult: 1
    decay_mult: 0
  }
  prelu_param {
    filler {
      type: "constant"
      value: 0.01
    }
  }
}
layer {
  name: "conv2/norm2"
  type: "LRN"
  bottom: "conv2/3x3"
  top: "conv2/norm2"
  lrn_param {
    local_size: 5
    alpha: 0.0001
    beta: 0.75
  }
}
layer {
  name: "pool2/3x3_s2"
  type: "Pooling"
  bottom: "conv2/norm2"
  top: "pool2/3x3_s2"
  pooling_param {
    pool: MAX
    kernel_size: 3
    stride: 2
  }
}
layer {
  name: "inception_3a/1x1"
  type: "Convolution"
  bottom: "pool2/3x3_s2"
  top: "inception_3a/1x1"
  param {
    lr_mult: 1
    decay_mult: 1
  }
  param {
    lr_mult: 2
    decay_mult: 0
  }
  convolution_param {
    num_output: 64
    kernel_size: 1
    weight_filler {
      type: "xavier"
    }
    bias_filler {
      type: "constant"
      value: 0.2
    }
  }
}
layer {
  name: "inception_3a/prelu_1x1"
  type: "PReLU"
  bottom: "inception_3a/1x1"
  top: "inception_3a/1x1"
  param {
    lr_mult: 1
    decay_mult: 0
  }
  prelu_param {
    filler {
      type: "constant"
      value: 0.01
    }
  }
}
layer {
  name: "inception_3a/3x3_reduce"
  type: "Convolution"
  bottom: "pool2/3x3_s2"
  top: "inception_3a/3x3_reduce"
  param {
    lr_mult: 1
    decay_mult: 1
  }
  param {
    lr_mult: 2
    decay_mult: 0
  }
  convolution_param {
    num_output: 96
    kernel_size: 1
    weight_filler {
      type: "xavier"
    }
    bias_filler {
      type: "constant"
      value: 0.2
    }
  }
}
layer {
  name: "inception_3a/prelu_3x3_reduce"
  type: "PReLU"
  bottom: "inception_3a/3x3_reduce"
  top: "inception_3a/3x3_reduce"
  param {
    lr_mult: 1
    decay_mult: 0
  }
  prelu_param {
    filler {
      type: "constant"
      value: 0.01
    }
  }
}
layer {
  name: "inception_3a/3x3"
  type: "Convolution"
  bottom: "inception_3a/3x3_reduce"
  top: "inception_3a/3x3"
  param {
    lr_mult: 1
    decay_mult: 1
  }
  param {
    lr_mult: 2
    decay_mult: 0
  }
  convolution_param {
    num_output: 128
    pad: 1
    kernel_size: 3
    weight_filler {
      type: "xavier"
    }
    bias_filler {
      type: "constant"
      value: 0.2
    }
  }
}
layer {
  name: "inception_3a/prelu_3x3"
  type: "PReLU"
  bottom: "inception_3a/3x3"
  top: "inception_3a/3x3"
  param {
    lr_mult: 1
    decay_mult: 0
  }
  prelu_param {
    filler {
      type: "constant"
      value: 0.01
    }
  }
}
layer {
  name: "inception_3a/5x5_reduce"
  type: "Convolution"
  bottom: "pool2/3x3_s2"
  top: "inception_3a/5x5_reduce"
  param {
    lr_mult: 1
    decay_mult: 1
  }
  param {
    lr_mult: 2
    decay_mult: 0
  }
  convolution_param {
    num_output: 16
    kernel_size: 1
    weight_filler {
      type: "xavier"
    }
    bias_filler {
      type: "constant"
      value: 0.2
    }
  }
}
layer {
  name: "inception_3a/prelu_5x5_reduce"
  type: "PReLU"
  bottom: "inception_3a/5x5_reduce"
  top: "inception_3a/5x5_reduce"
  param {
    lr_mult: 1
    decay_mult: 0
  }
  prelu_param {
    filler {
      type: "constant"
      value: 0.01
    }
  }
}
layer {
  name: "inception_3a/5x5"
  type: "Convolution"
  bottom: "inception_3a/5x5_reduce"
  top: "inception_3a/5x5"
  param {
    lr_mult: 1
    decay_mult: 1
  }
  param {
    lr_mult: 2
    decay_mult: 0
  }
  convolution_param {
    num_output: 32
    pad: 2
    kernel_size: 5
    weight_filler {
      type: "xavier"
    }
    bias_filler {
      type: "constant"
      value: 0.2
    }
  }
}
layer {
  name: "inception_3a/prelu_5x5"
  type: "PReLU"
  bottom: "inception_3a/5x5"
  top: "inception_3a/5x5"
  param {
    lr_mult: 1
    decay_mult: 0
  }
  prelu_param {
    filler {
      type: "constant"
      value: 0.01
    }
  }
}
layer {
  name: "inception_3a/pool"
  type: "Pooling"
  bottom: "pool2/3x3_s2"
  top: "inception_3a/pool"
  pooling_param {
    pool: MAX
    kernel_size: 3
    stride: 1
    pad: 1
  }
}
layer {
  name: "inception_3a/pool_proj"
  type: "Convolution"
  bottom: "inception_3a/pool"
  top: "inception_3a/pool_proj"
  param {
    lr_mult: 1
    decay_mult: 1
  }
  param {
    lr_mult: 2
    decay_mult: 0
  }
  convolution_param {
    num_output: 32
    kernel_size: 1
    weight_filler {
      type: "xavier"
    }
    bias_filler {
      type: "constant"
      value: 0.2
    }
  }
}
layer {
  name: "inception_3a/prelu_pool_proj"
  type: "PReLU"
  bottom: "inception_3a/pool_proj"
  top: "inception_3a/pool_proj"
  param {
    lr_mult: 1
    decay_mult: 0
  }
  prelu_param {
    filler {
      type: "constant"
      value: 0.01
    }
  }
}
layer {
  name: "inception_3a/output"
  type: "Concat"
  bottom: "inception_3a/1x1"
  bottom: "inception_3a/3x3"
  bottom: "inception_3a/5x5"
  bottom: "inception_3a/pool_proj"
  top: "inception_3a/output"
}
layer {
  name: "inception_3b/1x1"
  type: "Convolution"
  bottom: "inception_3a/output"
  top: "inception_3b/1x1"
  param {
    lr_mult: 1
    decay_mult: 1
  }
  param {
    lr_mult: 2
    decay_mult: 0
  }
  convolution_param {
    num_output: 128
    kernel_size: 1
    weight_filler {
      type: "xavier"
    }
    bias_filler {
      type: "constant"
      value: 0.2
    }
  }
}
layer {
  name: "inception_3b/prelu_1x1"
  type: "PReLU"
  bottom: "inception_3b/1x1"
  top: "inception_3b/1x1"
  param {
    lr_mult: 1
    decay_mult: 0
  }
  prelu_param {
    filler {
      type: "constant"
      value: 0.01
    }
  }
}
layer {
  name: "inception_3b/3x3_reduce"
  type: "Convolution"
  bottom: "inception_3a/output"
  top: "inception_3b/3x3_reduce"
  param {
    lr_mult: 1
    decay_mult: 1
  }
  param {
    lr_mult: 2
    decay_mult: 0
  }
  convolution_param {
    num_output: 128
    kernel_size: 1
    weight_filler {
      type: "xavier"
    }
    bias_filler {
      type: "constant"
      value: 0.2
    }
  }
}
layer {
  name: "inception_3b/prelu_3x3_reduce"
  type: "PReLU"
  bottom: "inception_3b/3x3_reduce"
  top: "inception_3b/3x3_reduce"
  param {
    lr_mult: 1
    decay_mult: 0
  }
  prelu_param {
    filler {
      type: "constant"
      value: 0.01
    }
  }
}
layer {
  name: "inception_3b/3x3"
  type: "Convolution"
  bottom: "inception_3b/3x3_reduce"
  top: "inception_3b/3x3"
  param {
    lr_mult: 1
    decay_mult: 1
  }
  param {
    lr_mult: 2
    decay_mult: 0
  }
  convolution_param {
    num_output: 192
    pad: 1
…
I1126 10:05:27.370970 10292 net.cpp:106] Creating Layer inception_4c/output
I1126 10:05:27.370973 10292 net.cpp:454] inception_4c/output <- inception_4c/1x1
I1126 10:05:27.370978 10292 net.cpp:454] inception_4c/output <- inception_4c/3x3
I1126 10:05:27.370983 10292 net.cpp:454] inception_4c/output <- inception_4c/5x5
I1126 10:05:27.370987 10292 net.cpp:454] inception_4c/output <- inception_4c/pool_proj
I1126 10:05:27.370995 10292 net.cpp:411] inception_4c/output -> inception_4c/output
I1126 10:05:27.371016 10292 net.cpp:150] Setting up inception_4c/output
I1126 10:05:27.371023 10292 net.cpp:157] Top shape: 50 512 14 14 (5017600)
I1126 10:05:27.371027 10292 net.cpp:165] Memory required for data: 2234652208
I1126 10:05:27.371031 10292 layer_factory.hpp:76] Creating layer inception_4c/output_inception_4c/output_0_split
I1126 10:05:27.371042 10292 net.cpp:106] Creating Layer inception_4c/output_inception_4c/output_0_split
I1126 10:05:27.371049 10292 net.cpp:454] inception_4c/output_inception_4c/output_0_split <- inception_4c/output
I1126 10:05:27.371059 10292 net.cpp:411] inception_4c/output_inception_4c/output_0_split -> inception_4c/output_inception_4c/output_0_split_0
I1126 10:05:27.405642 10292 net.cpp:411] inception_4c/output_inception_4c/output_0_split -> inception_4c/output_inception_4c/output_0_split_1
I1126 10:05:27.405684 10292 net.cpp:411] inception_4c/output_inception_4c/output_0_split -> inception_4c/output_inception_4c/output_0_split_2
I1126 10:05:27.405746 10292 net.cpp:411] inception_4c/output_inception_4c/output_0_split -> inception_4c/output_inception_4c/output_0_split_3
I1126 10:05:27.405858 10292 net.cpp:150] Setting up inception_4c/output_inception_4c/output_0_split
I1126 10:05:27.405870 10292 net.cpp:157] Top shape: 50 512 14 14 (5017600)
I1126 10:05:27.405879 10292 net.cpp:157] Top shape: 50 512 14 14 (5017600)
I1126 10:05:27.405885 10292 net.cpp:157] Top shape: 50 512 14 14 (5017600)
I1126 10:05:27.405892 10292 net.cpp:157] Top shape: 50 512 14 14 (5017600)
I1126 10:05:27.405899 10292 net.cpp:165] Memory required for data: 2314933808
I1126 10:05:27.405905 10292 layer_factory.hpp:76] Creating layer inception_4d/1x1
I1126 10:05:27.405917 10292 net.cpp:106] Creating Layer inception_4d/1x1
I1126 10:05:27.405925 10292 net.cpp:454] inception_4d/1x1 <- inception_4c/output_inception_4c/output_0_split_0
I1126 10:05:27.405936 10292 net.cpp:411] inception_4d/1x1 -> inception_4d/1x1
I1126 10:05:27.408193 10292 cudnn_conv_layer.cpp:194] Reallocating workspace storage: 10080
I1126 10:05:27.408273 10292 net.cpp:150] Setting up inception_4d/1x1
I1126 10:05:27.408293 10292 net.cpp:157] Top shape: 50 112 14 14 (1097600)
I1126 10:05:27.408301 10292 net.cpp:165] Memory required for data: 2319324208
I1126 10:05:27.408319 10292 layer_factory.hpp:76] Creating layer inception_4d/prelu_1x1
I1126 10:05:27.408336 10292 net.cpp:106] Creating Layer inception_4d/prelu_1x1
I1126 10:05:27.408347 10292 net.cpp:454] inception_4d/prelu_1x1 <- inception_4d/1x1
I1126 10:05:27.408367 10292 net.cpp:397] inception_4d/prelu_1x1 -> inception_4d/1x1 (in-place)
I1126 10:05:27.408524 10292 net.cpp:150] Setting up inception_4d/prelu_1x1
I1126 10:05:27.408532 10292 net.cpp:157] Top shape: 50 112 14 14 (1097600)
I1126 10:05:27.408536 10292 net.cpp:165] Memory required for data: 2323714608
I1126 10:05:27.408541 10292 layer_factory.hpp:76] Creating layer inception_4d/3x3_reduce
I1126 10:05:27.408550 10292 net.cpp:106] Creating Layer inception_4d/3x3_reduce
I1126 10:05:27.408555 10292 net.cpp:454] inception_4d/3x3_reduce <- inception_4c/output_inception_4c/output_0_split_1
I1126 10:05:27.408565 10292 net.cpp:411] inception_4d/3x3_reduce -> inception_4d/3x3_reduce
I1126 10:05:27.411077 10292 cudnn_conv_layer.cpp:194] Reallocating workspace storage: 10080
I1126 10:05:27.411109 10292 net.cpp:150] Setting up inception_4d/3x3_reduce
I1126 10:05:27.411118 10292 net.cpp:157] Top shape: 50 144 14 14 (1411200)
I1126 10:05:27.411123 10292 net.cpp:165] Memory required for data: 2329359408
I1126 10:05:27.411137 10292 layer_factory.hpp:76] Creating layer inception_4d/prelu_3x3_reduce
I1126 10:05:27.411149 10292 net.cpp:106] Creating Layer inception_4d/prelu_3x3_reduce
I1126 10:05:27.411154 10292 net.cpp:454] inception_4d/prelu_3x3_reduce <- inception_4d/3x3_reduce
I1126 10:05:27.411162 10292 net.cpp:397] inception_4d/prelu_3x3_reduce -> inception_4d/3x3_reduce (in-place)
I1126 10:05:27.411283 10292 net.cpp:150] Setting up inception_4d/prelu_3x3_reduce
I1126 10:05:27.411290 10292 net.cpp:157] Top shape: 50 144 14 14 (1411200)
I1126 10:05:27.411294 10292 net.cpp:165] Memory required for data: 2335004208
I1126 10:05:27.411300 10292 layer_factory.hpp:76] Creating layer inception_4d/3x3
I1126 10:05:27.411309 10292 net.cpp:106] Creating Layer inception_4d/3x3
I1126 10:05:27.411314 10292 net.cpp:454] inception_4d/3x3 <- inception_4d/3x3_reduce
I1126 10:05:27.411320 10292 net.cpp:411] inception_4d/3x3 -> inception_4d/3x3
I1126 10:05:27.416323 10292 cudnn_conv_layer.cpp:194] Reallocating workspace storage: 10080
I1126 10:05:27.416373 10292 net.cpp:150] Setting up inception_4d/3x3
I1126 10:05:27.416383 10292 net.cpp:157] Top shape: 50 288 14 14 (2822400)
I1126 10:05:27.416388 10292 net.cpp:165] Memory required for data: 2346293808
I1126 10:05:27.416399 10292 layer_factory.hpp:76] Creating layer inception_4d/prelu_3x3
I1126 10:05:27.416411 10292 net.cpp:106] Creating Layer inception_4d/prelu_3x3
I1126 10:05:27.416419 10292 net.cpp:454] inception_4d/prelu_3x3 <- inception_4d/3x3
I1126 10:05:27.416450 10292 net.cpp:397] inception_4d/prelu_3x3 -> inception_4d/3x3 (in-place)
I1126 10:05:27.417106 10292 net.cpp:150] Setting up inception_4d/prelu_3x3
I1126 10:05:27.417119 10292 net.cpp:157] Top shape: 50 288 14 14 (2822400)
I1126 10:05:27.417124 10292 net.cpp:165] Memory required for data: 2357583408
I1126 10:05:27.417129 10292 layer_factory.hpp:76] Creating layer inception_4d/5x5_reduce
I1126 10:05:27.417140 10292 net.cpp:106] Creating Layer inception_4d/5x5_reduce
I1126 10:05:27.417145 10292 net.cpp:454] inception_4d/5x5_reduce <- inception_4c/output_inception_4c/output_0_split_2
I1126 10:05:27.417155 10292 net.cpp:411] inception_4d/5x5_reduce -> inception_4d/5x5_reduce
I1126 10:05:27.418679 10292 cudnn_conv_layer.cpp:194] Reallocating workspace storage: 10080
I1126 10:05:27.418721 10292 net.cpp:150] Setting up inception_4d/5x5_reduce
I1126 10:05:27.418732 10292 net.cpp:157] Top shape: 50 32 14 14 (313600)
I1126 10:05:27.418736 10292 net.cpp:165] Memory required for data: 2358837808
I1126 10:05:27.418745 10292 layer_factory.hpp:76] Creating layer inception_4d/prelu_5x5_reduce
I1126 10:05:27.418764 10292 net.cpp:106] Creating Layer inception_4d/prelu_5x5_reduce
I1126 10:05:27.418771 10292 net.cpp:454] inception_4d/prelu_5x5_reduce <- inception_4d/5x5_reduce
I1126 10:05:27.418781 10292 net.cpp:397] inception_4d/prelu_5x5_reduce -> inception_4d/5x5_reduce (in-place)
I1126 10:05:27.418913 10292 net.cpp:150] Setting up inception_4d/prelu_5x5_reduce
I1126 10:05:27.418942 10292 net.cpp:157] Top shape: 50 32 14 14 (313600)
I1126 10:05:27.418956 10292 net.cpp:165] Memory required for data: 2360092208
I1126 10:05:27.418967 10292 layer_factory.hpp:76] Creating layer inception_4d/5x5
I1126 10:05:27.418993 10292 net.cpp:106] Creating Layer inception_4d/5x5
I1126 10:05:27.419009 10292 net.cpp:454] inception_4d/5x5 <- inception_4d/5x5_reduce
I1126 10:05:27.419021 10292 net.cpp:411] inception_4d/5x5 -> inception_4d/5x5
I1126 10:05:27.420408 10292 cudnn_conv_layer.cpp:194] Reallocating workspace storage: 13080
I1126 10:05:27.420447 10292 net.cpp:150] Setting up inception_4d/5x5
I1126 10:05:27.420456 10292 net.cpp:157] Top shape: 50 64 14 14 (627200)
I1126 10:05:27.420461 10292 net.cpp:165] Memory required for data: 2362601008
I1126 10:05:27.420469 10292 layer_factory.hpp:76] Creating layer inception_4d/prelu_5x5
I1126 10:05:27.420487 10292 net.cpp:106] Creating Layer inception_4d/prelu_5x5
I1126 10:05:27.420495 10292 net.cpp:454] inception_4d/prelu_5x5 <- inception_4d/5x5
I1126 10:05:27.420501 10292 net.cpp:397] inception_4d/prelu_5x5 -> inception_4d/5x5 (in-place)
I1126 10:05:27.420621 10292 net.cpp:150] Setting up inception_4d/prelu_5x5
I1126 10:05:27.420629 10292 net.cpp:157] Top shape: 50 64 14 14 (627200)
I1126 10:05:27.420634 10292 net.cpp:165] Memory required for data: 2365109808
I1126 10:05:27.420639 10292 layer_factory.hpp:76] Creating layer inception_4d/pool
I1126 10:05:27.420647 10292 net.cpp:106] Creating Layer inception_4d/pool
I1126 10:05:27.420655 10292 net.cpp:454] inception_4d/pool <- inception_4c/output_inception_4c/output_0_split_3
I1126 10:05:27.420662 10292 net.cpp:411] inception_4d/pool -> inception_4d/pool
I1126 10:05:27.421090 10292 net.cpp:150] Setting up inception_4d/pool
I1126 10:05:27.421102 10292 net.cpp:157] Top shape: 50 512 14 14 (5017600)
I1126 10:05:27.421106 10292 net.cpp:165] Memory required for data: 2385180208
I1126 10:05:27.421110 10292 layer_factory.hpp:76] Creating layer inception_4d/pool_proj
I1126 10:05:27.421120 10292 net.cpp:106] Creating Layer inception_4d/pool_proj
I1126 10:05:27.421126 10292 net.cpp:454] inception_4d/pool_proj <- inception_4d/pool
I1126 10:05:27.421134 10292 net.cpp:411] inception_4d/pool_proj -> inception_4d/pool_proj
I1126 10:05:27.422649 10292 cudnn_conv_layer.cpp:194] Reallocating workspace storage: 10080
I1126 10:05:27.422703 10292 net.cpp:150] Setting up inception_4d/pool_proj
I1126 10:05:27.422715 10292 net.cpp:157] Top shape: 50 64 14 14 (627200)
I1126 10:05:27.422719 10292 net.cpp:165] Memory required for data: 2387689008
I1126 10:05:27.422729 10292 layer_factory.hpp:76] Creating layer inception_4d/prelu_pool_proj
I1126 10:05:27.422767 10292 net.cpp:106] Creating Layer inception_4d/prelu_pool_proj
I1126 10:05:27.422775 10292 net.cpp:454] inception_4d/prelu_pool_proj <- inception_4d/pool_proj
I1126 10:05:27.422785 10292 net.cpp:397] inception_4d/prelu_pool_proj -> inception_4d/pool_proj (in-place)
I1126 10:05:27.422894 10292 net.cpp:150] Setting up inception_4d/prelu_pool_proj
I1126 10:05:27.422901 10292 net.cpp:157] Top shape: 50 64 14 14 (627200)
I1126 10:05:27.422906 10292 net.cpp:165] Memory required for data: 2390197808
I1126 10:05:27.422911 10292 layer_factory.hpp:76] Creating layer inception_4d/output
I1126 10:05:27.422919 10292 net.cpp:106] Creating Layer inception_4d/output
I1126 10:05:27.422924 10292 net.cpp:454] inception_4d/output <- inception_4d/1x1
I1126 10:05:27.422930 10292 net.cpp:454] inception_4d/output <- inception_4d/3x3
I1126 10:05:27.422935 10292 net.cpp:454] inception_4d/output <- inception_4d/5x5
I1126 10:05:27.422940 10292 net.cpp:454] inception_4d/output <- inception_4d/pool_proj
I1126 10:05:27.422947 10292 net.cpp:411] inception_4d/output -> inception_4d/output
I1126 10:05:27.422981 10292 net.cpp:150] Setting up inception_4d/output
I1126 10:05:27.422988 10292 net.cpp:157] Top shape: 50 528 14 14 (5174400)
I1126 10:05:27.422992 10292 net.cpp:165] Memory required for data: 2410895408
I1126 10:05:27.422996 10292 layer_factory.hpp:76] Creating layer inception_4d/output_inception_4d/output_0_split
I1126 10:05:27.423007 10292 net.cpp:106] Creating Layer inception_4d/output_inception_4d/output_0_split
I1126 10:05:27.423012 10292 net.cpp:454] inception_4d/output_inception_4d/output_0_split <- inception_4d/output
I1126 10:05:27.423017 10292 net.cpp:411] inception_4d/output_inception_4d/output_0_split -> inception_4d/output_inception_4d/output_0_split_0
I1126 10:05:27.423024 10292 net.cpp:411] inception_4d/output_inception_4d/output_0_split -> inception_4d/output_inception_4d/output_0_split_1
I1126 10:05:27.423032 10292 net.cpp:411] inception_4d/output_inception_4d/output_0_split -> inception_4d/output_inception_4d/output_0_split_2
I1126 10:05:27.423038 10292 net.cpp:411] inception_4d/output_inception_4d/output_0_split -> inception_4d/output_inception_4d/output_0_split_3
I1126 10:05:27.423046 10292 net.cpp:411] inception_4d/output_inception_4d/output_0_split -> inception_4d/output_inception_4d/output_0_split_4
I1126 10:05:27.423112 10292 net.cpp:150] Setting up inception_4d/output_inception_4d/output_0_split
I1126 10:05:27.423120 10292 net.cpp:157] Top shape: 50 528 14 14 (5174400)
I1126 10:05:27.423125 10292 net.cpp:157] Top shape: 50 528 14 14 (5174400)
I1126 10:05:27.423130 10292 net.cpp:157] Top shape: 50 528 14 14 (5174400)
I1126 10:05:27.423135 10292 net.cpp:157] Top shape: 50 528 14 14 (5174400)
I1126 10:05:27.423140 10292 net.cpp:157] Top shape: 50 528 14 14 (5174400)
I1126 10:05:27.423143 10292 net.cpp:165] Memory required for data: 2514383408
I1126 10:05:27.423147 10292 layer_factory.hpp:76] Creating layer loss2/ave_pool
I1126 10:05:27.423156 10292 net.cpp:106] Creating Layer loss2/ave_pool
I1126 10:05:27.423161 10292 net.cpp:454] loss2/ave_pool <- inception_4d/output_inception_4d/output_0_split_0
I1126 10:05:27.423168 10292 net.cpp:411] loss2/ave_pool -> loss2/ave_pool
I1126 10:05:27.423424 10292 net.cpp:150] Setting up loss2/ave_pool
I1126 10:05:27.423436 10292 net.cpp:157] Top shape: 50 528 4 4 (422400)
I1126 10:05:27.423440 10292 net.cpp:165] Memory required for data: 2516073008
I1126 10:05:27.423445 10292 layer_factory.hpp:76] Creating layer loss2/conv
I1126 10:05:27.423456 10292 net.cpp:106] Creating Layer loss2/conv
I1126 10:05:27.423462 10292 net.cpp:454] loss2/conv <- loss2/ave_pool
I1126 10:05:27.423470 10292 net.cpp:411] loss2/conv -> loss2/conv
I1126 10:05:27.425214 10292 cudnn_conv_layer.cpp:194] Reallocating workspace storage: 6840
I1126 10:05:27.425263 10292 net.cpp:150] Setting up loss2/conv
I1126 10:05:27.425273 10292 net.cpp:157] Top shape: 50 128 4 4 (102400)
I1126 10:05:27.425277 10292 net.cpp:165] Memory required for data: 2516482608
I1126 10:05:27.425318 10292 layer_factory.hpp:76] Creating layer loss2/prelu_conv
I1126 10:05:27.425333 10292 net.cpp:106] Creating Layer loss2/prelu_conv
I1126 10:05:27.425341 10292 net.cpp:454] loss2/prelu_conv <- loss2/conv
I1126 10:05:27.425351 10292 net.cpp:397] loss2/prelu_conv -> loss2/conv (in-place)
I1126 10:05:27.425493 10292 net.cpp:150] Setting up loss2/prelu_conv
I1126 10:05:27.425503 10292 net.cpp:157] Top shape: 50 128 4 4 (102400)
I1126 10:05:27.425506 10292 net.cpp:165] Memory required for data: 2516892208
I1126 10:05:27.425513 10292 layer_factory.hpp:76] Creating layer loss2/fc
I1126 10:05:27.425532 10292 net.cpp:106] Creating Layer loss2/fc
I1126 10:05:27.425537 10292 net.cpp:454] loss2/fc <- loss2/conv
I1126 10:05:27.425545 10292 net.cpp:411] loss2/fc -> loss2/fc
I1126 10:05:27.441378 10292 net.cpp:150] Setting up loss2/fc
I1126 10:05:27.441414 10292 net.cpp:157] Top shape: 50 1024 (51200)
I1126 10:05:27.441419 10292 net.cpp:165] Memory required for data: 2517097008
I1126 10:05:27.441449 10292 layer_factory.hpp:76] Creating layer loss2/prelu_fc
I1126 10:05:27.441464 10292 net.cpp:106] Creating Layer loss2/prelu_fc
I1126 10:05:27.441472 10292 net.cpp:454] loss2/prelu_fc <- loss2/fc
I1126 10:05:27.441478 10292 net.cpp:397] loss2/prelu_fc -> loss2/fc (in-place)
I1126 10:05:27.441577 10292 net.cpp:150] Setting up loss2/prelu_fc
I1126 10:05:27.441586 10292 net.cpp:157] Top shape: 50 1024 (51200)
I1126 10:05:27.441589 10292 net.cpp:165] Memory required for data: 2517301808
I1126 10:05:27.441594 10292 layer_factory.hpp:76] Creating layer loss2/drop_fc
I1126 10:05:27.441602 10292 net.cpp:106] Creating Layer loss2/drop_fc
I1126 10:05:27.441607 10292 net.cpp:454] loss2/drop_fc <- loss2/fc
I1126 10:05:27.441613 10292 net.cpp:397] loss2/drop_fc -> loss2/fc (in-place)
I1126 10:05:27.441637 10292 net.cpp:150] Setting up loss2/drop_fc
I1126 10:05:27.441642 10292 net.cpp:157] Top shape: 50 1024 (51200)
I1126 10:05:27.441647 10292 net.cpp:165] Memory required for data: 2517506608
I1126 10:05:27.441650 10292 layer_factory.hpp:76] Creating layer loss2/classifier2
I1126 10:05:27.441658 10292 net.cpp:106] Creating Layer loss2/classifier2
I1126 10:05:27.441663 10292 net.cpp:454] loss2/classifier2 <- loss2/fc
I1126 10:05:27.441670 10292 net.cpp:411] loss2/classifier2 -> loss2/classifier
I1126 10:05:27.441790 10292 net.cpp:150] Setting up loss2/classifier2
I1126 10:05:27.441798 10292 net.cpp:157] Top shape: 50 2 (100)
I1126 10:05:27.441802 10292 net.cpp:165] Memory required for data: 2517507008
I1126 10:05:27.441808 10292 layer_factory.hpp:76] Creating layer loss2/classifier_loss2/classifier2_0_split
I1126 10:05:27.441815 10292 net.cpp:106] Creating Layer loss2/classifier_loss2/classifier2_0_split
I1126 10:05:27.441819 10292 net.cpp:454] loss2/classifier_loss2/classifier2_0_split <- loss2/classifier
I1126 10:05:27.441825 10292 net.cpp:411] loss2/classifier_loss2/classifier2_0_split -> loss2/classifier_loss2/classifier2_0_split_0
I1126 10:05:27.441833 10292 net.cpp:411] loss2/classifier_loss2/classifier2_0_split -> loss2/classifier_loss2/classifier2_0_split_1
I1126 10:05:27.441865 10292 net.cpp:150] Setting up loss2/classifier_loss2/classifier2_0_split
I1126 10:05:27.441872 10292 net.cpp:157] Top shape: 50 2 (100)
I1126 10:05:27.441876 10292 net.cpp:157] Top shape: 50 2 (100)
I1126 10:05:27.441880 10292 net.cpp:165] Memory required for data: 2517507808
I1126 10:05:27.441884 10292 layer_factory.hpp:76] Creating layer loss2/loss
I1126 10:05:27.441891 10292 net.cpp:106] Creating Layer loss2/loss
I1126 10:05:27.441895 10292 net.cpp:454] loss2/loss <- loss2/classifier_loss2/classifier2_0_split_0
I1126 10:05:27.441900 10292 net.cpp:454] loss2/loss <- label_data_1_split_2
…
I1126 10:05:27.442663 10292 net.cpp:165] Memory required for data: 2517507816
I1126 10:05:27.442667 10292 layer_factory.hpp:76] Creating layer inception_4e/1x1
I1126 10:05:27.442677 10292 net.cpp:106] Creating Layer inception_4e/1x1
I1126 10:05:27.442683 10292 net.cpp:454] inception_4e/1x1 <- inception_4d/output_inception_4d/output_0_split_1
I1126 10:05:27.442689 10292 net.cpp:411] inception_4e/1x1 -> inception_4e/1x1
I1126 10:05:27.445039 10292 cudnn_conv_layer.cpp:194] Reallocating workspace storage: 10080
I1126 10:05:27.445094 10292 net.cpp:150] Setting up inception_4e/1x1
I1126 10:05:27.445106 10292 net.cpp:157] Top shape: 50 256 14 14 (2508800)
I1126 10:05:27.445109 10292 net.cpp:165] Memory required for data: 2527543016
I1126 10:05:27.445118 10292 layer_factory.hpp:76] Creating layer inception_4e/prelu_1x1
I1126 10:05:27.445128 10292 net.cpp:106] Creating Layer inception_4e/prelu_1x1
I1126 10:05:27.445134 10292 net.cpp:454] inception_4e/prelu_1x1 <- inception_4e/1x1
I1126 10:05:27.445143 10292 net.cpp:397] inception_4e/prelu_1x1 -> inception_4e/1x1 (in-place)
I1126 10:05:27.445284 10292 net.cpp:150] Setting up inception_4e/prelu_1x1
I1126 10:05:27.445293 10292 net.cpp:157] Top shape: 50 256 14 14 (2508800)
I1126 10:05:27.445297 10292 net.cpp:165] Memory required for data: 2537578216
I1126 10:05:27.445314 10292 layer_factory.hpp:76] Creating layer inception_4e/3x3_reduce
I1126 10:05:27.445327 10292 net.cpp:106] Creating Layer inception_4e/3x3_reduce
I1126 10:05:27.445333 10292 net.cpp:454] inception_4e/3x3_reduce <- inception_4d/output_inception_4d/output_0_split_2
I1126 10:05:27.445343 10292 net.cpp:411] inception_4e/3x3_reduce -> inception_4e/3x3_reduce
I1126 10:05:27.447171 10292 cudnn_conv_layer.cpp:194] Reallocating workspace storage: 10080
I1126 10:05:27.447218 10292 net.cpp:150] Setting up inception_4e/3x3_reduce
I1126 10:05:27.447227 10292 net.cpp:157] Top shape: 50 160 14 14 (1568000)
I1126 10:05:27.447232 10292 net.cpp:165] Memory required for data: 2543850216
I1126 10:05:27.447240 10292 layer_factory.hpp:76] Creating layer inception_4e/prelu_3x3_reduce
I1126 10:05:27.447252 10292 net.cpp:106] Creating Layer inception_4e/prelu_3x3_reduce
I1126 10:05:27.447257 10292 net.cpp:454] inception_4e/prelu_3x3_reduce <- inception_4e/3x3_reduce
I1126 10:05:27.447264 10292 net.cpp:397] inception_4e/prelu_3x3_reduce -> inception_4e/3x3_reduce (in-place)
I1126 10:05:27.447381 10292 net.cpp:150] Setting up inception_4e/prelu_3x3_reduce
I1126 10:05:27.447391 10292 net.cpp:157] Top shape: 50 160 14 14 (1568000)
I1126 10:05:27.447394 10292 net.cpp:165] Memory required for data: 2550122216
I1126 10:05:27.447399 10292 layer_factory.hpp:76] Creating layer inception_4e/3x3
I1126 10:05:27.447428 10292 net.cpp:106] Creating Layer inception_4e/3x3
I1126 10:05:27.447434 10292 net.cpp:454] inception_4e/3x3 <- inception_4e/3x3_reduce
I1126 10:05:27.447443 10292 net.cpp:411] inception_4e/3x3 -> inception_4e/3x3
I1126 10:05:27.452226 10292 cudnn_conv_layer.cpp:194] Reallocating workspace storage: 10080
I1126 10:05:27.452280 10292 net.cpp:150] Setting up inception_4e/3x3
I1126 10:05:27.452291 10292 net.cpp:157] Top shape: 50 320 14 14 (3136000)
I1126 10:05:27.452296 10292 net.cpp:165] Memory required for data: 2562666216
I1126 10:05:27.452304 10292 layer_factory.hpp:76] Creating layer inception_4e/prelu_3x3
I1126 10:05:27.452316 10292 net.cpp:106] Creating Layer inception_4e/prelu_3x3
I1126 10:05:27.452322 10292 net.cpp:454] inception_4e/prelu_3x3 <- inception_4e/3x3
I1126 10:05:27.452359 10292 net.cpp:397] inception_4e/prelu_3x3 -> inception_4e/3x3 (in-place)
I1126 10:05:27.453074 10292 net.cpp:150] Setting up inception_4e/prelu_3x3
I1126 10:05:27.453093 10292 net.cpp:157] Top shape: 50 320 14 14 (3136000)
I1126 10:05:27.453097 10292 net.cpp:165] Memory required for data: 2575210216
I1126 10:05:27.453104 10292 layer_factory.hpp:76] Creating layer inception_4e/5x5_reduce
I1126 10:05:27.453116 10292 net.cpp:106] Creating Layer inception_4e/5x5_reduce
I1126 10:05:27.453122 10292 net.cpp:454] inception_4e/5x5_reduce <- inception_4d/output_inception_4d/output_0_split_3
I1126 10:05:27.453131 10292 net.cpp:411] inception_4e/5x5_reduce -> inception_4e/5x5_reduce
I1126 10:05:27.454375 10292 cudnn_conv_layer.cpp:194] Reallocating workspace storage: 10080
I1126 10:05:27.454411 10292 net.cpp:150] Setting up inception_4e/5x5_reduce
I1126 10:05:27.454419 10292 net.cpp:157] Top shape: 50 32 14 14 (313600)
I1126 10:05:27.454424 10292 net.cpp:165] Memory required for data: 2576464616
I1126 10:05:27.454430 10292 layer_factory.hpp:76] Creating layer inception_4e/prelu_5x5_reduce
I1126 10:05:27.454440 10292 net.cpp:106] Creating Layer inception_4e/prelu_5x5_reduce
I1126 10:05:27.454445 10292 net.cpp:454] inception_4e/prelu_5x5_reduce <- inception_4e/5x5_reduce
I1126 10:05:27.454452 10292 net.cpp:397] inception_4e/prelu_5x5_reduce -> inception_4e/5x5_reduce (in-place)
I1126 10:05:27.454542 10292 net.cpp:150] Setting up inception_4e/prelu_5x5_reduce
I1126 10:05:27.454550 10292 net.cpp:157] Top shape: 50 32 14 14 (313600)
I1126 10:05:27.454555 10292 net.cpp:165] Memory required for data: 2577719016
I1126 10:05:27.454560 10292 layer_factory.hpp:76] Creating layer inception_4e/5x5
I1126 10:05:27.454571 10292 net.cpp:106] Creating Layer inception_4e/5x5
I1126 10:05:27.454574 10292 net.cpp:454] inception_4e/5x5 <- inception_4e/5x5_reduce
I1126 10:05:27.454582 10292 net.cpp:411] inception_4e/5x5 -> inception_4e/5x5
I1126 10:05:27.456787 10292 cudnn_conv_layer.cpp:194] Reallocating workspace storage: 13080
I1126 10:05:27.456820 10292 net.cpp:150] Setting up inception_4e/5x5
I1126 10:05:27.456828 10292 net.cpp:157] Top shape: 50 128 14 14 (1254400)
I1126 10:05:27.456833 10292 net.cpp:165] Memory required for data: 2582736616
I1126 10:05:27.456840 10292 layer_factory.hpp:76] Creating layer inception_4e/prelu_5x5
I1126 10:05:27.456850 10292 net.cpp:106] Creating Layer inception_4e/prelu_5x5
I1126 10:05:27.456856 10292 net.cpp:454] inception_4e/prelu_5x5 <- inception_4e/5x5
I1126 10:05:27.456861 10292 net.cpp:397] inception_4e/prelu_5x5 -> inception_4e/5x5 (in-place)
I1126 10:05:27.456949 10292 net.cpp:150] Setting up inception_4e/prelu_5x5
I1126 10:05:27.456957 10292 net.cpp:157] Top shape: 50 128 14 14 (1254400)
I1126 10:05:27.456961 10292 net.cpp:165] Memory required for data: 2587754216
I1126 10:05:27.456966 10292 layer_factory.hpp:76] Creating layer inception_4e/pool
I1126 10:05:27.456974 10292 net.cpp:106] Creating Layer inception_4e/pool
I1126 10:05:27.456979 10292 net.cpp:454] inception_4e/pool <- inception_4d/output_inception_4d/output_0_split_4
I1126 10:05:27.456985 10292 net.cpp:411] inception_4e/pool -> inception_4e/pool
I1126 10:05:27.457190 10292 net.cpp:150] Setting up inception_4e/pool
I1126 10:05:27.457201 10292 net.cpp:157] Top shape: 50 528 14 14 (5174400)
I1126 10:05:27.457204 10292 net.cpp:165] Memory required for data: 2608451816
I1126 10:05:27.457208 10292 layer_factory.hpp:76] Creating layer inception_4e/pool_proj
I1126 10:05:27.457216 10292 net.cpp:106] Creating Layer inception_4e/pool_proj
I1126 10:05:27.457221 10292 net.cpp:454] inception_4e/pool_proj <- inception_4e/pool
I1126 10:05:27.457228 10292 net.cpp:411] inception_4e/pool_proj -> inception_4e/pool_proj
I1126 10:05:27.458873 10292 cudnn_conv_layer.cpp:194] Reallocating workspace storage: 10080
I1126 10:05:27.458909 10292 net.cpp:150] Setting up inception_4e/pool_proj
I1126 10:05:27.458915 10292 net.cpp:157] Top shape: 50 128 14 14 (1254400)
I1126 10:05:27.458920 10292 net.cpp:165] Memory required for data: 2613469416
I1126 10:05:27.458926 10292 layer_factory.hpp:76] Creating layer inception_4e/prelu_pool_proj
I1126 10:05:27.458952 10292 net.cpp:106] Creating Layer inception_4e/prelu_pool_proj
I1126 10:05:27.458958 10292 net.cpp:454] inception_4e/prelu_pool_proj <- inception_4e/pool_proj
I1126 10:05:27.458964 10292 net.cpp:397] inception_4e/prelu_pool_proj -> inception_4e/pool_proj (in-place)
I1126 10:05:27.459051 10292 net.cpp:150] Setting up inception_4e/prelu_pool_proj
I1126 10:05:27.459059 10292 net.cpp:157] Top shape: 50 128 14 14 (1254400)
I1126 10:05:27.459064 10292 net.cpp:165] Memory required for data: 2618487016
I1126 10:05:27.459069 10292 layer_factory.hpp:76] Creating layer inception_4e/output
I1126 10:05:27.459076 10292 net.cpp:106] Creating Layer inception_4e/output
I1126 10:05:27.459081 10292 net.cpp:454] inception_4e/output <- inception_4e/1x1
I1126 10:05:27.459086 10292 net.cpp:454] inception_4e/output <- inception_4e/3x3
I1126 10:05:27.459091 10292 net.cpp:454] inception_4e/output <- inception_4e/5x5
I1126 10:05:27.459095 10292 net.cpp:454] inception_4e/output <- inception_4e/pool_proj
I1126 10:05:27.459100 10292 net.cpp:411] inception_4e/output -> inception_4e/output
I1126 10:05:27.459125 10292 net.cpp:150] Setting up inception_4e/output
I1126 10:05:27.459131 10292 net.cpp:157] Top shape: 50 832 14 14 (8153600)
I1126 10:05:27.459136 10292 net.cpp:165] Memory required for data: 2651101416
I1126 10:05:27.459139 10292 layer_factory.hpp:76] Creating layer pool4/3x3_s2
I1126 10:05:27.459146 10292 net.cpp:106] Creating Layer pool4/3x3_s2
I1126 10:05:27.459151 10292 net.cpp:454] pool4/3x3_s2 <- inception_4e/output
I1126 10:05:27.459157 10292 net.cpp:411] pool4/3x3_s2 -> pool4/3x3_s2
I1126 10:05:27.459355 10292 net.cpp:150] Setting up pool4/3x3_s2
I1126 10:05:27.459365 10292 net.cpp:157] Top shape: 50 832 7 7 (2038400)
I1126 10:05:27.459369 10292 net.cpp:165] Memory required for data: 2659255016
I1126 10:05:27.459373 10292 layer_factory.hpp:76] Creating layer pool4/3x3_s2_pool4/3x3_s2_0_split
I1126 10:05:27.459380 10292 net.cpp:106] Creating Layer pool4/3x3_s2_pool4/3x3_s2_0_split
I1126 10:05:27.459384 10292 net.cpp:454] pool4/3x3_s2_pool4/3x3_s2_0_split <- pool4/3x3_s2
I1126 10:05:27.459389 10292 net.cpp:411] pool4/3x3_s2_pool4/3x3_s2_0_split -> pool4/3x3_s2_pool4/3x3_s2_0_split_0
I1126 10:05:27.459396 10292 net.cpp:411] pool4/3x3_s2_pool4/3x3_s2_0_split -> pool4/3x3_s2_pool4/3x3_s2_0_split_1
I1126 10:05:27.459414 10292 net.cpp:411] pool4/3x3_s2_pool4/3x3_s2_0_split -> pool4/3x3_s2_pool4/3x3_s2_0_split_2
I1126 10:05:27.459421 10292 net.cpp:411] pool4/3x3_s2_pool4/3x3_s2_0_split -> pool4/3x3_s2_pool4/3x3_s2_0_split_3
I1126 10:05:27.459482 10292 net.cpp:150] Setting up pool4/3x3_s2_pool4/3x3_s2_0_split
I1126 10:05:27.459489 10292 net.cpp:157] Top shape: 50 832 7 7 (2038400)
I1126 10:05:27.459494 10292 net.cpp:157] Top shape: 50 832 7 7 (2038400)
I1126 10:05:27.459499 10292 net.cpp:157] Top shape: 50 832 7 7 (2038400)
I1126 10:05:27.459503 10292 net.cpp:157] Top shape: 50 832 7 7 (2038400)
I1126 10:05:27.459507 10292 net.cpp:165] Memory required for data: 2691869416
I1126 10:05:27.459511 10292 layer_factory.hpp:76] Creating layer inception_5a/1x1
I1126 10:05:27.459520 10292 net.cpp:106] Creating Layer inception_5a/1x1
I1126 10:05:27.459524 10292 net.cpp:454] inception_5a/1x1 <- pool4/3x3_s2_pool4/3x3_s2_0_split_0
I1126 10:05:27.459532 10292 net.cpp:411] inception_5a/1x1 -> inception_5a/1x1
I1126 10:05:27.462359 10292 cudnn_conv_layer.cpp:194] Reallocating workspace storage: 7428
I1126 10:05:27.462399 10292 net.cpp:150] Setting up inception_5a/1x1
I1126 10:05:27.462406 10292 net.cpp:157] Top shape: 50 256 7 7 (627200)
I1126 10:05:27.462411 10292 net.cpp:165] Memory required for data: 2694378216
I1126 10:05:27.462419 10292 layer_factory.hpp:76] Creating layer inception_5a/prelu_1x1
I1126 10:05:27.462426 10292 net.cpp:106] Creating Layer inception_5a/prelu_1x1
I1126 10:05:27.462431 10292 net.cpp:454] inception_5a/prelu_1x1 <- inception_5a/1x1
I1126 10:05:27.462440 10292 net.cpp:397] inception_5a/prelu_1x1 -> inception_5a/1x1 (in-place)
I1126 10:05:27.462532 10292 net.cpp:150] Setting up inception_5a/prelu_1x1
I1126 10:05:27.462553 10292 net.cpp:157] Top shape: 50 256 7 7 (627200)
I1126 10:05:27.462556 10292 net.cpp:165] Memory required for data: 2696887016
I1126 10:05:27.462563 10292 layer_factory.hpp:76] Creating layer inception_5a/3x3_reduce
I1126 10:05:27.462573 10292 net.cpp:106] Creating Layer inception_5a/3x3_reduce
I1126 10:05:27.462576 10292 net.cpp:454] inception_5a/3x3_reduce <- pool4/3x3_s2_pool4/3x3_s2_0_split_1
I1126 10:05:27.462584 10292 net.cpp:411] inception_5a/3x3_reduce -> inception_5a/3x3_reduce
I1126 10:05:27.464941 10292 cudnn_conv_layer.cpp:194] Reallocating workspace storage: 7428
I1126 10:05:27.464977 10292 net.cpp:150] Setting up inception_5a/3x3_reduce
I1126 10:05:27.464985 10292 net.cpp:157] Top shape: 50 160 7 7 (392000)
I1126 10:05:27.464989 10292 net.cpp:165] Memory required for data: 2698455016
I1126 10:05:27.464997 10292 layer_factory.hpp:76] Creating layer inception_5a/prelu_3x3_reduce
I1126 10:05:27.465004 10292 net.cpp:106] Creating Layer inception_5a/prelu_3x3_reduce
I1126 10:05:27.465009 10292 net.cpp:454] inception_5a/prelu_3x3_reduce <- inception_5a/3x3_reduce
I1126 10:05:27.465016 10292 net.cpp:397] inception_5a/prelu_3x3_reduce -> inception_5a/3x3_reduce (in-place)
I1126 10:05:27.465098 10292 net.cpp:150] Setting up inception_5a/prelu_3x3_reduce
I1126 10:05:27.465106 10292 net.cpp:157] Top shape: 50 160 7 7 (392000)
I1126 10:05:27.465109 10292 net.cpp:165] Memory required for data: 2700023016
I1126 10:05:27.465116 10292 layer_factory.hpp:76] Creating layer inception_5a/3x3
I1126 10:05:27.465124 10292 net.cpp:106] Creating Layer inception_5a/3x3
I1126 10:05:27.465128 10292 net.cpp:454] inception_5a/3x3 <- inception_5a/3x3_reduce
I1126 10:05:27.465136 10292 net.cpp:411] inception_5a/3x3 -> inception_5a/3x3
I1126 10:05:27.469799 10292 cudnn_conv_layer.cpp:194] Reallocating workspace storage: 7788
I1126 10:05:27.469871 10292 net.cpp:150] Setting up inception_5a/3x3
I1126 10:05:27.469882 10292 net.cpp:157] Top shape: 50 320 7 7 (784000)
I1126 10:05:27.469887 10292 net.cpp:165] Memory required for data: 2703159016
I1126 10:05:27.469894 10292 layer_factory.hpp:76] Creating layer inception_5a/prelu_3x3
I1126 10:05:27.469918 10292 net.cpp:106] Creating Layer inception_5a/prelu_3x3
I1126 10:05:27.469925 10292 net.cpp:454] inception_5a/prelu_3x3 <- inception_5a/3x3
I1126 10:05:27.469933 10292 net.cpp:397] inception_5a/prelu_3x3 -> inception_5a/3x3 (in-place)
I1126 10:05:27.470069 10292 net.cpp:150] Setting up inception_5a/prelu_3x3
I1126 10:05:27.470078 10292 net.cpp:157] Top shape: 50 320 7 7 (784000)
I1126 10:05:27.470082 10292 net.cpp:165] Memory required for data: 2706295016
I1126 10:05:27.470088 10292 layer_factory.hpp:76] Creating layer inception_5a/5x5_reduce
I1126 10:05:27.470098 10292 net.cpp:106] Creating Layer inception_5a/5x5_reduce
I1126 10:05:27.470103 10292 net.cpp:454] inception_5a/5x5_reduce <- pool4/3x3_s2_pool4/3x3_s2_0_split_2
I1126 10:05:27.470113 10292 net.cpp:411] inception_5a/5x5_reduce -> inception_5a/5x5_reduce
I1126 10:05:27.471504 10292 cudnn_conv_layer.cpp:194] Reallocating workspace storage: 7428
I1126 10:05:27.471546 10292 net.cpp:150] Setting up inception_5a/5x5_reduce
I1126 10:05:27.471554 10292 net.cpp:157] Top shape: 50 32 7 7 (78400)
I1126 10:05:27.471559 10292 net.cpp:165] Memory required for data: 2706608616
I1126 10:05:27.471566 10292 layer_factory.hpp:76] Creating layer inception_5a/prelu_5x5_reduce
I1126 10:05:27.471577 10292 net.cpp:106] Creating Layer inception_5a/prelu_5x5_reduce
I1126 10:05:27.471583 10292 net.cpp:454] inception_5a/prelu_5x5_reduce <- inception_5a/5x5_reduce
I1126 10:05:27.471590 10292 net.cpp:397] inception_5a/prelu_5x5_reduce -> inception_5a/5x5_reduce (in-place)
I1126 10:05:27.471696 10292 net.cpp:150] Setting up inception_5a/prelu_5x5_reduce
I1126 10:05:27.471705 10292 net.cpp:157] Top shape: 50 32 7 7 (78400)
I1126 10:05:27.471709 10292 net.cpp:165] Memory required for data: 2706922216
I1126 10:05:27.471714 10292 layer_factory.hpp:76] Creating layer inception_5a/5x5
I1126 10:05:27.471751 10292 net.cpp:106] Creating Layer inception_5a/5x5
I1126 10:05:27.471757 10292 net.cpp:454] inception_5a/5x5 <- inception_5a/5x5_reduce
I1126 10:05:27.471765 10292 net.cpp:411] inception_5a/5x5 -> inception_5a/5x5
I1126 10:05:27.473358 10292 cudnn_conv_layer.cpp:194] Reallocating workspace storage: 9804
I1126 10:05:27.473398 10292 net.cpp:150] Setting up inception_5a/5x5
I1126 10:05:27.473407 10292 net.cpp:157] Top shape: 50 128 7 7 (313600)
I1126 10:05:27.473410 10292 net.cpp:165] Memory required for data: 2708176616
I1126 10:05:27.473418 10292 layer_factory.hpp:76] Creating layer inception_5a/prelu_5x5
I1126 10:05:27.473428 10292 net.cpp:106] Creating Layer inception_5a/prelu_5x5
I1126 10:05:27.473433 10292 net.cpp:454] inception_5a/prelu_5x5 <- inception_5a/5x5
I1126 10:05:27.473439 10292 net.cpp:397] inception_5a/prelu_5x5 -> inception_5a/5x5 (in-place)
I1126 10:05:27.473536 10292 net.cpp:150] Setting up inception_5a/prelu_5x5
I1126 10:05:27.473543 10292 net.cpp:157] Top shape: 50 128 7 7 (313600)
I1126 10:05:27.473547 10292 net.cpp:165] Memory required for data: 2709431016
I1126 10:05:27.473553 10292 layer_factory.hpp:76] Creating layer inception_5a/pool
I1126 10:05:27.473562 10292 net.cpp:106] Creating Layer inception_5a/pool
I1126 10:05:27.473565 10292 net.cpp:454] inception_5a/pool <- pool4/3x3_s2_pool4/3x3_s2_0_split_3
I1126 10:05:27.473573 10292 net.cpp:411] inception_5a/pool -> inception_5a/pool
I1126 10:05:27.474006 10292 net.cpp:150] Setting up inception_5a/pool
I1126 10:05:27.474020 10292 net.cpp:157] Top shape: 50 832 7 7 (2038400)
I1126 10:05:27.474023 10292 net.cpp:165] Memory required for data: 2717584616
I1126 10:05:27.474028 10292 layer_factory.hpp:76] Creating layer inception_5a/pool_proj
I1126 10:05:27.474038 10292 net.cpp:106] Creating Layer inception_5a/pool_proj
I1126 10:05:27.474043 10292 net.cpp:454] inception_5a/pool_proj <- inception_5a/pool
I1126 10:05:27.474064 10292 net.cpp:411] inception_5a/pool_proj -> inception_5a/pool_proj
I1126 10:05:27.476337 10292 cudnn_conv_layer.cpp:194] Reallocating workspace storage: 7428
I1126 10:05:27.476380 10292 net.cpp:150] Setting up inception_5a/pool_proj
I1126 10:05:27.476388 10292 net.cpp:157] Top shape: 50 128 7 7 (313600)
I1126 10:05:27.476393 10292 net.cpp:165] Memory required for data: 2718839016
I1126 10:05:27.476402 10292 layer_factory.hpp:76] Creating layer inception_5a/prelu_pool_proj
I1126 10:05:27.476410 10292 net.cpp:106] Creating Layer inception_5a/prelu_pool_proj
I1126 10:05:27.476415 10292 net.cpp:454] inception_5a/prelu_pool_proj <- inception_5a/pool_proj
I1126 10:05:27.476423 10292 net.cpp:397] inception_5a/prelu_pool_proj -> inception_5a/pool_proj (in-place)
I1126 10:05:27.476512 10292 net.cpp:150] Setting up inception_5a/prelu_pool_proj
I1126 10:05:27.476521 10292 net.cpp:157] Top shape: 50 128 7 7 (313600)
I1126 10:05:27.476524 10292 net.cpp:165] Memory required for data: 2720093416
I1126 10:05:27.476531 10292 layer_factory.hpp:76] Creating layer inception_5a/output
I1126 10:05:27.476538 10292 net.cpp:106] Creating Layer inception_5a/output
I1126 10:05:27.476543 10292 net.cpp:454] inception_5a/output <- inception_5a/1x1
I1126 10:05:27.476549 10292 net.cpp:454] inception_5a/output <- inception_5a/3x3
I1126 10:05:27.476553 10292 net.cpp:454] inception_5a/output <- inception_5a/5x5
I1126 10:05:27.476558 10292 net.cpp:454] inception_5a/output <- inception_5a/pool_proj
I1126 10:05:27.476564 10292 net.cpp:411] inception_5a/output -> inception_5a/output
I1126 10:05:27.476589 10292 net.cpp:150] Setting up inception_5a/output
I1126 10:05:27.476596 10292 net.cpp:157] Top shape: 50 832 7 7 (2038400)
I1126 10:05:27.476600 10292 net.cpp:165] Memory required for data: 2728247016
I1126 10:05:27.476604 10292 layer_factory.hpp:76] Creating layer inception_5a/output_inception_5a/output_0_split
I1126 10:05:27.476611 10292 net.cpp:106] Creating Layer inception_5a/output_inception_5a/output_0_split
I1126 10:05:27.476615 10292 net.cpp:454] inception_5a/output_inception_5a/output_0_split <- inception_5a/output
I1126 10:05:27.476624 10292 net.cpp:411] inception_5a/output_inception_5a/output_0_split -> inception_5a/output_inception_5a/output_0_split_0
I1126 10:05:27.476654 10292 net.cpp:411] inception_5a/output_inception_5a/output_0_split -> inception_5a/output_inception_5a/output_0_split_1
I1126 10:05:27.476661 10292 net.cpp:411] inception_5a/output_inception_5a/output_0_split -> inception_5a/output_inception_5a/output_0_split_2
I1126 10:05:27.476668 10292 net.cpp:411] inception_5a/output_inception_5a/output_0_split -> inception_5a/output_inception_5a/output_0_split_3
I1126 10:05:27.476739 10292 net.cpp:150] Setting up inception_5a/output_inception_5a/output_0_split
I1126 10:05:27.476749 10292 net.cpp:157] Top shape: 50 832 7 7 (2038400)
I1126 10:05:27.476754 10292 net.cpp:157] Top shape: 50 832 7 7 (2038400)
I1126 10:05:27.476759 10292 net.cpp:157] Top shape: 50 832 7 7 (2038400)
I1126 10:05:27.476763 10292 net.cpp:157] Top shape: 50 832 7 7 (2038400)
I1126 10:05:27.476768 10292 net.cpp:165] Memory required for data: 2760861416
I1126 10:05:27.476771 10292 layer_factory.hpp:76] Creating layer inception_5b/1x1
I1126 10:05:27.476780 10292 net.cpp:106] Creating Layer inception_5b/1x1
I1126 10:05:27.476785 10292 net.cpp:454] inception_5b/1x1 <- inception_5a/output_inception_5a/output_0_split_0
I1126 10:05:27.476793 10292 net.cpp:411] inception_5b/1x1 -> inception_5b/1x1
I1126 10:05:27.480989 10292 cudnn_conv_layer.cpp:194] Reallocating workspace storage: 7428
I1126 10:05:27.481068 10292 net.cpp:150] Setting up inception_5b/1x1
I1126 10:05:27.481081 10292 net.cpp:157] Top shape: 50 384 7 7 (940800)
I1126 10:05:27.481087 10292 net.cpp:165] Memory required for data: 2764624616
I1126 10:05:27.481099 10292 layer_factory.hpp:76] Creating layer inception_5b/prelu_1x1
I1126 10:05:27.481117 10292 net.cpp:106] Creating Layer inception_5b/prelu_1x1
I1126 10:05:27.481127 10292 net.cpp:454] inception_5b/prelu_1x1 <- inception_5b/1x1
I1126 10:05:27.481135 10292 net.cpp:397] inception_5b/prelu_1x1 -> inception_5b/1x1 (in-place)
I1126 10:05:27.481292 10292 net.cpp:150] Setting up inception_5b/prelu_1x1
I1126 10:05:27.481304 10292 net.cpp:157] Top shape: 50 384 7 7 (940800)
I1126 10:05:27.481308 10292 net.cpp:165] Memory required for data: 2768387816
I1126 10:05:27.481314 10292 layer_factory.hpp:76] Creating layer inception_5b/3x3_reduce
I1126 10:05:27.481328 10292 net.cpp:106] Creating Layer inception_5b/3x3_reduce
I1126 10:05:27.481334 10292 net.cpp:454] inception_5b/3x3_reduce <- inception_5a/output_inception_5a/output_0_split_1
I1126 10:05:27.481343 10292 net.cpp:411] inception_5b/3x3_reduce -> inception_5b/3x3_reduce
I1126 10:05:27.483850 10292 cudnn_conv_layer.cpp:194] Reallocating workspace storage: 7428
I1126 10:05:27.483899 10292 net.cpp:150] Setting up inception_5b/3x3_reduce
I1126 10:05:27.483909 10292 net.cpp:157] Top shape: 50 192 7 7 (470400)
I1126 10:05:27.483913 10292 net.cpp:165] Memory required for data: 2770269416
I1126 10:05:27.483922 10292 layer_factory.hpp:76] Creating layer inception_5b/prelu_3x3_reduce
I1126 10:05:27.483934 10292 net.cpp:106] Creating Layer inception_5b/prelu_3x3_reduce
I1126 10:05:27.483942 10292 net.cpp:454] inception_5b/prelu_3x3_reduce <- inception_5b/3x3_reduce
I1126 10:05:27.483948 10292 net.cpp:397] inception_5b/prelu_3x3_reduce -> inception_5b/3x3_reduce (in-place)
I1126 10:05:27.484043 10292 net.cpp:150] Setting up inception_5b/prelu_3x3_reduce
I1126 10:05:27.484052 10292 net.cpp:157] Top shape: 50 192 7 7 (470400)
I1126 10:05:27.484055 10292 net.cpp:165] Memory required for data: 2772151016
I1126 10:05:27.484061 10292 layer_factory.hpp:76] Creating layer inception_5b/3x3
I1126 10:05:27.484071 10292 net.cpp:106] Creating Layer inception_5b/3x3
I1126 10:05:27.484076 10292 net.cpp:454] inception_5b/3x3 <- inception_5b/3x3_reduce
I1126 10:05:27.484083 10292 net.cpp:411] inception_5b/3x3 -> inception_5b/3x3
I1126 10:05:27.489845 10292 cudnn_conv_layer.cpp:194] Reallocating workspace storage: 7788
I1126 10:05:27.489898 10292 net.cpp:150] Setting up inception_5b/3x3
I1126 10:05:27.489907 10292 net.cpp:157] Top shape: 50 384 7 7 (940800)
I1126 10:05:27.489933 10292 net.cpp:165] Memory required for data: 2775914216
I1126 10:05:27.489941 10292 layer_factory.hpp:76] Creating layer inception_5b/prelu_3x3
I1126 10:05:27.489953 10292 net.cpp:106] Creating Layer inception_5b/prelu_3x3
I1126 10:05:27.489959 10292 net.cpp:454] inception_5b/prelu_3x3 <- inception_5b/3x3
I1126 10:05:27.489965 10292 net.cpp:397] inception_5b/prelu_3x3 -> inception_5b/3x3 (in-place)
I1126 10:05:27.490074 10292 net.cpp:150] Setting up inception_5b/prelu_3x3
I1126 10:05:27.490083 10292 net.cpp:157] Top shape: 50 384 7 7 (940800)
I1126 10:05:27.490087 10292 net.cpp:165] Memory required for data: 2779677416
I1126 10:05:27.490092 10292 layer_factory.hpp:76] Creating layer inception_5b/5x5_reduce
I1126 10:05:27.490103 10292 net.cpp:106] Creating Layer inception_5b/5x5_reduce
I1126 10:05:27.490108 10292 net.cpp:454] inception_5b/5x5_reduce <- inception_5a/output_inception_5a/output_0_split_2
I1126 10:05:27.490113 10292 net.cpp:411] inception_5b/5x5_reduce -> inception_5b/5x5_reduce
I1126 10:05:27.491657 10292 cudnn_conv_layer.cpp:194] Reallocating workspace storage: 7428
I1126 10:05:27.491689 10292 net.cpp:150] Setting up inception_5b/5x5_reduce
I1126 10:05:27.491698 10292 net.cpp:157] Top shape: 50 48 7 7 (117600)
I1126 10:05:27.491701 10292 net.cpp:165] Memory required for data: 2780147816
I1126 10:05:27.491708 10292 layer_factory.hpp:76] Creating layer inception_5b/prelu_5x5_reduce
I1126 10:05:27.491717 10292 net.cpp:106] Creating Layer inception_5b/prelu_5x5_reduce
I1126 10:05:27.491722 10292 net.cpp:454] inception_5b/prelu_5x5_reduce <- inception_5b/5x5_reduce
I1126 10:05:27.491729 10292 net.cpp:397] inception_5b/prelu_5x5_reduce -> inception_5b/5x5_reduce (in-place)
I1126 10:05:27.491839 10292 net.cpp:150] Setting up inception_5b/prelu_5x5_reduce
I1126 10:05:27.491847 10292 net.cpp:157] Top shape: 50 48 7 7 (117600)
I1126 10:05:27.491852 10292 net.cpp:165] Memory required for data: 2780618216
I1126 10:05:27.491857 10292 layer_factory.hpp:76] Creating layer inception_5b/5x5
I1126 10:05:27.491866 10292 net.cpp:106] Creating Layer inception_5b/5x5
I1126 10:05:27.491871 10292 net.cpp:454] inception_5b/5x5 <- inception_5b/5x5_reduce
I1126 10:05:27.491878 10292 net.cpp:411] inception_5b/5x5 -> inception_5b/5x5
I1126 10:05:27.493865 10292 cudnn_conv_layer.cpp:194] Reallocating workspace storage: 9804
I1126 10:05:27.493901 10292 net.cpp:150] Setting up inception_5b/5x5
I1126 10:05:27.493908 10292 net.cpp:157] Top shape: 50 128 7 7 (313600)
I1126 10:05:27.493912 10292 net.cpp:165] Memory required for data: 2781872616
I1126 10:05:27.493918 10292 layer_factory.hpp:76] Creating layer inception_5b/prelu_5x5
I1126 10:05:27.493926 10292 net.cpp:106] Creating Layer inception_5b/prelu_5x5
I1126 10:05:27.493930 10292 net.cpp:454] inception_5b/prelu_5x5 <- inception_5b/5x5
I1126 10:05:27.493937 10292 net.cpp:397] inception_5b/prelu_5x5 -> inception_5b/5x5 (in-place)
I1126 10:05:27.494030 10292 net.cpp:150] Setting up inception_5b/prelu_5x5
I1126 10:05:27.494038 10292 net.cpp:157] Top shape: 50 128 7 7 (313600)
I1126 10:05:27.494042 10292 net.cpp:165] Memory required for data: 2783127016
I1126 10:05:27.494047 10292 layer_factory.hpp:76] Creating layer inception_5b/pool
I1126 10:05:27.494055 10292 net.cpp:106] Creating Layer inception_5b/pool
I1126 10:05:27.494060 10292 net.cpp:454] inception_5b/pool <- inception_5a/output_inception_5a/output_0_split_3
I1126 10:05:27.494065 10292 net.cpp:411] inception_5b/pool -> inception_5b/pool
I1126 10:05:27.494259 10292 net.cpp:150] Setting up inception_5b/pool
I1126 10:05:27.494268 10292 net.cpp:157] Top shape: 50 832 7 7 (2038400)
I1126 10:05:27.494272 10292 net.cpp:165] Memory required for data: 2791280616
I1126 10:05:27.494277 10292 layer_factory.hpp:76] Creating layer inception_5b/pool_proj
I1126 10:05:27.494284 10292 net.cpp:106] Creating Layer inception_5b/pool_proj
I1126 10:05:27.494289 10292 net.cpp:454] inception_5b/pool_proj <- inception_5b/pool
I1126 10:05:27.494297 10292 net.cpp:411] inception_5b/pool_proj -> inception_5b/pool_proj
I1126 10:05:27.496428 10292 cudnn_conv_layer.cpp:194] Reallocating workspace storage: 7428
I1126 10:05:27.496474 10292 net.cpp:150] Setting up inception_5b/pool_proj
I1126 10:05:27.496482 10292 net.cpp:157] Top shape: 50 128 7 7 (313600)
I1126 10:05:27.496486 10292 net.cpp:165] Memory required for data: 2792535016
I1126 10:05:27.496493 10292 layer_factory.hpp:76] Creating layer inception_5b/prelu_pool_proj
I1126 10:05:27.496502 10292 net.cpp:106] Creating Layer inception_5b/prelu_pool_proj
I1126 10:05:27.496507 10292 net.cpp:454] inception_5b/prelu_pool_proj <- inception_5b/pool_proj
I1126 10:05:27.496515 10292 net.cpp:397] inception_5b/prelu_pool_proj -> inception_5b/pool_proj (in-place)
I1126 10:05:27.496599 10292 net.cpp:150] Setting up inception_5b/prelu_pool_proj
I1126 10:05:27.496608 10292 net.cpp:157] Top shape: 50 128 7 7 (313600)
I1126 10:05:27.496611 10292 net.cpp:165] Memory required for data: 2793789416
I1126 10:05:27.496616 10292 layer_factory.hpp:76] Creating layer inception_5b/output
I1126 10:05:27.496623 10292 net.cpp:106] Creating Layer inception_5b/output
I1126 10:05:27.496628 10292 net.cpp:454] inception_5b/output <- inception_5b/1x1
I1126 10:05:27.496631 10292 net.cpp:454] inception_5b/output <- inception_5b/3x3
I1126 10:05:27.496636 10292 net.cpp:454] inception_5b/output <- inception_5b/5x5
I1126 10:05:27.496640 10292 net.cpp:454] inception_5b/output <- inception_5b/pool_proj
I1126 10:05:27.496647 10292 net.cpp:411] inception_5b/output -> inception_5b/output
I1126 10:05:27.496681 10292 net.cpp:150] Setting up inception_5b/output
I1126 10:05:27.496690 10292 net.cpp:157] Top shape: 50 1024 7 7 (2508800)
I1126 10:05:27.496701 10292 net.cpp:165] Memory required for data: 2803824616
I1126 10:05:27.496706 10292 layer_factory.hpp:76] Creating layer pool5/7x7_s1
I1126 10:05:27.496711 10292 net.cpp:106] Creating Layer pool5/7x7_s1
I1126 10:05:27.496721 10292 net.cpp:454] pool5/7x7_s1 <- inception_5b/output
I1126 10:05:27.496727 10292 net.cpp:411] pool5/7x7_s1 -> pool5/7x7_s1
I1126 10:05:27.497123 10292 net.cpp:150] Setting up pool5/7x7_s1
I1126 10:05:27.497133 10292 net.cpp:157] Top shape: 50 1024 1 1 (51200)
I1126 10:05:27.497138 10292 net.cpp:165] Memory required for data: 2804029416
I1126 10:05:27.497143 10292 layer_factory.hpp:76] Creating layer pool5/drop_7x7_s1
I1126 10:05:27.497149 10292 net.cpp:106] Creating Layer pool5/drop_7x7_s1
I1126 10:05:27.497153 10292 net.cpp:454] pool5/drop_7x7_s1 <- pool5/7x7_s1
I1126 10:05:27.497160 10292 net.cpp:397] pool5/drop_7x7_s1 -> pool5/7x7_s1 (in-place)
I1126 10:05:27.497184 10292 net.cpp:150] Setting up pool5/drop_7x7_s1
I1126 10:05:27.497191 10292 net.cpp:157] Top shape: 50 1024 1 1 (51200)
I1126 10:05:27.497195 10292 net.cpp:165] Memory required for data: 2804234216
I1126 10:05:27.497200 10292 layer_factory.hpp:76] Creating layer loss3/classifier2
I1126 10:05:27.497207 10292 net.cpp:106] Creating Layer loss3/classifier2
I1126 10:05:27.497211 10292 net.cpp:454] loss3/classifier2 <- pool5/7x7_s1
I1126 10:05:27.497220 10292 net.cpp:411] loss3/classifier2 -> loss3/classifier
I1126 10:05:27.497390 10292 net.cpp:150] Setting up loss3/classifier2
I1126 10:05:27.497397 10292 net.cpp:157] Top shape: 50 2 (100)
I1126 10:05:27.497401 10292 net.cpp:165] Memory required for data: 2804234616
I1126 10:05:27.497408 10292 layer_factory.hpp:76] Creating layer loss3/classifier_loss3/classifier2_0_split
I1126 10:05:27.497416 10292 net.cpp:106] Creating Layer loss3/classifier_loss3/classifier2_0_split
I1126 10:05:27.497419 10292 net.cpp:454] loss3/classifier_loss3/classifier2_0_split <- loss3/classifier
I1126 10:05:27.497426 10292 net.cpp:411] loss3/classifier_loss3/classifier2_0_split -> loss3/classifier_loss3/classifier2_0_split_0
I1126 10:05:27.497431 10292 net.cpp:411] loss3/classifier_loss3/classifier2_0_split -> loss3/classifier_loss3/classifier2_0_split_1
I1126 10:05:27.497470 10292 net.cpp:150] Setting up loss3/classifier_loss3/classifier2_0_split
I1126 10:05:27.497478 10292 net.cpp:157] Top shape: 50 2 (100)
I1126 10:05:27.497483 10292 net.cpp:157] Top shape: 50 2 (100)
I1126 10:05:27.497486 10292 net.cpp:165] Memory required for data: 2804235416
I1126 10:05:27.497498 10292 layer_factory.hpp:76] Creating layer loss3/loss3
I1126 10:05:27.497506 10292 net.cpp:106] Creating Layer loss3/loss3
I1126 10:05:27.497510 10292 net.cpp:454] loss3/loss3 <- loss3/classifier_loss3/classifier2_0_split_0
I1126 10:05:27.497515 10292 net.cpp:454] loss3/loss3 <- label_data_1_split_4
…
