…
I1105 17:15:31.618233 24357 net.cpp:322] The NetState phase (0) differed from the phase (1) specified by a rule in layer loss3/top-1
I1105 17:15:31.619194 24357 net.cpp:49] Initializing net from parameters: 
name: "GoogleNet"
state {
  phase: TRAIN
}
layer {
  name: "data"
  type: "Data"
  top: "data"
  top: "label"
  include {
    phase: TRAIN
  }
  transform_param {
    mirror: true
    crop_size: 224
    mean_value: 104
    mean_value: 117
    mean_value: 123
  }
  data_param {
    source: "../../LMDB/train_1-lmdb"
    batch_size: 32
    backend: LMDB
  }
}
layer {
  name: "conv1/7x7_s2"
  type: "Convolution"
  bottom: "data"
  top: "conv1/7x7_s2"
  param {
    lr_mult: 1
    decay_mult: 1
  }
  param {
    lr_mult: 2
    decay_mult: 0
  }
  convolution_param {
    num_output: 64
    pad: 3
    kernel_size: 7
    stride: 2
    weight_filler {
      type: "xavier"
    }
    bias_filler {
      type: "constant"
      value: 0.2
    }
  }
}
layer {
  name: "conv1/prelu_7x7"
  type: "PReLU"
  bottom: "conv1/7x7_s2"
  top: "conv1/7x7_s2"
  param {
    lr_mult: 1
    decay_mult: 0
  }
  prelu_param {
    filler {
      type: "constant"
      value: 0.01
    }
  }
}
layer {
  name: "pool1/3x3_s2"
  type: "Pooling"
  bottom: "conv1/7x7_s2"
  top: "pool1/3x3_s2"
  pooling_param {
    pool: MAX
    kernel_size: 3
    stride: 2
  }
}
layer {
  name: "pool1/norm1"
  type: "LRN"
  bottom: "pool1/3x3_s2"
  top: "pool1/norm1"
  lrn_param {
    local_size: 5
    alpha: 0.0001
    beta: 0.75
  }
}
layer {
  name: "conv2/3x3_reduce"
  type: "Convolution"
  bottom: "pool1/norm1"
  top: "conv2/3x3_reduce"
  param {
    lr_mult: 1
    decay_mult: 1
  }
  param {
    lr_mult: 2
    decay_mult: 0
  }
  convolution_param {
    num_output: 64
    kernel_size: 1
    weight_filler {
      type: "xavier"
    }
    bias_filler {
      type: "constant"
      value: 0.2
    }
  }
}
layer {
  name: "conv2/prelu_3x3_reduce"
  type: "PReLU"
  bottom: "conv2/3x3_reduce"
  top: "conv2/3x3_reduce"
  param {
    lr_mult: 1
    decay_mult: 0
  }
  prelu_param {
    filler {
      type: "constant"
      value: 0.01
    }
  }
}
layer {
  name: "conv2/3x3"
  type: "Convolution"
  bottom: "conv2/3x3_reduce"
  top: "conv2/3x3"
  param {
    lr_mult: 1
    decay_mult: 1
  }
  param {
    lr_mult: 2
    decay_mult: 0
  }
  convolution_param {
    num_output: 192
    pad: 1
    kernel_size: 3
    weight_filler {
      type: "xavier"
    }
    bias_filler {
      type: "constant"
      value: 0.2
    }
  }
}
layer {
  name: "conv2/prelu_3x3"
  type: "PReLU"
  bottom: "conv2/3x3"
  top: "conv2/3x3"
  param {
    lr_mult: 1
    decay_mult: 0
  }
  prelu_param {
    filler {
      type: "constant"
      value: 0.01
    }
  }
}
layer {
  name: "conv2/norm2"
  type: "LRN"
  bottom: "conv2/3x3"
  top: "conv2/norm2"
  lrn_param {
    local_size: 5
    alpha: 0.0001
    beta: 0.75
  }
}
layer {
  name: "pool2/3x3_s2"
  type: "Pooling"
  bottom: "conv2/norm2"
  top: "pool2/3x3_s2"
  pooling_param {
    pool: MAX
    kernel_size: 3
    stride: 2
  }
}
layer {
  name: "inception_3a/1x1"
  type: "Convolution"
  bottom: "pool2/3x3_s2"
  top: "inception_3a/1x1"
  param {
    lr_mult: 1
    decay_mult: 1
  }
  param {
    lr_mult: 2
    decay_mult: 0
  }
  convolution_param {
    num_output: 64
    kernel_size: 1
    weight_filler {
      type: "xavier"
    }
    bias_filler {
      type: "constant"
      value: 0.2
    }
  }
}
layer {
  name: "inception_3a/prelu_1x1"
  type: "PReLU"
  bottom: "inception_3a/1x1"
  top: "inception_3a/1x1"
  param {
    lr_mult: 1
    decay_mult: 0
  }
  prelu_param {
    filler {
      type: "constant"
      value: 0.01
    }
  }
}
layer {
  name: "inception_3a/3x3_reduce"
  type: "Convolution"
  bottom: "pool2/3x3_s2"
  top: "inception_3a/3x3_reduce"
  param {
    lr_mult: 1
    decay_mult: 1
  }
  param {
    lr_mult: 2
    decay_mult: 0
  }
  convolution_param {
    num_output: 96
    kernel_size: 1
    weight_filler {
      type: "xavier"
    }
    bias_filler {
      type: "constant"
      value: 0.2
    }
  }
}
layer {
  name: "inception_3a/prelu_3x3_reduce"
  type: "PReLU"
  bottom: "inception_3a/3x3_reduce"
  top: "inception_3a/3x3_reduce"
  param {
    lr_mult: 1
    decay_mult: 0
  }
  prelu_param {
    filler {
      type: "constant"
      value: 0.01
    }
  }
}
layer {
  name: "inception_3a/3x3"
  type: "Convolution"
  bottom: "inception_3a/3x3_reduce"
  top: "inception_3a/3x3"
  param {
    lr_mult: 1
    decay_mult: 1
  }
  param {
    lr_mult: 2
    decay_mult: 0
  }
  convolution_param {
    num_output: 128
    pad: 1
    kernel_size: 3
    weight_filler {
      type: "xavier"
    }
    bias_filler {
      type: "constant"
      value: 0.2
    }
  }
}
layer {
  name: "inception_3a/prelu_3x3"
  type: "PReLU"
  bottom: "inception_3a/3x3"
  top: "inception_3a/3x3"
  param {
    lr_mult: 1
    decay_mult: 0
  }
  prelu_param {
    filler {
      type: "constant"
      value: 0.01
    }
  }
}
layer {
  name: "inception_3a/5x5_reduce"
  type: "Convolution"
  bottom: "pool2/3x3_s2"
  top: "inception_3a/5x5_reduce"
  param {
    lr_mult: 1
    decay_mult: 1
  }
  param {
    lr_mult: 2
    decay_mult: 0
  }
  convolution_param {
    num_output: 16
    kernel_size: 1
    weight_filler {
      type: "xavier"
    }
    bias_filler {
      type: "constant"
      value: 0.2
    }
  }
}
layer {
  name: "inception_3a/prelu_5x5_reduce"
  type: "PReLU"
  bottom: "inception_3a/5x5_reduce"
  top: "inception_3a/5x5_reduce"
  param {
    lr_mult: 1
    decay_mult: 0
  }
  prelu_param {
    filler {
      type: "constant"
      value: 0.01
    }
  }
}
layer {
  name: "inception_3a/5x5"
  type: "Convolution"
  bottom: "inception_3a/5x5_reduce"
  top: "inception_3a/5x5"
  param {
    lr_mult: 1
    decay_mult: 1
  }
  param {
    lr_mult: 2
    decay_mult: 0
  }
  convolution_param {
    num_output: 32
    pad: 2
    kernel_size: 5
    weight_filler {
      type: "xavier"
    }
    bias_filler {
      type: "constant"
      value: 0.2
    }
  }
}
layer {
  name: "inception_3a/prelu_5x5"
  type: "PReLU"
  bottom: "inception_3a/5x5"
  top: "inception_3a/5x5"
  param {
    lr_mult: 1
    decay_mult: 0
  }
  prelu_param {
    filler {
      type: "constant"
      value: 0.01
    }
  }
}
layer {
  name: "inception_3a/pool"
  type: "Pooling"
  bottom: "pool2/3x3_s2"
  top: "inception_3a/pool"
  pooling_param {
    pool: MAX
    kernel_size: 3
    stride: 1
    pad: 1
  }
}
layer {
  name: "inception_3a/pool_proj"
  type: "Convolution"
  bottom: "inception_3a/pool"
  top: "inception_3a/pool_proj"
  param {
    lr_mult: 1
    decay_mult: 1
  }
  param {
    lr_mult: 2
    decay_mult: 0
  }
  convolution_param {
    num_output: 32
    kernel_size: 1
    weight_filler {
      type: "xavier"
    }
    bias_filler {
      type: "constant"
      value: 0.2
    }
  }
}
layer {
  name: "inception_3a/prelu_pool_proj"
  type: "PReLU"
  bottom: "inception_3a/pool_proj"
  top: "inception_3a/pool_proj"
  param {
    lr_mult: 1
    decay_mult: 0
  }
  prelu_param {
    filler {
      type: "constant"
      value: 0.01
    }
  }
}
layer {
  name: "inception_3a/output"
  type: "Concat"
  bottom: "inception_3a/1x1"
  bottom: "inception_3a/3x3"
  bottom: "inception_3a/5x5"
  bottom: "inception_3a/pool_proj"
  top: "inception_3a/output"
}
layer {
  name: "inception_3b/1x1"
  type: "Convolution"
  bottom: "inception_3a/output"
  top: "inception_3b/1x1"
  param {
    lr_mult: 1
    decay_mult: 1
  }
  param {
    lr_mult: 2
    decay_mult: 0
  }
  convolution_param {
    num_output: 128
    kernel_size: 1
    weight_filler {
      type: "xavier"
    }
    bias_filler {
      type: "constant"
      value: 0.2
    }
  }
}
layer {
  name: "inception_3b/prelu_1x1"
  type: "PReLU"
  bottom: "inception_3b/1x1"
  top: "inception_3b/1x1"
  param {
    lr_mult: 1
    decay_mult: 0
  }
  prelu_param {
    filler {
      type: "constant"
      value: 0.01
    }
  }
}
layer {
  name: "inception_3b/3x3_reduce"
  type: "Convolution"
  bottom: "inception_3a/output"
  top: "inception_3b/3x3_reduce"
  param {
    lr_mult: 1
    decay_mult: 1
  }
  param {
    lr_mult: 2
    decay_mult: 0
  }
  convolution_param {
    num_output: 128
    kernel_size: 1
    weight_filler {
      type: "xavier"
    }
    bias_filler {
      type: "constant"
      value: 0.2
    }
  }
}
layer {
  name: "inception_3b/prelu_3x3_reduce"
  type: "PReLU"
  bottom: "inception_3b/3x3_reduce"
  top: "inception_3b/3x3_reduce"
  param {
    lr_mult: 1
    decay_mult: 0
  }
  prelu_param {
    filler {
      type: "constant"
      value: 0.01
    }
  }
}
layer {
  name: "inception_3b/3x3"
  type: "Convolution"
  bottom: "inception_3b/3x3_reduce"
  top: "inception_3b/3x3"
  param {
    lr_mult: 1
    decay_mult: 1
  }
  param {
    lr_mult: 2
    decay_mult: 0
  }
  convolution_param {
    num_output: 192
    pad: 1
    kernel_size: 3
    weight_filler {
      type: "xavier"
    }
    bias_filler {
      type: "constant"
      value: 0.2
    }
  }
}
layer {
  name: "inception_3b/prelu_3x3"
  type: "PReLU"
  bottom: "inception_3b/3x3"
  top: "inception_3b/3x3"
  param {
    lr_mult: 1
    decay_mult: 0
  }
  prelu_param {
    filler {
      type: "constant"
      value: 0.01
    }
  }
}
layer {
  name: "inception_3b/5x5_reduce"
  type: "Convolution"
  bottom: "inception_3a/output"
  top: "inception_3b/5x5_reduce"
  param {
    lr_mult: 1
    decay_mult: 1
  }
  param {
    lr_mult: 2
    decay_mult: 0
  }
  convolution_param {
    num_output: 32
    kernel_size: 1
    weight_filler {
      type: "xavier"
    }
    bias_filler {
      type: "constant"
      value: 0.2
    }
  }
}
layer {
  name: "inception_3b/prelu_5x5_reduce"
  type: "PReLU"
  bottom: "inception_3b/5x5_reduce"
  top: "inception_3b/5x5_reduce"
  param {
    lr_mult: 1
    decay_mult: 0
  }
  prelu_param {
    filler {
      type: "constant"
      value: 0.01
    }
  }
}
layer {
  name: "inception_3b/5x5"
  type: "Convolution"
  bottom: "inception_3b/5x5_reduce"
  top: "inception_3b/5x5"
  param {
    lr_mult: 1
    decay_mult: 1
  }
  param {
    lr_mult: 2
    decay_mult: 0
  }
  convolution_param {
    num_output: 96
    pad: 2
    kernel_size: 5
    weight_filler {
      type: "xavier"
    }
    bias_filler {
      type: "constant"
      value: 0.2
    }
  }
}
layer {
  name: "inception_3b/prelu_5x5"
  type: "PReLU"
  bottom: "inception_3b/5x5"
  top: "inception_3b/5x5"
  param {
    lr_mult: 1
    decay_mult: 0
  }
  prelu_param {
    filler {
      type: "constant"
      value: 0.01
    }
  }
}
layer {
  name: "inception_3b/pool"
  type: "Pooling"
  bottom: "inception_3a/output"
  top: "inception_3b/pool"
  pooling_param {
    pool: MAX
    kernel_size: 3
    stride: 1
    pad: 1
  }
}
layer {
  name: "inception_3b/pool_proj"
  type: "Convolution"
  bottom: "inception_3b/pool"
  top: "inception_3b/pool_proj"
  param {
    lr_mult: 1
    decay_mult: 1
  }
  param {
    lr_mult: 2
    decay_mult: 0
  }
  convolution_param {
    num_output: 64
    kernel_size: 1
    weight_filler {
      type: "xavier"
    }
    bias_filler {
      type: "constant"
      value: 0.2
    }
  }
}
layer {
  name: "inception_3b/prelu_pool_proj"
  type: "PReLU"
  bottom: "inception_3b/pool_proj"
  top: "inception_3b/pool_proj"
  param {
    lr_mult: 1
    decay_mult: 0
  }
  prelu_param {
    filler {
      type: "constant"
      value: 0.01
    }
  }
}
layer {
  name: "inception_3b/output"
  type: "Concat"
  bottom: "inception_3b/1x1"
  bottom: "inception_3b/3x3"
  bottom: "inception_3b/5x5"
  bottom: "inception_3b/pool_proj"
  top: "inception_3b/output"
}
layer {
  name: "pool3/3x3_s2"
  type: "Pooling"
  bottom: "inception_3b/output"
  top: "pool3/3x3_s2"
  pooling_param {
    pool: MAX
    kernel_size: 3
    stride: 2
  }
}
layer {
  name: "inception_4a/1x1"
  type: "Convolution"
  bottom: "pool3/3x3_s2"
  top: "inception_4a/1x1"
  param {
    lr_mult: 1
    decay_mult: 1
  }
  param {
    lr_mult: 2
    decay_mult: 0
  }
  convolution_param {
    num_output: 192
    kernel_size: 1
    weight_filler {
      type: "xavier"
    }
    bias_filler {
      type: "constant"
      value: 0.2
    }
  }
}
layer {
  name: "inception_4a/prelu_1x1"
  type: "PReLU"
  bottom: "inception_4a/1x1"
  top: "inception_4a/1x1"
  param {
    lr_mult: 1
    decay_mult: 0
  }
  prelu_param {
    filler {
      type: "constant"
      value: 0.01
    }
  }
}
layer {
  name: "inception_4a/3x3_reduce"
  type: "Convolution"
  bottom: "pool3/3x3_s2"
  top: "inception_4a/3x3_reduce"
  param {
    lr_mult: 1
    decay_mult: 1
  }
  param {
    lr_mult: 2
    decay_mult: 0
  }
  convolution_param {
    num_output: 96
    kernel_size: 1
    weight_filler {
      type: "xavier"
    }
    bias_filler {
      type: "constant"
      value: 0.2
    }
  }
}
layer {
  name: "inception_4a/prelu_3x3_reduce"
  type: "PReLU"
  bottom: "inception_4a/3x3_reduce"
  top: "inception_4a/3x3_reduce"
  param {
    lr_mult: 1
    decay_mult: 0
  }
  prelu_param {
    filler {
      type: "constant"
      value: 0.01
    }
  }
}
layer {
  name: "inception_4a/3x3"
  type: "Convolution"
  bottom: "inception_4a/3x3_reduce"
  top: "inception_4a/3x3"
  param {
    lr_mult: 1
    decay_mult: 1
  }
  param {
    lr_mult: 2
    decay_mult: 0
  }
  convolution_param {
    num_output: 208
    pad: 1
    kernel_size: 3
    weight_filler {
      type: "xavier"
    }
    bias_filler {
      type: "constant"
      value: 0.2
    }
  }
}
layer {
  name: "inception_4a/prelu_3x3"
  type: "PReLU"
  bottom: "inception_4a/3x3"
  top: "inception_4a/3x3"
  param {
    lr_mult: 1
    decay_mult: 0
  }
  prelu_param {
    filler {
      type: "constant"
      value: 0.01
    }
  }
}
layer {
  name: "inception_4a/5x5_reduce"
  type: "Convolution"
  bottom: "pool3/3x3_s2"
  top: "inception_4a/5x5_reduce"
  param {
    lr_mult: 1
    decay_mult: 1
  }
  param {
    lr_mult: 2
    decay_mult: 0
  }
  convolution_param {
    num_output: 16
    kernel_size: 1
    weight_filler {
      type: "xavier"
    }
    bias_filler {
      type: "constant"
      value: 0.2
    }
  }
}
layer {
  name: "inception_4a/prelu_5x5_reduce"
  type: "PReLU"
  bottom: "inception_4a/5x5_reduce"
  top: "inception_4a/5x5_reduce"
  param {
    lr_mult: 1
    decay_mult: 0
  }
  prelu_param {
    filler {
      type: "constant"
      value: 0.01
    }
  }
}
layer {
  name: "inception_4a/5x5"
  type: "Convolution"
  bottom: "inception_4a/5x5_reduce"
  top: "inception_4a/5x5"
  param {
    lr_mult: 1
    decay_mult: 1
  }
  param {
    lr_mult: 2
    decay_mult: 0
  }
  convolution_param {
    num_output: 48
    pad: 2
    kernel_size: 5
    weight_filler {
      type: "xavier"
    }
    bias_filler {
      type: "constant"
      value: 0.2
    }
  }
}
layer {
  name: "inception_4a/prelu_5x5"
  type: "PReLU"
  bottom: "inception_4a/5x5"
  top: "inception_4a/5x5"
  param {
    lr_mult: 1
    decay_mult: 0
  }
  prelu_param {
    filler {
      type: "constant"
      value: 0.01
    }
  }
}
layer {
  name: "inception_4a/pool"
  type: "Pooling"
  bottom: "pool3/3x3_s2"
  top: "inception_4a/pool"
  pooling_param {
    pool: MAX
    kernel_size: 3
    stride: 1
    pad: 1
  }
}
layer {
  name: "inception_4a/pool_proj"
  type: "Convolution"
  bottom: "inception_4a/pool"
  top: "inception_4a/pool_proj"
  param {
    lr_mult: 1
    decay_mult: 1
  }
  param {
    lr_mult: 2
    decay_mult: 0
  }
  convolution_param {
    num_output: 64
    kernel_size: 1
    weight_filler {
      type: "xavier"
    }
    bias_filler {
      type: "constant"
      value: 0.2
    }
  }
}
layer {
  name: "inception_4a/prelu_pool_proj"
  type: "PReLU"
  bottom: "inception_4a/pool_proj"
  top: "inception_4a/pool_proj"
  param {
    lr_mult: 1
    decay_mult: 0
  }
  prelu_param {
    filler {
      type: "constant"
      value: 0.01
    }
  }
}
layer {
  name: "inception_4a/output"
  type: "Concat"
  bottom: "inception_4a/1x1"
  bottom: "inception_4a/3x3"
  bottom: "inception_4a/5x5"
  bottom: "inception_4a/pool_proj"
  top: "inception_4a/output"
}
layer {
  name: "loss1/ave_pool"
  type: "Pooling"
  bottom: "inception_4a/output"
  top: "loss1/ave_pool"
  pooling_param {
    pool: AVE
    kernel_size: 5
    stride: 3
  }
}
layer {
  name: "loss1/conv"
  type: "Convolution"
  bottom: "loss1/ave_pool"
  top: "loss1/conv"
  param {
    lr_mult: 1
    decay_mult: 1
  }
  param {
    lr_mult: 2
    decay_mult: 0
  }
  convolution_param {
    num_output: 128
    kernel_size: 1
    weight_filler {
      type: "xavier"
    }
    bias_filler {
      type: "constant"
      value: 0.2
    }
  }
}
layer {
  name: "loss1/prelu_conv"
  type: "PReLU"
  bottom: "loss1/conv"
  top: "loss1/conv"
  param {
    lr_mult: 1
    decay_mult: 0
  }
  prelu_param {
    filler {
      type: "constant"
      value: 0.01
    }
  }
}
layer {
  name: "loss1/fc"
  type: "InnerProduct"
  bottom: "loss1/conv"
  top: "loss1/fc"
  param {
    lr_mult: 1
    decay_mult: 1
  }
  param {
    lr_mult: 2
    decay_mult: 0
  }
  inner_product_param {
    num_output: 1024
    weight_filler {
      type: "xavier"
    }
    bias_filler {
      type: "constant"
      value: 0.2
    }
  }
}
layer {
  name: "loss1/prelu_fc"
  type: "PReLU"
  bottom: "loss1/fc"
  top: "loss1/fc"
  param {
    lr_mult: 1
    decay_mult: 0
  }
  prelu_param {
    filler {
      type: "constant"
      value: 0.01
    }
  }
}
layer {
  name: "loss1/drop_fc"
  type: "Dropout"
  bottom: "loss1/fc"
  top: "loss1/fc"
  dropout_param {
    dropout_ratio: 0.7
  }
}
layer {
  name: "loss1/classifier2"
  type: "InnerProduct"
  bottom: "loss1/fc"
  top: "loss1/classifier"
  param {
    lr_mult: 1
    decay_mult: 1
  }
  param {
    lr_mult: 2
    decay_mult: 0
  }
  inner_product_param {
    num_output: 2
    weight_filler {
      type: "xavier"
    }
    bias_filler {
      type: "constant"
      value: 0
    }
  }
}
layer {
  name: "loss1/loss"
  type: "SoftmaxWithLoss"
  bottom: "loss1/classifier"
  bottom: "label"
  top: "loss1/loss1"
  loss_weight: 0.3
}
layer {
  name: "inception_4b/1x1"
  type: "Convolution"
  bottom: "inception_4a/output"
  top: "inception_4b/1x1"
  param {
    lr_mult: 1
    decay_mult: 1
  }
  param {
    lr_mult: 2
    decay_mult: 0
  }
  convolution_param {
    num_output: 160
    kernel_size: 1
    weight_filler {
      type: "xavier"
    }
    bias_filler {
      type: "constant"
      value: 0.2
    }
  }
}
layer {
  name: "inception_4b/prelu_1x1"
  type: "PReLU"
  bottom: "inception_4b/1x1"
  top: "inception_4b/1x1"
  param {
    lr_mult: 1
    decay_mult: 0
  }
  prelu_param {
    filler {
      type: "constant"
      value: 0.01
    }
  }
}
layer {
  name: "inception_4b/3x3_reduce"
  type: "Convolution"
  bottom: "inception_4a/output"
  top: "inception_4b/3x3_reduce"
  param {
    lr_mult: 1
    decay_mult: 1
  }
  param {
    lr_mult: 2
    decay_mult: 0
  }
  convolution_param {
    num_output: 112
    kernel_size: 1
    weight_filler {
      type: "xavier"
    }
    bias_filler {
      type: "constant"
      value: 0.2
    }
  }
}
layer {
  name: "inception_4b/prelu_3x3_reduce"
  type: "PReLU"
  bottom: "inception_4b/3x3_reduce"
  top: "inception_4b/3x3_reduce"
  param {
    lr_mult: 1
    decay_mult: 0
  }
  prelu_param {
    filler {
      type: "constant"
      value: 0.01
    }
  }
}
layer {
  name: "inception_4b/3x3"
  type: "Convolution"
  bottom: "inception_4b/3x3_reduce"
  top: "inception_4b/3x3"
  param {
    lr_mult: 1
    decay_mult: 1
  }
  param {
    lr_mult: 2
    decay_mult: 0
  }
  convolution_param {
    num_output: 224
    pad: 1
    kernel_size: 3
    weight_filler {
      type: "xavier"
    }
    bias_filler {
      type: "constant"
      value: 0.2
    }
  }
}
layer {
  name: "inception_4b/prelu_3x3"
  type: "PReLU"
  bottom: "inception_4b/3x3"
  top: "inception_4b/3x3"
  param {
    lr_mult: 1
    decay_mult: 0
  }
  prelu_param {
    filler {
      type: "constant"
      value: 0.01
    }
  }
}
layer {
  name: "inception_4b/5x5_reduce"
  type: "Convolution"
  bottom: "inception_4a/output"
  top: "inception_4b/5x5_reduce"
  param {
    lr_mult: 1
    decay_mult: 1
  }
  param {
    lr_mult: 2
    decay_mult: 0
  }
  convolution_param {
    num_output: 24
    kernel_size: 1
    weight_filler {
      type: "xavier"
    }
    bias_filler {
      type: "constant"
      value: 0.2
    }
  }
}
layer {
  name: "inception_4b/prelu_5x5_reduce"
  type: "PReLU"
  bottom: "inception_4b/5x5_reduce"
  top: "inception_4b/5x5_reduce"
  param {
    lr_mult: 1
    decay_mult: 0
  }
  prelu_param {
    filler {
      type: "constant"
      value: 0.01
    }
  }
}
layer {
  name: "inception_4b/5x5"
  type: "Convolution"
  bottom: "inception_4b/5x5_reduce"
  top: "inception_4b/5x5"
  param {
    lr_mult: 1
    decay_mult: 1
  }
  param {
    lr_mult: 2
    decay_mult: 0
  }
  convolution_param {
    num_output: 64
    pad: 2
    kernel_size: 5
    weight_filler {
      type: "xavier"
    }
    bias_filler {
      type: "constant"
      value: 0.2
    }
  }
}
layer {
  name: "inception_4b/prelu_5x5"
  type: "PReLU"
  bottom: "inception_4b/5x5"
  top: "inception_4b/5x5"
  param {
    lr_mult: 1
    decay_mult: 0
  }
  prelu_param {
    filler {
      type: "constant"
      value: 0.01
    }
  }
}
layer {
  name: "inception_4b/pool"
  type: "Pooling"
  bottom: "inception_4a/output"
  top: "inception_4b/pool"
  pooling_param {
    pool: MAX
    kernel_size: 3
    stride: 1
    pad: 1
  }
}
layer {
  name: "inception_4b/pool_proj"
  type: "Convolution"
  bottom: "inception_4b/pool"
  top: "inception_4b/pool_proj"
  param {
    lr_mult: 1
    decay_mult: 1
  }
  param {
    lr_mult: 2
    decay_mult: 0
  }
  convolution_param {
    num_output: 64
    kernel_size: 1
    weight_filler {
      type: "xavier"
    }
    bias_filler {
      type: "constant"
      value: 0.2
    }
  }
}
layer {
  name: "inception_4b/prelu_pool_proj"
  type: "PReLU"
  bottom: "inception_4b/pool_proj"
  top: "inception_4b/pool_proj"
  param {
    lr_mult: 1
    decay_mult: 0
  }
  prelu_param {
    filler {
      type: "constant"
      value: 0.01
    }
  }
}
layer {
  name: "inception_4b/output"
  type: "Concat"
  bottom: "inception_4b/1x1"
  bottom: "inception_4b/3x3"
  bottom: "inception_4b/5x5"
  bottom: "inception_4b/pool_proj"
  top: "inception_4b/output"
}
layer {
  name: "inception_4c/1x1"
  type: "Convolution"
  bottom: "inception_4b/output"
  top: "inception_4c/1x1"
  param {
    lr_mult: 1
    decay_mult: 1
  }
  param {
    lr_mult: 2
    decay_mult: 0
  }
  convolution_param {
    num_output: 128
    kernel_size: 1
    weight_filler {
      type: "xavier"
    }
    bias_filler {
      type: "constant"
      value: 0.2
    }
  }
}
layer {
  name: "inception_4c/prelu_1x1"
  type: "PReLU"
  bottom: "inception_4c/1x1"
  top: "inception_4c/1x1"
  param {
    lr_mult: 1
    decay_mult: 0
  }
  prelu_param {
    filler {
      type: "constant"
      value: 0.01
    }
  }
}
layer {
  name: "inception_4c/3x3_reduce"
  type: "Convolution"
  bottom: "inception_4b/output"
  top: "inception_4c/3x3_reduce"
  param {
    lr_mult: 1
    decay_mult: 1
  }
  param {
    lr_mult: 2
    decay_mult: 0
  }
  convolution_param {
    num_output: 128
    kernel_size: 1
    weight_filler {
      type: "xavier"
    }
    bias_filler {
      type: "constant"
      value: 0.2
    }
  }
}
layer {
  name: "inception_4c/prelu_3x3_reduce"
  type: "PReLU"
  bottom: "inception_4c/3x3_reduce"
  top: "inception_4c/3x3_reduce"
  param {
    lr_mult: 1
    decay_mult: 0
  }
  prelu_param {
    filler {
      type: "constant"
      value: 0.01
    }
  }
}
layer {
  name: "inception_4c/3x3"
  type: "Convolution"
  bottom: "inception_4c/3x3_reduce"
  top: "inception_4c/3x3"
  param {
    lr_mult: 1
    decay_mult: 1
  }
  param {
    lr_mult: 2
    decay_mult: 0
  }
  convolution_param {
    num_output: 256
    pad: 1
    kernel_size: 3
    weight_filler {
      type: "xavier"
    }
    bias_filler {
      type: "constant"
      value: 0.2
    }
  }
}
layer {
  name: "inception_4c/prelu_3x3"
  type: "PReLU"
  bottom: "inception_4c/3x3"
  top: "inception_4c/3x3"
  param {
    lr_mult: 1
    decay_mult: 0
  }
  prelu_param {
    filler {
      type: "constant"
      value: 0.01
    }
  }
}
layer {
  name: "inception_4c/5x5_reduce"
  type: "Convolution"
  bottom: "inception_4b/output"
  top: "inception_4c/5x5_reduce"
  param {
    lr_mult: 1
    decay_mult: 1
  }
  param {
    lr_mult: 2
    decay_mult: 0
  }
  convolution_param {
    num_output: 24
    kernel_size: 1
    weight_filler {
      type: "xavier"
    }
    bias_filler {
      type: "constant"
      value: 0.2
    }
  }
}
layer {
  name: "inception_4c/prelu_5x5_reduce"
  type: "PReLU"
  bottom: "inception_4c/5x5_reduce"
  top: "inception_4c/5x5_reduce"
  param {
    lr_mult: 1
    decay_mult: 0
  }
  prelu_param {
    filler {
      type: "constant"
      value: 0.01
    }
  }
}
layer {
  name: "inception_4c/5x5"
  type: "Convolution"
  bottom: "inception_4c/5x5_reduce"
  top: "inception_4c/5x5"
  param {
    lr_mult: 1
    decay_mult: 1
  }
  param {
    lr_mult: 2
    decay_mult: 0
  }
  convolution_param {
    num_output: 64
    pad: 2
    kernel_size: 5
    weight_filler {
      type: "xavier"
    }
    bias_filler {
      type: "constant"
      value: 0.2
    }
  }
}
layer {
  name: "inception_4c/prelu_5x5"
  type: "PReLU"
  bottom: "inception_4c/5x5"
  top: "inception_4c/5x5"
  param {
    lr_mult: 1
    decay_mult: 0
  }
  prelu_param {
    filler {
      type: "constant"
      value: 0.01
    }
  }
}
layer {
  name: "inception_4c/pool"
  type: "Pooling"
  bottom: "inception_4b/output"
  top: "inception_4c/pool"
  pooling_param {
    pool: MAX
    kernel_size: 3
    stride: 1
    pad: 1
  }
}
layer {
  name: "inception_4c/pool_proj"
  type: "Convolution"
  bottom: "inception_4c/pool"
  top: "inception_4c/pool_proj"
  param {
    lr_mult: 1
    decay_mult: 1
  }
  param {
    lr_mult: 2
    decay_mult: 0
  }
  convolution_param {
    num_output: 64
    kernel_size: 1
    weight_filler {
      type: "xavier"
    }
    bias_filler {
      type: "constant"
      value: 0.2
    }
  }
}
layer {
  name: "inception_4c/prelu_pool_proj"
  type: "PReLU"
  bottom: "inception_4c/pool_proj"
  top: "inception_4c/pool_proj"
  param {
    lr_mult: 1
    decay_mult: 0
  }
  prelu_param {
    filler {
      type: "constant"
      value: 0.01
    }
  }
}
layer {
  name: "inception_4c/output"
  type: "Concat"
  bottom: "inception_4c/1x1"
  bottom: "inception_4c/3x3"
  bottom: "inception_4c/5x5"
  bottom: "inception_4c/pool_proj"
  top: "inception_4c/output"
}
layer {
  name: "inception_4d/1x1"
  type: "Convolution"
  bottom: "inception_4c/output"
  top: "inception_4d/1x1"
  param {
    lr_mult: 1
    decay_mult: 1
  }
  param {
    lr_mult: 2
    decay_mult: 0
  }
  convolution_param {
    num_output: 112
    kernel_size: 1
    weight_filler {
      type: "xavier"
    }
    bias_filler {
      type: "constant"
      value: 0.2
    }
  }
}
layer {
  name: "inception_4d/prelu_1x1"
  type: "PReLU"
  bottom: "inception_4d/1x1"
  top: "inception_4d/1x1"
  param {
    lr_mult: 1
    decay_mult: 0
  }
  prelu_param {
    filler {
      type: "constant"
      value: 0.01
    }
  }
}
layer {
  name: "inception_4d/3x3_reduce"
  type: "Convolution"
  bottom: "inception_4c/output"
  top: "inception_4d/3x3_reduce"
  param {
    lr_mult: 1
    decay_mult: 1
  }
  param {
    lr_mult: 2
    decay_mult: 0
  }
  convolution_param {
    num_output: 144
    kernel_size: 1
    weight_filler {
      type: "xavier"
    }
    bias_filler {
      type: "constant"
      value: 0.2
    }
  }
}
layer {
  name: "inception_4d/prelu_3x3_reduce"
  type: "PReLU"
  bottom: "inception_4d/3x3_reduce"
  top: "inception_4d/3x3_reduce"
  param {
    lr_mult: 1
    decay_mult: 0
  }
  prelu_param {
    filler {
      type: "constant"
      value: 0.01
    }
  }
}
layer {
  name: "inception_4d/3x3"
  type: "Convolution"
  bottom: "inception_4d/3x3_reduce"
  top: "inception_4d/3x3"
  param {
    lr_mult: 1
    decay_mult: 1
  }
  param {
    lr_mult: 2
    decay_mult: 0
  }
  convolution_param {
    num_output: 288
    pad: 1
    kernel_size: 3
    weight_filler {
      type: "xavier"
    }
    bias_filler {
      type: "constant"
      value: 0.2
    }
  }
}
layer {
  name: "inception_4d/prelu_3x3"
  type: "PReLU"
  bottom: "inception_4d/3x3"
  top: "inception_4d/3x3"
  param {
    lr_mult: 1
    decay_mult: 0
  }
  prelu_param {
    filler {
      type: "constant"
      value: 0.01
    }
  }
}
layer {
  name: "inception_4d/5x5_reduce"
  type: "Convolution"
  bottom: "inception_4c/output"
  top: "inception_4d/5x5_reduce"
  param {
    lr_mult: 1
    decay_mult: 1
  }
  param {
    lr_mult: 2
    decay_mult: 0
  }
  convolution_param {
    num_output: 32
    kernel_size: 1
    weight_filler {
      type: "xavier"
    }
    bias_filler {
      type: "constant"
      value: 0.2
    }
  }
}
layer {
  name: "inception_4d/prelu_5x5_reduce"
  type: "PReLU"
  bottom: "inception_4d/5x5_reduce"
  top: "inception_4d/5x5_reduce"
  param {
    lr_mult: 1
    decay_mult: 0
  }
  prelu_param {
    filler {
      type: "constant"
      value: 0.01
    }
  }
}
layer {
  name: "inception_4d/5x5"
  type: "Convolution"
  bottom: "inception_4d/5x5_reduce"
  top: "inception_4d/5x5"
  param {
    lr_mult: 1
    decay_mult: 1
  }
  param {
    lr_mult: 2
    decay_mult: 0
  }
  convolution_param {
    num_output: 64
    pad: 2
    kernel_size: 5
    weight_filler {
      type: "xavier"
    }
    bias_filler {
      type: "constant"
      value: 0.2
    }
  }
}
layer {
  name: "inception_4d/prelu_5x5"
  type: "PReLU"
  bottom: "inception_4d/5x5"
  top: "inception_4d/5x5"
  param {
    lr_mult: 1
    decay_mult: 0
  }
  prelu_param {
    filler {
      type: "constant"
      value: 0.01
    }
  }
}
layer {
  name: "inception_4d/pool"
  type: "Pooling"
  bottom: "inception_4c/output"
  top: "inception_4d/pool"
  pooling_param {
    pool: MAX
    kernel_size: 3
    stride: 1
    pad: 1
  }
}
layer {
  name: "inception_4d/pool_proj"
  type: "Convolution"
  bottom: "ince
I1105 17:15:31.620156 24357 layer_factory.hpp:76] Creating layer data
I1105 17:15:31.620546 24357 net.cpp:106] Creating Layer data
I1105 17:15:31.620559 24357 net.cpp:411] data -> data
I1105 17:15:31.620587 24357 net.cpp:411] data -> label
I1105 17:15:31.623415 24361 db_lmdb.cpp:38] Opened lmdb ../../LMDB/train_1-lmdb
I1105 17:15:31.636778 24357 data_layer.cpp:41] output data size: 32,3,224,224
I1105 17:15:31.701061 24357 net.cpp:150] Setting up data
I1105 17:15:31.701124 24357 net.cpp:157] Top shape: 32 3 224 224 (4816896)
I1105 17:15:31.701131 24357 net.cpp:157] Top shape: 32 (32)
I1105 17:15:31.701144 24357 net.cpp:165] Memory required for data: 19267712
I1105 17:15:31.701155 24357 layer_factory.hpp:76] Creating layer label_data_1_split
I1105 17:15:31.701169 24357 net.cpp:106] Creating Layer label_data_1_split
I1105 17:15:31.701176 24357 net.cpp:454] label_data_1_split <- label
I1105 17:15:31.701206 24357 net.cpp:411] label_data_1_split -> label_data_1_split_0
I1105 17:15:31.701220 24357 net.cpp:411] label_data_1_split -> label_data_1_split_1
I1105 17:15:31.701231 24357 net.cpp:411] label_data_1_split -> label_data_1_split_2
I1105 17:15:31.701300 24357 net.cpp:150] Setting up label_data_1_split
I1105 17:15:31.701309 24357 net.cpp:157] Top shape: 32 (32)
I1105 17:15:31.701314 24357 net.cpp:157] Top shape: 32 (32)
I1105 17:15:31.701319 24357 net.cpp:157] Top shape: 32 (32)
I1105 17:15:31.701323 24357 net.cpp:165] Memory required for data: 19268096
I1105 17:15:31.701336 24357 layer_factory.hpp:76] Creating layer conv1/7x7_s2
I1105 17:15:31.701354 24357 net.cpp:106] Creating Layer conv1/7x7_s2
I1105 17:15:31.701359 24357 net.cpp:454] conv1/7x7_s2 <- data
I1105 17:15:31.701366 24357 net.cpp:411] conv1/7x7_s2 -> conv1/7x7_s2
I1105 17:15:31.915071 24357 cudnn_conv_layer.cpp:194] Reallocating workspace storage: 225816
I1105 17:15:31.915362 24357 net.cpp:150] Setting up conv1/7x7_s2
I1105 17:15:31.915379 24357 net.cpp:157] Top shape: 32 64 112 112 (25690112)
I1105 17:15:31.915391 24357 net.cpp:165] Memory required for data: 122028544
I1105 17:15:31.915411 24357 layer_factory.hpp:76] Creating layer conv1/prelu_7x7
I1105 17:15:31.915436 24357 net.cpp:106] Creating Layer conv1/prelu_7x7
I1105 17:15:31.915446 24357 net.cpp:454] conv1/prelu_7x7 <- conv1/7x7_s2
I1105 17:15:31.915454 24357 net.cpp:397] conv1/prelu_7x7 -> conv1/7x7_s2 (in-place)
I1105 17:15:31.917119 24357 net.cpp:150] Setting up conv1/prelu_7x7
I1105 17:15:31.917131 24357 net.cpp:157] Top shape: 32 64 112 112 (25690112)
I1105 17:15:31.917136 24357 net.cpp:165] Memory required for data: 224788992
I1105 17:15:31.917145 24357 layer_factory.hpp:76] Creating layer pool1/3x3_s2
I1105 17:15:31.917157 24357 net.cpp:106] Creating Layer pool1/3x3_s2
I1105 17:15:31.917161 24357 net.cpp:454] pool1/3x3_s2 <- conv1/7x7_s2
I1105 17:15:31.917168 24357 net.cpp:411] pool1/3x3_s2 -> pool1/3x3_s2
I1105 17:15:31.917551 24357 net.cpp:150] Setting up pool1/3x3_s2
I1105 17:15:31.917562 24357 net.cpp:157] Top shape: 32 64 56 56 (6422528)
I1105 17:15:31.917567 24357 net.cpp:165] Memory required for data: 250479104
I1105 17:15:31.917570 24357 layer_factory.hpp:76] Creating layer pool1/norm1
I1105 17:15:31.917582 24357 net.cpp:106] Creating Layer pool1/norm1
I1105 17:15:31.917587 24357 net.cpp:454] pool1/norm1 <- pool1/3x3_s2
I1105 17:15:31.917593 24357 net.cpp:411] pool1/norm1 -> pool1/norm1
I1105 17:15:31.917762 24357 net.cpp:150] Setting up pool1/norm1
I1105 17:15:31.917773 24357 net.cpp:157] Top shape: 32 64 56 56 (6422528)
I1105 17:15:31.917776 24357 net.cpp:165] Memory required for data: 276169216
I1105 17:15:31.917780 24357 layer_factory.hpp:76] Creating layer conv2/3x3_reduce
I1105 17:15:31.917790 24357 net.cpp:106] Creating Layer conv2/3x3_reduce
I1105 17:15:31.917794 24357 net.cpp:454] conv2/3x3_reduce <- pool1/norm1
I1105 17:15:31.917800 24357 net.cpp:411] conv2/3x3_reduce -> conv2/3x3_reduce
I1105 17:15:31.919168 24357 cudnn_conv_layer.cpp:194] Reallocating workspace storage: 63000
I1105 17:15:31.919189 24357 net.cpp:150] Setting up conv2/3x3_reduce
I1105 17:15:31.919198 24357 net.cpp:157] Top shape: 32 64 56 56 (6422528)
I1105 17:15:31.919201 24357 net.cpp:165] Memory required for data: 301859328
I1105 17:15:31.919211 24357 layer_factory.hpp:76] Creating layer conv2/prelu_3x3_reduce
I1105 17:15:31.919219 24357 net.cpp:106] Creating Layer conv2/prelu_3x3_reduce
I1105 17:15:31.919232 24357 net.cpp:454] conv2/prelu_3x3_reduce <- conv2/3x3_reduce
I1105 17:15:31.919239 24357 net.cpp:397] conv2/prelu_3x3_reduce -> conv2/3x3_reduce (in-place)
I1105 17:15:31.919858 24357 net.cpp:150] Setting up conv2/prelu_3x3_reduce
I1105 17:15:31.919870 24357 net.cpp:157] Top shape: 32 64 56 56 (6422528)
I1105 17:15:31.919874 24357 net.cpp:165] Memory required for data: 327549440
I1105 17:15:31.919880 24357 layer_factory.hpp:76] Creating layer conv2/3x3
I1105 17:15:31.919890 24357 net.cpp:106] Creating Layer conv2/3x3
I1105 17:15:31.919895 24357 net.cpp:454] conv2/3x3 <- conv2/3x3_reduce
I1105 17:15:31.919901 24357 net.cpp:411] conv2/3x3 -> conv2/3x3
I1105 17:15:31.921856 24357 cudnn_conv_layer.cpp:194] Reallocating workspace storage: 63000
I1105 17:15:31.921877 24357 net.cpp:150] Setting up conv2/3x3
I1105 17:15:31.921885 24357 net.cpp:157] Top shape: 32 192 56 56 (19267584)
I1105 17:15:31.921890 24357 net.cpp:165] Memory required for data: 404619776
I1105 17:15:31.921897 24357 layer_factory.hpp:76] Creating layer conv2/prelu_3x3
I1105 17:15:31.921905 24357 net.cpp:106] Creating Layer conv2/prelu_3x3
I1105 17:15:31.921917 24357 net.cpp:454] conv2/prelu_3x3 <- conv2/3x3
I1105 17:15:31.921924 24357 net.cpp:397] conv2/prelu_3x3 -> conv2/3x3 (in-place)
I1105 17:15:31.923035 24357 net.cpp:150] Setting up conv2/prelu_3x3
I1105 17:15:31.923048 24357 net.cpp:157] Top shape: 32 192 56 56 (19267584)
I1105 17:15:31.923053 24357 net.cpp:165] Memory required for data: 481690112
I1105 17:15:31.923080 24357 layer_factory.hpp:76] Creating layer conv2/norm2
I1105 17:15:31.923097 24357 net.cpp:106] Creating Layer conv2/norm2
I1105 17:15:31.923102 24357 net.cpp:454] conv2/norm2 <- conv2/3x3
I1105 17:15:31.923110 24357 net.cpp:411] conv2/norm2 -> conv2/norm2
I1105 17:15:31.923292 24357 net.cpp:150] Setting up conv2/norm2
I1105 17:15:31.923302 24357 net.cpp:157] Top shape: 32 192 56 56 (19267584)
I1105 17:15:31.923306 24357 net.cpp:165] Memory required for data: 558760448
I1105 17:15:31.923310 24357 layer_factory.hpp:76] Creating layer pool2/3x3_s2
I1105 17:15:31.923318 24357 net.cpp:106] Creating Layer pool2/3x3_s2
I1105 17:15:31.923322 24357 net.cpp:454] pool2/3x3_s2 <- conv2/norm2
I1105 17:15:31.923328 24357 net.cpp:411] pool2/3x3_s2 -> pool2/3x3_s2
I1105 17:15:31.923681 24357 net.cpp:150] Setting up pool2/3x3_s2
I1105 17:15:31.923691 24357 net.cpp:157] Top shape: 32 192 28 28 (4816896)
I1105 17:15:31.923696 24357 net.cpp:165] Memory required for data: 578028032
I1105 17:15:31.923707 24357 layer_factory.hpp:76] Creating layer pool2/3x3_s2_pool2/3x3_s2_0_split
I1105 17:15:31.923715 24357 net.cpp:106] Creating Layer pool2/3x3_s2_pool2/3x3_s2_0_split
I1105 17:15:31.923719 24357 net.cpp:454] pool2/3x3_s2_pool2/3x3_s2_0_split <- pool2/3x3_s2
I1105 17:15:31.923725 24357 net.cpp:411] pool2/3x3_s2_pool2/3x3_s2_0_split -> pool2/3x3_s2_pool2/3x3_s2_0_split_0
I1105 17:15:31.923740 24357 net.cpp:411] pool2/3x3_s2_pool2/3x3_s2_0_split -> pool2/3x3_s2_pool2/3x3_s2_0_split_1
I1105 17:15:31.923748 24357 net.cpp:411] pool2/3x3_s2_pool2/3x3_s2_0_split -> pool2/3x3_s2_pool2/3x3_s2_0_split_2
I1105 17:15:31.923754 24357 net.cpp:411] pool2/3x3_s2_pool2/3x3_s2_0_split -> pool2/3x3_s2_pool2/3x3_s2_0_split_3
I1105 17:15:31.923826 24357 net.cpp:150] Setting up pool2/3x3_s2_pool2/3x3_s2_0_split
I1105 17:15:31.923835 24357 net.cpp:157] Top shape: 32 192 28 28 (4816896)
I1105 17:15:31.923840 24357 net.cpp:157] Top shape: 32 192 28 28 (4816896)
I1105 17:15:31.923845 24357 net.cpp:157] Top shape: 32 192 28 28 (4816896)
I1105 17:15:31.923849 24357 net.cpp:157] Top shape: 32 192 28 28 (4816896)
I1105 17:15:31.923852 24357 net.cpp:165] Memory required for data: 655098368
I1105 17:15:31.923866 24357 layer_factory.hpp:76] Creating layer inception_3a/1x1
I1105 17:15:31.923873 24357 net.cpp:106] Creating Layer inception_3a/1x1
I1105 17:15:31.923877 24357 net.cpp:454] inception_3a/1x1 <- pool2/3x3_s2_pool2/3x3_s2_0_split_0
I1105 17:15:31.923884 24357 net.cpp:411] inception_3a/1x1 -> inception_3a/1x1
I1105 17:15:31.925353 24357 cudnn_conv_layer.cpp:194] Reallocating workspace storage: 20664
I1105 17:15:31.925375 24357 net.cpp:150] Setting up inception_3a/1x1
I1105 17:15:31.925384 24357 net.cpp:157] Top shape: 32 64 28 28 (1605632)
I1105 17:15:31.925389 24357 net.cpp:165] Memory required for data: 661520896
I1105 17:15:31.925395 24357 layer_factory.hpp:76] Creating layer inception_3a/prelu_1x1
I1105 17:15:31.925413 24357 net.cpp:106] Creating Layer inception_3a/prelu_1x1
I1105 17:15:31.925418 24357 net.cpp:454] inception_3a/prelu_1x1 <- inception_3a/1x1
I1105 17:15:31.925426 24357 net.cpp:397] inception_3a/prelu_1x1 -> inception_3a/1x1 (in-place)
I1105 17:15:31.925971 24357 net.cpp:150] Setting up inception_3a/prelu_1x1
I1105 17:15:31.925984 24357 net.cpp:157] Top shape: 32 64 28 28 (1605632)
I1105 17:15:31.925989 24357 net.cpp:165] Memory required for data: 667943424
I1105 17:15:31.925995 24357 layer_factory.hpp:76] Creating layer inception_3a/3x3_reduce
I1105 17:15:31.926003 24357 net.cpp:106] Creating Layer inception_3a/3x3_reduce
I1105 17:15:31.926008 24357 net.cpp:454] inception_3a/3x3_reduce <- pool2/3x3_s2_pool2/3x3_s2_0_split_1
I1105 17:15:31.926024 24357 net.cpp:411] inception_3a/3x3_reduce -> inception_3a/3x3_reduce
I1105 17:15:31.926990 24357 cudnn_conv_layer.cpp:194] Reallocating workspace storage: 20664
I1105 17:15:31.927011 24357 net.cpp:150] Setting up inception_3a/3x3_reduce
I1105 17:15:31.927019 24357 net.cpp:157] Top shape: 32 96 28 28 (2408448)
I1105 17:15:31.927023 24357 net.cpp:165] Memory required for data: 677577216
I1105 17:15:31.927050 24357 layer_factory.hpp:76] Creating layer inception_3a/prelu_3x3_reduce
I1105 17:15:31.927063 24357 net.cpp:106] Creating Layer inception_3a/prelu_3x3_reduce
I1105 17:15:31.927068 24357 net.cpp:454] inception_3a/prelu_3x3_reduce <- inception_3a/3x3_reduce
I1105 17:15:31.927074 24357 net.cpp:397] inception_3a/prelu_3x3_reduce -> inception_3a/3x3_reduce (in-place)
I1105 17:15:31.927213 24357 net.cpp:150] Setting up inception_3a/prelu_3x3_reduce
I1105 17:15:31.927223 24357 net.cpp:157] Top shape: 32 96 28 28 (2408448)
I1105 17:15:31.927227 24357 net.cpp:165] Memory required for data: 687211008
I1105 17:15:31.927233 24357 layer_factory.hpp:76] Creating layer inception_3a/3x3
I1105 17:15:31.927250 24357 net.cpp:106] Creating Layer inception_3a/3x3
I1105 17:15:31.927255 24357 net.cpp:454] inception_3a/3x3 <- inception_3a/3x3_reduce
I1105 17:15:31.927263 24357 net.cpp:411] inception_3a/3x3 -> inception_3a/3x3
I1105 17:15:31.929553 24357 cudnn_conv_layer.cpp:194] Reallocating workspace storage: 20664
I1105 17:15:31.929591 24357 net.cpp:150] Setting up inception_3a/3x3
I1105 17:15:31.929602 24357 net.cpp:157] Top shape: 32 128 28 28 (3211264)
I1105 17:15:31.929608 24357 net.cpp:165] Memory required for data: 700056064
I1105 17:15:31.929622 24357 layer_factory.hpp:76] Creating layer inception_3a/prelu_3x3
I1105 17:15:31.929635 24357 net.cpp:106] Creating Layer inception_3a/prelu_3x3
I1105 17:15:31.929641 24357 net.cpp:454] inception_3a/prelu_3x3 <- inception_3a/3x3
I1105 17:15:31.929651 24357 net.cpp:397] inception_3a/prelu_3x3 -> inception_3a/3x3 (in-place)
I1105 17:15:31.929788 24357 net.cpp:150] Setting up inception_3a/prelu_3x3
I1105 17:15:31.929800 24357 net.cpp:157] Top shape: 32 128 28 28 (3211264)
I1105 17:15:31.929805 24357 net.cpp:165] Memory required for data: 712901120
I1105 17:15:31.929811 24357 layer_factory.hpp:76] Creating layer inception_3a/5x5_reduce
I1105 17:15:31.929819 24357 net.cpp:106] Creating Layer inception_3a/5x5_reduce
I1105 17:15:31.929824 24357 net.cpp:454] inception_3a/5x5_reduce <- pool2/3x3_s2_pool2/3x3_s2_0_split_2
I1105 17:15:31.929831 24357 net.cpp:411] inception_3a/5x5_reduce -> inception_3a/5x5_reduce
I1105 17:15:31.931073 24357 cudnn_conv_layer.cpp:194] Reallocating workspace storage: 20664
I1105 17:15:31.931097 24357 net.cpp:150] Setting up inception_3a/5x5_reduce
I1105 17:15:31.931105 24357 net.cpp:157] Top shape: 32 16 28 28 (401408)
I1105 17:15:31.931109 24357 net.cpp:165] Memory required for data: 714506752
I1105 17:15:31.931118 24357 layer_factory.hpp:76] Creating layer inception_3a/prelu_5x5_reduce
I1105 17:15:31.931125 24357 net.cpp:106] Creating Layer inception_3a/prelu_5x5_reduce
I1105 17:15:31.931130 24357 net.cpp:454] inception_3a/prelu_5x5_reduce <- inception_3a/5x5_reduce
I1105 17:15:31.931138 24357 net.cpp:397] inception_3a/prelu_5x5_reduce -> inception_3a/5x5_reduce (in-place)
I1105 17:15:31.931224 24357 net.cpp:150] Setting up inception_3a/prelu_5x5_reduce
I1105 17:15:31.931233 24357 net.cpp:157] Top shape: 32 16 28 28 (401408)
I1105 17:15:31.931238 24357 net.cpp:165] Memory required for data: 716112384
I1105 17:15:31.931243 24357 layer_factory.hpp:76] Creating layer inception_3a/5x5
I1105 17:15:31.931252 24357 net.cpp:106] Creating Layer inception_3a/5x5
I1105 17:15:31.931257 24357 net.cpp:454] inception_3a/5x5 <- inception_3a/5x5_reduce
I1105 17:15:31.931264 24357 net.cpp:411] inception_3a/5x5 -> inception_3a/5x5
I1105 17:15:31.932307 24357 cudnn_conv_layer.cpp:194] Reallocating workspace storage: 20664
I1105 17:15:31.932324 24357 net.cpp:150] Setting up inception_3a/5x5
I1105 17:15:31.932332 24357 net.cpp:157] Top shape: 32 32 28 28 (802816)
I1105 17:15:31.932335 24357 net.cpp:165] Memory required for data: 719323648
I1105 17:15:31.932344 24357 layer_factory.hpp:76] Creating layer inception_3a/prelu_5x5
I1105 17:15:31.932353 24357 net.cpp:106] Creating Layer inception_3a/prelu_5x5
I1105 17:15:31.932356 24357 net.cpp:454] inception_3a/prelu_5x5 <- inception_3a/5x5
I1105 17:15:31.932364 24357 net.cpp:397] inception_3a/prelu_5x5 -> inception_3a/5x5 (in-place)
I1105 17:15:31.932489 24357 net.cpp:150] Setting up inception_3a/prelu_5x5
I1105 17:15:31.932499 24357 net.cpp:157] Top shape: 32 32 28 28 (802816)
I1105 17:15:31.932503 24357 net.cpp:165] Memory required for data: 722534912
I1105 17:15:31.932508 24357 layer_factory.hpp:76] Creating layer inception_3a/pool
I1105 17:15:31.932518 24357 net.cpp:106] Creating Layer inception_3a/pool
I1105 17:15:31.932523 24357 net.cpp:454] inception_3a/pool <- pool2/3x3_s2_pool2/3x3_s2_0_split_3
I1105 17:15:31.932529 24357 net.cpp:411] inception_3a/pool -> inception_3a/pool
I1105 17:15:31.932701 24357 net.cpp:150] Setting up inception_3a/pool
I1105 17:15:31.932711 24357 net.cpp:157] Top shape: 32 192 28 28 (4816896)
I1105 17:15:31.932715 24357 net.cpp:165] Memory required for data: 741802496
I1105 17:15:31.932720 24357 layer_factory.hpp:76] Creating layer inception_3a/pool_proj
I1105 17:15:31.932729 24357 net.cpp:106] Creating Layer inception_3a/pool_proj
I1105 17:15:31.932734 24357 net.cpp:454] inception_3a/pool_proj <- inception_3a/pool
I1105 17:15:31.932742 24357 net.cpp:411] inception_3a/pool_proj -> inception_3a/pool_proj
I1105 17:15:31.933738 24357 cudnn_conv_layer.cpp:194] Reallocating workspace storage: 20664
I1105 17:15:31.933758 24357 net.cpp:150] Setting up inception_3a/pool_proj
I1105 17:15:31.933765 24357 net.cpp:157] Top shape: 32 32 28 28 (802816)
I1105 17:15:31.933769 24357 net.cpp:165] Memory required for data: 745013760
I1105 17:15:31.933776 24357 layer_factory.hpp:76] Creating layer inception_3a/prelu_pool_proj
I1105 17:15:31.933785 24357 net.cpp:106] Creating Layer inception_3a/prelu_pool_proj
I1105 17:15:31.933790 24357 net.cpp:454] inception_3a/prelu_pool_proj <- inception_3a/pool_proj
I1105 17:15:31.933796 24357 net.cpp:397] inception_3a/prelu_pool_proj -> inception_3a/pool_proj (in-place)
I1105 17:15:31.933884 24357 net.cpp:150] Setting up inception_3a/prelu_pool_proj
I1105 17:15:31.933894 24357 net.cpp:157] Top shape: 32 32 28 28 (802816)
I1105 17:15:31.933898 24357 net.cpp:165] Memory required for data: 748225024
I1105 17:15:31.933903 24357 layer_factory.hpp:76] Creating layer inception_3a/output
I1105 17:15:31.933915 24357 net.cpp:106] Creating Layer inception_3a/output
I1105 17:15:31.933920 24357 net.cpp:454] inception_3a/output <- inception_3a/1x1
I1105 17:15:31.933925 24357 net.cpp:454] inception_3a/output <- inception_3a/3x3
I1105 17:15:31.933930 24357 net.cpp:454] inception_3a/output <- inception_3a/5x5
I1105 17:15:31.933934 24357 net.cpp:454] inception_3a/output <- inception_3a/pool_proj
I1105 17:15:31.933941 24357 net.cpp:411] inception_3a/output -> inception_3a/output
I1105 17:15:31.933966 24357 net.cpp:150] Setting up inception_3a/output
I1105 17:15:31.933974 24357 net.cpp:157] Top shape: 32 256 28 28 (6422528)
I1105 17:15:31.933979 24357 net.cpp:165] Memory required for data: 773915136
I1105 17:15:31.933982 24357 layer_factory.hpp:76] Creating layer inception_3a/output_inception_3a/output_0_split
I1105 17:15:31.933990 24357 net.cpp:106] Creating Layer inception_3a/output_inception_3a/output_0_split
I1105 17:15:31.933993 24357 net.cpp:454] inception_3a/output_inception_3a/output_0_split <- inception_3a/output
I1105 17:15:31.934000 24357 net.cpp:411] inception_3a/output_inception_3a/output_0_split -> inception_3a/output_inception_3a/output_0_split_0
I1105 17:15:31.934006 24357 net.cpp:411] inception_3a/output_inception_3a/output_0_split -> inception_3a/output_inception_3a/output_0_split_1
I1105 17:15:31.934012 24357 net.cpp:411] inception_3a/output_inception_3a/output_0_split -> inception_3a/output_inception_3a/output_0_split_2
I1105 17:15:31.934020 24357 net.cpp:411] inception_3a/output_inception_3a/output_0_split -> inception_3a/output_inception_3a/output_0_split_3
I1105 17:15:31.934069 24357 net.cpp:150] Setting up inception_3a/output_inception_3a/output_0_split
I1105 17:15:31.934077 24357 net.cpp:157] Top shape: 32 256 28 28 (6422528)
I1105 17:15:31.934082 24357 net.cpp:157] Top shape: 32 256 28 28 (6422528)
I1105 17:15:31.934087 24357 net.cpp:157] Top shape: 32 256 28 28 (6422528)
I1105 17:15:31.934101 24357 net.cpp:157] Top shape: 32 256 28 28 (6422528)
I1105 17:15:31.934105 24357 net.cpp:165] Memory required for data: 876675584
I1105 17:15:31.934109 24357 layer_factory.hpp:76] Creating layer inception_3b/1x1
I1105 17:15:31.934118 24357 net.cpp:106] Creating Layer inception_3b/1x1
I1105 17:15:31.934121 24357 net.cpp:454] inception_3b/1x1 <- inception_3a/output_inception_3a/output_0_split_0
I1105 17:15:31.934128 24357 net.cpp:411] inception_3b/1x1 -> inception_3b/1x1
I1105 17:15:31.935292 24357 cudnn_conv_layer.cpp:194] Reallocating workspace storage: 20664
I1105 17:15:31.935312 24357 net.cpp:150] Setting up inception_3b/1x1
I1105 17:15:31.935319 24357 net.cpp:157] Top shape: 32 128 28 28 (3211264)
I1105 17:15:31.935323 24357 net.cpp:165] Memory required for data: 889520640
I1105 17:15:31.935330 24357 layer_factory.hpp:76] Creating layer inception_3b/prelu_1x1
I1105 17:15:31.935338 24357 net.cpp:106] Creating Layer inception_3b/prelu_1x1
I1105 17:15:31.935341 24357 net.cpp:454] inception_3b/prelu_1x1 <- inception_3b/1x1
I1105 17:15:31.935348 24357 net.cpp:397] inception_3b/prelu_1x1 -> inception_3b/1x1 (in-place)
I1105 17:15:31.935927 24357 net.cpp:150] Setting up inception_3b/prelu_1x1
I1105 17:15:31.935940 24357 net.cpp:157] Top shape: 32 128 28 28 (3211264)
I1105 17:15:31.935945 24357 net.cpp:165] Memory required for data: 902365696
I1105 17:15:31.935950 24357 layer_factory.hpp:76] Creating layer inception_3b/3x3_reduce
I1105 17:15:31.935959 24357 net.cpp:106] Creating Layer inception_3b/3x3_reduce
I1105 17:15:31.935964 24357 net.cpp:454] inception_3b/3x3_reduce <- inception_3a/output_inception_3a/output_0_split_1
I1105 17:15:31.935973 24357 net.cpp:411] inception_3b/3x3_reduce -> inception_3b/3x3_reduce
I1105 17:15:31.937155 24357 cudnn_conv_layer.cpp:194] Reallocating workspace storage: 20664
I1105 17:15:31.937173 24357 net.cpp:150] Setting up inception_3b/3x3_reduce
I1105 17:15:31.937180 24357 net.cpp:157] Top shape: 32 128 28 28 (3211264)
I1105 17:15:31.937185 24357 net.cpp:165] Memory required for data: 915210752
I1105 17:15:31.937191 24357 layer_factory.hpp:76] Creating layer inception_3b/prelu_3x3_reduce
I1105 17:15:31.937201 24357 net.cpp:106] Creating Layer inception_3b/prelu_3x3_reduce
I1105 17:15:31.937206 24357 net.cpp:454] inception_3b/prelu_3x3_reduce <- inception_3b/3x3_reduce
I1105 17:15:31.937211 24357 net.cpp:397] inception_3b/prelu_3x3_reduce -> inception_3b/3x3_reduce (in-place)
I1105 17:15:31.937332 24357 net.cpp:150] Setting up inception_3b/prelu_3x3_reduce
I1105 17:15:31.937341 24357 net.cpp:157] Top shape: 32 128 28 28 (3211264)
I1105 17:15:31.937345 24357 net.cpp:165] Memory required for data: 928055808
I1105 17:15:31.937357 24357 layer_factory.hpp:76] Creating layer inception_3b/3x3
I1105 17:15:31.937369 24357 net.cpp:106] Creating Layer inception_3b/3x3
I1105 17:15:31.937374 24357 net.cpp:454] inception_3b/3x3 <- inception_3b/3x3_reduce
I1105 17:15:31.937382 24357 net.cpp:411] inception_3b/3x3 -> inception_3b/3x3
I1105 17:15:31.940039 24357 cudnn_conv_layer.cpp:194] Reallocating workspace storage: 20664
I1105 17:15:31.940060 24357 net.cpp:150] Setting up inception_3b/3x3
I1105 17:15:31.940068 24357 net.cpp:157] Top shape: 32 192 28 28 (4816896)
I1105 17:15:31.940071 24357 net.cpp:165] Memory required for data: 947323392
I1105 17:15:31.940079 24357 layer_factory.hpp:76] Creating layer inception_3b/prelu_3x3
I1105 17:15:31.940086 24357 net.cpp:106] Creating Layer inception_3b/prelu_3x3
I1105 17:15:31.940099 24357 net.cpp:454] inception_3b/prelu_3x3 <- inception_3b/3x3
I1105 17:15:31.940106 24357 net.cpp:397] inception_3b/prelu_3x3 -> inception_3b/3x3 (in-place)
I1105 17:15:31.940711 24357 net.cpp:150] Setting up inception_3b/prelu_3x3
I1105 17:15:31.940722 24357 net.cpp:157] Top shape: 32 192 28 28 (4816896)
I1105 17:15:31.940726 24357 net.cpp:165] Memory required for data: 966590976
I1105 17:15:31.940732 24357 layer_factory.hpp:76] Creating layer inception_3b/5x5_reduce
I1105 17:15:31.940742 24357 net.cpp:106] Creating Layer inception_3b/5x5_reduce
I1105 17:15:31.940747 24357 net.cpp:454] inception_3b/5x5_reduce <- inception_3a/output_inception_3a/output_0_split_2
I1105 17:15:31.940775 24357 net.cpp:411] inception_3b/5x5_reduce -> inception_3b/5x5_reduce
I1105 17:15:31.941649 24357 cudnn_conv_layer.cpp:194] Reallocating workspace storage: 20664
I1105 17:15:31.941678 24357 net.cpp:150] Setting up inception_3b/5x5_reduce
I1105 17:15:31.941694 24357 net.cpp:157] Top shape: 32 32 28 28 (802816)
I1105 17:15:31.941697 24357 net.cpp:165] Memory required for data: 969802240
I1105 17:15:31.941704 24357 layer_factory.hpp:76] Creating layer inception_3b/prelu_5x5_reduce
I1105 17:15:31.941714 24357 net.cpp:106] Creating Layer inception_3b/prelu_5x5_reduce
I1105 17:15:31.941718 24357 net.cpp:454] inception_3b/prelu_5x5_reduce <- inception_3b/5x5_reduce
I1105 17:15:31.941732 24357 net.cpp:397] inception_3b/prelu_5x5_reduce -> inception_3b/5x5_reduce (in-place)
I1105 17:15:31.941844 24357 net.cpp:150] Setting up inception_3b/prelu_5x5_reduce
I1105 17:15:31.941854 24357 net.cpp:157] Top shape: 32 32 28 28 (802816)
I1105 17:15:31.941858 24357 net.cpp:165] Memory required for data: 973013504
I1105 17:15:31.941870 24357 layer_factory.hpp:76] Creating layer inception_3b/5x5
I1105 17:15:31.941879 24357 net.cpp:106] Creating Layer inception_3b/5x5
I1105 17:15:31.941884 24357 net.cpp:454] inception_3b/5x5 <- inception_3b/5x5_reduce
I1105 17:15:31.941891 24357 net.cpp:411] inception_3b/5x5 -> inception_3b/5x5
I1105 17:15:31.943392 24357 cudnn_conv_layer.cpp:194] Reallocating workspace storage: 20664
I1105 17:15:31.943414 24357 net.cpp:150] Setting up inception_3b/5x5
I1105 17:15:31.943423 24357 net.cpp:157] Top shape: 32 96 28 28 (2408448)
I1105 17:15:31.943426 24357 net.cpp:165] Memory required for data: 982647296
I1105 17:15:31.943434 24357 layer_factory.hpp:76] Creating layer inception_3b/prelu_5x5
I1105 17:15:31.943441 24357 net.cpp:106] Creating Layer inception_3b/prelu_5x5
I1105 17:15:31.943446 24357 net.cpp:454] inception_3b/prelu_5x5 <- inception_3b/5x5
I1105 17:15:31.943454 24357 net.cpp:397] inception_3b/prelu_5x5 -> inception_3b/5x5 (in-place)
I1105 17:15:31.943631 24357 net.cpp:150] Setting up inception_3b/prelu_5x5
I1105 17:15:31.943642 24357 net.cpp:157] Top shape: 32 96 28 28 (2408448)
I1105 17:15:31.943646 24357 net.cpp:165] Memory required for data: 992281088
I1105 17:15:31.943651 24357 layer_factory.hpp:76] Creating layer inception_3b/pool
I1105 17:15:31.943670 24357 net.cpp:106] Creating Layer inception_3b/pool
I1105 17:15:31.943676 24357 net.cpp:454] inception_3b/pool <- inception_3a/output_inception_3a/output_0_split_3
I1105 17:15:31.943683 24357 net.cpp:411] inception_3b/pool -> inception_3b/pool
I1105 17:15:31.944134 24357 net.cpp:150] Setting up inception_3b/pool
I1105 17:15:31.944149 24357 net.cpp:157] Top shape: 32 256 28 28 (6422528)
I1105 17:15:31.944152 24357 net.cpp:165] Memory required for data: 1017971200
I1105 17:15:31.944157 24357 layer_factory.hpp:76] Creating layer inception_3b/pool_proj
I1105 17:15:31.944167 24357 net.cpp:106] Creating Layer inception_3b/pool_proj
I1105 17:15:31.944172 24357 net.cpp:454] inception_3b/pool_proj <- inception_3b/pool
I1105 17:15:31.944180 24357 net.cpp:411] inception_3b/pool_proj -> inception_3b/pool_proj
I1105 17:15:31.945310 24357 cudnn_conv_layer.cpp:194] Reallocating workspace storage: 20664
I1105 17:15:31.945330 24357 net.cpp:150] Setting up inception_3b/pool_proj
I1105 17:15:31.945339 24357 net.cpp:157] Top shape: 32 64 28 28 (1605632)
I1105 17:15:31.945344 24357 net.cpp:165] Memory required for data: 1024393728
I1105 17:15:31.945351 24357 layer_factory.hpp:76] Creating layer inception_3b/prelu_pool_proj
I1105 17:15:31.945359 24357 net.cpp:106] Creating Layer inception_3b/prelu_pool_proj
I1105 17:15:31.945364 24357 net.cpp:454] inception_3b/prelu_pool_proj <- inception_3b/pool_proj
I1105 17:15:31.945371 24357 net.cpp:397] inception_3b/prelu_pool_proj -> inception_3b/pool_proj (in-place)
I1105 17:15:31.945499 24357 net.cpp:150] Setting up inception_3b/prelu_pool_proj
I1105 17:15:31.945509 24357 net.cpp:157] Top shape: 32 64 28 28 (1605632)
I1105 17:15:31.945528 24357 net.cpp:165] Memory required for data: 1030816256
I1105 17:15:31.945534 24357 layer_factory.hpp:76] Creating layer inception_3b/output
I1105 17:15:31.945544 24357 net.cpp:106] Creating Layer inception_3b/output
I1105 17:15:31.945549 24357 net.cpp:454] inception_3b/output <- inception_3b/1x1
I1105 17:15:31.945554 24357 net.cpp:454] inception_3b/output <- inception_3b/3x3
I1105 17:15:31.945559 24357 net.cpp:454] inception_3b/output <- inception_3b/5x5
I1105 17:15:31.945564 24357 net.cpp:454] inception_3b/output <- inception_3b/pool_proj
I1105 17:15:31.945569 24357 net.cpp:411] inception_3b/output -> inception_3b/output
I1105 17:15:31.945596 24357 net.cpp:150] Setting up inception_3b/output
I1105 17:15:31.945605 24357 net.cpp:157] Top shape: 32 480 28 28 (12042240)
I1105 17:15:31.945610 24357 net.cpp:165] Memory required for data: 1078985216
I1105 17:15:31.945613 24357 layer_factory.hpp:76] Creating layer pool3/3x3_s2
I1105 17:15:31.945621 24357 net.cpp:106] Creating Layer pool3/3x3_s2
I1105 17:15:31.945626 24357 net.cpp:454] pool3/3x3_s2 <- inception_3b/output
I1105 17:15:31.945632 24357 net.cpp:411] pool3/3x3_s2 -> pool3/3x3_s2
I1105 17:15:31.946014 24357 net.cpp:150] Setting up pool3/3x3_s2
I1105 17:15:31.946027 24357 net.cpp:157] Top shape: 32 480 14 14 (3010560)
I1105 17:15:31.946032 24357 net.cpp:165] Memory required for data: 1091027456
I1105 17:15:31.946036 24357 layer_factory.hpp:76] Creating layer pool3/3x3_s2_pool3/3x3_s2_0_split
I1105 17:15:31.946045 24357 net.cpp:106] Creating Layer pool3/3x3_s2_pool3/3x3_s2_0_split
I1105 17:15:31.946049 24357 net.cpp:454] pool3/3x3_s2_pool3/3x3_s2_0_split <- pool3/3x3_s2
I1105 17:15:31.946055 24357 net.cpp:411] pool3/3x3_s2_pool3/3x3_s2_0_split -> pool3/3x3_s2_pool3/3x3_s2_0_split_0
I1105 17:15:31.946063 24357 net.cpp:411] pool3/3x3_s2_pool3/3x3_s2_0_split -> pool3/3x3_s2_pool3/3x3_s2_0_split_1
I1105 17:15:31.946069 24357 net.cpp:411] pool3/3x3_s2_pool3/3x3_s2_0_split -> pool3/3x3_s2_pool3/3x3_s2_0_split_2
I1105 17:15:31.946076 24357 net.cpp:411] pool3/3x3_s2_pool3/3x3_s2_0_split -> pool3/3x3_s2_pool3/3x3_s2_0_split_3
I1105 17:15:31.946132 24357 net.cpp:150] Setting up pool3/3x3_s2_pool3/3x3_s2_0_split
I1105 17:15:31.946141 24357 net.cpp:157] Top shape: 32 480 14 14 (3010560)
I1105 17:15:31.946146 24357 net.cpp:157] Top shape: 32 480 14 14 (3010560)
I1105 17:15:31.946151 24357 net.cpp:157] Top shape: 32 480 14 14 (3010560)
I1105 17:15:31.946156 24357 net.cpp:157] Top shape: 32 480 14 14 (3010560)
I1105 17:15:31.946159 24357 net.cpp:165] Memory required for data: 1139196416
I1105 17:15:31.946164 24357 layer_factory.hpp:76] Creating layer inception_4a/1x1
I1105 17:15:31.946174 24357 net.cpp:106] Creating Layer inception_4a/1x1
I1105 17:15:31.946179 24357 net.cpp:454] inception_4a/1x1 <- pool3/3x3_s2_pool3/3x3_s2_0_split_0
I1105 17:15:31.946187 24357 net.cpp:411] inception_4a/1x1 -> inception_4a/1x1
I1105 17:15:31.948246 24357 cudnn_conv_layer.cpp:194] Reallocating workspace storage: 10080
I1105 17:15:31.948453 24357 net.cpp:150] Setting up inception_4a/1x1
I1105 17:15:31.948465 24357 net.cpp:157] Top shape: 32 192 14 14 (1204224)
I1105 17:15:31.948470 24357 net.cpp:165] Memory required for data: 1144013312
I1105 17:15:31.948479 24357 layer_factory.hpp:76] Creating layer inception_4a/prelu_1x1
I1105 17:15:31.948488 24357 net.cpp:106] Creating Layer inception_4a/prelu_1x1
I1105 17:15:31.948493 24357 net.cpp:454] inception_4a/prelu_1x1 <- inception_4a/1x1
I1105 17:15:31.948501 24357 net.cpp:397] inception_4a/prelu_1x1 -> inception_4a/1x1 (in-place)
I1105 17:15:31.949059 24357 net.cpp:150] Setting up inception_4a/prelu_1x1
I1105 17:15:31.949079 24357 net.cpp:157] Top shape: 32 192 14 14 (1204224)
I1105 17:15:31.949084 24357 net.cpp:165] Memory required for data: 1148830208
I1105 17:15:31.949090 24357 layer_factory.hpp:76] Creating layer inception_4a/3x3_reduce
I1105 17:15:31.949098 24357 net.cpp:106] Creating Layer inception_4a/3x3_reduce
I1105 17:15:31.949103 24357 net.cpp:454] inception_4a/3x3_reduce <- pool3/3x3_s2_pool3/3x3_s2_0_split_1
I1105 17:15:31.949110 24357 net.cpp:411] inception_4a/3x3_reduce -> inception_4a/3x3_reduce
I1105 17:15:31.950402 24357 cudnn_conv_layer.cpp:194] Reallocating workspace storage: 10080
I1105 17:15:31.950428 24357 net.cpp:150] Setting up inception_4a/3x3_reduce
I1105 17:15:31.950434 24357 net.cpp:157] Top shape: 32 96 14 14 (602112)
I1105 17:15:31.950439 24357 net.cpp:165] Memory required for data: 1151238656
I1105 17:15:31.950445 24357 layer_factory.hpp:76] Creating layer inception_4a/prelu_3x3_reduce
I1105 17:15:31.950462 24357 net.cpp:106] Creating Layer inception_4a/prelu_3x3_reduce
I1105 17:15:31.950467 24357 net.cpp:454] inception_4a/prelu_3x3_reduce <- inception_4a/3x3_reduce
I1105 17:15:31.950474 24357 net.cpp:397] inception_4a/prelu_3x3_reduce -> inception_4a/3x3_reduce (in-place)
I1105 17:15:31.950584 24357 net.cpp:150] Setting up inception_4a/prelu_3x3_reduce
I1105 17:15:31.950593 24357 net.cpp:157] Top shape: 32 96 14 14 (602112)
I1105 17:15:31.950598 24357 net.cpp:165] Memory required for data: 1153647104
I1105 17:15:31.950603 24357 layer_factory.hpp:76] Creating layer inception_4a/3x3
I1105 17:15:31.950611 24357 net.cpp:106] Creating Layer inception_4a/3x3
I1105 17:15:31.950615 24357 net.cpp:454] inception_4a/3x3 <- inception_4a/3x3_reduce
I1105 17:15:31.950623 24357 net.cpp:411] inception_4a/3x3 -> inception_4a/3x3
I1105 17:15:31.952863 24357 cudnn_conv_layer.cpp:194] Reallocating workspace storage: 10080
I1105 17:15:31.952885 24357 net.cpp:150] Setting up inception_4a/3x3
I1105 17:15:31.952894 24357 net.cpp:157] Top shape: 32 208 14 14 (1304576)
I1105 17:15:31.952898 24357 net.cpp:165] Memory required for data: 1158865408
I1105 17:15:31.952913 24357 layer_factory.hpp:76] Creating layer inception_4a/prelu_3x3
I1105 17:15:31.952921 24357 net.cpp:106] Creating Layer inception_4a/prelu_3x3
I1105 17:15:31.952926 24357 net.cpp:454] inception_4a/prelu_3x3 <- inception_4a/3x3
I1105 17:15:31.952932 24357 net.cpp:397] inception_4a/prelu_3x3 -> inception_4a/3x3 (in-place)
I1105 17:15:31.953037 24357 net.cpp:150] Setting up inception_4a/prelu_3x3
I1105 17:15:31.953045 24357 net.cpp:157] Top shape: 32 208 14 14 (1304576)
I1105 17:15:31.953049 24357 net.cpp:165] Memory required for data: 1164083712
I1105 17:15:31.953055 24357 layer_factory.hpp:76] Creating layer inception_4a/5x5_reduce
I1105 17:15:31.953083 24357 net.cpp:106] Creating Layer inception_4a/5x5_reduce
I1105 17:15:31.953089 24357 net.cpp:454] inception_4a/5x5_reduce <- pool3/3x3_s2_pool3/3x3_s2_0_split_2
I1105 17:15:31.953097 24357 net.cpp:411] inception_4a/5x5_reduce -> inception_4a/5x5_reduce
I1105 17:15:31.954138 24357 cudnn_conv_layer.cpp:194] Reallocating workspace storage: 10080
I1105 17:15:31.954161 24357 net.cpp:150] Setting up inception_4a/5x5_reduce
I1105 17:15:31.954169 24357 net.cpp:157] Top shape: 32 16 14 14 (100352)
I1105 17:15:31.954172 24357 net.cpp:165] Memory required for data: 1164485120
I1105 17:15:31.954180 24357 layer_factory.hpp:76] Creating layer inception_4a/prelu_5x5_reduce
I1105 17:15:31.954188 24357 net.cpp:106] Creating Layer inception_4a/prelu_5x5_reduce
I1105 17:15:31.954193 24357 net.cpp:454] inception_4a/prelu_5x5_reduce <- inception_4a/5x5_reduce
I1105 17:15:31.954200 24357 net.cpp:397] inception_4a/prelu_5x5_reduce -> inception_4a/5x5_reduce (in-place)
I1105 17:15:31.954282 24357 net.cpp:150] Setting up inception_4a/prelu_5x5_reduce
I1105 17:15:31.954290 24357 net.cpp:157] Top shape: 32 16 14 14 (100352)
I1105 17:15:31.954294 24357 net.cpp:165] Memory required for data: 1164886528
I1105 17:15:31.954299 24357 layer_factory.hpp:76] Creating layer inception_4a/5x5
I1105 17:15:31.954308 24357 net.cpp:106] Creating Layer inception_4a/5x5
I1105 17:15:31.954313 24357 net.cpp:454] inception_4a/5x5 <- inception_4a/5x5_reduce
I1105 17:15:31.954320 24357 net.cpp:411] inception_4a/5x5 -> inception_4a/5x5
I1105 17:15:31.955407 24357 cudnn_conv_layer.cpp:194] Reallocating workspace storage: 13080
I1105 17:15:31.955431 24357 net.cpp:150] Setting up inception_4a/5x5
I1105 17:15:31.955438 24357 net.cpp:157] Top shape: 32 48 14 14 (301056)
I1105 17:15:31.955442 24357 net.cpp:165] Memory required for data: 1166090752
I1105 17:15:31.955461 24357 layer_factory.hpp:76] Creating layer inception_4a/prelu_5x5
I1105 17:15:31.955471 24357 net.cpp:106] Creating Layer inception_4a/prelu_5x5
I1105 17:15:31.955476 24357 net.cpp:454] inception_4a/prelu_5x5 <- inception_4a/5x5
I1105 17:15:31.955482 24357 net.cpp:397] inception_4a/prelu_5x5 -> inception_4a/5x5 (in-place)
I1105 17:15:31.955569 24357 net.cpp:150] Setting up inception_4a/prelu_5x5
I1105 17:15:31.955577 24357 net.cpp:157] Top shape: 32 48 14 14 (301056)
I1105 17:15:31.955581 24357 net.cpp:165] Memory required for data: 1167294976
I1105 17:15:31.955586 24357 layer_factory.hpp:76] Creating layer inception_4a/pool
I1105 17:15:31.955595 24357 net.cpp:106] Creating Layer inception_4a/pool
I1105 17:15:31.955600 24357 net.cpp:454] inception_4a/pool <- pool3/3x3_s2_pool3/3x3_s2_0_split_3
I1105 17:15:31.955605 24357 net.cpp:411] inception_4a/pool -> inception_4a/pool
I1105 17:15:31.955970 24357 net.cpp:150] Setting up inception_4a/pool
I1105 17:15:31.955982 24357 net.cpp:157] Top shape: 32 480 14 14 (3010560)
I1105 17:15:31.955986 24357 net.cpp:165] Memory required for data: 1179337216
I1105 17:15:31.955991 24357 layer_factory.hpp:76] Creating layer inception_4a/pool_proj
I1105 17:15:31.955998 24357 net.cpp:106] Creating Layer inception_4a/pool_proj
I1105 17:15:31.956003 24357 net.cpp:454] inception_4a/pool_proj <- inception_4a/pool
I1105 17:15:31.956012 24357 net.cpp:411] inception_4a/pool_proj -> inception_4a/pool_proj
I1105 17:15:31.957005 24357 cudnn_conv_layer.cpp:194] Reallocating workspace storage: 10080
I1105 17:15:31.957034 24357 net.cpp:150] Setting up inception_4a/pool_proj
I1105 17:15:31.957041 24357 net.cpp:157] Top shape: 32 64 14 14 (401408)
I1105 17:15:31.957046 24357 net.cpp:165] Memory required for data: 1180942848
I1105 17:15:31.957053 24357 layer_factory.hpp:76] Creating layer inception_4a/prelu_pool_proj
I1105 17:15:31.957061 24357 net.cpp:106] Creating Layer inception_4a/prelu_pool_proj
I1105 17:15:31.957065 24357 net.cpp:454] inception_4a/prelu_pool_proj <- inception_4a/pool_proj
I1105 17:15:31.957077 24357 net.cpp:397] inception_4a/prelu_pool_proj -> inception_4a/pool_proj (in-place)
I1105 17:15:31.957188 24357 net.cpp:150] Setting up inception_4a/prelu_pool_proj
I1105 17:15:31.957197 24357 net.cpp:157] Top shape: 32 64 14 14 (401408)
I1105 17:15:31.957201 24357 net.cpp:165] Memory required for data: 1182548480
I1105 17:15:31.957207 24357 layer_factory.hpp:76] Creating layer inception_4a/output
I1105 17:15:31.957213 24357 net.cpp:106] Creating Layer inception_4a/output
I1105 17:15:31.957217 24357 net.cpp:454] inception_4a/output <- inception_4a/1x1
I1105 17:15:31.957222 24357 net.cpp:454] inception_4a/output <- inception_4a/3x3
I1105 17:15:31.957227 24357 net.cpp:454] inception_4a/output <- inception_4a/5x5
I1105 17:15:31.957231 24357 net.cpp:454] inception_4a/output <- inception_4a/pool_proj
I1105 17:15:31.957238 24357 net.cpp:411] inception_4a/output -> inception_4a/output
I1105 17:15:31.957263 24357 net.cpp:150] Setting up inception_4a/output
I1105 17:15:31.957270 24357 net.cpp:157] Top shape: 32 512 14 14 (3211264)
I1105 17:15:31.957273 24357 net.cpp:165] Memory required for data: 1195393536
I1105 17:15:31.957278 24357 layer_factory.hpp:76] Creating layer inception_4a/output_inception_4a/output_0_split
I1105 17:15:31.957284 24357 net.cpp:106] Creating Layer inception_4a/output_inception_4a/output_0_split
I1105 17:15:31.957288 24357 net.cpp:454] inception_4a/output_inception_4a/output_0_split <- inception_4a/output
I1105 17:15:31.957294 24357 net.cpp:411] inception_4a/output_inception_4a/output_0_split -> inception_4a/output_inception_4a/output_0_split_0
I1105 17:15:31.957301 24357 net.cpp:411] inception_4a/output_inception_4a/output_0_split -> inception_4a/output_inception_4a/output_0_split_1
I1105 17:15:31.957309 24357 net.cpp:411] inception_4a/output_inception_4a/output_0_split -> inception_4a/output_inception_4a/output_0_split_2
I1105 17:15:31.957336 24357 net.cpp:411] inception_4a/output_inception_4a/output_0_split -> inception_4a/output_inception_4a/output_0_split_3
I1105 17:15:31.957353 24357 net.cpp:411] inception_4a/output_inception_4a/output_0_split -> inception_4a/output_inception_4a/output_0_split_4
I1105 17:15:31.957417 24357 net.cpp:150] Setting up inception_4a/output_inception_4a/output_0_split
I1105 17:15:31.957427 24357 net.cpp:157] Top shape: 32 512 14 14 (3211264)
I1105 17:15:31.957432 24357 net.cpp:157] Top shape: 32 512 14 14 (3211264)
I1105 17:15:31.957437 24357 net.cpp:157] Top shape: 32 512 14 14 (3211264)
I1105 17:15:31.957440 24357 net.cpp:157] Top shape: 32 512 14 14 (3211264)
I1105 17:15:31.957445 24357 net.cpp:157] Top shape: 32 512 14 14 (3211264)
I1105 17:15:31.957449 24357 net.cpp:165] Memory required for data: 1259618816
I1105 17:15:31.957453 24357 layer_factory.hpp:76] Creating layer loss1/ave_pool
I1105 17:15:31.957459 24357 net.cpp:106] Creating Layer loss1/ave_pool
I1105 17:15:31.957463 24357 net.cpp:454] loss1/ave_pool <- inception_4a/output_inception_4a/output_0_split_0
I1105 17:15:31.957468 24357 net.cpp:411] loss1/ave_pool -> loss1/ave_pool
I1105 17:15:31.957830 24357 net.cpp:150] Setting up loss1/ave_pool
I1105 17:15:31.957842 24357 net.cpp:157] Top shape: 32 512 4 4 (262144)
I1105 17:15:31.957846 24357 net.cpp:165] Memory required for data: 1260667392
I1105 17:15:31.957850 24357 layer_factory.hpp:76] Creating layer loss1/conv
I1105 17:15:31.957860 24357 net.cpp:106] Creating Layer loss1/conv
I1105 17:15:31.957865 24357 net.cpp:454] loss1/conv <- loss1/ave_pool
I1105 17:15:31.957872 24357 net.cpp:411] loss1/conv -> loss1/conv
I1105 17:15:31.959250 24357 cudnn_conv_layer.cpp:194] Reallocating workspace storage: 6840
I1105 17:15:31.959275 24357 net.cpp:150] Setting up loss1/conv
I1105 17:15:31.959282 24357 net.cpp:157] Top shape: 32 128 4 4 (65536)
I1105 17:15:31.959286 24357 net.cpp:165] Memory required for data: 1260929536
I1105 17:15:31.959312 24357 layer_factory.hpp:76] Creating layer loss1/prelu_conv
I1105 17:15:31.959321 24357 net.cpp:106] Creating Layer loss1/prelu_conv
I1105 17:15:31.959326 24357 net.cpp:454] loss1/prelu_conv <- loss1/conv
I1105 17:15:31.959332 24357 net.cpp:397] loss1/prelu_conv -> loss1/conv (in-place)
I1105 17:15:31.959429 24357 net.cpp:150] Setting up loss1/prelu_conv
I1105 17:15:31.959437 24357 net.cpp:157] Top shape: 32 128 4 4 (65536)
I1105 17:15:31.959441 24357 net.cpp:165] Memory required for data: 1261191680
I1105 17:15:31.959447 24357 layer_factory.hpp:76] Creating layer loss1/fc
I1105 17:15:31.959460 24357 net.cpp:106] Creating Layer loss1/fc
I1105 17:15:31.959465 24357 net.cpp:454] loss1/fc <- loss1/conv
I1105 17:15:31.959471 24357 net.cpp:411] loss1/fc -> loss1/fc
I1105 17:15:31.973981 24357 net.cpp:150] Setting up loss1/fc
I1105 17:15:31.974020 24357 net.cpp:157] Top shape: 32 1024 (32768)
I1105 17:15:31.974023 24357 net.cpp:165] Memory required for data: 1261322752
I1105 17:15:31.974035 24357 layer_factory.hpp:76] Creating layer loss1/prelu_fc
I1105 17:15:31.974057 24357 net.cpp:106] Creating Layer loss1/prelu_fc
I1105 17:15:31.974064 24357 net.cpp:454] loss1/prelu_fc <- loss1/fc
I1105 17:15:31.974072 24357 net.cpp:397] loss1/prelu_fc -> loss1/fc (in-place)
I1105 17:15:31.974179 24357 net.cpp:150] Setting up loss1/prelu_fc
I1105 17:15:31.974189 24357 net.cpp:157] Top shape: 32 1024 (32768)
I1105 17:15:31.974192 24357 net.cpp:165] Memory required for data: 1261453824
I1105 17:15:31.974197 24357 layer_factory.hpp:76] Creating layer loss1/drop_fc
I1105 17:15:31.974226 24357 net.cpp:106] Creating Layer loss1/drop_fc
I1105 17:15:31.974232 24357 net.cpp:454] loss1/drop_fc <- loss1/fc
I1105 17:15:31.974238 24357 net.cpp:397] loss1/drop_fc -> loss1/fc (in-place)
I1105 17:15:31.974269 24357 net.cpp:150] Setting up loss1/drop_fc
I1105 17:15:31.974278 24357 net.cpp:157] Top shape: 32 1024 (32768)
I1105 17:15:31.974282 24357 net.cpp:165] Memory required for data: 1261584896
I1105 17:15:31.974287 24357 layer_factory.hpp:76] Creating layer loss1/classifier2
I1105 17:15:31.974311 24357 net.cpp:106] Creating Layer loss1/classifier2
I1105 17:15:31.974316 24357 net.cpp:454] loss1/classifier2 <- loss1/fc
I1105 17:15:31.974336 24357 net.cpp:411] loss1/classifier2 -> loss1/classifier
I1105 17:15:31.974465 24357 net.cpp:150] Setting up loss1/classifier2
I1105 17:15:31.974474 24357 net.cpp:157] Top shape: 32 2 (64)
I1105 17:15:31.974478 24357 net.cpp:165] Memory required for data: 1261585152
I1105 17:15:31.974484 24357 layer_factory.hpp:76] Creating layer loss1/loss
I1105 17:15:31.974493 24357 net.cpp:106] Creating Layer loss1/loss
I1105 17:15:31.974498 24357 net.cpp:454] loss1/loss <- loss1/classifier
I1105 17:15:31.974503 24357 net.cpp:454] loss1/loss <- label_data_1_split_0
I1105 17:15:31.974509 24357 net.cpp:411] loss1/loss -> loss1/loss1
I1105 17:15:31.974522 24357 layer_factory.hpp:76] Creating layer loss1/loss
I1105 17:15:31.974823 24357 net.cpp:150] Setting up loss1/loss
I1105 17:15:31.974833 24357 net.cpp:157] Top shape: (1)
I1105 17:15:31.974838 24357 net.cpp:160]     with loss weight 0.3
I1105 17:15:31.974860 24357 net.cpp:165] Memory required for data: 1261585156
I1105 17:15:31.974865 24357 layer_factory.hpp:76] Creating layer inception_4b/1x1
I1105 17:15:31.974877 24357 net.cpp:106] Creating Layer inception_4b/1x1
I1105 17:15:31.974882 24357 net.cpp:454] inception_4b/1x1 <- inception_4a/output_inception_4a/output_0_split_1
I1105 17:15:31.974905 24357 net.cpp:411] inception_4b/1x1 -> inception_4b/1x1
I1105 17:15:31.976595 24357 cudnn_conv_layer.cpp:194] Reallocating workspace storage: 10080
I1105 17:15:31.976629 24357 net.cpp:150] Setting up inception_4b/1x1
I1105 17:15:31.976637 24357 net.cpp:157] Top shape: 32 160 14 14 (1003520)
I1105 17:15:31.976641 24357 net.cpp:165] Memory required for data: 1265599236
I1105 17:15:31.976649 24357 layer_factory.hpp:76] Creating layer inception_4b/prelu_1x1
I1105 17:15:31.976658 24357 net.cpp:106] Creating Layer inception_4b/prelu_1x1
I1105 17:15:31.976663 24357 net.cpp:454] inception_4b/prelu_1x1 <- inception_4b/1x1
I1105 17:15:31.976671 24357 net.cpp:397] inception_4b/prelu_1x1 -> inception_4b/1x1 (in-place)
I1105 17:15:31.977294 24357 net.cpp:150] Setting up inception_4b/prelu_1x1
I1105 17:15:31.977309 24357 net.cpp:157] Top shape: 32 160 14 14 (1003520)
I1105 17:15:31.977314 24357 net.cpp:165] Memory required for data: 1269613316
I1105 17:15:31.977320 24357 layer_factory.hpp:76] Creating layer inception_4b/3x3_reduce
I1105 17:15:31.977332 24357 net.cpp:106] Creating Layer inception_4b/3x3_reduce
I1105 17:15:31.977337 24357 net.cpp:454] inception_4b/3x3_reduce <- inception_4a/output_inception_4a/output_0_split_2
I1105 17:15:31.977346 24357 net.cpp:411] inception_4b/3x3_reduce -> inception_4b/3x3_reduce
I1105 17:15:31.978970 24357 cudnn_conv_layer.cpp:194] Reallocating workspace storage: 10080
I1105 17:15:31.979003 24357 net.cpp:150] Setting up inception_4b/3x3_reduce
I1105 17:15:31.979012 24357 net.cpp:157] Top shape: 32 112 14 14 (702464)
I1105 17:15:31.979015 24357 net.cpp:165] Memory required for data: 1272423172
I1105 17:15:31.979023 24357 layer_factory.hpp:76] Creating layer inception_4b/prelu_3x3_reduce
I1105 17:15:31.979035 24357 net.cpp:106] Creating Layer inception_4b/prelu_3x3_reduce
I1105 17:15:31.979042 24357 net.cpp:454] inception_4b/prelu_3x3_reduce <- inception_4b/3x3_reduce
I1105 17:15:31.979048 24357 net.cpp:397] inception_4b/prelu_3x3_reduce -> inception_4b/3x3_reduce (in-place)
I1105 17:15:31.979151 24357 net.cpp:150] Setting up inception_4b/prelu_3x3_reduce
I1105 17:15:31.979161 24357 net.cpp:157] Top shape: 32 112 14 14 (702464)
I1105 17:15:31.979166 24357 net.cpp:165] Memory required for data: 1275233028
I1105 17:15:31.979171 24357 layer_factory.hpp:76] Creating layer inception_4b/3x3
I1105 17:15:31.979182 24357 net.cpp:106] Creating Layer inception_4b/3x3
I1105 17:15:31.979187 24357 net.cpp:454] inception_4b/3x3 <- inception_4b/3x3_reduce
I1105 17:15:31.979193 24357 net.cpp:411] inception_4b/3x3 -> inception_4b/3x3
I1105 17:15:31.981976 24357 cudnn_conv_layer.cpp:194] Reallocating workspace storage: 10080
I1105 17:15:31.982009 24357 net.cpp:150] Setting up inception_4b/3x3
I1105 17:15:31.982018 24357 net.cpp:157] Top shape: 32 224 14 14 (1404928)
I1105 17:15:31.982043 24357 net.cpp:165] Memory required for data: 1280852740
I1105 17:15:31.982053 24357 layer_factory.hpp:76] Creating layer inception_4b/prelu_3x3
I1105 17:15:31.982062 24357 net.cpp:106] Creating Layer inception_4b/prelu_3x3
I1105 17:15:31.982067 24357 net.cpp:454] inception_4b/prelu_3x3 <- inception_4b/3x3
I1105 17:15:31.982076 24357 net.cpp:397] inception_4b/prelu_3x3 -> inception_4b/3x3 (in-place)
I1105 17:15:31.982233 24357 net.cpp:150] Setting up inception_4b/prelu_3x3
I1105 17:15:31.982242 24357 net.cpp:157] Top shape: 32 224 14 14 (1404928)
I1105 17:15:31.982256 24357 net.cpp:165] Memory required for data: 1286472452
I1105 17:15:31.982264 24357 layer_factory.hpp:76] Creating layer inception_4b/5x5_reduce
I1105 17:15:31.982273 24357 net.cpp:106] Creating Layer inception_4b/5x5_reduce
I1105 17:15:31.982278 24357 net.cpp:454] inception_4b/5x5_reduce <- inception_4a/output_inception_4a/output_0_split_3
I1105 17:15:31.982287 24357 net.cpp:411] inception_4b/5x5_reduce -> inception_4b/5x5_reduce
I1105 17:15:31.983247 24357 cudnn_conv_layer.cpp:194] Reallocating workspace storage: 10080
I1105 17:15:31.983275 24357 net.cpp:150] Setting up inception_4b/5x5_reduce
I1105 17:15:31.983283 24357 net.cpp:157] Top shape: 32 24 14 14 (150528)
I1105 17:15:31.983289 24357 net.cpp:165] Memory required for data: 1287074564
I1105 17:15:31.983296 24357 layer_factory.hpp:76] Creating layer inception_4b/prelu_5x5_reduce
I1105 17:15:31.983306 24357 net.cpp:106] Creating Layer inception_4b/prelu_5x5_reduce
I1105 17:15:31.983312 24357 net.cpp:454] inception_4b/prelu_5x5_reduce <- inception_4b/5x5_reduce
I1105 17:15:31.983320 24357 net.cpp:397] inception_4b/prelu_5x5_reduce -> inception_4b/5x5_reduce (in-place)
I1105 17:15:31.983414 24357 net.cpp:150] Setting up inception_4b/prelu_5x5_reduce
I1105 17:15:31.983423 24357 net.cpp:157] Top shape: 32 24 14 14 (150528)
I1105 17:15:31.983428 24357 net.cpp:165] Memory required for data: 1287676676
I1105 17:15:31.983433 24357 layer_factory.hpp:76] Creating layer inception_4b/5x5
I1105 17:15:31.983443 24357 net.cpp:106] Creating Layer inception_4b/5x5
I1105 17:15:31.983446 24357 net.cpp:454] inception_4b/5x5 <- inception_4b/5x5_reduce
I1105 17:15:31.983453 24357 net.cpp:411] inception_4b/5x5 -> inception_4b/5x5
I1105 17:15:31.984731 24357 cudnn_conv_layer.cpp:194] Reallocating workspace storage: 13080
I1105 17:15:31.984756 24357 net.cpp:150] Setting up inception_4b/5x5
I1105 17:15:31.984765 24357 net.cpp:157] Top shape: 32 64 14 14 (401408)
I1105 17:15:31.984769 24357 net.cpp:165] Memory required for data: 1289282308
I1105 17:15:31.984777 24357 layer_factory.hpp:76] Creating layer inception_4b/prelu_5x5
I1105 17:15:31.984784 24357 net.cpp:106] Creating Layer inception_4b/prelu_5x5
I1105 17:15:31.984789 24357 net.cpp:454] inception_4b/prelu_5x5 <- inception_4b/5x5
I1105 17:15:31.984796 24357 net.cpp:397] inception_4b/prelu_5x5 -> inception_4b/5x5 (in-place)
I1105 17:15:31.984899 24357 net.cpp:150] Setting up inception_4b/prelu_5x5
I1105 17:15:31.984910 24357 net.cpp:157] Top shape: 32 64 14 14 (401408)
I1105 17:15:31.984913 24357 net.cpp:165] Memory required for data: 1290887940
I1105 17:15:31.984920 24357 layer_factory.hpp:76] Creating layer inception_4b/pool
I1105 17:15:31.984927 24357 net.cpp:106] Creating Layer inception_4b/pool
I1105 17:15:31.984931 24357 net.cpp:454] inception_4b/pool <- inception_4a/output_inception_4a/output_0_split_4
I1105 17:15:31.984937 24357 net.cpp:411] inception_4b/pool -> inception_4b/pool
I1105 17:15:31.985323 24357 net.cpp:150] Setting up inception_4b/pool
I1105 17:15:31.985337 24357 net.cpp:157] Top shape: 32 512 14 14 (3211264)
I1105 17:15:31.985340 24357 net.cpp:165] Memory required for data: 1303732996
I1105 17:15:31.985345 24357 layer_factory.hpp:76] Creating layer inception_4b/pool_proj
I1105 17:15:31.985357 24357 net.cpp:106] Creating Layer inception_4b/pool_proj
I1105 17:15:31.985362 24357 net.cpp:454] inception_4b/pool_proj <- inception_4b/pool
I1105 17:15:31.985368 24357 net.cpp:411] inception_4b/pool_proj -> inception_4b/pool_proj
I1105 17:15:31.986591 24357 cudnn_conv_layer.cpp:194] Reallocating workspace storage: 10080
I1105 17:15:31.986620 24357 net.cpp:150] Setting up inception_4b/pool_proj
I1105 17:15:31.986629 24357 net.cpp:157] Top shape: 32 64 14 14 (401408)
I1105 17:15:31.986632 24357 net.cpp:165] Memory required for data: 1305338628
I1105 17:15:31.986639 24357 layer_factory.hpp:76] Creating layer inception_4b/prelu_pool_proj
I1105 17:15:31.986649 24357 net.cpp:106] Creating Layer inception_4b/prelu_pool_proj
I1105 17:15:31.986654 24357 net.cpp:454] inception_4b/prelu_pool_proj <- inception_4b/pool_proj
I1105 17:15:31.986660 24357 net.cpp:397] inception_4b/prelu_pool_proj -> inception_4b/pool_proj (in-place)
I1105 17:15:31.986753 24357 net.cpp:150] Setting up inception_4b/prelu_pool_proj
I1105 17:15:31.986763 24357 net.cpp:157] Top shape: 32 64 14 14 (401408)
I1105 17:15:31.986768 24357 net.cpp:165] Memory required for data: 1306944260
I1105 17:15:31.986773 24357 layer_factory.hpp:76] Creating layer inception_4b/output
I1105 17:15:31.986781 24357 net.cpp:106] Creating Layer inception_4b/output
I1105 17:15:31.986785 24357 net.cpp:454] inception_4b/output <- inception_4b/1x1
I1105 17:15:31.986790 24357 net.cpp:454] inception_4b/output <- inception_4b/3x3
I1105 17:15:31.986795 24357 net.cpp:454] inception_4b/output <- inception_4b/5x5
I1105 17:15:31.986800 24357 net.cpp:454] inception_4b/output <- inception_4b/pool_proj
I1105 17:15:31.986805 24357 net.cpp:411] inception_4b/output -> inception_4b/output
I1105 17:15:31.986831 24357 net.cpp:150] Setting up inception_4b/output
I1105 17:15:31.986841 24357 net.cpp:157] Top shape: 32 512 14 14 (3211264)
I1105 17:15:31.986845 24357 net.cpp:165] Memory required for data: 1319789316
I1105 17:15:31.986850 24357 layer_factory.hpp:76] Creating layer inception_4b/output_inception_4b/output_0_split
I1105 17:15:31.986855 24357 net.cpp:106] Creating Layer inception_4b/output_inception_4b/output_0_split
I1105 17:15:31.986867 24357 net.cpp:454] inception_4b/output_inception_4b/output_0_split <- inception_4b/output
I1105 17:15:31.986883 24357 net.cpp:411] inception_4b/output_inception_4b/output_0_split -> inception_4b/output_inception_4b/output_0_split_0
I1105 17:15:31.986891 24357 net.cpp:411] inception_4b/output_inception_4b/output_0_split -> inception_4b/output_inception_4b/output_0_split_1
I1105 17:15:31.986898 24357 net.cpp:411] inception_4b/output_inception_4b/output_0_split -> inception_4b/output_inception_4b/output_0_split_2
I1105 17:15:31.986906 24357 net.cpp:411] inception_4b/output_inception_4b/output_0_split -> inception_4b/output_inception_4b/output_0_split_3
I1105 17:15:31.986963 24357 net.cpp:150] Setting up inception_4b/output_inception_4b/output_0_split
I1105 17:15:31.986971 24357 net.cpp:157] Top shape: 32 512 14 14 (3211264)
I1105 17:15:31.986976 24357 net.cpp:157] Top shape: 32 512 14 14 (3211264)
I1105 17:15:31.986981 24357 net.cpp:157] Top shape: 32 512 14 14 (3211264)
I1105 17:15:31.986985 24357 net.cpp:157] Top shape: 32 512 14 14 (3211264)
I1105 17:15:31.986989 24357 net.cpp:165] Memory required for data: 1371169540
I1105 17:15:31.986994 24357 layer_factory.hpp:76] Creating layer inception_4c/1x1
I1105 17:15:31.987000 24357 net.cpp:106] Creating Layer inception_4c/1x1
I1105 17:15:31.987004 24357 net.cpp:454] inception_4c/1x1 <- inception_4b/output_inception_4b/output_0_split_0
I1105 17:15:31.987012 24357 net.cpp:411] inception_4c/1x1 -> inception_4c/1x1
I1105 17:15:31.988708 24357 cudnn_conv_layer.cpp:194] Reallocating workspace storage: 10080
I1105 17:15:31.988734 24357 net.cpp:150] Setting up inception_4c/1x1
I1105 17:15:31.988740 24357 net.cpp:157] Top shape: 32 128 14 14 (802816)
I1105 17:15:31.988745 24357 net.cpp:165] Memory required for data: 1374380804
I1105 17:15:31.988752 24357 layer_factory.hpp:76] Creating layer inception_4c/prelu_1x1
I1105 17:15:31.988761 24357 net.cpp:106] Creating Layer inception_4c/prelu_1x1
I1105 17:15:31.988766 24357 net.cpp:454] inception_4c/prelu_1x1 <- inception_4c/1x1
I1105 17:15:31.988773 24357 net.cpp:397] inception_4c/prelu_1x1 -> inception_4c/1x1 (in-place)
I1105 17:15:31.988896 24357 net.cpp:150] Setting up inception_4c/prelu_1x1
I1105 17:15:31.988906 24357 net.cpp:157] Top shape: 32 128 14 14 (802816)
I1105 17:15:31.988910 24357 net.cpp:165] Memory required for data: 1377592068
I1105 17:15:31.988916 24357 layer_factory.hpp:76] Creating layer inception_4c/3x3_reduce
I1105 17:15:31.988925 24357 net.cpp:106] Creating Layer inception_4c/3x3_reduce
I1105 17:15:31.988930 24357 net.cpp:454] inception_4c/3x3_reduce <- inception_4b/output_inception_4b/output_0_split_1
I1105 17:15:31.988937 24357 net.cpp:411] inception_4c/3x3_reduce -> inception_4c/3x3_reduce
I1105 17:15:31.990330 24357 cudnn_conv_layer.cpp:194] Reallocating workspace storage: 10080
I1105 17:15:31.990353 24357 net.cpp:150] Setting up inception_4c/3x3_reduce
I1105 17:15:31.990361 24357 net.cpp:157] Top shape: 32 128 14 14 (802816)
I1105 17:15:31.990365 24357 net.cpp:165] Memory required for data: 1380803332
I1105 17:15:31.990372 24357 layer_factory.hpp:76] Creating layer inception_4c/prelu_3x3_reduce
I1105 17:15:31.990382 24357 net.cpp:106] Creating Layer inception_4c/prelu_3x3_reduce
I1105 17:15:31.990387 24357 net.cpp:454] inception_4c/prelu_3x3_reduce <- inception_4c/3x3_reduce
I1105 17:15:31.990394 24357 net.cpp:397] inception_4c/prelu_3x3_reduce -> inception_4c/3x3_reduce (in-place)
I1105 17:15:31.990485 24357 net.cpp:150] Setting up inception_4c/prelu_3x3_reduce
I1105 17:15:31.990495 24357 net.cpp:157] Top shape: 32 128 14 14 (802816)
I1105 17:15:31.990499 24357 net.cpp:165] Memory required for data: 1384014596
I1105 17:15:31.990504 24357 layer_factory.hpp:76] Creating layer inception_4c/3x3
I1105 17:15:31.990514 24357 net.cpp:106] Creating Layer inception_4c/3x3
I1105 17:15:31.990519 24357 net.cpp:454] inception_4c/3x3 <- inception_4c/3x3_reduce
I1105 17:15:31.990525 24357 net.cpp:411] inception_4c/3x3 -> inception_4c/3x3
I1105 17:15:31.993645 24357 cudnn_conv_layer.cpp:194] Reallocating workspace storage: 10080
I1105 17:15:31.993672 24357 net.cpp:150] Setting up inception_4c/3x3
I1105 17:15:31.993680 24357 net.cpp:157] Top shape: 32 256 14 14 (1605632)
I1105 17:15:31.993685 24357 net.cpp:165] Memory required for data: 1390437124
I1105 17:15:31.993691 24357 layer_factory.hpp:76] Creating layer inception_4c/prelu_3x3
I1105 17:15:31.993707 24357 net.cpp:106] Creating Layer inception_4c/prelu_3x3
I1105 17:15:31.993712 24357 net.cpp:454] inception_4c/prelu_3x3 <- inception_4c/3x3
I1105 17:15:31.993719 24357 net.cpp:397] inception_4c/prelu_3x3 -> inception_4c/3x3 (in-place)
I1105 17:15:31.993850 24357 net.cpp:150] Setting up inception_4c/prelu_3x3
I1105 17:15:31.993861 24357 net.cpp:157] Top shape: 32 256 14 14 (1605632)
I1105 17:15:31.993866 24357 net.cpp:165] Memory required for data: 1396859652
I1105 17:15:31.993880 24357 layer_factory.hpp:76] Creating layer inception_4c/5x5_reduce
I1105 17:15:31.993891 24357 net.cpp:106] Creating Layer inception_4c/5x5_reduce
I1105 17:15:31.993896 24357 net.cpp:454] inception_4c/5x5_reduce <- inception_4b/output_inception_4b/output_0_split_2
I1105 17:15:31.993903 24357 net.cpp:411] inception_4c/5x5_reduce -> inception_4c/5x5_reduce
I1105 17:15:31.995025 24357 cudnn_conv_layer.cpp:194] Reallocating workspace storage: 10080
I1105 17:15:31.995048 24357 net.cpp:150] Setting up inception_4c/5x5_reduce
I1105 17:15:31.995055 24357 net.cpp:157] Top shape: 32 24 14 14 (150528)
I1105 17:15:31.995059 24357 net.cpp:165] Memory required for data: 1397461764
I1105 17:15:31.995066 24357 layer_factory.hpp:76] Creating layer inception_4c/prelu_5x5_reduce
I1105 17:15:31.995075 24357 net.cpp:106] Creating Layer inception_4c/prelu_5x5_reduce
I1105 17:15:31.995080 24357 net.cpp:454] inception_4c/prelu_5x5_reduce <- inception_4c/5x5_reduce
I1105 17:15:31.995087 24357 net.cpp:397] inception_4c/prelu_5x5_reduce -> inception_4c/5x5_reduce (in-place)
I1105 17:15:31.995195 24357 net.cpp:150] Setting up inception_4c/prelu_5x5_reduce
I1105 17:15:31.995204 24357 net.cpp:157] Top shape: 32 24 14 14 (150528)
I1105 17:15:31.995208 24357 net.cpp:165] Memory required for data: 1398063876
I1105 17:15:31.995224 24357 layer_factory.hpp:76] Creating layer inception_4c/5x5
I1105 17:15:31.995234 24357 net.cpp:106] Creating Layer inception_4c/5x5
I1105 17:15:31.995239 24357 net.cpp:454] inception_4c/5x5 <- inception_4c/5x5_reduce
I1105 17:15:31.995245 24357 net.cpp:411] inception_4c/5x5 -> inception_4c/5x5
I1105 17:15:31.996924 24357 cudnn_conv_layer.cpp:194] Reallocating workspace storage: 13080
I1105 17:15:31.996951 24357 net.cpp:150] Setting up inception_4c/5x5
I1105 17:15:31.996958 24357 net.cpp:157] Top shape: 32 64 14 14 (401408)
I1105 17:15:31.996963 24357 net.cpp:165] Memory required for data: 1399669508
I1105 17:15:31.996969 24357 layer_factory.hpp:76] Creating layer inception_4c/prelu_5x5
I1105 17:15:31.996978 24357 net.cpp:106] Creating Layer inception_4c/prelu_5x5
I1105 17:15:31.996983 24357 net.cpp:454] inception_4c/prelu_5x5 <- inception_4c/5x5
I1105 17:15:31.996989 24357 net.cpp:397] inception_4c/prelu_5x5 -> inception_4c/5x5 (in-place)
I1105 17:15:31.997118 24357 net.cpp:150] Setting up inception_4c/prelu_5x5
I1105 17:15:31.997128 24357 net.cpp:157] Top shape: 32 64 14 14 (401408)
I1105 17:15:31.997133 24357 net.cpp:165] Memory required for data: 1401275140
I1105 17:15:31.997138 24357 layer_factory.hpp:76] Creating layer inception_4c/pool
I1105 17:15:31.997145 24357 net.cpp:106] Creating Layer inception_4c/pool
I1105 17:15:31.997150 24357 net.cpp:454] inception_4c/pool <- inception_4b/output_inception_4b/output_0_split_3
I1105 17:15:31.997158 24357 net.cpp:411] inception_4c/pool -> inception_4c/pool
I1105 17:15:31.997350 24357 net.cpp:150] Setting up inception_4c/pool
I1105 17:15:31.997362 24357 net.cpp:157] Top shape: 32 512 14 14 (3211264)
I1105 17:15:31.997366 24357 net.cpp:165] Memory required for data: 1414120196
I1105 17:15:31.997370 24357 layer_factory.hpp:76] Creating layer inception_4c/pool_proj
I1105 17:15:31.997378 24357 net.cpp:106] Creating Layer inception_4c/pool_proj
I1105 17:15:31.997382 24357 net.cpp:454] inception_4c/pool_proj <- inception_4c/pool
I1105 17:15:31.997390 24357 net.cpp:411] inception_4c/pool_proj -> inception_4c/pool_proj
I1105 17:15:31.998772 24357 cudnn_conv_layer.cpp:194] Reallocating workspace storage: 10080
I1105 17:15:31.998800 24357 net.cpp:150] Setting up inception_4c/pool_proj
I1105 17:15:31.998808 24357 net.cpp:157] Top shape: 32 64 14 14 (401408)
I1105 17:15:31.998812 24357 net.cpp:165] Memory required for data: 1415725828
I1105 17:15:31.998819 24357 layer_factory.hpp:76] Creating layer inception_4c/prelu_pool_proj
I1105 17:15:31.998828 24357 net.cpp:106] Creating Layer inception_4c/prelu_pool_proj
I1105 17:15:31.998833 24357 net.cpp:454] inception_4c/prelu_pool_proj <- inception_4c/pool_proj
I1105 17:15:31.998841 24357 net.cpp:397] inception_4c/prelu_pool_proj -> inception_4c/pool_proj (in-place)
I1105 17:15:31.998939 24357 net.cpp:150] Setting up inception_4c/prelu_pool_proj
I1105 17:15:31.998949 24357 net.cpp:157] Top shape: 32 64 14 14 (401408)
I1105 17:15:31.998952 24357 net.cpp:165] Memory required for data: 1417331460
I1105 17:15:31.998957 24357 layer_factory.hpp:76] Creating layer inception_4c/output
I1105 17:15:31.998965 24357 net.cpp:106] Creating Layer inception_4c/output
I1105 17:15:31.998970 24357 net.cpp:454] inception_4c/output <- inception_4c/1x1
I1105 17:15:31.998975 24357 net.cpp:454] inception_4c/output <- inception_4c/3x3
I1105 17:15:31.998980 24357 net.cpp:454] inception_4c/output <- inception_4c/5x5
I1105 17:15:31.998985 24357 net.cpp:454] inception_4c/output <- inception_4c/pool_proj
I1105 17:15:31.998989 24357 net.cpp:411] inception_4c/output -> inception_4c/output
I1105 17:15:31.999014 24357 net.cpp:150] Setting up inception_4c/output
I1105 17:15:31.999023 24357 net.cpp:157] Top shape: 32 512 14 14 (3211264)
I1105 17:15:31.999027 24357 net.cpp:165] Memory required for data: 1430176516
I1105 17:15:31.999030 24357 layer_factory.hpp:76] Creating layer inception_4c/output_inception_4c/output_0_split
I1105 17:15:31.999055 24357 net.cpp:106] Creating Layer inception_4c/output_inception_4c/output_0_split
I1105 17:15:31.999059 24357 net.cpp:454] inception_4c/output_inception_4c/output_0_split <- inception_4c/output
I1105 17:15:31.999078 24357 net.cpp:411] inception_4c/output_inception_4c/output_0_split -> inception_4c/output_inception_4c/output_0_split_0
I1105 17:15:31.999088 24357 net.cpp:411] inception_4c/output_inception_4c/output_0_split -> inception_4c/output_inception_4c/output_0_split_1
I1105 17:15:31.999095 24357 net.cpp:411] inception_4c/output_inception_4c/output_0_split -> inception_4c/output_inception_4c/output_0_split_2
I1105 17:15:31.999102 24357 net.cpp:411] inception_4c/output_inception_4c/output_0_split -> inception_4c/output_inception_4c/output_0_split_3
I1105 17:15:31.999163 24357 net.cpp:150] Setting up inception_4c/output_inception_4c/output_0_split
I1105 17:15:31.999172 24357 net.cpp:157] Top shape: 32 512 14 14 (3211264)
I1105 17:15:31.999177 24357 net.cpp:157] Top shape: 32 512 14 14 (3211264)
I1105 17:15:31.999182 24357 net.cpp:157] Top shape: 32 512 14 14 (3211264)
I1105 17:15:31.999186 24357 net.cpp:157] Top shape: 32 512 14 14 (3211264)
I1105 17:15:31.999191 24357 net.cpp:165] Memory required for data: 1481556740
I1105 17:15:31.999194 24357 layer_factory.hpp:76] Creating layer inception_4d/1x1
I1105 17:15:31.999202 24357 net.cpp:106] Creating Layer inception_4d/1x1
I1105 17:15:31.999207 24357 net.cpp:454] inception_4d/1x1 <- inception_4c/output_inception_4c/output_0_split_0
I1105 17:15:31.999213 24357 net.cpp:411] inception_4d/1x1 -> inception_4d/1x1
I1105 17:15:32.000576 24357 cudnn_conv_layer.cpp:194] Reallocating workspace storage: 10080
I1105 17:15:32.000601 24357 net.cpp:150] Setting up inception_4d/1x1
I1105 17:15:32.000607 24357 net.cpp:157] Top shape: 32 112 14 14 (702464)
I1105 17:15:32.000612 24357 net.cpp:165] Memory required for data: 1484366596
I1105 17:15:32.000618 24357 layer_factory.hpp:76] Creating layer inception_4d/prelu_1x1
I1105 17:15:32.000627 24357 net.cpp:106] Creating Layer inception_4d/prelu_1x1
I1105 17:15:32.000633 24357 net.cpp:454] inception_4d/prelu_1x1 <- inception_4d/1x1
I1105 17:15:32.000639 24357 net.cpp:397] inception_4d/prelu_1x1 -> inception_4d/1x1 (in-place)
I1105 17:15:32.000736 24357 net.cpp:150] Setting up inception_4d/prelu_1x1
I1105 17:15:32.000746 24357 net.cpp:157] Top shape: 32 112 14 14 (702464)
I1105 17:15:32.000751 24357 net.cpp:165] Memory required for data: 1487176452
I1105 17:15:32.000756 24357 layer_factory.hpp:76] Creating layer inception_4d/3x3_reduce
I1105 17:15:32.000764 24357 net.cpp:106] Creating Layer inception_4d/3x3_reduce
I1105 17:15:32.000769 24357 net.cpp:454] inception_4d/3x3_reduce <- inception_4c/output_inception_4c/output_0_split_1
I1105 17:15:32.000777 24357 net.cpp:411] inception_4d/3x3_reduce -> inception_4d/3x3_reduce
I1105 17:15:32.002066 24357 cudnn_conv_layer.cpp:194] Reallocating workspace storage: 10080
I1105 17:15:32.002090 24357 net.cpp:150] Setting up inception_4d/3x3_reduce
I1105 17:15:32.002097 24357 net.cpp:157] Top shape: 32 144 14 14 (903168)
I1105 17:15:32.002102 24357 net.cpp:165] Memory required for data: 1490789124
I1105 17:15:32.002110 24357 layer_factory.hpp:76] Creating layer inception_4d/prelu_3x3_reduce
I1105 17:15:32.002118 24357 net.cpp:106] Creating Layer inception_4d/prelu_3x3_reduce
I1105 17:15:32.002123 24357 net.cpp:454] inception_4d/prelu_3x3_reduce <- inception_4d/3x3_reduce
I1105 17:15:32.002131 24357 net.cpp:397] inception_4d/prelu_3x3_reduce -> inception_4d/3x3_reduce (in-place)
I1105 17:15:32.002239 24357 net.cpp:150] Setting up inception_4d/prelu_3x3_reduce
I1105 17:15:32.002249 24357 net.cpp:157] Top shape: 32 144 14 14 (903168)
I1105 17:15:32.002254 24357 net.cpp:165] Memory required for data: 1494401796
I1105 17:15:32.002259 24357 layer_factory.hpp:76] Creating layer inception_4d/3x3
I1105 17:15:32.002267 24357 net.cpp:106] Creating Layer inception_4d/3x3
I1105 17:15:32.002274 24357 net.cpp:454] inception_4d/3x3 <- inception_4d/3x3_reduce
I1105 17:15:32.002279 24357 net.cpp:411] inception_4d/3x3 -> inception_4d/3x3
I1105 17:15:32.006014 24357 cudnn_conv_layer.cpp:194] Reallocating workspace storage: 10080
I1105 17:15:32.006055 24357 net.cpp:150] Setting up inception_4d/3x3
I1105 17:15:32.006073 24357 net.cpp:157] Top shape: 32 288 14 14 (1806336)
I1105 17:15:32.006078 24357 net.cpp:165] Memory required for data: 1501627140
I1105 17:15:32.006086 24357 layer_factory.hpp:76] Creating layer inception_4d/prelu_3x3
I1105 17:15:32.006098 24357 net.cpp:106] Creating Layer inception_4d/prelu_3x3
I1105 17:15:32.006103 24357 net.cpp:454] inception_4d/prelu_3x3 <- inception_4d/3x3
I1105 17:15:32.006111 24357 net.cpp:397] inception_4d/prelu_3x3 -> inception_4d/3x3 (in-place)
I1105 17:15:32.006305 24357 net.cpp:150] Setting up inception_4d/prelu_3x3
I1105 17:15:32.006315 24357 net.cpp:157] Top shape: 32 288 14 14 (1806336)
I1105 17:15:32.006319 24357 net.cpp:165] Memory required for data: 1508852484
I1105 17:15:32.006333 24357 layer_factory.hpp:76] Creating layer inception_4d/5x5_reduce
I1105 17:15:32.006352 24357 net.cpp:106] Creating Layer inception_4d/5x5_reduce
I1105 17:15:32.006357 24357 net.cpp:454] inception_4d/5x5_reduce <- inception_4c/output_inception_4c/output_0_split_2
I1105 17:15:32.006364 24357 net.cpp:411] inception_4d/5x5_reduce -> inception_4d/5x5_reduce
I1105 17:15:32.007573 24357 cudnn_conv_layer.cpp:194] Reallocating workspace storage: 10080
I1105 17:15:32.007601 24357 net.cpp:150] Setting up inception_4d/5x5_reduce
I1105 17:15:32.007608 24357 net.cpp:157] Top shape: 32 32 14 14 (200704)
I1105 17:15:32.007613 24357 net.cpp:165] Memory required for data: 1509655300
I1105 17:15:32.007621 24357 layer_factory.hpp:76] Creating layer inception_4d/prelu_5x5_reduce
I1105 17:15:32.007630 24357 net.cpp:106] Creating Layer inception_4d/prelu_5x5_reduce
I1105 17:15:32.007635 24357 net.cpp:454] inception_4d/prelu_5x5_reduce <- inception_4d/5x5_reduce
I1105 17:15:32.007642 24357 net.cpp:397] inception_4d/prelu_5x5_reduce -> inception_4d/5x5_reduce (in-place)
I1105 17:15:32.007745 24357 net.cpp:150] Setting up inception_4d/prelu_5x5_reduce
I1105 17:15:32.007755 24357 net.cpp:157] Top shape: 32 32 14 14 (200704)
I1105 17:15:32.007758 24357 net.cpp:165] Memory required for data: 1510458116
I1105 17:15:32.007763 24357 layer_factory.hpp:76] Creating layer inception_4d/5x5
I1105 17:15:32.007773 24357 net.cpp:106] Creating Layer inception_4d/5x5
I1105 17:15:32.007777 24357 net.cpp:454] inception_4d/5x5 <- inception_4d/5x5_reduce
I1105 17:15:32.007784 24357 net.cpp:411] inception_4d/5x5 -> inception_4d/5x5
I1105 17:15:32.009683 24357 cudnn_conv_layer.cpp:194] Reallocating workspace storage: 13080
I1105 17:15:32.009721 24357 net.cpp:150] Setting up inception_4d/5x5
I1105 17:15:32.009732 24357 net.cpp:157] Top shape: 32 64 14 14 (401408)
I1105 17:15:32.009735 24357 net.cpp:165] Memory required for data: 1512063748
I1105 17:15:32.009744 24357 layer_factory.hpp:76] Creating layer inception_4d/prelu_5x5
I1105 17:15:32.009768 24357 net.cpp:106] Creating Layer inception_4d/prelu_5x5
I1105 17:15:32.009774 24357 net.cpp:454] inception_4d/prelu_5x5 <- inception_4d/5x5
I1105 17:15:32.009781 24357 net.cpp:397] inception_4d/prelu_5x5 -> inception_4d/5x5 (in-place)
I1105 17:15:32.009904 24357 net.cpp:150] Setting up inception_4d/prelu_5x5
I1105 17:15:32.009915 24357 net.cpp:157] Top shape: 32 64 14 14 (401408)
I1105 17:15:32.009919 24357 net.cpp:165] Memory required for data: 1513669380
I1105 17:15:32.009924 24357 layer_factory.hpp:76] Creating layer inception_4d/pool
I1105 17:15:32.009934 24357 net.cpp:106] Creating Layer inception_4d/pool
I1105 17:15:32.009939 24357 net.cpp:454] inception_4d/pool <- inception_4c/output_inception_4c/output_0_split_3
I1105 17:15:32.009945 24357 net.cpp:411] inception_4d/pool -> inception_4d/pool
I1105 17:15:32.010155 24357 net.cpp:150] Setting up inception_4d/pool
I1105 17:15:32.010167 24357 net.cpp:157] Top shape: 32 512 14 14 (3211264)
I1105 17:15:32.010171 24357 net.cpp:165] Memory required for data: 1526514436
I1105 17:15:32.010175 24357 layer_factory.hpp:76] Creating layer inception_4d/pool_proj
I1105 17:15:32.010186 24357 net.cpp:106] Creating Layer inception_4d/pool_proj
I1105 17:15:32.010192 24357 net.cpp:454] inception_4d/pool_proj <- inception_4d/pool
I1105 17:15:32.010226 24357 net.cpp:411] inception_4d/pool_proj -> inception_4d/pool_proj
I1105 17:15:32.011504 24357 cudnn_conv_layer.cpp:194] Reallocating workspace storage: 10080
I1105 17:15:32.011538 24357 net.cpp:150] Setting up inception_4d/pool_proj
I1105 17:15:32.011546 24357 net.cpp:157] Top shape: 32 64 14 14 (401408)
I1105 17:15:32.011550 24357 net.cpp:165] Memory required for data: 1528120068
I1105 17:15:32.011557 24357 layer_factory.hpp:76] Creating layer inception_4d/prelu_pool_proj
I1105 17:15:32.011565 24357 net.cpp:106] Creating Layer inception_4d/prelu_pool_proj
I1105 17:15:32.011571 24357 net.cpp:454] inception_4d/prelu_pool_proj <- inception_4d/pool_proj
I1105 17:15:32.011581 24357 net.cpp:397] inception_4d/prelu_pool_proj -> inception_4d/pool_proj (in-place)
I1105 17:15:32.011687 24357 net.cpp:150] Setting up inception_4d/prelu_pool_proj
I1105 17:15:32.011698 24357 net.cpp:157] Top shape: 32 64 14 14 (401408)
I1105 17:15:32.011701 24357 net.cpp:165] Memory required for data: 1529725700
I1105 17:15:32.011706 24357 layer_factory.hpp:76] Creating layer inception_4d/output
I1105 17:15:32.011713 24357 net.cpp:106] Creating Layer inception_4d/output
I1105 17:15:32.011718 24357 net.cpp:454] inception_4d/output <- inception_4d/1x1
I1105 17:15:32.011723 24357 net.cpp:454] inception_4d/output <- inception_4d/3x3
I1105 17:15:32.011729 24357 net.cpp:454] inception_4d/output <- inception_4d/5x5
I1105 17:15:32.011734 24357 net.cpp:454] inception_4d/output <- inception_4d/pool_proj
I1105 17:15:32.011739 24357 net.cpp:411] inception_4d/output -> inception_4d/output
I1105 17:15:32.011776 24357 net.cpp:150] Setting up inception_4d/output
I1105 17:15:32.011787 24357 net.cpp:157] Top shape: 32 528 14 14 (3311616)
I1105 17:15:32.011791 24357 net.cpp:165] Memory required for data: 1542972164
I1105 17:15:32.011795 24357 layer_factory.hpp:76] Creating layer inception_4d/output_inception_4d/output_0_split
I1105 17:15:32.011804 24357 net.cpp:106] Creating Layer inception_4d/output_inception_4d/output_0_split
I1105 17:15:32.011808 24357 net.cpp:454] inception_4d/output_inception_4d/output_0_split <- inception_4d/output
I1105 17:15:32.011826 24357 net.cpp:411] inception_4d/output_inception_4d/output_0_split -> inception_4d/output_inception_4d/output_0_split_0
I1105 17:15:32.011843 24357 net.cpp:411] inception_4d/output_inception_4d/output_0_split -> inception_4d/output_inception_4d/output_0_split_1
I1105 17:15:32.011852 24357 net.cpp:411] inception_4d/output_inception_4d/output_0_split -> inception_4d/output_inception_4d/output_0_split_2
I1105 17:15:32.011858 24357 net.cpp:411] inception_4d/output_inception_4d/output_0_split -> inception_4d/output_inception_4d/output_0_split_3
I1105 17:15:32.011867 24357 net.cpp:411] inception_4d/output_inception_4d/output_0_split -> inception_4d/output_inception_4d/output_0_split_4
I1105 17:15:32.011952 24357 net.cpp:150] Setting up inception_4d/output_inception_4d/output_0_split
I1105 17:15:32.011961 24357 net.cpp:157] Top shape: 32 528 14 14 (3311616)
I1105 17:15:32.011977 24357 net.cpp:157] Top shape: 32 528 14 14 (3311616)
I1105 17:15:32.011983 24357 net.cpp:157] Top shape: 32 528 14 14 (3311616)
I1105 17:15:32.011988 24357 net.cpp:157] Top shape: 32 528 14 14 (3311616)
I1105 17:15:32.011992 24357 net.cpp:157] Top shape: 32 528 14 14 (3311616)
I1105 17:15:32.011996 24357 net.cpp:165] Memory required for data: 1609204484
I1105 17:15:32.012001 24357 layer_factory.hpp:76] Creating layer loss2/ave_pool
I1105 17:15:32.012007 24357 net.cpp:106] Creating Layer loss2/ave_pool
I1105 17:15:32.012012 24357 net.cpp:454] loss2/ave_pool <- inception_4d/output_inception_4d/output_0_split_0
I1105 17:15:32.012018 24357 net.cpp:411] loss2/ave_pool -> loss2/ave_pool
I1105 17:15:32.012420 24357 net.cpp:150] Setting up loss2/ave_pool
I1105 17:15:32.012434 24357 net.cpp:157] Top shape: 32 528 4 4 (270336)
I1105 17:15:32.012447 24357 net.cpp:165] Memory required for data: 1610285828
I1105 17:15:32.012454 24357 layer_factory.hpp:76] Creating layer loss2/conv
I1105 17:15:32.012475 24357 net.cpp:106] Creating Layer loss2/conv
I1105 17:15:32.012480 24357 net.cpp:454] loss2/conv <- loss2/ave_pool
I1105 17:15:32.012490 24357 net.cpp:411] loss2/conv -> loss2/conv
I1105 17:15:32.014039 24357 cudnn_conv_layer.cpp:194] Reallocating workspace storage: 6840
I1105 17:15:32.014066 24357 net.cpp:150] Setting up loss2/conv
I1105 17:15:32.014073 24357 net.cpp:157] Top shape: 32 128 4 4 (65536)
I1105 17:15:32.014078 24357 net.cpp:165] Memory required for data: 1610547972
I1105 17:15:32.014086 24357 layer_factory.hpp:76] Creating layer loss2/prelu_conv
I1105 17:15:32.014102 24357 net.cpp:106] Creating Layer loss2/prelu_conv
I1105 17:15:32.014108 24357 net.cpp:454] loss2/prelu_conv <- loss2/conv
I1105 17:15:32.014117 24357 net.cpp:397] loss2/prelu_conv -> loss2/conv (in-place)
I1105 17:15:32.014250 24357 net.cpp:150] Setting up loss2/prelu_conv
I1105 17:15:32.014268 24357 net.cpp:157] Top shape: 32 128 4 4 (65536)
I1105 17:15:32.014281 24357 net.cpp:165] Memory required for data: 1610810116
I1105 17:15:32.014287 24357 layer_factory.hpp:76] Creating layer loss2/fc
I1105 17:15:32.014297 24357 net.cpp:106] Creating Layer loss2/fc
I1105 17:15:32.014308 24357 net.cpp:454] loss2/fc <- loss2/conv
I1105 17:15:32.014315 24357 net.cpp:411] loss2/fc -> loss2/fc
I1105 17:15:32.028728 24357 net.cpp:150] Setting up loss2/fc
I1105 17:15:32.028765 24357 net.cpp:157] Top shape: 32 1024 (32768)
I1105 17:15:32.028770 24357 net.cpp:165] Memory required for data: 1610941188
I1105 17:15:32.028801 24357 layer_factory.hpp:76] Creating layer loss2/prelu_fc
I1105 17:15:32.028815 24357 net.cpp:106] Creating Layer loss2/prelu_fc
I1105 17:15:32.028822 24357 net.cpp:454] loss2/prelu_fc <- loss2/fc
I1105 17:15:32.028837 24357 net.cpp:397] loss2/prelu_fc -> loss2/fc (in-place)
I1105 17:15:32.028952 24357 net.cpp:150] Setting up loss2/prelu_fc
I1105 17:15:32.028961 24357 net.cpp:157] Top shape: 32 1024 (32768)
I1105 17:15:32.028965 24357 net.cpp:165] Memory required for data: 1611072260
I1105 17:15:32.028980 24357 layer_factory.hpp:76] Creating layer loss2/drop_fc
I1105 17:15:32.028987 24357 net.cpp:106] Creating Layer loss2/drop_fc
I1105 17:15:32.028991 24357 net.cpp:454] loss2/drop_fc <- loss2/fc
I1105 17:15:32.029007 24357 net.cpp:397] loss2/drop_fc -> loss2/fc (in-place)
I1105 17:15:32.029036 24357 net.cpp:150] Setting up loss2/drop_fc
I1105 17:15:32.029044 24357 net.cpp:157] Top shape: 32 1024 (32768)
I1105 17:15:32.029057 24357 net.cpp:165] Memory required for data: 1611203332
I1105 17:15:32.029062 24357 layer_factory.hpp:76] Creating layer loss2/classifier2
I1105 17:15:32.029075 24357 net.cpp:106] Creating Layer loss2/classifier2
I1105 17:15:32.029080 24357 net.cpp:454] loss2/classifier2 <- loss2/fc
I1105 17:15:32.029088 24357 net.cpp:411] loss2/classifier2 -> loss2/classifier
I1105 17:15:32.029238 24357 net.cpp:150] Setting up loss2/classifier2
I1105 17:15:32.029247 24357 net.cpp:157] Top shape: 32 2 (64)
I1105 17:15:32.029252 24357 net.cpp:165] Memory required for data: 1611203588
I1105 17:15:32.029266 24357 layer_factory.hpp:76] Creating layer loss2/loss
I1105 17:15:32.029274 24357 net.cpp:106] Creating Layer loss2/loss
I1105 17:15:32.029278 24357 net.cpp:454] loss2/loss <- loss2/classifier
I1105 17:15:32.029284 24357 net.cpp:454] loss2/loss <- label_data_1_split_1
I1105 17:15:32.029299 24357 net.cpp:411] loss2/loss -> loss2/loss1
I1105 17:15:32.029307 24357 layer_factory.hpp:76] Creating layer loss2/loss
I1105 17:15:32.029628 24357 net.cpp:150] Setting up loss2/loss
I1105 17:15:32.029639 24357 net.cpp:157] Top shape: (1)
I1105 17:15:32.029642 24357 net.cpp:160]     with loss weight 0.3
I1105 17:15:32.029664 24357 net.cpp:165] Memory required for data: 1611203592
I1105 17:15:32.029667 24357 layer_factory.hpp:76] Creating layer inception_4e/1x1
I1105 17:15:32.029677 24357 net.cpp:106] Creating Layer inception_4e/1x1
I1105 17:15:32.029691 24357 net.cpp:454] inception_4e/1x1 <- inception_4d/output_inception_4d/output_0_split_1
I1105 17:15:32.029697 24357 net.cpp:411] inception_4e/1x1 -> inception_4e/1x1
I1105 17:15:32.032182 24357 cudnn_conv_layer.cpp:194] Reallocating workspace storage: 10080
I1105 17:15:32.032227 24357 net.cpp:150] Setting up inception_4e/1x1
I1105 17:15:32.032235 24357 net.cpp:157] Top shape: 32 256 14 14 (1605632)
I1105 17:15:32.032239 24357 net.cpp:165] Memory required for data: 1617626120
I1105 17:15:32.032246 24357 layer_factory.hpp:76] Creating layer inception_4e/prelu_1x1
I1105 17:15:32.032256 24357 net.cpp:106] Creating Layer inception_4e/prelu_1x1
I1105 17:15:32.032261 24357 net.cpp:454] inception_4e/prelu_1x1 <- inception_4e/1x1
I1105 17:15:32.032269 24357 net.cpp:397] inception_4e/prelu_1x1 -> inception_4e/1x1 (in-place)
I1105 17:15:32.032425 24357 net.cpp:150] Setting up inception_4e/prelu_1x1
I1105 17:15:32.032435 24357 net.cpp:157] Top shape: 32 256 14 14 (1605632)
I1105 17:15:32.032439 24357 net.cpp:165] Memory required for data: 1624048648
I1105 17:15:32.032445 24357 layer_factory.hpp:76] Creating layer inception_4e/3x3_reduce
I1105 17:15:32.032454 24357 net.cpp:106] Creating Layer inception_4e/3x3_reduce
I1105 17:15:32.032459 24357 net.cpp:454] inception_4e/3x3_reduce <- inception_4d/output_inception_4d/output_0_split_2
I1105 17:15:32.032467 24357 net.cpp:411] inception_4e/3x3_reduce -> inception_4e/3x3_reduce
I1105 17:15:32.034015 24357 cudnn_conv_layer.cpp:194] Reallocating workspace storage: 10080
I1105 17:15:32.034050 24357 net.cpp:150] Setting up inception_4e/3x3_reduce
I1105 17:15:32.034059 24357 net.cpp:157] Top shape: 32 160 14 14 (1003520)
I1105 17:15:32.034062 24357 net.cpp:165] Memory required for data: 1628062728
I1105 17:15:32.034077 24357 layer_factory.hpp:76] Creating layer inception_4e/prelu_3x3_reduce
I1105 17:15:32.034086 24357 net.cpp:106] Creating Layer inception_4e/prelu_3x3_reduce
I1105 17:15:32.034091 24357 net.cpp:454] inception_4e/prelu_3x3_reduce <- inception_4e/3x3_reduce
I1105 17:15:32.034107 24357 net.cpp:397] inception_4e/prelu_3x3_reduce -> inception_4e/3x3_reduce (in-place)
I1105 17:15:32.034237 24357 net.cpp:150] Setting up inception_4e/prelu_3x3_reduce
I1105 17:15:32.034247 24357 net.cpp:157] Top shape: 32 160 14 14 (1003520)
I1105 17:15:32.034251 24357 net.cpp:165] Memory required for data: 1632076808
I1105 17:15:32.034256 24357 layer_factory.hpp:76] Creating layer inception_4e/3x3
I1105 17:15:32.034267 24357 net.cpp:106] Creating Layer inception_4e/3x3
I1105 17:15:32.034272 24357 net.cpp:454] inception_4e/3x3 <- inception_4e/3x3_reduce
I1105 17:15:32.034278 24357 net.cpp:411] inception_4e/3x3 -> inception_4e/3x3
I1105 17:15:32.038815 24357 cudnn_conv_layer.cpp:194] Reallocating workspace storage: 10080
I1105 17:15:32.038863 24357 net.cpp:150] Setting up inception_4e/3x3
I1105 17:15:32.038873 24357 net.cpp:157] Top shape: 32 320 14 14 (2007040)
I1105 17:15:32.038878 24357 net.cpp:165] Memory required for data: 1640104968
I1105 17:15:32.038888 24357 layer_factory.hpp:76] Creating layer inception_4e/prelu_3x3
I1105 17:15:32.038902 24357 net.cpp:106] Creating Layer inception_4e/prelu_3x3
I1105 17:15:32.038908 24357 net.cpp:454] inception_4e/prelu_3x3 <- inception_4e/3x3
I1105 17:15:32.038916 24357 net.cpp:397] inception_4e/prelu_3x3 -> inception_4e/3x3 (in-place)
I1105 17:15:32.039105 24357 net.cpp:150] Setting up inception_4e/prelu_3x3
I1105 17:15:32.039115 24357 net.cpp:157] Top shape: 32 320 14 14 (2007040)
I1105 17:15:32.039119 24357 net.cpp:165] Memory required for data: 1648133128
I1105 17:15:32.039125 24357 layer_factory.hpp:76] Creating layer inception_4e/5x5_reduce
I1105 17:15:32.039136 24357 net.cpp:106] Creating Layer inception_4e/5x5_reduce
I1105 17:15:32.039141 24357 net.cpp:454] inception_4e/5x5_reduce <- inception_4d/output_inception_4d/output_0_split_3
I1105 17:15:32.039149 24357 net.cpp:411] inception_4e/5x5_reduce -> inception_4e/5x5_reduce
I1105 17:15:32.040400 24357 cudnn_conv_layer.cpp:194] Reallocating workspace storage: 10080
I1105 17:15:32.040436 24357 net.cpp:150] Setting up inception_4e/5x5_reduce
I1105 17:15:32.040446 24357 net.cpp:157] Top shape: 32 32 14 14 (200704)
I1105 17:15:32.040449 24357 net.cpp:165] Memory required for data: 1648935944
I1105 17:15:32.040488 24357 layer_factory.hpp:76] Creating layer inception_4e/prelu_5x5_reduce
I1105 17:15:32.040500 24357 net.cpp:106] Creating Layer inception_4e/prelu_5x5_reduce
I1105 17:15:32.040506 24357 net.cpp:454] inception_4e/prelu_5x5_reduce <- inception_4e/5x5_reduce
I1105 17:15:32.040513 24357 net.cpp:397] inception_4e/prelu_5x5_reduce -> inception_4e/5x5_reduce (in-place)
I1105 17:15:32.040643 24357 net.cpp:150] Setting up inception_4e/prelu_5x5_reduce
I1105 17:15:32.040652 24357 net.cpp:157] Top shape: 32 32 14 14 (200704)
I1105 17:15:32.040657 24357 net.cpp:165] Memory required for data: 1649738760
I1105 17:15:32.040663 24357 layer_factory.hpp:76] Creating layer inception_4e/5x5
I1105 17:15:32.040688 24357 net.cpp:106] Creating Layer inception_4e/5x5
I1105 17:15:32.040704 24357 net.cpp:454] inception_4e/5x5 <- inception_4e/5x5_reduce
I1105 17:15:32.040712 24357 net.cpp:411] inception_4e/5x5 -> inception_4e/5x5
I1105 17:15:32.042987 24357 cudnn_conv_layer.cpp:194] Reallocating workspace storage: 13080
I1105 17:15:32.043025 24357 net.cpp:150] Setting up inception_4e/5x5
I1105 17:15:32.043033 24357 net.cpp:157] Top shape: 32 128 14 14 (802816)
I1105 17:15:32.043037 24357 net.cpp:165] Memory required for data: 1652950024
I1105 17:15:32.043046 24357 layer_factory.hpp:76] Creating layer inception_4e/prelu_5x5
I1105 17:15:32.043056 24357 net.cpp:106] Creating Layer inception_4e/prelu_5x5
I1105 17:15:32.043061 24357 net.cpp:454] inception_4e/prelu_5x5 <- inception_4e/5x5
I1105 17:15:32.043069 24357 net.cpp:397] inception_4e/prelu_5x5 -> inception_4e/5x5 (in-place)
I1105 17:15:32.043210 24357 net.cpp:150] Setting up inception_4e/prelu_5x5
I1105 17:15:32.043221 24357 net.cpp:157] Top shape: 32 128 14 14 (802816)
I1105 17:15:32.043226 24357 net.cpp:165] Memory required for data: 1656161288
I1105 17:15:32.043231 24357 layer_factory.hpp:76] Creating layer inception_4e/pool
I1105 17:15:32.043239 24357 net.cpp:106] Creating Layer inception_4e/pool
I1105 17:15:32.043244 24357 net.cpp:454] inception_4e/pool <- inception_4d/output_inception_4d/output_0_split_4
I1105 17:15:32.043251 24357 net.cpp:411] inception_4e/pool -> inception_4e/pool
I1105 17:15:32.043639 24357 net.cpp:150] Setting up inception_4e/pool
I1105 17:15:32.043651 24357 net.cpp:157] Top shape: 32 528 14 14 (3311616)
I1105 17:15:32.043655 24357 net.cpp:165] Memory required for data: 1669407752
I1105 17:15:32.043660 24357 layer_factory.hpp:76] Creating layer inception_4e/pool_proj
I1105 17:15:32.043670 24357 net.cpp:106] Creating Layer inception_4e/pool_proj
I1105 17:15:32.043675 24357 net.cpp:454] inception_4e/pool_proj <- inception_4e/pool
I1105 17:15:32.043681 24357 net.cpp:411] inception_4e/pool_proj -> inception_4e/pool_proj
I1105 17:15:32.044947 24357 cudnn_conv_layer.cpp:194] Reallocating workspace storage: 10080
I1105 17:15:32.044980 24357 net.cpp:150] Setting up inception_4e/pool_proj
I1105 17:15:32.044987 24357 net.cpp:157] Top shape: 32 128 14 14 (802816)
I1105 17:15:32.044991 24357 net.cpp:165] Memory required for data: 1672619016
I1105 17:15:32.044998 24357 layer_factory.hpp:76] Creating layer inception_4e/prelu_pool_proj
I1105 17:15:32.045006 24357 net.cpp:106] Creating Layer inception_4e/prelu_pool_proj
I1105 17:15:32.045011 24357 net.cpp:454] inception_4e/prelu_pool_proj <- inception_4e/pool_proj
I1105 17:15:32.045018 24357 net.cpp:397] inception_4e/prelu_pool_proj -> inception_4e/pool_proj (in-place)
I1105 17:15:32.045161 24357 net.cpp:150] Setting up inception_4e/prelu_pool_proj
I1105 17:15:32.045172 24357 net.cpp:157] Top shape: 32 128 14 14 (802816)
I1105 17:15:32.045177 24357 net.cpp:165] Memory required for data: 1675830280
I1105 17:15:32.045182 24357 layer_factory.hpp:76] Creating layer inception_4e/output
I1105 17:15:32.045189 24357 net.cpp:106] Creating Layer inception_4e/output
I1105 17:15:32.045194 24357 net.cpp:454] inception_4e/output <- inception_4e/1x1
I1105 17:15:32.045199 24357 net.cpp:454] inception_4e/output <- inception_4e/3x3
I1105 17:15:32.045204 24357 net.cpp:454] inception_4e/output <- inception_4e/5x5
I1105 17:15:32.045209 24357 net.cpp:454] inception_4e/output <- inception_4e/pool_proj
I1105 17:15:32.045228 24357 net.cpp:411] inception_4e/output -> inception_4e/output
I1105 17:15:32.045258 24357 net.cpp:150] Setting up inception_4e/output
I1105 17:15:32.045284 24357 net.cpp:157] Top shape: 32 832 14 14 (5218304)
I1105 17:15:32.045289 24357 net.cpp:165] Memory required for data: 1696703496
I1105 17:15:32.045292 24357 layer_factory.hpp:76] Creating layer pool4/3x3_s2
I1105 17:15:32.045300 24357 net.cpp:106] Creating Layer pool4/3x3_s2
I1105 17:15:32.045305 24357 net.cpp:454] pool4/3x3_s2 <- inception_4e/output
I1105 17:15:32.045310 24357 net.cpp:411] pool4/3x3_s2 -> pool4/3x3_s2
I1105 17:15:32.045704 24357 net.cpp:150] Setting up pool4/3x3_s2
I1105 17:15:32.045717 24357 net.cpp:157] Top shape: 32 832 7 7 (1304576)
I1105 17:15:32.045720 24357 net.cpp:165] Memory required for data: 1701921800
I1105 17:15:32.045724 24357 layer_factory.hpp:76] Creating layer pool4/3x3_s2_pool4/3x3_s2_0_split
I1105 17:15:32.045733 24357 net.cpp:106] Creating Layer pool4/3x3_s2_pool4/3x3_s2_0_split
I1105 17:15:32.045738 24357 net.cpp:454] pool4/3x3_s2_pool4/3x3_s2_0_split <- pool4/3x3_s2
I1105 17:15:32.045744 24357 net.cpp:411] pool4/3x3_s2_pool4/3x3_s2_0_split -> pool4/3x3_s2_pool4/3x3_s2_0_split_0
I1105 17:15:32.045752 24357 net.cpp:411] pool4/3x3_s2_pool4/3x3_s2_0_split -> pool4/3x3_s2_pool4/3x3_s2_0_split_1
I1105 17:15:32.045758 24357 net.cpp:411] pool4/3x3_s2_pool4/3x3_s2_0_split -> pool4/3x3_s2_pool4/3x3_s2_0_split_2
I1105 17:15:32.045764 24357 net.cpp:411] pool4/3x3_s2_pool4/3x3_s2_0_split -> pool4/3x3_s2_pool4/3x3_s2_0_split_3
I1105 17:15:32.045831 24357 net.cpp:150] Setting up pool4/3x3_s2_pool4/3x3_s2_0_split
I1105 17:15:32.045840 24357 net.cpp:157] Top shape: 32 832 7 7 (1304576)
I1105 17:15:32.045845 24357 net.cpp:157] Top shape: 32 832 7 7 (1304576)
I1105 17:15:32.045850 24357 net.cpp:157] Top shape: 32 832 7 7 (1304576)
I1105 17:15:32.045855 24357 net.cpp:157] Top shape: 32 832 7 7 (1304576)
I1105 17:15:32.045858 24357 net.cpp:165] Memory required for data: 1722795016
I1105 17:15:32.045862 24357 layer_factory.hpp:76] Creating layer inception_5a/1x1
I1105 17:15:32.045871 24357 net.cpp:106] Creating Layer inception_5a/1x1
I1105 17:15:32.045876 24357 net.cpp:454] inception_5a/1x1 <- pool4/3x3_s2_pool4/3x3_s2_0_split_0
I1105 17:15:32.045883 24357 net.cpp:411] inception_5a/1x1 -> inception_5a/1x1
I1105 17:15:32.048617 24357 cudnn_conv_layer.cpp:194] Reallocating workspace storage: 7428
I1105 17:15:32.048647 24357 net.cpp:150] Setting up inception_5a/1x1
I1105 17:15:32.048655 24357 net.cpp:157] Top shape: 32 256 7 7 (401408)
I1105 17:15:32.048660 24357 net.cpp:165] Memory required for data: 1724400648
I1105 17:15:32.048667 24357 layer_factory.hpp:76] Creating layer inception_5a/prelu_1x1
I1105 17:15:32.048676 24357 net.cpp:106] Creating Layer inception_5a/prelu_1x1
I1105 17:15:32.048681 24357 net.cpp:454] inception_5a/prelu_1x1 <- inception_5a/1x1
I1105 17:15:32.048688 24357 net.cpp:397] inception_5a/prelu_1x1 -> inception_5a/1x1 (in-place)
I1105 17:15:32.049257 24357 net.cpp:150] Setting up inception_5a/prelu_1x1
I1105 17:15:32.049269 24357 net.cpp:157] Top shape: 32 256 7 7 (401408)
I1105 17:15:32.049274 24357 net.cpp:165] Memory required for data: 1726006280
I1105 17:15:32.049279 24357 layer_factory.hpp:76] Creating layer inception_5a/3x3_reduce
I1105 17:15:32.049290 24357 net.cpp:106] Creating Layer inception_5a/3x3_reduce
I1105 17:15:32.049295 24357 net.cpp:454] inception_5a/3x3_reduce <- pool4/3x3_s2_pool4/3x3_s2_0_split_1
I1105 17:15:32.049304 24357 net.cpp:411] inception_5a/3x3_reduce -> inception_5a/3x3_reduce
I1105 17:15:32.051702 24357 cudnn_conv_layer.cpp:194] Reallocating workspace storage: 7428
I1105 17:15:32.051733 24357 net.cpp:150] Setting up inception_5a/3x3_reduce
I1105 17:15:32.051741 24357 net.cpp:157] Top shape: 32 160 7 7 (250880)
I1105 17:15:32.051746 24357 net.cpp:165] Memory required for data: 1727009800
I1105 17:15:32.051753 24357 layer_factory.hpp:76] Creating layer inception_5a/prelu_3x3_reduce
I1105 17:15:32.051761 24357 net.cpp:106] Creating Layer inception_5a/prelu_3x3_reduce
I1105 17:15:32.051779 24357 net.cpp:454] inception_5a/prelu_3x3_reduce <- inception_5a/3x3_reduce
I1105 17:15:32.051787 24357 net.cpp:397] inception_5a/prelu_3x3_reduce -> inception_5a/3x3_reduce (in-place)
I1105 17:15:32.051888 24357 net.cpp:150] Setting up inception_5a/prelu_3x3_reduce
I1105 17:15:32.051898 24357 net.cpp:157] Top shape: 32 160 7 7 (250880)
I1105 17:15:32.051901 24357 net.cpp:165] Memory required for data: 1728013320
I1105 17:15:32.051908 24357 layer_factory.hpp:76] Creating layer inception_5a/3x3
I1105 17:15:32.051915 24357 net.cpp:106] Creating Layer inception_5a/3x3
I1105 17:15:32.051920 24357 net.cpp:454] inception_5a/3x3 <- inception_5a/3x3_reduce
I1105 17:15:32.051928 24357 net.cpp:411] inception_5a/3x3 -> inception_5a/3x3
I1105 17:15:32.056061 24357 cudnn_conv_layer.cpp:194] Reallocating workspace storage: 7788
I1105 17:15:32.056098 24357 net.cpp:150] Setting up inception_5a/3x3
I1105 17:15:32.056107 24357 net.cpp:157] Top shape: 32 320 7 7 (501760)
I1105 17:15:32.056112 24357 net.cpp:165] Memory required for data: 1730020360
I1105 17:15:32.056126 24357 layer_factory.hpp:76] Creating layer inception_5a/prelu_3x3
I1105 17:15:32.056135 24357 net.cpp:106] Creating Layer inception_5a/prelu_3x3
I1105 17:15:32.056141 24357 net.cpp:454] inception_5a/prelu_3x3 <- inception_5a/3x3
I1105 17:15:32.056164 24357 net.cpp:397] inception_5a/prelu_3x3 -> inception_5a/3x3 (in-place)
I1105 17:15:32.056288 24357 net.cpp:150] Setting up inception_5a/prelu_3x3
I1105 17:15:32.056298 24357 net.cpp:157] Top shape: 32 320 7 7 (501760)
I1105 17:15:32.056301 24357 net.cpp:165] Memory required for data: 1732027400
I1105 17:15:32.056314 24357 layer_factory.hpp:76] Creating layer inception_5a/5x5_reduce
I1105 17:15:32.056324 24357 net.cpp:106] Creating Layer inception_5a/5x5_reduce
I1105 17:15:32.056329 24357 net.cpp:454] inception_5a/5x5_reduce <- pool4/3x3_s2_pool4/3x3_s2_0_split_2
I1105 17:15:32.056335 24357 net.cpp:411] inception_5a/5x5_reduce -> inception_5a/5x5_reduce
I1105 17:15:32.057548 24357 cudnn_conv_layer.cpp:194] Reallocating workspace storage: 7428
I1105 17:15:32.057581 24357 net.cpp:150] Setting up inception_5a/5x5_reduce
I1105 17:15:32.057588 24357 net.cpp:157] Top shape: 32 32 7 7 (50176)
I1105 17:15:32.057592 24357 net.cpp:165] Memory required for data: 1732228104
I1105 17:15:32.057600 24357 layer_factory.hpp:76] Creating layer inception_5a/prelu_5x5_reduce
I1105 17:15:32.057617 24357 net.cpp:106] Creating Layer inception_5a/prelu_5x5_reduce
I1105 17:15:32.057622 24357 net.cpp:454] inception_5a/prelu_5x5_reduce <- inception_5a/5x5_reduce
I1105 17:15:32.057629 24357 net.cpp:397] inception_5a/prelu_5x5_reduce -> inception_5a/5x5_reduce (in-place)
I1105 17:15:32.057771 24357 net.cpp:150] Setting up inception_5a/prelu_5x5_reduce
I1105 17:15:32.057780 24357 net.cpp:157] Top shape: 32 32 7 7 (50176)
I1105 17:15:32.057785 24357 net.cpp:165] Memory required for data: 1732428808
I1105 17:15:32.057790 24357 layer_factory.hpp:76] Creating layer inception_5a/5x5
I1105 17:15:32.057807 24357 net.cpp:106] Creating Layer inception_5a/5x5
I1105 17:15:32.057812 24357 net.cpp:454] inception_5a/5x5 <- inception_5a/5x5_reduce
I1105 17:15:32.057819 24357 net.cpp:411] inception_5a/5x5 -> inception_5a/5x5
I1105 17:15:32.059494 24357 cudnn_conv_layer.cpp:194] Reallocating workspace storage: 9804
I1105 17:15:32.059520 24357 net.cpp:150] Setting up inception_5a/5x5
I1105 17:15:32.059527 24357 net.cpp:157] Top shape: 32 128 7 7 (200704)
I1105 17:15:32.059531 24357 net.cpp:165] Memory required for data: 1733231624
I1105 17:15:32.059538 24357 layer_factory.hpp:76] Creating layer inception_5a/prelu_5x5
I1105 17:15:32.059547 24357 net.cpp:106] Creating Layer inception_5a/prelu_5x5
I1105 17:15:32.059552 24357 net.cpp:454] inception_5a/prelu_5x5 <- inception_5a/5x5
I1105 17:15:32.059559 24357 net.cpp:397] inception_5a/prelu_5x5 -> inception_5a/5x5 (in-place)
I1105 17:15:32.059660 24357 net.cpp:150] Setting up inception_5a/prelu_5x5
I1105 17:15:32.059669 24357 net.cpp:157] Top shape: 32 128 7 7 (200704)
I1105 17:15:32.059684 24357 net.cpp:165] Memory required for data: 1734034440
I1105 17:15:32.059689 24357 layer_factory.hpp:76] Creating layer inception_5a/pool
I1105 17:15:32.059700 24357 net.cpp:106] Creating Layer inception_5a/pool
I1105 17:15:32.059703 24357 net.cpp:454] inception_5a/pool <- pool4/3x3_s2_pool4/3x3_s2_0_split_3
I1105 17:15:32.059710 24357 net.cpp:411] inception_5a/pool -> inception_5a/pool
I1105 17:15:32.059896 24357 net.cpp:150] Setting up inception_5a/pool
I1105 17:15:32.059906 24357 net.cpp:157] Top shape: 32 832 7 7 (1304576)
I1105 17:15:32.059911 24357 net.cpp:165] Memory required for data: 1739252744
I1105 17:15:32.059916 24357 layer_factory.hpp:76] Creating layer inception_5a/pool_proj
I1105 17:15:32.059923 24357 net.cpp:106] Creating Layer inception_5a/pool_proj
I1105 17:15:32.059928 24357 net.cpp:454] inception_5a/pool_proj <- inception_5a/pool
I1105 17:15:32.059936 24357 net.cpp:411] inception_5a/pool_proj -> inception_5a/pool_proj
I1105 17:15:32.062258 24357 cudnn_conv_layer.cpp:194] Reallocating workspace storage: 7428
I1105 17:15:32.062295 24357 net.cpp:150] Setting up inception_5a/pool_proj
I1105 17:15:32.062304 24357 net.cpp:157] Top shape: 32 128 7 7 (200704)
I1105 17:15:32.062307 24357 net.cpp:165] Memory required for data: 1740055560
I1105 17:15:32.062324 24357 layer_factory.hpp:76] Creating layer inception_5a/prelu_pool_proj
I1105 17:15:32.062341 24357 net.cpp:106] Creating Layer inception_5a/prelu_pool_proj
I1105 17:15:32.062346 24357 net.cpp:454] inception_5a/prelu_pool_proj <- inception_5a/pool_proj
I1105 17:15:32.062355 24357 net.cpp:397] inception_5a/prelu_pool_proj -> inception_5a/pool_proj (in-place)
I1105 17:15:32.062474 24357 net.cpp:150] Setting up inception_5a/prelu_pool_proj
I1105 17:15:32.062484 24357 net.cpp:157] Top shape: 32 128 7 7 (200704)
I1105 17:15:32.062487 24357 net.cpp:165] Memory required for data: 1740858376
I1105 17:15:32.062494 24357 layer_factory.hpp:76] Creating layer inception_5a/output
I1105 17:15:32.062500 24357 net.cpp:106] Creating Layer inception_5a/output
I1105 17:15:32.062505 24357 net.cpp:454] inception_5a/output <- inception_5a/1x1
I1105 17:15:32.062508 24357 net.cpp:454] inception_5a/output <- inception_5a/3x3
I1105 17:15:32.062513 24357 net.cpp:454] inception_5a/output <- inception_5a/5x5
I1105 17:15:32.062518 24357 net.cpp:454] inception_5a/output <- inception_5a/pool_proj
I1105 17:15:32.062532 24357 net.cpp:411] inception_5a/output -> inception_5a/output
I1105 17:15:32.062562 24357 net.cpp:150] Setting up inception_5a/output
I1105 17:15:32.062571 24357 net.cpp:157] Top shape: 32 832 7 7 (1304576)
I1105 17:15:32.062574 24357 net.cpp:165] Memory required for data: 1746076680
I1105 17:15:32.062595 24357 layer_factory.hpp:76] Creating layer inception_5a/output_inception_5a/output_0_split
I1105 17:15:32.062602 24357 net.cpp:106] Creating Layer inception_5a/output_inception_5a/output_0_split
I1105 17:15:32.062607 24357 net.cpp:454] inception_5a/output_inception_5a/output_0_split <- inception_5a/output
I1105 17:15:32.062611 24357 net.cpp:411] inception_5a/output_inception_5a/output_0_split -> inception_5a/output_inception_5a/output_0_split_0
I1105 17:15:32.062618 24357 net.cpp:411] inception_5a/output_inception_5a/output_0_split -> inception_5a/output_inception_5a/output_0_split_1
I1105 17:15:32.062628 24357 net.cpp:411] inception_5a/output_inception_5a/output_0_split -> inception_5a/output_inception_5a/output_0_split_2
I1105 17:15:32.062654 24357 net.cpp:411] inception_5a/output_inception_5a/output_0_split -> inception_5a/output_inception_5a/output_0_split_3
I1105 17:15:32.062731 24357 net.cpp:150] Setting up inception_5a/output_inception_5a/output_0_split
I1105 17:15:32.062739 24357 net.cpp:157] Top shape: 32 832 7 7 (1304576)
I1105 17:15:32.062744 24357 net.cpp:157] Top shape: 32 832 7 7 (1304576)
I1105 17:15:32.062749 24357 net.cpp:157] Top shape: 32 832 7 7 (1304576)
I1105 17:15:32.062753 24357 net.cpp:157] Top shape: 32 832 7 7 (1304576)
I1105 17:15:32.062757 24357 net.cpp:165] Memory required for data: 1766949896
I1105 17:15:32.062770 24357 layer_factory.hpp:76] Creating layer inception_5b/1x1
I1105 17:15:32.062788 24357 net.cpp:106] Creating Layer inception_5b/1x1
I1105 17:15:32.062793 24357 net.cpp:454] inception_5b/1x1 <- inception_5a/output_inception_5a/output_0_split_0
I1105 17:15:32.062799 24357 net.cpp:411] inception_5b/1x1 -> inception_5b/1x1
I1105 17:15:32.066180 24357 cudnn_conv_layer.cpp:194] Reallocating workspace storage: 7428
I1105 17:15:32.066210 24357 net.cpp:150] Setting up inception_5b/1x1
I1105 17:15:32.066220 24357 net.cpp:157] Top shape: 32 384 7 7 (602112)
I1105 17:15:32.066223 24357 net.cpp:165] Memory required for data: 1769358344
I1105 17:15:32.066231 24357 layer_factory.hpp:76] Creating layer inception_5b/prelu_1x1
I1105 17:15:32.066246 24357 net.cpp:106] Creating Layer inception_5b/prelu_1x1
I1105 17:15:32.066251 24357 net.cpp:454] inception_5b/prelu_1x1 <- inception_5b/1x1
I1105 17:15:32.066259 24357 net.cpp:397] inception_5b/prelu_1x1 -> inception_5b/1x1 (in-place)
I1105 17:15:32.066828 24357 net.cpp:150] Setting up inception_5b/prelu_1x1
I1105 17:15:32.066840 24357 net.cpp:157] Top shape: 32 384 7 7 (602112)
I1105 17:15:32.066844 24357 net.cpp:165] Memory required for data: 1771766792
I1105 17:15:32.066850 24357 layer_factory.hpp:76] Creating layer inception_5b/3x3_reduce
I1105 17:15:32.066860 24357 net.cpp:106] Creating Layer inception_5b/3x3_reduce
I1105 17:15:32.066865 24357 net.cpp:454] inception_5b/3x3_reduce <- inception_5a/output_inception_5a/output_0_split_1
I1105 17:15:32.066872 24357 net.cpp:411] inception_5b/3x3_reduce -> inception_5b/3x3_reduce
I1105 17:15:32.069506 24357 cudnn_conv_layer.cpp:194] Reallocating workspace storage: 7428
I1105 17:15:32.069547 24357 net.cpp:150] Setting up inception_5b/3x3_reduce
I1105 17:15:32.069556 24357 net.cpp:157] Top shape: 32 192 7 7 (301056)
I1105 17:15:32.069561 24357 net.cpp:165] Memory required for data: 1772971016
I1105 17:15:32.069569 24357 layer_factory.hpp:76] Creating layer inception_5b/prelu_3x3_reduce
I1105 17:15:32.069594 24357 net.cpp:106] Creating Layer inception_5b/prelu_3x3_reduce
I1105 17:15:32.069602 24357 net.cpp:454] inception_5b/prelu_3x3_reduce <- inception_5b/3x3_reduce
I1105 17:15:32.069610 24357 net.cpp:397] inception_5b/prelu_3x3_reduce -> inception_5b/3x3_reduce (in-place)
I1105 17:15:32.069739 24357 net.cpp:150] Setting up inception_5b/prelu_3x3_reduce
I1105 17:15:32.069749 24357 net.cpp:157] Top shape: 32 192 7 7 (301056)
I1105 17:15:32.069753 24357 net.cpp:165] Memory required for data: 1774175240
I1105 17:15:32.069758 24357 layer_factory.hpp:76] Creating layer inception_5b/3x3
I1105 17:15:32.069769 24357 net.cpp:106] Creating Layer inception_5b/3x3
I1105 17:15:32.069773 24357 net.cpp:454] inception_5b/3x3 <- inception_5b/3x3_reduce
I1105 17:15:32.069782 24357 net.cpp:411] inception_5b/3x3 -> inception_5b/3x3
I1105 17:15:32.075753 24357 cudnn_conv_layer.cpp:194] Reallocating workspace storage: 7788
I1105 17:15:32.075808 24357 net.cpp:150] Setting up inception_5b/3x3
I1105 17:15:32.075827 24357 net.cpp:157] Top shape: 32 384 7 7 (602112)
I1105 17:15:32.075832 24357 net.cpp:165] Memory required for data: 1776583688
I1105 17:15:32.075850 24357 layer_factory.hpp:76] Creating layer inception_5b/prelu_3x3
I1105 17:15:32.075862 24357 net.cpp:106] Creating Layer inception_5b/prelu_3x3
I1105 17:15:32.075870 24357 net.cpp:454] inception_5b/prelu_3x3 <- inception_5b/3x3
I1105 17:15:32.075878 24357 net.cpp:397] inception_5b/prelu_3x3 -> inception_5b/3x3 (in-place)
I1105 17:15:32.076014 24357 net.cpp:150] Setting up inception_5b/prelu_3x3
I1105 17:15:32.076023 24357 net.cpp:157] Top shape: 32 384 7 7 (602112)
I1105 17:15:32.076035 24357 net.cpp:165] Memory required for data: 1778992136
I1105 17:15:32.076041 24357 layer_factory.hpp:76] Creating layer inception_5b/5x5_reduce
I1105 17:15:32.076051 24357 net.cpp:106] Creating Layer inception_5b/5x5_reduce
I1105 17:15:32.076056 24357 net.cpp:454] inception_5b/5x5_reduce <- inception_5a/output_inception_5a/output_0_split_2
I1105 17:15:32.076074 24357 net.cpp:411] inception_5b/5x5_reduce -> inception_5b/5x5_reduce
I1105 17:15:32.077273 24357 cudnn_conv_layer.cpp:194] Reallocating workspace storage: 7428
I1105 17:15:32.077299 24357 net.cpp:150] Setting up inception_5b/5x5_reduce
I1105 17:15:32.077308 24357 net.cpp:157] Top shape: 32 48 7 7 (75264)
I1105 17:15:32.077312 24357 net.cpp:165] Memory required for data: 1779293192
I1105 17:15:32.077319 24357 layer_factory.hpp:76] Creating layer inception_5b/prelu_5x5_reduce
I1105 17:15:32.077327 24357 net.cpp:106] Creating Layer inception_5b/prelu_5x5_reduce
I1105 17:15:32.077332 24357 net.cpp:454] inception_5b/prelu_5x5_reduce <- inception_5b/5x5_reduce
I1105 17:15:32.077337 24357 net.cpp:397] inception_5b/prelu_5x5_reduce -> inception_5b/5x5_reduce (in-place)
I1105 17:15:32.077453 24357 net.cpp:150] Setting up inception_5b/prelu_5x5_reduce
I1105 17:15:32.077462 24357 net.cpp:157] Top shape: 32 48 7 7 (75264)
I1105 17:15:32.077466 24357 net.cpp:165] Memory required for data: 1779594248
I1105 17:15:32.077472 24357 layer_factory.hpp:76] Creating layer inception_5b/5x5
I1105 17:15:32.077479 24357 net.cpp:106] Creating Layer inception_5b/5x5
I1105 17:15:32.077484 24357 net.cpp:454] inception_5b/5x5 <- inception_5b/5x5_reduce
I1105 17:15:32.077493 24357 net.cpp:411] inception_5b/5x5 -> inception_5b/5x5
I1105 17:15:32.079478 24357 cudnn_conv_layer.cpp:194] Reallocating workspace storage: 9804
I1105 17:15:32.079504 24357 net.cpp:150] Setting up inception_5b/5x5
I1105 17:15:32.079512 24357 net.cpp:157] Top shape: 32 128 7 7 (200704)
I1105 17:15:32.079516 24357 net.cpp:165] Memory required for data: 1780397064
I1105 17:15:32.079524 24357 layer_factory.hpp:76] Creating layer inception_5b/prelu_5x5
I1105 17:15:32.079532 24357 net.cpp:106] Creating Layer inception_5b/prelu_5x5
I1105 17:15:32.079537 24357 net.cpp:454] inception_5b/prelu_5x5 <- inception_5b/5x5
I1105 17:15:32.079545 24357 net.cpp:397] inception_5b/prelu_5x5 -> inception_5b/5x5 (in-place)
I1105 17:15:32.079660 24357 net.cpp:150] Setting up inception_5b/prelu_5x5
I1105 17:15:32.079669 24357 net.cpp:157] Top shape: 32 128 7 7 (200704)
I1105 17:15:32.079674 24357 net.cpp:165] Memory required for data: 1781199880
I1105 17:15:32.079687 24357 layer_factory.hpp:76] Creating layer inception_5b/pool
I1105 17:15:32.079696 24357 net.cpp:106] Creating Layer inception_5b/pool
I1105 17:15:32.079701 24357 net.cpp:454] inception_5b/pool <- inception_5a/output_inception_5a/output_0_split_3
I1105 17:15:32.079707 24357 net.cpp:411] inception_5b/pool -> inception_5b/pool
I1105 17:15:32.080107 24357 net.cpp:150] Setting up inception_5b/pool
I1105 17:15:32.080118 24357 net.cpp:157] Top shape: 32 832 7 7 (1304576)
I1105 17:15:32.080122 24357 net.cpp:165] Memory required for data: 1786418184
I1105 17:15:32.080127 24357 layer_factory.hpp:76] Creating layer inception_5b/pool_proj
I1105 17:15:32.080137 24357 net.cpp:106] Creating Layer inception_5b/pool_proj
I1105 17:15:32.080142 24357 net.cpp:454] inception_5b/pool_proj <- inception_5b/pool
I1105 17:15:32.080148 24357 net.cpp:411] inception_5b/pool_proj -> inception_5b/pool_proj
I1105 17:15:32.082310 24357 cudnn_conv_layer.cpp:194] Reallocating workspace storage: 7428
I1105 17:15:32.082339 24357 net.cpp:150] Setting up inception_5b/pool_proj
I1105 17:15:32.082345 24357 net.cpp:157] Top shape: 32 128 7 7 (200704)
I1105 17:15:32.082350 24357 net.cpp:165] Memory required for data: 1787221000
I1105 17:15:32.082356 24357 layer_factory.hpp:76] Creating layer inception_5b/prelu_pool_proj
I1105 17:15:32.082373 24357 net.cpp:106] Creating Layer inception_5b/prelu_pool_proj
I1105 17:15:32.082378 24357 net.cpp:454] inception_5b/prelu_pool_proj <- inception_5b/pool_proj
I1105 17:15:32.082384 24357 net.cpp:397] inception_5b/prelu_pool_proj -> inception_5b/pool_proj (in-place)
I1105 17:15:32.082509 24357 net.cpp:150] Setting up inception_5b/prelu_pool_proj
I1105 17:15:32.082518 24357 net.cpp:157] Top shape: 32 128 7 7 (200704)
I1105 17:15:32.082522 24357 net.cpp:165] Memory required for data: 1788023816
I1105 17:15:32.082527 24357 layer_factory.hpp:76] Creating layer inception_5b/output
I1105 17:15:32.082535 24357 net.cpp:106] Creating Layer inception_5b/output
I1105 17:15:32.082548 24357 net.cpp:454] inception_5b/output <- inception_5b/1x1
I1105 17:15:32.082553 24357 net.cpp:454] inception_5b/output <- inception_5b/3x3
I1105 17:15:32.082566 24357 net.cpp:454] inception_5b/output <- inception_5b/5x5
I1105 17:15:32.082571 24357 net.cpp:454] inception_5b/output <- inception_5b/pool_proj
I1105 17:15:32.082578 24357 net.cpp:411] inception_5b/output -> inception_5b/output
I1105 17:15:32.082624 24357 net.cpp:150] Setting up inception_5b/output
I1105 17:15:32.082636 24357 net.cpp:157] Top shape: 32 1024 7 7 (1605632)
I1105 17:15:32.082640 24357 net.cpp:165] Memory required for data: 1794446344
I1105 17:15:32.082644 24357 layer_factory.hpp:76] Creating layer pool5/7x7_s1
I1105 17:15:32.082650 24357 net.cpp:106] Creating Layer pool5/7x7_s1
I1105 17:15:32.082655 24357 net.cpp:454] pool5/7x7_s1 <- inception_5b/output
I1105 17:15:32.082677 24357 net.cpp:411] pool5/7x7_s1 -> pool5/7x7_s1
I1105 17:15:32.082851 24357 net.cpp:150] Setting up pool5/7x7_s1
I1105 17:15:32.082861 24357 net.cpp:157] Top shape: 32 1024 1 1 (32768)
I1105 17:15:32.082865 24357 net.cpp:165] Memory required for data: 1794577416
I1105 17:15:32.082870 24357 layer_factory.hpp:76] Creating layer pool5/drop_7x7_s1
I1105 17:15:32.082875 24357 net.cpp:106] Creating Layer pool5/drop_7x7_s1
I1105 17:15:32.082880 24357 net.cpp:454] pool5/drop_7x7_s1 <- pool5/7x7_s1
I1105 17:15:32.082886 24357 net.cpp:397] pool5/drop_7x7_s1 -> pool5/7x7_s1 (in-place)
I1105 17:15:32.082926 24357 net.cpp:150] Setting up pool5/drop_7x7_s1
I1105 17:15:32.082938 24357 net.cpp:157] Top shape: 32 1024 1 1 (32768)
I1105 17:15:32.082942 24357 net.cpp:165] Memory required for data: 1794708488
I1105 17:15:32.082947 24357 layer_factory.hpp:76] Creating layer loss3/classifier2
I1105 17:15:32.082953 24357 net.cpp:106] Creating Layer loss3/classifier2
I1105 17:15:32.082957 24357 net.cpp:454] loss3/classifier2 <- pool5/7x7_s1
I1105 17:15:32.082965 24357 net.cpp:411] loss3/classifier2 -> loss3/classifier
I1105 17:15:32.083132 24357 net.cpp:150] Setting up loss3/classifier2
I1105 17:15:32.083140 24357 net.cpp:157] Top shape: 32 2 (64)
I1105 17:15:32.083144 24357 net.cpp:165] Memory required for data: 1794708744
I1105 17:15:32.083151 24357 layer_factory.hpp:76] Creating layer loss3/loss3
I1105 17:15:32.083158 24357 net.cpp:106] Creating Layer loss3/loss3
I1105 17:15:32.083163 24357 net.cpp:454] loss3/loss3 <- loss3/classifier
I1105 17:15:32.083175 24357 net.cpp:454] loss3/loss3 <- label_data_1_split_2
I1105 17:15:32.083183 24357 net.cpp:411] loss3/loss3 -> loss3/loss3
…
I1105 17:15:32.088178 24357 net.cpp:322] The NetState phase (1) differed from the phase (0) specified by a rule in layer data
I1105 17:15:32.089217 24357 net.cpp:49] Initializing net from parameters: 
name: "GoogleNet"
state {
  phase: TEST
}
layer {
  name: "data"
  type: "Data"
  top: "data"
  top: "label"
  include {
    phase: TEST
  }
  transform_param {
    mirror: false
    crop_size: 224
    mean_value: 104
    mean_value: 117
    mean_value: 123
  }
  data_param {
    source: "../../LMDB/val_1-lmdb"
    batch_size: 50
    backend: LMDB
  }
}
layer {
  name: "conv1/7x7_s2"
  type: "Convolution"
  bottom: "data"
  top: "conv1/7x7_s2"
  param {
    lr_mult: 1
    decay_mult: 1
  }
  param {
    lr_mult: 2
    decay_mult: 0
  }
  convolution_param {
    num_output: 64
    pad: 3
    kernel_size: 7
    stride: 2
    weight_filler {
      type: "xavier"
    }
    bias_filler {
      type: "constant"
      value: 0.2
    }
  }
}
layer {
  name: "conv1/prelu_7x7"
  type: "PReLU"
  bottom: "conv1/7x7_s2"
  top: "conv1/7x7_s2"
  param {
    lr_mult: 1
    decay_mult: 0
  }
  prelu_param {
    filler {
      type: "constant"
      value: 0.01
    }
  }
}
layer {
  name: "pool1/3x3_s2"
  type: "Pooling"
  bottom: "conv1/7x7_s2"
  top: "pool1/3x3_s2"
  pooling_param {
    pool: MAX
    kernel_size: 3
    stride: 2
  }
}
layer {
  name: "pool1/norm1"
  type: "LRN"
  bottom: "pool1/3x3_s2"
  top: "pool1/norm1"
  lrn_param {
    local_size: 5
    alpha: 0.0001
    beta: 0.75
  }
}
layer {
  name: "conv2/3x3_reduce"
  type: "Convolution"
  bottom: "pool1/norm1"
  top: "conv2/3x3_reduce"
  param {
    lr_mult: 1
    decay_mult: 1
  }
  param {
    lr_mult: 2
    decay_mult: 0
  }
  convolution_param {
    num_output: 64
    kernel_size: 1
    weight_filler {
      type: "xavier"
    }
    bias_filler {
      type: "constant"
      value: 0.2
    }
  }
}
layer {
  name: "conv2/prelu_3x3_reduce"
  type: "PReLU"
  bottom: "conv2/3x3_reduce"
  top: "conv2/3x3_reduce"
  param {
    lr_mult: 1
    decay_mult: 0
  }
  prelu_param {
    filler {
      type: "constant"
      value: 0.01
    }
  }
}
layer {
  name: "conv2/3x3"
  type: "Convolution"
  bottom: "conv2/3x3_reduce"
  top: "conv2/3x3"
  param {
    lr_mult: 1
    decay_mult: 1
  }
  param {
    lr_mult: 2
    decay_mult: 0
  }
  convolution_param {
    num_output: 192
    pad: 1
    kernel_size: 3
    weight_filler {
      type: "xavier"
    }
    bias_filler {
      type: "constant"
      value: 0.2
    }
  }
}
layer {
  name: "conv2/prelu_3x3"
  type: "PReLU"
  bottom: "conv2/3x3"
  top: "conv2/3x3"
  param {
    lr_mult: 1
    decay_mult: 0
  }
  prelu_param {
    filler {
      type: "constant"
      value: 0.01
    }
  }
}
layer {
  name: "conv2/norm2"
  type: "LRN"
  bottom: "conv2/3x3"
  top: "conv2/norm2"
  lrn_param {
    local_size: 5
    alpha: 0.0001
    beta: 0.75
  }
}
layer {
  name: "pool2/3x3_s2"
  type: "Pooling"
  bottom: "conv2/norm2"
  top: "pool2/3x3_s2"
  pooling_param {
    pool: MAX
    kernel_size: 3
    stride: 2
  }
}
layer {
  name: "inception_3a/1x1"
  type: "Convolution"
  bottom: "pool2/3x3_s2"
  top: "inception_3a/1x1"
  param {
    lr_mult: 1
    decay_mult: 1
  }
  param {
    lr_mult: 2
    decay_mult: 0
  }
  convolution_param {
    num_output: 64
    kernel_size: 1
    weight_filler {
      type: "xavier"
    }
    bias_filler {
      type: "constant"
      value: 0.2
    }
  }
}
layer {
  name: "inception_3a/prelu_1x1"
  type: "PReLU"
  bottom: "inception_3a/1x1"
  top: "inception_3a/1x1"
  param {
    lr_mult: 1
    decay_mult: 0
  }
  prelu_param {
    filler {
      type: "constant"
      value: 0.01
    }
  }
}
layer {
  name: "inception_3a/3x3_reduce"
  type: "Convolution"
  bottom: "pool2/3x3_s2"
  top: "inception_3a/3x3_reduce"
  param {
    lr_mult: 1
    decay_mult: 1
  }
  param {
    lr_mult: 2
    decay_mult: 0
  }
  convolution_param {
    num_output: 96
    kernel_size: 1
    weight_filler {
      type: "xavier"
    }
    bias_filler {
      type: "constant"
      value: 0.2
    }
  }
}
layer {
  name: "inception_3a/prelu_3x3_reduce"
  type: "PReLU"
  bottom: "inception_3a/3x3_reduce"
  top: "inception_3a/3x3_reduce"
  param {
    lr_mult: 1
    decay_mult: 0
  }
  prelu_param {
    filler {
      type: "constant"
      value: 0.01
    }
  }
}
layer {
  name: "inception_3a/3x3"
  type: "Convolution"
  bottom: "inception_3a/3x3_reduce"
  top: "inception_3a/3x3"
  param {
    lr_mult: 1
    decay_mult: 1
  }
  param {
    lr_mult: 2
    decay_mult: 0
  }
  convolution_param {
    num_output: 128
    pad: 1
    kernel_size: 3
    weight_filler {
      type: "xavier"
    }
    bias_filler {
      type: "constant"
      value: 0.2
    }
  }
}
layer {
  name: "inception_3a/prelu_3x3"
  type: "PReLU"
  bottom: "inception_3a/3x3"
  top: "inception_3a/3x3"
  param {
    lr_mult: 1
    decay_mult: 0
  }
  prelu_param {
    filler {
      type: "constant"
      value: 0.01
    }
  }
}
layer {
  name: "inception_3a/5x5_reduce"
  type: "Convolution"
  bottom: "pool2/3x3_s2"
  top: "inception_3a/5x5_reduce"
  param {
    lr_mult: 1
    decay_mult: 1
  }
  param {
    lr_mult: 2
    decay_mult: 0
  }
  convolution_param {
    num_output: 16
    kernel_size: 1
    weight_filler {
      type: "xavier"
    }
    bias_filler {
      type: "constant"
      value: 0.2
    }
  }
}
layer {
  name: "inception_3a/prelu_5x5_reduce"
  type: "PReLU"
  bottom: "inception_3a/5x5_reduce"
  top: "inception_3a/5x5_reduce"
  param {
    lr_mult: 1
    decay_mult: 0
  }
  prelu_param {
    filler {
      type: "constant"
      value: 0.01
    }
  }
}
layer {
  name: "inception_3a/5x5"
  type: "Convolution"
  bottom: "inception_3a/5x5_reduce"
  top: "inception_3a/5x5"
  param {
    lr_mult: 1
    decay_mult: 1
  }
  param {
    lr_mult: 2
    decay_mult: 0
  }
  convolution_param {
    num_output: 32
    pad: 2
    kernel_size: 5
    weight_filler {
      type: "xavier"
    }
    bias_filler {
      type: "constant"
      value: 0.2
    }
  }
}
layer {
  name: "inception_3a/prelu_5x5"
  type: "PReLU"
  bottom: "inception_3a/5x5"
  top: "inception_3a/5x5"
  param {
    lr_mult: 1
    decay_mult: 0
  }
  prelu_param {
    filler {
      type: "constant"
      value: 0.01
    }
  }
}
layer {
  name: "inception_3a/pool"
  type: "Pooling"
  bottom: "pool2/3x3_s2"
  top: "inception_3a/pool"
  pooling_param {
    pool: MAX
    kernel_size: 3
    stride: 1
    pad: 1
  }
}
layer {
  name: "inception_3a/pool_proj"
  type: "Convolution"
  bottom: "inception_3a/pool"
  top: "inception_3a/pool_proj"
  param {
    lr_mult: 1
    decay_mult: 1
  }
  param {
    lr_mult: 2
    decay_mult: 0
  }
  convolution_param {
    num_output: 32
    kernel_size: 1
    weight_filler {
      type: "xavier"
    }
    bias_filler {
      type: "constant"
      value: 0.2
    }
  }
}
layer {
  name: "inception_3a/prelu_pool_proj"
  type: "PReLU"
  bottom: "inception_3a/pool_proj"
  top: "inception_3a/pool_proj"
  param {
    lr_mult: 1
    decay_mult: 0
  }
  prelu_param {
    filler {
      type: "constant"
      value: 0.01
    }
  }
}
layer {
  name: "inception_3a/output"
  type: "Concat"
  bottom: "inception_3a/1x1"
  bottom: "inception_3a/3x3"
  bottom: "inception_3a/5x5"
  bottom: "inception_3a/pool_proj"
  top: "inception_3a/output"
}
layer {
  name: "inception_3b/1x1"
  type: "Convolution"
  bottom: "inception_3a/output"
  top: "inception_3b/1x1"
  param {
    lr_mult: 1
    decay_mult: 1
  }
  param {
    lr_mult: 2
    decay_mult: 0
  }
  convolution_param {
    num_output: 128
    kernel_size: 1
    weight_filler {
      type: "xavier"
    }
    bias_filler {
      type: "constant"
      value: 0.2
    }
  }
}
layer {
  name: "inception_3b/prelu_1x1"
  type: "PReLU"
  bottom: "inception_3b/1x1"
  top: "inception_3b/1x1"
  param {
    lr_mult: 1
    decay_mult: 0
  }
  prelu_param {
    filler {
      type: "constant"
      value: 0.01
    }
  }
}
layer {
  name: "inception_3b/3x3_reduce"
  type: "Convolution"
  bottom: "inception_3a/output"
  top: "inception_3b/3x3_reduce"
  param {
    lr_mult: 1
    decay_mult: 1
  }
  param {
    lr_mult: 2
    decay_mult: 0
  }
  convolution_param {
    num_output: 128
    kernel_size: 1
    weight_filler {
      type: "xavier"
    }
    bias_filler {
      type: "constant"
      value: 0.2
    }
  }
}
layer {
  name: "inception_3b/prelu_3x3_reduce"
  type: "PReLU"
  bottom: "inception_3b/3x3_reduce"
  top: "inception_3b/3x3_reduce"
  param {
    lr_mult: 1
    decay_mult: 0
  }
  prelu_param {
    filler {
      type: "constant"
      value: 0.01
    }
  }
}
layer {
  name: "inception_3b/3x3"
  type: "Convolution"
  bottom: "inception_3b/3x3_reduce"
  top: "inception_3b/3x3"
  param {
    lr_mult: 1
    decay_mult: 1
  }
  param {
    lr_mult: 2
    decay_mult: 0
  }
  convolution_param {
    num_output: 192
    pad: 1
    kernel_size: 3
    weight_filler {
      type: "xavier"
    }
…
I1105 17:15:32.372511 24357 net.cpp:106] Creating Layer inception_4c/output
I1105 17:15:32.372516 24357 net.cpp:454] inception_4c/output <- inception_4c/1x1
I1105 17:15:32.372521 24357 net.cpp:454] inception_4c/output <- inception_4c/3x3
I1105 17:15:32.372526 24357 net.cpp:454] inception_4c/output <- inception_4c/5x5
I1105 17:15:32.372531 24357 net.cpp:454] inception_4c/output <- inception_4c/pool_proj
I1105 17:15:32.372537 24357 net.cpp:411] inception_4c/output -> inception_4c/output
I1105 17:15:32.372562 24357 net.cpp:150] Setting up inception_4c/output
I1105 17:15:32.372571 24357 net.cpp:157] Top shape: 50 512 14 14 (5017600)
I1105 17:15:32.372575 24357 net.cpp:165] Memory required for data: 2234652208
I1105 17:15:32.372580 24357 layer_factory.hpp:76] Creating layer inception_4c/output_inception_4c/output_0_split
I1105 17:15:32.372586 24357 net.cpp:106] Creating Layer inception_4c/output_inception_4c/output_0_split
I1105 17:15:32.372591 24357 net.cpp:454] inception_4c/output_inception_4c/output_0_split <- inception_4c/output
I1105 17:15:32.372601 24357 net.cpp:411] inception_4c/output_inception_4c/output_0_split -> inception_4c/output_inception_4c/output_0_split_0
I1105 17:15:32.372609 24357 net.cpp:411] inception_4c/output_inception_4c/output_0_split -> inception_4c/output_inception_4c/output_0_split_1
I1105 17:15:32.372617 24357 net.cpp:411] inception_4c/output_inception_4c/output_0_split -> inception_4c/output_inception_4c/output_0_split_2
I1105 17:15:32.372625 24357 net.cpp:411] inception_4c/output_inception_4c/output_0_split -> inception_4c/output_inception_4c/output_0_split_3
I1105 17:15:32.372697 24357 net.cpp:150] Setting up inception_4c/output_inception_4c/output_0_split
I1105 17:15:32.372706 24357 net.cpp:157] Top shape: 50 512 14 14 (5017600)
I1105 17:15:32.372720 24357 net.cpp:157] Top shape: 50 512 14 14 (5017600)
I1105 17:15:32.372725 24357 net.cpp:157] Top shape: 50 512 14 14 (5017600)
I1105 17:15:32.372730 24357 net.cpp:157] Top shape: 50 512 14 14 (5017600)
I1105 17:15:32.372733 24357 net.cpp:165] Memory required for data: 2314933808
I1105 17:15:32.372737 24357 layer_factory.hpp:76] Creating layer inception_4d/1x1
I1105 17:15:32.372746 24357 net.cpp:106] Creating Layer inception_4d/1x1
I1105 17:15:32.372751 24357 net.cpp:454] inception_4d/1x1 <- inception_4c/output_inception_4c/output_0_split_0
I1105 17:15:32.372757 24357 net.cpp:411] inception_4d/1x1 -> inception_4d/1x1
I1105 17:15:32.374507 24357 cudnn_conv_layer.cpp:194] Reallocating workspace storage: 10080
I1105 17:15:32.374558 24357 net.cpp:150] Setting up inception_4d/1x1
I1105 17:15:32.374572 24357 net.cpp:157] Top shape: 50 112 14 14 (1097600)
I1105 17:15:32.374577 24357 net.cpp:165] Memory required for data: 2319324208
I1105 17:15:32.374585 24357 layer_factory.hpp:76] Creating layer inception_4d/prelu_1x1
I1105 17:15:32.374595 24357 net.cpp:106] Creating Layer inception_4d/prelu_1x1
I1105 17:15:32.374601 24357 net.cpp:454] inception_4d/prelu_1x1 <- inception_4d/1x1
I1105 17:15:32.374609 24357 net.cpp:397] inception_4d/prelu_1x1 -> inception_4d/1x1 (in-place)
I1105 17:15:32.374716 24357 net.cpp:150] Setting up inception_4d/prelu_1x1
I1105 17:15:32.374727 24357 net.cpp:157] Top shape: 50 112 14 14 (1097600)
I1105 17:15:32.374732 24357 net.cpp:165] Memory required for data: 2323714608
I1105 17:15:32.374737 24357 layer_factory.hpp:76] Creating layer inception_4d/3x3_reduce
I1105 17:15:32.374745 24357 net.cpp:106] Creating Layer inception_4d/3x3_reduce
I1105 17:15:32.374750 24357 net.cpp:454] inception_4d/3x3_reduce <- inception_4c/output_inception_4c/output_0_split_1
I1105 17:15:32.374758 24357 net.cpp:411] inception_4d/3x3_reduce -> inception_4d/3x3_reduce
I1105 17:15:32.376916 24357 cudnn_conv_layer.cpp:194] Reallocating workspace storage: 10080
I1105 17:15:32.376993 24357 net.cpp:150] Setting up inception_4d/3x3_reduce
I1105 17:15:32.377014 24357 net.cpp:157] Top shape: 50 144 14 14 (1411200)
I1105 17:15:32.377023 24357 net.cpp:165] Memory required for data: 2329359408
I1105 17:15:32.377039 24357 layer_factory.hpp:76] Creating layer inception_4d/prelu_3x3_reduce
I1105 17:15:32.377060 24357 net.cpp:106] Creating Layer inception_4d/prelu_3x3_reduce
I1105 17:15:32.377081 24357 net.cpp:454] inception_4d/prelu_3x3_reduce <- inception_4d/3x3_reduce
I1105 17:15:32.377099 24357 net.cpp:397] inception_4d/prelu_3x3_reduce -> inception_4d/3x3_reduce (in-place)
I1105 17:15:32.377295 24357 net.cpp:150] Setting up inception_4d/prelu_3x3_reduce
I1105 17:15:32.377310 24357 net.cpp:157] Top shape: 50 144 14 14 (1411200)
I1105 17:15:32.377320 24357 net.cpp:165] Memory required for data: 2335004208
I1105 17:15:32.377333 24357 layer_factory.hpp:76] Creating layer inception_4d/3x3
I1105 17:15:32.377353 24357 net.cpp:106] Creating Layer inception_4d/3x3
I1105 17:15:32.377365 24357 net.cpp:454] inception_4d/3x3 <- inception_4d/3x3_reduce
I1105 17:15:32.377379 24357 net.cpp:411] inception_4d/3x3 -> inception_4d/3x3
I1105 17:15:32.382082 24357 cudnn_conv_layer.cpp:194] Reallocating workspace storage: 10080
I1105 17:15:32.382160 24357 net.cpp:150] Setting up inception_4d/3x3
I1105 17:15:32.382174 24357 net.cpp:157] Top shape: 50 288 14 14 (2822400)
I1105 17:15:32.382180 24357 net.cpp:165] Memory required for data: 2346293808
I1105 17:15:32.382189 24357 layer_factory.hpp:76] Creating layer inception_4d/prelu_3x3
I1105 17:15:32.382205 24357 net.cpp:106] Creating Layer inception_4d/prelu_3x3
I1105 17:15:32.382212 24357 net.cpp:454] inception_4d/prelu_3x3 <- inception_4d/3x3
I1105 17:15:32.382222 24357 net.cpp:397] inception_4d/prelu_3x3 -> inception_4d/3x3 (in-place)
I1105 17:15:32.382941 24357 net.cpp:150] Setting up inception_4d/prelu_3x3
I1105 17:15:32.382953 24357 net.cpp:157] Top shape: 50 288 14 14 (2822400)
I1105 17:15:32.382957 24357 net.cpp:165] Memory required for data: 2357583408
I1105 17:15:32.382963 24357 layer_factory.hpp:76] Creating layer inception_4d/5x5_reduce
I1105 17:15:32.382977 24357 net.cpp:106] Creating Layer inception_4d/5x5_reduce
I1105 17:15:32.382983 24357 net.cpp:454] inception_4d/5x5_reduce <- inception_4c/output_inception_4c/output_0_split_2
I1105 17:15:32.382992 24357 net.cpp:411] inception_4d/5x5_reduce -> inception_4d/5x5_reduce
I1105 17:15:32.384717 24357 cudnn_conv_layer.cpp:194] Reallocating workspace storage: 10080
I1105 17:15:32.384759 24357 net.cpp:150] Setting up inception_4d/5x5_reduce
I1105 17:15:32.384768 24357 net.cpp:157] Top shape: 50 32 14 14 (313600)
I1105 17:15:32.384780 24357 net.cpp:165] Memory required for data: 2358837808
I1105 17:15:32.384788 24357 layer_factory.hpp:76] Creating layer inception_4d/prelu_5x5_reduce
I1105 17:15:32.384798 24357 net.cpp:106] Creating Layer inception_4d/prelu_5x5_reduce
I1105 17:15:32.384802 24357 net.cpp:454] inception_4d/prelu_5x5_reduce <- inception_4d/5x5_reduce
I1105 17:15:32.384810 24357 net.cpp:397] inception_4d/prelu_5x5_reduce -> inception_4d/5x5_reduce (in-place)
I1105 17:15:32.384898 24357 net.cpp:150] Setting up inception_4d/prelu_5x5_reduce
I1105 17:15:32.384907 24357 net.cpp:157] Top shape: 50 32 14 14 (313600)
I1105 17:15:32.384912 24357 net.cpp:165] Memory required for data: 2360092208
I1105 17:15:32.384917 24357 layer_factory.hpp:76] Creating layer inception_4d/5x5
I1105 17:15:32.384927 24357 net.cpp:106] Creating Layer inception_4d/5x5
I1105 17:15:32.384932 24357 net.cpp:454] inception_4d/5x5 <- inception_4d/5x5_reduce
I1105 17:15:32.384939 24357 net.cpp:411] inception_4d/5x5 -> inception_4d/5x5
I1105 17:15:32.386253 24357 cudnn_conv_layer.cpp:194] Reallocating workspace storage: 13080
I1105 17:15:32.386297 24357 net.cpp:150] Setting up inception_4d/5x5
I1105 17:15:32.386307 24357 net.cpp:157] Top shape: 50 64 14 14 (627200)
I1105 17:15:32.386310 24357 net.cpp:165] Memory required for data: 2362601008
I1105 17:15:32.386318 24357 layer_factory.hpp:76] Creating layer inception_4d/prelu_5x5
I1105 17:15:32.386328 24357 net.cpp:106] Creating Layer inception_4d/prelu_5x5
I1105 17:15:32.386333 24357 net.cpp:454] inception_4d/prelu_5x5 <- inception_4d/5x5
I1105 17:15:32.386340 24357 net.cpp:397] inception_4d/prelu_5x5 -> inception_4d/5x5 (in-place)
I1105 17:15:32.386438 24357 net.cpp:150] Setting up inception_4d/prelu_5x5
I1105 17:15:32.386447 24357 net.cpp:157] Top shape: 50 64 14 14 (627200)
I1105 17:15:32.386451 24357 net.cpp:165] Memory required for data: 2365109808
I1105 17:15:32.386466 24357 layer_factory.hpp:76] Creating layer inception_4d/pool
I1105 17:15:32.386474 24357 net.cpp:106] Creating Layer inception_4d/pool
I1105 17:15:32.386478 24357 net.cpp:454] inception_4d/pool <- inception_4c/output_inception_4c/output_0_split_3
I1105 17:15:32.386487 24357 net.cpp:411] inception_4d/pool -> inception_4d/pool
I1105 17:15:32.386981 24357 net.cpp:150] Setting up inception_4d/pool
I1105 17:15:32.386991 24357 net.cpp:157] Top shape: 50 512 14 14 (5017600)
I1105 17:15:32.387004 24357 net.cpp:165] Memory required for data: 2385180208
I1105 17:15:32.387009 24357 layer_factory.hpp:76] Creating layer inception_4d/pool_proj
I1105 17:15:32.387019 24357 net.cpp:106] Creating Layer inception_4d/pool_proj
I1105 17:15:32.387024 24357 net.cpp:454] inception_4d/pool_proj <- inception_4d/pool
I1105 17:15:32.387032 24357 net.cpp:411] inception_4d/pool_proj -> inception_4d/pool_proj
I1105 17:15:32.388501 24357 cudnn_conv_layer.cpp:194] Reallocating workspace storage: 10080
I1105 17:15:32.388548 24357 net.cpp:150] Setting up inception_4d/pool_proj
I1105 17:15:32.388556 24357 net.cpp:157] Top shape: 50 64 14 14 (627200)
I1105 17:15:32.388561 24357 net.cpp:165] Memory required for data: 2387689008
I1105 17:15:32.388568 24357 layer_factory.hpp:76] Creating layer inception_4d/prelu_pool_proj
I1105 17:15:32.388592 24357 net.cpp:106] Creating Layer inception_4d/prelu_pool_proj
I1105 17:15:32.388597 24357 net.cpp:454] inception_4d/prelu_pool_proj <- inception_4d/pool_proj
I1105 17:15:32.388607 24357 net.cpp:397] inception_4d/prelu_pool_proj -> inception_4d/pool_proj (in-place)
I1105 17:15:32.388705 24357 net.cpp:150] Setting up inception_4d/prelu_pool_proj
I1105 17:15:32.388715 24357 net.cpp:157] Top shape: 50 64 14 14 (627200)
I1105 17:15:32.388726 24357 net.cpp:165] Memory required for data: 2390197808
I1105 17:15:32.388733 24357 layer_factory.hpp:76] Creating layer inception_4d/output
I1105 17:15:32.388741 24357 net.cpp:106] Creating Layer inception_4d/output
I1105 17:15:32.388746 24357 net.cpp:454] inception_4d/output <- inception_4d/1x1
I1105 17:15:32.388751 24357 net.cpp:454] inception_4d/output <- inception_4d/3x3
I1105 17:15:32.388756 24357 net.cpp:454] inception_4d/output <- inception_4d/5x5
I1105 17:15:32.388761 24357 net.cpp:454] inception_4d/output <- inception_4d/pool_proj
I1105 17:15:32.388767 24357 net.cpp:411] inception_4d/output -> inception_4d/output
I1105 17:15:32.388793 24357 net.cpp:150] Setting up inception_4d/output
I1105 17:15:32.388802 24357 net.cpp:157] Top shape: 50 528 14 14 (5174400)
I1105 17:15:32.388805 24357 net.cpp:165] Memory required for data: 2410895408
I1105 17:15:32.388810 24357 layer_factory.hpp:76] Creating layer inception_4d/output_inception_4d/output_0_split
I1105 17:15:32.388818 24357 net.cpp:106] Creating Layer inception_4d/output_inception_4d/output_0_split
I1105 17:15:32.388823 24357 net.cpp:454] inception_4d/output_inception_4d/output_0_split <- inception_4d/output
I1105 17:15:32.388828 24357 net.cpp:411] inception_4d/output_inception_4d/output_0_split -> inception_4d/output_inception_4d/output_0_split_0
I1105 17:15:32.388835 24357 net.cpp:411] inception_4d/output_inception_4d/output_0_split -> inception_4d/output_inception_4d/output_0_split_1
I1105 17:15:32.388842 24357 net.cpp:411] inception_4d/output_inception_4d/output_0_split -> inception_4d/output_inception_4d/output_0_split_2
I1105 17:15:32.388849 24357 net.cpp:411] inception_4d/output_inception_4d/output_0_split -> inception_4d/output_inception_4d/output_0_split_3
I1105 17:15:32.388855 24357 net.cpp:411] inception_4d/output_inception_4d/output_0_split -> inception_4d/output_inception_4d/output_0_split_4
I1105 17:15:32.388926 24357 net.cpp:150] Setting up inception_4d/output_inception_4d/output_0_split
I1105 17:15:32.388934 24357 net.cpp:157] Top shape: 50 528 14 14 (5174400)
I1105 17:15:32.388947 24357 net.cpp:157] Top shape: 50 528 14 14 (5174400)
I1105 17:15:32.388953 24357 net.cpp:157] Top shape: 50 528 14 14 (5174400)
I1105 17:15:32.388957 24357 net.cpp:157] Top shape: 50 528 14 14 (5174400)
I1105 17:15:32.388962 24357 net.cpp:157] Top shape: 50 528 14 14 (5174400)
I1105 17:15:32.388967 24357 net.cpp:165] Memory required for data: 2514383408
I1105 17:15:32.388970 24357 layer_factory.hpp:76] Creating layer loss2/ave_pool
I1105 17:15:32.388978 24357 net.cpp:106] Creating Layer loss2/ave_pool
I1105 17:15:32.388981 24357 net.cpp:454] loss2/ave_pool <- inception_4d/output_inception_4d/output_0_split_0
I1105 17:15:32.388988 24357 net.cpp:411] loss2/ave_pool -> loss2/ave_pool
I1105 17:15:32.389190 24357 net.cpp:150] Setting up loss2/ave_pool
I1105 17:15:32.389202 24357 net.cpp:157] Top shape: 50 528 4 4 (422400)
I1105 17:15:32.389214 24357 net.cpp:165] Memory required for data: 2516073008
I1105 17:15:32.389219 24357 layer_factory.hpp:76] Creating layer loss2/conv
I1105 17:15:32.389227 24357 net.cpp:106] Creating Layer loss2/conv
I1105 17:15:32.389232 24357 net.cpp:454] loss2/conv <- loss2/ave_pool
I1105 17:15:32.389240 24357 net.cpp:411] loss2/conv -> loss2/conv
I1105 17:15:32.390944 24357 cudnn_conv_layer.cpp:194] Reallocating workspace storage: 6840
I1105 17:15:32.390986 24357 net.cpp:150] Setting up loss2/conv
I1105 17:15:32.391003 24357 net.cpp:157] Top shape: 50 128 4 4 (102400)
I1105 17:15:32.391016 24357 net.cpp:165] Memory required for data: 2516482608
I1105 17:15:32.391023 24357 layer_factory.hpp:76] Creating layer loss2/prelu_conv
I1105 17:15:32.391044 24357 net.cpp:106] Creating Layer loss2/prelu_conv
I1105 17:15:32.391050 24357 net.cpp:454] loss2/prelu_conv <- loss2/conv
I1105 17:15:32.391057 24357 net.cpp:397] loss2/prelu_conv -> loss2/conv (in-place)
I1105 17:15:32.391165 24357 net.cpp:150] Setting up loss2/prelu_conv
I1105 17:15:32.391175 24357 net.cpp:157] Top shape: 50 128 4 4 (102400)
I1105 17:15:32.391178 24357 net.cpp:165] Memory required for data: 2516892208
I1105 17:15:32.391193 24357 layer_factory.hpp:76] Creating layer loss2/fc
I1105 17:15:32.391201 24357 net.cpp:106] Creating Layer loss2/fc
I1105 17:15:32.391206 24357 net.cpp:454] loss2/fc <- loss2/conv
I1105 17:15:32.391212 24357 net.cpp:411] loss2/fc -> loss2/fc
I1105 17:15:32.407032 24357 net.cpp:150] Setting up loss2/fc
I1105 17:15:32.407076 24357 net.cpp:157] Top shape: 50 1024 (51200)
I1105 17:15:32.407084 24357 net.cpp:165] Memory required for data: 2517097008
I1105 17:15:32.407125 24357 layer_factory.hpp:76] Creating layer loss2/prelu_fc
I1105 17:15:32.407145 24357 net.cpp:106] Creating Layer loss2/prelu_fc
I1105 17:15:32.407156 24357 net.cpp:454] loss2/prelu_fc <- loss2/fc
I1105 17:15:32.407172 24357 net.cpp:397] loss2/prelu_fc -> loss2/fc (in-place)
I1105 17:15:32.407344 24357 net.cpp:150] Setting up loss2/prelu_fc
I1105 17:15:32.407359 24357 net.cpp:157] Top shape: 50 1024 (51200)
I1105 17:15:32.407367 24357 net.cpp:165] Memory required for data: 2517301808
I1105 17:15:32.407378 24357 layer_factory.hpp:76] Creating layer loss2/drop_fc
I1105 17:15:32.407392 24357 net.cpp:106] Creating Layer loss2/drop_fc
I1105 17:15:32.407400 24357 net.cpp:454] loss2/drop_fc <- loss2/fc
I1105 17:15:32.407413 24357 net.cpp:397] loss2/drop_fc -> loss2/fc (in-place)
I1105 17:15:32.407449 24357 net.cpp:150] Setting up loss2/drop_fc
I1105 17:15:32.407464 24357 net.cpp:157] Top shape: 50 1024 (51200)
I1105 17:15:32.407472 24357 net.cpp:165] Memory required for data: 2517506608
I1105 17:15:32.407480 24357 layer_factory.hpp:76] Creating layer loss2/classifier2
I1105 17:15:32.407495 24357 net.cpp:106] Creating Layer loss2/classifier2
I1105 17:15:32.407505 24357 net.cpp:454] loss2/classifier2 <- loss2/fc
I1105 17:15:32.407523 24357 net.cpp:411] loss2/classifier2 -> loss2/classifier
I1105 17:15:32.407739 24357 net.cpp:150] Setting up loss2/classifier2
I1105 17:15:32.407757 24357 net.cpp:157] Top shape: 50 2 (100)
I1105 17:15:32.407764 24357 net.cpp:165] Memory required for data: 2517507008
I1105 17:15:32.407776 24357 layer_factory.hpp:76] Creating layer loss2/classifier_loss2/classifier2_0_split
I1105 17:15:32.407788 24357 net.cpp:106] Creating Layer loss2/classifier_loss2/classifier2_0_split
I1105 17:15:32.407798 24357 net.cpp:454] loss2/classifier_loss2/classifier2_0_split <- loss2/classifier
I1105 17:15:32.407807 24357 net.cpp:411] loss2/classifier_loss2/classifier2_0_split -> loss2/classifier_loss2/classifier2_0_split_0
I1105 17:15:32.407819 24357 net.cpp:411] loss2/classifier_loss2/classifier2_0_split -> loss2/classifier_loss2/classifier2_0_split_1
I1105 17:15:32.407871 24357 net.cpp:150] Setting up loss2/classifier_loss2/classifier2_0_split
I1105 17:15:32.407883 24357 net.cpp:157] Top shape: 50 2 (100)
I1105 17:15:32.407891 24357 net.cpp:157] Top shape: 50 2 (100)
I1105 17:15:32.407897 24357 net.cpp:165] Memory required for data: 2517507808
I1105 17:15:32.407903 24357 layer_factory.hpp:76] Creating layer loss2/loss
I1105 17:15:32.407915 24357 net.cpp:106] Creating Layer loss2/loss
I1105 17:15:32.407922 24357 net.cpp:454] loss2/loss <- loss2/classifier_loss2/classifier2_0_split_0
I1105 17:15:32.407930 24357 net.cpp:454] loss2/loss <- label_data_1_split_2
…
I1105 17:15:32.408869 24357 net.cpp:165] Memory required for data: 2517507816
I1105 17:15:32.408872 24357 layer_factory.hpp:76] Creating layer inception_4e/1x1
I1105 17:15:32.408886 24357 net.cpp:106] Creating Layer inception_4e/1x1
I1105 17:15:32.408893 24357 net.cpp:454] inception_4e/1x1 <- inception_4d/output_inception_4d/output_0_split_1
I1105 17:15:32.408900 24357 net.cpp:411] inception_4e/1x1 -> inception_4e/1x1
I1105 17:15:32.411341 24357 cudnn_conv_layer.cpp:194] Reallocating workspace storage: 10080
I1105 17:15:32.411397 24357 net.cpp:150] Setting up inception_4e/1x1
I1105 17:15:32.411411 24357 net.cpp:157] Top shape: 50 256 14 14 (2508800)
I1105 17:15:32.411414 24357 net.cpp:165] Memory required for data: 2527543016
I1105 17:15:32.411423 24357 layer_factory.hpp:76] Creating layer inception_4e/prelu_1x1
I1105 17:15:32.411433 24357 net.cpp:106] Creating Layer inception_4e/prelu_1x1
I1105 17:15:32.411440 24357 net.cpp:454] inception_4e/prelu_1x1 <- inception_4e/1x1
I1105 17:15:32.411448 24357 net.cpp:397] inception_4e/prelu_1x1 -> inception_4e/1x1 (in-place)
I1105 17:15:32.411581 24357 net.cpp:150] Setting up inception_4e/prelu_1x1
I1105 17:15:32.411592 24357 net.cpp:157] Top shape: 50 256 14 14 (2508800)
I1105 17:15:32.411595 24357 net.cpp:165] Memory required for data: 2537578216
I1105 17:15:32.411602 24357 layer_factory.hpp:76] Creating layer inception_4e/3x3_reduce
I1105 17:15:32.411612 24357 net.cpp:106] Creating Layer inception_4e/3x3_reduce
I1105 17:15:32.411617 24357 net.cpp:454] inception_4e/3x3_reduce <- inception_4d/output_inception_4d/output_0_split_2
I1105 17:15:32.411625 24357 net.cpp:411] inception_4e/3x3_reduce -> inception_4e/3x3_reduce
I1105 17:15:32.413352 24357 cudnn_conv_layer.cpp:194] Reallocating workspace storage: 10080
I1105 17:15:32.413408 24357 net.cpp:150] Setting up inception_4e/3x3_reduce
I1105 17:15:32.413426 24357 net.cpp:157] Top shape: 50 160 14 14 (1568000)
I1105 17:15:32.413439 24357 net.cpp:165] Memory required for data: 2543850216
I1105 17:15:32.413447 24357 layer_factory.hpp:76] Creating layer inception_4e/prelu_3x3_reduce
I1105 17:15:32.413455 24357 net.cpp:106] Creating Layer inception_4e/prelu_3x3_reduce
I1105 17:15:32.413460 24357 net.cpp:454] inception_4e/prelu_3x3_reduce <- inception_4e/3x3_reduce
I1105 17:15:32.413468 24357 net.cpp:397] inception_4e/prelu_3x3_reduce -> inception_4e/3x3_reduce (in-place)
I1105 17:15:32.413589 24357 net.cpp:150] Setting up inception_4e/prelu_3x3_reduce
I1105 17:15:32.413599 24357 net.cpp:157] Top shape: 50 160 14 14 (1568000)
I1105 17:15:32.413604 24357 net.cpp:165] Memory required for data: 2550122216
I1105 17:15:32.413616 24357 layer_factory.hpp:76] Creating layer inception_4e/3x3
I1105 17:15:32.413646 24357 net.cpp:106] Creating Layer inception_4e/3x3
I1105 17:15:32.413661 24357 net.cpp:454] inception_4e/3x3 <- inception_4e/3x3_reduce
I1105 17:15:32.413678 24357 net.cpp:411] inception_4e/3x3 -> inception_4e/3x3
I1105 17:15:32.418339 24357 cudnn_conv_layer.cpp:194] Reallocating workspace storage: 10080
I1105 17:15:32.418406 24357 net.cpp:150] Setting up inception_4e/3x3
I1105 17:15:32.418419 24357 net.cpp:157] Top shape: 50 320 14 14 (3136000)
I1105 17:15:32.418423 24357 net.cpp:165] Memory required for data: 2562666216
I1105 17:15:32.418432 24357 layer_factory.hpp:76] Creating layer inception_4e/prelu_3x3
I1105 17:15:32.418454 24357 net.cpp:106] Creating Layer inception_4e/prelu_3x3
I1105 17:15:32.418462 24357 net.cpp:454] inception_4e/prelu_3x3 <- inception_4e/3x3
I1105 17:15:32.418469 24357 net.cpp:397] inception_4e/prelu_3x3 -> inception_4e/3x3 (in-place)
I1105 17:15:32.419066 24357 net.cpp:150] Setting up inception_4e/prelu_3x3
I1105 17:15:32.419077 24357 net.cpp:157] Top shape: 50 320 14 14 (3136000)
I1105 17:15:32.419090 24357 net.cpp:165] Memory required for data: 2575210216
I1105 17:15:32.419096 24357 layer_factory.hpp:76] Creating layer inception_4e/5x5_reduce
I1105 17:15:32.419116 24357 net.cpp:106] Creating Layer inception_4e/5x5_reduce
I1105 17:15:32.419121 24357 net.cpp:454] inception_4e/5x5_reduce <- inception_4d/output_inception_4d/output_0_split_3
I1105 17:15:32.419131 24357 net.cpp:411] inception_4e/5x5_reduce -> inception_4e/5x5_reduce
I1105 17:15:32.420372 24357 cudnn_conv_layer.cpp:194] Reallocating workspace storage: 10080
I1105 17:15:32.420418 24357 net.cpp:150] Setting up inception_4e/5x5_reduce
I1105 17:15:32.420428 24357 net.cpp:157] Top shape: 50 32 14 14 (313600)
I1105 17:15:32.420433 24357 net.cpp:165] Memory required for data: 2576464616
I1105 17:15:32.420439 24357 layer_factory.hpp:76] Creating layer inception_4e/prelu_5x5_reduce
I1105 17:15:32.420449 24357 net.cpp:106] Creating Layer inception_4e/prelu_5x5_reduce
I1105 17:15:32.420456 24357 net.cpp:454] inception_4e/prelu_5x5_reduce <- inception_4e/5x5_reduce
I1105 17:15:32.420462 24357 net.cpp:397] inception_4e/prelu_5x5_reduce -> inception_4e/5x5_reduce (in-place)
I1105 17:15:32.420565 24357 net.cpp:150] Setting up inception_4e/prelu_5x5_reduce
I1105 17:15:32.420575 24357 net.cpp:157] Top shape: 50 32 14 14 (313600)
I1105 17:15:32.420579 24357 net.cpp:165] Memory required for data: 2577719016
I1105 17:15:32.420593 24357 layer_factory.hpp:76] Creating layer inception_4e/5x5
I1105 17:15:32.420603 24357 net.cpp:106] Creating Layer inception_4e/5x5
I1105 17:15:32.420616 24357 net.cpp:454] inception_4e/5x5 <- inception_4e/5x5_reduce
I1105 17:15:32.420624 24357 net.cpp:411] inception_4e/5x5 -> inception_4e/5x5
I1105 17:15:32.422802 24357 cudnn_conv_layer.cpp:194] Reallocating workspace storage: 13080
I1105 17:15:32.422842 24357 net.cpp:150] Setting up inception_4e/5x5
I1105 17:15:32.422852 24357 net.cpp:157] Top shape: 50 128 14 14 (1254400)
I1105 17:15:32.422864 24357 net.cpp:165] Memory required for data: 2582736616
I1105 17:15:32.422873 24357 layer_factory.hpp:76] Creating layer inception_4e/prelu_5x5
I1105 17:15:32.422885 24357 net.cpp:106] Creating Layer inception_4e/prelu_5x5
I1105 17:15:32.422891 24357 net.cpp:454] inception_4e/prelu_5x5 <- inception_4e/5x5
I1105 17:15:32.422897 24357 net.cpp:397] inception_4e/prelu_5x5 -> inception_4e/5x5 (in-place)
I1105 17:15:32.423002 24357 net.cpp:150] Setting up inception_4e/prelu_5x5
I1105 17:15:32.423012 24357 net.cpp:157] Top shape: 50 128 14 14 (1254400)
I1105 17:15:32.423022 24357 net.cpp:165] Memory required for data: 2587754216
I1105 17:15:32.423029 24357 layer_factory.hpp:76] Creating layer inception_4e/pool
I1105 17:15:32.423038 24357 net.cpp:106] Creating Layer inception_4e/pool
I1105 17:15:32.423043 24357 net.cpp:454] inception_4e/pool <- inception_4d/output_inception_4d/output_0_split_4
I1105 17:15:32.423050 24357 net.cpp:411] inception_4e/pool -> inception_4e/pool
I1105 17:15:32.423260 24357 net.cpp:150] Setting up inception_4e/pool
I1105 17:15:32.423270 24357 net.cpp:157] Top shape: 50 528 14 14 (5174400)
I1105 17:15:32.423282 24357 net.cpp:165] Memory required for data: 2608451816
I1105 17:15:32.423287 24357 layer_factory.hpp:76] Creating layer inception_4e/pool_proj
I1105 17:15:32.423296 24357 net.cpp:106] Creating Layer inception_4e/pool_proj
I1105 17:15:32.423302 24357 net.cpp:454] inception_4e/pool_proj <- inception_4e/pool
I1105 17:15:32.423310 24357 net.cpp:411] inception_4e/pool_proj -> inception_4e/pool_proj
I1105 17:15:32.424988 24357 cudnn_conv_layer.cpp:194] Reallocating workspace storage: 10080
I1105 17:15:32.425034 24357 net.cpp:150] Setting up inception_4e/pool_proj
I1105 17:15:32.425051 24357 net.cpp:157] Top shape: 50 128 14 14 (1254400)
I1105 17:15:32.425065 24357 net.cpp:165] Memory required for data: 2613469416
I1105 17:15:32.425078 24357 layer_factory.hpp:76] Creating layer inception_4e/prelu_pool_proj
I1105 17:15:32.425101 24357 net.cpp:106] Creating Layer inception_4e/prelu_pool_proj
I1105 17:15:32.425107 24357 net.cpp:454] inception_4e/prelu_pool_proj <- inception_4e/pool_proj
I1105 17:15:32.425114 24357 net.cpp:397] inception_4e/prelu_pool_proj -> inception_4e/pool_proj (in-place)
I1105 17:15:32.425215 24357 net.cpp:150] Setting up inception_4e/prelu_pool_proj
I1105 17:15:32.425225 24357 net.cpp:157] Top shape: 50 128 14 14 (1254400)
I1105 17:15:32.425236 24357 net.cpp:165] Memory required for data: 2618487016
I1105 17:15:32.425243 24357 layer_factory.hpp:76] Creating layer inception_4e/output
I1105 17:15:32.425252 24357 net.cpp:106] Creating Layer inception_4e/output
I1105 17:15:32.425257 24357 net.cpp:454] inception_4e/output <- inception_4e/1x1
I1105 17:15:32.425262 24357 net.cpp:454] inception_4e/output <- inception_4e/3x3
I1105 17:15:32.425267 24357 net.cpp:454] inception_4e/output <- inception_4e/5x5
I1105 17:15:32.425272 24357 net.cpp:454] inception_4e/output <- inception_4e/pool_proj
I1105 17:15:32.425277 24357 net.cpp:411] inception_4e/output -> inception_4e/output
I1105 17:15:32.425303 24357 net.cpp:150] Setting up inception_4e/output
I1105 17:15:32.425320 24357 net.cpp:157] Top shape: 50 832 14 14 (8153600)
I1105 17:15:32.425333 24357 net.cpp:165] Memory required for data: 2651101416
I1105 17:15:32.425338 24357 layer_factory.hpp:76] Creating layer pool4/3x3_s2
I1105 17:15:32.425343 24357 net.cpp:106] Creating Layer pool4/3x3_s2
I1105 17:15:32.425348 24357 net.cpp:454] pool4/3x3_s2 <- inception_4e/output
I1105 17:15:32.425355 24357 net.cpp:411] pool4/3x3_s2 -> pool4/3x3_s2
I1105 17:15:32.425572 24357 net.cpp:150] Setting up pool4/3x3_s2
I1105 17:15:32.425583 24357 net.cpp:157] Top shape: 50 832 7 7 (2038400)
I1105 17:15:32.425596 24357 net.cpp:165] Memory required for data: 2659255016
I1105 17:15:32.425601 24357 layer_factory.hpp:76] Creating layer pool4/3x3_s2_pool4/3x3_s2_0_split
I1105 17:15:32.425607 24357 net.cpp:106] Creating Layer pool4/3x3_s2_pool4/3x3_s2_0_split
I1105 17:15:32.425612 24357 net.cpp:454] pool4/3x3_s2_pool4/3x3_s2_0_split <- pool4/3x3_s2
I1105 17:15:32.425618 24357 net.cpp:411] pool4/3x3_s2_pool4/3x3_s2_0_split -> pool4/3x3_s2_pool4/3x3_s2_0_split_0
I1105 17:15:32.425626 24357 net.cpp:411] pool4/3x3_s2_pool4/3x3_s2_0_split -> pool4/3x3_s2_pool4/3x3_s2_0_split_1
I1105 17:15:32.425632 24357 net.cpp:411] pool4/3x3_s2_pool4/3x3_s2_0_split -> pool4/3x3_s2_pool4/3x3_s2_0_split_2
I1105 17:15:32.425640 24357 net.cpp:411] pool4/3x3_s2_pool4/3x3_s2_0_split -> pool4/3x3_s2_pool4/3x3_s2_0_split_3
I1105 17:15:32.425704 24357 net.cpp:150] Setting up pool4/3x3_s2_pool4/3x3_s2_0_split
I1105 17:15:32.425712 24357 net.cpp:157] Top shape: 50 832 7 7 (2038400)
I1105 17:15:32.425726 24357 net.cpp:157] Top shape: 50 832 7 7 (2038400)
I1105 17:15:32.425731 24357 net.cpp:157] Top shape: 50 832 7 7 (2038400)
I1105 17:15:32.425736 24357 net.cpp:157] Top shape: 50 832 7 7 (2038400)
I1105 17:15:32.425740 24357 net.cpp:165] Memory required for data: 2691869416
I1105 17:15:32.425745 24357 layer_factory.hpp:76] Creating layer inception_5a/1x1
I1105 17:15:32.425753 24357 net.cpp:106] Creating Layer inception_5a/1x1
I1105 17:15:32.425758 24357 net.cpp:454] inception_5a/1x1 <- pool4/3x3_s2_pool4/3x3_s2_0_split_0
I1105 17:15:32.425766 24357 net.cpp:411] inception_5a/1x1 -> inception_5a/1x1
I1105 17:15:32.429129 24357 cudnn_conv_layer.cpp:194] Reallocating workspace storage: 7428
I1105 17:15:32.429189 24357 net.cpp:150] Setting up inception_5a/1x1
I1105 17:15:32.429203 24357 net.cpp:157] Top shape: 50 256 7 7 (627200)
I1105 17:15:32.429208 24357 net.cpp:165] Memory required for data: 2694378216
I1105 17:15:32.429217 24357 layer_factory.hpp:76] Creating layer inception_5a/prelu_1x1
I1105 17:15:32.429230 24357 net.cpp:106] Creating Layer inception_5a/prelu_1x1
I1105 17:15:32.429236 24357 net.cpp:454] inception_5a/prelu_1x1 <- inception_5a/1x1
I1105 17:15:32.429245 24357 net.cpp:397] inception_5a/prelu_1x1 -> inception_5a/1x1 (in-place)
I1105 17:15:32.429350 24357 net.cpp:150] Setting up inception_5a/prelu_1x1
I1105 17:15:32.429360 24357 net.cpp:157] Top shape: 50 256 7 7 (627200)
I1105 17:15:32.429379 24357 net.cpp:165] Memory required for data: 2696887016
I1105 17:15:32.429388 24357 layer_factory.hpp:76] Creating layer inception_5a/3x3_reduce
I1105 17:15:32.429399 24357 net.cpp:106] Creating Layer inception_5a/3x3_reduce
I1105 17:15:32.429405 24357 net.cpp:454] inception_5a/3x3_reduce <- pool4/3x3_s2_pool4/3x3_s2_0_split_1
I1105 17:15:32.429414 24357 net.cpp:411] inception_5a/3x3_reduce -> inception_5a/3x3_reduce
I1105 17:15:32.431989 24357 cudnn_conv_layer.cpp:194] Reallocating workspace storage: 7428
I1105 17:15:32.432047 24357 net.cpp:150] Setting up inception_5a/3x3_reduce
I1105 17:15:32.432066 24357 net.cpp:157] Top shape: 50 160 7 7 (392000)
I1105 17:15:32.432080 24357 net.cpp:165] Memory required for data: 2698455016
I1105 17:15:32.432088 24357 layer_factory.hpp:76] Creating layer inception_5a/prelu_3x3_reduce
I1105 17:15:32.432099 24357 net.cpp:106] Creating Layer inception_5a/prelu_3x3_reduce
I1105 17:15:32.432106 24357 net.cpp:454] inception_5a/prelu_3x3_reduce <- inception_5a/3x3_reduce
I1105 17:15:32.432114 24357 net.cpp:397] inception_5a/prelu_3x3_reduce -> inception_5a/3x3_reduce (in-place)
I1105 17:15:32.432215 24357 net.cpp:150] Setting up inception_5a/prelu_3x3_reduce
I1105 17:15:32.432224 24357 net.cpp:157] Top shape: 50 160 7 7 (392000)
I1105 17:15:32.432236 24357 net.cpp:165] Memory required for data: 2700023016
I1105 17:15:32.432243 24357 layer_factory.hpp:76] Creating layer inception_5a/3x3
I1105 17:15:32.432253 24357 net.cpp:106] Creating Layer inception_5a/3x3
I1105 17:15:32.432258 24357 net.cpp:454] inception_5a/3x3 <- inception_5a/3x3_reduce
I1105 17:15:32.432266 24357 net.cpp:411] inception_5a/3x3 -> inception_5a/3x3
I1105 17:15:32.437085 24357 cudnn_conv_layer.cpp:194] Reallocating workspace storage: 7788
I1105 17:15:32.437158 24357 net.cpp:150] Setting up inception_5a/3x3
I1105 17:15:32.437171 24357 net.cpp:157] Top shape: 50 320 7 7 (784000)
I1105 17:15:32.437176 24357 net.cpp:165] Memory required for data: 2703159016
I1105 17:15:32.437188 24357 layer_factory.hpp:76] Creating layer inception_5a/prelu_3x3
I1105 17:15:32.437206 24357 net.cpp:106] Creating Layer inception_5a/prelu_3x3
I1105 17:15:32.437216 24357 net.cpp:454] inception_5a/prelu_3x3 <- inception_5a/3x3
I1105 17:15:32.437224 24357 net.cpp:397] inception_5a/prelu_3x3 -> inception_5a/3x3 (in-place)
I1105 17:15:32.437361 24357 net.cpp:150] Setting up inception_5a/prelu_3x3
I1105 17:15:32.437371 24357 net.cpp:157] Top shape: 50 320 7 7 (784000)
I1105 17:15:32.437376 24357 net.cpp:165] Memory required for data: 2706295016
I1105 17:15:32.437381 24357 layer_factory.hpp:76] Creating layer inception_5a/5x5_reduce
I1105 17:15:32.437392 24357 net.cpp:106] Creating Layer inception_5a/5x5_reduce
I1105 17:15:32.437399 24357 net.cpp:454] inception_5a/5x5_reduce <- pool4/3x3_s2_pool4/3x3_s2_0_split_2
I1105 17:15:32.437407 24357 net.cpp:411] inception_5a/5x5_reduce -> inception_5a/5x5_reduce
I1105 17:15:32.438798 24357 cudnn_conv_layer.cpp:194] Reallocating workspace storage: 7428
I1105 17:15:32.438848 24357 net.cpp:150] Setting up inception_5a/5x5_reduce
I1105 17:15:32.438858 24357 net.cpp:157] Top shape: 50 32 7 7 (78400)
I1105 17:15:32.438861 24357 net.cpp:165] Memory required for data: 2706608616
I1105 17:15:32.438868 24357 layer_factory.hpp:76] Creating layer inception_5a/prelu_5x5_reduce
I1105 17:15:32.438879 24357 net.cpp:106] Creating Layer inception_5a/prelu_5x5_reduce
I1105 17:15:32.438884 24357 net.cpp:454] inception_5a/prelu_5x5_reduce <- inception_5a/5x5_reduce
I1105 17:15:32.438891 24357 net.cpp:397] inception_5a/prelu_5x5_reduce -> inception_5a/5x5_reduce (in-place)
I1105 17:15:32.439004 24357 net.cpp:150] Setting up inception_5a/prelu_5x5_reduce
I1105 17:15:32.439013 24357 net.cpp:157] Top shape: 50 32 7 7 (78400)
I1105 17:15:32.439025 24357 net.cpp:165] Memory required for data: 2706922216
I1105 17:15:32.439033 24357 layer_factory.hpp:76] Creating layer inception_5a/5x5
I1105 17:15:32.439044 24357 net.cpp:106] Creating Layer inception_5a/5x5
I1105 17:15:32.439062 24357 net.cpp:454] inception_5a/5x5 <- inception_5a/5x5_reduce
I1105 17:15:32.439070 24357 net.cpp:411] inception_5a/5x5 -> inception_5a/5x5
I1105 17:15:32.440611 24357 cudnn_conv_layer.cpp:194] Reallocating workspace storage: 9804
I1105 17:15:32.440657 24357 net.cpp:150] Setting up inception_5a/5x5
I1105 17:15:32.440666 24357 net.cpp:157] Top shape: 50 128 7 7 (313600)
I1105 17:15:32.440670 24357 net.cpp:165] Memory required for data: 2708176616
I1105 17:15:32.440677 24357 layer_factory.hpp:76] Creating layer inception_5a/prelu_5x5
I1105 17:15:32.440685 24357 net.cpp:106] Creating Layer inception_5a/prelu_5x5
I1105 17:15:32.440690 24357 net.cpp:454] inception_5a/prelu_5x5 <- inception_5a/5x5
I1105 17:15:32.440699 24357 net.cpp:397] inception_5a/prelu_5x5 -> inception_5a/5x5 (in-place)
I1105 17:15:32.440807 24357 net.cpp:150] Setting up inception_5a/prelu_5x5
I1105 17:15:32.440816 24357 net.cpp:157] Top shape: 50 128 7 7 (313600)
I1105 17:15:32.440821 24357 net.cpp:165] Memory required for data: 2709431016
I1105 17:15:32.440834 24357 layer_factory.hpp:76] Creating layer inception_5a/pool
I1105 17:15:32.440842 24357 net.cpp:106] Creating Layer inception_5a/pool
I1105 17:15:32.440847 24357 net.cpp:454] inception_5a/pool <- pool4/3x3_s2_pool4/3x3_s2_0_split_3
I1105 17:15:32.440855 24357 net.cpp:411] inception_5a/pool -> inception_5a/pool
I1105 17:15:32.441287 24357 net.cpp:150] Setting up inception_5a/pool
I1105 17:15:32.441300 24357 net.cpp:157] Top shape: 50 832 7 7 (2038400)
I1105 17:15:32.441313 24357 net.cpp:165] Memory required for data: 2717584616
I1105 17:15:32.441318 24357 layer_factory.hpp:76] Creating layer inception_5a/pool_proj
I1105 17:15:32.441329 24357 net.cpp:106] Creating Layer inception_5a/pool_proj
I1105 17:15:32.441334 24357 net.cpp:454] inception_5a/pool_proj <- inception_5a/pool
I1105 17:15:32.441341 24357 net.cpp:411] inception_5a/pool_proj -> inception_5a/pool_proj
I1105 17:15:32.443593 24357 cudnn_conv_layer.cpp:194] Reallocating workspace storage: 7428
I1105 17:15:32.443632 24357 net.cpp:150] Setting up inception_5a/pool_proj
I1105 17:15:32.443642 24357 net.cpp:157] Top shape: 50 128 7 7 (313600)
I1105 17:15:32.443647 24357 net.cpp:165] Memory required for data: 2718839016
I1105 17:15:32.443655 24357 layer_factory.hpp:76] Creating layer inception_5a/prelu_pool_proj
I1105 17:15:32.443663 24357 net.cpp:106] Creating Layer inception_5a/prelu_pool_proj
I1105 17:15:32.443668 24357 net.cpp:454] inception_5a/prelu_pool_proj <- inception_5a/pool_proj
I1105 17:15:32.443686 24357 net.cpp:397] inception_5a/prelu_pool_proj -> inception_5a/pool_proj (in-place)
I1105 17:15:32.443781 24357 net.cpp:150] Setting up inception_5a/prelu_pool_proj
I1105 17:15:32.443791 24357 net.cpp:157] Top shape: 50 128 7 7 (313600)
I1105 17:15:32.443795 24357 net.cpp:165] Memory required for data: 2720093416
I1105 17:15:32.443800 24357 layer_factory.hpp:76] Creating layer inception_5a/output
I1105 17:15:32.443809 24357 net.cpp:106] Creating Layer inception_5a/output
I1105 17:15:32.443814 24357 net.cpp:454] inception_5a/output <- inception_5a/1x1
I1105 17:15:32.443819 24357 net.cpp:454] inception_5a/output <- inception_5a/3x3
I1105 17:15:32.443825 24357 net.cpp:454] inception_5a/output <- inception_5a/5x5
I1105 17:15:32.443828 24357 net.cpp:454] inception_5a/output <- inception_5a/pool_proj
I1105 17:15:32.443843 24357 net.cpp:411] inception_5a/output -> inception_5a/output
I1105 17:15:32.443869 24357 net.cpp:150] Setting up inception_5a/output
I1105 17:15:32.443877 24357 net.cpp:157] Top shape: 50 832 7 7 (2038400)
I1105 17:15:32.443881 24357 net.cpp:165] Memory required for data: 2728247016
I1105 17:15:32.443902 24357 layer_factory.hpp:76] Creating layer inception_5a/output_inception_5a/output_0_split
I1105 17:15:32.443909 24357 net.cpp:106] Creating Layer inception_5a/output_inception_5a/output_0_split
I1105 17:15:32.443914 24357 net.cpp:454] inception_5a/output_inception_5a/output_0_split <- inception_5a/output
I1105 17:15:32.443922 24357 net.cpp:411] inception_5a/output_inception_5a/output_0_split -> inception_5a/output_inception_5a/output_0_split_0
I1105 17:15:32.443955 24357 net.cpp:411] inception_5a/output_inception_5a/output_0_split -> inception_5a/output_inception_5a/output_0_split_1
I1105 17:15:32.443964 24357 net.cpp:411] inception_5a/output_inception_5a/output_0_split -> inception_5a/output_inception_5a/output_0_split_2
I1105 17:15:32.443970 24357 net.cpp:411] inception_5a/output_inception_5a/output_0_split -> inception_5a/output_inception_5a/output_0_split_3
I1105 17:15:32.444062 24357 net.cpp:150] Setting up inception_5a/output_inception_5a/output_0_split
I1105 17:15:32.444074 24357 net.cpp:157] Top shape: 50 832 7 7 (2038400)
I1105 17:15:32.444080 24357 net.cpp:157] Top shape: 50 832 7 7 (2038400)
I1105 17:15:32.444087 24357 net.cpp:157] Top shape: 50 832 7 7 (2038400)
I1105 17:15:32.444094 24357 net.cpp:157] Top shape: 50 832 7 7 (2038400)
I1105 17:15:32.444099 24357 net.cpp:165] Memory required for data: 2760861416
I1105 17:15:32.444105 24357 layer_factory.hpp:76] Creating layer inception_5b/1x1
I1105 17:15:32.444123 24357 net.cpp:106] Creating Layer inception_5b/1x1
I1105 17:15:32.444130 24357 net.cpp:454] inception_5b/1x1 <- inception_5a/output_inception_5a/output_0_split_0
I1105 17:15:32.444141 24357 net.cpp:411] inception_5b/1x1 -> inception_5b/1x1
I1105 17:15:32.448227 24357 cudnn_conv_layer.cpp:194] Reallocating workspace storage: 7428
I1105 17:15:32.448293 24357 net.cpp:150] Setting up inception_5b/1x1
I1105 17:15:32.448304 24357 net.cpp:157] Top shape: 50 384 7 7 (940800)
I1105 17:15:32.448309 24357 net.cpp:165] Memory required for data: 2764624616
I1105 17:15:32.448318 24357 layer_factory.hpp:76] Creating layer inception_5b/prelu_1x1
I1105 17:15:32.448330 24357 net.cpp:106] Creating Layer inception_5b/prelu_1x1
I1105 17:15:32.448338 24357 net.cpp:454] inception_5b/prelu_1x1 <- inception_5b/1x1
I1105 17:15:32.448345 24357 net.cpp:397] inception_5b/prelu_1x1 -> inception_5b/1x1 (in-place)
I1105 17:15:32.448473 24357 net.cpp:150] Setting up inception_5b/prelu_1x1
I1105 17:15:32.448482 24357 net.cpp:157] Top shape: 50 384 7 7 (940800)
I1105 17:15:32.448487 24357 net.cpp:165] Memory required for data: 2768387816
I1105 17:15:32.448503 24357 layer_factory.hpp:76] Creating layer inception_5b/3x3_reduce
I1105 17:15:32.448515 24357 net.cpp:106] Creating Layer inception_5b/3x3_reduce
I1105 17:15:32.448520 24357 net.cpp:454] inception_5b/3x3_reduce <- inception_5a/output_inception_5a/output_0_split_1
I1105 17:15:32.448528 24357 net.cpp:411] inception_5b/3x3_reduce -> inception_5b/3x3_reduce
I1105 17:15:32.450908 24357 cudnn_conv_layer.cpp:194] Reallocating workspace storage: 7428
I1105 17:15:32.450958 24357 net.cpp:150] Setting up inception_5b/3x3_reduce
I1105 17:15:32.450975 24357 net.cpp:157] Top shape: 50 192 7 7 (470400)
I1105 17:15:32.450980 24357 net.cpp:165] Memory required for data: 2770269416
I1105 17:15:32.450989 24357 layer_factory.hpp:76] Creating layer inception_5b/prelu_3x3_reduce
I1105 17:15:32.450996 24357 net.cpp:106] Creating Layer inception_5b/prelu_3x3_reduce
I1105 17:15:32.451002 24357 net.cpp:454] inception_5b/prelu_3x3_reduce <- inception_5b/3x3_reduce
I1105 17:15:32.451020 24357 net.cpp:397] inception_5b/prelu_3x3_reduce -> inception_5b/3x3_reduce (in-place)
I1105 17:15:32.451127 24357 net.cpp:150] Setting up inception_5b/prelu_3x3_reduce
I1105 17:15:32.451136 24357 net.cpp:157] Top shape: 50 192 7 7 (470400)
I1105 17:15:32.451140 24357 net.cpp:165] Memory required for data: 2772151016
I1105 17:15:32.451146 24357 layer_factory.hpp:76] Creating layer inception_5b/3x3
I1105 17:15:32.451156 24357 net.cpp:106] Creating Layer inception_5b/3x3
I1105 17:15:32.451161 24357 net.cpp:454] inception_5b/3x3 <- inception_5b/3x3_reduce
I1105 17:15:32.451169 24357 net.cpp:411] inception_5b/3x3 -> inception_5b/3x3
I1105 17:15:32.456904 24357 cudnn_conv_layer.cpp:194] Reallocating workspace storage: 7788
I1105 17:15:32.456959 24357 net.cpp:150] Setting up inception_5b/3x3
I1105 17:15:32.456970 24357 net.cpp:157] Top shape: 50 384 7 7 (940800)
I1105 17:15:32.456975 24357 net.cpp:165] Memory required for data: 2775914216
I1105 17:15:32.457015 24357 layer_factory.hpp:76] Creating layer inception_5b/prelu_3x3
I1105 17:15:32.457027 24357 net.cpp:106] Creating Layer inception_5b/prelu_3x3
I1105 17:15:32.457041 24357 net.cpp:454] inception_5b/prelu_3x3 <- inception_5b/3x3
I1105 17:15:32.457057 24357 net.cpp:397] inception_5b/prelu_3x3 -> inception_5b/3x3 (in-place)
I1105 17:15:32.457211 24357 net.cpp:150] Setting up inception_5b/prelu_3x3
I1105 17:15:32.457222 24357 net.cpp:157] Top shape: 50 384 7 7 (940800)
I1105 17:15:32.457226 24357 net.cpp:165] Memory required for data: 2779677416
I1105 17:15:32.457239 24357 layer_factory.hpp:76] Creating layer inception_5b/5x5_reduce
I1105 17:15:32.457250 24357 net.cpp:106] Creating Layer inception_5b/5x5_reduce
I1105 17:15:32.457257 24357 net.cpp:454] inception_5b/5x5_reduce <- inception_5a/output_inception_5a/output_0_split_2
I1105 17:15:32.457264 24357 net.cpp:411] inception_5b/5x5_reduce -> inception_5b/5x5_reduce
I1105 17:15:32.458858 24357 cudnn_conv_layer.cpp:194] Reallocating workspace storage: 7428
I1105 17:15:32.458892 24357 net.cpp:150] Setting up inception_5b/5x5_reduce
I1105 17:15:32.458902 24357 net.cpp:157] Top shape: 50 48 7 7 (117600)
I1105 17:15:32.458909 24357 net.cpp:165] Memory required for data: 2780147816
I1105 17:15:32.458916 24357 layer_factory.hpp:76] Creating layer inception_5b/prelu_5x5_reduce
I1105 17:15:32.458941 24357 net.cpp:106] Creating Layer inception_5b/prelu_5x5_reduce
I1105 17:15:32.458947 24357 net.cpp:454] inception_5b/prelu_5x5_reduce <- inception_5b/5x5_reduce
I1105 17:15:32.458956 24357 net.cpp:397] inception_5b/prelu_5x5_reduce -> inception_5b/5x5_reduce (in-place)
I1105 17:15:32.459084 24357 net.cpp:150] Setting up inception_5b/prelu_5x5_reduce
I1105 17:15:32.459092 24357 net.cpp:157] Top shape: 50 48 7 7 (117600)
I1105 17:15:32.459096 24357 net.cpp:165] Memory required for data: 2780618216
I1105 17:15:32.459102 24357 layer_factory.hpp:76] Creating layer inception_5b/5x5
I1105 17:15:32.459112 24357 net.cpp:106] Creating Layer inception_5b/5x5
I1105 17:15:32.459118 24357 net.cpp:454] inception_5b/5x5 <- inception_5b/5x5_reduce
I1105 17:15:32.459125 24357 net.cpp:411] inception_5b/5x5 -> inception_5b/5x5
I1105 17:15:32.461191 24357 cudnn_conv_layer.cpp:194] Reallocating workspace storage: 9804
I1105 17:15:32.461225 24357 net.cpp:150] Setting up inception_5b/5x5
I1105 17:15:32.461236 24357 net.cpp:157] Top shape: 50 128 7 7 (313600)
I1105 17:15:32.461242 24357 net.cpp:165] Memory required for data: 2781872616
I1105 17:15:32.461249 24357 layer_factory.hpp:76] Creating layer inception_5b/prelu_5x5
I1105 17:15:32.461272 24357 net.cpp:106] Creating Layer inception_5b/prelu_5x5
I1105 17:15:32.461278 24357 net.cpp:454] inception_5b/prelu_5x5 <- inception_5b/5x5
I1105 17:15:32.461284 24357 net.cpp:397] inception_5b/prelu_5x5 -> inception_5b/5x5 (in-place)
I1105 17:15:32.461380 24357 net.cpp:150] Setting up inception_5b/prelu_5x5
I1105 17:15:32.461388 24357 net.cpp:157] Top shape: 50 128 7 7 (313600)
I1105 17:15:32.461392 24357 net.cpp:165] Memory required for data: 2783127016
I1105 17:15:32.461398 24357 layer_factory.hpp:76] Creating layer inception_5b/pool
I1105 17:15:32.461407 24357 net.cpp:106] Creating Layer inception_5b/pool
I1105 17:15:32.461412 24357 net.cpp:454] inception_5b/pool <- inception_5a/output_inception_5a/output_0_split_3
I1105 17:15:32.461419 24357 net.cpp:411] inception_5b/pool -> inception_5b/pool
I1105 17:15:32.461624 24357 net.cpp:150] Setting up inception_5b/pool
I1105 17:15:32.461634 24357 net.cpp:157] Top shape: 50 832 7 7 (2038400)
I1105 17:15:32.461638 24357 net.cpp:165] Memory required for data: 2791280616
I1105 17:15:32.461642 24357 layer_factory.hpp:76] Creating layer inception_5b/pool_proj
I1105 17:15:32.461652 24357 net.cpp:106] Creating Layer inception_5b/pool_proj
I1105 17:15:32.461658 24357 net.cpp:454] inception_5b/pool_proj <- inception_5b/pool
I1105 17:15:32.461665 24357 net.cpp:411] inception_5b/pool_proj -> inception_5b/pool_proj
I1105 17:15:32.463871 24357 cudnn_conv_layer.cpp:194] Reallocating workspace storage: 7428
I1105 17:15:32.463923 24357 net.cpp:150] Setting up inception_5b/pool_proj
I1105 17:15:32.463933 24357 net.cpp:157] Top shape: 50 128 7 7 (313600)
I1105 17:15:32.463937 24357 net.cpp:165] Memory required for data: 2792535016
I1105 17:15:32.463953 24357 layer_factory.hpp:76] Creating layer inception_5b/prelu_pool_proj
I1105 17:15:32.463963 24357 net.cpp:106] Creating Layer inception_5b/prelu_pool_proj
I1105 17:15:32.463968 24357 net.cpp:454] inception_5b/prelu_pool_proj <- inception_5b/pool_proj
I1105 17:15:32.463974 24357 net.cpp:397] inception_5b/prelu_pool_proj -> inception_5b/pool_proj (in-place)
I1105 17:15:32.464061 24357 net.cpp:150] Setting up inception_5b/prelu_pool_proj
I1105 17:15:32.464069 24357 net.cpp:157] Top shape: 50 128 7 7 (313600)
I1105 17:15:32.464073 24357 net.cpp:165] Memory required for data: 2793789416
I1105 17:15:32.464078 24357 layer_factory.hpp:76] Creating layer inception_5b/output
I1105 17:15:32.464093 24357 net.cpp:106] Creating Layer inception_5b/output
I1105 17:15:32.464098 24357 net.cpp:454] inception_5b/output <- inception_5b/1x1
I1105 17:15:32.464104 24357 net.cpp:454] inception_5b/output <- inception_5b/3x3
I1105 17:15:32.464108 24357 net.cpp:454] inception_5b/output <- inception_5b/5x5
I1105 17:15:32.464113 24357 net.cpp:454] inception_5b/output <- inception_5b/pool_proj
I1105 17:15:32.464119 24357 net.cpp:411] inception_5b/output -> inception_5b/output
I1105 17:15:32.464174 24357 net.cpp:150] Setting up inception_5b/output
I1105 17:15:32.464189 24357 net.cpp:157] Top shape: 50 1024 7 7 (2508800)
I1105 17:15:32.464195 24357 net.cpp:165] Memory required for data: 2803824616
I1105 17:15:32.464200 24357 layer_factory.hpp:76] Creating layer pool5/7x7_s1
I1105 17:15:32.464205 24357 net.cpp:106] Creating Layer pool5/7x7_s1
I1105 17:15:32.464210 24357 net.cpp:454] pool5/7x7_s1 <- inception_5b/output
I1105 17:15:32.464217 24357 net.cpp:411] pool5/7x7_s1 -> pool5/7x7_s1
I1105 17:15:32.464659 24357 net.cpp:150] Setting up pool5/7x7_s1
I1105 17:15:32.464671 24357 net.cpp:157] Top shape: 50 1024 1 1 (51200)
I1105 17:15:32.464676 24357 net.cpp:165] Memory required for data: 2804029416
I1105 17:15:32.464681 24357 layer_factory.hpp:76] Creating layer pool5/drop_7x7_s1
I1105 17:15:32.464689 24357 net.cpp:106] Creating Layer pool5/drop_7x7_s1
I1105 17:15:32.464695 24357 net.cpp:454] pool5/drop_7x7_s1 <- pool5/7x7_s1
I1105 17:15:32.464701 24357 net.cpp:397] pool5/drop_7x7_s1 -> pool5/7x7_s1 (in-place)
I1105 17:15:32.464728 24357 net.cpp:150] Setting up pool5/drop_7x7_s1
I1105 17:15:32.464736 24357 net.cpp:157] Top shape: 50 1024 1 1 (51200)
I1105 17:15:32.464740 24357 net.cpp:165] Memory required for data: 2804234216
I1105 17:15:32.464745 24357 layer_factory.hpp:76] Creating layer loss3/classifier2
I1105 17:15:32.464753 24357 net.cpp:106] Creating Layer loss3/classifier2
I1105 17:15:32.464758 24357 net.cpp:454] loss3/classifier2 <- pool5/7x7_s1
I1105 17:15:32.464766 24357 net.cpp:411] loss3/classifier2 -> loss3/classifier
I1105 17:15:32.464902 24357 net.cpp:150] Setting up loss3/classifier2
I1105 17:15:32.464913 24357 net.cpp:157] Top shape: 50 2 (100)
I1105 17:15:32.464918 24357 net.cpp:165] Memory required for data: 2804234616
I1105 17:15:32.464926 24357 layer_factory.hpp:76] Creating layer loss3/classifier_loss3/classifier2_0_split
I1105 17:15:32.464932 24357 net.cpp:106] Creating Layer loss3/classifier_loss3/classifier2_0_split
I1105 17:15:32.464937 24357 net.cpp:454] loss3/classifier_loss3/classifier2_0_split <- loss3/classifier
I1105 17:15:32.464943 24357 net.cpp:411] loss3/classifier_loss3/classifier2_0_split -> loss3/classifier_loss3/classifier2_0_split_0
I1105 17:15:32.464951 24357 net.cpp:411] loss3/classifier_loss3/classifier2_0_split -> loss3/classifier_loss3/classifier2_0_split_1
I1105 17:15:32.464992 24357 net.cpp:150] Setting up loss3/classifier_loss3/classifier2_0_split
I1105 17:15:32.464999 24357 net.cpp:157] Top shape: 50 2 (100)
I1105 17:15:32.465004 24357 net.cpp:157] Top shape: 50 2 (100)
I1105 17:15:32.465008 24357 net.cpp:165] Memory required for data: 2804235416
I1105 17:15:32.465013 24357 layer_factory.hpp:76] Creating layer loss3/loss3
I1105 17:15:32.465029 24357 net.cpp:106] Creating Layer loss3/loss3
I1105 17:15:32.465034 24357 net.cpp:454] loss3/loss3 <- loss3/classifier_loss3/classifier2_0_split_0
I1105 17:15:32.465040 24357 net.cpp:454] loss3/loss3 <- label_data_1_split_4
…
