…
I1126 15:25:01.013458 12182 net.cpp:322] The NetState phase (0) differed from the phase (1) specified by a rule in layer loss3/top-1
I1126 15:25:01.015501 12182 net.cpp:49] Initializing net from parameters: 
name: "GoogleNet"
state {
  phase: TRAIN
}
layer {
  name: "data"
  type: "Data"
  top: "data"
  top: "label"
  include {
    phase: TRAIN
  }
  transform_param {
    mirror: true
    crop_size: 224
    mean_value: 104
    mean_value: 117
    mean_value: 123
  }
  data_param {
    source: "../../LMDB-s300/train_0-lmdb"
    batch_size: 32
    backend: LMDB
  }
}
layer {
  name: "conv1/7x7_s2"
  type: "Convolution"
  bottom: "data"
  top: "conv1/7x7_s2"
  param {
    lr_mult: 1
    decay_mult: 1
  }
  param {
    lr_mult: 2
    decay_mult: 0
  }
  convolution_param {
    num_output: 64
    pad: 3
    kernel_size: 7
    stride: 2
    weight_filler {
      type: "xavier"
    }
    bias_filler {
      type: "constant"
      value: 0.2
    }
  }
}
layer {
  name: "conv1/prelu_7x7"
  type: "PReLU"
  bottom: "conv1/7x7_s2"
  top: "conv1/7x7_s2"
  param {
    lr_mult: 1
    decay_mult: 0
  }
  prelu_param {
    filler {
      type: "constant"
      value: 0.01
    }
  }
}
layer {
  name: "pool1/3x3_s2"
  type: "Pooling"
  bottom: "conv1/7x7_s2"
  top: "pool1/3x3_s2"
  pooling_param {
    pool: MAX
    kernel_size: 3
    stride: 2
  }
}
layer {
  name: "pool1/norm1"
  type: "LRN"
  bottom: "pool1/3x3_s2"
  top: "pool1/norm1"
  lrn_param {
    local_size: 5
    alpha: 0.0001
    beta: 0.75
  }
}
layer {
  name: "conv2/3x3_reduce"
  type: "Convolution"
  bottom: "pool1/norm1"
  top: "conv2/3x3_reduce"
  param {
    lr_mult: 1
    decay_mult: 1
  }
  param {
    lr_mult: 2
    decay_mult: 0
  }
  convolution_param {
    num_output: 64
    kernel_size: 1
    weight_filler {
      type: "xavier"
    }
    bias_filler {
      type: "constant"
      value: 0.2
    }
  }
}
layer {
  name: "conv2/prelu_3x3_reduce"
  type: "PReLU"
  bottom: "conv2/3x3_reduce"
  top: "conv2/3x3_reduce"
  param {
    lr_mult: 1
    decay_mult: 0
  }
  prelu_param {
    filler {
      type: "constant"
      value: 0.01
    }
  }
}
layer {
  name: "conv2/3x3"
  type: "Convolution"
  bottom: "conv2/3x3_reduce"
  top: "conv2/3x3"
  param {
    lr_mult: 1
    decay_mult: 1
  }
  param {
    lr_mult: 2
    decay_mult: 0
  }
  convolution_param {
    num_output: 192
    pad: 1
    kernel_size: 3
    weight_filler {
      type: "xavier"
    }
    bias_filler {
      type: "constant"
      value: 0.2
    }
  }
}
layer {
  name: "conv2/prelu_3x3"
  type: "PReLU"
  bottom: "conv2/3x3"
  top: "conv2/3x3"
  param {
    lr_mult: 1
    decay_mult: 0
  }
  prelu_param {
    filler {
      type: "constant"
      value: 0.01
    }
  }
}
layer {
  name: "conv2/norm2"
  type: "LRN"
  bottom: "conv2/3x3"
  top: "conv2/norm2"
  lrn_param {
    local_size: 5
    alpha: 0.0001
    beta: 0.75
  }
}
layer {
  name: "pool2/3x3_s2"
  type: "Pooling"
  bottom: "conv2/norm2"
  top: "pool2/3x3_s2"
  pooling_param {
    pool: MAX
    kernel_size: 3
    stride: 2
  }
}
layer {
  name: "inception_3a/1x1"
  type: "Convolution"
  bottom: "pool2/3x3_s2"
  top: "inception_3a/1x1"
  param {
    lr_mult: 1
    decay_mult: 1
  }
  param {
    lr_mult: 2
    decay_mult: 0
  }
  convolution_param {
    num_output: 64
    kernel_size: 1
    weight_filler {
      type: "xavier"
    }
    bias_filler {
      type: "constant"
      value: 0.2
    }
  }
}
layer {
  name: "inception_3a/prelu_1x1"
  type: "PReLU"
  bottom: "inception_3a/1x1"
  top: "inception_3a/1x1"
  param {
    lr_mult: 1
    decay_mult: 0
  }
  prelu_param {
    filler {
      type: "constant"
      value: 0.01
    }
  }
}
layer {
  name: "inception_3a/3x3_reduce"
  type: "Convolution"
  bottom: "pool2/3x3_s2"
  top: "inception_3a/3x3_reduce"
  param {
    lr_mult: 1
    decay_mult: 1
  }
  param {
    lr_mult: 2
    decay_mult: 0
  }
  convolution_param {
    num_output: 96
    kernel_size: 1
    weight_filler {
      type: "xavier"
    }
    bias_filler {
      type: "constant"
      value: 0.2
    }
  }
}
layer {
  name: "inception_3a/prelu_3x3_reduce"
  type: "PReLU"
  bottom: "inception_3a/3x3_reduce"
  top: "inception_3a/3x3_reduce"
  param {
    lr_mult: 1
    decay_mult: 0
  }
  prelu_param {
    filler {
      type: "constant"
      value: 0.01
    }
  }
}
layer {
  name: "inception_3a/3x3"
  type: "Convolution"
  bottom: "inception_3a/3x3_reduce"
  top: "inception_3a/3x3"
  param {
    lr_mult: 1
    decay_mult: 1
  }
  param {
    lr_mult: 2
    decay_mult: 0
  }
  convolution_param {
    num_output: 128
    pad: 1
    kernel_size: 3
    weight_filler {
      type: "xavier"
    }
    bias_filler {
      type: "constant"
      value: 0.2
    }
  }
}
layer {
  name: "inception_3a/prelu_3x3"
  type: "PReLU"
  bottom: "inception_3a/3x3"
  top: "inception_3a/3x3"
  param {
    lr_mult: 1
    decay_mult: 0
  }
  prelu_param {
    filler {
      type: "constant"
      value: 0.01
    }
  }
}
layer {
  name: "inception_3a/5x5_reduce"
  type: "Convolution"
  bottom: "pool2/3x3_s2"
  top: "inception_3a/5x5_reduce"
  param {
    lr_mult: 1
    decay_mult: 1
  }
  param {
    lr_mult: 2
    decay_mult: 0
  }
  convolution_param {
    num_output: 16
    kernel_size: 1
    weight_filler {
      type: "xavier"
    }
    bias_filler {
      type: "constant"
      value: 0.2
    }
  }
}
layer {
  name: "inception_3a/prelu_5x5_reduce"
  type: "PReLU"
  bottom: "inception_3a/5x5_reduce"
  top: "inception_3a/5x5_reduce"
  param {
    lr_mult: 1
    decay_mult: 0
  }
  prelu_param {
    filler {
      type: "constant"
      value: 0.01
    }
  }
}
layer {
  name: "inception_3a/5x5"
  type: "Convolution"
  bottom: "inception_3a/5x5_reduce"
  top: "inception_3a/5x5"
  param {
    lr_mult: 1
    decay_mult: 1
  }
  param {
    lr_mult: 2
    decay_mult: 0
  }
  convolution_param {
    num_output: 32
    pad: 2
    kernel_size: 5
    weight_filler {
      type: "xavier"
    }
    bias_filler {
      type: "constant"
      value: 0.2
    }
  }
}
layer {
  name: "inception_3a/prelu_5x5"
  type: "PReLU"
  bottom: "inception_3a/5x5"
  top: "inception_3a/5x5"
  param {
    lr_mult: 1
    decay_mult: 0
  }
  prelu_param {
    filler {
      type: "constant"
      value: 0.01
    }
  }
}
layer {
  name: "inception_3a/pool"
  type: "Pooling"
  bottom: "pool2/3x3_s2"
  top: "inception_3a/pool"
  pooling_param {
    pool: MAX
    kernel_size: 3
    stride: 1
    pad: 1
  }
}
layer {
  name: "inception_3a/pool_proj"
  type: "Convolution"
  bottom: "inception_3a/pool"
  top: "inception_3a/pool_proj"
  param {
    lr_mult: 1
    decay_mult: 1
  }
  param {
    lr_mult: 2
    decay_mult: 0
  }
  convolution_param {
    num_output: 32
    kernel_size: 1
    weight_filler {
      type: "xavier"
    }
    bias_filler {
      type: "constant"
      value: 0.2
    }
  }
}
layer {
  name: "inception_3a/prelu_pool_proj"
  type: "PReLU"
  bottom: "inception_3a/pool_proj"
  top: "inception_3a/pool_proj"
  param {
    lr_mult: 1
    decay_mult: 0
  }
  prelu_param {
    filler {
      type: "constant"
      value: 0.01
    }
  }
}
layer {
  name: "inception_3a/output"
  type: "Concat"
  bottom: "inception_3a/1x1"
  bottom: "inception_3a/3x3"
  bottom: "inception_3a/5x5"
  bottom: "inception_3a/pool_proj"
  top: "inception_3a/output"
}
layer {
  name: "inception_3b/1x1"
  type: "Convolution"
  bottom: "inception_3a/output"
  top: "inception_3b/1x1"
  param {
    lr_mult: 1
    decay_mult: 1
  }
  param {
    lr_mult: 2
    decay_mult: 0
  }
  convolution_param {
    num_output: 128
    kernel_size: 1
    weight_filler {
      type: "xavier"
    }
    bias_filler {
      type: "constant"
      value: 0.2
    }
  }
}
layer {
  name: "inception_3b/prelu_1x1"
  type: "PReLU"
  bottom: "inception_3b/1x1"
  top: "inception_3b/1x1"
  param {
    lr_mult: 1
    decay_mult: 0
  }
  prelu_param {
    filler {
      type: "constant"
      value: 0.01
    }
  }
}
layer {
  name: "inception_3b/3x3_reduce"
  type: "Convolution"
  bottom: "inception_3a/output"
  top: "inception_3b/3x3_reduce"
  param {
    lr_mult: 1
    decay_mult: 1
  }
  param {
    lr_mult: 2
    decay_mult: 0
  }
  convolution_param {
    num_output: 128
    kernel_size: 1
    weight_filler {
      type: "xavier"
    }
    bias_filler {
      type: "constant"
      value: 0.2
    }
  }
}
layer {
  name: "inception_3b/prelu_3x3_reduce"
  type: "PReLU"
  bottom: "inception_3b/3x3_reduce"
  top: "inception_3b/3x3_reduce"
  param {
    lr_mult: 1
    decay_mult: 0
  }
  prelu_param {
    filler {
      type: "constant"
      value: 0.01
    }
  }
}
layer {
  name: "inception_3b/3x3"
  type: "Convolution"
  bottom: "inception_3b/3x3_reduce"
  top: "inception_3b/3x3"
  param {
    lr_mult: 1
    decay_mult: 1
  }
  param {
    lr_mult: 2
    decay_mult: 0
  }
  convolution_param {
    num_output: 192
    pad: 1
    kernel_size: 3
    weight_filler {
      type: "xavier"
    }
    bias_filler {
      type: "constant"
      value: 0.2
    }
  }
}
layer {
  name: "inception_3b/prelu_3x3"
  type: "PReLU"
  bottom: "inception_3b/3x3"
  top: "inception_3b/3x3"
  param {
    lr_mult: 1
    decay_mult: 0
  }
  prelu_param {
    filler {
      type: "constant"
      value: 0.01
    }
  }
}
layer {
  name: "inception_3b/5x5_reduce"
  type: "Convolution"
  bottom: "inception_3a/output"
  top: "inception_3b/5x5_reduce"
  param {
    lr_mult: 1
    decay_mult: 1
  }
  param {
    lr_mult: 2
    decay_mult: 0
  }
  convolution_param {
    num_output: 32
    kernel_size: 1
    weight_filler {
      type: "xavier"
    }
    bias_filler {
      type: "constant"
      value: 0.2
    }
  }
}
layer {
  name: "inception_3b/prelu_5x5_reduce"
  type: "PReLU"
  bottom: "inception_3b/5x5_reduce"
  top: "inception_3b/5x5_reduce"
  param {
    lr_mult: 1
    decay_mult: 0
  }
  prelu_param {
    filler {
      type: "constant"
      value: 0.01
    }
  }
}
layer {
  name: "inception_3b/5x5"
  type: "Convolution"
  bottom: "inception_3b/5x5_reduce"
  top: "inception_3b/5x5"
  param {
    lr_mult: 1
    decay_mult: 1
  }
  param {
    lr_mult: 2
    decay_mult: 0
  }
  convolution_param {
    num_output: 96
    pad: 2
    kernel_size: 5
    weight_filler {
      type: "xavier"
    }
    bias_filler {
      type: "constant"
      value: 0.2
    }
  }
}
layer {
  name: "inception_3b/prelu_5x5"
  type: "PReLU"
  bottom: "inception_3b/5x5"
  top: "inception_3b/5x5"
  param {
    lr_mult: 1
    decay_mult: 0
  }
  prelu_param {
    filler {
      type: "constant"
      value: 0.01
    }
  }
}
layer {
  name: "inception_3b/pool"
  type: "Pooling"
  bottom: "inception_3a/output"
  top: "inception_3b/pool"
  pooling_param {
    pool: MAX
    kernel_size: 3
    stride: 1
    pad: 1
  }
}
layer {
  name: "inception_3b/pool_proj"
  type: "Convolution"
  bottom: "inception_3b/pool"
  top: "inception_3b/pool_proj"
  param {
    lr_mult: 1
    decay_mult: 1
  }
  param {
    lr_mult: 2
    decay_mult: 0
  }
  convolution_param {
    num_output: 64
    kernel_size: 1
    weight_filler {
      type: "xavier"
    }
    bias_filler {
      type: "constant"
      value: 0.2
    }
  }
}
layer {
  name: "inception_3b/prelu_pool_proj"
  type: "PReLU"
  bottom: "inception_3b/pool_proj"
  top: "inception_3b/pool_proj"
  param {
    lr_mult: 1
    decay_mult: 0
  }
  prelu_param {
    filler {
      type: "constant"
      value: 0.01
    }
  }
}
layer {
  name: "inception_3b/output"
  type: "Concat"
  bottom: "inception_3b/1x1"
  bottom: "inception_3b/3x3"
  bottom: "inception_3b/5x5"
  bottom: "inception_3b/pool_proj"
  top: "inception_3b/output"
}
layer {
  name: "pool3/3x3_s2"
  type: "Pooling"
  bottom: "inception_3b/output"
  top: "pool3/3x3_s2"
  pooling_param {
    pool: MAX
    kernel_size: 3
    stride: 2
  }
}
layer {
  name: "inception_4a/1x1"
  type: "Convolution"
  bottom: "pool3/3x3_s2"
  top: "inception_4a/1x1"
  param {
    lr_mult: 1
    decay_mult: 1
  }
  param {
    lr_mult: 2
    decay_mult: 0
  }
  convolution_param {
    num_output: 192
    kernel_size: 1
    weight_filler {
      type: "xavier"
    }
    bias_filler {
      type: "constant"
      value: 0.2
    }
  }
}
layer {
  name: "inception_4a/prelu_1x1"
  type: "PReLU"
  bottom: "inception_4a/1x1"
  top: "inception_4a/1x1"
  param {
    lr_mult: 1
    decay_mult: 0
  }
  prelu_param {
    filler {
      type: "constant"
      value: 0.01
    }
  }
}
layer {
  name: "inception_4a/3x3_reduce"
  type: "Convolution"
  bottom: "pool3/3x3_s2"
  top: "inception_4a/3x3_reduce"
  param {
    lr_mult: 1
    decay_mult: 1
  }
  param {
    lr_mult: 2
    decay_mult: 0
  }
  convolution_param {
    num_output: 96
    kernel_size: 1
    weight_filler {
      type: "xavier"
    }
    bias_filler {
      type: "constant"
      value: 0.2
    }
  }
}
layer {
  name: "inception_4a/prelu_3x3_reduce"
  type: "PReLU"
  bottom: "inception_4a/3x3_reduce"
  top: "inception_4a/3x3_reduce"
  param {
    lr_mult: 1
    decay_mult: 0
  }
  prelu_param {
    filler {
      type: "constant"
      value: 0.01
    }
  }
}
layer {
  name: "inception_4a/3x3"
  type: "Convolution"
  bottom: "inception_4a/3x3_reduce"
  top: "inception_4a/3x3"
  param {
    lr_mult: 1
    decay_mult: 1
  }
  param {
    lr_mult: 2
    decay_mult: 0
  }
  convolution_param {
    num_output: 208
    pad: 1
    kernel_size: 3
    weight_filler {
      type: "xavier"
    }
    bias_filler {
      type: "constant"
      value: 0.2
    }
  }
}
layer {
  name: "inception_4a/prelu_3x3"
  type: "PReLU"
  bottom: "inception_4a/3x3"
  top: "inception_4a/3x3"
  param {
    lr_mult: 1
    decay_mult: 0
  }
  prelu_param {
    filler {
      type: "constant"
      value: 0.01
    }
  }
}
layer {
  name: "inception_4a/5x5_reduce"
  type: "Convolution"
  bottom: "pool3/3x3_s2"
  top: "inception_4a/5x5_reduce"
  param {
    lr_mult: 1
    decay_mult: 1
  }
  param {
    lr_mult: 2
    decay_mult: 0
  }
  convolution_param {
    num_output: 16
    kernel_size: 1
    weight_filler {
      type: "xavier"
    }
    bias_filler {
      type: "constant"
      value: 0.2
    }
  }
}
layer {
  name: "inception_4a/prelu_5x5_reduce"
  type: "PReLU"
  bottom: "inception_4a/5x5_reduce"
  top: "inception_4a/5x5_reduce"
  param {
    lr_mult: 1
    decay_mult: 0
  }
  prelu_param {
    filler {
      type: "constant"
      value: 0.01
    }
  }
}
layer {
  name: "inception_4a/5x5"
  type: "Convolution"
  bottom: "inception_4a/5x5_reduce"
  top: "inception_4a/5x5"
  param {
    lr_mult: 1
    decay_mult: 1
  }
  param {
    lr_mult: 2
    decay_mult: 0
  }
  convolution_param {
    num_output: 48
    pad: 2
    kernel_size: 5
    weight_filler {
      type: "xavier"
    }
    bias_filler {
      type: "constant"
      value: 0.2
    }
  }
}
layer {
  name: "inception_4a/prelu_5x5"
  type: "PReLU"
  bottom: "inception_4a/5x5"
  top: "inception_4a/5x5"
  param {
    lr_mult: 1
    decay_mult: 0
  }
  prelu_param {
    filler {
      type: "constant"
      value: 0.01
    }
  }
}
layer {
  name: "inception_4a/pool"
  type: "Pooling"
  bottom: "pool3/3x3_s2"
  top: "inception_4a/pool"
  pooling_param {
    pool: MAX
    kernel_size: 3
    stride: 1
    pad: 1
  }
}
layer {
  name: "inception_4a/pool_proj"
  type: "Convolution"
  bottom: "inception_4a/pool"
  top: "inception_4a/pool_proj"
  param {
    lr_mult: 1
    decay_mult: 1
  }
  param {
    lr_mult: 2
    decay_mult: 0
  }
  convolution_param {
    num_output: 64
    kernel_size: 1
    weight_filler {
      type: "xavier"
    }
    bias_filler {
      type: "constant"
      value: 0.2
    }
  }
}
layer {
  name: "inception_4a/prelu_pool_proj"
  type: "PReLU"
  bottom: "inception_4a/pool_proj"
  top: "inception_4a/pool_proj"
  param {
    lr_mult: 1
    decay_mult: 0
  }
  prelu_param {
    filler {
      type: "constant"
      value: 0.01
    }
  }
}
layer {
  name: "inception_4a/output"
  type: "Concat"
  bottom: "inception_4a/1x1"
  bottom: "inception_4a/3x3"
  bottom: "inception_4a/5x5"
  bottom: "inception_4a/pool_proj"
  top: "inception_4a/output"
}
layer {
  name: "loss1/ave_pool"
  type: "Pooling"
  bottom: "inception_4a/output"
  top: "loss1/ave_pool"
  pooling_param {
    pool: AVE
    kernel_size: 5
    stride: 3
  }
}
layer {
  name: "loss1/conv"
  type: "Convolution"
  bottom: "loss1/ave_pool"
  top: "loss1/conv"
  param {
    lr_mult: 1
    decay_mult: 1
  }
  param {
    lr_mult: 2
    decay_mult: 0
  }
  convolution_param {
    num_output: 128
    kernel_size: 1
    weight_filler {
      type: "xavier"
    }
    bias_filler {
      type: "constant"
      value: 0.2
    }
  }
}
layer {
  name: "loss1/prelu_conv"
  type: "PReLU"
  bottom: "loss1/conv"
  top: "loss1/conv"
  param {
    lr_mult: 1
    decay_mult: 0
  }
  prelu_param {
    filler {
      type: "constant"
      value: 0.01
    }
  }
}
layer {
  name: "loss1/fc"
  type: "InnerProduct"
  bottom: "loss1/conv"
  top: "loss1/fc"
  param {
    lr_mult: 1
    decay_mult: 1
  }
  param {
    lr_mult: 2
    decay_mult: 0
  }
  inner_product_param {
    num_output: 1024
    weight_filler {
      type: "xavier"
    }
    bias_filler {
      type: "constant"
      value: 0.2
    }
  }
}
layer {
  name: "loss1/prelu_fc"
  type: "PReLU"
  bottom: "loss1/fc"
  top: "loss1/fc"
  param {
    lr_mult: 1
    decay_mult: 0
  }
  prelu_param {
    filler {
      type: "constant"
      value: 0.01
    }
  }
}
layer {
  name: "loss1/drop_fc"
  type: "Dropout"
  bottom: "loss1/fc"
  top: "loss1/fc"
  dropout_param {
    dropout_ratio: 0.7
  }
}
layer {
  name: "loss1/classifier2"
  type: "InnerProduct"
  bottom: "loss1/fc"
  top: "loss1/classifier"
  param {
    lr_mult: 1
    decay_mult: 1
  }
  param {
    lr_mult: 2
    decay_mult: 0
  }
  inner_product_param {
    num_output: 2
    weight_filler {
      type: "xavier"
    }
    bias_filler {
      type: "constant"
      value: 0
    }
  }
}
layer {
  name: "loss1/loss"
  type: "SoftmaxWithLoss"
  bottom: "loss1/classifier"
  bottom: "label"
  top: "loss1/loss1"
  loss_weight: 0.3
}
layer {
  name: "inception_4b/1x1"
  type: "Convolution"
  bottom: "inception_4a/output"
  top: "inception_4b/1x1"
  param {
    lr_mult: 1
    decay_mult: 1
  }
  param {
    lr_mult: 2
    decay_mult: 0
  }
  convolution_param {
    num_output: 160
    kernel_size: 1
    weight_filler {
      type: "xavier"
    }
    bias_filler {
      type: "constant"
      value: 0.2
    }
  }
}
layer {
  name: "inception_4b/prelu_1x1"
  type: "PReLU"
  bottom: "inception_4b/1x1"
  top: "inception_4b/1x1"
  param {
    lr_mult: 1
    decay_mult: 0
  }
  prelu_param {
    filler {
      type: "constant"
      value: 0.01
    }
  }
}
layer {
  name: "inception_4b/3x3_reduce"
  type: "Convolution"
  bottom: "inception_4a/output"
  top: "inception_4b/3x3_reduce"
  param {
    lr_mult: 1
    decay_mult: 1
  }
  param {
    lr_mult: 2
    decay_mult: 0
  }
  convolution_param {
    num_output: 112
    kernel_size: 1
    weight_filler {
      type: "xavier"
    }
    bias_filler {
      type: "constant"
      value: 0.2
    }
  }
}
layer {
  name: "inception_4b/prelu_3x3_reduce"
  type: "PReLU"
  bottom: "inception_4b/3x3_reduce"
  top: "inception_4b/3x3_reduce"
  param {
    lr_mult: 1
    decay_mult: 0
  }
  prelu_param {
    filler {
      type: "constant"
      value: 0.01
    }
  }
}
layer {
  name: "inception_4b/3x3"
  type: "Convolution"
  bottom: "inception_4b/3x3_reduce"
  top: "inception_4b/3x3"
  param {
    lr_mult: 1
    decay_mult: 1
  }
  param {
    lr_mult: 2
    decay_mult: 0
  }
  convolution_param {
    num_output: 224
    pad: 1
    kernel_size: 3
    weight_filler {
      type: "xavier"
    }
    bias_filler {
      type: "constant"
      value: 0.2
    }
  }
}
layer {
  name: "inception_4b/prelu_3x3"
  type: "PReLU"
  bottom: "inception_4b/3x3"
  top: "inception_4b/3x3"
  param {
    lr_mult: 1
    decay_mult: 0
  }
  prelu_param {
    filler {
      type: "constant"
      value: 0.01
    }
  }
}
layer {
  name: "inception_4b/5x5_reduce"
  type: "Convolution"
  bottom: "inception_4a/output"
  top: "inception_4b/5x5_reduce"
  param {
    lr_mult: 1
    decay_mult: 1
  }
  param {
    lr_mult: 2
    decay_mult: 0
  }
  convolution_param {
    num_output: 24
    kernel_size: 1
    weight_filler {
      type: "xavier"
    }
    bias_filler {
      type: "constant"
      value: 0.2
    }
  }
}
layer {
  name: "inception_4b/prelu_5x5_reduce"
  type: "PReLU"
  bottom: "inception_4b/5x5_reduce"
  top: "inception_4b/5x5_reduce"
  param {
    lr_mult: 1
    decay_mult: 0
  }
  prelu_param {
    filler {
      type: "constant"
      value: 0.01
    }
  }
}
layer {
  name: "inception_4b/5x5"
  type: "Convolution"
  bottom: "inception_4b/5x5_reduce"
  top: "inception_4b/5x5"
  param {
    lr_mult: 1
    decay_mult: 1
  }
  param {
    lr_mult: 2
    decay_mult: 0
  }
  convolution_param {
    num_output: 64
    pad: 2
    kernel_size: 5
    weight_filler {
      type: "xavier"
    }
    bias_filler {
      type: "constant"
      value: 0.2
    }
  }
}
layer {
  name: "inception_4b/prelu_5x5"
  type: "PReLU"
  bottom: "inception_4b/5x5"
  top: "inception_4b/5x5"
  param {
    lr_mult: 1
    decay_mult: 0
  }
  prelu_param {
    filler {
      type: "constant"
      value: 0.01
    }
  }
}
layer {
  name: "inception_4b/pool"
  type: "Pooling"
  bottom: "inception_4a/output"
  top: "inception_4b/pool"
  pooling_param {
    pool: MAX
    kernel_size: 3
    stride: 1
    pad: 1
  }
}
layer {
  name: "inception_4b/pool_proj"
  type: "Convolution"
  bottom: "inception_4b/pool"
  top: "inception_4b/pool_proj"
  param {
    lr_mult: 1
    decay_mult: 1
  }
  param {
    lr_mult: 2
    decay_mult: 0
  }
  convolution_param {
    num_output: 64
    kernel_size: 1
    weight_filler {
      type: "xavier"
    }
    bias_filler {
      type: "constant"
      value: 0.2
    }
  }
}
layer {
  name: "inception_4b/prelu_pool_proj"
  type: "PReLU"
  bottom: "inception_4b/pool_proj"
  top: "inception_4b/pool_proj"
  param {
    lr_mult: 1
    decay_mult: 0
  }
  prelu_param {
    filler {
      type: "constant"
      value: 0.01
    }
  }
}
layer {
  name: "inception_4b/output"
  type: "Concat"
  bottom: "inception_4b/1x1"
  bottom: "inception_4b/3x3"
  bottom: "inception_4b/5x5"
  bottom: "inception_4b/pool_proj"
  top: "inception_4b/output"
}
layer {
  name: "inception_4c/1x1"
  type: "Convolution"
  bottom: "inception_4b/output"
  top: "inception_4c/1x1"
  param {
    lr_mult: 1
    decay_mult: 1
  }
  param {
    lr_mult: 2
    decay_mult: 0
  }
  convolution_param {
    num_output: 128
    kernel_size: 1
    weight_filler {
      type: "xavier"
    }
    bias_filler {
      type: "constant"
      value: 0.2
    }
  }
}
layer {
  name: "inception_4c/prelu_1x1"
  type: "PReLU"
  bottom: "inception_4c/1x1"
  top: "inception_4c/1x1"
  param {
    lr_mult: 1
    decay_mult: 0
  }
  prelu_param {
    filler {
      type: "constant"
      value: 0.01
    }
  }
}
layer {
  name: "inception_4c/3x3_reduce"
  type: "Convolution"
  bottom: "inception_4b/output"
  top: "inception_4c/3x3_reduce"
  param {
    lr_mult: 1
    decay_mult: 1
  }
  param {
    lr_mult: 2
    decay_mult: 0
  }
  convolution_param {
    num_output: 128
    kernel_size: 1
    weight_filler {
      type: "xavier"
    }
    bias_filler {
      type: "constant"
      value: 0.2
    }
  }
}
layer {
  name: "inception_4c/prelu_3x3_reduce"
  type: "PReLU"
  bottom: "inception_4c/3x3_reduce"
  top: "inception_4c/3x3_reduce"
  param {
    lr_mult: 1
    decay_mult: 0
  }
  prelu_param {
    filler {
      type: "constant"
      value: 0.01
    }
  }
}
layer {
  name: "inception_4c/3x3"
  type: "Convolution"
  bottom: "inception_4c/3x3_reduce"
  top: "inception_4c/3x3"
  param {
    lr_mult: 1
    decay_mult: 1
  }
  param {
    lr_mult: 2
    decay_mult: 0
  }
  convolution_param {
    num_output: 256
    pad: 1
    kernel_size: 3
    weight_filler {
      type: "xavier"
    }
    bias_filler {
      type: "constant"
      value: 0.2
    }
  }
}
layer {
  name: "inception_4c/prelu_3x3"
  type: "PReLU"
  bottom: "inception_4c/3x3"
  top: "inception_4c/3x3"
  param {
    lr_mult: 1
    decay_mult: 0
  }
  prelu_param {
    filler {
      type: "constant"
      value: 0.01
    }
  }
}
layer {
  name: "inception_4c/5x5_reduce"
  type: "Convolution"
  bottom: "inception_4b/output"
  top: "inception_4c/5x5_reduce"
  param {
    lr_mult: 1
    decay_mult: 1
  }
  param {
    lr_mult: 2
    decay_mult: 0
  }
  convolution_param {
    num_output: 24
    kernel_size: 1
    weight_filler {
      type: "xavier"
    }
    bias_filler {
      type: "constant"
      value: 0.2
    }
  }
}
layer {
  name: "inception_4c/prelu_5x5_reduce"
  type: "PReLU"
  bottom: "inception_4c/5x5_reduce"
  top: "inception_4c/5x5_reduce"
  param {
    lr_mult: 1
    decay_mult: 0
  }
  prelu_param {
    filler {
      type: "constant"
      value: 0.01
    }
  }
}
layer {
  name: "inception_4c/5x5"
  type: "Convolution"
  bottom: "inception_4c/5x5_reduce"
  top: "inception_4c/5x5"
  param {
    lr_mult: 1
    decay_mult: 1
  }
  param {
    lr_mult: 2
    decay_mult: 0
  }
  convolution_param {
    num_output: 64
    pad: 2
    kernel_size: 5
    weight_filler {
      type: "xavier"
    }
    bias_filler {
      type: "constant"
      value: 0.2
    }
  }
}
layer {
  name: "inception_4c/prelu_5x5"
  type: "PReLU"
  bottom: "inception_4c/5x5"
  top: "inception_4c/5x5"
  param {
    lr_mult: 1
    decay_mult: 0
  }
  prelu_param {
    filler {
      type: "constant"
      value: 0.01
    }
  }
}
layer {
  name: "inception_4c/pool"
  type: "Pooling"
  bottom: "inception_4b/output"
  top: "inception_4c/pool"
  pooling_param {
    pool: MAX
    kernel_size: 3
    stride: 1
    pad: 1
  }
}
layer {
  name: "inception_4c/pool_proj"
  type: "Convolution"
  bottom: "inception_4c/pool"
  top: "inception_4c/pool_proj"
  param {
    lr_mult: 1
    decay_mult: 1
  }
  param {
    lr_mult: 2
    decay_mult: 0
  }
  convolution_param {
    num_output: 64
    kernel_size: 1
    weight_filler {
      type: "xavier"
    }
    bias_filler {
      type: "constant"
      value: 0.2
    }
  }
}
layer {
  name: "inception_4c/prelu_pool_proj"
  type: "PReLU"
  bottom: "inception_4c/pool_proj"
  top: "inception_4c/pool_proj"
  param {
    lr_mult: 1
    decay_mult: 0
  }
  prelu_param {
    filler {
      type: "constant"
      value: 0.01
    }
  }
}
layer {
  name: "inception_4c/output"
  type: "Concat"
  bottom: "inception_4c/1x1"
  bottom: "inception_4c/3x3"
  bottom: "inception_4c/5x5"
  bottom: "inception_4c/pool_proj"
  top: "inception_4c/output"
}
layer {
  name: "inception_4d/1x1"
  type: "Convolution"
  bottom: "inception_4c/output"
  top: "inception_4d/1x1"
  param {
    lr_mult: 1
    decay_mult: 1
  }
  param {
    lr_mult: 2
    decay_mult: 0
  }
  convolution_param {
    num_output: 112
    kernel_size: 1
    weight_filler {
      type: "xavier"
    }
    bias_filler {
      type: "constant"
      value: 0.2
    }
  }
}
layer {
  name: "inception_4d/prelu_1x1"
  type: "PReLU"
  bottom: "inception_4d/1x1"
  top: "inception_4d/1x1"
  param {
    lr_mult: 1
    decay_mult: 0
  }
  prelu_param {
    filler {
      type: "constant"
      value: 0.01
    }
  }
}
layer {
  name: "inception_4d/3x3_reduce"
  type: "Convolution"
  bottom: "inception_4c/output"
  top: "inception_4d/3x3_reduce"
  param {
    lr_mult: 1
    decay_mult: 1
  }
  param {
    lr_mult: 2
    decay_mult: 0
  }
  convolution_param {
    num_output: 144
    kernel_size: 1
    weight_filler {
      type: "xavier"
    }
    bias_filler {
      type: "constant"
      value: 0.2
    }
  }
}
layer {
  name: "inception_4d/prelu_3x3_reduce"
  type: "PReLU"
  bottom: "inception_4d/3x3_reduce"
  top: "inception_4d/3x3_reduce"
  param {
    lr_mult: 1
    decay_mult: 0
  }
  prelu_param {
    filler {
      type: "constant"
      value: 0.01
    }
  }
}
layer {
  name: "inception_4d/3x3"
  type: "Convolution"
  bottom: "inception_4d/3x3_reduce"
  top: "inception_4d/3x3"
  param {
    lr_mult: 1
    decay_mult: 1
  }
  param {
    lr_mult: 2
    decay_mult: 0
  }
  convolution_param {
    num_output: 288
    pad: 1
    kernel_size: 3
    weight_filler {
      type: "xavier"
    }
    bias_filler {
      type: "constant"
      value: 0.2
    }
  }
}
layer {
  name: "inception_4d/prelu_3x3"
  type: "PReLU"
  bottom: "inception_4d/3x3"
  top: "inception_4d/3x3"
  param {
    lr_mult: 1
    decay_mult: 0
  }
  prelu_param {
    filler {
      type: "constant"
      value: 0.01
    }
  }
}
layer {
  name: "inception_4d/5x5_reduce"
  type: "Convolution"
  bottom: "inception_4c/output"
  top: "inception_4d/5x5_reduce"
  param {
    lr_mult: 1
    decay_mult: 1
  }
  param {
    lr_mult: 2
    decay_mult: 0
  }
  convolution_param {
    num_output: 32
    kernel_size: 1
    weight_filler {
      type: "xavier"
    }
    bias_filler {
      type: "constant"
      value: 0.2
    }
  }
}
layer {
  name: "inception_4d/prelu_5x5_reduce"
  type: "PReLU"
  bottom: "inception_4d/5x5_reduce"
  top: "inception_4d/5x5_reduce"
  param {
    lr_mult: 1
    decay_mult: 0
  }
  prelu_param {
    filler {
      type: "constant"
      value: 0.01
    }
  }
}
layer {
  name: "inception_4d/5x5"
  type: "Convolution"
  bottom: "inception_4d/5x5_reduce"
  top: "inception_4d/5x5"
  param {
    lr_mult: 1
    decay_mult: 1
  }
  param {
    lr_mult: 2
    decay_mult: 0
  }
  convolution_param {
    num_output: 64
    pad: 2
    kernel_size: 5
    weight_filler {
      type: "xavier"
    }
    bias_filler {
      type: "constant"
      value: 0.2
    }
  }
}
layer {
  name: "inception_4d/prelu_5x5"
  type: "PReLU"
  bottom: "inception_4d/5x5"
  top: "inception_4d/5x5"
  param {
    lr_mult: 1
    decay_mult: 0
  }
  prelu_param {
    filler {
      type: "constant"
      value: 0.01
    }
  }
}
layer {
  name: "inception_4d/pool"
  type: "Pooling"
  bottom: "inception_4c/output"
  top: "inception_4d/pool"
  pooling_param {
    pool: MAX
    kernel_size: 3
    stride: 1
    pad: 1
  }
}
layer {
  name: "inception_4d/pool_proj"
  type: "Convolution"
  bottom: 
I1126 15:25:01.016662 12182 layer_factory.hpp:76] Creating layer data
I1126 15:25:01.017168 12182 net.cpp:106] Creating Layer data
I1126 15:25:01.017189 12182 net.cpp:411] data -> data
I1126 15:25:01.017227 12182 net.cpp:411] data -> label
I1126 15:25:01.468039 12188 db_lmdb.cpp:38] Opened lmdb ../../LMDB-s300/train_0-lmdb
I1126 15:25:01.505319 12182 data_layer.cpp:41] output data size: 32,3,224,224
I1126 15:25:01.567597 12182 net.cpp:150] Setting up data
I1126 15:25:01.567687 12182 net.cpp:157] Top shape: 32 3 224 224 (4816896)
I1126 15:25:01.567695 12182 net.cpp:157] Top shape: 32 (32)
I1126 15:25:01.567701 12182 net.cpp:165] Memory required for data: 19267712
I1126 15:25:01.567719 12182 layer_factory.hpp:76] Creating layer label_data_1_split
I1126 15:25:01.567751 12182 net.cpp:106] Creating Layer label_data_1_split
I1126 15:25:01.567759 12182 net.cpp:454] label_data_1_split <- label
I1126 15:25:01.567778 12182 net.cpp:411] label_data_1_split -> label_data_1_split_0
I1126 15:25:01.567791 12182 net.cpp:411] label_data_1_split -> label_data_1_split_1
I1126 15:25:01.567798 12182 net.cpp:411] label_data_1_split -> label_data_1_split_2
I1126 15:25:01.567855 12182 net.cpp:150] Setting up label_data_1_split
I1126 15:25:01.567863 12182 net.cpp:157] Top shape: 32 (32)
I1126 15:25:01.567868 12182 net.cpp:157] Top shape: 32 (32)
I1126 15:25:01.567873 12182 net.cpp:157] Top shape: 32 (32)
I1126 15:25:01.567878 12182 net.cpp:165] Memory required for data: 19268096
I1126 15:25:01.567881 12182 layer_factory.hpp:76] Creating layer conv1/7x7_s2
I1126 15:25:01.567899 12182 net.cpp:106] Creating Layer conv1/7x7_s2
I1126 15:25:01.567904 12182 net.cpp:454] conv1/7x7_s2 <- data
I1126 15:25:01.567912 12182 net.cpp:411] conv1/7x7_s2 -> conv1/7x7_s2
I1126 15:25:01.634960 12189 blocking_queue.cpp:50] Waiting for data
I1126 15:25:01.771713 12182 cudnn_conv_layer.cpp:194] Reallocating workspace storage: 225816
I1126 15:25:01.771961 12182 net.cpp:150] Setting up conv1/7x7_s2
I1126 15:25:01.771975 12182 net.cpp:157] Top shape: 32 64 112 112 (25690112)
I1126 15:25:01.771980 12182 net.cpp:165] Memory required for data: 122028544
I1126 15:25:01.771998 12182 layer_factory.hpp:76] Creating layer conv1/prelu_7x7
I1126 15:25:01.772014 12182 net.cpp:106] Creating Layer conv1/prelu_7x7
I1126 15:25:01.772020 12182 net.cpp:454] conv1/prelu_7x7 <- conv1/7x7_s2
I1126 15:25:01.772028 12182 net.cpp:397] conv1/prelu_7x7 -> conv1/7x7_s2 (in-place)
I1126 15:25:01.773677 12182 net.cpp:150] Setting up conv1/prelu_7x7
I1126 15:25:01.773692 12182 net.cpp:157] Top shape: 32 64 112 112 (25690112)
I1126 15:25:01.773696 12182 net.cpp:165] Memory required for data: 224788992
I1126 15:25:01.773705 12182 layer_factory.hpp:76] Creating layer pool1/3x3_s2
I1126 15:25:01.773717 12182 net.cpp:106] Creating Layer pool1/3x3_s2
I1126 15:25:01.773722 12182 net.cpp:454] pool1/3x3_s2 <- conv1/7x7_s2
I1126 15:25:01.773730 12182 net.cpp:411] pool1/3x3_s2 -> pool1/3x3_s2
I1126 15:25:01.774101 12182 net.cpp:150] Setting up pool1/3x3_s2
I1126 15:25:01.774111 12182 net.cpp:157] Top shape: 32 64 56 56 (6422528)
I1126 15:25:01.774116 12182 net.cpp:165] Memory required for data: 250479104
I1126 15:25:01.774119 12182 layer_factory.hpp:76] Creating layer pool1/norm1
I1126 15:25:01.774132 12182 net.cpp:106] Creating Layer pool1/norm1
I1126 15:25:01.774137 12182 net.cpp:454] pool1/norm1 <- pool1/3x3_s2
I1126 15:25:01.774142 12182 net.cpp:411] pool1/norm1 -> pool1/norm1
I1126 15:25:01.774294 12182 net.cpp:150] Setting up pool1/norm1
I1126 15:25:01.774303 12182 net.cpp:157] Top shape: 32 64 56 56 (6422528)
I1126 15:25:01.774307 12182 net.cpp:165] Memory required for data: 276169216
I1126 15:25:01.774312 12182 layer_factory.hpp:76] Creating layer conv2/3x3_reduce
I1126 15:25:01.774322 12182 net.cpp:106] Creating Layer conv2/3x3_reduce
I1126 15:25:01.774327 12182 net.cpp:454] conv2/3x3_reduce <- pool1/norm1
I1126 15:25:01.774333 12182 net.cpp:411] conv2/3x3_reduce -> conv2/3x3_reduce
I1126 15:25:01.775679 12182 cudnn_conv_layer.cpp:194] Reallocating workspace storage: 63000
I1126 15:25:01.775699 12182 net.cpp:150] Setting up conv2/3x3_reduce
I1126 15:25:01.775709 12182 net.cpp:157] Top shape: 32 64 56 56 (6422528)
I1126 15:25:01.775713 12182 net.cpp:165] Memory required for data: 301859328
I1126 15:25:01.775722 12182 layer_factory.hpp:76] Creating layer conv2/prelu_3x3_reduce
I1126 15:25:01.775730 12182 net.cpp:106] Creating Layer conv2/prelu_3x3_reduce
I1126 15:25:01.775735 12182 net.cpp:454] conv2/prelu_3x3_reduce <- conv2/3x3_reduce
I1126 15:25:01.775743 12182 net.cpp:397] conv2/prelu_3x3_reduce -> conv2/3x3_reduce (in-place)
I1126 15:25:01.776404 12182 net.cpp:150] Setting up conv2/prelu_3x3_reduce
I1126 15:25:01.776415 12182 net.cpp:157] Top shape: 32 64 56 56 (6422528)
I1126 15:25:01.776419 12182 net.cpp:165] Memory required for data: 327549440
I1126 15:25:01.776427 12182 layer_factory.hpp:76] Creating layer conv2/3x3
I1126 15:25:01.776437 12182 net.cpp:106] Creating Layer conv2/3x3
I1126 15:25:01.776443 12182 net.cpp:454] conv2/3x3 <- conv2/3x3_reduce
I1126 15:25:01.776448 12182 net.cpp:411] conv2/3x3 -> conv2/3x3
I1126 15:25:01.778429 12182 cudnn_conv_layer.cpp:194] Reallocating workspace storage: 63000
I1126 15:25:01.778446 12182 net.cpp:150] Setting up conv2/3x3
I1126 15:25:01.778453 12182 net.cpp:157] Top shape: 32 192 56 56 (19267584)
I1126 15:25:01.778458 12182 net.cpp:165] Memory required for data: 404619776
I1126 15:25:01.778465 12182 layer_factory.hpp:76] Creating layer conv2/prelu_3x3
I1126 15:25:01.778473 12182 net.cpp:106] Creating Layer conv2/prelu_3x3
I1126 15:25:01.778478 12182 net.cpp:454] conv2/prelu_3x3 <- conv2/3x3
I1126 15:25:01.778486 12182 net.cpp:397] conv2/prelu_3x3 -> conv2/3x3 (in-place)
I1126 15:25:01.779582 12182 net.cpp:150] Setting up conv2/prelu_3x3
I1126 15:25:01.779594 12182 net.cpp:157] Top shape: 32 192 56 56 (19267584)
I1126 15:25:01.779621 12182 net.cpp:165] Memory required for data: 481690112
I1126 15:25:01.779631 12182 layer_factory.hpp:76] Creating layer conv2/norm2
I1126 15:25:01.779639 12182 net.cpp:106] Creating Layer conv2/norm2
I1126 15:25:01.779644 12182 net.cpp:454] conv2/norm2 <- conv2/3x3
I1126 15:25:01.779651 12182 net.cpp:411] conv2/norm2 -> conv2/norm2
I1126 15:25:01.779815 12182 net.cpp:150] Setting up conv2/norm2
I1126 15:25:01.779824 12182 net.cpp:157] Top shape: 32 192 56 56 (19267584)
I1126 15:25:01.779829 12182 net.cpp:165] Memory required for data: 558760448
I1126 15:25:01.779832 12182 layer_factory.hpp:76] Creating layer pool2/3x3_s2
I1126 15:25:01.779839 12182 net.cpp:106] Creating Layer pool2/3x3_s2
I1126 15:25:01.779844 12182 net.cpp:454] pool2/3x3_s2 <- conv2/norm2
I1126 15:25:01.779849 12182 net.cpp:411] pool2/3x3_s2 -> pool2/3x3_s2
I1126 15:25:01.780189 12182 net.cpp:150] Setting up pool2/3x3_s2
I1126 15:25:01.780199 12182 net.cpp:157] Top shape: 32 192 28 28 (4816896)
I1126 15:25:01.780202 12182 net.cpp:165] Memory required for data: 578028032
I1126 15:25:01.780206 12182 layer_factory.hpp:76] Creating layer pool2/3x3_s2_pool2/3x3_s2_0_split
I1126 15:25:01.780212 12182 net.cpp:106] Creating Layer pool2/3x3_s2_pool2/3x3_s2_0_split
I1126 15:25:01.780216 12182 net.cpp:454] pool2/3x3_s2_pool2/3x3_s2_0_split <- pool2/3x3_s2
I1126 15:25:01.780223 12182 net.cpp:411] pool2/3x3_s2_pool2/3x3_s2_0_split -> pool2/3x3_s2_pool2/3x3_s2_0_split_0
I1126 15:25:01.780230 12182 net.cpp:411] pool2/3x3_s2_pool2/3x3_s2_0_split -> pool2/3x3_s2_pool2/3x3_s2_0_split_1
I1126 15:25:01.780237 12182 net.cpp:411] pool2/3x3_s2_pool2/3x3_s2_0_split -> pool2/3x3_s2_pool2/3x3_s2_0_split_2
I1126 15:25:01.780243 12182 net.cpp:411] pool2/3x3_s2_pool2/3x3_s2_0_split -> pool2/3x3_s2_pool2/3x3_s2_0_split_3
I1126 15:25:01.780290 12182 net.cpp:150] Setting up pool2/3x3_s2_pool2/3x3_s2_0_split
I1126 15:25:01.780297 12182 net.cpp:157] Top shape: 32 192 28 28 (4816896)
I1126 15:25:01.780302 12182 net.cpp:157] Top shape: 32 192 28 28 (4816896)
I1126 15:25:01.780306 12182 net.cpp:157] Top shape: 32 192 28 28 (4816896)
I1126 15:25:01.780310 12182 net.cpp:157] Top shape: 32 192 28 28 (4816896)
I1126 15:25:01.780314 12182 net.cpp:165] Memory required for data: 655098368
I1126 15:25:01.780318 12182 layer_factory.hpp:76] Creating layer inception_3a/1x1
I1126 15:25:01.780328 12182 net.cpp:106] Creating Layer inception_3a/1x1
I1126 15:25:01.780333 12182 net.cpp:454] inception_3a/1x1 <- pool2/3x3_s2_pool2/3x3_s2_0_split_0
I1126 15:25:01.780339 12182 net.cpp:411] inception_3a/1x1 -> inception_3a/1x1
I1126 15:25:01.781790 12182 cudnn_conv_layer.cpp:194] Reallocating workspace storage: 20664
I1126 15:25:01.781811 12182 net.cpp:150] Setting up inception_3a/1x1
I1126 15:25:01.781818 12182 net.cpp:157] Top shape: 32 64 28 28 (1605632)
I1126 15:25:01.781822 12182 net.cpp:165] Memory required for data: 661520896
I1126 15:25:01.781829 12182 layer_factory.hpp:76] Creating layer inception_3a/prelu_1x1
I1126 15:25:01.781837 12182 net.cpp:106] Creating Layer inception_3a/prelu_1x1
I1126 15:25:01.781841 12182 net.cpp:454] inception_3a/prelu_1x1 <- inception_3a/1x1
I1126 15:25:01.781848 12182 net.cpp:397] inception_3a/prelu_1x1 -> inception_3a/1x1 (in-place)
I1126 15:25:01.782356 12182 net.cpp:150] Setting up inception_3a/prelu_1x1
I1126 15:25:01.782364 12182 net.cpp:157] Top shape: 32 64 28 28 (1605632)
I1126 15:25:01.782368 12182 net.cpp:165] Memory required for data: 667943424
I1126 15:25:01.782374 12182 layer_factory.hpp:76] Creating layer inception_3a/3x3_reduce
I1126 15:25:01.782384 12182 net.cpp:106] Creating Layer inception_3a/3x3_reduce
I1126 15:25:01.782389 12182 net.cpp:454] inception_3a/3x3_reduce <- pool2/3x3_s2_pool2/3x3_s2_0_split_1
I1126 15:25:01.782395 12182 net.cpp:411] inception_3a/3x3_reduce -> inception_3a/3x3_reduce
I1126 15:25:01.783298 12182 cudnn_conv_layer.cpp:194] Reallocating workspace storage: 20664
I1126 15:25:01.783316 12182 net.cpp:150] Setting up inception_3a/3x3_reduce
I1126 15:25:01.783324 12182 net.cpp:157] Top shape: 32 96 28 28 (2408448)
I1126 15:25:01.783337 12182 net.cpp:165] Memory required for data: 677577216
I1126 15:25:01.783344 12182 layer_factory.hpp:76] Creating layer inception_3a/prelu_3x3_reduce
I1126 15:25:01.783355 12182 net.cpp:106] Creating Layer inception_3a/prelu_3x3_reduce
I1126 15:25:01.783360 12182 net.cpp:454] inception_3a/prelu_3x3_reduce <- inception_3a/3x3_reduce
I1126 15:25:01.783366 12182 net.cpp:397] inception_3a/prelu_3x3_reduce -> inception_3a/3x3_reduce (in-place)
I1126 15:25:01.783486 12182 net.cpp:150] Setting up inception_3a/prelu_3x3_reduce
I1126 15:25:01.783494 12182 net.cpp:157] Top shape: 32 96 28 28 (2408448)
I1126 15:25:01.783499 12182 net.cpp:165] Memory required for data: 687211008
I1126 15:25:01.783504 12182 layer_factory.hpp:76] Creating layer inception_3a/3x3
I1126 15:25:01.783511 12182 net.cpp:106] Creating Layer inception_3a/3x3
I1126 15:25:01.783516 12182 net.cpp:454] inception_3a/3x3 <- inception_3a/3x3_reduce
I1126 15:25:01.783524 12182 net.cpp:411] inception_3a/3x3 -> inception_3a/3x3
I1126 15:25:01.785514 12182 cudnn_conv_layer.cpp:194] Reallocating workspace storage: 20664
I1126 15:25:01.785532 12182 net.cpp:150] Setting up inception_3a/3x3
I1126 15:25:01.785540 12182 net.cpp:157] Top shape: 32 128 28 28 (3211264)
I1126 15:25:01.785544 12182 net.cpp:165] Memory required for data: 700056064
I1126 15:25:01.785554 12182 layer_factory.hpp:76] Creating layer inception_3a/prelu_3x3
I1126 15:25:01.785586 12182 net.cpp:106] Creating Layer inception_3a/prelu_3x3
I1126 15:25:01.785600 12182 net.cpp:454] inception_3a/prelu_3x3 <- inception_3a/3x3
I1126 15:25:01.785608 12182 net.cpp:397] inception_3a/prelu_3x3 -> inception_3a/3x3 (in-place)
I1126 15:25:01.785729 12182 net.cpp:150] Setting up inception_3a/prelu_3x3
I1126 15:25:01.785745 12182 net.cpp:157] Top shape: 32 128 28 28 (3211264)
I1126 15:25:01.785749 12182 net.cpp:165] Memory required for data: 712901120
I1126 15:25:01.785755 12182 layer_factory.hpp:76] Creating layer inception_3a/5x5_reduce
I1126 15:25:01.785764 12182 net.cpp:106] Creating Layer inception_3a/5x5_reduce
I1126 15:25:01.785769 12182 net.cpp:454] inception_3a/5x5_reduce <- pool2/3x3_s2_pool2/3x3_s2_0_split_2
I1126 15:25:01.785776 12182 net.cpp:411] inception_3a/5x5_reduce -> inception_3a/5x5_reduce
I1126 15:25:01.786908 12182 cudnn_conv_layer.cpp:194] Reallocating workspace storage: 20664
I1126 15:25:01.786926 12182 net.cpp:150] Setting up inception_3a/5x5_reduce
I1126 15:25:01.786932 12182 net.cpp:157] Top shape: 32 16 28 28 (401408)
I1126 15:25:01.786936 12182 net.cpp:165] Memory required for data: 714506752
I1126 15:25:01.786943 12182 layer_factory.hpp:76] Creating layer inception_3a/prelu_5x5_reduce
I1126 15:25:01.786952 12182 net.cpp:106] Creating Layer inception_3a/prelu_5x5_reduce
I1126 15:25:01.786957 12182 net.cpp:454] inception_3a/prelu_5x5_reduce <- inception_3a/5x5_reduce
I1126 15:25:01.786962 12182 net.cpp:397] inception_3a/prelu_5x5_reduce -> inception_3a/5x5_reduce (in-place)
I1126 15:25:01.787044 12182 net.cpp:150] Setting up inception_3a/prelu_5x5_reduce
I1126 15:25:01.787050 12182 net.cpp:157] Top shape: 32 16 28 28 (401408)
I1126 15:25:01.787055 12182 net.cpp:165] Memory required for data: 716112384
I1126 15:25:01.787060 12182 layer_factory.hpp:76] Creating layer inception_3a/5x5
I1126 15:25:01.787068 12182 net.cpp:106] Creating Layer inception_3a/5x5
I1126 15:25:01.787072 12182 net.cpp:454] inception_3a/5x5 <- inception_3a/5x5_reduce
I1126 15:25:01.787078 12182 net.cpp:411] inception_3a/5x5 -> inception_3a/5x5
I1126 15:25:01.788077 12182 cudnn_conv_layer.cpp:194] Reallocating workspace storage: 20664
I1126 15:25:01.788095 12182 net.cpp:150] Setting up inception_3a/5x5
I1126 15:25:01.788101 12182 net.cpp:157] Top shape: 32 32 28 28 (802816)
I1126 15:25:01.788105 12182 net.cpp:165] Memory required for data: 719323648
I1126 15:25:01.788112 12182 layer_factory.hpp:76] Creating layer inception_3a/prelu_5x5
I1126 15:25:01.788120 12182 net.cpp:106] Creating Layer inception_3a/prelu_5x5
I1126 15:25:01.788125 12182 net.cpp:454] inception_3a/prelu_5x5 <- inception_3a/5x5
I1126 15:25:01.788143 12182 net.cpp:397] inception_3a/prelu_5x5 -> inception_3a/5x5 (in-place)
I1126 15:25:01.788228 12182 net.cpp:150] Setting up inception_3a/prelu_5x5
I1126 15:25:01.788235 12182 net.cpp:157] Top shape: 32 32 28 28 (802816)
I1126 15:25:01.788239 12182 net.cpp:165] Memory required for data: 722534912
I1126 15:25:01.788245 12182 layer_factory.hpp:76] Creating layer inception_3a/pool
I1126 15:25:01.788252 12182 net.cpp:106] Creating Layer inception_3a/pool
I1126 15:25:01.788256 12182 net.cpp:454] inception_3a/pool <- pool2/3x3_s2_pool2/3x3_s2_0_split_3
I1126 15:25:01.788264 12182 net.cpp:411] inception_3a/pool -> inception_3a/pool
I1126 15:25:01.788434 12182 net.cpp:150] Setting up inception_3a/pool
I1126 15:25:01.788444 12182 net.cpp:157] Top shape: 32 192 28 28 (4816896)
I1126 15:25:01.788447 12182 net.cpp:165] Memory required for data: 741802496
I1126 15:25:01.788451 12182 layer_factory.hpp:76] Creating layer inception_3a/pool_proj
I1126 15:25:01.788460 12182 net.cpp:106] Creating Layer inception_3a/pool_proj
I1126 15:25:01.788463 12182 net.cpp:454] inception_3a/pool_proj <- inception_3a/pool
I1126 15:25:01.788471 12182 net.cpp:411] inception_3a/pool_proj -> inception_3a/pool_proj
I1126 15:25:01.789484 12182 cudnn_conv_layer.cpp:194] Reallocating workspace storage: 20664
I1126 15:25:01.789501 12182 net.cpp:150] Setting up inception_3a/pool_proj
I1126 15:25:01.789508 12182 net.cpp:157] Top shape: 32 32 28 28 (802816)
I1126 15:25:01.789512 12182 net.cpp:165] Memory required for data: 745013760
I1126 15:25:01.789520 12182 layer_factory.hpp:76] Creating layer inception_3a/prelu_pool_proj
I1126 15:25:01.789528 12182 net.cpp:106] Creating Layer inception_3a/prelu_pool_proj
I1126 15:25:01.789533 12182 net.cpp:454] inception_3a/prelu_pool_proj <- inception_3a/pool_proj
I1126 15:25:01.789540 12182 net.cpp:397] inception_3a/prelu_pool_proj -> inception_3a/pool_proj (in-place)
I1126 15:25:01.789626 12182 net.cpp:150] Setting up inception_3a/prelu_pool_proj
I1126 15:25:01.789634 12182 net.cpp:157] Top shape: 32 32 28 28 (802816)
I1126 15:25:01.789638 12182 net.cpp:165] Memory required for data: 748225024
I1126 15:25:01.789644 12182 layer_factory.hpp:76] Creating layer inception_3a/output
I1126 15:25:01.789654 12182 net.cpp:106] Creating Layer inception_3a/output
I1126 15:25:01.789659 12182 net.cpp:454] inception_3a/output <- inception_3a/1x1
I1126 15:25:01.789664 12182 net.cpp:454] inception_3a/output <- inception_3a/3x3
I1126 15:25:01.789667 12182 net.cpp:454] inception_3a/output <- inception_3a/5x5
I1126 15:25:01.789672 12182 net.cpp:454] inception_3a/output <- inception_3a/pool_proj
I1126 15:25:01.789679 12182 net.cpp:411] inception_3a/output -> inception_3a/output
I1126 15:25:01.789705 12182 net.cpp:150] Setting up inception_3a/output
I1126 15:25:01.789711 12182 net.cpp:157] Top shape: 32 256 28 28 (6422528)
I1126 15:25:01.789716 12182 net.cpp:165] Memory required for data: 773915136
I1126 15:25:01.789719 12182 layer_factory.hpp:76] Creating layer inception_3a/output_inception_3a/output_0_split
I1126 15:25:01.789726 12182 net.cpp:106] Creating Layer inception_3a/output_inception_3a/output_0_split
I1126 15:25:01.789729 12182 net.cpp:454] inception_3a/output_inception_3a/output_0_split <- inception_3a/output
I1126 15:25:01.789736 12182 net.cpp:411] inception_3a/output_inception_3a/output_0_split -> inception_3a/output_inception_3a/output_0_split_0
I1126 15:25:01.789741 12182 net.cpp:411] inception_3a/output_inception_3a/output_0_split -> inception_3a/output_inception_3a/output_0_split_1
I1126 15:25:01.789749 12182 net.cpp:411] inception_3a/output_inception_3a/output_0_split -> inception_3a/output_inception_3a/output_0_split_2
I1126 15:25:01.789755 12182 net.cpp:411] inception_3a/output_inception_3a/output_0_split -> inception_3a/output_inception_3a/output_0_split_3
I1126 15:25:01.789803 12182 net.cpp:150] Setting up inception_3a/output_inception_3a/output_0_split
I1126 15:25:01.789809 12182 net.cpp:157] Top shape: 32 256 28 28 (6422528)
I1126 15:25:01.789814 12182 net.cpp:157] Top shape: 32 256 28 28 (6422528)
I1126 15:25:01.789829 12182 net.cpp:157] Top shape: 32 256 28 28 (6422528)
I1126 15:25:01.789836 12182 net.cpp:157] Top shape: 32 256 28 28 (6422528)
I1126 15:25:01.789840 12182 net.cpp:165] Memory required for data: 876675584
I1126 15:25:01.789844 12182 layer_factory.hpp:76] Creating layer inception_3b/1x1
I1126 15:25:01.789852 12182 net.cpp:106] Creating Layer inception_3b/1x1
I1126 15:25:01.789856 12182 net.cpp:454] inception_3b/1x1 <- inception_3a/output_inception_3a/output_0_split_0
I1126 15:25:01.789862 12182 net.cpp:411] inception_3b/1x1 -> inception_3b/1x1
I1126 15:25:01.790976 12182 cudnn_conv_layer.cpp:194] Reallocating workspace storage: 20664
I1126 15:25:01.790992 12182 net.cpp:150] Setting up inception_3b/1x1
I1126 15:25:01.790998 12182 net.cpp:157] Top shape: 32 128 28 28 (3211264)
I1126 15:25:01.791002 12182 net.cpp:165] Memory required for data: 889520640
I1126 15:25:01.791009 12182 layer_factory.hpp:76] Creating layer inception_3b/prelu_1x1
I1126 15:25:01.791018 12182 net.cpp:106] Creating Layer inception_3b/prelu_1x1
I1126 15:25:01.791023 12182 net.cpp:454] inception_3b/prelu_1x1 <- inception_3b/1x1
I1126 15:25:01.791028 12182 net.cpp:397] inception_3b/prelu_1x1 -> inception_3b/1x1 (in-place)
I1126 15:25:01.791571 12182 net.cpp:150] Setting up inception_3b/prelu_1x1
I1126 15:25:01.791580 12182 net.cpp:157] Top shape: 32 128 28 28 (3211264)
I1126 15:25:01.791584 12182 net.cpp:165] Memory required for data: 902365696
I1126 15:25:01.791590 12182 layer_factory.hpp:76] Creating layer inception_3b/3x3_reduce
I1126 15:25:01.791597 12182 net.cpp:106] Creating Layer inception_3b/3x3_reduce
I1126 15:25:01.791602 12182 net.cpp:454] inception_3b/3x3_reduce <- inception_3a/output_inception_3a/output_0_split_1
I1126 15:25:01.791610 12182 net.cpp:411] inception_3b/3x3_reduce -> inception_3b/3x3_reduce
I1126 15:25:01.792737 12182 cudnn_conv_layer.cpp:194] Reallocating workspace storage: 20664
I1126 15:25:01.792762 12182 net.cpp:150] Setting up inception_3b/3x3_reduce
I1126 15:25:01.792778 12182 net.cpp:157] Top shape: 32 128 28 28 (3211264)
I1126 15:25:01.792781 12182 net.cpp:165] Memory required for data: 915210752
I1126 15:25:01.792788 12182 layer_factory.hpp:76] Creating layer inception_3b/prelu_3x3_reduce
I1126 15:25:01.792798 12182 net.cpp:106] Creating Layer inception_3b/prelu_3x3_reduce
I1126 15:25:01.792803 12182 net.cpp:454] inception_3b/prelu_3x3_reduce <- inception_3b/3x3_reduce
I1126 15:25:01.792809 12182 net.cpp:397] inception_3b/prelu_3x3_reduce -> inception_3b/3x3_reduce (in-place)
I1126 15:25:01.792922 12182 net.cpp:150] Setting up inception_3b/prelu_3x3_reduce
I1126 15:25:01.792929 12182 net.cpp:157] Top shape: 32 128 28 28 (3211264)
I1126 15:25:01.792933 12182 net.cpp:165] Memory required for data: 928055808
I1126 15:25:01.792944 12182 layer_factory.hpp:76] Creating layer inception_3b/3x3
I1126 15:25:01.792956 12182 net.cpp:106] Creating Layer inception_3b/3x3
I1126 15:25:01.792960 12182 net.cpp:454] inception_3b/3x3 <- inception_3b/3x3_reduce
I1126 15:25:01.792968 12182 net.cpp:411] inception_3b/3x3 -> inception_3b/3x3
I1126 15:25:01.795498 12182 cudnn_conv_layer.cpp:194] Reallocating workspace storage: 20664
I1126 15:25:01.795516 12182 net.cpp:150] Setting up inception_3b/3x3
I1126 15:25:01.795522 12182 net.cpp:157] Top shape: 32 192 28 28 (4816896)
I1126 15:25:01.795526 12182 net.cpp:165] Memory required for data: 947323392
I1126 15:25:01.795533 12182 layer_factory.hpp:76] Creating layer inception_3b/prelu_3x3
I1126 15:25:01.795542 12182 net.cpp:106] Creating Layer inception_3b/prelu_3x3
I1126 15:25:01.795547 12182 net.cpp:454] inception_3b/prelu_3x3 <- inception_3b/3x3
I1126 15:25:01.795552 12182 net.cpp:397] inception_3b/prelu_3x3 -> inception_3b/3x3 (in-place)
I1126 15:25:01.796123 12182 net.cpp:150] Setting up inception_3b/prelu_3x3
I1126 15:25:01.796131 12182 net.cpp:157] Top shape: 32 192 28 28 (4816896)
I1126 15:25:01.796135 12182 net.cpp:165] Memory required for data: 966590976
I1126 15:25:01.796140 12182 layer_factory.hpp:76] Creating layer inception_3b/5x5_reduce
I1126 15:25:01.796149 12182 net.cpp:106] Creating Layer inception_3b/5x5_reduce
I1126 15:25:01.796166 12182 net.cpp:454] inception_3b/5x5_reduce <- inception_3a/output_inception_3a/output_0_split_2
I1126 15:25:01.796174 12182 net.cpp:411] inception_3b/5x5_reduce -> inception_3b/5x5_reduce
I1126 15:25:01.797003 12182 cudnn_conv_layer.cpp:194] Reallocating workspace storage: 20664
I1126 15:25:01.797019 12182 net.cpp:150] Setting up inception_3b/5x5_reduce
I1126 15:25:01.797025 12182 net.cpp:157] Top shape: 32 32 28 28 (802816)
I1126 15:25:01.797029 12182 net.cpp:165] Memory required for data: 969802240
I1126 15:25:01.797035 12182 layer_factory.hpp:76] Creating layer inception_3b/prelu_5x5_reduce
I1126 15:25:01.797044 12182 net.cpp:106] Creating Layer inception_3b/prelu_5x5_reduce
I1126 15:25:01.797049 12182 net.cpp:454] inception_3b/prelu_5x5_reduce <- inception_3b/5x5_reduce
I1126 15:25:01.797055 12182 net.cpp:397] inception_3b/prelu_5x5_reduce -> inception_3b/5x5_reduce (in-place)
I1126 15:25:01.797143 12182 net.cpp:150] Setting up inception_3b/prelu_5x5_reduce
I1126 15:25:01.797152 12182 net.cpp:157] Top shape: 32 32 28 28 (802816)
I1126 15:25:01.797154 12182 net.cpp:165] Memory required for data: 973013504
I1126 15:25:01.797160 12182 layer_factory.hpp:76] Creating layer inception_3b/5x5
I1126 15:25:01.797168 12182 net.cpp:106] Creating Layer inception_3b/5x5
I1126 15:25:01.797173 12182 net.cpp:454] inception_3b/5x5 <- inception_3b/5x5_reduce
I1126 15:25:01.797180 12182 net.cpp:411] inception_3b/5x5 -> inception_3b/5x5
I1126 15:25:01.798526 12182 cudnn_conv_layer.cpp:194] Reallocating workspace storage: 20664
I1126 15:25:01.798542 12182 net.cpp:150] Setting up inception_3b/5x5
I1126 15:25:01.798548 12182 net.cpp:157] Top shape: 32 96 28 28 (2408448)
I1126 15:25:01.798552 12182 net.cpp:165] Memory required for data: 982647296
I1126 15:25:01.798559 12182 layer_factory.hpp:76] Creating layer inception_3b/prelu_5x5
I1126 15:25:01.798568 12182 net.cpp:106] Creating Layer inception_3b/prelu_5x5
I1126 15:25:01.798573 12182 net.cpp:454] inception_3b/prelu_5x5 <- inception_3b/5x5
I1126 15:25:01.798578 12182 net.cpp:397] inception_3b/prelu_5x5 -> inception_3b/5x5 (in-place)
I1126 15:25:01.798707 12182 net.cpp:150] Setting up inception_3b/prelu_5x5
I1126 15:25:01.798715 12182 net.cpp:157] Top shape: 32 96 28 28 (2408448)
I1126 15:25:01.798719 12182 net.cpp:165] Memory required for data: 992281088
I1126 15:25:01.798724 12182 layer_factory.hpp:76] Creating layer inception_3b/pool
I1126 15:25:01.798733 12182 net.cpp:106] Creating Layer inception_3b/pool
I1126 15:25:01.798738 12182 net.cpp:454] inception_3b/pool <- inception_3a/output_inception_3a/output_0_split_3
I1126 15:25:01.798743 12182 net.cpp:411] inception_3b/pool -> inception_3b/pool
I1126 15:25:01.799106 12182 net.cpp:150] Setting up inception_3b/pool
I1126 15:25:01.799126 12182 net.cpp:157] Top shape: 32 256 28 28 (6422528)
I1126 15:25:01.799130 12182 net.cpp:165] Memory required for data: 1017971200
I1126 15:25:01.799134 12182 layer_factory.hpp:76] Creating layer inception_3b/pool_proj
I1126 15:25:01.799142 12182 net.cpp:106] Creating Layer inception_3b/pool_proj
I1126 15:25:01.799146 12182 net.cpp:454] inception_3b/pool_proj <- inception_3b/pool
I1126 15:25:01.799154 12182 net.cpp:411] inception_3b/pool_proj -> inception_3b/pool_proj
I1126 15:25:01.800220 12182 cudnn_conv_layer.cpp:194] Reallocating workspace storage: 20664
I1126 15:25:01.800236 12182 net.cpp:150] Setting up inception_3b/pool_proj
I1126 15:25:01.800243 12182 net.cpp:157] Top shape: 32 64 28 28 (1605632)
I1126 15:25:01.800246 12182 net.cpp:165] Memory required for data: 1024393728
I1126 15:25:01.800253 12182 layer_factory.hpp:76] Creating layer inception_3b/prelu_pool_proj
I1126 15:25:01.800262 12182 net.cpp:106] Creating Layer inception_3b/prelu_pool_proj
I1126 15:25:01.800266 12182 net.cpp:454] inception_3b/prelu_pool_proj <- inception_3b/pool_proj
I1126 15:25:01.800273 12182 net.cpp:397] inception_3b/prelu_pool_proj -> inception_3b/pool_proj (in-place)
I1126 15:25:01.800384 12182 net.cpp:150] Setting up inception_3b/prelu_pool_proj
I1126 15:25:01.800400 12182 net.cpp:157] Top shape: 32 64 28 28 (1605632)
I1126 15:25:01.800405 12182 net.cpp:165] Memory required for data: 1030816256
I1126 15:25:01.800410 12182 layer_factory.hpp:76] Creating layer inception_3b/output
I1126 15:25:01.800417 12182 net.cpp:106] Creating Layer inception_3b/output
I1126 15:25:01.800422 12182 net.cpp:454] inception_3b/output <- inception_3b/1x1
I1126 15:25:01.800426 12182 net.cpp:454] inception_3b/output <- inception_3b/3x3
I1126 15:25:01.800431 12182 net.cpp:454] inception_3b/output <- inception_3b/5x5
I1126 15:25:01.800436 12182 net.cpp:454] inception_3b/output <- inception_3b/pool_proj
I1126 15:25:01.800441 12182 net.cpp:411] inception_3b/output -> inception_3b/output
I1126 15:25:01.800464 12182 net.cpp:150] Setting up inception_3b/output
I1126 15:25:01.800472 12182 net.cpp:157] Top shape: 32 480 28 28 (12042240)
I1126 15:25:01.800475 12182 net.cpp:165] Memory required for data: 1078985216
I1126 15:25:01.800479 12182 layer_factory.hpp:76] Creating layer pool3/3x3_s2
I1126 15:25:01.800485 12182 net.cpp:106] Creating Layer pool3/3x3_s2
I1126 15:25:01.800489 12182 net.cpp:454] pool3/3x3_s2 <- inception_3b/output
I1126 15:25:01.800496 12182 net.cpp:411] pool3/3x3_s2 -> pool3/3x3_s2
I1126 15:25:01.800839 12182 net.cpp:150] Setting up pool3/3x3_s2
I1126 15:25:01.800849 12182 net.cpp:157] Top shape: 32 480 14 14 (3010560)
I1126 15:25:01.800853 12182 net.cpp:165] Memory required for data: 1091027456
I1126 15:25:01.800858 12182 layer_factory.hpp:76] Creating layer pool3/3x3_s2_pool3/3x3_s2_0_split
I1126 15:25:01.800864 12182 net.cpp:106] Creating Layer pool3/3x3_s2_pool3/3x3_s2_0_split
I1126 15:25:01.800868 12182 net.cpp:454] pool3/3x3_s2_pool3/3x3_s2_0_split <- pool3/3x3_s2
I1126 15:25:01.800874 12182 net.cpp:411] pool3/3x3_s2_pool3/3x3_s2_0_split -> pool3/3x3_s2_pool3/3x3_s2_0_split_0
I1126 15:25:01.800882 12182 net.cpp:411] pool3/3x3_s2_pool3/3x3_s2_0_split -> pool3/3x3_s2_pool3/3x3_s2_0_split_1
I1126 15:25:01.800889 12182 net.cpp:411] pool3/3x3_s2_pool3/3x3_s2_0_split -> pool3/3x3_s2_pool3/3x3_s2_0_split_2
I1126 15:25:01.800895 12182 net.cpp:411] pool3/3x3_s2_pool3/3x3_s2_0_split -> pool3/3x3_s2_pool3/3x3_s2_0_split_3
I1126 15:25:01.800954 12182 net.cpp:150] Setting up pool3/3x3_s2_pool3/3x3_s2_0_split
I1126 15:25:01.800962 12182 net.cpp:157] Top shape: 32 480 14 14 (3010560)
I1126 15:25:01.800967 12182 net.cpp:157] Top shape: 32 480 14 14 (3010560)
I1126 15:25:01.800972 12182 net.cpp:157] Top shape: 32 480 14 14 (3010560)
I1126 15:25:01.800976 12182 net.cpp:157] Top shape: 32 480 14 14 (3010560)
I1126 15:25:01.800981 12182 net.cpp:165] Memory required for data: 1139196416
I1126 15:25:01.800984 12182 layer_factory.hpp:76] Creating layer inception_4a/1x1
I1126 15:25:01.800992 12182 net.cpp:106] Creating Layer inception_4a/1x1
I1126 15:25:01.800997 12182 net.cpp:454] inception_4a/1x1 <- pool3/3x3_s2_pool3/3x3_s2_0_split_0
I1126 15:25:01.801004 12182 net.cpp:411] inception_4a/1x1 -> inception_4a/1x1
I1126 15:25:01.802855 12182 cudnn_conv_layer.cpp:194] Reallocating workspace storage: 10080
I1126 15:25:01.803053 12182 net.cpp:150] Setting up inception_4a/1x1
I1126 15:25:01.803062 12182 net.cpp:157] Top shape: 32 192 14 14 (1204224)
I1126 15:25:01.803066 12182 net.cpp:165] Memory required for data: 1144013312
I1126 15:25:01.803073 12182 layer_factory.hpp:76] Creating layer inception_4a/prelu_1x1
I1126 15:25:01.803081 12182 net.cpp:106] Creating Layer inception_4a/prelu_1x1
I1126 15:25:01.803086 12182 net.cpp:454] inception_4a/prelu_1x1 <- inception_4a/1x1
I1126 15:25:01.803092 12182 net.cpp:397] inception_4a/prelu_1x1 -> inception_4a/1x1 (in-place)
I1126 15:25:01.803611 12182 net.cpp:150] Setting up inception_4a/prelu_1x1
I1126 15:25:01.803619 12182 net.cpp:157] Top shape: 32 192 14 14 (1204224)
I1126 15:25:01.803623 12182 net.cpp:165] Memory required for data: 1148830208
I1126 15:25:01.803628 12182 layer_factory.hpp:76] Creating layer inception_4a/3x3_reduce
I1126 15:25:01.803637 12182 net.cpp:106] Creating Layer inception_4a/3x3_reduce
I1126 15:25:01.803642 12182 net.cpp:454] inception_4a/3x3_reduce <- pool3/3x3_s2_pool3/3x3_s2_0_split_1
I1126 15:25:01.803658 12182 net.cpp:411] inception_4a/3x3_reduce -> inception_4a/3x3_reduce
I1126 15:25:01.804944 12182 cudnn_conv_layer.cpp:194] Reallocating workspace storage: 10080
I1126 15:25:01.804971 12182 net.cpp:150] Setting up inception_4a/3x3_reduce
I1126 15:25:01.804980 12182 net.cpp:157] Top shape: 32 96 14 14 (602112)
I1126 15:25:01.804986 12182 net.cpp:165] Memory required for data: 1151238656
I1126 15:25:01.804992 12182 layer_factory.hpp:76] Creating layer inception_4a/prelu_3x3_reduce
I1126 15:25:01.805001 12182 net.cpp:106] Creating Layer inception_4a/prelu_3x3_reduce
I1126 15:25:01.805006 12182 net.cpp:454] inception_4a/prelu_3x3_reduce <- inception_4a/3x3_reduce
I1126 15:25:01.805011 12182 net.cpp:397] inception_4a/prelu_3x3_reduce -> inception_4a/3x3_reduce (in-place)
I1126 15:25:01.805140 12182 net.cpp:150] Setting up inception_4a/prelu_3x3_reduce
I1126 15:25:01.805150 12182 net.cpp:157] Top shape: 32 96 14 14 (602112)
I1126 15:25:01.805153 12182 net.cpp:165] Memory required for data: 1153647104
I1126 15:25:01.805160 12182 layer_factory.hpp:76] Creating layer inception_4a/3x3
I1126 15:25:01.805169 12182 net.cpp:106] Creating Layer inception_4a/3x3
I1126 15:25:01.805174 12182 net.cpp:454] inception_4a/3x3 <- inception_4a/3x3_reduce
I1126 15:25:01.805182 12182 net.cpp:411] inception_4a/3x3 -> inception_4a/3x3
I1126 15:25:01.807878 12182 cudnn_conv_layer.cpp:194] Reallocating workspace storage: 10080
I1126 15:25:01.807910 12182 net.cpp:150] Setting up inception_4a/3x3
I1126 15:25:01.807924 12182 net.cpp:157] Top shape: 32 208 14 14 (1304576)
I1126 15:25:01.807931 12182 net.cpp:165] Memory required for data: 1158865408
I1126 15:25:01.807945 12182 layer_factory.hpp:76] Creating layer inception_4a/prelu_3x3
I1126 15:25:01.807957 12182 net.cpp:106] Creating Layer inception_4a/prelu_3x3
I1126 15:25:01.807965 12182 net.cpp:454] inception_4a/prelu_3x3 <- inception_4a/3x3
I1126 15:25:01.807978 12182 net.cpp:397] inception_4a/prelu_3x3 -> inception_4a/3x3 (in-place)
I1126 15:25:01.808087 12182 net.cpp:150] Setting up inception_4a/prelu_3x3
I1126 15:25:01.808095 12182 net.cpp:157] Top shape: 32 208 14 14 (1304576)
I1126 15:25:01.808099 12182 net.cpp:165] Memory required for data: 1164083712
I1126 15:25:01.808105 12182 layer_factory.hpp:76] Creating layer inception_4a/5x5_reduce
I1126 15:25:01.808116 12182 net.cpp:106] Creating Layer inception_4a/5x5_reduce
I1126 15:25:01.808122 12182 net.cpp:454] inception_4a/5x5_reduce <- pool3/3x3_s2_pool3/3x3_s2_0_split_2
I1126 15:25:01.808130 12182 net.cpp:411] inception_4a/5x5_reduce -> inception_4a/5x5_reduce
I1126 15:25:01.809177 12182 cudnn_conv_layer.cpp:194] Reallocating workspace storage: 10080
I1126 15:25:01.809207 12182 net.cpp:150] Setting up inception_4a/5x5_reduce
I1126 15:25:01.809216 12182 net.cpp:157] Top shape: 32 16 14 14 (100352)
I1126 15:25:01.809219 12182 net.cpp:165] Memory required for data: 1164485120
I1126 15:25:01.809227 12182 layer_factory.hpp:76] Creating layer inception_4a/prelu_5x5_reduce
I1126 15:25:01.809234 12182 net.cpp:106] Creating Layer inception_4a/prelu_5x5_reduce
I1126 15:25:01.809239 12182 net.cpp:454] inception_4a/prelu_5x5_reduce <- inception_4a/5x5_reduce
I1126 15:25:01.809247 12182 net.cpp:397] inception_4a/prelu_5x5_reduce -> inception_4a/5x5_reduce (in-place)
I1126 15:25:01.809334 12182 net.cpp:150] Setting up inception_4a/prelu_5x5_reduce
I1126 15:25:01.809341 12182 net.cpp:157] Top shape: 32 16 14 14 (100352)
I1126 15:25:01.809345 12182 net.cpp:165] Memory required for data: 1164886528
I1126 15:25:01.809351 12182 layer_factory.hpp:76] Creating layer inception_4a/5x5
I1126 15:25:01.809360 12182 net.cpp:106] Creating Layer inception_4a/5x5
I1126 15:25:01.809363 12182 net.cpp:454] inception_4a/5x5 <- inception_4a/5x5_reduce
I1126 15:25:01.809371 12182 net.cpp:411] inception_4a/5x5 -> inception_4a/5x5
I1126 15:25:01.810490 12182 cudnn_conv_layer.cpp:194] Reallocating workspace storage: 13080
I1126 15:25:01.810511 12182 net.cpp:150] Setting up inception_4a/5x5
I1126 15:25:01.810518 12182 net.cpp:157] Top shape: 32 48 14 14 (301056)
I1126 15:25:01.810539 12182 net.cpp:165] Memory required for data: 1166090752
I1126 15:25:01.810547 12182 layer_factory.hpp:76] Creating layer inception_4a/prelu_5x5
I1126 15:25:01.810556 12182 net.cpp:106] Creating Layer inception_4a/prelu_5x5
I1126 15:25:01.810562 12182 net.cpp:454] inception_4a/prelu_5x5 <- inception_4a/5x5
I1126 15:25:01.810570 12182 net.cpp:397] inception_4a/prelu_5x5 -> inception_4a/5x5 (in-place)
I1126 15:25:01.810659 12182 net.cpp:150] Setting up inception_4a/prelu_5x5
I1126 15:25:01.810667 12182 net.cpp:157] Top shape: 32 48 14 14 (301056)
I1126 15:25:01.810672 12182 net.cpp:165] Memory required for data: 1167294976
I1126 15:25:01.810678 12182 layer_factory.hpp:76] Creating layer inception_4a/pool
I1126 15:25:01.810688 12182 net.cpp:106] Creating Layer inception_4a/pool
I1126 15:25:01.810693 12182 net.cpp:454] inception_4a/pool <- pool3/3x3_s2_pool3/3x3_s2_0_split_3
I1126 15:25:01.810699 12182 net.cpp:411] inception_4a/pool -> inception_4a/pool
I1126 15:25:01.811074 12182 net.cpp:150] Setting up inception_4a/pool
I1126 15:25:01.811084 12182 net.cpp:157] Top shape: 32 480 14 14 (3010560)
I1126 15:25:01.811089 12182 net.cpp:165] Memory required for data: 1179337216
I1126 15:25:01.811094 12182 layer_factory.hpp:76] Creating layer inception_4a/pool_proj
I1126 15:25:01.811105 12182 net.cpp:106] Creating Layer inception_4a/pool_proj
I1126 15:25:01.811110 12182 net.cpp:454] inception_4a/pool_proj <- inception_4a/pool
I1126 15:25:01.811116 12182 net.cpp:411] inception_4a/pool_proj -> inception_4a/pool_proj
I1126 15:25:01.812141 12182 cudnn_conv_layer.cpp:194] Reallocating workspace storage: 10080
I1126 15:25:01.812167 12182 net.cpp:150] Setting up inception_4a/pool_proj
I1126 15:25:01.812175 12182 net.cpp:157] Top shape: 32 64 14 14 (401408)
I1126 15:25:01.812180 12182 net.cpp:165] Memory required for data: 1180942848
I1126 15:25:01.812186 12182 layer_factory.hpp:76] Creating layer inception_4a/prelu_pool_proj
I1126 15:25:01.812196 12182 net.cpp:106] Creating Layer inception_4a/prelu_pool_proj
I1126 15:25:01.812201 12182 net.cpp:454] inception_4a/prelu_pool_proj <- inception_4a/pool_proj
I1126 15:25:01.812207 12182 net.cpp:397] inception_4a/prelu_pool_proj -> inception_4a/pool_proj (in-place)
I1126 15:25:01.812304 12182 net.cpp:150] Setting up inception_4a/prelu_pool_proj
I1126 15:25:01.812312 12182 net.cpp:157] Top shape: 32 64 14 14 (401408)
I1126 15:25:01.812316 12182 net.cpp:165] Memory required for data: 1182548480
I1126 15:25:01.812322 12182 layer_factory.hpp:76] Creating layer inception_4a/output
I1126 15:25:01.812330 12182 net.cpp:106] Creating Layer inception_4a/output
I1126 15:25:01.812335 12182 net.cpp:454] inception_4a/output <- inception_4a/1x1
I1126 15:25:01.812340 12182 net.cpp:454] inception_4a/output <- inception_4a/3x3
I1126 15:25:01.812345 12182 net.cpp:454] inception_4a/output <- inception_4a/5x5
I1126 15:25:01.812350 12182 net.cpp:454] inception_4a/output <- inception_4a/pool_proj
I1126 15:25:01.812355 12182 net.cpp:411] inception_4a/output -> inception_4a/output
I1126 15:25:01.812381 12182 net.cpp:150] Setting up inception_4a/output
I1126 15:25:01.812388 12182 net.cpp:157] Top shape: 32 512 14 14 (3211264)
I1126 15:25:01.812392 12182 net.cpp:165] Memory required for data: 1195393536
I1126 15:25:01.812397 12182 layer_factory.hpp:76] Creating layer inception_4a/output_inception_4a/output_0_split
I1126 15:25:01.812403 12182 net.cpp:106] Creating Layer inception_4a/output_inception_4a/output_0_split
I1126 15:25:01.812407 12182 net.cpp:454] inception_4a/output_inception_4a/output_0_split <- inception_4a/output
I1126 15:25:01.812417 12182 net.cpp:411] inception_4a/output_inception_4a/output_0_split -> inception_4a/output_inception_4a/output_0_split_0
I1126 15:25:01.812423 12182 net.cpp:411] inception_4a/output_inception_4a/output_0_split -> inception_4a/output_inception_4a/output_0_split_1
I1126 15:25:01.812432 12182 net.cpp:411] inception_4a/output_inception_4a/output_0_split -> inception_4a/output_inception_4a/output_0_split_2
I1126 15:25:01.812448 12182 net.cpp:411] inception_4a/output_inception_4a/output_0_split -> inception_4a/output_inception_4a/output_0_split_3
I1126 15:25:01.812454 12182 net.cpp:411] inception_4a/output_inception_4a/output_0_split -> inception_4a/output_inception_4a/output_0_split_4
I1126 15:25:01.812520 12182 net.cpp:150] Setting up inception_4a/output_inception_4a/output_0_split
I1126 15:25:01.812527 12182 net.cpp:157] Top shape: 32 512 14 14 (3211264)
I1126 15:25:01.812532 12182 net.cpp:157] Top shape: 32 512 14 14 (3211264)
I1126 15:25:01.812546 12182 net.cpp:157] Top shape: 32 512 14 14 (3211264)
I1126 15:25:01.812551 12182 net.cpp:157] Top shape: 32 512 14 14 (3211264)
I1126 15:25:01.812556 12182 net.cpp:157] Top shape: 32 512 14 14 (3211264)
I1126 15:25:01.812559 12182 net.cpp:165] Memory required for data: 1259618816
I1126 15:25:01.812563 12182 layer_factory.hpp:76] Creating layer loss1/ave_pool
I1126 15:25:01.812571 12182 net.cpp:106] Creating Layer loss1/ave_pool
I1126 15:25:01.812575 12182 net.cpp:454] loss1/ave_pool <- inception_4a/output_inception_4a/output_0_split_0
I1126 15:25:01.812589 12182 net.cpp:411] loss1/ave_pool -> loss1/ave_pool
I1126 15:25:01.812933 12182 net.cpp:150] Setting up loss1/ave_pool
I1126 15:25:01.812943 12182 net.cpp:157] Top shape: 32 512 4 4 (262144)
I1126 15:25:01.812948 12182 net.cpp:165] Memory required for data: 1260667392
I1126 15:25:01.812952 12182 layer_factory.hpp:76] Creating layer loss1/conv
I1126 15:25:01.812961 12182 net.cpp:106] Creating Layer loss1/conv
I1126 15:25:01.812965 12182 net.cpp:454] loss1/conv <- loss1/ave_pool
I1126 15:25:01.812973 12182 net.cpp:411] loss1/conv -> loss1/conv
I1126 15:25:01.814314 12182 cudnn_conv_layer.cpp:194] Reallocating workspace storage: 6840
I1126 15:25:01.814334 12182 net.cpp:150] Setting up loss1/conv
I1126 15:25:01.814342 12182 net.cpp:157] Top shape: 32 128 4 4 (65536)
I1126 15:25:01.814345 12182 net.cpp:165] Memory required for data: 1260929536
I1126 15:25:01.814363 12182 layer_factory.hpp:76] Creating layer loss1/prelu_conv
I1126 15:25:01.814374 12182 net.cpp:106] Creating Layer loss1/prelu_conv
I1126 15:25:01.814379 12182 net.cpp:454] loss1/prelu_conv <- loss1/conv
I1126 15:25:01.814386 12182 net.cpp:397] loss1/prelu_conv -> loss1/conv (in-place)
I1126 15:25:01.814468 12182 net.cpp:150] Setting up loss1/prelu_conv
I1126 15:25:01.814476 12182 net.cpp:157] Top shape: 32 128 4 4 (65536)
I1126 15:25:01.814481 12182 net.cpp:165] Memory required for data: 1261191680
I1126 15:25:01.814486 12182 layer_factory.hpp:76] Creating layer loss1/fc
I1126 15:25:01.814496 12182 net.cpp:106] Creating Layer loss1/fc
I1126 15:25:01.814502 12182 net.cpp:454] loss1/fc <- loss1/conv
I1126 15:25:01.814508 12182 net.cpp:411] loss1/fc -> loss1/fc
I1126 15:25:01.828866 12182 net.cpp:150] Setting up loss1/fc
I1126 15:25:01.828899 12182 net.cpp:157] Top shape: 32 1024 (32768)
I1126 15:25:01.828904 12182 net.cpp:165] Memory required for data: 1261322752
I1126 15:25:01.828914 12182 layer_factory.hpp:76] Creating layer loss1/prelu_fc
I1126 15:25:01.828927 12182 net.cpp:106] Creating Layer loss1/prelu_fc
I1126 15:25:01.828932 12182 net.cpp:454] loss1/prelu_fc <- loss1/fc
I1126 15:25:01.828943 12182 net.cpp:397] loss1/prelu_fc -> loss1/fc (in-place)
I1126 15:25:01.829020 12182 net.cpp:150] Setting up loss1/prelu_fc
I1126 15:25:01.829028 12182 net.cpp:157] Top shape: 32 1024 (32768)
I1126 15:25:01.829031 12182 net.cpp:165] Memory required for data: 1261453824
I1126 15:25:01.829037 12182 layer_factory.hpp:76] Creating layer loss1/drop_fc
I1126 15:25:01.829056 12182 net.cpp:106] Creating Layer loss1/drop_fc
I1126 15:25:01.829059 12182 net.cpp:454] loss1/drop_fc <- loss1/fc
I1126 15:25:01.829066 12182 net.cpp:397] loss1/drop_fc -> loss1/fc (in-place)
I1126 15:25:01.829097 12182 net.cpp:150] Setting up loss1/drop_fc
I1126 15:25:01.829104 12182 net.cpp:157] Top shape: 32 1024 (32768)
I1126 15:25:01.829108 12182 net.cpp:165] Memory required for data: 1261584896
I1126 15:25:01.829113 12182 layer_factory.hpp:76] Creating layer loss1/classifier2
I1126 15:25:01.829120 12182 net.cpp:106] Creating Layer loss1/classifier2
I1126 15:25:01.829147 12182 net.cpp:454] loss1/classifier2 <- loss1/fc
I1126 15:25:01.829155 12182 net.cpp:411] loss1/classifier2 -> loss1/classifier
I1126 15:25:01.829262 12182 net.cpp:150] Setting up loss1/classifier2
I1126 15:25:01.829270 12182 net.cpp:157] Top shape: 32 2 (64)
I1126 15:25:01.829274 12182 net.cpp:165] Memory required for data: 1261585152
I1126 15:25:01.829280 12182 layer_factory.hpp:76] Creating layer loss1/loss
I1126 15:25:01.829290 12182 net.cpp:106] Creating Layer loss1/loss
I1126 15:25:01.829294 12182 net.cpp:454] loss1/loss <- loss1/classifier
I1126 15:25:01.829300 12182 net.cpp:454] loss1/loss <- label_data_1_split_0
I1126 15:25:01.829306 12182 net.cpp:411] loss1/loss -> loss1/loss1
I1126 15:25:01.829320 12182 layer_factory.hpp:76] Creating layer loss1/loss
I1126 15:25:01.829628 12182 net.cpp:150] Setting up loss1/loss
I1126 15:25:01.829637 12182 net.cpp:157] Top shape: (1)
I1126 15:25:01.829640 12182 net.cpp:160]     with loss weight 0.3
I1126 15:25:01.829663 12182 net.cpp:165] Memory required for data: 1261585156
I1126 15:25:01.829668 12182 layer_factory.hpp:76] Creating layer inception_4b/1x1
I1126 15:25:01.829679 12182 net.cpp:106] Creating Layer inception_4b/1x1
I1126 15:25:01.829684 12182 net.cpp:454] inception_4b/1x1 <- inception_4a/output_inception_4a/output_0_split_1
I1126 15:25:01.829690 12182 net.cpp:411] inception_4b/1x1 -> inception_4b/1x1
I1126 15:25:01.831228 12182 cudnn_conv_layer.cpp:194] Reallocating workspace storage: 10080
I1126 15:25:01.831254 12182 net.cpp:150] Setting up inception_4b/1x1
I1126 15:25:01.831261 12182 net.cpp:157] Top shape: 32 160 14 14 (1003520)
I1126 15:25:01.831265 12182 net.cpp:165] Memory required for data: 1265599236
I1126 15:25:01.831271 12182 layer_factory.hpp:76] Creating layer inception_4b/prelu_1x1
I1126 15:25:01.831280 12182 net.cpp:106] Creating Layer inception_4b/prelu_1x1
I1126 15:25:01.831284 12182 net.cpp:454] inception_4b/prelu_1x1 <- inception_4b/1x1
I1126 15:25:01.831290 12182 net.cpp:397] inception_4b/prelu_1x1 -> inception_4b/1x1 (in-place)
I1126 15:25:01.831898 12182 net.cpp:150] Setting up inception_4b/prelu_1x1
I1126 15:25:01.831909 12182 net.cpp:157] Top shape: 32 160 14 14 (1003520)
I1126 15:25:01.831913 12182 net.cpp:165] Memory required for data: 1269613316
I1126 15:25:01.831919 12182 layer_factory.hpp:76] Creating layer inception_4b/3x3_reduce
I1126 15:25:01.831928 12182 net.cpp:106] Creating Layer inception_4b/3x3_reduce
I1126 15:25:01.831931 12182 net.cpp:454] inception_4b/3x3_reduce <- inception_4a/output_inception_4a/output_0_split_2
I1126 15:25:01.831939 12182 net.cpp:411] inception_4b/3x3_reduce -> inception_4b/3x3_reduce
I1126 15:25:01.833444 12182 cudnn_conv_layer.cpp:194] Reallocating workspace storage: 10080
I1126 15:25:01.833467 12182 net.cpp:150] Setting up inception_4b/3x3_reduce
I1126 15:25:01.833477 12182 net.cpp:157] Top shape: 32 112 14 14 (702464)
I1126 15:25:01.833480 12182 net.cpp:165] Memory required for data: 1272423172
I1126 15:25:01.833487 12182 layer_factory.hpp:76] Creating layer inception_4b/prelu_3x3_reduce
I1126 15:25:01.833494 12182 net.cpp:106] Creating Layer inception_4b/prelu_3x3_reduce
I1126 15:25:01.833498 12182 net.cpp:454] inception_4b/prelu_3x3_reduce <- inception_4b/3x3_reduce
I1126 15:25:01.833504 12182 net.cpp:397] inception_4b/prelu_3x3_reduce -> inception_4b/3x3_reduce (in-place)
I1126 15:25:01.833592 12182 net.cpp:150] Setting up inception_4b/prelu_3x3_reduce
I1126 15:25:01.833600 12182 net.cpp:157] Top shape: 32 112 14 14 (702464)
I1126 15:25:01.833605 12182 net.cpp:165] Memory required for data: 1275233028
I1126 15:25:01.833609 12182 layer_factory.hpp:76] Creating layer inception_4b/3x3
I1126 15:25:01.833617 12182 net.cpp:106] Creating Layer inception_4b/3x3
I1126 15:25:01.833622 12182 net.cpp:454] inception_4b/3x3 <- inception_4b/3x3_reduce
I1126 15:25:01.833629 12182 net.cpp:411] inception_4b/3x3 -> inception_4b/3x3
I1126 15:25:01.836269 12182 cudnn_conv_layer.cpp:194] Reallocating workspace storage: 10080
I1126 15:25:01.836292 12182 net.cpp:150] Setting up inception_4b/3x3
I1126 15:25:01.836313 12182 net.cpp:157] Top shape: 32 224 14 14 (1404928)
I1126 15:25:01.836318 12182 net.cpp:165] Memory required for data: 1280852740
I1126 15:25:01.836325 12182 layer_factory.hpp:76] Creating layer inception_4b/prelu_3x3
I1126 15:25:01.836333 12182 net.cpp:106] Creating Layer inception_4b/prelu_3x3
I1126 15:25:01.836338 12182 net.cpp:454] inception_4b/prelu_3x3 <- inception_4b/3x3
I1126 15:25:01.836344 12182 net.cpp:397] inception_4b/prelu_3x3 -> inception_4b/3x3 (in-place)
I1126 15:25:01.836449 12182 net.cpp:150] Setting up inception_4b/prelu_3x3
I1126 15:25:01.836457 12182 net.cpp:157] Top shape: 32 224 14 14 (1404928)
I1126 15:25:01.836462 12182 net.cpp:165] Memory required for data: 1286472452
I1126 15:25:01.836467 12182 layer_factory.hpp:76] Creating layer inception_4b/5x5_reduce
I1126 15:25:01.836475 12182 net.cpp:106] Creating Layer inception_4b/5x5_reduce
I1126 15:25:01.836480 12182 net.cpp:454] inception_4b/5x5_reduce <- inception_4a/output_inception_4a/output_0_split_3
I1126 15:25:01.836488 12182 net.cpp:411] inception_4b/5x5_reduce -> inception_4b/5x5_reduce
I1126 15:25:01.837350 12182 cudnn_conv_layer.cpp:194] Reallocating workspace storage: 10080
I1126 15:25:01.837371 12182 net.cpp:150] Setting up inception_4b/5x5_reduce
I1126 15:25:01.837378 12182 net.cpp:157] Top shape: 32 24 14 14 (150528)
I1126 15:25:01.837383 12182 net.cpp:165] Memory required for data: 1287074564
I1126 15:25:01.837389 12182 layer_factory.hpp:76] Creating layer inception_4b/prelu_5x5_reduce
I1126 15:25:01.837396 12182 net.cpp:106] Creating Layer inception_4b/prelu_5x5_reduce
I1126 15:25:01.837401 12182 net.cpp:454] inception_4b/prelu_5x5_reduce <- inception_4b/5x5_reduce
I1126 15:25:01.837409 12182 net.cpp:397] inception_4b/prelu_5x5_reduce -> inception_4b/5x5_reduce (in-place)
I1126 15:25:01.837491 12182 net.cpp:150] Setting up inception_4b/prelu_5x5_reduce
I1126 15:25:01.837501 12182 net.cpp:157] Top shape: 32 24 14 14 (150528)
I1126 15:25:01.837504 12182 net.cpp:165] Memory required for data: 1287676676
I1126 15:25:01.837509 12182 layer_factory.hpp:76] Creating layer inception_4b/5x5
I1126 15:25:01.837517 12182 net.cpp:106] Creating Layer inception_4b/5x5
I1126 15:25:01.837522 12182 net.cpp:454] inception_4b/5x5 <- inception_4b/5x5_reduce
I1126 15:25:01.837528 12182 net.cpp:411] inception_4b/5x5 -> inception_4b/5x5
I1126 15:25:01.838696 12182 cudnn_conv_layer.cpp:194] Reallocating workspace storage: 13080
I1126 15:25:01.838716 12182 net.cpp:150] Setting up inception_4b/5x5
I1126 15:25:01.838722 12182 net.cpp:157] Top shape: 32 64 14 14 (401408)
I1126 15:25:01.838726 12182 net.cpp:165] Memory required for data: 1289282308
I1126 15:25:01.838733 12182 layer_factory.hpp:76] Creating layer inception_4b/prelu_5x5
I1126 15:25:01.838742 12182 net.cpp:106] Creating Layer inception_4b/prelu_5x5
I1126 15:25:01.838747 12182 net.cpp:454] inception_4b/prelu_5x5 <- inception_4b/5x5
I1126 15:25:01.838753 12182 net.cpp:397] inception_4b/prelu_5x5 -> inception_4b/5x5 (in-place)
I1126 15:25:01.838847 12182 net.cpp:150] Setting up inception_4b/prelu_5x5
I1126 15:25:01.838855 12182 net.cpp:157] Top shape: 32 64 14 14 (401408)
I1126 15:25:01.838858 12182 net.cpp:165] Memory required for data: 1290887940
I1126 15:25:01.838863 12182 layer_factory.hpp:76] Creating layer inception_4b/pool
I1126 15:25:01.838871 12182 net.cpp:106] Creating Layer inception_4b/pool
I1126 15:25:01.838876 12182 net.cpp:454] inception_4b/pool <- inception_4a/output_inception_4a/output_0_split_4
I1126 15:25:01.838882 12182 net.cpp:411] inception_4b/pool -> inception_4b/pool
I1126 15:25:01.839239 12182 net.cpp:150] Setting up inception_4b/pool
I1126 15:25:01.839249 12182 net.cpp:157] Top shape: 32 512 14 14 (3211264)
I1126 15:25:01.839254 12182 net.cpp:165] Memory required for data: 1303732996
I1126 15:25:01.839258 12182 layer_factory.hpp:76] Creating layer inception_4b/pool_proj
I1126 15:25:01.839268 12182 net.cpp:106] Creating Layer inception_4b/pool_proj
I1126 15:25:01.839273 12182 net.cpp:454] inception_4b/pool_proj <- inception_4b/pool
I1126 15:25:01.839290 12182 net.cpp:411] inception_4b/pool_proj -> inception_4b/pool_proj
I1126 15:25:01.840456 12182 cudnn_conv_layer.cpp:194] Reallocating workspace storage: 10080
I1126 15:25:01.840481 12182 net.cpp:150] Setting up inception_4b/pool_proj
I1126 15:25:01.840487 12182 net.cpp:157] Top shape: 32 64 14 14 (401408)
I1126 15:25:01.840492 12182 net.cpp:165] Memory required for data: 1305338628
I1126 15:25:01.840497 12182 layer_factory.hpp:76] Creating layer inception_4b/prelu_pool_proj
I1126 15:25:01.840507 12182 net.cpp:106] Creating Layer inception_4b/prelu_pool_proj
I1126 15:25:01.840512 12182 net.cpp:454] inception_4b/prelu_pool_proj <- inception_4b/pool_proj
I1126 15:25:01.840518 12182 net.cpp:397] inception_4b/prelu_pool_proj -> inception_4b/pool_proj (in-place)
I1126 15:25:01.840610 12182 net.cpp:150] Setting up inception_4b/prelu_pool_proj
I1126 15:25:01.840618 12182 net.cpp:157] Top shape: 32 64 14 14 (401408)
I1126 15:25:01.840622 12182 net.cpp:165] Memory required for data: 1306944260
I1126 15:25:01.840627 12182 layer_factory.hpp:76] Creating layer inception_4b/output
I1126 15:25:01.840636 12182 net.cpp:106] Creating Layer inception_4b/output
I1126 15:25:01.840639 12182 net.cpp:454] inception_4b/output <- inception_4b/1x1
I1126 15:25:01.840644 12182 net.cpp:454] inception_4b/output <- inception_4b/3x3
I1126 15:25:01.840649 12182 net.cpp:454] inception_4b/output <- inception_4b/5x5
I1126 15:25:01.840653 12182 net.cpp:454] inception_4b/output <- inception_4b/pool_proj
I1126 15:25:01.840658 12182 net.cpp:411] inception_4b/output -> inception_4b/output
I1126 15:25:01.840683 12182 net.cpp:150] Setting up inception_4b/output
I1126 15:25:01.840690 12182 net.cpp:157] Top shape: 32 512 14 14 (3211264)
I1126 15:25:01.840694 12182 net.cpp:165] Memory required for data: 1319789316
I1126 15:25:01.840706 12182 layer_factory.hpp:76] Creating layer inception_4b/output_inception_4b/output_0_split
I1126 15:25:01.840716 12182 net.cpp:106] Creating Layer inception_4b/output_inception_4b/output_0_split
I1126 15:25:01.840721 12182 net.cpp:454] inception_4b/output_inception_4b/output_0_split <- inception_4b/output
I1126 15:25:01.840728 12182 net.cpp:411] inception_4b/output_inception_4b/output_0_split -> inception_4b/output_inception_4b/output_0_split_0
I1126 15:25:01.840735 12182 net.cpp:411] inception_4b/output_inception_4b/output_0_split -> inception_4b/output_inception_4b/output_0_split_1
I1126 15:25:01.840749 12182 net.cpp:411] inception_4b/output_inception_4b/output_0_split -> inception_4b/output_inception_4b/output_0_split_2
I1126 15:25:01.840756 12182 net.cpp:411] inception_4b/output_inception_4b/output_0_split -> inception_4b/output_inception_4b/output_0_split_3
I1126 15:25:01.840811 12182 net.cpp:150] Setting up inception_4b/output_inception_4b/output_0_split
I1126 15:25:01.840818 12182 net.cpp:157] Top shape: 32 512 14 14 (3211264)
I1126 15:25:01.840823 12182 net.cpp:157] Top shape: 32 512 14 14 (3211264)
I1126 15:25:01.840828 12182 net.cpp:157] Top shape: 32 512 14 14 (3211264)
I1126 15:25:01.840832 12182 net.cpp:157] Top shape: 32 512 14 14 (3211264)
I1126 15:25:01.840837 12182 net.cpp:165] Memory required for data: 1371169540
I1126 15:25:01.840840 12182 layer_factory.hpp:76] Creating layer inception_4c/1x1
I1126 15:25:01.840848 12182 net.cpp:106] Creating Layer inception_4c/1x1
I1126 15:25:01.840853 12182 net.cpp:454] inception_4c/1x1 <- inception_4b/output_inception_4b/output_0_split_0
I1126 15:25:01.840859 12182 net.cpp:411] inception_4c/1x1 -> inception_4c/1x1
I1126 15:25:01.842438 12182 cudnn_conv_layer.cpp:194] Reallocating workspace storage: 10080
I1126 15:25:01.842461 12182 net.cpp:150] Setting up inception_4c/1x1
I1126 15:25:01.842469 12182 net.cpp:157] Top shape: 32 128 14 14 (802816)
I1126 15:25:01.842473 12182 net.cpp:165] Memory required for data: 1374380804
I1126 15:25:01.842480 12182 layer_factory.hpp:76] Creating layer inception_4c/prelu_1x1
I1126 15:25:01.842488 12182 net.cpp:106] Creating Layer inception_4c/prelu_1x1
I1126 15:25:01.842492 12182 net.cpp:454] inception_4c/prelu_1x1 <- inception_4c/1x1
I1126 15:25:01.842509 12182 net.cpp:397] inception_4c/prelu_1x1 -> inception_4c/1x1 (in-place)
I1126 15:25:01.842599 12182 net.cpp:150] Setting up inception_4c/prelu_1x1
I1126 15:25:01.842608 12182 net.cpp:157] Top shape: 32 128 14 14 (802816)
I1126 15:25:01.842612 12182 net.cpp:165] Memory required for data: 1377592068
I1126 15:25:01.842617 12182 layer_factory.hpp:76] Creating layer inception_4c/3x3_reduce
I1126 15:25:01.842625 12182 net.cpp:106] Creating Layer inception_4c/3x3_reduce
I1126 15:25:01.842629 12182 net.cpp:454] inception_4c/3x3_reduce <- inception_4b/output_inception_4b/output_0_split_1
I1126 15:25:01.842638 12182 net.cpp:411] inception_4c/3x3_reduce -> inception_4c/3x3_reduce
I1126 15:25:01.843981 12182 cudnn_conv_layer.cpp:194] Reallocating workspace storage: 10080
I1126 15:25:01.844002 12182 net.cpp:150] Setting up inception_4c/3x3_reduce
I1126 15:25:01.844008 12182 net.cpp:157] Top shape: 32 128 14 14 (802816)
I1126 15:25:01.844012 12182 net.cpp:165] Memory required for data: 1380803332
I1126 15:25:01.844018 12182 layer_factory.hpp:76] Creating layer inception_4c/prelu_3x3_reduce
I1126 15:25:01.844027 12182 net.cpp:106] Creating Layer inception_4c/prelu_3x3_reduce
I1126 15:25:01.844030 12182 net.cpp:454] inception_4c/prelu_3x3_reduce <- inception_4c/3x3_reduce
I1126 15:25:01.844038 12182 net.cpp:397] inception_4c/prelu_3x3_reduce -> inception_4c/3x3_reduce (in-place)
I1126 15:25:01.844127 12182 net.cpp:150] Setting up inception_4c/prelu_3x3_reduce
I1126 15:25:01.844136 12182 net.cpp:157] Top shape: 32 128 14 14 (802816)
I1126 15:25:01.844141 12182 net.cpp:165] Memory required for data: 1384014596
I1126 15:25:01.844146 12182 layer_factory.hpp:76] Creating layer inception_4c/3x3
I1126 15:25:01.844152 12182 net.cpp:106] Creating Layer inception_4c/3x3
I1126 15:25:01.844157 12182 net.cpp:454] inception_4c/3x3 <- inception_4c/3x3_reduce
I1126 15:25:01.844164 12182 net.cpp:411] inception_4c/3x3 -> inception_4c/3x3
I1126 15:25:01.847211 12182 cudnn_conv_layer.cpp:194] Reallocating workspace storage: 10080
I1126 15:25:01.847235 12182 net.cpp:150] Setting up inception_4c/3x3
I1126 15:25:01.847242 12182 net.cpp:157] Top shape: 32 256 14 14 (1605632)
I1126 15:25:01.847246 12182 net.cpp:165] Memory required for data: 1390437124
I1126 15:25:01.847254 12182 layer_factory.hpp:76] Creating layer inception_4c/prelu_3x3
I1126 15:25:01.847261 12182 net.cpp:106] Creating Layer inception_4c/prelu_3x3
I1126 15:25:01.847266 12182 net.cpp:454] inception_4c/prelu_3x3 <- inception_4c/3x3
I1126 15:25:01.847272 12182 net.cpp:397] inception_4c/prelu_3x3 -> inception_4c/3x3 (in-place)
I1126 15:25:01.847375 12182 net.cpp:150] Setting up inception_4c/prelu_3x3
I1126 15:25:01.847383 12182 net.cpp:157] Top shape: 32 256 14 14 (1605632)
I1126 15:25:01.847388 12182 net.cpp:165] Memory required for data: 1396859652
I1126 15:25:01.847393 12182 layer_factory.hpp:76] Creating layer inception_4c/5x5_reduce
I1126 15:25:01.847401 12182 net.cpp:106] Creating Layer inception_4c/5x5_reduce
I1126 15:25:01.847405 12182 net.cpp:454] inception_4c/5x5_reduce <- inception_4b/output_inception_4b/output_0_split_2
I1126 15:25:01.847411 12182 net.cpp:411] inception_4c/5x5_reduce -> inception_4c/5x5_reduce
I1126 15:25:01.848527 12182 cudnn_conv_layer.cpp:194] Reallocating workspace storage: 10080
I1126 15:25:01.848549 12182 net.cpp:150] Setting up inception_4c/5x5_reduce
I1126 15:25:01.848556 12182 net.cpp:157] Top shape: 32 24 14 14 (150528)
I1126 15:25:01.848561 12182 net.cpp:165] Memory required for data: 1397461764
I1126 15:25:01.848567 12182 layer_factory.hpp:76] Creating layer inception_4c/prelu_5x5_reduce
I1126 15:25:01.848575 12182 net.cpp:106] Creating Layer inception_4c/prelu_5x5_reduce
I1126 15:25:01.848580 12182 net.cpp:454] inception_4c/prelu_5x5_reduce <- inception_4c/5x5_reduce
I1126 15:25:01.848587 12182 net.cpp:397] inception_4c/prelu_5x5_reduce -> inception_4c/5x5_reduce (in-place)
I1126 15:25:01.848675 12182 net.cpp:150] Setting up inception_4c/prelu_5x5_reduce
I1126 15:25:01.848683 12182 net.cpp:157] Top shape: 32 24 14 14 (150528)
I1126 15:25:01.848697 12182 net.cpp:165] Memory required for data: 1398063876
I1126 15:25:01.848703 12182 layer_factory.hpp:76] Creating layer inception_4c/5x5
I1126 15:25:01.848712 12182 net.cpp:106] Creating Layer inception_4c/5x5
I1126 15:25:01.848721 12182 net.cpp:454] inception_4c/5x5 <- inception_4c/5x5_reduce
I1126 15:25:01.848727 12182 net.cpp:411] inception_4c/5x5 -> inception_4c/5x5
I1126 15:25:01.850409 12182 cudnn_conv_layer.cpp:194] Reallocating workspace storage: 13080
I1126 15:25:01.850432 12182 net.cpp:150] Setting up inception_4c/5x5
I1126 15:25:01.850440 12182 net.cpp:157] Top shape: 32 64 14 14 (401408)
I1126 15:25:01.850445 12182 net.cpp:165] Memory required for data: 1399669508
I1126 15:25:01.850450 12182 layer_factory.hpp:76] Creating layer inception_4c/prelu_5x5
I1126 15:25:01.850458 12182 net.cpp:106] Creating Layer inception_4c/prelu_5x5
I1126 15:25:01.850463 12182 net.cpp:454] inception_4c/prelu_5x5 <- inception_4c/5x5
I1126 15:25:01.850471 12182 net.cpp:397] inception_4c/prelu_5x5 -> inception_4c/5x5 (in-place)
I1126 15:25:01.850569 12182 net.cpp:150] Setting up inception_4c/prelu_5x5
I1126 15:25:01.850576 12182 net.cpp:157] Top shape: 32 64 14 14 (401408)
I1126 15:25:01.850589 12182 net.cpp:165] Memory required for data: 1401275140
I1126 15:25:01.850594 12182 layer_factory.hpp:76] Creating layer inception_4c/pool
I1126 15:25:01.850602 12182 net.cpp:106] Creating Layer inception_4c/pool
I1126 15:25:01.850606 12182 net.cpp:454] inception_4c/pool <- inception_4b/output_inception_4b/output_0_split_3
I1126 15:25:01.850612 12182 net.cpp:411] inception_4c/pool -> inception_4c/pool
I1126 15:25:01.850786 12182 net.cpp:150] Setting up inception_4c/pool
I1126 15:25:01.850795 12182 net.cpp:157] Top shape: 32 512 14 14 (3211264)
I1126 15:25:01.850800 12182 net.cpp:165] Memory required for data: 1414120196
I1126 15:25:01.850805 12182 layer_factory.hpp:76] Creating layer inception_4c/pool_proj
I1126 15:25:01.850813 12182 net.cpp:106] Creating Layer inception_4c/pool_proj
I1126 15:25:01.850818 12182 net.cpp:454] inception_4c/pool_proj <- inception_4c/pool
I1126 15:25:01.850824 12182 net.cpp:411] inception_4c/pool_proj -> inception_4c/pool_proj
I1126 15:25:01.852222 12182 cudnn_conv_layer.cpp:194] Reallocating workspace storage: 10080
I1126 15:25:01.852246 12182 net.cpp:150] Setting up inception_4c/pool_proj
I1126 15:25:01.852253 12182 net.cpp:157] Top shape: 32 64 14 14 (401408)
I1126 15:25:01.852257 12182 net.cpp:165] Memory required for data: 1415725828
I1126 15:25:01.852264 12182 layer_factory.hpp:76] Creating layer inception_4c/prelu_pool_proj
I1126 15:25:01.852273 12182 net.cpp:106] Creating Layer inception_4c/prelu_pool_proj
I1126 15:25:01.852278 12182 net.cpp:454] inception_4c/prelu_pool_proj <- inception_4c/pool_proj
I1126 15:25:01.852286 12182 net.cpp:397] inception_4c/prelu_pool_proj -> inception_4c/pool_proj (in-place)
I1126 15:25:01.852382 12182 net.cpp:150] Setting up inception_4c/prelu_pool_proj
I1126 15:25:01.852391 12182 net.cpp:157] Top shape: 32 64 14 14 (401408)
I1126 15:25:01.852394 12182 net.cpp:165] Memory required for data: 1417331460
I1126 15:25:01.852399 12182 layer_factory.hpp:76] Creating layer inception_4c/output
I1126 15:25:01.852407 12182 net.cpp:106] Creating Layer inception_4c/output
I1126 15:25:01.852411 12182 net.cpp:454] inception_4c/output <- inception_4c/1x1
I1126 15:25:01.852416 12182 net.cpp:454] inception_4c/output <- inception_4c/3x3
I1126 15:25:01.852421 12182 net.cpp:454] inception_4c/output <- inception_4c/5x5
I1126 15:25:01.852426 12182 net.cpp:454] inception_4c/output <- inception_4c/pool_proj
I1126 15:25:01.852432 12182 net.cpp:411] inception_4c/output -> inception_4c/output
I1126 15:25:01.852458 12182 net.cpp:150] Setting up inception_4c/output
I1126 15:25:01.852465 12182 net.cpp:157] Top shape: 32 512 14 14 (3211264)
I1126 15:25:01.852468 12182 net.cpp:165] Memory required for data: 1430176516
I1126 15:25:01.852473 12182 layer_factory.hpp:76] Creating layer inception_4c/output_inception_4c/output_0_split
I1126 15:25:01.852478 12182 net.cpp:106] Creating Layer inception_4c/output_inception_4c/output_0_split
I1126 15:25:01.852495 12182 net.cpp:454] inception_4c/output_inception_4c/output_0_split <- inception_4c/output
I1126 15:25:01.852504 12182 net.cpp:411] inception_4c/output_inception_4c/output_0_split -> inception_4c/output_inception_4c/output_0_split_0
I1126 15:25:01.852510 12182 net.cpp:411] inception_4c/output_inception_4c/output_0_split -> inception_4c/output_inception_4c/output_0_split_1
I1126 15:25:01.852516 12182 net.cpp:411] inception_4c/output_inception_4c/output_0_split -> inception_4c/output_inception_4c/output_0_split_2
I1126 15:25:01.852524 12182 net.cpp:411] inception_4c/output_inception_4c/output_0_split -> inception_4c/output_inception_4c/output_0_split_3
I1126 15:25:01.852583 12182 net.cpp:150] Setting up inception_4c/output_inception_4c/output_0_split
I1126 15:25:01.852591 12182 net.cpp:157] Top shape: 32 512 14 14 (3211264)
I1126 15:25:01.852596 12182 net.cpp:157] Top shape: 32 512 14 14 (3211264)
I1126 15:25:01.852599 12182 net.cpp:157] Top shape: 32 512 14 14 (3211264)
I1126 15:25:01.852604 12182 net.cpp:157] Top shape: 32 512 14 14 (3211264)
I1126 15:25:01.852608 12182 net.cpp:165] Memory required for data: 1481556740
I1126 15:25:01.852612 12182 layer_factory.hpp:76] Creating layer inception_4d/1x1
I1126 15:25:01.852620 12182 net.cpp:106] Creating Layer inception_4d/1x1
I1126 15:25:01.852624 12182 net.cpp:454] inception_4d/1x1 <- inception_4c/output_inception_4c/output_0_split_0
I1126 15:25:01.852632 12182 net.cpp:411] inception_4d/1x1 -> inception_4d/1x1
I1126 15:25:01.853971 12182 cudnn_conv_layer.cpp:194] Reallocating workspace storage: 10080
I1126 15:25:01.853994 12182 net.cpp:150] Setting up inception_4d/1x1
I1126 15:25:01.854001 12182 net.cpp:157] Top shape: 32 112 14 14 (702464)
I1126 15:25:01.854006 12182 net.cpp:165] Memory required for data: 1484366596
I1126 15:25:01.854012 12182 layer_factory.hpp:76] Creating layer inception_4d/prelu_1x1
I1126 15:25:01.854018 12182 net.cpp:106] Creating Layer inception_4d/prelu_1x1
I1126 15:25:01.854023 12182 net.cpp:454] inception_4d/prelu_1x1 <- inception_4d/1x1
I1126 15:25:01.854030 12182 net.cpp:397] inception_4d/prelu_1x1 -> inception_4d/1x1 (in-place)
I1126 15:25:01.854125 12182 net.cpp:150] Setting up inception_4d/prelu_1x1
I1126 15:25:01.854133 12182 net.cpp:157] Top shape: 32 112 14 14 (702464)
I1126 15:25:01.854136 12182 net.cpp:165] Memory required for data: 1487176452
I1126 15:25:01.854142 12182 layer_factory.hpp:76] Creating layer inception_4d/3x3_reduce
I1126 15:25:01.854149 12182 net.cpp:106] Creating Layer inception_4d/3x3_reduce
I1126 15:25:01.854153 12182 net.cpp:454] inception_4d/3x3_reduce <- inception_4c/output_inception_4c/output_0_split_1
I1126 15:25:01.854161 12182 net.cpp:411] inception_4d/3x3_reduce -> inception_4d/3x3_reduce
I1126 15:25:01.855409 12182 cudnn_conv_layer.cpp:194] Reallocating workspace storage: 10080
I1126 15:25:01.855432 12182 net.cpp:150] Setting up inception_4d/3x3_reduce
I1126 15:25:01.855439 12182 net.cpp:157] Top shape: 32 144 14 14 (903168)
I1126 15:25:01.855443 12182 net.cpp:165] Memory required for data: 1490789124
I1126 15:25:01.855449 12182 layer_factory.hpp:76] Creating layer inception_4d/prelu_3x3_reduce
I1126 15:25:01.855458 12182 net.cpp:106] Creating Layer inception_4d/prelu_3x3_reduce
I1126 15:25:01.855463 12182 net.cpp:454] inception_4d/prelu_3x3_reduce <- inception_4d/3x3_reduce
I1126 15:25:01.855469 12182 net.cpp:397] inception_4d/prelu_3x3_reduce -> inception_4d/3x3_reduce (in-place)
I1126 15:25:01.855572 12182 net.cpp:150] Setting up inception_4d/prelu_3x3_reduce
I1126 15:25:01.858582 12182 net.cpp:157] Top shape: 32 144 14 14 (903168)
I1126 15:25:01.858587 12182 net.cpp:165] Memory required for data: 1494401796
I1126 15:25:01.858592 12182 layer_factory.hpp:76] Creating layer inception_4d/3x3
I1126 15:25:01.858610 12182 net.cpp:106] Creating Layer inception_4d/3x3
I1126 15:25:01.858615 12182 net.cpp:454] inception_4d/3x3 <- inception_4d/3x3_reduce
I1126 15:25:01.858623 12182 net.cpp:411] inception_4d/3x3 -> inception_4d/3x3
I1126 15:25:01.862710 12182 cudnn_conv_layer.cpp:194] Reallocating workspace storage: 10080
I1126 15:25:01.862747 12182 net.cpp:150] Setting up inception_4d/3x3
I1126 15:25:01.862756 12182 net.cpp:157] Top shape: 32 288 14 14 (1806336)
I1126 15:25:01.862761 12182 net.cpp:165] Memory required for data: 1501627140
I1126 15:25:01.862769 12182 layer_factory.hpp:76] Creating layer inception_4d/prelu_3x3
I1126 15:25:01.862779 12182 net.cpp:106] Creating Layer inception_4d/prelu_3x3
I1126 15:25:01.862785 12182 net.cpp:454] inception_4d/prelu_3x3 <- inception_4d/3x3
I1126 15:25:01.862794 12182 net.cpp:397] inception_4d/prelu_3x3 -> inception_4d/3x3 (in-place)
I1126 15:25:01.862943 12182 net.cpp:150] Setting up inception_4d/prelu_3x3
I1126 15:25:01.862952 12182 net.cpp:157] Top shape: 32 288 14 14 (1806336)
I1126 15:25:01.862956 12182 net.cpp:165] Memory required for data: 1508852484
I1126 15:25:01.862962 12182 layer_factory.hpp:76] Creating layer inception_4d/5x5_reduce
I1126 15:25:01.862972 12182 net.cpp:106] Creating Layer inception_4d/5x5_reduce
I1126 15:25:01.862977 12182 net.cpp:454] inception_4d/5x5_reduce <- inception_4c/output_inception_4c/output_0_split_2
I1126 15:25:01.862984 12182 net.cpp:411] inception_4d/5x5_reduce -> inception_4d/5x5_reduce
I1126 15:25:01.864301 12182 cudnn_conv_layer.cpp:194] Reallocating workspace storage: 10080
I1126 15:25:01.864341 12182 net.cpp:150] Setting up inception_4d/5x5_reduce
I1126 15:25:01.864349 12182 net.cpp:157] Top shape: 32 32 14 14 (200704)
I1126 15:25:01.864353 12182 net.cpp:165] Memory required for data: 1509655300
I1126 15:25:01.864362 12182 layer_factory.hpp:76] Creating layer inception_4d/prelu_5x5_reduce
I1126 15:25:01.864373 12182 net.cpp:106] Creating Layer inception_4d/prelu_5x5_reduce
I1126 15:25:01.864379 12182 net.cpp:454] inception_4d/prelu_5x5_reduce <- inception_4d/5x5_reduce
I1126 15:25:01.864388 12182 net.cpp:397] inception_4d/prelu_5x5_reduce -> inception_4d/5x5_reduce (in-place)
I1126 15:25:01.864509 12182 net.cpp:150] Setting up inception_4d/prelu_5x5_reduce
I1126 15:25:01.864518 12182 net.cpp:157] Top shape: 32 32 14 14 (200704)
I1126 15:25:01.864522 12182 net.cpp:165] Memory required for data: 1510458116
I1126 15:25:01.864528 12182 layer_factory.hpp:76] Creating layer inception_4d/5x5
I1126 15:25:01.864538 12182 net.cpp:106] Creating Layer inception_4d/5x5
I1126 15:25:01.864543 12182 net.cpp:454] inception_4d/5x5 <- inception_4d/5x5_reduce
I1126 15:25:01.864552 12182 net.cpp:411] inception_4d/5x5 -> inception_4d/5x5
I1126 15:25:01.866909 12182 cudnn_conv_layer.cpp:194] Reallocating workspace storage: 13080
I1126 15:25:01.866961 12182 net.cpp:150] Setting up inception_4d/5x5
I1126 15:25:01.866974 12182 net.cpp:157] Top shape: 32 64 14 14 (401408)
I1126 15:25:01.866981 12182 net.cpp:165] Memory required for data: 1512063748
I1126 15:25:01.866991 12182 layer_factory.hpp:76] Creating layer inception_4d/prelu_5x5
I1126 15:25:01.867008 12182 net.cpp:106] Creating Layer inception_4d/prelu_5x5
I1126 15:25:01.867017 12182 net.cpp:454] inception_4d/prelu_5x5 <- inception_4d/5x5
I1126 15:25:01.867028 12182 net.cpp:397] inception_4d/prelu_5x5 -> inception_4d/5x5 (in-place)
I1126 15:25:01.867177 12182 net.cpp:150] Setting up inception_4d/prelu_5x5
I1126 15:25:01.867187 12182 net.cpp:157] Top shape: 32 64 14 14 (401408)
I1126 15:25:01.867192 12182 net.cpp:165] Memory required for data: 1513669380
I1126 15:25:01.867199 12182 layer_factory.hpp:76] Creating layer inception_4d/pool
I1126 15:25:01.867211 12182 net.cpp:106] Creating Layer inception_4d/pool
I1126 15:25:01.867218 12182 net.cpp:454] inception_4d/pool <- inception_4c/output_inception_4c/output_0_split_3
I1126 15:25:01.867226 12182 net.cpp:411] inception_4d/pool -> inception_4d/pool
I1126 15:25:01.867477 12182 net.cpp:150] Setting up inception_4d/pool
I1126 15:25:01.867491 12182 net.cpp:157] Top shape: 32 512 14 14 (3211264)
I1126 15:25:01.867496 12182 net.cpp:165] Memory required for data: 1526514436
I1126 15:25:01.867501 12182 layer_factory.hpp:76] Creating layer inception_4d/pool_proj
I1126 15:25:01.867516 12182 net.cpp:106] Creating Layer inception_4d/pool_proj
I1126 15:25:01.867549 12182 net.cpp:454] inception_4d/pool_proj <- inception_4d/pool
I1126 15:25:01.867561 12182 net.cpp:411] inception_4d/pool_proj -> inception_4d/pool_proj
I1126 15:25:01.869181 12182 cudnn_conv_layer.cpp:194] Reallocating workspace storage: 10080
I1126 15:25:01.869217 12182 net.cpp:150] Setting up inception_4d/pool_proj
I1126 15:25:01.869226 12182 net.cpp:157] Top shape: 32 64 14 14 (401408)
I1126 15:25:01.869231 12182 net.cpp:165] Memory required for data: 1528120068
I1126 15:25:01.869240 12182 layer_factory.hpp:76] Creating layer inception_4d/prelu_pool_proj
I1126 15:25:01.869251 12182 net.cpp:106] Creating Layer inception_4d/prelu_pool_proj
I1126 15:25:01.869258 12182 net.cpp:454] inception_4d/prelu_pool_proj <- inception_4d/pool_proj
I1126 15:25:01.869266 12182 net.cpp:397] inception_4d/prelu_pool_proj -> inception_4d/pool_proj (in-place)
I1126 15:25:01.869374 12182 net.cpp:150] Setting up inception_4d/prelu_pool_proj
I1126 15:25:01.869381 12182 net.cpp:157] Top shape: 32 64 14 14 (401408)
I1126 15:25:01.869385 12182 net.cpp:165] Memory required for data: 1529725700
I1126 15:25:01.869391 12182 layer_factory.hpp:76] Creating layer inception_4d/output
I1126 15:25:01.869398 12182 net.cpp:106] Creating Layer inception_4d/output
I1126 15:25:01.869402 12182 net.cpp:454] inception_4d/output <- inception_4d/1x1
I1126 15:25:01.869408 12182 net.cpp:454] inception_4d/output <- inception_4d/3x3
I1126 15:25:01.869413 12182 net.cpp:454] inception_4d/output <- inception_4d/5x5
I1126 15:25:01.869417 12182 net.cpp:454] inception_4d/output <- inception_4d/pool_proj
I1126 15:25:01.869424 12182 net.cpp:411] inception_4d/output -> inception_4d/output
I1126 15:25:01.869451 12182 net.cpp:150] Setting up inception_4d/output
I1126 15:25:01.869458 12182 net.cpp:157] Top shape: 32 528 14 14 (3311616)
I1126 15:25:01.869462 12182 net.cpp:165] Memory required for data: 1542972164
I1126 15:25:01.869467 12182 layer_factory.hpp:76] Creating layer inception_4d/output_inception_4d/output_0_split
I1126 15:25:01.869474 12182 net.cpp:106] Creating Layer inception_4d/output_inception_4d/output_0_split
I1126 15:25:01.869479 12182 net.cpp:454] inception_4d/output_inception_4d/output_0_split <- inception_4d/output
I1126 15:25:01.869485 12182 net.cpp:411] inception_4d/output_inception_4d/output_0_split -> inception_4d/output_inception_4d/output_0_split_0
I1126 15:25:01.869493 12182 net.cpp:411] inception_4d/output_inception_4d/output_0_split -> inception_4d/output_inception_4d/output_0_split_1
I1126 15:25:01.869500 12182 net.cpp:411] inception_4d/output_inception_4d/output_0_split -> inception_4d/output_inception_4d/output_0_split_2
I1126 15:25:01.869508 12182 net.cpp:411] inception_4d/output_inception_4d/output_0_split -> inception_4d/output_inception_4d/output_0_split_3
I1126 15:25:01.869514 12182 net.cpp:411] inception_4d/output_inception_4d/output_0_split -> inception_4d/output_inception_4d/output_0_split_4
I1126 15:25:01.869586 12182 net.cpp:150] Setting up inception_4d/output_inception_4d/output_0_split
I1126 15:25:01.869595 12182 net.cpp:157] Top shape: 32 528 14 14 (3311616)
I1126 15:25:01.869599 12182 net.cpp:157] Top shape: 32 528 14 14 (3311616)
I1126 15:25:01.869604 12182 net.cpp:157] Top shape: 32 528 14 14 (3311616)
I1126 15:25:01.869608 12182 net.cpp:157] Top shape: 32 528 14 14 (3311616)
I1126 15:25:01.869613 12182 net.cpp:157] Top shape: 32 528 14 14 (3311616)
I1126 15:25:01.869617 12182 net.cpp:165] Memory required for data: 1609204484
I1126 15:25:01.869621 12182 layer_factory.hpp:76] Creating layer loss2/ave_pool
I1126 15:25:01.869627 12182 net.cpp:106] Creating Layer loss2/ave_pool
I1126 15:25:01.869632 12182 net.cpp:454] loss2/ave_pool <- inception_4d/output_inception_4d/output_0_split_0
I1126 15:25:01.869639 12182 net.cpp:411] loss2/ave_pool -> loss2/ave_pool
I1126 15:25:01.870000 12182 net.cpp:150] Setting up loss2/ave_pool
I1126 15:25:01.870012 12182 net.cpp:157] Top shape: 32 528 4 4 (270336)
I1126 15:25:01.870015 12182 net.cpp:165] Memory required for data: 1610285828
I1126 15:25:01.870034 12182 layer_factory.hpp:76] Creating layer loss2/conv
I1126 15:25:01.870043 12182 net.cpp:106] Creating Layer loss2/conv
I1126 15:25:01.870048 12182 net.cpp:454] loss2/conv <- loss2/ave_pool
I1126 15:25:01.870059 12182 net.cpp:411] loss2/conv -> loss2/conv
I1126 15:25:01.871549 12182 cudnn_conv_layer.cpp:194] Reallocating workspace storage: 6840
I1126 15:25:01.871577 12182 net.cpp:150] Setting up loss2/conv
I1126 15:25:01.871585 12182 net.cpp:157] Top shape: 32 128 4 4 (65536)
I1126 15:25:01.871589 12182 net.cpp:165] Memory required for data: 1610547972
I1126 15:25:01.871598 12182 layer_factory.hpp:76] Creating layer loss2/prelu_conv
I1126 15:25:01.871605 12182 net.cpp:106] Creating Layer loss2/prelu_conv
I1126 15:25:01.871610 12182 net.cpp:454] loss2/prelu_conv <- loss2/conv
I1126 15:25:01.871619 12182 net.cpp:397] loss2/prelu_conv -> loss2/conv (in-place)
I1126 15:25:01.871716 12182 net.cpp:150] Setting up loss2/prelu_conv
I1126 15:25:01.871726 12182 net.cpp:157] Top shape: 32 128 4 4 (65536)
I1126 15:25:01.871731 12182 net.cpp:165] Memory required for data: 1610810116
I1126 15:25:01.871737 12182 layer_factory.hpp:76] Creating layer loss2/fc
I1126 15:25:01.871744 12182 net.cpp:106] Creating Layer loss2/fc
I1126 15:25:01.871748 12182 net.cpp:454] loss2/fc <- loss2/conv
I1126 15:25:01.871755 12182 net.cpp:411] loss2/fc -> loss2/fc
I1126 15:25:01.886919 12182 net.cpp:150] Setting up loss2/fc
I1126 15:25:01.886955 12182 net.cpp:157] Top shape: 32 1024 (32768)
I1126 15:25:01.886992 12182 net.cpp:165] Memory required for data: 1610941188
I1126 15:25:01.887027 12182 layer_factory.hpp:76] Creating layer loss2/prelu_fc
I1126 15:25:01.887039 12182 net.cpp:106] Creating Layer loss2/prelu_fc
I1126 15:25:01.887048 12182 net.cpp:454] loss2/prelu_fc <- loss2/fc
I1126 15:25:01.887055 12182 net.cpp:397] loss2/prelu_fc -> loss2/fc (in-place)
I1126 15:25:01.887147 12182 net.cpp:150] Setting up loss2/prelu_fc
I1126 15:25:01.887156 12182 net.cpp:157] Top shape: 32 1024 (32768)
I1126 15:25:01.887159 12182 net.cpp:165] Memory required for data: 1611072260
I1126 15:25:01.887164 12182 layer_factory.hpp:76] Creating layer loss2/drop_fc
I1126 15:25:01.887172 12182 net.cpp:106] Creating Layer loss2/drop_fc
I1126 15:25:01.887177 12182 net.cpp:454] loss2/drop_fc <- loss2/fc
I1126 15:25:01.887184 12182 net.cpp:397] loss2/drop_fc -> loss2/fc (in-place)
I1126 15:25:01.887213 12182 net.cpp:150] Setting up loss2/drop_fc
I1126 15:25:01.887220 12182 net.cpp:157] Top shape: 32 1024 (32768)
I1126 15:25:01.887223 12182 net.cpp:165] Memory required for data: 1611203332
I1126 15:25:01.887228 12182 layer_factory.hpp:76] Creating layer loss2/classifier2
I1126 15:25:01.887235 12182 net.cpp:106] Creating Layer loss2/classifier2
I1126 15:25:01.887239 12182 net.cpp:454] loss2/classifier2 <- loss2/fc
I1126 15:25:01.887248 12182 net.cpp:411] loss2/classifier2 -> loss2/classifier
I1126 15:25:01.887377 12182 net.cpp:150] Setting up loss2/classifier2
I1126 15:25:01.887384 12182 net.cpp:157] Top shape: 32 2 (64)
I1126 15:25:01.887388 12182 net.cpp:165] Memory required for data: 1611203588
I1126 15:25:01.887395 12182 layer_factory.hpp:76] Creating layer loss2/loss
I1126 15:25:01.887404 12182 net.cpp:106] Creating Layer loss2/loss
I1126 15:25:01.887408 12182 net.cpp:454] loss2/loss <- loss2/classifier
I1126 15:25:01.887414 12182 net.cpp:454] loss2/loss <- label_data_1_split_1
I1126 15:25:01.887420 12182 net.cpp:411] loss2/loss -> loss2/loss1
I1126 15:25:01.887430 12182 layer_factory.hpp:76] Creating layer loss2/loss
I1126 15:25:01.887729 12182 net.cpp:150] Setting up loss2/loss
I1126 15:25:01.887738 12182 net.cpp:157] Top shape: (1)
I1126 15:25:01.887742 12182 net.cpp:160]     with loss weight 0.3
I1126 15:25:01.887755 12182 net.cpp:165] Memory required for data: 1611203592
I1126 15:25:01.887759 12182 layer_factory.hpp:76] Creating layer inception_4e/1x1
I1126 15:25:01.887769 12182 net.cpp:106] Creating Layer inception_4e/1x1
I1126 15:25:01.887775 12182 net.cpp:454] inception_4e/1x1 <- inception_4d/output_inception_4d/output_0_split_1
I1126 15:25:01.887783 12182 net.cpp:411] inception_4e/1x1 -> inception_4e/1x1
I1126 15:25:01.890377 12182 cudnn_conv_layer.cpp:194] Reallocating workspace storage: 10080
I1126 15:25:01.890413 12182 net.cpp:150] Setting up inception_4e/1x1
I1126 15:25:01.890431 12182 net.cpp:157] Top shape: 32 256 14 14 (1605632)
I1126 15:25:01.890436 12182 net.cpp:165] Memory required for data: 1617626120
I1126 15:25:01.890444 12182 layer_factory.hpp:76] Creating layer inception_4e/prelu_1x1
I1126 15:25:01.890452 12182 net.cpp:106] Creating Layer inception_4e/prelu_1x1
I1126 15:25:01.890457 12182 net.cpp:454] inception_4e/prelu_1x1 <- inception_4e/1x1
I1126 15:25:01.890465 12182 net.cpp:397] inception_4e/prelu_1x1 -> inception_4e/1x1 (in-place)
I1126 15:25:01.890609 12182 net.cpp:150] Setting up inception_4e/prelu_1x1
I1126 15:25:01.890617 12182 net.cpp:157] Top shape: 32 256 14 14 (1605632)
I1126 15:25:01.890621 12182 net.cpp:165] Memory required for data: 1624048648
I1126 15:25:01.890626 12182 layer_factory.hpp:76] Creating layer inception_4e/3x3_reduce
I1126 15:25:01.890636 12182 net.cpp:106] Creating Layer inception_4e/3x3_reduce
I1126 15:25:01.890641 12182 net.cpp:454] inception_4e/3x3_reduce <- inception_4d/output_inception_4d/output_0_split_2
I1126 15:25:01.890650 12182 net.cpp:411] inception_4e/3x3_reduce -> inception_4e/3x3_reduce
I1126 15:25:01.892308 12182 cudnn_conv_layer.cpp:194] Reallocating workspace storage: 10080
I1126 15:25:01.892341 12182 net.cpp:150] Setting up inception_4e/3x3_reduce
I1126 15:25:01.892359 12182 net.cpp:157] Top shape: 32 160 14 14 (1003520)
I1126 15:25:01.892362 12182 net.cpp:165] Memory required for data: 1628062728
I1126 15:25:01.892370 12182 layer_factory.hpp:76] Creating layer inception_4e/prelu_3x3_reduce
I1126 15:25:01.892379 12182 net.cpp:106] Creating Layer inception_4e/prelu_3x3_reduce
I1126 15:25:01.892385 12182 net.cpp:454] inception_4e/prelu_3x3_reduce <- inception_4e/3x3_reduce
I1126 15:25:01.892391 12182 net.cpp:397] inception_4e/prelu_3x3_reduce -> inception_4e/3x3_reduce (in-place)
I1126 15:25:01.892510 12182 net.cpp:150] Setting up inception_4e/prelu_3x3_reduce
I1126 15:25:01.892518 12182 net.cpp:157] Top shape: 32 160 14 14 (1003520)
I1126 15:25:01.892523 12182 net.cpp:165] Memory required for data: 1632076808
I1126 15:25:01.892529 12182 layer_factory.hpp:76] Creating layer inception_4e/3x3
I1126 15:25:01.892537 12182 net.cpp:106] Creating Layer inception_4e/3x3
I1126 15:25:01.892542 12182 net.cpp:454] inception_4e/3x3 <- inception_4e/3x3_reduce
I1126 15:25:01.892549 12182 net.cpp:411] inception_4e/3x3 -> inception_4e/3x3
I1126 15:25:01.896924 12182 cudnn_conv_layer.cpp:194] Reallocating workspace storage: 10080
I1126 15:25:01.896967 12182 net.cpp:150] Setting up inception_4e/3x3
I1126 15:25:01.896976 12182 net.cpp:157] Top shape: 32 320 14 14 (2007040)
I1126 15:25:01.896989 12182 net.cpp:165] Memory required for data: 1640104968
I1126 15:25:01.897006 12182 layer_factory.hpp:76] Creating layer inception_4e/prelu_3x3
I1126 15:25:01.897016 12182 net.cpp:106] Creating Layer inception_4e/prelu_3x3
I1126 15:25:01.897022 12182 net.cpp:454] inception_4e/prelu_3x3 <- inception_4e/3x3
I1126 15:25:01.897028 12182 net.cpp:397] inception_4e/prelu_3x3 -> inception_4e/3x3 (in-place)
I1126 15:25:01.897187 12182 net.cpp:150] Setting up inception_4e/prelu_3x3
I1126 15:25:01.897195 12182 net.cpp:157] Top shape: 32 320 14 14 (2007040)
I1126 15:25:01.897199 12182 net.cpp:165] Memory required for data: 1648133128
I1126 15:25:01.897205 12182 layer_factory.hpp:76] Creating layer inception_4e/5x5_reduce
I1126 15:25:01.897214 12182 net.cpp:106] Creating Layer inception_4e/5x5_reduce
I1126 15:25:01.897219 12182 net.cpp:454] inception_4e/5x5_reduce <- inception_4d/output_inception_4d/output_0_split_3
I1126 15:25:01.897228 12182 net.cpp:411] inception_4e/5x5_reduce -> inception_4e/5x5_reduce
I1126 15:25:01.898393 12182 cudnn_conv_layer.cpp:194] Reallocating workspace storage: 10080
I1126 15:25:01.898417 12182 net.cpp:150] Setting up inception_4e/5x5_reduce
I1126 15:25:01.898424 12182 net.cpp:157] Top shape: 32 32 14 14 (200704)
I1126 15:25:01.898448 12182 net.cpp:165] Memory required for data: 1648935944
I1126 15:25:01.898457 12182 layer_factory.hpp:76] Creating layer inception_4e/prelu_5x5_reduce
I1126 15:25:01.898465 12182 net.cpp:106] Creating Layer inception_4e/prelu_5x5_reduce
I1126 15:25:01.898470 12182 net.cpp:454] inception_4e/prelu_5x5_reduce <- inception_4e/5x5_reduce
I1126 15:25:01.898478 12182 net.cpp:397] inception_4e/prelu_5x5_reduce -> inception_4e/5x5_reduce (in-place)
I1126 15:25:01.898581 12182 net.cpp:150] Setting up inception_4e/prelu_5x5_reduce
I1126 15:25:01.898588 12182 net.cpp:157] Top shape: 32 32 14 14 (200704)
I1126 15:25:01.898592 12182 net.cpp:165] Memory required for data: 1649738760
I1126 15:25:01.898597 12182 layer_factory.hpp:76] Creating layer inception_4e/5x5
I1126 15:25:01.898622 12182 net.cpp:106] Creating Layer inception_4e/5x5
I1126 15:25:01.898627 12182 net.cpp:454] inception_4e/5x5 <- inception_4e/5x5_reduce
I1126 15:25:01.898634 12182 net.cpp:411] inception_4e/5x5 -> inception_4e/5x5
I1126 15:25:01.900828 12182 cudnn_conv_layer.cpp:194] Reallocating workspace storage: 13080
I1126 15:25:01.900862 12182 net.cpp:150] Setting up inception_4e/5x5
I1126 15:25:01.900871 12182 net.cpp:157] Top shape: 32 128 14 14 (802816)
I1126 15:25:01.900883 12182 net.cpp:165] Memory required for data: 1652950024
I1126 15:25:01.900892 12182 layer_factory.hpp:76] Creating layer inception_4e/prelu_5x5
I1126 15:25:01.900903 12182 net.cpp:106] Creating Layer inception_4e/prelu_5x5
I1126 15:25:01.900909 12182 net.cpp:454] inception_4e/prelu_5x5 <- inception_4e/5x5
I1126 15:25:01.900915 12182 net.cpp:397] inception_4e/prelu_5x5 -> inception_4e/5x5 (in-place)
I1126 15:25:01.901033 12182 net.cpp:150] Setting up inception_4e/prelu_5x5
I1126 15:25:01.901042 12182 net.cpp:157] Top shape: 32 128 14 14 (802816)
I1126 15:25:01.901046 12182 net.cpp:165] Memory required for data: 1656161288
I1126 15:25:01.901052 12182 layer_factory.hpp:76] Creating layer inception_4e/pool
I1126 15:25:01.901062 12182 net.cpp:106] Creating Layer inception_4e/pool
I1126 15:25:01.901067 12182 net.cpp:454] inception_4e/pool <- inception_4d/output_inception_4d/output_0_split_4
I1126 15:25:01.901074 12182 net.cpp:411] inception_4e/pool -> inception_4e/pool
I1126 15:25:01.901458 12182 net.cpp:150] Setting up inception_4e/pool
I1126 15:25:01.901468 12182 net.cpp:157] Top shape: 32 528 14 14 (3311616)
I1126 15:25:01.901471 12182 net.cpp:165] Memory required for data: 1669407752
I1126 15:25:01.901475 12182 layer_factory.hpp:76] Creating layer inception_4e/pool_proj
I1126 15:25:01.901485 12182 net.cpp:106] Creating Layer inception_4e/pool_proj
I1126 15:25:01.901490 12182 net.cpp:454] inception_4e/pool_proj <- inception_4e/pool
I1126 15:25:01.901497 12182 net.cpp:411] inception_4e/pool_proj -> inception_4e/pool_proj
I1126 15:25:01.902798 12182 cudnn_conv_layer.cpp:194] Reallocating workspace storage: 10080
I1126 15:25:01.902832 12182 net.cpp:150] Setting up inception_4e/pool_proj
I1126 15:25:01.902853 12182 net.cpp:157] Top shape: 32 128 14 14 (802816)
I1126 15:25:01.902858 12182 net.cpp:165] Memory required for data: 1672619016
I1126 15:25:01.902865 12182 layer_factory.hpp:76] Creating layer inception_4e/prelu_pool_proj
I1126 15:25:01.902875 12182 net.cpp:106] Creating Layer inception_4e/prelu_pool_proj
I1126 15:25:01.902881 12182 net.cpp:454] inception_4e/prelu_pool_proj <- inception_4e/pool_proj
I1126 15:25:01.902887 12182 net.cpp:397] inception_4e/prelu_pool_proj -> inception_4e/pool_proj (in-place)
I1126 15:25:01.903007 12182 net.cpp:150] Setting up inception_4e/prelu_pool_proj
I1126 15:25:01.903015 12182 net.cpp:157] Top shape: 32 128 14 14 (802816)
I1126 15:25:01.903019 12182 net.cpp:165] Memory required for data: 1675830280
I1126 15:25:01.903025 12182 layer_factory.hpp:76] Creating layer inception_4e/output
I1126 15:25:01.903033 12182 net.cpp:106] Creating Layer inception_4e/output
I1126 15:25:01.903038 12182 net.cpp:454] inception_4e/output <- inception_4e/1x1
I1126 15:25:01.903044 12182 net.cpp:454] inception_4e/output <- inception_4e/3x3
I1126 15:25:01.903049 12182 net.cpp:454] inception_4e/output <- inception_4e/5x5
I1126 15:25:01.903074 12182 net.cpp:454] inception_4e/output <- inception_4e/pool_proj
I1126 15:25:01.903080 12182 net.cpp:411] inception_4e/output -> inception_4e/output
I1126 15:25:01.903111 12182 net.cpp:150] Setting up inception_4e/output
I1126 15:25:01.903120 12182 net.cpp:157] Top shape: 32 832 14 14 (5218304)
I1126 15:25:01.903123 12182 net.cpp:165] Memory required for data: 1696703496
I1126 15:25:01.903127 12182 layer_factory.hpp:76] Creating layer pool4/3x3_s2
I1126 15:25:01.903136 12182 net.cpp:106] Creating Layer pool4/3x3_s2
I1126 15:25:01.903141 12182 net.cpp:454] pool4/3x3_s2 <- inception_4e/output
I1126 15:25:01.903147 12182 net.cpp:411] pool4/3x3_s2 -> pool4/3x3_s2
I1126 15:25:01.903543 12182 net.cpp:150] Setting up pool4/3x3_s2
I1126 15:25:01.903553 12182 net.cpp:157] Top shape: 32 832 7 7 (1304576)
I1126 15:25:01.903558 12182 net.cpp:165] Memory required for data: 1701921800
I1126 15:25:01.903561 12182 layer_factory.hpp:76] Creating layer pool4/3x3_s2_pool4/3x3_s2_0_split
I1126 15:25:01.903570 12182 net.cpp:106] Creating Layer pool4/3x3_s2_pool4/3x3_s2_0_split
I1126 15:25:01.903575 12182 net.cpp:454] pool4/3x3_s2_pool4/3x3_s2_0_split <- pool4/3x3_s2
I1126 15:25:01.903581 12182 net.cpp:411] pool4/3x3_s2_pool4/3x3_s2_0_split -> pool4/3x3_s2_pool4/3x3_s2_0_split_0
I1126 15:25:01.903589 12182 net.cpp:411] pool4/3x3_s2_pool4/3x3_s2_0_split -> pool4/3x3_s2_pool4/3x3_s2_0_split_1
I1126 15:25:01.903596 12182 net.cpp:411] pool4/3x3_s2_pool4/3x3_s2_0_split -> pool4/3x3_s2_pool4/3x3_s2_0_split_2
I1126 15:25:01.903604 12182 net.cpp:411] pool4/3x3_s2_pool4/3x3_s2_0_split -> pool4/3x3_s2_pool4/3x3_s2_0_split_3
I1126 15:25:01.903668 12182 net.cpp:150] Setting up pool4/3x3_s2_pool4/3x3_s2_0_split
I1126 15:25:01.903676 12182 net.cpp:157] Top shape: 32 832 7 7 (1304576)
I1126 15:25:01.903681 12182 net.cpp:157] Top shape: 32 832 7 7 (1304576)
I1126 15:25:01.903687 12182 net.cpp:157] Top shape: 32 832 7 7 (1304576)
I1126 15:25:01.903692 12182 net.cpp:157] Top shape: 32 832 7 7 (1304576)
I1126 15:25:01.903695 12182 net.cpp:165] Memory required for data: 1722795016
I1126 15:25:01.903699 12182 layer_factory.hpp:76] Creating layer inception_5a/1x1
I1126 15:25:01.903709 12182 net.cpp:106] Creating Layer inception_5a/1x1
I1126 15:25:01.903713 12182 net.cpp:454] inception_5a/1x1 <- pool4/3x3_s2_pool4/3x3_s2_0_split_0
I1126 15:25:01.903722 12182 net.cpp:411] inception_5a/1x1 -> inception_5a/1x1
I1126 15:25:01.906525 12182 cudnn_conv_layer.cpp:194] Reallocating workspace storage: 7428
I1126 15:25:01.906554 12182 net.cpp:150] Setting up inception_5a/1x1
I1126 15:25:01.906563 12182 net.cpp:157] Top shape: 32 256 7 7 (401408)
I1126 15:25:01.906566 12182 net.cpp:165] Memory required for data: 1724400648
I1126 15:25:01.906574 12182 layer_factory.hpp:76] Creating layer inception_5a/prelu_1x1
I1126 15:25:01.906582 12182 net.cpp:106] Creating Layer inception_5a/prelu_1x1
I1126 15:25:01.906587 12182 net.cpp:454] inception_5a/prelu_1x1 <- inception_5a/1x1
I1126 15:25:01.906594 12182 net.cpp:397] inception_5a/prelu_1x1 -> inception_5a/1x1 (in-place)
I1126 15:25:01.907126 12182 net.cpp:150] Setting up inception_5a/prelu_1x1
I1126 15:25:01.907145 12182 net.cpp:157] Top shape: 32 256 7 7 (401408)
I1126 15:25:01.907150 12182 net.cpp:165] Memory required for data: 1726006280
I1126 15:25:01.907155 12182 layer_factory.hpp:76] Creating layer inception_5a/3x3_reduce
I1126 15:25:01.907163 12182 net.cpp:106] Creating Layer inception_5a/3x3_reduce
I1126 15:25:01.907169 12182 net.cpp:454] inception_5a/3x3_reduce <- pool4/3x3_s2_pool4/3x3_s2_0_split_1
I1126 15:25:01.907177 12182 net.cpp:411] inception_5a/3x3_reduce -> inception_5a/3x3_reduce
I1126 15:25:01.909667 12182 cudnn_conv_layer.cpp:194] Reallocating workspace storage: 7428
I1126 15:25:01.909708 12182 net.cpp:150] Setting up inception_5a/3x3_reduce
I1126 15:25:01.909716 12182 net.cpp:157] Top shape: 32 160 7 7 (250880)
I1126 15:25:01.909720 12182 net.cpp:165] Memory required for data: 1727009800
I1126 15:25:01.909729 12182 layer_factory.hpp:76] Creating layer inception_5a/prelu_3x3_reduce
I1126 15:25:01.909757 12182 net.cpp:106] Creating Layer inception_5a/prelu_3x3_reduce
I1126 15:25:01.909765 12182 net.cpp:454] inception_5a/prelu_3x3_reduce <- inception_5a/3x3_reduce
I1126 15:25:01.909771 12182 net.cpp:397] inception_5a/prelu_3x3_reduce -> inception_5a/3x3_reduce (in-place)
I1126 15:25:01.909874 12182 net.cpp:150] Setting up inception_5a/prelu_3x3_reduce
I1126 15:25:01.909883 12182 net.cpp:157] Top shape: 32 160 7 7 (250880)
I1126 15:25:01.909886 12182 net.cpp:165] Memory required for data: 1728013320
I1126 15:25:01.909893 12182 layer_factory.hpp:76] Creating layer inception_5a/3x3
I1126 15:25:01.909903 12182 net.cpp:106] Creating Layer inception_5a/3x3
I1126 15:25:01.909906 12182 net.cpp:454] inception_5a/3x3 <- inception_5a/3x3_reduce
I1126 15:25:01.909915 12182 net.cpp:411] inception_5a/3x3 -> inception_5a/3x3
I1126 15:25:01.914274 12182 cudnn_conv_layer.cpp:194] Reallocating workspace storage: 7788
I1126 15:25:01.914315 12182 net.cpp:150] Setting up inception_5a/3x3
I1126 15:25:01.914325 12182 net.cpp:157] Top shape: 32 320 7 7 (501760)
I1126 15:25:01.914330 12182 net.cpp:165] Memory required for data: 1730020360
I1126 15:25:01.914338 12182 layer_factory.hpp:76] Creating layer inception_5a/prelu_3x3
I1126 15:25:01.914357 12182 net.cpp:106] Creating Layer inception_5a/prelu_3x3
I1126 15:25:01.914363 12182 net.cpp:454] inception_5a/prelu_3x3 <- inception_5a/3x3
I1126 15:25:01.914371 12182 net.cpp:397] inception_5a/prelu_3x3 -> inception_5a/3x3 (in-place)
I1126 15:25:01.914489 12182 net.cpp:150] Setting up inception_5a/prelu_3x3
I1126 15:25:01.914497 12182 net.cpp:157] Top shape: 32 320 7 7 (501760)
I1126 15:25:01.914501 12182 net.cpp:165] Memory required for data: 1732027400
I1126 15:25:01.914507 12182 layer_factory.hpp:76] Creating layer inception_5a/5x5_reduce
I1126 15:25:01.914517 12182 net.cpp:106] Creating Layer inception_5a/5x5_reduce
I1126 15:25:01.914523 12182 net.cpp:454] inception_5a/5x5_reduce <- pool4/3x3_s2_pool4/3x3_s2_0_split_2
I1126 15:25:01.914530 12182 net.cpp:411] inception_5a/5x5_reduce -> inception_5a/5x5_reduce
I1126 15:25:01.915853 12182 cudnn_conv_layer.cpp:194] Reallocating workspace storage: 7428
I1126 15:25:01.915880 12182 net.cpp:150] Setting up inception_5a/5x5_reduce
I1126 15:25:01.915891 12182 net.cpp:157] Top shape: 32 32 7 7 (50176)
I1126 15:25:01.915895 12182 net.cpp:165] Memory required for data: 1732228104
I1126 15:25:01.915904 12182 layer_factory.hpp:76] Creating layer inception_5a/prelu_5x5_reduce
I1126 15:25:01.915911 12182 net.cpp:106] Creating Layer inception_5a/prelu_5x5_reduce
I1126 15:25:01.915916 12182 net.cpp:454] inception_5a/prelu_5x5_reduce <- inception_5a/5x5_reduce
I1126 15:25:01.915925 12182 net.cpp:397] inception_5a/prelu_5x5_reduce -> inception_5a/5x5_reduce (in-place)
I1126 15:25:01.916057 12182 net.cpp:150] Setting up inception_5a/prelu_5x5_reduce
I1126 15:25:01.916067 12182 net.cpp:157] Top shape: 32 32 7 7 (50176)
I1126 15:25:01.916072 12182 net.cpp:165] Memory required for data: 1732428808
I1126 15:25:01.916079 12182 layer_factory.hpp:76] Creating layer inception_5a/5x5
I1126 15:25:01.916087 12182 net.cpp:106] Creating Layer inception_5a/5x5
I1126 15:25:01.916092 12182 net.cpp:454] inception_5a/5x5 <- inception_5a/5x5_reduce
I1126 15:25:01.916100 12182 net.cpp:411] inception_5a/5x5 -> inception_5a/5x5
I1126 15:25:01.917877 12182 cudnn_conv_layer.cpp:194] Reallocating workspace storage: 9804
I1126 15:25:01.917906 12182 net.cpp:150] Setting up inception_5a/5x5
I1126 15:25:01.917914 12182 net.cpp:157] Top shape: 32 128 7 7 (200704)
I1126 15:25:01.917918 12182 net.cpp:165] Memory required for data: 1733231624
I1126 15:25:01.917925 12182 layer_factory.hpp:76] Creating layer inception_5a/prelu_5x5
I1126 15:25:01.917933 12182 net.cpp:106] Creating Layer inception_5a/prelu_5x5
I1126 15:25:01.917938 12182 net.cpp:454] inception_5a/prelu_5x5 <- inception_5a/5x5
I1126 15:25:01.917946 12182 net.cpp:397] inception_5a/prelu_5x5 -> inception_5a/5x5 (in-place)
I1126 15:25:01.918056 12182 net.cpp:150] Setting up inception_5a/prelu_5x5
I1126 15:25:01.918082 12182 net.cpp:157] Top shape: 32 128 7 7 (200704)
I1126 15:25:01.918087 12182 net.cpp:165] Memory required for data: 1734034440
I1126 15:25:01.918092 12182 layer_factory.hpp:76] Creating layer inception_5a/pool
I1126 15:25:01.918100 12182 net.cpp:106] Creating Layer inception_5a/pool
I1126 15:25:01.918105 12182 net.cpp:454] inception_5a/pool <- pool4/3x3_s2_pool4/3x3_s2_0_split_3
I1126 15:25:01.918117 12182 net.cpp:411] inception_5a/pool -> inception_5a/pool
I1126 15:25:01.918313 12182 net.cpp:150] Setting up inception_5a/pool
I1126 15:25:01.918323 12182 net.cpp:157] Top shape: 32 832 7 7 (1304576)
I1126 15:25:01.918326 12182 net.cpp:165] Memory required for data: 1739252744
I1126 15:25:01.918331 12182 layer_factory.hpp:76] Creating layer inception_5a/pool_proj
I1126 15:25:01.918340 12182 net.cpp:106] Creating Layer inception_5a/pool_proj
I1126 15:25:01.918345 12182 net.cpp:454] inception_5a/pool_proj <- inception_5a/pool
I1126 15:25:01.918354 12182 net.cpp:411] inception_5a/pool_proj -> inception_5a/pool_proj
I1126 15:25:01.920879 12182 cudnn_conv_layer.cpp:194] Reallocating workspace storage: 7428
I1126 15:25:01.920922 12182 net.cpp:150] Setting up inception_5a/pool_proj
I1126 15:25:01.920933 12182 net.cpp:157] Top shape: 32 128 7 7 (200704)
I1126 15:25:01.920936 12182 net.cpp:165] Memory required for data: 1740055560
I1126 15:25:01.920944 12182 layer_factory.hpp:76] Creating layer inception_5a/prelu_pool_proj
I1126 15:25:01.920953 12182 net.cpp:106] Creating Layer inception_5a/prelu_pool_proj
I1126 15:25:01.920959 12182 net.cpp:454] inception_5a/prelu_pool_proj <- inception_5a/pool_proj
I1126 15:25:01.920970 12182 net.cpp:397] inception_5a/prelu_pool_proj -> inception_5a/pool_proj (in-place)
I1126 15:25:01.921075 12182 net.cpp:150] Setting up inception_5a/prelu_pool_proj
I1126 15:25:01.921083 12182 net.cpp:157] Top shape: 32 128 7 7 (200704)
I1126 15:25:01.921087 12182 net.cpp:165] Memory required for data: 1740858376
I1126 15:25:01.921093 12182 layer_factory.hpp:76] Creating layer inception_5a/output
I1126 15:25:01.921102 12182 net.cpp:106] Creating Layer inception_5a/output
I1126 15:25:01.921106 12182 net.cpp:454] inception_5a/output <- inception_5a/1x1
I1126 15:25:01.921111 12182 net.cpp:454] inception_5a/output <- inception_5a/3x3
I1126 15:25:01.921116 12182 net.cpp:454] inception_5a/output <- inception_5a/5x5
I1126 15:25:01.921121 12182 net.cpp:454] inception_5a/output <- inception_5a/pool_proj
I1126 15:25:01.921126 12182 net.cpp:411] inception_5a/output -> inception_5a/output
I1126 15:25:01.921156 12182 net.cpp:150] Setting up inception_5a/output
I1126 15:25:01.921164 12182 net.cpp:157] Top shape: 32 832 7 7 (1304576)
I1126 15:25:01.921167 12182 net.cpp:165] Memory required for data: 1746076680
I1126 15:25:01.921171 12182 layer_factory.hpp:76] Creating layer inception_5a/output_inception_5a/output_0_split
I1126 15:25:01.921178 12182 net.cpp:106] Creating Layer inception_5a/output_inception_5a/output_0_split
I1126 15:25:01.921182 12182 net.cpp:454] inception_5a/output_inception_5a/output_0_split <- inception_5a/output
I1126 15:25:01.921190 12182 net.cpp:411] inception_5a/output_inception_5a/output_0_split -> inception_5a/output_inception_5a/output_0_split_0
I1126 15:25:01.921197 12182 net.cpp:411] inception_5a/output_inception_5a/output_0_split -> inception_5a/output_inception_5a/output_0_split_1
I1126 15:25:01.921205 12182 net.cpp:411] inception_5a/output_inception_5a/output_0_split -> inception_5a/output_inception_5a/output_0_split_2
I1126 15:25:01.921211 12182 net.cpp:411] inception_5a/output_inception_5a/output_0_split -> inception_5a/output_inception_5a/output_0_split_3
I1126 15:25:01.921278 12182 net.cpp:150] Setting up inception_5a/output_inception_5a/output_0_split
I1126 15:25:01.921286 12182 net.cpp:157] Top shape: 32 832 7 7 (1304576)
I1126 15:25:01.921291 12182 net.cpp:157] Top shape: 32 832 7 7 (1304576)
I1126 15:25:01.921296 12182 net.cpp:157] Top shape: 32 832 7 7 (1304576)
I1126 15:25:01.921301 12182 net.cpp:157] Top shape: 32 832 7 7 (1304576)
I1126 15:25:01.921321 12182 net.cpp:165] Memory required for data: 1766949896
I1126 15:25:01.921326 12182 layer_factory.hpp:76] Creating layer inception_5b/1x1
I1126 15:25:01.921334 12182 net.cpp:106] Creating Layer inception_5b/1x1
I1126 15:25:01.921339 12182 net.cpp:454] inception_5b/1x1 <- inception_5a/output_inception_5a/output_0_split_0
I1126 15:25:01.921346 12182 net.cpp:411] inception_5b/1x1 -> inception_5b/1x1
I1126 15:25:01.925040 12182 cudnn_conv_layer.cpp:194] Reallocating workspace storage: 7428
I1126 15:25:01.925074 12182 net.cpp:150] Setting up inception_5b/1x1
I1126 15:25:01.925083 12182 net.cpp:157] Top shape: 32 384 7 7 (602112)
I1126 15:25:01.925087 12182 net.cpp:165] Memory required for data: 1769358344
I1126 15:25:01.925096 12182 layer_factory.hpp:76] Creating layer inception_5b/prelu_1x1
I1126 15:25:01.925106 12182 net.cpp:106] Creating Layer inception_5b/prelu_1x1
I1126 15:25:01.925112 12182 net.cpp:454] inception_5b/prelu_1x1 <- inception_5b/1x1
I1126 15:25:01.925117 12182 net.cpp:397] inception_5b/prelu_1x1 -> inception_5b/1x1 (in-place)
I1126 15:25:01.925760 12182 net.cpp:150] Setting up inception_5b/prelu_1x1
I1126 15:25:01.925770 12182 net.cpp:157] Top shape: 32 384 7 7 (602112)
I1126 15:25:01.925776 12182 net.cpp:165] Memory required for data: 1771766792
I1126 15:25:01.925781 12182 layer_factory.hpp:76] Creating layer inception_5b/3x3_reduce
I1126 15:25:01.925798 12182 net.cpp:106] Creating Layer inception_5b/3x3_reduce
I1126 15:25:01.925803 12182 net.cpp:454] inception_5b/3x3_reduce <- inception_5a/output_inception_5a/output_0_split_1
I1126 15:25:01.925812 12182 net.cpp:411] inception_5b/3x3_reduce -> inception_5b/3x3_reduce
I1126 15:25:01.928630 12182 cudnn_conv_layer.cpp:194] Reallocating workspace storage: 7428
I1126 15:25:01.928668 12182 net.cpp:150] Setting up inception_5b/3x3_reduce
I1126 15:25:01.928678 12182 net.cpp:157] Top shape: 32 192 7 7 (301056)
I1126 15:25:01.928681 12182 net.cpp:165] Memory required for data: 1772971016
I1126 15:25:01.928689 12182 layer_factory.hpp:76] Creating layer inception_5b/prelu_3x3_reduce
I1126 15:25:01.928699 12182 net.cpp:106] Creating Layer inception_5b/prelu_3x3_reduce
I1126 15:25:01.928704 12182 net.cpp:454] inception_5b/prelu_3x3_reduce <- inception_5b/3x3_reduce
I1126 15:25:01.928724 12182 net.cpp:397] inception_5b/prelu_3x3_reduce -> inception_5b/3x3_reduce (in-place)
I1126 15:25:01.928843 12182 net.cpp:150] Setting up inception_5b/prelu_3x3_reduce
I1126 15:25:01.928850 12182 net.cpp:157] Top shape: 32 192 7 7 (301056)
I1126 15:25:01.928854 12182 net.cpp:165] Memory required for data: 1774175240
I1126 15:25:01.928860 12182 layer_factory.hpp:76] Creating layer inception_5b/3x3
I1126 15:25:01.928869 12182 net.cpp:106] Creating Layer inception_5b/3x3
I1126 15:25:01.928874 12182 net.cpp:454] inception_5b/3x3 <- inception_5b/3x3_reduce
I1126 15:25:01.928881 12182 net.cpp:411] inception_5b/3x3 -> inception_5b/3x3
I1126 15:25:01.935068 12182 cudnn_conv_layer.cpp:194] Reallocating workspace storage: 7788
I1126 15:25:01.935116 12182 net.cpp:150] Setting up inception_5b/3x3
I1126 15:25:01.935125 12182 net.cpp:157] Top shape: 32 384 7 7 (602112)
I1126 15:25:01.935130 12182 net.cpp:165] Memory required for data: 1776583688
I1126 15:25:01.935138 12182 layer_factory.hpp:76] Creating layer inception_5b/prelu_3x3
I1126 15:25:01.935149 12182 net.cpp:106] Creating Layer inception_5b/prelu_3x3
I1126 15:25:01.935155 12182 net.cpp:454] inception_5b/prelu_3x3 <- inception_5b/3x3
I1126 15:25:01.935163 12182 net.cpp:397] inception_5b/prelu_3x3 -> inception_5b/3x3 (in-place)
I1126 15:25:01.935281 12182 net.cpp:150] Setting up inception_5b/prelu_3x3
I1126 15:25:01.935289 12182 net.cpp:157] Top shape: 32 384 7 7 (602112)
I1126 15:25:01.935293 12182 net.cpp:165] Memory required for data: 1778992136
I1126 15:25:01.935299 12182 layer_factory.hpp:76] Creating layer inception_5b/5x5_reduce
I1126 15:25:01.935310 12182 net.cpp:106] Creating Layer inception_5b/5x5_reduce
I1126 15:25:01.935317 12182 net.cpp:454] inception_5b/5x5_reduce <- inception_5a/output_inception_5a/output_0_split_2
I1126 15:25:01.935344 12182 net.cpp:411] inception_5b/5x5_reduce -> inception_5b/5x5_reduce
I1126 15:25:01.936561 12182 cudnn_conv_layer.cpp:194] Reallocating workspace storage: 7428
I1126 15:25:01.936595 12182 net.cpp:150] Setting up inception_5b/5x5_reduce
I1126 15:25:01.936604 12182 net.cpp:157] Top shape: 32 48 7 7 (75264)
I1126 15:25:01.936607 12182 net.cpp:165] Memory required for data: 1779293192
I1126 15:25:01.936614 12182 layer_factory.hpp:76] Creating layer inception_5b/prelu_5x5_reduce
I1126 15:25:01.936631 12182 net.cpp:106] Creating Layer inception_5b/prelu_5x5_reduce
I1126 15:25:01.936637 12182 net.cpp:454] inception_5b/prelu_5x5_reduce <- inception_5b/5x5_reduce
I1126 15:25:01.936645 12182 net.cpp:397] inception_5b/prelu_5x5_reduce -> inception_5b/5x5_reduce (in-place)
I1126 15:25:01.936784 12182 net.cpp:150] Setting up inception_5b/prelu_5x5_reduce
I1126 15:25:01.936792 12182 net.cpp:157] Top shape: 32 48 7 7 (75264)
I1126 15:25:01.936796 12182 net.cpp:165] Memory required for data: 1779594248
I1126 15:25:01.936801 12182 layer_factory.hpp:76] Creating layer inception_5b/5x5
I1126 15:25:01.936810 12182 net.cpp:106] Creating Layer inception_5b/5x5
I1126 15:25:01.936815 12182 net.cpp:454] inception_5b/5x5 <- inception_5b/5x5_reduce
I1126 15:25:01.936821 12182 net.cpp:411] inception_5b/5x5 -> inception_5b/5x5
I1126 15:25:01.938894 12182 cudnn_conv_layer.cpp:194] Reallocating workspace storage: 9804
I1126 15:25:01.938925 12182 net.cpp:150] Setting up inception_5b/5x5
I1126 15:25:01.938933 12182 net.cpp:157] Top shape: 32 128 7 7 (200704)
I1126 15:25:01.938938 12182 net.cpp:165] Memory required for data: 1780397064
I1126 15:25:01.938946 12182 layer_factory.hpp:76] Creating layer inception_5b/prelu_5x5
I1126 15:25:01.938953 12182 net.cpp:106] Creating Layer inception_5b/prelu_5x5
I1126 15:25:01.938958 12182 net.cpp:454] inception_5b/prelu_5x5 <- inception_5b/5x5
I1126 15:25:01.938966 12182 net.cpp:397] inception_5b/prelu_5x5 -> inception_5b/5x5 (in-place)
I1126 15:25:01.939079 12182 net.cpp:150] Setting up inception_5b/prelu_5x5
I1126 15:25:01.939088 12182 net.cpp:157] Top shape: 32 128 7 7 (200704)
I1126 15:25:01.939092 12182 net.cpp:165] Memory required for data: 1781199880
I1126 15:25:01.939097 12182 layer_factory.hpp:76] Creating layer inception_5b/pool
I1126 15:25:01.939105 12182 net.cpp:106] Creating Layer inception_5b/pool
I1126 15:25:01.939110 12182 net.cpp:454] inception_5b/pool <- inception_5a/output_inception_5a/output_0_split_3
I1126 15:25:01.939116 12182 net.cpp:411] inception_5b/pool -> inception_5b/pool
I1126 15:25:01.939503 12182 net.cpp:150] Setting up inception_5b/pool
I1126 15:25:01.939513 12182 net.cpp:157] Top shape: 32 832 7 7 (1304576)
I1126 15:25:01.939517 12182 net.cpp:165] Memory required for data: 1786418184
I1126 15:25:01.939522 12182 layer_factory.hpp:76] Creating layer inception_5b/pool_proj
I1126 15:25:01.939532 12182 net.cpp:106] Creating Layer inception_5b/pool_proj
I1126 15:25:01.939538 12182 net.cpp:454] inception_5b/pool_proj <- inception_5b/pool
I1126 15:25:01.939544 12182 net.cpp:411] inception_5b/pool_proj -> inception_5b/pool_proj
I1126 15:25:01.941789 12182 cudnn_conv_layer.cpp:194] Reallocating workspace storage: 7428
I1126 15:25:01.941818 12182 net.cpp:150] Setting up inception_5b/pool_proj
I1126 15:25:01.941828 12182 net.cpp:157] Top shape: 32 128 7 7 (200704)
I1126 15:25:01.941831 12182 net.cpp:165] Memory required for data: 1787221000
I1126 15:25:01.941839 12182 layer_factory.hpp:76] Creating layer inception_5b/prelu_pool_proj
I1126 15:25:01.941848 12182 net.cpp:106] Creating Layer inception_5b/prelu_pool_proj
I1126 15:25:01.941853 12182 net.cpp:454] inception_5b/prelu_pool_proj <- inception_5b/pool_proj
I1126 15:25:01.941860 12182 net.cpp:397] inception_5b/prelu_pool_proj -> inception_5b/pool_proj (in-place)
I1126 15:25:01.942000 12182 net.cpp:150] Setting up inception_5b/prelu_pool_proj
I1126 15:25:01.942008 12182 net.cpp:157] Top shape: 32 128 7 7 (200704)
I1126 15:25:01.942013 12182 net.cpp:165] Memory required for data: 1788023816
I1126 15:25:01.942018 12182 layer_factory.hpp:76] Creating layer inception_5b/output
I1126 15:25:01.942052 12182 net.cpp:106] Creating Layer inception_5b/output
I1126 15:25:01.942059 12182 net.cpp:454] inception_5b/output <- inception_5b/1x1
I1126 15:25:01.942065 12182 net.cpp:454] inception_5b/output <- inception_5b/3x3
I1126 15:25:01.942070 12182 net.cpp:454] inception_5b/output <- inception_5b/5x5
I1126 15:25:01.942075 12182 net.cpp:454] inception_5b/output <- inception_5b/pool_proj
I1126 15:25:01.942080 12182 net.cpp:411] inception_5b/output -> inception_5b/output
I1126 15:25:01.942114 12182 net.cpp:150] Setting up inception_5b/output
I1126 15:25:01.942123 12182 net.cpp:157] Top shape: 32 1024 7 7 (1605632)
I1126 15:25:01.942127 12182 net.cpp:165] Memory required for data: 1794446344
I1126 15:25:01.942139 12182 layer_factory.hpp:76] Creating layer pool5/7x7_s1
I1126 15:25:01.942147 12182 net.cpp:106] Creating Layer pool5/7x7_s1
I1126 15:25:01.942152 12182 net.cpp:454] pool5/7x7_s1 <- inception_5b/output
I1126 15:25:01.942160 12182 net.cpp:411] pool5/7x7_s1 -> pool5/7x7_s1
I1126 15:25:01.942369 12182 net.cpp:150] Setting up pool5/7x7_s1
I1126 15:25:01.942378 12182 net.cpp:157] Top shape: 32 1024 1 1 (32768)
I1126 15:25:01.942387 12182 net.cpp:165] Memory required for data: 1794577416
I1126 15:25:01.942392 12182 layer_factory.hpp:76] Creating layer pool5/drop_7x7_s1
I1126 15:25:01.942399 12182 net.cpp:106] Creating Layer pool5/drop_7x7_s1
I1126 15:25:01.942404 12182 net.cpp:454] pool5/drop_7x7_s1 <- pool5/7x7_s1
I1126 15:25:01.942409 12182 net.cpp:397] pool5/drop_7x7_s1 -> pool5/7x7_s1 (in-place)
I1126 15:25:01.942440 12182 net.cpp:150] Setting up pool5/drop_7x7_s1
I1126 15:25:01.942447 12182 net.cpp:157] Top shape: 32 1024 1 1 (32768)
I1126 15:25:01.942451 12182 net.cpp:165] Memory required for data: 1794708488
I1126 15:25:01.942456 12182 layer_factory.hpp:76] Creating layer loss3/classifier2
I1126 15:25:01.942464 12182 net.cpp:106] Creating Layer loss3/classifier2
I1126 15:25:01.942468 12182 net.cpp:454] loss3/classifier2 <- pool5/7x7_s1
I1126 15:25:01.942474 12182 net.cpp:411] loss3/classifier2 -> loss3/classifier
I1126 15:25:01.942627 12182 net.cpp:150] Setting up loss3/classifier2
I1126 15:25:01.942636 12182 net.cpp:157] Top shape: 32 2 (64)
I1126 15:25:01.942641 12182 net.cpp:165] Memory required for data: 1794708744
I1126 15:25:01.942646 12182 layer_factory.hpp:76] Creating layer loss3/loss3
I1126 15:25:01.942653 12182 net.cpp:106] Creating Layer loss3/loss3
I1126 15:25:01.942657 12182 net.cpp:454] loss3/loss3 <- loss3/classifier
I1126 15:25:01.942663 12182 net.cpp:454] loss3/loss3 <- label_data_1_split_2
I1126 15:25:01.942670 12182 net.cpp:411] loss3/loss3 -> loss3/loss3
…
I1126 15:25:01.954753 12182 net.cpp:322] The NetState phase (1) differed from the phase (0) specified by a rule in layer data
I1126 15:25:01.956223 12182 net.cpp:49] Initializing net from parameters: 
name: "GoogleNet"
state {
  phase: TEST
}
layer {
  name: "data"
  type: "Data"
  top: "data"
  top: "label"
  include {
    phase: TEST
  }
  transform_param {
    mirror: false
    crop_size: 224
    mean_value: 104
    mean_value: 117
    mean_value: 123
  }
  data_param {
    source: "../../LMDB/val_0-lmdb"
    batch_size: 50
    backend: LMDB
  }
}
layer {
  name: "conv1/7x7_s2"
  type: "Convolution"
  bottom: "data"
  top: "conv1/7x7_s2"
  param {
    lr_mult: 1
    decay_mult: 1
  }
  param {
    lr_mult: 2
    decay_mult: 0
  }
  convolution_param {
    num_output: 64
    pad: 3
    kernel_size: 7
    stride: 2
    weight_filler {
      type: "xavier"
    }
    bias_filler {
      type: "constant"
      value: 0.2
    }
  }
}
layer {
  name: "conv1/prelu_7x7"
  type: "PReLU"
  bottom: "conv1/7x7_s2"
  top: "conv1/7x7_s2"
  param {
    lr_mult: 1
    decay_mult: 0
  }
  prelu_param {
    filler {
      type: "constant"
      value: 0.01
    }
  }
}
layer {
  name: "pool1/3x3_s2"
  type: "Pooling"
  bottom: "conv1/7x7_s2"
  top: "pool1/3x3_s2"
  pooling_param {
    pool: MAX
    kernel_size: 3
    stride: 2
  }
}
layer {
  name: "pool1/norm1"
  type: "LRN"
  bottom: "pool1/3x3_s2"
  top: "pool1/norm1"
  lrn_param {
    local_size: 5
    alpha: 0.0001
    beta: 0.75
  }
}
layer {
  name: "conv2/3x3_reduce"
  type: "Convolution"
  bottom: "pool1/norm1"
  top: "conv2/3x3_reduce"
  param {
    lr_mult: 1
    decay_mult: 1
  }
  param {
    lr_mult: 2
    decay_mult: 0
  }
  convolution_param {
    num_output: 64
    kernel_size: 1
    weight_filler {
      type: "xavier"
    }
    bias_filler {
      type: "constant"
      value: 0.2
    }
  }
}
layer {
  name: "conv2/prelu_3x3_reduce"
  type: "PReLU"
  bottom: "conv2/3x3_reduce"
  top: "conv2/3x3_reduce"
  param {
    lr_mult: 1
    decay_mult: 0
  }
  prelu_param {
    filler {
      type: "constant"
      value: 0.01
    }
  }
}
layer {
  name: "conv2/3x3"
  type: "Convolution"
  bottom: "conv2/3x3_reduce"
  top: "conv2/3x3"
  param {
    lr_mult: 1
    decay_mult: 1
  }
  param {
    lr_mult: 2
    decay_mult: 0
  }
  convolution_param {
    num_output: 192
    pad: 1
    kernel_size: 3
    weight_filler {
      type: "xavier"
    }
    bias_filler {
      type: "constant"
      value: 0.2
    }
  }
}
layer {
  name: "conv2/prelu_3x3"
  type: "PReLU"
  bottom: "conv2/3x3"
  top: "conv2/3x3"
  param {
    lr_mult: 1
    decay_mult: 0
  }
  prelu_param {
    filler {
      type: "constant"
      value: 0.01
    }
  }
}
layer {
  name: "conv2/norm2"
  type: "LRN"
  bottom: "conv2/3x3"
  top: "conv2/norm2"
  lrn_param {
    local_size: 5
    alpha: 0.0001
    beta: 0.75
  }
}
layer {
  name: "pool2/3x3_s2"
  type: "Pooling"
  bottom: "conv2/norm2"
  top: "pool2/3x3_s2"
  pooling_param {
    pool: MAX
    kernel_size: 3
    stride: 2
  }
}
layer {
  name: "inception_3a/1x1"
  type: "Convolution"
  bottom: "pool2/3x3_s2"
  top: "inception_3a/1x1"
  param {
    lr_mult: 1
    decay_mult: 1
  }
  param {
    lr_mult: 2
    decay_mult: 0
  }
  convolution_param {
    num_output: 64
    kernel_size: 1
    weight_filler {
      type: "xavier"
    }
    bias_filler {
      type: "constant"
      value: 0.2
    }
  }
}
layer {
  name: "inception_3a/prelu_1x1"
  type: "PReLU"
  bottom: "inception_3a/1x1"
  top: "inception_3a/1x1"
  param {
    lr_mult: 1
    decay_mult: 0
  }
  prelu_param {
    filler {
      type: "constant"
      value: 0.01
    }
  }
}
layer {
  name: "inception_3a/3x3_reduce"
  type: "Convolution"
  bottom: "pool2/3x3_s2"
  top: "inception_3a/3x3_reduce"
  param {
    lr_mult: 1
    decay_mult: 1
  }
  param {
    lr_mult: 2
    decay_mult: 0
  }
  convolution_param {
    num_output: 96
    kernel_size: 1
    weight_filler {
      type: "xavier"
    }
    bias_filler {
      type: "constant"
      value: 0.2
    }
  }
}
layer {
  name: "inception_3a/prelu_3x3_reduce"
  type: "PReLU"
  bottom: "inception_3a/3x3_reduce"
  top: "inception_3a/3x3_reduce"
  param {
    lr_mult: 1
    decay_mult: 0
  }
  prelu_param {
    filler {
      type: "constant"
      value: 0.01
    }
  }
}
layer {
  name: "inception_3a/3x3"
  type: "Convolution"
  bottom: "inception_3a/3x3_reduce"
  top: "inception_3a/3x3"
  param {
    lr_mult: 1
    decay_mult: 1
  }
  param {
    lr_mult: 2
    decay_mult: 0
  }
  convolution_param {
    num_output: 128
    pad: 1
    kernel_size: 3
    weight_filler {
      type: "xavier"
    }
    bias_filler {
      type: "constant"
      value: 0.2
    }
  }
}
layer {
  name: "inception_3a/prelu_3x3"
  type: "PReLU"
  bottom: "inception_3a/3x3"
  top: "inception_3a/3x3"
  param {
    lr_mult: 1
    decay_mult: 0
  }
  prelu_param {
    filler {
      type: "constant"
      value: 0.01
    }
  }
}
layer {
  name: "inception_3a/5x5_reduce"
  type: "Convolution"
  bottom: "pool2/3x3_s2"
  top: "inception_3a/5x5_reduce"
  param {
    lr_mult: 1
    decay_mult: 1
  }
  param {
    lr_mult: 2
    decay_mult: 0
  }
  convolution_param {
    num_output: 16
    kernel_size: 1
    weight_filler {
      type: "xavier"
    }
    bias_filler {
      type: "constant"
      value: 0.2
    }
  }
}
layer {
  name: "inception_3a/prelu_5x5_reduce"
  type: "PReLU"
  bottom: "inception_3a/5x5_reduce"
  top: "inception_3a/5x5_reduce"
  param {
    lr_mult: 1
    decay_mult: 0
  }
  prelu_param {
    filler {
      type: "constant"
      value: 0.01
    }
  }
}
layer {
  name: "inception_3a/5x5"
  type: "Convolution"
  bottom: "inception_3a/5x5_reduce"
  top: "inception_3a/5x5"
  param {
    lr_mult: 1
    decay_mult: 1
  }
  param {
    lr_mult: 2
    decay_mult: 0
  }
  convolution_param {
    num_output: 32
    pad: 2
    kernel_size: 5
    weight_filler {
      type: "xavier"
    }
    bias_filler {
      type: "constant"
      value: 0.2
    }
  }
}
layer {
  name: "inception_3a/prelu_5x5"
  type: "PReLU"
  bottom: "inception_3a/5x5"
  top: "inception_3a/5x5"
  param {
    lr_mult: 1
    decay_mult: 0
  }
  prelu_param {
    filler {
      type: "constant"
      value: 0.01
    }
  }
}
layer {
  name: "inception_3a/pool"
  type: "Pooling"
  bottom: "pool2/3x3_s2"
  top: "inception_3a/pool"
  pooling_param {
    pool: MAX
    kernel_size: 3
    stride: 1
    pad: 1
  }
}
layer {
  name: "inception_3a/pool_proj"
  type: "Convolution"
  bottom: "inception_3a/pool"
  top: "inception_3a/pool_proj"
  param {
    lr_mult: 1
    decay_mult: 1
  }
  param {
    lr_mult: 2
    decay_mult: 0
  }
  convolution_param {
    num_output: 32
    kernel_size: 1
    weight_filler {
      type: "xavier"
    }
    bias_filler {
      type: "constant"
      value: 0.2
    }
  }
}
layer {
  name: "inception_3a/prelu_pool_proj"
  type: "PReLU"
  bottom: "inception_3a/pool_proj"
  top: "inception_3a/pool_proj"
  param {
    lr_mult: 1
    decay_mult: 0
  }
  prelu_param {
    filler {
      type: "constant"
      value: 0.01
    }
  }
}
layer {
  name: "inception_3a/output"
  type: "Concat"
  bottom: "inception_3a/1x1"
  bottom: "inception_3a/3x3"
  bottom: "inception_3a/5x5"
  bottom: "inception_3a/pool_proj"
  top: "inception_3a/output"
}
layer {
  name: "inception_3b/1x1"
  type: "Convolution"
  bottom: "inception_3a/output"
  top: "inception_3b/1x1"
  param {
    lr_mult: 1
    decay_mult: 1
  }
  param {
    lr_mult: 2
    decay_mult: 0
  }
  convolution_param {
    num_output: 128
    kernel_size: 1
    weight_filler {
      type: "xavier"
    }
    bias_filler {
      type: "constant"
      value: 0.2
    }
  }
}
layer {
  name: "inception_3b/prelu_1x1"
  type: "PReLU"
  bottom: "inception_3b/1x1"
  top: "inception_3b/1x1"
  param {
    lr_mult: 1
    decay_mult: 0
  }
  prelu_param {
    filler {
      type: "constant"
      value: 0.01
    }
  }
}
layer {
  name: "inception_3b/3x3_reduce"
  type: "Convolution"
  bottom: "inception_3a/output"
  top: "inception_3b/3x3_reduce"
  param {
    lr_mult: 1
    decay_mult: 1
  }
  param {
    lr_mult: 2
    decay_mult: 0
  }
  convolution_param {
    num_output: 128
    kernel_size: 1
    weight_filler {
      type: "xavier"
    }
    bias_filler {
      type: "constant"
      value: 0.2
    }
  }
}
layer {
  name: "inception_3b/prelu_3x3_reduce"
  type: "PReLU"
  bottom: "inception_3b/3x3_reduce"
  top: "inception_3b/3x3_reduce"
  param {
    lr_mult: 1
    decay_mult: 0
  }
  prelu_param {
    filler {
      type: "constant"
      value: 0.01
    }
  }
}
layer {
  name: "inception_3b/3x3"
  type: "Convolution"
  bottom: "inception_3b/3x3_reduce"
  top: "inception_3b/3x3"
  param {
    lr_mult: 1
    decay_mult: 1
  }
  param {
    lr_mult: 2
    decay_mult: 0
  }
  convolution_param {
    num_output: 192
    pad: 1
…
I1126 15:25:02.357836 12182 net.cpp:106] Creating Layer inception_4c/output
I1126 15:25:02.357841 12182 net.cpp:454] inception_4c/output <- inception_4c/1x1
I1126 15:25:02.357846 12182 net.cpp:454] inception_4c/output <- inception_4c/3x3
I1126 15:25:02.357851 12182 net.cpp:454] inception_4c/output <- inception_4c/5x5
I1126 15:25:02.357854 12182 net.cpp:454] inception_4c/output <- inception_4c/pool_proj
I1126 15:25:02.357861 12182 net.cpp:411] inception_4c/output -> inception_4c/output
I1126 15:25:02.357882 12182 net.cpp:150] Setting up inception_4c/output
I1126 15:25:02.357888 12182 net.cpp:157] Top shape: 50 512 14 14 (5017600)
I1126 15:25:02.357892 12182 net.cpp:165] Memory required for data: 2234652208
I1126 15:25:02.357895 12182 layer_factory.hpp:76] Creating layer inception_4c/output_inception_4c/output_0_split
I1126 15:25:02.357903 12182 net.cpp:106] Creating Layer inception_4c/output_inception_4c/output_0_split
I1126 15:25:02.357908 12182 net.cpp:454] inception_4c/output_inception_4c/output_0_split <- inception_4c/output
I1126 15:25:02.357913 12182 net.cpp:411] inception_4c/output_inception_4c/output_0_split -> inception_4c/output_inception_4c/output_0_split_0
I1126 15:25:02.402108 12182 net.cpp:411] inception_4c/output_inception_4c/output_0_split -> inception_4c/output_inception_4c/output_0_split_1
I1126 15:25:02.402142 12182 net.cpp:411] inception_4c/output_inception_4c/output_0_split -> inception_4c/output_inception_4c/output_0_split_2
I1126 15:25:02.402187 12182 net.cpp:411] inception_4c/output_inception_4c/output_0_split -> inception_4c/output_inception_4c/output_0_split_3
I1126 15:25:02.402309 12182 net.cpp:150] Setting up inception_4c/output_inception_4c/output_0_split
I1126 15:25:02.402320 12182 net.cpp:157] Top shape: 50 512 14 14 (5017600)
I1126 15:25:02.402325 12182 net.cpp:157] Top shape: 50 512 14 14 (5017600)
I1126 15:25:02.402330 12182 net.cpp:157] Top shape: 50 512 14 14 (5017600)
I1126 15:25:02.402334 12182 net.cpp:157] Top shape: 50 512 14 14 (5017600)
I1126 15:25:02.402338 12182 net.cpp:165] Memory required for data: 2314933808
I1126 15:25:02.402344 12182 layer_factory.hpp:76] Creating layer inception_4d/1x1
I1126 15:25:02.402354 12182 net.cpp:106] Creating Layer inception_4d/1x1
I1126 15:25:02.402359 12182 net.cpp:454] inception_4d/1x1 <- inception_4c/output_inception_4c/output_0_split_0
I1126 15:25:02.402369 12182 net.cpp:411] inception_4d/1x1 -> inception_4d/1x1
I1126 15:25:02.404047 12182 cudnn_conv_layer.cpp:194] Reallocating workspace storage: 10080
I1126 15:25:02.404084 12182 net.cpp:150] Setting up inception_4d/1x1
I1126 15:25:02.404093 12182 net.cpp:157] Top shape: 50 112 14 14 (1097600)
I1126 15:25:02.404096 12182 net.cpp:165] Memory required for data: 2319324208
I1126 15:25:02.404104 12182 layer_factory.hpp:76] Creating layer inception_4d/prelu_1x1
I1126 15:25:02.404114 12182 net.cpp:106] Creating Layer inception_4d/prelu_1x1
I1126 15:25:02.404119 12182 net.cpp:454] inception_4d/prelu_1x1 <- inception_4d/1x1
I1126 15:25:02.404125 12182 net.cpp:397] inception_4d/prelu_1x1 -> inception_4d/1x1 (in-place)
I1126 15:25:02.404219 12182 net.cpp:150] Setting up inception_4d/prelu_1x1
I1126 15:25:02.404227 12182 net.cpp:157] Top shape: 50 112 14 14 (1097600)
I1126 15:25:02.404232 12182 net.cpp:165] Memory required for data: 2323714608
I1126 15:25:02.404237 12182 layer_factory.hpp:76] Creating layer inception_4d/3x3_reduce
I1126 15:25:02.404245 12182 net.cpp:106] Creating Layer inception_4d/3x3_reduce
I1126 15:25:02.404250 12182 net.cpp:454] inception_4d/3x3_reduce <- inception_4c/output_inception_4c/output_0_split_1
I1126 15:25:02.404256 12182 net.cpp:411] inception_4d/3x3_reduce -> inception_4d/3x3_reduce
I1126 15:25:02.406752 12182 cudnn_conv_layer.cpp:194] Reallocating workspace storage: 10080
I1126 15:25:02.406821 12182 net.cpp:150] Setting up inception_4d/3x3_reduce
I1126 15:25:02.406839 12182 net.cpp:157] Top shape: 50 144 14 14 (1411200)
I1126 15:25:02.406849 12182 net.cpp:165] Memory required for data: 2329359408
I1126 15:25:02.406865 12182 layer_factory.hpp:76] Creating layer inception_4d/prelu_3x3_reduce
I1126 15:25:02.406883 12182 net.cpp:106] Creating Layer inception_4d/prelu_3x3_reduce
I1126 15:25:02.406895 12182 net.cpp:454] inception_4d/prelu_3x3_reduce <- inception_4d/3x3_reduce
I1126 15:25:02.406909 12182 net.cpp:397] inception_4d/prelu_3x3_reduce -> inception_4d/3x3_reduce (in-place)
I1126 15:25:02.407131 12182 net.cpp:150] Setting up inception_4d/prelu_3x3_reduce
I1126 15:25:02.407142 12182 net.cpp:157] Top shape: 50 144 14 14 (1411200)
I1126 15:25:02.407150 12182 net.cpp:165] Memory required for data: 2335004208
I1126 15:25:02.407158 12182 layer_factory.hpp:76] Creating layer inception_4d/3x3
I1126 15:25:02.407176 12182 net.cpp:106] Creating Layer inception_4d/3x3
I1126 15:25:02.407184 12182 net.cpp:454] inception_4d/3x3 <- inception_4d/3x3_reduce
I1126 15:25:02.407197 12182 net.cpp:411] inception_4d/3x3 -> inception_4d/3x3
I1126 15:25:02.411733 12182 cudnn_conv_layer.cpp:194] Reallocating workspace storage: 10080
I1126 15:25:02.411782 12182 net.cpp:150] Setting up inception_4d/3x3
I1126 15:25:02.411792 12182 net.cpp:157] Top shape: 50 288 14 14 (2822400)
I1126 15:25:02.411798 12182 net.cpp:165] Memory required for data: 2346293808
I1126 15:25:02.411806 12182 layer_factory.hpp:76] Creating layer inception_4d/prelu_3x3
I1126 15:25:02.411818 12182 net.cpp:106] Creating Layer inception_4d/prelu_3x3
I1126 15:25:02.411825 12182 net.cpp:454] inception_4d/prelu_3x3 <- inception_4d/3x3
I1126 15:25:02.411852 12182 net.cpp:397] inception_4d/prelu_3x3 -> inception_4d/3x3 (in-place)
I1126 15:25:02.412480 12182 net.cpp:150] Setting up inception_4d/prelu_3x3
I1126 15:25:02.412492 12182 net.cpp:157] Top shape: 50 288 14 14 (2822400)
I1126 15:25:02.412497 12182 net.cpp:165] Memory required for data: 2357583408
I1126 15:25:02.412504 12182 layer_factory.hpp:76] Creating layer inception_4d/5x5_reduce
I1126 15:25:02.412518 12182 net.cpp:106] Creating Layer inception_4d/5x5_reduce
I1126 15:25:02.412524 12182 net.cpp:454] inception_4d/5x5_reduce <- inception_4c/output_inception_4c/output_0_split_2
I1126 15:25:02.412533 12182 net.cpp:411] inception_4d/5x5_reduce -> inception_4d/5x5_reduce
I1126 15:25:02.414145 12182 cudnn_conv_layer.cpp:194] Reallocating workspace storage: 10080
I1126 15:25:02.414185 12182 net.cpp:150] Setting up inception_4d/5x5_reduce
I1126 15:25:02.414193 12182 net.cpp:157] Top shape: 50 32 14 14 (313600)
I1126 15:25:02.414198 12182 net.cpp:165] Memory required for data: 2358837808
I1126 15:25:02.414206 12182 layer_factory.hpp:76] Creating layer inception_4d/prelu_5x5_reduce
I1126 15:25:02.414217 12182 net.cpp:106] Creating Layer inception_4d/prelu_5x5_reduce
I1126 15:25:02.414223 12182 net.cpp:454] inception_4d/prelu_5x5_reduce <- inception_4d/5x5_reduce
I1126 15:25:02.414230 12182 net.cpp:397] inception_4d/prelu_5x5_reduce -> inception_4d/5x5_reduce (in-place)
I1126 15:25:02.414319 12182 net.cpp:150] Setting up inception_4d/prelu_5x5_reduce
I1126 15:25:02.414326 12182 net.cpp:157] Top shape: 50 32 14 14 (313600)
I1126 15:25:02.414330 12182 net.cpp:165] Memory required for data: 2360092208
I1126 15:25:02.414336 12182 layer_factory.hpp:76] Creating layer inception_4d/5x5
I1126 15:25:02.414345 12182 net.cpp:106] Creating Layer inception_4d/5x5
I1126 15:25:02.414350 12182 net.cpp:454] inception_4d/5x5 <- inception_4d/5x5_reduce
I1126 15:25:02.414357 12182 net.cpp:411] inception_4d/5x5 -> inception_4d/5x5
I1126 15:25:02.415632 12182 cudnn_conv_layer.cpp:194] Reallocating workspace storage: 13080
I1126 15:25:02.415664 12182 net.cpp:150] Setting up inception_4d/5x5
I1126 15:25:02.415673 12182 net.cpp:157] Top shape: 50 64 14 14 (627200)
I1126 15:25:02.415678 12182 net.cpp:165] Memory required for data: 2362601008
I1126 15:25:02.415685 12182 layer_factory.hpp:76] Creating layer inception_4d/prelu_5x5
I1126 15:25:02.415694 12182 net.cpp:106] Creating Layer inception_4d/prelu_5x5
I1126 15:25:02.415700 12182 net.cpp:454] inception_4d/prelu_5x5 <- inception_4d/5x5
I1126 15:25:02.415706 12182 net.cpp:397] inception_4d/prelu_5x5 -> inception_4d/5x5 (in-place)
I1126 15:25:02.415804 12182 net.cpp:150] Setting up inception_4d/prelu_5x5
I1126 15:25:02.415813 12182 net.cpp:157] Top shape: 50 64 14 14 (627200)
I1126 15:25:02.415817 12182 net.cpp:165] Memory required for data: 2365109808
I1126 15:25:02.415822 12182 layer_factory.hpp:76] Creating layer inception_4d/pool
I1126 15:25:02.415833 12182 net.cpp:106] Creating Layer inception_4d/pool
I1126 15:25:02.415838 12182 net.cpp:454] inception_4d/pool <- inception_4c/output_inception_4c/output_0_split_3
I1126 15:25:02.415844 12182 net.cpp:411] inception_4d/pool -> inception_4d/pool
I1126 15:25:02.416296 12182 net.cpp:150] Setting up inception_4d/pool
I1126 15:25:02.416308 12182 net.cpp:157] Top shape: 50 512 14 14 (5017600)
I1126 15:25:02.416312 12182 net.cpp:165] Memory required for data: 2385180208
I1126 15:25:02.416317 12182 layer_factory.hpp:76] Creating layer inception_4d/pool_proj
I1126 15:25:02.416326 12182 net.cpp:106] Creating Layer inception_4d/pool_proj
I1126 15:25:02.416332 12182 net.cpp:454] inception_4d/pool_proj <- inception_4d/pool
I1126 15:25:02.416340 12182 net.cpp:411] inception_4d/pool_proj -> inception_4d/pool_proj
I1126 15:25:02.417673 12182 cudnn_conv_layer.cpp:194] Reallocating workspace storage: 10080
I1126 15:25:02.417711 12182 net.cpp:150] Setting up inception_4d/pool_proj
I1126 15:25:02.417719 12182 net.cpp:157] Top shape: 50 64 14 14 (627200)
I1126 15:25:02.417723 12182 net.cpp:165] Memory required for data: 2387689008
I1126 15:25:02.417731 12182 layer_factory.hpp:76] Creating layer inception_4d/prelu_pool_proj
I1126 15:25:02.417759 12182 net.cpp:106] Creating Layer inception_4d/prelu_pool_proj
I1126 15:25:02.417765 12182 net.cpp:454] inception_4d/prelu_pool_proj <- inception_4d/pool_proj
I1126 15:25:02.417773 12182 net.cpp:397] inception_4d/prelu_pool_proj -> inception_4d/pool_proj (in-place)
I1126 15:25:02.417861 12182 net.cpp:150] Setting up inception_4d/prelu_pool_proj
I1126 15:25:02.417870 12182 net.cpp:157] Top shape: 50 64 14 14 (627200)
I1126 15:25:02.417873 12182 net.cpp:165] Memory required for data: 2390197808
I1126 15:25:02.417878 12182 layer_factory.hpp:76] Creating layer inception_4d/output
I1126 15:25:02.417886 12182 net.cpp:106] Creating Layer inception_4d/output
I1126 15:25:02.417891 12182 net.cpp:454] inception_4d/output <- inception_4d/1x1
I1126 15:25:02.417896 12182 net.cpp:454] inception_4d/output <- inception_4d/3x3
I1126 15:25:02.417901 12182 net.cpp:454] inception_4d/output <- inception_4d/5x5
I1126 15:25:02.417906 12182 net.cpp:454] inception_4d/output <- inception_4d/pool_proj
I1126 15:25:02.417915 12182 net.cpp:411] inception_4d/output -> inception_4d/output
I1126 15:25:02.417939 12182 net.cpp:150] Setting up inception_4d/output
I1126 15:25:02.417948 12182 net.cpp:157] Top shape: 50 528 14 14 (5174400)
I1126 15:25:02.417953 12182 net.cpp:165] Memory required for data: 2410895408
I1126 15:25:02.417956 12182 layer_factory.hpp:76] Creating layer inception_4d/output_inception_4d/output_0_split
I1126 15:25:02.417963 12182 net.cpp:106] Creating Layer inception_4d/output_inception_4d/output_0_split
I1126 15:25:02.417968 12182 net.cpp:454] inception_4d/output_inception_4d/output_0_split <- inception_4d/output
I1126 15:25:02.417973 12182 net.cpp:411] inception_4d/output_inception_4d/output_0_split -> inception_4d/output_inception_4d/output_0_split_0
I1126 15:25:02.417980 12182 net.cpp:411] inception_4d/output_inception_4d/output_0_split -> inception_4d/output_inception_4d/output_0_split_1
I1126 15:25:02.417987 12182 net.cpp:411] inception_4d/output_inception_4d/output_0_split -> inception_4d/output_inception_4d/output_0_split_2
I1126 15:25:02.417995 12182 net.cpp:411] inception_4d/output_inception_4d/output_0_split -> inception_4d/output_inception_4d/output_0_split_3
I1126 15:25:02.418001 12182 net.cpp:411] inception_4d/output_inception_4d/output_0_split -> inception_4d/output_inception_4d/output_0_split_4
I1126 15:25:02.418061 12182 net.cpp:150] Setting up inception_4d/output_inception_4d/output_0_split
I1126 15:25:02.418068 12182 net.cpp:157] Top shape: 50 528 14 14 (5174400)
I1126 15:25:02.418073 12182 net.cpp:157] Top shape: 50 528 14 14 (5174400)
I1126 15:25:02.418078 12182 net.cpp:157] Top shape: 50 528 14 14 (5174400)
I1126 15:25:02.418082 12182 net.cpp:157] Top shape: 50 528 14 14 (5174400)
I1126 15:25:02.418087 12182 net.cpp:157] Top shape: 50 528 14 14 (5174400)
I1126 15:25:02.418092 12182 net.cpp:165] Memory required for data: 2514383408
I1126 15:25:02.418095 12182 layer_factory.hpp:76] Creating layer loss2/ave_pool
I1126 15:25:02.418102 12182 net.cpp:106] Creating Layer loss2/ave_pool
I1126 15:25:02.418107 12182 net.cpp:454] loss2/ave_pool <- inception_4d/output_inception_4d/output_0_split_0
I1126 15:25:02.418112 12182 net.cpp:411] loss2/ave_pool -> loss2/ave_pool
I1126 15:25:02.418294 12182 net.cpp:150] Setting up loss2/ave_pool
I1126 15:25:02.418303 12182 net.cpp:157] Top shape: 50 528 4 4 (422400)
I1126 15:25:02.418308 12182 net.cpp:165] Memory required for data: 2516073008
I1126 15:25:02.418313 12182 layer_factory.hpp:76] Creating layer loss2/conv
I1126 15:25:02.418321 12182 net.cpp:106] Creating Layer loss2/conv
I1126 15:25:02.418326 12182 net.cpp:454] loss2/conv <- loss2/ave_pool
I1126 15:25:02.418334 12182 net.cpp:411] loss2/conv -> loss2/conv
I1126 15:25:02.419934 12182 cudnn_conv_layer.cpp:194] Reallocating workspace storage: 6840
I1126 15:25:02.419970 12182 net.cpp:150] Setting up loss2/conv
I1126 15:25:02.419978 12182 net.cpp:157] Top shape: 50 128 4 4 (102400)
I1126 15:25:02.419982 12182 net.cpp:165] Memory required for data: 2516482608
I1126 15:25:02.420001 12182 layer_factory.hpp:76] Creating layer loss2/prelu_conv
I1126 15:25:02.420012 12182 net.cpp:106] Creating Layer loss2/prelu_conv
I1126 15:25:02.420018 12182 net.cpp:454] loss2/prelu_conv <- loss2/conv
I1126 15:25:02.420027 12182 net.cpp:397] loss2/prelu_conv -> loss2/conv (in-place)
I1126 15:25:02.420127 12182 net.cpp:150] Setting up loss2/prelu_conv
I1126 15:25:02.420136 12182 net.cpp:157] Top shape: 50 128 4 4 (102400)
I1126 15:25:02.420140 12182 net.cpp:165] Memory required for data: 2516892208
I1126 15:25:02.420145 12182 layer_factory.hpp:76] Creating layer loss2/fc
I1126 15:25:02.420156 12182 net.cpp:106] Creating Layer loss2/fc
I1126 15:25:02.420159 12182 net.cpp:454] loss2/fc <- loss2/conv
I1126 15:25:02.420167 12182 net.cpp:411] loss2/fc -> loss2/fc
I1126 15:25:02.435698 12182 net.cpp:150] Setting up loss2/fc
I1126 15:25:02.435731 12182 net.cpp:157] Top shape: 50 1024 (51200)
I1126 15:25:02.435735 12182 net.cpp:165] Memory required for data: 2517097008
I1126 15:25:02.435765 12182 layer_factory.hpp:76] Creating layer loss2/prelu_fc
I1126 15:25:02.435789 12182 net.cpp:106] Creating Layer loss2/prelu_fc
I1126 15:25:02.435796 12182 net.cpp:454] loss2/prelu_fc <- loss2/fc
I1126 15:25:02.435804 12182 net.cpp:397] loss2/prelu_fc -> loss2/fc (in-place)
I1126 15:25:02.435921 12182 net.cpp:150] Setting up loss2/prelu_fc
I1126 15:25:02.435930 12182 net.cpp:157] Top shape: 50 1024 (51200)
I1126 15:25:02.435933 12182 net.cpp:165] Memory required for data: 2517301808
I1126 15:25:02.435940 12182 layer_factory.hpp:76] Creating layer loss2/drop_fc
I1126 15:25:02.435947 12182 net.cpp:106] Creating Layer loss2/drop_fc
I1126 15:25:02.435951 12182 net.cpp:454] loss2/drop_fc <- loss2/fc
I1126 15:25:02.435958 12182 net.cpp:397] loss2/drop_fc -> loss2/fc (in-place)
I1126 15:25:02.435981 12182 net.cpp:150] Setting up loss2/drop_fc
I1126 15:25:02.435987 12182 net.cpp:157] Top shape: 50 1024 (51200)
I1126 15:25:02.435991 12182 net.cpp:165] Memory required for data: 2517506608
I1126 15:25:02.435995 12182 layer_factory.hpp:76] Creating layer loss2/classifier2
I1126 15:25:02.436003 12182 net.cpp:106] Creating Layer loss2/classifier2
I1126 15:25:02.436007 12182 net.cpp:454] loss2/classifier2 <- loss2/fc
I1126 15:25:02.436015 12182 net.cpp:411] loss2/classifier2 -> loss2/classifier
I1126 15:25:02.436138 12182 net.cpp:150] Setting up loss2/classifier2
I1126 15:25:02.436146 12182 net.cpp:157] Top shape: 50 2 (100)
I1126 15:25:02.436151 12182 net.cpp:165] Memory required for data: 2517507008
I1126 15:25:02.436157 12182 layer_factory.hpp:76] Creating layer loss2/classifier_loss2/classifier2_0_split
I1126 15:25:02.436164 12182 net.cpp:106] Creating Layer loss2/classifier_loss2/classifier2_0_split
I1126 15:25:02.436168 12182 net.cpp:454] loss2/classifier_loss2/classifier2_0_split <- loss2/classifier
I1126 15:25:02.436174 12182 net.cpp:411] loss2/classifier_loss2/classifier2_0_split -> loss2/classifier_loss2/classifier2_0_split_0
I1126 15:25:02.436182 12182 net.cpp:411] loss2/classifier_loss2/classifier2_0_split -> loss2/classifier_loss2/classifier2_0_split_1
I1126 15:25:02.436214 12182 net.cpp:150] Setting up loss2/classifier_loss2/classifier2_0_split
I1126 15:25:02.436221 12182 net.cpp:157] Top shape: 50 2 (100)
I1126 15:25:02.436226 12182 net.cpp:157] Top shape: 50 2 (100)
I1126 15:25:02.436230 12182 net.cpp:165] Memory required for data: 2517507808
I1126 15:25:02.436234 12182 layer_factory.hpp:76] Creating layer loss2/loss
I1126 15:25:02.436241 12182 net.cpp:106] Creating Layer loss2/loss
I1126 15:25:02.436246 12182 net.cpp:454] loss2/loss <- loss2/classifier_loss2/classifier2_0_split_0
I1126 15:25:02.436251 12182 net.cpp:454] loss2/loss <- label_data_1_split_2
…
I1126 15:25:02.437098 12182 net.cpp:165] Memory required for data: 2517507816
I1126 15:25:02.437103 12182 layer_factory.hpp:76] Creating layer inception_4e/1x1
I1126 15:25:02.437114 12182 net.cpp:106] Creating Layer inception_4e/1x1
I1126 15:25:02.437119 12182 net.cpp:454] inception_4e/1x1 <- inception_4d/output_inception_4d/output_0_split_1
I1126 15:25:02.437127 12182 net.cpp:411] inception_4e/1x1 -> inception_4e/1x1
I1126 15:25:02.439388 12182 cudnn_conv_layer.cpp:194] Reallocating workspace storage: 10080
I1126 15:25:02.439442 12182 net.cpp:150] Setting up inception_4e/1x1
I1126 15:25:02.439452 12182 net.cpp:157] Top shape: 50 256 14 14 (2508800)
I1126 15:25:02.439457 12182 net.cpp:165] Memory required for data: 2527543016
I1126 15:25:02.439465 12182 layer_factory.hpp:76] Creating layer inception_4e/prelu_1x1
I1126 15:25:02.439482 12182 net.cpp:106] Creating Layer inception_4e/prelu_1x1
I1126 15:25:02.439488 12182 net.cpp:454] inception_4e/prelu_1x1 <- inception_4e/1x1
I1126 15:25:02.439504 12182 net.cpp:397] inception_4e/prelu_1x1 -> inception_4e/1x1 (in-place)
I1126 15:25:02.439630 12182 net.cpp:150] Setting up inception_4e/prelu_1x1
I1126 15:25:02.439640 12182 net.cpp:157] Top shape: 50 256 14 14 (2508800)
I1126 15:25:02.439645 12182 net.cpp:165] Memory required for data: 2537578216
I1126 15:25:02.439649 12182 layer_factory.hpp:76] Creating layer inception_4e/3x3_reduce
I1126 15:25:02.439658 12182 net.cpp:106] Creating Layer inception_4e/3x3_reduce
I1126 15:25:02.439662 12182 net.cpp:454] inception_4e/3x3_reduce <- inception_4d/output_inception_4d/output_0_split_2
I1126 15:25:02.439679 12182 net.cpp:411] inception_4e/3x3_reduce -> inception_4e/3x3_reduce
I1126 15:25:02.441395 12182 cudnn_conv_layer.cpp:194] Reallocating workspace storage: 10080
I1126 15:25:02.441436 12182 net.cpp:150] Setting up inception_4e/3x3_reduce
I1126 15:25:02.441444 12182 net.cpp:157] Top shape: 50 160 14 14 (1568000)
I1126 15:25:02.441448 12182 net.cpp:165] Memory required for data: 2543850216
I1126 15:25:02.441455 12182 layer_factory.hpp:76] Creating layer inception_4e/prelu_3x3_reduce
I1126 15:25:02.441467 12182 net.cpp:106] Creating Layer inception_4e/prelu_3x3_reduce
I1126 15:25:02.441472 12182 net.cpp:454] inception_4e/prelu_3x3_reduce <- inception_4e/3x3_reduce
I1126 15:25:02.441478 12182 net.cpp:397] inception_4e/prelu_3x3_reduce -> inception_4e/3x3_reduce (in-place)
I1126 15:25:02.441584 12182 net.cpp:150] Setting up inception_4e/prelu_3x3_reduce
I1126 15:25:02.441593 12182 net.cpp:157] Top shape: 50 160 14 14 (1568000)
I1126 15:25:02.441597 12182 net.cpp:165] Memory required for data: 2550122216
I1126 15:25:02.441603 12182 layer_factory.hpp:76] Creating layer inception_4e/3x3
I1126 15:25:02.441628 12182 net.cpp:106] Creating Layer inception_4e/3x3
I1126 15:25:02.441633 12182 net.cpp:454] inception_4e/3x3 <- inception_4e/3x3_reduce
I1126 15:25:02.441640 12182 net.cpp:411] inception_4e/3x3 -> inception_4e/3x3
I1126 15:25:02.446451 12182 cudnn_conv_layer.cpp:194] Reallocating workspace storage: 10080
I1126 15:25:02.446504 12182 net.cpp:150] Setting up inception_4e/3x3
I1126 15:25:02.446514 12182 net.cpp:157] Top shape: 50 320 14 14 (3136000)
I1126 15:25:02.446519 12182 net.cpp:165] Memory required for data: 2562666216
I1126 15:25:02.446529 12182 layer_factory.hpp:76] Creating layer inception_4e/prelu_3x3
I1126 15:25:02.446542 12182 net.cpp:106] Creating Layer inception_4e/prelu_3x3
I1126 15:25:02.446549 12182 net.cpp:454] inception_4e/prelu_3x3 <- inception_4e/3x3
I1126 15:25:02.446586 12182 net.cpp:397] inception_4e/prelu_3x3 -> inception_4e/3x3 (in-place)
I1126 15:25:02.447208 12182 net.cpp:150] Setting up inception_4e/prelu_3x3
I1126 15:25:02.447219 12182 net.cpp:157] Top shape: 50 320 14 14 (3136000)
I1126 15:25:02.447233 12182 net.cpp:165] Memory required for data: 2575210216
I1126 15:25:02.447239 12182 layer_factory.hpp:76] Creating layer inception_4e/5x5_reduce
I1126 15:25:02.447252 12182 net.cpp:106] Creating Layer inception_4e/5x5_reduce
I1126 15:25:02.447258 12182 net.cpp:454] inception_4e/5x5_reduce <- inception_4d/output_inception_4d/output_0_split_3
I1126 15:25:02.447268 12182 net.cpp:411] inception_4e/5x5_reduce -> inception_4e/5x5_reduce
I1126 15:25:02.448570 12182 cudnn_conv_layer.cpp:194] Reallocating workspace storage: 10080
I1126 15:25:02.448604 12182 net.cpp:150] Setting up inception_4e/5x5_reduce
I1126 15:25:02.448612 12182 net.cpp:157] Top shape: 50 32 14 14 (313600)
I1126 15:25:02.448617 12182 net.cpp:165] Memory required for data: 2576464616
I1126 15:25:02.448624 12182 layer_factory.hpp:76] Creating layer inception_4e/prelu_5x5_reduce
I1126 15:25:02.448634 12182 net.cpp:106] Creating Layer inception_4e/prelu_5x5_reduce
I1126 15:25:02.448639 12182 net.cpp:454] inception_4e/prelu_5x5_reduce <- inception_4e/5x5_reduce
I1126 15:25:02.448647 12182 net.cpp:397] inception_4e/prelu_5x5_reduce -> inception_4e/5x5_reduce (in-place)
I1126 15:25:02.448765 12182 net.cpp:150] Setting up inception_4e/prelu_5x5_reduce
I1126 15:25:02.448775 12182 net.cpp:157] Top shape: 50 32 14 14 (313600)
I1126 15:25:02.448778 12182 net.cpp:165] Memory required for data: 2577719016
I1126 15:25:02.448784 12182 layer_factory.hpp:76] Creating layer inception_4e/5x5
I1126 15:25:02.448793 12182 net.cpp:106] Creating Layer inception_4e/5x5
I1126 15:25:02.448798 12182 net.cpp:454] inception_4e/5x5 <- inception_4e/5x5_reduce
I1126 15:25:02.448807 12182 net.cpp:411] inception_4e/5x5 -> inception_4e/5x5
I1126 15:25:02.451117 12182 cudnn_conv_layer.cpp:194] Reallocating workspace storage: 13080
I1126 15:25:02.451158 12182 net.cpp:150] Setting up inception_4e/5x5
I1126 15:25:02.451167 12182 net.cpp:157] Top shape: 50 128 14 14 (1254400)
I1126 15:25:02.451171 12182 net.cpp:165] Memory required for data: 2582736616
I1126 15:25:02.451179 12182 layer_factory.hpp:76] Creating layer inception_4e/prelu_5x5
I1126 15:25:02.451191 12182 net.cpp:106] Creating Layer inception_4e/prelu_5x5
I1126 15:25:02.451197 12182 net.cpp:454] inception_4e/prelu_5x5 <- inception_4e/5x5
I1126 15:25:02.451206 12182 net.cpp:397] inception_4e/prelu_5x5 -> inception_4e/5x5 (in-place)
I1126 15:25:02.451305 12182 net.cpp:150] Setting up inception_4e/prelu_5x5
I1126 15:25:02.451313 12182 net.cpp:157] Top shape: 50 128 14 14 (1254400)
I1126 15:25:02.451318 12182 net.cpp:165] Memory required for data: 2587754216
I1126 15:25:02.451323 12182 layer_factory.hpp:76] Creating layer inception_4e/pool
I1126 15:25:02.451331 12182 net.cpp:106] Creating Layer inception_4e/pool
I1126 15:25:02.451335 12182 net.cpp:454] inception_4e/pool <- inception_4d/output_inception_4d/output_0_split_4
I1126 15:25:02.451344 12182 net.cpp:411] inception_4e/pool -> inception_4e/pool
I1126 15:25:02.451545 12182 net.cpp:150] Setting up inception_4e/pool
I1126 15:25:02.451555 12182 net.cpp:157] Top shape: 50 528 14 14 (5174400)
I1126 15:25:02.451558 12182 net.cpp:165] Memory required for data: 2608451816
I1126 15:25:02.451562 12182 layer_factory.hpp:76] Creating layer inception_4e/pool_proj
I1126 15:25:02.451571 12182 net.cpp:106] Creating Layer inception_4e/pool_proj
I1126 15:25:02.451576 12182 net.cpp:454] inception_4e/pool_proj <- inception_4e/pool
I1126 15:25:02.451586 12182 net.cpp:411] inception_4e/pool_proj -> inception_4e/pool_proj
I1126 15:25:02.453341 12182 cudnn_conv_layer.cpp:194] Reallocating workspace storage: 10080
I1126 15:25:02.453380 12182 net.cpp:150] Setting up inception_4e/pool_proj
I1126 15:25:02.453388 12182 net.cpp:157] Top shape: 50 128 14 14 (1254400)
I1126 15:25:02.453393 12182 net.cpp:165] Memory required for data: 2613469416
I1126 15:25:02.453400 12182 layer_factory.hpp:76] Creating layer inception_4e/prelu_pool_proj
I1126 15:25:02.453431 12182 net.cpp:106] Creating Layer inception_4e/prelu_pool_proj
I1126 15:25:02.453438 12182 net.cpp:454] inception_4e/prelu_pool_proj <- inception_4e/pool_proj
I1126 15:25:02.453444 12182 net.cpp:397] inception_4e/prelu_pool_proj -> inception_4e/pool_proj (in-place)
I1126 15:25:02.453546 12182 net.cpp:150] Setting up inception_4e/prelu_pool_proj
I1126 15:25:02.453553 12182 net.cpp:157] Top shape: 50 128 14 14 (1254400)
I1126 15:25:02.453557 12182 net.cpp:165] Memory required for data: 2618487016
I1126 15:25:02.453563 12182 layer_factory.hpp:76] Creating layer inception_4e/output
I1126 15:25:02.453572 12182 net.cpp:106] Creating Layer inception_4e/output
I1126 15:25:02.453577 12182 net.cpp:454] inception_4e/output <- inception_4e/1x1
I1126 15:25:02.453583 12182 net.cpp:454] inception_4e/output <- inception_4e/3x3
I1126 15:25:02.453588 12182 net.cpp:454] inception_4e/output <- inception_4e/5x5
I1126 15:25:02.453593 12182 net.cpp:454] inception_4e/output <- inception_4e/pool_proj
I1126 15:25:02.453598 12182 net.cpp:411] inception_4e/output -> inception_4e/output
I1126 15:25:02.453639 12182 net.cpp:150] Setting up inception_4e/output
I1126 15:25:02.453646 12182 net.cpp:157] Top shape: 50 832 14 14 (8153600)
I1126 15:25:02.453650 12182 net.cpp:165] Memory required for data: 2651101416
I1126 15:25:02.453655 12182 layer_factory.hpp:76] Creating layer pool4/3x3_s2
I1126 15:25:02.453662 12182 net.cpp:106] Creating Layer pool4/3x3_s2
I1126 15:25:02.453666 12182 net.cpp:454] pool4/3x3_s2 <- inception_4e/output
I1126 15:25:02.453673 12182 net.cpp:411] pool4/3x3_s2 -> pool4/3x3_s2
I1126 15:25:02.453879 12182 net.cpp:150] Setting up pool4/3x3_s2
I1126 15:25:02.453888 12182 net.cpp:157] Top shape: 50 832 7 7 (2038400)
I1126 15:25:02.453892 12182 net.cpp:165] Memory required for data: 2659255016
I1126 15:25:02.453896 12182 layer_factory.hpp:76] Creating layer pool4/3x3_s2_pool4/3x3_s2_0_split
I1126 15:25:02.453903 12182 net.cpp:106] Creating Layer pool4/3x3_s2_pool4/3x3_s2_0_split
I1126 15:25:02.453907 12182 net.cpp:454] pool4/3x3_s2_pool4/3x3_s2_0_split <- pool4/3x3_s2
I1126 15:25:02.453913 12182 net.cpp:411] pool4/3x3_s2_pool4/3x3_s2_0_split -> pool4/3x3_s2_pool4/3x3_s2_0_split_0
I1126 15:25:02.453922 12182 net.cpp:411] pool4/3x3_s2_pool4/3x3_s2_0_split -> pool4/3x3_s2_pool4/3x3_s2_0_split_1
I1126 15:25:02.453929 12182 net.cpp:411] pool4/3x3_s2_pool4/3x3_s2_0_split -> pool4/3x3_s2_pool4/3x3_s2_0_split_2
I1126 15:25:02.453936 12182 net.cpp:411] pool4/3x3_s2_pool4/3x3_s2_0_split -> pool4/3x3_s2_pool4/3x3_s2_0_split_3
I1126 15:25:02.453991 12182 net.cpp:150] Setting up pool4/3x3_s2_pool4/3x3_s2_0_split
I1126 15:25:02.453999 12182 net.cpp:157] Top shape: 50 832 7 7 (2038400)
I1126 15:25:02.454004 12182 net.cpp:157] Top shape: 50 832 7 7 (2038400)
I1126 15:25:02.454008 12182 net.cpp:157] Top shape: 50 832 7 7 (2038400)
I1126 15:25:02.454013 12182 net.cpp:157] Top shape: 50 832 7 7 (2038400)
I1126 15:25:02.454016 12182 net.cpp:165] Memory required for data: 2691869416
I1126 15:25:02.454020 12182 layer_factory.hpp:76] Creating layer inception_5a/1x1
I1126 15:25:02.454030 12182 net.cpp:106] Creating Layer inception_5a/1x1
I1126 15:25:02.454035 12182 net.cpp:454] inception_5a/1x1 <- pool4/3x3_s2_pool4/3x3_s2_0_split_0
I1126 15:25:02.454041 12182 net.cpp:411] inception_5a/1x1 -> inception_5a/1x1
I1126 15:25:02.457057 12182 cudnn_conv_layer.cpp:194] Reallocating workspace storage: 7428
I1126 15:25:02.457100 12182 net.cpp:150] Setting up inception_5a/1x1
I1126 15:25:02.457109 12182 net.cpp:157] Top shape: 50 256 7 7 (627200)
I1126 15:25:02.457114 12182 net.cpp:165] Memory required for data: 2694378216
I1126 15:25:02.457123 12182 layer_factory.hpp:76] Creating layer inception_5a/prelu_1x1
I1126 15:25:02.457131 12182 net.cpp:106] Creating Layer inception_5a/prelu_1x1
I1126 15:25:02.457137 12182 net.cpp:454] inception_5a/prelu_1x1 <- inception_5a/1x1
I1126 15:25:02.457146 12182 net.cpp:397] inception_5a/prelu_1x1 -> inception_5a/1x1 (in-place)
I1126 15:25:02.457243 12182 net.cpp:150] Setting up inception_5a/prelu_1x1
I1126 15:25:02.457267 12182 net.cpp:157] Top shape: 50 256 7 7 (627200)
I1126 15:25:02.457270 12182 net.cpp:165] Memory required for data: 2696887016
I1126 15:25:02.457276 12182 layer_factory.hpp:76] Creating layer inception_5a/3x3_reduce
I1126 15:25:02.457288 12182 net.cpp:106] Creating Layer inception_5a/3x3_reduce
I1126 15:25:02.457293 12182 net.cpp:454] inception_5a/3x3_reduce <- pool4/3x3_s2_pool4/3x3_s2_0_split_1
I1126 15:25:02.457301 12182 net.cpp:411] inception_5a/3x3_reduce -> inception_5a/3x3_reduce
I1126 15:25:02.459777 12182 cudnn_conv_layer.cpp:194] Reallocating workspace storage: 7428
I1126 15:25:02.459818 12182 net.cpp:150] Setting up inception_5a/3x3_reduce
I1126 15:25:02.459828 12182 net.cpp:157] Top shape: 50 160 7 7 (392000)
I1126 15:25:02.459833 12182 net.cpp:165] Memory required for data: 2698455016
I1126 15:25:02.459841 12182 layer_factory.hpp:76] Creating layer inception_5a/prelu_3x3_reduce
I1126 15:25:02.459849 12182 net.cpp:106] Creating Layer inception_5a/prelu_3x3_reduce
I1126 15:25:02.459856 12182 net.cpp:454] inception_5a/prelu_3x3_reduce <- inception_5a/3x3_reduce
I1126 15:25:02.459862 12182 net.cpp:397] inception_5a/prelu_3x3_reduce -> inception_5a/3x3_reduce (in-place)
I1126 15:25:02.459955 12182 net.cpp:150] Setting up inception_5a/prelu_3x3_reduce
I1126 15:25:02.459964 12182 net.cpp:157] Top shape: 50 160 7 7 (392000)
I1126 15:25:02.459967 12182 net.cpp:165] Memory required for data: 2700023016
I1126 15:25:02.459972 12182 layer_factory.hpp:76] Creating layer inception_5a/3x3
I1126 15:25:02.459983 12182 net.cpp:106] Creating Layer inception_5a/3x3
I1126 15:25:02.459988 12182 net.cpp:454] inception_5a/3x3 <- inception_5a/3x3_reduce
I1126 15:25:02.459996 12182 net.cpp:411] inception_5a/3x3 -> inception_5a/3x3
I1126 15:25:02.464946 12182 cudnn_conv_layer.cpp:194] Reallocating workspace storage: 7788
I1126 15:25:02.465018 12182 net.cpp:150] Setting up inception_5a/3x3
I1126 15:25:02.465039 12182 net.cpp:157] Top shape: 50 320 7 7 (784000)
I1126 15:25:02.465044 12182 net.cpp:165] Memory required for data: 2703159016
I1126 15:25:02.465054 12182 layer_factory.hpp:76] Creating layer inception_5a/prelu_3x3
I1126 15:25:02.465068 12182 net.cpp:106] Creating Layer inception_5a/prelu_3x3
I1126 15:25:02.465075 12182 net.cpp:454] inception_5a/prelu_3x3 <- inception_5a/3x3
I1126 15:25:02.465085 12182 net.cpp:397] inception_5a/prelu_3x3 -> inception_5a/3x3 (in-place)
I1126 15:25:02.465215 12182 net.cpp:150] Setting up inception_5a/prelu_3x3
I1126 15:25:02.465224 12182 net.cpp:157] Top shape: 50 320 7 7 (784000)
I1126 15:25:02.465229 12182 net.cpp:165] Memory required for data: 2706295016
I1126 15:25:02.465234 12182 layer_factory.hpp:76] Creating layer inception_5a/5x5_reduce
I1126 15:25:02.465245 12182 net.cpp:106] Creating Layer inception_5a/5x5_reduce
I1126 15:25:02.465250 12182 net.cpp:454] inception_5a/5x5_reduce <- pool4/3x3_s2_pool4/3x3_s2_0_split_2
I1126 15:25:02.465258 12182 net.cpp:411] inception_5a/5x5_reduce -> inception_5a/5x5_reduce
I1126 15:25:02.466570 12182 cudnn_conv_layer.cpp:194] Reallocating workspace storage: 7428
I1126 15:25:02.466603 12182 net.cpp:150] Setting up inception_5a/5x5_reduce
I1126 15:25:02.466611 12182 net.cpp:157] Top shape: 50 32 7 7 (78400)
I1126 15:25:02.466616 12182 net.cpp:165] Memory required for data: 2706608616
I1126 15:25:02.466624 12182 layer_factory.hpp:76] Creating layer inception_5a/prelu_5x5_reduce
I1126 15:25:02.466632 12182 net.cpp:106] Creating Layer inception_5a/prelu_5x5_reduce
I1126 15:25:02.466637 12182 net.cpp:454] inception_5a/prelu_5x5_reduce <- inception_5a/5x5_reduce
I1126 15:25:02.466645 12182 net.cpp:397] inception_5a/prelu_5x5_reduce -> inception_5a/5x5_reduce (in-place)
I1126 15:25:02.466744 12182 net.cpp:150] Setting up inception_5a/prelu_5x5_reduce
I1126 15:25:02.466753 12182 net.cpp:157] Top shape: 50 32 7 7 (78400)
I1126 15:25:02.466756 12182 net.cpp:165] Memory required for data: 2706922216
I1126 15:25:02.466761 12182 layer_factory.hpp:76] Creating layer inception_5a/5x5
I1126 15:25:02.466794 12182 net.cpp:106] Creating Layer inception_5a/5x5
I1126 15:25:02.466799 12182 net.cpp:454] inception_5a/5x5 <- inception_5a/5x5_reduce
I1126 15:25:02.466806 12182 net.cpp:411] inception_5a/5x5 -> inception_5a/5x5
I1126 15:25:02.468432 12182 cudnn_conv_layer.cpp:194] Reallocating workspace storage: 9804
I1126 15:25:02.468471 12182 net.cpp:150] Setting up inception_5a/5x5
I1126 15:25:02.468479 12182 net.cpp:157] Top shape: 50 128 7 7 (313600)
I1126 15:25:02.468483 12182 net.cpp:165] Memory required for data: 2708176616
I1126 15:25:02.468492 12182 layer_factory.hpp:76] Creating layer inception_5a/prelu_5x5
I1126 15:25:02.468502 12182 net.cpp:106] Creating Layer inception_5a/prelu_5x5
I1126 15:25:02.468508 12182 net.cpp:454] inception_5a/prelu_5x5 <- inception_5a/5x5
I1126 15:25:02.468513 12182 net.cpp:397] inception_5a/prelu_5x5 -> inception_5a/5x5 (in-place)
I1126 15:25:02.468629 12182 net.cpp:150] Setting up inception_5a/prelu_5x5
I1126 15:25:02.468638 12182 net.cpp:157] Top shape: 50 128 7 7 (313600)
I1126 15:25:02.468642 12182 net.cpp:165] Memory required for data: 2709431016
I1126 15:25:02.468648 12182 layer_factory.hpp:76] Creating layer inception_5a/pool
I1126 15:25:02.468657 12182 net.cpp:106] Creating Layer inception_5a/pool
I1126 15:25:02.468662 12182 net.cpp:454] inception_5a/pool <- pool4/3x3_s2_pool4/3x3_s2_0_split_3
I1126 15:25:02.468668 12182 net.cpp:411] inception_5a/pool -> inception_5a/pool
I1126 15:25:02.469104 12182 net.cpp:150] Setting up inception_5a/pool
I1126 15:25:02.469115 12182 net.cpp:157] Top shape: 50 832 7 7 (2038400)
I1126 15:25:02.469120 12182 net.cpp:165] Memory required for data: 2717584616
I1126 15:25:02.469125 12182 layer_factory.hpp:76] Creating layer inception_5a/pool_proj
I1126 15:25:02.469135 12182 net.cpp:106] Creating Layer inception_5a/pool_proj
I1126 15:25:02.469140 12182 net.cpp:454] inception_5a/pool_proj <- inception_5a/pool
I1126 15:25:02.469148 12182 net.cpp:411] inception_5a/pool_proj -> inception_5a/pool_proj
I1126 15:25:02.471566 12182 cudnn_conv_layer.cpp:194] Reallocating workspace storage: 7428
I1126 15:25:02.471614 12182 net.cpp:150] Setting up inception_5a/pool_proj
I1126 15:25:02.471624 12182 net.cpp:157] Top shape: 50 128 7 7 (313600)
I1126 15:25:02.471629 12182 net.cpp:165] Memory required for data: 2718839016
I1126 15:25:02.471638 12182 layer_factory.hpp:76] Creating layer inception_5a/prelu_pool_proj
I1126 15:25:02.471648 12182 net.cpp:106] Creating Layer inception_5a/prelu_pool_proj
I1126 15:25:02.471654 12182 net.cpp:454] inception_5a/prelu_pool_proj <- inception_5a/pool_proj
I1126 15:25:02.471663 12182 net.cpp:397] inception_5a/prelu_pool_proj -> inception_5a/pool_proj (in-place)
I1126 15:25:02.471757 12182 net.cpp:150] Setting up inception_5a/prelu_pool_proj
I1126 15:25:02.471766 12182 net.cpp:157] Top shape: 50 128 7 7 (313600)
I1126 15:25:02.471771 12182 net.cpp:165] Memory required for data: 2720093416
I1126 15:25:02.471776 12182 layer_factory.hpp:76] Creating layer inception_5a/output
I1126 15:25:02.471783 12182 net.cpp:106] Creating Layer inception_5a/output
I1126 15:25:02.471788 12182 net.cpp:454] inception_5a/output <- inception_5a/1x1
I1126 15:25:02.471794 12182 net.cpp:454] inception_5a/output <- inception_5a/3x3
I1126 15:25:02.471799 12182 net.cpp:454] inception_5a/output <- inception_5a/5x5
I1126 15:25:02.471804 12182 net.cpp:454] inception_5a/output <- inception_5a/pool_proj
I1126 15:25:02.471810 12182 net.cpp:411] inception_5a/output -> inception_5a/output
I1126 15:25:02.471837 12182 net.cpp:150] Setting up inception_5a/output
I1126 15:25:02.471844 12182 net.cpp:157] Top shape: 50 832 7 7 (2038400)
I1126 15:25:02.471848 12182 net.cpp:165] Memory required for data: 2728247016
I1126 15:25:02.471853 12182 layer_factory.hpp:76] Creating layer inception_5a/output_inception_5a/output_0_split
I1126 15:25:02.471860 12182 net.cpp:106] Creating Layer inception_5a/output_inception_5a/output_0_split
I1126 15:25:02.471865 12182 net.cpp:454] inception_5a/output_inception_5a/output_0_split <- inception_5a/output
I1126 15:25:02.471873 12182 net.cpp:411] inception_5a/output_inception_5a/output_0_split -> inception_5a/output_inception_5a/output_0_split_0
I1126 15:25:02.471901 12182 net.cpp:411] inception_5a/output_inception_5a/output_0_split -> inception_5a/output_inception_5a/output_0_split_1
I1126 15:25:02.471909 12182 net.cpp:411] inception_5a/output_inception_5a/output_0_split -> inception_5a/output_inception_5a/output_0_split_2
I1126 15:25:02.471917 12182 net.cpp:411] inception_5a/output_inception_5a/output_0_split -> inception_5a/output_inception_5a/output_0_split_3
I1126 15:25:02.471976 12182 net.cpp:150] Setting up inception_5a/output_inception_5a/output_0_split
I1126 15:25:02.471982 12182 net.cpp:157] Top shape: 50 832 7 7 (2038400)
I1126 15:25:02.471988 12182 net.cpp:157] Top shape: 50 832 7 7 (2038400)
I1126 15:25:02.471993 12182 net.cpp:157] Top shape: 50 832 7 7 (2038400)
I1126 15:25:02.471998 12182 net.cpp:157] Top shape: 50 832 7 7 (2038400)
I1126 15:25:02.472002 12182 net.cpp:165] Memory required for data: 2760861416
I1126 15:25:02.472007 12182 layer_factory.hpp:76] Creating layer inception_5b/1x1
I1126 15:25:02.472017 12182 net.cpp:106] Creating Layer inception_5b/1x1
I1126 15:25:02.472021 12182 net.cpp:454] inception_5b/1x1 <- inception_5a/output_inception_5a/output_0_split_0
I1126 15:25:02.472028 12182 net.cpp:411] inception_5b/1x1 -> inception_5b/1x1
I1126 15:25:02.475869 12182 cudnn_conv_layer.cpp:194] Reallocating workspace storage: 7428
I1126 15:25:02.475929 12182 net.cpp:150] Setting up inception_5b/1x1
I1126 15:25:02.475939 12182 net.cpp:157] Top shape: 50 384 7 7 (940800)
I1126 15:25:02.475944 12182 net.cpp:165] Memory required for data: 2764624616
I1126 15:25:02.475953 12182 layer_factory.hpp:76] Creating layer inception_5b/prelu_1x1
I1126 15:25:02.475965 12182 net.cpp:106] Creating Layer inception_5b/prelu_1x1
I1126 15:25:02.475972 12182 net.cpp:454] inception_5b/prelu_1x1 <- inception_5b/1x1
I1126 15:25:02.475980 12182 net.cpp:397] inception_5b/prelu_1x1 -> inception_5b/1x1 (in-place)
I1126 15:25:02.476100 12182 net.cpp:150] Setting up inception_5b/prelu_1x1
I1126 15:25:02.476109 12182 net.cpp:157] Top shape: 50 384 7 7 (940800)
I1126 15:25:02.476112 12182 net.cpp:165] Memory required for data: 2768387816
I1126 15:25:02.476119 12182 layer_factory.hpp:76] Creating layer inception_5b/3x3_reduce
I1126 15:25:02.476130 12182 net.cpp:106] Creating Layer inception_5b/3x3_reduce
I1126 15:25:02.476136 12182 net.cpp:454] inception_5b/3x3_reduce <- inception_5a/output_inception_5a/output_0_split_1
I1126 15:25:02.476143 12182 net.cpp:411] inception_5b/3x3_reduce -> inception_5b/3x3_reduce
I1126 15:25:02.478785 12182 cudnn_conv_layer.cpp:194] Reallocating workspace storage: 7428
I1126 15:25:02.478827 12182 net.cpp:150] Setting up inception_5b/3x3_reduce
I1126 15:25:02.478835 12182 net.cpp:157] Top shape: 50 192 7 7 (470400)
I1126 15:25:02.478840 12182 net.cpp:165] Memory required for data: 2770269416
I1126 15:25:02.478847 12182 layer_factory.hpp:76] Creating layer inception_5b/prelu_3x3_reduce
I1126 15:25:02.478860 12182 net.cpp:106] Creating Layer inception_5b/prelu_3x3_reduce
I1126 15:25:02.478868 12182 net.cpp:454] inception_5b/prelu_3x3_reduce <- inception_5b/3x3_reduce
I1126 15:25:02.478874 12182 net.cpp:397] inception_5b/prelu_3x3_reduce -> inception_5b/3x3_reduce (in-place)
I1126 15:25:02.478971 12182 net.cpp:150] Setting up inception_5b/prelu_3x3_reduce
I1126 15:25:02.478979 12182 net.cpp:157] Top shape: 50 192 7 7 (470400)
I1126 15:25:02.478983 12182 net.cpp:165] Memory required for data: 2772151016
I1126 15:25:02.478989 12182 layer_factory.hpp:76] Creating layer inception_5b/3x3
I1126 15:25:02.478999 12182 net.cpp:106] Creating Layer inception_5b/3x3
I1126 15:25:02.479004 12182 net.cpp:454] inception_5b/3x3 <- inception_5b/3x3_reduce
I1126 15:25:02.479012 12182 net.cpp:411] inception_5b/3x3 -> inception_5b/3x3
I1126 15:25:02.485519 12182 cudnn_conv_layer.cpp:194] Reallocating workspace storage: 7788
I1126 15:25:02.485582 12182 net.cpp:150] Setting up inception_5b/3x3
I1126 15:25:02.485605 12182 net.cpp:157] Top shape: 50 384 7 7 (940800)
I1126 15:25:02.485637 12182 net.cpp:165] Memory required for data: 2775914216
I1126 15:25:02.485648 12182 layer_factory.hpp:76] Creating layer inception_5b/prelu_3x3
I1126 15:25:02.485662 12182 net.cpp:106] Creating Layer inception_5b/prelu_3x3
I1126 15:25:02.485671 12182 net.cpp:454] inception_5b/prelu_3x3 <- inception_5b/3x3
I1126 15:25:02.485678 12182 net.cpp:397] inception_5b/prelu_3x3 -> inception_5b/3x3 (in-place)
I1126 15:25:02.485812 12182 net.cpp:150] Setting up inception_5b/prelu_3x3
I1126 15:25:02.485821 12182 net.cpp:157] Top shape: 50 384 7 7 (940800)
I1126 15:25:02.485826 12182 net.cpp:165] Memory required for data: 2779677416
I1126 15:25:02.485831 12182 layer_factory.hpp:76] Creating layer inception_5b/5x5_reduce
I1126 15:25:02.485842 12182 net.cpp:106] Creating Layer inception_5b/5x5_reduce
I1126 15:25:02.485848 12182 net.cpp:454] inception_5b/5x5_reduce <- inception_5a/output_inception_5a/output_0_split_2
I1126 15:25:02.485857 12182 net.cpp:411] inception_5b/5x5_reduce -> inception_5b/5x5_reduce
I1126 15:25:02.487741 12182 cudnn_conv_layer.cpp:194] Reallocating workspace storage: 7428
I1126 15:25:02.487776 12182 net.cpp:150] Setting up inception_5b/5x5_reduce
I1126 15:25:02.487785 12182 net.cpp:157] Top shape: 50 48 7 7 (117600)
I1126 15:25:02.487790 12182 net.cpp:165] Memory required for data: 2780147816
I1126 15:25:02.487797 12182 layer_factory.hpp:76] Creating layer inception_5b/prelu_5x5_reduce
I1126 15:25:02.487804 12182 net.cpp:106] Creating Layer inception_5b/prelu_5x5_reduce
I1126 15:25:02.487810 12182 net.cpp:454] inception_5b/prelu_5x5_reduce <- inception_5b/5x5_reduce
I1126 15:25:02.487818 12182 net.cpp:397] inception_5b/prelu_5x5_reduce -> inception_5b/5x5_reduce (in-place)
I1126 15:25:02.487936 12182 net.cpp:150] Setting up inception_5b/prelu_5x5_reduce
I1126 15:25:02.487943 12182 net.cpp:157] Top shape: 50 48 7 7 (117600)
I1126 15:25:02.487947 12182 net.cpp:165] Memory required for data: 2780618216
I1126 15:25:02.487953 12182 layer_factory.hpp:76] Creating layer inception_5b/5x5
I1126 15:25:02.487963 12182 net.cpp:106] Creating Layer inception_5b/5x5
I1126 15:25:02.487968 12182 net.cpp:454] inception_5b/5x5 <- inception_5b/5x5_reduce
I1126 15:25:02.487975 12182 net.cpp:411] inception_5b/5x5 -> inception_5b/5x5
I1126 15:25:02.490327 12182 cudnn_conv_layer.cpp:194] Reallocating workspace storage: 9804
I1126 15:25:02.490371 12182 net.cpp:150] Setting up inception_5b/5x5
I1126 15:25:02.490381 12182 net.cpp:157] Top shape: 50 128 7 7 (313600)
I1126 15:25:02.490386 12182 net.cpp:165] Memory required for data: 2781872616
I1126 15:25:02.490394 12182 layer_factory.hpp:76] Creating layer inception_5b/prelu_5x5
I1126 15:25:02.490403 12182 net.cpp:106] Creating Layer inception_5b/prelu_5x5
I1126 15:25:02.490408 12182 net.cpp:454] inception_5b/prelu_5x5 <- inception_5b/5x5
I1126 15:25:02.490417 12182 net.cpp:397] inception_5b/prelu_5x5 -> inception_5b/5x5 (in-place)
I1126 15:25:02.490520 12182 net.cpp:150] Setting up inception_5b/prelu_5x5
I1126 15:25:02.490528 12182 net.cpp:157] Top shape: 50 128 7 7 (313600)
I1126 15:25:02.490532 12182 net.cpp:165] Memory required for data: 2783127016
I1126 15:25:02.490538 12182 layer_factory.hpp:76] Creating layer inception_5b/pool
I1126 15:25:02.490546 12182 net.cpp:106] Creating Layer inception_5b/pool
I1126 15:25:02.490551 12182 net.cpp:454] inception_5b/pool <- inception_5a/output_inception_5a/output_0_split_3
I1126 15:25:02.490557 12182 net.cpp:411] inception_5b/pool -> inception_5b/pool
I1126 15:25:02.490773 12182 net.cpp:150] Setting up inception_5b/pool
I1126 15:25:02.490783 12182 net.cpp:157] Top shape: 50 832 7 7 (2038400)
I1126 15:25:02.490787 12182 net.cpp:165] Memory required for data: 2791280616
I1126 15:25:02.490792 12182 layer_factory.hpp:76] Creating layer inception_5b/pool_proj
I1126 15:25:02.490802 12182 net.cpp:106] Creating Layer inception_5b/pool_proj
I1126 15:25:02.490806 12182 net.cpp:454] inception_5b/pool_proj <- inception_5b/pool
I1126 15:25:02.490815 12182 net.cpp:411] inception_5b/pool_proj -> inception_5b/pool_proj
I1126 15:25:02.493481 12182 cudnn_conv_layer.cpp:194] Reallocating workspace storage: 7428
I1126 15:25:02.493561 12182 net.cpp:150] Setting up inception_5b/pool_proj
I1126 15:25:02.493571 12182 net.cpp:157] Top shape: 50 128 7 7 (313600)
I1126 15:25:02.493577 12182 net.cpp:165] Memory required for data: 2792535016
I1126 15:25:02.493585 12182 layer_factory.hpp:76] Creating layer inception_5b/prelu_pool_proj
I1126 15:25:02.493600 12182 net.cpp:106] Creating Layer inception_5b/prelu_pool_proj
I1126 15:25:02.493607 12182 net.cpp:454] inception_5b/prelu_pool_proj <- inception_5b/pool_proj
I1126 15:25:02.493618 12182 net.cpp:397] inception_5b/prelu_pool_proj -> inception_5b/pool_proj (in-place)
I1126 15:25:02.493723 12182 net.cpp:150] Setting up inception_5b/prelu_pool_proj
I1126 15:25:02.493732 12182 net.cpp:157] Top shape: 50 128 7 7 (313600)
I1126 15:25:02.493736 12182 net.cpp:165] Memory required for data: 2793789416
I1126 15:25:02.493741 12182 layer_factory.hpp:76] Creating layer inception_5b/output
I1126 15:25:02.493752 12182 net.cpp:106] Creating Layer inception_5b/output
I1126 15:25:02.493757 12182 net.cpp:454] inception_5b/output <- inception_5b/1x1
I1126 15:25:02.493762 12182 net.cpp:454] inception_5b/output <- inception_5b/3x3
I1126 15:25:02.493768 12182 net.cpp:454] inception_5b/output <- inception_5b/5x5
I1126 15:25:02.493772 12182 net.cpp:454] inception_5b/output <- inception_5b/pool_proj
I1126 15:25:02.493782 12182 net.cpp:411] inception_5b/output -> inception_5b/output
I1126 15:25:02.493811 12182 net.cpp:150] Setting up inception_5b/output
I1126 15:25:02.493818 12182 net.cpp:157] Top shape: 50 1024 7 7 (2508800)
I1126 15:25:02.493823 12182 net.cpp:165] Memory required for data: 2803824616
I1126 15:25:02.493827 12182 layer_factory.hpp:76] Creating layer pool5/7x7_s1
I1126 15:25:02.493834 12182 net.cpp:106] Creating Layer pool5/7x7_s1
I1126 15:25:02.493839 12182 net.cpp:454] pool5/7x7_s1 <- inception_5b/output
I1126 15:25:02.493845 12182 net.cpp:411] pool5/7x7_s1 -> pool5/7x7_s1
I1126 15:25:02.494436 12182 net.cpp:150] Setting up pool5/7x7_s1
I1126 15:25:02.494449 12182 net.cpp:157] Top shape: 50 1024 1 1 (51200)
I1126 15:25:02.494454 12182 net.cpp:165] Memory required for data: 2804029416
I1126 15:25:02.494459 12182 layer_factory.hpp:76] Creating layer pool5/drop_7x7_s1
I1126 15:25:02.494467 12182 net.cpp:106] Creating Layer pool5/drop_7x7_s1
I1126 15:25:02.494480 12182 net.cpp:454] pool5/drop_7x7_s1 <- pool5/7x7_s1
I1126 15:25:02.494488 12182 net.cpp:397] pool5/drop_7x7_s1 -> pool5/7x7_s1 (in-place)
I1126 15:25:02.494514 12182 net.cpp:150] Setting up pool5/drop_7x7_s1
I1126 15:25:02.494523 12182 net.cpp:157] Top shape: 50 1024 1 1 (51200)
I1126 15:25:02.494525 12182 net.cpp:165] Memory required for data: 2804234216
I1126 15:25:02.494530 12182 layer_factory.hpp:76] Creating layer loss3/classifier2
I1126 15:25:02.494539 12182 net.cpp:106] Creating Layer loss3/classifier2
I1126 15:25:02.494544 12182 net.cpp:454] loss3/classifier2 <- pool5/7x7_s1
I1126 15:25:02.494551 12182 net.cpp:411] loss3/classifier2 -> loss3/classifier
I1126 15:25:02.494714 12182 net.cpp:150] Setting up loss3/classifier2
I1126 15:25:02.494722 12182 net.cpp:157] Top shape: 50 2 (100)
I1126 15:25:02.494726 12182 net.cpp:165] Memory required for data: 2804234616
I1126 15:25:02.494734 12182 layer_factory.hpp:76] Creating layer loss3/classifier_loss3/classifier2_0_split
I1126 15:25:02.494740 12182 net.cpp:106] Creating Layer loss3/classifier_loss3/classifier2_0_split
I1126 15:25:02.494745 12182 net.cpp:454] loss3/classifier_loss3/classifier2_0_split <- loss3/classifier
I1126 15:25:02.494751 12182 net.cpp:411] loss3/classifier_loss3/classifier2_0_split -> loss3/classifier_loss3/classifier2_0_split_0
I1126 15:25:02.494758 12182 net.cpp:411] loss3/classifier_loss3/classifier2_0_split -> loss3/classifier_loss3/classifier2_0_split_1
I1126 15:25:02.494801 12182 net.cpp:150] Setting up loss3/classifier_loss3/classifier2_0_split
I1126 15:25:02.494808 12182 net.cpp:157] Top shape: 50 2 (100)
I1126 15:25:02.494813 12182 net.cpp:157] Top shape: 50 2 (100)
I1126 15:25:02.494817 12182 net.cpp:165] Memory required for data: 2804235416
I1126 15:25:02.494834 12182 layer_factory.hpp:76] Creating layer loss3/loss3
I1126 15:25:02.494843 12182 net.cpp:106] Creating Layer loss3/loss3
I1126 15:25:02.494848 12182 net.cpp:454] loss3/loss3 <- loss3/classifier_loss3/classifier2_0_split_0
I1126 15:25:02.494853 12182 net.cpp:454] loss3/loss3 <- label_data_1_split_4
…
