…
I1028 13:18:28.779678 28115 net.cpp:322] The NetState phase (0) differed from the phase (1) specified by a rule in layer loss3/top-1
I1028 13:18:28.780635 28115 net.cpp:49] Initializing net from parameters: 
name: "GoogleNet"
state {
  phase: TRAIN
}
layer {
  name: "data"
  type: "Data"
  top: "data"
  top: "label"
  include {
    phase: TRAIN
  }
  transform_param {
    mirror: true
    crop_size: 224
    mean_value: 104
    mean_value: 117
    mean_value: 123
  }
  data_param {
    source: "../../LMDB/train_2-lmdb"
    batch_size: 32
    backend: LMDB
  }
}
layer {
  name: "conv1/7x7_s2"
  type: "Convolution"
  bottom: "data"
  top: "conv1/7x7_s2"
  param {
    lr_mult: 1
    decay_mult: 1
  }
  param {
    lr_mult: 2
    decay_mult: 0
  }
  convolution_param {
    num_output: 64
    pad: 3
    kernel_size: 7
    stride: 2
    weight_filler {
      type: "xavier"
    }
    bias_filler {
      type: "constant"
      value: 0.2
    }
  }
}
layer {
  name: "conv1/prelu_7x7"
  type: "PReLU"
  bottom: "conv1/7x7_s2"
  top: "conv1/7x7_s2"
  param {
    lr_mult: 1
    decay_mult: 0
  }
  prelu_param {
    filler {
      type: "constant"
      value: 0.01
    }
  }
}
layer {
  name: "pool1/3x3_s2"
  type: "Pooling"
  bottom: "conv1/7x7_s2"
  top: "pool1/3x3_s2"
  pooling_param {
    pool: MAX
    kernel_size: 3
    stride: 2
  }
}
layer {
  name: "pool1/norm1"
  type: "LRN"
  bottom: "pool1/3x3_s2"
  top: "pool1/norm1"
  lrn_param {
    local_size: 5
    alpha: 0.0001
    beta: 0.75
  }
}
layer {
  name: "conv2/3x3_reduce"
  type: "Convolution"
  bottom: "pool1/norm1"
  top: "conv2/3x3_reduce"
  param {
    lr_mult: 1
    decay_mult: 1
  }
  param {
    lr_mult: 2
    decay_mult: 0
  }
  convolution_param {
    num_output: 64
    kernel_size: 1
    weight_filler {
      type: "xavier"
    }
    bias_filler {
      type: "constant"
      value: 0.2
    }
  }
}
layer {
  name: "conv2/prelu_3x3_reduce"
  type: "PReLU"
  bottom: "conv2/3x3_reduce"
  top: "conv2/3x3_reduce"
  param {
    lr_mult: 1
    decay_mult: 0
  }
  prelu_param {
    filler {
      type: "constant"
      value: 0.01
    }
  }
}
layer {
  name: "conv2/3x3"
  type: "Convolution"
  bottom: "conv2/3x3_reduce"
  top: "conv2/3x3"
  param {
    lr_mult: 1
    decay_mult: 1
  }
  param {
    lr_mult: 2
    decay_mult: 0
  }
  convolution_param {
    num_output: 192
    pad: 1
    kernel_size: 3
    weight_filler {
      type: "xavier"
    }
    bias_filler {
      type: "constant"
      value: 0.2
    }
  }
}
layer {
  name: "conv2/prelu_3x3"
  type: "PReLU"
  bottom: "conv2/3x3"
  top: "conv2/3x3"
  param {
    lr_mult: 1
    decay_mult: 0
  }
  prelu_param {
    filler {
      type: "constant"
      value: 0.01
    }
  }
}
layer {
  name: "conv2/norm2"
  type: "LRN"
  bottom: "conv2/3x3"
  top: "conv2/norm2"
  lrn_param {
    local_size: 5
    alpha: 0.0001
    beta: 0.75
  }
}
layer {
  name: "pool2/3x3_s2"
  type: "Pooling"
  bottom: "conv2/norm2"
  top: "pool2/3x3_s2"
  pooling_param {
    pool: MAX
    kernel_size: 3
    stride: 2
  }
}
layer {
  name: "inception_3a/1x1"
  type: "Convolution"
  bottom: "pool2/3x3_s2"
  top: "inception_3a/1x1"
  param {
    lr_mult: 1
    decay_mult: 1
  }
  param {
    lr_mult: 2
    decay_mult: 0
  }
  convolution_param {
    num_output: 64
    kernel_size: 1
    weight_filler {
      type: "xavier"
    }
    bias_filler {
      type: "constant"
      value: 0.2
    }
  }
}
layer {
  name: "inception_3a/prelu_1x1"
  type: "PReLU"
  bottom: "inception_3a/1x1"
  top: "inception_3a/1x1"
  param {
    lr_mult: 1
    decay_mult: 0
  }
  prelu_param {
    filler {
      type: "constant"
      value: 0.01
    }
  }
}
layer {
  name: "inception_3a/3x3_reduce"
  type: "Convolution"
  bottom: "pool2/3x3_s2"
  top: "inception_3a/3x3_reduce"
  param {
    lr_mult: 1
    decay_mult: 1
  }
  param {
    lr_mult: 2
    decay_mult: 0
  }
  convolution_param {
    num_output: 96
    kernel_size: 1
    weight_filler {
      type: "xavier"
    }
    bias_filler {
      type: "constant"
      value: 0.2
    }
  }
}
layer {
  name: "inception_3a/prelu_3x3_reduce"
  type: "PReLU"
  bottom: "inception_3a/3x3_reduce"
  top: "inception_3a/3x3_reduce"
  param {
    lr_mult: 1
    decay_mult: 0
  }
  prelu_param {
    filler {
      type: "constant"
      value: 0.01
    }
  }
}
layer {
  name: "inception_3a/3x3"
  type: "Convolution"
  bottom: "inception_3a/3x3_reduce"
  top: "inception_3a/3x3"
  param {
    lr_mult: 1
    decay_mult: 1
  }
  param {
    lr_mult: 2
    decay_mult: 0
  }
  convolution_param {
    num_output: 128
    pad: 1
    kernel_size: 3
    weight_filler {
      type: "xavier"
    }
    bias_filler {
      type: "constant"
      value: 0.2
    }
  }
}
layer {
  name: "inception_3a/prelu_3x3"
  type: "PReLU"
  bottom: "inception_3a/3x3"
  top: "inception_3a/3x3"
  param {
    lr_mult: 1
    decay_mult: 0
  }
  prelu_param {
    filler {
      type: "constant"
      value: 0.01
    }
  }
}
layer {
  name: "inception_3a/5x5_reduce"
  type: "Convolution"
  bottom: "pool2/3x3_s2"
  top: "inception_3a/5x5_reduce"
  param {
    lr_mult: 1
    decay_mult: 1
  }
  param {
    lr_mult: 2
    decay_mult: 0
  }
  convolution_param {
    num_output: 16
    kernel_size: 1
    weight_filler {
      type: "xavier"
    }
    bias_filler {
      type: "constant"
      value: 0.2
    }
  }
}
layer {
  name: "inception_3a/prelu_5x5_reduce"
  type: "PReLU"
  bottom: "inception_3a/5x5_reduce"
  top: "inception_3a/5x5_reduce"
  param {
    lr_mult: 1
    decay_mult: 0
  }
  prelu_param {
    filler {
      type: "constant"
      value: 0.01
    }
  }
}
layer {
  name: "inception_3a/5x5"
  type: "Convolution"
  bottom: "inception_3a/5x5_reduce"
  top: "inception_3a/5x5"
  param {
    lr_mult: 1
    decay_mult: 1
  }
  param {
    lr_mult: 2
    decay_mult: 0
  }
  convolution_param {
    num_output: 32
    pad: 2
    kernel_size: 5
    weight_filler {
      type: "xavier"
    }
    bias_filler {
      type: "constant"
      value: 0.2
    }
  }
}
layer {
  name: "inception_3a/prelu_5x5"
  type: "PReLU"
  bottom: "inception_3a/5x5"
  top: "inception_3a/5x5"
  param {
    lr_mult: 1
    decay_mult: 0
  }
  prelu_param {
    filler {
      type: "constant"
      value: 0.01
    }
  }
}
layer {
  name: "inception_3a/pool"
  type: "Pooling"
  bottom: "pool2/3x3_s2"
  top: "inception_3a/pool"
  pooling_param {
    pool: MAX
    kernel_size: 3
    stride: 1
    pad: 1
  }
}
layer {
  name: "inception_3a/pool_proj"
  type: "Convolution"
  bottom: "inception_3a/pool"
  top: "inception_3a/pool_proj"
  param {
    lr_mult: 1
    decay_mult: 1
  }
  param {
    lr_mult: 2
    decay_mult: 0
  }
  convolution_param {
    num_output: 32
    kernel_size: 1
    weight_filler {
      type: "xavier"
    }
    bias_filler {
      type: "constant"
      value: 0.2
    }
  }
}
layer {
  name: "inception_3a/prelu_pool_proj"
  type: "PReLU"
  bottom: "inception_3a/pool_proj"
  top: "inception_3a/pool_proj"
  param {
    lr_mult: 1
    decay_mult: 0
  }
  prelu_param {
    filler {
      type: "constant"
      value: 0.01
    }
  }
}
layer {
  name: "inception_3a/output"
  type: "Concat"
  bottom: "inception_3a/1x1"
  bottom: "inception_3a/3x3"
  bottom: "inception_3a/5x5"
  bottom: "inception_3a/pool_proj"
  top: "inception_3a/output"
}
layer {
  name: "inception_3b/1x1"
  type: "Convolution"
  bottom: "inception_3a/output"
  top: "inception_3b/1x1"
  param {
    lr_mult: 1
    decay_mult: 1
  }
  param {
    lr_mult: 2
    decay_mult: 0
  }
  convolution_param {
    num_output: 128
    kernel_size: 1
    weight_filler {
      type: "xavier"
    }
    bias_filler {
      type: "constant"
      value: 0.2
    }
  }
}
layer {
  name: "inception_3b/prelu_1x1"
  type: "PReLU"
  bottom: "inception_3b/1x1"
  top: "inception_3b/1x1"
  param {
    lr_mult: 1
    decay_mult: 0
  }
  prelu_param {
    filler {
      type: "constant"
      value: 0.01
    }
  }
}
layer {
  name: "inception_3b/3x3_reduce"
  type: "Convolution"
  bottom: "inception_3a/output"
  top: "inception_3b/3x3_reduce"
  param {
    lr_mult: 1
    decay_mult: 1
  }
  param {
    lr_mult: 2
    decay_mult: 0
  }
  convolution_param {
    num_output: 128
    kernel_size: 1
    weight_filler {
      type: "xavier"
    }
    bias_filler {
      type: "constant"
      value: 0.2
    }
  }
}
layer {
  name: "inception_3b/prelu_3x3_reduce"
  type: "PReLU"
  bottom: "inception_3b/3x3_reduce"
  top: "inception_3b/3x3_reduce"
  param {
    lr_mult: 1
    decay_mult: 0
  }
  prelu_param {
    filler {
      type: "constant"
      value: 0.01
    }
  }
}
layer {
  name: "inception_3b/3x3"
  type: "Convolution"
  bottom: "inception_3b/3x3_reduce"
  top: "inception_3b/3x3"
  param {
    lr_mult: 1
    decay_mult: 1
  }
  param {
    lr_mult: 2
    decay_mult: 0
  }
  convolution_param {
    num_output: 192
    pad: 1
    kernel_size: 3
    weight_filler {
      type: "xavier"
    }
    bias_filler {
      type: "constant"
      value: 0.2
    }
  }
}
layer {
  name: "inception_3b/prelu_3x3"
  type: "PReLU"
  bottom: "inception_3b/3x3"
  top: "inception_3b/3x3"
  param {
    lr_mult: 1
    decay_mult: 0
  }
  prelu_param {
    filler {
      type: "constant"
      value: 0.01
    }
  }
}
layer {
  name: "inception_3b/5x5_reduce"
  type: "Convolution"
  bottom: "inception_3a/output"
  top: "inception_3b/5x5_reduce"
  param {
    lr_mult: 1
    decay_mult: 1
  }
  param {
    lr_mult: 2
    decay_mult: 0
  }
  convolution_param {
    num_output: 32
    kernel_size: 1
    weight_filler {
      type: "xavier"
    }
    bias_filler {
      type: "constant"
      value: 0.2
    }
  }
}
layer {
  name: "inception_3b/prelu_5x5_reduce"
  type: "PReLU"
  bottom: "inception_3b/5x5_reduce"
  top: "inception_3b/5x5_reduce"
  param {
    lr_mult: 1
    decay_mult: 0
  }
  prelu_param {
    filler {
      type: "constant"
      value: 0.01
    }
  }
}
layer {
  name: "inception_3b/5x5"
  type: "Convolution"
  bottom: "inception_3b/5x5_reduce"
  top: "inception_3b/5x5"
  param {
    lr_mult: 1
    decay_mult: 1
  }
  param {
    lr_mult: 2
    decay_mult: 0
  }
  convolution_param {
    num_output: 96
    pad: 2
    kernel_size: 5
    weight_filler {
      type: "xavier"
    }
    bias_filler {
      type: "constant"
      value: 0.2
    }
  }
}
layer {
  name: "inception_3b/prelu_5x5"
  type: "PReLU"
  bottom: "inception_3b/5x5"
  top: "inception_3b/5x5"
  param {
    lr_mult: 1
    decay_mult: 0
  }
  prelu_param {
    filler {
      type: "constant"
      value: 0.01
    }
  }
}
layer {
  name: "inception_3b/pool"
  type: "Pooling"
  bottom: "inception_3a/output"
  top: "inception_3b/pool"
  pooling_param {
    pool: MAX
    kernel_size: 3
    stride: 1
    pad: 1
  }
}
layer {
  name: "inception_3b/pool_proj"
  type: "Convolution"
  bottom: "inception_3b/pool"
  top: "inception_3b/pool_proj"
  param {
    lr_mult: 1
    decay_mult: 1
  }
  param {
    lr_mult: 2
    decay_mult: 0
  }
  convolution_param {
    num_output: 64
    kernel_size: 1
    weight_filler {
      type: "xavier"
    }
    bias_filler {
      type: "constant"
      value: 0.2
    }
  }
}
layer {
  name: "inception_3b/prelu_pool_proj"
  type: "PReLU"
  bottom: "inception_3b/pool_proj"
  top: "inception_3b/pool_proj"
  param {
    lr_mult: 1
    decay_mult: 0
  }
  prelu_param {
    filler {
      type: "constant"
      value: 0.01
    }
  }
}
layer {
  name: "inception_3b/output"
  type: "Concat"
  bottom: "inception_3b/1x1"
  bottom: "inception_3b/3x3"
  bottom: "inception_3b/5x5"
  bottom: "inception_3b/pool_proj"
  top: "inception_3b/output"
}
layer {
  name: "pool3/3x3_s2"
  type: "Pooling"
  bottom: "inception_3b/output"
  top: "pool3/3x3_s2"
  pooling_param {
    pool: MAX
    kernel_size: 3
    stride: 2
  }
}
layer {
  name: "inception_4a/1x1"
  type: "Convolution"
  bottom: "pool3/3x3_s2"
  top: "inception_4a/1x1"
  param {
    lr_mult: 1
    decay_mult: 1
  }
  param {
    lr_mult: 2
    decay_mult: 0
  }
  convolution_param {
    num_output: 192
    kernel_size: 1
    weight_filler {
      type: "xavier"
    }
    bias_filler {
      type: "constant"
      value: 0.2
    }
  }
}
layer {
  name: "inception_4a/prelu_1x1"
  type: "PReLU"
  bottom: "inception_4a/1x1"
  top: "inception_4a/1x1"
  param {
    lr_mult: 1
    decay_mult: 0
  }
  prelu_param {
    filler {
      type: "constant"
      value: 0.01
    }
  }
}
layer {
  name: "inception_4a/3x3_reduce"
  type: "Convolution"
  bottom: "pool3/3x3_s2"
  top: "inception_4a/3x3_reduce"
  param {
    lr_mult: 1
    decay_mult: 1
  }
  param {
    lr_mult: 2
    decay_mult: 0
  }
  convolution_param {
    num_output: 96
    kernel_size: 1
    weight_filler {
      type: "xavier"
    }
    bias_filler {
      type: "constant"
      value: 0.2
    }
  }
}
layer {
  name: "inception_4a/prelu_3x3_reduce"
  type: "PReLU"
  bottom: "inception_4a/3x3_reduce"
  top: "inception_4a/3x3_reduce"
  param {
    lr_mult: 1
    decay_mult: 0
  }
  prelu_param {
    filler {
      type: "constant"
      value: 0.01
    }
  }
}
layer {
  name: "inception_4a/3x3"
  type: "Convolution"
  bottom: "inception_4a/3x3_reduce"
  top: "inception_4a/3x3"
  param {
    lr_mult: 1
    decay_mult: 1
  }
  param {
    lr_mult: 2
    decay_mult: 0
  }
  convolution_param {
    num_output: 208
    pad: 1
    kernel_size: 3
    weight_filler {
      type: "xavier"
    }
    bias_filler {
      type: "constant"
      value: 0.2
    }
  }
}
layer {
  name: "inception_4a/prelu_3x3"
  type: "PReLU"
  bottom: "inception_4a/3x3"
  top: "inception_4a/3x3"
  param {
    lr_mult: 1
    decay_mult: 0
  }
  prelu_param {
    filler {
      type: "constant"
      value: 0.01
    }
  }
}
layer {
  name: "inception_4a/5x5_reduce"
  type: "Convolution"
  bottom: "pool3/3x3_s2"
  top: "inception_4a/5x5_reduce"
  param {
    lr_mult: 1
    decay_mult: 1
  }
  param {
    lr_mult: 2
    decay_mult: 0
  }
  convolution_param {
    num_output: 16
    kernel_size: 1
    weight_filler {
      type: "xavier"
    }
    bias_filler {
      type: "constant"
      value: 0.2
    }
  }
}
layer {
  name: "inception_4a/prelu_5x5_reduce"
  type: "PReLU"
  bottom: "inception_4a/5x5_reduce"
  top: "inception_4a/5x5_reduce"
  param {
    lr_mult: 1
    decay_mult: 0
  }
  prelu_param {
    filler {
      type: "constant"
      value: 0.01
    }
  }
}
layer {
  name: "inception_4a/5x5"
  type: "Convolution"
  bottom: "inception_4a/5x5_reduce"
  top: "inception_4a/5x5"
  param {
    lr_mult: 1
    decay_mult: 1
  }
  param {
    lr_mult: 2
    decay_mult: 0
  }
  convolution_param {
    num_output: 48
    pad: 2
    kernel_size: 5
    weight_filler {
      type: "xavier"
    }
    bias_filler {
      type: "constant"
      value: 0.2
    }
  }
}
layer {
  name: "inception_4a/prelu_5x5"
  type: "PReLU"
  bottom: "inception_4a/5x5"
  top: "inception_4a/5x5"
  param {
    lr_mult: 1
    decay_mult: 0
  }
  prelu_param {
    filler {
      type: "constant"
      value: 0.01
    }
  }
}
layer {
  name: "inception_4a/pool"
  type: "Pooling"
  bottom: "pool3/3x3_s2"
  top: "inception_4a/pool"
  pooling_param {
    pool: MAX
    kernel_size: 3
    stride: 1
    pad: 1
  }
}
layer {
  name: "inception_4a/pool_proj"
  type: "Convolution"
  bottom: "inception_4a/pool"
  top: "inception_4a/pool_proj"
  param {
    lr_mult: 1
    decay_mult: 1
  }
  param {
    lr_mult: 2
    decay_mult: 0
  }
  convolution_param {
    num_output: 64
    kernel_size: 1
    weight_filler {
      type: "xavier"
    }
    bias_filler {
      type: "constant"
      value: 0.2
    }
  }
}
layer {
  name: "inception_4a/prelu_pool_proj"
  type: "PReLU"
  bottom: "inception_4a/pool_proj"
  top: "inception_4a/pool_proj"
  param {
    lr_mult: 1
    decay_mult: 0
  }
  prelu_param {
    filler {
      type: "constant"
      value: 0.01
    }
  }
}
layer {
  name: "inception_4a/output"
  type: "Concat"
  bottom: "inception_4a/1x1"
  bottom: "inception_4a/3x3"
  bottom: "inception_4a/5x5"
  bottom: "inception_4a/pool_proj"
  top: "inception_4a/output"
}
layer {
  name: "loss1/ave_pool"
  type: "Pooling"
  bottom: "inception_4a/output"
  top: "loss1/ave_pool"
  pooling_param {
    pool: AVE
    kernel_size: 5
    stride: 3
  }
}
layer {
  name: "loss1/conv"
  type: "Convolution"
  bottom: "loss1/ave_pool"
  top: "loss1/conv"
  param {
    lr_mult: 1
    decay_mult: 1
  }
  param {
    lr_mult: 2
    decay_mult: 0
  }
  convolution_param {
    num_output: 128
    kernel_size: 1
    weight_filler {
      type: "xavier"
    }
    bias_filler {
      type: "constant"
      value: 0.2
    }
  }
}
layer {
  name: "loss1/prelu_conv"
  type: "PReLU"
  bottom: "loss1/conv"
  top: "loss1/conv"
  param {
    lr_mult: 1
    decay_mult: 0
  }
  prelu_param {
    filler {
      type: "constant"
      value: 0.01
    }
  }
}
layer {
  name: "loss1/fc"
  type: "InnerProduct"
  bottom: "loss1/conv"
  top: "loss1/fc"
  param {
    lr_mult: 1
    decay_mult: 1
  }
  param {
    lr_mult: 2
    decay_mult: 0
  }
  inner_product_param {
    num_output: 1024
    weight_filler {
      type: "xavier"
    }
    bias_filler {
      type: "constant"
      value: 0.2
    }
  }
}
layer {
  name: "loss1/prelu_fc"
  type: "PReLU"
  bottom: "loss1/fc"
  top: "loss1/fc"
  param {
    lr_mult: 1
    decay_mult: 0
  }
  prelu_param {
    filler {
      type: "constant"
      value: 0.01
    }
  }
}
layer {
  name: "loss1/drop_fc"
  type: "Dropout"
  bottom: "loss1/fc"
  top: "loss1/fc"
  dropout_param {
    dropout_ratio: 0.7
  }
}
layer {
  name: "loss1/classifier2"
  type: "InnerProduct"
  bottom: "loss1/fc"
  top: "loss1/classifier"
  param {
    lr_mult: 1
    decay_mult: 1
  }
  param {
    lr_mult: 2
    decay_mult: 0
  }
  inner_product_param {
    num_output: 2
    weight_filler {
      type: "xavier"
    }
    bias_filler {
      type: "constant"
      value: 0
    }
  }
}
layer {
  name: "loss1/loss"
  type: "SoftmaxWithLoss"
  bottom: "loss1/classifier"
  bottom: "label"
  top: "loss1/loss1"
  loss_weight: 0.3
}
layer {
  name: "inception_4b/1x1"
  type: "Convolution"
  bottom: "inception_4a/output"
  top: "inception_4b/1x1"
  param {
    lr_mult: 1
    decay_mult: 1
  }
  param {
    lr_mult: 2
    decay_mult: 0
  }
  convolution_param {
    num_output: 160
    kernel_size: 1
    weight_filler {
      type: "xavier"
    }
    bias_filler {
      type: "constant"
      value: 0.2
    }
  }
}
layer {
  name: "inception_4b/prelu_1x1"
  type: "PReLU"
  bottom: "inception_4b/1x1"
  top: "inception_4b/1x1"
  param {
    lr_mult: 1
    decay_mult: 0
  }
  prelu_param {
    filler {
      type: "constant"
      value: 0.01
    }
  }
}
layer {
  name: "inception_4b/3x3_reduce"
  type: "Convolution"
  bottom: "inception_4a/output"
  top: "inception_4b/3x3_reduce"
  param {
    lr_mult: 1
    decay_mult: 1
  }
  param {
    lr_mult: 2
    decay_mult: 0
  }
  convolution_param {
    num_output: 112
    kernel_size: 1
    weight_filler {
      type: "xavier"
    }
    bias_filler {
      type: "constant"
      value: 0.2
    }
  }
}
layer {
  name: "inception_4b/prelu_3x3_reduce"
  type: "PReLU"
  bottom: "inception_4b/3x3_reduce"
  top: "inception_4b/3x3_reduce"
  param {
    lr_mult: 1
    decay_mult: 0
  }
  prelu_param {
    filler {
      type: "constant"
      value: 0.01
    }
  }
}
layer {
  name: "inception_4b/3x3"
  type: "Convolution"
  bottom: "inception_4b/3x3_reduce"
  top: "inception_4b/3x3"
  param {
    lr_mult: 1
    decay_mult: 1
  }
  param {
    lr_mult: 2
    decay_mult: 0
  }
  convolution_param {
    num_output: 224
    pad: 1
    kernel_size: 3
    weight_filler {
      type: "xavier"
    }
    bias_filler {
      type: "constant"
      value: 0.2
    }
  }
}
layer {
  name: "inception_4b/prelu_3x3"
  type: "PReLU"
  bottom: "inception_4b/3x3"
  top: "inception_4b/3x3"
  param {
    lr_mult: 1
    decay_mult: 0
  }
  prelu_param {
    filler {
      type: "constant"
      value: 0.01
    }
  }
}
layer {
  name: "inception_4b/5x5_reduce"
  type: "Convolution"
  bottom: "inception_4a/output"
  top: "inception_4b/5x5_reduce"
  param {
    lr_mult: 1
    decay_mult: 1
  }
  param {
    lr_mult: 2
    decay_mult: 0
  }
  convolution_param {
    num_output: 24
    kernel_size: 1
    weight_filler {
      type: "xavier"
    }
    bias_filler {
      type: "constant"
      value: 0.2
    }
  }
}
layer {
  name: "inception_4b/prelu_5x5_reduce"
  type: "PReLU"
  bottom: "inception_4b/5x5_reduce"
  top: "inception_4b/5x5_reduce"
  param {
    lr_mult: 1
    decay_mult: 0
  }
  prelu_param {
    filler {
      type: "constant"
      value: 0.01
    }
  }
}
layer {
  name: "inception_4b/5x5"
  type: "Convolution"
  bottom: "inception_4b/5x5_reduce"
  top: "inception_4b/5x5"
  param {
    lr_mult: 1
    decay_mult: 1
  }
  param {
    lr_mult: 2
    decay_mult: 0
  }
  convolution_param {
    num_output: 64
    pad: 2
    kernel_size: 5
    weight_filler {
      type: "xavier"
    }
    bias_filler {
      type: "constant"
      value: 0.2
    }
  }
}
layer {
  name: "inception_4b/prelu_5x5"
  type: "PReLU"
  bottom: "inception_4b/5x5"
  top: "inception_4b/5x5"
  param {
    lr_mult: 1
    decay_mult: 0
  }
  prelu_param {
    filler {
      type: "constant"
      value: 0.01
    }
  }
}
layer {
  name: "inception_4b/pool"
  type: "Pooling"
  bottom: "inception_4a/output"
  top: "inception_4b/pool"
  pooling_param {
    pool: MAX
    kernel_size: 3
    stride: 1
    pad: 1
  }
}
layer {
  name: "inception_4b/pool_proj"
  type: "Convolution"
  bottom: "inception_4b/pool"
  top: "inception_4b/pool_proj"
  param {
    lr_mult: 1
    decay_mult: 1
  }
  param {
    lr_mult: 2
    decay_mult: 0
  }
  convolution_param {
    num_output: 64
    kernel_size: 1
    weight_filler {
      type: "xavier"
    }
    bias_filler {
      type: "constant"
      value: 0.2
    }
  }
}
layer {
  name: "inception_4b/prelu_pool_proj"
  type: "PReLU"
  bottom: "inception_4b/pool_proj"
  top: "inception_4b/pool_proj"
  param {
    lr_mult: 1
    decay_mult: 0
  }
  prelu_param {
    filler {
      type: "constant"
      value: 0.01
    }
  }
}
layer {
  name: "inception_4b/output"
  type: "Concat"
  bottom: "inception_4b/1x1"
  bottom: "inception_4b/3x3"
  bottom: "inception_4b/5x5"
  bottom: "inception_4b/pool_proj"
  top: "inception_4b/output"
}
layer {
  name: "inception_4c/1x1"
  type: "Convolution"
  bottom: "inception_4b/output"
  top: "inception_4c/1x1"
  param {
    lr_mult: 1
    decay_mult: 1
  }
  param {
    lr_mult: 2
    decay_mult: 0
  }
  convolution_param {
    num_output: 128
    kernel_size: 1
    weight_filler {
      type: "xavier"
    }
    bias_filler {
      type: "constant"
      value: 0.2
    }
  }
}
layer {
  name: "inception_4c/prelu_1x1"
  type: "PReLU"
  bottom: "inception_4c/1x1"
  top: "inception_4c/1x1"
  param {
    lr_mult: 1
    decay_mult: 0
  }
  prelu_param {
    filler {
      type: "constant"
      value: 0.01
    }
  }
}
layer {
  name: "inception_4c/3x3_reduce"
  type: "Convolution"
  bottom: "inception_4b/output"
  top: "inception_4c/3x3_reduce"
  param {
    lr_mult: 1
    decay_mult: 1
  }
  param {
    lr_mult: 2
    decay_mult: 0
  }
  convolution_param {
    num_output: 128
    kernel_size: 1
    weight_filler {
      type: "xavier"
    }
    bias_filler {
      type: "constant"
      value: 0.2
    }
  }
}
layer {
  name: "inception_4c/prelu_3x3_reduce"
  type: "PReLU"
  bottom: "inception_4c/3x3_reduce"
  top: "inception_4c/3x3_reduce"
  param {
    lr_mult: 1
    decay_mult: 0
  }
  prelu_param {
    filler {
      type: "constant"
      value: 0.01
    }
  }
}
layer {
  name: "inception_4c/3x3"
  type: "Convolution"
  bottom: "inception_4c/3x3_reduce"
  top: "inception_4c/3x3"
  param {
    lr_mult: 1
    decay_mult: 1
  }
  param {
    lr_mult: 2
    decay_mult: 0
  }
  convolution_param {
    num_output: 256
    pad: 1
    kernel_size: 3
    weight_filler {
      type: "xavier"
    }
    bias_filler {
      type: "constant"
      value: 0.2
    }
  }
}
layer {
  name: "inception_4c/prelu_3x3"
  type: "PReLU"
  bottom: "inception_4c/3x3"
  top: "inception_4c/3x3"
  param {
    lr_mult: 1
    decay_mult: 0
  }
  prelu_param {
    filler {
      type: "constant"
      value: 0.01
    }
  }
}
layer {
  name: "inception_4c/5x5_reduce"
  type: "Convolution"
  bottom: "inception_4b/output"
  top: "inception_4c/5x5_reduce"
  param {
    lr_mult: 1
    decay_mult: 1
  }
  param {
    lr_mult: 2
    decay_mult: 0
  }
  convolution_param {
    num_output: 24
    kernel_size: 1
    weight_filler {
      type: "xavier"
    }
    bias_filler {
      type: "constant"
      value: 0.2
    }
  }
}
layer {
  name: "inception_4c/prelu_5x5_reduce"
  type: "PReLU"
  bottom: "inception_4c/5x5_reduce"
  top: "inception_4c/5x5_reduce"
  param {
    lr_mult: 1
    decay_mult: 0
  }
  prelu_param {
    filler {
      type: "constant"
      value: 0.01
    }
  }
}
layer {
  name: "inception_4c/5x5"
  type: "Convolution"
  bottom: "inception_4c/5x5_reduce"
  top: "inception_4c/5x5"
  param {
    lr_mult: 1
    decay_mult: 1
  }
  param {
    lr_mult: 2
    decay_mult: 0
  }
  convolution_param {
    num_output: 64
    pad: 2
    kernel_size: 5
    weight_filler {
      type: "xavier"
    }
    bias_filler {
      type: "constant"
      value: 0.2
    }
  }
}
layer {
  name: "inception_4c/prelu_5x5"
  type: "PReLU"
  bottom: "inception_4c/5x5"
  top: "inception_4c/5x5"
  param {
    lr_mult: 1
    decay_mult: 0
  }
  prelu_param {
    filler {
      type: "constant"
      value: 0.01
    }
  }
}
layer {
  name: "inception_4c/pool"
  type: "Pooling"
  bottom: "inception_4b/output"
  top: "inception_4c/pool"
  pooling_param {
    pool: MAX
    kernel_size: 3
    stride: 1
    pad: 1
  }
}
layer {
  name: "inception_4c/pool_proj"
  type: "Convolution"
  bottom: "inception_4c/pool"
  top: "inception_4c/pool_proj"
  param {
    lr_mult: 1
    decay_mult: 1
  }
  param {
    lr_mult: 2
    decay_mult: 0
  }
  convolution_param {
    num_output: 64
    kernel_size: 1
    weight_filler {
      type: "xavier"
    }
    bias_filler {
      type: "constant"
      value: 0.2
    }
  }
}
layer {
  name: "inception_4c/prelu_pool_proj"
  type: "PReLU"
  bottom: "inception_4c/pool_proj"
  top: "inception_4c/pool_proj"
  param {
    lr_mult: 1
    decay_mult: 0
  }
  prelu_param {
    filler {
      type: "constant"
      value: 0.01
    }
  }
}
layer {
  name: "inception_4c/output"
  type: "Concat"
  bottom: "inception_4c/1x1"
  bottom: "inception_4c/3x3"
  bottom: "inception_4c/5x5"
  bottom: "inception_4c/pool_proj"
  top: "inception_4c/output"
}
layer {
  name: "inception_4d/1x1"
  type: "Convolution"
  bottom: "inception_4c/output"
  top: "inception_4d/1x1"
  param {
    lr_mult: 1
    decay_mult: 1
  }
  param {
    lr_mult: 2
    decay_mult: 0
  }
  convolution_param {
    num_output: 112
    kernel_size: 1
    weight_filler {
      type: "xavier"
    }
    bias_filler {
      type: "constant"
      value: 0.2
    }
  }
}
layer {
  name: "inception_4d/prelu_1x1"
  type: "PReLU"
  bottom: "inception_4d/1x1"
  top: "inception_4d/1x1"
  param {
    lr_mult: 1
    decay_mult: 0
  }
  prelu_param {
    filler {
      type: "constant"
      value: 0.01
    }
  }
}
layer {
  name: "inception_4d/3x3_reduce"
  type: "Convolution"
  bottom: "inception_4c/output"
  top: "inception_4d/3x3_reduce"
  param {
    lr_mult: 1
    decay_mult: 1
  }
  param {
    lr_mult: 2
    decay_mult: 0
  }
  convolution_param {
    num_output: 144
    kernel_size: 1
    weight_filler {
      type: "xavier"
    }
    bias_filler {
      type: "constant"
      value: 0.2
    }
  }
}
layer {
  name: "inception_4d/prelu_3x3_reduce"
  type: "PReLU"
  bottom: "inception_4d/3x3_reduce"
  top: "inception_4d/3x3_reduce"
  param {
    lr_mult: 1
    decay_mult: 0
  }
  prelu_param {
    filler {
      type: "constant"
      value: 0.01
    }
  }
}
layer {
  name: "inception_4d/3x3"
  type: "Convolution"
  bottom: "inception_4d/3x3_reduce"
  top: "inception_4d/3x3"
  param {
    lr_mult: 1
    decay_mult: 1
  }
  param {
    lr_mult: 2
    decay_mult: 0
  }
  convolution_param {
    num_output: 288
    pad: 1
    kernel_size: 3
    weight_filler {
      type: "xavier"
    }
    bias_filler {
      type: "constant"
      value: 0.2
    }
  }
}
layer {
  name: "inception_4d/prelu_3x3"
  type: "PReLU"
  bottom: "inception_4d/3x3"
  top: "inception_4d/3x3"
  param {
    lr_mult: 1
    decay_mult: 0
  }
  prelu_param {
    filler {
      type: "constant"
      value: 0.01
    }
  }
}
layer {
  name: "inception_4d/5x5_reduce"
  type: "Convolution"
  bottom: "inception_4c/output"
  top: "inception_4d/5x5_reduce"
  param {
    lr_mult: 1
    decay_mult: 1
  }
  param {
    lr_mult: 2
    decay_mult: 0
  }
  convolution_param {
    num_output: 32
    kernel_size: 1
    weight_filler {
      type: "xavier"
    }
    bias_filler {
      type: "constant"
      value: 0.2
    }
  }
}
layer {
  name: "inception_4d/prelu_5x5_reduce"
  type: "PReLU"
  bottom: "inception_4d/5x5_reduce"
  top: "inception_4d/5x5_reduce"
  param {
    lr_mult: 1
    decay_mult: 0
  }
  prelu_param {
    filler {
      type: "constant"
      value: 0.01
    }
  }
}
layer {
  name: "inception_4d/5x5"
  type: "Convolution"
  bottom: "inception_4d/5x5_reduce"
  top: "inception_4d/5x5"
  param {
    lr_mult: 1
    decay_mult: 1
  }
  param {
    lr_mult: 2
    decay_mult: 0
  }
  convolution_param {
    num_output: 64
    pad: 2
    kernel_size: 5
    weight_filler {
      type: "xavier"
    }
    bias_filler {
      type: "constant"
      value: 0.2
    }
  }
}
layer {
  name: "inception_4d/prelu_5x5"
  type: "PReLU"
  bottom: "inception_4d/5x5"
  top: "inception_4d/5x5"
  param {
    lr_mult: 1
    decay_mult: 0
  }
  prelu_param {
    filler {
      type: "constant"
      value: 0.01
    }
  }
}
layer {
  name: "inception_4d/pool"
  type: "Pooling"
  bottom: "inception_4c/output"
  top: "inception_4d/pool"
  pooling_param {
    pool: MAX
    kernel_size: 3
    stride: 1
    pad: 1
  }
}
layer {
  name: "inception_4d/pool_proj"
  type: "Convolution"
  bottom: "ince
I1028 13:18:28.781383 28115 layer_factory.hpp:76] Creating layer data
I1028 13:18:28.781816 28115 net.cpp:106] Creating Layer data
I1028 13:18:28.781832 28115 net.cpp:411] data -> data
I1028 13:18:28.781867 28115 net.cpp:411] data -> label
I1028 13:18:28.783612 28120 db_lmdb.cpp:38] Opened lmdb ../../LMDB/train_2-lmdb
I1028 13:18:28.794546 28115 data_layer.cpp:41] output data size: 32,3,224,224
I1028 13:18:28.861176 28115 net.cpp:150] Setting up data
I1028 13:18:28.861218 28115 net.cpp:157] Top shape: 32 3 224 224 (4816896)
I1028 13:18:28.861225 28115 net.cpp:157] Top shape: 32 (32)
I1028 13:18:28.861229 28115 net.cpp:165] Memory required for data: 19267712
I1028 13:18:28.861240 28115 layer_factory.hpp:76] Creating layer label_data_1_split
I1028 13:18:28.861268 28115 net.cpp:106] Creating Layer label_data_1_split
I1028 13:18:28.861275 28115 net.cpp:454] label_data_1_split <- label
I1028 13:18:28.861291 28115 net.cpp:411] label_data_1_split -> label_data_1_split_0
I1028 13:18:28.861302 28115 net.cpp:411] label_data_1_split -> label_data_1_split_1
I1028 13:18:28.861312 28115 net.cpp:411] label_data_1_split -> label_data_1_split_2
I1028 13:18:28.861378 28115 net.cpp:150] Setting up label_data_1_split
I1028 13:18:28.861400 28115 net.cpp:157] Top shape: 32 (32)
I1028 13:18:28.861421 28115 net.cpp:157] Top shape: 32 (32)
I1028 13:18:28.861431 28115 net.cpp:157] Top shape: 32 (32)
I1028 13:18:28.861439 28115 net.cpp:165] Memory required for data: 19268096
I1028 13:18:28.861446 28115 layer_factory.hpp:76] Creating layer conv1/7x7_s2
I1028 13:18:28.861471 28115 net.cpp:106] Creating Layer conv1/7x7_s2
I1028 13:18:28.861480 28115 net.cpp:454] conv1/7x7_s2 <- data
I1028 13:18:28.861495 28115 net.cpp:411] conv1/7x7_s2 -> conv1/7x7_s2
I1028 13:18:29.150672 28115 cudnn_conv_layer.cpp:194] Reallocating workspace storage: 225816
I1028 13:18:29.150954 28115 net.cpp:150] Setting up conv1/7x7_s2
I1028 13:18:29.150972 28115 net.cpp:157] Top shape: 32 64 112 112 (25690112)
I1028 13:18:29.150990 28115 net.cpp:165] Memory required for data: 122028544
I1028 13:18:29.151026 28115 layer_factory.hpp:76] Creating layer conv1/prelu_7x7
I1028 13:18:29.151072 28115 net.cpp:106] Creating Layer conv1/prelu_7x7
I1028 13:18:29.151082 28115 net.cpp:454] conv1/prelu_7x7 <- conv1/7x7_s2
I1028 13:18:29.151098 28115 net.cpp:397] conv1/prelu_7x7 -> conv1/7x7_s2 (in-place)
I1028 13:18:29.152918 28115 net.cpp:150] Setting up conv1/prelu_7x7
I1028 13:18:29.152940 28115 net.cpp:157] Top shape: 32 64 112 112 (25690112)
I1028 13:18:29.152948 28115 net.cpp:165] Memory required for data: 224788992
I1028 13:18:29.152964 28115 layer_factory.hpp:76] Creating layer pool1/3x3_s2
I1028 13:18:29.152983 28115 net.cpp:106] Creating Layer pool1/3x3_s2
I1028 13:18:29.152993 28115 net.cpp:454] pool1/3x3_s2 <- conv1/7x7_s2
I1028 13:18:29.153005 28115 net.cpp:411] pool1/3x3_s2 -> pool1/3x3_s2
I1028 13:18:29.153404 28115 net.cpp:150] Setting up pool1/3x3_s2
I1028 13:18:29.153419 28115 net.cpp:157] Top shape: 32 64 56 56 (6422528)
I1028 13:18:29.153425 28115 net.cpp:165] Memory required for data: 250479104
I1028 13:18:29.153434 28115 layer_factory.hpp:76] Creating layer pool1/norm1
I1028 13:18:29.153451 28115 net.cpp:106] Creating Layer pool1/norm1
I1028 13:18:29.153461 28115 net.cpp:454] pool1/norm1 <- pool1/3x3_s2
I1028 13:18:29.153473 28115 net.cpp:411] pool1/norm1 -> pool1/norm1
I1028 13:18:29.153633 28115 net.cpp:150] Setting up pool1/norm1
I1028 13:18:29.153645 28115 net.cpp:157] Top shape: 32 64 56 56 (6422528)
I1028 13:18:29.153653 28115 net.cpp:165] Memory required for data: 276169216
I1028 13:18:29.153661 28115 layer_factory.hpp:76] Creating layer conv2/3x3_reduce
I1028 13:18:29.153677 28115 net.cpp:106] Creating Layer conv2/3x3_reduce
I1028 13:18:29.153687 28115 net.cpp:454] conv2/3x3_reduce <- pool1/norm1
I1028 13:18:29.153698 28115 net.cpp:411] conv2/3x3_reduce -> conv2/3x3_reduce
I1028 13:18:29.155061 28115 cudnn_conv_layer.cpp:194] Reallocating workspace storage: 63000
I1028 13:18:29.155086 28115 net.cpp:150] Setting up conv2/3x3_reduce
I1028 13:18:29.155109 28115 net.cpp:157] Top shape: 32 64 56 56 (6422528)
I1028 13:18:29.155119 28115 net.cpp:165] Memory required for data: 301859328
I1028 13:18:29.155135 28115 layer_factory.hpp:76] Creating layer conv2/prelu_3x3_reduce
I1028 13:18:29.155151 28115 net.cpp:106] Creating Layer conv2/prelu_3x3_reduce
I1028 13:18:29.155163 28115 net.cpp:454] conv2/prelu_3x3_reduce <- conv2/3x3_reduce
I1028 13:18:29.155174 28115 net.cpp:397] conv2/prelu_3x3_reduce -> conv2/3x3_reduce (in-place)
I1028 13:18:29.155784 28115 net.cpp:150] Setting up conv2/prelu_3x3_reduce
I1028 13:18:29.155797 28115 net.cpp:157] Top shape: 32 64 56 56 (6422528)
I1028 13:18:29.155807 28115 net.cpp:165] Memory required for data: 327549440
I1028 13:18:29.155817 28115 layer_factory.hpp:76] Creating layer conv2/3x3
I1028 13:18:29.155833 28115 net.cpp:106] Creating Layer conv2/3x3
I1028 13:18:29.155843 28115 net.cpp:454] conv2/3x3 <- conv2/3x3_reduce
I1028 13:18:29.155856 28115 net.cpp:411] conv2/3x3 -> conv2/3x3
I1028 13:18:29.157878 28115 cudnn_conv_layer.cpp:194] Reallocating workspace storage: 63000
I1028 13:18:29.157904 28115 net.cpp:150] Setting up conv2/3x3
I1028 13:18:29.157919 28115 net.cpp:157] Top shape: 32 192 56 56 (19267584)
I1028 13:18:29.157927 28115 net.cpp:165] Memory required for data: 404619776
I1028 13:18:29.157940 28115 layer_factory.hpp:76] Creating layer conv2/prelu_3x3
I1028 13:18:29.157969 28115 net.cpp:106] Creating Layer conv2/prelu_3x3
I1028 13:18:29.157980 28115 net.cpp:454] conv2/prelu_3x3 <- conv2/3x3
I1028 13:18:29.157992 28115 net.cpp:397] conv2/prelu_3x3 -> conv2/3x3 (in-place)
I1028 13:18:29.159142 28115 net.cpp:150] Setting up conv2/prelu_3x3
I1028 13:18:29.159159 28115 net.cpp:157] Top shape: 32 192 56 56 (19267584)
I1028 13:18:29.159168 28115 net.cpp:165] Memory required for data: 481690112
I1028 13:18:29.159201 28115 layer_factory.hpp:76] Creating layer conv2/norm2
I1028 13:18:29.159217 28115 net.cpp:106] Creating Layer conv2/norm2
I1028 13:18:29.159226 28115 net.cpp:454] conv2/norm2 <- conv2/3x3
I1028 13:18:29.159239 28115 net.cpp:411] conv2/norm2 -> conv2/norm2
I1028 13:18:29.159409 28115 net.cpp:150] Setting up conv2/norm2
I1028 13:18:29.159422 28115 net.cpp:157] Top shape: 32 192 56 56 (19267584)
I1028 13:18:29.159430 28115 net.cpp:165] Memory required for data: 558760448
I1028 13:18:29.159438 28115 layer_factory.hpp:76] Creating layer pool2/3x3_s2
I1028 13:18:29.159451 28115 net.cpp:106] Creating Layer pool2/3x3_s2
I1028 13:18:29.159459 28115 net.cpp:454] pool2/3x3_s2 <- conv2/norm2
I1028 13:18:29.159471 28115 net.cpp:411] pool2/3x3_s2 -> pool2/3x3_s2
I1028 13:18:29.159808 28115 net.cpp:150] Setting up pool2/3x3_s2
I1028 13:18:29.159821 28115 net.cpp:157] Top shape: 32 192 28 28 (4816896)
I1028 13:18:29.159831 28115 net.cpp:165] Memory required for data: 578028032
I1028 13:18:29.159838 28115 layer_factory.hpp:76] Creating layer pool2/3x3_s2_pool2/3x3_s2_0_split
I1028 13:18:29.159849 28115 net.cpp:106] Creating Layer pool2/3x3_s2_pool2/3x3_s2_0_split
I1028 13:18:29.159858 28115 net.cpp:454] pool2/3x3_s2_pool2/3x3_s2_0_split <- pool2/3x3_s2
I1028 13:18:29.159868 28115 net.cpp:411] pool2/3x3_s2_pool2/3x3_s2_0_split -> pool2/3x3_s2_pool2/3x3_s2_0_split_0
I1028 13:18:29.159881 28115 net.cpp:411] pool2/3x3_s2_pool2/3x3_s2_0_split -> pool2/3x3_s2_pool2/3x3_s2_0_split_1
I1028 13:18:29.159896 28115 net.cpp:411] pool2/3x3_s2_pool2/3x3_s2_0_split -> pool2/3x3_s2_pool2/3x3_s2_0_split_2
I1028 13:18:29.159909 28115 net.cpp:411] pool2/3x3_s2_pool2/3x3_s2_0_split -> pool2/3x3_s2_pool2/3x3_s2_0_split_3
I1028 13:18:29.159965 28115 net.cpp:150] Setting up pool2/3x3_s2_pool2/3x3_s2_0_split
I1028 13:18:29.159976 28115 net.cpp:157] Top shape: 32 192 28 28 (4816896)
I1028 13:18:29.159986 28115 net.cpp:157] Top shape: 32 192 28 28 (4816896)
I1028 13:18:29.159996 28115 net.cpp:157] Top shape: 32 192 28 28 (4816896)
I1028 13:18:29.160004 28115 net.cpp:157] Top shape: 32 192 28 28 (4816896)
I1028 13:18:29.160012 28115 net.cpp:165] Memory required for data: 655098368
I1028 13:18:29.160020 28115 layer_factory.hpp:76] Creating layer inception_3a/1x1
I1028 13:18:29.160034 28115 net.cpp:106] Creating Layer inception_3a/1x1
I1028 13:18:29.160043 28115 net.cpp:454] inception_3a/1x1 <- pool2/3x3_s2_pool2/3x3_s2_0_split_0
I1028 13:18:29.160054 28115 net.cpp:411] inception_3a/1x1 -> inception_3a/1x1
I1028 13:18:29.161451 28115 cudnn_conv_layer.cpp:194] Reallocating workspace storage: 20664
I1028 13:18:29.161478 28115 net.cpp:150] Setting up inception_3a/1x1
I1028 13:18:29.161490 28115 net.cpp:157] Top shape: 32 64 28 28 (1605632)
I1028 13:18:29.161499 28115 net.cpp:165] Memory required for data: 661520896
I1028 13:18:29.161512 28115 layer_factory.hpp:76] Creating layer inception_3a/prelu_1x1
I1028 13:18:29.161526 28115 net.cpp:106] Creating Layer inception_3a/prelu_1x1
I1028 13:18:29.161536 28115 net.cpp:454] inception_3a/prelu_1x1 <- inception_3a/1x1
I1028 13:18:29.161550 28115 net.cpp:397] inception_3a/prelu_1x1 -> inception_3a/1x1 (in-place)
I1028 13:18:29.162107 28115 net.cpp:150] Setting up inception_3a/prelu_1x1
I1028 13:18:29.162122 28115 net.cpp:157] Top shape: 32 64 28 28 (1605632)
I1028 13:18:29.162132 28115 net.cpp:165] Memory required for data: 667943424
I1028 13:18:29.162142 28115 layer_factory.hpp:76] Creating layer inception_3a/3x3_reduce
I1028 13:18:29.162158 28115 net.cpp:106] Creating Layer inception_3a/3x3_reduce
I1028 13:18:29.162165 28115 net.cpp:454] inception_3a/3x3_reduce <- pool2/3x3_s2_pool2/3x3_s2_0_split_1
I1028 13:18:29.162178 28115 net.cpp:411] inception_3a/3x3_reduce -> inception_3a/3x3_reduce
I1028 13:18:29.163213 28115 cudnn_conv_layer.cpp:194] Reallocating workspace storage: 20664
I1028 13:18:29.163239 28115 net.cpp:150] Setting up inception_3a/3x3_reduce
I1028 13:18:29.163259 28115 net.cpp:157] Top shape: 32 96 28 28 (2408448)
I1028 13:18:29.163267 28115 net.cpp:165] Memory required for data: 677577216
I1028 13:18:29.163295 28115 layer_factory.hpp:76] Creating layer inception_3a/prelu_3x3_reduce
I1028 13:18:29.163313 28115 net.cpp:106] Creating Layer inception_3a/prelu_3x3_reduce
I1028 13:18:29.163322 28115 net.cpp:454] inception_3a/prelu_3x3_reduce <- inception_3a/3x3_reduce
I1028 13:18:29.163336 28115 net.cpp:397] inception_3a/prelu_3x3_reduce -> inception_3a/3x3_reduce (in-place)
I1028 13:18:29.163475 28115 net.cpp:150] Setting up inception_3a/prelu_3x3_reduce
I1028 13:18:29.163486 28115 net.cpp:157] Top shape: 32 96 28 28 (2408448)
I1028 13:18:29.163494 28115 net.cpp:165] Memory required for data: 687211008
I1028 13:18:29.163511 28115 layer_factory.hpp:76] Creating layer inception_3a/3x3
I1028 13:18:29.163527 28115 net.cpp:106] Creating Layer inception_3a/3x3
I1028 13:18:29.163534 28115 net.cpp:454] inception_3a/3x3 <- inception_3a/3x3_reduce
I1028 13:18:29.163547 28115 net.cpp:411] inception_3a/3x3 -> inception_3a/3x3
I1028 13:18:29.165865 28115 cudnn_conv_layer.cpp:194] Reallocating workspace storage: 20664
I1028 13:18:29.165907 28115 net.cpp:150] Setting up inception_3a/3x3
I1028 13:18:29.165921 28115 net.cpp:157] Top shape: 32 128 28 28 (3211264)
I1028 13:18:29.165930 28115 net.cpp:165] Memory required for data: 700056064
I1028 13:18:29.165952 28115 layer_factory.hpp:76] Creating layer inception_3a/prelu_3x3
I1028 13:18:29.165969 28115 net.cpp:106] Creating Layer inception_3a/prelu_3x3
I1028 13:18:29.165982 28115 net.cpp:454] inception_3a/prelu_3x3 <- inception_3a/3x3
I1028 13:18:29.165994 28115 net.cpp:397] inception_3a/prelu_3x3 -> inception_3a/3x3 (in-place)
I1028 13:18:29.166174 28115 net.cpp:150] Setting up inception_3a/prelu_3x3
I1028 13:18:29.166189 28115 net.cpp:157] Top shape: 32 128 28 28 (3211264)
I1028 13:18:29.166198 28115 net.cpp:165] Memory required for data: 712901120
I1028 13:18:29.166208 28115 layer_factory.hpp:76] Creating layer inception_3a/5x5_reduce
I1028 13:18:29.166226 28115 net.cpp:106] Creating Layer inception_3a/5x5_reduce
I1028 13:18:29.166235 28115 net.cpp:454] inception_3a/5x5_reduce <- pool2/3x3_s2_pool2/3x3_s2_0_split_2
I1028 13:18:29.166250 28115 net.cpp:411] inception_3a/5x5_reduce -> inception_3a/5x5_reduce
I1028 13:18:29.167479 28115 cudnn_conv_layer.cpp:194] Reallocating workspace storage: 20664
I1028 13:18:29.167503 28115 net.cpp:150] Setting up inception_3a/5x5_reduce
I1028 13:18:29.167520 28115 net.cpp:157] Top shape: 32 16 28 28 (401408)
I1028 13:18:29.167539 28115 net.cpp:165] Memory required for data: 714506752
I1028 13:18:29.167554 28115 layer_factory.hpp:76] Creating layer inception_3a/prelu_5x5_reduce
I1028 13:18:29.167569 28115 net.cpp:106] Creating Layer inception_3a/prelu_5x5_reduce
I1028 13:18:29.167579 28115 net.cpp:454] inception_3a/prelu_5x5_reduce <- inception_3a/5x5_reduce
I1028 13:18:29.167593 28115 net.cpp:397] inception_3a/prelu_5x5_reduce -> inception_3a/5x5_reduce (in-place)
I1028 13:18:29.167687 28115 net.cpp:150] Setting up inception_3a/prelu_5x5_reduce
I1028 13:18:29.167700 28115 net.cpp:157] Top shape: 32 16 28 28 (401408)
I1028 13:18:29.167707 28115 net.cpp:165] Memory required for data: 716112384
I1028 13:18:29.167717 28115 layer_factory.hpp:76] Creating layer inception_3a/5x5
I1028 13:18:29.167732 28115 net.cpp:106] Creating Layer inception_3a/5x5
I1028 13:18:29.167742 28115 net.cpp:454] inception_3a/5x5 <- inception_3a/5x5_reduce
I1028 13:18:29.167755 28115 net.cpp:411] inception_3a/5x5 -> inception_3a/5x5
I1028 13:18:29.168797 28115 cudnn_conv_layer.cpp:194] Reallocating workspace storage: 20664
I1028 13:18:29.168820 28115 net.cpp:150] Setting up inception_3a/5x5
I1028 13:18:29.168834 28115 net.cpp:157] Top shape: 32 32 28 28 (802816)
I1028 13:18:29.168843 28115 net.cpp:165] Memory required for data: 719323648
I1028 13:18:29.168855 28115 layer_factory.hpp:76] Creating layer inception_3a/prelu_5x5
I1028 13:18:29.168870 28115 net.cpp:106] Creating Layer inception_3a/prelu_5x5
I1028 13:18:29.168879 28115 net.cpp:454] inception_3a/prelu_5x5 <- inception_3a/5x5
I1028 13:18:29.168894 28115 net.cpp:397] inception_3a/prelu_5x5 -> inception_3a/5x5 (in-place)
I1028 13:18:29.169008 28115 net.cpp:150] Setting up inception_3a/prelu_5x5
I1028 13:18:29.169019 28115 net.cpp:157] Top shape: 32 32 28 28 (802816)
I1028 13:18:29.169028 28115 net.cpp:165] Memory required for data: 722534912
I1028 13:18:29.169039 28115 layer_factory.hpp:76] Creating layer inception_3a/pool
I1028 13:18:29.169052 28115 net.cpp:106] Creating Layer inception_3a/pool
I1028 13:18:29.169062 28115 net.cpp:454] inception_3a/pool <- pool2/3x3_s2_pool2/3x3_s2_0_split_3
I1028 13:18:29.169073 28115 net.cpp:411] inception_3a/pool -> inception_3a/pool
I1028 13:18:29.169250 28115 net.cpp:150] Setting up inception_3a/pool
I1028 13:18:29.169263 28115 net.cpp:157] Top shape: 32 192 28 28 (4816896)
I1028 13:18:29.169271 28115 net.cpp:165] Memory required for data: 741802496
I1028 13:18:29.169280 28115 layer_factory.hpp:76] Creating layer inception_3a/pool_proj
I1028 13:18:29.169294 28115 net.cpp:106] Creating Layer inception_3a/pool_proj
I1028 13:18:29.169304 28115 net.cpp:454] inception_3a/pool_proj <- inception_3a/pool
I1028 13:18:29.169327 28115 net.cpp:411] inception_3a/pool_proj -> inception_3a/pool_proj
I1028 13:18:29.170318 28115 cudnn_conv_layer.cpp:194] Reallocating workspace storage: 20664
I1028 13:18:29.170341 28115 net.cpp:150] Setting up inception_3a/pool_proj
I1028 13:18:29.170353 28115 net.cpp:157] Top shape: 32 32 28 28 (802816)
I1028 13:18:29.170361 28115 net.cpp:165] Memory required for data: 745013760
I1028 13:18:29.170374 28115 layer_factory.hpp:76] Creating layer inception_3a/prelu_pool_proj
I1028 13:18:29.170392 28115 net.cpp:106] Creating Layer inception_3a/prelu_pool_proj
I1028 13:18:29.170402 28115 net.cpp:454] inception_3a/prelu_pool_proj <- inception_3a/pool_proj
I1028 13:18:29.170415 28115 net.cpp:397] inception_3a/prelu_pool_proj -> inception_3a/pool_proj (in-place)
I1028 13:18:29.170511 28115 net.cpp:150] Setting up inception_3a/prelu_pool_proj
I1028 13:18:29.170523 28115 net.cpp:157] Top shape: 32 32 28 28 (802816)
I1028 13:18:29.170531 28115 net.cpp:165] Memory required for data: 748225024
I1028 13:18:29.170542 28115 layer_factory.hpp:76] Creating layer inception_3a/output
I1028 13:18:29.170560 28115 net.cpp:106] Creating Layer inception_3a/output
I1028 13:18:29.170568 28115 net.cpp:454] inception_3a/output <- inception_3a/1x1
I1028 13:18:29.170578 28115 net.cpp:454] inception_3a/output <- inception_3a/3x3
I1028 13:18:29.170588 28115 net.cpp:454] inception_3a/output <- inception_3a/5x5
I1028 13:18:29.170595 28115 net.cpp:454] inception_3a/output <- inception_3a/pool_proj
I1028 13:18:29.170605 28115 net.cpp:411] inception_3a/output -> inception_3a/output
I1028 13:18:29.170641 28115 net.cpp:150] Setting up inception_3a/output
I1028 13:18:29.170653 28115 net.cpp:157] Top shape: 32 256 28 28 (6422528)
I1028 13:18:29.170660 28115 net.cpp:165] Memory required for data: 773915136
I1028 13:18:29.170668 28115 layer_factory.hpp:76] Creating layer inception_3a/output_inception_3a/output_0_split
I1028 13:18:29.170680 28115 net.cpp:106] Creating Layer inception_3a/output_inception_3a/output_0_split
I1028 13:18:29.170687 28115 net.cpp:454] inception_3a/output_inception_3a/output_0_split <- inception_3a/output
I1028 13:18:29.170701 28115 net.cpp:411] inception_3a/output_inception_3a/output_0_split -> inception_3a/output_inception_3a/output_0_split_0
I1028 13:18:29.170716 28115 net.cpp:411] inception_3a/output_inception_3a/output_0_split -> inception_3a/output_inception_3a/output_0_split_1
I1028 13:18:29.170729 28115 net.cpp:411] inception_3a/output_inception_3a/output_0_split -> inception_3a/output_inception_3a/output_0_split_2
I1028 13:18:29.170742 28115 net.cpp:411] inception_3a/output_inception_3a/output_0_split -> inception_3a/output_inception_3a/output_0_split_3
I1028 13:18:29.170802 28115 net.cpp:150] Setting up inception_3a/output_inception_3a/output_0_split
I1028 13:18:29.170812 28115 net.cpp:157] Top shape: 32 256 28 28 (6422528)
I1028 13:18:29.170822 28115 net.cpp:157] Top shape: 32 256 28 28 (6422528)
I1028 13:18:29.170832 28115 net.cpp:157] Top shape: 32 256 28 28 (6422528)
I1028 13:18:29.170852 28115 net.cpp:157] Top shape: 32 256 28 28 (6422528)
I1028 13:18:29.170861 28115 net.cpp:165] Memory required for data: 876675584
I1028 13:18:29.170869 28115 layer_factory.hpp:76] Creating layer inception_3b/1x1
I1028 13:18:29.170883 28115 net.cpp:106] Creating Layer inception_3b/1x1
I1028 13:18:29.170892 28115 net.cpp:454] inception_3b/1x1 <- inception_3a/output_inception_3a/output_0_split_0
I1028 13:18:29.170903 28115 net.cpp:411] inception_3b/1x1 -> inception_3b/1x1
I1028 13:18:29.172024 28115 cudnn_conv_layer.cpp:194] Reallocating workspace storage: 20664
I1028 13:18:29.172046 28115 net.cpp:150] Setting up inception_3b/1x1
I1028 13:18:29.172062 28115 net.cpp:157] Top shape: 32 128 28 28 (3211264)
I1028 13:18:29.172071 28115 net.cpp:165] Memory required for data: 889520640
I1028 13:18:29.172086 28115 layer_factory.hpp:76] Creating layer inception_3b/prelu_1x1
I1028 13:18:29.172113 28115 net.cpp:106] Creating Layer inception_3b/prelu_1x1
I1028 13:18:29.172123 28115 net.cpp:454] inception_3b/prelu_1x1 <- inception_3b/1x1
I1028 13:18:29.172137 28115 net.cpp:397] inception_3b/prelu_1x1 -> inception_3b/1x1 (in-place)
I1028 13:18:29.172704 28115 net.cpp:150] Setting up inception_3b/prelu_1x1
I1028 13:18:29.172719 28115 net.cpp:157] Top shape: 32 128 28 28 (3211264)
I1028 13:18:29.172726 28115 net.cpp:165] Memory required for data: 902365696
I1028 13:18:29.172736 28115 layer_factory.hpp:76] Creating layer inception_3b/3x3_reduce
I1028 13:18:29.172751 28115 net.cpp:106] Creating Layer inception_3b/3x3_reduce
I1028 13:18:29.172760 28115 net.cpp:454] inception_3b/3x3_reduce <- inception_3a/output_inception_3a/output_0_split_1
I1028 13:18:29.172775 28115 net.cpp:411] inception_3b/3x3_reduce -> inception_3b/3x3_reduce
I1028 13:18:29.173918 28115 cudnn_conv_layer.cpp:194] Reallocating workspace storage: 20664
I1028 13:18:29.173949 28115 net.cpp:150] Setting up inception_3b/3x3_reduce
I1028 13:18:29.173960 28115 net.cpp:157] Top shape: 32 128 28 28 (3211264)
I1028 13:18:29.173967 28115 net.cpp:165] Memory required for data: 915210752
I1028 13:18:29.173980 28115 layer_factory.hpp:76] Creating layer inception_3b/prelu_3x3_reduce
I1028 13:18:29.173995 28115 net.cpp:106] Creating Layer inception_3b/prelu_3x3_reduce
I1028 13:18:29.174005 28115 net.cpp:454] inception_3b/prelu_3x3_reduce <- inception_3b/3x3_reduce
I1028 13:18:29.174033 28115 net.cpp:397] inception_3b/prelu_3x3_reduce -> inception_3b/3x3_reduce (in-place)
I1028 13:18:29.174165 28115 net.cpp:150] Setting up inception_3b/prelu_3x3_reduce
I1028 13:18:29.174176 28115 net.cpp:157] Top shape: 32 128 28 28 (3211264)
I1028 13:18:29.174185 28115 net.cpp:165] Memory required for data: 928055808
I1028 13:18:29.174206 28115 layer_factory.hpp:76] Creating layer inception_3b/3x3
I1028 13:18:29.174227 28115 net.cpp:106] Creating Layer inception_3b/3x3
I1028 13:18:29.174238 28115 net.cpp:454] inception_3b/3x3 <- inception_3b/3x3_reduce
I1028 13:18:29.174253 28115 net.cpp:411] inception_3b/3x3 -> inception_3b/3x3
I1028 13:18:29.177037 28115 cudnn_conv_layer.cpp:194] Reallocating workspace storage: 20664
I1028 13:18:29.177068 28115 net.cpp:150] Setting up inception_3b/3x3
I1028 13:18:29.177094 28115 net.cpp:157] Top shape: 32 192 28 28 (4816896)
I1028 13:18:29.177104 28115 net.cpp:165] Memory required for data: 947323392
I1028 13:18:29.177127 28115 layer_factory.hpp:76] Creating layer inception_3b/prelu_3x3
I1028 13:18:29.177150 28115 net.cpp:106] Creating Layer inception_3b/prelu_3x3
I1028 13:18:29.177160 28115 net.cpp:454] inception_3b/prelu_3x3 <- inception_3b/3x3
I1028 13:18:29.177173 28115 net.cpp:397] inception_3b/prelu_3x3 -> inception_3b/3x3 (in-place)
I1028 13:18:29.177810 28115 net.cpp:150] Setting up inception_3b/prelu_3x3
I1028 13:18:29.177824 28115 net.cpp:157] Top shape: 32 192 28 28 (4816896)
I1028 13:18:29.177832 28115 net.cpp:165] Memory required for data: 966590976
I1028 13:18:29.177842 28115 layer_factory.hpp:76] Creating layer inception_3b/5x5_reduce
I1028 13:18:29.177860 28115 net.cpp:106] Creating Layer inception_3b/5x5_reduce
I1028 13:18:29.177870 28115 net.cpp:454] inception_3b/5x5_reduce <- inception_3a/output_inception_3a/output_0_split_2
I1028 13:18:29.177898 28115 net.cpp:411] inception_3b/5x5_reduce -> inception_3b/5x5_reduce
I1028 13:18:29.178802 28115 cudnn_conv_layer.cpp:194] Reallocating workspace storage: 20664
I1028 13:18:29.178827 28115 net.cpp:150] Setting up inception_3b/5x5_reduce
I1028 13:18:29.178841 28115 net.cpp:157] Top shape: 32 32 28 28 (802816)
I1028 13:18:29.178849 28115 net.cpp:165] Memory required for data: 969802240
I1028 13:18:29.178863 28115 layer_factory.hpp:76] Creating layer inception_3b/prelu_5x5_reduce
I1028 13:18:29.178877 28115 net.cpp:106] Creating Layer inception_3b/prelu_5x5_reduce
I1028 13:18:29.178886 28115 net.cpp:454] inception_3b/prelu_5x5_reduce <- inception_3b/5x5_reduce
I1028 13:18:29.178901 28115 net.cpp:397] inception_3b/prelu_5x5_reduce -> inception_3b/5x5_reduce (in-place)
I1028 13:18:29.179005 28115 net.cpp:150] Setting up inception_3b/prelu_5x5_reduce
I1028 13:18:29.179018 28115 net.cpp:157] Top shape: 32 32 28 28 (802816)
I1028 13:18:29.179024 28115 net.cpp:165] Memory required for data: 973013504
I1028 13:18:29.179035 28115 layer_factory.hpp:76] Creating layer inception_3b/5x5
I1028 13:18:29.179051 28115 net.cpp:106] Creating Layer inception_3b/5x5
I1028 13:18:29.179061 28115 net.cpp:454] inception_3b/5x5 <- inception_3b/5x5_reduce
I1028 13:18:29.179074 28115 net.cpp:411] inception_3b/5x5 -> inception_3b/5x5
I1028 13:18:29.180680 28115 cudnn_conv_layer.cpp:194] Reallocating workspace storage: 20664
I1028 13:18:29.180711 28115 net.cpp:150] Setting up inception_3b/5x5
I1028 13:18:29.180723 28115 net.cpp:157] Top shape: 32 96 28 28 (2408448)
I1028 13:18:29.180729 28115 net.cpp:165] Memory required for data: 982647296
I1028 13:18:29.180742 28115 layer_factory.hpp:76] Creating layer inception_3b/prelu_5x5
I1028 13:18:29.180753 28115 net.cpp:106] Creating Layer inception_3b/prelu_5x5
I1028 13:18:29.180760 28115 net.cpp:454] inception_3b/prelu_5x5 <- inception_3b/5x5
I1028 13:18:29.180771 28115 net.cpp:397] inception_3b/prelu_5x5 -> inception_3b/5x5 (in-place)
I1028 13:18:29.180949 28115 net.cpp:150] Setting up inception_3b/prelu_5x5
I1028 13:18:29.180959 28115 net.cpp:157] Top shape: 32 96 28 28 (2408448)
I1028 13:18:29.180963 28115 net.cpp:165] Memory required for data: 992281088
I1028 13:18:29.180969 28115 layer_factory.hpp:76] Creating layer inception_3b/pool
I1028 13:18:29.180977 28115 net.cpp:106] Creating Layer inception_3b/pool
I1028 13:18:29.180981 28115 net.cpp:454] inception_3b/pool <- inception_3a/output_inception_3a/output_0_split_3
I1028 13:18:29.180987 28115 net.cpp:411] inception_3b/pool -> inception_3b/pool
I1028 13:18:29.181347 28115 net.cpp:150] Setting up inception_3b/pool
I1028 13:18:29.181359 28115 net.cpp:157] Top shape: 32 256 28 28 (6422528)
I1028 13:18:29.181362 28115 net.cpp:165] Memory required for data: 1017971200
I1028 13:18:29.181367 28115 layer_factory.hpp:76] Creating layer inception_3b/pool_proj
I1028 13:18:29.181377 28115 net.cpp:106] Creating Layer inception_3b/pool_proj
I1028 13:18:29.181381 28115 net.cpp:454] inception_3b/pool_proj <- inception_3b/pool
I1028 13:18:29.181390 28115 net.cpp:411] inception_3b/pool_proj -> inception_3b/pool_proj
I1028 13:18:29.182505 28115 cudnn_conv_layer.cpp:194] Reallocating workspace storage: 20664
I1028 13:18:29.182528 28115 net.cpp:150] Setting up inception_3b/pool_proj
I1028 13:18:29.182538 28115 net.cpp:157] Top shape: 32 64 28 28 (1605632)
I1028 13:18:29.182543 28115 net.cpp:165] Memory required for data: 1024393728
I1028 13:18:29.182550 28115 layer_factory.hpp:76] Creating layer inception_3b/prelu_pool_proj
I1028 13:18:29.182560 28115 net.cpp:106] Creating Layer inception_3b/prelu_pool_proj
I1028 13:18:29.182566 28115 net.cpp:454] inception_3b/prelu_pool_proj <- inception_3b/pool_proj
I1028 13:18:29.182572 28115 net.cpp:397] inception_3b/prelu_pool_proj -> inception_3b/pool_proj (in-place)
I1028 13:18:29.182723 28115 net.cpp:150] Setting up inception_3b/prelu_pool_proj
I1028 13:18:29.182731 28115 net.cpp:157] Top shape: 32 64 28 28 (1605632)
I1028 13:18:29.182749 28115 net.cpp:165] Memory required for data: 1030816256
I1028 13:18:29.182755 28115 layer_factory.hpp:76] Creating layer inception_3b/output
I1028 13:18:29.182773 28115 net.cpp:106] Creating Layer inception_3b/output
I1028 13:18:29.182777 28115 net.cpp:454] inception_3b/output <- inception_3b/1x1
I1028 13:18:29.182782 28115 net.cpp:454] inception_3b/output <- inception_3b/3x3
I1028 13:18:29.182788 28115 net.cpp:454] inception_3b/output <- inception_3b/5x5
I1028 13:18:29.182793 28115 net.cpp:454] inception_3b/output <- inception_3b/pool_proj
I1028 13:18:29.182798 28115 net.cpp:411] inception_3b/output -> inception_3b/output
I1028 13:18:29.182837 28115 net.cpp:150] Setting up inception_3b/output
I1028 13:18:29.182852 28115 net.cpp:157] Top shape: 32 480 28 28 (12042240)
I1028 13:18:29.182857 28115 net.cpp:165] Memory required for data: 1078985216
I1028 13:18:29.182868 28115 layer_factory.hpp:76] Creating layer pool3/3x3_s2
I1028 13:18:29.182891 28115 net.cpp:106] Creating Layer pool3/3x3_s2
I1028 13:18:29.182896 28115 net.cpp:454] pool3/3x3_s2 <- inception_3b/output
I1028 13:18:29.182904 28115 net.cpp:411] pool3/3x3_s2 -> pool3/3x3_s2
I1028 13:18:29.183270 28115 net.cpp:150] Setting up pool3/3x3_s2
I1028 13:18:29.183281 28115 net.cpp:157] Top shape: 32 480 14 14 (3010560)
I1028 13:18:29.183285 28115 net.cpp:165] Memory required for data: 1091027456
I1028 13:18:29.183290 28115 layer_factory.hpp:76] Creating layer pool3/3x3_s2_pool3/3x3_s2_0_split
I1028 13:18:29.183296 28115 net.cpp:106] Creating Layer pool3/3x3_s2_pool3/3x3_s2_0_split
I1028 13:18:29.183300 28115 net.cpp:454] pool3/3x3_s2_pool3/3x3_s2_0_split <- pool3/3x3_s2
I1028 13:18:29.183307 28115 net.cpp:411] pool3/3x3_s2_pool3/3x3_s2_0_split -> pool3/3x3_s2_pool3/3x3_s2_0_split_0
I1028 13:18:29.183315 28115 net.cpp:411] pool3/3x3_s2_pool3/3x3_s2_0_split -> pool3/3x3_s2_pool3/3x3_s2_0_split_1
I1028 13:18:29.183321 28115 net.cpp:411] pool3/3x3_s2_pool3/3x3_s2_0_split -> pool3/3x3_s2_pool3/3x3_s2_0_split_2
I1028 13:18:29.183327 28115 net.cpp:411] pool3/3x3_s2_pool3/3x3_s2_0_split -> pool3/3x3_s2_pool3/3x3_s2_0_split_3
I1028 13:18:29.183378 28115 net.cpp:150] Setting up pool3/3x3_s2_pool3/3x3_s2_0_split
I1028 13:18:29.183385 28115 net.cpp:157] Top shape: 32 480 14 14 (3010560)
I1028 13:18:29.183390 28115 net.cpp:157] Top shape: 32 480 14 14 (3010560)
I1028 13:18:29.183395 28115 net.cpp:157] Top shape: 32 480 14 14 (3010560)
I1028 13:18:29.183399 28115 net.cpp:157] Top shape: 32 480 14 14 (3010560)
I1028 13:18:29.183403 28115 net.cpp:165] Memory required for data: 1139196416
I1028 13:18:29.183408 28115 layer_factory.hpp:76] Creating layer inception_4a/1x1
I1028 13:18:29.183418 28115 net.cpp:106] Creating Layer inception_4a/1x1
I1028 13:18:29.183423 28115 net.cpp:454] inception_4a/1x1 <- pool3/3x3_s2_pool3/3x3_s2_0_split_0
I1028 13:18:29.183429 28115 net.cpp:411] inception_4a/1x1 -> inception_4a/1x1
I1028 13:18:29.185484 28115 cudnn_conv_layer.cpp:194] Reallocating workspace storage: 10080
I1028 13:18:29.185734 28115 net.cpp:150] Setting up inception_4a/1x1
I1028 13:18:29.185750 28115 net.cpp:157] Top shape: 32 192 14 14 (1204224)
I1028 13:18:29.185756 28115 net.cpp:165] Memory required for data: 1144013312
I1028 13:18:29.185775 28115 layer_factory.hpp:76] Creating layer inception_4a/prelu_1x1
I1028 13:18:29.185788 28115 net.cpp:106] Creating Layer inception_4a/prelu_1x1
I1028 13:18:29.185796 28115 net.cpp:454] inception_4a/prelu_1x1 <- inception_4a/1x1
I1028 13:18:29.185806 28115 net.cpp:397] inception_4a/prelu_1x1 -> inception_4a/1x1 (in-place)
I1028 13:18:29.186527 28115 net.cpp:150] Setting up inception_4a/prelu_1x1
I1028 13:18:29.186543 28115 net.cpp:157] Top shape: 32 192 14 14 (1204224)
I1028 13:18:29.186547 28115 net.cpp:165] Memory required for data: 1148830208
I1028 13:18:29.186554 28115 layer_factory.hpp:76] Creating layer inception_4a/3x3_reduce
I1028 13:18:29.186576 28115 net.cpp:106] Creating Layer inception_4a/3x3_reduce
I1028 13:18:29.186583 28115 net.cpp:454] inception_4a/3x3_reduce <- pool3/3x3_s2_pool3/3x3_s2_0_split_1
I1028 13:18:29.186592 28115 net.cpp:411] inception_4a/3x3_reduce -> inception_4a/3x3_reduce
I1028 13:18:29.188000 28115 cudnn_conv_layer.cpp:194] Reallocating workspace storage: 10080
I1028 13:18:29.188046 28115 net.cpp:150] Setting up inception_4a/3x3_reduce
I1028 13:18:29.188055 28115 net.cpp:157] Top shape: 32 96 14 14 (602112)
I1028 13:18:29.188061 28115 net.cpp:165] Memory required for data: 1151238656
I1028 13:18:29.188069 28115 layer_factory.hpp:76] Creating layer inception_4a/prelu_3x3_reduce
I1028 13:18:29.188078 28115 net.cpp:106] Creating Layer inception_4a/prelu_3x3_reduce
I1028 13:18:29.188083 28115 net.cpp:454] inception_4a/prelu_3x3_reduce <- inception_4a/3x3_reduce
I1028 13:18:29.188092 28115 net.cpp:397] inception_4a/prelu_3x3_reduce -> inception_4a/3x3_reduce (in-place)
I1028 13:18:29.188194 28115 net.cpp:150] Setting up inception_4a/prelu_3x3_reduce
I1028 13:18:29.188202 28115 net.cpp:157] Top shape: 32 96 14 14 (602112)
I1028 13:18:29.188206 28115 net.cpp:165] Memory required for data: 1153647104
I1028 13:18:29.188212 28115 layer_factory.hpp:76] Creating layer inception_4a/3x3
I1028 13:18:29.188222 28115 net.cpp:106] Creating Layer inception_4a/3x3
I1028 13:18:29.188228 28115 net.cpp:454] inception_4a/3x3 <- inception_4a/3x3_reduce
I1028 13:18:29.188236 28115 net.cpp:411] inception_4a/3x3 -> inception_4a/3x3
I1028 13:18:29.190613 28115 cudnn_conv_layer.cpp:194] Reallocating workspace storage: 10080
I1028 13:18:29.190639 28115 net.cpp:150] Setting up inception_4a/3x3
I1028 13:18:29.190649 28115 net.cpp:157] Top shape: 32 208 14 14 (1304576)
I1028 13:18:29.190652 28115 net.cpp:165] Memory required for data: 1158865408
I1028 13:18:29.190659 28115 layer_factory.hpp:76] Creating layer inception_4a/prelu_3x3
I1028 13:18:29.190670 28115 net.cpp:106] Creating Layer inception_4a/prelu_3x3
I1028 13:18:29.190675 28115 net.cpp:454] inception_4a/prelu_3x3 <- inception_4a/3x3
I1028 13:18:29.190680 28115 net.cpp:397] inception_4a/prelu_3x3 -> inception_4a/3x3 (in-place)
I1028 13:18:29.190811 28115 net.cpp:150] Setting up inception_4a/prelu_3x3
I1028 13:18:29.190820 28115 net.cpp:157] Top shape: 32 208 14 14 (1304576)
I1028 13:18:29.190824 28115 net.cpp:165] Memory required for data: 1164083712
I1028 13:18:29.190829 28115 layer_factory.hpp:76] Creating layer inception_4a/5x5_reduce
I1028 13:18:29.190840 28115 net.cpp:106] Creating Layer inception_4a/5x5_reduce
I1028 13:18:29.190845 28115 net.cpp:454] inception_4a/5x5_reduce <- pool3/3x3_s2_pool3/3x3_s2_0_split_2
I1028 13:18:29.190852 28115 net.cpp:411] inception_4a/5x5_reduce -> inception_4a/5x5_reduce
I1028 13:18:29.191855 28115 cudnn_conv_layer.cpp:194] Reallocating workspace storage: 10080
I1028 13:18:29.191879 28115 net.cpp:150] Setting up inception_4a/5x5_reduce
I1028 13:18:29.191886 28115 net.cpp:157] Top shape: 32 16 14 14 (100352)
I1028 13:18:29.191890 28115 net.cpp:165] Memory required for data: 1164485120
I1028 13:18:29.191897 28115 layer_factory.hpp:76] Creating layer inception_4a/prelu_5x5_reduce
I1028 13:18:29.191905 28115 net.cpp:106] Creating Layer inception_4a/prelu_5x5_reduce
I1028 13:18:29.191910 28115 net.cpp:454] inception_4a/prelu_5x5_reduce <- inception_4a/5x5_reduce
I1028 13:18:29.191916 28115 net.cpp:397] inception_4a/prelu_5x5_reduce -> inception_4a/5x5_reduce (in-place)
I1028 13:18:29.191995 28115 net.cpp:150] Setting up inception_4a/prelu_5x5_reduce
I1028 13:18:29.192003 28115 net.cpp:157] Top shape: 32 16 14 14 (100352)
I1028 13:18:29.192008 28115 net.cpp:165] Memory required for data: 1164886528
I1028 13:18:29.192013 28115 layer_factory.hpp:76] Creating layer inception_4a/5x5
I1028 13:18:29.192021 28115 net.cpp:106] Creating Layer inception_4a/5x5
I1028 13:18:29.192026 28115 net.cpp:454] inception_4a/5x5 <- inception_4a/5x5_reduce
I1028 13:18:29.192034 28115 net.cpp:411] inception_4a/5x5 -> inception_4a/5x5
I1028 13:18:29.193097 28115 cudnn_conv_layer.cpp:194] Reallocating workspace storage: 13080
I1028 13:18:29.193120 28115 net.cpp:150] Setting up inception_4a/5x5
I1028 13:18:29.193126 28115 net.cpp:157] Top shape: 32 48 14 14 (301056)
I1028 13:18:29.193130 28115 net.cpp:165] Memory required for data: 1166090752
I1028 13:18:29.193156 28115 layer_factory.hpp:76] Creating layer inception_4a/prelu_5x5
I1028 13:18:29.193164 28115 net.cpp:106] Creating Layer inception_4a/prelu_5x5
I1028 13:18:29.193171 28115 net.cpp:454] inception_4a/prelu_5x5 <- inception_4a/5x5
I1028 13:18:29.193176 28115 net.cpp:397] inception_4a/prelu_5x5 -> inception_4a/5x5 (in-place)
I1028 13:18:29.193279 28115 net.cpp:150] Setting up inception_4a/prelu_5x5
I1028 13:18:29.193287 28115 net.cpp:157] Top shape: 32 48 14 14 (301056)
I1028 13:18:29.193291 28115 net.cpp:165] Memory required for data: 1167294976
I1028 13:18:29.193296 28115 layer_factory.hpp:76] Creating layer inception_4a/pool
I1028 13:18:29.193303 28115 net.cpp:106] Creating Layer inception_4a/pool
I1028 13:18:29.193308 28115 net.cpp:454] inception_4a/pool <- pool3/3x3_s2_pool3/3x3_s2_0_split_3
I1028 13:18:29.193315 28115 net.cpp:411] inception_4a/pool -> inception_4a/pool
I1028 13:18:29.193663 28115 net.cpp:150] Setting up inception_4a/pool
I1028 13:18:29.193675 28115 net.cpp:157] Top shape: 32 480 14 14 (3010560)
I1028 13:18:29.193678 28115 net.cpp:165] Memory required for data: 1179337216
I1028 13:18:29.193683 28115 layer_factory.hpp:76] Creating layer inception_4a/pool_proj
I1028 13:18:29.193691 28115 net.cpp:106] Creating Layer inception_4a/pool_proj
I1028 13:18:29.193696 28115 net.cpp:454] inception_4a/pool_proj <- inception_4a/pool
I1028 13:18:29.193704 28115 net.cpp:411] inception_4a/pool_proj -> inception_4a/pool_proj
I1028 13:18:29.194671 28115 cudnn_conv_layer.cpp:194] Reallocating workspace storage: 10080
I1028 13:18:29.194699 28115 net.cpp:150] Setting up inception_4a/pool_proj
I1028 13:18:29.194705 28115 net.cpp:157] Top shape: 32 64 14 14 (401408)
I1028 13:18:29.194717 28115 net.cpp:165] Memory required for data: 1180942848
I1028 13:18:29.194725 28115 layer_factory.hpp:76] Creating layer inception_4a/prelu_pool_proj
I1028 13:18:29.194731 28115 net.cpp:106] Creating Layer inception_4a/prelu_pool_proj
I1028 13:18:29.194742 28115 net.cpp:454] inception_4a/prelu_pool_proj <- inception_4a/pool_proj
I1028 13:18:29.194758 28115 net.cpp:397] inception_4a/prelu_pool_proj -> inception_4a/pool_proj (in-place)
I1028 13:18:29.194856 28115 net.cpp:150] Setting up inception_4a/prelu_pool_proj
I1028 13:18:29.194865 28115 net.cpp:157] Top shape: 32 64 14 14 (401408)
I1028 13:18:29.194869 28115 net.cpp:165] Memory required for data: 1182548480
I1028 13:18:29.194874 28115 layer_factory.hpp:76] Creating layer inception_4a/output
I1028 13:18:29.194880 28115 net.cpp:106] Creating Layer inception_4a/output
I1028 13:18:29.194885 28115 net.cpp:454] inception_4a/output <- inception_4a/1x1
I1028 13:18:29.194888 28115 net.cpp:454] inception_4a/output <- inception_4a/3x3
I1028 13:18:29.194900 28115 net.cpp:454] inception_4a/output <- inception_4a/5x5
I1028 13:18:29.194905 28115 net.cpp:454] inception_4a/output <- inception_4a/pool_proj
I1028 13:18:29.194911 28115 net.cpp:411] inception_4a/output -> inception_4a/output
I1028 13:18:29.194934 28115 net.cpp:150] Setting up inception_4a/output
I1028 13:18:29.194942 28115 net.cpp:157] Top shape: 32 512 14 14 (3211264)
I1028 13:18:29.194947 28115 net.cpp:165] Memory required for data: 1195393536
I1028 13:18:29.194949 28115 layer_factory.hpp:76] Creating layer inception_4a/output_inception_4a/output_0_split
I1028 13:18:29.194957 28115 net.cpp:106] Creating Layer inception_4a/output_inception_4a/output_0_split
I1028 13:18:29.194962 28115 net.cpp:454] inception_4a/output_inception_4a/output_0_split <- inception_4a/output
I1028 13:18:29.194967 28115 net.cpp:411] inception_4a/output_inception_4a/output_0_split -> inception_4a/output_inception_4a/output_0_split_0
I1028 13:18:29.194974 28115 net.cpp:411] inception_4a/output_inception_4a/output_0_split -> inception_4a/output_inception_4a/output_0_split_1
I1028 13:18:29.194980 28115 net.cpp:411] inception_4a/output_inception_4a/output_0_split -> inception_4a/output_inception_4a/output_0_split_2
I1028 13:18:29.194986 28115 net.cpp:411] inception_4a/output_inception_4a/output_0_split -> inception_4a/output_inception_4a/output_0_split_3
I1028 13:18:29.195005 28115 net.cpp:411] inception_4a/output_inception_4a/output_0_split -> inception_4a/output_inception_4a/output_0_split_4
I1028 13:18:29.195067 28115 net.cpp:150] Setting up inception_4a/output_inception_4a/output_0_split
I1028 13:18:29.195075 28115 net.cpp:157] Top shape: 32 512 14 14 (3211264)
I1028 13:18:29.195080 28115 net.cpp:157] Top shape: 32 512 14 14 (3211264)
I1028 13:18:29.195085 28115 net.cpp:157] Top shape: 32 512 14 14 (3211264)
I1028 13:18:29.195089 28115 net.cpp:157] Top shape: 32 512 14 14 (3211264)
I1028 13:18:29.195093 28115 net.cpp:157] Top shape: 32 512 14 14 (3211264)
I1028 13:18:29.195097 28115 net.cpp:165] Memory required for data: 1259618816
I1028 13:18:29.195101 28115 layer_factory.hpp:76] Creating layer loss1/ave_pool
I1028 13:18:29.195107 28115 net.cpp:106] Creating Layer loss1/ave_pool
I1028 13:18:29.195111 28115 net.cpp:454] loss1/ave_pool <- inception_4a/output_inception_4a/output_0_split_0
I1028 13:18:29.195117 28115 net.cpp:411] loss1/ave_pool -> loss1/ave_pool
I1028 13:18:29.195454 28115 net.cpp:150] Setting up loss1/ave_pool
I1028 13:18:29.195464 28115 net.cpp:157] Top shape: 32 512 4 4 (262144)
I1028 13:18:29.195468 28115 net.cpp:165] Memory required for data: 1260667392
I1028 13:18:29.195473 28115 layer_factory.hpp:76] Creating layer loss1/conv
I1028 13:18:29.195482 28115 net.cpp:106] Creating Layer loss1/conv
I1028 13:18:29.195487 28115 net.cpp:454] loss1/conv <- loss1/ave_pool
I1028 13:18:29.195502 28115 net.cpp:411] loss1/conv -> loss1/conv
I1028 13:18:29.196841 28115 cudnn_conv_layer.cpp:194] Reallocating workspace storage: 6840
I1028 13:18:29.196862 28115 net.cpp:150] Setting up loss1/conv
I1028 13:18:29.196869 28115 net.cpp:157] Top shape: 32 128 4 4 (65536)
I1028 13:18:29.196873 28115 net.cpp:165] Memory required for data: 1260929536
I1028 13:18:29.196890 28115 layer_factory.hpp:76] Creating layer loss1/prelu_conv
I1028 13:18:29.196899 28115 net.cpp:106] Creating Layer loss1/prelu_conv
I1028 13:18:29.196904 28115 net.cpp:454] loss1/prelu_conv <- loss1/conv
I1028 13:18:29.196912 28115 net.cpp:397] loss1/prelu_conv -> loss1/conv (in-place)
I1028 13:18:29.196991 28115 net.cpp:150] Setting up loss1/prelu_conv
I1028 13:18:29.197000 28115 net.cpp:157] Top shape: 32 128 4 4 (65536)
I1028 13:18:29.197003 28115 net.cpp:165] Memory required for data: 1261191680
I1028 13:18:29.197010 28115 layer_factory.hpp:76] Creating layer loss1/fc
I1028 13:18:29.197021 28115 net.cpp:106] Creating Layer loss1/fc
I1028 13:18:29.197026 28115 net.cpp:454] loss1/fc <- loss1/conv
I1028 13:18:29.197033 28115 net.cpp:411] loss1/fc -> loss1/fc
I1028 13:18:29.211282 28115 net.cpp:150] Setting up loss1/fc
I1028 13:18:29.211318 28115 net.cpp:157] Top shape: 32 1024 (32768)
I1028 13:18:29.211321 28115 net.cpp:165] Memory required for data: 1261322752
I1028 13:18:29.211333 28115 layer_factory.hpp:76] Creating layer loss1/prelu_fc
I1028 13:18:29.211355 28115 net.cpp:106] Creating Layer loss1/prelu_fc
I1028 13:18:29.211364 28115 net.cpp:454] loss1/prelu_fc <- loss1/fc
I1028 13:18:29.211376 28115 net.cpp:397] loss1/prelu_fc -> loss1/fc (in-place)
I1028 13:18:29.211473 28115 net.cpp:150] Setting up loss1/prelu_fc
I1028 13:18:29.211482 28115 net.cpp:157] Top shape: 32 1024 (32768)
I1028 13:18:29.211485 28115 net.cpp:165] Memory required for data: 1261453824
I1028 13:18:29.211499 28115 layer_factory.hpp:76] Creating layer loss1/drop_fc
I1028 13:18:29.211529 28115 net.cpp:106] Creating Layer loss1/drop_fc
I1028 13:18:29.211534 28115 net.cpp:454] loss1/drop_fc <- loss1/fc
I1028 13:18:29.211539 28115 net.cpp:397] loss1/drop_fc -> loss1/fc (in-place)
I1028 13:18:29.211585 28115 net.cpp:150] Setting up loss1/drop_fc
I1028 13:18:29.211593 28115 net.cpp:157] Top shape: 32 1024 (32768)
I1028 13:18:29.211597 28115 net.cpp:165] Memory required for data: 1261584896
I1028 13:18:29.211609 28115 layer_factory.hpp:76] Creating layer loss1/classifier2
I1028 13:18:29.211617 28115 net.cpp:106] Creating Layer loss1/classifier2
I1028 13:18:29.211621 28115 net.cpp:454] loss1/classifier2 <- loss1/fc
I1028 13:18:29.211650 28115 net.cpp:411] loss1/classifier2 -> loss1/classifier
I1028 13:18:29.211773 28115 net.cpp:150] Setting up loss1/classifier2
I1028 13:18:29.211782 28115 net.cpp:157] Top shape: 32 2 (64)
I1028 13:18:29.211786 28115 net.cpp:165] Memory required for data: 1261585152
I1028 13:18:29.211801 28115 layer_factory.hpp:76] Creating layer loss1/loss
I1028 13:18:29.211817 28115 net.cpp:106] Creating Layer loss1/loss
I1028 13:18:29.211822 28115 net.cpp:454] loss1/loss <- loss1/classifier
I1028 13:18:29.211827 28115 net.cpp:454] loss1/loss <- label_data_1_split_0
I1028 13:18:29.211833 28115 net.cpp:411] loss1/loss -> loss1/loss1
I1028 13:18:29.211854 28115 layer_factory.hpp:76] Creating layer loss1/loss
I1028 13:18:29.212164 28115 net.cpp:150] Setting up loss1/loss
I1028 13:18:29.212175 28115 net.cpp:157] Top shape: (1)
I1028 13:18:29.212179 28115 net.cpp:160]     with loss weight 0.3
I1028 13:18:29.212225 28115 net.cpp:165] Memory required for data: 1261585156
I1028 13:18:29.212256 28115 layer_factory.hpp:76] Creating layer inception_4b/1x1
I1028 13:18:29.212280 28115 net.cpp:106] Creating Layer inception_4b/1x1
I1028 13:18:29.212292 28115 net.cpp:454] inception_4b/1x1 <- inception_4a/output_inception_4a/output_0_split_1
I1028 13:18:29.212308 28115 net.cpp:411] inception_4b/1x1 -> inception_4b/1x1
I1028 13:18:29.214290 28115 cudnn_conv_layer.cpp:194] Reallocating workspace storage: 10080
I1028 13:18:29.214331 28115 net.cpp:150] Setting up inception_4b/1x1
I1028 13:18:29.214350 28115 net.cpp:157] Top shape: 32 160 14 14 (1003520)
I1028 13:18:29.214359 28115 net.cpp:165] Memory required for data: 1265599236
I1028 13:18:29.214372 28115 layer_factory.hpp:76] Creating layer inception_4b/prelu_1x1
I1028 13:18:29.214400 28115 net.cpp:106] Creating Layer inception_4b/prelu_1x1
I1028 13:18:29.214411 28115 net.cpp:454] inception_4b/prelu_1x1 <- inception_4b/1x1
I1028 13:18:29.214423 28115 net.cpp:397] inception_4b/prelu_1x1 -> inception_4b/1x1 (in-place)
I1028 13:18:29.215235 28115 net.cpp:150] Setting up inception_4b/prelu_1x1
I1028 13:18:29.215253 28115 net.cpp:157] Top shape: 32 160 14 14 (1003520)
I1028 13:18:29.215258 28115 net.cpp:165] Memory required for data: 1269613316
I1028 13:18:29.215276 28115 layer_factory.hpp:76] Creating layer inception_4b/3x3_reduce
I1028 13:18:29.215288 28115 net.cpp:106] Creating Layer inception_4b/3x3_reduce
I1028 13:18:29.215294 28115 net.cpp:454] inception_4b/3x3_reduce <- inception_4a/output_inception_4a/output_0_split_2
I1028 13:18:29.215303 28115 net.cpp:411] inception_4b/3x3_reduce -> inception_4b/3x3_reduce
I1028 13:18:29.216927 28115 cudnn_conv_layer.cpp:194] Reallocating workspace storage: 10080
I1028 13:18:29.216959 28115 net.cpp:150] Setting up inception_4b/3x3_reduce
I1028 13:18:29.216967 28115 net.cpp:157] Top shape: 32 112 14 14 (702464)
I1028 13:18:29.216974 28115 net.cpp:165] Memory required for data: 1272423172
I1028 13:18:29.216980 28115 layer_factory.hpp:76] Creating layer inception_4b/prelu_3x3_reduce
I1028 13:18:29.217000 28115 net.cpp:106] Creating Layer inception_4b/prelu_3x3_reduce
I1028 13:18:29.217015 28115 net.cpp:454] inception_4b/prelu_3x3_reduce <- inception_4b/3x3_reduce
I1028 13:18:29.217026 28115 net.cpp:397] inception_4b/prelu_3x3_reduce -> inception_4b/3x3_reduce (in-place)
I1028 13:18:29.217128 28115 net.cpp:150] Setting up inception_4b/prelu_3x3_reduce
I1028 13:18:29.217135 28115 net.cpp:157] Top shape: 32 112 14 14 (702464)
I1028 13:18:29.217139 28115 net.cpp:165] Memory required for data: 1275233028
I1028 13:18:29.217144 28115 layer_factory.hpp:76] Creating layer inception_4b/3x3
I1028 13:18:29.217154 28115 net.cpp:106] Creating Layer inception_4b/3x3
I1028 13:18:29.217159 28115 net.cpp:454] inception_4b/3x3 <- inception_4b/3x3_reduce
I1028 13:18:29.217167 28115 net.cpp:411] inception_4b/3x3 -> inception_4b/3x3
I1028 13:18:29.219951 28115 cudnn_conv_layer.cpp:194] Reallocating workspace storage: 10080
I1028 13:18:29.219979 28115 net.cpp:150] Setting up inception_4b/3x3
I1028 13:18:29.219988 28115 net.cpp:157] Top shape: 32 224 14 14 (1404928)
I1028 13:18:29.220008 28115 net.cpp:165] Memory required for data: 1280852740
I1028 13:18:29.220016 28115 layer_factory.hpp:76] Creating layer inception_4b/prelu_3x3
I1028 13:18:29.220026 28115 net.cpp:106] Creating Layer inception_4b/prelu_3x3
I1028 13:18:29.220031 28115 net.cpp:454] inception_4b/prelu_3x3 <- inception_4b/3x3
I1028 13:18:29.220036 28115 net.cpp:397] inception_4b/prelu_3x3 -> inception_4b/3x3 (in-place)
I1028 13:18:29.220155 28115 net.cpp:150] Setting up inception_4b/prelu_3x3
I1028 13:18:29.220163 28115 net.cpp:157] Top shape: 32 224 14 14 (1404928)
I1028 13:18:29.220167 28115 net.cpp:165] Memory required for data: 1286472452
I1028 13:18:29.220172 28115 layer_factory.hpp:76] Creating layer inception_4b/5x5_reduce
I1028 13:18:29.220183 28115 net.cpp:106] Creating Layer inception_4b/5x5_reduce
I1028 13:18:29.220188 28115 net.cpp:454] inception_4b/5x5_reduce <- inception_4a/output_inception_4a/output_0_split_3
I1028 13:18:29.220194 28115 net.cpp:411] inception_4b/5x5_reduce -> inception_4b/5x5_reduce
I1028 13:18:29.221065 28115 cudnn_conv_layer.cpp:194] Reallocating workspace storage: 10080
I1028 13:18:29.221088 28115 net.cpp:150] Setting up inception_4b/5x5_reduce
I1028 13:18:29.221096 28115 net.cpp:157] Top shape: 32 24 14 14 (150528)
I1028 13:18:29.221099 28115 net.cpp:165] Memory required for data: 1287074564
I1028 13:18:29.221107 28115 layer_factory.hpp:76] Creating layer inception_4b/prelu_5x5_reduce
I1028 13:18:29.221114 28115 net.cpp:106] Creating Layer inception_4b/prelu_5x5_reduce
I1028 13:18:29.221119 28115 net.cpp:454] inception_4b/prelu_5x5_reduce <- inception_4b/5x5_reduce
I1028 13:18:29.221125 28115 net.cpp:397] inception_4b/prelu_5x5_reduce -> inception_4b/5x5_reduce (in-place)
I1028 13:18:29.221210 28115 net.cpp:150] Setting up inception_4b/prelu_5x5_reduce
I1028 13:18:29.221217 28115 net.cpp:157] Top shape: 32 24 14 14 (150528)
I1028 13:18:29.221221 28115 net.cpp:165] Memory required for data: 1287676676
I1028 13:18:29.221226 28115 layer_factory.hpp:76] Creating layer inception_4b/5x5
I1028 13:18:29.221235 28115 net.cpp:106] Creating Layer inception_4b/5x5
I1028 13:18:29.221240 28115 net.cpp:454] inception_4b/5x5 <- inception_4b/5x5_reduce
I1028 13:18:29.221246 28115 net.cpp:411] inception_4b/5x5 -> inception_4b/5x5
I1028 13:18:29.222460 28115 cudnn_conv_layer.cpp:194] Reallocating workspace storage: 13080
I1028 13:18:29.222483 28115 net.cpp:150] Setting up inception_4b/5x5
I1028 13:18:29.222491 28115 net.cpp:157] Top shape: 32 64 14 14 (401408)
I1028 13:18:29.222494 28115 net.cpp:165] Memory required for data: 1289282308
I1028 13:18:29.222501 28115 layer_factory.hpp:76] Creating layer inception_4b/prelu_5x5
I1028 13:18:29.222517 28115 net.cpp:106] Creating Layer inception_4b/prelu_5x5
I1028 13:18:29.222522 28115 net.cpp:454] inception_4b/prelu_5x5 <- inception_4b/5x5
I1028 13:18:29.222527 28115 net.cpp:397] inception_4b/prelu_5x5 -> inception_4b/5x5 (in-place)
I1028 13:18:29.222645 28115 net.cpp:150] Setting up inception_4b/prelu_5x5
I1028 13:18:29.222653 28115 net.cpp:157] Top shape: 32 64 14 14 (401408)
I1028 13:18:29.222656 28115 net.cpp:165] Memory required for data: 1290887940
I1028 13:18:29.222662 28115 layer_factory.hpp:76] Creating layer inception_4b/pool
I1028 13:18:29.222678 28115 net.cpp:106] Creating Layer inception_4b/pool
I1028 13:18:29.222683 28115 net.cpp:454] inception_4b/pool <- inception_4a/output_inception_4a/output_0_split_4
I1028 13:18:29.222689 28115 net.cpp:411] inception_4b/pool -> inception_4b/pool
I1028 13:18:29.223070 28115 net.cpp:150] Setting up inception_4b/pool
I1028 13:18:29.223081 28115 net.cpp:157] Top shape: 32 512 14 14 (3211264)
I1028 13:18:29.223085 28115 net.cpp:165] Memory required for data: 1303732996
I1028 13:18:29.223089 28115 layer_factory.hpp:76] Creating layer inception_4b/pool_proj
I1028 13:18:29.223099 28115 net.cpp:106] Creating Layer inception_4b/pool_proj
I1028 13:18:29.223104 28115 net.cpp:454] inception_4b/pool_proj <- inception_4b/pool
I1028 13:18:29.223111 28115 net.cpp:411] inception_4b/pool_proj -> inception_4b/pool_proj
I1028 13:18:29.224295 28115 cudnn_conv_layer.cpp:194] Reallocating workspace storage: 10080
I1028 13:18:29.224323 28115 net.cpp:150] Setting up inception_4b/pool_proj
I1028 13:18:29.224329 28115 net.cpp:157] Top shape: 32 64 14 14 (401408)
I1028 13:18:29.224334 28115 net.cpp:165] Memory required for data: 1305338628
I1028 13:18:29.224340 28115 layer_factory.hpp:76] Creating layer inception_4b/prelu_pool_proj
I1028 13:18:29.224349 28115 net.cpp:106] Creating Layer inception_4b/prelu_pool_proj
I1028 13:18:29.224354 28115 net.cpp:454] inception_4b/prelu_pool_proj <- inception_4b/pool_proj
I1028 13:18:29.224359 28115 net.cpp:397] inception_4b/prelu_pool_proj -> inception_4b/pool_proj (in-place)
I1028 13:18:29.224467 28115 net.cpp:150] Setting up inception_4b/prelu_pool_proj
I1028 13:18:29.224477 28115 net.cpp:157] Top shape: 32 64 14 14 (401408)
I1028 13:18:29.224480 28115 net.cpp:165] Memory required for data: 1306944260
I1028 13:18:29.224485 28115 layer_factory.hpp:76] Creating layer inception_4b/output
I1028 13:18:29.224493 28115 net.cpp:106] Creating Layer inception_4b/output
I1028 13:18:29.224496 28115 net.cpp:454] inception_4b/output <- inception_4b/1x1
I1028 13:18:29.224501 28115 net.cpp:454] inception_4b/output <- inception_4b/3x3
I1028 13:18:29.224506 28115 net.cpp:454] inception_4b/output <- inception_4b/5x5
I1028 13:18:29.224510 28115 net.cpp:454] inception_4b/output <- inception_4b/pool_proj
I1028 13:18:29.224517 28115 net.cpp:411] inception_4b/output -> inception_4b/output
I1028 13:18:29.224541 28115 net.cpp:150] Setting up inception_4b/output
I1028 13:18:29.224550 28115 net.cpp:157] Top shape: 32 512 14 14 (3211264)
I1028 13:18:29.224553 28115 net.cpp:165] Memory required for data: 1319789316
I1028 13:18:29.224556 28115 layer_factory.hpp:76] Creating layer inception_4b/output_inception_4b/output_0_split
I1028 13:18:29.224581 28115 net.cpp:106] Creating Layer inception_4b/output_inception_4b/output_0_split
I1028 13:18:29.224586 28115 net.cpp:454] inception_4b/output_inception_4b/output_0_split <- inception_4b/output
I1028 13:18:29.224591 28115 net.cpp:411] inception_4b/output_inception_4b/output_0_split -> inception_4b/output_inception_4b/output_0_split_0
I1028 13:18:29.224597 28115 net.cpp:411] inception_4b/output_inception_4b/output_0_split -> inception_4b/output_inception_4b/output_0_split_1
I1028 13:18:29.224604 28115 net.cpp:411] inception_4b/output_inception_4b/output_0_split -> inception_4b/output_inception_4b/output_0_split_2
I1028 13:18:29.224611 28115 net.cpp:411] inception_4b/output_inception_4b/output_0_split -> inception_4b/output_inception_4b/output_0_split_3
I1028 13:18:29.224681 28115 net.cpp:150] Setting up inception_4b/output_inception_4b/output_0_split
I1028 13:18:29.224689 28115 net.cpp:157] Top shape: 32 512 14 14 (3211264)
I1028 13:18:29.224694 28115 net.cpp:157] Top shape: 32 512 14 14 (3211264)
I1028 13:18:29.224699 28115 net.cpp:157] Top shape: 32 512 14 14 (3211264)
I1028 13:18:29.224704 28115 net.cpp:157] Top shape: 32 512 14 14 (3211264)
I1028 13:18:29.224707 28115 net.cpp:165] Memory required for data: 1371169540
I1028 13:18:29.224711 28115 layer_factory.hpp:76] Creating layer inception_4c/1x1
I1028 13:18:29.224719 28115 net.cpp:106] Creating Layer inception_4c/1x1
I1028 13:18:29.224722 28115 net.cpp:454] inception_4c/1x1 <- inception_4b/output_inception_4b/output_0_split_0
I1028 13:18:29.224730 28115 net.cpp:411] inception_4c/1x1 -> inception_4c/1x1
I1028 13:18:29.226352 28115 cudnn_conv_layer.cpp:194] Reallocating workspace storage: 10080
I1028 13:18:29.226377 28115 net.cpp:150] Setting up inception_4c/1x1
I1028 13:18:29.226384 28115 net.cpp:157] Top shape: 32 128 14 14 (802816)
I1028 13:18:29.226389 28115 net.cpp:165] Memory required for data: 1374380804
I1028 13:18:29.226397 28115 layer_factory.hpp:76] Creating layer inception_4c/prelu_1x1
I1028 13:18:29.226405 28115 net.cpp:106] Creating Layer inception_4c/prelu_1x1
I1028 13:18:29.226410 28115 net.cpp:454] inception_4c/prelu_1x1 <- inception_4c/1x1
I1028 13:18:29.226416 28115 net.cpp:397] inception_4c/prelu_1x1 -> inception_4c/1x1 (in-place)
I1028 13:18:29.226516 28115 net.cpp:150] Setting up inception_4c/prelu_1x1
I1028 13:18:29.226526 28115 net.cpp:157] Top shape: 32 128 14 14 (802816)
I1028 13:18:29.226529 28115 net.cpp:165] Memory required for data: 1377592068
I1028 13:18:29.226534 28115 layer_factory.hpp:76] Creating layer inception_4c/3x3_reduce
I1028 13:18:29.226543 28115 net.cpp:106] Creating Layer inception_4c/3x3_reduce
I1028 13:18:29.226548 28115 net.cpp:454] inception_4c/3x3_reduce <- inception_4b/output_inception_4b/output_0_split_1
I1028 13:18:29.226555 28115 net.cpp:411] inception_4c/3x3_reduce -> inception_4c/3x3_reduce
I1028 13:18:29.227893 28115 cudnn_conv_layer.cpp:194] Reallocating workspace storage: 10080
I1028 13:18:29.227915 28115 net.cpp:150] Setting up inception_4c/3x3_reduce
I1028 13:18:29.227921 28115 net.cpp:157] Top shape: 32 128 14 14 (802816)
I1028 13:18:29.227926 28115 net.cpp:165] Memory required for data: 1380803332
I1028 13:18:29.227932 28115 layer_factory.hpp:76] Creating layer inception_4c/prelu_3x3_reduce
I1028 13:18:29.227942 28115 net.cpp:106] Creating Layer inception_4c/prelu_3x3_reduce
I1028 13:18:29.227947 28115 net.cpp:454] inception_4c/prelu_3x3_reduce <- inception_4c/3x3_reduce
I1028 13:18:29.227953 28115 net.cpp:397] inception_4c/prelu_3x3_reduce -> inception_4c/3x3_reduce (in-place)
I1028 13:18:29.228060 28115 net.cpp:150] Setting up inception_4c/prelu_3x3_reduce
I1028 13:18:29.228068 28115 net.cpp:157] Top shape: 32 128 14 14 (802816)
I1028 13:18:29.228072 28115 net.cpp:165] Memory required for data: 1384014596
I1028 13:18:29.228077 28115 layer_factory.hpp:76] Creating layer inception_4c/3x3
I1028 13:18:29.228091 28115 net.cpp:106] Creating Layer inception_4c/3x3
I1028 13:18:29.228096 28115 net.cpp:454] inception_4c/3x3 <- inception_4c/3x3_reduce
I1028 13:18:29.228103 28115 net.cpp:411] inception_4c/3x3 -> inception_4c/3x3
I1028 13:18:29.231211 28115 cudnn_conv_layer.cpp:194] Reallocating workspace storage: 10080
I1028 13:18:29.231248 28115 net.cpp:150] Setting up inception_4c/3x3
I1028 13:18:29.231256 28115 net.cpp:157] Top shape: 32 256 14 14 (1605632)
I1028 13:18:29.231261 28115 net.cpp:165] Memory required for data: 1390437124
I1028 13:18:29.231268 28115 layer_factory.hpp:76] Creating layer inception_4c/prelu_3x3
I1028 13:18:29.231276 28115 net.cpp:106] Creating Layer inception_4c/prelu_3x3
I1028 13:18:29.231281 28115 net.cpp:454] inception_4c/prelu_3x3 <- inception_4c/3x3
I1028 13:18:29.231289 28115 net.cpp:397] inception_4c/prelu_3x3 -> inception_4c/3x3 (in-place)
I1028 13:18:29.231412 28115 net.cpp:150] Setting up inception_4c/prelu_3x3
I1028 13:18:29.231421 28115 net.cpp:157] Top shape: 32 256 14 14 (1605632)
I1028 13:18:29.231425 28115 net.cpp:165] Memory required for data: 1396859652
I1028 13:18:29.231431 28115 layer_factory.hpp:76] Creating layer inception_4c/5x5_reduce
I1028 13:18:29.231439 28115 net.cpp:106] Creating Layer inception_4c/5x5_reduce
I1028 13:18:29.231444 28115 net.cpp:454] inception_4c/5x5_reduce <- inception_4b/output_inception_4b/output_0_split_2
I1028 13:18:29.231451 28115 net.cpp:411] inception_4c/5x5_reduce -> inception_4c/5x5_reduce
I1028 13:18:29.232553 28115 cudnn_conv_layer.cpp:194] Reallocating workspace storage: 10080
I1028 13:18:29.232574 28115 net.cpp:150] Setting up inception_4c/5x5_reduce
I1028 13:18:29.232581 28115 net.cpp:157] Top shape: 32 24 14 14 (150528)
I1028 13:18:29.232585 28115 net.cpp:165] Memory required for data: 1397461764
I1028 13:18:29.232591 28115 layer_factory.hpp:76] Creating layer inception_4c/prelu_5x5_reduce
I1028 13:18:29.232600 28115 net.cpp:106] Creating Layer inception_4c/prelu_5x5_reduce
I1028 13:18:29.232612 28115 net.cpp:454] inception_4c/prelu_5x5_reduce <- inception_4c/5x5_reduce
I1028 13:18:29.232620 28115 net.cpp:397] inception_4c/prelu_5x5_reduce -> inception_4c/5x5_reduce (in-place)
I1028 13:18:29.232715 28115 net.cpp:150] Setting up inception_4c/prelu_5x5_reduce
I1028 13:18:29.232724 28115 net.cpp:157] Top shape: 32 24 14 14 (150528)
I1028 13:18:29.232728 28115 net.cpp:165] Memory required for data: 1398063876
I1028 13:18:29.232743 28115 layer_factory.hpp:76] Creating layer inception_4c/5x5
I1028 13:18:29.232753 28115 net.cpp:106] Creating Layer inception_4c/5x5
I1028 13:18:29.232758 28115 net.cpp:454] inception_4c/5x5 <- inception_4c/5x5_reduce
I1028 13:18:29.232775 28115 net.cpp:411] inception_4c/5x5 -> inception_4c/5x5
I1028 13:18:29.234501 28115 cudnn_conv_layer.cpp:194] Reallocating workspace storage: 13080
I1028 13:18:29.234525 28115 net.cpp:150] Setting up inception_4c/5x5
I1028 13:18:29.234534 28115 net.cpp:157] Top shape: 32 64 14 14 (401408)
I1028 13:18:29.234539 28115 net.cpp:165] Memory required for data: 1399669508
I1028 13:18:29.234546 28115 layer_factory.hpp:76] Creating layer inception_4c/prelu_5x5
I1028 13:18:29.234554 28115 net.cpp:106] Creating Layer inception_4c/prelu_5x5
I1028 13:18:29.234558 28115 net.cpp:454] inception_4c/prelu_5x5 <- inception_4c/5x5
I1028 13:18:29.234566 28115 net.cpp:397] inception_4c/prelu_5x5 -> inception_4c/5x5 (in-place)
I1028 13:18:29.234669 28115 net.cpp:150] Setting up inception_4c/prelu_5x5
I1028 13:18:29.234678 28115 net.cpp:157] Top shape: 32 64 14 14 (401408)
I1028 13:18:29.234683 28115 net.cpp:165] Memory required for data: 1401275140
I1028 13:18:29.234688 28115 layer_factory.hpp:76] Creating layer inception_4c/pool
I1028 13:18:29.234694 28115 net.cpp:106] Creating Layer inception_4c/pool
I1028 13:18:29.234699 28115 net.cpp:454] inception_4c/pool <- inception_4b/output_inception_4b/output_0_split_3
I1028 13:18:29.234705 28115 net.cpp:411] inception_4c/pool -> inception_4c/pool
I1028 13:18:29.234876 28115 net.cpp:150] Setting up inception_4c/pool
I1028 13:18:29.234885 28115 net.cpp:157] Top shape: 32 512 14 14 (3211264)
I1028 13:18:29.234889 28115 net.cpp:165] Memory required for data: 1414120196
I1028 13:18:29.234894 28115 layer_factory.hpp:76] Creating layer inception_4c/pool_proj
I1028 13:18:29.234902 28115 net.cpp:106] Creating Layer inception_4c/pool_proj
I1028 13:18:29.234907 28115 net.cpp:454] inception_4c/pool_proj <- inception_4c/pool
I1028 13:18:29.234915 28115 net.cpp:411] inception_4c/pool_proj -> inception_4c/pool_proj
I1028 13:18:29.236310 28115 cudnn_conv_layer.cpp:194] Reallocating workspace storage: 10080
I1028 13:18:29.236337 28115 net.cpp:150] Setting up inception_4c/pool_proj
I1028 13:18:29.236345 28115 net.cpp:157] Top shape: 32 64 14 14 (401408)
I1028 13:18:29.236348 28115 net.cpp:165] Memory required for data: 1415725828
I1028 13:18:29.236356 28115 layer_factory.hpp:76] Creating layer inception_4c/prelu_pool_proj
I1028 13:18:29.236364 28115 net.cpp:106] Creating Layer inception_4c/prelu_pool_proj
I1028 13:18:29.236369 28115 net.cpp:454] inception_4c/prelu_pool_proj <- inception_4c/pool_proj
I1028 13:18:29.236376 28115 net.cpp:397] inception_4c/prelu_pool_proj -> inception_4c/pool_proj (in-place)
I1028 13:18:29.236472 28115 net.cpp:150] Setting up inception_4c/prelu_pool_proj
I1028 13:18:29.236481 28115 net.cpp:157] Top shape: 32 64 14 14 (401408)
I1028 13:18:29.236485 28115 net.cpp:165] Memory required for data: 1417331460
I1028 13:18:29.236490 28115 layer_factory.hpp:76] Creating layer inception_4c/output
I1028 13:18:29.236497 28115 net.cpp:106] Creating Layer inception_4c/output
I1028 13:18:29.236501 28115 net.cpp:454] inception_4c/output <- inception_4c/1x1
I1028 13:18:29.236506 28115 net.cpp:454] inception_4c/output <- inception_4c/3x3
I1028 13:18:29.236511 28115 net.cpp:454] inception_4c/output <- inception_4c/5x5
I1028 13:18:29.236515 28115 net.cpp:454] inception_4c/output <- inception_4c/pool_proj
I1028 13:18:29.236522 28115 net.cpp:411] inception_4c/output -> inception_4c/output
I1028 13:18:29.236546 28115 net.cpp:150] Setting up inception_4c/output
I1028 13:18:29.236554 28115 net.cpp:157] Top shape: 32 512 14 14 (3211264)
I1028 13:18:29.236558 28115 net.cpp:165] Memory required for data: 1430176516
I1028 13:18:29.236562 28115 layer_factory.hpp:76] Creating layer inception_4c/output_inception_4c/output_0_split
I1028 13:18:29.236570 28115 net.cpp:106] Creating Layer inception_4c/output_inception_4c/output_0_split
I1028 13:18:29.236587 28115 net.cpp:454] inception_4c/output_inception_4c/output_0_split <- inception_4c/output
I1028 13:18:29.236593 28115 net.cpp:411] inception_4c/output_inception_4c/output_0_split -> inception_4c/output_inception_4c/output_0_split_0
I1028 13:18:29.236600 28115 net.cpp:411] inception_4c/output_inception_4c/output_0_split -> inception_4c/output_inception_4c/output_0_split_1
I1028 13:18:29.236608 28115 net.cpp:411] inception_4c/output_inception_4c/output_0_split -> inception_4c/output_inception_4c/output_0_split_2
I1028 13:18:29.236614 28115 net.cpp:411] inception_4c/output_inception_4c/output_0_split -> inception_4c/output_inception_4c/output_0_split_3
I1028 13:18:29.236673 28115 net.cpp:150] Setting up inception_4c/output_inception_4c/output_0_split
I1028 13:18:29.236681 28115 net.cpp:157] Top shape: 32 512 14 14 (3211264)
I1028 13:18:29.236686 28115 net.cpp:157] Top shape: 32 512 14 14 (3211264)
I1028 13:18:29.236691 28115 net.cpp:157] Top shape: 32 512 14 14 (3211264)
I1028 13:18:29.236696 28115 net.cpp:157] Top shape: 32 512 14 14 (3211264)
I1028 13:18:29.236699 28115 net.cpp:165] Memory required for data: 1481556740
I1028 13:18:29.236702 28115 layer_factory.hpp:76] Creating layer inception_4d/1x1
I1028 13:18:29.236709 28115 net.cpp:106] Creating Layer inception_4d/1x1
I1028 13:18:29.236714 28115 net.cpp:454] inception_4d/1x1 <- inception_4c/output_inception_4c/output_0_split_0
I1028 13:18:29.236721 28115 net.cpp:411] inception_4d/1x1 -> inception_4d/1x1
I1028 13:18:29.238065 28115 cudnn_conv_layer.cpp:194] Reallocating workspace storage: 10080
I1028 13:18:29.238106 28115 net.cpp:150] Setting up inception_4d/1x1
I1028 13:18:29.238113 28115 net.cpp:157] Top shape: 32 112 14 14 (702464)
I1028 13:18:29.238126 28115 net.cpp:165] Memory required for data: 1484366596
I1028 13:18:29.238132 28115 layer_factory.hpp:76] Creating layer inception_4d/prelu_1x1
I1028 13:18:29.238142 28115 net.cpp:106] Creating Layer inception_4d/prelu_1x1
I1028 13:18:29.238147 28115 net.cpp:454] inception_4d/prelu_1x1 <- inception_4d/1x1
I1028 13:18:29.238152 28115 net.cpp:397] inception_4d/prelu_1x1 -> inception_4d/1x1 (in-place)
I1028 13:18:29.238260 28115 net.cpp:150] Setting up inception_4d/prelu_1x1
I1028 13:18:29.238268 28115 net.cpp:157] Top shape: 32 112 14 14 (702464)
I1028 13:18:29.238271 28115 net.cpp:165] Memory required for data: 1487176452
I1028 13:18:29.238277 28115 layer_factory.hpp:76] Creating layer inception_4d/3x3_reduce
I1028 13:18:29.238286 28115 net.cpp:106] Creating Layer inception_4d/3x3_reduce
I1028 13:18:29.238291 28115 net.cpp:454] inception_4d/3x3_reduce <- inception_4c/output_inception_4c/output_0_split_1
I1028 13:18:29.238298 28115 net.cpp:411] inception_4d/3x3_reduce -> inception_4d/3x3_reduce
I1028 13:18:29.239536 28115 cudnn_conv_layer.cpp:194] Reallocating workspace storage: 10080
I1028 13:18:29.239559 28115 net.cpp:150] Setting up inception_4d/3x3_reduce
I1028 13:18:29.239567 28115 net.cpp:157] Top shape: 32 144 14 14 (903168)
I1028 13:18:29.239570 28115 net.cpp:165] Memory required for data: 1490789124
I1028 13:18:29.239576 28115 layer_factory.hpp:76] Creating layer inception_4d/prelu_3x3_reduce
I1028 13:18:29.239585 28115 net.cpp:106] Creating Layer inception_4d/prelu_3x3_reduce
I1028 13:18:29.239590 28115 net.cpp:454] inception_4d/prelu_3x3_reduce <- inception_4d/3x3_reduce
I1028 13:18:29.239596 28115 net.cpp:397] inception_4d/prelu_3x3_reduce -> inception_4d/3x3_reduce (in-place)
I1028 13:18:29.239701 28115 net.cpp:150] Setting up inception_4d/prelu_3x3_reduce
I1028 13:18:29.239709 28115 net.cpp:157] Top shape: 32 144 14 14 (903168)
I1028 13:18:29.239720 28115 net.cpp:165] Memory required for data: 1494401796
I1028 13:18:29.239727 28115 layer_factory.hpp:76] Creating layer inception_4d/3x3
I1028 13:18:29.239737 28115 net.cpp:106] Creating Layer inception_4d/3x3
I1028 13:18:29.239742 28115 net.cpp:454] inception_4d/3x3 <- inception_4d/3x3_reduce
I1028 13:18:29.239748 28115 net.cpp:411] inception_4d/3x3 -> inception_4d/3x3
I1028 13:18:29.243737 28115 cudnn_conv_layer.cpp:194] Reallocating workspace storage: 10080
I1028 13:18:29.243813 28115 net.cpp:150] Setting up inception_4d/3x3
I1028 13:18:29.243829 28115 net.cpp:157] Top shape: 32 288 14 14 (1806336)
I1028 13:18:29.243837 28115 net.cpp:165] Memory required for data: 1501627140
I1028 13:18:29.243852 28115 layer_factory.hpp:76] Creating layer inception_4d/prelu_3x3
I1028 13:18:29.243867 28115 net.cpp:106] Creating Layer inception_4d/prelu_3x3
I1028 13:18:29.243875 28115 net.cpp:454] inception_4d/prelu_3x3 <- inception_4d/3x3
I1028 13:18:29.243885 28115 net.cpp:397] inception_4d/prelu_3x3 -> inception_4d/3x3 (in-place)
I1028 13:18:29.244096 28115 net.cpp:150] Setting up inception_4d/prelu_3x3
I1028 13:18:29.244109 28115 net.cpp:157] Top shape: 32 288 14 14 (1806336)
I1028 13:18:29.244115 28115 net.cpp:165] Memory required for data: 1508852484
I1028 13:18:29.244123 28115 layer_factory.hpp:76] Creating layer inception_4d/5x5_reduce
I1028 13:18:29.244138 28115 net.cpp:106] Creating Layer inception_4d/5x5_reduce
I1028 13:18:29.244146 28115 net.cpp:454] inception_4d/5x5_reduce <- inception_4c/output_inception_4c/output_0_split_2
I1028 13:18:29.244159 28115 net.cpp:411] inception_4d/5x5_reduce -> inception_4d/5x5_reduce
I1028 13:18:29.245570 28115 cudnn_conv_layer.cpp:194] Reallocating workspace storage: 10080
I1028 13:18:29.245602 28115 net.cpp:150] Setting up inception_4d/5x5_reduce
I1028 13:18:29.245610 28115 net.cpp:157] Top shape: 32 32 14 14 (200704)
I1028 13:18:29.245615 28115 net.cpp:165] Memory required for data: 1509655300
I1028 13:18:29.245622 28115 layer_factory.hpp:76] Creating layer inception_4d/prelu_5x5_reduce
I1028 13:18:29.245631 28115 net.cpp:106] Creating Layer inception_4d/prelu_5x5_reduce
I1028 13:18:29.245637 28115 net.cpp:454] inception_4d/prelu_5x5_reduce <- inception_4d/5x5_reduce
I1028 13:18:29.245643 28115 net.cpp:397] inception_4d/prelu_5x5_reduce -> inception_4d/5x5_reduce (in-place)
I1028 13:18:29.245746 28115 net.cpp:150] Setting up inception_4d/prelu_5x5_reduce
I1028 13:18:29.245755 28115 net.cpp:157] Top shape: 32 32 14 14 (200704)
I1028 13:18:29.245759 28115 net.cpp:165] Memory required for data: 1510458116
I1028 13:18:29.245765 28115 layer_factory.hpp:76] Creating layer inception_4d/5x5
I1028 13:18:29.245774 28115 net.cpp:106] Creating Layer inception_4d/5x5
I1028 13:18:29.245779 28115 net.cpp:454] inception_4d/5x5 <- inception_4d/5x5_reduce
I1028 13:18:29.245785 28115 net.cpp:411] inception_4d/5x5 -> inception_4d/5x5
I1028 13:18:29.247654 28115 cudnn_conv_layer.cpp:194] Reallocating workspace storage: 13080
I1028 13:18:29.247689 28115 net.cpp:150] Setting up inception_4d/5x5
I1028 13:18:29.247699 28115 net.cpp:157] Top shape: 32 64 14 14 (401408)
I1028 13:18:29.247702 28115 net.cpp:165] Memory required for data: 1512063748
I1028 13:18:29.247710 28115 layer_factory.hpp:76] Creating layer inception_4d/prelu_5x5
I1028 13:18:29.247721 28115 net.cpp:106] Creating Layer inception_4d/prelu_5x5
I1028 13:18:29.247727 28115 net.cpp:454] inception_4d/prelu_5x5 <- inception_4d/5x5
I1028 13:18:29.247735 28115 net.cpp:397] inception_4d/prelu_5x5 -> inception_4d/5x5 (in-place)
I1028 13:18:29.247865 28115 net.cpp:150] Setting up inception_4d/prelu_5x5
I1028 13:18:29.247875 28115 net.cpp:157] Top shape: 32 64 14 14 (401408)
I1028 13:18:29.247879 28115 net.cpp:165] Memory required for data: 1513669380
I1028 13:18:29.247884 28115 layer_factory.hpp:76] Creating layer inception_4d/pool
I1028 13:18:29.247892 28115 net.cpp:106] Creating Layer inception_4d/pool
I1028 13:18:29.247897 28115 net.cpp:454] inception_4d/pool <- inception_4c/output_inception_4c/output_0_split_3
I1028 13:18:29.247905 28115 net.cpp:411] inception_4d/pool -> inception_4d/pool
I1028 13:18:29.248109 28115 net.cpp:150] Setting up inception_4d/pool
I1028 13:18:29.248119 28115 net.cpp:157] Top shape: 32 512 14 14 (3211264)
I1028 13:18:29.248123 28115 net.cpp:165] Memory required for data: 1526514436
I1028 13:18:29.248127 28115 layer_factory.hpp:76] Creating layer inception_4d/pool_proj
I1028 13:18:29.248137 28115 net.cpp:106] Creating Layer inception_4d/pool_proj
I1028 13:18:29.248142 28115 net.cpp:454] inception_4d/pool_proj <- inception_4d/pool
I1028 13:18:29.248164 28115 net.cpp:411] inception_4d/pool_proj -> inception_4d/pool_proj
I1028 13:18:29.249418 28115 cudnn_conv_layer.cpp:194] Reallocating workspace storage: 10080
I1028 13:18:29.249450 28115 net.cpp:150] Setting up inception_4d/pool_proj
I1028 13:18:29.249460 28115 net.cpp:157] Top shape: 32 64 14 14 (401408)
I1028 13:18:29.249464 28115 net.cpp:165] Memory required for data: 1528120068
I1028 13:18:29.249472 28115 layer_factory.hpp:76] Creating layer inception_4d/prelu_pool_proj
I1028 13:18:29.249480 28115 net.cpp:106] Creating Layer inception_4d/prelu_pool_proj
I1028 13:18:29.249485 28115 net.cpp:454] inception_4d/prelu_pool_proj <- inception_4d/pool_proj
I1028 13:18:29.249491 28115 net.cpp:397] inception_4d/prelu_pool_proj -> inception_4d/pool_proj (in-place)
I1028 13:18:29.249619 28115 net.cpp:150] Setting up inception_4d/prelu_pool_proj
I1028 13:18:29.249629 28115 net.cpp:157] Top shape: 32 64 14 14 (401408)
I1028 13:18:29.249632 28115 net.cpp:165] Memory required for data: 1529725700
I1028 13:18:29.249639 28115 layer_factory.hpp:76] Creating layer inception_4d/output
I1028 13:18:29.249646 28115 net.cpp:106] Creating Layer inception_4d/output
I1028 13:18:29.249650 28115 net.cpp:454] inception_4d/output <- inception_4d/1x1
I1028 13:18:29.249656 28115 net.cpp:454] inception_4d/output <- inception_4d/3x3
I1028 13:18:29.249660 28115 net.cpp:454] inception_4d/output <- inception_4d/5x5
I1028 13:18:29.249665 28115 net.cpp:454] inception_4d/output <- inception_4d/pool_proj
I1028 13:18:29.249670 28115 net.cpp:411] inception_4d/output -> inception_4d/output
I1028 13:18:29.249708 28115 net.cpp:150] Setting up inception_4d/output
I1028 13:18:29.249718 28115 net.cpp:157] Top shape: 32 528 14 14 (3311616)
I1028 13:18:29.249722 28115 net.cpp:165] Memory required for data: 1542972164
I1028 13:18:29.249727 28115 layer_factory.hpp:76] Creating layer inception_4d/output_inception_4d/output_0_split
I1028 13:18:29.249733 28115 net.cpp:106] Creating Layer inception_4d/output_inception_4d/output_0_split
I1028 13:18:29.249738 28115 net.cpp:454] inception_4d/output_inception_4d/output_0_split <- inception_4d/output
I1028 13:18:29.249745 28115 net.cpp:411] inception_4d/output_inception_4d/output_0_split -> inception_4d/output_inception_4d/output_0_split_0
I1028 13:18:29.249773 28115 net.cpp:411] inception_4d/output_inception_4d/output_0_split -> inception_4d/output_inception_4d/output_0_split_1
I1028 13:18:29.249783 28115 net.cpp:411] inception_4d/output_inception_4d/output_0_split -> inception_4d/output_inception_4d/output_0_split_2
I1028 13:18:29.249790 28115 net.cpp:411] inception_4d/output_inception_4d/output_0_split -> inception_4d/output_inception_4d/output_0_split_3
I1028 13:18:29.249796 28115 net.cpp:411] inception_4d/output_inception_4d/output_0_split -> inception_4d/output_inception_4d/output_0_split_4
I1028 13:18:29.249881 28115 net.cpp:150] Setting up inception_4d/output_inception_4d/output_0_split
I1028 13:18:29.249889 28115 net.cpp:157] Top shape: 32 528 14 14 (3311616)
I1028 13:18:29.249894 28115 net.cpp:157] Top shape: 32 528 14 14 (3311616)
I1028 13:18:29.249899 28115 net.cpp:157] Top shape: 32 528 14 14 (3311616)
I1028 13:18:29.249903 28115 net.cpp:157] Top shape: 32 528 14 14 (3311616)
I1028 13:18:29.249908 28115 net.cpp:157] Top shape: 32 528 14 14 (3311616)
I1028 13:18:29.249912 28115 net.cpp:165] Memory required for data: 1609204484
I1028 13:18:29.249915 28115 layer_factory.hpp:76] Creating layer loss2/ave_pool
I1028 13:18:29.249923 28115 net.cpp:106] Creating Layer loss2/ave_pool
I1028 13:18:29.249928 28115 net.cpp:454] loss2/ave_pool <- inception_4d/output_inception_4d/output_0_split_0
I1028 13:18:29.249934 28115 net.cpp:411] loss2/ave_pool -> loss2/ave_pool
I1028 13:18:29.250332 28115 net.cpp:150] Setting up loss2/ave_pool
I1028 13:18:29.250344 28115 net.cpp:157] Top shape: 32 528 4 4 (270336)
I1028 13:18:29.250349 28115 net.cpp:165] Memory required for data: 1610285828
I1028 13:18:29.250354 28115 layer_factory.hpp:76] Creating layer loss2/conv
I1028 13:18:29.250375 28115 net.cpp:106] Creating Layer loss2/conv
I1028 13:18:29.250380 28115 net.cpp:454] loss2/conv <- loss2/ave_pool
I1028 13:18:29.250387 28115 net.cpp:411] loss2/conv -> loss2/conv
I1028 13:18:29.251847 28115 cudnn_conv_layer.cpp:194] Reallocating workspace storage: 6840
I1028 13:18:29.251871 28115 net.cpp:150] Setting up loss2/conv
I1028 13:18:29.251880 28115 net.cpp:157] Top shape: 32 128 4 4 (65536)
I1028 13:18:29.251884 28115 net.cpp:165] Memory required for data: 1610547972
I1028 13:18:29.251893 28115 layer_factory.hpp:76] Creating layer loss2/prelu_conv
I1028 13:18:29.251901 28115 net.cpp:106] Creating Layer loss2/prelu_conv
I1028 13:18:29.251906 28115 net.cpp:454] loss2/prelu_conv <- loss2/conv
I1028 13:18:29.251914 28115 net.cpp:397] loss2/prelu_conv -> loss2/conv (in-place)
I1028 13:18:29.252007 28115 net.cpp:150] Setting up loss2/prelu_conv
I1028 13:18:29.252014 28115 net.cpp:157] Top shape: 32 128 4 4 (65536)
I1028 13:18:29.252018 28115 net.cpp:165] Memory required for data: 1610810116
I1028 13:18:29.252024 28115 layer_factory.hpp:76] Creating layer loss2/fc
I1028 13:18:29.252032 28115 net.cpp:106] Creating Layer loss2/fc
I1028 13:18:29.252035 28115 net.cpp:454] loss2/fc <- loss2/conv
I1028 13:18:29.252048 28115 net.cpp:411] loss2/fc -> loss2/fc
I1028 13:18:29.266194 28115 net.cpp:150] Setting up loss2/fc
I1028 13:18:29.266229 28115 net.cpp:157] Top shape: 32 1024 (32768)
I1028 13:18:29.266242 28115 net.cpp:165] Memory required for data: 1610941188
I1028 13:18:29.266270 28115 layer_factory.hpp:76] Creating layer loss2/prelu_fc
I1028 13:18:29.266291 28115 net.cpp:106] Creating Layer loss2/prelu_fc
I1028 13:18:29.266299 28115 net.cpp:454] loss2/prelu_fc <- loss2/fc
I1028 13:18:29.266306 28115 net.cpp:397] loss2/prelu_fc -> loss2/fc (in-place)
I1028 13:18:29.266418 28115 net.cpp:150] Setting up loss2/prelu_fc
I1028 13:18:29.266427 28115 net.cpp:157] Top shape: 32 1024 (32768)
I1028 13:18:29.266430 28115 net.cpp:165] Memory required for data: 1611072260
I1028 13:18:29.266443 28115 layer_factory.hpp:76] Creating layer loss2/drop_fc
I1028 13:18:29.266453 28115 net.cpp:106] Creating Layer loss2/drop_fc
I1028 13:18:29.266458 28115 net.cpp:454] loss2/drop_fc <- loss2/fc
I1028 13:18:29.266464 28115 net.cpp:397] loss2/drop_fc -> loss2/fc (in-place)
I1028 13:18:29.266505 28115 net.cpp:150] Setting up loss2/drop_fc
I1028 13:18:29.266513 28115 net.cpp:157] Top shape: 32 1024 (32768)
I1028 13:18:29.266517 28115 net.cpp:165] Memory required for data: 1611203332
I1028 13:18:29.266528 28115 layer_factory.hpp:76] Creating layer loss2/classifier2
I1028 13:18:29.266546 28115 net.cpp:106] Creating Layer loss2/classifier2
I1028 13:18:29.266551 28115 net.cpp:454] loss2/classifier2 <- loss2/fc
I1028 13:18:29.266557 28115 net.cpp:411] loss2/classifier2 -> loss2/classifier
I1028 13:18:29.266697 28115 net.cpp:150] Setting up loss2/classifier2
I1028 13:18:29.266705 28115 net.cpp:157] Top shape: 32 2 (64)
I1028 13:18:29.266710 28115 net.cpp:165] Memory required for data: 1611203588
I1028 13:18:29.266716 28115 layer_factory.hpp:76] Creating layer loss2/loss
I1028 13:18:29.266723 28115 net.cpp:106] Creating Layer loss2/loss
I1028 13:18:29.266727 28115 net.cpp:454] loss2/loss <- loss2/classifier
I1028 13:18:29.266732 28115 net.cpp:454] loss2/loss <- label_data_1_split_1
I1028 13:18:29.266738 28115 net.cpp:411] loss2/loss -> loss2/loss1
I1028 13:18:29.266746 28115 layer_factory.hpp:76] Creating layer loss2/loss
I1028 13:18:29.267037 28115 net.cpp:150] Setting up loss2/loss
I1028 13:18:29.267046 28115 net.cpp:157] Top shape: (1)
I1028 13:18:29.267050 28115 net.cpp:160]     with loss weight 0.3
I1028 13:18:29.267063 28115 net.cpp:165] Memory required for data: 1611203592
I1028 13:18:29.267067 28115 layer_factory.hpp:76] Creating layer inception_4e/1x1
I1028 13:18:29.267079 28115 net.cpp:106] Creating Layer inception_4e/1x1
I1028 13:18:29.267084 28115 net.cpp:454] inception_4e/1x1 <- inception_4d/output_inception_4d/output_0_split_1
I1028 13:18:29.267091 28115 net.cpp:411] inception_4e/1x1 -> inception_4e/1x1
I1028 13:18:29.269465 28115 cudnn_conv_layer.cpp:194] Reallocating workspace storage: 10080
I1028 13:18:29.269507 28115 net.cpp:150] Setting up inception_4e/1x1
I1028 13:18:29.269515 28115 net.cpp:157] Top shape: 32 256 14 14 (1605632)
I1028 13:18:29.269520 28115 net.cpp:165] Memory required for data: 1617626120
I1028 13:18:29.269526 28115 layer_factory.hpp:76] Creating layer inception_4e/prelu_1x1
I1028 13:18:29.269536 28115 net.cpp:106] Creating Layer inception_4e/prelu_1x1
I1028 13:18:29.269541 28115 net.cpp:454] inception_4e/prelu_1x1 <- inception_4e/1x1
I1028 13:18:29.269546 28115 net.cpp:397] inception_4e/prelu_1x1 -> inception_4e/1x1 (in-place)
I1028 13:18:29.269677 28115 net.cpp:150] Setting up inception_4e/prelu_1x1
I1028 13:18:29.269686 28115 net.cpp:157] Top shape: 32 256 14 14 (1605632)
I1028 13:18:29.269690 28115 net.cpp:165] Memory required for data: 1624048648
I1028 13:18:29.269695 28115 layer_factory.hpp:76] Creating layer inception_4e/3x3_reduce
I1028 13:18:29.269704 28115 net.cpp:106] Creating Layer inception_4e/3x3_reduce
I1028 13:18:29.269709 28115 net.cpp:454] inception_4e/3x3_reduce <- inception_4d/output_inception_4d/output_0_split_2
I1028 13:18:29.269716 28115 net.cpp:411] inception_4e/3x3_reduce -> inception_4e/3x3_reduce
I1028 13:18:29.271214 28115 cudnn_conv_layer.cpp:194] Reallocating workspace storage: 10080
I1028 13:18:29.271250 28115 net.cpp:150] Setting up inception_4e/3x3_reduce
I1028 13:18:29.271258 28115 net.cpp:157] Top shape: 32 160 14 14 (1003520)
I1028 13:18:29.271262 28115 net.cpp:165] Memory required for data: 1628062728
I1028 13:18:29.271278 28115 layer_factory.hpp:76] Creating layer inception_4e/prelu_3x3_reduce
I1028 13:18:29.271287 28115 net.cpp:106] Creating Layer inception_4e/prelu_3x3_reduce
I1028 13:18:29.271292 28115 net.cpp:454] inception_4e/prelu_3x3_reduce <- inception_4e/3x3_reduce
I1028 13:18:29.271301 28115 net.cpp:397] inception_4e/prelu_3x3_reduce -> inception_4e/3x3_reduce (in-place)
I1028 13:18:29.271423 28115 net.cpp:150] Setting up inception_4e/prelu_3x3_reduce
I1028 13:18:29.271433 28115 net.cpp:157] Top shape: 32 160 14 14 (1003520)
I1028 13:18:29.271437 28115 net.cpp:165] Memory required for data: 1632076808
I1028 13:18:29.271451 28115 layer_factory.hpp:76] Creating layer inception_4e/3x3
I1028 13:18:29.271461 28115 net.cpp:106] Creating Layer inception_4e/3x3
I1028 13:18:29.271466 28115 net.cpp:454] inception_4e/3x3 <- inception_4e/3x3_reduce
I1028 13:18:29.271473 28115 net.cpp:411] inception_4e/3x3 -> inception_4e/3x3
I1028 13:18:29.276553 28115 cudnn_conv_layer.cpp:194] Reallocating workspace storage: 10080
I1028 13:18:29.276600 28115 net.cpp:150] Setting up inception_4e/3x3
I1028 13:18:29.276612 28115 net.cpp:157] Top shape: 32 320 14 14 (2007040)
I1028 13:18:29.276618 28115 net.cpp:165] Memory required for data: 1640104968
I1028 13:18:29.276628 28115 layer_factory.hpp:76] Creating layer inception_4e/prelu_3x3
I1028 13:18:29.276638 28115 net.cpp:106] Creating Layer inception_4e/prelu_3x3
I1028 13:18:29.276645 28115 net.cpp:454] inception_4e/prelu_3x3 <- inception_4e/3x3
I1028 13:18:29.276654 28115 net.cpp:397] inception_4e/prelu_3x3 -> inception_4e/3x3 (in-place)
I1028 13:18:29.276834 28115 net.cpp:150] Setting up inception_4e/prelu_3x3
I1028 13:18:29.276844 28115 net.cpp:157] Top shape: 32 320 14 14 (2007040)
I1028 13:18:29.276847 28115 net.cpp:165] Memory required for data: 1648133128
I1028 13:18:29.276852 28115 layer_factory.hpp:76] Creating layer inception_4e/5x5_reduce
I1028 13:18:29.276864 28115 net.cpp:106] Creating Layer inception_4e/5x5_reduce
I1028 13:18:29.276868 28115 net.cpp:454] inception_4e/5x5_reduce <- inception_4d/output_inception_4d/output_0_split_3
I1028 13:18:29.276875 28115 net.cpp:411] inception_4e/5x5_reduce -> inception_4e/5x5_reduce
I1028 13:18:29.278156 28115 cudnn_conv_layer.cpp:194] Reallocating workspace storage: 10080
I1028 13:18:29.278200 28115 net.cpp:150] Setting up inception_4e/5x5_reduce
I1028 13:18:29.278210 28115 net.cpp:157] Top shape: 32 32 14 14 (200704)
I1028 13:18:29.278216 28115 net.cpp:165] Memory required for data: 1648935944
I1028 13:18:29.278244 28115 layer_factory.hpp:76] Creating layer inception_4e/prelu_5x5_reduce
I1028 13:18:29.278254 28115 net.cpp:106] Creating Layer inception_4e/prelu_5x5_reduce
I1028 13:18:29.278261 28115 net.cpp:454] inception_4e/prelu_5x5_reduce <- inception_4e/5x5_reduce
I1028 13:18:29.278267 28115 net.cpp:397] inception_4e/prelu_5x5_reduce -> inception_4e/5x5_reduce (in-place)
I1028 13:18:29.278381 28115 net.cpp:150] Setting up inception_4e/prelu_5x5_reduce
I1028 13:18:29.278390 28115 net.cpp:157] Top shape: 32 32 14 14 (200704)
I1028 13:18:29.278394 28115 net.cpp:165] Memory required for data: 1649738760
I1028 13:18:29.278399 28115 layer_factory.hpp:76] Creating layer inception_4e/5x5
I1028 13:18:29.278422 28115 net.cpp:106] Creating Layer inception_4e/5x5
I1028 13:18:29.278429 28115 net.cpp:454] inception_4e/5x5 <- inception_4e/5x5_reduce
I1028 13:18:29.278435 28115 net.cpp:411] inception_4e/5x5 -> inception_4e/5x5
I1028 13:18:29.280652 28115 cudnn_conv_layer.cpp:194] Reallocating workspace storage: 13080
I1028 13:18:29.280692 28115 net.cpp:150] Setting up inception_4e/5x5
I1028 13:18:29.280712 28115 net.cpp:157] Top shape: 32 128 14 14 (802816)
I1028 13:18:29.280728 28115 net.cpp:165] Memory required for data: 1652950024
I1028 13:18:29.280736 28115 layer_factory.hpp:76] Creating layer inception_4e/prelu_5x5
I1028 13:18:29.280757 28115 net.cpp:106] Creating Layer inception_4e/prelu_5x5
I1028 13:18:29.280762 28115 net.cpp:454] inception_4e/prelu_5x5 <- inception_4e/5x5
I1028 13:18:29.280771 28115 net.cpp:397] inception_4e/prelu_5x5 -> inception_4e/5x5 (in-place)
I1028 13:18:29.280885 28115 net.cpp:150] Setting up inception_4e/prelu_5x5
I1028 13:18:29.280894 28115 net.cpp:157] Top shape: 32 128 14 14 (802816)
I1028 13:18:29.280899 28115 net.cpp:165] Memory required for data: 1656161288
I1028 13:18:29.280905 28115 layer_factory.hpp:76] Creating layer inception_4e/pool
I1028 13:18:29.280913 28115 net.cpp:106] Creating Layer inception_4e/pool
I1028 13:18:29.280918 28115 net.cpp:454] inception_4e/pool <- inception_4d/output_inception_4d/output_0_split_4
I1028 13:18:29.280935 28115 net.cpp:411] inception_4e/pool -> inception_4e/pool
I1028 13:18:29.281324 28115 net.cpp:150] Setting up inception_4e/pool
I1028 13:18:29.281337 28115 net.cpp:157] Top shape: 32 528 14 14 (3311616)
I1028 13:18:29.281342 28115 net.cpp:165] Memory required for data: 1669407752
I1028 13:18:29.281345 28115 layer_factory.hpp:76] Creating layer inception_4e/pool_proj
I1028 13:18:29.281354 28115 net.cpp:106] Creating Layer inception_4e/pool_proj
I1028 13:18:29.281359 28115 net.cpp:454] inception_4e/pool_proj <- inception_4e/pool
I1028 13:18:29.281378 28115 net.cpp:411] inception_4e/pool_proj -> inception_4e/pool_proj
I1028 13:18:29.282723 28115 cudnn_conv_layer.cpp:194] Reallocating workspace storage: 10080
I1028 13:18:29.282769 28115 net.cpp:150] Setting up inception_4e/pool_proj
I1028 13:18:29.282789 28115 net.cpp:157] Top shape: 32 128 14 14 (802816)
I1028 13:18:29.282804 28115 net.cpp:165] Memory required for data: 1672619016
I1028 13:18:29.282811 28115 layer_factory.hpp:76] Creating layer inception_4e/prelu_pool_proj
I1028 13:18:29.282821 28115 net.cpp:106] Creating Layer inception_4e/prelu_pool_proj
I1028 13:18:29.282827 28115 net.cpp:454] inception_4e/prelu_pool_proj <- inception_4e/pool_proj
I1028 13:18:29.282835 28115 net.cpp:397] inception_4e/prelu_pool_proj -> inception_4e/pool_proj (in-place)
I1028 13:18:29.282963 28115 net.cpp:150] Setting up inception_4e/prelu_pool_proj
I1028 13:18:29.282973 28115 net.cpp:157] Top shape: 32 128 14 14 (802816)
I1028 13:18:29.282976 28115 net.cpp:165] Memory required for data: 1675830280
I1028 13:18:29.282981 28115 layer_factory.hpp:76] Creating layer inception_4e/output
I1028 13:18:29.282989 28115 net.cpp:106] Creating Layer inception_4e/output
I1028 13:18:29.282994 28115 net.cpp:454] inception_4e/output <- inception_4e/1x1
I1028 13:18:29.283009 28115 net.cpp:454] inception_4e/output <- inception_4e/3x3
I1028 13:18:29.283013 28115 net.cpp:454] inception_4e/output <- inception_4e/5x5
I1028 13:18:29.283018 28115 net.cpp:454] inception_4e/output <- inception_4e/pool_proj
I1028 13:18:29.283038 28115 net.cpp:411] inception_4e/output -> inception_4e/output
I1028 13:18:29.283077 28115 net.cpp:150] Setting up inception_4e/output
I1028 13:18:29.283085 28115 net.cpp:157] Top shape: 32 832 14 14 (5218304)
I1028 13:18:29.283089 28115 net.cpp:165] Memory required for data: 1696703496
I1028 13:18:29.283093 28115 layer_factory.hpp:76] Creating layer pool4/3x3_s2
I1028 13:18:29.283099 28115 net.cpp:106] Creating Layer pool4/3x3_s2
I1028 13:18:29.283103 28115 net.cpp:454] pool4/3x3_s2 <- inception_4e/output
I1028 13:18:29.283119 28115 net.cpp:411] pool4/3x3_s2 -> pool4/3x3_s2
I1028 13:18:29.283501 28115 net.cpp:150] Setting up pool4/3x3_s2
I1028 13:18:29.283511 28115 net.cpp:157] Top shape: 32 832 7 7 (1304576)
I1028 13:18:29.283524 28115 net.cpp:165] Memory required for data: 1701921800
I1028 13:18:29.283529 28115 layer_factory.hpp:76] Creating layer pool4/3x3_s2_pool4/3x3_s2_0_split
I1028 13:18:29.283535 28115 net.cpp:106] Creating Layer pool4/3x3_s2_pool4/3x3_s2_0_split
I1028 13:18:29.283540 28115 net.cpp:454] pool4/3x3_s2_pool4/3x3_s2_0_split <- pool4/3x3_s2
I1028 13:18:29.283546 28115 net.cpp:411] pool4/3x3_s2_pool4/3x3_s2_0_split -> pool4/3x3_s2_pool4/3x3_s2_0_split_0
I1028 13:18:29.283553 28115 net.cpp:411] pool4/3x3_s2_pool4/3x3_s2_0_split -> pool4/3x3_s2_pool4/3x3_s2_0_split_1
I1028 13:18:29.283560 28115 net.cpp:411] pool4/3x3_s2_pool4/3x3_s2_0_split -> pool4/3x3_s2_pool4/3x3_s2_0_split_2
I1028 13:18:29.283566 28115 net.cpp:411] pool4/3x3_s2_pool4/3x3_s2_0_split -> pool4/3x3_s2_pool4/3x3_s2_0_split_3
I1028 13:18:29.283642 28115 net.cpp:150] Setting up pool4/3x3_s2_pool4/3x3_s2_0_split
I1028 13:18:29.283649 28115 net.cpp:157] Top shape: 32 832 7 7 (1304576)
I1028 13:18:29.283663 28115 net.cpp:157] Top shape: 32 832 7 7 (1304576)
I1028 13:18:29.283668 28115 net.cpp:157] Top shape: 32 832 7 7 (1304576)
I1028 13:18:29.283673 28115 net.cpp:157] Top shape: 32 832 7 7 (1304576)
I1028 13:18:29.283676 28115 net.cpp:165] Memory required for data: 1722795016
I1028 13:18:29.283680 28115 layer_factory.hpp:76] Creating layer inception_5a/1x1
I1028 13:18:29.283690 28115 net.cpp:106] Creating Layer inception_5a/1x1
I1028 13:18:29.283694 28115 net.cpp:454] inception_5a/1x1 <- pool4/3x3_s2_pool4/3x3_s2_0_split_0
I1028 13:18:29.283701 28115 net.cpp:411] inception_5a/1x1 -> inception_5a/1x1
I1028 13:18:29.286591 28115 cudnn_conv_layer.cpp:194] Reallocating workspace storage: 7428
I1028 13:18:29.286623 28115 net.cpp:150] Setting up inception_5a/1x1
I1028 13:18:29.286633 28115 net.cpp:157] Top shape: 32 256 7 7 (401408)
I1028 13:18:29.286638 28115 net.cpp:165] Memory required for data: 1724400648
I1028 13:18:29.286645 28115 layer_factory.hpp:76] Creating layer inception_5a/prelu_1x1
I1028 13:18:29.286654 28115 net.cpp:106] Creating Layer inception_5a/prelu_1x1
I1028 13:18:29.286659 28115 net.cpp:454] inception_5a/prelu_1x1 <- inception_5a/1x1
I1028 13:18:29.286665 28115 net.cpp:397] inception_5a/prelu_1x1 -> inception_5a/1x1 (in-place)
I1028 13:18:29.287201 28115 net.cpp:150] Setting up inception_5a/prelu_1x1
I1028 13:18:29.287212 28115 net.cpp:157] Top shape: 32 256 7 7 (401408)
I1028 13:18:29.287216 28115 net.cpp:165] Memory required for data: 1726006280
I1028 13:18:29.287222 28115 layer_factory.hpp:76] Creating layer inception_5a/3x3_reduce
I1028 13:18:29.287233 28115 net.cpp:106] Creating Layer inception_5a/3x3_reduce
I1028 13:18:29.287238 28115 net.cpp:454] inception_5a/3x3_reduce <- pool4/3x3_s2_pool4/3x3_s2_0_split_1
I1028 13:18:29.287246 28115 net.cpp:411] inception_5a/3x3_reduce -> inception_5a/3x3_reduce
I1028 13:18:29.289502 28115 cudnn_conv_layer.cpp:194] Reallocating workspace storage: 7428
I1028 13:18:29.289535 28115 net.cpp:150] Setting up inception_5a/3x3_reduce
I1028 13:18:29.289543 28115 net.cpp:157] Top shape: 32 160 7 7 (250880)
I1028 13:18:29.289547 28115 net.cpp:165] Memory required for data: 1727009800
I1028 13:18:29.289554 28115 layer_factory.hpp:76] Creating layer inception_5a/prelu_3x3_reduce
I1028 13:18:29.289561 28115 net.cpp:106] Creating Layer inception_5a/prelu_3x3_reduce
I1028 13:18:29.289580 28115 net.cpp:454] inception_5a/prelu_3x3_reduce <- inception_5a/3x3_reduce
I1028 13:18:29.289588 28115 net.cpp:397] inception_5a/prelu_3x3_reduce -> inception_5a/3x3_reduce (in-place)
I1028 13:18:29.289701 28115 net.cpp:150] Setting up inception_5a/prelu_3x3_reduce
I1028 13:18:29.289711 28115 net.cpp:157] Top shape: 32 160 7 7 (250880)
I1028 13:18:29.289716 28115 net.cpp:165] Memory required for data: 1728013320
I1028 13:18:29.289721 28115 layer_factory.hpp:76] Creating layer inception_5a/3x3
I1028 13:18:29.289728 28115 net.cpp:106] Creating Layer inception_5a/3x3
I1028 13:18:29.289732 28115 net.cpp:454] inception_5a/3x3 <- inception_5a/3x3_reduce
I1028 13:18:29.289741 28115 net.cpp:411] inception_5a/3x3 -> inception_5a/3x3
I1028 13:18:29.293814 28115 cudnn_conv_layer.cpp:194] Reallocating workspace storage: 7788
I1028 13:18:29.293856 28115 net.cpp:150] Setting up inception_5a/3x3
I1028 13:18:29.293872 28115 net.cpp:157] Top shape: 32 320 7 7 (501760)
I1028 13:18:29.293877 28115 net.cpp:165] Memory required for data: 1730020360
I1028 13:18:29.293886 28115 layer_factory.hpp:76] Creating layer inception_5a/prelu_3x3
I1028 13:18:29.293896 28115 net.cpp:106] Creating Layer inception_5a/prelu_3x3
I1028 13:18:29.293902 28115 net.cpp:454] inception_5a/prelu_3x3 <- inception_5a/3x3
I1028 13:18:29.293910 28115 net.cpp:397] inception_5a/prelu_3x3 -> inception_5a/3x3 (in-place)
I1028 13:18:29.294060 28115 net.cpp:150] Setting up inception_5a/prelu_3x3
I1028 13:18:29.294070 28115 net.cpp:157] Top shape: 32 320 7 7 (501760)
I1028 13:18:29.294073 28115 net.cpp:165] Memory required for data: 1732027400
I1028 13:18:29.294086 28115 layer_factory.hpp:76] Creating layer inception_5a/5x5_reduce
I1028 13:18:29.294096 28115 net.cpp:106] Creating Layer inception_5a/5x5_reduce
I1028 13:18:29.294101 28115 net.cpp:454] inception_5a/5x5_reduce <- pool4/3x3_s2_pool4/3x3_s2_0_split_2
I1028 13:18:29.294109 28115 net.cpp:411] inception_5a/5x5_reduce -> inception_5a/5x5_reduce
I1028 13:18:29.295310 28115 cudnn_conv_layer.cpp:194] Reallocating workspace storage: 7428
I1028 13:18:29.295341 28115 net.cpp:150] Setting up inception_5a/5x5_reduce
I1028 13:18:29.295348 28115 net.cpp:157] Top shape: 32 32 7 7 (50176)
I1028 13:18:29.295352 28115 net.cpp:165] Memory required for data: 1732228104
I1028 13:18:29.295359 28115 layer_factory.hpp:76] Creating layer inception_5a/prelu_5x5_reduce
I1028 13:18:29.295377 28115 net.cpp:106] Creating Layer inception_5a/prelu_5x5_reduce
I1028 13:18:29.295382 28115 net.cpp:454] inception_5a/prelu_5x5_reduce <- inception_5a/5x5_reduce
I1028 13:18:29.295387 28115 net.cpp:397] inception_5a/prelu_5x5_reduce -> inception_5a/5x5_reduce (in-place)
I1028 13:18:29.295510 28115 net.cpp:150] Setting up inception_5a/prelu_5x5_reduce
I1028 13:18:29.295517 28115 net.cpp:157] Top shape: 32 32 7 7 (50176)
I1028 13:18:29.295521 28115 net.cpp:165] Memory required for data: 1732428808
I1028 13:18:29.295536 28115 layer_factory.hpp:76] Creating layer inception_5a/5x5
I1028 13:18:29.295544 28115 net.cpp:106] Creating Layer inception_5a/5x5
I1028 13:18:29.295548 28115 net.cpp:454] inception_5a/5x5 <- inception_5a/5x5_reduce
I1028 13:18:29.295557 28115 net.cpp:411] inception_5a/5x5 -> inception_5a/5x5
I1028 13:18:29.297186 28115 cudnn_conv_layer.cpp:194] Reallocating workspace storage: 9804
I1028 13:18:29.297210 28115 net.cpp:150] Setting up inception_5a/5x5
I1028 13:18:29.297226 28115 net.cpp:157] Top shape: 32 128 7 7 (200704)
I1028 13:18:29.297230 28115 net.cpp:165] Memory required for data: 1733231624
I1028 13:18:29.297237 28115 layer_factory.hpp:76] Creating layer inception_5a/prelu_5x5
I1028 13:18:29.297245 28115 net.cpp:106] Creating Layer inception_5a/prelu_5x5
I1028 13:18:29.297250 28115 net.cpp:454] inception_5a/prelu_5x5 <- inception_5a/5x5
I1028 13:18:29.297281 28115 net.cpp:397] inception_5a/prelu_5x5 -> inception_5a/5x5 (in-place)
I1028 13:18:29.297379 28115 net.cpp:150] Setting up inception_5a/prelu_5x5
I1028 13:18:29.297387 28115 net.cpp:157] Top shape: 32 128 7 7 (200704)
I1028 13:18:29.297404 28115 net.cpp:165] Memory required for data: 1734034440
I1028 13:18:29.297410 28115 layer_factory.hpp:76] Creating layer inception_5a/pool
I1028 13:18:29.297418 28115 net.cpp:106] Creating Layer inception_5a/pool
I1028 13:18:29.297423 28115 net.cpp:454] inception_5a/pool <- pool4/3x3_s2_pool4/3x3_s2_0_split_3
I1028 13:18:29.297428 28115 net.cpp:411] inception_5a/pool -> inception_5a/pool
I1028 13:18:29.297628 28115 net.cpp:150] Setting up inception_5a/pool
I1028 13:18:29.297638 28115 net.cpp:157] Top shape: 32 832 7 7 (1304576)
I1028 13:18:29.297642 28115 net.cpp:165] Memory required for data: 1739252744
I1028 13:18:29.297646 28115 layer_factory.hpp:76] Creating layer inception_5a/pool_proj
I1028 13:18:29.297664 28115 net.cpp:106] Creating Layer inception_5a/pool_proj
I1028 13:18:29.297669 28115 net.cpp:454] inception_5a/pool_proj <- inception_5a/pool
I1028 13:18:29.297677 28115 net.cpp:411] inception_5a/pool_proj -> inception_5a/pool_proj
I1028 13:18:29.299964 28115 cudnn_conv_layer.cpp:194] Reallocating workspace storage: 7428
I1028 13:18:29.299993 28115 net.cpp:150] Setting up inception_5a/pool_proj
I1028 13:18:29.300000 28115 net.cpp:157] Top shape: 32 128 7 7 (200704)
I1028 13:18:29.300004 28115 net.cpp:165] Memory required for data: 1740055560
I1028 13:18:29.300011 28115 layer_factory.hpp:76] Creating layer inception_5a/prelu_pool_proj
I1028 13:18:29.300020 28115 net.cpp:106] Creating Layer inception_5a/prelu_pool_proj
I1028 13:18:29.300025 28115 net.cpp:454] inception_5a/prelu_pool_proj <- inception_5a/pool_proj
I1028 13:18:29.300032 28115 net.cpp:397] inception_5a/prelu_pool_proj -> inception_5a/pool_proj (in-place)
I1028 13:18:29.300127 28115 net.cpp:150] Setting up inception_5a/prelu_pool_proj
I1028 13:18:29.300135 28115 net.cpp:157] Top shape: 32 128 7 7 (200704)
I1028 13:18:29.300138 28115 net.cpp:165] Memory required for data: 1740858376
I1028 13:18:29.300144 28115 layer_factory.hpp:76] Creating layer inception_5a/output
I1028 13:18:29.300150 28115 net.cpp:106] Creating Layer inception_5a/output
I1028 13:18:29.300155 28115 net.cpp:454] inception_5a/output <- inception_5a/1x1
I1028 13:18:29.300160 28115 net.cpp:454] inception_5a/output <- inception_5a/3x3
I1028 13:18:29.300164 28115 net.cpp:454] inception_5a/output <- inception_5a/5x5
I1028 13:18:29.300168 28115 net.cpp:454] inception_5a/output <- inception_5a/pool_proj
I1028 13:18:29.300174 28115 net.cpp:411] inception_5a/output -> inception_5a/output
I1028 13:18:29.300202 28115 net.cpp:150] Setting up inception_5a/output
I1028 13:18:29.300212 28115 net.cpp:157] Top shape: 32 832 7 7 (1304576)
I1028 13:18:29.300216 28115 net.cpp:165] Memory required for data: 1746076680
I1028 13:18:29.300220 28115 layer_factory.hpp:76] Creating layer inception_5a/output_inception_5a/output_0_split
I1028 13:18:29.300227 28115 net.cpp:106] Creating Layer inception_5a/output_inception_5a/output_0_split
I1028 13:18:29.300240 28115 net.cpp:454] inception_5a/output_inception_5a/output_0_split <- inception_5a/output
I1028 13:18:29.300252 28115 net.cpp:411] inception_5a/output_inception_5a/output_0_split -> inception_5a/output_inception_5a/output_0_split_0
I1028 13:18:29.300259 28115 net.cpp:411] inception_5a/output_inception_5a/output_0_split -> inception_5a/output_inception_5a/output_0_split_1
I1028 13:18:29.300266 28115 net.cpp:411] inception_5a/output_inception_5a/output_0_split -> inception_5a/output_inception_5a/output_0_split_2
I1028 13:18:29.300274 28115 net.cpp:411] inception_5a/output_inception_5a/output_0_split -> inception_5a/output_inception_5a/output_0_split_3
I1028 13:18:29.300356 28115 net.cpp:150] Setting up inception_5a/output_inception_5a/output_0_split
I1028 13:18:29.300365 28115 net.cpp:157] Top shape: 32 832 7 7 (1304576)
I1028 13:18:29.300370 28115 net.cpp:157] Top shape: 32 832 7 7 (1304576)
I1028 13:18:29.300374 28115 net.cpp:157] Top shape: 32 832 7 7 (1304576)
I1028 13:18:29.300379 28115 net.cpp:157] Top shape: 32 832 7 7 (1304576)
I1028 13:18:29.300382 28115 net.cpp:165] Memory required for data: 1766949896
I1028 13:18:29.300396 28115 layer_factory.hpp:76] Creating layer inception_5b/1x1
I1028 13:18:29.300406 28115 net.cpp:106] Creating Layer inception_5b/1x1
I1028 13:18:29.300410 28115 net.cpp:454] inception_5b/1x1 <- inception_5a/output_inception_5a/output_0_split_0
I1028 13:18:29.300417 28115 net.cpp:411] inception_5b/1x1 -> inception_5b/1x1
I1028 13:18:29.303900 28115 cudnn_conv_layer.cpp:194] Reallocating workspace storage: 7428
I1028 13:18:29.303944 28115 net.cpp:150] Setting up inception_5b/1x1
I1028 13:18:29.303954 28115 net.cpp:157] Top shape: 32 384 7 7 (602112)
I1028 13:18:29.303959 28115 net.cpp:165] Memory required for data: 1769358344
I1028 13:18:29.303967 28115 layer_factory.hpp:76] Creating layer inception_5b/prelu_1x1
I1028 13:18:29.303978 28115 net.cpp:106] Creating Layer inception_5b/prelu_1x1
I1028 13:18:29.303984 28115 net.cpp:454] inception_5b/prelu_1x1 <- inception_5b/1x1
I1028 13:18:29.303992 28115 net.cpp:397] inception_5b/prelu_1x1 -> inception_5b/1x1 (in-place)
I1028 13:18:29.304590 28115 net.cpp:150] Setting up inception_5b/prelu_1x1
I1028 13:18:29.304602 28115 net.cpp:157] Top shape: 32 384 7 7 (602112)
I1028 13:18:29.304606 28115 net.cpp:165] Memory required for data: 1771766792
I1028 13:18:29.304612 28115 layer_factory.hpp:76] Creating layer inception_5b/3x3_reduce
I1028 13:18:29.304623 28115 net.cpp:106] Creating Layer inception_5b/3x3_reduce
I1028 13:18:29.304628 28115 net.cpp:454] inception_5b/3x3_reduce <- inception_5a/output_inception_5a/output_0_split_1
I1028 13:18:29.304636 28115 net.cpp:411] inception_5b/3x3_reduce -> inception_5b/3x3_reduce
I1028 13:18:29.307507 28115 cudnn_conv_layer.cpp:194] Reallocating workspace storage: 7428
I1028 13:18:29.307549 28115 net.cpp:150] Setting up inception_5b/3x3_reduce
I1028 13:18:29.307559 28115 net.cpp:157] Top shape: 32 192 7 7 (301056)
I1028 13:18:29.307574 28115 net.cpp:165] Memory required for data: 1772971016
I1028 13:18:29.307584 28115 layer_factory.hpp:76] Creating layer inception_5b/prelu_3x3_reduce
I1028 13:18:29.307595 28115 net.cpp:106] Creating Layer inception_5b/prelu_3x3_reduce
I1028 13:18:29.307601 28115 net.cpp:454] inception_5b/prelu_3x3_reduce <- inception_5b/3x3_reduce
I1028 13:18:29.307608 28115 net.cpp:397] inception_5b/prelu_3x3_reduce -> inception_5b/3x3_reduce (in-place)
I1028 13:18:29.307730 28115 net.cpp:150] Setting up inception_5b/prelu_3x3_reduce
I1028 13:18:29.307739 28115 net.cpp:157] Top shape: 32 192 7 7 (301056)
I1028 13:18:29.307744 28115 net.cpp:165] Memory required for data: 1774175240
I1028 13:18:29.307749 28115 layer_factory.hpp:76] Creating layer inception_5b/3x3
I1028 13:18:29.307760 28115 net.cpp:106] Creating Layer inception_5b/3x3
I1028 13:18:29.307766 28115 net.cpp:454] inception_5b/3x3 <- inception_5b/3x3_reduce
I1028 13:18:29.307775 28115 net.cpp:411] inception_5b/3x3 -> inception_5b/3x3
I1028 13:18:29.313593 28115 cudnn_conv_layer.cpp:194] Reallocating workspace storage: 7788
I1028 13:18:29.313652 28115 net.cpp:150] Setting up inception_5b/3x3
I1028 13:18:29.313676 28115 net.cpp:157] Top shape: 32 384 7 7 (602112)
I1028 13:18:29.313681 28115 net.cpp:165] Memory required for data: 1776583688
I1028 13:18:29.313690 28115 layer_factory.hpp:76] Creating layer inception_5b/prelu_3x3
I1028 13:18:29.313701 28115 net.cpp:106] Creating Layer inception_5b/prelu_3x3
I1028 13:18:29.313707 28115 net.cpp:454] inception_5b/prelu_3x3 <- inception_5b/3x3
I1028 13:18:29.313737 28115 net.cpp:397] inception_5b/prelu_3x3 -> inception_5b/3x3 (in-place)
I1028 13:18:29.313873 28115 net.cpp:150] Setting up inception_5b/prelu_3x3
I1028 13:18:29.313881 28115 net.cpp:157] Top shape: 32 384 7 7 (602112)
I1028 13:18:29.313884 28115 net.cpp:165] Memory required for data: 1778992136
I1028 13:18:29.313899 28115 layer_factory.hpp:76] Creating layer inception_5b/5x5_reduce
I1028 13:18:29.313908 28115 net.cpp:106] Creating Layer inception_5b/5x5_reduce
I1028 13:18:29.313913 28115 net.cpp:454] inception_5b/5x5_reduce <- inception_5a/output_inception_5a/output_0_split_2
I1028 13:18:29.313928 28115 net.cpp:411] inception_5b/5x5_reduce -> inception_5b/5x5_reduce
I1028 13:18:29.315114 28115 cudnn_conv_layer.cpp:194] Reallocating workspace storage: 7428
I1028 13:18:29.315141 28115 net.cpp:150] Setting up inception_5b/5x5_reduce
I1028 13:18:29.315156 28115 net.cpp:157] Top shape: 32 48 7 7 (75264)
I1028 13:18:29.315161 28115 net.cpp:165] Memory required for data: 1779293192
I1028 13:18:29.315168 28115 layer_factory.hpp:76] Creating layer inception_5b/prelu_5x5_reduce
I1028 13:18:29.315176 28115 net.cpp:106] Creating Layer inception_5b/prelu_5x5_reduce
I1028 13:18:29.315182 28115 net.cpp:454] inception_5b/prelu_5x5_reduce <- inception_5b/5x5_reduce
I1028 13:18:29.315196 28115 net.cpp:397] inception_5b/prelu_5x5_reduce -> inception_5b/5x5_reduce (in-place)
I1028 13:18:29.315309 28115 net.cpp:150] Setting up inception_5b/prelu_5x5_reduce
I1028 13:18:29.315318 28115 net.cpp:157] Top shape: 32 48 7 7 (75264)
I1028 13:18:29.315322 28115 net.cpp:165] Memory required for data: 1779594248
I1028 13:18:29.315327 28115 layer_factory.hpp:76] Creating layer inception_5b/5x5
I1028 13:18:29.315335 28115 net.cpp:106] Creating Layer inception_5b/5x5
I1028 13:18:29.315340 28115 net.cpp:454] inception_5b/5x5 <- inception_5b/5x5_reduce
I1028 13:18:29.315348 28115 net.cpp:411] inception_5b/5x5 -> inception_5b/5x5
I1028 13:18:29.317306 28115 cudnn_conv_layer.cpp:194] Reallocating workspace storage: 9804
I1028 13:18:29.317332 28115 net.cpp:150] Setting up inception_5b/5x5
I1028 13:18:29.317338 28115 net.cpp:157] Top shape: 32 128 7 7 (200704)
I1028 13:18:29.317342 28115 net.cpp:165] Memory required for data: 1780397064
I1028 13:18:29.317349 28115 layer_factory.hpp:76] Creating layer inception_5b/prelu_5x5
I1028 13:18:29.317358 28115 net.cpp:106] Creating Layer inception_5b/prelu_5x5
I1028 13:18:29.317363 28115 net.cpp:454] inception_5b/prelu_5x5 <- inception_5b/5x5
I1028 13:18:29.317368 28115 net.cpp:397] inception_5b/prelu_5x5 -> inception_5b/5x5 (in-place)
I1028 13:18:29.317492 28115 net.cpp:150] Setting up inception_5b/prelu_5x5
I1028 13:18:29.317502 28115 net.cpp:157] Top shape: 32 128 7 7 (200704)
I1028 13:18:29.317505 28115 net.cpp:165] Memory required for data: 1781199880
I1028 13:18:29.317510 28115 layer_factory.hpp:76] Creating layer inception_5b/pool
I1028 13:18:29.317517 28115 net.cpp:106] Creating Layer inception_5b/pool
I1028 13:18:29.317523 28115 net.cpp:454] inception_5b/pool <- inception_5a/output_inception_5a/output_0_split_3
I1028 13:18:29.317529 28115 net.cpp:411] inception_5b/pool -> inception_5b/pool
I1028 13:18:29.317903 28115 net.cpp:150] Setting up inception_5b/pool
I1028 13:18:29.317914 28115 net.cpp:157] Top shape: 32 832 7 7 (1304576)
I1028 13:18:29.317919 28115 net.cpp:165] Memory required for data: 1786418184
I1028 13:18:29.317922 28115 layer_factory.hpp:76] Creating layer inception_5b/pool_proj
I1028 13:18:29.317932 28115 net.cpp:106] Creating Layer inception_5b/pool_proj
I1028 13:18:29.317939 28115 net.cpp:454] inception_5b/pool_proj <- inception_5b/pool
I1028 13:18:29.317946 28115 net.cpp:411] inception_5b/pool_proj -> inception_5b/pool_proj
I1028 13:18:29.320155 28115 cudnn_conv_layer.cpp:194] Reallocating workspace storage: 7428
I1028 13:18:29.320184 28115 net.cpp:150] Setting up inception_5b/pool_proj
I1028 13:18:29.320193 28115 net.cpp:157] Top shape: 32 128 7 7 (200704)
I1028 13:18:29.320196 28115 net.cpp:165] Memory required for data: 1787221000
I1028 13:18:29.320204 28115 layer_factory.hpp:76] Creating layer inception_5b/prelu_pool_proj
I1028 13:18:29.320215 28115 net.cpp:106] Creating Layer inception_5b/prelu_pool_proj
I1028 13:18:29.320220 28115 net.cpp:454] inception_5b/prelu_pool_proj <- inception_5b/pool_proj
I1028 13:18:29.320227 28115 net.cpp:397] inception_5b/prelu_pool_proj -> inception_5b/pool_proj (in-place)
I1028 13:18:29.320343 28115 net.cpp:150] Setting up inception_5b/prelu_pool_proj
I1028 13:18:29.320353 28115 net.cpp:157] Top shape: 32 128 7 7 (200704)
I1028 13:18:29.320356 28115 net.cpp:165] Memory required for data: 1788023816
I1028 13:18:29.320363 28115 layer_factory.hpp:76] Creating layer inception_5b/output
I1028 13:18:29.320369 28115 net.cpp:106] Creating Layer inception_5b/output
I1028 13:18:29.320384 28115 net.cpp:454] inception_5b/output <- inception_5b/1x1
I1028 13:18:29.320390 28115 net.cpp:454] inception_5b/output <- inception_5b/3x3
I1028 13:18:29.320394 28115 net.cpp:454] inception_5b/output <- inception_5b/5x5
I1028 13:18:29.320399 28115 net.cpp:454] inception_5b/output <- inception_5b/pool_proj
I1028 13:18:29.320405 28115 net.cpp:411] inception_5b/output -> inception_5b/output
I1028 13:18:29.320451 28115 net.cpp:150] Setting up inception_5b/output
I1028 13:18:29.320459 28115 net.cpp:157] Top shape: 32 1024 7 7 (1605632)
I1028 13:18:29.320463 28115 net.cpp:165] Memory required for data: 1794446344
I1028 13:18:29.320467 28115 layer_factory.hpp:76] Creating layer pool5/7x7_s1
I1028 13:18:29.320477 28115 net.cpp:106] Creating Layer pool5/7x7_s1
I1028 13:18:29.320480 28115 net.cpp:454] pool5/7x7_s1 <- inception_5b/output
I1028 13:18:29.320487 28115 net.cpp:411] pool5/7x7_s1 -> pool5/7x7_s1
I1028 13:18:29.320653 28115 net.cpp:150] Setting up pool5/7x7_s1
I1028 13:18:29.320663 28115 net.cpp:157] Top shape: 32 1024 1 1 (32768)
I1028 13:18:29.320667 28115 net.cpp:165] Memory required for data: 1794577416
I1028 13:18:29.320672 28115 layer_factory.hpp:76] Creating layer pool5/drop_7x7_s1
I1028 13:18:29.320678 28115 net.cpp:106] Creating Layer pool5/drop_7x7_s1
I1028 13:18:29.320683 28115 net.cpp:454] pool5/drop_7x7_s1 <- pool5/7x7_s1
I1028 13:18:29.320689 28115 net.cpp:397] pool5/drop_7x7_s1 -> pool5/7x7_s1 (in-place)
I1028 13:18:29.320725 28115 net.cpp:150] Setting up pool5/drop_7x7_s1
I1028 13:18:29.320734 28115 net.cpp:157] Top shape: 32 1024 1 1 (32768)
I1028 13:18:29.320739 28115 net.cpp:165] Memory required for data: 1794708488
I1028 13:18:29.320742 28115 layer_factory.hpp:76] Creating layer loss3/classifier2
I1028 13:18:29.320749 28115 net.cpp:106] Creating Layer loss3/classifier2
I1028 13:18:29.320754 28115 net.cpp:454] loss3/classifier2 <- pool5/7x7_s1
I1028 13:18:29.320776 28115 net.cpp:411] loss3/classifier2 -> loss3/classifier
I1028 13:18:29.320924 28115 net.cpp:150] Setting up loss3/classifier2
I1028 13:18:29.320932 28115 net.cpp:157] Top shape: 32 2 (64)
I1028 13:18:29.320936 28115 net.cpp:165] Memory required for data: 1794708744
I1028 13:18:29.320942 28115 layer_factory.hpp:76] Creating layer loss3/loss3
I1028 13:18:29.320951 28115 net.cpp:106] Creating Layer loss3/loss3
I1028 13:18:29.320956 28115 net.cpp:454] loss3/loss3 <- loss3/classifier
I1028 13:18:29.320961 28115 net.cpp:454] loss3/loss3 <- label_data_1_split_2
I1028 13:18:29.320967 28115 net.cpp:411] loss3/loss3 -> loss3/loss3
…
I1028 13:18:29.325666 28115 net.cpp:322] The NetState phase (1) differed from the phase (0) specified by a rule in layer data
I1028 13:18:29.326658 28115 net.cpp:49] Initializing net from parameters: 
name: "GoogleNet"
state {
  phase: TEST
}
layer {
  name: "data"
  type: "Data"
  top: "data"
  top: "label"
  include {
    phase: TEST
  }
  transform_param {
    mirror: false
    crop_size: 224
    mean_value: 104
    mean_value: 117
    mean_value: 123
  }
  data_param {
    source: "../../LMDB/val_2-lmdb"
    batch_size: 50
    backend: LMDB
  }
}
layer {
  name: "conv1/7x7_s2"
  type: "Convolution"
  bottom: "data"
  top: "conv1/7x7_s2"
  param {
    lr_mult: 1
    decay_mult: 1
  }
  param {
    lr_mult: 2
    decay_mult: 0
  }
  convolution_param {
    num_output: 64
    pad: 3
    kernel_size: 7
    stride: 2
    weight_filler {
      type: "xavier"
    }
    bias_filler {
      type: "constant"
      value: 0.2
    }
  }
}
layer {
  name: "conv1/prelu_7x7"
  type: "PReLU"
  bottom: "conv1/7x7_s2"
  top: "conv1/7x7_s2"
  param {
    lr_mult: 1
    decay_mult: 0
  }
  prelu_param {
    filler {
      type: "constant"
      value: 0.01
    }
  }
}
layer {
  name: "pool1/3x3_s2"
  type: "Pooling"
  bottom: "conv1/7x7_s2"
  top: "pool1/3x3_s2"
  pooling_param {
    pool: MAX
    kernel_size: 3
    stride: 2
  }
}
layer {
  name: "pool1/norm1"
  type: "LRN"
  bottom: "pool1/3x3_s2"
  top: "pool1/norm1"
  lrn_param {
    local_size: 5
    alpha: 0.0001
    beta: 0.75
  }
}
layer {
  name: "conv2/3x3_reduce"
  type: "Convolution"
  bottom: "pool1/norm1"
  top: "conv2/3x3_reduce"
  param {
    lr_mult: 1
    decay_mult: 1
  }
  param {
    lr_mult: 2
    decay_mult: 0
  }
  convolution_param {
    num_output: 64
    kernel_size: 1
    weight_filler {
      type: "xavier"
    }
    bias_filler {
      type: "constant"
      value: 0.2
    }
  }
}
layer {
  name: "conv2/prelu_3x3_reduce"
  type: "PReLU"
  bottom: "conv2/3x3_reduce"
  top: "conv2/3x3_reduce"
  param {
    lr_mult: 1
    decay_mult: 0
  }
  prelu_param {
    filler {
      type: "constant"
      value: 0.01
    }
  }
}
layer {
  name: "conv2/3x3"
  type: "Convolution"
  bottom: "conv2/3x3_reduce"
  top: "conv2/3x3"
  param {
    lr_mult: 1
    decay_mult: 1
  }
  param {
    lr_mult: 2
    decay_mult: 0
  }
  convolution_param {
    num_output: 192
    pad: 1
    kernel_size: 3
    weight_filler {
      type: "xavier"
    }
    bias_filler {
      type: "constant"
      value: 0.2
    }
  }
}
layer {
  name: "conv2/prelu_3x3"
  type: "PReLU"
  bottom: "conv2/3x3"
  top: "conv2/3x3"
  param {
    lr_mult: 1
    decay_mult: 0
  }
  prelu_param {
    filler {
      type: "constant"
      value: 0.01
    }
  }
}
layer {
  name: "conv2/norm2"
  type: "LRN"
  bottom: "conv2/3x3"
  top: "conv2/norm2"
  lrn_param {
    local_size: 5
    alpha: 0.0001
    beta: 0.75
  }
}
layer {
  name: "pool2/3x3_s2"
  type: "Pooling"
  bottom: "conv2/norm2"
  top: "pool2/3x3_s2"
  pooling_param {
    pool: MAX
    kernel_size: 3
    stride: 2
  }
}
layer {
  name: "inception_3a/1x1"
  type: "Convolution"
  bottom: "pool2/3x3_s2"
  top: "inception_3a/1x1"
  param {
    lr_mult: 1
    decay_mult: 1
  }
  param {
    lr_mult: 2
    decay_mult: 0
  }
  convolution_param {
    num_output: 64
    kernel_size: 1
    weight_filler {
      type: "xavier"
    }
    bias_filler {
      type: "constant"
      value: 0.2
    }
  }
}
layer {
  name: "inception_3a/prelu_1x1"
  type: "PReLU"
  bottom: "inception_3a/1x1"
  top: "inception_3a/1x1"
  param {
    lr_mult: 1
    decay_mult: 0
  }
  prelu_param {
    filler {
      type: "constant"
      value: 0.01
    }
  }
}
layer {
  name: "inception_3a/3x3_reduce"
  type: "Convolution"
  bottom: "pool2/3x3_s2"
  top: "inception_3a/3x3_reduce"
  param {
    lr_mult: 1
    decay_mult: 1
  }
  param {
    lr_mult: 2
    decay_mult: 0
  }
  convolution_param {
    num_output: 96
    kernel_size: 1
    weight_filler {
      type: "xavier"
    }
    bias_filler {
      type: "constant"
      value: 0.2
    }
  }
}
layer {
  name: "inception_3a/prelu_3x3_reduce"
  type: "PReLU"
  bottom: "inception_3a/3x3_reduce"
  top: "inception_3a/3x3_reduce"
  param {
    lr_mult: 1
    decay_mult: 0
  }
  prelu_param {
    filler {
      type: "constant"
      value: 0.01
    }
  }
}
layer {
  name: "inception_3a/3x3"
  type: "Convolution"
  bottom: "inception_3a/3x3_reduce"
  top: "inception_3a/3x3"
  param {
    lr_mult: 1
    decay_mult: 1
  }
  param {
    lr_mult: 2
    decay_mult: 0
  }
  convolution_param {
    num_output: 128
    pad: 1
    kernel_size: 3
    weight_filler {
      type: "xavier"
    }
    bias_filler {
      type: "constant"
      value: 0.2
    }
  }
}
layer {
  name: "inception_3a/prelu_3x3"
  type: "PReLU"
  bottom: "inception_3a/3x3"
  top: "inception_3a/3x3"
  param {
    lr_mult: 1
    decay_mult: 0
  }
  prelu_param {
    filler {
      type: "constant"
      value: 0.01
    }
  }
}
layer {
  name: "inception_3a/5x5_reduce"
  type: "Convolution"
  bottom: "pool2/3x3_s2"
  top: "inception_3a/5x5_reduce"
  param {
    lr_mult: 1
    decay_mult: 1
  }
  param {
    lr_mult: 2
    decay_mult: 0
  }
  convolution_param {
    num_output: 16
    kernel_size: 1
    weight_filler {
      type: "xavier"
    }
    bias_filler {
      type: "constant"
      value: 0.2
    }
  }
}
layer {
  name: "inception_3a/prelu_5x5_reduce"
  type: "PReLU"
  bottom: "inception_3a/5x5_reduce"
  top: "inception_3a/5x5_reduce"
  param {
    lr_mult: 1
    decay_mult: 0
  }
  prelu_param {
    filler {
      type: "constant"
      value: 0.01
    }
  }
}
layer {
  name: "inception_3a/5x5"
  type: "Convolution"
  bottom: "inception_3a/5x5_reduce"
  top: "inception_3a/5x5"
  param {
    lr_mult: 1
    decay_mult: 1
  }
  param {
    lr_mult: 2
    decay_mult: 0
  }
  convolution_param {
    num_output: 32
    pad: 2
    kernel_size: 5
    weight_filler {
      type: "xavier"
    }
    bias_filler {
      type: "constant"
      value: 0.2
    }
  }
}
layer {
  name: "inception_3a/prelu_5x5"
  type: "PReLU"
  bottom: "inception_3a/5x5"
  top: "inception_3a/5x5"
  param {
    lr_mult: 1
    decay_mult: 0
  }
  prelu_param {
    filler {
      type: "constant"
      value: 0.01
    }
  }
}
layer {
  name: "inception_3a/pool"
  type: "Pooling"
  bottom: "pool2/3x3_s2"
  top: "inception_3a/pool"
  pooling_param {
    pool: MAX
    kernel_size: 3
    stride: 1
    pad: 1
  }
}
layer {
  name: "inception_3a/pool_proj"
  type: "Convolution"
  bottom: "inception_3a/pool"
  top: "inception_3a/pool_proj"
  param {
    lr_mult: 1
    decay_mult: 1
  }
  param {
    lr_mult: 2
    decay_mult: 0
  }
  convolution_param {
    num_output: 32
    kernel_size: 1
    weight_filler {
      type: "xavier"
    }
    bias_filler {
      type: "constant"
      value: 0.2
    }
  }
}
layer {
  name: "inception_3a/prelu_pool_proj"
  type: "PReLU"
  bottom: "inception_3a/pool_proj"
  top: "inception_3a/pool_proj"
  param {
    lr_mult: 1
    decay_mult: 0
  }
  prelu_param {
    filler {
      type: "constant"
      value: 0.01
    }
  }
}
layer {
  name: "inception_3a/output"
  type: "Concat"
  bottom: "inception_3a/1x1"
  bottom: "inception_3a/3x3"
  bottom: "inception_3a/5x5"
  bottom: "inception_3a/pool_proj"
  top: "inception_3a/output"
}
layer {
  name: "inception_3b/1x1"
  type: "Convolution"
  bottom: "inception_3a/output"
  top: "inception_3b/1x1"
  param {
    lr_mult: 1
    decay_mult: 1
  }
  param {
    lr_mult: 2
    decay_mult: 0
  }
  convolution_param {
    num_output: 128
    kernel_size: 1
    weight_filler {
      type: "xavier"
    }
    bias_filler {
      type: "constant"
      value: 0.2
    }
  }
}
layer {
  name: "inception_3b/prelu_1x1"
  type: "PReLU"
  bottom: "inception_3b/1x1"
  top: "inception_3b/1x1"
  param {
    lr_mult: 1
    decay_mult: 0
  }
  prelu_param {
    filler {
      type: "constant"
      value: 0.01
    }
  }
}
layer {
  name: "inception_3b/3x3_reduce"
  type: "Convolution"
  bottom: "inception_3a/output"
  top: "inception_3b/3x3_reduce"
  param {
    lr_mult: 1
    decay_mult: 1
  }
  param {
    lr_mult: 2
    decay_mult: 0
  }
  convolution_param {
    num_output: 128
    kernel_size: 1
    weight_filler {
      type: "xavier"
    }
    bias_filler {
      type: "constant"
      value: 0.2
    }
  }
}
layer {
  name: "inception_3b/prelu_3x3_reduce"
  type: "PReLU"
  bottom: "inception_3b/3x3_reduce"
  top: "inception_3b/3x3_reduce"
  param {
    lr_mult: 1
    decay_mult: 0
  }
  prelu_param {
    filler {
      type: "constant"
      value: 0.01
    }
  }
}
layer {
  name: "inception_3b/3x3"
  type: "Convolution"
  bottom: "inception_3b/3x3_reduce"
  top: "inception_3b/3x3"
  param {
    lr_mult: 1
    decay_mult: 1
  }
  param {
    lr_mult: 2
    decay_mult: 0
  }
  convolution_param {
    num_output: 192
    pad: 1
    kernel_size: 3
    weight_filler {
      type: "xavier"
    }
…
I1028 13:18:29.632556 28115 net.cpp:106] Creating Layer inception_4c/output
I1028 13:18:29.632561 28115 net.cpp:454] inception_4c/output <- inception_4c/1x1
I1028 13:18:29.632567 28115 net.cpp:454] inception_4c/output <- inception_4c/3x3
I1028 13:18:29.632573 28115 net.cpp:454] inception_4c/output <- inception_4c/5x5
I1028 13:18:29.632577 28115 net.cpp:454] inception_4c/output <- inception_4c/pool_proj
I1028 13:18:29.632596 28115 net.cpp:411] inception_4c/output -> inception_4c/output
I1028 13:18:29.632621 28115 net.cpp:150] Setting up inception_4c/output
I1028 13:18:29.632628 28115 net.cpp:157] Top shape: 50 512 14 14 (5017600)
I1028 13:18:29.632632 28115 net.cpp:165] Memory required for data: 2234652208
I1028 13:18:29.632637 28115 layer_factory.hpp:76] Creating layer inception_4c/output_inception_4c/output_0_split
I1028 13:18:29.632643 28115 net.cpp:106] Creating Layer inception_4c/output_inception_4c/output_0_split
I1028 13:18:29.632647 28115 net.cpp:454] inception_4c/output_inception_4c/output_0_split <- inception_4c/output
I1028 13:18:29.632653 28115 net.cpp:411] inception_4c/output_inception_4c/output_0_split -> inception_4c/output_inception_4c/output_0_split_0
I1028 13:18:29.632663 28115 net.cpp:411] inception_4c/output_inception_4c/output_0_split -> inception_4c/output_inception_4c/output_0_split_1
I1028 13:18:29.632669 28115 net.cpp:411] inception_4c/output_inception_4c/output_0_split -> inception_4c/output_inception_4c/output_0_split_2
I1028 13:18:29.632675 28115 net.cpp:411] inception_4c/output_inception_4c/output_0_split -> inception_4c/output_inception_4c/output_0_split_3
I1028 13:18:29.632736 28115 net.cpp:150] Setting up inception_4c/output_inception_4c/output_0_split
I1028 13:18:29.632745 28115 net.cpp:157] Top shape: 50 512 14 14 (5017600)
I1028 13:18:29.632750 28115 net.cpp:157] Top shape: 50 512 14 14 (5017600)
I1028 13:18:29.632755 28115 net.cpp:157] Top shape: 50 512 14 14 (5017600)
I1028 13:18:29.632760 28115 net.cpp:157] Top shape: 50 512 14 14 (5017600)
I1028 13:18:29.632763 28115 net.cpp:165] Memory required for data: 2314933808
I1028 13:18:29.632767 28115 layer_factory.hpp:76] Creating layer inception_4d/1x1
I1028 13:18:29.632777 28115 net.cpp:106] Creating Layer inception_4d/1x1
I1028 13:18:29.632782 28115 net.cpp:454] inception_4d/1x1 <- inception_4c/output_inception_4c/output_0_split_0
I1028 13:18:29.632788 28115 net.cpp:411] inception_4d/1x1 -> inception_4d/1x1
I1028 13:18:29.634479 28115 cudnn_conv_layer.cpp:194] Reallocating workspace storage: 10080
I1028 13:18:29.634516 28115 net.cpp:150] Setting up inception_4d/1x1
I1028 13:18:29.634524 28115 net.cpp:157] Top shape: 50 112 14 14 (1097600)
I1028 13:18:29.634528 28115 net.cpp:165] Memory required for data: 2319324208
I1028 13:18:29.634536 28115 layer_factory.hpp:76] Creating layer inception_4d/prelu_1x1
I1028 13:18:29.634544 28115 net.cpp:106] Creating Layer inception_4d/prelu_1x1
I1028 13:18:29.634551 28115 net.cpp:454] inception_4d/prelu_1x1 <- inception_4d/1x1
I1028 13:18:29.634557 28115 net.cpp:397] inception_4d/prelu_1x1 -> inception_4d/1x1 (in-place)
I1028 13:18:29.634660 28115 net.cpp:150] Setting up inception_4d/prelu_1x1
I1028 13:18:29.634670 28115 net.cpp:157] Top shape: 50 112 14 14 (1097600)
I1028 13:18:29.634675 28115 net.cpp:165] Memory required for data: 2323714608
I1028 13:18:29.634680 28115 layer_factory.hpp:76] Creating layer inception_4d/3x3_reduce
I1028 13:18:29.634688 28115 net.cpp:106] Creating Layer inception_4d/3x3_reduce
I1028 13:18:29.634696 28115 net.cpp:454] inception_4d/3x3_reduce <- inception_4c/output_inception_4c/output_0_split_1
I1028 13:18:29.634706 28115 net.cpp:411] inception_4d/3x3_reduce -> inception_4d/3x3_reduce
I1028 13:18:29.636701 28115 cudnn_conv_layer.cpp:194] Reallocating workspace storage: 10080
I1028 13:18:29.636752 28115 net.cpp:150] Setting up inception_4d/3x3_reduce
I1028 13:18:29.636765 28115 net.cpp:157] Top shape: 50 144 14 14 (1411200)
I1028 13:18:29.636780 28115 net.cpp:165] Memory required for data: 2329359408
I1028 13:18:29.636793 28115 layer_factory.hpp:76] Creating layer inception_4d/prelu_3x3_reduce
I1028 13:18:29.636814 28115 net.cpp:106] Creating Layer inception_4d/prelu_3x3_reduce
I1028 13:18:29.636831 28115 net.cpp:454] inception_4d/prelu_3x3_reduce <- inception_4d/3x3_reduce
I1028 13:18:29.636842 28115 net.cpp:397] inception_4d/prelu_3x3_reduce -> inception_4d/3x3_reduce (in-place)
I1028 13:18:29.637002 28115 net.cpp:150] Setting up inception_4d/prelu_3x3_reduce
I1028 13:18:29.637015 28115 net.cpp:157] Top shape: 50 144 14 14 (1411200)
I1028 13:18:29.637022 28115 net.cpp:165] Memory required for data: 2335004208
I1028 13:18:29.637032 28115 layer_factory.hpp:76] Creating layer inception_4d/3x3
I1028 13:18:29.637047 28115 net.cpp:106] Creating Layer inception_4d/3x3
I1028 13:18:29.637055 28115 net.cpp:454] inception_4d/3x3 <- inception_4d/3x3_reduce
I1028 13:18:29.637068 28115 net.cpp:411] inception_4d/3x3 -> inception_4d/3x3
I1028 13:18:29.642405 28115 cudnn_conv_layer.cpp:194] Reallocating workspace storage: 10080
I1028 13:18:29.642491 28115 net.cpp:150] Setting up inception_4d/3x3
I1028 13:18:29.642506 28115 net.cpp:157] Top shape: 50 288 14 14 (2822400)
I1028 13:18:29.642513 28115 net.cpp:165] Memory required for data: 2346293808
I1028 13:18:29.642529 28115 layer_factory.hpp:76] Creating layer inception_4d/prelu_3x3
I1028 13:18:29.642572 28115 net.cpp:106] Creating Layer inception_4d/prelu_3x3
I1028 13:18:29.642585 28115 net.cpp:454] inception_4d/prelu_3x3 <- inception_4d/3x3
I1028 13:18:29.642599 28115 net.cpp:397] inception_4d/prelu_3x3 -> inception_4d/3x3 (in-place)
I1028 13:18:29.643729 28115 net.cpp:150] Setting up inception_4d/prelu_3x3
I1028 13:18:29.643753 28115 net.cpp:157] Top shape: 50 288 14 14 (2822400)
I1028 13:18:29.643757 28115 net.cpp:165] Memory required for data: 2357583408
I1028 13:18:29.643765 28115 layer_factory.hpp:76] Creating layer inception_4d/5x5_reduce
I1028 13:18:29.643779 28115 net.cpp:106] Creating Layer inception_4d/5x5_reduce
I1028 13:18:29.643787 28115 net.cpp:454] inception_4d/5x5_reduce <- inception_4c/output_inception_4c/output_0_split_2
I1028 13:18:29.643808 28115 net.cpp:411] inception_4d/5x5_reduce -> inception_4d/5x5_reduce
I1028 13:18:29.645751 28115 cudnn_conv_layer.cpp:194] Reallocating workspace storage: 10080
I1028 13:18:29.645793 28115 net.cpp:150] Setting up inception_4d/5x5_reduce
I1028 13:18:29.645803 28115 net.cpp:157] Top shape: 50 32 14 14 (313600)
I1028 13:18:29.645807 28115 net.cpp:165] Memory required for data: 2358837808
I1028 13:18:29.645815 28115 layer_factory.hpp:76] Creating layer inception_4d/prelu_5x5_reduce
I1028 13:18:29.645828 28115 net.cpp:106] Creating Layer inception_4d/prelu_5x5_reduce
I1028 13:18:29.645833 28115 net.cpp:454] inception_4d/prelu_5x5_reduce <- inception_4d/5x5_reduce
I1028 13:18:29.645840 28115 net.cpp:397] inception_4d/prelu_5x5_reduce -> inception_4d/5x5_reduce (in-place)
I1028 13:18:29.645949 28115 net.cpp:150] Setting up inception_4d/prelu_5x5_reduce
I1028 13:18:29.645961 28115 net.cpp:157] Top shape: 50 32 14 14 (313600)
I1028 13:18:29.645964 28115 net.cpp:165] Memory required for data: 2360092208
I1028 13:18:29.645970 28115 layer_factory.hpp:76] Creating layer inception_4d/5x5
I1028 13:18:29.645985 28115 net.cpp:106] Creating Layer inception_4d/5x5
I1028 13:18:29.645992 28115 net.cpp:454] inception_4d/5x5 <- inception_4d/5x5_reduce
I1028 13:18:29.646008 28115 net.cpp:411] inception_4d/5x5 -> inception_4d/5x5
I1028 13:18:29.647403 28115 cudnn_conv_layer.cpp:194] Reallocating workspace storage: 13080
I1028 13:18:29.647439 28115 net.cpp:150] Setting up inception_4d/5x5
I1028 13:18:29.647446 28115 net.cpp:157] Top shape: 50 64 14 14 (627200)
I1028 13:18:29.647450 28115 net.cpp:165] Memory required for data: 2362601008
I1028 13:18:29.647469 28115 layer_factory.hpp:76] Creating layer inception_4d/prelu_5x5
I1028 13:18:29.647480 28115 net.cpp:106] Creating Layer inception_4d/prelu_5x5
I1028 13:18:29.647485 28115 net.cpp:454] inception_4d/prelu_5x5 <- inception_4d/5x5
I1028 13:18:29.647492 28115 net.cpp:397] inception_4d/prelu_5x5 -> inception_4d/5x5 (in-place)
I1028 13:18:29.647591 28115 net.cpp:150] Setting up inception_4d/prelu_5x5
I1028 13:18:29.647600 28115 net.cpp:157] Top shape: 50 64 14 14 (627200)
I1028 13:18:29.647604 28115 net.cpp:165] Memory required for data: 2365109808
I1028 13:18:29.647620 28115 layer_factory.hpp:76] Creating layer inception_4d/pool
I1028 13:18:29.647631 28115 net.cpp:106] Creating Layer inception_4d/pool
I1028 13:18:29.647637 28115 net.cpp:454] inception_4d/pool <- inception_4c/output_inception_4c/output_0_split_3
I1028 13:18:29.647644 28115 net.cpp:411] inception_4d/pool -> inception_4d/pool
I1028 13:18:29.648164 28115 net.cpp:150] Setting up inception_4d/pool
I1028 13:18:29.648175 28115 net.cpp:157] Top shape: 50 512 14 14 (5017600)
I1028 13:18:29.648190 28115 net.cpp:165] Memory required for data: 2385180208
I1028 13:18:29.648195 28115 layer_factory.hpp:76] Creating layer inception_4d/pool_proj
I1028 13:18:29.648206 28115 net.cpp:106] Creating Layer inception_4d/pool_proj
I1028 13:18:29.648211 28115 net.cpp:454] inception_4d/pool_proj <- inception_4d/pool
I1028 13:18:29.648218 28115 net.cpp:411] inception_4d/pool_proj -> inception_4d/pool_proj
I1028 13:18:29.649695 28115 cudnn_conv_layer.cpp:194] Reallocating workspace storage: 10080
I1028 13:18:29.649752 28115 net.cpp:150] Setting up inception_4d/pool_proj
I1028 13:18:29.649763 28115 net.cpp:157] Top shape: 50 64 14 14 (627200)
I1028 13:18:29.649770 28115 net.cpp:165] Memory required for data: 2387689008
I1028 13:18:29.649777 28115 layer_factory.hpp:76] Creating layer inception_4d/prelu_pool_proj
I1028 13:18:29.649809 28115 net.cpp:106] Creating Layer inception_4d/prelu_pool_proj
I1028 13:18:29.649823 28115 net.cpp:454] inception_4d/prelu_pool_proj <- inception_4d/pool_proj
I1028 13:18:29.649829 28115 net.cpp:397] inception_4d/prelu_pool_proj -> inception_4d/pool_proj (in-place)
I1028 13:18:29.649926 28115 net.cpp:150] Setting up inception_4d/prelu_pool_proj
I1028 13:18:29.649935 28115 net.cpp:157] Top shape: 50 64 14 14 (627200)
I1028 13:18:29.649953 28115 net.cpp:165] Memory required for data: 2390197808
I1028 13:18:29.649960 28115 layer_factory.hpp:76] Creating layer inception_4d/output
I1028 13:18:29.649968 28115 net.cpp:106] Creating Layer inception_4d/output
I1028 13:18:29.649973 28115 net.cpp:454] inception_4d/output <- inception_4d/1x1
I1028 13:18:29.649979 28115 net.cpp:454] inception_4d/output <- inception_4d/3x3
I1028 13:18:29.649984 28115 net.cpp:454] inception_4d/output <- inception_4d/5x5
I1028 13:18:29.649988 28115 net.cpp:454] inception_4d/output <- inception_4d/pool_proj
I1028 13:18:29.649994 28115 net.cpp:411] inception_4d/output -> inception_4d/output
I1028 13:18:29.650035 28115 net.cpp:150] Setting up inception_4d/output
I1028 13:18:29.650053 28115 net.cpp:157] Top shape: 50 528 14 14 (5174400)
I1028 13:18:29.650056 28115 net.cpp:165] Memory required for data: 2410895408
I1028 13:18:29.650068 28115 layer_factory.hpp:76] Creating layer inception_4d/output_inception_4d/output_0_split
I1028 13:18:29.650075 28115 net.cpp:106] Creating Layer inception_4d/output_inception_4d/output_0_split
I1028 13:18:29.650079 28115 net.cpp:454] inception_4d/output_inception_4d/output_0_split <- inception_4d/output
I1028 13:18:29.650087 28115 net.cpp:411] inception_4d/output_inception_4d/output_0_split -> inception_4d/output_inception_4d/output_0_split_0
I1028 13:18:29.650094 28115 net.cpp:411] inception_4d/output_inception_4d/output_0_split -> inception_4d/output_inception_4d/output_0_split_1
I1028 13:18:29.650101 28115 net.cpp:411] inception_4d/output_inception_4d/output_0_split -> inception_4d/output_inception_4d/output_0_split_2
I1028 13:18:29.650109 28115 net.cpp:411] inception_4d/output_inception_4d/output_0_split -> inception_4d/output_inception_4d/output_0_split_3
I1028 13:18:29.650115 28115 net.cpp:411] inception_4d/output_inception_4d/output_0_split -> inception_4d/output_inception_4d/output_0_split_4
I1028 13:18:29.650182 28115 net.cpp:150] Setting up inception_4d/output_inception_4d/output_0_split
I1028 13:18:29.650189 28115 net.cpp:157] Top shape: 50 528 14 14 (5174400)
I1028 13:18:29.650202 28115 net.cpp:157] Top shape: 50 528 14 14 (5174400)
I1028 13:18:29.650207 28115 net.cpp:157] Top shape: 50 528 14 14 (5174400)
I1028 13:18:29.650213 28115 net.cpp:157] Top shape: 50 528 14 14 (5174400)
I1028 13:18:29.650216 28115 net.cpp:157] Top shape: 50 528 14 14 (5174400)
I1028 13:18:29.650220 28115 net.cpp:165] Memory required for data: 2514383408
I1028 13:18:29.650224 28115 layer_factory.hpp:76] Creating layer loss2/ave_pool
I1028 13:18:29.650233 28115 net.cpp:106] Creating Layer loss2/ave_pool
I1028 13:18:29.650238 28115 net.cpp:454] loss2/ave_pool <- inception_4d/output_inception_4d/output_0_split_0
I1028 13:18:29.650243 28115 net.cpp:411] loss2/ave_pool -> loss2/ave_pool
I1028 13:18:29.650437 28115 net.cpp:150] Setting up loss2/ave_pool
I1028 13:18:29.650447 28115 net.cpp:157] Top shape: 50 528 4 4 (422400)
I1028 13:18:29.650459 28115 net.cpp:165] Memory required for data: 2516073008
I1028 13:18:29.650463 28115 layer_factory.hpp:76] Creating layer loss2/conv
I1028 13:18:29.650472 28115 net.cpp:106] Creating Layer loss2/conv
I1028 13:18:29.650477 28115 net.cpp:454] loss2/conv <- loss2/ave_pool
I1028 13:18:29.650485 28115 net.cpp:411] loss2/conv -> loss2/conv
I1028 13:18:29.652215 28115 cudnn_conv_layer.cpp:194] Reallocating workspace storage: 6840
I1028 13:18:29.652253 28115 net.cpp:150] Setting up loss2/conv
I1028 13:18:29.652261 28115 net.cpp:157] Top shape: 50 128 4 4 (102400)
I1028 13:18:29.652266 28115 net.cpp:165] Memory required for data: 2516482608
I1028 13:18:29.652273 28115 layer_factory.hpp:76] Creating layer loss2/prelu_conv
I1028 13:18:29.652292 28115 net.cpp:106] Creating Layer loss2/prelu_conv
I1028 13:18:29.652297 28115 net.cpp:454] loss2/prelu_conv <- loss2/conv
I1028 13:18:29.652307 28115 net.cpp:397] loss2/prelu_conv -> loss2/conv (in-place)
I1028 13:18:29.652405 28115 net.cpp:150] Setting up loss2/prelu_conv
I1028 13:18:29.652413 28115 net.cpp:157] Top shape: 50 128 4 4 (102400)
I1028 13:18:29.652417 28115 net.cpp:165] Memory required for data: 2516892208
I1028 13:18:29.652423 28115 layer_factory.hpp:76] Creating layer loss2/fc
I1028 13:18:29.652431 28115 net.cpp:106] Creating Layer loss2/fc
I1028 13:18:29.652436 28115 net.cpp:454] loss2/fc <- loss2/conv
I1028 13:18:29.652451 28115 net.cpp:411] loss2/fc -> loss2/fc
I1028 13:18:29.668699 28115 net.cpp:150] Setting up loss2/fc
I1028 13:18:29.668751 28115 net.cpp:157] Top shape: 50 1024 (51200)
I1028 13:18:29.668757 28115 net.cpp:165] Memory required for data: 2517097008
I1028 13:18:29.668797 28115 layer_factory.hpp:76] Creating layer loss2/prelu_fc
I1028 13:18:29.668822 28115 net.cpp:106] Creating Layer loss2/prelu_fc
I1028 13:18:29.668836 28115 net.cpp:454] loss2/prelu_fc <- loss2/fc
I1028 13:18:29.668849 28115 net.cpp:397] loss2/prelu_fc -> loss2/fc (in-place)
I1028 13:18:29.669003 28115 net.cpp:150] Setting up loss2/prelu_fc
I1028 13:18:29.669015 28115 net.cpp:157] Top shape: 50 1024 (51200)
I1028 13:18:29.669029 28115 net.cpp:165] Memory required for data: 2517301808
I1028 13:18:29.669039 28115 layer_factory.hpp:76] Creating layer loss2/drop_fc
I1028 13:18:29.669059 28115 net.cpp:106] Creating Layer loss2/drop_fc
I1028 13:18:29.669069 28115 net.cpp:454] loss2/drop_fc <- loss2/fc
I1028 13:18:29.669077 28115 net.cpp:397] loss2/drop_fc -> loss2/fc (in-place)
I1028 13:18:29.669126 28115 net.cpp:150] Setting up loss2/drop_fc
I1028 13:18:29.669137 28115 net.cpp:157] Top shape: 50 1024 (51200)
I1028 13:18:29.669149 28115 net.cpp:165] Memory required for data: 2517506608
I1028 13:18:29.669157 28115 layer_factory.hpp:76] Creating layer loss2/classifier2
I1028 13:18:29.669167 28115 net.cpp:106] Creating Layer loss2/classifier2
I1028 13:18:29.669174 28115 net.cpp:454] loss2/classifier2 <- loss2/fc
I1028 13:18:29.669186 28115 net.cpp:411] loss2/classifier2 -> loss2/classifier
I1028 13:18:29.669375 28115 net.cpp:150] Setting up loss2/classifier2
I1028 13:18:29.669389 28115 net.cpp:157] Top shape: 50 2 (100)
I1028 13:18:29.669397 28115 net.cpp:165] Memory required for data: 2517507008
I1028 13:18:29.669411 28115 layer_factory.hpp:76] Creating layer loss2/classifier_loss2/classifier2_0_split
I1028 13:18:29.669425 28115 net.cpp:106] Creating Layer loss2/classifier_loss2/classifier2_0_split
I1028 13:18:29.669435 28115 net.cpp:454] loss2/classifier_loss2/classifier2_0_split <- loss2/classifier
I1028 13:18:29.669453 28115 net.cpp:411] loss2/classifier_loss2/classifier2_0_split -> loss2/classifier_loss2/classifier2_0_split_0
I1028 13:18:29.669462 28115 net.cpp:411] loss2/classifier_loss2/classifier2_0_split -> loss2/classifier_loss2/classifier2_0_split_1
I1028 13:18:29.669498 28115 net.cpp:150] Setting up loss2/classifier_loss2/classifier2_0_split
I1028 13:18:29.669507 28115 net.cpp:157] Top shape: 50 2 (100)
I1028 13:18:29.669522 28115 net.cpp:157] Top shape: 50 2 (100)
I1028 13:18:29.669525 28115 net.cpp:165] Memory required for data: 2517507808
I1028 13:18:29.669529 28115 layer_factory.hpp:76] Creating layer loss2/loss
I1028 13:18:29.669538 28115 net.cpp:106] Creating Layer loss2/loss
I1028 13:18:29.669543 28115 net.cpp:454] loss2/loss <- loss2/classifier_loss2/classifier2_0_split_0
I1028 13:18:29.669550 28115 net.cpp:454] loss2/loss <- label_data_1_split_2
…
I1028 13:18:29.670544 28115 net.cpp:165] Memory required for data: 2517507816
I1028 13:18:29.670548 28115 layer_factory.hpp:76] Creating layer inception_4e/1x1
I1028 13:18:29.670559 28115 net.cpp:106] Creating Layer inception_4e/1x1
I1028 13:18:29.670567 28115 net.cpp:454] inception_4e/1x1 <- inception_4d/output_inception_4d/output_0_split_1
I1028 13:18:29.670577 28115 net.cpp:411] inception_4e/1x1 -> inception_4e/1x1
I1028 13:18:29.673069 28115 cudnn_conv_layer.cpp:194] Reallocating workspace storage: 10080
I1028 13:18:29.673131 28115 net.cpp:150] Setting up inception_4e/1x1
I1028 13:18:29.673142 28115 net.cpp:157] Top shape: 50 256 14 14 (2508800)
I1028 13:18:29.673146 28115 net.cpp:165] Memory required for data: 2527543016
I1028 13:18:29.673156 28115 layer_factory.hpp:76] Creating layer inception_4e/prelu_1x1
I1028 13:18:29.673168 28115 net.cpp:106] Creating Layer inception_4e/prelu_1x1
I1028 13:18:29.673174 28115 net.cpp:454] inception_4e/prelu_1x1 <- inception_4e/1x1
I1028 13:18:29.673182 28115 net.cpp:397] inception_4e/prelu_1x1 -> inception_4e/1x1 (in-place)
I1028 13:18:29.673305 28115 net.cpp:150] Setting up inception_4e/prelu_1x1
I1028 13:18:29.673316 28115 net.cpp:157] Top shape: 50 256 14 14 (2508800)
I1028 13:18:29.673319 28115 net.cpp:165] Memory required for data: 2537578216
I1028 13:18:29.673326 28115 layer_factory.hpp:76] Creating layer inception_4e/3x3_reduce
I1028 13:18:29.673336 28115 net.cpp:106] Creating Layer inception_4e/3x3_reduce
I1028 13:18:29.673341 28115 net.cpp:454] inception_4e/3x3_reduce <- inception_4d/output_inception_4d/output_0_split_2
I1028 13:18:29.673348 28115 net.cpp:411] inception_4e/3x3_reduce -> inception_4e/3x3_reduce
I1028 13:18:29.675254 28115 cudnn_conv_layer.cpp:194] Reallocating workspace storage: 10080
I1028 13:18:29.675302 28115 net.cpp:150] Setting up inception_4e/3x3_reduce
I1028 13:18:29.675313 28115 net.cpp:157] Top shape: 50 160 14 14 (1568000)
I1028 13:18:29.675318 28115 net.cpp:165] Memory required for data: 2543850216
I1028 13:18:29.675326 28115 layer_factory.hpp:76] Creating layer inception_4e/prelu_3x3_reduce
I1028 13:18:29.675336 28115 net.cpp:106] Creating Layer inception_4e/prelu_3x3_reduce
I1028 13:18:29.675343 28115 net.cpp:454] inception_4e/prelu_3x3_reduce <- inception_4e/3x3_reduce
I1028 13:18:29.675349 28115 net.cpp:397] inception_4e/prelu_3x3_reduce -> inception_4e/3x3_reduce (in-place)
I1028 13:18:29.675465 28115 net.cpp:150] Setting up inception_4e/prelu_3x3_reduce
I1028 13:18:29.675475 28115 net.cpp:157] Top shape: 50 160 14 14 (1568000)
I1028 13:18:29.675479 28115 net.cpp:165] Memory required for data: 2550122216
I1028 13:18:29.675484 28115 layer_factory.hpp:76] Creating layer inception_4e/3x3
I1028 13:18:29.675509 28115 net.cpp:106] Creating Layer inception_4e/3x3
I1028 13:18:29.675515 28115 net.cpp:454] inception_4e/3x3 <- inception_4e/3x3_reduce
I1028 13:18:29.675523 28115 net.cpp:411] inception_4e/3x3 -> inception_4e/3x3
I1028 13:18:29.680392 28115 cudnn_conv_layer.cpp:194] Reallocating workspace storage: 10080
I1028 13:18:29.680449 28115 net.cpp:150] Setting up inception_4e/3x3
I1028 13:18:29.680459 28115 net.cpp:157] Top shape: 50 320 14 14 (3136000)
I1028 13:18:29.680464 28115 net.cpp:165] Memory required for data: 2562666216
I1028 13:18:29.680475 28115 layer_factory.hpp:76] Creating layer inception_4e/prelu_3x3
I1028 13:18:29.680486 28115 net.cpp:106] Creating Layer inception_4e/prelu_3x3
I1028 13:18:29.680492 28115 net.cpp:454] inception_4e/prelu_3x3 <- inception_4e/3x3
I1028 13:18:29.680501 28115 net.cpp:397] inception_4e/prelu_3x3 -> inception_4e/3x3 (in-place)
I1028 13:18:29.681607 28115 net.cpp:150] Setting up inception_4e/prelu_3x3
I1028 13:18:29.681622 28115 net.cpp:157] Top shape: 50 320 14 14 (3136000)
I1028 13:18:29.681625 28115 net.cpp:165] Memory required for data: 2575210216
I1028 13:18:29.681632 28115 layer_factory.hpp:76] Creating layer inception_4e/5x5_reduce
I1028 13:18:29.681658 28115 net.cpp:106] Creating Layer inception_4e/5x5_reduce
I1028 13:18:29.681664 28115 net.cpp:454] inception_4e/5x5_reduce <- inception_4d/output_inception_4d/output_0_split_3
I1028 13:18:29.681674 28115 net.cpp:411] inception_4e/5x5_reduce -> inception_4e/5x5_reduce
I1028 13:18:29.682948 28115 cudnn_conv_layer.cpp:194] Reallocating workspace storage: 10080
I1028 13:18:29.682982 28115 net.cpp:150] Setting up inception_4e/5x5_reduce
I1028 13:18:29.682989 28115 net.cpp:157] Top shape: 50 32 14 14 (313600)
I1028 13:18:29.682993 28115 net.cpp:165] Memory required for data: 2576464616
I1028 13:18:29.683001 28115 layer_factory.hpp:76] Creating layer inception_4e/prelu_5x5_reduce
I1028 13:18:29.683009 28115 net.cpp:106] Creating Layer inception_4e/prelu_5x5_reduce
I1028 13:18:29.683014 28115 net.cpp:454] inception_4e/prelu_5x5_reduce <- inception_4e/5x5_reduce
I1028 13:18:29.683022 28115 net.cpp:397] inception_4e/prelu_5x5_reduce -> inception_4e/5x5_reduce (in-place)
I1028 13:18:29.683127 28115 net.cpp:150] Setting up inception_4e/prelu_5x5_reduce
I1028 13:18:29.683136 28115 net.cpp:157] Top shape: 50 32 14 14 (313600)
I1028 13:18:29.683140 28115 net.cpp:165] Memory required for data: 2577719016
I1028 13:18:29.683145 28115 layer_factory.hpp:76] Creating layer inception_4e/5x5
I1028 13:18:29.683154 28115 net.cpp:106] Creating Layer inception_4e/5x5
I1028 13:18:29.683158 28115 net.cpp:454] inception_4e/5x5 <- inception_4e/5x5_reduce
I1028 13:18:29.683166 28115 net.cpp:411] inception_4e/5x5 -> inception_4e/5x5
I1028 13:18:29.685586 28115 cudnn_conv_layer.cpp:194] Reallocating workspace storage: 13080
I1028 13:18:29.685622 28115 net.cpp:150] Setting up inception_4e/5x5
I1028 13:18:29.685631 28115 net.cpp:157] Top shape: 50 128 14 14 (1254400)
I1028 13:18:29.685634 28115 net.cpp:165] Memory required for data: 2582736616
I1028 13:18:29.685649 28115 layer_factory.hpp:76] Creating layer inception_4e/prelu_5x5
I1028 13:18:29.685657 28115 net.cpp:106] Creating Layer inception_4e/prelu_5x5
I1028 13:18:29.685662 28115 net.cpp:454] inception_4e/prelu_5x5 <- inception_4e/5x5
I1028 13:18:29.685673 28115 net.cpp:397] inception_4e/prelu_5x5 -> inception_4e/5x5 (in-place)
I1028 13:18:29.685770 28115 net.cpp:150] Setting up inception_4e/prelu_5x5
I1028 13:18:29.685780 28115 net.cpp:157] Top shape: 50 128 14 14 (1254400)
I1028 13:18:29.685783 28115 net.cpp:165] Memory required for data: 2587754216
I1028 13:18:29.685788 28115 layer_factory.hpp:76] Creating layer inception_4e/pool
I1028 13:18:29.685797 28115 net.cpp:106] Creating Layer inception_4e/pool
I1028 13:18:29.685803 28115 net.cpp:454] inception_4e/pool <- inception_4d/output_inception_4d/output_0_split_4
I1028 13:18:29.685809 28115 net.cpp:411] inception_4e/pool -> inception_4e/pool
I1028 13:18:29.686038 28115 net.cpp:150] Setting up inception_4e/pool
I1028 13:18:29.686056 28115 net.cpp:157] Top shape: 50 528 14 14 (5174400)
I1028 13:18:29.686060 28115 net.cpp:165] Memory required for data: 2608451816
I1028 13:18:29.686074 28115 layer_factory.hpp:76] Creating layer inception_4e/pool_proj
I1028 13:18:29.686090 28115 net.cpp:106] Creating Layer inception_4e/pool_proj
I1028 13:18:29.686095 28115 net.cpp:454] inception_4e/pool_proj <- inception_4e/pool
I1028 13:18:29.686101 28115 net.cpp:411] inception_4e/pool_proj -> inception_4e/pool_proj
I1028 13:18:29.687765 28115 cudnn_conv_layer.cpp:194] Reallocating workspace storage: 10080
I1028 13:18:29.687801 28115 net.cpp:150] Setting up inception_4e/pool_proj
I1028 13:18:29.687808 28115 net.cpp:157] Top shape: 50 128 14 14 (1254400)
I1028 13:18:29.687813 28115 net.cpp:165] Memory required for data: 2613469416
I1028 13:18:29.687819 28115 layer_factory.hpp:76] Creating layer inception_4e/prelu_pool_proj
I1028 13:18:29.687842 28115 net.cpp:106] Creating Layer inception_4e/prelu_pool_proj
I1028 13:18:29.687849 28115 net.cpp:454] inception_4e/prelu_pool_proj <- inception_4e/pool_proj
I1028 13:18:29.687855 28115 net.cpp:397] inception_4e/prelu_pool_proj -> inception_4e/pool_proj (in-place)
I1028 13:18:29.687942 28115 net.cpp:150] Setting up inception_4e/prelu_pool_proj
I1028 13:18:29.687950 28115 net.cpp:157] Top shape: 50 128 14 14 (1254400)
I1028 13:18:29.687954 28115 net.cpp:165] Memory required for data: 2618487016
I1028 13:18:29.687959 28115 layer_factory.hpp:76] Creating layer inception_4e/output
I1028 13:18:29.687966 28115 net.cpp:106] Creating Layer inception_4e/output
I1028 13:18:29.687970 28115 net.cpp:454] inception_4e/output <- inception_4e/1x1
I1028 13:18:29.687975 28115 net.cpp:454] inception_4e/output <- inception_4e/3x3
I1028 13:18:29.687980 28115 net.cpp:454] inception_4e/output <- inception_4e/5x5
I1028 13:18:29.687985 28115 net.cpp:454] inception_4e/output <- inception_4e/pool_proj
I1028 13:18:29.687991 28115 net.cpp:411] inception_4e/output -> inception_4e/output
I1028 13:18:29.688014 28115 net.cpp:150] Setting up inception_4e/output
I1028 13:18:29.688022 28115 net.cpp:157] Top shape: 50 832 14 14 (8153600)
I1028 13:18:29.688026 28115 net.cpp:165] Memory required for data: 2651101416
I1028 13:18:29.688030 28115 layer_factory.hpp:76] Creating layer pool4/3x3_s2
I1028 13:18:29.688036 28115 net.cpp:106] Creating Layer pool4/3x3_s2
I1028 13:18:29.688040 28115 net.cpp:454] pool4/3x3_s2 <- inception_4e/output
I1028 13:18:29.688046 28115 net.cpp:411] pool4/3x3_s2 -> pool4/3x3_s2
I1028 13:18:29.688258 28115 net.cpp:150] Setting up pool4/3x3_s2
I1028 13:18:29.688268 28115 net.cpp:157] Top shape: 50 832 7 7 (2038400)
I1028 13:18:29.688272 28115 net.cpp:165] Memory required for data: 2659255016
I1028 13:18:29.688277 28115 layer_factory.hpp:76] Creating layer pool4/3x3_s2_pool4/3x3_s2_0_split
I1028 13:18:29.688283 28115 net.cpp:106] Creating Layer pool4/3x3_s2_pool4/3x3_s2_0_split
I1028 13:18:29.688287 28115 net.cpp:454] pool4/3x3_s2_pool4/3x3_s2_0_split <- pool4/3x3_s2
I1028 13:18:29.688297 28115 net.cpp:411] pool4/3x3_s2_pool4/3x3_s2_0_split -> pool4/3x3_s2_pool4/3x3_s2_0_split_0
I1028 13:18:29.688303 28115 net.cpp:411] pool4/3x3_s2_pool4/3x3_s2_0_split -> pool4/3x3_s2_pool4/3x3_s2_0_split_1
I1028 13:18:29.688310 28115 net.cpp:411] pool4/3x3_s2_pool4/3x3_s2_0_split -> pool4/3x3_s2_pool4/3x3_s2_0_split_2
I1028 13:18:29.688316 28115 net.cpp:411] pool4/3x3_s2_pool4/3x3_s2_0_split -> pool4/3x3_s2_pool4/3x3_s2_0_split_3
I1028 13:18:29.688386 28115 net.cpp:150] Setting up pool4/3x3_s2_pool4/3x3_s2_0_split
I1028 13:18:29.688395 28115 net.cpp:157] Top shape: 50 832 7 7 (2038400)
I1028 13:18:29.688407 28115 net.cpp:157] Top shape: 50 832 7 7 (2038400)
I1028 13:18:29.688412 28115 net.cpp:157] Top shape: 50 832 7 7 (2038400)
I1028 13:18:29.688417 28115 net.cpp:157] Top shape: 50 832 7 7 (2038400)
I1028 13:18:29.688421 28115 net.cpp:165] Memory required for data: 2691869416
I1028 13:18:29.688426 28115 layer_factory.hpp:76] Creating layer inception_5a/1x1
I1028 13:18:29.688433 28115 net.cpp:106] Creating Layer inception_5a/1x1
I1028 13:18:29.688438 28115 net.cpp:454] inception_5a/1x1 <- pool4/3x3_s2_pool4/3x3_s2_0_split_0
I1028 13:18:29.688446 28115 net.cpp:411] inception_5a/1x1 -> inception_5a/1x1
I1028 13:18:29.691619 28115 cudnn_conv_layer.cpp:194] Reallocating workspace storage: 7428
I1028 13:18:29.691659 28115 net.cpp:150] Setting up inception_5a/1x1
I1028 13:18:29.691669 28115 net.cpp:157] Top shape: 50 256 7 7 (627200)
I1028 13:18:29.691674 28115 net.cpp:165] Memory required for data: 2694378216
I1028 13:18:29.691682 28115 layer_factory.hpp:76] Creating layer inception_5a/prelu_1x1
I1028 13:18:29.691694 28115 net.cpp:106] Creating Layer inception_5a/prelu_1x1
I1028 13:18:29.691700 28115 net.cpp:454] inception_5a/prelu_1x1 <- inception_5a/1x1
I1028 13:18:29.691707 28115 net.cpp:397] inception_5a/prelu_1x1 -> inception_5a/1x1 (in-place)
I1028 13:18:29.691802 28115 net.cpp:150] Setting up inception_5a/prelu_1x1
I1028 13:18:29.691820 28115 net.cpp:157] Top shape: 50 256 7 7 (627200)
I1028 13:18:29.691825 28115 net.cpp:165] Memory required for data: 2696887016
I1028 13:18:29.691831 28115 layer_factory.hpp:76] Creating layer inception_5a/3x3_reduce
I1028 13:18:29.691843 28115 net.cpp:106] Creating Layer inception_5a/3x3_reduce
I1028 13:18:29.691848 28115 net.cpp:454] inception_5a/3x3_reduce <- pool4/3x3_s2_pool4/3x3_s2_0_split_1
I1028 13:18:29.691855 28115 net.cpp:411] inception_5a/3x3_reduce -> inception_5a/3x3_reduce
I1028 13:18:29.694483 28115 cudnn_conv_layer.cpp:194] Reallocating workspace storage: 7428
I1028 13:18:29.694524 28115 net.cpp:150] Setting up inception_5a/3x3_reduce
I1028 13:18:29.694533 28115 net.cpp:157] Top shape: 50 160 7 7 (392000)
I1028 13:18:29.694545 28115 net.cpp:165] Memory required for data: 2698455016
I1028 13:18:29.694553 28115 layer_factory.hpp:76] Creating layer inception_5a/prelu_3x3_reduce
I1028 13:18:29.694561 28115 net.cpp:106] Creating Layer inception_5a/prelu_3x3_reduce
I1028 13:18:29.694566 28115 net.cpp:454] inception_5a/prelu_3x3_reduce <- inception_5a/3x3_reduce
I1028 13:18:29.694577 28115 net.cpp:397] inception_5a/prelu_3x3_reduce -> inception_5a/3x3_reduce (in-place)
I1028 13:18:29.694675 28115 net.cpp:150] Setting up inception_5a/prelu_3x3_reduce
I1028 13:18:29.694684 28115 net.cpp:157] Top shape: 50 160 7 7 (392000)
I1028 13:18:29.694687 28115 net.cpp:165] Memory required for data: 2700023016
I1028 13:18:29.694694 28115 layer_factory.hpp:76] Creating layer inception_5a/3x3
I1028 13:18:29.694703 28115 net.cpp:106] Creating Layer inception_5a/3x3
I1028 13:18:29.694708 28115 net.cpp:454] inception_5a/3x3 <- inception_5a/3x3_reduce
I1028 13:18:29.694715 28115 net.cpp:411] inception_5a/3x3 -> inception_5a/3x3
I1028 13:18:29.703575 28115 cudnn_conv_layer.cpp:194] Reallocating workspace storage: 7788
I1028 13:18:29.703676 28115 net.cpp:150] Setting up inception_5a/3x3
I1028 13:18:29.703701 28115 net.cpp:157] Top shape: 50 320 7 7 (784000)
I1028 13:18:29.703707 28115 net.cpp:165] Memory required for data: 2703159016
I1028 13:18:29.703722 28115 layer_factory.hpp:76] Creating layer inception_5a/prelu_3x3
I1028 13:18:29.703750 28115 net.cpp:106] Creating Layer inception_5a/prelu_3x3
I1028 13:18:29.703765 28115 net.cpp:454] inception_5a/prelu_3x3 <- inception_5a/3x3
I1028 13:18:29.703797 28115 net.cpp:397] inception_5a/prelu_3x3 -> inception_5a/3x3 (in-place)
I1028 13:18:29.704064 28115 net.cpp:150] Setting up inception_5a/prelu_3x3
I1028 13:18:29.704087 28115 net.cpp:157] Top shape: 50 320 7 7 (784000)
I1028 13:18:29.704097 28115 net.cpp:165] Memory required for data: 2706295016
I1028 13:18:29.704109 28115 layer_factory.hpp:76] Creating layer inception_5a/5x5_reduce
I1028 13:18:29.704129 28115 net.cpp:106] Creating Layer inception_5a/5x5_reduce
I1028 13:18:29.704144 28115 net.cpp:454] inception_5a/5x5_reduce <- pool4/3x3_s2_pool4/3x3_s2_0_split_2
I1028 13:18:29.704157 28115 net.cpp:411] inception_5a/5x5_reduce -> inception_5a/5x5_reduce
I1028 13:18:29.706167 28115 cudnn_conv_layer.cpp:194] Reallocating workspace storage: 7428
I1028 13:18:29.706226 28115 net.cpp:150] Setting up inception_5a/5x5_reduce
I1028 13:18:29.706244 28115 net.cpp:157] Top shape: 50 32 7 7 (78400)
I1028 13:18:29.706251 28115 net.cpp:165] Memory required for data: 2706608616
I1028 13:18:29.706262 28115 layer_factory.hpp:76] Creating layer inception_5a/prelu_5x5_reduce
I1028 13:18:29.706274 28115 net.cpp:106] Creating Layer inception_5a/prelu_5x5_reduce
I1028 13:18:29.706282 28115 net.cpp:454] inception_5a/prelu_5x5_reduce <- inception_5a/5x5_reduce
I1028 13:18:29.706292 28115 net.cpp:397] inception_5a/prelu_5x5_reduce -> inception_5a/5x5_reduce (in-place)
I1028 13:18:29.706460 28115 net.cpp:150] Setting up inception_5a/prelu_5x5_reduce
I1028 13:18:29.706473 28115 net.cpp:157] Top shape: 50 32 7 7 (78400)
I1028 13:18:29.706480 28115 net.cpp:165] Memory required for data: 2706922216
I1028 13:18:29.706487 28115 layer_factory.hpp:76] Creating layer inception_5a/5x5
I1028 13:18:29.706501 28115 net.cpp:106] Creating Layer inception_5a/5x5
I1028 13:18:29.706542 28115 net.cpp:454] inception_5a/5x5 <- inception_5a/5x5_reduce
I1028 13:18:29.706554 28115 net.cpp:411] inception_5a/5x5 -> inception_5a/5x5
I1028 13:18:29.708539 28115 cudnn_conv_layer.cpp:194] Reallocating workspace storage: 9804
I1028 13:18:29.708590 28115 net.cpp:150] Setting up inception_5a/5x5
I1028 13:18:29.708603 28115 net.cpp:157] Top shape: 50 128 7 7 (313600)
I1028 13:18:29.708609 28115 net.cpp:165] Memory required for data: 2708176616
I1028 13:18:29.708618 28115 layer_factory.hpp:76] Creating layer inception_5a/prelu_5x5
I1028 13:18:29.708628 28115 net.cpp:106] Creating Layer inception_5a/prelu_5x5
I1028 13:18:29.708634 28115 net.cpp:454] inception_5a/prelu_5x5 <- inception_5a/5x5
I1028 13:18:29.708644 28115 net.cpp:397] inception_5a/prelu_5x5 -> inception_5a/5x5 (in-place)
I1028 13:18:29.708762 28115 net.cpp:150] Setting up inception_5a/prelu_5x5
I1028 13:18:29.708775 28115 net.cpp:157] Top shape: 50 128 7 7 (313600)
I1028 13:18:29.708781 28115 net.cpp:165] Memory required for data: 2709431016
I1028 13:18:29.708787 28115 layer_factory.hpp:76] Creating layer inception_5a/pool
I1028 13:18:29.708797 28115 net.cpp:106] Creating Layer inception_5a/pool
I1028 13:18:29.708803 28115 net.cpp:454] inception_5a/pool <- pool4/3x3_s2_pool4/3x3_s2_0_split_3
I1028 13:18:29.708811 28115 net.cpp:411] inception_5a/pool -> inception_5a/pool
I1028 13:18:29.709326 28115 net.cpp:150] Setting up inception_5a/pool
I1028 13:18:29.709344 28115 net.cpp:157] Top shape: 50 832 7 7 (2038400)
I1028 13:18:29.709349 28115 net.cpp:165] Memory required for data: 2717584616
I1028 13:18:29.709355 28115 layer_factory.hpp:76] Creating layer inception_5a/pool_proj
I1028 13:18:29.709367 28115 net.cpp:106] Creating Layer inception_5a/pool_proj
I1028 13:18:29.709372 28115 net.cpp:454] inception_5a/pool_proj <- inception_5a/pool
I1028 13:18:29.709383 28115 net.cpp:411] inception_5a/pool_proj -> inception_5a/pool_proj
I1028 13:18:29.712229 28115 cudnn_conv_layer.cpp:194] Reallocating workspace storage: 7428
I1028 13:18:29.712275 28115 net.cpp:150] Setting up inception_5a/pool_proj
I1028 13:18:29.712292 28115 net.cpp:157] Top shape: 50 128 7 7 (313600)
I1028 13:18:29.712296 28115 net.cpp:165] Memory required for data: 2718839016
I1028 13:18:29.712304 28115 layer_factory.hpp:76] Creating layer inception_5a/prelu_pool_proj
I1028 13:18:29.712318 28115 net.cpp:106] Creating Layer inception_5a/prelu_pool_proj
I1028 13:18:29.712334 28115 net.cpp:454] inception_5a/prelu_pool_proj <- inception_5a/pool_proj
I1028 13:18:29.712342 28115 net.cpp:397] inception_5a/prelu_pool_proj -> inception_5a/pool_proj (in-place)
I1028 13:18:29.712429 28115 net.cpp:150] Setting up inception_5a/prelu_pool_proj
I1028 13:18:29.712437 28115 net.cpp:157] Top shape: 50 128 7 7 (313600)
I1028 13:18:29.712441 28115 net.cpp:165] Memory required for data: 2720093416
I1028 13:18:29.712447 28115 layer_factory.hpp:76] Creating layer inception_5a/output
I1028 13:18:29.712455 28115 net.cpp:106] Creating Layer inception_5a/output
I1028 13:18:29.712458 28115 net.cpp:454] inception_5a/output <- inception_5a/1x1
I1028 13:18:29.712463 28115 net.cpp:454] inception_5a/output <- inception_5a/3x3
I1028 13:18:29.712468 28115 net.cpp:454] inception_5a/output <- inception_5a/5x5
I1028 13:18:29.712481 28115 net.cpp:454] inception_5a/output <- inception_5a/pool_proj
I1028 13:18:29.712488 28115 net.cpp:411] inception_5a/output -> inception_5a/output
I1028 13:18:29.712512 28115 net.cpp:150] Setting up inception_5a/output
I1028 13:18:29.712532 28115 net.cpp:157] Top shape: 50 832 7 7 (2038400)
I1028 13:18:29.712535 28115 net.cpp:165] Memory required for data: 2728247016
I1028 13:18:29.712539 28115 layer_factory.hpp:76] Creating layer inception_5a/output_inception_5a/output_0_split
I1028 13:18:29.712548 28115 net.cpp:106] Creating Layer inception_5a/output_inception_5a/output_0_split
I1028 13:18:29.712553 28115 net.cpp:454] inception_5a/output_inception_5a/output_0_split <- inception_5a/output
I1028 13:18:29.712558 28115 net.cpp:411] inception_5a/output_inception_5a/output_0_split -> inception_5a/output_inception_5a/output_0_split_0
I1028 13:18:29.712595 28115 net.cpp:411] inception_5a/output_inception_5a/output_0_split -> inception_5a/output_inception_5a/output_0_split_1
I1028 13:18:29.712611 28115 net.cpp:411] inception_5a/output_inception_5a/output_0_split -> inception_5a/output_inception_5a/output_0_split_2
I1028 13:18:29.712620 28115 net.cpp:411] inception_5a/output_inception_5a/output_0_split -> inception_5a/output_inception_5a/output_0_split_3
I1028 13:18:29.712697 28115 net.cpp:150] Setting up inception_5a/output_inception_5a/output_0_split
I1028 13:18:29.712705 28115 net.cpp:157] Top shape: 50 832 7 7 (2038400)
I1028 13:18:29.712718 28115 net.cpp:157] Top shape: 50 832 7 7 (2038400)
I1028 13:18:29.712723 28115 net.cpp:157] Top shape: 50 832 7 7 (2038400)
I1028 13:18:29.712728 28115 net.cpp:157] Top shape: 50 832 7 7 (2038400)
I1028 13:18:29.712731 28115 net.cpp:165] Memory required for data: 2760861416
I1028 13:18:29.712736 28115 layer_factory.hpp:76] Creating layer inception_5b/1x1
I1028 13:18:29.712744 28115 net.cpp:106] Creating Layer inception_5b/1x1
I1028 13:18:29.712749 28115 net.cpp:454] inception_5b/1x1 <- inception_5a/output_inception_5a/output_0_split_0
I1028 13:18:29.712757 28115 net.cpp:411] inception_5b/1x1 -> inception_5b/1x1
I1028 13:18:29.716609 28115 cudnn_conv_layer.cpp:194] Reallocating workspace storage: 7428
I1028 13:18:29.716666 28115 net.cpp:150] Setting up inception_5b/1x1
I1028 13:18:29.716676 28115 net.cpp:157] Top shape: 50 384 7 7 (940800)
I1028 13:18:29.716688 28115 net.cpp:165] Memory required for data: 2764624616
I1028 13:18:29.716696 28115 layer_factory.hpp:76] Creating layer inception_5b/prelu_1x1
I1028 13:18:29.716706 28115 net.cpp:106] Creating Layer inception_5b/prelu_1x1
I1028 13:18:29.716712 28115 net.cpp:454] inception_5b/prelu_1x1 <- inception_5b/1x1
I1028 13:18:29.716722 28115 net.cpp:397] inception_5b/prelu_1x1 -> inception_5b/1x1 (in-place)
I1028 13:18:29.716835 28115 net.cpp:150] Setting up inception_5b/prelu_1x1
I1028 13:18:29.716843 28115 net.cpp:157] Top shape: 50 384 7 7 (940800)
I1028 13:18:29.716847 28115 net.cpp:165] Memory required for data: 2768387816
I1028 13:18:29.716861 28115 layer_factory.hpp:76] Creating layer inception_5b/3x3_reduce
I1028 13:18:29.716871 28115 net.cpp:106] Creating Layer inception_5b/3x3_reduce
I1028 13:18:29.716883 28115 net.cpp:454] inception_5b/3x3_reduce <- inception_5a/output_inception_5a/output_0_split_1
I1028 13:18:29.716892 28115 net.cpp:411] inception_5b/3x3_reduce -> inception_5b/3x3_reduce
I1028 13:18:29.719501 28115 cudnn_conv_layer.cpp:194] Reallocating workspace storage: 7428
I1028 13:18:29.719535 28115 net.cpp:150] Setting up inception_5b/3x3_reduce
I1028 13:18:29.719547 28115 net.cpp:157] Top shape: 50 192 7 7 (470400)
I1028 13:18:29.719552 28115 net.cpp:165] Memory required for data: 2770269416
I1028 13:18:29.719558 28115 layer_factory.hpp:76] Creating layer inception_5b/prelu_3x3_reduce
I1028 13:18:29.719568 28115 net.cpp:106] Creating Layer inception_5b/prelu_3x3_reduce
I1028 13:18:29.719573 28115 net.cpp:454] inception_5b/prelu_3x3_reduce <- inception_5b/3x3_reduce
I1028 13:18:29.719579 28115 net.cpp:397] inception_5b/prelu_3x3_reduce -> inception_5b/3x3_reduce (in-place)
I1028 13:18:29.719686 28115 net.cpp:150] Setting up inception_5b/prelu_3x3_reduce
I1028 13:18:29.719696 28115 net.cpp:157] Top shape: 50 192 7 7 (470400)
I1028 13:18:29.719701 28115 net.cpp:165] Memory required for data: 2772151016
I1028 13:18:29.719707 28115 layer_factory.hpp:76] Creating layer inception_5b/3x3
I1028 13:18:29.719713 28115 net.cpp:106] Creating Layer inception_5b/3x3
I1028 13:18:29.719718 28115 net.cpp:454] inception_5b/3x3 <- inception_5b/3x3_reduce
I1028 13:18:29.719725 28115 net.cpp:411] inception_5b/3x3 -> inception_5b/3x3
I1028 13:18:29.725370 28115 cudnn_conv_layer.cpp:194] Reallocating workspace storage: 7788
I1028 13:18:29.725419 28115 net.cpp:150] Setting up inception_5b/3x3
I1028 13:18:29.725440 28115 net.cpp:157] Top shape: 50 384 7 7 (940800)
I1028 13:18:29.725451 28115 net.cpp:165] Memory required for data: 2775914216
I1028 13:18:29.725489 28115 layer_factory.hpp:76] Creating layer inception_5b/prelu_3x3
I1028 13:18:29.725499 28115 net.cpp:106] Creating Layer inception_5b/prelu_3x3
I1028 13:18:29.725508 28115 net.cpp:454] inception_5b/prelu_3x3 <- inception_5b/3x3
I1028 13:18:29.725517 28115 net.cpp:397] inception_5b/prelu_3x3 -> inception_5b/3x3 (in-place)
I1028 13:18:29.725646 28115 net.cpp:150] Setting up inception_5b/prelu_3x3
I1028 13:18:29.725654 28115 net.cpp:157] Top shape: 50 384 7 7 (940800)
I1028 13:18:29.725657 28115 net.cpp:165] Memory required for data: 2779677416
I1028 13:18:29.725663 28115 layer_factory.hpp:76] Creating layer inception_5b/5x5_reduce
I1028 13:18:29.725672 28115 net.cpp:106] Creating Layer inception_5b/5x5_reduce
I1028 13:18:29.725677 28115 net.cpp:454] inception_5b/5x5_reduce <- inception_5a/output_inception_5a/output_0_split_2
I1028 13:18:29.725693 28115 net.cpp:411] inception_5b/5x5_reduce -> inception_5b/5x5_reduce
I1028 13:18:29.727270 28115 cudnn_conv_layer.cpp:194] Reallocating workspace storage: 7428
I1028 13:18:29.727314 28115 net.cpp:150] Setting up inception_5b/5x5_reduce
I1028 13:18:29.727331 28115 net.cpp:157] Top shape: 50 48 7 7 (117600)
I1028 13:18:29.727344 28115 net.cpp:165] Memory required for data: 2780147816
I1028 13:18:29.727351 28115 layer_factory.hpp:76] Creating layer inception_5b/prelu_5x5_reduce
I1028 13:18:29.727360 28115 net.cpp:106] Creating Layer inception_5b/prelu_5x5_reduce
I1028 13:18:29.727365 28115 net.cpp:454] inception_5b/prelu_5x5_reduce <- inception_5b/5x5_reduce
I1028 13:18:29.727371 28115 net.cpp:397] inception_5b/prelu_5x5_reduce -> inception_5b/5x5_reduce (in-place)
I1028 13:18:29.727490 28115 net.cpp:150] Setting up inception_5b/prelu_5x5_reduce
I1028 13:18:29.727499 28115 net.cpp:157] Top shape: 50 48 7 7 (117600)
I1028 13:18:29.727504 28115 net.cpp:165] Memory required for data: 2780618216
I1028 13:18:29.727509 28115 layer_factory.hpp:76] Creating layer inception_5b/5x5
I1028 13:18:29.727517 28115 net.cpp:106] Creating Layer inception_5b/5x5
I1028 13:18:29.727522 28115 net.cpp:454] inception_5b/5x5 <- inception_5b/5x5_reduce
I1028 13:18:29.727538 28115 net.cpp:411] inception_5b/5x5 -> inception_5b/5x5
I1028 13:18:29.729642 28115 cudnn_conv_layer.cpp:194] Reallocating workspace storage: 9804
I1028 13:18:29.729702 28115 net.cpp:150] Setting up inception_5b/5x5
I1028 13:18:29.729737 28115 net.cpp:157] Top shape: 50 128 7 7 (313600)
I1028 13:18:29.729742 28115 net.cpp:165] Memory required for data: 2781872616
I1028 13:18:29.729750 28115 layer_factory.hpp:76] Creating layer inception_5b/prelu_5x5
I1028 13:18:29.729763 28115 net.cpp:106] Creating Layer inception_5b/prelu_5x5
I1028 13:18:29.729769 28115 net.cpp:454] inception_5b/prelu_5x5 <- inception_5b/5x5
I1028 13:18:29.729778 28115 net.cpp:397] inception_5b/prelu_5x5 -> inception_5b/5x5 (in-place)
I1028 13:18:29.729928 28115 net.cpp:150] Setting up inception_5b/prelu_5x5
I1028 13:18:29.729946 28115 net.cpp:157] Top shape: 50 128 7 7 (313600)
I1028 13:18:29.729953 28115 net.cpp:165] Memory required for data: 2783127016
I1028 13:18:29.729962 28115 layer_factory.hpp:76] Creating layer inception_5b/pool
I1028 13:18:29.729987 28115 net.cpp:106] Creating Layer inception_5b/pool
I1028 13:18:29.730001 28115 net.cpp:454] inception_5b/pool <- inception_5a/output_inception_5a/output_0_split_3
I1028 13:18:29.730010 28115 net.cpp:411] inception_5b/pool -> inception_5b/pool
I1028 13:18:29.730320 28115 net.cpp:150] Setting up inception_5b/pool
I1028 13:18:29.730331 28115 net.cpp:157] Top shape: 50 832 7 7 (2038400)
I1028 13:18:29.730346 28115 net.cpp:165] Memory required for data: 2791280616
I1028 13:18:29.730350 28115 layer_factory.hpp:76] Creating layer inception_5b/pool_proj
I1028 13:18:29.730373 28115 net.cpp:106] Creating Layer inception_5b/pool_proj
I1028 13:18:29.730379 28115 net.cpp:454] inception_5b/pool_proj <- inception_5b/pool
I1028 13:18:29.730386 28115 net.cpp:411] inception_5b/pool_proj -> inception_5b/pool_proj
I1028 13:18:29.733439 28115 cudnn_conv_layer.cpp:194] Reallocating workspace storage: 7428
I1028 13:18:29.733513 28115 net.cpp:150] Setting up inception_5b/pool_proj
I1028 13:18:29.733525 28115 net.cpp:157] Top shape: 50 128 7 7 (313600)
I1028 13:18:29.733530 28115 net.cpp:165] Memory required for data: 2792535016
I1028 13:18:29.733539 28115 layer_factory.hpp:76] Creating layer inception_5b/prelu_pool_proj
I1028 13:18:29.733551 28115 net.cpp:106] Creating Layer inception_5b/prelu_pool_proj
I1028 13:18:29.733556 28115 net.cpp:454] inception_5b/prelu_pool_proj <- inception_5b/pool_proj
I1028 13:18:29.733566 28115 net.cpp:397] inception_5b/prelu_pool_proj -> inception_5b/pool_proj (in-place)
I1028 13:18:29.733661 28115 net.cpp:150] Setting up inception_5b/prelu_pool_proj
I1028 13:18:29.733672 28115 net.cpp:157] Top shape: 50 128 7 7 (313600)
I1028 13:18:29.733676 28115 net.cpp:165] Memory required for data: 2793789416
I1028 13:18:29.733681 28115 layer_factory.hpp:76] Creating layer inception_5b/output
I1028 13:18:29.733688 28115 net.cpp:106] Creating Layer inception_5b/output
I1028 13:18:29.733693 28115 net.cpp:454] inception_5b/output <- inception_5b/1x1
I1028 13:18:29.733700 28115 net.cpp:454] inception_5b/output <- inception_5b/3x3
I1028 13:18:29.733705 28115 net.cpp:454] inception_5b/output <- inception_5b/5x5
I1028 13:18:29.733708 28115 net.cpp:454] inception_5b/output <- inception_5b/pool_proj
I1028 13:18:29.733714 28115 net.cpp:411] inception_5b/output -> inception_5b/output
I1028 13:18:29.733741 28115 net.cpp:150] Setting up inception_5b/output
I1028 13:18:29.733749 28115 net.cpp:157] Top shape: 50 1024 7 7 (2508800)
I1028 13:18:29.733753 28115 net.cpp:165] Memory required for data: 2803824616
I1028 13:18:29.733757 28115 layer_factory.hpp:76] Creating layer pool5/7x7_s1
I1028 13:18:29.733765 28115 net.cpp:106] Creating Layer pool5/7x7_s1
I1028 13:18:29.733770 28115 net.cpp:454] pool5/7x7_s1 <- inception_5b/output
I1028 13:18:29.733777 28115 net.cpp:411] pool5/7x7_s1 -> pool5/7x7_s1
I1028 13:18:29.734199 28115 net.cpp:150] Setting up pool5/7x7_s1
I1028 13:18:29.734210 28115 net.cpp:157] Top shape: 50 1024 1 1 (51200)
I1028 13:18:29.734215 28115 net.cpp:165] Memory required for data: 2804029416
I1028 13:18:29.734220 28115 layer_factory.hpp:76] Creating layer pool5/drop_7x7_s1
I1028 13:18:29.734228 28115 net.cpp:106] Creating Layer pool5/drop_7x7_s1
I1028 13:18:29.734233 28115 net.cpp:454] pool5/drop_7x7_s1 <- pool5/7x7_s1
I1028 13:18:29.734239 28115 net.cpp:397] pool5/drop_7x7_s1 -> pool5/7x7_s1 (in-place)
I1028 13:18:29.734277 28115 net.cpp:150] Setting up pool5/drop_7x7_s1
I1028 13:18:29.734295 28115 net.cpp:157] Top shape: 50 1024 1 1 (51200)
I1028 13:18:29.734309 28115 net.cpp:165] Memory required for data: 2804234216
I1028 13:18:29.734324 28115 layer_factory.hpp:76] Creating layer loss3/classifier2
I1028 13:18:29.734333 28115 net.cpp:106] Creating Layer loss3/classifier2
I1028 13:18:29.734347 28115 net.cpp:454] loss3/classifier2 <- pool5/7x7_s1
I1028 13:18:29.734366 28115 net.cpp:411] loss3/classifier2 -> loss3/classifier
I1028 13:18:29.734519 28115 net.cpp:150] Setting up loss3/classifier2
I1028 13:18:29.734529 28115 net.cpp:157] Top shape: 50 2 (100)
I1028 13:18:29.734532 28115 net.cpp:165] Memory required for data: 2804234616
I1028 13:18:29.734539 28115 layer_factory.hpp:76] Creating layer loss3/classifier_loss3/classifier2_0_split
I1028 13:18:29.734545 28115 net.cpp:106] Creating Layer loss3/classifier_loss3/classifier2_0_split
I1028 13:18:29.734550 28115 net.cpp:454] loss3/classifier_loss3/classifier2_0_split <- loss3/classifier
I1028 13:18:29.734557 28115 net.cpp:411] loss3/classifier_loss3/classifier2_0_split -> loss3/classifier_loss3/classifier2_0_split_0
I1028 13:18:29.734565 28115 net.cpp:411] loss3/classifier_loss3/classifier2_0_split -> loss3/classifier_loss3/classifier2_0_split_1
I1028 13:18:29.734603 28115 net.cpp:150] Setting up loss3/classifier_loss3/classifier2_0_split
I1028 13:18:29.734612 28115 net.cpp:157] Top shape: 50 2 (100)
I1028 13:18:29.734617 28115 net.cpp:157] Top shape: 50 2 (100)
I1028 13:18:29.734622 28115 net.cpp:165] Memory required for data: 2804235416
I1028 13:18:29.734625 28115 layer_factory.hpp:76] Creating layer loss3/loss3
I1028 13:18:29.734645 28115 net.cpp:106] Creating Layer loss3/loss3
I1028 13:18:29.734650 28115 net.cpp:454] loss3/loss3 <- loss3/classifier_loss3/classifier2_0_split_0
I1028 13:18:29.734657 28115 net.cpp:454] loss3/loss3 <- label_data_1_split_4
…
