…
I1028 13:33:50.890311 28202 net.cpp:322] The NetState phase (0) differed from the phase (1) specified by a rule in layer loss3/top-1
I1028 13:33:50.891227 28202 net.cpp:49] Initializing net from parameters: 
name: "GoogleNet"
state {
  phase: TRAIN
}
layer {
  name: "data"
  type: "Data"
  top: "data"
  top: "label"
  include {
    phase: TRAIN
  }
  transform_param {
    mirror: true
    crop_size: 224
    mean_value: 104
    mean_value: 117
    mean_value: 123
  }
  data_param {
    source: "../../LMDB/train_6-lmdb"
    batch_size: 32
    backend: LMDB
  }
}
layer {
  name: "conv1/7x7_s2"
  type: "Convolution"
  bottom: "data"
  top: "conv1/7x7_s2"
  param {
    lr_mult: 1
    decay_mult: 1
  }
  param {
    lr_mult: 2
    decay_mult: 0
  }
  convolution_param {
    num_output: 64
    pad: 3
    kernel_size: 7
    stride: 2
    weight_filler {
      type: "xavier"
    }
    bias_filler {
      type: "constant"
      value: 0.2
    }
  }
}
layer {
  name: "conv1/prelu_7x7"
  type: "PReLU"
  bottom: "conv1/7x7_s2"
  top: "conv1/7x7_s2"
  param {
    lr_mult: 1
    decay_mult: 0
  }
  prelu_param {
    filler {
      type: "constant"
      value: 0.01
    }
  }
}
layer {
  name: "pool1/3x3_s2"
  type: "Pooling"
  bottom: "conv1/7x7_s2"
  top: "pool1/3x3_s2"
  pooling_param {
    pool: MAX
    kernel_size: 3
    stride: 2
  }
}
layer {
  name: "pool1/norm1"
  type: "LRN"
  bottom: "pool1/3x3_s2"
  top: "pool1/norm1"
  lrn_param {
    local_size: 5
    alpha: 0.0001
    beta: 0.75
  }
}
layer {
  name: "conv2/3x3_reduce"
  type: "Convolution"
  bottom: "pool1/norm1"
  top: "conv2/3x3_reduce"
  param {
    lr_mult: 1
    decay_mult: 1
  }
  param {
    lr_mult: 2
    decay_mult: 0
  }
  convolution_param {
    num_output: 64
    kernel_size: 1
    weight_filler {
      type: "xavier"
    }
    bias_filler {
      type: "constant"
      value: 0.2
    }
  }
}
layer {
  name: "conv2/prelu_3x3_reduce"
  type: "PReLU"
  bottom: "conv2/3x3_reduce"
  top: "conv2/3x3_reduce"
  param {
    lr_mult: 1
    decay_mult: 0
  }
  prelu_param {
    filler {
      type: "constant"
      value: 0.01
    }
  }
}
layer {
  name: "conv2/3x3"
  type: "Convolution"
  bottom: "conv2/3x3_reduce"
  top: "conv2/3x3"
  param {
    lr_mult: 1
    decay_mult: 1
  }
  param {
    lr_mult: 2
    decay_mult: 0
  }
  convolution_param {
    num_output: 192
    pad: 1
    kernel_size: 3
    weight_filler {
      type: "xavier"
    }
    bias_filler {
      type: "constant"
      value: 0.2
    }
  }
}
layer {
  name: "conv2/prelu_3x3"
  type: "PReLU"
  bottom: "conv2/3x3"
  top: "conv2/3x3"
  param {
    lr_mult: 1
    decay_mult: 0
  }
  prelu_param {
    filler {
      type: "constant"
      value: 0.01
    }
  }
}
layer {
  name: "conv2/norm2"
  type: "LRN"
  bottom: "conv2/3x3"
  top: "conv2/norm2"
  lrn_param {
    local_size: 5
    alpha: 0.0001
    beta: 0.75
  }
}
layer {
  name: "pool2/3x3_s2"
  type: "Pooling"
  bottom: "conv2/norm2"
  top: "pool2/3x3_s2"
  pooling_param {
    pool: MAX
    kernel_size: 3
    stride: 2
  }
}
layer {
  name: "inception_3a/1x1"
  type: "Convolution"
  bottom: "pool2/3x3_s2"
  top: "inception_3a/1x1"
  param {
    lr_mult: 1
    decay_mult: 1
  }
  param {
    lr_mult: 2
    decay_mult: 0
  }
  convolution_param {
    num_output: 64
    kernel_size: 1
    weight_filler {
      type: "xavier"
    }
    bias_filler {
      type: "constant"
      value: 0.2
    }
  }
}
layer {
  name: "inception_3a/prelu_1x1"
  type: "PReLU"
  bottom: "inception_3a/1x1"
  top: "inception_3a/1x1"
  param {
    lr_mult: 1
    decay_mult: 0
  }
  prelu_param {
    filler {
      type: "constant"
      value: 0.01
    }
  }
}
layer {
  name: "inception_3a/3x3_reduce"
  type: "Convolution"
  bottom: "pool2/3x3_s2"
  top: "inception_3a/3x3_reduce"
  param {
    lr_mult: 1
    decay_mult: 1
  }
  param {
    lr_mult: 2
    decay_mult: 0
  }
  convolution_param {
    num_output: 96
    kernel_size: 1
    weight_filler {
      type: "xavier"
    }
    bias_filler {
      type: "constant"
      value: 0.2
    }
  }
}
layer {
  name: "inception_3a/prelu_3x3_reduce"
  type: "PReLU"
  bottom: "inception_3a/3x3_reduce"
  top: "inception_3a/3x3_reduce"
  param {
    lr_mult: 1
    decay_mult: 0
  }
  prelu_param {
    filler {
      type: "constant"
      value: 0.01
    }
  }
}
layer {
  name: "inception_3a/3x3"
  type: "Convolution"
  bottom: "inception_3a/3x3_reduce"
  top: "inception_3a/3x3"
  param {
    lr_mult: 1
    decay_mult: 1
  }
  param {
    lr_mult: 2
    decay_mult: 0
  }
  convolution_param {
    num_output: 128
    pad: 1
    kernel_size: 3
    weight_filler {
      type: "xavier"
    }
    bias_filler {
      type: "constant"
      value: 0.2
    }
  }
}
layer {
  name: "inception_3a/prelu_3x3"
  type: "PReLU"
  bottom: "inception_3a/3x3"
  top: "inception_3a/3x3"
  param {
    lr_mult: 1
    decay_mult: 0
  }
  prelu_param {
    filler {
      type: "constant"
      value: 0.01
    }
  }
}
layer {
  name: "inception_3a/5x5_reduce"
  type: "Convolution"
  bottom: "pool2/3x3_s2"
  top: "inception_3a/5x5_reduce"
  param {
    lr_mult: 1
    decay_mult: 1
  }
  param {
    lr_mult: 2
    decay_mult: 0
  }
  convolution_param {
    num_output: 16
    kernel_size: 1
    weight_filler {
      type: "xavier"
    }
    bias_filler {
      type: "constant"
      value: 0.2
    }
  }
}
layer {
  name: "inception_3a/prelu_5x5_reduce"
  type: "PReLU"
  bottom: "inception_3a/5x5_reduce"
  top: "inception_3a/5x5_reduce"
  param {
    lr_mult: 1
    decay_mult: 0
  }
  prelu_param {
    filler {
      type: "constant"
      value: 0.01
    }
  }
}
layer {
  name: "inception_3a/5x5"
  type: "Convolution"
  bottom: "inception_3a/5x5_reduce"
  top: "inception_3a/5x5"
  param {
    lr_mult: 1
    decay_mult: 1
  }
  param {
    lr_mult: 2
    decay_mult: 0
  }
  convolution_param {
    num_output: 32
    pad: 2
    kernel_size: 5
    weight_filler {
      type: "xavier"
    }
    bias_filler {
      type: "constant"
      value: 0.2
    }
  }
}
layer {
  name: "inception_3a/prelu_5x5"
  type: "PReLU"
  bottom: "inception_3a/5x5"
  top: "inception_3a/5x5"
  param {
    lr_mult: 1
    decay_mult: 0
  }
  prelu_param {
    filler {
      type: "constant"
      value: 0.01
    }
  }
}
layer {
  name: "inception_3a/pool"
  type: "Pooling"
  bottom: "pool2/3x3_s2"
  top: "inception_3a/pool"
  pooling_param {
    pool: MAX
    kernel_size: 3
    stride: 1
    pad: 1
  }
}
layer {
  name: "inception_3a/pool_proj"
  type: "Convolution"
  bottom: "inception_3a/pool"
  top: "inception_3a/pool_proj"
  param {
    lr_mult: 1
    decay_mult: 1
  }
  param {
    lr_mult: 2
    decay_mult: 0
  }
  convolution_param {
    num_output: 32
    kernel_size: 1
    weight_filler {
      type: "xavier"
    }
    bias_filler {
      type: "constant"
      value: 0.2
    }
  }
}
layer {
  name: "inception_3a/prelu_pool_proj"
  type: "PReLU"
  bottom: "inception_3a/pool_proj"
  top: "inception_3a/pool_proj"
  param {
    lr_mult: 1
    decay_mult: 0
  }
  prelu_param {
    filler {
      type: "constant"
      value: 0.01
    }
  }
}
layer {
  name: "inception_3a/output"
  type: "Concat"
  bottom: "inception_3a/1x1"
  bottom: "inception_3a/3x3"
  bottom: "inception_3a/5x5"
  bottom: "inception_3a/pool_proj"
  top: "inception_3a/output"
}
layer {
  name: "inception_3b/1x1"
  type: "Convolution"
  bottom: "inception_3a/output"
  top: "inception_3b/1x1"
  param {
    lr_mult: 1
    decay_mult: 1
  }
  param {
    lr_mult: 2
    decay_mult: 0
  }
  convolution_param {
    num_output: 128
    kernel_size: 1
    weight_filler {
      type: "xavier"
    }
    bias_filler {
      type: "constant"
      value: 0.2
    }
  }
}
layer {
  name: "inception_3b/prelu_1x1"
  type: "PReLU"
  bottom: "inception_3b/1x1"
  top: "inception_3b/1x1"
  param {
    lr_mult: 1
    decay_mult: 0
  }
  prelu_param {
    filler {
      type: "constant"
      value: 0.01
    }
  }
}
layer {
  name: "inception_3b/3x3_reduce"
  type: "Convolution"
  bottom: "inception_3a/output"
  top: "inception_3b/3x3_reduce"
  param {
    lr_mult: 1
    decay_mult: 1
  }
  param {
    lr_mult: 2
    decay_mult: 0
  }
  convolution_param {
    num_output: 128
    kernel_size: 1
    weight_filler {
      type: "xavier"
    }
    bias_filler {
      type: "constant"
      value: 0.2
    }
  }
}
layer {
  name: "inception_3b/prelu_3x3_reduce"
  type: "PReLU"
  bottom: "inception_3b/3x3_reduce"
  top: "inception_3b/3x3_reduce"
  param {
    lr_mult: 1
    decay_mult: 0
  }
  prelu_param {
    filler {
      type: "constant"
      value: 0.01
    }
  }
}
layer {
  name: "inception_3b/3x3"
  type: "Convolution"
  bottom: "inception_3b/3x3_reduce"
  top: "inception_3b/3x3"
  param {
    lr_mult: 1
    decay_mult: 1
  }
  param {
    lr_mult: 2
    decay_mult: 0
  }
  convolution_param {
    num_output: 192
    pad: 1
    kernel_size: 3
    weight_filler {
      type: "xavier"
    }
    bias_filler {
      type: "constant"
      value: 0.2
    }
  }
}
layer {
  name: "inception_3b/prelu_3x3"
  type: "PReLU"
  bottom: "inception_3b/3x3"
  top: "inception_3b/3x3"
  param {
    lr_mult: 1
    decay_mult: 0
  }
  prelu_param {
    filler {
      type: "constant"
      value: 0.01
    }
  }
}
layer {
  name: "inception_3b/5x5_reduce"
  type: "Convolution"
  bottom: "inception_3a/output"
  top: "inception_3b/5x5_reduce"
  param {
    lr_mult: 1
    decay_mult: 1
  }
  param {
    lr_mult: 2
    decay_mult: 0
  }
  convolution_param {
    num_output: 32
    kernel_size: 1
    weight_filler {
      type: "xavier"
    }
    bias_filler {
      type: "constant"
      value: 0.2
    }
  }
}
layer {
  name: "inception_3b/prelu_5x5_reduce"
  type: "PReLU"
  bottom: "inception_3b/5x5_reduce"
  top: "inception_3b/5x5_reduce"
  param {
    lr_mult: 1
    decay_mult: 0
  }
  prelu_param {
    filler {
      type: "constant"
      value: 0.01
    }
  }
}
layer {
  name: "inception_3b/5x5"
  type: "Convolution"
  bottom: "inception_3b/5x5_reduce"
  top: "inception_3b/5x5"
  param {
    lr_mult: 1
    decay_mult: 1
  }
  param {
    lr_mult: 2
    decay_mult: 0
  }
  convolution_param {
    num_output: 96
    pad: 2
    kernel_size: 5
    weight_filler {
      type: "xavier"
    }
    bias_filler {
      type: "constant"
      value: 0.2
    }
  }
}
layer {
  name: "inception_3b/prelu_5x5"
  type: "PReLU"
  bottom: "inception_3b/5x5"
  top: "inception_3b/5x5"
  param {
    lr_mult: 1
    decay_mult: 0
  }
  prelu_param {
    filler {
      type: "constant"
      value: 0.01
    }
  }
}
layer {
  name: "inception_3b/pool"
  type: "Pooling"
  bottom: "inception_3a/output"
  top: "inception_3b/pool"
  pooling_param {
    pool: MAX
    kernel_size: 3
    stride: 1
    pad: 1
  }
}
layer {
  name: "inception_3b/pool_proj"
  type: "Convolution"
  bottom: "inception_3b/pool"
  top: "inception_3b/pool_proj"
  param {
    lr_mult: 1
    decay_mult: 1
  }
  param {
    lr_mult: 2
    decay_mult: 0
  }
  convolution_param {
    num_output: 64
    kernel_size: 1
    weight_filler {
      type: "xavier"
    }
    bias_filler {
      type: "constant"
      value: 0.2
    }
  }
}
layer {
  name: "inception_3b/prelu_pool_proj"
  type: "PReLU"
  bottom: "inception_3b/pool_proj"
  top: "inception_3b/pool_proj"
  param {
    lr_mult: 1
    decay_mult: 0
  }
  prelu_param {
    filler {
      type: "constant"
      value: 0.01
    }
  }
}
layer {
  name: "inception_3b/output"
  type: "Concat"
  bottom: "inception_3b/1x1"
  bottom: "inception_3b/3x3"
  bottom: "inception_3b/5x5"
  bottom: "inception_3b/pool_proj"
  top: "inception_3b/output"
}
layer {
  name: "pool3/3x3_s2"
  type: "Pooling"
  bottom: "inception_3b/output"
  top: "pool3/3x3_s2"
  pooling_param {
    pool: MAX
    kernel_size: 3
    stride: 2
  }
}
layer {
  name: "inception_4a/1x1"
  type: "Convolution"
  bottom: "pool3/3x3_s2"
  top: "inception_4a/1x1"
  param {
    lr_mult: 1
    decay_mult: 1
  }
  param {
    lr_mult: 2
    decay_mult: 0
  }
  convolution_param {
    num_output: 192
    kernel_size: 1
    weight_filler {
      type: "xavier"
    }
    bias_filler {
      type: "constant"
      value: 0.2
    }
  }
}
layer {
  name: "inception_4a/prelu_1x1"
  type: "PReLU"
  bottom: "inception_4a/1x1"
  top: "inception_4a/1x1"
  param {
    lr_mult: 1
    decay_mult: 0
  }
  prelu_param {
    filler {
      type: "constant"
      value: 0.01
    }
  }
}
layer {
  name: "inception_4a/3x3_reduce"
  type: "Convolution"
  bottom: "pool3/3x3_s2"
  top: "inception_4a/3x3_reduce"
  param {
    lr_mult: 1
    decay_mult: 1
  }
  param {
    lr_mult: 2
    decay_mult: 0
  }
  convolution_param {
    num_output: 96
    kernel_size: 1
    weight_filler {
      type: "xavier"
    }
    bias_filler {
      type: "constant"
      value: 0.2
    }
  }
}
layer {
  name: "inception_4a/prelu_3x3_reduce"
  type: "PReLU"
  bottom: "inception_4a/3x3_reduce"
  top: "inception_4a/3x3_reduce"
  param {
    lr_mult: 1
    decay_mult: 0
  }
  prelu_param {
    filler {
      type: "constant"
      value: 0.01
    }
  }
}
layer {
  name: "inception_4a/3x3"
  type: "Convolution"
  bottom: "inception_4a/3x3_reduce"
  top: "inception_4a/3x3"
  param {
    lr_mult: 1
    decay_mult: 1
  }
  param {
    lr_mult: 2
    decay_mult: 0
  }
  convolution_param {
    num_output: 208
    pad: 1
    kernel_size: 3
    weight_filler {
      type: "xavier"
    }
    bias_filler {
      type: "constant"
      value: 0.2
    }
  }
}
layer {
  name: "inception_4a/prelu_3x3"
  type: "PReLU"
  bottom: "inception_4a/3x3"
  top: "inception_4a/3x3"
  param {
    lr_mult: 1
    decay_mult: 0
  }
  prelu_param {
    filler {
      type: "constant"
      value: 0.01
    }
  }
}
layer {
  name: "inception_4a/5x5_reduce"
  type: "Convolution"
  bottom: "pool3/3x3_s2"
  top: "inception_4a/5x5_reduce"
  param {
    lr_mult: 1
    decay_mult: 1
  }
  param {
    lr_mult: 2
    decay_mult: 0
  }
  convolution_param {
    num_output: 16
    kernel_size: 1
    weight_filler {
      type: "xavier"
    }
    bias_filler {
      type: "constant"
      value: 0.2
    }
  }
}
layer {
  name: "inception_4a/prelu_5x5_reduce"
  type: "PReLU"
  bottom: "inception_4a/5x5_reduce"
  top: "inception_4a/5x5_reduce"
  param {
    lr_mult: 1
    decay_mult: 0
  }
  prelu_param {
    filler {
      type: "constant"
      value: 0.01
    }
  }
}
layer {
  name: "inception_4a/5x5"
  type: "Convolution"
  bottom: "inception_4a/5x5_reduce"
  top: "inception_4a/5x5"
  param {
    lr_mult: 1
    decay_mult: 1
  }
  param {
    lr_mult: 2
    decay_mult: 0
  }
  convolution_param {
    num_output: 48
    pad: 2
    kernel_size: 5
    weight_filler {
      type: "xavier"
    }
    bias_filler {
      type: "constant"
      value: 0.2
    }
  }
}
layer {
  name: "inception_4a/prelu_5x5"
  type: "PReLU"
  bottom: "inception_4a/5x5"
  top: "inception_4a/5x5"
  param {
    lr_mult: 1
    decay_mult: 0
  }
  prelu_param {
    filler {
      type: "constant"
      value: 0.01
    }
  }
}
layer {
  name: "inception_4a/pool"
  type: "Pooling"
  bottom: "pool3/3x3_s2"
  top: "inception_4a/pool"
  pooling_param {
    pool: MAX
    kernel_size: 3
    stride: 1
    pad: 1
  }
}
layer {
  name: "inception_4a/pool_proj"
  type: "Convolution"
  bottom: "inception_4a/pool"
  top: "inception_4a/pool_proj"
  param {
    lr_mult: 1
    decay_mult: 1
  }
  param {
    lr_mult: 2
    decay_mult: 0
  }
  convolution_param {
    num_output: 64
    kernel_size: 1
    weight_filler {
      type: "xavier"
    }
    bias_filler {
      type: "constant"
      value: 0.2
    }
  }
}
layer {
  name: "inception_4a/prelu_pool_proj"
  type: "PReLU"
  bottom: "inception_4a/pool_proj"
  top: "inception_4a/pool_proj"
  param {
    lr_mult: 1
    decay_mult: 0
  }
  prelu_param {
    filler {
      type: "constant"
      value: 0.01
    }
  }
}
layer {
  name: "inception_4a/output"
  type: "Concat"
  bottom: "inception_4a/1x1"
  bottom: "inception_4a/3x3"
  bottom: "inception_4a/5x5"
  bottom: "inception_4a/pool_proj"
  top: "inception_4a/output"
}
layer {
  name: "loss1/ave_pool"
  type: "Pooling"
  bottom: "inception_4a/output"
  top: "loss1/ave_pool"
  pooling_param {
    pool: AVE
    kernel_size: 5
    stride: 3
  }
}
layer {
  name: "loss1/conv"
  type: "Convolution"
  bottom: "loss1/ave_pool"
  top: "loss1/conv"
  param {
    lr_mult: 1
    decay_mult: 1
  }
  param {
    lr_mult: 2
    decay_mult: 0
  }
  convolution_param {
    num_output: 128
    kernel_size: 1
    weight_filler {
      type: "xavier"
    }
    bias_filler {
      type: "constant"
      value: 0.2
    }
  }
}
layer {
  name: "loss1/prelu_conv"
  type: "PReLU"
  bottom: "loss1/conv"
  top: "loss1/conv"
  param {
    lr_mult: 1
    decay_mult: 0
  }
  prelu_param {
    filler {
      type: "constant"
      value: 0.01
    }
  }
}
layer {
  name: "loss1/fc"
  type: "InnerProduct"
  bottom: "loss1/conv"
  top: "loss1/fc"
  param {
    lr_mult: 1
    decay_mult: 1
  }
  param {
    lr_mult: 2
    decay_mult: 0
  }
  inner_product_param {
    num_output: 1024
    weight_filler {
      type: "xavier"
    }
    bias_filler {
      type: "constant"
      value: 0.2
    }
  }
}
layer {
  name: "loss1/prelu_fc"
  type: "PReLU"
  bottom: "loss1/fc"
  top: "loss1/fc"
  param {
    lr_mult: 1
    decay_mult: 0
  }
  prelu_param {
    filler {
      type: "constant"
      value: 0.01
    }
  }
}
layer {
  name: "loss1/drop_fc"
  type: "Dropout"
  bottom: "loss1/fc"
  top: "loss1/fc"
  dropout_param {
    dropout_ratio: 0.7
  }
}
layer {
  name: "loss1/classifier2"
  type: "InnerProduct"
  bottom: "loss1/fc"
  top: "loss1/classifier"
  param {
    lr_mult: 1
    decay_mult: 1
  }
  param {
    lr_mult: 2
    decay_mult: 0
  }
  inner_product_param {
    num_output: 2
    weight_filler {
      type: "xavier"
    }
    bias_filler {
      type: "constant"
      value: 0
    }
  }
}
layer {
  name: "loss1/loss"
  type: "SoftmaxWithLoss"
  bottom: "loss1/classifier"
  bottom: "label"
  top: "loss1/loss1"
  loss_weight: 0.3
}
layer {
  name: "inception_4b/1x1"
  type: "Convolution"
  bottom: "inception_4a/output"
  top: "inception_4b/1x1"
  param {
    lr_mult: 1
    decay_mult: 1
  }
  param {
    lr_mult: 2
    decay_mult: 0
  }
  convolution_param {
    num_output: 160
    kernel_size: 1
    weight_filler {
      type: "xavier"
    }
    bias_filler {
      type: "constant"
      value: 0.2
    }
  }
}
layer {
  name: "inception_4b/prelu_1x1"
  type: "PReLU"
  bottom: "inception_4b/1x1"
  top: "inception_4b/1x1"
  param {
    lr_mult: 1
    decay_mult: 0
  }
  prelu_param {
    filler {
      type: "constant"
      value: 0.01
    }
  }
}
layer {
  name: "inception_4b/3x3_reduce"
  type: "Convolution"
  bottom: "inception_4a/output"
  top: "inception_4b/3x3_reduce"
  param {
    lr_mult: 1
    decay_mult: 1
  }
  param {
    lr_mult: 2
    decay_mult: 0
  }
  convolution_param {
    num_output: 112
    kernel_size: 1
    weight_filler {
      type: "xavier"
    }
    bias_filler {
      type: "constant"
      value: 0.2
    }
  }
}
layer {
  name: "inception_4b/prelu_3x3_reduce"
  type: "PReLU"
  bottom: "inception_4b/3x3_reduce"
  top: "inception_4b/3x3_reduce"
  param {
    lr_mult: 1
    decay_mult: 0
  }
  prelu_param {
    filler {
      type: "constant"
      value: 0.01
    }
  }
}
layer {
  name: "inception_4b/3x3"
  type: "Convolution"
  bottom: "inception_4b/3x3_reduce"
  top: "inception_4b/3x3"
  param {
    lr_mult: 1
    decay_mult: 1
  }
  param {
    lr_mult: 2
    decay_mult: 0
  }
  convolution_param {
    num_output: 224
    pad: 1
    kernel_size: 3
    weight_filler {
      type: "xavier"
    }
    bias_filler {
      type: "constant"
      value: 0.2
    }
  }
}
layer {
  name: "inception_4b/prelu_3x3"
  type: "PReLU"
  bottom: "inception_4b/3x3"
  top: "inception_4b/3x3"
  param {
    lr_mult: 1
    decay_mult: 0
  }
  prelu_param {
    filler {
      type: "constant"
      value: 0.01
    }
  }
}
layer {
  name: "inception_4b/5x5_reduce"
  type: "Convolution"
  bottom: "inception_4a/output"
  top: "inception_4b/5x5_reduce"
  param {
    lr_mult: 1
    decay_mult: 1
  }
  param {
    lr_mult: 2
    decay_mult: 0
  }
  convolution_param {
    num_output: 24
    kernel_size: 1
    weight_filler {
      type: "xavier"
    }
    bias_filler {
      type: "constant"
      value: 0.2
    }
  }
}
layer {
  name: "inception_4b/prelu_5x5_reduce"
  type: "PReLU"
  bottom: "inception_4b/5x5_reduce"
  top: "inception_4b/5x5_reduce"
  param {
    lr_mult: 1
    decay_mult: 0
  }
  prelu_param {
    filler {
      type: "constant"
      value: 0.01
    }
  }
}
layer {
  name: "inception_4b/5x5"
  type: "Convolution"
  bottom: "inception_4b/5x5_reduce"
  top: "inception_4b/5x5"
  param {
    lr_mult: 1
    decay_mult: 1
  }
  param {
    lr_mult: 2
    decay_mult: 0
  }
  convolution_param {
    num_output: 64
    pad: 2
    kernel_size: 5
    weight_filler {
      type: "xavier"
    }
    bias_filler {
      type: "constant"
      value: 0.2
    }
  }
}
layer {
  name: "inception_4b/prelu_5x5"
  type: "PReLU"
  bottom: "inception_4b/5x5"
  top: "inception_4b/5x5"
  param {
    lr_mult: 1
    decay_mult: 0
  }
  prelu_param {
    filler {
      type: "constant"
      value: 0.01
    }
  }
}
layer {
  name: "inception_4b/pool"
  type: "Pooling"
  bottom: "inception_4a/output"
  top: "inception_4b/pool"
  pooling_param {
    pool: MAX
    kernel_size: 3
    stride: 1
    pad: 1
  }
}
layer {
  name: "inception_4b/pool_proj"
  type: "Convolution"
  bottom: "inception_4b/pool"
  top: "inception_4b/pool_proj"
  param {
    lr_mult: 1
    decay_mult: 1
  }
  param {
    lr_mult: 2
    decay_mult: 0
  }
  convolution_param {
    num_output: 64
    kernel_size: 1
    weight_filler {
      type: "xavier"
    }
    bias_filler {
      type: "constant"
      value: 0.2
    }
  }
}
layer {
  name: "inception_4b/prelu_pool_proj"
  type: "PReLU"
  bottom: "inception_4b/pool_proj"
  top: "inception_4b/pool_proj"
  param {
    lr_mult: 1
    decay_mult: 0
  }
  prelu_param {
    filler {
      type: "constant"
      value: 0.01
    }
  }
}
layer {
  name: "inception_4b/output"
  type: "Concat"
  bottom: "inception_4b/1x1"
  bottom: "inception_4b/3x3"
  bottom: "inception_4b/5x5"
  bottom: "inception_4b/pool_proj"
  top: "inception_4b/output"
}
layer {
  name: "inception_4c/1x1"
  type: "Convolution"
  bottom: "inception_4b/output"
  top: "inception_4c/1x1"
  param {
    lr_mult: 1
    decay_mult: 1
  }
  param {
    lr_mult: 2
    decay_mult: 0
  }
  convolution_param {
    num_output: 128
    kernel_size: 1
    weight_filler {
      type: "xavier"
    }
    bias_filler {
      type: "constant"
      value: 0.2
    }
  }
}
layer {
  name: "inception_4c/prelu_1x1"
  type: "PReLU"
  bottom: "inception_4c/1x1"
  top: "inception_4c/1x1"
  param {
    lr_mult: 1
    decay_mult: 0
  }
  prelu_param {
    filler {
      type: "constant"
      value: 0.01
    }
  }
}
layer {
  name: "inception_4c/3x3_reduce"
  type: "Convolution"
  bottom: "inception_4b/output"
  top: "inception_4c/3x3_reduce"
  param {
    lr_mult: 1
    decay_mult: 1
  }
  param {
    lr_mult: 2
    decay_mult: 0
  }
  convolution_param {
    num_output: 128
    kernel_size: 1
    weight_filler {
      type: "xavier"
    }
    bias_filler {
      type: "constant"
      value: 0.2
    }
  }
}
layer {
  name: "inception_4c/prelu_3x3_reduce"
  type: "PReLU"
  bottom: "inception_4c/3x3_reduce"
  top: "inception_4c/3x3_reduce"
  param {
    lr_mult: 1
    decay_mult: 0
  }
  prelu_param {
    filler {
      type: "constant"
      value: 0.01
    }
  }
}
layer {
  name: "inception_4c/3x3"
  type: "Convolution"
  bottom: "inception_4c/3x3_reduce"
  top: "inception_4c/3x3"
  param {
    lr_mult: 1
    decay_mult: 1
  }
  param {
    lr_mult: 2
    decay_mult: 0
  }
  convolution_param {
    num_output: 256
    pad: 1
    kernel_size: 3
    weight_filler {
      type: "xavier"
    }
    bias_filler {
      type: "constant"
      value: 0.2
    }
  }
}
layer {
  name: "inception_4c/prelu_3x3"
  type: "PReLU"
  bottom: "inception_4c/3x3"
  top: "inception_4c/3x3"
  param {
    lr_mult: 1
    decay_mult: 0
  }
  prelu_param {
    filler {
      type: "constant"
      value: 0.01
    }
  }
}
layer {
  name: "inception_4c/5x5_reduce"
  type: "Convolution"
  bottom: "inception_4b/output"
  top: "inception_4c/5x5_reduce"
  param {
    lr_mult: 1
    decay_mult: 1
  }
  param {
    lr_mult: 2
    decay_mult: 0
  }
  convolution_param {
    num_output: 24
    kernel_size: 1
    weight_filler {
      type: "xavier"
    }
    bias_filler {
      type: "constant"
      value: 0.2
    }
  }
}
layer {
  name: "inception_4c/prelu_5x5_reduce"
  type: "PReLU"
  bottom: "inception_4c/5x5_reduce"
  top: "inception_4c/5x5_reduce"
  param {
    lr_mult: 1
    decay_mult: 0
  }
  prelu_param {
    filler {
      type: "constant"
      value: 0.01
    }
  }
}
layer {
  name: "inception_4c/5x5"
  type: "Convolution"
  bottom: "inception_4c/5x5_reduce"
  top: "inception_4c/5x5"
  param {
    lr_mult: 1
    decay_mult: 1
  }
  param {
    lr_mult: 2
    decay_mult: 0
  }
  convolution_param {
    num_output: 64
    pad: 2
    kernel_size: 5
    weight_filler {
      type: "xavier"
    }
    bias_filler {
      type: "constant"
      value: 0.2
    }
  }
}
layer {
  name: "inception_4c/prelu_5x5"
  type: "PReLU"
  bottom: "inception_4c/5x5"
  top: "inception_4c/5x5"
  param {
    lr_mult: 1
    decay_mult: 0
  }
  prelu_param {
    filler {
      type: "constant"
      value: 0.01
    }
  }
}
layer {
  name: "inception_4c/pool"
  type: "Pooling"
  bottom: "inception_4b/output"
  top: "inception_4c/pool"
  pooling_param {
    pool: MAX
    kernel_size: 3
    stride: 1
    pad: 1
  }
}
layer {
  name: "inception_4c/pool_proj"
  type: "Convolution"
  bottom: "inception_4c/pool"
  top: "inception_4c/pool_proj"
  param {
    lr_mult: 1
    decay_mult: 1
  }
  param {
    lr_mult: 2
    decay_mult: 0
  }
  convolution_param {
    num_output: 64
    kernel_size: 1
    weight_filler {
      type: "xavier"
    }
    bias_filler {
      type: "constant"
      value: 0.2
    }
  }
}
layer {
  name: "inception_4c/prelu_pool_proj"
  type: "PReLU"
  bottom: "inception_4c/pool_proj"
  top: "inception_4c/pool_proj"
  param {
    lr_mult: 1
    decay_mult: 0
  }
  prelu_param {
    filler {
      type: "constant"
      value: 0.01
    }
  }
}
layer {
  name: "inception_4c/output"
  type: "Concat"
  bottom: "inception_4c/1x1"
  bottom: "inception_4c/3x3"
  bottom: "inception_4c/5x5"
  bottom: "inception_4c/pool_proj"
  top: "inception_4c/output"
}
layer {
  name: "inception_4d/1x1"
  type: "Convolution"
  bottom: "inception_4c/output"
  top: "inception_4d/1x1"
  param {
    lr_mult: 1
    decay_mult: 1
  }
  param {
    lr_mult: 2
    decay_mult: 0
  }
  convolution_param {
    num_output: 112
    kernel_size: 1
    weight_filler {
      type: "xavier"
    }
    bias_filler {
      type: "constant"
      value: 0.2
    }
  }
}
layer {
  name: "inception_4d/prelu_1x1"
  type: "PReLU"
  bottom: "inception_4d/1x1"
  top: "inception_4d/1x1"
  param {
    lr_mult: 1
    decay_mult: 0
  }
  prelu_param {
    filler {
      type: "constant"
      value: 0.01
    }
  }
}
layer {
  name: "inception_4d/3x3_reduce"
  type: "Convolution"
  bottom: "inception_4c/output"
  top: "inception_4d/3x3_reduce"
  param {
    lr_mult: 1
    decay_mult: 1
  }
  param {
    lr_mult: 2
    decay_mult: 0
  }
  convolution_param {
    num_output: 144
    kernel_size: 1
    weight_filler {
      type: "xavier"
    }
    bias_filler {
      type: "constant"
      value: 0.2
    }
  }
}
layer {
  name: "inception_4d/prelu_3x3_reduce"
  type: "PReLU"
  bottom: "inception_4d/3x3_reduce"
  top: "inception_4d/3x3_reduce"
  param {
    lr_mult: 1
    decay_mult: 0
  }
  prelu_param {
    filler {
      type: "constant"
      value: 0.01
    }
  }
}
layer {
  name: "inception_4d/3x3"
  type: "Convolution"
  bottom: "inception_4d/3x3_reduce"
  top: "inception_4d/3x3"
  param {
    lr_mult: 1
    decay_mult: 1
  }
  param {
    lr_mult: 2
    decay_mult: 0
  }
  convolution_param {
    num_output: 288
    pad: 1
    kernel_size: 3
    weight_filler {
      type: "xavier"
    }
    bias_filler {
      type: "constant"
      value: 0.2
    }
  }
}
layer {
  name: "inception_4d/prelu_3x3"
  type: "PReLU"
  bottom: "inception_4d/3x3"
  top: "inception_4d/3x3"
  param {
    lr_mult: 1
    decay_mult: 0
  }
  prelu_param {
    filler {
      type: "constant"
      value: 0.01
    }
  }
}
layer {
  name: "inception_4d/5x5_reduce"
  type: "Convolution"
  bottom: "inception_4c/output"
  top: "inception_4d/5x5_reduce"
  param {
    lr_mult: 1
    decay_mult: 1
  }
  param {
    lr_mult: 2
    decay_mult: 0
  }
  convolution_param {
    num_output: 32
    kernel_size: 1
    weight_filler {
      type: "xavier"
    }
    bias_filler {
      type: "constant"
      value: 0.2
    }
  }
}
layer {
  name: "inception_4d/prelu_5x5_reduce"
  type: "PReLU"
  bottom: "inception_4d/5x5_reduce"
  top: "inception_4d/5x5_reduce"
  param {
    lr_mult: 1
    decay_mult: 0
  }
  prelu_param {
    filler {
      type: "constant"
      value: 0.01
    }
  }
}
layer {
  name: "inception_4d/5x5"
  type: "Convolution"
  bottom: "inception_4d/5x5_reduce"
  top: "inception_4d/5x5"
  param {
    lr_mult: 1
    decay_mult: 1
  }
  param {
    lr_mult: 2
    decay_mult: 0
  }
  convolution_param {
    num_output: 64
    pad: 2
    kernel_size: 5
    weight_filler {
      type: "xavier"
    }
    bias_filler {
      type: "constant"
      value: 0.2
    }
  }
}
layer {
  name: "inception_4d/prelu_5x5"
  type: "PReLU"
  bottom: "inception_4d/5x5"
  top: "inception_4d/5x5"
  param {
    lr_mult: 1
    decay_mult: 0
  }
  prelu_param {
    filler {
      type: "constant"
      value: 0.01
    }
  }
}
layer {
  name: "inception_4d/pool"
  type: "Pooling"
  bottom: "inception_4c/output"
  top: "inception_4d/pool"
  pooling_param {
    pool: MAX
    kernel_size: 3
    stride: 1
    pad: 1
  }
}
layer {
  name: "inception_4d/pool_proj"
  type: "Convolution"
  bottom: "ince
I1028 13:33:50.892371 28202 layer_factory.hpp:76] Creating layer data
I1028 13:33:50.892990 28202 net.cpp:106] Creating Layer data
I1028 13:33:50.893008 28202 net.cpp:411] data -> data
I1028 13:33:50.893048 28202 net.cpp:411] data -> label
I1028 13:33:50.894147 28206 db_lmdb.cpp:38] Opened lmdb ../../LMDB/train_6-lmdb
I1028 13:33:50.906111 28202 data_layer.cpp:41] output data size: 32,3,224,224
I1028 13:33:50.973271 28202 net.cpp:150] Setting up data
I1028 13:33:50.973347 28202 net.cpp:157] Top shape: 32 3 224 224 (4816896)
I1028 13:33:50.973354 28202 net.cpp:157] Top shape: 32 (32)
I1028 13:33:50.973359 28202 net.cpp:165] Memory required for data: 19267712
I1028 13:33:50.973374 28202 layer_factory.hpp:76] Creating layer label_data_1_split
I1028 13:33:50.973394 28202 net.cpp:106] Creating Layer label_data_1_split
I1028 13:33:50.973405 28202 net.cpp:454] label_data_1_split <- label
I1028 13:33:50.973426 28202 net.cpp:411] label_data_1_split -> label_data_1_split_0
I1028 13:33:50.973440 28202 net.cpp:411] label_data_1_split -> label_data_1_split_1
I1028 13:33:50.973448 28202 net.cpp:411] label_data_1_split -> label_data_1_split_2
I1028 13:33:50.973523 28202 net.cpp:150] Setting up label_data_1_split
I1028 13:33:50.973534 28202 net.cpp:157] Top shape: 32 (32)
I1028 13:33:50.973539 28202 net.cpp:157] Top shape: 32 (32)
I1028 13:33:50.973544 28202 net.cpp:157] Top shape: 32 (32)
I1028 13:33:50.973558 28202 net.cpp:165] Memory required for data: 19268096
I1028 13:33:50.973562 28202 layer_factory.hpp:76] Creating layer conv1/7x7_s2
I1028 13:33:50.973583 28202 net.cpp:106] Creating Layer conv1/7x7_s2
I1028 13:33:50.973588 28202 net.cpp:454] conv1/7x7_s2 <- data
I1028 13:33:50.973597 28202 net.cpp:411] conv1/7x7_s2 -> conv1/7x7_s2
I1028 13:33:51.188148 28202 cudnn_conv_layer.cpp:194] Reallocating workspace storage: 225816
I1028 13:33:51.188442 28202 net.cpp:150] Setting up conv1/7x7_s2
I1028 13:33:51.188473 28202 net.cpp:157] Top shape: 32 64 112 112 (25690112)
I1028 13:33:51.188484 28202 net.cpp:165] Memory required for data: 122028544
I1028 13:33:51.188519 28202 layer_factory.hpp:76] Creating layer conv1/prelu_7x7
I1028 13:33:51.188554 28202 net.cpp:106] Creating Layer conv1/prelu_7x7
I1028 13:33:51.188575 28202 net.cpp:454] conv1/prelu_7x7 <- conv1/7x7_s2
I1028 13:33:51.188596 28202 net.cpp:397] conv1/prelu_7x7 -> conv1/7x7_s2 (in-place)
I1028 13:33:51.190990 28202 net.cpp:150] Setting up conv1/prelu_7x7
I1028 13:33:51.191022 28202 net.cpp:157] Top shape: 32 64 112 112 (25690112)
I1028 13:33:51.191031 28202 net.cpp:165] Memory required for data: 224788992
I1028 13:33:51.191050 28202 layer_factory.hpp:76] Creating layer pool1/3x3_s2
I1028 13:33:51.191072 28202 net.cpp:106] Creating Layer pool1/3x3_s2
I1028 13:33:51.191083 28202 net.cpp:454] pool1/3x3_s2 <- conv1/7x7_s2
I1028 13:33:51.191097 28202 net.cpp:411] pool1/3x3_s2 -> pool1/3x3_s2
I1028 13:33:51.191710 28202 net.cpp:150] Setting up pool1/3x3_s2
I1028 13:33:51.191735 28202 net.cpp:157] Top shape: 32 64 56 56 (6422528)
I1028 13:33:51.191745 28202 net.cpp:165] Memory required for data: 250479104
I1028 13:33:51.191756 28202 layer_factory.hpp:76] Creating layer pool1/norm1
I1028 13:33:51.191776 28202 net.cpp:106] Creating Layer pool1/norm1
I1028 13:33:51.191787 28202 net.cpp:454] pool1/norm1 <- pool1/3x3_s2
I1028 13:33:51.191799 28202 net.cpp:411] pool1/norm1 -> pool1/norm1
I1028 13:33:51.192122 28202 net.cpp:150] Setting up pool1/norm1
I1028 13:33:51.192145 28202 net.cpp:157] Top shape: 32 64 56 56 (6422528)
I1028 13:33:51.192154 28202 net.cpp:165] Memory required for data: 276169216
I1028 13:33:51.192163 28202 layer_factory.hpp:76] Creating layer conv2/3x3_reduce
I1028 13:33:51.192183 28202 net.cpp:106] Creating Layer conv2/3x3_reduce
I1028 13:33:51.192193 28202 net.cpp:454] conv2/3x3_reduce <- pool1/norm1
I1028 13:33:51.192206 28202 net.cpp:411] conv2/3x3_reduce -> conv2/3x3_reduce
I1028 13:33:51.194488 28202 cudnn_conv_layer.cpp:194] Reallocating workspace storage: 63000
I1028 13:33:51.194509 28202 net.cpp:150] Setting up conv2/3x3_reduce
I1028 13:33:51.194517 28202 net.cpp:157] Top shape: 32 64 56 56 (6422528)
I1028 13:33:51.194521 28202 net.cpp:165] Memory required for data: 301859328
I1028 13:33:51.194530 28202 layer_factory.hpp:76] Creating layer conv2/prelu_3x3_reduce
I1028 13:33:51.194547 28202 net.cpp:106] Creating Layer conv2/prelu_3x3_reduce
I1028 13:33:51.194552 28202 net.cpp:454] conv2/prelu_3x3_reduce <- conv2/3x3_reduce
I1028 13:33:51.194558 28202 net.cpp:397] conv2/prelu_3x3_reduce -> conv2/3x3_reduce (in-place)
I1028 13:33:51.195608 28202 net.cpp:150] Setting up conv2/prelu_3x3_reduce
I1028 13:33:51.195634 28202 net.cpp:157] Top shape: 32 64 56 56 (6422528)
I1028 13:33:51.195644 28202 net.cpp:165] Memory required for data: 327549440
I1028 13:33:51.195657 28202 layer_factory.hpp:76] Creating layer conv2/3x3
I1028 13:33:51.195677 28202 net.cpp:106] Creating Layer conv2/3x3
I1028 13:33:51.195688 28202 net.cpp:454] conv2/3x3 <- conv2/3x3_reduce
I1028 13:33:51.195703 28202 net.cpp:411] conv2/3x3 -> conv2/3x3
I1028 13:33:51.199285 28202 cudnn_conv_layer.cpp:194] Reallocating workspace storage: 63000
I1028 13:33:51.199316 28202 net.cpp:150] Setting up conv2/3x3
I1028 13:33:51.199331 28202 net.cpp:157] Top shape: 32 192 56 56 (19267584)
I1028 13:33:51.199336 28202 net.cpp:165] Memory required for data: 404619776
I1028 13:33:51.199342 28202 layer_factory.hpp:76] Creating layer conv2/prelu_3x3
I1028 13:33:51.199350 28202 net.cpp:106] Creating Layer conv2/prelu_3x3
I1028 13:33:51.199354 28202 net.cpp:454] conv2/prelu_3x3 <- conv2/3x3
I1028 13:33:51.199362 28202 net.cpp:397] conv2/prelu_3x3 -> conv2/3x3 (in-place)
I1028 13:33:51.200830 28202 net.cpp:150] Setting up conv2/prelu_3x3
I1028 13:33:51.200862 28202 net.cpp:157] Top shape: 32 192 56 56 (19267584)
I1028 13:33:51.200872 28202 net.cpp:165] Memory required for data: 481690112
I1028 13:33:51.200932 28202 layer_factory.hpp:76] Creating layer conv2/norm2
I1028 13:33:51.200952 28202 net.cpp:106] Creating Layer conv2/norm2
I1028 13:33:51.200973 28202 net.cpp:454] conv2/norm2 <- conv2/3x3
I1028 13:33:51.200979 28202 net.cpp:411] conv2/norm2 -> conv2/norm2
I1028 13:33:51.201285 28202 net.cpp:150] Setting up conv2/norm2
I1028 13:33:51.201311 28202 net.cpp:157] Top shape: 32 192 56 56 (19267584)
I1028 13:33:51.201315 28202 net.cpp:165] Memory required for data: 558760448
I1028 13:33:51.201319 28202 layer_factory.hpp:76] Creating layer pool2/3x3_s2
I1028 13:33:51.201328 28202 net.cpp:106] Creating Layer pool2/3x3_s2
I1028 13:33:51.201340 28202 net.cpp:454] pool2/3x3_s2 <- conv2/norm2
I1028 13:33:51.201362 28202 net.cpp:411] pool2/3x3_s2 -> pool2/3x3_s2
I1028 13:33:51.201900 28202 net.cpp:150] Setting up pool2/3x3_s2
I1028 13:33:51.201930 28202 net.cpp:157] Top shape: 32 192 28 28 (4816896)
I1028 13:33:51.201941 28202 net.cpp:165] Memory required for data: 578028032
I1028 13:33:51.201949 28202 layer_factory.hpp:76] Creating layer pool2/3x3_s2_pool2/3x3_s2_0_split
I1028 13:33:51.201962 28202 net.cpp:106] Creating Layer pool2/3x3_s2_pool2/3x3_s2_0_split
I1028 13:33:51.201972 28202 net.cpp:454] pool2/3x3_s2_pool2/3x3_s2_0_split <- pool2/3x3_s2
I1028 13:33:51.201987 28202 net.cpp:411] pool2/3x3_s2_pool2/3x3_s2_0_split -> pool2/3x3_s2_pool2/3x3_s2_0_split_0
I1028 13:33:51.202003 28202 net.cpp:411] pool2/3x3_s2_pool2/3x3_s2_0_split -> pool2/3x3_s2_pool2/3x3_s2_0_split_1
I1028 13:33:51.202044 28202 net.cpp:411] pool2/3x3_s2_pool2/3x3_s2_0_split -> pool2/3x3_s2_pool2/3x3_s2_0_split_2
I1028 13:33:51.202061 28202 net.cpp:411] pool2/3x3_s2_pool2/3x3_s2_0_split -> pool2/3x3_s2_pool2/3x3_s2_0_split_3
I1028 13:33:51.202136 28202 net.cpp:150] Setting up pool2/3x3_s2_pool2/3x3_s2_0_split
I1028 13:33:51.202147 28202 net.cpp:157] Top shape: 32 192 28 28 (4816896)
I1028 13:33:51.202152 28202 net.cpp:157] Top shape: 32 192 28 28 (4816896)
I1028 13:33:51.202155 28202 net.cpp:157] Top shape: 32 192 28 28 (4816896)
I1028 13:33:51.202168 28202 net.cpp:157] Top shape: 32 192 28 28 (4816896)
I1028 13:33:51.202172 28202 net.cpp:165] Memory required for data: 655098368
I1028 13:33:51.202177 28202 layer_factory.hpp:76] Creating layer inception_3a/1x1
I1028 13:33:51.202185 28202 net.cpp:106] Creating Layer inception_3a/1x1
I1028 13:33:51.202193 28202 net.cpp:454] inception_3a/1x1 <- pool2/3x3_s2_pool2/3x3_s2_0_split_0
I1028 13:33:51.202200 28202 net.cpp:411] inception_3a/1x1 -> inception_3a/1x1
I1028 13:33:51.203794 28202 cudnn_conv_layer.cpp:194] Reallocating workspace storage: 20664
I1028 13:33:51.203841 28202 net.cpp:150] Setting up inception_3a/1x1
I1028 13:33:51.203853 28202 net.cpp:157] Top shape: 32 64 28 28 (1605632)
I1028 13:33:51.203858 28202 net.cpp:165] Memory required for data: 661520896
I1028 13:33:51.203868 28202 layer_factory.hpp:76] Creating layer inception_3a/prelu_1x1
I1028 13:33:51.203881 28202 net.cpp:106] Creating Layer inception_3a/prelu_1x1
I1028 13:33:51.203887 28202 net.cpp:454] inception_3a/prelu_1x1 <- inception_3a/1x1
I1028 13:33:51.203894 28202 net.cpp:397] inception_3a/prelu_1x1 -> inception_3a/1x1 (in-place)
I1028 13:33:51.204502 28202 net.cpp:150] Setting up inception_3a/prelu_1x1
I1028 13:33:51.204520 28202 net.cpp:157] Top shape: 32 64 28 28 (1605632)
I1028 13:33:51.204524 28202 net.cpp:165] Memory required for data: 667943424
I1028 13:33:51.204530 28202 layer_factory.hpp:76] Creating layer inception_3a/3x3_reduce
I1028 13:33:51.204542 28202 net.cpp:106] Creating Layer inception_3a/3x3_reduce
I1028 13:33:51.204548 28202 net.cpp:454] inception_3a/3x3_reduce <- pool2/3x3_s2_pool2/3x3_s2_0_split_1
I1028 13:33:51.204555 28202 net.cpp:411] inception_3a/3x3_reduce -> inception_3a/3x3_reduce
I1028 13:33:51.205502 28202 cudnn_conv_layer.cpp:194] Reallocating workspace storage: 20664
I1028 13:33:51.205526 28202 net.cpp:150] Setting up inception_3a/3x3_reduce
I1028 13:33:51.205534 28202 net.cpp:157] Top shape: 32 96 28 28 (2408448)
I1028 13:33:51.205538 28202 net.cpp:165] Memory required for data: 677577216
I1028 13:33:51.205564 28202 layer_factory.hpp:76] Creating layer inception_3a/prelu_3x3_reduce
I1028 13:33:51.205579 28202 net.cpp:106] Creating Layer inception_3a/prelu_3x3_reduce
I1028 13:33:51.205585 28202 net.cpp:454] inception_3a/prelu_3x3_reduce <- inception_3a/3x3_reduce
I1028 13:33:51.205591 28202 net.cpp:397] inception_3a/prelu_3x3_reduce -> inception_3a/3x3_reduce (in-place)
I1028 13:33:51.205751 28202 net.cpp:150] Setting up inception_3a/prelu_3x3_reduce
I1028 13:33:51.205761 28202 net.cpp:157] Top shape: 32 96 28 28 (2408448)
I1028 13:33:51.205765 28202 net.cpp:165] Memory required for data: 687211008
I1028 13:33:51.205770 28202 layer_factory.hpp:76] Creating layer inception_3a/3x3
I1028 13:33:51.205780 28202 net.cpp:106] Creating Layer inception_3a/3x3
I1028 13:33:51.205785 28202 net.cpp:454] inception_3a/3x3 <- inception_3a/3x3_reduce
I1028 13:33:51.205791 28202 net.cpp:411] inception_3a/3x3 -> inception_3a/3x3
I1028 13:33:51.207849 28202 cudnn_conv_layer.cpp:194] Reallocating workspace storage: 20664
I1028 13:33:51.207873 28202 net.cpp:150] Setting up inception_3a/3x3
I1028 13:33:51.207880 28202 net.cpp:157] Top shape: 32 128 28 28 (3211264)
I1028 13:33:51.207885 28202 net.cpp:165] Memory required for data: 700056064
I1028 13:33:51.207896 28202 layer_factory.hpp:76] Creating layer inception_3a/prelu_3x3
I1028 13:33:51.207906 28202 net.cpp:106] Creating Layer inception_3a/prelu_3x3
I1028 13:33:51.207911 28202 net.cpp:454] inception_3a/prelu_3x3 <- inception_3a/3x3
I1028 13:33:51.207917 28202 net.cpp:397] inception_3a/prelu_3x3 -> inception_3a/3x3 (in-place)
I1028 13:33:51.208050 28202 net.cpp:150] Setting up inception_3a/prelu_3x3
I1028 13:33:51.208060 28202 net.cpp:157] Top shape: 32 128 28 28 (3211264)
I1028 13:33:51.208063 28202 net.cpp:165] Memory required for data: 712901120
I1028 13:33:51.208068 28202 layer_factory.hpp:76] Creating layer inception_3a/5x5_reduce
I1028 13:33:51.208078 28202 net.cpp:106] Creating Layer inception_3a/5x5_reduce
I1028 13:33:51.208082 28202 net.cpp:454] inception_3a/5x5_reduce <- pool2/3x3_s2_pool2/3x3_s2_0_split_2
I1028 13:33:51.208089 28202 net.cpp:411] inception_3a/5x5_reduce -> inception_3a/5x5_reduce
I1028 13:33:51.209257 28202 cudnn_conv_layer.cpp:194] Reallocating workspace storage: 20664
I1028 13:33:51.209276 28202 net.cpp:150] Setting up inception_3a/5x5_reduce
I1028 13:33:51.209283 28202 net.cpp:157] Top shape: 32 16 28 28 (401408)
I1028 13:33:51.209287 28202 net.cpp:165] Memory required for data: 714506752
I1028 13:33:51.209295 28202 layer_factory.hpp:76] Creating layer inception_3a/prelu_5x5_reduce
I1028 13:33:51.209301 28202 net.cpp:106] Creating Layer inception_3a/prelu_5x5_reduce
I1028 13:33:51.209306 28202 net.cpp:454] inception_3a/prelu_5x5_reduce <- inception_3a/5x5_reduce
I1028 13:33:51.209313 28202 net.cpp:397] inception_3a/prelu_5x5_reduce -> inception_3a/5x5_reduce (in-place)
I1028 13:33:51.209400 28202 net.cpp:150] Setting up inception_3a/prelu_5x5_reduce
I1028 13:33:51.209409 28202 net.cpp:157] Top shape: 32 16 28 28 (401408)
I1028 13:33:51.209414 28202 net.cpp:165] Memory required for data: 716112384
I1028 13:33:51.209419 28202 layer_factory.hpp:76] Creating layer inception_3a/5x5
I1028 13:33:51.209430 28202 net.cpp:106] Creating Layer inception_3a/5x5
I1028 13:33:51.209435 28202 net.cpp:454] inception_3a/5x5 <- inception_3a/5x5_reduce
I1028 13:33:51.209442 28202 net.cpp:411] inception_3a/5x5 -> inception_3a/5x5
I1028 13:33:51.210467 28202 cudnn_conv_layer.cpp:194] Reallocating workspace storage: 20664
I1028 13:33:51.210486 28202 net.cpp:150] Setting up inception_3a/5x5
I1028 13:33:51.210494 28202 net.cpp:157] Top shape: 32 32 28 28 (802816)
I1028 13:33:51.210497 28202 net.cpp:165] Memory required for data: 719323648
I1028 13:33:51.210505 28202 layer_factory.hpp:76] Creating layer inception_3a/prelu_5x5
I1028 13:33:51.210512 28202 net.cpp:106] Creating Layer inception_3a/prelu_5x5
I1028 13:33:51.210527 28202 net.cpp:454] inception_3a/prelu_5x5 <- inception_3a/5x5
I1028 13:33:51.210533 28202 net.cpp:397] inception_3a/prelu_5x5 -> inception_3a/5x5 (in-place)
I1028 13:33:51.210646 28202 net.cpp:150] Setting up inception_3a/prelu_5x5
I1028 13:33:51.210655 28202 net.cpp:157] Top shape: 32 32 28 28 (802816)
I1028 13:33:51.210659 28202 net.cpp:165] Memory required for data: 722534912
I1028 13:33:51.210664 28202 layer_factory.hpp:76] Creating layer inception_3a/pool
I1028 13:33:51.210672 28202 net.cpp:106] Creating Layer inception_3a/pool
I1028 13:33:51.210676 28202 net.cpp:454] inception_3a/pool <- pool2/3x3_s2_pool2/3x3_s2_0_split_3
I1028 13:33:51.210682 28202 net.cpp:411] inception_3a/pool -> inception_3a/pool
I1028 13:33:51.210871 28202 net.cpp:150] Setting up inception_3a/pool
I1028 13:33:51.210881 28202 net.cpp:157] Top shape: 32 192 28 28 (4816896)
I1028 13:33:51.210886 28202 net.cpp:165] Memory required for data: 741802496
I1028 13:33:51.210889 28202 layer_factory.hpp:76] Creating layer inception_3a/pool_proj
I1028 13:33:51.210898 28202 net.cpp:106] Creating Layer inception_3a/pool_proj
I1028 13:33:51.210903 28202 net.cpp:454] inception_3a/pool_proj <- inception_3a/pool
I1028 13:33:51.210909 28202 net.cpp:411] inception_3a/pool_proj -> inception_3a/pool_proj
I1028 13:33:51.211889 28202 cudnn_conv_layer.cpp:194] Reallocating workspace storage: 20664
I1028 13:33:51.211907 28202 net.cpp:150] Setting up inception_3a/pool_proj
I1028 13:33:51.211915 28202 net.cpp:157] Top shape: 32 32 28 28 (802816)
I1028 13:33:51.211918 28202 net.cpp:165] Memory required for data: 745013760
I1028 13:33:51.211925 28202 layer_factory.hpp:76] Creating layer inception_3a/prelu_pool_proj
I1028 13:33:51.211933 28202 net.cpp:106] Creating Layer inception_3a/prelu_pool_proj
I1028 13:33:51.211948 28202 net.cpp:454] inception_3a/prelu_pool_proj <- inception_3a/pool_proj
I1028 13:33:51.211954 28202 net.cpp:397] inception_3a/prelu_pool_proj -> inception_3a/pool_proj (in-place)
I1028 13:33:51.212076 28202 net.cpp:150] Setting up inception_3a/prelu_pool_proj
I1028 13:33:51.212085 28202 net.cpp:157] Top shape: 32 32 28 28 (802816)
I1028 13:33:51.212088 28202 net.cpp:165] Memory required for data: 748225024
I1028 13:33:51.212105 28202 layer_factory.hpp:76] Creating layer inception_3a/output
I1028 13:33:51.212116 28202 net.cpp:106] Creating Layer inception_3a/output
I1028 13:33:51.212119 28202 net.cpp:454] inception_3a/output <- inception_3a/1x1
I1028 13:33:51.212124 28202 net.cpp:454] inception_3a/output <- inception_3a/3x3
I1028 13:33:51.212141 28202 net.cpp:454] inception_3a/output <- inception_3a/5x5
I1028 13:33:51.212144 28202 net.cpp:454] inception_3a/output <- inception_3a/pool_proj
I1028 13:33:51.212152 28202 net.cpp:411] inception_3a/output -> inception_3a/output
I1028 13:33:51.212177 28202 net.cpp:150] Setting up inception_3a/output
I1028 13:33:51.212194 28202 net.cpp:157] Top shape: 32 256 28 28 (6422528)
I1028 13:33:51.212208 28202 net.cpp:165] Memory required for data: 773915136
I1028 13:33:51.212213 28202 layer_factory.hpp:76] Creating layer inception_3a/output_inception_3a/output_0_split
I1028 13:33:51.212231 28202 net.cpp:106] Creating Layer inception_3a/output_inception_3a/output_0_split
I1028 13:33:51.212235 28202 net.cpp:454] inception_3a/output_inception_3a/output_0_split <- inception_3a/output
I1028 13:33:51.212241 28202 net.cpp:411] inception_3a/output_inception_3a/output_0_split -> inception_3a/output_inception_3a/output_0_split_0
I1028 13:33:51.212249 28202 net.cpp:411] inception_3a/output_inception_3a/output_0_split -> inception_3a/output_inception_3a/output_0_split_1
I1028 13:33:51.212255 28202 net.cpp:411] inception_3a/output_inception_3a/output_0_split -> inception_3a/output_inception_3a/output_0_split_2
I1028 13:33:51.212261 28202 net.cpp:411] inception_3a/output_inception_3a/output_0_split -> inception_3a/output_inception_3a/output_0_split_3
I1028 13:33:51.212311 28202 net.cpp:150] Setting up inception_3a/output_inception_3a/output_0_split
I1028 13:33:51.212317 28202 net.cpp:157] Top shape: 32 256 28 28 (6422528)
I1028 13:33:51.212322 28202 net.cpp:157] Top shape: 32 256 28 28 (6422528)
I1028 13:33:51.212327 28202 net.cpp:157] Top shape: 32 256 28 28 (6422528)
I1028 13:33:51.212342 28202 net.cpp:157] Top shape: 32 256 28 28 (6422528)
I1028 13:33:51.212345 28202 net.cpp:165] Memory required for data: 876675584
I1028 13:33:51.212349 28202 layer_factory.hpp:76] Creating layer inception_3b/1x1
I1028 13:33:51.212357 28202 net.cpp:106] Creating Layer inception_3b/1x1
I1028 13:33:51.212362 28202 net.cpp:454] inception_3b/1x1 <- inception_3a/output_inception_3a/output_0_split_0
I1028 13:33:51.212368 28202 net.cpp:411] inception_3b/1x1 -> inception_3b/1x1
I1028 13:33:51.213524 28202 cudnn_conv_layer.cpp:194] Reallocating workspace storage: 20664
I1028 13:33:51.213542 28202 net.cpp:150] Setting up inception_3b/1x1
I1028 13:33:51.213549 28202 net.cpp:157] Top shape: 32 128 28 28 (3211264)
I1028 13:33:51.213553 28202 net.cpp:165] Memory required for data: 889520640
I1028 13:33:51.213560 28202 layer_factory.hpp:76] Creating layer inception_3b/prelu_1x1
I1028 13:33:51.213568 28202 net.cpp:106] Creating Layer inception_3b/prelu_1x1
I1028 13:33:51.213573 28202 net.cpp:454] inception_3b/prelu_1x1 <- inception_3b/1x1
I1028 13:33:51.213579 28202 net.cpp:397] inception_3b/prelu_1x1 -> inception_3b/1x1 (in-place)
I1028 13:33:51.214190 28202 net.cpp:150] Setting up inception_3b/prelu_1x1
I1028 13:33:51.214205 28202 net.cpp:157] Top shape: 32 128 28 28 (3211264)
I1028 13:33:51.214208 28202 net.cpp:165] Memory required for data: 902365696
I1028 13:33:51.214215 28202 layer_factory.hpp:76] Creating layer inception_3b/3x3_reduce
I1028 13:33:51.214226 28202 net.cpp:106] Creating Layer inception_3b/3x3_reduce
I1028 13:33:51.214231 28202 net.cpp:454] inception_3b/3x3_reduce <- inception_3a/output_inception_3a/output_0_split_1
I1028 13:33:51.214236 28202 net.cpp:411] inception_3b/3x3_reduce -> inception_3b/3x3_reduce
I1028 13:33:51.215404 28202 cudnn_conv_layer.cpp:194] Reallocating workspace storage: 20664
I1028 13:33:51.215422 28202 net.cpp:150] Setting up inception_3b/3x3_reduce
I1028 13:33:51.215430 28202 net.cpp:157] Top shape: 32 128 28 28 (3211264)
I1028 13:33:51.215435 28202 net.cpp:165] Memory required for data: 915210752
I1028 13:33:51.215441 28202 layer_factory.hpp:76] Creating layer inception_3b/prelu_3x3_reduce
I1028 13:33:51.215450 28202 net.cpp:106] Creating Layer inception_3b/prelu_3x3_reduce
I1028 13:33:51.215454 28202 net.cpp:454] inception_3b/prelu_3x3_reduce <- inception_3b/3x3_reduce
I1028 13:33:51.215461 28202 net.cpp:397] inception_3b/prelu_3x3_reduce -> inception_3b/3x3_reduce (in-place)
I1028 13:33:51.215641 28202 net.cpp:150] Setting up inception_3b/prelu_3x3_reduce
I1028 13:33:51.215651 28202 net.cpp:157] Top shape: 32 128 28 28 (3211264)
I1028 13:33:51.215654 28202 net.cpp:165] Memory required for data: 928055808
I1028 13:33:51.215667 28202 layer_factory.hpp:76] Creating layer inception_3b/3x3
I1028 13:33:51.215680 28202 net.cpp:106] Creating Layer inception_3b/3x3
I1028 13:33:51.215687 28202 net.cpp:454] inception_3b/3x3 <- inception_3b/3x3_reduce
I1028 13:33:51.215694 28202 net.cpp:411] inception_3b/3x3 -> inception_3b/3x3
I1028 13:33:51.218619 28202 cudnn_conv_layer.cpp:194] Reallocating workspace storage: 20664
I1028 13:33:51.218662 28202 net.cpp:150] Setting up inception_3b/3x3
I1028 13:33:51.218673 28202 net.cpp:157] Top shape: 32 192 28 28 (4816896)
I1028 13:33:51.218678 28202 net.cpp:165] Memory required for data: 947323392
I1028 13:33:51.218688 28202 layer_factory.hpp:76] Creating layer inception_3b/prelu_3x3
I1028 13:33:51.218698 28202 net.cpp:106] Creating Layer inception_3b/prelu_3x3
I1028 13:33:51.218704 28202 net.cpp:454] inception_3b/prelu_3x3 <- inception_3b/3x3
I1028 13:33:51.218713 28202 net.cpp:397] inception_3b/prelu_3x3 -> inception_3b/3x3 (in-place)
I1028 13:33:51.219338 28202 net.cpp:150] Setting up inception_3b/prelu_3x3
I1028 13:33:51.219352 28202 net.cpp:157] Top shape: 32 192 28 28 (4816896)
I1028 13:33:51.219357 28202 net.cpp:165] Memory required for data: 966590976
I1028 13:33:51.219362 28202 layer_factory.hpp:76] Creating layer inception_3b/5x5_reduce
I1028 13:33:51.219374 28202 net.cpp:106] Creating Layer inception_3b/5x5_reduce
I1028 13:33:51.219379 28202 net.cpp:454] inception_3b/5x5_reduce <- inception_3a/output_inception_3a/output_0_split_2
I1028 13:33:51.219401 28202 net.cpp:411] inception_3b/5x5_reduce -> inception_3b/5x5_reduce
I1028 13:33:51.220268 28202 cudnn_conv_layer.cpp:194] Reallocating workspace storage: 20664
I1028 13:33:51.220286 28202 net.cpp:150] Setting up inception_3b/5x5_reduce
I1028 13:33:51.220293 28202 net.cpp:157] Top shape: 32 32 28 28 (802816)
I1028 13:33:51.220298 28202 net.cpp:165] Memory required for data: 969802240
I1028 13:33:51.220304 28202 layer_factory.hpp:76] Creating layer inception_3b/prelu_5x5_reduce
I1028 13:33:51.220314 28202 net.cpp:106] Creating Layer inception_3b/prelu_5x5_reduce
I1028 13:33:51.220319 28202 net.cpp:454] inception_3b/prelu_5x5_reduce <- inception_3b/5x5_reduce
I1028 13:33:51.220324 28202 net.cpp:397] inception_3b/prelu_5x5_reduce -> inception_3b/5x5_reduce (in-place)
I1028 13:33:51.220443 28202 net.cpp:150] Setting up inception_3b/prelu_5x5_reduce
I1028 13:33:51.220453 28202 net.cpp:157] Top shape: 32 32 28 28 (802816)
I1028 13:33:51.220456 28202 net.cpp:165] Memory required for data: 973013504
I1028 13:33:51.220463 28202 layer_factory.hpp:76] Creating layer inception_3b/5x5
I1028 13:33:51.220470 28202 net.cpp:106] Creating Layer inception_3b/5x5
I1028 13:33:51.220486 28202 net.cpp:454] inception_3b/5x5 <- inception_3b/5x5_reduce
I1028 13:33:51.220494 28202 net.cpp:411] inception_3b/5x5 -> inception_3b/5x5
I1028 13:33:51.221906 28202 cudnn_conv_layer.cpp:194] Reallocating workspace storage: 20664
I1028 13:33:51.221926 28202 net.cpp:150] Setting up inception_3b/5x5
I1028 13:33:51.221935 28202 net.cpp:157] Top shape: 32 96 28 28 (2408448)
I1028 13:33:51.221949 28202 net.cpp:165] Memory required for data: 982647296
I1028 13:33:51.221957 28202 layer_factory.hpp:76] Creating layer inception_3b/prelu_5x5
I1028 13:33:51.221967 28202 net.cpp:106] Creating Layer inception_3b/prelu_5x5
I1028 13:33:51.221972 28202 net.cpp:454] inception_3b/prelu_5x5 <- inception_3b/5x5
I1028 13:33:51.221979 28202 net.cpp:397] inception_3b/prelu_5x5 -> inception_3b/5x5 (in-place)
I1028 13:33:51.222146 28202 net.cpp:150] Setting up inception_3b/prelu_5x5
I1028 13:33:51.222156 28202 net.cpp:157] Top shape: 32 96 28 28 (2408448)
I1028 13:33:51.222159 28202 net.cpp:165] Memory required for data: 992281088
I1028 13:33:51.222164 28202 layer_factory.hpp:76] Creating layer inception_3b/pool
I1028 13:33:51.222172 28202 net.cpp:106] Creating Layer inception_3b/pool
I1028 13:33:51.222177 28202 net.cpp:454] inception_3b/pool <- inception_3a/output_inception_3a/output_0_split_3
I1028 13:33:51.222183 28202 net.cpp:411] inception_3b/pool -> inception_3b/pool
I1028 13:33:51.222537 28202 net.cpp:150] Setting up inception_3b/pool
I1028 13:33:51.222548 28202 net.cpp:157] Top shape: 32 256 28 28 (6422528)
I1028 13:33:51.222551 28202 net.cpp:165] Memory required for data: 1017971200
I1028 13:33:51.222555 28202 layer_factory.hpp:76] Creating layer inception_3b/pool_proj
I1028 13:33:51.222565 28202 net.cpp:106] Creating Layer inception_3b/pool_proj
I1028 13:33:51.222570 28202 net.cpp:454] inception_3b/pool_proj <- inception_3b/pool
I1028 13:33:51.222576 28202 net.cpp:411] inception_3b/pool_proj -> inception_3b/pool_proj
I1028 13:33:51.223634 28202 cudnn_conv_layer.cpp:194] Reallocating workspace storage: 20664
I1028 13:33:51.223652 28202 net.cpp:150] Setting up inception_3b/pool_proj
I1028 13:33:51.223660 28202 net.cpp:157] Top shape: 32 64 28 28 (1605632)
I1028 13:33:51.223664 28202 net.cpp:165] Memory required for data: 1024393728
I1028 13:33:51.223670 28202 layer_factory.hpp:76] Creating layer inception_3b/prelu_pool_proj
I1028 13:33:51.223677 28202 net.cpp:106] Creating Layer inception_3b/prelu_pool_proj
I1028 13:33:51.223682 28202 net.cpp:454] inception_3b/prelu_pool_proj <- inception_3b/pool_proj
I1028 13:33:51.223690 28202 net.cpp:397] inception_3b/prelu_pool_proj -> inception_3b/pool_proj (in-place)
I1028 13:33:51.223803 28202 net.cpp:150] Setting up inception_3b/prelu_pool_proj
I1028 13:33:51.223812 28202 net.cpp:157] Top shape: 32 64 28 28 (1605632)
I1028 13:33:51.223826 28202 net.cpp:165] Memory required for data: 1030816256
I1028 13:33:51.223832 28202 layer_factory.hpp:76] Creating layer inception_3b/output
I1028 13:33:51.223839 28202 net.cpp:106] Creating Layer inception_3b/output
I1028 13:33:51.223844 28202 net.cpp:454] inception_3b/output <- inception_3b/1x1
I1028 13:33:51.223848 28202 net.cpp:454] inception_3b/output <- inception_3b/3x3
I1028 13:33:51.223852 28202 net.cpp:454] inception_3b/output <- inception_3b/5x5
I1028 13:33:51.223856 28202 net.cpp:454] inception_3b/output <- inception_3b/pool_proj
I1028 13:33:51.223861 28202 net.cpp:411] inception_3b/output -> inception_3b/output
I1028 13:33:51.223886 28202 net.cpp:150] Setting up inception_3b/output
I1028 13:33:51.223893 28202 net.cpp:157] Top shape: 32 480 28 28 (12042240)
I1028 13:33:51.223907 28202 net.cpp:165] Memory required for data: 1078985216
I1028 13:33:51.223922 28202 layer_factory.hpp:76] Creating layer pool3/3x3_s2
I1028 13:33:51.223929 28202 net.cpp:106] Creating Layer pool3/3x3_s2
I1028 13:33:51.223934 28202 net.cpp:454] pool3/3x3_s2 <- inception_3b/output
I1028 13:33:51.223939 28202 net.cpp:411] pool3/3x3_s2 -> pool3/3x3_s2
I1028 13:33:51.224318 28202 net.cpp:150] Setting up pool3/3x3_s2
I1028 13:33:51.224331 28202 net.cpp:157] Top shape: 32 480 14 14 (3010560)
I1028 13:33:51.224335 28202 net.cpp:165] Memory required for data: 1091027456
I1028 13:33:51.224340 28202 layer_factory.hpp:76] Creating layer pool3/3x3_s2_pool3/3x3_s2_0_split
I1028 13:33:51.224347 28202 net.cpp:106] Creating Layer pool3/3x3_s2_pool3/3x3_s2_0_split
I1028 13:33:51.224351 28202 net.cpp:454] pool3/3x3_s2_pool3/3x3_s2_0_split <- pool3/3x3_s2
I1028 13:33:51.224357 28202 net.cpp:411] pool3/3x3_s2_pool3/3x3_s2_0_split -> pool3/3x3_s2_pool3/3x3_s2_0_split_0
I1028 13:33:51.224364 28202 net.cpp:411] pool3/3x3_s2_pool3/3x3_s2_0_split -> pool3/3x3_s2_pool3/3x3_s2_0_split_1
I1028 13:33:51.224370 28202 net.cpp:411] pool3/3x3_s2_pool3/3x3_s2_0_split -> pool3/3x3_s2_pool3/3x3_s2_0_split_2
I1028 13:33:51.224377 28202 net.cpp:411] pool3/3x3_s2_pool3/3x3_s2_0_split -> pool3/3x3_s2_pool3/3x3_s2_0_split_3
I1028 13:33:51.224431 28202 net.cpp:150] Setting up pool3/3x3_s2_pool3/3x3_s2_0_split
I1028 13:33:51.224439 28202 net.cpp:157] Top shape: 32 480 14 14 (3010560)
I1028 13:33:51.224444 28202 net.cpp:157] Top shape: 32 480 14 14 (3010560)
I1028 13:33:51.224448 28202 net.cpp:157] Top shape: 32 480 14 14 (3010560)
I1028 13:33:51.224453 28202 net.cpp:157] Top shape: 32 480 14 14 (3010560)
I1028 13:33:51.224457 28202 net.cpp:165] Memory required for data: 1139196416
I1028 13:33:51.224460 28202 layer_factory.hpp:76] Creating layer inception_4a/1x1
I1028 13:33:51.224469 28202 net.cpp:106] Creating Layer inception_4a/1x1
I1028 13:33:51.224473 28202 net.cpp:454] inception_4a/1x1 <- pool3/3x3_s2_pool3/3x3_s2_0_split_0
I1028 13:33:51.224480 28202 net.cpp:411] inception_4a/1x1 -> inception_4a/1x1
I1028 13:33:51.226480 28202 cudnn_conv_layer.cpp:194] Reallocating workspace storage: 10080
I1028 13:33:51.226686 28202 net.cpp:150] Setting up inception_4a/1x1
I1028 13:33:51.226698 28202 net.cpp:157] Top shape: 32 192 14 14 (1204224)
I1028 13:33:51.226703 28202 net.cpp:165] Memory required for data: 1144013312
I1028 13:33:51.226711 28202 layer_factory.hpp:76] Creating layer inception_4a/prelu_1x1
I1028 13:33:51.226721 28202 net.cpp:106] Creating Layer inception_4a/prelu_1x1
I1028 13:33:51.226725 28202 net.cpp:454] inception_4a/prelu_1x1 <- inception_4a/1x1
I1028 13:33:51.226732 28202 net.cpp:397] inception_4a/prelu_1x1 -> inception_4a/1x1 (in-place)
I1028 13:33:51.227303 28202 net.cpp:150] Setting up inception_4a/prelu_1x1
I1028 13:33:51.227315 28202 net.cpp:157] Top shape: 32 192 14 14 (1204224)
I1028 13:33:51.227319 28202 net.cpp:165] Memory required for data: 1148830208
I1028 13:33:51.227325 28202 layer_factory.hpp:76] Creating layer inception_4a/3x3_reduce
I1028 13:33:51.227337 28202 net.cpp:106] Creating Layer inception_4a/3x3_reduce
I1028 13:33:51.227342 28202 net.cpp:454] inception_4a/3x3_reduce <- pool3/3x3_s2_pool3/3x3_s2_0_split_1
I1028 13:33:51.227349 28202 net.cpp:411] inception_4a/3x3_reduce -> inception_4a/3x3_reduce
I1028 13:33:51.228624 28202 cudnn_conv_layer.cpp:194] Reallocating workspace storage: 10080
I1028 13:33:51.228658 28202 net.cpp:150] Setting up inception_4a/3x3_reduce
I1028 13:33:51.228667 28202 net.cpp:157] Top shape: 32 96 14 14 (602112)
I1028 13:33:51.228672 28202 net.cpp:165] Memory required for data: 1151238656
I1028 13:33:51.228678 28202 layer_factory.hpp:76] Creating layer inception_4a/prelu_3x3_reduce
I1028 13:33:51.228688 28202 net.cpp:106] Creating Layer inception_4a/prelu_3x3_reduce
I1028 13:33:51.228693 28202 net.cpp:454] inception_4a/prelu_3x3_reduce <- inception_4a/3x3_reduce
I1028 13:33:51.228699 28202 net.cpp:397] inception_4a/prelu_3x3_reduce -> inception_4a/3x3_reduce (in-place)
I1028 13:33:51.228812 28202 net.cpp:150] Setting up inception_4a/prelu_3x3_reduce
I1028 13:33:51.228822 28202 net.cpp:157] Top shape: 32 96 14 14 (602112)
I1028 13:33:51.228826 28202 net.cpp:165] Memory required for data: 1153647104
I1028 13:33:51.228832 28202 layer_factory.hpp:76] Creating layer inception_4a/3x3
I1028 13:33:51.228840 28202 net.cpp:106] Creating Layer inception_4a/3x3
I1028 13:33:51.228844 28202 net.cpp:454] inception_4a/3x3 <- inception_4a/3x3_reduce
I1028 13:33:51.228852 28202 net.cpp:411] inception_4a/3x3 -> inception_4a/3x3
I1028 13:33:51.231153 28202 cudnn_conv_layer.cpp:194] Reallocating workspace storage: 10080
I1028 13:33:51.231180 28202 net.cpp:150] Setting up inception_4a/3x3
I1028 13:33:51.231187 28202 net.cpp:157] Top shape: 32 208 14 14 (1304576)
I1028 13:33:51.231191 28202 net.cpp:165] Memory required for data: 1158865408
I1028 13:33:51.231199 28202 layer_factory.hpp:76] Creating layer inception_4a/prelu_3x3
I1028 13:33:51.231206 28202 net.cpp:106] Creating Layer inception_4a/prelu_3x3
I1028 13:33:51.231211 28202 net.cpp:454] inception_4a/prelu_3x3 <- inception_4a/3x3
I1028 13:33:51.231219 28202 net.cpp:397] inception_4a/prelu_3x3 -> inception_4a/3x3 (in-place)
I1028 13:33:51.231323 28202 net.cpp:150] Setting up inception_4a/prelu_3x3
I1028 13:33:51.231333 28202 net.cpp:157] Top shape: 32 208 14 14 (1304576)
I1028 13:33:51.231338 28202 net.cpp:165] Memory required for data: 1164083712
I1028 13:33:51.231343 28202 layer_factory.hpp:76] Creating layer inception_4a/5x5_reduce
I1028 13:33:51.231350 28202 net.cpp:106] Creating Layer inception_4a/5x5_reduce
I1028 13:33:51.231355 28202 net.cpp:454] inception_4a/5x5_reduce <- pool3/3x3_s2_pool3/3x3_s2_0_split_2
I1028 13:33:51.231362 28202 net.cpp:411] inception_4a/5x5_reduce -> inception_4a/5x5_reduce
I1028 13:33:51.232379 28202 cudnn_conv_layer.cpp:194] Reallocating workspace storage: 10080
I1028 13:33:51.232403 28202 net.cpp:150] Setting up inception_4a/5x5_reduce
I1028 13:33:51.232413 28202 net.cpp:157] Top shape: 32 16 14 14 (100352)
I1028 13:33:51.232416 28202 net.cpp:165] Memory required for data: 1164485120
I1028 13:33:51.232424 28202 layer_factory.hpp:76] Creating layer inception_4a/prelu_5x5_reduce
I1028 13:33:51.232430 28202 net.cpp:106] Creating Layer inception_4a/prelu_5x5_reduce
I1028 13:33:51.232435 28202 net.cpp:454] inception_4a/prelu_5x5_reduce <- inception_4a/5x5_reduce
I1028 13:33:51.232442 28202 net.cpp:397] inception_4a/prelu_5x5_reduce -> inception_4a/5x5_reduce (in-place)
I1028 13:33:51.232527 28202 net.cpp:150] Setting up inception_4a/prelu_5x5_reduce
I1028 13:33:51.232534 28202 net.cpp:157] Top shape: 32 16 14 14 (100352)
I1028 13:33:51.232538 28202 net.cpp:165] Memory required for data: 1164886528
I1028 13:33:51.232543 28202 layer_factory.hpp:76] Creating layer inception_4a/5x5
I1028 13:33:51.232553 28202 net.cpp:106] Creating Layer inception_4a/5x5
I1028 13:33:51.232558 28202 net.cpp:454] inception_4a/5x5 <- inception_4a/5x5_reduce
I1028 13:33:51.232564 28202 net.cpp:411] inception_4a/5x5 -> inception_4a/5x5
I1028 13:33:51.233654 28202 cudnn_conv_layer.cpp:194] Reallocating workspace storage: 13080
I1028 13:33:51.233676 28202 net.cpp:150] Setting up inception_4a/5x5
I1028 13:33:51.233683 28202 net.cpp:157] Top shape: 32 48 14 14 (301056)
I1028 13:33:51.233688 28202 net.cpp:165] Memory required for data: 1166090752
I1028 13:33:51.233717 28202 layer_factory.hpp:76] Creating layer inception_4a/prelu_5x5
I1028 13:33:51.233726 28202 net.cpp:106] Creating Layer inception_4a/prelu_5x5
I1028 13:33:51.233731 28202 net.cpp:454] inception_4a/prelu_5x5 <- inception_4a/5x5
I1028 13:33:51.233737 28202 net.cpp:397] inception_4a/prelu_5x5 -> inception_4a/5x5 (in-place)
I1028 13:33:51.233858 28202 net.cpp:150] Setting up inception_4a/prelu_5x5
I1028 13:33:51.233870 28202 net.cpp:157] Top shape: 32 48 14 14 (301056)
I1028 13:33:51.233882 28202 net.cpp:165] Memory required for data: 1167294976
I1028 13:33:51.233888 28202 layer_factory.hpp:76] Creating layer inception_4a/pool
I1028 13:33:51.233896 28202 net.cpp:106] Creating Layer inception_4a/pool
I1028 13:33:51.233901 28202 net.cpp:454] inception_4a/pool <- pool3/3x3_s2_pool3/3x3_s2_0_split_3
I1028 13:33:51.233906 28202 net.cpp:411] inception_4a/pool -> inception_4a/pool
I1028 13:33:51.234277 28202 net.cpp:150] Setting up inception_4a/pool
I1028 13:33:51.234288 28202 net.cpp:157] Top shape: 32 480 14 14 (3010560)
I1028 13:33:51.234292 28202 net.cpp:165] Memory required for data: 1179337216
I1028 13:33:51.234297 28202 layer_factory.hpp:76] Creating layer inception_4a/pool_proj
I1028 13:33:51.234315 28202 net.cpp:106] Creating Layer inception_4a/pool_proj
I1028 13:33:51.234320 28202 net.cpp:454] inception_4a/pool_proj <- inception_4a/pool
I1028 13:33:51.234328 28202 net.cpp:411] inception_4a/pool_proj -> inception_4a/pool_proj
I1028 13:33:51.235343 28202 cudnn_conv_layer.cpp:194] Reallocating workspace storage: 10080
I1028 13:33:51.235371 28202 net.cpp:150] Setting up inception_4a/pool_proj
I1028 13:33:51.235378 28202 net.cpp:157] Top shape: 32 64 14 14 (401408)
I1028 13:33:51.235383 28202 net.cpp:165] Memory required for data: 1180942848
I1028 13:33:51.235389 28202 layer_factory.hpp:76] Creating layer inception_4a/prelu_pool_proj
I1028 13:33:51.235407 28202 net.cpp:106] Creating Layer inception_4a/prelu_pool_proj
I1028 13:33:51.235412 28202 net.cpp:454] inception_4a/prelu_pool_proj <- inception_4a/pool_proj
I1028 13:33:51.235419 28202 net.cpp:397] inception_4a/prelu_pool_proj -> inception_4a/pool_proj (in-place)
I1028 13:33:51.235559 28202 net.cpp:150] Setting up inception_4a/prelu_pool_proj
I1028 13:33:51.235568 28202 net.cpp:157] Top shape: 32 64 14 14 (401408)
I1028 13:33:51.235571 28202 net.cpp:165] Memory required for data: 1182548480
I1028 13:33:51.235577 28202 layer_factory.hpp:76] Creating layer inception_4a/output
I1028 13:33:51.235584 28202 net.cpp:106] Creating Layer inception_4a/output
I1028 13:33:51.235589 28202 net.cpp:454] inception_4a/output <- inception_4a/1x1
I1028 13:33:51.235594 28202 net.cpp:454] inception_4a/output <- inception_4a/3x3
I1028 13:33:51.235599 28202 net.cpp:454] inception_4a/output <- inception_4a/5x5
I1028 13:33:51.235604 28202 net.cpp:454] inception_4a/output <- inception_4a/pool_proj
I1028 13:33:51.235608 28202 net.cpp:411] inception_4a/output -> inception_4a/output
I1028 13:33:51.235633 28202 net.cpp:150] Setting up inception_4a/output
I1028 13:33:51.235644 28202 net.cpp:157] Top shape: 32 512 14 14 (3211264)
I1028 13:33:51.235648 28202 net.cpp:165] Memory required for data: 1195393536
I1028 13:33:51.235652 28202 layer_factory.hpp:76] Creating layer inception_4a/output_inception_4a/output_0_split
I1028 13:33:51.235659 28202 net.cpp:106] Creating Layer inception_4a/output_inception_4a/output_0_split
I1028 13:33:51.235663 28202 net.cpp:454] inception_4a/output_inception_4a/output_0_split <- inception_4a/output
I1028 13:33:51.235692 28202 net.cpp:411] inception_4a/output_inception_4a/output_0_split -> inception_4a/output_inception_4a/output_0_split_0
I1028 13:33:51.235700 28202 net.cpp:411] inception_4a/output_inception_4a/output_0_split -> inception_4a/output_inception_4a/output_0_split_1
I1028 13:33:51.235708 28202 net.cpp:411] inception_4a/output_inception_4a/output_0_split -> inception_4a/output_inception_4a/output_0_split_2
I1028 13:33:51.235715 28202 net.cpp:411] inception_4a/output_inception_4a/output_0_split -> inception_4a/output_inception_4a/output_0_split_3
I1028 13:33:51.235733 28202 net.cpp:411] inception_4a/output_inception_4a/output_0_split -> inception_4a/output_inception_4a/output_0_split_4
I1028 13:33:51.235797 28202 net.cpp:150] Setting up inception_4a/output_inception_4a/output_0_split
I1028 13:33:51.235805 28202 net.cpp:157] Top shape: 32 512 14 14 (3211264)
I1028 13:33:51.235810 28202 net.cpp:157] Top shape: 32 512 14 14 (3211264)
I1028 13:33:51.235816 28202 net.cpp:157] Top shape: 32 512 14 14 (3211264)
I1028 13:33:51.235819 28202 net.cpp:157] Top shape: 32 512 14 14 (3211264)
I1028 13:33:51.235824 28202 net.cpp:157] Top shape: 32 512 14 14 (3211264)
I1028 13:33:51.235827 28202 net.cpp:165] Memory required for data: 1259618816
I1028 13:33:51.235831 28202 layer_factory.hpp:76] Creating layer loss1/ave_pool
I1028 13:33:51.235837 28202 net.cpp:106] Creating Layer loss1/ave_pool
I1028 13:33:51.235852 28202 net.cpp:454] loss1/ave_pool <- inception_4a/output_inception_4a/output_0_split_0
I1028 13:33:51.235858 28202 net.cpp:411] loss1/ave_pool -> loss1/ave_pool
I1028 13:33:51.236219 28202 net.cpp:150] Setting up loss1/ave_pool
I1028 13:33:51.236230 28202 net.cpp:157] Top shape: 32 512 4 4 (262144)
I1028 13:33:51.236234 28202 net.cpp:165] Memory required for data: 1260667392
I1028 13:33:51.236238 28202 layer_factory.hpp:76] Creating layer loss1/conv
I1028 13:33:51.236248 28202 net.cpp:106] Creating Layer loss1/conv
I1028 13:33:51.236253 28202 net.cpp:454] loss1/conv <- loss1/ave_pool
I1028 13:33:51.236258 28202 net.cpp:411] loss1/conv -> loss1/conv
I1028 13:33:51.237630 28202 cudnn_conv_layer.cpp:194] Reallocating workspace storage: 6840
I1028 13:33:51.237655 28202 net.cpp:150] Setting up loss1/conv
I1028 13:33:51.237663 28202 net.cpp:157] Top shape: 32 128 4 4 (65536)
I1028 13:33:51.237668 28202 net.cpp:165] Memory required for data: 1260929536
I1028 13:33:51.237686 28202 layer_factory.hpp:76] Creating layer loss1/prelu_conv
I1028 13:33:51.237697 28202 net.cpp:106] Creating Layer loss1/prelu_conv
I1028 13:33:51.237702 28202 net.cpp:454] loss1/prelu_conv <- loss1/conv
I1028 13:33:51.237709 28202 net.cpp:397] loss1/prelu_conv -> loss1/conv (in-place)
I1028 13:33:51.237793 28202 net.cpp:150] Setting up loss1/prelu_conv
I1028 13:33:51.237802 28202 net.cpp:157] Top shape: 32 128 4 4 (65536)
I1028 13:33:51.237807 28202 net.cpp:165] Memory required for data: 1261191680
I1028 13:33:51.237812 28202 layer_factory.hpp:76] Creating layer loss1/fc
I1028 13:33:51.237824 28202 net.cpp:106] Creating Layer loss1/fc
I1028 13:33:51.237829 28202 net.cpp:454] loss1/fc <- loss1/conv
I1028 13:33:51.237834 28202 net.cpp:411] loss1/fc -> loss1/fc
I1028 13:33:51.252823 28202 net.cpp:150] Setting up loss1/fc
I1028 13:33:51.252858 28202 net.cpp:157] Top shape: 32 1024 (32768)
I1028 13:33:51.252863 28202 net.cpp:165] Memory required for data: 1261322752
I1028 13:33:51.252874 28202 layer_factory.hpp:76] Creating layer loss1/prelu_fc
I1028 13:33:51.252888 28202 net.cpp:106] Creating Layer loss1/prelu_fc
I1028 13:33:51.252904 28202 net.cpp:454] loss1/prelu_fc <- loss1/fc
I1028 13:33:51.252913 28202 net.cpp:397] loss1/prelu_fc -> loss1/fc (in-place)
I1028 13:33:51.253010 28202 net.cpp:150] Setting up loss1/prelu_fc
I1028 13:33:51.253017 28202 net.cpp:157] Top shape: 32 1024 (32768)
I1028 13:33:51.253021 28202 net.cpp:165] Memory required for data: 1261453824
I1028 13:33:51.253027 28202 layer_factory.hpp:76] Creating layer loss1/drop_fc
I1028 13:33:51.253053 28202 net.cpp:106] Creating Layer loss1/drop_fc
I1028 13:33:51.253059 28202 net.cpp:454] loss1/drop_fc <- loss1/fc
I1028 13:33:51.253075 28202 net.cpp:397] loss1/drop_fc -> loss1/fc (in-place)
I1028 13:33:51.253123 28202 net.cpp:150] Setting up loss1/drop_fc
I1028 13:33:51.253130 28202 net.cpp:157] Top shape: 32 1024 (32768)
I1028 13:33:51.253134 28202 net.cpp:165] Memory required for data: 1261584896
I1028 13:33:51.253139 28202 layer_factory.hpp:76] Creating layer loss1/classifier2
I1028 13:33:51.253149 28202 net.cpp:106] Creating Layer loss1/classifier2
I1028 13:33:51.253154 28202 net.cpp:454] loss1/classifier2 <- loss1/fc
I1028 13:33:51.253191 28202 net.cpp:411] loss1/classifier2 -> loss1/classifier
I1028 13:33:51.253326 28202 net.cpp:150] Setting up loss1/classifier2
I1028 13:33:51.253337 28202 net.cpp:157] Top shape: 32 2 (64)
I1028 13:33:51.253341 28202 net.cpp:165] Memory required for data: 1261585152
I1028 13:33:51.253348 28202 layer_factory.hpp:76] Creating layer loss1/loss
I1028 13:33:51.253358 28202 net.cpp:106] Creating Layer loss1/loss
I1028 13:33:51.253362 28202 net.cpp:454] loss1/loss <- loss1/classifier
I1028 13:33:51.253368 28202 net.cpp:454] loss1/loss <- label_data_1_split_0
I1028 13:33:51.253375 28202 net.cpp:411] loss1/loss -> loss1/loss1
I1028 13:33:51.253398 28202 layer_factory.hpp:76] Creating layer loss1/loss
I1028 13:33:51.253720 28202 net.cpp:150] Setting up loss1/loss
I1028 13:33:51.253733 28202 net.cpp:157] Top shape: (1)
I1028 13:33:51.253737 28202 net.cpp:160]     with loss weight 0.3
I1028 13:33:51.253762 28202 net.cpp:165] Memory required for data: 1261585156
I1028 13:33:51.253767 28202 layer_factory.hpp:76] Creating layer inception_4b/1x1
I1028 13:33:51.253779 28202 net.cpp:106] Creating Layer inception_4b/1x1
I1028 13:33:51.253784 28202 net.cpp:454] inception_4b/1x1 <- inception_4a/output_inception_4a/output_0_split_1
I1028 13:33:51.253793 28202 net.cpp:411] inception_4b/1x1 -> inception_4b/1x1
I1028 13:33:51.255512 28202 cudnn_conv_layer.cpp:194] Reallocating workspace storage: 10080
I1028 13:33:51.255549 28202 net.cpp:150] Setting up inception_4b/1x1
I1028 13:33:51.255568 28202 net.cpp:157] Top shape: 32 160 14 14 (1003520)
I1028 13:33:51.255573 28202 net.cpp:165] Memory required for data: 1265599236
I1028 13:33:51.255581 28202 layer_factory.hpp:76] Creating layer inception_4b/prelu_1x1
I1028 13:33:51.255591 28202 net.cpp:106] Creating Layer inception_4b/prelu_1x1
I1028 13:33:51.255596 28202 net.cpp:454] inception_4b/prelu_1x1 <- inception_4b/1x1
I1028 13:33:51.255625 28202 net.cpp:397] inception_4b/prelu_1x1 -> inception_4b/1x1 (in-place)
I1028 13:33:51.256299 28202 net.cpp:150] Setting up inception_4b/prelu_1x1
I1028 13:33:51.256312 28202 net.cpp:157] Top shape: 32 160 14 14 (1003520)
I1028 13:33:51.256316 28202 net.cpp:165] Memory required for data: 1269613316
I1028 13:33:51.256322 28202 layer_factory.hpp:76] Creating layer inception_4b/3x3_reduce
I1028 13:33:51.256335 28202 net.cpp:106] Creating Layer inception_4b/3x3_reduce
I1028 13:33:51.256340 28202 net.cpp:454] inception_4b/3x3_reduce <- inception_4a/output_inception_4a/output_0_split_2
I1028 13:33:51.256347 28202 net.cpp:411] inception_4b/3x3_reduce -> inception_4b/3x3_reduce
I1028 13:33:51.257905 28202 cudnn_conv_layer.cpp:194] Reallocating workspace storage: 10080
I1028 13:33:51.257933 28202 net.cpp:150] Setting up inception_4b/3x3_reduce
I1028 13:33:51.257941 28202 net.cpp:157] Top shape: 32 112 14 14 (702464)
I1028 13:33:51.257946 28202 net.cpp:165] Memory required for data: 1272423172
I1028 13:33:51.257952 28202 layer_factory.hpp:76] Creating layer inception_4b/prelu_3x3_reduce
I1028 13:33:51.257961 28202 net.cpp:106] Creating Layer inception_4b/prelu_3x3_reduce
I1028 13:33:51.257966 28202 net.cpp:454] inception_4b/prelu_3x3_reduce <- inception_4b/3x3_reduce
I1028 13:33:51.257973 28202 net.cpp:397] inception_4b/prelu_3x3_reduce -> inception_4b/3x3_reduce (in-place)
I1028 13:33:51.258080 28202 net.cpp:150] Setting up inception_4b/prelu_3x3_reduce
I1028 13:33:51.258090 28202 net.cpp:157] Top shape: 32 112 14 14 (702464)
I1028 13:33:51.258093 28202 net.cpp:165] Memory required for data: 1275233028
I1028 13:33:51.258098 28202 layer_factory.hpp:76] Creating layer inception_4b/3x3
I1028 13:33:51.258108 28202 net.cpp:106] Creating Layer inception_4b/3x3
I1028 13:33:51.258112 28202 net.cpp:454] inception_4b/3x3 <- inception_4b/3x3_reduce
I1028 13:33:51.258119 28202 net.cpp:411] inception_4b/3x3 -> inception_4b/3x3
I1028 13:33:51.260900 28202 cudnn_conv_layer.cpp:194] Reallocating workspace storage: 10080
I1028 13:33:51.260931 28202 net.cpp:150] Setting up inception_4b/3x3
I1028 13:33:51.260938 28202 net.cpp:157] Top shape: 32 224 14 14 (1404928)
I1028 13:33:51.260967 28202 net.cpp:165] Memory required for data: 1280852740
I1028 13:33:51.260975 28202 layer_factory.hpp:76] Creating layer inception_4b/prelu_3x3
I1028 13:33:51.260984 28202 net.cpp:106] Creating Layer inception_4b/prelu_3x3
I1028 13:33:51.260990 28202 net.cpp:454] inception_4b/prelu_3x3 <- inception_4b/3x3
I1028 13:33:51.260998 28202 net.cpp:397] inception_4b/prelu_3x3 -> inception_4b/3x3 (in-place)
I1028 13:33:51.261148 28202 net.cpp:150] Setting up inception_4b/prelu_3x3
I1028 13:33:51.261157 28202 net.cpp:157] Top shape: 32 224 14 14 (1404928)
I1028 13:33:51.261162 28202 net.cpp:165] Memory required for data: 1286472452
I1028 13:33:51.261167 28202 layer_factory.hpp:76] Creating layer inception_4b/5x5_reduce
I1028 13:33:51.261175 28202 net.cpp:106] Creating Layer inception_4b/5x5_reduce
I1028 13:33:51.261180 28202 net.cpp:454] inception_4b/5x5_reduce <- inception_4a/output_inception_4a/output_0_split_3
I1028 13:33:51.261188 28202 net.cpp:411] inception_4b/5x5_reduce -> inception_4b/5x5_reduce
I1028 13:33:51.262095 28202 cudnn_conv_layer.cpp:194] Reallocating workspace storage: 10080
I1028 13:33:51.262118 28202 net.cpp:150] Setting up inception_4b/5x5_reduce
I1028 13:33:51.262125 28202 net.cpp:157] Top shape: 32 24 14 14 (150528)
I1028 13:33:51.262130 28202 net.cpp:165] Memory required for data: 1287074564
I1028 13:33:51.262135 28202 layer_factory.hpp:76] Creating layer inception_4b/prelu_5x5_reduce
I1028 13:33:51.262154 28202 net.cpp:106] Creating Layer inception_4b/prelu_5x5_reduce
I1028 13:33:51.262159 28202 net.cpp:454] inception_4b/prelu_5x5_reduce <- inception_4b/5x5_reduce
I1028 13:33:51.262167 28202 net.cpp:397] inception_4b/prelu_5x5_reduce -> inception_4b/5x5_reduce (in-place)
I1028 13:33:51.262289 28202 net.cpp:150] Setting up inception_4b/prelu_5x5_reduce
I1028 13:33:51.262297 28202 net.cpp:157] Top shape: 32 24 14 14 (150528)
I1028 13:33:51.262301 28202 net.cpp:165] Memory required for data: 1287676676
I1028 13:33:51.262316 28202 layer_factory.hpp:76] Creating layer inception_4b/5x5
I1028 13:33:51.262326 28202 net.cpp:106] Creating Layer inception_4b/5x5
I1028 13:33:51.262331 28202 net.cpp:454] inception_4b/5x5 <- inception_4b/5x5_reduce
I1028 13:33:51.262337 28202 net.cpp:411] inception_4b/5x5 -> inception_4b/5x5
I1028 13:33:51.263607 28202 cudnn_conv_layer.cpp:194] Reallocating workspace storage: 13080
I1028 13:33:51.263633 28202 net.cpp:150] Setting up inception_4b/5x5
I1028 13:33:51.263639 28202 net.cpp:157] Top shape: 32 64 14 14 (401408)
I1028 13:33:51.263643 28202 net.cpp:165] Memory required for data: 1289282308
I1028 13:33:51.263650 28202 layer_factory.hpp:76] Creating layer inception_4b/prelu_5x5
I1028 13:33:51.263658 28202 net.cpp:106] Creating Layer inception_4b/prelu_5x5
I1028 13:33:51.263663 28202 net.cpp:454] inception_4b/prelu_5x5 <- inception_4b/5x5
I1028 13:33:51.263670 28202 net.cpp:397] inception_4b/prelu_5x5 -> inception_4b/5x5 (in-place)
I1028 13:33:51.263772 28202 net.cpp:150] Setting up inception_4b/prelu_5x5
I1028 13:33:51.263782 28202 net.cpp:157] Top shape: 32 64 14 14 (401408)
I1028 13:33:51.263785 28202 net.cpp:165] Memory required for data: 1290887940
I1028 13:33:51.263790 28202 layer_factory.hpp:76] Creating layer inception_4b/pool
I1028 13:33:51.263798 28202 net.cpp:106] Creating Layer inception_4b/pool
I1028 13:33:51.263803 28202 net.cpp:454] inception_4b/pool <- inception_4a/output_inception_4a/output_0_split_4
I1028 13:33:51.263809 28202 net.cpp:411] inception_4b/pool -> inception_4b/pool
I1028 13:33:51.264185 28202 net.cpp:150] Setting up inception_4b/pool
I1028 13:33:51.264196 28202 net.cpp:157] Top shape: 32 512 14 14 (3211264)
I1028 13:33:51.264200 28202 net.cpp:165] Memory required for data: 1303732996
I1028 13:33:51.264205 28202 layer_factory.hpp:76] Creating layer inception_4b/pool_proj
I1028 13:33:51.264225 28202 net.cpp:106] Creating Layer inception_4b/pool_proj
I1028 13:33:51.264230 28202 net.cpp:454] inception_4b/pool_proj <- inception_4b/pool
I1028 13:33:51.264246 28202 net.cpp:411] inception_4b/pool_proj -> inception_4b/pool_proj
I1028 13:33:51.265470 28202 cudnn_conv_layer.cpp:194] Reallocating workspace storage: 10080
I1028 13:33:51.265498 28202 net.cpp:150] Setting up inception_4b/pool_proj
I1028 13:33:51.265507 28202 net.cpp:157] Top shape: 32 64 14 14 (401408)
I1028 13:33:51.265511 28202 net.cpp:165] Memory required for data: 1305338628
I1028 13:33:51.265518 28202 layer_factory.hpp:76] Creating layer inception_4b/prelu_pool_proj
I1028 13:33:51.265545 28202 net.cpp:106] Creating Layer inception_4b/prelu_pool_proj
I1028 13:33:51.265552 28202 net.cpp:454] inception_4b/prelu_pool_proj <- inception_4b/pool_proj
I1028 13:33:51.265558 28202 net.cpp:397] inception_4b/prelu_pool_proj -> inception_4b/pool_proj (in-place)
I1028 13:33:51.265676 28202 net.cpp:150] Setting up inception_4b/prelu_pool_proj
I1028 13:33:51.265687 28202 net.cpp:157] Top shape: 32 64 14 14 (401408)
I1028 13:33:51.265691 28202 net.cpp:165] Memory required for data: 1306944260
I1028 13:33:51.265697 28202 layer_factory.hpp:76] Creating layer inception_4b/output
I1028 13:33:51.265703 28202 net.cpp:106] Creating Layer inception_4b/output
I1028 13:33:51.265707 28202 net.cpp:454] inception_4b/output <- inception_4b/1x1
I1028 13:33:51.265712 28202 net.cpp:454] inception_4b/output <- inception_4b/3x3
I1028 13:33:51.265717 28202 net.cpp:454] inception_4b/output <- inception_4b/5x5
I1028 13:33:51.265722 28202 net.cpp:454] inception_4b/output <- inception_4b/pool_proj
I1028 13:33:51.265727 28202 net.cpp:411] inception_4b/output -> inception_4b/output
I1028 13:33:51.265764 28202 net.cpp:150] Setting up inception_4b/output
I1028 13:33:51.265774 28202 net.cpp:157] Top shape: 32 512 14 14 (3211264)
I1028 13:33:51.265779 28202 net.cpp:165] Memory required for data: 1319789316
I1028 13:33:51.265782 28202 layer_factory.hpp:76] Creating layer inception_4b/output_inception_4b/output_0_split
I1028 13:33:51.265789 28202 net.cpp:106] Creating Layer inception_4b/output_inception_4b/output_0_split
I1028 13:33:51.265794 28202 net.cpp:454] inception_4b/output_inception_4b/output_0_split <- inception_4b/output
I1028 13:33:51.265800 28202 net.cpp:411] inception_4b/output_inception_4b/output_0_split -> inception_4b/output_inception_4b/output_0_split_0
I1028 13:33:51.265818 28202 net.cpp:411] inception_4b/output_inception_4b/output_0_split -> inception_4b/output_inception_4b/output_0_split_1
I1028 13:33:51.265825 28202 net.cpp:411] inception_4b/output_inception_4b/output_0_split -> inception_4b/output_inception_4b/output_0_split_2
I1028 13:33:51.265831 28202 net.cpp:411] inception_4b/output_inception_4b/output_0_split -> inception_4b/output_inception_4b/output_0_split_3
I1028 13:33:51.265908 28202 net.cpp:150] Setting up inception_4b/output_inception_4b/output_0_split
I1028 13:33:51.265916 28202 net.cpp:157] Top shape: 32 512 14 14 (3211264)
I1028 13:33:51.265921 28202 net.cpp:157] Top shape: 32 512 14 14 (3211264)
I1028 13:33:51.265926 28202 net.cpp:157] Top shape: 32 512 14 14 (3211264)
I1028 13:33:51.265931 28202 net.cpp:157] Top shape: 32 512 14 14 (3211264)
I1028 13:33:51.265934 28202 net.cpp:165] Memory required for data: 1371169540
I1028 13:33:51.265938 28202 layer_factory.hpp:76] Creating layer inception_4c/1x1
I1028 13:33:51.265947 28202 net.cpp:106] Creating Layer inception_4c/1x1
I1028 13:33:51.265951 28202 net.cpp:454] inception_4c/1x1 <- inception_4b/output_inception_4b/output_0_split_0
I1028 13:33:51.265969 28202 net.cpp:411] inception_4c/1x1 -> inception_4c/1x1
I1028 13:33:51.267673 28202 cudnn_conv_layer.cpp:194] Reallocating workspace storage: 10080
I1028 13:33:51.267701 28202 net.cpp:150] Setting up inception_4c/1x1
I1028 13:33:51.267709 28202 net.cpp:157] Top shape: 32 128 14 14 (802816)
I1028 13:33:51.267714 28202 net.cpp:165] Memory required for data: 1374380804
I1028 13:33:51.267721 28202 layer_factory.hpp:76] Creating layer inception_4c/prelu_1x1
I1028 13:33:51.267730 28202 net.cpp:106] Creating Layer inception_4c/prelu_1x1
I1028 13:33:51.267735 28202 net.cpp:454] inception_4c/prelu_1x1 <- inception_4c/1x1
I1028 13:33:51.267741 28202 net.cpp:397] inception_4c/prelu_1x1 -> inception_4c/1x1 (in-place)
I1028 13:33:51.267870 28202 net.cpp:150] Setting up inception_4c/prelu_1x1
I1028 13:33:51.267879 28202 net.cpp:157] Top shape: 32 128 14 14 (802816)
I1028 13:33:51.267884 28202 net.cpp:165] Memory required for data: 1377592068
I1028 13:33:51.267889 28202 layer_factory.hpp:76] Creating layer inception_4c/3x3_reduce
I1028 13:33:51.267899 28202 net.cpp:106] Creating Layer inception_4c/3x3_reduce
I1028 13:33:51.267902 28202 net.cpp:454] inception_4c/3x3_reduce <- inception_4b/output_inception_4b/output_0_split_1
I1028 13:33:51.267910 28202 net.cpp:411] inception_4c/3x3_reduce -> inception_4c/3x3_reduce
I1028 13:33:51.269340 28202 cudnn_conv_layer.cpp:194] Reallocating workspace storage: 10080
I1028 13:33:51.269371 28202 net.cpp:150] Setting up inception_4c/3x3_reduce
I1028 13:33:51.269378 28202 net.cpp:157] Top shape: 32 128 14 14 (802816)
I1028 13:33:51.269382 28202 net.cpp:165] Memory required for data: 1380803332
I1028 13:33:51.269390 28202 layer_factory.hpp:76] Creating layer inception_4c/prelu_3x3_reduce
I1028 13:33:51.269412 28202 net.cpp:106] Creating Layer inception_4c/prelu_3x3_reduce
I1028 13:33:51.269418 28202 net.cpp:454] inception_4c/prelu_3x3_reduce <- inception_4c/3x3_reduce
I1028 13:33:51.269425 28202 net.cpp:397] inception_4c/prelu_3x3_reduce -> inception_4c/3x3_reduce (in-place)
I1028 13:33:51.269549 28202 net.cpp:150] Setting up inception_4c/prelu_3x3_reduce
I1028 13:33:51.269559 28202 net.cpp:157] Top shape: 32 128 14 14 (802816)
I1028 13:33:51.269563 28202 net.cpp:165] Memory required for data: 1384014596
I1028 13:33:51.269569 28202 layer_factory.hpp:76] Creating layer inception_4c/3x3
I1028 13:33:51.269580 28202 net.cpp:106] Creating Layer inception_4c/3x3
I1028 13:33:51.269587 28202 net.cpp:454] inception_4c/3x3 <- inception_4c/3x3_reduce
I1028 13:33:51.269593 28202 net.cpp:411] inception_4c/3x3 -> inception_4c/3x3
I1028 13:33:51.273087 28202 cudnn_conv_layer.cpp:194] Reallocating workspace storage: 10080
I1028 13:33:51.273124 28202 net.cpp:150] Setting up inception_4c/3x3
I1028 13:33:51.273133 28202 net.cpp:157] Top shape: 32 256 14 14 (1605632)
I1028 13:33:51.273138 28202 net.cpp:165] Memory required for data: 1390437124
I1028 13:33:51.273145 28202 layer_factory.hpp:76] Creating layer inception_4c/prelu_3x3
I1028 13:33:51.273156 28202 net.cpp:106] Creating Layer inception_4c/prelu_3x3
I1028 13:33:51.273162 28202 net.cpp:454] inception_4c/prelu_3x3 <- inception_4c/3x3
I1028 13:33:51.273169 28202 net.cpp:397] inception_4c/prelu_3x3 -> inception_4c/3x3 (in-place)
I1028 13:33:51.273293 28202 net.cpp:150] Setting up inception_4c/prelu_3x3
I1028 13:33:51.273303 28202 net.cpp:157] Top shape: 32 256 14 14 (1605632)
I1028 13:33:51.273308 28202 net.cpp:165] Memory required for data: 1396859652
I1028 13:33:51.273313 28202 layer_factory.hpp:76] Creating layer inception_4c/5x5_reduce
I1028 13:33:51.273324 28202 net.cpp:106] Creating Layer inception_4c/5x5_reduce
I1028 13:33:51.273329 28202 net.cpp:454] inception_4c/5x5_reduce <- inception_4b/output_inception_4b/output_0_split_2
I1028 13:33:51.273334 28202 net.cpp:411] inception_4c/5x5_reduce -> inception_4c/5x5_reduce
I1028 13:33:51.274502 28202 cudnn_conv_layer.cpp:194] Reallocating workspace storage: 10080
I1028 13:33:51.274530 28202 net.cpp:150] Setting up inception_4c/5x5_reduce
I1028 13:33:51.274538 28202 net.cpp:157] Top shape: 32 24 14 14 (150528)
I1028 13:33:51.274543 28202 net.cpp:165] Memory required for data: 1397461764
I1028 13:33:51.274559 28202 layer_factory.hpp:76] Creating layer inception_4c/prelu_5x5_reduce
I1028 13:33:51.274569 28202 net.cpp:106] Creating Layer inception_4c/prelu_5x5_reduce
I1028 13:33:51.274574 28202 net.cpp:454] inception_4c/prelu_5x5_reduce <- inception_4c/5x5_reduce
I1028 13:33:51.274581 28202 net.cpp:397] inception_4c/prelu_5x5_reduce -> inception_4c/5x5_reduce (in-place)
I1028 13:33:51.274709 28202 net.cpp:150] Setting up inception_4c/prelu_5x5_reduce
I1028 13:33:51.274718 28202 net.cpp:157] Top shape: 32 24 14 14 (150528)
I1028 13:33:51.274723 28202 net.cpp:165] Memory required for data: 1398063876
I1028 13:33:51.274752 28202 layer_factory.hpp:76] Creating layer inception_4c/5x5
I1028 13:33:51.274762 28202 net.cpp:106] Creating Layer inception_4c/5x5
I1028 13:33:51.274767 28202 net.cpp:454] inception_4c/5x5 <- inception_4c/5x5_reduce
I1028 13:33:51.274773 28202 net.cpp:411] inception_4c/5x5 -> inception_4c/5x5
I1028 13:33:51.276504 28202 cudnn_conv_layer.cpp:194] Reallocating workspace storage: 13080
I1028 13:33:51.276532 28202 net.cpp:150] Setting up inception_4c/5x5
I1028 13:33:51.276540 28202 net.cpp:157] Top shape: 32 64 14 14 (401408)
I1028 13:33:51.276543 28202 net.cpp:165] Memory required for data: 1399669508
I1028 13:33:51.276551 28202 layer_factory.hpp:76] Creating layer inception_4c/prelu_5x5
I1028 13:33:51.276571 28202 net.cpp:106] Creating Layer inception_4c/prelu_5x5
I1028 13:33:51.276576 28202 net.cpp:454] inception_4c/prelu_5x5 <- inception_4c/5x5
I1028 13:33:51.276582 28202 net.cpp:397] inception_4c/prelu_5x5 -> inception_4c/5x5 (in-place)
I1028 13:33:51.276702 28202 net.cpp:150] Setting up inception_4c/prelu_5x5
I1028 13:33:51.276710 28202 net.cpp:157] Top shape: 32 64 14 14 (401408)
I1028 13:33:51.276715 28202 net.cpp:165] Memory required for data: 1401275140
I1028 13:33:51.276720 28202 layer_factory.hpp:76] Creating layer inception_4c/pool
I1028 13:33:51.276729 28202 net.cpp:106] Creating Layer inception_4c/pool
I1028 13:33:51.276733 28202 net.cpp:454] inception_4c/pool <- inception_4b/output_inception_4b/output_0_split_3
I1028 13:33:51.276739 28202 net.cpp:411] inception_4c/pool -> inception_4c/pool
I1028 13:33:51.276937 28202 net.cpp:150] Setting up inception_4c/pool
I1028 13:33:51.276947 28202 net.cpp:157] Top shape: 32 512 14 14 (3211264)
I1028 13:33:51.276950 28202 net.cpp:165] Memory required for data: 1414120196
I1028 13:33:51.276954 28202 layer_factory.hpp:76] Creating layer inception_4c/pool_proj
I1028 13:33:51.276963 28202 net.cpp:106] Creating Layer inception_4c/pool_proj
I1028 13:33:51.276968 28202 net.cpp:454] inception_4c/pool_proj <- inception_4c/pool
I1028 13:33:51.276975 28202 net.cpp:411] inception_4c/pool_proj -> inception_4c/pool_proj
I1028 13:33:51.278398 28202 cudnn_conv_layer.cpp:194] Reallocating workspace storage: 10080
I1028 13:33:51.278427 28202 net.cpp:150] Setting up inception_4c/pool_proj
I1028 13:33:51.278437 28202 net.cpp:157] Top shape: 32 64 14 14 (401408)
I1028 13:33:51.278441 28202 net.cpp:165] Memory required for data: 1415725828
I1028 13:33:51.278448 28202 layer_factory.hpp:76] Creating layer inception_4c/prelu_pool_proj
I1028 13:33:51.278466 28202 net.cpp:106] Creating Layer inception_4c/prelu_pool_proj
I1028 13:33:51.278471 28202 net.cpp:454] inception_4c/prelu_pool_proj <- inception_4c/pool_proj
I1028 13:33:51.278478 28202 net.cpp:397] inception_4c/prelu_pool_proj -> inception_4c/pool_proj (in-place)
I1028 13:33:51.278636 28202 net.cpp:150] Setting up inception_4c/prelu_pool_proj
I1028 13:33:51.278650 28202 net.cpp:157] Top shape: 32 64 14 14 (401408)
I1028 13:33:51.278656 28202 net.cpp:165] Memory required for data: 1417331460
I1028 13:33:51.278674 28202 layer_factory.hpp:76] Creating layer inception_4c/output
I1028 13:33:51.278681 28202 net.cpp:106] Creating Layer inception_4c/output
I1028 13:33:51.278687 28202 net.cpp:454] inception_4c/output <- inception_4c/1x1
I1028 13:33:51.278692 28202 net.cpp:454] inception_4c/output <- inception_4c/3x3
I1028 13:33:51.278697 28202 net.cpp:454] inception_4c/output <- inception_4c/5x5
I1028 13:33:51.278700 28202 net.cpp:454] inception_4c/output <- inception_4c/pool_proj
I1028 13:33:51.278705 28202 net.cpp:411] inception_4c/output -> inception_4c/output
I1028 13:33:51.278755 28202 net.cpp:150] Setting up inception_4c/output
I1028 13:33:51.278764 28202 net.cpp:157] Top shape: 32 512 14 14 (3211264)
I1028 13:33:51.278767 28202 net.cpp:165] Memory required for data: 1430176516
I1028 13:33:51.278771 28202 layer_factory.hpp:76] Creating layer inception_4c/output_inception_4c/output_0_split
I1028 13:33:51.278779 28202 net.cpp:106] Creating Layer inception_4c/output_inception_4c/output_0_split
I1028 13:33:51.278808 28202 net.cpp:454] inception_4c/output_inception_4c/output_0_split <- inception_4c/output
I1028 13:33:51.278817 28202 net.cpp:411] inception_4c/output_inception_4c/output_0_split -> inception_4c/output_inception_4c/output_0_split_0
I1028 13:33:51.278825 28202 net.cpp:411] inception_4c/output_inception_4c/output_0_split -> inception_4c/output_inception_4c/output_0_split_1
I1028 13:33:51.278831 28202 net.cpp:411] inception_4c/output_inception_4c/output_0_split -> inception_4c/output_inception_4c/output_0_split_2
I1028 13:33:51.278838 28202 net.cpp:411] inception_4c/output_inception_4c/output_0_split -> inception_4c/output_inception_4c/output_0_split_3
I1028 13:33:51.278910 28202 net.cpp:150] Setting up inception_4c/output_inception_4c/output_0_split
I1028 13:33:51.278919 28202 net.cpp:157] Top shape: 32 512 14 14 (3211264)
I1028 13:33:51.278924 28202 net.cpp:157] Top shape: 32 512 14 14 (3211264)
I1028 13:33:51.278939 28202 net.cpp:157] Top shape: 32 512 14 14 (3211264)
I1028 13:33:51.278944 28202 net.cpp:157] Top shape: 32 512 14 14 (3211264)
I1028 13:33:51.278947 28202 net.cpp:165] Memory required for data: 1481556740
I1028 13:33:51.278952 28202 layer_factory.hpp:76] Creating layer inception_4d/1x1
I1028 13:33:51.278964 28202 net.cpp:106] Creating Layer inception_4d/1x1
I1028 13:33:51.278967 28202 net.cpp:454] inception_4d/1x1 <- inception_4c/output_inception_4c/output_0_split_0
I1028 13:33:51.278975 28202 net.cpp:411] inception_4d/1x1 -> inception_4d/1x1
I1028 13:33:51.280452 28202 cudnn_conv_layer.cpp:194] Reallocating workspace storage: 10080
I1028 13:33:51.280484 28202 net.cpp:150] Setting up inception_4d/1x1
I1028 13:33:51.280493 28202 net.cpp:157] Top shape: 32 112 14 14 (702464)
I1028 13:33:51.280498 28202 net.cpp:165] Memory required for data: 1484366596
I1028 13:33:51.280506 28202 layer_factory.hpp:76] Creating layer inception_4d/prelu_1x1
I1028 13:33:51.280515 28202 net.cpp:106] Creating Layer inception_4d/prelu_1x1
I1028 13:33:51.280524 28202 net.cpp:454] inception_4d/prelu_1x1 <- inception_4d/1x1
I1028 13:33:51.280537 28202 net.cpp:397] inception_4d/prelu_1x1 -> inception_4d/1x1 (in-place)
I1028 13:33:51.280669 28202 net.cpp:150] Setting up inception_4d/prelu_1x1
I1028 13:33:51.280681 28202 net.cpp:157] Top shape: 32 112 14 14 (702464)
I1028 13:33:51.280689 28202 net.cpp:165] Memory required for data: 1487176452
I1028 13:33:51.280700 28202 layer_factory.hpp:76] Creating layer inception_4d/3x3_reduce
I1028 13:33:51.280721 28202 net.cpp:106] Creating Layer inception_4d/3x3_reduce
I1028 13:33:51.280733 28202 net.cpp:454] inception_4d/3x3_reduce <- inception_4c/output_inception_4c/output_0_split_1
I1028 13:33:51.280745 28202 net.cpp:411] inception_4d/3x3_reduce -> inception_4d/3x3_reduce
I1028 13:33:51.282202 28202 cudnn_conv_layer.cpp:194] Reallocating workspace storage: 10080
I1028 13:33:51.282240 28202 net.cpp:150] Setting up inception_4d/3x3_reduce
I1028 13:33:51.282256 28202 net.cpp:157] Top shape: 32 144 14 14 (903168)
I1028 13:33:51.282264 28202 net.cpp:165] Memory required for data: 1490789124
I1028 13:33:51.282277 28202 layer_factory.hpp:76] Creating layer inception_4d/prelu_3x3_reduce
I1028 13:33:51.282299 28202 net.cpp:106] Creating Layer inception_4d/prelu_3x3_reduce
I1028 13:33:51.282310 28202 net.cpp:454] inception_4d/prelu_3x3_reduce <- inception_4d/3x3_reduce
I1028 13:33:51.282325 28202 net.cpp:397] inception_4d/prelu_3x3_reduce -> inception_4d/3x3_reduce (in-place)
I1028 13:33:51.282462 28202 net.cpp:150] Setting up inception_4d/prelu_3x3_reduce
I1028 13:33:51.282474 28202 net.cpp:157] Top shape: 32 144 14 14 (903168)
I1028 13:33:51.282481 28202 net.cpp:165] Memory required for data: 1494401796
I1028 13:33:51.282492 28202 layer_factory.hpp:76] Creating layer inception_4d/3x3
I1028 13:33:51.282508 28202 net.cpp:106] Creating Layer inception_4d/3x3
I1028 13:33:51.282518 28202 net.cpp:454] inception_4d/3x3 <- inception_4d/3x3_reduce
I1028 13:33:51.282531 28202 net.cpp:411] inception_4d/3x3 -> inception_4d/3x3
I1028 13:33:51.286430 28202 cudnn_conv_layer.cpp:194] Reallocating workspace storage: 10080
I1028 13:33:51.286494 28202 net.cpp:150] Setting up inception_4d/3x3
I1028 13:33:51.286511 28202 net.cpp:157] Top shape: 32 288 14 14 (1806336)
I1028 13:33:51.286522 28202 net.cpp:165] Memory required for data: 1501627140
I1028 13:33:51.286538 28202 layer_factory.hpp:76] Creating layer inception_4d/prelu_3x3
I1028 13:33:51.286556 28202 net.cpp:106] Creating Layer inception_4d/prelu_3x3
I1028 13:33:51.286568 28202 net.cpp:454] inception_4d/prelu_3x3 <- inception_4d/3x3
I1028 13:33:51.286583 28202 net.cpp:397] inception_4d/prelu_3x3 -> inception_4d/3x3 (in-place)
I1028 13:33:51.286742 28202 net.cpp:150] Setting up inception_4d/prelu_3x3
I1028 13:33:51.286756 28202 net.cpp:157] Top shape: 32 288 14 14 (1806336)
I1028 13:33:51.286762 28202 net.cpp:165] Memory required for data: 1508852484
I1028 13:33:51.286773 28202 layer_factory.hpp:76] Creating layer inception_4d/5x5_reduce
I1028 13:33:51.286790 28202 net.cpp:106] Creating Layer inception_4d/5x5_reduce
I1028 13:33:51.286799 28202 net.cpp:454] inception_4d/5x5_reduce <- inception_4c/output_inception_4c/output_0_split_2
I1028 13:33:51.286813 28202 net.cpp:411] inception_4d/5x5_reduce -> inception_4d/5x5_reduce
I1028 13:33:51.287966 28202 cudnn_conv_layer.cpp:194] Reallocating workspace storage: 10080
I1028 13:33:51.288000 28202 net.cpp:150] Setting up inception_4d/5x5_reduce
I1028 13:33:51.288014 28202 net.cpp:157] Top shape: 32 32 14 14 (200704)
I1028 13:33:51.288023 28202 net.cpp:165] Memory required for data: 1509655300
I1028 13:33:51.288036 28202 layer_factory.hpp:76] Creating layer inception_4d/prelu_5x5_reduce
I1028 13:33:51.288051 28202 net.cpp:106] Creating Layer inception_4d/prelu_5x5_reduce
I1028 13:33:51.288063 28202 net.cpp:454] inception_4d/prelu_5x5_reduce <- inception_4d/5x5_reduce
I1028 13:33:51.288074 28202 net.cpp:397] inception_4d/prelu_5x5_reduce -> inception_4d/5x5_reduce (in-place)
I1028 13:33:51.288192 28202 net.cpp:150] Setting up inception_4d/prelu_5x5_reduce
I1028 13:33:51.288203 28202 net.cpp:157] Top shape: 32 32 14 14 (200704)
I1028 13:33:51.288210 28202 net.cpp:165] Memory required for data: 1510458116
I1028 13:33:51.288221 28202 layer_factory.hpp:76] Creating layer inception_4d/5x5
I1028 13:33:51.288239 28202 net.cpp:106] Creating Layer inception_4d/5x5
I1028 13:33:51.288249 28202 net.cpp:454] inception_4d/5x5 <- inception_4d/5x5_reduce
I1028 13:33:51.288264 28202 net.cpp:411] inception_4d/5x5 -> inception_4d/5x5
I1028 13:33:51.290171 28202 cudnn_conv_layer.cpp:194] Reallocating workspace storage: 13080
I1028 13:33:51.290220 28202 net.cpp:150] Setting up inception_4d/5x5
I1028 13:33:51.290235 28202 net.cpp:157] Top shape: 32 64 14 14 (401408)
I1028 13:33:51.290243 28202 net.cpp:165] Memory required for data: 1512063748
I1028 13:33:51.290256 28202 layer_factory.hpp:76] Creating layer inception_4d/prelu_5x5
I1028 13:33:51.290271 28202 net.cpp:106] Creating Layer inception_4d/prelu_5x5
I1028 13:33:51.290282 28202 net.cpp:454] inception_4d/prelu_5x5 <- inception_4d/5x5
I1028 13:33:51.290294 28202 net.cpp:397] inception_4d/prelu_5x5 -> inception_4d/5x5 (in-place)
I1028 13:33:51.290416 28202 net.cpp:150] Setting up inception_4d/prelu_5x5
I1028 13:33:51.290427 28202 net.cpp:157] Top shape: 32 64 14 14 (401408)
I1028 13:33:51.290434 28202 net.cpp:165] Memory required for data: 1513669380
I1028 13:33:51.290444 28202 layer_factory.hpp:76] Creating layer inception_4d/pool
I1028 13:33:51.290459 28202 net.cpp:106] Creating Layer inception_4d/pool
I1028 13:33:51.290469 28202 net.cpp:454] inception_4d/pool <- inception_4c/output_inception_4c/output_0_split_3
I1028 13:33:51.290480 28202 net.cpp:411] inception_4d/pool -> inception_4d/pool
I1028 13:33:51.290673 28202 net.cpp:150] Setting up inception_4d/pool
I1028 13:33:51.290684 28202 net.cpp:157] Top shape: 32 512 14 14 (3211264)
I1028 13:33:51.290691 28202 net.cpp:165] Memory required for data: 1526514436
I1028 13:33:51.290699 28202 layer_factory.hpp:76] Creating layer inception_4d/pool_proj
I1028 13:33:51.290714 28202 net.cpp:106] Creating Layer inception_4d/pool_proj
I1028 13:33:51.290722 28202 net.cpp:454] inception_4d/pool_proj <- inception_4d/pool
I1028 13:33:51.290748 28202 net.cpp:411] inception_4d/pool_proj -> inception_4d/pool_proj
I1028 13:33:51.292001 28202 cudnn_conv_layer.cpp:194] Reallocating workspace storage: 10080
I1028 13:33:51.292037 28202 net.cpp:150] Setting up inception_4d/pool_proj
I1028 13:33:51.292049 28202 net.cpp:157] Top shape: 32 64 14 14 (401408)
I1028 13:33:51.292057 28202 net.cpp:165] Memory required for data: 1528120068
I1028 13:33:51.292070 28202 layer_factory.hpp:76] Creating layer inception_4d/prelu_pool_proj
I1028 13:33:51.292083 28202 net.cpp:106] Creating Layer inception_4d/prelu_pool_proj
I1028 13:33:51.292093 28202 net.cpp:454] inception_4d/prelu_pool_proj <- inception_4d/pool_proj
I1028 13:33:51.292107 28202 net.cpp:397] inception_4d/prelu_pool_proj -> inception_4d/pool_proj (in-place)
I1028 13:33:51.292243 28202 net.cpp:150] Setting up inception_4d/prelu_pool_proj
I1028 13:33:51.292255 28202 net.cpp:157] Top shape: 32 64 14 14 (401408)
I1028 13:33:51.292263 28202 net.cpp:165] Memory required for data: 1529725700
I1028 13:33:51.292273 28202 layer_factory.hpp:76] Creating layer inception_4d/output
I1028 13:33:51.292284 28202 net.cpp:106] Creating Layer inception_4d/output
I1028 13:33:51.292292 28202 net.cpp:454] inception_4d/output <- inception_4d/1x1
I1028 13:33:51.292302 28202 net.cpp:454] inception_4d/output <- inception_4d/3x3
I1028 13:33:51.292310 28202 net.cpp:454] inception_4d/output <- inception_4d/5x5
I1028 13:33:51.292320 28202 net.cpp:454] inception_4d/output <- inception_4d/pool_proj
I1028 13:33:51.292330 28202 net.cpp:411] inception_4d/output -> inception_4d/output
I1028 13:33:51.292366 28202 net.cpp:150] Setting up inception_4d/output
I1028 13:33:51.292379 28202 net.cpp:157] Top shape: 32 528 14 14 (3311616)
I1028 13:33:51.292387 28202 net.cpp:165] Memory required for data: 1542972164
I1028 13:33:51.292394 28202 layer_factory.hpp:76] Creating layer inception_4d/output_inception_4d/output_0_split
I1028 13:33:51.292407 28202 net.cpp:106] Creating Layer inception_4d/output_inception_4d/output_0_split
I1028 13:33:51.292414 28202 net.cpp:454] inception_4d/output_inception_4d/output_0_split <- inception_4d/output
I1028 13:33:51.292424 28202 net.cpp:411] inception_4d/output_inception_4d/output_0_split -> inception_4d/output_inception_4d/output_0_split_0
I1028 13:33:51.292436 28202 net.cpp:411] inception_4d/output_inception_4d/output_0_split -> inception_4d/output_inception_4d/output_0_split_1
I1028 13:33:51.292451 28202 net.cpp:411] inception_4d/output_inception_4d/output_0_split -> inception_4d/output_inception_4d/output_0_split_2
I1028 13:33:51.292467 28202 net.cpp:411] inception_4d/output_inception_4d/output_0_split -> inception_4d/output_inception_4d/output_0_split_3
I1028 13:33:51.292481 28202 net.cpp:411] inception_4d/output_inception_4d/output_0_split -> inception_4d/output_inception_4d/output_0_split_4
I1028 13:33:51.292575 28202 net.cpp:150] Setting up inception_4d/output_inception_4d/output_0_split
I1028 13:33:51.292596 28202 net.cpp:157] Top shape: 32 528 14 14 (3311616)
I1028 13:33:51.292606 28202 net.cpp:157] Top shape: 32 528 14 14 (3311616)
I1028 13:33:51.292615 28202 net.cpp:157] Top shape: 32 528 14 14 (3311616)
I1028 13:33:51.292624 28202 net.cpp:157] Top shape: 32 528 14 14 (3311616)
I1028 13:33:51.292632 28202 net.cpp:157] Top shape: 32 528 14 14 (3311616)
I1028 13:33:51.292639 28202 net.cpp:165] Memory required for data: 1609204484
I1028 13:33:51.292646 28202 layer_factory.hpp:76] Creating layer loss2/ave_pool
I1028 13:33:51.292657 28202 net.cpp:106] Creating Layer loss2/ave_pool
I1028 13:33:51.292665 28202 net.cpp:454] loss2/ave_pool <- inception_4d/output_inception_4d/output_0_split_0
I1028 13:33:51.292676 28202 net.cpp:411] loss2/ave_pool -> loss2/ave_pool
I1028 13:33:51.293048 28202 net.cpp:150] Setting up loss2/ave_pool
I1028 13:33:51.293062 28202 net.cpp:157] Top shape: 32 528 4 4 (270336)
I1028 13:33:51.293069 28202 net.cpp:165] Memory required for data: 1610285828
I1028 13:33:51.293077 28202 layer_factory.hpp:76] Creating layer loss2/conv
I1028 13:33:51.293117 28202 net.cpp:106] Creating Layer loss2/conv
I1028 13:33:51.293129 28202 net.cpp:454] loss2/conv <- loss2/ave_pool
I1028 13:33:51.293143 28202 net.cpp:411] loss2/conv -> loss2/conv
I1028 13:33:51.294656 28202 cudnn_conv_layer.cpp:194] Reallocating workspace storage: 6840
I1028 13:33:51.294700 28202 net.cpp:150] Setting up loss2/conv
I1028 13:33:51.294713 28202 net.cpp:157] Top shape: 32 128 4 4 (65536)
I1028 13:33:51.294721 28202 net.cpp:165] Memory required for data: 1610547972
I1028 13:33:51.294734 28202 layer_factory.hpp:76] Creating layer loss2/prelu_conv
I1028 13:33:51.294749 28202 net.cpp:106] Creating Layer loss2/prelu_conv
I1028 13:33:51.294769 28202 net.cpp:454] loss2/prelu_conv <- loss2/conv
I1028 13:33:51.294780 28202 net.cpp:397] loss2/prelu_conv -> loss2/conv (in-place)
I1028 13:33:51.294895 28202 net.cpp:150] Setting up loss2/prelu_conv
I1028 13:33:51.294908 28202 net.cpp:157] Top shape: 32 128 4 4 (65536)
I1028 13:33:51.294914 28202 net.cpp:165] Memory required for data: 1610810116
I1028 13:33:51.294925 28202 layer_factory.hpp:76] Creating layer loss2/fc
I1028 13:33:51.294940 28202 net.cpp:106] Creating Layer loss2/fc
I1028 13:33:51.294950 28202 net.cpp:454] loss2/fc <- loss2/conv
I1028 13:33:51.294965 28202 net.cpp:411] loss2/fc -> loss2/fc
I1028 13:33:51.310847 28202 net.cpp:150] Setting up loss2/fc
I1028 13:33:51.310884 28202 net.cpp:157] Top shape: 32 1024 (32768)
I1028 13:33:51.310892 28202 net.cpp:165] Memory required for data: 1610941188
I1028 13:33:51.310942 28202 layer_factory.hpp:76] Creating layer loss2/prelu_fc
I1028 13:33:51.310968 28202 net.cpp:106] Creating Layer loss2/prelu_fc
I1028 13:33:51.310989 28202 net.cpp:454] loss2/prelu_fc <- loss2/fc
I1028 13:33:51.311003 28202 net.cpp:397] loss2/prelu_fc -> loss2/fc (in-place)
I1028 13:33:51.311108 28202 net.cpp:150] Setting up loss2/prelu_fc
I1028 13:33:51.311120 28202 net.cpp:157] Top shape: 32 1024 (32768)
I1028 13:33:51.311127 28202 net.cpp:165] Memory required for data: 1611072260
I1028 13:33:51.311138 28202 layer_factory.hpp:76] Creating layer loss2/drop_fc
I1028 13:33:51.311152 28202 net.cpp:106] Creating Layer loss2/drop_fc
I1028 13:33:51.311161 28202 net.cpp:454] loss2/drop_fc <- loss2/fc
I1028 13:33:51.311172 28202 net.cpp:397] loss2/drop_fc -> loss2/fc (in-place)
I1028 13:33:51.311211 28202 net.cpp:150] Setting up loss2/drop_fc
I1028 13:33:51.311223 28202 net.cpp:157] Top shape: 32 1024 (32768)
I1028 13:33:51.311229 28202 net.cpp:165] Memory required for data: 1611203332
I1028 13:33:51.311238 28202 layer_factory.hpp:76] Creating layer loss2/classifier2
I1028 13:33:51.311250 28202 net.cpp:106] Creating Layer loss2/classifier2
I1028 13:33:51.311259 28202 net.cpp:454] loss2/classifier2 <- loss2/fc
I1028 13:33:51.311272 28202 net.cpp:411] loss2/classifier2 -> loss2/classifier
I1028 13:33:51.311434 28202 net.cpp:150] Setting up loss2/classifier2
I1028 13:33:51.311445 28202 net.cpp:157] Top shape: 32 2 (64)
I1028 13:33:51.311453 28202 net.cpp:165] Memory required for data: 1611203588
I1028 13:33:51.311465 28202 layer_factory.hpp:76] Creating layer loss2/loss
I1028 13:33:51.311477 28202 net.cpp:106] Creating Layer loss2/loss
I1028 13:33:51.311486 28202 net.cpp:454] loss2/loss <- loss2/classifier
I1028 13:33:51.311496 28202 net.cpp:454] loss2/loss <- label_data_1_split_1
I1028 13:33:51.311506 28202 net.cpp:411] loss2/loss -> loss2/loss1
I1028 13:33:51.311522 28202 layer_factory.hpp:76] Creating layer loss2/loss
I1028 13:33:51.311915 28202 net.cpp:150] Setting up loss2/loss
I1028 13:33:51.311941 28202 net.cpp:157] Top shape: (1)
I1028 13:33:51.311949 28202 net.cpp:160]     with loss weight 0.3
I1028 13:33:51.311967 28202 net.cpp:165] Memory required for data: 1611203592
I1028 13:33:51.311976 28202 layer_factory.hpp:76] Creating layer inception_4e/1x1
I1028 13:33:51.312005 28202 net.cpp:106] Creating Layer inception_4e/1x1
I1028 13:33:51.312016 28202 net.cpp:454] inception_4e/1x1 <- inception_4d/output_inception_4d/output_0_split_1
I1028 13:33:51.312031 28202 net.cpp:411] inception_4e/1x1 -> inception_4e/1x1
I1028 13:33:51.314555 28202 cudnn_conv_layer.cpp:194] Reallocating workspace storage: 10080
I1028 13:33:51.314635 28202 net.cpp:150] Setting up inception_4e/1x1
I1028 13:33:51.314652 28202 net.cpp:157] Top shape: 32 256 14 14 (1605632)
I1028 13:33:51.314664 28202 net.cpp:165] Memory required for data: 1617626120
I1028 13:33:51.314682 28202 layer_factory.hpp:76] Creating layer inception_4e/prelu_1x1
I1028 13:33:51.314703 28202 net.cpp:106] Creating Layer inception_4e/prelu_1x1
I1028 13:33:51.314715 28202 net.cpp:454] inception_4e/prelu_1x1 <- inception_4e/1x1
I1028 13:33:51.314730 28202 net.cpp:397] inception_4e/prelu_1x1 -> inception_4e/1x1 (in-place)
I1028 13:33:51.314924 28202 net.cpp:150] Setting up inception_4e/prelu_1x1
I1028 13:33:51.314936 28202 net.cpp:157] Top shape: 32 256 14 14 (1605632)
I1028 13:33:51.314944 28202 net.cpp:165] Memory required for data: 1624048648
I1028 13:33:51.314954 28202 layer_factory.hpp:76] Creating layer inception_4e/3x3_reduce
I1028 13:33:51.314972 28202 net.cpp:106] Creating Layer inception_4e/3x3_reduce
I1028 13:33:51.314982 28202 net.cpp:454] inception_4e/3x3_reduce <- inception_4d/output_inception_4d/output_0_split_2
I1028 13:33:51.314999 28202 net.cpp:411] inception_4e/3x3_reduce -> inception_4e/3x3_reduce
I1028 13:33:51.316668 28202 cudnn_conv_layer.cpp:194] Reallocating workspace storage: 10080
I1028 13:33:51.316711 28202 net.cpp:150] Setting up inception_4e/3x3_reduce
I1028 13:33:51.316725 28202 net.cpp:157] Top shape: 32 160 14 14 (1003520)
I1028 13:33:51.316732 28202 net.cpp:165] Memory required for data: 1628062728
I1028 13:33:51.316747 28202 layer_factory.hpp:76] Creating layer inception_4e/prelu_3x3_reduce
I1028 13:33:51.316764 28202 net.cpp:106] Creating Layer inception_4e/prelu_3x3_reduce
I1028 13:33:51.316774 28202 net.cpp:454] inception_4e/prelu_3x3_reduce <- inception_4e/3x3_reduce
I1028 13:33:51.316787 28202 net.cpp:397] inception_4e/prelu_3x3_reduce -> inception_4e/3x3_reduce (in-place)
I1028 13:33:51.316926 28202 net.cpp:150] Setting up inception_4e/prelu_3x3_reduce
I1028 13:33:51.316939 28202 net.cpp:157] Top shape: 32 160 14 14 (1003520)
I1028 13:33:51.316946 28202 net.cpp:165] Memory required for data: 1632076808
I1028 13:33:51.316956 28202 layer_factory.hpp:76] Creating layer inception_4e/3x3
I1028 13:33:51.316972 28202 net.cpp:106] Creating Layer inception_4e/3x3
I1028 13:33:51.316982 28202 net.cpp:454] inception_4e/3x3 <- inception_4e/3x3_reduce
I1028 13:33:51.316994 28202 net.cpp:411] inception_4e/3x3 -> inception_4e/3x3
I1028 13:33:51.321426 28202 cudnn_conv_layer.cpp:194] Reallocating workspace storage: 10080
I1028 13:33:51.321487 28202 net.cpp:150] Setting up inception_4e/3x3
I1028 13:33:51.321504 28202 net.cpp:157] Top shape: 32 320 14 14 (2007040)
I1028 13:33:51.321516 28202 net.cpp:165] Memory required for data: 1640104968
I1028 13:33:51.321548 28202 layer_factory.hpp:76] Creating layer inception_4e/prelu_3x3
I1028 13:33:51.321578 28202 net.cpp:106] Creating Layer inception_4e/prelu_3x3
I1028 13:33:51.321598 28202 net.cpp:454] inception_4e/prelu_3x3 <- inception_4e/3x3
I1028 13:33:51.321630 28202 net.cpp:397] inception_4e/prelu_3x3 -> inception_4e/3x3 (in-place)
I1028 13:33:51.321807 28202 net.cpp:150] Setting up inception_4e/prelu_3x3
I1028 13:33:51.321820 28202 net.cpp:157] Top shape: 32 320 14 14 (2007040)
I1028 13:33:51.321827 28202 net.cpp:165] Memory required for data: 1648133128
I1028 13:33:51.321838 28202 layer_factory.hpp:76] Creating layer inception_4e/5x5_reduce
I1028 13:33:51.321854 28202 net.cpp:106] Creating Layer inception_4e/5x5_reduce
I1028 13:33:51.321863 28202 net.cpp:454] inception_4e/5x5_reduce <- inception_4d/output_inception_4d/output_0_split_3
I1028 13:33:51.321877 28202 net.cpp:411] inception_4e/5x5_reduce -> inception_4e/5x5_reduce
I1028 13:33:51.323057 28202 cudnn_conv_layer.cpp:194] Reallocating workspace storage: 10080
I1028 13:33:51.323097 28202 net.cpp:150] Setting up inception_4e/5x5_reduce
I1028 13:33:51.323109 28202 net.cpp:157] Top shape: 32 32 14 14 (200704)
I1028 13:33:51.323119 28202 net.cpp:165] Memory required for data: 1648935944
I1028 13:33:51.323151 28202 layer_factory.hpp:76] Creating layer inception_4e/prelu_5x5_reduce
I1028 13:33:51.323175 28202 net.cpp:106] Creating Layer inception_4e/prelu_5x5_reduce
I1028 13:33:51.323187 28202 net.cpp:454] inception_4e/prelu_5x5_reduce <- inception_4e/5x5_reduce
I1028 13:33:51.323199 28202 net.cpp:397] inception_4e/prelu_5x5_reduce -> inception_4e/5x5_reduce (in-place)
I1028 13:33:51.323346 28202 net.cpp:150] Setting up inception_4e/prelu_5x5_reduce
I1028 13:33:51.323359 28202 net.cpp:157] Top shape: 32 32 14 14 (200704)
I1028 13:33:51.323366 28202 net.cpp:165] Memory required for data: 1649738760
I1028 13:33:51.323385 28202 layer_factory.hpp:76] Creating layer inception_4e/5x5
I1028 13:33:51.323427 28202 net.cpp:106] Creating Layer inception_4e/5x5
I1028 13:33:51.323446 28202 net.cpp:454] inception_4e/5x5 <- inception_4e/5x5_reduce
I1028 13:33:51.323467 28202 net.cpp:411] inception_4e/5x5 -> inception_4e/5x5
I1028 13:33:51.325585 28202 cudnn_conv_layer.cpp:194] Reallocating workspace storage: 13080
I1028 13:33:51.325624 28202 net.cpp:150] Setting up inception_4e/5x5
I1028 13:33:51.325637 28202 net.cpp:157] Top shape: 32 128 14 14 (802816)
I1028 13:33:51.325644 28202 net.cpp:165] Memory required for data: 1652950024
I1028 13:33:51.325669 28202 layer_factory.hpp:76] Creating layer inception_4e/prelu_5x5
I1028 13:33:51.325685 28202 net.cpp:106] Creating Layer inception_4e/prelu_5x5
I1028 13:33:51.325695 28202 net.cpp:454] inception_4e/prelu_5x5 <- inception_4e/5x5
I1028 13:33:51.325706 28202 net.cpp:397] inception_4e/prelu_5x5 -> inception_4e/5x5 (in-place)
I1028 13:33:51.325845 28202 net.cpp:150] Setting up inception_4e/prelu_5x5
I1028 13:33:51.325857 28202 net.cpp:157] Top shape: 32 128 14 14 (802816)
I1028 13:33:51.325865 28202 net.cpp:165] Memory required for data: 1656161288
I1028 13:33:51.325884 28202 layer_factory.hpp:76] Creating layer inception_4e/pool
I1028 13:33:51.325897 28202 net.cpp:106] Creating Layer inception_4e/pool
I1028 13:33:51.325908 28202 net.cpp:454] inception_4e/pool <- inception_4d/output_inception_4d/output_0_split_4
I1028 13:33:51.325922 28202 net.cpp:411] inception_4e/pool -> inception_4e/pool
I1028 13:33:51.326324 28202 net.cpp:150] Setting up inception_4e/pool
I1028 13:33:51.326339 28202 net.cpp:157] Top shape: 32 528 14 14 (3311616)
I1028 13:33:51.326345 28202 net.cpp:165] Memory required for data: 1669407752
I1028 13:33:51.326354 28202 layer_factory.hpp:76] Creating layer inception_4e/pool_proj
I1028 13:33:51.326369 28202 net.cpp:106] Creating Layer inception_4e/pool_proj
I1028 13:33:51.326378 28202 net.cpp:454] inception_4e/pool_proj <- inception_4e/pool
I1028 13:33:51.326393 28202 net.cpp:411] inception_4e/pool_proj -> inception_4e/pool_proj
I1028 13:33:51.327615 28202 cudnn_conv_layer.cpp:194] Reallocating workspace storage: 10080
I1028 13:33:51.327651 28202 net.cpp:150] Setting up inception_4e/pool_proj
I1028 13:33:51.327663 28202 net.cpp:157] Top shape: 32 128 14 14 (802816)
I1028 13:33:51.327672 28202 net.cpp:165] Memory required for data: 1672619016
I1028 13:33:51.327684 28202 layer_factory.hpp:76] Creating layer inception_4e/prelu_pool_proj
I1028 13:33:51.327702 28202 net.cpp:106] Creating Layer inception_4e/prelu_pool_proj
I1028 13:33:51.327711 28202 net.cpp:454] inception_4e/prelu_pool_proj <- inception_4e/pool_proj
I1028 13:33:51.327723 28202 net.cpp:397] inception_4e/prelu_pool_proj -> inception_4e/pool_proj (in-place)
I1028 13:33:51.327843 28202 net.cpp:150] Setting up inception_4e/prelu_pool_proj
I1028 13:33:51.327854 28202 net.cpp:157] Top shape: 32 128 14 14 (802816)
I1028 13:33:51.327862 28202 net.cpp:165] Memory required for data: 1675830280
I1028 13:33:51.327872 28202 layer_factory.hpp:76] Creating layer inception_4e/output
I1028 13:33:51.327883 28202 net.cpp:106] Creating Layer inception_4e/output
I1028 13:33:51.327890 28202 net.cpp:454] inception_4e/output <- inception_4e/1x1
I1028 13:33:51.327900 28202 net.cpp:454] inception_4e/output <- inception_4e/3x3
I1028 13:33:51.327910 28202 net.cpp:454] inception_4e/output <- inception_4e/5x5
I1028 13:33:51.327919 28202 net.cpp:454] inception_4e/output <- inception_4e/pool_proj
I1028 13:33:51.327944 28202 net.cpp:411] inception_4e/output -> inception_4e/output
I1028 13:33:51.327985 28202 net.cpp:150] Setting up inception_4e/output
I1028 13:33:51.327996 28202 net.cpp:157] Top shape: 32 832 14 14 (5218304)
I1028 13:33:51.328004 28202 net.cpp:165] Memory required for data: 1696703496
I1028 13:33:51.328011 28202 layer_factory.hpp:76] Creating layer pool4/3x3_s2
I1028 13:33:51.328024 28202 net.cpp:106] Creating Layer pool4/3x3_s2
I1028 13:33:51.328033 28202 net.cpp:454] pool4/3x3_s2 <- inception_4e/output
I1028 13:33:51.328055 28202 net.cpp:411] pool4/3x3_s2 -> pool4/3x3_s2
I1028 13:33:51.328441 28202 net.cpp:150] Setting up pool4/3x3_s2
I1028 13:33:51.328457 28202 net.cpp:157] Top shape: 32 832 7 7 (1304576)
I1028 13:33:51.328465 28202 net.cpp:165] Memory required for data: 1701921800
I1028 13:33:51.328474 28202 layer_factory.hpp:76] Creating layer pool4/3x3_s2_pool4/3x3_s2_0_split
I1028 13:33:51.328483 28202 net.cpp:106] Creating Layer pool4/3x3_s2_pool4/3x3_s2_0_split
I1028 13:33:51.328491 28202 net.cpp:454] pool4/3x3_s2_pool4/3x3_s2_0_split <- pool4/3x3_s2
I1028 13:33:51.328501 28202 net.cpp:411] pool4/3x3_s2_pool4/3x3_s2_0_split -> pool4/3x3_s2_pool4/3x3_s2_0_split_0
I1028 13:33:51.328513 28202 net.cpp:411] pool4/3x3_s2_pool4/3x3_s2_0_split -> pool4/3x3_s2_pool4/3x3_s2_0_split_1
I1028 13:33:51.328526 28202 net.cpp:411] pool4/3x3_s2_pool4/3x3_s2_0_split -> pool4/3x3_s2_pool4/3x3_s2_0_split_2
I1028 13:33:51.328542 28202 net.cpp:411] pool4/3x3_s2_pool4/3x3_s2_0_split -> pool4/3x3_s2_pool4/3x3_s2_0_split_3
I1028 13:33:51.328618 28202 net.cpp:150] Setting up pool4/3x3_s2_pool4/3x3_s2_0_split
I1028 13:33:51.328629 28202 net.cpp:157] Top shape: 32 832 7 7 (1304576)
I1028 13:33:51.328639 28202 net.cpp:157] Top shape: 32 832 7 7 (1304576)
I1028 13:33:51.328657 28202 net.cpp:157] Top shape: 32 832 7 7 (1304576)
I1028 13:33:51.328666 28202 net.cpp:157] Top shape: 32 832 7 7 (1304576)
I1028 13:33:51.328675 28202 net.cpp:165] Memory required for data: 1722795016
I1028 13:33:51.328681 28202 layer_factory.hpp:76] Creating layer inception_5a/1x1
I1028 13:33:51.328706 28202 net.cpp:106] Creating Layer inception_5a/1x1
I1028 13:33:51.328713 28202 net.cpp:454] inception_5a/1x1 <- pool4/3x3_s2_pool4/3x3_s2_0_split_0
I1028 13:33:51.328727 28202 net.cpp:411] inception_5a/1x1 -> inception_5a/1x1
I1028 13:33:51.331679 28202 cudnn_conv_layer.cpp:194] Reallocating workspace storage: 7428
I1028 13:33:51.331718 28202 net.cpp:150] Setting up inception_5a/1x1
I1028 13:33:51.331732 28202 net.cpp:157] Top shape: 32 256 7 7 (401408)
I1028 13:33:51.331739 28202 net.cpp:165] Memory required for data: 1724400648
I1028 13:33:51.331753 28202 layer_factory.hpp:76] Creating layer inception_5a/prelu_1x1
I1028 13:33:51.331765 28202 net.cpp:106] Creating Layer inception_5a/prelu_1x1
I1028 13:33:51.331775 28202 net.cpp:454] inception_5a/prelu_1x1 <- inception_5a/1x1
I1028 13:33:51.331790 28202 net.cpp:397] inception_5a/prelu_1x1 -> inception_5a/1x1 (in-place)
I1028 13:33:51.332353 28202 net.cpp:150] Setting up inception_5a/prelu_1x1
I1028 13:33:51.332366 28202 net.cpp:157] Top shape: 32 256 7 7 (401408)
I1028 13:33:51.332373 28202 net.cpp:165] Memory required for data: 1726006280
I1028 13:33:51.332384 28202 layer_factory.hpp:76] Creating layer inception_5a/3x3_reduce
I1028 13:33:51.332401 28202 net.cpp:106] Creating Layer inception_5a/3x3_reduce
I1028 13:33:51.332412 28202 net.cpp:454] inception_5a/3x3_reduce <- pool4/3x3_s2_pool4/3x3_s2_0_split_1
I1028 13:33:51.332424 28202 net.cpp:411] inception_5a/3x3_reduce -> inception_5a/3x3_reduce
I1028 13:33:51.334677 28202 cudnn_conv_layer.cpp:194] Reallocating workspace storage: 7428
I1028 13:33:51.334718 28202 net.cpp:150] Setting up inception_5a/3x3_reduce
I1028 13:33:51.334731 28202 net.cpp:157] Top shape: 32 160 7 7 (250880)
I1028 13:33:51.334738 28202 net.cpp:165] Memory required for data: 1727009800
I1028 13:33:51.334751 28202 layer_factory.hpp:76] Creating layer inception_5a/prelu_3x3_reduce
I1028 13:33:51.334766 28202 net.cpp:106] Creating Layer inception_5a/prelu_3x3_reduce
I1028 13:33:51.334789 28202 net.cpp:454] inception_5a/prelu_3x3_reduce <- inception_5a/3x3_reduce
I1028 13:33:51.334801 28202 net.cpp:397] inception_5a/prelu_3x3_reduce -> inception_5a/3x3_reduce (in-place)
I1028 13:33:51.334913 28202 net.cpp:150] Setting up inception_5a/prelu_3x3_reduce
I1028 13:33:51.334925 28202 net.cpp:157] Top shape: 32 160 7 7 (250880)
I1028 13:33:51.334933 28202 net.cpp:165] Memory required for data: 1728013320
I1028 13:33:51.334952 28202 layer_factory.hpp:76] Creating layer inception_5a/3x3
I1028 13:33:51.334967 28202 net.cpp:106] Creating Layer inception_5a/3x3
I1028 13:33:51.334980 28202 net.cpp:454] inception_5a/3x3 <- inception_5a/3x3_reduce
I1028 13:33:51.335005 28202 net.cpp:411] inception_5a/3x3 -> inception_5a/3x3
I1028 13:33:51.339133 28202 cudnn_conv_layer.cpp:194] Reallocating workspace storage: 7788
I1028 13:33:51.339172 28202 net.cpp:150] Setting up inception_5a/3x3
I1028 13:33:51.339186 28202 net.cpp:157] Top shape: 32 320 7 7 (501760)
I1028 13:33:51.339195 28202 net.cpp:165] Memory required for data: 1730020360
I1028 13:33:51.339207 28202 layer_factory.hpp:76] Creating layer inception_5a/prelu_3x3
I1028 13:33:51.339222 28202 net.cpp:106] Creating Layer inception_5a/prelu_3x3
I1028 13:33:51.339234 28202 net.cpp:454] inception_5a/prelu_3x3 <- inception_5a/3x3
I1028 13:33:51.339246 28202 net.cpp:397] inception_5a/prelu_3x3 -> inception_5a/3x3 (in-place)
I1028 13:33:51.339367 28202 net.cpp:150] Setting up inception_5a/prelu_3x3
I1028 13:33:51.339380 28202 net.cpp:157] Top shape: 32 320 7 7 (501760)
I1028 13:33:51.339388 28202 net.cpp:165] Memory required for data: 1732027400
I1028 13:33:51.339398 28202 layer_factory.hpp:76] Creating layer inception_5a/5x5_reduce
I1028 13:33:51.339411 28202 net.cpp:106] Creating Layer inception_5a/5x5_reduce
I1028 13:33:51.339419 28202 net.cpp:454] inception_5a/5x5_reduce <- pool4/3x3_s2_pool4/3x3_s2_0_split_2
I1028 13:33:51.339433 28202 net.cpp:411] inception_5a/5x5_reduce -> inception_5a/5x5_reduce
I1028 13:33:51.340677 28202 cudnn_conv_layer.cpp:194] Reallocating workspace storage: 7428
I1028 13:33:51.340708 28202 net.cpp:150] Setting up inception_5a/5x5_reduce
I1028 13:33:51.340721 28202 net.cpp:157] Top shape: 32 32 7 7 (50176)
I1028 13:33:51.340729 28202 net.cpp:165] Memory required for data: 1732228104
I1028 13:33:51.340742 28202 layer_factory.hpp:76] Creating layer inception_5a/prelu_5x5_reduce
I1028 13:33:51.340757 28202 net.cpp:106] Creating Layer inception_5a/prelu_5x5_reduce
I1028 13:33:51.340769 28202 net.cpp:454] inception_5a/prelu_5x5_reduce <- inception_5a/5x5_reduce
I1028 13:33:51.340782 28202 net.cpp:397] inception_5a/prelu_5x5_reduce -> inception_5a/5x5_reduce (in-place)
I1028 13:33:51.340908 28202 net.cpp:150] Setting up inception_5a/prelu_5x5_reduce
I1028 13:33:51.340919 28202 net.cpp:157] Top shape: 32 32 7 7 (50176)
I1028 13:33:51.340926 28202 net.cpp:165] Memory required for data: 1732428808
I1028 13:33:51.340946 28202 layer_factory.hpp:76] Creating layer inception_5a/5x5
I1028 13:33:51.340962 28202 net.cpp:106] Creating Layer inception_5a/5x5
I1028 13:33:51.340972 28202 net.cpp:454] inception_5a/5x5 <- inception_5a/5x5_reduce
I1028 13:33:51.340984 28202 net.cpp:411] inception_5a/5x5 -> inception_5a/5x5
I1028 13:33:51.342764 28202 cudnn_conv_layer.cpp:194] Reallocating workspace storage: 9804
I1028 13:33:51.342824 28202 net.cpp:150] Setting up inception_5a/5x5
I1028 13:33:51.342839 28202 net.cpp:157] Top shape: 32 128 7 7 (200704)
I1028 13:33:51.342846 28202 net.cpp:165] Memory required for data: 1733231624
I1028 13:33:51.342870 28202 layer_factory.hpp:76] Creating layer inception_5a/prelu_5x5
I1028 13:33:51.342887 28202 net.cpp:106] Creating Layer inception_5a/prelu_5x5
I1028 13:33:51.342900 28202 net.cpp:454] inception_5a/prelu_5x5 <- inception_5a/5x5
I1028 13:33:51.342913 28202 net.cpp:397] inception_5a/prelu_5x5 -> inception_5a/5x5 (in-place)
I1028 13:33:51.343039 28202 net.cpp:150] Setting up inception_5a/prelu_5x5
I1028 13:33:51.343050 28202 net.cpp:157] Top shape: 32 128 7 7 (200704)
I1028 13:33:51.343071 28202 net.cpp:165] Memory required for data: 1734034440
I1028 13:33:51.343083 28202 layer_factory.hpp:76] Creating layer inception_5a/pool
I1028 13:33:51.343096 28202 net.cpp:106] Creating Layer inception_5a/pool
I1028 13:33:51.343107 28202 net.cpp:454] inception_5a/pool <- pool4/3x3_s2_pool4/3x3_s2_0_split_3
I1028 13:33:51.343122 28202 net.cpp:411] inception_5a/pool -> inception_5a/pool
I1028 13:33:51.343324 28202 net.cpp:150] Setting up inception_5a/pool
I1028 13:33:51.343338 28202 net.cpp:157] Top shape: 32 832 7 7 (1304576)
I1028 13:33:51.343345 28202 net.cpp:165] Memory required for data: 1739252744
I1028 13:33:51.343353 28202 layer_factory.hpp:76] Creating layer inception_5a/pool_proj
I1028 13:33:51.343369 28202 net.cpp:106] Creating Layer inception_5a/pool_proj
I1028 13:33:51.343379 28202 net.cpp:454] inception_5a/pool_proj <- inception_5a/pool
I1028 13:33:51.343394 28202 net.cpp:411] inception_5a/pool_proj -> inception_5a/pool_proj
I1028 13:33:51.345852 28202 cudnn_conv_layer.cpp:194] Reallocating workspace storage: 7428
I1028 13:33:51.345911 28202 net.cpp:150] Setting up inception_5a/pool_proj
I1028 13:33:51.345938 28202 net.cpp:157] Top shape: 32 128 7 7 (200704)
I1028 13:33:51.345947 28202 net.cpp:165] Memory required for data: 1740055560
I1028 13:33:51.345963 28202 layer_factory.hpp:76] Creating layer inception_5a/prelu_pool_proj
I1028 13:33:51.345999 28202 net.cpp:106] Creating Layer inception_5a/prelu_pool_proj
I1028 13:33:51.346010 28202 net.cpp:454] inception_5a/prelu_pool_proj <- inception_5a/pool_proj
I1028 13:33:51.346060 28202 net.cpp:397] inception_5a/prelu_pool_proj -> inception_5a/pool_proj (in-place)
I1028 13:33:51.346190 28202 net.cpp:150] Setting up inception_5a/prelu_pool_proj
I1028 13:33:51.346204 28202 net.cpp:157] Top shape: 32 128 7 7 (200704)
I1028 13:33:51.346211 28202 net.cpp:165] Memory required for data: 1740858376
I1028 13:33:51.346221 28202 layer_factory.hpp:76] Creating layer inception_5a/output
I1028 13:33:51.346236 28202 net.cpp:106] Creating Layer inception_5a/output
I1028 13:33:51.346247 28202 net.cpp:454] inception_5a/output <- inception_5a/1x1
I1028 13:33:51.346257 28202 net.cpp:454] inception_5a/output <- inception_5a/3x3
I1028 13:33:51.346266 28202 net.cpp:454] inception_5a/output <- inception_5a/5x5
I1028 13:33:51.346276 28202 net.cpp:454] inception_5a/output <- inception_5a/pool_proj
I1028 13:33:51.346287 28202 net.cpp:411] inception_5a/output -> inception_5a/output
I1028 13:33:51.346328 28202 net.cpp:150] Setting up inception_5a/output
I1028 13:33:51.346340 28202 net.cpp:157] Top shape: 32 832 7 7 (1304576)
I1028 13:33:51.346349 28202 net.cpp:165] Memory required for data: 1746076680
I1028 13:33:51.346356 28202 layer_factory.hpp:76] Creating layer inception_5a/output_inception_5a/output_0_split
I1028 13:33:51.346369 28202 net.cpp:106] Creating Layer inception_5a/output_inception_5a/output_0_split
I1028 13:33:51.346376 28202 net.cpp:454] inception_5a/output_inception_5a/output_0_split <- inception_5a/output
I1028 13:33:51.346391 28202 net.cpp:411] inception_5a/output_inception_5a/output_0_split -> inception_5a/output_inception_5a/output_0_split_0
I1028 13:33:51.346405 28202 net.cpp:411] inception_5a/output_inception_5a/output_0_split -> inception_5a/output_inception_5a/output_0_split_1
I1028 13:33:51.346420 28202 net.cpp:411] inception_5a/output_inception_5a/output_0_split -> inception_5a/output_inception_5a/output_0_split_2
I1028 13:33:51.346436 28202 net.cpp:411] inception_5a/output_inception_5a/output_0_split -> inception_5a/output_inception_5a/output_0_split_3
I1028 13:33:51.346514 28202 net.cpp:150] Setting up inception_5a/output_inception_5a/output_0_split
I1028 13:33:51.346526 28202 net.cpp:157] Top shape: 32 832 7 7 (1304576)
I1028 13:33:51.346536 28202 net.cpp:157] Top shape: 32 832 7 7 (1304576)
I1028 13:33:51.346545 28202 net.cpp:157] Top shape: 32 832 7 7 (1304576)
I1028 13:33:51.346555 28202 net.cpp:157] Top shape: 32 832 7 7 (1304576)
I1028 13:33:51.346562 28202 net.cpp:165] Memory required for data: 1766949896
I1028 13:33:51.346588 28202 layer_factory.hpp:76] Creating layer inception_5b/1x1
I1028 13:33:51.346606 28202 net.cpp:106] Creating Layer inception_5b/1x1
I1028 13:33:51.346614 28202 net.cpp:454] inception_5b/1x1 <- inception_5a/output_inception_5a/output_0_split_0
I1028 13:33:51.346627 28202 net.cpp:411] inception_5b/1x1 -> inception_5b/1x1
I1028 13:33:51.350191 28202 cudnn_conv_layer.cpp:194] Reallocating workspace storage: 7428
I1028 13:33:51.350252 28202 net.cpp:150] Setting up inception_5b/1x1
I1028 13:33:51.350265 28202 net.cpp:157] Top shape: 32 384 7 7 (602112)
I1028 13:33:51.350275 28202 net.cpp:165] Memory required for data: 1769358344
I1028 13:33:51.350288 28202 layer_factory.hpp:76] Creating layer inception_5b/prelu_1x1
I1028 13:33:51.350306 28202 net.cpp:106] Creating Layer inception_5b/prelu_1x1
I1028 13:33:51.350317 28202 net.cpp:454] inception_5b/prelu_1x1 <- inception_5b/1x1
I1028 13:33:51.350329 28202 net.cpp:397] inception_5b/prelu_1x1 -> inception_5b/1x1 (in-place)
I1028 13:33:51.350914 28202 net.cpp:150] Setting up inception_5b/prelu_1x1
I1028 13:33:51.350930 28202 net.cpp:157] Top shape: 32 384 7 7 (602112)
I1028 13:33:51.350939 28202 net.cpp:165] Memory required for data: 1771766792
I1028 13:33:51.350950 28202 layer_factory.hpp:76] Creating layer inception_5b/3x3_reduce
I1028 13:33:51.350976 28202 net.cpp:106] Creating Layer inception_5b/3x3_reduce
I1028 13:33:51.350987 28202 net.cpp:454] inception_5b/3x3_reduce <- inception_5a/output_inception_5a/output_0_split_1
I1028 13:33:51.351001 28202 net.cpp:411] inception_5b/3x3_reduce -> inception_5b/3x3_reduce
I1028 13:33:51.353446 28202 cudnn_conv_layer.cpp:194] Reallocating workspace storage: 7428
I1028 13:33:51.353495 28202 net.cpp:150] Setting up inception_5b/3x3_reduce
I1028 13:33:51.353508 28202 net.cpp:157] Top shape: 32 192 7 7 (301056)
I1028 13:33:51.353525 28202 net.cpp:165] Memory required for data: 1772971016
I1028 13:33:51.353539 28202 layer_factory.hpp:76] Creating layer inception_5b/prelu_3x3_reduce
I1028 13:33:51.353556 28202 net.cpp:106] Creating Layer inception_5b/prelu_3x3_reduce
I1028 13:33:51.353567 28202 net.cpp:454] inception_5b/prelu_3x3_reduce <- inception_5b/3x3_reduce
I1028 13:33:51.353584 28202 net.cpp:397] inception_5b/prelu_3x3_reduce -> inception_5b/3x3_reduce (in-place)
I1028 13:33:51.353724 28202 net.cpp:150] Setting up inception_5b/prelu_3x3_reduce
I1028 13:33:51.353736 28202 net.cpp:157] Top shape: 32 192 7 7 (301056)
I1028 13:33:51.353744 28202 net.cpp:165] Memory required for data: 1774175240
I1028 13:33:51.353762 28202 layer_factory.hpp:76] Creating layer inception_5b/3x3
I1028 13:33:51.353781 28202 net.cpp:106] Creating Layer inception_5b/3x3
I1028 13:33:51.353790 28202 net.cpp:454] inception_5b/3x3 <- inception_5b/3x3_reduce
I1028 13:33:51.353803 28202 net.cpp:411] inception_5b/3x3 -> inception_5b/3x3
I1028 13:33:51.359815 28202 cudnn_conv_layer.cpp:194] Reallocating workspace storage: 7788
I1028 13:33:51.359881 28202 net.cpp:150] Setting up inception_5b/3x3
I1028 13:33:51.359899 28202 net.cpp:157] Top shape: 32 384 7 7 (602112)
I1028 13:33:51.359910 28202 net.cpp:165] Memory required for data: 1776583688
I1028 13:33:51.359925 28202 layer_factory.hpp:76] Creating layer inception_5b/prelu_3x3
I1028 13:33:51.359964 28202 net.cpp:106] Creating Layer inception_5b/prelu_3x3
I1028 13:33:51.359977 28202 net.cpp:454] inception_5b/prelu_3x3 <- inception_5b/3x3
I1028 13:33:51.359989 28202 net.cpp:397] inception_5b/prelu_3x3 -> inception_5b/3x3 (in-place)
I1028 13:33:51.360143 28202 net.cpp:150] Setting up inception_5b/prelu_3x3
I1028 13:33:51.360155 28202 net.cpp:157] Top shape: 32 384 7 7 (602112)
I1028 13:33:51.360162 28202 net.cpp:165] Memory required for data: 1778992136
I1028 13:33:51.360182 28202 layer_factory.hpp:76] Creating layer inception_5b/5x5_reduce
I1028 13:33:51.360198 28202 net.cpp:106] Creating Layer inception_5b/5x5_reduce
I1028 13:33:51.360208 28202 net.cpp:454] inception_5b/5x5_reduce <- inception_5a/output_inception_5a/output_0_split_2
I1028 13:33:51.360220 28202 net.cpp:411] inception_5b/5x5_reduce -> inception_5b/5x5_reduce
I1028 13:33:51.361393 28202 cudnn_conv_layer.cpp:194] Reallocating workspace storage: 7428
I1028 13:33:51.361435 28202 net.cpp:150] Setting up inception_5b/5x5_reduce
I1028 13:33:51.361448 28202 net.cpp:157] Top shape: 32 48 7 7 (75264)
I1028 13:33:51.361455 28202 net.cpp:165] Memory required for data: 1779293192
I1028 13:33:51.361467 28202 layer_factory.hpp:76] Creating layer inception_5b/prelu_5x5_reduce
I1028 13:33:51.361479 28202 net.cpp:106] Creating Layer inception_5b/prelu_5x5_reduce
I1028 13:33:51.361488 28202 net.cpp:454] inception_5b/prelu_5x5_reduce <- inception_5b/5x5_reduce
I1028 13:33:51.361501 28202 net.cpp:397] inception_5b/prelu_5x5_reduce -> inception_5b/5x5_reduce (in-place)
I1028 13:33:51.361651 28202 net.cpp:150] Setting up inception_5b/prelu_5x5_reduce
I1028 13:33:51.361662 28202 net.cpp:157] Top shape: 32 48 7 7 (75264)
I1028 13:33:51.361670 28202 net.cpp:165] Memory required for data: 1779594248
I1028 13:33:51.361680 28202 layer_factory.hpp:76] Creating layer inception_5b/5x5
I1028 13:33:51.361695 28202 net.cpp:106] Creating Layer inception_5b/5x5
I1028 13:33:51.361704 28202 net.cpp:454] inception_5b/5x5 <- inception_5b/5x5_reduce
I1028 13:33:51.361718 28202 net.cpp:411] inception_5b/5x5 -> inception_5b/5x5
I1028 13:33:51.363693 28202 cudnn_conv_layer.cpp:194] Reallocating workspace storage: 9804
I1028 13:33:51.363726 28202 net.cpp:150] Setting up inception_5b/5x5
I1028 13:33:51.363739 28202 net.cpp:157] Top shape: 32 128 7 7 (200704)
I1028 13:33:51.363746 28202 net.cpp:165] Memory required for data: 1780397064
I1028 13:33:51.363759 28202 layer_factory.hpp:76] Creating layer inception_5b/prelu_5x5
I1028 13:33:51.363773 28202 net.cpp:106] Creating Layer inception_5b/prelu_5x5
I1028 13:33:51.363783 28202 net.cpp:454] inception_5b/prelu_5x5 <- inception_5b/5x5
I1028 13:33:51.363797 28202 net.cpp:397] inception_5b/prelu_5x5 -> inception_5b/5x5 (in-place)
I1028 13:33:51.363914 28202 net.cpp:150] Setting up inception_5b/prelu_5x5
I1028 13:33:51.363925 28202 net.cpp:157] Top shape: 32 128 7 7 (200704)
I1028 13:33:51.363932 28202 net.cpp:165] Memory required for data: 1781199880
I1028 13:33:51.363942 28202 layer_factory.hpp:76] Creating layer inception_5b/pool
I1028 13:33:51.363956 28202 net.cpp:106] Creating Layer inception_5b/pool
I1028 13:33:51.363965 28202 net.cpp:454] inception_5b/pool <- inception_5a/output_inception_5a/output_0_split_3
I1028 13:33:51.363977 28202 net.cpp:411] inception_5b/pool -> inception_5b/pool
I1028 13:33:51.364358 28202 net.cpp:150] Setting up inception_5b/pool
I1028 13:33:51.364372 28202 net.cpp:157] Top shape: 32 832 7 7 (1304576)
I1028 13:33:51.364379 28202 net.cpp:165] Memory required for data: 1786418184
I1028 13:33:51.364387 28202 layer_factory.hpp:76] Creating layer inception_5b/pool_proj
I1028 13:33:51.364403 28202 net.cpp:106] Creating Layer inception_5b/pool_proj
I1028 13:33:51.364423 28202 net.cpp:454] inception_5b/pool_proj <- inception_5b/pool
I1028 13:33:51.364435 28202 net.cpp:411] inception_5b/pool_proj -> inception_5b/pool_proj
I1028 13:33:51.366586 28202 cudnn_conv_layer.cpp:194] Reallocating workspace storage: 7428
I1028 13:33:51.366631 28202 net.cpp:150] Setting up inception_5b/pool_proj
I1028 13:33:51.366642 28202 net.cpp:157] Top shape: 32 128 7 7 (200704)
I1028 13:33:51.366650 28202 net.cpp:165] Memory required for data: 1787221000
I1028 13:33:51.366663 28202 layer_factory.hpp:76] Creating layer inception_5b/prelu_pool_proj
I1028 13:33:51.366677 28202 net.cpp:106] Creating Layer inception_5b/prelu_pool_proj
I1028 13:33:51.366688 28202 net.cpp:454] inception_5b/prelu_pool_proj <- inception_5b/pool_proj
I1028 13:33:51.366701 28202 net.cpp:397] inception_5b/prelu_pool_proj -> inception_5b/pool_proj (in-place)
I1028 13:33:51.366811 28202 net.cpp:150] Setting up inception_5b/prelu_pool_proj
I1028 13:33:51.366822 28202 net.cpp:157] Top shape: 32 128 7 7 (200704)
I1028 13:33:51.366829 28202 net.cpp:165] Memory required for data: 1788023816
I1028 13:33:51.366839 28202 layer_factory.hpp:76] Creating layer inception_5b/output
I1028 13:33:51.366849 28202 net.cpp:106] Creating Layer inception_5b/output
I1028 13:33:51.366871 28202 net.cpp:454] inception_5b/output <- inception_5b/1x1
I1028 13:33:51.366881 28202 net.cpp:454] inception_5b/output <- inception_5b/3x3
I1028 13:33:51.366894 28202 net.cpp:454] inception_5b/output <- inception_5b/5x5
I1028 13:33:51.366902 28202 net.cpp:454] inception_5b/output <- inception_5b/pool_proj
I1028 13:33:51.366914 28202 net.cpp:411] inception_5b/output -> inception_5b/output
I1028 13:33:51.366955 28202 net.cpp:150] Setting up inception_5b/output
I1028 13:33:51.366966 28202 net.cpp:157] Top shape: 32 1024 7 7 (1605632)
I1028 13:33:51.366973 28202 net.cpp:165] Memory required for data: 1794446344
I1028 13:33:51.366981 28202 layer_factory.hpp:76] Creating layer pool5/7x7_s1
I1028 13:33:51.366991 28202 net.cpp:106] Creating Layer pool5/7x7_s1
I1028 13:33:51.366998 28202 net.cpp:454] pool5/7x7_s1 <- inception_5b/output
I1028 13:33:51.367012 28202 net.cpp:411] pool5/7x7_s1 -> pool5/7x7_s1
I1028 13:33:51.367187 28202 net.cpp:150] Setting up pool5/7x7_s1
I1028 13:33:51.367198 28202 net.cpp:157] Top shape: 32 1024 1 1 (32768)
I1028 13:33:51.367207 28202 net.cpp:165] Memory required for data: 1794577416
I1028 13:33:51.367213 28202 layer_factory.hpp:76] Creating layer pool5/drop_7x7_s1
I1028 13:33:51.367226 28202 net.cpp:106] Creating Layer pool5/drop_7x7_s1
I1028 13:33:51.367235 28202 net.cpp:454] pool5/drop_7x7_s1 <- pool5/7x7_s1
I1028 13:33:51.367245 28202 net.cpp:397] pool5/drop_7x7_s1 -> pool5/7x7_s1 (in-place)
I1028 13:33:51.367285 28202 net.cpp:150] Setting up pool5/drop_7x7_s1
I1028 13:33:51.367295 28202 net.cpp:157] Top shape: 32 1024 1 1 (32768)
I1028 13:33:51.367302 28202 net.cpp:165] Memory required for data: 1794708488
I1028 13:33:51.367310 28202 layer_factory.hpp:76] Creating layer loss3/classifier2
I1028 13:33:51.367321 28202 net.cpp:106] Creating Layer loss3/classifier2
I1028 13:33:51.367329 28202 net.cpp:454] loss3/classifier2 <- pool5/7x7_s1
I1028 13:33:51.367342 28202 net.cpp:411] loss3/classifier2 -> loss3/classifier
I1028 13:33:51.367513 28202 net.cpp:150] Setting up loss3/classifier2
I1028 13:33:51.367525 28202 net.cpp:157] Top shape: 32 2 (64)
I1028 13:33:51.367532 28202 net.cpp:165] Memory required for data: 1794708744
I1028 13:33:51.367544 28202 layer_factory.hpp:76] Creating layer loss3/loss3
I1028 13:33:51.367555 28202 net.cpp:106] Creating Layer loss3/loss3
I1028 13:33:51.367563 28202 net.cpp:454] loss3/loss3 <- loss3/classifier
I1028 13:33:51.367573 28202 net.cpp:454] loss3/loss3 <- label_data_1_split_2
I1028 13:33:51.367589 28202 net.cpp:411] loss3/loss3 -> loss3/loss3
…
I1028 13:33:51.372982 28202 net.cpp:322] The NetState phase (1) differed from the phase (0) specified by a rule in layer data
I1028 13:33:51.374047 28202 net.cpp:49] Initializing net from parameters: 
name: "GoogleNet"
state {
  phase: TEST
}
layer {
  name: "data"
  type: "Data"
  top: "data"
  top: "label"
  include {
    phase: TEST
  }
  transform_param {
    mirror: false
    crop_size: 224
    mean_value: 104
    mean_value: 117
    mean_value: 123
  }
  data_param {
    source: "../../LMDB/val_6-lmdb"
    batch_size: 50
    backend: LMDB
  }
}
layer {
  name: "conv1/7x7_s2"
  type: "Convolution"
  bottom: "data"
  top: "conv1/7x7_s2"
  param {
    lr_mult: 1
    decay_mult: 1
  }
  param {
    lr_mult: 2
    decay_mult: 0
  }
  convolution_param {
    num_output: 64
    pad: 3
    kernel_size: 7
    stride: 2
    weight_filler {
      type: "xavier"
    }
    bias_filler {
      type: "constant"
      value: 0.2
    }
  }
}
layer {
  name: "conv1/prelu_7x7"
  type: "PReLU"
  bottom: "conv1/7x7_s2"
  top: "conv1/7x7_s2"
  param {
    lr_mult: 1
    decay_mult: 0
  }
  prelu_param {
    filler {
      type: "constant"
      value: 0.01
    }
  }
}
layer {
  name: "pool1/3x3_s2"
  type: "Pooling"
  bottom: "conv1/7x7_s2"
  top: "pool1/3x3_s2"
  pooling_param {
    pool: MAX
    kernel_size: 3
    stride: 2
  }
}
layer {
  name: "pool1/norm1"
  type: "LRN"
  bottom: "pool1/3x3_s2"
  top: "pool1/norm1"
  lrn_param {
    local_size: 5
    alpha: 0.0001
    beta: 0.75
  }
}
layer {
  name: "conv2/3x3_reduce"
  type: "Convolution"
  bottom: "pool1/norm1"
  top: "conv2/3x3_reduce"
  param {
    lr_mult: 1
    decay_mult: 1
  }
  param {
    lr_mult: 2
    decay_mult: 0
  }
  convolution_param {
    num_output: 64
    kernel_size: 1
    weight_filler {
      type: "xavier"
    }
    bias_filler {
      type: "constant"
      value: 0.2
    }
  }
}
layer {
  name: "conv2/prelu_3x3_reduce"
  type: "PReLU"
  bottom: "conv2/3x3_reduce"
  top: "conv2/3x3_reduce"
  param {
    lr_mult: 1
    decay_mult: 0
  }
  prelu_param {
    filler {
      type: "constant"
      value: 0.01
    }
  }
}
layer {
  name: "conv2/3x3"
  type: "Convolution"
  bottom: "conv2/3x3_reduce"
  top: "conv2/3x3"
  param {
    lr_mult: 1
    decay_mult: 1
  }
  param {
    lr_mult: 2
    decay_mult: 0
  }
  convolution_param {
    num_output: 192
    pad: 1
    kernel_size: 3
    weight_filler {
      type: "xavier"
    }
    bias_filler {
      type: "constant"
      value: 0.2
    }
  }
}
layer {
  name: "conv2/prelu_3x3"
  type: "PReLU"
  bottom: "conv2/3x3"
  top: "conv2/3x3"
  param {
    lr_mult: 1
    decay_mult: 0
  }
  prelu_param {
    filler {
      type: "constant"
      value: 0.01
    }
  }
}
layer {
  name: "conv2/norm2"
  type: "LRN"
  bottom: "conv2/3x3"
  top: "conv2/norm2"
  lrn_param {
    local_size: 5
    alpha: 0.0001
    beta: 0.75
  }
}
layer {
  name: "pool2/3x3_s2"
  type: "Pooling"
  bottom: "conv2/norm2"
  top: "pool2/3x3_s2"
  pooling_param {
    pool: MAX
    kernel_size: 3
    stride: 2
  }
}
layer {
  name: "inception_3a/1x1"
  type: "Convolution"
  bottom: "pool2/3x3_s2"
  top: "inception_3a/1x1"
  param {
    lr_mult: 1
    decay_mult: 1
  }
  param {
    lr_mult: 2
    decay_mult: 0
  }
  convolution_param {
    num_output: 64
    kernel_size: 1
    weight_filler {
      type: "xavier"
    }
    bias_filler {
      type: "constant"
      value: 0.2
    }
  }
}
layer {
  name: "inception_3a/prelu_1x1"
  type: "PReLU"
  bottom: "inception_3a/1x1"
  top: "inception_3a/1x1"
  param {
    lr_mult: 1
    decay_mult: 0
  }
  prelu_param {
    filler {
      type: "constant"
      value: 0.01
    }
  }
}
layer {
  name: "inception_3a/3x3_reduce"
  type: "Convolution"
  bottom: "pool2/3x3_s2"
  top: "inception_3a/3x3_reduce"
  param {
    lr_mult: 1
    decay_mult: 1
  }
  param {
    lr_mult: 2
    decay_mult: 0
  }
  convolution_param {
    num_output: 96
    kernel_size: 1
    weight_filler {
      type: "xavier"
    }
    bias_filler {
      type: "constant"
      value: 0.2
    }
  }
}
layer {
  name: "inception_3a/prelu_3x3_reduce"
  type: "PReLU"
  bottom: "inception_3a/3x3_reduce"
  top: "inception_3a/3x3_reduce"
  param {
    lr_mult: 1
    decay_mult: 0
  }
  prelu_param {
    filler {
      type: "constant"
      value: 0.01
    }
  }
}
layer {
  name: "inception_3a/3x3"
  type: "Convolution"
  bottom: "inception_3a/3x3_reduce"
  top: "inception_3a/3x3"
  param {
    lr_mult: 1
    decay_mult: 1
  }
  param {
    lr_mult: 2
    decay_mult: 0
  }
  convolution_param {
    num_output: 128
    pad: 1
    kernel_size: 3
    weight_filler {
      type: "xavier"
    }
    bias_filler {
      type: "constant"
      value: 0.2
    }
  }
}
layer {
  name: "inception_3a/prelu_3x3"
  type: "PReLU"
  bottom: "inception_3a/3x3"
  top: "inception_3a/3x3"
  param {
    lr_mult: 1
    decay_mult: 0
  }
  prelu_param {
    filler {
      type: "constant"
      value: 0.01
    }
  }
}
layer {
  name: "inception_3a/5x5_reduce"
  type: "Convolution"
  bottom: "pool2/3x3_s2"
  top: "inception_3a/5x5_reduce"
  param {
    lr_mult: 1
    decay_mult: 1
  }
  param {
    lr_mult: 2
    decay_mult: 0
  }
  convolution_param {
    num_output: 16
    kernel_size: 1
    weight_filler {
      type: "xavier"
    }
    bias_filler {
      type: "constant"
      value: 0.2
    }
  }
}
layer {
  name: "inception_3a/prelu_5x5_reduce"
  type: "PReLU"
  bottom: "inception_3a/5x5_reduce"
  top: "inception_3a/5x5_reduce"
  param {
    lr_mult: 1
    decay_mult: 0
  }
  prelu_param {
    filler {
      type: "constant"
      value: 0.01
    }
  }
}
layer {
  name: "inception_3a/5x5"
  type: "Convolution"
  bottom: "inception_3a/5x5_reduce"
  top: "inception_3a/5x5"
  param {
    lr_mult: 1
    decay_mult: 1
  }
  param {
    lr_mult: 2
    decay_mult: 0
  }
  convolution_param {
    num_output: 32
    pad: 2
    kernel_size: 5
    weight_filler {
      type: "xavier"
    }
    bias_filler {
      type: "constant"
      value: 0.2
    }
  }
}
layer {
  name: "inception_3a/prelu_5x5"
  type: "PReLU"
  bottom: "inception_3a/5x5"
  top: "inception_3a/5x5"
  param {
    lr_mult: 1
    decay_mult: 0
  }
  prelu_param {
    filler {
      type: "constant"
      value: 0.01
    }
  }
}
layer {
  name: "inception_3a/pool"
  type: "Pooling"
  bottom: "pool2/3x3_s2"
  top: "inception_3a/pool"
  pooling_param {
    pool: MAX
    kernel_size: 3
    stride: 1
    pad: 1
  }
}
layer {
  name: "inception_3a/pool_proj"
  type: "Convolution"
  bottom: "inception_3a/pool"
  top: "inception_3a/pool_proj"
  param {
    lr_mult: 1
    decay_mult: 1
  }
  param {
    lr_mult: 2
    decay_mult: 0
  }
  convolution_param {
    num_output: 32
    kernel_size: 1
    weight_filler {
      type: "xavier"
    }
    bias_filler {
      type: "constant"
      value: 0.2
    }
  }
}
layer {
  name: "inception_3a/prelu_pool_proj"
  type: "PReLU"
  bottom: "inception_3a/pool_proj"
  top: "inception_3a/pool_proj"
  param {
    lr_mult: 1
    decay_mult: 0
  }
  prelu_param {
    filler {
      type: "constant"
      value: 0.01
    }
  }
}
layer {
  name: "inception_3a/output"
  type: "Concat"
  bottom: "inception_3a/1x1"
  bottom: "inception_3a/3x3"
  bottom: "inception_3a/5x5"
  bottom: "inception_3a/pool_proj"
  top: "inception_3a/output"
}
layer {
  name: "inception_3b/1x1"
  type: "Convolution"
  bottom: "inception_3a/output"
  top: "inception_3b/1x1"
  param {
    lr_mult: 1
    decay_mult: 1
  }
  param {
    lr_mult: 2
    decay_mult: 0
  }
  convolution_param {
    num_output: 128
    kernel_size: 1
    weight_filler {
      type: "xavier"
    }
    bias_filler {
      type: "constant"
      value: 0.2
    }
  }
}
layer {
  name: "inception_3b/prelu_1x1"
  type: "PReLU"
  bottom: "inception_3b/1x1"
  top: "inception_3b/1x1"
  param {
    lr_mult: 1
    decay_mult: 0
  }
  prelu_param {
    filler {
      type: "constant"
      value: 0.01
    }
  }
}
layer {
  name: "inception_3b/3x3_reduce"
  type: "Convolution"
  bottom: "inception_3a/output"
  top: "inception_3b/3x3_reduce"
  param {
    lr_mult: 1
    decay_mult: 1
  }
  param {
    lr_mult: 2
    decay_mult: 0
  }
  convolution_param {
    num_output: 128
    kernel_size: 1
    weight_filler {
      type: "xavier"
    }
    bias_filler {
      type: "constant"
      value: 0.2
    }
  }
}
layer {
  name: "inception_3b/prelu_3x3_reduce"
  type: "PReLU"
  bottom: "inception_3b/3x3_reduce"
  top: "inception_3b/3x3_reduce"
  param {
    lr_mult: 1
    decay_mult: 0
  }
  prelu_param {
    filler {
      type: "constant"
      value: 0.01
    }
  }
}
layer {
  name: "inception_3b/3x3"
  type: "Convolution"
  bottom: "inception_3b/3x3_reduce"
  top: "inception_3b/3x3"
  param {
    lr_mult: 1
    decay_mult: 1
  }
  param {
    lr_mult: 2
    decay_mult: 0
  }
  convolution_param {
    num_output: 192
    pad: 1
    kernel_size: 3
    weight_filler {
      type: "xavier"
    }
…
I1028 13:33:51.692885 28202 net.cpp:106] Creating Layer inception_4c/output
I1028 13:33:51.692893 28202 net.cpp:454] inception_4c/output <- inception_4c/1x1
I1028 13:33:51.692903 28202 net.cpp:454] inception_4c/output <- inception_4c/3x3
I1028 13:33:51.692912 28202 net.cpp:454] inception_4c/output <- inception_4c/5x5
I1028 13:33:51.692921 28202 net.cpp:454] inception_4c/output <- inception_4c/pool_proj
I1028 13:33:51.692934 28202 net.cpp:411] inception_4c/output -> inception_4c/output
I1028 13:33:51.692967 28202 net.cpp:150] Setting up inception_4c/output
I1028 13:33:51.692978 28202 net.cpp:157] Top shape: 50 512 14 14 (5017600)
I1028 13:33:51.692986 28202 net.cpp:165] Memory required for data: 2234652208
I1028 13:33:51.692992 28202 layer_factory.hpp:76] Creating layer inception_4c/output_inception_4c/output_0_split
I1028 13:33:51.693009 28202 net.cpp:106] Creating Layer inception_4c/output_inception_4c/output_0_split
I1028 13:33:51.693019 28202 net.cpp:454] inception_4c/output_inception_4c/output_0_split <- inception_4c/output
I1028 13:33:51.693032 28202 net.cpp:411] inception_4c/output_inception_4c/output_0_split -> inception_4c/output_inception_4c/output_0_split_0
I1028 13:33:51.693045 28202 net.cpp:411] inception_4c/output_inception_4c/output_0_split -> inception_4c/output_inception_4c/output_0_split_1
I1028 13:33:51.693063 28202 net.cpp:411] inception_4c/output_inception_4c/output_0_split -> inception_4c/output_inception_4c/output_0_split_2
I1028 13:33:51.693079 28202 net.cpp:411] inception_4c/output_inception_4c/output_0_split -> inception_4c/output_inception_4c/output_0_split_3
I1028 13:33:51.693198 28202 net.cpp:150] Setting up inception_4c/output_inception_4c/output_0_split
I1028 13:33:51.693212 28202 net.cpp:157] Top shape: 50 512 14 14 (5017600)
I1028 13:33:51.693220 28202 net.cpp:157] Top shape: 50 512 14 14 (5017600)
I1028 13:33:51.693230 28202 net.cpp:157] Top shape: 50 512 14 14 (5017600)
I1028 13:33:51.693248 28202 net.cpp:157] Top shape: 50 512 14 14 (5017600)
I1028 13:33:51.693255 28202 net.cpp:165] Memory required for data: 2314933808
I1028 13:33:51.693264 28202 layer_factory.hpp:76] Creating layer inception_4d/1x1
I1028 13:33:51.693279 28202 net.cpp:106] Creating Layer inception_4d/1x1
I1028 13:33:51.693286 28202 net.cpp:454] inception_4d/1x1 <- inception_4c/output_inception_4c/output_0_split_0
I1028 13:33:51.693311 28202 net.cpp:411] inception_4d/1x1 -> inception_4d/1x1
I1028 13:33:51.695118 28202 cudnn_conv_layer.cpp:194] Reallocating workspace storage: 10080
I1028 13:33:51.695173 28202 net.cpp:150] Setting up inception_4d/1x1
I1028 13:33:51.695185 28202 net.cpp:157] Top shape: 50 112 14 14 (1097600)
I1028 13:33:51.695194 28202 net.cpp:165] Memory required for data: 2319324208
I1028 13:33:51.695209 28202 layer_factory.hpp:76] Creating layer inception_4d/prelu_1x1
I1028 13:33:51.695225 28202 net.cpp:106] Creating Layer inception_4d/prelu_1x1
I1028 13:33:51.695235 28202 net.cpp:454] inception_4d/prelu_1x1 <- inception_4d/1x1
I1028 13:33:51.695250 28202 net.cpp:397] inception_4d/prelu_1x1 -> inception_4d/1x1 (in-place)
I1028 13:33:51.695369 28202 net.cpp:150] Setting up inception_4d/prelu_1x1
I1028 13:33:51.695381 28202 net.cpp:157] Top shape: 50 112 14 14 (1097600)
I1028 13:33:51.695389 28202 net.cpp:165] Memory required for data: 2323714608
I1028 13:33:51.695399 28202 layer_factory.hpp:76] Creating layer inception_4d/3x3_reduce
I1028 13:33:51.695421 28202 net.cpp:106] Creating Layer inception_4d/3x3_reduce
I1028 13:33:51.695430 28202 net.cpp:454] inception_4d/3x3_reduce <- inception_4c/output_inception_4c/output_0_split_1
I1028 13:33:51.695444 28202 net.cpp:411] inception_4d/3x3_reduce -> inception_4d/3x3_reduce
I1028 13:33:51.697211 28202 cudnn_conv_layer.cpp:194] Reallocating workspace storage: 10080
I1028 13:33:51.697257 28202 net.cpp:150] Setting up inception_4d/3x3_reduce
I1028 13:33:51.697270 28202 net.cpp:157] Top shape: 50 144 14 14 (1411200)
I1028 13:33:51.697278 28202 net.cpp:165] Memory required for data: 2329359408
I1028 13:33:51.697291 28202 layer_factory.hpp:76] Creating layer inception_4d/prelu_3x3_reduce
I1028 13:33:51.697305 28202 net.cpp:106] Creating Layer inception_4d/prelu_3x3_reduce
I1028 13:33:51.697319 28202 net.cpp:454] inception_4d/prelu_3x3_reduce <- inception_4d/3x3_reduce
I1028 13:33:51.697330 28202 net.cpp:397] inception_4d/prelu_3x3_reduce -> inception_4d/3x3_reduce (in-place)
I1028 13:33:51.697453 28202 net.cpp:150] Setting up inception_4d/prelu_3x3_reduce
I1028 13:33:51.697463 28202 net.cpp:157] Top shape: 50 144 14 14 (1411200)
I1028 13:33:51.697471 28202 net.cpp:165] Memory required for data: 2335004208
I1028 13:33:51.697481 28202 layer_factory.hpp:76] Creating layer inception_4d/3x3
I1028 13:33:51.697497 28202 net.cpp:106] Creating Layer inception_4d/3x3
I1028 13:33:51.697506 28202 net.cpp:454] inception_4d/3x3 <- inception_4d/3x3_reduce
I1028 13:33:51.697521 28202 net.cpp:411] inception_4d/3x3 -> inception_4d/3x3
I1028 13:33:51.702168 28202 cudnn_conv_layer.cpp:194] Reallocating workspace storage: 10080
I1028 13:33:51.702230 28202 net.cpp:150] Setting up inception_4d/3x3
I1028 13:33:51.702245 28202 net.cpp:157] Top shape: 50 288 14 14 (2822400)
I1028 13:33:51.702253 28202 net.cpp:165] Memory required for data: 2346293808
I1028 13:33:51.702268 28202 layer_factory.hpp:76] Creating layer inception_4d/prelu_3x3
I1028 13:33:51.702286 28202 net.cpp:106] Creating Layer inception_4d/prelu_3x3
I1028 13:33:51.702316 28202 net.cpp:454] inception_4d/prelu_3x3 <- inception_4d/3x3
I1028 13:33:51.702338 28202 net.cpp:397] inception_4d/prelu_3x3 -> inception_4d/3x3 (in-place)
I1028 13:33:51.703377 28202 net.cpp:150] Setting up inception_4d/prelu_3x3
I1028 13:33:51.703392 28202 net.cpp:157] Top shape: 50 288 14 14 (2822400)
I1028 13:33:51.703399 28202 net.cpp:165] Memory required for data: 2357583408
I1028 13:33:51.703419 28202 layer_factory.hpp:76] Creating layer inception_4d/5x5_reduce
I1028 13:33:51.703435 28202 net.cpp:106] Creating Layer inception_4d/5x5_reduce
I1028 13:33:51.703454 28202 net.cpp:454] inception_4d/5x5_reduce <- inception_4c/output_inception_4c/output_0_split_2
I1028 13:33:51.703479 28202 net.cpp:411] inception_4d/5x5_reduce -> inception_4d/5x5_reduce
I1028 13:33:51.705314 28202 cudnn_conv_layer.cpp:194] Reallocating workspace storage: 10080
I1028 13:33:51.705359 28202 net.cpp:150] Setting up inception_4d/5x5_reduce
I1028 13:33:51.705373 28202 net.cpp:157] Top shape: 50 32 14 14 (313600)
I1028 13:33:51.705379 28202 net.cpp:165] Memory required for data: 2358837808
I1028 13:33:51.705392 28202 layer_factory.hpp:76] Creating layer inception_4d/prelu_5x5_reduce
I1028 13:33:51.705407 28202 net.cpp:106] Creating Layer inception_4d/prelu_5x5_reduce
I1028 13:33:51.705418 28202 net.cpp:454] inception_4d/prelu_5x5_reduce <- inception_4d/5x5_reduce
I1028 13:33:51.705430 28202 net.cpp:397] inception_4d/prelu_5x5_reduce -> inception_4d/5x5_reduce (in-place)
I1028 13:33:51.705524 28202 net.cpp:150] Setting up inception_4d/prelu_5x5_reduce
I1028 13:33:51.705535 28202 net.cpp:157] Top shape: 50 32 14 14 (313600)
I1028 13:33:51.705543 28202 net.cpp:165] Memory required for data: 2360092208
I1028 13:33:51.705554 28202 layer_factory.hpp:76] Creating layer inception_4d/5x5
I1028 13:33:51.705571 28202 net.cpp:106] Creating Layer inception_4d/5x5
I1028 13:33:51.705581 28202 net.cpp:454] inception_4d/5x5 <- inception_4d/5x5_reduce
I1028 13:33:51.705593 28202 net.cpp:411] inception_4d/5x5 -> inception_4d/5x5
I1028 13:33:51.706887 28202 cudnn_conv_layer.cpp:194] Reallocating workspace storage: 13080
I1028 13:33:51.706928 28202 net.cpp:150] Setting up inception_4d/5x5
I1028 13:33:51.706941 28202 net.cpp:157] Top shape: 50 64 14 14 (627200)
I1028 13:33:51.706949 28202 net.cpp:165] Memory required for data: 2362601008
I1028 13:33:51.706962 28202 layer_factory.hpp:76] Creating layer inception_4d/prelu_5x5
I1028 13:33:51.706989 28202 net.cpp:106] Creating Layer inception_4d/prelu_5x5
I1028 13:33:51.706998 28202 net.cpp:454] inception_4d/prelu_5x5 <- inception_4d/5x5
I1028 13:33:51.707010 28202 net.cpp:397] inception_4d/prelu_5x5 -> inception_4d/5x5 (in-place)
I1028 13:33:51.707118 28202 net.cpp:150] Setting up inception_4d/prelu_5x5
I1028 13:33:51.707129 28202 net.cpp:157] Top shape: 50 64 14 14 (627200)
I1028 13:33:51.707136 28202 net.cpp:165] Memory required for data: 2365109808
I1028 13:33:51.707156 28202 layer_factory.hpp:76] Creating layer inception_4d/pool
I1028 13:33:51.707171 28202 net.cpp:106] Creating Layer inception_4d/pool
I1028 13:33:51.707183 28202 net.cpp:454] inception_4d/pool <- inception_4c/output_inception_4c/output_0_split_3
I1028 13:33:51.707213 28202 net.cpp:411] inception_4d/pool -> inception_4d/pool
I1028 13:33:51.707720 28202 net.cpp:150] Setting up inception_4d/pool
I1028 13:33:51.707733 28202 net.cpp:157] Top shape: 50 512 14 14 (5017600)
I1028 13:33:51.707741 28202 net.cpp:165] Memory required for data: 2385180208
I1028 13:33:51.707758 28202 layer_factory.hpp:76] Creating layer inception_4d/pool_proj
I1028 13:33:51.707773 28202 net.cpp:106] Creating Layer inception_4d/pool_proj
I1028 13:33:51.707782 28202 net.cpp:454] inception_4d/pool_proj <- inception_4d/pool
I1028 13:33:51.707797 28202 net.cpp:411] inception_4d/pool_proj -> inception_4d/pool_proj
I1028 13:33:51.709475 28202 cudnn_conv_layer.cpp:194] Reallocating workspace storage: 10080
I1028 13:33:51.709538 28202 net.cpp:150] Setting up inception_4d/pool_proj
I1028 13:33:51.709553 28202 net.cpp:157] Top shape: 50 64 14 14 (627200)
I1028 13:33:51.709560 28202 net.cpp:165] Memory required for data: 2387689008
I1028 13:33:51.709578 28202 layer_factory.hpp:76] Creating layer inception_4d/prelu_pool_proj
I1028 13:33:51.709612 28202 net.cpp:106] Creating Layer inception_4d/prelu_pool_proj
I1028 13:33:51.709624 28202 net.cpp:454] inception_4d/prelu_pool_proj <- inception_4d/pool_proj
I1028 13:33:51.709640 28202 net.cpp:397] inception_4d/prelu_pool_proj -> inception_4d/pool_proj (in-place)
I1028 13:33:51.709750 28202 net.cpp:150] Setting up inception_4d/prelu_pool_proj
I1028 13:33:51.709764 28202 net.cpp:157] Top shape: 50 64 14 14 (627200)
I1028 13:33:51.709770 28202 net.cpp:165] Memory required for data: 2390197808
I1028 13:33:51.709782 28202 layer_factory.hpp:76] Creating layer inception_4d/output
I1028 13:33:51.709794 28202 net.cpp:106] Creating Layer inception_4d/output
I1028 13:33:51.709803 28202 net.cpp:454] inception_4d/output <- inception_4d/1x1
I1028 13:33:51.709815 28202 net.cpp:454] inception_4d/output <- inception_4d/3x3
I1028 13:33:51.709825 28202 net.cpp:454] inception_4d/output <- inception_4d/5x5
I1028 13:33:51.709833 28202 net.cpp:454] inception_4d/output <- inception_4d/pool_proj
I1028 13:33:51.709844 28202 net.cpp:411] inception_4d/output -> inception_4d/output
I1028 13:33:51.709882 28202 net.cpp:150] Setting up inception_4d/output
I1028 13:33:51.709895 28202 net.cpp:157] Top shape: 50 528 14 14 (5174400)
I1028 13:33:51.709903 28202 net.cpp:165] Memory required for data: 2410895408
I1028 13:33:51.709911 28202 layer_factory.hpp:76] Creating layer inception_4d/output_inception_4d/output_0_split
I1028 13:33:51.709923 28202 net.cpp:106] Creating Layer inception_4d/output_inception_4d/output_0_split
I1028 13:33:51.709931 28202 net.cpp:454] inception_4d/output_inception_4d/output_0_split <- inception_4d/output
I1028 13:33:51.709942 28202 net.cpp:411] inception_4d/output_inception_4d/output_0_split -> inception_4d/output_inception_4d/output_0_split_0
I1028 13:33:51.709955 28202 net.cpp:411] inception_4d/output_inception_4d/output_0_split -> inception_4d/output_inception_4d/output_0_split_1
I1028 13:33:51.709970 28202 net.cpp:411] inception_4d/output_inception_4d/output_0_split -> inception_4d/output_inception_4d/output_0_split_2
I1028 13:33:51.709990 28202 net.cpp:411] inception_4d/output_inception_4d/output_0_split -> inception_4d/output_inception_4d/output_0_split_3
I1028 13:33:51.710005 28202 net.cpp:411] inception_4d/output_inception_4d/output_0_split -> inception_4d/output_inception_4d/output_0_split_4
I1028 13:33:51.710090 28202 net.cpp:150] Setting up inception_4d/output_inception_4d/output_0_split
I1028 13:33:51.710103 28202 net.cpp:157] Top shape: 50 528 14 14 (5174400)
I1028 13:33:51.710114 28202 net.cpp:157] Top shape: 50 528 14 14 (5174400)
I1028 13:33:51.710124 28202 net.cpp:157] Top shape: 50 528 14 14 (5174400)
I1028 13:33:51.710134 28202 net.cpp:157] Top shape: 50 528 14 14 (5174400)
I1028 13:33:51.710144 28202 net.cpp:157] Top shape: 50 528 14 14 (5174400)
I1028 13:33:51.710150 28202 net.cpp:165] Memory required for data: 2514383408
I1028 13:33:51.710484 28202 layer_factory.hpp:76] Creating layer loss2/ave_pool
I1028 13:33:51.710500 28202 net.cpp:106] Creating Layer loss2/ave_pool
I1028 13:33:51.710510 28202 net.cpp:454] loss2/ave_pool <- inception_4d/output_inception_4d/output_0_split_0
I1028 13:33:51.710523 28202 net.cpp:411] loss2/ave_pool -> loss2/ave_pool
I1028 13:33:51.710750 28202 net.cpp:150] Setting up loss2/ave_pool
I1028 13:33:51.710764 28202 net.cpp:157] Top shape: 50 528 4 4 (422400)
I1028 13:33:51.710772 28202 net.cpp:165] Memory required for data: 2516073008
I1028 13:33:51.710780 28202 layer_factory.hpp:76] Creating layer loss2/conv
I1028 13:33:51.710798 28202 net.cpp:106] Creating Layer loss2/conv
I1028 13:33:51.710806 28202 net.cpp:454] loss2/conv <- loss2/ave_pool
I1028 13:33:51.710819 28202 net.cpp:411] loss2/conv -> loss2/conv
I1028 13:33:51.712522 28202 cudnn_conv_layer.cpp:194] Reallocating workspace storage: 6840
I1028 13:33:51.712609 28202 net.cpp:150] Setting up loss2/conv
I1028 13:33:51.712623 28202 net.cpp:157] Top shape: 50 128 4 4 (102400)
I1028 13:33:51.712631 28202 net.cpp:165] Memory required for data: 2516482608
I1028 13:33:51.712648 28202 layer_factory.hpp:76] Creating layer loss2/prelu_conv
I1028 13:33:51.712683 28202 net.cpp:106] Creating Layer loss2/prelu_conv
I1028 13:33:51.712695 28202 net.cpp:454] loss2/prelu_conv <- loss2/conv
I1028 13:33:51.712712 28202 net.cpp:397] loss2/prelu_conv -> loss2/conv (in-place)
I1028 13:33:51.712841 28202 net.cpp:150] Setting up loss2/prelu_conv
I1028 13:33:51.712853 28202 net.cpp:157] Top shape: 50 128 4 4 (102400)
I1028 13:33:51.712860 28202 net.cpp:165] Memory required for data: 2516892208
I1028 13:33:51.712882 28202 layer_factory.hpp:76] Creating layer loss2/fc
I1028 13:33:51.712899 28202 net.cpp:106] Creating Layer loss2/fc
I1028 13:33:51.712909 28202 net.cpp:454] loss2/fc <- loss2/conv
I1028 13:33:51.712923 28202 net.cpp:411] loss2/fc -> loss2/fc
I1028 13:33:51.742341 28202 net.cpp:150] Setting up loss2/fc
I1028 13:33:51.742388 28202 net.cpp:157] Top shape: 50 1024 (51200)
I1028 13:33:51.742396 28202 net.cpp:165] Memory required for data: 2517097008
I1028 13:33:51.742452 28202 layer_factory.hpp:76] Creating layer loss2/prelu_fc
I1028 13:33:51.742480 28202 net.cpp:106] Creating Layer loss2/prelu_fc
I1028 13:33:51.742492 28202 net.cpp:454] loss2/prelu_fc <- loss2/fc
I1028 13:33:51.742506 28202 net.cpp:397] loss2/prelu_fc -> loss2/fc (in-place)
I1028 13:33:51.742643 28202 net.cpp:150] Setting up loss2/prelu_fc
I1028 13:33:51.742657 28202 net.cpp:157] Top shape: 50 1024 (51200)
I1028 13:33:51.742665 28202 net.cpp:165] Memory required for data: 2517301808
I1028 13:33:51.742674 28202 layer_factory.hpp:76] Creating layer loss2/drop_fc
I1028 13:33:51.742688 28202 net.cpp:106] Creating Layer loss2/drop_fc
I1028 13:33:51.742697 28202 net.cpp:454] loss2/drop_fc <- loss2/fc
I1028 13:33:51.742710 28202 net.cpp:397] loss2/drop_fc -> loss2/fc (in-place)
I1028 13:33:51.742749 28202 net.cpp:150] Setting up loss2/drop_fc
I1028 13:33:51.742760 28202 net.cpp:157] Top shape: 50 1024 (51200)
I1028 13:33:51.742768 28202 net.cpp:165] Memory required for data: 2517506608
I1028 13:33:51.742784 28202 layer_factory.hpp:76] Creating layer loss2/classifier2
I1028 13:33:51.742808 28202 net.cpp:106] Creating Layer loss2/classifier2
I1028 13:33:51.742817 28202 net.cpp:454] loss2/classifier2 <- loss2/fc
I1028 13:33:51.742830 28202 net.cpp:411] loss2/classifier2 -> loss2/classifier
I1028 13:33:51.742976 28202 net.cpp:150] Setting up loss2/classifier2
I1028 13:33:51.742990 28202 net.cpp:157] Top shape: 50 2 (100)
I1028 13:33:51.742998 28202 net.cpp:165] Memory required for data: 2517507008
I1028 13:33:51.743010 28202 layer_factory.hpp:76] Creating layer loss2/classifier_loss2/classifier2_0_split
I1028 13:33:51.743022 28202 net.cpp:106] Creating Layer loss2/classifier_loss2/classifier2_0_split
I1028 13:33:51.743031 28202 net.cpp:454] loss2/classifier_loss2/classifier2_0_split <- loss2/classifier
I1028 13:33:51.743042 28202 net.cpp:411] loss2/classifier_loss2/classifier2_0_split -> loss2/classifier_loss2/classifier2_0_split_0
I1028 13:33:51.743055 28202 net.cpp:411] loss2/classifier_loss2/classifier2_0_split -> loss2/classifier_loss2/classifier2_0_split_1
I1028 13:33:51.743106 28202 net.cpp:150] Setting up loss2/classifier_loss2/classifier2_0_split
I1028 13:33:51.743118 28202 net.cpp:157] Top shape: 50 2 (100)
I1028 13:33:51.743127 28202 net.cpp:157] Top shape: 50 2 (100)
I1028 13:33:51.743135 28202 net.cpp:165] Memory required for data: 2517507808
I1028 13:33:51.743142 28202 layer_factory.hpp:76] Creating layer loss2/loss
I1028 13:33:51.743155 28202 net.cpp:106] Creating Layer loss2/loss
I1028 13:33:51.743165 28202 net.cpp:454] loss2/loss <- loss2/classifier_loss2/classifier2_0_split_0
I1028 13:33:51.743175 28202 net.cpp:454] loss2/loss <- label_data_1_split_2
…
I1028 13:33:51.744117 28202 net.cpp:165] Memory required for data: 2517507816
I1028 13:33:51.744123 28202 layer_factory.hpp:76] Creating layer inception_4e/1x1
I1028 13:33:51.744143 28202 net.cpp:106] Creating Layer inception_4e/1x1
I1028 13:33:51.744153 28202 net.cpp:454] inception_4e/1x1 <- inception_4d/output_inception_4d/output_0_split_1
I1028 13:33:51.744168 28202 net.cpp:411] inception_4e/1x1 -> inception_4e/1x1
I1028 13:33:51.746609 28202 cudnn_conv_layer.cpp:194] Reallocating workspace storage: 10080
I1028 13:33:51.746671 28202 net.cpp:150] Setting up inception_4e/1x1
I1028 13:33:51.746685 28202 net.cpp:157] Top shape: 50 256 14 14 (2508800)
I1028 13:33:51.746691 28202 net.cpp:165] Memory required for data: 2527543016
I1028 13:33:51.746716 28202 layer_factory.hpp:76] Creating layer inception_4e/prelu_1x1
I1028 13:33:51.746733 28202 net.cpp:106] Creating Layer inception_4e/prelu_1x1
I1028 13:33:51.746744 28202 net.cpp:454] inception_4e/prelu_1x1 <- inception_4e/1x1
I1028 13:33:51.746759 28202 net.cpp:397] inception_4e/prelu_1x1 -> inception_4e/1x1 (in-place)
I1028 13:33:51.746917 28202 net.cpp:150] Setting up inception_4e/prelu_1x1
I1028 13:33:51.746930 28202 net.cpp:157] Top shape: 50 256 14 14 (2508800)
I1028 13:33:51.746947 28202 net.cpp:165] Memory required for data: 2537578216
I1028 13:33:51.746958 28202 layer_factory.hpp:76] Creating layer inception_4e/3x3_reduce
I1028 13:33:51.746970 28202 net.cpp:106] Creating Layer inception_4e/3x3_reduce
I1028 13:33:51.746980 28202 net.cpp:454] inception_4e/3x3_reduce <- inception_4d/output_inception_4d/output_0_split_2
I1028 13:33:51.747004 28202 net.cpp:411] inception_4e/3x3_reduce -> inception_4e/3x3_reduce
I1028 13:33:51.748594 28202 cudnn_conv_layer.cpp:194] Reallocating workspace storage: 10080
I1028 13:33:51.748642 28202 net.cpp:150] Setting up inception_4e/3x3_reduce
I1028 13:33:51.748654 28202 net.cpp:157] Top shape: 50 160 14 14 (1568000)
I1028 13:33:51.748662 28202 net.cpp:165] Memory required for data: 2543850216
I1028 13:33:51.748675 28202 layer_factory.hpp:76] Creating layer inception_4e/prelu_3x3_reduce
I1028 13:33:51.748690 28202 net.cpp:106] Creating Layer inception_4e/prelu_3x3_reduce
I1028 13:33:51.748700 28202 net.cpp:454] inception_4e/prelu_3x3_reduce <- inception_4e/3x3_reduce
I1028 13:33:51.748713 28202 net.cpp:397] inception_4e/prelu_3x3_reduce -> inception_4e/3x3_reduce (in-place)
I1028 13:33:51.748836 28202 net.cpp:150] Setting up inception_4e/prelu_3x3_reduce
I1028 13:33:51.748847 28202 net.cpp:157] Top shape: 50 160 14 14 (1568000)
I1028 13:33:51.748854 28202 net.cpp:165] Memory required for data: 2550122216
I1028 13:33:51.748864 28202 layer_factory.hpp:76] Creating layer inception_4e/3x3
I1028 13:33:51.748896 28202 net.cpp:106] Creating Layer inception_4e/3x3
I1028 13:33:51.748904 28202 net.cpp:454] inception_4e/3x3 <- inception_4e/3x3_reduce
I1028 13:33:51.748917 28202 net.cpp:411] inception_4e/3x3 -> inception_4e/3x3
I1028 13:33:51.753511 28202 cudnn_conv_layer.cpp:194] Reallocating workspace storage: 10080
I1028 13:33:51.753597 28202 net.cpp:150] Setting up inception_4e/3x3
I1028 13:33:51.753612 28202 net.cpp:157] Top shape: 50 320 14 14 (3136000)
I1028 13:33:51.753619 28202 net.cpp:165] Memory required for data: 2562666216
I1028 13:33:51.753635 28202 layer_factory.hpp:76] Creating layer inception_4e/prelu_3x3
I1028 13:33:51.753672 28202 net.cpp:106] Creating Layer inception_4e/prelu_3x3
I1028 13:33:51.753684 28202 net.cpp:454] inception_4e/prelu_3x3 <- inception_4e/3x3
I1028 13:33:51.753715 28202 net.cpp:397] inception_4e/prelu_3x3 -> inception_4e/3x3 (in-place)
I1028 13:33:51.754561 28202 net.cpp:150] Setting up inception_4e/prelu_3x3
I1028 13:33:51.754580 28202 net.cpp:157] Top shape: 50 320 14 14 (3136000)
I1028 13:33:51.754587 28202 net.cpp:165] Memory required for data: 2575210216
I1028 13:33:51.754607 28202 layer_factory.hpp:76] Creating layer inception_4e/5x5_reduce
I1028 13:33:51.754626 28202 net.cpp:106] Creating Layer inception_4e/5x5_reduce
I1028 13:33:51.754647 28202 net.cpp:454] inception_4e/5x5_reduce <- inception_4d/output_inception_4d/output_0_split_3
I1028 13:33:51.754672 28202 net.cpp:411] inception_4e/5x5_reduce -> inception_4e/5x5_reduce
I1028 13:33:51.756021 28202 cudnn_conv_layer.cpp:194] Reallocating workspace storage: 10080
I1028 13:33:51.756065 28202 net.cpp:150] Setting up inception_4e/5x5_reduce
I1028 13:33:51.756088 28202 net.cpp:157] Top shape: 50 32 14 14 (313600)
I1028 13:33:51.756094 28202 net.cpp:165] Memory required for data: 2576464616
I1028 13:33:51.756108 28202 layer_factory.hpp:76] Creating layer inception_4e/prelu_5x5_reduce
I1028 13:33:51.756124 28202 net.cpp:106] Creating Layer inception_4e/prelu_5x5_reduce
I1028 13:33:51.756134 28202 net.cpp:454] inception_4e/prelu_5x5_reduce <- inception_4e/5x5_reduce
I1028 13:33:51.756145 28202 net.cpp:397] inception_4e/prelu_5x5_reduce -> inception_4e/5x5_reduce (in-place)
I1028 13:33:51.756250 28202 net.cpp:150] Setting up inception_4e/prelu_5x5_reduce
I1028 13:33:51.756263 28202 net.cpp:157] Top shape: 50 32 14 14 (313600)
I1028 13:33:51.756269 28202 net.cpp:165] Memory required for data: 2577719016
I1028 13:33:51.756280 28202 layer_factory.hpp:76] Creating layer inception_4e/5x5
I1028 13:33:51.756296 28202 net.cpp:106] Creating Layer inception_4e/5x5
I1028 13:33:51.756306 28202 net.cpp:454] inception_4e/5x5 <- inception_4e/5x5_reduce
I1028 13:33:51.756324 28202 net.cpp:411] inception_4e/5x5 -> inception_4e/5x5
I1028 13:33:51.758581 28202 cudnn_conv_layer.cpp:194] Reallocating workspace storage: 13080
I1028 13:33:51.758640 28202 net.cpp:150] Setting up inception_4e/5x5
I1028 13:33:51.758653 28202 net.cpp:157] Top shape: 50 128 14 14 (1254400)
I1028 13:33:51.758662 28202 net.cpp:165] Memory required for data: 2582736616
I1028 13:33:51.758677 28202 layer_factory.hpp:76] Creating layer inception_4e/prelu_5x5
I1028 13:33:51.758698 28202 net.cpp:106] Creating Layer inception_4e/prelu_5x5
I1028 13:33:51.758708 28202 net.cpp:454] inception_4e/prelu_5x5 <- inception_4e/5x5
I1028 13:33:51.758733 28202 net.cpp:397] inception_4e/prelu_5x5 -> inception_4e/5x5 (in-place)
I1028 13:33:51.758862 28202 net.cpp:150] Setting up inception_4e/prelu_5x5
I1028 13:33:51.758874 28202 net.cpp:157] Top shape: 50 128 14 14 (1254400)
I1028 13:33:51.758882 28202 net.cpp:165] Memory required for data: 2587754216
I1028 13:33:51.758903 28202 layer_factory.hpp:76] Creating layer inception_4e/pool
I1028 13:33:51.758916 28202 net.cpp:106] Creating Layer inception_4e/pool
I1028 13:33:51.758929 28202 net.cpp:454] inception_4e/pool <- inception_4d/output_inception_4d/output_0_split_4
I1028 13:33:51.758961 28202 net.cpp:411] inception_4e/pool -> inception_4e/pool
I1028 13:33:51.759188 28202 net.cpp:150] Setting up inception_4e/pool
I1028 13:33:51.759204 28202 net.cpp:157] Top shape: 50 528 14 14 (5174400)
I1028 13:33:51.759212 28202 net.cpp:165] Memory required for data: 2608451816
I1028 13:33:51.759220 28202 layer_factory.hpp:76] Creating layer inception_4e/pool_proj
I1028 13:33:51.759234 28202 net.cpp:106] Creating Layer inception_4e/pool_proj
I1028 13:33:51.759244 28202 net.cpp:454] inception_4e/pool_proj <- inception_4e/pool
I1028 13:33:51.759277 28202 net.cpp:411] inception_4e/pool_proj -> inception_4e/pool_proj
I1028 13:33:51.761004 28202 cudnn_conv_layer.cpp:194] Reallocating workspace storage: 10080
I1028 13:33:51.761054 28202 net.cpp:150] Setting up inception_4e/pool_proj
I1028 13:33:51.761066 28202 net.cpp:157] Top shape: 50 128 14 14 (1254400)
I1028 13:33:51.761075 28202 net.cpp:165] Memory required for data: 2613469416
I1028 13:33:51.761088 28202 layer_factory.hpp:76] Creating layer inception_4e/prelu_pool_proj
I1028 13:33:51.761123 28202 net.cpp:106] Creating Layer inception_4e/prelu_pool_proj
I1028 13:33:51.761134 28202 net.cpp:454] inception_4e/prelu_pool_proj <- inception_4e/pool_proj
I1028 13:33:51.761147 28202 net.cpp:397] inception_4e/prelu_pool_proj -> inception_4e/pool_proj (in-place)
I1028 13:33:51.761255 28202 net.cpp:150] Setting up inception_4e/prelu_pool_proj
I1028 13:33:51.761267 28202 net.cpp:157] Top shape: 50 128 14 14 (1254400)
I1028 13:33:51.761275 28202 net.cpp:165] Memory required for data: 2618487016
I1028 13:33:51.761286 28202 layer_factory.hpp:76] Creating layer inception_4e/output
I1028 13:33:51.761299 28202 net.cpp:106] Creating Layer inception_4e/output
I1028 13:33:51.761308 28202 net.cpp:454] inception_4e/output <- inception_4e/1x1
I1028 13:33:51.761318 28202 net.cpp:454] inception_4e/output <- inception_4e/3x3
I1028 13:33:51.761327 28202 net.cpp:454] inception_4e/output <- inception_4e/5x5
I1028 13:33:51.761337 28202 net.cpp:454] inception_4e/output <- inception_4e/pool_proj
I1028 13:33:51.761348 28202 net.cpp:411] inception_4e/output -> inception_4e/output
I1028 13:33:51.761380 28202 net.cpp:150] Setting up inception_4e/output
I1028 13:33:51.761392 28202 net.cpp:157] Top shape: 50 832 14 14 (8153600)
I1028 13:33:51.761399 28202 net.cpp:165] Memory required for data: 2651101416
I1028 13:33:51.761407 28202 layer_factory.hpp:76] Creating layer pool4/3x3_s2
I1028 13:33:51.761418 28202 net.cpp:106] Creating Layer pool4/3x3_s2
I1028 13:33:51.761426 28202 net.cpp:454] pool4/3x3_s2 <- inception_4e/output
I1028 13:33:51.761450 28202 net.cpp:411] pool4/3x3_s2 -> pool4/3x3_s2
I1028 13:33:51.761677 28202 net.cpp:150] Setting up pool4/3x3_s2
I1028 13:33:51.761689 28202 net.cpp:157] Top shape: 50 832 7 7 (2038400)
I1028 13:33:51.761698 28202 net.cpp:165] Memory required for data: 2659255016
I1028 13:33:51.761706 28202 layer_factory.hpp:76] Creating layer pool4/3x3_s2_pool4/3x3_s2_0_split
I1028 13:33:51.761718 28202 net.cpp:106] Creating Layer pool4/3x3_s2_pool4/3x3_s2_0_split
I1028 13:33:51.761725 28202 net.cpp:454] pool4/3x3_s2_pool4/3x3_s2_0_split <- pool4/3x3_s2
I1028 13:33:51.761735 28202 net.cpp:411] pool4/3x3_s2_pool4/3x3_s2_0_split -> pool4/3x3_s2_pool4/3x3_s2_0_split_0
I1028 13:33:51.761749 28202 net.cpp:411] pool4/3x3_s2_pool4/3x3_s2_0_split -> pool4/3x3_s2_pool4/3x3_s2_0_split_1
I1028 13:33:51.761765 28202 net.cpp:411] pool4/3x3_s2_pool4/3x3_s2_0_split -> pool4/3x3_s2_pool4/3x3_s2_0_split_2
I1028 13:33:51.761778 28202 net.cpp:411] pool4/3x3_s2_pool4/3x3_s2_0_split -> pool4/3x3_s2_pool4/3x3_s2_0_split_3
I1028 13:33:51.761860 28202 net.cpp:150] Setting up pool4/3x3_s2_pool4/3x3_s2_0_split
I1028 13:33:51.761873 28202 net.cpp:157] Top shape: 50 832 7 7 (2038400)
I1028 13:33:51.761881 28202 net.cpp:157] Top shape: 50 832 7 7 (2038400)
I1028 13:33:51.761891 28202 net.cpp:157] Top shape: 50 832 7 7 (2038400)
I1028 13:33:51.761901 28202 net.cpp:157] Top shape: 50 832 7 7 (2038400)
I1028 13:33:51.761909 28202 net.cpp:165] Memory required for data: 2691869416
I1028 13:33:51.761916 28202 layer_factory.hpp:76] Creating layer inception_5a/1x1
I1028 13:33:51.761931 28202 net.cpp:106] Creating Layer inception_5a/1x1
I1028 13:33:51.761942 28202 net.cpp:454] inception_5a/1x1 <- pool4/3x3_s2_pool4/3x3_s2_0_split_0
I1028 13:33:51.761956 28202 net.cpp:411] inception_5a/1x1 -> inception_5a/1x1
I1028 13:33:51.764910 28202 cudnn_conv_layer.cpp:194] Reallocating workspace storage: 7428
I1028 13:33:51.764966 28202 net.cpp:150] Setting up inception_5a/1x1
I1028 13:33:51.764979 28202 net.cpp:157] Top shape: 50 256 7 7 (627200)
I1028 13:33:51.764987 28202 net.cpp:165] Memory required for data: 2694378216
I1028 13:33:51.765002 28202 layer_factory.hpp:76] Creating layer inception_5a/prelu_1x1
I1028 13:33:51.765017 28202 net.cpp:106] Creating Layer inception_5a/prelu_1x1
I1028 13:33:51.765028 28202 net.cpp:454] inception_5a/prelu_1x1 <- inception_5a/1x1
I1028 13:33:51.765043 28202 net.cpp:397] inception_5a/prelu_1x1 -> inception_5a/1x1 (in-place)
I1028 13:33:51.765161 28202 net.cpp:150] Setting up inception_5a/prelu_1x1
I1028 13:33:51.765187 28202 net.cpp:157] Top shape: 50 256 7 7 (627200)
I1028 13:33:51.765194 28202 net.cpp:165] Memory required for data: 2696887016
I1028 13:33:51.765214 28202 layer_factory.hpp:76] Creating layer inception_5a/3x3_reduce
I1028 13:33:51.765230 28202 net.cpp:106] Creating Layer inception_5a/3x3_reduce
I1028 13:33:51.765251 28202 net.cpp:454] inception_5a/3x3_reduce <- pool4/3x3_s2_pool4/3x3_s2_0_split_1
I1028 13:33:51.765266 28202 net.cpp:411] inception_5a/3x3_reduce -> inception_5a/3x3_reduce
I1028 13:33:51.767756 28202 cudnn_conv_layer.cpp:194] Reallocating workspace storage: 7428
I1028 13:33:51.767824 28202 net.cpp:150] Setting up inception_5a/3x3_reduce
I1028 13:33:51.767848 28202 net.cpp:157] Top shape: 50 160 7 7 (392000)
I1028 13:33:51.767868 28202 net.cpp:165] Memory required for data: 2698455016
I1028 13:33:51.767884 28202 layer_factory.hpp:76] Creating layer inception_5a/prelu_3x3_reduce
I1028 13:33:51.767909 28202 net.cpp:106] Creating Layer inception_5a/prelu_3x3_reduce
I1028 13:33:51.767931 28202 net.cpp:454] inception_5a/prelu_3x3_reduce <- inception_5a/3x3_reduce
I1028 13:33:51.767943 28202 net.cpp:397] inception_5a/prelu_3x3_reduce -> inception_5a/3x3_reduce (in-place)
I1028 13:33:51.768075 28202 net.cpp:150] Setting up inception_5a/prelu_3x3_reduce
I1028 13:33:51.768087 28202 net.cpp:157] Top shape: 50 160 7 7 (392000)
I1028 13:33:51.768095 28202 net.cpp:165] Memory required for data: 2700023016
I1028 13:33:51.768115 28202 layer_factory.hpp:76] Creating layer inception_5a/3x3
I1028 13:33:51.768133 28202 net.cpp:106] Creating Layer inception_5a/3x3
I1028 13:33:51.768142 28202 net.cpp:454] inception_5a/3x3 <- inception_5a/3x3_reduce
I1028 13:33:51.768177 28202 net.cpp:411] inception_5a/3x3 -> inception_5a/3x3
I1028 13:33:51.773569 28202 cudnn_conv_layer.cpp:194] Reallocating workspace storage: 7788
I1028 13:33:51.773706 28202 net.cpp:150] Setting up inception_5a/3x3
I1028 13:33:51.773725 28202 net.cpp:157] Top shape: 50 320 7 7 (784000)
I1028 13:33:51.773741 28202 net.cpp:165] Memory required for data: 2703159016
I1028 13:33:51.773757 28202 layer_factory.hpp:76] Creating layer inception_5a/prelu_3x3
I1028 13:33:51.773797 28202 net.cpp:106] Creating Layer inception_5a/prelu_3x3
I1028 13:33:51.773810 28202 net.cpp:454] inception_5a/prelu_3x3 <- inception_5a/3x3
I1028 13:33:51.773823 28202 net.cpp:397] inception_5a/prelu_3x3 -> inception_5a/3x3 (in-place)
I1028 13:33:51.773983 28202 net.cpp:150] Setting up inception_5a/prelu_3x3
I1028 13:33:51.773995 28202 net.cpp:157] Top shape: 50 320 7 7 (784000)
I1028 13:33:51.774003 28202 net.cpp:165] Memory required for data: 2706295016
I1028 13:33:51.774047 28202 layer_factory.hpp:76] Creating layer inception_5a/5x5_reduce
I1028 13:33:51.774065 28202 net.cpp:106] Creating Layer inception_5a/5x5_reduce
I1028 13:33:51.774085 28202 net.cpp:454] inception_5a/5x5_reduce <- pool4/3x3_s2_pool4/3x3_s2_0_split_2
I1028 13:33:51.774101 28202 net.cpp:411] inception_5a/5x5_reduce -> inception_5a/5x5_reduce
I1028 13:33:51.775516 28202 cudnn_conv_layer.cpp:194] Reallocating workspace storage: 7428
I1028 13:33:51.775568 28202 net.cpp:150] Setting up inception_5a/5x5_reduce
I1028 13:33:51.775580 28202 net.cpp:157] Top shape: 50 32 7 7 (78400)
I1028 13:33:51.775588 28202 net.cpp:165] Memory required for data: 2706608616
I1028 13:33:51.775602 28202 layer_factory.hpp:76] Creating layer inception_5a/prelu_5x5_reduce
I1028 13:33:51.775619 28202 net.cpp:106] Creating Layer inception_5a/prelu_5x5_reduce
I1028 13:33:51.775629 28202 net.cpp:454] inception_5a/prelu_5x5_reduce <- inception_5a/5x5_reduce
I1028 13:33:51.775640 28202 net.cpp:397] inception_5a/prelu_5x5_reduce -> inception_5a/5x5_reduce (in-place)
I1028 13:33:51.775754 28202 net.cpp:150] Setting up inception_5a/prelu_5x5_reduce
I1028 13:33:51.775766 28202 net.cpp:157] Top shape: 50 32 7 7 (78400)
I1028 13:33:51.775774 28202 net.cpp:165] Memory required for data: 2706922216
I1028 13:33:51.775784 28202 layer_factory.hpp:76] Creating layer inception_5a/5x5
I1028 13:33:51.775799 28202 net.cpp:106] Creating Layer inception_5a/5x5
I1028 13:33:51.775823 28202 net.cpp:454] inception_5a/5x5 <- inception_5a/5x5_reduce
I1028 13:33:51.775840 28202 net.cpp:411] inception_5a/5x5 -> inception_5a/5x5
I1028 13:33:51.777422 28202 cudnn_conv_layer.cpp:194] Reallocating workspace storage: 9804
I1028 13:33:51.777478 28202 net.cpp:150] Setting up inception_5a/5x5
I1028 13:33:51.777493 28202 net.cpp:157] Top shape: 50 128 7 7 (313600)
I1028 13:33:51.777499 28202 net.cpp:165] Memory required for data: 2708176616
I1028 13:33:51.777513 28202 layer_factory.hpp:76] Creating layer inception_5a/prelu_5x5
I1028 13:33:51.777530 28202 net.cpp:106] Creating Layer inception_5a/prelu_5x5
I1028 13:33:51.777541 28202 net.cpp:454] inception_5a/prelu_5x5 <- inception_5a/5x5
I1028 13:33:51.777554 28202 net.cpp:397] inception_5a/prelu_5x5 -> inception_5a/5x5 (in-place)
I1028 13:33:51.777665 28202 net.cpp:150] Setting up inception_5a/prelu_5x5
I1028 13:33:51.777678 28202 net.cpp:157] Top shape: 50 128 7 7 (313600)
I1028 13:33:51.777685 28202 net.cpp:165] Memory required for data: 2709431016
I1028 13:33:51.777696 28202 layer_factory.hpp:76] Creating layer inception_5a/pool
I1028 13:33:51.777709 28202 net.cpp:106] Creating Layer inception_5a/pool
I1028 13:33:51.777721 28202 net.cpp:454] inception_5a/pool <- pool4/3x3_s2_pool4/3x3_s2_0_split_3
I1028 13:33:51.777735 28202 net.cpp:411] inception_5a/pool -> inception_5a/pool
I1028 13:33:51.778231 28202 net.cpp:150] Setting up inception_5a/pool
I1028 13:33:51.778249 28202 net.cpp:157] Top shape: 50 832 7 7 (2038400)
I1028 13:33:51.778256 28202 net.cpp:165] Memory required for data: 2717584616
I1028 13:33:51.778265 28202 layer_factory.hpp:76] Creating layer inception_5a/pool_proj
I1028 13:33:51.778282 28202 net.cpp:106] Creating Layer inception_5a/pool_proj
I1028 13:33:51.778293 28202 net.cpp:454] inception_5a/pool_proj <- inception_5a/pool
I1028 13:33:51.778311 28202 net.cpp:411] inception_5a/pool_proj -> inception_5a/pool_proj
I1028 13:33:51.780630 28202 cudnn_conv_layer.cpp:194] Reallocating workspace storage: 7428
I1028 13:33:51.780680 28202 net.cpp:150] Setting up inception_5a/pool_proj
I1028 13:33:51.780694 28202 net.cpp:157] Top shape: 50 128 7 7 (313600)
I1028 13:33:51.780701 28202 net.cpp:165] Memory required for data: 2718839016
I1028 13:33:51.780715 28202 layer_factory.hpp:76] Creating layer inception_5a/prelu_pool_proj
I1028 13:33:51.780730 28202 net.cpp:106] Creating Layer inception_5a/prelu_pool_proj
I1028 13:33:51.780740 28202 net.cpp:454] inception_5a/prelu_pool_proj <- inception_5a/pool_proj
I1028 13:33:51.780755 28202 net.cpp:397] inception_5a/prelu_pool_proj -> inception_5a/pool_proj (in-place)
I1028 13:33:51.780853 28202 net.cpp:150] Setting up inception_5a/prelu_pool_proj
I1028 13:33:51.780868 28202 net.cpp:157] Top shape: 50 128 7 7 (313600)
I1028 13:33:51.780875 28202 net.cpp:165] Memory required for data: 2720093416
I1028 13:33:51.780885 28202 layer_factory.hpp:76] Creating layer inception_5a/output
I1028 13:33:51.780897 28202 net.cpp:106] Creating Layer inception_5a/output
I1028 13:33:51.780906 28202 net.cpp:454] inception_5a/output <- inception_5a/1x1
I1028 13:33:51.780916 28202 net.cpp:454] inception_5a/output <- inception_5a/3x3
I1028 13:33:51.780925 28202 net.cpp:454] inception_5a/output <- inception_5a/5x5
I1028 13:33:51.780935 28202 net.cpp:454] inception_5a/output <- inception_5a/pool_proj
I1028 13:33:51.780944 28202 net.cpp:411] inception_5a/output -> inception_5a/output
I1028 13:33:51.780980 28202 net.cpp:150] Setting up inception_5a/output
I1028 13:33:51.780992 28202 net.cpp:157] Top shape: 50 832 7 7 (2038400)
I1028 13:33:51.780998 28202 net.cpp:165] Memory required for data: 2728247016
I1028 13:33:51.781007 28202 layer_factory.hpp:76] Creating layer inception_5a/output_inception_5a/output_0_split
I1028 13:33:51.781018 28202 net.cpp:106] Creating Layer inception_5a/output_inception_5a/output_0_split
I1028 13:33:51.781026 28202 net.cpp:454] inception_5a/output_inception_5a/output_0_split <- inception_5a/output
I1028 13:33:51.781039 28202 net.cpp:411] inception_5a/output_inception_5a/output_0_split -> inception_5a/output_inception_5a/output_0_split_0
I1028 13:33:51.781070 28202 net.cpp:411] inception_5a/output_inception_5a/output_0_split -> inception_5a/output_inception_5a/output_0_split_1
I1028 13:33:51.781085 28202 net.cpp:411] inception_5a/output_inception_5a/output_0_split -> inception_5a/output_inception_5a/output_0_split_2
I1028 13:33:51.781097 28202 net.cpp:411] inception_5a/output_inception_5a/output_0_split -> inception_5a/output_inception_5a/output_0_split_3
I1028 13:33:51.781163 28202 net.cpp:150] Setting up inception_5a/output_inception_5a/output_0_split
I1028 13:33:51.781175 28202 net.cpp:157] Top shape: 50 832 7 7 (2038400)
I1028 13:33:51.781185 28202 net.cpp:157] Top shape: 50 832 7 7 (2038400)
I1028 13:33:51.781195 28202 net.cpp:157] Top shape: 50 832 7 7 (2038400)
I1028 13:33:51.781204 28202 net.cpp:157] Top shape: 50 832 7 7 (2038400)
I1028 13:33:51.781211 28202 net.cpp:165] Memory required for data: 2760861416
I1028 13:33:51.781219 28202 layer_factory.hpp:76] Creating layer inception_5b/1x1
I1028 13:33:51.781235 28202 net.cpp:106] Creating Layer inception_5b/1x1
I1028 13:33:51.781246 28202 net.cpp:454] inception_5b/1x1 <- inception_5a/output_inception_5a/output_0_split_0
I1028 13:33:51.781260 28202 net.cpp:411] inception_5b/1x1 -> inception_5b/1x1
I1028 13:33:51.785166 28202 cudnn_conv_layer.cpp:194] Reallocating workspace storage: 7428
I1028 13:33:51.785228 28202 net.cpp:150] Setting up inception_5b/1x1
I1028 13:33:51.785243 28202 net.cpp:157] Top shape: 50 384 7 7 (940800)
I1028 13:33:51.785250 28202 net.cpp:165] Memory required for data: 2764624616
I1028 13:33:51.785265 28202 layer_factory.hpp:76] Creating layer inception_5b/prelu_1x1
I1028 13:33:51.785285 28202 net.cpp:106] Creating Layer inception_5b/prelu_1x1
I1028 13:33:51.785296 28202 net.cpp:454] inception_5b/prelu_1x1 <- inception_5b/1x1
I1028 13:33:51.785310 28202 net.cpp:397] inception_5b/prelu_1x1 -> inception_5b/1x1 (in-place)
I1028 13:33:51.785439 28202 net.cpp:150] Setting up inception_5b/prelu_1x1
I1028 13:33:51.785460 28202 net.cpp:157] Top shape: 50 384 7 7 (940800)
I1028 13:33:51.785467 28202 net.cpp:165] Memory required for data: 2768387816
I1028 13:33:51.785478 28202 layer_factory.hpp:76] Creating layer inception_5b/3x3_reduce
I1028 13:33:51.785495 28202 net.cpp:106] Creating Layer inception_5b/3x3_reduce
I1028 13:33:51.785506 28202 net.cpp:454] inception_5b/3x3_reduce <- inception_5a/output_inception_5a/output_0_split_1
I1028 13:33:51.785518 28202 net.cpp:411] inception_5b/3x3_reduce -> inception_5b/3x3_reduce
I1028 13:33:51.788024 28202 cudnn_conv_layer.cpp:194] Reallocating workspace storage: 7428
I1028 13:33:51.788085 28202 net.cpp:150] Setting up inception_5b/3x3_reduce
I1028 13:33:51.788100 28202 net.cpp:157] Top shape: 50 192 7 7 (470400)
I1028 13:33:51.788106 28202 net.cpp:165] Memory required for data: 2770269416
I1028 13:33:51.788120 28202 layer_factory.hpp:76] Creating layer inception_5b/prelu_3x3_reduce
I1028 13:33:51.788141 28202 net.cpp:106] Creating Layer inception_5b/prelu_3x3_reduce
I1028 13:33:51.788151 28202 net.cpp:454] inception_5b/prelu_3x3_reduce <- inception_5b/3x3_reduce
I1028 13:33:51.788166 28202 net.cpp:397] inception_5b/prelu_3x3_reduce -> inception_5b/3x3_reduce (in-place)
I1028 13:33:51.788271 28202 net.cpp:150] Setting up inception_5b/prelu_3x3_reduce
I1028 13:33:51.788283 28202 net.cpp:157] Top shape: 50 192 7 7 (470400)
I1028 13:33:51.788290 28202 net.cpp:165] Memory required for data: 2772151016
I1028 13:33:51.788300 28202 layer_factory.hpp:76] Creating layer inception_5b/3x3
I1028 13:33:51.788316 28202 net.cpp:106] Creating Layer inception_5b/3x3
I1028 13:33:51.788327 28202 net.cpp:454] inception_5b/3x3 <- inception_5b/3x3_reduce
I1028 13:33:51.788342 28202 net.cpp:411] inception_5b/3x3 -> inception_5b/3x3
I1028 13:33:51.794531 28202 cudnn_conv_layer.cpp:194] Reallocating workspace storage: 7788
I1028 13:33:51.794603 28202 net.cpp:150] Setting up inception_5b/3x3
I1028 13:33:51.794618 28202 net.cpp:157] Top shape: 50 384 7 7 (940800)
I1028 13:33:51.794639 28202 net.cpp:165] Memory required for data: 2775914216
I1028 13:33:51.794690 28202 layer_factory.hpp:76] Creating layer inception_5b/prelu_3x3
I1028 13:33:51.794708 28202 net.cpp:106] Creating Layer inception_5b/prelu_3x3
I1028 13:33:51.794719 28202 net.cpp:454] inception_5b/prelu_3x3 <- inception_5b/3x3
I1028 13:33:51.794751 28202 net.cpp:397] inception_5b/prelu_3x3 -> inception_5b/3x3 (in-place)
I1028 13:33:51.794872 28202 net.cpp:150] Setting up inception_5b/prelu_3x3
I1028 13:33:51.794883 28202 net.cpp:157] Top shape: 50 384 7 7 (940800)
I1028 13:33:51.794891 28202 net.cpp:165] Memory required for data: 2779677416
I1028 13:33:51.794901 28202 layer_factory.hpp:76] Creating layer inception_5b/5x5_reduce
I1028 13:33:51.794937 28202 net.cpp:106] Creating Layer inception_5b/5x5_reduce
I1028 13:33:51.794956 28202 net.cpp:454] inception_5b/5x5_reduce <- inception_5a/output_inception_5a/output_0_split_2
I1028 13:33:51.794981 28202 net.cpp:411] inception_5b/5x5_reduce -> inception_5b/5x5_reduce
I1028 13:33:51.796555 28202 cudnn_conv_layer.cpp:194] Reallocating workspace storage: 7428
I1028 13:33:51.796594 28202 net.cpp:150] Setting up inception_5b/5x5_reduce
I1028 13:33:51.796607 28202 net.cpp:157] Top shape: 50 48 7 7 (117600)
I1028 13:33:51.796614 28202 net.cpp:165] Memory required for data: 2780147816
I1028 13:33:51.796627 28202 layer_factory.hpp:76] Creating layer inception_5b/prelu_5x5_reduce
I1028 13:33:51.796643 28202 net.cpp:106] Creating Layer inception_5b/prelu_5x5_reduce
I1028 13:33:51.796653 28202 net.cpp:454] inception_5b/prelu_5x5_reduce <- inception_5b/5x5_reduce
I1028 13:33:51.796668 28202 net.cpp:397] inception_5b/prelu_5x5_reduce -> inception_5b/5x5_reduce (in-place)
I1028 13:33:51.796787 28202 net.cpp:150] Setting up inception_5b/prelu_5x5_reduce
I1028 13:33:51.796797 28202 net.cpp:157] Top shape: 50 48 7 7 (117600)
I1028 13:33:51.796805 28202 net.cpp:165] Memory required for data: 2780618216
I1028 13:33:51.796816 28202 layer_factory.hpp:76] Creating layer inception_5b/5x5
I1028 13:33:51.796830 28202 net.cpp:106] Creating Layer inception_5b/5x5
I1028 13:33:51.796840 28202 net.cpp:454] inception_5b/5x5 <- inception_5b/5x5_reduce
I1028 13:33:51.796854 28202 net.cpp:411] inception_5b/5x5 -> inception_5b/5x5
I1028 13:33:51.798921 28202 cudnn_conv_layer.cpp:194] Reallocating workspace storage: 9804
I1028 13:33:51.798967 28202 net.cpp:150] Setting up inception_5b/5x5
I1028 13:33:51.798980 28202 net.cpp:157] Top shape: 50 128 7 7 (313600)
I1028 13:33:51.798987 28202 net.cpp:165] Memory required for data: 2781872616
I1028 13:33:51.799000 28202 layer_factory.hpp:76] Creating layer inception_5b/prelu_5x5
I1028 13:33:51.799013 28202 net.cpp:106] Creating Layer inception_5b/prelu_5x5
I1028 13:33:51.799023 28202 net.cpp:454] inception_5b/prelu_5x5 <- inception_5b/5x5
I1028 13:33:51.799037 28202 net.cpp:397] inception_5b/prelu_5x5 -> inception_5b/5x5 (in-place)
I1028 13:33:51.799144 28202 net.cpp:150] Setting up inception_5b/prelu_5x5
I1028 13:33:51.799156 28202 net.cpp:157] Top shape: 50 128 7 7 (313600)
I1028 13:33:51.799163 28202 net.cpp:165] Memory required for data: 2783127016
I1028 13:33:51.799173 28202 layer_factory.hpp:76] Creating layer inception_5b/pool
I1028 13:33:51.799185 28202 net.cpp:106] Creating Layer inception_5b/pool
I1028 13:33:51.799195 28202 net.cpp:454] inception_5b/pool <- inception_5a/output_inception_5a/output_0_split_3
I1028 13:33:51.799206 28202 net.cpp:411] inception_5b/pool -> inception_5b/pool
I1028 13:33:51.799437 28202 net.cpp:150] Setting up inception_5b/pool
I1028 13:33:51.799449 28202 net.cpp:157] Top shape: 50 832 7 7 (2038400)
I1028 13:33:51.799458 28202 net.cpp:165] Memory required for data: 2791280616
I1028 13:33:51.799465 28202 layer_factory.hpp:76] Creating layer inception_5b/pool_proj
I1028 13:33:51.799489 28202 net.cpp:106] Creating Layer inception_5b/pool_proj
I1028 13:33:51.799500 28202 net.cpp:454] inception_5b/pool_proj <- inception_5b/pool
I1028 13:33:51.799517 28202 net.cpp:411] inception_5b/pool_proj -> inception_5b/pool_proj
I1028 13:33:51.802110 28202 cudnn_conv_layer.cpp:194] Reallocating workspace storage: 7428
I1028 13:33:51.802196 28202 net.cpp:150] Setting up inception_5b/pool_proj
I1028 13:33:51.802212 28202 net.cpp:157] Top shape: 50 128 7 7 (313600)
I1028 13:33:51.802222 28202 net.cpp:165] Memory required for data: 2792535016
I1028 13:33:51.802237 28202 layer_factory.hpp:76] Creating layer inception_5b/prelu_pool_proj
I1028 13:33:51.802256 28202 net.cpp:106] Creating Layer inception_5b/prelu_pool_proj
I1028 13:33:51.802269 28202 net.cpp:454] inception_5b/prelu_pool_proj <- inception_5b/pool_proj
I1028 13:33:51.802285 28202 net.cpp:397] inception_5b/prelu_pool_proj -> inception_5b/pool_proj (in-place)
I1028 13:33:51.802393 28202 net.cpp:150] Setting up inception_5b/prelu_pool_proj
I1028 13:33:51.802405 28202 net.cpp:157] Top shape: 50 128 7 7 (313600)
I1028 13:33:51.802413 28202 net.cpp:165] Memory required for data: 2793789416
I1028 13:33:51.802424 28202 layer_factory.hpp:76] Creating layer inception_5b/output
I1028 13:33:51.802436 28202 net.cpp:106] Creating Layer inception_5b/output
I1028 13:33:51.802446 28202 net.cpp:454] inception_5b/output <- inception_5b/1x1
I1028 13:33:51.802456 28202 net.cpp:454] inception_5b/output <- inception_5b/3x3
I1028 13:33:51.802465 28202 net.cpp:454] inception_5b/output <- inception_5b/5x5
I1028 13:33:51.802475 28202 net.cpp:454] inception_5b/output <- inception_5b/pool_proj
I1028 13:33:51.802489 28202 net.cpp:411] inception_5b/output -> inception_5b/output
I1028 13:33:51.802528 28202 net.cpp:150] Setting up inception_5b/output
I1028 13:33:51.802541 28202 net.cpp:157] Top shape: 50 1024 7 7 (2508800)
I1028 13:33:51.802547 28202 net.cpp:165] Memory required for data: 2803824616
I1028 13:33:51.802556 28202 layer_factory.hpp:76] Creating layer pool5/7x7_s1
I1028 13:33:51.802567 28202 net.cpp:106] Creating Layer pool5/7x7_s1
I1028 13:33:51.802577 28202 net.cpp:454] pool5/7x7_s1 <- inception_5b/output
I1028 13:33:51.802587 28202 net.cpp:411] pool5/7x7_s1 -> pool5/7x7_s1
I1028 13:33:51.803019 28202 net.cpp:150] Setting up pool5/7x7_s1
I1028 13:33:51.803033 28202 net.cpp:157] Top shape: 50 1024 1 1 (51200)
I1028 13:33:51.803041 28202 net.cpp:165] Memory required for data: 2804029416
I1028 13:33:51.803050 28202 layer_factory.hpp:76] Creating layer pool5/drop_7x7_s1
I1028 13:33:51.803061 28202 net.cpp:106] Creating Layer pool5/drop_7x7_s1
I1028 13:33:51.803069 28202 net.cpp:454] pool5/drop_7x7_s1 <- pool5/7x7_s1
I1028 13:33:51.803083 28202 net.cpp:397] pool5/drop_7x7_s1 -> pool5/7x7_s1 (in-place)
I1028 13:33:51.803122 28202 net.cpp:150] Setting up pool5/drop_7x7_s1
I1028 13:33:51.803133 28202 net.cpp:157] Top shape: 50 1024 1 1 (51200)
I1028 13:33:51.803141 28202 net.cpp:165] Memory required for data: 2804234216
I1028 13:33:51.803149 28202 layer_factory.hpp:76] Creating layer loss3/classifier2
I1028 13:33:51.803164 28202 net.cpp:106] Creating Layer loss3/classifier2
I1028 13:33:51.803174 28202 net.cpp:454] loss3/classifier2 <- pool5/7x7_s1
I1028 13:33:51.803189 28202 net.cpp:411] loss3/classifier2 -> loss3/classifier
I1028 13:33:51.803366 28202 net.cpp:150] Setting up loss3/classifier2
I1028 13:33:51.803381 28202 net.cpp:157] Top shape: 50 2 (100)
I1028 13:33:51.803390 28202 net.cpp:165] Memory required for data: 2804234616
I1028 13:33:51.803402 28202 layer_factory.hpp:76] Creating layer loss3/classifier_loss3/classifier2_0_split
I1028 13:33:51.803416 28202 net.cpp:106] Creating Layer loss3/classifier_loss3/classifier2_0_split
I1028 13:33:51.803424 28202 net.cpp:454] loss3/classifier_loss3/classifier2_0_split <- loss3/classifier
I1028 13:33:51.803436 28202 net.cpp:411] loss3/classifier_loss3/classifier2_0_split -> loss3/classifier_loss3/classifier2_0_split_0
I1028 13:33:51.803449 28202 net.cpp:411] loss3/classifier_loss3/classifier2_0_split -> loss3/classifier_loss3/classifier2_0_split_1
I1028 13:33:51.803504 28202 net.cpp:150] Setting up loss3/classifier_loss3/classifier2_0_split
I1028 13:33:51.803516 28202 net.cpp:157] Top shape: 50 2 (100)
I1028 13:33:51.803526 28202 net.cpp:157] Top shape: 50 2 (100)
I1028 13:33:51.803534 28202 net.cpp:165] Memory required for data: 2804235416
I1028 13:33:51.803541 28202 layer_factory.hpp:76] Creating layer loss3/loss3
I1028 13:33:51.803568 28202 net.cpp:106] Creating Layer loss3/loss3
I1028 13:33:51.803580 28202 net.cpp:454] loss3/loss3 <- loss3/classifier_loss3/classifier2_0_split_0
I1028 13:33:51.803592 28202 net.cpp:454] loss3/loss3 <- label_data_1_split_4
…
