…
I1126 09:59:38.723162 10258 net.cpp:322] The NetState phase (0) differed from the phase (1) specified by a rule in layer loss3/top-1
I1126 09:59:38.724130 10258 net.cpp:49] Initializing net from parameters: 
name: "GoogleNet"
state {
  phase: TRAIN
}
layer {
  name: "data"
  type: "Data"
  top: "data"
  top: "label"
  include {
    phase: TRAIN
  }
  transform_param {
    mirror: true
    crop_size: 224
    mean_value: 104
    mean_value: 117
    mean_value: 123
  }
  data_param {
    source: "../../LMDB-s300/train_1-lmdb"
    batch_size: 32
    backend: LMDB
  }
}
layer {
  name: "conv1/7x7_s2"
  type: "Convolution"
  bottom: "data"
  top: "conv1/7x7_s2"
  param {
    lr_mult: 1
    decay_mult: 1
  }
  param {
    lr_mult: 2
    decay_mult: 0
  }
  convolution_param {
    num_output: 64
    pad: 3
    kernel_size: 7
    stride: 2
    weight_filler {
      type: "xavier"
    }
    bias_filler {
      type: "constant"
      value: 0.2
    }
  }
}
layer {
  name: "conv1/prelu_7x7"
  type: "PReLU"
  bottom: "conv1/7x7_s2"
  top: "conv1/7x7_s2"
  param {
    lr_mult: 1
    decay_mult: 0
  }
  prelu_param {
    filler {
      type: "constant"
      value: 0.01
    }
  }
}
layer {
  name: "pool1/3x3_s2"
  type: "Pooling"
  bottom: "conv1/7x7_s2"
  top: "pool1/3x3_s2"
  pooling_param {
    pool: MAX
    kernel_size: 3
    stride: 2
  }
}
layer {
  name: "pool1/norm1"
  type: "LRN"
  bottom: "pool1/3x3_s2"
  top: "pool1/norm1"
  lrn_param {
    local_size: 5
    alpha: 0.0001
    beta: 0.75
  }
}
layer {
  name: "conv2/3x3_reduce"
  type: "Convolution"
  bottom: "pool1/norm1"
  top: "conv2/3x3_reduce"
  param {
    lr_mult: 1
    decay_mult: 1
  }
  param {
    lr_mult: 2
    decay_mult: 0
  }
  convolution_param {
    num_output: 64
    kernel_size: 1
    weight_filler {
      type: "xavier"
    }
    bias_filler {
      type: "constant"
      value: 0.2
    }
  }
}
layer {
  name: "conv2/prelu_3x3_reduce"
  type: "PReLU"
  bottom: "conv2/3x3_reduce"
  top: "conv2/3x3_reduce"
  param {
    lr_mult: 1
    decay_mult: 0
  }
  prelu_param {
    filler {
      type: "constant"
      value: 0.01
    }
  }
}
layer {
  name: "conv2/3x3"
  type: "Convolution"
  bottom: "conv2/3x3_reduce"
  top: "conv2/3x3"
  param {
    lr_mult: 1
    decay_mult: 1
  }
  param {
    lr_mult: 2
    decay_mult: 0
  }
  convolution_param {
    num_output: 192
    pad: 1
    kernel_size: 3
    weight_filler {
      type: "xavier"
    }
    bias_filler {
      type: "constant"
      value: 0.2
    }
  }
}
layer {
  name: "conv2/prelu_3x3"
  type: "PReLU"
  bottom: "conv2/3x3"
  top: "conv2/3x3"
  param {
    lr_mult: 1
    decay_mult: 0
  }
  prelu_param {
    filler {
      type: "constant"
      value: 0.01
    }
  }
}
layer {
  name: "conv2/norm2"
  type: "LRN"
  bottom: "conv2/3x3"
  top: "conv2/norm2"
  lrn_param {
    local_size: 5
    alpha: 0.0001
    beta: 0.75
  }
}
layer {
  name: "pool2/3x3_s2"
  type: "Pooling"
  bottom: "conv2/norm2"
  top: "pool2/3x3_s2"
  pooling_param {
    pool: MAX
    kernel_size: 3
    stride: 2
  }
}
layer {
  name: "inception_3a/1x1"
  type: "Convolution"
  bottom: "pool2/3x3_s2"
  top: "inception_3a/1x1"
  param {
    lr_mult: 1
    decay_mult: 1
  }
  param {
    lr_mult: 2
    decay_mult: 0
  }
  convolution_param {
    num_output: 64
    kernel_size: 1
    weight_filler {
      type: "xavier"
    }
    bias_filler {
      type: "constant"
      value: 0.2
    }
  }
}
layer {
  name: "inception_3a/prelu_1x1"
  type: "PReLU"
  bottom: "inception_3a/1x1"
  top: "inception_3a/1x1"
  param {
    lr_mult: 1
    decay_mult: 0
  }
  prelu_param {
    filler {
      type: "constant"
      value: 0.01
    }
  }
}
layer {
  name: "inception_3a/3x3_reduce"
  type: "Convolution"
  bottom: "pool2/3x3_s2"
  top: "inception_3a/3x3_reduce"
  param {
    lr_mult: 1
    decay_mult: 1
  }
  param {
    lr_mult: 2
    decay_mult: 0
  }
  convolution_param {
    num_output: 96
    kernel_size: 1
    weight_filler {
      type: "xavier"
    }
    bias_filler {
      type: "constant"
      value: 0.2
    }
  }
}
layer {
  name: "inception_3a/prelu_3x3_reduce"
  type: "PReLU"
  bottom: "inception_3a/3x3_reduce"
  top: "inception_3a/3x3_reduce"
  param {
    lr_mult: 1
    decay_mult: 0
  }
  prelu_param {
    filler {
      type: "constant"
      value: 0.01
    }
  }
}
layer {
  name: "inception_3a/3x3"
  type: "Convolution"
  bottom: "inception_3a/3x3_reduce"
  top: "inception_3a/3x3"
  param {
    lr_mult: 1
    decay_mult: 1
  }
  param {
    lr_mult: 2
    decay_mult: 0
  }
  convolution_param {
    num_output: 128
    pad: 1
    kernel_size: 3
    weight_filler {
      type: "xavier"
    }
    bias_filler {
      type: "constant"
      value: 0.2
    }
  }
}
layer {
  name: "inception_3a/prelu_3x3"
  type: "PReLU"
  bottom: "inception_3a/3x3"
  top: "inception_3a/3x3"
  param {
    lr_mult: 1
    decay_mult: 0
  }
  prelu_param {
    filler {
      type: "constant"
      value: 0.01
    }
  }
}
layer {
  name: "inception_3a/5x5_reduce"
  type: "Convolution"
  bottom: "pool2/3x3_s2"
  top: "inception_3a/5x5_reduce"
  param {
    lr_mult: 1
    decay_mult: 1
  }
  param {
    lr_mult: 2
    decay_mult: 0
  }
  convolution_param {
    num_output: 16
    kernel_size: 1
    weight_filler {
      type: "xavier"
    }
    bias_filler {
      type: "constant"
      value: 0.2
    }
  }
}
layer {
  name: "inception_3a/prelu_5x5_reduce"
  type: "PReLU"
  bottom: "inception_3a/5x5_reduce"
  top: "inception_3a/5x5_reduce"
  param {
    lr_mult: 1
    decay_mult: 0
  }
  prelu_param {
    filler {
      type: "constant"
      value: 0.01
    }
  }
}
layer {
  name: "inception_3a/5x5"
  type: "Convolution"
  bottom: "inception_3a/5x5_reduce"
  top: "inception_3a/5x5"
  param {
    lr_mult: 1
    decay_mult: 1
  }
  param {
    lr_mult: 2
    decay_mult: 0
  }
  convolution_param {
    num_output: 32
    pad: 2
    kernel_size: 5
    weight_filler {
      type: "xavier"
    }
    bias_filler {
      type: "constant"
      value: 0.2
    }
  }
}
layer {
  name: "inception_3a/prelu_5x5"
  type: "PReLU"
  bottom: "inception_3a/5x5"
  top: "inception_3a/5x5"
  param {
    lr_mult: 1
    decay_mult: 0
  }
  prelu_param {
    filler {
      type: "constant"
      value: 0.01
    }
  }
}
layer {
  name: "inception_3a/pool"
  type: "Pooling"
  bottom: "pool2/3x3_s2"
  top: "inception_3a/pool"
  pooling_param {
    pool: MAX
    kernel_size: 3
    stride: 1
    pad: 1
  }
}
layer {
  name: "inception_3a/pool_proj"
  type: "Convolution"
  bottom: "inception_3a/pool"
  top: "inception_3a/pool_proj"
  param {
    lr_mult: 1
    decay_mult: 1
  }
  param {
    lr_mult: 2
    decay_mult: 0
  }
  convolution_param {
    num_output: 32
    kernel_size: 1
    weight_filler {
      type: "xavier"
    }
    bias_filler {
      type: "constant"
      value: 0.2
    }
  }
}
layer {
  name: "inception_3a/prelu_pool_proj"
  type: "PReLU"
  bottom: "inception_3a/pool_proj"
  top: "inception_3a/pool_proj"
  param {
    lr_mult: 1
    decay_mult: 0
  }
  prelu_param {
    filler {
      type: "constant"
      value: 0.01
    }
  }
}
layer {
  name: "inception_3a/output"
  type: "Concat"
  bottom: "inception_3a/1x1"
  bottom: "inception_3a/3x3"
  bottom: "inception_3a/5x5"
  bottom: "inception_3a/pool_proj"
  top: "inception_3a/output"
}
layer {
  name: "inception_3b/1x1"
  type: "Convolution"
  bottom: "inception_3a/output"
  top: "inception_3b/1x1"
  param {
    lr_mult: 1
    decay_mult: 1
  }
  param {
    lr_mult: 2
    decay_mult: 0
  }
  convolution_param {
    num_output: 128
    kernel_size: 1
    weight_filler {
      type: "xavier"
    }
    bias_filler {
      type: "constant"
      value: 0.2
    }
  }
}
layer {
  name: "inception_3b/prelu_1x1"
  type: "PReLU"
  bottom: "inception_3b/1x1"
  top: "inception_3b/1x1"
  param {
    lr_mult: 1
    decay_mult: 0
  }
  prelu_param {
    filler {
      type: "constant"
      value: 0.01
    }
  }
}
layer {
  name: "inception_3b/3x3_reduce"
  type: "Convolution"
  bottom: "inception_3a/output"
  top: "inception_3b/3x3_reduce"
  param {
    lr_mult: 1
    decay_mult: 1
  }
  param {
    lr_mult: 2
    decay_mult: 0
  }
  convolution_param {
    num_output: 128
    kernel_size: 1
    weight_filler {
      type: "xavier"
    }
    bias_filler {
      type: "constant"
      value: 0.2
    }
  }
}
layer {
  name: "inception_3b/prelu_3x3_reduce"
  type: "PReLU"
  bottom: "inception_3b/3x3_reduce"
  top: "inception_3b/3x3_reduce"
  param {
    lr_mult: 1
    decay_mult: 0
  }
  prelu_param {
    filler {
      type: "constant"
      value: 0.01
    }
  }
}
layer {
  name: "inception_3b/3x3"
  type: "Convolution"
  bottom: "inception_3b/3x3_reduce"
  top: "inception_3b/3x3"
  param {
    lr_mult: 1
    decay_mult: 1
  }
  param {
    lr_mult: 2
    decay_mult: 0
  }
  convolution_param {
    num_output: 192
    pad: 1
    kernel_size: 3
    weight_filler {
      type: "xavier"
    }
    bias_filler {
      type: "constant"
      value: 0.2
    }
  }
}
layer {
  name: "inception_3b/prelu_3x3"
  type: "PReLU"
  bottom: "inception_3b/3x3"
  top: "inception_3b/3x3"
  param {
    lr_mult: 1
    decay_mult: 0
  }
  prelu_param {
    filler {
      type: "constant"
      value: 0.01
    }
  }
}
layer {
  name: "inception_3b/5x5_reduce"
  type: "Convolution"
  bottom: "inception_3a/output"
  top: "inception_3b/5x5_reduce"
  param {
    lr_mult: 1
    decay_mult: 1
  }
  param {
    lr_mult: 2
    decay_mult: 0
  }
  convolution_param {
    num_output: 32
    kernel_size: 1
    weight_filler {
      type: "xavier"
    }
    bias_filler {
      type: "constant"
      value: 0.2
    }
  }
}
layer {
  name: "inception_3b/prelu_5x5_reduce"
  type: "PReLU"
  bottom: "inception_3b/5x5_reduce"
  top: "inception_3b/5x5_reduce"
  param {
    lr_mult: 1
    decay_mult: 0
  }
  prelu_param {
    filler {
      type: "constant"
      value: 0.01
    }
  }
}
layer {
  name: "inception_3b/5x5"
  type: "Convolution"
  bottom: "inception_3b/5x5_reduce"
  top: "inception_3b/5x5"
  param {
    lr_mult: 1
    decay_mult: 1
  }
  param {
    lr_mult: 2
    decay_mult: 0
  }
  convolution_param {
    num_output: 96
    pad: 2
    kernel_size: 5
    weight_filler {
      type: "xavier"
    }
    bias_filler {
      type: "constant"
      value: 0.2
    }
  }
}
layer {
  name: "inception_3b/prelu_5x5"
  type: "PReLU"
  bottom: "inception_3b/5x5"
  top: "inception_3b/5x5"
  param {
    lr_mult: 1
    decay_mult: 0
  }
  prelu_param {
    filler {
      type: "constant"
      value: 0.01
    }
  }
}
layer {
  name: "inception_3b/pool"
  type: "Pooling"
  bottom: "inception_3a/output"
  top: "inception_3b/pool"
  pooling_param {
    pool: MAX
    kernel_size: 3
    stride: 1
    pad: 1
  }
}
layer {
  name: "inception_3b/pool_proj"
  type: "Convolution"
  bottom: "inception_3b/pool"
  top: "inception_3b/pool_proj"
  param {
    lr_mult: 1
    decay_mult: 1
  }
  param {
    lr_mult: 2
    decay_mult: 0
  }
  convolution_param {
    num_output: 64
    kernel_size: 1
    weight_filler {
      type: "xavier"
    }
    bias_filler {
      type: "constant"
      value: 0.2
    }
  }
}
layer {
  name: "inception_3b/prelu_pool_proj"
  type: "PReLU"
  bottom: "inception_3b/pool_proj"
  top: "inception_3b/pool_proj"
  param {
    lr_mult: 1
    decay_mult: 0
  }
  prelu_param {
    filler {
      type: "constant"
      value: 0.01
    }
  }
}
layer {
  name: "inception_3b/output"
  type: "Concat"
  bottom: "inception_3b/1x1"
  bottom: "inception_3b/3x3"
  bottom: "inception_3b/5x5"
  bottom: "inception_3b/pool_proj"
  top: "inception_3b/output"
}
layer {
  name: "pool3/3x3_s2"
  type: "Pooling"
  bottom: "inception_3b/output"
  top: "pool3/3x3_s2"
  pooling_param {
    pool: MAX
    kernel_size: 3
    stride: 2
  }
}
layer {
  name: "inception_4a/1x1"
  type: "Convolution"
  bottom: "pool3/3x3_s2"
  top: "inception_4a/1x1"
  param {
    lr_mult: 1
    decay_mult: 1
  }
  param {
    lr_mult: 2
    decay_mult: 0
  }
  convolution_param {
    num_output: 192
    kernel_size: 1
    weight_filler {
      type: "xavier"
    }
    bias_filler {
      type: "constant"
      value: 0.2
    }
  }
}
layer {
  name: "inception_4a/prelu_1x1"
  type: "PReLU"
  bottom: "inception_4a/1x1"
  top: "inception_4a/1x1"
  param {
    lr_mult: 1
    decay_mult: 0
  }
  prelu_param {
    filler {
      type: "constant"
      value: 0.01
    }
  }
}
layer {
  name: "inception_4a/3x3_reduce"
  type: "Convolution"
  bottom: "pool3/3x3_s2"
  top: "inception_4a/3x3_reduce"
  param {
    lr_mult: 1
    decay_mult: 1
  }
  param {
    lr_mult: 2
    decay_mult: 0
  }
  convolution_param {
    num_output: 96
    kernel_size: 1
    weight_filler {
      type: "xavier"
    }
    bias_filler {
      type: "constant"
      value: 0.2
    }
  }
}
layer {
  name: "inception_4a/prelu_3x3_reduce"
  type: "PReLU"
  bottom: "inception_4a/3x3_reduce"
  top: "inception_4a/3x3_reduce"
  param {
    lr_mult: 1
    decay_mult: 0
  }
  prelu_param {
    filler {
      type: "constant"
      value: 0.01
    }
  }
}
layer {
  name: "inception_4a/3x3"
  type: "Convolution"
  bottom: "inception_4a/3x3_reduce"
  top: "inception_4a/3x3"
  param {
    lr_mult: 1
    decay_mult: 1
  }
  param {
    lr_mult: 2
    decay_mult: 0
  }
  convolution_param {
    num_output: 208
    pad: 1
    kernel_size: 3
    weight_filler {
      type: "xavier"
    }
    bias_filler {
      type: "constant"
      value: 0.2
    }
  }
}
layer {
  name: "inception_4a/prelu_3x3"
  type: "PReLU"
  bottom: "inception_4a/3x3"
  top: "inception_4a/3x3"
  param {
    lr_mult: 1
    decay_mult: 0
  }
  prelu_param {
    filler {
      type: "constant"
      value: 0.01
    }
  }
}
layer {
  name: "inception_4a/5x5_reduce"
  type: "Convolution"
  bottom: "pool3/3x3_s2"
  top: "inception_4a/5x5_reduce"
  param {
    lr_mult: 1
    decay_mult: 1
  }
  param {
    lr_mult: 2
    decay_mult: 0
  }
  convolution_param {
    num_output: 16
    kernel_size: 1
    weight_filler {
      type: "xavier"
    }
    bias_filler {
      type: "constant"
      value: 0.2
    }
  }
}
layer {
  name: "inception_4a/prelu_5x5_reduce"
  type: "PReLU"
  bottom: "inception_4a/5x5_reduce"
  top: "inception_4a/5x5_reduce"
  param {
    lr_mult: 1
    decay_mult: 0
  }
  prelu_param {
    filler {
      type: "constant"
      value: 0.01
    }
  }
}
layer {
  name: "inception_4a/5x5"
  type: "Convolution"
  bottom: "inception_4a/5x5_reduce"
  top: "inception_4a/5x5"
  param {
    lr_mult: 1
    decay_mult: 1
  }
  param {
    lr_mult: 2
    decay_mult: 0
  }
  convolution_param {
    num_output: 48
    pad: 2
    kernel_size: 5
    weight_filler {
      type: "xavier"
    }
    bias_filler {
      type: "constant"
      value: 0.2
    }
  }
}
layer {
  name: "inception_4a/prelu_5x5"
  type: "PReLU"
  bottom: "inception_4a/5x5"
  top: "inception_4a/5x5"
  param {
    lr_mult: 1
    decay_mult: 0
  }
  prelu_param {
    filler {
      type: "constant"
      value: 0.01
    }
  }
}
layer {
  name: "inception_4a/pool"
  type: "Pooling"
  bottom: "pool3/3x3_s2"
  top: "inception_4a/pool"
  pooling_param {
    pool: MAX
    kernel_size: 3
    stride: 1
    pad: 1
  }
}
layer {
  name: "inception_4a/pool_proj"
  type: "Convolution"
  bottom: "inception_4a/pool"
  top: "inception_4a/pool_proj"
  param {
    lr_mult: 1
    decay_mult: 1
  }
  param {
    lr_mult: 2
    decay_mult: 0
  }
  convolution_param {
    num_output: 64
    kernel_size: 1
    weight_filler {
      type: "xavier"
    }
    bias_filler {
      type: "constant"
      value: 0.2
    }
  }
}
layer {
  name: "inception_4a/prelu_pool_proj"
  type: "PReLU"
  bottom: "inception_4a/pool_proj"
  top: "inception_4a/pool_proj"
  param {
    lr_mult: 1
    decay_mult: 0
  }
  prelu_param {
    filler {
      type: "constant"
      value: 0.01
    }
  }
}
layer {
  name: "inception_4a/output"
  type: "Concat"
  bottom: "inception_4a/1x1"
  bottom: "inception_4a/3x3"
  bottom: "inception_4a/5x5"
  bottom: "inception_4a/pool_proj"
  top: "inception_4a/output"
}
layer {
  name: "loss1/ave_pool"
  type: "Pooling"
  bottom: "inception_4a/output"
  top: "loss1/ave_pool"
  pooling_param {
    pool: AVE
    kernel_size: 5
    stride: 3
  }
}
layer {
  name: "loss1/conv"
  type: "Convolution"
  bottom: "loss1/ave_pool"
  top: "loss1/conv"
  param {
    lr_mult: 1
    decay_mult: 1
  }
  param {
    lr_mult: 2
    decay_mult: 0
  }
  convolution_param {
    num_output: 128
    kernel_size: 1
    weight_filler {
      type: "xavier"
    }
    bias_filler {
      type: "constant"
      value: 0.2
    }
  }
}
layer {
  name: "loss1/prelu_conv"
  type: "PReLU"
  bottom: "loss1/conv"
  top: "loss1/conv"
  param {
    lr_mult: 1
    decay_mult: 0
  }
  prelu_param {
    filler {
      type: "constant"
      value: 0.01
    }
  }
}
layer {
  name: "loss1/fc"
  type: "InnerProduct"
  bottom: "loss1/conv"
  top: "loss1/fc"
  param {
    lr_mult: 1
    decay_mult: 1
  }
  param {
    lr_mult: 2
    decay_mult: 0
  }
  inner_product_param {
    num_output: 1024
    weight_filler {
      type: "xavier"
    }
    bias_filler {
      type: "constant"
      value: 0.2
    }
  }
}
layer {
  name: "loss1/prelu_fc"
  type: "PReLU"
  bottom: "loss1/fc"
  top: "loss1/fc"
  param {
    lr_mult: 1
    decay_mult: 0
  }
  prelu_param {
    filler {
      type: "constant"
      value: 0.01
    }
  }
}
layer {
  name: "loss1/drop_fc"
  type: "Dropout"
  bottom: "loss1/fc"
  top: "loss1/fc"
  dropout_param {
    dropout_ratio: 0.7
  }
}
layer {
  name: "loss1/classifier2"
  type: "InnerProduct"
  bottom: "loss1/fc"
  top: "loss1/classifier"
  param {
    lr_mult: 1
    decay_mult: 1
  }
  param {
    lr_mult: 2
    decay_mult: 0
  }
  inner_product_param {
    num_output: 2
    weight_filler {
      type: "xavier"
    }
    bias_filler {
      type: "constant"
      value: 0
    }
  }
}
layer {
  name: "loss1/loss"
  type: "SoftmaxWithLoss"
  bottom: "loss1/classifier"
  bottom: "label"
  top: "loss1/loss1"
  loss_weight: 0.3
}
layer {
  name: "inception_4b/1x1"
  type: "Convolution"
  bottom: "inception_4a/output"
  top: "inception_4b/1x1"
  param {
    lr_mult: 1
    decay_mult: 1
  }
  param {
    lr_mult: 2
    decay_mult: 0
  }
  convolution_param {
    num_output: 160
    kernel_size: 1
    weight_filler {
      type: "xavier"
    }
    bias_filler {
      type: "constant"
      value: 0.2
    }
  }
}
layer {
  name: "inception_4b/prelu_1x1"
  type: "PReLU"
  bottom: "inception_4b/1x1"
  top: "inception_4b/1x1"
  param {
    lr_mult: 1
    decay_mult: 0
  }
  prelu_param {
    filler {
      type: "constant"
      value: 0.01
    }
  }
}
layer {
  name: "inception_4b/3x3_reduce"
  type: "Convolution"
  bottom: "inception_4a/output"
  top: "inception_4b/3x3_reduce"
  param {
    lr_mult: 1
    decay_mult: 1
  }
  param {
    lr_mult: 2
    decay_mult: 0
  }
  convolution_param {
    num_output: 112
    kernel_size: 1
    weight_filler {
      type: "xavier"
    }
    bias_filler {
      type: "constant"
      value: 0.2
    }
  }
}
layer {
  name: "inception_4b/prelu_3x3_reduce"
  type: "PReLU"
  bottom: "inception_4b/3x3_reduce"
  top: "inception_4b/3x3_reduce"
  param {
    lr_mult: 1
    decay_mult: 0
  }
  prelu_param {
    filler {
      type: "constant"
      value: 0.01
    }
  }
}
layer {
  name: "inception_4b/3x3"
  type: "Convolution"
  bottom: "inception_4b/3x3_reduce"
  top: "inception_4b/3x3"
  param {
    lr_mult: 1
    decay_mult: 1
  }
  param {
    lr_mult: 2
    decay_mult: 0
  }
  convolution_param {
    num_output: 224
    pad: 1
    kernel_size: 3
    weight_filler {
      type: "xavier"
    }
    bias_filler {
      type: "constant"
      value: 0.2
    }
  }
}
layer {
  name: "inception_4b/prelu_3x3"
  type: "PReLU"
  bottom: "inception_4b/3x3"
  top: "inception_4b/3x3"
  param {
    lr_mult: 1
    decay_mult: 0
  }
  prelu_param {
    filler {
      type: "constant"
      value: 0.01
    }
  }
}
layer {
  name: "inception_4b/5x5_reduce"
  type: "Convolution"
  bottom: "inception_4a/output"
  top: "inception_4b/5x5_reduce"
  param {
    lr_mult: 1
    decay_mult: 1
  }
  param {
    lr_mult: 2
    decay_mult: 0
  }
  convolution_param {
    num_output: 24
    kernel_size: 1
    weight_filler {
      type: "xavier"
    }
    bias_filler {
      type: "constant"
      value: 0.2
    }
  }
}
layer {
  name: "inception_4b/prelu_5x5_reduce"
  type: "PReLU"
  bottom: "inception_4b/5x5_reduce"
  top: "inception_4b/5x5_reduce"
  param {
    lr_mult: 1
    decay_mult: 0
  }
  prelu_param {
    filler {
      type: "constant"
      value: 0.01
    }
  }
}
layer {
  name: "inception_4b/5x5"
  type: "Convolution"
  bottom: "inception_4b/5x5_reduce"
  top: "inception_4b/5x5"
  param {
    lr_mult: 1
    decay_mult: 1
  }
  param {
    lr_mult: 2
    decay_mult: 0
  }
  convolution_param {
    num_output: 64
    pad: 2
    kernel_size: 5
    weight_filler {
      type: "xavier"
    }
    bias_filler {
      type: "constant"
      value: 0.2
    }
  }
}
layer {
  name: "inception_4b/prelu_5x5"
  type: "PReLU"
  bottom: "inception_4b/5x5"
  top: "inception_4b/5x5"
  param {
    lr_mult: 1
    decay_mult: 0
  }
  prelu_param {
    filler {
      type: "constant"
      value: 0.01
    }
  }
}
layer {
  name: "inception_4b/pool"
  type: "Pooling"
  bottom: "inception_4a/output"
  top: "inception_4b/pool"
  pooling_param {
    pool: MAX
    kernel_size: 3
    stride: 1
    pad: 1
  }
}
layer {
  name: "inception_4b/pool_proj"
  type: "Convolution"
  bottom: "inception_4b/pool"
  top: "inception_4b/pool_proj"
  param {
    lr_mult: 1
    decay_mult: 1
  }
  param {
    lr_mult: 2
    decay_mult: 0
  }
  convolution_param {
    num_output: 64
    kernel_size: 1
    weight_filler {
      type: "xavier"
    }
    bias_filler {
      type: "constant"
      value: 0.2
    }
  }
}
layer {
  name: "inception_4b/prelu_pool_proj"
  type: "PReLU"
  bottom: "inception_4b/pool_proj"
  top: "inception_4b/pool_proj"
  param {
    lr_mult: 1
    decay_mult: 0
  }
  prelu_param {
    filler {
      type: "constant"
      value: 0.01
    }
  }
}
layer {
  name: "inception_4b/output"
  type: "Concat"
  bottom: "inception_4b/1x1"
  bottom: "inception_4b/3x3"
  bottom: "inception_4b/5x5"
  bottom: "inception_4b/pool_proj"
  top: "inception_4b/output"
}
layer {
  name: "inception_4c/1x1"
  type: "Convolution"
  bottom: "inception_4b/output"
  top: "inception_4c/1x1"
  param {
    lr_mult: 1
    decay_mult: 1
  }
  param {
    lr_mult: 2
    decay_mult: 0
  }
  convolution_param {
    num_output: 128
    kernel_size: 1
    weight_filler {
      type: "xavier"
    }
    bias_filler {
      type: "constant"
      value: 0.2
    }
  }
}
layer {
  name: "inception_4c/prelu_1x1"
  type: "PReLU"
  bottom: "inception_4c/1x1"
  top: "inception_4c/1x1"
  param {
    lr_mult: 1
    decay_mult: 0
  }
  prelu_param {
    filler {
      type: "constant"
      value: 0.01
    }
  }
}
layer {
  name: "inception_4c/3x3_reduce"
  type: "Convolution"
  bottom: "inception_4b/output"
  top: "inception_4c/3x3_reduce"
  param {
    lr_mult: 1
    decay_mult: 1
  }
  param {
    lr_mult: 2
    decay_mult: 0
  }
  convolution_param {
    num_output: 128
    kernel_size: 1
    weight_filler {
      type: "xavier"
    }
    bias_filler {
      type: "constant"
      value: 0.2
    }
  }
}
layer {
  name: "inception_4c/prelu_3x3_reduce"
  type: "PReLU"
  bottom: "inception_4c/3x3_reduce"
  top: "inception_4c/3x3_reduce"
  param {
    lr_mult: 1
    decay_mult: 0
  }
  prelu_param {
    filler {
      type: "constant"
      value: 0.01
    }
  }
}
layer {
  name: "inception_4c/3x3"
  type: "Convolution"
  bottom: "inception_4c/3x3_reduce"
  top: "inception_4c/3x3"
  param {
    lr_mult: 1
    decay_mult: 1
  }
  param {
    lr_mult: 2
    decay_mult: 0
  }
  convolution_param {
    num_output: 256
    pad: 1
    kernel_size: 3
    weight_filler {
      type: "xavier"
    }
    bias_filler {
      type: "constant"
      value: 0.2
    }
  }
}
layer {
  name: "inception_4c/prelu_3x3"
  type: "PReLU"
  bottom: "inception_4c/3x3"
  top: "inception_4c/3x3"
  param {
    lr_mult: 1
    decay_mult: 0
  }
  prelu_param {
    filler {
      type: "constant"
      value: 0.01
    }
  }
}
layer {
  name: "inception_4c/5x5_reduce"
  type: "Convolution"
  bottom: "inception_4b/output"
  top: "inception_4c/5x5_reduce"
  param {
    lr_mult: 1
    decay_mult: 1
  }
  param {
    lr_mult: 2
    decay_mult: 0
  }
  convolution_param {
    num_output: 24
    kernel_size: 1
    weight_filler {
      type: "xavier"
    }
    bias_filler {
      type: "constant"
      value: 0.2
    }
  }
}
layer {
  name: "inception_4c/prelu_5x5_reduce"
  type: "PReLU"
  bottom: "inception_4c/5x5_reduce"
  top: "inception_4c/5x5_reduce"
  param {
    lr_mult: 1
    decay_mult: 0
  }
  prelu_param {
    filler {
      type: "constant"
      value: 0.01
    }
  }
}
layer {
  name: "inception_4c/5x5"
  type: "Convolution"
  bottom: "inception_4c/5x5_reduce"
  top: "inception_4c/5x5"
  param {
    lr_mult: 1
    decay_mult: 1
  }
  param {
    lr_mult: 2
    decay_mult: 0
  }
  convolution_param {
    num_output: 64
    pad: 2
    kernel_size: 5
    weight_filler {
      type: "xavier"
    }
    bias_filler {
      type: "constant"
      value: 0.2
    }
  }
}
layer {
  name: "inception_4c/prelu_5x5"
  type: "PReLU"
  bottom: "inception_4c/5x5"
  top: "inception_4c/5x5"
  param {
    lr_mult: 1
    decay_mult: 0
  }
  prelu_param {
    filler {
      type: "constant"
      value: 0.01
    }
  }
}
layer {
  name: "inception_4c/pool"
  type: "Pooling"
  bottom: "inception_4b/output"
  top: "inception_4c/pool"
  pooling_param {
    pool: MAX
    kernel_size: 3
    stride: 1
    pad: 1
  }
}
layer {
  name: "inception_4c/pool_proj"
  type: "Convolution"
  bottom: "inception_4c/pool"
  top: "inception_4c/pool_proj"
  param {
    lr_mult: 1
    decay_mult: 1
  }
  param {
    lr_mult: 2
    decay_mult: 0
  }
  convolution_param {
    num_output: 64
    kernel_size: 1
    weight_filler {
      type: "xavier"
    }
    bias_filler {
      type: "constant"
      value: 0.2
    }
  }
}
layer {
  name: "inception_4c/prelu_pool_proj"
  type: "PReLU"
  bottom: "inception_4c/pool_proj"
  top: "inception_4c/pool_proj"
  param {
    lr_mult: 1
    decay_mult: 0
  }
  prelu_param {
    filler {
      type: "constant"
      value: 0.01
    }
  }
}
layer {
  name: "inception_4c/output"
  type: "Concat"
  bottom: "inception_4c/1x1"
  bottom: "inception_4c/3x3"
  bottom: "inception_4c/5x5"
  bottom: "inception_4c/pool_proj"
  top: "inception_4c/output"
}
layer {
  name: "inception_4d/1x1"
  type: "Convolution"
  bottom: "inception_4c/output"
  top: "inception_4d/1x1"
  param {
    lr_mult: 1
    decay_mult: 1
  }
  param {
    lr_mult: 2
    decay_mult: 0
  }
  convolution_param {
    num_output: 112
    kernel_size: 1
    weight_filler {
      type: "xavier"
    }
    bias_filler {
      type: "constant"
      value: 0.2
    }
  }
}
layer {
  name: "inception_4d/prelu_1x1"
  type: "PReLU"
  bottom: "inception_4d/1x1"
  top: "inception_4d/1x1"
  param {
    lr_mult: 1
    decay_mult: 0
  }
  prelu_param {
    filler {
      type: "constant"
      value: 0.01
    }
  }
}
layer {
  name: "inception_4d/3x3_reduce"
  type: "Convolution"
  bottom: "inception_4c/output"
  top: "inception_4d/3x3_reduce"
  param {
    lr_mult: 1
    decay_mult: 1
  }
  param {
    lr_mult: 2
    decay_mult: 0
  }
  convolution_param {
    num_output: 144
    kernel_size: 1
    weight_filler {
      type: "xavier"
    }
    bias_filler {
      type: "constant"
      value: 0.2
    }
  }
}
layer {
  name: "inception_4d/prelu_3x3_reduce"
  type: "PReLU"
  bottom: "inception_4d/3x3_reduce"
  top: "inception_4d/3x3_reduce"
  param {
    lr_mult: 1
    decay_mult: 0
  }
  prelu_param {
    filler {
      type: "constant"
      value: 0.01
    }
  }
}
layer {
  name: "inception_4d/3x3"
  type: "Convolution"
  bottom: "inception_4d/3x3_reduce"
  top: "inception_4d/3x3"
  param {
    lr_mult: 1
    decay_mult: 1
  }
  param {
    lr_mult: 2
    decay_mult: 0
  }
  convolution_param {
    num_output: 288
    pad: 1
    kernel_size: 3
    weight_filler {
      type: "xavier"
    }
    bias_filler {
      type: "constant"
      value: 0.2
    }
  }
}
layer {
  name: "inception_4d/prelu_3x3"
  type: "PReLU"
  bottom: "inception_4d/3x3"
  top: "inception_4d/3x3"
  param {
    lr_mult: 1
    decay_mult: 0
  }
  prelu_param {
    filler {
      type: "constant"
      value: 0.01
    }
  }
}
layer {
  name: "inception_4d/5x5_reduce"
  type: "Convolution"
  bottom: "inception_4c/output"
  top: "inception_4d/5x5_reduce"
  param {
    lr_mult: 1
    decay_mult: 1
  }
  param {
    lr_mult: 2
    decay_mult: 0
  }
  convolution_param {
    num_output: 32
    kernel_size: 1
    weight_filler {
      type: "xavier"
    }
    bias_filler {
      type: "constant"
      value: 0.2
    }
  }
}
layer {
  name: "inception_4d/prelu_5x5_reduce"
  type: "PReLU"
  bottom: "inception_4d/5x5_reduce"
  top: "inception_4d/5x5_reduce"
  param {
    lr_mult: 1
    decay_mult: 0
  }
  prelu_param {
    filler {
      type: "constant"
      value: 0.01
    }
  }
}
layer {
  name: "inception_4d/5x5"
  type: "Convolution"
  bottom: "inception_4d/5x5_reduce"
  top: "inception_4d/5x5"
  param {
    lr_mult: 1
    decay_mult: 1
  }
  param {
    lr_mult: 2
    decay_mult: 0
  }
  convolution_param {
    num_output: 64
    pad: 2
    kernel_size: 5
    weight_filler {
      type: "xavier"
    }
    bias_filler {
      type: "constant"
      value: 0.2
    }
  }
}
layer {
  name: "inception_4d/prelu_5x5"
  type: "PReLU"
  bottom: "inception_4d/5x5"
  top: "inception_4d/5x5"
  param {
    lr_mult: 1
    decay_mult: 0
  }
  prelu_param {
    filler {
      type: "constant"
      value: 0.01
    }
  }
}
layer {
  name: "inception_4d/pool"
  type: "Pooling"
  bottom: "inception_4c/output"
  top: "inception_4d/pool"
  pooling_param {
    pool: MAX
    kernel_size: 3
    stride: 1
    pad: 1
  }
}
layer {
  name: "inception_4d/pool_proj"
  type: "Convolution"
  bottom: 
I1126 09:59:38.724829 10258 layer_factory.hpp:76] Creating layer data
I1126 09:59:38.725282 10258 net.cpp:106] Creating Layer data
I1126 09:59:38.725304 10258 net.cpp:411] data -> data
I1126 09:59:38.725340 10258 net.cpp:411] data -> label
I1126 09:59:38.743135 10262 db_lmdb.cpp:38] Opened lmdb ../../LMDB-s300/train_1-lmdb
I1126 09:59:38.771610 10258 data_layer.cpp:41] output data size: 32,3,224,224
I1126 09:59:38.837872 10258 net.cpp:150] Setting up data
I1126 09:59:38.837946 10258 net.cpp:157] Top shape: 32 3 224 224 (4816896)
I1126 09:59:38.837970 10258 net.cpp:157] Top shape: 32 (32)
I1126 09:59:38.837978 10258 net.cpp:165] Memory required for data: 19267712
I1126 09:59:38.837991 10258 layer_factory.hpp:76] Creating layer label_data_1_split
I1126 09:59:38.838012 10258 net.cpp:106] Creating Layer label_data_1_split
I1126 09:59:38.838021 10258 net.cpp:454] label_data_1_split <- label
I1126 09:59:38.838037 10258 net.cpp:411] label_data_1_split -> label_data_1_split_0
I1126 09:59:38.838062 10258 net.cpp:411] label_data_1_split -> label_data_1_split_1
I1126 09:59:38.838069 10258 net.cpp:411] label_data_1_split -> label_data_1_split_2
I1126 09:59:38.838129 10258 net.cpp:150] Setting up label_data_1_split
I1126 09:59:38.838138 10258 net.cpp:157] Top shape: 32 (32)
I1126 09:59:38.838143 10258 net.cpp:157] Top shape: 32 (32)
I1126 09:59:38.838148 10258 net.cpp:157] Top shape: 32 (32)
I1126 09:59:38.838152 10258 net.cpp:165] Memory required for data: 19268096
I1126 09:59:38.838156 10258 layer_factory.hpp:76] Creating layer conv1/7x7_s2
I1126 09:59:38.838174 10258 net.cpp:106] Creating Layer conv1/7x7_s2
I1126 09:59:38.838179 10258 net.cpp:454] conv1/7x7_s2 <- data
I1126 09:59:38.838187 10258 net.cpp:411] conv1/7x7_s2 -> conv1/7x7_s2
I1126 09:59:38.903278 10263 blocking_queue.cpp:50] Waiting for data
I1126 09:59:39.055243 10258 cudnn_conv_layer.cpp:194] Reallocating workspace storage: 225816
I1126 09:59:39.055549 10258 net.cpp:150] Setting up conv1/7x7_s2
I1126 09:59:39.055569 10258 net.cpp:157] Top shape: 32 64 112 112 (25690112)
I1126 09:59:39.055577 10258 net.cpp:165] Memory required for data: 122028544
I1126 09:59:39.055603 10258 layer_factory.hpp:76] Creating layer conv1/prelu_7x7
I1126 09:59:39.055625 10258 net.cpp:106] Creating Layer conv1/prelu_7x7
I1126 09:59:39.055634 10258 net.cpp:454] conv1/prelu_7x7 <- conv1/7x7_s2
I1126 09:59:39.055646 10258 net.cpp:397] conv1/prelu_7x7 -> conv1/7x7_s2 (in-place)
I1126 09:59:39.057976 10258 net.cpp:150] Setting up conv1/prelu_7x7
I1126 09:59:39.057996 10258 net.cpp:157] Top shape: 32 64 112 112 (25690112)
I1126 09:59:39.058004 10258 net.cpp:165] Memory required for data: 224788992
I1126 09:59:39.058018 10258 layer_factory.hpp:76] Creating layer pool1/3x3_s2
I1126 09:59:39.058037 10258 net.cpp:106] Creating Layer pool1/3x3_s2
I1126 09:59:39.058046 10258 net.cpp:454] pool1/3x3_s2 <- conv1/7x7_s2
I1126 09:59:39.058058 10258 net.cpp:411] pool1/3x3_s2 -> pool1/3x3_s2
I1126 09:59:39.058557 10258 net.cpp:150] Setting up pool1/3x3_s2
I1126 09:59:39.058571 10258 net.cpp:157] Top shape: 32 64 56 56 (6422528)
I1126 09:59:39.058579 10258 net.cpp:165] Memory required for data: 250479104
I1126 09:59:39.058588 10258 layer_factory.hpp:76] Creating layer pool1/norm1
I1126 09:59:39.058605 10258 net.cpp:106] Creating Layer pool1/norm1
I1126 09:59:39.058614 10258 net.cpp:454] pool1/norm1 <- pool1/3x3_s2
I1126 09:59:39.058625 10258 net.cpp:411] pool1/norm1 -> pool1/norm1
I1126 09:59:39.058853 10258 net.cpp:150] Setting up pool1/norm1
I1126 09:59:39.058867 10258 net.cpp:157] Top shape: 32 64 56 56 (6422528)
I1126 09:59:39.058874 10258 net.cpp:165] Memory required for data: 276169216
I1126 09:59:39.058881 10258 layer_factory.hpp:76] Creating layer conv2/3x3_reduce
I1126 09:59:39.058895 10258 net.cpp:106] Creating Layer conv2/3x3_reduce
I1126 09:59:39.058902 10258 net.cpp:454] conv2/3x3_reduce <- pool1/norm1
I1126 09:59:39.058912 10258 net.cpp:411] conv2/3x3_reduce -> conv2/3x3_reduce
I1126 09:59:39.060797 10258 cudnn_conv_layer.cpp:194] Reallocating workspace storage: 63000
I1126 09:59:39.060827 10258 net.cpp:150] Setting up conv2/3x3_reduce
I1126 09:59:39.060842 10258 net.cpp:157] Top shape: 32 64 56 56 (6422528)
I1126 09:59:39.060850 10258 net.cpp:165] Memory required for data: 301859328
I1126 09:59:39.060866 10258 layer_factory.hpp:76] Creating layer conv2/prelu_3x3_reduce
I1126 09:59:39.060879 10258 net.cpp:106] Creating Layer conv2/prelu_3x3_reduce
I1126 09:59:39.060889 10258 net.cpp:454] conv2/prelu_3x3_reduce <- conv2/3x3_reduce
I1126 09:59:39.060899 10258 net.cpp:397] conv2/prelu_3x3_reduce -> conv2/3x3_reduce (in-place)
I1126 09:59:39.061722 10258 net.cpp:150] Setting up conv2/prelu_3x3_reduce
I1126 09:59:39.061738 10258 net.cpp:157] Top shape: 32 64 56 56 (6422528)
I1126 09:59:39.061745 10258 net.cpp:165] Memory required for data: 327549440
I1126 09:59:39.061755 10258 layer_factory.hpp:76] Creating layer conv2/3x3
I1126 09:59:39.061769 10258 net.cpp:106] Creating Layer conv2/3x3
I1126 09:59:39.061775 10258 net.cpp:454] conv2/3x3 <- conv2/3x3_reduce
I1126 09:59:39.061787 10258 net.cpp:411] conv2/3x3 -> conv2/3x3
I1126 09:59:39.064544 10258 cudnn_conv_layer.cpp:194] Reallocating workspace storage: 63000
I1126 09:59:39.064573 10258 net.cpp:150] Setting up conv2/3x3
I1126 09:59:39.064584 10258 net.cpp:157] Top shape: 32 192 56 56 (19267584)
I1126 09:59:39.064590 10258 net.cpp:165] Memory required for data: 404619776
I1126 09:59:39.064601 10258 layer_factory.hpp:76] Creating layer conv2/prelu_3x3
I1126 09:59:39.064612 10258 net.cpp:106] Creating Layer conv2/prelu_3x3
I1126 09:59:39.064620 10258 net.cpp:454] conv2/prelu_3x3 <- conv2/3x3
I1126 09:59:39.064630 10258 net.cpp:397] conv2/prelu_3x3 -> conv2/3x3 (in-place)
I1126 09:59:39.066285 10258 net.cpp:150] Setting up conv2/prelu_3x3
I1126 09:59:39.066308 10258 net.cpp:157] Top shape: 32 192 56 56 (19267584)
I1126 09:59:39.066347 10258 net.cpp:165] Memory required for data: 481690112
I1126 09:59:39.066365 10258 layer_factory.hpp:76] Creating layer conv2/norm2
I1126 09:59:39.066380 10258 net.cpp:106] Creating Layer conv2/norm2
I1126 09:59:39.066388 10258 net.cpp:454] conv2/norm2 <- conv2/3x3
I1126 09:59:39.066401 10258 net.cpp:411] conv2/norm2 -> conv2/norm2
I1126 09:59:39.066666 10258 net.cpp:150] Setting up conv2/norm2
I1126 09:59:39.066680 10258 net.cpp:157] Top shape: 32 192 56 56 (19267584)
I1126 09:59:39.066689 10258 net.cpp:165] Memory required for data: 558760448
I1126 09:59:39.066695 10258 layer_factory.hpp:76] Creating layer pool2/3x3_s2
I1126 09:59:39.066706 10258 net.cpp:106] Creating Layer pool2/3x3_s2
I1126 09:59:39.066714 10258 net.cpp:454] pool2/3x3_s2 <- conv2/norm2
I1126 09:59:39.066722 10258 net.cpp:411] pool2/3x3_s2 -> pool2/3x3_s2
I1126 09:59:39.067178 10258 net.cpp:150] Setting up pool2/3x3_s2
I1126 09:59:39.067191 10258 net.cpp:157] Top shape: 32 192 28 28 (4816896)
I1126 09:59:39.067198 10258 net.cpp:165] Memory required for data: 578028032
I1126 09:59:39.067205 10258 layer_factory.hpp:76] Creating layer pool2/3x3_s2_pool2/3x3_s2_0_split
I1126 09:59:39.067216 10258 net.cpp:106] Creating Layer pool2/3x3_s2_pool2/3x3_s2_0_split
I1126 09:59:39.067224 10258 net.cpp:454] pool2/3x3_s2_pool2/3x3_s2_0_split <- pool2/3x3_s2
I1126 09:59:39.067234 10258 net.cpp:411] pool2/3x3_s2_pool2/3x3_s2_0_split -> pool2/3x3_s2_pool2/3x3_s2_0_split_0
I1126 09:59:39.067244 10258 net.cpp:411] pool2/3x3_s2_pool2/3x3_s2_0_split -> pool2/3x3_s2_pool2/3x3_s2_0_split_1
I1126 09:59:39.067255 10258 net.cpp:411] pool2/3x3_s2_pool2/3x3_s2_0_split -> pool2/3x3_s2_pool2/3x3_s2_0_split_2
I1126 09:59:39.067265 10258 net.cpp:411] pool2/3x3_s2_pool2/3x3_s2_0_split -> pool2/3x3_s2_pool2/3x3_s2_0_split_3
I1126 09:59:39.067342 10258 net.cpp:150] Setting up pool2/3x3_s2_pool2/3x3_s2_0_split
I1126 09:59:39.067354 10258 net.cpp:157] Top shape: 32 192 28 28 (4816896)
I1126 09:59:39.067364 10258 net.cpp:157] Top shape: 32 192 28 28 (4816896)
I1126 09:59:39.067373 10258 net.cpp:157] Top shape: 32 192 28 28 (4816896)
I1126 09:59:39.067383 10258 net.cpp:157] Top shape: 32 192 28 28 (4816896)
I1126 09:59:39.067390 10258 net.cpp:165] Memory required for data: 655098368
I1126 09:59:39.067399 10258 layer_factory.hpp:76] Creating layer inception_3a/1x1
I1126 09:59:39.067412 10258 net.cpp:106] Creating Layer inception_3a/1x1
I1126 09:59:39.067421 10258 net.cpp:454] inception_3a/1x1 <- pool2/3x3_s2_pool2/3x3_s2_0_split_0
I1126 09:59:39.067433 10258 net.cpp:411] inception_3a/1x1 -> inception_3a/1x1
I1126 09:59:39.069749 10258 cudnn_conv_layer.cpp:194] Reallocating workspace storage: 20664
I1126 09:59:39.069818 10258 net.cpp:150] Setting up inception_3a/1x1
I1126 09:59:39.069838 10258 net.cpp:157] Top shape: 32 64 28 28 (1605632)
I1126 09:59:39.069846 10258 net.cpp:165] Memory required for data: 661520896
I1126 09:59:39.069862 10258 layer_factory.hpp:76] Creating layer inception_3a/prelu_1x1
I1126 09:59:39.069882 10258 net.cpp:106] Creating Layer inception_3a/prelu_1x1
I1126 09:59:39.069890 10258 net.cpp:454] inception_3a/prelu_1x1 <- inception_3a/1x1
I1126 09:59:39.069905 10258 net.cpp:397] inception_3a/prelu_1x1 -> inception_3a/1x1 (in-place)
I1126 09:59:39.070734 10258 net.cpp:150] Setting up inception_3a/prelu_1x1
I1126 09:59:39.070757 10258 net.cpp:157] Top shape: 32 64 28 28 (1605632)
I1126 09:59:39.070765 10258 net.cpp:165] Memory required for data: 667943424
I1126 09:59:39.070775 10258 layer_factory.hpp:76] Creating layer inception_3a/3x3_reduce
I1126 09:59:39.070792 10258 net.cpp:106] Creating Layer inception_3a/3x3_reduce
I1126 09:59:39.070801 10258 net.cpp:454] inception_3a/3x3_reduce <- pool2/3x3_s2_pool2/3x3_s2_0_split_1
I1126 09:59:39.070816 10258 net.cpp:411] inception_3a/3x3_reduce -> inception_3a/3x3_reduce
I1126 09:59:39.072193 10258 cudnn_conv_layer.cpp:194] Reallocating workspace storage: 20664
I1126 09:59:39.072222 10258 net.cpp:150] Setting up inception_3a/3x3_reduce
I1126 09:59:39.072234 10258 net.cpp:157] Top shape: 32 96 28 28 (2408448)
I1126 09:59:39.072268 10258 net.cpp:165] Memory required for data: 677577216
I1126 09:59:39.072281 10258 layer_factory.hpp:76] Creating layer inception_3a/prelu_3x3_reduce
I1126 09:59:39.072301 10258 net.cpp:106] Creating Layer inception_3a/prelu_3x3_reduce
I1126 09:59:39.072309 10258 net.cpp:454] inception_3a/prelu_3x3_reduce <- inception_3a/3x3_reduce
I1126 09:59:39.072324 10258 net.cpp:397] inception_3a/prelu_3x3_reduce -> inception_3a/3x3_reduce (in-place)
I1126 09:59:39.072525 10258 net.cpp:150] Setting up inception_3a/prelu_3x3_reduce
I1126 09:59:39.072537 10258 net.cpp:157] Top shape: 32 96 28 28 (2408448)
I1126 09:59:39.072545 10258 net.cpp:165] Memory required for data: 687211008
I1126 09:59:39.072554 10258 layer_factory.hpp:76] Creating layer inception_3a/3x3
I1126 09:59:39.072571 10258 net.cpp:106] Creating Layer inception_3a/3x3
I1126 09:59:39.072577 10258 net.cpp:454] inception_3a/3x3 <- inception_3a/3x3_reduce
I1126 09:59:39.072587 10258 net.cpp:411] inception_3a/3x3 -> inception_3a/3x3
I1126 09:59:39.075477 10258 cudnn_conv_layer.cpp:194] Reallocating workspace storage: 20664
I1126 09:59:39.075507 10258 net.cpp:150] Setting up inception_3a/3x3
I1126 09:59:39.075520 10258 net.cpp:157] Top shape: 32 128 28 28 (3211264)
I1126 09:59:39.075526 10258 net.cpp:165] Memory required for data: 700056064
I1126 09:59:39.075543 10258 layer_factory.hpp:76] Creating layer inception_3a/prelu_3x3
I1126 09:59:39.075557 10258 net.cpp:106] Creating Layer inception_3a/prelu_3x3
I1126 09:59:39.075564 10258 net.cpp:454] inception_3a/prelu_3x3 <- inception_3a/3x3
I1126 09:59:39.075577 10258 net.cpp:397] inception_3a/prelu_3x3 -> inception_3a/3x3 (in-place)
I1126 09:59:39.075758 10258 net.cpp:150] Setting up inception_3a/prelu_3x3
I1126 09:59:39.075772 10258 net.cpp:157] Top shape: 32 128 28 28 (3211264)
I1126 09:59:39.075778 10258 net.cpp:165] Memory required for data: 712901120
I1126 09:59:39.075788 10258 layer_factory.hpp:76] Creating layer inception_3a/5x5_reduce
I1126 09:59:39.075803 10258 net.cpp:106] Creating Layer inception_3a/5x5_reduce
I1126 09:59:39.075812 10258 net.cpp:454] inception_3a/5x5_reduce <- pool2/3x3_s2_pool2/3x3_s2_0_split_2
I1126 09:59:39.075825 10258 net.cpp:411] inception_3a/5x5_reduce -> inception_3a/5x5_reduce
I1126 09:59:39.077447 10258 cudnn_conv_layer.cpp:194] Reallocating workspace storage: 20664
I1126 09:59:39.077471 10258 net.cpp:150] Setting up inception_3a/5x5_reduce
I1126 09:59:39.077481 10258 net.cpp:157] Top shape: 32 16 28 28 (401408)
I1126 09:59:39.077488 10258 net.cpp:165] Memory required for data: 714506752
I1126 09:59:39.077498 10258 layer_factory.hpp:76] Creating layer inception_3a/prelu_5x5_reduce
I1126 09:59:39.077512 10258 net.cpp:106] Creating Layer inception_3a/prelu_5x5_reduce
I1126 09:59:39.077518 10258 net.cpp:454] inception_3a/prelu_5x5_reduce <- inception_3a/5x5_reduce
I1126 09:59:39.077527 10258 net.cpp:397] inception_3a/prelu_5x5_reduce -> inception_3a/5x5_reduce (in-place)
I1126 09:59:39.077666 10258 net.cpp:150] Setting up inception_3a/prelu_5x5_reduce
I1126 09:59:39.077677 10258 net.cpp:157] Top shape: 32 16 28 28 (401408)
I1126 09:59:39.077683 10258 net.cpp:165] Memory required for data: 716112384
I1126 09:59:39.077692 10258 layer_factory.hpp:76] Creating layer inception_3a/5x5
I1126 09:59:39.077703 10258 net.cpp:106] Creating Layer inception_3a/5x5
I1126 09:59:39.077711 10258 net.cpp:454] inception_3a/5x5 <- inception_3a/5x5_reduce
I1126 09:59:39.077723 10258 net.cpp:411] inception_3a/5x5 -> inception_3a/5x5
I1126 09:59:39.079146 10258 cudnn_conv_layer.cpp:194] Reallocating workspace storage: 20664
I1126 09:59:39.079167 10258 net.cpp:150] Setting up inception_3a/5x5
I1126 09:59:39.079179 10258 net.cpp:157] Top shape: 32 32 28 28 (802816)
I1126 09:59:39.079185 10258 net.cpp:165] Memory required for data: 719323648
I1126 09:59:39.079195 10258 layer_factory.hpp:76] Creating layer inception_3a/prelu_5x5
I1126 09:59:39.079208 10258 net.cpp:106] Creating Layer inception_3a/prelu_5x5
I1126 09:59:39.079216 10258 net.cpp:454] inception_3a/prelu_5x5 <- inception_3a/5x5
I1126 09:59:39.079226 10258 net.cpp:397] inception_3a/prelu_5x5 -> inception_3a/5x5 (in-place)
I1126 09:59:39.079401 10258 net.cpp:150] Setting up inception_3a/prelu_5x5
I1126 09:59:39.079421 10258 net.cpp:157] Top shape: 32 32 28 28 (802816)
I1126 09:59:39.079437 10258 net.cpp:165] Memory required for data: 722534912
I1126 09:59:39.079444 10258 layer_factory.hpp:76] Creating layer inception_3a/pool
I1126 09:59:39.079457 10258 net.cpp:106] Creating Layer inception_3a/pool
I1126 09:59:39.079473 10258 net.cpp:454] inception_3a/pool <- pool2/3x3_s2_pool2/3x3_s2_0_split_3
I1126 09:59:39.079481 10258 net.cpp:411] inception_3a/pool -> inception_3a/pool
I1126 09:59:39.079732 10258 net.cpp:150] Setting up inception_3a/pool
I1126 09:59:39.079746 10258 net.cpp:157] Top shape: 32 192 28 28 (4816896)
I1126 09:59:39.079752 10258 net.cpp:165] Memory required for data: 741802496
I1126 09:59:39.079761 10258 layer_factory.hpp:76] Creating layer inception_3a/pool_proj
I1126 09:59:39.079776 10258 net.cpp:106] Creating Layer inception_3a/pool_proj
I1126 09:59:39.079784 10258 net.cpp:454] inception_3a/pool_proj <- inception_3a/pool
I1126 09:59:39.079795 10258 net.cpp:411] inception_3a/pool_proj -> inception_3a/pool_proj
I1126 09:59:39.081193 10258 cudnn_conv_layer.cpp:194] Reallocating workspace storage: 20664
I1126 09:59:39.081223 10258 net.cpp:150] Setting up inception_3a/pool_proj
I1126 09:59:39.081235 10258 net.cpp:157] Top shape: 32 32 28 28 (802816)
I1126 09:59:39.081246 10258 net.cpp:165] Memory required for data: 745013760
I1126 09:59:39.081259 10258 layer_factory.hpp:76] Creating layer inception_3a/prelu_pool_proj
I1126 09:59:39.081271 10258 net.cpp:106] Creating Layer inception_3a/prelu_pool_proj
I1126 09:59:39.081280 10258 net.cpp:454] inception_3a/prelu_pool_proj <- inception_3a/pool_proj
I1126 09:59:39.081291 10258 net.cpp:397] inception_3a/prelu_pool_proj -> inception_3a/pool_proj (in-place)
I1126 09:59:39.081439 10258 net.cpp:150] Setting up inception_3a/prelu_pool_proj
I1126 09:59:39.081452 10258 net.cpp:157] Top shape: 32 32 28 28 (802816)
I1126 09:59:39.081459 10258 net.cpp:165] Memory required for data: 748225024
I1126 09:59:39.081467 10258 layer_factory.hpp:76] Creating layer inception_3a/output
I1126 09:59:39.081485 10258 net.cpp:106] Creating Layer inception_3a/output
I1126 09:59:39.081493 10258 net.cpp:454] inception_3a/output <- inception_3a/1x1
I1126 09:59:39.081501 10258 net.cpp:454] inception_3a/output <- inception_3a/3x3
I1126 09:59:39.081509 10258 net.cpp:454] inception_3a/output <- inception_3a/5x5
I1126 09:59:39.081517 10258 net.cpp:454] inception_3a/output <- inception_3a/pool_proj
I1126 09:59:39.081526 10258 net.cpp:411] inception_3a/output -> inception_3a/output
I1126 09:59:39.081562 10258 net.cpp:150] Setting up inception_3a/output
I1126 09:59:39.081574 10258 net.cpp:157] Top shape: 32 256 28 28 (6422528)
I1126 09:59:39.081580 10258 net.cpp:165] Memory required for data: 773915136
I1126 09:59:39.081586 10258 layer_factory.hpp:76] Creating layer inception_3a/output_inception_3a/output_0_split
I1126 09:59:39.081596 10258 net.cpp:106] Creating Layer inception_3a/output_inception_3a/output_0_split
I1126 09:59:39.081604 10258 net.cpp:454] inception_3a/output_inception_3a/output_0_split <- inception_3a/output
I1126 09:59:39.081614 10258 net.cpp:411] inception_3a/output_inception_3a/output_0_split -> inception_3a/output_inception_3a/output_0_split_0
I1126 09:59:39.081624 10258 net.cpp:411] inception_3a/output_inception_3a/output_0_split -> inception_3a/output_inception_3a/output_0_split_1
I1126 09:59:39.081635 10258 net.cpp:411] inception_3a/output_inception_3a/output_0_split -> inception_3a/output_inception_3a/output_0_split_2
I1126 09:59:39.081646 10258 net.cpp:411] inception_3a/output_inception_3a/output_0_split -> inception_3a/output_inception_3a/output_0_split_3
I1126 09:59:39.081720 10258 net.cpp:150] Setting up inception_3a/output_inception_3a/output_0_split
I1126 09:59:39.081732 10258 net.cpp:157] Top shape: 32 256 28 28 (6422528)
I1126 09:59:39.081748 10258 net.cpp:157] Top shape: 32 256 28 28 (6422528)
I1126 09:59:39.081758 10258 net.cpp:157] Top shape: 32 256 28 28 (6422528)
I1126 09:59:39.081790 10258 net.cpp:157] Top shape: 32 256 28 28 (6422528)
I1126 09:59:39.081799 10258 net.cpp:165] Memory required for data: 876675584
I1126 09:59:39.081806 10258 layer_factory.hpp:76] Creating layer inception_3b/1x1
I1126 09:59:39.081820 10258 net.cpp:106] Creating Layer inception_3b/1x1
I1126 09:59:39.081827 10258 net.cpp:454] inception_3b/1x1 <- inception_3a/output_inception_3a/output_0_split_0
I1126 09:59:39.081842 10258 net.cpp:411] inception_3b/1x1 -> inception_3b/1x1
I1126 09:59:39.083605 10258 cudnn_conv_layer.cpp:194] Reallocating workspace storage: 20664
I1126 09:59:39.083629 10258 net.cpp:150] Setting up inception_3b/1x1
I1126 09:59:39.083641 10258 net.cpp:157] Top shape: 32 128 28 28 (3211264)
I1126 09:59:39.083647 10258 net.cpp:165] Memory required for data: 889520640
I1126 09:59:39.083658 10258 layer_factory.hpp:76] Creating layer inception_3b/prelu_1x1
I1126 09:59:39.083675 10258 net.cpp:106] Creating Layer inception_3b/prelu_1x1
I1126 09:59:39.083683 10258 net.cpp:454] inception_3b/prelu_1x1 <- inception_3b/1x1
I1126 09:59:39.083695 10258 net.cpp:397] inception_3b/prelu_1x1 -> inception_3b/1x1 (in-place)
I1126 09:59:39.084547 10258 net.cpp:150] Setting up inception_3b/prelu_1x1
I1126 09:59:39.084575 10258 net.cpp:157] Top shape: 32 128 28 28 (3211264)
I1126 09:59:39.084583 10258 net.cpp:165] Memory required for data: 902365696
I1126 09:59:39.084594 10258 layer_factory.hpp:76] Creating layer inception_3b/3x3_reduce
I1126 09:59:39.084609 10258 net.cpp:106] Creating Layer inception_3b/3x3_reduce
I1126 09:59:39.084617 10258 net.cpp:454] inception_3b/3x3_reduce <- inception_3a/output_inception_3a/output_0_split_1
I1126 09:59:39.084628 10258 net.cpp:411] inception_3b/3x3_reduce -> inception_3b/3x3_reduce
I1126 09:59:39.086134 10258 cudnn_conv_layer.cpp:194] Reallocating workspace storage: 20664
I1126 09:59:39.086156 10258 net.cpp:150] Setting up inception_3b/3x3_reduce
I1126 09:59:39.086164 10258 net.cpp:157] Top shape: 32 128 28 28 (3211264)
I1126 09:59:39.086169 10258 net.cpp:165] Memory required for data: 915210752
I1126 09:59:39.086176 10258 layer_factory.hpp:76] Creating layer inception_3b/prelu_3x3_reduce
I1126 09:59:39.086184 10258 net.cpp:106] Creating Layer inception_3b/prelu_3x3_reduce
I1126 09:59:39.086189 10258 net.cpp:454] inception_3b/prelu_3x3_reduce <- inception_3b/3x3_reduce
I1126 09:59:39.086197 10258 net.cpp:397] inception_3b/prelu_3x3_reduce -> inception_3b/3x3_reduce (in-place)
I1126 09:59:39.086325 10258 net.cpp:150] Setting up inception_3b/prelu_3x3_reduce
I1126 09:59:39.086341 10258 net.cpp:157] Top shape: 32 128 28 28 (3211264)
I1126 09:59:39.086345 10258 net.cpp:165] Memory required for data: 928055808
I1126 09:59:39.086357 10258 layer_factory.hpp:76] Creating layer inception_3b/3x3
I1126 09:59:39.086372 10258 net.cpp:106] Creating Layer inception_3b/3x3
I1126 09:59:39.086377 10258 net.cpp:454] inception_3b/3x3 <- inception_3b/3x3_reduce
I1126 09:59:39.086391 10258 net.cpp:411] inception_3b/3x3 -> inception_3b/3x3
I1126 09:59:39.089189 10258 cudnn_conv_layer.cpp:194] Reallocating workspace storage: 20664
I1126 09:59:39.089206 10258 net.cpp:150] Setting up inception_3b/3x3
I1126 09:59:39.089213 10258 net.cpp:157] Top shape: 32 192 28 28 (4816896)
I1126 09:59:39.089218 10258 net.cpp:165] Memory required for data: 947323392
I1126 09:59:39.089226 10258 layer_factory.hpp:76] Creating layer inception_3b/prelu_3x3
I1126 09:59:39.089233 10258 net.cpp:106] Creating Layer inception_3b/prelu_3x3
I1126 09:59:39.089238 10258 net.cpp:454] inception_3b/prelu_3x3 <- inception_3b/3x3
I1126 09:59:39.089244 10258 net.cpp:397] inception_3b/prelu_3x3 -> inception_3b/3x3 (in-place)
I1126 09:59:39.089843 10258 net.cpp:150] Setting up inception_3b/prelu_3x3
I1126 09:59:39.089853 10258 net.cpp:157] Top shape: 32 192 28 28 (4816896)
I1126 09:59:39.089864 10258 net.cpp:165] Memory required for data: 966590976
I1126 09:59:39.089870 10258 layer_factory.hpp:76] Creating layer inception_3b/5x5_reduce
I1126 09:59:39.089880 10258 net.cpp:106] Creating Layer inception_3b/5x5_reduce
I1126 09:59:39.089921 10258 net.cpp:454] inception_3b/5x5_reduce <- inception_3a/output_inception_3a/output_0_split_2
I1126 09:59:39.089932 10258 net.cpp:411] inception_3b/5x5_reduce -> inception_3b/5x5_reduce
I1126 09:59:39.090781 10258 cudnn_conv_layer.cpp:194] Reallocating workspace storage: 20664
I1126 09:59:39.090806 10258 net.cpp:150] Setting up inception_3b/5x5_reduce
I1126 09:59:39.090816 10258 net.cpp:157] Top shape: 32 32 28 28 (802816)
I1126 09:59:39.090821 10258 net.cpp:165] Memory required for data: 969802240
I1126 09:59:39.090827 10258 layer_factory.hpp:76] Creating layer inception_3b/prelu_5x5_reduce
I1126 09:59:39.090836 10258 net.cpp:106] Creating Layer inception_3b/prelu_5x5_reduce
I1126 09:59:39.090840 10258 net.cpp:454] inception_3b/prelu_5x5_reduce <- inception_3b/5x5_reduce
I1126 09:59:39.090847 10258 net.cpp:397] inception_3b/prelu_5x5_reduce -> inception_3b/5x5_reduce (in-place)
I1126 09:59:39.090955 10258 net.cpp:150] Setting up inception_3b/prelu_5x5_reduce
I1126 09:59:39.090965 10258 net.cpp:157] Top shape: 32 32 28 28 (802816)
I1126 09:59:39.090968 10258 net.cpp:165] Memory required for data: 973013504
I1126 09:59:39.090975 10258 layer_factory.hpp:76] Creating layer inception_3b/5x5
I1126 09:59:39.090982 10258 net.cpp:106] Creating Layer inception_3b/5x5
I1126 09:59:39.090986 10258 net.cpp:454] inception_3b/5x5 <- inception_3b/5x5_reduce
I1126 09:59:39.090994 10258 net.cpp:411] inception_3b/5x5 -> inception_3b/5x5
I1126 09:59:39.092547 10258 cudnn_conv_layer.cpp:194] Reallocating workspace storage: 20664
I1126 09:59:39.092566 10258 net.cpp:150] Setting up inception_3b/5x5
I1126 09:59:39.092572 10258 net.cpp:157] Top shape: 32 96 28 28 (2408448)
I1126 09:59:39.092577 10258 net.cpp:165] Memory required for data: 982647296
I1126 09:59:39.092583 10258 layer_factory.hpp:76] Creating layer inception_3b/prelu_5x5
I1126 09:59:39.092593 10258 net.cpp:106] Creating Layer inception_3b/prelu_5x5
I1126 09:59:39.092598 10258 net.cpp:454] inception_3b/prelu_5x5 <- inception_3b/5x5
I1126 09:59:39.092605 10258 net.cpp:397] inception_3b/prelu_5x5 -> inception_3b/5x5 (in-place)
I1126 09:59:39.092774 10258 net.cpp:150] Setting up inception_3b/prelu_5x5
I1126 09:59:39.092784 10258 net.cpp:157] Top shape: 32 96 28 28 (2408448)
I1126 09:59:39.092788 10258 net.cpp:165] Memory required for data: 992281088
I1126 09:59:39.092793 10258 layer_factory.hpp:76] Creating layer inception_3b/pool
I1126 09:59:39.092803 10258 net.cpp:106] Creating Layer inception_3b/pool
I1126 09:59:39.092808 10258 net.cpp:454] inception_3b/pool <- inception_3a/output_inception_3a/output_0_split_3
I1126 09:59:39.092814 10258 net.cpp:411] inception_3b/pool -> inception_3b/pool
I1126 09:59:39.093184 10258 net.cpp:150] Setting up inception_3b/pool
I1126 09:59:39.093195 10258 net.cpp:157] Top shape: 32 256 28 28 (6422528)
I1126 09:59:39.093199 10258 net.cpp:165] Memory required for data: 1017971200
I1126 09:59:39.093204 10258 layer_factory.hpp:76] Creating layer inception_3b/pool_proj
I1126 09:59:39.093214 10258 net.cpp:106] Creating Layer inception_3b/pool_proj
I1126 09:59:39.093219 10258 net.cpp:454] inception_3b/pool_proj <- inception_3b/pool
I1126 09:59:39.093225 10258 net.cpp:411] inception_3b/pool_proj -> inception_3b/pool_proj
I1126 09:59:39.094346 10258 cudnn_conv_layer.cpp:194] Reallocating workspace storage: 20664
I1126 09:59:39.094363 10258 net.cpp:150] Setting up inception_3b/pool_proj
I1126 09:59:39.094372 10258 net.cpp:157] Top shape: 32 64 28 28 (1605632)
I1126 09:59:39.094375 10258 net.cpp:165] Memory required for data: 1024393728
I1126 09:59:39.094383 10258 layer_factory.hpp:76] Creating layer inception_3b/prelu_pool_proj
I1126 09:59:39.094390 10258 net.cpp:106] Creating Layer inception_3b/prelu_pool_proj
I1126 09:59:39.094395 10258 net.cpp:454] inception_3b/prelu_pool_proj <- inception_3b/pool_proj
I1126 09:59:39.094403 10258 net.cpp:397] inception_3b/prelu_pool_proj -> inception_3b/pool_proj (in-place)
I1126 09:59:39.094528 10258 net.cpp:150] Setting up inception_3b/prelu_pool_proj
I1126 09:59:39.094554 10258 net.cpp:157] Top shape: 32 64 28 28 (1605632)
I1126 09:59:39.094558 10258 net.cpp:165] Memory required for data: 1030816256
I1126 09:59:39.094564 10258 layer_factory.hpp:76] Creating layer inception_3b/output
I1126 09:59:39.094571 10258 net.cpp:106] Creating Layer inception_3b/output
I1126 09:59:39.094575 10258 net.cpp:454] inception_3b/output <- inception_3b/1x1
I1126 09:59:39.094580 10258 net.cpp:454] inception_3b/output <- inception_3b/3x3
I1126 09:59:39.094585 10258 net.cpp:454] inception_3b/output <- inception_3b/5x5
I1126 09:59:39.094589 10258 net.cpp:454] inception_3b/output <- inception_3b/pool_proj
I1126 09:59:39.094595 10258 net.cpp:411] inception_3b/output -> inception_3b/output
I1126 09:59:39.094620 10258 net.cpp:150] Setting up inception_3b/output
I1126 09:59:39.094630 10258 net.cpp:157] Top shape: 32 480 28 28 (12042240)
I1126 09:59:39.094633 10258 net.cpp:165] Memory required for data: 1078985216
I1126 09:59:39.094637 10258 layer_factory.hpp:76] Creating layer pool3/3x3_s2
I1126 09:59:39.094645 10258 net.cpp:106] Creating Layer pool3/3x3_s2
I1126 09:59:39.094648 10258 net.cpp:454] pool3/3x3_s2 <- inception_3b/output
I1126 09:59:39.094655 10258 net.cpp:411] pool3/3x3_s2 -> pool3/3x3_s2
I1126 09:59:39.095010 10258 net.cpp:150] Setting up pool3/3x3_s2
I1126 09:59:39.095021 10258 net.cpp:157] Top shape: 32 480 14 14 (3010560)
I1126 09:59:39.095024 10258 net.cpp:165] Memory required for data: 1091027456
I1126 09:59:39.095029 10258 layer_factory.hpp:76] Creating layer pool3/3x3_s2_pool3/3x3_s2_0_split
I1126 09:59:39.095036 10258 net.cpp:106] Creating Layer pool3/3x3_s2_pool3/3x3_s2_0_split
I1126 09:59:39.095041 10258 net.cpp:454] pool3/3x3_s2_pool3/3x3_s2_0_split <- pool3/3x3_s2
I1126 09:59:39.095046 10258 net.cpp:411] pool3/3x3_s2_pool3/3x3_s2_0_split -> pool3/3x3_s2_pool3/3x3_s2_0_split_0
I1126 09:59:39.095054 10258 net.cpp:411] pool3/3x3_s2_pool3/3x3_s2_0_split -> pool3/3x3_s2_pool3/3x3_s2_0_split_1
I1126 09:59:39.095062 10258 net.cpp:411] pool3/3x3_s2_pool3/3x3_s2_0_split -> pool3/3x3_s2_pool3/3x3_s2_0_split_2
I1126 09:59:39.095067 10258 net.cpp:411] pool3/3x3_s2_pool3/3x3_s2_0_split -> pool3/3x3_s2_pool3/3x3_s2_0_split_3
I1126 09:59:39.095120 10258 net.cpp:150] Setting up pool3/3x3_s2_pool3/3x3_s2_0_split
I1126 09:59:39.095127 10258 net.cpp:157] Top shape: 32 480 14 14 (3010560)
I1126 09:59:39.095132 10258 net.cpp:157] Top shape: 32 480 14 14 (3010560)
I1126 09:59:39.095137 10258 net.cpp:157] Top shape: 32 480 14 14 (3010560)
I1126 09:59:39.095141 10258 net.cpp:157] Top shape: 32 480 14 14 (3010560)
I1126 09:59:39.095145 10258 net.cpp:165] Memory required for data: 1139196416
I1126 09:59:39.095149 10258 layer_factory.hpp:76] Creating layer inception_4a/1x1
I1126 09:59:39.095158 10258 net.cpp:106] Creating Layer inception_4a/1x1
I1126 09:59:39.095163 10258 net.cpp:454] inception_4a/1x1 <- pool3/3x3_s2_pool3/3x3_s2_0_split_0
I1126 09:59:39.095170 10258 net.cpp:411] inception_4a/1x1 -> inception_4a/1x1
I1126 09:59:39.097173 10258 cudnn_conv_layer.cpp:194] Reallocating workspace storage: 10080
I1126 09:59:39.097373 10258 net.cpp:150] Setting up inception_4a/1x1
I1126 09:59:39.097383 10258 net.cpp:157] Top shape: 32 192 14 14 (1204224)
I1126 09:59:39.097388 10258 net.cpp:165] Memory required for data: 1144013312
I1126 09:59:39.097396 10258 layer_factory.hpp:76] Creating layer inception_4a/prelu_1x1
I1126 09:59:39.097404 10258 net.cpp:106] Creating Layer inception_4a/prelu_1x1
I1126 09:59:39.097409 10258 net.cpp:454] inception_4a/prelu_1x1 <- inception_4a/1x1
I1126 09:59:39.097414 10258 net.cpp:397] inception_4a/prelu_1x1 -> inception_4a/1x1 (in-place)
I1126 09:59:39.098011 10258 net.cpp:150] Setting up inception_4a/prelu_1x1
I1126 09:59:39.098019 10258 net.cpp:157] Top shape: 32 192 14 14 (1204224)
I1126 09:59:39.098023 10258 net.cpp:165] Memory required for data: 1148830208
I1126 09:59:39.098029 10258 layer_factory.hpp:76] Creating layer inception_4a/3x3_reduce
I1126 09:59:39.098038 10258 net.cpp:106] Creating Layer inception_4a/3x3_reduce
I1126 09:59:39.098043 10258 net.cpp:454] inception_4a/3x3_reduce <- pool3/3x3_s2_pool3/3x3_s2_0_split_1
I1126 09:59:39.098067 10258 net.cpp:411] inception_4a/3x3_reduce -> inception_4a/3x3_reduce
I1126 09:59:39.099315 10258 cudnn_conv_layer.cpp:194] Reallocating workspace storage: 10080
I1126 09:59:39.099339 10258 net.cpp:150] Setting up inception_4a/3x3_reduce
I1126 09:59:39.099345 10258 net.cpp:157] Top shape: 32 96 14 14 (602112)
I1126 09:59:39.099349 10258 net.cpp:165] Memory required for data: 1151238656
I1126 09:59:39.099357 10258 layer_factory.hpp:76] Creating layer inception_4a/prelu_3x3_reduce
I1126 09:59:39.099372 10258 net.cpp:106] Creating Layer inception_4a/prelu_3x3_reduce
I1126 09:59:39.099377 10258 net.cpp:454] inception_4a/prelu_3x3_reduce <- inception_4a/3x3_reduce
I1126 09:59:39.099385 10258 net.cpp:397] inception_4a/prelu_3x3_reduce -> inception_4a/3x3_reduce (in-place)
I1126 09:59:39.099496 10258 net.cpp:150] Setting up inception_4a/prelu_3x3_reduce
I1126 09:59:39.099503 10258 net.cpp:157] Top shape: 32 96 14 14 (602112)
I1126 09:59:39.099508 10258 net.cpp:165] Memory required for data: 1153647104
I1126 09:59:39.099514 10258 layer_factory.hpp:76] Creating layer inception_4a/3x3
I1126 09:59:39.099522 10258 net.cpp:106] Creating Layer inception_4a/3x3
I1126 09:59:39.099527 10258 net.cpp:454] inception_4a/3x3 <- inception_4a/3x3_reduce
I1126 09:59:39.099534 10258 net.cpp:411] inception_4a/3x3 -> inception_4a/3x3
I1126 09:59:39.101876 10258 cudnn_conv_layer.cpp:194] Reallocating workspace storage: 10080
I1126 09:59:39.101902 10258 net.cpp:150] Setting up inception_4a/3x3
I1126 09:59:39.101910 10258 net.cpp:157] Top shape: 32 208 14 14 (1304576)
I1126 09:59:39.101914 10258 net.cpp:165] Memory required for data: 1158865408
I1126 09:59:39.101922 10258 layer_factory.hpp:76] Creating layer inception_4a/prelu_3x3
I1126 09:59:39.101933 10258 net.cpp:106] Creating Layer inception_4a/prelu_3x3
I1126 09:59:39.101938 10258 net.cpp:454] inception_4a/prelu_3x3 <- inception_4a/3x3
I1126 09:59:39.101944 10258 net.cpp:397] inception_4a/prelu_3x3 -> inception_4a/3x3 (in-place)
I1126 09:59:39.102046 10258 net.cpp:150] Setting up inception_4a/prelu_3x3
I1126 09:59:39.102054 10258 net.cpp:157] Top shape: 32 208 14 14 (1304576)
I1126 09:59:39.102058 10258 net.cpp:165] Memory required for data: 1164083712
I1126 09:59:39.102064 10258 layer_factory.hpp:76] Creating layer inception_4a/5x5_reduce
I1126 09:59:39.102074 10258 net.cpp:106] Creating Layer inception_4a/5x5_reduce
I1126 09:59:39.102078 10258 net.cpp:454] inception_4a/5x5_reduce <- pool3/3x3_s2_pool3/3x3_s2_0_split_2
I1126 09:59:39.102087 10258 net.cpp:411] inception_4a/5x5_reduce -> inception_4a/5x5_reduce
I1126 09:59:39.103111 10258 cudnn_conv_layer.cpp:194] Reallocating workspace storage: 10080
I1126 09:59:39.103132 10258 net.cpp:150] Setting up inception_4a/5x5_reduce
I1126 09:59:39.103139 10258 net.cpp:157] Top shape: 32 16 14 14 (100352)
I1126 09:59:39.103143 10258 net.cpp:165] Memory required for data: 1164485120
I1126 09:59:39.103150 10258 layer_factory.hpp:76] Creating layer inception_4a/prelu_5x5_reduce
I1126 09:59:39.103160 10258 net.cpp:106] Creating Layer inception_4a/prelu_5x5_reduce
I1126 09:59:39.103165 10258 net.cpp:454] inception_4a/prelu_5x5_reduce <- inception_4a/5x5_reduce
I1126 09:59:39.103171 10258 net.cpp:397] inception_4a/prelu_5x5_reduce -> inception_4a/5x5_reduce (in-place)
I1126 09:59:39.103251 10258 net.cpp:150] Setting up inception_4a/prelu_5x5_reduce
I1126 09:59:39.103258 10258 net.cpp:157] Top shape: 32 16 14 14 (100352)
I1126 09:59:39.103262 10258 net.cpp:165] Memory required for data: 1164886528
I1126 09:59:39.103267 10258 layer_factory.hpp:76] Creating layer inception_4a/5x5
I1126 09:59:39.103276 10258 net.cpp:106] Creating Layer inception_4a/5x5
I1126 09:59:39.103281 10258 net.cpp:454] inception_4a/5x5 <- inception_4a/5x5_reduce
I1126 09:59:39.103287 10258 net.cpp:411] inception_4a/5x5 -> inception_4a/5x5
I1126 09:59:39.104362 10258 cudnn_conv_layer.cpp:194] Reallocating workspace storage: 13080
I1126 09:59:39.104383 10258 net.cpp:150] Setting up inception_4a/5x5
I1126 09:59:39.104390 10258 net.cpp:157] Top shape: 32 48 14 14 (301056)
I1126 09:59:39.104411 10258 net.cpp:165] Memory required for data: 1166090752
I1126 09:59:39.104419 10258 layer_factory.hpp:76] Creating layer inception_4a/prelu_5x5
I1126 09:59:39.104426 10258 net.cpp:106] Creating Layer inception_4a/prelu_5x5
I1126 09:59:39.104431 10258 net.cpp:454] inception_4a/prelu_5x5 <- inception_4a/5x5
I1126 09:59:39.104439 10258 net.cpp:397] inception_4a/prelu_5x5 -> inception_4a/5x5 (in-place)
I1126 09:59:39.104523 10258 net.cpp:150] Setting up inception_4a/prelu_5x5
I1126 09:59:39.104532 10258 net.cpp:157] Top shape: 32 48 14 14 (301056)
I1126 09:59:39.104535 10258 net.cpp:165] Memory required for data: 1167294976
I1126 09:59:39.104540 10258 layer_factory.hpp:76] Creating layer inception_4a/pool
I1126 09:59:39.104547 10258 net.cpp:106] Creating Layer inception_4a/pool
I1126 09:59:39.104552 10258 net.cpp:454] inception_4a/pool <- pool3/3x3_s2_pool3/3x3_s2_0_split_3
I1126 09:59:39.104558 10258 net.cpp:411] inception_4a/pool -> inception_4a/pool
I1126 09:59:39.104918 10258 net.cpp:150] Setting up inception_4a/pool
I1126 09:59:39.104928 10258 net.cpp:157] Top shape: 32 480 14 14 (3010560)
I1126 09:59:39.104933 10258 net.cpp:165] Memory required for data: 1179337216
I1126 09:59:39.104936 10258 layer_factory.hpp:76] Creating layer inception_4a/pool_proj
I1126 09:59:39.104945 10258 net.cpp:106] Creating Layer inception_4a/pool_proj
I1126 09:59:39.104950 10258 net.cpp:454] inception_4a/pool_proj <- inception_4a/pool
I1126 09:59:39.104959 10258 net.cpp:411] inception_4a/pool_proj -> inception_4a/pool_proj
I1126 09:59:39.105898 10258 cudnn_conv_layer.cpp:194] Reallocating workspace storage: 10080
I1126 09:59:39.105931 10258 net.cpp:150] Setting up inception_4a/pool_proj
I1126 09:59:39.105938 10258 net.cpp:157] Top shape: 32 64 14 14 (401408)
I1126 09:59:39.105942 10258 net.cpp:165] Memory required for data: 1180942848
I1126 09:59:39.105949 10258 layer_factory.hpp:76] Creating layer inception_4a/prelu_pool_proj
I1126 09:59:39.105965 10258 net.cpp:106] Creating Layer inception_4a/prelu_pool_proj
I1126 09:59:39.105970 10258 net.cpp:454] inception_4a/prelu_pool_proj <- inception_4a/pool_proj
I1126 09:59:39.105978 10258 net.cpp:397] inception_4a/prelu_pool_proj -> inception_4a/pool_proj (in-place)
I1126 09:59:39.106067 10258 net.cpp:150] Setting up inception_4a/prelu_pool_proj
I1126 09:59:39.106075 10258 net.cpp:157] Top shape: 32 64 14 14 (401408)
I1126 09:59:39.106078 10258 net.cpp:165] Memory required for data: 1182548480
I1126 09:59:39.106083 10258 layer_factory.hpp:76] Creating layer inception_4a/output
I1126 09:59:39.106094 10258 net.cpp:106] Creating Layer inception_4a/output
I1126 09:59:39.106098 10258 net.cpp:454] inception_4a/output <- inception_4a/1x1
I1126 09:59:39.106103 10258 net.cpp:454] inception_4a/output <- inception_4a/3x3
I1126 09:59:39.106107 10258 net.cpp:454] inception_4a/output <- inception_4a/5x5
I1126 09:59:39.106112 10258 net.cpp:454] inception_4a/output <- inception_4a/pool_proj
I1126 09:59:39.106117 10258 net.cpp:411] inception_4a/output -> inception_4a/output
I1126 09:59:39.106140 10258 net.cpp:150] Setting up inception_4a/output
I1126 09:59:39.106148 10258 net.cpp:157] Top shape: 32 512 14 14 (3211264)
I1126 09:59:39.106151 10258 net.cpp:165] Memory required for data: 1195393536
I1126 09:59:39.106155 10258 layer_factory.hpp:76] Creating layer inception_4a/output_inception_4a/output_0_split
I1126 09:59:39.106161 10258 net.cpp:106] Creating Layer inception_4a/output_inception_4a/output_0_split
I1126 09:59:39.106165 10258 net.cpp:454] inception_4a/output_inception_4a/output_0_split <- inception_4a/output
I1126 09:59:39.106173 10258 net.cpp:411] inception_4a/output_inception_4a/output_0_split -> inception_4a/output_inception_4a/output_0_split_0
I1126 09:59:39.106180 10258 net.cpp:411] inception_4a/output_inception_4a/output_0_split -> inception_4a/output_inception_4a/output_0_split_1
I1126 09:59:39.106187 10258 net.cpp:411] inception_4a/output_inception_4a/output_0_split -> inception_4a/output_inception_4a/output_0_split_2
I1126 09:59:39.106202 10258 net.cpp:411] inception_4a/output_inception_4a/output_0_split -> inception_4a/output_inception_4a/output_0_split_3
I1126 09:59:39.106211 10258 net.cpp:411] inception_4a/output_inception_4a/output_0_split -> inception_4a/output_inception_4a/output_0_split_4
I1126 09:59:39.106271 10258 net.cpp:150] Setting up inception_4a/output_inception_4a/output_0_split
I1126 09:59:39.106278 10258 net.cpp:157] Top shape: 32 512 14 14 (3211264)
I1126 09:59:39.106283 10258 net.cpp:157] Top shape: 32 512 14 14 (3211264)
I1126 09:59:39.106288 10258 net.cpp:157] Top shape: 32 512 14 14 (3211264)
I1126 09:59:39.106292 10258 net.cpp:157] Top shape: 32 512 14 14 (3211264)
I1126 09:59:39.106297 10258 net.cpp:157] Top shape: 32 512 14 14 (3211264)
I1126 09:59:39.106300 10258 net.cpp:165] Memory required for data: 1259618816
I1126 09:59:39.106304 10258 layer_factory.hpp:76] Creating layer loss1/ave_pool
I1126 09:59:39.106310 10258 net.cpp:106] Creating Layer loss1/ave_pool
I1126 09:59:39.106314 10258 net.cpp:454] loss1/ave_pool <- inception_4a/output_inception_4a/output_0_split_0
I1126 09:59:39.106322 10258 net.cpp:411] loss1/ave_pool -> loss1/ave_pool
I1126 09:59:39.106706 10258 net.cpp:150] Setting up loss1/ave_pool
I1126 09:59:39.106716 10258 net.cpp:157] Top shape: 32 512 4 4 (262144)
I1126 09:59:39.106720 10258 net.cpp:165] Memory required for data: 1260667392
I1126 09:59:39.106724 10258 layer_factory.hpp:76] Creating layer loss1/conv
I1126 09:59:39.106732 10258 net.cpp:106] Creating Layer loss1/conv
I1126 09:59:39.106737 10258 net.cpp:454] loss1/conv <- loss1/ave_pool
I1126 09:59:39.106745 10258 net.cpp:411] loss1/conv -> loss1/conv
I1126 09:59:39.108079 10258 cudnn_conv_layer.cpp:194] Reallocating workspace storage: 6840
I1126 09:59:39.108098 10258 net.cpp:150] Setting up loss1/conv
I1126 09:59:39.108106 10258 net.cpp:157] Top shape: 32 128 4 4 (65536)
I1126 09:59:39.108110 10258 net.cpp:165] Memory required for data: 1260929536
I1126 09:59:39.108127 10258 layer_factory.hpp:76] Creating layer loss1/prelu_conv
I1126 09:59:39.108134 10258 net.cpp:106] Creating Layer loss1/prelu_conv
I1126 09:59:39.108139 10258 net.cpp:454] loss1/prelu_conv <- loss1/conv
I1126 09:59:39.108145 10258 net.cpp:397] loss1/prelu_conv -> loss1/conv (in-place)
I1126 09:59:39.108224 10258 net.cpp:150] Setting up loss1/prelu_conv
I1126 09:59:39.108232 10258 net.cpp:157] Top shape: 32 128 4 4 (65536)
I1126 09:59:39.108237 10258 net.cpp:165] Memory required for data: 1261191680
I1126 09:59:39.108242 10258 layer_factory.hpp:76] Creating layer loss1/fc
I1126 09:59:39.108254 10258 net.cpp:106] Creating Layer loss1/fc
I1126 09:59:39.108258 10258 net.cpp:454] loss1/fc <- loss1/conv
I1126 09:59:39.108264 10258 net.cpp:411] loss1/fc -> loss1/fc
I1126 09:59:39.123239 10258 net.cpp:150] Setting up loss1/fc
I1126 09:59:39.123273 10258 net.cpp:157] Top shape: 32 1024 (32768)
I1126 09:59:39.123277 10258 net.cpp:165] Memory required for data: 1261322752
I1126 09:59:39.123287 10258 layer_factory.hpp:76] Creating layer loss1/prelu_fc
I1126 09:59:39.123299 10258 net.cpp:106] Creating Layer loss1/prelu_fc
I1126 09:59:39.123306 10258 net.cpp:454] loss1/prelu_fc <- loss1/fc
I1126 09:59:39.123313 10258 net.cpp:397] loss1/prelu_fc -> loss1/fc (in-place)
I1126 09:59:39.123395 10258 net.cpp:150] Setting up loss1/prelu_fc
I1126 09:59:39.123402 10258 net.cpp:157] Top shape: 32 1024 (32768)
I1126 09:59:39.123406 10258 net.cpp:165] Memory required for data: 1261453824
I1126 09:59:39.123411 10258 layer_factory.hpp:76] Creating layer loss1/drop_fc
I1126 09:59:39.123430 10258 net.cpp:106] Creating Layer loss1/drop_fc
I1126 09:59:39.123435 10258 net.cpp:454] loss1/drop_fc <- loss1/fc
I1126 09:59:39.123440 10258 net.cpp:397] loss1/drop_fc -> loss1/fc (in-place)
I1126 09:59:39.123471 10258 net.cpp:150] Setting up loss1/drop_fc
I1126 09:59:39.123478 10258 net.cpp:157] Top shape: 32 1024 (32768)
I1126 09:59:39.123482 10258 net.cpp:165] Memory required for data: 1261584896
I1126 09:59:39.123486 10258 layer_factory.hpp:76] Creating layer loss1/classifier2
I1126 09:59:39.123494 10258 net.cpp:106] Creating Layer loss1/classifier2
I1126 09:59:39.123522 10258 net.cpp:454] loss1/classifier2 <- loss1/fc
I1126 09:59:39.123529 10258 net.cpp:411] loss1/classifier2 -> loss1/classifier
I1126 09:59:39.123637 10258 net.cpp:150] Setting up loss1/classifier2
I1126 09:59:39.123646 10258 net.cpp:157] Top shape: 32 2 (64)
I1126 09:59:39.123648 10258 net.cpp:165] Memory required for data: 1261585152
I1126 09:59:39.123656 10258 layer_factory.hpp:76] Creating layer loss1/loss
I1126 09:59:39.123663 10258 net.cpp:106] Creating Layer loss1/loss
I1126 09:59:39.123667 10258 net.cpp:454] loss1/loss <- loss1/classifier
I1126 09:59:39.123672 10258 net.cpp:454] loss1/loss <- label_data_1_split_0
I1126 09:59:39.123677 10258 net.cpp:411] loss1/loss -> loss1/loss1
I1126 09:59:39.123692 10258 layer_factory.hpp:76] Creating layer loss1/loss
I1126 09:59:39.123965 10258 net.cpp:150] Setting up loss1/loss
I1126 09:59:39.123973 10258 net.cpp:157] Top shape: (1)
I1126 09:59:39.123977 10258 net.cpp:160]     with loss weight 0.3
I1126 09:59:39.124001 10258 net.cpp:165] Memory required for data: 1261585156
I1126 09:59:39.124006 10258 layer_factory.hpp:76] Creating layer inception_4b/1x1
I1126 09:59:39.124017 10258 net.cpp:106] Creating Layer inception_4b/1x1
I1126 09:59:39.124022 10258 net.cpp:454] inception_4b/1x1 <- inception_4a/output_inception_4a/output_0_split_1
I1126 09:59:39.124030 10258 net.cpp:411] inception_4b/1x1 -> inception_4b/1x1
I1126 09:59:39.125574 10258 cudnn_conv_layer.cpp:194] Reallocating workspace storage: 10080
I1126 09:59:39.125601 10258 net.cpp:150] Setting up inception_4b/1x1
I1126 09:59:39.125607 10258 net.cpp:157] Top shape: 32 160 14 14 (1003520)
I1126 09:59:39.125612 10258 net.cpp:165] Memory required for data: 1265599236
I1126 09:59:39.125618 10258 layer_factory.hpp:76] Creating layer inception_4b/prelu_1x1
I1126 09:59:39.125627 10258 net.cpp:106] Creating Layer inception_4b/prelu_1x1
I1126 09:59:39.125632 10258 net.cpp:454] inception_4b/prelu_1x1 <- inception_4b/1x1
I1126 09:59:39.125638 10258 net.cpp:397] inception_4b/prelu_1x1 -> inception_4b/1x1 (in-place)
I1126 09:59:39.126230 10258 net.cpp:150] Setting up inception_4b/prelu_1x1
I1126 09:59:39.126240 10258 net.cpp:157] Top shape: 32 160 14 14 (1003520)
I1126 09:59:39.126243 10258 net.cpp:165] Memory required for data: 1269613316
I1126 09:59:39.126250 10258 layer_factory.hpp:76] Creating layer inception_4b/3x3_reduce
I1126 09:59:39.126258 10258 net.cpp:106] Creating Layer inception_4b/3x3_reduce
I1126 09:59:39.126263 10258 net.cpp:454] inception_4b/3x3_reduce <- inception_4a/output_inception_4a/output_0_split_2
I1126 09:59:39.126269 10258 net.cpp:411] inception_4b/3x3_reduce -> inception_4b/3x3_reduce
I1126 09:59:39.127733 10258 cudnn_conv_layer.cpp:194] Reallocating workspace storage: 10080
I1126 09:59:39.127758 10258 net.cpp:150] Setting up inception_4b/3x3_reduce
I1126 09:59:39.127765 10258 net.cpp:157] Top shape: 32 112 14 14 (702464)
I1126 09:59:39.127769 10258 net.cpp:165] Memory required for data: 1272423172
I1126 09:59:39.127776 10258 layer_factory.hpp:76] Creating layer inception_4b/prelu_3x3_reduce
I1126 09:59:39.127784 10258 net.cpp:106] Creating Layer inception_4b/prelu_3x3_reduce
I1126 09:59:39.127787 10258 net.cpp:454] inception_4b/prelu_3x3_reduce <- inception_4b/3x3_reduce
I1126 09:59:39.127794 10258 net.cpp:397] inception_4b/prelu_3x3_reduce -> inception_4b/3x3_reduce (in-place)
I1126 09:59:39.127883 10258 net.cpp:150] Setting up inception_4b/prelu_3x3_reduce
I1126 09:59:39.127892 10258 net.cpp:157] Top shape: 32 112 14 14 (702464)
I1126 09:59:39.127895 10258 net.cpp:165] Memory required for data: 1275233028
I1126 09:59:39.127900 10258 layer_factory.hpp:76] Creating layer inception_4b/3x3
I1126 09:59:39.127910 10258 net.cpp:106] Creating Layer inception_4b/3x3
I1126 09:59:39.127915 10258 net.cpp:454] inception_4b/3x3 <- inception_4b/3x3_reduce
I1126 09:59:39.127921 10258 net.cpp:411] inception_4b/3x3 -> inception_4b/3x3
I1126 09:59:39.130612 10258 cudnn_conv_layer.cpp:194] Reallocating workspace storage: 10080
I1126 09:59:39.130635 10258 net.cpp:150] Setting up inception_4b/3x3
I1126 09:59:39.130651 10258 net.cpp:157] Top shape: 32 224 14 14 (1404928)
I1126 09:59:39.130656 10258 net.cpp:165] Memory required for data: 1280852740
I1126 09:59:39.130662 10258 layer_factory.hpp:76] Creating layer inception_4b/prelu_3x3
I1126 09:59:39.130671 10258 net.cpp:106] Creating Layer inception_4b/prelu_3x3
I1126 09:59:39.130676 10258 net.cpp:454] inception_4b/prelu_3x3 <- inception_4b/3x3
I1126 09:59:39.130682 10258 net.cpp:397] inception_4b/prelu_3x3 -> inception_4b/3x3 (in-place)
I1126 09:59:39.130789 10258 net.cpp:150] Setting up inception_4b/prelu_3x3
I1126 09:59:39.130796 10258 net.cpp:157] Top shape: 32 224 14 14 (1404928)
I1126 09:59:39.130800 10258 net.cpp:165] Memory required for data: 1286472452
I1126 09:59:39.130805 10258 layer_factory.hpp:76] Creating layer inception_4b/5x5_reduce
I1126 09:59:39.130815 10258 net.cpp:106] Creating Layer inception_4b/5x5_reduce
I1126 09:59:39.130820 10258 net.cpp:454] inception_4b/5x5_reduce <- inception_4a/output_inception_4a/output_0_split_3
I1126 09:59:39.130827 10258 net.cpp:411] inception_4b/5x5_reduce -> inception_4b/5x5_reduce
I1126 09:59:39.131685 10258 cudnn_conv_layer.cpp:194] Reallocating workspace storage: 10080
I1126 09:59:39.131706 10258 net.cpp:150] Setting up inception_4b/5x5_reduce
I1126 09:59:39.131713 10258 net.cpp:157] Top shape: 32 24 14 14 (150528)
I1126 09:59:39.131717 10258 net.cpp:165] Memory required for data: 1287074564
I1126 09:59:39.131723 10258 layer_factory.hpp:76] Creating layer inception_4b/prelu_5x5_reduce
I1126 09:59:39.131732 10258 net.cpp:106] Creating Layer inception_4b/prelu_5x5_reduce
I1126 09:59:39.131737 10258 net.cpp:454] inception_4b/prelu_5x5_reduce <- inception_4b/5x5_reduce
I1126 09:59:39.131742 10258 net.cpp:397] inception_4b/prelu_5x5_reduce -> inception_4b/5x5_reduce (in-place)
I1126 09:59:39.131827 10258 net.cpp:150] Setting up inception_4b/prelu_5x5_reduce
I1126 09:59:39.131834 10258 net.cpp:157] Top shape: 32 24 14 14 (150528)
I1126 09:59:39.131839 10258 net.cpp:165] Memory required for data: 1287676676
I1126 09:59:39.131844 10258 layer_factory.hpp:76] Creating layer inception_4b/5x5
I1126 09:59:39.131852 10258 net.cpp:106] Creating Layer inception_4b/5x5
I1126 09:59:39.131857 10258 net.cpp:454] inception_4b/5x5 <- inception_4b/5x5_reduce
I1126 09:59:39.131863 10258 net.cpp:411] inception_4b/5x5 -> inception_4b/5x5
I1126 09:59:39.133069 10258 cudnn_conv_layer.cpp:194] Reallocating workspace storage: 13080
I1126 09:59:39.133091 10258 net.cpp:150] Setting up inception_4b/5x5
I1126 09:59:39.133098 10258 net.cpp:157] Top shape: 32 64 14 14 (401408)
I1126 09:59:39.133102 10258 net.cpp:165] Memory required for data: 1289282308
I1126 09:59:39.133110 10258 layer_factory.hpp:76] Creating layer inception_4b/prelu_5x5
I1126 09:59:39.133116 10258 net.cpp:106] Creating Layer inception_4b/prelu_5x5
I1126 09:59:39.133121 10258 net.cpp:454] inception_4b/prelu_5x5 <- inception_4b/5x5
I1126 09:59:39.133128 10258 net.cpp:397] inception_4b/prelu_5x5 -> inception_4b/5x5 (in-place)
I1126 09:59:39.133242 10258 net.cpp:150] Setting up inception_4b/prelu_5x5
I1126 09:59:39.133250 10258 net.cpp:157] Top shape: 32 64 14 14 (401408)
I1126 09:59:39.133255 10258 net.cpp:165] Memory required for data: 1290887940
I1126 09:59:39.133260 10258 layer_factory.hpp:76] Creating layer inception_4b/pool
I1126 09:59:39.133267 10258 net.cpp:106] Creating Layer inception_4b/pool
I1126 09:59:39.133271 10258 net.cpp:454] inception_4b/pool <- inception_4a/output_inception_4a/output_0_split_4
I1126 09:59:39.133278 10258 net.cpp:411] inception_4b/pool -> inception_4b/pool
I1126 09:59:39.133632 10258 net.cpp:150] Setting up inception_4b/pool
I1126 09:59:39.133642 10258 net.cpp:157] Top shape: 32 512 14 14 (3211264)
I1126 09:59:39.133647 10258 net.cpp:165] Memory required for data: 1303732996
I1126 09:59:39.133651 10258 layer_factory.hpp:76] Creating layer inception_4b/pool_proj
I1126 09:59:39.133661 10258 net.cpp:106] Creating Layer inception_4b/pool_proj
I1126 09:59:39.133666 10258 net.cpp:454] inception_4b/pool_proj <- inception_4b/pool
I1126 09:59:39.133685 10258 net.cpp:411] inception_4b/pool_proj -> inception_4b/pool_proj
I1126 09:59:39.134852 10258 cudnn_conv_layer.cpp:194] Reallocating workspace storage: 10080
I1126 09:59:39.134878 10258 net.cpp:150] Setting up inception_4b/pool_proj
I1126 09:59:39.134886 10258 net.cpp:157] Top shape: 32 64 14 14 (401408)
I1126 09:59:39.134889 10258 net.cpp:165] Memory required for data: 1305338628
I1126 09:59:39.134896 10258 layer_factory.hpp:76] Creating layer inception_4b/prelu_pool_proj
I1126 09:59:39.134902 10258 net.cpp:106] Creating Layer inception_4b/prelu_pool_proj
I1126 09:59:39.134907 10258 net.cpp:454] inception_4b/prelu_pool_proj <- inception_4b/pool_proj
I1126 09:59:39.134914 10258 net.cpp:397] inception_4b/prelu_pool_proj -> inception_4b/pool_proj (in-place)
I1126 09:59:39.135009 10258 net.cpp:150] Setting up inception_4b/prelu_pool_proj
I1126 09:59:39.135016 10258 net.cpp:157] Top shape: 32 64 14 14 (401408)
I1126 09:59:39.135020 10258 net.cpp:165] Memory required for data: 1306944260
I1126 09:59:39.135025 10258 layer_factory.hpp:76] Creating layer inception_4b/output
I1126 09:59:39.135031 10258 net.cpp:106] Creating Layer inception_4b/output
I1126 09:59:39.135035 10258 net.cpp:454] inception_4b/output <- inception_4b/1x1
I1126 09:59:39.135040 10258 net.cpp:454] inception_4b/output <- inception_4b/3x3
I1126 09:59:39.135045 10258 net.cpp:454] inception_4b/output <- inception_4b/5x5
I1126 09:59:39.135049 10258 net.cpp:454] inception_4b/output <- inception_4b/pool_proj
I1126 09:59:39.135054 10258 net.cpp:411] inception_4b/output -> inception_4b/output
I1126 09:59:39.135079 10258 net.cpp:150] Setting up inception_4b/output
I1126 09:59:39.135087 10258 net.cpp:157] Top shape: 32 512 14 14 (3211264)
I1126 09:59:39.135090 10258 net.cpp:165] Memory required for data: 1319789316
I1126 09:59:39.135093 10258 layer_factory.hpp:76] Creating layer inception_4b/output_inception_4b/output_0_split
I1126 09:59:39.135102 10258 net.cpp:106] Creating Layer inception_4b/output_inception_4b/output_0_split
I1126 09:59:39.135105 10258 net.cpp:454] inception_4b/output_inception_4b/output_0_split <- inception_4b/output
I1126 09:59:39.135112 10258 net.cpp:411] inception_4b/output_inception_4b/output_0_split -> inception_4b/output_inception_4b/output_0_split_0
I1126 09:59:39.135118 10258 net.cpp:411] inception_4b/output_inception_4b/output_0_split -> inception_4b/output_inception_4b/output_0_split_1
I1126 09:59:39.135124 10258 net.cpp:411] inception_4b/output_inception_4b/output_0_split -> inception_4b/output_inception_4b/output_0_split_2
I1126 09:59:39.135130 10258 net.cpp:411] inception_4b/output_inception_4b/output_0_split -> inception_4b/output_inception_4b/output_0_split_3
I1126 09:59:39.135185 10258 net.cpp:150] Setting up inception_4b/output_inception_4b/output_0_split
I1126 09:59:39.135191 10258 net.cpp:157] Top shape: 32 512 14 14 (3211264)
I1126 09:59:39.135196 10258 net.cpp:157] Top shape: 32 512 14 14 (3211264)
I1126 09:59:39.135201 10258 net.cpp:157] Top shape: 32 512 14 14 (3211264)
I1126 09:59:39.135205 10258 net.cpp:157] Top shape: 32 512 14 14 (3211264)
I1126 09:59:39.135210 10258 net.cpp:165] Memory required for data: 1371169540
I1126 09:59:39.135213 10258 layer_factory.hpp:76] Creating layer inception_4c/1x1
I1126 09:59:39.135221 10258 net.cpp:106] Creating Layer inception_4c/1x1
I1126 09:59:39.135226 10258 net.cpp:454] inception_4c/1x1 <- inception_4b/output_inception_4b/output_0_split_0
I1126 09:59:39.135231 10258 net.cpp:411] inception_4c/1x1 -> inception_4c/1x1
I1126 09:59:39.136922 10258 cudnn_conv_layer.cpp:194] Reallocating workspace storage: 10080
I1126 09:59:39.136946 10258 net.cpp:150] Setting up inception_4c/1x1
I1126 09:59:39.136955 10258 net.cpp:157] Top shape: 32 128 14 14 (802816)
I1126 09:59:39.136960 10258 net.cpp:165] Memory required for data: 1374380804
I1126 09:59:39.136965 10258 layer_factory.hpp:76] Creating layer inception_4c/prelu_1x1
I1126 09:59:39.136975 10258 net.cpp:106] Creating Layer inception_4c/prelu_1x1
I1126 09:59:39.136987 10258 net.cpp:454] inception_4c/prelu_1x1 <- inception_4c/1x1
I1126 09:59:39.137004 10258 net.cpp:397] inception_4c/prelu_1x1 -> inception_4c/1x1 (in-place)
I1126 09:59:39.137094 10258 net.cpp:150] Setting up inception_4c/prelu_1x1
I1126 09:59:39.137101 10258 net.cpp:157] Top shape: 32 128 14 14 (802816)
I1126 09:59:39.137105 10258 net.cpp:165] Memory required for data: 1377592068
I1126 09:59:39.137111 10258 layer_factory.hpp:76] Creating layer inception_4c/3x3_reduce
I1126 09:59:39.137122 10258 net.cpp:106] Creating Layer inception_4c/3x3_reduce
I1126 09:59:39.137127 10258 net.cpp:454] inception_4c/3x3_reduce <- inception_4b/output_inception_4b/output_0_split_1
I1126 09:59:39.137133 10258 net.cpp:411] inception_4c/3x3_reduce -> inception_4c/3x3_reduce
I1126 09:59:39.138509 10258 cudnn_conv_layer.cpp:194] Reallocating workspace storage: 10080
I1126 09:59:39.138530 10258 net.cpp:150] Setting up inception_4c/3x3_reduce
I1126 09:59:39.138536 10258 net.cpp:157] Top shape: 32 128 14 14 (802816)
I1126 09:59:39.138540 10258 net.cpp:165] Memory required for data: 1380803332
I1126 09:59:39.138546 10258 layer_factory.hpp:76] Creating layer inception_4c/prelu_3x3_reduce
I1126 09:59:39.138556 10258 net.cpp:106] Creating Layer inception_4c/prelu_3x3_reduce
I1126 09:59:39.138559 10258 net.cpp:454] inception_4c/prelu_3x3_reduce <- inception_4c/3x3_reduce
I1126 09:59:39.138566 10258 net.cpp:397] inception_4c/prelu_3x3_reduce -> inception_4c/3x3_reduce (in-place)
I1126 09:59:39.138653 10258 net.cpp:150] Setting up inception_4c/prelu_3x3_reduce
I1126 09:59:39.138660 10258 net.cpp:157] Top shape: 32 128 14 14 (802816)
I1126 09:59:39.138664 10258 net.cpp:165] Memory required for data: 1384014596
I1126 09:59:39.138669 10258 layer_factory.hpp:76] Creating layer inception_4c/3x3
I1126 09:59:39.138679 10258 net.cpp:106] Creating Layer inception_4c/3x3
I1126 09:59:39.138684 10258 net.cpp:454] inception_4c/3x3 <- inception_4c/3x3_reduce
I1126 09:59:39.138689 10258 net.cpp:411] inception_4c/3x3 -> inception_4c/3x3
I1126 09:59:39.141801 10258 cudnn_conv_layer.cpp:194] Reallocating workspace storage: 10080
I1126 09:59:39.141824 10258 net.cpp:150] Setting up inception_4c/3x3
I1126 09:59:39.141831 10258 net.cpp:157] Top shape: 32 256 14 14 (1605632)
I1126 09:59:39.141835 10258 net.cpp:165] Memory required for data: 1390437124
I1126 09:59:39.141842 10258 layer_factory.hpp:76] Creating layer inception_4c/prelu_3x3
I1126 09:59:39.141851 10258 net.cpp:106] Creating Layer inception_4c/prelu_3x3
I1126 09:59:39.141856 10258 net.cpp:454] inception_4c/prelu_3x3 <- inception_4c/3x3
I1126 09:59:39.141863 10258 net.cpp:397] inception_4c/prelu_3x3 -> inception_4c/3x3 (in-place)
I1126 09:59:39.141966 10258 net.cpp:150] Setting up inception_4c/prelu_3x3
I1126 09:59:39.141973 10258 net.cpp:157] Top shape: 32 256 14 14 (1605632)
I1126 09:59:39.141978 10258 net.cpp:165] Memory required for data: 1396859652
I1126 09:59:39.141983 10258 layer_factory.hpp:76] Creating layer inception_4c/5x5_reduce
I1126 09:59:39.141991 10258 net.cpp:106] Creating Layer inception_4c/5x5_reduce
I1126 09:59:39.141996 10258 net.cpp:454] inception_4c/5x5_reduce <- inception_4b/output_inception_4b/output_0_split_2
I1126 09:59:39.142004 10258 net.cpp:411] inception_4c/5x5_reduce -> inception_4c/5x5_reduce
I1126 09:59:39.143060 10258 cudnn_conv_layer.cpp:194] Reallocating workspace storage: 10080
I1126 09:59:39.143081 10258 net.cpp:150] Setting up inception_4c/5x5_reduce
I1126 09:59:39.143088 10258 net.cpp:157] Top shape: 32 24 14 14 (150528)
I1126 09:59:39.143092 10258 net.cpp:165] Memory required for data: 1397461764
I1126 09:59:39.143100 10258 layer_factory.hpp:76] Creating layer inception_4c/prelu_5x5_reduce
I1126 09:59:39.143108 10258 net.cpp:106] Creating Layer inception_4c/prelu_5x5_reduce
I1126 09:59:39.143112 10258 net.cpp:454] inception_4c/prelu_5x5_reduce <- inception_4c/5x5_reduce
I1126 09:59:39.143118 10258 net.cpp:397] inception_4c/prelu_5x5_reduce -> inception_4c/5x5_reduce (in-place)
I1126 09:59:39.143216 10258 net.cpp:150] Setting up inception_4c/prelu_5x5_reduce
I1126 09:59:39.143224 10258 net.cpp:157] Top shape: 32 24 14 14 (150528)
I1126 09:59:39.143237 10258 net.cpp:165] Memory required for data: 1398063876
I1126 09:59:39.143244 10258 layer_factory.hpp:76] Creating layer inception_4c/5x5
I1126 09:59:39.143254 10258 net.cpp:106] Creating Layer inception_4c/5x5
I1126 09:59:39.143259 10258 net.cpp:454] inception_4c/5x5 <- inception_4c/5x5_reduce
I1126 09:59:39.143266 10258 net.cpp:411] inception_4c/5x5 -> inception_4c/5x5
I1126 09:59:39.144974 10258 cudnn_conv_layer.cpp:194] Reallocating workspace storage: 13080
I1126 09:59:39.144996 10258 net.cpp:150] Setting up inception_4c/5x5
I1126 09:59:39.145004 10258 net.cpp:157] Top shape: 32 64 14 14 (401408)
I1126 09:59:39.145007 10258 net.cpp:165] Memory required for data: 1399669508
I1126 09:59:39.145015 10258 layer_factory.hpp:76] Creating layer inception_4c/prelu_5x5
I1126 09:59:39.145025 10258 net.cpp:106] Creating Layer inception_4c/prelu_5x5
I1126 09:59:39.145030 10258 net.cpp:454] inception_4c/prelu_5x5 <- inception_4c/5x5
I1126 09:59:39.145036 10258 net.cpp:397] inception_4c/prelu_5x5 -> inception_4c/5x5 (in-place)
I1126 09:59:39.145136 10258 net.cpp:150] Setting up inception_4c/prelu_5x5
I1126 09:59:39.145144 10258 net.cpp:157] Top shape: 32 64 14 14 (401408)
I1126 09:59:39.145148 10258 net.cpp:165] Memory required for data: 1401275140
I1126 09:59:39.145153 10258 layer_factory.hpp:76] Creating layer inception_4c/pool
I1126 09:59:39.145161 10258 net.cpp:106] Creating Layer inception_4c/pool
I1126 09:59:39.145165 10258 net.cpp:454] inception_4c/pool <- inception_4b/output_inception_4b/output_0_split_3
I1126 09:59:39.145171 10258 net.cpp:411] inception_4c/pool -> inception_4c/pool
I1126 09:59:39.145339 10258 net.cpp:150] Setting up inception_4c/pool
I1126 09:59:39.145347 10258 net.cpp:157] Top shape: 32 512 14 14 (3211264)
I1126 09:59:39.145351 10258 net.cpp:165] Memory required for data: 1414120196
I1126 09:59:39.145355 10258 layer_factory.hpp:76] Creating layer inception_4c/pool_proj
I1126 09:59:39.145364 10258 net.cpp:106] Creating Layer inception_4c/pool_proj
I1126 09:59:39.145369 10258 net.cpp:454] inception_4c/pool_proj <- inception_4c/pool
I1126 09:59:39.145376 10258 net.cpp:411] inception_4c/pool_proj -> inception_4c/pool_proj
I1126 09:59:39.146733 10258 cudnn_conv_layer.cpp:194] Reallocating workspace storage: 10080
I1126 09:59:39.146756 10258 net.cpp:150] Setting up inception_4c/pool_proj
I1126 09:59:39.146764 10258 net.cpp:157] Top shape: 32 64 14 14 (401408)
I1126 09:59:39.146767 10258 net.cpp:165] Memory required for data: 1415725828
I1126 09:59:39.146775 10258 layer_factory.hpp:76] Creating layer inception_4c/prelu_pool_proj
I1126 09:59:39.146781 10258 net.cpp:106] Creating Layer inception_4c/prelu_pool_proj
I1126 09:59:39.146785 10258 net.cpp:454] inception_4c/prelu_pool_proj <- inception_4c/pool_proj
I1126 09:59:39.146793 10258 net.cpp:397] inception_4c/prelu_pool_proj -> inception_4c/pool_proj (in-place)
I1126 09:59:39.146890 10258 net.cpp:150] Setting up inception_4c/prelu_pool_proj
I1126 09:59:39.146898 10258 net.cpp:157] Top shape: 32 64 14 14 (401408)
I1126 09:59:39.146903 10258 net.cpp:165] Memory required for data: 1417331460
I1126 09:59:39.146908 10258 layer_factory.hpp:76] Creating layer inception_4c/output
I1126 09:59:39.146914 10258 net.cpp:106] Creating Layer inception_4c/output
I1126 09:59:39.146917 10258 net.cpp:454] inception_4c/output <- inception_4c/1x1
I1126 09:59:39.146922 10258 net.cpp:454] inception_4c/output <- inception_4c/3x3
I1126 09:59:39.146926 10258 net.cpp:454] inception_4c/output <- inception_4c/5x5
I1126 09:59:39.146931 10258 net.cpp:454] inception_4c/output <- inception_4c/pool_proj
I1126 09:59:39.146936 10258 net.cpp:411] inception_4c/output -> inception_4c/output
I1126 09:59:39.146965 10258 net.cpp:150] Setting up inception_4c/output
I1126 09:59:39.146971 10258 net.cpp:157] Top shape: 32 512 14 14 (3211264)
I1126 09:59:39.146975 10258 net.cpp:165] Memory required for data: 1430176516
I1126 09:59:39.146980 10258 layer_factory.hpp:76] Creating layer inception_4c/output_inception_4c/output_0_split
I1126 09:59:39.146986 10258 net.cpp:106] Creating Layer inception_4c/output_inception_4c/output_0_split
I1126 09:59:39.147001 10258 net.cpp:454] inception_4c/output_inception_4c/output_0_split <- inception_4c/output
I1126 09:59:39.147007 10258 net.cpp:411] inception_4c/output_inception_4c/output_0_split -> inception_4c/output_inception_4c/output_0_split_0
I1126 09:59:39.147014 10258 net.cpp:411] inception_4c/output_inception_4c/output_0_split -> inception_4c/output_inception_4c/output_0_split_1
I1126 09:59:39.147020 10258 net.cpp:411] inception_4c/output_inception_4c/output_0_split -> inception_4c/output_inception_4c/output_0_split_2
I1126 09:59:39.147027 10258 net.cpp:411] inception_4c/output_inception_4c/output_0_split -> inception_4c/output_inception_4c/output_0_split_3
I1126 09:59:39.147085 10258 net.cpp:150] Setting up inception_4c/output_inception_4c/output_0_split
I1126 09:59:39.147092 10258 net.cpp:157] Top shape: 32 512 14 14 (3211264)
I1126 09:59:39.147097 10258 net.cpp:157] Top shape: 32 512 14 14 (3211264)
I1126 09:59:39.147102 10258 net.cpp:157] Top shape: 32 512 14 14 (3211264)
I1126 09:59:39.147106 10258 net.cpp:157] Top shape: 32 512 14 14 (3211264)
I1126 09:59:39.147110 10258 net.cpp:165] Memory required for data: 1481556740
I1126 09:59:39.147114 10258 layer_factory.hpp:76] Creating layer inception_4d/1x1
I1126 09:59:39.147124 10258 net.cpp:106] Creating Layer inception_4d/1x1
I1126 09:59:39.147127 10258 net.cpp:454] inception_4d/1x1 <- inception_4c/output_inception_4c/output_0_split_0
I1126 09:59:39.147133 10258 net.cpp:411] inception_4d/1x1 -> inception_4d/1x1
I1126 09:59:39.148476 10258 cudnn_conv_layer.cpp:194] Reallocating workspace storage: 10080
I1126 09:59:39.148506 10258 net.cpp:150] Setting up inception_4d/1x1
I1126 09:59:39.148514 10258 net.cpp:157] Top shape: 32 112 14 14 (702464)
I1126 09:59:39.148519 10258 net.cpp:165] Memory required for data: 1484366596
I1126 09:59:39.148525 10258 layer_factory.hpp:76] Creating layer inception_4d/prelu_1x1
I1126 09:59:39.148533 10258 net.cpp:106] Creating Layer inception_4d/prelu_1x1
I1126 09:59:39.148538 10258 net.cpp:454] inception_4d/prelu_1x1 <- inception_4d/1x1
I1126 09:59:39.148545 10258 net.cpp:397] inception_4d/prelu_1x1 -> inception_4d/1x1 (in-place)
I1126 09:59:39.148639 10258 net.cpp:150] Setting up inception_4d/prelu_1x1
I1126 09:59:39.148646 10258 net.cpp:157] Top shape: 32 112 14 14 (702464)
I1126 09:59:39.148650 10258 net.cpp:165] Memory required for data: 1487176452
I1126 09:59:39.148655 10258 layer_factory.hpp:76] Creating layer inception_4d/3x3_reduce
I1126 09:59:39.148664 10258 net.cpp:106] Creating Layer inception_4d/3x3_reduce
I1126 09:59:39.148669 10258 net.cpp:454] inception_4d/3x3_reduce <- inception_4c/output_inception_4c/output_0_split_1
I1126 09:59:39.148674 10258 net.cpp:411] inception_4d/3x3_reduce -> inception_4d/3x3_reduce
I1126 09:59:39.149947 10258 cudnn_conv_layer.cpp:194] Reallocating workspace storage: 10080
I1126 09:59:39.149971 10258 net.cpp:150] Setting up inception_4d/3x3_reduce
I1126 09:59:39.149978 10258 net.cpp:157] Top shape: 32 144 14 14 (903168)
I1126 09:59:39.149982 10258 net.cpp:165] Memory required for data: 1490789124
I1126 09:59:39.149988 10258 layer_factory.hpp:76] Creating layer inception_4d/prelu_3x3_reduce
I1126 09:59:39.149997 10258 net.cpp:106] Creating Layer inception_4d/prelu_3x3_reduce
I1126 09:59:39.150002 10258 net.cpp:454] inception_4d/prelu_3x3_reduce <- inception_4d/3x3_reduce
I1126 09:59:39.150008 10258 net.cpp:397] inception_4d/prelu_3x3_reduce -> inception_4d/3x3_reduce (in-place)
I1126 09:59:39.150110 10258 net.cpp:150] Setting up inception_4d/prelu_3x3_reduce
I1126 09:59:39.151144 10258 net.cpp:157] Top shape: 32 144 14 14 (903168)
I1126 09:59:39.151156 10258 net.cpp:165] Memory required for data: 1494401796
I1126 09:59:39.151166 10258 layer_factory.hpp:76] Creating layer inception_4d/3x3
I1126 09:59:39.151183 10258 net.cpp:106] Creating Layer inception_4d/3x3
I1126 09:59:39.151199 10258 net.cpp:454] inception_4d/3x3 <- inception_4d/3x3_reduce
I1126 09:59:39.151209 10258 net.cpp:411] inception_4d/3x3 -> inception_4d/3x3
I1126 09:59:39.158100 10258 cudnn_conv_layer.cpp:194] Reallocating workspace storage: 10080
I1126 09:59:39.158149 10258 net.cpp:150] Setting up inception_4d/3x3
I1126 09:59:39.158162 10258 net.cpp:157] Top shape: 32 288 14 14 (1806336)
I1126 09:59:39.158169 10258 net.cpp:165] Memory required for data: 1501627140
I1126 09:59:39.158182 10258 layer_factory.hpp:76] Creating layer inception_4d/prelu_3x3
I1126 09:59:39.158200 10258 net.cpp:106] Creating Layer inception_4d/prelu_3x3
I1126 09:59:39.158208 10258 net.cpp:454] inception_4d/prelu_3x3 <- inception_4d/3x3
I1126 09:59:39.158221 10258 net.cpp:397] inception_4d/prelu_3x3 -> inception_4d/3x3 (in-place)
I1126 09:59:39.158401 10258 net.cpp:150] Setting up inception_4d/prelu_3x3
I1126 09:59:39.158409 10258 net.cpp:157] Top shape: 32 288 14 14 (1806336)
I1126 09:59:39.158413 10258 net.cpp:165] Memory required for data: 1508852484
I1126 09:59:39.158419 10258 layer_factory.hpp:76] Creating layer inception_4d/5x5_reduce
I1126 09:59:39.158433 10258 net.cpp:106] Creating Layer inception_4d/5x5_reduce
I1126 09:59:39.158438 10258 net.cpp:454] inception_4d/5x5_reduce <- inception_4c/output_inception_4c/output_0_split_2
I1126 09:59:39.158447 10258 net.cpp:411] inception_4d/5x5_reduce -> inception_4d/5x5_reduce
I1126 09:59:39.159934 10258 cudnn_conv_layer.cpp:194] Reallocating workspace storage: 10080
I1126 09:59:39.159976 10258 net.cpp:150] Setting up inception_4d/5x5_reduce
I1126 09:59:39.159998 10258 net.cpp:157] Top shape: 32 32 14 14 (200704)
I1126 09:59:39.160006 10258 net.cpp:165] Memory required for data: 1509655300
I1126 09:59:39.160024 10258 layer_factory.hpp:76] Creating layer inception_4d/prelu_5x5_reduce
I1126 09:59:39.160037 10258 net.cpp:106] Creating Layer inception_4d/prelu_5x5_reduce
I1126 09:59:39.160045 10258 net.cpp:454] inception_4d/prelu_5x5_reduce <- inception_4d/5x5_reduce
I1126 09:59:39.160058 10258 net.cpp:397] inception_4d/prelu_5x5_reduce -> inception_4d/5x5_reduce (in-place)
I1126 09:59:39.160214 10258 net.cpp:150] Setting up inception_4d/prelu_5x5_reduce
I1126 09:59:39.160226 10258 net.cpp:157] Top shape: 32 32 14 14 (200704)
I1126 09:59:39.160233 10258 net.cpp:165] Memory required for data: 1510458116
I1126 09:59:39.160241 10258 layer_factory.hpp:76] Creating layer inception_4d/5x5
I1126 09:59:39.160254 10258 net.cpp:106] Creating Layer inception_4d/5x5
I1126 09:59:39.160260 10258 net.cpp:454] inception_4d/5x5 <- inception_4d/5x5_reduce
I1126 09:59:39.160272 10258 net.cpp:411] inception_4d/5x5 -> inception_4d/5x5
I1126 09:59:39.163113 10258 cudnn_conv_layer.cpp:194] Reallocating workspace storage: 13080
I1126 09:59:39.163197 10258 net.cpp:150] Setting up inception_4d/5x5
I1126 09:59:39.163223 10258 net.cpp:157] Top shape: 32 64 14 14 (401408)
I1126 09:59:39.163238 10258 net.cpp:165] Memory required for data: 1512063748
I1126 09:59:39.163261 10258 layer_factory.hpp:76] Creating layer inception_4d/prelu_5x5
I1126 09:59:39.163286 10258 net.cpp:106] Creating Layer inception_4d/prelu_5x5
I1126 09:59:39.163306 10258 net.cpp:454] inception_4d/prelu_5x5 <- inception_4d/5x5
I1126 09:59:39.163319 10258 net.cpp:397] inception_4d/prelu_5x5 -> inception_4d/5x5 (in-place)
I1126 09:59:39.163508 10258 net.cpp:150] Setting up inception_4d/prelu_5x5
I1126 09:59:39.163532 10258 net.cpp:157] Top shape: 32 64 14 14 (401408)
I1126 09:59:39.163540 10258 net.cpp:165] Memory required for data: 1513669380
I1126 09:59:39.163552 10258 layer_factory.hpp:76] Creating layer inception_4d/pool
I1126 09:59:39.163566 10258 net.cpp:106] Creating Layer inception_4d/pool
I1126 09:59:39.163576 10258 net.cpp:454] inception_4d/pool <- inception_4c/output_inception_4c/output_0_split_3
I1126 09:59:39.163589 10258 net.cpp:411] inception_4d/pool -> inception_4d/pool
I1126 09:59:39.163871 10258 net.cpp:150] Setting up inception_4d/pool
I1126 09:59:39.163882 10258 net.cpp:157] Top shape: 32 512 14 14 (3211264)
I1126 09:59:39.163894 10258 net.cpp:165] Memory required for data: 1526514436
I1126 09:59:39.163902 10258 layer_factory.hpp:76] Creating layer inception_4d/pool_proj
I1126 09:59:39.163924 10258 net.cpp:106] Creating Layer inception_4d/pool_proj
I1126 09:59:39.163964 10258 net.cpp:454] inception_4d/pool_proj <- inception_4d/pool
I1126 09:59:39.163981 10258 net.cpp:411] inception_4d/pool_proj -> inception_4d/pool_proj
I1126 09:59:39.166312 10258 cudnn_conv_layer.cpp:194] Reallocating workspace storage: 10080
I1126 09:59:39.166364 10258 net.cpp:150] Setting up inception_4d/pool_proj
I1126 09:59:39.166376 10258 net.cpp:157] Top shape: 32 64 14 14 (401408)
I1126 09:59:39.166384 10258 net.cpp:165] Memory required for data: 1528120068
I1126 09:59:39.166396 10258 layer_factory.hpp:76] Creating layer inception_4d/prelu_pool_proj
I1126 09:59:39.166412 10258 net.cpp:106] Creating Layer inception_4d/prelu_pool_proj
I1126 09:59:39.166421 10258 net.cpp:454] inception_4d/prelu_pool_proj <- inception_4d/pool_proj
I1126 09:59:39.166431 10258 net.cpp:397] inception_4d/prelu_pool_proj -> inception_4d/pool_proj (in-place)
I1126 09:59:39.166601 10258 net.cpp:150] Setting up inception_4d/prelu_pool_proj
I1126 09:59:39.166613 10258 net.cpp:157] Top shape: 32 64 14 14 (401408)
I1126 09:59:39.166620 10258 net.cpp:165] Memory required for data: 1529725700
I1126 09:59:39.166630 10258 layer_factory.hpp:76] Creating layer inception_4d/output
I1126 09:59:39.166640 10258 net.cpp:106] Creating Layer inception_4d/output
I1126 09:59:39.166647 10258 net.cpp:454] inception_4d/output <- inception_4d/1x1
I1126 09:59:39.166656 10258 net.cpp:454] inception_4d/output <- inception_4d/3x3
I1126 09:59:39.166664 10258 net.cpp:454] inception_4d/output <- inception_4d/5x5
I1126 09:59:39.166672 10258 net.cpp:454] inception_4d/output <- inception_4d/pool_proj
I1126 09:59:39.166683 10258 net.cpp:411] inception_4d/output -> inception_4d/output
I1126 09:59:39.166724 10258 net.cpp:150] Setting up inception_4d/output
I1126 09:59:39.166735 10258 net.cpp:157] Top shape: 32 528 14 14 (3311616)
I1126 09:59:39.166741 10258 net.cpp:165] Memory required for data: 1542972164
I1126 09:59:39.166749 10258 layer_factory.hpp:76] Creating layer inception_4d/output_inception_4d/output_0_split
I1126 09:59:39.166759 10258 net.cpp:106] Creating Layer inception_4d/output_inception_4d/output_0_split
I1126 09:59:39.166766 10258 net.cpp:454] inception_4d/output_inception_4d/output_0_split <- inception_4d/output
I1126 09:59:39.166776 10258 net.cpp:411] inception_4d/output_inception_4d/output_0_split -> inception_4d/output_inception_4d/output_0_split_0
I1126 09:59:39.166790 10258 net.cpp:411] inception_4d/output_inception_4d/output_0_split -> inception_4d/output_inception_4d/output_0_split_1
I1126 09:59:39.166801 10258 net.cpp:411] inception_4d/output_inception_4d/output_0_split -> inception_4d/output_inception_4d/output_0_split_2
I1126 09:59:39.166813 10258 net.cpp:411] inception_4d/output_inception_4d/output_0_split -> inception_4d/output_inception_4d/output_0_split_3
I1126 09:59:39.166823 10258 net.cpp:411] inception_4d/output_inception_4d/output_0_split -> inception_4d/output_inception_4d/output_0_split_4
I1126 09:59:39.166939 10258 net.cpp:150] Setting up inception_4d/output_inception_4d/output_0_split
I1126 09:59:39.166950 10258 net.cpp:157] Top shape: 32 528 14 14 (3311616)
I1126 09:59:39.166960 10258 net.cpp:157] Top shape: 32 528 14 14 (3311616)
I1126 09:59:39.166967 10258 net.cpp:157] Top shape: 32 528 14 14 (3311616)
I1126 09:59:39.166975 10258 net.cpp:157] Top shape: 32 528 14 14 (3311616)
I1126 09:59:39.166985 10258 net.cpp:157] Top shape: 32 528 14 14 (3311616)
I1126 09:59:39.166990 10258 net.cpp:165] Memory required for data: 1609204484
I1126 09:59:39.166997 10258 layer_factory.hpp:76] Creating layer loss2/ave_pool
I1126 09:59:39.167008 10258 net.cpp:106] Creating Layer loss2/ave_pool
I1126 09:59:39.167016 10258 net.cpp:454] loss2/ave_pool <- inception_4d/output_inception_4d/output_0_split_0
I1126 09:59:39.167026 10258 net.cpp:411] loss2/ave_pool -> loss2/ave_pool
I1126 09:59:39.167609 10258 net.cpp:150] Setting up loss2/ave_pool
I1126 09:59:39.167623 10258 net.cpp:157] Top shape: 32 528 4 4 (270336)
I1126 09:59:39.167630 10258 net.cpp:165] Memory required for data: 1610285828
I1126 09:59:39.167657 10258 layer_factory.hpp:76] Creating layer loss2/conv
I1126 09:59:39.167675 10258 net.cpp:106] Creating Layer loss2/conv
I1126 09:59:39.167683 10258 net.cpp:454] loss2/conv <- loss2/ave_pool
I1126 09:59:39.167695 10258 net.cpp:411] loss2/conv -> loss2/conv
I1126 09:59:39.170274 10258 cudnn_conv_layer.cpp:194] Reallocating workspace storage: 6840
I1126 09:59:39.170338 10258 net.cpp:150] Setting up loss2/conv
I1126 09:59:39.170356 10258 net.cpp:157] Top shape: 32 128 4 4 (65536)
I1126 09:59:39.170362 10258 net.cpp:165] Memory required for data: 1610547972
I1126 09:59:39.170378 10258 layer_factory.hpp:76] Creating layer loss2/prelu_conv
I1126 09:59:39.170397 10258 net.cpp:106] Creating Layer loss2/prelu_conv
I1126 09:59:39.170408 10258 net.cpp:454] loss2/prelu_conv <- loss2/conv
I1126 09:59:39.170419 10258 net.cpp:397] loss2/prelu_conv -> loss2/conv (in-place)
I1126 09:59:39.170579 10258 net.cpp:150] Setting up loss2/prelu_conv
I1126 09:59:39.170593 10258 net.cpp:157] Top shape: 32 128 4 4 (65536)
I1126 09:59:39.170599 10258 net.cpp:165] Memory required for data: 1610810116
I1126 09:59:39.170609 10258 layer_factory.hpp:76] Creating layer loss2/fc
I1126 09:59:39.170755 10258 net.cpp:106] Creating Layer loss2/fc
I1126 09:59:39.170768 10258 net.cpp:454] loss2/fc <- loss2/conv
I1126 09:59:39.170781 10258 net.cpp:411] loss2/fc -> loss2/fc
I1126 09:59:39.188330 10258 net.cpp:150] Setting up loss2/fc
I1126 09:59:39.188375 10258 net.cpp:157] Top shape: 32 1024 (32768)
I1126 09:59:39.188380 10258 net.cpp:165] Memory required for data: 1610941188
I1126 09:59:39.188412 10258 layer_factory.hpp:76] Creating layer loss2/prelu_fc
I1126 09:59:39.188426 10258 net.cpp:106] Creating Layer loss2/prelu_fc
I1126 09:59:39.188433 10258 net.cpp:454] loss2/prelu_fc <- loss2/fc
I1126 09:59:39.188449 10258 net.cpp:397] loss2/prelu_fc -> loss2/fc (in-place)
I1126 09:59:39.188566 10258 net.cpp:150] Setting up loss2/prelu_fc
I1126 09:59:39.188576 10258 net.cpp:157] Top shape: 32 1024 (32768)
I1126 09:59:39.188580 10258 net.cpp:165] Memory required for data: 1611072260
I1126 09:59:39.188586 10258 layer_factory.hpp:76] Creating layer loss2/drop_fc
I1126 09:59:39.188602 10258 net.cpp:106] Creating Layer loss2/drop_fc
I1126 09:59:39.188607 10258 net.cpp:454] loss2/drop_fc <- loss2/fc
I1126 09:59:39.188612 10258 net.cpp:397] loss2/drop_fc -> loss2/fc (in-place)
I1126 09:59:39.188640 10258 net.cpp:150] Setting up loss2/drop_fc
I1126 09:59:39.188648 10258 net.cpp:157] Top shape: 32 1024 (32768)
I1126 09:59:39.188652 10258 net.cpp:165] Memory required for data: 1611203332
I1126 09:59:39.188657 10258 layer_factory.hpp:76] Creating layer loss2/classifier2
I1126 09:59:39.188675 10258 net.cpp:106] Creating Layer loss2/classifier2
I1126 09:59:39.188680 10258 net.cpp:454] loss2/classifier2 <- loss2/fc
I1126 09:59:39.188686 10258 net.cpp:411] loss2/classifier2 -> loss2/classifier
I1126 09:59:39.188856 10258 net.cpp:150] Setting up loss2/classifier2
I1126 09:59:39.188865 10258 net.cpp:157] Top shape: 32 2 (64)
I1126 09:59:39.188870 10258 net.cpp:165] Memory required for data: 1611203588
I1126 09:59:39.188884 10258 layer_factory.hpp:76] Creating layer loss2/loss
I1126 09:59:39.188892 10258 net.cpp:106] Creating Layer loss2/loss
I1126 09:59:39.188896 10258 net.cpp:454] loss2/loss <- loss2/classifier
I1126 09:59:39.188902 10258 net.cpp:454] loss2/loss <- label_data_1_split_1
I1126 09:59:39.188910 10258 net.cpp:411] loss2/loss -> loss2/loss1
I1126 09:59:39.188920 10258 layer_factory.hpp:76] Creating layer loss2/loss
I1126 09:59:39.189218 10258 net.cpp:150] Setting up loss2/loss
I1126 09:59:39.189227 10258 net.cpp:157] Top shape: (1)
I1126 09:59:39.189231 10258 net.cpp:160]     with loss weight 0.3
I1126 09:59:39.189245 10258 net.cpp:165] Memory required for data: 1611203592
I1126 09:59:39.189250 10258 layer_factory.hpp:76] Creating layer inception_4e/1x1
I1126 09:59:39.189261 10258 net.cpp:106] Creating Layer inception_4e/1x1
I1126 09:59:39.189267 10258 net.cpp:454] inception_4e/1x1 <- inception_4d/output_inception_4d/output_0_split_1
I1126 09:59:39.189276 10258 net.cpp:411] inception_4e/1x1 -> inception_4e/1x1
I1126 09:59:39.192142 10258 cudnn_conv_layer.cpp:194] Reallocating workspace storage: 10080
I1126 09:59:39.192198 10258 net.cpp:150] Setting up inception_4e/1x1
I1126 09:59:39.192210 10258 net.cpp:157] Top shape: 32 256 14 14 (1605632)
I1126 09:59:39.192214 10258 net.cpp:165] Memory required for data: 1617626120
I1126 09:59:39.192224 10258 layer_factory.hpp:76] Creating layer inception_4e/prelu_1x1
I1126 09:59:39.192237 10258 net.cpp:106] Creating Layer inception_4e/prelu_1x1
I1126 09:59:39.192246 10258 net.cpp:454] inception_4e/prelu_1x1 <- inception_4e/1x1
I1126 09:59:39.192255 10258 net.cpp:397] inception_4e/prelu_1x1 -> inception_4e/1x1 (in-place)
I1126 09:59:39.192411 10258 net.cpp:150] Setting up inception_4e/prelu_1x1
I1126 09:59:39.192422 10258 net.cpp:157] Top shape: 32 256 14 14 (1605632)
I1126 09:59:39.192426 10258 net.cpp:165] Memory required for data: 1624048648
I1126 09:59:39.192433 10258 layer_factory.hpp:76] Creating layer inception_4e/3x3_reduce
I1126 09:59:39.192445 10258 net.cpp:106] Creating Layer inception_4e/3x3_reduce
I1126 09:59:39.192451 10258 net.cpp:454] inception_4e/3x3_reduce <- inception_4d/output_inception_4d/output_0_split_2
I1126 09:59:39.192461 10258 net.cpp:411] inception_4e/3x3_reduce -> inception_4e/3x3_reduce
I1126 09:59:39.194326 10258 cudnn_conv_layer.cpp:194] Reallocating workspace storage: 10080
I1126 09:59:39.194382 10258 net.cpp:150] Setting up inception_4e/3x3_reduce
I1126 09:59:39.194393 10258 net.cpp:157] Top shape: 32 160 14 14 (1003520)
I1126 09:59:39.194397 10258 net.cpp:165] Memory required for data: 1628062728
I1126 09:59:39.194417 10258 layer_factory.hpp:76] Creating layer inception_4e/prelu_3x3_reduce
I1126 09:59:39.194428 10258 net.cpp:106] Creating Layer inception_4e/prelu_3x3_reduce
I1126 09:59:39.194435 10258 net.cpp:454] inception_4e/prelu_3x3_reduce <- inception_4e/3x3_reduce
I1126 09:59:39.194442 10258 net.cpp:397] inception_4e/prelu_3x3_reduce -> inception_4e/3x3_reduce (in-place)
I1126 09:59:39.194576 10258 net.cpp:150] Setting up inception_4e/prelu_3x3_reduce
I1126 09:59:39.194583 10258 net.cpp:157] Top shape: 32 160 14 14 (1003520)
I1126 09:59:39.194587 10258 net.cpp:165] Memory required for data: 1632076808
I1126 09:59:39.194593 10258 layer_factory.hpp:76] Creating layer inception_4e/3x3
I1126 09:59:39.194604 10258 net.cpp:106] Creating Layer inception_4e/3x3
I1126 09:59:39.194609 10258 net.cpp:454] inception_4e/3x3 <- inception_4e/3x3_reduce
I1126 09:59:39.194618 10258 net.cpp:411] inception_4e/3x3 -> inception_4e/3x3
I1126 09:59:39.199844 10258 cudnn_conv_layer.cpp:194] Reallocating workspace storage: 10080
I1126 09:59:39.199903 10258 net.cpp:150] Setting up inception_4e/3x3
I1126 09:59:39.199914 10258 net.cpp:157] Top shape: 32 320 14 14 (2007040)
I1126 09:59:39.199926 10258 net.cpp:165] Memory required for data: 1640104968
I1126 09:59:39.199936 10258 layer_factory.hpp:76] Creating layer inception_4e/prelu_3x3
I1126 09:59:39.199959 10258 net.cpp:106] Creating Layer inception_4e/prelu_3x3
I1126 09:59:39.199967 10258 net.cpp:454] inception_4e/prelu_3x3 <- inception_4e/3x3
I1126 09:59:39.199976 10258 net.cpp:397] inception_4e/prelu_3x3 -> inception_4e/3x3 (in-place)
I1126 09:59:39.200140 10258 net.cpp:150] Setting up inception_4e/prelu_3x3
I1126 09:59:39.200148 10258 net.cpp:157] Top shape: 32 320 14 14 (2007040)
I1126 09:59:39.200152 10258 net.cpp:165] Memory required for data: 1648133128
I1126 09:59:39.200158 10258 layer_factory.hpp:76] Creating layer inception_4e/5x5_reduce
I1126 09:59:39.200170 10258 net.cpp:106] Creating Layer inception_4e/5x5_reduce
I1126 09:59:39.200176 10258 net.cpp:454] inception_4e/5x5_reduce <- inception_4d/output_inception_4d/output_0_split_3
I1126 09:59:39.200191 10258 net.cpp:411] inception_4e/5x5_reduce -> inception_4e/5x5_reduce
I1126 09:59:39.201400 10258 cudnn_conv_layer.cpp:194] Reallocating workspace storage: 10080
I1126 09:59:39.201424 10258 net.cpp:150] Setting up inception_4e/5x5_reduce
I1126 09:59:39.201431 10258 net.cpp:157] Top shape: 32 32 14 14 (200704)
I1126 09:59:39.201457 10258 net.cpp:165] Memory required for data: 1648935944
I1126 09:59:39.201464 10258 layer_factory.hpp:76] Creating layer inception_4e/prelu_5x5_reduce
I1126 09:59:39.201472 10258 net.cpp:106] Creating Layer inception_4e/prelu_5x5_reduce
I1126 09:59:39.201477 10258 net.cpp:454] inception_4e/prelu_5x5_reduce <- inception_4e/5x5_reduce
I1126 09:59:39.201484 10258 net.cpp:397] inception_4e/prelu_5x5_reduce -> inception_4e/5x5_reduce (in-place)
I1126 09:59:39.201591 10258 net.cpp:150] Setting up inception_4e/prelu_5x5_reduce
I1126 09:59:39.201601 10258 net.cpp:157] Top shape: 32 32 14 14 (200704)
I1126 09:59:39.201604 10258 net.cpp:165] Memory required for data: 1649738760
I1126 09:59:39.201609 10258 layer_factory.hpp:76] Creating layer inception_4e/5x5
I1126 09:59:39.201634 10258 net.cpp:106] Creating Layer inception_4e/5x5
I1126 09:59:39.201640 10258 net.cpp:454] inception_4e/5x5 <- inception_4e/5x5_reduce
I1126 09:59:39.201648 10258 net.cpp:411] inception_4e/5x5 -> inception_4e/5x5
I1126 09:59:39.203837 10258 cudnn_conv_layer.cpp:194] Reallocating workspace storage: 13080
I1126 09:59:39.203860 10258 net.cpp:150] Setting up inception_4e/5x5
I1126 09:59:39.203867 10258 net.cpp:157] Top shape: 32 128 14 14 (802816)
I1126 09:59:39.203871 10258 net.cpp:165] Memory required for data: 1652950024
I1126 09:59:39.203879 10258 layer_factory.hpp:76] Creating layer inception_4e/prelu_5x5
I1126 09:59:39.203888 10258 net.cpp:106] Creating Layer inception_4e/prelu_5x5
I1126 09:59:39.203893 10258 net.cpp:454] inception_4e/prelu_5x5 <- inception_4e/5x5
I1126 09:59:39.203901 10258 net.cpp:397] inception_4e/prelu_5x5 -> inception_4e/5x5 (in-place)
I1126 09:59:39.204018 10258 net.cpp:150] Setting up inception_4e/prelu_5x5
I1126 09:59:39.204026 10258 net.cpp:157] Top shape: 32 128 14 14 (802816)
I1126 09:59:39.204030 10258 net.cpp:165] Memory required for data: 1656161288
I1126 09:59:39.204036 10258 layer_factory.hpp:76] Creating layer inception_4e/pool
I1126 09:59:39.204044 10258 net.cpp:106] Creating Layer inception_4e/pool
I1126 09:59:39.204049 10258 net.cpp:454] inception_4e/pool <- inception_4d/output_inception_4d/output_0_split_4
I1126 09:59:39.204056 10258 net.cpp:411] inception_4e/pool -> inception_4e/pool
I1126 09:59:39.204437 10258 net.cpp:150] Setting up inception_4e/pool
I1126 09:59:39.204447 10258 net.cpp:157] Top shape: 32 528 14 14 (3311616)
I1126 09:59:39.204452 10258 net.cpp:165] Memory required for data: 1669407752
I1126 09:59:39.204455 10258 layer_factory.hpp:76] Creating layer inception_4e/pool_proj
I1126 09:59:39.204464 10258 net.cpp:106] Creating Layer inception_4e/pool_proj
I1126 09:59:39.204469 10258 net.cpp:454] inception_4e/pool_proj <- inception_4e/pool
I1126 09:59:39.204478 10258 net.cpp:411] inception_4e/pool_proj -> inception_4e/pool_proj
I1126 09:59:39.205721 10258 cudnn_conv_layer.cpp:194] Reallocating workspace storage: 10080
I1126 09:59:39.205750 10258 net.cpp:150] Setting up inception_4e/pool_proj
I1126 09:59:39.205757 10258 net.cpp:157] Top shape: 32 128 14 14 (802816)
I1126 09:59:39.205762 10258 net.cpp:165] Memory required for data: 1672619016
I1126 09:59:39.205770 10258 layer_factory.hpp:76] Creating layer inception_4e/prelu_pool_proj
I1126 09:59:39.205778 10258 net.cpp:106] Creating Layer inception_4e/prelu_pool_proj
I1126 09:59:39.205783 10258 net.cpp:454] inception_4e/prelu_pool_proj <- inception_4e/pool_proj
I1126 09:59:39.205790 10258 net.cpp:397] inception_4e/prelu_pool_proj -> inception_4e/pool_proj (in-place)
I1126 09:59:39.205904 10258 net.cpp:150] Setting up inception_4e/prelu_pool_proj
I1126 09:59:39.205912 10258 net.cpp:157] Top shape: 32 128 14 14 (802816)
I1126 09:59:39.205916 10258 net.cpp:165] Memory required for data: 1675830280
I1126 09:59:39.205922 10258 layer_factory.hpp:76] Creating layer inception_4e/output
I1126 09:59:39.205929 10258 net.cpp:106] Creating Layer inception_4e/output
I1126 09:59:39.205934 10258 net.cpp:454] inception_4e/output <- inception_4e/1x1
I1126 09:59:39.205938 10258 net.cpp:454] inception_4e/output <- inception_4e/3x3
I1126 09:59:39.205943 10258 net.cpp:454] inception_4e/output <- inception_4e/5x5
I1126 09:59:39.205958 10258 net.cpp:454] inception_4e/output <- inception_4e/pool_proj
I1126 09:59:39.205966 10258 net.cpp:411] inception_4e/output -> inception_4e/output
I1126 09:59:39.205996 10258 net.cpp:150] Setting up inception_4e/output
I1126 09:59:39.206004 10258 net.cpp:157] Top shape: 32 832 14 14 (5218304)
I1126 09:59:39.206008 10258 net.cpp:165] Memory required for data: 1696703496
I1126 09:59:39.206012 10258 layer_factory.hpp:76] Creating layer pool4/3x3_s2
I1126 09:59:39.206018 10258 net.cpp:106] Creating Layer pool4/3x3_s2
I1126 09:59:39.206023 10258 net.cpp:454] pool4/3x3_s2 <- inception_4e/output
I1126 09:59:39.206029 10258 net.cpp:411] pool4/3x3_s2 -> pool4/3x3_s2
I1126 09:59:39.206403 10258 net.cpp:150] Setting up pool4/3x3_s2
I1126 09:59:39.206413 10258 net.cpp:157] Top shape: 32 832 7 7 (1304576)
I1126 09:59:39.206418 10258 net.cpp:165] Memory required for data: 1701921800
I1126 09:59:39.206423 10258 layer_factory.hpp:76] Creating layer pool4/3x3_s2_pool4/3x3_s2_0_split
I1126 09:59:39.206429 10258 net.cpp:106] Creating Layer pool4/3x3_s2_pool4/3x3_s2_0_split
I1126 09:59:39.206434 10258 net.cpp:454] pool4/3x3_s2_pool4/3x3_s2_0_split <- pool4/3x3_s2
I1126 09:59:39.206439 10258 net.cpp:411] pool4/3x3_s2_pool4/3x3_s2_0_split -> pool4/3x3_s2_pool4/3x3_s2_0_split_0
I1126 09:59:39.206449 10258 net.cpp:411] pool4/3x3_s2_pool4/3x3_s2_0_split -> pool4/3x3_s2_pool4/3x3_s2_0_split_1
I1126 09:59:39.206455 10258 net.cpp:411] pool4/3x3_s2_pool4/3x3_s2_0_split -> pool4/3x3_s2_pool4/3x3_s2_0_split_2
I1126 09:59:39.206462 10258 net.cpp:411] pool4/3x3_s2_pool4/3x3_s2_0_split -> pool4/3x3_s2_pool4/3x3_s2_0_split_3
I1126 09:59:39.206549 10258 net.cpp:150] Setting up pool4/3x3_s2_pool4/3x3_s2_0_split
I1126 09:59:39.206558 10258 net.cpp:157] Top shape: 32 832 7 7 (1304576)
I1126 09:59:39.206563 10258 net.cpp:157] Top shape: 32 832 7 7 (1304576)
I1126 09:59:39.206568 10258 net.cpp:157] Top shape: 32 832 7 7 (1304576)
I1126 09:59:39.206573 10258 net.cpp:157] Top shape: 32 832 7 7 (1304576)
I1126 09:59:39.206576 10258 net.cpp:165] Memory required for data: 1722795016
I1126 09:59:39.206581 10258 layer_factory.hpp:76] Creating layer inception_5a/1x1
I1126 09:59:39.206589 10258 net.cpp:106] Creating Layer inception_5a/1x1
I1126 09:59:39.206594 10258 net.cpp:454] inception_5a/1x1 <- pool4/3x3_s2_pool4/3x3_s2_0_split_0
I1126 09:59:39.206611 10258 net.cpp:411] inception_5a/1x1 -> inception_5a/1x1
I1126 09:59:39.209620 10258 cudnn_conv_layer.cpp:194] Reallocating workspace storage: 7428
I1126 09:59:39.209652 10258 net.cpp:150] Setting up inception_5a/1x1
I1126 09:59:39.209661 10258 net.cpp:157] Top shape: 32 256 7 7 (401408)
I1126 09:59:39.209666 10258 net.cpp:165] Memory required for data: 1724400648
I1126 09:59:39.209673 10258 layer_factory.hpp:76] Creating layer inception_5a/prelu_1x1
I1126 09:59:39.209684 10258 net.cpp:106] Creating Layer inception_5a/prelu_1x1
I1126 09:59:39.209689 10258 net.cpp:454] inception_5a/prelu_1x1 <- inception_5a/1x1
I1126 09:59:39.209697 10258 net.cpp:397] inception_5a/prelu_1x1 -> inception_5a/1x1 (in-place)
I1126 09:59:39.210348 10258 net.cpp:150] Setting up inception_5a/prelu_1x1
I1126 09:59:39.210360 10258 net.cpp:157] Top shape: 32 256 7 7 (401408)
I1126 09:59:39.210363 10258 net.cpp:165] Memory required for data: 1726006280
I1126 09:59:39.210371 10258 layer_factory.hpp:76] Creating layer inception_5a/3x3_reduce
I1126 09:59:39.210382 10258 net.cpp:106] Creating Layer inception_5a/3x3_reduce
I1126 09:59:39.210388 10258 net.cpp:454] inception_5a/3x3_reduce <- pool4/3x3_s2_pool4/3x3_s2_0_split_1
I1126 09:59:39.210397 10258 net.cpp:411] inception_5a/3x3_reduce -> inception_5a/3x3_reduce
I1126 09:59:39.212893 10258 cudnn_conv_layer.cpp:194] Reallocating workspace storage: 7428
I1126 09:59:39.212927 10258 net.cpp:150] Setting up inception_5a/3x3_reduce
I1126 09:59:39.212936 10258 net.cpp:157] Top shape: 32 160 7 7 (250880)
I1126 09:59:39.212940 10258 net.cpp:165] Memory required for data: 1727009800
I1126 09:59:39.212949 10258 layer_factory.hpp:76] Creating layer inception_5a/prelu_3x3_reduce
I1126 09:59:39.212977 10258 net.cpp:106] Creating Layer inception_5a/prelu_3x3_reduce
I1126 09:59:39.212983 10258 net.cpp:454] inception_5a/prelu_3x3_reduce <- inception_5a/3x3_reduce
I1126 09:59:39.212991 10258 net.cpp:397] inception_5a/prelu_3x3_reduce -> inception_5a/3x3_reduce (in-place)
I1126 09:59:39.213094 10258 net.cpp:150] Setting up inception_5a/prelu_3x3_reduce
I1126 09:59:39.213104 10258 net.cpp:157] Top shape: 32 160 7 7 (250880)
I1126 09:59:39.213106 10258 net.cpp:165] Memory required for data: 1728013320
I1126 09:59:39.213112 10258 layer_factory.hpp:76] Creating layer inception_5a/3x3
I1126 09:59:39.213124 10258 net.cpp:106] Creating Layer inception_5a/3x3
I1126 09:59:39.213129 10258 net.cpp:454] inception_5a/3x3 <- inception_5a/3x3_reduce
I1126 09:59:39.213136 10258 net.cpp:411] inception_5a/3x3 -> inception_5a/3x3
I1126 09:59:39.217736 10258 cudnn_conv_layer.cpp:194] Reallocating workspace storage: 7788
I1126 09:59:39.217805 10258 net.cpp:150] Setting up inception_5a/3x3
I1126 09:59:39.217818 10258 net.cpp:157] Top shape: 32 320 7 7 (501760)
I1126 09:59:39.217823 10258 net.cpp:165] Memory required for data: 1730020360
I1126 09:59:39.217844 10258 layer_factory.hpp:76] Creating layer inception_5a/prelu_3x3
I1126 09:59:39.217859 10258 net.cpp:106] Creating Layer inception_5a/prelu_3x3
I1126 09:59:39.217867 10258 net.cpp:454] inception_5a/prelu_3x3 <- inception_5a/3x3
I1126 09:59:39.217876 10258 net.cpp:397] inception_5a/prelu_3x3 -> inception_5a/3x3 (in-place)
I1126 09:59:39.218050 10258 net.cpp:150] Setting up inception_5a/prelu_3x3
I1126 09:59:39.218071 10258 net.cpp:157] Top shape: 32 320 7 7 (501760)
I1126 09:59:39.218075 10258 net.cpp:165] Memory required for data: 1732027400
I1126 09:59:39.218081 10258 layer_factory.hpp:76] Creating layer inception_5a/5x5_reduce
I1126 09:59:39.218092 10258 net.cpp:106] Creating Layer inception_5a/5x5_reduce
I1126 09:59:39.218098 10258 net.cpp:454] inception_5a/5x5_reduce <- pool4/3x3_s2_pool4/3x3_s2_0_split_2
I1126 09:59:39.218108 10258 net.cpp:411] inception_5a/5x5_reduce -> inception_5a/5x5_reduce
I1126 09:59:39.219455 10258 cudnn_conv_layer.cpp:194] Reallocating workspace storage: 7428
I1126 09:59:39.219483 10258 net.cpp:150] Setting up inception_5a/5x5_reduce
I1126 09:59:39.219491 10258 net.cpp:157] Top shape: 32 32 7 7 (50176)
I1126 09:59:39.219496 10258 net.cpp:165] Memory required for data: 1732228104
I1126 09:59:39.219502 10258 layer_factory.hpp:76] Creating layer inception_5a/prelu_5x5_reduce
I1126 09:59:39.219513 10258 net.cpp:106] Creating Layer inception_5a/prelu_5x5_reduce
I1126 09:59:39.219519 10258 net.cpp:454] inception_5a/prelu_5x5_reduce <- inception_5a/5x5_reduce
I1126 09:59:39.219527 10258 net.cpp:397] inception_5a/prelu_5x5_reduce -> inception_5a/5x5_reduce (in-place)
I1126 09:59:39.219632 10258 net.cpp:150] Setting up inception_5a/prelu_5x5_reduce
I1126 09:59:39.219640 10258 net.cpp:157] Top shape: 32 32 7 7 (50176)
I1126 09:59:39.219645 10258 net.cpp:165] Memory required for data: 1732428808
I1126 09:59:39.219650 10258 layer_factory.hpp:76] Creating layer inception_5a/5x5
I1126 09:59:39.219660 10258 net.cpp:106] Creating Layer inception_5a/5x5
I1126 09:59:39.219666 10258 net.cpp:454] inception_5a/5x5 <- inception_5a/5x5_reduce
I1126 09:59:39.219672 10258 net.cpp:411] inception_5a/5x5 -> inception_5a/5x5
I1126 09:59:39.221447 10258 cudnn_conv_layer.cpp:194] Reallocating workspace storage: 9804
I1126 09:59:39.221484 10258 net.cpp:150] Setting up inception_5a/5x5
I1126 09:59:39.221493 10258 net.cpp:157] Top shape: 32 128 7 7 (200704)
I1126 09:59:39.221498 10258 net.cpp:165] Memory required for data: 1733231624
I1126 09:59:39.221506 10258 layer_factory.hpp:76] Creating layer inception_5a/prelu_5x5
I1126 09:59:39.221518 10258 net.cpp:106] Creating Layer inception_5a/prelu_5x5
I1126 09:59:39.221524 10258 net.cpp:454] inception_5a/prelu_5x5 <- inception_5a/5x5
I1126 09:59:39.221531 10258 net.cpp:397] inception_5a/prelu_5x5 -> inception_5a/5x5 (in-place)
I1126 09:59:39.221642 10258 net.cpp:150] Setting up inception_5a/prelu_5x5
I1126 09:59:39.221675 10258 net.cpp:157] Top shape: 32 128 7 7 (200704)
I1126 09:59:39.221679 10258 net.cpp:165] Memory required for data: 1734034440
I1126 09:59:39.221685 10258 layer_factory.hpp:76] Creating layer inception_5a/pool
I1126 09:59:39.221694 10258 net.cpp:106] Creating Layer inception_5a/pool
I1126 09:59:39.221699 10258 net.cpp:454] inception_5a/pool <- pool4/3x3_s2_pool4/3x3_s2_0_split_3
I1126 09:59:39.221707 10258 net.cpp:411] inception_5a/pool -> inception_5a/pool
I1126 09:59:39.221921 10258 net.cpp:150] Setting up inception_5a/pool
I1126 09:59:39.221931 10258 net.cpp:157] Top shape: 32 832 7 7 (1304576)
I1126 09:59:39.221935 10258 net.cpp:165] Memory required for data: 1739252744
I1126 09:59:39.221940 10258 layer_factory.hpp:76] Creating layer inception_5a/pool_proj
I1126 09:59:39.221948 10258 net.cpp:106] Creating Layer inception_5a/pool_proj
I1126 09:59:39.221953 10258 net.cpp:454] inception_5a/pool_proj <- inception_5a/pool
I1126 09:59:39.221961 10258 net.cpp:411] inception_5a/pool_proj -> inception_5a/pool_proj
I1126 09:59:39.224778 10258 cudnn_conv_layer.cpp:194] Reallocating workspace storage: 7428
I1126 09:59:39.224815 10258 net.cpp:150] Setting up inception_5a/pool_proj
I1126 09:59:39.224825 10258 net.cpp:157] Top shape: 32 128 7 7 (200704)
I1126 09:59:39.224829 10258 net.cpp:165] Memory required for data: 1740055560
I1126 09:59:39.224838 10258 layer_factory.hpp:76] Creating layer inception_5a/prelu_pool_proj
I1126 09:59:39.224851 10258 net.cpp:106] Creating Layer inception_5a/prelu_pool_proj
I1126 09:59:39.224858 10258 net.cpp:454] inception_5a/prelu_pool_proj <- inception_5a/pool_proj
I1126 09:59:39.224867 10258 net.cpp:397] inception_5a/prelu_pool_proj -> inception_5a/pool_proj (in-place)
I1126 09:59:39.224977 10258 net.cpp:150] Setting up inception_5a/prelu_pool_proj
I1126 09:59:39.224984 10258 net.cpp:157] Top shape: 32 128 7 7 (200704)
I1126 09:59:39.224988 10258 net.cpp:165] Memory required for data: 1740858376
I1126 09:59:39.224994 10258 layer_factory.hpp:76] Creating layer inception_5a/output
I1126 09:59:39.225003 10258 net.cpp:106] Creating Layer inception_5a/output
I1126 09:59:39.225008 10258 net.cpp:454] inception_5a/output <- inception_5a/1x1
I1126 09:59:39.225013 10258 net.cpp:454] inception_5a/output <- inception_5a/3x3
I1126 09:59:39.225018 10258 net.cpp:454] inception_5a/output <- inception_5a/5x5
I1126 09:59:39.225021 10258 net.cpp:454] inception_5a/output <- inception_5a/pool_proj
I1126 09:59:39.225028 10258 net.cpp:411] inception_5a/output -> inception_5a/output
I1126 09:59:39.225057 10258 net.cpp:150] Setting up inception_5a/output
I1126 09:59:39.225065 10258 net.cpp:157] Top shape: 32 832 7 7 (1304576)
I1126 09:59:39.225069 10258 net.cpp:165] Memory required for data: 1746076680
I1126 09:59:39.225074 10258 layer_factory.hpp:76] Creating layer inception_5a/output_inception_5a/output_0_split
I1126 09:59:39.225080 10258 net.cpp:106] Creating Layer inception_5a/output_inception_5a/output_0_split
I1126 09:59:39.225085 10258 net.cpp:454] inception_5a/output_inception_5a/output_0_split <- inception_5a/output
I1126 09:59:39.225093 10258 net.cpp:411] inception_5a/output_inception_5a/output_0_split -> inception_5a/output_inception_5a/output_0_split_0
I1126 09:59:39.225100 10258 net.cpp:411] inception_5a/output_inception_5a/output_0_split -> inception_5a/output_inception_5a/output_0_split_1
I1126 09:59:39.225108 10258 net.cpp:411] inception_5a/output_inception_5a/output_0_split -> inception_5a/output_inception_5a/output_0_split_2
I1126 09:59:39.225114 10258 net.cpp:411] inception_5a/output_inception_5a/output_0_split -> inception_5a/output_inception_5a/output_0_split_3
I1126 09:59:39.225184 10258 net.cpp:150] Setting up inception_5a/output_inception_5a/output_0_split
I1126 09:59:39.225193 10258 net.cpp:157] Top shape: 32 832 7 7 (1304576)
I1126 09:59:39.225198 10258 net.cpp:157] Top shape: 32 832 7 7 (1304576)
I1126 09:59:39.225203 10258 net.cpp:157] Top shape: 32 832 7 7 (1304576)
I1126 09:59:39.225208 10258 net.cpp:157] Top shape: 32 832 7 7 (1304576)
I1126 09:59:39.225229 10258 net.cpp:165] Memory required for data: 1766949896
I1126 09:59:39.225234 10258 layer_factory.hpp:76] Creating layer inception_5b/1x1
I1126 09:59:39.225244 10258 net.cpp:106] Creating Layer inception_5b/1x1
I1126 09:59:39.225250 10258 net.cpp:454] inception_5b/1x1 <- inception_5a/output_inception_5a/output_0_split_0
I1126 09:59:39.225256 10258 net.cpp:411] inception_5b/1x1 -> inception_5b/1x1
I1126 09:59:39.229310 10258 cudnn_conv_layer.cpp:194] Reallocating workspace storage: 7428
I1126 09:59:39.229357 10258 net.cpp:150] Setting up inception_5b/1x1
I1126 09:59:39.229368 10258 net.cpp:157] Top shape: 32 384 7 7 (602112)
I1126 09:59:39.229372 10258 net.cpp:165] Memory required for data: 1769358344
I1126 09:59:39.229382 10258 layer_factory.hpp:76] Creating layer inception_5b/prelu_1x1
I1126 09:59:39.229396 10258 net.cpp:106] Creating Layer inception_5b/prelu_1x1
I1126 09:59:39.229403 10258 net.cpp:454] inception_5b/prelu_1x1 <- inception_5b/1x1
I1126 09:59:39.229411 10258 net.cpp:397] inception_5b/prelu_1x1 -> inception_5b/1x1 (in-place)
I1126 09:59:39.229995 10258 net.cpp:150] Setting up inception_5b/prelu_1x1
I1126 09:59:39.230005 10258 net.cpp:157] Top shape: 32 384 7 7 (602112)
I1126 09:59:39.230010 10258 net.cpp:165] Memory required for data: 1771766792
I1126 09:59:39.230015 10258 layer_factory.hpp:76] Creating layer inception_5b/3x3_reduce
I1126 09:59:39.230028 10258 net.cpp:106] Creating Layer inception_5b/3x3_reduce
I1126 09:59:39.230033 10258 net.cpp:454] inception_5b/3x3_reduce <- inception_5a/output_inception_5a/output_0_split_1
I1126 09:59:39.230041 10258 net.cpp:411] inception_5b/3x3_reduce -> inception_5b/3x3_reduce
I1126 09:59:39.232712 10258 cudnn_conv_layer.cpp:194] Reallocating workspace storage: 7428
I1126 09:59:39.232758 10258 net.cpp:150] Setting up inception_5b/3x3_reduce
I1126 09:59:39.232769 10258 net.cpp:157] Top shape: 32 192 7 7 (301056)
I1126 09:59:39.232774 10258 net.cpp:165] Memory required for data: 1772971016
I1126 09:59:39.232780 10258 layer_factory.hpp:76] Creating layer inception_5b/prelu_3x3_reduce
I1126 09:59:39.232792 10258 net.cpp:106] Creating Layer inception_5b/prelu_3x3_reduce
I1126 09:59:39.232799 10258 net.cpp:454] inception_5b/prelu_3x3_reduce <- inception_5b/3x3_reduce
I1126 09:59:39.232806 10258 net.cpp:397] inception_5b/prelu_3x3_reduce -> inception_5b/3x3_reduce (in-place)
I1126 09:59:39.232923 10258 net.cpp:150] Setting up inception_5b/prelu_3x3_reduce
I1126 09:59:39.232930 10258 net.cpp:157] Top shape: 32 192 7 7 (301056)
I1126 09:59:39.232934 10258 net.cpp:165] Memory required for data: 1774175240
I1126 09:59:39.232940 10258 layer_factory.hpp:76] Creating layer inception_5b/3x3
I1126 09:59:39.232951 10258 net.cpp:106] Creating Layer inception_5b/3x3
I1126 09:59:39.232956 10258 net.cpp:454] inception_5b/3x3 <- inception_5b/3x3_reduce
I1126 09:59:39.232962 10258 net.cpp:411] inception_5b/3x3 -> inception_5b/3x3
I1126 09:59:39.239169 10258 cudnn_conv_layer.cpp:194] Reallocating workspace storage: 7788
I1126 09:59:39.239223 10258 net.cpp:150] Setting up inception_5b/3x3
I1126 09:59:39.239235 10258 net.cpp:157] Top shape: 32 384 7 7 (602112)
I1126 09:59:39.239240 10258 net.cpp:165] Memory required for data: 1776583688
I1126 09:59:39.239249 10258 layer_factory.hpp:76] Creating layer inception_5b/prelu_3x3
I1126 09:59:39.239261 10258 net.cpp:106] Creating Layer inception_5b/prelu_3x3
I1126 09:59:39.239269 10258 net.cpp:454] inception_5b/prelu_3x3 <- inception_5b/3x3
I1126 09:59:39.239276 10258 net.cpp:397] inception_5b/prelu_3x3 -> inception_5b/3x3 (in-place)
I1126 09:59:39.239404 10258 net.cpp:150] Setting up inception_5b/prelu_3x3
I1126 09:59:39.239413 10258 net.cpp:157] Top shape: 32 384 7 7 (602112)
I1126 09:59:39.239416 10258 net.cpp:165] Memory required for data: 1778992136
I1126 09:59:39.239421 10258 layer_factory.hpp:76] Creating layer inception_5b/5x5_reduce
I1126 09:59:39.239433 10258 net.cpp:106] Creating Layer inception_5b/5x5_reduce
I1126 09:59:39.239439 10258 net.cpp:454] inception_5b/5x5_reduce <- inception_5a/output_inception_5a/output_0_split_2
I1126 09:59:39.239464 10258 net.cpp:411] inception_5b/5x5_reduce -> inception_5b/5x5_reduce
I1126 09:59:39.240674 10258 cudnn_conv_layer.cpp:194] Reallocating workspace storage: 7428
I1126 09:59:39.240700 10258 net.cpp:150] Setting up inception_5b/5x5_reduce
I1126 09:59:39.240707 10258 net.cpp:157] Top shape: 32 48 7 7 (75264)
I1126 09:59:39.240711 10258 net.cpp:165] Memory required for data: 1779293192
I1126 09:59:39.240723 10258 layer_factory.hpp:76] Creating layer inception_5b/prelu_5x5_reduce
I1126 09:59:39.240731 10258 net.cpp:106] Creating Layer inception_5b/prelu_5x5_reduce
I1126 09:59:39.240736 10258 net.cpp:454] inception_5b/prelu_5x5_reduce <- inception_5b/5x5_reduce
I1126 09:59:39.240743 10258 net.cpp:397] inception_5b/prelu_5x5_reduce -> inception_5b/5x5_reduce (in-place)
I1126 09:59:39.240859 10258 net.cpp:150] Setting up inception_5b/prelu_5x5_reduce
I1126 09:59:39.240867 10258 net.cpp:157] Top shape: 32 48 7 7 (75264)
I1126 09:59:39.240871 10258 net.cpp:165] Memory required for data: 1779594248
I1126 09:59:39.240877 10258 layer_factory.hpp:76] Creating layer inception_5b/5x5
I1126 09:59:39.240886 10258 net.cpp:106] Creating Layer inception_5b/5x5
I1126 09:59:39.240890 10258 net.cpp:454] inception_5b/5x5 <- inception_5b/5x5_reduce
I1126 09:59:39.240898 10258 net.cpp:411] inception_5b/5x5 -> inception_5b/5x5
I1126 09:59:39.243021 10258 cudnn_conv_layer.cpp:194] Reallocating workspace storage: 9804
I1126 09:59:39.243049 10258 net.cpp:150] Setting up inception_5b/5x5
I1126 09:59:39.243067 10258 net.cpp:157] Top shape: 32 128 7 7 (200704)
I1126 09:59:39.243070 10258 net.cpp:165] Memory required for data: 1780397064
I1126 09:59:39.243077 10258 layer_factory.hpp:76] Creating layer inception_5b/prelu_5x5
I1126 09:59:39.243088 10258 net.cpp:106] Creating Layer inception_5b/prelu_5x5
I1126 09:59:39.243094 10258 net.cpp:454] inception_5b/prelu_5x5 <- inception_5b/5x5
I1126 09:59:39.243103 10258 net.cpp:397] inception_5b/prelu_5x5 -> inception_5b/5x5 (in-place)
I1126 09:59:39.243249 10258 net.cpp:150] Setting up inception_5b/prelu_5x5
I1126 09:59:39.243258 10258 net.cpp:157] Top shape: 32 128 7 7 (200704)
I1126 09:59:39.243263 10258 net.cpp:165] Memory required for data: 1781199880
I1126 09:59:39.243268 10258 layer_factory.hpp:76] Creating layer inception_5b/pool
I1126 09:59:39.243278 10258 net.cpp:106] Creating Layer inception_5b/pool
I1126 09:59:39.243283 10258 net.cpp:454] inception_5b/pool <- inception_5a/output_inception_5a/output_0_split_3
I1126 09:59:39.243290 10258 net.cpp:411] inception_5b/pool -> inception_5b/pool
I1126 09:59:39.243707 10258 net.cpp:150] Setting up inception_5b/pool
I1126 09:59:39.243716 10258 net.cpp:157] Top shape: 32 832 7 7 (1304576)
I1126 09:59:39.243721 10258 net.cpp:165] Memory required for data: 1786418184
I1126 09:59:39.243726 10258 layer_factory.hpp:76] Creating layer inception_5b/pool_proj
I1126 09:59:39.243736 10258 net.cpp:106] Creating Layer inception_5b/pool_proj
I1126 09:59:39.243741 10258 net.cpp:454] inception_5b/pool_proj <- inception_5b/pool
I1126 09:59:39.243747 10258 net.cpp:411] inception_5b/pool_proj -> inception_5b/pool_proj
I1126 09:59:39.246032 10258 cudnn_conv_layer.cpp:194] Reallocating workspace storage: 7428
I1126 09:59:39.246065 10258 net.cpp:150] Setting up inception_5b/pool_proj
I1126 09:59:39.246074 10258 net.cpp:157] Top shape: 32 128 7 7 (200704)
I1126 09:59:39.246078 10258 net.cpp:165] Memory required for data: 1787221000
I1126 09:59:39.246086 10258 layer_factory.hpp:76] Creating layer inception_5b/prelu_pool_proj
I1126 09:59:39.246096 10258 net.cpp:106] Creating Layer inception_5b/prelu_pool_proj
I1126 09:59:39.246104 10258 net.cpp:454] inception_5b/prelu_pool_proj <- inception_5b/pool_proj
I1126 09:59:39.246111 10258 net.cpp:397] inception_5b/prelu_pool_proj -> inception_5b/pool_proj (in-place)
I1126 09:59:39.246227 10258 net.cpp:150] Setting up inception_5b/prelu_pool_proj
I1126 09:59:39.246235 10258 net.cpp:157] Top shape: 32 128 7 7 (200704)
I1126 09:59:39.246239 10258 net.cpp:165] Memory required for data: 1788023816
I1126 09:59:39.246245 10258 layer_factory.hpp:76] Creating layer inception_5b/output
I1126 09:59:39.246273 10258 net.cpp:106] Creating Layer inception_5b/output
I1126 09:59:39.246279 10258 net.cpp:454] inception_5b/output <- inception_5b/1x1
I1126 09:59:39.246284 10258 net.cpp:454] inception_5b/output <- inception_5b/3x3
I1126 09:59:39.246290 10258 net.cpp:454] inception_5b/output <- inception_5b/5x5
I1126 09:59:39.246302 10258 net.cpp:454] inception_5b/output <- inception_5b/pool_proj
I1126 09:59:39.246310 10258 net.cpp:411] inception_5b/output -> inception_5b/output
I1126 09:59:39.246342 10258 net.cpp:150] Setting up inception_5b/output
I1126 09:59:39.246351 10258 net.cpp:157] Top shape: 32 1024 7 7 (1605632)
I1126 09:59:39.246354 10258 net.cpp:165] Memory required for data: 1794446344
I1126 09:59:39.246358 10258 layer_factory.hpp:76] Creating layer pool5/7x7_s1
I1126 09:59:39.246366 10258 net.cpp:106] Creating Layer pool5/7x7_s1
I1126 09:59:39.246371 10258 net.cpp:454] pool5/7x7_s1 <- inception_5b/output
I1126 09:59:39.246377 10258 net.cpp:411] pool5/7x7_s1 -> pool5/7x7_s1
I1126 09:59:39.246549 10258 net.cpp:150] Setting up pool5/7x7_s1
I1126 09:59:39.246557 10258 net.cpp:157] Top shape: 32 1024 1 1 (32768)
I1126 09:59:39.246562 10258 net.cpp:165] Memory required for data: 1794577416
I1126 09:59:39.246567 10258 layer_factory.hpp:76] Creating layer pool5/drop_7x7_s1
I1126 09:59:39.246574 10258 net.cpp:106] Creating Layer pool5/drop_7x7_s1
I1126 09:59:39.246579 10258 net.cpp:454] pool5/drop_7x7_s1 <- pool5/7x7_s1
I1126 09:59:39.246584 10258 net.cpp:397] pool5/drop_7x7_s1 -> pool5/7x7_s1 (in-place)
I1126 09:59:39.246615 10258 net.cpp:150] Setting up pool5/drop_7x7_s1
I1126 09:59:39.246623 10258 net.cpp:157] Top shape: 32 1024 1 1 (32768)
I1126 09:59:39.246626 10258 net.cpp:165] Memory required for data: 1794708488
I1126 09:59:39.246630 10258 layer_factory.hpp:76] Creating layer loss3/classifier2
I1126 09:59:39.246639 10258 net.cpp:106] Creating Layer loss3/classifier2
I1126 09:59:39.246642 10258 net.cpp:454] loss3/classifier2 <- pool5/7x7_s1
I1126 09:59:39.246650 10258 net.cpp:411] loss3/classifier2 -> loss3/classifier
I1126 09:59:39.246801 10258 net.cpp:150] Setting up loss3/classifier2
I1126 09:59:39.246809 10258 net.cpp:157] Top shape: 32 2 (64)
I1126 09:59:39.246814 10258 net.cpp:165] Memory required for data: 1794708744
I1126 09:59:39.246820 10258 layer_factory.hpp:76] Creating layer loss3/loss3
I1126 09:59:39.246827 10258 net.cpp:106] Creating Layer loss3/loss3
I1126 09:59:39.246832 10258 net.cpp:454] loss3/loss3 <- loss3/classifier
I1126 09:59:39.246837 10258 net.cpp:454] loss3/loss3 <- label_data_1_split_2
I1126 09:59:39.246845 10258 net.cpp:411] loss3/loss3 -> loss3/loss3
…
I1126 09:59:39.254649 10258 net.cpp:322] The NetState phase (1) differed from the phase (0) specified by a rule in layer data
I1126 09:59:39.255733 10258 net.cpp:49] Initializing net from parameters: 
name: "GoogleNet"
state {
  phase: TEST
}
layer {
  name: "data"
  type: "Data"
  top: "data"
  top: "label"
  include {
    phase: TEST
  }
  transform_param {
    mirror: false
    crop_size: 224
    mean_value: 104
    mean_value: 117
    mean_value: 123
  }
  data_param {
    source: "../../LMDB/val_1-lmdb"
    batch_size: 50
    backend: LMDB
  }
}
layer {
  name: "conv1/7x7_s2"
  type: "Convolution"
  bottom: "data"
  top: "conv1/7x7_s2"
  param {
    lr_mult: 1
    decay_mult: 1
  }
  param {
    lr_mult: 2
    decay_mult: 0
  }
  convolution_param {
    num_output: 64
    pad: 3
    kernel_size: 7
    stride: 2
    weight_filler {
      type: "xavier"
    }
    bias_filler {
      type: "constant"
      value: 0.2
    }
  }
}
layer {
  name: "conv1/prelu_7x7"
  type: "PReLU"
  bottom: "conv1/7x7_s2"
  top: "conv1/7x7_s2"
  param {
    lr_mult: 1
    decay_mult: 0
  }
  prelu_param {
    filler {
      type: "constant"
      value: 0.01
    }
  }
}
layer {
  name: "pool1/3x3_s2"
  type: "Pooling"
  bottom: "conv1/7x7_s2"
  top: "pool1/3x3_s2"
  pooling_param {
    pool: MAX
    kernel_size: 3
    stride: 2
  }
}
layer {
  name: "pool1/norm1"
  type: "LRN"
  bottom: "pool1/3x3_s2"
  top: "pool1/norm1"
  lrn_param {
    local_size: 5
    alpha: 0.0001
    beta: 0.75
  }
}
layer {
  name: "conv2/3x3_reduce"
  type: "Convolution"
  bottom: "pool1/norm1"
  top: "conv2/3x3_reduce"
  param {
    lr_mult: 1
    decay_mult: 1
  }
  param {
    lr_mult: 2
    decay_mult: 0
  }
  convolution_param {
    num_output: 64
    kernel_size: 1
    weight_filler {
      type: "xavier"
    }
    bias_filler {
      type: "constant"
      value: 0.2
    }
  }
}
layer {
  name: "conv2/prelu_3x3_reduce"
  type: "PReLU"
  bottom: "conv2/3x3_reduce"
  top: "conv2/3x3_reduce"
  param {
    lr_mult: 1
    decay_mult: 0
  }
  prelu_param {
    filler {
      type: "constant"
      value: 0.01
    }
  }
}
layer {
  name: "conv2/3x3"
  type: "Convolution"
  bottom: "conv2/3x3_reduce"
  top: "conv2/3x3"
  param {
    lr_mult: 1
    decay_mult: 1
  }
  param {
    lr_mult: 2
    decay_mult: 0
  }
  convolution_param {
    num_output: 192
    pad: 1
    kernel_size: 3
    weight_filler {
      type: "xavier"
    }
    bias_filler {
      type: "constant"
      value: 0.2
    }
  }
}
layer {
  name: "conv2/prelu_3x3"
  type: "PReLU"
  bottom: "conv2/3x3"
  top: "conv2/3x3"
  param {
    lr_mult: 1
    decay_mult: 0
  }
  prelu_param {
    filler {
      type: "constant"
      value: 0.01
    }
  }
}
layer {
  name: "conv2/norm2"
  type: "LRN"
  bottom: "conv2/3x3"
  top: "conv2/norm2"
  lrn_param {
    local_size: 5
    alpha: 0.0001
    beta: 0.75
  }
}
layer {
  name: "pool2/3x3_s2"
  type: "Pooling"
  bottom: "conv2/norm2"
  top: "pool2/3x3_s2"
  pooling_param {
    pool: MAX
    kernel_size: 3
    stride: 2
  }
}
layer {
  name: "inception_3a/1x1"
  type: "Convolution"
  bottom: "pool2/3x3_s2"
  top: "inception_3a/1x1"
  param {
    lr_mult: 1
    decay_mult: 1
  }
  param {
    lr_mult: 2
    decay_mult: 0
  }
  convolution_param {
    num_output: 64
    kernel_size: 1
    weight_filler {
      type: "xavier"
    }
    bias_filler {
      type: "constant"
      value: 0.2
    }
  }
}
layer {
  name: "inception_3a/prelu_1x1"
  type: "PReLU"
  bottom: "inception_3a/1x1"
  top: "inception_3a/1x1"
  param {
    lr_mult: 1
    decay_mult: 0
  }
  prelu_param {
    filler {
      type: "constant"
      value: 0.01
    }
  }
}
layer {
  name: "inception_3a/3x3_reduce"
  type: "Convolution"
  bottom: "pool2/3x3_s2"
  top: "inception_3a/3x3_reduce"
  param {
    lr_mult: 1
    decay_mult: 1
  }
  param {
    lr_mult: 2
    decay_mult: 0
  }
  convolution_param {
    num_output: 96
    kernel_size: 1
    weight_filler {
      type: "xavier"
    }
    bias_filler {
      type: "constant"
      value: 0.2
    }
  }
}
layer {
  name: "inception_3a/prelu_3x3_reduce"
  type: "PReLU"
  bottom: "inception_3a/3x3_reduce"
  top: "inception_3a/3x3_reduce"
  param {
    lr_mult: 1
    decay_mult: 0
  }
  prelu_param {
    filler {
      type: "constant"
      value: 0.01
    }
  }
}
layer {
  name: "inception_3a/3x3"
  type: "Convolution"
  bottom: "inception_3a/3x3_reduce"
  top: "inception_3a/3x3"
  param {
    lr_mult: 1
    decay_mult: 1
  }
  param {
    lr_mult: 2
    decay_mult: 0
  }
  convolution_param {
    num_output: 128
    pad: 1
    kernel_size: 3
    weight_filler {
      type: "xavier"
    }
    bias_filler {
      type: "constant"
      value: 0.2
    }
  }
}
layer {
  name: "inception_3a/prelu_3x3"
  type: "PReLU"
  bottom: "inception_3a/3x3"
  top: "inception_3a/3x3"
  param {
    lr_mult: 1
    decay_mult: 0
  }
  prelu_param {
    filler {
      type: "constant"
      value: 0.01
    }
  }
}
layer {
  name: "inception_3a/5x5_reduce"
  type: "Convolution"
  bottom: "pool2/3x3_s2"
  top: "inception_3a/5x5_reduce"
  param {
    lr_mult: 1
    decay_mult: 1
  }
  param {
    lr_mult: 2
    decay_mult: 0
  }
  convolution_param {
    num_output: 16
    kernel_size: 1
    weight_filler {
      type: "xavier"
    }
    bias_filler {
      type: "constant"
      value: 0.2
    }
  }
}
layer {
  name: "inception_3a/prelu_5x5_reduce"
  type: "PReLU"
  bottom: "inception_3a/5x5_reduce"
  top: "inception_3a/5x5_reduce"
  param {
    lr_mult: 1
    decay_mult: 0
  }
  prelu_param {
    filler {
      type: "constant"
      value: 0.01
    }
  }
}
layer {
  name: "inception_3a/5x5"
  type: "Convolution"
  bottom: "inception_3a/5x5_reduce"
  top: "inception_3a/5x5"
  param {
    lr_mult: 1
    decay_mult: 1
  }
  param {
    lr_mult: 2
    decay_mult: 0
  }
  convolution_param {
    num_output: 32
    pad: 2
    kernel_size: 5
    weight_filler {
      type: "xavier"
    }
    bias_filler {
      type: "constant"
      value: 0.2
    }
  }
}
layer {
  name: "inception_3a/prelu_5x5"
  type: "PReLU"
  bottom: "inception_3a/5x5"
  top: "inception_3a/5x5"
  param {
    lr_mult: 1
    decay_mult: 0
  }
  prelu_param {
    filler {
      type: "constant"
      value: 0.01
    }
  }
}
layer {
  name: "inception_3a/pool"
  type: "Pooling"
  bottom: "pool2/3x3_s2"
  top: "inception_3a/pool"
  pooling_param {
    pool: MAX
    kernel_size: 3
    stride: 1
    pad: 1
  }
}
layer {
  name: "inception_3a/pool_proj"
  type: "Convolution"
  bottom: "inception_3a/pool"
  top: "inception_3a/pool_proj"
  param {
    lr_mult: 1
    decay_mult: 1
  }
  param {
    lr_mult: 2
    decay_mult: 0
  }
  convolution_param {
    num_output: 32
    kernel_size: 1
    weight_filler {
      type: "xavier"
    }
    bias_filler {
      type: "constant"
      value: 0.2
    }
  }
}
layer {
  name: "inception_3a/prelu_pool_proj"
  type: "PReLU"
  bottom: "inception_3a/pool_proj"
  top: "inception_3a/pool_proj"
  param {
    lr_mult: 1
    decay_mult: 0
  }
  prelu_param {
    filler {
      type: "constant"
      value: 0.01
    }
  }
}
layer {
  name: "inception_3a/output"
  type: "Concat"
  bottom: "inception_3a/1x1"
  bottom: "inception_3a/3x3"
  bottom: "inception_3a/5x5"
  bottom: "inception_3a/pool_proj"
  top: "inception_3a/output"
}
layer {
  name: "inception_3b/1x1"
  type: "Convolution"
  bottom: "inception_3a/output"
  top: "inception_3b/1x1"
  param {
    lr_mult: 1
    decay_mult: 1
  }
  param {
    lr_mult: 2
    decay_mult: 0
  }
  convolution_param {
    num_output: 128
    kernel_size: 1
    weight_filler {
      type: "xavier"
    }
    bias_filler {
      type: "constant"
      value: 0.2
    }
  }
}
layer {
  name: "inception_3b/prelu_1x1"
  type: "PReLU"
  bottom: "inception_3b/1x1"
  top: "inception_3b/1x1"
  param {
    lr_mult: 1
    decay_mult: 0
  }
  prelu_param {
    filler {
      type: "constant"
      value: 0.01
    }
  }
}
layer {
  name: "inception_3b/3x3_reduce"
  type: "Convolution"
  bottom: "inception_3a/output"
  top: "inception_3b/3x3_reduce"
  param {
    lr_mult: 1
    decay_mult: 1
  }
  param {
    lr_mult: 2
    decay_mult: 0
  }
  convolution_param {
    num_output: 128
    kernel_size: 1
    weight_filler {
      type: "xavier"
    }
    bias_filler {
      type: "constant"
      value: 0.2
    }
  }
}
layer {
  name: "inception_3b/prelu_3x3_reduce"
  type: "PReLU"
  bottom: "inception_3b/3x3_reduce"
  top: "inception_3b/3x3_reduce"
  param {
    lr_mult: 1
    decay_mult: 0
  }
  prelu_param {
    filler {
      type: "constant"
      value: 0.01
    }
  }
}
layer {
  name: "inception_3b/3x3"
  type: "Convolution"
  bottom: "inception_3b/3x3_reduce"
  top: "inception_3b/3x3"
  param {
    lr_mult: 1
    decay_mult: 1
  }
  param {
    lr_mult: 2
    decay_mult: 0
  }
  convolution_param {
    num_output: 192
    pad: 1
…
I1126 09:59:39.713583 10258 net.cpp:106] Creating Layer inception_4c/output
I1126 09:59:39.713587 10258 net.cpp:454] inception_4c/output <- inception_4c/1x1
I1126 09:59:39.713593 10258 net.cpp:454] inception_4c/output <- inception_4c/3x3
I1126 09:59:39.713598 10258 net.cpp:454] inception_4c/output <- inception_4c/5x5
I1126 09:59:39.713603 10258 net.cpp:454] inception_4c/output <- inception_4c/pool_proj
I1126 09:59:39.713609 10258 net.cpp:411] inception_4c/output -> inception_4c/output
I1126 09:59:39.713630 10258 net.cpp:150] Setting up inception_4c/output
I1126 09:59:39.713639 10258 net.cpp:157] Top shape: 50 512 14 14 (5017600)
I1126 09:59:39.713644 10258 net.cpp:165] Memory required for data: 2234652208
I1126 09:59:39.713647 10258 layer_factory.hpp:76] Creating layer inception_4c/output_inception_4c/output_0_split
I1126 09:59:39.713654 10258 net.cpp:106] Creating Layer inception_4c/output_inception_4c/output_0_split
I1126 09:59:39.713659 10258 net.cpp:454] inception_4c/output_inception_4c/output_0_split <- inception_4c/output
I1126 09:59:39.713665 10258 net.cpp:411] inception_4c/output_inception_4c/output_0_split -> inception_4c/output_inception_4c/output_0_split_0
I1126 09:59:39.713670 10258 net.cpp:411] inception_4c/output_inception_4c/output_0_split -> inception_4c/output_inception_4c/output_0_split_1
I1126 09:59:39.713677 10258 net.cpp:411] inception_4c/output_inception_4c/output_0_split -> inception_4c/output_inception_4c/output_0_split_2
I1126 09:59:39.713696 10258 net.cpp:411] inception_4c/output_inception_4c/output_0_split -> inception_4c/output_inception_4c/output_0_split_3
I1126 09:59:39.713744 10258 net.cpp:150] Setting up inception_4c/output_inception_4c/output_0_split
I1126 09:59:39.713752 10258 net.cpp:157] Top shape: 50 512 14 14 (5017600)
I1126 09:59:39.713757 10258 net.cpp:157] Top shape: 50 512 14 14 (5017600)
I1126 09:59:39.713762 10258 net.cpp:157] Top shape: 50 512 14 14 (5017600)
I1126 09:59:39.713767 10258 net.cpp:157] Top shape: 50 512 14 14 (5017600)
I1126 09:59:39.713769 10258 net.cpp:165] Memory required for data: 2314933808
I1126 09:59:39.713773 10258 layer_factory.hpp:76] Creating layer inception_4d/1x1
I1126 09:59:39.713783 10258 net.cpp:106] Creating Layer inception_4d/1x1
I1126 09:59:39.713786 10258 net.cpp:454] inception_4d/1x1 <- inception_4c/output_inception_4c/output_0_split_0
I1126 09:59:39.713793 10258 net.cpp:411] inception_4d/1x1 -> inception_4d/1x1
I1126 09:59:39.715261 10258 cudnn_conv_layer.cpp:194] Reallocating workspace storage: 10080
I1126 09:59:39.715291 10258 net.cpp:150] Setting up inception_4d/1x1
I1126 09:59:39.715299 10258 net.cpp:157] Top shape: 50 112 14 14 (1097600)
I1126 09:59:39.715303 10258 net.cpp:165] Memory required for data: 2319324208
I1126 09:59:39.715311 10258 layer_factory.hpp:76] Creating layer inception_4d/prelu_1x1
I1126 09:59:39.715319 10258 net.cpp:106] Creating Layer inception_4d/prelu_1x1
I1126 09:59:39.715324 10258 net.cpp:454] inception_4d/prelu_1x1 <- inception_4d/1x1
I1126 09:59:39.715330 10258 net.cpp:397] inception_4d/prelu_1x1 -> inception_4d/1x1 (in-place)
I1126 09:59:39.715415 10258 net.cpp:150] Setting up inception_4d/prelu_1x1
I1126 09:59:39.715422 10258 net.cpp:157] Top shape: 50 112 14 14 (1097600)
I1126 09:59:39.715426 10258 net.cpp:165] Memory required for data: 2323714608
I1126 09:59:39.715431 10258 layer_factory.hpp:76] Creating layer inception_4d/3x3_reduce
I1126 09:59:39.715440 10258 net.cpp:106] Creating Layer inception_4d/3x3_reduce
I1126 09:59:39.715445 10258 net.cpp:454] inception_4d/3x3_reduce <- inception_4c/output_inception_4c/output_0_split_1
I1126 09:59:39.715451 10258 net.cpp:411] inception_4d/3x3_reduce -> inception_4d/3x3_reduce
I1126 09:59:39.716985 10258 cudnn_conv_layer.cpp:194] Reallocating workspace storage: 10080
I1126 09:59:39.717015 10258 net.cpp:150] Setting up inception_4d/3x3_reduce
I1126 09:59:39.717023 10258 net.cpp:157] Top shape: 50 144 14 14 (1411200)
I1126 09:59:39.717027 10258 net.cpp:165] Memory required for data: 2329359408
I1126 09:59:39.717036 10258 layer_factory.hpp:76] Creating layer inception_4d/prelu_3x3_reduce
I1126 09:59:39.717042 10258 net.cpp:106] Creating Layer inception_4d/prelu_3x3_reduce
I1126 09:59:39.717047 10258 net.cpp:454] inception_4d/prelu_3x3_reduce <- inception_4d/3x3_reduce
I1126 09:59:39.717054 10258 net.cpp:397] inception_4d/prelu_3x3_reduce -> inception_4d/3x3_reduce (in-place)
I1126 09:59:39.717152 10258 net.cpp:150] Setting up inception_4d/prelu_3x3_reduce
I1126 09:59:39.717160 10258 net.cpp:157] Top shape: 50 144 14 14 (1411200)
I1126 09:59:39.717164 10258 net.cpp:165] Memory required for data: 2335004208
I1126 09:59:39.717170 10258 layer_factory.hpp:76] Creating layer inception_4d/3x3
I1126 09:59:39.717180 10258 net.cpp:106] Creating Layer inception_4d/3x3
I1126 09:59:39.717183 10258 net.cpp:454] inception_4d/3x3 <- inception_4d/3x3_reduce
I1126 09:59:39.717191 10258 net.cpp:411] inception_4d/3x3 -> inception_4d/3x3
I1126 09:59:39.721168 10258 cudnn_conv_layer.cpp:194] Reallocating workspace storage: 10080
I1126 09:59:39.721200 10258 net.cpp:150] Setting up inception_4d/3x3
I1126 09:59:39.721209 10258 net.cpp:157] Top shape: 50 288 14 14 (2822400)
I1126 09:59:39.721212 10258 net.cpp:165] Memory required for data: 2346293808
I1126 09:59:39.721220 10258 layer_factory.hpp:76] Creating layer inception_4d/prelu_3x3
I1126 09:59:39.721227 10258 net.cpp:106] Creating Layer inception_4d/prelu_3x3
I1126 09:59:39.721231 10258 net.cpp:454] inception_4d/prelu_3x3 <- inception_4d/3x3
I1126 09:59:39.721252 10258 net.cpp:397] inception_4d/prelu_3x3 -> inception_4d/3x3 (in-place)
I1126 09:59:39.730882 10258 net.cpp:150] Setting up inception_4d/prelu_3x3
I1126 09:59:39.730921 10258 net.cpp:157] Top shape: 50 288 14 14 (2822400)
I1126 09:59:39.730926 10258 net.cpp:165] Memory required for data: 2357583408
I1126 09:59:39.730934 10258 layer_factory.hpp:76] Creating layer inception_4d/5x5_reduce
I1126 09:59:39.730953 10258 net.cpp:106] Creating Layer inception_4d/5x5_reduce
I1126 09:59:39.730960 10258 net.cpp:454] inception_4d/5x5_reduce <- inception_4c/output_inception_4c/output_0_split_2
I1126 09:59:39.730972 10258 net.cpp:411] inception_4d/5x5_reduce -> inception_4d/5x5_reduce
I1126 09:59:39.732565 10258 cudnn_conv_layer.cpp:194] Reallocating workspace storage: 10080
I1126 09:59:39.732604 10258 net.cpp:150] Setting up inception_4d/5x5_reduce
I1126 09:59:39.732612 10258 net.cpp:157] Top shape: 50 32 14 14 (313600)
I1126 09:59:39.732616 10258 net.cpp:165] Memory required for data: 2358837808
I1126 09:59:39.732623 10258 layer_factory.hpp:76] Creating layer inception_4d/prelu_5x5_reduce
I1126 09:59:39.732632 10258 net.cpp:106] Creating Layer inception_4d/prelu_5x5_reduce
I1126 09:59:39.732637 10258 net.cpp:454] inception_4d/prelu_5x5_reduce <- inception_4d/5x5_reduce
I1126 09:59:39.732645 10258 net.cpp:397] inception_4d/prelu_5x5_reduce -> inception_4d/5x5_reduce (in-place)
I1126 09:59:39.732760 10258 net.cpp:150] Setting up inception_4d/prelu_5x5_reduce
I1126 09:59:39.732776 10258 net.cpp:157] Top shape: 50 32 14 14 (313600)
I1126 09:59:39.732781 10258 net.cpp:165] Memory required for data: 2360092208
I1126 09:59:39.732786 10258 layer_factory.hpp:76] Creating layer inception_4d/5x5
I1126 09:59:39.732796 10258 net.cpp:106] Creating Layer inception_4d/5x5
I1126 09:59:39.732801 10258 net.cpp:454] inception_4d/5x5 <- inception_4d/5x5_reduce
I1126 09:59:39.732808 10258 net.cpp:411] inception_4d/5x5 -> inception_4d/5x5
I1126 09:59:39.733980 10258 cudnn_conv_layer.cpp:194] Reallocating workspace storage: 13080
I1126 09:59:39.734009 10258 net.cpp:150] Setting up inception_4d/5x5
I1126 09:59:39.734017 10258 net.cpp:157] Top shape: 50 64 14 14 (627200)
I1126 09:59:39.734021 10258 net.cpp:165] Memory required for data: 2362601008
I1126 09:59:39.734028 10258 layer_factory.hpp:76] Creating layer inception_4d/prelu_5x5
I1126 09:59:39.734037 10258 net.cpp:106] Creating Layer inception_4d/prelu_5x5
I1126 09:59:39.734042 10258 net.cpp:454] inception_4d/prelu_5x5 <- inception_4d/5x5
I1126 09:59:39.734048 10258 net.cpp:397] inception_4d/prelu_5x5 -> inception_4d/5x5 (in-place)
I1126 09:59:39.734133 10258 net.cpp:150] Setting up inception_4d/prelu_5x5
I1126 09:59:39.734141 10258 net.cpp:157] Top shape: 50 64 14 14 (627200)
I1126 09:59:39.734145 10258 net.cpp:165] Memory required for data: 2365109808
I1126 09:59:39.734151 10258 layer_factory.hpp:76] Creating layer inception_4d/pool
I1126 09:59:39.734158 10258 net.cpp:106] Creating Layer inception_4d/pool
I1126 09:59:39.734163 10258 net.cpp:454] inception_4d/pool <- inception_4c/output_inception_4c/output_0_split_3
I1126 09:59:39.734170 10258 net.cpp:411] inception_4d/pool -> inception_4d/pool
I1126 09:59:39.734561 10258 net.cpp:150] Setting up inception_4d/pool
I1126 09:59:39.734571 10258 net.cpp:157] Top shape: 50 512 14 14 (5017600)
I1126 09:59:39.734575 10258 net.cpp:165] Memory required for data: 2385180208
I1126 09:59:39.734580 10258 layer_factory.hpp:76] Creating layer inception_4d/pool_proj
I1126 09:59:39.734588 10258 net.cpp:106] Creating Layer inception_4d/pool_proj
I1126 09:59:39.734593 10258 net.cpp:454] inception_4d/pool_proj <- inception_4d/pool
I1126 09:59:39.734601 10258 net.cpp:411] inception_4d/pool_proj -> inception_4d/pool_proj
I1126 09:59:39.735882 10258 cudnn_conv_layer.cpp:194] Reallocating workspace storage: 10080
I1126 09:59:39.735923 10258 net.cpp:150] Setting up inception_4d/pool_proj
I1126 09:59:39.735930 10258 net.cpp:157] Top shape: 50 64 14 14 (627200)
I1126 09:59:39.735934 10258 net.cpp:165] Memory required for data: 2387689008
I1126 09:59:39.735941 10258 layer_factory.hpp:76] Creating layer inception_4d/prelu_pool_proj
I1126 09:59:39.735975 10258 net.cpp:106] Creating Layer inception_4d/prelu_pool_proj
I1126 09:59:39.735980 10258 net.cpp:454] inception_4d/prelu_pool_proj <- inception_4d/pool_proj
I1126 09:59:39.735986 10258 net.cpp:397] inception_4d/prelu_pool_proj -> inception_4d/pool_proj (in-place)
I1126 09:59:39.736078 10258 net.cpp:150] Setting up inception_4d/prelu_pool_proj
I1126 09:59:39.736086 10258 net.cpp:157] Top shape: 50 64 14 14 (627200)
I1126 09:59:39.736089 10258 net.cpp:165] Memory required for data: 2390197808
I1126 09:59:39.736095 10258 layer_factory.hpp:76] Creating layer inception_4d/output
I1126 09:59:39.736101 10258 net.cpp:106] Creating Layer inception_4d/output
I1126 09:59:39.736106 10258 net.cpp:454] inception_4d/output <- inception_4d/1x1
I1126 09:59:39.736111 10258 net.cpp:454] inception_4d/output <- inception_4d/3x3
I1126 09:59:39.736116 10258 net.cpp:454] inception_4d/output <- inception_4d/5x5
I1126 09:59:39.749361 10258 net.cpp:454] inception_4d/output <- inception_4d/pool_proj
I1126 09:59:39.749384 10258 net.cpp:411] inception_4d/output -> inception_4d/output
I1126 09:59:39.749449 10258 net.cpp:150] Setting up inception_4d/output
I1126 09:59:39.749462 10258 net.cpp:157] Top shape: 50 528 14 14 (5174400)
I1126 09:59:39.749469 10258 net.cpp:165] Memory required for data: 2410895408
I1126 09:59:39.749476 10258 layer_factory.hpp:76] Creating layer inception_4d/output_inception_4d/output_0_split
I1126 09:59:39.749491 10258 net.cpp:106] Creating Layer inception_4d/output_inception_4d/output_0_split
I1126 09:59:39.749498 10258 net.cpp:454] inception_4d/output_inception_4d/output_0_split <- inception_4d/output
I1126 09:59:39.749505 10258 net.cpp:411] inception_4d/output_inception_4d/output_0_split -> inception_4d/output_inception_4d/output_0_split_0
I1126 09:59:39.749512 10258 net.cpp:411] inception_4d/output_inception_4d/output_0_split -> inception_4d/output_inception_4d/output_0_split_1
I1126 09:59:39.749521 10258 net.cpp:411] inception_4d/output_inception_4d/output_0_split -> inception_4d/output_inception_4d/output_0_split_2
I1126 09:59:39.749527 10258 net.cpp:411] inception_4d/output_inception_4d/output_0_split -> inception_4d/output_inception_4d/output_0_split_3
I1126 09:59:39.749534 10258 net.cpp:411] inception_4d/output_inception_4d/output_0_split -> inception_4d/output_inception_4d/output_0_split_4
I1126 09:59:39.749598 10258 net.cpp:150] Setting up inception_4d/output_inception_4d/output_0_split
I1126 09:59:39.749606 10258 net.cpp:157] Top shape: 50 528 14 14 (5174400)
I1126 09:59:39.749611 10258 net.cpp:157] Top shape: 50 528 14 14 (5174400)
I1126 09:59:39.749616 10258 net.cpp:157] Top shape: 50 528 14 14 (5174400)
I1126 09:59:39.749621 10258 net.cpp:157] Top shape: 50 528 14 14 (5174400)
I1126 09:59:39.749625 10258 net.cpp:157] Top shape: 50 528 14 14 (5174400)
I1126 09:59:39.749629 10258 net.cpp:165] Memory required for data: 2514383408
I1126 09:59:39.749634 10258 layer_factory.hpp:76] Creating layer loss2/ave_pool
I1126 09:59:39.749642 10258 net.cpp:106] Creating Layer loss2/ave_pool
I1126 09:59:39.749646 10258 net.cpp:454] loss2/ave_pool <- inception_4d/output_inception_4d/output_0_split_0
I1126 09:59:39.749653 10258 net.cpp:411] loss2/ave_pool -> loss2/ave_pool
I1126 09:59:39.749907 10258 net.cpp:150] Setting up loss2/ave_pool
I1126 09:59:39.749915 10258 net.cpp:157] Top shape: 50 528 4 4 (422400)
I1126 09:59:39.749919 10258 net.cpp:165] Memory required for data: 2516073008
I1126 09:59:39.749924 10258 layer_factory.hpp:76] Creating layer loss2/conv
I1126 09:59:39.749935 10258 net.cpp:106] Creating Layer loss2/conv
I1126 09:59:39.749940 10258 net.cpp:454] loss2/conv <- loss2/ave_pool
I1126 09:59:39.749946 10258 net.cpp:411] loss2/conv -> loss2/conv
I1126 09:59:39.752254 10258 cudnn_conv_layer.cpp:194] Reallocating workspace storage: 6840
I1126 09:59:39.752315 10258 net.cpp:150] Setting up loss2/conv
I1126 09:59:39.752332 10258 net.cpp:157] Top shape: 50 128 4 4 (102400)
I1126 09:59:39.752341 10258 net.cpp:165] Memory required for data: 2516482608
I1126 09:59:39.752382 10258 layer_factory.hpp:76] Creating layer loss2/prelu_conv
I1126 09:59:39.752398 10258 net.cpp:106] Creating Layer loss2/prelu_conv
I1126 09:59:39.752406 10258 net.cpp:454] loss2/prelu_conv <- loss2/conv
I1126 09:59:39.752418 10258 net.cpp:397] loss2/prelu_conv -> loss2/conv (in-place)
I1126 09:59:39.752593 10258 net.cpp:150] Setting up loss2/prelu_conv
I1126 09:59:39.752609 10258 net.cpp:157] Top shape: 50 128 4 4 (102400)
I1126 09:59:39.752616 10258 net.cpp:165] Memory required for data: 2516892208
I1126 09:59:39.752626 10258 layer_factory.hpp:76] Creating layer loss2/fc
I1126 09:59:39.752641 10258 net.cpp:106] Creating Layer loss2/fc
I1126 09:59:39.752650 10258 net.cpp:454] loss2/fc <- loss2/conv
I1126 09:59:39.752660 10258 net.cpp:411] loss2/fc -> loss2/fc
I1126 09:59:39.775295 10258 net.cpp:150] Setting up loss2/fc
I1126 09:59:39.775331 10258 net.cpp:157] Top shape: 50 1024 (51200)
I1126 09:59:39.775336 10258 net.cpp:165] Memory required for data: 2517097008
I1126 09:59:39.775369 10258 layer_factory.hpp:76] Creating layer loss2/prelu_fc
I1126 09:59:39.775385 10258 net.cpp:106] Creating Layer loss2/prelu_fc
I1126 09:59:39.775393 10258 net.cpp:454] loss2/prelu_fc <- loss2/fc
I1126 09:59:39.775400 10258 net.cpp:397] loss2/prelu_fc -> loss2/fc (in-place)
I1126 09:59:39.775498 10258 net.cpp:150] Setting up loss2/prelu_fc
I1126 09:59:39.775507 10258 net.cpp:157] Top shape: 50 1024 (51200)
I1126 09:59:39.775511 10258 net.cpp:165] Memory required for data: 2517301808
I1126 09:59:39.775517 10258 layer_factory.hpp:76] Creating layer loss2/drop_fc
I1126 09:59:39.775526 10258 net.cpp:106] Creating Layer loss2/drop_fc
I1126 09:59:39.775529 10258 net.cpp:454] loss2/drop_fc <- loss2/fc
I1126 09:59:39.775535 10258 net.cpp:397] loss2/drop_fc -> loss2/fc (in-place)
I1126 09:59:39.775558 10258 net.cpp:150] Setting up loss2/drop_fc
I1126 09:59:39.775565 10258 net.cpp:157] Top shape: 50 1024 (51200)
I1126 09:59:39.775569 10258 net.cpp:165] Memory required for data: 2517506608
I1126 09:59:39.775573 10258 layer_factory.hpp:76] Creating layer loss2/classifier2
I1126 09:59:39.775583 10258 net.cpp:106] Creating Layer loss2/classifier2
I1126 09:59:39.775588 10258 net.cpp:454] loss2/classifier2 <- loss2/fc
I1126 09:59:39.775593 10258 net.cpp:411] loss2/classifier2 -> loss2/classifier
I1126 09:59:39.775715 10258 net.cpp:150] Setting up loss2/classifier2
I1126 09:59:39.775724 10258 net.cpp:157] Top shape: 50 2 (100)
I1126 09:59:39.775727 10258 net.cpp:165] Memory required for data: 2517507008
I1126 09:59:39.775734 10258 layer_factory.hpp:76] Creating layer loss2/classifier_loss2/classifier2_0_split
I1126 09:59:39.775740 10258 net.cpp:106] Creating Layer loss2/classifier_loss2/classifier2_0_split
I1126 09:59:39.775745 10258 net.cpp:454] loss2/classifier_loss2/classifier2_0_split <- loss2/classifier
I1126 09:59:39.775753 10258 net.cpp:411] loss2/classifier_loss2/classifier2_0_split -> loss2/classifier_loss2/classifier2_0_split_0
I1126 09:59:39.775760 10258 net.cpp:411] loss2/classifier_loss2/classifier2_0_split -> loss2/classifier_loss2/classifier2_0_split_1
I1126 09:59:39.775792 10258 net.cpp:150] Setting up loss2/classifier_loss2/classifier2_0_split
I1126 09:59:39.775799 10258 net.cpp:157] Top shape: 50 2 (100)
I1126 09:59:39.775804 10258 net.cpp:157] Top shape: 50 2 (100)
I1126 09:59:39.775809 10258 net.cpp:165] Memory required for data: 2517507808
I1126 09:59:39.775812 10258 layer_factory.hpp:76] Creating layer loss2/loss
I1126 09:59:39.775820 10258 net.cpp:106] Creating Layer loss2/loss
I1126 09:59:39.775825 10258 net.cpp:454] loss2/loss <- loss2/classifier_loss2/classifier2_0_split_0
I1126 09:59:39.775831 10258 net.cpp:454] loss2/loss <- label_data_1_split_2
…
I1126 09:59:39.776561 10258 net.cpp:165] Memory required for data: 2517507816
I1126 09:59:39.776566 10258 layer_factory.hpp:76] Creating layer inception_4e/1x1
I1126 09:59:39.776576 10258 net.cpp:106] Creating Layer inception_4e/1x1
I1126 09:59:39.776581 10258 net.cpp:454] inception_4e/1x1 <- inception_4d/output_inception_4d/output_0_split_1
I1126 09:59:39.776589 10258 net.cpp:411] inception_4e/1x1 -> inception_4e/1x1
I1126 09:59:39.778959 10258 cudnn_conv_layer.cpp:194] Reallocating workspace storage: 10080
I1126 09:59:39.779013 10258 net.cpp:150] Setting up inception_4e/1x1
I1126 09:59:39.779031 10258 net.cpp:157] Top shape: 50 256 14 14 (2508800)
I1126 09:59:39.779036 10258 net.cpp:165] Memory required for data: 2527543016
I1126 09:59:39.779047 10258 layer_factory.hpp:76] Creating layer inception_4e/prelu_1x1
I1126 09:59:39.779146 10258 net.cpp:106] Creating Layer inception_4e/prelu_1x1
I1126 09:59:39.779165 10258 net.cpp:454] inception_4e/prelu_1x1 <- inception_4e/1x1
I1126 09:59:39.779187 10258 net.cpp:397] inception_4e/prelu_1x1 -> inception_4e/1x1 (in-place)
I1126 09:59:39.779331 10258 net.cpp:150] Setting up inception_4e/prelu_1x1
I1126 09:59:39.779340 10258 net.cpp:157] Top shape: 50 256 14 14 (2508800)
I1126 09:59:39.779345 10258 net.cpp:165] Memory required for data: 2537578216
I1126 09:59:39.779350 10258 layer_factory.hpp:76] Creating layer inception_4e/3x3_reduce
I1126 09:59:39.779369 10258 net.cpp:106] Creating Layer inception_4e/3x3_reduce
I1126 09:59:39.779376 10258 net.cpp:454] inception_4e/3x3_reduce <- inception_4d/output_inception_4d/output_0_split_2
I1126 09:59:39.779386 10258 net.cpp:411] inception_4e/3x3_reduce -> inception_4e/3x3_reduce
I1126 09:59:39.781647 10258 cudnn_conv_layer.cpp:194] Reallocating workspace storage: 10080
I1126 09:59:39.781704 10258 net.cpp:150] Setting up inception_4e/3x3_reduce
I1126 09:59:39.781716 10258 net.cpp:157] Top shape: 50 160 14 14 (1568000)
I1126 09:59:39.781720 10258 net.cpp:165] Memory required for data: 2543850216
I1126 09:59:39.781730 10258 layer_factory.hpp:76] Creating layer inception_4e/prelu_3x3_reduce
I1126 09:59:39.781745 10258 net.cpp:106] Creating Layer inception_4e/prelu_3x3_reduce
I1126 09:59:39.781752 10258 net.cpp:454] inception_4e/prelu_3x3_reduce <- inception_4e/3x3_reduce
I1126 09:59:39.781761 10258 net.cpp:397] inception_4e/prelu_3x3_reduce -> inception_4e/3x3_reduce (in-place)
I1126 09:59:39.781884 10258 net.cpp:150] Setting up inception_4e/prelu_3x3_reduce
I1126 09:59:39.781893 10258 net.cpp:157] Top shape: 50 160 14 14 (1568000)
I1126 09:59:39.781898 10258 net.cpp:165] Memory required for data: 2550122216
I1126 09:59:39.781903 10258 layer_factory.hpp:76] Creating layer inception_4e/3x3
I1126 09:59:39.781930 10258 net.cpp:106] Creating Layer inception_4e/3x3
I1126 09:59:39.781937 10258 net.cpp:454] inception_4e/3x3 <- inception_4e/3x3_reduce
I1126 09:59:39.781945 10258 net.cpp:411] inception_4e/3x3 -> inception_4e/3x3
I1126 09:59:39.787315 10258 cudnn_conv_layer.cpp:194] Reallocating workspace storage: 10080
I1126 09:59:39.787372 10258 net.cpp:150] Setting up inception_4e/3x3
I1126 09:59:39.787385 10258 net.cpp:157] Top shape: 50 320 14 14 (3136000)
I1126 09:59:39.787390 10258 net.cpp:165] Memory required for data: 2562666216
I1126 09:59:39.787401 10258 layer_factory.hpp:76] Creating layer inception_4e/prelu_3x3
I1126 09:59:39.787415 10258 net.cpp:106] Creating Layer inception_4e/prelu_3x3
I1126 09:59:39.787423 10258 net.cpp:454] inception_4e/prelu_3x3 <- inception_4e/3x3
I1126 09:59:39.787457 10258 net.cpp:397] inception_4e/prelu_3x3 -> inception_4e/3x3 (in-place)
I1126 09:59:39.788229 10258 net.cpp:150] Setting up inception_4e/prelu_3x3
I1126 09:59:39.788247 10258 net.cpp:157] Top shape: 50 320 14 14 (3136000)
I1126 09:59:39.788251 10258 net.cpp:165] Memory required for data: 2575210216
I1126 09:59:39.788259 10258 layer_factory.hpp:76] Creating layer inception_4e/5x5_reduce
I1126 09:59:39.788276 10258 net.cpp:106] Creating Layer inception_4e/5x5_reduce
I1126 09:59:39.788282 10258 net.cpp:454] inception_4e/5x5_reduce <- inception_4d/output_inception_4d/output_0_split_3
I1126 09:59:39.788291 10258 net.cpp:411] inception_4e/5x5_reduce -> inception_4e/5x5_reduce
I1126 09:59:39.790011 10258 cudnn_conv_layer.cpp:194] Reallocating workspace storage: 10080
I1126 09:59:39.790060 10258 net.cpp:150] Setting up inception_4e/5x5_reduce
I1126 09:59:39.790071 10258 net.cpp:157] Top shape: 50 32 14 14 (313600)
I1126 09:59:39.790076 10258 net.cpp:165] Memory required for data: 2576464616
I1126 09:59:39.790086 10258 layer_factory.hpp:76] Creating layer inception_4e/prelu_5x5_reduce
I1126 09:59:39.790096 10258 net.cpp:106] Creating Layer inception_4e/prelu_5x5_reduce
I1126 09:59:39.790102 10258 net.cpp:454] inception_4e/prelu_5x5_reduce <- inception_4e/5x5_reduce
I1126 09:59:39.790112 10258 net.cpp:397] inception_4e/prelu_5x5_reduce -> inception_4e/5x5_reduce (in-place)
I1126 09:59:39.790225 10258 net.cpp:150] Setting up inception_4e/prelu_5x5_reduce
I1126 09:59:39.790233 10258 net.cpp:157] Top shape: 50 32 14 14 (313600)
I1126 09:59:39.790237 10258 net.cpp:165] Memory required for data: 2577719016
I1126 09:59:39.790243 10258 layer_factory.hpp:76] Creating layer inception_4e/5x5
I1126 09:59:39.790254 10258 net.cpp:106] Creating Layer inception_4e/5x5
I1126 09:59:39.790259 10258 net.cpp:454] inception_4e/5x5 <- inception_4e/5x5_reduce
I1126 09:59:39.790267 10258 net.cpp:411] inception_4e/5x5 -> inception_4e/5x5
I1126 09:59:39.792847 10258 cudnn_conv_layer.cpp:194] Reallocating workspace storage: 13080
I1126 09:59:39.792909 10258 net.cpp:150] Setting up inception_4e/5x5
I1126 09:59:39.792933 10258 net.cpp:157] Top shape: 50 128 14 14 (1254400)
I1126 09:59:39.792937 10258 net.cpp:165] Memory required for data: 2582736616
I1126 09:59:39.792948 10258 layer_factory.hpp:76] Creating layer inception_4e/prelu_5x5
I1126 09:59:39.792965 10258 net.cpp:106] Creating Layer inception_4e/prelu_5x5
I1126 09:59:39.792973 10258 net.cpp:454] inception_4e/prelu_5x5 <- inception_4e/5x5
I1126 09:59:39.792982 10258 net.cpp:397] inception_4e/prelu_5x5 -> inception_4e/5x5 (in-place)
I1126 09:59:39.793100 10258 net.cpp:150] Setting up inception_4e/prelu_5x5
I1126 09:59:39.793110 10258 net.cpp:157] Top shape: 50 128 14 14 (1254400)
I1126 09:59:39.793115 10258 net.cpp:165] Memory required for data: 2587754216
I1126 09:59:39.793133 10258 layer_factory.hpp:76] Creating layer inception_4e/pool
I1126 09:59:39.793159 10258 net.cpp:106] Creating Layer inception_4e/pool
I1126 09:59:39.793166 10258 net.cpp:454] inception_4e/pool <- inception_4d/output_inception_4d/output_0_split_4
I1126 09:59:39.793175 10258 net.cpp:411] inception_4e/pool -> inception_4e/pool
I1126 09:59:39.793431 10258 net.cpp:150] Setting up inception_4e/pool
I1126 09:59:39.793442 10258 net.cpp:157] Top shape: 50 528 14 14 (5174400)
I1126 09:59:39.793447 10258 net.cpp:165] Memory required for data: 2608451816
I1126 09:59:39.793452 10258 layer_factory.hpp:76] Creating layer inception_4e/pool_proj
I1126 09:59:39.793463 10258 net.cpp:106] Creating Layer inception_4e/pool_proj
I1126 09:59:39.793468 10258 net.cpp:454] inception_4e/pool_proj <- inception_4e/pool
I1126 09:59:39.793478 10258 net.cpp:411] inception_4e/pool_proj -> inception_4e/pool_proj
I1126 09:59:39.795416 10258 cudnn_conv_layer.cpp:194] Reallocating workspace storage: 10080
I1126 09:59:39.795462 10258 net.cpp:150] Setting up inception_4e/pool_proj
I1126 09:59:39.795475 10258 net.cpp:157] Top shape: 50 128 14 14 (1254400)
I1126 09:59:39.795478 10258 net.cpp:165] Memory required for data: 2613469416
I1126 09:59:39.795487 10258 layer_factory.hpp:76] Creating layer inception_4e/prelu_pool_proj
I1126 09:59:39.795526 10258 net.cpp:106] Creating Layer inception_4e/prelu_pool_proj
I1126 09:59:39.795533 10258 net.cpp:454] inception_4e/prelu_pool_proj <- inception_4e/pool_proj
I1126 09:59:39.795542 10258 net.cpp:397] inception_4e/prelu_pool_proj -> inception_4e/pool_proj (in-place)
I1126 09:59:39.795646 10258 net.cpp:150] Setting up inception_4e/prelu_pool_proj
I1126 09:59:39.795655 10258 net.cpp:157] Top shape: 50 128 14 14 (1254400)
I1126 09:59:39.795658 10258 net.cpp:165] Memory required for data: 2618487016
I1126 09:59:39.795665 10258 layer_factory.hpp:76] Creating layer inception_4e/output
I1126 09:59:39.795673 10258 net.cpp:106] Creating Layer inception_4e/output
I1126 09:59:39.795678 10258 net.cpp:454] inception_4e/output <- inception_4e/1x1
I1126 09:59:39.795685 10258 net.cpp:454] inception_4e/output <- inception_4e/3x3
I1126 09:59:39.795689 10258 net.cpp:454] inception_4e/output <- inception_4e/5x5
I1126 09:59:39.795694 10258 net.cpp:454] inception_4e/output <- inception_4e/pool_proj
I1126 09:59:39.795701 10258 net.cpp:411] inception_4e/output -> inception_4e/output
I1126 09:59:39.795724 10258 net.cpp:150] Setting up inception_4e/output
I1126 09:59:39.795732 10258 net.cpp:157] Top shape: 50 832 14 14 (8153600)
I1126 09:59:39.795737 10258 net.cpp:165] Memory required for data: 2651101416
I1126 09:59:39.795740 10258 layer_factory.hpp:76] Creating layer pool4/3x3_s2
I1126 09:59:39.795750 10258 net.cpp:106] Creating Layer pool4/3x3_s2
I1126 09:59:39.795755 10258 net.cpp:454] pool4/3x3_s2 <- inception_4e/output
I1126 09:59:39.795763 10258 net.cpp:411] pool4/3x3_s2 -> pool4/3x3_s2
I1126 09:59:39.795984 10258 net.cpp:150] Setting up pool4/3x3_s2
I1126 09:59:39.795994 10258 net.cpp:157] Top shape: 50 832 7 7 (2038400)
I1126 09:59:39.795999 10258 net.cpp:165] Memory required for data: 2659255016
I1126 09:59:39.796002 10258 layer_factory.hpp:76] Creating layer pool4/3x3_s2_pool4/3x3_s2_0_split
I1126 09:59:39.796010 10258 net.cpp:106] Creating Layer pool4/3x3_s2_pool4/3x3_s2_0_split
I1126 09:59:39.796013 10258 net.cpp:454] pool4/3x3_s2_pool4/3x3_s2_0_split <- pool4/3x3_s2
I1126 09:59:39.796021 10258 net.cpp:411] pool4/3x3_s2_pool4/3x3_s2_0_split -> pool4/3x3_s2_pool4/3x3_s2_0_split_0
I1126 09:59:39.796028 10258 net.cpp:411] pool4/3x3_s2_pool4/3x3_s2_0_split -> pool4/3x3_s2_pool4/3x3_s2_0_split_1
I1126 09:59:39.796036 10258 net.cpp:411] pool4/3x3_s2_pool4/3x3_s2_0_split -> pool4/3x3_s2_pool4/3x3_s2_0_split_2
I1126 09:59:39.796043 10258 net.cpp:411] pool4/3x3_s2_pool4/3x3_s2_0_split -> pool4/3x3_s2_pool4/3x3_s2_0_split_3
I1126 09:59:39.796102 10258 net.cpp:150] Setting up pool4/3x3_s2_pool4/3x3_s2_0_split
I1126 09:59:39.796109 10258 net.cpp:157] Top shape: 50 832 7 7 (2038400)
I1126 09:59:39.796114 10258 net.cpp:157] Top shape: 50 832 7 7 (2038400)
I1126 09:59:39.796119 10258 net.cpp:157] Top shape: 50 832 7 7 (2038400)
I1126 09:59:39.796124 10258 net.cpp:157] Top shape: 50 832 7 7 (2038400)
I1126 09:59:39.796128 10258 net.cpp:165] Memory required for data: 2691869416
I1126 09:59:39.796133 10258 layer_factory.hpp:76] Creating layer inception_5a/1x1
I1126 09:59:39.796142 10258 net.cpp:106] Creating Layer inception_5a/1x1
I1126 09:59:39.796147 10258 net.cpp:454] inception_5a/1x1 <- pool4/3x3_s2_pool4/3x3_s2_0_split_0
I1126 09:59:39.796154 10258 net.cpp:411] inception_5a/1x1 -> inception_5a/1x1
I1126 09:59:39.799257 10258 cudnn_conv_layer.cpp:194] Reallocating workspace storage: 7428
I1126 09:59:39.799315 10258 net.cpp:150] Setting up inception_5a/1x1
I1126 09:59:39.799326 10258 net.cpp:157] Top shape: 50 256 7 7 (627200)
I1126 09:59:39.799331 10258 net.cpp:165] Memory required for data: 2694378216
I1126 09:59:39.799340 10258 layer_factory.hpp:76] Creating layer inception_5a/prelu_1x1
I1126 09:59:39.799352 10258 net.cpp:106] Creating Layer inception_5a/prelu_1x1
I1126 09:59:39.799360 10258 net.cpp:454] inception_5a/prelu_1x1 <- inception_5a/1x1
I1126 09:59:39.799367 10258 net.cpp:397] inception_5a/prelu_1x1 -> inception_5a/1x1 (in-place)
I1126 09:59:39.799505 10258 net.cpp:150] Setting up inception_5a/prelu_1x1
I1126 09:59:39.799531 10258 net.cpp:157] Top shape: 50 256 7 7 (627200)
I1126 09:59:39.799536 10258 net.cpp:165] Memory required for data: 2696887016
I1126 09:59:39.799541 10258 layer_factory.hpp:76] Creating layer inception_5a/3x3_reduce
I1126 09:59:39.799553 10258 net.cpp:106] Creating Layer inception_5a/3x3_reduce
I1126 09:59:39.799558 10258 net.cpp:454] inception_5a/3x3_reduce <- pool4/3x3_s2_pool4/3x3_s2_0_split_1
I1126 09:59:39.799567 10258 net.cpp:411] inception_5a/3x3_reduce -> inception_5a/3x3_reduce
I1126 09:59:39.802167 10258 cudnn_conv_layer.cpp:194] Reallocating workspace storage: 7428
I1126 09:59:39.802212 10258 net.cpp:150] Setting up inception_5a/3x3_reduce
I1126 09:59:39.802222 10258 net.cpp:157] Top shape: 50 160 7 7 (392000)
I1126 09:59:39.802227 10258 net.cpp:165] Memory required for data: 2698455016
I1126 09:59:39.802234 10258 layer_factory.hpp:76] Creating layer inception_5a/prelu_3x3_reduce
I1126 09:59:39.802242 10258 net.cpp:106] Creating Layer inception_5a/prelu_3x3_reduce
I1126 09:59:39.802248 10258 net.cpp:454] inception_5a/prelu_3x3_reduce <- inception_5a/3x3_reduce
I1126 09:59:39.802256 10258 net.cpp:397] inception_5a/prelu_3x3_reduce -> inception_5a/3x3_reduce (in-place)
I1126 09:59:39.802350 10258 net.cpp:150] Setting up inception_5a/prelu_3x3_reduce
I1126 09:59:39.802357 10258 net.cpp:157] Top shape: 50 160 7 7 (392000)
I1126 09:59:39.802361 10258 net.cpp:165] Memory required for data: 2700023016
I1126 09:59:39.802366 10258 layer_factory.hpp:76] Creating layer inception_5a/3x3
I1126 09:59:39.802376 10258 net.cpp:106] Creating Layer inception_5a/3x3
I1126 09:59:39.802381 10258 net.cpp:454] inception_5a/3x3 <- inception_5a/3x3_reduce
I1126 09:59:39.802389 10258 net.cpp:411] inception_5a/3x3 -> inception_5a/3x3
I1126 09:59:39.807569 10258 cudnn_conv_layer.cpp:194] Reallocating workspace storage: 7788
I1126 09:59:39.807632 10258 net.cpp:150] Setting up inception_5a/3x3
I1126 09:59:39.807652 10258 net.cpp:157] Top shape: 50 320 7 7 (784000)
I1126 09:59:39.807665 10258 net.cpp:165] Memory required for data: 2703159016
I1126 09:59:39.807675 10258 layer_factory.hpp:76] Creating layer inception_5a/prelu_3x3
I1126 09:59:39.807687 10258 net.cpp:106] Creating Layer inception_5a/prelu_3x3
I1126 09:59:39.807694 10258 net.cpp:454] inception_5a/prelu_3x3 <- inception_5a/3x3
I1126 09:59:39.807703 10258 net.cpp:397] inception_5a/prelu_3x3 -> inception_5a/3x3 (in-place)
I1126 09:59:39.807839 10258 net.cpp:150] Setting up inception_5a/prelu_3x3
I1126 09:59:39.807848 10258 net.cpp:157] Top shape: 50 320 7 7 (784000)
I1126 09:59:39.807852 10258 net.cpp:165] Memory required for data: 2706295016
I1126 09:59:39.807857 10258 layer_factory.hpp:76] Creating layer inception_5a/5x5_reduce
I1126 09:59:39.807868 10258 net.cpp:106] Creating Layer inception_5a/5x5_reduce
I1126 09:59:39.807874 10258 net.cpp:454] inception_5a/5x5_reduce <- pool4/3x3_s2_pool4/3x3_s2_0_split_2
I1126 09:59:39.807883 10258 net.cpp:411] inception_5a/5x5_reduce -> inception_5a/5x5_reduce
I1126 09:59:39.809196 10258 cudnn_conv_layer.cpp:194] Reallocating workspace storage: 7428
I1126 09:59:39.809227 10258 net.cpp:150] Setting up inception_5a/5x5_reduce
I1126 09:59:39.809236 10258 net.cpp:157] Top shape: 50 32 7 7 (78400)
I1126 09:59:39.809239 10258 net.cpp:165] Memory required for data: 2706608616
I1126 09:59:39.809247 10258 layer_factory.hpp:76] Creating layer inception_5a/prelu_5x5_reduce
I1126 09:59:39.809255 10258 net.cpp:106] Creating Layer inception_5a/prelu_5x5_reduce
I1126 09:59:39.809260 10258 net.cpp:454] inception_5a/prelu_5x5_reduce <- inception_5a/5x5_reduce
I1126 09:59:39.809267 10258 net.cpp:397] inception_5a/prelu_5x5_reduce -> inception_5a/5x5_reduce (in-place)
I1126 09:59:39.809365 10258 net.cpp:150] Setting up inception_5a/prelu_5x5_reduce
I1126 09:59:39.809372 10258 net.cpp:157] Top shape: 50 32 7 7 (78400)
I1126 09:59:39.809376 10258 net.cpp:165] Memory required for data: 2706922216
I1126 09:59:39.809383 10258 layer_factory.hpp:76] Creating layer inception_5a/5x5
I1126 09:59:39.809422 10258 net.cpp:106] Creating Layer inception_5a/5x5
I1126 09:59:39.809428 10258 net.cpp:454] inception_5a/5x5 <- inception_5a/5x5_reduce
I1126 09:59:39.809434 10258 net.cpp:411] inception_5a/5x5 -> inception_5a/5x5
I1126 09:59:39.810976 10258 cudnn_conv_layer.cpp:194] Reallocating workspace storage: 9804
I1126 09:59:39.811005 10258 net.cpp:150] Setting up inception_5a/5x5
I1126 09:59:39.811014 10258 net.cpp:157] Top shape: 50 128 7 7 (313600)
I1126 09:59:39.811019 10258 net.cpp:165] Memory required for data: 2708176616
I1126 09:59:39.811027 10258 layer_factory.hpp:76] Creating layer inception_5a/prelu_5x5
I1126 09:59:39.811033 10258 net.cpp:106] Creating Layer inception_5a/prelu_5x5
I1126 09:59:39.811038 10258 net.cpp:454] inception_5a/prelu_5x5 <- inception_5a/5x5
I1126 09:59:39.811045 10258 net.cpp:397] inception_5a/prelu_5x5 -> inception_5a/5x5 (in-place)
I1126 09:59:39.811136 10258 net.cpp:150] Setting up inception_5a/prelu_5x5
I1126 09:59:39.811142 10258 net.cpp:157] Top shape: 50 128 7 7 (313600)
I1126 09:59:39.811146 10258 net.cpp:165] Memory required for data: 2709431016
I1126 09:59:39.811152 10258 layer_factory.hpp:76] Creating layer inception_5a/pool
I1126 09:59:39.811161 10258 net.cpp:106] Creating Layer inception_5a/pool
I1126 09:59:39.811167 10258 net.cpp:454] inception_5a/pool <- pool4/3x3_s2_pool4/3x3_s2_0_split_3
I1126 09:59:39.811173 10258 net.cpp:411] inception_5a/pool -> inception_5a/pool
I1126 09:59:39.811605 10258 net.cpp:150] Setting up inception_5a/pool
I1126 09:59:39.811616 10258 net.cpp:157] Top shape: 50 832 7 7 (2038400)
I1126 09:59:39.811620 10258 net.cpp:165] Memory required for data: 2717584616
I1126 09:59:39.811625 10258 layer_factory.hpp:76] Creating layer inception_5a/pool_proj
I1126 09:59:39.811635 10258 net.cpp:106] Creating Layer inception_5a/pool_proj
I1126 09:59:39.811641 10258 net.cpp:454] inception_5a/pool_proj <- inception_5a/pool
I1126 09:59:39.811648 10258 net.cpp:411] inception_5a/pool_proj -> inception_5a/pool_proj
I1126 09:59:39.814324 10258 cudnn_conv_layer.cpp:194] Reallocating workspace storage: 7428
I1126 09:59:39.814375 10258 net.cpp:150] Setting up inception_5a/pool_proj
I1126 09:59:39.814386 10258 net.cpp:157] Top shape: 50 128 7 7 (313600)
I1126 09:59:39.814402 10258 net.cpp:165] Memory required for data: 2718839016
I1126 09:59:39.814411 10258 layer_factory.hpp:76] Creating layer inception_5a/prelu_pool_proj
I1126 09:59:39.814425 10258 net.cpp:106] Creating Layer inception_5a/prelu_pool_proj
I1126 09:59:39.814432 10258 net.cpp:454] inception_5a/prelu_pool_proj <- inception_5a/pool_proj
I1126 09:59:39.814441 10258 net.cpp:397] inception_5a/prelu_pool_proj -> inception_5a/pool_proj (in-place)
I1126 09:59:39.814549 10258 net.cpp:150] Setting up inception_5a/prelu_pool_proj
I1126 09:59:39.814558 10258 net.cpp:157] Top shape: 50 128 7 7 (313600)
I1126 09:59:39.814561 10258 net.cpp:165] Memory required for data: 2720093416
I1126 09:59:39.814568 10258 layer_factory.hpp:76] Creating layer inception_5a/output
I1126 09:59:39.814574 10258 net.cpp:106] Creating Layer inception_5a/output
I1126 09:59:39.814579 10258 net.cpp:454] inception_5a/output <- inception_5a/1x1
I1126 09:59:39.814585 10258 net.cpp:454] inception_5a/output <- inception_5a/3x3
I1126 09:59:39.814590 10258 net.cpp:454] inception_5a/output <- inception_5a/5x5
I1126 09:59:39.814594 10258 net.cpp:454] inception_5a/output <- inception_5a/pool_proj
I1126 09:59:39.814602 10258 net.cpp:411] inception_5a/output -> inception_5a/output
I1126 09:59:39.814627 10258 net.cpp:150] Setting up inception_5a/output
I1126 09:59:39.814636 10258 net.cpp:157] Top shape: 50 832 7 7 (2038400)
I1126 09:59:39.814640 10258 net.cpp:165] Memory required for data: 2728247016
I1126 09:59:39.814645 10258 layer_factory.hpp:76] Creating layer inception_5a/output_inception_5a/output_0_split
I1126 09:59:39.814651 10258 net.cpp:106] Creating Layer inception_5a/output_inception_5a/output_0_split
I1126 09:59:39.814656 10258 net.cpp:454] inception_5a/output_inception_5a/output_0_split <- inception_5a/output
I1126 09:59:39.814661 10258 net.cpp:411] inception_5a/output_inception_5a/output_0_split -> inception_5a/output_inception_5a/output_0_split_0
I1126 09:59:39.814690 10258 net.cpp:411] inception_5a/output_inception_5a/output_0_split -> inception_5a/output_inception_5a/output_0_split_1
I1126 09:59:39.814698 10258 net.cpp:411] inception_5a/output_inception_5a/output_0_split -> inception_5a/output_inception_5a/output_0_split_2
I1126 09:59:39.814707 10258 net.cpp:411] inception_5a/output_inception_5a/output_0_split -> inception_5a/output_inception_5a/output_0_split_3
I1126 09:59:39.814764 10258 net.cpp:150] Setting up inception_5a/output_inception_5a/output_0_split
I1126 09:59:39.814772 10258 net.cpp:157] Top shape: 50 832 7 7 (2038400)
I1126 09:59:39.814777 10258 net.cpp:157] Top shape: 50 832 7 7 (2038400)
I1126 09:59:39.814782 10258 net.cpp:157] Top shape: 50 832 7 7 (2038400)
I1126 09:59:39.814786 10258 net.cpp:157] Top shape: 50 832 7 7 (2038400)
I1126 09:59:39.814790 10258 net.cpp:165] Memory required for data: 2760861416
I1126 09:59:39.814795 10258 layer_factory.hpp:76] Creating layer inception_5b/1x1
I1126 09:59:39.814806 10258 net.cpp:106] Creating Layer inception_5b/1x1
I1126 09:59:39.814811 10258 net.cpp:454] inception_5b/1x1 <- inception_5a/output_inception_5a/output_0_split_0
I1126 09:59:39.814818 10258 net.cpp:411] inception_5b/1x1 -> inception_5b/1x1
I1126 09:59:39.819221 10258 cudnn_conv_layer.cpp:194] Reallocating workspace storage: 7428
I1126 09:59:39.819309 10258 net.cpp:150] Setting up inception_5b/1x1
I1126 09:59:39.819324 10258 net.cpp:157] Top shape: 50 384 7 7 (940800)
I1126 09:59:39.819327 10258 net.cpp:165] Memory required for data: 2764624616
I1126 09:59:39.819339 10258 layer_factory.hpp:76] Creating layer inception_5b/prelu_1x1
I1126 09:59:39.819353 10258 net.cpp:106] Creating Layer inception_5b/prelu_1x1
I1126 09:59:39.819361 10258 net.cpp:454] inception_5b/prelu_1x1 <- inception_5b/1x1
I1126 09:59:39.819375 10258 net.cpp:397] inception_5b/prelu_1x1 -> inception_5b/1x1 (in-place)
I1126 09:59:39.819530 10258 net.cpp:150] Setting up inception_5b/prelu_1x1
I1126 09:59:39.819541 10258 net.cpp:157] Top shape: 50 384 7 7 (940800)
I1126 09:59:39.819546 10258 net.cpp:165] Memory required for data: 2768387816
I1126 09:59:39.819552 10258 layer_factory.hpp:76] Creating layer inception_5b/3x3_reduce
I1126 09:59:39.819566 10258 net.cpp:106] Creating Layer inception_5b/3x3_reduce
I1126 09:59:39.819572 10258 net.cpp:454] inception_5b/3x3_reduce <- inception_5a/output_inception_5a/output_0_split_1
I1126 09:59:39.819581 10258 net.cpp:411] inception_5b/3x3_reduce -> inception_5b/3x3_reduce
I1126 09:59:39.822726 10258 cudnn_conv_layer.cpp:194] Reallocating workspace storage: 7428
I1126 09:59:39.822787 10258 net.cpp:150] Setting up inception_5b/3x3_reduce
I1126 09:59:39.822798 10258 net.cpp:157] Top shape: 50 192 7 7 (470400)
I1126 09:59:39.822803 10258 net.cpp:165] Memory required for data: 2770269416
I1126 09:59:39.822813 10258 layer_factory.hpp:76] Creating layer inception_5b/prelu_3x3_reduce
I1126 09:59:39.822825 10258 net.cpp:106] Creating Layer inception_5b/prelu_3x3_reduce
I1126 09:59:39.822834 10258 net.cpp:454] inception_5b/prelu_3x3_reduce <- inception_5b/3x3_reduce
I1126 09:59:39.822844 10258 net.cpp:397] inception_5b/prelu_3x3_reduce -> inception_5b/3x3_reduce (in-place)
I1126 09:59:39.822949 10258 net.cpp:150] Setting up inception_5b/prelu_3x3_reduce
I1126 09:59:39.822958 10258 net.cpp:157] Top shape: 50 192 7 7 (470400)
I1126 09:59:39.822962 10258 net.cpp:165] Memory required for data: 2772151016
I1126 09:59:39.822968 10258 layer_factory.hpp:76] Creating layer inception_5b/3x3
I1126 09:59:39.822983 10258 net.cpp:106] Creating Layer inception_5b/3x3
I1126 09:59:39.822988 10258 net.cpp:454] inception_5b/3x3 <- inception_5b/3x3_reduce
I1126 09:59:39.822994 10258 net.cpp:411] inception_5b/3x3 -> inception_5b/3x3
I1126 09:59:39.829751 10258 cudnn_conv_layer.cpp:194] Reallocating workspace storage: 7788
I1126 09:59:39.829823 10258 net.cpp:150] Setting up inception_5b/3x3
I1126 09:59:39.829834 10258 net.cpp:157] Top shape: 50 384 7 7 (940800)
I1126 09:59:39.829872 10258 net.cpp:165] Memory required for data: 2775914216
I1126 09:59:39.829884 10258 layer_factory.hpp:76] Creating layer inception_5b/prelu_3x3
I1126 09:59:39.829897 10258 net.cpp:106] Creating Layer inception_5b/prelu_3x3
I1126 09:59:39.829905 10258 net.cpp:454] inception_5b/prelu_3x3 <- inception_5b/3x3
I1126 09:59:39.829916 10258 net.cpp:397] inception_5b/prelu_3x3 -> inception_5b/3x3 (in-place)
I1126 09:59:39.830039 10258 net.cpp:150] Setting up inception_5b/prelu_3x3
I1126 09:59:39.830049 10258 net.cpp:157] Top shape: 50 384 7 7 (940800)
I1126 09:59:39.830052 10258 net.cpp:165] Memory required for data: 2779677416
I1126 09:59:39.830057 10258 layer_factory.hpp:76] Creating layer inception_5b/5x5_reduce
I1126 09:59:39.830068 10258 net.cpp:106] Creating Layer inception_5b/5x5_reduce
I1126 09:59:39.830073 10258 net.cpp:454] inception_5b/5x5_reduce <- inception_5a/output_inception_5a/output_0_split_2
I1126 09:59:39.830081 10258 net.cpp:411] inception_5b/5x5_reduce -> inception_5b/5x5_reduce
I1126 09:59:39.831744 10258 cudnn_conv_layer.cpp:194] Reallocating workspace storage: 7428
I1126 09:59:39.831779 10258 net.cpp:150] Setting up inception_5b/5x5_reduce
I1126 09:59:39.831787 10258 net.cpp:157] Top shape: 50 48 7 7 (117600)
I1126 09:59:39.831792 10258 net.cpp:165] Memory required for data: 2780147816
I1126 09:59:39.831799 10258 layer_factory.hpp:76] Creating layer inception_5b/prelu_5x5_reduce
I1126 09:59:39.831809 10258 net.cpp:106] Creating Layer inception_5b/prelu_5x5_reduce
I1126 09:59:39.831814 10258 net.cpp:454] inception_5b/prelu_5x5_reduce <- inception_5b/5x5_reduce
I1126 09:59:39.831820 10258 net.cpp:397] inception_5b/prelu_5x5_reduce -> inception_5b/5x5_reduce (in-place)
I1126 09:59:39.831938 10258 net.cpp:150] Setting up inception_5b/prelu_5x5_reduce
I1126 09:59:39.831948 10258 net.cpp:157] Top shape: 50 48 7 7 (117600)
I1126 09:59:39.831951 10258 net.cpp:165] Memory required for data: 2780618216
I1126 09:59:39.831956 10258 layer_factory.hpp:76] Creating layer inception_5b/5x5
I1126 09:59:39.831964 10258 net.cpp:106] Creating Layer inception_5b/5x5
I1126 09:59:39.831969 10258 net.cpp:454] inception_5b/5x5 <- inception_5b/5x5_reduce
I1126 09:59:39.831977 10258 net.cpp:411] inception_5b/5x5 -> inception_5b/5x5
I1126 09:59:39.834205 10258 cudnn_conv_layer.cpp:194] Reallocating workspace storage: 9804
I1126 09:59:39.834249 10258 net.cpp:150] Setting up inception_5b/5x5
I1126 09:59:39.834259 10258 net.cpp:157] Top shape: 50 128 7 7 (313600)
I1126 09:59:39.834262 10258 net.cpp:165] Memory required for data: 2781872616
I1126 09:59:39.834271 10258 layer_factory.hpp:76] Creating layer inception_5b/prelu_5x5
I1126 09:59:39.834282 10258 net.cpp:106] Creating Layer inception_5b/prelu_5x5
I1126 09:59:39.834288 10258 net.cpp:454] inception_5b/prelu_5x5 <- inception_5b/5x5
I1126 09:59:39.834295 10258 net.cpp:397] inception_5b/prelu_5x5 -> inception_5b/5x5 (in-place)
I1126 09:59:39.834398 10258 net.cpp:150] Setting up inception_5b/prelu_5x5
I1126 09:59:39.834406 10258 net.cpp:157] Top shape: 50 128 7 7 (313600)
I1126 09:59:39.834410 10258 net.cpp:165] Memory required for data: 2783127016
I1126 09:59:39.834415 10258 layer_factory.hpp:76] Creating layer inception_5b/pool
I1126 09:59:39.834424 10258 net.cpp:106] Creating Layer inception_5b/pool
I1126 09:59:39.834429 10258 net.cpp:454] inception_5b/pool <- inception_5a/output_inception_5a/output_0_split_3
I1126 09:59:39.834436 10258 net.cpp:411] inception_5b/pool -> inception_5b/pool
I1126 09:59:39.834661 10258 net.cpp:150] Setting up inception_5b/pool
I1126 09:59:39.834672 10258 net.cpp:157] Top shape: 50 832 7 7 (2038400)
I1126 09:59:39.834676 10258 net.cpp:165] Memory required for data: 2791280616
I1126 09:59:39.834681 10258 layer_factory.hpp:76] Creating layer inception_5b/pool_proj
I1126 09:59:39.834693 10258 net.cpp:106] Creating Layer inception_5b/pool_proj
I1126 09:59:39.834698 10258 net.cpp:454] inception_5b/pool_proj <- inception_5b/pool
I1126 09:59:39.834705 10258 net.cpp:411] inception_5b/pool_proj -> inception_5b/pool_proj
I1126 09:59:39.837312 10258 cudnn_conv_layer.cpp:194] Reallocating workspace storage: 7428
I1126 09:59:39.837379 10258 net.cpp:150] Setting up inception_5b/pool_proj
I1126 09:59:39.837390 10258 net.cpp:157] Top shape: 50 128 7 7 (313600)
I1126 09:59:39.837394 10258 net.cpp:165] Memory required for data: 2792535016
I1126 09:59:39.837404 10258 layer_factory.hpp:76] Creating layer inception_5b/prelu_pool_proj
I1126 09:59:39.837415 10258 net.cpp:106] Creating Layer inception_5b/prelu_pool_proj
I1126 09:59:39.837422 10258 net.cpp:454] inception_5b/prelu_pool_proj <- inception_5b/pool_proj
I1126 09:59:39.837430 10258 net.cpp:397] inception_5b/prelu_pool_proj -> inception_5b/pool_proj (in-place)
I1126 09:59:39.837525 10258 net.cpp:150] Setting up inception_5b/prelu_pool_proj
I1126 09:59:39.837533 10258 net.cpp:157] Top shape: 50 128 7 7 (313600)
I1126 09:59:39.837538 10258 net.cpp:165] Memory required for data: 2793789416
I1126 09:59:39.837543 10258 layer_factory.hpp:76] Creating layer inception_5b/output
I1126 09:59:39.837551 10258 net.cpp:106] Creating Layer inception_5b/output
I1126 09:59:39.837556 10258 net.cpp:454] inception_5b/output <- inception_5b/1x1
I1126 09:59:39.837563 10258 net.cpp:454] inception_5b/output <- inception_5b/3x3
I1126 09:59:39.837568 10258 net.cpp:454] inception_5b/output <- inception_5b/5x5
I1126 09:59:39.837573 10258 net.cpp:454] inception_5b/output <- inception_5b/pool_proj
I1126 09:59:39.837579 10258 net.cpp:411] inception_5b/output -> inception_5b/output
I1126 09:59:39.837606 10258 net.cpp:150] Setting up inception_5b/output
I1126 09:59:39.837613 10258 net.cpp:157] Top shape: 50 1024 7 7 (2508800)
I1126 09:59:39.837617 10258 net.cpp:165] Memory required for data: 2803824616
I1126 09:59:39.837622 10258 layer_factory.hpp:76] Creating layer pool5/7x7_s1
I1126 09:59:39.837631 10258 net.cpp:106] Creating Layer pool5/7x7_s1
I1126 09:59:39.837635 10258 net.cpp:454] pool5/7x7_s1 <- inception_5b/output
I1126 09:59:39.837642 10258 net.cpp:411] pool5/7x7_s1 -> pool5/7x7_s1
I1126 09:59:39.838040 10258 net.cpp:150] Setting up pool5/7x7_s1
I1126 09:59:39.838052 10258 net.cpp:157] Top shape: 50 1024 1 1 (51200)
I1126 09:59:39.838055 10258 net.cpp:165] Memory required for data: 2804029416
I1126 09:59:39.838060 10258 layer_factory.hpp:76] Creating layer pool5/drop_7x7_s1
I1126 09:59:39.838068 10258 net.cpp:106] Creating Layer pool5/drop_7x7_s1
I1126 09:59:39.838071 10258 net.cpp:454] pool5/drop_7x7_s1 <- pool5/7x7_s1
I1126 09:59:39.838078 10258 net.cpp:397] pool5/drop_7x7_s1 -> pool5/7x7_s1 (in-place)
I1126 09:59:39.838104 10258 net.cpp:150] Setting up pool5/drop_7x7_s1
I1126 09:59:39.838111 10258 net.cpp:157] Top shape: 50 1024 1 1 (51200)
I1126 09:59:39.838115 10258 net.cpp:165] Memory required for data: 2804234216
I1126 09:59:39.838119 10258 layer_factory.hpp:76] Creating layer loss3/classifier2
I1126 09:59:39.838129 10258 net.cpp:106] Creating Layer loss3/classifier2
I1126 09:59:39.838134 10258 net.cpp:454] loss3/classifier2 <- pool5/7x7_s1
I1126 09:59:39.838140 10258 net.cpp:411] loss3/classifier2 -> loss3/classifier
I1126 09:59:39.838287 10258 net.cpp:150] Setting up loss3/classifier2
I1126 09:59:39.838295 10258 net.cpp:157] Top shape: 50 2 (100)
I1126 09:59:39.838299 10258 net.cpp:165] Memory required for data: 2804234616
I1126 09:59:39.838306 10258 layer_factory.hpp:76] Creating layer loss3/classifier_loss3/classifier2_0_split
I1126 09:59:39.838313 10258 net.cpp:106] Creating Layer loss3/classifier_loss3/classifier2_0_split
I1126 09:59:39.838326 10258 net.cpp:454] loss3/classifier_loss3/classifier2_0_split <- loss3/classifier
I1126 09:59:39.838335 10258 net.cpp:411] loss3/classifier_loss3/classifier2_0_split -> loss3/classifier_loss3/classifier2_0_split_0
I1126 09:59:39.838342 10258 net.cpp:411] loss3/classifier_loss3/classifier2_0_split -> loss3/classifier_loss3/classifier2_0_split_1
I1126 09:59:39.838383 10258 net.cpp:150] Setting up loss3/classifier_loss3/classifier2_0_split
I1126 09:59:39.838392 10258 net.cpp:157] Top shape: 50 2 (100)
I1126 09:59:39.838397 10258 net.cpp:157] Top shape: 50 2 (100)
I1126 09:59:39.838400 10258 net.cpp:165] Memory required for data: 2804235416
I1126 09:59:39.838415 10258 layer_factory.hpp:76] Creating layer loss3/loss3
I1126 09:59:39.838424 10258 net.cpp:106] Creating Layer loss3/loss3
I1126 09:59:39.838429 10258 net.cpp:454] loss3/loss3 <- loss3/classifier_loss3/classifier2_0_split_0
I1126 09:59:39.838435 10258 net.cpp:454] loss3/loss3 <- label_data_1_split_4
…
