…
I1105 17:54:38.432744 24744 net.cpp:322] The NetState phase (0) differed from the phase (1) specified by a rule in layer loss3/top-1
I1105 17:54:38.434227 24744 net.cpp:49] Initializing net from parameters: 
name: "GoogleNet"
state {
  phase: TRAIN
}
layer {
  name: "data"
  type: "Data"
  top: "data"
  top: "label"
  include {
    phase: TRAIN
  }
  transform_param {
    mirror: true
    crop_size: 224
    mean_value: 104
    mean_value: 117
    mean_value: 123
  }
  data_param {
    source: "../../LMDB/train_9-lmdb"
    batch_size: 32
    backend: LMDB
  }
}
layer {
  name: "conv1/7x7_s2"
  type: "Convolution"
  bottom: "data"
  top: "conv1/7x7_s2"
  param {
    lr_mult: 1
    decay_mult: 1
  }
  param {
    lr_mult: 2
    decay_mult: 0
  }
  convolution_param {
    num_output: 64
    pad: 3
    kernel_size: 7
    stride: 2
    weight_filler {
      type: "xavier"
    }
    bias_filler {
      type: "constant"
      value: 0.2
    }
  }
}
layer {
  name: "conv1/prelu_7x7"
  type: "PReLU"
  bottom: "conv1/7x7_s2"
  top: "conv1/7x7_s2"
  param {
    lr_mult: 1
    decay_mult: 0
  }
  prelu_param {
    filler {
      type: "constant"
      value: 0.01
    }
  }
}
layer {
  name: "pool1/3x3_s2"
  type: "Pooling"
  bottom: "conv1/7x7_s2"
  top: "pool1/3x3_s2"
  pooling_param {
    pool: MAX
    kernel_size: 3
    stride: 2
  }
}
layer {
  name: "pool1/norm1"
  type: "LRN"
  bottom: "pool1/3x3_s2"
  top: "pool1/norm1"
  lrn_param {
    local_size: 5
    alpha: 0.0001
    beta: 0.75
  }
}
layer {
  name: "conv2/3x3_reduce"
  type: "Convolution"
  bottom: "pool1/norm1"
  top: "conv2/3x3_reduce"
  param {
    lr_mult: 1
    decay_mult: 1
  }
  param {
    lr_mult: 2
    decay_mult: 0
  }
  convolution_param {
    num_output: 64
    kernel_size: 1
    weight_filler {
      type: "xavier"
    }
    bias_filler {
      type: "constant"
      value: 0.2
    }
  }
}
layer {
  name: "conv2/prelu_3x3_reduce"
  type: "PReLU"
  bottom: "conv2/3x3_reduce"
  top: "conv2/3x3_reduce"
  param {
    lr_mult: 1
    decay_mult: 0
  }
  prelu_param {
    filler {
      type: "constant"
      value: 0.01
    }
  }
}
layer {
  name: "conv2/3x3"
  type: "Convolution"
  bottom: "conv2/3x3_reduce"
  top: "conv2/3x3"
  param {
    lr_mult: 1
    decay_mult: 1
  }
  param {
    lr_mult: 2
    decay_mult: 0
  }
  convolution_param {
    num_output: 192
    pad: 1
    kernel_size: 3
    weight_filler {
      type: "xavier"
    }
    bias_filler {
      type: "constant"
      value: 0.2
    }
  }
}
layer {
  name: "conv2/prelu_3x3"
  type: "PReLU"
  bottom: "conv2/3x3"
  top: "conv2/3x3"
  param {
    lr_mult: 1
    decay_mult: 0
  }
  prelu_param {
    filler {
      type: "constant"
      value: 0.01
    }
  }
}
layer {
  name: "conv2/norm2"
  type: "LRN"
  bottom: "conv2/3x3"
  top: "conv2/norm2"
  lrn_param {
    local_size: 5
    alpha: 0.0001
    beta: 0.75
  }
}
layer {
  name: "pool2/3x3_s2"
  type: "Pooling"
  bottom: "conv2/norm2"
  top: "pool2/3x3_s2"
  pooling_param {
    pool: MAX
    kernel_size: 3
    stride: 2
  }
}
layer {
  name: "inception_3a/1x1"
  type: "Convolution"
  bottom: "pool2/3x3_s2"
  top: "inception_3a/1x1"
  param {
    lr_mult: 1
    decay_mult: 1
  }
  param {
    lr_mult: 2
    decay_mult: 0
  }
  convolution_param {
    num_output: 64
    kernel_size: 1
    weight_filler {
      type: "xavier"
    }
    bias_filler {
      type: "constant"
      value: 0.2
    }
  }
}
layer {
  name: "inception_3a/prelu_1x1"
  type: "PReLU"
  bottom: "inception_3a/1x1"
  top: "inception_3a/1x1"
  param {
    lr_mult: 1
    decay_mult: 0
  }
  prelu_param {
    filler {
      type: "constant"
      value: 0.01
    }
  }
}
layer {
  name: "inception_3a/3x3_reduce"
  type: "Convolution"
  bottom: "pool2/3x3_s2"
  top: "inception_3a/3x3_reduce"
  param {
    lr_mult: 1
    decay_mult: 1
  }
  param {
    lr_mult: 2
    decay_mult: 0
  }
  convolution_param {
    num_output: 96
    kernel_size: 1
    weight_filler {
      type: "xavier"
    }
    bias_filler {
      type: "constant"
      value: 0.2
    }
  }
}
layer {
  name: "inception_3a/prelu_3x3_reduce"
  type: "PReLU"
  bottom: "inception_3a/3x3_reduce"
  top: "inception_3a/3x3_reduce"
  param {
    lr_mult: 1
    decay_mult: 0
  }
  prelu_param {
    filler {
      type: "constant"
      value: 0.01
    }
  }
}
layer {
  name: "inception_3a/3x3"
  type: "Convolution"
  bottom: "inception_3a/3x3_reduce"
  top: "inception_3a/3x3"
  param {
    lr_mult: 1
    decay_mult: 1
  }
  param {
    lr_mult: 2
    decay_mult: 0
  }
  convolution_param {
    num_output: 128
    pad: 1
    kernel_size: 3
    weight_filler {
      type: "xavier"
    }
    bias_filler {
      type: "constant"
      value: 0.2
    }
  }
}
layer {
  name: "inception_3a/prelu_3x3"
  type: "PReLU"
  bottom: "inception_3a/3x3"
  top: "inception_3a/3x3"
  param {
    lr_mult: 1
    decay_mult: 0
  }
  prelu_param {
    filler {
      type: "constant"
      value: 0.01
    }
  }
}
layer {
  name: "inception_3a/5x5_reduce"
  type: "Convolution"
  bottom: "pool2/3x3_s2"
  top: "inception_3a/5x5_reduce"
  param {
    lr_mult: 1
    decay_mult: 1
  }
  param {
    lr_mult: 2
    decay_mult: 0
  }
  convolution_param {
    num_output: 16
    kernel_size: 1
    weight_filler {
      type: "xavier"
    }
    bias_filler {
      type: "constant"
      value: 0.2
    }
  }
}
layer {
  name: "inception_3a/prelu_5x5_reduce"
  type: "PReLU"
  bottom: "inception_3a/5x5_reduce"
  top: "inception_3a/5x5_reduce"
  param {
    lr_mult: 1
    decay_mult: 0
  }
  prelu_param {
    filler {
      type: "constant"
      value: 0.01
    }
  }
}
layer {
  name: "inception_3a/5x5"
  type: "Convolution"
  bottom: "inception_3a/5x5_reduce"
  top: "inception_3a/5x5"
  param {
    lr_mult: 1
    decay_mult: 1
  }
  param {
    lr_mult: 2
    decay_mult: 0
  }
  convolution_param {
    num_output: 32
    pad: 2
    kernel_size: 5
    weight_filler {
      type: "xavier"
    }
    bias_filler {
      type: "constant"
      value: 0.2
    }
  }
}
layer {
  name: "inception_3a/prelu_5x5"
  type: "PReLU"
  bottom: "inception_3a/5x5"
  top: "inception_3a/5x5"
  param {
    lr_mult: 1
    decay_mult: 0
  }
  prelu_param {
    filler {
      type: "constant"
      value: 0.01
    }
  }
}
layer {
  name: "inception_3a/pool"
  type: "Pooling"
  bottom: "pool2/3x3_s2"
  top: "inception_3a/pool"
  pooling_param {
    pool: MAX
    kernel_size: 3
    stride: 1
    pad: 1
  }
}
layer {
  name: "inception_3a/pool_proj"
  type: "Convolution"
  bottom: "inception_3a/pool"
  top: "inception_3a/pool_proj"
  param {
    lr_mult: 1
    decay_mult: 1
  }
  param {
    lr_mult: 2
    decay_mult: 0
  }
  convolution_param {
    num_output: 32
    kernel_size: 1
    weight_filler {
      type: "xavier"
    }
    bias_filler {
      type: "constant"
      value: 0.2
    }
  }
}
layer {
  name: "inception_3a/prelu_pool_proj"
  type: "PReLU"
  bottom: "inception_3a/pool_proj"
  top: "inception_3a/pool_proj"
  param {
    lr_mult: 1
    decay_mult: 0
  }
  prelu_param {
    filler {
      type: "constant"
      value: 0.01
    }
  }
}
layer {
  name: "inception_3a/output"
  type: "Concat"
  bottom: "inception_3a/1x1"
  bottom: "inception_3a/3x3"
  bottom: "inception_3a/5x5"
  bottom: "inception_3a/pool_proj"
  top: "inception_3a/output"
}
layer {
  name: "inception_3b/1x1"
  type: "Convolution"
  bottom: "inception_3a/output"
  top: "inception_3b/1x1"
  param {
    lr_mult: 1
    decay_mult: 1
  }
  param {
    lr_mult: 2
    decay_mult: 0
  }
  convolution_param {
    num_output: 128
    kernel_size: 1
    weight_filler {
      type: "xavier"
    }
    bias_filler {
      type: "constant"
      value: 0.2
    }
  }
}
layer {
  name: "inception_3b/prelu_1x1"
  type: "PReLU"
  bottom: "inception_3b/1x1"
  top: "inception_3b/1x1"
  param {
    lr_mult: 1
    decay_mult: 0
  }
  prelu_param {
    filler {
      type: "constant"
      value: 0.01
    }
  }
}
layer {
  name: "inception_3b/3x3_reduce"
  type: "Convolution"
  bottom: "inception_3a/output"
  top: "inception_3b/3x3_reduce"
  param {
    lr_mult: 1
    decay_mult: 1
  }
  param {
    lr_mult: 2
    decay_mult: 0
  }
  convolution_param {
    num_output: 128
    kernel_size: 1
    weight_filler {
      type: "xavier"
    }
    bias_filler {
      type: "constant"
      value: 0.2
    }
  }
}
layer {
  name: "inception_3b/prelu_3x3_reduce"
  type: "PReLU"
  bottom: "inception_3b/3x3_reduce"
  top: "inception_3b/3x3_reduce"
  param {
    lr_mult: 1
    decay_mult: 0
  }
  prelu_param {
    filler {
      type: "constant"
      value: 0.01
    }
  }
}
layer {
  name: "inception_3b/3x3"
  type: "Convolution"
  bottom: "inception_3b/3x3_reduce"
  top: "inception_3b/3x3"
  param {
    lr_mult: 1
    decay_mult: 1
  }
  param {
    lr_mult: 2
    decay_mult: 0
  }
  convolution_param {
    num_output: 192
    pad: 1
    kernel_size: 3
    weight_filler {
      type: "xavier"
    }
    bias_filler {
      type: "constant"
      value: 0.2
    }
  }
}
layer {
  name: "inception_3b/prelu_3x3"
  type: "PReLU"
  bottom: "inception_3b/3x3"
  top: "inception_3b/3x3"
  param {
    lr_mult: 1
    decay_mult: 0
  }
  prelu_param {
    filler {
      type: "constant"
      value: 0.01
    }
  }
}
layer {
  name: "inception_3b/5x5_reduce"
  type: "Convolution"
  bottom: "inception_3a/output"
  top: "inception_3b/5x5_reduce"
  param {
    lr_mult: 1
    decay_mult: 1
  }
  param {
    lr_mult: 2
    decay_mult: 0
  }
  convolution_param {
    num_output: 32
    kernel_size: 1
    weight_filler {
      type: "xavier"
    }
    bias_filler {
      type: "constant"
      value: 0.2
    }
  }
}
layer {
  name: "inception_3b/prelu_5x5_reduce"
  type: "PReLU"
  bottom: "inception_3b/5x5_reduce"
  top: "inception_3b/5x5_reduce"
  param {
    lr_mult: 1
    decay_mult: 0
  }
  prelu_param {
    filler {
      type: "constant"
      value: 0.01
    }
  }
}
layer {
  name: "inception_3b/5x5"
  type: "Convolution"
  bottom: "inception_3b/5x5_reduce"
  top: "inception_3b/5x5"
  param {
    lr_mult: 1
    decay_mult: 1
  }
  param {
    lr_mult: 2
    decay_mult: 0
  }
  convolution_param {
    num_output: 96
    pad: 2
    kernel_size: 5
    weight_filler {
      type: "xavier"
    }
    bias_filler {
      type: "constant"
      value: 0.2
    }
  }
}
layer {
  name: "inception_3b/prelu_5x5"
  type: "PReLU"
  bottom: "inception_3b/5x5"
  top: "inception_3b/5x5"
  param {
    lr_mult: 1
    decay_mult: 0
  }
  prelu_param {
    filler {
      type: "constant"
      value: 0.01
    }
  }
}
layer {
  name: "inception_3b/pool"
  type: "Pooling"
  bottom: "inception_3a/output"
  top: "inception_3b/pool"
  pooling_param {
    pool: MAX
    kernel_size: 3
    stride: 1
    pad: 1
  }
}
layer {
  name: "inception_3b/pool_proj"
  type: "Convolution"
  bottom: "inception_3b/pool"
  top: "inception_3b/pool_proj"
  param {
    lr_mult: 1
    decay_mult: 1
  }
  param {
    lr_mult: 2
    decay_mult: 0
  }
  convolution_param {
    num_output: 64
    kernel_size: 1
    weight_filler {
      type: "xavier"
    }
    bias_filler {
      type: "constant"
      value: 0.2
    }
  }
}
layer {
  name: "inception_3b/prelu_pool_proj"
  type: "PReLU"
  bottom: "inception_3b/pool_proj"
  top: "inception_3b/pool_proj"
  param {
    lr_mult: 1
    decay_mult: 0
  }
  prelu_param {
    filler {
      type: "constant"
      value: 0.01
    }
  }
}
layer {
  name: "inception_3b/output"
  type: "Concat"
  bottom: "inception_3b/1x1"
  bottom: "inception_3b/3x3"
  bottom: "inception_3b/5x5"
  bottom: "inception_3b/pool_proj"
  top: "inception_3b/output"
}
layer {
  name: "pool3/3x3_s2"
  type: "Pooling"
  bottom: "inception_3b/output"
  top: "pool3/3x3_s2"
  pooling_param {
    pool: MAX
    kernel_size: 3
    stride: 2
  }
}
layer {
  name: "inception_4a/1x1"
  type: "Convolution"
  bottom: "pool3/3x3_s2"
  top: "inception_4a/1x1"
  param {
    lr_mult: 1
    decay_mult: 1
  }
  param {
    lr_mult: 2
    decay_mult: 0
  }
  convolution_param {
    num_output: 192
    kernel_size: 1
    weight_filler {
      type: "xavier"
    }
    bias_filler {
      type: "constant"
      value: 0.2
    }
  }
}
layer {
  name: "inception_4a/prelu_1x1"
  type: "PReLU"
  bottom: "inception_4a/1x1"
  top: "inception_4a/1x1"
  param {
    lr_mult: 1
    decay_mult: 0
  }
  prelu_param {
    filler {
      type: "constant"
      value: 0.01
    }
  }
}
layer {
  name: "inception_4a/3x3_reduce"
  type: "Convolution"
  bottom: "pool3/3x3_s2"
  top: "inception_4a/3x3_reduce"
  param {
    lr_mult: 1
    decay_mult: 1
  }
  param {
    lr_mult: 2
    decay_mult: 0
  }
  convolution_param {
    num_output: 96
    kernel_size: 1
    weight_filler {
      type: "xavier"
    }
    bias_filler {
      type: "constant"
      value: 0.2
    }
  }
}
layer {
  name: "inception_4a/prelu_3x3_reduce"
  type: "PReLU"
  bottom: "inception_4a/3x3_reduce"
  top: "inception_4a/3x3_reduce"
  param {
    lr_mult: 1
    decay_mult: 0
  }
  prelu_param {
    filler {
      type: "constant"
      value: 0.01
    }
  }
}
layer {
  name: "inception_4a/3x3"
  type: "Convolution"
  bottom: "inception_4a/3x3_reduce"
  top: "inception_4a/3x3"
  param {
    lr_mult: 1
    decay_mult: 1
  }
  param {
    lr_mult: 2
    decay_mult: 0
  }
  convolution_param {
    num_output: 208
    pad: 1
    kernel_size: 3
    weight_filler {
      type: "xavier"
    }
    bias_filler {
      type: "constant"
      value: 0.2
    }
  }
}
layer {
  name: "inception_4a/prelu_3x3"
  type: "PReLU"
  bottom: "inception_4a/3x3"
  top: "inception_4a/3x3"
  param {
    lr_mult: 1
    decay_mult: 0
  }
  prelu_param {
    filler {
      type: "constant"
      value: 0.01
    }
  }
}
layer {
  name: "inception_4a/5x5_reduce"
  type: "Convolution"
  bottom: "pool3/3x3_s2"
  top: "inception_4a/5x5_reduce"
  param {
    lr_mult: 1
    decay_mult: 1
  }
  param {
    lr_mult: 2
    decay_mult: 0
  }
  convolution_param {
    num_output: 16
    kernel_size: 1
    weight_filler {
      type: "xavier"
    }
    bias_filler {
      type: "constant"
      value: 0.2
    }
  }
}
layer {
  name: "inception_4a/prelu_5x5_reduce"
  type: "PReLU"
  bottom: "inception_4a/5x5_reduce"
  top: "inception_4a/5x5_reduce"
  param {
    lr_mult: 1
    decay_mult: 0
  }
  prelu_param {
    filler {
      type: "constant"
      value: 0.01
    }
  }
}
layer {
  name: "inception_4a/5x5"
  type: "Convolution"
  bottom: "inception_4a/5x5_reduce"
  top: "inception_4a/5x5"
  param {
    lr_mult: 1
    decay_mult: 1
  }
  param {
    lr_mult: 2
    decay_mult: 0
  }
  convolution_param {
    num_output: 48
    pad: 2
    kernel_size: 5
    weight_filler {
      type: "xavier"
    }
    bias_filler {
      type: "constant"
      value: 0.2
    }
  }
}
layer {
  name: "inception_4a/prelu_5x5"
  type: "PReLU"
  bottom: "inception_4a/5x5"
  top: "inception_4a/5x5"
  param {
    lr_mult: 1
    decay_mult: 0
  }
  prelu_param {
    filler {
      type: "constant"
      value: 0.01
    }
  }
}
layer {
  name: "inception_4a/pool"
  type: "Pooling"
  bottom: "pool3/3x3_s2"
  top: "inception_4a/pool"
  pooling_param {
    pool: MAX
    kernel_size: 3
    stride: 1
    pad: 1
  }
}
layer {
  name: "inception_4a/pool_proj"
  type: "Convolution"
  bottom: "inception_4a/pool"
  top: "inception_4a/pool_proj"
  param {
    lr_mult: 1
    decay_mult: 1
  }
  param {
    lr_mult: 2
    decay_mult: 0
  }
  convolution_param {
    num_output: 64
    kernel_size: 1
    weight_filler {
      type: "xavier"
    }
    bias_filler {
      type: "constant"
      value: 0.2
    }
  }
}
layer {
  name: "inception_4a/prelu_pool_proj"
  type: "PReLU"
  bottom: "inception_4a/pool_proj"
  top: "inception_4a/pool_proj"
  param {
    lr_mult: 1
    decay_mult: 0
  }
  prelu_param {
    filler {
      type: "constant"
      value: 0.01
    }
  }
}
layer {
  name: "inception_4a/output"
  type: "Concat"
  bottom: "inception_4a/1x1"
  bottom: "inception_4a/3x3"
  bottom: "inception_4a/5x5"
  bottom: "inception_4a/pool_proj"
  top: "inception_4a/output"
}
layer {
  name: "loss1/ave_pool"
  type: "Pooling"
  bottom: "inception_4a/output"
  top: "loss1/ave_pool"
  pooling_param {
    pool: AVE
    kernel_size: 5
    stride: 3
  }
}
layer {
  name: "loss1/conv"
  type: "Convolution"
  bottom: "loss1/ave_pool"
  top: "loss1/conv"
  param {
    lr_mult: 1
    decay_mult: 1
  }
  param {
    lr_mult: 2
    decay_mult: 0
  }
  convolution_param {
    num_output: 128
    kernel_size: 1
    weight_filler {
      type: "xavier"
    }
    bias_filler {
      type: "constant"
      value: 0.2
    }
  }
}
layer {
  name: "loss1/prelu_conv"
  type: "PReLU"
  bottom: "loss1/conv"
  top: "loss1/conv"
  param {
    lr_mult: 1
    decay_mult: 0
  }
  prelu_param {
    filler {
      type: "constant"
      value: 0.01
    }
  }
}
layer {
  name: "loss1/fc"
  type: "InnerProduct"
  bottom: "loss1/conv"
  top: "loss1/fc"
  param {
    lr_mult: 1
    decay_mult: 1
  }
  param {
    lr_mult: 2
    decay_mult: 0
  }
  inner_product_param {
    num_output: 1024
    weight_filler {
      type: "xavier"
    }
    bias_filler {
      type: "constant"
      value: 0.2
    }
  }
}
layer {
  name: "loss1/prelu_fc"
  type: "PReLU"
  bottom: "loss1/fc"
  top: "loss1/fc"
  param {
    lr_mult: 1
    decay_mult: 0
  }
  prelu_param {
    filler {
      type: "constant"
      value: 0.01
    }
  }
}
layer {
  name: "loss1/drop_fc"
  type: "Dropout"
  bottom: "loss1/fc"
  top: "loss1/fc"
  dropout_param {
    dropout_ratio: 0.7
  }
}
layer {
  name: "loss1/classifier2"
  type: "InnerProduct"
  bottom: "loss1/fc"
  top: "loss1/classifier"
  param {
    lr_mult: 1
    decay_mult: 1
  }
  param {
    lr_mult: 2
    decay_mult: 0
  }
  inner_product_param {
    num_output: 2
    weight_filler {
      type: "xavier"
    }
    bias_filler {
      type: "constant"
      value: 0
    }
  }
}
layer {
  name: "loss1/loss"
  type: "SoftmaxWithLoss"
  bottom: "loss1/classifier"
  bottom: "label"
  top: "loss1/loss1"
  loss_weight: 0.3
}
layer {
  name: "inception_4b/1x1"
  type: "Convolution"
  bottom: "inception_4a/output"
  top: "inception_4b/1x1"
  param {
    lr_mult: 1
    decay_mult: 1
  }
  param {
    lr_mult: 2
    decay_mult: 0
  }
  convolution_param {
    num_output: 160
    kernel_size: 1
    weight_filler {
      type: "xavier"
    }
    bias_filler {
      type: "constant"
      value: 0.2
    }
  }
}
layer {
  name: "inception_4b/prelu_1x1"
  type: "PReLU"
  bottom: "inception_4b/1x1"
  top: "inception_4b/1x1"
  param {
    lr_mult: 1
    decay_mult: 0
  }
  prelu_param {
    filler {
      type: "constant"
      value: 0.01
    }
  }
}
layer {
  name: "inception_4b/3x3_reduce"
  type: "Convolution"
  bottom: "inception_4a/output"
  top: "inception_4b/3x3_reduce"
  param {
    lr_mult: 1
    decay_mult: 1
  }
  param {
    lr_mult: 2
    decay_mult: 0
  }
  convolution_param {
    num_output: 112
    kernel_size: 1
    weight_filler {
      type: "xavier"
    }
    bias_filler {
      type: "constant"
      value: 0.2
    }
  }
}
layer {
  name: "inception_4b/prelu_3x3_reduce"
  type: "PReLU"
  bottom: "inception_4b/3x3_reduce"
  top: "inception_4b/3x3_reduce"
  param {
    lr_mult: 1
    decay_mult: 0
  }
  prelu_param {
    filler {
      type: "constant"
      value: 0.01
    }
  }
}
layer {
  name: "inception_4b/3x3"
  type: "Convolution"
  bottom: "inception_4b/3x3_reduce"
  top: "inception_4b/3x3"
  param {
    lr_mult: 1
    decay_mult: 1
  }
  param {
    lr_mult: 2
    decay_mult: 0
  }
  convolution_param {
    num_output: 224
    pad: 1
    kernel_size: 3
    weight_filler {
      type: "xavier"
    }
    bias_filler {
      type: "constant"
      value: 0.2
    }
  }
}
layer {
  name: "inception_4b/prelu_3x3"
  type: "PReLU"
  bottom: "inception_4b/3x3"
  top: "inception_4b/3x3"
  param {
    lr_mult: 1
    decay_mult: 0
  }
  prelu_param {
    filler {
      type: "constant"
      value: 0.01
    }
  }
}
layer {
  name: "inception_4b/5x5_reduce"
  type: "Convolution"
  bottom: "inception_4a/output"
  top: "inception_4b/5x5_reduce"
  param {
    lr_mult: 1
    decay_mult: 1
  }
  param {
    lr_mult: 2
    decay_mult: 0
  }
  convolution_param {
    num_output: 24
    kernel_size: 1
    weight_filler {
      type: "xavier"
    }
    bias_filler {
      type: "constant"
      value: 0.2
    }
  }
}
layer {
  name: "inception_4b/prelu_5x5_reduce"
  type: "PReLU"
  bottom: "inception_4b/5x5_reduce"
  top: "inception_4b/5x5_reduce"
  param {
    lr_mult: 1
    decay_mult: 0
  }
  prelu_param {
    filler {
      type: "constant"
      value: 0.01
    }
  }
}
layer {
  name: "inception_4b/5x5"
  type: "Convolution"
  bottom: "inception_4b/5x5_reduce"
  top: "inception_4b/5x5"
  param {
    lr_mult: 1
    decay_mult: 1
  }
  param {
    lr_mult: 2
    decay_mult: 0
  }
  convolution_param {
    num_output: 64
    pad: 2
    kernel_size: 5
    weight_filler {
      type: "xavier"
    }
    bias_filler {
      type: "constant"
      value: 0.2
    }
  }
}
layer {
  name: "inception_4b/prelu_5x5"
  type: "PReLU"
  bottom: "inception_4b/5x5"
  top: "inception_4b/5x5"
  param {
    lr_mult: 1
    decay_mult: 0
  }
  prelu_param {
    filler {
      type: "constant"
      value: 0.01
    }
  }
}
layer {
  name: "inception_4b/pool"
  type: "Pooling"
  bottom: "inception_4a/output"
  top: "inception_4b/pool"
  pooling_param {
    pool: MAX
    kernel_size: 3
    stride: 1
    pad: 1
  }
}
layer {
  name: "inception_4b/pool_proj"
  type: "Convolution"
  bottom: "inception_4b/pool"
  top: "inception_4b/pool_proj"
  param {
    lr_mult: 1
    decay_mult: 1
  }
  param {
    lr_mult: 2
    decay_mult: 0
  }
  convolution_param {
    num_output: 64
    kernel_size: 1
    weight_filler {
      type: "xavier"
    }
    bias_filler {
      type: "constant"
      value: 0.2
    }
  }
}
layer {
  name: "inception_4b/prelu_pool_proj"
  type: "PReLU"
  bottom: "inception_4b/pool_proj"
  top: "inception_4b/pool_proj"
  param {
    lr_mult: 1
    decay_mult: 0
  }
  prelu_param {
    filler {
      type: "constant"
      value: 0.01
    }
  }
}
layer {
  name: "inception_4b/output"
  type: "Concat"
  bottom: "inception_4b/1x1"
  bottom: "inception_4b/3x3"
  bottom: "inception_4b/5x5"
  bottom: "inception_4b/pool_proj"
  top: "inception_4b/output"
}
layer {
  name: "inception_4c/1x1"
  type: "Convolution"
  bottom: "inception_4b/output"
  top: "inception_4c/1x1"
  param {
    lr_mult: 1
    decay_mult: 1
  }
  param {
    lr_mult: 2
    decay_mult: 0
  }
  convolution_param {
    num_output: 128
    kernel_size: 1
    weight_filler {
      type: "xavier"
    }
    bias_filler {
      type: "constant"
      value: 0.2
    }
  }
}
layer {
  name: "inception_4c/prelu_1x1"
  type: "PReLU"
  bottom: "inception_4c/1x1"
  top: "inception_4c/1x1"
  param {
    lr_mult: 1
    decay_mult: 0
  }
  prelu_param {
    filler {
      type: "constant"
      value: 0.01
    }
  }
}
layer {
  name: "inception_4c/3x3_reduce"
  type: "Convolution"
  bottom: "inception_4b/output"
  top: "inception_4c/3x3_reduce"
  param {
    lr_mult: 1
    decay_mult: 1
  }
  param {
    lr_mult: 2
    decay_mult: 0
  }
  convolution_param {
    num_output: 128
    kernel_size: 1
    weight_filler {
      type: "xavier"
    }
    bias_filler {
      type: "constant"
      value: 0.2
    }
  }
}
layer {
  name: "inception_4c/prelu_3x3_reduce"
  type: "PReLU"
  bottom: "inception_4c/3x3_reduce"
  top: "inception_4c/3x3_reduce"
  param {
    lr_mult: 1
    decay_mult: 0
  }
  prelu_param {
    filler {
      type: "constant"
      value: 0.01
    }
  }
}
layer {
  name: "inception_4c/3x3"
  type: "Convolution"
  bottom: "inception_4c/3x3_reduce"
  top: "inception_4c/3x3"
  param {
    lr_mult: 1
    decay_mult: 1
  }
  param {
    lr_mult: 2
    decay_mult: 0
  }
  convolution_param {
    num_output: 256
    pad: 1
    kernel_size: 3
    weight_filler {
      type: "xavier"
    }
    bias_filler {
      type: "constant"
      value: 0.2
    }
  }
}
layer {
  name: "inception_4c/prelu_3x3"
  type: "PReLU"
  bottom: "inception_4c/3x3"
  top: "inception_4c/3x3"
  param {
    lr_mult: 1
    decay_mult: 0
  }
  prelu_param {
    filler {
      type: "constant"
      value: 0.01
    }
  }
}
layer {
  name: "inception_4c/5x5_reduce"
  type: "Convolution"
  bottom: "inception_4b/output"
  top: "inception_4c/5x5_reduce"
  param {
    lr_mult: 1
    decay_mult: 1
  }
  param {
    lr_mult: 2
    decay_mult: 0
  }
  convolution_param {
    num_output: 24
    kernel_size: 1
    weight_filler {
      type: "xavier"
    }
    bias_filler {
      type: "constant"
      value: 0.2
    }
  }
}
layer {
  name: "inception_4c/prelu_5x5_reduce"
  type: "PReLU"
  bottom: "inception_4c/5x5_reduce"
  top: "inception_4c/5x5_reduce"
  param {
    lr_mult: 1
    decay_mult: 0
  }
  prelu_param {
    filler {
      type: "constant"
      value: 0.01
    }
  }
}
layer {
  name: "inception_4c/5x5"
  type: "Convolution"
  bottom: "inception_4c/5x5_reduce"
  top: "inception_4c/5x5"
  param {
    lr_mult: 1
    decay_mult: 1
  }
  param {
    lr_mult: 2
    decay_mult: 0
  }
  convolution_param {
    num_output: 64
    pad: 2
    kernel_size: 5
    weight_filler {
      type: "xavier"
    }
    bias_filler {
      type: "constant"
      value: 0.2
    }
  }
}
layer {
  name: "inception_4c/prelu_5x5"
  type: "PReLU"
  bottom: "inception_4c/5x5"
  top: "inception_4c/5x5"
  param {
    lr_mult: 1
    decay_mult: 0
  }
  prelu_param {
    filler {
      type: "constant"
      value: 0.01
    }
  }
}
layer {
  name: "inception_4c/pool"
  type: "Pooling"
  bottom: "inception_4b/output"
  top: "inception_4c/pool"
  pooling_param {
    pool: MAX
    kernel_size: 3
    stride: 1
    pad: 1
  }
}
layer {
  name: "inception_4c/pool_proj"
  type: "Convolution"
  bottom: "inception_4c/pool"
  top: "inception_4c/pool_proj"
  param {
    lr_mult: 1
    decay_mult: 1
  }
  param {
    lr_mult: 2
    decay_mult: 0
  }
  convolution_param {
    num_output: 64
    kernel_size: 1
    weight_filler {
      type: "xavier"
    }
    bias_filler {
      type: "constant"
      value: 0.2
    }
  }
}
layer {
  name: "inception_4c/prelu_pool_proj"
  type: "PReLU"
  bottom: "inception_4c/pool_proj"
  top: "inception_4c/pool_proj"
  param {
    lr_mult: 1
    decay_mult: 0
  }
  prelu_param {
    filler {
      type: "constant"
      value: 0.01
    }
  }
}
layer {
  name: "inception_4c/output"
  type: "Concat"
  bottom: "inception_4c/1x1"
  bottom: "inception_4c/3x3"
  bottom: "inception_4c/5x5"
  bottom: "inception_4c/pool_proj"
  top: "inception_4c/output"
}
layer {
  name: "inception_4d/1x1"
  type: "Convolution"
  bottom: "inception_4c/output"
  top: "inception_4d/1x1"
  param {
    lr_mult: 1
    decay_mult: 1
  }
  param {
    lr_mult: 2
    decay_mult: 0
  }
  convolution_param {
    num_output: 112
    kernel_size: 1
    weight_filler {
      type: "xavier"
    }
    bias_filler {
      type: "constant"
      value: 0.2
    }
  }
}
layer {
  name: "inception_4d/prelu_1x1"
  type: "PReLU"
  bottom: "inception_4d/1x1"
  top: "inception_4d/1x1"
  param {
    lr_mult: 1
    decay_mult: 0
  }
  prelu_param {
    filler {
      type: "constant"
      value: 0.01
    }
  }
}
layer {
  name: "inception_4d/3x3_reduce"
  type: "Convolution"
  bottom: "inception_4c/output"
  top: "inception_4d/3x3_reduce"
  param {
    lr_mult: 1
    decay_mult: 1
  }
  param {
    lr_mult: 2
    decay_mult: 0
  }
  convolution_param {
    num_output: 144
    kernel_size: 1
    weight_filler {
      type: "xavier"
    }
    bias_filler {
      type: "constant"
      value: 0.2
    }
  }
}
layer {
  name: "inception_4d/prelu_3x3_reduce"
  type: "PReLU"
  bottom: "inception_4d/3x3_reduce"
  top: "inception_4d/3x3_reduce"
  param {
    lr_mult: 1
    decay_mult: 0
  }
  prelu_param {
    filler {
      type: "constant"
      value: 0.01
    }
  }
}
layer {
  name: "inception_4d/3x3"
  type: "Convolution"
  bottom: "inception_4d/3x3_reduce"
  top: "inception_4d/3x3"
  param {
    lr_mult: 1
    decay_mult: 1
  }
  param {
    lr_mult: 2
    decay_mult: 0
  }
  convolution_param {
    num_output: 288
    pad: 1
    kernel_size: 3
    weight_filler {
      type: "xavier"
    }
    bias_filler {
      type: "constant"
      value: 0.2
    }
  }
}
layer {
  name: "inception_4d/prelu_3x3"
  type: "PReLU"
  bottom: "inception_4d/3x3"
  top: "inception_4d/3x3"
  param {
    lr_mult: 1
    decay_mult: 0
  }
  prelu_param {
    filler {
      type: "constant"
      value: 0.01
    }
  }
}
layer {
  name: "inception_4d/5x5_reduce"
  type: "Convolution"
  bottom: "inception_4c/output"
  top: "inception_4d/5x5_reduce"
  param {
    lr_mult: 1
    decay_mult: 1
  }
  param {
    lr_mult: 2
    decay_mult: 0
  }
  convolution_param {
    num_output: 32
    kernel_size: 1
    weight_filler {
      type: "xavier"
    }
    bias_filler {
      type: "constant"
      value: 0.2
    }
  }
}
layer {
  name: "inception_4d/prelu_5x5_reduce"
  type: "PReLU"
  bottom: "inception_4d/5x5_reduce"
  top: "inception_4d/5x5_reduce"
  param {
    lr_mult: 1
    decay_mult: 0
  }
  prelu_param {
    filler {
      type: "constant"
      value: 0.01
    }
  }
}
layer {
  name: "inception_4d/5x5"
  type: "Convolution"
  bottom: "inception_4d/5x5_reduce"
  top: "inception_4d/5x5"
  param {
    lr_mult: 1
    decay_mult: 1
  }
  param {
    lr_mult: 2
    decay_mult: 0
  }
  convolution_param {
    num_output: 64
    pad: 2
    kernel_size: 5
    weight_filler {
      type: "xavier"
    }
    bias_filler {
      type: "constant"
      value: 0.2
    }
  }
}
layer {
  name: "inception_4d/prelu_5x5"
  type: "PReLU"
  bottom: "inception_4d/5x5"
  top: "inception_4d/5x5"
  param {
    lr_mult: 1
    decay_mult: 0
  }
  prelu_param {
    filler {
      type: "constant"
      value: 0.01
    }
  }
}
layer {
  name: "inception_4d/pool"
  type: "Pooling"
  bottom: "inception_4c/output"
  top: "inception_4d/pool"
  pooling_param {
    pool: MAX
    kernel_size: 3
    stride: 1
    pad: 1
  }
}
layer {
  name: "inception_4d/pool_proj"
  type: "Convolution"
  bottom: "ince
I1105 17:54:38.435001 24744 layer_factory.hpp:76] Creating layer data
I1105 17:54:38.435493 24744 net.cpp:106] Creating Layer data
I1105 17:54:38.435518 24744 net.cpp:411] data -> data
I1105 17:54:38.435554 24744 net.cpp:411] data -> label
I1105 17:54:38.438102 24750 db_lmdb.cpp:38] Opened lmdb ../../LMDB/train_9-lmdb
I1105 17:54:38.453892 24744 data_layer.cpp:41] output data size: 32,3,224,224
I1105 17:54:38.519471 24744 net.cpp:150] Setting up data
I1105 17:54:38.519520 24744 net.cpp:157] Top shape: 32 3 224 224 (4816896)
I1105 17:54:38.519528 24744 net.cpp:157] Top shape: 32 (32)
I1105 17:54:38.519533 24744 net.cpp:165] Memory required for data: 19267712
I1105 17:54:38.519544 24744 layer_factory.hpp:76] Creating layer label_data_1_split
I1105 17:54:38.519561 24744 net.cpp:106] Creating Layer label_data_1_split
I1105 17:54:38.519567 24744 net.cpp:454] label_data_1_split <- label
I1105 17:54:38.519584 24744 net.cpp:411] label_data_1_split -> label_data_1_split_0
I1105 17:54:38.519601 24744 net.cpp:411] label_data_1_split -> label_data_1_split_1
I1105 17:54:38.519609 24744 net.cpp:411] label_data_1_split -> label_data_1_split_2
I1105 17:54:38.519664 24744 net.cpp:150] Setting up label_data_1_split
I1105 17:54:38.519672 24744 net.cpp:157] Top shape: 32 (32)
I1105 17:54:38.519677 24744 net.cpp:157] Top shape: 32 (32)
I1105 17:54:38.519682 24744 net.cpp:157] Top shape: 32 (32)
I1105 17:54:38.519686 24744 net.cpp:165] Memory required for data: 19268096
I1105 17:54:38.519690 24744 layer_factory.hpp:76] Creating layer conv1/7x7_s2
I1105 17:54:38.519711 24744 net.cpp:106] Creating Layer conv1/7x7_s2
I1105 17:54:38.519716 24744 net.cpp:454] conv1/7x7_s2 <- data
I1105 17:54:38.519722 24744 net.cpp:411] conv1/7x7_s2 -> conv1/7x7_s2
I1105 17:54:38.733527 24744 cudnn_conv_layer.cpp:194] Reallocating workspace storage: 225816
I1105 17:54:38.733808 24744 net.cpp:150] Setting up conv1/7x7_s2
I1105 17:54:38.733831 24744 net.cpp:157] Top shape: 32 64 112 112 (25690112)
I1105 17:54:38.733837 24744 net.cpp:165] Memory required for data: 122028544
I1105 17:54:38.733856 24744 layer_factory.hpp:76] Creating layer conv1/prelu_7x7
I1105 17:54:38.733881 24744 net.cpp:106] Creating Layer conv1/prelu_7x7
I1105 17:54:38.733888 24744 net.cpp:454] conv1/prelu_7x7 <- conv1/7x7_s2
I1105 17:54:38.733896 24744 net.cpp:397] conv1/prelu_7x7 -> conv1/7x7_s2 (in-place)
I1105 17:54:38.735637 24744 net.cpp:150] Setting up conv1/prelu_7x7
I1105 17:54:38.735653 24744 net.cpp:157] Top shape: 32 64 112 112 (25690112)
I1105 17:54:38.735658 24744 net.cpp:165] Memory required for data: 224788992
I1105 17:54:38.735667 24744 layer_factory.hpp:76] Creating layer pool1/3x3_s2
I1105 17:54:38.735679 24744 net.cpp:106] Creating Layer pool1/3x3_s2
I1105 17:54:38.735685 24744 net.cpp:454] pool1/3x3_s2 <- conv1/7x7_s2
I1105 17:54:38.735692 24744 net.cpp:411] pool1/3x3_s2 -> pool1/3x3_s2
I1105 17:54:38.736094 24744 net.cpp:150] Setting up pool1/3x3_s2
I1105 17:54:38.736106 24744 net.cpp:157] Top shape: 32 64 56 56 (6422528)
I1105 17:54:38.736110 24744 net.cpp:165] Memory required for data: 250479104
I1105 17:54:38.736115 24744 layer_factory.hpp:76] Creating layer pool1/norm1
I1105 17:54:38.736127 24744 net.cpp:106] Creating Layer pool1/norm1
I1105 17:54:38.736132 24744 net.cpp:454] pool1/norm1 <- pool1/3x3_s2
I1105 17:54:38.736138 24744 net.cpp:411] pool1/norm1 -> pool1/norm1
I1105 17:54:38.736313 24744 net.cpp:150] Setting up pool1/norm1
I1105 17:54:38.736325 24744 net.cpp:157] Top shape: 32 64 56 56 (6422528)
I1105 17:54:38.736328 24744 net.cpp:165] Memory required for data: 276169216
I1105 17:54:38.736332 24744 layer_factory.hpp:76] Creating layer conv2/3x3_reduce
I1105 17:54:38.736342 24744 net.cpp:106] Creating Layer conv2/3x3_reduce
I1105 17:54:38.736347 24744 net.cpp:454] conv2/3x3_reduce <- pool1/norm1
I1105 17:54:38.736353 24744 net.cpp:411] conv2/3x3_reduce -> conv2/3x3_reduce
I1105 17:54:38.737797 24744 cudnn_conv_layer.cpp:194] Reallocating workspace storage: 63000
I1105 17:54:38.737820 24744 net.cpp:150] Setting up conv2/3x3_reduce
I1105 17:54:38.737828 24744 net.cpp:157] Top shape: 32 64 56 56 (6422528)
I1105 17:54:38.737833 24744 net.cpp:165] Memory required for data: 301859328
I1105 17:54:38.737841 24744 layer_factory.hpp:76] Creating layer conv2/prelu_3x3_reduce
I1105 17:54:38.737851 24744 net.cpp:106] Creating Layer conv2/prelu_3x3_reduce
I1105 17:54:38.737865 24744 net.cpp:454] conv2/prelu_3x3_reduce <- conv2/3x3_reduce
I1105 17:54:38.737871 24744 net.cpp:397] conv2/prelu_3x3_reduce -> conv2/3x3_reduce (in-place)
I1105 17:54:38.738490 24744 net.cpp:150] Setting up conv2/prelu_3x3_reduce
I1105 17:54:38.738502 24744 net.cpp:157] Top shape: 32 64 56 56 (6422528)
I1105 17:54:38.738507 24744 net.cpp:165] Memory required for data: 327549440
I1105 17:54:38.738512 24744 layer_factory.hpp:76] Creating layer conv2/3x3
I1105 17:54:38.738523 24744 net.cpp:106] Creating Layer conv2/3x3
I1105 17:54:38.738528 24744 net.cpp:454] conv2/3x3 <- conv2/3x3_reduce
I1105 17:54:38.738536 24744 net.cpp:411] conv2/3x3 -> conv2/3x3
I1105 17:54:38.740576 24744 cudnn_conv_layer.cpp:194] Reallocating workspace storage: 63000
I1105 17:54:38.740597 24744 net.cpp:150] Setting up conv2/3x3
I1105 17:54:38.740604 24744 net.cpp:157] Top shape: 32 192 56 56 (19267584)
I1105 17:54:38.740609 24744 net.cpp:165] Memory required for data: 404619776
I1105 17:54:38.740617 24744 layer_factory.hpp:76] Creating layer conv2/prelu_3x3
I1105 17:54:38.740625 24744 net.cpp:106] Creating Layer conv2/prelu_3x3
I1105 17:54:38.740638 24744 net.cpp:454] conv2/prelu_3x3 <- conv2/3x3
I1105 17:54:38.740645 24744 net.cpp:397] conv2/prelu_3x3 -> conv2/3x3 (in-place)
I1105 17:54:38.741807 24744 net.cpp:150] Setting up conv2/prelu_3x3
I1105 17:54:38.741822 24744 net.cpp:157] Top shape: 32 192 56 56 (19267584)
I1105 17:54:38.741827 24744 net.cpp:165] Memory required for data: 481690112
I1105 17:54:38.741853 24744 layer_factory.hpp:76] Creating layer conv2/norm2
I1105 17:54:38.741873 24744 net.cpp:106] Creating Layer conv2/norm2
I1105 17:54:38.741878 24744 net.cpp:454] conv2/norm2 <- conv2/3x3
I1105 17:54:38.741885 24744 net.cpp:411] conv2/norm2 -> conv2/norm2
I1105 17:54:38.742066 24744 net.cpp:150] Setting up conv2/norm2
I1105 17:54:38.742076 24744 net.cpp:157] Top shape: 32 192 56 56 (19267584)
I1105 17:54:38.742081 24744 net.cpp:165] Memory required for data: 558760448
I1105 17:54:38.742085 24744 layer_factory.hpp:76] Creating layer pool2/3x3_s2
I1105 17:54:38.742094 24744 net.cpp:106] Creating Layer pool2/3x3_s2
I1105 17:54:38.742099 24744 net.cpp:454] pool2/3x3_s2 <- conv2/norm2
I1105 17:54:38.742105 24744 net.cpp:411] pool2/3x3_s2 -> pool2/3x3_s2
I1105 17:54:38.742476 24744 net.cpp:150] Setting up pool2/3x3_s2
I1105 17:54:38.742487 24744 net.cpp:157] Top shape: 32 192 28 28 (4816896)
I1105 17:54:38.742499 24744 net.cpp:165] Memory required for data: 578028032
I1105 17:54:38.742504 24744 layer_factory.hpp:76] Creating layer pool2/3x3_s2_pool2/3x3_s2_0_split
I1105 17:54:38.742512 24744 net.cpp:106] Creating Layer pool2/3x3_s2_pool2/3x3_s2_0_split
I1105 17:54:38.742516 24744 net.cpp:454] pool2/3x3_s2_pool2/3x3_s2_0_split <- pool2/3x3_s2
I1105 17:54:38.742522 24744 net.cpp:411] pool2/3x3_s2_pool2/3x3_s2_0_split -> pool2/3x3_s2_pool2/3x3_s2_0_split_0
I1105 17:54:38.742537 24744 net.cpp:411] pool2/3x3_s2_pool2/3x3_s2_0_split -> pool2/3x3_s2_pool2/3x3_s2_0_split_1
I1105 17:54:38.742545 24744 net.cpp:411] pool2/3x3_s2_pool2/3x3_s2_0_split -> pool2/3x3_s2_pool2/3x3_s2_0_split_2
I1105 17:54:38.742552 24744 net.cpp:411] pool2/3x3_s2_pool2/3x3_s2_0_split -> pool2/3x3_s2_pool2/3x3_s2_0_split_3
I1105 17:54:38.742619 24744 net.cpp:150] Setting up pool2/3x3_s2_pool2/3x3_s2_0_split
I1105 17:54:38.742626 24744 net.cpp:157] Top shape: 32 192 28 28 (4816896)
I1105 17:54:38.742640 24744 net.cpp:157] Top shape: 32 192 28 28 (4816896)
I1105 17:54:38.742645 24744 net.cpp:157] Top shape: 32 192 28 28 (4816896)
I1105 17:54:38.742650 24744 net.cpp:157] Top shape: 32 192 28 28 (4816896)
I1105 17:54:38.742652 24744 net.cpp:165] Memory required for data: 655098368
I1105 17:54:38.742656 24744 layer_factory.hpp:76] Creating layer inception_3a/1x1
I1105 17:54:38.742666 24744 net.cpp:106] Creating Layer inception_3a/1x1
I1105 17:54:38.742678 24744 net.cpp:454] inception_3a/1x1 <- pool2/3x3_s2_pool2/3x3_s2_0_split_0
I1105 17:54:38.742686 24744 net.cpp:411] inception_3a/1x1 -> inception_3a/1x1
I1105 17:54:38.744272 24744 cudnn_conv_layer.cpp:194] Reallocating workspace storage: 20664
I1105 17:54:38.744307 24744 net.cpp:150] Setting up inception_3a/1x1
I1105 17:54:38.744315 24744 net.cpp:157] Top shape: 32 64 28 28 (1605632)
I1105 17:54:38.744319 24744 net.cpp:165] Memory required for data: 661520896
I1105 17:54:38.744328 24744 layer_factory.hpp:76] Creating layer inception_3a/prelu_1x1
I1105 17:54:38.744338 24744 net.cpp:106] Creating Layer inception_3a/prelu_1x1
I1105 17:54:38.744343 24744 net.cpp:454] inception_3a/prelu_1x1 <- inception_3a/1x1
I1105 17:54:38.744351 24744 net.cpp:397] inception_3a/prelu_1x1 -> inception_3a/1x1 (in-place)
I1105 17:54:38.744949 24744 net.cpp:150] Setting up inception_3a/prelu_1x1
I1105 17:54:38.744961 24744 net.cpp:157] Top shape: 32 64 28 28 (1605632)
I1105 17:54:38.744966 24744 net.cpp:165] Memory required for data: 667943424
I1105 17:54:38.744981 24744 layer_factory.hpp:76] Creating layer inception_3a/3x3_reduce
I1105 17:54:38.744992 24744 net.cpp:106] Creating Layer inception_3a/3x3_reduce
I1105 17:54:38.744997 24744 net.cpp:454] inception_3a/3x3_reduce <- pool2/3x3_s2_pool2/3x3_s2_0_split_1
I1105 17:54:38.745004 24744 net.cpp:411] inception_3a/3x3_reduce -> inception_3a/3x3_reduce
I1105 17:54:38.746070 24744 cudnn_conv_layer.cpp:194] Reallocating workspace storage: 20664
I1105 17:54:38.746094 24744 net.cpp:150] Setting up inception_3a/3x3_reduce
I1105 17:54:38.746103 24744 net.cpp:157] Top shape: 32 96 28 28 (2408448)
I1105 17:54:38.746106 24744 net.cpp:165] Memory required for data: 677577216
I1105 17:54:38.746126 24744 layer_factory.hpp:76] Creating layer inception_3a/prelu_3x3_reduce
I1105 17:54:38.746139 24744 net.cpp:106] Creating Layer inception_3a/prelu_3x3_reduce
I1105 17:54:38.746143 24744 net.cpp:454] inception_3a/prelu_3x3_reduce <- inception_3a/3x3_reduce
I1105 17:54:38.746150 24744 net.cpp:397] inception_3a/prelu_3x3_reduce -> inception_3a/3x3_reduce (in-place)
I1105 17:54:38.746282 24744 net.cpp:150] Setting up inception_3a/prelu_3x3_reduce
I1105 17:54:38.746292 24744 net.cpp:157] Top shape: 32 96 28 28 (2408448)
I1105 17:54:38.746296 24744 net.cpp:165] Memory required for data: 687211008
I1105 17:54:38.746301 24744 layer_factory.hpp:76] Creating layer inception_3a/3x3
I1105 17:54:38.746310 24744 net.cpp:106] Creating Layer inception_3a/3x3
I1105 17:54:38.746315 24744 net.cpp:454] inception_3a/3x3 <- inception_3a/3x3_reduce
I1105 17:54:38.746322 24744 net.cpp:411] inception_3a/3x3 -> inception_3a/3x3
I1105 17:54:38.748450 24744 cudnn_conv_layer.cpp:194] Reallocating workspace storage: 20664
I1105 17:54:38.748481 24744 net.cpp:150] Setting up inception_3a/3x3
I1105 17:54:38.748492 24744 net.cpp:157] Top shape: 32 128 28 28 (3211264)
I1105 17:54:38.748495 24744 net.cpp:165] Memory required for data: 700056064
I1105 17:54:38.748512 24744 layer_factory.hpp:76] Creating layer inception_3a/prelu_3x3
I1105 17:54:38.748524 24744 net.cpp:106] Creating Layer inception_3a/prelu_3x3
I1105 17:54:38.748530 24744 net.cpp:454] inception_3a/prelu_3x3 <- inception_3a/3x3
I1105 17:54:38.748538 24744 net.cpp:397] inception_3a/prelu_3x3 -> inception_3a/3x3 (in-place)
I1105 17:54:38.748698 24744 net.cpp:150] Setting up inception_3a/prelu_3x3
I1105 17:54:38.748708 24744 net.cpp:157] Top shape: 32 128 28 28 (3211264)
I1105 17:54:38.748713 24744 net.cpp:165] Memory required for data: 712901120
I1105 17:54:38.748718 24744 layer_factory.hpp:76] Creating layer inception_3a/5x5_reduce
I1105 17:54:38.748729 24744 net.cpp:106] Creating Layer inception_3a/5x5_reduce
I1105 17:54:38.748734 24744 net.cpp:454] inception_3a/5x5_reduce <- pool2/3x3_s2_pool2/3x3_s2_0_split_2
I1105 17:54:38.748741 24744 net.cpp:411] inception_3a/5x5_reduce -> inception_3a/5x5_reduce
I1105 17:54:38.750215 24744 cudnn_conv_layer.cpp:194] Reallocating workspace storage: 20664
I1105 17:54:38.750243 24744 net.cpp:150] Setting up inception_3a/5x5_reduce
I1105 17:54:38.750253 24744 net.cpp:157] Top shape: 32 16 28 28 (401408)
I1105 17:54:38.750258 24744 net.cpp:165] Memory required for data: 714506752
I1105 17:54:38.750267 24744 layer_factory.hpp:76] Creating layer inception_3a/prelu_5x5_reduce
I1105 17:54:38.750275 24744 net.cpp:106] Creating Layer inception_3a/prelu_5x5_reduce
I1105 17:54:38.750280 24744 net.cpp:454] inception_3a/prelu_5x5_reduce <- inception_3a/5x5_reduce
I1105 17:54:38.750299 24744 net.cpp:397] inception_3a/prelu_5x5_reduce -> inception_3a/5x5_reduce (in-place)
I1105 17:54:38.750396 24744 net.cpp:150] Setting up inception_3a/prelu_5x5_reduce
I1105 17:54:38.750406 24744 net.cpp:157] Top shape: 32 16 28 28 (401408)
I1105 17:54:38.750411 24744 net.cpp:165] Memory required for data: 716112384
I1105 17:54:38.750423 24744 layer_factory.hpp:76] Creating layer inception_3a/5x5
I1105 17:54:38.750440 24744 net.cpp:106] Creating Layer inception_3a/5x5
I1105 17:54:38.750444 24744 net.cpp:454] inception_3a/5x5 <- inception_3a/5x5_reduce
I1105 17:54:38.750452 24744 net.cpp:411] inception_3a/5x5 -> inception_3a/5x5
I1105 17:54:38.751552 24744 cudnn_conv_layer.cpp:194] Reallocating workspace storage: 20664
I1105 17:54:38.751572 24744 net.cpp:150] Setting up inception_3a/5x5
I1105 17:54:38.751579 24744 net.cpp:157] Top shape: 32 32 28 28 (802816)
I1105 17:54:38.751584 24744 net.cpp:165] Memory required for data: 719323648
I1105 17:54:38.751591 24744 layer_factory.hpp:76] Creating layer inception_3a/prelu_5x5
I1105 17:54:38.751601 24744 net.cpp:106] Creating Layer inception_3a/prelu_5x5
I1105 17:54:38.751606 24744 net.cpp:454] inception_3a/prelu_5x5 <- inception_3a/5x5
I1105 17:54:38.751613 24744 net.cpp:397] inception_3a/prelu_5x5 -> inception_3a/5x5 (in-place)
I1105 17:54:38.751724 24744 net.cpp:150] Setting up inception_3a/prelu_5x5
I1105 17:54:38.751734 24744 net.cpp:157] Top shape: 32 32 28 28 (802816)
I1105 17:54:38.751739 24744 net.cpp:165] Memory required for data: 722534912
I1105 17:54:38.751744 24744 layer_factory.hpp:76] Creating layer inception_3a/pool
I1105 17:54:38.751754 24744 net.cpp:106] Creating Layer inception_3a/pool
I1105 17:54:38.751759 24744 net.cpp:454] inception_3a/pool <- pool2/3x3_s2_pool2/3x3_s2_0_split_3
I1105 17:54:38.751765 24744 net.cpp:411] inception_3a/pool -> inception_3a/pool
I1105 17:54:38.751943 24744 net.cpp:150] Setting up inception_3a/pool
I1105 17:54:38.751955 24744 net.cpp:157] Top shape: 32 192 28 28 (4816896)
I1105 17:54:38.751958 24744 net.cpp:165] Memory required for data: 741802496
I1105 17:54:38.751962 24744 layer_factory.hpp:76] Creating layer inception_3a/pool_proj
I1105 17:54:38.751972 24744 net.cpp:106] Creating Layer inception_3a/pool_proj
I1105 17:54:38.751977 24744 net.cpp:454] inception_3a/pool_proj <- inception_3a/pool
I1105 17:54:38.751984 24744 net.cpp:411] inception_3a/pool_proj -> inception_3a/pool_proj
I1105 17:54:38.753003 24744 cudnn_conv_layer.cpp:194] Reallocating workspace storage: 20664
I1105 17:54:38.753022 24744 net.cpp:150] Setting up inception_3a/pool_proj
I1105 17:54:38.753031 24744 net.cpp:157] Top shape: 32 32 28 28 (802816)
I1105 17:54:38.753034 24744 net.cpp:165] Memory required for data: 745013760
I1105 17:54:38.753041 24744 layer_factory.hpp:76] Creating layer inception_3a/prelu_pool_proj
I1105 17:54:38.753052 24744 net.cpp:106] Creating Layer inception_3a/prelu_pool_proj
I1105 17:54:38.753058 24744 net.cpp:454] inception_3a/prelu_pool_proj <- inception_3a/pool_proj
I1105 17:54:38.753065 24744 net.cpp:397] inception_3a/prelu_pool_proj -> inception_3a/pool_proj (in-place)
I1105 17:54:38.753170 24744 net.cpp:150] Setting up inception_3a/prelu_pool_proj
I1105 17:54:38.753180 24744 net.cpp:157] Top shape: 32 32 28 28 (802816)
I1105 17:54:38.753185 24744 net.cpp:165] Memory required for data: 748225024
I1105 17:54:38.753190 24744 layer_factory.hpp:76] Creating layer inception_3a/output
I1105 17:54:38.753203 24744 net.cpp:106] Creating Layer inception_3a/output
I1105 17:54:38.753208 24744 net.cpp:454] inception_3a/output <- inception_3a/1x1
I1105 17:54:38.753214 24744 net.cpp:454] inception_3a/output <- inception_3a/3x3
I1105 17:54:38.753218 24744 net.cpp:454] inception_3a/output <- inception_3a/5x5
I1105 17:54:38.753223 24744 net.cpp:454] inception_3a/output <- inception_3a/pool_proj
I1105 17:54:38.753228 24744 net.cpp:411] inception_3a/output -> inception_3a/output
I1105 17:54:38.753255 24744 net.cpp:150] Setting up inception_3a/output
I1105 17:54:38.753264 24744 net.cpp:157] Top shape: 32 256 28 28 (6422528)
I1105 17:54:38.753268 24744 net.cpp:165] Memory required for data: 773915136
I1105 17:54:38.753273 24744 layer_factory.hpp:76] Creating layer inception_3a/output_inception_3a/output_0_split
I1105 17:54:38.753278 24744 net.cpp:106] Creating Layer inception_3a/output_inception_3a/output_0_split
I1105 17:54:38.753283 24744 net.cpp:454] inception_3a/output_inception_3a/output_0_split <- inception_3a/output
I1105 17:54:38.753289 24744 net.cpp:411] inception_3a/output_inception_3a/output_0_split -> inception_3a/output_inception_3a/output_0_split_0
I1105 17:54:38.753296 24744 net.cpp:411] inception_3a/output_inception_3a/output_0_split -> inception_3a/output_inception_3a/output_0_split_1
I1105 17:54:38.753304 24744 net.cpp:411] inception_3a/output_inception_3a/output_0_split -> inception_3a/output_inception_3a/output_0_split_2
I1105 17:54:38.753310 24744 net.cpp:411] inception_3a/output_inception_3a/output_0_split -> inception_3a/output_inception_3a/output_0_split_3
I1105 17:54:38.753362 24744 net.cpp:150] Setting up inception_3a/output_inception_3a/output_0_split
I1105 17:54:38.753371 24744 net.cpp:157] Top shape: 32 256 28 28 (6422528)
I1105 17:54:38.753378 24744 net.cpp:157] Top shape: 32 256 28 28 (6422528)
I1105 17:54:38.753383 24744 net.cpp:157] Top shape: 32 256 28 28 (6422528)
I1105 17:54:38.753399 24744 net.cpp:157] Top shape: 32 256 28 28 (6422528)
I1105 17:54:38.753403 24744 net.cpp:165] Memory required for data: 876675584
I1105 17:54:38.753407 24744 layer_factory.hpp:76] Creating layer inception_3b/1x1
I1105 17:54:38.753415 24744 net.cpp:106] Creating Layer inception_3b/1x1
I1105 17:54:38.753420 24744 net.cpp:454] inception_3b/1x1 <- inception_3a/output_inception_3a/output_0_split_0
I1105 17:54:38.753427 24744 net.cpp:411] inception_3b/1x1 -> inception_3b/1x1
I1105 17:54:38.754600 24744 cudnn_conv_layer.cpp:194] Reallocating workspace storage: 20664
I1105 17:54:38.754619 24744 net.cpp:150] Setting up inception_3b/1x1
I1105 17:54:38.754627 24744 net.cpp:157] Top shape: 32 128 28 28 (3211264)
I1105 17:54:38.754633 24744 net.cpp:165] Memory required for data: 889520640
I1105 17:54:38.754640 24744 layer_factory.hpp:76] Creating layer inception_3b/prelu_1x1
I1105 17:54:38.754657 24744 net.cpp:106] Creating Layer inception_3b/prelu_1x1
I1105 17:54:38.754662 24744 net.cpp:454] inception_3b/prelu_1x1 <- inception_3b/1x1
I1105 17:54:38.754669 24744 net.cpp:397] inception_3b/prelu_1x1 -> inception_3b/1x1 (in-place)
I1105 17:54:38.755282 24744 net.cpp:150] Setting up inception_3b/prelu_1x1
I1105 17:54:38.755295 24744 net.cpp:157] Top shape: 32 128 28 28 (3211264)
I1105 17:54:38.755298 24744 net.cpp:165] Memory required for data: 902365696
I1105 17:54:38.755312 24744 layer_factory.hpp:76] Creating layer inception_3b/3x3_reduce
I1105 17:54:38.755321 24744 net.cpp:106] Creating Layer inception_3b/3x3_reduce
I1105 17:54:38.755327 24744 net.cpp:454] inception_3b/3x3_reduce <- inception_3a/output_inception_3a/output_0_split_1
I1105 17:54:38.755336 24744 net.cpp:411] inception_3b/3x3_reduce -> inception_3b/3x3_reduce
I1105 17:54:38.756505 24744 cudnn_conv_layer.cpp:194] Reallocating workspace storage: 20664
I1105 17:54:38.756527 24744 net.cpp:150] Setting up inception_3b/3x3_reduce
I1105 17:54:38.756536 24744 net.cpp:157] Top shape: 32 128 28 28 (3211264)
I1105 17:54:38.756541 24744 net.cpp:165] Memory required for data: 915210752
I1105 17:54:38.756546 24744 layer_factory.hpp:76] Creating layer inception_3b/prelu_3x3_reduce
I1105 17:54:38.756557 24744 net.cpp:106] Creating Layer inception_3b/prelu_3x3_reduce
I1105 17:54:38.756562 24744 net.cpp:454] inception_3b/prelu_3x3_reduce <- inception_3b/3x3_reduce
I1105 17:54:38.756569 24744 net.cpp:397] inception_3b/prelu_3x3_reduce -> inception_3b/3x3_reduce (in-place)
I1105 17:54:38.756688 24744 net.cpp:150] Setting up inception_3b/prelu_3x3_reduce
I1105 17:54:38.756697 24744 net.cpp:157] Top shape: 32 128 28 28 (3211264)
I1105 17:54:38.756701 24744 net.cpp:165] Memory required for data: 928055808
I1105 17:54:38.756714 24744 layer_factory.hpp:76] Creating layer inception_3b/3x3
I1105 17:54:38.756727 24744 net.cpp:106] Creating Layer inception_3b/3x3
I1105 17:54:38.756733 24744 net.cpp:454] inception_3b/3x3 <- inception_3b/3x3_reduce
I1105 17:54:38.756742 24744 net.cpp:411] inception_3b/3x3 -> inception_3b/3x3
I1105 17:54:38.759436 24744 cudnn_conv_layer.cpp:194] Reallocating workspace storage: 20664
I1105 17:54:38.759456 24744 net.cpp:150] Setting up inception_3b/3x3
I1105 17:54:38.759475 24744 net.cpp:157] Top shape: 32 192 28 28 (4816896)
I1105 17:54:38.759480 24744 net.cpp:165] Memory required for data: 947323392
I1105 17:54:38.759487 24744 layer_factory.hpp:76] Creating layer inception_3b/prelu_3x3
I1105 17:54:38.759495 24744 net.cpp:106] Creating Layer inception_3b/prelu_3x3
I1105 17:54:38.759500 24744 net.cpp:454] inception_3b/prelu_3x3 <- inception_3b/3x3
I1105 17:54:38.759507 24744 net.cpp:397] inception_3b/prelu_3x3 -> inception_3b/3x3 (in-place)
I1105 17:54:38.760143 24744 net.cpp:150] Setting up inception_3b/prelu_3x3
I1105 17:54:38.760156 24744 net.cpp:157] Top shape: 32 192 28 28 (4816896)
I1105 17:54:38.760160 24744 net.cpp:165] Memory required for data: 966590976
I1105 17:54:38.760166 24744 layer_factory.hpp:76] Creating layer inception_3b/5x5_reduce
I1105 17:54:38.760185 24744 net.cpp:106] Creating Layer inception_3b/5x5_reduce
I1105 17:54:38.760191 24744 net.cpp:454] inception_3b/5x5_reduce <- inception_3a/output_inception_3a/output_0_split_2
I1105 17:54:38.760211 24744 net.cpp:411] inception_3b/5x5_reduce -> inception_3b/5x5_reduce
I1105 17:54:38.761224 24744 cudnn_conv_layer.cpp:194] Reallocating workspace storage: 20664
I1105 17:54:38.761246 24744 net.cpp:150] Setting up inception_3b/5x5_reduce
I1105 17:54:38.761270 24744 net.cpp:157] Top shape: 32 32 28 28 (802816)
I1105 17:54:38.761275 24744 net.cpp:165] Memory required for data: 969802240
I1105 17:54:38.761281 24744 layer_factory.hpp:76] Creating layer inception_3b/prelu_5x5_reduce
I1105 17:54:38.761291 24744 net.cpp:106] Creating Layer inception_3b/prelu_5x5_reduce
I1105 17:54:38.761296 24744 net.cpp:454] inception_3b/prelu_5x5_reduce <- inception_3b/5x5_reduce
I1105 17:54:38.761304 24744 net.cpp:397] inception_3b/prelu_5x5_reduce -> inception_3b/5x5_reduce (in-place)
I1105 17:54:38.761415 24744 net.cpp:150] Setting up inception_3b/prelu_5x5_reduce
I1105 17:54:38.761425 24744 net.cpp:157] Top shape: 32 32 28 28 (802816)
I1105 17:54:38.761428 24744 net.cpp:165] Memory required for data: 973013504
I1105 17:54:38.761435 24744 layer_factory.hpp:76] Creating layer inception_3b/5x5
I1105 17:54:38.761445 24744 net.cpp:106] Creating Layer inception_3b/5x5
I1105 17:54:38.761450 24744 net.cpp:454] inception_3b/5x5 <- inception_3b/5x5_reduce
I1105 17:54:38.761456 24744 net.cpp:411] inception_3b/5x5 -> inception_3b/5x5
I1105 17:54:38.763083 24744 cudnn_conv_layer.cpp:194] Reallocating workspace storage: 20664
I1105 17:54:38.763116 24744 net.cpp:150] Setting up inception_3b/5x5
I1105 17:54:38.763125 24744 net.cpp:157] Top shape: 32 96 28 28 (2408448)
I1105 17:54:38.763129 24744 net.cpp:165] Memory required for data: 982647296
I1105 17:54:38.763136 24744 layer_factory.hpp:76] Creating layer inception_3b/prelu_5x5
I1105 17:54:38.763145 24744 net.cpp:106] Creating Layer inception_3b/prelu_5x5
I1105 17:54:38.763150 24744 net.cpp:454] inception_3b/prelu_5x5 <- inception_3b/5x5
I1105 17:54:38.763159 24744 net.cpp:397] inception_3b/prelu_5x5 -> inception_3b/5x5 (in-place)
I1105 17:54:38.763320 24744 net.cpp:150] Setting up inception_3b/prelu_5x5
I1105 17:54:38.763334 24744 net.cpp:157] Top shape: 32 96 28 28 (2408448)
I1105 17:54:38.763341 24744 net.cpp:165] Memory required for data: 992281088
I1105 17:54:38.763362 24744 layer_factory.hpp:76] Creating layer inception_3b/pool
I1105 17:54:38.763375 24744 net.cpp:106] Creating Layer inception_3b/pool
I1105 17:54:38.763383 24744 net.cpp:454] inception_3b/pool <- inception_3a/output_inception_3a/output_0_split_3
I1105 17:54:38.763391 24744 net.cpp:411] inception_3b/pool -> inception_3b/pool
I1105 17:54:38.763806 24744 net.cpp:150] Setting up inception_3b/pool
I1105 17:54:38.763819 24744 net.cpp:157] Top shape: 32 256 28 28 (6422528)
I1105 17:54:38.763824 24744 net.cpp:165] Memory required for data: 1017971200
I1105 17:54:38.763828 24744 layer_factory.hpp:76] Creating layer inception_3b/pool_proj
I1105 17:54:38.763839 24744 net.cpp:106] Creating Layer inception_3b/pool_proj
I1105 17:54:38.763844 24744 net.cpp:454] inception_3b/pool_proj <- inception_3b/pool
I1105 17:54:38.763851 24744 net.cpp:411] inception_3b/pool_proj -> inception_3b/pool_proj
I1105 17:54:38.765064 24744 cudnn_conv_layer.cpp:194] Reallocating workspace storage: 20664
I1105 17:54:38.765111 24744 net.cpp:150] Setting up inception_3b/pool_proj
I1105 17:54:38.765125 24744 net.cpp:157] Top shape: 32 64 28 28 (1605632)
I1105 17:54:38.765132 24744 net.cpp:165] Memory required for data: 1024393728
I1105 17:54:38.765143 24744 layer_factory.hpp:76] Creating layer inception_3b/prelu_pool_proj
I1105 17:54:38.765156 24744 net.cpp:106] Creating Layer inception_3b/prelu_pool_proj
I1105 17:54:38.765163 24744 net.cpp:454] inception_3b/prelu_pool_proj <- inception_3b/pool_proj
I1105 17:54:38.765171 24744 net.cpp:397] inception_3b/prelu_pool_proj -> inception_3b/pool_proj (in-place)
I1105 17:54:38.765310 24744 net.cpp:150] Setting up inception_3b/prelu_pool_proj
I1105 17:54:38.765319 24744 net.cpp:157] Top shape: 32 64 28 28 (1605632)
I1105 17:54:38.765339 24744 net.cpp:165] Memory required for data: 1030816256
I1105 17:54:38.765346 24744 layer_factory.hpp:76] Creating layer inception_3b/output
I1105 17:54:38.765364 24744 net.cpp:106] Creating Layer inception_3b/output
I1105 17:54:38.765372 24744 net.cpp:454] inception_3b/output <- inception_3b/1x1
I1105 17:54:38.765377 24744 net.cpp:454] inception_3b/output <- inception_3b/3x3
I1105 17:54:38.765382 24744 net.cpp:454] inception_3b/output <- inception_3b/5x5
I1105 17:54:38.765386 24744 net.cpp:454] inception_3b/output <- inception_3b/pool_proj
I1105 17:54:38.765391 24744 net.cpp:411] inception_3b/output -> inception_3b/output
I1105 17:54:38.765419 24744 net.cpp:150] Setting up inception_3b/output
I1105 17:54:38.765437 24744 net.cpp:157] Top shape: 32 480 28 28 (12042240)
I1105 17:54:38.765455 24744 net.cpp:165] Memory required for data: 1078985216
I1105 17:54:38.765471 24744 layer_factory.hpp:76] Creating layer pool3/3x3_s2
I1105 17:54:38.765480 24744 net.cpp:106] Creating Layer pool3/3x3_s2
I1105 17:54:38.765485 24744 net.cpp:454] pool3/3x3_s2 <- inception_3b/output
I1105 17:54:38.765491 24744 net.cpp:411] pool3/3x3_s2 -> pool3/3x3_s2
I1105 17:54:38.765893 24744 net.cpp:150] Setting up pool3/3x3_s2
I1105 17:54:38.765905 24744 net.cpp:157] Top shape: 32 480 14 14 (3010560)
I1105 17:54:38.765910 24744 net.cpp:165] Memory required for data: 1091027456
I1105 17:54:38.765915 24744 layer_factory.hpp:76] Creating layer pool3/3x3_s2_pool3/3x3_s2_0_split
I1105 17:54:38.765923 24744 net.cpp:106] Creating Layer pool3/3x3_s2_pool3/3x3_s2_0_split
I1105 17:54:38.765928 24744 net.cpp:454] pool3/3x3_s2_pool3/3x3_s2_0_split <- pool3/3x3_s2
I1105 17:54:38.765945 24744 net.cpp:411] pool3/3x3_s2_pool3/3x3_s2_0_split -> pool3/3x3_s2_pool3/3x3_s2_0_split_0
I1105 17:54:38.765954 24744 net.cpp:411] pool3/3x3_s2_pool3/3x3_s2_0_split -> pool3/3x3_s2_pool3/3x3_s2_0_split_1
I1105 17:54:38.765960 24744 net.cpp:411] pool3/3x3_s2_pool3/3x3_s2_0_split -> pool3/3x3_s2_pool3/3x3_s2_0_split_2
I1105 17:54:38.765966 24744 net.cpp:411] pool3/3x3_s2_pool3/3x3_s2_0_split -> pool3/3x3_s2_pool3/3x3_s2_0_split_3
I1105 17:54:38.766032 24744 net.cpp:150] Setting up pool3/3x3_s2_pool3/3x3_s2_0_split
I1105 17:54:38.766041 24744 net.cpp:157] Top shape: 32 480 14 14 (3010560)
I1105 17:54:38.766047 24744 net.cpp:157] Top shape: 32 480 14 14 (3010560)
I1105 17:54:38.766050 24744 net.cpp:157] Top shape: 32 480 14 14 (3010560)
I1105 17:54:38.766067 24744 net.cpp:157] Top shape: 32 480 14 14 (3010560)
I1105 17:54:38.766070 24744 net.cpp:165] Memory required for data: 1139196416
I1105 17:54:38.766074 24744 layer_factory.hpp:76] Creating layer inception_4a/1x1
I1105 17:54:38.766086 24744 net.cpp:106] Creating Layer inception_4a/1x1
I1105 17:54:38.766093 24744 net.cpp:454] inception_4a/1x1 <- pool3/3x3_s2_pool3/3x3_s2_0_split_0
I1105 17:54:38.766100 24744 net.cpp:411] inception_4a/1x1 -> inception_4a/1x1
I1105 17:54:38.768177 24744 cudnn_conv_layer.cpp:194] Reallocating workspace storage: 10080
I1105 17:54:38.768388 24744 net.cpp:150] Setting up inception_4a/1x1
I1105 17:54:38.768399 24744 net.cpp:157] Top shape: 32 192 14 14 (1204224)
I1105 17:54:38.768404 24744 net.cpp:165] Memory required for data: 1144013312
I1105 17:54:38.768411 24744 layer_factory.hpp:76] Creating layer inception_4a/prelu_1x1
I1105 17:54:38.768422 24744 net.cpp:106] Creating Layer inception_4a/prelu_1x1
I1105 17:54:38.768427 24744 net.cpp:454] inception_4a/prelu_1x1 <- inception_4a/1x1
I1105 17:54:38.768435 24744 net.cpp:397] inception_4a/prelu_1x1 -> inception_4a/1x1 (in-place)
I1105 17:54:38.769021 24744 net.cpp:150] Setting up inception_4a/prelu_1x1
I1105 17:54:38.769032 24744 net.cpp:157] Top shape: 32 192 14 14 (1204224)
I1105 17:54:38.769037 24744 net.cpp:165] Memory required for data: 1148830208
I1105 17:54:38.769044 24744 layer_factory.hpp:76] Creating layer inception_4a/3x3_reduce
I1105 17:54:38.769054 24744 net.cpp:106] Creating Layer inception_4a/3x3_reduce
I1105 17:54:38.769059 24744 net.cpp:454] inception_4a/3x3_reduce <- pool3/3x3_s2_pool3/3x3_s2_0_split_1
I1105 17:54:38.769085 24744 net.cpp:411] inception_4a/3x3_reduce -> inception_4a/3x3_reduce
I1105 17:54:38.770442 24744 cudnn_conv_layer.cpp:194] Reallocating workspace storage: 10080
I1105 17:54:38.770469 24744 net.cpp:150] Setting up inception_4a/3x3_reduce
I1105 17:54:38.770478 24744 net.cpp:157] Top shape: 32 96 14 14 (602112)
I1105 17:54:38.770481 24744 net.cpp:165] Memory required for data: 1151238656
I1105 17:54:38.770488 24744 layer_factory.hpp:76] Creating layer inception_4a/prelu_3x3_reduce
I1105 17:54:38.770505 24744 net.cpp:106] Creating Layer inception_4a/prelu_3x3_reduce
I1105 17:54:38.770510 24744 net.cpp:454] inception_4a/prelu_3x3_reduce <- inception_4a/3x3_reduce
I1105 17:54:38.770517 24744 net.cpp:397] inception_4a/prelu_3x3_reduce -> inception_4a/3x3_reduce (in-place)
I1105 17:54:38.770618 24744 net.cpp:150] Setting up inception_4a/prelu_3x3_reduce
I1105 17:54:38.770628 24744 net.cpp:157] Top shape: 32 96 14 14 (602112)
I1105 17:54:38.770632 24744 net.cpp:165] Memory required for data: 1153647104
I1105 17:54:38.770637 24744 layer_factory.hpp:76] Creating layer inception_4a/3x3
I1105 17:54:38.770647 24744 net.cpp:106] Creating Layer inception_4a/3x3
I1105 17:54:38.770651 24744 net.cpp:454] inception_4a/3x3 <- inception_4a/3x3_reduce
I1105 17:54:38.770658 24744 net.cpp:411] inception_4a/3x3 -> inception_4a/3x3
I1105 17:54:38.772943 24744 cudnn_conv_layer.cpp:194] Reallocating workspace storage: 10080
I1105 17:54:38.772966 24744 net.cpp:150] Setting up inception_4a/3x3
I1105 17:54:38.772974 24744 net.cpp:157] Top shape: 32 208 14 14 (1304576)
I1105 17:54:38.772977 24744 net.cpp:165] Memory required for data: 1158865408
I1105 17:54:38.772984 24744 layer_factory.hpp:76] Creating layer inception_4a/prelu_3x3
I1105 17:54:38.772994 24744 net.cpp:106] Creating Layer inception_4a/prelu_3x3
I1105 17:54:38.772999 24744 net.cpp:454] inception_4a/prelu_3x3 <- inception_4a/3x3
I1105 17:54:38.773005 24744 net.cpp:397] inception_4a/prelu_3x3 -> inception_4a/3x3 (in-place)
I1105 17:54:38.773113 24744 net.cpp:150] Setting up inception_4a/prelu_3x3
I1105 17:54:38.773123 24744 net.cpp:157] Top shape: 32 208 14 14 (1304576)
I1105 17:54:38.773126 24744 net.cpp:165] Memory required for data: 1164083712
I1105 17:54:38.773133 24744 layer_factory.hpp:76] Creating layer inception_4a/5x5_reduce
I1105 17:54:38.773141 24744 net.cpp:106] Creating Layer inception_4a/5x5_reduce
I1105 17:54:38.773146 24744 net.cpp:454] inception_4a/5x5_reduce <- pool3/3x3_s2_pool3/3x3_s2_0_split_2
I1105 17:54:38.773154 24744 net.cpp:411] inception_4a/5x5_reduce -> inception_4a/5x5_reduce
I1105 17:54:38.774190 24744 cudnn_conv_layer.cpp:194] Reallocating workspace storage: 10080
I1105 17:54:38.774212 24744 net.cpp:150] Setting up inception_4a/5x5_reduce
I1105 17:54:38.774219 24744 net.cpp:157] Top shape: 32 16 14 14 (100352)
I1105 17:54:38.774224 24744 net.cpp:165] Memory required for data: 1164485120
I1105 17:54:38.774230 24744 layer_factory.hpp:76] Creating layer inception_4a/prelu_5x5_reduce
I1105 17:54:38.774240 24744 net.cpp:106] Creating Layer inception_4a/prelu_5x5_reduce
I1105 17:54:38.774243 24744 net.cpp:454] inception_4a/prelu_5x5_reduce <- inception_4a/5x5_reduce
I1105 17:54:38.774250 24744 net.cpp:397] inception_4a/prelu_5x5_reduce -> inception_4a/5x5_reduce (in-place)
I1105 17:54:38.774351 24744 net.cpp:150] Setting up inception_4a/prelu_5x5_reduce
I1105 17:54:38.774360 24744 net.cpp:157] Top shape: 32 16 14 14 (100352)
I1105 17:54:38.774364 24744 net.cpp:165] Memory required for data: 1164886528
I1105 17:54:38.774369 24744 layer_factory.hpp:76] Creating layer inception_4a/5x5
I1105 17:54:38.774379 24744 net.cpp:106] Creating Layer inception_4a/5x5
I1105 17:54:38.774384 24744 net.cpp:454] inception_4a/5x5 <- inception_4a/5x5_reduce
I1105 17:54:38.774392 24744 net.cpp:411] inception_4a/5x5 -> inception_4a/5x5
I1105 17:54:38.775516 24744 cudnn_conv_layer.cpp:194] Reallocating workspace storage: 13080
I1105 17:54:38.775539 24744 net.cpp:150] Setting up inception_4a/5x5
I1105 17:54:38.775547 24744 net.cpp:157] Top shape: 32 48 14 14 (301056)
I1105 17:54:38.775550 24744 net.cpp:165] Memory required for data: 1166090752
I1105 17:54:38.775569 24744 layer_factory.hpp:76] Creating layer inception_4a/prelu_5x5
I1105 17:54:38.775578 24744 net.cpp:106] Creating Layer inception_4a/prelu_5x5
I1105 17:54:38.775583 24744 net.cpp:454] inception_4a/prelu_5x5 <- inception_4a/5x5
I1105 17:54:38.775589 24744 net.cpp:397] inception_4a/prelu_5x5 -> inception_4a/5x5 (in-place)
I1105 17:54:38.775696 24744 net.cpp:150] Setting up inception_4a/prelu_5x5
I1105 17:54:38.775706 24744 net.cpp:157] Top shape: 32 48 14 14 (301056)
I1105 17:54:38.775709 24744 net.cpp:165] Memory required for data: 1167294976
I1105 17:54:38.775715 24744 layer_factory.hpp:76] Creating layer inception_4a/pool
I1105 17:54:38.775723 24744 net.cpp:106] Creating Layer inception_4a/pool
I1105 17:54:38.775728 24744 net.cpp:454] inception_4a/pool <- pool3/3x3_s2_pool3/3x3_s2_0_split_3
I1105 17:54:38.775733 24744 net.cpp:411] inception_4a/pool -> inception_4a/pool
I1105 17:54:38.776096 24744 net.cpp:150] Setting up inception_4a/pool
I1105 17:54:38.776108 24744 net.cpp:157] Top shape: 32 480 14 14 (3010560)
I1105 17:54:38.776113 24744 net.cpp:165] Memory required for data: 1179337216
I1105 17:54:38.776116 24744 layer_factory.hpp:76] Creating layer inception_4a/pool_proj
I1105 17:54:38.776125 24744 net.cpp:106] Creating Layer inception_4a/pool_proj
I1105 17:54:38.776130 24744 net.cpp:454] inception_4a/pool_proj <- inception_4a/pool
I1105 17:54:38.776139 24744 net.cpp:411] inception_4a/pool_proj -> inception_4a/pool_proj
I1105 17:54:38.777173 24744 cudnn_conv_layer.cpp:194] Reallocating workspace storage: 10080
I1105 17:54:38.777201 24744 net.cpp:150] Setting up inception_4a/pool_proj
I1105 17:54:38.777209 24744 net.cpp:157] Top shape: 32 64 14 14 (401408)
I1105 17:54:38.777212 24744 net.cpp:165] Memory required for data: 1180942848
I1105 17:54:38.777220 24744 layer_factory.hpp:76] Creating layer inception_4a/prelu_pool_proj
I1105 17:54:38.777226 24744 net.cpp:106] Creating Layer inception_4a/prelu_pool_proj
I1105 17:54:38.777231 24744 net.cpp:454] inception_4a/prelu_pool_proj <- inception_4a/pool_proj
I1105 17:54:38.777240 24744 net.cpp:397] inception_4a/prelu_pool_proj -> inception_4a/pool_proj (in-place)
I1105 17:54:38.777334 24744 net.cpp:150] Setting up inception_4a/prelu_pool_proj
I1105 17:54:38.777343 24744 net.cpp:157] Top shape: 32 64 14 14 (401408)
I1105 17:54:38.777348 24744 net.cpp:165] Memory required for data: 1182548480
I1105 17:54:38.777353 24744 layer_factory.hpp:76] Creating layer inception_4a/output
I1105 17:54:38.777359 24744 net.cpp:106] Creating Layer inception_4a/output
I1105 17:54:38.777364 24744 net.cpp:454] inception_4a/output <- inception_4a/1x1
I1105 17:54:38.777369 24744 net.cpp:454] inception_4a/output <- inception_4a/3x3
I1105 17:54:38.777374 24744 net.cpp:454] inception_4a/output <- inception_4a/5x5
I1105 17:54:38.777379 24744 net.cpp:454] inception_4a/output <- inception_4a/pool_proj
I1105 17:54:38.777384 24744 net.cpp:411] inception_4a/output -> inception_4a/output
I1105 17:54:38.777408 24744 net.cpp:150] Setting up inception_4a/output
I1105 17:54:38.777418 24744 net.cpp:157] Top shape: 32 512 14 14 (3211264)
I1105 17:54:38.777422 24744 net.cpp:165] Memory required for data: 1195393536
I1105 17:54:38.777433 24744 layer_factory.hpp:76] Creating layer inception_4a/output_inception_4a/output_0_split
I1105 17:54:38.777441 24744 net.cpp:106] Creating Layer inception_4a/output_inception_4a/output_0_split
I1105 17:54:38.777453 24744 net.cpp:454] inception_4a/output_inception_4a/output_0_split <- inception_4a/output
I1105 17:54:38.777459 24744 net.cpp:411] inception_4a/output_inception_4a/output_0_split -> inception_4a/output_inception_4a/output_0_split_0
I1105 17:54:38.777467 24744 net.cpp:411] inception_4a/output_inception_4a/output_0_split -> inception_4a/output_inception_4a/output_0_split_1
I1105 17:54:38.777482 24744 net.cpp:411] inception_4a/output_inception_4a/output_0_split -> inception_4a/output_inception_4a/output_0_split_2
I1105 17:54:38.777490 24744 net.cpp:411] inception_4a/output_inception_4a/output_0_split -> inception_4a/output_inception_4a/output_0_split_3
I1105 17:54:38.777516 24744 net.cpp:411] inception_4a/output_inception_4a/output_0_split -> inception_4a/output_inception_4a/output_0_split_4
I1105 17:54:38.777618 24744 net.cpp:150] Setting up inception_4a/output_inception_4a/output_0_split
I1105 17:54:38.777627 24744 net.cpp:157] Top shape: 32 512 14 14 (3211264)
I1105 17:54:38.777632 24744 net.cpp:157] Top shape: 32 512 14 14 (3211264)
I1105 17:54:38.777637 24744 net.cpp:157] Top shape: 32 512 14 14 (3211264)
I1105 17:54:38.777642 24744 net.cpp:157] Top shape: 32 512 14 14 (3211264)
I1105 17:54:38.777647 24744 net.cpp:157] Top shape: 32 512 14 14 (3211264)
I1105 17:54:38.777650 24744 net.cpp:165] Memory required for data: 1259618816
I1105 17:54:38.777654 24744 layer_factory.hpp:76] Creating layer loss1/ave_pool
I1105 17:54:38.777660 24744 net.cpp:106] Creating Layer loss1/ave_pool
I1105 17:54:38.777664 24744 net.cpp:454] loss1/ave_pool <- inception_4a/output_inception_4a/output_0_split_0
I1105 17:54:38.777670 24744 net.cpp:411] loss1/ave_pool -> loss1/ave_pool
I1105 17:54:38.778035 24744 net.cpp:150] Setting up loss1/ave_pool
I1105 17:54:38.778046 24744 net.cpp:157] Top shape: 32 512 4 4 (262144)
I1105 17:54:38.778050 24744 net.cpp:165] Memory required for data: 1260667392
I1105 17:54:38.778055 24744 layer_factory.hpp:76] Creating layer loss1/conv
I1105 17:54:38.778064 24744 net.cpp:106] Creating Layer loss1/conv
I1105 17:54:38.778070 24744 net.cpp:454] loss1/conv <- loss1/ave_pool
I1105 17:54:38.778076 24744 net.cpp:411] loss1/conv -> loss1/conv
I1105 17:54:38.779464 24744 cudnn_conv_layer.cpp:194] Reallocating workspace storage: 6840
I1105 17:54:38.779489 24744 net.cpp:150] Setting up loss1/conv
I1105 17:54:38.779496 24744 net.cpp:157] Top shape: 32 128 4 4 (65536)
I1105 17:54:38.779500 24744 net.cpp:165] Memory required for data: 1260929536
I1105 17:54:38.779517 24744 layer_factory.hpp:76] Creating layer loss1/prelu_conv
I1105 17:54:38.779527 24744 net.cpp:106] Creating Layer loss1/prelu_conv
I1105 17:54:38.779532 24744 net.cpp:454] loss1/prelu_conv <- loss1/conv
I1105 17:54:38.779539 24744 net.cpp:397] loss1/prelu_conv -> loss1/conv (in-place)
I1105 17:54:38.779628 24744 net.cpp:150] Setting up loss1/prelu_conv
I1105 17:54:38.779638 24744 net.cpp:157] Top shape: 32 128 4 4 (65536)
I1105 17:54:38.779641 24744 net.cpp:165] Memory required for data: 1261191680
I1105 17:54:38.779647 24744 layer_factory.hpp:76] Creating layer loss1/fc
I1105 17:54:38.779659 24744 net.cpp:106] Creating Layer loss1/fc
I1105 17:54:38.779664 24744 net.cpp:454] loss1/fc <- loss1/conv
I1105 17:54:38.779672 24744 net.cpp:411] loss1/fc -> loss1/fc
I1105 17:54:38.794217 24744 net.cpp:150] Setting up loss1/fc
I1105 17:54:38.794260 24744 net.cpp:157] Top shape: 32 1024 (32768)
I1105 17:54:38.794266 24744 net.cpp:165] Memory required for data: 1261322752
I1105 17:54:38.794276 24744 layer_factory.hpp:76] Creating layer loss1/prelu_fc
I1105 17:54:38.794292 24744 net.cpp:106] Creating Layer loss1/prelu_fc
I1105 17:54:38.794298 24744 net.cpp:454] loss1/prelu_fc <- loss1/fc
I1105 17:54:38.794307 24744 net.cpp:397] loss1/prelu_fc -> loss1/fc (in-place)
I1105 17:54:38.794417 24744 net.cpp:150] Setting up loss1/prelu_fc
I1105 17:54:38.794425 24744 net.cpp:157] Top shape: 32 1024 (32768)
I1105 17:54:38.794430 24744 net.cpp:165] Memory required for data: 1261453824
I1105 17:54:38.794443 24744 layer_factory.hpp:76] Creating layer loss1/drop_fc
I1105 17:54:38.794463 24744 net.cpp:106] Creating Layer loss1/drop_fc
I1105 17:54:38.794477 24744 net.cpp:454] loss1/drop_fc <- loss1/fc
I1105 17:54:38.794483 24744 net.cpp:397] loss1/drop_fc -> loss1/fc (in-place)
I1105 17:54:38.794533 24744 net.cpp:150] Setting up loss1/drop_fc
I1105 17:54:38.794540 24744 net.cpp:157] Top shape: 32 1024 (32768)
I1105 17:54:38.794544 24744 net.cpp:165] Memory required for data: 1261584896
I1105 17:54:38.794558 24744 layer_factory.hpp:76] Creating layer loss1/classifier2
I1105 17:54:38.794566 24744 net.cpp:106] Creating Layer loss1/classifier2
I1105 17:54:38.794571 24744 net.cpp:454] loss1/classifier2 <- loss1/fc
I1105 17:54:38.794597 24744 net.cpp:411] loss1/classifier2 -> loss1/classifier
I1105 17:54:38.794721 24744 net.cpp:150] Setting up loss1/classifier2
I1105 17:54:38.794731 24744 net.cpp:157] Top shape: 32 2 (64)
I1105 17:54:38.794742 24744 net.cpp:165] Memory required for data: 1261585152
I1105 17:54:38.794750 24744 layer_factory.hpp:76] Creating layer loss1/loss
I1105 17:54:38.794759 24744 net.cpp:106] Creating Layer loss1/loss
I1105 17:54:38.794764 24744 net.cpp:454] loss1/loss <- loss1/classifier
I1105 17:54:38.794770 24744 net.cpp:454] loss1/loss <- label_data_1_split_0
I1105 17:54:38.794775 24744 net.cpp:411] loss1/loss -> loss1/loss1
I1105 17:54:38.794790 24744 layer_factory.hpp:76] Creating layer loss1/loss
I1105 17:54:38.795111 24744 net.cpp:150] Setting up loss1/loss
I1105 17:54:38.795125 24744 net.cpp:157] Top shape: (1)
I1105 17:54:38.795131 24744 net.cpp:160]     with loss weight 0.3
I1105 17:54:38.795172 24744 net.cpp:165] Memory required for data: 1261585156
I1105 17:54:38.795181 24744 layer_factory.hpp:76] Creating layer inception_4b/1x1
I1105 17:54:38.795193 24744 net.cpp:106] Creating Layer inception_4b/1x1
I1105 17:54:38.795203 24744 net.cpp:454] inception_4b/1x1 <- inception_4a/output_inception_4a/output_0_split_1
I1105 17:54:38.795212 24744 net.cpp:411] inception_4b/1x1 -> inception_4b/1x1
I1105 17:54:38.797107 24744 cudnn_conv_layer.cpp:194] Reallocating workspace storage: 10080
I1105 17:54:38.797142 24744 net.cpp:150] Setting up inception_4b/1x1
I1105 17:54:38.797152 24744 net.cpp:157] Top shape: 32 160 14 14 (1003520)
I1105 17:54:38.797157 24744 net.cpp:165] Memory required for data: 1265599236
I1105 17:54:38.797164 24744 layer_factory.hpp:76] Creating layer inception_4b/prelu_1x1
I1105 17:54:38.797174 24744 net.cpp:106] Creating Layer inception_4b/prelu_1x1
I1105 17:54:38.797179 24744 net.cpp:454] inception_4b/prelu_1x1 <- inception_4b/1x1
I1105 17:54:38.797186 24744 net.cpp:397] inception_4b/prelu_1x1 -> inception_4b/1x1 (in-place)
I1105 17:54:38.797847 24744 net.cpp:150] Setting up inception_4b/prelu_1x1
I1105 17:54:38.797863 24744 net.cpp:157] Top shape: 32 160 14 14 (1003520)
I1105 17:54:38.797868 24744 net.cpp:165] Memory required for data: 1269613316
I1105 17:54:38.797874 24744 layer_factory.hpp:76] Creating layer inception_4b/3x3_reduce
I1105 17:54:38.797888 24744 net.cpp:106] Creating Layer inception_4b/3x3_reduce
I1105 17:54:38.797904 24744 net.cpp:454] inception_4b/3x3_reduce <- inception_4a/output_inception_4a/output_0_split_2
I1105 17:54:38.797914 24744 net.cpp:411] inception_4b/3x3_reduce -> inception_4b/3x3_reduce
I1105 17:54:38.799629 24744 cudnn_conv_layer.cpp:194] Reallocating workspace storage: 10080
I1105 17:54:38.799669 24744 net.cpp:150] Setting up inception_4b/3x3_reduce
I1105 17:54:38.799677 24744 net.cpp:157] Top shape: 32 112 14 14 (702464)
I1105 17:54:38.799681 24744 net.cpp:165] Memory required for data: 1272423172
I1105 17:54:38.799690 24744 layer_factory.hpp:76] Creating layer inception_4b/prelu_3x3_reduce
I1105 17:54:38.799705 24744 net.cpp:106] Creating Layer inception_4b/prelu_3x3_reduce
I1105 17:54:38.799711 24744 net.cpp:454] inception_4b/prelu_3x3_reduce <- inception_4b/3x3_reduce
I1105 17:54:38.799718 24744 net.cpp:397] inception_4b/prelu_3x3_reduce -> inception_4b/3x3_reduce (in-place)
I1105 17:54:38.799826 24744 net.cpp:150] Setting up inception_4b/prelu_3x3_reduce
I1105 17:54:38.799836 24744 net.cpp:157] Top shape: 32 112 14 14 (702464)
I1105 17:54:38.799840 24744 net.cpp:165] Memory required for data: 1275233028
I1105 17:54:38.799846 24744 layer_factory.hpp:76] Creating layer inception_4b/3x3
I1105 17:54:38.799856 24744 net.cpp:106] Creating Layer inception_4b/3x3
I1105 17:54:38.799861 24744 net.cpp:454] inception_4b/3x3 <- inception_4b/3x3_reduce
I1105 17:54:38.799870 24744 net.cpp:411] inception_4b/3x3 -> inception_4b/3x3
I1105 17:54:38.802726 24744 cudnn_conv_layer.cpp:194] Reallocating workspace storage: 10080
I1105 17:54:38.802757 24744 net.cpp:150] Setting up inception_4b/3x3
I1105 17:54:38.802767 24744 net.cpp:157] Top shape: 32 224 14 14 (1404928)
I1105 17:54:38.802800 24744 net.cpp:165] Memory required for data: 1280852740
I1105 17:54:38.802810 24744 layer_factory.hpp:76] Creating layer inception_4b/prelu_3x3
I1105 17:54:38.802819 24744 net.cpp:106] Creating Layer inception_4b/prelu_3x3
I1105 17:54:38.802824 24744 net.cpp:454] inception_4b/prelu_3x3 <- inception_4b/3x3
I1105 17:54:38.802832 24744 net.cpp:397] inception_4b/prelu_3x3 -> inception_4b/3x3 (in-place)
I1105 17:54:38.802968 24744 net.cpp:150] Setting up inception_4b/prelu_3x3
I1105 17:54:38.802978 24744 net.cpp:157] Top shape: 32 224 14 14 (1404928)
I1105 17:54:38.802981 24744 net.cpp:165] Memory required for data: 1286472452
I1105 17:54:38.802988 24744 layer_factory.hpp:76] Creating layer inception_4b/5x5_reduce
I1105 17:54:38.802997 24744 net.cpp:106] Creating Layer inception_4b/5x5_reduce
I1105 17:54:38.803002 24744 net.cpp:454] inception_4b/5x5_reduce <- inception_4a/output_inception_4a/output_0_split_3
I1105 17:54:38.803009 24744 net.cpp:411] inception_4b/5x5_reduce -> inception_4b/5x5_reduce
I1105 17:54:38.803925 24744 cudnn_conv_layer.cpp:194] Reallocating workspace storage: 10080
I1105 17:54:38.803951 24744 net.cpp:150] Setting up inception_4b/5x5_reduce
I1105 17:54:38.803957 24744 net.cpp:157] Top shape: 32 24 14 14 (150528)
I1105 17:54:38.803961 24744 net.cpp:165] Memory required for data: 1287074564
I1105 17:54:38.803968 24744 layer_factory.hpp:76] Creating layer inception_4b/prelu_5x5_reduce
I1105 17:54:38.803977 24744 net.cpp:106] Creating Layer inception_4b/prelu_5x5_reduce
I1105 17:54:38.803990 24744 net.cpp:454] inception_4b/prelu_5x5_reduce <- inception_4b/5x5_reduce
I1105 17:54:38.803997 24744 net.cpp:397] inception_4b/prelu_5x5_reduce -> inception_4b/5x5_reduce (in-place)
I1105 17:54:38.804096 24744 net.cpp:150] Setting up inception_4b/prelu_5x5_reduce
I1105 17:54:38.804105 24744 net.cpp:157] Top shape: 32 24 14 14 (150528)
I1105 17:54:38.804110 24744 net.cpp:165] Memory required for data: 1287676676
I1105 17:54:38.804114 24744 layer_factory.hpp:76] Creating layer inception_4b/5x5
I1105 17:54:38.804123 24744 net.cpp:106] Creating Layer inception_4b/5x5
I1105 17:54:38.804127 24744 net.cpp:454] inception_4b/5x5 <- inception_4b/5x5_reduce
I1105 17:54:38.804143 24744 net.cpp:411] inception_4b/5x5 -> inception_4b/5x5
I1105 17:54:38.805376 24744 cudnn_conv_layer.cpp:194] Reallocating workspace storage: 13080
I1105 17:54:38.805400 24744 net.cpp:150] Setting up inception_4b/5x5
I1105 17:54:38.805408 24744 net.cpp:157] Top shape: 32 64 14 14 (401408)
I1105 17:54:38.805411 24744 net.cpp:165] Memory required for data: 1289282308
I1105 17:54:38.805426 24744 layer_factory.hpp:76] Creating layer inception_4b/prelu_5x5
I1105 17:54:38.805435 24744 net.cpp:106] Creating Layer inception_4b/prelu_5x5
I1105 17:54:38.805440 24744 net.cpp:454] inception_4b/prelu_5x5 <- inception_4b/5x5
I1105 17:54:38.805446 24744 net.cpp:397] inception_4b/prelu_5x5 -> inception_4b/5x5 (in-place)
I1105 17:54:38.805568 24744 net.cpp:150] Setting up inception_4b/prelu_5x5
I1105 17:54:38.805577 24744 net.cpp:157] Top shape: 32 64 14 14 (401408)
I1105 17:54:38.805582 24744 net.cpp:165] Memory required for data: 1290887940
I1105 17:54:38.805594 24744 layer_factory.hpp:76] Creating layer inception_4b/pool
I1105 17:54:38.805604 24744 net.cpp:106] Creating Layer inception_4b/pool
I1105 17:54:38.805610 24744 net.cpp:454] inception_4b/pool <- inception_4a/output_inception_4a/output_0_split_4
I1105 17:54:38.805616 24744 net.cpp:411] inception_4b/pool -> inception_4b/pool
I1105 17:54:38.806010 24744 net.cpp:150] Setting up inception_4b/pool
I1105 17:54:38.806021 24744 net.cpp:157] Top shape: 32 512 14 14 (3211264)
I1105 17:54:38.806026 24744 net.cpp:165] Memory required for data: 1303732996
I1105 17:54:38.806030 24744 layer_factory.hpp:76] Creating layer inception_4b/pool_proj
I1105 17:54:38.806041 24744 net.cpp:106] Creating Layer inception_4b/pool_proj
I1105 17:54:38.806046 24744 net.cpp:454] inception_4b/pool_proj <- inception_4b/pool
I1105 17:54:38.806052 24744 net.cpp:411] inception_4b/pool_proj -> inception_4b/pool_proj
I1105 17:54:38.807278 24744 cudnn_conv_layer.cpp:194] Reallocating workspace storage: 10080
I1105 17:54:38.807307 24744 net.cpp:150] Setting up inception_4b/pool_proj
I1105 17:54:38.807314 24744 net.cpp:157] Top shape: 32 64 14 14 (401408)
I1105 17:54:38.807318 24744 net.cpp:165] Memory required for data: 1305338628
I1105 17:54:38.807325 24744 layer_factory.hpp:76] Creating layer inception_4b/prelu_pool_proj
I1105 17:54:38.807334 24744 net.cpp:106] Creating Layer inception_4b/prelu_pool_proj
I1105 17:54:38.807339 24744 net.cpp:454] inception_4b/prelu_pool_proj <- inception_4b/pool_proj
I1105 17:54:38.807345 24744 net.cpp:397] inception_4b/prelu_pool_proj -> inception_4b/pool_proj (in-place)
I1105 17:54:38.807440 24744 net.cpp:150] Setting up inception_4b/prelu_pool_proj
I1105 17:54:38.807448 24744 net.cpp:157] Top shape: 32 64 14 14 (401408)
I1105 17:54:38.807452 24744 net.cpp:165] Memory required for data: 1306944260
I1105 17:54:38.807458 24744 layer_factory.hpp:76] Creating layer inception_4b/output
I1105 17:54:38.807464 24744 net.cpp:106] Creating Layer inception_4b/output
I1105 17:54:38.807468 24744 net.cpp:454] inception_4b/output <- inception_4b/1x1
I1105 17:54:38.807473 24744 net.cpp:454] inception_4b/output <- inception_4b/3x3
I1105 17:54:38.807478 24744 net.cpp:454] inception_4b/output <- inception_4b/5x5
I1105 17:54:38.807482 24744 net.cpp:454] inception_4b/output <- inception_4b/pool_proj
I1105 17:54:38.807490 24744 net.cpp:411] inception_4b/output -> inception_4b/output
I1105 17:54:38.807515 24744 net.cpp:150] Setting up inception_4b/output
I1105 17:54:38.807525 24744 net.cpp:157] Top shape: 32 512 14 14 (3211264)
I1105 17:54:38.807529 24744 net.cpp:165] Memory required for data: 1319789316
I1105 17:54:38.807533 24744 layer_factory.hpp:76] Creating layer inception_4b/output_inception_4b/output_0_split
I1105 17:54:38.807541 24744 net.cpp:106] Creating Layer inception_4b/output_inception_4b/output_0_split
I1105 17:54:38.807546 24744 net.cpp:454] inception_4b/output_inception_4b/output_0_split <- inception_4b/output
I1105 17:54:38.807551 24744 net.cpp:411] inception_4b/output_inception_4b/output_0_split -> inception_4b/output_inception_4b/output_0_split_0
I1105 17:54:38.807561 24744 net.cpp:411] inception_4b/output_inception_4b/output_0_split -> inception_4b/output_inception_4b/output_0_split_1
I1105 17:54:38.807570 24744 net.cpp:411] inception_4b/output_inception_4b/output_0_split -> inception_4b/output_inception_4b/output_0_split_2
I1105 17:54:38.807577 24744 net.cpp:411] inception_4b/output_inception_4b/output_0_split -> inception_4b/output_inception_4b/output_0_split_3
I1105 17:54:38.807634 24744 net.cpp:150] Setting up inception_4b/output_inception_4b/output_0_split
I1105 17:54:38.807643 24744 net.cpp:157] Top shape: 32 512 14 14 (3211264)
I1105 17:54:38.807648 24744 net.cpp:157] Top shape: 32 512 14 14 (3211264)
I1105 17:54:38.807653 24744 net.cpp:157] Top shape: 32 512 14 14 (3211264)
I1105 17:54:38.807657 24744 net.cpp:157] Top shape: 32 512 14 14 (3211264)
I1105 17:54:38.807662 24744 net.cpp:165] Memory required for data: 1371169540
I1105 17:54:38.807665 24744 layer_factory.hpp:76] Creating layer inception_4c/1x1
I1105 17:54:38.807672 24744 net.cpp:106] Creating Layer inception_4c/1x1
I1105 17:54:38.807677 24744 net.cpp:454] inception_4c/1x1 <- inception_4b/output_inception_4b/output_0_split_0
I1105 17:54:38.807684 24744 net.cpp:411] inception_4c/1x1 -> inception_4c/1x1
I1105 17:54:38.809351 24744 cudnn_conv_layer.cpp:194] Reallocating workspace storage: 10080
I1105 17:54:38.809376 24744 net.cpp:150] Setting up inception_4c/1x1
I1105 17:54:38.809383 24744 net.cpp:157] Top shape: 32 128 14 14 (802816)
I1105 17:54:38.809387 24744 net.cpp:165] Memory required for data: 1374380804
I1105 17:54:38.809394 24744 layer_factory.hpp:76] Creating layer inception_4c/prelu_1x1
I1105 17:54:38.809403 24744 net.cpp:106] Creating Layer inception_4c/prelu_1x1
I1105 17:54:38.809408 24744 net.cpp:454] inception_4c/prelu_1x1 <- inception_4c/1x1
I1105 17:54:38.809415 24744 net.cpp:397] inception_4c/prelu_1x1 -> inception_4c/1x1 (in-place)
I1105 17:54:38.809519 24744 net.cpp:150] Setting up inception_4c/prelu_1x1
I1105 17:54:38.809528 24744 net.cpp:157] Top shape: 32 128 14 14 (802816)
I1105 17:54:38.809532 24744 net.cpp:165] Memory required for data: 1377592068
I1105 17:54:38.809537 24744 layer_factory.hpp:76] Creating layer inception_4c/3x3_reduce
I1105 17:54:38.809546 24744 net.cpp:106] Creating Layer inception_4c/3x3_reduce
I1105 17:54:38.809551 24744 net.cpp:454] inception_4c/3x3_reduce <- inception_4b/output_inception_4b/output_0_split_1
I1105 17:54:38.809559 24744 net.cpp:411] inception_4c/3x3_reduce -> inception_4c/3x3_reduce
I1105 17:54:38.810977 24744 cudnn_conv_layer.cpp:194] Reallocating workspace storage: 10080
I1105 17:54:38.811000 24744 net.cpp:150] Setting up inception_4c/3x3_reduce
I1105 17:54:38.811007 24744 net.cpp:157] Top shape: 32 128 14 14 (802816)
I1105 17:54:38.811012 24744 net.cpp:165] Memory required for data: 1380803332
I1105 17:54:38.811019 24744 layer_factory.hpp:76] Creating layer inception_4c/prelu_3x3_reduce
I1105 17:54:38.811029 24744 net.cpp:106] Creating Layer inception_4c/prelu_3x3_reduce
I1105 17:54:38.811043 24744 net.cpp:454] inception_4c/prelu_3x3_reduce <- inception_4c/3x3_reduce
I1105 17:54:38.811051 24744 net.cpp:397] inception_4c/prelu_3x3_reduce -> inception_4c/3x3_reduce (in-place)
I1105 17:54:38.811154 24744 net.cpp:150] Setting up inception_4c/prelu_3x3_reduce
I1105 17:54:38.811164 24744 net.cpp:157] Top shape: 32 128 14 14 (802816)
I1105 17:54:38.811168 24744 net.cpp:165] Memory required for data: 1384014596
I1105 17:54:38.811173 24744 layer_factory.hpp:76] Creating layer inception_4c/3x3
I1105 17:54:38.811182 24744 net.cpp:106] Creating Layer inception_4c/3x3
I1105 17:54:38.811187 24744 net.cpp:454] inception_4c/3x3 <- inception_4c/3x3_reduce
I1105 17:54:38.811194 24744 net.cpp:411] inception_4c/3x3 -> inception_4c/3x3
I1105 17:54:38.814394 24744 cudnn_conv_layer.cpp:194] Reallocating workspace storage: 10080
I1105 17:54:38.814421 24744 net.cpp:150] Setting up inception_4c/3x3
I1105 17:54:38.814429 24744 net.cpp:157] Top shape: 32 256 14 14 (1605632)
I1105 17:54:38.814434 24744 net.cpp:165] Memory required for data: 1390437124
I1105 17:54:38.814440 24744 layer_factory.hpp:76] Creating layer inception_4c/prelu_3x3
I1105 17:54:38.814448 24744 net.cpp:106] Creating Layer inception_4c/prelu_3x3
I1105 17:54:38.814452 24744 net.cpp:454] inception_4c/prelu_3x3 <- inception_4c/3x3
I1105 17:54:38.814460 24744 net.cpp:397] inception_4c/prelu_3x3 -> inception_4c/3x3 (in-place)
I1105 17:54:38.814570 24744 net.cpp:150] Setting up inception_4c/prelu_3x3
I1105 17:54:38.814580 24744 net.cpp:157] Top shape: 32 256 14 14 (1605632)
I1105 17:54:38.814584 24744 net.cpp:165] Memory required for data: 1396859652
I1105 17:54:38.814589 24744 layer_factory.hpp:76] Creating layer inception_4c/5x5_reduce
I1105 17:54:38.814599 24744 net.cpp:106] Creating Layer inception_4c/5x5_reduce
I1105 17:54:38.814604 24744 net.cpp:454] inception_4c/5x5_reduce <- inception_4b/output_inception_4b/output_0_split_2
I1105 17:54:38.814611 24744 net.cpp:411] inception_4c/5x5_reduce -> inception_4c/5x5_reduce
I1105 17:54:38.815716 24744 cudnn_conv_layer.cpp:194] Reallocating workspace storage: 10080
I1105 17:54:38.815739 24744 net.cpp:150] Setting up inception_4c/5x5_reduce
I1105 17:54:38.815747 24744 net.cpp:157] Top shape: 32 24 14 14 (150528)
I1105 17:54:38.815750 24744 net.cpp:165] Memory required for data: 1397461764
I1105 17:54:38.815757 24744 layer_factory.hpp:76] Creating layer inception_4c/prelu_5x5_reduce
I1105 17:54:38.815767 24744 net.cpp:106] Creating Layer inception_4c/prelu_5x5_reduce
I1105 17:54:38.815771 24744 net.cpp:454] inception_4c/prelu_5x5_reduce <- inception_4c/5x5_reduce
I1105 17:54:38.815779 24744 net.cpp:397] inception_4c/prelu_5x5_reduce -> inception_4c/5x5_reduce (in-place)
I1105 17:54:38.815871 24744 net.cpp:150] Setting up inception_4c/prelu_5x5_reduce
I1105 17:54:38.815881 24744 net.cpp:157] Top shape: 32 24 14 14 (150528)
I1105 17:54:38.815884 24744 net.cpp:165] Memory required for data: 1398063876
I1105 17:54:38.815901 24744 layer_factory.hpp:76] Creating layer inception_4c/5x5
I1105 17:54:38.815912 24744 net.cpp:106] Creating Layer inception_4c/5x5
I1105 17:54:38.815917 24744 net.cpp:454] inception_4c/5x5 <- inception_4c/5x5_reduce
I1105 17:54:38.815924 24744 net.cpp:411] inception_4c/5x5 -> inception_4c/5x5
I1105 17:54:38.817621 24744 cudnn_conv_layer.cpp:194] Reallocating workspace storage: 13080
I1105 17:54:38.817649 24744 net.cpp:150] Setting up inception_4c/5x5
I1105 17:54:38.817657 24744 net.cpp:157] Top shape: 32 64 14 14 (401408)
I1105 17:54:38.817662 24744 net.cpp:165] Memory required for data: 1399669508
I1105 17:54:38.817668 24744 layer_factory.hpp:76] Creating layer inception_4c/prelu_5x5
I1105 17:54:38.817683 24744 net.cpp:106] Creating Layer inception_4c/prelu_5x5
I1105 17:54:38.817688 24744 net.cpp:454] inception_4c/prelu_5x5 <- inception_4c/5x5
I1105 17:54:38.817697 24744 net.cpp:397] inception_4c/prelu_5x5 -> inception_4c/5x5 (in-place)
I1105 17:54:38.817808 24744 net.cpp:150] Setting up inception_4c/prelu_5x5
I1105 17:54:38.817817 24744 net.cpp:157] Top shape: 32 64 14 14 (401408)
I1105 17:54:38.817821 24744 net.cpp:165] Memory required for data: 1401275140
I1105 17:54:38.817826 24744 layer_factory.hpp:76] Creating layer inception_4c/pool
I1105 17:54:38.817834 24744 net.cpp:106] Creating Layer inception_4c/pool
I1105 17:54:38.817838 24744 net.cpp:454] inception_4c/pool <- inception_4b/output_inception_4b/output_0_split_3
I1105 17:54:38.817847 24744 net.cpp:411] inception_4c/pool -> inception_4c/pool
I1105 17:54:38.818035 24744 net.cpp:150] Setting up inception_4c/pool
I1105 17:54:38.818045 24744 net.cpp:157] Top shape: 32 512 14 14 (3211264)
I1105 17:54:38.818052 24744 net.cpp:165] Memory required for data: 1414120196
I1105 17:54:38.818055 24744 layer_factory.hpp:76] Creating layer inception_4c/pool_proj
I1105 17:54:38.818063 24744 net.cpp:106] Creating Layer inception_4c/pool_proj
I1105 17:54:38.818068 24744 net.cpp:454] inception_4c/pool_proj <- inception_4c/pool
I1105 17:54:38.818075 24744 net.cpp:411] inception_4c/pool_proj -> inception_4c/pool_proj
I1105 17:54:38.819463 24744 cudnn_conv_layer.cpp:194] Reallocating workspace storage: 10080
I1105 17:54:38.819490 24744 net.cpp:150] Setting up inception_4c/pool_proj
I1105 17:54:38.819497 24744 net.cpp:157] Top shape: 32 64 14 14 (401408)
I1105 17:54:38.819501 24744 net.cpp:165] Memory required for data: 1415725828
I1105 17:54:38.819509 24744 layer_factory.hpp:76] Creating layer inception_4c/prelu_pool_proj
I1105 17:54:38.819525 24744 net.cpp:106] Creating Layer inception_4c/prelu_pool_proj
I1105 17:54:38.819531 24744 net.cpp:454] inception_4c/prelu_pool_proj <- inception_4c/pool_proj
I1105 17:54:38.819537 24744 net.cpp:397] inception_4c/prelu_pool_proj -> inception_4c/pool_proj (in-place)
I1105 17:54:38.819664 24744 net.cpp:150] Setting up inception_4c/prelu_pool_proj
I1105 17:54:38.819674 24744 net.cpp:157] Top shape: 32 64 14 14 (401408)
I1105 17:54:38.819676 24744 net.cpp:165] Memory required for data: 1417331460
I1105 17:54:38.819682 24744 layer_factory.hpp:76] Creating layer inception_4c/output
I1105 17:54:38.819689 24744 net.cpp:106] Creating Layer inception_4c/output
I1105 17:54:38.819692 24744 net.cpp:454] inception_4c/output <- inception_4c/1x1
I1105 17:54:38.819697 24744 net.cpp:454] inception_4c/output <- inception_4c/3x3
I1105 17:54:38.819702 24744 net.cpp:454] inception_4c/output <- inception_4c/5x5
I1105 17:54:38.819706 24744 net.cpp:454] inception_4c/output <- inception_4c/pool_proj
I1105 17:54:38.819721 24744 net.cpp:411] inception_4c/output -> inception_4c/output
I1105 17:54:38.819747 24744 net.cpp:150] Setting up inception_4c/output
I1105 17:54:38.819757 24744 net.cpp:157] Top shape: 32 512 14 14 (3211264)
I1105 17:54:38.819761 24744 net.cpp:165] Memory required for data: 1430176516
I1105 17:54:38.819766 24744 layer_factory.hpp:76] Creating layer inception_4c/output_inception_4c/output_0_split
I1105 17:54:38.819773 24744 net.cpp:106] Creating Layer inception_4c/output_inception_4c/output_0_split
I1105 17:54:38.819777 24744 net.cpp:454] inception_4c/output_inception_4c/output_0_split <- inception_4c/output
I1105 17:54:38.819793 24744 net.cpp:411] inception_4c/output_inception_4c/output_0_split -> inception_4c/output_inception_4c/output_0_split_0
I1105 17:54:38.819805 24744 net.cpp:411] inception_4c/output_inception_4c/output_0_split -> inception_4c/output_inception_4c/output_0_split_1
I1105 17:54:38.819814 24744 net.cpp:411] inception_4c/output_inception_4c/output_0_split -> inception_4c/output_inception_4c/output_0_split_2
I1105 17:54:38.819821 24744 net.cpp:411] inception_4c/output_inception_4c/output_0_split -> inception_4c/output_inception_4c/output_0_split_3
I1105 17:54:38.819890 24744 net.cpp:150] Setting up inception_4c/output_inception_4c/output_0_split
I1105 17:54:38.819898 24744 net.cpp:157] Top shape: 32 512 14 14 (3211264)
I1105 17:54:38.819903 24744 net.cpp:157] Top shape: 32 512 14 14 (3211264)
I1105 17:54:38.819907 24744 net.cpp:157] Top shape: 32 512 14 14 (3211264)
I1105 17:54:38.819912 24744 net.cpp:157] Top shape: 32 512 14 14 (3211264)
I1105 17:54:38.819916 24744 net.cpp:165] Memory required for data: 1481556740
I1105 17:54:38.819919 24744 layer_factory.hpp:76] Creating layer inception_4d/1x1
I1105 17:54:38.819927 24744 net.cpp:106] Creating Layer inception_4d/1x1
I1105 17:54:38.819931 24744 net.cpp:454] inception_4d/1x1 <- inception_4c/output_inception_4c/output_0_split_0
I1105 17:54:38.819947 24744 net.cpp:411] inception_4d/1x1 -> inception_4d/1x1
I1105 17:54:38.821322 24744 cudnn_conv_layer.cpp:194] Reallocating workspace storage: 10080
I1105 17:54:38.821346 24744 net.cpp:150] Setting up inception_4d/1x1
I1105 17:54:38.821354 24744 net.cpp:157] Top shape: 32 112 14 14 (702464)
I1105 17:54:38.821358 24744 net.cpp:165] Memory required for data: 1484366596
I1105 17:54:38.821365 24744 layer_factory.hpp:76] Creating layer inception_4d/prelu_1x1
I1105 17:54:38.821374 24744 net.cpp:106] Creating Layer inception_4d/prelu_1x1
I1105 17:54:38.821379 24744 net.cpp:454] inception_4d/prelu_1x1 <- inception_4d/1x1
I1105 17:54:38.821385 24744 net.cpp:397] inception_4d/prelu_1x1 -> inception_4d/1x1 (in-place)
I1105 17:54:38.821485 24744 net.cpp:150] Setting up inception_4d/prelu_1x1
I1105 17:54:38.821494 24744 net.cpp:157] Top shape: 32 112 14 14 (702464)
I1105 17:54:38.821498 24744 net.cpp:165] Memory required for data: 1487176452
I1105 17:54:38.821503 24744 layer_factory.hpp:76] Creating layer inception_4d/3x3_reduce
I1105 17:54:38.821512 24744 net.cpp:106] Creating Layer inception_4d/3x3_reduce
I1105 17:54:38.821517 24744 net.cpp:454] inception_4d/3x3_reduce <- inception_4c/output_inception_4c/output_0_split_1
I1105 17:54:38.821526 24744 net.cpp:411] inception_4d/3x3_reduce -> inception_4d/3x3_reduce
I1105 17:54:38.822801 24744 cudnn_conv_layer.cpp:194] Reallocating workspace storage: 10080
I1105 17:54:38.822825 24744 net.cpp:150] Setting up inception_4d/3x3_reduce
I1105 17:54:38.822832 24744 net.cpp:157] Top shape: 32 144 14 14 (903168)
I1105 17:54:38.822837 24744 net.cpp:165] Memory required for data: 1490789124
I1105 17:54:38.822844 24744 layer_factory.hpp:76] Creating layer inception_4d/prelu_3x3_reduce
I1105 17:54:38.822852 24744 net.cpp:106] Creating Layer inception_4d/prelu_3x3_reduce
I1105 17:54:38.822857 24744 net.cpp:454] inception_4d/prelu_3x3_reduce <- inception_4d/3x3_reduce
I1105 17:54:38.822865 24744 net.cpp:397] inception_4d/prelu_3x3_reduce -> inception_4d/3x3_reduce (in-place)
I1105 17:54:38.822973 24744 net.cpp:150] Setting up inception_4d/prelu_3x3_reduce
I1105 17:54:38.822981 24744 net.cpp:157] Top shape: 32 144 14 14 (903168)
I1105 17:54:38.822985 24744 net.cpp:165] Memory required for data: 1494401796
I1105 17:54:38.822990 24744 layer_factory.hpp:76] Creating layer inception_4d/3x3
I1105 17:54:38.822999 24744 net.cpp:106] Creating Layer inception_4d/3x3
I1105 17:54:38.823004 24744 net.cpp:454] inception_4d/3x3 <- inception_4d/3x3_reduce
I1105 17:54:38.823012 24744 net.cpp:411] inception_4d/3x3 -> inception_4d/3x3
I1105 17:54:38.827185 24744 cudnn_conv_layer.cpp:194] Reallocating workspace storage: 10080
I1105 17:54:38.827265 24744 net.cpp:150] Setting up inception_4d/3x3
I1105 17:54:38.827277 24744 net.cpp:157] Top shape: 32 288 14 14 (1806336)
I1105 17:54:38.827292 24744 net.cpp:165] Memory required for data: 1501627140
I1105 17:54:38.827304 24744 layer_factory.hpp:76] Creating layer inception_4d/prelu_3x3
I1105 17:54:38.827317 24744 net.cpp:106] Creating Layer inception_4d/prelu_3x3
I1105 17:54:38.827325 24744 net.cpp:454] inception_4d/prelu_3x3 <- inception_4d/3x3
I1105 17:54:38.827333 24744 net.cpp:397] inception_4d/prelu_3x3 -> inception_4d/3x3 (in-place)
I1105 17:54:38.827519 24744 net.cpp:150] Setting up inception_4d/prelu_3x3
I1105 17:54:38.827532 24744 net.cpp:157] Top shape: 32 288 14 14 (1806336)
I1105 17:54:38.827545 24744 net.cpp:165] Memory required for data: 1508852484
I1105 17:54:38.827551 24744 layer_factory.hpp:76] Creating layer inception_4d/5x5_reduce
I1105 17:54:38.827564 24744 net.cpp:106] Creating Layer inception_4d/5x5_reduce
I1105 17:54:38.827569 24744 net.cpp:454] inception_4d/5x5_reduce <- inception_4c/output_inception_4c/output_0_split_2
I1105 17:54:38.827589 24744 net.cpp:411] inception_4d/5x5_reduce -> inception_4d/5x5_reduce
I1105 17:54:38.828858 24744 cudnn_conv_layer.cpp:194] Reallocating workspace storage: 10080
I1105 17:54:38.828891 24744 net.cpp:150] Setting up inception_4d/5x5_reduce
I1105 17:54:38.828901 24744 net.cpp:157] Top shape: 32 32 14 14 (200704)
I1105 17:54:38.828904 24744 net.cpp:165] Memory required for data: 1509655300
I1105 17:54:38.828912 24744 layer_factory.hpp:76] Creating layer inception_4d/prelu_5x5_reduce
I1105 17:54:38.828933 24744 net.cpp:106] Creating Layer inception_4d/prelu_5x5_reduce
I1105 17:54:38.828939 24744 net.cpp:454] inception_4d/prelu_5x5_reduce <- inception_4d/5x5_reduce
I1105 17:54:38.828946 24744 net.cpp:397] inception_4d/prelu_5x5_reduce -> inception_4d/5x5_reduce (in-place)
I1105 17:54:38.829093 24744 net.cpp:150] Setting up inception_4d/prelu_5x5_reduce
I1105 17:54:38.829104 24744 net.cpp:157] Top shape: 32 32 14 14 (200704)
I1105 17:54:38.829108 24744 net.cpp:165] Memory required for data: 1510458116
I1105 17:54:38.829114 24744 layer_factory.hpp:76] Creating layer inception_4d/5x5
I1105 17:54:38.829124 24744 net.cpp:106] Creating Layer inception_4d/5x5
I1105 17:54:38.829129 24744 net.cpp:454] inception_4d/5x5 <- inception_4d/5x5_reduce
I1105 17:54:38.829136 24744 net.cpp:411] inception_4d/5x5 -> inception_4d/5x5
I1105 17:54:38.831029 24744 cudnn_conv_layer.cpp:194] Reallocating workspace storage: 13080
I1105 17:54:38.831058 24744 net.cpp:150] Setting up inception_4d/5x5
I1105 17:54:38.831066 24744 net.cpp:157] Top shape: 32 64 14 14 (401408)
I1105 17:54:38.831070 24744 net.cpp:165] Memory required for data: 1512063748
I1105 17:54:38.831079 24744 layer_factory.hpp:76] Creating layer inception_4d/prelu_5x5
I1105 17:54:38.831087 24744 net.cpp:106] Creating Layer inception_4d/prelu_5x5
I1105 17:54:38.831094 24744 net.cpp:454] inception_4d/prelu_5x5 <- inception_4d/5x5
I1105 17:54:38.831099 24744 net.cpp:397] inception_4d/prelu_5x5 -> inception_4d/5x5 (in-place)
I1105 17:54:38.831230 24744 net.cpp:150] Setting up inception_4d/prelu_5x5
I1105 17:54:38.831240 24744 net.cpp:157] Top shape: 32 64 14 14 (401408)
I1105 17:54:38.831244 24744 net.cpp:165] Memory required for data: 1513669380
I1105 17:54:38.831249 24744 layer_factory.hpp:76] Creating layer inception_4d/pool
I1105 17:54:38.831259 24744 net.cpp:106] Creating Layer inception_4d/pool
I1105 17:54:38.831262 24744 net.cpp:454] inception_4d/pool <- inception_4c/output_inception_4c/output_0_split_3
I1105 17:54:38.831270 24744 net.cpp:411] inception_4d/pool -> inception_4d/pool
I1105 17:54:38.831475 24744 net.cpp:150] Setting up inception_4d/pool
I1105 17:54:38.831486 24744 net.cpp:157] Top shape: 32 512 14 14 (3211264)
I1105 17:54:38.831490 24744 net.cpp:165] Memory required for data: 1526514436
I1105 17:54:38.831495 24744 layer_factory.hpp:76] Creating layer inception_4d/pool_proj
I1105 17:54:38.831504 24744 net.cpp:106] Creating Layer inception_4d/pool_proj
I1105 17:54:38.831509 24744 net.cpp:454] inception_4d/pool_proj <- inception_4d/pool
I1105 17:54:38.831542 24744 net.cpp:411] inception_4d/pool_proj -> inception_4d/pool_proj
I1105 17:54:38.832808 24744 cudnn_conv_layer.cpp:194] Reallocating workspace storage: 10080
I1105 17:54:38.832839 24744 net.cpp:150] Setting up inception_4d/pool_proj
I1105 17:54:38.832849 24744 net.cpp:157] Top shape: 32 64 14 14 (401408)
I1105 17:54:38.832852 24744 net.cpp:165] Memory required for data: 1528120068
I1105 17:54:38.832859 24744 layer_factory.hpp:76] Creating layer inception_4d/prelu_pool_proj
I1105 17:54:38.832877 24744 net.cpp:106] Creating Layer inception_4d/prelu_pool_proj
I1105 17:54:38.832883 24744 net.cpp:454] inception_4d/prelu_pool_proj <- inception_4d/pool_proj
I1105 17:54:38.832890 24744 net.cpp:397] inception_4d/prelu_pool_proj -> inception_4d/pool_proj (in-place)
I1105 17:54:38.833041 24744 net.cpp:150] Setting up inception_4d/prelu_pool_proj
I1105 17:54:38.833052 24744 net.cpp:157] Top shape: 32 64 14 14 (401408)
I1105 17:54:38.833056 24744 net.cpp:165] Memory required for data: 1529725700
I1105 17:54:38.833062 24744 layer_factory.hpp:76] Creating layer inception_4d/output
I1105 17:54:38.833075 24744 net.cpp:106] Creating Layer inception_4d/output
I1105 17:54:38.833081 24744 net.cpp:454] inception_4d/output <- inception_4d/1x1
I1105 17:54:38.833086 24744 net.cpp:454] inception_4d/output <- inception_4d/3x3
I1105 17:54:38.833091 24744 net.cpp:454] inception_4d/output <- inception_4d/5x5
I1105 17:54:38.833094 24744 net.cpp:454] inception_4d/output <- inception_4d/pool_proj
I1105 17:54:38.833101 24744 net.cpp:411] inception_4d/output -> inception_4d/output
I1105 17:54:38.833129 24744 net.cpp:150] Setting up inception_4d/output
I1105 17:54:38.833137 24744 net.cpp:157] Top shape: 32 528 14 14 (3311616)
I1105 17:54:38.833142 24744 net.cpp:165] Memory required for data: 1542972164
I1105 17:54:38.833145 24744 layer_factory.hpp:76] Creating layer inception_4d/output_inception_4d/output_0_split
I1105 17:54:38.833153 24744 net.cpp:106] Creating Layer inception_4d/output_inception_4d/output_0_split
I1105 17:54:38.833156 24744 net.cpp:454] inception_4d/output_inception_4d/output_0_split <- inception_4d/output
I1105 17:54:38.833164 24744 net.cpp:411] inception_4d/output_inception_4d/output_0_split -> inception_4d/output_inception_4d/output_0_split_0
I1105 17:54:38.833171 24744 net.cpp:411] inception_4d/output_inception_4d/output_0_split -> inception_4d/output_inception_4d/output_0_split_1
I1105 17:54:38.833180 24744 net.cpp:411] inception_4d/output_inception_4d/output_0_split -> inception_4d/output_inception_4d/output_0_split_2
I1105 17:54:38.833189 24744 net.cpp:411] inception_4d/output_inception_4d/output_0_split -> inception_4d/output_inception_4d/output_0_split_3
I1105 17:54:38.833195 24744 net.cpp:411] inception_4d/output_inception_4d/output_0_split -> inception_4d/output_inception_4d/output_0_split_4
I1105 17:54:38.833271 24744 net.cpp:150] Setting up inception_4d/output_inception_4d/output_0_split
I1105 17:54:38.833278 24744 net.cpp:157] Top shape: 32 528 14 14 (3311616)
I1105 17:54:38.833284 24744 net.cpp:157] Top shape: 32 528 14 14 (3311616)
I1105 17:54:38.833288 24744 net.cpp:157] Top shape: 32 528 14 14 (3311616)
I1105 17:54:38.833293 24744 net.cpp:157] Top shape: 32 528 14 14 (3311616)
I1105 17:54:38.833297 24744 net.cpp:157] Top shape: 32 528 14 14 (3311616)
I1105 17:54:38.833302 24744 net.cpp:165] Memory required for data: 1609204484
I1105 17:54:38.833305 24744 layer_factory.hpp:76] Creating layer loss2/ave_pool
I1105 17:54:38.833313 24744 net.cpp:106] Creating Layer loss2/ave_pool
I1105 17:54:38.833317 24744 net.cpp:454] loss2/ave_pool <- inception_4d/output_inception_4d/output_0_split_0
I1105 17:54:38.833324 24744 net.cpp:411] loss2/ave_pool -> loss2/ave_pool
I1105 17:54:38.833683 24744 net.cpp:150] Setting up loss2/ave_pool
I1105 17:54:38.833694 24744 net.cpp:157] Top shape: 32 528 4 4 (270336)
I1105 17:54:38.833698 24744 net.cpp:165] Memory required for data: 1610285828
I1105 17:54:38.833703 24744 layer_factory.hpp:76] Creating layer loss2/conv
I1105 17:54:38.833724 24744 net.cpp:106] Creating Layer loss2/conv
I1105 17:54:38.833729 24744 net.cpp:454] loss2/conv <- loss2/ave_pool
I1105 17:54:38.833736 24744 net.cpp:411] loss2/conv -> loss2/conv
I1105 17:54:38.835183 24744 cudnn_conv_layer.cpp:194] Reallocating workspace storage: 6840
I1105 17:54:38.835208 24744 net.cpp:150] Setting up loss2/conv
I1105 17:54:38.835216 24744 net.cpp:157] Top shape: 32 128 4 4 (65536)
I1105 17:54:38.835219 24744 net.cpp:165] Memory required for data: 1610547972
I1105 17:54:38.835227 24744 layer_factory.hpp:76] Creating layer loss2/prelu_conv
I1105 17:54:38.835235 24744 net.cpp:106] Creating Layer loss2/prelu_conv
I1105 17:54:38.835240 24744 net.cpp:454] loss2/prelu_conv <- loss2/conv
I1105 17:54:38.835247 24744 net.cpp:397] loss2/prelu_conv -> loss2/conv (in-place)
I1105 17:54:38.835343 24744 net.cpp:150] Setting up loss2/prelu_conv
I1105 17:54:38.835353 24744 net.cpp:157] Top shape: 32 128 4 4 (65536)
I1105 17:54:38.835357 24744 net.cpp:165] Memory required for data: 1610810116
I1105 17:54:38.835362 24744 layer_factory.hpp:76] Creating layer loss2/fc
I1105 17:54:38.835371 24744 net.cpp:106] Creating Layer loss2/fc
I1105 17:54:38.835374 24744 net.cpp:454] loss2/fc <- loss2/conv
I1105 17:54:38.835382 24744 net.cpp:411] loss2/fc -> loss2/fc
I1105 17:54:38.850085 24744 net.cpp:150] Setting up loss2/fc
I1105 17:54:38.850121 24744 net.cpp:157] Top shape: 32 1024 (32768)
I1105 17:54:38.850133 24744 net.cpp:165] Memory required for data: 1610941188
I1105 17:54:38.850162 24744 layer_factory.hpp:76] Creating layer loss2/prelu_fc
I1105 17:54:38.850188 24744 net.cpp:106] Creating Layer loss2/prelu_fc
I1105 17:54:38.850195 24744 net.cpp:454] loss2/prelu_fc <- loss2/fc
I1105 17:54:38.850203 24744 net.cpp:397] loss2/prelu_fc -> loss2/fc (in-place)
I1105 17:54:38.850327 24744 net.cpp:150] Setting up loss2/prelu_fc
I1105 17:54:38.850335 24744 net.cpp:157] Top shape: 32 1024 (32768)
I1105 17:54:38.850339 24744 net.cpp:165] Memory required for data: 1611072260
I1105 17:54:38.850353 24744 layer_factory.hpp:76] Creating layer loss2/drop_fc
I1105 17:54:38.850360 24744 net.cpp:106] Creating Layer loss2/drop_fc
I1105 17:54:38.850365 24744 net.cpp:454] loss2/drop_fc <- loss2/fc
I1105 17:54:38.850371 24744 net.cpp:397] loss2/drop_fc -> loss2/fc (in-place)
I1105 17:54:38.850405 24744 net.cpp:150] Setting up loss2/drop_fc
I1105 17:54:38.850415 24744 net.cpp:157] Top shape: 32 1024 (32768)
I1105 17:54:38.850419 24744 net.cpp:165] Memory required for data: 1611203332
I1105 17:54:38.850425 24744 layer_factory.hpp:76] Creating layer loss2/classifier2
I1105 17:54:38.850433 24744 net.cpp:106] Creating Layer loss2/classifier2
I1105 17:54:38.850437 24744 net.cpp:454] loss2/classifier2 <- loss2/fc
I1105 17:54:38.850446 24744 net.cpp:411] loss2/classifier2 -> loss2/classifier
I1105 17:54:38.850584 24744 net.cpp:150] Setting up loss2/classifier2
I1105 17:54:38.850592 24744 net.cpp:157] Top shape: 32 2 (64)
I1105 17:54:38.850596 24744 net.cpp:165] Memory required for data: 1611203588
I1105 17:54:38.850610 24744 layer_factory.hpp:76] Creating layer loss2/loss
I1105 17:54:38.850618 24744 net.cpp:106] Creating Layer loss2/loss
I1105 17:54:38.850622 24744 net.cpp:454] loss2/loss <- loss2/classifier
I1105 17:54:38.850628 24744 net.cpp:454] loss2/loss <- label_data_1_split_1
I1105 17:54:38.850633 24744 net.cpp:411] loss2/loss -> loss2/loss1
I1105 17:54:38.850651 24744 layer_factory.hpp:76] Creating layer loss2/loss
I1105 17:54:38.850963 24744 net.cpp:150] Setting up loss2/loss
I1105 17:54:38.850973 24744 net.cpp:157] Top shape: (1)
I1105 17:54:38.850977 24744 net.cpp:160]     with loss weight 0.3
I1105 17:54:38.850991 24744 net.cpp:165] Memory required for data: 1611203592
I1105 17:54:38.850994 24744 layer_factory.hpp:76] Creating layer inception_4e/1x1
I1105 17:54:38.851006 24744 net.cpp:106] Creating Layer inception_4e/1x1
I1105 17:54:38.851011 24744 net.cpp:454] inception_4e/1x1 <- inception_4d/output_inception_4d/output_0_split_1
I1105 17:54:38.851018 24744 net.cpp:411] inception_4e/1x1 -> inception_4e/1x1
I1105 17:54:38.853474 24744 cudnn_conv_layer.cpp:194] Reallocating workspace storage: 10080
I1105 17:54:38.853518 24744 net.cpp:150] Setting up inception_4e/1x1
I1105 17:54:38.853526 24744 net.cpp:157] Top shape: 32 256 14 14 (1605632)
I1105 17:54:38.853531 24744 net.cpp:165] Memory required for data: 1617626120
I1105 17:54:38.853538 24744 layer_factory.hpp:76] Creating layer inception_4e/prelu_1x1
I1105 17:54:38.853548 24744 net.cpp:106] Creating Layer inception_4e/prelu_1x1
I1105 17:54:38.853552 24744 net.cpp:454] inception_4e/prelu_1x1 <- inception_4e/1x1
I1105 17:54:38.853559 24744 net.cpp:397] inception_4e/prelu_1x1 -> inception_4e/1x1 (in-place)
I1105 17:54:38.853719 24744 net.cpp:150] Setting up inception_4e/prelu_1x1
I1105 17:54:38.853729 24744 net.cpp:157] Top shape: 32 256 14 14 (1605632)
I1105 17:54:38.853734 24744 net.cpp:165] Memory required for data: 1624048648
I1105 17:54:38.853739 24744 layer_factory.hpp:76] Creating layer inception_4e/3x3_reduce
I1105 17:54:38.853749 24744 net.cpp:106] Creating Layer inception_4e/3x3_reduce
I1105 17:54:38.853754 24744 net.cpp:454] inception_4e/3x3_reduce <- inception_4d/output_inception_4d/output_0_split_2
I1105 17:54:38.853760 24744 net.cpp:411] inception_4e/3x3_reduce -> inception_4e/3x3_reduce
I1105 17:54:38.855406 24744 cudnn_conv_layer.cpp:194] Reallocating workspace storage: 10080
I1105 17:54:38.855445 24744 net.cpp:150] Setting up inception_4e/3x3_reduce
I1105 17:54:38.855459 24744 net.cpp:157] Top shape: 32 160 14 14 (1003520)
I1105 17:54:38.855484 24744 net.cpp:165] Memory required for data: 1628062728
I1105 17:54:38.855497 24744 layer_factory.hpp:76] Creating layer inception_4e/prelu_3x3_reduce
I1105 17:54:38.855517 24744 net.cpp:106] Creating Layer inception_4e/prelu_3x3_reduce
I1105 17:54:38.855530 24744 net.cpp:454] inception_4e/prelu_3x3_reduce <- inception_4e/3x3_reduce
I1105 17:54:38.855552 24744 net.cpp:397] inception_4e/prelu_3x3_reduce -> inception_4e/3x3_reduce (in-place)
I1105 17:54:38.855689 24744 net.cpp:150] Setting up inception_4e/prelu_3x3_reduce
I1105 17:54:38.855700 24744 net.cpp:157] Top shape: 32 160 14 14 (1003520)
I1105 17:54:38.855708 24744 net.cpp:165] Memory required for data: 1632076808
I1105 17:54:38.855720 24744 layer_factory.hpp:76] Creating layer inception_4e/3x3
I1105 17:54:38.855736 24744 net.cpp:106] Creating Layer inception_4e/3x3
I1105 17:54:38.855747 24744 net.cpp:454] inception_4e/3x3 <- inception_4e/3x3_reduce
I1105 17:54:38.855761 24744 net.cpp:411] inception_4e/3x3 -> inception_4e/3x3
I1105 17:54:38.860492 24744 cudnn_conv_layer.cpp:194] Reallocating workspace storage: 10080
I1105 17:54:38.860553 24744 net.cpp:150] Setting up inception_4e/3x3
I1105 17:54:38.860569 24744 net.cpp:157] Top shape: 32 320 14 14 (2007040)
I1105 17:54:38.860579 24744 net.cpp:165] Memory required for data: 1640104968
I1105 17:54:38.860597 24744 layer_factory.hpp:76] Creating layer inception_4e/prelu_3x3
I1105 17:54:38.860617 24744 net.cpp:106] Creating Layer inception_4e/prelu_3x3
I1105 17:54:38.860630 24744 net.cpp:454] inception_4e/prelu_3x3 <- inception_4e/3x3
I1105 17:54:38.860646 24744 net.cpp:397] inception_4e/prelu_3x3 -> inception_4e/3x3 (in-place)
I1105 17:54:38.860841 24744 net.cpp:150] Setting up inception_4e/prelu_3x3
I1105 17:54:38.860857 24744 net.cpp:157] Top shape: 32 320 14 14 (2007040)
I1105 17:54:38.860864 24744 net.cpp:165] Memory required for data: 1648133128
I1105 17:54:38.860875 24744 layer_factory.hpp:76] Creating layer inception_4e/5x5_reduce
I1105 17:54:38.860894 24744 net.cpp:106] Creating Layer inception_4e/5x5_reduce
I1105 17:54:38.860905 24744 net.cpp:454] inception_4e/5x5_reduce <- inception_4d/output_inception_4d/output_0_split_3
I1105 17:54:38.860921 24744 net.cpp:411] inception_4e/5x5_reduce -> inception_4e/5x5_reduce
I1105 17:54:38.862186 24744 cudnn_conv_layer.cpp:194] Reallocating workspace storage: 10080
I1105 17:54:38.862229 24744 net.cpp:150] Setting up inception_4e/5x5_reduce
I1105 17:54:38.862244 24744 net.cpp:157] Top shape: 32 32 14 14 (200704)
I1105 17:54:38.862253 24744 net.cpp:165] Memory required for data: 1648935944
I1105 17:54:38.862308 24744 layer_factory.hpp:76] Creating layer inception_4e/prelu_5x5_reduce
I1105 17:54:38.862326 24744 net.cpp:106] Creating Layer inception_4e/prelu_5x5_reduce
I1105 17:54:38.862337 24744 net.cpp:454] inception_4e/prelu_5x5_reduce <- inception_4e/5x5_reduce
I1105 17:54:38.862351 24744 net.cpp:397] inception_4e/prelu_5x5_reduce -> inception_4e/5x5_reduce (in-place)
I1105 17:54:38.862484 24744 net.cpp:150] Setting up inception_4e/prelu_5x5_reduce
I1105 17:54:38.862495 24744 net.cpp:157] Top shape: 32 32 14 14 (200704)
I1105 17:54:38.862504 24744 net.cpp:165] Memory required for data: 1649738760
I1105 17:54:38.862514 24744 layer_factory.hpp:76] Creating layer inception_4e/5x5
I1105 17:54:38.862545 24744 net.cpp:106] Creating Layer inception_4e/5x5
I1105 17:54:38.862555 24744 net.cpp:454] inception_4e/5x5 <- inception_4e/5x5_reduce
I1105 17:54:38.862570 24744 net.cpp:411] inception_4e/5x5 -> inception_4e/5x5
I1105 17:54:38.864740 24744 cudnn_conv_layer.cpp:194] Reallocating workspace storage: 13080
I1105 17:54:38.864781 24744 net.cpp:150] Setting up inception_4e/5x5
I1105 17:54:38.864794 24744 net.cpp:157] Top shape: 32 128 14 14 (802816)
I1105 17:54:38.864802 24744 net.cpp:165] Memory required for data: 1652950024
I1105 17:54:38.864817 24744 layer_factory.hpp:76] Creating layer inception_4e/prelu_5x5
I1105 17:54:38.864832 24744 net.cpp:106] Creating Layer inception_4e/prelu_5x5
I1105 17:54:38.864843 24744 net.cpp:454] inception_4e/prelu_5x5 <- inception_4e/5x5
I1105 17:54:38.864858 24744 net.cpp:397] inception_4e/prelu_5x5 -> inception_4e/5x5 (in-place)
I1105 17:54:38.864980 24744 net.cpp:150] Setting up inception_4e/prelu_5x5
I1105 17:54:38.864994 24744 net.cpp:157] Top shape: 32 128 14 14 (802816)
I1105 17:54:38.865001 24744 net.cpp:165] Memory required for data: 1656161288
I1105 17:54:38.865011 24744 layer_factory.hpp:76] Creating layer inception_4e/pool
I1105 17:54:38.865027 24744 net.cpp:106] Creating Layer inception_4e/pool
I1105 17:54:38.865038 24744 net.cpp:454] inception_4e/pool <- inception_4d/output_inception_4d/output_0_split_4
I1105 17:54:38.865051 24744 net.cpp:411] inception_4e/pool -> inception_4e/pool
I1105 17:54:38.865456 24744 net.cpp:150] Setting up inception_4e/pool
I1105 17:54:38.865473 24744 net.cpp:157] Top shape: 32 528 14 14 (3311616)
I1105 17:54:38.865481 24744 net.cpp:165] Memory required for data: 1669407752
I1105 17:54:38.865490 24744 layer_factory.hpp:76] Creating layer inception_4e/pool_proj
I1105 17:54:38.865504 24744 net.cpp:106] Creating Layer inception_4e/pool_proj
I1105 17:54:38.865514 24744 net.cpp:454] inception_4e/pool_proj <- inception_4e/pool
I1105 17:54:38.865528 24744 net.cpp:411] inception_4e/pool_proj -> inception_4e/pool_proj
I1105 17:54:38.866847 24744 cudnn_conv_layer.cpp:194] Reallocating workspace storage: 10080
I1105 17:54:38.866894 24744 net.cpp:150] Setting up inception_4e/pool_proj
I1105 17:54:38.866906 24744 net.cpp:157] Top shape: 32 128 14 14 (802816)
I1105 17:54:38.866914 24744 net.cpp:165] Memory required for data: 1672619016
I1105 17:54:38.866928 24744 layer_factory.hpp:76] Creating layer inception_4e/prelu_pool_proj
I1105 17:54:38.866941 24744 net.cpp:106] Creating Layer inception_4e/prelu_pool_proj
I1105 17:54:38.866967 24744 net.cpp:454] inception_4e/prelu_pool_proj <- inception_4e/pool_proj
I1105 17:54:38.866982 24744 net.cpp:397] inception_4e/prelu_pool_proj -> inception_4e/pool_proj (in-place)
I1105 17:54:38.867113 24744 net.cpp:150] Setting up inception_4e/prelu_pool_proj
I1105 17:54:38.867125 24744 net.cpp:157] Top shape: 32 128 14 14 (802816)
I1105 17:54:38.867133 24744 net.cpp:165] Memory required for data: 1675830280
I1105 17:54:38.867151 24744 layer_factory.hpp:76] Creating layer inception_4e/output
I1105 17:54:38.867166 24744 net.cpp:106] Creating Layer inception_4e/output
I1105 17:54:38.867175 24744 net.cpp:454] inception_4e/output <- inception_4e/1x1
I1105 17:54:38.867187 24744 net.cpp:454] inception_4e/output <- inception_4e/3x3
I1105 17:54:38.867197 24744 net.cpp:454] inception_4e/output <- inception_4e/5x5
I1105 17:54:38.867205 24744 net.cpp:454] inception_4e/output <- inception_4e/pool_proj
I1105 17:54:38.867236 24744 net.cpp:411] inception_4e/output -> inception_4e/output
I1105 17:54:38.867277 24744 net.cpp:150] Setting up inception_4e/output
I1105 17:54:38.867290 24744 net.cpp:157] Top shape: 32 832 14 14 (5218304)
I1105 17:54:38.867297 24744 net.cpp:165] Memory required for data: 1696703496
I1105 17:54:38.867305 24744 layer_factory.hpp:76] Creating layer pool4/3x3_s2
I1105 17:54:38.867316 24744 net.cpp:106] Creating Layer pool4/3x3_s2
I1105 17:54:38.867326 24744 net.cpp:454] pool4/3x3_s2 <- inception_4e/output
I1105 17:54:38.867347 24744 net.cpp:411] pool4/3x3_s2 -> pool4/3x3_s2
I1105 17:54:38.867740 24744 net.cpp:150] Setting up pool4/3x3_s2
I1105 17:54:38.867754 24744 net.cpp:157] Top shape: 32 832 7 7 (1304576)
I1105 17:54:38.867763 24744 net.cpp:165] Memory required for data: 1701921800
I1105 17:54:38.867770 24744 layer_factory.hpp:76] Creating layer pool4/3x3_s2_pool4/3x3_s2_0_split
I1105 17:54:38.867782 24744 net.cpp:106] Creating Layer pool4/3x3_s2_pool4/3x3_s2_0_split
I1105 17:54:38.867790 24744 net.cpp:454] pool4/3x3_s2_pool4/3x3_s2_0_split <- pool4/3x3_s2
I1105 17:54:38.867804 24744 net.cpp:411] pool4/3x3_s2_pool4/3x3_s2_0_split -> pool4/3x3_s2_pool4/3x3_s2_0_split_0
I1105 17:54:38.867818 24744 net.cpp:411] pool4/3x3_s2_pool4/3x3_s2_0_split -> pool4/3x3_s2_pool4/3x3_s2_0_split_1
I1105 17:54:38.867832 24744 net.cpp:411] pool4/3x3_s2_pool4/3x3_s2_0_split -> pool4/3x3_s2_pool4/3x3_s2_0_split_2
I1105 17:54:38.867846 24744 net.cpp:411] pool4/3x3_s2_pool4/3x3_s2_0_split -> pool4/3x3_s2_pool4/3x3_s2_0_split_3
I1105 17:54:38.867926 24744 net.cpp:150] Setting up pool4/3x3_s2_pool4/3x3_s2_0_split
I1105 17:54:38.867938 24744 net.cpp:157] Top shape: 32 832 7 7 (1304576)
I1105 17:54:38.867947 24744 net.cpp:157] Top shape: 32 832 7 7 (1304576)
I1105 17:54:38.867957 24744 net.cpp:157] Top shape: 32 832 7 7 (1304576)
I1105 17:54:38.867967 24744 net.cpp:157] Top shape: 32 832 7 7 (1304576)
I1105 17:54:38.867974 24744 net.cpp:165] Memory required for data: 1722795016
I1105 17:54:38.867982 24744 layer_factory.hpp:76] Creating layer inception_5a/1x1
I1105 17:54:38.868012 24744 net.cpp:106] Creating Layer inception_5a/1x1
I1105 17:54:38.868022 24744 net.cpp:454] inception_5a/1x1 <- pool4/3x3_s2_pool4/3x3_s2_0_split_0
I1105 17:54:38.868036 24744 net.cpp:411] inception_5a/1x1 -> inception_5a/1x1
I1105 17:54:38.870803 24744 cudnn_conv_layer.cpp:194] Reallocating workspace storage: 7428
I1105 17:54:38.870841 24744 net.cpp:150] Setting up inception_5a/1x1
I1105 17:54:38.870857 24744 net.cpp:157] Top shape: 32 256 7 7 (401408)
I1105 17:54:38.870867 24744 net.cpp:165] Memory required for data: 1724400648
I1105 17:54:38.870880 24744 layer_factory.hpp:76] Creating layer inception_5a/prelu_1x1
I1105 17:54:38.870895 24744 net.cpp:106] Creating Layer inception_5a/prelu_1x1
I1105 17:54:38.870906 24744 net.cpp:454] inception_5a/prelu_1x1 <- inception_5a/1x1
I1105 17:54:38.870921 24744 net.cpp:397] inception_5a/prelu_1x1 -> inception_5a/1x1 (in-place)
I1105 17:54:38.871495 24744 net.cpp:150] Setting up inception_5a/prelu_1x1
I1105 17:54:38.871508 24744 net.cpp:157] Top shape: 32 256 7 7 (401408)
I1105 17:54:38.871516 24744 net.cpp:165] Memory required for data: 1726006280
I1105 17:54:38.871528 24744 layer_factory.hpp:76] Creating layer inception_5a/3x3_reduce
I1105 17:54:38.871544 24744 net.cpp:106] Creating Layer inception_5a/3x3_reduce
I1105 17:54:38.871556 24744 net.cpp:454] inception_5a/3x3_reduce <- pool4/3x3_s2_pool4/3x3_s2_0_split_1
I1105 17:54:38.871572 24744 net.cpp:411] inception_5a/3x3_reduce -> inception_5a/3x3_reduce
I1105 17:54:38.873885 24744 cudnn_conv_layer.cpp:194] Reallocating workspace storage: 7428
I1105 17:54:38.873929 24744 net.cpp:150] Setting up inception_5a/3x3_reduce
I1105 17:54:38.873942 24744 net.cpp:157] Top shape: 32 160 7 7 (250880)
I1105 17:54:38.873950 24744 net.cpp:165] Memory required for data: 1727009800
I1105 17:54:38.873980 24744 layer_factory.hpp:76] Creating layer inception_5a/prelu_3x3_reduce
I1105 17:54:38.873992 24744 net.cpp:106] Creating Layer inception_5a/prelu_3x3_reduce
I1105 17:54:38.874013 24744 net.cpp:454] inception_5a/prelu_3x3_reduce <- inception_5a/3x3_reduce
I1105 17:54:38.874029 24744 net.cpp:397] inception_5a/prelu_3x3_reduce -> inception_5a/3x3_reduce (in-place)
I1105 17:54:38.874140 24744 net.cpp:150] Setting up inception_5a/prelu_3x3_reduce
I1105 17:54:38.874152 24744 net.cpp:157] Top shape: 32 160 7 7 (250880)
I1105 17:54:38.874160 24744 net.cpp:165] Memory required for data: 1728013320
I1105 17:54:38.874171 24744 layer_factory.hpp:76] Creating layer inception_5a/3x3
I1105 17:54:38.874184 24744 net.cpp:106] Creating Layer inception_5a/3x3
I1105 17:54:38.874194 24744 net.cpp:454] inception_5a/3x3 <- inception_5a/3x3_reduce
I1105 17:54:38.874209 24744 net.cpp:411] inception_5a/3x3 -> inception_5a/3x3
I1105 17:54:38.878353 24744 cudnn_conv_layer.cpp:194] Reallocating workspace storage: 7788
I1105 17:54:38.878392 24744 net.cpp:150] Setting up inception_5a/3x3
I1105 17:54:38.878407 24744 net.cpp:157] Top shape: 32 320 7 7 (501760)
I1105 17:54:38.878415 24744 net.cpp:165] Memory required for data: 1730020360
I1105 17:54:38.878444 24744 layer_factory.hpp:76] Creating layer inception_5a/prelu_3x3
I1105 17:54:38.878463 24744 net.cpp:106] Creating Layer inception_5a/prelu_3x3
I1105 17:54:38.878473 24744 net.cpp:454] inception_5a/prelu_3x3 <- inception_5a/3x3
I1105 17:54:38.878486 24744 net.cpp:397] inception_5a/prelu_3x3 -> inception_5a/3x3 (in-place)
I1105 17:54:38.878633 24744 net.cpp:150] Setting up inception_5a/prelu_3x3
I1105 17:54:38.878645 24744 net.cpp:157] Top shape: 32 320 7 7 (501760)
I1105 17:54:38.878653 24744 net.cpp:165] Memory required for data: 1732027400
I1105 17:54:38.878670 24744 layer_factory.hpp:76] Creating layer inception_5a/5x5_reduce
I1105 17:54:38.878685 24744 net.cpp:106] Creating Layer inception_5a/5x5_reduce
I1105 17:54:38.878696 24744 net.cpp:454] inception_5a/5x5_reduce <- pool4/3x3_s2_pool4/3x3_s2_0_split_2
I1105 17:54:38.878726 24744 net.cpp:411] inception_5a/5x5_reduce -> inception_5a/5x5_reduce
I1105 17:54:38.879968 24744 cudnn_conv_layer.cpp:194] Reallocating workspace storage: 7428
I1105 17:54:38.880002 24744 net.cpp:150] Setting up inception_5a/5x5_reduce
I1105 17:54:38.880014 24744 net.cpp:157] Top shape: 32 32 7 7 (50176)
I1105 17:54:38.880023 24744 net.cpp:165] Memory required for data: 1732228104
I1105 17:54:38.880043 24744 layer_factory.hpp:76] Creating layer inception_5a/prelu_5x5_reduce
I1105 17:54:38.880066 24744 net.cpp:106] Creating Layer inception_5a/prelu_5x5_reduce
I1105 17:54:38.880076 24744 net.cpp:454] inception_5a/prelu_5x5_reduce <- inception_5a/5x5_reduce
I1105 17:54:38.880089 24744 net.cpp:397] inception_5a/prelu_5x5_reduce -> inception_5a/5x5_reduce (in-place)
I1105 17:54:38.880213 24744 net.cpp:150] Setting up inception_5a/prelu_5x5_reduce
I1105 17:54:38.880224 24744 net.cpp:157] Top shape: 32 32 7 7 (50176)
I1105 17:54:38.880233 24744 net.cpp:165] Memory required for data: 1732428808
I1105 17:54:38.880244 24744 layer_factory.hpp:76] Creating layer inception_5a/5x5
I1105 17:54:38.880259 24744 net.cpp:106] Creating Layer inception_5a/5x5
I1105 17:54:38.880269 24744 net.cpp:454] inception_5a/5x5 <- inception_5a/5x5_reduce
I1105 17:54:38.880283 24744 net.cpp:411] inception_5a/5x5 -> inception_5a/5x5
I1105 17:54:38.881933 24744 cudnn_conv_layer.cpp:194] Reallocating workspace storage: 9804
I1105 17:54:38.881968 24744 net.cpp:150] Setting up inception_5a/5x5
I1105 17:54:38.881979 24744 net.cpp:157] Top shape: 32 128 7 7 (200704)
I1105 17:54:38.881988 24744 net.cpp:165] Memory required for data: 1733231624
I1105 17:54:38.882000 24744 layer_factory.hpp:76] Creating layer inception_5a/prelu_5x5
I1105 17:54:38.882016 24744 net.cpp:106] Creating Layer inception_5a/prelu_5x5
I1105 17:54:38.882027 24744 net.cpp:454] inception_5a/prelu_5x5 <- inception_5a/5x5
I1105 17:54:38.882041 24744 net.cpp:397] inception_5a/prelu_5x5 -> inception_5a/5x5 (in-place)
I1105 17:54:38.882154 24744 net.cpp:150] Setting up inception_5a/prelu_5x5
I1105 17:54:38.882165 24744 net.cpp:157] Top shape: 32 128 7 7 (200704)
I1105 17:54:38.882186 24744 net.cpp:165] Memory required for data: 1734034440
I1105 17:54:38.882199 24744 layer_factory.hpp:76] Creating layer inception_5a/pool
I1105 17:54:38.882213 24744 net.cpp:106] Creating Layer inception_5a/pool
I1105 17:54:38.882223 24744 net.cpp:454] inception_5a/pool <- pool4/3x3_s2_pool4/3x3_s2_0_split_3
I1105 17:54:38.882235 24744 net.cpp:411] inception_5a/pool -> inception_5a/pool
I1105 17:54:38.882447 24744 net.cpp:150] Setting up inception_5a/pool
I1105 17:54:38.882460 24744 net.cpp:157] Top shape: 32 832 7 7 (1304576)
I1105 17:54:38.882468 24744 net.cpp:165] Memory required for data: 1739252744
I1105 17:54:38.882477 24744 layer_factory.hpp:76] Creating layer inception_5a/pool_proj
I1105 17:54:38.882490 24744 net.cpp:106] Creating Layer inception_5a/pool_proj
I1105 17:54:38.882499 24744 net.cpp:454] inception_5a/pool_proj <- inception_5a/pool
I1105 17:54:38.882514 24744 net.cpp:411] inception_5a/pool_proj -> inception_5a/pool_proj
I1105 17:54:38.884893 24744 cudnn_conv_layer.cpp:194] Reallocating workspace storage: 7428
I1105 17:54:38.884937 24744 net.cpp:150] Setting up inception_5a/pool_proj
I1105 17:54:38.884949 24744 net.cpp:157] Top shape: 32 128 7 7 (200704)
I1105 17:54:38.884958 24744 net.cpp:165] Memory required for data: 1740055560
I1105 17:54:38.884986 24744 layer_factory.hpp:76] Creating layer inception_5a/prelu_pool_proj
I1105 17:54:38.885004 24744 net.cpp:106] Creating Layer inception_5a/prelu_pool_proj
I1105 17:54:38.885015 24744 net.cpp:454] inception_5a/prelu_pool_proj <- inception_5a/pool_proj
I1105 17:54:38.885042 24744 net.cpp:397] inception_5a/prelu_pool_proj -> inception_5a/pool_proj (in-place)
I1105 17:54:38.885169 24744 net.cpp:150] Setting up inception_5a/prelu_pool_proj
I1105 17:54:38.885181 24744 net.cpp:157] Top shape: 32 128 7 7 (200704)
I1105 17:54:38.885190 24744 net.cpp:165] Memory required for data: 1740858376
I1105 17:54:38.885208 24744 layer_factory.hpp:76] Creating layer inception_5a/output
I1105 17:54:38.885221 24744 net.cpp:106] Creating Layer inception_5a/output
I1105 17:54:38.885229 24744 net.cpp:454] inception_5a/output <- inception_5a/1x1
I1105 17:54:38.885241 24744 net.cpp:454] inception_5a/output <- inception_5a/3x3
I1105 17:54:38.885249 24744 net.cpp:454] inception_5a/output <- inception_5a/5x5
I1105 17:54:38.885258 24744 net.cpp:454] inception_5a/output <- inception_5a/pool_proj
I1105 17:54:38.885272 24744 net.cpp:411] inception_5a/output -> inception_5a/output
I1105 17:54:38.885319 24744 net.cpp:150] Setting up inception_5a/output
I1105 17:54:38.885334 24744 net.cpp:157] Top shape: 32 832 7 7 (1304576)
I1105 17:54:38.885349 24744 net.cpp:165] Memory required for data: 1746076680
I1105 17:54:38.885357 24744 layer_factory.hpp:76] Creating layer inception_5a/output_inception_5a/output_0_split
I1105 17:54:38.885370 24744 net.cpp:106] Creating Layer inception_5a/output_inception_5a/output_0_split
I1105 17:54:38.885380 24744 net.cpp:454] inception_5a/output_inception_5a/output_0_split <- inception_5a/output
I1105 17:54:38.885390 24744 net.cpp:411] inception_5a/output_inception_5a/output_0_split -> inception_5a/output_inception_5a/output_0_split_0
I1105 17:54:38.885406 24744 net.cpp:411] inception_5a/output_inception_5a/output_0_split -> inception_5a/output_inception_5a/output_0_split_1
I1105 17:54:38.885421 24744 net.cpp:411] inception_5a/output_inception_5a/output_0_split -> inception_5a/output_inception_5a/output_0_split_2
I1105 17:54:38.885437 24744 net.cpp:411] inception_5a/output_inception_5a/output_0_split -> inception_5a/output_inception_5a/output_0_split_3
I1105 17:54:38.885519 24744 net.cpp:150] Setting up inception_5a/output_inception_5a/output_0_split
I1105 17:54:38.885530 24744 net.cpp:157] Top shape: 32 832 7 7 (1304576)
I1105 17:54:38.885541 24744 net.cpp:157] Top shape: 32 832 7 7 (1304576)
I1105 17:54:38.885551 24744 net.cpp:157] Top shape: 32 832 7 7 (1304576)
I1105 17:54:38.885579 24744 net.cpp:157] Top shape: 32 832 7 7 (1304576)
I1105 17:54:38.885587 24744 net.cpp:165] Memory required for data: 1766949896
I1105 17:54:38.885608 24744 layer_factory.hpp:76] Creating layer inception_5b/1x1
I1105 17:54:38.885625 24744 net.cpp:106] Creating Layer inception_5b/1x1
I1105 17:54:38.885635 24744 net.cpp:454] inception_5b/1x1 <- inception_5a/output_inception_5a/output_0_split_0
I1105 17:54:38.885648 24744 net.cpp:411] inception_5b/1x1 -> inception_5b/1x1
I1105 17:54:38.889442 24744 cudnn_conv_layer.cpp:194] Reallocating workspace storage: 7428
I1105 17:54:38.889511 24744 net.cpp:150] Setting up inception_5b/1x1
I1105 17:54:38.889529 24744 net.cpp:157] Top shape: 32 384 7 7 (602112)
I1105 17:54:38.889539 24744 net.cpp:165] Memory required for data: 1769358344
I1105 17:54:38.889556 24744 layer_factory.hpp:76] Creating layer inception_5b/prelu_1x1
I1105 17:54:38.889576 24744 net.cpp:106] Creating Layer inception_5b/prelu_1x1
I1105 17:54:38.889587 24744 net.cpp:454] inception_5b/prelu_1x1 <- inception_5b/1x1
I1105 17:54:38.889605 24744 net.cpp:397] inception_5b/prelu_1x1 -> inception_5b/1x1 (in-place)
I1105 17:54:38.890265 24744 net.cpp:150] Setting up inception_5b/prelu_1x1
I1105 17:54:38.890287 24744 net.cpp:157] Top shape: 32 384 7 7 (602112)
I1105 17:54:38.890296 24744 net.cpp:165] Memory required for data: 1771766792
I1105 17:54:38.890308 24744 layer_factory.hpp:76] Creating layer inception_5b/3x3_reduce
I1105 17:54:38.890329 24744 net.cpp:106] Creating Layer inception_5b/3x3_reduce
I1105 17:54:38.890341 24744 net.cpp:454] inception_5b/3x3_reduce <- inception_5a/output_inception_5a/output_0_split_1
I1105 17:54:38.890358 24744 net.cpp:411] inception_5b/3x3_reduce -> inception_5b/3x3_reduce
I1105 17:54:38.892978 24744 cudnn_conv_layer.cpp:194] Reallocating workspace storage: 7428
I1105 17:54:38.893021 24744 net.cpp:150] Setting up inception_5b/3x3_reduce
I1105 17:54:38.893035 24744 net.cpp:157] Top shape: 32 192 7 7 (301056)
I1105 17:54:38.893043 24744 net.cpp:165] Memory required for data: 1772971016
I1105 17:54:38.893059 24744 layer_factory.hpp:76] Creating layer inception_5b/prelu_3x3_reduce
I1105 17:54:38.893084 24744 net.cpp:106] Creating Layer inception_5b/prelu_3x3_reduce
I1105 17:54:38.893096 24744 net.cpp:454] inception_5b/prelu_3x3_reduce <- inception_5b/3x3_reduce
I1105 17:54:38.893110 24744 net.cpp:397] inception_5b/prelu_3x3_reduce -> inception_5b/3x3_reduce (in-place)
I1105 17:54:38.893237 24744 net.cpp:150] Setting up inception_5b/prelu_3x3_reduce
I1105 17:54:38.893249 24744 net.cpp:157] Top shape: 32 192 7 7 (301056)
I1105 17:54:38.893257 24744 net.cpp:165] Memory required for data: 1774175240
I1105 17:54:38.893268 24744 layer_factory.hpp:76] Creating layer inception_5b/3x3
I1105 17:54:38.893286 24744 net.cpp:106] Creating Layer inception_5b/3x3
I1105 17:54:38.893297 24744 net.cpp:454] inception_5b/3x3 <- inception_5b/3x3_reduce
I1105 17:54:38.893312 24744 net.cpp:411] inception_5b/3x3 -> inception_5b/3x3
I1105 17:54:38.899201 24744 cudnn_conv_layer.cpp:194] Reallocating workspace storage: 7788
I1105 17:54:38.899250 24744 net.cpp:150] Setting up inception_5b/3x3
I1105 17:54:38.899271 24744 net.cpp:157] Top shape: 32 384 7 7 (602112)
I1105 17:54:38.899281 24744 net.cpp:165] Memory required for data: 1776583688
I1105 17:54:38.899296 24744 layer_factory.hpp:76] Creating layer inception_5b/prelu_3x3
I1105 17:54:38.899313 24744 net.cpp:106] Creating Layer inception_5b/prelu_3x3
I1105 17:54:38.899324 24744 net.cpp:454] inception_5b/prelu_3x3 <- inception_5b/3x3
I1105 17:54:38.899340 24744 net.cpp:397] inception_5b/prelu_3x3 -> inception_5b/3x3 (in-place)
I1105 17:54:38.899466 24744 net.cpp:150] Setting up inception_5b/prelu_3x3
I1105 17:54:38.899477 24744 net.cpp:157] Top shape: 32 384 7 7 (602112)
I1105 17:54:38.899485 24744 net.cpp:165] Memory required for data: 1778992136
I1105 17:54:38.899495 24744 layer_factory.hpp:76] Creating layer inception_5b/5x5_reduce
I1105 17:54:38.899512 24744 net.cpp:106] Creating Layer inception_5b/5x5_reduce
I1105 17:54:38.899523 24744 net.cpp:454] inception_5b/5x5_reduce <- inception_5a/output_inception_5a/output_0_split_2
I1105 17:54:38.899539 24744 net.cpp:411] inception_5b/5x5_reduce -> inception_5b/5x5_reduce
I1105 17:54:38.900694 24744 cudnn_conv_layer.cpp:194] Reallocating workspace storage: 7428
I1105 17:54:38.900728 24744 net.cpp:150] Setting up inception_5b/5x5_reduce
I1105 17:54:38.900740 24744 net.cpp:157] Top shape: 32 48 7 7 (75264)
I1105 17:54:38.900748 24744 net.cpp:165] Memory required for data: 1779293192
I1105 17:54:38.900761 24744 layer_factory.hpp:76] Creating layer inception_5b/prelu_5x5_reduce
I1105 17:54:38.900776 24744 net.cpp:106] Creating Layer inception_5b/prelu_5x5_reduce
I1105 17:54:38.900786 24744 net.cpp:454] inception_5b/prelu_5x5_reduce <- inception_5b/5x5_reduce
I1105 17:54:38.900799 24744 net.cpp:397] inception_5b/prelu_5x5_reduce -> inception_5b/5x5_reduce (in-place)
I1105 17:54:38.900920 24744 net.cpp:150] Setting up inception_5b/prelu_5x5_reduce
I1105 17:54:38.900934 24744 net.cpp:157] Top shape: 32 48 7 7 (75264)
I1105 17:54:38.900943 24744 net.cpp:165] Memory required for data: 1779594248
I1105 17:54:38.900954 24744 layer_factory.hpp:76] Creating layer inception_5b/5x5
I1105 17:54:38.900966 24744 net.cpp:106] Creating Layer inception_5b/5x5
I1105 17:54:38.900976 24744 net.cpp:454] inception_5b/5x5 <- inception_5b/5x5_reduce
I1105 17:54:38.900993 24744 net.cpp:411] inception_5b/5x5 -> inception_5b/5x5
I1105 17:54:38.903062 24744 cudnn_conv_layer.cpp:194] Reallocating workspace storage: 9804
I1105 17:54:38.903097 24744 net.cpp:150] Setting up inception_5b/5x5
I1105 17:54:38.903110 24744 net.cpp:157] Top shape: 32 128 7 7 (200704)
I1105 17:54:38.903117 24744 net.cpp:165] Memory required for data: 1780397064
I1105 17:54:38.903131 24744 layer_factory.hpp:76] Creating layer inception_5b/prelu_5x5
I1105 17:54:38.903146 24744 net.cpp:106] Creating Layer inception_5b/prelu_5x5
I1105 17:54:38.903156 24744 net.cpp:454] inception_5b/prelu_5x5 <- inception_5b/5x5
I1105 17:54:38.903168 24744 net.cpp:397] inception_5b/prelu_5x5 -> inception_5b/5x5 (in-place)
I1105 17:54:38.903291 24744 net.cpp:150] Setting up inception_5b/prelu_5x5
I1105 17:54:38.903303 24744 net.cpp:157] Top shape: 32 128 7 7 (200704)
I1105 17:54:38.903311 24744 net.cpp:165] Memory required for data: 1781199880
I1105 17:54:38.903321 24744 layer_factory.hpp:76] Creating layer inception_5b/pool
I1105 17:54:38.903336 24744 net.cpp:106] Creating Layer inception_5b/pool
I1105 17:54:38.903347 24744 net.cpp:454] inception_5b/pool <- inception_5a/output_inception_5a/output_0_split_3
I1105 17:54:38.903358 24744 net.cpp:411] inception_5b/pool -> inception_5b/pool
I1105 17:54:38.903748 24744 net.cpp:150] Setting up inception_5b/pool
I1105 17:54:38.903760 24744 net.cpp:157] Top shape: 32 832 7 7 (1304576)
I1105 17:54:38.903769 24744 net.cpp:165] Memory required for data: 1786418184
I1105 17:54:38.903776 24744 layer_factory.hpp:76] Creating layer inception_5b/pool_proj
I1105 17:54:38.903792 24744 net.cpp:106] Creating Layer inception_5b/pool_proj
I1105 17:54:38.903802 24744 net.cpp:454] inception_5b/pool_proj <- inception_5b/pool
I1105 17:54:38.903817 24744 net.cpp:411] inception_5b/pool_proj -> inception_5b/pool_proj
I1105 17:54:38.906078 24744 cudnn_conv_layer.cpp:194] Reallocating workspace storage: 7428
I1105 17:54:38.906119 24744 net.cpp:150] Setting up inception_5b/pool_proj
I1105 17:54:38.906132 24744 net.cpp:157] Top shape: 32 128 7 7 (200704)
I1105 17:54:38.906141 24744 net.cpp:165] Memory required for data: 1787221000
I1105 17:54:38.906162 24744 layer_factory.hpp:76] Creating layer inception_5b/prelu_pool_proj
I1105 17:54:38.906178 24744 net.cpp:106] Creating Layer inception_5b/prelu_pool_proj
I1105 17:54:38.906189 24744 net.cpp:454] inception_5b/prelu_pool_proj <- inception_5b/pool_proj
I1105 17:54:38.906218 24744 net.cpp:397] inception_5b/prelu_pool_proj -> inception_5b/pool_proj (in-place)
I1105 17:54:38.906338 24744 net.cpp:150] Setting up inception_5b/prelu_pool_proj
I1105 17:54:38.906352 24744 net.cpp:157] Top shape: 32 128 7 7 (200704)
I1105 17:54:38.906358 24744 net.cpp:165] Memory required for data: 1788023816
I1105 17:54:38.906369 24744 layer_factory.hpp:76] Creating layer inception_5b/output
I1105 17:54:38.906383 24744 net.cpp:106] Creating Layer inception_5b/output
I1105 17:54:38.906404 24744 net.cpp:454] inception_5b/output <- inception_5b/1x1
I1105 17:54:38.906430 24744 net.cpp:454] inception_5b/output <- inception_5b/3x3
I1105 17:54:38.906440 24744 net.cpp:454] inception_5b/output <- inception_5b/5x5
I1105 17:54:38.906450 24744 net.cpp:454] inception_5b/output <- inception_5b/pool_proj
I1105 17:54:38.906469 24744 net.cpp:411] inception_5b/output -> inception_5b/output
I1105 17:54:38.906525 24744 net.cpp:150] Setting up inception_5b/output
I1105 17:54:38.906536 24744 net.cpp:157] Top shape: 32 1024 7 7 (1605632)
I1105 17:54:38.906544 24744 net.cpp:165] Memory required for data: 1794446344
I1105 17:54:38.906559 24744 layer_factory.hpp:76] Creating layer pool5/7x7_s1
I1105 17:54:38.906574 24744 net.cpp:106] Creating Layer pool5/7x7_s1
I1105 17:54:38.906585 24744 net.cpp:454] pool5/7x7_s1 <- inception_5b/output
I1105 17:54:38.906597 24744 net.cpp:411] pool5/7x7_s1 -> pool5/7x7_s1
I1105 17:54:38.906782 24744 net.cpp:150] Setting up pool5/7x7_s1
I1105 17:54:38.906795 24744 net.cpp:157] Top shape: 32 1024 1 1 (32768)
I1105 17:54:38.906802 24744 net.cpp:165] Memory required for data: 1794577416
I1105 17:54:38.906817 24744 layer_factory.hpp:76] Creating layer pool5/drop_7x7_s1
I1105 17:54:38.906829 24744 net.cpp:106] Creating Layer pool5/drop_7x7_s1
I1105 17:54:38.906837 24744 net.cpp:454] pool5/drop_7x7_s1 <- pool5/7x7_s1
I1105 17:54:38.906857 24744 net.cpp:397] pool5/drop_7x7_s1 -> pool5/7x7_s1 (in-place)
I1105 17:54:38.906911 24744 net.cpp:150] Setting up pool5/drop_7x7_s1
I1105 17:54:38.906924 24744 net.cpp:157] Top shape: 32 1024 1 1 (32768)
I1105 17:54:38.906932 24744 net.cpp:165] Memory required for data: 1794708488
I1105 17:54:38.906949 24744 layer_factory.hpp:76] Creating layer loss3/classifier2
I1105 17:54:38.906970 24744 net.cpp:106] Creating Layer loss3/classifier2
I1105 17:54:38.906980 24744 net.cpp:454] loss3/classifier2 <- pool5/7x7_s1
I1105 17:54:38.906993 24744 net.cpp:411] loss3/classifier2 -> loss3/classifier
I1105 17:54:38.907155 24744 net.cpp:150] Setting up loss3/classifier2
I1105 17:54:38.907166 24744 net.cpp:157] Top shape: 32 2 (64)
I1105 17:54:38.907174 24744 net.cpp:165] Memory required for data: 1794708744
I1105 17:54:38.907187 24744 layer_factory.hpp:76] Creating layer loss3/loss3
I1105 17:54:38.907204 24744 net.cpp:106] Creating Layer loss3/loss3
I1105 17:54:38.907213 24744 net.cpp:454] loss3/loss3 <- loss3/classifier
I1105 17:54:38.907224 24744 net.cpp:454] loss3/loss3 <- label_data_1_split_2
I1105 17:54:38.907237 24744 net.cpp:411] loss3/loss3 -> loss3/loss3
…
I1105 17:54:38.912967 24744 net.cpp:322] The NetState phase (1) differed from the phase (0) specified by a rule in layer data
I1105 17:54:38.914021 24744 net.cpp:49] Initializing net from parameters: 
name: "GoogleNet"
state {
  phase: TEST
}
layer {
  name: "data"
  type: "Data"
  top: "data"
  top: "label"
  include {
    phase: TEST
  }
  transform_param {
    mirror: false
    crop_size: 224
    mean_value: 104
    mean_value: 117
    mean_value: 123
  }
  data_param {
    source: "../../LMDB/val_9-lmdb"
    batch_size: 50
    backend: LMDB
  }
}
layer {
  name: "conv1/7x7_s2"
  type: "Convolution"
  bottom: "data"
  top: "conv1/7x7_s2"
  param {
    lr_mult: 1
    decay_mult: 1
  }
  param {
    lr_mult: 2
    decay_mult: 0
  }
  convolution_param {
    num_output: 64
    pad: 3
    kernel_size: 7
    stride: 2
    weight_filler {
      type: "xavier"
    }
    bias_filler {
      type: "constant"
      value: 0.2
    }
  }
}
layer {
  name: "conv1/prelu_7x7"
  type: "PReLU"
  bottom: "conv1/7x7_s2"
  top: "conv1/7x7_s2"
  param {
    lr_mult: 1
    decay_mult: 0
  }
  prelu_param {
    filler {
      type: "constant"
      value: 0.01
    }
  }
}
layer {
  name: "pool1/3x3_s2"
  type: "Pooling"
  bottom: "conv1/7x7_s2"
  top: "pool1/3x3_s2"
  pooling_param {
    pool: MAX
    kernel_size: 3
    stride: 2
  }
}
layer {
  name: "pool1/norm1"
  type: "LRN"
  bottom: "pool1/3x3_s2"
  top: "pool1/norm1"
  lrn_param {
    local_size: 5
    alpha: 0.0001
    beta: 0.75
  }
}
layer {
  name: "conv2/3x3_reduce"
  type: "Convolution"
  bottom: "pool1/norm1"
  top: "conv2/3x3_reduce"
  param {
    lr_mult: 1
    decay_mult: 1
  }
  param {
    lr_mult: 2
    decay_mult: 0
  }
  convolution_param {
    num_output: 64
    kernel_size: 1
    weight_filler {
      type: "xavier"
    }
    bias_filler {
      type: "constant"
      value: 0.2
    }
  }
}
layer {
  name: "conv2/prelu_3x3_reduce"
  type: "PReLU"
  bottom: "conv2/3x3_reduce"
  top: "conv2/3x3_reduce"
  param {
    lr_mult: 1
    decay_mult: 0
  }
  prelu_param {
    filler {
      type: "constant"
      value: 0.01
    }
  }
}
layer {
  name: "conv2/3x3"
  type: "Convolution"
  bottom: "conv2/3x3_reduce"
  top: "conv2/3x3"
  param {
    lr_mult: 1
    decay_mult: 1
  }
  param {
    lr_mult: 2
    decay_mult: 0
  }
  convolution_param {
    num_output: 192
    pad: 1
    kernel_size: 3
    weight_filler {
      type: "xavier"
    }
    bias_filler {
      type: "constant"
      value: 0.2
    }
  }
}
layer {
  name: "conv2/prelu_3x3"
  type: "PReLU"
  bottom: "conv2/3x3"
  top: "conv2/3x3"
  param {
    lr_mult: 1
    decay_mult: 0
  }
  prelu_param {
    filler {
      type: "constant"
      value: 0.01
    }
  }
}
layer {
  name: "conv2/norm2"
  type: "LRN"
  bottom: "conv2/3x3"
  top: "conv2/norm2"
  lrn_param {
    local_size: 5
    alpha: 0.0001
    beta: 0.75
  }
}
layer {
  name: "pool2/3x3_s2"
  type: "Pooling"
  bottom: "conv2/norm2"
  top: "pool2/3x3_s2"
  pooling_param {
    pool: MAX
    kernel_size: 3
    stride: 2
  }
}
layer {
  name: "inception_3a/1x1"
  type: "Convolution"
  bottom: "pool2/3x3_s2"
  top: "inception_3a/1x1"
  param {
    lr_mult: 1
    decay_mult: 1
  }
  param {
    lr_mult: 2
    decay_mult: 0
  }
  convolution_param {
    num_output: 64
    kernel_size: 1
    weight_filler {
      type: "xavier"
    }
    bias_filler {
      type: "constant"
      value: 0.2
    }
  }
}
layer {
  name: "inception_3a/prelu_1x1"
  type: "PReLU"
  bottom: "inception_3a/1x1"
  top: "inception_3a/1x1"
  param {
    lr_mult: 1
    decay_mult: 0
  }
  prelu_param {
    filler {
      type: "constant"
      value: 0.01
    }
  }
}
layer {
  name: "inception_3a/3x3_reduce"
  type: "Convolution"
  bottom: "pool2/3x3_s2"
  top: "inception_3a/3x3_reduce"
  param {
    lr_mult: 1
    decay_mult: 1
  }
  param {
    lr_mult: 2
    decay_mult: 0
  }
  convolution_param {
    num_output: 96
    kernel_size: 1
    weight_filler {
      type: "xavier"
    }
    bias_filler {
      type: "constant"
      value: 0.2
    }
  }
}
layer {
  name: "inception_3a/prelu_3x3_reduce"
  type: "PReLU"
  bottom: "inception_3a/3x3_reduce"
  top: "inception_3a/3x3_reduce"
  param {
    lr_mult: 1
    decay_mult: 0
  }
  prelu_param {
    filler {
      type: "constant"
      value: 0.01
    }
  }
}
layer {
  name: "inception_3a/3x3"
  type: "Convolution"
  bottom: "inception_3a/3x3_reduce"
  top: "inception_3a/3x3"
  param {
    lr_mult: 1
    decay_mult: 1
  }
  param {
    lr_mult: 2
    decay_mult: 0
  }
  convolution_param {
    num_output: 128
    pad: 1
    kernel_size: 3
    weight_filler {
      type: "xavier"
    }
    bias_filler {
      type: "constant"
      value: 0.2
    }
  }
}
layer {
  name: "inception_3a/prelu_3x3"
  type: "PReLU"
  bottom: "inception_3a/3x3"
  top: "inception_3a/3x3"
  param {
    lr_mult: 1
    decay_mult: 0
  }
  prelu_param {
    filler {
      type: "constant"
      value: 0.01
    }
  }
}
layer {
  name: "inception_3a/5x5_reduce"
  type: "Convolution"
  bottom: "pool2/3x3_s2"
  top: "inception_3a/5x5_reduce"
  param {
    lr_mult: 1
    decay_mult: 1
  }
  param {
    lr_mult: 2
    decay_mult: 0
  }
  convolution_param {
    num_output: 16
    kernel_size: 1
    weight_filler {
      type: "xavier"
    }
    bias_filler {
      type: "constant"
      value: 0.2
    }
  }
}
layer {
  name: "inception_3a/prelu_5x5_reduce"
  type: "PReLU"
  bottom: "inception_3a/5x5_reduce"
  top: "inception_3a/5x5_reduce"
  param {
    lr_mult: 1
    decay_mult: 0
  }
  prelu_param {
    filler {
      type: "constant"
      value: 0.01
    }
  }
}
layer {
  name: "inception_3a/5x5"
  type: "Convolution"
  bottom: "inception_3a/5x5_reduce"
  top: "inception_3a/5x5"
  param {
    lr_mult: 1
    decay_mult: 1
  }
  param {
    lr_mult: 2
    decay_mult: 0
  }
  convolution_param {
    num_output: 32
    pad: 2
    kernel_size: 5
    weight_filler {
      type: "xavier"
    }
    bias_filler {
      type: "constant"
      value: 0.2
    }
  }
}
layer {
  name: "inception_3a/prelu_5x5"
  type: "PReLU"
  bottom: "inception_3a/5x5"
  top: "inception_3a/5x5"
  param {
    lr_mult: 1
    decay_mult: 0
  }
  prelu_param {
    filler {
      type: "constant"
      value: 0.01
    }
  }
}
layer {
  name: "inception_3a/pool"
  type: "Pooling"
  bottom: "pool2/3x3_s2"
  top: "inception_3a/pool"
  pooling_param {
    pool: MAX
    kernel_size: 3
    stride: 1
    pad: 1
  }
}
layer {
  name: "inception_3a/pool_proj"
  type: "Convolution"
  bottom: "inception_3a/pool"
  top: "inception_3a/pool_proj"
  param {
    lr_mult: 1
    decay_mult: 1
  }
  param {
    lr_mult: 2
    decay_mult: 0
  }
  convolution_param {
    num_output: 32
    kernel_size: 1
    weight_filler {
      type: "xavier"
    }
    bias_filler {
      type: "constant"
      value: 0.2
    }
  }
}
layer {
  name: "inception_3a/prelu_pool_proj"
  type: "PReLU"
  bottom: "inception_3a/pool_proj"
  top: "inception_3a/pool_proj"
  param {
    lr_mult: 1
    decay_mult: 0
  }
  prelu_param {
    filler {
      type: "constant"
      value: 0.01
    }
  }
}
layer {
  name: "inception_3a/output"
  type: "Concat"
  bottom: "inception_3a/1x1"
  bottom: "inception_3a/3x3"
  bottom: "inception_3a/5x5"
  bottom: "inception_3a/pool_proj"
  top: "inception_3a/output"
}
layer {
  name: "inception_3b/1x1"
  type: "Convolution"
  bottom: "inception_3a/output"
  top: "inception_3b/1x1"
  param {
    lr_mult: 1
    decay_mult: 1
  }
  param {
    lr_mult: 2
    decay_mult: 0
  }
  convolution_param {
    num_output: 128
    kernel_size: 1
    weight_filler {
      type: "xavier"
    }
    bias_filler {
      type: "constant"
      value: 0.2
    }
  }
}
layer {
  name: "inception_3b/prelu_1x1"
  type: "PReLU"
  bottom: "inception_3b/1x1"
  top: "inception_3b/1x1"
  param {
    lr_mult: 1
    decay_mult: 0
  }
  prelu_param {
    filler {
      type: "constant"
      value: 0.01
    }
  }
}
layer {
  name: "inception_3b/3x3_reduce"
  type: "Convolution"
  bottom: "inception_3a/output"
  top: "inception_3b/3x3_reduce"
  param {
    lr_mult: 1
    decay_mult: 1
  }
  param {
    lr_mult: 2
    decay_mult: 0
  }
  convolution_param {
    num_output: 128
    kernel_size: 1
    weight_filler {
      type: "xavier"
    }
    bias_filler {
      type: "constant"
      value: 0.2
    }
  }
}
layer {
  name: "inception_3b/prelu_3x3_reduce"
  type: "PReLU"
  bottom: "inception_3b/3x3_reduce"
  top: "inception_3b/3x3_reduce"
  param {
    lr_mult: 1
    decay_mult: 0
  }
  prelu_param {
    filler {
      type: "constant"
      value: 0.01
    }
  }
}
layer {
  name: "inception_3b/3x3"
  type: "Convolution"
  bottom: "inception_3b/3x3_reduce"
  top: "inception_3b/3x3"
  param {
    lr_mult: 1
    decay_mult: 1
  }
  param {
    lr_mult: 2
    decay_mult: 0
  }
  convolution_param {
    num_output: 192
    pad: 1
    kernel_size: 3
    weight_filler {
      type: "xavier"
    }
…
I1105 17:54:39.195402 24744 net.cpp:106] Creating Layer inception_4c/output
I1105 17:54:39.195412 24744 net.cpp:454] inception_4c/output <- inception_4c/1x1
I1105 17:54:39.195425 24744 net.cpp:454] inception_4c/output <- inception_4c/3x3
I1105 17:54:39.195436 24744 net.cpp:454] inception_4c/output <- inception_4c/5x5
I1105 17:54:39.195446 24744 net.cpp:454] inception_4c/output <- inception_4c/pool_proj
I1105 17:54:39.195459 24744 net.cpp:411] inception_4c/output -> inception_4c/output
I1105 17:54:39.195502 24744 net.cpp:150] Setting up inception_4c/output
I1105 17:54:39.195514 24744 net.cpp:157] Top shape: 50 512 14 14 (5017600)
I1105 17:54:39.195523 24744 net.cpp:165] Memory required for data: 2234652208
I1105 17:54:39.195531 24744 layer_factory.hpp:76] Creating layer inception_4c/output_inception_4c/output_0_split
I1105 17:54:39.195544 24744 net.cpp:106] Creating Layer inception_4c/output_inception_4c/output_0_split
I1105 17:54:39.195554 24744 net.cpp:454] inception_4c/output_inception_4c/output_0_split <- inception_4c/output
I1105 17:54:39.195565 24744 net.cpp:411] inception_4c/output_inception_4c/output_0_split -> inception_4c/output_inception_4c/output_0_split_0
I1105 17:54:39.195582 24744 net.cpp:411] inception_4c/output_inception_4c/output_0_split -> inception_4c/output_inception_4c/output_0_split_1
I1105 17:54:39.195597 24744 net.cpp:411] inception_4c/output_inception_4c/output_0_split -> inception_4c/output_inception_4c/output_0_split_2
I1105 17:54:39.195613 24744 net.cpp:411] inception_4c/output_inception_4c/output_0_split -> inception_4c/output_inception_4c/output_0_split_3
I1105 17:54:39.195693 24744 net.cpp:150] Setting up inception_4c/output_inception_4c/output_0_split
I1105 17:54:39.195704 24744 net.cpp:157] Top shape: 50 512 14 14 (5017600)
I1105 17:54:39.195715 24744 net.cpp:157] Top shape: 50 512 14 14 (5017600)
I1105 17:54:39.195725 24744 net.cpp:157] Top shape: 50 512 14 14 (5017600)
I1105 17:54:39.195735 24744 net.cpp:157] Top shape: 50 512 14 14 (5017600)
I1105 17:54:39.195744 24744 net.cpp:165] Memory required for data: 2314933808
I1105 17:54:39.195752 24744 layer_factory.hpp:76] Creating layer inception_4d/1x1
I1105 17:54:39.195770 24744 net.cpp:106] Creating Layer inception_4d/1x1
I1105 17:54:39.195780 24744 net.cpp:454] inception_4d/1x1 <- inception_4c/output_inception_4c/output_0_split_0
I1105 17:54:39.195794 24744 net.cpp:411] inception_4d/1x1 -> inception_4d/1x1
I1105 17:54:39.197841 24744 cudnn_conv_layer.cpp:194] Reallocating workspace storage: 10080
I1105 17:54:39.197911 24744 net.cpp:150] Setting up inception_4d/1x1
I1105 17:54:39.197928 24744 net.cpp:157] Top shape: 50 112 14 14 (1097600)
I1105 17:54:39.197940 24744 net.cpp:165] Memory required for data: 2319324208
I1105 17:54:39.197959 24744 layer_factory.hpp:76] Creating layer inception_4d/prelu_1x1
I1105 17:54:39.197980 24744 net.cpp:106] Creating Layer inception_4d/prelu_1x1
I1105 17:54:39.197991 24744 net.cpp:454] inception_4d/prelu_1x1 <- inception_4d/1x1
I1105 17:54:39.198007 24744 net.cpp:397] inception_4d/prelu_1x1 -> inception_4d/1x1 (in-place)
I1105 17:54:39.198158 24744 net.cpp:150] Setting up inception_4d/prelu_1x1
I1105 17:54:39.198171 24744 net.cpp:157] Top shape: 50 112 14 14 (1097600)
I1105 17:54:39.198179 24744 net.cpp:165] Memory required for data: 2323714608
I1105 17:54:39.198192 24744 layer_factory.hpp:76] Creating layer inception_4d/3x3_reduce
I1105 17:54:39.198215 24744 net.cpp:106] Creating Layer inception_4d/3x3_reduce
I1105 17:54:39.198225 24744 net.cpp:454] inception_4d/3x3_reduce <- inception_4c/output_inception_4c/output_0_split_1
I1105 17:54:39.198240 24744 net.cpp:411] inception_4d/3x3_reduce -> inception_4d/3x3_reduce
I1105 17:54:39.200096 24744 cudnn_conv_layer.cpp:194] Reallocating workspace storage: 10080
I1105 17:54:39.200163 24744 net.cpp:150] Setting up inception_4d/3x3_reduce
I1105 17:54:39.200180 24744 net.cpp:157] Top shape: 50 144 14 14 (1411200)
I1105 17:54:39.200189 24744 net.cpp:165] Memory required for data: 2329359408
I1105 17:54:39.200207 24744 layer_factory.hpp:76] Creating layer inception_4d/prelu_3x3_reduce
I1105 17:54:39.200232 24744 net.cpp:106] Creating Layer inception_4d/prelu_3x3_reduce
I1105 17:54:39.200242 24744 net.cpp:454] inception_4d/prelu_3x3_reduce <- inception_4d/3x3_reduce
I1105 17:54:39.200258 24744 net.cpp:397] inception_4d/prelu_3x3_reduce -> inception_4d/3x3_reduce (in-place)
I1105 17:54:39.200425 24744 net.cpp:150] Setting up inception_4d/prelu_3x3_reduce
I1105 17:54:39.200449 24744 net.cpp:157] Top shape: 50 144 14 14 (1411200)
I1105 17:54:39.200458 24744 net.cpp:165] Memory required for data: 2335004208
I1105 17:54:39.200469 24744 layer_factory.hpp:76] Creating layer inception_4d/3x3
I1105 17:54:39.200486 24744 net.cpp:106] Creating Layer inception_4d/3x3
I1105 17:54:39.200497 24744 net.cpp:454] inception_4d/3x3 <- inception_4d/3x3_reduce
I1105 17:54:39.200512 24744 net.cpp:411] inception_4d/3x3 -> inception_4d/3x3
I1105 17:54:39.204923 24744 cudnn_conv_layer.cpp:194] Reallocating workspace storage: 10080
I1105 17:54:39.204990 24744 net.cpp:150] Setting up inception_4d/3x3
I1105 17:54:39.205009 24744 net.cpp:157] Top shape: 50 288 14 14 (2822400)
I1105 17:54:39.205020 24744 net.cpp:165] Memory required for data: 2346293808
I1105 17:54:39.205037 24744 layer_factory.hpp:76] Creating layer inception_4d/prelu_3x3
I1105 17:54:39.205060 24744 net.cpp:106] Creating Layer inception_4d/prelu_3x3
I1105 17:54:39.205077 24744 net.cpp:454] inception_4d/prelu_3x3 <- inception_4d/3x3
I1105 17:54:39.205095 24744 net.cpp:397] inception_4d/prelu_3x3 -> inception_4d/3x3 (in-place)
I1105 17:54:39.205823 24744 net.cpp:150] Setting up inception_4d/prelu_3x3
I1105 17:54:39.205838 24744 net.cpp:157] Top shape: 50 288 14 14 (2822400)
I1105 17:54:39.205847 24744 net.cpp:165] Memory required for data: 2357583408
I1105 17:54:39.205857 24744 layer_factory.hpp:76] Creating layer inception_4d/5x5_reduce
I1105 17:54:39.205875 24744 net.cpp:106] Creating Layer inception_4d/5x5_reduce
I1105 17:54:39.205888 24744 net.cpp:454] inception_4d/5x5_reduce <- inception_4c/output_inception_4c/output_0_split_2
I1105 17:54:39.205901 24744 net.cpp:411] inception_4d/5x5_reduce -> inception_4d/5x5_reduce
I1105 17:54:39.207576 24744 cudnn_conv_layer.cpp:194] Reallocating workspace storage: 10080
I1105 17:54:39.207618 24744 net.cpp:150] Setting up inception_4d/5x5_reduce
I1105 17:54:39.207631 24744 net.cpp:157] Top shape: 50 32 14 14 (313600)
I1105 17:54:39.207639 24744 net.cpp:165] Memory required for data: 2358837808
I1105 17:54:39.207653 24744 layer_factory.hpp:76] Creating layer inception_4d/prelu_5x5_reduce
I1105 17:54:39.207669 24744 net.cpp:106] Creating Layer inception_4d/prelu_5x5_reduce
I1105 17:54:39.207679 24744 net.cpp:454] inception_4d/prelu_5x5_reduce <- inception_4d/5x5_reduce
I1105 17:54:39.207691 24744 net.cpp:397] inception_4d/prelu_5x5_reduce -> inception_4d/5x5_reduce (in-place)
I1105 17:54:39.207790 24744 net.cpp:150] Setting up inception_4d/prelu_5x5_reduce
I1105 17:54:39.207803 24744 net.cpp:157] Top shape: 50 32 14 14 (313600)
I1105 17:54:39.207810 24744 net.cpp:165] Memory required for data: 2360092208
I1105 17:54:39.207821 24744 layer_factory.hpp:76] Creating layer inception_4d/5x5
I1105 17:54:39.207837 24744 net.cpp:106] Creating Layer inception_4d/5x5
I1105 17:54:39.207849 24744 net.cpp:454] inception_4d/5x5 <- inception_4d/5x5_reduce
I1105 17:54:39.207864 24744 net.cpp:411] inception_4d/5x5 -> inception_4d/5x5
I1105 17:54:39.209157 24744 cudnn_conv_layer.cpp:194] Reallocating workspace storage: 13080
I1105 17:54:39.209197 24744 net.cpp:150] Setting up inception_4d/5x5
I1105 17:54:39.209210 24744 net.cpp:157] Top shape: 50 64 14 14 (627200)
I1105 17:54:39.209218 24744 net.cpp:165] Memory required for data: 2362601008
I1105 17:54:39.209231 24744 layer_factory.hpp:76] Creating layer inception_4d/prelu_5x5
I1105 17:54:39.209247 24744 net.cpp:106] Creating Layer inception_4d/prelu_5x5
I1105 17:54:39.209257 24744 net.cpp:454] inception_4d/prelu_5x5 <- inception_4d/5x5
I1105 17:54:39.209272 24744 net.cpp:397] inception_4d/prelu_5x5 -> inception_4d/5x5 (in-place)
I1105 17:54:39.209400 24744 net.cpp:150] Setting up inception_4d/prelu_5x5
I1105 17:54:39.209414 24744 net.cpp:157] Top shape: 50 64 14 14 (627200)
I1105 17:54:39.209420 24744 net.cpp:165] Memory required for data: 2365109808
I1105 17:54:39.209432 24744 layer_factory.hpp:76] Creating layer inception_4d/pool
I1105 17:54:39.209449 24744 net.cpp:106] Creating Layer inception_4d/pool
I1105 17:54:39.209460 24744 net.cpp:454] inception_4d/pool <- inception_4c/output_inception_4c/output_0_split_3
I1105 17:54:39.209471 24744 net.cpp:411] inception_4d/pool -> inception_4d/pool
I1105 17:54:39.209972 24744 net.cpp:150] Setting up inception_4d/pool
I1105 17:54:39.209987 24744 net.cpp:157] Top shape: 50 512 14 14 (5017600)
I1105 17:54:39.209996 24744 net.cpp:165] Memory required for data: 2385180208
I1105 17:54:39.210005 24744 layer_factory.hpp:76] Creating layer inception_4d/pool_proj
I1105 17:54:39.210021 24744 net.cpp:106] Creating Layer inception_4d/pool_proj
I1105 17:54:39.210029 24744 net.cpp:454] inception_4d/pool_proj <- inception_4d/pool
I1105 17:54:39.210041 24744 net.cpp:411] inception_4d/pool_proj -> inception_4d/pool_proj
I1105 17:54:39.211529 24744 cudnn_conv_layer.cpp:194] Reallocating workspace storage: 10080
I1105 17:54:39.211573 24744 net.cpp:150] Setting up inception_4d/pool_proj
I1105 17:54:39.211587 24744 net.cpp:157] Top shape: 50 64 14 14 (627200)
I1105 17:54:39.211596 24744 net.cpp:165] Memory required for data: 2387689008
I1105 17:54:39.211609 24744 layer_factory.hpp:76] Creating layer inception_4d/prelu_pool_proj
I1105 17:54:39.211637 24744 net.cpp:106] Creating Layer inception_4d/prelu_pool_proj
I1105 17:54:39.211647 24744 net.cpp:454] inception_4d/prelu_pool_proj <- inception_4d/pool_proj
I1105 17:54:39.211659 24744 net.cpp:397] inception_4d/prelu_pool_proj -> inception_4d/pool_proj (in-place)
I1105 17:54:39.211760 24744 net.cpp:150] Setting up inception_4d/prelu_pool_proj
I1105 17:54:39.211771 24744 net.cpp:157] Top shape: 50 64 14 14 (627200)
I1105 17:54:39.211779 24744 net.cpp:165] Memory required for data: 2390197808
I1105 17:54:39.211791 24744 layer_factory.hpp:76] Creating layer inception_4d/output
I1105 17:54:39.211807 24744 net.cpp:106] Creating Layer inception_4d/output
I1105 17:54:39.211819 24744 net.cpp:454] inception_4d/output <- inception_4d/1x1
I1105 17:54:39.211829 24744 net.cpp:454] inception_4d/output <- inception_4d/3x3
I1105 17:54:39.211839 24744 net.cpp:454] inception_4d/output <- inception_4d/5x5
I1105 17:54:39.211848 24744 net.cpp:454] inception_4d/output <- inception_4d/pool_proj
I1105 17:54:39.211860 24744 net.cpp:411] inception_4d/output -> inception_4d/output
I1105 17:54:39.211894 24744 net.cpp:150] Setting up inception_4d/output
I1105 17:54:39.211905 24744 net.cpp:157] Top shape: 50 528 14 14 (5174400)
I1105 17:54:39.211912 24744 net.cpp:165] Memory required for data: 2410895408
I1105 17:54:39.211920 24744 layer_factory.hpp:76] Creating layer inception_4d/output_inception_4d/output_0_split
I1105 17:54:39.211935 24744 net.cpp:106] Creating Layer inception_4d/output_inception_4d/output_0_split
I1105 17:54:39.211943 24744 net.cpp:454] inception_4d/output_inception_4d/output_0_split <- inception_4d/output
I1105 17:54:39.211957 24744 net.cpp:411] inception_4d/output_inception_4d/output_0_split -> inception_4d/output_inception_4d/output_0_split_0
I1105 17:54:39.211972 24744 net.cpp:411] inception_4d/output_inception_4d/output_0_split -> inception_4d/output_inception_4d/output_0_split_1
I1105 17:54:39.211987 24744 net.cpp:411] inception_4d/output_inception_4d/output_0_split -> inception_4d/output_inception_4d/output_0_split_2
I1105 17:54:39.212002 24744 net.cpp:411] inception_4d/output_inception_4d/output_0_split -> inception_4d/output_inception_4d/output_0_split_3
I1105 17:54:39.212015 24744 net.cpp:411] inception_4d/output_inception_4d/output_0_split -> inception_4d/output_inception_4d/output_0_split_4
I1105 17:54:39.212090 24744 net.cpp:150] Setting up inception_4d/output_inception_4d/output_0_split
I1105 17:54:39.212100 24744 net.cpp:157] Top shape: 50 528 14 14 (5174400)
I1105 17:54:39.212110 24744 net.cpp:157] Top shape: 50 528 14 14 (5174400)
I1105 17:54:39.212121 24744 net.cpp:157] Top shape: 50 528 14 14 (5174400)
I1105 17:54:39.212131 24744 net.cpp:157] Top shape: 50 528 14 14 (5174400)
I1105 17:54:39.212141 24744 net.cpp:157] Top shape: 50 528 14 14 (5174400)
I1105 17:54:39.212148 24744 net.cpp:165] Memory required for data: 2514383408
I1105 17:54:39.212157 24744 layer_factory.hpp:76] Creating layer loss2/ave_pool
I1105 17:54:39.212169 24744 net.cpp:106] Creating Layer loss2/ave_pool
I1105 17:54:39.212178 24744 net.cpp:454] loss2/ave_pool <- inception_4d/output_inception_4d/output_0_split_0
I1105 17:54:39.212190 24744 net.cpp:411] loss2/ave_pool -> loss2/ave_pool
I1105 17:54:39.212384 24744 net.cpp:150] Setting up loss2/ave_pool
I1105 17:54:39.212398 24744 net.cpp:157] Top shape: 50 528 4 4 (422400)
I1105 17:54:39.212405 24744 net.cpp:165] Memory required for data: 2516073008
I1105 17:54:39.212414 24744 layer_factory.hpp:76] Creating layer loss2/conv
I1105 17:54:39.212429 24744 net.cpp:106] Creating Layer loss2/conv
I1105 17:54:39.212437 24744 net.cpp:454] loss2/conv <- loss2/ave_pool
I1105 17:54:39.212451 24744 net.cpp:411] loss2/conv -> loss2/conv
I1105 17:54:39.214210 24744 cudnn_conv_layer.cpp:194] Reallocating workspace storage: 6840
I1105 17:54:39.214257 24744 net.cpp:150] Setting up loss2/conv
I1105 17:54:39.214265 24744 net.cpp:157] Top shape: 50 128 4 4 (102400)
I1105 17:54:39.214269 24744 net.cpp:165] Memory required for data: 2516482608
I1105 17:54:39.214279 24744 layer_factory.hpp:76] Creating layer loss2/prelu_conv
I1105 17:54:39.214306 24744 net.cpp:106] Creating Layer loss2/prelu_conv
I1105 17:54:39.214313 24744 net.cpp:454] loss2/prelu_conv <- loss2/conv
I1105 17:54:39.214321 24744 net.cpp:397] loss2/prelu_conv -> loss2/conv (in-place)
I1105 17:54:39.214437 24744 net.cpp:150] Setting up loss2/prelu_conv
I1105 17:54:39.214448 24744 net.cpp:157] Top shape: 50 128 4 4 (102400)
I1105 17:54:39.214453 24744 net.cpp:165] Memory required for data: 2516892208
I1105 17:54:39.214458 24744 layer_factory.hpp:76] Creating layer loss2/fc
I1105 17:54:39.214475 24744 net.cpp:106] Creating Layer loss2/fc
I1105 17:54:39.214481 24744 net.cpp:454] loss2/fc <- loss2/conv
I1105 17:54:39.214494 24744 net.cpp:411] loss2/fc -> loss2/fc
I1105 17:54:39.229995 24744 net.cpp:150] Setting up loss2/fc
I1105 17:54:39.230041 24744 net.cpp:157] Top shape: 50 1024 (51200)
I1105 17:54:39.230047 24744 net.cpp:165] Memory required for data: 2517097008
I1105 17:54:39.230096 24744 layer_factory.hpp:76] Creating layer loss2/prelu_fc
I1105 17:54:39.230139 24744 net.cpp:106] Creating Layer loss2/prelu_fc
I1105 17:54:39.230152 24744 net.cpp:454] loss2/prelu_fc <- loss2/fc
I1105 17:54:39.230187 24744 net.cpp:397] loss2/prelu_fc -> loss2/fc (in-place)
I1105 17:54:39.230327 24744 net.cpp:150] Setting up loss2/prelu_fc
I1105 17:54:39.230340 24744 net.cpp:157] Top shape: 50 1024 (51200)
I1105 17:54:39.230347 24744 net.cpp:165] Memory required for data: 2517301808
I1105 17:54:39.230358 24744 layer_factory.hpp:76] Creating layer loss2/drop_fc
I1105 17:54:39.230375 24744 net.cpp:106] Creating Layer loss2/drop_fc
I1105 17:54:39.230383 24744 net.cpp:454] loss2/drop_fc <- loss2/fc
I1105 17:54:39.230394 24744 net.cpp:397] loss2/drop_fc -> loss2/fc (in-place)
I1105 17:54:39.230433 24744 net.cpp:150] Setting up loss2/drop_fc
I1105 17:54:39.230444 24744 net.cpp:157] Top shape: 50 1024 (51200)
I1105 17:54:39.230453 24744 net.cpp:165] Memory required for data: 2517506608
I1105 17:54:39.230460 24744 layer_factory.hpp:76] Creating layer loss2/classifier2
I1105 17:54:39.230474 24744 net.cpp:106] Creating Layer loss2/classifier2
I1105 17:54:39.230482 24744 net.cpp:454] loss2/classifier2 <- loss2/fc
I1105 17:54:39.230497 24744 net.cpp:411] loss2/classifier2 -> loss2/classifier
I1105 17:54:39.230635 24744 net.cpp:150] Setting up loss2/classifier2
I1105 17:54:39.230648 24744 net.cpp:157] Top shape: 50 2 (100)
I1105 17:54:39.230655 24744 net.cpp:165] Memory required for data: 2517507008
I1105 17:54:39.230669 24744 layer_factory.hpp:76] Creating layer loss2/classifier_loss2/classifier2_0_split
I1105 17:54:39.230684 24744 net.cpp:106] Creating Layer loss2/classifier_loss2/classifier2_0_split
I1105 17:54:39.230695 24744 net.cpp:454] loss2/classifier_loss2/classifier2_0_split <- loss2/classifier
I1105 17:54:39.230706 24744 net.cpp:411] loss2/classifier_loss2/classifier2_0_split -> loss2/classifier_loss2/classifier2_0_split_0
I1105 17:54:39.230721 24744 net.cpp:411] loss2/classifier_loss2/classifier2_0_split -> loss2/classifier_loss2/classifier2_0_split_1
I1105 17:54:39.230768 24744 net.cpp:150] Setting up loss2/classifier_loss2/classifier2_0_split
I1105 17:54:39.230780 24744 net.cpp:157] Top shape: 50 2 (100)
I1105 17:54:39.230790 24744 net.cpp:157] Top shape: 50 2 (100)
I1105 17:54:39.230798 24744 net.cpp:165] Memory required for data: 2517507808
I1105 17:54:39.230806 24744 layer_factory.hpp:76] Creating layer loss2/loss
I1105 17:54:39.230820 24744 net.cpp:106] Creating Layer loss2/loss
I1105 17:54:39.230829 24744 net.cpp:454] loss2/loss <- loss2/classifier_loss2/classifier2_0_split_0
I1105 17:54:39.230840 24744 net.cpp:454] loss2/loss <- label_data_1_split_2
…
I1105 17:54:39.231664 24744 net.cpp:165] Memory required for data: 2517507816
I1105 17:54:39.231673 24744 layer_factory.hpp:76] Creating layer inception_4e/1x1
I1105 17:54:39.231690 24744 net.cpp:106] Creating Layer inception_4e/1x1
I1105 17:54:39.231701 24744 net.cpp:454] inception_4e/1x1 <- inception_4d/output_inception_4d/output_0_split_1
I1105 17:54:39.231717 24744 net.cpp:411] inception_4e/1x1 -> inception_4e/1x1
I1105 17:54:39.233948 24744 cudnn_conv_layer.cpp:194] Reallocating workspace storage: 10080
I1105 17:54:39.234002 24744 net.cpp:150] Setting up inception_4e/1x1
I1105 17:54:39.234016 24744 net.cpp:157] Top shape: 50 256 14 14 (2508800)
I1105 17:54:39.234025 24744 net.cpp:165] Memory required for data: 2527543016
I1105 17:54:39.234038 24744 layer_factory.hpp:76] Creating layer inception_4e/prelu_1x1
I1105 17:54:39.234058 24744 net.cpp:106] Creating Layer inception_4e/prelu_1x1
I1105 17:54:39.234068 24744 net.cpp:454] inception_4e/prelu_1x1 <- inception_4e/1x1
I1105 17:54:39.234081 24744 net.cpp:397] inception_4e/prelu_1x1 -> inception_4e/1x1 (in-place)
I1105 17:54:39.234212 24744 net.cpp:150] Setting up inception_4e/prelu_1x1
I1105 17:54:39.234225 24744 net.cpp:157] Top shape: 50 256 14 14 (2508800)
I1105 17:54:39.234231 24744 net.cpp:165] Memory required for data: 2537578216
I1105 17:54:39.234243 24744 layer_factory.hpp:76] Creating layer inception_4e/3x3_reduce
I1105 17:54:39.234261 24744 net.cpp:106] Creating Layer inception_4e/3x3_reduce
I1105 17:54:39.234271 24744 net.cpp:454] inception_4e/3x3_reduce <- inception_4d/output_inception_4d/output_0_split_2
I1105 17:54:39.234283 24744 net.cpp:411] inception_4e/3x3_reduce -> inception_4e/3x3_reduce
I1105 17:54:39.235882 24744 cudnn_conv_layer.cpp:194] Reallocating workspace storage: 10080
I1105 17:54:39.235929 24744 net.cpp:150] Setting up inception_4e/3x3_reduce
I1105 17:54:39.235941 24744 net.cpp:157] Top shape: 50 160 14 14 (1568000)
I1105 17:54:39.235951 24744 net.cpp:165] Memory required for data: 2543850216
I1105 17:54:39.235965 24744 layer_factory.hpp:76] Creating layer inception_4e/prelu_3x3_reduce
I1105 17:54:39.235980 24744 net.cpp:106] Creating Layer inception_4e/prelu_3x3_reduce
I1105 17:54:39.235990 24744 net.cpp:454] inception_4e/prelu_3x3_reduce <- inception_4e/3x3_reduce
I1105 17:54:39.236001 24744 net.cpp:397] inception_4e/prelu_3x3_reduce -> inception_4e/3x3_reduce (in-place)
I1105 17:54:39.236111 24744 net.cpp:150] Setting up inception_4e/prelu_3x3_reduce
I1105 17:54:39.236124 24744 net.cpp:157] Top shape: 50 160 14 14 (1568000)
I1105 17:54:39.236131 24744 net.cpp:165] Memory required for data: 2550122216
I1105 17:54:39.236142 24744 layer_factory.hpp:76] Creating layer inception_4e/3x3
I1105 17:54:39.236173 24744 net.cpp:106] Creating Layer inception_4e/3x3
I1105 17:54:39.236182 24744 net.cpp:454] inception_4e/3x3 <- inception_4e/3x3_reduce
I1105 17:54:39.236196 24744 net.cpp:411] inception_4e/3x3 -> inception_4e/3x3
I1105 17:54:39.240783 24744 cudnn_conv_layer.cpp:194] Reallocating workspace storage: 10080
I1105 17:54:39.240849 24744 net.cpp:150] Setting up inception_4e/3x3
I1105 17:54:39.240864 24744 net.cpp:157] Top shape: 50 320 14 14 (3136000)
I1105 17:54:39.240874 24744 net.cpp:165] Memory required for data: 2562666216
I1105 17:54:39.240891 24744 layer_factory.hpp:76] Creating layer inception_4e/prelu_3x3
I1105 17:54:39.240913 24744 net.cpp:106] Creating Layer inception_4e/prelu_3x3
I1105 17:54:39.240926 24744 net.cpp:454] inception_4e/prelu_3x3 <- inception_4e/3x3
I1105 17:54:39.240941 24744 net.cpp:397] inception_4e/prelu_3x3 -> inception_4e/3x3 (in-place)
I1105 17:54:39.241597 24744 net.cpp:150] Setting up inception_4e/prelu_3x3
I1105 17:54:39.241611 24744 net.cpp:157] Top shape: 50 320 14 14 (3136000)
I1105 17:54:39.241621 24744 net.cpp:165] Memory required for data: 2575210216
I1105 17:54:39.241631 24744 layer_factory.hpp:76] Creating layer inception_4e/5x5_reduce
I1105 17:54:39.241648 24744 net.cpp:106] Creating Layer inception_4e/5x5_reduce
I1105 17:54:39.241668 24744 net.cpp:454] inception_4e/5x5_reduce <- inception_4d/output_inception_4d/output_0_split_3
I1105 17:54:39.241684 24744 net.cpp:411] inception_4e/5x5_reduce -> inception_4e/5x5_reduce
I1105 17:54:39.242928 24744 cudnn_conv_layer.cpp:194] Reallocating workspace storage: 10080
I1105 17:54:39.242975 24744 net.cpp:150] Setting up inception_4e/5x5_reduce
I1105 17:54:39.242987 24744 net.cpp:157] Top shape: 50 32 14 14 (313600)
I1105 17:54:39.242996 24744 net.cpp:165] Memory required for data: 2576464616
I1105 17:54:39.243010 24744 layer_factory.hpp:76] Creating layer inception_4e/prelu_5x5_reduce
I1105 17:54:39.243026 24744 net.cpp:106] Creating Layer inception_4e/prelu_5x5_reduce
I1105 17:54:39.243036 24744 net.cpp:454] inception_4e/prelu_5x5_reduce <- inception_4e/5x5_reduce
I1105 17:54:39.243051 24744 net.cpp:397] inception_4e/prelu_5x5_reduce -> inception_4e/5x5_reduce (in-place)
I1105 17:54:39.243201 24744 net.cpp:150] Setting up inception_4e/prelu_5x5_reduce
I1105 17:54:39.243212 24744 net.cpp:157] Top shape: 50 32 14 14 (313600)
I1105 17:54:39.243221 24744 net.cpp:165] Memory required for data: 2577719016
I1105 17:54:39.243239 24744 layer_factory.hpp:76] Creating layer inception_4e/5x5
I1105 17:54:39.243263 24744 net.cpp:106] Creating Layer inception_4e/5x5
I1105 17:54:39.243273 24744 net.cpp:454] inception_4e/5x5 <- inception_4e/5x5_reduce
I1105 17:54:39.243288 24744 net.cpp:411] inception_4e/5x5 -> inception_4e/5x5
I1105 17:54:39.245764 24744 cudnn_conv_layer.cpp:194] Reallocating workspace storage: 13080
I1105 17:54:39.245836 24744 net.cpp:150] Setting up inception_4e/5x5
I1105 17:54:39.245853 24744 net.cpp:157] Top shape: 50 128 14 14 (1254400)
I1105 17:54:39.245863 24744 net.cpp:165] Memory required for data: 2582736616
I1105 17:54:39.245880 24744 layer_factory.hpp:76] Creating layer inception_4e/prelu_5x5
I1105 17:54:39.245900 24744 net.cpp:106] Creating Layer inception_4e/prelu_5x5
I1105 17:54:39.245913 24744 net.cpp:454] inception_4e/prelu_5x5 <- inception_4e/5x5
I1105 17:54:39.245929 24744 net.cpp:397] inception_4e/prelu_5x5 -> inception_4e/5x5 (in-place)
I1105 17:54:39.246043 24744 net.cpp:150] Setting up inception_4e/prelu_5x5
I1105 17:54:39.246057 24744 net.cpp:157] Top shape: 50 128 14 14 (1254400)
I1105 17:54:39.246064 24744 net.cpp:165] Memory required for data: 2587754216
I1105 17:54:39.246075 24744 layer_factory.hpp:76] Creating layer inception_4e/pool
I1105 17:54:39.246091 24744 net.cpp:106] Creating Layer inception_4e/pool
I1105 17:54:39.246101 24744 net.cpp:454] inception_4e/pool <- inception_4d/output_inception_4d/output_0_split_4
I1105 17:54:39.246114 24744 net.cpp:411] inception_4e/pool -> inception_4e/pool
I1105 17:54:39.246353 24744 net.cpp:150] Setting up inception_4e/pool
I1105 17:54:39.246368 24744 net.cpp:157] Top shape: 50 528 14 14 (5174400)
I1105 17:54:39.246376 24744 net.cpp:165] Memory required for data: 2608451816
I1105 17:54:39.246384 24744 layer_factory.hpp:76] Creating layer inception_4e/pool_proj
I1105 17:54:39.246403 24744 net.cpp:106] Creating Layer inception_4e/pool_proj
I1105 17:54:39.246417 24744 net.cpp:454] inception_4e/pool_proj <- inception_4e/pool
I1105 17:54:39.246429 24744 net.cpp:411] inception_4e/pool_proj -> inception_4e/pool_proj
I1105 17:54:39.248194 24744 cudnn_conv_layer.cpp:194] Reallocating workspace storage: 10080
I1105 17:54:39.248245 24744 net.cpp:150] Setting up inception_4e/pool_proj
I1105 17:54:39.248258 24744 net.cpp:157] Top shape: 50 128 14 14 (1254400)
I1105 17:54:39.248266 24744 net.cpp:165] Memory required for data: 2613469416
I1105 17:54:39.248281 24744 layer_factory.hpp:76] Creating layer inception_4e/prelu_pool_proj
I1105 17:54:39.248313 24744 net.cpp:106] Creating Layer inception_4e/prelu_pool_proj
I1105 17:54:39.248324 24744 net.cpp:454] inception_4e/prelu_pool_proj <- inception_4e/pool_proj
I1105 17:54:39.248337 24744 net.cpp:397] inception_4e/prelu_pool_proj -> inception_4e/pool_proj (in-place)
I1105 17:54:39.248450 24744 net.cpp:150] Setting up inception_4e/prelu_pool_proj
I1105 17:54:39.248469 24744 net.cpp:157] Top shape: 50 128 14 14 (1254400)
I1105 17:54:39.248477 24744 net.cpp:165] Memory required for data: 2618487016
I1105 17:54:39.248488 24744 layer_factory.hpp:76] Creating layer inception_4e/output
I1105 17:54:39.248500 24744 net.cpp:106] Creating Layer inception_4e/output
I1105 17:54:39.248509 24744 net.cpp:454] inception_4e/output <- inception_4e/1x1
I1105 17:54:39.248519 24744 net.cpp:454] inception_4e/output <- inception_4e/3x3
I1105 17:54:39.248529 24744 net.cpp:454] inception_4e/output <- inception_4e/5x5
I1105 17:54:39.248539 24744 net.cpp:454] inception_4e/output <- inception_4e/pool_proj
I1105 17:54:39.248549 24744 net.cpp:411] inception_4e/output -> inception_4e/output
I1105 17:54:39.248584 24744 net.cpp:150] Setting up inception_4e/output
I1105 17:54:39.248597 24744 net.cpp:157] Top shape: 50 832 14 14 (8153600)
I1105 17:54:39.248605 24744 net.cpp:165] Memory required for data: 2651101416
I1105 17:54:39.248613 24744 layer_factory.hpp:76] Creating layer pool4/3x3_s2
I1105 17:54:39.248625 24744 net.cpp:106] Creating Layer pool4/3x3_s2
I1105 17:54:39.248635 24744 net.cpp:454] pool4/3x3_s2 <- inception_4e/output
I1105 17:54:39.248647 24744 net.cpp:411] pool4/3x3_s2 -> pool4/3x3_s2
I1105 17:54:39.248864 24744 net.cpp:150] Setting up pool4/3x3_s2
I1105 17:54:39.248878 24744 net.cpp:157] Top shape: 50 832 7 7 (2038400)
I1105 17:54:39.248885 24744 net.cpp:165] Memory required for data: 2659255016
I1105 17:54:39.248894 24744 layer_factory.hpp:76] Creating layer pool4/3x3_s2_pool4/3x3_s2_0_split
I1105 17:54:39.248906 24744 net.cpp:106] Creating Layer pool4/3x3_s2_pool4/3x3_s2_0_split
I1105 17:54:39.248915 24744 net.cpp:454] pool4/3x3_s2_pool4/3x3_s2_0_split <- pool4/3x3_s2
I1105 17:54:39.248930 24744 net.cpp:411] pool4/3x3_s2_pool4/3x3_s2_0_split -> pool4/3x3_s2_pool4/3x3_s2_0_split_0
I1105 17:54:39.248946 24744 net.cpp:411] pool4/3x3_s2_pool4/3x3_s2_0_split -> pool4/3x3_s2_pool4/3x3_s2_0_split_1
I1105 17:54:39.248962 24744 net.cpp:411] pool4/3x3_s2_pool4/3x3_s2_0_split -> pool4/3x3_s2_pool4/3x3_s2_0_split_2
I1105 17:54:39.248976 24744 net.cpp:411] pool4/3x3_s2_pool4/3x3_s2_0_split -> pool4/3x3_s2_pool4/3x3_s2_0_split_3
I1105 17:54:39.249042 24744 net.cpp:150] Setting up pool4/3x3_s2_pool4/3x3_s2_0_split
I1105 17:54:39.249054 24744 net.cpp:157] Top shape: 50 832 7 7 (2038400)
I1105 17:54:39.249064 24744 net.cpp:157] Top shape: 50 832 7 7 (2038400)
I1105 17:54:39.249089 24744 net.cpp:157] Top shape: 50 832 7 7 (2038400)
I1105 17:54:39.249099 24744 net.cpp:157] Top shape: 50 832 7 7 (2038400)
I1105 17:54:39.249107 24744 net.cpp:165] Memory required for data: 2691869416
I1105 17:54:39.249115 24744 layer_factory.hpp:76] Creating layer inception_5a/1x1
I1105 17:54:39.249128 24744 net.cpp:106] Creating Layer inception_5a/1x1
I1105 17:54:39.249137 24744 net.cpp:454] inception_5a/1x1 <- pool4/3x3_s2_pool4/3x3_s2_0_split_0
I1105 17:54:39.249152 24744 net.cpp:411] inception_5a/1x1 -> inception_5a/1x1
I1105 17:54:39.252053 24744 cudnn_conv_layer.cpp:194] Reallocating workspace storage: 7428
I1105 17:54:39.252105 24744 net.cpp:150] Setting up inception_5a/1x1
I1105 17:54:39.252120 24744 net.cpp:157] Top shape: 50 256 7 7 (627200)
I1105 17:54:39.252128 24744 net.cpp:165] Memory required for data: 2694378216
I1105 17:54:39.252145 24744 layer_factory.hpp:76] Creating layer inception_5a/prelu_1x1
I1105 17:54:39.252162 24744 net.cpp:106] Creating Layer inception_5a/prelu_1x1
I1105 17:54:39.252174 24744 net.cpp:454] inception_5a/prelu_1x1 <- inception_5a/1x1
I1105 17:54:39.252188 24744 net.cpp:397] inception_5a/prelu_1x1 -> inception_5a/1x1 (in-place)
I1105 17:54:39.252313 24744 net.cpp:150] Setting up inception_5a/prelu_1x1
I1105 17:54:39.252326 24744 net.cpp:157] Top shape: 50 256 7 7 (627200)
I1105 17:54:39.252346 24744 net.cpp:165] Memory required for data: 2696887016
I1105 17:54:39.252359 24744 layer_factory.hpp:76] Creating layer inception_5a/3x3_reduce
I1105 17:54:39.252385 24744 net.cpp:106] Creating Layer inception_5a/3x3_reduce
I1105 17:54:39.252394 24744 net.cpp:454] inception_5a/3x3_reduce <- pool4/3x3_s2_pool4/3x3_s2_0_split_1
I1105 17:54:39.252408 24744 net.cpp:411] inception_5a/3x3_reduce -> inception_5a/3x3_reduce
I1105 17:54:39.255043 24744 cudnn_conv_layer.cpp:194] Reallocating workspace storage: 7428
I1105 17:54:39.255107 24744 net.cpp:150] Setting up inception_5a/3x3_reduce
I1105 17:54:39.255121 24744 net.cpp:157] Top shape: 50 160 7 7 (392000)
I1105 17:54:39.255131 24744 net.cpp:165] Memory required for data: 2698455016
I1105 17:54:39.255146 24744 layer_factory.hpp:76] Creating layer inception_5a/prelu_3x3_reduce
I1105 17:54:39.255167 24744 net.cpp:106] Creating Layer inception_5a/prelu_3x3_reduce
I1105 17:54:39.255179 24744 net.cpp:454] inception_5a/prelu_3x3_reduce <- inception_5a/3x3_reduce
I1105 17:54:39.255195 24744 net.cpp:397] inception_5a/prelu_3x3_reduce -> inception_5a/3x3_reduce (in-place)
I1105 17:54:39.255303 24744 net.cpp:150] Setting up inception_5a/prelu_3x3_reduce
I1105 17:54:39.255316 24744 net.cpp:157] Top shape: 50 160 7 7 (392000)
I1105 17:54:39.255324 24744 net.cpp:165] Memory required for data: 2700023016
I1105 17:54:39.255336 24744 layer_factory.hpp:76] Creating layer inception_5a/3x3
I1105 17:54:39.255354 24744 net.cpp:106] Creating Layer inception_5a/3x3
I1105 17:54:39.255364 24744 net.cpp:454] inception_5a/3x3 <- inception_5a/3x3_reduce
I1105 17:54:39.255378 24744 net.cpp:411] inception_5a/3x3 -> inception_5a/3x3
I1105 17:54:39.260177 24744 cudnn_conv_layer.cpp:194] Reallocating workspace storage: 7788
I1105 17:54:39.260246 24744 net.cpp:150] Setting up inception_5a/3x3
I1105 17:54:39.260262 24744 net.cpp:157] Top shape: 50 320 7 7 (784000)
I1105 17:54:39.260273 24744 net.cpp:165] Memory required for data: 2703159016
I1105 17:54:39.260289 24744 layer_factory.hpp:76] Creating layer inception_5a/prelu_3x3
I1105 17:54:39.260318 24744 net.cpp:106] Creating Layer inception_5a/prelu_3x3
I1105 17:54:39.260329 24744 net.cpp:454] inception_5a/prelu_3x3 <- inception_5a/3x3
I1105 17:54:39.260346 24744 net.cpp:397] inception_5a/prelu_3x3 -> inception_5a/3x3 (in-place)
I1105 17:54:39.260493 24744 net.cpp:150] Setting up inception_5a/prelu_3x3
I1105 17:54:39.260504 24744 net.cpp:157] Top shape: 50 320 7 7 (784000)
I1105 17:54:39.260512 24744 net.cpp:165] Memory required for data: 2706295016
I1105 17:54:39.260524 24744 layer_factory.hpp:76] Creating layer inception_5a/5x5_reduce
I1105 17:54:39.260542 24744 net.cpp:106] Creating Layer inception_5a/5x5_reduce
I1105 17:54:39.260553 24744 net.cpp:454] inception_5a/5x5_reduce <- pool4/3x3_s2_pool4/3x3_s2_0_split_2
I1105 17:54:39.260568 24744 net.cpp:411] inception_5a/5x5_reduce -> inception_5a/5x5_reduce
I1105 17:54:39.262059 24744 cudnn_conv_layer.cpp:194] Reallocating workspace storage: 7428
I1105 17:54:39.262121 24744 net.cpp:150] Setting up inception_5a/5x5_reduce
I1105 17:54:39.262136 24744 net.cpp:157] Top shape: 50 32 7 7 (78400)
I1105 17:54:39.262150 24744 net.cpp:165] Memory required for data: 2706608616
I1105 17:54:39.262167 24744 layer_factory.hpp:76] Creating layer inception_5a/prelu_5x5_reduce
I1105 17:54:39.262186 24744 net.cpp:106] Creating Layer inception_5a/prelu_5x5_reduce
I1105 17:54:39.262198 24744 net.cpp:454] inception_5a/prelu_5x5_reduce <- inception_5a/5x5_reduce
I1105 17:54:39.262212 24744 net.cpp:397] inception_5a/prelu_5x5_reduce -> inception_5a/5x5_reduce (in-place)
I1105 17:54:39.262339 24744 net.cpp:150] Setting up inception_5a/prelu_5x5_reduce
I1105 17:54:39.262352 24744 net.cpp:157] Top shape: 50 32 7 7 (78400)
I1105 17:54:39.262359 24744 net.cpp:165] Memory required for data: 2706922216
I1105 17:54:39.262372 24744 layer_factory.hpp:76] Creating layer inception_5a/5x5
I1105 17:54:39.262389 24744 net.cpp:106] Creating Layer inception_5a/5x5
I1105 17:54:39.262413 24744 net.cpp:454] inception_5a/5x5 <- inception_5a/5x5_reduce
I1105 17:54:39.262430 24744 net.cpp:411] inception_5a/5x5 -> inception_5a/5x5
I1105 17:54:39.264088 24744 cudnn_conv_layer.cpp:194] Reallocating workspace storage: 9804
I1105 17:54:39.264154 24744 net.cpp:150] Setting up inception_5a/5x5
I1105 17:54:39.264171 24744 net.cpp:157] Top shape: 50 128 7 7 (313600)
I1105 17:54:39.264180 24744 net.cpp:165] Memory required for data: 2708176616
I1105 17:54:39.264196 24744 layer_factory.hpp:76] Creating layer inception_5a/prelu_5x5
I1105 17:54:39.264235 24744 net.cpp:106] Creating Layer inception_5a/prelu_5x5
I1105 17:54:39.264246 24744 net.cpp:454] inception_5a/prelu_5x5 <- inception_5a/5x5
I1105 17:54:39.264261 24744 net.cpp:397] inception_5a/prelu_5x5 -> inception_5a/5x5 (in-place)
I1105 17:54:39.264389 24744 net.cpp:150] Setting up inception_5a/prelu_5x5
I1105 17:54:39.264402 24744 net.cpp:157] Top shape: 50 128 7 7 (313600)
I1105 17:54:39.264410 24744 net.cpp:165] Memory required for data: 2709431016
I1105 17:54:39.264421 24744 layer_factory.hpp:76] Creating layer inception_5a/pool
I1105 17:54:39.264437 24744 net.cpp:106] Creating Layer inception_5a/pool
I1105 17:54:39.264449 24744 net.cpp:454] inception_5a/pool <- pool4/3x3_s2_pool4/3x3_s2_0_split_3
I1105 17:54:39.264462 24744 net.cpp:411] inception_5a/pool -> inception_5a/pool
I1105 17:54:39.264916 24744 net.cpp:150] Setting up inception_5a/pool
I1105 17:54:39.264945 24744 net.cpp:157] Top shape: 50 832 7 7 (2038400)
I1105 17:54:39.264952 24744 net.cpp:165] Memory required for data: 2717584616
I1105 17:54:39.264961 24744 layer_factory.hpp:76] Creating layer inception_5a/pool_proj
I1105 17:54:39.264976 24744 net.cpp:106] Creating Layer inception_5a/pool_proj
I1105 17:54:39.264986 24744 net.cpp:454] inception_5a/pool_proj <- inception_5a/pool
I1105 17:54:39.265002 24744 net.cpp:411] inception_5a/pool_proj -> inception_5a/pool_proj
I1105 17:54:39.267339 24744 cudnn_conv_layer.cpp:194] Reallocating workspace storage: 7428
I1105 17:54:39.267392 24744 net.cpp:150] Setting up inception_5a/pool_proj
I1105 17:54:39.267406 24744 net.cpp:157] Top shape: 50 128 7 7 (313600)
I1105 17:54:39.267416 24744 net.cpp:165] Memory required for data: 2718839016
I1105 17:54:39.267429 24744 layer_factory.hpp:76] Creating layer inception_5a/prelu_pool_proj
I1105 17:54:39.267447 24744 net.cpp:106] Creating Layer inception_5a/prelu_pool_proj
I1105 17:54:39.267458 24744 net.cpp:454] inception_5a/prelu_pool_proj <- inception_5a/pool_proj
I1105 17:54:39.267472 24744 net.cpp:397] inception_5a/prelu_pool_proj -> inception_5a/pool_proj (in-place)
I1105 17:54:39.267570 24744 net.cpp:150] Setting up inception_5a/prelu_pool_proj
I1105 17:54:39.267581 24744 net.cpp:157] Top shape: 50 128 7 7 (313600)
I1105 17:54:39.267590 24744 net.cpp:165] Memory required for data: 2720093416
I1105 17:54:39.267601 24744 layer_factory.hpp:76] Creating layer inception_5a/output
I1105 17:54:39.267616 24744 net.cpp:106] Creating Layer inception_5a/output
I1105 17:54:39.267626 24744 net.cpp:454] inception_5a/output <- inception_5a/1x1
I1105 17:54:39.267635 24744 net.cpp:454] inception_5a/output <- inception_5a/3x3
I1105 17:54:39.267647 24744 net.cpp:454] inception_5a/output <- inception_5a/5x5
I1105 17:54:39.267657 24744 net.cpp:454] inception_5a/output <- inception_5a/pool_proj
I1105 17:54:39.267668 24744 net.cpp:411] inception_5a/output -> inception_5a/output
I1105 17:54:39.267706 24744 net.cpp:150] Setting up inception_5a/output
I1105 17:54:39.267719 24744 net.cpp:157] Top shape: 50 832 7 7 (2038400)
I1105 17:54:39.267726 24744 net.cpp:165] Memory required for data: 2728247016
I1105 17:54:39.267735 24744 layer_factory.hpp:76] Creating layer inception_5a/output_inception_5a/output_0_split
I1105 17:54:39.267745 24744 net.cpp:106] Creating Layer inception_5a/output_inception_5a/output_0_split
I1105 17:54:39.267755 24744 net.cpp:454] inception_5a/output_inception_5a/output_0_split <- inception_5a/output
I1105 17:54:39.267768 24744 net.cpp:411] inception_5a/output_inception_5a/output_0_split -> inception_5a/output_inception_5a/output_0_split_0
I1105 17:54:39.267797 24744 net.cpp:411] inception_5a/output_inception_5a/output_0_split -> inception_5a/output_inception_5a/output_0_split_1
I1105 17:54:39.267812 24744 net.cpp:411] inception_5a/output_inception_5a/output_0_split -> inception_5a/output_inception_5a/output_0_split_2
I1105 17:54:39.267827 24744 net.cpp:411] inception_5a/output_inception_5a/output_0_split -> inception_5a/output_inception_5a/output_0_split_3
I1105 17:54:39.267899 24744 net.cpp:150] Setting up inception_5a/output_inception_5a/output_0_split
I1105 17:54:39.267911 24744 net.cpp:157] Top shape: 50 832 7 7 (2038400)
I1105 17:54:39.267921 24744 net.cpp:157] Top shape: 50 832 7 7 (2038400)
I1105 17:54:39.267931 24744 net.cpp:157] Top shape: 50 832 7 7 (2038400)
I1105 17:54:39.267941 24744 net.cpp:157] Top shape: 50 832 7 7 (2038400)
I1105 17:54:39.267949 24744 net.cpp:165] Memory required for data: 2760861416
I1105 17:54:39.267957 24744 layer_factory.hpp:76] Creating layer inception_5b/1x1
I1105 17:54:39.267971 24744 net.cpp:106] Creating Layer inception_5b/1x1
I1105 17:54:39.267981 24744 net.cpp:454] inception_5b/1x1 <- inception_5a/output_inception_5a/output_0_split_0
I1105 17:54:39.267993 24744 net.cpp:411] inception_5b/1x1 -> inception_5b/1x1
I1105 17:54:39.271459 24744 cudnn_conv_layer.cpp:194] Reallocating workspace storage: 7428
I1105 17:54:39.271507 24744 net.cpp:150] Setting up inception_5b/1x1
I1105 17:54:39.271518 24744 net.cpp:157] Top shape: 50 384 7 7 (940800)
I1105 17:54:39.271527 24744 net.cpp:165] Memory required for data: 2764624616
I1105 17:54:39.271539 24744 layer_factory.hpp:76] Creating layer inception_5b/prelu_1x1
I1105 17:54:39.271554 24744 net.cpp:106] Creating Layer inception_5b/prelu_1x1
I1105 17:54:39.271565 24744 net.cpp:454] inception_5b/prelu_1x1 <- inception_5b/1x1
I1105 17:54:39.271579 24744 net.cpp:397] inception_5b/prelu_1x1 -> inception_5b/1x1 (in-place)
I1105 17:54:39.271697 24744 net.cpp:150] Setting up inception_5b/prelu_1x1
I1105 17:54:39.271708 24744 net.cpp:157] Top shape: 50 384 7 7 (940800)
I1105 17:54:39.271716 24744 net.cpp:165] Memory required for data: 2768387816
I1105 17:54:39.271726 24744 layer_factory.hpp:76] Creating layer inception_5b/3x3_reduce
I1105 17:54:39.271741 24744 net.cpp:106] Creating Layer inception_5b/3x3_reduce
I1105 17:54:39.271752 24744 net.cpp:454] inception_5b/3x3_reduce <- inception_5a/output_inception_5a/output_0_split_1
I1105 17:54:39.271767 24744 net.cpp:411] inception_5b/3x3_reduce -> inception_5b/3x3_reduce
I1105 17:54:39.274055 24744 cudnn_conv_layer.cpp:194] Reallocating workspace storage: 7428
I1105 17:54:39.274098 24744 net.cpp:150] Setting up inception_5b/3x3_reduce
I1105 17:54:39.274112 24744 net.cpp:157] Top shape: 50 192 7 7 (470400)
I1105 17:54:39.274121 24744 net.cpp:165] Memory required for data: 2770269416
I1105 17:54:39.274134 24744 layer_factory.hpp:76] Creating layer inception_5b/prelu_3x3_reduce
I1105 17:54:39.274148 24744 net.cpp:106] Creating Layer inception_5b/prelu_3x3_reduce
I1105 17:54:39.274159 24744 net.cpp:454] inception_5b/prelu_3x3_reduce <- inception_5b/3x3_reduce
I1105 17:54:39.274173 24744 net.cpp:397] inception_5b/prelu_3x3_reduce -> inception_5b/3x3_reduce (in-place)
I1105 17:54:39.274272 24744 net.cpp:150] Setting up inception_5b/prelu_3x3_reduce
I1105 17:54:39.274284 24744 net.cpp:157] Top shape: 50 192 7 7 (470400)
I1105 17:54:39.274292 24744 net.cpp:165] Memory required for data: 2772151016
I1105 17:54:39.274302 24744 layer_factory.hpp:76] Creating layer inception_5b/3x3
I1105 17:54:39.274317 24744 net.cpp:106] Creating Layer inception_5b/3x3
I1105 17:54:39.274327 24744 net.cpp:454] inception_5b/3x3 <- inception_5b/3x3_reduce
I1105 17:54:39.274341 24744 net.cpp:411] inception_5b/3x3 -> inception_5b/3x3
I1105 17:54:39.280524 24744 cudnn_conv_layer.cpp:194] Reallocating workspace storage: 7788
I1105 17:54:39.280594 24744 net.cpp:150] Setting up inception_5b/3x3
I1105 17:54:39.280611 24744 net.cpp:157] Top shape: 50 384 7 7 (940800)
I1105 17:54:39.280621 24744 net.cpp:165] Memory required for data: 2775914216
I1105 17:54:39.280655 24744 layer_factory.hpp:76] Creating layer inception_5b/prelu_3x3
I1105 17:54:39.280676 24744 net.cpp:106] Creating Layer inception_5b/prelu_3x3
I1105 17:54:39.280689 24744 net.cpp:454] inception_5b/prelu_3x3 <- inception_5b/3x3
I1105 17:54:39.280706 24744 net.cpp:397] inception_5b/prelu_3x3 -> inception_5b/3x3 (in-place)
I1105 17:54:39.280840 24744 net.cpp:150] Setting up inception_5b/prelu_3x3
I1105 17:54:39.280853 24744 net.cpp:157] Top shape: 50 384 7 7 (940800)
I1105 17:54:39.280860 24744 net.cpp:165] Memory required for data: 2779677416
I1105 17:54:39.280871 24744 layer_factory.hpp:76] Creating layer inception_5b/5x5_reduce
I1105 17:54:39.280889 24744 net.cpp:106] Creating Layer inception_5b/5x5_reduce
I1105 17:54:39.280900 24744 net.cpp:454] inception_5b/5x5_reduce <- inception_5a/output_inception_5a/output_0_split_2
I1105 17:54:39.280918 24744 net.cpp:411] inception_5b/5x5_reduce -> inception_5b/5x5_reduce
I1105 17:54:39.282554 24744 cudnn_conv_layer.cpp:194] Reallocating workspace storage: 7428
I1105 17:54:39.282693 24744 net.cpp:150] Setting up inception_5b/5x5_reduce
I1105 17:54:39.282706 24744 net.cpp:157] Top shape: 50 48 7 7 (117600)
I1105 17:54:39.282716 24744 net.cpp:165] Memory required for data: 2780147816
I1105 17:54:39.282728 24744 layer_factory.hpp:76] Creating layer inception_5b/prelu_5x5_reduce
I1105 17:54:39.282742 24744 net.cpp:106] Creating Layer inception_5b/prelu_5x5_reduce
I1105 17:54:39.282753 24744 net.cpp:454] inception_5b/prelu_5x5_reduce <- inception_5b/5x5_reduce
I1105 17:54:39.282768 24744 net.cpp:397] inception_5b/prelu_5x5_reduce -> inception_5b/5x5_reduce (in-place)
I1105 17:54:39.282893 24744 net.cpp:150] Setting up inception_5b/prelu_5x5_reduce
I1105 17:54:39.282905 24744 net.cpp:157] Top shape: 50 48 7 7 (117600)
I1105 17:54:39.282913 24744 net.cpp:165] Memory required for data: 2780618216
I1105 17:54:39.282924 24744 layer_factory.hpp:76] Creating layer inception_5b/5x5
I1105 17:54:39.282955 24744 net.cpp:106] Creating Layer inception_5b/5x5
I1105 17:54:39.282966 24744 net.cpp:454] inception_5b/5x5 <- inception_5b/5x5_reduce
I1105 17:54:39.282981 24744 net.cpp:411] inception_5b/5x5 -> inception_5b/5x5
I1105 17:54:39.285343 24744 cudnn_conv_layer.cpp:194] Reallocating workspace storage: 9804
I1105 17:54:39.285403 24744 net.cpp:150] Setting up inception_5b/5x5
I1105 17:54:39.285418 24744 net.cpp:157] Top shape: 50 128 7 7 (313600)
I1105 17:54:39.285425 24744 net.cpp:165] Memory required for data: 2781872616
I1105 17:54:39.285441 24744 layer_factory.hpp:76] Creating layer inception_5b/prelu_5x5
I1105 17:54:39.285460 24744 net.cpp:106] Creating Layer inception_5b/prelu_5x5
I1105 17:54:39.285472 24744 net.cpp:454] inception_5b/prelu_5x5 <- inception_5b/5x5
I1105 17:54:39.285485 24744 net.cpp:397] inception_5b/prelu_5x5 -> inception_5b/5x5 (in-place)
I1105 17:54:39.285601 24744 net.cpp:150] Setting up inception_5b/prelu_5x5
I1105 17:54:39.285614 24744 net.cpp:157] Top shape: 50 128 7 7 (313600)
I1105 17:54:39.285621 24744 net.cpp:165] Memory required for data: 2783127016
I1105 17:54:39.285634 24744 layer_factory.hpp:76] Creating layer inception_5b/pool
I1105 17:54:39.285646 24744 net.cpp:106] Creating Layer inception_5b/pool
I1105 17:54:39.285656 24744 net.cpp:454] inception_5b/pool <- inception_5a/output_inception_5a/output_0_split_3
I1105 17:54:39.285671 24744 net.cpp:411] inception_5b/pool -> inception_5b/pool
I1105 17:54:39.285928 24744 net.cpp:150] Setting up inception_5b/pool
I1105 17:54:39.285943 24744 net.cpp:157] Top shape: 50 832 7 7 (2038400)
I1105 17:54:39.285950 24744 net.cpp:165] Memory required for data: 2791280616
I1105 17:54:39.285959 24744 layer_factory.hpp:76] Creating layer inception_5b/pool_proj
I1105 17:54:39.285977 24744 net.cpp:106] Creating Layer inception_5b/pool_proj
I1105 17:54:39.285987 24744 net.cpp:454] inception_5b/pool_proj <- inception_5b/pool
I1105 17:54:39.286005 24744 net.cpp:411] inception_5b/pool_proj -> inception_5b/pool_proj
I1105 17:54:39.288499 24744 cudnn_conv_layer.cpp:194] Reallocating workspace storage: 7428
I1105 17:54:39.288580 24744 net.cpp:150] Setting up inception_5b/pool_proj
I1105 17:54:39.288594 24744 net.cpp:157] Top shape: 50 128 7 7 (313600)
I1105 17:54:39.288604 24744 net.cpp:165] Memory required for data: 2792535016
I1105 17:54:39.288619 24744 layer_factory.hpp:76] Creating layer inception_5b/prelu_pool_proj
I1105 17:54:39.288637 24744 net.cpp:106] Creating Layer inception_5b/prelu_pool_proj
I1105 17:54:39.288650 24744 net.cpp:454] inception_5b/prelu_pool_proj <- inception_5b/pool_proj
I1105 17:54:39.288666 24744 net.cpp:397] inception_5b/prelu_pool_proj -> inception_5b/pool_proj (in-place)
I1105 17:54:39.288779 24744 net.cpp:150] Setting up inception_5b/prelu_pool_proj
I1105 17:54:39.288791 24744 net.cpp:157] Top shape: 50 128 7 7 (313600)
I1105 17:54:39.288800 24744 net.cpp:165] Memory required for data: 2793789416
I1105 17:54:39.288811 24744 layer_factory.hpp:76] Creating layer inception_5b/output
I1105 17:54:39.288826 24744 net.cpp:106] Creating Layer inception_5b/output
I1105 17:54:39.288836 24744 net.cpp:454] inception_5b/output <- inception_5b/1x1
I1105 17:54:39.288847 24744 net.cpp:454] inception_5b/output <- inception_5b/3x3
I1105 17:54:39.288857 24744 net.cpp:454] inception_5b/output <- inception_5b/5x5
I1105 17:54:39.288867 24744 net.cpp:454] inception_5b/output <- inception_5b/pool_proj
I1105 17:54:39.288879 24744 net.cpp:411] inception_5b/output -> inception_5b/output
I1105 17:54:39.288920 24744 net.cpp:150] Setting up inception_5b/output
I1105 17:54:39.288933 24744 net.cpp:157] Top shape: 50 1024 7 7 (2508800)
I1105 17:54:39.288940 24744 net.cpp:165] Memory required for data: 2803824616
I1105 17:54:39.288949 24744 layer_factory.hpp:76] Creating layer pool5/7x7_s1
I1105 17:54:39.288962 24744 net.cpp:106] Creating Layer pool5/7x7_s1
I1105 17:54:39.288971 24744 net.cpp:454] pool5/7x7_s1 <- inception_5b/output
I1105 17:54:39.288987 24744 net.cpp:411] pool5/7x7_s1 -> pool5/7x7_s1
I1105 17:54:39.289440 24744 net.cpp:150] Setting up pool5/7x7_s1
I1105 17:54:39.289455 24744 net.cpp:157] Top shape: 50 1024 1 1 (51200)
I1105 17:54:39.289464 24744 net.cpp:165] Memory required for data: 2804029416
I1105 17:54:39.289474 24744 layer_factory.hpp:76] Creating layer pool5/drop_7x7_s1
I1105 17:54:39.289486 24744 net.cpp:106] Creating Layer pool5/drop_7x7_s1
I1105 17:54:39.289496 24744 net.cpp:454] pool5/drop_7x7_s1 <- pool5/7x7_s1
I1105 17:54:39.289510 24744 net.cpp:397] pool5/drop_7x7_s1 -> pool5/7x7_s1 (in-place)
I1105 17:54:39.289548 24744 net.cpp:150] Setting up pool5/drop_7x7_s1
I1105 17:54:39.289559 24744 net.cpp:157] Top shape: 50 1024 1 1 (51200)
I1105 17:54:39.289567 24744 net.cpp:165] Memory required for data: 2804234216
I1105 17:54:39.289576 24744 layer_factory.hpp:76] Creating layer loss3/classifier2
I1105 17:54:39.289588 24744 net.cpp:106] Creating Layer loss3/classifier2
I1105 17:54:39.289598 24744 net.cpp:454] loss3/classifier2 <- pool5/7x7_s1
I1105 17:54:39.289613 24744 net.cpp:411] loss3/classifier2 -> loss3/classifier
I1105 17:54:39.289783 24744 net.cpp:150] Setting up loss3/classifier2
I1105 17:54:39.289795 24744 net.cpp:157] Top shape: 50 2 (100)
I1105 17:54:39.289803 24744 net.cpp:165] Memory required for data: 2804234616
I1105 17:54:39.289818 24744 layer_factory.hpp:76] Creating layer loss3/classifier_loss3/classifier2_0_split
I1105 17:54:39.289830 24744 net.cpp:106] Creating Layer loss3/classifier_loss3/classifier2_0_split
I1105 17:54:39.289839 24744 net.cpp:454] loss3/classifier_loss3/classifier2_0_split <- loss3/classifier
I1105 17:54:39.289854 24744 net.cpp:411] loss3/classifier_loss3/classifier2_0_split -> loss3/classifier_loss3/classifier2_0_split_0
I1105 17:54:39.289870 24744 net.cpp:411] loss3/classifier_loss3/classifier2_0_split -> loss3/classifier_loss3/classifier2_0_split_1
I1105 17:54:39.289921 24744 net.cpp:150] Setting up loss3/classifier_loss3/classifier2_0_split
I1105 17:54:39.289935 24744 net.cpp:157] Top shape: 50 2 (100)
I1105 17:54:39.289947 24744 net.cpp:157] Top shape: 50 2 (100)
I1105 17:54:39.289954 24744 net.cpp:165] Memory required for data: 2804235416
I1105 17:54:39.289963 24744 layer_factory.hpp:76] Creating layer loss3/loss3
I1105 17:54:39.289993 24744 net.cpp:106] Creating Layer loss3/loss3
I1105 17:54:39.290004 24744 net.cpp:454] loss3/loss3 <- loss3/classifier_loss3/classifier2_0_split_0
I1105 17:54:39.290015 24744 net.cpp:454] loss3/loss3 <- label_data_1_split_4
…
