…
I1028 13:14:39.662566 28094 net.cpp:322] The NetState phase (0) differed from the phase (1) specified by a rule in layer loss3/top-1
I1028 13:14:39.663483 28094 net.cpp:49] Initializing net from parameters: 
name: "GoogleNet"
state {
  phase: TRAIN
}
layer {
  name: "data"
  type: "Data"
  top: "data"
  top: "label"
  include {
    phase: TRAIN
  }
  transform_param {
    mirror: true
    crop_size: 224
    mean_value: 104
    mean_value: 117
    mean_value: 123
  }
  data_param {
    source: "../../LMDB/train_1-lmdb"
    batch_size: 32
    backend: LMDB
  }
}
layer {
  name: "conv1/7x7_s2"
  type: "Convolution"
  bottom: "data"
  top: "conv1/7x7_s2"
  param {
    lr_mult: 1
    decay_mult: 1
  }
  param {
    lr_mult: 2
    decay_mult: 0
  }
  convolution_param {
    num_output: 64
    pad: 3
    kernel_size: 7
    stride: 2
    weight_filler {
      type: "xavier"
    }
    bias_filler {
      type: "constant"
      value: 0.2
    }
  }
}
layer {
  name: "conv1/prelu_7x7"
  type: "PReLU"
  bottom: "conv1/7x7_s2"
  top: "conv1/7x7_s2"
  param {
    lr_mult: 1
    decay_mult: 0
  }
  prelu_param {
    filler {
      type: "constant"
      value: 0.01
    }
  }
}
layer {
  name: "pool1/3x3_s2"
  type: "Pooling"
  bottom: "conv1/7x7_s2"
  top: "pool1/3x3_s2"
  pooling_param {
    pool: MAX
    kernel_size: 3
    stride: 2
  }
}
layer {
  name: "pool1/norm1"
  type: "LRN"
  bottom: "pool1/3x3_s2"
  top: "pool1/norm1"
  lrn_param {
    local_size: 5
    alpha: 0.0001
    beta: 0.75
  }
}
layer {
  name: "conv2/3x3_reduce"
  type: "Convolution"
  bottom: "pool1/norm1"
  top: "conv2/3x3_reduce"
  param {
    lr_mult: 1
    decay_mult: 1
  }
  param {
    lr_mult: 2
    decay_mult: 0
  }
  convolution_param {
    num_output: 64
    kernel_size: 1
    weight_filler {
      type: "xavier"
    }
    bias_filler {
      type: "constant"
      value: 0.2
    }
  }
}
layer {
  name: "conv2/prelu_3x3_reduce"
  type: "PReLU"
  bottom: "conv2/3x3_reduce"
  top: "conv2/3x3_reduce"
  param {
    lr_mult: 1
    decay_mult: 0
  }
  prelu_param {
    filler {
      type: "constant"
      value: 0.01
    }
  }
}
layer {
  name: "conv2/3x3"
  type: "Convolution"
  bottom: "conv2/3x3_reduce"
  top: "conv2/3x3"
  param {
    lr_mult: 1
    decay_mult: 1
  }
  param {
    lr_mult: 2
    decay_mult: 0
  }
  convolution_param {
    num_output: 192
    pad: 1
    kernel_size: 3
    weight_filler {
      type: "xavier"
    }
    bias_filler {
      type: "constant"
      value: 0.2
    }
  }
}
layer {
  name: "conv2/prelu_3x3"
  type: "PReLU"
  bottom: "conv2/3x3"
  top: "conv2/3x3"
  param {
    lr_mult: 1
    decay_mult: 0
  }
  prelu_param {
    filler {
      type: "constant"
      value: 0.01
    }
  }
}
layer {
  name: "conv2/norm2"
  type: "LRN"
  bottom: "conv2/3x3"
  top: "conv2/norm2"
  lrn_param {
    local_size: 5
    alpha: 0.0001
    beta: 0.75
  }
}
layer {
  name: "pool2/3x3_s2"
  type: "Pooling"
  bottom: "conv2/norm2"
  top: "pool2/3x3_s2"
  pooling_param {
    pool: MAX
    kernel_size: 3
    stride: 2
  }
}
layer {
  name: "inception_3a/1x1"
  type: "Convolution"
  bottom: "pool2/3x3_s2"
  top: "inception_3a/1x1"
  param {
    lr_mult: 1
    decay_mult: 1
  }
  param {
    lr_mult: 2
    decay_mult: 0
  }
  convolution_param {
    num_output: 64
    kernel_size: 1
    weight_filler {
      type: "xavier"
    }
    bias_filler {
      type: "constant"
      value: 0.2
    }
  }
}
layer {
  name: "inception_3a/prelu_1x1"
  type: "PReLU"
  bottom: "inception_3a/1x1"
  top: "inception_3a/1x1"
  param {
    lr_mult: 1
    decay_mult: 0
  }
  prelu_param {
    filler {
      type: "constant"
      value: 0.01
    }
  }
}
layer {
  name: "inception_3a/3x3_reduce"
  type: "Convolution"
  bottom: "pool2/3x3_s2"
  top: "inception_3a/3x3_reduce"
  param {
    lr_mult: 1
    decay_mult: 1
  }
  param {
    lr_mult: 2
    decay_mult: 0
  }
  convolution_param {
    num_output: 96
    kernel_size: 1
    weight_filler {
      type: "xavier"
    }
    bias_filler {
      type: "constant"
      value: 0.2
    }
  }
}
layer {
  name: "inception_3a/prelu_3x3_reduce"
  type: "PReLU"
  bottom: "inception_3a/3x3_reduce"
  top: "inception_3a/3x3_reduce"
  param {
    lr_mult: 1
    decay_mult: 0
  }
  prelu_param {
    filler {
      type: "constant"
      value: 0.01
    }
  }
}
layer {
  name: "inception_3a/3x3"
  type: "Convolution"
  bottom: "inception_3a/3x3_reduce"
  top: "inception_3a/3x3"
  param {
    lr_mult: 1
    decay_mult: 1
  }
  param {
    lr_mult: 2
    decay_mult: 0
  }
  convolution_param {
    num_output: 128
    pad: 1
    kernel_size: 3
    weight_filler {
      type: "xavier"
    }
    bias_filler {
      type: "constant"
      value: 0.2
    }
  }
}
layer {
  name: "inception_3a/prelu_3x3"
  type: "PReLU"
  bottom: "inception_3a/3x3"
  top: "inception_3a/3x3"
  param {
    lr_mult: 1
    decay_mult: 0
  }
  prelu_param {
    filler {
      type: "constant"
      value: 0.01
    }
  }
}
layer {
  name: "inception_3a/5x5_reduce"
  type: "Convolution"
  bottom: "pool2/3x3_s2"
  top: "inception_3a/5x5_reduce"
  param {
    lr_mult: 1
    decay_mult: 1
  }
  param {
    lr_mult: 2
    decay_mult: 0
  }
  convolution_param {
    num_output: 16
    kernel_size: 1
    weight_filler {
      type: "xavier"
    }
    bias_filler {
      type: "constant"
      value: 0.2
    }
  }
}
layer {
  name: "inception_3a/prelu_5x5_reduce"
  type: "PReLU"
  bottom: "inception_3a/5x5_reduce"
  top: "inception_3a/5x5_reduce"
  param {
    lr_mult: 1
    decay_mult: 0
  }
  prelu_param {
    filler {
      type: "constant"
      value: 0.01
    }
  }
}
layer {
  name: "inception_3a/5x5"
  type: "Convolution"
  bottom: "inception_3a/5x5_reduce"
  top: "inception_3a/5x5"
  param {
    lr_mult: 1
    decay_mult: 1
  }
  param {
    lr_mult: 2
    decay_mult: 0
  }
  convolution_param {
    num_output: 32
    pad: 2
    kernel_size: 5
    weight_filler {
      type: "xavier"
    }
    bias_filler {
      type: "constant"
      value: 0.2
    }
  }
}
layer {
  name: "inception_3a/prelu_5x5"
  type: "PReLU"
  bottom: "inception_3a/5x5"
  top: "inception_3a/5x5"
  param {
    lr_mult: 1
    decay_mult: 0
  }
  prelu_param {
    filler {
      type: "constant"
      value: 0.01
    }
  }
}
layer {
  name: "inception_3a/pool"
  type: "Pooling"
  bottom: "pool2/3x3_s2"
  top: "inception_3a/pool"
  pooling_param {
    pool: MAX
    kernel_size: 3
    stride: 1
    pad: 1
  }
}
layer {
  name: "inception_3a/pool_proj"
  type: "Convolution"
  bottom: "inception_3a/pool"
  top: "inception_3a/pool_proj"
  param {
    lr_mult: 1
    decay_mult: 1
  }
  param {
    lr_mult: 2
    decay_mult: 0
  }
  convolution_param {
    num_output: 32
    kernel_size: 1
    weight_filler {
      type: "xavier"
    }
    bias_filler {
      type: "constant"
      value: 0.2
    }
  }
}
layer {
  name: "inception_3a/prelu_pool_proj"
  type: "PReLU"
  bottom: "inception_3a/pool_proj"
  top: "inception_3a/pool_proj"
  param {
    lr_mult: 1
    decay_mult: 0
  }
  prelu_param {
    filler {
      type: "constant"
      value: 0.01
    }
  }
}
layer {
  name: "inception_3a/output"
  type: "Concat"
  bottom: "inception_3a/1x1"
  bottom: "inception_3a/3x3"
  bottom: "inception_3a/5x5"
  bottom: "inception_3a/pool_proj"
  top: "inception_3a/output"
}
layer {
  name: "inception_3b/1x1"
  type: "Convolution"
  bottom: "inception_3a/output"
  top: "inception_3b/1x1"
  param {
    lr_mult: 1
    decay_mult: 1
  }
  param {
    lr_mult: 2
    decay_mult: 0
  }
  convolution_param {
    num_output: 128
    kernel_size: 1
    weight_filler {
      type: "xavier"
    }
    bias_filler {
      type: "constant"
      value: 0.2
    }
  }
}
layer {
  name: "inception_3b/prelu_1x1"
  type: "PReLU"
  bottom: "inception_3b/1x1"
  top: "inception_3b/1x1"
  param {
    lr_mult: 1
    decay_mult: 0
  }
  prelu_param {
    filler {
      type: "constant"
      value: 0.01
    }
  }
}
layer {
  name: "inception_3b/3x3_reduce"
  type: "Convolution"
  bottom: "inception_3a/output"
  top: "inception_3b/3x3_reduce"
  param {
    lr_mult: 1
    decay_mult: 1
  }
  param {
    lr_mult: 2
    decay_mult: 0
  }
  convolution_param {
    num_output: 128
    kernel_size: 1
    weight_filler {
      type: "xavier"
    }
    bias_filler {
      type: "constant"
      value: 0.2
    }
  }
}
layer {
  name: "inception_3b/prelu_3x3_reduce"
  type: "PReLU"
  bottom: "inception_3b/3x3_reduce"
  top: "inception_3b/3x3_reduce"
  param {
    lr_mult: 1
    decay_mult: 0
  }
  prelu_param {
    filler {
      type: "constant"
      value: 0.01
    }
  }
}
layer {
  name: "inception_3b/3x3"
  type: "Convolution"
  bottom: "inception_3b/3x3_reduce"
  top: "inception_3b/3x3"
  param {
    lr_mult: 1
    decay_mult: 1
  }
  param {
    lr_mult: 2
    decay_mult: 0
  }
  convolution_param {
    num_output: 192
    pad: 1
    kernel_size: 3
    weight_filler {
      type: "xavier"
    }
    bias_filler {
      type: "constant"
      value: 0.2
    }
  }
}
layer {
  name: "inception_3b/prelu_3x3"
  type: "PReLU"
  bottom: "inception_3b/3x3"
  top: "inception_3b/3x3"
  param {
    lr_mult: 1
    decay_mult: 0
  }
  prelu_param {
    filler {
      type: "constant"
      value: 0.01
    }
  }
}
layer {
  name: "inception_3b/5x5_reduce"
  type: "Convolution"
  bottom: "inception_3a/output"
  top: "inception_3b/5x5_reduce"
  param {
    lr_mult: 1
    decay_mult: 1
  }
  param {
    lr_mult: 2
    decay_mult: 0
  }
  convolution_param {
    num_output: 32
    kernel_size: 1
    weight_filler {
      type: "xavier"
    }
    bias_filler {
      type: "constant"
      value: 0.2
    }
  }
}
layer {
  name: "inception_3b/prelu_5x5_reduce"
  type: "PReLU"
  bottom: "inception_3b/5x5_reduce"
  top: "inception_3b/5x5_reduce"
  param {
    lr_mult: 1
    decay_mult: 0
  }
  prelu_param {
    filler {
      type: "constant"
      value: 0.01
    }
  }
}
layer {
  name: "inception_3b/5x5"
  type: "Convolution"
  bottom: "inception_3b/5x5_reduce"
  top: "inception_3b/5x5"
  param {
    lr_mult: 1
    decay_mult: 1
  }
  param {
    lr_mult: 2
    decay_mult: 0
  }
  convolution_param {
    num_output: 96
    pad: 2
    kernel_size: 5
    weight_filler {
      type: "xavier"
    }
    bias_filler {
      type: "constant"
      value: 0.2
    }
  }
}
layer {
  name: "inception_3b/prelu_5x5"
  type: "PReLU"
  bottom: "inception_3b/5x5"
  top: "inception_3b/5x5"
  param {
    lr_mult: 1
    decay_mult: 0
  }
  prelu_param {
    filler {
      type: "constant"
      value: 0.01
    }
  }
}
layer {
  name: "inception_3b/pool"
  type: "Pooling"
  bottom: "inception_3a/output"
  top: "inception_3b/pool"
  pooling_param {
    pool: MAX
    kernel_size: 3
    stride: 1
    pad: 1
  }
}
layer {
  name: "inception_3b/pool_proj"
  type: "Convolution"
  bottom: "inception_3b/pool"
  top: "inception_3b/pool_proj"
  param {
    lr_mult: 1
    decay_mult: 1
  }
  param {
    lr_mult: 2
    decay_mult: 0
  }
  convolution_param {
    num_output: 64
    kernel_size: 1
    weight_filler {
      type: "xavier"
    }
    bias_filler {
      type: "constant"
      value: 0.2
    }
  }
}
layer {
  name: "inception_3b/prelu_pool_proj"
  type: "PReLU"
  bottom: "inception_3b/pool_proj"
  top: "inception_3b/pool_proj"
  param {
    lr_mult: 1
    decay_mult: 0
  }
  prelu_param {
    filler {
      type: "constant"
      value: 0.01
    }
  }
}
layer {
  name: "inception_3b/output"
  type: "Concat"
  bottom: "inception_3b/1x1"
  bottom: "inception_3b/3x3"
  bottom: "inception_3b/5x5"
  bottom: "inception_3b/pool_proj"
  top: "inception_3b/output"
}
layer {
  name: "pool3/3x3_s2"
  type: "Pooling"
  bottom: "inception_3b/output"
  top: "pool3/3x3_s2"
  pooling_param {
    pool: MAX
    kernel_size: 3
    stride: 2
  }
}
layer {
  name: "inception_4a/1x1"
  type: "Convolution"
  bottom: "pool3/3x3_s2"
  top: "inception_4a/1x1"
  param {
    lr_mult: 1
    decay_mult: 1
  }
  param {
    lr_mult: 2
    decay_mult: 0
  }
  convolution_param {
    num_output: 192
    kernel_size: 1
    weight_filler {
      type: "xavier"
    }
    bias_filler {
      type: "constant"
      value: 0.2
    }
  }
}
layer {
  name: "inception_4a/prelu_1x1"
  type: "PReLU"
  bottom: "inception_4a/1x1"
  top: "inception_4a/1x1"
  param {
    lr_mult: 1
    decay_mult: 0
  }
  prelu_param {
    filler {
      type: "constant"
      value: 0.01
    }
  }
}
layer {
  name: "inception_4a/3x3_reduce"
  type: "Convolution"
  bottom: "pool3/3x3_s2"
  top: "inception_4a/3x3_reduce"
  param {
    lr_mult: 1
    decay_mult: 1
  }
  param {
    lr_mult: 2
    decay_mult: 0
  }
  convolution_param {
    num_output: 96
    kernel_size: 1
    weight_filler {
      type: "xavier"
    }
    bias_filler {
      type: "constant"
      value: 0.2
    }
  }
}
layer {
  name: "inception_4a/prelu_3x3_reduce"
  type: "PReLU"
  bottom: "inception_4a/3x3_reduce"
  top: "inception_4a/3x3_reduce"
  param {
    lr_mult: 1
    decay_mult: 0
  }
  prelu_param {
    filler {
      type: "constant"
      value: 0.01
    }
  }
}
layer {
  name: "inception_4a/3x3"
  type: "Convolution"
  bottom: "inception_4a/3x3_reduce"
  top: "inception_4a/3x3"
  param {
    lr_mult: 1
    decay_mult: 1
  }
  param {
    lr_mult: 2
    decay_mult: 0
  }
  convolution_param {
    num_output: 208
    pad: 1
    kernel_size: 3
    weight_filler {
      type: "xavier"
    }
    bias_filler {
      type: "constant"
      value: 0.2
    }
  }
}
layer {
  name: "inception_4a/prelu_3x3"
  type: "PReLU"
  bottom: "inception_4a/3x3"
  top: "inception_4a/3x3"
  param {
    lr_mult: 1
    decay_mult: 0
  }
  prelu_param {
    filler {
      type: "constant"
      value: 0.01
    }
  }
}
layer {
  name: "inception_4a/5x5_reduce"
  type: "Convolution"
  bottom: "pool3/3x3_s2"
  top: "inception_4a/5x5_reduce"
  param {
    lr_mult: 1
    decay_mult: 1
  }
  param {
    lr_mult: 2
    decay_mult: 0
  }
  convolution_param {
    num_output: 16
    kernel_size: 1
    weight_filler {
      type: "xavier"
    }
    bias_filler {
      type: "constant"
      value: 0.2
    }
  }
}
layer {
  name: "inception_4a/prelu_5x5_reduce"
  type: "PReLU"
  bottom: "inception_4a/5x5_reduce"
  top: "inception_4a/5x5_reduce"
  param {
    lr_mult: 1
    decay_mult: 0
  }
  prelu_param {
    filler {
      type: "constant"
      value: 0.01
    }
  }
}
layer {
  name: "inception_4a/5x5"
  type: "Convolution"
  bottom: "inception_4a/5x5_reduce"
  top: "inception_4a/5x5"
  param {
    lr_mult: 1
    decay_mult: 1
  }
  param {
    lr_mult: 2
    decay_mult: 0
  }
  convolution_param {
    num_output: 48
    pad: 2
    kernel_size: 5
    weight_filler {
      type: "xavier"
    }
    bias_filler {
      type: "constant"
      value: 0.2
    }
  }
}
layer {
  name: "inception_4a/prelu_5x5"
  type: "PReLU"
  bottom: "inception_4a/5x5"
  top: "inception_4a/5x5"
  param {
    lr_mult: 1
    decay_mult: 0
  }
  prelu_param {
    filler {
      type: "constant"
      value: 0.01
    }
  }
}
layer {
  name: "inception_4a/pool"
  type: "Pooling"
  bottom: "pool3/3x3_s2"
  top: "inception_4a/pool"
  pooling_param {
    pool: MAX
    kernel_size: 3
    stride: 1
    pad: 1
  }
}
layer {
  name: "inception_4a/pool_proj"
  type: "Convolution"
  bottom: "inception_4a/pool"
  top: "inception_4a/pool_proj"
  param {
    lr_mult: 1
    decay_mult: 1
  }
  param {
    lr_mult: 2
    decay_mult: 0
  }
  convolution_param {
    num_output: 64
    kernel_size: 1
    weight_filler {
      type: "xavier"
    }
    bias_filler {
      type: "constant"
      value: 0.2
    }
  }
}
layer {
  name: "inception_4a/prelu_pool_proj"
  type: "PReLU"
  bottom: "inception_4a/pool_proj"
  top: "inception_4a/pool_proj"
  param {
    lr_mult: 1
    decay_mult: 0
  }
  prelu_param {
    filler {
      type: "constant"
      value: 0.01
    }
  }
}
layer {
  name: "inception_4a/output"
  type: "Concat"
  bottom: "inception_4a/1x1"
  bottom: "inception_4a/3x3"
  bottom: "inception_4a/5x5"
  bottom: "inception_4a/pool_proj"
  top: "inception_4a/output"
}
layer {
  name: "loss1/ave_pool"
  type: "Pooling"
  bottom: "inception_4a/output"
  top: "loss1/ave_pool"
  pooling_param {
    pool: AVE
    kernel_size: 5
    stride: 3
  }
}
layer {
  name: "loss1/conv"
  type: "Convolution"
  bottom: "loss1/ave_pool"
  top: "loss1/conv"
  param {
    lr_mult: 1
    decay_mult: 1
  }
  param {
    lr_mult: 2
    decay_mult: 0
  }
  convolution_param {
    num_output: 128
    kernel_size: 1
    weight_filler {
      type: "xavier"
    }
    bias_filler {
      type: "constant"
      value: 0.2
    }
  }
}
layer {
  name: "loss1/prelu_conv"
  type: "PReLU"
  bottom: "loss1/conv"
  top: "loss1/conv"
  param {
    lr_mult: 1
    decay_mult: 0
  }
  prelu_param {
    filler {
      type: "constant"
      value: 0.01
    }
  }
}
layer {
  name: "loss1/fc"
  type: "InnerProduct"
  bottom: "loss1/conv"
  top: "loss1/fc"
  param {
    lr_mult: 1
    decay_mult: 1
  }
  param {
    lr_mult: 2
    decay_mult: 0
  }
  inner_product_param {
    num_output: 1024
    weight_filler {
      type: "xavier"
    }
    bias_filler {
      type: "constant"
      value: 0.2
    }
  }
}
layer {
  name: "loss1/prelu_fc"
  type: "PReLU"
  bottom: "loss1/fc"
  top: "loss1/fc"
  param {
    lr_mult: 1
    decay_mult: 0
  }
  prelu_param {
    filler {
      type: "constant"
      value: 0.01
    }
  }
}
layer {
  name: "loss1/drop_fc"
  type: "Dropout"
  bottom: "loss1/fc"
  top: "loss1/fc"
  dropout_param {
    dropout_ratio: 0.7
  }
}
layer {
  name: "loss1/classifier2"
  type: "InnerProduct"
  bottom: "loss1/fc"
  top: "loss1/classifier"
  param {
    lr_mult: 1
    decay_mult: 1
  }
  param {
    lr_mult: 2
    decay_mult: 0
  }
  inner_product_param {
    num_output: 2
    weight_filler {
      type: "xavier"
    }
    bias_filler {
      type: "constant"
      value: 0
    }
  }
}
layer {
  name: "loss1/loss"
  type: "SoftmaxWithLoss"
  bottom: "loss1/classifier"
  bottom: "label"
  top: "loss1/loss1"
  loss_weight: 0.3
}
layer {
  name: "inception_4b/1x1"
  type: "Convolution"
  bottom: "inception_4a/output"
  top: "inception_4b/1x1"
  param {
    lr_mult: 1
    decay_mult: 1
  }
  param {
    lr_mult: 2
    decay_mult: 0
  }
  convolution_param {
    num_output: 160
    kernel_size: 1
    weight_filler {
      type: "xavier"
    }
    bias_filler {
      type: "constant"
      value: 0.2
    }
  }
}
layer {
  name: "inception_4b/prelu_1x1"
  type: "PReLU"
  bottom: "inception_4b/1x1"
  top: "inception_4b/1x1"
  param {
    lr_mult: 1
    decay_mult: 0
  }
  prelu_param {
    filler {
      type: "constant"
      value: 0.01
    }
  }
}
layer {
  name: "inception_4b/3x3_reduce"
  type: "Convolution"
  bottom: "inception_4a/output"
  top: "inception_4b/3x3_reduce"
  param {
    lr_mult: 1
    decay_mult: 1
  }
  param {
    lr_mult: 2
    decay_mult: 0
  }
  convolution_param {
    num_output: 112
    kernel_size: 1
    weight_filler {
      type: "xavier"
    }
    bias_filler {
      type: "constant"
      value: 0.2
    }
  }
}
layer {
  name: "inception_4b/prelu_3x3_reduce"
  type: "PReLU"
  bottom: "inception_4b/3x3_reduce"
  top: "inception_4b/3x3_reduce"
  param {
    lr_mult: 1
    decay_mult: 0
  }
  prelu_param {
    filler {
      type: "constant"
      value: 0.01
    }
  }
}
layer {
  name: "inception_4b/3x3"
  type: "Convolution"
  bottom: "inception_4b/3x3_reduce"
  top: "inception_4b/3x3"
  param {
    lr_mult: 1
    decay_mult: 1
  }
  param {
    lr_mult: 2
    decay_mult: 0
  }
  convolution_param {
    num_output: 224
    pad: 1
    kernel_size: 3
    weight_filler {
      type: "xavier"
    }
    bias_filler {
      type: "constant"
      value: 0.2
    }
  }
}
layer {
  name: "inception_4b/prelu_3x3"
  type: "PReLU"
  bottom: "inception_4b/3x3"
  top: "inception_4b/3x3"
  param {
    lr_mult: 1
    decay_mult: 0
  }
  prelu_param {
    filler {
      type: "constant"
      value: 0.01
    }
  }
}
layer {
  name: "inception_4b/5x5_reduce"
  type: "Convolution"
  bottom: "inception_4a/output"
  top: "inception_4b/5x5_reduce"
  param {
    lr_mult: 1
    decay_mult: 1
  }
  param {
    lr_mult: 2
    decay_mult: 0
  }
  convolution_param {
    num_output: 24
    kernel_size: 1
    weight_filler {
      type: "xavier"
    }
    bias_filler {
      type: "constant"
      value: 0.2
    }
  }
}
layer {
  name: "inception_4b/prelu_5x5_reduce"
  type: "PReLU"
  bottom: "inception_4b/5x5_reduce"
  top: "inception_4b/5x5_reduce"
  param {
    lr_mult: 1
    decay_mult: 0
  }
  prelu_param {
    filler {
      type: "constant"
      value: 0.01
    }
  }
}
layer {
  name: "inception_4b/5x5"
  type: "Convolution"
  bottom: "inception_4b/5x5_reduce"
  top: "inception_4b/5x5"
  param {
    lr_mult: 1
    decay_mult: 1
  }
  param {
    lr_mult: 2
    decay_mult: 0
  }
  convolution_param {
    num_output: 64
    pad: 2
    kernel_size: 5
    weight_filler {
      type: "xavier"
    }
    bias_filler {
      type: "constant"
      value: 0.2
    }
  }
}
layer {
  name: "inception_4b/prelu_5x5"
  type: "PReLU"
  bottom: "inception_4b/5x5"
  top: "inception_4b/5x5"
  param {
    lr_mult: 1
    decay_mult: 0
  }
  prelu_param {
    filler {
      type: "constant"
      value: 0.01
    }
  }
}
layer {
  name: "inception_4b/pool"
  type: "Pooling"
  bottom: "inception_4a/output"
  top: "inception_4b/pool"
  pooling_param {
    pool: MAX
    kernel_size: 3
    stride: 1
    pad: 1
  }
}
layer {
  name: "inception_4b/pool_proj"
  type: "Convolution"
  bottom: "inception_4b/pool"
  top: "inception_4b/pool_proj"
  param {
    lr_mult: 1
    decay_mult: 1
  }
  param {
    lr_mult: 2
    decay_mult: 0
  }
  convolution_param {
    num_output: 64
    kernel_size: 1
    weight_filler {
      type: "xavier"
    }
    bias_filler {
      type: "constant"
      value: 0.2
    }
  }
}
layer {
  name: "inception_4b/prelu_pool_proj"
  type: "PReLU"
  bottom: "inception_4b/pool_proj"
  top: "inception_4b/pool_proj"
  param {
    lr_mult: 1
    decay_mult: 0
  }
  prelu_param {
    filler {
      type: "constant"
      value: 0.01
    }
  }
}
layer {
  name: "inception_4b/output"
  type: "Concat"
  bottom: "inception_4b/1x1"
  bottom: "inception_4b/3x3"
  bottom: "inception_4b/5x5"
  bottom: "inception_4b/pool_proj"
  top: "inception_4b/output"
}
layer {
  name: "inception_4c/1x1"
  type: "Convolution"
  bottom: "inception_4b/output"
  top: "inception_4c/1x1"
  param {
    lr_mult: 1
    decay_mult: 1
  }
  param {
    lr_mult: 2
    decay_mult: 0
  }
  convolution_param {
    num_output: 128
    kernel_size: 1
    weight_filler {
      type: "xavier"
    }
    bias_filler {
      type: "constant"
      value: 0.2
    }
  }
}
layer {
  name: "inception_4c/prelu_1x1"
  type: "PReLU"
  bottom: "inception_4c/1x1"
  top: "inception_4c/1x1"
  param {
    lr_mult: 1
    decay_mult: 0
  }
  prelu_param {
    filler {
      type: "constant"
      value: 0.01
    }
  }
}
layer {
  name: "inception_4c/3x3_reduce"
  type: "Convolution"
  bottom: "inception_4b/output"
  top: "inception_4c/3x3_reduce"
  param {
    lr_mult: 1
    decay_mult: 1
  }
  param {
    lr_mult: 2
    decay_mult: 0
  }
  convolution_param {
    num_output: 128
    kernel_size: 1
    weight_filler {
      type: "xavier"
    }
    bias_filler {
      type: "constant"
      value: 0.2
    }
  }
}
layer {
  name: "inception_4c/prelu_3x3_reduce"
  type: "PReLU"
  bottom: "inception_4c/3x3_reduce"
  top: "inception_4c/3x3_reduce"
  param {
    lr_mult: 1
    decay_mult: 0
  }
  prelu_param {
    filler {
      type: "constant"
      value: 0.01
    }
  }
}
layer {
  name: "inception_4c/3x3"
  type: "Convolution"
  bottom: "inception_4c/3x3_reduce"
  top: "inception_4c/3x3"
  param {
    lr_mult: 1
    decay_mult: 1
  }
  param {
    lr_mult: 2
    decay_mult: 0
  }
  convolution_param {
    num_output: 256
    pad: 1
    kernel_size: 3
    weight_filler {
      type: "xavier"
    }
    bias_filler {
      type: "constant"
      value: 0.2
    }
  }
}
layer {
  name: "inception_4c/prelu_3x3"
  type: "PReLU"
  bottom: "inception_4c/3x3"
  top: "inception_4c/3x3"
  param {
    lr_mult: 1
    decay_mult: 0
  }
  prelu_param {
    filler {
      type: "constant"
      value: 0.01
    }
  }
}
layer {
  name: "inception_4c/5x5_reduce"
  type: "Convolution"
  bottom: "inception_4b/output"
  top: "inception_4c/5x5_reduce"
  param {
    lr_mult: 1
    decay_mult: 1
  }
  param {
    lr_mult: 2
    decay_mult: 0
  }
  convolution_param {
    num_output: 24
    kernel_size: 1
    weight_filler {
      type: "xavier"
    }
    bias_filler {
      type: "constant"
      value: 0.2
    }
  }
}
layer {
  name: "inception_4c/prelu_5x5_reduce"
  type: "PReLU"
  bottom: "inception_4c/5x5_reduce"
  top: "inception_4c/5x5_reduce"
  param {
    lr_mult: 1
    decay_mult: 0
  }
  prelu_param {
    filler {
      type: "constant"
      value: 0.01
    }
  }
}
layer {
  name: "inception_4c/5x5"
  type: "Convolution"
  bottom: "inception_4c/5x5_reduce"
  top: "inception_4c/5x5"
  param {
    lr_mult: 1
    decay_mult: 1
  }
  param {
    lr_mult: 2
    decay_mult: 0
  }
  convolution_param {
    num_output: 64
    pad: 2
    kernel_size: 5
    weight_filler {
      type: "xavier"
    }
    bias_filler {
      type: "constant"
      value: 0.2
    }
  }
}
layer {
  name: "inception_4c/prelu_5x5"
  type: "PReLU"
  bottom: "inception_4c/5x5"
  top: "inception_4c/5x5"
  param {
    lr_mult: 1
    decay_mult: 0
  }
  prelu_param {
    filler {
      type: "constant"
      value: 0.01
    }
  }
}
layer {
  name: "inception_4c/pool"
  type: "Pooling"
  bottom: "inception_4b/output"
  top: "inception_4c/pool"
  pooling_param {
    pool: MAX
    kernel_size: 3
    stride: 1
    pad: 1
  }
}
layer {
  name: "inception_4c/pool_proj"
  type: "Convolution"
  bottom: "inception_4c/pool"
  top: "inception_4c/pool_proj"
  param {
    lr_mult: 1
    decay_mult: 1
  }
  param {
    lr_mult: 2
    decay_mult: 0
  }
  convolution_param {
    num_output: 64
    kernel_size: 1
    weight_filler {
      type: "xavier"
    }
    bias_filler {
      type: "constant"
      value: 0.2
    }
  }
}
layer {
  name: "inception_4c/prelu_pool_proj"
  type: "PReLU"
  bottom: "inception_4c/pool_proj"
  top: "inception_4c/pool_proj"
  param {
    lr_mult: 1
    decay_mult: 0
  }
  prelu_param {
    filler {
      type: "constant"
      value: 0.01
    }
  }
}
layer {
  name: "inception_4c/output"
  type: "Concat"
  bottom: "inception_4c/1x1"
  bottom: "inception_4c/3x3"
  bottom: "inception_4c/5x5"
  bottom: "inception_4c/pool_proj"
  top: "inception_4c/output"
}
layer {
  name: "inception_4d/1x1"
  type: "Convolution"
  bottom: "inception_4c/output"
  top: "inception_4d/1x1"
  param {
    lr_mult: 1
    decay_mult: 1
  }
  param {
    lr_mult: 2
    decay_mult: 0
  }
  convolution_param {
    num_output: 112
    kernel_size: 1
    weight_filler {
      type: "xavier"
    }
    bias_filler {
      type: "constant"
      value: 0.2
    }
  }
}
layer {
  name: "inception_4d/prelu_1x1"
  type: "PReLU"
  bottom: "inception_4d/1x1"
  top: "inception_4d/1x1"
  param {
    lr_mult: 1
    decay_mult: 0
  }
  prelu_param {
    filler {
      type: "constant"
      value: 0.01
    }
  }
}
layer {
  name: "inception_4d/3x3_reduce"
  type: "Convolution"
  bottom: "inception_4c/output"
  top: "inception_4d/3x3_reduce"
  param {
    lr_mult: 1
    decay_mult: 1
  }
  param {
    lr_mult: 2
    decay_mult: 0
  }
  convolution_param {
    num_output: 144
    kernel_size: 1
    weight_filler {
      type: "xavier"
    }
    bias_filler {
      type: "constant"
      value: 0.2
    }
  }
}
layer {
  name: "inception_4d/prelu_3x3_reduce"
  type: "PReLU"
  bottom: "inception_4d/3x3_reduce"
  top: "inception_4d/3x3_reduce"
  param {
    lr_mult: 1
    decay_mult: 0
  }
  prelu_param {
    filler {
      type: "constant"
      value: 0.01
    }
  }
}
layer {
  name: "inception_4d/3x3"
  type: "Convolution"
  bottom: "inception_4d/3x3_reduce"
  top: "inception_4d/3x3"
  param {
    lr_mult: 1
    decay_mult: 1
  }
  param {
    lr_mult: 2
    decay_mult: 0
  }
  convolution_param {
    num_output: 288
    pad: 1
    kernel_size: 3
    weight_filler {
      type: "xavier"
    }
    bias_filler {
      type: "constant"
      value: 0.2
    }
  }
}
layer {
  name: "inception_4d/prelu_3x3"
  type: "PReLU"
  bottom: "inception_4d/3x3"
  top: "inception_4d/3x3"
  param {
    lr_mult: 1
    decay_mult: 0
  }
  prelu_param {
    filler {
      type: "constant"
      value: 0.01
    }
  }
}
layer {
  name: "inception_4d/5x5_reduce"
  type: "Convolution"
  bottom: "inception_4c/output"
  top: "inception_4d/5x5_reduce"
  param {
    lr_mult: 1
    decay_mult: 1
  }
  param {
    lr_mult: 2
    decay_mult: 0
  }
  convolution_param {
    num_output: 32
    kernel_size: 1
    weight_filler {
      type: "xavier"
    }
    bias_filler {
      type: "constant"
      value: 0.2
    }
  }
}
layer {
  name: "inception_4d/prelu_5x5_reduce"
  type: "PReLU"
  bottom: "inception_4d/5x5_reduce"
  top: "inception_4d/5x5_reduce"
  param {
    lr_mult: 1
    decay_mult: 0
  }
  prelu_param {
    filler {
      type: "constant"
      value: 0.01
    }
  }
}
layer {
  name: "inception_4d/5x5"
  type: "Convolution"
  bottom: "inception_4d/5x5_reduce"
  top: "inception_4d/5x5"
  param {
    lr_mult: 1
    decay_mult: 1
  }
  param {
    lr_mult: 2
    decay_mult: 0
  }
  convolution_param {
    num_output: 64
    pad: 2
    kernel_size: 5
    weight_filler {
      type: "xavier"
    }
    bias_filler {
      type: "constant"
      value: 0.2
    }
  }
}
layer {
  name: "inception_4d/prelu_5x5"
  type: "PReLU"
  bottom: "inception_4d/5x5"
  top: "inception_4d/5x5"
  param {
    lr_mult: 1
    decay_mult: 0
  }
  prelu_param {
    filler {
      type: "constant"
      value: 0.01
    }
  }
}
layer {
  name: "inception_4d/pool"
  type: "Pooling"
  bottom: "inception_4c/output"
  top: "inception_4d/pool"
  pooling_param {
    pool: MAX
    kernel_size: 3
    stride: 1
    pad: 1
  }
}
layer {
  name: "inception_4d/pool_proj"
  type: "Convolution"
  bottom: "ince
I1028 13:14:39.664111 28094 layer_factory.hpp:76] Creating layer data
I1028 13:14:39.664495 28094 net.cpp:106] Creating Layer data
I1028 13:14:39.664510 28094 net.cpp:411] data -> data
I1028 13:14:39.664538 28094 net.cpp:411] data -> label
I1028 13:14:39.672885 28100 db_lmdb.cpp:38] Opened lmdb ../../LMDB/train_1-lmdb
I1028 13:14:39.685907 28094 data_layer.cpp:41] output data size: 32,3,224,224
I1028 13:14:39.750222 28094 net.cpp:150] Setting up data
I1028 13:14:39.750275 28094 net.cpp:157] Top shape: 32 3 224 224 (4816896)
I1028 13:14:39.750283 28094 net.cpp:157] Top shape: 32 (32)
I1028 13:14:39.750288 28094 net.cpp:165] Memory required for data: 19267712
I1028 13:14:39.750298 28094 layer_factory.hpp:76] Creating layer label_data_1_split
I1028 13:14:39.750313 28094 net.cpp:106] Creating Layer label_data_1_split
I1028 13:14:39.750320 28094 net.cpp:454] label_data_1_split <- label
I1028 13:14:39.750344 28094 net.cpp:411] label_data_1_split -> label_data_1_split_0
I1028 13:14:39.750355 28094 net.cpp:411] label_data_1_split -> label_data_1_split_1
I1028 13:14:39.750361 28094 net.cpp:411] label_data_1_split -> label_data_1_split_2
I1028 13:14:39.750427 28094 net.cpp:150] Setting up label_data_1_split
I1028 13:14:39.750437 28094 net.cpp:157] Top shape: 32 (32)
I1028 13:14:39.750440 28094 net.cpp:157] Top shape: 32 (32)
I1028 13:14:39.750453 28094 net.cpp:157] Top shape: 32 (32)
I1028 13:14:39.750458 28094 net.cpp:165] Memory required for data: 19268096
I1028 13:14:39.750461 28094 layer_factory.hpp:76] Creating layer conv1/7x7_s2
I1028 13:14:39.750478 28094 net.cpp:106] Creating Layer conv1/7x7_s2
I1028 13:14:39.750483 28094 net.cpp:454] conv1/7x7_s2 <- data
I1028 13:14:39.750490 28094 net.cpp:411] conv1/7x7_s2 -> conv1/7x7_s2
I1028 13:14:39.962957 28094 cudnn_conv_layer.cpp:194] Reallocating workspace storage: 225816
I1028 13:14:39.963243 28094 net.cpp:150] Setting up conv1/7x7_s2
I1028 13:14:39.963259 28094 net.cpp:157] Top shape: 32 64 112 112 (25690112)
I1028 13:14:39.963271 28094 net.cpp:165] Memory required for data: 122028544
I1028 13:14:39.963291 28094 layer_factory.hpp:76] Creating layer conv1/prelu_7x7
I1028 13:14:39.963309 28094 net.cpp:106] Creating Layer conv1/prelu_7x7
I1028 13:14:39.963322 28094 net.cpp:454] conv1/prelu_7x7 <- conv1/7x7_s2
I1028 13:14:39.963330 28094 net.cpp:397] conv1/prelu_7x7 -> conv1/7x7_s2 (in-place)
I1028 13:14:39.965111 28094 net.cpp:150] Setting up conv1/prelu_7x7
I1028 13:14:39.965129 28094 net.cpp:157] Top shape: 32 64 112 112 (25690112)
I1028 13:14:39.965134 28094 net.cpp:165] Memory required for data: 224788992
I1028 13:14:39.965143 28094 layer_factory.hpp:76] Creating layer pool1/3x3_s2
I1028 13:14:39.965155 28094 net.cpp:106] Creating Layer pool1/3x3_s2
I1028 13:14:39.965160 28094 net.cpp:454] pool1/3x3_s2 <- conv1/7x7_s2
I1028 13:14:39.965167 28094 net.cpp:411] pool1/3x3_s2 -> pool1/3x3_s2
I1028 13:14:39.965548 28094 net.cpp:150] Setting up pool1/3x3_s2
I1028 13:14:39.965559 28094 net.cpp:157] Top shape: 32 64 56 56 (6422528)
I1028 13:14:39.965564 28094 net.cpp:165] Memory required for data: 250479104
I1028 13:14:39.965567 28094 layer_factory.hpp:76] Creating layer pool1/norm1
I1028 13:14:39.965579 28094 net.cpp:106] Creating Layer pool1/norm1
I1028 13:14:39.965584 28094 net.cpp:454] pool1/norm1 <- pool1/3x3_s2
I1028 13:14:39.965590 28094 net.cpp:411] pool1/norm1 -> pool1/norm1
I1028 13:14:39.965742 28094 net.cpp:150] Setting up pool1/norm1
I1028 13:14:39.965752 28094 net.cpp:157] Top shape: 32 64 56 56 (6422528)
I1028 13:14:39.965756 28094 net.cpp:165] Memory required for data: 276169216
I1028 13:14:39.965760 28094 layer_factory.hpp:76] Creating layer conv2/3x3_reduce
I1028 13:14:39.965770 28094 net.cpp:106] Creating Layer conv2/3x3_reduce
I1028 13:14:39.965775 28094 net.cpp:454] conv2/3x3_reduce <- pool1/norm1
I1028 13:14:39.965781 28094 net.cpp:411] conv2/3x3_reduce -> conv2/3x3_reduce
I1028 13:14:39.967133 28094 cudnn_conv_layer.cpp:194] Reallocating workspace storage: 63000
I1028 13:14:39.967154 28094 net.cpp:150] Setting up conv2/3x3_reduce
I1028 13:14:39.967160 28094 net.cpp:157] Top shape: 32 64 56 56 (6422528)
I1028 13:14:39.967165 28094 net.cpp:165] Memory required for data: 301859328
I1028 13:14:39.967175 28094 layer_factory.hpp:76] Creating layer conv2/prelu_3x3_reduce
I1028 13:14:39.967182 28094 net.cpp:106] Creating Layer conv2/prelu_3x3_reduce
I1028 13:14:39.967195 28094 net.cpp:454] conv2/prelu_3x3_reduce <- conv2/3x3_reduce
I1028 13:14:39.967200 28094 net.cpp:397] conv2/prelu_3x3_reduce -> conv2/3x3_reduce (in-place)
I1028 13:14:39.967818 28094 net.cpp:150] Setting up conv2/prelu_3x3_reduce
I1028 13:14:39.967829 28094 net.cpp:157] Top shape: 32 64 56 56 (6422528)
I1028 13:14:39.967833 28094 net.cpp:165] Memory required for data: 327549440
I1028 13:14:39.967839 28094 layer_factory.hpp:76] Creating layer conv2/3x3
I1028 13:14:39.967849 28094 net.cpp:106] Creating Layer conv2/3x3
I1028 13:14:39.967854 28094 net.cpp:454] conv2/3x3 <- conv2/3x3_reduce
I1028 13:14:39.967860 28094 net.cpp:411] conv2/3x3 -> conv2/3x3
I1028 13:14:39.969787 28094 cudnn_conv_layer.cpp:194] Reallocating workspace storage: 63000
I1028 13:14:39.969808 28094 net.cpp:150] Setting up conv2/3x3
I1028 13:14:39.969815 28094 net.cpp:157] Top shape: 32 192 56 56 (19267584)
I1028 13:14:39.969820 28094 net.cpp:165] Memory required for data: 404619776
I1028 13:14:39.969827 28094 layer_factory.hpp:76] Creating layer conv2/prelu_3x3
I1028 13:14:39.969835 28094 net.cpp:106] Creating Layer conv2/prelu_3x3
I1028 13:14:39.969840 28094 net.cpp:454] conv2/prelu_3x3 <- conv2/3x3
I1028 13:14:39.969846 28094 net.cpp:397] conv2/prelu_3x3 -> conv2/3x3 (in-place)
I1028 13:14:39.970947 28094 net.cpp:150] Setting up conv2/prelu_3x3
I1028 13:14:39.970960 28094 net.cpp:157] Top shape: 32 192 56 56 (19267584)
I1028 13:14:39.970965 28094 net.cpp:165] Memory required for data: 481690112
I1028 13:14:39.970991 28094 layer_factory.hpp:76] Creating layer conv2/norm2
I1028 13:14:39.971009 28094 net.cpp:106] Creating Layer conv2/norm2
I1028 13:14:39.971014 28094 net.cpp:454] conv2/norm2 <- conv2/3x3
I1028 13:14:39.971020 28094 net.cpp:411] conv2/norm2 -> conv2/norm2
I1028 13:14:39.971204 28094 net.cpp:150] Setting up conv2/norm2
I1028 13:14:39.971215 28094 net.cpp:157] Top shape: 32 192 56 56 (19267584)
I1028 13:14:39.971218 28094 net.cpp:165] Memory required for data: 558760448
I1028 13:14:39.971222 28094 layer_factory.hpp:76] Creating layer pool2/3x3_s2
I1028 13:14:39.971230 28094 net.cpp:106] Creating Layer pool2/3x3_s2
I1028 13:14:39.971235 28094 net.cpp:454] pool2/3x3_s2 <- conv2/norm2
I1028 13:14:39.971240 28094 net.cpp:411] pool2/3x3_s2 -> pool2/3x3_s2
I1028 13:14:39.971596 28094 net.cpp:150] Setting up pool2/3x3_s2
I1028 13:14:39.971606 28094 net.cpp:157] Top shape: 32 192 28 28 (4816896)
I1028 13:14:39.971611 28094 net.cpp:165] Memory required for data: 578028032
I1028 13:14:39.971616 28094 layer_factory.hpp:76] Creating layer pool2/3x3_s2_pool2/3x3_s2_0_split
I1028 13:14:39.971622 28094 net.cpp:106] Creating Layer pool2/3x3_s2_pool2/3x3_s2_0_split
I1028 13:14:39.971626 28094 net.cpp:454] pool2/3x3_s2_pool2/3x3_s2_0_split <- pool2/3x3_s2
I1028 13:14:39.971632 28094 net.cpp:411] pool2/3x3_s2_pool2/3x3_s2_0_split -> pool2/3x3_s2_pool2/3x3_s2_0_split_0
I1028 13:14:39.971639 28094 net.cpp:411] pool2/3x3_s2_pool2/3x3_s2_0_split -> pool2/3x3_s2_pool2/3x3_s2_0_split_1
I1028 13:14:39.971645 28094 net.cpp:411] pool2/3x3_s2_pool2/3x3_s2_0_split -> pool2/3x3_s2_pool2/3x3_s2_0_split_2
I1028 13:14:39.971652 28094 net.cpp:411] pool2/3x3_s2_pool2/3x3_s2_0_split -> pool2/3x3_s2_pool2/3x3_s2_0_split_3
I1028 13:14:39.971696 28094 net.cpp:150] Setting up pool2/3x3_s2_pool2/3x3_s2_0_split
I1028 13:14:39.971704 28094 net.cpp:157] Top shape: 32 192 28 28 (4816896)
I1028 13:14:39.971709 28094 net.cpp:157] Top shape: 32 192 28 28 (4816896)
I1028 13:14:39.971714 28094 net.cpp:157] Top shape: 32 192 28 28 (4816896)
I1028 13:14:39.971719 28094 net.cpp:157] Top shape: 32 192 28 28 (4816896)
I1028 13:14:39.971722 28094 net.cpp:165] Memory required for data: 655098368
I1028 13:14:39.971726 28094 layer_factory.hpp:76] Creating layer inception_3a/1x1
I1028 13:14:39.971735 28094 net.cpp:106] Creating Layer inception_3a/1x1
I1028 13:14:39.971739 28094 net.cpp:454] inception_3a/1x1 <- pool2/3x3_s2_pool2/3x3_s2_0_split_0
I1028 13:14:39.971745 28094 net.cpp:411] inception_3a/1x1 -> inception_3a/1x1
I1028 13:14:39.973171 28094 cudnn_conv_layer.cpp:194] Reallocating workspace storage: 20664
I1028 13:14:39.973193 28094 net.cpp:150] Setting up inception_3a/1x1
I1028 13:14:39.973201 28094 net.cpp:157] Top shape: 32 64 28 28 (1605632)
I1028 13:14:39.973206 28094 net.cpp:165] Memory required for data: 661520896
I1028 13:14:39.973212 28094 layer_factory.hpp:76] Creating layer inception_3a/prelu_1x1
I1028 13:14:39.973222 28094 net.cpp:106] Creating Layer inception_3a/prelu_1x1
I1028 13:14:39.973227 28094 net.cpp:454] inception_3a/prelu_1x1 <- inception_3a/1x1
I1028 13:14:39.973232 28094 net.cpp:397] inception_3a/prelu_1x1 -> inception_3a/1x1 (in-place)
I1028 13:14:39.973757 28094 net.cpp:150] Setting up inception_3a/prelu_1x1
I1028 13:14:39.973768 28094 net.cpp:157] Top shape: 32 64 28 28 (1605632)
I1028 13:14:39.973773 28094 net.cpp:165] Memory required for data: 667943424
I1028 13:14:39.973778 28094 layer_factory.hpp:76] Creating layer inception_3a/3x3_reduce
I1028 13:14:39.973788 28094 net.cpp:106] Creating Layer inception_3a/3x3_reduce
I1028 13:14:39.973791 28094 net.cpp:454] inception_3a/3x3_reduce <- pool2/3x3_s2_pool2/3x3_s2_0_split_1
I1028 13:14:39.973799 28094 net.cpp:411] inception_3a/3x3_reduce -> inception_3a/3x3_reduce
I1028 13:14:39.974689 28094 cudnn_conv_layer.cpp:194] Reallocating workspace storage: 20664
I1028 13:14:39.974709 28094 net.cpp:150] Setting up inception_3a/3x3_reduce
I1028 13:14:39.974717 28094 net.cpp:157] Top shape: 32 96 28 28 (2408448)
I1028 13:14:39.974722 28094 net.cpp:165] Memory required for data: 677577216
I1028 13:14:39.974747 28094 layer_factory.hpp:76] Creating layer inception_3a/prelu_3x3_reduce
I1028 13:14:39.974758 28094 net.cpp:106] Creating Layer inception_3a/prelu_3x3_reduce
I1028 13:14:39.974762 28094 net.cpp:454] inception_3a/prelu_3x3_reduce <- inception_3a/3x3_reduce
I1028 13:14:39.974771 28094 net.cpp:397] inception_3a/prelu_3x3_reduce -> inception_3a/3x3_reduce (in-place)
I1028 13:14:39.974913 28094 net.cpp:150] Setting up inception_3a/prelu_3x3_reduce
I1028 13:14:39.974923 28094 net.cpp:157] Top shape: 32 96 28 28 (2408448)
I1028 13:14:39.974934 28094 net.cpp:165] Memory required for data: 687211008
I1028 13:14:39.974941 28094 layer_factory.hpp:76] Creating layer inception_3a/3x3
I1028 13:14:39.974957 28094 net.cpp:106] Creating Layer inception_3a/3x3
I1028 13:14:39.974961 28094 net.cpp:454] inception_3a/3x3 <- inception_3a/3x3_reduce
I1028 13:14:39.974969 28094 net.cpp:411] inception_3a/3x3 -> inception_3a/3x3
I1028 13:14:39.977078 28094 cudnn_conv_layer.cpp:194] Reallocating workspace storage: 20664
I1028 13:14:39.977104 28094 net.cpp:150] Setting up inception_3a/3x3
I1028 13:14:39.977111 28094 net.cpp:157] Top shape: 32 128 28 28 (3211264)
I1028 13:14:39.977115 28094 net.cpp:165] Memory required for data: 700056064
I1028 13:14:39.977128 28094 layer_factory.hpp:76] Creating layer inception_3a/prelu_3x3
I1028 13:14:39.977144 28094 net.cpp:106] Creating Layer inception_3a/prelu_3x3
I1028 13:14:39.977149 28094 net.cpp:454] inception_3a/prelu_3x3 <- inception_3a/3x3
I1028 13:14:39.977156 28094 net.cpp:397] inception_3a/prelu_3x3 -> inception_3a/3x3 (in-place)
I1028 13:14:39.977282 28094 net.cpp:150] Setting up inception_3a/prelu_3x3
I1028 13:14:39.977290 28094 net.cpp:157] Top shape: 32 128 28 28 (3211264)
I1028 13:14:39.977303 28094 net.cpp:165] Memory required for data: 712901120
I1028 13:14:39.977308 28094 layer_factory.hpp:76] Creating layer inception_3a/5x5_reduce
I1028 13:14:39.977319 28094 net.cpp:106] Creating Layer inception_3a/5x5_reduce
I1028 13:14:39.977322 28094 net.cpp:454] inception_3a/5x5_reduce <- pool2/3x3_s2_pool2/3x3_s2_0_split_2
I1028 13:14:39.977330 28094 net.cpp:411] inception_3a/5x5_reduce -> inception_3a/5x5_reduce
I1028 13:14:39.978515 28094 cudnn_conv_layer.cpp:194] Reallocating workspace storage: 20664
I1028 13:14:39.978544 28094 net.cpp:150] Setting up inception_3a/5x5_reduce
I1028 13:14:39.978554 28094 net.cpp:157] Top shape: 32 16 28 28 (401408)
I1028 13:14:39.978559 28094 net.cpp:165] Memory required for data: 714506752
I1028 13:14:39.978567 28094 layer_factory.hpp:76] Creating layer inception_3a/prelu_5x5_reduce
I1028 13:14:39.978579 28094 net.cpp:106] Creating Layer inception_3a/prelu_5x5_reduce
I1028 13:14:39.978584 28094 net.cpp:454] inception_3a/prelu_5x5_reduce <- inception_3a/5x5_reduce
I1028 13:14:39.978590 28094 net.cpp:397] inception_3a/prelu_5x5_reduce -> inception_3a/5x5_reduce (in-place)
I1028 13:14:39.978703 28094 net.cpp:150] Setting up inception_3a/prelu_5x5_reduce
I1028 13:14:39.978711 28094 net.cpp:157] Top shape: 32 16 28 28 (401408)
I1028 13:14:39.978715 28094 net.cpp:165] Memory required for data: 716112384
I1028 13:14:39.978721 28094 layer_factory.hpp:76] Creating layer inception_3a/5x5
I1028 13:14:39.978731 28094 net.cpp:106] Creating Layer inception_3a/5x5
I1028 13:14:39.978735 28094 net.cpp:454] inception_3a/5x5 <- inception_3a/5x5_reduce
I1028 13:14:39.978742 28094 net.cpp:411] inception_3a/5x5 -> inception_3a/5x5
I1028 13:14:39.979816 28094 cudnn_conv_layer.cpp:194] Reallocating workspace storage: 20664
I1028 13:14:39.979840 28094 net.cpp:150] Setting up inception_3a/5x5
I1028 13:14:39.979847 28094 net.cpp:157] Top shape: 32 32 28 28 (802816)
I1028 13:14:39.979851 28094 net.cpp:165] Memory required for data: 719323648
I1028 13:14:39.979861 28094 layer_factory.hpp:76] Creating layer inception_3a/prelu_5x5
I1028 13:14:39.979871 28094 net.cpp:106] Creating Layer inception_3a/prelu_5x5
I1028 13:14:39.979876 28094 net.cpp:454] inception_3a/prelu_5x5 <- inception_3a/5x5
I1028 13:14:39.979882 28094 net.cpp:397] inception_3a/prelu_5x5 -> inception_3a/5x5 (in-place)
I1028 13:14:39.980020 28094 net.cpp:150] Setting up inception_3a/prelu_5x5
I1028 13:14:39.980029 28094 net.cpp:157] Top shape: 32 32 28 28 (802816)
I1028 13:14:39.980033 28094 net.cpp:165] Memory required for data: 722534912
I1028 13:14:39.980038 28094 layer_factory.hpp:76] Creating layer inception_3a/pool
I1028 13:14:39.980046 28094 net.cpp:106] Creating Layer inception_3a/pool
I1028 13:14:39.980051 28094 net.cpp:454] inception_3a/pool <- pool2/3x3_s2_pool2/3x3_s2_0_split_3
I1028 13:14:39.980058 28094 net.cpp:411] inception_3a/pool -> inception_3a/pool
I1028 13:14:39.980232 28094 net.cpp:150] Setting up inception_3a/pool
I1028 13:14:39.980242 28094 net.cpp:157] Top shape: 32 192 28 28 (4816896)
I1028 13:14:39.980245 28094 net.cpp:165] Memory required for data: 741802496
I1028 13:14:39.980250 28094 layer_factory.hpp:76] Creating layer inception_3a/pool_proj
I1028 13:14:39.980259 28094 net.cpp:106] Creating Layer inception_3a/pool_proj
I1028 13:14:39.980263 28094 net.cpp:454] inception_3a/pool_proj <- inception_3a/pool
I1028 13:14:39.980271 28094 net.cpp:411] inception_3a/pool_proj -> inception_3a/pool_proj
I1028 13:14:39.981256 28094 cudnn_conv_layer.cpp:194] Reallocating workspace storage: 20664
I1028 13:14:39.981276 28094 net.cpp:150] Setting up inception_3a/pool_proj
I1028 13:14:39.981282 28094 net.cpp:157] Top shape: 32 32 28 28 (802816)
I1028 13:14:39.981287 28094 net.cpp:165] Memory required for data: 745013760
I1028 13:14:39.981293 28094 layer_factory.hpp:76] Creating layer inception_3a/prelu_pool_proj
I1028 13:14:39.981302 28094 net.cpp:106] Creating Layer inception_3a/prelu_pool_proj
I1028 13:14:39.981307 28094 net.cpp:454] inception_3a/prelu_pool_proj <- inception_3a/pool_proj
I1028 13:14:39.981314 28094 net.cpp:397] inception_3a/prelu_pool_proj -> inception_3a/pool_proj (in-place)
I1028 13:14:39.981403 28094 net.cpp:150] Setting up inception_3a/prelu_pool_proj
I1028 13:14:39.981412 28094 net.cpp:157] Top shape: 32 32 28 28 (802816)
I1028 13:14:39.981416 28094 net.cpp:165] Memory required for data: 748225024
I1028 13:14:39.981421 28094 layer_factory.hpp:76] Creating layer inception_3a/output
I1028 13:14:39.981432 28094 net.cpp:106] Creating Layer inception_3a/output
I1028 13:14:39.981436 28094 net.cpp:454] inception_3a/output <- inception_3a/1x1
I1028 13:14:39.981443 28094 net.cpp:454] inception_3a/output <- inception_3a/3x3
I1028 13:14:39.981448 28094 net.cpp:454] inception_3a/output <- inception_3a/5x5
I1028 13:14:39.981452 28094 net.cpp:454] inception_3a/output <- inception_3a/pool_proj
I1028 13:14:39.981457 28094 net.cpp:411] inception_3a/output -> inception_3a/output
I1028 13:14:39.981483 28094 net.cpp:150] Setting up inception_3a/output
I1028 13:14:39.981492 28094 net.cpp:157] Top shape: 32 256 28 28 (6422528)
I1028 13:14:39.981497 28094 net.cpp:165] Memory required for data: 773915136
I1028 13:14:39.981500 28094 layer_factory.hpp:76] Creating layer inception_3a/output_inception_3a/output_0_split
I1028 13:14:39.981506 28094 net.cpp:106] Creating Layer inception_3a/output_inception_3a/output_0_split
I1028 13:14:39.981510 28094 net.cpp:454] inception_3a/output_inception_3a/output_0_split <- inception_3a/output
I1028 13:14:39.981515 28094 net.cpp:411] inception_3a/output_inception_3a/output_0_split -> inception_3a/output_inception_3a/output_0_split_0
I1028 13:14:39.981523 28094 net.cpp:411] inception_3a/output_inception_3a/output_0_split -> inception_3a/output_inception_3a/output_0_split_1
I1028 13:14:39.981530 28094 net.cpp:411] inception_3a/output_inception_3a/output_0_split -> inception_3a/output_inception_3a/output_0_split_2
I1028 13:14:39.981537 28094 net.cpp:411] inception_3a/output_inception_3a/output_0_split -> inception_3a/output_inception_3a/output_0_split_3
I1028 13:14:39.981587 28094 net.cpp:150] Setting up inception_3a/output_inception_3a/output_0_split
I1028 13:14:39.981595 28094 net.cpp:157] Top shape: 32 256 28 28 (6422528)
I1028 13:14:39.981600 28094 net.cpp:157] Top shape: 32 256 28 28 (6422528)
I1028 13:14:39.981606 28094 net.cpp:157] Top shape: 32 256 28 28 (6422528)
I1028 13:14:39.981622 28094 net.cpp:157] Top shape: 32 256 28 28 (6422528)
I1028 13:14:39.981626 28094 net.cpp:165] Memory required for data: 876675584
I1028 13:14:39.981631 28094 layer_factory.hpp:76] Creating layer inception_3b/1x1
I1028 13:14:39.981639 28094 net.cpp:106] Creating Layer inception_3b/1x1
I1028 13:14:39.981643 28094 net.cpp:454] inception_3b/1x1 <- inception_3a/output_inception_3a/output_0_split_0
I1028 13:14:39.981649 28094 net.cpp:411] inception_3b/1x1 -> inception_3b/1x1
I1028 13:14:39.982796 28094 cudnn_conv_layer.cpp:194] Reallocating workspace storage: 20664
I1028 13:14:39.982815 28094 net.cpp:150] Setting up inception_3b/1x1
I1028 13:14:39.982820 28094 net.cpp:157] Top shape: 32 128 28 28 (3211264)
I1028 13:14:39.982825 28094 net.cpp:165] Memory required for data: 889520640
I1028 13:14:39.982831 28094 layer_factory.hpp:76] Creating layer inception_3b/prelu_1x1
I1028 13:14:39.982839 28094 net.cpp:106] Creating Layer inception_3b/prelu_1x1
I1028 13:14:39.982843 28094 net.cpp:454] inception_3b/prelu_1x1 <- inception_3b/1x1
I1028 13:14:39.982857 28094 net.cpp:397] inception_3b/prelu_1x1 -> inception_3b/1x1 (in-place)
I1028 13:14:39.983436 28094 net.cpp:150] Setting up inception_3b/prelu_1x1
I1028 13:14:39.983448 28094 net.cpp:157] Top shape: 32 128 28 28 (3211264)
I1028 13:14:39.983453 28094 net.cpp:165] Memory required for data: 902365696
I1028 13:14:39.983458 28094 layer_factory.hpp:76] Creating layer inception_3b/3x3_reduce
I1028 13:14:39.983467 28094 net.cpp:106] Creating Layer inception_3b/3x3_reduce
I1028 13:14:39.983471 28094 net.cpp:454] inception_3b/3x3_reduce <- inception_3a/output_inception_3a/output_0_split_1
I1028 13:14:39.983479 28094 net.cpp:411] inception_3b/3x3_reduce -> inception_3b/3x3_reduce
I1028 13:14:39.984625 28094 cudnn_conv_layer.cpp:194] Reallocating workspace storage: 20664
I1028 13:14:39.984643 28094 net.cpp:150] Setting up inception_3b/3x3_reduce
I1028 13:14:39.984652 28094 net.cpp:157] Top shape: 32 128 28 28 (3211264)
I1028 13:14:39.984657 28094 net.cpp:165] Memory required for data: 915210752
I1028 13:14:39.984664 28094 layer_factory.hpp:76] Creating layer inception_3b/prelu_3x3_reduce
I1028 13:14:39.984673 28094 net.cpp:106] Creating Layer inception_3b/prelu_3x3_reduce
I1028 13:14:39.984685 28094 net.cpp:454] inception_3b/prelu_3x3_reduce <- inception_3b/3x3_reduce
I1028 13:14:39.984693 28094 net.cpp:397] inception_3b/prelu_3x3_reduce -> inception_3b/3x3_reduce (in-place)
I1028 13:14:39.984818 28094 net.cpp:150] Setting up inception_3b/prelu_3x3_reduce
I1028 13:14:39.984828 28094 net.cpp:157] Top shape: 32 128 28 28 (3211264)
I1028 13:14:39.984833 28094 net.cpp:165] Memory required for data: 928055808
I1028 13:14:39.984843 28094 layer_factory.hpp:76] Creating layer inception_3b/3x3
I1028 13:14:39.984855 28094 net.cpp:106] Creating Layer inception_3b/3x3
I1028 13:14:39.984860 28094 net.cpp:454] inception_3b/3x3 <- inception_3b/3x3_reduce
I1028 13:14:39.984868 28094 net.cpp:411] inception_3b/3x3 -> inception_3b/3x3
I1028 13:14:39.987439 28094 cudnn_conv_layer.cpp:194] Reallocating workspace storage: 20664
I1028 13:14:39.987459 28094 net.cpp:150] Setting up inception_3b/3x3
I1028 13:14:39.987467 28094 net.cpp:157] Top shape: 32 192 28 28 (4816896)
I1028 13:14:39.987470 28094 net.cpp:165] Memory required for data: 947323392
I1028 13:14:39.987478 28094 layer_factory.hpp:76] Creating layer inception_3b/prelu_3x3
I1028 13:14:39.987493 28094 net.cpp:106] Creating Layer inception_3b/prelu_3x3
I1028 13:14:39.987498 28094 net.cpp:454] inception_3b/prelu_3x3 <- inception_3b/3x3
I1028 13:14:39.987505 28094 net.cpp:397] inception_3b/prelu_3x3 -> inception_3b/3x3 (in-place)
I1028 13:14:39.988095 28094 net.cpp:150] Setting up inception_3b/prelu_3x3
I1028 13:14:39.988106 28094 net.cpp:157] Top shape: 32 192 28 28 (4816896)
I1028 13:14:39.988109 28094 net.cpp:165] Memory required for data: 966590976
I1028 13:14:39.988116 28094 layer_factory.hpp:76] Creating layer inception_3b/5x5_reduce
I1028 13:14:39.988132 28094 net.cpp:106] Creating Layer inception_3b/5x5_reduce
I1028 13:14:39.988138 28094 net.cpp:454] inception_3b/5x5_reduce <- inception_3a/output_inception_3a/output_0_split_2
I1028 13:14:39.988162 28094 net.cpp:411] inception_3b/5x5_reduce -> inception_3b/5x5_reduce
I1028 13:14:39.989028 28094 cudnn_conv_layer.cpp:194] Reallocating workspace storage: 20664
I1028 13:14:39.989048 28094 net.cpp:150] Setting up inception_3b/5x5_reduce
I1028 13:14:39.989053 28094 net.cpp:157] Top shape: 32 32 28 28 (802816)
I1028 13:14:39.989058 28094 net.cpp:165] Memory required for data: 969802240
I1028 13:14:39.989064 28094 layer_factory.hpp:76] Creating layer inception_3b/prelu_5x5_reduce
I1028 13:14:39.989073 28094 net.cpp:106] Creating Layer inception_3b/prelu_5x5_reduce
I1028 13:14:39.989078 28094 net.cpp:454] inception_3b/prelu_5x5_reduce <- inception_3b/5x5_reduce
I1028 13:14:39.989085 28094 net.cpp:397] inception_3b/prelu_5x5_reduce -> inception_3b/5x5_reduce (in-place)
I1028 13:14:39.989177 28094 net.cpp:150] Setting up inception_3b/prelu_5x5_reduce
I1028 13:14:39.989187 28094 net.cpp:157] Top shape: 32 32 28 28 (802816)
I1028 13:14:39.989190 28094 net.cpp:165] Memory required for data: 973013504
I1028 13:14:39.989195 28094 layer_factory.hpp:76] Creating layer inception_3b/5x5
I1028 13:14:39.989203 28094 net.cpp:106] Creating Layer inception_3b/5x5
I1028 13:14:39.989208 28094 net.cpp:454] inception_3b/5x5 <- inception_3b/5x5_reduce
I1028 13:14:39.989215 28094 net.cpp:411] inception_3b/5x5 -> inception_3b/5x5
I1028 13:14:39.990579 28094 cudnn_conv_layer.cpp:194] Reallocating workspace storage: 20664
I1028 13:14:39.990598 28094 net.cpp:150] Setting up inception_3b/5x5
I1028 13:14:39.990607 28094 net.cpp:157] Top shape: 32 96 28 28 (2408448)
I1028 13:14:39.990612 28094 net.cpp:165] Memory required for data: 982647296
I1028 13:14:39.990617 28094 layer_factory.hpp:76] Creating layer inception_3b/prelu_5x5
I1028 13:14:39.990625 28094 net.cpp:106] Creating Layer inception_3b/prelu_5x5
I1028 13:14:39.990629 28094 net.cpp:454] inception_3b/prelu_5x5 <- inception_3b/5x5
I1028 13:14:39.990644 28094 net.cpp:397] inception_3b/prelu_5x5 -> inception_3b/5x5 (in-place)
I1028 13:14:39.990805 28094 net.cpp:150] Setting up inception_3b/prelu_5x5
I1028 13:14:39.990818 28094 net.cpp:157] Top shape: 32 96 28 28 (2408448)
I1028 13:14:39.990821 28094 net.cpp:165] Memory required for data: 992281088
I1028 13:14:39.990826 28094 layer_factory.hpp:76] Creating layer inception_3b/pool
I1028 13:14:39.990834 28094 net.cpp:106] Creating Layer inception_3b/pool
I1028 13:14:39.990839 28094 net.cpp:454] inception_3b/pool <- inception_3a/output_inception_3a/output_0_split_3
I1028 13:14:39.990844 28094 net.cpp:411] inception_3b/pool -> inception_3b/pool
I1028 13:14:39.991230 28094 net.cpp:150] Setting up inception_3b/pool
I1028 13:14:39.991241 28094 net.cpp:157] Top shape: 32 256 28 28 (6422528)
I1028 13:14:39.991245 28094 net.cpp:165] Memory required for data: 1017971200
I1028 13:14:39.991250 28094 layer_factory.hpp:76] Creating layer inception_3b/pool_proj
I1028 13:14:39.991260 28094 net.cpp:106] Creating Layer inception_3b/pool_proj
I1028 13:14:39.991263 28094 net.cpp:454] inception_3b/pool_proj <- inception_3b/pool
I1028 13:14:39.991271 28094 net.cpp:411] inception_3b/pool_proj -> inception_3b/pool_proj
I1028 13:14:39.992355 28094 cudnn_conv_layer.cpp:194] Reallocating workspace storage: 20664
I1028 13:14:39.992377 28094 net.cpp:150] Setting up inception_3b/pool_proj
I1028 13:14:39.992383 28094 net.cpp:157] Top shape: 32 64 28 28 (1605632)
I1028 13:14:39.992388 28094 net.cpp:165] Memory required for data: 1024393728
I1028 13:14:39.992394 28094 layer_factory.hpp:76] Creating layer inception_3b/prelu_pool_proj
I1028 13:14:39.992404 28094 net.cpp:106] Creating Layer inception_3b/prelu_pool_proj
I1028 13:14:39.992409 28094 net.cpp:454] inception_3b/prelu_pool_proj <- inception_3b/pool_proj
I1028 13:14:39.992416 28094 net.cpp:397] inception_3b/prelu_pool_proj -> inception_3b/pool_proj (in-place)
I1028 13:14:39.992575 28094 net.cpp:150] Setting up inception_3b/prelu_pool_proj
I1028 13:14:39.992586 28094 net.cpp:157] Top shape: 32 64 28 28 (1605632)
I1028 13:14:39.992604 28094 net.cpp:165] Memory required for data: 1030816256
I1028 13:14:39.992610 28094 layer_factory.hpp:76] Creating layer inception_3b/output
I1028 13:14:39.992617 28094 net.cpp:106] Creating Layer inception_3b/output
I1028 13:14:39.992621 28094 net.cpp:454] inception_3b/output <- inception_3b/1x1
I1028 13:14:39.992638 28094 net.cpp:454] inception_3b/output <- inception_3b/3x3
I1028 13:14:39.992643 28094 net.cpp:454] inception_3b/output <- inception_3b/5x5
I1028 13:14:39.992648 28094 net.cpp:454] inception_3b/output <- inception_3b/pool_proj
I1028 13:14:39.992655 28094 net.cpp:411] inception_3b/output -> inception_3b/output
I1028 13:14:39.992686 28094 net.cpp:150] Setting up inception_3b/output
I1028 13:14:39.992705 28094 net.cpp:157] Top shape: 32 480 28 28 (12042240)
I1028 13:14:39.992720 28094 net.cpp:165] Memory required for data: 1078985216
I1028 13:14:39.992724 28094 layer_factory.hpp:76] Creating layer pool3/3x3_s2
I1028 13:14:39.992734 28094 net.cpp:106] Creating Layer pool3/3x3_s2
I1028 13:14:39.992738 28094 net.cpp:454] pool3/3x3_s2 <- inception_3b/output
I1028 13:14:39.992745 28094 net.cpp:411] pool3/3x3_s2 -> pool3/3x3_s2
I1028 13:14:39.993158 28094 net.cpp:150] Setting up pool3/3x3_s2
I1028 13:14:39.993176 28094 net.cpp:157] Top shape: 32 480 14 14 (3010560)
I1028 13:14:39.993202 28094 net.cpp:165] Memory required for data: 1091027456
I1028 13:14:39.993209 28094 layer_factory.hpp:76] Creating layer pool3/3x3_s2_pool3/3x3_s2_0_split
I1028 13:14:39.993221 28094 net.cpp:106] Creating Layer pool3/3x3_s2_pool3/3x3_s2_0_split
I1028 13:14:39.993226 28094 net.cpp:454] pool3/3x3_s2_pool3/3x3_s2_0_split <- pool3/3x3_s2
I1028 13:14:39.993232 28094 net.cpp:411] pool3/3x3_s2_pool3/3x3_s2_0_split -> pool3/3x3_s2_pool3/3x3_s2_0_split_0
I1028 13:14:39.993242 28094 net.cpp:411] pool3/3x3_s2_pool3/3x3_s2_0_split -> pool3/3x3_s2_pool3/3x3_s2_0_split_1
I1028 13:14:39.993258 28094 net.cpp:411] pool3/3x3_s2_pool3/3x3_s2_0_split -> pool3/3x3_s2_pool3/3x3_s2_0_split_2
I1028 13:14:39.993265 28094 net.cpp:411] pool3/3x3_s2_pool3/3x3_s2_0_split -> pool3/3x3_s2_pool3/3x3_s2_0_split_3
I1028 13:14:39.993332 28094 net.cpp:150] Setting up pool3/3x3_s2_pool3/3x3_s2_0_split
I1028 13:14:39.993343 28094 net.cpp:157] Top shape: 32 480 14 14 (3010560)
I1028 13:14:39.993348 28094 net.cpp:157] Top shape: 32 480 14 14 (3010560)
I1028 13:14:39.993353 28094 net.cpp:157] Top shape: 32 480 14 14 (3010560)
I1028 13:14:39.993358 28094 net.cpp:157] Top shape: 32 480 14 14 (3010560)
I1028 13:14:39.993361 28094 net.cpp:165] Memory required for data: 1139196416
I1028 13:14:39.993367 28094 layer_factory.hpp:76] Creating layer inception_4a/1x1
I1028 13:14:39.993396 28094 net.cpp:106] Creating Layer inception_4a/1x1
I1028 13:14:39.993412 28094 net.cpp:454] inception_4a/1x1 <- pool3/3x3_s2_pool3/3x3_s2_0_split_0
I1028 13:14:39.993432 28094 net.cpp:411] inception_4a/1x1 -> inception_4a/1x1
I1028 13:14:39.995980 28094 cudnn_conv_layer.cpp:194] Reallocating workspace storage: 10080
I1028 13:14:39.996194 28094 net.cpp:150] Setting up inception_4a/1x1
I1028 13:14:39.996207 28094 net.cpp:157] Top shape: 32 192 14 14 (1204224)
I1028 13:14:39.996212 28094 net.cpp:165] Memory required for data: 1144013312
I1028 13:14:39.996222 28094 layer_factory.hpp:76] Creating layer inception_4a/prelu_1x1
I1028 13:14:39.996233 28094 net.cpp:106] Creating Layer inception_4a/prelu_1x1
I1028 13:14:39.996239 28094 net.cpp:454] inception_4a/prelu_1x1 <- inception_4a/1x1
I1028 13:14:39.996248 28094 net.cpp:397] inception_4a/prelu_1x1 -> inception_4a/1x1 (in-place)
I1028 13:14:39.996891 28094 net.cpp:150] Setting up inception_4a/prelu_1x1
I1028 13:14:39.996907 28094 net.cpp:157] Top shape: 32 192 14 14 (1204224)
I1028 13:14:39.996912 28094 net.cpp:165] Memory required for data: 1148830208
I1028 13:14:39.996919 28094 layer_factory.hpp:76] Creating layer inception_4a/3x3_reduce
I1028 13:14:39.996930 28094 net.cpp:106] Creating Layer inception_4a/3x3_reduce
I1028 13:14:39.996937 28094 net.cpp:454] inception_4a/3x3_reduce <- pool3/3x3_s2_pool3/3x3_s2_0_split_1
I1028 13:14:39.996945 28094 net.cpp:411] inception_4a/3x3_reduce -> inception_4a/3x3_reduce
I1028 13:14:39.998344 28094 cudnn_conv_layer.cpp:194] Reallocating workspace storage: 10080
I1028 13:14:39.998388 28094 net.cpp:150] Setting up inception_4a/3x3_reduce
I1028 13:14:39.998396 28094 net.cpp:157] Top shape: 32 96 14 14 (602112)
I1028 13:14:39.998401 28094 net.cpp:165] Memory required for data: 1151238656
I1028 13:14:39.998409 28094 layer_factory.hpp:76] Creating layer inception_4a/prelu_3x3_reduce
I1028 13:14:39.998428 28094 net.cpp:106] Creating Layer inception_4a/prelu_3x3_reduce
I1028 13:14:39.998445 28094 net.cpp:454] inception_4a/prelu_3x3_reduce <- inception_4a/3x3_reduce
I1028 13:14:39.998456 28094 net.cpp:397] inception_4a/prelu_3x3_reduce -> inception_4a/3x3_reduce (in-place)
I1028 13:14:39.998594 28094 net.cpp:150] Setting up inception_4a/prelu_3x3_reduce
I1028 13:14:39.998602 28094 net.cpp:157] Top shape: 32 96 14 14 (602112)
I1028 13:14:39.998606 28094 net.cpp:165] Memory required for data: 1153647104
I1028 13:14:39.998612 28094 layer_factory.hpp:76] Creating layer inception_4a/3x3
I1028 13:14:39.998620 28094 net.cpp:106] Creating Layer inception_4a/3x3
I1028 13:14:39.998625 28094 net.cpp:454] inception_4a/3x3 <- inception_4a/3x3_reduce
I1028 13:14:39.998632 28094 net.cpp:411] inception_4a/3x3 -> inception_4a/3x3
I1028 13:14:40.000970 28094 cudnn_conv_layer.cpp:194] Reallocating workspace storage: 10080
I1028 13:14:40.001013 28094 net.cpp:150] Setting up inception_4a/3x3
I1028 13:14:40.001026 28094 net.cpp:157] Top shape: 32 208 14 14 (1304576)
I1028 13:14:40.001034 28094 net.cpp:165] Memory required for data: 1158865408
I1028 13:14:40.001044 28094 layer_factory.hpp:76] Creating layer inception_4a/prelu_3x3
I1028 13:14:40.001068 28094 net.cpp:106] Creating Layer inception_4a/prelu_3x3
I1028 13:14:40.001077 28094 net.cpp:454] inception_4a/prelu_3x3 <- inception_4a/3x3
I1028 13:14:40.001087 28094 net.cpp:397] inception_4a/prelu_3x3 -> inception_4a/3x3 (in-place)
I1028 13:14:40.001221 28094 net.cpp:150] Setting up inception_4a/prelu_3x3
I1028 13:14:40.001236 28094 net.cpp:157] Top shape: 32 208 14 14 (1304576)
I1028 13:14:40.001245 28094 net.cpp:165] Memory required for data: 1164083712
I1028 13:14:40.001251 28094 layer_factory.hpp:76] Creating layer inception_4a/5x5_reduce
I1028 13:14:40.001261 28094 net.cpp:106] Creating Layer inception_4a/5x5_reduce
I1028 13:14:40.001266 28094 net.cpp:454] inception_4a/5x5_reduce <- pool3/3x3_s2_pool3/3x3_s2_0_split_2
I1028 13:14:40.001273 28094 net.cpp:411] inception_4a/5x5_reduce -> inception_4a/5x5_reduce
I1028 13:14:40.002472 28094 cudnn_conv_layer.cpp:194] Reallocating workspace storage: 10080
I1028 13:14:40.002508 28094 net.cpp:150] Setting up inception_4a/5x5_reduce
I1028 13:14:40.002517 28094 net.cpp:157] Top shape: 32 16 14 14 (100352)
I1028 13:14:40.002521 28094 net.cpp:165] Memory required for data: 1164485120
I1028 13:14:40.002528 28094 layer_factory.hpp:76] Creating layer inception_4a/prelu_5x5_reduce
I1028 13:14:40.002538 28094 net.cpp:106] Creating Layer inception_4a/prelu_5x5_reduce
I1028 13:14:40.002543 28094 net.cpp:454] inception_4a/prelu_5x5_reduce <- inception_4a/5x5_reduce
I1028 13:14:40.002549 28094 net.cpp:397] inception_4a/prelu_5x5_reduce -> inception_4a/5x5_reduce (in-place)
I1028 13:14:40.002641 28094 net.cpp:150] Setting up inception_4a/prelu_5x5_reduce
I1028 13:14:40.002650 28094 net.cpp:157] Top shape: 32 16 14 14 (100352)
I1028 13:14:40.002655 28094 net.cpp:165] Memory required for data: 1164886528
I1028 13:14:40.002668 28094 layer_factory.hpp:76] Creating layer inception_4a/5x5
I1028 13:14:40.002677 28094 net.cpp:106] Creating Layer inception_4a/5x5
I1028 13:14:40.002681 28094 net.cpp:454] inception_4a/5x5 <- inception_4a/5x5_reduce
I1028 13:14:40.002689 28094 net.cpp:411] inception_4a/5x5 -> inception_4a/5x5
I1028 13:14:40.003775 28094 cudnn_conv_layer.cpp:194] Reallocating workspace storage: 13080
I1028 13:14:40.003805 28094 net.cpp:150] Setting up inception_4a/5x5
I1028 13:14:40.003814 28094 net.cpp:157] Top shape: 32 48 14 14 (301056)
I1028 13:14:40.003818 28094 net.cpp:165] Memory required for data: 1166090752
I1028 13:14:40.003840 28094 layer_factory.hpp:76] Creating layer inception_4a/prelu_5x5
I1028 13:14:40.003849 28094 net.cpp:106] Creating Layer inception_4a/prelu_5x5
I1028 13:14:40.003854 28094 net.cpp:454] inception_4a/prelu_5x5 <- inception_4a/5x5
I1028 13:14:40.003861 28094 net.cpp:397] inception_4a/prelu_5x5 -> inception_4a/5x5 (in-place)
I1028 13:14:40.003958 28094 net.cpp:150] Setting up inception_4a/prelu_5x5
I1028 13:14:40.003968 28094 net.cpp:157] Top shape: 32 48 14 14 (301056)
I1028 13:14:40.003972 28094 net.cpp:165] Memory required for data: 1167294976
I1028 13:14:40.003985 28094 layer_factory.hpp:76] Creating layer inception_4a/pool
I1028 13:14:40.003993 28094 net.cpp:106] Creating Layer inception_4a/pool
I1028 13:14:40.003998 28094 net.cpp:454] inception_4a/pool <- pool3/3x3_s2_pool3/3x3_s2_0_split_3
I1028 13:14:40.004004 28094 net.cpp:411] inception_4a/pool -> inception_4a/pool
I1028 13:14:40.004364 28094 net.cpp:150] Setting up inception_4a/pool
I1028 13:14:40.004374 28094 net.cpp:157] Top shape: 32 480 14 14 (3010560)
I1028 13:14:40.004385 28094 net.cpp:165] Memory required for data: 1179337216
I1028 13:14:40.004390 28094 layer_factory.hpp:76] Creating layer inception_4a/pool_proj
I1028 13:14:40.004400 28094 net.cpp:106] Creating Layer inception_4a/pool_proj
I1028 13:14:40.004405 28094 net.cpp:454] inception_4a/pool_proj <- inception_4a/pool
I1028 13:14:40.004413 28094 net.cpp:411] inception_4a/pool_proj -> inception_4a/pool_proj
I1028 13:14:40.005378 28094 cudnn_conv_layer.cpp:194] Reallocating workspace storage: 10080
I1028 13:14:40.005411 28094 net.cpp:150] Setting up inception_4a/pool_proj
I1028 13:14:40.005429 28094 net.cpp:157] Top shape: 32 64 14 14 (401408)
I1028 13:14:40.005441 28094 net.cpp:165] Memory required for data: 1180942848
I1028 13:14:40.005448 28094 layer_factory.hpp:76] Creating layer inception_4a/prelu_pool_proj
I1028 13:14:40.005455 28094 net.cpp:106] Creating Layer inception_4a/prelu_pool_proj
I1028 13:14:40.005460 28094 net.cpp:454] inception_4a/prelu_pool_proj <- inception_4a/pool_proj
I1028 13:14:40.005466 28094 net.cpp:397] inception_4a/prelu_pool_proj -> inception_4a/pool_proj (in-place)
I1028 13:14:40.005568 28094 net.cpp:150] Setting up inception_4a/prelu_pool_proj
I1028 13:14:40.005575 28094 net.cpp:157] Top shape: 32 64 14 14 (401408)
I1028 13:14:40.005579 28094 net.cpp:165] Memory required for data: 1182548480
I1028 13:14:40.005594 28094 layer_factory.hpp:76] Creating layer inception_4a/output
I1028 13:14:40.005600 28094 net.cpp:106] Creating Layer inception_4a/output
I1028 13:14:40.005605 28094 net.cpp:454] inception_4a/output <- inception_4a/1x1
I1028 13:14:40.005610 28094 net.cpp:454] inception_4a/output <- inception_4a/3x3
I1028 13:14:40.005614 28094 net.cpp:454] inception_4a/output <- inception_4a/5x5
I1028 13:14:40.005620 28094 net.cpp:454] inception_4a/output <- inception_4a/pool_proj
I1028 13:14:40.005625 28094 net.cpp:411] inception_4a/output -> inception_4a/output
I1028 13:14:40.005650 28094 net.cpp:150] Setting up inception_4a/output
I1028 13:14:40.005666 28094 net.cpp:157] Top shape: 32 512 14 14 (3211264)
I1028 13:14:40.005676 28094 net.cpp:165] Memory required for data: 1195393536
I1028 13:14:40.005682 28094 layer_factory.hpp:76] Creating layer inception_4a/output_inception_4a/output_0_split
I1028 13:14:40.005689 28094 net.cpp:106] Creating Layer inception_4a/output_inception_4a/output_0_split
I1028 13:14:40.005694 28094 net.cpp:454] inception_4a/output_inception_4a/output_0_split <- inception_4a/output
I1028 13:14:40.005699 28094 net.cpp:411] inception_4a/output_inception_4a/output_0_split -> inception_4a/output_inception_4a/output_0_split_0
I1028 13:14:40.005707 28094 net.cpp:411] inception_4a/output_inception_4a/output_0_split -> inception_4a/output_inception_4a/output_0_split_1
I1028 13:14:40.005713 28094 net.cpp:411] inception_4a/output_inception_4a/output_0_split -> inception_4a/output_inception_4a/output_0_split_2
I1028 13:14:40.005720 28094 net.cpp:411] inception_4a/output_inception_4a/output_0_split -> inception_4a/output_inception_4a/output_0_split_3
I1028 13:14:40.005738 28094 net.cpp:411] inception_4a/output_inception_4a/output_0_split -> inception_4a/output_inception_4a/output_0_split_4
I1028 13:14:40.005810 28094 net.cpp:150] Setting up inception_4a/output_inception_4a/output_0_split
I1028 13:14:40.005818 28094 net.cpp:157] Top shape: 32 512 14 14 (3211264)
I1028 13:14:40.005831 28094 net.cpp:157] Top shape: 32 512 14 14 (3211264)
I1028 13:14:40.005837 28094 net.cpp:157] Top shape: 32 512 14 14 (3211264)
I1028 13:14:40.005841 28094 net.cpp:157] Top shape: 32 512 14 14 (3211264)
I1028 13:14:40.005846 28094 net.cpp:157] Top shape: 32 512 14 14 (3211264)
I1028 13:14:40.005851 28094 net.cpp:165] Memory required for data: 1259618816
I1028 13:14:40.005854 28094 layer_factory.hpp:76] Creating layer loss1/ave_pool
I1028 13:14:40.005861 28094 net.cpp:106] Creating Layer loss1/ave_pool
I1028 13:14:40.005864 28094 net.cpp:454] loss1/ave_pool <- inception_4a/output_inception_4a/output_0_split_0
I1028 13:14:40.005870 28094 net.cpp:411] loss1/ave_pool -> loss1/ave_pool
I1028 13:14:40.006244 28094 net.cpp:150] Setting up loss1/ave_pool
I1028 13:14:40.006256 28094 net.cpp:157] Top shape: 32 512 4 4 (262144)
I1028 13:14:40.006268 28094 net.cpp:165] Memory required for data: 1260667392
I1028 13:14:40.006273 28094 layer_factory.hpp:76] Creating layer loss1/conv
I1028 13:14:40.006283 28094 net.cpp:106] Creating Layer loss1/conv
I1028 13:14:40.006288 28094 net.cpp:454] loss1/conv <- loss1/ave_pool
I1028 13:14:40.006294 28094 net.cpp:411] loss1/conv -> loss1/conv
I1028 13:14:40.007712 28094 cudnn_conv_layer.cpp:194] Reallocating workspace storage: 6840
I1028 13:14:40.007735 28094 net.cpp:150] Setting up loss1/conv
I1028 13:14:40.007743 28094 net.cpp:157] Top shape: 32 128 4 4 (65536)
I1028 13:14:40.007747 28094 net.cpp:165] Memory required for data: 1260929536
I1028 13:14:40.007766 28094 layer_factory.hpp:76] Creating layer loss1/prelu_conv
I1028 13:14:40.007778 28094 net.cpp:106] Creating Layer loss1/prelu_conv
I1028 13:14:40.007783 28094 net.cpp:454] loss1/prelu_conv <- loss1/conv
I1028 13:14:40.007791 28094 net.cpp:397] loss1/prelu_conv -> loss1/conv (in-place)
I1028 13:14:40.007874 28094 net.cpp:150] Setting up loss1/prelu_conv
I1028 13:14:40.007884 28094 net.cpp:157] Top shape: 32 128 4 4 (65536)
I1028 13:14:40.007887 28094 net.cpp:165] Memory required for data: 1261191680
I1028 13:14:40.007892 28094 layer_factory.hpp:76] Creating layer loss1/fc
I1028 13:14:40.007905 28094 net.cpp:106] Creating Layer loss1/fc
I1028 13:14:40.007910 28094 net.cpp:454] loss1/fc <- loss1/conv
I1028 13:14:40.007915 28094 net.cpp:411] loss1/fc -> loss1/fc
I1028 13:14:40.022555 28094 net.cpp:150] Setting up loss1/fc
I1028 13:14:40.022598 28094 net.cpp:157] Top shape: 32 1024 (32768)
I1028 13:14:40.022604 28094 net.cpp:165] Memory required for data: 1261322752
I1028 13:14:40.022614 28094 layer_factory.hpp:76] Creating layer loss1/prelu_fc
I1028 13:14:40.022629 28094 net.cpp:106] Creating Layer loss1/prelu_fc
I1028 13:14:40.022634 28094 net.cpp:454] loss1/prelu_fc <- loss1/fc
I1028 13:14:40.022644 28094 net.cpp:397] loss1/prelu_fc -> loss1/fc (in-place)
I1028 13:14:40.022733 28094 net.cpp:150] Setting up loss1/prelu_fc
I1028 13:14:40.022742 28094 net.cpp:157] Top shape: 32 1024 (32768)
I1028 13:14:40.022747 28094 net.cpp:165] Memory required for data: 1261453824
I1028 13:14:40.022759 28094 layer_factory.hpp:76] Creating layer loss1/drop_fc
I1028 13:14:40.022780 28094 net.cpp:106] Creating Layer loss1/drop_fc
I1028 13:14:40.022785 28094 net.cpp:454] loss1/drop_fc <- loss1/fc
I1028 13:14:40.022799 28094 net.cpp:397] loss1/drop_fc -> loss1/fc (in-place)
I1028 13:14:40.022846 28094 net.cpp:150] Setting up loss1/drop_fc
I1028 13:14:40.022855 28094 net.cpp:157] Top shape: 32 1024 (32768)
I1028 13:14:40.022858 28094 net.cpp:165] Memory required for data: 1261584896
I1028 13:14:40.022862 28094 layer_factory.hpp:76] Creating layer loss1/classifier2
I1028 13:14:40.022871 28094 net.cpp:106] Creating Layer loss1/classifier2
I1028 13:14:40.022874 28094 net.cpp:454] loss1/classifier2 <- loss1/fc
I1028 13:14:40.022907 28094 net.cpp:411] loss1/classifier2 -> loss1/classifier
I1028 13:14:40.023048 28094 net.cpp:150] Setting up loss1/classifier2
I1028 13:14:40.023058 28094 net.cpp:157] Top shape: 32 2 (64)
I1028 13:14:40.023062 28094 net.cpp:165] Memory required for data: 1261585152
I1028 13:14:40.023068 28094 layer_factory.hpp:76] Creating layer loss1/loss
I1028 13:14:40.023078 28094 net.cpp:106] Creating Layer loss1/loss
I1028 13:14:40.023083 28094 net.cpp:454] loss1/loss <- loss1/classifier
I1028 13:14:40.023103 28094 net.cpp:454] loss1/loss <- label_data_1_split_0
I1028 13:14:40.023110 28094 net.cpp:411] loss1/loss -> loss1/loss1
I1028 13:14:40.023146 28094 layer_factory.hpp:76] Creating layer loss1/loss
I1028 13:14:40.023455 28094 net.cpp:150] Setting up loss1/loss
I1028 13:14:40.023465 28094 net.cpp:157] Top shape: (1)
I1028 13:14:40.023469 28094 net.cpp:160]     with loss weight 0.3
I1028 13:14:40.023507 28094 net.cpp:165] Memory required for data: 1261585156
I1028 13:14:40.023511 28094 layer_factory.hpp:76] Creating layer inception_4b/1x1
I1028 13:14:40.023530 28094 net.cpp:106] Creating Layer inception_4b/1x1
I1028 13:14:40.023535 28094 net.cpp:454] inception_4b/1x1 <- inception_4a/output_inception_4a/output_0_split_1
I1028 13:14:40.023543 28094 net.cpp:411] inception_4b/1x1 -> inception_4b/1x1
I1028 13:14:40.025230 28094 cudnn_conv_layer.cpp:194] Reallocating workspace storage: 10080
I1028 13:14:40.025264 28094 net.cpp:150] Setting up inception_4b/1x1
I1028 13:14:40.025279 28094 net.cpp:157] Top shape: 32 160 14 14 (1003520)
I1028 13:14:40.025284 28094 net.cpp:165] Memory required for data: 1265599236
I1028 13:14:40.025290 28094 layer_factory.hpp:76] Creating layer inception_4b/prelu_1x1
I1028 13:14:40.025300 28094 net.cpp:106] Creating Layer inception_4b/prelu_1x1
I1028 13:14:40.025305 28094 net.cpp:454] inception_4b/prelu_1x1 <- inception_4b/1x1
I1028 13:14:40.025311 28094 net.cpp:397] inception_4b/prelu_1x1 -> inception_4b/1x1 (in-place)
I1028 13:14:40.025933 28094 net.cpp:150] Setting up inception_4b/prelu_1x1
I1028 13:14:40.025955 28094 net.cpp:157] Top shape: 32 160 14 14 (1003520)
I1028 13:14:40.025971 28094 net.cpp:165] Memory required for data: 1269613316
I1028 13:14:40.025979 28094 layer_factory.hpp:76] Creating layer inception_4b/3x3_reduce
I1028 13:14:40.025997 28094 net.cpp:106] Creating Layer inception_4b/3x3_reduce
I1028 13:14:40.026005 28094 net.cpp:454] inception_4b/3x3_reduce <- inception_4a/output_inception_4a/output_0_split_2
I1028 13:14:40.026024 28094 net.cpp:411] inception_4b/3x3_reduce -> inception_4b/3x3_reduce
I1028 13:14:40.027842 28094 cudnn_conv_layer.cpp:194] Reallocating workspace storage: 10080
I1028 13:14:40.027876 28094 net.cpp:150] Setting up inception_4b/3x3_reduce
I1028 13:14:40.027886 28094 net.cpp:157] Top shape: 32 112 14 14 (702464)
I1028 13:14:40.027894 28094 net.cpp:165] Memory required for data: 1272423172
I1028 13:14:40.027906 28094 layer_factory.hpp:76] Creating layer inception_4b/prelu_3x3_reduce
I1028 13:14:40.027920 28094 net.cpp:106] Creating Layer inception_4b/prelu_3x3_reduce
I1028 13:14:40.027932 28094 net.cpp:454] inception_4b/prelu_3x3_reduce <- inception_4b/3x3_reduce
I1028 13:14:40.027950 28094 net.cpp:397] inception_4b/prelu_3x3_reduce -> inception_4b/3x3_reduce (in-place)
I1028 13:14:40.028058 28094 net.cpp:150] Setting up inception_4b/prelu_3x3_reduce
I1028 13:14:40.028067 28094 net.cpp:157] Top shape: 32 112 14 14 (702464)
I1028 13:14:40.028072 28094 net.cpp:165] Memory required for data: 1275233028
I1028 13:14:40.028079 28094 layer_factory.hpp:76] Creating layer inception_4b/3x3
I1028 13:14:40.028090 28094 net.cpp:106] Creating Layer inception_4b/3x3
I1028 13:14:40.028095 28094 net.cpp:454] inception_4b/3x3 <- inception_4b/3x3_reduce
I1028 13:14:40.028103 28094 net.cpp:411] inception_4b/3x3 -> inception_4b/3x3
I1028 13:14:40.031004 28094 cudnn_conv_layer.cpp:194] Reallocating workspace storage: 10080
I1028 13:14:40.031041 28094 net.cpp:150] Setting up inception_4b/3x3
I1028 13:14:40.031050 28094 net.cpp:157] Top shape: 32 224 14 14 (1404928)
I1028 13:14:40.031074 28094 net.cpp:165] Memory required for data: 1280852740
I1028 13:14:40.031086 28094 layer_factory.hpp:76] Creating layer inception_4b/prelu_3x3
I1028 13:14:40.031097 28094 net.cpp:106] Creating Layer inception_4b/prelu_3x3
I1028 13:14:40.031103 28094 net.cpp:454] inception_4b/prelu_3x3 <- inception_4b/3x3
I1028 13:14:40.031110 28094 net.cpp:397] inception_4b/prelu_3x3 -> inception_4b/3x3 (in-place)
I1028 13:14:40.031275 28094 net.cpp:150] Setting up inception_4b/prelu_3x3
I1028 13:14:40.031287 28094 net.cpp:157] Top shape: 32 224 14 14 (1404928)
I1028 13:14:40.031291 28094 net.cpp:165] Memory required for data: 1286472452
I1028 13:14:40.031296 28094 layer_factory.hpp:76] Creating layer inception_4b/5x5_reduce
I1028 13:14:40.031304 28094 net.cpp:106] Creating Layer inception_4b/5x5_reduce
I1028 13:14:40.031309 28094 net.cpp:454] inception_4b/5x5_reduce <- inception_4a/output_inception_4a/output_0_split_3
I1028 13:14:40.031319 28094 net.cpp:411] inception_4b/5x5_reduce -> inception_4b/5x5_reduce
I1028 13:14:40.032275 28094 cudnn_conv_layer.cpp:194] Reallocating workspace storage: 10080
I1028 13:14:40.032304 28094 net.cpp:150] Setting up inception_4b/5x5_reduce
I1028 13:14:40.032310 28094 net.cpp:157] Top shape: 32 24 14 14 (150528)
I1028 13:14:40.032315 28094 net.cpp:165] Memory required for data: 1287074564
I1028 13:14:40.032322 28094 layer_factory.hpp:76] Creating layer inception_4b/prelu_5x5_reduce
I1028 13:14:40.032330 28094 net.cpp:106] Creating Layer inception_4b/prelu_5x5_reduce
I1028 13:14:40.032335 28094 net.cpp:454] inception_4b/prelu_5x5_reduce <- inception_4b/5x5_reduce
I1028 13:14:40.032342 28094 net.cpp:397] inception_4b/prelu_5x5_reduce -> inception_4b/5x5_reduce (in-place)
I1028 13:14:40.032433 28094 net.cpp:150] Setting up inception_4b/prelu_5x5_reduce
I1028 13:14:40.032443 28094 net.cpp:157] Top shape: 32 24 14 14 (150528)
I1028 13:14:40.032446 28094 net.cpp:165] Memory required for data: 1287676676
I1028 13:14:40.032452 28094 layer_factory.hpp:76] Creating layer inception_4b/5x5
I1028 13:14:40.032461 28094 net.cpp:106] Creating Layer inception_4b/5x5
I1028 13:14:40.032466 28094 net.cpp:454] inception_4b/5x5 <- inception_4b/5x5_reduce
I1028 13:14:40.032474 28094 net.cpp:411] inception_4b/5x5 -> inception_4b/5x5
I1028 13:14:40.033895 28094 cudnn_conv_layer.cpp:194] Reallocating workspace storage: 13080
I1028 13:14:40.033943 28094 net.cpp:150] Setting up inception_4b/5x5
I1028 13:14:40.033953 28094 net.cpp:157] Top shape: 32 64 14 14 (401408)
I1028 13:14:40.033957 28094 net.cpp:165] Memory required for data: 1289282308
I1028 13:14:40.033969 28094 layer_factory.hpp:76] Creating layer inception_4b/prelu_5x5
I1028 13:14:40.033984 28094 net.cpp:106] Creating Layer inception_4b/prelu_5x5
I1028 13:14:40.033998 28094 net.cpp:454] inception_4b/prelu_5x5 <- inception_4b/5x5
I1028 13:14:40.034008 28094 net.cpp:397] inception_4b/prelu_5x5 -> inception_4b/5x5 (in-place)
I1028 13:14:40.034150 28094 net.cpp:150] Setting up inception_4b/prelu_5x5
I1028 13:14:40.034160 28094 net.cpp:157] Top shape: 32 64 14 14 (401408)
I1028 13:14:40.034175 28094 net.cpp:165] Memory required for data: 1290887940
I1028 13:14:40.034181 28094 layer_factory.hpp:76] Creating layer inception_4b/pool
I1028 13:14:40.034193 28094 net.cpp:106] Creating Layer inception_4b/pool
I1028 13:14:40.034198 28094 net.cpp:454] inception_4b/pool <- inception_4a/output_inception_4a/output_0_split_4
I1028 13:14:40.034204 28094 net.cpp:411] inception_4b/pool -> inception_4b/pool
I1028 13:14:40.034600 28094 net.cpp:150] Setting up inception_4b/pool
I1028 13:14:40.034611 28094 net.cpp:157] Top shape: 32 512 14 14 (3211264)
I1028 13:14:40.034626 28094 net.cpp:165] Memory required for data: 1303732996
I1028 13:14:40.034631 28094 layer_factory.hpp:76] Creating layer inception_4b/pool_proj
I1028 13:14:40.034641 28094 net.cpp:106] Creating Layer inception_4b/pool_proj
I1028 13:14:40.034646 28094 net.cpp:454] inception_4b/pool_proj <- inception_4b/pool
I1028 13:14:40.034654 28094 net.cpp:411] inception_4b/pool_proj -> inception_4b/pool_proj
I1028 13:14:40.035892 28094 cudnn_conv_layer.cpp:194] Reallocating workspace storage: 10080
I1028 13:14:40.035920 28094 net.cpp:150] Setting up inception_4b/pool_proj
I1028 13:14:40.035928 28094 net.cpp:157] Top shape: 32 64 14 14 (401408)
I1028 13:14:40.035931 28094 net.cpp:165] Memory required for data: 1305338628
I1028 13:14:40.035938 28094 layer_factory.hpp:76] Creating layer inception_4b/prelu_pool_proj
I1028 13:14:40.035948 28094 net.cpp:106] Creating Layer inception_4b/prelu_pool_proj
I1028 13:14:40.035953 28094 net.cpp:454] inception_4b/prelu_pool_proj <- inception_4b/pool_proj
I1028 13:14:40.035959 28094 net.cpp:397] inception_4b/prelu_pool_proj -> inception_4b/pool_proj (in-place)
I1028 13:14:40.036054 28094 net.cpp:150] Setting up inception_4b/prelu_pool_proj
I1028 13:14:40.036063 28094 net.cpp:157] Top shape: 32 64 14 14 (401408)
I1028 13:14:40.036067 28094 net.cpp:165] Memory required for data: 1306944260
I1028 13:14:40.036072 28094 layer_factory.hpp:76] Creating layer inception_4b/output
I1028 13:14:40.036078 28094 net.cpp:106] Creating Layer inception_4b/output
I1028 13:14:40.036083 28094 net.cpp:454] inception_4b/output <- inception_4b/1x1
I1028 13:14:40.036088 28094 net.cpp:454] inception_4b/output <- inception_4b/3x3
I1028 13:14:40.036092 28094 net.cpp:454] inception_4b/output <- inception_4b/5x5
I1028 13:14:40.036098 28094 net.cpp:454] inception_4b/output <- inception_4b/pool_proj
I1028 13:14:40.036103 28094 net.cpp:411] inception_4b/output -> inception_4b/output
I1028 13:14:40.036137 28094 net.cpp:150] Setting up inception_4b/output
I1028 13:14:40.036151 28094 net.cpp:157] Top shape: 32 512 14 14 (3211264)
I1028 13:14:40.036156 28094 net.cpp:165] Memory required for data: 1319789316
I1028 13:14:40.036160 28094 layer_factory.hpp:76] Creating layer inception_4b/output_inception_4b/output_0_split
I1028 13:14:40.036169 28094 net.cpp:106] Creating Layer inception_4b/output_inception_4b/output_0_split
I1028 13:14:40.036172 28094 net.cpp:454] inception_4b/output_inception_4b/output_0_split <- inception_4b/output
I1028 13:14:40.036178 28094 net.cpp:411] inception_4b/output_inception_4b/output_0_split -> inception_4b/output_inception_4b/output_0_split_0
I1028 13:14:40.036185 28094 net.cpp:411] inception_4b/output_inception_4b/output_0_split -> inception_4b/output_inception_4b/output_0_split_1
I1028 13:14:40.036191 28094 net.cpp:411] inception_4b/output_inception_4b/output_0_split -> inception_4b/output_inception_4b/output_0_split_2
I1028 13:14:40.036198 28094 net.cpp:411] inception_4b/output_inception_4b/output_0_split -> inception_4b/output_inception_4b/output_0_split_3
I1028 13:14:40.036273 28094 net.cpp:150] Setting up inception_4b/output_inception_4b/output_0_split
I1028 13:14:40.036280 28094 net.cpp:157] Top shape: 32 512 14 14 (3211264)
I1028 13:14:40.036293 28094 net.cpp:157] Top shape: 32 512 14 14 (3211264)
I1028 13:14:40.036298 28094 net.cpp:157] Top shape: 32 512 14 14 (3211264)
I1028 13:14:40.036303 28094 net.cpp:157] Top shape: 32 512 14 14 (3211264)
I1028 13:14:40.036306 28094 net.cpp:165] Memory required for data: 1371169540
I1028 13:14:40.036310 28094 layer_factory.hpp:76] Creating layer inception_4c/1x1
I1028 13:14:40.036319 28094 net.cpp:106] Creating Layer inception_4c/1x1
I1028 13:14:40.036322 28094 net.cpp:454] inception_4c/1x1 <- inception_4b/output_inception_4b/output_0_split_0
I1028 13:14:40.036329 28094 net.cpp:411] inception_4c/1x1 -> inception_4c/1x1
I1028 13:14:40.037981 28094 cudnn_conv_layer.cpp:194] Reallocating workspace storage: 10080
I1028 13:14:40.038007 28094 net.cpp:150] Setting up inception_4c/1x1
I1028 13:14:40.038020 28094 net.cpp:157] Top shape: 32 128 14 14 (802816)
I1028 13:14:40.038025 28094 net.cpp:165] Memory required for data: 1374380804
I1028 13:14:40.038033 28094 layer_factory.hpp:76] Creating layer inception_4c/prelu_1x1
I1028 13:14:40.038053 28094 net.cpp:106] Creating Layer inception_4c/prelu_1x1
I1028 13:14:40.038058 28094 net.cpp:454] inception_4c/prelu_1x1 <- inception_4c/1x1
I1028 13:14:40.038072 28094 net.cpp:397] inception_4c/prelu_1x1 -> inception_4c/1x1 (in-place)
I1028 13:14:40.038193 28094 net.cpp:150] Setting up inception_4c/prelu_1x1
I1028 13:14:40.038203 28094 net.cpp:157] Top shape: 32 128 14 14 (802816)
I1028 13:14:40.038208 28094 net.cpp:165] Memory required for data: 1377592068
I1028 13:14:40.038221 28094 layer_factory.hpp:76] Creating layer inception_4c/3x3_reduce
I1028 13:14:40.038230 28094 net.cpp:106] Creating Layer inception_4c/3x3_reduce
I1028 13:14:40.038235 28094 net.cpp:454] inception_4c/3x3_reduce <- inception_4b/output_inception_4b/output_0_split_1
I1028 13:14:40.038241 28094 net.cpp:411] inception_4c/3x3_reduce -> inception_4c/3x3_reduce
I1028 13:14:40.039610 28094 cudnn_conv_layer.cpp:194] Reallocating workspace storage: 10080
I1028 13:14:40.039633 28094 net.cpp:150] Setting up inception_4c/3x3_reduce
I1028 13:14:40.039641 28094 net.cpp:157] Top shape: 32 128 14 14 (802816)
I1028 13:14:40.039645 28094 net.cpp:165] Memory required for data: 1380803332
I1028 13:14:40.039651 28094 layer_factory.hpp:76] Creating layer inception_4c/prelu_3x3_reduce
I1028 13:14:40.039661 28094 net.cpp:106] Creating Layer inception_4c/prelu_3x3_reduce
I1028 13:14:40.039667 28094 net.cpp:454] inception_4c/prelu_3x3_reduce <- inception_4c/3x3_reduce
I1028 13:14:40.039674 28094 net.cpp:397] inception_4c/prelu_3x3_reduce -> inception_4c/3x3_reduce (in-place)
I1028 13:14:40.039765 28094 net.cpp:150] Setting up inception_4c/prelu_3x3_reduce
I1028 13:14:40.039774 28094 net.cpp:157] Top shape: 32 128 14 14 (802816)
I1028 13:14:40.039778 28094 net.cpp:165] Memory required for data: 1384014596
I1028 13:14:40.039784 28094 layer_factory.hpp:76] Creating layer inception_4c/3x3
I1028 13:14:40.039793 28094 net.cpp:106] Creating Layer inception_4c/3x3
I1028 13:14:40.039798 28094 net.cpp:454] inception_4c/3x3 <- inception_4c/3x3_reduce
I1028 13:14:40.039803 28094 net.cpp:411] inception_4c/3x3 -> inception_4c/3x3
I1028 13:14:40.043189 28094 cudnn_conv_layer.cpp:194] Reallocating workspace storage: 10080
I1028 13:14:40.043227 28094 net.cpp:150] Setting up inception_4c/3x3
I1028 13:14:40.043237 28094 net.cpp:157] Top shape: 32 256 14 14 (1605632)
I1028 13:14:40.043241 28094 net.cpp:165] Memory required for data: 1390437124
I1028 13:14:40.043249 28094 layer_factory.hpp:76] Creating layer inception_4c/prelu_3x3
I1028 13:14:40.043257 28094 net.cpp:106] Creating Layer inception_4c/prelu_3x3
I1028 13:14:40.043262 28094 net.cpp:454] inception_4c/prelu_3x3 <- inception_4c/3x3
I1028 13:14:40.043268 28094 net.cpp:397] inception_4c/prelu_3x3 -> inception_4c/3x3 (in-place)
I1028 13:14:40.043406 28094 net.cpp:150] Setting up inception_4c/prelu_3x3
I1028 13:14:40.043416 28094 net.cpp:157] Top shape: 32 256 14 14 (1605632)
I1028 13:14:40.043419 28094 net.cpp:165] Memory required for data: 1396859652
I1028 13:14:40.043433 28094 layer_factory.hpp:76] Creating layer inception_4c/5x5_reduce
I1028 13:14:40.043443 28094 net.cpp:106] Creating Layer inception_4c/5x5_reduce
I1028 13:14:40.043448 28094 net.cpp:454] inception_4c/5x5_reduce <- inception_4b/output_inception_4b/output_0_split_2
I1028 13:14:40.043459 28094 net.cpp:411] inception_4c/5x5_reduce -> inception_4c/5x5_reduce
I1028 13:14:40.044560 28094 cudnn_conv_layer.cpp:194] Reallocating workspace storage: 10080
I1028 13:14:40.044584 28094 net.cpp:150] Setting up inception_4c/5x5_reduce
I1028 13:14:40.044592 28094 net.cpp:157] Top shape: 32 24 14 14 (150528)
I1028 13:14:40.044596 28094 net.cpp:165] Memory required for data: 1397461764
I1028 13:14:40.044603 28094 layer_factory.hpp:76] Creating layer inception_4c/prelu_5x5_reduce
I1028 13:14:40.044620 28094 net.cpp:106] Creating Layer inception_4c/prelu_5x5_reduce
I1028 13:14:40.044625 28094 net.cpp:454] inception_4c/prelu_5x5_reduce <- inception_4c/5x5_reduce
I1028 13:14:40.044631 28094 net.cpp:397] inception_4c/prelu_5x5_reduce -> inception_4c/5x5_reduce (in-place)
I1028 13:14:40.044735 28094 net.cpp:150] Setting up inception_4c/prelu_5x5_reduce
I1028 13:14:40.044744 28094 net.cpp:157] Top shape: 32 24 14 14 (150528)
I1028 13:14:40.044749 28094 net.cpp:165] Memory required for data: 1398063876
I1028 13:14:40.044765 28094 layer_factory.hpp:76] Creating layer inception_4c/5x5
I1028 13:14:40.044775 28094 net.cpp:106] Creating Layer inception_4c/5x5
I1028 13:14:40.044780 28094 net.cpp:454] inception_4c/5x5 <- inception_4c/5x5_reduce
I1028 13:14:40.044795 28094 net.cpp:411] inception_4c/5x5 -> inception_4c/5x5
I1028 13:14:40.046505 28094 cudnn_conv_layer.cpp:194] Reallocating workspace storage: 13080
I1028 13:14:40.046532 28094 net.cpp:150] Setting up inception_4c/5x5
I1028 13:14:40.046540 28094 net.cpp:157] Top shape: 32 64 14 14 (401408)
I1028 13:14:40.046545 28094 net.cpp:165] Memory required for data: 1399669508
I1028 13:14:40.046551 28094 layer_factory.hpp:76] Creating layer inception_4c/prelu_5x5
I1028 13:14:40.046558 28094 net.cpp:106] Creating Layer inception_4c/prelu_5x5
I1028 13:14:40.046563 28094 net.cpp:454] inception_4c/prelu_5x5 <- inception_4c/5x5
I1028 13:14:40.046569 28094 net.cpp:397] inception_4c/prelu_5x5 -> inception_4c/5x5 (in-place)
I1028 13:14:40.046691 28094 net.cpp:150] Setting up inception_4c/prelu_5x5
I1028 13:14:40.046701 28094 net.cpp:157] Top shape: 32 64 14 14 (401408)
I1028 13:14:40.046705 28094 net.cpp:165] Memory required for data: 1401275140
I1028 13:14:40.046710 28094 layer_factory.hpp:76] Creating layer inception_4c/pool
I1028 13:14:40.046718 28094 net.cpp:106] Creating Layer inception_4c/pool
I1028 13:14:40.046722 28094 net.cpp:454] inception_4c/pool <- inception_4b/output_inception_4b/output_0_split_3
I1028 13:14:40.046728 28094 net.cpp:411] inception_4c/pool -> inception_4c/pool
I1028 13:14:40.046941 28094 net.cpp:150] Setting up inception_4c/pool
I1028 13:14:40.046950 28094 net.cpp:157] Top shape: 32 512 14 14 (3211264)
I1028 13:14:40.046954 28094 net.cpp:165] Memory required for data: 1414120196
I1028 13:14:40.046958 28094 layer_factory.hpp:76] Creating layer inception_4c/pool_proj
I1028 13:14:40.046967 28094 net.cpp:106] Creating Layer inception_4c/pool_proj
I1028 13:14:40.046972 28094 net.cpp:454] inception_4c/pool_proj <- inception_4c/pool
I1028 13:14:40.046979 28094 net.cpp:411] inception_4c/pool_proj -> inception_4c/pool_proj
I1028 13:14:40.048380 28094 cudnn_conv_layer.cpp:194] Reallocating workspace storage: 10080
I1028 13:14:40.048408 28094 net.cpp:150] Setting up inception_4c/pool_proj
I1028 13:14:40.048414 28094 net.cpp:157] Top shape: 32 64 14 14 (401408)
I1028 13:14:40.048420 28094 net.cpp:165] Memory required for data: 1415725828
I1028 13:14:40.048439 28094 layer_factory.hpp:76] Creating layer inception_4c/prelu_pool_proj
I1028 13:14:40.048450 28094 net.cpp:106] Creating Layer inception_4c/prelu_pool_proj
I1028 13:14:40.048461 28094 net.cpp:454] inception_4c/prelu_pool_proj <- inception_4c/pool_proj
I1028 13:14:40.048471 28094 net.cpp:397] inception_4c/prelu_pool_proj -> inception_4c/pool_proj (in-place)
I1028 13:14:40.048585 28094 net.cpp:150] Setting up inception_4c/prelu_pool_proj
I1028 13:14:40.048595 28094 net.cpp:157] Top shape: 32 64 14 14 (401408)
I1028 13:14:40.048607 28094 net.cpp:165] Memory required for data: 1417331460
I1028 13:14:40.048614 28094 layer_factory.hpp:76] Creating layer inception_4c/output
I1028 13:14:40.048630 28094 net.cpp:106] Creating Layer inception_4c/output
I1028 13:14:40.048635 28094 net.cpp:454] inception_4c/output <- inception_4c/1x1
I1028 13:14:40.048648 28094 net.cpp:454] inception_4c/output <- inception_4c/3x3
I1028 13:14:40.048653 28094 net.cpp:454] inception_4c/output <- inception_4c/5x5
I1028 13:14:40.048658 28094 net.cpp:454] inception_4c/output <- inception_4c/pool_proj
I1028 13:14:40.048663 28094 net.cpp:411] inception_4c/output -> inception_4c/output
I1028 13:14:40.048691 28094 net.cpp:150] Setting up inception_4c/output
I1028 13:14:40.048699 28094 net.cpp:157] Top shape: 32 512 14 14 (3211264)
I1028 13:14:40.048703 28094 net.cpp:165] Memory required for data: 1430176516
I1028 13:14:40.048717 28094 layer_factory.hpp:76] Creating layer inception_4c/output_inception_4c/output_0_split
I1028 13:14:40.048730 28094 net.cpp:106] Creating Layer inception_4c/output_inception_4c/output_0_split
I1028 13:14:40.048746 28094 net.cpp:454] inception_4c/output_inception_4c/output_0_split <- inception_4c/output
I1028 13:14:40.048754 28094 net.cpp:411] inception_4c/output_inception_4c/output_0_split -> inception_4c/output_inception_4c/output_0_split_0
I1028 13:14:40.048763 28094 net.cpp:411] inception_4c/output_inception_4c/output_0_split -> inception_4c/output_inception_4c/output_0_split_1
I1028 13:14:40.048784 28094 net.cpp:411] inception_4c/output_inception_4c/output_0_split -> inception_4c/output_inception_4c/output_0_split_2
I1028 13:14:40.048791 28094 net.cpp:411] inception_4c/output_inception_4c/output_0_split -> inception_4c/output_inception_4c/output_0_split_3
I1028 13:14:40.048862 28094 net.cpp:150] Setting up inception_4c/output_inception_4c/output_0_split
I1028 13:14:40.048871 28094 net.cpp:157] Top shape: 32 512 14 14 (3211264)
I1028 13:14:40.048883 28094 net.cpp:157] Top shape: 32 512 14 14 (3211264)
I1028 13:14:40.048888 28094 net.cpp:157] Top shape: 32 512 14 14 (3211264)
I1028 13:14:40.048893 28094 net.cpp:157] Top shape: 32 512 14 14 (3211264)
I1028 13:14:40.048897 28094 net.cpp:165] Memory required for data: 1481556740
I1028 13:14:40.048902 28094 layer_factory.hpp:76] Creating layer inception_4d/1x1
I1028 13:14:40.048908 28094 net.cpp:106] Creating Layer inception_4d/1x1
I1028 13:14:40.048915 28094 net.cpp:454] inception_4d/1x1 <- inception_4c/output_inception_4c/output_0_split_0
I1028 13:14:40.048926 28094 net.cpp:411] inception_4d/1x1 -> inception_4d/1x1
I1028 13:14:40.050475 28094 cudnn_conv_layer.cpp:194] Reallocating workspace storage: 10080
I1028 13:14:40.050503 28094 net.cpp:150] Setting up inception_4d/1x1
I1028 13:14:40.050510 28094 net.cpp:157] Top shape: 32 112 14 14 (702464)
I1028 13:14:40.050515 28094 net.cpp:165] Memory required for data: 1484366596
I1028 13:14:40.050523 28094 layer_factory.hpp:76] Creating layer inception_4d/prelu_1x1
I1028 13:14:40.050531 28094 net.cpp:106] Creating Layer inception_4d/prelu_1x1
I1028 13:14:40.050535 28094 net.cpp:454] inception_4d/prelu_1x1 <- inception_4d/1x1
I1028 13:14:40.050542 28094 net.cpp:397] inception_4d/prelu_1x1 -> inception_4d/1x1 (in-place)
I1028 13:14:40.050644 28094 net.cpp:150] Setting up inception_4d/prelu_1x1
I1028 13:14:40.050655 28094 net.cpp:157] Top shape: 32 112 14 14 (702464)
I1028 13:14:40.050659 28094 net.cpp:165] Memory required for data: 1487176452
I1028 13:14:40.050664 28094 layer_factory.hpp:76] Creating layer inception_4d/3x3_reduce
I1028 13:14:40.050673 28094 net.cpp:106] Creating Layer inception_4d/3x3_reduce
I1028 13:14:40.050678 28094 net.cpp:454] inception_4d/3x3_reduce <- inception_4c/output_inception_4c/output_0_split_1
I1028 13:14:40.050686 28094 net.cpp:411] inception_4d/3x3_reduce -> inception_4d/3x3_reduce
I1028 13:14:40.051971 28094 cudnn_conv_layer.cpp:194] Reallocating workspace storage: 10080
I1028 13:14:40.051996 28094 net.cpp:150] Setting up inception_4d/3x3_reduce
I1028 13:14:40.052005 28094 net.cpp:157] Top shape: 32 144 14 14 (903168)
I1028 13:14:40.052011 28094 net.cpp:165] Memory required for data: 1490789124
I1028 13:14:40.052017 28094 layer_factory.hpp:76] Creating layer inception_4d/prelu_3x3_reduce
I1028 13:14:40.052026 28094 net.cpp:106] Creating Layer inception_4d/prelu_3x3_reduce
I1028 13:14:40.052031 28094 net.cpp:454] inception_4d/prelu_3x3_reduce <- inception_4d/3x3_reduce
I1028 13:14:40.052041 28094 net.cpp:397] inception_4d/prelu_3x3_reduce -> inception_4d/3x3_reduce (in-place)
I1028 13:14:40.052152 28094 net.cpp:150] Setting up inception_4d/prelu_3x3_reduce
I1028 13:14:40.052162 28094 net.cpp:157] Top shape: 32 144 14 14 (903168)
I1028 13:14:40.052166 28094 net.cpp:165] Memory required for data: 1494401796
I1028 13:14:40.052171 28094 layer_factory.hpp:76] Creating layer inception_4d/3x3
I1028 13:14:40.052181 28094 net.cpp:106] Creating Layer inception_4d/3x3
I1028 13:14:40.052186 28094 net.cpp:454] inception_4d/3x3 <- inception_4d/3x3_reduce
I1028 13:14:40.052194 28094 net.cpp:411] inception_4d/3x3 -> inception_4d/3x3
I1028 13:14:40.056380 28094 cudnn_conv_layer.cpp:194] Reallocating workspace storage: 10080
I1028 13:14:40.056447 28094 net.cpp:150] Setting up inception_4d/3x3
I1028 13:14:40.056458 28094 net.cpp:157] Top shape: 32 288 14 14 (1806336)
I1028 13:14:40.056463 28094 net.cpp:165] Memory required for data: 1501627140
I1028 13:14:40.056473 28094 layer_factory.hpp:76] Creating layer inception_4d/prelu_3x3
I1028 13:14:40.056506 28094 net.cpp:106] Creating Layer inception_4d/prelu_3x3
I1028 13:14:40.056514 28094 net.cpp:454] inception_4d/prelu_3x3 <- inception_4d/3x3
I1028 13:14:40.056536 28094 net.cpp:397] inception_4d/prelu_3x3 -> inception_4d/3x3 (in-place)
I1028 13:14:40.056733 28094 net.cpp:150] Setting up inception_4d/prelu_3x3
I1028 13:14:40.056743 28094 net.cpp:157] Top shape: 32 288 14 14 (1806336)
I1028 13:14:40.056748 28094 net.cpp:165] Memory required for data: 1508852484
I1028 13:14:40.056764 28094 layer_factory.hpp:76] Creating layer inception_4d/5x5_reduce
I1028 13:14:40.056777 28094 net.cpp:106] Creating Layer inception_4d/5x5_reduce
I1028 13:14:40.056783 28094 net.cpp:454] inception_4d/5x5_reduce <- inception_4c/output_inception_4c/output_0_split_2
I1028 13:14:40.056792 28094 net.cpp:411] inception_4d/5x5_reduce -> inception_4d/5x5_reduce
I1028 13:14:40.058262 28094 cudnn_conv_layer.cpp:194] Reallocating workspace storage: 10080
I1028 13:14:40.058298 28094 net.cpp:150] Setting up inception_4d/5x5_reduce
I1028 13:14:40.058310 28094 net.cpp:157] Top shape: 32 32 14 14 (200704)
I1028 13:14:40.058315 28094 net.cpp:165] Memory required for data: 1509655300
I1028 13:14:40.058325 28094 layer_factory.hpp:76] Creating layer inception_4d/prelu_5x5_reduce
I1028 13:14:40.058334 28094 net.cpp:106] Creating Layer inception_4d/prelu_5x5_reduce
I1028 13:14:40.058341 28094 net.cpp:454] inception_4d/prelu_5x5_reduce <- inception_4d/5x5_reduce
I1028 13:14:40.058351 28094 net.cpp:397] inception_4d/prelu_5x5_reduce -> inception_4d/5x5_reduce (in-place)
I1028 13:14:40.058462 28094 net.cpp:150] Setting up inception_4d/prelu_5x5_reduce
I1028 13:14:40.058471 28094 net.cpp:157] Top shape: 32 32 14 14 (200704)
I1028 13:14:40.058475 28094 net.cpp:165] Memory required for data: 1510458116
I1028 13:14:40.058480 28094 layer_factory.hpp:76] Creating layer inception_4d/5x5
I1028 13:14:40.058492 28094 net.cpp:106] Creating Layer inception_4d/5x5
I1028 13:14:40.058497 28094 net.cpp:454] inception_4d/5x5 <- inception_4d/5x5_reduce
I1028 13:14:40.058504 28094 net.cpp:411] inception_4d/5x5 -> inception_4d/5x5
I1028 13:14:40.060391 28094 cudnn_conv_layer.cpp:194] Reallocating workspace storage: 13080
I1028 13:14:40.060430 28094 net.cpp:150] Setting up inception_4d/5x5
I1028 13:14:40.060439 28094 net.cpp:157] Top shape: 32 64 14 14 (401408)
I1028 13:14:40.060446 28094 net.cpp:165] Memory required for data: 1512063748
I1028 13:14:40.060456 28094 layer_factory.hpp:76] Creating layer inception_4d/prelu_5x5
I1028 13:14:40.060467 28094 net.cpp:106] Creating Layer inception_4d/prelu_5x5
I1028 13:14:40.060473 28094 net.cpp:454] inception_4d/prelu_5x5 <- inception_4d/5x5
I1028 13:14:40.060482 28094 net.cpp:397] inception_4d/prelu_5x5 -> inception_4d/5x5 (in-place)
I1028 13:14:40.060598 28094 net.cpp:150] Setting up inception_4d/prelu_5x5
I1028 13:14:40.060608 28094 net.cpp:157] Top shape: 32 64 14 14 (401408)
I1028 13:14:40.060612 28094 net.cpp:165] Memory required for data: 1513669380
I1028 13:14:40.060618 28094 layer_factory.hpp:76] Creating layer inception_4d/pool
I1028 13:14:40.060627 28094 net.cpp:106] Creating Layer inception_4d/pool
I1028 13:14:40.060633 28094 net.cpp:454] inception_4d/pool <- inception_4c/output_inception_4c/output_0_split_3
I1028 13:14:40.060641 28094 net.cpp:411] inception_4d/pool -> inception_4d/pool
I1028 13:14:40.060835 28094 net.cpp:150] Setting up inception_4d/pool
I1028 13:14:40.060847 28094 net.cpp:157] Top shape: 32 512 14 14 (3211264)
I1028 13:14:40.060852 28094 net.cpp:165] Memory required for data: 1526514436
I1028 13:14:40.060855 28094 layer_factory.hpp:76] Creating layer inception_4d/pool_proj
I1028 13:14:40.060868 28094 net.cpp:106] Creating Layer inception_4d/pool_proj
I1028 13:14:40.060873 28094 net.cpp:454] inception_4d/pool_proj <- inception_4d/pool
I1028 13:14:40.060896 28094 net.cpp:411] inception_4d/pool_proj -> inception_4d/pool_proj
I1028 13:14:40.062198 28094 cudnn_conv_layer.cpp:194] Reallocating workspace storage: 10080
I1028 13:14:40.062235 28094 net.cpp:150] Setting up inception_4d/pool_proj
I1028 13:14:40.062244 28094 net.cpp:157] Top shape: 32 64 14 14 (401408)
I1028 13:14:40.062248 28094 net.cpp:165] Memory required for data: 1528120068
I1028 13:14:40.062257 28094 layer_factory.hpp:76] Creating layer inception_4d/prelu_pool_proj
I1028 13:14:40.062268 28094 net.cpp:106] Creating Layer inception_4d/prelu_pool_proj
I1028 13:14:40.062274 28094 net.cpp:454] inception_4d/prelu_pool_proj <- inception_4d/pool_proj
I1028 13:14:40.062283 28094 net.cpp:397] inception_4d/prelu_pool_proj -> inception_4d/pool_proj (in-place)
I1028 13:14:40.062389 28094 net.cpp:150] Setting up inception_4d/prelu_pool_proj
I1028 13:14:40.062398 28094 net.cpp:157] Top shape: 32 64 14 14 (401408)
I1028 13:14:40.062402 28094 net.cpp:165] Memory required for data: 1529725700
I1028 13:14:40.062407 28094 layer_factory.hpp:76] Creating layer inception_4d/output
I1028 13:14:40.062417 28094 net.cpp:106] Creating Layer inception_4d/output
I1028 13:14:40.062422 28094 net.cpp:454] inception_4d/output <- inception_4d/1x1
I1028 13:14:40.062427 28094 net.cpp:454] inception_4d/output <- inception_4d/3x3
I1028 13:14:40.062432 28094 net.cpp:454] inception_4d/output <- inception_4d/5x5
I1028 13:14:40.062436 28094 net.cpp:454] inception_4d/output <- inception_4d/pool_proj
I1028 13:14:40.062441 28094 net.cpp:411] inception_4d/output -> inception_4d/output
I1028 13:14:40.062469 28094 net.cpp:150] Setting up inception_4d/output
I1028 13:14:40.062476 28094 net.cpp:157] Top shape: 32 528 14 14 (3311616)
I1028 13:14:40.062480 28094 net.cpp:165] Memory required for data: 1542972164
I1028 13:14:40.062484 28094 layer_factory.hpp:76] Creating layer inception_4d/output_inception_4d/output_0_split
I1028 13:14:40.062494 28094 net.cpp:106] Creating Layer inception_4d/output_inception_4d/output_0_split
I1028 13:14:40.062497 28094 net.cpp:454] inception_4d/output_inception_4d/output_0_split <- inception_4d/output
I1028 13:14:40.062505 28094 net.cpp:411] inception_4d/output_inception_4d/output_0_split -> inception_4d/output_inception_4d/output_0_split_0
I1028 13:14:40.062511 28094 net.cpp:411] inception_4d/output_inception_4d/output_0_split -> inception_4d/output_inception_4d/output_0_split_1
I1028 13:14:40.062518 28094 net.cpp:411] inception_4d/output_inception_4d/output_0_split -> inception_4d/output_inception_4d/output_0_split_2
I1028 13:14:40.062525 28094 net.cpp:411] inception_4d/output_inception_4d/output_0_split -> inception_4d/output_inception_4d/output_0_split_3
I1028 13:14:40.062531 28094 net.cpp:411] inception_4d/output_inception_4d/output_0_split -> inception_4d/output_inception_4d/output_0_split_4
I1028 13:14:40.062604 28094 net.cpp:150] Setting up inception_4d/output_inception_4d/output_0_split
I1028 13:14:40.062613 28094 net.cpp:157] Top shape: 32 528 14 14 (3311616)
I1028 13:14:40.062618 28094 net.cpp:157] Top shape: 32 528 14 14 (3311616)
I1028 13:14:40.062623 28094 net.cpp:157] Top shape: 32 528 14 14 (3311616)
I1028 13:14:40.062628 28094 net.cpp:157] Top shape: 32 528 14 14 (3311616)
I1028 13:14:40.062633 28094 net.cpp:157] Top shape: 32 528 14 14 (3311616)
I1028 13:14:40.062636 28094 net.cpp:165] Memory required for data: 1609204484
I1028 13:14:40.062640 28094 layer_factory.hpp:76] Creating layer loss2/ave_pool
I1028 13:14:40.062649 28094 net.cpp:106] Creating Layer loss2/ave_pool
I1028 13:14:40.062654 28094 net.cpp:454] loss2/ave_pool <- inception_4d/output_inception_4d/output_0_split_0
I1028 13:14:40.062660 28094 net.cpp:411] loss2/ave_pool -> loss2/ave_pool
I1028 13:14:40.063036 28094 net.cpp:150] Setting up loss2/ave_pool
I1028 13:14:40.063050 28094 net.cpp:157] Top shape: 32 528 4 4 (270336)
I1028 13:14:40.063055 28094 net.cpp:165] Memory required for data: 1610285828
I1028 13:14:40.063060 28094 layer_factory.hpp:76] Creating layer loss2/conv
I1028 13:14:40.063083 28094 net.cpp:106] Creating Layer loss2/conv
I1028 13:14:40.063091 28094 net.cpp:454] loss2/conv <- loss2/ave_pool
I1028 13:14:40.063097 28094 net.cpp:411] loss2/conv -> loss2/conv
I1028 13:14:40.064590 28094 cudnn_conv_layer.cpp:194] Reallocating workspace storage: 6840
I1028 13:14:40.064620 28094 net.cpp:150] Setting up loss2/conv
I1028 13:14:40.064630 28094 net.cpp:157] Top shape: 32 128 4 4 (65536)
I1028 13:14:40.064635 28094 net.cpp:165] Memory required for data: 1610547972
I1028 13:14:40.064641 28094 layer_factory.hpp:76] Creating layer loss2/prelu_conv
I1028 13:14:40.064651 28094 net.cpp:106] Creating Layer loss2/prelu_conv
I1028 13:14:40.064656 28094 net.cpp:454] loss2/prelu_conv <- loss2/conv
I1028 13:14:40.064662 28094 net.cpp:397] loss2/prelu_conv -> loss2/conv (in-place)
I1028 13:14:40.064764 28094 net.cpp:150] Setting up loss2/prelu_conv
I1028 13:14:40.064772 28094 net.cpp:157] Top shape: 32 128 4 4 (65536)
I1028 13:14:40.064777 28094 net.cpp:165] Memory required for data: 1610810116
I1028 13:14:40.064782 28094 layer_factory.hpp:76] Creating layer loss2/fc
I1028 13:14:40.064790 28094 net.cpp:106] Creating Layer loss2/fc
I1028 13:14:40.064795 28094 net.cpp:454] loss2/fc <- loss2/conv
I1028 13:14:40.064801 28094 net.cpp:411] loss2/fc -> loss2/fc
I1028 13:14:40.079423 28094 net.cpp:150] Setting up loss2/fc
I1028 13:14:40.079460 28094 net.cpp:157] Top shape: 32 1024 (32768)
I1028 13:14:40.079465 28094 net.cpp:165] Memory required for data: 1610941188
I1028 13:14:40.079494 28094 layer_factory.hpp:76] Creating layer loss2/prelu_fc
I1028 13:14:40.079510 28094 net.cpp:106] Creating Layer loss2/prelu_fc
I1028 13:14:40.079519 28094 net.cpp:454] loss2/prelu_fc <- loss2/fc
I1028 13:14:40.079525 28094 net.cpp:397] loss2/prelu_fc -> loss2/fc (in-place)
I1028 13:14:40.079618 28094 net.cpp:150] Setting up loss2/prelu_fc
I1028 13:14:40.079627 28094 net.cpp:157] Top shape: 32 1024 (32768)
I1028 13:14:40.079632 28094 net.cpp:165] Memory required for data: 1611072260
I1028 13:14:40.079638 28094 layer_factory.hpp:76] Creating layer loss2/drop_fc
I1028 13:14:40.079646 28094 net.cpp:106] Creating Layer loss2/drop_fc
I1028 13:14:40.079653 28094 net.cpp:454] loss2/drop_fc <- loss2/fc
I1028 13:14:40.079658 28094 net.cpp:397] loss2/drop_fc -> loss2/fc (in-place)
I1028 13:14:40.079687 28094 net.cpp:150] Setting up loss2/drop_fc
I1028 13:14:40.079704 28094 net.cpp:157] Top shape: 32 1024 (32768)
I1028 13:14:40.079707 28094 net.cpp:165] Memory required for data: 1611203332
I1028 13:14:40.079712 28094 layer_factory.hpp:76] Creating layer loss2/classifier2
I1028 13:14:40.079727 28094 net.cpp:106] Creating Layer loss2/classifier2
I1028 13:14:40.079732 28094 net.cpp:454] loss2/classifier2 <- loss2/fc
I1028 13:14:40.079741 28094 net.cpp:411] loss2/classifier2 -> loss2/classifier
I1028 13:14:40.079867 28094 net.cpp:150] Setting up loss2/classifier2
I1028 13:14:40.079876 28094 net.cpp:157] Top shape: 32 2 (64)
I1028 13:14:40.079881 28094 net.cpp:165] Memory required for data: 1611203588
I1028 13:14:40.079887 28094 layer_factory.hpp:76] Creating layer loss2/loss
I1028 13:14:40.079895 28094 net.cpp:106] Creating Layer loss2/loss
I1028 13:14:40.079900 28094 net.cpp:454] loss2/loss <- loss2/classifier
I1028 13:14:40.079905 28094 net.cpp:454] loss2/loss <- label_data_1_split_1
I1028 13:14:40.079910 28094 net.cpp:411] loss2/loss -> loss2/loss1
I1028 13:14:40.079920 28094 layer_factory.hpp:76] Creating layer loss2/loss
I1028 13:14:40.080214 28094 net.cpp:150] Setting up loss2/loss
I1028 13:14:40.080224 28094 net.cpp:157] Top shape: (1)
I1028 13:14:40.080229 28094 net.cpp:160]     with loss weight 0.3
I1028 13:14:40.080241 28094 net.cpp:165] Memory required for data: 1611203592
I1028 13:14:40.080245 28094 layer_factory.hpp:76] Creating layer inception_4e/1x1
I1028 13:14:40.080256 28094 net.cpp:106] Creating Layer inception_4e/1x1
I1028 13:14:40.080261 28094 net.cpp:454] inception_4e/1x1 <- inception_4d/output_inception_4d/output_0_split_1
I1028 13:14:40.080270 28094 net.cpp:411] inception_4e/1x1 -> inception_4e/1x1
I1028 13:14:40.082913 28094 cudnn_conv_layer.cpp:194] Reallocating workspace storage: 10080
I1028 13:14:40.082962 28094 net.cpp:150] Setting up inception_4e/1x1
I1028 13:14:40.082973 28094 net.cpp:157] Top shape: 32 256 14 14 (1605632)
I1028 13:14:40.082978 28094 net.cpp:165] Memory required for data: 1617626120
I1028 13:14:40.082984 28094 layer_factory.hpp:76] Creating layer inception_4e/prelu_1x1
I1028 13:14:40.082993 28094 net.cpp:106] Creating Layer inception_4e/prelu_1x1
I1028 13:14:40.082998 28094 net.cpp:454] inception_4e/prelu_1x1 <- inception_4e/1x1
I1028 13:14:40.083006 28094 net.cpp:397] inception_4e/prelu_1x1 -> inception_4e/1x1 (in-place)
I1028 13:14:40.083142 28094 net.cpp:150] Setting up inception_4e/prelu_1x1
I1028 13:14:40.083154 28094 net.cpp:157] Top shape: 32 256 14 14 (1605632)
I1028 13:14:40.083159 28094 net.cpp:165] Memory required for data: 1624048648
I1028 13:14:40.083165 28094 layer_factory.hpp:76] Creating layer inception_4e/3x3_reduce
I1028 13:14:40.083173 28094 net.cpp:106] Creating Layer inception_4e/3x3_reduce
I1028 13:14:40.083178 28094 net.cpp:454] inception_4e/3x3_reduce <- inception_4d/output_inception_4d/output_0_split_2
I1028 13:14:40.083185 28094 net.cpp:411] inception_4e/3x3_reduce -> inception_4e/3x3_reduce
I1028 13:14:40.084729 28094 cudnn_conv_layer.cpp:194] Reallocating workspace storage: 10080
I1028 13:14:40.084758 28094 net.cpp:150] Setting up inception_4e/3x3_reduce
I1028 13:14:40.084767 28094 net.cpp:157] Top shape: 32 160 14 14 (1003520)
I1028 13:14:40.084772 28094 net.cpp:165] Memory required for data: 1628062728
I1028 13:14:40.084779 28094 layer_factory.hpp:76] Creating layer inception_4e/prelu_3x3_reduce
I1028 13:14:40.084789 28094 net.cpp:106] Creating Layer inception_4e/prelu_3x3_reduce
I1028 13:14:40.084794 28094 net.cpp:454] inception_4e/prelu_3x3_reduce <- inception_4e/3x3_reduce
I1028 13:14:40.084800 28094 net.cpp:397] inception_4e/prelu_3x3_reduce -> inception_4e/3x3_reduce (in-place)
I1028 13:14:40.084928 28094 net.cpp:150] Setting up inception_4e/prelu_3x3_reduce
I1028 13:14:40.084938 28094 net.cpp:157] Top shape: 32 160 14 14 (1003520)
I1028 13:14:40.084941 28094 net.cpp:165] Memory required for data: 1632076808
I1028 13:14:40.084946 28094 layer_factory.hpp:76] Creating layer inception_4e/3x3
I1028 13:14:40.084964 28094 net.cpp:106] Creating Layer inception_4e/3x3
I1028 13:14:40.084969 28094 net.cpp:454] inception_4e/3x3 <- inception_4e/3x3_reduce
I1028 13:14:40.084975 28094 net.cpp:411] inception_4e/3x3 -> inception_4e/3x3
I1028 13:14:40.090047 28094 cudnn_conv_layer.cpp:194] Reallocating workspace storage: 10080
I1028 13:14:40.090109 28094 net.cpp:150] Setting up inception_4e/3x3
I1028 13:14:40.090121 28094 net.cpp:157] Top shape: 32 320 14 14 (2007040)
I1028 13:14:40.090126 28094 net.cpp:165] Memory required for data: 1640104968
I1028 13:14:40.090137 28094 layer_factory.hpp:76] Creating layer inception_4e/prelu_3x3
I1028 13:14:40.090159 28094 net.cpp:106] Creating Layer inception_4e/prelu_3x3
I1028 13:14:40.090167 28094 net.cpp:454] inception_4e/prelu_3x3 <- inception_4e/3x3
I1028 13:14:40.090178 28094 net.cpp:397] inception_4e/prelu_3x3 -> inception_4e/3x3 (in-place)
I1028 13:14:40.090343 28094 net.cpp:150] Setting up inception_4e/prelu_3x3
I1028 13:14:40.090355 28094 net.cpp:157] Top shape: 32 320 14 14 (2007040)
I1028 13:14:40.090361 28094 net.cpp:165] Memory required for data: 1648133128
I1028 13:14:40.090368 28094 layer_factory.hpp:76] Creating layer inception_4e/5x5_reduce
I1028 13:14:40.090376 28094 net.cpp:106] Creating Layer inception_4e/5x5_reduce
I1028 13:14:40.090383 28094 net.cpp:454] inception_4e/5x5_reduce <- inception_4d/output_inception_4d/output_0_split_3
I1028 13:14:40.090391 28094 net.cpp:411] inception_4e/5x5_reduce -> inception_4e/5x5_reduce
I1028 13:14:40.091753 28094 cudnn_conv_layer.cpp:194] Reallocating workspace storage: 10080
I1028 13:14:40.091800 28094 net.cpp:150] Setting up inception_4e/5x5_reduce
I1028 13:14:40.091810 28094 net.cpp:157] Top shape: 32 32 14 14 (200704)
I1028 13:14:40.091815 28094 net.cpp:165] Memory required for data: 1648935944
I1028 13:14:40.091856 28094 layer_factory.hpp:76] Creating layer inception_4e/prelu_5x5_reduce
I1028 13:14:40.091878 28094 net.cpp:106] Creating Layer inception_4e/prelu_5x5_reduce
I1028 13:14:40.091886 28094 net.cpp:454] inception_4e/prelu_5x5_reduce <- inception_4e/5x5_reduce
I1028 13:14:40.091914 28094 net.cpp:397] inception_4e/prelu_5x5_reduce -> inception_4e/5x5_reduce (in-place)
I1028 13:14:40.092046 28094 net.cpp:150] Setting up inception_4e/prelu_5x5_reduce
I1028 13:14:40.092070 28094 net.cpp:157] Top shape: 32 32 14 14 (200704)
I1028 13:14:40.092077 28094 net.cpp:165] Memory required for data: 1649738760
I1028 13:14:40.092087 28094 layer_factory.hpp:76] Creating layer inception_4e/5x5
I1028 13:14:40.092118 28094 net.cpp:106] Creating Layer inception_4e/5x5
I1028 13:14:40.092138 28094 net.cpp:454] inception_4e/5x5 <- inception_4e/5x5_reduce
I1028 13:14:40.092150 28094 net.cpp:411] inception_4e/5x5 -> inception_4e/5x5
I1028 13:14:40.094538 28094 cudnn_conv_layer.cpp:194] Reallocating workspace storage: 13080
I1028 13:14:40.094578 28094 net.cpp:150] Setting up inception_4e/5x5
I1028 13:14:40.094588 28094 net.cpp:157] Top shape: 32 128 14 14 (802816)
I1028 13:14:40.094594 28094 net.cpp:165] Memory required for data: 1652950024
I1028 13:14:40.094602 28094 layer_factory.hpp:76] Creating layer inception_4e/prelu_5x5
I1028 13:14:40.094612 28094 net.cpp:106] Creating Layer inception_4e/prelu_5x5
I1028 13:14:40.094619 28094 net.cpp:454] inception_4e/prelu_5x5 <- inception_4e/5x5
I1028 13:14:40.094624 28094 net.cpp:397] inception_4e/prelu_5x5 -> inception_4e/5x5 (in-place)
I1028 13:14:40.094746 28094 net.cpp:150] Setting up inception_4e/prelu_5x5
I1028 13:14:40.094755 28094 net.cpp:157] Top shape: 32 128 14 14 (802816)
I1028 13:14:40.094760 28094 net.cpp:165] Memory required for data: 1656161288
I1028 13:14:40.094765 28094 layer_factory.hpp:76] Creating layer inception_4e/pool
I1028 13:14:40.094774 28094 net.cpp:106] Creating Layer inception_4e/pool
I1028 13:14:40.094780 28094 net.cpp:454] inception_4e/pool <- inception_4d/output_inception_4d/output_0_split_4
I1028 13:14:40.094787 28094 net.cpp:411] inception_4e/pool -> inception_4e/pool
I1028 13:14:40.095180 28094 net.cpp:150] Setting up inception_4e/pool
I1028 13:14:40.095192 28094 net.cpp:157] Top shape: 32 528 14 14 (3311616)
I1028 13:14:40.095197 28094 net.cpp:165] Memory required for data: 1669407752
I1028 13:14:40.095202 28094 layer_factory.hpp:76] Creating layer inception_4e/pool_proj
I1028 13:14:40.095212 28094 net.cpp:106] Creating Layer inception_4e/pool_proj
I1028 13:14:40.095217 28094 net.cpp:454] inception_4e/pool_proj <- inception_4e/pool
I1028 13:14:40.095226 28094 net.cpp:411] inception_4e/pool_proj -> inception_4e/pool_proj
I1028 13:14:40.096516 28094 cudnn_conv_layer.cpp:194] Reallocating workspace storage: 10080
I1028 13:14:40.096554 28094 net.cpp:150] Setting up inception_4e/pool_proj
I1028 13:14:40.096563 28094 net.cpp:157] Top shape: 32 128 14 14 (802816)
I1028 13:14:40.096570 28094 net.cpp:165] Memory required for data: 1672619016
I1028 13:14:40.096577 28094 layer_factory.hpp:76] Creating layer inception_4e/prelu_pool_proj
I1028 13:14:40.096585 28094 net.cpp:106] Creating Layer inception_4e/prelu_pool_proj
I1028 13:14:40.096590 28094 net.cpp:454] inception_4e/prelu_pool_proj <- inception_4e/pool_proj
I1028 13:14:40.096597 28094 net.cpp:397] inception_4e/prelu_pool_proj -> inception_4e/pool_proj (in-place)
I1028 13:14:40.096714 28094 net.cpp:150] Setting up inception_4e/prelu_pool_proj
I1028 13:14:40.096722 28094 net.cpp:157] Top shape: 32 128 14 14 (802816)
I1028 13:14:40.096726 28094 net.cpp:165] Memory required for data: 1675830280
I1028 13:14:40.096731 28094 layer_factory.hpp:76] Creating layer inception_4e/output
I1028 13:14:40.096740 28094 net.cpp:106] Creating Layer inception_4e/output
I1028 13:14:40.096743 28094 net.cpp:454] inception_4e/output <- inception_4e/1x1
I1028 13:14:40.096748 28094 net.cpp:454] inception_4e/output <- inception_4e/3x3
I1028 13:14:40.096753 28094 net.cpp:454] inception_4e/output <- inception_4e/5x5
I1028 13:14:40.096757 28094 net.cpp:454] inception_4e/output <- inception_4e/pool_proj
I1028 13:14:40.096778 28094 net.cpp:411] inception_4e/output -> inception_4e/output
I1028 13:14:40.096808 28094 net.cpp:150] Setting up inception_4e/output
I1028 13:14:40.096817 28094 net.cpp:157] Top shape: 32 832 14 14 (5218304)
I1028 13:14:40.096820 28094 net.cpp:165] Memory required for data: 1696703496
I1028 13:14:40.096825 28094 layer_factory.hpp:76] Creating layer pool4/3x3_s2
I1028 13:14:40.096833 28094 net.cpp:106] Creating Layer pool4/3x3_s2
I1028 13:14:40.096838 28094 net.cpp:454] pool4/3x3_s2 <- inception_4e/output
I1028 13:14:40.096844 28094 net.cpp:411] pool4/3x3_s2 -> pool4/3x3_s2
I1028 13:14:40.097259 28094 net.cpp:150] Setting up pool4/3x3_s2
I1028 13:14:40.097272 28094 net.cpp:157] Top shape: 32 832 7 7 (1304576)
I1028 13:14:40.097285 28094 net.cpp:165] Memory required for data: 1701921800
I1028 13:14:40.097290 28094 layer_factory.hpp:76] Creating layer pool4/3x3_s2_pool4/3x3_s2_0_split
I1028 13:14:40.097298 28094 net.cpp:106] Creating Layer pool4/3x3_s2_pool4/3x3_s2_0_split
I1028 13:14:40.097303 28094 net.cpp:454] pool4/3x3_s2_pool4/3x3_s2_0_split <- pool4/3x3_s2
I1028 13:14:40.097311 28094 net.cpp:411] pool4/3x3_s2_pool4/3x3_s2_0_split -> pool4/3x3_s2_pool4/3x3_s2_0_split_0
I1028 13:14:40.097323 28094 net.cpp:411] pool4/3x3_s2_pool4/3x3_s2_0_split -> pool4/3x3_s2_pool4/3x3_s2_0_split_1
I1028 13:14:40.097337 28094 net.cpp:411] pool4/3x3_s2_pool4/3x3_s2_0_split -> pool4/3x3_s2_pool4/3x3_s2_0_split_2
I1028 13:14:40.097357 28094 net.cpp:411] pool4/3x3_s2_pool4/3x3_s2_0_split -> pool4/3x3_s2_pool4/3x3_s2_0_split_3
I1028 13:14:40.097461 28094 net.cpp:150] Setting up pool4/3x3_s2_pool4/3x3_s2_0_split
I1028 13:14:40.097477 28094 net.cpp:157] Top shape: 32 832 7 7 (1304576)
I1028 13:14:40.097487 28094 net.cpp:157] Top shape: 32 832 7 7 (1304576)
I1028 13:14:40.097530 28094 net.cpp:157] Top shape: 32 832 7 7 (1304576)
I1028 13:14:40.097537 28094 net.cpp:157] Top shape: 32 832 7 7 (1304576)
I1028 13:14:40.097542 28094 net.cpp:165] Memory required for data: 1722795016
I1028 13:14:40.097554 28094 layer_factory.hpp:76] Creating layer inception_5a/1x1
I1028 13:14:40.097570 28094 net.cpp:106] Creating Layer inception_5a/1x1
I1028 13:14:40.097576 28094 net.cpp:454] inception_5a/1x1 <- pool4/3x3_s2_pool4/3x3_s2_0_split_0
I1028 13:14:40.097592 28094 net.cpp:411] inception_5a/1x1 -> inception_5a/1x1
I1028 13:14:40.100453 28094 cudnn_conv_layer.cpp:194] Reallocating workspace storage: 7428
I1028 13:14:40.100487 28094 net.cpp:150] Setting up inception_5a/1x1
I1028 13:14:40.100497 28094 net.cpp:157] Top shape: 32 256 7 7 (401408)
I1028 13:14:40.100502 28094 net.cpp:165] Memory required for data: 1724400648
I1028 13:14:40.100509 28094 layer_factory.hpp:76] Creating layer inception_5a/prelu_1x1
I1028 13:14:40.100520 28094 net.cpp:106] Creating Layer inception_5a/prelu_1x1
I1028 13:14:40.100527 28094 net.cpp:454] inception_5a/prelu_1x1 <- inception_5a/1x1
I1028 13:14:40.100533 28094 net.cpp:397] inception_5a/prelu_1x1 -> inception_5a/1x1 (in-place)
I1028 13:14:40.101075 28094 net.cpp:150] Setting up inception_5a/prelu_1x1
I1028 13:14:40.101086 28094 net.cpp:157] Top shape: 32 256 7 7 (401408)
I1028 13:14:40.101099 28094 net.cpp:165] Memory required for data: 1726006280
I1028 13:14:40.101104 28094 layer_factory.hpp:76] Creating layer inception_5a/3x3_reduce
I1028 13:14:40.101114 28094 net.cpp:106] Creating Layer inception_5a/3x3_reduce
I1028 13:14:40.101120 28094 net.cpp:454] inception_5a/3x3_reduce <- pool4/3x3_s2_pool4/3x3_s2_0_split_1
I1028 13:14:40.101127 28094 net.cpp:411] inception_5a/3x3_reduce -> inception_5a/3x3_reduce
I1028 13:14:40.103377 28094 cudnn_conv_layer.cpp:194] Reallocating workspace storage: 7428
I1028 13:14:40.103417 28094 net.cpp:150] Setting up inception_5a/3x3_reduce
I1028 13:14:40.103435 28094 net.cpp:157] Top shape: 32 160 7 7 (250880)
I1028 13:14:40.103447 28094 net.cpp:165] Memory required for data: 1727009800
I1028 13:14:40.103462 28094 layer_factory.hpp:76] Creating layer inception_5a/prelu_3x3_reduce
I1028 13:14:40.103471 28094 net.cpp:106] Creating Layer inception_5a/prelu_3x3_reduce
I1028 13:14:40.103487 28094 net.cpp:454] inception_5a/prelu_3x3_reduce <- inception_5a/3x3_reduce
I1028 13:14:40.103493 28094 net.cpp:397] inception_5a/prelu_3x3_reduce -> inception_5a/3x3_reduce (in-place)
I1028 13:14:40.103606 28094 net.cpp:150] Setting up inception_5a/prelu_3x3_reduce
I1028 13:14:40.103615 28094 net.cpp:157] Top shape: 32 160 7 7 (250880)
I1028 13:14:40.103620 28094 net.cpp:165] Memory required for data: 1728013320
I1028 13:14:40.103624 28094 layer_factory.hpp:76] Creating layer inception_5a/3x3
I1028 13:14:40.103633 28094 net.cpp:106] Creating Layer inception_5a/3x3
I1028 13:14:40.103637 28094 net.cpp:454] inception_5a/3x3 <- inception_5a/3x3_reduce
I1028 13:14:40.103647 28094 net.cpp:411] inception_5a/3x3 -> inception_5a/3x3
I1028 13:14:40.107903 28094 cudnn_conv_layer.cpp:194] Reallocating workspace storage: 7788
I1028 13:14:40.107939 28094 net.cpp:150] Setting up inception_5a/3x3
I1028 13:14:40.107947 28094 net.cpp:157] Top shape: 32 320 7 7 (501760)
I1028 13:14:40.107951 28094 net.cpp:165] Memory required for data: 1730020360
I1028 13:14:40.107959 28094 layer_factory.hpp:76] Creating layer inception_5a/prelu_3x3
I1028 13:14:40.107969 28094 net.cpp:106] Creating Layer inception_5a/prelu_3x3
I1028 13:14:40.107976 28094 net.cpp:454] inception_5a/prelu_3x3 <- inception_5a/3x3
I1028 13:14:40.108000 28094 net.cpp:397] inception_5a/prelu_3x3 -> inception_5a/3x3 (in-place)
I1028 13:14:40.108116 28094 net.cpp:150] Setting up inception_5a/prelu_3x3
I1028 13:14:40.108125 28094 net.cpp:157] Top shape: 32 320 7 7 (501760)
I1028 13:14:40.108130 28094 net.cpp:165] Memory required for data: 1732027400
I1028 13:14:40.108136 28094 layer_factory.hpp:76] Creating layer inception_5a/5x5_reduce
I1028 13:14:40.108170 28094 net.cpp:106] Creating Layer inception_5a/5x5_reduce
I1028 13:14:40.108175 28094 net.cpp:454] inception_5a/5x5_reduce <- pool4/3x3_s2_pool4/3x3_s2_0_split_2
I1028 13:14:40.108181 28094 net.cpp:411] inception_5a/5x5_reduce -> inception_5a/5x5_reduce
I1028 13:14:40.109465 28094 cudnn_conv_layer.cpp:194] Reallocating workspace storage: 7428
I1028 13:14:40.109493 28094 net.cpp:150] Setting up inception_5a/5x5_reduce
I1028 13:14:40.109501 28094 net.cpp:157] Top shape: 32 32 7 7 (50176)
I1028 13:14:40.109505 28094 net.cpp:165] Memory required for data: 1732228104
I1028 13:14:40.109513 28094 layer_factory.hpp:76] Creating layer inception_5a/prelu_5x5_reduce
I1028 13:14:40.109519 28094 net.cpp:106] Creating Layer inception_5a/prelu_5x5_reduce
I1028 13:14:40.109524 28094 net.cpp:454] inception_5a/prelu_5x5_reduce <- inception_5a/5x5_reduce
I1028 13:14:40.109531 28094 net.cpp:397] inception_5a/prelu_5x5_reduce -> inception_5a/5x5_reduce (in-place)
I1028 13:14:40.109650 28094 net.cpp:150] Setting up inception_5a/prelu_5x5_reduce
I1028 13:14:40.109659 28094 net.cpp:157] Top shape: 32 32 7 7 (50176)
I1028 13:14:40.109663 28094 net.cpp:165] Memory required for data: 1732428808
I1028 13:14:40.109668 28094 layer_factory.hpp:76] Creating layer inception_5a/5x5
I1028 13:14:40.109678 28094 net.cpp:106] Creating Layer inception_5a/5x5
I1028 13:14:40.109683 28094 net.cpp:454] inception_5a/5x5 <- inception_5a/5x5_reduce
I1028 13:14:40.109688 28094 net.cpp:411] inception_5a/5x5 -> inception_5a/5x5
I1028 13:14:40.111327 28094 cudnn_conv_layer.cpp:194] Reallocating workspace storage: 9804
I1028 13:14:40.111354 28094 net.cpp:150] Setting up inception_5a/5x5
I1028 13:14:40.111362 28094 net.cpp:157] Top shape: 32 128 7 7 (200704)
I1028 13:14:40.111366 28094 net.cpp:165] Memory required for data: 1733231624
I1028 13:14:40.111373 28094 layer_factory.hpp:76] Creating layer inception_5a/prelu_5x5
I1028 13:14:40.111382 28094 net.cpp:106] Creating Layer inception_5a/prelu_5x5
I1028 13:14:40.111387 28094 net.cpp:454] inception_5a/prelu_5x5 <- inception_5a/5x5
I1028 13:14:40.111392 28094 net.cpp:397] inception_5a/prelu_5x5 -> inception_5a/5x5 (in-place)
I1028 13:14:40.111495 28094 net.cpp:150] Setting up inception_5a/prelu_5x5
I1028 13:14:40.111503 28094 net.cpp:157] Top shape: 32 128 7 7 (200704)
I1028 13:14:40.111521 28094 net.cpp:165] Memory required for data: 1734034440
I1028 13:14:40.111527 28094 layer_factory.hpp:76] Creating layer inception_5a/pool
I1028 13:14:40.111536 28094 net.cpp:106] Creating Layer inception_5a/pool
I1028 13:14:40.111539 28094 net.cpp:454] inception_5a/pool <- pool4/3x3_s2_pool4/3x3_s2_0_split_3
I1028 13:14:40.111546 28094 net.cpp:411] inception_5a/pool -> inception_5a/pool
I1028 13:14:40.111731 28094 net.cpp:150] Setting up inception_5a/pool
I1028 13:14:40.111742 28094 net.cpp:157] Top shape: 32 832 7 7 (1304576)
I1028 13:14:40.111745 28094 net.cpp:165] Memory required for data: 1739252744
I1028 13:14:40.111750 28094 layer_factory.hpp:76] Creating layer inception_5a/pool_proj
I1028 13:14:40.111757 28094 net.cpp:106] Creating Layer inception_5a/pool_proj
I1028 13:14:40.111763 28094 net.cpp:454] inception_5a/pool_proj <- inception_5a/pool
I1028 13:14:40.111769 28094 net.cpp:411] inception_5a/pool_proj -> inception_5a/pool_proj
I1028 13:14:40.114380 28094 cudnn_conv_layer.cpp:194] Reallocating workspace storage: 7428
I1028 13:14:40.114425 28094 net.cpp:150] Setting up inception_5a/pool_proj
I1028 13:14:40.114436 28094 net.cpp:157] Top shape: 32 128 7 7 (200704)
I1028 13:14:40.114440 28094 net.cpp:165] Memory required for data: 1740055560
I1028 13:14:40.114449 28094 layer_factory.hpp:76] Creating layer inception_5a/prelu_pool_proj
I1028 13:14:40.114459 28094 net.cpp:106] Creating Layer inception_5a/prelu_pool_proj
I1028 13:14:40.114464 28094 net.cpp:454] inception_5a/prelu_pool_proj <- inception_5a/pool_proj
I1028 13:14:40.114471 28094 net.cpp:397] inception_5a/prelu_pool_proj -> inception_5a/pool_proj (in-place)
I1028 13:14:40.114581 28094 net.cpp:150] Setting up inception_5a/prelu_pool_proj
I1028 13:14:40.114593 28094 net.cpp:157] Top shape: 32 128 7 7 (200704)
I1028 13:14:40.114596 28094 net.cpp:165] Memory required for data: 1740858376
I1028 13:14:40.114609 28094 layer_factory.hpp:76] Creating layer inception_5a/output
I1028 13:14:40.114616 28094 net.cpp:106] Creating Layer inception_5a/output
I1028 13:14:40.114621 28094 net.cpp:454] inception_5a/output <- inception_5a/1x1
I1028 13:14:40.114626 28094 net.cpp:454] inception_5a/output <- inception_5a/3x3
I1028 13:14:40.114639 28094 net.cpp:454] inception_5a/output <- inception_5a/5x5
I1028 13:14:40.114644 28094 net.cpp:454] inception_5a/output <- inception_5a/pool_proj
I1028 13:14:40.114650 28094 net.cpp:411] inception_5a/output -> inception_5a/output
I1028 13:14:40.114687 28094 net.cpp:150] Setting up inception_5a/output
I1028 13:14:40.114696 28094 net.cpp:157] Top shape: 32 832 7 7 (1304576)
I1028 13:14:40.114699 28094 net.cpp:165] Memory required for data: 1746076680
I1028 13:14:40.114703 28094 layer_factory.hpp:76] Creating layer inception_5a/output_inception_5a/output_0_split
I1028 13:14:40.114712 28094 net.cpp:106] Creating Layer inception_5a/output_inception_5a/output_0_split
I1028 13:14:40.114717 28094 net.cpp:454] inception_5a/output_inception_5a/output_0_split <- inception_5a/output
I1028 13:14:40.114722 28094 net.cpp:411] inception_5a/output_inception_5a/output_0_split -> inception_5a/output_inception_5a/output_0_split_0
I1028 13:14:40.114729 28094 net.cpp:411] inception_5a/output_inception_5a/output_0_split -> inception_5a/output_inception_5a/output_0_split_1
I1028 13:14:40.114737 28094 net.cpp:411] inception_5a/output_inception_5a/output_0_split -> inception_5a/output_inception_5a/output_0_split_2
I1028 13:14:40.114743 28094 net.cpp:411] inception_5a/output_inception_5a/output_0_split -> inception_5a/output_inception_5a/output_0_split_3
I1028 13:14:40.114817 28094 net.cpp:150] Setting up inception_5a/output_inception_5a/output_0_split
I1028 13:14:40.114826 28094 net.cpp:157] Top shape: 32 832 7 7 (1304576)
I1028 13:14:40.114832 28094 net.cpp:157] Top shape: 32 832 7 7 (1304576)
I1028 13:14:40.114836 28094 net.cpp:157] Top shape: 32 832 7 7 (1304576)
I1028 13:14:40.114841 28094 net.cpp:157] Top shape: 32 832 7 7 (1304576)
I1028 13:14:40.114845 28094 net.cpp:165] Memory required for data: 1766949896
I1028 13:14:40.114858 28094 layer_factory.hpp:76] Creating layer inception_5b/1x1
I1028 13:14:40.114868 28094 net.cpp:106] Creating Layer inception_5b/1x1
I1028 13:14:40.114873 28094 net.cpp:454] inception_5b/1x1 <- inception_5a/output_inception_5a/output_0_split_0
I1028 13:14:40.114879 28094 net.cpp:411] inception_5b/1x1 -> inception_5b/1x1
I1028 13:14:40.118793 28094 cudnn_conv_layer.cpp:194] Reallocating workspace storage: 7428
I1028 13:14:40.118854 28094 net.cpp:150] Setting up inception_5b/1x1
I1028 13:14:40.118865 28094 net.cpp:157] Top shape: 32 384 7 7 (602112)
I1028 13:14:40.118870 28094 net.cpp:165] Memory required for data: 1769358344
I1028 13:14:40.118880 28094 layer_factory.hpp:76] Creating layer inception_5b/prelu_1x1
I1028 13:14:40.118892 28094 net.cpp:106] Creating Layer inception_5b/prelu_1x1
I1028 13:14:40.118898 28094 net.cpp:454] inception_5b/prelu_1x1 <- inception_5b/1x1
I1028 13:14:40.118906 28094 net.cpp:397] inception_5b/prelu_1x1 -> inception_5b/1x1 (in-place)
I1028 13:14:40.119561 28094 net.cpp:150] Setting up inception_5b/prelu_1x1
I1028 13:14:40.119575 28094 net.cpp:157] Top shape: 32 384 7 7 (602112)
I1028 13:14:40.119580 28094 net.cpp:165] Memory required for data: 1771766792
I1028 13:14:40.119586 28094 layer_factory.hpp:76] Creating layer inception_5b/3x3_reduce
I1028 13:14:40.119599 28094 net.cpp:106] Creating Layer inception_5b/3x3_reduce
I1028 13:14:40.119604 28094 net.cpp:454] inception_5b/3x3_reduce <- inception_5a/output_inception_5a/output_0_split_1
I1028 13:14:40.119612 28094 net.cpp:411] inception_5b/3x3_reduce -> inception_5b/3x3_reduce
I1028 13:14:40.122256 28094 cudnn_conv_layer.cpp:194] Reallocating workspace storage: 7428
I1028 13:14:40.122313 28094 net.cpp:150] Setting up inception_5b/3x3_reduce
I1028 13:14:40.122334 28094 net.cpp:157] Top shape: 32 192 7 7 (301056)
I1028 13:14:40.122350 28094 net.cpp:165] Memory required for data: 1772971016
I1028 13:14:40.122369 28094 layer_factory.hpp:76] Creating layer inception_5b/prelu_3x3_reduce
I1028 13:14:40.122380 28094 net.cpp:106] Creating Layer inception_5b/prelu_3x3_reduce
I1028 13:14:40.122385 28094 net.cpp:454] inception_5b/prelu_3x3_reduce <- inception_5b/3x3_reduce
I1028 13:14:40.122405 28094 net.cpp:397] inception_5b/prelu_3x3_reduce -> inception_5b/3x3_reduce (in-place)
I1028 13:14:40.122555 28094 net.cpp:150] Setting up inception_5b/prelu_3x3_reduce
I1028 13:14:40.122565 28094 net.cpp:157] Top shape: 32 192 7 7 (301056)
I1028 13:14:40.122578 28094 net.cpp:165] Memory required for data: 1774175240
I1028 13:14:40.122584 28094 layer_factory.hpp:76] Creating layer inception_5b/3x3
I1028 13:14:40.122606 28094 net.cpp:106] Creating Layer inception_5b/3x3
I1028 13:14:40.122611 28094 net.cpp:454] inception_5b/3x3 <- inception_5b/3x3_reduce
I1028 13:14:40.122618 28094 net.cpp:411] inception_5b/3x3 -> inception_5b/3x3
I1028 13:14:40.128623 28094 cudnn_conv_layer.cpp:194] Reallocating workspace storage: 7788
I1028 13:14:40.128693 28094 net.cpp:150] Setting up inception_5b/3x3
I1028 13:14:40.128710 28094 net.cpp:157] Top shape: 32 384 7 7 (602112)
I1028 13:14:40.128716 28094 net.cpp:165] Memory required for data: 1776583688
I1028 13:14:40.128741 28094 layer_factory.hpp:76] Creating layer inception_5b/prelu_3x3
I1028 13:14:40.128752 28094 net.cpp:106] Creating Layer inception_5b/prelu_3x3
I1028 13:14:40.128758 28094 net.cpp:454] inception_5b/prelu_3x3 <- inception_5b/3x3
I1028 13:14:40.128767 28094 net.cpp:397] inception_5b/prelu_3x3 -> inception_5b/3x3 (in-place)
I1028 13:14:40.128906 28094 net.cpp:150] Setting up inception_5b/prelu_3x3
I1028 13:14:40.128917 28094 net.cpp:157] Top shape: 32 384 7 7 (602112)
I1028 13:14:40.128931 28094 net.cpp:165] Memory required for data: 1778992136
I1028 13:14:40.128940 28094 layer_factory.hpp:76] Creating layer inception_5b/5x5_reduce
I1028 13:14:40.128963 28094 net.cpp:106] Creating Layer inception_5b/5x5_reduce
I1028 13:14:40.128979 28094 net.cpp:454] inception_5b/5x5_reduce <- inception_5a/output_inception_5a/output_0_split_2
I1028 13:14:40.128998 28094 net.cpp:411] inception_5b/5x5_reduce -> inception_5b/5x5_reduce
I1028 13:14:40.130214 28094 cudnn_conv_layer.cpp:194] Reallocating workspace storage: 7428
I1028 13:14:40.130241 28094 net.cpp:150] Setting up inception_5b/5x5_reduce
I1028 13:14:40.130249 28094 net.cpp:157] Top shape: 32 48 7 7 (75264)
I1028 13:14:40.130260 28094 net.cpp:165] Memory required for data: 1779293192
I1028 13:14:40.130267 28094 layer_factory.hpp:76] Creating layer inception_5b/prelu_5x5_reduce
I1028 13:14:40.130280 28094 net.cpp:106] Creating Layer inception_5b/prelu_5x5_reduce
I1028 13:14:40.130285 28094 net.cpp:454] inception_5b/prelu_5x5_reduce <- inception_5b/5x5_reduce
I1028 13:14:40.130307 28094 net.cpp:397] inception_5b/prelu_5x5_reduce -> inception_5b/5x5_reduce (in-place)
I1028 13:14:40.130444 28094 net.cpp:150] Setting up inception_5b/prelu_5x5_reduce
I1028 13:14:40.130452 28094 net.cpp:157] Top shape: 32 48 7 7 (75264)
I1028 13:14:40.130456 28094 net.cpp:165] Memory required for data: 1779594248
I1028 13:14:40.130461 28094 layer_factory.hpp:76] Creating layer inception_5b/5x5
I1028 13:14:40.130470 28094 net.cpp:106] Creating Layer inception_5b/5x5
I1028 13:14:40.130475 28094 net.cpp:454] inception_5b/5x5 <- inception_5b/5x5_reduce
I1028 13:14:40.130491 28094 net.cpp:411] inception_5b/5x5 -> inception_5b/5x5
I1028 13:14:40.132455 28094 cudnn_conv_layer.cpp:194] Reallocating workspace storage: 9804
I1028 13:14:40.132483 28094 net.cpp:150] Setting up inception_5b/5x5
I1028 13:14:40.132491 28094 net.cpp:157] Top shape: 32 128 7 7 (200704)
I1028 13:14:40.132495 28094 net.cpp:165] Memory required for data: 1780397064
I1028 13:14:40.132503 28094 layer_factory.hpp:76] Creating layer inception_5b/prelu_5x5
I1028 13:14:40.132509 28094 net.cpp:106] Creating Layer inception_5b/prelu_5x5
I1028 13:14:40.132514 28094 net.cpp:454] inception_5b/prelu_5x5 <- inception_5b/5x5
I1028 13:14:40.132521 28094 net.cpp:397] inception_5b/prelu_5x5 -> inception_5b/5x5 (in-place)
I1028 13:14:40.132647 28094 net.cpp:150] Setting up inception_5b/prelu_5x5
I1028 13:14:40.132657 28094 net.cpp:157] Top shape: 32 128 7 7 (200704)
I1028 13:14:40.132660 28094 net.cpp:165] Memory required for data: 1781199880
I1028 13:14:40.132665 28094 layer_factory.hpp:76] Creating layer inception_5b/pool
I1028 13:14:40.132680 28094 net.cpp:106] Creating Layer inception_5b/pool
I1028 13:14:40.132685 28094 net.cpp:454] inception_5b/pool <- inception_5a/output_inception_5a/output_0_split_3
I1028 13:14:40.132694 28094 net.cpp:411] inception_5b/pool -> inception_5b/pool
I1028 13:14:40.133096 28094 net.cpp:150] Setting up inception_5b/pool
I1028 13:14:40.133107 28094 net.cpp:157] Top shape: 32 832 7 7 (1304576)
I1028 13:14:40.133111 28094 net.cpp:165] Memory required for data: 1786418184
I1028 13:14:40.133116 28094 layer_factory.hpp:76] Creating layer inception_5b/pool_proj
I1028 13:14:40.133126 28094 net.cpp:106] Creating Layer inception_5b/pool_proj
I1028 13:14:40.133131 28094 net.cpp:454] inception_5b/pool_proj <- inception_5b/pool
I1028 13:14:40.133138 28094 net.cpp:411] inception_5b/pool_proj -> inception_5b/pool_proj
I1028 13:14:40.135361 28094 cudnn_conv_layer.cpp:194] Reallocating workspace storage: 7428
I1028 13:14:40.135393 28094 net.cpp:150] Setting up inception_5b/pool_proj
I1028 13:14:40.135402 28094 net.cpp:157] Top shape: 32 128 7 7 (200704)
I1028 13:14:40.135406 28094 net.cpp:165] Memory required for data: 1787221000
I1028 13:14:40.135413 28094 layer_factory.hpp:76] Creating layer inception_5b/prelu_pool_proj
I1028 13:14:40.135421 28094 net.cpp:106] Creating Layer inception_5b/prelu_pool_proj
I1028 13:14:40.135426 28094 net.cpp:454] inception_5b/prelu_pool_proj <- inception_5b/pool_proj
I1028 13:14:40.135433 28094 net.cpp:397] inception_5b/prelu_pool_proj -> inception_5b/pool_proj (in-place)
I1028 13:14:40.135550 28094 net.cpp:150] Setting up inception_5b/prelu_pool_proj
I1028 13:14:40.135561 28094 net.cpp:157] Top shape: 32 128 7 7 (200704)
I1028 13:14:40.135565 28094 net.cpp:165] Memory required for data: 1788023816
I1028 13:14:40.135571 28094 layer_factory.hpp:76] Creating layer inception_5b/output
I1028 13:14:40.135577 28094 net.cpp:106] Creating Layer inception_5b/output
I1028 13:14:40.135592 28094 net.cpp:454] inception_5b/output <- inception_5b/1x1
I1028 13:14:40.135598 28094 net.cpp:454] inception_5b/output <- inception_5b/3x3
I1028 13:14:40.135603 28094 net.cpp:454] inception_5b/output <- inception_5b/5x5
I1028 13:14:40.135607 28094 net.cpp:454] inception_5b/output <- inception_5b/pool_proj
I1028 13:14:40.135613 28094 net.cpp:411] inception_5b/output -> inception_5b/output
I1028 13:14:40.135643 28094 net.cpp:150] Setting up inception_5b/output
I1028 13:14:40.135653 28094 net.cpp:157] Top shape: 32 1024 7 7 (1605632)
I1028 13:14:40.135656 28094 net.cpp:165] Memory required for data: 1794446344
I1028 13:14:40.135660 28094 layer_factory.hpp:76] Creating layer pool5/7x7_s1
I1028 13:14:40.135668 28094 net.cpp:106] Creating Layer pool5/7x7_s1
I1028 13:14:40.135673 28094 net.cpp:454] pool5/7x7_s1 <- inception_5b/output
I1028 13:14:40.135687 28094 net.cpp:411] pool5/7x7_s1 -> pool5/7x7_s1
I1028 13:14:40.135865 28094 net.cpp:150] Setting up pool5/7x7_s1
I1028 13:14:40.135875 28094 net.cpp:157] Top shape: 32 1024 1 1 (32768)
I1028 13:14:40.135879 28094 net.cpp:165] Memory required for data: 1794577416
I1028 13:14:40.135884 28094 layer_factory.hpp:76] Creating layer pool5/drop_7x7_s1
I1028 13:14:40.135890 28094 net.cpp:106] Creating Layer pool5/drop_7x7_s1
I1028 13:14:40.135895 28094 net.cpp:454] pool5/drop_7x7_s1 <- pool5/7x7_s1
I1028 13:14:40.135900 28094 net.cpp:397] pool5/drop_7x7_s1 -> pool5/7x7_s1 (in-place)
I1028 13:14:40.135929 28094 net.cpp:150] Setting up pool5/drop_7x7_s1
I1028 13:14:40.135937 28094 net.cpp:157] Top shape: 32 1024 1 1 (32768)
I1028 13:14:40.135941 28094 net.cpp:165] Memory required for data: 1794708488
I1028 13:14:40.135946 28094 layer_factory.hpp:76] Creating layer loss3/classifier2
I1028 13:14:40.135954 28094 net.cpp:106] Creating Layer loss3/classifier2
I1028 13:14:40.135958 28094 net.cpp:454] loss3/classifier2 <- pool5/7x7_s1
I1028 13:14:40.135964 28094 net.cpp:411] loss3/classifier2 -> loss3/classifier
I1028 13:14:40.136106 28094 net.cpp:150] Setting up loss3/classifier2
I1028 13:14:40.136114 28094 net.cpp:157] Top shape: 32 2 (64)
I1028 13:14:40.136118 28094 net.cpp:165] Memory required for data: 1794708744
I1028 13:14:40.136126 28094 layer_factory.hpp:76] Creating layer loss3/loss3
I1028 13:14:40.136133 28094 net.cpp:106] Creating Layer loss3/loss3
I1028 13:14:40.136137 28094 net.cpp:454] loss3/loss3 <- loss3/classifier
I1028 13:14:40.136143 28094 net.cpp:454] loss3/loss3 <- label_data_1_split_2
I1028 13:14:40.136148 28094 net.cpp:411] loss3/loss3 -> loss3/loss3
…
I1028 13:14:40.140964 28094 net.cpp:322] The NetState phase (1) differed from the phase (0) specified by a rule in layer data
I1028 13:14:40.142040 28094 net.cpp:49] Initializing net from parameters: 
name: "GoogleNet"
state {
  phase: TEST
}
layer {
  name: "data"
  type: "Data"
  top: "data"
  top: "label"
  include {
    phase: TEST
  }
  transform_param {
    mirror: false
    crop_size: 224
    mean_value: 104
    mean_value: 117
    mean_value: 123
  }
  data_param {
    source: "../../LMDB/val_1-lmdb"
    batch_size: 50
    backend: LMDB
  }
}
layer {
  name: "conv1/7x7_s2"
  type: "Convolution"
  bottom: "data"
  top: "conv1/7x7_s2"
  param {
    lr_mult: 1
    decay_mult: 1
  }
  param {
    lr_mult: 2
    decay_mult: 0
  }
  convolution_param {
    num_output: 64
    pad: 3
    kernel_size: 7
    stride: 2
    weight_filler {
      type: "xavier"
    }
    bias_filler {
      type: "constant"
      value: 0.2
    }
  }
}
layer {
  name: "conv1/prelu_7x7"
  type: "PReLU"
  bottom: "conv1/7x7_s2"
  top: "conv1/7x7_s2"
  param {
    lr_mult: 1
    decay_mult: 0
  }
  prelu_param {
    filler {
      type: "constant"
      value: 0.01
    }
  }
}
layer {
  name: "pool1/3x3_s2"
  type: "Pooling"
  bottom: "conv1/7x7_s2"
  top: "pool1/3x3_s2"
  pooling_param {
    pool: MAX
    kernel_size: 3
    stride: 2
  }
}
layer {
  name: "pool1/norm1"
  type: "LRN"
  bottom: "pool1/3x3_s2"
  top: "pool1/norm1"
  lrn_param {
    local_size: 5
    alpha: 0.0001
    beta: 0.75
  }
}
layer {
  name: "conv2/3x3_reduce"
  type: "Convolution"
  bottom: "pool1/norm1"
  top: "conv2/3x3_reduce"
  param {
    lr_mult: 1
    decay_mult: 1
  }
  param {
    lr_mult: 2
    decay_mult: 0
  }
  convolution_param {
    num_output: 64
    kernel_size: 1
    weight_filler {
      type: "xavier"
    }
    bias_filler {
      type: "constant"
      value: 0.2
    }
  }
}
layer {
  name: "conv2/prelu_3x3_reduce"
  type: "PReLU"
  bottom: "conv2/3x3_reduce"
  top: "conv2/3x3_reduce"
  param {
    lr_mult: 1
    decay_mult: 0
  }
  prelu_param {
    filler {
      type: "constant"
      value: 0.01
    }
  }
}
layer {
  name: "conv2/3x3"
  type: "Convolution"
  bottom: "conv2/3x3_reduce"
  top: "conv2/3x3"
  param {
    lr_mult: 1
    decay_mult: 1
  }
  param {
    lr_mult: 2
    decay_mult: 0
  }
  convolution_param {
    num_output: 192
    pad: 1
    kernel_size: 3
    weight_filler {
      type: "xavier"
    }
    bias_filler {
      type: "constant"
      value: 0.2
    }
  }
}
layer {
  name: "conv2/prelu_3x3"
  type: "PReLU"
  bottom: "conv2/3x3"
  top: "conv2/3x3"
  param {
    lr_mult: 1
    decay_mult: 0
  }
  prelu_param {
    filler {
      type: "constant"
      value: 0.01
    }
  }
}
layer {
  name: "conv2/norm2"
  type: "LRN"
  bottom: "conv2/3x3"
  top: "conv2/norm2"
  lrn_param {
    local_size: 5
    alpha: 0.0001
    beta: 0.75
  }
}
layer {
  name: "pool2/3x3_s2"
  type: "Pooling"
  bottom: "conv2/norm2"
  top: "pool2/3x3_s2"
  pooling_param {
    pool: MAX
    kernel_size: 3
    stride: 2
  }
}
layer {
  name: "inception_3a/1x1"
  type: "Convolution"
  bottom: "pool2/3x3_s2"
  top: "inception_3a/1x1"
  param {
    lr_mult: 1
    decay_mult: 1
  }
  param {
    lr_mult: 2
    decay_mult: 0
  }
  convolution_param {
    num_output: 64
    kernel_size: 1
    weight_filler {
      type: "xavier"
    }
    bias_filler {
      type: "constant"
      value: 0.2
    }
  }
}
layer {
  name: "inception_3a/prelu_1x1"
  type: "PReLU"
  bottom: "inception_3a/1x1"
  top: "inception_3a/1x1"
  param {
    lr_mult: 1
    decay_mult: 0
  }
  prelu_param {
    filler {
      type: "constant"
      value: 0.01
    }
  }
}
layer {
  name: "inception_3a/3x3_reduce"
  type: "Convolution"
  bottom: "pool2/3x3_s2"
  top: "inception_3a/3x3_reduce"
  param {
    lr_mult: 1
    decay_mult: 1
  }
  param {
    lr_mult: 2
    decay_mult: 0
  }
  convolution_param {
    num_output: 96
    kernel_size: 1
    weight_filler {
      type: "xavier"
    }
    bias_filler {
      type: "constant"
      value: 0.2
    }
  }
}
layer {
  name: "inception_3a/prelu_3x3_reduce"
  type: "PReLU"
  bottom: "inception_3a/3x3_reduce"
  top: "inception_3a/3x3_reduce"
  param {
    lr_mult: 1
    decay_mult: 0
  }
  prelu_param {
    filler {
      type: "constant"
      value: 0.01
    }
  }
}
layer {
  name: "inception_3a/3x3"
  type: "Convolution"
  bottom: "inception_3a/3x3_reduce"
  top: "inception_3a/3x3"
  param {
    lr_mult: 1
    decay_mult: 1
  }
  param {
    lr_mult: 2
    decay_mult: 0
  }
  convolution_param {
    num_output: 128
    pad: 1
    kernel_size: 3
    weight_filler {
      type: "xavier"
    }
    bias_filler {
      type: "constant"
      value: 0.2
    }
  }
}
layer {
  name: "inception_3a/prelu_3x3"
  type: "PReLU"
  bottom: "inception_3a/3x3"
  top: "inception_3a/3x3"
  param {
    lr_mult: 1
    decay_mult: 0
  }
  prelu_param {
    filler {
      type: "constant"
      value: 0.01
    }
  }
}
layer {
  name: "inception_3a/5x5_reduce"
  type: "Convolution"
  bottom: "pool2/3x3_s2"
  top: "inception_3a/5x5_reduce"
  param {
    lr_mult: 1
    decay_mult: 1
  }
  param {
    lr_mult: 2
    decay_mult: 0
  }
  convolution_param {
    num_output: 16
    kernel_size: 1
    weight_filler {
      type: "xavier"
    }
    bias_filler {
      type: "constant"
      value: 0.2
    }
  }
}
layer {
  name: "inception_3a/prelu_5x5_reduce"
  type: "PReLU"
  bottom: "inception_3a/5x5_reduce"
  top: "inception_3a/5x5_reduce"
  param {
    lr_mult: 1
    decay_mult: 0
  }
  prelu_param {
    filler {
      type: "constant"
      value: 0.01
    }
  }
}
layer {
  name: "inception_3a/5x5"
  type: "Convolution"
  bottom: "inception_3a/5x5_reduce"
  top: "inception_3a/5x5"
  param {
    lr_mult: 1
    decay_mult: 1
  }
  param {
    lr_mult: 2
    decay_mult: 0
  }
  convolution_param {
    num_output: 32
    pad: 2
    kernel_size: 5
    weight_filler {
      type: "xavier"
    }
    bias_filler {
      type: "constant"
      value: 0.2
    }
  }
}
layer {
  name: "inception_3a/prelu_5x5"
  type: "PReLU"
  bottom: "inception_3a/5x5"
  top: "inception_3a/5x5"
  param {
    lr_mult: 1
    decay_mult: 0
  }
  prelu_param {
    filler {
      type: "constant"
      value: 0.01
    }
  }
}
layer {
  name: "inception_3a/pool"
  type: "Pooling"
  bottom: "pool2/3x3_s2"
  top: "inception_3a/pool"
  pooling_param {
    pool: MAX
    kernel_size: 3
    stride: 1
    pad: 1
  }
}
layer {
  name: "inception_3a/pool_proj"
  type: "Convolution"
  bottom: "inception_3a/pool"
  top: "inception_3a/pool_proj"
  param {
    lr_mult: 1
    decay_mult: 1
  }
  param {
    lr_mult: 2
    decay_mult: 0
  }
  convolution_param {
    num_output: 32
    kernel_size: 1
    weight_filler {
      type: "xavier"
    }
    bias_filler {
      type: "constant"
      value: 0.2
    }
  }
}
layer {
  name: "inception_3a/prelu_pool_proj"
  type: "PReLU"
  bottom: "inception_3a/pool_proj"
  top: "inception_3a/pool_proj"
  param {
    lr_mult: 1
    decay_mult: 0
  }
  prelu_param {
    filler {
      type: "constant"
      value: 0.01
    }
  }
}
layer {
  name: "inception_3a/output"
  type: "Concat"
  bottom: "inception_3a/1x1"
  bottom: "inception_3a/3x3"
  bottom: "inception_3a/5x5"
  bottom: "inception_3a/pool_proj"
  top: "inception_3a/output"
}
layer {
  name: "inception_3b/1x1"
  type: "Convolution"
  bottom: "inception_3a/output"
  top: "inception_3b/1x1"
  param {
    lr_mult: 1
    decay_mult: 1
  }
  param {
    lr_mult: 2
    decay_mult: 0
  }
  convolution_param {
    num_output: 128
    kernel_size: 1
    weight_filler {
      type: "xavier"
    }
    bias_filler {
      type: "constant"
      value: 0.2
    }
  }
}
layer {
  name: "inception_3b/prelu_1x1"
  type: "PReLU"
  bottom: "inception_3b/1x1"
  top: "inception_3b/1x1"
  param {
    lr_mult: 1
    decay_mult: 0
  }
  prelu_param {
    filler {
      type: "constant"
      value: 0.01
    }
  }
}
layer {
  name: "inception_3b/3x3_reduce"
  type: "Convolution"
  bottom: "inception_3a/output"
  top: "inception_3b/3x3_reduce"
  param {
    lr_mult: 1
    decay_mult: 1
  }
  param {
    lr_mult: 2
    decay_mult: 0
  }
  convolution_param {
    num_output: 128
    kernel_size: 1
    weight_filler {
      type: "xavier"
    }
    bias_filler {
      type: "constant"
      value: 0.2
    }
  }
}
layer {
  name: "inception_3b/prelu_3x3_reduce"
  type: "PReLU"
  bottom: "inception_3b/3x3_reduce"
  top: "inception_3b/3x3_reduce"
  param {
    lr_mult: 1
    decay_mult: 0
  }
  prelu_param {
    filler {
      type: "constant"
      value: 0.01
    }
  }
}
layer {
  name: "inception_3b/3x3"
  type: "Convolution"
  bottom: "inception_3b/3x3_reduce"
  top: "inception_3b/3x3"
  param {
    lr_mult: 1
    decay_mult: 1
  }
  param {
    lr_mult: 2
    decay_mult: 0
  }
  convolution_param {
    num_output: 192
    pad: 1
    kernel_size: 3
    weight_filler {
      type: "xavier"
    }
…
I1028 13:14:40.497987 28094 net.cpp:106] Creating Layer inception_4c/output
I1028 13:14:40.497995 28094 net.cpp:454] inception_4c/output <- inception_4c/1x1
I1028 13:14:40.498004 28094 net.cpp:454] inception_4c/output <- inception_4c/3x3
I1028 13:14:40.498013 28094 net.cpp:454] inception_4c/output <- inception_4c/5x5
I1028 13:14:40.498038 28094 net.cpp:454] inception_4c/output <- inception_4c/pool_proj
I1028 13:14:40.498050 28094 net.cpp:411] inception_4c/output -> inception_4c/output
I1028 13:14:40.498085 28094 net.cpp:150] Setting up inception_4c/output
I1028 13:14:40.498096 28094 net.cpp:157] Top shape: 50 512 14 14 (5017600)
I1028 13:14:40.498103 28094 net.cpp:165] Memory required for data: 2234652208
I1028 13:14:40.498111 28094 layer_factory.hpp:76] Creating layer inception_4c/output_inception_4c/output_0_split
I1028 13:14:40.498122 28094 net.cpp:106] Creating Layer inception_4c/output_inception_4c/output_0_split
I1028 13:14:40.498131 28094 net.cpp:454] inception_4c/output_inception_4c/output_0_split <- inception_4c/output
I1028 13:14:40.498141 28094 net.cpp:411] inception_4c/output_inception_4c/output_0_split -> inception_4c/output_inception_4c/output_0_split_0
I1028 13:14:40.498157 28094 net.cpp:411] inception_4c/output_inception_4c/output_0_split -> inception_4c/output_inception_4c/output_0_split_1
I1028 13:14:40.498172 28094 net.cpp:411] inception_4c/output_inception_4c/output_0_split -> inception_4c/output_inception_4c/output_0_split_2
I1028 13:14:40.498185 28094 net.cpp:411] inception_4c/output_inception_4c/output_0_split -> inception_4c/output_inception_4c/output_0_split_3
I1028 13:14:40.498260 28094 net.cpp:150] Setting up inception_4c/output_inception_4c/output_0_split
I1028 13:14:40.498272 28094 net.cpp:157] Top shape: 50 512 14 14 (5017600)
I1028 13:14:40.498282 28094 net.cpp:157] Top shape: 50 512 14 14 (5017600)
I1028 13:14:40.498291 28094 net.cpp:157] Top shape: 50 512 14 14 (5017600)
I1028 13:14:40.498301 28094 net.cpp:157] Top shape: 50 512 14 14 (5017600)
I1028 13:14:40.498307 28094 net.cpp:165] Memory required for data: 2314933808
I1028 13:14:40.498316 28094 layer_factory.hpp:76] Creating layer inception_4d/1x1
I1028 13:14:40.498332 28094 net.cpp:106] Creating Layer inception_4d/1x1
I1028 13:14:40.498342 28094 net.cpp:454] inception_4d/1x1 <- inception_4c/output_inception_4c/output_0_split_0
I1028 13:14:40.498354 28094 net.cpp:411] inception_4d/1x1 -> inception_4d/1x1
I1028 13:14:40.499990 28094 cudnn_conv_layer.cpp:194] Reallocating workspace storage: 10080
I1028 13:14:40.500032 28094 net.cpp:150] Setting up inception_4d/1x1
I1028 13:14:40.500044 28094 net.cpp:157] Top shape: 50 112 14 14 (1097600)
I1028 13:14:40.500052 28094 net.cpp:165] Memory required for data: 2319324208
I1028 13:14:40.500066 28094 layer_factory.hpp:76] Creating layer inception_4d/prelu_1x1
I1028 13:14:40.500080 28094 net.cpp:106] Creating Layer inception_4d/prelu_1x1
I1028 13:14:40.500090 28094 net.cpp:454] inception_4d/prelu_1x1 <- inception_4d/1x1
I1028 13:14:40.500102 28094 net.cpp:397] inception_4d/prelu_1x1 -> inception_4d/1x1 (in-place)
I1028 13:14:40.500202 28094 net.cpp:150] Setting up inception_4d/prelu_1x1
I1028 13:14:40.500213 28094 net.cpp:157] Top shape: 50 112 14 14 (1097600)
I1028 13:14:40.500221 28094 net.cpp:165] Memory required for data: 2323714608
I1028 13:14:40.500231 28094 layer_factory.hpp:76] Creating layer inception_4d/3x3_reduce
I1028 13:14:40.500247 28094 net.cpp:106] Creating Layer inception_4d/3x3_reduce
I1028 13:14:40.500257 28094 net.cpp:454] inception_4d/3x3_reduce <- inception_4c/output_inception_4c/output_0_split_1
I1028 13:14:40.500272 28094 net.cpp:411] inception_4d/3x3_reduce -> inception_4d/3x3_reduce
I1028 13:14:40.501960 28094 cudnn_conv_layer.cpp:194] Reallocating workspace storage: 10080
I1028 13:14:40.502002 28094 net.cpp:150] Setting up inception_4d/3x3_reduce
I1028 13:14:40.502018 28094 net.cpp:157] Top shape: 50 144 14 14 (1411200)
I1028 13:14:40.502027 28094 net.cpp:165] Memory required for data: 2329359408
I1028 13:14:40.502048 28094 layer_factory.hpp:76] Creating layer inception_4d/prelu_3x3_reduce
I1028 13:14:40.502070 28094 net.cpp:106] Creating Layer inception_4d/prelu_3x3_reduce
I1028 13:14:40.502079 28094 net.cpp:454] inception_4d/prelu_3x3_reduce <- inception_4d/3x3_reduce
I1028 13:14:40.502099 28094 net.cpp:397] inception_4d/prelu_3x3_reduce -> inception_4d/3x3_reduce (in-place)
I1028 13:14:40.502213 28094 net.cpp:150] Setting up inception_4d/prelu_3x3_reduce
I1028 13:14:40.502225 28094 net.cpp:157] Top shape: 50 144 14 14 (1411200)
I1028 13:14:40.502233 28094 net.cpp:165] Memory required for data: 2335004208
I1028 13:14:40.502243 28094 layer_factory.hpp:76] Creating layer inception_4d/3x3
I1028 13:14:40.502259 28094 net.cpp:106] Creating Layer inception_4d/3x3
I1028 13:14:40.502269 28094 net.cpp:454] inception_4d/3x3 <- inception_4d/3x3_reduce
I1028 13:14:40.502287 28094 net.cpp:411] inception_4d/3x3 -> inception_4d/3x3
I1028 13:14:40.506465 28094 cudnn_conv_layer.cpp:194] Reallocating workspace storage: 10080
I1028 13:14:40.506518 28094 net.cpp:150] Setting up inception_4d/3x3
I1028 13:14:40.506539 28094 net.cpp:157] Top shape: 50 288 14 14 (2822400)
I1028 13:14:40.506547 28094 net.cpp:165] Memory required for data: 2346293808
I1028 13:14:40.506561 28094 layer_factory.hpp:76] Creating layer inception_4d/prelu_3x3
I1028 13:14:40.506577 28094 net.cpp:106] Creating Layer inception_4d/prelu_3x3
I1028 13:14:40.506588 28094 net.cpp:454] inception_4d/prelu_3x3 <- inception_4d/3x3
I1028 13:14:40.506602 28094 net.cpp:397] inception_4d/prelu_3x3 -> inception_4d/3x3 (in-place)
I1028 13:14:40.507345 28094 net.cpp:150] Setting up inception_4d/prelu_3x3
I1028 13:14:40.507359 28094 net.cpp:157] Top shape: 50 288 14 14 (2822400)
I1028 13:14:40.507366 28094 net.cpp:165] Memory required for data: 2357583408
I1028 13:14:40.507385 28094 layer_factory.hpp:76] Creating layer inception_4d/5x5_reduce
I1028 13:14:40.507402 28094 net.cpp:106] Creating Layer inception_4d/5x5_reduce
I1028 13:14:40.507416 28094 net.cpp:454] inception_4d/5x5_reduce <- inception_4c/output_inception_4c/output_0_split_2
I1028 13:14:40.507428 28094 net.cpp:411] inception_4d/5x5_reduce -> inception_4d/5x5_reduce
I1028 13:14:40.509088 28094 cudnn_conv_layer.cpp:194] Reallocating workspace storage: 10080
I1028 13:14:40.509129 28094 net.cpp:150] Setting up inception_4d/5x5_reduce
I1028 13:14:40.509141 28094 net.cpp:157] Top shape: 50 32 14 14 (313600)
I1028 13:14:40.509150 28094 net.cpp:165] Memory required for data: 2358837808
I1028 13:14:40.509162 28094 layer_factory.hpp:76] Creating layer inception_4d/prelu_5x5_reduce
I1028 13:14:40.509176 28094 net.cpp:106] Creating Layer inception_4d/prelu_5x5_reduce
I1028 13:14:40.509187 28094 net.cpp:454] inception_4d/prelu_5x5_reduce <- inception_4d/5x5_reduce
I1028 13:14:40.509199 28094 net.cpp:397] inception_4d/prelu_5x5_reduce -> inception_4d/5x5_reduce (in-place)
I1028 13:14:40.509294 28094 net.cpp:150] Setting up inception_4d/prelu_5x5_reduce
I1028 13:14:40.509305 28094 net.cpp:157] Top shape: 50 32 14 14 (313600)
I1028 13:14:40.509312 28094 net.cpp:165] Memory required for data: 2360092208
I1028 13:14:40.509322 28094 layer_factory.hpp:76] Creating layer inception_4d/5x5
I1028 13:14:40.509337 28094 net.cpp:106] Creating Layer inception_4d/5x5
I1028 13:14:40.509348 28094 net.cpp:454] inception_4d/5x5 <- inception_4d/5x5_reduce
I1028 13:14:40.509362 28094 net.cpp:411] inception_4d/5x5 -> inception_4d/5x5
I1028 13:14:40.510653 28094 cudnn_conv_layer.cpp:194] Reallocating workspace storage: 13080
I1028 13:14:40.510691 28094 net.cpp:150] Setting up inception_4d/5x5
I1028 13:14:40.510704 28094 net.cpp:157] Top shape: 50 64 14 14 (627200)
I1028 13:14:40.510711 28094 net.cpp:165] Memory required for data: 2362601008
I1028 13:14:40.510723 28094 layer_factory.hpp:76] Creating layer inception_4d/prelu_5x5
I1028 13:14:40.510738 28094 net.cpp:106] Creating Layer inception_4d/prelu_5x5
I1028 13:14:40.510749 28094 net.cpp:454] inception_4d/prelu_5x5 <- inception_4d/5x5
I1028 13:14:40.510763 28094 net.cpp:397] inception_4d/prelu_5x5 -> inception_4d/5x5 (in-place)
I1028 13:14:40.510860 28094 net.cpp:150] Setting up inception_4d/prelu_5x5
I1028 13:14:40.510871 28094 net.cpp:157] Top shape: 50 64 14 14 (627200)
I1028 13:14:40.510879 28094 net.cpp:165] Memory required for data: 2365109808
I1028 13:14:40.510890 28094 layer_factory.hpp:76] Creating layer inception_4d/pool
I1028 13:14:40.510905 28094 net.cpp:106] Creating Layer inception_4d/pool
I1028 13:14:40.510916 28094 net.cpp:454] inception_4d/pool <- inception_4c/output_inception_4c/output_0_split_3
I1028 13:14:40.510927 28094 net.cpp:411] inception_4d/pool -> inception_4d/pool
I1028 13:14:40.511409 28094 net.cpp:150] Setting up inception_4d/pool
I1028 13:14:40.511422 28094 net.cpp:157] Top shape: 50 512 14 14 (5017600)
I1028 13:14:40.511430 28094 net.cpp:165] Memory required for data: 2385180208
I1028 13:14:40.511440 28094 layer_factory.hpp:76] Creating layer inception_4d/pool_proj
I1028 13:14:40.511462 28094 net.cpp:106] Creating Layer inception_4d/pool_proj
I1028 13:14:40.511471 28094 net.cpp:454] inception_4d/pool_proj <- inception_4d/pool
I1028 13:14:40.511484 28094 net.cpp:411] inception_4d/pool_proj -> inception_4d/pool_proj
I1028 13:14:40.512948 28094 cudnn_conv_layer.cpp:194] Reallocating workspace storage: 10080
I1028 13:14:40.512992 28094 net.cpp:150] Setting up inception_4d/pool_proj
I1028 13:14:40.513005 28094 net.cpp:157] Top shape: 50 64 14 14 (627200)
I1028 13:14:40.513012 28094 net.cpp:165] Memory required for data: 2387689008
I1028 13:14:40.513026 28094 layer_factory.hpp:76] Creating layer inception_4d/prelu_pool_proj
I1028 13:14:40.513054 28094 net.cpp:106] Creating Layer inception_4d/prelu_pool_proj
I1028 13:14:40.513066 28094 net.cpp:454] inception_4d/prelu_pool_proj <- inception_4d/pool_proj
I1028 13:14:40.513077 28094 net.cpp:397] inception_4d/prelu_pool_proj -> inception_4d/pool_proj (in-place)
I1028 13:14:40.513180 28094 net.cpp:150] Setting up inception_4d/prelu_pool_proj
I1028 13:14:40.513191 28094 net.cpp:157] Top shape: 50 64 14 14 (627200)
I1028 13:14:40.513198 28094 net.cpp:165] Memory required for data: 2390197808
I1028 13:14:40.513209 28094 layer_factory.hpp:76] Creating layer inception_4d/output
I1028 13:14:40.513223 28094 net.cpp:106] Creating Layer inception_4d/output
I1028 13:14:40.513232 28094 net.cpp:454] inception_4d/output <- inception_4d/1x1
I1028 13:14:40.513242 28094 net.cpp:454] inception_4d/output <- inception_4d/3x3
I1028 13:14:40.513252 28094 net.cpp:454] inception_4d/output <- inception_4d/5x5
I1028 13:14:40.513260 28094 net.cpp:454] inception_4d/output <- inception_4d/pool_proj
I1028 13:14:40.513272 28094 net.cpp:411] inception_4d/output -> inception_4d/output
I1028 13:14:40.513303 28094 net.cpp:150] Setting up inception_4d/output
I1028 13:14:40.513314 28094 net.cpp:157] Top shape: 50 528 14 14 (5174400)
I1028 13:14:40.513321 28094 net.cpp:165] Memory required for data: 2410895408
I1028 13:14:40.513330 28094 layer_factory.hpp:76] Creating layer inception_4d/output_inception_4d/output_0_split
I1028 13:14:40.513345 28094 net.cpp:106] Creating Layer inception_4d/output_inception_4d/output_0_split
I1028 13:14:40.513353 28094 net.cpp:454] inception_4d/output_inception_4d/output_0_split <- inception_4d/output
I1028 13:14:40.513366 28094 net.cpp:411] inception_4d/output_inception_4d/output_0_split -> inception_4d/output_inception_4d/output_0_split_0
I1028 13:14:40.513382 28094 net.cpp:411] inception_4d/output_inception_4d/output_0_split -> inception_4d/output_inception_4d/output_0_split_1
I1028 13:14:40.513396 28094 net.cpp:411] inception_4d/output_inception_4d/output_0_split -> inception_4d/output_inception_4d/output_0_split_2
I1028 13:14:40.513409 28094 net.cpp:411] inception_4d/output_inception_4d/output_0_split -> inception_4d/output_inception_4d/output_0_split_3
I1028 13:14:40.513423 28094 net.cpp:411] inception_4d/output_inception_4d/output_0_split -> inception_4d/output_inception_4d/output_0_split_4
I1028 13:14:40.513501 28094 net.cpp:150] Setting up inception_4d/output_inception_4d/output_0_split
I1028 13:14:40.513520 28094 net.cpp:157] Top shape: 50 528 14 14 (5174400)
I1028 13:14:40.513530 28094 net.cpp:157] Top shape: 50 528 14 14 (5174400)
I1028 13:14:40.513540 28094 net.cpp:157] Top shape: 50 528 14 14 (5174400)
I1028 13:14:40.513550 28094 net.cpp:157] Top shape: 50 528 14 14 (5174400)
I1028 13:14:40.513558 28094 net.cpp:157] Top shape: 50 528 14 14 (5174400)
I1028 13:14:40.513566 28094 net.cpp:165] Memory required for data: 2514383408
I1028 13:14:40.513573 28094 layer_factory.hpp:76] Creating layer loss2/ave_pool
I1028 13:14:40.513587 28094 net.cpp:106] Creating Layer loss2/ave_pool
I1028 13:14:40.513597 28094 net.cpp:454] loss2/ave_pool <- inception_4d/output_inception_4d/output_0_split_0
I1028 13:14:40.513609 28094 net.cpp:411] loss2/ave_pool -> loss2/ave_pool
I1028 13:14:40.513808 28094 net.cpp:150] Setting up loss2/ave_pool
I1028 13:14:40.513821 28094 net.cpp:157] Top shape: 50 528 4 4 (422400)
I1028 13:14:40.513828 28094 net.cpp:165] Memory required for data: 2516073008
I1028 13:14:40.513838 28094 layer_factory.hpp:76] Creating layer loss2/conv
I1028 13:14:40.513852 28094 net.cpp:106] Creating Layer loss2/conv
I1028 13:14:40.513864 28094 net.cpp:454] loss2/conv <- loss2/ave_pool
I1028 13:14:40.513877 28094 net.cpp:411] loss2/conv -> loss2/conv
I1028 13:14:40.515733 28094 cudnn_conv_layer.cpp:194] Reallocating workspace storage: 6840
I1028 13:14:40.515786 28094 net.cpp:150] Setting up loss2/conv
I1028 13:14:40.515801 28094 net.cpp:157] Top shape: 50 128 4 4 (102400)
I1028 13:14:40.515820 28094 net.cpp:165] Memory required for data: 2516482608
I1028 13:14:40.515833 28094 layer_factory.hpp:76] Creating layer loss2/prelu_conv
I1028 13:14:40.515872 28094 net.cpp:106] Creating Layer loss2/prelu_conv
I1028 13:14:40.515894 28094 net.cpp:454] loss2/prelu_conv <- loss2/conv
I1028 13:14:40.515911 28094 net.cpp:397] loss2/prelu_conv -> loss2/conv (in-place)
I1028 13:14:40.516055 28094 net.cpp:150] Setting up loss2/prelu_conv
I1028 13:14:40.516067 28094 net.cpp:157] Top shape: 50 128 4 4 (102400)
I1028 13:14:40.516075 28094 net.cpp:165] Memory required for data: 2516892208
I1028 13:14:40.516096 28094 layer_factory.hpp:76] Creating layer loss2/fc
I1028 13:14:40.516109 28094 net.cpp:106] Creating Layer loss2/fc
I1028 13:14:40.516119 28094 net.cpp:454] loss2/fc <- loss2/conv
I1028 13:14:40.516131 28094 net.cpp:411] loss2/fc -> loss2/fc
I1028 13:14:40.568773 28094 net.cpp:150] Setting up loss2/fc
I1028 13:14:40.568811 28094 net.cpp:157] Top shape: 50 1024 (51200)
I1028 13:14:40.568819 28094 net.cpp:165] Memory required for data: 2517097008
I1028 13:14:40.568861 28094 layer_factory.hpp:76] Creating layer loss2/prelu_fc
I1028 13:14:40.568881 28094 net.cpp:106] Creating Layer loss2/prelu_fc
I1028 13:14:40.568893 28094 net.cpp:454] loss2/prelu_fc <- loss2/fc
I1028 13:14:40.568907 28094 net.cpp:397] loss2/prelu_fc -> loss2/fc (in-place)
I1028 13:14:40.569061 28094 net.cpp:150] Setting up loss2/prelu_fc
I1028 13:14:40.569072 28094 net.cpp:157] Top shape: 50 1024 (51200)
I1028 13:14:40.569080 28094 net.cpp:165] Memory required for data: 2517301808
I1028 13:14:40.569098 28094 layer_factory.hpp:76] Creating layer loss2/drop_fc
I1028 13:14:40.569128 28094 net.cpp:106] Creating Layer loss2/drop_fc
I1028 13:14:40.569138 28094 net.cpp:454] loss2/drop_fc <- loss2/fc
I1028 13:14:40.569147 28094 net.cpp:397] loss2/drop_fc -> loss2/fc (in-place)
I1028 13:14:40.569188 28094 net.cpp:150] Setting up loss2/drop_fc
I1028 13:14:40.569198 28094 net.cpp:157] Top shape: 50 1024 (51200)
I1028 13:14:40.569206 28094 net.cpp:165] Memory required for data: 2517506608
I1028 13:14:40.569213 28094 layer_factory.hpp:76] Creating layer loss2/classifier2
I1028 13:14:40.569226 28094 net.cpp:106] Creating Layer loss2/classifier2
I1028 13:14:40.569233 28094 net.cpp:454] loss2/classifier2 <- loss2/fc
I1028 13:14:40.569247 28094 net.cpp:411] loss2/classifier2 -> loss2/classifier
I1028 13:14:40.569375 28094 net.cpp:150] Setting up loss2/classifier2
I1028 13:14:40.569386 28094 net.cpp:157] Top shape: 50 2 (100)
I1028 13:14:40.569393 28094 net.cpp:165] Memory required for data: 2517507008
I1028 13:14:40.569406 28094 layer_factory.hpp:76] Creating layer loss2/classifier_loss2/classifier2_0_split
I1028 13:14:40.569416 28094 net.cpp:106] Creating Layer loss2/classifier_loss2/classifier2_0_split
I1028 13:14:40.569424 28094 net.cpp:454] loss2/classifier_loss2/classifier2_0_split <- loss2/classifier
I1028 13:14:40.569435 28094 net.cpp:411] loss2/classifier_loss2/classifier2_0_split -> loss2/classifier_loss2/classifier2_0_split_0
I1028 13:14:40.569448 28094 net.cpp:411] loss2/classifier_loss2/classifier2_0_split -> loss2/classifier_loss2/classifier2_0_split_1
I1028 13:14:40.569492 28094 net.cpp:150] Setting up loss2/classifier_loss2/classifier2_0_split
I1028 13:14:40.569504 28094 net.cpp:157] Top shape: 50 2 (100)
I1028 13:14:40.569512 28094 net.cpp:157] Top shape: 50 2 (100)
I1028 13:14:40.569519 28094 net.cpp:165] Memory required for data: 2517507808
I1028 13:14:40.569527 28094 layer_factory.hpp:76] Creating layer loss2/loss
I1028 13:14:40.569543 28094 net.cpp:106] Creating Layer loss2/loss
I1028 13:14:40.569552 28094 net.cpp:454] loss2/loss <- loss2/classifier_loss2/classifier2_0_split_0
I1028 13:14:40.569563 28094 net.cpp:454] loss2/loss <- label_data_1_split_2
…
I1028 13:14:40.570406 28094 net.cpp:165] Memory required for data: 2517507816
I1028 13:14:40.570415 28094 layer_factory.hpp:76] Creating layer inception_4e/1x1
I1028 13:14:40.570431 28094 net.cpp:106] Creating Layer inception_4e/1x1
I1028 13:14:40.570443 28094 net.cpp:454] inception_4e/1x1 <- inception_4d/output_inception_4d/output_0_split_1
I1028 13:14:40.570457 28094 net.cpp:411] inception_4e/1x1 -> inception_4e/1x1
I1028 13:14:40.572649 28094 cudnn_conv_layer.cpp:194] Reallocating workspace storage: 10080
I1028 13:14:40.572698 28094 net.cpp:150] Setting up inception_4e/1x1
I1028 13:14:40.572710 28094 net.cpp:157] Top shape: 50 256 14 14 (2508800)
I1028 13:14:40.572718 28094 net.cpp:165] Memory required for data: 2527543016
I1028 13:14:40.572731 28094 layer_factory.hpp:76] Creating layer inception_4e/prelu_1x1
I1028 13:14:40.572746 28094 net.cpp:106] Creating Layer inception_4e/prelu_1x1
I1028 13:14:40.572756 28094 net.cpp:454] inception_4e/prelu_1x1 <- inception_4e/1x1
I1028 13:14:40.572767 28094 net.cpp:397] inception_4e/prelu_1x1 -> inception_4e/1x1 (in-place)
I1028 13:14:40.572892 28094 net.cpp:150] Setting up inception_4e/prelu_1x1
I1028 13:14:40.572903 28094 net.cpp:157] Top shape: 50 256 14 14 (2508800)
I1028 13:14:40.572911 28094 net.cpp:165] Memory required for data: 2537578216
I1028 13:14:40.572921 28094 layer_factory.hpp:76] Creating layer inception_4e/3x3_reduce
I1028 13:14:40.572937 28094 net.cpp:106] Creating Layer inception_4e/3x3_reduce
I1028 13:14:40.572947 28094 net.cpp:454] inception_4e/3x3_reduce <- inception_4d/output_inception_4d/output_0_split_2
I1028 13:14:40.572958 28094 net.cpp:411] inception_4e/3x3_reduce -> inception_4e/3x3_reduce
I1028 13:14:40.574569 28094 cudnn_conv_layer.cpp:194] Reallocating workspace storage: 10080
I1028 13:14:40.574614 28094 net.cpp:150] Setting up inception_4e/3x3_reduce
I1028 13:14:40.574627 28094 net.cpp:157] Top shape: 50 160 14 14 (1568000)
I1028 13:14:40.574635 28094 net.cpp:165] Memory required for data: 2543850216
I1028 13:14:40.574648 28094 layer_factory.hpp:76] Creating layer inception_4e/prelu_3x3_reduce
I1028 13:14:40.574668 28094 net.cpp:106] Creating Layer inception_4e/prelu_3x3_reduce
I1028 13:14:40.574678 28094 net.cpp:454] inception_4e/prelu_3x3_reduce <- inception_4e/3x3_reduce
I1028 13:14:40.574689 28094 net.cpp:397] inception_4e/prelu_3x3_reduce -> inception_4e/3x3_reduce (in-place)
I1028 13:14:40.574797 28094 net.cpp:150] Setting up inception_4e/prelu_3x3_reduce
I1028 13:14:40.574808 28094 net.cpp:157] Top shape: 50 160 14 14 (1568000)
I1028 13:14:40.574816 28094 net.cpp:165] Memory required for data: 2550122216
I1028 13:14:40.574826 28094 layer_factory.hpp:76] Creating layer inception_4e/3x3
I1028 13:14:40.574857 28094 net.cpp:106] Creating Layer inception_4e/3x3
I1028 13:14:40.574867 28094 net.cpp:454] inception_4e/3x3 <- inception_4e/3x3_reduce
I1028 13:14:40.574878 28094 net.cpp:411] inception_4e/3x3 -> inception_4e/3x3
I1028 13:14:40.579596 28094 cudnn_conv_layer.cpp:194] Reallocating workspace storage: 10080
I1028 13:14:40.579660 28094 net.cpp:150] Setting up inception_4e/3x3
I1028 13:14:40.579679 28094 net.cpp:157] Top shape: 50 320 14 14 (3136000)
I1028 13:14:40.579690 28094 net.cpp:165] Memory required for data: 2562666216
I1028 13:14:40.579707 28094 layer_factory.hpp:76] Creating layer inception_4e/prelu_3x3
I1028 13:14:40.579730 28094 net.cpp:106] Creating Layer inception_4e/prelu_3x3
I1028 13:14:40.579742 28094 net.cpp:454] inception_4e/prelu_3x3 <- inception_4e/3x3
I1028 13:14:40.579757 28094 net.cpp:397] inception_4e/prelu_3x3 -> inception_4e/3x3 (in-place)
I1028 13:14:40.580452 28094 net.cpp:150] Setting up inception_4e/prelu_3x3
I1028 13:14:40.580467 28094 net.cpp:157] Top shape: 50 320 14 14 (3136000)
I1028 13:14:40.580476 28094 net.cpp:165] Memory required for data: 2575210216
I1028 13:14:40.580485 28094 layer_factory.hpp:76] Creating layer inception_4e/5x5_reduce
I1028 13:14:40.580513 28094 net.cpp:106] Creating Layer inception_4e/5x5_reduce
I1028 13:14:40.580526 28094 net.cpp:454] inception_4e/5x5_reduce <- inception_4d/output_inception_4d/output_0_split_3
I1028 13:14:40.580541 28094 net.cpp:411] inception_4e/5x5_reduce -> inception_4e/5x5_reduce
I1028 13:14:40.581944 28094 cudnn_conv_layer.cpp:194] Reallocating workspace storage: 10080
I1028 13:14:40.581995 28094 net.cpp:150] Setting up inception_4e/5x5_reduce
I1028 13:14:40.582010 28094 net.cpp:157] Top shape: 50 32 14 14 (313600)
I1028 13:14:40.582043 28094 net.cpp:165] Memory required for data: 2576464616
I1028 13:14:40.582059 28094 layer_factory.hpp:76] Creating layer inception_4e/prelu_5x5_reduce
I1028 13:14:40.582087 28094 net.cpp:106] Creating Layer inception_4e/prelu_5x5_reduce
I1028 13:14:40.582098 28094 net.cpp:454] inception_4e/prelu_5x5_reduce <- inception_4e/5x5_reduce
I1028 13:14:40.582113 28094 net.cpp:397] inception_4e/prelu_5x5_reduce -> inception_4e/5x5_reduce (in-place)
I1028 13:14:40.582218 28094 net.cpp:150] Setting up inception_4e/prelu_5x5_reduce
I1028 13:14:40.582229 28094 net.cpp:157] Top shape: 50 32 14 14 (313600)
I1028 13:14:40.582237 28094 net.cpp:165] Memory required for data: 2577719016
I1028 13:14:40.582247 28094 layer_factory.hpp:76] Creating layer inception_4e/5x5
I1028 13:14:40.582263 28094 net.cpp:106] Creating Layer inception_4e/5x5
I1028 13:14:40.582273 28094 net.cpp:454] inception_4e/5x5 <- inception_4e/5x5_reduce
I1028 13:14:40.582288 28094 net.cpp:411] inception_4e/5x5 -> inception_4e/5x5
I1028 13:14:40.584633 28094 cudnn_conv_layer.cpp:194] Reallocating workspace storage: 13080
I1028 13:14:40.584686 28094 net.cpp:150] Setting up inception_4e/5x5
I1028 13:14:40.584699 28094 net.cpp:157] Top shape: 50 128 14 14 (1254400)
I1028 13:14:40.584707 28094 net.cpp:165] Memory required for data: 2582736616
I1028 13:14:40.584722 28094 layer_factory.hpp:76] Creating layer inception_4e/prelu_5x5
I1028 13:14:40.584748 28094 net.cpp:106] Creating Layer inception_4e/prelu_5x5
I1028 13:14:40.584758 28094 net.cpp:454] inception_4e/prelu_5x5 <- inception_4e/5x5
I1028 13:14:40.584774 28094 net.cpp:397] inception_4e/prelu_5x5 -> inception_4e/5x5 (in-place)
I1028 13:14:40.584877 28094 net.cpp:150] Setting up inception_4e/prelu_5x5
I1028 13:14:40.584889 28094 net.cpp:157] Top shape: 50 128 14 14 (1254400)
I1028 13:14:40.584897 28094 net.cpp:165] Memory required for data: 2587754216
I1028 13:14:40.584906 28094 layer_factory.hpp:76] Creating layer inception_4e/pool
I1028 13:14:40.584956 28094 net.cpp:106] Creating Layer inception_4e/pool
I1028 13:14:40.584966 28094 net.cpp:454] inception_4e/pool <- inception_4d/output_inception_4d/output_0_split_4
I1028 13:14:40.584978 28094 net.cpp:411] inception_4e/pool -> inception_4e/pool
I1028 13:14:40.585203 28094 net.cpp:150] Setting up inception_4e/pool
I1028 13:14:40.585216 28094 net.cpp:157] Top shape: 50 528 14 14 (5174400)
I1028 13:14:40.585223 28094 net.cpp:165] Memory required for data: 2608451816
I1028 13:14:40.585232 28094 layer_factory.hpp:76] Creating layer inception_4e/pool_proj
I1028 13:14:40.585247 28094 net.cpp:106] Creating Layer inception_4e/pool_proj
I1028 13:14:40.585257 28094 net.cpp:454] inception_4e/pool_proj <- inception_4e/pool
I1028 13:14:40.585268 28094 net.cpp:411] inception_4e/pool_proj -> inception_4e/pool_proj
I1028 13:14:40.586993 28094 cudnn_conv_layer.cpp:194] Reallocating workspace storage: 10080
I1028 13:14:40.587040 28094 net.cpp:150] Setting up inception_4e/pool_proj
I1028 13:14:40.587052 28094 net.cpp:157] Top shape: 50 128 14 14 (1254400)
I1028 13:14:40.587060 28094 net.cpp:165] Memory required for data: 2613469416
I1028 13:14:40.587074 28094 layer_factory.hpp:76] Creating layer inception_4e/prelu_pool_proj
I1028 13:14:40.587106 28094 net.cpp:106] Creating Layer inception_4e/prelu_pool_proj
I1028 13:14:40.587117 28094 net.cpp:454] inception_4e/prelu_pool_proj <- inception_4e/pool_proj
I1028 13:14:40.587129 28094 net.cpp:397] inception_4e/prelu_pool_proj -> inception_4e/pool_proj (in-place)
I1028 13:14:40.587235 28094 net.cpp:150] Setting up inception_4e/prelu_pool_proj
I1028 13:14:40.587246 28094 net.cpp:157] Top shape: 50 128 14 14 (1254400)
I1028 13:14:40.587255 28094 net.cpp:165] Memory required for data: 2618487016
I1028 13:14:40.587265 28094 layer_factory.hpp:76] Creating layer inception_4e/output
I1028 13:14:40.587275 28094 net.cpp:106] Creating Layer inception_4e/output
I1028 13:14:40.587285 28094 net.cpp:454] inception_4e/output <- inception_4e/1x1
I1028 13:14:40.587293 28094 net.cpp:454] inception_4e/output <- inception_4e/3x3
I1028 13:14:40.587302 28094 net.cpp:454] inception_4e/output <- inception_4e/5x5
I1028 13:14:40.587311 28094 net.cpp:454] inception_4e/output <- inception_4e/pool_proj
I1028 13:14:40.587323 28094 net.cpp:411] inception_4e/output -> inception_4e/output
I1028 13:14:40.587354 28094 net.cpp:150] Setting up inception_4e/output
I1028 13:14:40.587368 28094 net.cpp:157] Top shape: 50 832 14 14 (8153600)
I1028 13:14:40.587374 28094 net.cpp:165] Memory required for data: 2651101416
I1028 13:14:40.587383 28094 layer_factory.hpp:76] Creating layer pool4/3x3_s2
I1028 13:14:40.587394 28094 net.cpp:106] Creating Layer pool4/3x3_s2
I1028 13:14:40.587402 28094 net.cpp:454] pool4/3x3_s2 <- inception_4e/output
I1028 13:14:40.587414 28094 net.cpp:411] pool4/3x3_s2 -> pool4/3x3_s2
I1028 13:14:40.587636 28094 net.cpp:150] Setting up pool4/3x3_s2
I1028 13:14:40.587648 28094 net.cpp:157] Top shape: 50 832 7 7 (2038400)
I1028 13:14:40.587656 28094 net.cpp:165] Memory required for data: 2659255016
I1028 13:14:40.587671 28094 layer_factory.hpp:76] Creating layer pool4/3x3_s2_pool4/3x3_s2_0_split
I1028 13:14:40.587682 28094 net.cpp:106] Creating Layer pool4/3x3_s2_pool4/3x3_s2_0_split
I1028 13:14:40.587690 28094 net.cpp:454] pool4/3x3_s2_pool4/3x3_s2_0_split <- pool4/3x3_s2
I1028 13:14:40.587702 28094 net.cpp:411] pool4/3x3_s2_pool4/3x3_s2_0_split -> pool4/3x3_s2_pool4/3x3_s2_0_split_0
I1028 13:14:40.587730 28094 net.cpp:411] pool4/3x3_s2_pool4/3x3_s2_0_split -> pool4/3x3_s2_pool4/3x3_s2_0_split_1
I1028 13:14:40.587744 28094 net.cpp:411] pool4/3x3_s2_pool4/3x3_s2_0_split -> pool4/3x3_s2_pool4/3x3_s2_0_split_2
I1028 13:14:40.587759 28094 net.cpp:411] pool4/3x3_s2_pool4/3x3_s2_0_split -> pool4/3x3_s2_pool4/3x3_s2_0_split_3
I1028 13:14:40.587828 28094 net.cpp:150] Setting up pool4/3x3_s2_pool4/3x3_s2_0_split
I1028 13:14:40.587839 28094 net.cpp:157] Top shape: 50 832 7 7 (2038400)
I1028 13:14:40.587857 28094 net.cpp:157] Top shape: 50 832 7 7 (2038400)
I1028 13:14:40.587867 28094 net.cpp:157] Top shape: 50 832 7 7 (2038400)
I1028 13:14:40.587875 28094 net.cpp:157] Top shape: 50 832 7 7 (2038400)
I1028 13:14:40.587882 28094 net.cpp:165] Memory required for data: 2691869416
I1028 13:14:40.587898 28094 layer_factory.hpp:76] Creating layer inception_5a/1x1
I1028 13:14:40.587913 28094 net.cpp:106] Creating Layer inception_5a/1x1
I1028 13:14:40.587923 28094 net.cpp:454] inception_5a/1x1 <- pool4/3x3_s2_pool4/3x3_s2_0_split_0
I1028 13:14:40.587934 28094 net.cpp:411] inception_5a/1x1 -> inception_5a/1x1
I1028 13:14:40.590776 28094 cudnn_conv_layer.cpp:194] Reallocating workspace storage: 7428
I1028 13:14:40.590824 28094 net.cpp:150] Setting up inception_5a/1x1
I1028 13:14:40.590837 28094 net.cpp:157] Top shape: 50 256 7 7 (627200)
I1028 13:14:40.590845 28094 net.cpp:165] Memory required for data: 2694378216
I1028 13:14:40.590874 28094 layer_factory.hpp:76] Creating layer inception_5a/prelu_1x1
I1028 13:14:40.590899 28094 net.cpp:106] Creating Layer inception_5a/prelu_1x1
I1028 13:14:40.590910 28094 net.cpp:454] inception_5a/prelu_1x1 <- inception_5a/1x1
I1028 13:14:40.590930 28094 net.cpp:397] inception_5a/prelu_1x1 -> inception_5a/1x1 (in-place)
I1028 13:14:40.591029 28094 net.cpp:150] Setting up inception_5a/prelu_1x1
I1028 13:14:40.591049 28094 net.cpp:157] Top shape: 50 256 7 7 (627200)
I1028 13:14:40.591058 28094 net.cpp:165] Memory required for data: 2696887016
I1028 13:14:40.591068 28094 layer_factory.hpp:76] Creating layer inception_5a/3x3_reduce
I1028 13:14:40.591090 28094 net.cpp:106] Creating Layer inception_5a/3x3_reduce
I1028 13:14:40.591100 28094 net.cpp:454] inception_5a/3x3_reduce <- pool4/3x3_s2_pool4/3x3_s2_0_split_1
I1028 13:14:40.591112 28094 net.cpp:411] inception_5a/3x3_reduce -> inception_5a/3x3_reduce
I1028 13:14:40.593530 28094 cudnn_conv_layer.cpp:194] Reallocating workspace storage: 7428
I1028 13:14:40.593577 28094 net.cpp:150] Setting up inception_5a/3x3_reduce
I1028 13:14:40.593590 28094 net.cpp:157] Top shape: 50 160 7 7 (392000)
I1028 13:14:40.593597 28094 net.cpp:165] Memory required for data: 2698455016
I1028 13:14:40.593617 28094 layer_factory.hpp:76] Creating layer inception_5a/prelu_3x3_reduce
I1028 13:14:40.593633 28094 net.cpp:106] Creating Layer inception_5a/prelu_3x3_reduce
I1028 13:14:40.593643 28094 net.cpp:454] inception_5a/prelu_3x3_reduce <- inception_5a/3x3_reduce
I1028 13:14:40.593672 28094 net.cpp:397] inception_5a/prelu_3x3_reduce -> inception_5a/3x3_reduce (in-place)
I1028 13:14:40.593775 28094 net.cpp:150] Setting up inception_5a/prelu_3x3_reduce
I1028 13:14:40.593786 28094 net.cpp:157] Top shape: 50 160 7 7 (392000)
I1028 13:14:40.593793 28094 net.cpp:165] Memory required for data: 2700023016
I1028 13:14:40.593811 28094 layer_factory.hpp:76] Creating layer inception_5a/3x3
I1028 13:14:40.593827 28094 net.cpp:106] Creating Layer inception_5a/3x3
I1028 13:14:40.593837 28094 net.cpp:454] inception_5a/3x3 <- inception_5a/3x3_reduce
I1028 13:14:40.593863 28094 net.cpp:411] inception_5a/3x3 -> inception_5a/3x3
I1028 13:14:40.598345 28094 cudnn_conv_layer.cpp:194] Reallocating workspace storage: 7788
I1028 13:14:40.598410 28094 net.cpp:150] Setting up inception_5a/3x3
I1028 13:14:40.598423 28094 net.cpp:157] Top shape: 50 320 7 7 (784000)
I1028 13:14:40.598433 28094 net.cpp:165] Memory required for data: 2703159016
I1028 13:14:40.598446 28094 layer_factory.hpp:76] Creating layer inception_5a/prelu_3x3
I1028 13:14:40.598469 28094 net.cpp:106] Creating Layer inception_5a/prelu_3x3
I1028 13:14:40.598480 28094 net.cpp:454] inception_5a/prelu_3x3 <- inception_5a/3x3
I1028 13:14:40.598495 28094 net.cpp:397] inception_5a/prelu_3x3 -> inception_5a/3x3 (in-place)
I1028 13:14:40.598639 28094 net.cpp:150] Setting up inception_5a/prelu_3x3
I1028 13:14:40.598651 28094 net.cpp:157] Top shape: 50 320 7 7 (784000)
I1028 13:14:40.598659 28094 net.cpp:165] Memory required for data: 2706295016
I1028 13:14:40.598670 28094 layer_factory.hpp:76] Creating layer inception_5a/5x5_reduce
I1028 13:14:40.598685 28094 net.cpp:106] Creating Layer inception_5a/5x5_reduce
I1028 13:14:40.598696 28094 net.cpp:454] inception_5a/5x5_reduce <- pool4/3x3_s2_pool4/3x3_s2_0_split_2
I1028 13:14:40.598709 28094 net.cpp:411] inception_5a/5x5_reduce -> inception_5a/5x5_reduce
I1028 13:14:40.599982 28094 cudnn_conv_layer.cpp:194] Reallocating workspace storage: 7428
I1028 13:14:40.600021 28094 net.cpp:150] Setting up inception_5a/5x5_reduce
I1028 13:14:40.600036 28094 net.cpp:157] Top shape: 50 32 7 7 (78400)
I1028 13:14:40.600045 28094 net.cpp:165] Memory required for data: 2706608616
I1028 13:14:40.600059 28094 layer_factory.hpp:76] Creating layer inception_5a/prelu_5x5_reduce
I1028 13:14:40.600072 28094 net.cpp:106] Creating Layer inception_5a/prelu_5x5_reduce
I1028 13:14:40.600083 28094 net.cpp:454] inception_5a/prelu_5x5_reduce <- inception_5a/5x5_reduce
I1028 13:14:40.600095 28094 net.cpp:397] inception_5a/prelu_5x5_reduce -> inception_5a/5x5_reduce (in-place)
I1028 13:14:40.600200 28094 net.cpp:150] Setting up inception_5a/prelu_5x5_reduce
I1028 13:14:40.600213 28094 net.cpp:157] Top shape: 50 32 7 7 (78400)
I1028 13:14:40.600219 28094 net.cpp:165] Memory required for data: 2706922216
I1028 13:14:40.600230 28094 layer_factory.hpp:76] Creating layer inception_5a/5x5
I1028 13:14:40.600244 28094 net.cpp:106] Creating Layer inception_5a/5x5
I1028 13:14:40.600266 28094 net.cpp:454] inception_5a/5x5 <- inception_5a/5x5_reduce
I1028 13:14:40.600281 28094 net.cpp:411] inception_5a/5x5 -> inception_5a/5x5
I1028 13:14:40.601800 28094 cudnn_conv_layer.cpp:194] Reallocating workspace storage: 9804
I1028 13:14:40.601840 28094 net.cpp:150] Setting up inception_5a/5x5
I1028 13:14:40.601855 28094 net.cpp:157] Top shape: 50 128 7 7 (313600)
I1028 13:14:40.601863 28094 net.cpp:165] Memory required for data: 2708176616
I1028 13:14:40.601876 28094 layer_factory.hpp:76] Creating layer inception_5a/prelu_5x5
I1028 13:14:40.601891 28094 net.cpp:106] Creating Layer inception_5a/prelu_5x5
I1028 13:14:40.601900 28094 net.cpp:454] inception_5a/prelu_5x5 <- inception_5a/5x5
I1028 13:14:40.601912 28094 net.cpp:397] inception_5a/prelu_5x5 -> inception_5a/5x5 (in-place)
I1028 13:14:40.602026 28094 net.cpp:150] Setting up inception_5a/prelu_5x5
I1028 13:14:40.602037 28094 net.cpp:157] Top shape: 50 128 7 7 (313600)
I1028 13:14:40.602046 28094 net.cpp:165] Memory required for data: 2709431016
I1028 13:14:40.602056 28094 layer_factory.hpp:76] Creating layer inception_5a/pool
I1028 13:14:40.602069 28094 net.cpp:106] Creating Layer inception_5a/pool
I1028 13:14:40.602080 28094 net.cpp:454] inception_5a/pool <- pool4/3x3_s2_pool4/3x3_s2_0_split_3
I1028 13:14:40.602090 28094 net.cpp:411] inception_5a/pool -> inception_5a/pool
I1028 13:14:40.602504 28094 net.cpp:150] Setting up inception_5a/pool
I1028 13:14:40.602519 28094 net.cpp:157] Top shape: 50 832 7 7 (2038400)
I1028 13:14:40.602527 28094 net.cpp:165] Memory required for data: 2717584616
I1028 13:14:40.602536 28094 layer_factory.hpp:76] Creating layer inception_5a/pool_proj
I1028 13:14:40.602548 28094 net.cpp:106] Creating Layer inception_5a/pool_proj
I1028 13:14:40.602558 28094 net.cpp:454] inception_5a/pool_proj <- inception_5a/pool
I1028 13:14:40.602587 28094 net.cpp:411] inception_5a/pool_proj -> inception_5a/pool_proj
I1028 13:14:40.604776 28094 cudnn_conv_layer.cpp:194] Reallocating workspace storage: 7428
I1028 13:14:40.604830 28094 net.cpp:150] Setting up inception_5a/pool_proj
I1028 13:14:40.604848 28094 net.cpp:157] Top shape: 50 128 7 7 (313600)
I1028 13:14:40.604863 28094 net.cpp:165] Memory required for data: 2718839016
I1028 13:14:40.604876 28094 layer_factory.hpp:76] Creating layer inception_5a/prelu_pool_proj
I1028 13:14:40.604905 28094 net.cpp:106] Creating Layer inception_5a/prelu_pool_proj
I1028 13:14:40.604915 28094 net.cpp:454] inception_5a/prelu_pool_proj <- inception_5a/pool_proj
I1028 13:14:40.604928 28094 net.cpp:397] inception_5a/prelu_pool_proj -> inception_5a/pool_proj (in-place)
I1028 13:14:40.605022 28094 net.cpp:150] Setting up inception_5a/prelu_pool_proj
I1028 13:14:40.605033 28094 net.cpp:157] Top shape: 50 128 7 7 (313600)
I1028 13:14:40.605041 28094 net.cpp:165] Memory required for data: 2720093416
I1028 13:14:40.605051 28094 layer_factory.hpp:76] Creating layer inception_5a/output
I1028 13:14:40.605064 28094 net.cpp:106] Creating Layer inception_5a/output
I1028 13:14:40.605073 28094 net.cpp:454] inception_5a/output <- inception_5a/1x1
I1028 13:14:40.605083 28094 net.cpp:454] inception_5a/output <- inception_5a/3x3
I1028 13:14:40.605093 28094 net.cpp:454] inception_5a/output <- inception_5a/5x5
I1028 13:14:40.605101 28094 net.cpp:454] inception_5a/output <- inception_5a/pool_proj
I1028 13:14:40.605114 28094 net.cpp:411] inception_5a/output -> inception_5a/output
I1028 13:14:40.605149 28094 net.cpp:150] Setting up inception_5a/output
I1028 13:14:40.605159 28094 net.cpp:157] Top shape: 50 832 7 7 (2038400)
I1028 13:14:40.605166 28094 net.cpp:165] Memory required for data: 2728247016
I1028 13:14:40.605175 28094 layer_factory.hpp:76] Creating layer inception_5a/output_inception_5a/output_0_split
I1028 13:14:40.605185 28094 net.cpp:106] Creating Layer inception_5a/output_inception_5a/output_0_split
I1028 13:14:40.605193 28094 net.cpp:454] inception_5a/output_inception_5a/output_0_split <- inception_5a/output
I1028 13:14:40.605207 28094 net.cpp:411] inception_5a/output_inception_5a/output_0_split -> inception_5a/output_inception_5a/output_0_split_0
I1028 13:14:40.605232 28094 net.cpp:411] inception_5a/output_inception_5a/output_0_split -> inception_5a/output_inception_5a/output_0_split_1
I1028 13:14:40.605247 28094 net.cpp:411] inception_5a/output_inception_5a/output_0_split -> inception_5a/output_inception_5a/output_0_split_2
I1028 13:14:40.605262 28094 net.cpp:411] inception_5a/output_inception_5a/output_0_split -> inception_5a/output_inception_5a/output_0_split_3
I1028 13:14:40.605329 28094 net.cpp:150] Setting up inception_5a/output_inception_5a/output_0_split
I1028 13:14:40.605340 28094 net.cpp:157] Top shape: 50 832 7 7 (2038400)
I1028 13:14:40.605357 28094 net.cpp:157] Top shape: 50 832 7 7 (2038400)
I1028 13:14:40.605367 28094 net.cpp:157] Top shape: 50 832 7 7 (2038400)
I1028 13:14:40.605378 28094 net.cpp:157] Top shape: 50 832 7 7 (2038400)
I1028 13:14:40.605386 28094 net.cpp:165] Memory required for data: 2760861416
I1028 13:14:40.605393 28094 layer_factory.hpp:76] Creating layer inception_5b/1x1
I1028 13:14:40.605406 28094 net.cpp:106] Creating Layer inception_5b/1x1
I1028 13:14:40.605422 28094 net.cpp:454] inception_5b/1x1 <- inception_5a/output_inception_5a/output_0_split_0
I1028 13:14:40.605437 28094 net.cpp:411] inception_5b/1x1 -> inception_5b/1x1
I1028 13:14:40.609230 28094 cudnn_conv_layer.cpp:194] Reallocating workspace storage: 7428
I1028 13:14:40.609297 28094 net.cpp:150] Setting up inception_5b/1x1
I1028 13:14:40.609313 28094 net.cpp:157] Top shape: 50 384 7 7 (940800)
I1028 13:14:40.609320 28094 net.cpp:165] Memory required for data: 2764624616
I1028 13:14:40.609338 28094 layer_factory.hpp:76] Creating layer inception_5b/prelu_1x1
I1028 13:14:40.609362 28094 net.cpp:106] Creating Layer inception_5b/prelu_1x1
I1028 13:14:40.609374 28094 net.cpp:454] inception_5b/prelu_1x1 <- inception_5b/1x1
I1028 13:14:40.609388 28094 net.cpp:397] inception_5b/prelu_1x1 -> inception_5b/1x1 (in-place)
I1028 13:14:40.609518 28094 net.cpp:150] Setting up inception_5b/prelu_1x1
I1028 13:14:40.609529 28094 net.cpp:157] Top shape: 50 384 7 7 (940800)
I1028 13:14:40.609536 28094 net.cpp:165] Memory required for data: 2768387816
I1028 13:14:40.609547 28094 layer_factory.hpp:76] Creating layer inception_5b/3x3_reduce
I1028 13:14:40.609565 28094 net.cpp:106] Creating Layer inception_5b/3x3_reduce
I1028 13:14:40.609575 28094 net.cpp:454] inception_5b/3x3_reduce <- inception_5a/output_inception_5a/output_0_split_1
I1028 13:14:40.609591 28094 net.cpp:411] inception_5b/3x3_reduce -> inception_5b/3x3_reduce
I1028 13:14:40.612053 28094 cudnn_conv_layer.cpp:194] Reallocating workspace storage: 7428
I1028 13:14:40.612118 28094 net.cpp:150] Setting up inception_5b/3x3_reduce
I1028 13:14:40.612134 28094 net.cpp:157] Top shape: 50 192 7 7 (470400)
I1028 13:14:40.612144 28094 net.cpp:165] Memory required for data: 2770269416
I1028 13:14:40.612159 28094 layer_factory.hpp:76] Creating layer inception_5b/prelu_3x3_reduce
I1028 13:14:40.612174 28094 net.cpp:106] Creating Layer inception_5b/prelu_3x3_reduce
I1028 13:14:40.612185 28094 net.cpp:454] inception_5b/prelu_3x3_reduce <- inception_5b/3x3_reduce
I1028 13:14:40.612200 28094 net.cpp:397] inception_5b/prelu_3x3_reduce -> inception_5b/3x3_reduce (in-place)
I1028 13:14:40.612310 28094 net.cpp:150] Setting up inception_5b/prelu_3x3_reduce
I1028 13:14:40.612323 28094 net.cpp:157] Top shape: 50 192 7 7 (470400)
I1028 13:14:40.612332 28094 net.cpp:165] Memory required for data: 2772151016
I1028 13:14:40.612352 28094 layer_factory.hpp:76] Creating layer inception_5b/3x3
I1028 13:14:40.612367 28094 net.cpp:106] Creating Layer inception_5b/3x3
I1028 13:14:40.612377 28094 net.cpp:454] inception_5b/3x3 <- inception_5b/3x3_reduce
I1028 13:14:40.612392 28094 net.cpp:411] inception_5b/3x3 -> inception_5b/3x3
I1028 13:14:40.618386 28094 cudnn_conv_layer.cpp:194] Reallocating workspace storage: 7788
I1028 13:14:40.618458 28094 net.cpp:150] Setting up inception_5b/3x3
I1028 13:14:40.618474 28094 net.cpp:157] Top shape: 50 384 7 7 (940800)
I1028 13:14:40.618482 28094 net.cpp:165] Memory required for data: 2775914216
I1028 13:14:40.618530 28094 layer_factory.hpp:76] Creating layer inception_5b/prelu_3x3
I1028 13:14:40.618551 28094 net.cpp:106] Creating Layer inception_5b/prelu_3x3
I1028 13:14:40.618561 28094 net.cpp:454] inception_5b/prelu_3x3 <- inception_5b/3x3
I1028 13:14:40.618600 28094 net.cpp:397] inception_5b/prelu_3x3 -> inception_5b/3x3 (in-place)
I1028 13:14:40.618746 28094 net.cpp:150] Setting up inception_5b/prelu_3x3
I1028 13:14:40.618757 28094 net.cpp:157] Top shape: 50 384 7 7 (940800)
I1028 13:14:40.618764 28094 net.cpp:165] Memory required for data: 2779677416
I1028 13:14:40.618782 28094 layer_factory.hpp:76] Creating layer inception_5b/5x5_reduce
I1028 13:14:40.618798 28094 net.cpp:106] Creating Layer inception_5b/5x5_reduce
I1028 13:14:40.618808 28094 net.cpp:454] inception_5b/5x5_reduce <- inception_5a/output_inception_5a/output_0_split_2
I1028 13:14:40.618836 28094 net.cpp:411] inception_5b/5x5_reduce -> inception_5b/5x5_reduce
I1028 13:14:40.620374 28094 cudnn_conv_layer.cpp:194] Reallocating workspace storage: 7428
I1028 13:14:40.620415 28094 net.cpp:150] Setting up inception_5b/5x5_reduce
I1028 13:14:40.620427 28094 net.cpp:157] Top shape: 50 48 7 7 (117600)
I1028 13:14:40.620435 28094 net.cpp:165] Memory required for data: 2780147816
I1028 13:14:40.620462 28094 layer_factory.hpp:76] Creating layer inception_5b/prelu_5x5_reduce
I1028 13:14:40.620477 28094 net.cpp:106] Creating Layer inception_5b/prelu_5x5_reduce
I1028 13:14:40.620486 28094 net.cpp:454] inception_5b/prelu_5x5_reduce <- inception_5b/5x5_reduce
I1028 13:14:40.620498 28094 net.cpp:397] inception_5b/prelu_5x5_reduce -> inception_5b/5x5_reduce (in-place)
I1028 13:14:40.620620 28094 net.cpp:150] Setting up inception_5b/prelu_5x5_reduce
I1028 13:14:40.620631 28094 net.cpp:157] Top shape: 50 48 7 7 (117600)
I1028 13:14:40.620640 28094 net.cpp:165] Memory required for data: 2780618216
I1028 13:14:40.620650 28094 layer_factory.hpp:76] Creating layer inception_5b/5x5
I1028 13:14:40.620664 28094 net.cpp:106] Creating Layer inception_5b/5x5
I1028 13:14:40.620676 28094 net.cpp:454] inception_5b/5x5 <- inception_5b/5x5_reduce
I1028 13:14:40.620688 28094 net.cpp:411] inception_5b/5x5 -> inception_5b/5x5
I1028 13:14:40.622669 28094 cudnn_conv_layer.cpp:194] Reallocating workspace storage: 9804
I1028 13:14:40.622714 28094 net.cpp:150] Setting up inception_5b/5x5
I1028 13:14:40.622725 28094 net.cpp:157] Top shape: 50 128 7 7 (313600)
I1028 13:14:40.622733 28094 net.cpp:165] Memory required for data: 2781872616
I1028 13:14:40.622746 28094 layer_factory.hpp:76] Creating layer inception_5b/prelu_5x5
I1028 13:14:40.622761 28094 net.cpp:106] Creating Layer inception_5b/prelu_5x5
I1028 13:14:40.622772 28094 net.cpp:454] inception_5b/prelu_5x5 <- inception_5b/5x5
I1028 13:14:40.622783 28094 net.cpp:397] inception_5b/prelu_5x5 -> inception_5b/5x5 (in-place)
I1028 13:14:40.622889 28094 net.cpp:150] Setting up inception_5b/prelu_5x5
I1028 13:14:40.622900 28094 net.cpp:157] Top shape: 50 128 7 7 (313600)
I1028 13:14:40.622906 28094 net.cpp:165] Memory required for data: 2783127016
I1028 13:14:40.622916 28094 layer_factory.hpp:76] Creating layer inception_5b/pool
I1028 13:14:40.622928 28094 net.cpp:106] Creating Layer inception_5b/pool
I1028 13:14:40.622937 28094 net.cpp:454] inception_5b/pool <- inception_5a/output_inception_5a/output_0_split_3
I1028 13:14:40.622951 28094 net.cpp:411] inception_5b/pool -> inception_5b/pool
I1028 13:14:40.623153 28094 net.cpp:150] Setting up inception_5b/pool
I1028 13:14:40.623167 28094 net.cpp:157] Top shape: 50 832 7 7 (2038400)
I1028 13:14:40.623173 28094 net.cpp:165] Memory required for data: 2791280616
I1028 13:14:40.623188 28094 layer_factory.hpp:76] Creating layer inception_5b/pool_proj
I1028 13:14:40.623203 28094 net.cpp:106] Creating Layer inception_5b/pool_proj
I1028 13:14:40.623211 28094 net.cpp:454] inception_5b/pool_proj <- inception_5b/pool
I1028 13:14:40.623241 28094 net.cpp:411] inception_5b/pool_proj -> inception_5b/pool_proj
I1028 13:14:40.625538 28094 cudnn_conv_layer.cpp:194] Reallocating workspace storage: 7428
I1028 13:14:40.625605 28094 net.cpp:150] Setting up inception_5b/pool_proj
I1028 13:14:40.625617 28094 net.cpp:157] Top shape: 50 128 7 7 (313600)
I1028 13:14:40.625633 28094 net.cpp:165] Memory required for data: 2792535016
I1028 13:14:40.625653 28094 layer_factory.hpp:76] Creating layer inception_5b/prelu_pool_proj
I1028 13:14:40.625666 28094 net.cpp:106] Creating Layer inception_5b/prelu_pool_proj
I1028 13:14:40.625677 28094 net.cpp:454] inception_5b/prelu_pool_proj <- inception_5b/pool_proj
I1028 13:14:40.625690 28094 net.cpp:397] inception_5b/prelu_pool_proj -> inception_5b/pool_proj (in-place)
I1028 13:14:40.625802 28094 net.cpp:150] Setting up inception_5b/prelu_pool_proj
I1028 13:14:40.625813 28094 net.cpp:157] Top shape: 50 128 7 7 (313600)
I1028 13:14:40.625821 28094 net.cpp:165] Memory required for data: 2793789416
I1028 13:14:40.625831 28094 layer_factory.hpp:76] Creating layer inception_5b/output
I1028 13:14:40.625843 28094 net.cpp:106] Creating Layer inception_5b/output
I1028 13:14:40.625850 28094 net.cpp:454] inception_5b/output <- inception_5b/1x1
I1028 13:14:40.625860 28094 net.cpp:454] inception_5b/output <- inception_5b/3x3
I1028 13:14:40.625869 28094 net.cpp:454] inception_5b/output <- inception_5b/5x5
I1028 13:14:40.625879 28094 net.cpp:454] inception_5b/output <- inception_5b/pool_proj
I1028 13:14:40.625888 28094 net.cpp:411] inception_5b/output -> inception_5b/output
I1028 13:14:40.625923 28094 net.cpp:150] Setting up inception_5b/output
I1028 13:14:40.625933 28094 net.cpp:157] Top shape: 50 1024 7 7 (2508800)
I1028 13:14:40.625941 28094 net.cpp:165] Memory required for data: 2803824616
I1028 13:14:40.625948 28094 layer_factory.hpp:76] Creating layer pool5/7x7_s1
I1028 13:14:40.625959 28094 net.cpp:106] Creating Layer pool5/7x7_s1
I1028 13:14:40.625968 28094 net.cpp:454] pool5/7x7_s1 <- inception_5b/output
I1028 13:14:40.625982 28094 net.cpp:411] pool5/7x7_s1 -> pool5/7x7_s1
I1028 13:14:40.626376 28094 net.cpp:150] Setting up pool5/7x7_s1
I1028 13:14:40.626389 28094 net.cpp:157] Top shape: 50 1024 1 1 (51200)
I1028 13:14:40.626397 28094 net.cpp:165] Memory required for data: 2804029416
I1028 13:14:40.626405 28094 layer_factory.hpp:76] Creating layer pool5/drop_7x7_s1
I1028 13:14:40.626417 28094 net.cpp:106] Creating Layer pool5/drop_7x7_s1
I1028 13:14:40.626425 28094 net.cpp:454] pool5/drop_7x7_s1 <- pool5/7x7_s1
I1028 13:14:40.626436 28094 net.cpp:397] pool5/drop_7x7_s1 -> pool5/7x7_s1 (in-place)
I1028 13:14:40.626472 28094 net.cpp:150] Setting up pool5/drop_7x7_s1
I1028 13:14:40.626482 28094 net.cpp:157] Top shape: 50 1024 1 1 (51200)
I1028 13:14:40.626490 28094 net.cpp:165] Memory required for data: 2804234216
I1028 13:14:40.626497 28094 layer_factory.hpp:76] Creating layer loss3/classifier2
I1028 13:14:40.626509 28094 net.cpp:106] Creating Layer loss3/classifier2
I1028 13:14:40.626516 28094 net.cpp:454] loss3/classifier2 <- pool5/7x7_s1
I1028 13:14:40.626531 28094 net.cpp:411] loss3/classifier2 -> loss3/classifier
I1028 13:14:40.626674 28094 net.cpp:150] Setting up loss3/classifier2
I1028 13:14:40.626687 28094 net.cpp:157] Top shape: 50 2 (100)
I1028 13:14:40.626693 28094 net.cpp:165] Memory required for data: 2804234616
I1028 13:14:40.626706 28094 layer_factory.hpp:76] Creating layer loss3/classifier_loss3/classifier2_0_split
I1028 13:14:40.626718 28094 net.cpp:106] Creating Layer loss3/classifier_loss3/classifier2_0_split
I1028 13:14:40.626725 28094 net.cpp:454] loss3/classifier_loss3/classifier2_0_split <- loss3/classifier
I1028 13:14:40.626739 28094 net.cpp:411] loss3/classifier_loss3/classifier2_0_split -> loss3/classifier_loss3/classifier2_0_split_0
I1028 13:14:40.626752 28094 net.cpp:411] loss3/classifier_loss3/classifier2_0_split -> loss3/classifier_loss3/classifier2_0_split_1
I1028 13:14:40.626801 28094 net.cpp:150] Setting up loss3/classifier_loss3/classifier2_0_split
I1028 13:14:40.626814 28094 net.cpp:157] Top shape: 50 2 (100)
I1028 13:14:40.626823 28094 net.cpp:157] Top shape: 50 2 (100)
I1028 13:14:40.626832 28094 net.cpp:165] Memory required for data: 2804235416
I1028 13:14:40.626838 28094 layer_factory.hpp:76] Creating layer loss3/loss3
I1028 13:14:40.626862 28094 net.cpp:106] Creating Layer loss3/loss3
I1028 13:14:40.626873 28094 net.cpp:454] loss3/loss3 <- loss3/classifier_loss3/classifier2_0_split_0
I1028 13:14:40.626883 28094 net.cpp:454] loss3/loss3 <- label_data_1_split_4
…
