…
I1126 10:11:21.352694 10315 net.cpp:322] The NetState phase (0) differed from the phase (1) specified by a rule in layer loss3/top-1
I1126 10:11:21.354799 10315 net.cpp:49] Initializing net from parameters: 
name: "GoogleNet"
state {
  phase: TRAIN
}
layer {
  name: "data"
  type: "Data"
  top: "data"
  top: "label"
  include {
    phase: TRAIN
  }
  transform_param {
    mirror: true
    crop_size: 224
    mean_value: 104
    mean_value: 117
    mean_value: 123
  }
  data_param {
    source: "../../LMDB-s300/train_3-lmdb"
    batch_size: 32
    backend: LMDB
  }
}
layer {
  name: "conv1/7x7_s2"
  type: "Convolution"
  bottom: "data"
  top: "conv1/7x7_s2"
  param {
    lr_mult: 1
    decay_mult: 1
  }
  param {
    lr_mult: 2
    decay_mult: 0
  }
  convolution_param {
    num_output: 64
    pad: 3
    kernel_size: 7
    stride: 2
    weight_filler {
      type: "xavier"
    }
    bias_filler {
      type: "constant"
      value: 0.2
    }
  }
}
layer {
  name: "conv1/prelu_7x7"
  type: "PReLU"
  bottom: "conv1/7x7_s2"
  top: "conv1/7x7_s2"
  param {
    lr_mult: 1
    decay_mult: 0
  }
  prelu_param {
    filler {
      type: "constant"
      value: 0.01
    }
  }
}
layer {
  name: "pool1/3x3_s2"
  type: "Pooling"
  bottom: "conv1/7x7_s2"
  top: "pool1/3x3_s2"
  pooling_param {
    pool: MAX
    kernel_size: 3
    stride: 2
  }
}
layer {
  name: "pool1/norm1"
  type: "LRN"
  bottom: "pool1/3x3_s2"
  top: "pool1/norm1"
  lrn_param {
    local_size: 5
    alpha: 0.0001
    beta: 0.75
  }
}
layer {
  name: "conv2/3x3_reduce"
  type: "Convolution"
  bottom: "pool1/norm1"
  top: "conv2/3x3_reduce"
  param {
    lr_mult: 1
    decay_mult: 1
  }
  param {
    lr_mult: 2
    decay_mult: 0
  }
  convolution_param {
    num_output: 64
    kernel_size: 1
    weight_filler {
      type: "xavier"
    }
    bias_filler {
      type: "constant"
      value: 0.2
    }
  }
}
layer {
  name: "conv2/prelu_3x3_reduce"
  type: "PReLU"
  bottom: "conv2/3x3_reduce"
  top: "conv2/3x3_reduce"
  param {
    lr_mult: 1
    decay_mult: 0
  }
  prelu_param {
    filler {
      type: "constant"
      value: 0.01
    }
  }
}
layer {
  name: "conv2/3x3"
  type: "Convolution"
  bottom: "conv2/3x3_reduce"
  top: "conv2/3x3"
  param {
    lr_mult: 1
    decay_mult: 1
  }
  param {
    lr_mult: 2
    decay_mult: 0
  }
  convolution_param {
    num_output: 192
    pad: 1
    kernel_size: 3
    weight_filler {
      type: "xavier"
    }
    bias_filler {
      type: "constant"
      value: 0.2
    }
  }
}
layer {
  name: "conv2/prelu_3x3"
  type: "PReLU"
  bottom: "conv2/3x3"
  top: "conv2/3x3"
  param {
    lr_mult: 1
    decay_mult: 0
  }
  prelu_param {
    filler {
      type: "constant"
      value: 0.01
    }
  }
}
layer {
  name: "conv2/norm2"
  type: "LRN"
  bottom: "conv2/3x3"
  top: "conv2/norm2"
  lrn_param {
    local_size: 5
    alpha: 0.0001
    beta: 0.75
  }
}
layer {
  name: "pool2/3x3_s2"
  type: "Pooling"
  bottom: "conv2/norm2"
  top: "pool2/3x3_s2"
  pooling_param {
    pool: MAX
    kernel_size: 3
    stride: 2
  }
}
layer {
  name: "inception_3a/1x1"
  type: "Convolution"
  bottom: "pool2/3x3_s2"
  top: "inception_3a/1x1"
  param {
    lr_mult: 1
    decay_mult: 1
  }
  param {
    lr_mult: 2
    decay_mult: 0
  }
  convolution_param {
    num_output: 64
    kernel_size: 1
    weight_filler {
      type: "xavier"
    }
    bias_filler {
      type: "constant"
      value: 0.2
    }
  }
}
layer {
  name: "inception_3a/prelu_1x1"
  type: "PReLU"
  bottom: "inception_3a/1x1"
  top: "inception_3a/1x1"
  param {
    lr_mult: 1
    decay_mult: 0
  }
  prelu_param {
    filler {
      type: "constant"
      value: 0.01
    }
  }
}
layer {
  name: "inception_3a/3x3_reduce"
  type: "Convolution"
  bottom: "pool2/3x3_s2"
  top: "inception_3a/3x3_reduce"
  param {
    lr_mult: 1
    decay_mult: 1
  }
  param {
    lr_mult: 2
    decay_mult: 0
  }
  convolution_param {
    num_output: 96
    kernel_size: 1
    weight_filler {
      type: "xavier"
    }
    bias_filler {
      type: "constant"
      value: 0.2
    }
  }
}
layer {
  name: "inception_3a/prelu_3x3_reduce"
  type: "PReLU"
  bottom: "inception_3a/3x3_reduce"
  top: "inception_3a/3x3_reduce"
  param {
    lr_mult: 1
    decay_mult: 0
  }
  prelu_param {
    filler {
      type: "constant"
      value: 0.01
    }
  }
}
layer {
  name: "inception_3a/3x3"
  type: "Convolution"
  bottom: "inception_3a/3x3_reduce"
  top: "inception_3a/3x3"
  param {
    lr_mult: 1
    decay_mult: 1
  }
  param {
    lr_mult: 2
    decay_mult: 0
  }
  convolution_param {
    num_output: 128
    pad: 1
    kernel_size: 3
    weight_filler {
      type: "xavier"
    }
    bias_filler {
      type: "constant"
      value: 0.2
    }
  }
}
layer {
  name: "inception_3a/prelu_3x3"
  type: "PReLU"
  bottom: "inception_3a/3x3"
  top: "inception_3a/3x3"
  param {
    lr_mult: 1
    decay_mult: 0
  }
  prelu_param {
    filler {
      type: "constant"
      value: 0.01
    }
  }
}
layer {
  name: "inception_3a/5x5_reduce"
  type: "Convolution"
  bottom: "pool2/3x3_s2"
  top: "inception_3a/5x5_reduce"
  param {
    lr_mult: 1
    decay_mult: 1
  }
  param {
    lr_mult: 2
    decay_mult: 0
  }
  convolution_param {
    num_output: 16
    kernel_size: 1
    weight_filler {
      type: "xavier"
    }
    bias_filler {
      type: "constant"
      value: 0.2
    }
  }
}
layer {
  name: "inception_3a/prelu_5x5_reduce"
  type: "PReLU"
  bottom: "inception_3a/5x5_reduce"
  top: "inception_3a/5x5_reduce"
  param {
    lr_mult: 1
    decay_mult: 0
  }
  prelu_param {
    filler {
      type: "constant"
      value: 0.01
    }
  }
}
layer {
  name: "inception_3a/5x5"
  type: "Convolution"
  bottom: "inception_3a/5x5_reduce"
  top: "inception_3a/5x5"
  param {
    lr_mult: 1
    decay_mult: 1
  }
  param {
    lr_mult: 2
    decay_mult: 0
  }
  convolution_param {
    num_output: 32
    pad: 2
    kernel_size: 5
    weight_filler {
      type: "xavier"
    }
    bias_filler {
      type: "constant"
      value: 0.2
    }
  }
}
layer {
  name: "inception_3a/prelu_5x5"
  type: "PReLU"
  bottom: "inception_3a/5x5"
  top: "inception_3a/5x5"
  param {
    lr_mult: 1
    decay_mult: 0
  }
  prelu_param {
    filler {
      type: "constant"
      value: 0.01
    }
  }
}
layer {
  name: "inception_3a/pool"
  type: "Pooling"
  bottom: "pool2/3x3_s2"
  top: "inception_3a/pool"
  pooling_param {
    pool: MAX
    kernel_size: 3
    stride: 1
    pad: 1
  }
}
layer {
  name: "inception_3a/pool_proj"
  type: "Convolution"
  bottom: "inception_3a/pool"
  top: "inception_3a/pool_proj"
  param {
    lr_mult: 1
    decay_mult: 1
  }
  param {
    lr_mult: 2
    decay_mult: 0
  }
  convolution_param {
    num_output: 32
    kernel_size: 1
    weight_filler {
      type: "xavier"
    }
    bias_filler {
      type: "constant"
      value: 0.2
    }
  }
}
layer {
  name: "inception_3a/prelu_pool_proj"
  type: "PReLU"
  bottom: "inception_3a/pool_proj"
  top: "inception_3a/pool_proj"
  param {
    lr_mult: 1
    decay_mult: 0
  }
  prelu_param {
    filler {
      type: "constant"
      value: 0.01
    }
  }
}
layer {
  name: "inception_3a/output"
  type: "Concat"
  bottom: "inception_3a/1x1"
  bottom: "inception_3a/3x3"
  bottom: "inception_3a/5x5"
  bottom: "inception_3a/pool_proj"
  top: "inception_3a/output"
}
layer {
  name: "inception_3b/1x1"
  type: "Convolution"
  bottom: "inception_3a/output"
  top: "inception_3b/1x1"
  param {
    lr_mult: 1
    decay_mult: 1
  }
  param {
    lr_mult: 2
    decay_mult: 0
  }
  convolution_param {
    num_output: 128
    kernel_size: 1
    weight_filler {
      type: "xavier"
    }
    bias_filler {
      type: "constant"
      value: 0.2
    }
  }
}
layer {
  name: "inception_3b/prelu_1x1"
  type: "PReLU"
  bottom: "inception_3b/1x1"
  top: "inception_3b/1x1"
  param {
    lr_mult: 1
    decay_mult: 0
  }
  prelu_param {
    filler {
      type: "constant"
      value: 0.01
    }
  }
}
layer {
  name: "inception_3b/3x3_reduce"
  type: "Convolution"
  bottom: "inception_3a/output"
  top: "inception_3b/3x3_reduce"
  param {
    lr_mult: 1
    decay_mult: 1
  }
  param {
    lr_mult: 2
    decay_mult: 0
  }
  convolution_param {
    num_output: 128
    kernel_size: 1
    weight_filler {
      type: "xavier"
    }
    bias_filler {
      type: "constant"
      value: 0.2
    }
  }
}
layer {
  name: "inception_3b/prelu_3x3_reduce"
  type: "PReLU"
  bottom: "inception_3b/3x3_reduce"
  top: "inception_3b/3x3_reduce"
  param {
    lr_mult: 1
    decay_mult: 0
  }
  prelu_param {
    filler {
      type: "constant"
      value: 0.01
    }
  }
}
layer {
  name: "inception_3b/3x3"
  type: "Convolution"
  bottom: "inception_3b/3x3_reduce"
  top: "inception_3b/3x3"
  param {
    lr_mult: 1
    decay_mult: 1
  }
  param {
    lr_mult: 2
    decay_mult: 0
  }
  convolution_param {
    num_output: 192
    pad: 1
    kernel_size: 3
    weight_filler {
      type: "xavier"
    }
    bias_filler {
      type: "constant"
      value: 0.2
    }
  }
}
layer {
  name: "inception_3b/prelu_3x3"
  type: "PReLU"
  bottom: "inception_3b/3x3"
  top: "inception_3b/3x3"
  param {
    lr_mult: 1
    decay_mult: 0
  }
  prelu_param {
    filler {
      type: "constant"
      value: 0.01
    }
  }
}
layer {
  name: "inception_3b/5x5_reduce"
  type: "Convolution"
  bottom: "inception_3a/output"
  top: "inception_3b/5x5_reduce"
  param {
    lr_mult: 1
    decay_mult: 1
  }
  param {
    lr_mult: 2
    decay_mult: 0
  }
  convolution_param {
    num_output: 32
    kernel_size: 1
    weight_filler {
      type: "xavier"
    }
    bias_filler {
      type: "constant"
      value: 0.2
    }
  }
}
layer {
  name: "inception_3b/prelu_5x5_reduce"
  type: "PReLU"
  bottom: "inception_3b/5x5_reduce"
  top: "inception_3b/5x5_reduce"
  param {
    lr_mult: 1
    decay_mult: 0
  }
  prelu_param {
    filler {
      type: "constant"
      value: 0.01
    }
  }
}
layer {
  name: "inception_3b/5x5"
  type: "Convolution"
  bottom: "inception_3b/5x5_reduce"
  top: "inception_3b/5x5"
  param {
    lr_mult: 1
    decay_mult: 1
  }
  param {
    lr_mult: 2
    decay_mult: 0
  }
  convolution_param {
    num_output: 96
    pad: 2
    kernel_size: 5
    weight_filler {
      type: "xavier"
    }
    bias_filler {
      type: "constant"
      value: 0.2
    }
  }
}
layer {
  name: "inception_3b/prelu_5x5"
  type: "PReLU"
  bottom: "inception_3b/5x5"
  top: "inception_3b/5x5"
  param {
    lr_mult: 1
    decay_mult: 0
  }
  prelu_param {
    filler {
      type: "constant"
      value: 0.01
    }
  }
}
layer {
  name: "inception_3b/pool"
  type: "Pooling"
  bottom: "inception_3a/output"
  top: "inception_3b/pool"
  pooling_param {
    pool: MAX
    kernel_size: 3
    stride: 1
    pad: 1
  }
}
layer {
  name: "inception_3b/pool_proj"
  type: "Convolution"
  bottom: "inception_3b/pool"
  top: "inception_3b/pool_proj"
  param {
    lr_mult: 1
    decay_mult: 1
  }
  param {
    lr_mult: 2
    decay_mult: 0
  }
  convolution_param {
    num_output: 64
    kernel_size: 1
    weight_filler {
      type: "xavier"
    }
    bias_filler {
      type: "constant"
      value: 0.2
    }
  }
}
layer {
  name: "inception_3b/prelu_pool_proj"
  type: "PReLU"
  bottom: "inception_3b/pool_proj"
  top: "inception_3b/pool_proj"
  param {
    lr_mult: 1
    decay_mult: 0
  }
  prelu_param {
    filler {
      type: "constant"
      value: 0.01
    }
  }
}
layer {
  name: "inception_3b/output"
  type: "Concat"
  bottom: "inception_3b/1x1"
  bottom: "inception_3b/3x3"
  bottom: "inception_3b/5x5"
  bottom: "inception_3b/pool_proj"
  top: "inception_3b/output"
}
layer {
  name: "pool3/3x3_s2"
  type: "Pooling"
  bottom: "inception_3b/output"
  top: "pool3/3x3_s2"
  pooling_param {
    pool: MAX
    kernel_size: 3
    stride: 2
  }
}
layer {
  name: "inception_4a/1x1"
  type: "Convolution"
  bottom: "pool3/3x3_s2"
  top: "inception_4a/1x1"
  param {
    lr_mult: 1
    decay_mult: 1
  }
  param {
    lr_mult: 2
    decay_mult: 0
  }
  convolution_param {
    num_output: 192
    kernel_size: 1
    weight_filler {
      type: "xavier"
    }
    bias_filler {
      type: "constant"
      value: 0.2
    }
  }
}
layer {
  name: "inception_4a/prelu_1x1"
  type: "PReLU"
  bottom: "inception_4a/1x1"
  top: "inception_4a/1x1"
  param {
    lr_mult: 1
    decay_mult: 0
  }
  prelu_param {
    filler {
      type: "constant"
      value: 0.01
    }
  }
}
layer {
  name: "inception_4a/3x3_reduce"
  type: "Convolution"
  bottom: "pool3/3x3_s2"
  top: "inception_4a/3x3_reduce"
  param {
    lr_mult: 1
    decay_mult: 1
  }
  param {
    lr_mult: 2
    decay_mult: 0
  }
  convolution_param {
    num_output: 96
    kernel_size: 1
    weight_filler {
      type: "xavier"
    }
    bias_filler {
      type: "constant"
      value: 0.2
    }
  }
}
layer {
  name: "inception_4a/prelu_3x3_reduce"
  type: "PReLU"
  bottom: "inception_4a/3x3_reduce"
  top: "inception_4a/3x3_reduce"
  param {
    lr_mult: 1
    decay_mult: 0
  }
  prelu_param {
    filler {
      type: "constant"
      value: 0.01
    }
  }
}
layer {
  name: "inception_4a/3x3"
  type: "Convolution"
  bottom: "inception_4a/3x3_reduce"
  top: "inception_4a/3x3"
  param {
    lr_mult: 1
    decay_mult: 1
  }
  param {
    lr_mult: 2
    decay_mult: 0
  }
  convolution_param {
    num_output: 208
    pad: 1
    kernel_size: 3
    weight_filler {
      type: "xavier"
    }
    bias_filler {
      type: "constant"
      value: 0.2
    }
  }
}
layer {
  name: "inception_4a/prelu_3x3"
  type: "PReLU"
  bottom: "inception_4a/3x3"
  top: "inception_4a/3x3"
  param {
    lr_mult: 1
    decay_mult: 0
  }
  prelu_param {
    filler {
      type: "constant"
      value: 0.01
    }
  }
}
layer {
  name: "inception_4a/5x5_reduce"
  type: "Convolution"
  bottom: "pool3/3x3_s2"
  top: "inception_4a/5x5_reduce"
  param {
    lr_mult: 1
    decay_mult: 1
  }
  param {
    lr_mult: 2
    decay_mult: 0
  }
  convolution_param {
    num_output: 16
    kernel_size: 1
    weight_filler {
      type: "xavier"
    }
    bias_filler {
      type: "constant"
      value: 0.2
    }
  }
}
layer {
  name: "inception_4a/prelu_5x5_reduce"
  type: "PReLU"
  bottom: "inception_4a/5x5_reduce"
  top: "inception_4a/5x5_reduce"
  param {
    lr_mult: 1
    decay_mult: 0
  }
  prelu_param {
    filler {
      type: "constant"
      value: 0.01
    }
  }
}
layer {
  name: "inception_4a/5x5"
  type: "Convolution"
  bottom: "inception_4a/5x5_reduce"
  top: "inception_4a/5x5"
  param {
    lr_mult: 1
    decay_mult: 1
  }
  param {
    lr_mult: 2
    decay_mult: 0
  }
  convolution_param {
    num_output: 48
    pad: 2
    kernel_size: 5
    weight_filler {
      type: "xavier"
    }
    bias_filler {
      type: "constant"
      value: 0.2
    }
  }
}
layer {
  name: "inception_4a/prelu_5x5"
  type: "PReLU"
  bottom: "inception_4a/5x5"
  top: "inception_4a/5x5"
  param {
    lr_mult: 1
    decay_mult: 0
  }
  prelu_param {
    filler {
      type: "constant"
      value: 0.01
    }
  }
}
layer {
  name: "inception_4a/pool"
  type: "Pooling"
  bottom: "pool3/3x3_s2"
  top: "inception_4a/pool"
  pooling_param {
    pool: MAX
    kernel_size: 3
    stride: 1
    pad: 1
  }
}
layer {
  name: "inception_4a/pool_proj"
  type: "Convolution"
  bottom: "inception_4a/pool"
  top: "inception_4a/pool_proj"
  param {
    lr_mult: 1
    decay_mult: 1
  }
  param {
    lr_mult: 2
    decay_mult: 0
  }
  convolution_param {
    num_output: 64
    kernel_size: 1
    weight_filler {
      type: "xavier"
    }
    bias_filler {
      type: "constant"
      value: 0.2
    }
  }
}
layer {
  name: "inception_4a/prelu_pool_proj"
  type: "PReLU"
  bottom: "inception_4a/pool_proj"
  top: "inception_4a/pool_proj"
  param {
    lr_mult: 1
    decay_mult: 0
  }
  prelu_param {
    filler {
      type: "constant"
      value: 0.01
    }
  }
}
layer {
  name: "inception_4a/output"
  type: "Concat"
  bottom: "inception_4a/1x1"
  bottom: "inception_4a/3x3"
  bottom: "inception_4a/5x5"
  bottom: "inception_4a/pool_proj"
  top: "inception_4a/output"
}
layer {
  name: "loss1/ave_pool"
  type: "Pooling"
  bottom: "inception_4a/output"
  top: "loss1/ave_pool"
  pooling_param {
    pool: AVE
    kernel_size: 5
    stride: 3
  }
}
layer {
  name: "loss1/conv"
  type: "Convolution"
  bottom: "loss1/ave_pool"
  top: "loss1/conv"
  param {
    lr_mult: 1
    decay_mult: 1
  }
  param {
    lr_mult: 2
    decay_mult: 0
  }
  convolution_param {
    num_output: 128
    kernel_size: 1
    weight_filler {
      type: "xavier"
    }
    bias_filler {
      type: "constant"
      value: 0.2
    }
  }
}
layer {
  name: "loss1/prelu_conv"
  type: "PReLU"
  bottom: "loss1/conv"
  top: "loss1/conv"
  param {
    lr_mult: 1
    decay_mult: 0
  }
  prelu_param {
    filler {
      type: "constant"
      value: 0.01
    }
  }
}
layer {
  name: "loss1/fc"
  type: "InnerProduct"
  bottom: "loss1/conv"
  top: "loss1/fc"
  param {
    lr_mult: 1
    decay_mult: 1
  }
  param {
    lr_mult: 2
    decay_mult: 0
  }
  inner_product_param {
    num_output: 1024
    weight_filler {
      type: "xavier"
    }
    bias_filler {
      type: "constant"
      value: 0.2
    }
  }
}
layer {
  name: "loss1/prelu_fc"
  type: "PReLU"
  bottom: "loss1/fc"
  top: "loss1/fc"
  param {
    lr_mult: 1
    decay_mult: 0
  }
  prelu_param {
    filler {
      type: "constant"
      value: 0.01
    }
  }
}
layer {
  name: "loss1/drop_fc"
  type: "Dropout"
  bottom: "loss1/fc"
  top: "loss1/fc"
  dropout_param {
    dropout_ratio: 0.7
  }
}
layer {
  name: "loss1/classifier2"
  type: "InnerProduct"
  bottom: "loss1/fc"
  top: "loss1/classifier"
  param {
    lr_mult: 1
    decay_mult: 1
  }
  param {
    lr_mult: 2
    decay_mult: 0
  }
  inner_product_param {
    num_output: 2
    weight_filler {
      type: "xavier"
    }
    bias_filler {
      type: "constant"
      value: 0
    }
  }
}
layer {
  name: "loss1/loss"
  type: "SoftmaxWithLoss"
  bottom: "loss1/classifier"
  bottom: "label"
  top: "loss1/loss1"
  loss_weight: 0.3
}
layer {
  name: "inception_4b/1x1"
  type: "Convolution"
  bottom: "inception_4a/output"
  top: "inception_4b/1x1"
  param {
    lr_mult: 1
    decay_mult: 1
  }
  param {
    lr_mult: 2
    decay_mult: 0
  }
  convolution_param {
    num_output: 160
    kernel_size: 1
    weight_filler {
      type: "xavier"
    }
    bias_filler {
      type: "constant"
      value: 0.2
    }
  }
}
layer {
  name: "inception_4b/prelu_1x1"
  type: "PReLU"
  bottom: "inception_4b/1x1"
  top: "inception_4b/1x1"
  param {
    lr_mult: 1
    decay_mult: 0
  }
  prelu_param {
    filler {
      type: "constant"
      value: 0.01
    }
  }
}
layer {
  name: "inception_4b/3x3_reduce"
  type: "Convolution"
  bottom: "inception_4a/output"
  top: "inception_4b/3x3_reduce"
  param {
    lr_mult: 1
    decay_mult: 1
  }
  param {
    lr_mult: 2
    decay_mult: 0
  }
  convolution_param {
    num_output: 112
    kernel_size: 1
    weight_filler {
      type: "xavier"
    }
    bias_filler {
      type: "constant"
      value: 0.2
    }
  }
}
layer {
  name: "inception_4b/prelu_3x3_reduce"
  type: "PReLU"
  bottom: "inception_4b/3x3_reduce"
  top: "inception_4b/3x3_reduce"
  param {
    lr_mult: 1
    decay_mult: 0
  }
  prelu_param {
    filler {
      type: "constant"
      value: 0.01
    }
  }
}
layer {
  name: "inception_4b/3x3"
  type: "Convolution"
  bottom: "inception_4b/3x3_reduce"
  top: "inception_4b/3x3"
  param {
    lr_mult: 1
    decay_mult: 1
  }
  param {
    lr_mult: 2
    decay_mult: 0
  }
  convolution_param {
    num_output: 224
    pad: 1
    kernel_size: 3
    weight_filler {
      type: "xavier"
    }
    bias_filler {
      type: "constant"
      value: 0.2
    }
  }
}
layer {
  name: "inception_4b/prelu_3x3"
  type: "PReLU"
  bottom: "inception_4b/3x3"
  top: "inception_4b/3x3"
  param {
    lr_mult: 1
    decay_mult: 0
  }
  prelu_param {
    filler {
      type: "constant"
      value: 0.01
    }
  }
}
layer {
  name: "inception_4b/5x5_reduce"
  type: "Convolution"
  bottom: "inception_4a/output"
  top: "inception_4b/5x5_reduce"
  param {
    lr_mult: 1
    decay_mult: 1
  }
  param {
    lr_mult: 2
    decay_mult: 0
  }
  convolution_param {
    num_output: 24
    kernel_size: 1
    weight_filler {
      type: "xavier"
    }
    bias_filler {
      type: "constant"
      value: 0.2
    }
  }
}
layer {
  name: "inception_4b/prelu_5x5_reduce"
  type: "PReLU"
  bottom: "inception_4b/5x5_reduce"
  top: "inception_4b/5x5_reduce"
  param {
    lr_mult: 1
    decay_mult: 0
  }
  prelu_param {
    filler {
      type: "constant"
      value: 0.01
    }
  }
}
layer {
  name: "inception_4b/5x5"
  type: "Convolution"
  bottom: "inception_4b/5x5_reduce"
  top: "inception_4b/5x5"
  param {
    lr_mult: 1
    decay_mult: 1
  }
  param {
    lr_mult: 2
    decay_mult: 0
  }
  convolution_param {
    num_output: 64
    pad: 2
    kernel_size: 5
    weight_filler {
      type: "xavier"
    }
    bias_filler {
      type: "constant"
      value: 0.2
    }
  }
}
layer {
  name: "inception_4b/prelu_5x5"
  type: "PReLU"
  bottom: "inception_4b/5x5"
  top: "inception_4b/5x5"
  param {
    lr_mult: 1
    decay_mult: 0
  }
  prelu_param {
    filler {
      type: "constant"
      value: 0.01
    }
  }
}
layer {
  name: "inception_4b/pool"
  type: "Pooling"
  bottom: "inception_4a/output"
  top: "inception_4b/pool"
  pooling_param {
    pool: MAX
    kernel_size: 3
    stride: 1
    pad: 1
  }
}
layer {
  name: "inception_4b/pool_proj"
  type: "Convolution"
  bottom: "inception_4b/pool"
  top: "inception_4b/pool_proj"
  param {
    lr_mult: 1
    decay_mult: 1
  }
  param {
    lr_mult: 2
    decay_mult: 0
  }
  convolution_param {
    num_output: 64
    kernel_size: 1
    weight_filler {
      type: "xavier"
    }
    bias_filler {
      type: "constant"
      value: 0.2
    }
  }
}
layer {
  name: "inception_4b/prelu_pool_proj"
  type: "PReLU"
  bottom: "inception_4b/pool_proj"
  top: "inception_4b/pool_proj"
  param {
    lr_mult: 1
    decay_mult: 0
  }
  prelu_param {
    filler {
      type: "constant"
      value: 0.01
    }
  }
}
layer {
  name: "inception_4b/output"
  type: "Concat"
  bottom: "inception_4b/1x1"
  bottom: "inception_4b/3x3"
  bottom: "inception_4b/5x5"
  bottom: "inception_4b/pool_proj"
  top: "inception_4b/output"
}
layer {
  name: "inception_4c/1x1"
  type: "Convolution"
  bottom: "inception_4b/output"
  top: "inception_4c/1x1"
  param {
    lr_mult: 1
    decay_mult: 1
  }
  param {
    lr_mult: 2
    decay_mult: 0
  }
  convolution_param {
    num_output: 128
    kernel_size: 1
    weight_filler {
      type: "xavier"
    }
    bias_filler {
      type: "constant"
      value: 0.2
    }
  }
}
layer {
  name: "inception_4c/prelu_1x1"
  type: "PReLU"
  bottom: "inception_4c/1x1"
  top: "inception_4c/1x1"
  param {
    lr_mult: 1
    decay_mult: 0
  }
  prelu_param {
    filler {
      type: "constant"
      value: 0.01
    }
  }
}
layer {
  name: "inception_4c/3x3_reduce"
  type: "Convolution"
  bottom: "inception_4b/output"
  top: "inception_4c/3x3_reduce"
  param {
    lr_mult: 1
    decay_mult: 1
  }
  param {
    lr_mult: 2
    decay_mult: 0
  }
  convolution_param {
    num_output: 128
    kernel_size: 1
    weight_filler {
      type: "xavier"
    }
    bias_filler {
      type: "constant"
      value: 0.2
    }
  }
}
layer {
  name: "inception_4c/prelu_3x3_reduce"
  type: "PReLU"
  bottom: "inception_4c/3x3_reduce"
  top: "inception_4c/3x3_reduce"
  param {
    lr_mult: 1
    decay_mult: 0
  }
  prelu_param {
    filler {
      type: "constant"
      value: 0.01
    }
  }
}
layer {
  name: "inception_4c/3x3"
  type: "Convolution"
  bottom: "inception_4c/3x3_reduce"
  top: "inception_4c/3x3"
  param {
    lr_mult: 1
    decay_mult: 1
  }
  param {
    lr_mult: 2
    decay_mult: 0
  }
  convolution_param {
    num_output: 256
    pad: 1
    kernel_size: 3
    weight_filler {
      type: "xavier"
    }
    bias_filler {
      type: "constant"
      value: 0.2
    }
  }
}
layer {
  name: "inception_4c/prelu_3x3"
  type: "PReLU"
  bottom: "inception_4c/3x3"
  top: "inception_4c/3x3"
  param {
    lr_mult: 1
    decay_mult: 0
  }
  prelu_param {
    filler {
      type: "constant"
      value: 0.01
    }
  }
}
layer {
  name: "inception_4c/5x5_reduce"
  type: "Convolution"
  bottom: "inception_4b/output"
  top: "inception_4c/5x5_reduce"
  param {
    lr_mult: 1
    decay_mult: 1
  }
  param {
    lr_mult: 2
    decay_mult: 0
  }
  convolution_param {
    num_output: 24
    kernel_size: 1
    weight_filler {
      type: "xavier"
    }
    bias_filler {
      type: "constant"
      value: 0.2
    }
  }
}
layer {
  name: "inception_4c/prelu_5x5_reduce"
  type: "PReLU"
  bottom: "inception_4c/5x5_reduce"
  top: "inception_4c/5x5_reduce"
  param {
    lr_mult: 1
    decay_mult: 0
  }
  prelu_param {
    filler {
      type: "constant"
      value: 0.01
    }
  }
}
layer {
  name: "inception_4c/5x5"
  type: "Convolution"
  bottom: "inception_4c/5x5_reduce"
  top: "inception_4c/5x5"
  param {
    lr_mult: 1
    decay_mult: 1
  }
  param {
    lr_mult: 2
    decay_mult: 0
  }
  convolution_param {
    num_output: 64
    pad: 2
    kernel_size: 5
    weight_filler {
      type: "xavier"
    }
    bias_filler {
      type: "constant"
      value: 0.2
    }
  }
}
layer {
  name: "inception_4c/prelu_5x5"
  type: "PReLU"
  bottom: "inception_4c/5x5"
  top: "inception_4c/5x5"
  param {
    lr_mult: 1
    decay_mult: 0
  }
  prelu_param {
    filler {
      type: "constant"
      value: 0.01
    }
  }
}
layer {
  name: "inception_4c/pool"
  type: "Pooling"
  bottom: "inception_4b/output"
  top: "inception_4c/pool"
  pooling_param {
    pool: MAX
    kernel_size: 3
    stride: 1
    pad: 1
  }
}
layer {
  name: "inception_4c/pool_proj"
  type: "Convolution"
  bottom: "inception_4c/pool"
  top: "inception_4c/pool_proj"
  param {
    lr_mult: 1
    decay_mult: 1
  }
  param {
    lr_mult: 2
    decay_mult: 0
  }
  convolution_param {
    num_output: 64
    kernel_size: 1
    weight_filler {
      type: "xavier"
    }
    bias_filler {
      type: "constant"
      value: 0.2
    }
  }
}
layer {
  name: "inception_4c/prelu_pool_proj"
  type: "PReLU"
  bottom: "inception_4c/pool_proj"
  top: "inception_4c/pool_proj"
  param {
    lr_mult: 1
    decay_mult: 0
  }
  prelu_param {
    filler {
      type: "constant"
      value: 0.01
    }
  }
}
layer {
  name: "inception_4c/output"
  type: "Concat"
  bottom: "inception_4c/1x1"
  bottom: "inception_4c/3x3"
  bottom: "inception_4c/5x5"
  bottom: "inception_4c/pool_proj"
  top: "inception_4c/output"
}
layer {
  name: "inception_4d/1x1"
  type: "Convolution"
  bottom: "inception_4c/output"
  top: "inception_4d/1x1"
  param {
    lr_mult: 1
    decay_mult: 1
  }
  param {
    lr_mult: 2
    decay_mult: 0
  }
  convolution_param {
    num_output: 112
    kernel_size: 1
    weight_filler {
      type: "xavier"
    }
    bias_filler {
      type: "constant"
      value: 0.2
    }
  }
}
layer {
  name: "inception_4d/prelu_1x1"
  type: "PReLU"
  bottom: "inception_4d/1x1"
  top: "inception_4d/1x1"
  param {
    lr_mult: 1
    decay_mult: 0
  }
  prelu_param {
    filler {
      type: "constant"
      value: 0.01
    }
  }
}
layer {
  name: "inception_4d/3x3_reduce"
  type: "Convolution"
  bottom: "inception_4c/output"
  top: "inception_4d/3x3_reduce"
  param {
    lr_mult: 1
    decay_mult: 1
  }
  param {
    lr_mult: 2
    decay_mult: 0
  }
  convolution_param {
    num_output: 144
    kernel_size: 1
    weight_filler {
      type: "xavier"
    }
    bias_filler {
      type: "constant"
      value: 0.2
    }
  }
}
layer {
  name: "inception_4d/prelu_3x3_reduce"
  type: "PReLU"
  bottom: "inception_4d/3x3_reduce"
  top: "inception_4d/3x3_reduce"
  param {
    lr_mult: 1
    decay_mult: 0
  }
  prelu_param {
    filler {
      type: "constant"
      value: 0.01
    }
  }
}
layer {
  name: "inception_4d/3x3"
  type: "Convolution"
  bottom: "inception_4d/3x3_reduce"
  top: "inception_4d/3x3"
  param {
    lr_mult: 1
    decay_mult: 1
  }
  param {
    lr_mult: 2
    decay_mult: 0
  }
  convolution_param {
    num_output: 288
    pad: 1
    kernel_size: 3
    weight_filler {
      type: "xavier"
    }
    bias_filler {
      type: "constant"
      value: 0.2
    }
  }
}
layer {
  name: "inception_4d/prelu_3x3"
  type: "PReLU"
  bottom: "inception_4d/3x3"
  top: "inception_4d/3x3"
  param {
    lr_mult: 1
    decay_mult: 0
  }
  prelu_param {
    filler {
      type: "constant"
      value: 0.01
    }
  }
}
layer {
  name: "inception_4d/5x5_reduce"
  type: "Convolution"
  bottom: "inception_4c/output"
  top: "inception_4d/5x5_reduce"
  param {
    lr_mult: 1
    decay_mult: 1
  }
  param {
    lr_mult: 2
    decay_mult: 0
  }
  convolution_param {
    num_output: 32
    kernel_size: 1
    weight_filler {
      type: "xavier"
    }
    bias_filler {
      type: "constant"
      value: 0.2
    }
  }
}
layer {
  name: "inception_4d/prelu_5x5_reduce"
  type: "PReLU"
  bottom: "inception_4d/5x5_reduce"
  top: "inception_4d/5x5_reduce"
  param {
    lr_mult: 1
    decay_mult: 0
  }
  prelu_param {
    filler {
      type: "constant"
      value: 0.01
    }
  }
}
layer {
  name: "inception_4d/5x5"
  type: "Convolution"
  bottom: "inception_4d/5x5_reduce"
  top: "inception_4d/5x5"
  param {
    lr_mult: 1
    decay_mult: 1
  }
  param {
    lr_mult: 2
    decay_mult: 0
  }
  convolution_param {
    num_output: 64
    pad: 2
    kernel_size: 5
    weight_filler {
      type: "xavier"
    }
    bias_filler {
      type: "constant"
      value: 0.2
    }
  }
}
layer {
  name: "inception_4d/prelu_5x5"
  type: "PReLU"
  bottom: "inception_4d/5x5"
  top: "inception_4d/5x5"
  param {
    lr_mult: 1
    decay_mult: 0
  }
  prelu_param {
    filler {
      type: "constant"
      value: 0.01
    }
  }
}
layer {
  name: "inception_4d/pool"
  type: "Pooling"
  bottom: "inception_4c/output"
  top: "inception_4d/pool"
  pooling_param {
    pool: MAX
    kernel_size: 3
    stride: 1
    pad: 1
  }
}
layer {
  name: "inception_4d/pool_proj"
  type: "Convolution"
  bottom: 
I1126 10:11:21.356196 10315 layer_factory.hpp:76] Creating layer data
I1126 10:11:21.356950 10315 net.cpp:106] Creating Layer data
I1126 10:11:21.356964 10315 net.cpp:411] data -> data
I1126 10:11:21.357017 10315 net.cpp:411] data -> label
I1126 10:11:21.382428 10319 db_lmdb.cpp:38] Opened lmdb ../../LMDB-s300/train_3-lmdb
I1126 10:11:21.411850 10315 data_layer.cpp:41] output data size: 32,3,224,224
I1126 10:11:21.480615 10315 net.cpp:150] Setting up data
I1126 10:11:21.480671 10315 net.cpp:157] Top shape: 32 3 224 224 (4816896)
I1126 10:11:21.480679 10315 net.cpp:157] Top shape: 32 (32)
I1126 10:11:21.480684 10315 net.cpp:165] Memory required for data: 19267712
I1126 10:11:21.480701 10315 layer_factory.hpp:76] Creating layer label_data_1_split
I1126 10:11:21.480731 10315 net.cpp:106] Creating Layer label_data_1_split
I1126 10:11:21.480737 10315 net.cpp:454] label_data_1_split <- label
I1126 10:11:21.480753 10315 net.cpp:411] label_data_1_split -> label_data_1_split_0
I1126 10:11:21.480764 10315 net.cpp:411] label_data_1_split -> label_data_1_split_1
I1126 10:11:21.480772 10315 net.cpp:411] label_data_1_split -> label_data_1_split_2
I1126 10:11:21.480844 10315 net.cpp:150] Setting up label_data_1_split
I1126 10:11:21.480850 10315 net.cpp:157] Top shape: 32 (32)
I1126 10:11:21.480856 10315 net.cpp:157] Top shape: 32 (32)
I1126 10:11:21.480860 10315 net.cpp:157] Top shape: 32 (32)
I1126 10:11:21.480865 10315 net.cpp:165] Memory required for data: 19268096
I1126 10:11:21.480876 10315 layer_factory.hpp:76] Creating layer conv1/7x7_s2
I1126 10:11:21.480892 10315 net.cpp:106] Creating Layer conv1/7x7_s2
I1126 10:11:21.480897 10315 net.cpp:454] conv1/7x7_s2 <- data
I1126 10:11:21.480903 10315 net.cpp:411] conv1/7x7_s2 -> conv1/7x7_s2
I1126 10:11:21.544944 10320 blocking_queue.cpp:50] Waiting for data
I1126 10:11:21.701133 10315 cudnn_conv_layer.cpp:194] Reallocating workspace storage: 225816
I1126 10:11:21.701369 10315 net.cpp:150] Setting up conv1/7x7_s2
I1126 10:11:21.701383 10315 net.cpp:157] Top shape: 32 64 112 112 (25690112)
I1126 10:11:21.701388 10315 net.cpp:165] Memory required for data: 122028544
I1126 10:11:21.701408 10315 layer_factory.hpp:76] Creating layer conv1/prelu_7x7
I1126 10:11:21.701426 10315 net.cpp:106] Creating Layer conv1/prelu_7x7
I1126 10:11:21.701432 10315 net.cpp:454] conv1/prelu_7x7 <- conv1/7x7_s2
I1126 10:11:21.701441 10315 net.cpp:397] conv1/prelu_7x7 -> conv1/7x7_s2 (in-place)
I1126 10:11:21.703306 10315 net.cpp:150] Setting up conv1/prelu_7x7
I1126 10:11:21.703325 10315 net.cpp:157] Top shape: 32 64 112 112 (25690112)
I1126 10:11:21.703330 10315 net.cpp:165] Memory required for data: 224788992
I1126 10:11:21.703340 10315 layer_factory.hpp:76] Creating layer pool1/3x3_s2
I1126 10:11:21.703351 10315 net.cpp:106] Creating Layer pool1/3x3_s2
I1126 10:11:21.703357 10315 net.cpp:454] pool1/3x3_s2 <- conv1/7x7_s2
I1126 10:11:21.703364 10315 net.cpp:411] pool1/3x3_s2 -> pool1/3x3_s2
I1126 10:11:21.703775 10315 net.cpp:150] Setting up pool1/3x3_s2
I1126 10:11:21.703786 10315 net.cpp:157] Top shape: 32 64 56 56 (6422528)
I1126 10:11:21.703790 10315 net.cpp:165] Memory required for data: 250479104
I1126 10:11:21.703795 10315 layer_factory.hpp:76] Creating layer pool1/norm1
I1126 10:11:21.703809 10315 net.cpp:106] Creating Layer pool1/norm1
I1126 10:11:21.703814 10315 net.cpp:454] pool1/norm1 <- pool1/3x3_s2
I1126 10:11:21.703820 10315 net.cpp:411] pool1/norm1 -> pool1/norm1
I1126 10:11:21.703974 10315 net.cpp:150] Setting up pool1/norm1
I1126 10:11:21.703982 10315 net.cpp:157] Top shape: 32 64 56 56 (6422528)
I1126 10:11:21.703987 10315 net.cpp:165] Memory required for data: 276169216
I1126 10:11:21.703991 10315 layer_factory.hpp:76] Creating layer conv2/3x3_reduce
I1126 10:11:21.704001 10315 net.cpp:106] Creating Layer conv2/3x3_reduce
I1126 10:11:21.704006 10315 net.cpp:454] conv2/3x3_reduce <- pool1/norm1
I1126 10:11:21.704012 10315 net.cpp:411] conv2/3x3_reduce -> conv2/3x3_reduce
I1126 10:11:21.705659 10315 cudnn_conv_layer.cpp:194] Reallocating workspace storage: 63000
I1126 10:11:21.705693 10315 net.cpp:150] Setting up conv2/3x3_reduce
I1126 10:11:21.705703 10315 net.cpp:157] Top shape: 32 64 56 56 (6422528)
I1126 10:11:21.705708 10315 net.cpp:165] Memory required for data: 301859328
I1126 10:11:21.705731 10315 layer_factory.hpp:76] Creating layer conv2/prelu_3x3_reduce
I1126 10:11:21.705749 10315 net.cpp:106] Creating Layer conv2/prelu_3x3_reduce
I1126 10:11:21.705765 10315 net.cpp:454] conv2/prelu_3x3_reduce <- conv2/3x3_reduce
I1126 10:11:21.705773 10315 net.cpp:397] conv2/prelu_3x3_reduce -> conv2/3x3_reduce (in-place)
I1126 10:11:21.706557 10315 net.cpp:150] Setting up conv2/prelu_3x3_reduce
I1126 10:11:21.706568 10315 net.cpp:157] Top shape: 32 64 56 56 (6422528)
I1126 10:11:21.706581 10315 net.cpp:165] Memory required for data: 327549440
I1126 10:11:21.706588 10315 layer_factory.hpp:76] Creating layer conv2/3x3
I1126 10:11:21.706604 10315 net.cpp:106] Creating Layer conv2/3x3
I1126 10:11:21.706611 10315 net.cpp:454] conv2/3x3 <- conv2/3x3_reduce
I1126 10:11:21.706624 10315 net.cpp:411] conv2/3x3 -> conv2/3x3
I1126 10:11:21.708752 10315 cudnn_conv_layer.cpp:194] Reallocating workspace storage: 63000
I1126 10:11:21.708773 10315 net.cpp:150] Setting up conv2/3x3
I1126 10:11:21.708782 10315 net.cpp:157] Top shape: 32 192 56 56 (19267584)
I1126 10:11:21.708786 10315 net.cpp:165] Memory required for data: 404619776
I1126 10:11:21.708794 10315 layer_factory.hpp:76] Creating layer conv2/prelu_3x3
I1126 10:11:21.708803 10315 net.cpp:106] Creating Layer conv2/prelu_3x3
I1126 10:11:21.708808 10315 net.cpp:454] conv2/prelu_3x3 <- conv2/3x3
I1126 10:11:21.708814 10315 net.cpp:397] conv2/prelu_3x3 -> conv2/3x3 (in-place)
I1126 10:11:21.710011 10315 net.cpp:150] Setting up conv2/prelu_3x3
I1126 10:11:21.710024 10315 net.cpp:157] Top shape: 32 192 56 56 (19267584)
I1126 10:11:21.710053 10315 net.cpp:165] Memory required for data: 481690112
I1126 10:11:21.710064 10315 layer_factory.hpp:76] Creating layer conv2/norm2
I1126 10:11:21.710074 10315 net.cpp:106] Creating Layer conv2/norm2
I1126 10:11:21.710078 10315 net.cpp:454] conv2/norm2 <- conv2/3x3
I1126 10:11:21.710085 10315 net.cpp:411] conv2/norm2 -> conv2/norm2
I1126 10:11:21.710249 10315 net.cpp:150] Setting up conv2/norm2
I1126 10:11:21.710258 10315 net.cpp:157] Top shape: 32 192 56 56 (19267584)
I1126 10:11:21.710263 10315 net.cpp:165] Memory required for data: 558760448
I1126 10:11:21.710268 10315 layer_factory.hpp:76] Creating layer pool2/3x3_s2
I1126 10:11:21.710275 10315 net.cpp:106] Creating Layer pool2/3x3_s2
I1126 10:11:21.710280 10315 net.cpp:454] pool2/3x3_s2 <- conv2/norm2
I1126 10:11:21.710286 10315 net.cpp:411] pool2/3x3_s2 -> pool2/3x3_s2
I1126 10:11:21.710660 10315 net.cpp:150] Setting up pool2/3x3_s2
I1126 10:11:21.710677 10315 net.cpp:157] Top shape: 32 192 28 28 (4816896)
I1126 10:11:21.710685 10315 net.cpp:165] Memory required for data: 578028032
I1126 10:11:21.710692 10315 layer_factory.hpp:76] Creating layer pool2/3x3_s2_pool2/3x3_s2_0_split
I1126 10:11:21.710705 10315 net.cpp:106] Creating Layer pool2/3x3_s2_pool2/3x3_s2_0_split
I1126 10:11:21.710714 10315 net.cpp:454] pool2/3x3_s2_pool2/3x3_s2_0_split <- pool2/3x3_s2
I1126 10:11:21.710724 10315 net.cpp:411] pool2/3x3_s2_pool2/3x3_s2_0_split -> pool2/3x3_s2_pool2/3x3_s2_0_split_0
I1126 10:11:21.710736 10315 net.cpp:411] pool2/3x3_s2_pool2/3x3_s2_0_split -> pool2/3x3_s2_pool2/3x3_s2_0_split_1
I1126 10:11:21.710748 10315 net.cpp:411] pool2/3x3_s2_pool2/3x3_s2_0_split -> pool2/3x3_s2_pool2/3x3_s2_0_split_2
I1126 10:11:21.710759 10315 net.cpp:411] pool2/3x3_s2_pool2/3x3_s2_0_split -> pool2/3x3_s2_pool2/3x3_s2_0_split_3
I1126 10:11:21.710832 10315 net.cpp:150] Setting up pool2/3x3_s2_pool2/3x3_s2_0_split
I1126 10:11:21.710844 10315 net.cpp:157] Top shape: 32 192 28 28 (4816896)
I1126 10:11:21.710854 10315 net.cpp:157] Top shape: 32 192 28 28 (4816896)
I1126 10:11:21.710862 10315 net.cpp:157] Top shape: 32 192 28 28 (4816896)
I1126 10:11:21.710871 10315 net.cpp:157] Top shape: 32 192 28 28 (4816896)
I1126 10:11:21.710878 10315 net.cpp:165] Memory required for data: 655098368
I1126 10:11:21.710886 10315 layer_factory.hpp:76] Creating layer inception_3a/1x1
I1126 10:11:21.710902 10315 net.cpp:106] Creating Layer inception_3a/1x1
I1126 10:11:21.710911 10315 net.cpp:454] inception_3a/1x1 <- pool2/3x3_s2_pool2/3x3_s2_0_split_0
I1126 10:11:21.710927 10315 net.cpp:411] inception_3a/1x1 -> inception_3a/1x1
I1126 10:11:21.712743 10315 cudnn_conv_layer.cpp:194] Reallocating workspace storage: 20664
I1126 10:11:21.712802 10315 net.cpp:150] Setting up inception_3a/1x1
I1126 10:11:21.712820 10315 net.cpp:157] Top shape: 32 64 28 28 (1605632)
I1126 10:11:21.712828 10315 net.cpp:165] Memory required for data: 661520896
I1126 10:11:21.712843 10315 layer_factory.hpp:76] Creating layer inception_3a/prelu_1x1
I1126 10:11:21.712859 10315 net.cpp:106] Creating Layer inception_3a/prelu_1x1
I1126 10:11:21.712868 10315 net.cpp:454] inception_3a/prelu_1x1 <- inception_3a/1x1
I1126 10:11:21.712882 10315 net.cpp:397] inception_3a/prelu_1x1 -> inception_3a/1x1 (in-place)
I1126 10:11:21.713505 10315 net.cpp:150] Setting up inception_3a/prelu_1x1
I1126 10:11:21.713515 10315 net.cpp:157] Top shape: 32 64 28 28 (1605632)
I1126 10:11:21.713521 10315 net.cpp:165] Memory required for data: 667943424
I1126 10:11:21.713526 10315 layer_factory.hpp:76] Creating layer inception_3a/3x3_reduce
I1126 10:11:21.713538 10315 net.cpp:106] Creating Layer inception_3a/3x3_reduce
I1126 10:11:21.713543 10315 net.cpp:454] inception_3a/3x3_reduce <- pool2/3x3_s2_pool2/3x3_s2_0_split_1
I1126 10:11:21.713551 10315 net.cpp:411] inception_3a/3x3_reduce -> inception_3a/3x3_reduce
I1126 10:11:21.714443 10315 cudnn_conv_layer.cpp:194] Reallocating workspace storage: 20664
I1126 10:11:21.714463 10315 net.cpp:150] Setting up inception_3a/3x3_reduce
I1126 10:11:21.714471 10315 net.cpp:157] Top shape: 32 96 28 28 (2408448)
I1126 10:11:21.714499 10315 net.cpp:165] Memory required for data: 677577216
I1126 10:11:21.714507 10315 layer_factory.hpp:76] Creating layer inception_3a/prelu_3x3_reduce
I1126 10:11:21.714519 10315 net.cpp:106] Creating Layer inception_3a/prelu_3x3_reduce
I1126 10:11:21.714524 10315 net.cpp:454] inception_3a/prelu_3x3_reduce <- inception_3a/3x3_reduce
I1126 10:11:21.714530 10315 net.cpp:397] inception_3a/prelu_3x3_reduce -> inception_3a/3x3_reduce (in-place)
I1126 10:11:21.714663 10315 net.cpp:150] Setting up inception_3a/prelu_3x3_reduce
I1126 10:11:21.714673 10315 net.cpp:157] Top shape: 32 96 28 28 (2408448)
I1126 10:11:21.714676 10315 net.cpp:165] Memory required for data: 687211008
I1126 10:11:21.714682 10315 layer_factory.hpp:76] Creating layer inception_3a/3x3
I1126 10:11:21.714690 10315 net.cpp:106] Creating Layer inception_3a/3x3
I1126 10:11:21.714695 10315 net.cpp:454] inception_3a/3x3 <- inception_3a/3x3_reduce
I1126 10:11:21.714701 10315 net.cpp:411] inception_3a/3x3 -> inception_3a/3x3
I1126 10:11:21.717041 10315 cudnn_conv_layer.cpp:194] Reallocating workspace storage: 20664
I1126 10:11:21.717084 10315 net.cpp:150] Setting up inception_3a/3x3
I1126 10:11:21.717097 10315 net.cpp:157] Top shape: 32 128 28 28 (3211264)
I1126 10:11:21.717102 10315 net.cpp:165] Memory required for data: 700056064
I1126 10:11:21.717116 10315 layer_factory.hpp:76] Creating layer inception_3a/prelu_3x3
I1126 10:11:21.717133 10315 net.cpp:106] Creating Layer inception_3a/prelu_3x3
I1126 10:11:21.717139 10315 net.cpp:454] inception_3a/prelu_3x3 <- inception_3a/3x3
I1126 10:11:21.717146 10315 net.cpp:397] inception_3a/prelu_3x3 -> inception_3a/3x3 (in-place)
I1126 10:11:21.717290 10315 net.cpp:150] Setting up inception_3a/prelu_3x3
I1126 10:11:21.717300 10315 net.cpp:157] Top shape: 32 128 28 28 (3211264)
I1126 10:11:21.717304 10315 net.cpp:165] Memory required for data: 712901120
I1126 10:11:21.717310 10315 layer_factory.hpp:76] Creating layer inception_3a/5x5_reduce
I1126 10:11:21.717324 10315 net.cpp:106] Creating Layer inception_3a/5x5_reduce
I1126 10:11:21.717329 10315 net.cpp:454] inception_3a/5x5_reduce <- pool2/3x3_s2_pool2/3x3_s2_0_split_2
I1126 10:11:21.717337 10315 net.cpp:411] inception_3a/5x5_reduce -> inception_3a/5x5_reduce
I1126 10:11:21.718657 10315 cudnn_conv_layer.cpp:194] Reallocating workspace storage: 20664
I1126 10:11:21.718688 10315 net.cpp:150] Setting up inception_3a/5x5_reduce
I1126 10:11:21.718700 10315 net.cpp:157] Top shape: 32 16 28 28 (401408)
I1126 10:11:21.718705 10315 net.cpp:165] Memory required for data: 714506752
I1126 10:11:21.718715 10315 layer_factory.hpp:76] Creating layer inception_3a/prelu_5x5_reduce
I1126 10:11:21.718734 10315 net.cpp:106] Creating Layer inception_3a/prelu_5x5_reduce
I1126 10:11:21.718741 10315 net.cpp:454] inception_3a/prelu_5x5_reduce <- inception_3a/5x5_reduce
I1126 10:11:21.718749 10315 net.cpp:397] inception_3a/prelu_5x5_reduce -> inception_3a/5x5_reduce (in-place)
I1126 10:11:21.718849 10315 net.cpp:150] Setting up inception_3a/prelu_5x5_reduce
I1126 10:11:21.718858 10315 net.cpp:157] Top shape: 32 16 28 28 (401408)
I1126 10:11:21.718863 10315 net.cpp:165] Memory required for data: 716112384
I1126 10:11:21.718868 10315 layer_factory.hpp:76] Creating layer inception_3a/5x5
I1126 10:11:21.718880 10315 net.cpp:106] Creating Layer inception_3a/5x5
I1126 10:11:21.718884 10315 net.cpp:454] inception_3a/5x5 <- inception_3a/5x5_reduce
I1126 10:11:21.718893 10315 net.cpp:411] inception_3a/5x5 -> inception_3a/5x5
I1126 10:11:21.720057 10315 cudnn_conv_layer.cpp:194] Reallocating workspace storage: 20664
I1126 10:11:21.720079 10315 net.cpp:150] Setting up inception_3a/5x5
I1126 10:11:21.720088 10315 net.cpp:157] Top shape: 32 32 28 28 (802816)
I1126 10:11:21.720091 10315 net.cpp:165] Memory required for data: 719323648
I1126 10:11:21.720099 10315 layer_factory.hpp:76] Creating layer inception_3a/prelu_5x5
I1126 10:11:21.720111 10315 net.cpp:106] Creating Layer inception_3a/prelu_5x5
I1126 10:11:21.720116 10315 net.cpp:454] inception_3a/prelu_5x5 <- inception_3a/5x5
I1126 10:11:21.720123 10315 net.cpp:397] inception_3a/prelu_5x5 -> inception_3a/5x5 (in-place)
I1126 10:11:21.720242 10315 net.cpp:150] Setting up inception_3a/prelu_5x5
I1126 10:11:21.720249 10315 net.cpp:157] Top shape: 32 32 28 28 (802816)
I1126 10:11:21.720253 10315 net.cpp:165] Memory required for data: 722534912
I1126 10:11:21.720259 10315 layer_factory.hpp:76] Creating layer inception_3a/pool
I1126 10:11:21.720269 10315 net.cpp:106] Creating Layer inception_3a/pool
I1126 10:11:21.720274 10315 net.cpp:454] inception_3a/pool <- pool2/3x3_s2_pool2/3x3_s2_0_split_3
I1126 10:11:21.720280 10315 net.cpp:411] inception_3a/pool -> inception_3a/pool
I1126 10:11:21.720459 10315 net.cpp:150] Setting up inception_3a/pool
I1126 10:11:21.720469 10315 net.cpp:157] Top shape: 32 192 28 28 (4816896)
I1126 10:11:21.720474 10315 net.cpp:165] Memory required for data: 741802496
I1126 10:11:21.720477 10315 layer_factory.hpp:76] Creating layer inception_3a/pool_proj
I1126 10:11:21.720487 10315 net.cpp:106] Creating Layer inception_3a/pool_proj
I1126 10:11:21.720492 10315 net.cpp:454] inception_3a/pool_proj <- inception_3a/pool
I1126 10:11:21.720499 10315 net.cpp:411] inception_3a/pool_proj -> inception_3a/pool_proj
I1126 10:11:21.721698 10315 cudnn_conv_layer.cpp:194] Reallocating workspace storage: 20664
I1126 10:11:21.721720 10315 net.cpp:150] Setting up inception_3a/pool_proj
I1126 10:11:21.721729 10315 net.cpp:157] Top shape: 32 32 28 28 (802816)
I1126 10:11:21.721735 10315 net.cpp:165] Memory required for data: 745013760
I1126 10:11:21.721742 10315 layer_factory.hpp:76] Creating layer inception_3a/prelu_pool_proj
I1126 10:11:21.721760 10315 net.cpp:106] Creating Layer inception_3a/prelu_pool_proj
I1126 10:11:21.721765 10315 net.cpp:454] inception_3a/prelu_pool_proj <- inception_3a/pool_proj
I1126 10:11:21.721771 10315 net.cpp:397] inception_3a/prelu_pool_proj -> inception_3a/pool_proj (in-place)
I1126 10:11:21.721875 10315 net.cpp:150] Setting up inception_3a/prelu_pool_proj
I1126 10:11:21.721884 10315 net.cpp:157] Top shape: 32 32 28 28 (802816)
I1126 10:11:21.721887 10315 net.cpp:165] Memory required for data: 748225024
I1126 10:11:21.721894 10315 layer_factory.hpp:76] Creating layer inception_3a/output
I1126 10:11:21.721905 10315 net.cpp:106] Creating Layer inception_3a/output
I1126 10:11:21.721910 10315 net.cpp:454] inception_3a/output <- inception_3a/1x1
I1126 10:11:21.721915 10315 net.cpp:454] inception_3a/output <- inception_3a/3x3
I1126 10:11:21.721920 10315 net.cpp:454] inception_3a/output <- inception_3a/5x5
I1126 10:11:21.721925 10315 net.cpp:454] inception_3a/output <- inception_3a/pool_proj
I1126 10:11:21.721930 10315 net.cpp:411] inception_3a/output -> inception_3a/output
I1126 10:11:21.721956 10315 net.cpp:150] Setting up inception_3a/output
I1126 10:11:21.721964 10315 net.cpp:157] Top shape: 32 256 28 28 (6422528)
I1126 10:11:21.721968 10315 net.cpp:165] Memory required for data: 773915136
I1126 10:11:21.721972 10315 layer_factory.hpp:76] Creating layer inception_3a/output_inception_3a/output_0_split
I1126 10:11:21.721978 10315 net.cpp:106] Creating Layer inception_3a/output_inception_3a/output_0_split
I1126 10:11:21.721982 10315 net.cpp:454] inception_3a/output_inception_3a/output_0_split <- inception_3a/output
I1126 10:11:21.721989 10315 net.cpp:411] inception_3a/output_inception_3a/output_0_split -> inception_3a/output_inception_3a/output_0_split_0
I1126 10:11:21.721997 10315 net.cpp:411] inception_3a/output_inception_3a/output_0_split -> inception_3a/output_inception_3a/output_0_split_1
I1126 10:11:21.722003 10315 net.cpp:411] inception_3a/output_inception_3a/output_0_split -> inception_3a/output_inception_3a/output_0_split_2
I1126 10:11:21.722010 10315 net.cpp:411] inception_3a/output_inception_3a/output_0_split -> inception_3a/output_inception_3a/output_0_split_3
I1126 10:11:21.722059 10315 net.cpp:150] Setting up inception_3a/output_inception_3a/output_0_split
I1126 10:11:21.722069 10315 net.cpp:157] Top shape: 32 256 28 28 (6422528)
I1126 10:11:21.722074 10315 net.cpp:157] Top shape: 32 256 28 28 (6422528)
I1126 10:11:21.722079 10315 net.cpp:157] Top shape: 32 256 28 28 (6422528)
I1126 10:11:21.722097 10315 net.cpp:157] Top shape: 32 256 28 28 (6422528)
I1126 10:11:21.722101 10315 net.cpp:165] Memory required for data: 876675584
I1126 10:11:21.722105 10315 layer_factory.hpp:76] Creating layer inception_3b/1x1
I1126 10:11:21.722113 10315 net.cpp:106] Creating Layer inception_3b/1x1
I1126 10:11:21.722117 10315 net.cpp:454] inception_3b/1x1 <- inception_3a/output_inception_3a/output_0_split_0
I1126 10:11:21.722126 10315 net.cpp:411] inception_3b/1x1 -> inception_3b/1x1
I1126 10:11:21.723340 10315 cudnn_conv_layer.cpp:194] Reallocating workspace storage: 20664
I1126 10:11:21.723358 10315 net.cpp:150] Setting up inception_3b/1x1
I1126 10:11:21.723366 10315 net.cpp:157] Top shape: 32 128 28 28 (3211264)
I1126 10:11:21.723369 10315 net.cpp:165] Memory required for data: 889520640
I1126 10:11:21.723377 10315 layer_factory.hpp:76] Creating layer inception_3b/prelu_1x1
I1126 10:11:21.723387 10315 net.cpp:106] Creating Layer inception_3b/prelu_1x1
I1126 10:11:21.723392 10315 net.cpp:454] inception_3b/prelu_1x1 <- inception_3b/1x1
I1126 10:11:21.723399 10315 net.cpp:397] inception_3b/prelu_1x1 -> inception_3b/1x1 (in-place)
I1126 10:11:21.724041 10315 net.cpp:150] Setting up inception_3b/prelu_1x1
I1126 10:11:21.724052 10315 net.cpp:157] Top shape: 32 128 28 28 (3211264)
I1126 10:11:21.724056 10315 net.cpp:165] Memory required for data: 902365696
I1126 10:11:21.724062 10315 layer_factory.hpp:76] Creating layer inception_3b/3x3_reduce
I1126 10:11:21.724072 10315 net.cpp:106] Creating Layer inception_3b/3x3_reduce
I1126 10:11:21.724077 10315 net.cpp:454] inception_3b/3x3_reduce <- inception_3a/output_inception_3a/output_0_split_1
I1126 10:11:21.724084 10315 net.cpp:411] inception_3b/3x3_reduce -> inception_3b/3x3_reduce
I1126 10:11:21.725294 10315 cudnn_conv_layer.cpp:194] Reallocating workspace storage: 20664
I1126 10:11:21.725314 10315 net.cpp:150] Setting up inception_3b/3x3_reduce
I1126 10:11:21.725322 10315 net.cpp:157] Top shape: 32 128 28 28 (3211264)
I1126 10:11:21.725327 10315 net.cpp:165] Memory required for data: 915210752
I1126 10:11:21.725333 10315 layer_factory.hpp:76] Creating layer inception_3b/prelu_3x3_reduce
I1126 10:11:21.725342 10315 net.cpp:106] Creating Layer inception_3b/prelu_3x3_reduce
I1126 10:11:21.725345 10315 net.cpp:454] inception_3b/prelu_3x3_reduce <- inception_3b/3x3_reduce
I1126 10:11:21.725353 10315 net.cpp:397] inception_3b/prelu_3x3_reduce -> inception_3b/3x3_reduce (in-place)
I1126 10:11:21.725477 10315 net.cpp:150] Setting up inception_3b/prelu_3x3_reduce
I1126 10:11:21.725486 10315 net.cpp:157] Top shape: 32 128 28 28 (3211264)
I1126 10:11:21.725491 10315 net.cpp:165] Memory required for data: 928055808
I1126 10:11:21.725503 10315 layer_factory.hpp:76] Creating layer inception_3b/3x3
I1126 10:11:21.725519 10315 net.cpp:106] Creating Layer inception_3b/3x3
I1126 10:11:21.725525 10315 net.cpp:454] inception_3b/3x3 <- inception_3b/3x3_reduce
I1126 10:11:21.725531 10315 net.cpp:411] inception_3b/3x3 -> inception_3b/3x3
I1126 10:11:21.728559 10315 cudnn_conv_layer.cpp:194] Reallocating workspace storage: 20664
I1126 10:11:21.728587 10315 net.cpp:150] Setting up inception_3b/3x3
I1126 10:11:21.728597 10315 net.cpp:157] Top shape: 32 192 28 28 (4816896)
I1126 10:11:21.728602 10315 net.cpp:165] Memory required for data: 947323392
I1126 10:11:21.728611 10315 layer_factory.hpp:76] Creating layer inception_3b/prelu_3x3
I1126 10:11:21.728624 10315 net.cpp:106] Creating Layer inception_3b/prelu_3x3
I1126 10:11:21.728631 10315 net.cpp:454] inception_3b/prelu_3x3 <- inception_3b/3x3
I1126 10:11:21.728638 10315 net.cpp:397] inception_3b/prelu_3x3 -> inception_3b/3x3 (in-place)
I1126 10:11:21.729424 10315 net.cpp:150] Setting up inception_3b/prelu_3x3
I1126 10:11:21.729445 10315 net.cpp:157] Top shape: 32 192 28 28 (4816896)
I1126 10:11:21.729450 10315 net.cpp:165] Memory required for data: 966590976
I1126 10:11:21.729457 10315 layer_factory.hpp:76] Creating layer inception_3b/5x5_reduce
I1126 10:11:21.729471 10315 net.cpp:106] Creating Layer inception_3b/5x5_reduce
I1126 10:11:21.729499 10315 net.cpp:454] inception_3b/5x5_reduce <- inception_3a/output_inception_3a/output_0_split_2
I1126 10:11:21.729511 10315 net.cpp:411] inception_3b/5x5_reduce -> inception_3b/5x5_reduce
I1126 10:11:21.730461 10315 cudnn_conv_layer.cpp:194] Reallocating workspace storage: 20664
I1126 10:11:21.730481 10315 net.cpp:150] Setting up inception_3b/5x5_reduce
I1126 10:11:21.730491 10315 net.cpp:157] Top shape: 32 32 28 28 (802816)
I1126 10:11:21.730495 10315 net.cpp:165] Memory required for data: 969802240
I1126 10:11:21.730504 10315 layer_factory.hpp:76] Creating layer inception_3b/prelu_5x5_reduce
I1126 10:11:21.730512 10315 net.cpp:106] Creating Layer inception_3b/prelu_5x5_reduce
I1126 10:11:21.730518 10315 net.cpp:454] inception_3b/prelu_5x5_reduce <- inception_3b/5x5_reduce
I1126 10:11:21.730525 10315 net.cpp:397] inception_3b/prelu_5x5_reduce -> inception_3b/5x5_reduce (in-place)
I1126 10:11:21.730643 10315 net.cpp:150] Setting up inception_3b/prelu_5x5_reduce
I1126 10:11:21.730653 10315 net.cpp:157] Top shape: 32 32 28 28 (802816)
I1126 10:11:21.730657 10315 net.cpp:165] Memory required for data: 973013504
I1126 10:11:21.730662 10315 layer_factory.hpp:76] Creating layer inception_3b/5x5
I1126 10:11:21.730671 10315 net.cpp:106] Creating Layer inception_3b/5x5
I1126 10:11:21.730676 10315 net.cpp:454] inception_3b/5x5 <- inception_3b/5x5_reduce
I1126 10:11:21.730684 10315 net.cpp:411] inception_3b/5x5 -> inception_3b/5x5
I1126 10:11:21.732332 10315 cudnn_conv_layer.cpp:194] Reallocating workspace storage: 20664
I1126 10:11:21.732355 10315 net.cpp:150] Setting up inception_3b/5x5
I1126 10:11:21.732365 10315 net.cpp:157] Top shape: 32 96 28 28 (2408448)
I1126 10:11:21.732369 10315 net.cpp:165] Memory required for data: 982647296
I1126 10:11:21.732378 10315 layer_factory.hpp:76] Creating layer inception_3b/prelu_5x5
I1126 10:11:21.732391 10315 net.cpp:106] Creating Layer inception_3b/prelu_5x5
I1126 10:11:21.732398 10315 net.cpp:454] inception_3b/prelu_5x5 <- inception_3b/5x5
I1126 10:11:21.732405 10315 net.cpp:397] inception_3b/prelu_5x5 -> inception_3b/5x5 (in-place)
I1126 10:11:21.732550 10315 net.cpp:150] Setting up inception_3b/prelu_5x5
I1126 10:11:21.732559 10315 net.cpp:157] Top shape: 32 96 28 28 (2408448)
I1126 10:11:21.732563 10315 net.cpp:165] Memory required for data: 992281088
I1126 10:11:21.732568 10315 layer_factory.hpp:76] Creating layer inception_3b/pool
I1126 10:11:21.732589 10315 net.cpp:106] Creating Layer inception_3b/pool
I1126 10:11:21.732594 10315 net.cpp:454] inception_3b/pool <- inception_3a/output_inception_3a/output_0_split_3
I1126 10:11:21.732600 10315 net.cpp:411] inception_3b/pool -> inception_3b/pool
I1126 10:11:21.732987 10315 net.cpp:150] Setting up inception_3b/pool
I1126 10:11:21.732998 10315 net.cpp:157] Top shape: 32 256 28 28 (6422528)
I1126 10:11:21.733002 10315 net.cpp:165] Memory required for data: 1017971200
I1126 10:11:21.733007 10315 layer_factory.hpp:76] Creating layer inception_3b/pool_proj
I1126 10:11:21.733018 10315 net.cpp:106] Creating Layer inception_3b/pool_proj
I1126 10:11:21.733023 10315 net.cpp:454] inception_3b/pool_proj <- inception_3b/pool
I1126 10:11:21.733031 10315 net.cpp:411] inception_3b/pool_proj -> inception_3b/pool_proj
I1126 10:11:21.734343 10315 cudnn_conv_layer.cpp:194] Reallocating workspace storage: 20664
I1126 10:11:21.734371 10315 net.cpp:150] Setting up inception_3b/pool_proj
I1126 10:11:21.734380 10315 net.cpp:157] Top shape: 32 64 28 28 (1605632)
I1126 10:11:21.734385 10315 net.cpp:165] Memory required for data: 1024393728
I1126 10:11:21.734395 10315 layer_factory.hpp:76] Creating layer inception_3b/prelu_pool_proj
I1126 10:11:21.734414 10315 net.cpp:106] Creating Layer inception_3b/prelu_pool_proj
I1126 10:11:21.734421 10315 net.cpp:454] inception_3b/prelu_pool_proj <- inception_3b/pool_proj
I1126 10:11:21.734428 10315 net.cpp:397] inception_3b/prelu_pool_proj -> inception_3b/pool_proj (in-place)
I1126 10:11:21.734557 10315 net.cpp:150] Setting up inception_3b/prelu_pool_proj
I1126 10:11:21.734591 10315 net.cpp:157] Top shape: 32 64 28 28 (1605632)
I1126 10:11:21.734596 10315 net.cpp:165] Memory required for data: 1030816256
I1126 10:11:21.734601 10315 layer_factory.hpp:76] Creating layer inception_3b/output
I1126 10:11:21.734609 10315 net.cpp:106] Creating Layer inception_3b/output
I1126 10:11:21.734613 10315 net.cpp:454] inception_3b/output <- inception_3b/1x1
I1126 10:11:21.734619 10315 net.cpp:454] inception_3b/output <- inception_3b/3x3
I1126 10:11:21.734624 10315 net.cpp:454] inception_3b/output <- inception_3b/5x5
I1126 10:11:21.734629 10315 net.cpp:454] inception_3b/output <- inception_3b/pool_proj
I1126 10:11:21.734637 10315 net.cpp:411] inception_3b/output -> inception_3b/output
I1126 10:11:21.734663 10315 net.cpp:150] Setting up inception_3b/output
I1126 10:11:21.734671 10315 net.cpp:157] Top shape: 32 480 28 28 (12042240)
I1126 10:11:21.734675 10315 net.cpp:165] Memory required for data: 1078985216
I1126 10:11:21.734679 10315 layer_factory.hpp:76] Creating layer pool3/3x3_s2
I1126 10:11:21.734688 10315 net.cpp:106] Creating Layer pool3/3x3_s2
I1126 10:11:21.734691 10315 net.cpp:454] pool3/3x3_s2 <- inception_3b/output
I1126 10:11:21.734697 10315 net.cpp:411] pool3/3x3_s2 -> pool3/3x3_s2
I1126 10:11:21.735146 10315 net.cpp:150] Setting up pool3/3x3_s2
I1126 10:11:21.735162 10315 net.cpp:157] Top shape: 32 480 14 14 (3010560)
I1126 10:11:21.735167 10315 net.cpp:165] Memory required for data: 1091027456
I1126 10:11:21.735172 10315 layer_factory.hpp:76] Creating layer pool3/3x3_s2_pool3/3x3_s2_0_split
I1126 10:11:21.735180 10315 net.cpp:106] Creating Layer pool3/3x3_s2_pool3/3x3_s2_0_split
I1126 10:11:21.735186 10315 net.cpp:454] pool3/3x3_s2_pool3/3x3_s2_0_split <- pool3/3x3_s2
I1126 10:11:21.735194 10315 net.cpp:411] pool3/3x3_s2_pool3/3x3_s2_0_split -> pool3/3x3_s2_pool3/3x3_s2_0_split_0
I1126 10:11:21.735203 10315 net.cpp:411] pool3/3x3_s2_pool3/3x3_s2_0_split -> pool3/3x3_s2_pool3/3x3_s2_0_split_1
I1126 10:11:21.735210 10315 net.cpp:411] pool3/3x3_s2_pool3/3x3_s2_0_split -> pool3/3x3_s2_pool3/3x3_s2_0_split_2
I1126 10:11:21.735218 10315 net.cpp:411] pool3/3x3_s2_pool3/3x3_s2_0_split -> pool3/3x3_s2_pool3/3x3_s2_0_split_3
I1126 10:11:21.735275 10315 net.cpp:150] Setting up pool3/3x3_s2_pool3/3x3_s2_0_split
I1126 10:11:21.735282 10315 net.cpp:157] Top shape: 32 480 14 14 (3010560)
I1126 10:11:21.735287 10315 net.cpp:157] Top shape: 32 480 14 14 (3010560)
I1126 10:11:21.735292 10315 net.cpp:157] Top shape: 32 480 14 14 (3010560)
I1126 10:11:21.735296 10315 net.cpp:157] Top shape: 32 480 14 14 (3010560)
I1126 10:11:21.735301 10315 net.cpp:165] Memory required for data: 1139196416
I1126 10:11:21.735306 10315 layer_factory.hpp:76] Creating layer inception_4a/1x1
I1126 10:11:21.735317 10315 net.cpp:106] Creating Layer inception_4a/1x1
I1126 10:11:21.735322 10315 net.cpp:454] inception_4a/1x1 <- pool3/3x3_s2_pool3/3x3_s2_0_split_0
I1126 10:11:21.735329 10315 net.cpp:411] inception_4a/1x1 -> inception_4a/1x1
I1126 10:11:21.737663 10315 cudnn_conv_layer.cpp:194] Reallocating workspace storage: 10080
I1126 10:11:21.737877 10315 net.cpp:150] Setting up inception_4a/1x1
I1126 10:11:21.737889 10315 net.cpp:157] Top shape: 32 192 14 14 (1204224)
I1126 10:11:21.737893 10315 net.cpp:165] Memory required for data: 1144013312
I1126 10:11:21.737905 10315 layer_factory.hpp:76] Creating layer inception_4a/prelu_1x1
I1126 10:11:21.737915 10315 net.cpp:106] Creating Layer inception_4a/prelu_1x1
I1126 10:11:21.737920 10315 net.cpp:454] inception_4a/prelu_1x1 <- inception_4a/1x1
I1126 10:11:21.737927 10315 net.cpp:397] inception_4a/prelu_1x1 -> inception_4a/1x1 (in-place)
I1126 10:11:21.738560 10315 net.cpp:150] Setting up inception_4a/prelu_1x1
I1126 10:11:21.738574 10315 net.cpp:157] Top shape: 32 192 14 14 (1204224)
I1126 10:11:21.738577 10315 net.cpp:165] Memory required for data: 1148830208
I1126 10:11:21.738584 10315 layer_factory.hpp:76] Creating layer inception_4a/3x3_reduce
I1126 10:11:21.738595 10315 net.cpp:106] Creating Layer inception_4a/3x3_reduce
I1126 10:11:21.738601 10315 net.cpp:454] inception_4a/3x3_reduce <- pool3/3x3_s2_pool3/3x3_s2_0_split_1
I1126 10:11:21.738633 10315 net.cpp:411] inception_4a/3x3_reduce -> inception_4a/3x3_reduce
I1126 10:11:21.740005 10315 cudnn_conv_layer.cpp:194] Reallocating workspace storage: 10080
I1126 10:11:21.740031 10315 net.cpp:150] Setting up inception_4a/3x3_reduce
I1126 10:11:21.740041 10315 net.cpp:157] Top shape: 32 96 14 14 (602112)
I1126 10:11:21.740044 10315 net.cpp:165] Memory required for data: 1151238656
I1126 10:11:21.740051 10315 layer_factory.hpp:76] Creating layer inception_4a/prelu_3x3_reduce
I1126 10:11:21.740061 10315 net.cpp:106] Creating Layer inception_4a/prelu_3x3_reduce
I1126 10:11:21.740066 10315 net.cpp:454] inception_4a/prelu_3x3_reduce <- inception_4a/3x3_reduce
I1126 10:11:21.740073 10315 net.cpp:397] inception_4a/prelu_3x3_reduce -> inception_4a/3x3_reduce (in-place)
I1126 10:11:21.740186 10315 net.cpp:150] Setting up inception_4a/prelu_3x3_reduce
I1126 10:11:21.740195 10315 net.cpp:157] Top shape: 32 96 14 14 (602112)
I1126 10:11:21.740198 10315 net.cpp:165] Memory required for data: 1153647104
I1126 10:11:21.740205 10315 layer_factory.hpp:76] Creating layer inception_4a/3x3
I1126 10:11:21.740214 10315 net.cpp:106] Creating Layer inception_4a/3x3
I1126 10:11:21.740219 10315 net.cpp:454] inception_4a/3x3 <- inception_4a/3x3_reduce
I1126 10:11:21.740226 10315 net.cpp:411] inception_4a/3x3 -> inception_4a/3x3
I1126 10:11:21.742717 10315 cudnn_conv_layer.cpp:194] Reallocating workspace storage: 10080
I1126 10:11:21.742772 10315 net.cpp:150] Setting up inception_4a/3x3
I1126 10:11:21.742784 10315 net.cpp:157] Top shape: 32 208 14 14 (1304576)
I1126 10:11:21.742789 10315 net.cpp:165] Memory required for data: 1158865408
I1126 10:11:21.742797 10315 layer_factory.hpp:76] Creating layer inception_4a/prelu_3x3
I1126 10:11:21.742810 10315 net.cpp:106] Creating Layer inception_4a/prelu_3x3
I1126 10:11:21.742817 10315 net.cpp:454] inception_4a/prelu_3x3 <- inception_4a/3x3
I1126 10:11:21.742835 10315 net.cpp:397] inception_4a/prelu_3x3 -> inception_4a/3x3 (in-place)
I1126 10:11:21.742979 10315 net.cpp:150] Setting up inception_4a/prelu_3x3
I1126 10:11:21.742987 10315 net.cpp:157] Top shape: 32 208 14 14 (1304576)
I1126 10:11:21.743000 10315 net.cpp:165] Memory required for data: 1164083712
I1126 10:11:21.743005 10315 layer_factory.hpp:76] Creating layer inception_4a/5x5_reduce
I1126 10:11:21.743016 10315 net.cpp:106] Creating Layer inception_4a/5x5_reduce
I1126 10:11:21.743022 10315 net.cpp:454] inception_4a/5x5_reduce <- pool3/3x3_s2_pool3/3x3_s2_0_split_2
I1126 10:11:21.743037 10315 net.cpp:411] inception_4a/5x5_reduce -> inception_4a/5x5_reduce
I1126 10:11:21.744145 10315 cudnn_conv_layer.cpp:194] Reallocating workspace storage: 10080
I1126 10:11:21.744169 10315 net.cpp:150] Setting up inception_4a/5x5_reduce
I1126 10:11:21.744185 10315 net.cpp:157] Top shape: 32 16 14 14 (100352)
I1126 10:11:21.744190 10315 net.cpp:165] Memory required for data: 1164485120
I1126 10:11:21.744197 10315 layer_factory.hpp:76] Creating layer inception_4a/prelu_5x5_reduce
I1126 10:11:21.744207 10315 net.cpp:106] Creating Layer inception_4a/prelu_5x5_reduce
I1126 10:11:21.744212 10315 net.cpp:454] inception_4a/prelu_5x5_reduce <- inception_4a/5x5_reduce
I1126 10:11:21.744218 10315 net.cpp:397] inception_4a/prelu_5x5_reduce -> inception_4a/5x5_reduce (in-place)
I1126 10:11:21.744309 10315 net.cpp:150] Setting up inception_4a/prelu_5x5_reduce
I1126 10:11:21.744318 10315 net.cpp:157] Top shape: 32 16 14 14 (100352)
I1126 10:11:21.744321 10315 net.cpp:165] Memory required for data: 1164886528
I1126 10:11:21.744328 10315 layer_factory.hpp:76] Creating layer inception_4a/5x5
I1126 10:11:21.744336 10315 net.cpp:106] Creating Layer inception_4a/5x5
I1126 10:11:21.744340 10315 net.cpp:454] inception_4a/5x5 <- inception_4a/5x5_reduce
I1126 10:11:21.744349 10315 net.cpp:411] inception_4a/5x5 -> inception_4a/5x5
I1126 10:11:21.745476 10315 cudnn_conv_layer.cpp:194] Reallocating workspace storage: 13080
I1126 10:11:21.745497 10315 net.cpp:150] Setting up inception_4a/5x5
I1126 10:11:21.745506 10315 net.cpp:157] Top shape: 32 48 14 14 (301056)
I1126 10:11:21.745529 10315 net.cpp:165] Memory required for data: 1166090752
I1126 10:11:21.745537 10315 layer_factory.hpp:76] Creating layer inception_4a/prelu_5x5
I1126 10:11:21.745544 10315 net.cpp:106] Creating Layer inception_4a/prelu_5x5
I1126 10:11:21.745549 10315 net.cpp:454] inception_4a/prelu_5x5 <- inception_4a/5x5
I1126 10:11:21.745558 10315 net.cpp:397] inception_4a/prelu_5x5 -> inception_4a/5x5 (in-place)
I1126 10:11:21.745648 10315 net.cpp:150] Setting up inception_4a/prelu_5x5
I1126 10:11:21.745656 10315 net.cpp:157] Top shape: 32 48 14 14 (301056)
I1126 10:11:21.745661 10315 net.cpp:165] Memory required for data: 1167294976
I1126 10:11:21.745666 10315 layer_factory.hpp:76] Creating layer inception_4a/pool
I1126 10:11:21.745673 10315 net.cpp:106] Creating Layer inception_4a/pool
I1126 10:11:21.745677 10315 net.cpp:454] inception_4a/pool <- pool3/3x3_s2_pool3/3x3_s2_0_split_3
I1126 10:11:21.745685 10315 net.cpp:411] inception_4a/pool -> inception_4a/pool
I1126 10:11:21.746048 10315 net.cpp:150] Setting up inception_4a/pool
I1126 10:11:21.746058 10315 net.cpp:157] Top shape: 32 480 14 14 (3010560)
I1126 10:11:21.746062 10315 net.cpp:165] Memory required for data: 1179337216
I1126 10:11:21.746068 10315 layer_factory.hpp:76] Creating layer inception_4a/pool_proj
I1126 10:11:21.746078 10315 net.cpp:106] Creating Layer inception_4a/pool_proj
I1126 10:11:21.746083 10315 net.cpp:454] inception_4a/pool_proj <- inception_4a/pool
I1126 10:11:21.746090 10315 net.cpp:411] inception_4a/pool_proj -> inception_4a/pool_proj
I1126 10:11:21.747129 10315 cudnn_conv_layer.cpp:194] Reallocating workspace storage: 10080
I1126 10:11:21.747165 10315 net.cpp:150] Setting up inception_4a/pool_proj
I1126 10:11:21.747174 10315 net.cpp:157] Top shape: 32 64 14 14 (401408)
I1126 10:11:21.747177 10315 net.cpp:165] Memory required for data: 1180942848
I1126 10:11:21.747184 10315 layer_factory.hpp:76] Creating layer inception_4a/prelu_pool_proj
I1126 10:11:21.747195 10315 net.cpp:106] Creating Layer inception_4a/prelu_pool_proj
I1126 10:11:21.747200 10315 net.cpp:454] inception_4a/prelu_pool_proj <- inception_4a/pool_proj
I1126 10:11:21.747216 10315 net.cpp:397] inception_4a/prelu_pool_proj -> inception_4a/pool_proj (in-place)
I1126 10:11:21.747333 10315 net.cpp:150] Setting up inception_4a/prelu_pool_proj
I1126 10:11:21.747340 10315 net.cpp:157] Top shape: 32 64 14 14 (401408)
I1126 10:11:21.747344 10315 net.cpp:165] Memory required for data: 1182548480
I1126 10:11:21.747350 10315 layer_factory.hpp:76] Creating layer inception_4a/output
I1126 10:11:21.747359 10315 net.cpp:106] Creating Layer inception_4a/output
I1126 10:11:21.747364 10315 net.cpp:454] inception_4a/output <- inception_4a/1x1
I1126 10:11:21.747370 10315 net.cpp:454] inception_4a/output <- inception_4a/3x3
I1126 10:11:21.747373 10315 net.cpp:454] inception_4a/output <- inception_4a/5x5
I1126 10:11:21.747378 10315 net.cpp:454] inception_4a/output <- inception_4a/pool_proj
I1126 10:11:21.747383 10315 net.cpp:411] inception_4a/output -> inception_4a/output
I1126 10:11:21.747409 10315 net.cpp:150] Setting up inception_4a/output
I1126 10:11:21.747416 10315 net.cpp:157] Top shape: 32 512 14 14 (3211264)
I1126 10:11:21.747421 10315 net.cpp:165] Memory required for data: 1195393536
I1126 10:11:21.747424 10315 layer_factory.hpp:76] Creating layer inception_4a/output_inception_4a/output_0_split
I1126 10:11:21.747431 10315 net.cpp:106] Creating Layer inception_4a/output_inception_4a/output_0_split
I1126 10:11:21.747436 10315 net.cpp:454] inception_4a/output_inception_4a/output_0_split <- inception_4a/output
I1126 10:11:21.747443 10315 net.cpp:411] inception_4a/output_inception_4a/output_0_split -> inception_4a/output_inception_4a/output_0_split_0
I1126 10:11:21.747450 10315 net.cpp:411] inception_4a/output_inception_4a/output_0_split -> inception_4a/output_inception_4a/output_0_split_1
I1126 10:11:21.747457 10315 net.cpp:411] inception_4a/output_inception_4a/output_0_split -> inception_4a/output_inception_4a/output_0_split_2
I1126 10:11:21.747474 10315 net.cpp:411] inception_4a/output_inception_4a/output_0_split -> inception_4a/output_inception_4a/output_0_split_3
I1126 10:11:21.747483 10315 net.cpp:411] inception_4a/output_inception_4a/output_0_split -> inception_4a/output_inception_4a/output_0_split_4
I1126 10:11:21.747546 10315 net.cpp:150] Setting up inception_4a/output_inception_4a/output_0_split
I1126 10:11:21.747555 10315 net.cpp:157] Top shape: 32 512 14 14 (3211264)
I1126 10:11:21.747560 10315 net.cpp:157] Top shape: 32 512 14 14 (3211264)
I1126 10:11:21.747565 10315 net.cpp:157] Top shape: 32 512 14 14 (3211264)
I1126 10:11:21.747570 10315 net.cpp:157] Top shape: 32 512 14 14 (3211264)
I1126 10:11:21.747573 10315 net.cpp:157] Top shape: 32 512 14 14 (3211264)
I1126 10:11:21.747577 10315 net.cpp:165] Memory required for data: 1259618816
I1126 10:11:21.747581 10315 layer_factory.hpp:76] Creating layer loss1/ave_pool
I1126 10:11:21.747587 10315 net.cpp:106] Creating Layer loss1/ave_pool
I1126 10:11:21.747592 10315 net.cpp:454] loss1/ave_pool <- inception_4a/output_inception_4a/output_0_split_0
I1126 10:11:21.747599 10315 net.cpp:411] loss1/ave_pool -> loss1/ave_pool
I1126 10:11:21.747970 10315 net.cpp:150] Setting up loss1/ave_pool
I1126 10:11:21.747980 10315 net.cpp:157] Top shape: 32 512 4 4 (262144)
I1126 10:11:21.747984 10315 net.cpp:165] Memory required for data: 1260667392
I1126 10:11:21.747988 10315 layer_factory.hpp:76] Creating layer loss1/conv
I1126 10:11:21.747999 10315 net.cpp:106] Creating Layer loss1/conv
I1126 10:11:21.748004 10315 net.cpp:454] loss1/conv <- loss1/ave_pool
I1126 10:11:21.748018 10315 net.cpp:411] loss1/conv -> loss1/conv
I1126 10:11:21.749481 10315 cudnn_conv_layer.cpp:194] Reallocating workspace storage: 6840
I1126 10:11:21.749508 10315 net.cpp:150] Setting up loss1/conv
I1126 10:11:21.749516 10315 net.cpp:157] Top shape: 32 128 4 4 (65536)
I1126 10:11:21.749521 10315 net.cpp:165] Memory required for data: 1260929536
I1126 10:11:21.749541 10315 layer_factory.hpp:76] Creating layer loss1/prelu_conv
I1126 10:11:21.749552 10315 net.cpp:106] Creating Layer loss1/prelu_conv
I1126 10:11:21.749555 10315 net.cpp:454] loss1/prelu_conv <- loss1/conv
I1126 10:11:21.749562 10315 net.cpp:397] loss1/prelu_conv -> loss1/conv (in-place)
I1126 10:11:21.749649 10315 net.cpp:150] Setting up loss1/prelu_conv
I1126 10:11:21.749656 10315 net.cpp:157] Top shape: 32 128 4 4 (65536)
I1126 10:11:21.749660 10315 net.cpp:165] Memory required for data: 1261191680
I1126 10:11:21.749665 10315 layer_factory.hpp:76] Creating layer loss1/fc
I1126 10:11:21.749678 10315 net.cpp:106] Creating Layer loss1/fc
I1126 10:11:21.749683 10315 net.cpp:454] loss1/fc <- loss1/conv
I1126 10:11:21.749689 10315 net.cpp:411] loss1/fc -> loss1/fc
I1126 10:11:21.765419 10315 net.cpp:150] Setting up loss1/fc
I1126 10:11:21.765455 10315 net.cpp:157] Top shape: 32 1024 (32768)
I1126 10:11:21.765460 10315 net.cpp:165] Memory required for data: 1261322752
I1126 10:11:21.765470 10315 layer_factory.hpp:76] Creating layer loss1/prelu_fc
I1126 10:11:21.765483 10315 net.cpp:106] Creating Layer loss1/prelu_fc
I1126 10:11:21.765491 10315 net.cpp:454] loss1/prelu_fc <- loss1/fc
I1126 10:11:21.765499 10315 net.cpp:397] loss1/prelu_fc -> loss1/fc (in-place)
I1126 10:11:21.765589 10315 net.cpp:150] Setting up loss1/prelu_fc
I1126 10:11:21.765597 10315 net.cpp:157] Top shape: 32 1024 (32768)
I1126 10:11:21.765601 10315 net.cpp:165] Memory required for data: 1261453824
I1126 10:11:21.765606 10315 layer_factory.hpp:76] Creating layer loss1/drop_fc
I1126 10:11:21.765627 10315 net.cpp:106] Creating Layer loss1/drop_fc
I1126 10:11:21.765633 10315 net.cpp:454] loss1/drop_fc <- loss1/fc
I1126 10:11:21.765640 10315 net.cpp:397] loss1/drop_fc -> loss1/fc (in-place)
I1126 10:11:21.765673 10315 net.cpp:150] Setting up loss1/drop_fc
I1126 10:11:21.765681 10315 net.cpp:157] Top shape: 32 1024 (32768)
I1126 10:11:21.765686 10315 net.cpp:165] Memory required for data: 1261584896
I1126 10:11:21.765691 10315 layer_factory.hpp:76] Creating layer loss1/classifier2
I1126 10:11:21.765697 10315 net.cpp:106] Creating Layer loss1/classifier2
I1126 10:11:21.765725 10315 net.cpp:454] loss1/classifier2 <- loss1/fc
I1126 10:11:21.765734 10315 net.cpp:411] loss1/classifier2 -> loss1/classifier
I1126 10:11:21.765856 10315 net.cpp:150] Setting up loss1/classifier2
I1126 10:11:21.765864 10315 net.cpp:157] Top shape: 32 2 (64)
I1126 10:11:21.765868 10315 net.cpp:165] Memory required for data: 1261585152
I1126 10:11:21.765875 10315 layer_factory.hpp:76] Creating layer loss1/loss
I1126 10:11:21.765885 10315 net.cpp:106] Creating Layer loss1/loss
I1126 10:11:21.765892 10315 net.cpp:454] loss1/loss <- loss1/classifier
I1126 10:11:21.765897 10315 net.cpp:454] loss1/loss <- label_data_1_split_0
I1126 10:11:21.765903 10315 net.cpp:411] loss1/loss -> loss1/loss1
I1126 10:11:21.765918 10315 layer_factory.hpp:76] Creating layer loss1/loss
I1126 10:11:21.766250 10315 net.cpp:150] Setting up loss1/loss
I1126 10:11:21.766265 10315 net.cpp:157] Top shape: (1)
I1126 10:11:21.766270 10315 net.cpp:160]     with loss weight 0.3
I1126 10:11:21.766297 10315 net.cpp:165] Memory required for data: 1261585156
I1126 10:11:21.766302 10315 layer_factory.hpp:76] Creating layer inception_4b/1x1
I1126 10:11:21.766315 10315 net.cpp:106] Creating Layer inception_4b/1x1
I1126 10:11:21.766321 10315 net.cpp:454] inception_4b/1x1 <- inception_4a/output_inception_4a/output_0_split_1
I1126 10:11:21.766330 10315 net.cpp:411] inception_4b/1x1 -> inception_4b/1x1
I1126 10:11:21.768297 10315 cudnn_conv_layer.cpp:194] Reallocating workspace storage: 10080
I1126 10:11:21.768332 10315 net.cpp:150] Setting up inception_4b/1x1
I1126 10:11:21.768340 10315 net.cpp:157] Top shape: 32 160 14 14 (1003520)
I1126 10:11:21.768344 10315 net.cpp:165] Memory required for data: 1265599236
I1126 10:11:21.768352 10315 layer_factory.hpp:76] Creating layer inception_4b/prelu_1x1
I1126 10:11:21.768363 10315 net.cpp:106] Creating Layer inception_4b/prelu_1x1
I1126 10:11:21.768368 10315 net.cpp:454] inception_4b/prelu_1x1 <- inception_4b/1x1
I1126 10:11:21.768375 10315 net.cpp:397] inception_4b/prelu_1x1 -> inception_4b/1x1 (in-place)
I1126 10:11:21.769115 10315 net.cpp:150] Setting up inception_4b/prelu_1x1
I1126 10:11:21.769130 10315 net.cpp:157] Top shape: 32 160 14 14 (1003520)
I1126 10:11:21.769134 10315 net.cpp:165] Memory required for data: 1269613316
I1126 10:11:21.769140 10315 layer_factory.hpp:76] Creating layer inception_4b/3x3_reduce
I1126 10:11:21.769152 10315 net.cpp:106] Creating Layer inception_4b/3x3_reduce
I1126 10:11:21.769157 10315 net.cpp:454] inception_4b/3x3_reduce <- inception_4a/output_inception_4a/output_0_split_2
I1126 10:11:21.769165 10315 net.cpp:411] inception_4b/3x3_reduce -> inception_4b/3x3_reduce
I1126 10:11:21.771106 10315 cudnn_conv_layer.cpp:194] Reallocating workspace storage: 10080
I1126 10:11:21.771137 10315 net.cpp:150] Setting up inception_4b/3x3_reduce
I1126 10:11:21.771145 10315 net.cpp:157] Top shape: 32 112 14 14 (702464)
I1126 10:11:21.771150 10315 net.cpp:165] Memory required for data: 1272423172
I1126 10:11:21.771158 10315 layer_factory.hpp:76] Creating layer inception_4b/prelu_3x3_reduce
I1126 10:11:21.771167 10315 net.cpp:106] Creating Layer inception_4b/prelu_3x3_reduce
I1126 10:11:21.771174 10315 net.cpp:454] inception_4b/prelu_3x3_reduce <- inception_4b/3x3_reduce
I1126 10:11:21.771180 10315 net.cpp:397] inception_4b/prelu_3x3_reduce -> inception_4b/3x3_reduce (in-place)
I1126 10:11:21.771283 10315 net.cpp:150] Setting up inception_4b/prelu_3x3_reduce
I1126 10:11:21.771291 10315 net.cpp:157] Top shape: 32 112 14 14 (702464)
I1126 10:11:21.771296 10315 net.cpp:165] Memory required for data: 1275233028
I1126 10:11:21.771301 10315 layer_factory.hpp:76] Creating layer inception_4b/3x3
I1126 10:11:21.771314 10315 net.cpp:106] Creating Layer inception_4b/3x3
I1126 10:11:21.771319 10315 net.cpp:454] inception_4b/3x3 <- inception_4b/3x3_reduce
I1126 10:11:21.771325 10315 net.cpp:411] inception_4b/3x3 -> inception_4b/3x3
I1126 10:11:21.774397 10315 cudnn_conv_layer.cpp:194] Reallocating workspace storage: 10080
I1126 10:11:21.774437 10315 net.cpp:150] Setting up inception_4b/3x3
I1126 10:11:21.774579 10315 net.cpp:157] Top shape: 32 224 14 14 (1404928)
I1126 10:11:21.774585 10315 net.cpp:165] Memory required for data: 1280852740
I1126 10:11:21.774595 10315 layer_factory.hpp:76] Creating layer inception_4b/prelu_3x3
I1126 10:11:21.774606 10315 net.cpp:106] Creating Layer inception_4b/prelu_3x3
I1126 10:11:21.774612 10315 net.cpp:454] inception_4b/prelu_3x3 <- inception_4b/3x3
I1126 10:11:21.774621 10315 net.cpp:397] inception_4b/prelu_3x3 -> inception_4b/3x3 (in-place)
I1126 10:11:21.774783 10315 net.cpp:150] Setting up inception_4b/prelu_3x3
I1126 10:11:21.774792 10315 net.cpp:157] Top shape: 32 224 14 14 (1404928)
I1126 10:11:21.774796 10315 net.cpp:165] Memory required for data: 1286472452
I1126 10:11:21.774802 10315 layer_factory.hpp:76] Creating layer inception_4b/5x5_reduce
I1126 10:11:21.774816 10315 net.cpp:106] Creating Layer inception_4b/5x5_reduce
I1126 10:11:21.774821 10315 net.cpp:454] inception_4b/5x5_reduce <- inception_4a/output_inception_4a/output_0_split_3
I1126 10:11:21.774828 10315 net.cpp:411] inception_4b/5x5_reduce -> inception_4b/5x5_reduce
I1126 10:11:21.775806 10315 cudnn_conv_layer.cpp:194] Reallocating workspace storage: 10080
I1126 10:11:21.775830 10315 net.cpp:150] Setting up inception_4b/5x5_reduce
I1126 10:11:21.775837 10315 net.cpp:157] Top shape: 32 24 14 14 (150528)
I1126 10:11:21.775841 10315 net.cpp:165] Memory required for data: 1287074564
I1126 10:11:21.775848 10315 layer_factory.hpp:76] Creating layer inception_4b/prelu_5x5_reduce
I1126 10:11:21.775857 10315 net.cpp:106] Creating Layer inception_4b/prelu_5x5_reduce
I1126 10:11:21.775862 10315 net.cpp:454] inception_4b/prelu_5x5_reduce <- inception_4b/5x5_reduce
I1126 10:11:21.775868 10315 net.cpp:397] inception_4b/prelu_5x5_reduce -> inception_4b/5x5_reduce (in-place)
I1126 10:11:21.775959 10315 net.cpp:150] Setting up inception_4b/prelu_5x5_reduce
I1126 10:11:21.775966 10315 net.cpp:157] Top shape: 32 24 14 14 (150528)
I1126 10:11:21.775970 10315 net.cpp:165] Memory required for data: 1287676676
I1126 10:11:21.775975 10315 layer_factory.hpp:76] Creating layer inception_4b/5x5
I1126 10:11:21.775985 10315 net.cpp:106] Creating Layer inception_4b/5x5
I1126 10:11:21.775990 10315 net.cpp:454] inception_4b/5x5 <- inception_4b/5x5_reduce
I1126 10:11:21.775996 10315 net.cpp:411] inception_4b/5x5 -> inception_4b/5x5
I1126 10:11:21.777252 10315 cudnn_conv_layer.cpp:194] Reallocating workspace storage: 13080
I1126 10:11:21.777276 10315 net.cpp:150] Setting up inception_4b/5x5
I1126 10:11:21.777283 10315 net.cpp:157] Top shape: 32 64 14 14 (401408)
I1126 10:11:21.777287 10315 net.cpp:165] Memory required for data: 1289282308
I1126 10:11:21.777294 10315 layer_factory.hpp:76] Creating layer inception_4b/prelu_5x5
I1126 10:11:21.777302 10315 net.cpp:106] Creating Layer inception_4b/prelu_5x5
I1126 10:11:21.777307 10315 net.cpp:454] inception_4b/prelu_5x5 <- inception_4b/5x5
I1126 10:11:21.777313 10315 net.cpp:397] inception_4b/prelu_5x5 -> inception_4b/5x5 (in-place)
I1126 10:11:21.777416 10315 net.cpp:150] Setting up inception_4b/prelu_5x5
I1126 10:11:21.777425 10315 net.cpp:157] Top shape: 32 64 14 14 (401408)
I1126 10:11:21.777428 10315 net.cpp:165] Memory required for data: 1290887940
I1126 10:11:21.777433 10315 layer_factory.hpp:76] Creating layer inception_4b/pool
I1126 10:11:21.777441 10315 net.cpp:106] Creating Layer inception_4b/pool
I1126 10:11:21.777446 10315 net.cpp:454] inception_4b/pool <- inception_4a/output_inception_4a/output_0_split_4
I1126 10:11:21.777453 10315 net.cpp:411] inception_4b/pool -> inception_4b/pool
I1126 10:11:21.777827 10315 net.cpp:150] Setting up inception_4b/pool
I1126 10:11:21.777838 10315 net.cpp:157] Top shape: 32 512 14 14 (3211264)
I1126 10:11:21.777842 10315 net.cpp:165] Memory required for data: 1303732996
I1126 10:11:21.777848 10315 layer_factory.hpp:76] Creating layer inception_4b/pool_proj
I1126 10:11:21.777858 10315 net.cpp:106] Creating Layer inception_4b/pool_proj
I1126 10:11:21.777863 10315 net.cpp:454] inception_4b/pool_proj <- inception_4b/pool
I1126 10:11:21.777883 10315 net.cpp:411] inception_4b/pool_proj -> inception_4b/pool_proj
I1126 10:11:21.779125 10315 cudnn_conv_layer.cpp:194] Reallocating workspace storage: 10080
I1126 10:11:21.779163 10315 net.cpp:150] Setting up inception_4b/pool_proj
I1126 10:11:21.779170 10315 net.cpp:157] Top shape: 32 64 14 14 (401408)
I1126 10:11:21.779183 10315 net.cpp:165] Memory required for data: 1305338628
I1126 10:11:21.779191 10315 layer_factory.hpp:76] Creating layer inception_4b/prelu_pool_proj
I1126 10:11:21.779197 10315 net.cpp:106] Creating Layer inception_4b/prelu_pool_proj
I1126 10:11:21.779202 10315 net.cpp:454] inception_4b/prelu_pool_proj <- inception_4b/pool_proj
I1126 10:11:21.779209 10315 net.cpp:397] inception_4b/prelu_pool_proj -> inception_4b/pool_proj (in-place)
I1126 10:11:21.779304 10315 net.cpp:150] Setting up inception_4b/prelu_pool_proj
I1126 10:11:21.779312 10315 net.cpp:157] Top shape: 32 64 14 14 (401408)
I1126 10:11:21.779316 10315 net.cpp:165] Memory required for data: 1306944260
I1126 10:11:21.779321 10315 layer_factory.hpp:76] Creating layer inception_4b/output
I1126 10:11:21.779327 10315 net.cpp:106] Creating Layer inception_4b/output
I1126 10:11:21.779331 10315 net.cpp:454] inception_4b/output <- inception_4b/1x1
I1126 10:11:21.779336 10315 net.cpp:454] inception_4b/output <- inception_4b/3x3
I1126 10:11:21.779341 10315 net.cpp:454] inception_4b/output <- inception_4b/5x5
I1126 10:11:21.779345 10315 net.cpp:454] inception_4b/output <- inception_4b/pool_proj
I1126 10:11:21.779350 10315 net.cpp:411] inception_4b/output -> inception_4b/output
I1126 10:11:21.779376 10315 net.cpp:150] Setting up inception_4b/output
I1126 10:11:21.779383 10315 net.cpp:157] Top shape: 32 512 14 14 (3211264)
I1126 10:11:21.779387 10315 net.cpp:165] Memory required for data: 1319789316
I1126 10:11:21.779392 10315 layer_factory.hpp:76] Creating layer inception_4b/output_inception_4b/output_0_split
I1126 10:11:21.779399 10315 net.cpp:106] Creating Layer inception_4b/output_inception_4b/output_0_split
I1126 10:11:21.779414 10315 net.cpp:454] inception_4b/output_inception_4b/output_0_split <- inception_4b/output
I1126 10:11:21.779428 10315 net.cpp:411] inception_4b/output_inception_4b/output_0_split -> inception_4b/output_inception_4b/output_0_split_0
I1126 10:11:21.779435 10315 net.cpp:411] inception_4b/output_inception_4b/output_0_split -> inception_4b/output_inception_4b/output_0_split_1
I1126 10:11:21.779441 10315 net.cpp:411] inception_4b/output_inception_4b/output_0_split -> inception_4b/output_inception_4b/output_0_split_2
I1126 10:11:21.779448 10315 net.cpp:411] inception_4b/output_inception_4b/output_0_split -> inception_4b/output_inception_4b/output_0_split_3
I1126 10:11:21.779505 10315 net.cpp:150] Setting up inception_4b/output_inception_4b/output_0_split
I1126 10:11:21.779511 10315 net.cpp:157] Top shape: 32 512 14 14 (3211264)
I1126 10:11:21.779516 10315 net.cpp:157] Top shape: 32 512 14 14 (3211264)
I1126 10:11:21.779521 10315 net.cpp:157] Top shape: 32 512 14 14 (3211264)
I1126 10:11:21.779526 10315 net.cpp:157] Top shape: 32 512 14 14 (3211264)
I1126 10:11:21.779530 10315 net.cpp:165] Memory required for data: 1371169540
I1126 10:11:21.779533 10315 layer_factory.hpp:76] Creating layer inception_4c/1x1
I1126 10:11:21.779542 10315 net.cpp:106] Creating Layer inception_4c/1x1
I1126 10:11:21.779546 10315 net.cpp:454] inception_4c/1x1 <- inception_4b/output_inception_4b/output_0_split_0
I1126 10:11:21.779553 10315 net.cpp:411] inception_4c/1x1 -> inception_4c/1x1
I1126 10:11:21.781224 10315 cudnn_conv_layer.cpp:194] Reallocating workspace storage: 10080
I1126 10:11:21.781247 10315 net.cpp:150] Setting up inception_4c/1x1
I1126 10:11:21.781255 10315 net.cpp:157] Top shape: 32 128 14 14 (802816)
I1126 10:11:21.781260 10315 net.cpp:165] Memory required for data: 1374380804
I1126 10:11:21.781265 10315 layer_factory.hpp:76] Creating layer inception_4c/prelu_1x1
I1126 10:11:21.781275 10315 net.cpp:106] Creating Layer inception_4c/prelu_1x1
I1126 10:11:21.781280 10315 net.cpp:454] inception_4c/prelu_1x1 <- inception_4c/1x1
I1126 10:11:21.781296 10315 net.cpp:397] inception_4c/prelu_1x1 -> inception_4c/1x1 (in-place)
I1126 10:11:21.781388 10315 net.cpp:150] Setting up inception_4c/prelu_1x1
I1126 10:11:21.781395 10315 net.cpp:157] Top shape: 32 128 14 14 (802816)
I1126 10:11:21.781399 10315 net.cpp:165] Memory required for data: 1377592068
I1126 10:11:21.781404 10315 layer_factory.hpp:76] Creating layer inception_4c/3x3_reduce
I1126 10:11:21.781414 10315 net.cpp:106] Creating Layer inception_4c/3x3_reduce
I1126 10:11:21.781417 10315 net.cpp:454] inception_4c/3x3_reduce <- inception_4b/output_inception_4b/output_0_split_1
I1126 10:11:21.781424 10315 net.cpp:411] inception_4c/3x3_reduce -> inception_4c/3x3_reduce
I1126 10:11:21.782902 10315 cudnn_conv_layer.cpp:194] Reallocating workspace storage: 10080
I1126 10:11:21.782923 10315 net.cpp:150] Setting up inception_4c/3x3_reduce
I1126 10:11:21.782932 10315 net.cpp:157] Top shape: 32 128 14 14 (802816)
I1126 10:11:21.782935 10315 net.cpp:165] Memory required for data: 1380803332
I1126 10:11:21.782943 10315 layer_factory.hpp:76] Creating layer inception_4c/prelu_3x3_reduce
I1126 10:11:21.782950 10315 net.cpp:106] Creating Layer inception_4c/prelu_3x3_reduce
I1126 10:11:21.782955 10315 net.cpp:454] inception_4c/prelu_3x3_reduce <- inception_4c/3x3_reduce
I1126 10:11:21.782961 10315 net.cpp:397] inception_4c/prelu_3x3_reduce -> inception_4c/3x3_reduce (in-place)
I1126 10:11:21.783052 10315 net.cpp:150] Setting up inception_4c/prelu_3x3_reduce
I1126 10:11:21.783061 10315 net.cpp:157] Top shape: 32 128 14 14 (802816)
I1126 10:11:21.783064 10315 net.cpp:165] Memory required for data: 1384014596
I1126 10:11:21.783069 10315 layer_factory.hpp:76] Creating layer inception_4c/3x3
I1126 10:11:21.783078 10315 net.cpp:106] Creating Layer inception_4c/3x3
I1126 10:11:21.783083 10315 net.cpp:454] inception_4c/3x3 <- inception_4c/3x3_reduce
I1126 10:11:21.783089 10315 net.cpp:411] inception_4c/3x3 -> inception_4c/3x3
I1126 10:11:21.786474 10315 cudnn_conv_layer.cpp:194] Reallocating workspace storage: 10080
I1126 10:11:21.786509 10315 net.cpp:150] Setting up inception_4c/3x3
I1126 10:11:21.786517 10315 net.cpp:157] Top shape: 32 256 14 14 (1605632)
I1126 10:11:21.786521 10315 net.cpp:165] Memory required for data: 1390437124
I1126 10:11:21.786530 10315 layer_factory.hpp:76] Creating layer inception_4c/prelu_3x3
I1126 10:11:21.786541 10315 net.cpp:106] Creating Layer inception_4c/prelu_3x3
I1126 10:11:21.786546 10315 net.cpp:454] inception_4c/prelu_3x3 <- inception_4c/3x3
I1126 10:11:21.786558 10315 net.cpp:397] inception_4c/prelu_3x3 -> inception_4c/3x3 (in-place)
I1126 10:11:21.786677 10315 net.cpp:150] Setting up inception_4c/prelu_3x3
I1126 10:11:21.786686 10315 net.cpp:157] Top shape: 32 256 14 14 (1605632)
I1126 10:11:21.786689 10315 net.cpp:165] Memory required for data: 1396859652
I1126 10:11:21.786695 10315 layer_factory.hpp:76] Creating layer inception_4c/5x5_reduce
I1126 10:11:21.786706 10315 net.cpp:106] Creating Layer inception_4c/5x5_reduce
I1126 10:11:21.786711 10315 net.cpp:454] inception_4c/5x5_reduce <- inception_4b/output_inception_4b/output_0_split_2
I1126 10:11:21.786720 10315 net.cpp:411] inception_4c/5x5_reduce -> inception_4c/5x5_reduce
I1126 10:11:21.787830 10315 cudnn_conv_layer.cpp:194] Reallocating workspace storage: 10080
I1126 10:11:21.787853 10315 net.cpp:150] Setting up inception_4c/5x5_reduce
I1126 10:11:21.787860 10315 net.cpp:157] Top shape: 32 24 14 14 (150528)
I1126 10:11:21.787865 10315 net.cpp:165] Memory required for data: 1397461764
I1126 10:11:21.787871 10315 layer_factory.hpp:76] Creating layer inception_4c/prelu_5x5_reduce
I1126 10:11:21.787880 10315 net.cpp:106] Creating Layer inception_4c/prelu_5x5_reduce
I1126 10:11:21.787885 10315 net.cpp:454] inception_4c/prelu_5x5_reduce <- inception_4c/5x5_reduce
I1126 10:11:21.787891 10315 net.cpp:397] inception_4c/prelu_5x5_reduce -> inception_4c/5x5_reduce (in-place)
I1126 10:11:21.787983 10315 net.cpp:150] Setting up inception_4c/prelu_5x5_reduce
I1126 10:11:21.787992 10315 net.cpp:157] Top shape: 32 24 14 14 (150528)
I1126 10:11:21.788013 10315 net.cpp:165] Memory required for data: 1398063876
I1126 10:11:21.788019 10315 layer_factory.hpp:76] Creating layer inception_4c/5x5
I1126 10:11:21.788029 10315 net.cpp:106] Creating Layer inception_4c/5x5
I1126 10:11:21.788033 10315 net.cpp:454] inception_4c/5x5 <- inception_4c/5x5_reduce
I1126 10:11:21.788041 10315 net.cpp:411] inception_4c/5x5 -> inception_4c/5x5
I1126 10:11:21.790035 10315 cudnn_conv_layer.cpp:194] Reallocating workspace storage: 13080
I1126 10:11:21.790087 10315 net.cpp:150] Setting up inception_4c/5x5
I1126 10:11:21.790097 10315 net.cpp:157] Top shape: 32 64 14 14 (401408)
I1126 10:11:21.790102 10315 net.cpp:165] Memory required for data: 1399669508
I1126 10:11:21.790112 10315 layer_factory.hpp:76] Creating layer inception_4c/prelu_5x5
I1126 10:11:21.790135 10315 net.cpp:106] Creating Layer inception_4c/prelu_5x5
I1126 10:11:21.790143 10315 net.cpp:454] inception_4c/prelu_5x5 <- inception_4c/5x5
I1126 10:11:21.790151 10315 net.cpp:397] inception_4c/prelu_5x5 -> inception_4c/5x5 (in-place)
I1126 10:11:21.790279 10315 net.cpp:150] Setting up inception_4c/prelu_5x5
I1126 10:11:21.790289 10315 net.cpp:157] Top shape: 32 64 14 14 (401408)
I1126 10:11:21.790302 10315 net.cpp:165] Memory required for data: 1401275140
I1126 10:11:21.790316 10315 layer_factory.hpp:76] Creating layer inception_4c/pool
I1126 10:11:21.790326 10315 net.cpp:106] Creating Layer inception_4c/pool
I1126 10:11:21.790331 10315 net.cpp:454] inception_4c/pool <- inception_4b/output_inception_4b/output_0_split_3
I1126 10:11:21.790339 10315 net.cpp:411] inception_4c/pool -> inception_4c/pool
I1126 10:11:21.790539 10315 net.cpp:150] Setting up inception_4c/pool
I1126 10:11:21.790549 10315 net.cpp:157] Top shape: 32 512 14 14 (3211264)
I1126 10:11:21.790552 10315 net.cpp:165] Memory required for data: 1414120196
I1126 10:11:21.790556 10315 layer_factory.hpp:76] Creating layer inception_4c/pool_proj
I1126 10:11:21.790567 10315 net.cpp:106] Creating Layer inception_4c/pool_proj
I1126 10:11:21.790572 10315 net.cpp:454] inception_4c/pool_proj <- inception_4c/pool
I1126 10:11:21.790580 10315 net.cpp:411] inception_4c/pool_proj -> inception_4c/pool_proj
I1126 10:11:21.792142 10315 cudnn_conv_layer.cpp:194] Reallocating workspace storage: 10080
I1126 10:11:21.792174 10315 net.cpp:150] Setting up inception_4c/pool_proj
I1126 10:11:21.792182 10315 net.cpp:157] Top shape: 32 64 14 14 (401408)
I1126 10:11:21.792187 10315 net.cpp:165] Memory required for data: 1415725828
I1126 10:11:21.792196 10315 layer_factory.hpp:76] Creating layer inception_4c/prelu_pool_proj
I1126 10:11:21.792203 10315 net.cpp:106] Creating Layer inception_4c/prelu_pool_proj
I1126 10:11:21.792208 10315 net.cpp:454] inception_4c/prelu_pool_proj <- inception_4c/pool_proj
I1126 10:11:21.792217 10315 net.cpp:397] inception_4c/prelu_pool_proj -> inception_4c/pool_proj (in-place)
I1126 10:11:21.792320 10315 net.cpp:150] Setting up inception_4c/prelu_pool_proj
I1126 10:11:21.792328 10315 net.cpp:157] Top shape: 32 64 14 14 (401408)
I1126 10:11:21.792332 10315 net.cpp:165] Memory required for data: 1417331460
I1126 10:11:21.792338 10315 layer_factory.hpp:76] Creating layer inception_4c/output
I1126 10:11:21.792346 10315 net.cpp:106] Creating Layer inception_4c/output
I1126 10:11:21.792351 10315 net.cpp:454] inception_4c/output <- inception_4c/1x1
I1126 10:11:21.792356 10315 net.cpp:454] inception_4c/output <- inception_4c/3x3
I1126 10:11:21.792361 10315 net.cpp:454] inception_4c/output <- inception_4c/5x5
I1126 10:11:21.792364 10315 net.cpp:454] inception_4c/output <- inception_4c/pool_proj
I1126 10:11:21.792371 10315 net.cpp:411] inception_4c/output -> inception_4c/output
I1126 10:11:21.792398 10315 net.cpp:150] Setting up inception_4c/output
I1126 10:11:21.792405 10315 net.cpp:157] Top shape: 32 512 14 14 (3211264)
I1126 10:11:21.792409 10315 net.cpp:165] Memory required for data: 1430176516
I1126 10:11:21.792413 10315 layer_factory.hpp:76] Creating layer inception_4c/output_inception_4c/output_0_split
I1126 10:11:21.792421 10315 net.cpp:106] Creating Layer inception_4c/output_inception_4c/output_0_split
I1126 10:11:21.792449 10315 net.cpp:454] inception_4c/output_inception_4c/output_0_split <- inception_4c/output
I1126 10:11:21.792456 10315 net.cpp:411] inception_4c/output_inception_4c/output_0_split -> inception_4c/output_inception_4c/output_0_split_0
I1126 10:11:21.792464 10315 net.cpp:411] inception_4c/output_inception_4c/output_0_split -> inception_4c/output_inception_4c/output_0_split_1
I1126 10:11:21.792470 10315 net.cpp:411] inception_4c/output_inception_4c/output_0_split -> inception_4c/output_inception_4c/output_0_split_2
I1126 10:11:21.792477 10315 net.cpp:411] inception_4c/output_inception_4c/output_0_split -> inception_4c/output_inception_4c/output_0_split_3
I1126 10:11:21.792541 10315 net.cpp:150] Setting up inception_4c/output_inception_4c/output_0_split
I1126 10:11:21.792547 10315 net.cpp:157] Top shape: 32 512 14 14 (3211264)
I1126 10:11:21.792553 10315 net.cpp:157] Top shape: 32 512 14 14 (3211264)
I1126 10:11:21.792557 10315 net.cpp:157] Top shape: 32 512 14 14 (3211264)
I1126 10:11:21.792562 10315 net.cpp:157] Top shape: 32 512 14 14 (3211264)
I1126 10:11:21.792567 10315 net.cpp:165] Memory required for data: 1481556740
I1126 10:11:21.792570 10315 layer_factory.hpp:76] Creating layer inception_4d/1x1
I1126 10:11:21.792579 10315 net.cpp:106] Creating Layer inception_4d/1x1
I1126 10:11:21.792584 10315 net.cpp:454] inception_4d/1x1 <- inception_4c/output_inception_4c/output_0_split_0
I1126 10:11:21.792590 10315 net.cpp:411] inception_4d/1x1 -> inception_4d/1x1
I1126 10:11:21.794108 10315 cudnn_conv_layer.cpp:194] Reallocating workspace storage: 10080
I1126 10:11:21.794143 10315 net.cpp:150] Setting up inception_4d/1x1
I1126 10:11:21.794152 10315 net.cpp:157] Top shape: 32 112 14 14 (702464)
I1126 10:11:21.794157 10315 net.cpp:165] Memory required for data: 1484366596
I1126 10:11:21.794165 10315 layer_factory.hpp:76] Creating layer inception_4d/prelu_1x1
I1126 10:11:21.794179 10315 net.cpp:106] Creating Layer inception_4d/prelu_1x1
I1126 10:11:21.794185 10315 net.cpp:454] inception_4d/prelu_1x1 <- inception_4d/1x1
I1126 10:11:21.794193 10315 net.cpp:397] inception_4d/prelu_1x1 -> inception_4d/1x1 (in-place)
I1126 10:11:21.794314 10315 net.cpp:150] Setting up inception_4d/prelu_1x1
I1126 10:11:21.794322 10315 net.cpp:157] Top shape: 32 112 14 14 (702464)
I1126 10:11:21.794327 10315 net.cpp:165] Memory required for data: 1487176452
I1126 10:11:21.794332 10315 layer_factory.hpp:76] Creating layer inception_4d/3x3_reduce
I1126 10:11:21.794342 10315 net.cpp:106] Creating Layer inception_4d/3x3_reduce
I1126 10:11:21.794348 10315 net.cpp:454] inception_4d/3x3_reduce <- inception_4c/output_inception_4c/output_0_split_1
I1126 10:11:21.794354 10315 net.cpp:411] inception_4d/3x3_reduce -> inception_4d/3x3_reduce
I1126 10:11:21.795778 10315 cudnn_conv_layer.cpp:194] Reallocating workspace storage: 10080
I1126 10:11:21.795822 10315 net.cpp:150] Setting up inception_4d/3x3_reduce
I1126 10:11:21.795832 10315 net.cpp:157] Top shape: 32 144 14 14 (903168)
I1126 10:11:21.795836 10315 net.cpp:165] Memory required for data: 1490789124
I1126 10:11:21.795845 10315 layer_factory.hpp:76] Creating layer inception_4d/prelu_3x3_reduce
I1126 10:11:21.795855 10315 net.cpp:106] Creating Layer inception_4d/prelu_3x3_reduce
I1126 10:11:21.795861 10315 net.cpp:454] inception_4d/prelu_3x3_reduce <- inception_4d/3x3_reduce
I1126 10:11:21.795868 10315 net.cpp:397] inception_4d/prelu_3x3_reduce -> inception_4d/3x3_reduce (in-place)
I1126 10:11:21.795992 10315 net.cpp:150] Setting up inception_4d/prelu_3x3_reduce
I1126 10:11:21.796001 10315 net.cpp:157] Top shape: 32 144 14 14 (903168)
I1126 10:11:21.796005 10315 net.cpp:165] Memory required for data: 1494401796
I1126 10:11:21.796010 10315 layer_factory.hpp:76] Creating layer inception_4d/3x3
I1126 10:11:21.796020 10315 net.cpp:106] Creating Layer inception_4d/3x3
I1126 10:11:21.796025 10315 net.cpp:454] inception_4d/3x3 <- inception_4d/3x3_reduce
I1126 10:11:21.796033 10315 net.cpp:411] inception_4d/3x3 -> inception_4d/3x3
I1126 10:11:21.800112 10315 cudnn_conv_layer.cpp:194] Reallocating workspace storage: 10080
I1126 10:11:21.800158 10315 net.cpp:150] Setting up inception_4d/3x3
I1126 10:11:21.800168 10315 net.cpp:157] Top shape: 32 288 14 14 (1806336)
I1126 10:11:21.800173 10315 net.cpp:165] Memory required for data: 1501627140
I1126 10:11:21.800182 10315 layer_factory.hpp:76] Creating layer inception_4d/prelu_3x3
I1126 10:11:21.800195 10315 net.cpp:106] Creating Layer inception_4d/prelu_3x3
I1126 10:11:21.800201 10315 net.cpp:454] inception_4d/prelu_3x3 <- inception_4d/3x3
I1126 10:11:21.800209 10315 net.cpp:397] inception_4d/prelu_3x3 -> inception_4d/3x3 (in-place)
I1126 10:11:21.800387 10315 net.cpp:150] Setting up inception_4d/prelu_3x3
I1126 10:11:21.800396 10315 net.cpp:157] Top shape: 32 288 14 14 (1806336)
I1126 10:11:21.800400 10315 net.cpp:165] Memory required for data: 1508852484
I1126 10:11:21.800406 10315 layer_factory.hpp:76] Creating layer inception_4d/5x5_reduce
I1126 10:11:21.800417 10315 net.cpp:106] Creating Layer inception_4d/5x5_reduce
I1126 10:11:21.800422 10315 net.cpp:454] inception_4d/5x5_reduce <- inception_4c/output_inception_4c/output_0_split_2
I1126 10:11:21.800431 10315 net.cpp:411] inception_4d/5x5_reduce -> inception_4d/5x5_reduce
I1126 10:11:21.801786 10315 cudnn_conv_layer.cpp:194] Reallocating workspace storage: 10080
I1126 10:11:21.801836 10315 net.cpp:150] Setting up inception_4d/5x5_reduce
I1126 10:11:21.801846 10315 net.cpp:157] Top shape: 32 32 14 14 (200704)
I1126 10:11:21.801851 10315 net.cpp:165] Memory required for data: 1509655300
I1126 10:11:21.801862 10315 layer_factory.hpp:76] Creating layer inception_4d/prelu_5x5_reduce
I1126 10:11:21.801872 10315 net.cpp:106] Creating Layer inception_4d/prelu_5x5_reduce
I1126 10:11:21.801877 10315 net.cpp:454] inception_4d/prelu_5x5_reduce <- inception_4d/5x5_reduce
I1126 10:11:21.801887 10315 net.cpp:397] inception_4d/prelu_5x5_reduce -> inception_4d/5x5_reduce (in-place)
I1126 10:11:21.802005 10315 net.cpp:150] Setting up inception_4d/prelu_5x5_reduce
I1126 10:11:21.802014 10315 net.cpp:157] Top shape: 32 32 14 14 (200704)
I1126 10:11:21.802018 10315 net.cpp:165] Memory required for data: 1510458116
I1126 10:11:21.802024 10315 layer_factory.hpp:76] Creating layer inception_4d/5x5
I1126 10:11:21.802036 10315 net.cpp:106] Creating Layer inception_4d/5x5
I1126 10:11:21.802040 10315 net.cpp:454] inception_4d/5x5 <- inception_4d/5x5_reduce
I1126 10:11:21.802047 10315 net.cpp:411] inception_4d/5x5 -> inception_4d/5x5
I1126 10:11:21.804009 10315 cudnn_conv_layer.cpp:194] Reallocating workspace storage: 13080
I1126 10:11:21.804055 10315 net.cpp:150] Setting up inception_4d/5x5
I1126 10:11:21.804064 10315 net.cpp:157] Top shape: 32 64 14 14 (401408)
I1126 10:11:21.804069 10315 net.cpp:165] Memory required for data: 1512063748
I1126 10:11:21.804077 10315 layer_factory.hpp:76] Creating layer inception_4d/prelu_5x5
I1126 10:11:21.804086 10315 net.cpp:106] Creating Layer inception_4d/prelu_5x5
I1126 10:11:21.804092 10315 net.cpp:454] inception_4d/prelu_5x5 <- inception_4d/5x5
I1126 10:11:21.804101 10315 net.cpp:397] inception_4d/prelu_5x5 -> inception_4d/5x5 (in-place)
I1126 10:11:21.804222 10315 net.cpp:150] Setting up inception_4d/prelu_5x5
I1126 10:11:21.804230 10315 net.cpp:157] Top shape: 32 64 14 14 (401408)
I1126 10:11:21.804234 10315 net.cpp:165] Memory required for data: 1513669380
I1126 10:11:21.804240 10315 layer_factory.hpp:76] Creating layer inception_4d/pool
I1126 10:11:21.804249 10315 net.cpp:106] Creating Layer inception_4d/pool
I1126 10:11:21.804252 10315 net.cpp:454] inception_4d/pool <- inception_4c/output_inception_4c/output_0_split_3
I1126 10:11:21.804260 10315 net.cpp:411] inception_4d/pool -> inception_4d/pool
I1126 10:11:21.804450 10315 net.cpp:150] Setting up inception_4d/pool
I1126 10:11:21.804460 10315 net.cpp:157] Top shape: 32 512 14 14 (3211264)
I1126 10:11:21.804463 10315 net.cpp:165] Memory required for data: 1526514436
I1126 10:11:21.804467 10315 layer_factory.hpp:76] Creating layer inception_4d/pool_proj
I1126 10:11:21.804478 10315 net.cpp:106] Creating Layer inception_4d/pool_proj
I1126 10:11:21.804503 10315 net.cpp:454] inception_4d/pool_proj <- inception_4d/pool
I1126 10:11:21.804512 10315 net.cpp:411] inception_4d/pool_proj -> inception_4d/pool_proj
I1126 10:11:21.805784 10315 cudnn_conv_layer.cpp:194] Reallocating workspace storage: 10080
I1126 10:11:21.805814 10315 net.cpp:150] Setting up inception_4d/pool_proj
I1126 10:11:21.805821 10315 net.cpp:157] Top shape: 32 64 14 14 (401408)
I1126 10:11:21.805825 10315 net.cpp:165] Memory required for data: 1528120068
I1126 10:11:21.805832 10315 layer_factory.hpp:76] Creating layer inception_4d/prelu_pool_proj
I1126 10:11:21.805843 10315 net.cpp:106] Creating Layer inception_4d/prelu_pool_proj
I1126 10:11:21.805848 10315 net.cpp:454] inception_4d/prelu_pool_proj <- inception_4d/pool_proj
I1126 10:11:21.805855 10315 net.cpp:397] inception_4d/prelu_pool_proj -> inception_4d/pool_proj (in-place)
I1126 10:11:21.805965 10315 net.cpp:150] Setting up inception_4d/prelu_pool_proj
I1126 10:11:21.805974 10315 net.cpp:157] Top shape: 32 64 14 14 (401408)
I1126 10:11:21.805979 10315 net.cpp:165] Memory required for data: 1529725700
I1126 10:11:21.805984 10315 layer_factory.hpp:76] Creating layer inception_4d/output
I1126 10:11:21.805991 10315 net.cpp:106] Creating Layer inception_4d/output
I1126 10:11:21.805995 10315 net.cpp:454] inception_4d/output <- inception_4d/1x1
I1126 10:11:21.806001 10315 net.cpp:454] inception_4d/output <- inception_4d/3x3
I1126 10:11:21.806005 10315 net.cpp:454] inception_4d/output <- inception_4d/5x5
I1126 10:11:21.806010 10315 net.cpp:454] inception_4d/output <- inception_4d/pool_proj
I1126 10:11:21.806017 10315 net.cpp:411] inception_4d/output -> inception_4d/output
I1126 10:11:21.806047 10315 net.cpp:150] Setting up inception_4d/output
I1126 10:11:21.806054 10315 net.cpp:157] Top shape: 32 528 14 14 (3311616)
I1126 10:11:21.806058 10315 net.cpp:165] Memory required for data: 1542972164
I1126 10:11:21.806062 10315 layer_factory.hpp:76] Creating layer inception_4d/output_inception_4d/output_0_split
I1126 10:11:21.806069 10315 net.cpp:106] Creating Layer inception_4d/output_inception_4d/output_0_split
I1126 10:11:21.806073 10315 net.cpp:454] inception_4d/output_inception_4d/output_0_split <- inception_4d/output
I1126 10:11:21.806079 10315 net.cpp:411] inception_4d/output_inception_4d/output_0_split -> inception_4d/output_inception_4d/output_0_split_0
I1126 10:11:21.806088 10315 net.cpp:411] inception_4d/output_inception_4d/output_0_split -> inception_4d/output_inception_4d/output_0_split_1
I1126 10:11:21.806095 10315 net.cpp:411] inception_4d/output_inception_4d/output_0_split -> inception_4d/output_inception_4d/output_0_split_2
I1126 10:11:21.806102 10315 net.cpp:411] inception_4d/output_inception_4d/output_0_split -> inception_4d/output_inception_4d/output_0_split_3
I1126 10:11:21.806108 10315 net.cpp:411] inception_4d/output_inception_4d/output_0_split -> inception_4d/output_inception_4d/output_0_split_4
I1126 10:11:21.806184 10315 net.cpp:150] Setting up inception_4d/output_inception_4d/output_0_split
I1126 10:11:21.806190 10315 net.cpp:157] Top shape: 32 528 14 14 (3311616)
I1126 10:11:21.806195 10315 net.cpp:157] Top shape: 32 528 14 14 (3311616)
I1126 10:11:21.806200 10315 net.cpp:157] Top shape: 32 528 14 14 (3311616)
I1126 10:11:21.806205 10315 net.cpp:157] Top shape: 32 528 14 14 (3311616)
I1126 10:11:21.806210 10315 net.cpp:157] Top shape: 32 528 14 14 (3311616)
I1126 10:11:21.806213 10315 net.cpp:165] Memory required for data: 1609204484
I1126 10:11:21.806218 10315 layer_factory.hpp:76] Creating layer loss2/ave_pool
I1126 10:11:21.806224 10315 net.cpp:106] Creating Layer loss2/ave_pool
I1126 10:11:21.806229 10315 net.cpp:454] loss2/ave_pool <- inception_4d/output_inception_4d/output_0_split_0
I1126 10:11:21.806236 10315 net.cpp:411] loss2/ave_pool -> loss2/ave_pool
I1126 10:11:21.806629 10315 net.cpp:150] Setting up loss2/ave_pool
I1126 10:11:21.806641 10315 net.cpp:157] Top shape: 32 528 4 4 (270336)
I1126 10:11:21.806645 10315 net.cpp:165] Memory required for data: 1610285828
I1126 10:11:21.806661 10315 layer_factory.hpp:76] Creating layer loss2/conv
I1126 10:11:21.806674 10315 net.cpp:106] Creating Layer loss2/conv
I1126 10:11:21.806679 10315 net.cpp:454] loss2/conv <- loss2/ave_pool
I1126 10:11:21.806702 10315 net.cpp:411] loss2/conv -> loss2/conv
I1126 10:11:21.808178 10315 cudnn_conv_layer.cpp:194] Reallocating workspace storage: 6840
I1126 10:11:21.808204 10315 net.cpp:150] Setting up loss2/conv
I1126 10:11:21.808212 10315 net.cpp:157] Top shape: 32 128 4 4 (65536)
I1126 10:11:21.808217 10315 net.cpp:165] Memory required for data: 1610547972
I1126 10:11:21.808224 10315 layer_factory.hpp:76] Creating layer loss2/prelu_conv
I1126 10:11:21.808233 10315 net.cpp:106] Creating Layer loss2/prelu_conv
I1126 10:11:21.808238 10315 net.cpp:454] loss2/prelu_conv <- loss2/conv
I1126 10:11:21.808244 10315 net.cpp:397] loss2/prelu_conv -> loss2/conv (in-place)
I1126 10:11:21.808342 10315 net.cpp:150] Setting up loss2/prelu_conv
I1126 10:11:21.808351 10315 net.cpp:157] Top shape: 32 128 4 4 (65536)
I1126 10:11:21.808354 10315 net.cpp:165] Memory required for data: 1610810116
I1126 10:11:21.808361 10315 layer_factory.hpp:76] Creating layer loss2/fc
I1126 10:11:21.808367 10315 net.cpp:106] Creating Layer loss2/fc
I1126 10:11:21.808372 10315 net.cpp:454] loss2/fc <- loss2/conv
I1126 10:11:21.808379 10315 net.cpp:411] loss2/fc -> loss2/fc
I1126 10:11:21.823915 10315 net.cpp:150] Setting up loss2/fc
I1126 10:11:21.823954 10315 net.cpp:157] Top shape: 32 1024 (32768)
I1126 10:11:21.823961 10315 net.cpp:165] Memory required for data: 1610941188
I1126 10:11:21.823993 10315 layer_factory.hpp:76] Creating layer loss2/prelu_fc
I1126 10:11:21.824008 10315 net.cpp:106] Creating Layer loss2/prelu_fc
I1126 10:11:21.824017 10315 net.cpp:454] loss2/prelu_fc <- loss2/fc
I1126 10:11:21.824024 10315 net.cpp:397] loss2/prelu_fc -> loss2/fc (in-place)
I1126 10:11:21.824115 10315 net.cpp:150] Setting up loss2/prelu_fc
I1126 10:11:21.824126 10315 net.cpp:157] Top shape: 32 1024 (32768)
I1126 10:11:21.824129 10315 net.cpp:165] Memory required for data: 1611072260
I1126 10:11:21.824136 10315 layer_factory.hpp:76] Creating layer loss2/drop_fc
I1126 10:11:21.824142 10315 net.cpp:106] Creating Layer loss2/drop_fc
I1126 10:11:21.824147 10315 net.cpp:454] loss2/drop_fc <- loss2/fc
I1126 10:11:21.824152 10315 net.cpp:397] loss2/drop_fc -> loss2/fc (in-place)
I1126 10:11:21.824180 10315 net.cpp:150] Setting up loss2/drop_fc
I1126 10:11:21.824188 10315 net.cpp:157] Top shape: 32 1024 (32768)
I1126 10:11:21.824192 10315 net.cpp:165] Memory required for data: 1611203332
I1126 10:11:21.824196 10315 layer_factory.hpp:76] Creating layer loss2/classifier2
I1126 10:11:21.824205 10315 net.cpp:106] Creating Layer loss2/classifier2
I1126 10:11:21.824209 10315 net.cpp:454] loss2/classifier2 <- loss2/fc
I1126 10:11:21.824215 10315 net.cpp:411] loss2/classifier2 -> loss2/classifier
I1126 10:11:21.824343 10315 net.cpp:150] Setting up loss2/classifier2
I1126 10:11:21.824352 10315 net.cpp:157] Top shape: 32 2 (64)
I1126 10:11:21.824355 10315 net.cpp:165] Memory required for data: 1611203588
I1126 10:11:21.824362 10315 layer_factory.hpp:76] Creating layer loss2/loss
I1126 10:11:21.824369 10315 net.cpp:106] Creating Layer loss2/loss
I1126 10:11:21.824373 10315 net.cpp:454] loss2/loss <- loss2/classifier
I1126 10:11:21.824379 10315 net.cpp:454] loss2/loss <- label_data_1_split_1
I1126 10:11:21.824386 10315 net.cpp:411] loss2/loss -> loss2/loss1
I1126 10:11:21.824396 10315 layer_factory.hpp:76] Creating layer loss2/loss
I1126 10:11:21.824705 10315 net.cpp:150] Setting up loss2/loss
I1126 10:11:21.824729 10315 net.cpp:157] Top shape: (1)
I1126 10:11:21.824736 10315 net.cpp:160]     with loss weight 0.3
I1126 10:11:21.824749 10315 net.cpp:165] Memory required for data: 1611203592
I1126 10:11:21.824754 10315 layer_factory.hpp:76] Creating layer inception_4e/1x1
I1126 10:11:21.824764 10315 net.cpp:106] Creating Layer inception_4e/1x1
I1126 10:11:21.824770 10315 net.cpp:454] inception_4e/1x1 <- inception_4d/output_inception_4d/output_0_split_1
I1126 10:11:21.824779 10315 net.cpp:411] inception_4e/1x1 -> inception_4e/1x1
I1126 10:11:21.827363 10315 cudnn_conv_layer.cpp:194] Reallocating workspace storage: 10080
I1126 10:11:21.827406 10315 net.cpp:150] Setting up inception_4e/1x1
I1126 10:11:21.827416 10315 net.cpp:157] Top shape: 32 256 14 14 (1605632)
I1126 10:11:21.827420 10315 net.cpp:165] Memory required for data: 1617626120
I1126 10:11:21.827430 10315 layer_factory.hpp:76] Creating layer inception_4e/prelu_1x1
I1126 10:11:21.827440 10315 net.cpp:106] Creating Layer inception_4e/prelu_1x1
I1126 10:11:21.827446 10315 net.cpp:454] inception_4e/prelu_1x1 <- inception_4e/1x1
I1126 10:11:21.827455 10315 net.cpp:397] inception_4e/prelu_1x1 -> inception_4e/1x1 (in-place)
I1126 10:11:21.827605 10315 net.cpp:150] Setting up inception_4e/prelu_1x1
I1126 10:11:21.827615 10315 net.cpp:157] Top shape: 32 256 14 14 (1605632)
I1126 10:11:21.827618 10315 net.cpp:165] Memory required for data: 1624048648
I1126 10:11:21.827625 10315 layer_factory.hpp:76] Creating layer inception_4e/3x3_reduce
I1126 10:11:21.827636 10315 net.cpp:106] Creating Layer inception_4e/3x3_reduce
I1126 10:11:21.827641 10315 net.cpp:454] inception_4e/3x3_reduce <- inception_4d/output_inception_4d/output_0_split_2
I1126 10:11:21.827649 10315 net.cpp:411] inception_4e/3x3_reduce -> inception_4e/3x3_reduce
I1126 10:11:21.829308 10315 cudnn_conv_layer.cpp:194] Reallocating workspace storage: 10080
I1126 10:11:21.829344 10315 net.cpp:150] Setting up inception_4e/3x3_reduce
I1126 10:11:21.829356 10315 net.cpp:157] Top shape: 32 160 14 14 (1003520)
I1126 10:11:21.829371 10315 net.cpp:165] Memory required for data: 1628062728
I1126 10:11:21.829380 10315 layer_factory.hpp:76] Creating layer inception_4e/prelu_3x3_reduce
I1126 10:11:21.829390 10315 net.cpp:106] Creating Layer inception_4e/prelu_3x3_reduce
I1126 10:11:21.829396 10315 net.cpp:454] inception_4e/prelu_3x3_reduce <- inception_4e/3x3_reduce
I1126 10:11:21.829402 10315 net.cpp:397] inception_4e/prelu_3x3_reduce -> inception_4e/3x3_reduce (in-place)
I1126 10:11:21.829538 10315 net.cpp:150] Setting up inception_4e/prelu_3x3_reduce
I1126 10:11:21.829546 10315 net.cpp:157] Top shape: 32 160 14 14 (1003520)
I1126 10:11:21.829550 10315 net.cpp:165] Memory required for data: 1632076808
I1126 10:11:21.829556 10315 layer_factory.hpp:76] Creating layer inception_4e/3x3
I1126 10:11:21.829566 10315 net.cpp:106] Creating Layer inception_4e/3x3
I1126 10:11:21.829571 10315 net.cpp:454] inception_4e/3x3 <- inception_4e/3x3_reduce
I1126 10:11:21.829578 10315 net.cpp:411] inception_4e/3x3 -> inception_4e/3x3
I1126 10:11:21.834300 10315 cudnn_conv_layer.cpp:194] Reallocating workspace storage: 10080
I1126 10:11:21.834337 10315 net.cpp:150] Setting up inception_4e/3x3
I1126 10:11:21.834347 10315 net.cpp:157] Top shape: 32 320 14 14 (2007040)
I1126 10:11:21.834352 10315 net.cpp:165] Memory required for data: 1640104968
I1126 10:11:21.834359 10315 layer_factory.hpp:76] Creating layer inception_4e/prelu_3x3
I1126 10:11:21.834372 10315 net.cpp:106] Creating Layer inception_4e/prelu_3x3
I1126 10:11:21.834378 10315 net.cpp:454] inception_4e/prelu_3x3 <- inception_4e/3x3
I1126 10:11:21.834388 10315 net.cpp:397] inception_4e/prelu_3x3 -> inception_4e/3x3 (in-place)
I1126 10:11:21.834539 10315 net.cpp:150] Setting up inception_4e/prelu_3x3
I1126 10:11:21.834547 10315 net.cpp:157] Top shape: 32 320 14 14 (2007040)
I1126 10:11:21.834552 10315 net.cpp:165] Memory required for data: 1648133128
I1126 10:11:21.834558 10315 layer_factory.hpp:76] Creating layer inception_4e/5x5_reduce
I1126 10:11:21.834568 10315 net.cpp:106] Creating Layer inception_4e/5x5_reduce
I1126 10:11:21.834573 10315 net.cpp:454] inception_4e/5x5_reduce <- inception_4d/output_inception_4d/output_0_split_3
I1126 10:11:21.834579 10315 net.cpp:411] inception_4e/5x5_reduce -> inception_4e/5x5_reduce
I1126 10:11:21.835741 10315 cudnn_conv_layer.cpp:194] Reallocating workspace storage: 10080
I1126 10:11:21.835767 10315 net.cpp:150] Setting up inception_4e/5x5_reduce
I1126 10:11:21.835774 10315 net.cpp:157] Top shape: 32 32 14 14 (200704)
I1126 10:11:21.835803 10315 net.cpp:165] Memory required for data: 1648935944
I1126 10:11:21.835810 10315 layer_factory.hpp:76] Creating layer inception_4e/prelu_5x5_reduce
I1126 10:11:21.835819 10315 net.cpp:106] Creating Layer inception_4e/prelu_5x5_reduce
I1126 10:11:21.835824 10315 net.cpp:454] inception_4e/prelu_5x5_reduce <- inception_4e/5x5_reduce
I1126 10:11:21.835830 10315 net.cpp:397] inception_4e/prelu_5x5_reduce -> inception_4e/5x5_reduce (in-place)
I1126 10:11:21.835937 10315 net.cpp:150] Setting up inception_4e/prelu_5x5_reduce
I1126 10:11:21.835947 10315 net.cpp:157] Top shape: 32 32 14 14 (200704)
I1126 10:11:21.835950 10315 net.cpp:165] Memory required for data: 1649738760
I1126 10:11:21.835955 10315 layer_factory.hpp:76] Creating layer inception_4e/5x5
I1126 10:11:21.835978 10315 net.cpp:106] Creating Layer inception_4e/5x5
I1126 10:11:21.835984 10315 net.cpp:454] inception_4e/5x5 <- inception_4e/5x5_reduce
I1126 10:11:21.835993 10315 net.cpp:411] inception_4e/5x5 -> inception_4e/5x5
I1126 10:11:21.838059 10315 cudnn_conv_layer.cpp:194] Reallocating workspace storage: 13080
I1126 10:11:21.838083 10315 net.cpp:150] Setting up inception_4e/5x5
I1126 10:11:21.838090 10315 net.cpp:157] Top shape: 32 128 14 14 (802816)
I1126 10:11:21.838094 10315 net.cpp:165] Memory required for data: 1652950024
I1126 10:11:21.838101 10315 layer_factory.hpp:76] Creating layer inception_4e/prelu_5x5
I1126 10:11:21.838110 10315 net.cpp:106] Creating Layer inception_4e/prelu_5x5
I1126 10:11:21.838115 10315 net.cpp:454] inception_4e/prelu_5x5 <- inception_4e/5x5
I1126 10:11:21.838124 10315 net.cpp:397] inception_4e/prelu_5x5 -> inception_4e/5x5 (in-place)
I1126 10:11:21.838241 10315 net.cpp:150] Setting up inception_4e/prelu_5x5
I1126 10:11:21.838249 10315 net.cpp:157] Top shape: 32 128 14 14 (802816)
I1126 10:11:21.838253 10315 net.cpp:165] Memory required for data: 1656161288
I1126 10:11:21.838258 10315 layer_factory.hpp:76] Creating layer inception_4e/pool
I1126 10:11:21.838266 10315 net.cpp:106] Creating Layer inception_4e/pool
I1126 10:11:21.838271 10315 net.cpp:454] inception_4e/pool <- inception_4d/output_inception_4d/output_0_split_4
I1126 10:11:21.838279 10315 net.cpp:411] inception_4e/pool -> inception_4e/pool
I1126 10:11:21.838696 10315 net.cpp:150] Setting up inception_4e/pool
I1126 10:11:21.838706 10315 net.cpp:157] Top shape: 32 528 14 14 (3311616)
I1126 10:11:21.838711 10315 net.cpp:165] Memory required for data: 1669407752
I1126 10:11:21.838723 10315 layer_factory.hpp:76] Creating layer inception_4e/pool_proj
I1126 10:11:21.838742 10315 net.cpp:106] Creating Layer inception_4e/pool_proj
I1126 10:11:21.838747 10315 net.cpp:454] inception_4e/pool_proj <- inception_4e/pool
I1126 10:11:21.838754 10315 net.cpp:411] inception_4e/pool_proj -> inception_4e/pool_proj
I1126 10:11:21.840107 10315 cudnn_conv_layer.cpp:194] Reallocating workspace storage: 10080
I1126 10:11:21.840134 10315 net.cpp:150] Setting up inception_4e/pool_proj
I1126 10:11:21.840142 10315 net.cpp:157] Top shape: 32 128 14 14 (802816)
I1126 10:11:21.840147 10315 net.cpp:165] Memory required for data: 1672619016
I1126 10:11:21.840152 10315 layer_factory.hpp:76] Creating layer inception_4e/prelu_pool_proj
I1126 10:11:21.840162 10315 net.cpp:106] Creating Layer inception_4e/prelu_pool_proj
I1126 10:11:21.840167 10315 net.cpp:454] inception_4e/prelu_pool_proj <- inception_4e/pool_proj
I1126 10:11:21.840174 10315 net.cpp:397] inception_4e/prelu_pool_proj -> inception_4e/pool_proj (in-place)
I1126 10:11:21.840286 10315 net.cpp:150] Setting up inception_4e/prelu_pool_proj
I1126 10:11:21.840294 10315 net.cpp:157] Top shape: 32 128 14 14 (802816)
I1126 10:11:21.840298 10315 net.cpp:165] Memory required for data: 1675830280
I1126 10:11:21.840304 10315 layer_factory.hpp:76] Creating layer inception_4e/output
I1126 10:11:21.840311 10315 net.cpp:106] Creating Layer inception_4e/output
I1126 10:11:21.840315 10315 net.cpp:454] inception_4e/output <- inception_4e/1x1
I1126 10:11:21.840320 10315 net.cpp:454] inception_4e/output <- inception_4e/3x3
I1126 10:11:21.840324 10315 net.cpp:454] inception_4e/output <- inception_4e/5x5
I1126 10:11:21.840340 10315 net.cpp:454] inception_4e/output <- inception_4e/pool_proj
I1126 10:11:21.840348 10315 net.cpp:411] inception_4e/output -> inception_4e/output
I1126 10:11:21.840376 10315 net.cpp:150] Setting up inception_4e/output
I1126 10:11:21.840384 10315 net.cpp:157] Top shape: 32 832 14 14 (5218304)
I1126 10:11:21.840387 10315 net.cpp:165] Memory required for data: 1696703496
I1126 10:11:21.840392 10315 layer_factory.hpp:76] Creating layer pool4/3x3_s2
I1126 10:11:21.840399 10315 net.cpp:106] Creating Layer pool4/3x3_s2
I1126 10:11:21.840402 10315 net.cpp:454] pool4/3x3_s2 <- inception_4e/output
I1126 10:11:21.840409 10315 net.cpp:411] pool4/3x3_s2 -> pool4/3x3_s2
I1126 10:11:21.840798 10315 net.cpp:150] Setting up pool4/3x3_s2
I1126 10:11:21.840808 10315 net.cpp:157] Top shape: 32 832 7 7 (1304576)
I1126 10:11:21.840812 10315 net.cpp:165] Memory required for data: 1701921800
I1126 10:11:21.840816 10315 layer_factory.hpp:76] Creating layer pool4/3x3_s2_pool4/3x3_s2_0_split
I1126 10:11:21.840823 10315 net.cpp:106] Creating Layer pool4/3x3_s2_pool4/3x3_s2_0_split
I1126 10:11:21.840828 10315 net.cpp:454] pool4/3x3_s2_pool4/3x3_s2_0_split <- pool4/3x3_s2
I1126 10:11:21.840833 10315 net.cpp:411] pool4/3x3_s2_pool4/3x3_s2_0_split -> pool4/3x3_s2_pool4/3x3_s2_0_split_0
I1126 10:11:21.840842 10315 net.cpp:411] pool4/3x3_s2_pool4/3x3_s2_0_split -> pool4/3x3_s2_pool4/3x3_s2_0_split_1
I1126 10:11:21.840849 10315 net.cpp:411] pool4/3x3_s2_pool4/3x3_s2_0_split -> pool4/3x3_s2_pool4/3x3_s2_0_split_2
I1126 10:11:21.840855 10315 net.cpp:411] pool4/3x3_s2_pool4/3x3_s2_0_split -> pool4/3x3_s2_pool4/3x3_s2_0_split_3
I1126 10:11:21.840921 10315 net.cpp:150] Setting up pool4/3x3_s2_pool4/3x3_s2_0_split
I1126 10:11:21.840929 10315 net.cpp:157] Top shape: 32 832 7 7 (1304576)
I1126 10:11:21.840934 10315 net.cpp:157] Top shape: 32 832 7 7 (1304576)
I1126 10:11:21.840939 10315 net.cpp:157] Top shape: 32 832 7 7 (1304576)
I1126 10:11:21.840944 10315 net.cpp:157] Top shape: 32 832 7 7 (1304576)
I1126 10:11:21.840946 10315 net.cpp:165] Memory required for data: 1722795016
I1126 10:11:21.840951 10315 layer_factory.hpp:76] Creating layer inception_5a/1x1
I1126 10:11:21.840960 10315 net.cpp:106] Creating Layer inception_5a/1x1
I1126 10:11:21.840965 10315 net.cpp:454] inception_5a/1x1 <- pool4/3x3_s2_pool4/3x3_s2_0_split_0
I1126 10:11:21.840971 10315 net.cpp:411] inception_5a/1x1 -> inception_5a/1x1
I1126 10:11:21.843679 10315 cudnn_conv_layer.cpp:194] Reallocating workspace storage: 7428
I1126 10:11:21.843705 10315 net.cpp:150] Setting up inception_5a/1x1
I1126 10:11:21.843713 10315 net.cpp:157] Top shape: 32 256 7 7 (401408)
I1126 10:11:21.843716 10315 net.cpp:165] Memory required for data: 1724400648
I1126 10:11:21.843724 10315 layer_factory.hpp:76] Creating layer inception_5a/prelu_1x1
I1126 10:11:21.843732 10315 net.cpp:106] Creating Layer inception_5a/prelu_1x1
I1126 10:11:21.843737 10315 net.cpp:454] inception_5a/prelu_1x1 <- inception_5a/1x1
I1126 10:11:21.843744 10315 net.cpp:397] inception_5a/prelu_1x1 -> inception_5a/1x1 (in-place)
I1126 10:11:21.844331 10315 net.cpp:150] Setting up inception_5a/prelu_1x1
I1126 10:11:21.844341 10315 net.cpp:157] Top shape: 32 256 7 7 (401408)
I1126 10:11:21.844347 10315 net.cpp:165] Memory required for data: 1726006280
I1126 10:11:21.844352 10315 layer_factory.hpp:76] Creating layer inception_5a/3x3_reduce
I1126 10:11:21.844362 10315 net.cpp:106] Creating Layer inception_5a/3x3_reduce
I1126 10:11:21.844367 10315 net.cpp:454] inception_5a/3x3_reduce <- pool4/3x3_s2_pool4/3x3_s2_0_split_1
I1126 10:11:21.844373 10315 net.cpp:411] inception_5a/3x3_reduce -> inception_5a/3x3_reduce
I1126 10:11:21.846815 10315 cudnn_conv_layer.cpp:194] Reallocating workspace storage: 7428
I1126 10:11:21.846848 10315 net.cpp:150] Setting up inception_5a/3x3_reduce
I1126 10:11:21.846856 10315 net.cpp:157] Top shape: 32 160 7 7 (250880)
I1126 10:11:21.846860 10315 net.cpp:165] Memory required for data: 1727009800
I1126 10:11:21.846868 10315 layer_factory.hpp:76] Creating layer inception_5a/prelu_3x3_reduce
I1126 10:11:21.846894 10315 net.cpp:106] Creating Layer inception_5a/prelu_3x3_reduce
I1126 10:11:21.846899 10315 net.cpp:454] inception_5a/prelu_3x3_reduce <- inception_5a/3x3_reduce
I1126 10:11:21.846907 10315 net.cpp:397] inception_5a/prelu_3x3_reduce -> inception_5a/3x3_reduce (in-place)
I1126 10:11:21.847007 10315 net.cpp:150] Setting up inception_5a/prelu_3x3_reduce
I1126 10:11:21.847017 10315 net.cpp:157] Top shape: 32 160 7 7 (250880)
I1126 10:11:21.847020 10315 net.cpp:165] Memory required for data: 1728013320
I1126 10:11:21.847025 10315 layer_factory.hpp:76] Creating layer inception_5a/3x3
I1126 10:11:21.847035 10315 net.cpp:106] Creating Layer inception_5a/3x3
I1126 10:11:21.847039 10315 net.cpp:454] inception_5a/3x3 <- inception_5a/3x3_reduce
I1126 10:11:21.847048 10315 net.cpp:411] inception_5a/3x3 -> inception_5a/3x3
I1126 10:11:21.851367 10315 cudnn_conv_layer.cpp:194] Reallocating workspace storage: 7788
I1126 10:11:21.851408 10315 net.cpp:150] Setting up inception_5a/3x3
I1126 10:11:21.851418 10315 net.cpp:157] Top shape: 32 320 7 7 (501760)
I1126 10:11:21.851421 10315 net.cpp:165] Memory required for data: 1730020360
I1126 10:11:21.851428 10315 layer_factory.hpp:76] Creating layer inception_5a/prelu_3x3
I1126 10:11:21.851438 10315 net.cpp:106] Creating Layer inception_5a/prelu_3x3
I1126 10:11:21.851444 10315 net.cpp:454] inception_5a/prelu_3x3 <- inception_5a/3x3
I1126 10:11:21.851452 10315 net.cpp:397] inception_5a/prelu_3x3 -> inception_5a/3x3 (in-place)
I1126 10:11:21.851568 10315 net.cpp:150] Setting up inception_5a/prelu_3x3
I1126 10:11:21.851577 10315 net.cpp:157] Top shape: 32 320 7 7 (501760)
I1126 10:11:21.851580 10315 net.cpp:165] Memory required for data: 1732027400
I1126 10:11:21.851585 10315 layer_factory.hpp:76] Creating layer inception_5a/5x5_reduce
I1126 10:11:21.851595 10315 net.cpp:106] Creating Layer inception_5a/5x5_reduce
I1126 10:11:21.851601 10315 net.cpp:454] inception_5a/5x5_reduce <- pool4/3x3_s2_pool4/3x3_s2_0_split_2
I1126 10:11:21.851608 10315 net.cpp:411] inception_5a/5x5_reduce -> inception_5a/5x5_reduce
I1126 10:11:21.852833 10315 cudnn_conv_layer.cpp:194] Reallocating workspace storage: 7428
I1126 10:11:21.852857 10315 net.cpp:150] Setting up inception_5a/5x5_reduce
I1126 10:11:21.852865 10315 net.cpp:157] Top shape: 32 32 7 7 (50176)
I1126 10:11:21.852869 10315 net.cpp:165] Memory required for data: 1732228104
I1126 10:11:21.852876 10315 layer_factory.hpp:76] Creating layer inception_5a/prelu_5x5_reduce
I1126 10:11:21.852885 10315 net.cpp:106] Creating Layer inception_5a/prelu_5x5_reduce
I1126 10:11:21.852890 10315 net.cpp:454] inception_5a/prelu_5x5_reduce <- inception_5a/5x5_reduce
I1126 10:11:21.852895 10315 net.cpp:397] inception_5a/prelu_5x5_reduce -> inception_5a/5x5_reduce (in-place)
I1126 10:11:21.852995 10315 net.cpp:150] Setting up inception_5a/prelu_5x5_reduce
I1126 10:11:21.853003 10315 net.cpp:157] Top shape: 32 32 7 7 (50176)
I1126 10:11:21.853008 10315 net.cpp:165] Memory required for data: 1732428808
I1126 10:11:21.853013 10315 layer_factory.hpp:76] Creating layer inception_5a/5x5
I1126 10:11:21.853021 10315 net.cpp:106] Creating Layer inception_5a/5x5
I1126 10:11:21.853026 10315 net.cpp:454] inception_5a/5x5 <- inception_5a/5x5_reduce
I1126 10:11:21.853032 10315 net.cpp:411] inception_5a/5x5 -> inception_5a/5x5
I1126 10:11:21.854997 10315 cudnn_conv_layer.cpp:194] Reallocating workspace storage: 9804
I1126 10:11:21.855042 10315 net.cpp:150] Setting up inception_5a/5x5
I1126 10:11:21.855052 10315 net.cpp:157] Top shape: 32 128 7 7 (200704)
I1126 10:11:21.855057 10315 net.cpp:165] Memory required for data: 1733231624
I1126 10:11:21.855065 10315 layer_factory.hpp:76] Creating layer inception_5a/prelu_5x5
I1126 10:11:21.855077 10315 net.cpp:106] Creating Layer inception_5a/prelu_5x5
I1126 10:11:21.855083 10315 net.cpp:454] inception_5a/prelu_5x5 <- inception_5a/5x5
I1126 10:11:21.855092 10315 net.cpp:397] inception_5a/prelu_5x5 -> inception_5a/5x5 (in-place)
I1126 10:11:21.855219 10315 net.cpp:150] Setting up inception_5a/prelu_5x5
I1126 10:11:21.855252 10315 net.cpp:157] Top shape: 32 128 7 7 (200704)
I1126 10:11:21.855257 10315 net.cpp:165] Memory required for data: 1734034440
I1126 10:11:21.855262 10315 layer_factory.hpp:76] Creating layer inception_5a/pool
I1126 10:11:21.855271 10315 net.cpp:106] Creating Layer inception_5a/pool
I1126 10:11:21.855278 10315 net.cpp:454] inception_5a/pool <- pool4/3x3_s2_pool4/3x3_s2_0_split_3
I1126 10:11:21.855283 10315 net.cpp:411] inception_5a/pool -> inception_5a/pool
I1126 10:11:21.855474 10315 net.cpp:150] Setting up inception_5a/pool
I1126 10:11:21.855484 10315 net.cpp:157] Top shape: 32 832 7 7 (1304576)
I1126 10:11:21.855487 10315 net.cpp:165] Memory required for data: 1739252744
I1126 10:11:21.855491 10315 layer_factory.hpp:76] Creating layer inception_5a/pool_proj
I1126 10:11:21.855504 10315 net.cpp:106] Creating Layer inception_5a/pool_proj
I1126 10:11:21.855509 10315 net.cpp:454] inception_5a/pool_proj <- inception_5a/pool
I1126 10:11:21.855515 10315 net.cpp:411] inception_5a/pool_proj -> inception_5a/pool_proj
I1126 10:11:21.858005 10315 cudnn_conv_layer.cpp:194] Reallocating workspace storage: 7428
I1126 10:11:21.858037 10315 net.cpp:150] Setting up inception_5a/pool_proj
I1126 10:11:21.858047 10315 net.cpp:157] Top shape: 32 128 7 7 (200704)
I1126 10:11:21.858052 10315 net.cpp:165] Memory required for data: 1740055560
I1126 10:11:21.858060 10315 layer_factory.hpp:76] Creating layer inception_5a/prelu_pool_proj
I1126 10:11:21.858072 10315 net.cpp:106] Creating Layer inception_5a/prelu_pool_proj
I1126 10:11:21.858078 10315 net.cpp:454] inception_5a/prelu_pool_proj <- inception_5a/pool_proj
I1126 10:11:21.858084 10315 net.cpp:397] inception_5a/prelu_pool_proj -> inception_5a/pool_proj (in-place)
I1126 10:11:21.858191 10315 net.cpp:150] Setting up inception_5a/prelu_pool_proj
I1126 10:11:21.858198 10315 net.cpp:157] Top shape: 32 128 7 7 (200704)
I1126 10:11:21.858202 10315 net.cpp:165] Memory required for data: 1740858376
I1126 10:11:21.858208 10315 layer_factory.hpp:76] Creating layer inception_5a/output
I1126 10:11:21.858217 10315 net.cpp:106] Creating Layer inception_5a/output
I1126 10:11:21.858222 10315 net.cpp:454] inception_5a/output <- inception_5a/1x1
I1126 10:11:21.858227 10315 net.cpp:454] inception_5a/output <- inception_5a/3x3
I1126 10:11:21.858232 10315 net.cpp:454] inception_5a/output <- inception_5a/5x5
I1126 10:11:21.858237 10315 net.cpp:454] inception_5a/output <- inception_5a/pool_proj
I1126 10:11:21.858242 10315 net.cpp:411] inception_5a/output -> inception_5a/output
I1126 10:11:21.858271 10315 net.cpp:150] Setting up inception_5a/output
I1126 10:11:21.858279 10315 net.cpp:157] Top shape: 32 832 7 7 (1304576)
I1126 10:11:21.858283 10315 net.cpp:165] Memory required for data: 1746076680
I1126 10:11:21.858288 10315 layer_factory.hpp:76] Creating layer inception_5a/output_inception_5a/output_0_split
I1126 10:11:21.858294 10315 net.cpp:106] Creating Layer inception_5a/output_inception_5a/output_0_split
I1126 10:11:21.858299 10315 net.cpp:454] inception_5a/output_inception_5a/output_0_split <- inception_5a/output
I1126 10:11:21.858306 10315 net.cpp:411] inception_5a/output_inception_5a/output_0_split -> inception_5a/output_inception_5a/output_0_split_0
I1126 10:11:21.858314 10315 net.cpp:411] inception_5a/output_inception_5a/output_0_split -> inception_5a/output_inception_5a/output_0_split_1
I1126 10:11:21.858320 10315 net.cpp:411] inception_5a/output_inception_5a/output_0_split -> inception_5a/output_inception_5a/output_0_split_2
I1126 10:11:21.858327 10315 net.cpp:411] inception_5a/output_inception_5a/output_0_split -> inception_5a/output_inception_5a/output_0_split_3
I1126 10:11:21.858396 10315 net.cpp:150] Setting up inception_5a/output_inception_5a/output_0_split
I1126 10:11:21.858403 10315 net.cpp:157] Top shape: 32 832 7 7 (1304576)
I1126 10:11:21.858408 10315 net.cpp:157] Top shape: 32 832 7 7 (1304576)
I1126 10:11:21.858413 10315 net.cpp:157] Top shape: 32 832 7 7 (1304576)
I1126 10:11:21.858418 10315 net.cpp:157] Top shape: 32 832 7 7 (1304576)
I1126 10:11:21.858439 10315 net.cpp:165] Memory required for data: 1766949896
I1126 10:11:21.858444 10315 layer_factory.hpp:76] Creating layer inception_5b/1x1
I1126 10:11:21.858453 10315 net.cpp:106] Creating Layer inception_5b/1x1
I1126 10:11:21.858458 10315 net.cpp:454] inception_5b/1x1 <- inception_5a/output_inception_5a/output_0_split_0
I1126 10:11:21.858464 10315 net.cpp:411] inception_5b/1x1 -> inception_5b/1x1
I1126 10:11:21.861982 10315 cudnn_conv_layer.cpp:194] Reallocating workspace storage: 7428
I1126 10:11:21.862020 10315 net.cpp:150] Setting up inception_5b/1x1
I1126 10:11:21.862027 10315 net.cpp:157] Top shape: 32 384 7 7 (602112)
I1126 10:11:21.862032 10315 net.cpp:165] Memory required for data: 1769358344
I1126 10:11:21.862040 10315 layer_factory.hpp:76] Creating layer inception_5b/prelu_1x1
I1126 10:11:21.862051 10315 net.cpp:106] Creating Layer inception_5b/prelu_1x1
I1126 10:11:21.862056 10315 net.cpp:454] inception_5b/prelu_1x1 <- inception_5b/1x1
I1126 10:11:21.862064 10315 net.cpp:397] inception_5b/prelu_1x1 -> inception_5b/1x1 (in-place)
I1126 10:11:21.862763 10315 net.cpp:150] Setting up inception_5b/prelu_1x1
I1126 10:11:21.862776 10315 net.cpp:157] Top shape: 32 384 7 7 (602112)
I1126 10:11:21.862782 10315 net.cpp:165] Memory required for data: 1771766792
I1126 10:11:21.862788 10315 layer_factory.hpp:76] Creating layer inception_5b/3x3_reduce
I1126 10:11:21.862802 10315 net.cpp:106] Creating Layer inception_5b/3x3_reduce
I1126 10:11:21.862823 10315 net.cpp:454] inception_5b/3x3_reduce <- inception_5a/output_inception_5a/output_0_split_1
I1126 10:11:21.862833 10315 net.cpp:411] inception_5b/3x3_reduce -> inception_5b/3x3_reduce
I1126 10:11:21.865872 10315 cudnn_conv_layer.cpp:194] Reallocating workspace storage: 7428
I1126 10:11:21.865907 10315 net.cpp:150] Setting up inception_5b/3x3_reduce
I1126 10:11:21.865916 10315 net.cpp:157] Top shape: 32 192 7 7 (301056)
I1126 10:11:21.865921 10315 net.cpp:165] Memory required for data: 1772971016
I1126 10:11:21.865928 10315 layer_factory.hpp:76] Creating layer inception_5b/prelu_3x3_reduce
I1126 10:11:21.865939 10315 net.cpp:106] Creating Layer inception_5b/prelu_3x3_reduce
I1126 10:11:21.865945 10315 net.cpp:454] inception_5b/prelu_3x3_reduce <- inception_5b/3x3_reduce
I1126 10:11:21.865952 10315 net.cpp:397] inception_5b/prelu_3x3_reduce -> inception_5b/3x3_reduce (in-place)
I1126 10:11:21.866066 10315 net.cpp:150] Setting up inception_5b/prelu_3x3_reduce
I1126 10:11:21.866075 10315 net.cpp:157] Top shape: 32 192 7 7 (301056)
I1126 10:11:21.866078 10315 net.cpp:165] Memory required for data: 1774175240
I1126 10:11:21.866083 10315 layer_factory.hpp:76] Creating layer inception_5b/3x3
I1126 10:11:21.866093 10315 net.cpp:106] Creating Layer inception_5b/3x3
I1126 10:11:21.866098 10315 net.cpp:454] inception_5b/3x3 <- inception_5b/3x3_reduce
I1126 10:11:21.866104 10315 net.cpp:411] inception_5b/3x3 -> inception_5b/3x3
I1126 10:11:21.872210 10315 cudnn_conv_layer.cpp:194] Reallocating workspace storage: 7788
I1126 10:11:21.872265 10315 net.cpp:150] Setting up inception_5b/3x3
I1126 10:11:21.872277 10315 net.cpp:157] Top shape: 32 384 7 7 (602112)
I1126 10:11:21.872282 10315 net.cpp:165] Memory required for data: 1776583688
I1126 10:11:21.872292 10315 layer_factory.hpp:76] Creating layer inception_5b/prelu_3x3
I1126 10:11:21.872305 10315 net.cpp:106] Creating Layer inception_5b/prelu_3x3
I1126 10:11:21.872320 10315 net.cpp:454] inception_5b/prelu_3x3 <- inception_5b/3x3
I1126 10:11:21.872329 10315 net.cpp:397] inception_5b/prelu_3x3 -> inception_5b/3x3 (in-place)
I1126 10:11:21.872444 10315 net.cpp:150] Setting up inception_5b/prelu_3x3
I1126 10:11:21.872452 10315 net.cpp:157] Top shape: 32 384 7 7 (602112)
I1126 10:11:21.872457 10315 net.cpp:165] Memory required for data: 1778992136
I1126 10:11:21.872462 10315 layer_factory.hpp:76] Creating layer inception_5b/5x5_reduce
I1126 10:11:21.872473 10315 net.cpp:106] Creating Layer inception_5b/5x5_reduce
I1126 10:11:21.872478 10315 net.cpp:454] inception_5b/5x5_reduce <- inception_5a/output_inception_5a/output_0_split_2
I1126 10:11:21.872511 10315 net.cpp:411] inception_5b/5x5_reduce -> inception_5b/5x5_reduce
I1126 10:11:21.873750 10315 cudnn_conv_layer.cpp:194] Reallocating workspace storage: 7428
I1126 10:11:21.873785 10315 net.cpp:150] Setting up inception_5b/5x5_reduce
I1126 10:11:21.873795 10315 net.cpp:157] Top shape: 32 48 7 7 (75264)
I1126 10:11:21.873798 10315 net.cpp:165] Memory required for data: 1779293192
I1126 10:11:21.873806 10315 layer_factory.hpp:76] Creating layer inception_5b/prelu_5x5_reduce
I1126 10:11:21.873816 10315 net.cpp:106] Creating Layer inception_5b/prelu_5x5_reduce
I1126 10:11:21.873822 10315 net.cpp:454] inception_5b/prelu_5x5_reduce <- inception_5b/5x5_reduce
I1126 10:11:21.873831 10315 net.cpp:397] inception_5b/prelu_5x5_reduce -> inception_5b/5x5_reduce (in-place)
I1126 10:11:21.873952 10315 net.cpp:150] Setting up inception_5b/prelu_5x5_reduce
I1126 10:11:21.873960 10315 net.cpp:157] Top shape: 32 48 7 7 (75264)
I1126 10:11:21.873965 10315 net.cpp:165] Memory required for data: 1779594248
I1126 10:11:21.873970 10315 layer_factory.hpp:76] Creating layer inception_5b/5x5
I1126 10:11:21.873980 10315 net.cpp:106] Creating Layer inception_5b/5x5
I1126 10:11:21.873986 10315 net.cpp:454] inception_5b/5x5 <- inception_5b/5x5_reduce
I1126 10:11:21.873993 10315 net.cpp:411] inception_5b/5x5 -> inception_5b/5x5
I1126 10:11:21.876071 10315 cudnn_conv_layer.cpp:194] Reallocating workspace storage: 9804
I1126 10:11:21.876104 10315 net.cpp:150] Setting up inception_5b/5x5
I1126 10:11:21.876112 10315 net.cpp:157] Top shape: 32 128 7 7 (200704)
I1126 10:11:21.876116 10315 net.cpp:165] Memory required for data: 1780397064
I1126 10:11:21.876124 10315 layer_factory.hpp:76] Creating layer inception_5b/prelu_5x5
I1126 10:11:21.876134 10315 net.cpp:106] Creating Layer inception_5b/prelu_5x5
I1126 10:11:21.876139 10315 net.cpp:454] inception_5b/prelu_5x5 <- inception_5b/5x5
I1126 10:11:21.876147 10315 net.cpp:397] inception_5b/prelu_5x5 -> inception_5b/5x5 (in-place)
I1126 10:11:21.876278 10315 net.cpp:150] Setting up inception_5b/prelu_5x5
I1126 10:11:21.876287 10315 net.cpp:157] Top shape: 32 128 7 7 (200704)
I1126 10:11:21.876298 10315 net.cpp:165] Memory required for data: 1781199880
I1126 10:11:21.876304 10315 layer_factory.hpp:76] Creating layer inception_5b/pool
I1126 10:11:21.876312 10315 net.cpp:106] Creating Layer inception_5b/pool
I1126 10:11:21.876317 10315 net.cpp:454] inception_5b/pool <- inception_5a/output_inception_5a/output_0_split_3
I1126 10:11:21.876324 10315 net.cpp:411] inception_5b/pool -> inception_5b/pool
I1126 10:11:21.876703 10315 net.cpp:150] Setting up inception_5b/pool
I1126 10:11:21.876718 10315 net.cpp:157] Top shape: 32 832 7 7 (1304576)
I1126 10:11:21.876724 10315 net.cpp:165] Memory required for data: 1786418184
I1126 10:11:21.876729 10315 layer_factory.hpp:76] Creating layer inception_5b/pool_proj
I1126 10:11:21.876739 10315 net.cpp:106] Creating Layer inception_5b/pool_proj
I1126 10:11:21.876744 10315 net.cpp:454] inception_5b/pool_proj <- inception_5b/pool
I1126 10:11:21.876751 10315 net.cpp:411] inception_5b/pool_proj -> inception_5b/pool_proj
I1126 10:11:21.879039 10315 cudnn_conv_layer.cpp:194] Reallocating workspace storage: 7428
I1126 10:11:21.879070 10315 net.cpp:150] Setting up inception_5b/pool_proj
I1126 10:11:21.879078 10315 net.cpp:157] Top shape: 32 128 7 7 (200704)
I1126 10:11:21.879082 10315 net.cpp:165] Memory required for data: 1787221000
I1126 10:11:21.879091 10315 layer_factory.hpp:76] Creating layer inception_5b/prelu_pool_proj
I1126 10:11:21.879101 10315 net.cpp:106] Creating Layer inception_5b/prelu_pool_proj
I1126 10:11:21.879106 10315 net.cpp:454] inception_5b/prelu_pool_proj <- inception_5b/pool_proj
I1126 10:11:21.879112 10315 net.cpp:397] inception_5b/prelu_pool_proj -> inception_5b/pool_proj (in-place)
I1126 10:11:21.879216 10315 net.cpp:150] Setting up inception_5b/prelu_pool_proj
I1126 10:11:21.879225 10315 net.cpp:157] Top shape: 32 128 7 7 (200704)
I1126 10:11:21.879228 10315 net.cpp:165] Memory required for data: 1788023816
I1126 10:11:21.879235 10315 layer_factory.hpp:76] Creating layer inception_5b/output
I1126 10:11:21.879261 10315 net.cpp:106] Creating Layer inception_5b/output
I1126 10:11:21.879266 10315 net.cpp:454] inception_5b/output <- inception_5b/1x1
I1126 10:11:21.879271 10315 net.cpp:454] inception_5b/output <- inception_5b/3x3
I1126 10:11:21.879276 10315 net.cpp:454] inception_5b/output <- inception_5b/5x5
I1126 10:11:21.879281 10315 net.cpp:454] inception_5b/output <- inception_5b/pool_proj
I1126 10:11:21.879287 10315 net.cpp:411] inception_5b/output -> inception_5b/output
I1126 10:11:21.879318 10315 net.cpp:150] Setting up inception_5b/output
I1126 10:11:21.879326 10315 net.cpp:157] Top shape: 32 1024 7 7 (1605632)
I1126 10:11:21.879330 10315 net.cpp:165] Memory required for data: 1794446344
I1126 10:11:21.879334 10315 layer_factory.hpp:76] Creating layer pool5/7x7_s1
I1126 10:11:21.879341 10315 net.cpp:106] Creating Layer pool5/7x7_s1
I1126 10:11:21.879346 10315 net.cpp:454] pool5/7x7_s1 <- inception_5b/output
I1126 10:11:21.879354 10315 net.cpp:411] pool5/7x7_s1 -> pool5/7x7_s1
I1126 10:11:21.879528 10315 net.cpp:150] Setting up pool5/7x7_s1
I1126 10:11:21.879536 10315 net.cpp:157] Top shape: 32 1024 1 1 (32768)
I1126 10:11:21.879540 10315 net.cpp:165] Memory required for data: 1794577416
I1126 10:11:21.879545 10315 layer_factory.hpp:76] Creating layer pool5/drop_7x7_s1
I1126 10:11:21.879554 10315 net.cpp:106] Creating Layer pool5/drop_7x7_s1
I1126 10:11:21.879559 10315 net.cpp:454] pool5/drop_7x7_s1 <- pool5/7x7_s1
I1126 10:11:21.879565 10315 net.cpp:397] pool5/drop_7x7_s1 -> pool5/7x7_s1 (in-place)
I1126 10:11:21.879595 10315 net.cpp:150] Setting up pool5/drop_7x7_s1
I1126 10:11:21.879602 10315 net.cpp:157] Top shape: 32 1024 1 1 (32768)
I1126 10:11:21.879606 10315 net.cpp:165] Memory required for data: 1794708488
I1126 10:11:21.879611 10315 layer_factory.hpp:76] Creating layer loss3/classifier2
I1126 10:11:21.879619 10315 net.cpp:106] Creating Layer loss3/classifier2
I1126 10:11:21.879623 10315 net.cpp:454] loss3/classifier2 <- pool5/7x7_s1
I1126 10:11:21.879631 10315 net.cpp:411] loss3/classifier2 -> loss3/classifier
I1126 10:11:21.879779 10315 net.cpp:150] Setting up loss3/classifier2
I1126 10:11:21.879787 10315 net.cpp:157] Top shape: 32 2 (64)
I1126 10:11:21.879791 10315 net.cpp:165] Memory required for data: 1794708744
I1126 10:11:21.879798 10315 layer_factory.hpp:76] Creating layer loss3/loss3
I1126 10:11:21.879807 10315 net.cpp:106] Creating Layer loss3/loss3
I1126 10:11:21.879812 10315 net.cpp:454] loss3/loss3 <- loss3/classifier
I1126 10:11:21.879817 10315 net.cpp:454] loss3/loss3 <- label_data_1_split_2
I1126 10:11:21.879823 10315 net.cpp:411] loss3/loss3 -> loss3/loss3
…
I1126 10:11:21.971835 10315 net.cpp:322] The NetState phase (1) differed from the phase (0) specified by a rule in layer data
I1126 10:11:21.973064 10315 net.cpp:49] Initializing net from parameters: 
name: "GoogleNet"
state {
  phase: TEST
}
layer {
  name: "data"
  type: "Data"
  top: "data"
  top: "label"
  include {
    phase: TEST
  }
  transform_param {
    mirror: false
    crop_size: 224
    mean_value: 104
    mean_value: 117
    mean_value: 123
  }
  data_param {
    source: "../../LMDB/val_3-lmdb"
    batch_size: 50
    backend: LMDB
  }
}
layer {
  name: "conv1/7x7_s2"
  type: "Convolution"
  bottom: "data"
  top: "conv1/7x7_s2"
  param {
    lr_mult: 1
    decay_mult: 1
  }
  param {
    lr_mult: 2
    decay_mult: 0
  }
  convolution_param {
    num_output: 64
    pad: 3
    kernel_size: 7
    stride: 2
    weight_filler {
      type: "xavier"
    }
    bias_filler {
      type: "constant"
      value: 0.2
    }
  }
}
layer {
  name: "conv1/prelu_7x7"
  type: "PReLU"
  bottom: "conv1/7x7_s2"
  top: "conv1/7x7_s2"
  param {
    lr_mult: 1
    decay_mult: 0
  }
  prelu_param {
    filler {
      type: "constant"
      value: 0.01
    }
  }
}
layer {
  name: "pool1/3x3_s2"
  type: "Pooling"
  bottom: "conv1/7x7_s2"
  top: "pool1/3x3_s2"
  pooling_param {
    pool: MAX
    kernel_size: 3
    stride: 2
  }
}
layer {
  name: "pool1/norm1"
  type: "LRN"
  bottom: "pool1/3x3_s2"
  top: "pool1/norm1"
  lrn_param {
    local_size: 5
    alpha: 0.0001
    beta: 0.75
  }
}
layer {
  name: "conv2/3x3_reduce"
  type: "Convolution"
  bottom: "pool1/norm1"
  top: "conv2/3x3_reduce"
  param {
    lr_mult: 1
    decay_mult: 1
  }
  param {
    lr_mult: 2
    decay_mult: 0
  }
  convolution_param {
    num_output: 64
    kernel_size: 1
    weight_filler {
      type: "xavier"
    }
    bias_filler {
      type: "constant"
      value: 0.2
    }
  }
}
layer {
  name: "conv2/prelu_3x3_reduce"
  type: "PReLU"
  bottom: "conv2/3x3_reduce"
  top: "conv2/3x3_reduce"
  param {
    lr_mult: 1
    decay_mult: 0
  }
  prelu_param {
    filler {
      type: "constant"
      value: 0.01
    }
  }
}
layer {
  name: "conv2/3x3"
  type: "Convolution"
  bottom: "conv2/3x3_reduce"
  top: "conv2/3x3"
  param {
    lr_mult: 1
    decay_mult: 1
  }
  param {
    lr_mult: 2
    decay_mult: 0
  }
  convolution_param {
    num_output: 192
    pad: 1
    kernel_size: 3
    weight_filler {
      type: "xavier"
    }
    bias_filler {
      type: "constant"
      value: 0.2
    }
  }
}
layer {
  name: "conv2/prelu_3x3"
  type: "PReLU"
  bottom: "conv2/3x3"
  top: "conv2/3x3"
  param {
    lr_mult: 1
    decay_mult: 0
  }
  prelu_param {
    filler {
      type: "constant"
      value: 0.01
    }
  }
}
layer {
  name: "conv2/norm2"
  type: "LRN"
  bottom: "conv2/3x3"
  top: "conv2/norm2"
  lrn_param {
    local_size: 5
    alpha: 0.0001
    beta: 0.75
  }
}
layer {
  name: "pool2/3x3_s2"
  type: "Pooling"
  bottom: "conv2/norm2"
  top: "pool2/3x3_s2"
  pooling_param {
    pool: MAX
    kernel_size: 3
    stride: 2
  }
}
layer {
  name: "inception_3a/1x1"
  type: "Convolution"
  bottom: "pool2/3x3_s2"
  top: "inception_3a/1x1"
  param {
    lr_mult: 1
    decay_mult: 1
  }
  param {
    lr_mult: 2
    decay_mult: 0
  }
  convolution_param {
    num_output: 64
    kernel_size: 1
    weight_filler {
      type: "xavier"
    }
    bias_filler {
      type: "constant"
      value: 0.2
    }
  }
}
layer {
  name: "inception_3a/prelu_1x1"
  type: "PReLU"
  bottom: "inception_3a/1x1"
  top: "inception_3a/1x1"
  param {
    lr_mult: 1
    decay_mult: 0
  }
  prelu_param {
    filler {
      type: "constant"
      value: 0.01
    }
  }
}
layer {
  name: "inception_3a/3x3_reduce"
  type: "Convolution"
  bottom: "pool2/3x3_s2"
  top: "inception_3a/3x3_reduce"
  param {
    lr_mult: 1
    decay_mult: 1
  }
  param {
    lr_mult: 2
    decay_mult: 0
  }
  convolution_param {
    num_output: 96
    kernel_size: 1
    weight_filler {
      type: "xavier"
    }
    bias_filler {
      type: "constant"
      value: 0.2
    }
  }
}
layer {
  name: "inception_3a/prelu_3x3_reduce"
  type: "PReLU"
  bottom: "inception_3a/3x3_reduce"
  top: "inception_3a/3x3_reduce"
  param {
    lr_mult: 1
    decay_mult: 0
  }
  prelu_param {
    filler {
      type: "constant"
      value: 0.01
    }
  }
}
layer {
  name: "inception_3a/3x3"
  type: "Convolution"
  bottom: "inception_3a/3x3_reduce"
  top: "inception_3a/3x3"
  param {
    lr_mult: 1
    decay_mult: 1
  }
  param {
    lr_mult: 2
    decay_mult: 0
  }
  convolution_param {
    num_output: 128
    pad: 1
    kernel_size: 3
    weight_filler {
      type: "xavier"
    }
    bias_filler {
      type: "constant"
      value: 0.2
    }
  }
}
layer {
  name: "inception_3a/prelu_3x3"
  type: "PReLU"
  bottom: "inception_3a/3x3"
  top: "inception_3a/3x3"
  param {
    lr_mult: 1
    decay_mult: 0
  }
  prelu_param {
    filler {
      type: "constant"
      value: 0.01
    }
  }
}
layer {
  name: "inception_3a/5x5_reduce"
  type: "Convolution"
  bottom: "pool2/3x3_s2"
  top: "inception_3a/5x5_reduce"
  param {
    lr_mult: 1
    decay_mult: 1
  }
  param {
    lr_mult: 2
    decay_mult: 0
  }
  convolution_param {
    num_output: 16
    kernel_size: 1
    weight_filler {
      type: "xavier"
    }
    bias_filler {
      type: "constant"
      value: 0.2
    }
  }
}
layer {
  name: "inception_3a/prelu_5x5_reduce"
  type: "PReLU"
  bottom: "inception_3a/5x5_reduce"
  top: "inception_3a/5x5_reduce"
  param {
    lr_mult: 1
    decay_mult: 0
  }
  prelu_param {
    filler {
      type: "constant"
      value: 0.01
    }
  }
}
layer {
  name: "inception_3a/5x5"
  type: "Convolution"
  bottom: "inception_3a/5x5_reduce"
  top: "inception_3a/5x5"
  param {
    lr_mult: 1
    decay_mult: 1
  }
  param {
    lr_mult: 2
    decay_mult: 0
  }
  convolution_param {
    num_output: 32
    pad: 2
    kernel_size: 5
    weight_filler {
      type: "xavier"
    }
    bias_filler {
      type: "constant"
      value: 0.2
    }
  }
}
layer {
  name: "inception_3a/prelu_5x5"
  type: "PReLU"
  bottom: "inception_3a/5x5"
  top: "inception_3a/5x5"
  param {
    lr_mult: 1
    decay_mult: 0
  }
  prelu_param {
    filler {
      type: "constant"
      value: 0.01
    }
  }
}
layer {
  name: "inception_3a/pool"
  type: "Pooling"
  bottom: "pool2/3x3_s2"
  top: "inception_3a/pool"
  pooling_param {
    pool: MAX
    kernel_size: 3
    stride: 1
    pad: 1
  }
}
layer {
  name: "inception_3a/pool_proj"
  type: "Convolution"
  bottom: "inception_3a/pool"
  top: "inception_3a/pool_proj"
  param {
    lr_mult: 1
    decay_mult: 1
  }
  param {
    lr_mult: 2
    decay_mult: 0
  }
  convolution_param {
    num_output: 32
    kernel_size: 1
    weight_filler {
      type: "xavier"
    }
    bias_filler {
      type: "constant"
      value: 0.2
    }
  }
}
layer {
  name: "inception_3a/prelu_pool_proj"
  type: "PReLU"
  bottom: "inception_3a/pool_proj"
  top: "inception_3a/pool_proj"
  param {
    lr_mult: 1
    decay_mult: 0
  }
  prelu_param {
    filler {
      type: "constant"
      value: 0.01
    }
  }
}
layer {
  name: "inception_3a/output"
  type: "Concat"
  bottom: "inception_3a/1x1"
  bottom: "inception_3a/3x3"
  bottom: "inception_3a/5x5"
  bottom: "inception_3a/pool_proj"
  top: "inception_3a/output"
}
layer {
  name: "inception_3b/1x1"
  type: "Convolution"
  bottom: "inception_3a/output"
  top: "inception_3b/1x1"
  param {
    lr_mult: 1
    decay_mult: 1
  }
  param {
    lr_mult: 2
    decay_mult: 0
  }
  convolution_param {
    num_output: 128
    kernel_size: 1
    weight_filler {
      type: "xavier"
    }
    bias_filler {
      type: "constant"
      value: 0.2
    }
  }
}
layer {
  name: "inception_3b/prelu_1x1"
  type: "PReLU"
  bottom: "inception_3b/1x1"
  top: "inception_3b/1x1"
  param {
    lr_mult: 1
    decay_mult: 0
  }
  prelu_param {
    filler {
      type: "constant"
      value: 0.01
    }
  }
}
layer {
  name: "inception_3b/3x3_reduce"
  type: "Convolution"
  bottom: "inception_3a/output"
  top: "inception_3b/3x3_reduce"
  param {
    lr_mult: 1
    decay_mult: 1
  }
  param {
    lr_mult: 2
    decay_mult: 0
  }
  convolution_param {
    num_output: 128
    kernel_size: 1
    weight_filler {
      type: "xavier"
    }
    bias_filler {
      type: "constant"
      value: 0.2
    }
  }
}
layer {
  name: "inception_3b/prelu_3x3_reduce"
  type: "PReLU"
  bottom: "inception_3b/3x3_reduce"
  top: "inception_3b/3x3_reduce"
  param {
    lr_mult: 1
    decay_mult: 0
  }
  prelu_param {
    filler {
      type: "constant"
      value: 0.01
    }
  }
}
layer {
  name: "inception_3b/3x3"
  type: "Convolution"
  bottom: "inception_3b/3x3_reduce"
  top: "inception_3b/3x3"
  param {
    lr_mult: 1
    decay_mult: 1
  }
  param {
    lr_mult: 2
    decay_mult: 0
  }
  convolution_param {
    num_output: 192
    pad: 1
…
I1126 10:11:22.452216 10315 net.cpp:106] Creating Layer inception_4c/output
I1126 10:11:22.452220 10315 net.cpp:454] inception_4c/output <- inception_4c/1x1
I1126 10:11:22.452225 10315 net.cpp:454] inception_4c/output <- inception_4c/3x3
I1126 10:11:22.452230 10315 net.cpp:454] inception_4c/output <- inception_4c/5x5
I1126 10:11:22.452235 10315 net.cpp:454] inception_4c/output <- inception_4c/pool_proj
I1126 10:11:22.452242 10315 net.cpp:411] inception_4c/output -> inception_4c/output
I1126 10:11:22.452267 10315 net.cpp:150] Setting up inception_4c/output
I1126 10:11:22.452275 10315 net.cpp:157] Top shape: 50 512 14 14 (5017600)
I1126 10:11:22.452278 10315 net.cpp:165] Memory required for data: 2234652208
I1126 10:11:22.452282 10315 layer_factory.hpp:76] Creating layer inception_4c/output_inception_4c/output_0_split
I1126 10:11:22.452289 10315 net.cpp:106] Creating Layer inception_4c/output_inception_4c/output_0_split
I1126 10:11:22.452293 10315 net.cpp:454] inception_4c/output_inception_4c/output_0_split <- inception_4c/output
I1126 10:11:22.452299 10315 net.cpp:411] inception_4c/output_inception_4c/output_0_split -> inception_4c/output_inception_4c/output_0_split_0
I1126 10:11:22.452307 10315 net.cpp:411] inception_4c/output_inception_4c/output_0_split -> inception_4c/output_inception_4c/output_0_split_1
I1126 10:11:22.452314 10315 net.cpp:411] inception_4c/output_inception_4c/output_0_split -> inception_4c/output_inception_4c/output_0_split_2
I1126 10:11:22.452335 10315 net.cpp:411] inception_4c/output_inception_4c/output_0_split -> inception_4c/output_inception_4c/output_0_split_3
I1126 10:11:22.452388 10315 net.cpp:150] Setting up inception_4c/output_inception_4c/output_0_split
I1126 10:11:22.452394 10315 net.cpp:157] Top shape: 50 512 14 14 (5017600)
I1126 10:11:22.452399 10315 net.cpp:157] Top shape: 50 512 14 14 (5017600)
I1126 10:11:22.452404 10315 net.cpp:157] Top shape: 50 512 14 14 (5017600)
I1126 10:11:22.452409 10315 net.cpp:157] Top shape: 50 512 14 14 (5017600)
I1126 10:11:22.452414 10315 net.cpp:165] Memory required for data: 2314933808
I1126 10:11:22.452417 10315 layer_factory.hpp:76] Creating layer inception_4d/1x1
I1126 10:11:22.452425 10315 net.cpp:106] Creating Layer inception_4d/1x1
I1126 10:11:22.452430 10315 net.cpp:454] inception_4d/1x1 <- inception_4c/output_inception_4c/output_0_split_0
I1126 10:11:22.452437 10315 net.cpp:411] inception_4d/1x1 -> inception_4d/1x1
I1126 10:11:22.453910 10315 cudnn_conv_layer.cpp:194] Reallocating workspace storage: 10080
I1126 10:11:22.453945 10315 net.cpp:150] Setting up inception_4d/1x1
I1126 10:11:22.453954 10315 net.cpp:157] Top shape: 50 112 14 14 (1097600)
I1126 10:11:22.453958 10315 net.cpp:165] Memory required for data: 2319324208
I1126 10:11:22.453966 10315 layer_factory.hpp:76] Creating layer inception_4d/prelu_1x1
I1126 10:11:22.453975 10315 net.cpp:106] Creating Layer inception_4d/prelu_1x1
I1126 10:11:22.453981 10315 net.cpp:454] inception_4d/prelu_1x1 <- inception_4d/1x1
I1126 10:11:22.453987 10315 net.cpp:397] inception_4d/prelu_1x1 -> inception_4d/1x1 (in-place)
I1126 10:11:22.454080 10315 net.cpp:150] Setting up inception_4d/prelu_1x1
I1126 10:11:22.454088 10315 net.cpp:157] Top shape: 50 112 14 14 (1097600)
I1126 10:11:22.454092 10315 net.cpp:165] Memory required for data: 2323714608
I1126 10:11:22.454097 10315 layer_factory.hpp:76] Creating layer inception_4d/3x3_reduce
I1126 10:11:22.454107 10315 net.cpp:106] Creating Layer inception_4d/3x3_reduce
I1126 10:11:22.454113 10315 net.cpp:454] inception_4d/3x3_reduce <- inception_4c/output_inception_4c/output_0_split_1
I1126 10:11:22.454120 10315 net.cpp:411] inception_4d/3x3_reduce -> inception_4d/3x3_reduce
I1126 10:11:22.455714 10315 cudnn_conv_layer.cpp:194] Reallocating workspace storage: 10080
I1126 10:11:22.455749 10315 net.cpp:150] Setting up inception_4d/3x3_reduce
I1126 10:11:22.455765 10315 net.cpp:157] Top shape: 50 144 14 14 (1411200)
I1126 10:11:22.455770 10315 net.cpp:165] Memory required for data: 2329359408
I1126 10:11:22.455777 10315 layer_factory.hpp:76] Creating layer inception_4d/prelu_3x3_reduce
I1126 10:11:22.455790 10315 net.cpp:106] Creating Layer inception_4d/prelu_3x3_reduce
I1126 10:11:22.455803 10315 net.cpp:454] inception_4d/prelu_3x3_reduce <- inception_4d/3x3_reduce
I1126 10:11:22.455811 10315 net.cpp:397] inception_4d/prelu_3x3_reduce -> inception_4d/3x3_reduce (in-place)
I1126 10:11:22.455943 10315 net.cpp:150] Setting up inception_4d/prelu_3x3_reduce
I1126 10:11:22.455960 10315 net.cpp:157] Top shape: 50 144 14 14 (1411200)
I1126 10:11:22.455963 10315 net.cpp:165] Memory required for data: 2335004208
I1126 10:11:22.455970 10315 layer_factory.hpp:76] Creating layer inception_4d/3x3
I1126 10:11:22.455979 10315 net.cpp:106] Creating Layer inception_4d/3x3
I1126 10:11:22.455984 10315 net.cpp:454] inception_4d/3x3 <- inception_4d/3x3_reduce
I1126 10:11:22.455991 10315 net.cpp:411] inception_4d/3x3 -> inception_4d/3x3
I1126 10:11:22.460181 10315 cudnn_conv_layer.cpp:194] Reallocating workspace storage: 10080
I1126 10:11:22.460253 10315 net.cpp:150] Setting up inception_4d/3x3
I1126 10:11:22.460266 10315 net.cpp:157] Top shape: 50 288 14 14 (2822400)
I1126 10:11:22.460270 10315 net.cpp:165] Memory required for data: 2346293808
I1126 10:11:22.460283 10315 layer_factory.hpp:76] Creating layer inception_4d/prelu_3x3
I1126 10:11:22.460299 10315 net.cpp:106] Creating Layer inception_4d/prelu_3x3
I1126 10:11:22.460307 10315 net.cpp:454] inception_4d/prelu_3x3 <- inception_4d/3x3
I1126 10:11:22.460351 10315 net.cpp:397] inception_4d/prelu_3x3 -> inception_4d/3x3 (in-place)
I1126 10:11:22.461135 10315 net.cpp:150] Setting up inception_4d/prelu_3x3
I1126 10:11:22.461159 10315 net.cpp:157] Top shape: 50 288 14 14 (2822400)
I1126 10:11:22.461165 10315 net.cpp:165] Memory required for data: 2357583408
I1126 10:11:22.461176 10315 layer_factory.hpp:76] Creating layer inception_4d/5x5_reduce
I1126 10:11:22.461200 10315 net.cpp:106] Creating Layer inception_4d/5x5_reduce
I1126 10:11:22.461208 10315 net.cpp:454] inception_4d/5x5_reduce <- inception_4c/output_inception_4c/output_0_split_2
I1126 10:11:22.461221 10315 net.cpp:411] inception_4d/5x5_reduce -> inception_4d/5x5_reduce
I1126 10:11:22.463140 10315 cudnn_conv_layer.cpp:194] Reallocating workspace storage: 10080
I1126 10:11:22.463207 10315 net.cpp:150] Setting up inception_4d/5x5_reduce
I1126 10:11:22.463219 10315 net.cpp:157] Top shape: 50 32 14 14 (313600)
I1126 10:11:22.463223 10315 net.cpp:165] Memory required for data: 2358837808
I1126 10:11:22.463233 10315 layer_factory.hpp:76] Creating layer inception_4d/prelu_5x5_reduce
I1126 10:11:22.463244 10315 net.cpp:106] Creating Layer inception_4d/prelu_5x5_reduce
I1126 10:11:22.463251 10315 net.cpp:454] inception_4d/prelu_5x5_reduce <- inception_4d/5x5_reduce
I1126 10:11:22.463260 10315 net.cpp:397] inception_4d/prelu_5x5_reduce -> inception_4d/5x5_reduce (in-place)
I1126 10:11:22.463357 10315 net.cpp:150] Setting up inception_4d/prelu_5x5_reduce
I1126 10:11:22.463366 10315 net.cpp:157] Top shape: 50 32 14 14 (313600)
I1126 10:11:22.463369 10315 net.cpp:165] Memory required for data: 2360092208
I1126 10:11:22.463376 10315 layer_factory.hpp:76] Creating layer inception_4d/5x5
I1126 10:11:22.463387 10315 net.cpp:106] Creating Layer inception_4d/5x5
I1126 10:11:22.463390 10315 net.cpp:454] inception_4d/5x5 <- inception_4d/5x5_reduce
I1126 10:11:22.463397 10315 net.cpp:411] inception_4d/5x5 -> inception_4d/5x5
I1126 10:11:22.464840 10315 cudnn_conv_layer.cpp:194] Reallocating workspace storage: 13080
I1126 10:11:22.464889 10315 net.cpp:150] Setting up inception_4d/5x5
I1126 10:11:22.464898 10315 net.cpp:157] Top shape: 50 64 14 14 (627200)
I1126 10:11:22.464903 10315 net.cpp:165] Memory required for data: 2362601008
I1126 10:11:22.464912 10315 layer_factory.hpp:76] Creating layer inception_4d/prelu_5x5
I1126 10:11:22.464922 10315 net.cpp:106] Creating Layer inception_4d/prelu_5x5
I1126 10:11:22.464928 10315 net.cpp:454] inception_4d/prelu_5x5 <- inception_4d/5x5
I1126 10:11:22.464937 10315 net.cpp:397] inception_4d/prelu_5x5 -> inception_4d/5x5 (in-place)
I1126 10:11:22.465034 10315 net.cpp:150] Setting up inception_4d/prelu_5x5
I1126 10:11:22.465042 10315 net.cpp:157] Top shape: 50 64 14 14 (627200)
I1126 10:11:22.465046 10315 net.cpp:165] Memory required for data: 2365109808
I1126 10:11:22.465052 10315 layer_factory.hpp:76] Creating layer inception_4d/pool
I1126 10:11:22.465060 10315 net.cpp:106] Creating Layer inception_4d/pool
I1126 10:11:22.465065 10315 net.cpp:454] inception_4d/pool <- inception_4c/output_inception_4c/output_0_split_3
I1126 10:11:22.465075 10315 net.cpp:411] inception_4d/pool -> inception_4d/pool
I1126 10:11:22.465522 10315 net.cpp:150] Setting up inception_4d/pool
I1126 10:11:22.465531 10315 net.cpp:157] Top shape: 50 512 14 14 (5017600)
I1126 10:11:22.465536 10315 net.cpp:165] Memory required for data: 2385180208
I1126 10:11:22.465540 10315 layer_factory.hpp:76] Creating layer inception_4d/pool_proj
I1126 10:11:22.465551 10315 net.cpp:106] Creating Layer inception_4d/pool_proj
I1126 10:11:22.465556 10315 net.cpp:454] inception_4d/pool_proj <- inception_4d/pool
I1126 10:11:22.465564 10315 net.cpp:411] inception_4d/pool_proj -> inception_4d/pool_proj
I1126 10:11:22.466902 10315 cudnn_conv_layer.cpp:194] Reallocating workspace storage: 10080
I1126 10:11:22.466940 10315 net.cpp:150] Setting up inception_4d/pool_proj
I1126 10:11:22.466948 10315 net.cpp:157] Top shape: 50 64 14 14 (627200)
I1126 10:11:22.466953 10315 net.cpp:165] Memory required for data: 2387689008
I1126 10:11:22.466961 10315 layer_factory.hpp:76] Creating layer inception_4d/prelu_pool_proj
I1126 10:11:22.466991 10315 net.cpp:106] Creating Layer inception_4d/prelu_pool_proj
I1126 10:11:22.466997 10315 net.cpp:454] inception_4d/prelu_pool_proj <- inception_4d/pool_proj
I1126 10:11:22.467005 10315 net.cpp:397] inception_4d/prelu_pool_proj -> inception_4d/pool_proj (in-place)
I1126 10:11:22.467093 10315 net.cpp:150] Setting up inception_4d/prelu_pool_proj
I1126 10:11:22.467103 10315 net.cpp:157] Top shape: 50 64 14 14 (627200)
I1126 10:11:22.467105 10315 net.cpp:165] Memory required for data: 2390197808
I1126 10:11:22.467111 10315 layer_factory.hpp:76] Creating layer inception_4d/output
I1126 10:11:22.467119 10315 net.cpp:106] Creating Layer inception_4d/output
I1126 10:11:22.467124 10315 net.cpp:454] inception_4d/output <- inception_4d/1x1
I1126 10:11:22.467129 10315 net.cpp:454] inception_4d/output <- inception_4d/3x3
I1126 10:11:22.467134 10315 net.cpp:454] inception_4d/output <- inception_4d/5x5
I1126 10:11:22.467139 10315 net.cpp:454] inception_4d/output <- inception_4d/pool_proj
I1126 10:11:22.467144 10315 net.cpp:411] inception_4d/output -> inception_4d/output
I1126 10:11:22.467169 10315 net.cpp:150] Setting up inception_4d/output
I1126 10:11:22.467175 10315 net.cpp:157] Top shape: 50 528 14 14 (5174400)
I1126 10:11:22.467180 10315 net.cpp:165] Memory required for data: 2410895408
I1126 10:11:22.467183 10315 layer_factory.hpp:76] Creating layer inception_4d/output_inception_4d/output_0_split
I1126 10:11:22.467190 10315 net.cpp:106] Creating Layer inception_4d/output_inception_4d/output_0_split
I1126 10:11:22.467195 10315 net.cpp:454] inception_4d/output_inception_4d/output_0_split <- inception_4d/output
I1126 10:11:22.467202 10315 net.cpp:411] inception_4d/output_inception_4d/output_0_split -> inception_4d/output_inception_4d/output_0_split_0
I1126 10:11:22.467209 10315 net.cpp:411] inception_4d/output_inception_4d/output_0_split -> inception_4d/output_inception_4d/output_0_split_1
I1126 10:11:22.467216 10315 net.cpp:411] inception_4d/output_inception_4d/output_0_split -> inception_4d/output_inception_4d/output_0_split_2
I1126 10:11:22.467223 10315 net.cpp:411] inception_4d/output_inception_4d/output_0_split -> inception_4d/output_inception_4d/output_0_split_3
I1126 10:11:22.467231 10315 net.cpp:411] inception_4d/output_inception_4d/output_0_split -> inception_4d/output_inception_4d/output_0_split_4
I1126 10:11:22.467306 10315 net.cpp:150] Setting up inception_4d/output_inception_4d/output_0_split
I1126 10:11:22.467314 10315 net.cpp:157] Top shape: 50 528 14 14 (5174400)
I1126 10:11:22.467319 10315 net.cpp:157] Top shape: 50 528 14 14 (5174400)
I1126 10:11:22.467324 10315 net.cpp:157] Top shape: 50 528 14 14 (5174400)
I1126 10:11:22.467329 10315 net.cpp:157] Top shape: 50 528 14 14 (5174400)
I1126 10:11:22.467332 10315 net.cpp:157] Top shape: 50 528 14 14 (5174400)
I1126 10:11:22.467336 10315 net.cpp:165] Memory required for data: 2514383408
I1126 10:11:22.467341 10315 layer_factory.hpp:76] Creating layer loss2/ave_pool
I1126 10:11:22.467347 10315 net.cpp:106] Creating Layer loss2/ave_pool
I1126 10:11:22.467351 10315 net.cpp:454] loss2/ave_pool <- inception_4d/output_inception_4d/output_0_split_0
I1126 10:11:22.467360 10315 net.cpp:411] loss2/ave_pool -> loss2/ave_pool
I1126 10:11:22.467563 10315 net.cpp:150] Setting up loss2/ave_pool
I1126 10:11:22.467573 10315 net.cpp:157] Top shape: 50 528 4 4 (422400)
I1126 10:11:22.467577 10315 net.cpp:165] Memory required for data: 2516073008
I1126 10:11:22.467581 10315 layer_factory.hpp:76] Creating layer loss2/conv
I1126 10:11:22.467594 10315 net.cpp:106] Creating Layer loss2/conv
I1126 10:11:22.467607 10315 net.cpp:454] loss2/conv <- loss2/ave_pool
I1126 10:11:22.467614 10315 net.cpp:411] loss2/conv -> loss2/conv
I1126 10:11:22.469202 10315 cudnn_conv_layer.cpp:194] Reallocating workspace storage: 6840
I1126 10:11:22.469249 10315 net.cpp:150] Setting up loss2/conv
I1126 10:11:22.469259 10315 net.cpp:157] Top shape: 50 128 4 4 (102400)
I1126 10:11:22.469264 10315 net.cpp:165] Memory required for data: 2516482608
I1126 10:11:22.469292 10315 layer_factory.hpp:76] Creating layer loss2/prelu_conv
I1126 10:11:22.469302 10315 net.cpp:106] Creating Layer loss2/prelu_conv
I1126 10:11:22.469308 10315 net.cpp:454] loss2/prelu_conv <- loss2/conv
I1126 10:11:22.469315 10315 net.cpp:397] loss2/prelu_conv -> loss2/conv (in-place)
I1126 10:11:22.469418 10315 net.cpp:150] Setting up loss2/prelu_conv
I1126 10:11:22.469425 10315 net.cpp:157] Top shape: 50 128 4 4 (102400)
I1126 10:11:22.469429 10315 net.cpp:165] Memory required for data: 2516892208
I1126 10:11:22.469435 10315 layer_factory.hpp:76] Creating layer loss2/fc
I1126 10:11:22.469444 10315 net.cpp:106] Creating Layer loss2/fc
I1126 10:11:22.469449 10315 net.cpp:454] loss2/fc <- loss2/conv
I1126 10:11:22.469455 10315 net.cpp:411] loss2/fc -> loss2/fc
I1126 10:11:22.485767 10315 net.cpp:150] Setting up loss2/fc
I1126 10:11:22.485805 10315 net.cpp:157] Top shape: 50 1024 (51200)
I1126 10:11:22.485810 10315 net.cpp:165] Memory required for data: 2517097008
I1126 10:11:22.485843 10315 layer_factory.hpp:76] Creating layer loss2/prelu_fc
I1126 10:11:22.485858 10315 net.cpp:106] Creating Layer loss2/prelu_fc
I1126 10:11:22.485865 10315 net.cpp:454] loss2/prelu_fc <- loss2/fc
I1126 10:11:22.485874 10315 net.cpp:397] loss2/prelu_fc -> loss2/fc (in-place)
I1126 10:11:22.485975 10315 net.cpp:150] Setting up loss2/prelu_fc
I1126 10:11:22.485985 10315 net.cpp:157] Top shape: 50 1024 (51200)
I1126 10:11:22.485988 10315 net.cpp:165] Memory required for data: 2517301808
I1126 10:11:22.485994 10315 layer_factory.hpp:76] Creating layer loss2/drop_fc
I1126 10:11:22.486002 10315 net.cpp:106] Creating Layer loss2/drop_fc
I1126 10:11:22.486006 10315 net.cpp:454] loss2/drop_fc <- loss2/fc
I1126 10:11:22.486012 10315 net.cpp:397] loss2/drop_fc -> loss2/fc (in-place)
I1126 10:11:22.486037 10315 net.cpp:150] Setting up loss2/drop_fc
I1126 10:11:22.486043 10315 net.cpp:157] Top shape: 50 1024 (51200)
I1126 10:11:22.486047 10315 net.cpp:165] Memory required for data: 2517506608
I1126 10:11:22.486052 10315 layer_factory.hpp:76] Creating layer loss2/classifier2
I1126 10:11:22.486062 10315 net.cpp:106] Creating Layer loss2/classifier2
I1126 10:11:22.486066 10315 net.cpp:454] loss2/classifier2 <- loss2/fc
I1126 10:11:22.486073 10315 net.cpp:411] loss2/classifier2 -> loss2/classifier
I1126 10:11:22.486196 10315 net.cpp:150] Setting up loss2/classifier2
I1126 10:11:22.486204 10315 net.cpp:157] Top shape: 50 2 (100)
I1126 10:11:22.486208 10315 net.cpp:165] Memory required for data: 2517507008
I1126 10:11:22.486215 10315 layer_factory.hpp:76] Creating layer loss2/classifier_loss2/classifier2_0_split
I1126 10:11:22.486222 10315 net.cpp:106] Creating Layer loss2/classifier_loss2/classifier2_0_split
I1126 10:11:22.486227 10315 net.cpp:454] loss2/classifier_loss2/classifier2_0_split <- loss2/classifier
I1126 10:11:22.486235 10315 net.cpp:411] loss2/classifier_loss2/classifier2_0_split -> loss2/classifier_loss2/classifier2_0_split_0
I1126 10:11:22.486243 10315 net.cpp:411] loss2/classifier_loss2/classifier2_0_split -> loss2/classifier_loss2/classifier2_0_split_1
I1126 10:11:22.486277 10315 net.cpp:150] Setting up loss2/classifier_loss2/classifier2_0_split
I1126 10:11:22.486285 10315 net.cpp:157] Top shape: 50 2 (100)
I1126 10:11:22.486290 10315 net.cpp:157] Top shape: 50 2 (100)
I1126 10:11:22.486294 10315 net.cpp:165] Memory required for data: 2517507808
I1126 10:11:22.486307 10315 layer_factory.hpp:76] Creating layer loss2/loss
I1126 10:11:22.486316 10315 net.cpp:106] Creating Layer loss2/loss
I1126 10:11:22.486321 10315 net.cpp:454] loss2/loss <- loss2/classifier_loss2/classifier2_0_split_0
I1126 10:11:22.486327 10315 net.cpp:454] loss2/loss <- label_data_1_split_2
…
I1126 10:11:22.487115 10315 net.cpp:165] Memory required for data: 2517507816
I1126 10:11:22.487119 10315 layer_factory.hpp:76] Creating layer inception_4e/1x1
I1126 10:11:22.487129 10315 net.cpp:106] Creating Layer inception_4e/1x1
I1126 10:11:22.487135 10315 net.cpp:454] inception_4e/1x1 <- inception_4d/output_inception_4d/output_0_split_1
I1126 10:11:22.487141 10315 net.cpp:411] inception_4e/1x1 -> inception_4e/1x1
I1126 10:11:22.489420 10315 cudnn_conv_layer.cpp:194] Reallocating workspace storage: 10080
I1126 10:11:22.489465 10315 net.cpp:150] Setting up inception_4e/1x1
I1126 10:11:22.489475 10315 net.cpp:157] Top shape: 50 256 14 14 (2508800)
I1126 10:11:22.489478 10315 net.cpp:165] Memory required for data: 2527543016
I1126 10:11:22.489487 10315 layer_factory.hpp:76] Creating layer inception_4e/prelu_1x1
I1126 10:11:22.489501 10315 net.cpp:106] Creating Layer inception_4e/prelu_1x1
I1126 10:11:22.489508 10315 net.cpp:454] inception_4e/prelu_1x1 <- inception_4e/1x1
I1126 10:11:22.489516 10315 net.cpp:397] inception_4e/prelu_1x1 -> inception_4e/1x1 (in-place)
I1126 10:11:22.489652 10315 net.cpp:150] Setting up inception_4e/prelu_1x1
I1126 10:11:22.489661 10315 net.cpp:157] Top shape: 50 256 14 14 (2508800)
I1126 10:11:22.489665 10315 net.cpp:165] Memory required for data: 2537578216
I1126 10:11:22.489671 10315 layer_factory.hpp:76] Creating layer inception_4e/3x3_reduce
I1126 10:11:22.489681 10315 net.cpp:106] Creating Layer inception_4e/3x3_reduce
I1126 10:11:22.489687 10315 net.cpp:454] inception_4e/3x3_reduce <- inception_4d/output_inception_4d/output_0_split_2
I1126 10:11:22.489696 10315 net.cpp:411] inception_4e/3x3_reduce -> inception_4e/3x3_reduce
I1126 10:11:22.491468 10315 cudnn_conv_layer.cpp:194] Reallocating workspace storage: 10080
I1126 10:11:22.491508 10315 net.cpp:150] Setting up inception_4e/3x3_reduce
I1126 10:11:22.491518 10315 net.cpp:157] Top shape: 50 160 14 14 (1568000)
I1126 10:11:22.491523 10315 net.cpp:165] Memory required for data: 2543850216
I1126 10:11:22.491530 10315 layer_factory.hpp:76] Creating layer inception_4e/prelu_3x3_reduce
I1126 10:11:22.491541 10315 net.cpp:106] Creating Layer inception_4e/prelu_3x3_reduce
I1126 10:11:22.491546 10315 net.cpp:454] inception_4e/prelu_3x3_reduce <- inception_4e/3x3_reduce
I1126 10:11:22.491554 10315 net.cpp:397] inception_4e/prelu_3x3_reduce -> inception_4e/3x3_reduce (in-place)
I1126 10:11:22.491665 10315 net.cpp:150] Setting up inception_4e/prelu_3x3_reduce
I1126 10:11:22.491674 10315 net.cpp:157] Top shape: 50 160 14 14 (1568000)
I1126 10:11:22.491678 10315 net.cpp:165] Memory required for data: 2550122216
I1126 10:11:22.491685 10315 layer_factory.hpp:76] Creating layer inception_4e/3x3
I1126 10:11:22.491716 10315 net.cpp:106] Creating Layer inception_4e/3x3
I1126 10:11:22.491722 10315 net.cpp:454] inception_4e/3x3 <- inception_4e/3x3_reduce
I1126 10:11:22.491729 10315 net.cpp:411] inception_4e/3x3 -> inception_4e/3x3
I1126 10:11:22.496592 10315 cudnn_conv_layer.cpp:194] Reallocating workspace storage: 10080
I1126 10:11:22.496647 10315 net.cpp:150] Setting up inception_4e/3x3
I1126 10:11:22.496659 10315 net.cpp:157] Top shape: 50 320 14 14 (3136000)
I1126 10:11:22.496664 10315 net.cpp:165] Memory required for data: 2562666216
I1126 10:11:22.496673 10315 layer_factory.hpp:76] Creating layer inception_4e/prelu_3x3
I1126 10:11:22.496685 10315 net.cpp:106] Creating Layer inception_4e/prelu_3x3
I1126 10:11:22.496691 10315 net.cpp:454] inception_4e/prelu_3x3 <- inception_4e/3x3
I1126 10:11:22.496737 10315 net.cpp:397] inception_4e/prelu_3x3 -> inception_4e/3x3 (in-place)
I1126 10:11:22.497393 10315 net.cpp:150] Setting up inception_4e/prelu_3x3
I1126 10:11:22.497405 10315 net.cpp:157] Top shape: 50 320 14 14 (3136000)
I1126 10:11:22.497408 10315 net.cpp:165] Memory required for data: 2575210216
I1126 10:11:22.497414 10315 layer_factory.hpp:76] Creating layer inception_4e/5x5_reduce
I1126 10:11:22.497427 10315 net.cpp:106] Creating Layer inception_4e/5x5_reduce
I1126 10:11:22.497433 10315 net.cpp:454] inception_4e/5x5_reduce <- inception_4d/output_inception_4d/output_0_split_3
I1126 10:11:22.497442 10315 net.cpp:411] inception_4e/5x5_reduce -> inception_4e/5x5_reduce
I1126 10:11:22.498744 10315 cudnn_conv_layer.cpp:194] Reallocating workspace storage: 10080
I1126 10:11:22.498780 10315 net.cpp:150] Setting up inception_4e/5x5_reduce
I1126 10:11:22.498790 10315 net.cpp:157] Top shape: 50 32 14 14 (313600)
I1126 10:11:22.498793 10315 net.cpp:165] Memory required for data: 2576464616
I1126 10:11:22.498801 10315 layer_factory.hpp:76] Creating layer inception_4e/prelu_5x5_reduce
I1126 10:11:22.498811 10315 net.cpp:106] Creating Layer inception_4e/prelu_5x5_reduce
I1126 10:11:22.498816 10315 net.cpp:454] inception_4e/prelu_5x5_reduce <- inception_4e/5x5_reduce
I1126 10:11:22.498823 10315 net.cpp:397] inception_4e/prelu_5x5_reduce -> inception_4e/5x5_reduce (in-place)
I1126 10:11:22.498919 10315 net.cpp:150] Setting up inception_4e/prelu_5x5_reduce
I1126 10:11:22.498927 10315 net.cpp:157] Top shape: 50 32 14 14 (313600)
I1126 10:11:22.498931 10315 net.cpp:165] Memory required for data: 2577719016
I1126 10:11:22.498937 10315 layer_factory.hpp:76] Creating layer inception_4e/5x5
I1126 10:11:22.498947 10315 net.cpp:106] Creating Layer inception_4e/5x5
I1126 10:11:22.498952 10315 net.cpp:454] inception_4e/5x5 <- inception_4e/5x5_reduce
I1126 10:11:22.498960 10315 net.cpp:411] inception_4e/5x5 -> inception_4e/5x5
I1126 10:11:22.501544 10315 cudnn_conv_layer.cpp:194] Reallocating workspace storage: 13080
I1126 10:11:22.501603 10315 net.cpp:150] Setting up inception_4e/5x5
I1126 10:11:22.501616 10315 net.cpp:157] Top shape: 50 128 14 14 (1254400)
I1126 10:11:22.501621 10315 net.cpp:165] Memory required for data: 2582736616
I1126 10:11:22.501631 10315 layer_factory.hpp:76] Creating layer inception_4e/prelu_5x5
I1126 10:11:22.501646 10315 net.cpp:106] Creating Layer inception_4e/prelu_5x5
I1126 10:11:22.501653 10315 net.cpp:454] inception_4e/prelu_5x5 <- inception_4e/5x5
I1126 10:11:22.501662 10315 net.cpp:397] inception_4e/prelu_5x5 -> inception_4e/5x5 (in-place)
I1126 10:11:22.501778 10315 net.cpp:150] Setting up inception_4e/prelu_5x5
I1126 10:11:22.501788 10315 net.cpp:157] Top shape: 50 128 14 14 (1254400)
I1126 10:11:22.501791 10315 net.cpp:165] Memory required for data: 2587754216
I1126 10:11:22.501797 10315 layer_factory.hpp:76] Creating layer inception_4e/pool
I1126 10:11:22.501806 10315 net.cpp:106] Creating Layer inception_4e/pool
I1126 10:11:22.501811 10315 net.cpp:454] inception_4e/pool <- inception_4d/output_inception_4d/output_0_split_4
I1126 10:11:22.501821 10315 net.cpp:411] inception_4e/pool -> inception_4e/pool
I1126 10:11:22.502068 10315 net.cpp:150] Setting up inception_4e/pool
I1126 10:11:22.502079 10315 net.cpp:157] Top shape: 50 528 14 14 (5174400)
I1126 10:11:22.502084 10315 net.cpp:165] Memory required for data: 2608451816
I1126 10:11:22.502087 10315 layer_factory.hpp:76] Creating layer inception_4e/pool_proj
I1126 10:11:22.502102 10315 net.cpp:106] Creating Layer inception_4e/pool_proj
I1126 10:11:22.502109 10315 net.cpp:454] inception_4e/pool_proj <- inception_4e/pool
I1126 10:11:22.502116 10315 net.cpp:411] inception_4e/pool_proj -> inception_4e/pool_proj
I1126 10:11:22.504130 10315 cudnn_conv_layer.cpp:194] Reallocating workspace storage: 10080
I1126 10:11:22.504179 10315 net.cpp:150] Setting up inception_4e/pool_proj
I1126 10:11:22.504189 10315 net.cpp:157] Top shape: 50 128 14 14 (1254400)
I1126 10:11:22.504194 10315 net.cpp:165] Memory required for data: 2613469416
I1126 10:11:22.504204 10315 layer_factory.hpp:76] Creating layer inception_4e/prelu_pool_proj
I1126 10:11:22.504240 10315 net.cpp:106] Creating Layer inception_4e/prelu_pool_proj
I1126 10:11:22.504247 10315 net.cpp:454] inception_4e/prelu_pool_proj <- inception_4e/pool_proj
I1126 10:11:22.504258 10315 net.cpp:397] inception_4e/prelu_pool_proj -> inception_4e/pool_proj (in-place)
I1126 10:11:22.504369 10315 net.cpp:150] Setting up inception_4e/prelu_pool_proj
I1126 10:11:22.504377 10315 net.cpp:157] Top shape: 50 128 14 14 (1254400)
I1126 10:11:22.504382 10315 net.cpp:165] Memory required for data: 2618487016
I1126 10:11:22.504387 10315 layer_factory.hpp:76] Creating layer inception_4e/output
I1126 10:11:22.504397 10315 net.cpp:106] Creating Layer inception_4e/output
I1126 10:11:22.504405 10315 net.cpp:454] inception_4e/output <- inception_4e/1x1
I1126 10:11:22.504410 10315 net.cpp:454] inception_4e/output <- inception_4e/3x3
I1126 10:11:22.504415 10315 net.cpp:454] inception_4e/output <- inception_4e/5x5
I1126 10:11:22.504420 10315 net.cpp:454] inception_4e/output <- inception_4e/pool_proj
I1126 10:11:22.504436 10315 net.cpp:411] inception_4e/output -> inception_4e/output
I1126 10:11:22.504463 10315 net.cpp:150] Setting up inception_4e/output
I1126 10:11:22.504472 10315 net.cpp:157] Top shape: 50 832 14 14 (8153600)
I1126 10:11:22.504475 10315 net.cpp:165] Memory required for data: 2651101416
I1126 10:11:22.504479 10315 layer_factory.hpp:76] Creating layer pool4/3x3_s2
I1126 10:11:22.504487 10315 net.cpp:106] Creating Layer pool4/3x3_s2
I1126 10:11:22.504492 10315 net.cpp:454] pool4/3x3_s2 <- inception_4e/output
I1126 10:11:22.504511 10315 net.cpp:411] pool4/3x3_s2 -> pool4/3x3_s2
I1126 10:11:22.504811 10315 net.cpp:150] Setting up pool4/3x3_s2
I1126 10:11:22.504822 10315 net.cpp:157] Top shape: 50 832 7 7 (2038400)
I1126 10:11:22.504825 10315 net.cpp:165] Memory required for data: 2659255016
I1126 10:11:22.504830 10315 layer_factory.hpp:76] Creating layer pool4/3x3_s2_pool4/3x3_s2_0_split
I1126 10:11:22.504839 10315 net.cpp:106] Creating Layer pool4/3x3_s2_pool4/3x3_s2_0_split
I1126 10:11:22.504845 10315 net.cpp:454] pool4/3x3_s2_pool4/3x3_s2_0_split <- pool4/3x3_s2
I1126 10:11:22.504851 10315 net.cpp:411] pool4/3x3_s2_pool4/3x3_s2_0_split -> pool4/3x3_s2_pool4/3x3_s2_0_split_0
I1126 10:11:22.504858 10315 net.cpp:411] pool4/3x3_s2_pool4/3x3_s2_0_split -> pool4/3x3_s2_pool4/3x3_s2_0_split_1
I1126 10:11:22.504868 10315 net.cpp:411] pool4/3x3_s2_pool4/3x3_s2_0_split -> pool4/3x3_s2_pool4/3x3_s2_0_split_2
I1126 10:11:22.504875 10315 net.cpp:411] pool4/3x3_s2_pool4/3x3_s2_0_split -> pool4/3x3_s2_pool4/3x3_s2_0_split_3
I1126 10:11:22.504930 10315 net.cpp:150] Setting up pool4/3x3_s2_pool4/3x3_s2_0_split
I1126 10:11:22.504938 10315 net.cpp:157] Top shape: 50 832 7 7 (2038400)
I1126 10:11:22.504943 10315 net.cpp:157] Top shape: 50 832 7 7 (2038400)
I1126 10:11:22.504948 10315 net.cpp:157] Top shape: 50 832 7 7 (2038400)
I1126 10:11:22.504953 10315 net.cpp:157] Top shape: 50 832 7 7 (2038400)
I1126 10:11:22.504967 10315 net.cpp:165] Memory required for data: 2691869416
I1126 10:11:22.504972 10315 layer_factory.hpp:76] Creating layer inception_5a/1x1
I1126 10:11:22.504983 10315 net.cpp:106] Creating Layer inception_5a/1x1
I1126 10:11:22.504988 10315 net.cpp:454] inception_5a/1x1 <- pool4/3x3_s2_pool4/3x3_s2_0_split_0
I1126 10:11:22.504999 10315 net.cpp:411] inception_5a/1x1 -> inception_5a/1x1
I1126 10:11:22.508246 10315 cudnn_conv_layer.cpp:194] Reallocating workspace storage: 7428
I1126 10:11:22.508312 10315 net.cpp:150] Setting up inception_5a/1x1
I1126 10:11:22.508329 10315 net.cpp:157] Top shape: 50 256 7 7 (627200)
I1126 10:11:22.508338 10315 net.cpp:165] Memory required for data: 2694378216
I1126 10:11:22.508355 10315 layer_factory.hpp:76] Creating layer inception_5a/prelu_1x1
I1126 10:11:22.508376 10315 net.cpp:106] Creating Layer inception_5a/prelu_1x1
I1126 10:11:22.508388 10315 net.cpp:454] inception_5a/prelu_1x1 <- inception_5a/1x1
I1126 10:11:22.508404 10315 net.cpp:397] inception_5a/prelu_1x1 -> inception_5a/1x1 (in-place)
I1126 10:11:22.508565 10315 net.cpp:150] Setting up inception_5a/prelu_1x1
I1126 10:11:22.508608 10315 net.cpp:157] Top shape: 50 256 7 7 (627200)
I1126 10:11:22.508617 10315 net.cpp:165] Memory required for data: 2696887016
I1126 10:11:22.508628 10315 layer_factory.hpp:76] Creating layer inception_5a/3x3_reduce
I1126 10:11:22.508661 10315 net.cpp:106] Creating Layer inception_5a/3x3_reduce
I1126 10:11:22.508676 10315 net.cpp:454] inception_5a/3x3_reduce <- pool4/3x3_s2_pool4/3x3_s2_0_split_1
I1126 10:11:22.508692 10315 net.cpp:411] inception_5a/3x3_reduce -> inception_5a/3x3_reduce
I1126 10:11:22.511553 10315 cudnn_conv_layer.cpp:194] Reallocating workspace storage: 7428
I1126 10:11:22.511605 10315 net.cpp:150] Setting up inception_5a/3x3_reduce
I1126 10:11:22.511616 10315 net.cpp:157] Top shape: 50 160 7 7 (392000)
I1126 10:11:22.511621 10315 net.cpp:165] Memory required for data: 2698455016
I1126 10:11:22.511631 10315 layer_factory.hpp:76] Creating layer inception_5a/prelu_3x3_reduce
I1126 10:11:22.511644 10315 net.cpp:106] Creating Layer inception_5a/prelu_3x3_reduce
I1126 10:11:22.511651 10315 net.cpp:454] inception_5a/prelu_3x3_reduce <- inception_5a/3x3_reduce
I1126 10:11:22.511661 10315 net.cpp:397] inception_5a/prelu_3x3_reduce -> inception_5a/3x3_reduce (in-place)
I1126 10:11:22.511756 10315 net.cpp:150] Setting up inception_5a/prelu_3x3_reduce
I1126 10:11:22.511765 10315 net.cpp:157] Top shape: 50 160 7 7 (392000)
I1126 10:11:22.511768 10315 net.cpp:165] Memory required for data: 2700023016
I1126 10:11:22.511775 10315 layer_factory.hpp:76] Creating layer inception_5a/3x3
I1126 10:11:22.511785 10315 net.cpp:106] Creating Layer inception_5a/3x3
I1126 10:11:22.511790 10315 net.cpp:454] inception_5a/3x3 <- inception_5a/3x3_reduce
I1126 10:11:22.511798 10315 net.cpp:411] inception_5a/3x3 -> inception_5a/3x3
I1126 10:11:22.516588 10315 cudnn_conv_layer.cpp:194] Reallocating workspace storage: 7788
I1126 10:11:22.516655 10315 net.cpp:150] Setting up inception_5a/3x3
I1126 10:11:22.516670 10315 net.cpp:157] Top shape: 50 320 7 7 (784000)
I1126 10:11:22.516677 10315 net.cpp:165] Memory required for data: 2703159016
I1126 10:11:22.516691 10315 layer_factory.hpp:76] Creating layer inception_5a/prelu_3x3
I1126 10:11:22.516708 10315 net.cpp:106] Creating Layer inception_5a/prelu_3x3
I1126 10:11:22.516726 10315 net.cpp:454] inception_5a/prelu_3x3 <- inception_5a/3x3
I1126 10:11:22.516736 10315 net.cpp:397] inception_5a/prelu_3x3 -> inception_5a/3x3 (in-place)
I1126 10:11:22.516865 10315 net.cpp:150] Setting up inception_5a/prelu_3x3
I1126 10:11:22.516873 10315 net.cpp:157] Top shape: 50 320 7 7 (784000)
I1126 10:11:22.516877 10315 net.cpp:165] Memory required for data: 2706295016
I1126 10:11:22.516882 10315 layer_factory.hpp:76] Creating layer inception_5a/5x5_reduce
I1126 10:11:22.516894 10315 net.cpp:106] Creating Layer inception_5a/5x5_reduce
I1126 10:11:22.516899 10315 net.cpp:454] inception_5a/5x5_reduce <- pool4/3x3_s2_pool4/3x3_s2_0_split_2
I1126 10:11:22.516907 10315 net.cpp:411] inception_5a/5x5_reduce -> inception_5a/5x5_reduce
I1126 10:11:22.518319 10315 cudnn_conv_layer.cpp:194] Reallocating workspace storage: 7428
I1126 10:11:22.518362 10315 net.cpp:150] Setting up inception_5a/5x5_reduce
I1126 10:11:22.518373 10315 net.cpp:157] Top shape: 50 32 7 7 (78400)
I1126 10:11:22.518376 10315 net.cpp:165] Memory required for data: 2706608616
I1126 10:11:22.518385 10315 layer_factory.hpp:76] Creating layer inception_5a/prelu_5x5_reduce
I1126 10:11:22.518396 10315 net.cpp:106] Creating Layer inception_5a/prelu_5x5_reduce
I1126 10:11:22.518403 10315 net.cpp:454] inception_5a/prelu_5x5_reduce <- inception_5a/5x5_reduce
I1126 10:11:22.518410 10315 net.cpp:397] inception_5a/prelu_5x5_reduce -> inception_5a/5x5_reduce (in-place)
I1126 10:11:22.518520 10315 net.cpp:150] Setting up inception_5a/prelu_5x5_reduce
I1126 10:11:22.518528 10315 net.cpp:157] Top shape: 50 32 7 7 (78400)
I1126 10:11:22.518532 10315 net.cpp:165] Memory required for data: 2706922216
I1126 10:11:22.518538 10315 layer_factory.hpp:76] Creating layer inception_5a/5x5
I1126 10:11:22.518574 10315 net.cpp:106] Creating Layer inception_5a/5x5
I1126 10:11:22.518579 10315 net.cpp:454] inception_5a/5x5 <- inception_5a/5x5_reduce
I1126 10:11:22.518586 10315 net.cpp:411] inception_5a/5x5 -> inception_5a/5x5
I1126 10:11:22.520267 10315 cudnn_conv_layer.cpp:194] Reallocating workspace storage: 9804
I1126 10:11:22.520316 10315 net.cpp:150] Setting up inception_5a/5x5
I1126 10:11:22.520325 10315 net.cpp:157] Top shape: 50 128 7 7 (313600)
I1126 10:11:22.520329 10315 net.cpp:165] Memory required for data: 2708176616
I1126 10:11:22.520337 10315 layer_factory.hpp:76] Creating layer inception_5a/prelu_5x5
I1126 10:11:22.520347 10315 net.cpp:106] Creating Layer inception_5a/prelu_5x5
I1126 10:11:22.520352 10315 net.cpp:454] inception_5a/prelu_5x5 <- inception_5a/5x5
I1126 10:11:22.520359 10315 net.cpp:397] inception_5a/prelu_5x5 -> inception_5a/5x5 (in-place)
I1126 10:11:22.520455 10315 net.cpp:150] Setting up inception_5a/prelu_5x5
I1126 10:11:22.520462 10315 net.cpp:157] Top shape: 50 128 7 7 (313600)
I1126 10:11:22.520467 10315 net.cpp:165] Memory required for data: 2709431016
I1126 10:11:22.520472 10315 layer_factory.hpp:76] Creating layer inception_5a/pool
I1126 10:11:22.520480 10315 net.cpp:106] Creating Layer inception_5a/pool
I1126 10:11:22.520486 10315 net.cpp:454] inception_5a/pool <- pool4/3x3_s2_pool4/3x3_s2_0_split_3
I1126 10:11:22.520493 10315 net.cpp:411] inception_5a/pool -> inception_5a/pool
I1126 10:11:22.520934 10315 net.cpp:150] Setting up inception_5a/pool
I1126 10:11:22.520946 10315 net.cpp:157] Top shape: 50 832 7 7 (2038400)
I1126 10:11:22.520949 10315 net.cpp:165] Memory required for data: 2717584616
I1126 10:11:22.520954 10315 layer_factory.hpp:76] Creating layer inception_5a/pool_proj
I1126 10:11:22.520966 10315 net.cpp:106] Creating Layer inception_5a/pool_proj
I1126 10:11:22.520972 10315 net.cpp:454] inception_5a/pool_proj <- inception_5a/pool
I1126 10:11:22.520978 10315 net.cpp:411] inception_5a/pool_proj -> inception_5a/pool_proj
I1126 10:11:22.523260 10315 cudnn_conv_layer.cpp:194] Reallocating workspace storage: 7428
I1126 10:11:22.523298 10315 net.cpp:150] Setting up inception_5a/pool_proj
I1126 10:11:22.523306 10315 net.cpp:157] Top shape: 50 128 7 7 (313600)
I1126 10:11:22.523310 10315 net.cpp:165] Memory required for data: 2718839016
I1126 10:11:22.523318 10315 layer_factory.hpp:76] Creating layer inception_5a/prelu_pool_proj
I1126 10:11:22.523327 10315 net.cpp:106] Creating Layer inception_5a/prelu_pool_proj
I1126 10:11:22.523334 10315 net.cpp:454] inception_5a/prelu_pool_proj <- inception_5a/pool_proj
I1126 10:11:22.523340 10315 net.cpp:397] inception_5a/prelu_pool_proj -> inception_5a/pool_proj (in-place)
I1126 10:11:22.523425 10315 net.cpp:150] Setting up inception_5a/prelu_pool_proj
I1126 10:11:22.523432 10315 net.cpp:157] Top shape: 50 128 7 7 (313600)
I1126 10:11:22.523437 10315 net.cpp:165] Memory required for data: 2720093416
I1126 10:11:22.523442 10315 layer_factory.hpp:76] Creating layer inception_5a/output
I1126 10:11:22.523448 10315 net.cpp:106] Creating Layer inception_5a/output
I1126 10:11:22.523453 10315 net.cpp:454] inception_5a/output <- inception_5a/1x1
I1126 10:11:22.523458 10315 net.cpp:454] inception_5a/output <- inception_5a/3x3
I1126 10:11:22.523463 10315 net.cpp:454] inception_5a/output <- inception_5a/5x5
I1126 10:11:22.523468 10315 net.cpp:454] inception_5a/output <- inception_5a/pool_proj
I1126 10:11:22.523474 10315 net.cpp:411] inception_5a/output -> inception_5a/output
I1126 10:11:22.523499 10315 net.cpp:150] Setting up inception_5a/output
I1126 10:11:22.523506 10315 net.cpp:157] Top shape: 50 832 7 7 (2038400)
I1126 10:11:22.523510 10315 net.cpp:165] Memory required for data: 2728247016
I1126 10:11:22.523514 10315 layer_factory.hpp:76] Creating layer inception_5a/output_inception_5a/output_0_split
I1126 10:11:22.523521 10315 net.cpp:106] Creating Layer inception_5a/output_inception_5a/output_0_split
I1126 10:11:22.523525 10315 net.cpp:454] inception_5a/output_inception_5a/output_0_split <- inception_5a/output
I1126 10:11:22.523531 10315 net.cpp:411] inception_5a/output_inception_5a/output_0_split -> inception_5a/output_inception_5a/output_0_split_0
I1126 10:11:22.523555 10315 net.cpp:411] inception_5a/output_inception_5a/output_0_split -> inception_5a/output_inception_5a/output_0_split_1
I1126 10:11:22.523561 10315 net.cpp:411] inception_5a/output_inception_5a/output_0_split -> inception_5a/output_inception_5a/output_0_split_2
I1126 10:11:22.523569 10315 net.cpp:411] inception_5a/output_inception_5a/output_0_split -> inception_5a/output_inception_5a/output_0_split_3
I1126 10:11:22.523625 10315 net.cpp:150] Setting up inception_5a/output_inception_5a/output_0_split
I1126 10:11:22.523633 10315 net.cpp:157] Top shape: 50 832 7 7 (2038400)
I1126 10:11:22.523638 10315 net.cpp:157] Top shape: 50 832 7 7 (2038400)
I1126 10:11:22.523643 10315 net.cpp:157] Top shape: 50 832 7 7 (2038400)
I1126 10:11:22.523646 10315 net.cpp:157] Top shape: 50 832 7 7 (2038400)
I1126 10:11:22.523650 10315 net.cpp:165] Memory required for data: 2760861416
I1126 10:11:22.523654 10315 layer_factory.hpp:76] Creating layer inception_5b/1x1
I1126 10:11:22.523663 10315 net.cpp:106] Creating Layer inception_5b/1x1
I1126 10:11:22.523669 10315 net.cpp:454] inception_5b/1x1 <- inception_5a/output_inception_5a/output_0_split_0
I1126 10:11:22.523674 10315 net.cpp:411] inception_5b/1x1 -> inception_5b/1x1
I1126 10:11:22.527153 10315 cudnn_conv_layer.cpp:194] Reallocating workspace storage: 7428
I1126 10:11:22.527192 10315 net.cpp:150] Setting up inception_5b/1x1
I1126 10:11:22.527201 10315 net.cpp:157] Top shape: 50 384 7 7 (940800)
I1126 10:11:22.527205 10315 net.cpp:165] Memory required for data: 2764624616
I1126 10:11:22.527212 10315 layer_factory.hpp:76] Creating layer inception_5b/prelu_1x1
I1126 10:11:22.527221 10315 net.cpp:106] Creating Layer inception_5b/prelu_1x1
I1126 10:11:22.527226 10315 net.cpp:454] inception_5b/prelu_1x1 <- inception_5b/1x1
I1126 10:11:22.527235 10315 net.cpp:397] inception_5b/prelu_1x1 -> inception_5b/1x1 (in-place)
I1126 10:11:22.527340 10315 net.cpp:150] Setting up inception_5b/prelu_1x1
I1126 10:11:22.527349 10315 net.cpp:157] Top shape: 50 384 7 7 (940800)
I1126 10:11:22.527354 10315 net.cpp:165] Memory required for data: 2768387816
I1126 10:11:22.527359 10315 layer_factory.hpp:76] Creating layer inception_5b/3x3_reduce
I1126 10:11:22.527369 10315 net.cpp:106] Creating Layer inception_5b/3x3_reduce
I1126 10:11:22.527374 10315 net.cpp:454] inception_5b/3x3_reduce <- inception_5a/output_inception_5a/output_0_split_1
I1126 10:11:22.527380 10315 net.cpp:411] inception_5b/3x3_reduce -> inception_5b/3x3_reduce
I1126 10:11:22.529686 10315 cudnn_conv_layer.cpp:194] Reallocating workspace storage: 7428
I1126 10:11:22.529719 10315 net.cpp:150] Setting up inception_5b/3x3_reduce
I1126 10:11:22.529728 10315 net.cpp:157] Top shape: 50 192 7 7 (470400)
I1126 10:11:22.529733 10315 net.cpp:165] Memory required for data: 2770269416
I1126 10:11:22.529742 10315 layer_factory.hpp:76] Creating layer inception_5b/prelu_3x3_reduce
I1126 10:11:22.529749 10315 net.cpp:106] Creating Layer inception_5b/prelu_3x3_reduce
I1126 10:11:22.529754 10315 net.cpp:454] inception_5b/prelu_3x3_reduce <- inception_5b/3x3_reduce
I1126 10:11:22.529762 10315 net.cpp:397] inception_5b/prelu_3x3_reduce -> inception_5b/3x3_reduce (in-place)
I1126 10:11:22.529851 10315 net.cpp:150] Setting up inception_5b/prelu_3x3_reduce
I1126 10:11:22.529860 10315 net.cpp:157] Top shape: 50 192 7 7 (470400)
I1126 10:11:22.529862 10315 net.cpp:165] Memory required for data: 2772151016
I1126 10:11:22.529868 10315 layer_factory.hpp:76] Creating layer inception_5b/3x3
I1126 10:11:22.529878 10315 net.cpp:106] Creating Layer inception_5b/3x3
I1126 10:11:22.529883 10315 net.cpp:454] inception_5b/3x3 <- inception_5b/3x3_reduce
I1126 10:11:22.529889 10315 net.cpp:411] inception_5b/3x3 -> inception_5b/3x3
I1126 10:11:22.535666 10315 cudnn_conv_layer.cpp:194] Reallocating workspace storage: 7788
I1126 10:11:22.535706 10315 net.cpp:150] Setting up inception_5b/3x3
I1126 10:11:22.535714 10315 net.cpp:157] Top shape: 50 384 7 7 (940800)
I1126 10:11:22.535739 10315 net.cpp:165] Memory required for data: 2775914216
I1126 10:11:22.535748 10315 layer_factory.hpp:76] Creating layer inception_5b/prelu_3x3
I1126 10:11:22.535756 10315 net.cpp:106] Creating Layer inception_5b/prelu_3x3
I1126 10:11:22.535761 10315 net.cpp:454] inception_5b/prelu_3x3 <- inception_5b/3x3
I1126 10:11:22.535770 10315 net.cpp:397] inception_5b/prelu_3x3 -> inception_5b/3x3 (in-place)
I1126 10:11:22.535878 10315 net.cpp:150] Setting up inception_5b/prelu_3x3
I1126 10:11:22.535887 10315 net.cpp:157] Top shape: 50 384 7 7 (940800)
I1126 10:11:22.535892 10315 net.cpp:165] Memory required for data: 2779677416
I1126 10:11:22.535897 10315 layer_factory.hpp:76] Creating layer inception_5b/5x5_reduce
I1126 10:11:22.535905 10315 net.cpp:106] Creating Layer inception_5b/5x5_reduce
I1126 10:11:22.535910 10315 net.cpp:454] inception_5b/5x5_reduce <- inception_5a/output_inception_5a/output_0_split_2
I1126 10:11:22.535918 10315 net.cpp:411] inception_5b/5x5_reduce -> inception_5b/5x5_reduce
I1126 10:11:22.537528 10315 cudnn_conv_layer.cpp:194] Reallocating workspace storage: 7428
I1126 10:11:22.537564 10315 net.cpp:150] Setting up inception_5b/5x5_reduce
I1126 10:11:22.537580 10315 net.cpp:157] Top shape: 50 48 7 7 (117600)
I1126 10:11:22.537585 10315 net.cpp:165] Memory required for data: 2780147816
I1126 10:11:22.537591 10315 layer_factory.hpp:76] Creating layer inception_5b/prelu_5x5_reduce
I1126 10:11:22.537601 10315 net.cpp:106] Creating Layer inception_5b/prelu_5x5_reduce
I1126 10:11:22.537607 10315 net.cpp:454] inception_5b/prelu_5x5_reduce <- inception_5b/5x5_reduce
I1126 10:11:22.537613 10315 net.cpp:397] inception_5b/prelu_5x5_reduce -> inception_5b/5x5_reduce (in-place)
I1126 10:11:22.537727 10315 net.cpp:150] Setting up inception_5b/prelu_5x5_reduce
I1126 10:11:22.537736 10315 net.cpp:157] Top shape: 50 48 7 7 (117600)
I1126 10:11:22.537740 10315 net.cpp:165] Memory required for data: 2780618216
I1126 10:11:22.537745 10315 layer_factory.hpp:76] Creating layer inception_5b/5x5
I1126 10:11:22.537755 10315 net.cpp:106] Creating Layer inception_5b/5x5
I1126 10:11:22.537760 10315 net.cpp:454] inception_5b/5x5 <- inception_5b/5x5_reduce
I1126 10:11:22.537768 10315 net.cpp:411] inception_5b/5x5 -> inception_5b/5x5
I1126 10:11:22.540343 10315 cudnn_conv_layer.cpp:194] Reallocating workspace storage: 9804
I1126 10:11:22.540419 10315 net.cpp:150] Setting up inception_5b/5x5
I1126 10:11:22.540431 10315 net.cpp:157] Top shape: 50 128 7 7 (313600)
I1126 10:11:22.540436 10315 net.cpp:165] Memory required for data: 2781872616
I1126 10:11:22.540446 10315 layer_factory.hpp:76] Creating layer inception_5b/prelu_5x5
I1126 10:11:22.540460 10315 net.cpp:106] Creating Layer inception_5b/prelu_5x5
I1126 10:11:22.540470 10315 net.cpp:454] inception_5b/prelu_5x5 <- inception_5b/5x5
I1126 10:11:22.540493 10315 net.cpp:397] inception_5b/prelu_5x5 -> inception_5b/5x5 (in-place)
I1126 10:11:22.540627 10315 net.cpp:150] Setting up inception_5b/prelu_5x5
I1126 10:11:22.540637 10315 net.cpp:157] Top shape: 50 128 7 7 (313600)
I1126 10:11:22.540640 10315 net.cpp:165] Memory required for data: 2783127016
I1126 10:11:22.540647 10315 layer_factory.hpp:76] Creating layer inception_5b/pool
I1126 10:11:22.540654 10315 net.cpp:106] Creating Layer inception_5b/pool
I1126 10:11:22.540659 10315 net.cpp:454] inception_5b/pool <- inception_5a/output_inception_5a/output_0_split_3
I1126 10:11:22.540668 10315 net.cpp:411] inception_5b/pool -> inception_5b/pool
I1126 10:11:22.540904 10315 net.cpp:150] Setting up inception_5b/pool
I1126 10:11:22.540915 10315 net.cpp:157] Top shape: 50 832 7 7 (2038400)
I1126 10:11:22.540918 10315 net.cpp:165] Memory required for data: 2791280616
I1126 10:11:22.540923 10315 layer_factory.hpp:76] Creating layer inception_5b/pool_proj
I1126 10:11:22.540935 10315 net.cpp:106] Creating Layer inception_5b/pool_proj
I1126 10:11:22.540940 10315 net.cpp:454] inception_5b/pool_proj <- inception_5b/pool
I1126 10:11:22.540947 10315 net.cpp:411] inception_5b/pool_proj -> inception_5b/pool_proj
I1126 10:11:22.543396 10315 cudnn_conv_layer.cpp:194] Reallocating workspace storage: 7428
I1126 10:11:22.543475 10315 net.cpp:150] Setting up inception_5b/pool_proj
I1126 10:11:22.543488 10315 net.cpp:157] Top shape: 50 128 7 7 (313600)
I1126 10:11:22.543491 10315 net.cpp:165] Memory required for data: 2792535016
I1126 10:11:22.543500 10315 layer_factory.hpp:76] Creating layer inception_5b/prelu_pool_proj
I1126 10:11:22.543514 10315 net.cpp:106] Creating Layer inception_5b/prelu_pool_proj
I1126 10:11:22.543520 10315 net.cpp:454] inception_5b/prelu_pool_proj <- inception_5b/pool_proj
I1126 10:11:22.543529 10315 net.cpp:397] inception_5b/prelu_pool_proj -> inception_5b/pool_proj (in-place)
I1126 10:11:22.543627 10315 net.cpp:150] Setting up inception_5b/prelu_pool_proj
I1126 10:11:22.543635 10315 net.cpp:157] Top shape: 50 128 7 7 (313600)
I1126 10:11:22.543639 10315 net.cpp:165] Memory required for data: 2793789416
I1126 10:11:22.543645 10315 layer_factory.hpp:76] Creating layer inception_5b/output
I1126 10:11:22.543654 10315 net.cpp:106] Creating Layer inception_5b/output
I1126 10:11:22.543659 10315 net.cpp:454] inception_5b/output <- inception_5b/1x1
I1126 10:11:22.543665 10315 net.cpp:454] inception_5b/output <- inception_5b/3x3
I1126 10:11:22.543670 10315 net.cpp:454] inception_5b/output <- inception_5b/5x5
I1126 10:11:22.543675 10315 net.cpp:454] inception_5b/output <- inception_5b/pool_proj
I1126 10:11:22.543680 10315 net.cpp:411] inception_5b/output -> inception_5b/output
I1126 10:11:22.543712 10315 net.cpp:150] Setting up inception_5b/output
I1126 10:11:22.543720 10315 net.cpp:157] Top shape: 50 1024 7 7 (2508800)
I1126 10:11:22.543723 10315 net.cpp:165] Memory required for data: 2803824616
I1126 10:11:22.543728 10315 layer_factory.hpp:76] Creating layer pool5/7x7_s1
I1126 10:11:22.543736 10315 net.cpp:106] Creating Layer pool5/7x7_s1
I1126 10:11:22.543740 10315 net.cpp:454] pool5/7x7_s1 <- inception_5b/output
I1126 10:11:22.543748 10315 net.cpp:411] pool5/7x7_s1 -> pool5/7x7_s1
I1126 10:11:22.544186 10315 net.cpp:150] Setting up pool5/7x7_s1
I1126 10:11:22.544212 10315 net.cpp:157] Top shape: 50 1024 1 1 (51200)
I1126 10:11:22.544216 10315 net.cpp:165] Memory required for data: 2804029416
I1126 10:11:22.544221 10315 layer_factory.hpp:76] Creating layer pool5/drop_7x7_s1
I1126 10:11:22.544229 10315 net.cpp:106] Creating Layer pool5/drop_7x7_s1
I1126 10:11:22.544234 10315 net.cpp:454] pool5/drop_7x7_s1 <- pool5/7x7_s1
I1126 10:11:22.544239 10315 net.cpp:397] pool5/drop_7x7_s1 -> pool5/7x7_s1 (in-place)
I1126 10:11:22.544265 10315 net.cpp:150] Setting up pool5/drop_7x7_s1
I1126 10:11:22.544272 10315 net.cpp:157] Top shape: 50 1024 1 1 (51200)
I1126 10:11:22.544276 10315 net.cpp:165] Memory required for data: 2804234216
I1126 10:11:22.544281 10315 layer_factory.hpp:76] Creating layer loss3/classifier2
I1126 10:11:22.544288 10315 net.cpp:106] Creating Layer loss3/classifier2
I1126 10:11:22.544293 10315 net.cpp:454] loss3/classifier2 <- pool5/7x7_s1
I1126 10:11:22.544299 10315 net.cpp:411] loss3/classifier2 -> loss3/classifier
I1126 10:11:22.544443 10315 net.cpp:150] Setting up loss3/classifier2
I1126 10:11:22.544451 10315 net.cpp:157] Top shape: 50 2 (100)
I1126 10:11:22.544455 10315 net.cpp:165] Memory required for data: 2804234616
I1126 10:11:22.544461 10315 layer_factory.hpp:76] Creating layer loss3/classifier_loss3/classifier2_0_split
I1126 10:11:22.544467 10315 net.cpp:106] Creating Layer loss3/classifier_loss3/classifier2_0_split
I1126 10:11:22.544471 10315 net.cpp:454] loss3/classifier_loss3/classifier2_0_split <- loss3/classifier
I1126 10:11:22.544479 10315 net.cpp:411] loss3/classifier_loss3/classifier2_0_split -> loss3/classifier_loss3/classifier2_0_split_0
I1126 10:11:22.544487 10315 net.cpp:411] loss3/classifier_loss3/classifier2_0_split -> loss3/classifier_loss3/classifier2_0_split_1
I1126 10:11:22.544525 10315 net.cpp:150] Setting up loss3/classifier_loss3/classifier2_0_split
I1126 10:11:22.544533 10315 net.cpp:157] Top shape: 50 2 (100)
I1126 10:11:22.544538 10315 net.cpp:157] Top shape: 50 2 (100)
I1126 10:11:22.544541 10315 net.cpp:165] Memory required for data: 2804235416
I1126 10:11:22.544559 10315 layer_factory.hpp:76] Creating layer loss3/loss3
I1126 10:11:22.544567 10315 net.cpp:106] Creating Layer loss3/loss3
I1126 10:11:22.544572 10315 net.cpp:454] loss3/loss3 <- loss3/classifier_loss3/classifier2_0_split_0
I1126 10:11:22.544577 10315 net.cpp:454] loss3/loss3 <- label_data_1_split_4
…
