…
I1105 17:44:51.523151 24642 net.cpp:322] The NetState phase (0) differed from the phase (1) specified by a rule in layer loss3/top-1
I1105 17:44:51.524207 24642 net.cpp:49] Initializing net from parameters: 
name: "GoogleNet"
state {
  phase: TRAIN
}
layer {
  name: "data"
  type: "Data"
  top: "data"
  top: "label"
  include {
    phase: TRAIN
  }
  transform_param {
    mirror: true
    crop_size: 224
    mean_value: 104
    mean_value: 117
    mean_value: 123
  }
  data_param {
    source: "../../LMDB/train_7-lmdb"
    batch_size: 32
    backend: LMDB
  }
}
layer {
  name: "conv1/7x7_s2"
  type: "Convolution"
  bottom: "data"
  top: "conv1/7x7_s2"
  param {
    lr_mult: 1
    decay_mult: 1
  }
  param {
    lr_mult: 2
    decay_mult: 0
  }
  convolution_param {
    num_output: 64
    pad: 3
    kernel_size: 7
    stride: 2
    weight_filler {
      type: "xavier"
    }
    bias_filler {
      type: "constant"
      value: 0.2
    }
  }
}
layer {
  name: "conv1/prelu_7x7"
  type: "PReLU"
  bottom: "conv1/7x7_s2"
  top: "conv1/7x7_s2"
  param {
    lr_mult: 1
    decay_mult: 0
  }
  prelu_param {
    filler {
      type: "constant"
      value: 0.01
    }
  }
}
layer {
  name: "pool1/3x3_s2"
  type: "Pooling"
  bottom: "conv1/7x7_s2"
  top: "pool1/3x3_s2"
  pooling_param {
    pool: MAX
    kernel_size: 3
    stride: 2
  }
}
layer {
  name: "pool1/norm1"
  type: "LRN"
  bottom: "pool1/3x3_s2"
  top: "pool1/norm1"
  lrn_param {
    local_size: 5
    alpha: 0.0001
    beta: 0.75
  }
}
layer {
  name: "conv2/3x3_reduce"
  type: "Convolution"
  bottom: "pool1/norm1"
  top: "conv2/3x3_reduce"
  param {
    lr_mult: 1
    decay_mult: 1
  }
  param {
    lr_mult: 2
    decay_mult: 0
  }
  convolution_param {
    num_output: 64
    kernel_size: 1
    weight_filler {
      type: "xavier"
    }
    bias_filler {
      type: "constant"
      value: 0.2
    }
  }
}
layer {
  name: "conv2/prelu_3x3_reduce"
  type: "PReLU"
  bottom: "conv2/3x3_reduce"
  top: "conv2/3x3_reduce"
  param {
    lr_mult: 1
    decay_mult: 0
  }
  prelu_param {
    filler {
      type: "constant"
      value: 0.01
    }
  }
}
layer {
  name: "conv2/3x3"
  type: "Convolution"
  bottom: "conv2/3x3_reduce"
  top: "conv2/3x3"
  param {
    lr_mult: 1
    decay_mult: 1
  }
  param {
    lr_mult: 2
    decay_mult: 0
  }
  convolution_param {
    num_output: 192
    pad: 1
    kernel_size: 3
    weight_filler {
      type: "xavier"
    }
    bias_filler {
      type: "constant"
      value: 0.2
    }
  }
}
layer {
  name: "conv2/prelu_3x3"
  type: "PReLU"
  bottom: "conv2/3x3"
  top: "conv2/3x3"
  param {
    lr_mult: 1
    decay_mult: 0
  }
  prelu_param {
    filler {
      type: "constant"
      value: 0.01
    }
  }
}
layer {
  name: "conv2/norm2"
  type: "LRN"
  bottom: "conv2/3x3"
  top: "conv2/norm2"
  lrn_param {
    local_size: 5
    alpha: 0.0001
    beta: 0.75
  }
}
layer {
  name: "pool2/3x3_s2"
  type: "Pooling"
  bottom: "conv2/norm2"
  top: "pool2/3x3_s2"
  pooling_param {
    pool: MAX
    kernel_size: 3
    stride: 2
  }
}
layer {
  name: "inception_3a/1x1"
  type: "Convolution"
  bottom: "pool2/3x3_s2"
  top: "inception_3a/1x1"
  param {
    lr_mult: 1
    decay_mult: 1
  }
  param {
    lr_mult: 2
    decay_mult: 0
  }
  convolution_param {
    num_output: 64
    kernel_size: 1
    weight_filler {
      type: "xavier"
    }
    bias_filler {
      type: "constant"
      value: 0.2
    }
  }
}
layer {
  name: "inception_3a/prelu_1x1"
  type: "PReLU"
  bottom: "inception_3a/1x1"
  top: "inception_3a/1x1"
  param {
    lr_mult: 1
    decay_mult: 0
  }
  prelu_param {
    filler {
      type: "constant"
      value: 0.01
    }
  }
}
layer {
  name: "inception_3a/3x3_reduce"
  type: "Convolution"
  bottom: "pool2/3x3_s2"
  top: "inception_3a/3x3_reduce"
  param {
    lr_mult: 1
    decay_mult: 1
  }
  param {
    lr_mult: 2
    decay_mult: 0
  }
  convolution_param {
    num_output: 96
    kernel_size: 1
    weight_filler {
      type: "xavier"
    }
    bias_filler {
      type: "constant"
      value: 0.2
    }
  }
}
layer {
  name: "inception_3a/prelu_3x3_reduce"
  type: "PReLU"
  bottom: "inception_3a/3x3_reduce"
  top: "inception_3a/3x3_reduce"
  param {
    lr_mult: 1
    decay_mult: 0
  }
  prelu_param {
    filler {
      type: "constant"
      value: 0.01
    }
  }
}
layer {
  name: "inception_3a/3x3"
  type: "Convolution"
  bottom: "inception_3a/3x3_reduce"
  top: "inception_3a/3x3"
  param {
    lr_mult: 1
    decay_mult: 1
  }
  param {
    lr_mult: 2
    decay_mult: 0
  }
  convolution_param {
    num_output: 128
    pad: 1
    kernel_size: 3
    weight_filler {
      type: "xavier"
    }
    bias_filler {
      type: "constant"
      value: 0.2
    }
  }
}
layer {
  name: "inception_3a/prelu_3x3"
  type: "PReLU"
  bottom: "inception_3a/3x3"
  top: "inception_3a/3x3"
  param {
    lr_mult: 1
    decay_mult: 0
  }
  prelu_param {
    filler {
      type: "constant"
      value: 0.01
    }
  }
}
layer {
  name: "inception_3a/5x5_reduce"
  type: "Convolution"
  bottom: "pool2/3x3_s2"
  top: "inception_3a/5x5_reduce"
  param {
    lr_mult: 1
    decay_mult: 1
  }
  param {
    lr_mult: 2
    decay_mult: 0
  }
  convolution_param {
    num_output: 16
    kernel_size: 1
    weight_filler {
      type: "xavier"
    }
    bias_filler {
      type: "constant"
      value: 0.2
    }
  }
}
layer {
  name: "inception_3a/prelu_5x5_reduce"
  type: "PReLU"
  bottom: "inception_3a/5x5_reduce"
  top: "inception_3a/5x5_reduce"
  param {
    lr_mult: 1
    decay_mult: 0
  }
  prelu_param {
    filler {
      type: "constant"
      value: 0.01
    }
  }
}
layer {
  name: "inception_3a/5x5"
  type: "Convolution"
  bottom: "inception_3a/5x5_reduce"
  top: "inception_3a/5x5"
  param {
    lr_mult: 1
    decay_mult: 1
  }
  param {
    lr_mult: 2
    decay_mult: 0
  }
  convolution_param {
    num_output: 32
    pad: 2
    kernel_size: 5
    weight_filler {
      type: "xavier"
    }
    bias_filler {
      type: "constant"
      value: 0.2
    }
  }
}
layer {
  name: "inception_3a/prelu_5x5"
  type: "PReLU"
  bottom: "inception_3a/5x5"
  top: "inception_3a/5x5"
  param {
    lr_mult: 1
    decay_mult: 0
  }
  prelu_param {
    filler {
      type: "constant"
      value: 0.01
    }
  }
}
layer {
  name: "inception_3a/pool"
  type: "Pooling"
  bottom: "pool2/3x3_s2"
  top: "inception_3a/pool"
  pooling_param {
    pool: MAX
    kernel_size: 3
    stride: 1
    pad: 1
  }
}
layer {
  name: "inception_3a/pool_proj"
  type: "Convolution"
  bottom: "inception_3a/pool"
  top: "inception_3a/pool_proj"
  param {
    lr_mult: 1
    decay_mult: 1
  }
  param {
    lr_mult: 2
    decay_mult: 0
  }
  convolution_param {
    num_output: 32
    kernel_size: 1
    weight_filler {
      type: "xavier"
    }
    bias_filler {
      type: "constant"
      value: 0.2
    }
  }
}
layer {
  name: "inception_3a/prelu_pool_proj"
  type: "PReLU"
  bottom: "inception_3a/pool_proj"
  top: "inception_3a/pool_proj"
  param {
    lr_mult: 1
    decay_mult: 0
  }
  prelu_param {
    filler {
      type: "constant"
      value: 0.01
    }
  }
}
layer {
  name: "inception_3a/output"
  type: "Concat"
  bottom: "inception_3a/1x1"
  bottom: "inception_3a/3x3"
  bottom: "inception_3a/5x5"
  bottom: "inception_3a/pool_proj"
  top: "inception_3a/output"
}
layer {
  name: "inception_3b/1x1"
  type: "Convolution"
  bottom: "inception_3a/output"
  top: "inception_3b/1x1"
  param {
    lr_mult: 1
    decay_mult: 1
  }
  param {
    lr_mult: 2
    decay_mult: 0
  }
  convolution_param {
    num_output: 128
    kernel_size: 1
    weight_filler {
      type: "xavier"
    }
    bias_filler {
      type: "constant"
      value: 0.2
    }
  }
}
layer {
  name: "inception_3b/prelu_1x1"
  type: "PReLU"
  bottom: "inception_3b/1x1"
  top: "inception_3b/1x1"
  param {
    lr_mult: 1
    decay_mult: 0
  }
  prelu_param {
    filler {
      type: "constant"
      value: 0.01
    }
  }
}
layer {
  name: "inception_3b/3x3_reduce"
  type: "Convolution"
  bottom: "inception_3a/output"
  top: "inception_3b/3x3_reduce"
  param {
    lr_mult: 1
    decay_mult: 1
  }
  param {
    lr_mult: 2
    decay_mult: 0
  }
  convolution_param {
    num_output: 128
    kernel_size: 1
    weight_filler {
      type: "xavier"
    }
    bias_filler {
      type: "constant"
      value: 0.2
    }
  }
}
layer {
  name: "inception_3b/prelu_3x3_reduce"
  type: "PReLU"
  bottom: "inception_3b/3x3_reduce"
  top: "inception_3b/3x3_reduce"
  param {
    lr_mult: 1
    decay_mult: 0
  }
  prelu_param {
    filler {
      type: "constant"
      value: 0.01
    }
  }
}
layer {
  name: "inception_3b/3x3"
  type: "Convolution"
  bottom: "inception_3b/3x3_reduce"
  top: "inception_3b/3x3"
  param {
    lr_mult: 1
    decay_mult: 1
  }
  param {
    lr_mult: 2
    decay_mult: 0
  }
  convolution_param {
    num_output: 192
    pad: 1
    kernel_size: 3
    weight_filler {
      type: "xavier"
    }
    bias_filler {
      type: "constant"
      value: 0.2
    }
  }
}
layer {
  name: "inception_3b/prelu_3x3"
  type: "PReLU"
  bottom: "inception_3b/3x3"
  top: "inception_3b/3x3"
  param {
    lr_mult: 1
    decay_mult: 0
  }
  prelu_param {
    filler {
      type: "constant"
      value: 0.01
    }
  }
}
layer {
  name: "inception_3b/5x5_reduce"
  type: "Convolution"
  bottom: "inception_3a/output"
  top: "inception_3b/5x5_reduce"
  param {
    lr_mult: 1
    decay_mult: 1
  }
  param {
    lr_mult: 2
    decay_mult: 0
  }
  convolution_param {
    num_output: 32
    kernel_size: 1
    weight_filler {
      type: "xavier"
    }
    bias_filler {
      type: "constant"
      value: 0.2
    }
  }
}
layer {
  name: "inception_3b/prelu_5x5_reduce"
  type: "PReLU"
  bottom: "inception_3b/5x5_reduce"
  top: "inception_3b/5x5_reduce"
  param {
    lr_mult: 1
    decay_mult: 0
  }
  prelu_param {
    filler {
      type: "constant"
      value: 0.01
    }
  }
}
layer {
  name: "inception_3b/5x5"
  type: "Convolution"
  bottom: "inception_3b/5x5_reduce"
  top: "inception_3b/5x5"
  param {
    lr_mult: 1
    decay_mult: 1
  }
  param {
    lr_mult: 2
    decay_mult: 0
  }
  convolution_param {
    num_output: 96
    pad: 2
    kernel_size: 5
    weight_filler {
      type: "xavier"
    }
    bias_filler {
      type: "constant"
      value: 0.2
    }
  }
}
layer {
  name: "inception_3b/prelu_5x5"
  type: "PReLU"
  bottom: "inception_3b/5x5"
  top: "inception_3b/5x5"
  param {
    lr_mult: 1
    decay_mult: 0
  }
  prelu_param {
    filler {
      type: "constant"
      value: 0.01
    }
  }
}
layer {
  name: "inception_3b/pool"
  type: "Pooling"
  bottom: "inception_3a/output"
  top: "inception_3b/pool"
  pooling_param {
    pool: MAX
    kernel_size: 3
    stride: 1
    pad: 1
  }
}
layer {
  name: "inception_3b/pool_proj"
  type: "Convolution"
  bottom: "inception_3b/pool"
  top: "inception_3b/pool_proj"
  param {
    lr_mult: 1
    decay_mult: 1
  }
  param {
    lr_mult: 2
    decay_mult: 0
  }
  convolution_param {
    num_output: 64
    kernel_size: 1
    weight_filler {
      type: "xavier"
    }
    bias_filler {
      type: "constant"
      value: 0.2
    }
  }
}
layer {
  name: "inception_3b/prelu_pool_proj"
  type: "PReLU"
  bottom: "inception_3b/pool_proj"
  top: "inception_3b/pool_proj"
  param {
    lr_mult: 1
    decay_mult: 0
  }
  prelu_param {
    filler {
      type: "constant"
      value: 0.01
    }
  }
}
layer {
  name: "inception_3b/output"
  type: "Concat"
  bottom: "inception_3b/1x1"
  bottom: "inception_3b/3x3"
  bottom: "inception_3b/5x5"
  bottom: "inception_3b/pool_proj"
  top: "inception_3b/output"
}
layer {
  name: "pool3/3x3_s2"
  type: "Pooling"
  bottom: "inception_3b/output"
  top: "pool3/3x3_s2"
  pooling_param {
    pool: MAX
    kernel_size: 3
    stride: 2
  }
}
layer {
  name: "inception_4a/1x1"
  type: "Convolution"
  bottom: "pool3/3x3_s2"
  top: "inception_4a/1x1"
  param {
    lr_mult: 1
    decay_mult: 1
  }
  param {
    lr_mult: 2
    decay_mult: 0
  }
  convolution_param {
    num_output: 192
    kernel_size: 1
    weight_filler {
      type: "xavier"
    }
    bias_filler {
      type: "constant"
      value: 0.2
    }
  }
}
layer {
  name: "inception_4a/prelu_1x1"
  type: "PReLU"
  bottom: "inception_4a/1x1"
  top: "inception_4a/1x1"
  param {
    lr_mult: 1
    decay_mult: 0
  }
  prelu_param {
    filler {
      type: "constant"
      value: 0.01
    }
  }
}
layer {
  name: "inception_4a/3x3_reduce"
  type: "Convolution"
  bottom: "pool3/3x3_s2"
  top: "inception_4a/3x3_reduce"
  param {
    lr_mult: 1
    decay_mult: 1
  }
  param {
    lr_mult: 2
    decay_mult: 0
  }
  convolution_param {
    num_output: 96
    kernel_size: 1
    weight_filler {
      type: "xavier"
    }
    bias_filler {
      type: "constant"
      value: 0.2
    }
  }
}
layer {
  name: "inception_4a/prelu_3x3_reduce"
  type: "PReLU"
  bottom: "inception_4a/3x3_reduce"
  top: "inception_4a/3x3_reduce"
  param {
    lr_mult: 1
    decay_mult: 0
  }
  prelu_param {
    filler {
      type: "constant"
      value: 0.01
    }
  }
}
layer {
  name: "inception_4a/3x3"
  type: "Convolution"
  bottom: "inception_4a/3x3_reduce"
  top: "inception_4a/3x3"
  param {
    lr_mult: 1
    decay_mult: 1
  }
  param {
    lr_mult: 2
    decay_mult: 0
  }
  convolution_param {
    num_output: 208
    pad: 1
    kernel_size: 3
    weight_filler {
      type: "xavier"
    }
    bias_filler {
      type: "constant"
      value: 0.2
    }
  }
}
layer {
  name: "inception_4a/prelu_3x3"
  type: "PReLU"
  bottom: "inception_4a/3x3"
  top: "inception_4a/3x3"
  param {
    lr_mult: 1
    decay_mult: 0
  }
  prelu_param {
    filler {
      type: "constant"
      value: 0.01
    }
  }
}
layer {
  name: "inception_4a/5x5_reduce"
  type: "Convolution"
  bottom: "pool3/3x3_s2"
  top: "inception_4a/5x5_reduce"
  param {
    lr_mult: 1
    decay_mult: 1
  }
  param {
    lr_mult: 2
    decay_mult: 0
  }
  convolution_param {
    num_output: 16
    kernel_size: 1
    weight_filler {
      type: "xavier"
    }
    bias_filler {
      type: "constant"
      value: 0.2
    }
  }
}
layer {
  name: "inception_4a/prelu_5x5_reduce"
  type: "PReLU"
  bottom: "inception_4a/5x5_reduce"
  top: "inception_4a/5x5_reduce"
  param {
    lr_mult: 1
    decay_mult: 0
  }
  prelu_param {
    filler {
      type: "constant"
      value: 0.01
    }
  }
}
layer {
  name: "inception_4a/5x5"
  type: "Convolution"
  bottom: "inception_4a/5x5_reduce"
  top: "inception_4a/5x5"
  param {
    lr_mult: 1
    decay_mult: 1
  }
  param {
    lr_mult: 2
    decay_mult: 0
  }
  convolution_param {
    num_output: 48
    pad: 2
    kernel_size: 5
    weight_filler {
      type: "xavier"
    }
    bias_filler {
      type: "constant"
      value: 0.2
    }
  }
}
layer {
  name: "inception_4a/prelu_5x5"
  type: "PReLU"
  bottom: "inception_4a/5x5"
  top: "inception_4a/5x5"
  param {
    lr_mult: 1
    decay_mult: 0
  }
  prelu_param {
    filler {
      type: "constant"
      value: 0.01
    }
  }
}
layer {
  name: "inception_4a/pool"
  type: "Pooling"
  bottom: "pool3/3x3_s2"
  top: "inception_4a/pool"
  pooling_param {
    pool: MAX
    kernel_size: 3
    stride: 1
    pad: 1
  }
}
layer {
  name: "inception_4a/pool_proj"
  type: "Convolution"
  bottom: "inception_4a/pool"
  top: "inception_4a/pool_proj"
  param {
    lr_mult: 1
    decay_mult: 1
  }
  param {
    lr_mult: 2
    decay_mult: 0
  }
  convolution_param {
    num_output: 64
    kernel_size: 1
    weight_filler {
      type: "xavier"
    }
    bias_filler {
      type: "constant"
      value: 0.2
    }
  }
}
layer {
  name: "inception_4a/prelu_pool_proj"
  type: "PReLU"
  bottom: "inception_4a/pool_proj"
  top: "inception_4a/pool_proj"
  param {
    lr_mult: 1
    decay_mult: 0
  }
  prelu_param {
    filler {
      type: "constant"
      value: 0.01
    }
  }
}
layer {
  name: "inception_4a/output"
  type: "Concat"
  bottom: "inception_4a/1x1"
  bottom: "inception_4a/3x3"
  bottom: "inception_4a/5x5"
  bottom: "inception_4a/pool_proj"
  top: "inception_4a/output"
}
layer {
  name: "loss1/ave_pool"
  type: "Pooling"
  bottom: "inception_4a/output"
  top: "loss1/ave_pool"
  pooling_param {
    pool: AVE
    kernel_size: 5
    stride: 3
  }
}
layer {
  name: "loss1/conv"
  type: "Convolution"
  bottom: "loss1/ave_pool"
  top: "loss1/conv"
  param {
    lr_mult: 1
    decay_mult: 1
  }
  param {
    lr_mult: 2
    decay_mult: 0
  }
  convolution_param {
    num_output: 128
    kernel_size: 1
    weight_filler {
      type: "xavier"
    }
    bias_filler {
      type: "constant"
      value: 0.2
    }
  }
}
layer {
  name: "loss1/prelu_conv"
  type: "PReLU"
  bottom: "loss1/conv"
  top: "loss1/conv"
  param {
    lr_mult: 1
    decay_mult: 0
  }
  prelu_param {
    filler {
      type: "constant"
      value: 0.01
    }
  }
}
layer {
  name: "loss1/fc"
  type: "InnerProduct"
  bottom: "loss1/conv"
  top: "loss1/fc"
  param {
    lr_mult: 1
    decay_mult: 1
  }
  param {
    lr_mult: 2
    decay_mult: 0
  }
  inner_product_param {
    num_output: 1024
    weight_filler {
      type: "xavier"
    }
    bias_filler {
      type: "constant"
      value: 0.2
    }
  }
}
layer {
  name: "loss1/prelu_fc"
  type: "PReLU"
  bottom: "loss1/fc"
  top: "loss1/fc"
  param {
    lr_mult: 1
    decay_mult: 0
  }
  prelu_param {
    filler {
      type: "constant"
      value: 0.01
    }
  }
}
layer {
  name: "loss1/drop_fc"
  type: "Dropout"
  bottom: "loss1/fc"
  top: "loss1/fc"
  dropout_param {
    dropout_ratio: 0.7
  }
}
layer {
  name: "loss1/classifier2"
  type: "InnerProduct"
  bottom: "loss1/fc"
  top: "loss1/classifier"
  param {
    lr_mult: 1
    decay_mult: 1
  }
  param {
    lr_mult: 2
    decay_mult: 0
  }
  inner_product_param {
    num_output: 2
    weight_filler {
      type: "xavier"
    }
    bias_filler {
      type: "constant"
      value: 0
    }
  }
}
layer {
  name: "loss1/loss"
  type: "SoftmaxWithLoss"
  bottom: "loss1/classifier"
  bottom: "label"
  top: "loss1/loss1"
  loss_weight: 0.3
}
layer {
  name: "inception_4b/1x1"
  type: "Convolution"
  bottom: "inception_4a/output"
  top: "inception_4b/1x1"
  param {
    lr_mult: 1
    decay_mult: 1
  }
  param {
    lr_mult: 2
    decay_mult: 0
  }
  convolution_param {
    num_output: 160
    kernel_size: 1
    weight_filler {
      type: "xavier"
    }
    bias_filler {
      type: "constant"
      value: 0.2
    }
  }
}
layer {
  name: "inception_4b/prelu_1x1"
  type: "PReLU"
  bottom: "inception_4b/1x1"
  top: "inception_4b/1x1"
  param {
    lr_mult: 1
    decay_mult: 0
  }
  prelu_param {
    filler {
      type: "constant"
      value: 0.01
    }
  }
}
layer {
  name: "inception_4b/3x3_reduce"
  type: "Convolution"
  bottom: "inception_4a/output"
  top: "inception_4b/3x3_reduce"
  param {
    lr_mult: 1
    decay_mult: 1
  }
  param {
    lr_mult: 2
    decay_mult: 0
  }
  convolution_param {
    num_output: 112
    kernel_size: 1
    weight_filler {
      type: "xavier"
    }
    bias_filler {
      type: "constant"
      value: 0.2
    }
  }
}
layer {
  name: "inception_4b/prelu_3x3_reduce"
  type: "PReLU"
  bottom: "inception_4b/3x3_reduce"
  top: "inception_4b/3x3_reduce"
  param {
    lr_mult: 1
    decay_mult: 0
  }
  prelu_param {
    filler {
      type: "constant"
      value: 0.01
    }
  }
}
layer {
  name: "inception_4b/3x3"
  type: "Convolution"
  bottom: "inception_4b/3x3_reduce"
  top: "inception_4b/3x3"
  param {
    lr_mult: 1
    decay_mult: 1
  }
  param {
    lr_mult: 2
    decay_mult: 0
  }
  convolution_param {
    num_output: 224
    pad: 1
    kernel_size: 3
    weight_filler {
      type: "xavier"
    }
    bias_filler {
      type: "constant"
      value: 0.2
    }
  }
}
layer {
  name: "inception_4b/prelu_3x3"
  type: "PReLU"
  bottom: "inception_4b/3x3"
  top: "inception_4b/3x3"
  param {
    lr_mult: 1
    decay_mult: 0
  }
  prelu_param {
    filler {
      type: "constant"
      value: 0.01
    }
  }
}
layer {
  name: "inception_4b/5x5_reduce"
  type: "Convolution"
  bottom: "inception_4a/output"
  top: "inception_4b/5x5_reduce"
  param {
    lr_mult: 1
    decay_mult: 1
  }
  param {
    lr_mult: 2
    decay_mult: 0
  }
  convolution_param {
    num_output: 24
    kernel_size: 1
    weight_filler {
      type: "xavier"
    }
    bias_filler {
      type: "constant"
      value: 0.2
    }
  }
}
layer {
  name: "inception_4b/prelu_5x5_reduce"
  type: "PReLU"
  bottom: "inception_4b/5x5_reduce"
  top: "inception_4b/5x5_reduce"
  param {
    lr_mult: 1
    decay_mult: 0
  }
  prelu_param {
    filler {
      type: "constant"
      value: 0.01
    }
  }
}
layer {
  name: "inception_4b/5x5"
  type: "Convolution"
  bottom: "inception_4b/5x5_reduce"
  top: "inception_4b/5x5"
  param {
    lr_mult: 1
    decay_mult: 1
  }
  param {
    lr_mult: 2
    decay_mult: 0
  }
  convolution_param {
    num_output: 64
    pad: 2
    kernel_size: 5
    weight_filler {
      type: "xavier"
    }
    bias_filler {
      type: "constant"
      value: 0.2
    }
  }
}
layer {
  name: "inception_4b/prelu_5x5"
  type: "PReLU"
  bottom: "inception_4b/5x5"
  top: "inception_4b/5x5"
  param {
    lr_mult: 1
    decay_mult: 0
  }
  prelu_param {
    filler {
      type: "constant"
      value: 0.01
    }
  }
}
layer {
  name: "inception_4b/pool"
  type: "Pooling"
  bottom: "inception_4a/output"
  top: "inception_4b/pool"
  pooling_param {
    pool: MAX
    kernel_size: 3
    stride: 1
    pad: 1
  }
}
layer {
  name: "inception_4b/pool_proj"
  type: "Convolution"
  bottom: "inception_4b/pool"
  top: "inception_4b/pool_proj"
  param {
    lr_mult: 1
    decay_mult: 1
  }
  param {
    lr_mult: 2
    decay_mult: 0
  }
  convolution_param {
    num_output: 64
    kernel_size: 1
    weight_filler {
      type: "xavier"
    }
    bias_filler {
      type: "constant"
      value: 0.2
    }
  }
}
layer {
  name: "inception_4b/prelu_pool_proj"
  type: "PReLU"
  bottom: "inception_4b/pool_proj"
  top: "inception_4b/pool_proj"
  param {
    lr_mult: 1
    decay_mult: 0
  }
  prelu_param {
    filler {
      type: "constant"
      value: 0.01
    }
  }
}
layer {
  name: "inception_4b/output"
  type: "Concat"
  bottom: "inception_4b/1x1"
  bottom: "inception_4b/3x3"
  bottom: "inception_4b/5x5"
  bottom: "inception_4b/pool_proj"
  top: "inception_4b/output"
}
layer {
  name: "inception_4c/1x1"
  type: "Convolution"
  bottom: "inception_4b/output"
  top: "inception_4c/1x1"
  param {
    lr_mult: 1
    decay_mult: 1
  }
  param {
    lr_mult: 2
    decay_mult: 0
  }
  convolution_param {
    num_output: 128
    kernel_size: 1
    weight_filler {
      type: "xavier"
    }
    bias_filler {
      type: "constant"
      value: 0.2
    }
  }
}
layer {
  name: "inception_4c/prelu_1x1"
  type: "PReLU"
  bottom: "inception_4c/1x1"
  top: "inception_4c/1x1"
  param {
    lr_mult: 1
    decay_mult: 0
  }
  prelu_param {
    filler {
      type: "constant"
      value: 0.01
    }
  }
}
layer {
  name: "inception_4c/3x3_reduce"
  type: "Convolution"
  bottom: "inception_4b/output"
  top: "inception_4c/3x3_reduce"
  param {
    lr_mult: 1
    decay_mult: 1
  }
  param {
    lr_mult: 2
    decay_mult: 0
  }
  convolution_param {
    num_output: 128
    kernel_size: 1
    weight_filler {
      type: "xavier"
    }
    bias_filler {
      type: "constant"
      value: 0.2
    }
  }
}
layer {
  name: "inception_4c/prelu_3x3_reduce"
  type: "PReLU"
  bottom: "inception_4c/3x3_reduce"
  top: "inception_4c/3x3_reduce"
  param {
    lr_mult: 1
    decay_mult: 0
  }
  prelu_param {
    filler {
      type: "constant"
      value: 0.01
    }
  }
}
layer {
  name: "inception_4c/3x3"
  type: "Convolution"
  bottom: "inception_4c/3x3_reduce"
  top: "inception_4c/3x3"
  param {
    lr_mult: 1
    decay_mult: 1
  }
  param {
    lr_mult: 2
    decay_mult: 0
  }
  convolution_param {
    num_output: 256
    pad: 1
    kernel_size: 3
    weight_filler {
      type: "xavier"
    }
    bias_filler {
      type: "constant"
      value: 0.2
    }
  }
}
layer {
  name: "inception_4c/prelu_3x3"
  type: "PReLU"
  bottom: "inception_4c/3x3"
  top: "inception_4c/3x3"
  param {
    lr_mult: 1
    decay_mult: 0
  }
  prelu_param {
    filler {
      type: "constant"
      value: 0.01
    }
  }
}
layer {
  name: "inception_4c/5x5_reduce"
  type: "Convolution"
  bottom: "inception_4b/output"
  top: "inception_4c/5x5_reduce"
  param {
    lr_mult: 1
    decay_mult: 1
  }
  param {
    lr_mult: 2
    decay_mult: 0
  }
  convolution_param {
    num_output: 24
    kernel_size: 1
    weight_filler {
      type: "xavier"
    }
    bias_filler {
      type: "constant"
      value: 0.2
    }
  }
}
layer {
  name: "inception_4c/prelu_5x5_reduce"
  type: "PReLU"
  bottom: "inception_4c/5x5_reduce"
  top: "inception_4c/5x5_reduce"
  param {
    lr_mult: 1
    decay_mult: 0
  }
  prelu_param {
    filler {
      type: "constant"
      value: 0.01
    }
  }
}
layer {
  name: "inception_4c/5x5"
  type: "Convolution"
  bottom: "inception_4c/5x5_reduce"
  top: "inception_4c/5x5"
  param {
    lr_mult: 1
    decay_mult: 1
  }
  param {
    lr_mult: 2
    decay_mult: 0
  }
  convolution_param {
    num_output: 64
    pad: 2
    kernel_size: 5
    weight_filler {
      type: "xavier"
    }
    bias_filler {
      type: "constant"
      value: 0.2
    }
  }
}
layer {
  name: "inception_4c/prelu_5x5"
  type: "PReLU"
  bottom: "inception_4c/5x5"
  top: "inception_4c/5x5"
  param {
    lr_mult: 1
    decay_mult: 0
  }
  prelu_param {
    filler {
      type: "constant"
      value: 0.01
    }
  }
}
layer {
  name: "inception_4c/pool"
  type: "Pooling"
  bottom: "inception_4b/output"
  top: "inception_4c/pool"
  pooling_param {
    pool: MAX
    kernel_size: 3
    stride: 1
    pad: 1
  }
}
layer {
  name: "inception_4c/pool_proj"
  type: "Convolution"
  bottom: "inception_4c/pool"
  top: "inception_4c/pool_proj"
  param {
    lr_mult: 1
    decay_mult: 1
  }
  param {
    lr_mult: 2
    decay_mult: 0
  }
  convolution_param {
    num_output: 64
    kernel_size: 1
    weight_filler {
      type: "xavier"
    }
    bias_filler {
      type: "constant"
      value: 0.2
    }
  }
}
layer {
  name: "inception_4c/prelu_pool_proj"
  type: "PReLU"
  bottom: "inception_4c/pool_proj"
  top: "inception_4c/pool_proj"
  param {
    lr_mult: 1
    decay_mult: 0
  }
  prelu_param {
    filler {
      type: "constant"
      value: 0.01
    }
  }
}
layer {
  name: "inception_4c/output"
  type: "Concat"
  bottom: "inception_4c/1x1"
  bottom: "inception_4c/3x3"
  bottom: "inception_4c/5x5"
  bottom: "inception_4c/pool_proj"
  top: "inception_4c/output"
}
layer {
  name: "inception_4d/1x1"
  type: "Convolution"
  bottom: "inception_4c/output"
  top: "inception_4d/1x1"
  param {
    lr_mult: 1
    decay_mult: 1
  }
  param {
    lr_mult: 2
    decay_mult: 0
  }
  convolution_param {
    num_output: 112
    kernel_size: 1
    weight_filler {
      type: "xavier"
    }
    bias_filler {
      type: "constant"
      value: 0.2
    }
  }
}
layer {
  name: "inception_4d/prelu_1x1"
  type: "PReLU"
  bottom: "inception_4d/1x1"
  top: "inception_4d/1x1"
  param {
    lr_mult: 1
    decay_mult: 0
  }
  prelu_param {
    filler {
      type: "constant"
      value: 0.01
    }
  }
}
layer {
  name: "inception_4d/3x3_reduce"
  type: "Convolution"
  bottom: "inception_4c/output"
  top: "inception_4d/3x3_reduce"
  param {
    lr_mult: 1
    decay_mult: 1
  }
  param {
    lr_mult: 2
    decay_mult: 0
  }
  convolution_param {
    num_output: 144
    kernel_size: 1
    weight_filler {
      type: "xavier"
    }
    bias_filler {
      type: "constant"
      value: 0.2
    }
  }
}
layer {
  name: "inception_4d/prelu_3x3_reduce"
  type: "PReLU"
  bottom: "inception_4d/3x3_reduce"
  top: "inception_4d/3x3_reduce"
  param {
    lr_mult: 1
    decay_mult: 0
  }
  prelu_param {
    filler {
      type: "constant"
      value: 0.01
    }
  }
}
layer {
  name: "inception_4d/3x3"
  type: "Convolution"
  bottom: "inception_4d/3x3_reduce"
  top: "inception_4d/3x3"
  param {
    lr_mult: 1
    decay_mult: 1
  }
  param {
    lr_mult: 2
    decay_mult: 0
  }
  convolution_param {
    num_output: 288
    pad: 1
    kernel_size: 3
    weight_filler {
      type: "xavier"
    }
    bias_filler {
      type: "constant"
      value: 0.2
    }
  }
}
layer {
  name: "inception_4d/prelu_3x3"
  type: "PReLU"
  bottom: "inception_4d/3x3"
  top: "inception_4d/3x3"
  param {
    lr_mult: 1
    decay_mult: 0
  }
  prelu_param {
    filler {
      type: "constant"
      value: 0.01
    }
  }
}
layer {
  name: "inception_4d/5x5_reduce"
  type: "Convolution"
  bottom: "inception_4c/output"
  top: "inception_4d/5x5_reduce"
  param {
    lr_mult: 1
    decay_mult: 1
  }
  param {
    lr_mult: 2
    decay_mult: 0
  }
  convolution_param {
    num_output: 32
    kernel_size: 1
    weight_filler {
      type: "xavier"
    }
    bias_filler {
      type: "constant"
      value: 0.2
    }
  }
}
layer {
  name: "inception_4d/prelu_5x5_reduce"
  type: "PReLU"
  bottom: "inception_4d/5x5_reduce"
  top: "inception_4d/5x5_reduce"
  param {
    lr_mult: 1
    decay_mult: 0
  }
  prelu_param {
    filler {
      type: "constant"
      value: 0.01
    }
  }
}
layer {
  name: "inception_4d/5x5"
  type: "Convolution"
  bottom: "inception_4d/5x5_reduce"
  top: "inception_4d/5x5"
  param {
    lr_mult: 1
    decay_mult: 1
  }
  param {
    lr_mult: 2
    decay_mult: 0
  }
  convolution_param {
    num_output: 64
    pad: 2
    kernel_size: 5
    weight_filler {
      type: "xavier"
    }
    bias_filler {
      type: "constant"
      value: 0.2
    }
  }
}
layer {
  name: "inception_4d/prelu_5x5"
  type: "PReLU"
  bottom: "inception_4d/5x5"
  top: "inception_4d/5x5"
  param {
    lr_mult: 1
    decay_mult: 0
  }
  prelu_param {
    filler {
      type: "constant"
      value: 0.01
    }
  }
}
layer {
  name: "inception_4d/pool"
  type: "Pooling"
  bottom: "inception_4c/output"
  top: "inception_4d/pool"
  pooling_param {
    pool: MAX
    kernel_size: 3
    stride: 1
    pad: 1
  }
}
layer {
  name: "inception_4d/pool_proj"
  type: "Convolution"
  bottom: "ince
I1105 17:44:51.525405 24642 layer_factory.hpp:76] Creating layer data
I1105 17:44:51.526082 24642 net.cpp:106] Creating Layer data
I1105 17:44:51.526103 24642 net.cpp:411] data -> data
I1105 17:44:51.526144 24642 net.cpp:411] data -> label
I1105 17:44:51.528331 24647 db_lmdb.cpp:38] Opened lmdb ../../LMDB/train_7-lmdb
I1105 17:44:51.540748 24642 data_layer.cpp:41] output data size: 32,3,224,224
I1105 17:44:51.610697 24642 net.cpp:150] Setting up data
I1105 17:44:51.610743 24642 net.cpp:157] Top shape: 32 3 224 224 (4816896)
I1105 17:44:51.610757 24642 net.cpp:157] Top shape: 32 (32)
I1105 17:44:51.610762 24642 net.cpp:165] Memory required for data: 19267712
I1105 17:44:51.610774 24642 layer_factory.hpp:76] Creating layer label_data_1_split
I1105 17:44:51.610788 24642 net.cpp:106] Creating Layer label_data_1_split
I1105 17:44:51.610796 24642 net.cpp:454] label_data_1_split <- label
I1105 17:44:51.610827 24642 net.cpp:411] label_data_1_split -> label_data_1_split_0
I1105 17:44:51.610839 24642 net.cpp:411] label_data_1_split -> label_data_1_split_1
I1105 17:44:51.610848 24642 net.cpp:411] label_data_1_split -> label_data_1_split_2
I1105 17:44:51.610913 24642 net.cpp:150] Setting up label_data_1_split
I1105 17:44:51.610923 24642 net.cpp:157] Top shape: 32 (32)
I1105 17:44:51.610927 24642 net.cpp:157] Top shape: 32 (32)
I1105 17:44:51.610940 24642 net.cpp:157] Top shape: 32 (32)
I1105 17:44:51.610944 24642 net.cpp:165] Memory required for data: 19268096
I1105 17:44:51.610949 24642 layer_factory.hpp:76] Creating layer conv1/7x7_s2
I1105 17:44:51.610966 24642 net.cpp:106] Creating Layer conv1/7x7_s2
I1105 17:44:51.610971 24642 net.cpp:454] conv1/7x7_s2 <- data
I1105 17:44:51.610980 24642 net.cpp:411] conv1/7x7_s2 -> conv1/7x7_s2
I1105 17:44:51.639737 24648 blocking_queue.cpp:50] Waiting for data
I1105 17:44:52.269799 24642 cudnn_conv_layer.cpp:194] Reallocating workspace storage: 225816
I1105 17:44:52.270048 24642 net.cpp:150] Setting up conv1/7x7_s2
I1105 17:44:52.270066 24642 net.cpp:157] Top shape: 32 64 112 112 (25690112)
I1105 17:44:52.270078 24642 net.cpp:165] Memory required for data: 122028544
I1105 17:44:52.270098 24642 layer_factory.hpp:76] Creating layer conv1/prelu_7x7
I1105 17:44:52.270115 24642 net.cpp:106] Creating Layer conv1/prelu_7x7
I1105 17:44:52.270124 24642 net.cpp:454] conv1/prelu_7x7 <- conv1/7x7_s2
I1105 17:44:52.270136 24642 net.cpp:397] conv1/prelu_7x7 -> conv1/7x7_s2 (in-place)
I1105 17:44:52.271842 24642 net.cpp:150] Setting up conv1/prelu_7x7
I1105 17:44:52.271858 24642 net.cpp:157] Top shape: 32 64 112 112 (25690112)
I1105 17:44:52.271863 24642 net.cpp:165] Memory required for data: 224788992
I1105 17:44:52.271880 24642 layer_factory.hpp:76] Creating layer pool1/3x3_s2
I1105 17:44:52.271893 24642 net.cpp:106] Creating Layer pool1/3x3_s2
I1105 17:44:52.271898 24642 net.cpp:454] pool1/3x3_s2 <- conv1/7x7_s2
I1105 17:44:52.271904 24642 net.cpp:411] pool1/3x3_s2 -> pool1/3x3_s2
I1105 17:44:52.272357 24642 net.cpp:150] Setting up pool1/3x3_s2
I1105 17:44:52.272377 24642 net.cpp:157] Top shape: 32 64 56 56 (6422528)
I1105 17:44:52.272389 24642 net.cpp:165] Memory required for data: 250479104
I1105 17:44:52.272394 24642 layer_factory.hpp:76] Creating layer pool1/norm1
I1105 17:44:52.272405 24642 net.cpp:106] Creating Layer pool1/norm1
I1105 17:44:52.272410 24642 net.cpp:454] pool1/norm1 <- pool1/3x3_s2
I1105 17:44:52.272424 24642 net.cpp:411] pool1/norm1 -> pool1/norm1
I1105 17:44:52.272608 24642 net.cpp:150] Setting up pool1/norm1
I1105 17:44:52.272619 24642 net.cpp:157] Top shape: 32 64 56 56 (6422528)
I1105 17:44:52.272622 24642 net.cpp:165] Memory required for data: 276169216
I1105 17:44:52.272634 24642 layer_factory.hpp:76] Creating layer conv2/3x3_reduce
I1105 17:44:52.272645 24642 net.cpp:106] Creating Layer conv2/3x3_reduce
I1105 17:44:52.272650 24642 net.cpp:454] conv2/3x3_reduce <- pool1/norm1
I1105 17:44:52.272656 24642 net.cpp:411] conv2/3x3_reduce -> conv2/3x3_reduce
I1105 17:44:52.274091 24642 cudnn_conv_layer.cpp:194] Reallocating workspace storage: 63000
I1105 17:44:52.274112 24642 net.cpp:150] Setting up conv2/3x3_reduce
I1105 17:44:52.274121 24642 net.cpp:157] Top shape: 32 64 56 56 (6422528)
I1105 17:44:52.274124 24642 net.cpp:165] Memory required for data: 301859328
I1105 17:44:52.274134 24642 layer_factory.hpp:76] Creating layer conv2/prelu_3x3_reduce
I1105 17:44:52.274142 24642 net.cpp:106] Creating Layer conv2/prelu_3x3_reduce
I1105 17:44:52.274155 24642 net.cpp:454] conv2/prelu_3x3_reduce <- conv2/3x3_reduce
I1105 17:44:52.274163 24642 net.cpp:397] conv2/prelu_3x3_reduce -> conv2/3x3_reduce (in-place)
I1105 17:44:52.274811 24642 net.cpp:150] Setting up conv2/prelu_3x3_reduce
I1105 17:44:52.274822 24642 net.cpp:157] Top shape: 32 64 56 56 (6422528)
I1105 17:44:52.274827 24642 net.cpp:165] Memory required for data: 327549440
I1105 17:44:52.274833 24642 layer_factory.hpp:76] Creating layer conv2/3x3
I1105 17:44:52.274843 24642 net.cpp:106] Creating Layer conv2/3x3
I1105 17:44:52.274848 24642 net.cpp:454] conv2/3x3 <- conv2/3x3_reduce
I1105 17:44:52.274855 24642 net.cpp:411] conv2/3x3 -> conv2/3x3
I1105 17:44:52.276882 24642 cudnn_conv_layer.cpp:194] Reallocating workspace storage: 63000
I1105 17:44:52.276903 24642 net.cpp:150] Setting up conv2/3x3
I1105 17:44:52.276911 24642 net.cpp:157] Top shape: 32 192 56 56 (19267584)
I1105 17:44:52.276916 24642 net.cpp:165] Memory required for data: 404619776
I1105 17:44:52.276922 24642 layer_factory.hpp:76] Creating layer conv2/prelu_3x3
I1105 17:44:52.276931 24642 net.cpp:106] Creating Layer conv2/prelu_3x3
I1105 17:44:52.276934 24642 net.cpp:454] conv2/prelu_3x3 <- conv2/3x3
I1105 17:44:52.276949 24642 net.cpp:397] conv2/prelu_3x3 -> conv2/3x3 (in-place)
I1105 17:44:52.278138 24642 net.cpp:150] Setting up conv2/prelu_3x3
I1105 17:44:52.278154 24642 net.cpp:157] Top shape: 32 192 56 56 (19267584)
I1105 17:44:52.278177 24642 net.cpp:165] Memory required for data: 481690112
I1105 17:44:52.278187 24642 layer_factory.hpp:76] Creating layer conv2/norm2
I1105 17:44:52.278205 24642 net.cpp:106] Creating Layer conv2/norm2
I1105 17:44:52.278210 24642 net.cpp:454] conv2/norm2 <- conv2/3x3
I1105 17:44:52.278218 24642 net.cpp:411] conv2/norm2 -> conv2/norm2
I1105 17:44:52.278429 24642 net.cpp:150] Setting up conv2/norm2
I1105 17:44:52.278439 24642 net.cpp:157] Top shape: 32 192 56 56 (19267584)
I1105 17:44:52.278445 24642 net.cpp:165] Memory required for data: 558760448
I1105 17:44:52.278456 24642 layer_factory.hpp:76] Creating layer pool2/3x3_s2
I1105 17:44:52.278465 24642 net.cpp:106] Creating Layer pool2/3x3_s2
I1105 17:44:52.278468 24642 net.cpp:454] pool2/3x3_s2 <- conv2/norm2
I1105 17:44:52.278475 24642 net.cpp:411] pool2/3x3_s2 -> pool2/3x3_s2
I1105 17:44:52.278836 24642 net.cpp:150] Setting up pool2/3x3_s2
I1105 17:44:52.278846 24642 net.cpp:157] Top shape: 32 192 28 28 (4816896)
I1105 17:44:52.278851 24642 net.cpp:165] Memory required for data: 578028032
I1105 17:44:52.278856 24642 layer_factory.hpp:76] Creating layer pool2/3x3_s2_pool2/3x3_s2_0_split
I1105 17:44:52.278862 24642 net.cpp:106] Creating Layer pool2/3x3_s2_pool2/3x3_s2_0_split
I1105 17:44:52.278867 24642 net.cpp:454] pool2/3x3_s2_pool2/3x3_s2_0_split <- pool2/3x3_s2
I1105 17:44:52.278873 24642 net.cpp:411] pool2/3x3_s2_pool2/3x3_s2_0_split -> pool2/3x3_s2_pool2/3x3_s2_0_split_0
I1105 17:44:52.278880 24642 net.cpp:411] pool2/3x3_s2_pool2/3x3_s2_0_split -> pool2/3x3_s2_pool2/3x3_s2_0_split_1
I1105 17:44:52.278895 24642 net.cpp:411] pool2/3x3_s2_pool2/3x3_s2_0_split -> pool2/3x3_s2_pool2/3x3_s2_0_split_2
I1105 17:44:52.278903 24642 net.cpp:411] pool2/3x3_s2_pool2/3x3_s2_0_split -> pool2/3x3_s2_pool2/3x3_s2_0_split_3
I1105 17:44:52.278972 24642 net.cpp:150] Setting up pool2/3x3_s2_pool2/3x3_s2_0_split
I1105 17:44:52.278980 24642 net.cpp:157] Top shape: 32 192 28 28 (4816896)
I1105 17:44:52.278993 24642 net.cpp:157] Top shape: 32 192 28 28 (4816896)
I1105 17:44:52.278998 24642 net.cpp:157] Top shape: 32 192 28 28 (4816896)
I1105 17:44:52.279003 24642 net.cpp:157] Top shape: 32 192 28 28 (4816896)
I1105 17:44:52.279007 24642 net.cpp:165] Memory required for data: 655098368
I1105 17:44:52.279011 24642 layer_factory.hpp:76] Creating layer inception_3a/1x1
I1105 17:44:52.279021 24642 net.cpp:106] Creating Layer inception_3a/1x1
I1105 17:44:52.279024 24642 net.cpp:454] inception_3a/1x1 <- pool2/3x3_s2_pool2/3x3_s2_0_split_0
I1105 17:44:52.279039 24642 net.cpp:411] inception_3a/1x1 -> inception_3a/1x1
I1105 17:44:52.280486 24642 cudnn_conv_layer.cpp:194] Reallocating workspace storage: 20664
I1105 17:44:52.280524 24642 net.cpp:150] Setting up inception_3a/1x1
I1105 17:44:52.280535 24642 net.cpp:157] Top shape: 32 64 28 28 (1605632)
I1105 17:44:52.280542 24642 net.cpp:165] Memory required for data: 661520896
I1105 17:44:52.280562 24642 layer_factory.hpp:76] Creating layer inception_3a/prelu_1x1
I1105 17:44:52.280583 24642 net.cpp:106] Creating Layer inception_3a/prelu_1x1
I1105 17:44:52.280594 24642 net.cpp:454] inception_3a/prelu_1x1 <- inception_3a/1x1
I1105 17:44:52.280606 24642 net.cpp:397] inception_3a/prelu_1x1 -> inception_3a/1x1 (in-place)
I1105 17:44:52.281352 24642 net.cpp:150] Setting up inception_3a/prelu_1x1
I1105 17:44:52.281369 24642 net.cpp:157] Top shape: 32 64 28 28 (1605632)
I1105 17:44:52.281376 24642 net.cpp:165] Memory required for data: 667943424
I1105 17:44:52.281386 24642 layer_factory.hpp:76] Creating layer inception_3a/3x3_reduce
I1105 17:44:52.281399 24642 net.cpp:106] Creating Layer inception_3a/3x3_reduce
I1105 17:44:52.281407 24642 net.cpp:454] inception_3a/3x3_reduce <- pool2/3x3_s2_pool2/3x3_s2_0_split_1
I1105 17:44:52.281419 24642 net.cpp:411] inception_3a/3x3_reduce -> inception_3a/3x3_reduce
I1105 17:44:52.282516 24642 cudnn_conv_layer.cpp:194] Reallocating workspace storage: 20664
I1105 17:44:52.282539 24642 net.cpp:150] Setting up inception_3a/3x3_reduce
I1105 17:44:52.282547 24642 net.cpp:157] Top shape: 32 96 28 28 (2408448)
I1105 17:44:52.282563 24642 net.cpp:165] Memory required for data: 677577216
I1105 17:44:52.282572 24642 layer_factory.hpp:76] Creating layer inception_3a/prelu_3x3_reduce
I1105 17:44:52.282585 24642 net.cpp:106] Creating Layer inception_3a/prelu_3x3_reduce
I1105 17:44:52.282594 24642 net.cpp:454] inception_3a/prelu_3x3_reduce <- inception_3a/3x3_reduce
I1105 17:44:52.282606 24642 net.cpp:397] inception_3a/prelu_3x3_reduce -> inception_3a/3x3_reduce (in-place)
I1105 17:44:52.282755 24642 net.cpp:150] Setting up inception_3a/prelu_3x3_reduce
I1105 17:44:52.282766 24642 net.cpp:157] Top shape: 32 96 28 28 (2408448)
I1105 17:44:52.282770 24642 net.cpp:165] Memory required for data: 687211008
I1105 17:44:52.282776 24642 layer_factory.hpp:76] Creating layer inception_3a/3x3
I1105 17:44:52.282784 24642 net.cpp:106] Creating Layer inception_3a/3x3
I1105 17:44:52.282789 24642 net.cpp:454] inception_3a/3x3 <- inception_3a/3x3_reduce
I1105 17:44:52.282796 24642 net.cpp:411] inception_3a/3x3 -> inception_3a/3x3
I1105 17:44:52.284821 24642 cudnn_conv_layer.cpp:194] Reallocating workspace storage: 20664
I1105 17:44:52.284847 24642 net.cpp:150] Setting up inception_3a/3x3
I1105 17:44:52.284854 24642 net.cpp:157] Top shape: 32 128 28 28 (3211264)
I1105 17:44:52.284859 24642 net.cpp:165] Memory required for data: 700056064
I1105 17:44:52.284871 24642 layer_factory.hpp:76] Creating layer inception_3a/prelu_3x3
I1105 17:44:52.284880 24642 net.cpp:106] Creating Layer inception_3a/prelu_3x3
I1105 17:44:52.284885 24642 net.cpp:454] inception_3a/prelu_3x3 <- inception_3a/3x3
I1105 17:44:52.284893 24642 net.cpp:397] inception_3a/prelu_3x3 -> inception_3a/3x3 (in-place)
I1105 17:44:52.285065 24642 net.cpp:150] Setting up inception_3a/prelu_3x3
I1105 17:44:52.285086 24642 net.cpp:157] Top shape: 32 128 28 28 (3211264)
I1105 17:44:52.285091 24642 net.cpp:165] Memory required for data: 712901120
I1105 17:44:52.285097 24642 layer_factory.hpp:76] Creating layer inception_3a/5x5_reduce
I1105 17:44:52.285106 24642 net.cpp:106] Creating Layer inception_3a/5x5_reduce
I1105 17:44:52.285111 24642 net.cpp:454] inception_3a/5x5_reduce <- pool2/3x3_s2_pool2/3x3_s2_0_split_2
I1105 17:44:52.285130 24642 net.cpp:411] inception_3a/5x5_reduce -> inception_3a/5x5_reduce
I1105 17:44:52.286383 24642 cudnn_conv_layer.cpp:194] Reallocating workspace storage: 20664
I1105 17:44:52.286413 24642 net.cpp:150] Setting up inception_3a/5x5_reduce
I1105 17:44:52.286422 24642 net.cpp:157] Top shape: 32 16 28 28 (401408)
I1105 17:44:52.286427 24642 net.cpp:165] Memory required for data: 714506752
I1105 17:44:52.286448 24642 layer_factory.hpp:76] Creating layer inception_3a/prelu_5x5_reduce
I1105 17:44:52.286458 24642 net.cpp:106] Creating Layer inception_3a/prelu_5x5_reduce
I1105 17:44:52.286464 24642 net.cpp:454] inception_3a/prelu_5x5_reduce <- inception_3a/5x5_reduce
I1105 17:44:52.286473 24642 net.cpp:397] inception_3a/prelu_5x5_reduce -> inception_3a/5x5_reduce (in-place)
I1105 17:44:52.286594 24642 net.cpp:150] Setting up inception_3a/prelu_5x5_reduce
I1105 17:44:52.286605 24642 net.cpp:157] Top shape: 32 16 28 28 (401408)
I1105 17:44:52.286609 24642 net.cpp:165] Memory required for data: 716112384
I1105 17:44:52.286615 24642 layer_factory.hpp:76] Creating layer inception_3a/5x5
I1105 17:44:52.286624 24642 net.cpp:106] Creating Layer inception_3a/5x5
I1105 17:44:52.286629 24642 net.cpp:454] inception_3a/5x5 <- inception_3a/5x5_reduce
I1105 17:44:52.286636 24642 net.cpp:411] inception_3a/5x5 -> inception_3a/5x5
I1105 17:44:52.287688 24642 cudnn_conv_layer.cpp:194] Reallocating workspace storage: 20664
I1105 17:44:52.287708 24642 net.cpp:150] Setting up inception_3a/5x5
I1105 17:44:52.287715 24642 net.cpp:157] Top shape: 32 32 28 28 (802816)
I1105 17:44:52.287719 24642 net.cpp:165] Memory required for data: 719323648
I1105 17:44:52.287727 24642 layer_factory.hpp:76] Creating layer inception_3a/prelu_5x5
I1105 17:44:52.287744 24642 net.cpp:106] Creating Layer inception_3a/prelu_5x5
I1105 17:44:52.287750 24642 net.cpp:454] inception_3a/prelu_5x5 <- inception_3a/5x5
I1105 17:44:52.287755 24642 net.cpp:397] inception_3a/prelu_5x5 -> inception_3a/5x5 (in-place)
I1105 17:44:52.287941 24642 net.cpp:150] Setting up inception_3a/prelu_5x5
I1105 17:44:52.287951 24642 net.cpp:157] Top shape: 32 32 28 28 (802816)
I1105 17:44:52.287956 24642 net.cpp:165] Memory required for data: 722534912
I1105 17:44:52.287961 24642 layer_factory.hpp:76] Creating layer inception_3a/pool
I1105 17:44:52.287969 24642 net.cpp:106] Creating Layer inception_3a/pool
I1105 17:44:52.287974 24642 net.cpp:454] inception_3a/pool <- pool2/3x3_s2_pool2/3x3_s2_0_split_3
I1105 17:44:52.287989 24642 net.cpp:411] inception_3a/pool -> inception_3a/pool
I1105 17:44:52.288164 24642 net.cpp:150] Setting up inception_3a/pool
I1105 17:44:52.288174 24642 net.cpp:157] Top shape: 32 192 28 28 (4816896)
I1105 17:44:52.288178 24642 net.cpp:165] Memory required for data: 741802496
I1105 17:44:52.288183 24642 layer_factory.hpp:76] Creating layer inception_3a/pool_proj
I1105 17:44:52.288192 24642 net.cpp:106] Creating Layer inception_3a/pool_proj
I1105 17:44:52.288197 24642 net.cpp:454] inception_3a/pool_proj <- inception_3a/pool
I1105 17:44:52.288211 24642 net.cpp:411] inception_3a/pool_proj -> inception_3a/pool_proj
I1105 17:44:52.289209 24642 cudnn_conv_layer.cpp:194] Reallocating workspace storage: 20664
I1105 17:44:52.289227 24642 net.cpp:150] Setting up inception_3a/pool_proj
I1105 17:44:52.289234 24642 net.cpp:157] Top shape: 32 32 28 28 (802816)
I1105 17:44:52.289239 24642 net.cpp:165] Memory required for data: 745013760
I1105 17:44:52.289247 24642 layer_factory.hpp:76] Creating layer inception_3a/prelu_pool_proj
I1105 17:44:52.289268 24642 net.cpp:106] Creating Layer inception_3a/prelu_pool_proj
I1105 17:44:52.289274 24642 net.cpp:454] inception_3a/prelu_pool_proj <- inception_3a/pool_proj
I1105 17:44:52.289281 24642 net.cpp:397] inception_3a/prelu_pool_proj -> inception_3a/pool_proj (in-place)
I1105 17:44:52.289381 24642 net.cpp:150] Setting up inception_3a/prelu_pool_proj
I1105 17:44:52.289389 24642 net.cpp:157] Top shape: 32 32 28 28 (802816)
I1105 17:44:52.289393 24642 net.cpp:165] Memory required for data: 748225024
I1105 17:44:52.289399 24642 layer_factory.hpp:76] Creating layer inception_3a/output
I1105 17:44:52.289410 24642 net.cpp:106] Creating Layer inception_3a/output
I1105 17:44:52.289415 24642 net.cpp:454] inception_3a/output <- inception_3a/1x1
I1105 17:44:52.289420 24642 net.cpp:454] inception_3a/output <- inception_3a/3x3
I1105 17:44:52.289433 24642 net.cpp:454] inception_3a/output <- inception_3a/5x5
I1105 17:44:52.289438 24642 net.cpp:454] inception_3a/output <- inception_3a/pool_proj
I1105 17:44:52.289444 24642 net.cpp:411] inception_3a/output -> inception_3a/output
I1105 17:44:52.289479 24642 net.cpp:150] Setting up inception_3a/output
I1105 17:44:52.289487 24642 net.cpp:157] Top shape: 32 256 28 28 (6422528)
I1105 17:44:52.289491 24642 net.cpp:165] Memory required for data: 773915136
I1105 17:44:52.289495 24642 layer_factory.hpp:76] Creating layer inception_3a/output_inception_3a/output_0_split
I1105 17:44:52.289501 24642 net.cpp:106] Creating Layer inception_3a/output_inception_3a/output_0_split
I1105 17:44:52.289505 24642 net.cpp:454] inception_3a/output_inception_3a/output_0_split <- inception_3a/output
I1105 17:44:52.289520 24642 net.cpp:411] inception_3a/output_inception_3a/output_0_split -> inception_3a/output_inception_3a/output_0_split_0
I1105 17:44:52.289528 24642 net.cpp:411] inception_3a/output_inception_3a/output_0_split -> inception_3a/output_inception_3a/output_0_split_1
I1105 17:44:52.289535 24642 net.cpp:411] inception_3a/output_inception_3a/output_0_split -> inception_3a/output_inception_3a/output_0_split_2
I1105 17:44:52.289542 24642 net.cpp:411] inception_3a/output_inception_3a/output_0_split -> inception_3a/output_inception_3a/output_0_split_3
I1105 17:44:52.289602 24642 net.cpp:150] Setting up inception_3a/output_inception_3a/output_0_split
I1105 17:44:52.289609 24642 net.cpp:157] Top shape: 32 256 28 28 (6422528)
I1105 17:44:52.289623 24642 net.cpp:157] Top shape: 32 256 28 28 (6422528)
I1105 17:44:52.289628 24642 net.cpp:157] Top shape: 32 256 28 28 (6422528)
I1105 17:44:52.289644 24642 net.cpp:157] Top shape: 32 256 28 28 (6422528)
I1105 17:44:52.289647 24642 net.cpp:165] Memory required for data: 876675584
I1105 17:44:52.289652 24642 layer_factory.hpp:76] Creating layer inception_3b/1x1
I1105 17:44:52.289661 24642 net.cpp:106] Creating Layer inception_3b/1x1
I1105 17:44:52.289665 24642 net.cpp:454] inception_3b/1x1 <- inception_3a/output_inception_3a/output_0_split_0
I1105 17:44:52.289672 24642 net.cpp:411] inception_3b/1x1 -> inception_3b/1x1
I1105 17:44:52.290827 24642 cudnn_conv_layer.cpp:194] Reallocating workspace storage: 20664
I1105 17:44:52.290853 24642 net.cpp:150] Setting up inception_3b/1x1
I1105 17:44:52.290861 24642 net.cpp:157] Top shape: 32 128 28 28 (3211264)
I1105 17:44:52.290866 24642 net.cpp:165] Memory required for data: 889520640
I1105 17:44:52.290874 24642 layer_factory.hpp:76] Creating layer inception_3b/prelu_1x1
I1105 17:44:52.290881 24642 net.cpp:106] Creating Layer inception_3b/prelu_1x1
I1105 17:44:52.290886 24642 net.cpp:454] inception_3b/prelu_1x1 <- inception_3b/1x1
I1105 17:44:52.290894 24642 net.cpp:397] inception_3b/prelu_1x1 -> inception_3b/1x1 (in-place)
I1105 17:44:52.291497 24642 net.cpp:150] Setting up inception_3b/prelu_1x1
I1105 17:44:52.291509 24642 net.cpp:157] Top shape: 32 128 28 28 (3211264)
I1105 17:44:52.291522 24642 net.cpp:165] Memory required for data: 902365696
I1105 17:44:52.291528 24642 layer_factory.hpp:76] Creating layer inception_3b/3x3_reduce
I1105 17:44:52.291538 24642 net.cpp:106] Creating Layer inception_3b/3x3_reduce
I1105 17:44:52.291543 24642 net.cpp:454] inception_3b/3x3_reduce <- inception_3a/output_inception_3a/output_0_split_1
I1105 17:44:52.291551 24642 net.cpp:411] inception_3b/3x3_reduce -> inception_3b/3x3_reduce
I1105 17:44:52.292732 24642 cudnn_conv_layer.cpp:194] Reallocating workspace storage: 20664
I1105 17:44:52.292759 24642 net.cpp:150] Setting up inception_3b/3x3_reduce
I1105 17:44:52.292768 24642 net.cpp:157] Top shape: 32 128 28 28 (3211264)
I1105 17:44:52.292773 24642 net.cpp:165] Memory required for data: 915210752
I1105 17:44:52.292779 24642 layer_factory.hpp:76] Creating layer inception_3b/prelu_3x3_reduce
I1105 17:44:52.292788 24642 net.cpp:106] Creating Layer inception_3b/prelu_3x3_reduce
I1105 17:44:52.292793 24642 net.cpp:454] inception_3b/prelu_3x3_reduce <- inception_3b/3x3_reduce
I1105 17:44:52.292815 24642 net.cpp:397] inception_3b/prelu_3x3_reduce -> inception_3b/3x3_reduce (in-place)
I1105 17:44:52.292946 24642 net.cpp:150] Setting up inception_3b/prelu_3x3_reduce
I1105 17:44:52.292955 24642 net.cpp:157] Top shape: 32 128 28 28 (3211264)
I1105 17:44:52.292960 24642 net.cpp:165] Memory required for data: 928055808
I1105 17:44:52.292973 24642 layer_factory.hpp:76] Creating layer inception_3b/3x3
I1105 17:44:52.292992 24642 net.cpp:106] Creating Layer inception_3b/3x3
I1105 17:44:52.292999 24642 net.cpp:454] inception_3b/3x3 <- inception_3b/3x3_reduce
I1105 17:44:52.293006 24642 net.cpp:411] inception_3b/3x3 -> inception_3b/3x3
I1105 17:44:52.295806 24642 cudnn_conv_layer.cpp:194] Reallocating workspace storage: 20664
I1105 17:44:52.295833 24642 net.cpp:150] Setting up inception_3b/3x3
I1105 17:44:52.295846 24642 net.cpp:157] Top shape: 32 192 28 28 (4816896)
I1105 17:44:52.295861 24642 net.cpp:165] Memory required for data: 947323392
I1105 17:44:52.295872 24642 layer_factory.hpp:76] Creating layer inception_3b/prelu_3x3
I1105 17:44:52.295883 24642 net.cpp:106] Creating Layer inception_3b/prelu_3x3
I1105 17:44:52.295896 24642 net.cpp:454] inception_3b/prelu_3x3 <- inception_3b/3x3
I1105 17:44:52.295922 24642 net.cpp:397] inception_3b/prelu_3x3 -> inception_3b/3x3 (in-place)
I1105 17:44:52.296715 24642 net.cpp:150] Setting up inception_3b/prelu_3x3
I1105 17:44:52.296731 24642 net.cpp:157] Top shape: 32 192 28 28 (4816896)
I1105 17:44:52.296738 24642 net.cpp:165] Memory required for data: 966590976
I1105 17:44:52.296747 24642 layer_factory.hpp:76] Creating layer inception_3b/5x5_reduce
I1105 17:44:52.296769 24642 net.cpp:106] Creating Layer inception_3b/5x5_reduce
I1105 17:44:52.296798 24642 net.cpp:454] inception_3b/5x5_reduce <- inception_3a/output_inception_3a/output_0_split_2
I1105 17:44:52.296835 24642 net.cpp:411] inception_3b/5x5_reduce -> inception_3b/5x5_reduce
I1105 17:44:52.298084 24642 cudnn_conv_layer.cpp:194] Reallocating workspace storage: 20664
I1105 17:44:52.298105 24642 net.cpp:150] Setting up inception_3b/5x5_reduce
I1105 17:44:52.298115 24642 net.cpp:157] Top shape: 32 32 28 28 (802816)
I1105 17:44:52.298120 24642 net.cpp:165] Memory required for data: 969802240
I1105 17:44:52.298126 24642 layer_factory.hpp:76] Creating layer inception_3b/prelu_5x5_reduce
I1105 17:44:52.298137 24642 net.cpp:106] Creating Layer inception_3b/prelu_5x5_reduce
I1105 17:44:52.298143 24642 net.cpp:454] inception_3b/prelu_5x5_reduce <- inception_3b/5x5_reduce
I1105 17:44:52.298151 24642 net.cpp:397] inception_3b/prelu_5x5_reduce -> inception_3b/5x5_reduce (in-place)
I1105 17:44:52.298257 24642 net.cpp:150] Setting up inception_3b/prelu_5x5_reduce
I1105 17:44:52.298267 24642 net.cpp:157] Top shape: 32 32 28 28 (802816)
I1105 17:44:52.298295 24642 net.cpp:165] Memory required for data: 973013504
I1105 17:44:52.298300 24642 layer_factory.hpp:76] Creating layer inception_3b/5x5
I1105 17:44:52.298312 24642 net.cpp:106] Creating Layer inception_3b/5x5
I1105 17:44:52.298317 24642 net.cpp:454] inception_3b/5x5 <- inception_3b/5x5_reduce
I1105 17:44:52.298324 24642 net.cpp:411] inception_3b/5x5 -> inception_3b/5x5
I1105 17:44:52.299828 24642 cudnn_conv_layer.cpp:194] Reallocating workspace storage: 20664
I1105 17:44:52.299897 24642 net.cpp:150] Setting up inception_3b/5x5
I1105 17:44:52.299907 24642 net.cpp:157] Top shape: 32 96 28 28 (2408448)
I1105 17:44:52.299912 24642 net.cpp:165] Memory required for data: 982647296
I1105 17:44:52.299919 24642 layer_factory.hpp:76] Creating layer inception_3b/prelu_5x5
I1105 17:44:52.299927 24642 net.cpp:106] Creating Layer inception_3b/prelu_5x5
I1105 17:44:52.299932 24642 net.cpp:454] inception_3b/prelu_5x5 <- inception_3b/5x5
I1105 17:44:52.299940 24642 net.cpp:397] inception_3b/prelu_5x5 -> inception_3b/5x5 (in-place)
I1105 17:44:52.300107 24642 net.cpp:150] Setting up inception_3b/prelu_5x5
I1105 17:44:52.300117 24642 net.cpp:157] Top shape: 32 96 28 28 (2408448)
I1105 17:44:52.300120 24642 net.cpp:165] Memory required for data: 992281088
I1105 17:44:52.300125 24642 layer_factory.hpp:76] Creating layer inception_3b/pool
I1105 17:44:52.300133 24642 net.cpp:106] Creating Layer inception_3b/pool
I1105 17:44:52.300138 24642 net.cpp:454] inception_3b/pool <- inception_3a/output_inception_3a/output_0_split_3
I1105 17:44:52.300144 24642 net.cpp:411] inception_3b/pool -> inception_3b/pool
I1105 17:44:52.300534 24642 net.cpp:150] Setting up inception_3b/pool
I1105 17:44:52.300546 24642 net.cpp:157] Top shape: 32 256 28 28 (6422528)
I1105 17:44:52.300561 24642 net.cpp:165] Memory required for data: 1017971200
I1105 17:44:52.300566 24642 layer_factory.hpp:76] Creating layer inception_3b/pool_proj
I1105 17:44:52.300576 24642 net.cpp:106] Creating Layer inception_3b/pool_proj
I1105 17:44:52.300581 24642 net.cpp:454] inception_3b/pool_proj <- inception_3b/pool
I1105 17:44:52.300590 24642 net.cpp:411] inception_3b/pool_proj -> inception_3b/pool_proj
I1105 17:44:52.301728 24642 cudnn_conv_layer.cpp:194] Reallocating workspace storage: 20664
I1105 17:44:52.301750 24642 net.cpp:150] Setting up inception_3b/pool_proj
I1105 17:44:52.301759 24642 net.cpp:157] Top shape: 32 64 28 28 (1605632)
I1105 17:44:52.301762 24642 net.cpp:165] Memory required for data: 1024393728
I1105 17:44:52.301770 24642 layer_factory.hpp:76] Creating layer inception_3b/prelu_pool_proj
I1105 17:44:52.301780 24642 net.cpp:106] Creating Layer inception_3b/prelu_pool_proj
I1105 17:44:52.301785 24642 net.cpp:454] inception_3b/prelu_pool_proj <- inception_3b/pool_proj
I1105 17:44:52.301792 24642 net.cpp:397] inception_3b/prelu_pool_proj -> inception_3b/pool_proj (in-place)
I1105 17:44:52.301920 24642 net.cpp:150] Setting up inception_3b/prelu_pool_proj
I1105 17:44:52.301930 24642 net.cpp:157] Top shape: 32 64 28 28 (1605632)
I1105 17:44:52.301949 24642 net.cpp:165] Memory required for data: 1030816256
I1105 17:44:52.301957 24642 layer_factory.hpp:76] Creating layer inception_3b/output
I1105 17:44:52.301964 24642 net.cpp:106] Creating Layer inception_3b/output
I1105 17:44:52.301970 24642 net.cpp:454] inception_3b/output <- inception_3b/1x1
I1105 17:44:52.301976 24642 net.cpp:454] inception_3b/output <- inception_3b/3x3
I1105 17:44:52.301981 24642 net.cpp:454] inception_3b/output <- inception_3b/5x5
I1105 17:44:52.301986 24642 net.cpp:454] inception_3b/output <- inception_3b/pool_proj
I1105 17:44:52.301991 24642 net.cpp:411] inception_3b/output -> inception_3b/output
I1105 17:44:52.302016 24642 net.cpp:150] Setting up inception_3b/output
I1105 17:44:52.302024 24642 net.cpp:157] Top shape: 32 480 28 28 (12042240)
I1105 17:44:52.302029 24642 net.cpp:165] Memory required for data: 1078985216
I1105 17:44:52.302033 24642 layer_factory.hpp:76] Creating layer pool3/3x3_s2
I1105 17:44:52.302042 24642 net.cpp:106] Creating Layer pool3/3x3_s2
I1105 17:44:52.302047 24642 net.cpp:454] pool3/3x3_s2 <- inception_3b/output
I1105 17:44:52.302053 24642 net.cpp:411] pool3/3x3_s2 -> pool3/3x3_s2
I1105 17:44:52.302430 24642 net.cpp:150] Setting up pool3/3x3_s2
I1105 17:44:52.302443 24642 net.cpp:157] Top shape: 32 480 14 14 (3010560)
I1105 17:44:52.302446 24642 net.cpp:165] Memory required for data: 1091027456
I1105 17:44:52.302451 24642 layer_factory.hpp:76] Creating layer pool3/3x3_s2_pool3/3x3_s2_0_split
I1105 17:44:52.302459 24642 net.cpp:106] Creating Layer pool3/3x3_s2_pool3/3x3_s2_0_split
I1105 17:44:52.302462 24642 net.cpp:454] pool3/3x3_s2_pool3/3x3_s2_0_split <- pool3/3x3_s2
I1105 17:44:52.302470 24642 net.cpp:411] pool3/3x3_s2_pool3/3x3_s2_0_split -> pool3/3x3_s2_pool3/3x3_s2_0_split_0
I1105 17:44:52.302477 24642 net.cpp:411] pool3/3x3_s2_pool3/3x3_s2_0_split -> pool3/3x3_s2_pool3/3x3_s2_0_split_1
I1105 17:44:52.302484 24642 net.cpp:411] pool3/3x3_s2_pool3/3x3_s2_0_split -> pool3/3x3_s2_pool3/3x3_s2_0_split_2
I1105 17:44:52.302490 24642 net.cpp:411] pool3/3x3_s2_pool3/3x3_s2_0_split -> pool3/3x3_s2_pool3/3x3_s2_0_split_3
I1105 17:44:52.302567 24642 net.cpp:150] Setting up pool3/3x3_s2_pool3/3x3_s2_0_split
I1105 17:44:52.302575 24642 net.cpp:157] Top shape: 32 480 14 14 (3010560)
I1105 17:44:52.302582 24642 net.cpp:157] Top shape: 32 480 14 14 (3010560)
I1105 17:44:52.302587 24642 net.cpp:157] Top shape: 32 480 14 14 (3010560)
I1105 17:44:52.302592 24642 net.cpp:157] Top shape: 32 480 14 14 (3010560)
I1105 17:44:52.302594 24642 net.cpp:165] Memory required for data: 1139196416
I1105 17:44:52.302599 24642 layer_factory.hpp:76] Creating layer inception_4a/1x1
I1105 17:44:52.302611 24642 net.cpp:106] Creating Layer inception_4a/1x1
I1105 17:44:52.302626 24642 net.cpp:454] inception_4a/1x1 <- pool3/3x3_s2_pool3/3x3_s2_0_split_0
I1105 17:44:52.302634 24642 net.cpp:411] inception_4a/1x1 -> inception_4a/1x1
I1105 17:44:52.304697 24642 cudnn_conv_layer.cpp:194] Reallocating workspace storage: 10080
I1105 17:44:52.304926 24642 net.cpp:150] Setting up inception_4a/1x1
I1105 17:44:52.304937 24642 net.cpp:157] Top shape: 32 192 14 14 (1204224)
I1105 17:44:52.304942 24642 net.cpp:165] Memory required for data: 1144013312
I1105 17:44:52.304950 24642 layer_factory.hpp:76] Creating layer inception_4a/prelu_1x1
I1105 17:44:52.304960 24642 net.cpp:106] Creating Layer inception_4a/prelu_1x1
I1105 17:44:52.304965 24642 net.cpp:454] inception_4a/prelu_1x1 <- inception_4a/1x1
I1105 17:44:52.304973 24642 net.cpp:397] inception_4a/prelu_1x1 -> inception_4a/1x1 (in-place)
I1105 17:44:52.305574 24642 net.cpp:150] Setting up inception_4a/prelu_1x1
I1105 17:44:52.305588 24642 net.cpp:157] Top shape: 32 192 14 14 (1204224)
I1105 17:44:52.305591 24642 net.cpp:165] Memory required for data: 1148830208
I1105 17:44:52.305598 24642 layer_factory.hpp:76] Creating layer inception_4a/3x3_reduce
I1105 17:44:52.305608 24642 net.cpp:106] Creating Layer inception_4a/3x3_reduce
I1105 17:44:52.305624 24642 net.cpp:454] inception_4a/3x3_reduce <- pool3/3x3_s2_pool3/3x3_s2_0_split_1
I1105 17:44:52.305646 24642 net.cpp:411] inception_4a/3x3_reduce -> inception_4a/3x3_reduce
I1105 17:44:52.306944 24642 cudnn_conv_layer.cpp:194] Reallocating workspace storage: 10080
I1105 17:44:52.306972 24642 net.cpp:150] Setting up inception_4a/3x3_reduce
I1105 17:44:52.306982 24642 net.cpp:157] Top shape: 32 96 14 14 (602112)
I1105 17:44:52.306985 24642 net.cpp:165] Memory required for data: 1151238656
I1105 17:44:52.306993 24642 layer_factory.hpp:76] Creating layer inception_4a/prelu_3x3_reduce
I1105 17:44:52.307003 24642 net.cpp:106] Creating Layer inception_4a/prelu_3x3_reduce
I1105 17:44:52.307008 24642 net.cpp:454] inception_4a/prelu_3x3_reduce <- inception_4a/3x3_reduce
I1105 17:44:52.307015 24642 net.cpp:397] inception_4a/prelu_3x3_reduce -> inception_4a/3x3_reduce (in-place)
I1105 17:44:52.307108 24642 net.cpp:150] Setting up inception_4a/prelu_3x3_reduce
I1105 17:44:52.307118 24642 net.cpp:157] Top shape: 32 96 14 14 (602112)
I1105 17:44:52.307122 24642 net.cpp:165] Memory required for data: 1153647104
I1105 17:44:52.307127 24642 layer_factory.hpp:76] Creating layer inception_4a/3x3
I1105 17:44:52.307137 24642 net.cpp:106] Creating Layer inception_4a/3x3
I1105 17:44:52.307142 24642 net.cpp:454] inception_4a/3x3 <- inception_4a/3x3_reduce
I1105 17:44:52.307150 24642 net.cpp:411] inception_4a/3x3 -> inception_4a/3x3
I1105 17:44:52.309422 24642 cudnn_conv_layer.cpp:194] Reallocating workspace storage: 10080
I1105 17:44:52.309448 24642 net.cpp:150] Setting up inception_4a/3x3
I1105 17:44:52.309455 24642 net.cpp:157] Top shape: 32 208 14 14 (1304576)
I1105 17:44:52.309459 24642 net.cpp:165] Memory required for data: 1158865408
I1105 17:44:52.309466 24642 layer_factory.hpp:76] Creating layer inception_4a/prelu_3x3
I1105 17:44:52.309475 24642 net.cpp:106] Creating Layer inception_4a/prelu_3x3
I1105 17:44:52.309480 24642 net.cpp:454] inception_4a/prelu_3x3 <- inception_4a/3x3
I1105 17:44:52.309486 24642 net.cpp:397] inception_4a/prelu_3x3 -> inception_4a/3x3 (in-place)
I1105 17:44:52.309588 24642 net.cpp:150] Setting up inception_4a/prelu_3x3
I1105 17:44:52.309598 24642 net.cpp:157] Top shape: 32 208 14 14 (1304576)
I1105 17:44:52.309602 24642 net.cpp:165] Memory required for data: 1164083712
I1105 17:44:52.309607 24642 layer_factory.hpp:76] Creating layer inception_4a/5x5_reduce
I1105 17:44:52.309617 24642 net.cpp:106] Creating Layer inception_4a/5x5_reduce
I1105 17:44:52.309623 24642 net.cpp:454] inception_4a/5x5_reduce <- pool3/3x3_s2_pool3/3x3_s2_0_split_2
I1105 17:44:52.309630 24642 net.cpp:411] inception_4a/5x5_reduce -> inception_4a/5x5_reduce
I1105 17:44:52.310660 24642 cudnn_conv_layer.cpp:194] Reallocating workspace storage: 10080
I1105 17:44:52.310690 24642 net.cpp:150] Setting up inception_4a/5x5_reduce
I1105 17:44:52.310698 24642 net.cpp:157] Top shape: 32 16 14 14 (100352)
I1105 17:44:52.310703 24642 net.cpp:165] Memory required for data: 1164485120
I1105 17:44:52.310709 24642 layer_factory.hpp:76] Creating layer inception_4a/prelu_5x5_reduce
I1105 17:44:52.310726 24642 net.cpp:106] Creating Layer inception_4a/prelu_5x5_reduce
I1105 17:44:52.310732 24642 net.cpp:454] inception_4a/prelu_5x5_reduce <- inception_4a/5x5_reduce
I1105 17:44:52.310739 24642 net.cpp:397] inception_4a/prelu_5x5_reduce -> inception_4a/5x5_reduce (in-place)
I1105 17:44:52.310838 24642 net.cpp:150] Setting up inception_4a/prelu_5x5_reduce
I1105 17:44:52.310847 24642 net.cpp:157] Top shape: 32 16 14 14 (100352)
I1105 17:44:52.310852 24642 net.cpp:165] Memory required for data: 1164886528
I1105 17:44:52.310865 24642 layer_factory.hpp:76] Creating layer inception_4a/5x5
I1105 17:44:52.310874 24642 net.cpp:106] Creating Layer inception_4a/5x5
I1105 17:44:52.310879 24642 net.cpp:454] inception_4a/5x5 <- inception_4a/5x5_reduce
I1105 17:44:52.310894 24642 net.cpp:411] inception_4a/5x5 -> inception_4a/5x5
I1105 17:44:52.311990 24642 cudnn_conv_layer.cpp:194] Reallocating workspace storage: 13080
I1105 17:44:52.312013 24642 net.cpp:150] Setting up inception_4a/5x5
I1105 17:44:52.312021 24642 net.cpp:157] Top shape: 32 48 14 14 (301056)
I1105 17:44:52.312037 24642 net.cpp:165] Memory required for data: 1166090752
I1105 17:44:52.312053 24642 layer_factory.hpp:76] Creating layer inception_4a/prelu_5x5
I1105 17:44:52.312062 24642 net.cpp:106] Creating Layer inception_4a/prelu_5x5
I1105 17:44:52.312074 24642 net.cpp:454] inception_4a/prelu_5x5 <- inception_4a/5x5
I1105 17:44:52.312089 24642 net.cpp:397] inception_4a/prelu_5x5 -> inception_4a/5x5 (in-place)
I1105 17:44:52.312186 24642 net.cpp:150] Setting up inception_4a/prelu_5x5
I1105 17:44:52.312194 24642 net.cpp:157] Top shape: 32 48 14 14 (301056)
I1105 17:44:52.312198 24642 net.cpp:165] Memory required for data: 1167294976
I1105 17:44:52.312204 24642 layer_factory.hpp:76] Creating layer inception_4a/pool
I1105 17:44:52.312213 24642 net.cpp:106] Creating Layer inception_4a/pool
I1105 17:44:52.312218 24642 net.cpp:454] inception_4a/pool <- pool3/3x3_s2_pool3/3x3_s2_0_split_3
I1105 17:44:52.312224 24642 net.cpp:411] inception_4a/pool -> inception_4a/pool
I1105 17:44:52.312611 24642 net.cpp:150] Setting up inception_4a/pool
I1105 17:44:52.312623 24642 net.cpp:157] Top shape: 32 480 14 14 (3010560)
I1105 17:44:52.312626 24642 net.cpp:165] Memory required for data: 1179337216
I1105 17:44:52.312631 24642 layer_factory.hpp:76] Creating layer inception_4a/pool_proj
I1105 17:44:52.312639 24642 net.cpp:106] Creating Layer inception_4a/pool_proj
I1105 17:44:52.312644 24642 net.cpp:454] inception_4a/pool_proj <- inception_4a/pool
I1105 17:44:52.312654 24642 net.cpp:411] inception_4a/pool_proj -> inception_4a/pool_proj
I1105 17:44:52.313704 24642 cudnn_conv_layer.cpp:194] Reallocating workspace storage: 10080
I1105 17:44:52.313732 24642 net.cpp:150] Setting up inception_4a/pool_proj
I1105 17:44:52.313740 24642 net.cpp:157] Top shape: 32 64 14 14 (401408)
I1105 17:44:52.313745 24642 net.cpp:165] Memory required for data: 1180942848
I1105 17:44:52.313751 24642 layer_factory.hpp:76] Creating layer inception_4a/prelu_pool_proj
I1105 17:44:52.313760 24642 net.cpp:106] Creating Layer inception_4a/prelu_pool_proj
I1105 17:44:52.313765 24642 net.cpp:454] inception_4a/prelu_pool_proj <- inception_4a/pool_proj
I1105 17:44:52.313772 24642 net.cpp:397] inception_4a/prelu_pool_proj -> inception_4a/pool_proj (in-place)
I1105 17:44:52.313865 24642 net.cpp:150] Setting up inception_4a/prelu_pool_proj
I1105 17:44:52.313875 24642 net.cpp:157] Top shape: 32 64 14 14 (401408)
I1105 17:44:52.313879 24642 net.cpp:165] Memory required for data: 1182548480
I1105 17:44:52.313884 24642 layer_factory.hpp:76] Creating layer inception_4a/output
I1105 17:44:52.313891 24642 net.cpp:106] Creating Layer inception_4a/output
I1105 17:44:52.313895 24642 net.cpp:454] inception_4a/output <- inception_4a/1x1
I1105 17:44:52.313901 24642 net.cpp:454] inception_4a/output <- inception_4a/3x3
I1105 17:44:52.313906 24642 net.cpp:454] inception_4a/output <- inception_4a/5x5
I1105 17:44:52.313910 24642 net.cpp:454] inception_4a/output <- inception_4a/pool_proj
I1105 17:44:52.313916 24642 net.cpp:411] inception_4a/output -> inception_4a/output
I1105 17:44:52.313941 24642 net.cpp:150] Setting up inception_4a/output
I1105 17:44:52.313951 24642 net.cpp:157] Top shape: 32 512 14 14 (3211264)
I1105 17:44:52.313954 24642 net.cpp:165] Memory required for data: 1195393536
I1105 17:44:52.313958 24642 layer_factory.hpp:76] Creating layer inception_4a/output_inception_4a/output_0_split
I1105 17:44:52.313966 24642 net.cpp:106] Creating Layer inception_4a/output_inception_4a/output_0_split
I1105 17:44:52.313969 24642 net.cpp:454] inception_4a/output_inception_4a/output_0_split <- inception_4a/output
I1105 17:44:52.313976 24642 net.cpp:411] inception_4a/output_inception_4a/output_0_split -> inception_4a/output_inception_4a/output_0_split_0
I1105 17:44:52.313982 24642 net.cpp:411] inception_4a/output_inception_4a/output_0_split -> inception_4a/output_inception_4a/output_0_split_1
I1105 17:44:52.313988 24642 net.cpp:411] inception_4a/output_inception_4a/output_0_split -> inception_4a/output_inception_4a/output_0_split_2
I1105 17:44:52.313997 24642 net.cpp:411] inception_4a/output_inception_4a/output_0_split -> inception_4a/output_inception_4a/output_0_split_3
I1105 17:44:52.314013 24642 net.cpp:411] inception_4a/output_inception_4a/output_0_split -> inception_4a/output_inception_4a/output_0_split_4
I1105 17:44:52.314079 24642 net.cpp:150] Setting up inception_4a/output_inception_4a/output_0_split
I1105 17:44:52.314087 24642 net.cpp:157] Top shape: 32 512 14 14 (3211264)
I1105 17:44:52.314092 24642 net.cpp:157] Top shape: 32 512 14 14 (3211264)
I1105 17:44:52.314097 24642 net.cpp:157] Top shape: 32 512 14 14 (3211264)
I1105 17:44:52.314102 24642 net.cpp:157] Top shape: 32 512 14 14 (3211264)
I1105 17:44:52.314106 24642 net.cpp:157] Top shape: 32 512 14 14 (3211264)
I1105 17:44:52.314111 24642 net.cpp:165] Memory required for data: 1259618816
I1105 17:44:52.314116 24642 layer_factory.hpp:76] Creating layer loss1/ave_pool
I1105 17:44:52.314121 24642 net.cpp:106] Creating Layer loss1/ave_pool
I1105 17:44:52.314126 24642 net.cpp:454] loss1/ave_pool <- inception_4a/output_inception_4a/output_0_split_0
I1105 17:44:52.314131 24642 net.cpp:411] loss1/ave_pool -> loss1/ave_pool
I1105 17:44:52.314496 24642 net.cpp:150] Setting up loss1/ave_pool
I1105 17:44:52.314507 24642 net.cpp:157] Top shape: 32 512 4 4 (262144)
I1105 17:44:52.314510 24642 net.cpp:165] Memory required for data: 1260667392
I1105 17:44:52.314515 24642 layer_factory.hpp:76] Creating layer loss1/conv
I1105 17:44:52.314524 24642 net.cpp:106] Creating Layer loss1/conv
I1105 17:44:52.314528 24642 net.cpp:454] loss1/conv <- loss1/ave_pool
I1105 17:44:52.314537 24642 net.cpp:411] loss1/conv -> loss1/conv
I1105 17:44:52.315975 24642 cudnn_conv_layer.cpp:194] Reallocating workspace storage: 6840
I1105 17:44:52.315999 24642 net.cpp:150] Setting up loss1/conv
I1105 17:44:52.316006 24642 net.cpp:157] Top shape: 32 128 4 4 (65536)
I1105 17:44:52.316010 24642 net.cpp:165] Memory required for data: 1260929536
I1105 17:44:52.316036 24642 layer_factory.hpp:76] Creating layer loss1/prelu_conv
I1105 17:44:52.316054 24642 net.cpp:106] Creating Layer loss1/prelu_conv
I1105 17:44:52.316068 24642 net.cpp:454] loss1/prelu_conv <- loss1/conv
I1105 17:44:52.316076 24642 net.cpp:397] loss1/prelu_conv -> loss1/conv (in-place)
I1105 17:44:52.316170 24642 net.cpp:150] Setting up loss1/prelu_conv
I1105 17:44:52.316179 24642 net.cpp:157] Top shape: 32 128 4 4 (65536)
I1105 17:44:52.316191 24642 net.cpp:165] Memory required for data: 1261191680
I1105 17:44:52.316198 24642 layer_factory.hpp:76] Creating layer loss1/fc
I1105 17:44:52.316220 24642 net.cpp:106] Creating Layer loss1/fc
I1105 17:44:52.316226 24642 net.cpp:454] loss1/fc <- loss1/conv
I1105 17:44:52.316233 24642 net.cpp:411] loss1/fc -> loss1/fc
I1105 17:44:52.332329 24642 net.cpp:150] Setting up loss1/fc
I1105 17:44:52.332398 24642 net.cpp:157] Top shape: 32 1024 (32768)
I1105 17:44:52.332404 24642 net.cpp:165] Memory required for data: 1261322752
I1105 17:44:52.332415 24642 layer_factory.hpp:76] Creating layer loss1/prelu_fc
I1105 17:44:52.332430 24642 net.cpp:106] Creating Layer loss1/prelu_fc
I1105 17:44:52.332448 24642 net.cpp:454] loss1/prelu_fc <- loss1/fc
I1105 17:44:52.332456 24642 net.cpp:397] loss1/prelu_fc -> loss1/fc (in-place)
I1105 17:44:52.332561 24642 net.cpp:150] Setting up loss1/prelu_fc
I1105 17:44:52.332568 24642 net.cpp:157] Top shape: 32 1024 (32768)
I1105 17:44:52.332572 24642 net.cpp:165] Memory required for data: 1261453824
I1105 17:44:52.332589 24642 layer_factory.hpp:76] Creating layer loss1/drop_fc
I1105 17:44:52.332620 24642 net.cpp:106] Creating Layer loss1/drop_fc
I1105 17:44:52.332628 24642 net.cpp:454] loss1/drop_fc <- loss1/fc
I1105 17:44:52.332655 24642 net.cpp:397] loss1/drop_fc -> loss1/fc (in-place)
I1105 17:44:52.332698 24642 net.cpp:150] Setting up loss1/drop_fc
I1105 17:44:52.332706 24642 net.cpp:157] Top shape: 32 1024 (32768)
I1105 17:44:52.332710 24642 net.cpp:165] Memory required for data: 1261584896
I1105 17:44:52.332715 24642 layer_factory.hpp:76] Creating layer loss1/classifier2
I1105 17:44:52.332736 24642 net.cpp:106] Creating Layer loss1/classifier2
I1105 17:44:52.332751 24642 net.cpp:454] loss1/classifier2 <- loss1/fc
I1105 17:44:52.332758 24642 net.cpp:411] loss1/classifier2 -> loss1/classifier
I1105 17:44:52.332875 24642 net.cpp:150] Setting up loss1/classifier2
I1105 17:44:52.332883 24642 net.cpp:157] Top shape: 32 2 (64)
I1105 17:44:52.332887 24642 net.cpp:165] Memory required for data: 1261585152
I1105 17:44:52.332895 24642 layer_factory.hpp:76] Creating layer loss1/loss
I1105 17:44:52.332902 24642 net.cpp:106] Creating Layer loss1/loss
I1105 17:44:52.332908 24642 net.cpp:454] loss1/loss <- loss1/classifier
I1105 17:44:52.332913 24642 net.cpp:454] loss1/loss <- label_data_1_split_0
I1105 17:44:52.332919 24642 net.cpp:411] loss1/loss -> loss1/loss1
I1105 17:44:52.332932 24642 layer_factory.hpp:76] Creating layer loss1/loss
I1105 17:44:52.333312 24642 net.cpp:150] Setting up loss1/loss
I1105 17:44:52.333323 24642 net.cpp:157] Top shape: (1)
I1105 17:44:52.333328 24642 net.cpp:160]     with loss weight 0.3
I1105 17:44:52.333350 24642 net.cpp:165] Memory required for data: 1261585156
I1105 17:44:52.333355 24642 layer_factory.hpp:76] Creating layer inception_4b/1x1
I1105 17:44:52.333366 24642 net.cpp:106] Creating Layer inception_4b/1x1
I1105 17:44:52.333372 24642 net.cpp:454] inception_4b/1x1 <- inception_4a/output_inception_4a/output_0_split_1
I1105 17:44:52.333380 24642 net.cpp:411] inception_4b/1x1 -> inception_4b/1x1
I1105 17:44:52.335091 24642 cudnn_conv_layer.cpp:194] Reallocating workspace storage: 10080
I1105 17:44:52.335132 24642 net.cpp:150] Setting up inception_4b/1x1
I1105 17:44:52.335153 24642 net.cpp:157] Top shape: 32 160 14 14 (1003520)
I1105 17:44:52.335175 24642 net.cpp:165] Memory required for data: 1265599236
I1105 17:44:52.335183 24642 layer_factory.hpp:76] Creating layer inception_4b/prelu_1x1
I1105 17:44:52.335193 24642 net.cpp:106] Creating Layer inception_4b/prelu_1x1
I1105 17:44:52.335199 24642 net.cpp:454] inception_4b/prelu_1x1 <- inception_4b/1x1
I1105 17:44:52.335206 24642 net.cpp:397] inception_4b/prelu_1x1 -> inception_4b/1x1 (in-place)
I1105 17:44:52.335798 24642 net.cpp:150] Setting up inception_4b/prelu_1x1
I1105 17:44:52.335810 24642 net.cpp:157] Top shape: 32 160 14 14 (1003520)
I1105 17:44:52.335815 24642 net.cpp:165] Memory required for data: 1269613316
I1105 17:44:52.335821 24642 layer_factory.hpp:76] Creating layer inception_4b/3x3_reduce
I1105 17:44:52.335831 24642 net.cpp:106] Creating Layer inception_4b/3x3_reduce
I1105 17:44:52.335837 24642 net.cpp:454] inception_4b/3x3_reduce <- inception_4a/output_inception_4a/output_0_split_2
I1105 17:44:52.335845 24642 net.cpp:411] inception_4b/3x3_reduce -> inception_4b/3x3_reduce
I1105 17:44:52.337488 24642 cudnn_conv_layer.cpp:194] Reallocating workspace storage: 10080
I1105 17:44:52.337517 24642 net.cpp:150] Setting up inception_4b/3x3_reduce
I1105 17:44:52.337527 24642 net.cpp:157] Top shape: 32 112 14 14 (702464)
I1105 17:44:52.337532 24642 net.cpp:165] Memory required for data: 1272423172
I1105 17:44:52.337538 24642 layer_factory.hpp:76] Creating layer inception_4b/prelu_3x3_reduce
I1105 17:44:52.337551 24642 net.cpp:106] Creating Layer inception_4b/prelu_3x3_reduce
I1105 17:44:52.337558 24642 net.cpp:454] inception_4b/prelu_3x3_reduce <- inception_4b/3x3_reduce
I1105 17:44:52.337564 24642 net.cpp:397] inception_4b/prelu_3x3_reduce -> inception_4b/3x3_reduce (in-place)
I1105 17:44:52.337662 24642 net.cpp:150] Setting up inception_4b/prelu_3x3_reduce
I1105 17:44:52.337672 24642 net.cpp:157] Top shape: 32 112 14 14 (702464)
I1105 17:44:52.337677 24642 net.cpp:165] Memory required for data: 1275233028
I1105 17:44:52.337682 24642 layer_factory.hpp:76] Creating layer inception_4b/3x3
I1105 17:44:52.337692 24642 net.cpp:106] Creating Layer inception_4b/3x3
I1105 17:44:52.337697 24642 net.cpp:454] inception_4b/3x3 <- inception_4b/3x3_reduce
I1105 17:44:52.337705 24642 net.cpp:411] inception_4b/3x3 -> inception_4b/3x3
I1105 17:44:52.340535 24642 cudnn_conv_layer.cpp:194] Reallocating workspace storage: 10080
I1105 17:44:52.340559 24642 net.cpp:150] Setting up inception_4b/3x3
I1105 17:44:52.340580 24642 net.cpp:157] Top shape: 32 224 14 14 (1404928)
I1105 17:44:52.340585 24642 net.cpp:165] Memory required for data: 1280852740
I1105 17:44:52.340594 24642 layer_factory.hpp:76] Creating layer inception_4b/prelu_3x3
I1105 17:44:52.340620 24642 net.cpp:106] Creating Layer inception_4b/prelu_3x3
I1105 17:44:52.340626 24642 net.cpp:454] inception_4b/prelu_3x3 <- inception_4b/3x3
I1105 17:44:52.340632 24642 net.cpp:397] inception_4b/prelu_3x3 -> inception_4b/3x3 (in-place)
I1105 17:44:52.340764 24642 net.cpp:150] Setting up inception_4b/prelu_3x3
I1105 17:44:52.340773 24642 net.cpp:157] Top shape: 32 224 14 14 (1404928)
I1105 17:44:52.340777 24642 net.cpp:165] Memory required for data: 1286472452
I1105 17:44:52.340783 24642 layer_factory.hpp:76] Creating layer inception_4b/5x5_reduce
I1105 17:44:52.340793 24642 net.cpp:106] Creating Layer inception_4b/5x5_reduce
I1105 17:44:52.340798 24642 net.cpp:454] inception_4b/5x5_reduce <- inception_4a/output_inception_4a/output_0_split_3
I1105 17:44:52.340806 24642 net.cpp:411] inception_4b/5x5_reduce -> inception_4b/5x5_reduce
I1105 17:44:52.341750 24642 cudnn_conv_layer.cpp:194] Reallocating workspace storage: 10080
I1105 17:44:52.341774 24642 net.cpp:150] Setting up inception_4b/5x5_reduce
I1105 17:44:52.341784 24642 net.cpp:157] Top shape: 32 24 14 14 (150528)
I1105 17:44:52.341788 24642 net.cpp:165] Memory required for data: 1287074564
I1105 17:44:52.341794 24642 layer_factory.hpp:76] Creating layer inception_4b/prelu_5x5_reduce
I1105 17:44:52.341820 24642 net.cpp:106] Creating Layer inception_4b/prelu_5x5_reduce
I1105 17:44:52.341827 24642 net.cpp:454] inception_4b/prelu_5x5_reduce <- inception_4b/5x5_reduce
I1105 17:44:52.341840 24642 net.cpp:397] inception_4b/prelu_5x5_reduce -> inception_4b/5x5_reduce (in-place)
I1105 17:44:52.341943 24642 net.cpp:150] Setting up inception_4b/prelu_5x5_reduce
I1105 17:44:52.341953 24642 net.cpp:157] Top shape: 32 24 14 14 (150528)
I1105 17:44:52.341958 24642 net.cpp:165] Memory required for data: 1287676676
I1105 17:44:52.341963 24642 layer_factory.hpp:76] Creating layer inception_4b/5x5
I1105 17:44:52.341972 24642 net.cpp:106] Creating Layer inception_4b/5x5
I1105 17:44:52.341977 24642 net.cpp:454] inception_4b/5x5 <- inception_4b/5x5_reduce
I1105 17:44:52.341984 24642 net.cpp:411] inception_4b/5x5 -> inception_4b/5x5
I1105 17:44:52.343261 24642 cudnn_conv_layer.cpp:194] Reallocating workspace storage: 13080
I1105 17:44:52.343286 24642 net.cpp:150] Setting up inception_4b/5x5
I1105 17:44:52.343294 24642 net.cpp:157] Top shape: 32 64 14 14 (401408)
I1105 17:44:52.343299 24642 net.cpp:165] Memory required for data: 1289282308
I1105 17:44:52.343307 24642 layer_factory.hpp:76] Creating layer inception_4b/prelu_5x5
I1105 17:44:52.343322 24642 net.cpp:106] Creating Layer inception_4b/prelu_5x5
I1105 17:44:52.343328 24642 net.cpp:454] inception_4b/prelu_5x5 <- inception_4b/5x5
I1105 17:44:52.343335 24642 net.cpp:397] inception_4b/prelu_5x5 -> inception_4b/5x5 (in-place)
I1105 17:44:52.343443 24642 net.cpp:150] Setting up inception_4b/prelu_5x5
I1105 17:44:52.343452 24642 net.cpp:157] Top shape: 32 64 14 14 (401408)
I1105 17:44:52.343456 24642 net.cpp:165] Memory required for data: 1290887940
I1105 17:44:52.343472 24642 layer_factory.hpp:76] Creating layer inception_4b/pool
I1105 17:44:52.343482 24642 net.cpp:106] Creating Layer inception_4b/pool
I1105 17:44:52.343487 24642 net.cpp:454] inception_4b/pool <- inception_4a/output_inception_4a/output_0_split_4
I1105 17:44:52.343493 24642 net.cpp:411] inception_4b/pool -> inception_4b/pool
I1105 17:44:52.343866 24642 net.cpp:150] Setting up inception_4b/pool
I1105 17:44:52.343878 24642 net.cpp:157] Top shape: 32 512 14 14 (3211264)
I1105 17:44:52.343883 24642 net.cpp:165] Memory required for data: 1303732996
I1105 17:44:52.343896 24642 layer_factory.hpp:76] Creating layer inception_4b/pool_proj
I1105 17:44:52.343906 24642 net.cpp:106] Creating Layer inception_4b/pool_proj
I1105 17:44:52.343912 24642 net.cpp:454] inception_4b/pool_proj <- inception_4b/pool
I1105 17:44:52.343938 24642 net.cpp:411] inception_4b/pool_proj -> inception_4b/pool_proj
I1105 17:44:52.345199 24642 cudnn_conv_layer.cpp:194] Reallocating workspace storage: 10080
I1105 17:44:52.345232 24642 net.cpp:150] Setting up inception_4b/pool_proj
I1105 17:44:52.345240 24642 net.cpp:157] Top shape: 32 64 14 14 (401408)
I1105 17:44:52.345244 24642 net.cpp:165] Memory required for data: 1305338628
I1105 17:44:52.345252 24642 layer_factory.hpp:76] Creating layer inception_4b/prelu_pool_proj
I1105 17:44:52.345262 24642 net.cpp:106] Creating Layer inception_4b/prelu_pool_proj
I1105 17:44:52.345266 24642 net.cpp:454] inception_4b/prelu_pool_proj <- inception_4b/pool_proj
I1105 17:44:52.345274 24642 net.cpp:397] inception_4b/prelu_pool_proj -> inception_4b/pool_proj (in-place)
I1105 17:44:52.345399 24642 net.cpp:150] Setting up inception_4b/prelu_pool_proj
I1105 17:44:52.345408 24642 net.cpp:157] Top shape: 32 64 14 14 (401408)
I1105 17:44:52.345413 24642 net.cpp:165] Memory required for data: 1306944260
I1105 17:44:52.345418 24642 layer_factory.hpp:76] Creating layer inception_4b/output
I1105 17:44:52.345425 24642 net.cpp:106] Creating Layer inception_4b/output
I1105 17:44:52.345430 24642 net.cpp:454] inception_4b/output <- inception_4b/1x1
I1105 17:44:52.345446 24642 net.cpp:454] inception_4b/output <- inception_4b/3x3
I1105 17:44:52.345451 24642 net.cpp:454] inception_4b/output <- inception_4b/5x5
I1105 17:44:52.345456 24642 net.cpp:454] inception_4b/output <- inception_4b/pool_proj
I1105 17:44:52.345464 24642 net.cpp:411] inception_4b/output -> inception_4b/output
I1105 17:44:52.345492 24642 net.cpp:150] Setting up inception_4b/output
I1105 17:44:52.345511 24642 net.cpp:157] Top shape: 32 512 14 14 (3211264)
I1105 17:44:52.345515 24642 net.cpp:165] Memory required for data: 1319789316
I1105 17:44:52.345520 24642 layer_factory.hpp:76] Creating layer inception_4b/output_inception_4b/output_0_split
I1105 17:44:52.345528 24642 net.cpp:106] Creating Layer inception_4b/output_inception_4b/output_0_split
I1105 17:44:52.345543 24642 net.cpp:454] inception_4b/output_inception_4b/output_0_split <- inception_4b/output
I1105 17:44:52.345551 24642 net.cpp:411] inception_4b/output_inception_4b/output_0_split -> inception_4b/output_inception_4b/output_0_split_0
I1105 17:44:52.345558 24642 net.cpp:411] inception_4b/output_inception_4b/output_0_split -> inception_4b/output_inception_4b/output_0_split_1
I1105 17:44:52.345566 24642 net.cpp:411] inception_4b/output_inception_4b/output_0_split -> inception_4b/output_inception_4b/output_0_split_2
I1105 17:44:52.345572 24642 net.cpp:411] inception_4b/output_inception_4b/output_0_split -> inception_4b/output_inception_4b/output_0_split_3
I1105 17:44:52.345641 24642 net.cpp:150] Setting up inception_4b/output_inception_4b/output_0_split
I1105 17:44:52.345650 24642 net.cpp:157] Top shape: 32 512 14 14 (3211264)
I1105 17:44:52.345655 24642 net.cpp:157] Top shape: 32 512 14 14 (3211264)
I1105 17:44:52.345660 24642 net.cpp:157] Top shape: 32 512 14 14 (3211264)
I1105 17:44:52.345676 24642 net.cpp:157] Top shape: 32 512 14 14 (3211264)
I1105 17:44:52.345680 24642 net.cpp:165] Memory required for data: 1371169540
I1105 17:44:52.345685 24642 layer_factory.hpp:76] Creating layer inception_4c/1x1
I1105 17:44:52.345693 24642 net.cpp:106] Creating Layer inception_4c/1x1
I1105 17:44:52.345710 24642 net.cpp:454] inception_4c/1x1 <- inception_4b/output_inception_4b/output_0_split_0
I1105 17:44:52.345717 24642 net.cpp:411] inception_4c/1x1 -> inception_4c/1x1
I1105 17:44:52.347591 24642 cudnn_conv_layer.cpp:194] Reallocating workspace storage: 10080
I1105 17:44:52.347625 24642 net.cpp:150] Setting up inception_4c/1x1
I1105 17:44:52.347633 24642 net.cpp:157] Top shape: 32 128 14 14 (802816)
I1105 17:44:52.347638 24642 net.cpp:165] Memory required for data: 1374380804
I1105 17:44:52.347657 24642 layer_factory.hpp:76] Creating layer inception_4c/prelu_1x1
I1105 17:44:52.347668 24642 net.cpp:106] Creating Layer inception_4c/prelu_1x1
I1105 17:44:52.347673 24642 net.cpp:454] inception_4c/prelu_1x1 <- inception_4c/1x1
I1105 17:44:52.347709 24642 net.cpp:397] inception_4c/prelu_1x1 -> inception_4c/1x1 (in-place)
I1105 17:44:52.347815 24642 net.cpp:150] Setting up inception_4c/prelu_1x1
I1105 17:44:52.347825 24642 net.cpp:157] Top shape: 32 128 14 14 (802816)
I1105 17:44:52.347828 24642 net.cpp:165] Memory required for data: 1377592068
I1105 17:44:52.347834 24642 layer_factory.hpp:76] Creating layer inception_4c/3x3_reduce
I1105 17:44:52.347844 24642 net.cpp:106] Creating Layer inception_4c/3x3_reduce
I1105 17:44:52.347849 24642 net.cpp:454] inception_4c/3x3_reduce <- inception_4b/output_inception_4b/output_0_split_1
I1105 17:44:52.347856 24642 net.cpp:411] inception_4c/3x3_reduce -> inception_4c/3x3_reduce
I1105 17:44:52.349339 24642 cudnn_conv_layer.cpp:194] Reallocating workspace storage: 10080
I1105 17:44:52.349366 24642 net.cpp:150] Setting up inception_4c/3x3_reduce
I1105 17:44:52.349373 24642 net.cpp:157] Top shape: 32 128 14 14 (802816)
I1105 17:44:52.349378 24642 net.cpp:165] Memory required for data: 1380803332
I1105 17:44:52.349396 24642 layer_factory.hpp:76] Creating layer inception_4c/prelu_3x3_reduce
I1105 17:44:52.349408 24642 net.cpp:106] Creating Layer inception_4c/prelu_3x3_reduce
I1105 17:44:52.349413 24642 net.cpp:454] inception_4c/prelu_3x3_reduce <- inception_4c/3x3_reduce
I1105 17:44:52.349421 24642 net.cpp:397] inception_4c/prelu_3x3_reduce -> inception_4c/3x3_reduce (in-place)
I1105 17:44:52.349534 24642 net.cpp:150] Setting up inception_4c/prelu_3x3_reduce
I1105 17:44:52.349542 24642 net.cpp:157] Top shape: 32 128 14 14 (802816)
I1105 17:44:52.349546 24642 net.cpp:165] Memory required for data: 1384014596
I1105 17:44:52.349552 24642 layer_factory.hpp:76] Creating layer inception_4c/3x3
I1105 17:44:52.349562 24642 net.cpp:106] Creating Layer inception_4c/3x3
I1105 17:44:52.349566 24642 net.cpp:454] inception_4c/3x3 <- inception_4c/3x3_reduce
I1105 17:44:52.349586 24642 net.cpp:411] inception_4c/3x3 -> inception_4c/3x3
I1105 17:44:52.352845 24642 cudnn_conv_layer.cpp:194] Reallocating workspace storage: 10080
I1105 17:44:52.352874 24642 net.cpp:150] Setting up inception_4c/3x3
I1105 17:44:52.352882 24642 net.cpp:157] Top shape: 32 256 14 14 (1605632)
I1105 17:44:52.352895 24642 net.cpp:165] Memory required for data: 1390437124
I1105 17:44:52.352903 24642 layer_factory.hpp:76] Creating layer inception_4c/prelu_3x3
I1105 17:44:52.352911 24642 net.cpp:106] Creating Layer inception_4c/prelu_3x3
I1105 17:44:52.352917 24642 net.cpp:454] inception_4c/prelu_3x3 <- inception_4c/3x3
I1105 17:44:52.352924 24642 net.cpp:397] inception_4c/prelu_3x3 -> inception_4c/3x3 (in-place)
I1105 17:44:52.353066 24642 net.cpp:150] Setting up inception_4c/prelu_3x3
I1105 17:44:52.353088 24642 net.cpp:157] Top shape: 32 256 14 14 (1605632)
I1105 17:44:52.353092 24642 net.cpp:165] Memory required for data: 1396859652
I1105 17:44:52.353098 24642 layer_factory.hpp:76] Creating layer inception_4c/5x5_reduce
I1105 17:44:52.353117 24642 net.cpp:106] Creating Layer inception_4c/5x5_reduce
I1105 17:44:52.353122 24642 net.cpp:454] inception_4c/5x5_reduce <- inception_4b/output_inception_4b/output_0_split_2
I1105 17:44:52.353132 24642 net.cpp:411] inception_4c/5x5_reduce -> inception_4c/5x5_reduce
I1105 17:44:52.354238 24642 cudnn_conv_layer.cpp:194] Reallocating workspace storage: 10080
I1105 17:44:52.354267 24642 net.cpp:150] Setting up inception_4c/5x5_reduce
I1105 17:44:52.354275 24642 net.cpp:157] Top shape: 32 24 14 14 (150528)
I1105 17:44:52.354279 24642 net.cpp:165] Memory required for data: 1397461764
I1105 17:44:52.354286 24642 layer_factory.hpp:76] Creating layer inception_4c/prelu_5x5_reduce
I1105 17:44:52.354305 24642 net.cpp:106] Creating Layer inception_4c/prelu_5x5_reduce
I1105 17:44:52.354310 24642 net.cpp:454] inception_4c/prelu_5x5_reduce <- inception_4c/5x5_reduce
I1105 17:44:52.354317 24642 net.cpp:397] inception_4c/prelu_5x5_reduce -> inception_4c/5x5_reduce (in-place)
I1105 17:44:52.354428 24642 net.cpp:150] Setting up inception_4c/prelu_5x5_reduce
I1105 17:44:52.354436 24642 net.cpp:157] Top shape: 32 24 14 14 (150528)
I1105 17:44:52.354459 24642 net.cpp:165] Memory required for data: 1398063876
I1105 17:44:52.354465 24642 layer_factory.hpp:76] Creating layer inception_4c/5x5
I1105 17:44:52.354482 24642 net.cpp:106] Creating Layer inception_4c/5x5
I1105 17:44:52.354487 24642 net.cpp:454] inception_4c/5x5 <- inception_4c/5x5_reduce
I1105 17:44:52.354496 24642 net.cpp:411] inception_4c/5x5 -> inception_4c/5x5
I1105 17:44:52.356290 24642 cudnn_conv_layer.cpp:194] Reallocating workspace storage: 13080
I1105 17:44:52.356318 24642 net.cpp:150] Setting up inception_4c/5x5
I1105 17:44:52.356328 24642 net.cpp:157] Top shape: 32 64 14 14 (401408)
I1105 17:44:52.356331 24642 net.cpp:165] Memory required for data: 1399669508
I1105 17:44:52.356339 24642 layer_factory.hpp:76] Creating layer inception_4c/prelu_5x5
I1105 17:44:52.356348 24642 net.cpp:106] Creating Layer inception_4c/prelu_5x5
I1105 17:44:52.356353 24642 net.cpp:454] inception_4c/prelu_5x5 <- inception_4c/5x5
I1105 17:44:52.356360 24642 net.cpp:397] inception_4c/prelu_5x5 -> inception_4c/5x5 (in-place)
I1105 17:44:52.356470 24642 net.cpp:150] Setting up inception_4c/prelu_5x5
I1105 17:44:52.356480 24642 net.cpp:157] Top shape: 32 64 14 14 (401408)
I1105 17:44:52.356484 24642 net.cpp:165] Memory required for data: 1401275140
I1105 17:44:52.356490 24642 layer_factory.hpp:76] Creating layer inception_4c/pool
I1105 17:44:52.356498 24642 net.cpp:106] Creating Layer inception_4c/pool
I1105 17:44:52.356503 24642 net.cpp:454] inception_4c/pool <- inception_4b/output_inception_4b/output_0_split_3
I1105 17:44:52.356556 24642 net.cpp:411] inception_4c/pool -> inception_4c/pool
I1105 17:44:52.356750 24642 net.cpp:150] Setting up inception_4c/pool
I1105 17:44:52.356760 24642 net.cpp:157] Top shape: 32 512 14 14 (3211264)
I1105 17:44:52.356765 24642 net.cpp:165] Memory required for data: 1414120196
I1105 17:44:52.356770 24642 layer_factory.hpp:76] Creating layer inception_4c/pool_proj
I1105 17:44:52.356778 24642 net.cpp:106] Creating Layer inception_4c/pool_proj
I1105 17:44:52.356783 24642 net.cpp:454] inception_4c/pool_proj <- inception_4c/pool
I1105 17:44:52.356791 24642 net.cpp:411] inception_4c/pool_proj -> inception_4c/pool_proj
I1105 17:44:52.358227 24642 cudnn_conv_layer.cpp:194] Reallocating workspace storage: 10080
I1105 17:44:52.358258 24642 net.cpp:150] Setting up inception_4c/pool_proj
I1105 17:44:52.358265 24642 net.cpp:157] Top shape: 32 64 14 14 (401408)
I1105 17:44:52.358270 24642 net.cpp:165] Memory required for data: 1415725828
I1105 17:44:52.358278 24642 layer_factory.hpp:76] Creating layer inception_4c/prelu_pool_proj
I1105 17:44:52.358286 24642 net.cpp:106] Creating Layer inception_4c/prelu_pool_proj
I1105 17:44:52.358291 24642 net.cpp:454] inception_4c/prelu_pool_proj <- inception_4c/pool_proj
I1105 17:44:52.358297 24642 net.cpp:397] inception_4c/prelu_pool_proj -> inception_4c/pool_proj (in-place)
I1105 17:44:52.358398 24642 net.cpp:150] Setting up inception_4c/prelu_pool_proj
I1105 17:44:52.358408 24642 net.cpp:157] Top shape: 32 64 14 14 (401408)
I1105 17:44:52.358412 24642 net.cpp:165] Memory required for data: 1417331460
I1105 17:44:52.358418 24642 layer_factory.hpp:76] Creating layer inception_4c/output
I1105 17:44:52.358425 24642 net.cpp:106] Creating Layer inception_4c/output
I1105 17:44:52.358429 24642 net.cpp:454] inception_4c/output <- inception_4c/1x1
I1105 17:44:52.358435 24642 net.cpp:454] inception_4c/output <- inception_4c/3x3
I1105 17:44:52.358439 24642 net.cpp:454] inception_4c/output <- inception_4c/5x5
I1105 17:44:52.358444 24642 net.cpp:454] inception_4c/output <- inception_4c/pool_proj
I1105 17:44:52.358451 24642 net.cpp:411] inception_4c/output -> inception_4c/output
I1105 17:44:52.358486 24642 net.cpp:150] Setting up inception_4c/output
I1105 17:44:52.358495 24642 net.cpp:157] Top shape: 32 512 14 14 (3211264)
I1105 17:44:52.358500 24642 net.cpp:165] Memory required for data: 1430176516
I1105 17:44:52.358503 24642 layer_factory.hpp:76] Creating layer inception_4c/output_inception_4c/output_0_split
I1105 17:44:52.358520 24642 net.cpp:106] Creating Layer inception_4c/output_inception_4c/output_0_split
I1105 17:44:52.358543 24642 net.cpp:454] inception_4c/output_inception_4c/output_0_split <- inception_4c/output
I1105 17:44:52.358551 24642 net.cpp:411] inception_4c/output_inception_4c/output_0_split -> inception_4c/output_inception_4c/output_0_split_0
I1105 17:44:52.358558 24642 net.cpp:411] inception_4c/output_inception_4c/output_0_split -> inception_4c/output_inception_4c/output_0_split_1
I1105 17:44:52.358566 24642 net.cpp:411] inception_4c/output_inception_4c/output_0_split -> inception_4c/output_inception_4c/output_0_split_2
I1105 17:44:52.358573 24642 net.cpp:411] inception_4c/output_inception_4c/output_0_split -> inception_4c/output_inception_4c/output_0_split_3
I1105 17:44:52.358661 24642 net.cpp:150] Setting up inception_4c/output_inception_4c/output_0_split
I1105 17:44:52.358670 24642 net.cpp:157] Top shape: 32 512 14 14 (3211264)
I1105 17:44:52.358675 24642 net.cpp:157] Top shape: 32 512 14 14 (3211264)
I1105 17:44:52.358680 24642 net.cpp:157] Top shape: 32 512 14 14 (3211264)
I1105 17:44:52.358685 24642 net.cpp:157] Top shape: 32 512 14 14 (3211264)
I1105 17:44:52.358690 24642 net.cpp:165] Memory required for data: 1481556740
I1105 17:44:52.358693 24642 layer_factory.hpp:76] Creating layer inception_4d/1x1
I1105 17:44:52.358700 24642 net.cpp:106] Creating Layer inception_4d/1x1
I1105 17:44:52.358705 24642 net.cpp:454] inception_4d/1x1 <- inception_4c/output_inception_4c/output_0_split_0
I1105 17:44:52.358721 24642 net.cpp:411] inception_4d/1x1 -> inception_4d/1x1
I1105 17:44:52.360580 24642 cudnn_conv_layer.cpp:194] Reallocating workspace storage: 10080
I1105 17:44:52.360615 24642 net.cpp:150] Setting up inception_4d/1x1
I1105 17:44:52.360637 24642 net.cpp:157] Top shape: 32 112 14 14 (702464)
I1105 17:44:52.360648 24642 net.cpp:165] Memory required for data: 1484366596
I1105 17:44:52.360661 24642 layer_factory.hpp:76] Creating layer inception_4d/prelu_1x1
I1105 17:44:52.360682 24642 net.cpp:106] Creating Layer inception_4d/prelu_1x1
I1105 17:44:52.360699 24642 net.cpp:454] inception_4d/prelu_1x1 <- inception_4d/1x1
I1105 17:44:52.360709 24642 net.cpp:397] inception_4d/prelu_1x1 -> inception_4d/1x1 (in-place)
I1105 17:44:52.360877 24642 net.cpp:150] Setting up inception_4d/prelu_1x1
I1105 17:44:52.360891 24642 net.cpp:157] Top shape: 32 112 14 14 (702464)
I1105 17:44:52.360898 24642 net.cpp:165] Memory required for data: 1487176452
I1105 17:44:52.360908 24642 layer_factory.hpp:76] Creating layer inception_4d/3x3_reduce
I1105 17:44:52.360923 24642 net.cpp:106] Creating Layer inception_4d/3x3_reduce
I1105 17:44:52.360939 24642 net.cpp:454] inception_4d/3x3_reduce <- inception_4c/output_inception_4c/output_0_split_1
I1105 17:44:52.360952 24642 net.cpp:411] inception_4d/3x3_reduce -> inception_4d/3x3_reduce
I1105 17:44:52.362608 24642 cudnn_conv_layer.cpp:194] Reallocating workspace storage: 10080
I1105 17:44:52.362649 24642 net.cpp:150] Setting up inception_4d/3x3_reduce
I1105 17:44:52.362658 24642 net.cpp:157] Top shape: 32 144 14 14 (903168)
I1105 17:44:52.362673 24642 net.cpp:165] Memory required for data: 1490789124
I1105 17:44:52.362681 24642 layer_factory.hpp:76] Creating layer inception_4d/prelu_3x3_reduce
I1105 17:44:52.362692 24642 net.cpp:106] Creating Layer inception_4d/prelu_3x3_reduce
I1105 17:44:52.362699 24642 net.cpp:454] inception_4d/prelu_3x3_reduce <- inception_4d/3x3_reduce
I1105 17:44:52.362705 24642 net.cpp:397] inception_4d/prelu_3x3_reduce -> inception_4d/3x3_reduce (in-place)
I1105 17:44:52.362857 24642 net.cpp:150] Setting up inception_4d/prelu_3x3_reduce
I1105 17:44:52.362867 24642 net.cpp:157] Top shape: 32 144 14 14 (903168)
I1105 17:44:52.362871 24642 net.cpp:165] Memory required for data: 1494401796
I1105 17:44:52.362877 24642 layer_factory.hpp:76] Creating layer inception_4d/3x3
I1105 17:44:52.362886 24642 net.cpp:106] Creating Layer inception_4d/3x3
I1105 17:44:52.362891 24642 net.cpp:454] inception_4d/3x3 <- inception_4d/3x3_reduce
I1105 17:44:52.362911 24642 net.cpp:411] inception_4d/3x3 -> inception_4d/3x3
I1105 17:44:52.367003 24642 cudnn_conv_layer.cpp:194] Reallocating workspace storage: 10080
I1105 17:44:52.367095 24642 net.cpp:150] Setting up inception_4d/3x3
I1105 17:44:52.367117 24642 net.cpp:157] Top shape: 32 288 14 14 (1806336)
I1105 17:44:52.367122 24642 net.cpp:165] Memory required for data: 1501627140
I1105 17:44:52.367133 24642 layer_factory.hpp:76] Creating layer inception_4d/prelu_3x3
I1105 17:44:52.367148 24642 net.cpp:106] Creating Layer inception_4d/prelu_3x3
I1105 17:44:52.367156 24642 net.cpp:454] inception_4d/prelu_3x3 <- inception_4d/3x3
I1105 17:44:52.367187 24642 net.cpp:397] inception_4d/prelu_3x3 -> inception_4d/3x3 (in-place)
I1105 17:44:52.367383 24642 net.cpp:150] Setting up inception_4d/prelu_3x3
I1105 17:44:52.367394 24642 net.cpp:157] Top shape: 32 288 14 14 (1806336)
I1105 17:44:52.367409 24642 net.cpp:165] Memory required for data: 1508852484
I1105 17:44:52.367416 24642 layer_factory.hpp:76] Creating layer inception_4d/5x5_reduce
I1105 17:44:52.367439 24642 net.cpp:106] Creating Layer inception_4d/5x5_reduce
I1105 17:44:52.367445 24642 net.cpp:454] inception_4d/5x5_reduce <- inception_4c/output_inception_4c/output_0_split_2
I1105 17:44:52.367455 24642 net.cpp:411] inception_4d/5x5_reduce -> inception_4d/5x5_reduce
I1105 17:44:52.368679 24642 cudnn_conv_layer.cpp:194] Reallocating workspace storage: 10080
I1105 17:44:52.368719 24642 net.cpp:150] Setting up inception_4d/5x5_reduce
I1105 17:44:52.368728 24642 net.cpp:157] Top shape: 32 32 14 14 (200704)
I1105 17:44:52.368732 24642 net.cpp:165] Memory required for data: 1509655300
I1105 17:44:52.368741 24642 layer_factory.hpp:76] Creating layer inception_4d/prelu_5x5_reduce
I1105 17:44:52.368751 24642 net.cpp:106] Creating Layer inception_4d/prelu_5x5_reduce
I1105 17:44:52.368757 24642 net.cpp:454] inception_4d/prelu_5x5_reduce <- inception_4d/5x5_reduce
I1105 17:44:52.368763 24642 net.cpp:397] inception_4d/prelu_5x5_reduce -> inception_4d/5x5_reduce (in-place)
I1105 17:44:52.368871 24642 net.cpp:150] Setting up inception_4d/prelu_5x5_reduce
I1105 17:44:52.368880 24642 net.cpp:157] Top shape: 32 32 14 14 (200704)
I1105 17:44:52.368885 24642 net.cpp:165] Memory required for data: 1510458116
I1105 17:44:52.368891 24642 layer_factory.hpp:76] Creating layer inception_4d/5x5
I1105 17:44:52.368901 24642 net.cpp:106] Creating Layer inception_4d/5x5
I1105 17:44:52.368906 24642 net.cpp:454] inception_4d/5x5 <- inception_4d/5x5_reduce
I1105 17:44:52.368911 24642 net.cpp:411] inception_4d/5x5 -> inception_4d/5x5
I1105 17:44:52.370808 24642 cudnn_conv_layer.cpp:194] Reallocating workspace storage: 13080
I1105 17:44:52.370838 24642 net.cpp:150] Setting up inception_4d/5x5
I1105 17:44:52.370847 24642 net.cpp:157] Top shape: 32 64 14 14 (401408)
I1105 17:44:52.370859 24642 net.cpp:165] Memory required for data: 1512063748
I1105 17:44:52.370867 24642 layer_factory.hpp:76] Creating layer inception_4d/prelu_5x5
I1105 17:44:52.370877 24642 net.cpp:106] Creating Layer inception_4d/prelu_5x5
I1105 17:44:52.370882 24642 net.cpp:454] inception_4d/prelu_5x5 <- inception_4d/5x5
I1105 17:44:52.370888 24642 net.cpp:397] inception_4d/prelu_5x5 -> inception_4d/5x5 (in-place)
I1105 17:44:52.371004 24642 net.cpp:150] Setting up inception_4d/prelu_5x5
I1105 17:44:52.371013 24642 net.cpp:157] Top shape: 32 64 14 14 (401408)
I1105 17:44:52.371017 24642 net.cpp:165] Memory required for data: 1513669380
I1105 17:44:52.371023 24642 layer_factory.hpp:76] Creating layer inception_4d/pool
I1105 17:44:52.371031 24642 net.cpp:106] Creating Layer inception_4d/pool
I1105 17:44:52.371036 24642 net.cpp:454] inception_4d/pool <- inception_4c/output_inception_4c/output_0_split_3
I1105 17:44:52.371043 24642 net.cpp:411] inception_4d/pool -> inception_4d/pool
I1105 17:44:52.371239 24642 net.cpp:150] Setting up inception_4d/pool
I1105 17:44:52.371249 24642 net.cpp:157] Top shape: 32 512 14 14 (3211264)
I1105 17:44:52.371254 24642 net.cpp:165] Memory required for data: 1526514436
I1105 17:44:52.371258 24642 layer_factory.hpp:76] Creating layer inception_4d/pool_proj
I1105 17:44:52.371268 24642 net.cpp:106] Creating Layer inception_4d/pool_proj
I1105 17:44:52.371292 24642 net.cpp:454] inception_4d/pool_proj <- inception_4d/pool
I1105 17:44:52.371302 24642 net.cpp:411] inception_4d/pool_proj -> inception_4d/pool_proj
I1105 17:44:52.372534 24642 cudnn_conv_layer.cpp:194] Reallocating workspace storage: 10080
I1105 17:44:52.372570 24642 net.cpp:150] Setting up inception_4d/pool_proj
I1105 17:44:52.372588 24642 net.cpp:157] Top shape: 32 64 14 14 (401408)
I1105 17:44:52.372601 24642 net.cpp:165] Memory required for data: 1528120068
I1105 17:44:52.372608 24642 layer_factory.hpp:76] Creating layer inception_4d/prelu_pool_proj
I1105 17:44:52.372617 24642 net.cpp:106] Creating Layer inception_4d/prelu_pool_proj
I1105 17:44:52.372622 24642 net.cpp:454] inception_4d/prelu_pool_proj <- inception_4d/pool_proj
I1105 17:44:52.372628 24642 net.cpp:397] inception_4d/prelu_pool_proj -> inception_4d/pool_proj (in-place)
I1105 17:44:52.372788 24642 net.cpp:150] Setting up inception_4d/prelu_pool_proj
I1105 17:44:52.372799 24642 net.cpp:157] Top shape: 32 64 14 14 (401408)
I1105 17:44:52.372804 24642 net.cpp:165] Memory required for data: 1529725700
I1105 17:44:52.372810 24642 layer_factory.hpp:76] Creating layer inception_4d/output
I1105 17:44:52.372817 24642 net.cpp:106] Creating Layer inception_4d/output
I1105 17:44:52.372822 24642 net.cpp:454] inception_4d/output <- inception_4d/1x1
I1105 17:44:52.372835 24642 net.cpp:454] inception_4d/output <- inception_4d/3x3
I1105 17:44:52.372840 24642 net.cpp:454] inception_4d/output <- inception_4d/5x5
I1105 17:44:52.372845 24642 net.cpp:454] inception_4d/output <- inception_4d/pool_proj
I1105 17:44:52.372851 24642 net.cpp:411] inception_4d/output -> inception_4d/output
I1105 17:44:52.372889 24642 net.cpp:150] Setting up inception_4d/output
I1105 17:44:52.372898 24642 net.cpp:157] Top shape: 32 528 14 14 (3311616)
I1105 17:44:52.372910 24642 net.cpp:165] Memory required for data: 1542972164
I1105 17:44:52.372915 24642 layer_factory.hpp:76] Creating layer inception_4d/output_inception_4d/output_0_split
I1105 17:44:52.372922 24642 net.cpp:106] Creating Layer inception_4d/output_inception_4d/output_0_split
I1105 17:44:52.372927 24642 net.cpp:454] inception_4d/output_inception_4d/output_0_split <- inception_4d/output
I1105 17:44:52.372934 24642 net.cpp:411] inception_4d/output_inception_4d/output_0_split -> inception_4d/output_inception_4d/output_0_split_0
I1105 17:44:52.372942 24642 net.cpp:411] inception_4d/output_inception_4d/output_0_split -> inception_4d/output_inception_4d/output_0_split_1
I1105 17:44:52.372949 24642 net.cpp:411] inception_4d/output_inception_4d/output_0_split -> inception_4d/output_inception_4d/output_0_split_2
I1105 17:44:52.372956 24642 net.cpp:411] inception_4d/output_inception_4d/output_0_split -> inception_4d/output_inception_4d/output_0_split_3
I1105 17:44:52.372962 24642 net.cpp:411] inception_4d/output_inception_4d/output_0_split -> inception_4d/output_inception_4d/output_0_split_4
I1105 17:44:52.373046 24642 net.cpp:150] Setting up inception_4d/output_inception_4d/output_0_split
I1105 17:44:52.373055 24642 net.cpp:157] Top shape: 32 528 14 14 (3311616)
I1105 17:44:52.373075 24642 net.cpp:157] Top shape: 32 528 14 14 (3311616)
I1105 17:44:52.373080 24642 net.cpp:157] Top shape: 32 528 14 14 (3311616)
I1105 17:44:52.373085 24642 net.cpp:157] Top shape: 32 528 14 14 (3311616)
I1105 17:44:52.373090 24642 net.cpp:157] Top shape: 32 528 14 14 (3311616)
I1105 17:44:52.373095 24642 net.cpp:165] Memory required for data: 1609204484
I1105 17:44:52.373098 24642 layer_factory.hpp:76] Creating layer loss2/ave_pool
I1105 17:44:52.373106 24642 net.cpp:106] Creating Layer loss2/ave_pool
I1105 17:44:52.373111 24642 net.cpp:454] loss2/ave_pool <- inception_4d/output_inception_4d/output_0_split_0
I1105 17:44:52.373118 24642 net.cpp:411] loss2/ave_pool -> loss2/ave_pool
I1105 17:44:52.373479 24642 net.cpp:150] Setting up loss2/ave_pool
I1105 17:44:52.373492 24642 net.cpp:157] Top shape: 32 528 4 4 (270336)
I1105 17:44:52.373503 24642 net.cpp:165] Memory required for data: 1610285828
I1105 17:44:52.373518 24642 layer_factory.hpp:76] Creating layer loss2/conv
I1105 17:44:52.373530 24642 net.cpp:106] Creating Layer loss2/conv
I1105 17:44:52.373535 24642 net.cpp:454] loss2/conv <- loss2/ave_pool
I1105 17:44:52.373543 24642 net.cpp:411] loss2/conv -> loss2/conv
I1105 17:44:52.375030 24642 cudnn_conv_layer.cpp:194] Reallocating workspace storage: 6840
I1105 17:44:52.375064 24642 net.cpp:150] Setting up loss2/conv
I1105 17:44:52.375073 24642 net.cpp:157] Top shape: 32 128 4 4 (65536)
I1105 17:44:52.375078 24642 net.cpp:165] Memory required for data: 1610547972
I1105 17:44:52.375085 24642 layer_factory.hpp:76] Creating layer loss2/prelu_conv
I1105 17:44:52.375094 24642 net.cpp:106] Creating Layer loss2/prelu_conv
I1105 17:44:52.375099 24642 net.cpp:454] loss2/prelu_conv <- loss2/conv
I1105 17:44:52.375108 24642 net.cpp:397] loss2/prelu_conv -> loss2/conv (in-place)
I1105 17:44:52.375222 24642 net.cpp:150] Setting up loss2/prelu_conv
I1105 17:44:52.375232 24642 net.cpp:157] Top shape: 32 128 4 4 (65536)
I1105 17:44:52.375237 24642 net.cpp:165] Memory required for data: 1610810116
I1105 17:44:52.375243 24642 layer_factory.hpp:76] Creating layer loss2/fc
I1105 17:44:52.375250 24642 net.cpp:106] Creating Layer loss2/fc
I1105 17:44:52.375255 24642 net.cpp:454] loss2/fc <- loss2/conv
I1105 17:44:52.375262 24642 net.cpp:411] loss2/fc -> loss2/fc
I1105 17:44:52.390383 24642 net.cpp:150] Setting up loss2/fc
I1105 17:44:52.390430 24642 net.cpp:157] Top shape: 32 1024 (32768)
I1105 17:44:52.390437 24642 net.cpp:165] Memory required for data: 1610941188
I1105 17:44:52.390486 24642 layer_factory.hpp:76] Creating layer loss2/prelu_fc
I1105 17:44:52.390507 24642 net.cpp:106] Creating Layer loss2/prelu_fc
I1105 17:44:52.390518 24642 net.cpp:454] loss2/prelu_fc <- loss2/fc
I1105 17:44:52.390547 24642 net.cpp:397] loss2/prelu_fc -> loss2/fc (in-place)
I1105 17:44:52.390684 24642 net.cpp:150] Setting up loss2/prelu_fc
I1105 17:44:52.390697 24642 net.cpp:157] Top shape: 32 1024 (32768)
I1105 17:44:52.390712 24642 net.cpp:165] Memory required for data: 1611072260
I1105 17:44:52.390722 24642 layer_factory.hpp:76] Creating layer loss2/drop_fc
I1105 17:44:52.390735 24642 net.cpp:106] Creating Layer loss2/drop_fc
I1105 17:44:52.390743 24642 net.cpp:454] loss2/drop_fc <- loss2/fc
I1105 17:44:52.390761 24642 net.cpp:397] loss2/drop_fc -> loss2/fc (in-place)
I1105 17:44:52.390815 24642 net.cpp:150] Setting up loss2/drop_fc
I1105 17:44:52.390826 24642 net.cpp:157] Top shape: 32 1024 (32768)
I1105 17:44:52.390835 24642 net.cpp:165] Memory required for data: 1611203332
I1105 17:44:52.390842 24642 layer_factory.hpp:76] Creating layer loss2/classifier2
I1105 17:44:52.390856 24642 net.cpp:106] Creating Layer loss2/classifier2
I1105 17:44:52.390866 24642 net.cpp:454] loss2/classifier2 <- loss2/fc
I1105 17:44:52.390878 24642 net.cpp:411] loss2/classifier2 -> loss2/classifier
I1105 17:44:52.391075 24642 net.cpp:150] Setting up loss2/classifier2
I1105 17:44:52.391090 24642 net.cpp:157] Top shape: 32 2 (64)
I1105 17:44:52.391098 24642 net.cpp:165] Memory required for data: 1611203588
I1105 17:44:52.391111 24642 layer_factory.hpp:76] Creating layer loss2/loss
I1105 17:44:52.391124 24642 net.cpp:106] Creating Layer loss2/loss
I1105 17:44:52.391131 24642 net.cpp:454] loss2/loss <- loss2/classifier
I1105 17:44:52.391144 24642 net.cpp:454] loss2/loss <- label_data_1_split_1
I1105 17:44:52.391155 24642 net.cpp:411] loss2/loss -> loss2/loss1
I1105 17:44:52.391170 24642 layer_factory.hpp:76] Creating layer loss2/loss
I1105 17:44:52.391577 24642 net.cpp:150] Setting up loss2/loss
I1105 17:44:52.391592 24642 net.cpp:157] Top shape: (1)
I1105 17:44:52.391599 24642 net.cpp:160]     with loss weight 0.3
I1105 17:44:52.391618 24642 net.cpp:165] Memory required for data: 1611203592
I1105 17:44:52.391626 24642 layer_factory.hpp:76] Creating layer inception_4e/1x1
I1105 17:44:52.391652 24642 net.cpp:106] Creating Layer inception_4e/1x1
I1105 17:44:52.391662 24642 net.cpp:454] inception_4e/1x1 <- inception_4d/output_inception_4d/output_0_split_1
I1105 17:44:52.391674 24642 net.cpp:411] inception_4e/1x1 -> inception_4e/1x1
I1105 17:44:52.394556 24642 cudnn_conv_layer.cpp:194] Reallocating workspace storage: 10080
I1105 17:44:52.394600 24642 net.cpp:150] Setting up inception_4e/1x1
I1105 17:44:52.394613 24642 net.cpp:157] Top shape: 32 256 14 14 (1605632)
I1105 17:44:52.394618 24642 net.cpp:165] Memory required for data: 1617626120
I1105 17:44:52.394628 24642 layer_factory.hpp:76] Creating layer inception_4e/prelu_1x1
I1105 17:44:52.394640 24642 net.cpp:106] Creating Layer inception_4e/prelu_1x1
I1105 17:44:52.394649 24642 net.cpp:454] inception_4e/prelu_1x1 <- inception_4e/1x1
I1105 17:44:52.394655 24642 net.cpp:397] inception_4e/prelu_1x1 -> inception_4e/1x1 (in-place)
I1105 17:44:52.394809 24642 net.cpp:150] Setting up inception_4e/prelu_1x1
I1105 17:44:52.394819 24642 net.cpp:157] Top shape: 32 256 14 14 (1605632)
I1105 17:44:52.394824 24642 net.cpp:165] Memory required for data: 1624048648
I1105 17:44:52.394830 24642 layer_factory.hpp:76] Creating layer inception_4e/3x3_reduce
I1105 17:44:52.394841 24642 net.cpp:106] Creating Layer inception_4e/3x3_reduce
I1105 17:44:52.394848 24642 net.cpp:454] inception_4e/3x3_reduce <- inception_4d/output_inception_4d/output_0_split_2
I1105 17:44:52.394855 24642 net.cpp:411] inception_4e/3x3_reduce -> inception_4e/3x3_reduce
I1105 17:44:52.396548 24642 cudnn_conv_layer.cpp:194] Reallocating workspace storage: 10080
I1105 17:44:52.396587 24642 net.cpp:150] Setting up inception_4e/3x3_reduce
I1105 17:44:52.396607 24642 net.cpp:157] Top shape: 32 160 14 14 (1003520)
I1105 17:44:52.396613 24642 net.cpp:165] Memory required for data: 1628062728
I1105 17:44:52.396632 24642 layer_factory.hpp:76] Creating layer inception_4e/prelu_3x3_reduce
I1105 17:44:52.396644 24642 net.cpp:106] Creating Layer inception_4e/prelu_3x3_reduce
I1105 17:44:52.396651 24642 net.cpp:454] inception_4e/prelu_3x3_reduce <- inception_4e/3x3_reduce
I1105 17:44:52.396659 24642 net.cpp:397] inception_4e/prelu_3x3_reduce -> inception_4e/3x3_reduce (in-place)
I1105 17:44:52.396792 24642 net.cpp:150] Setting up inception_4e/prelu_3x3_reduce
I1105 17:44:52.396801 24642 net.cpp:157] Top shape: 32 160 14 14 (1003520)
I1105 17:44:52.396806 24642 net.cpp:165] Memory required for data: 1632076808
I1105 17:44:52.396811 24642 layer_factory.hpp:76] Creating layer inception_4e/3x3
I1105 17:44:52.396822 24642 net.cpp:106] Creating Layer inception_4e/3x3
I1105 17:44:52.396828 24642 net.cpp:454] inception_4e/3x3 <- inception_4e/3x3_reduce
I1105 17:44:52.396836 24642 net.cpp:411] inception_4e/3x3 -> inception_4e/3x3
I1105 17:44:52.401528 24642 cudnn_conv_layer.cpp:194] Reallocating workspace storage: 10080
I1105 17:44:52.401568 24642 net.cpp:150] Setting up inception_4e/3x3
I1105 17:44:52.401578 24642 net.cpp:157] Top shape: 32 320 14 14 (2007040)
I1105 17:44:52.401585 24642 net.cpp:165] Memory required for data: 1640104968
I1105 17:44:52.401594 24642 layer_factory.hpp:76] Creating layer inception_4e/prelu_3x3
I1105 17:44:52.401607 24642 net.cpp:106] Creating Layer inception_4e/prelu_3x3
I1105 17:44:52.401613 24642 net.cpp:454] inception_4e/prelu_3x3 <- inception_4e/3x3
I1105 17:44:52.401623 24642 net.cpp:397] inception_4e/prelu_3x3 -> inception_4e/3x3 (in-place)
I1105 17:44:52.401779 24642 net.cpp:150] Setting up inception_4e/prelu_3x3
I1105 17:44:52.401788 24642 net.cpp:157] Top shape: 32 320 14 14 (2007040)
I1105 17:44:52.401793 24642 net.cpp:165] Memory required for data: 1648133128
I1105 17:44:52.401798 24642 layer_factory.hpp:76] Creating layer inception_4e/5x5_reduce
I1105 17:44:52.401809 24642 net.cpp:106] Creating Layer inception_4e/5x5_reduce
I1105 17:44:52.401815 24642 net.cpp:454] inception_4e/5x5_reduce <- inception_4d/output_inception_4d/output_0_split_3
I1105 17:44:52.401823 24642 net.cpp:411] inception_4e/5x5_reduce -> inception_4e/5x5_reduce
I1105 17:44:52.403031 24642 cudnn_conv_layer.cpp:194] Reallocating workspace storage: 10080
I1105 17:44:52.403059 24642 net.cpp:150] Setting up inception_4e/5x5_reduce
I1105 17:44:52.403067 24642 net.cpp:157] Top shape: 32 32 14 14 (200704)
I1105 17:44:52.403087 24642 net.cpp:165] Memory required for data: 1648935944
I1105 17:44:52.403095 24642 layer_factory.hpp:76] Creating layer inception_4e/prelu_5x5_reduce
I1105 17:44:52.403105 24642 net.cpp:106] Creating Layer inception_4e/prelu_5x5_reduce
I1105 17:44:52.403110 24642 net.cpp:454] inception_4e/prelu_5x5_reduce <- inception_4e/5x5_reduce
I1105 17:44:52.403117 24642 net.cpp:397] inception_4e/prelu_5x5_reduce -> inception_4e/5x5_reduce (in-place)
I1105 17:44:52.403228 24642 net.cpp:150] Setting up inception_4e/prelu_5x5_reduce
I1105 17:44:52.403236 24642 net.cpp:157] Top shape: 32 32 14 14 (200704)
I1105 17:44:52.403240 24642 net.cpp:165] Memory required for data: 1649738760
I1105 17:44:52.403246 24642 layer_factory.hpp:76] Creating layer inception_4e/5x5
I1105 17:44:52.403269 24642 net.cpp:106] Creating Layer inception_4e/5x5
I1105 17:44:52.403275 24642 net.cpp:454] inception_4e/5x5 <- inception_4e/5x5_reduce
I1105 17:44:52.403281 24642 net.cpp:411] inception_4e/5x5 -> inception_4e/5x5
I1105 17:44:52.405468 24642 cudnn_conv_layer.cpp:194] Reallocating workspace storage: 13080
I1105 17:44:52.405500 24642 net.cpp:150] Setting up inception_4e/5x5
I1105 17:44:52.405510 24642 net.cpp:157] Top shape: 32 128 14 14 (802816)
I1105 17:44:52.405516 24642 net.cpp:165] Memory required for data: 1652950024
I1105 17:44:52.405524 24642 layer_factory.hpp:76] Creating layer inception_4e/prelu_5x5
I1105 17:44:52.405534 24642 net.cpp:106] Creating Layer inception_4e/prelu_5x5
I1105 17:44:52.405541 24642 net.cpp:454] inception_4e/prelu_5x5 <- inception_4e/5x5
I1105 17:44:52.405550 24642 net.cpp:397] inception_4e/prelu_5x5 -> inception_4e/5x5 (in-place)
I1105 17:44:52.405668 24642 net.cpp:150] Setting up inception_4e/prelu_5x5
I1105 17:44:52.405678 24642 net.cpp:157] Top shape: 32 128 14 14 (802816)
I1105 17:44:52.405683 24642 net.cpp:165] Memory required for data: 1656161288
I1105 17:44:52.405688 24642 layer_factory.hpp:76] Creating layer inception_4e/pool
I1105 17:44:52.405697 24642 net.cpp:106] Creating Layer inception_4e/pool
I1105 17:44:52.405704 24642 net.cpp:454] inception_4e/pool <- inception_4d/output_inception_4d/output_0_split_4
I1105 17:44:52.405709 24642 net.cpp:411] inception_4e/pool -> inception_4e/pool
I1105 17:44:52.406086 24642 net.cpp:150] Setting up inception_4e/pool
I1105 17:44:52.406100 24642 net.cpp:157] Top shape: 32 528 14 14 (3311616)
I1105 17:44:52.406105 24642 net.cpp:165] Memory required for data: 1669407752
I1105 17:44:52.406111 24642 layer_factory.hpp:76] Creating layer inception_4e/pool_proj
I1105 17:44:52.406118 24642 net.cpp:106] Creating Layer inception_4e/pool_proj
I1105 17:44:52.406123 24642 net.cpp:454] inception_4e/pool_proj <- inception_4e/pool
I1105 17:44:52.406131 24642 net.cpp:411] inception_4e/pool_proj -> inception_4e/pool_proj
I1105 17:44:52.407450 24642 cudnn_conv_layer.cpp:194] Reallocating workspace storage: 10080
I1105 17:44:52.407481 24642 net.cpp:150] Setting up inception_4e/pool_proj
I1105 17:44:52.407490 24642 net.cpp:157] Top shape: 32 128 14 14 (802816)
I1105 17:44:52.407495 24642 net.cpp:165] Memory required for data: 1672619016
I1105 17:44:52.407501 24642 layer_factory.hpp:76] Creating layer inception_4e/prelu_pool_proj
I1105 17:44:52.407508 24642 net.cpp:106] Creating Layer inception_4e/prelu_pool_proj
I1105 17:44:52.407515 24642 net.cpp:454] inception_4e/prelu_pool_proj <- inception_4e/pool_proj
I1105 17:44:52.407522 24642 net.cpp:397] inception_4e/prelu_pool_proj -> inception_4e/pool_proj (in-place)
I1105 17:44:52.407636 24642 net.cpp:150] Setting up inception_4e/prelu_pool_proj
I1105 17:44:52.407645 24642 net.cpp:157] Top shape: 32 128 14 14 (802816)
I1105 17:44:52.407649 24642 net.cpp:165] Memory required for data: 1675830280
I1105 17:44:52.407655 24642 layer_factory.hpp:76] Creating layer inception_4e/output
I1105 17:44:52.407663 24642 net.cpp:106] Creating Layer inception_4e/output
I1105 17:44:52.407668 24642 net.cpp:454] inception_4e/output <- inception_4e/1x1
I1105 17:44:52.407673 24642 net.cpp:454] inception_4e/output <- inception_4e/3x3
I1105 17:44:52.407678 24642 net.cpp:454] inception_4e/output <- inception_4e/5x5
I1105 17:44:52.407693 24642 net.cpp:454] inception_4e/output <- inception_4e/pool_proj
I1105 17:44:52.407701 24642 net.cpp:411] inception_4e/output -> inception_4e/output
I1105 17:44:52.407730 24642 net.cpp:150] Setting up inception_4e/output
I1105 17:44:52.407738 24642 net.cpp:157] Top shape: 32 832 14 14 (5218304)
I1105 17:44:52.407742 24642 net.cpp:165] Memory required for data: 1696703496
I1105 17:44:52.407747 24642 layer_factory.hpp:76] Creating layer pool4/3x3_s2
I1105 17:44:52.407753 24642 net.cpp:106] Creating Layer pool4/3x3_s2
I1105 17:44:52.407757 24642 net.cpp:454] pool4/3x3_s2 <- inception_4e/output
I1105 17:44:52.407764 24642 net.cpp:411] pool4/3x3_s2 -> pool4/3x3_s2
I1105 17:44:52.408148 24642 net.cpp:150] Setting up pool4/3x3_s2
I1105 17:44:52.408159 24642 net.cpp:157] Top shape: 32 832 7 7 (1304576)
I1105 17:44:52.408164 24642 net.cpp:165] Memory required for data: 1701921800
I1105 17:44:52.408169 24642 layer_factory.hpp:76] Creating layer pool4/3x3_s2_pool4/3x3_s2_0_split
I1105 17:44:52.408175 24642 net.cpp:106] Creating Layer pool4/3x3_s2_pool4/3x3_s2_0_split
I1105 17:44:52.408179 24642 net.cpp:454] pool4/3x3_s2_pool4/3x3_s2_0_split <- pool4/3x3_s2
I1105 17:44:52.408186 24642 net.cpp:411] pool4/3x3_s2_pool4/3x3_s2_0_split -> pool4/3x3_s2_pool4/3x3_s2_0_split_0
I1105 17:44:52.408195 24642 net.cpp:411] pool4/3x3_s2_pool4/3x3_s2_0_split -> pool4/3x3_s2_pool4/3x3_s2_0_split_1
I1105 17:44:52.408200 24642 net.cpp:411] pool4/3x3_s2_pool4/3x3_s2_0_split -> pool4/3x3_s2_pool4/3x3_s2_0_split_2
I1105 17:44:52.408208 24642 net.cpp:411] pool4/3x3_s2_pool4/3x3_s2_0_split -> pool4/3x3_s2_pool4/3x3_s2_0_split_3
I1105 17:44:52.408278 24642 net.cpp:150] Setting up pool4/3x3_s2_pool4/3x3_s2_0_split
I1105 17:44:52.408287 24642 net.cpp:157] Top shape: 32 832 7 7 (1304576)
I1105 17:44:52.408293 24642 net.cpp:157] Top shape: 32 832 7 7 (1304576)
I1105 17:44:52.408296 24642 net.cpp:157] Top shape: 32 832 7 7 (1304576)
I1105 17:44:52.408301 24642 net.cpp:157] Top shape: 32 832 7 7 (1304576)
I1105 17:44:52.408305 24642 net.cpp:165] Memory required for data: 1722795016
I1105 17:44:52.408309 24642 layer_factory.hpp:76] Creating layer inception_5a/1x1
I1105 17:44:52.408318 24642 net.cpp:106] Creating Layer inception_5a/1x1
I1105 17:44:52.408323 24642 net.cpp:454] inception_5a/1x1 <- pool4/3x3_s2_pool4/3x3_s2_0_split_0
I1105 17:44:52.408329 24642 net.cpp:411] inception_5a/1x1 -> inception_5a/1x1
I1105 17:44:52.411171 24642 cudnn_conv_layer.cpp:194] Reallocating workspace storage: 7428
I1105 17:44:52.411207 24642 net.cpp:150] Setting up inception_5a/1x1
I1105 17:44:52.411217 24642 net.cpp:157] Top shape: 32 256 7 7 (401408)
I1105 17:44:52.411222 24642 net.cpp:165] Memory required for data: 1724400648
I1105 17:44:52.411229 24642 layer_factory.hpp:76] Creating layer inception_5a/prelu_1x1
I1105 17:44:52.411237 24642 net.cpp:106] Creating Layer inception_5a/prelu_1x1
I1105 17:44:52.411242 24642 net.cpp:454] inception_5a/prelu_1x1 <- inception_5a/1x1
I1105 17:44:52.411249 24642 net.cpp:397] inception_5a/prelu_1x1 -> inception_5a/1x1 (in-place)
I1105 17:44:52.411798 24642 net.cpp:150] Setting up inception_5a/prelu_1x1
I1105 17:44:52.411808 24642 net.cpp:157] Top shape: 32 256 7 7 (401408)
I1105 17:44:52.411820 24642 net.cpp:165] Memory required for data: 1726006280
I1105 17:44:52.411828 24642 layer_factory.hpp:76] Creating layer inception_5a/3x3_reduce
I1105 17:44:52.411837 24642 net.cpp:106] Creating Layer inception_5a/3x3_reduce
I1105 17:44:52.411842 24642 net.cpp:454] inception_5a/3x3_reduce <- pool4/3x3_s2_pool4/3x3_s2_0_split_1
I1105 17:44:52.411850 24642 net.cpp:411] inception_5a/3x3_reduce -> inception_5a/3x3_reduce
I1105 17:44:52.414207 24642 cudnn_conv_layer.cpp:194] Reallocating workspace storage: 7428
I1105 17:44:52.414240 24642 net.cpp:150] Setting up inception_5a/3x3_reduce
I1105 17:44:52.414249 24642 net.cpp:157] Top shape: 32 160 7 7 (250880)
I1105 17:44:52.414254 24642 net.cpp:165] Memory required for data: 1727009800
I1105 17:44:52.414261 24642 layer_factory.hpp:76] Creating layer inception_5a/prelu_3x3_reduce
I1105 17:44:52.414279 24642 net.cpp:106] Creating Layer inception_5a/prelu_3x3_reduce
I1105 17:44:52.414288 24642 net.cpp:454] inception_5a/prelu_3x3_reduce <- inception_5a/3x3_reduce
I1105 17:44:52.414295 24642 net.cpp:397] inception_5a/prelu_3x3_reduce -> inception_5a/3x3_reduce (in-place)
I1105 17:44:52.414396 24642 net.cpp:150] Setting up inception_5a/prelu_3x3_reduce
I1105 17:44:52.414405 24642 net.cpp:157] Top shape: 32 160 7 7 (250880)
I1105 17:44:52.414410 24642 net.cpp:165] Memory required for data: 1728013320
I1105 17:44:52.414415 24642 layer_factory.hpp:76] Creating layer inception_5a/3x3
I1105 17:44:52.414423 24642 net.cpp:106] Creating Layer inception_5a/3x3
I1105 17:44:52.414428 24642 net.cpp:454] inception_5a/3x3 <- inception_5a/3x3_reduce
I1105 17:44:52.414436 24642 net.cpp:411] inception_5a/3x3 -> inception_5a/3x3
I1105 17:44:52.418689 24642 cudnn_conv_layer.cpp:194] Reallocating workspace storage: 7788
I1105 17:44:52.418720 24642 net.cpp:150] Setting up inception_5a/3x3
I1105 17:44:52.418730 24642 net.cpp:157] Top shape: 32 320 7 7 (501760)
I1105 17:44:52.418735 24642 net.cpp:165] Memory required for data: 1730020360
I1105 17:44:52.418742 24642 layer_factory.hpp:76] Creating layer inception_5a/prelu_3x3
I1105 17:44:52.418751 24642 net.cpp:106] Creating Layer inception_5a/prelu_3x3
I1105 17:44:52.418758 24642 net.cpp:454] inception_5a/prelu_3x3 <- inception_5a/3x3
I1105 17:44:52.418764 24642 net.cpp:397] inception_5a/prelu_3x3 -> inception_5a/3x3 (in-place)
I1105 17:44:52.418881 24642 net.cpp:150] Setting up inception_5a/prelu_3x3
I1105 17:44:52.418890 24642 net.cpp:157] Top shape: 32 320 7 7 (501760)
I1105 17:44:52.418895 24642 net.cpp:165] Memory required for data: 1732027400
I1105 17:44:52.418900 24642 layer_factory.hpp:76] Creating layer inception_5a/5x5_reduce
I1105 17:44:52.418910 24642 net.cpp:106] Creating Layer inception_5a/5x5_reduce
I1105 17:44:52.418916 24642 net.cpp:454] inception_5a/5x5_reduce <- pool4/3x3_s2_pool4/3x3_s2_0_split_2
I1105 17:44:52.418925 24642 net.cpp:411] inception_5a/5x5_reduce -> inception_5a/5x5_reduce
I1105 17:44:52.420382 24642 cudnn_conv_layer.cpp:194] Reallocating workspace storage: 7428
I1105 17:44:52.420418 24642 net.cpp:150] Setting up inception_5a/5x5_reduce
I1105 17:44:52.420431 24642 net.cpp:157] Top shape: 32 32 7 7 (50176)
I1105 17:44:52.420439 24642 net.cpp:165] Memory required for data: 1732228104
I1105 17:44:52.420450 24642 layer_factory.hpp:76] Creating layer inception_5a/prelu_5x5_reduce
I1105 17:44:52.420466 24642 net.cpp:106] Creating Layer inception_5a/prelu_5x5_reduce
I1105 17:44:52.420475 24642 net.cpp:454] inception_5a/prelu_5x5_reduce <- inception_5a/5x5_reduce
I1105 17:44:52.420486 24642 net.cpp:397] inception_5a/prelu_5x5_reduce -> inception_5a/5x5_reduce (in-place)
I1105 17:44:52.420632 24642 net.cpp:150] Setting up inception_5a/prelu_5x5_reduce
I1105 17:44:52.420645 24642 net.cpp:157] Top shape: 32 32 7 7 (50176)
I1105 17:44:52.420652 24642 net.cpp:165] Memory required for data: 1732428808
I1105 17:44:52.420661 24642 layer_factory.hpp:76] Creating layer inception_5a/5x5
I1105 17:44:52.420675 24642 net.cpp:106] Creating Layer inception_5a/5x5
I1105 17:44:52.420685 24642 net.cpp:454] inception_5a/5x5 <- inception_5a/5x5_reduce
I1105 17:44:52.420697 24642 net.cpp:411] inception_5a/5x5 -> inception_5a/5x5
I1105 17:44:52.422969 24642 cudnn_conv_layer.cpp:194] Reallocating workspace storage: 9804
I1105 17:44:52.423022 24642 net.cpp:150] Setting up inception_5a/5x5
I1105 17:44:52.423038 24642 net.cpp:157] Top shape: 32 128 7 7 (200704)
I1105 17:44:52.423044 24642 net.cpp:165] Memory required for data: 1733231624
I1105 17:44:52.423053 24642 layer_factory.hpp:76] Creating layer inception_5a/prelu_5x5
I1105 17:44:52.423063 24642 net.cpp:106] Creating Layer inception_5a/prelu_5x5
I1105 17:44:52.423070 24642 net.cpp:454] inception_5a/prelu_5x5 <- inception_5a/5x5
I1105 17:44:52.423079 24642 net.cpp:397] inception_5a/prelu_5x5 -> inception_5a/5x5 (in-place)
I1105 17:44:52.423236 24642 net.cpp:150] Setting up inception_5a/prelu_5x5
I1105 17:44:52.423259 24642 net.cpp:157] Top shape: 32 128 7 7 (200704)
I1105 17:44:52.423264 24642 net.cpp:165] Memory required for data: 1734034440
I1105 17:44:52.423270 24642 layer_factory.hpp:76] Creating layer inception_5a/pool
I1105 17:44:52.423280 24642 net.cpp:106] Creating Layer inception_5a/pool
I1105 17:44:52.423286 24642 net.cpp:454] inception_5a/pool <- pool4/3x3_s2_pool4/3x3_s2_0_split_3
I1105 17:44:52.423293 24642 net.cpp:411] inception_5a/pool -> inception_5a/pool
I1105 17:44:52.423496 24642 net.cpp:150] Setting up inception_5a/pool
I1105 17:44:52.423506 24642 net.cpp:157] Top shape: 32 832 7 7 (1304576)
I1105 17:44:52.423511 24642 net.cpp:165] Memory required for data: 1739252744
I1105 17:44:52.423514 24642 layer_factory.hpp:76] Creating layer inception_5a/pool_proj
I1105 17:44:52.423524 24642 net.cpp:106] Creating Layer inception_5a/pool_proj
I1105 17:44:52.423532 24642 net.cpp:454] inception_5a/pool_proj <- inception_5a/pool
I1105 17:44:52.423540 24642 net.cpp:411] inception_5a/pool_proj -> inception_5a/pool_proj
I1105 17:44:52.426147 24642 cudnn_conv_layer.cpp:194] Reallocating workspace storage: 7428
I1105 17:44:52.426198 24642 net.cpp:150] Setting up inception_5a/pool_proj
I1105 17:44:52.426208 24642 net.cpp:157] Top shape: 32 128 7 7 (200704)
I1105 17:44:52.426213 24642 net.cpp:165] Memory required for data: 1740055560
I1105 17:44:52.426231 24642 layer_factory.hpp:76] Creating layer inception_5a/prelu_pool_proj
I1105 17:44:52.426244 24642 net.cpp:106] Creating Layer inception_5a/prelu_pool_proj
I1105 17:44:52.426251 24642 net.cpp:454] inception_5a/prelu_pool_proj <- inception_5a/pool_proj
I1105 17:44:52.426259 24642 net.cpp:397] inception_5a/prelu_pool_proj -> inception_5a/pool_proj (in-place)
I1105 17:44:52.426390 24642 net.cpp:150] Setting up inception_5a/prelu_pool_proj
I1105 17:44:52.426400 24642 net.cpp:157] Top shape: 32 128 7 7 (200704)
I1105 17:44:52.426403 24642 net.cpp:165] Memory required for data: 1740858376
I1105 17:44:52.426420 24642 layer_factory.hpp:76] Creating layer inception_5a/output
I1105 17:44:52.426427 24642 net.cpp:106] Creating Layer inception_5a/output
I1105 17:44:52.426432 24642 net.cpp:454] inception_5a/output <- inception_5a/1x1
I1105 17:44:52.426439 24642 net.cpp:454] inception_5a/output <- inception_5a/3x3
I1105 17:44:52.426445 24642 net.cpp:454] inception_5a/output <- inception_5a/5x5
I1105 17:44:52.426450 24642 net.cpp:454] inception_5a/output <- inception_5a/pool_proj
I1105 17:44:52.426456 24642 net.cpp:411] inception_5a/output -> inception_5a/output
I1105 17:44:52.426497 24642 net.cpp:150] Setting up inception_5a/output
I1105 17:44:52.426529 24642 net.cpp:157] Top shape: 32 832 7 7 (1304576)
I1105 17:44:52.426534 24642 net.cpp:165] Memory required for data: 1746076680
I1105 17:44:52.426549 24642 layer_factory.hpp:76] Creating layer inception_5a/output_inception_5a/output_0_split
I1105 17:44:52.426556 24642 net.cpp:106] Creating Layer inception_5a/output_inception_5a/output_0_split
I1105 17:44:52.426561 24642 net.cpp:454] inception_5a/output_inception_5a/output_0_split <- inception_5a/output
I1105 17:44:52.426578 24642 net.cpp:411] inception_5a/output_inception_5a/output_0_split -> inception_5a/output_inception_5a/output_0_split_0
I1105 17:44:52.426585 24642 net.cpp:411] inception_5a/output_inception_5a/output_0_split -> inception_5a/output_inception_5a/output_0_split_1
I1105 17:44:52.426592 24642 net.cpp:411] inception_5a/output_inception_5a/output_0_split -> inception_5a/output_inception_5a/output_0_split_2
I1105 17:44:52.426601 24642 net.cpp:411] inception_5a/output_inception_5a/output_0_split -> inception_5a/output_inception_5a/output_0_split_3
I1105 17:44:52.426692 24642 net.cpp:150] Setting up inception_5a/output_inception_5a/output_0_split
I1105 17:44:52.426702 24642 net.cpp:157] Top shape: 32 832 7 7 (1304576)
I1105 17:44:52.426717 24642 net.cpp:157] Top shape: 32 832 7 7 (1304576)
I1105 17:44:52.426723 24642 net.cpp:157] Top shape: 32 832 7 7 (1304576)
I1105 17:44:52.426728 24642 net.cpp:157] Top shape: 32 832 7 7 (1304576)
I1105 17:44:52.426731 24642 net.cpp:165] Memory required for data: 1766949896
I1105 17:44:52.426761 24642 layer_factory.hpp:76] Creating layer inception_5b/1x1
I1105 17:44:52.426774 24642 net.cpp:106] Creating Layer inception_5b/1x1
I1105 17:44:52.426779 24642 net.cpp:454] inception_5b/1x1 <- inception_5a/output_inception_5a/output_0_split_0
I1105 17:44:52.426785 24642 net.cpp:411] inception_5b/1x1 -> inception_5b/1x1
I1105 17:44:52.430464 24642 cudnn_conv_layer.cpp:194] Reallocating workspace storage: 7428
I1105 17:44:52.430511 24642 net.cpp:150] Setting up inception_5b/1x1
I1105 17:44:52.430521 24642 net.cpp:157] Top shape: 32 384 7 7 (602112)
I1105 17:44:52.430526 24642 net.cpp:165] Memory required for data: 1769358344
I1105 17:44:52.430543 24642 layer_factory.hpp:76] Creating layer inception_5b/prelu_1x1
I1105 17:44:52.430553 24642 net.cpp:106] Creating Layer inception_5b/prelu_1x1
I1105 17:44:52.430559 24642 net.cpp:454] inception_5b/prelu_1x1 <- inception_5b/1x1
I1105 17:44:52.430567 24642 net.cpp:397] inception_5b/prelu_1x1 -> inception_5b/1x1 (in-place)
I1105 17:44:52.431166 24642 net.cpp:150] Setting up inception_5b/prelu_1x1
I1105 17:44:52.431179 24642 net.cpp:157] Top shape: 32 384 7 7 (602112)
I1105 17:44:52.431193 24642 net.cpp:165] Memory required for data: 1771766792
I1105 17:44:52.431200 24642 layer_factory.hpp:76] Creating layer inception_5b/3x3_reduce
I1105 17:44:52.431211 24642 net.cpp:106] Creating Layer inception_5b/3x3_reduce
I1105 17:44:52.431216 24642 net.cpp:454] inception_5b/3x3_reduce <- inception_5a/output_inception_5a/output_0_split_1
I1105 17:44:52.431236 24642 net.cpp:411] inception_5b/3x3_reduce -> inception_5b/3x3_reduce
I1105 17:44:52.433732 24642 cudnn_conv_layer.cpp:194] Reallocating workspace storage: 7428
I1105 17:44:52.433761 24642 net.cpp:150] Setting up inception_5b/3x3_reduce
I1105 17:44:52.433769 24642 net.cpp:157] Top shape: 32 192 7 7 (301056)
I1105 17:44:52.433773 24642 net.cpp:165] Memory required for data: 1772971016
I1105 17:44:52.433780 24642 layer_factory.hpp:76] Creating layer inception_5b/prelu_3x3_reduce
I1105 17:44:52.433797 24642 net.cpp:106] Creating Layer inception_5b/prelu_3x3_reduce
I1105 17:44:52.433804 24642 net.cpp:454] inception_5b/prelu_3x3_reduce <- inception_5b/3x3_reduce
I1105 17:44:52.433809 24642 net.cpp:397] inception_5b/prelu_3x3_reduce -> inception_5b/3x3_reduce (in-place)
I1105 17:44:52.433943 24642 net.cpp:150] Setting up inception_5b/prelu_3x3_reduce
I1105 17:44:52.433953 24642 net.cpp:157] Top shape: 32 192 7 7 (301056)
I1105 17:44:52.433956 24642 net.cpp:165] Memory required for data: 1774175240
I1105 17:44:52.433970 24642 layer_factory.hpp:76] Creating layer inception_5b/3x3
I1105 17:44:52.433979 24642 net.cpp:106] Creating Layer inception_5b/3x3
I1105 17:44:52.433984 24642 net.cpp:454] inception_5b/3x3 <- inception_5b/3x3_reduce
I1105 17:44:52.433992 24642 net.cpp:411] inception_5b/3x3 -> inception_5b/3x3
I1105 17:44:52.439795 24642 cudnn_conv_layer.cpp:194] Reallocating workspace storage: 7788
I1105 17:44:52.439837 24642 net.cpp:150] Setting up inception_5b/3x3
I1105 17:44:52.439847 24642 net.cpp:157] Top shape: 32 384 7 7 (602112)
I1105 17:44:52.439852 24642 net.cpp:165] Memory required for data: 1776583688
I1105 17:44:52.439867 24642 layer_factory.hpp:76] Creating layer inception_5b/prelu_3x3
I1105 17:44:52.439877 24642 net.cpp:106] Creating Layer inception_5b/prelu_3x3
I1105 17:44:52.439882 24642 net.cpp:454] inception_5b/prelu_3x3 <- inception_5b/3x3
I1105 17:44:52.439890 24642 net.cpp:397] inception_5b/prelu_3x3 -> inception_5b/3x3 (in-place)
I1105 17:44:52.440034 24642 net.cpp:150] Setting up inception_5b/prelu_3x3
I1105 17:44:52.440043 24642 net.cpp:157] Top shape: 32 384 7 7 (602112)
I1105 17:44:52.440047 24642 net.cpp:165] Memory required for data: 1778992136
I1105 17:44:52.440060 24642 layer_factory.hpp:76] Creating layer inception_5b/5x5_reduce
I1105 17:44:52.440070 24642 net.cpp:106] Creating Layer inception_5b/5x5_reduce
I1105 17:44:52.440075 24642 net.cpp:454] inception_5b/5x5_reduce <- inception_5a/output_inception_5a/output_0_split_2
I1105 17:44:52.440106 24642 net.cpp:411] inception_5b/5x5_reduce -> inception_5b/5x5_reduce
I1105 17:44:52.441275 24642 cudnn_conv_layer.cpp:194] Reallocating workspace storage: 7428
I1105 17:44:52.441303 24642 net.cpp:150] Setting up inception_5b/5x5_reduce
I1105 17:44:52.441310 24642 net.cpp:157] Top shape: 32 48 7 7 (75264)
I1105 17:44:52.441314 24642 net.cpp:165] Memory required for data: 1779293192
I1105 17:44:52.441321 24642 layer_factory.hpp:76] Creating layer inception_5b/prelu_5x5_reduce
I1105 17:44:52.441339 24642 net.cpp:106] Creating Layer inception_5b/prelu_5x5_reduce
I1105 17:44:52.441344 24642 net.cpp:454] inception_5b/prelu_5x5_reduce <- inception_5b/5x5_reduce
I1105 17:44:52.441350 24642 net.cpp:397] inception_5b/prelu_5x5_reduce -> inception_5b/5x5_reduce (in-place)
I1105 17:44:52.441489 24642 net.cpp:150] Setting up inception_5b/prelu_5x5_reduce
I1105 17:44:52.441500 24642 net.cpp:157] Top shape: 32 48 7 7 (75264)
I1105 17:44:52.441512 24642 net.cpp:165] Memory required for data: 1779594248
I1105 17:44:52.441519 24642 layer_factory.hpp:76] Creating layer inception_5b/5x5
I1105 17:44:52.441526 24642 net.cpp:106] Creating Layer inception_5b/5x5
I1105 17:44:52.441531 24642 net.cpp:454] inception_5b/5x5 <- inception_5b/5x5_reduce
I1105 17:44:52.441548 24642 net.cpp:411] inception_5b/5x5 -> inception_5b/5x5
I1105 17:44:52.443626 24642 cudnn_conv_layer.cpp:194] Reallocating workspace storage: 9804
I1105 17:44:52.443652 24642 net.cpp:150] Setting up inception_5b/5x5
I1105 17:44:52.443660 24642 net.cpp:157] Top shape: 32 128 7 7 (200704)
I1105 17:44:52.443665 24642 net.cpp:165] Memory required for data: 1780397064
I1105 17:44:52.443672 24642 layer_factory.hpp:76] Creating layer inception_5b/prelu_5x5
I1105 17:44:52.443681 24642 net.cpp:106] Creating Layer inception_5b/prelu_5x5
I1105 17:44:52.443686 24642 net.cpp:454] inception_5b/prelu_5x5 <- inception_5b/5x5
I1105 17:44:52.443693 24642 net.cpp:397] inception_5b/prelu_5x5 -> inception_5b/5x5 (in-place)
I1105 17:44:52.443804 24642 net.cpp:150] Setting up inception_5b/prelu_5x5
I1105 17:44:52.443812 24642 net.cpp:157] Top shape: 32 128 7 7 (200704)
I1105 17:44:52.443816 24642 net.cpp:165] Memory required for data: 1781199880
I1105 17:44:52.443822 24642 layer_factory.hpp:76] Creating layer inception_5b/pool
I1105 17:44:52.443831 24642 net.cpp:106] Creating Layer inception_5b/pool
I1105 17:44:52.443836 24642 net.cpp:454] inception_5b/pool <- inception_5a/output_inception_5a/output_0_split_3
I1105 17:44:52.443842 24642 net.cpp:411] inception_5b/pool -> inception_5b/pool
I1105 17:44:52.444226 24642 net.cpp:150] Setting up inception_5b/pool
I1105 17:44:52.444236 24642 net.cpp:157] Top shape: 32 832 7 7 (1304576)
I1105 17:44:52.444242 24642 net.cpp:165] Memory required for data: 1786418184
I1105 17:44:52.444246 24642 layer_factory.hpp:76] Creating layer inception_5b/pool_proj
I1105 17:44:52.444255 24642 net.cpp:106] Creating Layer inception_5b/pool_proj
I1105 17:44:52.444260 24642 net.cpp:454] inception_5b/pool_proj <- inception_5b/pool
I1105 17:44:52.444268 24642 net.cpp:411] inception_5b/pool_proj -> inception_5b/pool_proj
I1105 17:44:52.446475 24642 cudnn_conv_layer.cpp:194] Reallocating workspace storage: 7428
I1105 17:44:52.446514 24642 net.cpp:150] Setting up inception_5b/pool_proj
I1105 17:44:52.446526 24642 net.cpp:157] Top shape: 32 128 7 7 (200704)
I1105 17:44:52.446530 24642 net.cpp:165] Memory required for data: 1787221000
I1105 17:44:52.446537 24642 layer_factory.hpp:76] Creating layer inception_5b/prelu_pool_proj
I1105 17:44:52.446547 24642 net.cpp:106] Creating Layer inception_5b/prelu_pool_proj
I1105 17:44:52.446552 24642 net.cpp:454] inception_5b/prelu_pool_proj <- inception_5b/pool_proj
I1105 17:44:52.446559 24642 net.cpp:397] inception_5b/prelu_pool_proj -> inception_5b/pool_proj (in-place)
I1105 17:44:52.446672 24642 net.cpp:150] Setting up inception_5b/prelu_pool_proj
I1105 17:44:52.446681 24642 net.cpp:157] Top shape: 32 128 7 7 (200704)
I1105 17:44:52.446686 24642 net.cpp:165] Memory required for data: 1788023816
I1105 17:44:52.446698 24642 layer_factory.hpp:76] Creating layer inception_5b/output
I1105 17:44:52.446717 24642 net.cpp:106] Creating Layer inception_5b/output
I1105 17:44:52.446722 24642 net.cpp:454] inception_5b/output <- inception_5b/1x1
I1105 17:44:52.446727 24642 net.cpp:454] inception_5b/output <- inception_5b/3x3
I1105 17:44:52.446732 24642 net.cpp:454] inception_5b/output <- inception_5b/5x5
I1105 17:44:52.446737 24642 net.cpp:454] inception_5b/output <- inception_5b/pool_proj
I1105 17:44:52.446741 24642 net.cpp:411] inception_5b/output -> inception_5b/output
I1105 17:44:52.446780 24642 net.cpp:150] Setting up inception_5b/output
I1105 17:44:52.446789 24642 net.cpp:157] Top shape: 32 1024 7 7 (1605632)
I1105 17:44:52.446794 24642 net.cpp:165] Memory required for data: 1794446344
I1105 17:44:52.446805 24642 layer_factory.hpp:76] Creating layer pool5/7x7_s1
I1105 17:44:52.446815 24642 net.cpp:106] Creating Layer pool5/7x7_s1
I1105 17:44:52.446818 24642 net.cpp:454] pool5/7x7_s1 <- inception_5b/output
I1105 17:44:52.446825 24642 net.cpp:411] pool5/7x7_s1 -> pool5/7x7_s1
I1105 17:44:52.446997 24642 net.cpp:150] Setting up pool5/7x7_s1
I1105 17:44:52.447007 24642 net.cpp:157] Top shape: 32 1024 1 1 (32768)
I1105 17:44:52.447011 24642 net.cpp:165] Memory required for data: 1794577416
I1105 17:44:52.447016 24642 layer_factory.hpp:76] Creating layer pool5/drop_7x7_s1
I1105 17:44:52.447023 24642 net.cpp:106] Creating Layer pool5/drop_7x7_s1
I1105 17:44:52.447027 24642 net.cpp:454] pool5/drop_7x7_s1 <- pool5/7x7_s1
I1105 17:44:52.447034 24642 net.cpp:397] pool5/drop_7x7_s1 -> pool5/7x7_s1 (in-place)
I1105 17:44:52.447064 24642 net.cpp:150] Setting up pool5/drop_7x7_s1
I1105 17:44:52.447074 24642 net.cpp:157] Top shape: 32 1024 1 1 (32768)
I1105 17:44:52.447080 24642 net.cpp:165] Memory required for data: 1794708488
I1105 17:44:52.447084 24642 layer_factory.hpp:76] Creating layer loss3/classifier2
I1105 17:44:52.447091 24642 net.cpp:106] Creating Layer loss3/classifier2
I1105 17:44:52.447096 24642 net.cpp:454] loss3/classifier2 <- pool5/7x7_s1
I1105 17:44:52.447103 24642 net.cpp:411] loss3/classifier2 -> loss3/classifier
I1105 17:44:52.447250 24642 net.cpp:150] Setting up loss3/classifier2
I1105 17:44:52.447259 24642 net.cpp:157] Top shape: 32 2 (64)
I1105 17:44:52.447263 24642 net.cpp:165] Memory required for data: 1794708744
I1105 17:44:52.447270 24642 layer_factory.hpp:76] Creating layer loss3/loss3
I1105 17:44:52.447279 24642 net.cpp:106] Creating Layer loss3/loss3
I1105 17:44:52.447284 24642 net.cpp:454] loss3/loss3 <- loss3/classifier
I1105 17:44:52.447290 24642 net.cpp:454] loss3/loss3 <- label_data_1_split_2
I1105 17:44:52.447295 24642 net.cpp:411] loss3/loss3 -> loss3/loss3
…
I1105 17:44:52.453441 24642 net.cpp:322] The NetState phase (1) differed from the phase (0) specified by a rule in layer data
I1105 17:44:52.454526 24642 net.cpp:49] Initializing net from parameters: 
name: "GoogleNet"
state {
  phase: TEST
}
layer {
  name: "data"
  type: "Data"
  top: "data"
  top: "label"
  include {
    phase: TEST
  }
  transform_param {
    mirror: false
    crop_size: 224
    mean_value: 104
    mean_value: 117
    mean_value: 123
  }
  data_param {
    source: "../../LMDB/val_7-lmdb"
    batch_size: 50
    backend: LMDB
  }
}
layer {
  name: "conv1/7x7_s2"
  type: "Convolution"
  bottom: "data"
  top: "conv1/7x7_s2"
  param {
    lr_mult: 1
    decay_mult: 1
  }
  param {
    lr_mult: 2
    decay_mult: 0
  }
  convolution_param {
    num_output: 64
    pad: 3
    kernel_size: 7
    stride: 2
    weight_filler {
      type: "xavier"
    }
    bias_filler {
      type: "constant"
      value: 0.2
    }
  }
}
layer {
  name: "conv1/prelu_7x7"
  type: "PReLU"
  bottom: "conv1/7x7_s2"
  top: "conv1/7x7_s2"
  param {
    lr_mult: 1
    decay_mult: 0
  }
  prelu_param {
    filler {
      type: "constant"
      value: 0.01
    }
  }
}
layer {
  name: "pool1/3x3_s2"
  type: "Pooling"
  bottom: "conv1/7x7_s2"
  top: "pool1/3x3_s2"
  pooling_param {
    pool: MAX
    kernel_size: 3
    stride: 2
  }
}
layer {
  name: "pool1/norm1"
  type: "LRN"
  bottom: "pool1/3x3_s2"
  top: "pool1/norm1"
  lrn_param {
    local_size: 5
    alpha: 0.0001
    beta: 0.75
  }
}
layer {
  name: "conv2/3x3_reduce"
  type: "Convolution"
  bottom: "pool1/norm1"
  top: "conv2/3x3_reduce"
  param {
    lr_mult: 1
    decay_mult: 1
  }
  param {
    lr_mult: 2
    decay_mult: 0
  }
  convolution_param {
    num_output: 64
    kernel_size: 1
    weight_filler {
      type: "xavier"
    }
    bias_filler {
      type: "constant"
      value: 0.2
    }
  }
}
layer {
  name: "conv2/prelu_3x3_reduce"
  type: "PReLU"
  bottom: "conv2/3x3_reduce"
  top: "conv2/3x3_reduce"
  param {
    lr_mult: 1
    decay_mult: 0
  }
  prelu_param {
    filler {
      type: "constant"
      value: 0.01
    }
  }
}
layer {
  name: "conv2/3x3"
  type: "Convolution"
  bottom: "conv2/3x3_reduce"
  top: "conv2/3x3"
  param {
    lr_mult: 1
    decay_mult: 1
  }
  param {
    lr_mult: 2
    decay_mult: 0
  }
  convolution_param {
    num_output: 192
    pad: 1
    kernel_size: 3
    weight_filler {
      type: "xavier"
    }
    bias_filler {
      type: "constant"
      value: 0.2
    }
  }
}
layer {
  name: "conv2/prelu_3x3"
  type: "PReLU"
  bottom: "conv2/3x3"
  top: "conv2/3x3"
  param {
    lr_mult: 1
    decay_mult: 0
  }
  prelu_param {
    filler {
      type: "constant"
      value: 0.01
    }
  }
}
layer {
  name: "conv2/norm2"
  type: "LRN"
  bottom: "conv2/3x3"
  top: "conv2/norm2"
  lrn_param {
    local_size: 5
    alpha: 0.0001
    beta: 0.75
  }
}
layer {
  name: "pool2/3x3_s2"
  type: "Pooling"
  bottom: "conv2/norm2"
  top: "pool2/3x3_s2"
  pooling_param {
    pool: MAX
    kernel_size: 3
    stride: 2
  }
}
layer {
  name: "inception_3a/1x1"
  type: "Convolution"
  bottom: "pool2/3x3_s2"
  top: "inception_3a/1x1"
  param {
    lr_mult: 1
    decay_mult: 1
  }
  param {
    lr_mult: 2
    decay_mult: 0
  }
  convolution_param {
    num_output: 64
    kernel_size: 1
    weight_filler {
      type: "xavier"
    }
    bias_filler {
      type: "constant"
      value: 0.2
    }
  }
}
layer {
  name: "inception_3a/prelu_1x1"
  type: "PReLU"
  bottom: "inception_3a/1x1"
  top: "inception_3a/1x1"
  param {
    lr_mult: 1
    decay_mult: 0
  }
  prelu_param {
    filler {
      type: "constant"
      value: 0.01
    }
  }
}
layer {
  name: "inception_3a/3x3_reduce"
  type: "Convolution"
  bottom: "pool2/3x3_s2"
  top: "inception_3a/3x3_reduce"
  param {
    lr_mult: 1
    decay_mult: 1
  }
  param {
    lr_mult: 2
    decay_mult: 0
  }
  convolution_param {
    num_output: 96
    kernel_size: 1
    weight_filler {
      type: "xavier"
    }
    bias_filler {
      type: "constant"
      value: 0.2
    }
  }
}
layer {
  name: "inception_3a/prelu_3x3_reduce"
  type: "PReLU"
  bottom: "inception_3a/3x3_reduce"
  top: "inception_3a/3x3_reduce"
  param {
    lr_mult: 1
    decay_mult: 0
  }
  prelu_param {
    filler {
      type: "constant"
      value: 0.01
    }
  }
}
layer {
  name: "inception_3a/3x3"
  type: "Convolution"
  bottom: "inception_3a/3x3_reduce"
  top: "inception_3a/3x3"
  param {
    lr_mult: 1
    decay_mult: 1
  }
  param {
    lr_mult: 2
    decay_mult: 0
  }
  convolution_param {
    num_output: 128
    pad: 1
    kernel_size: 3
    weight_filler {
      type: "xavier"
    }
    bias_filler {
      type: "constant"
      value: 0.2
    }
  }
}
layer {
  name: "inception_3a/prelu_3x3"
  type: "PReLU"
  bottom: "inception_3a/3x3"
  top: "inception_3a/3x3"
  param {
    lr_mult: 1
    decay_mult: 0
  }
  prelu_param {
    filler {
      type: "constant"
      value: 0.01
    }
  }
}
layer {
  name: "inception_3a/5x5_reduce"
  type: "Convolution"
  bottom: "pool2/3x3_s2"
  top: "inception_3a/5x5_reduce"
  param {
    lr_mult: 1
    decay_mult: 1
  }
  param {
    lr_mult: 2
    decay_mult: 0
  }
  convolution_param {
    num_output: 16
    kernel_size: 1
    weight_filler {
      type: "xavier"
    }
    bias_filler {
      type: "constant"
      value: 0.2
    }
  }
}
layer {
  name: "inception_3a/prelu_5x5_reduce"
  type: "PReLU"
  bottom: "inception_3a/5x5_reduce"
  top: "inception_3a/5x5_reduce"
  param {
    lr_mult: 1
    decay_mult: 0
  }
  prelu_param {
    filler {
      type: "constant"
      value: 0.01
    }
  }
}
layer {
  name: "inception_3a/5x5"
  type: "Convolution"
  bottom: "inception_3a/5x5_reduce"
  top: "inception_3a/5x5"
  param {
    lr_mult: 1
    decay_mult: 1
  }
  param {
    lr_mult: 2
    decay_mult: 0
  }
  convolution_param {
    num_output: 32
    pad: 2
    kernel_size: 5
    weight_filler {
      type: "xavier"
    }
    bias_filler {
      type: "constant"
      value: 0.2
    }
  }
}
layer {
  name: "inception_3a/prelu_5x5"
  type: "PReLU"
  bottom: "inception_3a/5x5"
  top: "inception_3a/5x5"
  param {
    lr_mult: 1
    decay_mult: 0
  }
  prelu_param {
    filler {
      type: "constant"
      value: 0.01
    }
  }
}
layer {
  name: "inception_3a/pool"
  type: "Pooling"
  bottom: "pool2/3x3_s2"
  top: "inception_3a/pool"
  pooling_param {
    pool: MAX
    kernel_size: 3
    stride: 1
    pad: 1
  }
}
layer {
  name: "inception_3a/pool_proj"
  type: "Convolution"
  bottom: "inception_3a/pool"
  top: "inception_3a/pool_proj"
  param {
    lr_mult: 1
    decay_mult: 1
  }
  param {
    lr_mult: 2
    decay_mult: 0
  }
  convolution_param {
    num_output: 32
    kernel_size: 1
    weight_filler {
      type: "xavier"
    }
    bias_filler {
      type: "constant"
      value: 0.2
    }
  }
}
layer {
  name: "inception_3a/prelu_pool_proj"
  type: "PReLU"
  bottom: "inception_3a/pool_proj"
  top: "inception_3a/pool_proj"
  param {
    lr_mult: 1
    decay_mult: 0
  }
  prelu_param {
    filler {
      type: "constant"
      value: 0.01
    }
  }
}
layer {
  name: "inception_3a/output"
  type: "Concat"
  bottom: "inception_3a/1x1"
  bottom: "inception_3a/3x3"
  bottom: "inception_3a/5x5"
  bottom: "inception_3a/pool_proj"
  top: "inception_3a/output"
}
layer {
  name: "inception_3b/1x1"
  type: "Convolution"
  bottom: "inception_3a/output"
  top: "inception_3b/1x1"
  param {
    lr_mult: 1
    decay_mult: 1
  }
  param {
    lr_mult: 2
    decay_mult: 0
  }
  convolution_param {
    num_output: 128
    kernel_size: 1
    weight_filler {
      type: "xavier"
    }
    bias_filler {
      type: "constant"
      value: 0.2
    }
  }
}
layer {
  name: "inception_3b/prelu_1x1"
  type: "PReLU"
  bottom: "inception_3b/1x1"
  top: "inception_3b/1x1"
  param {
    lr_mult: 1
    decay_mult: 0
  }
  prelu_param {
    filler {
      type: "constant"
      value: 0.01
    }
  }
}
layer {
  name: "inception_3b/3x3_reduce"
  type: "Convolution"
  bottom: "inception_3a/output"
  top: "inception_3b/3x3_reduce"
  param {
    lr_mult: 1
    decay_mult: 1
  }
  param {
    lr_mult: 2
    decay_mult: 0
  }
  convolution_param {
    num_output: 128
    kernel_size: 1
    weight_filler {
      type: "xavier"
    }
    bias_filler {
      type: "constant"
      value: 0.2
    }
  }
}
layer {
  name: "inception_3b/prelu_3x3_reduce"
  type: "PReLU"
  bottom: "inception_3b/3x3_reduce"
  top: "inception_3b/3x3_reduce"
  param {
    lr_mult: 1
    decay_mult: 0
  }
  prelu_param {
    filler {
      type: "constant"
      value: 0.01
    }
  }
}
layer {
  name: "inception_3b/3x3"
  type: "Convolution"
  bottom: "inception_3b/3x3_reduce"
  top: "inception_3b/3x3"
  param {
    lr_mult: 1
    decay_mult: 1
  }
  param {
    lr_mult: 2
    decay_mult: 0
  }
  convolution_param {
    num_output: 192
    pad: 1
…
I1105 17:44:53.312116 24642 net.cpp:106] Creating Layer inception_4c/output
I1105 17:44:53.312126 24642 net.cpp:454] inception_4c/output <- inception_4c/1x1
I1105 17:44:53.312137 24642 net.cpp:454] inception_4c/output <- inception_4c/3x3
I1105 17:44:53.312147 24642 net.cpp:454] inception_4c/output <- inception_4c/5x5
I1105 17:44:53.312157 24642 net.cpp:454] inception_4c/output <- inception_4c/pool_proj
I1105 17:44:53.312170 24642 net.cpp:411] inception_4c/output -> inception_4c/output
I1105 17:44:53.312206 24642 net.cpp:150] Setting up inception_4c/output
I1105 17:44:53.312218 24642 net.cpp:157] Top shape: 50 512 14 14 (5017600)
I1105 17:44:53.312227 24642 net.cpp:165] Memory required for data: 2234652208
I1105 17:44:53.312234 24642 layer_factory.hpp:76] Creating layer inception_4c/output_inception_4c/output_0_split
I1105 17:44:53.312247 24642 net.cpp:106] Creating Layer inception_4c/output_inception_4c/output_0_split
I1105 17:44:53.312255 24642 net.cpp:454] inception_4c/output_inception_4c/output_0_split <- inception_4c/output
I1105 17:44:53.312270 24642 net.cpp:411] inception_4c/output_inception_4c/output_0_split -> inception_4c/output_inception_4c/output_0_split_0
I1105 17:44:53.312284 24642 net.cpp:411] inception_4c/output_inception_4c/output_0_split -> inception_4c/output_inception_4c/output_0_split_1
I1105 17:44:53.312299 24642 net.cpp:411] inception_4c/output_inception_4c/output_0_split -> inception_4c/output_inception_4c/output_0_split_2
I1105 17:44:53.312331 24642 net.cpp:411] inception_4c/output_inception_4c/output_0_split -> inception_4c/output_inception_4c/output_0_split_3
I1105 17:44:53.312404 24642 net.cpp:150] Setting up inception_4c/output_inception_4c/output_0_split
I1105 17:44:53.312417 24642 net.cpp:157] Top shape: 50 512 14 14 (5017600)
I1105 17:44:53.312427 24642 net.cpp:157] Top shape: 50 512 14 14 (5017600)
I1105 17:44:53.312436 24642 net.cpp:157] Top shape: 50 512 14 14 (5017600)
I1105 17:44:53.312446 24642 net.cpp:157] Top shape: 50 512 14 14 (5017600)
I1105 17:44:53.312454 24642 net.cpp:165] Memory required for data: 2314933808
I1105 17:44:53.312463 24642 layer_factory.hpp:76] Creating layer inception_4d/1x1
I1105 17:44:53.312477 24642 net.cpp:106] Creating Layer inception_4d/1x1
I1105 17:44:53.312489 24642 net.cpp:454] inception_4d/1x1 <- inception_4c/output_inception_4c/output_0_split_0
I1105 17:44:53.312504 24642 net.cpp:411] inception_4d/1x1 -> inception_4d/1x1
I1105 17:44:53.314260 24642 cudnn_conv_layer.cpp:194] Reallocating workspace storage: 10080
I1105 17:44:53.314321 24642 net.cpp:150] Setting up inception_4d/1x1
I1105 17:44:53.314335 24642 net.cpp:157] Top shape: 50 112 14 14 (1097600)
I1105 17:44:53.314343 24642 net.cpp:165] Memory required for data: 2319324208
I1105 17:44:53.314359 24642 layer_factory.hpp:76] Creating layer inception_4d/prelu_1x1
I1105 17:44:53.314381 24642 net.cpp:106] Creating Layer inception_4d/prelu_1x1
I1105 17:44:53.314391 24642 net.cpp:454] inception_4d/prelu_1x1 <- inception_4d/1x1
I1105 17:44:53.314406 24642 net.cpp:397] inception_4d/prelu_1x1 -> inception_4d/1x1 (in-place)
I1105 17:44:53.314529 24642 net.cpp:150] Setting up inception_4d/prelu_1x1
I1105 17:44:53.314543 24642 net.cpp:157] Top shape: 50 112 14 14 (1097600)
I1105 17:44:53.314550 24642 net.cpp:165] Memory required for data: 2323714608
I1105 17:44:53.314561 24642 layer_factory.hpp:76] Creating layer inception_4d/3x3_reduce
I1105 17:44:53.314580 24642 net.cpp:106] Creating Layer inception_4d/3x3_reduce
I1105 17:44:53.314591 24642 net.cpp:454] inception_4d/3x3_reduce <- inception_4c/output_inception_4c/output_0_split_1
I1105 17:44:53.314606 24642 net.cpp:411] inception_4d/3x3_reduce -> inception_4d/3x3_reduce
I1105 17:44:53.316303 24642 cudnn_conv_layer.cpp:194] Reallocating workspace storage: 10080
I1105 17:44:53.316351 24642 net.cpp:150] Setting up inception_4d/3x3_reduce
I1105 17:44:53.316365 24642 net.cpp:157] Top shape: 50 144 14 14 (1411200)
I1105 17:44:53.316372 24642 net.cpp:165] Memory required for data: 2329359408
I1105 17:44:53.316386 24642 layer_factory.hpp:76] Creating layer inception_4d/prelu_3x3_reduce
I1105 17:44:53.316403 24642 net.cpp:106] Creating Layer inception_4d/prelu_3x3_reduce
I1105 17:44:53.316414 24642 net.cpp:454] inception_4d/prelu_3x3_reduce <- inception_4d/3x3_reduce
I1105 17:44:53.316426 24642 net.cpp:397] inception_4d/prelu_3x3_reduce -> inception_4d/3x3_reduce (in-place)
I1105 17:44:53.316553 24642 net.cpp:150] Setting up inception_4d/prelu_3x3_reduce
I1105 17:44:53.316566 24642 net.cpp:157] Top shape: 50 144 14 14 (1411200)
I1105 17:44:53.316576 24642 net.cpp:165] Memory required for data: 2335004208
I1105 17:44:53.316586 24642 layer_factory.hpp:76] Creating layer inception_4d/3x3
I1105 17:44:53.316601 24642 net.cpp:106] Creating Layer inception_4d/3x3
I1105 17:44:53.316612 24642 net.cpp:454] inception_4d/3x3 <- inception_4d/3x3_reduce
I1105 17:44:53.316627 24642 net.cpp:411] inception_4d/3x3 -> inception_4d/3x3
I1105 17:44:53.320827 24642 cudnn_conv_layer.cpp:194] Reallocating workspace storage: 10080
I1105 17:44:53.320899 24642 net.cpp:150] Setting up inception_4d/3x3
I1105 17:44:53.320914 24642 net.cpp:157] Top shape: 50 288 14 14 (2822400)
I1105 17:44:53.320924 24642 net.cpp:165] Memory required for data: 2346293808
I1105 17:44:53.320938 24642 layer_factory.hpp:76] Creating layer inception_4d/prelu_3x3
I1105 17:44:53.320960 24642 net.cpp:106] Creating Layer inception_4d/prelu_3x3
I1105 17:44:53.320972 24642 net.cpp:454] inception_4d/prelu_3x3 <- inception_4d/3x3
I1105 17:44:53.321002 24642 net.cpp:397] inception_4d/prelu_3x3 -> inception_4d/3x3 (in-place)
I1105 17:44:53.321632 24642 net.cpp:150] Setting up inception_4d/prelu_3x3
I1105 17:44:53.321646 24642 net.cpp:157] Top shape: 50 288 14 14 (2822400)
I1105 17:44:53.321655 24642 net.cpp:165] Memory required for data: 2357583408
I1105 17:44:53.321666 24642 layer_factory.hpp:76] Creating layer inception_4d/5x5_reduce
I1105 17:44:53.321683 24642 net.cpp:106] Creating Layer inception_4d/5x5_reduce
I1105 17:44:53.321693 24642 net.cpp:454] inception_4d/5x5_reduce <- inception_4c/output_inception_4c/output_0_split_2
I1105 17:44:53.321709 24642 net.cpp:411] inception_4d/5x5_reduce -> inception_4d/5x5_reduce
I1105 17:44:53.323163 24642 cudnn_conv_layer.cpp:194] Reallocating workspace storage: 10080
I1105 17:44:53.323202 24642 net.cpp:150] Setting up inception_4d/5x5_reduce
I1105 17:44:53.323215 24642 net.cpp:157] Top shape: 50 32 14 14 (313600)
I1105 17:44:53.323225 24642 net.cpp:165] Memory required for data: 2358837808
I1105 17:44:53.323238 24642 layer_factory.hpp:76] Creating layer inception_4d/prelu_5x5_reduce
I1105 17:44:53.323251 24642 net.cpp:106] Creating Layer inception_4d/prelu_5x5_reduce
I1105 17:44:53.323261 24642 net.cpp:454] inception_4d/prelu_5x5_reduce <- inception_4d/5x5_reduce
I1105 17:44:53.323273 24642 net.cpp:397] inception_4d/prelu_5x5_reduce -> inception_4d/5x5_reduce (in-place)
I1105 17:44:53.323379 24642 net.cpp:150] Setting up inception_4d/prelu_5x5_reduce
I1105 17:44:53.323391 24642 net.cpp:157] Top shape: 50 32 14 14 (313600)
I1105 17:44:53.323398 24642 net.cpp:165] Memory required for data: 2360092208
I1105 17:44:53.323410 24642 layer_factory.hpp:76] Creating layer inception_4d/5x5
I1105 17:44:53.323426 24642 net.cpp:106] Creating Layer inception_4d/5x5
I1105 17:44:53.323436 24642 net.cpp:454] inception_4d/5x5 <- inception_4d/5x5_reduce
I1105 17:44:53.323451 24642 net.cpp:411] inception_4d/5x5 -> inception_4d/5x5
I1105 17:44:53.324653 24642 cudnn_conv_layer.cpp:194] Reallocating workspace storage: 13080
I1105 17:44:53.324693 24642 net.cpp:150] Setting up inception_4d/5x5
I1105 17:44:53.324707 24642 net.cpp:157] Top shape: 50 64 14 14 (627200)
I1105 17:44:53.324714 24642 net.cpp:165] Memory required for data: 2362601008
I1105 17:44:53.324728 24642 layer_factory.hpp:76] Creating layer inception_4d/prelu_5x5
I1105 17:44:53.324740 24642 net.cpp:106] Creating Layer inception_4d/prelu_5x5
I1105 17:44:53.324749 24642 net.cpp:454] inception_4d/prelu_5x5 <- inception_4d/5x5
I1105 17:44:53.324764 24642 net.cpp:397] inception_4d/prelu_5x5 -> inception_4d/5x5 (in-place)
I1105 17:44:53.324865 24642 net.cpp:150] Setting up inception_4d/prelu_5x5
I1105 17:44:53.324877 24642 net.cpp:157] Top shape: 50 64 14 14 (627200)
I1105 17:44:53.324884 24642 net.cpp:165] Memory required for data: 2365109808
I1105 17:44:53.324903 24642 layer_factory.hpp:76] Creating layer inception_4d/pool
I1105 17:44:53.324916 24642 net.cpp:106] Creating Layer inception_4d/pool
I1105 17:44:53.324925 24642 net.cpp:454] inception_4d/pool <- inception_4c/output_inception_4c/output_0_split_3
I1105 17:44:53.324937 24642 net.cpp:411] inception_4d/pool -> inception_4d/pool
I1105 17:44:53.325410 24642 net.cpp:150] Setting up inception_4d/pool
I1105 17:44:53.325424 24642 net.cpp:157] Top shape: 50 512 14 14 (5017600)
I1105 17:44:53.325433 24642 net.cpp:165] Memory required for data: 2385180208
I1105 17:44:53.325449 24642 layer_factory.hpp:76] Creating layer inception_4d/pool_proj
I1105 17:44:53.325479 24642 net.cpp:106] Creating Layer inception_4d/pool_proj
I1105 17:44:53.325490 24642 net.cpp:454] inception_4d/pool_proj <- inception_4d/pool
I1105 17:44:53.325520 24642 net.cpp:411] inception_4d/pool_proj -> inception_4d/pool_proj
I1105 17:44:53.326907 24642 cudnn_conv_layer.cpp:194] Reallocating workspace storage: 10080
I1105 17:44:53.326959 24642 net.cpp:150] Setting up inception_4d/pool_proj
I1105 17:44:53.326972 24642 net.cpp:157] Top shape: 50 64 14 14 (627200)
I1105 17:44:53.326982 24642 net.cpp:165] Memory required for data: 2387689008
I1105 17:44:53.326995 24642 layer_factory.hpp:76] Creating layer inception_4d/prelu_pool_proj
I1105 17:44:53.327028 24642 net.cpp:106] Creating Layer inception_4d/prelu_pool_proj
I1105 17:44:53.327039 24642 net.cpp:454] inception_4d/prelu_pool_proj <- inception_4d/pool_proj
I1105 17:44:53.327055 24642 net.cpp:397] inception_4d/prelu_pool_proj -> inception_4d/pool_proj (in-place)
I1105 17:44:53.327162 24642 net.cpp:150] Setting up inception_4d/prelu_pool_proj
I1105 17:44:53.327174 24642 net.cpp:157] Top shape: 50 64 14 14 (627200)
I1105 17:44:53.327183 24642 net.cpp:165] Memory required for data: 2390197808
I1105 17:44:53.327193 24642 layer_factory.hpp:76] Creating layer inception_4d/output
I1105 17:44:53.327210 24642 net.cpp:106] Creating Layer inception_4d/output
I1105 17:44:53.327222 24642 net.cpp:454] inception_4d/output <- inception_4d/1x1
I1105 17:44:53.327232 24642 net.cpp:454] inception_4d/output <- inception_4d/3x3
I1105 17:44:53.327244 24642 net.cpp:454] inception_4d/output <- inception_4d/5x5
I1105 17:44:53.327253 24642 net.cpp:454] inception_4d/output <- inception_4d/pool_proj
I1105 17:44:53.327265 24642 net.cpp:411] inception_4d/output -> inception_4d/output
I1105 17:44:53.327301 24642 net.cpp:150] Setting up inception_4d/output
I1105 17:44:53.327312 24642 net.cpp:157] Top shape: 50 528 14 14 (5174400)
I1105 17:44:53.327321 24642 net.cpp:165] Memory required for data: 2410895408
I1105 17:44:53.327328 24642 layer_factory.hpp:76] Creating layer inception_4d/output_inception_4d/output_0_split
I1105 17:44:53.327342 24642 net.cpp:106] Creating Layer inception_4d/output_inception_4d/output_0_split
I1105 17:44:53.327350 24642 net.cpp:454] inception_4d/output_inception_4d/output_0_split <- inception_4d/output
I1105 17:44:53.327364 24642 net.cpp:411] inception_4d/output_inception_4d/output_0_split -> inception_4d/output_inception_4d/output_0_split_0
I1105 17:44:53.327379 24642 net.cpp:411] inception_4d/output_inception_4d/output_0_split -> inception_4d/output_inception_4d/output_0_split_1
I1105 17:44:53.327394 24642 net.cpp:411] inception_4d/output_inception_4d/output_0_split -> inception_4d/output_inception_4d/output_0_split_2
I1105 17:44:53.327409 24642 net.cpp:411] inception_4d/output_inception_4d/output_0_split -> inception_4d/output_inception_4d/output_0_split_3
I1105 17:44:53.327424 24642 net.cpp:411] inception_4d/output_inception_4d/output_0_split -> inception_4d/output_inception_4d/output_0_split_4
I1105 17:44:53.327500 24642 net.cpp:150] Setting up inception_4d/output_inception_4d/output_0_split
I1105 17:44:53.327513 24642 net.cpp:157] Top shape: 50 528 14 14 (5174400)
I1105 17:44:53.327523 24642 net.cpp:157] Top shape: 50 528 14 14 (5174400)
I1105 17:44:53.327534 24642 net.cpp:157] Top shape: 50 528 14 14 (5174400)
I1105 17:44:53.327544 24642 net.cpp:157] Top shape: 50 528 14 14 (5174400)
I1105 17:44:53.327554 24642 net.cpp:157] Top shape: 50 528 14 14 (5174400)
I1105 17:44:53.327563 24642 net.cpp:165] Memory required for data: 2514383408
I1105 17:44:53.327570 24642 layer_factory.hpp:76] Creating layer loss2/ave_pool
I1105 17:44:53.327584 24642 net.cpp:106] Creating Layer loss2/ave_pool
I1105 17:44:53.327594 24642 net.cpp:454] loss2/ave_pool <- inception_4d/output_inception_4d/output_0_split_0
I1105 17:44:53.327605 24642 net.cpp:411] loss2/ave_pool -> loss2/ave_pool
I1105 17:44:53.327807 24642 net.cpp:150] Setting up loss2/ave_pool
I1105 17:44:53.327821 24642 net.cpp:157] Top shape: 50 528 4 4 (422400)
I1105 17:44:53.327829 24642 net.cpp:165] Memory required for data: 2516073008
I1105 17:44:53.327837 24642 layer_factory.hpp:76] Creating layer loss2/conv
I1105 17:44:53.327853 24642 net.cpp:106] Creating Layer loss2/conv
I1105 17:44:53.327864 24642 net.cpp:454] loss2/conv <- loss2/ave_pool
I1105 17:44:53.327880 24642 net.cpp:411] loss2/conv -> loss2/conv
I1105 17:44:53.329460 24642 cudnn_conv_layer.cpp:194] Reallocating workspace storage: 6840
I1105 17:44:53.329507 24642 net.cpp:150] Setting up loss2/conv
I1105 17:44:53.329520 24642 net.cpp:157] Top shape: 50 128 4 4 (102400)
I1105 17:44:53.329530 24642 net.cpp:165] Memory required for data: 2516482608
I1105 17:44:53.329557 24642 layer_factory.hpp:76] Creating layer loss2/prelu_conv
I1105 17:44:53.329576 24642 net.cpp:106] Creating Layer loss2/prelu_conv
I1105 17:44:53.329588 24642 net.cpp:454] loss2/prelu_conv <- loss2/conv
I1105 17:44:53.329601 24642 net.cpp:397] loss2/prelu_conv -> loss2/conv (in-place)
I1105 17:44:53.329715 24642 net.cpp:150] Setting up loss2/prelu_conv
I1105 17:44:53.329728 24642 net.cpp:157] Top shape: 50 128 4 4 (102400)
I1105 17:44:53.329736 24642 net.cpp:165] Memory required for data: 2516892208
I1105 17:44:53.329747 24642 layer_factory.hpp:76] Creating layer loss2/fc
I1105 17:44:53.329761 24642 net.cpp:106] Creating Layer loss2/fc
I1105 17:44:53.329769 24642 net.cpp:454] loss2/fc <- loss2/conv
I1105 17:44:53.329784 24642 net.cpp:411] loss2/fc -> loss2/fc
I1105 17:44:53.345319 24642 net.cpp:150] Setting up loss2/fc
I1105 17:44:53.345353 24642 net.cpp:157] Top shape: 50 1024 (51200)
I1105 17:44:53.345362 24642 net.cpp:165] Memory required for data: 2517097008
I1105 17:44:53.345414 24642 layer_factory.hpp:76] Creating layer loss2/prelu_fc
I1105 17:44:53.345439 24642 net.cpp:106] Creating Layer loss2/prelu_fc
I1105 17:44:53.345454 24642 net.cpp:454] loss2/prelu_fc <- loss2/fc
I1105 17:44:53.345469 24642 net.cpp:397] loss2/prelu_fc -> loss2/fc (in-place)
I1105 17:44:53.345607 24642 net.cpp:150] Setting up loss2/prelu_fc
I1105 17:44:53.345621 24642 net.cpp:157] Top shape: 50 1024 (51200)
I1105 17:44:53.345629 24642 net.cpp:165] Memory required for data: 2517301808
I1105 17:44:53.345641 24642 layer_factory.hpp:76] Creating layer loss2/drop_fc
I1105 17:44:53.345659 24642 net.cpp:106] Creating Layer loss2/drop_fc
I1105 17:44:53.345669 24642 net.cpp:454] loss2/drop_fc <- loss2/fc
I1105 17:44:53.345681 24642 net.cpp:397] loss2/drop_fc -> loss2/fc (in-place)
I1105 17:44:53.345722 24642 net.cpp:150] Setting up loss2/drop_fc
I1105 17:44:53.345736 24642 net.cpp:157] Top shape: 50 1024 (51200)
I1105 17:44:53.345743 24642 net.cpp:165] Memory required for data: 2517506608
I1105 17:44:53.345752 24642 layer_factory.hpp:76] Creating layer loss2/classifier2
I1105 17:44:53.345767 24642 net.cpp:106] Creating Layer loss2/classifier2
I1105 17:44:53.345774 24642 net.cpp:454] loss2/classifier2 <- loss2/fc
I1105 17:44:53.345790 24642 net.cpp:411] loss2/classifier2 -> loss2/classifier
I1105 17:44:53.345948 24642 net.cpp:150] Setting up loss2/classifier2
I1105 17:44:53.345963 24642 net.cpp:157] Top shape: 50 2 (100)
I1105 17:44:53.345970 24642 net.cpp:165] Memory required for data: 2517507008
I1105 17:44:53.345984 24642 layer_factory.hpp:76] Creating layer loss2/classifier_loss2/classifier2_0_split
I1105 17:44:53.345998 24642 net.cpp:106] Creating Layer loss2/classifier_loss2/classifier2_0_split
I1105 17:44:53.346009 24642 net.cpp:454] loss2/classifier_loss2/classifier2_0_split <- loss2/classifier
I1105 17:44:53.346020 24642 net.cpp:411] loss2/classifier_loss2/classifier2_0_split -> loss2/classifier_loss2/classifier2_0_split_0
I1105 17:44:53.346034 24642 net.cpp:411] loss2/classifier_loss2/classifier2_0_split -> loss2/classifier_loss2/classifier2_0_split_1
I1105 17:44:53.346084 24642 net.cpp:150] Setting up loss2/classifier_loss2/classifier2_0_split
I1105 17:44:53.346096 24642 net.cpp:157] Top shape: 50 2 (100)
I1105 17:44:53.346107 24642 net.cpp:157] Top shape: 50 2 (100)
I1105 17:44:53.346114 24642 net.cpp:165] Memory required for data: 2517507808
I1105 17:44:53.346123 24642 layer_factory.hpp:76] Creating layer loss2/loss
I1105 17:44:53.346138 24642 net.cpp:106] Creating Layer loss2/loss
I1105 17:44:53.346148 24642 net.cpp:454] loss2/loss <- loss2/classifier_loss2/classifier2_0_split_0
I1105 17:44:53.346159 24642 net.cpp:454] loss2/loss <- label_data_1_split_2
…
I1105 17:44:53.347089 24642 net.cpp:165] Memory required for data: 2517507816
I1105 17:44:53.347096 24642 layer_factory.hpp:76] Creating layer inception_4e/1x1
I1105 17:44:53.347116 24642 net.cpp:106] Creating Layer inception_4e/1x1
I1105 17:44:53.347127 24642 net.cpp:454] inception_4e/1x1 <- inception_4d/output_inception_4d/output_0_split_1
I1105 17:44:53.347142 24642 net.cpp:411] inception_4e/1x1 -> inception_4e/1x1
I1105 17:44:53.349632 24642 cudnn_conv_layer.cpp:194] Reallocating workspace storage: 10080
I1105 17:44:53.349694 24642 net.cpp:150] Setting up inception_4e/1x1
I1105 17:44:53.349707 24642 net.cpp:157] Top shape: 50 256 14 14 (2508800)
I1105 17:44:53.349715 24642 net.cpp:165] Memory required for data: 2527543016
I1105 17:44:53.349731 24642 layer_factory.hpp:76] Creating layer inception_4e/prelu_1x1
I1105 17:44:53.349748 24642 net.cpp:106] Creating Layer inception_4e/prelu_1x1
I1105 17:44:53.349761 24642 net.cpp:454] inception_4e/prelu_1x1 <- inception_4e/1x1
I1105 17:44:53.349776 24642 net.cpp:397] inception_4e/prelu_1x1 -> inception_4e/1x1 (in-place)
I1105 17:44:53.349913 24642 net.cpp:150] Setting up inception_4e/prelu_1x1
I1105 17:44:53.349928 24642 net.cpp:157] Top shape: 50 256 14 14 (2508800)
I1105 17:44:53.349936 24642 net.cpp:165] Memory required for data: 2537578216
I1105 17:44:53.349948 24642 layer_factory.hpp:76] Creating layer inception_4e/3x3_reduce
I1105 17:44:53.349963 24642 net.cpp:106] Creating Layer inception_4e/3x3_reduce
I1105 17:44:53.349975 24642 net.cpp:454] inception_4e/3x3_reduce <- inception_4d/output_inception_4d/output_0_split_2
I1105 17:44:53.349992 24642 net.cpp:411] inception_4e/3x3_reduce -> inception_4e/3x3_reduce
I1105 17:44:53.351922 24642 cudnn_conv_layer.cpp:194] Reallocating workspace storage: 10080
I1105 17:44:53.351970 24642 net.cpp:150] Setting up inception_4e/3x3_reduce
I1105 17:44:53.351984 24642 net.cpp:157] Top shape: 50 160 14 14 (1568000)
I1105 17:44:53.351992 24642 net.cpp:165] Memory required for data: 2543850216
I1105 17:44:53.352007 24642 layer_factory.hpp:76] Creating layer inception_4e/prelu_3x3_reduce
I1105 17:44:53.352023 24642 net.cpp:106] Creating Layer inception_4e/prelu_3x3_reduce
I1105 17:44:53.352035 24642 net.cpp:454] inception_4e/prelu_3x3_reduce <- inception_4e/3x3_reduce
I1105 17:44:53.352047 24642 net.cpp:397] inception_4e/prelu_3x3_reduce -> inception_4e/3x3_reduce (in-place)
I1105 17:44:53.352165 24642 net.cpp:150] Setting up inception_4e/prelu_3x3_reduce
I1105 17:44:53.352179 24642 net.cpp:157] Top shape: 50 160 14 14 (1568000)
I1105 17:44:53.352185 24642 net.cpp:165] Memory required for data: 2550122216
I1105 17:44:53.352197 24642 layer_factory.hpp:76] Creating layer inception_4e/3x3
I1105 17:44:53.352228 24642 net.cpp:106] Creating Layer inception_4e/3x3
I1105 17:44:53.352238 24642 net.cpp:454] inception_4e/3x3 <- inception_4e/3x3_reduce
I1105 17:44:53.352252 24642 net.cpp:411] inception_4e/3x3 -> inception_4e/3x3
I1105 17:44:53.357125 24642 cudnn_conv_layer.cpp:194] Reallocating workspace storage: 10080
I1105 17:44:53.357184 24642 net.cpp:150] Setting up inception_4e/3x3
I1105 17:44:53.357200 24642 net.cpp:157] Top shape: 50 320 14 14 (3136000)
I1105 17:44:53.357208 24642 net.cpp:165] Memory required for data: 2562666216
I1105 17:44:53.357225 24642 layer_factory.hpp:76] Creating layer inception_4e/prelu_3x3
I1105 17:44:53.357246 24642 net.cpp:106] Creating Layer inception_4e/prelu_3x3
I1105 17:44:53.357260 24642 net.cpp:454] inception_4e/prelu_3x3 <- inception_4e/3x3
I1105 17:44:53.357273 24642 net.cpp:397] inception_4e/prelu_3x3 -> inception_4e/3x3 (in-place)
I1105 17:44:53.357992 24642 net.cpp:150] Setting up inception_4e/prelu_3x3
I1105 17:44:53.358007 24642 net.cpp:157] Top shape: 50 320 14 14 (3136000)
I1105 17:44:53.358016 24642 net.cpp:165] Memory required for data: 2575210216
I1105 17:44:53.358027 24642 layer_factory.hpp:76] Creating layer inception_4e/5x5_reduce
I1105 17:44:53.358045 24642 net.cpp:106] Creating Layer inception_4e/5x5_reduce
I1105 17:44:53.358057 24642 net.cpp:454] inception_4e/5x5_reduce <- inception_4d/output_inception_4d/output_0_split_3
I1105 17:44:53.358073 24642 net.cpp:411] inception_4e/5x5_reduce -> inception_4e/5x5_reduce
I1105 17:44:53.359529 24642 cudnn_conv_layer.cpp:194] Reallocating workspace storage: 10080
I1105 17:44:53.359572 24642 net.cpp:150] Setting up inception_4e/5x5_reduce
I1105 17:44:53.359585 24642 net.cpp:157] Top shape: 50 32 14 14 (313600)
I1105 17:44:53.359593 24642 net.cpp:165] Memory required for data: 2576464616
I1105 17:44:53.359607 24642 layer_factory.hpp:76] Creating layer inception_4e/prelu_5x5_reduce
I1105 17:44:53.359622 24642 net.cpp:106] Creating Layer inception_4e/prelu_5x5_reduce
I1105 17:44:53.359632 24642 net.cpp:454] inception_4e/prelu_5x5_reduce <- inception_4e/5x5_reduce
I1105 17:44:53.359644 24642 net.cpp:397] inception_4e/prelu_5x5_reduce -> inception_4e/5x5_reduce (in-place)
I1105 17:44:53.359756 24642 net.cpp:150] Setting up inception_4e/prelu_5x5_reduce
I1105 17:44:53.359768 24642 net.cpp:157] Top shape: 50 32 14 14 (313600)
I1105 17:44:53.359776 24642 net.cpp:165] Memory required for data: 2577719016
I1105 17:44:53.359787 24642 layer_factory.hpp:76] Creating layer inception_4e/5x5
I1105 17:44:53.359803 24642 net.cpp:106] Creating Layer inception_4e/5x5
I1105 17:44:53.359815 24642 net.cpp:454] inception_4e/5x5 <- inception_4e/5x5_reduce
I1105 17:44:53.359832 24642 net.cpp:411] inception_4e/5x5 -> inception_4e/5x5
I1105 17:44:53.362313 24642 cudnn_conv_layer.cpp:194] Reallocating workspace storage: 13080
I1105 17:44:53.362366 24642 net.cpp:150] Setting up inception_4e/5x5
I1105 17:44:53.362380 24642 net.cpp:157] Top shape: 50 128 14 14 (1254400)
I1105 17:44:53.362388 24642 net.cpp:165] Memory required for data: 2582736616
I1105 17:44:53.362402 24642 layer_factory.hpp:76] Creating layer inception_4e/prelu_5x5
I1105 17:44:53.362419 24642 net.cpp:106] Creating Layer inception_4e/prelu_5x5
I1105 17:44:53.362431 24642 net.cpp:454] inception_4e/prelu_5x5 <- inception_4e/5x5
I1105 17:44:53.362444 24642 net.cpp:397] inception_4e/prelu_5x5 -> inception_4e/5x5 (in-place)
I1105 17:44:53.362546 24642 net.cpp:150] Setting up inception_4e/prelu_5x5
I1105 17:44:53.362558 24642 net.cpp:157] Top shape: 50 128 14 14 (1254400)
I1105 17:44:53.362566 24642 net.cpp:165] Memory required for data: 2587754216
I1105 17:44:53.362577 24642 layer_factory.hpp:76] Creating layer inception_4e/pool
I1105 17:44:53.362591 24642 net.cpp:106] Creating Layer inception_4e/pool
I1105 17:44:53.362599 24642 net.cpp:454] inception_4e/pool <- inception_4d/output_inception_4d/output_0_split_4
I1105 17:44:53.362613 24642 net.cpp:411] inception_4e/pool -> inception_4e/pool
I1105 17:44:53.362826 24642 net.cpp:150] Setting up inception_4e/pool
I1105 17:44:53.362841 24642 net.cpp:157] Top shape: 50 528 14 14 (5174400)
I1105 17:44:53.362849 24642 net.cpp:165] Memory required for data: 2608451816
I1105 17:44:53.362865 24642 layer_factory.hpp:76] Creating layer inception_4e/pool_proj
I1105 17:44:53.362879 24642 net.cpp:106] Creating Layer inception_4e/pool_proj
I1105 17:44:53.362890 24642 net.cpp:454] inception_4e/pool_proj <- inception_4e/pool
I1105 17:44:53.362905 24642 net.cpp:411] inception_4e/pool_proj -> inception_4e/pool_proj
I1105 17:44:53.377982 24642 cudnn_conv_layer.cpp:194] Reallocating workspace storage: 10080
I1105 17:44:53.378069 24642 net.cpp:150] Setting up inception_4e/pool_proj
I1105 17:44:53.378089 24642 net.cpp:157] Top shape: 50 128 14 14 (1254400)
I1105 17:44:53.378099 24642 net.cpp:165] Memory required for data: 2613469416
I1105 17:44:53.378119 24642 layer_factory.hpp:76] Creating layer inception_4e/prelu_pool_proj
I1105 17:44:53.378162 24642 net.cpp:106] Creating Layer inception_4e/prelu_pool_proj
I1105 17:44:53.378176 24642 net.cpp:454] inception_4e/prelu_pool_proj <- inception_4e/pool_proj
I1105 17:44:53.378191 24642 net.cpp:397] inception_4e/prelu_pool_proj -> inception_4e/pool_proj (in-place)
I1105 17:44:53.378331 24642 net.cpp:150] Setting up inception_4e/prelu_pool_proj
I1105 17:44:53.378345 24642 net.cpp:157] Top shape: 50 128 14 14 (1254400)
I1105 17:44:53.378352 24642 net.cpp:165] Memory required for data: 2618487016
I1105 17:44:53.378365 24642 layer_factory.hpp:76] Creating layer inception_4e/output
I1105 17:44:53.378381 24642 net.cpp:106] Creating Layer inception_4e/output
I1105 17:44:53.378391 24642 net.cpp:454] inception_4e/output <- inception_4e/1x1
I1105 17:44:53.378402 24642 net.cpp:454] inception_4e/output <- inception_4e/3x3
I1105 17:44:53.378413 24642 net.cpp:454] inception_4e/output <- inception_4e/5x5
I1105 17:44:53.378427 24642 net.cpp:454] inception_4e/output <- inception_4e/pool_proj
I1105 17:44:53.378437 24642 net.cpp:411] inception_4e/output -> inception_4e/output
I1105 17:44:53.378476 24642 net.cpp:150] Setting up inception_4e/output
I1105 17:44:53.378489 24642 net.cpp:157] Top shape: 50 832 14 14 (8153600)
I1105 17:44:53.378496 24642 net.cpp:165] Memory required for data: 2651101416
I1105 17:44:53.378504 24642 layer_factory.hpp:76] Creating layer pool4/3x3_s2
I1105 17:44:53.378520 24642 net.cpp:106] Creating Layer pool4/3x3_s2
I1105 17:44:53.378528 24642 net.cpp:454] pool4/3x3_s2 <- inception_4e/output
I1105 17:44:53.378542 24642 net.cpp:411] pool4/3x3_s2 -> pool4/3x3_s2
I1105 17:44:53.378803 24642 net.cpp:150] Setting up pool4/3x3_s2
I1105 17:44:53.378818 24642 net.cpp:157] Top shape: 50 832 7 7 (2038400)
I1105 17:44:53.378824 24642 net.cpp:165] Memory required for data: 2659255016
I1105 17:44:53.378834 24642 layer_factory.hpp:76] Creating layer pool4/3x3_s2_pool4/3x3_s2_0_split
I1105 17:44:53.378846 24642 net.cpp:106] Creating Layer pool4/3x3_s2_pool4/3x3_s2_0_split
I1105 17:44:53.378854 24642 net.cpp:454] pool4/3x3_s2_pool4/3x3_s2_0_split <- pool4/3x3_s2
I1105 17:44:53.378876 24642 net.cpp:411] pool4/3x3_s2_pool4/3x3_s2_0_split -> pool4/3x3_s2_pool4/3x3_s2_0_split_0
I1105 17:44:53.378893 24642 net.cpp:411] pool4/3x3_s2_pool4/3x3_s2_0_split -> pool4/3x3_s2_pool4/3x3_s2_0_split_1
I1105 17:44:53.378908 24642 net.cpp:411] pool4/3x3_s2_pool4/3x3_s2_0_split -> pool4/3x3_s2_pool4/3x3_s2_0_split_2
I1105 17:44:53.378922 24642 net.cpp:411] pool4/3x3_s2_pool4/3x3_s2_0_split -> pool4/3x3_s2_pool4/3x3_s2_0_split_3
I1105 17:44:53.379024 24642 net.cpp:150] Setting up pool4/3x3_s2_pool4/3x3_s2_0_split
I1105 17:44:53.379034 24642 net.cpp:157] Top shape: 50 832 7 7 (2038400)
I1105 17:44:53.379045 24642 net.cpp:157] Top shape: 50 832 7 7 (2038400)
I1105 17:44:53.379055 24642 net.cpp:157] Top shape: 50 832 7 7 (2038400)
I1105 17:44:53.379065 24642 net.cpp:157] Top shape: 50 832 7 7 (2038400)
I1105 17:44:53.379073 24642 net.cpp:165] Memory required for data: 2691869416
I1105 17:44:53.379081 24642 layer_factory.hpp:76] Creating layer inception_5a/1x1
I1105 17:44:53.379101 24642 net.cpp:106] Creating Layer inception_5a/1x1
I1105 17:44:53.379111 24642 net.cpp:454] inception_5a/1x1 <- pool4/3x3_s2_pool4/3x3_s2_0_split_0
I1105 17:44:53.379125 24642 net.cpp:411] inception_5a/1x1 -> inception_5a/1x1
I1105 17:44:53.382333 24642 cudnn_conv_layer.cpp:194] Reallocating workspace storage: 7428
I1105 17:44:53.382416 24642 net.cpp:150] Setting up inception_5a/1x1
I1105 17:44:53.382433 24642 net.cpp:157] Top shape: 50 256 7 7 (627200)
I1105 17:44:53.382443 24642 net.cpp:165] Memory required for data: 2694378216
I1105 17:44:53.382477 24642 layer_factory.hpp:76] Creating layer inception_5a/prelu_1x1
I1105 17:44:53.382496 24642 net.cpp:106] Creating Layer inception_5a/prelu_1x1
I1105 17:44:53.382514 24642 net.cpp:454] inception_5a/prelu_1x1 <- inception_5a/1x1
I1105 17:44:53.382539 24642 net.cpp:397] inception_5a/prelu_1x1 -> inception_5a/1x1 (in-place)
I1105 17:44:53.382660 24642 net.cpp:150] Setting up inception_5a/prelu_1x1
I1105 17:44:53.382684 24642 net.cpp:157] Top shape: 50 256 7 7 (627200)
I1105 17:44:53.382694 24642 net.cpp:165] Memory required for data: 2696887016
I1105 17:44:53.382712 24642 layer_factory.hpp:76] Creating layer inception_5a/3x3_reduce
I1105 17:44:53.382732 24642 net.cpp:106] Creating Layer inception_5a/3x3_reduce
I1105 17:44:53.382743 24642 net.cpp:454] inception_5a/3x3_reduce <- pool4/3x3_s2_pool4/3x3_s2_0_split_1
I1105 17:44:53.382760 24642 net.cpp:411] inception_5a/3x3_reduce -> inception_5a/3x3_reduce
I1105 17:44:53.385408 24642 cudnn_conv_layer.cpp:194] Reallocating workspace storage: 7428
I1105 17:44:53.385468 24642 net.cpp:150] Setting up inception_5a/3x3_reduce
I1105 17:44:53.385493 24642 net.cpp:157] Top shape: 50 160 7 7 (392000)
I1105 17:44:53.385503 24642 net.cpp:165] Memory required for data: 2698455016
I1105 17:44:53.385519 24642 layer_factory.hpp:76] Creating layer inception_5a/prelu_3x3_reduce
I1105 17:44:53.385537 24642 net.cpp:106] Creating Layer inception_5a/prelu_3x3_reduce
I1105 17:44:53.385550 24642 net.cpp:454] inception_5a/prelu_3x3_reduce <- inception_5a/3x3_reduce
I1105 17:44:53.385563 24642 net.cpp:397] inception_5a/prelu_3x3_reduce -> inception_5a/3x3_reduce (in-place)
I1105 17:44:53.385670 24642 net.cpp:150] Setting up inception_5a/prelu_3x3_reduce
I1105 17:44:53.385684 24642 net.cpp:157] Top shape: 50 160 7 7 (392000)
I1105 17:44:53.385691 24642 net.cpp:165] Memory required for data: 2700023016
I1105 17:44:53.385702 24642 layer_factory.hpp:76] Creating layer inception_5a/3x3
I1105 17:44:53.385720 24642 net.cpp:106] Creating Layer inception_5a/3x3
I1105 17:44:53.385730 24642 net.cpp:454] inception_5a/3x3 <- inception_5a/3x3_reduce
I1105 17:44:53.385746 24642 net.cpp:411] inception_5a/3x3 -> inception_5a/3x3
I1105 17:44:53.390413 24642 cudnn_conv_layer.cpp:194] Reallocating workspace storage: 7788
I1105 17:44:53.390485 24642 net.cpp:150] Setting up inception_5a/3x3
I1105 17:44:53.390501 24642 net.cpp:157] Top shape: 50 320 7 7 (784000)
I1105 17:44:53.390527 24642 net.cpp:165] Memory required for data: 2703159016
I1105 17:44:53.390543 24642 layer_factory.hpp:76] Creating layer inception_5a/prelu_3x3
I1105 17:44:53.390579 24642 net.cpp:106] Creating Layer inception_5a/prelu_3x3
I1105 17:44:53.390589 24642 net.cpp:454] inception_5a/prelu_3x3 <- inception_5a/3x3
I1105 17:44:53.390619 24642 net.cpp:397] inception_5a/prelu_3x3 -> inception_5a/3x3 (in-place)
I1105 17:44:53.390751 24642 net.cpp:150] Setting up inception_5a/prelu_3x3
I1105 17:44:53.390765 24642 net.cpp:157] Top shape: 50 320 7 7 (784000)
I1105 17:44:53.390774 24642 net.cpp:165] Memory required for data: 2706295016
I1105 17:44:53.390784 24642 layer_factory.hpp:76] Creating layer inception_5a/5x5_reduce
I1105 17:44:53.390799 24642 net.cpp:106] Creating Layer inception_5a/5x5_reduce
I1105 17:44:53.390810 24642 net.cpp:454] inception_5a/5x5_reduce <- pool4/3x3_s2_pool4/3x3_s2_0_split_2
I1105 17:44:53.390826 24642 net.cpp:411] inception_5a/5x5_reduce -> inception_5a/5x5_reduce
I1105 17:44:53.392177 24642 cudnn_conv_layer.cpp:194] Reallocating workspace storage: 7428
I1105 17:44:53.392225 24642 net.cpp:150] Setting up inception_5a/5x5_reduce
I1105 17:44:53.392237 24642 net.cpp:157] Top shape: 50 32 7 7 (78400)
I1105 17:44:53.392246 24642 net.cpp:165] Memory required for data: 2706608616
I1105 17:44:53.392259 24642 layer_factory.hpp:76] Creating layer inception_5a/prelu_5x5_reduce
I1105 17:44:53.392276 24642 net.cpp:106] Creating Layer inception_5a/prelu_5x5_reduce
I1105 17:44:53.392287 24642 net.cpp:454] inception_5a/prelu_5x5_reduce <- inception_5a/5x5_reduce
I1105 17:44:53.392299 24642 net.cpp:397] inception_5a/prelu_5x5_reduce -> inception_5a/5x5_reduce (in-place)
I1105 17:44:53.392417 24642 net.cpp:150] Setting up inception_5a/prelu_5x5_reduce
I1105 17:44:53.392429 24642 net.cpp:157] Top shape: 50 32 7 7 (78400)
I1105 17:44:53.392437 24642 net.cpp:165] Memory required for data: 2706922216
I1105 17:44:53.392448 24642 layer_factory.hpp:76] Creating layer inception_5a/5x5
I1105 17:44:53.392483 24642 net.cpp:106] Creating Layer inception_5a/5x5
I1105 17:44:53.392493 24642 net.cpp:454] inception_5a/5x5 <- inception_5a/5x5_reduce
I1105 17:44:53.392510 24642 net.cpp:411] inception_5a/5x5 -> inception_5a/5x5
I1105 17:44:53.394101 24642 cudnn_conv_layer.cpp:194] Reallocating workspace storage: 9804
I1105 17:44:53.394145 24642 net.cpp:150] Setting up inception_5a/5x5
I1105 17:44:53.394156 24642 net.cpp:157] Top shape: 50 128 7 7 (313600)
I1105 17:44:53.394165 24642 net.cpp:165] Memory required for data: 2708176616
I1105 17:44:53.394178 24642 layer_factory.hpp:76] Creating layer inception_5a/prelu_5x5
I1105 17:44:53.394194 24642 net.cpp:106] Creating Layer inception_5a/prelu_5x5
I1105 17:44:53.394206 24642 net.cpp:454] inception_5a/prelu_5x5 <- inception_5a/5x5
I1105 17:44:53.394217 24642 net.cpp:397] inception_5a/prelu_5x5 -> inception_5a/5x5 (in-place)
I1105 17:44:53.394322 24642 net.cpp:150] Setting up inception_5a/prelu_5x5
I1105 17:44:53.394335 24642 net.cpp:157] Top shape: 50 128 7 7 (313600)
I1105 17:44:53.394342 24642 net.cpp:165] Memory required for data: 2709431016
I1105 17:44:53.394353 24642 layer_factory.hpp:76] Creating layer inception_5a/pool
I1105 17:44:53.394366 24642 net.cpp:106] Creating Layer inception_5a/pool
I1105 17:44:53.394374 24642 net.cpp:454] inception_5a/pool <- pool4/3x3_s2_pool4/3x3_s2_0_split_3
I1105 17:44:53.394388 24642 net.cpp:411] inception_5a/pool -> inception_5a/pool
I1105 17:44:53.394817 24642 net.cpp:150] Setting up inception_5a/pool
I1105 17:44:53.394831 24642 net.cpp:157] Top shape: 50 832 7 7 (2038400)
I1105 17:44:53.394840 24642 net.cpp:165] Memory required for data: 2717584616
I1105 17:44:53.394848 24642 layer_factory.hpp:76] Creating layer inception_5a/pool_proj
I1105 17:44:53.394863 24642 net.cpp:106] Creating Layer inception_5a/pool_proj
I1105 17:44:53.394881 24642 net.cpp:454] inception_5a/pool_proj <- inception_5a/pool
I1105 17:44:53.394897 24642 net.cpp:411] inception_5a/pool_proj -> inception_5a/pool_proj
I1105 17:44:53.397230 24642 cudnn_conv_layer.cpp:194] Reallocating workspace storage: 7428
I1105 17:44:53.397285 24642 net.cpp:150] Setting up inception_5a/pool_proj
I1105 17:44:53.397300 24642 net.cpp:157] Top shape: 50 128 7 7 (313600)
I1105 17:44:53.397308 24642 net.cpp:165] Memory required for data: 2718839016
I1105 17:44:53.397323 24642 layer_factory.hpp:76] Creating layer inception_5a/prelu_pool_proj
I1105 17:44:53.397341 24642 net.cpp:106] Creating Layer inception_5a/prelu_pool_proj
I1105 17:44:53.397352 24642 net.cpp:454] inception_5a/prelu_pool_proj <- inception_5a/pool_proj
I1105 17:44:53.397367 24642 net.cpp:397] inception_5a/prelu_pool_proj -> inception_5a/pool_proj (in-place)
I1105 17:44:53.397477 24642 net.cpp:150] Setting up inception_5a/prelu_pool_proj
I1105 17:44:53.397490 24642 net.cpp:157] Top shape: 50 128 7 7 (313600)
I1105 17:44:53.397500 24642 net.cpp:165] Memory required for data: 2720093416
I1105 17:44:53.397510 24642 layer_factory.hpp:76] Creating layer inception_5a/output
I1105 17:44:53.397522 24642 net.cpp:106] Creating Layer inception_5a/output
I1105 17:44:53.397531 24642 net.cpp:454] inception_5a/output <- inception_5a/1x1
I1105 17:44:53.397542 24642 net.cpp:454] inception_5a/output <- inception_5a/3x3
I1105 17:44:53.397552 24642 net.cpp:454] inception_5a/output <- inception_5a/5x5
I1105 17:44:53.397562 24642 net.cpp:454] inception_5a/output <- inception_5a/pool_proj
I1105 17:44:53.397572 24642 net.cpp:411] inception_5a/output -> inception_5a/output
I1105 17:44:53.397608 24642 net.cpp:150] Setting up inception_5a/output
I1105 17:44:53.397619 24642 net.cpp:157] Top shape: 50 832 7 7 (2038400)
I1105 17:44:53.397627 24642 net.cpp:165] Memory required for data: 2728247016
I1105 17:44:53.397635 24642 layer_factory.hpp:76] Creating layer inception_5a/output_inception_5a/output_0_split
I1105 17:44:53.397655 24642 net.cpp:106] Creating Layer inception_5a/output_inception_5a/output_0_split
I1105 17:44:53.397665 24642 net.cpp:454] inception_5a/output_inception_5a/output_0_split <- inception_5a/output
I1105 17:44:53.397686 24642 net.cpp:411] inception_5a/output_inception_5a/output_0_split -> inception_5a/output_inception_5a/output_0_split_0
I1105 17:44:53.397713 24642 net.cpp:411] inception_5a/output_inception_5a/output_0_split -> inception_5a/output_inception_5a/output_0_split_1
I1105 17:44:53.397730 24642 net.cpp:411] inception_5a/output_inception_5a/output_0_split -> inception_5a/output_inception_5a/output_0_split_2
I1105 17:44:53.397747 24642 net.cpp:411] inception_5a/output_inception_5a/output_0_split -> inception_5a/output_inception_5a/output_0_split_3
I1105 17:44:53.397819 24642 net.cpp:150] Setting up inception_5a/output_inception_5a/output_0_split
I1105 17:44:53.397831 24642 net.cpp:157] Top shape: 50 832 7 7 (2038400)
I1105 17:44:53.397841 24642 net.cpp:157] Top shape: 50 832 7 7 (2038400)
I1105 17:44:53.397852 24642 net.cpp:157] Top shape: 50 832 7 7 (2038400)
I1105 17:44:53.397862 24642 net.cpp:157] Top shape: 50 832 7 7 (2038400)
I1105 17:44:53.397869 24642 net.cpp:165] Memory required for data: 2760861416
I1105 17:44:53.397878 24642 layer_factory.hpp:76] Creating layer inception_5b/1x1
I1105 17:44:53.397896 24642 net.cpp:106] Creating Layer inception_5b/1x1
I1105 17:44:53.397907 24642 net.cpp:454] inception_5b/1x1 <- inception_5a/output_inception_5a/output_0_split_0
I1105 17:44:53.397919 24642 net.cpp:411] inception_5b/1x1 -> inception_5b/1x1
I1105 17:44:53.401516 24642 cudnn_conv_layer.cpp:194] Reallocating workspace storage: 7428
I1105 17:44:53.401576 24642 net.cpp:150] Setting up inception_5b/1x1
I1105 17:44:53.401592 24642 net.cpp:157] Top shape: 50 384 7 7 (940800)
I1105 17:44:53.401599 24642 net.cpp:165] Memory required for data: 2764624616
I1105 17:44:53.401623 24642 layer_factory.hpp:76] Creating layer inception_5b/prelu_1x1
I1105 17:44:53.401643 24642 net.cpp:106] Creating Layer inception_5b/prelu_1x1
I1105 17:44:53.401655 24642 net.cpp:454] inception_5b/prelu_1x1 <- inception_5b/1x1
I1105 17:44:53.401669 24642 net.cpp:397] inception_5b/prelu_1x1 -> inception_5b/1x1 (in-place)
I1105 17:44:53.401800 24642 net.cpp:150] Setting up inception_5b/prelu_1x1
I1105 17:44:53.401813 24642 net.cpp:157] Top shape: 50 384 7 7 (940800)
I1105 17:44:53.401821 24642 net.cpp:165] Memory required for data: 2768387816
I1105 17:44:53.401832 24642 layer_factory.hpp:76] Creating layer inception_5b/3x3_reduce
I1105 17:44:53.401850 24642 net.cpp:106] Creating Layer inception_5b/3x3_reduce
I1105 17:44:53.401862 24642 net.cpp:454] inception_5b/3x3_reduce <- inception_5a/output_inception_5a/output_0_split_1
I1105 17:44:53.401876 24642 net.cpp:411] inception_5b/3x3_reduce -> inception_5b/3x3_reduce
I1105 17:44:53.404584 24642 cudnn_conv_layer.cpp:194] Reallocating workspace storage: 7428
I1105 17:44:53.404662 24642 net.cpp:150] Setting up inception_5b/3x3_reduce
I1105 17:44:53.404680 24642 net.cpp:157] Top shape: 50 192 7 7 (470400)
I1105 17:44:53.404690 24642 net.cpp:165] Memory required for data: 2770269416
I1105 17:44:53.404707 24642 layer_factory.hpp:76] Creating layer inception_5b/prelu_3x3_reduce
I1105 17:44:53.404732 24642 net.cpp:106] Creating Layer inception_5b/prelu_3x3_reduce
I1105 17:44:53.404744 24642 net.cpp:454] inception_5b/prelu_3x3_reduce <- inception_5b/3x3_reduce
I1105 17:44:53.404759 24642 net.cpp:397] inception_5b/prelu_3x3_reduce -> inception_5b/3x3_reduce (in-place)
I1105 17:44:53.404891 24642 net.cpp:150] Setting up inception_5b/prelu_3x3_reduce
I1105 17:44:53.404904 24642 net.cpp:157] Top shape: 50 192 7 7 (470400)
I1105 17:44:53.404912 24642 net.cpp:165] Memory required for data: 2772151016
I1105 17:44:53.404923 24642 layer_factory.hpp:76] Creating layer inception_5b/3x3
I1105 17:44:53.404943 24642 net.cpp:106] Creating Layer inception_5b/3x3
I1105 17:44:53.404953 24642 net.cpp:454] inception_5b/3x3 <- inception_5b/3x3_reduce
I1105 17:44:53.404970 24642 net.cpp:411] inception_5b/3x3 -> inception_5b/3x3
I1105 17:44:53.411602 24642 cudnn_conv_layer.cpp:194] Reallocating workspace storage: 7788
I1105 17:44:53.411686 24642 net.cpp:150] Setting up inception_5b/3x3
I1105 17:44:53.411708 24642 net.cpp:157] Top shape: 50 384 7 7 (940800)
I1105 17:44:53.411743 24642 net.cpp:165] Memory required for data: 2775914216
I1105 17:44:53.411761 24642 layer_factory.hpp:76] Creating layer inception_5b/prelu_3x3
I1105 17:44:53.411782 24642 net.cpp:106] Creating Layer inception_5b/prelu_3x3
I1105 17:44:53.411795 24642 net.cpp:454] inception_5b/prelu_3x3 <- inception_5b/3x3
I1105 17:44:53.411813 24642 net.cpp:397] inception_5b/prelu_3x3 -> inception_5b/3x3 (in-place)
I1105 17:44:53.411962 24642 net.cpp:150] Setting up inception_5b/prelu_3x3
I1105 17:44:53.411975 24642 net.cpp:157] Top shape: 50 384 7 7 (940800)
I1105 17:44:53.411983 24642 net.cpp:165] Memory required for data: 2779677416
I1105 17:44:53.411994 24642 layer_factory.hpp:76] Creating layer inception_5b/5x5_reduce
I1105 17:44:53.412012 24642 net.cpp:106] Creating Layer inception_5b/5x5_reduce
I1105 17:44:53.412024 24642 net.cpp:454] inception_5b/5x5_reduce <- inception_5a/output_inception_5a/output_0_split_2
I1105 17:44:53.412039 24642 net.cpp:411] inception_5b/5x5_reduce -> inception_5b/5x5_reduce
I1105 17:44:53.413728 24642 cudnn_conv_layer.cpp:194] Reallocating workspace storage: 7428
I1105 17:44:53.413774 24642 net.cpp:150] Setting up inception_5b/5x5_reduce
I1105 17:44:53.413786 24642 net.cpp:157] Top shape: 50 48 7 7 (117600)
I1105 17:44:53.413795 24642 net.cpp:165] Memory required for data: 2780147816
I1105 17:44:53.413811 24642 layer_factory.hpp:76] Creating layer inception_5b/prelu_5x5_reduce
I1105 17:44:53.413826 24642 net.cpp:106] Creating Layer inception_5b/prelu_5x5_reduce
I1105 17:44:53.413836 24642 net.cpp:454] inception_5b/prelu_5x5_reduce <- inception_5b/5x5_reduce
I1105 17:44:53.413852 24642 net.cpp:397] inception_5b/prelu_5x5_reduce -> inception_5b/5x5_reduce (in-place)
I1105 17:44:53.413979 24642 net.cpp:150] Setting up inception_5b/prelu_5x5_reduce
I1105 17:44:53.413990 24642 net.cpp:157] Top shape: 50 48 7 7 (117600)
I1105 17:44:53.413998 24642 net.cpp:165] Memory required for data: 2780618216
I1105 17:44:53.414010 24642 layer_factory.hpp:76] Creating layer inception_5b/5x5
I1105 17:44:53.414026 24642 net.cpp:106] Creating Layer inception_5b/5x5
I1105 17:44:53.414037 24642 net.cpp:454] inception_5b/5x5 <- inception_5b/5x5_reduce
I1105 17:44:53.414050 24642 net.cpp:411] inception_5b/5x5 -> inception_5b/5x5
I1105 17:44:53.416174 24642 cudnn_conv_layer.cpp:194] Reallocating workspace storage: 9804
I1105 17:44:53.416224 24642 net.cpp:150] Setting up inception_5b/5x5
I1105 17:44:53.416236 24642 net.cpp:157] Top shape: 50 128 7 7 (313600)
I1105 17:44:53.416244 24642 net.cpp:165] Memory required for data: 2781872616
I1105 17:44:53.416257 24642 layer_factory.hpp:76] Creating layer inception_5b/prelu_5x5
I1105 17:44:53.416271 24642 net.cpp:106] Creating Layer inception_5b/prelu_5x5
I1105 17:44:53.416282 24642 net.cpp:454] inception_5b/prelu_5x5 <- inception_5b/5x5
I1105 17:44:53.416297 24642 net.cpp:397] inception_5b/prelu_5x5 -> inception_5b/5x5 (in-place)
I1105 17:44:53.416407 24642 net.cpp:150] Setting up inception_5b/prelu_5x5
I1105 17:44:53.416419 24642 net.cpp:157] Top shape: 50 128 7 7 (313600)
I1105 17:44:53.416427 24642 net.cpp:165] Memory required for data: 2783127016
I1105 17:44:53.416438 24642 layer_factory.hpp:76] Creating layer inception_5b/pool
I1105 17:44:53.416450 24642 net.cpp:106] Creating Layer inception_5b/pool
I1105 17:44:53.416460 24642 net.cpp:454] inception_5b/pool <- inception_5a/output_inception_5a/output_0_split_3
I1105 17:44:53.416471 24642 net.cpp:411] inception_5b/pool -> inception_5b/pool
I1105 17:44:53.416692 24642 net.cpp:150] Setting up inception_5b/pool
I1105 17:44:53.416704 24642 net.cpp:157] Top shape: 50 832 7 7 (2038400)
I1105 17:44:53.416712 24642 net.cpp:165] Memory required for data: 2791280616
I1105 17:44:53.416720 24642 layer_factory.hpp:76] Creating layer inception_5b/pool_proj
I1105 17:44:53.416743 24642 net.cpp:106] Creating Layer inception_5b/pool_proj
I1105 17:44:53.416754 24642 net.cpp:454] inception_5b/pool_proj <- inception_5b/pool
I1105 17:44:53.416769 24642 net.cpp:411] inception_5b/pool_proj -> inception_5b/pool_proj
I1105 17:44:53.419109 24642 cudnn_conv_layer.cpp:194] Reallocating workspace storage: 7428
I1105 17:44:53.419179 24642 net.cpp:150] Setting up inception_5b/pool_proj
I1105 17:44:53.419200 24642 net.cpp:157] Top shape: 50 128 7 7 (313600)
I1105 17:44:53.419209 24642 net.cpp:165] Memory required for data: 2792535016
I1105 17:44:53.419225 24642 layer_factory.hpp:76] Creating layer inception_5b/prelu_pool_proj
I1105 17:44:53.419245 24642 net.cpp:106] Creating Layer inception_5b/prelu_pool_proj
I1105 17:44:53.419257 24642 net.cpp:454] inception_5b/prelu_pool_proj <- inception_5b/pool_proj
I1105 17:44:53.419272 24642 net.cpp:397] inception_5b/prelu_pool_proj -> inception_5b/pool_proj (in-place)
I1105 17:44:53.419383 24642 net.cpp:150] Setting up inception_5b/prelu_pool_proj
I1105 17:44:53.419394 24642 net.cpp:157] Top shape: 50 128 7 7 (313600)
I1105 17:44:53.419404 24642 net.cpp:165] Memory required for data: 2793789416
I1105 17:44:53.419414 24642 layer_factory.hpp:76] Creating layer inception_5b/output
I1105 17:44:53.419427 24642 net.cpp:106] Creating Layer inception_5b/output
I1105 17:44:53.419436 24642 net.cpp:454] inception_5b/output <- inception_5b/1x1
I1105 17:44:53.419447 24642 net.cpp:454] inception_5b/output <- inception_5b/3x3
I1105 17:44:53.419464 24642 net.cpp:454] inception_5b/output <- inception_5b/5x5
I1105 17:44:53.419473 24642 net.cpp:454] inception_5b/output <- inception_5b/pool_proj
I1105 17:44:53.419488 24642 net.cpp:411] inception_5b/output -> inception_5b/output
I1105 17:44:53.419528 24642 net.cpp:150] Setting up inception_5b/output
I1105 17:44:53.419539 24642 net.cpp:157] Top shape: 50 1024 7 7 (2508800)
I1105 17:44:53.419546 24642 net.cpp:165] Memory required for data: 2803824616
I1105 17:44:53.419554 24642 layer_factory.hpp:76] Creating layer pool5/7x7_s1
I1105 17:44:53.419566 24642 net.cpp:106] Creating Layer pool5/7x7_s1
I1105 17:44:53.419575 24642 net.cpp:454] pool5/7x7_s1 <- inception_5b/output
I1105 17:44:53.419586 24642 net.cpp:411] pool5/7x7_s1 -> pool5/7x7_s1
I1105 17:44:53.420006 24642 net.cpp:150] Setting up pool5/7x7_s1
I1105 17:44:53.420018 24642 net.cpp:157] Top shape: 50 1024 1 1 (51200)
I1105 17:44:53.420027 24642 net.cpp:165] Memory required for data: 2804029416
I1105 17:44:53.420035 24642 layer_factory.hpp:76] Creating layer pool5/drop_7x7_s1
I1105 17:44:53.420055 24642 net.cpp:106] Creating Layer pool5/drop_7x7_s1
I1105 17:44:53.420064 24642 net.cpp:454] pool5/drop_7x7_s1 <- pool5/7x7_s1
I1105 17:44:53.420078 24642 net.cpp:397] pool5/drop_7x7_s1 -> pool5/7x7_s1 (in-place)
I1105 17:44:53.420120 24642 net.cpp:150] Setting up pool5/drop_7x7_s1
I1105 17:44:53.420132 24642 net.cpp:157] Top shape: 50 1024 1 1 (51200)
I1105 17:44:53.420140 24642 net.cpp:165] Memory required for data: 2804234216
I1105 17:44:53.420148 24642 layer_factory.hpp:76] Creating layer loss3/classifier2
I1105 17:44:53.420163 24642 net.cpp:106] Creating Layer loss3/classifier2
I1105 17:44:53.420172 24642 net.cpp:454] loss3/classifier2 <- pool5/7x7_s1
I1105 17:44:53.420186 24642 net.cpp:411] loss3/classifier2 -> loss3/classifier
I1105 17:44:53.420343 24642 net.cpp:150] Setting up loss3/classifier2
I1105 17:44:53.420356 24642 net.cpp:157] Top shape: 50 2 (100)
I1105 17:44:53.420363 24642 net.cpp:165] Memory required for data: 2804234616
I1105 17:44:53.420377 24642 layer_factory.hpp:76] Creating layer loss3/classifier_loss3/classifier2_0_split
I1105 17:44:53.420388 24642 net.cpp:106] Creating Layer loss3/classifier_loss3/classifier2_0_split
I1105 17:44:53.420397 24642 net.cpp:454] loss3/classifier_loss3/classifier2_0_split <- loss3/classifier
I1105 17:44:53.420408 24642 net.cpp:411] loss3/classifier_loss3/classifier2_0_split -> loss3/classifier_loss3/classifier2_0_split_0
I1105 17:44:53.420421 24642 net.cpp:411] loss3/classifier_loss3/classifier2_0_split -> loss3/classifier_loss3/classifier2_0_split_1
I1105 17:44:53.420475 24642 net.cpp:150] Setting up loss3/classifier_loss3/classifier2_0_split
I1105 17:44:53.420486 24642 net.cpp:157] Top shape: 50 2 (100)
I1105 17:44:53.420495 24642 net.cpp:157] Top shape: 50 2 (100)
I1105 17:44:53.420505 24642 net.cpp:165] Memory required for data: 2804235416
I1105 17:44:53.420522 24642 layer_factory.hpp:76] Creating layer loss3/loss3
I1105 17:44:53.420536 24642 net.cpp:106] Creating Layer loss3/loss3
I1105 17:44:53.420544 24642 net.cpp:454] loss3/loss3 <- loss3/classifier_loss3/classifier2_0_split_0
I1105 17:44:53.420557 24642 net.cpp:454] loss3/loss3 <- label_data_1_split_4
…
