…
I1126 10:23:05.735615 10372 net.cpp:322] The NetState phase (0) differed from the phase (1) specified by a rule in layer loss3/top-1
I1126 10:23:05.736882 10372 net.cpp:49] Initializing net from parameters: 
name: "GoogleNet"
state {
  phase: TRAIN
}
layer {
  name: "data"
  type: "Data"
  top: "data"
  top: "label"
  include {
    phase: TRAIN
  }
  transform_param {
    mirror: true
    crop_size: 224
    mean_value: 104
    mean_value: 117
    mean_value: 123
  }
  data_param {
    source: "../../LMDB-s300/train_5-lmdb"
    batch_size: 32
    backend: LMDB
  }
}
layer {
  name: "conv1/7x7_s2"
  type: "Convolution"
  bottom: "data"
  top: "conv1/7x7_s2"
  param {
    lr_mult: 1
    decay_mult: 1
  }
  param {
    lr_mult: 2
    decay_mult: 0
  }
  convolution_param {
    num_output: 64
    pad: 3
    kernel_size: 7
    stride: 2
    weight_filler {
      type: "xavier"
    }
    bias_filler {
      type: "constant"
      value: 0.2
    }
  }
}
layer {
  name: "conv1/prelu_7x7"
  type: "PReLU"
  bottom: "conv1/7x7_s2"
  top: "conv1/7x7_s2"
  param {
    lr_mult: 1
    decay_mult: 0
  }
  prelu_param {
    filler {
      type: "constant"
      value: 0.01
    }
  }
}
layer {
  name: "pool1/3x3_s2"
  type: "Pooling"
  bottom: "conv1/7x7_s2"
  top: "pool1/3x3_s2"
  pooling_param {
    pool: MAX
    kernel_size: 3
    stride: 2
  }
}
layer {
  name: "pool1/norm1"
  type: "LRN"
  bottom: "pool1/3x3_s2"
  top: "pool1/norm1"
  lrn_param {
    local_size: 5
    alpha: 0.0001
    beta: 0.75
  }
}
layer {
  name: "conv2/3x3_reduce"
  type: "Convolution"
  bottom: "pool1/norm1"
  top: "conv2/3x3_reduce"
  param {
    lr_mult: 1
    decay_mult: 1
  }
  param {
    lr_mult: 2
    decay_mult: 0
  }
  convolution_param {
    num_output: 64
    kernel_size: 1
    weight_filler {
      type: "xavier"
    }
    bias_filler {
      type: "constant"
      value: 0.2
    }
  }
}
layer {
  name: "conv2/prelu_3x3_reduce"
  type: "PReLU"
  bottom: "conv2/3x3_reduce"
  top: "conv2/3x3_reduce"
  param {
    lr_mult: 1
    decay_mult: 0
  }
  prelu_param {
    filler {
      type: "constant"
      value: 0.01
    }
  }
}
layer {
  name: "conv2/3x3"
  type: "Convolution"
  bottom: "conv2/3x3_reduce"
  top: "conv2/3x3"
  param {
    lr_mult: 1
    decay_mult: 1
  }
  param {
    lr_mult: 2
    decay_mult: 0
  }
  convolution_param {
    num_output: 192
    pad: 1
    kernel_size: 3
    weight_filler {
      type: "xavier"
    }
    bias_filler {
      type: "constant"
      value: 0.2
    }
  }
}
layer {
  name: "conv2/prelu_3x3"
  type: "PReLU"
  bottom: "conv2/3x3"
  top: "conv2/3x3"
  param {
    lr_mult: 1
    decay_mult: 0
  }
  prelu_param {
    filler {
      type: "constant"
      value: 0.01
    }
  }
}
layer {
  name: "conv2/norm2"
  type: "LRN"
  bottom: "conv2/3x3"
  top: "conv2/norm2"
  lrn_param {
    local_size: 5
    alpha: 0.0001
    beta: 0.75
  }
}
layer {
  name: "pool2/3x3_s2"
  type: "Pooling"
  bottom: "conv2/norm2"
  top: "pool2/3x3_s2"
  pooling_param {
    pool: MAX
    kernel_size: 3
    stride: 2
  }
}
layer {
  name: "inception_3a/1x1"
  type: "Convolution"
  bottom: "pool2/3x3_s2"
  top: "inception_3a/1x1"
  param {
    lr_mult: 1
    decay_mult: 1
  }
  param {
    lr_mult: 2
    decay_mult: 0
  }
  convolution_param {
    num_output: 64
    kernel_size: 1
    weight_filler {
      type: "xavier"
    }
    bias_filler {
      type: "constant"
      value: 0.2
    }
  }
}
layer {
  name: "inception_3a/prelu_1x1"
  type: "PReLU"
  bottom: "inception_3a/1x1"
  top: "inception_3a/1x1"
  param {
    lr_mult: 1
    decay_mult: 0
  }
  prelu_param {
    filler {
      type: "constant"
      value: 0.01
    }
  }
}
layer {
  name: "inception_3a/3x3_reduce"
  type: "Convolution"
  bottom: "pool2/3x3_s2"
  top: "inception_3a/3x3_reduce"
  param {
    lr_mult: 1
    decay_mult: 1
  }
  param {
    lr_mult: 2
    decay_mult: 0
  }
  convolution_param {
    num_output: 96
    kernel_size: 1
    weight_filler {
      type: "xavier"
    }
    bias_filler {
      type: "constant"
      value: 0.2
    }
  }
}
layer {
  name: "inception_3a/prelu_3x3_reduce"
  type: "PReLU"
  bottom: "inception_3a/3x3_reduce"
  top: "inception_3a/3x3_reduce"
  param {
    lr_mult: 1
    decay_mult: 0
  }
  prelu_param {
    filler {
      type: "constant"
      value: 0.01
    }
  }
}
layer {
  name: "inception_3a/3x3"
  type: "Convolution"
  bottom: "inception_3a/3x3_reduce"
  top: "inception_3a/3x3"
  param {
    lr_mult: 1
    decay_mult: 1
  }
  param {
    lr_mult: 2
    decay_mult: 0
  }
  convolution_param {
    num_output: 128
    pad: 1
    kernel_size: 3
    weight_filler {
      type: "xavier"
    }
    bias_filler {
      type: "constant"
      value: 0.2
    }
  }
}
layer {
  name: "inception_3a/prelu_3x3"
  type: "PReLU"
  bottom: "inception_3a/3x3"
  top: "inception_3a/3x3"
  param {
    lr_mult: 1
    decay_mult: 0
  }
  prelu_param {
    filler {
      type: "constant"
      value: 0.01
    }
  }
}
layer {
  name: "inception_3a/5x5_reduce"
  type: "Convolution"
  bottom: "pool2/3x3_s2"
  top: "inception_3a/5x5_reduce"
  param {
    lr_mult: 1
    decay_mult: 1
  }
  param {
    lr_mult: 2
    decay_mult: 0
  }
  convolution_param {
    num_output: 16
    kernel_size: 1
    weight_filler {
      type: "xavier"
    }
    bias_filler {
      type: "constant"
      value: 0.2
    }
  }
}
layer {
  name: "inception_3a/prelu_5x5_reduce"
  type: "PReLU"
  bottom: "inception_3a/5x5_reduce"
  top: "inception_3a/5x5_reduce"
  param {
    lr_mult: 1
    decay_mult: 0
  }
  prelu_param {
    filler {
      type: "constant"
      value: 0.01
    }
  }
}
layer {
  name: "inception_3a/5x5"
  type: "Convolution"
  bottom: "inception_3a/5x5_reduce"
  top: "inception_3a/5x5"
  param {
    lr_mult: 1
    decay_mult: 1
  }
  param {
    lr_mult: 2
    decay_mult: 0
  }
  convolution_param {
    num_output: 32
    pad: 2
    kernel_size: 5
    weight_filler {
      type: "xavier"
    }
    bias_filler {
      type: "constant"
      value: 0.2
    }
  }
}
layer {
  name: "inception_3a/prelu_5x5"
  type: "PReLU"
  bottom: "inception_3a/5x5"
  top: "inception_3a/5x5"
  param {
    lr_mult: 1
    decay_mult: 0
  }
  prelu_param {
    filler {
      type: "constant"
      value: 0.01
    }
  }
}
layer {
  name: "inception_3a/pool"
  type: "Pooling"
  bottom: "pool2/3x3_s2"
  top: "inception_3a/pool"
  pooling_param {
    pool: MAX
    kernel_size: 3
    stride: 1
    pad: 1
  }
}
layer {
  name: "inception_3a/pool_proj"
  type: "Convolution"
  bottom: "inception_3a/pool"
  top: "inception_3a/pool_proj"
  param {
    lr_mult: 1
    decay_mult: 1
  }
  param {
    lr_mult: 2
    decay_mult: 0
  }
  convolution_param {
    num_output: 32
    kernel_size: 1
    weight_filler {
      type: "xavier"
    }
    bias_filler {
      type: "constant"
      value: 0.2
    }
  }
}
layer {
  name: "inception_3a/prelu_pool_proj"
  type: "PReLU"
  bottom: "inception_3a/pool_proj"
  top: "inception_3a/pool_proj"
  param {
    lr_mult: 1
    decay_mult: 0
  }
  prelu_param {
    filler {
      type: "constant"
      value: 0.01
    }
  }
}
layer {
  name: "inception_3a/output"
  type: "Concat"
  bottom: "inception_3a/1x1"
  bottom: "inception_3a/3x3"
  bottom: "inception_3a/5x5"
  bottom: "inception_3a/pool_proj"
  top: "inception_3a/output"
}
layer {
  name: "inception_3b/1x1"
  type: "Convolution"
  bottom: "inception_3a/output"
  top: "inception_3b/1x1"
  param {
    lr_mult: 1
    decay_mult: 1
  }
  param {
    lr_mult: 2
    decay_mult: 0
  }
  convolution_param {
    num_output: 128
    kernel_size: 1
    weight_filler {
      type: "xavier"
    }
    bias_filler {
      type: "constant"
      value: 0.2
    }
  }
}
layer {
  name: "inception_3b/prelu_1x1"
  type: "PReLU"
  bottom: "inception_3b/1x1"
  top: "inception_3b/1x1"
  param {
    lr_mult: 1
    decay_mult: 0
  }
  prelu_param {
    filler {
      type: "constant"
      value: 0.01
    }
  }
}
layer {
  name: "inception_3b/3x3_reduce"
  type: "Convolution"
  bottom: "inception_3a/output"
  top: "inception_3b/3x3_reduce"
  param {
    lr_mult: 1
    decay_mult: 1
  }
  param {
    lr_mult: 2
    decay_mult: 0
  }
  convolution_param {
    num_output: 128
    kernel_size: 1
    weight_filler {
      type: "xavier"
    }
    bias_filler {
      type: "constant"
      value: 0.2
    }
  }
}
layer {
  name: "inception_3b/prelu_3x3_reduce"
  type: "PReLU"
  bottom: "inception_3b/3x3_reduce"
  top: "inception_3b/3x3_reduce"
  param {
    lr_mult: 1
    decay_mult: 0
  }
  prelu_param {
    filler {
      type: "constant"
      value: 0.01
    }
  }
}
layer {
  name: "inception_3b/3x3"
  type: "Convolution"
  bottom: "inception_3b/3x3_reduce"
  top: "inception_3b/3x3"
  param {
    lr_mult: 1
    decay_mult: 1
  }
  param {
    lr_mult: 2
    decay_mult: 0
  }
  convolution_param {
    num_output: 192
    pad: 1
    kernel_size: 3
    weight_filler {
      type: "xavier"
    }
    bias_filler {
      type: "constant"
      value: 0.2
    }
  }
}
layer {
  name: "inception_3b/prelu_3x3"
  type: "PReLU"
  bottom: "inception_3b/3x3"
  top: "inception_3b/3x3"
  param {
    lr_mult: 1
    decay_mult: 0
  }
  prelu_param {
    filler {
      type: "constant"
      value: 0.01
    }
  }
}
layer {
  name: "inception_3b/5x5_reduce"
  type: "Convolution"
  bottom: "inception_3a/output"
  top: "inception_3b/5x5_reduce"
  param {
    lr_mult: 1
    decay_mult: 1
  }
  param {
    lr_mult: 2
    decay_mult: 0
  }
  convolution_param {
    num_output: 32
    kernel_size: 1
    weight_filler {
      type: "xavier"
    }
    bias_filler {
      type: "constant"
      value: 0.2
    }
  }
}
layer {
  name: "inception_3b/prelu_5x5_reduce"
  type: "PReLU"
  bottom: "inception_3b/5x5_reduce"
  top: "inception_3b/5x5_reduce"
  param {
    lr_mult: 1
    decay_mult: 0
  }
  prelu_param {
    filler {
      type: "constant"
      value: 0.01
    }
  }
}
layer {
  name: "inception_3b/5x5"
  type: "Convolution"
  bottom: "inception_3b/5x5_reduce"
  top: "inception_3b/5x5"
  param {
    lr_mult: 1
    decay_mult: 1
  }
  param {
    lr_mult: 2
    decay_mult: 0
  }
  convolution_param {
    num_output: 96
    pad: 2
    kernel_size: 5
    weight_filler {
      type: "xavier"
    }
    bias_filler {
      type: "constant"
      value: 0.2
    }
  }
}
layer {
  name: "inception_3b/prelu_5x5"
  type: "PReLU"
  bottom: "inception_3b/5x5"
  top: "inception_3b/5x5"
  param {
    lr_mult: 1
    decay_mult: 0
  }
  prelu_param {
    filler {
      type: "constant"
      value: 0.01
    }
  }
}
layer {
  name: "inception_3b/pool"
  type: "Pooling"
  bottom: "inception_3a/output"
  top: "inception_3b/pool"
  pooling_param {
    pool: MAX
    kernel_size: 3
    stride: 1
    pad: 1
  }
}
layer {
  name: "inception_3b/pool_proj"
  type: "Convolution"
  bottom: "inception_3b/pool"
  top: "inception_3b/pool_proj"
  param {
    lr_mult: 1
    decay_mult: 1
  }
  param {
    lr_mult: 2
    decay_mult: 0
  }
  convolution_param {
    num_output: 64
    kernel_size: 1
    weight_filler {
      type: "xavier"
    }
    bias_filler {
      type: "constant"
      value: 0.2
    }
  }
}
layer {
  name: "inception_3b/prelu_pool_proj"
  type: "PReLU"
  bottom: "inception_3b/pool_proj"
  top: "inception_3b/pool_proj"
  param {
    lr_mult: 1
    decay_mult: 0
  }
  prelu_param {
    filler {
      type: "constant"
      value: 0.01
    }
  }
}
layer {
  name: "inception_3b/output"
  type: "Concat"
  bottom: "inception_3b/1x1"
  bottom: "inception_3b/3x3"
  bottom: "inception_3b/5x5"
  bottom: "inception_3b/pool_proj"
  top: "inception_3b/output"
}
layer {
  name: "pool3/3x3_s2"
  type: "Pooling"
  bottom: "inception_3b/output"
  top: "pool3/3x3_s2"
  pooling_param {
    pool: MAX
    kernel_size: 3
    stride: 2
  }
}
layer {
  name: "inception_4a/1x1"
  type: "Convolution"
  bottom: "pool3/3x3_s2"
  top: "inception_4a/1x1"
  param {
    lr_mult: 1
    decay_mult: 1
  }
  param {
    lr_mult: 2
    decay_mult: 0
  }
  convolution_param {
    num_output: 192
    kernel_size: 1
    weight_filler {
      type: "xavier"
    }
    bias_filler {
      type: "constant"
      value: 0.2
    }
  }
}
layer {
  name: "inception_4a/prelu_1x1"
  type: "PReLU"
  bottom: "inception_4a/1x1"
  top: "inception_4a/1x1"
  param {
    lr_mult: 1
    decay_mult: 0
  }
  prelu_param {
    filler {
      type: "constant"
      value: 0.01
    }
  }
}
layer {
  name: "inception_4a/3x3_reduce"
  type: "Convolution"
  bottom: "pool3/3x3_s2"
  top: "inception_4a/3x3_reduce"
  param {
    lr_mult: 1
    decay_mult: 1
  }
  param {
    lr_mult: 2
    decay_mult: 0
  }
  convolution_param {
    num_output: 96
    kernel_size: 1
    weight_filler {
      type: "xavier"
    }
    bias_filler {
      type: "constant"
      value: 0.2
    }
  }
}
layer {
  name: "inception_4a/prelu_3x3_reduce"
  type: "PReLU"
  bottom: "inception_4a/3x3_reduce"
  top: "inception_4a/3x3_reduce"
  param {
    lr_mult: 1
    decay_mult: 0
  }
  prelu_param {
    filler {
      type: "constant"
      value: 0.01
    }
  }
}
layer {
  name: "inception_4a/3x3"
  type: "Convolution"
  bottom: "inception_4a/3x3_reduce"
  top: "inception_4a/3x3"
  param {
    lr_mult: 1
    decay_mult: 1
  }
  param {
    lr_mult: 2
    decay_mult: 0
  }
  convolution_param {
    num_output: 208
    pad: 1
    kernel_size: 3
    weight_filler {
      type: "xavier"
    }
    bias_filler {
      type: "constant"
      value: 0.2
    }
  }
}
layer {
  name: "inception_4a/prelu_3x3"
  type: "PReLU"
  bottom: "inception_4a/3x3"
  top: "inception_4a/3x3"
  param {
    lr_mult: 1
    decay_mult: 0
  }
  prelu_param {
    filler {
      type: "constant"
      value: 0.01
    }
  }
}
layer {
  name: "inception_4a/5x5_reduce"
  type: "Convolution"
  bottom: "pool3/3x3_s2"
  top: "inception_4a/5x5_reduce"
  param {
    lr_mult: 1
    decay_mult: 1
  }
  param {
    lr_mult: 2
    decay_mult: 0
  }
  convolution_param {
    num_output: 16
    kernel_size: 1
    weight_filler {
      type: "xavier"
    }
    bias_filler {
      type: "constant"
      value: 0.2
    }
  }
}
layer {
  name: "inception_4a/prelu_5x5_reduce"
  type: "PReLU"
  bottom: "inception_4a/5x5_reduce"
  top: "inception_4a/5x5_reduce"
  param {
    lr_mult: 1
    decay_mult: 0
  }
  prelu_param {
    filler {
      type: "constant"
      value: 0.01
    }
  }
}
layer {
  name: "inception_4a/5x5"
  type: "Convolution"
  bottom: "inception_4a/5x5_reduce"
  top: "inception_4a/5x5"
  param {
    lr_mult: 1
    decay_mult: 1
  }
  param {
    lr_mult: 2
    decay_mult: 0
  }
  convolution_param {
    num_output: 48
    pad: 2
    kernel_size: 5
    weight_filler {
      type: "xavier"
    }
    bias_filler {
      type: "constant"
      value: 0.2
    }
  }
}
layer {
  name: "inception_4a/prelu_5x5"
  type: "PReLU"
  bottom: "inception_4a/5x5"
  top: "inception_4a/5x5"
  param {
    lr_mult: 1
    decay_mult: 0
  }
  prelu_param {
    filler {
      type: "constant"
      value: 0.01
    }
  }
}
layer {
  name: "inception_4a/pool"
  type: "Pooling"
  bottom: "pool3/3x3_s2"
  top: "inception_4a/pool"
  pooling_param {
    pool: MAX
    kernel_size: 3
    stride: 1
    pad: 1
  }
}
layer {
  name: "inception_4a/pool_proj"
  type: "Convolution"
  bottom: "inception_4a/pool"
  top: "inception_4a/pool_proj"
  param {
    lr_mult: 1
    decay_mult: 1
  }
  param {
    lr_mult: 2
    decay_mult: 0
  }
  convolution_param {
    num_output: 64
    kernel_size: 1
    weight_filler {
      type: "xavier"
    }
    bias_filler {
      type: "constant"
      value: 0.2
    }
  }
}
layer {
  name: "inception_4a/prelu_pool_proj"
  type: "PReLU"
  bottom: "inception_4a/pool_proj"
  top: "inception_4a/pool_proj"
  param {
    lr_mult: 1
    decay_mult: 0
  }
  prelu_param {
    filler {
      type: "constant"
      value: 0.01
    }
  }
}
layer {
  name: "inception_4a/output"
  type: "Concat"
  bottom: "inception_4a/1x1"
  bottom: "inception_4a/3x3"
  bottom: "inception_4a/5x5"
  bottom: "inception_4a/pool_proj"
  top: "inception_4a/output"
}
layer {
  name: "loss1/ave_pool"
  type: "Pooling"
  bottom: "inception_4a/output"
  top: "loss1/ave_pool"
  pooling_param {
    pool: AVE
    kernel_size: 5
    stride: 3
  }
}
layer {
  name: "loss1/conv"
  type: "Convolution"
  bottom: "loss1/ave_pool"
  top: "loss1/conv"
  param {
    lr_mult: 1
    decay_mult: 1
  }
  param {
    lr_mult: 2
    decay_mult: 0
  }
  convolution_param {
    num_output: 128
    kernel_size: 1
    weight_filler {
      type: "xavier"
    }
    bias_filler {
      type: "constant"
      value: 0.2
    }
  }
}
layer {
  name: "loss1/prelu_conv"
  type: "PReLU"
  bottom: "loss1/conv"
  top: "loss1/conv"
  param {
    lr_mult: 1
    decay_mult: 0
  }
  prelu_param {
    filler {
      type: "constant"
      value: 0.01
    }
  }
}
layer {
  name: "loss1/fc"
  type: "InnerProduct"
  bottom: "loss1/conv"
  top: "loss1/fc"
  param {
    lr_mult: 1
    decay_mult: 1
  }
  param {
    lr_mult: 2
    decay_mult: 0
  }
  inner_product_param {
    num_output: 1024
    weight_filler {
      type: "xavier"
    }
    bias_filler {
      type: "constant"
      value: 0.2
    }
  }
}
layer {
  name: "loss1/prelu_fc"
  type: "PReLU"
  bottom: "loss1/fc"
  top: "loss1/fc"
  param {
    lr_mult: 1
    decay_mult: 0
  }
  prelu_param {
    filler {
      type: "constant"
      value: 0.01
    }
  }
}
layer {
  name: "loss1/drop_fc"
  type: "Dropout"
  bottom: "loss1/fc"
  top: "loss1/fc"
  dropout_param {
    dropout_ratio: 0.7
  }
}
layer {
  name: "loss1/classifier2"
  type: "InnerProduct"
  bottom: "loss1/fc"
  top: "loss1/classifier"
  param {
    lr_mult: 1
    decay_mult: 1
  }
  param {
    lr_mult: 2
    decay_mult: 0
  }
  inner_product_param {
    num_output: 2
    weight_filler {
      type: "xavier"
    }
    bias_filler {
      type: "constant"
      value: 0
    }
  }
}
layer {
  name: "loss1/loss"
  type: "SoftmaxWithLoss"
  bottom: "loss1/classifier"
  bottom: "label"
  top: "loss1/loss1"
  loss_weight: 0.3
}
layer {
  name: "inception_4b/1x1"
  type: "Convolution"
  bottom: "inception_4a/output"
  top: "inception_4b/1x1"
  param {
    lr_mult: 1
    decay_mult: 1
  }
  param {
    lr_mult: 2
    decay_mult: 0
  }
  convolution_param {
    num_output: 160
    kernel_size: 1
    weight_filler {
      type: "xavier"
    }
    bias_filler {
      type: "constant"
      value: 0.2
    }
  }
}
layer {
  name: "inception_4b/prelu_1x1"
  type: "PReLU"
  bottom: "inception_4b/1x1"
  top: "inception_4b/1x1"
  param {
    lr_mult: 1
    decay_mult: 0
  }
  prelu_param {
    filler {
      type: "constant"
      value: 0.01
    }
  }
}
layer {
  name: "inception_4b/3x3_reduce"
  type: "Convolution"
  bottom: "inception_4a/output"
  top: "inception_4b/3x3_reduce"
  param {
    lr_mult: 1
    decay_mult: 1
  }
  param {
    lr_mult: 2
    decay_mult: 0
  }
  convolution_param {
    num_output: 112
    kernel_size: 1
    weight_filler {
      type: "xavier"
    }
    bias_filler {
      type: "constant"
      value: 0.2
    }
  }
}
layer {
  name: "inception_4b/prelu_3x3_reduce"
  type: "PReLU"
  bottom: "inception_4b/3x3_reduce"
  top: "inception_4b/3x3_reduce"
  param {
    lr_mult: 1
    decay_mult: 0
  }
  prelu_param {
    filler {
      type: "constant"
      value: 0.01
    }
  }
}
layer {
  name: "inception_4b/3x3"
  type: "Convolution"
  bottom: "inception_4b/3x3_reduce"
  top: "inception_4b/3x3"
  param {
    lr_mult: 1
    decay_mult: 1
  }
  param {
    lr_mult: 2
    decay_mult: 0
  }
  convolution_param {
    num_output: 224
    pad: 1
    kernel_size: 3
    weight_filler {
      type: "xavier"
    }
    bias_filler {
      type: "constant"
      value: 0.2
    }
  }
}
layer {
  name: "inception_4b/prelu_3x3"
  type: "PReLU"
  bottom: "inception_4b/3x3"
  top: "inception_4b/3x3"
  param {
    lr_mult: 1
    decay_mult: 0
  }
  prelu_param {
    filler {
      type: "constant"
      value: 0.01
    }
  }
}
layer {
  name: "inception_4b/5x5_reduce"
  type: "Convolution"
  bottom: "inception_4a/output"
  top: "inception_4b/5x5_reduce"
  param {
    lr_mult: 1
    decay_mult: 1
  }
  param {
    lr_mult: 2
    decay_mult: 0
  }
  convolution_param {
    num_output: 24
    kernel_size: 1
    weight_filler {
      type: "xavier"
    }
    bias_filler {
      type: "constant"
      value: 0.2
    }
  }
}
layer {
  name: "inception_4b/prelu_5x5_reduce"
  type: "PReLU"
  bottom: "inception_4b/5x5_reduce"
  top: "inception_4b/5x5_reduce"
  param {
    lr_mult: 1
    decay_mult: 0
  }
  prelu_param {
    filler {
      type: "constant"
      value: 0.01
    }
  }
}
layer {
  name: "inception_4b/5x5"
  type: "Convolution"
  bottom: "inception_4b/5x5_reduce"
  top: "inception_4b/5x5"
  param {
    lr_mult: 1
    decay_mult: 1
  }
  param {
    lr_mult: 2
    decay_mult: 0
  }
  convolution_param {
    num_output: 64
    pad: 2
    kernel_size: 5
    weight_filler {
      type: "xavier"
    }
    bias_filler {
      type: "constant"
      value: 0.2
    }
  }
}
layer {
  name: "inception_4b/prelu_5x5"
  type: "PReLU"
  bottom: "inception_4b/5x5"
  top: "inception_4b/5x5"
  param {
    lr_mult: 1
    decay_mult: 0
  }
  prelu_param {
    filler {
      type: "constant"
      value: 0.01
    }
  }
}
layer {
  name: "inception_4b/pool"
  type: "Pooling"
  bottom: "inception_4a/output"
  top: "inception_4b/pool"
  pooling_param {
    pool: MAX
    kernel_size: 3
    stride: 1
    pad: 1
  }
}
layer {
  name: "inception_4b/pool_proj"
  type: "Convolution"
  bottom: "inception_4b/pool"
  top: "inception_4b/pool_proj"
  param {
    lr_mult: 1
    decay_mult: 1
  }
  param {
    lr_mult: 2
    decay_mult: 0
  }
  convolution_param {
    num_output: 64
    kernel_size: 1
    weight_filler {
      type: "xavier"
    }
    bias_filler {
      type: "constant"
      value: 0.2
    }
  }
}
layer {
  name: "inception_4b/prelu_pool_proj"
  type: "PReLU"
  bottom: "inception_4b/pool_proj"
  top: "inception_4b/pool_proj"
  param {
    lr_mult: 1
    decay_mult: 0
  }
  prelu_param {
    filler {
      type: "constant"
      value: 0.01
    }
  }
}
layer {
  name: "inception_4b/output"
  type: "Concat"
  bottom: "inception_4b/1x1"
  bottom: "inception_4b/3x3"
  bottom: "inception_4b/5x5"
  bottom: "inception_4b/pool_proj"
  top: "inception_4b/output"
}
layer {
  name: "inception_4c/1x1"
  type: "Convolution"
  bottom: "inception_4b/output"
  top: "inception_4c/1x1"
  param {
    lr_mult: 1
    decay_mult: 1
  }
  param {
    lr_mult: 2
    decay_mult: 0
  }
  convolution_param {
    num_output: 128
    kernel_size: 1
    weight_filler {
      type: "xavier"
    }
    bias_filler {
      type: "constant"
      value: 0.2
    }
  }
}
layer {
  name: "inception_4c/prelu_1x1"
  type: "PReLU"
  bottom: "inception_4c/1x1"
  top: "inception_4c/1x1"
  param {
    lr_mult: 1
    decay_mult: 0
  }
  prelu_param {
    filler {
      type: "constant"
      value: 0.01
    }
  }
}
layer {
  name: "inception_4c/3x3_reduce"
  type: "Convolution"
  bottom: "inception_4b/output"
  top: "inception_4c/3x3_reduce"
  param {
    lr_mult: 1
    decay_mult: 1
  }
  param {
    lr_mult: 2
    decay_mult: 0
  }
  convolution_param {
    num_output: 128
    kernel_size: 1
    weight_filler {
      type: "xavier"
    }
    bias_filler {
      type: "constant"
      value: 0.2
    }
  }
}
layer {
  name: "inception_4c/prelu_3x3_reduce"
  type: "PReLU"
  bottom: "inception_4c/3x3_reduce"
  top: "inception_4c/3x3_reduce"
  param {
    lr_mult: 1
    decay_mult: 0
  }
  prelu_param {
    filler {
      type: "constant"
      value: 0.01
    }
  }
}
layer {
  name: "inception_4c/3x3"
  type: "Convolution"
  bottom: "inception_4c/3x3_reduce"
  top: "inception_4c/3x3"
  param {
    lr_mult: 1
    decay_mult: 1
  }
  param {
    lr_mult: 2
    decay_mult: 0
  }
  convolution_param {
    num_output: 256
    pad: 1
    kernel_size: 3
    weight_filler {
      type: "xavier"
    }
    bias_filler {
      type: "constant"
      value: 0.2
    }
  }
}
layer {
  name: "inception_4c/prelu_3x3"
  type: "PReLU"
  bottom: "inception_4c/3x3"
  top: "inception_4c/3x3"
  param {
    lr_mult: 1
    decay_mult: 0
  }
  prelu_param {
    filler {
      type: "constant"
      value: 0.01
    }
  }
}
layer {
  name: "inception_4c/5x5_reduce"
  type: "Convolution"
  bottom: "inception_4b/output"
  top: "inception_4c/5x5_reduce"
  param {
    lr_mult: 1
    decay_mult: 1
  }
  param {
    lr_mult: 2
    decay_mult: 0
  }
  convolution_param {
    num_output: 24
    kernel_size: 1
    weight_filler {
      type: "xavier"
    }
    bias_filler {
      type: "constant"
      value: 0.2
    }
  }
}
layer {
  name: "inception_4c/prelu_5x5_reduce"
  type: "PReLU"
  bottom: "inception_4c/5x5_reduce"
  top: "inception_4c/5x5_reduce"
  param {
    lr_mult: 1
    decay_mult: 0
  }
  prelu_param {
    filler {
      type: "constant"
      value: 0.01
    }
  }
}
layer {
  name: "inception_4c/5x5"
  type: "Convolution"
  bottom: "inception_4c/5x5_reduce"
  top: "inception_4c/5x5"
  param {
    lr_mult: 1
    decay_mult: 1
  }
  param {
    lr_mult: 2
    decay_mult: 0
  }
  convolution_param {
    num_output: 64
    pad: 2
    kernel_size: 5
    weight_filler {
      type: "xavier"
    }
    bias_filler {
      type: "constant"
      value: 0.2
    }
  }
}
layer {
  name: "inception_4c/prelu_5x5"
  type: "PReLU"
  bottom: "inception_4c/5x5"
  top: "inception_4c/5x5"
  param {
    lr_mult: 1
    decay_mult: 0
  }
  prelu_param {
    filler {
      type: "constant"
      value: 0.01
    }
  }
}
layer {
  name: "inception_4c/pool"
  type: "Pooling"
  bottom: "inception_4b/output"
  top: "inception_4c/pool"
  pooling_param {
    pool: MAX
    kernel_size: 3
    stride: 1
    pad: 1
  }
}
layer {
  name: "inception_4c/pool_proj"
  type: "Convolution"
  bottom: "inception_4c/pool"
  top: "inception_4c/pool_proj"
  param {
    lr_mult: 1
    decay_mult: 1
  }
  param {
    lr_mult: 2
    decay_mult: 0
  }
  convolution_param {
    num_output: 64
    kernel_size: 1
    weight_filler {
      type: "xavier"
    }
    bias_filler {
      type: "constant"
      value: 0.2
    }
  }
}
layer {
  name: "inception_4c/prelu_pool_proj"
  type: "PReLU"
  bottom: "inception_4c/pool_proj"
  top: "inception_4c/pool_proj"
  param {
    lr_mult: 1
    decay_mult: 0
  }
  prelu_param {
    filler {
      type: "constant"
      value: 0.01
    }
  }
}
layer {
  name: "inception_4c/output"
  type: "Concat"
  bottom: "inception_4c/1x1"
  bottom: "inception_4c/3x3"
  bottom: "inception_4c/5x5"
  bottom: "inception_4c/pool_proj"
  top: "inception_4c/output"
}
layer {
  name: "inception_4d/1x1"
  type: "Convolution"
  bottom: "inception_4c/output"
  top: "inception_4d/1x1"
  param {
    lr_mult: 1
    decay_mult: 1
  }
  param {
    lr_mult: 2
    decay_mult: 0
  }
  convolution_param {
    num_output: 112
    kernel_size: 1
    weight_filler {
      type: "xavier"
    }
    bias_filler {
      type: "constant"
      value: 0.2
    }
  }
}
layer {
  name: "inception_4d/prelu_1x1"
  type: "PReLU"
  bottom: "inception_4d/1x1"
  top: "inception_4d/1x1"
  param {
    lr_mult: 1
    decay_mult: 0
  }
  prelu_param {
    filler {
      type: "constant"
      value: 0.01
    }
  }
}
layer {
  name: "inception_4d/3x3_reduce"
  type: "Convolution"
  bottom: "inception_4c/output"
  top: "inception_4d/3x3_reduce"
  param {
    lr_mult: 1
    decay_mult: 1
  }
  param {
    lr_mult: 2
    decay_mult: 0
  }
  convolution_param {
    num_output: 144
    kernel_size: 1
    weight_filler {
      type: "xavier"
    }
    bias_filler {
      type: "constant"
      value: 0.2
    }
  }
}
layer {
  name: "inception_4d/prelu_3x3_reduce"
  type: "PReLU"
  bottom: "inception_4d/3x3_reduce"
  top: "inception_4d/3x3_reduce"
  param {
    lr_mult: 1
    decay_mult: 0
  }
  prelu_param {
    filler {
      type: "constant"
      value: 0.01
    }
  }
}
layer {
  name: "inception_4d/3x3"
  type: "Convolution"
  bottom: "inception_4d/3x3_reduce"
  top: "inception_4d/3x3"
  param {
    lr_mult: 1
    decay_mult: 1
  }
  param {
    lr_mult: 2
    decay_mult: 0
  }
  convolution_param {
    num_output: 288
    pad: 1
    kernel_size: 3
    weight_filler {
      type: "xavier"
    }
    bias_filler {
      type: "constant"
      value: 0.2
    }
  }
}
layer {
  name: "inception_4d/prelu_3x3"
  type: "PReLU"
  bottom: "inception_4d/3x3"
  top: "inception_4d/3x3"
  param {
    lr_mult: 1
    decay_mult: 0
  }
  prelu_param {
    filler {
      type: "constant"
      value: 0.01
    }
  }
}
layer {
  name: "inception_4d/5x5_reduce"
  type: "Convolution"
  bottom: "inception_4c/output"
  top: "inception_4d/5x5_reduce"
  param {
    lr_mult: 1
    decay_mult: 1
  }
  param {
    lr_mult: 2
    decay_mult: 0
  }
  convolution_param {
    num_output: 32
    kernel_size: 1
    weight_filler {
      type: "xavier"
    }
    bias_filler {
      type: "constant"
      value: 0.2
    }
  }
}
layer {
  name: "inception_4d/prelu_5x5_reduce"
  type: "PReLU"
  bottom: "inception_4d/5x5_reduce"
  top: "inception_4d/5x5_reduce"
  param {
    lr_mult: 1
    decay_mult: 0
  }
  prelu_param {
    filler {
      type: "constant"
      value: 0.01
    }
  }
}
layer {
  name: "inception_4d/5x5"
  type: "Convolution"
  bottom: "inception_4d/5x5_reduce"
  top: "inception_4d/5x5"
  param {
    lr_mult: 1
    decay_mult: 1
  }
  param {
    lr_mult: 2
    decay_mult: 0
  }
  convolution_param {
    num_output: 64
    pad: 2
    kernel_size: 5
    weight_filler {
      type: "xavier"
    }
    bias_filler {
      type: "constant"
      value: 0.2
    }
  }
}
layer {
  name: "inception_4d/prelu_5x5"
  type: "PReLU"
  bottom: "inception_4d/5x5"
  top: "inception_4d/5x5"
  param {
    lr_mult: 1
    decay_mult: 0
  }
  prelu_param {
    filler {
      type: "constant"
      value: 0.01
    }
  }
}
layer {
  name: "inception_4d/pool"
  type: "Pooling"
  bottom: "inception_4c/output"
  top: "inception_4d/pool"
  pooling_param {
    pool: MAX
    kernel_size: 3
    stride: 1
    pad: 1
  }
}
layer {
  name: "inception_4d/pool_proj"
  type: "Convolution"
  bottom: 
I1126 10:23:05.737785 10372 layer_factory.hpp:76] Creating layer data
I1126 10:23:05.738232 10372 net.cpp:106] Creating Layer data
I1126 10:23:05.738256 10372 net.cpp:411] data -> data
I1126 10:23:05.738291 10372 net.cpp:411] data -> label
I1126 10:23:05.758765 10376 db_lmdb.cpp:38] Opened lmdb ../../LMDB-s300/train_5-lmdb
I1126 10:23:05.786177 10372 data_layer.cpp:41] output data size: 32,3,224,224
I1126 10:23:05.856479 10372 net.cpp:150] Setting up data
I1126 10:23:05.856549 10372 net.cpp:157] Top shape: 32 3 224 224 (4816896)
I1126 10:23:05.856559 10372 net.cpp:157] Top shape: 32 (32)
I1126 10:23:05.856564 10372 net.cpp:165] Memory required for data: 19267712
I1126 10:23:05.856577 10372 layer_factory.hpp:76] Creating layer label_data_1_split
I1126 10:23:05.856600 10372 net.cpp:106] Creating Layer label_data_1_split
I1126 10:23:05.856609 10372 net.cpp:454] label_data_1_split <- label
I1126 10:23:05.856629 10372 net.cpp:411] label_data_1_split -> label_data_1_split_0
I1126 10:23:05.856643 10372 net.cpp:411] label_data_1_split -> label_data_1_split_1
I1126 10:23:05.856652 10372 net.cpp:411] label_data_1_split -> label_data_1_split_2
I1126 10:23:05.856720 10372 net.cpp:150] Setting up label_data_1_split
I1126 10:23:05.856731 10372 net.cpp:157] Top shape: 32 (32)
I1126 10:23:05.856736 10372 net.cpp:157] Top shape: 32 (32)
I1126 10:23:05.856741 10372 net.cpp:157] Top shape: 32 (32)
I1126 10:23:05.856745 10372 net.cpp:165] Memory required for data: 19268096
I1126 10:23:05.856750 10372 layer_factory.hpp:76] Creating layer conv1/7x7_s2
I1126 10:23:05.856771 10372 net.cpp:106] Creating Layer conv1/7x7_s2
I1126 10:23:05.856776 10372 net.cpp:454] conv1/7x7_s2 <- data
I1126 10:23:05.856789 10372 net.cpp:411] conv1/7x7_s2 -> conv1/7x7_s2
I1126 10:23:05.923133 10377 blocking_queue.cpp:50] Waiting for data
I1126 10:23:06.053386 10372 cudnn_conv_layer.cpp:194] Reallocating workspace storage: 225816
I1126 10:23:06.053637 10372 net.cpp:150] Setting up conv1/7x7_s2
I1126 10:23:06.053652 10372 net.cpp:157] Top shape: 32 64 112 112 (25690112)
I1126 10:23:06.053656 10372 net.cpp:165] Memory required for data: 122028544
I1126 10:23:06.053675 10372 layer_factory.hpp:76] Creating layer conv1/prelu_7x7
I1126 10:23:06.053692 10372 net.cpp:106] Creating Layer conv1/prelu_7x7
I1126 10:23:06.053699 10372 net.cpp:454] conv1/prelu_7x7 <- conv1/7x7_s2
I1126 10:23:06.053706 10372 net.cpp:397] conv1/prelu_7x7 -> conv1/7x7_s2 (in-place)
I1126 10:23:06.055491 10372 net.cpp:150] Setting up conv1/prelu_7x7
I1126 10:23:06.055506 10372 net.cpp:157] Top shape: 32 64 112 112 (25690112)
I1126 10:23:06.055510 10372 net.cpp:165] Memory required for data: 224788992
I1126 10:23:06.055519 10372 layer_factory.hpp:76] Creating layer pool1/3x3_s2
I1126 10:23:06.055532 10372 net.cpp:106] Creating Layer pool1/3x3_s2
I1126 10:23:06.055537 10372 net.cpp:454] pool1/3x3_s2 <- conv1/7x7_s2
I1126 10:23:06.055543 10372 net.cpp:411] pool1/3x3_s2 -> pool1/3x3_s2
I1126 10:23:06.055927 10372 net.cpp:150] Setting up pool1/3x3_s2
I1126 10:23:06.055937 10372 net.cpp:157] Top shape: 32 64 56 56 (6422528)
I1126 10:23:06.055941 10372 net.cpp:165] Memory required for data: 250479104
I1126 10:23:06.055945 10372 layer_factory.hpp:76] Creating layer pool1/norm1
I1126 10:23:06.055958 10372 net.cpp:106] Creating Layer pool1/norm1
I1126 10:23:06.055963 10372 net.cpp:454] pool1/norm1 <- pool1/3x3_s2
I1126 10:23:06.055968 10372 net.cpp:411] pool1/norm1 -> pool1/norm1
I1126 10:23:06.056124 10372 net.cpp:150] Setting up pool1/norm1
I1126 10:23:06.056133 10372 net.cpp:157] Top shape: 32 64 56 56 (6422528)
I1126 10:23:06.056138 10372 net.cpp:165] Memory required for data: 276169216
I1126 10:23:06.056141 10372 layer_factory.hpp:76] Creating layer conv2/3x3_reduce
I1126 10:23:06.056152 10372 net.cpp:106] Creating Layer conv2/3x3_reduce
I1126 10:23:06.056156 10372 net.cpp:454] conv2/3x3_reduce <- pool1/norm1
I1126 10:23:06.056164 10372 net.cpp:411] conv2/3x3_reduce -> conv2/3x3_reduce
I1126 10:23:06.057612 10372 cudnn_conv_layer.cpp:194] Reallocating workspace storage: 63000
I1126 10:23:06.057633 10372 net.cpp:150] Setting up conv2/3x3_reduce
I1126 10:23:06.057642 10372 net.cpp:157] Top shape: 32 64 56 56 (6422528)
I1126 10:23:06.057646 10372 net.cpp:165] Memory required for data: 301859328
I1126 10:23:06.057657 10372 layer_factory.hpp:76] Creating layer conv2/prelu_3x3_reduce
I1126 10:23:06.057664 10372 net.cpp:106] Creating Layer conv2/prelu_3x3_reduce
I1126 10:23:06.057669 10372 net.cpp:454] conv2/prelu_3x3_reduce <- conv2/3x3_reduce
I1126 10:23:06.057677 10372 net.cpp:397] conv2/prelu_3x3_reduce -> conv2/3x3_reduce (in-place)
I1126 10:23:06.058312 10372 net.cpp:150] Setting up conv2/prelu_3x3_reduce
I1126 10:23:06.058323 10372 net.cpp:157] Top shape: 32 64 56 56 (6422528)
I1126 10:23:06.058327 10372 net.cpp:165] Memory required for data: 327549440
I1126 10:23:06.058333 10372 layer_factory.hpp:76] Creating layer conv2/3x3
I1126 10:23:06.058343 10372 net.cpp:106] Creating Layer conv2/3x3
I1126 10:23:06.058348 10372 net.cpp:454] conv2/3x3 <- conv2/3x3_reduce
I1126 10:23:06.058354 10372 net.cpp:411] conv2/3x3 -> conv2/3x3
I1126 10:23:06.060427 10372 cudnn_conv_layer.cpp:194] Reallocating workspace storage: 63000
I1126 10:23:06.060449 10372 net.cpp:150] Setting up conv2/3x3
I1126 10:23:06.060457 10372 net.cpp:157] Top shape: 32 192 56 56 (19267584)
I1126 10:23:06.060462 10372 net.cpp:165] Memory required for data: 404619776
I1126 10:23:06.060469 10372 layer_factory.hpp:76] Creating layer conv2/prelu_3x3
I1126 10:23:06.060478 10372 net.cpp:106] Creating Layer conv2/prelu_3x3
I1126 10:23:06.060483 10372 net.cpp:454] conv2/prelu_3x3 <- conv2/3x3
I1126 10:23:06.060489 10372 net.cpp:397] conv2/prelu_3x3 -> conv2/3x3 (in-place)
I1126 10:23:06.061731 10372 net.cpp:150] Setting up conv2/prelu_3x3
I1126 10:23:06.061748 10372 net.cpp:157] Top shape: 32 192 56 56 (19267584)
I1126 10:23:06.061776 10372 net.cpp:165] Memory required for data: 481690112
I1126 10:23:06.061787 10372 layer_factory.hpp:76] Creating layer conv2/norm2
I1126 10:23:06.061799 10372 net.cpp:106] Creating Layer conv2/norm2
I1126 10:23:06.061803 10372 net.cpp:454] conv2/norm2 <- conv2/3x3
I1126 10:23:06.061810 10372 net.cpp:411] conv2/norm2 -> conv2/norm2
I1126 10:23:06.061992 10372 net.cpp:150] Setting up conv2/norm2
I1126 10:23:06.062001 10372 net.cpp:157] Top shape: 32 192 56 56 (19267584)
I1126 10:23:06.062005 10372 net.cpp:165] Memory required for data: 558760448
I1126 10:23:06.062011 10372 layer_factory.hpp:76] Creating layer pool2/3x3_s2
I1126 10:23:06.062018 10372 net.cpp:106] Creating Layer pool2/3x3_s2
I1126 10:23:06.062022 10372 net.cpp:454] pool2/3x3_s2 <- conv2/norm2
I1126 10:23:06.062028 10372 net.cpp:411] pool2/3x3_s2 -> pool2/3x3_s2
I1126 10:23:06.062391 10372 net.cpp:150] Setting up pool2/3x3_s2
I1126 10:23:06.062400 10372 net.cpp:157] Top shape: 32 192 28 28 (4816896)
I1126 10:23:06.062404 10372 net.cpp:165] Memory required for data: 578028032
I1126 10:23:06.062409 10372 layer_factory.hpp:76] Creating layer pool2/3x3_s2_pool2/3x3_s2_0_split
I1126 10:23:06.062417 10372 net.cpp:106] Creating Layer pool2/3x3_s2_pool2/3x3_s2_0_split
I1126 10:23:06.062422 10372 net.cpp:454] pool2/3x3_s2_pool2/3x3_s2_0_split <- pool2/3x3_s2
I1126 10:23:06.062428 10372 net.cpp:411] pool2/3x3_s2_pool2/3x3_s2_0_split -> pool2/3x3_s2_pool2/3x3_s2_0_split_0
I1126 10:23:06.062435 10372 net.cpp:411] pool2/3x3_s2_pool2/3x3_s2_0_split -> pool2/3x3_s2_pool2/3x3_s2_0_split_1
I1126 10:23:06.062443 10372 net.cpp:411] pool2/3x3_s2_pool2/3x3_s2_0_split -> pool2/3x3_s2_pool2/3x3_s2_0_split_2
I1126 10:23:06.062449 10372 net.cpp:411] pool2/3x3_s2_pool2/3x3_s2_0_split -> pool2/3x3_s2_pool2/3x3_s2_0_split_3
I1126 10:23:06.062497 10372 net.cpp:150] Setting up pool2/3x3_s2_pool2/3x3_s2_0_split
I1126 10:23:06.062505 10372 net.cpp:157] Top shape: 32 192 28 28 (4816896)
I1126 10:23:06.062510 10372 net.cpp:157] Top shape: 32 192 28 28 (4816896)
I1126 10:23:06.062515 10372 net.cpp:157] Top shape: 32 192 28 28 (4816896)
I1126 10:23:06.062520 10372 net.cpp:157] Top shape: 32 192 28 28 (4816896)
I1126 10:23:06.062523 10372 net.cpp:165] Memory required for data: 655098368
I1126 10:23:06.062527 10372 layer_factory.hpp:76] Creating layer inception_3a/1x1
I1126 10:23:06.062537 10372 net.cpp:106] Creating Layer inception_3a/1x1
I1126 10:23:06.062542 10372 net.cpp:454] inception_3a/1x1 <- pool2/3x3_s2_pool2/3x3_s2_0_split_0
I1126 10:23:06.062549 10372 net.cpp:411] inception_3a/1x1 -> inception_3a/1x1
I1126 10:23:06.064167 10372 cudnn_conv_layer.cpp:194] Reallocating workspace storage: 20664
I1126 10:23:06.064198 10372 net.cpp:150] Setting up inception_3a/1x1
I1126 10:23:06.064208 10372 net.cpp:157] Top shape: 32 64 28 28 (1605632)
I1126 10:23:06.064213 10372 net.cpp:165] Memory required for data: 661520896
I1126 10:23:06.064220 10372 layer_factory.hpp:76] Creating layer inception_3a/prelu_1x1
I1126 10:23:06.064234 10372 net.cpp:106] Creating Layer inception_3a/prelu_1x1
I1126 10:23:06.064239 10372 net.cpp:454] inception_3a/prelu_1x1 <- inception_3a/1x1
I1126 10:23:06.064246 10372 net.cpp:397] inception_3a/prelu_1x1 -> inception_3a/1x1 (in-place)
I1126 10:23:06.064903 10372 net.cpp:150] Setting up inception_3a/prelu_1x1
I1126 10:23:06.064916 10372 net.cpp:157] Top shape: 32 64 28 28 (1605632)
I1126 10:23:06.064920 10372 net.cpp:165] Memory required for data: 667943424
I1126 10:23:06.064926 10372 layer_factory.hpp:76] Creating layer inception_3a/3x3_reduce
I1126 10:23:06.064939 10372 net.cpp:106] Creating Layer inception_3a/3x3_reduce
I1126 10:23:06.064944 10372 net.cpp:454] inception_3a/3x3_reduce <- pool2/3x3_s2_pool2/3x3_s2_0_split_1
I1126 10:23:06.064952 10372 net.cpp:411] inception_3a/3x3_reduce -> inception_3a/3x3_reduce
I1126 10:23:06.065949 10372 cudnn_conv_layer.cpp:194] Reallocating workspace storage: 20664
I1126 10:23:06.065973 10372 net.cpp:150] Setting up inception_3a/3x3_reduce
I1126 10:23:06.065981 10372 net.cpp:157] Top shape: 32 96 28 28 (2408448)
I1126 10:23:06.066007 10372 net.cpp:165] Memory required for data: 677577216
I1126 10:23:06.066015 10372 layer_factory.hpp:76] Creating layer inception_3a/prelu_3x3_reduce
I1126 10:23:06.066030 10372 net.cpp:106] Creating Layer inception_3a/prelu_3x3_reduce
I1126 10:23:06.066035 10372 net.cpp:454] inception_3a/prelu_3x3_reduce <- inception_3a/3x3_reduce
I1126 10:23:06.066041 10372 net.cpp:397] inception_3a/prelu_3x3_reduce -> inception_3a/3x3_reduce (in-place)
I1126 10:23:06.066177 10372 net.cpp:150] Setting up inception_3a/prelu_3x3_reduce
I1126 10:23:06.066186 10372 net.cpp:157] Top shape: 32 96 28 28 (2408448)
I1126 10:23:06.066190 10372 net.cpp:165] Memory required for data: 687211008
I1126 10:23:06.066196 10372 layer_factory.hpp:76] Creating layer inception_3a/3x3
I1126 10:23:06.066206 10372 net.cpp:106] Creating Layer inception_3a/3x3
I1126 10:23:06.066210 10372 net.cpp:454] inception_3a/3x3 <- inception_3a/3x3_reduce
I1126 10:23:06.066218 10372 net.cpp:411] inception_3a/3x3 -> inception_3a/3x3
I1126 10:23:06.068527 10372 cudnn_conv_layer.cpp:194] Reallocating workspace storage: 20664
I1126 10:23:06.068564 10372 net.cpp:150] Setting up inception_3a/3x3
I1126 10:23:06.068574 10372 net.cpp:157] Top shape: 32 128 28 28 (3211264)
I1126 10:23:06.068578 10372 net.cpp:165] Memory required for data: 700056064
I1126 10:23:06.068595 10372 layer_factory.hpp:76] Creating layer inception_3a/prelu_3x3
I1126 10:23:06.068608 10372 net.cpp:106] Creating Layer inception_3a/prelu_3x3
I1126 10:23:06.068614 10372 net.cpp:454] inception_3a/prelu_3x3 <- inception_3a/3x3
I1126 10:23:06.068622 10372 net.cpp:397] inception_3a/prelu_3x3 -> inception_3a/3x3 (in-place)
I1126 10:23:06.068790 10372 net.cpp:150] Setting up inception_3a/prelu_3x3
I1126 10:23:06.068801 10372 net.cpp:157] Top shape: 32 128 28 28 (3211264)
I1126 10:23:06.068805 10372 net.cpp:165] Memory required for data: 712901120
I1126 10:23:06.068811 10372 layer_factory.hpp:76] Creating layer inception_3a/5x5_reduce
I1126 10:23:06.068824 10372 net.cpp:106] Creating Layer inception_3a/5x5_reduce
I1126 10:23:06.068828 10372 net.cpp:454] inception_3a/5x5_reduce <- pool2/3x3_s2_pool2/3x3_s2_0_split_2
I1126 10:23:06.068840 10372 net.cpp:411] inception_3a/5x5_reduce -> inception_3a/5x5_reduce
I1126 10:23:06.070111 10372 cudnn_conv_layer.cpp:194] Reallocating workspace storage: 20664
I1126 10:23:06.070135 10372 net.cpp:150] Setting up inception_3a/5x5_reduce
I1126 10:23:06.070145 10372 net.cpp:157] Top shape: 32 16 28 28 (401408)
I1126 10:23:06.070150 10372 net.cpp:165] Memory required for data: 714506752
I1126 10:23:06.070158 10372 layer_factory.hpp:76] Creating layer inception_3a/prelu_5x5_reduce
I1126 10:23:06.070168 10372 net.cpp:106] Creating Layer inception_3a/prelu_5x5_reduce
I1126 10:23:06.070173 10372 net.cpp:454] inception_3a/prelu_5x5_reduce <- inception_3a/5x5_reduce
I1126 10:23:06.070183 10372 net.cpp:397] inception_3a/prelu_5x5_reduce -> inception_3a/5x5_reduce (in-place)
I1126 10:23:06.070274 10372 net.cpp:150] Setting up inception_3a/prelu_5x5_reduce
I1126 10:23:06.070284 10372 net.cpp:157] Top shape: 32 16 28 28 (401408)
I1126 10:23:06.070289 10372 net.cpp:165] Memory required for data: 716112384
I1126 10:23:06.070294 10372 layer_factory.hpp:76] Creating layer inception_3a/5x5
I1126 10:23:06.070304 10372 net.cpp:106] Creating Layer inception_3a/5x5
I1126 10:23:06.070308 10372 net.cpp:454] inception_3a/5x5 <- inception_3a/5x5_reduce
I1126 10:23:06.070317 10372 net.cpp:411] inception_3a/5x5 -> inception_3a/5x5
I1126 10:23:06.071449 10372 cudnn_conv_layer.cpp:194] Reallocating workspace storage: 20664
I1126 10:23:06.071470 10372 net.cpp:150] Setting up inception_3a/5x5
I1126 10:23:06.071477 10372 net.cpp:157] Top shape: 32 32 28 28 (802816)
I1126 10:23:06.071482 10372 net.cpp:165] Memory required for data: 719323648
I1126 10:23:06.071491 10372 layer_factory.hpp:76] Creating layer inception_3a/prelu_5x5
I1126 10:23:06.071512 10372 net.cpp:106] Creating Layer inception_3a/prelu_5x5
I1126 10:23:06.071517 10372 net.cpp:454] inception_3a/prelu_5x5 <- inception_3a/5x5
I1126 10:23:06.071527 10372 net.cpp:397] inception_3a/prelu_5x5 -> inception_3a/5x5 (in-place)
I1126 10:23:06.071660 10372 net.cpp:150] Setting up inception_3a/prelu_5x5
I1126 10:23:06.071667 10372 net.cpp:157] Top shape: 32 32 28 28 (802816)
I1126 10:23:06.071671 10372 net.cpp:165] Memory required for data: 722534912
I1126 10:23:06.071677 10372 layer_factory.hpp:76] Creating layer inception_3a/pool
I1126 10:23:06.071687 10372 net.cpp:106] Creating Layer inception_3a/pool
I1126 10:23:06.071692 10372 net.cpp:454] inception_3a/pool <- pool2/3x3_s2_pool2/3x3_s2_0_split_3
I1126 10:23:06.071698 10372 net.cpp:411] inception_3a/pool -> inception_3a/pool
I1126 10:23:06.071905 10372 net.cpp:150] Setting up inception_3a/pool
I1126 10:23:06.071914 10372 net.cpp:157] Top shape: 32 192 28 28 (4816896)
I1126 10:23:06.071918 10372 net.cpp:165] Memory required for data: 741802496
I1126 10:23:06.071923 10372 layer_factory.hpp:76] Creating layer inception_3a/pool_proj
I1126 10:23:06.071933 10372 net.cpp:106] Creating Layer inception_3a/pool_proj
I1126 10:23:06.071938 10372 net.cpp:454] inception_3a/pool_proj <- inception_3a/pool
I1126 10:23:06.071945 10372 net.cpp:411] inception_3a/pool_proj -> inception_3a/pool_proj
I1126 10:23:06.073091 10372 cudnn_conv_layer.cpp:194] Reallocating workspace storage: 20664
I1126 10:23:06.073109 10372 net.cpp:150] Setting up inception_3a/pool_proj
I1126 10:23:06.073127 10372 net.cpp:157] Top shape: 32 32 28 28 (802816)
I1126 10:23:06.073132 10372 net.cpp:165] Memory required for data: 745013760
I1126 10:23:06.073139 10372 layer_factory.hpp:76] Creating layer inception_3a/prelu_pool_proj
I1126 10:23:06.073150 10372 net.cpp:106] Creating Layer inception_3a/prelu_pool_proj
I1126 10:23:06.073155 10372 net.cpp:454] inception_3a/prelu_pool_proj <- inception_3a/pool_proj
I1126 10:23:06.073174 10372 net.cpp:397] inception_3a/prelu_pool_proj -> inception_3a/pool_proj (in-place)
I1126 10:23:06.073278 10372 net.cpp:150] Setting up inception_3a/prelu_pool_proj
I1126 10:23:06.073287 10372 net.cpp:157] Top shape: 32 32 28 28 (802816)
I1126 10:23:06.073290 10372 net.cpp:165] Memory required for data: 748225024
I1126 10:23:06.073295 10372 layer_factory.hpp:76] Creating layer inception_3a/output
I1126 10:23:06.073309 10372 net.cpp:106] Creating Layer inception_3a/output
I1126 10:23:06.073314 10372 net.cpp:454] inception_3a/output <- inception_3a/1x1
I1126 10:23:06.073319 10372 net.cpp:454] inception_3a/output <- inception_3a/3x3
I1126 10:23:06.073346 10372 net.cpp:454] inception_3a/output <- inception_3a/5x5
I1126 10:23:06.073351 10372 net.cpp:454] inception_3a/output <- inception_3a/pool_proj
I1126 10:23:06.073357 10372 net.cpp:411] inception_3a/output -> inception_3a/output
I1126 10:23:06.073408 10372 net.cpp:150] Setting up inception_3a/output
I1126 10:23:06.073427 10372 net.cpp:157] Top shape: 32 256 28 28 (6422528)
I1126 10:23:06.073431 10372 net.cpp:165] Memory required for data: 773915136
I1126 10:23:06.073436 10372 layer_factory.hpp:76] Creating layer inception_3a/output_inception_3a/output_0_split
I1126 10:23:06.073443 10372 net.cpp:106] Creating Layer inception_3a/output_inception_3a/output_0_split
I1126 10:23:06.073447 10372 net.cpp:454] inception_3a/output_inception_3a/output_0_split <- inception_3a/output
I1126 10:23:06.073456 10372 net.cpp:411] inception_3a/output_inception_3a/output_0_split -> inception_3a/output_inception_3a/output_0_split_0
I1126 10:23:06.073462 10372 net.cpp:411] inception_3a/output_inception_3a/output_0_split -> inception_3a/output_inception_3a/output_0_split_1
I1126 10:23:06.073480 10372 net.cpp:411] inception_3a/output_inception_3a/output_0_split -> inception_3a/output_inception_3a/output_0_split_2
I1126 10:23:06.073487 10372 net.cpp:411] inception_3a/output_inception_3a/output_0_split -> inception_3a/output_inception_3a/output_0_split_3
I1126 10:23:06.073539 10372 net.cpp:150] Setting up inception_3a/output_inception_3a/output_0_split
I1126 10:23:06.073545 10372 net.cpp:157] Top shape: 32 256 28 28 (6422528)
I1126 10:23:06.073550 10372 net.cpp:157] Top shape: 32 256 28 28 (6422528)
I1126 10:23:06.073555 10372 net.cpp:157] Top shape: 32 256 28 28 (6422528)
I1126 10:23:06.073577 10372 net.cpp:157] Top shape: 32 256 28 28 (6422528)
I1126 10:23:06.073582 10372 net.cpp:165] Memory required for data: 876675584
I1126 10:23:06.073586 10372 layer_factory.hpp:76] Creating layer inception_3b/1x1
I1126 10:23:06.073595 10372 net.cpp:106] Creating Layer inception_3b/1x1
I1126 10:23:06.073598 10372 net.cpp:454] inception_3b/1x1 <- inception_3a/output_inception_3a/output_0_split_0
I1126 10:23:06.073604 10372 net.cpp:411] inception_3b/1x1 -> inception_3b/1x1
I1126 10:23:06.074833 10372 cudnn_conv_layer.cpp:194] Reallocating workspace storage: 20664
I1126 10:23:06.074853 10372 net.cpp:150] Setting up inception_3b/1x1
I1126 10:23:06.074861 10372 net.cpp:157] Top shape: 32 128 28 28 (3211264)
I1126 10:23:06.074864 10372 net.cpp:165] Memory required for data: 889520640
I1126 10:23:06.074872 10372 layer_factory.hpp:76] Creating layer inception_3b/prelu_1x1
I1126 10:23:06.074880 10372 net.cpp:106] Creating Layer inception_3b/prelu_1x1
I1126 10:23:06.074885 10372 net.cpp:454] inception_3b/prelu_1x1 <- inception_3b/1x1
I1126 10:23:06.074893 10372 net.cpp:397] inception_3b/prelu_1x1 -> inception_3b/1x1 (in-place)
I1126 10:23:06.075603 10372 net.cpp:150] Setting up inception_3b/prelu_1x1
I1126 10:23:06.075618 10372 net.cpp:157] Top shape: 32 128 28 28 (3211264)
I1126 10:23:06.075621 10372 net.cpp:165] Memory required for data: 902365696
I1126 10:23:06.075628 10372 layer_factory.hpp:76] Creating layer inception_3b/3x3_reduce
I1126 10:23:06.075639 10372 net.cpp:106] Creating Layer inception_3b/3x3_reduce
I1126 10:23:06.075644 10372 net.cpp:454] inception_3b/3x3_reduce <- inception_3a/output_inception_3a/output_0_split_1
I1126 10:23:06.075654 10372 net.cpp:411] inception_3b/3x3_reduce -> inception_3b/3x3_reduce
I1126 10:23:06.077004 10372 cudnn_conv_layer.cpp:194] Reallocating workspace storage: 20664
I1126 10:23:06.077030 10372 net.cpp:150] Setting up inception_3b/3x3_reduce
I1126 10:23:06.077039 10372 net.cpp:157] Top shape: 32 128 28 28 (3211264)
I1126 10:23:06.077044 10372 net.cpp:165] Memory required for data: 915210752
I1126 10:23:06.077052 10372 layer_factory.hpp:76] Creating layer inception_3b/prelu_3x3_reduce
I1126 10:23:06.077064 10372 net.cpp:106] Creating Layer inception_3b/prelu_3x3_reduce
I1126 10:23:06.077069 10372 net.cpp:454] inception_3b/prelu_3x3_reduce <- inception_3b/3x3_reduce
I1126 10:23:06.077075 10372 net.cpp:397] inception_3b/prelu_3x3_reduce -> inception_3b/3x3_reduce (in-place)
I1126 10:23:06.077234 10372 net.cpp:150] Setting up inception_3b/prelu_3x3_reduce
I1126 10:23:06.077241 10372 net.cpp:157] Top shape: 32 128 28 28 (3211264)
I1126 10:23:06.077245 10372 net.cpp:165] Memory required for data: 928055808
I1126 10:23:06.077261 10372 layer_factory.hpp:76] Creating layer inception_3b/3x3
I1126 10:23:06.077275 10372 net.cpp:106] Creating Layer inception_3b/3x3
I1126 10:23:06.077280 10372 net.cpp:454] inception_3b/3x3 <- inception_3b/3x3_reduce
I1126 10:23:06.077289 10372 net.cpp:411] inception_3b/3x3 -> inception_3b/3x3
I1126 10:23:06.080438 10372 cudnn_conv_layer.cpp:194] Reallocating workspace storage: 20664
I1126 10:23:06.080477 10372 net.cpp:150] Setting up inception_3b/3x3
I1126 10:23:06.080490 10372 net.cpp:157] Top shape: 32 192 28 28 (4816896)
I1126 10:23:06.080495 10372 net.cpp:165] Memory required for data: 947323392
I1126 10:23:06.080504 10372 layer_factory.hpp:76] Creating layer inception_3b/prelu_3x3
I1126 10:23:06.080518 10372 net.cpp:106] Creating Layer inception_3b/prelu_3x3
I1126 10:23:06.080523 10372 net.cpp:454] inception_3b/prelu_3x3 <- inception_3b/3x3
I1126 10:23:06.080533 10372 net.cpp:397] inception_3b/prelu_3x3 -> inception_3b/3x3 (in-place)
I1126 10:23:06.081290 10372 net.cpp:150] Setting up inception_3b/prelu_3x3
I1126 10:23:06.081308 10372 net.cpp:157] Top shape: 32 192 28 28 (4816896)
I1126 10:23:06.081312 10372 net.cpp:165] Memory required for data: 966590976
I1126 10:23:06.081320 10372 layer_factory.hpp:76] Creating layer inception_3b/5x5_reduce
I1126 10:23:06.081332 10372 net.cpp:106] Creating Layer inception_3b/5x5_reduce
I1126 10:23:06.081362 10372 net.cpp:454] inception_3b/5x5_reduce <- inception_3a/output_inception_3a/output_0_split_2
I1126 10:23:06.081375 10372 net.cpp:411] inception_3b/5x5_reduce -> inception_3b/5x5_reduce
I1126 10:23:06.082303 10372 cudnn_conv_layer.cpp:194] Reallocating workspace storage: 20664
I1126 10:23:06.082326 10372 net.cpp:150] Setting up inception_3b/5x5_reduce
I1126 10:23:06.082334 10372 net.cpp:157] Top shape: 32 32 28 28 (802816)
I1126 10:23:06.082339 10372 net.cpp:165] Memory required for data: 969802240
I1126 10:23:06.082346 10372 layer_factory.hpp:76] Creating layer inception_3b/prelu_5x5_reduce
I1126 10:23:06.082356 10372 net.cpp:106] Creating Layer inception_3b/prelu_5x5_reduce
I1126 10:23:06.082362 10372 net.cpp:454] inception_3b/prelu_5x5_reduce <- inception_3b/5x5_reduce
I1126 10:23:06.082368 10372 net.cpp:397] inception_3b/prelu_5x5_reduce -> inception_3b/5x5_reduce (in-place)
I1126 10:23:06.082469 10372 net.cpp:150] Setting up inception_3b/prelu_5x5_reduce
I1126 10:23:06.082478 10372 net.cpp:157] Top shape: 32 32 28 28 (802816)
I1126 10:23:06.082481 10372 net.cpp:165] Memory required for data: 973013504
I1126 10:23:06.082486 10372 layer_factory.hpp:76] Creating layer inception_3b/5x5
I1126 10:23:06.082497 10372 net.cpp:106] Creating Layer inception_3b/5x5
I1126 10:23:06.082502 10372 net.cpp:454] inception_3b/5x5 <- inception_3b/5x5_reduce
I1126 10:23:06.082509 10372 net.cpp:411] inception_3b/5x5 -> inception_3b/5x5
I1126 10:23:06.084272 10372 cudnn_conv_layer.cpp:194] Reallocating workspace storage: 20664
I1126 10:23:06.084314 10372 net.cpp:150] Setting up inception_3b/5x5
I1126 10:23:06.084324 10372 net.cpp:157] Top shape: 32 96 28 28 (2408448)
I1126 10:23:06.084329 10372 net.cpp:165] Memory required for data: 982647296
I1126 10:23:06.084338 10372 layer_factory.hpp:76] Creating layer inception_3b/prelu_5x5
I1126 10:23:06.084349 10372 net.cpp:106] Creating Layer inception_3b/prelu_5x5
I1126 10:23:06.084355 10372 net.cpp:454] inception_3b/prelu_5x5 <- inception_3b/5x5
I1126 10:23:06.084365 10372 net.cpp:397] inception_3b/prelu_5x5 -> inception_3b/5x5 (in-place)
I1126 10:23:06.084522 10372 net.cpp:150] Setting up inception_3b/prelu_5x5
I1126 10:23:06.084532 10372 net.cpp:157] Top shape: 32 96 28 28 (2408448)
I1126 10:23:06.084535 10372 net.cpp:165] Memory required for data: 992281088
I1126 10:23:06.084542 10372 layer_factory.hpp:76] Creating layer inception_3b/pool
I1126 10:23:06.084549 10372 net.cpp:106] Creating Layer inception_3b/pool
I1126 10:23:06.084554 10372 net.cpp:454] inception_3b/pool <- inception_3a/output_inception_3a/output_0_split_3
I1126 10:23:06.084563 10372 net.cpp:411] inception_3b/pool -> inception_3b/pool
I1126 10:23:06.084991 10372 net.cpp:150] Setting up inception_3b/pool
I1126 10:23:06.085002 10372 net.cpp:157] Top shape: 32 256 28 28 (6422528)
I1126 10:23:06.085006 10372 net.cpp:165] Memory required for data: 1017971200
I1126 10:23:06.085011 10372 layer_factory.hpp:76] Creating layer inception_3b/pool_proj
I1126 10:23:06.085022 10372 net.cpp:106] Creating Layer inception_3b/pool_proj
I1126 10:23:06.085026 10372 net.cpp:454] inception_3b/pool_proj <- inception_3b/pool
I1126 10:23:06.085036 10372 net.cpp:411] inception_3b/pool_proj -> inception_3b/pool_proj
I1126 10:23:06.086336 10372 cudnn_conv_layer.cpp:194] Reallocating workspace storage: 20664
I1126 10:23:06.086364 10372 net.cpp:150] Setting up inception_3b/pool_proj
I1126 10:23:06.086374 10372 net.cpp:157] Top shape: 32 64 28 28 (1605632)
I1126 10:23:06.086381 10372 net.cpp:165] Memory required for data: 1024393728
I1126 10:23:06.086393 10372 layer_factory.hpp:76] Creating layer inception_3b/prelu_pool_proj
I1126 10:23:06.086407 10372 net.cpp:106] Creating Layer inception_3b/prelu_pool_proj
I1126 10:23:06.086416 10372 net.cpp:454] inception_3b/prelu_pool_proj <- inception_3b/pool_proj
I1126 10:23:06.086426 10372 net.cpp:397] inception_3b/prelu_pool_proj -> inception_3b/pool_proj (in-place)
I1126 10:23:06.086575 10372 net.cpp:150] Setting up inception_3b/prelu_pool_proj
I1126 10:23:06.086607 10372 net.cpp:157] Top shape: 32 64 28 28 (1605632)
I1126 10:23:06.086611 10372 net.cpp:165] Memory required for data: 1030816256
I1126 10:23:06.086617 10372 layer_factory.hpp:76] Creating layer inception_3b/output
I1126 10:23:06.086627 10372 net.cpp:106] Creating Layer inception_3b/output
I1126 10:23:06.086632 10372 net.cpp:454] inception_3b/output <- inception_3b/1x1
I1126 10:23:06.086637 10372 net.cpp:454] inception_3b/output <- inception_3b/3x3
I1126 10:23:06.086642 10372 net.cpp:454] inception_3b/output <- inception_3b/5x5
I1126 10:23:06.086647 10372 net.cpp:454] inception_3b/output <- inception_3b/pool_proj
I1126 10:23:06.086652 10372 net.cpp:411] inception_3b/output -> inception_3b/output
I1126 10:23:06.086678 10372 net.cpp:150] Setting up inception_3b/output
I1126 10:23:06.086685 10372 net.cpp:157] Top shape: 32 480 28 28 (12042240)
I1126 10:23:06.086689 10372 net.cpp:165] Memory required for data: 1078985216
I1126 10:23:06.086694 10372 layer_factory.hpp:76] Creating layer pool3/3x3_s2
I1126 10:23:06.086700 10372 net.cpp:106] Creating Layer pool3/3x3_s2
I1126 10:23:06.086704 10372 net.cpp:454] pool3/3x3_s2 <- inception_3b/output
I1126 10:23:06.086712 10372 net.cpp:411] pool3/3x3_s2 -> pool3/3x3_s2
I1126 10:23:06.087090 10372 net.cpp:150] Setting up pool3/3x3_s2
I1126 10:23:06.087100 10372 net.cpp:157] Top shape: 32 480 14 14 (3010560)
I1126 10:23:06.087105 10372 net.cpp:165] Memory required for data: 1091027456
I1126 10:23:06.087108 10372 layer_factory.hpp:76] Creating layer pool3/3x3_s2_pool3/3x3_s2_0_split
I1126 10:23:06.087117 10372 net.cpp:106] Creating Layer pool3/3x3_s2_pool3/3x3_s2_0_split
I1126 10:23:06.087122 10372 net.cpp:454] pool3/3x3_s2_pool3/3x3_s2_0_split <- pool3/3x3_s2
I1126 10:23:06.087128 10372 net.cpp:411] pool3/3x3_s2_pool3/3x3_s2_0_split -> pool3/3x3_s2_pool3/3x3_s2_0_split_0
I1126 10:23:06.087136 10372 net.cpp:411] pool3/3x3_s2_pool3/3x3_s2_0_split -> pool3/3x3_s2_pool3/3x3_s2_0_split_1
I1126 10:23:06.087142 10372 net.cpp:411] pool3/3x3_s2_pool3/3x3_s2_0_split -> pool3/3x3_s2_pool3/3x3_s2_0_split_2
I1126 10:23:06.087149 10372 net.cpp:411] pool3/3x3_s2_pool3/3x3_s2_0_split -> pool3/3x3_s2_pool3/3x3_s2_0_split_3
I1126 10:23:06.087203 10372 net.cpp:150] Setting up pool3/3x3_s2_pool3/3x3_s2_0_split
I1126 10:23:06.087211 10372 net.cpp:157] Top shape: 32 480 14 14 (3010560)
I1126 10:23:06.087216 10372 net.cpp:157] Top shape: 32 480 14 14 (3010560)
I1126 10:23:06.087221 10372 net.cpp:157] Top shape: 32 480 14 14 (3010560)
I1126 10:23:06.087226 10372 net.cpp:157] Top shape: 32 480 14 14 (3010560)
I1126 10:23:06.087230 10372 net.cpp:165] Memory required for data: 1139196416
I1126 10:23:06.087234 10372 layer_factory.hpp:76] Creating layer inception_4a/1x1
I1126 10:23:06.087249 10372 net.cpp:106] Creating Layer inception_4a/1x1
I1126 10:23:06.087254 10372 net.cpp:454] inception_4a/1x1 <- pool3/3x3_s2_pool3/3x3_s2_0_split_0
I1126 10:23:06.087261 10372 net.cpp:411] inception_4a/1x1 -> inception_4a/1x1
I1126 10:23:06.089475 10372 cudnn_conv_layer.cpp:194] Reallocating workspace storage: 10080
I1126 10:23:06.089722 10372 net.cpp:150] Setting up inception_4a/1x1
I1126 10:23:06.089738 10372 net.cpp:157] Top shape: 32 192 14 14 (1204224)
I1126 10:23:06.089743 10372 net.cpp:165] Memory required for data: 1144013312
I1126 10:23:06.089762 10372 layer_factory.hpp:76] Creating layer inception_4a/prelu_1x1
I1126 10:23:06.089776 10372 net.cpp:106] Creating Layer inception_4a/prelu_1x1
I1126 10:23:06.089783 10372 net.cpp:454] inception_4a/prelu_1x1 <- inception_4a/1x1
I1126 10:23:06.089794 10372 net.cpp:397] inception_4a/prelu_1x1 -> inception_4a/1x1 (in-place)
I1126 10:23:06.090574 10372 net.cpp:150] Setting up inception_4a/prelu_1x1
I1126 10:23:06.090596 10372 net.cpp:157] Top shape: 32 192 14 14 (1204224)
I1126 10:23:06.090601 10372 net.cpp:165] Memory required for data: 1148830208
I1126 10:23:06.090608 10372 layer_factory.hpp:76] Creating layer inception_4a/3x3_reduce
I1126 10:23:06.090625 10372 net.cpp:106] Creating Layer inception_4a/3x3_reduce
I1126 10:23:06.090637 10372 net.cpp:454] inception_4a/3x3_reduce <- pool3/3x3_s2_pool3/3x3_s2_0_split_1
I1126 10:23:06.090684 10372 net.cpp:411] inception_4a/3x3_reduce -> inception_4a/3x3_reduce
I1126 10:23:06.092223 10372 cudnn_conv_layer.cpp:194] Reallocating workspace storage: 10080
I1126 10:23:06.092275 10372 net.cpp:150] Setting up inception_4a/3x3_reduce
I1126 10:23:06.092285 10372 net.cpp:157] Top shape: 32 96 14 14 (602112)
I1126 10:23:06.092309 10372 net.cpp:165] Memory required for data: 1151238656
I1126 10:23:06.092319 10372 layer_factory.hpp:76] Creating layer inception_4a/prelu_3x3_reduce
I1126 10:23:06.092334 10372 net.cpp:106] Creating Layer inception_4a/prelu_3x3_reduce
I1126 10:23:06.092339 10372 net.cpp:454] inception_4a/prelu_3x3_reduce <- inception_4a/3x3_reduce
I1126 10:23:06.092347 10372 net.cpp:397] inception_4a/prelu_3x3_reduce -> inception_4a/3x3_reduce (in-place)
I1126 10:23:06.092470 10372 net.cpp:150] Setting up inception_4a/prelu_3x3_reduce
I1126 10:23:06.092480 10372 net.cpp:157] Top shape: 32 96 14 14 (602112)
I1126 10:23:06.092484 10372 net.cpp:165] Memory required for data: 1153647104
I1126 10:23:06.092489 10372 layer_factory.hpp:76] Creating layer inception_4a/3x3
I1126 10:23:06.092501 10372 net.cpp:106] Creating Layer inception_4a/3x3
I1126 10:23:06.092506 10372 net.cpp:454] inception_4a/3x3 <- inception_4a/3x3_reduce
I1126 10:23:06.092514 10372 net.cpp:411] inception_4a/3x3 -> inception_4a/3x3
I1126 10:23:06.095795 10372 cudnn_conv_layer.cpp:194] Reallocating workspace storage: 10080
I1126 10:23:06.095865 10372 net.cpp:150] Setting up inception_4a/3x3
I1126 10:23:06.095906 10372 net.cpp:157] Top shape: 32 208 14 14 (1304576)
I1126 10:23:06.095916 10372 net.cpp:165] Memory required for data: 1158865408
I1126 10:23:06.095934 10372 layer_factory.hpp:76] Creating layer inception_4a/prelu_3x3
I1126 10:23:06.095959 10372 net.cpp:106] Creating Layer inception_4a/prelu_3x3
I1126 10:23:06.095970 10372 net.cpp:454] inception_4a/prelu_3x3 <- inception_4a/3x3
I1126 10:23:06.095984 10372 net.cpp:397] inception_4a/prelu_3x3 -> inception_4a/3x3 (in-place)
I1126 10:23:06.096196 10372 net.cpp:150] Setting up inception_4a/prelu_3x3
I1126 10:23:06.096213 10372 net.cpp:157] Top shape: 32 208 14 14 (1304576)
I1126 10:23:06.096220 10372 net.cpp:165] Memory required for data: 1164083712
I1126 10:23:06.096230 10372 layer_factory.hpp:76] Creating layer inception_4a/5x5_reduce
I1126 10:23:06.096249 10372 net.cpp:106] Creating Layer inception_4a/5x5_reduce
I1126 10:23:06.096259 10372 net.cpp:454] inception_4a/5x5_reduce <- pool3/3x3_s2_pool3/3x3_s2_0_split_2
I1126 10:23:06.096274 10372 net.cpp:411] inception_4a/5x5_reduce -> inception_4a/5x5_reduce
I1126 10:23:06.097520 10372 cudnn_conv_layer.cpp:194] Reallocating workspace storage: 10080
I1126 10:23:06.097556 10372 net.cpp:150] Setting up inception_4a/5x5_reduce
I1126 10:23:06.097565 10372 net.cpp:157] Top shape: 32 16 14 14 (100352)
I1126 10:23:06.097569 10372 net.cpp:165] Memory required for data: 1164485120
I1126 10:23:06.097579 10372 layer_factory.hpp:76] Creating layer inception_4a/prelu_5x5_reduce
I1126 10:23:06.097590 10372 net.cpp:106] Creating Layer inception_4a/prelu_5x5_reduce
I1126 10:23:06.097596 10372 net.cpp:454] inception_4a/prelu_5x5_reduce <- inception_4a/5x5_reduce
I1126 10:23:06.097605 10372 net.cpp:397] inception_4a/prelu_5x5_reduce -> inception_4a/5x5_reduce (in-place)
I1126 10:23:06.097698 10372 net.cpp:150] Setting up inception_4a/prelu_5x5_reduce
I1126 10:23:06.097707 10372 net.cpp:157] Top shape: 32 16 14 14 (100352)
I1126 10:23:06.097712 10372 net.cpp:165] Memory required for data: 1164886528
I1126 10:23:06.097717 10372 layer_factory.hpp:76] Creating layer inception_4a/5x5
I1126 10:23:06.097728 10372 net.cpp:106] Creating Layer inception_4a/5x5
I1126 10:23:06.097733 10372 net.cpp:454] inception_4a/5x5 <- inception_4a/5x5_reduce
I1126 10:23:06.097740 10372 net.cpp:411] inception_4a/5x5 -> inception_4a/5x5
I1126 10:23:06.099104 10372 cudnn_conv_layer.cpp:194] Reallocating workspace storage: 13080
I1126 10:23:06.099149 10372 net.cpp:150] Setting up inception_4a/5x5
I1126 10:23:06.099162 10372 net.cpp:157] Top shape: 32 48 14 14 (301056)
I1126 10:23:06.099230 10372 net.cpp:165] Memory required for data: 1166090752
I1126 10:23:06.099243 10372 layer_factory.hpp:76] Creating layer inception_4a/prelu_5x5
I1126 10:23:06.099263 10372 net.cpp:106] Creating Layer inception_4a/prelu_5x5
I1126 10:23:06.099272 10372 net.cpp:454] inception_4a/prelu_5x5 <- inception_4a/5x5
I1126 10:23:06.099282 10372 net.cpp:397] inception_4a/prelu_5x5 -> inception_4a/5x5 (in-place)
I1126 10:23:06.099457 10372 net.cpp:150] Setting up inception_4a/prelu_5x5
I1126 10:23:06.099470 10372 net.cpp:157] Top shape: 32 48 14 14 (301056)
I1126 10:23:06.099475 10372 net.cpp:165] Memory required for data: 1167294976
I1126 10:23:06.099493 10372 layer_factory.hpp:76] Creating layer inception_4a/pool
I1126 10:23:06.099519 10372 net.cpp:106] Creating Layer inception_4a/pool
I1126 10:23:06.099535 10372 net.cpp:454] inception_4a/pool <- pool3/3x3_s2_pool3/3x3_s2_0_split_3
I1126 10:23:06.099545 10372 net.cpp:411] inception_4a/pool -> inception_4a/pool
I1126 10:23:06.100074 10372 net.cpp:150] Setting up inception_4a/pool
I1126 10:23:06.100085 10372 net.cpp:157] Top shape: 32 480 14 14 (3010560)
I1126 10:23:06.100090 10372 net.cpp:165] Memory required for data: 1179337216
I1126 10:23:06.100095 10372 layer_factory.hpp:76] Creating layer inception_4a/pool_proj
I1126 10:23:06.100106 10372 net.cpp:106] Creating Layer inception_4a/pool_proj
I1126 10:23:06.100111 10372 net.cpp:454] inception_4a/pool_proj <- inception_4a/pool
I1126 10:23:06.100121 10372 net.cpp:411] inception_4a/pool_proj -> inception_4a/pool_proj
I1126 10:23:06.101400 10372 cudnn_conv_layer.cpp:194] Reallocating workspace storage: 10080
I1126 10:23:06.101435 10372 net.cpp:150] Setting up inception_4a/pool_proj
I1126 10:23:06.101444 10372 net.cpp:157] Top shape: 32 64 14 14 (401408)
I1126 10:23:06.101447 10372 net.cpp:165] Memory required for data: 1180942848
I1126 10:23:06.101456 10372 layer_factory.hpp:76] Creating layer inception_4a/prelu_pool_proj
I1126 10:23:06.101465 10372 net.cpp:106] Creating Layer inception_4a/prelu_pool_proj
I1126 10:23:06.101470 10372 net.cpp:454] inception_4a/prelu_pool_proj <- inception_4a/pool_proj
I1126 10:23:06.101480 10372 net.cpp:397] inception_4a/prelu_pool_proj -> inception_4a/pool_proj (in-place)
I1126 10:23:06.101583 10372 net.cpp:150] Setting up inception_4a/prelu_pool_proj
I1126 10:23:06.101591 10372 net.cpp:157] Top shape: 32 64 14 14 (401408)
I1126 10:23:06.101606 10372 net.cpp:165] Memory required for data: 1182548480
I1126 10:23:06.101613 10372 layer_factory.hpp:76] Creating layer inception_4a/output
I1126 10:23:06.101620 10372 net.cpp:106] Creating Layer inception_4a/output
I1126 10:23:06.101625 10372 net.cpp:454] inception_4a/output <- inception_4a/1x1
I1126 10:23:06.101630 10372 net.cpp:454] inception_4a/output <- inception_4a/3x3
I1126 10:23:06.101635 10372 net.cpp:454] inception_4a/output <- inception_4a/5x5
I1126 10:23:06.101639 10372 net.cpp:454] inception_4a/output <- inception_4a/pool_proj
I1126 10:23:06.101646 10372 net.cpp:411] inception_4a/output -> inception_4a/output
I1126 10:23:06.101672 10372 net.cpp:150] Setting up inception_4a/output
I1126 10:23:06.101681 10372 net.cpp:157] Top shape: 32 512 14 14 (3211264)
I1126 10:23:06.101686 10372 net.cpp:165] Memory required for data: 1195393536
I1126 10:23:06.101689 10372 layer_factory.hpp:76] Creating layer inception_4a/output_inception_4a/output_0_split
I1126 10:23:06.101696 10372 net.cpp:106] Creating Layer inception_4a/output_inception_4a/output_0_split
I1126 10:23:06.101701 10372 net.cpp:454] inception_4a/output_inception_4a/output_0_split <- inception_4a/output
I1126 10:23:06.101706 10372 net.cpp:411] inception_4a/output_inception_4a/output_0_split -> inception_4a/output_inception_4a/output_0_split_0
I1126 10:23:06.101713 10372 net.cpp:411] inception_4a/output_inception_4a/output_0_split -> inception_4a/output_inception_4a/output_0_split_1
I1126 10:23:06.101721 10372 net.cpp:411] inception_4a/output_inception_4a/output_0_split -> inception_4a/output_inception_4a/output_0_split_2
I1126 10:23:06.101748 10372 net.cpp:411] inception_4a/output_inception_4a/output_0_split -> inception_4a/output_inception_4a/output_0_split_3
I1126 10:23:06.101757 10372 net.cpp:411] inception_4a/output_inception_4a/output_0_split -> inception_4a/output_inception_4a/output_0_split_4
I1126 10:23:06.101824 10372 net.cpp:150] Setting up inception_4a/output_inception_4a/output_0_split
I1126 10:23:06.101830 10372 net.cpp:157] Top shape: 32 512 14 14 (3211264)
I1126 10:23:06.101835 10372 net.cpp:157] Top shape: 32 512 14 14 (3211264)
I1126 10:23:06.101840 10372 net.cpp:157] Top shape: 32 512 14 14 (3211264)
I1126 10:23:06.101845 10372 net.cpp:157] Top shape: 32 512 14 14 (3211264)
I1126 10:23:06.101850 10372 net.cpp:157] Top shape: 32 512 14 14 (3211264)
I1126 10:23:06.101855 10372 net.cpp:165] Memory required for data: 1259618816
I1126 10:23:06.101858 10372 layer_factory.hpp:76] Creating layer loss1/ave_pool
I1126 10:23:06.101866 10372 net.cpp:106] Creating Layer loss1/ave_pool
I1126 10:23:06.101871 10372 net.cpp:454] loss1/ave_pool <- inception_4a/output_inception_4a/output_0_split_0
I1126 10:23:06.101876 10372 net.cpp:411] loss1/ave_pool -> loss1/ave_pool
I1126 10:23:06.102288 10372 net.cpp:150] Setting up loss1/ave_pool
I1126 10:23:06.102298 10372 net.cpp:157] Top shape: 32 512 4 4 (262144)
I1126 10:23:06.102303 10372 net.cpp:165] Memory required for data: 1260667392
I1126 10:23:06.102308 10372 layer_factory.hpp:76] Creating layer loss1/conv
I1126 10:23:06.102321 10372 net.cpp:106] Creating Layer loss1/conv
I1126 10:23:06.102326 10372 net.cpp:454] loss1/conv <- loss1/ave_pool
I1126 10:23:06.102334 10372 net.cpp:411] loss1/conv -> loss1/conv
I1126 10:23:06.104061 10372 cudnn_conv_layer.cpp:194] Reallocating workspace storage: 6840
I1126 10:23:06.104091 10372 net.cpp:150] Setting up loss1/conv
I1126 10:23:06.104099 10372 net.cpp:157] Top shape: 32 128 4 4 (65536)
I1126 10:23:06.104104 10372 net.cpp:165] Memory required for data: 1260929536
I1126 10:23:06.104123 10372 layer_factory.hpp:76] Creating layer loss1/prelu_conv
I1126 10:23:06.104135 10372 net.cpp:106] Creating Layer loss1/prelu_conv
I1126 10:23:06.104140 10372 net.cpp:454] loss1/prelu_conv <- loss1/conv
I1126 10:23:06.104146 10372 net.cpp:397] loss1/prelu_conv -> loss1/conv (in-place)
I1126 10:23:06.104243 10372 net.cpp:150] Setting up loss1/prelu_conv
I1126 10:23:06.104250 10372 net.cpp:157] Top shape: 32 128 4 4 (65536)
I1126 10:23:06.104254 10372 net.cpp:165] Memory required for data: 1261191680
I1126 10:23:06.104260 10372 layer_factory.hpp:76] Creating layer loss1/fc
I1126 10:23:06.104274 10372 net.cpp:106] Creating Layer loss1/fc
I1126 10:23:06.104279 10372 net.cpp:454] loss1/fc <- loss1/conv
I1126 10:23:06.104287 10372 net.cpp:411] loss1/fc -> loss1/fc
I1126 10:23:06.122354 10372 net.cpp:150] Setting up loss1/fc
I1126 10:23:06.122406 10372 net.cpp:157] Top shape: 32 1024 (32768)
I1126 10:23:06.122414 10372 net.cpp:165] Memory required for data: 1261322752
I1126 10:23:06.122433 10372 layer_factory.hpp:76] Creating layer loss1/prelu_fc
I1126 10:23:06.122463 10372 net.cpp:106] Creating Layer loss1/prelu_fc
I1126 10:23:06.122476 10372 net.cpp:454] loss1/prelu_fc <- loss1/fc
I1126 10:23:06.122490 10372 net.cpp:397] loss1/prelu_fc -> loss1/fc (in-place)
I1126 10:23:06.122612 10372 net.cpp:150] Setting up loss1/prelu_fc
I1126 10:23:06.122653 10372 net.cpp:157] Top shape: 32 1024 (32768)
I1126 10:23:06.122658 10372 net.cpp:165] Memory required for data: 1261453824
I1126 10:23:06.122665 10372 layer_factory.hpp:76] Creating layer loss1/drop_fc
I1126 10:23:06.122690 10372 net.cpp:106] Creating Layer loss1/drop_fc
I1126 10:23:06.122696 10372 net.cpp:454] loss1/drop_fc <- loss1/fc
I1126 10:23:06.122702 10372 net.cpp:397] loss1/drop_fc -> loss1/fc (in-place)
I1126 10:23:06.122746 10372 net.cpp:150] Setting up loss1/drop_fc
I1126 10:23:06.122755 10372 net.cpp:157] Top shape: 32 1024 (32768)
I1126 10:23:06.122758 10372 net.cpp:165] Memory required for data: 1261584896
I1126 10:23:06.122764 10372 layer_factory.hpp:76] Creating layer loss1/classifier2
I1126 10:23:06.122776 10372 net.cpp:106] Creating Layer loss1/classifier2
I1126 10:23:06.122810 10372 net.cpp:454] loss1/classifier2 <- loss1/fc
I1126 10:23:06.122818 10372 net.cpp:411] loss1/classifier2 -> loss1/classifier
I1126 10:23:06.122952 10372 net.cpp:150] Setting up loss1/classifier2
I1126 10:23:06.122962 10372 net.cpp:157] Top shape: 32 2 (64)
I1126 10:23:06.122967 10372 net.cpp:165] Memory required for data: 1261585152
I1126 10:23:06.122973 10372 layer_factory.hpp:76] Creating layer loss1/loss
I1126 10:23:06.122984 10372 net.cpp:106] Creating Layer loss1/loss
I1126 10:23:06.122988 10372 net.cpp:454] loss1/loss <- loss1/classifier
I1126 10:23:06.122994 10372 net.cpp:454] loss1/loss <- label_data_1_split_0
I1126 10:23:06.123000 10372 net.cpp:411] loss1/loss -> loss1/loss1
I1126 10:23:06.123016 10372 layer_factory.hpp:76] Creating layer loss1/loss
I1126 10:23:06.123378 10372 net.cpp:150] Setting up loss1/loss
I1126 10:23:06.123394 10372 net.cpp:157] Top shape: (1)
I1126 10:23:06.123399 10372 net.cpp:160]     with loss weight 0.3
I1126 10:23:06.123430 10372 net.cpp:165] Memory required for data: 1261585156
I1126 10:23:06.123435 10372 layer_factory.hpp:76] Creating layer inception_4b/1x1
I1126 10:23:06.123450 10372 net.cpp:106] Creating Layer inception_4b/1x1
I1126 10:23:06.123456 10372 net.cpp:454] inception_4b/1x1 <- inception_4a/output_inception_4a/output_0_split_1
I1126 10:23:06.123466 10372 net.cpp:411] inception_4b/1x1 -> inception_4b/1x1
I1126 10:23:06.125511 10372 cudnn_conv_layer.cpp:194] Reallocating workspace storage: 10080
I1126 10:23:06.125576 10372 net.cpp:150] Setting up inception_4b/1x1
I1126 10:23:06.125593 10372 net.cpp:157] Top shape: 32 160 14 14 (1003520)
I1126 10:23:06.125598 10372 net.cpp:165] Memory required for data: 1265599236
I1126 10:23:06.125612 10372 layer_factory.hpp:76] Creating layer inception_4b/prelu_1x1
I1126 10:23:06.125627 10372 net.cpp:106] Creating Layer inception_4b/prelu_1x1
I1126 10:23:06.125635 10372 net.cpp:454] inception_4b/prelu_1x1 <- inception_4b/1x1
I1126 10:23:06.125648 10372 net.cpp:397] inception_4b/prelu_1x1 -> inception_4b/1x1 (in-place)
I1126 10:23:06.126701 10372 net.cpp:150] Setting up inception_4b/prelu_1x1
I1126 10:23:06.126736 10372 net.cpp:157] Top shape: 32 160 14 14 (1003520)
I1126 10:23:06.126744 10372 net.cpp:165] Memory required for data: 1269613316
I1126 10:23:06.126755 10372 layer_factory.hpp:76] Creating layer inception_4b/3x3_reduce
I1126 10:23:06.126780 10372 net.cpp:106] Creating Layer inception_4b/3x3_reduce
I1126 10:23:06.126791 10372 net.cpp:454] inception_4b/3x3_reduce <- inception_4a/output_inception_4a/output_0_split_2
I1126 10:23:06.126806 10372 net.cpp:411] inception_4b/3x3_reduce -> inception_4b/3x3_reduce
I1126 10:23:06.128931 10372 cudnn_conv_layer.cpp:194] Reallocating workspace storage: 10080
I1126 10:23:06.128976 10372 net.cpp:150] Setting up inception_4b/3x3_reduce
I1126 10:23:06.128986 10372 net.cpp:157] Top shape: 32 112 14 14 (702464)
I1126 10:23:06.128991 10372 net.cpp:165] Memory required for data: 1272423172
I1126 10:23:06.129000 10372 layer_factory.hpp:76] Creating layer inception_4b/prelu_3x3_reduce
I1126 10:23:06.129017 10372 net.cpp:106] Creating Layer inception_4b/prelu_3x3_reduce
I1126 10:23:06.129024 10372 net.cpp:454] inception_4b/prelu_3x3_reduce <- inception_4b/3x3_reduce
I1126 10:23:06.129031 10372 net.cpp:397] inception_4b/prelu_3x3_reduce -> inception_4b/3x3_reduce (in-place)
I1126 10:23:06.129192 10372 net.cpp:150] Setting up inception_4b/prelu_3x3_reduce
I1126 10:23:06.129201 10372 net.cpp:157] Top shape: 32 112 14 14 (702464)
I1126 10:23:06.129205 10372 net.cpp:165] Memory required for data: 1275233028
I1126 10:23:06.129211 10372 layer_factory.hpp:76] Creating layer inception_4b/3x3
I1126 10:23:06.129222 10372 net.cpp:106] Creating Layer inception_4b/3x3
I1126 10:23:06.129227 10372 net.cpp:454] inception_4b/3x3 <- inception_4b/3x3_reduce
I1126 10:23:06.129235 10372 net.cpp:411] inception_4b/3x3 -> inception_4b/3x3
I1126 10:23:06.132464 10372 cudnn_conv_layer.cpp:194] Reallocating workspace storage: 10080
I1126 10:23:06.132518 10372 net.cpp:150] Setting up inception_4b/3x3
I1126 10:23:06.132560 10372 net.cpp:157] Top shape: 32 224 14 14 (1404928)
I1126 10:23:06.132566 10372 net.cpp:165] Memory required for data: 1280852740
I1126 10:23:06.132580 10372 layer_factory.hpp:76] Creating layer inception_4b/prelu_3x3
I1126 10:23:06.132593 10372 net.cpp:106] Creating Layer inception_4b/prelu_3x3
I1126 10:23:06.132601 10372 net.cpp:454] inception_4b/prelu_3x3 <- inception_4b/3x3
I1126 10:23:06.132613 10372 net.cpp:397] inception_4b/prelu_3x3 -> inception_4b/3x3 (in-place)
I1126 10:23:06.132804 10372 net.cpp:150] Setting up inception_4b/prelu_3x3
I1126 10:23:06.132813 10372 net.cpp:157] Top shape: 32 224 14 14 (1404928)
I1126 10:23:06.132817 10372 net.cpp:165] Memory required for data: 1286472452
I1126 10:23:06.132823 10372 layer_factory.hpp:76] Creating layer inception_4b/5x5_reduce
I1126 10:23:06.132834 10372 net.cpp:106] Creating Layer inception_4b/5x5_reduce
I1126 10:23:06.132839 10372 net.cpp:454] inception_4b/5x5_reduce <- inception_4a/output_inception_4a/output_0_split_3
I1126 10:23:06.132846 10372 net.cpp:411] inception_4b/5x5_reduce -> inception_4b/5x5_reduce
I1126 10:23:06.134032 10372 cudnn_conv_layer.cpp:194] Reallocating workspace storage: 10080
I1126 10:23:06.134060 10372 net.cpp:150] Setting up inception_4b/5x5_reduce
I1126 10:23:06.134069 10372 net.cpp:157] Top shape: 32 24 14 14 (150528)
I1126 10:23:06.134073 10372 net.cpp:165] Memory required for data: 1287074564
I1126 10:23:06.134081 10372 layer_factory.hpp:76] Creating layer inception_4b/prelu_5x5_reduce
I1126 10:23:06.134090 10372 net.cpp:106] Creating Layer inception_4b/prelu_5x5_reduce
I1126 10:23:06.134095 10372 net.cpp:454] inception_4b/prelu_5x5_reduce <- inception_4b/5x5_reduce
I1126 10:23:06.134106 10372 net.cpp:397] inception_4b/prelu_5x5_reduce -> inception_4b/5x5_reduce (in-place)
I1126 10:23:06.134222 10372 net.cpp:150] Setting up inception_4b/prelu_5x5_reduce
I1126 10:23:06.134229 10372 net.cpp:157] Top shape: 32 24 14 14 (150528)
I1126 10:23:06.134233 10372 net.cpp:165] Memory required for data: 1287676676
I1126 10:23:06.134239 10372 layer_factory.hpp:76] Creating layer inception_4b/5x5
I1126 10:23:06.134249 10372 net.cpp:106] Creating Layer inception_4b/5x5
I1126 10:23:06.134254 10372 net.cpp:454] inception_4b/5x5 <- inception_4b/5x5_reduce
I1126 10:23:06.134263 10372 net.cpp:411] inception_4b/5x5 -> inception_4b/5x5
I1126 10:23:06.135545 10372 cudnn_conv_layer.cpp:194] Reallocating workspace storage: 13080
I1126 10:23:06.135572 10372 net.cpp:150] Setting up inception_4b/5x5
I1126 10:23:06.135581 10372 net.cpp:157] Top shape: 32 64 14 14 (401408)
I1126 10:23:06.135584 10372 net.cpp:165] Memory required for data: 1289282308
I1126 10:23:06.135591 10372 layer_factory.hpp:76] Creating layer inception_4b/prelu_5x5
I1126 10:23:06.135601 10372 net.cpp:106] Creating Layer inception_4b/prelu_5x5
I1126 10:23:06.135606 10372 net.cpp:454] inception_4b/prelu_5x5 <- inception_4b/5x5
I1126 10:23:06.135612 10372 net.cpp:397] inception_4b/prelu_5x5 -> inception_4b/5x5 (in-place)
I1126 10:23:06.135715 10372 net.cpp:150] Setting up inception_4b/prelu_5x5
I1126 10:23:06.135723 10372 net.cpp:157] Top shape: 32 64 14 14 (401408)
I1126 10:23:06.135727 10372 net.cpp:165] Memory required for data: 1290887940
I1126 10:23:06.135733 10372 layer_factory.hpp:76] Creating layer inception_4b/pool
I1126 10:23:06.135742 10372 net.cpp:106] Creating Layer inception_4b/pool
I1126 10:23:06.135747 10372 net.cpp:454] inception_4b/pool <- inception_4a/output_inception_4a/output_0_split_4
I1126 10:23:06.135753 10372 net.cpp:411] inception_4b/pool -> inception_4b/pool
I1126 10:23:06.136147 10372 net.cpp:150] Setting up inception_4b/pool
I1126 10:23:06.136158 10372 net.cpp:157] Top shape: 32 512 14 14 (3211264)
I1126 10:23:06.136163 10372 net.cpp:165] Memory required for data: 1303732996
I1126 10:23:06.136168 10372 layer_factory.hpp:76] Creating layer inception_4b/pool_proj
I1126 10:23:06.136178 10372 net.cpp:106] Creating Layer inception_4b/pool_proj
I1126 10:23:06.136183 10372 net.cpp:454] inception_4b/pool_proj <- inception_4b/pool
I1126 10:23:06.136209 10372 net.cpp:411] inception_4b/pool_proj -> inception_4b/pool_proj
I1126 10:23:06.137689 10372 cudnn_conv_layer.cpp:194] Reallocating workspace storage: 10080
I1126 10:23:06.137732 10372 net.cpp:150] Setting up inception_4b/pool_proj
I1126 10:23:06.137747 10372 net.cpp:157] Top shape: 32 64 14 14 (401408)
I1126 10:23:06.137754 10372 net.cpp:165] Memory required for data: 1305338628
I1126 10:23:06.137766 10372 layer_factory.hpp:76] Creating layer inception_4b/prelu_pool_proj
I1126 10:23:06.137783 10372 net.cpp:106] Creating Layer inception_4b/prelu_pool_proj
I1126 10:23:06.137790 10372 net.cpp:454] inception_4b/prelu_pool_proj <- inception_4b/pool_proj
I1126 10:23:06.137802 10372 net.cpp:397] inception_4b/prelu_pool_proj -> inception_4b/pool_proj (in-place)
I1126 10:23:06.137980 10372 net.cpp:150] Setting up inception_4b/prelu_pool_proj
I1126 10:23:06.137992 10372 net.cpp:157] Top shape: 32 64 14 14 (401408)
I1126 10:23:06.138000 10372 net.cpp:165] Memory required for data: 1306944260
I1126 10:23:06.138008 10372 layer_factory.hpp:76] Creating layer inception_4b/output
I1126 10:23:06.138022 10372 net.cpp:106] Creating Layer inception_4b/output
I1126 10:23:06.138031 10372 net.cpp:454] inception_4b/output <- inception_4b/1x1
I1126 10:23:06.138038 10372 net.cpp:454] inception_4b/output <- inception_4b/3x3
I1126 10:23:06.138046 10372 net.cpp:454] inception_4b/output <- inception_4b/5x5
I1126 10:23:06.138054 10372 net.cpp:454] inception_4b/output <- inception_4b/pool_proj
I1126 10:23:06.138063 10372 net.cpp:411] inception_4b/output -> inception_4b/output
I1126 10:23:06.138101 10372 net.cpp:150] Setting up inception_4b/output
I1126 10:23:06.138113 10372 net.cpp:157] Top shape: 32 512 14 14 (3211264)
I1126 10:23:06.138119 10372 net.cpp:165] Memory required for data: 1319789316
I1126 10:23:06.138126 10372 layer_factory.hpp:76] Creating layer inception_4b/output_inception_4b/output_0_split
I1126 10:23:06.138136 10372 net.cpp:106] Creating Layer inception_4b/output_inception_4b/output_0_split
I1126 10:23:06.138144 10372 net.cpp:454] inception_4b/output_inception_4b/output_0_split <- inception_4b/output
I1126 10:23:06.138155 10372 net.cpp:411] inception_4b/output_inception_4b/output_0_split -> inception_4b/output_inception_4b/output_0_split_0
I1126 10:23:06.138166 10372 net.cpp:411] inception_4b/output_inception_4b/output_0_split -> inception_4b/output_inception_4b/output_0_split_1
I1126 10:23:06.138177 10372 net.cpp:411] inception_4b/output_inception_4b/output_0_split -> inception_4b/output_inception_4b/output_0_split_2
I1126 10:23:06.138188 10372 net.cpp:411] inception_4b/output_inception_4b/output_0_split -> inception_4b/output_inception_4b/output_0_split_3
I1126 10:23:06.138279 10372 net.cpp:150] Setting up inception_4b/output_inception_4b/output_0_split
I1126 10:23:06.138290 10372 net.cpp:157] Top shape: 32 512 14 14 (3211264)
I1126 10:23:06.138299 10372 net.cpp:157] Top shape: 32 512 14 14 (3211264)
I1126 10:23:06.138308 10372 net.cpp:157] Top shape: 32 512 14 14 (3211264)
I1126 10:23:06.138316 10372 net.cpp:157] Top shape: 32 512 14 14 (3211264)
I1126 10:23:06.138322 10372 net.cpp:165] Memory required for data: 1371169540
I1126 10:23:06.138329 10372 layer_factory.hpp:76] Creating layer inception_4c/1x1
I1126 10:23:06.138341 10372 net.cpp:106] Creating Layer inception_4c/1x1
I1126 10:23:06.138348 10372 net.cpp:454] inception_4c/1x1 <- inception_4b/output_inception_4b/output_0_split_0
I1126 10:23:06.138358 10372 net.cpp:411] inception_4c/1x1 -> inception_4c/1x1
I1126 10:23:06.141126 10372 cudnn_conv_layer.cpp:194] Reallocating workspace storage: 10080
I1126 10:23:06.141176 10372 net.cpp:150] Setting up inception_4c/1x1
I1126 10:23:06.141190 10372 net.cpp:157] Top shape: 32 128 14 14 (802816)
I1126 10:23:06.141196 10372 net.cpp:165] Memory required for data: 1374380804
I1126 10:23:06.141211 10372 layer_factory.hpp:76] Creating layer inception_4c/prelu_1x1
I1126 10:23:06.141224 10372 net.cpp:106] Creating Layer inception_4c/prelu_1x1
I1126 10:23:06.141233 10372 net.cpp:454] inception_4c/prelu_1x1 <- inception_4c/1x1
I1126 10:23:06.141269 10372 net.cpp:397] inception_4c/prelu_1x1 -> inception_4c/1x1 (in-place)
I1126 10:23:06.141428 10372 net.cpp:150] Setting up inception_4c/prelu_1x1
I1126 10:23:06.141441 10372 net.cpp:157] Top shape: 32 128 14 14 (802816)
I1126 10:23:06.141448 10372 net.cpp:165] Memory required for data: 1377592068
I1126 10:23:06.141458 10372 layer_factory.hpp:76] Creating layer inception_4c/3x3_reduce
I1126 10:23:06.141471 10372 net.cpp:106] Creating Layer inception_4c/3x3_reduce
I1126 10:23:06.141479 10372 net.cpp:454] inception_4c/3x3_reduce <- inception_4b/output_inception_4b/output_0_split_1
I1126 10:23:06.141491 10372 net.cpp:411] inception_4c/3x3_reduce -> inception_4c/3x3_reduce
I1126 10:23:06.143874 10372 cudnn_conv_layer.cpp:194] Reallocating workspace storage: 10080
I1126 10:23:06.143929 10372 net.cpp:150] Setting up inception_4c/3x3_reduce
I1126 10:23:06.143941 10372 net.cpp:157] Top shape: 32 128 14 14 (802816)
I1126 10:23:06.143947 10372 net.cpp:165] Memory required for data: 1380803332
I1126 10:23:06.143960 10372 layer_factory.hpp:76] Creating layer inception_4c/prelu_3x3_reduce
I1126 10:23:06.143975 10372 net.cpp:106] Creating Layer inception_4c/prelu_3x3_reduce
I1126 10:23:06.143983 10372 net.cpp:454] inception_4c/prelu_3x3_reduce <- inception_4c/3x3_reduce
I1126 10:23:06.144000 10372 net.cpp:397] inception_4c/prelu_3x3_reduce -> inception_4c/3x3_reduce (in-place)
I1126 10:23:06.144176 10372 net.cpp:150] Setting up inception_4c/prelu_3x3_reduce
I1126 10:23:06.144189 10372 net.cpp:157] Top shape: 32 128 14 14 (802816)
I1126 10:23:06.144197 10372 net.cpp:165] Memory required for data: 1384014596
I1126 10:23:06.144207 10372 layer_factory.hpp:76] Creating layer inception_4c/3x3
I1126 10:23:06.144220 10372 net.cpp:106] Creating Layer inception_4c/3x3
I1126 10:23:06.144228 10372 net.cpp:454] inception_4c/3x3 <- inception_4c/3x3_reduce
I1126 10:23:06.144242 10372 net.cpp:411] inception_4c/3x3 -> inception_4c/3x3
I1126 10:23:06.150491 10372 cudnn_conv_layer.cpp:194] Reallocating workspace storage: 10080
I1126 10:23:06.162873 10372 net.cpp:150] Setting up inception_4c/3x3
I1126 10:23:06.162911 10372 net.cpp:157] Top shape: 32 256 14 14 (1605632)
I1126 10:23:06.162927 10372 net.cpp:165] Memory required for data: 1390437124
I1126 10:23:06.162943 10372 layer_factory.hpp:76] Creating layer inception_4c/prelu_3x3
I1126 10:23:06.162964 10372 net.cpp:106] Creating Layer inception_4c/prelu_3x3
I1126 10:23:06.162974 10372 net.cpp:454] inception_4c/prelu_3x3 <- inception_4c/3x3
I1126 10:23:06.162993 10372 net.cpp:397] inception_4c/prelu_3x3 -> inception_4c/3x3 (in-place)
I1126 10:23:06.163226 10372 net.cpp:150] Setting up inception_4c/prelu_3x3
I1126 10:23:06.163238 10372 net.cpp:157] Top shape: 32 256 14 14 (1605632)
I1126 10:23:06.163244 10372 net.cpp:165] Memory required for data: 1396859652
I1126 10:23:06.163251 10372 layer_factory.hpp:76] Creating layer inception_4c/5x5_reduce
I1126 10:23:06.163266 10372 net.cpp:106] Creating Layer inception_4c/5x5_reduce
I1126 10:23:06.163275 10372 net.cpp:454] inception_4c/5x5_reduce <- inception_4b/output_inception_4b/output_0_split_2
I1126 10:23:06.163285 10372 net.cpp:411] inception_4c/5x5_reduce -> inception_4c/5x5_reduce
I1126 10:23:06.164970 10372 cudnn_conv_layer.cpp:194] Reallocating workspace storage: 10080
I1126 10:23:06.165015 10372 net.cpp:150] Setting up inception_4c/5x5_reduce
I1126 10:23:06.165026 10372 net.cpp:157] Top shape: 32 24 14 14 (150528)
I1126 10:23:06.165032 10372 net.cpp:165] Memory required for data: 1397461764
I1126 10:23:06.165043 10372 layer_factory.hpp:76] Creating layer inception_4c/prelu_5x5_reduce
I1126 10:23:06.165055 10372 net.cpp:106] Creating Layer inception_4c/prelu_5x5_reduce
I1126 10:23:06.165063 10372 net.cpp:454] inception_4c/prelu_5x5_reduce <- inception_4c/5x5_reduce
I1126 10:23:06.165076 10372 net.cpp:397] inception_4c/prelu_5x5_reduce -> inception_4c/5x5_reduce (in-place)
I1126 10:23:06.165215 10372 net.cpp:150] Setting up inception_4c/prelu_5x5_reduce
I1126 10:23:06.165226 10372 net.cpp:157] Top shape: 32 24 14 14 (150528)
I1126 10:23:06.165257 10372 net.cpp:165] Memory required for data: 1398063876
I1126 10:23:06.165266 10372 layer_factory.hpp:76] Creating layer inception_4c/5x5
I1126 10:23:06.165280 10372 net.cpp:106] Creating Layer inception_4c/5x5
I1126 10:23:06.165287 10372 net.cpp:454] inception_4c/5x5 <- inception_4c/5x5_reduce
I1126 10:23:06.165299 10372 net.cpp:411] inception_4c/5x5 -> inception_4c/5x5
I1126 10:23:06.168406 10372 cudnn_conv_layer.cpp:194] Reallocating workspace storage: 13080
I1126 10:23:06.168483 10372 net.cpp:150] Setting up inception_4c/5x5
I1126 10:23:06.168500 10372 net.cpp:157] Top shape: 32 64 14 14 (401408)
I1126 10:23:06.168508 10372 net.cpp:165] Memory required for data: 1399669508
I1126 10:23:06.168526 10372 layer_factory.hpp:76] Creating layer inception_4c/prelu_5x5
I1126 10:23:06.168555 10372 net.cpp:106] Creating Layer inception_4c/prelu_5x5
I1126 10:23:06.168565 10372 net.cpp:454] inception_4c/prelu_5x5 <- inception_4c/5x5
I1126 10:23:06.168578 10372 net.cpp:397] inception_4c/prelu_5x5 -> inception_4c/5x5 (in-place)
I1126 10:23:06.168786 10372 net.cpp:150] Setting up inception_4c/prelu_5x5
I1126 10:23:06.168802 10372 net.cpp:157] Top shape: 32 64 14 14 (401408)
I1126 10:23:06.168808 10372 net.cpp:165] Memory required for data: 1401275140
I1126 10:23:06.168818 10372 layer_factory.hpp:76] Creating layer inception_4c/pool
I1126 10:23:06.168833 10372 net.cpp:106] Creating Layer inception_4c/pool
I1126 10:23:06.168841 10372 net.cpp:454] inception_4c/pool <- inception_4b/output_inception_4b/output_0_split_3
I1126 10:23:06.168853 10372 net.cpp:411] inception_4c/pool -> inception_4c/pool
I1126 10:23:06.169148 10372 net.cpp:150] Setting up inception_4c/pool
I1126 10:23:06.169165 10372 net.cpp:157] Top shape: 32 512 14 14 (3211264)
I1126 10:23:06.169172 10372 net.cpp:165] Memory required for data: 1414120196
I1126 10:23:06.169178 10372 layer_factory.hpp:76] Creating layer inception_4c/pool_proj
I1126 10:23:06.169196 10372 net.cpp:106] Creating Layer inception_4c/pool_proj
I1126 10:23:06.169204 10372 net.cpp:454] inception_4c/pool_proj <- inception_4c/pool
I1126 10:23:06.169214 10372 net.cpp:411] inception_4c/pool_proj -> inception_4c/pool_proj
I1126 10:23:06.171447 10372 cudnn_conv_layer.cpp:194] Reallocating workspace storage: 10080
I1126 10:23:06.171514 10372 net.cpp:150] Setting up inception_4c/pool_proj
I1126 10:23:06.171533 10372 net.cpp:157] Top shape: 32 64 14 14 (401408)
I1126 10:23:06.171541 10372 net.cpp:165] Memory required for data: 1415725828
I1126 10:23:06.171561 10372 layer_factory.hpp:76] Creating layer inception_4c/prelu_pool_proj
I1126 10:23:06.171587 10372 net.cpp:106] Creating Layer inception_4c/prelu_pool_proj
I1126 10:23:06.171602 10372 net.cpp:454] inception_4c/prelu_pool_proj <- inception_4c/pool_proj
I1126 10:23:06.171617 10372 net.cpp:397] inception_4c/prelu_pool_proj -> inception_4c/pool_proj (in-place)
I1126 10:23:06.171809 10372 net.cpp:150] Setting up inception_4c/prelu_pool_proj
I1126 10:23:06.171823 10372 net.cpp:157] Top shape: 32 64 14 14 (401408)
I1126 10:23:06.171828 10372 net.cpp:165] Memory required for data: 1417331460
I1126 10:23:06.171838 10372 layer_factory.hpp:76] Creating layer inception_4c/output
I1126 10:23:06.171850 10372 net.cpp:106] Creating Layer inception_4c/output
I1126 10:23:06.171859 10372 net.cpp:454] inception_4c/output <- inception_4c/1x1
I1126 10:23:06.171867 10372 net.cpp:454] inception_4c/output <- inception_4c/3x3
I1126 10:23:06.171875 10372 net.cpp:454] inception_4c/output <- inception_4c/5x5
I1126 10:23:06.171882 10372 net.cpp:454] inception_4c/output <- inception_4c/pool_proj
I1126 10:23:06.171890 10372 net.cpp:411] inception_4c/output -> inception_4c/output
I1126 10:23:06.171936 10372 net.cpp:150] Setting up inception_4c/output
I1126 10:23:06.171947 10372 net.cpp:157] Top shape: 32 512 14 14 (3211264)
I1126 10:23:06.171967 10372 net.cpp:165] Memory required for data: 1430176516
I1126 10:23:06.171973 10372 layer_factory.hpp:76] Creating layer inception_4c/output_inception_4c/output_0_split
I1126 10:23:06.171982 10372 net.cpp:106] Creating Layer inception_4c/output_inception_4c/output_0_split
I1126 10:23:06.172016 10372 net.cpp:454] inception_4c/output_inception_4c/output_0_split <- inception_4c/output
I1126 10:23:06.172026 10372 net.cpp:411] inception_4c/output_inception_4c/output_0_split -> inception_4c/output_inception_4c/output_0_split_0
I1126 10:23:06.172034 10372 net.cpp:411] inception_4c/output_inception_4c/output_0_split -> inception_4c/output_inception_4c/output_0_split_1
I1126 10:23:06.172041 10372 net.cpp:411] inception_4c/output_inception_4c/output_0_split -> inception_4c/output_inception_4c/output_0_split_2
I1126 10:23:06.172049 10372 net.cpp:411] inception_4c/output_inception_4c/output_0_split -> inception_4c/output_inception_4c/output_0_split_3
I1126 10:23:06.172116 10372 net.cpp:150] Setting up inception_4c/output_inception_4c/output_0_split
I1126 10:23:06.172123 10372 net.cpp:157] Top shape: 32 512 14 14 (3211264)
I1126 10:23:06.172128 10372 net.cpp:157] Top shape: 32 512 14 14 (3211264)
I1126 10:23:06.172133 10372 net.cpp:157] Top shape: 32 512 14 14 (3211264)
I1126 10:23:06.172138 10372 net.cpp:157] Top shape: 32 512 14 14 (3211264)
I1126 10:23:06.172142 10372 net.cpp:165] Memory required for data: 1481556740
I1126 10:23:06.172147 10372 layer_factory.hpp:76] Creating layer inception_4d/1x1
I1126 10:23:06.172158 10372 net.cpp:106] Creating Layer inception_4d/1x1
I1126 10:23:06.172163 10372 net.cpp:454] inception_4d/1x1 <- inception_4c/output_inception_4c/output_0_split_0
I1126 10:23:06.172170 10372 net.cpp:411] inception_4d/1x1 -> inception_4d/1x1
I1126 10:23:06.174268 10372 cudnn_conv_layer.cpp:194] Reallocating workspace storage: 10080
I1126 10:23:06.174343 10372 net.cpp:150] Setting up inception_4d/1x1
I1126 10:23:06.174357 10372 net.cpp:157] Top shape: 32 112 14 14 (702464)
I1126 10:23:06.174362 10372 net.cpp:165] Memory required for data: 1484366596
I1126 10:23:06.174376 10372 layer_factory.hpp:76] Creating layer inception_4d/prelu_1x1
I1126 10:23:06.174391 10372 net.cpp:106] Creating Layer inception_4d/prelu_1x1
I1126 10:23:06.174399 10372 net.cpp:454] inception_4d/prelu_1x1 <- inception_4d/1x1
I1126 10:23:06.174410 10372 net.cpp:397] inception_4d/prelu_1x1 -> inception_4d/1x1 (in-place)
I1126 10:23:06.174579 10372 net.cpp:150] Setting up inception_4d/prelu_1x1
I1126 10:23:06.174600 10372 net.cpp:157] Top shape: 32 112 14 14 (702464)
I1126 10:23:06.174605 10372 net.cpp:165] Memory required for data: 1487176452
I1126 10:23:06.174613 10372 layer_factory.hpp:76] Creating layer inception_4d/3x3_reduce
I1126 10:23:06.174636 10372 net.cpp:106] Creating Layer inception_4d/3x3_reduce
I1126 10:23:06.174644 10372 net.cpp:454] inception_4d/3x3_reduce <- inception_4c/output_inception_4c/output_0_split_1
I1126 10:23:06.174654 10372 net.cpp:411] inception_4d/3x3_reduce -> inception_4d/3x3_reduce
I1126 10:23:06.176934 10372 cudnn_conv_layer.cpp:194] Reallocating workspace storage: 10080
I1126 10:23:06.177011 10372 net.cpp:150] Setting up inception_4d/3x3_reduce
I1126 10:23:06.177024 10372 net.cpp:157] Top shape: 32 144 14 14 (903168)
I1126 10:23:06.177031 10372 net.cpp:165] Memory required for data: 1490789124
I1126 10:23:06.177047 10372 layer_factory.hpp:76] Creating layer inception_4d/prelu_3x3_reduce
I1126 10:23:06.177067 10372 net.cpp:106] Creating Layer inception_4d/prelu_3x3_reduce
I1126 10:23:06.177076 10372 net.cpp:454] inception_4d/prelu_3x3_reduce <- inception_4d/3x3_reduce
I1126 10:23:06.177088 10372 net.cpp:397] inception_4d/prelu_3x3_reduce -> inception_4d/3x3_reduce (in-place)
I1126 10:23:06.177256 10372 net.cpp:150] Setting up inception_4d/prelu_3x3_reduce
I1126 10:23:06.177268 10372 net.cpp:157] Top shape: 32 144 14 14 (903168)
I1126 10:23:06.177273 10372 net.cpp:165] Memory required for data: 1494401796
I1126 10:23:06.177278 10372 layer_factory.hpp:76] Creating layer inception_4d/3x3
I1126 10:23:06.177350 10372 net.cpp:106] Creating Layer inception_4d/3x3
I1126 10:23:06.177358 10372 net.cpp:454] inception_4d/3x3 <- inception_4d/3x3_reduce
I1126 10:23:06.177368 10372 net.cpp:411] inception_4d/3x3 -> inception_4d/3x3
I1126 10:23:06.183082 10372 cudnn_conv_layer.cpp:194] Reallocating workspace storage: 10080
I1126 10:23:06.183157 10372 net.cpp:150] Setting up inception_4d/3x3
I1126 10:23:06.183176 10372 net.cpp:157] Top shape: 32 288 14 14 (1806336)
I1126 10:23:06.183182 10372 net.cpp:165] Memory required for data: 1501627140
I1126 10:23:06.183199 10372 layer_factory.hpp:76] Creating layer inception_4d/prelu_3x3
I1126 10:23:06.183218 10372 net.cpp:106] Creating Layer inception_4d/prelu_3x3
I1126 10:23:06.183228 10372 net.cpp:454] inception_4d/prelu_3x3 <- inception_4d/3x3
I1126 10:23:06.183243 10372 net.cpp:397] inception_4d/prelu_3x3 -> inception_4d/3x3 (in-place)
I1126 10:23:06.183512 10372 net.cpp:150] Setting up inception_4d/prelu_3x3
I1126 10:23:06.183522 10372 net.cpp:157] Top shape: 32 288 14 14 (1806336)
I1126 10:23:06.183526 10372 net.cpp:165] Memory required for data: 1508852484
I1126 10:23:06.183532 10372 layer_factory.hpp:76] Creating layer inception_4d/5x5_reduce
I1126 10:23:06.183545 10372 net.cpp:106] Creating Layer inception_4d/5x5_reduce
I1126 10:23:06.183550 10372 net.cpp:454] inception_4d/5x5_reduce <- inception_4c/output_inception_4c/output_0_split_2
I1126 10:23:06.183559 10372 net.cpp:411] inception_4d/5x5_reduce -> inception_4d/5x5_reduce
I1126 10:23:06.185071 10372 cudnn_conv_layer.cpp:194] Reallocating workspace storage: 10080
I1126 10:23:06.185117 10372 net.cpp:150] Setting up inception_4d/5x5_reduce
I1126 10:23:06.185127 10372 net.cpp:157] Top shape: 32 32 14 14 (200704)
I1126 10:23:06.185132 10372 net.cpp:165] Memory required for data: 1509655300
I1126 10:23:06.185142 10372 layer_factory.hpp:76] Creating layer inception_4d/prelu_5x5_reduce
I1126 10:23:06.185154 10372 net.cpp:106] Creating Layer inception_4d/prelu_5x5_reduce
I1126 10:23:06.185160 10372 net.cpp:454] inception_4d/prelu_5x5_reduce <- inception_4d/5x5_reduce
I1126 10:23:06.185169 10372 net.cpp:397] inception_4d/prelu_5x5_reduce -> inception_4d/5x5_reduce (in-place)
I1126 10:23:06.185282 10372 net.cpp:150] Setting up inception_4d/prelu_5x5_reduce
I1126 10:23:06.185291 10372 net.cpp:157] Top shape: 32 32 14 14 (200704)
I1126 10:23:06.185294 10372 net.cpp:165] Memory required for data: 1510458116
I1126 10:23:06.185300 10372 layer_factory.hpp:76] Creating layer inception_4d/5x5
I1126 10:23:06.185312 10372 net.cpp:106] Creating Layer inception_4d/5x5
I1126 10:23:06.185317 10372 net.cpp:454] inception_4d/5x5 <- inception_4d/5x5_reduce
I1126 10:23:06.185323 10372 net.cpp:411] inception_4d/5x5 -> inception_4d/5x5
I1126 10:23:06.187413 10372 cudnn_conv_layer.cpp:194] Reallocating workspace storage: 13080
I1126 10:23:06.187454 10372 net.cpp:150] Setting up inception_4d/5x5
I1126 10:23:06.187464 10372 net.cpp:157] Top shape: 32 64 14 14 (401408)
I1126 10:23:06.187469 10372 net.cpp:165] Memory required for data: 1512063748
I1126 10:23:06.187477 10372 layer_factory.hpp:76] Creating layer inception_4d/prelu_5x5
I1126 10:23:06.187491 10372 net.cpp:106] Creating Layer inception_4d/prelu_5x5
I1126 10:23:06.187497 10372 net.cpp:454] inception_4d/prelu_5x5 <- inception_4d/5x5
I1126 10:23:06.187506 10372 net.cpp:397] inception_4d/prelu_5x5 -> inception_4d/5x5 (in-place)
I1126 10:23:06.187677 10372 net.cpp:150] Setting up inception_4d/prelu_5x5
I1126 10:23:06.187691 10372 net.cpp:157] Top shape: 32 64 14 14 (401408)
I1126 10:23:06.187695 10372 net.cpp:165] Memory required for data: 1513669380
I1126 10:23:06.187702 10372 layer_factory.hpp:76] Creating layer inception_4d/pool
I1126 10:23:06.187715 10372 net.cpp:106] Creating Layer inception_4d/pool
I1126 10:23:06.187721 10372 net.cpp:454] inception_4d/pool <- inception_4c/output_inception_4c/output_0_split_3
I1126 10:23:06.187728 10372 net.cpp:411] inception_4d/pool -> inception_4d/pool
I1126 10:23:06.187968 10372 net.cpp:150] Setting up inception_4d/pool
I1126 10:23:06.187981 10372 net.cpp:157] Top shape: 32 512 14 14 (3211264)
I1126 10:23:06.187985 10372 net.cpp:165] Memory required for data: 1526514436
I1126 10:23:06.187989 10372 layer_factory.hpp:76] Creating layer inception_4d/pool_proj
I1126 10:23:06.188002 10372 net.cpp:106] Creating Layer inception_4d/pool_proj
I1126 10:23:06.188037 10372 net.cpp:454] inception_4d/pool_proj <- inception_4d/pool
I1126 10:23:06.188048 10372 net.cpp:411] inception_4d/pool_proj -> inception_4d/pool_proj
I1126 10:23:06.189751 10372 cudnn_conv_layer.cpp:194] Reallocating workspace storage: 10080
I1126 10:23:06.189796 10372 net.cpp:150] Setting up inception_4d/pool_proj
I1126 10:23:06.189806 10372 net.cpp:157] Top shape: 32 64 14 14 (401408)
I1126 10:23:06.189811 10372 net.cpp:165] Memory required for data: 1528120068
I1126 10:23:06.189820 10372 layer_factory.hpp:76] Creating layer inception_4d/prelu_pool_proj
I1126 10:23:06.189834 10372 net.cpp:106] Creating Layer inception_4d/prelu_pool_proj
I1126 10:23:06.189841 10372 net.cpp:454] inception_4d/prelu_pool_proj <- inception_4d/pool_proj
I1126 10:23:06.189848 10372 net.cpp:397] inception_4d/prelu_pool_proj -> inception_4d/pool_proj (in-place)
I1126 10:23:06.189972 10372 net.cpp:150] Setting up inception_4d/prelu_pool_proj
I1126 10:23:06.189981 10372 net.cpp:157] Top shape: 32 64 14 14 (401408)
I1126 10:23:06.189985 10372 net.cpp:165] Memory required for data: 1529725700
I1126 10:23:06.189991 10372 layer_factory.hpp:76] Creating layer inception_4d/output
I1126 10:23:06.190001 10372 net.cpp:106] Creating Layer inception_4d/output
I1126 10:23:06.190004 10372 net.cpp:454] inception_4d/output <- inception_4d/1x1
I1126 10:23:06.190009 10372 net.cpp:454] inception_4d/output <- inception_4d/3x3
I1126 10:23:06.190016 10372 net.cpp:454] inception_4d/output <- inception_4d/5x5
I1126 10:23:06.190019 10372 net.cpp:454] inception_4d/output <- inception_4d/pool_proj
I1126 10:23:06.190093 10372 net.cpp:411] inception_4d/output -> inception_4d/output
I1126 10:23:06.190130 10372 net.cpp:150] Setting up inception_4d/output
I1126 10:23:06.190140 10372 net.cpp:157] Top shape: 32 528 14 14 (3311616)
I1126 10:23:06.190143 10372 net.cpp:165] Memory required for data: 1542972164
I1126 10:23:06.190147 10372 layer_factory.hpp:76] Creating layer inception_4d/output_inception_4d/output_0_split
I1126 10:23:06.190160 10372 net.cpp:106] Creating Layer inception_4d/output_inception_4d/output_0_split
I1126 10:23:06.190165 10372 net.cpp:454] inception_4d/output_inception_4d/output_0_split <- inception_4d/output
I1126 10:23:06.190171 10372 net.cpp:411] inception_4d/output_inception_4d/output_0_split -> inception_4d/output_inception_4d/output_0_split_0
I1126 10:23:06.190179 10372 net.cpp:411] inception_4d/output_inception_4d/output_0_split -> inception_4d/output_inception_4d/output_0_split_1
I1126 10:23:06.190186 10372 net.cpp:411] inception_4d/output_inception_4d/output_0_split -> inception_4d/output_inception_4d/output_0_split_2
I1126 10:23:06.190194 10372 net.cpp:411] inception_4d/output_inception_4d/output_0_split -> inception_4d/output_inception_4d/output_0_split_3
I1126 10:23:06.190201 10372 net.cpp:411] inception_4d/output_inception_4d/output_0_split -> inception_4d/output_inception_4d/output_0_split_4
I1126 10:23:06.190279 10372 net.cpp:150] Setting up inception_4d/output_inception_4d/output_0_split
I1126 10:23:06.190287 10372 net.cpp:157] Top shape: 32 528 14 14 (3311616)
I1126 10:23:06.190292 10372 net.cpp:157] Top shape: 32 528 14 14 (3311616)
I1126 10:23:06.190299 10372 net.cpp:157] Top shape: 32 528 14 14 (3311616)
I1126 10:23:06.190304 10372 net.cpp:157] Top shape: 32 528 14 14 (3311616)
I1126 10:23:06.190307 10372 net.cpp:157] Top shape: 32 528 14 14 (3311616)
I1126 10:23:06.190311 10372 net.cpp:165] Memory required for data: 1609204484
I1126 10:23:06.190316 10372 layer_factory.hpp:76] Creating layer loss2/ave_pool
I1126 10:23:06.190335 10372 net.cpp:106] Creating Layer loss2/ave_pool
I1126 10:23:06.190340 10372 net.cpp:454] loss2/ave_pool <- inception_4d/output_inception_4d/output_0_split_0
I1126 10:23:06.190346 10372 net.cpp:411] loss2/ave_pool -> loss2/ave_pool
I1126 10:23:06.190912 10372 net.cpp:150] Setting up loss2/ave_pool
I1126 10:23:06.190934 10372 net.cpp:157] Top shape: 32 528 4 4 (270336)
I1126 10:23:06.190940 10372 net.cpp:165] Memory required for data: 1610285828
I1126 10:23:06.190975 10372 layer_factory.hpp:76] Creating layer loss2/conv
I1126 10:23:06.190995 10372 net.cpp:106] Creating Layer loss2/conv
I1126 10:23:06.191004 10372 net.cpp:454] loss2/conv <- loss2/ave_pool
I1126 10:23:06.191021 10372 net.cpp:411] loss2/conv -> loss2/conv
I1126 10:23:06.193188 10372 cudnn_conv_layer.cpp:194] Reallocating workspace storage: 6840
I1126 10:23:06.193238 10372 net.cpp:150] Setting up loss2/conv
I1126 10:23:06.193249 10372 net.cpp:157] Top shape: 32 128 4 4 (65536)
I1126 10:23:06.193254 10372 net.cpp:165] Memory required for data: 1610547972
I1126 10:23:06.193265 10372 layer_factory.hpp:76] Creating layer loss2/prelu_conv
I1126 10:23:06.193279 10372 net.cpp:106] Creating Layer loss2/prelu_conv
I1126 10:23:06.193285 10372 net.cpp:454] loss2/prelu_conv <- loss2/conv
I1126 10:23:06.193295 10372 net.cpp:397] loss2/prelu_conv -> loss2/conv (in-place)
I1126 10:23:06.193405 10372 net.cpp:150] Setting up loss2/prelu_conv
I1126 10:23:06.193416 10372 net.cpp:157] Top shape: 32 128 4 4 (65536)
I1126 10:23:06.193420 10372 net.cpp:165] Memory required for data: 1610810116
I1126 10:23:06.193426 10372 layer_factory.hpp:76] Creating layer loss2/fc
I1126 10:23:06.193435 10372 net.cpp:106] Creating Layer loss2/fc
I1126 10:23:06.193439 10372 net.cpp:454] loss2/fc <- loss2/conv
I1126 10:23:06.193449 10372 net.cpp:411] loss2/fc -> loss2/fc
I1126 10:23:06.211920 10372 net.cpp:150] Setting up loss2/fc
I1126 10:23:06.211987 10372 net.cpp:157] Top shape: 32 1024 (32768)
I1126 10:23:06.211992 10372 net.cpp:165] Memory required for data: 1610941188
I1126 10:23:06.212038 10372 layer_factory.hpp:76] Creating layer loss2/prelu_fc
I1126 10:23:06.212059 10372 net.cpp:106] Creating Layer loss2/prelu_fc
I1126 10:23:06.212069 10372 net.cpp:454] loss2/prelu_fc <- loss2/fc
I1126 10:23:06.212079 10372 net.cpp:397] loss2/prelu_fc -> loss2/fc (in-place)
I1126 10:23:06.212203 10372 net.cpp:150] Setting up loss2/prelu_fc
I1126 10:23:06.212214 10372 net.cpp:157] Top shape: 32 1024 (32768)
I1126 10:23:06.212219 10372 net.cpp:165] Memory required for data: 1611072260
I1126 10:23:06.212225 10372 layer_factory.hpp:76] Creating layer loss2/drop_fc
I1126 10:23:06.212236 10372 net.cpp:106] Creating Layer loss2/drop_fc
I1126 10:23:06.212241 10372 net.cpp:454] loss2/drop_fc <- loss2/fc
I1126 10:23:06.212247 10372 net.cpp:397] loss2/drop_fc -> loss2/fc (in-place)
I1126 10:23:06.212280 10372 net.cpp:150] Setting up loss2/drop_fc
I1126 10:23:06.212288 10372 net.cpp:157] Top shape: 32 1024 (32768)
I1126 10:23:06.212292 10372 net.cpp:165] Memory required for data: 1611203332
I1126 10:23:06.212296 10372 layer_factory.hpp:76] Creating layer loss2/classifier2
I1126 10:23:06.212306 10372 net.cpp:106] Creating Layer loss2/classifier2
I1126 10:23:06.212309 10372 net.cpp:454] loss2/classifier2 <- loss2/fc
I1126 10:23:06.212357 10372 net.cpp:411] loss2/classifier2 -> loss2/classifier
I1126 10:23:06.212517 10372 net.cpp:150] Setting up loss2/classifier2
I1126 10:23:06.212528 10372 net.cpp:157] Top shape: 32 2 (64)
I1126 10:23:06.212532 10372 net.cpp:165] Memory required for data: 1611203588
I1126 10:23:06.212539 10372 layer_factory.hpp:76] Creating layer loss2/loss
I1126 10:23:06.212549 10372 net.cpp:106] Creating Layer loss2/loss
I1126 10:23:06.212554 10372 net.cpp:454] loss2/loss <- loss2/classifier
I1126 10:23:06.212561 10372 net.cpp:454] loss2/loss <- label_data_1_split_1
I1126 10:23:06.212568 10372 net.cpp:411] loss2/loss -> loss2/loss1
I1126 10:23:06.212579 10372 layer_factory.hpp:76] Creating layer loss2/loss
I1126 10:23:06.212970 10372 net.cpp:150] Setting up loss2/loss
I1126 10:23:06.212991 10372 net.cpp:157] Top shape: (1)
I1126 10:23:06.212996 10372 net.cpp:160]     with loss weight 0.3
I1126 10:23:06.213016 10372 net.cpp:165] Memory required for data: 1611203592
I1126 10:23:06.213021 10372 layer_factory.hpp:76] Creating layer inception_4e/1x1
I1126 10:23:06.213037 10372 net.cpp:106] Creating Layer inception_4e/1x1
I1126 10:23:06.213043 10372 net.cpp:454] inception_4e/1x1 <- inception_4d/output_inception_4d/output_0_split_1
I1126 10:23:06.213054 10372 net.cpp:411] inception_4e/1x1 -> inception_4e/1x1
I1126 10:23:06.216583 10372 cudnn_conv_layer.cpp:194] Reallocating workspace storage: 10080
I1126 10:23:06.216641 10372 net.cpp:150] Setting up inception_4e/1x1
I1126 10:23:06.216658 10372 net.cpp:157] Top shape: 32 256 14 14 (1605632)
I1126 10:23:06.216662 10372 net.cpp:165] Memory required for data: 1617626120
I1126 10:23:06.216675 10372 layer_factory.hpp:76] Creating layer inception_4e/prelu_1x1
I1126 10:23:06.216691 10372 net.cpp:106] Creating Layer inception_4e/prelu_1x1
I1126 10:23:06.216699 10372 net.cpp:454] inception_4e/prelu_1x1 <- inception_4e/1x1
I1126 10:23:06.216709 10372 net.cpp:397] inception_4e/prelu_1x1 -> inception_4e/1x1 (in-place)
I1126 10:23:06.216908 10372 net.cpp:150] Setting up inception_4e/prelu_1x1
I1126 10:23:06.216922 10372 net.cpp:157] Top shape: 32 256 14 14 (1605632)
I1126 10:23:06.216927 10372 net.cpp:165] Memory required for data: 1624048648
I1126 10:23:06.216933 10372 layer_factory.hpp:76] Creating layer inception_4e/3x3_reduce
I1126 10:23:06.216948 10372 net.cpp:106] Creating Layer inception_4e/3x3_reduce
I1126 10:23:06.216953 10372 net.cpp:454] inception_4e/3x3_reduce <- inception_4d/output_inception_4d/output_0_split_2
I1126 10:23:06.216964 10372 net.cpp:411] inception_4e/3x3_reduce -> inception_4e/3x3_reduce
I1126 10:23:06.218899 10372 cudnn_conv_layer.cpp:194] Reallocating workspace storage: 10080
I1126 10:23:06.218983 10372 net.cpp:150] Setting up inception_4e/3x3_reduce
I1126 10:23:06.219000 10372 net.cpp:157] Top shape: 32 160 14 14 (1003520)
I1126 10:23:06.219007 10372 net.cpp:165] Memory required for data: 1628062728
I1126 10:23:06.219022 10372 layer_factory.hpp:76] Creating layer inception_4e/prelu_3x3_reduce
I1126 10:23:06.219046 10372 net.cpp:106] Creating Layer inception_4e/prelu_3x3_reduce
I1126 10:23:06.219068 10372 net.cpp:454] inception_4e/prelu_3x3_reduce <- inception_4e/3x3_reduce
I1126 10:23:06.219081 10372 net.cpp:397] inception_4e/prelu_3x3_reduce -> inception_4e/3x3_reduce (in-place)
I1126 10:23:06.219307 10372 net.cpp:150] Setting up inception_4e/prelu_3x3_reduce
I1126 10:23:06.219323 10372 net.cpp:157] Top shape: 32 160 14 14 (1003520)
I1126 10:23:06.219329 10372 net.cpp:165] Memory required for data: 1632076808
I1126 10:23:06.219338 10372 layer_factory.hpp:76] Creating layer inception_4e/3x3
I1126 10:23:06.219357 10372 net.cpp:106] Creating Layer inception_4e/3x3
I1126 10:23:06.219365 10372 net.cpp:454] inception_4e/3x3 <- inception_4e/3x3_reduce
I1126 10:23:06.219378 10372 net.cpp:411] inception_4e/3x3 -> inception_4e/3x3
I1126 10:23:06.225226 10372 cudnn_conv_layer.cpp:194] Reallocating workspace storage: 10080
I1126 10:23:06.225289 10372 net.cpp:150] Setting up inception_4e/3x3
I1126 10:23:06.225304 10372 net.cpp:157] Top shape: 32 320 14 14 (2007040)
I1126 10:23:06.225309 10372 net.cpp:165] Memory required for data: 1640104968
I1126 10:23:06.225319 10372 layer_factory.hpp:76] Creating layer inception_4e/prelu_3x3
I1126 10:23:06.225333 10372 net.cpp:106] Creating Layer inception_4e/prelu_3x3
I1126 10:23:06.225340 10372 net.cpp:454] inception_4e/prelu_3x3 <- inception_4e/3x3
I1126 10:23:06.225348 10372 net.cpp:397] inception_4e/prelu_3x3 -> inception_4e/3x3 (in-place)
I1126 10:23:06.225520 10372 net.cpp:150] Setting up inception_4e/prelu_3x3
I1126 10:23:06.225528 10372 net.cpp:157] Top shape: 32 320 14 14 (2007040)
I1126 10:23:06.225533 10372 net.cpp:165] Memory required for data: 1648133128
I1126 10:23:06.225538 10372 layer_factory.hpp:76] Creating layer inception_4e/5x5_reduce
I1126 10:23:06.225549 10372 net.cpp:106] Creating Layer inception_4e/5x5_reduce
I1126 10:23:06.225554 10372 net.cpp:454] inception_4e/5x5_reduce <- inception_4d/output_inception_4d/output_0_split_3
I1126 10:23:06.225563 10372 net.cpp:411] inception_4e/5x5_reduce -> inception_4e/5x5_reduce
I1126 10:23:06.226956 10372 cudnn_conv_layer.cpp:194] Reallocating workspace storage: 10080
I1126 10:23:06.226999 10372 net.cpp:150] Setting up inception_4e/5x5_reduce
I1126 10:23:06.227011 10372 net.cpp:157] Top shape: 32 32 14 14 (200704)
I1126 10:23:06.227041 10372 net.cpp:165] Memory required for data: 1648935944
I1126 10:23:06.227059 10372 layer_factory.hpp:76] Creating layer inception_4e/prelu_5x5_reduce
I1126 10:23:06.227073 10372 net.cpp:106] Creating Layer inception_4e/prelu_5x5_reduce
I1126 10:23:06.227080 10372 net.cpp:454] inception_4e/prelu_5x5_reduce <- inception_4e/5x5_reduce
I1126 10:23:06.227092 10372 net.cpp:397] inception_4e/prelu_5x5_reduce -> inception_4e/5x5_reduce (in-place)
I1126 10:23:06.227241 10372 net.cpp:150] Setting up inception_4e/prelu_5x5_reduce
I1126 10:23:06.227251 10372 net.cpp:157] Top shape: 32 32 14 14 (200704)
I1126 10:23:06.227257 10372 net.cpp:165] Memory required for data: 1649738760
I1126 10:23:06.227267 10372 layer_factory.hpp:76] Creating layer inception_4e/5x5
I1126 10:23:06.227288 10372 net.cpp:106] Creating Layer inception_4e/5x5
I1126 10:23:06.227293 10372 net.cpp:454] inception_4e/5x5 <- inception_4e/5x5_reduce
I1126 10:23:06.227303 10372 net.cpp:411] inception_4e/5x5 -> inception_4e/5x5
I1126 10:23:06.229598 10372 cudnn_conv_layer.cpp:194] Reallocating workspace storage: 13080
I1126 10:23:06.229640 10372 net.cpp:150] Setting up inception_4e/5x5
I1126 10:23:06.229648 10372 net.cpp:157] Top shape: 32 128 14 14 (802816)
I1126 10:23:06.229653 10372 net.cpp:165] Memory required for data: 1652950024
I1126 10:23:06.229662 10372 layer_factory.hpp:76] Creating layer inception_4e/prelu_5x5
I1126 10:23:06.229673 10372 net.cpp:106] Creating Layer inception_4e/prelu_5x5
I1126 10:23:06.229678 10372 net.cpp:454] inception_4e/prelu_5x5 <- inception_4e/5x5
I1126 10:23:06.229686 10372 net.cpp:397] inception_4e/prelu_5x5 -> inception_4e/5x5 (in-place)
I1126 10:23:06.229805 10372 net.cpp:150] Setting up inception_4e/prelu_5x5
I1126 10:23:06.229814 10372 net.cpp:157] Top shape: 32 128 14 14 (802816)
I1126 10:23:06.229817 10372 net.cpp:165] Memory required for data: 1656161288
I1126 10:23:06.229823 10372 layer_factory.hpp:76] Creating layer inception_4e/pool
I1126 10:23:06.229830 10372 net.cpp:106] Creating Layer inception_4e/pool
I1126 10:23:06.229835 10372 net.cpp:454] inception_4e/pool <- inception_4d/output_inception_4d/output_0_split_4
I1126 10:23:06.229842 10372 net.cpp:411] inception_4e/pool -> inception_4e/pool
I1126 10:23:06.230295 10372 net.cpp:150] Setting up inception_4e/pool
I1126 10:23:06.230309 10372 net.cpp:157] Top shape: 32 528 14 14 (3311616)
I1126 10:23:06.230312 10372 net.cpp:165] Memory required for data: 1669407752
I1126 10:23:06.230319 10372 layer_factory.hpp:76] Creating layer inception_4e/pool_proj
I1126 10:23:06.230329 10372 net.cpp:106] Creating Layer inception_4e/pool_proj
I1126 10:23:06.230334 10372 net.cpp:454] inception_4e/pool_proj <- inception_4e/pool
I1126 10:23:06.230343 10372 net.cpp:411] inception_4e/pool_proj -> inception_4e/pool_proj
I1126 10:23:06.232213 10372 cudnn_conv_layer.cpp:194] Reallocating workspace storage: 10080
I1126 10:23:06.232262 10372 net.cpp:150] Setting up inception_4e/pool_proj
I1126 10:23:06.232273 10372 net.cpp:157] Top shape: 32 128 14 14 (802816)
I1126 10:23:06.232277 10372 net.cpp:165] Memory required for data: 1672619016
I1126 10:23:06.232286 10372 layer_factory.hpp:76] Creating layer inception_4e/prelu_pool_proj
I1126 10:23:06.232307 10372 net.cpp:106] Creating Layer inception_4e/prelu_pool_proj
I1126 10:23:06.232313 10372 net.cpp:454] inception_4e/prelu_pool_proj <- inception_4e/pool_proj
I1126 10:23:06.232321 10372 net.cpp:397] inception_4e/prelu_pool_proj -> inception_4e/pool_proj (in-place)
I1126 10:23:06.232463 10372 net.cpp:150] Setting up inception_4e/prelu_pool_proj
I1126 10:23:06.232472 10372 net.cpp:157] Top shape: 32 128 14 14 (802816)
I1126 10:23:06.232476 10372 net.cpp:165] Memory required for data: 1675830280
I1126 10:23:06.232481 10372 layer_factory.hpp:76] Creating layer inception_4e/output
I1126 10:23:06.232488 10372 net.cpp:106] Creating Layer inception_4e/output
I1126 10:23:06.232493 10372 net.cpp:454] inception_4e/output <- inception_4e/1x1
I1126 10:23:06.232498 10372 net.cpp:454] inception_4e/output <- inception_4e/3x3
I1126 10:23:06.232503 10372 net.cpp:454] inception_4e/output <- inception_4e/5x5
I1126 10:23:06.232528 10372 net.cpp:454] inception_4e/output <- inception_4e/pool_proj
I1126 10:23:06.232537 10372 net.cpp:411] inception_4e/output -> inception_4e/output
I1126 10:23:06.232564 10372 net.cpp:150] Setting up inception_4e/output
I1126 10:23:06.232573 10372 net.cpp:157] Top shape: 32 832 14 14 (5218304)
I1126 10:23:06.232576 10372 net.cpp:165] Memory required for data: 1696703496
I1126 10:23:06.232580 10372 layer_factory.hpp:76] Creating layer pool4/3x3_s2
I1126 10:23:06.232589 10372 net.cpp:106] Creating Layer pool4/3x3_s2
I1126 10:23:06.232594 10372 net.cpp:454] pool4/3x3_s2 <- inception_4e/output
I1126 10:23:06.232599 10372 net.cpp:411] pool4/3x3_s2 -> pool4/3x3_s2
I1126 10:23:06.233016 10372 net.cpp:150] Setting up pool4/3x3_s2
I1126 10:23:06.233026 10372 net.cpp:157] Top shape: 32 832 7 7 (1304576)
I1126 10:23:06.233029 10372 net.cpp:165] Memory required for data: 1701921800
I1126 10:23:06.233034 10372 layer_factory.hpp:76] Creating layer pool4/3x3_s2_pool4/3x3_s2_0_split
I1126 10:23:06.233043 10372 net.cpp:106] Creating Layer pool4/3x3_s2_pool4/3x3_s2_0_split
I1126 10:23:06.233047 10372 net.cpp:454] pool4/3x3_s2_pool4/3x3_s2_0_split <- pool4/3x3_s2
I1126 10:23:06.233053 10372 net.cpp:411] pool4/3x3_s2_pool4/3x3_s2_0_split -> pool4/3x3_s2_pool4/3x3_s2_0_split_0
I1126 10:23:06.233062 10372 net.cpp:411] pool4/3x3_s2_pool4/3x3_s2_0_split -> pool4/3x3_s2_pool4/3x3_s2_0_split_1
I1126 10:23:06.233069 10372 net.cpp:411] pool4/3x3_s2_pool4/3x3_s2_0_split -> pool4/3x3_s2_pool4/3x3_s2_0_split_2
I1126 10:23:06.233075 10372 net.cpp:411] pool4/3x3_s2_pool4/3x3_s2_0_split -> pool4/3x3_s2_pool4/3x3_s2_0_split_3
I1126 10:23:06.233155 10372 net.cpp:150] Setting up pool4/3x3_s2_pool4/3x3_s2_0_split
I1126 10:23:06.233162 10372 net.cpp:157] Top shape: 32 832 7 7 (1304576)
I1126 10:23:06.233167 10372 net.cpp:157] Top shape: 32 832 7 7 (1304576)
I1126 10:23:06.233172 10372 net.cpp:157] Top shape: 32 832 7 7 (1304576)
I1126 10:23:06.233177 10372 net.cpp:157] Top shape: 32 832 7 7 (1304576)
I1126 10:23:06.233181 10372 net.cpp:165] Memory required for data: 1722795016
I1126 10:23:06.233186 10372 layer_factory.hpp:76] Creating layer inception_5a/1x1
I1126 10:23:06.233194 10372 net.cpp:106] Creating Layer inception_5a/1x1
I1126 10:23:06.233199 10372 net.cpp:454] inception_5a/1x1 <- pool4/3x3_s2_pool4/3x3_s2_0_split_0
I1126 10:23:06.233207 10372 net.cpp:411] inception_5a/1x1 -> inception_5a/1x1
I1126 10:23:06.236397 10372 cudnn_conv_layer.cpp:194] Reallocating workspace storage: 7428
I1126 10:23:06.236441 10372 net.cpp:150] Setting up inception_5a/1x1
I1126 10:23:06.236454 10372 net.cpp:157] Top shape: 32 256 7 7 (401408)
I1126 10:23:06.236459 10372 net.cpp:165] Memory required for data: 1724400648
I1126 10:23:06.236469 10372 layer_factory.hpp:76] Creating layer inception_5a/prelu_1x1
I1126 10:23:06.236481 10372 net.cpp:106] Creating Layer inception_5a/prelu_1x1
I1126 10:23:06.236488 10372 net.cpp:454] inception_5a/prelu_1x1 <- inception_5a/1x1
I1126 10:23:06.236496 10372 net.cpp:397] inception_5a/prelu_1x1 -> inception_5a/1x1 (in-place)
I1126 10:23:06.237174 10372 net.cpp:150] Setting up inception_5a/prelu_1x1
I1126 10:23:06.237191 10372 net.cpp:157] Top shape: 32 256 7 7 (401408)
I1126 10:23:06.237196 10372 net.cpp:165] Memory required for data: 1726006280
I1126 10:23:06.237205 10372 layer_factory.hpp:76] Creating layer inception_5a/3x3_reduce
I1126 10:23:06.237218 10372 net.cpp:106] Creating Layer inception_5a/3x3_reduce
I1126 10:23:06.237226 10372 net.cpp:454] inception_5a/3x3_reduce <- pool4/3x3_s2_pool4/3x3_s2_0_split_1
I1126 10:23:06.237236 10372 net.cpp:411] inception_5a/3x3_reduce -> inception_5a/3x3_reduce
I1126 10:23:06.240042 10372 cudnn_conv_layer.cpp:194] Reallocating workspace storage: 7428
I1126 10:23:06.240103 10372 net.cpp:150] Setting up inception_5a/3x3_reduce
I1126 10:23:06.240114 10372 net.cpp:157] Top shape: 32 160 7 7 (250880)
I1126 10:23:06.240119 10372 net.cpp:165] Memory required for data: 1727009800
I1126 10:23:06.240130 10372 layer_factory.hpp:76] Creating layer inception_5a/prelu_3x3_reduce
I1126 10:23:06.240188 10372 net.cpp:106] Creating Layer inception_5a/prelu_3x3_reduce
I1126 10:23:06.240197 10372 net.cpp:454] inception_5a/prelu_3x3_reduce <- inception_5a/3x3_reduce
I1126 10:23:06.240206 10372 net.cpp:397] inception_5a/prelu_3x3_reduce -> inception_5a/3x3_reduce (in-place)
I1126 10:23:06.240341 10372 net.cpp:150] Setting up inception_5a/prelu_3x3_reduce
I1126 10:23:06.240362 10372 net.cpp:157] Top shape: 32 160 7 7 (250880)
I1126 10:23:06.240366 10372 net.cpp:165] Memory required for data: 1728013320
I1126 10:23:06.240373 10372 layer_factory.hpp:76] Creating layer inception_5a/3x3
I1126 10:23:06.240386 10372 net.cpp:106] Creating Layer inception_5a/3x3
I1126 10:23:06.240392 10372 net.cpp:454] inception_5a/3x3 <- inception_5a/3x3_reduce
I1126 10:23:06.240401 10372 net.cpp:411] inception_5a/3x3 -> inception_5a/3x3
I1126 10:23:06.245249 10372 cudnn_conv_layer.cpp:194] Reallocating workspace storage: 7788
I1126 10:23:06.245313 10372 net.cpp:150] Setting up inception_5a/3x3
I1126 10:23:06.245326 10372 net.cpp:157] Top shape: 32 320 7 7 (501760)
I1126 10:23:06.245332 10372 net.cpp:165] Memory required for data: 1730020360
I1126 10:23:06.245342 10372 layer_factory.hpp:76] Creating layer inception_5a/prelu_3x3
I1126 10:23:06.245359 10372 net.cpp:106] Creating Layer inception_5a/prelu_3x3
I1126 10:23:06.245367 10372 net.cpp:454] inception_5a/prelu_3x3 <- inception_5a/3x3
I1126 10:23:06.245376 10372 net.cpp:397] inception_5a/prelu_3x3 -> inception_5a/3x3 (in-place)
I1126 10:23:06.245522 10372 net.cpp:150] Setting up inception_5a/prelu_3x3
I1126 10:23:06.245535 10372 net.cpp:157] Top shape: 32 320 7 7 (501760)
I1126 10:23:06.245539 10372 net.cpp:165] Memory required for data: 1732027400
I1126 10:23:06.245545 10372 layer_factory.hpp:76] Creating layer inception_5a/5x5_reduce
I1126 10:23:06.245564 10372 net.cpp:106] Creating Layer inception_5a/5x5_reduce
I1126 10:23:06.245571 10372 net.cpp:454] inception_5a/5x5_reduce <- pool4/3x3_s2_pool4/3x3_s2_0_split_2
I1126 10:23:06.245579 10372 net.cpp:411] inception_5a/5x5_reduce -> inception_5a/5x5_reduce
I1126 10:23:06.247100 10372 cudnn_conv_layer.cpp:194] Reallocating workspace storage: 7428
I1126 10:23:06.247141 10372 net.cpp:150] Setting up inception_5a/5x5_reduce
I1126 10:23:06.247153 10372 net.cpp:157] Top shape: 32 32 7 7 (50176)
I1126 10:23:06.247156 10372 net.cpp:165] Memory required for data: 1732228104
I1126 10:23:06.247166 10372 layer_factory.hpp:76] Creating layer inception_5a/prelu_5x5_reduce
I1126 10:23:06.247177 10372 net.cpp:106] Creating Layer inception_5a/prelu_5x5_reduce
I1126 10:23:06.247184 10372 net.cpp:454] inception_5a/prelu_5x5_reduce <- inception_5a/5x5_reduce
I1126 10:23:06.247194 10372 net.cpp:397] inception_5a/prelu_5x5_reduce -> inception_5a/5x5_reduce (in-place)
I1126 10:23:06.247309 10372 net.cpp:150] Setting up inception_5a/prelu_5x5_reduce
I1126 10:23:06.247318 10372 net.cpp:157] Top shape: 32 32 7 7 (50176)
I1126 10:23:06.247323 10372 net.cpp:165] Memory required for data: 1732428808
I1126 10:23:06.247328 10372 layer_factory.hpp:76] Creating layer inception_5a/5x5
I1126 10:23:06.247339 10372 net.cpp:106] Creating Layer inception_5a/5x5
I1126 10:23:06.247344 10372 net.cpp:454] inception_5a/5x5 <- inception_5a/5x5_reduce
I1126 10:23:06.247352 10372 net.cpp:411] inception_5a/5x5 -> inception_5a/5x5
I1126 10:23:06.249218 10372 cudnn_conv_layer.cpp:194] Reallocating workspace storage: 9804
I1126 10:23:06.249258 10372 net.cpp:150] Setting up inception_5a/5x5
I1126 10:23:06.249266 10372 net.cpp:157] Top shape: 32 128 7 7 (200704)
I1126 10:23:06.249270 10372 net.cpp:165] Memory required for data: 1733231624
I1126 10:23:06.249279 10372 layer_factory.hpp:76] Creating layer inception_5a/prelu_5x5
I1126 10:23:06.249289 10372 net.cpp:106] Creating Layer inception_5a/prelu_5x5
I1126 10:23:06.249294 10372 net.cpp:454] inception_5a/prelu_5x5 <- inception_5a/5x5
I1126 10:23:06.249302 10372 net.cpp:397] inception_5a/prelu_5x5 -> inception_5a/5x5 (in-place)
I1126 10:23:06.249426 10372 net.cpp:150] Setting up inception_5a/prelu_5x5
I1126 10:23:06.249465 10372 net.cpp:157] Top shape: 32 128 7 7 (200704)
I1126 10:23:06.249470 10372 net.cpp:165] Memory required for data: 1734034440
I1126 10:23:06.249476 10372 layer_factory.hpp:76] Creating layer inception_5a/pool
I1126 10:23:06.249485 10372 net.cpp:106] Creating Layer inception_5a/pool
I1126 10:23:06.249490 10372 net.cpp:454] inception_5a/pool <- pool4/3x3_s2_pool4/3x3_s2_0_split_3
I1126 10:23:06.249498 10372 net.cpp:411] inception_5a/pool -> inception_5a/pool
I1126 10:23:06.249709 10372 net.cpp:150] Setting up inception_5a/pool
I1126 10:23:06.249722 10372 net.cpp:157] Top shape: 32 832 7 7 (1304576)
I1126 10:23:06.249725 10372 net.cpp:165] Memory required for data: 1739252744
I1126 10:23:06.249730 10372 layer_factory.hpp:76] Creating layer inception_5a/pool_proj
I1126 10:23:06.249738 10372 net.cpp:106] Creating Layer inception_5a/pool_proj
I1126 10:23:06.249743 10372 net.cpp:454] inception_5a/pool_proj <- inception_5a/pool
I1126 10:23:06.249752 10372 net.cpp:411] inception_5a/pool_proj -> inception_5a/pool_proj
I1126 10:23:06.252478 10372 cudnn_conv_layer.cpp:194] Reallocating workspace storage: 7428
I1126 10:23:06.252521 10372 net.cpp:150] Setting up inception_5a/pool_proj
I1126 10:23:06.252532 10372 net.cpp:157] Top shape: 32 128 7 7 (200704)
I1126 10:23:06.252537 10372 net.cpp:165] Memory required for data: 1740055560
I1126 10:23:06.252545 10372 layer_factory.hpp:76] Creating layer inception_5a/prelu_pool_proj
I1126 10:23:06.252555 10372 net.cpp:106] Creating Layer inception_5a/prelu_pool_proj
I1126 10:23:06.252562 10372 net.cpp:454] inception_5a/prelu_pool_proj <- inception_5a/pool_proj
I1126 10:23:06.252573 10372 net.cpp:397] inception_5a/prelu_pool_proj -> inception_5a/pool_proj (in-place)
I1126 10:23:06.252683 10372 net.cpp:150] Setting up inception_5a/prelu_pool_proj
I1126 10:23:06.252692 10372 net.cpp:157] Top shape: 32 128 7 7 (200704)
I1126 10:23:06.252696 10372 net.cpp:165] Memory required for data: 1740858376
I1126 10:23:06.252702 10372 layer_factory.hpp:76] Creating layer inception_5a/output
I1126 10:23:06.252712 10372 net.cpp:106] Creating Layer inception_5a/output
I1126 10:23:06.252727 10372 net.cpp:454] inception_5a/output <- inception_5a/1x1
I1126 10:23:06.252732 10372 net.cpp:454] inception_5a/output <- inception_5a/3x3
I1126 10:23:06.252737 10372 net.cpp:454] inception_5a/output <- inception_5a/5x5
I1126 10:23:06.252743 10372 net.cpp:454] inception_5a/output <- inception_5a/pool_proj
I1126 10:23:06.252748 10372 net.cpp:411] inception_5a/output -> inception_5a/output
I1126 10:23:06.252779 10372 net.cpp:150] Setting up inception_5a/output
I1126 10:23:06.252787 10372 net.cpp:157] Top shape: 32 832 7 7 (1304576)
I1126 10:23:06.252791 10372 net.cpp:165] Memory required for data: 1746076680
I1126 10:23:06.252796 10372 layer_factory.hpp:76] Creating layer inception_5a/output_inception_5a/output_0_split
I1126 10:23:06.252804 10372 net.cpp:106] Creating Layer inception_5a/output_inception_5a/output_0_split
I1126 10:23:06.252807 10372 net.cpp:454] inception_5a/output_inception_5a/output_0_split <- inception_5a/output
I1126 10:23:06.252815 10372 net.cpp:411] inception_5a/output_inception_5a/output_0_split -> inception_5a/output_inception_5a/output_0_split_0
I1126 10:23:06.252823 10372 net.cpp:411] inception_5a/output_inception_5a/output_0_split -> inception_5a/output_inception_5a/output_0_split_1
I1126 10:23:06.252830 10372 net.cpp:411] inception_5a/output_inception_5a/output_0_split -> inception_5a/output_inception_5a/output_0_split_2
I1126 10:23:06.252837 10372 net.cpp:411] inception_5a/output_inception_5a/output_0_split -> inception_5a/output_inception_5a/output_0_split_3
I1126 10:23:06.252905 10372 net.cpp:150] Setting up inception_5a/output_inception_5a/output_0_split
I1126 10:23:06.252914 10372 net.cpp:157] Top shape: 32 832 7 7 (1304576)
I1126 10:23:06.252920 10372 net.cpp:157] Top shape: 32 832 7 7 (1304576)
I1126 10:23:06.252925 10372 net.cpp:157] Top shape: 32 832 7 7 (1304576)
I1126 10:23:06.252929 10372 net.cpp:157] Top shape: 32 832 7 7 (1304576)
I1126 10:23:06.252954 10372 net.cpp:165] Memory required for data: 1766949896
I1126 10:23:06.252959 10372 layer_factory.hpp:76] Creating layer inception_5b/1x1
I1126 10:23:06.252969 10372 net.cpp:106] Creating Layer inception_5b/1x1
I1126 10:23:06.252974 10372 net.cpp:454] inception_5b/1x1 <- inception_5a/output_inception_5a/output_0_split_0
I1126 10:23:06.252981 10372 net.cpp:411] inception_5b/1x1 -> inception_5b/1x1
I1126 10:23:06.256561 10372 cudnn_conv_layer.cpp:194] Reallocating workspace storage: 7428
I1126 10:23:06.256598 10372 net.cpp:150] Setting up inception_5b/1x1
I1126 10:23:06.256608 10372 net.cpp:157] Top shape: 32 384 7 7 (602112)
I1126 10:23:06.256611 10372 net.cpp:165] Memory required for data: 1769358344
I1126 10:23:06.256619 10372 layer_factory.hpp:76] Creating layer inception_5b/prelu_1x1
I1126 10:23:06.256633 10372 net.cpp:106] Creating Layer inception_5b/prelu_1x1
I1126 10:23:06.256639 10372 net.cpp:454] inception_5b/prelu_1x1 <- inception_5b/1x1
I1126 10:23:06.256646 10372 net.cpp:397] inception_5b/prelu_1x1 -> inception_5b/1x1 (in-place)
I1126 10:23:06.257257 10372 net.cpp:150] Setting up inception_5b/prelu_1x1
I1126 10:23:06.257271 10372 net.cpp:157] Top shape: 32 384 7 7 (602112)
I1126 10:23:06.257274 10372 net.cpp:165] Memory required for data: 1771766792
I1126 10:23:06.257280 10372 layer_factory.hpp:76] Creating layer inception_5b/3x3_reduce
I1126 10:23:06.257292 10372 net.cpp:106] Creating Layer inception_5b/3x3_reduce
I1126 10:23:06.257297 10372 net.cpp:454] inception_5b/3x3_reduce <- inception_5a/output_inception_5a/output_0_split_1
I1126 10:23:06.257304 10372 net.cpp:411] inception_5b/3x3_reduce -> inception_5b/3x3_reduce
I1126 10:23:06.259933 10372 cudnn_conv_layer.cpp:194] Reallocating workspace storage: 7428
I1126 10:23:06.259974 10372 net.cpp:150] Setting up inception_5b/3x3_reduce
I1126 10:23:06.259982 10372 net.cpp:157] Top shape: 32 192 7 7 (301056)
I1126 10:23:06.259986 10372 net.cpp:165] Memory required for data: 1772971016
I1126 10:23:06.259995 10372 layer_factory.hpp:76] Creating layer inception_5b/prelu_3x3_reduce
I1126 10:23:06.260005 10372 net.cpp:106] Creating Layer inception_5b/prelu_3x3_reduce
I1126 10:23:06.260011 10372 net.cpp:454] inception_5b/prelu_3x3_reduce <- inception_5b/3x3_reduce
I1126 10:23:06.260020 10372 net.cpp:397] inception_5b/prelu_3x3_reduce -> inception_5b/3x3_reduce (in-place)
I1126 10:23:06.260135 10372 net.cpp:150] Setting up inception_5b/prelu_3x3_reduce
I1126 10:23:06.260143 10372 net.cpp:157] Top shape: 32 192 7 7 (301056)
I1126 10:23:06.260148 10372 net.cpp:165] Memory required for data: 1774175240
I1126 10:23:06.260152 10372 layer_factory.hpp:76] Creating layer inception_5b/3x3
I1126 10:23:06.260164 10372 net.cpp:106] Creating Layer inception_5b/3x3
I1126 10:23:06.260167 10372 net.cpp:454] inception_5b/3x3 <- inception_5b/3x3_reduce
I1126 10:23:06.260174 10372 net.cpp:411] inception_5b/3x3 -> inception_5b/3x3
I1126 10:23:06.266310 10372 cudnn_conv_layer.cpp:194] Reallocating workspace storage: 7788
I1126 10:23:06.266365 10372 net.cpp:150] Setting up inception_5b/3x3
I1126 10:23:06.266377 10372 net.cpp:157] Top shape: 32 384 7 7 (602112)
I1126 10:23:06.266382 10372 net.cpp:165] Memory required for data: 1776583688
I1126 10:23:06.266393 10372 layer_factory.hpp:76] Creating layer inception_5b/prelu_3x3
I1126 10:23:06.266408 10372 net.cpp:106] Creating Layer inception_5b/prelu_3x3
I1126 10:23:06.266417 10372 net.cpp:454] inception_5b/prelu_3x3 <- inception_5b/3x3
I1126 10:23:06.266425 10372 net.cpp:397] inception_5b/prelu_3x3 -> inception_5b/3x3 (in-place)
I1126 10:23:06.266566 10372 net.cpp:150] Setting up inception_5b/prelu_3x3
I1126 10:23:06.266578 10372 net.cpp:157] Top shape: 32 384 7 7 (602112)
I1126 10:23:06.266583 10372 net.cpp:165] Memory required for data: 1778992136
I1126 10:23:06.266589 10372 layer_factory.hpp:76] Creating layer inception_5b/5x5_reduce
I1126 10:23:06.266607 10372 net.cpp:106] Creating Layer inception_5b/5x5_reduce
I1126 10:23:06.266613 10372 net.cpp:454] inception_5b/5x5_reduce <- inception_5a/output_inception_5a/output_0_split_2
I1126 10:23:06.266652 10372 net.cpp:411] inception_5b/5x5_reduce -> inception_5b/5x5_reduce
I1126 10:23:06.268240 10372 cudnn_conv_layer.cpp:194] Reallocating workspace storage: 7428
I1126 10:23:06.268298 10372 net.cpp:150] Setting up inception_5b/5x5_reduce
I1126 10:23:06.268309 10372 net.cpp:157] Top shape: 32 48 7 7 (75264)
I1126 10:23:06.268313 10372 net.cpp:165] Memory required for data: 1779293192
I1126 10:23:06.268323 10372 layer_factory.hpp:76] Creating layer inception_5b/prelu_5x5_reduce
I1126 10:23:06.268338 10372 net.cpp:106] Creating Layer inception_5b/prelu_5x5_reduce
I1126 10:23:06.268347 10372 net.cpp:454] inception_5b/prelu_5x5_reduce <- inception_5b/5x5_reduce
I1126 10:23:06.268357 10372 net.cpp:397] inception_5b/prelu_5x5_reduce -> inception_5b/5x5_reduce (in-place)
I1126 10:23:06.268489 10372 net.cpp:150] Setting up inception_5b/prelu_5x5_reduce
I1126 10:23:06.268501 10372 net.cpp:157] Top shape: 32 48 7 7 (75264)
I1126 10:23:06.268504 10372 net.cpp:165] Memory required for data: 1779594248
I1126 10:23:06.268510 10372 layer_factory.hpp:76] Creating layer inception_5b/5x5
I1126 10:23:06.268523 10372 net.cpp:106] Creating Layer inception_5b/5x5
I1126 10:23:06.268528 10372 net.cpp:454] inception_5b/5x5 <- inception_5b/5x5_reduce
I1126 10:23:06.268539 10372 net.cpp:411] inception_5b/5x5 -> inception_5b/5x5
I1126 10:23:06.271095 10372 cudnn_conv_layer.cpp:194] Reallocating workspace storage: 9804
I1126 10:23:06.271149 10372 net.cpp:150] Setting up inception_5b/5x5
I1126 10:23:06.271160 10372 net.cpp:157] Top shape: 32 128 7 7 (200704)
I1126 10:23:06.271165 10372 net.cpp:165] Memory required for data: 1780397064
I1126 10:23:06.271174 10372 layer_factory.hpp:76] Creating layer inception_5b/prelu_5x5
I1126 10:23:06.271186 10372 net.cpp:106] Creating Layer inception_5b/prelu_5x5
I1126 10:23:06.271193 10372 net.cpp:454] inception_5b/prelu_5x5 <- inception_5b/5x5
I1126 10:23:06.271204 10372 net.cpp:397] inception_5b/prelu_5x5 -> inception_5b/5x5 (in-place)
I1126 10:23:06.271337 10372 net.cpp:150] Setting up inception_5b/prelu_5x5
I1126 10:23:06.271347 10372 net.cpp:157] Top shape: 32 128 7 7 (200704)
I1126 10:23:06.271350 10372 net.cpp:165] Memory required for data: 1781199880
I1126 10:23:06.271356 10372 layer_factory.hpp:76] Creating layer inception_5b/pool
I1126 10:23:06.271365 10372 net.cpp:106] Creating Layer inception_5b/pool
I1126 10:23:06.271370 10372 net.cpp:454] inception_5b/pool <- inception_5a/output_inception_5a/output_0_split_3
I1126 10:23:06.271378 10372 net.cpp:411] inception_5b/pool -> inception_5b/pool
I1126 10:23:06.271843 10372 net.cpp:150] Setting up inception_5b/pool
I1126 10:23:06.271862 10372 net.cpp:157] Top shape: 32 832 7 7 (1304576)
I1126 10:23:06.271865 10372 net.cpp:165] Memory required for data: 1786418184
I1126 10:23:06.271870 10372 layer_factory.hpp:76] Creating layer inception_5b/pool_proj
I1126 10:23:06.271888 10372 net.cpp:106] Creating Layer inception_5b/pool_proj
I1126 10:23:06.271893 10372 net.cpp:454] inception_5b/pool_proj <- inception_5b/pool
I1126 10:23:06.271903 10372 net.cpp:411] inception_5b/pool_proj -> inception_5b/pool_proj
I1126 10:23:06.274408 10372 cudnn_conv_layer.cpp:194] Reallocating workspace storage: 7428
I1126 10:23:06.274458 10372 net.cpp:150] Setting up inception_5b/pool_proj
I1126 10:23:06.274468 10372 net.cpp:157] Top shape: 32 128 7 7 (200704)
I1126 10:23:06.274473 10372 net.cpp:165] Memory required for data: 1787221000
I1126 10:23:06.274483 10372 layer_factory.hpp:76] Creating layer inception_5b/prelu_pool_proj
I1126 10:23:06.274495 10372 net.cpp:106] Creating Layer inception_5b/prelu_pool_proj
I1126 10:23:06.274502 10372 net.cpp:454] inception_5b/prelu_pool_proj <- inception_5b/pool_proj
I1126 10:23:06.274512 10372 net.cpp:397] inception_5b/prelu_pool_proj -> inception_5b/pool_proj (in-place)
I1126 10:23:06.274626 10372 net.cpp:150] Setting up inception_5b/prelu_pool_proj
I1126 10:23:06.274646 10372 net.cpp:157] Top shape: 32 128 7 7 (200704)
I1126 10:23:06.274651 10372 net.cpp:165] Memory required for data: 1788023816
I1126 10:23:06.274657 10372 layer_factory.hpp:76] Creating layer inception_5b/output
I1126 10:23:06.274706 10372 net.cpp:106] Creating Layer inception_5b/output
I1126 10:23:06.274724 10372 net.cpp:454] inception_5b/output <- inception_5b/1x1
I1126 10:23:06.274730 10372 net.cpp:454] inception_5b/output <- inception_5b/3x3
I1126 10:23:06.274745 10372 net.cpp:454] inception_5b/output <- inception_5b/5x5
I1126 10:23:06.274750 10372 net.cpp:454] inception_5b/output <- inception_5b/pool_proj
I1126 10:23:06.274756 10372 net.cpp:411] inception_5b/output -> inception_5b/output
I1126 10:23:06.274812 10372 net.cpp:150] Setting up inception_5b/output
I1126 10:23:06.274821 10372 net.cpp:157] Top shape: 32 1024 7 7 (1605632)
I1126 10:23:06.274824 10372 net.cpp:165] Memory required for data: 1794446344
I1126 10:23:06.274828 10372 layer_factory.hpp:76] Creating layer pool5/7x7_s1
I1126 10:23:06.274838 10372 net.cpp:106] Creating Layer pool5/7x7_s1
I1126 10:23:06.274843 10372 net.cpp:454] pool5/7x7_s1 <- inception_5b/output
I1126 10:23:06.274854 10372 net.cpp:411] pool5/7x7_s1 -> pool5/7x7_s1
I1126 10:23:06.275084 10372 net.cpp:150] Setting up pool5/7x7_s1
I1126 10:23:06.275096 10372 net.cpp:157] Top shape: 32 1024 1 1 (32768)
I1126 10:23:06.275101 10372 net.cpp:165] Memory required for data: 1794577416
I1126 10:23:06.275106 10372 layer_factory.hpp:76] Creating layer pool5/drop_7x7_s1
I1126 10:23:06.275128 10372 net.cpp:106] Creating Layer pool5/drop_7x7_s1
I1126 10:23:06.275135 10372 net.cpp:454] pool5/drop_7x7_s1 <- pool5/7x7_s1
I1126 10:23:06.275141 10372 net.cpp:397] pool5/drop_7x7_s1 -> pool5/7x7_s1 (in-place)
I1126 10:23:06.275177 10372 net.cpp:150] Setting up pool5/drop_7x7_s1
I1126 10:23:06.275184 10372 net.cpp:157] Top shape: 32 1024 1 1 (32768)
I1126 10:23:06.275188 10372 net.cpp:165] Memory required for data: 1794708488
I1126 10:23:06.275192 10372 layer_factory.hpp:76] Creating layer loss3/classifier2
I1126 10:23:06.275203 10372 net.cpp:106] Creating Layer loss3/classifier2
I1126 10:23:06.275208 10372 net.cpp:454] loss3/classifier2 <- pool5/7x7_s1
I1126 10:23:06.275215 10372 net.cpp:411] loss3/classifier2 -> loss3/classifier
I1126 10:23:06.275382 10372 net.cpp:150] Setting up loss3/classifier2
I1126 10:23:06.275393 10372 net.cpp:157] Top shape: 32 2 (64)
I1126 10:23:06.275398 10372 net.cpp:165] Memory required for data: 1794708744
I1126 10:23:06.275404 10372 layer_factory.hpp:76] Creating layer loss3/loss3
I1126 10:23:06.275415 10372 net.cpp:106] Creating Layer loss3/loss3
I1126 10:23:06.275419 10372 net.cpp:454] loss3/loss3 <- loss3/classifier
I1126 10:23:06.275426 10372 net.cpp:454] loss3/loss3 <- label_data_1_split_2
I1126 10:23:06.275434 10372 net.cpp:411] loss3/loss3 -> loss3/loss3
…
I1126 10:23:06.384440 10372 net.cpp:322] The NetState phase (1) differed from the phase (0) specified by a rule in layer data
I1126 10:23:06.385520 10372 net.cpp:49] Initializing net from parameters: 
name: "GoogleNet"
state {
  phase: TEST
}
layer {
  name: "data"
  type: "Data"
  top: "data"
  top: "label"
  include {
    phase: TEST
  }
  transform_param {
    mirror: false
    crop_size: 224
    mean_value: 104
    mean_value: 117
    mean_value: 123
  }
  data_param {
    source: "../../LMDB/val_5-lmdb"
    batch_size: 50
    backend: LMDB
  }
}
layer {
  name: "conv1/7x7_s2"
  type: "Convolution"
  bottom: "data"
  top: "conv1/7x7_s2"
  param {
    lr_mult: 1
    decay_mult: 1
  }
  param {
    lr_mult: 2
    decay_mult: 0
  }
  convolution_param {
    num_output: 64
    pad: 3
    kernel_size: 7
    stride: 2
    weight_filler {
      type: "xavier"
    }
    bias_filler {
      type: "constant"
      value: 0.2
    }
  }
}
layer {
  name: "conv1/prelu_7x7"
  type: "PReLU"
  bottom: "conv1/7x7_s2"
  top: "conv1/7x7_s2"
  param {
    lr_mult: 1
    decay_mult: 0
  }
  prelu_param {
    filler {
      type: "constant"
      value: 0.01
    }
  }
}
layer {
  name: "pool1/3x3_s2"
  type: "Pooling"
  bottom: "conv1/7x7_s2"
  top: "pool1/3x3_s2"
  pooling_param {
    pool: MAX
    kernel_size: 3
    stride: 2
  }
}
layer {
  name: "pool1/norm1"
  type: "LRN"
  bottom: "pool1/3x3_s2"
  top: "pool1/norm1"
  lrn_param {
    local_size: 5
    alpha: 0.0001
    beta: 0.75
  }
}
layer {
  name: "conv2/3x3_reduce"
  type: "Convolution"
  bottom: "pool1/norm1"
  top: "conv2/3x3_reduce"
  param {
    lr_mult: 1
    decay_mult: 1
  }
  param {
    lr_mult: 2
    decay_mult: 0
  }
  convolution_param {
    num_output: 64
    kernel_size: 1
    weight_filler {
      type: "xavier"
    }
    bias_filler {
      type: "constant"
      value: 0.2
    }
  }
}
layer {
  name: "conv2/prelu_3x3_reduce"
  type: "PReLU"
  bottom: "conv2/3x3_reduce"
  top: "conv2/3x3_reduce"
  param {
    lr_mult: 1
    decay_mult: 0
  }
  prelu_param {
    filler {
      type: "constant"
      value: 0.01
    }
  }
}
layer {
  name: "conv2/3x3"
  type: "Convolution"
  bottom: "conv2/3x3_reduce"
  top: "conv2/3x3"
  param {
    lr_mult: 1
    decay_mult: 1
  }
  param {
    lr_mult: 2
    decay_mult: 0
  }
  convolution_param {
    num_output: 192
    pad: 1
    kernel_size: 3
    weight_filler {
      type: "xavier"
    }
    bias_filler {
      type: "constant"
      value: 0.2
    }
  }
}
layer {
  name: "conv2/prelu_3x3"
  type: "PReLU"
  bottom: "conv2/3x3"
  top: "conv2/3x3"
  param {
    lr_mult: 1
    decay_mult: 0
  }
  prelu_param {
    filler {
      type: "constant"
      value: 0.01
    }
  }
}
layer {
  name: "conv2/norm2"
  type: "LRN"
  bottom: "conv2/3x3"
  top: "conv2/norm2"
  lrn_param {
    local_size: 5
    alpha: 0.0001
    beta: 0.75
  }
}
layer {
  name: "pool2/3x3_s2"
  type: "Pooling"
  bottom: "conv2/norm2"
  top: "pool2/3x3_s2"
  pooling_param {
    pool: MAX
    kernel_size: 3
    stride: 2
  }
}
layer {
  name: "inception_3a/1x1"
  type: "Convolution"
  bottom: "pool2/3x3_s2"
  top: "inception_3a/1x1"
  param {
    lr_mult: 1
    decay_mult: 1
  }
  param {
    lr_mult: 2
    decay_mult: 0
  }
  convolution_param {
    num_output: 64
    kernel_size: 1
    weight_filler {
      type: "xavier"
    }
    bias_filler {
      type: "constant"
      value: 0.2
    }
  }
}
layer {
  name: "inception_3a/prelu_1x1"
  type: "PReLU"
  bottom: "inception_3a/1x1"
  top: "inception_3a/1x1"
  param {
    lr_mult: 1
    decay_mult: 0
  }
  prelu_param {
    filler {
      type: "constant"
      value: 0.01
    }
  }
}
layer {
  name: "inception_3a/3x3_reduce"
  type: "Convolution"
  bottom: "pool2/3x3_s2"
  top: "inception_3a/3x3_reduce"
  param {
    lr_mult: 1
    decay_mult: 1
  }
  param {
    lr_mult: 2
    decay_mult: 0
  }
  convolution_param {
    num_output: 96
    kernel_size: 1
    weight_filler {
      type: "xavier"
    }
    bias_filler {
      type: "constant"
      value: 0.2
    }
  }
}
layer {
  name: "inception_3a/prelu_3x3_reduce"
  type: "PReLU"
  bottom: "inception_3a/3x3_reduce"
  top: "inception_3a/3x3_reduce"
  param {
    lr_mult: 1
    decay_mult: 0
  }
  prelu_param {
    filler {
      type: "constant"
      value: 0.01
    }
  }
}
layer {
  name: "inception_3a/3x3"
  type: "Convolution"
  bottom: "inception_3a/3x3_reduce"
  top: "inception_3a/3x3"
  param {
    lr_mult: 1
    decay_mult: 1
  }
  param {
    lr_mult: 2
    decay_mult: 0
  }
  convolution_param {
    num_output: 128
    pad: 1
    kernel_size: 3
    weight_filler {
      type: "xavier"
    }
    bias_filler {
      type: "constant"
      value: 0.2
    }
  }
}
layer {
  name: "inception_3a/prelu_3x3"
  type: "PReLU"
  bottom: "inception_3a/3x3"
  top: "inception_3a/3x3"
  param {
    lr_mult: 1
    decay_mult: 0
  }
  prelu_param {
    filler {
      type: "constant"
      value: 0.01
    }
  }
}
layer {
  name: "inception_3a/5x5_reduce"
  type: "Convolution"
  bottom: "pool2/3x3_s2"
  top: "inception_3a/5x5_reduce"
  param {
    lr_mult: 1
    decay_mult: 1
  }
  param {
    lr_mult: 2
    decay_mult: 0
  }
  convolution_param {
    num_output: 16
    kernel_size: 1
    weight_filler {
      type: "xavier"
    }
    bias_filler {
      type: "constant"
      value: 0.2
    }
  }
}
layer {
  name: "inception_3a/prelu_5x5_reduce"
  type: "PReLU"
  bottom: "inception_3a/5x5_reduce"
  top: "inception_3a/5x5_reduce"
  param {
    lr_mult: 1
    decay_mult: 0
  }
  prelu_param {
    filler {
      type: "constant"
      value: 0.01
    }
  }
}
layer {
  name: "inception_3a/5x5"
  type: "Convolution"
  bottom: "inception_3a/5x5_reduce"
  top: "inception_3a/5x5"
  param {
    lr_mult: 1
    decay_mult: 1
  }
  param {
    lr_mult: 2
    decay_mult: 0
  }
  convolution_param {
    num_output: 32
    pad: 2
    kernel_size: 5
    weight_filler {
      type: "xavier"
    }
    bias_filler {
      type: "constant"
      value: 0.2
    }
  }
}
layer {
  name: "inception_3a/prelu_5x5"
  type: "PReLU"
  bottom: "inception_3a/5x5"
  top: "inception_3a/5x5"
  param {
    lr_mult: 1
    decay_mult: 0
  }
  prelu_param {
    filler {
      type: "constant"
      value: 0.01
    }
  }
}
layer {
  name: "inception_3a/pool"
  type: "Pooling"
  bottom: "pool2/3x3_s2"
  top: "inception_3a/pool"
  pooling_param {
    pool: MAX
    kernel_size: 3
    stride: 1
    pad: 1
  }
}
layer {
  name: "inception_3a/pool_proj"
  type: "Convolution"
  bottom: "inception_3a/pool"
  top: "inception_3a/pool_proj"
  param {
    lr_mult: 1
    decay_mult: 1
  }
  param {
    lr_mult: 2
    decay_mult: 0
  }
  convolution_param {
    num_output: 32
    kernel_size: 1
    weight_filler {
      type: "xavier"
    }
    bias_filler {
      type: "constant"
      value: 0.2
    }
  }
}
layer {
  name: "inception_3a/prelu_pool_proj"
  type: "PReLU"
  bottom: "inception_3a/pool_proj"
  top: "inception_3a/pool_proj"
  param {
    lr_mult: 1
    decay_mult: 0
  }
  prelu_param {
    filler {
      type: "constant"
      value: 0.01
    }
  }
}
layer {
  name: "inception_3a/output"
  type: "Concat"
  bottom: "inception_3a/1x1"
  bottom: "inception_3a/3x3"
  bottom: "inception_3a/5x5"
  bottom: "inception_3a/pool_proj"
  top: "inception_3a/output"
}
layer {
  name: "inception_3b/1x1"
  type: "Convolution"
  bottom: "inception_3a/output"
  top: "inception_3b/1x1"
  param {
    lr_mult: 1
    decay_mult: 1
  }
  param {
    lr_mult: 2
    decay_mult: 0
  }
  convolution_param {
    num_output: 128
    kernel_size: 1
    weight_filler {
      type: "xavier"
    }
    bias_filler {
      type: "constant"
      value: 0.2
    }
  }
}
layer {
  name: "inception_3b/prelu_1x1"
  type: "PReLU"
  bottom: "inception_3b/1x1"
  top: "inception_3b/1x1"
  param {
    lr_mult: 1
    decay_mult: 0
  }
  prelu_param {
    filler {
      type: "constant"
      value: 0.01
    }
  }
}
layer {
  name: "inception_3b/3x3_reduce"
  type: "Convolution"
  bottom: "inception_3a/output"
  top: "inception_3b/3x3_reduce"
  param {
    lr_mult: 1
    decay_mult: 1
  }
  param {
    lr_mult: 2
    decay_mult: 0
  }
  convolution_param {
    num_output: 128
    kernel_size: 1
    weight_filler {
      type: "xavier"
    }
    bias_filler {
      type: "constant"
      value: 0.2
    }
  }
}
layer {
  name: "inception_3b/prelu_3x3_reduce"
  type: "PReLU"
  bottom: "inception_3b/3x3_reduce"
  top: "inception_3b/3x3_reduce"
  param {
    lr_mult: 1
    decay_mult: 0
  }
  prelu_param {
    filler {
      type: "constant"
      value: 0.01
    }
  }
}
layer {
  name: "inception_3b/3x3"
  type: "Convolution"
  bottom: "inception_3b/3x3_reduce"
  top: "inception_3b/3x3"
  param {
    lr_mult: 1
    decay_mult: 1
  }
  param {
    lr_mult: 2
    decay_mult: 0
  }
  convolution_param {
    num_output: 192
    pad: 1
…
I1126 10:23:06.912546 10372 net.cpp:106] Creating Layer inception_4c/output
I1126 10:23:06.912551 10372 net.cpp:454] inception_4c/output <- inception_4c/1x1
I1126 10:23:06.912557 10372 net.cpp:454] inception_4c/output <- inception_4c/3x3
I1126 10:23:06.912562 10372 net.cpp:454] inception_4c/output <- inception_4c/5x5
I1126 10:23:06.912569 10372 net.cpp:454] inception_4c/output <- inception_4c/pool_proj
I1126 10:23:06.912574 10372 net.cpp:411] inception_4c/output -> inception_4c/output
I1126 10:23:06.912605 10372 net.cpp:150] Setting up inception_4c/output
I1126 10:23:06.912613 10372 net.cpp:157] Top shape: 50 512 14 14 (5017600)
I1126 10:23:06.912616 10372 net.cpp:165] Memory required for data: 2234652208
I1126 10:23:06.912622 10372 layer_factory.hpp:76] Creating layer inception_4c/output_inception_4c/output_0_split
I1126 10:23:06.912631 10372 net.cpp:106] Creating Layer inception_4c/output_inception_4c/output_0_split
I1126 10:23:06.912636 10372 net.cpp:454] inception_4c/output_inception_4c/output_0_split <- inception_4c/output
I1126 10:23:06.912644 10372 net.cpp:411] inception_4c/output_inception_4c/output_0_split -> inception_4c/output_inception_4c/output_0_split_0
I1126 10:23:06.912652 10372 net.cpp:411] inception_4c/output_inception_4c/output_0_split -> inception_4c/output_inception_4c/output_0_split_1
I1126 10:23:06.912659 10372 net.cpp:411] inception_4c/output_inception_4c/output_0_split -> inception_4c/output_inception_4c/output_0_split_2
I1126 10:23:06.912698 10372 net.cpp:411] inception_4c/output_inception_4c/output_0_split -> inception_4c/output_inception_4c/output_0_split_3
I1126 10:23:06.912777 10372 net.cpp:150] Setting up inception_4c/output_inception_4c/output_0_split
I1126 10:23:06.912788 10372 net.cpp:157] Top shape: 50 512 14 14 (5017600)
I1126 10:23:06.912793 10372 net.cpp:157] Top shape: 50 512 14 14 (5017600)
I1126 10:23:06.912798 10372 net.cpp:157] Top shape: 50 512 14 14 (5017600)
I1126 10:23:06.912803 10372 net.cpp:157] Top shape: 50 512 14 14 (5017600)
I1126 10:23:06.912807 10372 net.cpp:165] Memory required for data: 2314933808
I1126 10:23:06.912811 10372 layer_factory.hpp:76] Creating layer inception_4d/1x1
I1126 10:23:06.912827 10372 net.cpp:106] Creating Layer inception_4d/1x1
I1126 10:23:06.912832 10372 net.cpp:454] inception_4d/1x1 <- inception_4c/output_inception_4c/output_0_split_0
I1126 10:23:06.912837 10372 net.cpp:411] inception_4d/1x1 -> inception_4d/1x1
I1126 10:23:06.914553 10372 cudnn_conv_layer.cpp:194] Reallocating workspace storage: 10080
I1126 10:23:06.914597 10372 net.cpp:150] Setting up inception_4d/1x1
I1126 10:23:06.914608 10372 net.cpp:157] Top shape: 50 112 14 14 (1097600)
I1126 10:23:06.914613 10372 net.cpp:165] Memory required for data: 2319324208
I1126 10:23:06.914620 10372 layer_factory.hpp:76] Creating layer inception_4d/prelu_1x1
I1126 10:23:06.914631 10372 net.cpp:106] Creating Layer inception_4d/prelu_1x1
I1126 10:23:06.914636 10372 net.cpp:454] inception_4d/prelu_1x1 <- inception_4d/1x1
I1126 10:23:06.914644 10372 net.cpp:397] inception_4d/prelu_1x1 -> inception_4d/1x1 (in-place)
I1126 10:23:06.914754 10372 net.cpp:150] Setting up inception_4d/prelu_1x1
I1126 10:23:06.914762 10372 net.cpp:157] Top shape: 50 112 14 14 (1097600)
I1126 10:23:06.914767 10372 net.cpp:165] Memory required for data: 2323714608
I1126 10:23:06.914772 10372 layer_factory.hpp:76] Creating layer inception_4d/3x3_reduce
I1126 10:23:06.914783 10372 net.cpp:106] Creating Layer inception_4d/3x3_reduce
I1126 10:23:06.914788 10372 net.cpp:454] inception_4d/3x3_reduce <- inception_4c/output_inception_4c/output_0_split_1
I1126 10:23:06.914798 10372 net.cpp:411] inception_4d/3x3_reduce -> inception_4d/3x3_reduce
I1126 10:23:06.916568 10372 cudnn_conv_layer.cpp:194] Reallocating workspace storage: 10080
I1126 10:23:06.916612 10372 net.cpp:150] Setting up inception_4d/3x3_reduce
I1126 10:23:06.916625 10372 net.cpp:157] Top shape: 50 144 14 14 (1411200)
I1126 10:23:06.916630 10372 net.cpp:165] Memory required for data: 2329359408
I1126 10:23:06.916641 10372 layer_factory.hpp:76] Creating layer inception_4d/prelu_3x3_reduce
I1126 10:23:06.916656 10372 net.cpp:106] Creating Layer inception_4d/prelu_3x3_reduce
I1126 10:23:06.916662 10372 net.cpp:454] inception_4d/prelu_3x3_reduce <- inception_4d/3x3_reduce
I1126 10:23:06.916672 10372 net.cpp:397] inception_4d/prelu_3x3_reduce -> inception_4d/3x3_reduce (in-place)
I1126 10:23:06.916837 10372 net.cpp:150] Setting up inception_4d/prelu_3x3_reduce
I1126 10:23:06.916848 10372 net.cpp:157] Top shape: 50 144 14 14 (1411200)
I1126 10:23:06.916862 10372 net.cpp:165] Memory required for data: 2335004208
I1126 10:23:06.916868 10372 layer_factory.hpp:76] Creating layer inception_4d/3x3
I1126 10:23:06.916882 10372 net.cpp:106] Creating Layer inception_4d/3x3
I1126 10:23:06.916887 10372 net.cpp:454] inception_4d/3x3 <- inception_4d/3x3_reduce
I1126 10:23:06.916893 10372 net.cpp:411] inception_4d/3x3 -> inception_4d/3x3
I1126 10:23:06.921403 10372 cudnn_conv_layer.cpp:194] Reallocating workspace storage: 10080
I1126 10:23:06.921457 10372 net.cpp:150] Setting up inception_4d/3x3
I1126 10:23:06.921468 10372 net.cpp:157] Top shape: 50 288 14 14 (2822400)
I1126 10:23:06.921473 10372 net.cpp:165] Memory required for data: 2346293808
I1126 10:23:06.921483 10372 layer_factory.hpp:76] Creating layer inception_4d/prelu_3x3
I1126 10:23:06.921497 10372 net.cpp:106] Creating Layer inception_4d/prelu_3x3
I1126 10:23:06.921505 10372 net.cpp:454] inception_4d/prelu_3x3 <- inception_4d/3x3
I1126 10:23:06.921535 10372 net.cpp:397] inception_4d/prelu_3x3 -> inception_4d/3x3 (in-place)
I1126 10:23:06.922215 10372 net.cpp:150] Setting up inception_4d/prelu_3x3
I1126 10:23:06.922227 10372 net.cpp:157] Top shape: 50 288 14 14 (2822400)
I1126 10:23:06.922231 10372 net.cpp:165] Memory required for data: 2357583408
I1126 10:23:06.922237 10372 layer_factory.hpp:76] Creating layer inception_4d/5x5_reduce
I1126 10:23:06.922250 10372 net.cpp:106] Creating Layer inception_4d/5x5_reduce
I1126 10:23:06.922255 10372 net.cpp:454] inception_4d/5x5_reduce <- inception_4c/output_inception_4c/output_0_split_2
I1126 10:23:06.922263 10372 net.cpp:411] inception_4d/5x5_reduce -> inception_4d/5x5_reduce
I1126 10:23:06.923806 10372 cudnn_conv_layer.cpp:194] Reallocating workspace storage: 10080
I1126 10:23:06.923848 10372 net.cpp:150] Setting up inception_4d/5x5_reduce
I1126 10:23:06.923857 10372 net.cpp:157] Top shape: 50 32 14 14 (313600)
I1126 10:23:06.923862 10372 net.cpp:165] Memory required for data: 2358837808
I1126 10:23:06.923871 10372 layer_factory.hpp:76] Creating layer inception_4d/prelu_5x5_reduce
I1126 10:23:06.923882 10372 net.cpp:106] Creating Layer inception_4d/prelu_5x5_reduce
I1126 10:23:06.923888 10372 net.cpp:454] inception_4d/prelu_5x5_reduce <- inception_4d/5x5_reduce
I1126 10:23:06.923897 10372 net.cpp:397] inception_4d/prelu_5x5_reduce -> inception_4d/5x5_reduce (in-place)
I1126 10:23:06.923995 10372 net.cpp:150] Setting up inception_4d/prelu_5x5_reduce
I1126 10:23:06.924003 10372 net.cpp:157] Top shape: 50 32 14 14 (313600)
I1126 10:23:06.924007 10372 net.cpp:165] Memory required for data: 2360092208
I1126 10:23:06.924013 10372 layer_factory.hpp:76] Creating layer inception_4d/5x5
I1126 10:23:06.924024 10372 net.cpp:106] Creating Layer inception_4d/5x5
I1126 10:23:06.924029 10372 net.cpp:454] inception_4d/5x5 <- inception_4d/5x5_reduce
I1126 10:23:06.924036 10372 net.cpp:411] inception_4d/5x5 -> inception_4d/5x5
I1126 10:23:06.925423 10372 cudnn_conv_layer.cpp:194] Reallocating workspace storage: 13080
I1126 10:23:06.925472 10372 net.cpp:150] Setting up inception_4d/5x5
I1126 10:23:06.925482 10372 net.cpp:157] Top shape: 50 64 14 14 (627200)
I1126 10:23:06.925487 10372 net.cpp:165] Memory required for data: 2362601008
I1126 10:23:06.925495 10372 layer_factory.hpp:76] Creating layer inception_4d/prelu_5x5
I1126 10:23:06.925508 10372 net.cpp:106] Creating Layer inception_4d/prelu_5x5
I1126 10:23:06.925513 10372 net.cpp:454] inception_4d/prelu_5x5 <- inception_4d/5x5
I1126 10:23:06.925520 10372 net.cpp:397] inception_4d/prelu_5x5 -> inception_4d/5x5 (in-place)
I1126 10:23:06.925629 10372 net.cpp:150] Setting up inception_4d/prelu_5x5
I1126 10:23:06.925638 10372 net.cpp:157] Top shape: 50 64 14 14 (627200)
I1126 10:23:06.925642 10372 net.cpp:165] Memory required for data: 2365109808
I1126 10:23:06.925647 10372 layer_factory.hpp:76] Creating layer inception_4d/pool
I1126 10:23:06.925658 10372 net.cpp:106] Creating Layer inception_4d/pool
I1126 10:23:06.925664 10372 net.cpp:454] inception_4d/pool <- inception_4c/output_inception_4c/output_0_split_3
I1126 10:23:06.925674 10372 net.cpp:411] inception_4d/pool -> inception_4d/pool
I1126 10:23:06.926354 10372 net.cpp:150] Setting up inception_4d/pool
I1126 10:23:06.926380 10372 net.cpp:157] Top shape: 50 512 14 14 (5017600)
I1126 10:23:06.926388 10372 net.cpp:165] Memory required for data: 2385180208
I1126 10:23:06.926396 10372 layer_factory.hpp:76] Creating layer inception_4d/pool_proj
I1126 10:23:06.926411 10372 net.cpp:106] Creating Layer inception_4d/pool_proj
I1126 10:23:06.926419 10372 net.cpp:454] inception_4d/pool_proj <- inception_4d/pool
I1126 10:23:06.926426 10372 net.cpp:411] inception_4d/pool_proj -> inception_4d/pool_proj
I1126 10:23:06.928010 10372 cudnn_conv_layer.cpp:194] Reallocating workspace storage: 10080
I1126 10:23:06.928076 10372 net.cpp:150] Setting up inception_4d/pool_proj
I1126 10:23:06.928092 10372 net.cpp:157] Top shape: 50 64 14 14 (627200)
I1126 10:23:06.928100 10372 net.cpp:165] Memory required for data: 2387689008
I1126 10:23:06.928115 10372 layer_factory.hpp:76] Creating layer inception_4d/prelu_pool_proj
I1126 10:23:06.928161 10372 net.cpp:106] Creating Layer inception_4d/prelu_pool_proj
I1126 10:23:06.928174 10372 net.cpp:454] inception_4d/prelu_pool_proj <- inception_4d/pool_proj
I1126 10:23:06.928191 10372 net.cpp:397] inception_4d/prelu_pool_proj -> inception_4d/pool_proj (in-place)
I1126 10:23:06.928351 10372 net.cpp:150] Setting up inception_4d/prelu_pool_proj
I1126 10:23:06.928367 10372 net.cpp:157] Top shape: 50 64 14 14 (627200)
I1126 10:23:06.928376 10372 net.cpp:165] Memory required for data: 2390197808
I1126 10:23:06.928386 10372 layer_factory.hpp:76] Creating layer inception_4d/output
I1126 10:23:06.928400 10372 net.cpp:106] Creating Layer inception_4d/output
I1126 10:23:06.928410 10372 net.cpp:454] inception_4d/output <- inception_4d/1x1
I1126 10:23:06.928419 10372 net.cpp:454] inception_4d/output <- inception_4d/3x3
I1126 10:23:06.928429 10372 net.cpp:454] inception_4d/output <- inception_4d/5x5
I1126 10:23:06.928439 10372 net.cpp:454] inception_4d/output <- inception_4d/pool_proj
I1126 10:23:06.928450 10372 net.cpp:411] inception_4d/output -> inception_4d/output
I1126 10:23:06.928489 10372 net.cpp:150] Setting up inception_4d/output
I1126 10:23:06.928500 10372 net.cpp:157] Top shape: 50 528 14 14 (5174400)
I1126 10:23:06.928506 10372 net.cpp:165] Memory required for data: 2410895408
I1126 10:23:06.928513 10372 layer_factory.hpp:76] Creating layer inception_4d/output_inception_4d/output_0_split
I1126 10:23:06.928524 10372 net.cpp:106] Creating Layer inception_4d/output_inception_4d/output_0_split
I1126 10:23:06.928532 10372 net.cpp:454] inception_4d/output_inception_4d/output_0_split <- inception_4d/output
I1126 10:23:06.928541 10372 net.cpp:411] inception_4d/output_inception_4d/output_0_split -> inception_4d/output_inception_4d/output_0_split_0
I1126 10:23:06.928552 10372 net.cpp:411] inception_4d/output_inception_4d/output_0_split -> inception_4d/output_inception_4d/output_0_split_1
I1126 10:23:06.928565 10372 net.cpp:411] inception_4d/output_inception_4d/output_0_split -> inception_4d/output_inception_4d/output_0_split_2
I1126 10:23:06.928576 10372 net.cpp:411] inception_4d/output_inception_4d/output_0_split -> inception_4d/output_inception_4d/output_0_split_3
I1126 10:23:06.928586 10372 net.cpp:411] inception_4d/output_inception_4d/output_0_split -> inception_4d/output_inception_4d/output_0_split_4
I1126 10:23:06.928694 10372 net.cpp:150] Setting up inception_4d/output_inception_4d/output_0_split
I1126 10:23:06.928707 10372 net.cpp:157] Top shape: 50 528 14 14 (5174400)
I1126 10:23:06.928727 10372 net.cpp:157] Top shape: 50 528 14 14 (5174400)
I1126 10:23:06.928737 10372 net.cpp:157] Top shape: 50 528 14 14 (5174400)
I1126 10:23:06.928746 10372 net.cpp:157] Top shape: 50 528 14 14 (5174400)
I1126 10:23:06.928755 10372 net.cpp:157] Top shape: 50 528 14 14 (5174400)
I1126 10:23:06.928761 10372 net.cpp:165] Memory required for data: 2514383408
I1126 10:23:06.928769 10372 layer_factory.hpp:76] Creating layer loss2/ave_pool
I1126 10:23:06.928783 10372 net.cpp:106] Creating Layer loss2/ave_pool
I1126 10:23:06.928791 10372 net.cpp:454] loss2/ave_pool <- inception_4d/output_inception_4d/output_0_split_0
I1126 10:23:06.928804 10372 net.cpp:411] loss2/ave_pool -> loss2/ave_pool
I1126 10:23:06.929111 10372 net.cpp:150] Setting up loss2/ave_pool
I1126 10:23:06.929131 10372 net.cpp:157] Top shape: 50 528 4 4 (422400)
I1126 10:23:06.929139 10372 net.cpp:165] Memory required for data: 2516073008
I1126 10:23:06.929144 10372 layer_factory.hpp:76] Creating layer loss2/conv
I1126 10:23:06.929155 10372 net.cpp:106] Creating Layer loss2/conv
I1126 10:23:06.929160 10372 net.cpp:454] loss2/conv <- loss2/ave_pool
I1126 10:23:06.929169 10372 net.cpp:411] loss2/conv -> loss2/conv
I1126 10:23:06.930910 10372 cudnn_conv_layer.cpp:194] Reallocating workspace storage: 6840
I1126 10:23:06.930954 10372 net.cpp:150] Setting up loss2/conv
I1126 10:23:06.930963 10372 net.cpp:157] Top shape: 50 128 4 4 (102400)
I1126 10:23:06.930968 10372 net.cpp:165] Memory required for data: 2516482608
I1126 10:23:06.930999 10372 layer_factory.hpp:76] Creating layer loss2/prelu_conv
I1126 10:23:06.931013 10372 net.cpp:106] Creating Layer loss2/prelu_conv
I1126 10:23:06.931020 10372 net.cpp:454] loss2/prelu_conv <- loss2/conv
I1126 10:23:06.931026 10372 net.cpp:397] loss2/prelu_conv -> loss2/conv (in-place)
I1126 10:23:06.931143 10372 net.cpp:150] Setting up loss2/prelu_conv
I1126 10:23:06.931151 10372 net.cpp:157] Top shape: 50 128 4 4 (102400)
I1126 10:23:06.931155 10372 net.cpp:165] Memory required for data: 2516892208
I1126 10:23:06.931161 10372 layer_factory.hpp:76] Creating layer loss2/fc
I1126 10:23:06.931171 10372 net.cpp:106] Creating Layer loss2/fc
I1126 10:23:06.931175 10372 net.cpp:454] loss2/fc <- loss2/conv
I1126 10:23:06.931184 10372 net.cpp:411] loss2/fc -> loss2/fc
I1126 10:23:06.948246 10372 net.cpp:150] Setting up loss2/fc
I1126 10:23:06.948284 10372 net.cpp:157] Top shape: 50 1024 (51200)
I1126 10:23:06.948289 10372 net.cpp:165] Memory required for data: 2517097008
I1126 10:23:06.948318 10372 layer_factory.hpp:76] Creating layer loss2/prelu_fc
I1126 10:23:06.948330 10372 net.cpp:106] Creating Layer loss2/prelu_fc
I1126 10:23:06.948338 10372 net.cpp:454] loss2/prelu_fc <- loss2/fc
I1126 10:23:06.948345 10372 net.cpp:397] loss2/prelu_fc -> loss2/fc (in-place)
I1126 10:23:06.948446 10372 net.cpp:150] Setting up loss2/prelu_fc
I1126 10:23:06.948453 10372 net.cpp:157] Top shape: 50 1024 (51200)
I1126 10:23:06.948457 10372 net.cpp:165] Memory required for data: 2517301808
I1126 10:23:06.948463 10372 layer_factory.hpp:76] Creating layer loss2/drop_fc
I1126 10:23:06.948472 10372 net.cpp:106] Creating Layer loss2/drop_fc
I1126 10:23:06.948477 10372 net.cpp:454] loss2/drop_fc <- loss2/fc
I1126 10:23:06.948483 10372 net.cpp:397] loss2/drop_fc -> loss2/fc (in-place)
I1126 10:23:06.948508 10372 net.cpp:150] Setting up loss2/drop_fc
I1126 10:23:06.948515 10372 net.cpp:157] Top shape: 50 1024 (51200)
I1126 10:23:06.948519 10372 net.cpp:165] Memory required for data: 2517506608
I1126 10:23:06.948523 10372 layer_factory.hpp:76] Creating layer loss2/classifier2
I1126 10:23:06.948534 10372 net.cpp:106] Creating Layer loss2/classifier2
I1126 10:23:06.948537 10372 net.cpp:454] loss2/classifier2 <- loss2/fc
I1126 10:23:06.948544 10372 net.cpp:411] loss2/classifier2 -> loss2/classifier
I1126 10:23:06.948673 10372 net.cpp:150] Setting up loss2/classifier2
I1126 10:23:06.948680 10372 net.cpp:157] Top shape: 50 2 (100)
I1126 10:23:06.948685 10372 net.cpp:165] Memory required for data: 2517507008
I1126 10:23:06.948691 10372 layer_factory.hpp:76] Creating layer loss2/classifier_loss2/classifier2_0_split
I1126 10:23:06.948698 10372 net.cpp:106] Creating Layer loss2/classifier_loss2/classifier2_0_split
I1126 10:23:06.948703 10372 net.cpp:454] loss2/classifier_loss2/classifier2_0_split <- loss2/classifier
I1126 10:23:06.948709 10372 net.cpp:411] loss2/classifier_loss2/classifier2_0_split -> loss2/classifier_loss2/classifier2_0_split_0
I1126 10:23:06.948735 10372 net.cpp:411] loss2/classifier_loss2/classifier2_0_split -> loss2/classifier_loss2/classifier2_0_split_1
I1126 10:23:06.948782 10372 net.cpp:150] Setting up loss2/classifier_loss2/classifier2_0_split
I1126 10:23:06.948791 10372 net.cpp:157] Top shape: 50 2 (100)
I1126 10:23:06.948796 10372 net.cpp:157] Top shape: 50 2 (100)
I1126 10:23:06.948801 10372 net.cpp:165] Memory required for data: 2517507808
I1126 10:23:06.948804 10372 layer_factory.hpp:76] Creating layer loss2/loss
I1126 10:23:06.948810 10372 net.cpp:106] Creating Layer loss2/loss
I1126 10:23:06.948815 10372 net.cpp:454] loss2/loss <- loss2/classifier_loss2/classifier2_0_split_0
I1126 10:23:06.948820 10372 net.cpp:454] loss2/loss <- label_data_1_split_2
…
I1126 10:23:06.949622 10372 net.cpp:165] Memory required for data: 2517507816
I1126 10:23:06.949626 10372 layer_factory.hpp:76] Creating layer inception_4e/1x1
I1126 10:23:06.949637 10372 net.cpp:106] Creating Layer inception_4e/1x1
I1126 10:23:06.949643 10372 net.cpp:454] inception_4e/1x1 <- inception_4d/output_inception_4d/output_0_split_1
I1126 10:23:06.949650 10372 net.cpp:411] inception_4e/1x1 -> inception_4e/1x1
I1126 10:23:06.951925 10372 cudnn_conv_layer.cpp:194] Reallocating workspace storage: 10080
I1126 10:23:06.951967 10372 net.cpp:150] Setting up inception_4e/1x1
I1126 10:23:06.951977 10372 net.cpp:157] Top shape: 50 256 14 14 (2508800)
I1126 10:23:06.951982 10372 net.cpp:165] Memory required for data: 2527543016
I1126 10:23:06.951990 10372 layer_factory.hpp:76] Creating layer inception_4e/prelu_1x1
I1126 10:23:06.951999 10372 net.cpp:106] Creating Layer inception_4e/prelu_1x1
I1126 10:23:06.952004 10372 net.cpp:454] inception_4e/prelu_1x1 <- inception_4e/1x1
I1126 10:23:06.952011 10372 net.cpp:397] inception_4e/prelu_1x1 -> inception_4e/1x1 (in-place)
I1126 10:23:06.952132 10372 net.cpp:150] Setting up inception_4e/prelu_1x1
I1126 10:23:06.952141 10372 net.cpp:157] Top shape: 50 256 14 14 (2508800)
I1126 10:23:06.952144 10372 net.cpp:165] Memory required for data: 2537578216
I1126 10:23:06.952150 10372 layer_factory.hpp:76] Creating layer inception_4e/3x3_reduce
I1126 10:23:06.952160 10372 net.cpp:106] Creating Layer inception_4e/3x3_reduce
I1126 10:23:06.952165 10372 net.cpp:454] inception_4e/3x3_reduce <- inception_4d/output_inception_4d/output_0_split_2
I1126 10:23:06.952173 10372 net.cpp:411] inception_4e/3x3_reduce -> inception_4e/3x3_reduce
I1126 10:23:06.953810 10372 cudnn_conv_layer.cpp:194] Reallocating workspace storage: 10080
I1126 10:23:06.953847 10372 net.cpp:150] Setting up inception_4e/3x3_reduce
I1126 10:23:06.953855 10372 net.cpp:157] Top shape: 50 160 14 14 (1568000)
I1126 10:23:06.953860 10372 net.cpp:165] Memory required for data: 2543850216
I1126 10:23:06.953867 10372 layer_factory.hpp:76] Creating layer inception_4e/prelu_3x3_reduce
I1126 10:23:06.953874 10372 net.cpp:106] Creating Layer inception_4e/prelu_3x3_reduce
I1126 10:23:06.953879 10372 net.cpp:454] inception_4e/prelu_3x3_reduce <- inception_4e/3x3_reduce
I1126 10:23:06.953887 10372 net.cpp:397] inception_4e/prelu_3x3_reduce -> inception_4e/3x3_reduce (in-place)
I1126 10:23:06.953994 10372 net.cpp:150] Setting up inception_4e/prelu_3x3_reduce
I1126 10:23:06.954002 10372 net.cpp:157] Top shape: 50 160 14 14 (1568000)
I1126 10:23:06.954006 10372 net.cpp:165] Memory required for data: 2550122216
I1126 10:23:06.954011 10372 layer_factory.hpp:76] Creating layer inception_4e/3x3
I1126 10:23:06.954037 10372 net.cpp:106] Creating Layer inception_4e/3x3
I1126 10:23:06.954042 10372 net.cpp:454] inception_4e/3x3 <- inception_4e/3x3_reduce
I1126 10:23:06.954051 10372 net.cpp:411] inception_4e/3x3 -> inception_4e/3x3
I1126 10:23:06.959483 10372 cudnn_conv_layer.cpp:194] Reallocating workspace storage: 10080
I1126 10:23:06.959563 10372 net.cpp:150] Setting up inception_4e/3x3
I1126 10:23:06.959576 10372 net.cpp:157] Top shape: 50 320 14 14 (3136000)
I1126 10:23:06.959581 10372 net.cpp:165] Memory required for data: 2562666216
I1126 10:23:06.959592 10372 layer_factory.hpp:76] Creating layer inception_4e/prelu_3x3
I1126 10:23:06.959607 10372 net.cpp:106] Creating Layer inception_4e/prelu_3x3
I1126 10:23:06.959616 10372 net.cpp:454] inception_4e/prelu_3x3 <- inception_4e/3x3
I1126 10:23:06.959655 10372 net.cpp:397] inception_4e/prelu_3x3 -> inception_4e/3x3 (in-place)
I1126 10:23:06.960423 10372 net.cpp:150] Setting up inception_4e/prelu_3x3
I1126 10:23:06.960448 10372 net.cpp:157] Top shape: 50 320 14 14 (3136000)
I1126 10:23:06.960453 10372 net.cpp:165] Memory required for data: 2575210216
I1126 10:23:06.960461 10372 layer_factory.hpp:76] Creating layer inception_4e/5x5_reduce
I1126 10:23:06.960477 10372 net.cpp:106] Creating Layer inception_4e/5x5_reduce
I1126 10:23:06.960484 10372 net.cpp:454] inception_4e/5x5_reduce <- inception_4d/output_inception_4d/output_0_split_3
I1126 10:23:06.960494 10372 net.cpp:411] inception_4e/5x5_reduce -> inception_4e/5x5_reduce
I1126 10:23:06.962121 10372 cudnn_conv_layer.cpp:194] Reallocating workspace storage: 10080
I1126 10:23:06.962174 10372 net.cpp:150] Setting up inception_4e/5x5_reduce
I1126 10:23:06.962185 10372 net.cpp:157] Top shape: 50 32 14 14 (313600)
I1126 10:23:06.962190 10372 net.cpp:165] Memory required for data: 2576464616
I1126 10:23:06.962199 10372 layer_factory.hpp:76] Creating layer inception_4e/prelu_5x5_reduce
I1126 10:23:06.962211 10372 net.cpp:106] Creating Layer inception_4e/prelu_5x5_reduce
I1126 10:23:06.962218 10372 net.cpp:454] inception_4e/prelu_5x5_reduce <- inception_4e/5x5_reduce
I1126 10:23:06.962226 10372 net.cpp:397] inception_4e/prelu_5x5_reduce -> inception_4e/5x5_reduce (in-place)
I1126 10:23:06.962340 10372 net.cpp:150] Setting up inception_4e/prelu_5x5_reduce
I1126 10:23:06.962350 10372 net.cpp:157] Top shape: 50 32 14 14 (313600)
I1126 10:23:06.962354 10372 net.cpp:165] Memory required for data: 2577719016
I1126 10:23:06.962360 10372 layer_factory.hpp:76] Creating layer inception_4e/5x5
I1126 10:23:06.962373 10372 net.cpp:106] Creating Layer inception_4e/5x5
I1126 10:23:06.962378 10372 net.cpp:454] inception_4e/5x5 <- inception_4e/5x5_reduce
I1126 10:23:06.962389 10372 net.cpp:411] inception_4e/5x5 -> inception_4e/5x5
I1126 10:23:06.965102 10372 cudnn_conv_layer.cpp:194] Reallocating workspace storage: 13080
I1126 10:23:06.965164 10372 net.cpp:150] Setting up inception_4e/5x5
I1126 10:23:06.965176 10372 net.cpp:157] Top shape: 50 128 14 14 (1254400)
I1126 10:23:06.965181 10372 net.cpp:165] Memory required for data: 2582736616
I1126 10:23:06.965191 10372 layer_factory.hpp:76] Creating layer inception_4e/prelu_5x5
I1126 10:23:06.965206 10372 net.cpp:106] Creating Layer inception_4e/prelu_5x5
I1126 10:23:06.965215 10372 net.cpp:454] inception_4e/prelu_5x5 <- inception_4e/5x5
I1126 10:23:06.965224 10372 net.cpp:397] inception_4e/prelu_5x5 -> inception_4e/5x5 (in-place)
I1126 10:23:06.965339 10372 net.cpp:150] Setting up inception_4e/prelu_5x5
I1126 10:23:06.965349 10372 net.cpp:157] Top shape: 50 128 14 14 (1254400)
I1126 10:23:06.965353 10372 net.cpp:165] Memory required for data: 2587754216
I1126 10:23:06.965358 10372 layer_factory.hpp:76] Creating layer inception_4e/pool
I1126 10:23:06.965368 10372 net.cpp:106] Creating Layer inception_4e/pool
I1126 10:23:06.965373 10372 net.cpp:454] inception_4e/pool <- inception_4d/output_inception_4d/output_0_split_4
I1126 10:23:06.965380 10372 net.cpp:411] inception_4e/pool -> inception_4e/pool
I1126 10:23:06.965605 10372 net.cpp:150] Setting up inception_4e/pool
I1126 10:23:06.965617 10372 net.cpp:157] Top shape: 50 528 14 14 (5174400)
I1126 10:23:06.965622 10372 net.cpp:165] Memory required for data: 2608451816
I1126 10:23:06.965627 10372 layer_factory.hpp:76] Creating layer inception_4e/pool_proj
I1126 10:23:06.965639 10372 net.cpp:106] Creating Layer inception_4e/pool_proj
I1126 10:23:06.965644 10372 net.cpp:454] inception_4e/pool_proj <- inception_4e/pool
I1126 10:23:06.965653 10372 net.cpp:411] inception_4e/pool_proj -> inception_4e/pool_proj
I1126 10:23:06.967468 10372 cudnn_conv_layer.cpp:194] Reallocating workspace storage: 10080
I1126 10:23:06.967517 10372 net.cpp:150] Setting up inception_4e/pool_proj
I1126 10:23:06.967526 10372 net.cpp:157] Top shape: 50 128 14 14 (1254400)
I1126 10:23:06.967531 10372 net.cpp:165] Memory required for data: 2613469416
I1126 10:23:06.967540 10372 layer_factory.hpp:76] Creating layer inception_4e/prelu_pool_proj
I1126 10:23:06.967586 10372 net.cpp:106] Creating Layer inception_4e/prelu_pool_proj
I1126 10:23:06.967593 10372 net.cpp:454] inception_4e/prelu_pool_proj <- inception_4e/pool_proj
I1126 10:23:06.967602 10372 net.cpp:397] inception_4e/prelu_pool_proj -> inception_4e/pool_proj (in-place)
I1126 10:23:06.967712 10372 net.cpp:150] Setting up inception_4e/prelu_pool_proj
I1126 10:23:06.967721 10372 net.cpp:157] Top shape: 50 128 14 14 (1254400)
I1126 10:23:06.967725 10372 net.cpp:165] Memory required for data: 2618487016
I1126 10:23:06.967730 10372 layer_factory.hpp:76] Creating layer inception_4e/output
I1126 10:23:06.967739 10372 net.cpp:106] Creating Layer inception_4e/output
I1126 10:23:06.967744 10372 net.cpp:454] inception_4e/output <- inception_4e/1x1
I1126 10:23:06.967751 10372 net.cpp:454] inception_4e/output <- inception_4e/3x3
I1126 10:23:06.967756 10372 net.cpp:454] inception_4e/output <- inception_4e/5x5
I1126 10:23:06.967761 10372 net.cpp:454] inception_4e/output <- inception_4e/pool_proj
I1126 10:23:06.967767 10372 net.cpp:411] inception_4e/output -> inception_4e/output
I1126 10:23:06.967793 10372 net.cpp:150] Setting up inception_4e/output
I1126 10:23:06.967802 10372 net.cpp:157] Top shape: 50 832 14 14 (8153600)
I1126 10:23:06.967805 10372 net.cpp:165] Memory required for data: 2651101416
I1126 10:23:06.967809 10372 layer_factory.hpp:76] Creating layer pool4/3x3_s2
I1126 10:23:06.967816 10372 net.cpp:106] Creating Layer pool4/3x3_s2
I1126 10:23:06.967820 10372 net.cpp:454] pool4/3x3_s2 <- inception_4e/output
I1126 10:23:06.967828 10372 net.cpp:411] pool4/3x3_s2 -> pool4/3x3_s2
I1126 10:23:06.968046 10372 net.cpp:150] Setting up pool4/3x3_s2
I1126 10:23:06.968056 10372 net.cpp:157] Top shape: 50 832 7 7 (2038400)
I1126 10:23:06.968061 10372 net.cpp:165] Memory required for data: 2659255016
I1126 10:23:06.968065 10372 layer_factory.hpp:76] Creating layer pool4/3x3_s2_pool4/3x3_s2_0_split
I1126 10:23:06.968075 10372 net.cpp:106] Creating Layer pool4/3x3_s2_pool4/3x3_s2_0_split
I1126 10:23:06.968080 10372 net.cpp:454] pool4/3x3_s2_pool4/3x3_s2_0_split <- pool4/3x3_s2
I1126 10:23:06.968086 10372 net.cpp:411] pool4/3x3_s2_pool4/3x3_s2_0_split -> pool4/3x3_s2_pool4/3x3_s2_0_split_0
I1126 10:23:06.968092 10372 net.cpp:411] pool4/3x3_s2_pool4/3x3_s2_0_split -> pool4/3x3_s2_pool4/3x3_s2_0_split_1
I1126 10:23:06.968099 10372 net.cpp:411] pool4/3x3_s2_pool4/3x3_s2_0_split -> pool4/3x3_s2_pool4/3x3_s2_0_split_2
I1126 10:23:06.968106 10372 net.cpp:411] pool4/3x3_s2_pool4/3x3_s2_0_split -> pool4/3x3_s2_pool4/3x3_s2_0_split_3
I1126 10:23:06.968163 10372 net.cpp:150] Setting up pool4/3x3_s2_pool4/3x3_s2_0_split
I1126 10:23:06.968170 10372 net.cpp:157] Top shape: 50 832 7 7 (2038400)
I1126 10:23:06.968175 10372 net.cpp:157] Top shape: 50 832 7 7 (2038400)
I1126 10:23:06.968180 10372 net.cpp:157] Top shape: 50 832 7 7 (2038400)
I1126 10:23:06.968184 10372 net.cpp:157] Top shape: 50 832 7 7 (2038400)
I1126 10:23:06.968189 10372 net.cpp:165] Memory required for data: 2691869416
I1126 10:23:06.968192 10372 layer_factory.hpp:76] Creating layer inception_5a/1x1
I1126 10:23:06.968202 10372 net.cpp:106] Creating Layer inception_5a/1x1
I1126 10:23:06.968207 10372 net.cpp:454] inception_5a/1x1 <- pool4/3x3_s2_pool4/3x3_s2_0_split_0
I1126 10:23:06.968215 10372 net.cpp:411] inception_5a/1x1 -> inception_5a/1x1
I1126 10:23:06.971494 10372 cudnn_conv_layer.cpp:194] Reallocating workspace storage: 7428
I1126 10:23:06.971560 10372 net.cpp:150] Setting up inception_5a/1x1
I1126 10:23:06.971572 10372 net.cpp:157] Top shape: 50 256 7 7 (627200)
I1126 10:23:06.971578 10372 net.cpp:165] Memory required for data: 2694378216
I1126 10:23:06.971588 10372 layer_factory.hpp:76] Creating layer inception_5a/prelu_1x1
I1126 10:23:06.971602 10372 net.cpp:106] Creating Layer inception_5a/prelu_1x1
I1126 10:23:06.971611 10372 net.cpp:454] inception_5a/prelu_1x1 <- inception_5a/1x1
I1126 10:23:06.971618 10372 net.cpp:397] inception_5a/prelu_1x1 -> inception_5a/1x1 (in-place)
I1126 10:23:06.971722 10372 net.cpp:150] Setting up inception_5a/prelu_1x1
I1126 10:23:06.971755 10372 net.cpp:157] Top shape: 50 256 7 7 (627200)
I1126 10:23:06.971760 10372 net.cpp:165] Memory required for data: 2696887016
I1126 10:23:06.971765 10372 layer_factory.hpp:76] Creating layer inception_5a/3x3_reduce
I1126 10:23:06.971778 10372 net.cpp:106] Creating Layer inception_5a/3x3_reduce
I1126 10:23:06.971783 10372 net.cpp:454] inception_5a/3x3_reduce <- pool4/3x3_s2_pool4/3x3_s2_0_split_1
I1126 10:23:06.971791 10372 net.cpp:411] inception_5a/3x3_reduce -> inception_5a/3x3_reduce
I1126 10:23:06.975374 10372 cudnn_conv_layer.cpp:194] Reallocating workspace storage: 7428
I1126 10:23:06.975440 10372 net.cpp:150] Setting up inception_5a/3x3_reduce
I1126 10:23:06.975450 10372 net.cpp:157] Top shape: 50 160 7 7 (392000)
I1126 10:23:06.975455 10372 net.cpp:165] Memory required for data: 2698455016
I1126 10:23:06.975464 10372 layer_factory.hpp:76] Creating layer inception_5a/prelu_3x3_reduce
I1126 10:23:06.975477 10372 net.cpp:106] Creating Layer inception_5a/prelu_3x3_reduce
I1126 10:23:06.975484 10372 net.cpp:454] inception_5a/prelu_3x3_reduce <- inception_5a/3x3_reduce
I1126 10:23:06.975492 10372 net.cpp:397] inception_5a/prelu_3x3_reduce -> inception_5a/3x3_reduce (in-place)
I1126 10:23:06.975589 10372 net.cpp:150] Setting up inception_5a/prelu_3x3_reduce
I1126 10:23:06.975597 10372 net.cpp:157] Top shape: 50 160 7 7 (392000)
I1126 10:23:06.975601 10372 net.cpp:165] Memory required for data: 2700023016
I1126 10:23:06.975607 10372 layer_factory.hpp:76] Creating layer inception_5a/3x3
I1126 10:23:06.975618 10372 net.cpp:106] Creating Layer inception_5a/3x3
I1126 10:23:06.975623 10372 net.cpp:454] inception_5a/3x3 <- inception_5a/3x3_reduce
I1126 10:23:06.975630 10372 net.cpp:411] inception_5a/3x3 -> inception_5a/3x3
I1126 10:23:06.980697 10372 cudnn_conv_layer.cpp:194] Reallocating workspace storage: 7788
I1126 10:23:06.980768 10372 net.cpp:150] Setting up inception_5a/3x3
I1126 10:23:06.980780 10372 net.cpp:157] Top shape: 50 320 7 7 (784000)
I1126 10:23:06.980785 10372 net.cpp:165] Memory required for data: 2703159016
I1126 10:23:06.980794 10372 layer_factory.hpp:76] Creating layer inception_5a/prelu_3x3
I1126 10:23:06.980808 10372 net.cpp:106] Creating Layer inception_5a/prelu_3x3
I1126 10:23:06.980814 10372 net.cpp:454] inception_5a/prelu_3x3 <- inception_5a/3x3
I1126 10:23:06.980823 10372 net.cpp:397] inception_5a/prelu_3x3 -> inception_5a/3x3 (in-place)
I1126 10:23:06.980943 10372 net.cpp:150] Setting up inception_5a/prelu_3x3
I1126 10:23:06.980952 10372 net.cpp:157] Top shape: 50 320 7 7 (784000)
I1126 10:23:06.980955 10372 net.cpp:165] Memory required for data: 2706295016
I1126 10:23:06.980960 10372 layer_factory.hpp:76] Creating layer inception_5a/5x5_reduce
I1126 10:23:06.980972 10372 net.cpp:106] Creating Layer inception_5a/5x5_reduce
I1126 10:23:06.980976 10372 net.cpp:454] inception_5a/5x5_reduce <- pool4/3x3_s2_pool4/3x3_s2_0_split_2
I1126 10:23:06.980984 10372 net.cpp:411] inception_5a/5x5_reduce -> inception_5a/5x5_reduce
I1126 10:23:06.982349 10372 cudnn_conv_layer.cpp:194] Reallocating workspace storage: 7428
I1126 10:23:06.982384 10372 net.cpp:150] Setting up inception_5a/5x5_reduce
I1126 10:23:06.982393 10372 net.cpp:157] Top shape: 50 32 7 7 (78400)
I1126 10:23:06.982396 10372 net.cpp:165] Memory required for data: 2706608616
I1126 10:23:06.982403 10372 layer_factory.hpp:76] Creating layer inception_5a/prelu_5x5_reduce
I1126 10:23:06.982410 10372 net.cpp:106] Creating Layer inception_5a/prelu_5x5_reduce
I1126 10:23:06.982415 10372 net.cpp:454] inception_5a/prelu_5x5_reduce <- inception_5a/5x5_reduce
I1126 10:23:06.982424 10372 net.cpp:397] inception_5a/prelu_5x5_reduce -> inception_5a/5x5_reduce (in-place)
I1126 10:23:06.982553 10372 net.cpp:150] Setting up inception_5a/prelu_5x5_reduce
I1126 10:23:06.982573 10372 net.cpp:157] Top shape: 50 32 7 7 (78400)
I1126 10:23:06.982576 10372 net.cpp:165] Memory required for data: 2706922216
I1126 10:23:06.982581 10372 layer_factory.hpp:76] Creating layer inception_5a/5x5
I1126 10:23:06.982612 10372 net.cpp:106] Creating Layer inception_5a/5x5
I1126 10:23:06.982617 10372 net.cpp:454] inception_5a/5x5 <- inception_5a/5x5_reduce
I1126 10:23:06.982625 10372 net.cpp:411] inception_5a/5x5 -> inception_5a/5x5
I1126 10:23:06.984297 10372 cudnn_conv_layer.cpp:194] Reallocating workspace storage: 9804
I1126 10:23:06.984336 10372 net.cpp:150] Setting up inception_5a/5x5
I1126 10:23:06.984345 10372 net.cpp:157] Top shape: 50 128 7 7 (313600)
I1126 10:23:06.984349 10372 net.cpp:165] Memory required for data: 2708176616
I1126 10:23:06.984357 10372 layer_factory.hpp:76] Creating layer inception_5a/prelu_5x5
I1126 10:23:06.984365 10372 net.cpp:106] Creating Layer inception_5a/prelu_5x5
I1126 10:23:06.984371 10372 net.cpp:454] inception_5a/prelu_5x5 <- inception_5a/5x5
I1126 10:23:06.984380 10372 net.cpp:397] inception_5a/prelu_5x5 -> inception_5a/5x5 (in-place)
I1126 10:23:06.984478 10372 net.cpp:150] Setting up inception_5a/prelu_5x5
I1126 10:23:06.984486 10372 net.cpp:157] Top shape: 50 128 7 7 (313600)
I1126 10:23:06.984490 10372 net.cpp:165] Memory required for data: 2709431016
I1126 10:23:06.984495 10372 layer_factory.hpp:76] Creating layer inception_5a/pool
I1126 10:23:06.984504 10372 net.cpp:106] Creating Layer inception_5a/pool
I1126 10:23:06.984509 10372 net.cpp:454] inception_5a/pool <- pool4/3x3_s2_pool4/3x3_s2_0_split_3
I1126 10:23:06.984515 10372 net.cpp:411] inception_5a/pool -> inception_5a/pool
I1126 10:23:06.984978 10372 net.cpp:150] Setting up inception_5a/pool
I1126 10:23:06.984993 10372 net.cpp:157] Top shape: 50 832 7 7 (2038400)
I1126 10:23:06.984998 10372 net.cpp:165] Memory required for data: 2717584616
I1126 10:23:06.985003 10372 layer_factory.hpp:76] Creating layer inception_5a/pool_proj
I1126 10:23:06.985013 10372 net.cpp:106] Creating Layer inception_5a/pool_proj
I1126 10:23:06.985019 10372 net.cpp:454] inception_5a/pool_proj <- inception_5a/pool
I1126 10:23:06.985026 10372 net.cpp:411] inception_5a/pool_proj -> inception_5a/pool_proj
I1126 10:23:06.988066 10372 cudnn_conv_layer.cpp:194] Reallocating workspace storage: 7428
I1126 10:23:06.988139 10372 net.cpp:150] Setting up inception_5a/pool_proj
I1126 10:23:06.988160 10372 net.cpp:157] Top shape: 50 128 7 7 (313600)
I1126 10:23:06.988169 10372 net.cpp:165] Memory required for data: 2718839016
I1126 10:23:06.988185 10372 layer_factory.hpp:76] Creating layer inception_5a/prelu_pool_proj
I1126 10:23:06.988204 10372 net.cpp:106] Creating Layer inception_5a/prelu_pool_proj
I1126 10:23:06.988217 10372 net.cpp:454] inception_5a/prelu_pool_proj <- inception_5a/pool_proj
I1126 10:23:06.988231 10372 net.cpp:397] inception_5a/prelu_pool_proj -> inception_5a/pool_proj (in-place)
I1126 10:23:06.988399 10372 net.cpp:150] Setting up inception_5a/prelu_pool_proj
I1126 10:23:06.988414 10372 net.cpp:157] Top shape: 50 128 7 7 (313600)
I1126 10:23:06.988421 10372 net.cpp:165] Memory required for data: 2720093416
I1126 10:23:06.988432 10372 layer_factory.hpp:76] Creating layer inception_5a/output
I1126 10:23:06.988445 10372 net.cpp:106] Creating Layer inception_5a/output
I1126 10:23:06.988456 10372 net.cpp:454] inception_5a/output <- inception_5a/1x1
I1126 10:23:06.988471 10372 net.cpp:454] inception_5a/output <- inception_5a/3x3
I1126 10:23:06.988481 10372 net.cpp:454] inception_5a/output <- inception_5a/5x5
I1126 10:23:06.988492 10372 net.cpp:454] inception_5a/output <- inception_5a/pool_proj
I1126 10:23:06.988503 10372 net.cpp:411] inception_5a/output -> inception_5a/output
I1126 10:23:06.988545 10372 net.cpp:150] Setting up inception_5a/output
I1126 10:23:06.988559 10372 net.cpp:157] Top shape: 50 832 7 7 (2038400)
I1126 10:23:06.988567 10372 net.cpp:165] Memory required for data: 2728247016
I1126 10:23:06.988575 10372 layer_factory.hpp:76] Creating layer inception_5a/output_inception_5a/output_0_split
I1126 10:23:06.988590 10372 net.cpp:106] Creating Layer inception_5a/output_inception_5a/output_0_split
I1126 10:23:06.988600 10372 net.cpp:454] inception_5a/output_inception_5a/output_0_split <- inception_5a/output
I1126 10:23:06.988608 10372 net.cpp:411] inception_5a/output_inception_5a/output_0_split -> inception_5a/output_inception_5a/output_0_split_0
I1126 10:23:06.988647 10372 net.cpp:411] inception_5a/output_inception_5a/output_0_split -> inception_5a/output_inception_5a/output_0_split_1
I1126 10:23:06.988661 10372 net.cpp:411] inception_5a/output_inception_5a/output_0_split -> inception_5a/output_inception_5a/output_0_split_2
I1126 10:23:06.988672 10372 net.cpp:411] inception_5a/output_inception_5a/output_0_split -> inception_5a/output_inception_5a/output_0_split_3
I1126 10:23:06.988775 10372 net.cpp:150] Setting up inception_5a/output_inception_5a/output_0_split
I1126 10:23:06.988790 10372 net.cpp:157] Top shape: 50 832 7 7 (2038400)
I1126 10:23:06.988800 10372 net.cpp:157] Top shape: 50 832 7 7 (2038400)
I1126 10:23:06.988809 10372 net.cpp:157] Top shape: 50 832 7 7 (2038400)
I1126 10:23:06.988819 10372 net.cpp:157] Top shape: 50 832 7 7 (2038400)
I1126 10:23:06.988827 10372 net.cpp:165] Memory required for data: 2760861416
I1126 10:23:06.988836 10372 layer_factory.hpp:76] Creating layer inception_5b/1x1
I1126 10:23:06.988852 10372 net.cpp:106] Creating Layer inception_5b/1x1
I1126 10:23:06.988862 10372 net.cpp:454] inception_5b/1x1 <- inception_5a/output_inception_5a/output_0_split_0
I1126 10:23:06.988875 10372 net.cpp:411] inception_5b/1x1 -> inception_5b/1x1
I1126 10:23:06.993813 10372 cudnn_conv_layer.cpp:194] Reallocating workspace storage: 7428
I1126 10:23:06.993893 10372 net.cpp:150] Setting up inception_5b/1x1
I1126 10:23:06.993907 10372 net.cpp:157] Top shape: 50 384 7 7 (940800)
I1126 10:23:06.993912 10372 net.cpp:165] Memory required for data: 2764624616
I1126 10:23:06.993923 10372 layer_factory.hpp:76] Creating layer inception_5b/prelu_1x1
I1126 10:23:06.993942 10372 net.cpp:106] Creating Layer inception_5b/prelu_1x1
I1126 10:23:06.993950 10372 net.cpp:454] inception_5b/prelu_1x1 <- inception_5b/1x1
I1126 10:23:06.993959 10372 net.cpp:397] inception_5b/prelu_1x1 -> inception_5b/1x1 (in-place)
I1126 10:23:06.994103 10372 net.cpp:150] Setting up inception_5b/prelu_1x1
I1126 10:23:06.994114 10372 net.cpp:157] Top shape: 50 384 7 7 (940800)
I1126 10:23:06.994119 10372 net.cpp:165] Memory required for data: 2768387816
I1126 10:23:06.994125 10372 layer_factory.hpp:76] Creating layer inception_5b/3x3_reduce
I1126 10:23:06.994139 10372 net.cpp:106] Creating Layer inception_5b/3x3_reduce
I1126 10:23:06.994146 10372 net.cpp:454] inception_5b/3x3_reduce <- inception_5a/output_inception_5a/output_0_split_1
I1126 10:23:06.994154 10372 net.cpp:411] inception_5b/3x3_reduce -> inception_5b/3x3_reduce
I1126 10:23:06.997493 10372 cudnn_conv_layer.cpp:194] Reallocating workspace storage: 7428
I1126 10:23:06.997562 10372 net.cpp:150] Setting up inception_5b/3x3_reduce
I1126 10:23:06.997575 10372 net.cpp:157] Top shape: 50 192 7 7 (470400)
I1126 10:23:06.997580 10372 net.cpp:165] Memory required for data: 2770269416
I1126 10:23:06.997589 10372 layer_factory.hpp:76] Creating layer inception_5b/prelu_3x3_reduce
I1126 10:23:06.997604 10372 net.cpp:106] Creating Layer inception_5b/prelu_3x3_reduce
I1126 10:23:06.997612 10372 net.cpp:454] inception_5b/prelu_3x3_reduce <- inception_5b/3x3_reduce
I1126 10:23:06.997624 10372 net.cpp:397] inception_5b/prelu_3x3_reduce -> inception_5b/3x3_reduce (in-place)
I1126 10:23:06.997741 10372 net.cpp:150] Setting up inception_5b/prelu_3x3_reduce
I1126 10:23:06.997752 10372 net.cpp:157] Top shape: 50 192 7 7 (470400)
I1126 10:23:06.997756 10372 net.cpp:165] Memory required for data: 2772151016
I1126 10:23:06.997762 10372 layer_factory.hpp:76] Creating layer inception_5b/3x3
I1126 10:23:06.997774 10372 net.cpp:106] Creating Layer inception_5b/3x3
I1126 10:23:06.997781 10372 net.cpp:454] inception_5b/3x3 <- inception_5b/3x3_reduce
I1126 10:23:06.997786 10372 net.cpp:411] inception_5b/3x3 -> inception_5b/3x3
I1126 10:23:07.004638 10372 cudnn_conv_layer.cpp:194] Reallocating workspace storage: 7788
I1126 10:23:07.004734 10372 net.cpp:150] Setting up inception_5b/3x3
I1126 10:23:07.004748 10372 net.cpp:157] Top shape: 50 384 7 7 (940800)
I1126 10:23:07.004779 10372 net.cpp:165] Memory required for data: 2775914216
I1126 10:23:07.004789 10372 layer_factory.hpp:76] Creating layer inception_5b/prelu_3x3
I1126 10:23:07.004806 10372 net.cpp:106] Creating Layer inception_5b/prelu_3x3
I1126 10:23:07.004813 10372 net.cpp:454] inception_5b/prelu_3x3 <- inception_5b/3x3
I1126 10:23:07.004822 10372 net.cpp:397] inception_5b/prelu_3x3 -> inception_5b/3x3 (in-place)
I1126 10:23:07.004951 10372 net.cpp:150] Setting up inception_5b/prelu_3x3
I1126 10:23:07.004959 10372 net.cpp:157] Top shape: 50 384 7 7 (940800)
I1126 10:23:07.004963 10372 net.cpp:165] Memory required for data: 2779677416
I1126 10:23:07.004969 10372 layer_factory.hpp:76] Creating layer inception_5b/5x5_reduce
I1126 10:23:07.004983 10372 net.cpp:106] Creating Layer inception_5b/5x5_reduce
I1126 10:23:07.004988 10372 net.cpp:454] inception_5b/5x5_reduce <- inception_5a/output_inception_5a/output_0_split_2
I1126 10:23:07.004997 10372 net.cpp:411] inception_5b/5x5_reduce -> inception_5b/5x5_reduce
I1126 10:23:07.006619 10372 cudnn_conv_layer.cpp:194] Reallocating workspace storage: 7428
I1126 10:23:07.006654 10372 net.cpp:150] Setting up inception_5b/5x5_reduce
I1126 10:23:07.006662 10372 net.cpp:157] Top shape: 50 48 7 7 (117600)
I1126 10:23:07.006666 10372 net.cpp:165] Memory required for data: 2780147816
I1126 10:23:07.006675 10372 layer_factory.hpp:76] Creating layer inception_5b/prelu_5x5_reduce
I1126 10:23:07.006683 10372 net.cpp:106] Creating Layer inception_5b/prelu_5x5_reduce
I1126 10:23:07.006690 10372 net.cpp:454] inception_5b/prelu_5x5_reduce <- inception_5b/5x5_reduce
I1126 10:23:07.006697 10372 net.cpp:397] inception_5b/prelu_5x5_reduce -> inception_5b/5x5_reduce (in-place)
I1126 10:23:07.006815 10372 net.cpp:150] Setting up inception_5b/prelu_5x5_reduce
I1126 10:23:07.006824 10372 net.cpp:157] Top shape: 50 48 7 7 (117600)
I1126 10:23:07.006829 10372 net.cpp:165] Memory required for data: 2780618216
I1126 10:23:07.006834 10372 layer_factory.hpp:76] Creating layer inception_5b/5x5
I1126 10:23:07.006844 10372 net.cpp:106] Creating Layer inception_5b/5x5
I1126 10:23:07.006850 10372 net.cpp:454] inception_5b/5x5 <- inception_5b/5x5_reduce
I1126 10:23:07.006855 10372 net.cpp:411] inception_5b/5x5 -> inception_5b/5x5
I1126 10:23:07.009094 10372 cudnn_conv_layer.cpp:194] Reallocating workspace storage: 9804
I1126 10:23:07.009140 10372 net.cpp:150] Setting up inception_5b/5x5
I1126 10:23:07.009150 10372 net.cpp:157] Top shape: 50 128 7 7 (313600)
I1126 10:23:07.009155 10372 net.cpp:165] Memory required for data: 2781872616
I1126 10:23:07.009165 10372 layer_factory.hpp:76] Creating layer inception_5b/prelu_5x5
I1126 10:23:07.009173 10372 net.cpp:106] Creating Layer inception_5b/prelu_5x5
I1126 10:23:07.009179 10372 net.cpp:454] inception_5b/prelu_5x5 <- inception_5b/5x5
I1126 10:23:07.009186 10372 net.cpp:397] inception_5b/prelu_5x5 -> inception_5b/5x5 (in-place)
I1126 10:23:07.009285 10372 net.cpp:150] Setting up inception_5b/prelu_5x5
I1126 10:23:07.009294 10372 net.cpp:157] Top shape: 50 128 7 7 (313600)
I1126 10:23:07.009297 10372 net.cpp:165] Memory required for data: 2783127016
I1126 10:23:07.009302 10372 layer_factory.hpp:76] Creating layer inception_5b/pool
I1126 10:23:07.009311 10372 net.cpp:106] Creating Layer inception_5b/pool
I1126 10:23:07.009316 10372 net.cpp:454] inception_5b/pool <- inception_5a/output_inception_5a/output_0_split_3
I1126 10:23:07.009322 10372 net.cpp:411] inception_5b/pool -> inception_5b/pool
I1126 10:23:07.009549 10372 net.cpp:150] Setting up inception_5b/pool
I1126 10:23:07.009558 10372 net.cpp:157] Top shape: 50 832 7 7 (2038400)
I1126 10:23:07.009562 10372 net.cpp:165] Memory required for data: 2791280616
I1126 10:23:07.009567 10372 layer_factory.hpp:76] Creating layer inception_5b/pool_proj
I1126 10:23:07.009577 10372 net.cpp:106] Creating Layer inception_5b/pool_proj
I1126 10:23:07.009582 10372 net.cpp:454] inception_5b/pool_proj <- inception_5b/pool
I1126 10:23:07.009588 10372 net.cpp:411] inception_5b/pool_proj -> inception_5b/pool_proj
I1126 10:23:07.012233 10372 cudnn_conv_layer.cpp:194] Reallocating workspace storage: 7428
I1126 10:23:07.012298 10372 net.cpp:150] Setting up inception_5b/pool_proj
I1126 10:23:07.012307 10372 net.cpp:157] Top shape: 50 128 7 7 (313600)
I1126 10:23:07.012312 10372 net.cpp:165] Memory required for data: 2792535016
I1126 10:23:07.012320 10372 layer_factory.hpp:76] Creating layer inception_5b/prelu_pool_proj
I1126 10:23:07.012331 10372 net.cpp:106] Creating Layer inception_5b/prelu_pool_proj
I1126 10:23:07.012336 10372 net.cpp:454] inception_5b/prelu_pool_proj <- inception_5b/pool_proj
I1126 10:23:07.012343 10372 net.cpp:397] inception_5b/prelu_pool_proj -> inception_5b/pool_proj (in-place)
I1126 10:23:07.012437 10372 net.cpp:150] Setting up inception_5b/prelu_pool_proj
I1126 10:23:07.012445 10372 net.cpp:157] Top shape: 50 128 7 7 (313600)
I1126 10:23:07.012449 10372 net.cpp:165] Memory required for data: 2793789416
I1126 10:23:07.012455 10372 layer_factory.hpp:76] Creating layer inception_5b/output
I1126 10:23:07.012462 10372 net.cpp:106] Creating Layer inception_5b/output
I1126 10:23:07.012466 10372 net.cpp:454] inception_5b/output <- inception_5b/1x1
I1126 10:23:07.012472 10372 net.cpp:454] inception_5b/output <- inception_5b/3x3
I1126 10:23:07.012476 10372 net.cpp:454] inception_5b/output <- inception_5b/5x5
I1126 10:23:07.012481 10372 net.cpp:454] inception_5b/output <- inception_5b/pool_proj
I1126 10:23:07.012487 10372 net.cpp:411] inception_5b/output -> inception_5b/output
I1126 10:23:07.012513 10372 net.cpp:150] Setting up inception_5b/output
I1126 10:23:07.012521 10372 net.cpp:157] Top shape: 50 1024 7 7 (2508800)
I1126 10:23:07.012526 10372 net.cpp:165] Memory required for data: 2803824616
I1126 10:23:07.012529 10372 layer_factory.hpp:76] Creating layer pool5/7x7_s1
I1126 10:23:07.012537 10372 net.cpp:106] Creating Layer pool5/7x7_s1
I1126 10:23:07.012542 10372 net.cpp:454] pool5/7x7_s1 <- inception_5b/output
I1126 10:23:07.012548 10372 net.cpp:411] pool5/7x7_s1 -> pool5/7x7_s1
I1126 10:23:07.012964 10372 net.cpp:150] Setting up pool5/7x7_s1
I1126 10:23:07.012974 10372 net.cpp:157] Top shape: 50 1024 1 1 (51200)
I1126 10:23:07.012979 10372 net.cpp:165] Memory required for data: 2804029416
I1126 10:23:07.012984 10372 layer_factory.hpp:76] Creating layer pool5/drop_7x7_s1
I1126 10:23:07.012991 10372 net.cpp:106] Creating Layer pool5/drop_7x7_s1
I1126 10:23:07.012996 10372 net.cpp:454] pool5/drop_7x7_s1 <- pool5/7x7_s1
I1126 10:23:07.013002 10372 net.cpp:397] pool5/drop_7x7_s1 -> pool5/7x7_s1 (in-place)
I1126 10:23:07.013028 10372 net.cpp:150] Setting up pool5/drop_7x7_s1
I1126 10:23:07.013036 10372 net.cpp:157] Top shape: 50 1024 1 1 (51200)
I1126 10:23:07.013039 10372 net.cpp:165] Memory required for data: 2804234216
I1126 10:23:07.013043 10372 layer_factory.hpp:76] Creating layer loss3/classifier2
I1126 10:23:07.013052 10372 net.cpp:106] Creating Layer loss3/classifier2
I1126 10:23:07.013056 10372 net.cpp:454] loss3/classifier2 <- pool5/7x7_s1
I1126 10:23:07.013063 10372 net.cpp:411] loss3/classifier2 -> loss3/classifier
I1126 10:23:07.013206 10372 net.cpp:150] Setting up loss3/classifier2
I1126 10:23:07.013213 10372 net.cpp:157] Top shape: 50 2 (100)
I1126 10:23:07.013217 10372 net.cpp:165] Memory required for data: 2804234616
I1126 10:23:07.013223 10372 layer_factory.hpp:76] Creating layer loss3/classifier_loss3/classifier2_0_split
I1126 10:23:07.013231 10372 net.cpp:106] Creating Layer loss3/classifier_loss3/classifier2_0_split
I1126 10:23:07.013236 10372 net.cpp:454] loss3/classifier_loss3/classifier2_0_split <- loss3/classifier
I1126 10:23:07.013242 10372 net.cpp:411] loss3/classifier_loss3/classifier2_0_split -> loss3/classifier_loss3/classifier2_0_split_0
I1126 10:23:07.013248 10372 net.cpp:411] loss3/classifier_loss3/classifier2_0_split -> loss3/classifier_loss3/classifier2_0_split_1
I1126 10:23:07.013288 10372 net.cpp:150] Setting up loss3/classifier_loss3/classifier2_0_split
I1126 10:23:07.013295 10372 net.cpp:157] Top shape: 50 2 (100)
I1126 10:23:07.013300 10372 net.cpp:157] Top shape: 50 2 (100)
I1126 10:23:07.013304 10372 net.cpp:165] Memory required for data: 2804235416
I1126 10:23:07.013317 10372 layer_factory.hpp:76] Creating layer loss3/loss3
I1126 10:23:07.013324 10372 net.cpp:106] Creating Layer loss3/loss3
I1126 10:23:07.013329 10372 net.cpp:454] loss3/loss3 <- loss3/classifier_loss3/classifier2_0_split_0
I1126 10:23:07.013334 10372 net.cpp:454] loss3/loss3 <- label_data_1_split_4
…
