…
I1126 10:28:57.363076 10394 net.cpp:322] The NetState phase (0) differed from the phase (1) specified by a rule in layer loss3/top-1
I1126 10:28:57.364130 10394 net.cpp:49] Initializing net from parameters: 
name: "GoogleNet"
state {
  phase: TRAIN
}
layer {
  name: "data"
  type: "Data"
  top: "data"
  top: "label"
  include {
    phase: TRAIN
  }
  transform_param {
    mirror: true
    crop_size: 224
    mean_value: 104
    mean_value: 117
    mean_value: 123
  }
  data_param {
    source: "../../LMDB-s300/train_6-lmdb"
    batch_size: 32
    backend: LMDB
  }
}
layer {
  name: "conv1/7x7_s2"
  type: "Convolution"
  bottom: "data"
  top: "conv1/7x7_s2"
  param {
    lr_mult: 1
    decay_mult: 1
  }
  param {
    lr_mult: 2
    decay_mult: 0
  }
  convolution_param {
    num_output: 64
    pad: 3
    kernel_size: 7
    stride: 2
    weight_filler {
      type: "xavier"
    }
    bias_filler {
      type: "constant"
      value: 0.2
    }
  }
}
layer {
  name: "conv1/prelu_7x7"
  type: "PReLU"
  bottom: "conv1/7x7_s2"
  top: "conv1/7x7_s2"
  param {
    lr_mult: 1
    decay_mult: 0
  }
  prelu_param {
    filler {
      type: "constant"
      value: 0.01
    }
  }
}
layer {
  name: "pool1/3x3_s2"
  type: "Pooling"
  bottom: "conv1/7x7_s2"
  top: "pool1/3x3_s2"
  pooling_param {
    pool: MAX
    kernel_size: 3
    stride: 2
  }
}
layer {
  name: "pool1/norm1"
  type: "LRN"
  bottom: "pool1/3x3_s2"
  top: "pool1/norm1"
  lrn_param {
    local_size: 5
    alpha: 0.0001
    beta: 0.75
  }
}
layer {
  name: "conv2/3x3_reduce"
  type: "Convolution"
  bottom: "pool1/norm1"
  top: "conv2/3x3_reduce"
  param {
    lr_mult: 1
    decay_mult: 1
  }
  param {
    lr_mult: 2
    decay_mult: 0
  }
  convolution_param {
    num_output: 64
    kernel_size: 1
    weight_filler {
      type: "xavier"
    }
    bias_filler {
      type: "constant"
      value: 0.2
    }
  }
}
layer {
  name: "conv2/prelu_3x3_reduce"
  type: "PReLU"
  bottom: "conv2/3x3_reduce"
  top: "conv2/3x3_reduce"
  param {
    lr_mult: 1
    decay_mult: 0
  }
  prelu_param {
    filler {
      type: "constant"
      value: 0.01
    }
  }
}
layer {
  name: "conv2/3x3"
  type: "Convolution"
  bottom: "conv2/3x3_reduce"
  top: "conv2/3x3"
  param {
    lr_mult: 1
    decay_mult: 1
  }
  param {
    lr_mult: 2
    decay_mult: 0
  }
  convolution_param {
    num_output: 192
    pad: 1
    kernel_size: 3
    weight_filler {
      type: "xavier"
    }
    bias_filler {
      type: "constant"
      value: 0.2
    }
  }
}
layer {
  name: "conv2/prelu_3x3"
  type: "PReLU"
  bottom: "conv2/3x3"
  top: "conv2/3x3"
  param {
    lr_mult: 1
    decay_mult: 0
  }
  prelu_param {
    filler {
      type: "constant"
      value: 0.01
    }
  }
}
layer {
  name: "conv2/norm2"
  type: "LRN"
  bottom: "conv2/3x3"
  top: "conv2/norm2"
  lrn_param {
    local_size: 5
    alpha: 0.0001
    beta: 0.75
  }
}
layer {
  name: "pool2/3x3_s2"
  type: "Pooling"
  bottom: "conv2/norm2"
  top: "pool2/3x3_s2"
  pooling_param {
    pool: MAX
    kernel_size: 3
    stride: 2
  }
}
layer {
  name: "inception_3a/1x1"
  type: "Convolution"
  bottom: "pool2/3x3_s2"
  top: "inception_3a/1x1"
  param {
    lr_mult: 1
    decay_mult: 1
  }
  param {
    lr_mult: 2
    decay_mult: 0
  }
  convolution_param {
    num_output: 64
    kernel_size: 1
    weight_filler {
      type: "xavier"
    }
    bias_filler {
      type: "constant"
      value: 0.2
    }
  }
}
layer {
  name: "inception_3a/prelu_1x1"
  type: "PReLU"
  bottom: "inception_3a/1x1"
  top: "inception_3a/1x1"
  param {
    lr_mult: 1
    decay_mult: 0
  }
  prelu_param {
    filler {
      type: "constant"
      value: 0.01
    }
  }
}
layer {
  name: "inception_3a/3x3_reduce"
  type: "Convolution"
  bottom: "pool2/3x3_s2"
  top: "inception_3a/3x3_reduce"
  param {
    lr_mult: 1
    decay_mult: 1
  }
  param {
    lr_mult: 2
    decay_mult: 0
  }
  convolution_param {
    num_output: 96
    kernel_size: 1
    weight_filler {
      type: "xavier"
    }
    bias_filler {
      type: "constant"
      value: 0.2
    }
  }
}
layer {
  name: "inception_3a/prelu_3x3_reduce"
  type: "PReLU"
  bottom: "inception_3a/3x3_reduce"
  top: "inception_3a/3x3_reduce"
  param {
    lr_mult: 1
    decay_mult: 0
  }
  prelu_param {
    filler {
      type: "constant"
      value: 0.01
    }
  }
}
layer {
  name: "inception_3a/3x3"
  type: "Convolution"
  bottom: "inception_3a/3x3_reduce"
  top: "inception_3a/3x3"
  param {
    lr_mult: 1
    decay_mult: 1
  }
  param {
    lr_mult: 2
    decay_mult: 0
  }
  convolution_param {
    num_output: 128
    pad: 1
    kernel_size: 3
    weight_filler {
      type: "xavier"
    }
    bias_filler {
      type: "constant"
      value: 0.2
    }
  }
}
layer {
  name: "inception_3a/prelu_3x3"
  type: "PReLU"
  bottom: "inception_3a/3x3"
  top: "inception_3a/3x3"
  param {
    lr_mult: 1
    decay_mult: 0
  }
  prelu_param {
    filler {
      type: "constant"
      value: 0.01
    }
  }
}
layer {
  name: "inception_3a/5x5_reduce"
  type: "Convolution"
  bottom: "pool2/3x3_s2"
  top: "inception_3a/5x5_reduce"
  param {
    lr_mult: 1
    decay_mult: 1
  }
  param {
    lr_mult: 2
    decay_mult: 0
  }
  convolution_param {
    num_output: 16
    kernel_size: 1
    weight_filler {
      type: "xavier"
    }
    bias_filler {
      type: "constant"
      value: 0.2
    }
  }
}
layer {
  name: "inception_3a/prelu_5x5_reduce"
  type: "PReLU"
  bottom: "inception_3a/5x5_reduce"
  top: "inception_3a/5x5_reduce"
  param {
    lr_mult: 1
    decay_mult: 0
  }
  prelu_param {
    filler {
      type: "constant"
      value: 0.01
    }
  }
}
layer {
  name: "inception_3a/5x5"
  type: "Convolution"
  bottom: "inception_3a/5x5_reduce"
  top: "inception_3a/5x5"
  param {
    lr_mult: 1
    decay_mult: 1
  }
  param {
    lr_mult: 2
    decay_mult: 0
  }
  convolution_param {
    num_output: 32
    pad: 2
    kernel_size: 5
    weight_filler {
      type: "xavier"
    }
    bias_filler {
      type: "constant"
      value: 0.2
    }
  }
}
layer {
  name: "inception_3a/prelu_5x5"
  type: "PReLU"
  bottom: "inception_3a/5x5"
  top: "inception_3a/5x5"
  param {
    lr_mult: 1
    decay_mult: 0
  }
  prelu_param {
    filler {
      type: "constant"
      value: 0.01
    }
  }
}
layer {
  name: "inception_3a/pool"
  type: "Pooling"
  bottom: "pool2/3x3_s2"
  top: "inception_3a/pool"
  pooling_param {
    pool: MAX
    kernel_size: 3
    stride: 1
    pad: 1
  }
}
layer {
  name: "inception_3a/pool_proj"
  type: "Convolution"
  bottom: "inception_3a/pool"
  top: "inception_3a/pool_proj"
  param {
    lr_mult: 1
    decay_mult: 1
  }
  param {
    lr_mult: 2
    decay_mult: 0
  }
  convolution_param {
    num_output: 32
    kernel_size: 1
    weight_filler {
      type: "xavier"
    }
    bias_filler {
      type: "constant"
      value: 0.2
    }
  }
}
layer {
  name: "inception_3a/prelu_pool_proj"
  type: "PReLU"
  bottom: "inception_3a/pool_proj"
  top: "inception_3a/pool_proj"
  param {
    lr_mult: 1
    decay_mult: 0
  }
  prelu_param {
    filler {
      type: "constant"
      value: 0.01
    }
  }
}
layer {
  name: "inception_3a/output"
  type: "Concat"
  bottom: "inception_3a/1x1"
  bottom: "inception_3a/3x3"
  bottom: "inception_3a/5x5"
  bottom: "inception_3a/pool_proj"
  top: "inception_3a/output"
}
layer {
  name: "inception_3b/1x1"
  type: "Convolution"
  bottom: "inception_3a/output"
  top: "inception_3b/1x1"
  param {
    lr_mult: 1
    decay_mult: 1
  }
  param {
    lr_mult: 2
    decay_mult: 0
  }
  convolution_param {
    num_output: 128
    kernel_size: 1
    weight_filler {
      type: "xavier"
    }
    bias_filler {
      type: "constant"
      value: 0.2
    }
  }
}
layer {
  name: "inception_3b/prelu_1x1"
  type: "PReLU"
  bottom: "inception_3b/1x1"
  top: "inception_3b/1x1"
  param {
    lr_mult: 1
    decay_mult: 0
  }
  prelu_param {
    filler {
      type: "constant"
      value: 0.01
    }
  }
}
layer {
  name: "inception_3b/3x3_reduce"
  type: "Convolution"
  bottom: "inception_3a/output"
  top: "inception_3b/3x3_reduce"
  param {
    lr_mult: 1
    decay_mult: 1
  }
  param {
    lr_mult: 2
    decay_mult: 0
  }
  convolution_param {
    num_output: 128
    kernel_size: 1
    weight_filler {
      type: "xavier"
    }
    bias_filler {
      type: "constant"
      value: 0.2
    }
  }
}
layer {
  name: "inception_3b/prelu_3x3_reduce"
  type: "PReLU"
  bottom: "inception_3b/3x3_reduce"
  top: "inception_3b/3x3_reduce"
  param {
    lr_mult: 1
    decay_mult: 0
  }
  prelu_param {
    filler {
      type: "constant"
      value: 0.01
    }
  }
}
layer {
  name: "inception_3b/3x3"
  type: "Convolution"
  bottom: "inception_3b/3x3_reduce"
  top: "inception_3b/3x3"
  param {
    lr_mult: 1
    decay_mult: 1
  }
  param {
    lr_mult: 2
    decay_mult: 0
  }
  convolution_param {
    num_output: 192
    pad: 1
    kernel_size: 3
    weight_filler {
      type: "xavier"
    }
    bias_filler {
      type: "constant"
      value: 0.2
    }
  }
}
layer {
  name: "inception_3b/prelu_3x3"
  type: "PReLU"
  bottom: "inception_3b/3x3"
  top: "inception_3b/3x3"
  param {
    lr_mult: 1
    decay_mult: 0
  }
  prelu_param {
    filler {
      type: "constant"
      value: 0.01
    }
  }
}
layer {
  name: "inception_3b/5x5_reduce"
  type: "Convolution"
  bottom: "inception_3a/output"
  top: "inception_3b/5x5_reduce"
  param {
    lr_mult: 1
    decay_mult: 1
  }
  param {
    lr_mult: 2
    decay_mult: 0
  }
  convolution_param {
    num_output: 32
    kernel_size: 1
    weight_filler {
      type: "xavier"
    }
    bias_filler {
      type: "constant"
      value: 0.2
    }
  }
}
layer {
  name: "inception_3b/prelu_5x5_reduce"
  type: "PReLU"
  bottom: "inception_3b/5x5_reduce"
  top: "inception_3b/5x5_reduce"
  param {
    lr_mult: 1
    decay_mult: 0
  }
  prelu_param {
    filler {
      type: "constant"
      value: 0.01
    }
  }
}
layer {
  name: "inception_3b/5x5"
  type: "Convolution"
  bottom: "inception_3b/5x5_reduce"
  top: "inception_3b/5x5"
  param {
    lr_mult: 1
    decay_mult: 1
  }
  param {
    lr_mult: 2
    decay_mult: 0
  }
  convolution_param {
    num_output: 96
    pad: 2
    kernel_size: 5
    weight_filler {
      type: "xavier"
    }
    bias_filler {
      type: "constant"
      value: 0.2
    }
  }
}
layer {
  name: "inception_3b/prelu_5x5"
  type: "PReLU"
  bottom: "inception_3b/5x5"
  top: "inception_3b/5x5"
  param {
    lr_mult: 1
    decay_mult: 0
  }
  prelu_param {
    filler {
      type: "constant"
      value: 0.01
    }
  }
}
layer {
  name: "inception_3b/pool"
  type: "Pooling"
  bottom: "inception_3a/output"
  top: "inception_3b/pool"
  pooling_param {
    pool: MAX
    kernel_size: 3
    stride: 1
    pad: 1
  }
}
layer {
  name: "inception_3b/pool_proj"
  type: "Convolution"
  bottom: "inception_3b/pool"
  top: "inception_3b/pool_proj"
  param {
    lr_mult: 1
    decay_mult: 1
  }
  param {
    lr_mult: 2
    decay_mult: 0
  }
  convolution_param {
    num_output: 64
    kernel_size: 1
    weight_filler {
      type: "xavier"
    }
    bias_filler {
      type: "constant"
      value: 0.2
    }
  }
}
layer {
  name: "inception_3b/prelu_pool_proj"
  type: "PReLU"
  bottom: "inception_3b/pool_proj"
  top: "inception_3b/pool_proj"
  param {
    lr_mult: 1
    decay_mult: 0
  }
  prelu_param {
    filler {
      type: "constant"
      value: 0.01
    }
  }
}
layer {
  name: "inception_3b/output"
  type: "Concat"
  bottom: "inception_3b/1x1"
  bottom: "inception_3b/3x3"
  bottom: "inception_3b/5x5"
  bottom: "inception_3b/pool_proj"
  top: "inception_3b/output"
}
layer {
  name: "pool3/3x3_s2"
  type: "Pooling"
  bottom: "inception_3b/output"
  top: "pool3/3x3_s2"
  pooling_param {
    pool: MAX
    kernel_size: 3
    stride: 2
  }
}
layer {
  name: "inception_4a/1x1"
  type: "Convolution"
  bottom: "pool3/3x3_s2"
  top: "inception_4a/1x1"
  param {
    lr_mult: 1
    decay_mult: 1
  }
  param {
    lr_mult: 2
    decay_mult: 0
  }
  convolution_param {
    num_output: 192
    kernel_size: 1
    weight_filler {
      type: "xavier"
    }
    bias_filler {
      type: "constant"
      value: 0.2
    }
  }
}
layer {
  name: "inception_4a/prelu_1x1"
  type: "PReLU"
  bottom: "inception_4a/1x1"
  top: "inception_4a/1x1"
  param {
    lr_mult: 1
    decay_mult: 0
  }
  prelu_param {
    filler {
      type: "constant"
      value: 0.01
    }
  }
}
layer {
  name: "inception_4a/3x3_reduce"
  type: "Convolution"
  bottom: "pool3/3x3_s2"
  top: "inception_4a/3x3_reduce"
  param {
    lr_mult: 1
    decay_mult: 1
  }
  param {
    lr_mult: 2
    decay_mult: 0
  }
  convolution_param {
    num_output: 96
    kernel_size: 1
    weight_filler {
      type: "xavier"
    }
    bias_filler {
      type: "constant"
      value: 0.2
    }
  }
}
layer {
  name: "inception_4a/prelu_3x3_reduce"
  type: "PReLU"
  bottom: "inception_4a/3x3_reduce"
  top: "inception_4a/3x3_reduce"
  param {
    lr_mult: 1
    decay_mult: 0
  }
  prelu_param {
    filler {
      type: "constant"
      value: 0.01
    }
  }
}
layer {
  name: "inception_4a/3x3"
  type: "Convolution"
  bottom: "inception_4a/3x3_reduce"
  top: "inception_4a/3x3"
  param {
    lr_mult: 1
    decay_mult: 1
  }
  param {
    lr_mult: 2
    decay_mult: 0
  }
  convolution_param {
    num_output: 208
    pad: 1
    kernel_size: 3
    weight_filler {
      type: "xavier"
    }
    bias_filler {
      type: "constant"
      value: 0.2
    }
  }
}
layer {
  name: "inception_4a/prelu_3x3"
  type: "PReLU"
  bottom: "inception_4a/3x3"
  top: "inception_4a/3x3"
  param {
    lr_mult: 1
    decay_mult: 0
  }
  prelu_param {
    filler {
      type: "constant"
      value: 0.01
    }
  }
}
layer {
  name: "inception_4a/5x5_reduce"
  type: "Convolution"
  bottom: "pool3/3x3_s2"
  top: "inception_4a/5x5_reduce"
  param {
    lr_mult: 1
    decay_mult: 1
  }
  param {
    lr_mult: 2
    decay_mult: 0
  }
  convolution_param {
    num_output: 16
    kernel_size: 1
    weight_filler {
      type: "xavier"
    }
    bias_filler {
      type: "constant"
      value: 0.2
    }
  }
}
layer {
  name: "inception_4a/prelu_5x5_reduce"
  type: "PReLU"
  bottom: "inception_4a/5x5_reduce"
  top: "inception_4a/5x5_reduce"
  param {
    lr_mult: 1
    decay_mult: 0
  }
  prelu_param {
    filler {
      type: "constant"
      value: 0.01
    }
  }
}
layer {
  name: "inception_4a/5x5"
  type: "Convolution"
  bottom: "inception_4a/5x5_reduce"
  top: "inception_4a/5x5"
  param {
    lr_mult: 1
    decay_mult: 1
  }
  param {
    lr_mult: 2
    decay_mult: 0
  }
  convolution_param {
    num_output: 48
    pad: 2
    kernel_size: 5
    weight_filler {
      type: "xavier"
    }
    bias_filler {
      type: "constant"
      value: 0.2
    }
  }
}
layer {
  name: "inception_4a/prelu_5x5"
  type: "PReLU"
  bottom: "inception_4a/5x5"
  top: "inception_4a/5x5"
  param {
    lr_mult: 1
    decay_mult: 0
  }
  prelu_param {
    filler {
      type: "constant"
      value: 0.01
    }
  }
}
layer {
  name: "inception_4a/pool"
  type: "Pooling"
  bottom: "pool3/3x3_s2"
  top: "inception_4a/pool"
  pooling_param {
    pool: MAX
    kernel_size: 3
    stride: 1
    pad: 1
  }
}
layer {
  name: "inception_4a/pool_proj"
  type: "Convolution"
  bottom: "inception_4a/pool"
  top: "inception_4a/pool_proj"
  param {
    lr_mult: 1
    decay_mult: 1
  }
  param {
    lr_mult: 2
    decay_mult: 0
  }
  convolution_param {
    num_output: 64
    kernel_size: 1
    weight_filler {
      type: "xavier"
    }
    bias_filler {
      type: "constant"
      value: 0.2
    }
  }
}
layer {
  name: "inception_4a/prelu_pool_proj"
  type: "PReLU"
  bottom: "inception_4a/pool_proj"
  top: "inception_4a/pool_proj"
  param {
    lr_mult: 1
    decay_mult: 0
  }
  prelu_param {
    filler {
      type: "constant"
      value: 0.01
    }
  }
}
layer {
  name: "inception_4a/output"
  type: "Concat"
  bottom: "inception_4a/1x1"
  bottom: "inception_4a/3x3"
  bottom: "inception_4a/5x5"
  bottom: "inception_4a/pool_proj"
  top: "inception_4a/output"
}
layer {
  name: "loss1/ave_pool"
  type: "Pooling"
  bottom: "inception_4a/output"
  top: "loss1/ave_pool"
  pooling_param {
    pool: AVE
    kernel_size: 5
    stride: 3
  }
}
layer {
  name: "loss1/conv"
  type: "Convolution"
  bottom: "loss1/ave_pool"
  top: "loss1/conv"
  param {
    lr_mult: 1
    decay_mult: 1
  }
  param {
    lr_mult: 2
    decay_mult: 0
  }
  convolution_param {
    num_output: 128
    kernel_size: 1
    weight_filler {
      type: "xavier"
    }
    bias_filler {
      type: "constant"
      value: 0.2
    }
  }
}
layer {
  name: "loss1/prelu_conv"
  type: "PReLU"
  bottom: "loss1/conv"
  top: "loss1/conv"
  param {
    lr_mult: 1
    decay_mult: 0
  }
  prelu_param {
    filler {
      type: "constant"
      value: 0.01
    }
  }
}
layer {
  name: "loss1/fc"
  type: "InnerProduct"
  bottom: "loss1/conv"
  top: "loss1/fc"
  param {
    lr_mult: 1
    decay_mult: 1
  }
  param {
    lr_mult: 2
    decay_mult: 0
  }
  inner_product_param {
    num_output: 1024
    weight_filler {
      type: "xavier"
    }
    bias_filler {
      type: "constant"
      value: 0.2
    }
  }
}
layer {
  name: "loss1/prelu_fc"
  type: "PReLU"
  bottom: "loss1/fc"
  top: "loss1/fc"
  param {
    lr_mult: 1
    decay_mult: 0
  }
  prelu_param {
    filler {
      type: "constant"
      value: 0.01
    }
  }
}
layer {
  name: "loss1/drop_fc"
  type: "Dropout"
  bottom: "loss1/fc"
  top: "loss1/fc"
  dropout_param {
    dropout_ratio: 0.7
  }
}
layer {
  name: "loss1/classifier2"
  type: "InnerProduct"
  bottom: "loss1/fc"
  top: "loss1/classifier"
  param {
    lr_mult: 1
    decay_mult: 1
  }
  param {
    lr_mult: 2
    decay_mult: 0
  }
  inner_product_param {
    num_output: 2
    weight_filler {
      type: "xavier"
    }
    bias_filler {
      type: "constant"
      value: 0
    }
  }
}
layer {
  name: "loss1/loss"
  type: "SoftmaxWithLoss"
  bottom: "loss1/classifier"
  bottom: "label"
  top: "loss1/loss1"
  loss_weight: 0.3
}
layer {
  name: "inception_4b/1x1"
  type: "Convolution"
  bottom: "inception_4a/output"
  top: "inception_4b/1x1"
  param {
    lr_mult: 1
    decay_mult: 1
  }
  param {
    lr_mult: 2
    decay_mult: 0
  }
  convolution_param {
    num_output: 160
    kernel_size: 1
    weight_filler {
      type: "xavier"
    }
    bias_filler {
      type: "constant"
      value: 0.2
    }
  }
}
layer {
  name: "inception_4b/prelu_1x1"
  type: "PReLU"
  bottom: "inception_4b/1x1"
  top: "inception_4b/1x1"
  param {
    lr_mult: 1
    decay_mult: 0
  }
  prelu_param {
    filler {
      type: "constant"
      value: 0.01
    }
  }
}
layer {
  name: "inception_4b/3x3_reduce"
  type: "Convolution"
  bottom: "inception_4a/output"
  top: "inception_4b/3x3_reduce"
  param {
    lr_mult: 1
    decay_mult: 1
  }
  param {
    lr_mult: 2
    decay_mult: 0
  }
  convolution_param {
    num_output: 112
    kernel_size: 1
    weight_filler {
      type: "xavier"
    }
    bias_filler {
      type: "constant"
      value: 0.2
    }
  }
}
layer {
  name: "inception_4b/prelu_3x3_reduce"
  type: "PReLU"
  bottom: "inception_4b/3x3_reduce"
  top: "inception_4b/3x3_reduce"
  param {
    lr_mult: 1
    decay_mult: 0
  }
  prelu_param {
    filler {
      type: "constant"
      value: 0.01
    }
  }
}
layer {
  name: "inception_4b/3x3"
  type: "Convolution"
  bottom: "inception_4b/3x3_reduce"
  top: "inception_4b/3x3"
  param {
    lr_mult: 1
    decay_mult: 1
  }
  param {
    lr_mult: 2
    decay_mult: 0
  }
  convolution_param {
    num_output: 224
    pad: 1
    kernel_size: 3
    weight_filler {
      type: "xavier"
    }
    bias_filler {
      type: "constant"
      value: 0.2
    }
  }
}
layer {
  name: "inception_4b/prelu_3x3"
  type: "PReLU"
  bottom: "inception_4b/3x3"
  top: "inception_4b/3x3"
  param {
    lr_mult: 1
    decay_mult: 0
  }
  prelu_param {
    filler {
      type: "constant"
      value: 0.01
    }
  }
}
layer {
  name: "inception_4b/5x5_reduce"
  type: "Convolution"
  bottom: "inception_4a/output"
  top: "inception_4b/5x5_reduce"
  param {
    lr_mult: 1
    decay_mult: 1
  }
  param {
    lr_mult: 2
    decay_mult: 0
  }
  convolution_param {
    num_output: 24
    kernel_size: 1
    weight_filler {
      type: "xavier"
    }
    bias_filler {
      type: "constant"
      value: 0.2
    }
  }
}
layer {
  name: "inception_4b/prelu_5x5_reduce"
  type: "PReLU"
  bottom: "inception_4b/5x5_reduce"
  top: "inception_4b/5x5_reduce"
  param {
    lr_mult: 1
    decay_mult: 0
  }
  prelu_param {
    filler {
      type: "constant"
      value: 0.01
    }
  }
}
layer {
  name: "inception_4b/5x5"
  type: "Convolution"
  bottom: "inception_4b/5x5_reduce"
  top: "inception_4b/5x5"
  param {
    lr_mult: 1
    decay_mult: 1
  }
  param {
    lr_mult: 2
    decay_mult: 0
  }
  convolution_param {
    num_output: 64
    pad: 2
    kernel_size: 5
    weight_filler {
      type: "xavier"
    }
    bias_filler {
      type: "constant"
      value: 0.2
    }
  }
}
layer {
  name: "inception_4b/prelu_5x5"
  type: "PReLU"
  bottom: "inception_4b/5x5"
  top: "inception_4b/5x5"
  param {
    lr_mult: 1
    decay_mult: 0
  }
  prelu_param {
    filler {
      type: "constant"
      value: 0.01
    }
  }
}
layer {
  name: "inception_4b/pool"
  type: "Pooling"
  bottom: "inception_4a/output"
  top: "inception_4b/pool"
  pooling_param {
    pool: MAX
    kernel_size: 3
    stride: 1
    pad: 1
  }
}
layer {
  name: "inception_4b/pool_proj"
  type: "Convolution"
  bottom: "inception_4b/pool"
  top: "inception_4b/pool_proj"
  param {
    lr_mult: 1
    decay_mult: 1
  }
  param {
    lr_mult: 2
    decay_mult: 0
  }
  convolution_param {
    num_output: 64
    kernel_size: 1
    weight_filler {
      type: "xavier"
    }
    bias_filler {
      type: "constant"
      value: 0.2
    }
  }
}
layer {
  name: "inception_4b/prelu_pool_proj"
  type: "PReLU"
  bottom: "inception_4b/pool_proj"
  top: "inception_4b/pool_proj"
  param {
    lr_mult: 1
    decay_mult: 0
  }
  prelu_param {
    filler {
      type: "constant"
      value: 0.01
    }
  }
}
layer {
  name: "inception_4b/output"
  type: "Concat"
  bottom: "inception_4b/1x1"
  bottom: "inception_4b/3x3"
  bottom: "inception_4b/5x5"
  bottom: "inception_4b/pool_proj"
  top: "inception_4b/output"
}
layer {
  name: "inception_4c/1x1"
  type: "Convolution"
  bottom: "inception_4b/output"
  top: "inception_4c/1x1"
  param {
    lr_mult: 1
    decay_mult: 1
  }
  param {
    lr_mult: 2
    decay_mult: 0
  }
  convolution_param {
    num_output: 128
    kernel_size: 1
    weight_filler {
      type: "xavier"
    }
    bias_filler {
      type: "constant"
      value: 0.2
    }
  }
}
layer {
  name: "inception_4c/prelu_1x1"
  type: "PReLU"
  bottom: "inception_4c/1x1"
  top: "inception_4c/1x1"
  param {
    lr_mult: 1
    decay_mult: 0
  }
  prelu_param {
    filler {
      type: "constant"
      value: 0.01
    }
  }
}
layer {
  name: "inception_4c/3x3_reduce"
  type: "Convolution"
  bottom: "inception_4b/output"
  top: "inception_4c/3x3_reduce"
  param {
    lr_mult: 1
    decay_mult: 1
  }
  param {
    lr_mult: 2
    decay_mult: 0
  }
  convolution_param {
    num_output: 128
    kernel_size: 1
    weight_filler {
      type: "xavier"
    }
    bias_filler {
      type: "constant"
      value: 0.2
    }
  }
}
layer {
  name: "inception_4c/prelu_3x3_reduce"
  type: "PReLU"
  bottom: "inception_4c/3x3_reduce"
  top: "inception_4c/3x3_reduce"
  param {
    lr_mult: 1
    decay_mult: 0
  }
  prelu_param {
    filler {
      type: "constant"
      value: 0.01
    }
  }
}
layer {
  name: "inception_4c/3x3"
  type: "Convolution"
  bottom: "inception_4c/3x3_reduce"
  top: "inception_4c/3x3"
  param {
    lr_mult: 1
    decay_mult: 1
  }
  param {
    lr_mult: 2
    decay_mult: 0
  }
  convolution_param {
    num_output: 256
    pad: 1
    kernel_size: 3
    weight_filler {
      type: "xavier"
    }
    bias_filler {
      type: "constant"
      value: 0.2
    }
  }
}
layer {
  name: "inception_4c/prelu_3x3"
  type: "PReLU"
  bottom: "inception_4c/3x3"
  top: "inception_4c/3x3"
  param {
    lr_mult: 1
    decay_mult: 0
  }
  prelu_param {
    filler {
      type: "constant"
      value: 0.01
    }
  }
}
layer {
  name: "inception_4c/5x5_reduce"
  type: "Convolution"
  bottom: "inception_4b/output"
  top: "inception_4c/5x5_reduce"
  param {
    lr_mult: 1
    decay_mult: 1
  }
  param {
    lr_mult: 2
    decay_mult: 0
  }
  convolution_param {
    num_output: 24
    kernel_size: 1
    weight_filler {
      type: "xavier"
    }
    bias_filler {
      type: "constant"
      value: 0.2
    }
  }
}
layer {
  name: "inception_4c/prelu_5x5_reduce"
  type: "PReLU"
  bottom: "inception_4c/5x5_reduce"
  top: "inception_4c/5x5_reduce"
  param {
    lr_mult: 1
    decay_mult: 0
  }
  prelu_param {
    filler {
      type: "constant"
      value: 0.01
    }
  }
}
layer {
  name: "inception_4c/5x5"
  type: "Convolution"
  bottom: "inception_4c/5x5_reduce"
  top: "inception_4c/5x5"
  param {
    lr_mult: 1
    decay_mult: 1
  }
  param {
    lr_mult: 2
    decay_mult: 0
  }
  convolution_param {
    num_output: 64
    pad: 2
    kernel_size: 5
    weight_filler {
      type: "xavier"
    }
    bias_filler {
      type: "constant"
      value: 0.2
    }
  }
}
layer {
  name: "inception_4c/prelu_5x5"
  type: "PReLU"
  bottom: "inception_4c/5x5"
  top: "inception_4c/5x5"
  param {
    lr_mult: 1
    decay_mult: 0
  }
  prelu_param {
    filler {
      type: "constant"
      value: 0.01
    }
  }
}
layer {
  name: "inception_4c/pool"
  type: "Pooling"
  bottom: "inception_4b/output"
  top: "inception_4c/pool"
  pooling_param {
    pool: MAX
    kernel_size: 3
    stride: 1
    pad: 1
  }
}
layer {
  name: "inception_4c/pool_proj"
  type: "Convolution"
  bottom: "inception_4c/pool"
  top: "inception_4c/pool_proj"
  param {
    lr_mult: 1
    decay_mult: 1
  }
  param {
    lr_mult: 2
    decay_mult: 0
  }
  convolution_param {
    num_output: 64
    kernel_size: 1
    weight_filler {
      type: "xavier"
    }
    bias_filler {
      type: "constant"
      value: 0.2
    }
  }
}
layer {
  name: "inception_4c/prelu_pool_proj"
  type: "PReLU"
  bottom: "inception_4c/pool_proj"
  top: "inception_4c/pool_proj"
  param {
    lr_mult: 1
    decay_mult: 0
  }
  prelu_param {
    filler {
      type: "constant"
      value: 0.01
    }
  }
}
layer {
  name: "inception_4c/output"
  type: "Concat"
  bottom: "inception_4c/1x1"
  bottom: "inception_4c/3x3"
  bottom: "inception_4c/5x5"
  bottom: "inception_4c/pool_proj"
  top: "inception_4c/output"
}
layer {
  name: "inception_4d/1x1"
  type: "Convolution"
  bottom: "inception_4c/output"
  top: "inception_4d/1x1"
  param {
    lr_mult: 1
    decay_mult: 1
  }
  param {
    lr_mult: 2
    decay_mult: 0
  }
  convolution_param {
    num_output: 112
    kernel_size: 1
    weight_filler {
      type: "xavier"
    }
    bias_filler {
      type: "constant"
      value: 0.2
    }
  }
}
layer {
  name: "inception_4d/prelu_1x1"
  type: "PReLU"
  bottom: "inception_4d/1x1"
  top: "inception_4d/1x1"
  param {
    lr_mult: 1
    decay_mult: 0
  }
  prelu_param {
    filler {
      type: "constant"
      value: 0.01
    }
  }
}
layer {
  name: "inception_4d/3x3_reduce"
  type: "Convolution"
  bottom: "inception_4c/output"
  top: "inception_4d/3x3_reduce"
  param {
    lr_mult: 1
    decay_mult: 1
  }
  param {
    lr_mult: 2
    decay_mult: 0
  }
  convolution_param {
    num_output: 144
    kernel_size: 1
    weight_filler {
      type: "xavier"
    }
    bias_filler {
      type: "constant"
      value: 0.2
    }
  }
}
layer {
  name: "inception_4d/prelu_3x3_reduce"
  type: "PReLU"
  bottom: "inception_4d/3x3_reduce"
  top: "inception_4d/3x3_reduce"
  param {
    lr_mult: 1
    decay_mult: 0
  }
  prelu_param {
    filler {
      type: "constant"
      value: 0.01
    }
  }
}
layer {
  name: "inception_4d/3x3"
  type: "Convolution"
  bottom: "inception_4d/3x3_reduce"
  top: "inception_4d/3x3"
  param {
    lr_mult: 1
    decay_mult: 1
  }
  param {
    lr_mult: 2
    decay_mult: 0
  }
  convolution_param {
    num_output: 288
    pad: 1
    kernel_size: 3
    weight_filler {
      type: "xavier"
    }
    bias_filler {
      type: "constant"
      value: 0.2
    }
  }
}
layer {
  name: "inception_4d/prelu_3x3"
  type: "PReLU"
  bottom: "inception_4d/3x3"
  top: "inception_4d/3x3"
  param {
    lr_mult: 1
    decay_mult: 0
  }
  prelu_param {
    filler {
      type: "constant"
      value: 0.01
    }
  }
}
layer {
  name: "inception_4d/5x5_reduce"
  type: "Convolution"
  bottom: "inception_4c/output"
  top: "inception_4d/5x5_reduce"
  param {
    lr_mult: 1
    decay_mult: 1
  }
  param {
    lr_mult: 2
    decay_mult: 0
  }
  convolution_param {
    num_output: 32
    kernel_size: 1
    weight_filler {
      type: "xavier"
    }
    bias_filler {
      type: "constant"
      value: 0.2
    }
  }
}
layer {
  name: "inception_4d/prelu_5x5_reduce"
  type: "PReLU"
  bottom: "inception_4d/5x5_reduce"
  top: "inception_4d/5x5_reduce"
  param {
    lr_mult: 1
    decay_mult: 0
  }
  prelu_param {
    filler {
      type: "constant"
      value: 0.01
    }
  }
}
layer {
  name: "inception_4d/5x5"
  type: "Convolution"
  bottom: "inception_4d/5x5_reduce"
  top: "inception_4d/5x5"
  param {
    lr_mult: 1
    decay_mult: 1
  }
  param {
    lr_mult: 2
    decay_mult: 0
  }
  convolution_param {
    num_output: 64
    pad: 2
    kernel_size: 5
    weight_filler {
      type: "xavier"
    }
    bias_filler {
      type: "constant"
      value: 0.2
    }
  }
}
layer {
  name: "inception_4d/prelu_5x5"
  type: "PReLU"
  bottom: "inception_4d/5x5"
  top: "inception_4d/5x5"
  param {
    lr_mult: 1
    decay_mult: 0
  }
  prelu_param {
    filler {
      type: "constant"
      value: 0.01
    }
  }
}
layer {
  name: "inception_4d/pool"
  type: "Pooling"
  bottom: "inception_4c/output"
  top: "inception_4d/pool"
  pooling_param {
    pool: MAX
    kernel_size: 3
    stride: 1
    pad: 1
  }
}
layer {
  name: "inception_4d/pool_proj"
  type: "Convolution"
  bottom: 
I1126 10:28:57.364827 10394 layer_factory.hpp:76] Creating layer data
I1126 10:28:57.365293 10394 net.cpp:106] Creating Layer data
I1126 10:28:57.365309 10394 net.cpp:411] data -> data
I1126 10:28:57.365371 10394 net.cpp:411] data -> label
I1126 10:28:57.394785 10398 db_lmdb.cpp:38] Opened lmdb ../../LMDB-s300/train_6-lmdb
I1126 10:28:57.419625 10394 data_layer.cpp:41] output data size: 32,3,224,224
I1126 10:28:57.486562 10394 net.cpp:150] Setting up data
I1126 10:28:57.486618 10394 net.cpp:157] Top shape: 32 3 224 224 (4816896)
I1126 10:28:57.486625 10394 net.cpp:157] Top shape: 32 (32)
I1126 10:28:57.486630 10394 net.cpp:165] Memory required for data: 19267712
I1126 10:28:57.486641 10394 layer_factory.hpp:76] Creating layer label_data_1_split
I1126 10:28:57.486665 10394 net.cpp:106] Creating Layer label_data_1_split
I1126 10:28:57.486672 10394 net.cpp:454] label_data_1_split <- label
I1126 10:28:57.486686 10394 net.cpp:411] label_data_1_split -> label_data_1_split_0
I1126 10:28:57.486698 10394 net.cpp:411] label_data_1_split -> label_data_1_split_1
I1126 10:28:57.486704 10394 net.cpp:411] label_data_1_split -> label_data_1_split_2
I1126 10:28:57.486765 10394 net.cpp:150] Setting up label_data_1_split
I1126 10:28:57.486773 10394 net.cpp:157] Top shape: 32 (32)
I1126 10:28:57.486778 10394 net.cpp:157] Top shape: 32 (32)
I1126 10:28:57.486783 10394 net.cpp:157] Top shape: 32 (32)
I1126 10:28:57.486786 10394 net.cpp:165] Memory required for data: 19268096
I1126 10:28:57.486790 10394 layer_factory.hpp:76] Creating layer conv1/7x7_s2
I1126 10:28:57.486809 10394 net.cpp:106] Creating Layer conv1/7x7_s2
I1126 10:28:57.486814 10394 net.cpp:454] conv1/7x7_s2 <- data
I1126 10:28:57.486819 10394 net.cpp:411] conv1/7x7_s2 -> conv1/7x7_s2
I1126 10:28:57.515712 10399 blocking_queue.cpp:50] Waiting for data
I1126 10:28:57.912485 10394 cudnn_conv_layer.cpp:194] Reallocating workspace storage: 225816
I1126 10:28:57.912760 10394 net.cpp:150] Setting up conv1/7x7_s2
I1126 10:28:57.912782 10394 net.cpp:157] Top shape: 32 64 112 112 (25690112)
I1126 10:28:57.912788 10394 net.cpp:165] Memory required for data: 122028544
I1126 10:28:57.912806 10394 layer_factory.hpp:76] Creating layer conv1/prelu_7x7
I1126 10:28:57.912822 10394 net.cpp:106] Creating Layer conv1/prelu_7x7
I1126 10:28:57.912828 10394 net.cpp:454] conv1/prelu_7x7 <- conv1/7x7_s2
I1126 10:28:57.912837 10394 net.cpp:397] conv1/prelu_7x7 -> conv1/7x7_s2 (in-place)
I1126 10:28:57.914600 10394 net.cpp:150] Setting up conv1/prelu_7x7
I1126 10:28:57.914620 10394 net.cpp:157] Top shape: 32 64 112 112 (25690112)
I1126 10:28:57.914625 10394 net.cpp:165] Memory required for data: 224788992
I1126 10:28:57.914635 10394 layer_factory.hpp:76] Creating layer pool1/3x3_s2
I1126 10:28:57.914649 10394 net.cpp:106] Creating Layer pool1/3x3_s2
I1126 10:28:57.914654 10394 net.cpp:454] pool1/3x3_s2 <- conv1/7x7_s2
I1126 10:28:57.914660 10394 net.cpp:411] pool1/3x3_s2 -> pool1/3x3_s2
I1126 10:28:57.915307 10394 net.cpp:150] Setting up pool1/3x3_s2
I1126 10:28:57.915321 10394 net.cpp:157] Top shape: 32 64 56 56 (6422528)
I1126 10:28:57.915343 10394 net.cpp:165] Memory required for data: 250479104
I1126 10:28:57.915349 10394 layer_factory.hpp:76] Creating layer pool1/norm1
I1126 10:28:57.915360 10394 net.cpp:106] Creating Layer pool1/norm1
I1126 10:28:57.915365 10394 net.cpp:454] pool1/norm1 <- pool1/3x3_s2
I1126 10:28:57.915372 10394 net.cpp:411] pool1/norm1 -> pool1/norm1
I1126 10:28:57.915531 10394 net.cpp:150] Setting up pool1/norm1
I1126 10:28:57.915540 10394 net.cpp:157] Top shape: 32 64 56 56 (6422528)
I1126 10:28:57.915544 10394 net.cpp:165] Memory required for data: 276169216
I1126 10:28:57.915549 10394 layer_factory.hpp:76] Creating layer conv2/3x3_reduce
I1126 10:28:57.915560 10394 net.cpp:106] Creating Layer conv2/3x3_reduce
I1126 10:28:57.915565 10394 net.cpp:454] conv2/3x3_reduce <- pool1/norm1
I1126 10:28:57.915570 10394 net.cpp:411] conv2/3x3_reduce -> conv2/3x3_reduce
I1126 10:28:57.917310 10394 cudnn_conv_layer.cpp:194] Reallocating workspace storage: 63000
I1126 10:28:57.917340 10394 net.cpp:150] Setting up conv2/3x3_reduce
I1126 10:28:57.917349 10394 net.cpp:157] Top shape: 32 64 56 56 (6422528)
I1126 10:28:57.917354 10394 net.cpp:165] Memory required for data: 301859328
I1126 10:28:57.917367 10394 layer_factory.hpp:76] Creating layer conv2/prelu_3x3_reduce
I1126 10:28:57.917377 10394 net.cpp:106] Creating Layer conv2/prelu_3x3_reduce
I1126 10:28:57.917383 10394 net.cpp:454] conv2/prelu_3x3_reduce <- conv2/3x3_reduce
I1126 10:28:57.917390 10394 net.cpp:397] conv2/prelu_3x3_reduce -> conv2/3x3_reduce (in-place)
I1126 10:28:57.918043 10394 net.cpp:150] Setting up conv2/prelu_3x3_reduce
I1126 10:28:57.918056 10394 net.cpp:157] Top shape: 32 64 56 56 (6422528)
I1126 10:28:57.918059 10394 net.cpp:165] Memory required for data: 327549440
I1126 10:28:57.918066 10394 layer_factory.hpp:76] Creating layer conv2/3x3
I1126 10:28:57.918078 10394 net.cpp:106] Creating Layer conv2/3x3
I1126 10:28:57.918084 10394 net.cpp:454] conv2/3x3 <- conv2/3x3_reduce
I1126 10:28:57.918092 10394 net.cpp:411] conv2/3x3 -> conv2/3x3
I1126 10:28:57.920218 10394 cudnn_conv_layer.cpp:194] Reallocating workspace storage: 63000
I1126 10:28:57.920250 10394 net.cpp:150] Setting up conv2/3x3
I1126 10:28:57.920261 10394 net.cpp:157] Top shape: 32 192 56 56 (19267584)
I1126 10:28:57.920265 10394 net.cpp:165] Memory required for data: 404619776
I1126 10:28:57.920274 10394 layer_factory.hpp:76] Creating layer conv2/prelu_3x3
I1126 10:28:57.920285 10394 net.cpp:106] Creating Layer conv2/prelu_3x3
I1126 10:28:57.920290 10394 net.cpp:454] conv2/prelu_3x3 <- conv2/3x3
I1126 10:28:57.920299 10394 net.cpp:397] conv2/prelu_3x3 -> conv2/3x3 (in-place)
I1126 10:28:57.921560 10394 net.cpp:150] Setting up conv2/prelu_3x3
I1126 10:28:57.921579 10394 net.cpp:157] Top shape: 32 192 56 56 (19267584)
I1126 10:28:57.921627 10394 net.cpp:165] Memory required for data: 481690112
I1126 10:28:57.921641 10394 layer_factory.hpp:76] Creating layer conv2/norm2
I1126 10:28:57.921659 10394 net.cpp:106] Creating Layer conv2/norm2
I1126 10:28:57.921669 10394 net.cpp:454] conv2/norm2 <- conv2/3x3
I1126 10:28:57.921681 10394 net.cpp:411] conv2/norm2 -> conv2/norm2
I1126 10:28:57.921942 10394 net.cpp:150] Setting up conv2/norm2
I1126 10:28:57.921953 10394 net.cpp:157] Top shape: 32 192 56 56 (19267584)
I1126 10:28:57.921957 10394 net.cpp:165] Memory required for data: 558760448
I1126 10:28:57.921962 10394 layer_factory.hpp:76] Creating layer pool2/3x3_s2
I1126 10:28:57.921969 10394 net.cpp:106] Creating Layer pool2/3x3_s2
I1126 10:28:57.921974 10394 net.cpp:454] pool2/3x3_s2 <- conv2/norm2
I1126 10:28:57.921980 10394 net.cpp:411] pool2/3x3_s2 -> pool2/3x3_s2
I1126 10:28:57.922344 10394 net.cpp:150] Setting up pool2/3x3_s2
I1126 10:28:57.922355 10394 net.cpp:157] Top shape: 32 192 28 28 (4816896)
I1126 10:28:57.922359 10394 net.cpp:165] Memory required for data: 578028032
I1126 10:28:57.922364 10394 layer_factory.hpp:76] Creating layer pool2/3x3_s2_pool2/3x3_s2_0_split
I1126 10:28:57.922371 10394 net.cpp:106] Creating Layer pool2/3x3_s2_pool2/3x3_s2_0_split
I1126 10:28:57.922376 10394 net.cpp:454] pool2/3x3_s2_pool2/3x3_s2_0_split <- pool2/3x3_s2
I1126 10:28:57.922382 10394 net.cpp:411] pool2/3x3_s2_pool2/3x3_s2_0_split -> pool2/3x3_s2_pool2/3x3_s2_0_split_0
I1126 10:28:57.922389 10394 net.cpp:411] pool2/3x3_s2_pool2/3x3_s2_0_split -> pool2/3x3_s2_pool2/3x3_s2_0_split_1
I1126 10:28:57.922396 10394 net.cpp:411] pool2/3x3_s2_pool2/3x3_s2_0_split -> pool2/3x3_s2_pool2/3x3_s2_0_split_2
I1126 10:28:57.922404 10394 net.cpp:411] pool2/3x3_s2_pool2/3x3_s2_0_split -> pool2/3x3_s2_pool2/3x3_s2_0_split_3
I1126 10:28:57.922449 10394 net.cpp:150] Setting up pool2/3x3_s2_pool2/3x3_s2_0_split
I1126 10:28:57.922456 10394 net.cpp:157] Top shape: 32 192 28 28 (4816896)
I1126 10:28:57.922462 10394 net.cpp:157] Top shape: 32 192 28 28 (4816896)
I1126 10:28:57.922467 10394 net.cpp:157] Top shape: 32 192 28 28 (4816896)
I1126 10:28:57.922472 10394 net.cpp:157] Top shape: 32 192 28 28 (4816896)
I1126 10:28:57.922477 10394 net.cpp:165] Memory required for data: 655098368
I1126 10:28:57.922480 10394 layer_factory.hpp:76] Creating layer inception_3a/1x1
I1126 10:28:57.922490 10394 net.cpp:106] Creating Layer inception_3a/1x1
I1126 10:28:57.922494 10394 net.cpp:454] inception_3a/1x1 <- pool2/3x3_s2_pool2/3x3_s2_0_split_0
I1126 10:28:57.922500 10394 net.cpp:411] inception_3a/1x1 -> inception_3a/1x1
I1126 10:28:57.924087 10394 cudnn_conv_layer.cpp:194] Reallocating workspace storage: 20664
I1126 10:28:57.924114 10394 net.cpp:150] Setting up inception_3a/1x1
I1126 10:28:57.924124 10394 net.cpp:157] Top shape: 32 64 28 28 (1605632)
I1126 10:28:57.924127 10394 net.cpp:165] Memory required for data: 661520896
I1126 10:28:57.924136 10394 layer_factory.hpp:76] Creating layer inception_3a/prelu_1x1
I1126 10:28:57.924146 10394 net.cpp:106] Creating Layer inception_3a/prelu_1x1
I1126 10:28:57.924151 10394 net.cpp:454] inception_3a/prelu_1x1 <- inception_3a/1x1
I1126 10:28:57.924159 10394 net.cpp:397] inception_3a/prelu_1x1 -> inception_3a/1x1 (in-place)
I1126 10:28:57.924737 10394 net.cpp:150] Setting up inception_3a/prelu_1x1
I1126 10:28:57.924751 10394 net.cpp:157] Top shape: 32 64 28 28 (1605632)
I1126 10:28:57.924756 10394 net.cpp:165] Memory required for data: 667943424
I1126 10:28:57.924762 10394 layer_factory.hpp:76] Creating layer inception_3a/3x3_reduce
I1126 10:28:57.924772 10394 net.cpp:106] Creating Layer inception_3a/3x3_reduce
I1126 10:28:57.924777 10394 net.cpp:454] inception_3a/3x3_reduce <- pool2/3x3_s2_pool2/3x3_s2_0_split_1
I1126 10:28:57.924793 10394 net.cpp:411] inception_3a/3x3_reduce -> inception_3a/3x3_reduce
I1126 10:28:57.925734 10394 cudnn_conv_layer.cpp:194] Reallocating workspace storage: 20664
I1126 10:28:57.925755 10394 net.cpp:150] Setting up inception_3a/3x3_reduce
I1126 10:28:57.925763 10394 net.cpp:157] Top shape: 32 96 28 28 (2408448)
I1126 10:28:57.925798 10394 net.cpp:165] Memory required for data: 677577216
I1126 10:28:57.925814 10394 layer_factory.hpp:76] Creating layer inception_3a/prelu_3x3_reduce
I1126 10:28:57.925828 10394 net.cpp:106] Creating Layer inception_3a/prelu_3x3_reduce
I1126 10:28:57.925833 10394 net.cpp:454] inception_3a/prelu_3x3_reduce <- inception_3a/3x3_reduce
I1126 10:28:57.925839 10394 net.cpp:397] inception_3a/prelu_3x3_reduce -> inception_3a/3x3_reduce (in-place)
I1126 10:28:57.925978 10394 net.cpp:150] Setting up inception_3a/prelu_3x3_reduce
I1126 10:28:57.925987 10394 net.cpp:157] Top shape: 32 96 28 28 (2408448)
I1126 10:28:57.925990 10394 net.cpp:165] Memory required for data: 687211008
I1126 10:28:57.925995 10394 layer_factory.hpp:76] Creating layer inception_3a/3x3
I1126 10:28:57.926005 10394 net.cpp:106] Creating Layer inception_3a/3x3
I1126 10:28:57.926010 10394 net.cpp:454] inception_3a/3x3 <- inception_3a/3x3_reduce
I1126 10:28:57.926018 10394 net.cpp:411] inception_3a/3x3 -> inception_3a/3x3
I1126 10:28:57.929232 10394 cudnn_conv_layer.cpp:194] Reallocating workspace storage: 20664
I1126 10:28:57.929294 10394 net.cpp:150] Setting up inception_3a/3x3
I1126 10:28:57.929308 10394 net.cpp:157] Top shape: 32 128 28 28 (3211264)
I1126 10:28:57.929313 10394 net.cpp:165] Memory required for data: 700056064
I1126 10:28:57.929337 10394 layer_factory.hpp:76] Creating layer inception_3a/prelu_3x3
I1126 10:28:57.929359 10394 net.cpp:106] Creating Layer inception_3a/prelu_3x3
I1126 10:28:57.929368 10394 net.cpp:454] inception_3a/prelu_3x3 <- inception_3a/3x3
I1126 10:28:57.929376 10394 net.cpp:397] inception_3a/prelu_3x3 -> inception_3a/3x3 (in-place)
I1126 10:28:57.929579 10394 net.cpp:150] Setting up inception_3a/prelu_3x3
I1126 10:28:57.929589 10394 net.cpp:157] Top shape: 32 128 28 28 (3211264)
I1126 10:28:57.929594 10394 net.cpp:165] Memory required for data: 712901120
I1126 10:28:57.929600 10394 layer_factory.hpp:76] Creating layer inception_3a/5x5_reduce
I1126 10:28:57.929615 10394 net.cpp:106] Creating Layer inception_3a/5x5_reduce
I1126 10:28:57.929620 10394 net.cpp:454] inception_3a/5x5_reduce <- pool2/3x3_s2_pool2/3x3_s2_0_split_2
I1126 10:28:57.929628 10394 net.cpp:411] inception_3a/5x5_reduce -> inception_3a/5x5_reduce
I1126 10:28:57.930973 10394 cudnn_conv_layer.cpp:194] Reallocating workspace storage: 20664
I1126 10:28:57.931002 10394 net.cpp:150] Setting up inception_3a/5x5_reduce
I1126 10:28:57.931011 10394 net.cpp:157] Top shape: 32 16 28 28 (401408)
I1126 10:28:57.931015 10394 net.cpp:165] Memory required for data: 714506752
I1126 10:28:57.931025 10394 layer_factory.hpp:76] Creating layer inception_3a/prelu_5x5_reduce
I1126 10:28:57.931036 10394 net.cpp:106] Creating Layer inception_3a/prelu_5x5_reduce
I1126 10:28:57.931042 10394 net.cpp:454] inception_3a/prelu_5x5_reduce <- inception_3a/5x5_reduce
I1126 10:28:57.931051 10394 net.cpp:397] inception_3a/prelu_5x5_reduce -> inception_3a/5x5_reduce (in-place)
I1126 10:28:57.931143 10394 net.cpp:150] Setting up inception_3a/prelu_5x5_reduce
I1126 10:28:57.931150 10394 net.cpp:157] Top shape: 32 16 28 28 (401408)
I1126 10:28:57.931154 10394 net.cpp:165] Memory required for data: 716112384
I1126 10:28:57.931160 10394 layer_factory.hpp:76] Creating layer inception_3a/5x5
I1126 10:28:57.931170 10394 net.cpp:106] Creating Layer inception_3a/5x5
I1126 10:28:57.931175 10394 net.cpp:454] inception_3a/5x5 <- inception_3a/5x5_reduce
I1126 10:28:57.931181 10394 net.cpp:411] inception_3a/5x5 -> inception_3a/5x5
I1126 10:28:57.932469 10394 cudnn_conv_layer.cpp:194] Reallocating workspace storage: 20664
I1126 10:28:57.932494 10394 net.cpp:150] Setting up inception_3a/5x5
I1126 10:28:57.932503 10394 net.cpp:157] Top shape: 32 32 28 28 (802816)
I1126 10:28:57.932508 10394 net.cpp:165] Memory required for data: 719323648
I1126 10:28:57.932518 10394 layer_factory.hpp:76] Creating layer inception_3a/prelu_5x5
I1126 10:28:57.932528 10394 net.cpp:106] Creating Layer inception_3a/prelu_5x5
I1126 10:28:57.932533 10394 net.cpp:454] inception_3a/prelu_5x5 <- inception_3a/5x5
I1126 10:28:57.932543 10394 net.cpp:397] inception_3a/prelu_5x5 -> inception_3a/5x5 (in-place)
I1126 10:28:57.932672 10394 net.cpp:150] Setting up inception_3a/prelu_5x5
I1126 10:28:57.932682 10394 net.cpp:157] Top shape: 32 32 28 28 (802816)
I1126 10:28:57.932685 10394 net.cpp:165] Memory required for data: 722534912
I1126 10:28:57.932692 10394 layer_factory.hpp:76] Creating layer inception_3a/pool
I1126 10:28:57.932700 10394 net.cpp:106] Creating Layer inception_3a/pool
I1126 10:28:57.932704 10394 net.cpp:454] inception_3a/pool <- pool2/3x3_s2_pool2/3x3_s2_0_split_3
I1126 10:28:57.932734 10394 net.cpp:411] inception_3a/pool -> inception_3a/pool
I1126 10:28:57.932926 10394 net.cpp:150] Setting up inception_3a/pool
I1126 10:28:57.932935 10394 net.cpp:157] Top shape: 32 192 28 28 (4816896)
I1126 10:28:57.932940 10394 net.cpp:165] Memory required for data: 741802496
I1126 10:28:57.932943 10394 layer_factory.hpp:76] Creating layer inception_3a/pool_proj
I1126 10:28:57.932951 10394 net.cpp:106] Creating Layer inception_3a/pool_proj
I1126 10:28:57.932955 10394 net.cpp:454] inception_3a/pool_proj <- inception_3a/pool
I1126 10:28:57.932963 10394 net.cpp:411] inception_3a/pool_proj -> inception_3a/pool_proj
I1126 10:28:57.933981 10394 cudnn_conv_layer.cpp:194] Reallocating workspace storage: 20664
I1126 10:28:57.934000 10394 net.cpp:150] Setting up inception_3a/pool_proj
I1126 10:28:57.934007 10394 net.cpp:157] Top shape: 32 32 28 28 (802816)
I1126 10:28:57.934011 10394 net.cpp:165] Memory required for data: 745013760
I1126 10:28:57.934018 10394 layer_factory.hpp:76] Creating layer inception_3a/prelu_pool_proj
I1126 10:28:57.934028 10394 net.cpp:106] Creating Layer inception_3a/prelu_pool_proj
I1126 10:28:57.934033 10394 net.cpp:454] inception_3a/prelu_pool_proj <- inception_3a/pool_proj
I1126 10:28:57.934041 10394 net.cpp:397] inception_3a/prelu_pool_proj -> inception_3a/pool_proj (in-place)
I1126 10:28:57.934137 10394 net.cpp:150] Setting up inception_3a/prelu_pool_proj
I1126 10:28:57.934145 10394 net.cpp:157] Top shape: 32 32 28 28 (802816)
I1126 10:28:57.934149 10394 net.cpp:165] Memory required for data: 748225024
I1126 10:28:57.934154 10394 layer_factory.hpp:76] Creating layer inception_3a/output
I1126 10:28:57.934165 10394 net.cpp:106] Creating Layer inception_3a/output
I1126 10:28:57.934170 10394 net.cpp:454] inception_3a/output <- inception_3a/1x1
I1126 10:28:57.934175 10394 net.cpp:454] inception_3a/output <- inception_3a/3x3
I1126 10:28:57.934180 10394 net.cpp:454] inception_3a/output <- inception_3a/5x5
I1126 10:28:57.934185 10394 net.cpp:454] inception_3a/output <- inception_3a/pool_proj
I1126 10:28:57.934190 10394 net.cpp:411] inception_3a/output -> inception_3a/output
I1126 10:28:57.934216 10394 net.cpp:150] Setting up inception_3a/output
I1126 10:28:57.934226 10394 net.cpp:157] Top shape: 32 256 28 28 (6422528)
I1126 10:28:57.934228 10394 net.cpp:165] Memory required for data: 773915136
I1126 10:28:57.934232 10394 layer_factory.hpp:76] Creating layer inception_3a/output_inception_3a/output_0_split
I1126 10:28:57.934239 10394 net.cpp:106] Creating Layer inception_3a/output_inception_3a/output_0_split
I1126 10:28:57.934243 10394 net.cpp:454] inception_3a/output_inception_3a/output_0_split <- inception_3a/output
I1126 10:28:57.934249 10394 net.cpp:411] inception_3a/output_inception_3a/output_0_split -> inception_3a/output_inception_3a/output_0_split_0
I1126 10:28:57.934257 10394 net.cpp:411] inception_3a/output_inception_3a/output_0_split -> inception_3a/output_inception_3a/output_0_split_1
I1126 10:28:57.934265 10394 net.cpp:411] inception_3a/output_inception_3a/output_0_split -> inception_3a/output_inception_3a/output_0_split_2
I1126 10:28:57.934273 10394 net.cpp:411] inception_3a/output_inception_3a/output_0_split -> inception_3a/output_inception_3a/output_0_split_3
I1126 10:28:57.934324 10394 net.cpp:150] Setting up inception_3a/output_inception_3a/output_0_split
I1126 10:28:57.934330 10394 net.cpp:157] Top shape: 32 256 28 28 (6422528)
I1126 10:28:57.934335 10394 net.cpp:157] Top shape: 32 256 28 28 (6422528)
I1126 10:28:57.934340 10394 net.cpp:157] Top shape: 32 256 28 28 (6422528)
I1126 10:28:57.934360 10394 net.cpp:157] Top shape: 32 256 28 28 (6422528)
I1126 10:28:57.934365 10394 net.cpp:165] Memory required for data: 876675584
I1126 10:28:57.934370 10394 layer_factory.hpp:76] Creating layer inception_3b/1x1
I1126 10:28:57.934378 10394 net.cpp:106] Creating Layer inception_3b/1x1
I1126 10:28:57.934382 10394 net.cpp:454] inception_3b/1x1 <- inception_3a/output_inception_3a/output_0_split_0
I1126 10:28:57.934389 10394 net.cpp:411] inception_3b/1x1 -> inception_3b/1x1
I1126 10:28:57.935580 10394 cudnn_conv_layer.cpp:194] Reallocating workspace storage: 20664
I1126 10:28:57.935597 10394 net.cpp:150] Setting up inception_3b/1x1
I1126 10:28:57.935606 10394 net.cpp:157] Top shape: 32 128 28 28 (3211264)
I1126 10:28:57.935609 10394 net.cpp:165] Memory required for data: 889520640
I1126 10:28:57.935616 10394 layer_factory.hpp:76] Creating layer inception_3b/prelu_1x1
I1126 10:28:57.935626 10394 net.cpp:106] Creating Layer inception_3b/prelu_1x1
I1126 10:28:57.935631 10394 net.cpp:454] inception_3b/prelu_1x1 <- inception_3b/1x1
I1126 10:28:57.935636 10394 net.cpp:397] inception_3b/prelu_1x1 -> inception_3b/1x1 (in-place)
I1126 10:28:57.936277 10394 net.cpp:150] Setting up inception_3b/prelu_1x1
I1126 10:28:57.936288 10394 net.cpp:157] Top shape: 32 128 28 28 (3211264)
I1126 10:28:57.936292 10394 net.cpp:165] Memory required for data: 902365696
I1126 10:28:57.936298 10394 layer_factory.hpp:76] Creating layer inception_3b/3x3_reduce
I1126 10:28:57.936307 10394 net.cpp:106] Creating Layer inception_3b/3x3_reduce
I1126 10:28:57.936312 10394 net.cpp:454] inception_3b/3x3_reduce <- inception_3a/output_inception_3a/output_0_split_1
I1126 10:28:57.936321 10394 net.cpp:411] inception_3b/3x3_reduce -> inception_3b/3x3_reduce
I1126 10:28:57.937499 10394 cudnn_conv_layer.cpp:194] Reallocating workspace storage: 20664
I1126 10:28:57.937515 10394 net.cpp:150] Setting up inception_3b/3x3_reduce
I1126 10:28:57.937521 10394 net.cpp:157] Top shape: 32 128 28 28 (3211264)
I1126 10:28:57.937525 10394 net.cpp:165] Memory required for data: 915210752
I1126 10:28:57.937532 10394 layer_factory.hpp:76] Creating layer inception_3b/prelu_3x3_reduce
I1126 10:28:57.937542 10394 net.cpp:106] Creating Layer inception_3b/prelu_3x3_reduce
I1126 10:28:57.937547 10394 net.cpp:454] inception_3b/prelu_3x3_reduce <- inception_3b/3x3_reduce
I1126 10:28:57.937556 10394 net.cpp:397] inception_3b/prelu_3x3_reduce -> inception_3b/3x3_reduce (in-place)
I1126 10:28:57.937696 10394 net.cpp:150] Setting up inception_3b/prelu_3x3_reduce
I1126 10:28:57.937705 10394 net.cpp:157] Top shape: 32 128 28 28 (3211264)
I1126 10:28:57.937708 10394 net.cpp:165] Memory required for data: 928055808
I1126 10:28:57.937721 10394 layer_factory.hpp:76] Creating layer inception_3b/3x3
I1126 10:28:57.937733 10394 net.cpp:106] Creating Layer inception_3b/3x3
I1126 10:28:57.937738 10394 net.cpp:454] inception_3b/3x3 <- inception_3b/3x3_reduce
I1126 10:28:57.937747 10394 net.cpp:411] inception_3b/3x3 -> inception_3b/3x3
I1126 10:28:57.940709 10394 cudnn_conv_layer.cpp:194] Reallocating workspace storage: 20664
I1126 10:28:57.940768 10394 net.cpp:150] Setting up inception_3b/3x3
I1126 10:28:57.940778 10394 net.cpp:157] Top shape: 32 192 28 28 (4816896)
I1126 10:28:57.940781 10394 net.cpp:165] Memory required for data: 947323392
I1126 10:28:57.940790 10394 layer_factory.hpp:76] Creating layer inception_3b/prelu_3x3
I1126 10:28:57.940814 10394 net.cpp:106] Creating Layer inception_3b/prelu_3x3
I1126 10:28:57.940819 10394 net.cpp:454] inception_3b/prelu_3x3 <- inception_3b/3x3
I1126 10:28:57.940826 10394 net.cpp:397] inception_3b/prelu_3x3 -> inception_3b/3x3 (in-place)
I1126 10:28:57.941511 10394 net.cpp:150] Setting up inception_3b/prelu_3x3
I1126 10:28:57.941526 10394 net.cpp:157] Top shape: 32 192 28 28 (4816896)
I1126 10:28:57.941530 10394 net.cpp:165] Memory required for data: 966590976
I1126 10:28:57.941536 10394 layer_factory.hpp:76] Creating layer inception_3b/5x5_reduce
I1126 10:28:57.941548 10394 net.cpp:106] Creating Layer inception_3b/5x5_reduce
I1126 10:28:57.941576 10394 net.cpp:454] inception_3b/5x5_reduce <- inception_3a/output_inception_3a/output_0_split_2
I1126 10:28:57.941586 10394 net.cpp:411] inception_3b/5x5_reduce -> inception_3b/5x5_reduce
I1126 10:28:57.942471 10394 cudnn_conv_layer.cpp:194] Reallocating workspace storage: 20664
I1126 10:28:57.942489 10394 net.cpp:150] Setting up inception_3b/5x5_reduce
I1126 10:28:57.942497 10394 net.cpp:157] Top shape: 32 32 28 28 (802816)
I1126 10:28:57.942502 10394 net.cpp:165] Memory required for data: 969802240
I1126 10:28:57.942508 10394 layer_factory.hpp:76] Creating layer inception_3b/prelu_5x5_reduce
I1126 10:28:57.942517 10394 net.cpp:106] Creating Layer inception_3b/prelu_5x5_reduce
I1126 10:28:57.942523 10394 net.cpp:454] inception_3b/prelu_5x5_reduce <- inception_3b/5x5_reduce
I1126 10:28:57.942529 10394 net.cpp:397] inception_3b/prelu_5x5_reduce -> inception_3b/5x5_reduce (in-place)
I1126 10:28:57.942632 10394 net.cpp:150] Setting up inception_3b/prelu_5x5_reduce
I1126 10:28:57.942641 10394 net.cpp:157] Top shape: 32 32 28 28 (802816)
I1126 10:28:57.942644 10394 net.cpp:165] Memory required for data: 973013504
I1126 10:28:57.942649 10394 layer_factory.hpp:76] Creating layer inception_3b/5x5
I1126 10:28:57.942659 10394 net.cpp:106] Creating Layer inception_3b/5x5
I1126 10:28:57.942664 10394 net.cpp:454] inception_3b/5x5 <- inception_3b/5x5_reduce
I1126 10:28:57.942672 10394 net.cpp:411] inception_3b/5x5 -> inception_3b/5x5
I1126 10:28:57.944113 10394 cudnn_conv_layer.cpp:194] Reallocating workspace storage: 20664
I1126 10:28:57.944130 10394 net.cpp:150] Setting up inception_3b/5x5
I1126 10:28:57.944139 10394 net.cpp:157] Top shape: 32 96 28 28 (2408448)
I1126 10:28:57.944142 10394 net.cpp:165] Memory required for data: 982647296
I1126 10:28:57.944150 10394 layer_factory.hpp:76] Creating layer inception_3b/prelu_5x5
I1126 10:28:57.944159 10394 net.cpp:106] Creating Layer inception_3b/prelu_5x5
I1126 10:28:57.944164 10394 net.cpp:454] inception_3b/prelu_5x5 <- inception_3b/5x5
I1126 10:28:57.944171 10394 net.cpp:397] inception_3b/prelu_5x5 -> inception_3b/5x5 (in-place)
I1126 10:28:57.944314 10394 net.cpp:150] Setting up inception_3b/prelu_5x5
I1126 10:28:57.944322 10394 net.cpp:157] Top shape: 32 96 28 28 (2408448)
I1126 10:28:57.944326 10394 net.cpp:165] Memory required for data: 992281088
I1126 10:28:57.944332 10394 layer_factory.hpp:76] Creating layer inception_3b/pool
I1126 10:28:57.944342 10394 net.cpp:106] Creating Layer inception_3b/pool
I1126 10:28:57.944347 10394 net.cpp:454] inception_3b/pool <- inception_3a/output_inception_3a/output_0_split_3
I1126 10:28:57.944353 10394 net.cpp:411] inception_3b/pool -> inception_3b/pool
I1126 10:28:57.944746 10394 net.cpp:150] Setting up inception_3b/pool
I1126 10:28:57.944769 10394 net.cpp:157] Top shape: 32 256 28 28 (6422528)
I1126 10:28:57.944773 10394 net.cpp:165] Memory required for data: 1017971200
I1126 10:28:57.944778 10394 layer_factory.hpp:76] Creating layer inception_3b/pool_proj
I1126 10:28:57.944787 10394 net.cpp:106] Creating Layer inception_3b/pool_proj
I1126 10:28:57.944792 10394 net.cpp:454] inception_3b/pool_proj <- inception_3b/pool
I1126 10:28:57.944799 10394 net.cpp:411] inception_3b/pool_proj -> inception_3b/pool_proj
I1126 10:28:57.945894 10394 cudnn_conv_layer.cpp:194] Reallocating workspace storage: 20664
I1126 10:28:57.945912 10394 net.cpp:150] Setting up inception_3b/pool_proj
I1126 10:28:57.945920 10394 net.cpp:157] Top shape: 32 64 28 28 (1605632)
I1126 10:28:57.945925 10394 net.cpp:165] Memory required for data: 1024393728
I1126 10:28:57.945932 10394 layer_factory.hpp:76] Creating layer inception_3b/prelu_pool_proj
I1126 10:28:57.945943 10394 net.cpp:106] Creating Layer inception_3b/prelu_pool_proj
I1126 10:28:57.945948 10394 net.cpp:454] inception_3b/prelu_pool_proj <- inception_3b/pool_proj
I1126 10:28:57.945956 10394 net.cpp:397] inception_3b/prelu_pool_proj -> inception_3b/pool_proj (in-place)
I1126 10:28:57.946074 10394 net.cpp:150] Setting up inception_3b/prelu_pool_proj
I1126 10:28:57.946104 10394 net.cpp:157] Top shape: 32 64 28 28 (1605632)
I1126 10:28:57.946107 10394 net.cpp:165] Memory required for data: 1030816256
I1126 10:28:57.946113 10394 layer_factory.hpp:76] Creating layer inception_3b/output
I1126 10:28:57.946121 10394 net.cpp:106] Creating Layer inception_3b/output
I1126 10:28:57.946125 10394 net.cpp:454] inception_3b/output <- inception_3b/1x1
I1126 10:28:57.946130 10394 net.cpp:454] inception_3b/output <- inception_3b/3x3
I1126 10:28:57.946135 10394 net.cpp:454] inception_3b/output <- inception_3b/5x5
I1126 10:28:57.946141 10394 net.cpp:454] inception_3b/output <- inception_3b/pool_proj
I1126 10:28:57.946146 10394 net.cpp:411] inception_3b/output -> inception_3b/output
I1126 10:28:57.946171 10394 net.cpp:150] Setting up inception_3b/output
I1126 10:28:57.946177 10394 net.cpp:157] Top shape: 32 480 28 28 (12042240)
I1126 10:28:57.946182 10394 net.cpp:165] Memory required for data: 1078985216
I1126 10:28:57.946185 10394 layer_factory.hpp:76] Creating layer pool3/3x3_s2
I1126 10:28:57.946192 10394 net.cpp:106] Creating Layer pool3/3x3_s2
I1126 10:28:57.946197 10394 net.cpp:454] pool3/3x3_s2 <- inception_3b/output
I1126 10:28:57.946203 10394 net.cpp:411] pool3/3x3_s2 -> pool3/3x3_s2
I1126 10:28:57.946558 10394 net.cpp:150] Setting up pool3/3x3_s2
I1126 10:28:57.946568 10394 net.cpp:157] Top shape: 32 480 14 14 (3010560)
I1126 10:28:57.946573 10394 net.cpp:165] Memory required for data: 1091027456
I1126 10:28:57.946576 10394 layer_factory.hpp:76] Creating layer pool3/3x3_s2_pool3/3x3_s2_0_split
I1126 10:28:57.946584 10394 net.cpp:106] Creating Layer pool3/3x3_s2_pool3/3x3_s2_0_split
I1126 10:28:57.946589 10394 net.cpp:454] pool3/3x3_s2_pool3/3x3_s2_0_split <- pool3/3x3_s2
I1126 10:28:57.946594 10394 net.cpp:411] pool3/3x3_s2_pool3/3x3_s2_0_split -> pool3/3x3_s2_pool3/3x3_s2_0_split_0
I1126 10:28:57.946602 10394 net.cpp:411] pool3/3x3_s2_pool3/3x3_s2_0_split -> pool3/3x3_s2_pool3/3x3_s2_0_split_1
I1126 10:28:57.946609 10394 net.cpp:411] pool3/3x3_s2_pool3/3x3_s2_0_split -> pool3/3x3_s2_pool3/3x3_s2_0_split_2
I1126 10:28:57.946616 10394 net.cpp:411] pool3/3x3_s2_pool3/3x3_s2_0_split -> pool3/3x3_s2_pool3/3x3_s2_0_split_3
I1126 10:28:57.946668 10394 net.cpp:150] Setting up pool3/3x3_s2_pool3/3x3_s2_0_split
I1126 10:28:57.946676 10394 net.cpp:157] Top shape: 32 480 14 14 (3010560)
I1126 10:28:57.946681 10394 net.cpp:157] Top shape: 32 480 14 14 (3010560)
I1126 10:28:57.946686 10394 net.cpp:157] Top shape: 32 480 14 14 (3010560)
I1126 10:28:57.946689 10394 net.cpp:157] Top shape: 32 480 14 14 (3010560)
I1126 10:28:57.946693 10394 net.cpp:165] Memory required for data: 1139196416
I1126 10:28:57.946697 10394 layer_factory.hpp:76] Creating layer inception_4a/1x1
I1126 10:28:57.946707 10394 net.cpp:106] Creating Layer inception_4a/1x1
I1126 10:28:57.946710 10394 net.cpp:454] inception_4a/1x1 <- pool3/3x3_s2_pool3/3x3_s2_0_split_0
I1126 10:28:57.946717 10394 net.cpp:411] inception_4a/1x1 -> inception_4a/1x1
I1126 10:28:57.948750 10394 cudnn_conv_layer.cpp:194] Reallocating workspace storage: 10080
I1126 10:28:57.948971 10394 net.cpp:150] Setting up inception_4a/1x1
I1126 10:28:57.948982 10394 net.cpp:157] Top shape: 32 192 14 14 (1204224)
I1126 10:28:57.948987 10394 net.cpp:165] Memory required for data: 1144013312
I1126 10:28:57.948994 10394 layer_factory.hpp:76] Creating layer inception_4a/prelu_1x1
I1126 10:28:57.949003 10394 net.cpp:106] Creating Layer inception_4a/prelu_1x1
I1126 10:28:57.949008 10394 net.cpp:454] inception_4a/prelu_1x1 <- inception_4a/1x1
I1126 10:28:57.949017 10394 net.cpp:397] inception_4a/prelu_1x1 -> inception_4a/1x1 (in-place)
I1126 10:28:57.949623 10394 net.cpp:150] Setting up inception_4a/prelu_1x1
I1126 10:28:57.949635 10394 net.cpp:157] Top shape: 32 192 14 14 (1204224)
I1126 10:28:57.949640 10394 net.cpp:165] Memory required for data: 1148830208
I1126 10:28:57.949645 10394 layer_factory.hpp:76] Creating layer inception_4a/3x3_reduce
I1126 10:28:57.949656 10394 net.cpp:106] Creating Layer inception_4a/3x3_reduce
I1126 10:28:57.949661 10394 net.cpp:454] inception_4a/3x3_reduce <- pool3/3x3_s2_pool3/3x3_s2_0_split_1
I1126 10:28:57.949687 10394 net.cpp:411] inception_4a/3x3_reduce -> inception_4a/3x3_reduce
I1126 10:28:57.950978 10394 cudnn_conv_layer.cpp:194] Reallocating workspace storage: 10080
I1126 10:28:57.951005 10394 net.cpp:150] Setting up inception_4a/3x3_reduce
I1126 10:28:57.951017 10394 net.cpp:157] Top shape: 32 96 14 14 (602112)
I1126 10:28:57.951022 10394 net.cpp:165] Memory required for data: 1151238656
I1126 10:28:57.951030 10394 layer_factory.hpp:76] Creating layer inception_4a/prelu_3x3_reduce
I1126 10:28:57.951037 10394 net.cpp:106] Creating Layer inception_4a/prelu_3x3_reduce
I1126 10:28:57.951042 10394 net.cpp:454] inception_4a/prelu_3x3_reduce <- inception_4a/3x3_reduce
I1126 10:28:57.951048 10394 net.cpp:397] inception_4a/prelu_3x3_reduce -> inception_4a/3x3_reduce (in-place)
I1126 10:28:57.951140 10394 net.cpp:150] Setting up inception_4a/prelu_3x3_reduce
I1126 10:28:57.951148 10394 net.cpp:157] Top shape: 32 96 14 14 (602112)
I1126 10:28:57.951153 10394 net.cpp:165] Memory required for data: 1153647104
I1126 10:28:57.951159 10394 layer_factory.hpp:76] Creating layer inception_4a/3x3
I1126 10:28:57.951167 10394 net.cpp:106] Creating Layer inception_4a/3x3
I1126 10:28:57.951172 10394 net.cpp:454] inception_4a/3x3 <- inception_4a/3x3_reduce
I1126 10:28:57.951179 10394 net.cpp:411] inception_4a/3x3 -> inception_4a/3x3
I1126 10:28:57.953552 10394 cudnn_conv_layer.cpp:194] Reallocating workspace storage: 10080
I1126 10:28:57.953578 10394 net.cpp:150] Setting up inception_4a/3x3
I1126 10:28:57.953588 10394 net.cpp:157] Top shape: 32 208 14 14 (1304576)
I1126 10:28:57.953593 10394 net.cpp:165] Memory required for data: 1158865408
I1126 10:28:57.953599 10394 layer_factory.hpp:76] Creating layer inception_4a/prelu_3x3
I1126 10:28:57.953608 10394 net.cpp:106] Creating Layer inception_4a/prelu_3x3
I1126 10:28:57.953613 10394 net.cpp:454] inception_4a/prelu_3x3 <- inception_4a/3x3
I1126 10:28:57.953620 10394 net.cpp:397] inception_4a/prelu_3x3 -> inception_4a/3x3 (in-place)
I1126 10:28:57.953730 10394 net.cpp:150] Setting up inception_4a/prelu_3x3
I1126 10:28:57.953738 10394 net.cpp:157] Top shape: 32 208 14 14 (1304576)
I1126 10:28:57.953742 10394 net.cpp:165] Memory required for data: 1164083712
I1126 10:28:57.953747 10394 layer_factory.hpp:76] Creating layer inception_4a/5x5_reduce
I1126 10:28:57.953759 10394 net.cpp:106] Creating Layer inception_4a/5x5_reduce
I1126 10:28:57.953764 10394 net.cpp:454] inception_4a/5x5_reduce <- pool3/3x3_s2_pool3/3x3_s2_0_split_2
I1126 10:28:57.953770 10394 net.cpp:411] inception_4a/5x5_reduce -> inception_4a/5x5_reduce
I1126 10:28:57.954799 10394 cudnn_conv_layer.cpp:194] Reallocating workspace storage: 10080
I1126 10:28:57.954823 10394 net.cpp:150] Setting up inception_4a/5x5_reduce
I1126 10:28:57.954829 10394 net.cpp:157] Top shape: 32 16 14 14 (100352)
I1126 10:28:57.954833 10394 net.cpp:165] Memory required for data: 1164485120
I1126 10:28:57.954840 10394 layer_factory.hpp:76] Creating layer inception_4a/prelu_5x5_reduce
I1126 10:28:57.954849 10394 net.cpp:106] Creating Layer inception_4a/prelu_5x5_reduce
I1126 10:28:57.954854 10394 net.cpp:454] inception_4a/prelu_5x5_reduce <- inception_4a/5x5_reduce
I1126 10:28:57.954860 10394 net.cpp:397] inception_4a/prelu_5x5_reduce -> inception_4a/5x5_reduce (in-place)
I1126 10:28:57.954946 10394 net.cpp:150] Setting up inception_4a/prelu_5x5_reduce
I1126 10:28:57.954953 10394 net.cpp:157] Top shape: 32 16 14 14 (100352)
I1126 10:28:57.954957 10394 net.cpp:165] Memory required for data: 1164886528
I1126 10:28:57.954962 10394 layer_factory.hpp:76] Creating layer inception_4a/5x5
I1126 10:28:57.954970 10394 net.cpp:106] Creating Layer inception_4a/5x5
I1126 10:28:57.954974 10394 net.cpp:454] inception_4a/5x5 <- inception_4a/5x5_reduce
I1126 10:28:57.954982 10394 net.cpp:411] inception_4a/5x5 -> inception_4a/5x5
I1126 10:28:57.956081 10394 cudnn_conv_layer.cpp:194] Reallocating workspace storage: 13080
I1126 10:28:57.956102 10394 net.cpp:150] Setting up inception_4a/5x5
I1126 10:28:57.956110 10394 net.cpp:157] Top shape: 32 48 14 14 (301056)
I1126 10:28:57.956135 10394 net.cpp:165] Memory required for data: 1166090752
I1126 10:28:57.956143 10394 layer_factory.hpp:76] Creating layer inception_4a/prelu_5x5
I1126 10:28:57.956153 10394 net.cpp:106] Creating Layer inception_4a/prelu_5x5
I1126 10:28:57.956158 10394 net.cpp:454] inception_4a/prelu_5x5 <- inception_4a/5x5
I1126 10:28:57.956166 10394 net.cpp:397] inception_4a/prelu_5x5 -> inception_4a/5x5 (in-place)
I1126 10:28:57.956256 10394 net.cpp:150] Setting up inception_4a/prelu_5x5
I1126 10:28:57.956264 10394 net.cpp:157] Top shape: 32 48 14 14 (301056)
I1126 10:28:57.956267 10394 net.cpp:165] Memory required for data: 1167294976
I1126 10:28:57.956274 10394 layer_factory.hpp:76] Creating layer inception_4a/pool
I1126 10:28:57.956284 10394 net.cpp:106] Creating Layer inception_4a/pool
I1126 10:28:57.956290 10394 net.cpp:454] inception_4a/pool <- pool3/3x3_s2_pool3/3x3_s2_0_split_3
I1126 10:28:57.956295 10394 net.cpp:411] inception_4a/pool -> inception_4a/pool
I1126 10:28:57.956655 10394 net.cpp:150] Setting up inception_4a/pool
I1126 10:28:57.956665 10394 net.cpp:157] Top shape: 32 480 14 14 (3010560)
I1126 10:28:57.956670 10394 net.cpp:165] Memory required for data: 1179337216
I1126 10:28:57.956673 10394 layer_factory.hpp:76] Creating layer inception_4a/pool_proj
I1126 10:28:57.956686 10394 net.cpp:106] Creating Layer inception_4a/pool_proj
I1126 10:28:57.956691 10394 net.cpp:454] inception_4a/pool_proj <- inception_4a/pool
I1126 10:28:57.956697 10394 net.cpp:411] inception_4a/pool_proj -> inception_4a/pool_proj
I1126 10:28:57.957751 10394 cudnn_conv_layer.cpp:194] Reallocating workspace storage: 10080
I1126 10:28:57.957780 10394 net.cpp:150] Setting up inception_4a/pool_proj
I1126 10:28:57.957788 10394 net.cpp:157] Top shape: 32 64 14 14 (401408)
I1126 10:28:57.957792 10394 net.cpp:165] Memory required for data: 1180942848
I1126 10:28:57.957800 10394 layer_factory.hpp:76] Creating layer inception_4a/prelu_pool_proj
I1126 10:28:57.957808 10394 net.cpp:106] Creating Layer inception_4a/prelu_pool_proj
I1126 10:28:57.957814 10394 net.cpp:454] inception_4a/prelu_pool_proj <- inception_4a/pool_proj
I1126 10:28:57.957820 10394 net.cpp:397] inception_4a/prelu_pool_proj -> inception_4a/pool_proj (in-place)
I1126 10:28:57.957918 10394 net.cpp:150] Setting up inception_4a/prelu_pool_proj
I1126 10:28:57.957926 10394 net.cpp:157] Top shape: 32 64 14 14 (401408)
I1126 10:28:57.957929 10394 net.cpp:165] Memory required for data: 1182548480
I1126 10:28:57.957936 10394 layer_factory.hpp:76] Creating layer inception_4a/output
I1126 10:28:57.957943 10394 net.cpp:106] Creating Layer inception_4a/output
I1126 10:28:57.957948 10394 net.cpp:454] inception_4a/output <- inception_4a/1x1
I1126 10:28:57.957953 10394 net.cpp:454] inception_4a/output <- inception_4a/3x3
I1126 10:28:57.957957 10394 net.cpp:454] inception_4a/output <- inception_4a/5x5
I1126 10:28:57.957962 10394 net.cpp:454] inception_4a/output <- inception_4a/pool_proj
I1126 10:28:57.957967 10394 net.cpp:411] inception_4a/output -> inception_4a/output
I1126 10:28:57.957993 10394 net.cpp:150] Setting up inception_4a/output
I1126 10:28:57.958000 10394 net.cpp:157] Top shape: 32 512 14 14 (3211264)
I1126 10:28:57.958004 10394 net.cpp:165] Memory required for data: 1195393536
I1126 10:28:57.958009 10394 layer_factory.hpp:76] Creating layer inception_4a/output_inception_4a/output_0_split
I1126 10:28:57.958015 10394 net.cpp:106] Creating Layer inception_4a/output_inception_4a/output_0_split
I1126 10:28:57.958019 10394 net.cpp:454] inception_4a/output_inception_4a/output_0_split <- inception_4a/output
I1126 10:28:57.958027 10394 net.cpp:411] inception_4a/output_inception_4a/output_0_split -> inception_4a/output_inception_4a/output_0_split_0
I1126 10:28:57.958034 10394 net.cpp:411] inception_4a/output_inception_4a/output_0_split -> inception_4a/output_inception_4a/output_0_split_1
I1126 10:28:57.958040 10394 net.cpp:411] inception_4a/output_inception_4a/output_0_split -> inception_4a/output_inception_4a/output_0_split_2
I1126 10:28:57.958060 10394 net.cpp:411] inception_4a/output_inception_4a/output_0_split -> inception_4a/output_inception_4a/output_0_split_3
I1126 10:28:57.958066 10394 net.cpp:411] inception_4a/output_inception_4a/output_0_split -> inception_4a/output_inception_4a/output_0_split_4
I1126 10:28:57.958129 10394 net.cpp:150] Setting up inception_4a/output_inception_4a/output_0_split
I1126 10:28:57.958137 10394 net.cpp:157] Top shape: 32 512 14 14 (3211264)
I1126 10:28:57.958142 10394 net.cpp:157] Top shape: 32 512 14 14 (3211264)
I1126 10:28:57.958147 10394 net.cpp:157] Top shape: 32 512 14 14 (3211264)
I1126 10:28:57.958151 10394 net.cpp:157] Top shape: 32 512 14 14 (3211264)
I1126 10:28:57.958155 10394 net.cpp:157] Top shape: 32 512 14 14 (3211264)
I1126 10:28:57.958159 10394 net.cpp:165] Memory required for data: 1259618816
I1126 10:28:57.958163 10394 layer_factory.hpp:76] Creating layer loss1/ave_pool
I1126 10:28:57.958171 10394 net.cpp:106] Creating Layer loss1/ave_pool
I1126 10:28:57.958175 10394 net.cpp:454] loss1/ave_pool <- inception_4a/output_inception_4a/output_0_split_0
I1126 10:28:57.958181 10394 net.cpp:411] loss1/ave_pool -> loss1/ave_pool
I1126 10:28:57.958534 10394 net.cpp:150] Setting up loss1/ave_pool
I1126 10:28:57.958544 10394 net.cpp:157] Top shape: 32 512 4 4 (262144)
I1126 10:28:57.958547 10394 net.cpp:165] Memory required for data: 1260667392
I1126 10:28:57.958551 10394 layer_factory.hpp:76] Creating layer loss1/conv
I1126 10:28:57.958559 10394 net.cpp:106] Creating Layer loss1/conv
I1126 10:28:57.958564 10394 net.cpp:454] loss1/conv <- loss1/ave_pool
I1126 10:28:57.958571 10394 net.cpp:411] loss1/conv -> loss1/conv
I1126 10:28:57.959982 10394 cudnn_conv_layer.cpp:194] Reallocating workspace storage: 6840
I1126 10:28:57.960005 10394 net.cpp:150] Setting up loss1/conv
I1126 10:28:57.960012 10394 net.cpp:157] Top shape: 32 128 4 4 (65536)
I1126 10:28:57.960016 10394 net.cpp:165] Memory required for data: 1260929536
I1126 10:28:57.960034 10394 layer_factory.hpp:76] Creating layer loss1/prelu_conv
I1126 10:28:57.960046 10394 net.cpp:106] Creating Layer loss1/prelu_conv
I1126 10:28:57.960052 10394 net.cpp:454] loss1/prelu_conv <- loss1/conv
I1126 10:28:57.960057 10394 net.cpp:397] loss1/prelu_conv -> loss1/conv (in-place)
I1126 10:28:57.960142 10394 net.cpp:150] Setting up loss1/prelu_conv
I1126 10:28:57.960150 10394 net.cpp:157] Top shape: 32 128 4 4 (65536)
I1126 10:28:57.960153 10394 net.cpp:165] Memory required for data: 1261191680
I1126 10:28:57.960160 10394 layer_factory.hpp:76] Creating layer loss1/fc
I1126 10:28:57.960170 10394 net.cpp:106] Creating Layer loss1/fc
I1126 10:28:57.960175 10394 net.cpp:454] loss1/fc <- loss1/conv
I1126 10:28:57.960181 10394 net.cpp:411] loss1/fc -> loss1/fc
I1126 10:28:57.975378 10394 net.cpp:150] Setting up loss1/fc
I1126 10:28:57.975425 10394 net.cpp:157] Top shape: 32 1024 (32768)
I1126 10:28:57.975430 10394 net.cpp:165] Memory required for data: 1261322752
I1126 10:28:57.975441 10394 layer_factory.hpp:76] Creating layer loss1/prelu_fc
I1126 10:28:57.975456 10394 net.cpp:106] Creating Layer loss1/prelu_fc
I1126 10:28:57.975463 10394 net.cpp:454] loss1/prelu_fc <- loss1/fc
I1126 10:28:57.975476 10394 net.cpp:397] loss1/prelu_fc -> loss1/fc (in-place)
I1126 10:28:57.975574 10394 net.cpp:150] Setting up loss1/prelu_fc
I1126 10:28:57.975584 10394 net.cpp:157] Top shape: 32 1024 (32768)
I1126 10:28:57.975589 10394 net.cpp:165] Memory required for data: 1261453824
I1126 10:28:57.975594 10394 layer_factory.hpp:76] Creating layer loss1/drop_fc
I1126 10:28:57.975618 10394 net.cpp:106] Creating Layer loss1/drop_fc
I1126 10:28:57.975622 10394 net.cpp:454] loss1/drop_fc <- loss1/fc
I1126 10:28:57.975630 10394 net.cpp:397] loss1/drop_fc -> loss1/fc (in-place)
I1126 10:28:57.975669 10394 net.cpp:150] Setting up loss1/drop_fc
I1126 10:28:57.975677 10394 net.cpp:157] Top shape: 32 1024 (32768)
I1126 10:28:57.975680 10394 net.cpp:165] Memory required for data: 1261584896
I1126 10:28:57.975685 10394 layer_factory.hpp:76] Creating layer loss1/classifier2
I1126 10:28:57.975693 10394 net.cpp:106] Creating Layer loss1/classifier2
I1126 10:28:57.975731 10394 net.cpp:454] loss1/classifier2 <- loss1/fc
I1126 10:28:57.975740 10394 net.cpp:411] loss1/classifier2 -> loss1/classifier
I1126 10:28:57.975862 10394 net.cpp:150] Setting up loss1/classifier2
I1126 10:28:57.975872 10394 net.cpp:157] Top shape: 32 2 (64)
I1126 10:28:57.975874 10394 net.cpp:165] Memory required for data: 1261585152
I1126 10:28:57.975882 10394 layer_factory.hpp:76] Creating layer loss1/loss
I1126 10:28:57.975894 10394 net.cpp:106] Creating Layer loss1/loss
I1126 10:28:57.975899 10394 net.cpp:454] loss1/loss <- loss1/classifier
I1126 10:28:57.975904 10394 net.cpp:454] loss1/loss <- label_data_1_split_0
I1126 10:28:57.975910 10394 net.cpp:411] loss1/loss -> loss1/loss1
I1126 10:28:57.975935 10394 layer_factory.hpp:76] Creating layer loss1/loss
I1126 10:28:57.976302 10394 net.cpp:150] Setting up loss1/loss
I1126 10:28:57.976321 10394 net.cpp:157] Top shape: (1)
I1126 10:28:57.976325 10394 net.cpp:160]     with loss weight 0.3
I1126 10:28:57.976358 10394 net.cpp:165] Memory required for data: 1261585156
I1126 10:28:57.976364 10394 layer_factory.hpp:76] Creating layer inception_4b/1x1
I1126 10:28:57.976382 10394 net.cpp:106] Creating Layer inception_4b/1x1
I1126 10:28:57.976388 10394 net.cpp:454] inception_4b/1x1 <- inception_4a/output_inception_4a/output_0_split_1
I1126 10:28:57.976398 10394 net.cpp:411] inception_4b/1x1 -> inception_4b/1x1
I1126 10:28:57.978178 10394 cudnn_conv_layer.cpp:194] Reallocating workspace storage: 10080
I1126 10:28:57.978214 10394 net.cpp:150] Setting up inception_4b/1x1
I1126 10:28:57.978222 10394 net.cpp:157] Top shape: 32 160 14 14 (1003520)
I1126 10:28:57.978226 10394 net.cpp:165] Memory required for data: 1265599236
I1126 10:28:57.978235 10394 layer_factory.hpp:76] Creating layer inception_4b/prelu_1x1
I1126 10:28:57.978245 10394 net.cpp:106] Creating Layer inception_4b/prelu_1x1
I1126 10:28:57.978250 10394 net.cpp:454] inception_4b/prelu_1x1 <- inception_4b/1x1
I1126 10:28:57.978256 10394 net.cpp:397] inception_4b/prelu_1x1 -> inception_4b/1x1 (in-place)
I1126 10:28:57.978860 10394 net.cpp:150] Setting up inception_4b/prelu_1x1
I1126 10:28:57.978873 10394 net.cpp:157] Top shape: 32 160 14 14 (1003520)
I1126 10:28:57.978878 10394 net.cpp:165] Memory required for data: 1269613316
I1126 10:28:57.978883 10394 layer_factory.hpp:76] Creating layer inception_4b/3x3_reduce
I1126 10:28:57.978893 10394 net.cpp:106] Creating Layer inception_4b/3x3_reduce
I1126 10:28:57.978899 10394 net.cpp:454] inception_4b/3x3_reduce <- inception_4a/output_inception_4a/output_0_split_2
I1126 10:28:57.978909 10394 net.cpp:411] inception_4b/3x3_reduce -> inception_4b/3x3_reduce
I1126 10:28:57.980495 10394 cudnn_conv_layer.cpp:194] Reallocating workspace storage: 10080
I1126 10:28:57.980520 10394 net.cpp:150] Setting up inception_4b/3x3_reduce
I1126 10:28:57.980530 10394 net.cpp:157] Top shape: 32 112 14 14 (702464)
I1126 10:28:57.980533 10394 net.cpp:165] Memory required for data: 1272423172
I1126 10:28:57.980540 10394 layer_factory.hpp:76] Creating layer inception_4b/prelu_3x3_reduce
I1126 10:28:57.980547 10394 net.cpp:106] Creating Layer inception_4b/prelu_3x3_reduce
I1126 10:28:57.980552 10394 net.cpp:454] inception_4b/prelu_3x3_reduce <- inception_4b/3x3_reduce
I1126 10:28:57.980558 10394 net.cpp:397] inception_4b/prelu_3x3_reduce -> inception_4b/3x3_reduce (in-place)
I1126 10:28:57.980648 10394 net.cpp:150] Setting up inception_4b/prelu_3x3_reduce
I1126 10:28:57.980656 10394 net.cpp:157] Top shape: 32 112 14 14 (702464)
I1126 10:28:57.980660 10394 net.cpp:165] Memory required for data: 1275233028
I1126 10:28:57.980665 10394 layer_factory.hpp:76] Creating layer inception_4b/3x3
I1126 10:28:57.980674 10394 net.cpp:106] Creating Layer inception_4b/3x3
I1126 10:28:57.980679 10394 net.cpp:454] inception_4b/3x3 <- inception_4b/3x3_reduce
I1126 10:28:57.980685 10394 net.cpp:411] inception_4b/3x3 -> inception_4b/3x3
I1126 10:28:57.983331 10394 cudnn_conv_layer.cpp:194] Reallocating workspace storage: 10080
I1126 10:28:57.983355 10394 net.cpp:150] Setting up inception_4b/3x3
I1126 10:28:57.983381 10394 net.cpp:157] Top shape: 32 224 14 14 (1404928)
I1126 10:28:57.983384 10394 net.cpp:165] Memory required for data: 1280852740
I1126 10:28:57.983392 10394 layer_factory.hpp:76] Creating layer inception_4b/prelu_3x3
I1126 10:28:57.983400 10394 net.cpp:106] Creating Layer inception_4b/prelu_3x3
I1126 10:28:57.983405 10394 net.cpp:454] inception_4b/prelu_3x3 <- inception_4b/3x3
I1126 10:28:57.983412 10394 net.cpp:397] inception_4b/prelu_3x3 -> inception_4b/3x3 (in-place)
I1126 10:28:57.983520 10394 net.cpp:150] Setting up inception_4b/prelu_3x3
I1126 10:28:57.983527 10394 net.cpp:157] Top shape: 32 224 14 14 (1404928)
I1126 10:28:57.983530 10394 net.cpp:165] Memory required for data: 1286472452
I1126 10:28:57.983536 10394 layer_factory.hpp:76] Creating layer inception_4b/5x5_reduce
I1126 10:28:57.983544 10394 net.cpp:106] Creating Layer inception_4b/5x5_reduce
I1126 10:28:57.983548 10394 net.cpp:454] inception_4b/5x5_reduce <- inception_4a/output_inception_4a/output_0_split_3
I1126 10:28:57.983556 10394 net.cpp:411] inception_4b/5x5_reduce -> inception_4b/5x5_reduce
I1126 10:28:57.984408 10394 cudnn_conv_layer.cpp:194] Reallocating workspace storage: 10080
I1126 10:28:57.984429 10394 net.cpp:150] Setting up inception_4b/5x5_reduce
I1126 10:28:57.984436 10394 net.cpp:157] Top shape: 32 24 14 14 (150528)
I1126 10:28:57.984439 10394 net.cpp:165] Memory required for data: 1287074564
I1126 10:28:57.984447 10394 layer_factory.hpp:76] Creating layer inception_4b/prelu_5x5_reduce
I1126 10:28:57.984453 10394 net.cpp:106] Creating Layer inception_4b/prelu_5x5_reduce
I1126 10:28:57.984457 10394 net.cpp:454] inception_4b/prelu_5x5_reduce <- inception_4b/5x5_reduce
I1126 10:28:57.984464 10394 net.cpp:397] inception_4b/prelu_5x5_reduce -> inception_4b/5x5_reduce (in-place)
I1126 10:28:57.984547 10394 net.cpp:150] Setting up inception_4b/prelu_5x5_reduce
I1126 10:28:57.984556 10394 net.cpp:157] Top shape: 32 24 14 14 (150528)
I1126 10:28:57.984560 10394 net.cpp:165] Memory required for data: 1287676676
I1126 10:28:57.984565 10394 layer_factory.hpp:76] Creating layer inception_4b/5x5
I1126 10:28:57.984572 10394 net.cpp:106] Creating Layer inception_4b/5x5
I1126 10:28:57.984577 10394 net.cpp:454] inception_4b/5x5 <- inception_4b/5x5_reduce
I1126 10:28:57.984585 10394 net.cpp:411] inception_4b/5x5 -> inception_4b/5x5
I1126 10:28:57.985759 10394 cudnn_conv_layer.cpp:194] Reallocating workspace storage: 13080
I1126 10:28:57.985780 10394 net.cpp:150] Setting up inception_4b/5x5
I1126 10:28:57.985786 10394 net.cpp:157] Top shape: 32 64 14 14 (401408)
I1126 10:28:57.985790 10394 net.cpp:165] Memory required for data: 1289282308
I1126 10:28:57.985796 10394 layer_factory.hpp:76] Creating layer inception_4b/prelu_5x5
I1126 10:28:57.985805 10394 net.cpp:106] Creating Layer inception_4b/prelu_5x5
I1126 10:28:57.985810 10394 net.cpp:454] inception_4b/prelu_5x5 <- inception_4b/5x5
I1126 10:28:57.985816 10394 net.cpp:397] inception_4b/prelu_5x5 -> inception_4b/5x5 (in-place)
I1126 10:28:57.985911 10394 net.cpp:150] Setting up inception_4b/prelu_5x5
I1126 10:28:57.985919 10394 net.cpp:157] Top shape: 32 64 14 14 (401408)
I1126 10:28:57.985924 10394 net.cpp:165] Memory required for data: 1290887940
I1126 10:28:57.985929 10394 layer_factory.hpp:76] Creating layer inception_4b/pool
I1126 10:28:57.985934 10394 net.cpp:106] Creating Layer inception_4b/pool
I1126 10:28:57.985939 10394 net.cpp:454] inception_4b/pool <- inception_4a/output_inception_4a/output_0_split_4
I1126 10:28:57.985945 10394 net.cpp:411] inception_4b/pool -> inception_4b/pool
I1126 10:28:57.986302 10394 net.cpp:150] Setting up inception_4b/pool
I1126 10:28:57.986312 10394 net.cpp:157] Top shape: 32 512 14 14 (3211264)
I1126 10:28:57.986316 10394 net.cpp:165] Memory required for data: 1303732996
I1126 10:28:57.986320 10394 layer_factory.hpp:76] Creating layer inception_4b/pool_proj
I1126 10:28:57.986331 10394 net.cpp:106] Creating Layer inception_4b/pool_proj
I1126 10:28:57.986335 10394 net.cpp:454] inception_4b/pool_proj <- inception_4b/pool
I1126 10:28:57.986352 10394 net.cpp:411] inception_4b/pool_proj -> inception_4b/pool_proj
I1126 10:28:57.987519 10394 cudnn_conv_layer.cpp:194] Reallocating workspace storage: 10080
I1126 10:28:57.987542 10394 net.cpp:150] Setting up inception_4b/pool_proj
I1126 10:28:57.987550 10394 net.cpp:157] Top shape: 32 64 14 14 (401408)
I1126 10:28:57.987553 10394 net.cpp:165] Memory required for data: 1305338628
I1126 10:28:57.987560 10394 layer_factory.hpp:76] Creating layer inception_4b/prelu_pool_proj
I1126 10:28:57.987568 10394 net.cpp:106] Creating Layer inception_4b/prelu_pool_proj
I1126 10:28:57.987572 10394 net.cpp:454] inception_4b/prelu_pool_proj <- inception_4b/pool_proj
I1126 10:28:57.987579 10394 net.cpp:397] inception_4b/prelu_pool_proj -> inception_4b/pool_proj (in-place)
I1126 10:28:57.987669 10394 net.cpp:150] Setting up inception_4b/prelu_pool_proj
I1126 10:28:57.987678 10394 net.cpp:157] Top shape: 32 64 14 14 (401408)
I1126 10:28:57.987680 10394 net.cpp:165] Memory required for data: 1306944260
I1126 10:28:57.987686 10394 layer_factory.hpp:76] Creating layer inception_4b/output
I1126 10:28:57.987694 10394 net.cpp:106] Creating Layer inception_4b/output
I1126 10:28:57.987697 10394 net.cpp:454] inception_4b/output <- inception_4b/1x1
I1126 10:28:57.987702 10394 net.cpp:454] inception_4b/output <- inception_4b/3x3
I1126 10:28:57.987706 10394 net.cpp:454] inception_4b/output <- inception_4b/5x5
I1126 10:28:57.987710 10394 net.cpp:454] inception_4b/output <- inception_4b/pool_proj
I1126 10:28:57.987715 10394 net.cpp:411] inception_4b/output -> inception_4b/output
I1126 10:28:57.987740 10394 net.cpp:150] Setting up inception_4b/output
I1126 10:28:57.987747 10394 net.cpp:157] Top shape: 32 512 14 14 (3211264)
I1126 10:28:57.987751 10394 net.cpp:165] Memory required for data: 1319789316
I1126 10:28:57.987754 10394 layer_factory.hpp:76] Creating layer inception_4b/output_inception_4b/output_0_split
I1126 10:28:57.987761 10394 net.cpp:106] Creating Layer inception_4b/output_inception_4b/output_0_split
I1126 10:28:57.987766 10394 net.cpp:454] inception_4b/output_inception_4b/output_0_split <- inception_4b/output
I1126 10:28:57.987773 10394 net.cpp:411] inception_4b/output_inception_4b/output_0_split -> inception_4b/output_inception_4b/output_0_split_0
I1126 10:28:57.987781 10394 net.cpp:411] inception_4b/output_inception_4b/output_0_split -> inception_4b/output_inception_4b/output_0_split_1
I1126 10:28:57.987787 10394 net.cpp:411] inception_4b/output_inception_4b/output_0_split -> inception_4b/output_inception_4b/output_0_split_2
I1126 10:28:57.987792 10394 net.cpp:411] inception_4b/output_inception_4b/output_0_split -> inception_4b/output_inception_4b/output_0_split_3
I1126 10:28:57.987848 10394 net.cpp:150] Setting up inception_4b/output_inception_4b/output_0_split
I1126 10:28:57.987854 10394 net.cpp:157] Top shape: 32 512 14 14 (3211264)
I1126 10:28:57.987859 10394 net.cpp:157] Top shape: 32 512 14 14 (3211264)
I1126 10:28:57.987872 10394 net.cpp:157] Top shape: 32 512 14 14 (3211264)
I1126 10:28:57.987876 10394 net.cpp:157] Top shape: 32 512 14 14 (3211264)
I1126 10:28:57.987880 10394 net.cpp:165] Memory required for data: 1371169540
I1126 10:28:57.987884 10394 layer_factory.hpp:76] Creating layer inception_4c/1x1
I1126 10:28:57.987892 10394 net.cpp:106] Creating Layer inception_4c/1x1
I1126 10:28:57.987896 10394 net.cpp:454] inception_4c/1x1 <- inception_4b/output_inception_4b/output_0_split_0
I1126 10:28:57.987902 10394 net.cpp:411] inception_4c/1x1 -> inception_4c/1x1
I1126 10:28:57.989527 10394 cudnn_conv_layer.cpp:194] Reallocating workspace storage: 10080
I1126 10:28:57.989549 10394 net.cpp:150] Setting up inception_4c/1x1
I1126 10:28:57.989557 10394 net.cpp:157] Top shape: 32 128 14 14 (802816)
I1126 10:28:57.989562 10394 net.cpp:165] Memory required for data: 1374380804
I1126 10:28:57.989567 10394 layer_factory.hpp:76] Creating layer inception_4c/prelu_1x1
I1126 10:28:57.989574 10394 net.cpp:106] Creating Layer inception_4c/prelu_1x1
I1126 10:28:57.989579 10394 net.cpp:454] inception_4c/prelu_1x1 <- inception_4c/1x1
I1126 10:28:57.989595 10394 net.cpp:397] inception_4c/prelu_1x1 -> inception_4c/1x1 (in-place)
I1126 10:28:57.989683 10394 net.cpp:150] Setting up inception_4c/prelu_1x1
I1126 10:28:57.989692 10394 net.cpp:157] Top shape: 32 128 14 14 (802816)
I1126 10:28:57.989696 10394 net.cpp:165] Memory required for data: 1377592068
I1126 10:28:57.989701 10394 layer_factory.hpp:76] Creating layer inception_4c/3x3_reduce
I1126 10:28:57.989708 10394 net.cpp:106] Creating Layer inception_4c/3x3_reduce
I1126 10:28:57.989713 10394 net.cpp:454] inception_4c/3x3_reduce <- inception_4b/output_inception_4b/output_0_split_1
I1126 10:28:57.989720 10394 net.cpp:411] inception_4c/3x3_reduce -> inception_4c/3x3_reduce
I1126 10:28:57.991086 10394 cudnn_conv_layer.cpp:194] Reallocating workspace storage: 10080
I1126 10:28:57.991108 10394 net.cpp:150] Setting up inception_4c/3x3_reduce
I1126 10:28:57.991116 10394 net.cpp:157] Top shape: 32 128 14 14 (802816)
I1126 10:28:57.991119 10394 net.cpp:165] Memory required for data: 1380803332
I1126 10:28:57.991125 10394 layer_factory.hpp:76] Creating layer inception_4c/prelu_3x3_reduce
I1126 10:28:57.991133 10394 net.cpp:106] Creating Layer inception_4c/prelu_3x3_reduce
I1126 10:28:57.991138 10394 net.cpp:454] inception_4c/prelu_3x3_reduce <- inception_4c/3x3_reduce
I1126 10:28:57.991153 10394 net.cpp:397] inception_4c/prelu_3x3_reduce -> inception_4c/3x3_reduce (in-place)
I1126 10:28:57.991250 10394 net.cpp:150] Setting up inception_4c/prelu_3x3_reduce
I1126 10:28:57.991260 10394 net.cpp:157] Top shape: 32 128 14 14 (802816)
I1126 10:28:57.991263 10394 net.cpp:165] Memory required for data: 1384014596
I1126 10:28:57.991268 10394 layer_factory.hpp:76] Creating layer inception_4c/3x3
I1126 10:28:57.991276 10394 net.cpp:106] Creating Layer inception_4c/3x3
I1126 10:28:57.991279 10394 net.cpp:454] inception_4c/3x3 <- inception_4c/3x3_reduce
I1126 10:28:57.991287 10394 net.cpp:411] inception_4c/3x3 -> inception_4c/3x3
I1126 10:28:57.994405 10394 cudnn_conv_layer.cpp:194] Reallocating workspace storage: 10080
I1126 10:28:57.994432 10394 net.cpp:150] Setting up inception_4c/3x3
I1126 10:28:57.994441 10394 net.cpp:157] Top shape: 32 256 14 14 (1605632)
I1126 10:28:57.994444 10394 net.cpp:165] Memory required for data: 1390437124
I1126 10:28:57.994451 10394 layer_factory.hpp:76] Creating layer inception_4c/prelu_3x3
I1126 10:28:57.994460 10394 net.cpp:106] Creating Layer inception_4c/prelu_3x3
I1126 10:28:57.994465 10394 net.cpp:454] inception_4c/prelu_3x3 <- inception_4c/3x3
I1126 10:28:57.994472 10394 net.cpp:397] inception_4c/prelu_3x3 -> inception_4c/3x3 (in-place)
I1126 10:28:57.994576 10394 net.cpp:150] Setting up inception_4c/prelu_3x3
I1126 10:28:57.994585 10394 net.cpp:157] Top shape: 32 256 14 14 (1605632)
I1126 10:28:57.994588 10394 net.cpp:165] Memory required for data: 1396859652
I1126 10:28:57.994593 10394 layer_factory.hpp:76] Creating layer inception_4c/5x5_reduce
I1126 10:28:57.994603 10394 net.cpp:106] Creating Layer inception_4c/5x5_reduce
I1126 10:28:57.994607 10394 net.cpp:454] inception_4c/5x5_reduce <- inception_4b/output_inception_4b/output_0_split_2
I1126 10:28:57.994613 10394 net.cpp:411] inception_4c/5x5_reduce -> inception_4c/5x5_reduce
I1126 10:28:57.995669 10394 cudnn_conv_layer.cpp:194] Reallocating workspace storage: 10080
I1126 10:28:57.995690 10394 net.cpp:150] Setting up inception_4c/5x5_reduce
I1126 10:28:57.995697 10394 net.cpp:157] Top shape: 32 24 14 14 (150528)
I1126 10:28:57.995702 10394 net.cpp:165] Memory required for data: 1397461764
I1126 10:28:57.995707 10394 layer_factory.hpp:76] Creating layer inception_4c/prelu_5x5_reduce
I1126 10:28:57.995714 10394 net.cpp:106] Creating Layer inception_4c/prelu_5x5_reduce
I1126 10:28:57.995719 10394 net.cpp:454] inception_4c/prelu_5x5_reduce <- inception_4c/5x5_reduce
I1126 10:28:57.995726 10394 net.cpp:397] inception_4c/prelu_5x5_reduce -> inception_4c/5x5_reduce (in-place)
I1126 10:28:57.995815 10394 net.cpp:150] Setting up inception_4c/prelu_5x5_reduce
I1126 10:28:57.995822 10394 net.cpp:157] Top shape: 32 24 14 14 (150528)
I1126 10:28:57.995837 10394 net.cpp:165] Memory required for data: 1398063876
I1126 10:28:57.995843 10394 layer_factory.hpp:76] Creating layer inception_4c/5x5
I1126 10:28:57.995851 10394 net.cpp:106] Creating Layer inception_4c/5x5
I1126 10:28:57.995857 10394 net.cpp:454] inception_4c/5x5 <- inception_4c/5x5_reduce
I1126 10:28:57.995862 10394 net.cpp:411] inception_4c/5x5 -> inception_4c/5x5
I1126 10:28:57.997503 10394 cudnn_conv_layer.cpp:194] Reallocating workspace storage: 13080
I1126 10:28:57.997529 10394 net.cpp:150] Setting up inception_4c/5x5
I1126 10:28:57.997535 10394 net.cpp:157] Top shape: 32 64 14 14 (401408)
I1126 10:28:57.997539 10394 net.cpp:165] Memory required for data: 1399669508
I1126 10:28:57.997546 10394 layer_factory.hpp:76] Creating layer inception_4c/prelu_5x5
I1126 10:28:57.997555 10394 net.cpp:106] Creating Layer inception_4c/prelu_5x5
I1126 10:28:57.997560 10394 net.cpp:454] inception_4c/prelu_5x5 <- inception_4c/5x5
I1126 10:28:57.997565 10394 net.cpp:397] inception_4c/prelu_5x5 -> inception_4c/5x5 (in-place)
I1126 10:28:57.997675 10394 net.cpp:150] Setting up inception_4c/prelu_5x5
I1126 10:28:57.997684 10394 net.cpp:157] Top shape: 32 64 14 14 (401408)
I1126 10:28:57.997687 10394 net.cpp:165] Memory required for data: 1401275140
I1126 10:28:57.997692 10394 layer_factory.hpp:76] Creating layer inception_4c/pool
I1126 10:28:57.997701 10394 net.cpp:106] Creating Layer inception_4c/pool
I1126 10:28:57.997706 10394 net.cpp:454] inception_4c/pool <- inception_4b/output_inception_4b/output_0_split_3
I1126 10:28:57.997711 10394 net.cpp:411] inception_4c/pool -> inception_4c/pool
I1126 10:28:57.997895 10394 net.cpp:150] Setting up inception_4c/pool
I1126 10:28:57.997905 10394 net.cpp:157] Top shape: 32 512 14 14 (3211264)
I1126 10:28:57.997910 10394 net.cpp:165] Memory required for data: 1414120196
I1126 10:28:57.997913 10394 layer_factory.hpp:76] Creating layer inception_4c/pool_proj
I1126 10:28:57.997922 10394 net.cpp:106] Creating Layer inception_4c/pool_proj
I1126 10:28:57.997927 10394 net.cpp:454] inception_4c/pool_proj <- inception_4c/pool
I1126 10:28:57.997933 10394 net.cpp:411] inception_4c/pool_proj -> inception_4c/pool_proj
I1126 10:28:57.999297 10394 cudnn_conv_layer.cpp:194] Reallocating workspace storage: 10080
I1126 10:28:57.999321 10394 net.cpp:150] Setting up inception_4c/pool_proj
I1126 10:28:57.999328 10394 net.cpp:157] Top shape: 32 64 14 14 (401408)
I1126 10:28:57.999331 10394 net.cpp:165] Memory required for data: 1415725828
I1126 10:28:57.999338 10394 layer_factory.hpp:76] Creating layer inception_4c/prelu_pool_proj
I1126 10:28:57.999346 10394 net.cpp:106] Creating Layer inception_4c/prelu_pool_proj
I1126 10:28:57.999351 10394 net.cpp:454] inception_4c/prelu_pool_proj <- inception_4c/pool_proj
I1126 10:28:57.999359 10394 net.cpp:397] inception_4c/prelu_pool_proj -> inception_4c/pool_proj (in-place)
I1126 10:28:57.999500 10394 net.cpp:150] Setting up inception_4c/prelu_pool_proj
I1126 10:28:57.999507 10394 net.cpp:157] Top shape: 32 64 14 14 (401408)
I1126 10:28:57.999511 10394 net.cpp:165] Memory required for data: 1417331460
I1126 10:28:57.999516 10394 layer_factory.hpp:76] Creating layer inception_4c/output
I1126 10:28:57.999523 10394 net.cpp:106] Creating Layer inception_4c/output
I1126 10:28:57.999528 10394 net.cpp:454] inception_4c/output <- inception_4c/1x1
I1126 10:28:57.999533 10394 net.cpp:454] inception_4c/output <- inception_4c/3x3
I1126 10:28:57.999537 10394 net.cpp:454] inception_4c/output <- inception_4c/5x5
I1126 10:28:57.999542 10394 net.cpp:454] inception_4c/output <- inception_4c/pool_proj
I1126 10:28:57.999547 10394 net.cpp:411] inception_4c/output -> inception_4c/output
I1126 10:28:57.999582 10394 net.cpp:150] Setting up inception_4c/output
I1126 10:28:57.999588 10394 net.cpp:157] Top shape: 32 512 14 14 (3211264)
I1126 10:28:57.999593 10394 net.cpp:165] Memory required for data: 1430176516
I1126 10:28:57.999595 10394 layer_factory.hpp:76] Creating layer inception_4c/output_inception_4c/output_0_split
I1126 10:28:57.999601 10394 net.cpp:106] Creating Layer inception_4c/output_inception_4c/output_0_split
I1126 10:28:57.999615 10394 net.cpp:454] inception_4c/output_inception_4c/output_0_split <- inception_4c/output
I1126 10:28:57.999622 10394 net.cpp:411] inception_4c/output_inception_4c/output_0_split -> inception_4c/output_inception_4c/output_0_split_0
I1126 10:28:57.999629 10394 net.cpp:411] inception_4c/output_inception_4c/output_0_split -> inception_4c/output_inception_4c/output_0_split_1
I1126 10:28:57.999636 10394 net.cpp:411] inception_4c/output_inception_4c/output_0_split -> inception_4c/output_inception_4c/output_0_split_2
I1126 10:28:57.999642 10394 net.cpp:411] inception_4c/output_inception_4c/output_0_split -> inception_4c/output_inception_4c/output_0_split_3
I1126 10:28:57.999701 10394 net.cpp:150] Setting up inception_4c/output_inception_4c/output_0_split
I1126 10:28:57.999707 10394 net.cpp:157] Top shape: 32 512 14 14 (3211264)
I1126 10:28:57.999712 10394 net.cpp:157] Top shape: 32 512 14 14 (3211264)
I1126 10:28:57.999717 10394 net.cpp:157] Top shape: 32 512 14 14 (3211264)
I1126 10:28:57.999722 10394 net.cpp:157] Top shape: 32 512 14 14 (3211264)
I1126 10:28:57.999725 10394 net.cpp:165] Memory required for data: 1481556740
I1126 10:28:57.999728 10394 layer_factory.hpp:76] Creating layer inception_4d/1x1
I1126 10:28:57.999737 10394 net.cpp:106] Creating Layer inception_4d/1x1
I1126 10:28:57.999742 10394 net.cpp:454] inception_4d/1x1 <- inception_4c/output_inception_4c/output_0_split_0
I1126 10:28:57.999747 10394 net.cpp:411] inception_4d/1x1 -> inception_4d/1x1
I1126 10:28:58.001152 10394 cudnn_conv_layer.cpp:194] Reallocating workspace storage: 10080
I1126 10:28:58.001178 10394 net.cpp:150] Setting up inception_4d/1x1
I1126 10:28:58.001186 10394 net.cpp:157] Top shape: 32 112 14 14 (702464)
I1126 10:28:58.001190 10394 net.cpp:165] Memory required for data: 1484366596
I1126 10:28:58.001196 10394 layer_factory.hpp:76] Creating layer inception_4d/prelu_1x1
I1126 10:28:58.001204 10394 net.cpp:106] Creating Layer inception_4d/prelu_1x1
I1126 10:28:58.001209 10394 net.cpp:454] inception_4d/prelu_1x1 <- inception_4d/1x1
I1126 10:28:58.001215 10394 net.cpp:397] inception_4d/prelu_1x1 -> inception_4d/1x1 (in-place)
I1126 10:28:58.001309 10394 net.cpp:150] Setting up inception_4d/prelu_1x1
I1126 10:28:58.001317 10394 net.cpp:157] Top shape: 32 112 14 14 (702464)
I1126 10:28:58.001320 10394 net.cpp:165] Memory required for data: 1487176452
I1126 10:28:58.001327 10394 layer_factory.hpp:76] Creating layer inception_4d/3x3_reduce
I1126 10:28:58.001334 10394 net.cpp:106] Creating Layer inception_4d/3x3_reduce
I1126 10:28:58.001339 10394 net.cpp:454] inception_4d/3x3_reduce <- inception_4c/output_inception_4c/output_0_split_1
I1126 10:28:58.001345 10394 net.cpp:411] inception_4d/3x3_reduce -> inception_4d/3x3_reduce
I1126 10:28:58.002604 10394 cudnn_conv_layer.cpp:194] Reallocating workspace storage: 10080
I1126 10:28:58.002627 10394 net.cpp:150] Setting up inception_4d/3x3_reduce
I1126 10:28:58.002635 10394 net.cpp:157] Top shape: 32 144 14 14 (903168)
I1126 10:28:58.002638 10394 net.cpp:165] Memory required for data: 1490789124
I1126 10:28:58.002645 10394 layer_factory.hpp:76] Creating layer inception_4d/prelu_3x3_reduce
I1126 10:28:58.002652 10394 net.cpp:106] Creating Layer inception_4d/prelu_3x3_reduce
I1126 10:28:58.002657 10394 net.cpp:454] inception_4d/prelu_3x3_reduce <- inception_4d/3x3_reduce
I1126 10:28:58.002665 10394 net.cpp:397] inception_4d/prelu_3x3_reduce -> inception_4d/3x3_reduce (in-place)
I1126 10:28:58.002769 10394 net.cpp:150] Setting up inception_4d/prelu_3x3_reduce
I1126 10:28:58.002779 10394 net.cpp:157] Top shape: 32 144 14 14 (903168)
I1126 10:28:58.002781 10394 net.cpp:165] Memory required for data: 1494401796
I1126 10:28:58.002787 10394 layer_factory.hpp:76] Creating layer inception_4d/3x3
I1126 10:28:58.002795 10394 net.cpp:106] Creating Layer inception_4d/3x3
I1126 10:28:58.002800 10394 net.cpp:454] inception_4d/3x3 <- inception_4d/3x3_reduce
I1126 10:28:58.002807 10394 net.cpp:411] inception_4d/3x3 -> inception_4d/3x3
I1126 10:28:58.006415 10394 cudnn_conv_layer.cpp:194] Reallocating workspace storage: 10080
I1126 10:28:58.006439 10394 net.cpp:150] Setting up inception_4d/3x3
I1126 10:28:58.006448 10394 net.cpp:157] Top shape: 32 288 14 14 (1806336)
I1126 10:28:58.006451 10394 net.cpp:165] Memory required for data: 1501627140
I1126 10:28:58.006458 10394 layer_factory.hpp:76] Creating layer inception_4d/prelu_3x3
I1126 10:28:58.006465 10394 net.cpp:106] Creating Layer inception_4d/prelu_3x3
I1126 10:28:58.006470 10394 net.cpp:454] inception_4d/prelu_3x3 <- inception_4d/3x3
I1126 10:28:58.006477 10394 net.cpp:397] inception_4d/prelu_3x3 -> inception_4d/3x3 (in-place)
I1126 10:28:58.006599 10394 net.cpp:150] Setting up inception_4d/prelu_3x3
I1126 10:28:58.006608 10394 net.cpp:157] Top shape: 32 288 14 14 (1806336)
I1126 10:28:58.006611 10394 net.cpp:165] Memory required for data: 1508852484
I1126 10:28:58.006616 10394 layer_factory.hpp:76] Creating layer inception_4d/5x5_reduce
I1126 10:28:58.006624 10394 net.cpp:106] Creating Layer inception_4d/5x5_reduce
I1126 10:28:58.006629 10394 net.cpp:454] inception_4d/5x5_reduce <- inception_4c/output_inception_4c/output_0_split_2
I1126 10:28:58.006636 10394 net.cpp:411] inception_4d/5x5_reduce -> inception_4d/5x5_reduce
I1126 10:28:58.007764 10394 cudnn_conv_layer.cpp:194] Reallocating workspace storage: 10080
I1126 10:28:58.007789 10394 net.cpp:150] Setting up inception_4d/5x5_reduce
I1126 10:28:58.007797 10394 net.cpp:157] Top shape: 32 32 14 14 (200704)
I1126 10:28:58.007800 10394 net.cpp:165] Memory required for data: 1509655300
I1126 10:28:58.007807 10394 layer_factory.hpp:76] Creating layer inception_4d/prelu_5x5_reduce
I1126 10:28:58.007818 10394 net.cpp:106] Creating Layer inception_4d/prelu_5x5_reduce
I1126 10:28:58.007823 10394 net.cpp:454] inception_4d/prelu_5x5_reduce <- inception_4d/5x5_reduce
I1126 10:28:58.007832 10394 net.cpp:397] inception_4d/prelu_5x5_reduce -> inception_4d/5x5_reduce (in-place)
I1126 10:28:58.007930 10394 net.cpp:150] Setting up inception_4d/prelu_5x5_reduce
I1126 10:28:58.007937 10394 net.cpp:157] Top shape: 32 32 14 14 (200704)
I1126 10:28:58.007941 10394 net.cpp:165] Memory required for data: 1510458116
I1126 10:28:58.007946 10394 layer_factory.hpp:76] Creating layer inception_4d/5x5
I1126 10:28:58.007956 10394 net.cpp:106] Creating Layer inception_4d/5x5
I1126 10:28:58.007961 10394 net.cpp:454] inception_4d/5x5 <- inception_4d/5x5_reduce
I1126 10:28:58.007969 10394 net.cpp:411] inception_4d/5x5 -> inception_4d/5x5
I1126 10:28:58.009800 10394 cudnn_conv_layer.cpp:194] Reallocating workspace storage: 13080
I1126 10:28:58.009825 10394 net.cpp:150] Setting up inception_4d/5x5
I1126 10:28:58.009832 10394 net.cpp:157] Top shape: 32 64 14 14 (401408)
I1126 10:28:58.009837 10394 net.cpp:165] Memory required for data: 1512063748
I1126 10:28:58.009845 10394 layer_factory.hpp:76] Creating layer inception_4d/prelu_5x5
I1126 10:28:58.009852 10394 net.cpp:106] Creating Layer inception_4d/prelu_5x5
I1126 10:28:58.009857 10394 net.cpp:454] inception_4d/prelu_5x5 <- inception_4d/5x5
I1126 10:28:58.009865 10394 net.cpp:397] inception_4d/prelu_5x5 -> inception_4d/5x5 (in-place)
I1126 10:28:58.009964 10394 net.cpp:150] Setting up inception_4d/prelu_5x5
I1126 10:28:58.009973 10394 net.cpp:157] Top shape: 32 64 14 14 (401408)
I1126 10:28:58.009975 10394 net.cpp:165] Memory required for data: 1513669380
I1126 10:28:58.009981 10394 layer_factory.hpp:76] Creating layer inception_4d/pool
I1126 10:28:58.009989 10394 net.cpp:106] Creating Layer inception_4d/pool
I1126 10:28:58.009994 10394 net.cpp:454] inception_4d/pool <- inception_4c/output_inception_4c/output_0_split_3
I1126 10:28:58.009999 10394 net.cpp:411] inception_4d/pool -> inception_4d/pool
I1126 10:28:58.010174 10394 net.cpp:150] Setting up inception_4d/pool
I1126 10:28:58.010182 10394 net.cpp:157] Top shape: 32 512 14 14 (3211264)
I1126 10:28:58.010186 10394 net.cpp:165] Memory required for data: 1526514436
I1126 10:28:58.010190 10394 layer_factory.hpp:76] Creating layer inception_4d/pool_proj
I1126 10:28:58.010198 10394 net.cpp:106] Creating Layer inception_4d/pool_proj
I1126 10:28:58.010220 10394 net.cpp:454] inception_4d/pool_proj <- inception_4d/pool
I1126 10:28:58.010227 10394 net.cpp:411] inception_4d/pool_proj -> inception_4d/pool_proj
I1126 10:28:58.011409 10394 cudnn_conv_layer.cpp:194] Reallocating workspace storage: 10080
I1126 10:28:58.011435 10394 net.cpp:150] Setting up inception_4d/pool_proj
I1126 10:28:58.011442 10394 net.cpp:157] Top shape: 32 64 14 14 (401408)
I1126 10:28:58.011446 10394 net.cpp:165] Memory required for data: 1528120068
I1126 10:28:58.011452 10394 layer_factory.hpp:76] Creating layer inception_4d/prelu_pool_proj
I1126 10:28:58.011461 10394 net.cpp:106] Creating Layer inception_4d/prelu_pool_proj
I1126 10:28:58.011466 10394 net.cpp:454] inception_4d/prelu_pool_proj <- inception_4d/pool_proj
I1126 10:28:58.011472 10394 net.cpp:397] inception_4d/prelu_pool_proj -> inception_4d/pool_proj (in-place)
I1126 10:28:58.011579 10394 net.cpp:150] Setting up inception_4d/prelu_pool_proj
I1126 10:28:58.011587 10394 net.cpp:157] Top shape: 32 64 14 14 (401408)
I1126 10:28:58.011591 10394 net.cpp:165] Memory required for data: 1529725700
I1126 10:28:58.011596 10394 layer_factory.hpp:76] Creating layer inception_4d/output
I1126 10:28:58.011603 10394 net.cpp:106] Creating Layer inception_4d/output
I1126 10:28:58.011607 10394 net.cpp:454] inception_4d/output <- inception_4d/1x1
I1126 10:28:58.011612 10394 net.cpp:454] inception_4d/output <- inception_4d/3x3
I1126 10:28:58.011617 10394 net.cpp:454] inception_4d/output <- inception_4d/5x5
I1126 10:28:58.011629 10394 net.cpp:454] inception_4d/output <- inception_4d/pool_proj
I1126 10:28:58.011637 10394 net.cpp:411] inception_4d/output -> inception_4d/output
I1126 10:28:58.011670 10394 net.cpp:150] Setting up inception_4d/output
I1126 10:28:58.011678 10394 net.cpp:157] Top shape: 32 528 14 14 (3311616)
I1126 10:28:58.011682 10394 net.cpp:165] Memory required for data: 1542972164
I1126 10:28:58.011685 10394 layer_factory.hpp:76] Creating layer inception_4d/output_inception_4d/output_0_split
I1126 10:28:58.011694 10394 net.cpp:106] Creating Layer inception_4d/output_inception_4d/output_0_split
I1126 10:28:58.011698 10394 net.cpp:454] inception_4d/output_inception_4d/output_0_split <- inception_4d/output
I1126 10:28:58.011704 10394 net.cpp:411] inception_4d/output_inception_4d/output_0_split -> inception_4d/output_inception_4d/output_0_split_0
I1126 10:28:58.011711 10394 net.cpp:411] inception_4d/output_inception_4d/output_0_split -> inception_4d/output_inception_4d/output_0_split_1
I1126 10:28:58.011719 10394 net.cpp:411] inception_4d/output_inception_4d/output_0_split -> inception_4d/output_inception_4d/output_0_split_2
I1126 10:28:58.011726 10394 net.cpp:411] inception_4d/output_inception_4d/output_0_split -> inception_4d/output_inception_4d/output_0_split_3
I1126 10:28:58.011732 10394 net.cpp:411] inception_4d/output_inception_4d/output_0_split -> inception_4d/output_inception_4d/output_0_split_4
I1126 10:28:58.011811 10394 net.cpp:150] Setting up inception_4d/output_inception_4d/output_0_split
I1126 10:28:58.011817 10394 net.cpp:157] Top shape: 32 528 14 14 (3311616)
I1126 10:28:58.011822 10394 net.cpp:157] Top shape: 32 528 14 14 (3311616)
I1126 10:28:58.011827 10394 net.cpp:157] Top shape: 32 528 14 14 (3311616)
I1126 10:28:58.011831 10394 net.cpp:157] Top shape: 32 528 14 14 (3311616)
I1126 10:28:58.011836 10394 net.cpp:157] Top shape: 32 528 14 14 (3311616)
I1126 10:28:58.011839 10394 net.cpp:165] Memory required for data: 1609204484
I1126 10:28:58.011843 10394 layer_factory.hpp:76] Creating layer loss2/ave_pool
I1126 10:28:58.011850 10394 net.cpp:106] Creating Layer loss2/ave_pool
I1126 10:28:58.011854 10394 net.cpp:454] loss2/ave_pool <- inception_4d/output_inception_4d/output_0_split_0
I1126 10:28:58.011860 10394 net.cpp:411] loss2/ave_pool -> loss2/ave_pool
I1126 10:28:58.012205 10394 net.cpp:150] Setting up loss2/ave_pool
I1126 10:28:58.012215 10394 net.cpp:157] Top shape: 32 528 4 4 (270336)
I1126 10:28:58.012219 10394 net.cpp:165] Memory required for data: 1610285828
I1126 10:28:58.012231 10394 layer_factory.hpp:76] Creating layer loss2/conv
I1126 10:28:58.012239 10394 net.cpp:106] Creating Layer loss2/conv
I1126 10:28:58.012243 10394 net.cpp:454] loss2/conv <- loss2/ave_pool
I1126 10:28:58.012253 10394 net.cpp:411] loss2/conv -> loss2/conv
I1126 10:28:58.013689 10394 cudnn_conv_layer.cpp:194] Reallocating workspace storage: 6840
I1126 10:28:58.013712 10394 net.cpp:150] Setting up loss2/conv
I1126 10:28:58.013720 10394 net.cpp:157] Top shape: 32 128 4 4 (65536)
I1126 10:28:58.013723 10394 net.cpp:165] Memory required for data: 1610547972
I1126 10:28:58.013731 10394 layer_factory.hpp:76] Creating layer loss2/prelu_conv
I1126 10:28:58.013737 10394 net.cpp:106] Creating Layer loss2/prelu_conv
I1126 10:28:58.013742 10394 net.cpp:454] loss2/prelu_conv <- loss2/conv
I1126 10:28:58.013749 10394 net.cpp:397] loss2/prelu_conv -> loss2/conv (in-place)
I1126 10:28:58.013838 10394 net.cpp:150] Setting up loss2/prelu_conv
I1126 10:28:58.013846 10394 net.cpp:157] Top shape: 32 128 4 4 (65536)
I1126 10:28:58.013850 10394 net.cpp:165] Memory required for data: 1610810116
I1126 10:28:58.013855 10394 layer_factory.hpp:76] Creating layer loss2/fc
I1126 10:28:58.013862 10394 net.cpp:106] Creating Layer loss2/fc
I1126 10:28:58.013866 10394 net.cpp:454] loss2/fc <- loss2/conv
I1126 10:28:58.013873 10394 net.cpp:411] loss2/fc -> loss2/fc
I1126 10:28:58.028048 10394 net.cpp:150] Setting up loss2/fc
I1126 10:28:58.028084 10394 net.cpp:157] Top shape: 32 1024 (32768)
I1126 10:28:58.028089 10394 net.cpp:165] Memory required for data: 1610941188
I1126 10:28:58.028115 10394 layer_factory.hpp:76] Creating layer loss2/prelu_fc
I1126 10:28:58.028127 10394 net.cpp:106] Creating Layer loss2/prelu_fc
I1126 10:28:58.028134 10394 net.cpp:454] loss2/prelu_fc <- loss2/fc
I1126 10:28:58.028141 10394 net.cpp:397] loss2/prelu_fc -> loss2/fc (in-place)
I1126 10:28:58.028228 10394 net.cpp:150] Setting up loss2/prelu_fc
I1126 10:28:58.028235 10394 net.cpp:157] Top shape: 32 1024 (32768)
I1126 10:28:58.028239 10394 net.cpp:165] Memory required for data: 1611072260
I1126 10:28:58.028244 10394 layer_factory.hpp:76] Creating layer loss2/drop_fc
I1126 10:28:58.028252 10394 net.cpp:106] Creating Layer loss2/drop_fc
I1126 10:28:58.028256 10394 net.cpp:454] loss2/drop_fc <- loss2/fc
I1126 10:28:58.028262 10394 net.cpp:397] loss2/drop_fc -> loss2/fc (in-place)
I1126 10:28:58.028290 10394 net.cpp:150] Setting up loss2/drop_fc
I1126 10:28:58.028295 10394 net.cpp:157] Top shape: 32 1024 (32768)
I1126 10:28:58.028300 10394 net.cpp:165] Memory required for data: 1611203332
I1126 10:28:58.092241 10394 layer_factory.hpp:76] Creating layer loss2/classifier2
I1126 10:28:58.092269 10394 net.cpp:106] Creating Layer loss2/classifier2
I1126 10:28:58.092285 10394 net.cpp:454] loss2/classifier2 <- loss2/fc
I1126 10:28:58.092299 10394 net.cpp:411] loss2/classifier2 -> loss2/classifier
I1126 10:28:58.092494 10394 net.cpp:150] Setting up loss2/classifier2
I1126 10:28:58.092516 10394 net.cpp:157] Top shape: 32 2 (64)
I1126 10:28:58.092530 10394 net.cpp:165] Memory required for data: 1611203588
I1126 10:28:58.092542 10394 layer_factory.hpp:76] Creating layer loss2/loss
I1126 10:28:58.092562 10394 net.cpp:106] Creating Layer loss2/loss
I1126 10:28:58.092577 10394 net.cpp:454] loss2/loss <- loss2/classifier
I1126 10:28:58.092586 10394 net.cpp:454] loss2/loss <- label_data_1_split_1
I1126 10:28:58.092603 10394 net.cpp:411] loss2/loss -> loss2/loss1
I1126 10:28:58.092624 10394 layer_factory.hpp:76] Creating layer loss2/loss
I1126 10:28:58.093011 10394 net.cpp:150] Setting up loss2/loss
I1126 10:28:58.093022 10394 net.cpp:157] Top shape: (1)
I1126 10:28:58.093026 10394 net.cpp:160]     with loss weight 0.3
I1126 10:28:58.093039 10394 net.cpp:165] Memory required for data: 1611203592
I1126 10:28:58.093044 10394 layer_factory.hpp:76] Creating layer inception_4e/1x1
I1126 10:28:58.093055 10394 net.cpp:106] Creating Layer inception_4e/1x1
I1126 10:28:58.093060 10394 net.cpp:454] inception_4e/1x1 <- inception_4d/output_inception_4d/output_0_split_1
I1126 10:28:58.093070 10394 net.cpp:411] inception_4e/1x1 -> inception_4e/1x1
I1126 10:28:58.097784 10394 cudnn_conv_layer.cpp:194] Reallocating workspace storage: 10080
I1126 10:28:58.097846 10394 net.cpp:150] Setting up inception_4e/1x1
I1126 10:28:58.097867 10394 net.cpp:157] Top shape: 32 256 14 14 (1605632)
I1126 10:28:58.097877 10394 net.cpp:165] Memory required for data: 1617626120
I1126 10:28:58.097893 10394 layer_factory.hpp:76] Creating layer inception_4e/prelu_1x1
I1126 10:28:58.097911 10394 net.cpp:106] Creating Layer inception_4e/prelu_1x1
I1126 10:28:58.097923 10394 net.cpp:454] inception_4e/prelu_1x1 <- inception_4e/1x1
I1126 10:28:58.097940 10394 net.cpp:397] inception_4e/prelu_1x1 -> inception_4e/1x1 (in-place)
I1126 10:28:58.098220 10394 net.cpp:150] Setting up inception_4e/prelu_1x1
I1126 10:28:58.098240 10394 net.cpp:157] Top shape: 32 256 14 14 (1605632)
I1126 10:28:58.098248 10394 net.cpp:165] Memory required for data: 1624048648
I1126 10:28:58.098261 10394 layer_factory.hpp:76] Creating layer inception_4e/3x3_reduce
I1126 10:28:58.098281 10394 net.cpp:106] Creating Layer inception_4e/3x3_reduce
I1126 10:28:58.098292 10394 net.cpp:454] inception_4e/3x3_reduce <- inception_4d/output_inception_4d/output_0_split_2
I1126 10:28:58.098309 10394 net.cpp:411] inception_4e/3x3_reduce -> inception_4e/3x3_reduce
I1126 10:28:58.101411 10394 cudnn_conv_layer.cpp:194] Reallocating workspace storage: 10080
I1126 10:28:58.101444 10394 net.cpp:150] Setting up inception_4e/3x3_reduce
I1126 10:28:58.101452 10394 net.cpp:157] Top shape: 32 160 14 14 (1003520)
I1126 10:28:58.101456 10394 net.cpp:165] Memory required for data: 1628062728
I1126 10:28:58.101464 10394 layer_factory.hpp:76] Creating layer inception_4e/prelu_3x3_reduce
I1126 10:28:58.101475 10394 net.cpp:106] Creating Layer inception_4e/prelu_3x3_reduce
I1126 10:28:58.101480 10394 net.cpp:454] inception_4e/prelu_3x3_reduce <- inception_4e/3x3_reduce
I1126 10:28:58.101486 10394 net.cpp:397] inception_4e/prelu_3x3_reduce -> inception_4e/3x3_reduce (in-place)
I1126 10:28:58.101619 10394 net.cpp:150] Setting up inception_4e/prelu_3x3_reduce
I1126 10:28:58.101632 10394 net.cpp:157] Top shape: 32 160 14 14 (1003520)
I1126 10:28:58.101640 10394 net.cpp:165] Memory required for data: 1632076808
I1126 10:28:58.101649 10394 layer_factory.hpp:76] Creating layer inception_4e/3x3
I1126 10:28:58.101666 10394 net.cpp:106] Creating Layer inception_4e/3x3
I1126 10:28:58.101675 10394 net.cpp:454] inception_4e/3x3 <- inception_4e/3x3_reduce
I1126 10:28:58.101683 10394 net.cpp:411] inception_4e/3x3 -> inception_4e/3x3
I1126 10:28:58.106724 10394 cudnn_conv_layer.cpp:194] Reallocating workspace storage: 10080
I1126 10:28:58.106770 10394 net.cpp:150] Setting up inception_4e/3x3
I1126 10:28:58.106782 10394 net.cpp:157] Top shape: 32 320 14 14 (2007040)
I1126 10:28:58.106787 10394 net.cpp:165] Memory required for data: 1640104968
I1126 10:28:58.106796 10394 layer_factory.hpp:76] Creating layer inception_4e/prelu_3x3
I1126 10:28:58.106808 10394 net.cpp:106] Creating Layer inception_4e/prelu_3x3
I1126 10:28:58.106814 10394 net.cpp:454] inception_4e/prelu_3x3 <- inception_4e/3x3
I1126 10:28:58.106823 10394 net.cpp:397] inception_4e/prelu_3x3 -> inception_4e/3x3 (in-place)
I1126 10:28:58.106988 10394 net.cpp:150] Setting up inception_4e/prelu_3x3
I1126 10:28:58.106997 10394 net.cpp:157] Top shape: 32 320 14 14 (2007040)
I1126 10:28:58.107002 10394 net.cpp:165] Memory required for data: 1648133128
I1126 10:28:58.107007 10394 layer_factory.hpp:76] Creating layer inception_4e/5x5_reduce
I1126 10:28:58.107018 10394 net.cpp:106] Creating Layer inception_4e/5x5_reduce
I1126 10:28:58.107023 10394 net.cpp:454] inception_4e/5x5_reduce <- inception_4d/output_inception_4d/output_0_split_3
I1126 10:28:58.107031 10394 net.cpp:411] inception_4e/5x5_reduce -> inception_4e/5x5_reduce
I1126 10:28:58.108481 10394 cudnn_conv_layer.cpp:194] Reallocating workspace storage: 10080
I1126 10:28:58.108518 10394 net.cpp:150] Setting up inception_4e/5x5_reduce
I1126 10:28:58.108527 10394 net.cpp:157] Top shape: 32 32 14 14 (200704)
I1126 10:28:58.108558 10394 net.cpp:165] Memory required for data: 1648935944
I1126 10:28:58.108568 10394 layer_factory.hpp:76] Creating layer inception_4e/prelu_5x5_reduce
I1126 10:28:58.108580 10394 net.cpp:106] Creating Layer inception_4e/prelu_5x5_reduce
I1126 10:28:58.108587 10394 net.cpp:454] inception_4e/prelu_5x5_reduce <- inception_4e/5x5_reduce
I1126 10:28:58.108594 10394 net.cpp:397] inception_4e/prelu_5x5_reduce -> inception_4e/5x5_reduce (in-place)
I1126 10:28:58.108723 10394 net.cpp:150] Setting up inception_4e/prelu_5x5_reduce
I1126 10:28:58.108732 10394 net.cpp:157] Top shape: 32 32 14 14 (200704)
I1126 10:28:58.108736 10394 net.cpp:165] Memory required for data: 1649738760
I1126 10:28:58.108742 10394 layer_factory.hpp:76] Creating layer inception_4e/5x5
I1126 10:28:58.108772 10394 net.cpp:106] Creating Layer inception_4e/5x5
I1126 10:28:58.108777 10394 net.cpp:454] inception_4e/5x5 <- inception_4e/5x5_reduce
I1126 10:28:58.108785 10394 net.cpp:411] inception_4e/5x5 -> inception_4e/5x5
I1126 10:28:58.111639 10394 cudnn_conv_layer.cpp:194] Reallocating workspace storage: 13080
I1126 10:28:58.111677 10394 net.cpp:150] Setting up inception_4e/5x5
I1126 10:28:58.111687 10394 net.cpp:157] Top shape: 32 128 14 14 (802816)
I1126 10:28:58.111691 10394 net.cpp:165] Memory required for data: 1652950024
I1126 10:28:58.111701 10394 layer_factory.hpp:76] Creating layer inception_4e/prelu_5x5
I1126 10:28:58.111712 10394 net.cpp:106] Creating Layer inception_4e/prelu_5x5
I1126 10:28:58.111718 10394 net.cpp:454] inception_4e/prelu_5x5 <- inception_4e/5x5
I1126 10:28:58.111726 10394 net.cpp:397] inception_4e/prelu_5x5 -> inception_4e/5x5 (in-place)
I1126 10:28:58.111852 10394 net.cpp:150] Setting up inception_4e/prelu_5x5
I1126 10:28:58.111861 10394 net.cpp:157] Top shape: 32 128 14 14 (802816)
I1126 10:28:58.111865 10394 net.cpp:165] Memory required for data: 1656161288
I1126 10:28:58.111871 10394 layer_factory.hpp:76] Creating layer inception_4e/pool
I1126 10:28:58.111878 10394 net.cpp:106] Creating Layer inception_4e/pool
I1126 10:28:58.111883 10394 net.cpp:454] inception_4e/pool <- inception_4d/output_inception_4d/output_0_split_4
I1126 10:28:58.111891 10394 net.cpp:411] inception_4e/pool -> inception_4e/pool
I1126 10:28:58.112350 10394 net.cpp:150] Setting up inception_4e/pool
I1126 10:28:58.112365 10394 net.cpp:157] Top shape: 32 528 14 14 (3311616)
I1126 10:28:58.112372 10394 net.cpp:165] Memory required for data: 1669407752
I1126 10:28:58.112380 10394 layer_factory.hpp:76] Creating layer inception_4e/pool_proj
I1126 10:28:58.112396 10394 net.cpp:106] Creating Layer inception_4e/pool_proj
I1126 10:28:58.112407 10394 net.cpp:454] inception_4e/pool_proj <- inception_4e/pool
I1126 10:28:58.112422 10394 net.cpp:411] inception_4e/pool_proj -> inception_4e/pool_proj
I1126 10:28:58.113777 10394 cudnn_conv_layer.cpp:194] Reallocating workspace storage: 10080
I1126 10:28:58.113813 10394 net.cpp:150] Setting up inception_4e/pool_proj
I1126 10:28:58.113821 10394 net.cpp:157] Top shape: 32 128 14 14 (802816)
I1126 10:28:58.113826 10394 net.cpp:165] Memory required for data: 1672619016
I1126 10:28:58.113833 10394 layer_factory.hpp:76] Creating layer inception_4e/prelu_pool_proj
I1126 10:28:58.113844 10394 net.cpp:106] Creating Layer inception_4e/prelu_pool_proj
I1126 10:28:58.113850 10394 net.cpp:454] inception_4e/prelu_pool_proj <- inception_4e/pool_proj
I1126 10:28:58.113857 10394 net.cpp:397] inception_4e/prelu_pool_proj -> inception_4e/pool_proj (in-place)
I1126 10:28:58.113981 10394 net.cpp:150] Setting up inception_4e/prelu_pool_proj
I1126 10:28:58.113988 10394 net.cpp:157] Top shape: 32 128 14 14 (802816)
I1126 10:28:58.113992 10394 net.cpp:165] Memory required for data: 1675830280
I1126 10:28:58.113998 10394 layer_factory.hpp:76] Creating layer inception_4e/output
I1126 10:28:58.114006 10394 net.cpp:106] Creating Layer inception_4e/output
I1126 10:28:58.114009 10394 net.cpp:454] inception_4e/output <- inception_4e/1x1
I1126 10:28:58.114015 10394 net.cpp:454] inception_4e/output <- inception_4e/3x3
I1126 10:28:58.114019 10394 net.cpp:454] inception_4e/output <- inception_4e/5x5
I1126 10:28:58.114043 10394 net.cpp:454] inception_4e/output <- inception_4e/pool_proj
I1126 10:28:58.114050 10394 net.cpp:411] inception_4e/output -> inception_4e/output
I1126 10:28:58.114080 10394 net.cpp:150] Setting up inception_4e/output
I1126 10:28:58.114087 10394 net.cpp:157] Top shape: 32 832 14 14 (5218304)
I1126 10:28:58.114091 10394 net.cpp:165] Memory required for data: 1696703496
I1126 10:28:58.114095 10394 layer_factory.hpp:76] Creating layer pool4/3x3_s2
I1126 10:28:58.114104 10394 net.cpp:106] Creating Layer pool4/3x3_s2
I1126 10:28:58.114109 10394 net.cpp:454] pool4/3x3_s2 <- inception_4e/output
I1126 10:28:58.114115 10394 net.cpp:411] pool4/3x3_s2 -> pool4/3x3_s2
I1126 10:28:58.114501 10394 net.cpp:150] Setting up pool4/3x3_s2
I1126 10:28:58.114511 10394 net.cpp:157] Top shape: 32 832 7 7 (1304576)
I1126 10:28:58.114516 10394 net.cpp:165] Memory required for data: 1701921800
I1126 10:28:58.114521 10394 layer_factory.hpp:76] Creating layer pool4/3x3_s2_pool4/3x3_s2_0_split
I1126 10:28:58.114531 10394 net.cpp:106] Creating Layer pool4/3x3_s2_pool4/3x3_s2_0_split
I1126 10:28:58.114534 10394 net.cpp:454] pool4/3x3_s2_pool4/3x3_s2_0_split <- pool4/3x3_s2
I1126 10:28:58.114540 10394 net.cpp:411] pool4/3x3_s2_pool4/3x3_s2_0_split -> pool4/3x3_s2_pool4/3x3_s2_0_split_0
I1126 10:28:58.114547 10394 net.cpp:411] pool4/3x3_s2_pool4/3x3_s2_0_split -> pool4/3x3_s2_pool4/3x3_s2_0_split_1
I1126 10:28:58.114557 10394 net.cpp:411] pool4/3x3_s2_pool4/3x3_s2_0_split -> pool4/3x3_s2_pool4/3x3_s2_0_split_2
I1126 10:28:58.114562 10394 net.cpp:411] pool4/3x3_s2_pool4/3x3_s2_0_split -> pool4/3x3_s2_pool4/3x3_s2_0_split_3
I1126 10:28:58.114629 10394 net.cpp:150] Setting up pool4/3x3_s2_pool4/3x3_s2_0_split
I1126 10:28:58.114636 10394 net.cpp:157] Top shape: 32 832 7 7 (1304576)
I1126 10:28:58.114642 10394 net.cpp:157] Top shape: 32 832 7 7 (1304576)
I1126 10:28:58.114646 10394 net.cpp:157] Top shape: 32 832 7 7 (1304576)
I1126 10:28:58.114651 10394 net.cpp:157] Top shape: 32 832 7 7 (1304576)
I1126 10:28:58.114655 10394 net.cpp:165] Memory required for data: 1722795016
I1126 10:28:58.114660 10394 layer_factory.hpp:76] Creating layer inception_5a/1x1
I1126 10:28:58.114668 10394 net.cpp:106] Creating Layer inception_5a/1x1
I1126 10:28:58.114673 10394 net.cpp:454] inception_5a/1x1 <- pool4/3x3_s2_pool4/3x3_s2_0_split_0
I1126 10:28:58.114681 10394 net.cpp:411] inception_5a/1x1 -> inception_5a/1x1
I1126 10:28:58.117838 10394 cudnn_conv_layer.cpp:194] Reallocating workspace storage: 7428
I1126 10:28:58.117885 10394 net.cpp:150] Setting up inception_5a/1x1
I1126 10:28:58.117897 10394 net.cpp:157] Top shape: 32 256 7 7 (401408)
I1126 10:28:58.117900 10394 net.cpp:165] Memory required for data: 1724400648
I1126 10:28:58.117909 10394 layer_factory.hpp:76] Creating layer inception_5a/prelu_1x1
I1126 10:28:58.117924 10394 net.cpp:106] Creating Layer inception_5a/prelu_1x1
I1126 10:28:58.117930 10394 net.cpp:454] inception_5a/prelu_1x1 <- inception_5a/1x1
I1126 10:28:58.117938 10394 net.cpp:397] inception_5a/prelu_1x1 -> inception_5a/1x1 (in-place)
I1126 10:28:58.118546 10394 net.cpp:150] Setting up inception_5a/prelu_1x1
I1126 10:28:58.118566 10394 net.cpp:157] Top shape: 32 256 7 7 (401408)
I1126 10:28:58.118569 10394 net.cpp:165] Memory required for data: 1726006280
I1126 10:28:58.118577 10394 layer_factory.hpp:76] Creating layer inception_5a/3x3_reduce
I1126 10:28:58.118587 10394 net.cpp:106] Creating Layer inception_5a/3x3_reduce
I1126 10:28:58.118592 10394 net.cpp:454] inception_5a/3x3_reduce <- pool4/3x3_s2_pool4/3x3_s2_0_split_1
I1126 10:28:58.118602 10394 net.cpp:411] inception_5a/3x3_reduce -> inception_5a/3x3_reduce
I1126 10:28:58.121220 10394 cudnn_conv_layer.cpp:194] Reallocating workspace storage: 7428
I1126 10:28:58.121271 10394 net.cpp:150] Setting up inception_5a/3x3_reduce
I1126 10:28:58.121281 10394 net.cpp:157] Top shape: 32 160 7 7 (250880)
I1126 10:28:58.121285 10394 net.cpp:165] Memory required for data: 1727009800
I1126 10:28:58.121294 10394 layer_factory.hpp:76] Creating layer inception_5a/prelu_3x3_reduce
I1126 10:28:58.121335 10394 net.cpp:106] Creating Layer inception_5a/prelu_3x3_reduce
I1126 10:28:58.121343 10394 net.cpp:454] inception_5a/prelu_3x3_reduce <- inception_5a/3x3_reduce
I1126 10:28:58.121351 10394 net.cpp:397] inception_5a/prelu_3x3_reduce -> inception_5a/3x3_reduce (in-place)
I1126 10:28:58.121469 10394 net.cpp:150] Setting up inception_5a/prelu_3x3_reduce
I1126 10:28:58.121477 10394 net.cpp:157] Top shape: 32 160 7 7 (250880)
I1126 10:28:58.121481 10394 net.cpp:165] Memory required for data: 1728013320
I1126 10:28:58.121486 10394 layer_factory.hpp:76] Creating layer inception_5a/3x3
I1126 10:28:58.121497 10394 net.cpp:106] Creating Layer inception_5a/3x3
I1126 10:28:58.121502 10394 net.cpp:454] inception_5a/3x3 <- inception_5a/3x3_reduce
I1126 10:28:58.121511 10394 net.cpp:411] inception_5a/3x3 -> inception_5a/3x3
I1126 10:28:58.126390 10394 cudnn_conv_layer.cpp:194] Reallocating workspace storage: 7788
I1126 10:28:58.126446 10394 net.cpp:150] Setting up inception_5a/3x3
I1126 10:28:58.126458 10394 net.cpp:157] Top shape: 32 320 7 7 (501760)
I1126 10:28:58.126463 10394 net.cpp:165] Memory required for data: 1730020360
I1126 10:28:58.126472 10394 layer_factory.hpp:76] Creating layer inception_5a/prelu_3x3
I1126 10:28:58.126487 10394 net.cpp:106] Creating Layer inception_5a/prelu_3x3
I1126 10:28:58.126494 10394 net.cpp:454] inception_5a/prelu_3x3 <- inception_5a/3x3
I1126 10:28:58.126503 10394 net.cpp:397] inception_5a/prelu_3x3 -> inception_5a/3x3 (in-place)
I1126 10:28:58.126644 10394 net.cpp:150] Setting up inception_5a/prelu_3x3
I1126 10:28:58.126657 10394 net.cpp:157] Top shape: 32 320 7 7 (501760)
I1126 10:28:58.126662 10394 net.cpp:165] Memory required for data: 1732027400
I1126 10:28:58.126668 10394 layer_factory.hpp:76] Creating layer inception_5a/5x5_reduce
I1126 10:28:58.126683 10394 net.cpp:106] Creating Layer inception_5a/5x5_reduce
I1126 10:28:58.126690 10394 net.cpp:454] inception_5a/5x5_reduce <- pool4/3x3_s2_pool4/3x3_s2_0_split_2
I1126 10:28:58.126698 10394 net.cpp:411] inception_5a/5x5_reduce -> inception_5a/5x5_reduce
I1126 10:28:58.128034 10394 cudnn_conv_layer.cpp:194] Reallocating workspace storage: 7428
I1126 10:28:58.128067 10394 net.cpp:150] Setting up inception_5a/5x5_reduce
I1126 10:28:58.128075 10394 net.cpp:157] Top shape: 32 32 7 7 (50176)
I1126 10:28:58.128079 10394 net.cpp:165] Memory required for data: 1732228104
I1126 10:28:58.128087 10394 layer_factory.hpp:76] Creating layer inception_5a/prelu_5x5_reduce
I1126 10:28:58.128096 10394 net.cpp:106] Creating Layer inception_5a/prelu_5x5_reduce
I1126 10:28:58.128105 10394 net.cpp:454] inception_5a/prelu_5x5_reduce <- inception_5a/5x5_reduce
I1126 10:28:58.128119 10394 net.cpp:397] inception_5a/prelu_5x5_reduce -> inception_5a/5x5_reduce (in-place)
I1126 10:28:58.128274 10394 net.cpp:150] Setting up inception_5a/prelu_5x5_reduce
I1126 10:28:58.128290 10394 net.cpp:157] Top shape: 32 32 7 7 (50176)
I1126 10:28:58.128298 10394 net.cpp:165] Memory required for data: 1732428808
I1126 10:28:58.128309 10394 layer_factory.hpp:76] Creating layer inception_5a/5x5
I1126 10:28:58.128324 10394 net.cpp:106] Creating Layer inception_5a/5x5
I1126 10:28:58.128334 10394 net.cpp:454] inception_5a/5x5 <- inception_5a/5x5_reduce
I1126 10:28:58.128345 10394 net.cpp:411] inception_5a/5x5 -> inception_5a/5x5
I1126 10:28:58.130349 10394 cudnn_conv_layer.cpp:194] Reallocating workspace storage: 9804
I1126 10:28:58.130395 10394 net.cpp:150] Setting up inception_5a/5x5
I1126 10:28:58.130405 10394 net.cpp:157] Top shape: 32 128 7 7 (200704)
I1126 10:28:58.130410 10394 net.cpp:165] Memory required for data: 1733231624
I1126 10:28:58.130419 10394 layer_factory.hpp:76] Creating layer inception_5a/prelu_5x5
I1126 10:28:58.130431 10394 net.cpp:106] Creating Layer inception_5a/prelu_5x5
I1126 10:28:58.130437 10394 net.cpp:454] inception_5a/prelu_5x5 <- inception_5a/5x5
I1126 10:28:58.130446 10394 net.cpp:397] inception_5a/prelu_5x5 -> inception_5a/5x5 (in-place)
I1126 10:28:58.130563 10394 net.cpp:150] Setting up inception_5a/prelu_5x5
I1126 10:28:58.130596 10394 net.cpp:157] Top shape: 32 128 7 7 (200704)
I1126 10:28:58.130600 10394 net.cpp:165] Memory required for data: 1734034440
I1126 10:28:58.130606 10394 layer_factory.hpp:76] Creating layer inception_5a/pool
I1126 10:28:58.130614 10394 net.cpp:106] Creating Layer inception_5a/pool
I1126 10:28:58.130620 10394 net.cpp:454] inception_5a/pool <- pool4/3x3_s2_pool4/3x3_s2_0_split_3
I1126 10:28:58.130627 10394 net.cpp:411] inception_5a/pool -> inception_5a/pool
I1126 10:28:58.130836 10394 net.cpp:150] Setting up inception_5a/pool
I1126 10:28:58.130846 10394 net.cpp:157] Top shape: 32 832 7 7 (1304576)
I1126 10:28:58.130852 10394 net.cpp:165] Memory required for data: 1739252744
I1126 10:28:58.130857 10394 layer_factory.hpp:76] Creating layer inception_5a/pool_proj
I1126 10:28:58.130867 10394 net.cpp:106] Creating Layer inception_5a/pool_proj
I1126 10:28:58.130872 10394 net.cpp:454] inception_5a/pool_proj <- inception_5a/pool
I1126 10:28:58.130879 10394 net.cpp:411] inception_5a/pool_proj -> inception_5a/pool_proj
I1126 10:28:58.133496 10394 cudnn_conv_layer.cpp:194] Reallocating workspace storage: 7428
I1126 10:28:58.133564 10394 net.cpp:150] Setting up inception_5a/pool_proj
I1126 10:28:58.133584 10394 net.cpp:157] Top shape: 32 128 7 7 (200704)
I1126 10:28:58.133591 10394 net.cpp:165] Memory required for data: 1740055560
I1126 10:28:58.133607 10394 layer_factory.hpp:76] Creating layer inception_5a/prelu_pool_proj
I1126 10:28:58.133627 10394 net.cpp:106] Creating Layer inception_5a/prelu_pool_proj
I1126 10:28:58.133640 10394 net.cpp:454] inception_5a/prelu_pool_proj <- inception_5a/pool_proj
I1126 10:28:58.133654 10394 net.cpp:397] inception_5a/prelu_pool_proj -> inception_5a/pool_proj (in-place)
I1126 10:28:58.133779 10394 net.cpp:150] Setting up inception_5a/prelu_pool_proj
I1126 10:28:58.133788 10394 net.cpp:157] Top shape: 32 128 7 7 (200704)
I1126 10:28:58.133792 10394 net.cpp:165] Memory required for data: 1740858376
I1126 10:28:58.133798 10394 layer_factory.hpp:76] Creating layer inception_5a/output
I1126 10:28:58.133806 10394 net.cpp:106] Creating Layer inception_5a/output
I1126 10:28:58.133812 10394 net.cpp:454] inception_5a/output <- inception_5a/1x1
I1126 10:28:58.133818 10394 net.cpp:454] inception_5a/output <- inception_5a/3x3
I1126 10:28:58.133822 10394 net.cpp:454] inception_5a/output <- inception_5a/5x5
I1126 10:28:58.133827 10394 net.cpp:454] inception_5a/output <- inception_5a/pool_proj
I1126 10:28:58.133832 10394 net.cpp:411] inception_5a/output -> inception_5a/output
I1126 10:28:58.133864 10394 net.cpp:150] Setting up inception_5a/output
I1126 10:28:58.133872 10394 net.cpp:157] Top shape: 32 832 7 7 (1304576)
I1126 10:28:58.133877 10394 net.cpp:165] Memory required for data: 1746076680
I1126 10:28:58.133880 10394 layer_factory.hpp:76] Creating layer inception_5a/output_inception_5a/output_0_split
I1126 10:28:58.133888 10394 net.cpp:106] Creating Layer inception_5a/output_inception_5a/output_0_split
I1126 10:28:58.133893 10394 net.cpp:454] inception_5a/output_inception_5a/output_0_split <- inception_5a/output
I1126 10:28:58.133900 10394 net.cpp:411] inception_5a/output_inception_5a/output_0_split -> inception_5a/output_inception_5a/output_0_split_0
I1126 10:28:58.133908 10394 net.cpp:411] inception_5a/output_inception_5a/output_0_split -> inception_5a/output_inception_5a/output_0_split_1
I1126 10:28:58.133915 10394 net.cpp:411] inception_5a/output_inception_5a/output_0_split -> inception_5a/output_inception_5a/output_0_split_2
I1126 10:28:58.133922 10394 net.cpp:411] inception_5a/output_inception_5a/output_0_split -> inception_5a/output_inception_5a/output_0_split_3
I1126 10:28:58.133990 10394 net.cpp:150] Setting up inception_5a/output_inception_5a/output_0_split
I1126 10:28:58.133998 10394 net.cpp:157] Top shape: 32 832 7 7 (1304576)
I1126 10:28:58.134003 10394 net.cpp:157] Top shape: 32 832 7 7 (1304576)
I1126 10:28:58.134008 10394 net.cpp:157] Top shape: 32 832 7 7 (1304576)
I1126 10:28:58.134012 10394 net.cpp:157] Top shape: 32 832 7 7 (1304576)
I1126 10:28:58.134037 10394 net.cpp:165] Memory required for data: 1766949896
I1126 10:28:58.134042 10394 layer_factory.hpp:76] Creating layer inception_5b/1x1
I1126 10:28:58.134052 10394 net.cpp:106] Creating Layer inception_5b/1x1
I1126 10:28:58.134057 10394 net.cpp:454] inception_5b/1x1 <- inception_5a/output_inception_5a/output_0_split_0
I1126 10:28:58.134065 10394 net.cpp:411] inception_5b/1x1 -> inception_5b/1x1
I1126 10:28:58.138108 10394 cudnn_conv_layer.cpp:194] Reallocating workspace storage: 7428
I1126 10:28:58.138159 10394 net.cpp:150] Setting up inception_5b/1x1
I1126 10:28:58.138169 10394 net.cpp:157] Top shape: 32 384 7 7 (602112)
I1126 10:28:58.138173 10394 net.cpp:165] Memory required for data: 1769358344
I1126 10:28:58.138182 10394 layer_factory.hpp:76] Creating layer inception_5b/prelu_1x1
I1126 10:28:58.138195 10394 net.cpp:106] Creating Layer inception_5b/prelu_1x1
I1126 10:28:58.138201 10394 net.cpp:454] inception_5b/prelu_1x1 <- inception_5b/1x1
I1126 10:28:58.138209 10394 net.cpp:397] inception_5b/prelu_1x1 -> inception_5b/1x1 (in-place)
I1126 10:28:58.138844 10394 net.cpp:150] Setting up inception_5b/prelu_1x1
I1126 10:28:58.138860 10394 net.cpp:157] Top shape: 32 384 7 7 (602112)
I1126 10:28:58.138864 10394 net.cpp:165] Memory required for data: 1771766792
I1126 10:28:58.138870 10394 layer_factory.hpp:76] Creating layer inception_5b/3x3_reduce
I1126 10:28:58.138883 10394 net.cpp:106] Creating Layer inception_5b/3x3_reduce
I1126 10:28:58.138890 10394 net.cpp:454] inception_5b/3x3_reduce <- inception_5a/output_inception_5a/output_0_split_1
I1126 10:28:58.138897 10394 net.cpp:411] inception_5b/3x3_reduce -> inception_5b/3x3_reduce
I1126 10:28:58.141862 10394 cudnn_conv_layer.cpp:194] Reallocating workspace storage: 7428
I1126 10:28:58.141922 10394 net.cpp:150] Setting up inception_5b/3x3_reduce
I1126 10:28:58.141934 10394 net.cpp:157] Top shape: 32 192 7 7 (301056)
I1126 10:28:58.141939 10394 net.cpp:165] Memory required for data: 1772971016
I1126 10:28:58.141959 10394 layer_factory.hpp:76] Creating layer inception_5b/prelu_3x3_reduce
I1126 10:28:58.141971 10394 net.cpp:106] Creating Layer inception_5b/prelu_3x3_reduce
I1126 10:28:58.141978 10394 net.cpp:454] inception_5b/prelu_3x3_reduce <- inception_5b/3x3_reduce
I1126 10:28:58.141986 10394 net.cpp:397] inception_5b/prelu_3x3_reduce -> inception_5b/3x3_reduce (in-place)
I1126 10:28:58.142112 10394 net.cpp:150] Setting up inception_5b/prelu_3x3_reduce
I1126 10:28:58.142120 10394 net.cpp:157] Top shape: 32 192 7 7 (301056)
I1126 10:28:58.142124 10394 net.cpp:165] Memory required for data: 1774175240
I1126 10:28:58.142129 10394 layer_factory.hpp:76] Creating layer inception_5b/3x3
I1126 10:28:58.142140 10394 net.cpp:106] Creating Layer inception_5b/3x3
I1126 10:28:58.142145 10394 net.cpp:454] inception_5b/3x3 <- inception_5b/3x3_reduce
I1126 10:28:58.142151 10394 net.cpp:411] inception_5b/3x3 -> inception_5b/3x3
I1126 10:28:58.148188 10394 cudnn_conv_layer.cpp:194] Reallocating workspace storage: 7788
I1126 10:28:58.148237 10394 net.cpp:150] Setting up inception_5b/3x3
I1126 10:28:58.148249 10394 net.cpp:157] Top shape: 32 384 7 7 (602112)
I1126 10:28:58.148254 10394 net.cpp:165] Memory required for data: 1776583688
I1126 10:28:58.148263 10394 layer_factory.hpp:76] Creating layer inception_5b/prelu_3x3
I1126 10:28:58.148277 10394 net.cpp:106] Creating Layer inception_5b/prelu_3x3
I1126 10:28:58.148283 10394 net.cpp:454] inception_5b/prelu_3x3 <- inception_5b/3x3
I1126 10:28:58.148291 10394 net.cpp:397] inception_5b/prelu_3x3 -> inception_5b/3x3 (in-place)
I1126 10:28:58.148411 10394 net.cpp:150] Setting up inception_5b/prelu_3x3
I1126 10:28:58.148419 10394 net.cpp:157] Top shape: 32 384 7 7 (602112)
I1126 10:28:58.148423 10394 net.cpp:165] Memory required for data: 1778992136
I1126 10:28:58.148428 10394 layer_factory.hpp:76] Creating layer inception_5b/5x5_reduce
I1126 10:28:58.148439 10394 net.cpp:106] Creating Layer inception_5b/5x5_reduce
I1126 10:28:58.148444 10394 net.cpp:454] inception_5b/5x5_reduce <- inception_5a/output_inception_5a/output_0_split_2
I1126 10:28:58.148471 10394 net.cpp:411] inception_5b/5x5_reduce -> inception_5b/5x5_reduce
I1126 10:28:58.149682 10394 cudnn_conv_layer.cpp:194] Reallocating workspace storage: 7428
I1126 10:28:58.149706 10394 net.cpp:150] Setting up inception_5b/5x5_reduce
I1126 10:28:58.149715 10394 net.cpp:157] Top shape: 32 48 7 7 (75264)
I1126 10:28:58.149719 10394 net.cpp:165] Memory required for data: 1779293192
I1126 10:28:58.149726 10394 layer_factory.hpp:76] Creating layer inception_5b/prelu_5x5_reduce
I1126 10:28:58.149734 10394 net.cpp:106] Creating Layer inception_5b/prelu_5x5_reduce
I1126 10:28:58.149739 10394 net.cpp:454] inception_5b/prelu_5x5_reduce <- inception_5b/5x5_reduce
I1126 10:28:58.149746 10394 net.cpp:397] inception_5b/prelu_5x5_reduce -> inception_5b/5x5_reduce (in-place)
I1126 10:28:58.149860 10394 net.cpp:150] Setting up inception_5b/prelu_5x5_reduce
I1126 10:28:58.149868 10394 net.cpp:157] Top shape: 32 48 7 7 (75264)
I1126 10:28:58.149873 10394 net.cpp:165] Memory required for data: 1779594248
I1126 10:28:58.149878 10394 layer_factory.hpp:76] Creating layer inception_5b/5x5
I1126 10:28:58.149886 10394 net.cpp:106] Creating Layer inception_5b/5x5
I1126 10:28:58.149891 10394 net.cpp:454] inception_5b/5x5 <- inception_5b/5x5_reduce
I1126 10:28:58.149898 10394 net.cpp:411] inception_5b/5x5 -> inception_5b/5x5
I1126 10:28:58.152055 10394 cudnn_conv_layer.cpp:194] Reallocating workspace storage: 9804
I1126 10:28:58.152084 10394 net.cpp:150] Setting up inception_5b/5x5
I1126 10:28:58.152093 10394 net.cpp:157] Top shape: 32 128 7 7 (200704)
I1126 10:28:58.152097 10394 net.cpp:165] Memory required for data: 1780397064
I1126 10:28:58.152104 10394 layer_factory.hpp:76] Creating layer inception_5b/prelu_5x5
I1126 10:28:58.152112 10394 net.cpp:106] Creating Layer inception_5b/prelu_5x5
I1126 10:28:58.152117 10394 net.cpp:454] inception_5b/prelu_5x5 <- inception_5b/5x5
I1126 10:28:58.152125 10394 net.cpp:397] inception_5b/prelu_5x5 -> inception_5b/5x5 (in-place)
I1126 10:28:58.152237 10394 net.cpp:150] Setting up inception_5b/prelu_5x5
I1126 10:28:58.152245 10394 net.cpp:157] Top shape: 32 128 7 7 (200704)
I1126 10:28:58.152250 10394 net.cpp:165] Memory required for data: 1781199880
I1126 10:28:58.152254 10394 layer_factory.hpp:76] Creating layer inception_5b/pool
I1126 10:28:58.152262 10394 net.cpp:106] Creating Layer inception_5b/pool
I1126 10:28:58.152266 10394 net.cpp:454] inception_5b/pool <- inception_5a/output_inception_5a/output_0_split_3
I1126 10:28:58.152272 10394 net.cpp:411] inception_5b/pool -> inception_5b/pool
I1126 10:28:58.152657 10394 net.cpp:150] Setting up inception_5b/pool
I1126 10:28:58.152667 10394 net.cpp:157] Top shape: 32 832 7 7 (1304576)
I1126 10:28:58.152672 10394 net.cpp:165] Memory required for data: 1786418184
I1126 10:28:58.152675 10394 layer_factory.hpp:76] Creating layer inception_5b/pool_proj
I1126 10:28:58.152685 10394 net.cpp:106] Creating Layer inception_5b/pool_proj
I1126 10:28:58.152690 10394 net.cpp:454] inception_5b/pool_proj <- inception_5b/pool
I1126 10:28:58.152698 10394 net.cpp:411] inception_5b/pool_proj -> inception_5b/pool_proj
I1126 10:28:58.155256 10394 cudnn_conv_layer.cpp:194] Reallocating workspace storage: 7428
I1126 10:28:58.155334 10394 net.cpp:150] Setting up inception_5b/pool_proj
I1126 10:28:58.155347 10394 net.cpp:157] Top shape: 32 128 7 7 (200704)
I1126 10:28:58.155352 10394 net.cpp:165] Memory required for data: 1787221000
I1126 10:28:58.155362 10394 layer_factory.hpp:76] Creating layer inception_5b/prelu_pool_proj
I1126 10:28:58.155383 10394 net.cpp:106] Creating Layer inception_5b/prelu_pool_proj
I1126 10:28:58.155390 10394 net.cpp:454] inception_5b/prelu_pool_proj <- inception_5b/pool_proj
I1126 10:28:58.155400 10394 net.cpp:397] inception_5b/prelu_pool_proj -> inception_5b/pool_proj (in-place)
I1126 10:28:58.155529 10394 net.cpp:150] Setting up inception_5b/prelu_pool_proj
I1126 10:28:58.155537 10394 net.cpp:157] Top shape: 32 128 7 7 (200704)
I1126 10:28:58.155541 10394 net.cpp:165] Memory required for data: 1788023816
I1126 10:28:58.155546 10394 layer_factory.hpp:76] Creating layer inception_5b/output
I1126 10:28:58.155576 10394 net.cpp:106] Creating Layer inception_5b/output
I1126 10:28:58.155582 10394 net.cpp:454] inception_5b/output <- inception_5b/1x1
I1126 10:28:58.155588 10394 net.cpp:454] inception_5b/output <- inception_5b/3x3
I1126 10:28:58.155593 10394 net.cpp:454] inception_5b/output <- inception_5b/5x5
I1126 10:28:58.155598 10394 net.cpp:454] inception_5b/output <- inception_5b/pool_proj
I1126 10:28:58.155603 10394 net.cpp:411] inception_5b/output -> inception_5b/output
I1126 10:28:58.155649 10394 net.cpp:150] Setting up inception_5b/output
I1126 10:28:58.155658 10394 net.cpp:157] Top shape: 32 1024 7 7 (1605632)
I1126 10:28:58.155661 10394 net.cpp:165] Memory required for data: 1794446344
I1126 10:28:58.155665 10394 layer_factory.hpp:76] Creating layer pool5/7x7_s1
I1126 10:28:58.155673 10394 net.cpp:106] Creating Layer pool5/7x7_s1
I1126 10:28:58.155678 10394 net.cpp:454] pool5/7x7_s1 <- inception_5b/output
I1126 10:28:58.155685 10394 net.cpp:411] pool5/7x7_s1 -> pool5/7x7_s1
I1126 10:28:58.155875 10394 net.cpp:150] Setting up pool5/7x7_s1
I1126 10:28:58.155886 10394 net.cpp:157] Top shape: 32 1024 1 1 (32768)
I1126 10:28:58.155890 10394 net.cpp:165] Memory required for data: 1794577416
I1126 10:28:58.155894 10394 layer_factory.hpp:76] Creating layer pool5/drop_7x7_s1
I1126 10:28:58.155901 10394 net.cpp:106] Creating Layer pool5/drop_7x7_s1
I1126 10:28:58.155905 10394 net.cpp:454] pool5/drop_7x7_s1 <- pool5/7x7_s1
I1126 10:28:58.155911 10394 net.cpp:397] pool5/drop_7x7_s1 -> pool5/7x7_s1 (in-place)
I1126 10:28:58.155944 10394 net.cpp:150] Setting up pool5/drop_7x7_s1
I1126 10:28:58.155951 10394 net.cpp:157] Top shape: 32 1024 1 1 (32768)
I1126 10:28:58.155956 10394 net.cpp:165] Memory required for data: 1794708488
I1126 10:28:58.155959 10394 layer_factory.hpp:76] Creating layer loss3/classifier2
I1126 10:28:58.155967 10394 net.cpp:106] Creating Layer loss3/classifier2
I1126 10:28:58.155972 10394 net.cpp:454] loss3/classifier2 <- pool5/7x7_s1
I1126 10:28:58.155978 10394 net.cpp:411] loss3/classifier2 -> loss3/classifier
I1126 10:28:58.156133 10394 net.cpp:150] Setting up loss3/classifier2
I1126 10:28:58.156141 10394 net.cpp:157] Top shape: 32 2 (64)
I1126 10:28:58.156146 10394 net.cpp:165] Memory required for data: 1794708744
I1126 10:28:58.156152 10394 layer_factory.hpp:76] Creating layer loss3/loss3
I1126 10:28:58.156159 10394 net.cpp:106] Creating Layer loss3/loss3
I1126 10:28:58.156163 10394 net.cpp:454] loss3/loss3 <- loss3/classifier
I1126 10:28:58.156168 10394 net.cpp:454] loss3/loss3 <- label_data_1_split_2
I1126 10:28:58.156175 10394 net.cpp:411] loss3/loss3 -> loss3/loss3
…
I1126 10:28:58.167161 10394 net.cpp:322] The NetState phase (1) differed from the phase (0) specified by a rule in layer data
I1126 10:28:58.168292 10394 net.cpp:49] Initializing net from parameters: 
name: "GoogleNet"
state {
  phase: TEST
}
layer {
  name: "data"
  type: "Data"
  top: "data"
  top: "label"
  include {
    phase: TEST
  }
  transform_param {
    mirror: false
    crop_size: 224
    mean_value: 104
    mean_value: 117
    mean_value: 123
  }
  data_param {
    source: "../../LMDB/val_6-lmdb"
    batch_size: 50
    backend: LMDB
  }
}
layer {
  name: "conv1/7x7_s2"
  type: "Convolution"
  bottom: "data"
  top: "conv1/7x7_s2"
  param {
    lr_mult: 1
    decay_mult: 1
  }
  param {
    lr_mult: 2
    decay_mult: 0
  }
  convolution_param {
    num_output: 64
    pad: 3
    kernel_size: 7
    stride: 2
    weight_filler {
      type: "xavier"
    }
    bias_filler {
      type: "constant"
      value: 0.2
    }
  }
}
layer {
  name: "conv1/prelu_7x7"
  type: "PReLU"
  bottom: "conv1/7x7_s2"
  top: "conv1/7x7_s2"
  param {
    lr_mult: 1
    decay_mult: 0
  }
  prelu_param {
    filler {
      type: "constant"
      value: 0.01
    }
  }
}
layer {
  name: "pool1/3x3_s2"
  type: "Pooling"
  bottom: "conv1/7x7_s2"
  top: "pool1/3x3_s2"
  pooling_param {
    pool: MAX
    kernel_size: 3
    stride: 2
  }
}
layer {
  name: "pool1/norm1"
  type: "LRN"
  bottom: "pool1/3x3_s2"
  top: "pool1/norm1"
  lrn_param {
    local_size: 5
    alpha: 0.0001
    beta: 0.75
  }
}
layer {
  name: "conv2/3x3_reduce"
  type: "Convolution"
  bottom: "pool1/norm1"
  top: "conv2/3x3_reduce"
  param {
    lr_mult: 1
    decay_mult: 1
  }
  param {
    lr_mult: 2
    decay_mult: 0
  }
  convolution_param {
    num_output: 64
    kernel_size: 1
    weight_filler {
      type: "xavier"
    }
    bias_filler {
      type: "constant"
      value: 0.2
    }
  }
}
layer {
  name: "conv2/prelu_3x3_reduce"
  type: "PReLU"
  bottom: "conv2/3x3_reduce"
  top: "conv2/3x3_reduce"
  param {
    lr_mult: 1
    decay_mult: 0
  }
  prelu_param {
    filler {
      type: "constant"
      value: 0.01
    }
  }
}
layer {
  name: "conv2/3x3"
  type: "Convolution"
  bottom: "conv2/3x3_reduce"
  top: "conv2/3x3"
  param {
    lr_mult: 1
    decay_mult: 1
  }
  param {
    lr_mult: 2
    decay_mult: 0
  }
  convolution_param {
    num_output: 192
    pad: 1
    kernel_size: 3
    weight_filler {
      type: "xavier"
    }
    bias_filler {
      type: "constant"
      value: 0.2
    }
  }
}
layer {
  name: "conv2/prelu_3x3"
  type: "PReLU"
  bottom: "conv2/3x3"
  top: "conv2/3x3"
  param {
    lr_mult: 1
    decay_mult: 0
  }
  prelu_param {
    filler {
      type: "constant"
      value: 0.01
    }
  }
}
layer {
  name: "conv2/norm2"
  type: "LRN"
  bottom: "conv2/3x3"
  top: "conv2/norm2"
  lrn_param {
    local_size: 5
    alpha: 0.0001
    beta: 0.75
  }
}
layer {
  name: "pool2/3x3_s2"
  type: "Pooling"
  bottom: "conv2/norm2"
  top: "pool2/3x3_s2"
  pooling_param {
    pool: MAX
    kernel_size: 3
    stride: 2
  }
}
layer {
  name: "inception_3a/1x1"
  type: "Convolution"
  bottom: "pool2/3x3_s2"
  top: "inception_3a/1x1"
  param {
    lr_mult: 1
    decay_mult: 1
  }
  param {
    lr_mult: 2
    decay_mult: 0
  }
  convolution_param {
    num_output: 64
    kernel_size: 1
    weight_filler {
      type: "xavier"
    }
    bias_filler {
      type: "constant"
      value: 0.2
    }
  }
}
layer {
  name: "inception_3a/prelu_1x1"
  type: "PReLU"
  bottom: "inception_3a/1x1"
  top: "inception_3a/1x1"
  param {
    lr_mult: 1
    decay_mult: 0
  }
  prelu_param {
    filler {
      type: "constant"
      value: 0.01
    }
  }
}
layer {
  name: "inception_3a/3x3_reduce"
  type: "Convolution"
  bottom: "pool2/3x3_s2"
  top: "inception_3a/3x3_reduce"
  param {
    lr_mult: 1
    decay_mult: 1
  }
  param {
    lr_mult: 2
    decay_mult: 0
  }
  convolution_param {
    num_output: 96
    kernel_size: 1
    weight_filler {
      type: "xavier"
    }
    bias_filler {
      type: "constant"
      value: 0.2
    }
  }
}
layer {
  name: "inception_3a/prelu_3x3_reduce"
  type: "PReLU"
  bottom: "inception_3a/3x3_reduce"
  top: "inception_3a/3x3_reduce"
  param {
    lr_mult: 1
    decay_mult: 0
  }
  prelu_param {
    filler {
      type: "constant"
      value: 0.01
    }
  }
}
layer {
  name: "inception_3a/3x3"
  type: "Convolution"
  bottom: "inception_3a/3x3_reduce"
  top: "inception_3a/3x3"
  param {
    lr_mult: 1
    decay_mult: 1
  }
  param {
    lr_mult: 2
    decay_mult: 0
  }
  convolution_param {
    num_output: 128
    pad: 1
    kernel_size: 3
    weight_filler {
      type: "xavier"
    }
    bias_filler {
      type: "constant"
      value: 0.2
    }
  }
}
layer {
  name: "inception_3a/prelu_3x3"
  type: "PReLU"
  bottom: "inception_3a/3x3"
  top: "inception_3a/3x3"
  param {
    lr_mult: 1
    decay_mult: 0
  }
  prelu_param {
    filler {
      type: "constant"
      value: 0.01
    }
  }
}
layer {
  name: "inception_3a/5x5_reduce"
  type: "Convolution"
  bottom: "pool2/3x3_s2"
  top: "inception_3a/5x5_reduce"
  param {
    lr_mult: 1
    decay_mult: 1
  }
  param {
    lr_mult: 2
    decay_mult: 0
  }
  convolution_param {
    num_output: 16
    kernel_size: 1
    weight_filler {
      type: "xavier"
    }
    bias_filler {
      type: "constant"
      value: 0.2
    }
  }
}
layer {
  name: "inception_3a/prelu_5x5_reduce"
  type: "PReLU"
  bottom: "inception_3a/5x5_reduce"
  top: "inception_3a/5x5_reduce"
  param {
    lr_mult: 1
    decay_mult: 0
  }
  prelu_param {
    filler {
      type: "constant"
      value: 0.01
    }
  }
}
layer {
  name: "inception_3a/5x5"
  type: "Convolution"
  bottom: "inception_3a/5x5_reduce"
  top: "inception_3a/5x5"
  param {
    lr_mult: 1
    decay_mult: 1
  }
  param {
    lr_mult: 2
    decay_mult: 0
  }
  convolution_param {
    num_output: 32
    pad: 2
    kernel_size: 5
    weight_filler {
      type: "xavier"
    }
    bias_filler {
      type: "constant"
      value: 0.2
    }
  }
}
layer {
  name: "inception_3a/prelu_5x5"
  type: "PReLU"
  bottom: "inception_3a/5x5"
  top: "inception_3a/5x5"
  param {
    lr_mult: 1
    decay_mult: 0
  }
  prelu_param {
    filler {
      type: "constant"
      value: 0.01
    }
  }
}
layer {
  name: "inception_3a/pool"
  type: "Pooling"
  bottom: "pool2/3x3_s2"
  top: "inception_3a/pool"
  pooling_param {
    pool: MAX
    kernel_size: 3
    stride: 1
    pad: 1
  }
}
layer {
  name: "inception_3a/pool_proj"
  type: "Convolution"
  bottom: "inception_3a/pool"
  top: "inception_3a/pool_proj"
  param {
    lr_mult: 1
    decay_mult: 1
  }
  param {
    lr_mult: 2
    decay_mult: 0
  }
  convolution_param {
    num_output: 32
    kernel_size: 1
    weight_filler {
      type: "xavier"
    }
    bias_filler {
      type: "constant"
      value: 0.2
    }
  }
}
layer {
  name: "inception_3a/prelu_pool_proj"
  type: "PReLU"
  bottom: "inception_3a/pool_proj"
  top: "inception_3a/pool_proj"
  param {
    lr_mult: 1
    decay_mult: 0
  }
  prelu_param {
    filler {
      type: "constant"
      value: 0.01
    }
  }
}
layer {
  name: "inception_3a/output"
  type: "Concat"
  bottom: "inception_3a/1x1"
  bottom: "inception_3a/3x3"
  bottom: "inception_3a/5x5"
  bottom: "inception_3a/pool_proj"
  top: "inception_3a/output"
}
layer {
  name: "inception_3b/1x1"
  type: "Convolution"
  bottom: "inception_3a/output"
  top: "inception_3b/1x1"
  param {
    lr_mult: 1
    decay_mult: 1
  }
  param {
    lr_mult: 2
    decay_mult: 0
  }
  convolution_param {
    num_output: 128
    kernel_size: 1
    weight_filler {
      type: "xavier"
    }
    bias_filler {
      type: "constant"
      value: 0.2
    }
  }
}
layer {
  name: "inception_3b/prelu_1x1"
  type: "PReLU"
  bottom: "inception_3b/1x1"
  top: "inception_3b/1x1"
  param {
    lr_mult: 1
    decay_mult: 0
  }
  prelu_param {
    filler {
      type: "constant"
      value: 0.01
    }
  }
}
layer {
  name: "inception_3b/3x3_reduce"
  type: "Convolution"
  bottom: "inception_3a/output"
  top: "inception_3b/3x3_reduce"
  param {
    lr_mult: 1
    decay_mult: 1
  }
  param {
    lr_mult: 2
    decay_mult: 0
  }
  convolution_param {
    num_output: 128
    kernel_size: 1
    weight_filler {
      type: "xavier"
    }
    bias_filler {
      type: "constant"
      value: 0.2
    }
  }
}
layer {
  name: "inception_3b/prelu_3x3_reduce"
  type: "PReLU"
  bottom: "inception_3b/3x3_reduce"
  top: "inception_3b/3x3_reduce"
  param {
    lr_mult: 1
    decay_mult: 0
  }
  prelu_param {
    filler {
      type: "constant"
      value: 0.01
    }
  }
}
layer {
  name: "inception_3b/3x3"
  type: "Convolution"
  bottom: "inception_3b/3x3_reduce"
  top: "inception_3b/3x3"
  param {
    lr_mult: 1
    decay_mult: 1
  }
  param {
    lr_mult: 2
    decay_mult: 0
  }
  convolution_param {
    num_output: 192
    pad: 1
…
I1126 10:28:58.600042 10394 net.cpp:106] Creating Layer inception_4c/output
I1126 10:28:58.600046 10394 net.cpp:454] inception_4c/output <- inception_4c/1x1
I1126 10:28:58.600051 10394 net.cpp:454] inception_4c/output <- inception_4c/3x3
I1126 10:28:58.600056 10394 net.cpp:454] inception_4c/output <- inception_4c/5x5
I1126 10:28:58.600060 10394 net.cpp:454] inception_4c/output <- inception_4c/pool_proj
I1126 10:28:58.600065 10394 net.cpp:411] inception_4c/output -> inception_4c/output
I1126 10:28:58.600088 10394 net.cpp:150] Setting up inception_4c/output
I1126 10:28:58.600095 10394 net.cpp:157] Top shape: 50 512 14 14 (5017600)
I1126 10:28:58.600106 10394 net.cpp:165] Memory required for data: 2234652208
I1126 10:28:58.600111 10394 layer_factory.hpp:76] Creating layer inception_4c/output_inception_4c/output_0_split
I1126 10:28:58.600117 10394 net.cpp:106] Creating Layer inception_4c/output_inception_4c/output_0_split
I1126 10:28:58.600121 10394 net.cpp:454] inception_4c/output_inception_4c/output_0_split <- inception_4c/output
I1126 10:28:58.600131 10394 net.cpp:411] inception_4c/output_inception_4c/output_0_split -> inception_4c/output_inception_4c/output_0_split_0
I1126 10:28:58.606487 10394 net.cpp:411] inception_4c/output_inception_4c/output_0_split -> inception_4c/output_inception_4c/output_0_split_1
I1126 10:28:58.606515 10394 net.cpp:411] inception_4c/output_inception_4c/output_0_split -> inception_4c/output_inception_4c/output_0_split_2
I1126 10:28:58.606549 10394 net.cpp:411] inception_4c/output_inception_4c/output_0_split -> inception_4c/output_inception_4c/output_0_split_3
I1126 10:28:58.606662 10394 net.cpp:150] Setting up inception_4c/output_inception_4c/output_0_split
I1126 10:28:58.606684 10394 net.cpp:157] Top shape: 50 512 14 14 (5017600)
I1126 10:28:58.606696 10394 net.cpp:157] Top shape: 50 512 14 14 (5017600)
I1126 10:28:58.606705 10394 net.cpp:157] Top shape: 50 512 14 14 (5017600)
I1126 10:28:58.606714 10394 net.cpp:157] Top shape: 50 512 14 14 (5017600)
I1126 10:28:58.606721 10394 net.cpp:165] Memory required for data: 2314933808
I1126 10:28:58.606736 10394 layer_factory.hpp:76] Creating layer inception_4d/1x1
I1126 10:28:58.606747 10394 net.cpp:106] Creating Layer inception_4d/1x1
I1126 10:28:58.606752 10394 net.cpp:454] inception_4d/1x1 <- inception_4c/output_inception_4c/output_0_split_0
I1126 10:28:58.606760 10394 net.cpp:411] inception_4d/1x1 -> inception_4d/1x1
I1126 10:28:58.608350 10394 cudnn_conv_layer.cpp:194] Reallocating workspace storage: 10080
I1126 10:28:58.608386 10394 net.cpp:150] Setting up inception_4d/1x1
I1126 10:28:58.608397 10394 net.cpp:157] Top shape: 50 112 14 14 (1097600)
I1126 10:28:58.608400 10394 net.cpp:165] Memory required for data: 2319324208
I1126 10:28:58.608408 10394 layer_factory.hpp:76] Creating layer inception_4d/prelu_1x1
I1126 10:28:58.608417 10394 net.cpp:106] Creating Layer inception_4d/prelu_1x1
I1126 10:28:58.608422 10394 net.cpp:454] inception_4d/prelu_1x1 <- inception_4d/1x1
I1126 10:28:58.608429 10394 net.cpp:397] inception_4d/prelu_1x1 -> inception_4d/1x1 (in-place)
I1126 10:28:58.608521 10394 net.cpp:150] Setting up inception_4d/prelu_1x1
I1126 10:28:58.608531 10394 net.cpp:157] Top shape: 50 112 14 14 (1097600)
I1126 10:28:58.608536 10394 net.cpp:165] Memory required for data: 2323714608
I1126 10:28:58.608541 10394 layer_factory.hpp:76] Creating layer inception_4d/3x3_reduce
I1126 10:28:58.608548 10394 net.cpp:106] Creating Layer inception_4d/3x3_reduce
I1126 10:28:58.608553 10394 net.cpp:454] inception_4d/3x3_reduce <- inception_4c/output_inception_4c/output_0_split_1
I1126 10:28:58.608561 10394 net.cpp:411] inception_4d/3x3_reduce -> inception_4d/3x3_reduce
I1126 10:28:58.610551 10394 cudnn_conv_layer.cpp:194] Reallocating workspace storage: 10080
I1126 10:28:58.610599 10394 net.cpp:150] Setting up inception_4d/3x3_reduce
I1126 10:28:58.610611 10394 net.cpp:157] Top shape: 50 144 14 14 (1411200)
I1126 10:28:58.610620 10394 net.cpp:165] Memory required for data: 2329359408
I1126 10:28:58.610627 10394 layer_factory.hpp:76] Creating layer inception_4d/prelu_3x3_reduce
I1126 10:28:58.610638 10394 net.cpp:106] Creating Layer inception_4d/prelu_3x3_reduce
I1126 10:28:58.610646 10394 net.cpp:454] inception_4d/prelu_3x3_reduce <- inception_4d/3x3_reduce
I1126 10:28:58.610653 10394 net.cpp:397] inception_4d/prelu_3x3_reduce -> inception_4d/3x3_reduce (in-place)
I1126 10:28:58.610819 10394 net.cpp:150] Setting up inception_4d/prelu_3x3_reduce
I1126 10:28:58.610832 10394 net.cpp:157] Top shape: 50 144 14 14 (1411200)
I1126 10:28:58.610839 10394 net.cpp:165] Memory required for data: 2335004208
I1126 10:28:58.610848 10394 layer_factory.hpp:76] Creating layer inception_4d/3x3
I1126 10:28:58.610862 10394 net.cpp:106] Creating Layer inception_4d/3x3
I1126 10:28:58.610867 10394 net.cpp:454] inception_4d/3x3 <- inception_4d/3x3_reduce
I1126 10:28:58.610873 10394 net.cpp:411] inception_4d/3x3 -> inception_4d/3x3
I1126 10:28:58.616116 10394 cudnn_conv_layer.cpp:194] Reallocating workspace storage: 10080
I1126 10:28:58.616195 10394 net.cpp:150] Setting up inception_4d/3x3
I1126 10:28:58.616214 10394 net.cpp:157] Top shape: 50 288 14 14 (2822400)
I1126 10:28:58.616221 10394 net.cpp:165] Memory required for data: 2346293808
I1126 10:28:58.616235 10394 layer_factory.hpp:76] Creating layer inception_4d/prelu_3x3
I1126 10:28:58.616255 10394 net.cpp:106] Creating Layer inception_4d/prelu_3x3
I1126 10:28:58.616266 10394 net.cpp:454] inception_4d/prelu_3x3 <- inception_4d/3x3
I1126 10:28:58.616307 10394 net.cpp:397] inception_4d/prelu_3x3 -> inception_4d/3x3 (in-place)
I1126 10:28:58.617116 10394 net.cpp:150] Setting up inception_4d/prelu_3x3
I1126 10:28:58.617130 10394 net.cpp:157] Top shape: 50 288 14 14 (2822400)
I1126 10:28:58.617135 10394 net.cpp:165] Memory required for data: 2357583408
I1126 10:28:58.617141 10394 layer_factory.hpp:76] Creating layer inception_4d/5x5_reduce
I1126 10:28:58.617152 10394 net.cpp:106] Creating Layer inception_4d/5x5_reduce
I1126 10:28:58.617158 10394 net.cpp:454] inception_4d/5x5_reduce <- inception_4c/output_inception_4c/output_0_split_2
I1126 10:28:58.617166 10394 net.cpp:411] inception_4d/5x5_reduce -> inception_4d/5x5_reduce
I1126 10:28:58.618700 10394 cudnn_conv_layer.cpp:194] Reallocating workspace storage: 10080
I1126 10:28:58.618748 10394 net.cpp:150] Setting up inception_4d/5x5_reduce
I1126 10:28:58.618759 10394 net.cpp:157] Top shape: 50 32 14 14 (313600)
I1126 10:28:58.618764 10394 net.cpp:165] Memory required for data: 2358837808
I1126 10:28:58.618772 10394 layer_factory.hpp:76] Creating layer inception_4d/prelu_5x5_reduce
I1126 10:28:58.618783 10394 net.cpp:106] Creating Layer inception_4d/prelu_5x5_reduce
I1126 10:28:58.618790 10394 net.cpp:454] inception_4d/prelu_5x5_reduce <- inception_4d/5x5_reduce
I1126 10:28:58.618799 10394 net.cpp:397] inception_4d/prelu_5x5_reduce -> inception_4d/5x5_reduce (in-place)
I1126 10:28:58.618890 10394 net.cpp:150] Setting up inception_4d/prelu_5x5_reduce
I1126 10:28:58.618898 10394 net.cpp:157] Top shape: 50 32 14 14 (313600)
I1126 10:28:58.618902 10394 net.cpp:165] Memory required for data: 2360092208
I1126 10:28:58.618907 10394 layer_factory.hpp:76] Creating layer inception_4d/5x5
I1126 10:28:58.618919 10394 net.cpp:106] Creating Layer inception_4d/5x5
I1126 10:28:58.618924 10394 net.cpp:454] inception_4d/5x5 <- inception_4d/5x5_reduce
I1126 10:28:58.618932 10394 net.cpp:411] inception_4d/5x5 -> inception_4d/5x5
I1126 10:28:58.620303 10394 cudnn_conv_layer.cpp:194] Reallocating workspace storage: 13080
I1126 10:28:58.620338 10394 net.cpp:150] Setting up inception_4d/5x5
I1126 10:28:58.620347 10394 net.cpp:157] Top shape: 50 64 14 14 (627200)
I1126 10:28:58.620352 10394 net.cpp:165] Memory required for data: 2362601008
I1126 10:28:58.620358 10394 layer_factory.hpp:76] Creating layer inception_4d/prelu_5x5
I1126 10:28:58.620368 10394 net.cpp:106] Creating Layer inception_4d/prelu_5x5
I1126 10:28:58.620374 10394 net.cpp:454] inception_4d/prelu_5x5 <- inception_4d/5x5
I1126 10:28:58.620380 10394 net.cpp:397] inception_4d/prelu_5x5 -> inception_4d/5x5 (in-place)
I1126 10:28:58.620471 10394 net.cpp:150] Setting up inception_4d/prelu_5x5
I1126 10:28:58.620479 10394 net.cpp:157] Top shape: 50 64 14 14 (627200)
I1126 10:28:58.620483 10394 net.cpp:165] Memory required for data: 2365109808
I1126 10:28:58.620488 10394 layer_factory.hpp:76] Creating layer inception_4d/pool
I1126 10:28:58.620496 10394 net.cpp:106] Creating Layer inception_4d/pool
I1126 10:28:58.620501 10394 net.cpp:454] inception_4d/pool <- inception_4c/output_inception_4c/output_0_split_3
I1126 10:28:58.620508 10394 net.cpp:411] inception_4d/pool -> inception_4d/pool
I1126 10:28:58.620951 10394 net.cpp:150] Setting up inception_4d/pool
I1126 10:28:58.620962 10394 net.cpp:157] Top shape: 50 512 14 14 (5017600)
I1126 10:28:58.620966 10394 net.cpp:165] Memory required for data: 2385180208
I1126 10:28:58.620981 10394 layer_factory.hpp:76] Creating layer inception_4d/pool_proj
I1126 10:28:58.620992 10394 net.cpp:106] Creating Layer inception_4d/pool_proj
I1126 10:28:58.620997 10394 net.cpp:454] inception_4d/pool_proj <- inception_4d/pool
I1126 10:28:58.621006 10394 net.cpp:411] inception_4d/pool_proj -> inception_4d/pool_proj
I1126 10:28:58.622632 10394 cudnn_conv_layer.cpp:194] Reallocating workspace storage: 10080
I1126 10:28:58.622687 10394 net.cpp:150] Setting up inception_4d/pool_proj
I1126 10:28:58.622699 10394 net.cpp:157] Top shape: 50 64 14 14 (627200)
I1126 10:28:58.622702 10394 net.cpp:165] Memory required for data: 2387689008
I1126 10:28:58.622714 10394 layer_factory.hpp:76] Creating layer inception_4d/prelu_pool_proj
I1126 10:28:58.622750 10394 net.cpp:106] Creating Layer inception_4d/prelu_pool_proj
I1126 10:28:58.622757 10394 net.cpp:454] inception_4d/prelu_pool_proj <- inception_4d/pool_proj
I1126 10:28:58.622766 10394 net.cpp:397] inception_4d/prelu_pool_proj -> inception_4d/pool_proj (in-place)
I1126 10:28:58.622871 10394 net.cpp:150] Setting up inception_4d/prelu_pool_proj
I1126 10:28:58.622880 10394 net.cpp:157] Top shape: 50 64 14 14 (627200)
I1126 10:28:58.622884 10394 net.cpp:165] Memory required for data: 2390197808
I1126 10:28:58.622890 10394 layer_factory.hpp:76] Creating layer inception_4d/output
I1126 10:28:58.622898 10394 net.cpp:106] Creating Layer inception_4d/output
I1126 10:28:58.622903 10394 net.cpp:454] inception_4d/output <- inception_4d/1x1
I1126 10:28:58.622908 10394 net.cpp:454] inception_4d/output <- inception_4d/3x3
I1126 10:28:58.622913 10394 net.cpp:454] inception_4d/output <- inception_4d/5x5
I1126 10:28:58.622918 10394 net.cpp:454] inception_4d/output <- inception_4d/pool_proj
I1126 10:28:58.622923 10394 net.cpp:411] inception_4d/output -> inception_4d/output
I1126 10:28:58.622954 10394 net.cpp:150] Setting up inception_4d/output
I1126 10:28:58.622961 10394 net.cpp:157] Top shape: 50 528 14 14 (5174400)
I1126 10:28:58.622966 10394 net.cpp:165] Memory required for data: 2410895408
I1126 10:28:58.622969 10394 layer_factory.hpp:76] Creating layer inception_4d/output_inception_4d/output_0_split
I1126 10:28:58.622977 10394 net.cpp:106] Creating Layer inception_4d/output_inception_4d/output_0_split
I1126 10:28:58.622982 10394 net.cpp:454] inception_4d/output_inception_4d/output_0_split <- inception_4d/output
I1126 10:28:58.622988 10394 net.cpp:411] inception_4d/output_inception_4d/output_0_split -> inception_4d/output_inception_4d/output_0_split_0
I1126 10:28:58.622995 10394 net.cpp:411] inception_4d/output_inception_4d/output_0_split -> inception_4d/output_inception_4d/output_0_split_1
I1126 10:28:58.623003 10394 net.cpp:411] inception_4d/output_inception_4d/output_0_split -> inception_4d/output_inception_4d/output_0_split_2
I1126 10:28:58.623008 10394 net.cpp:411] inception_4d/output_inception_4d/output_0_split -> inception_4d/output_inception_4d/output_0_split_3
I1126 10:28:58.623015 10394 net.cpp:411] inception_4d/output_inception_4d/output_0_split -> inception_4d/output_inception_4d/output_0_split_4
I1126 10:28:58.623078 10394 net.cpp:150] Setting up inception_4d/output_inception_4d/output_0_split
I1126 10:28:58.623085 10394 net.cpp:157] Top shape: 50 528 14 14 (5174400)
I1126 10:28:58.623090 10394 net.cpp:157] Top shape: 50 528 14 14 (5174400)
I1126 10:28:58.623095 10394 net.cpp:157] Top shape: 50 528 14 14 (5174400)
I1126 10:28:58.623100 10394 net.cpp:157] Top shape: 50 528 14 14 (5174400)
I1126 10:28:58.623105 10394 net.cpp:157] Top shape: 50 528 14 14 (5174400)
I1126 10:28:58.623108 10394 net.cpp:165] Memory required for data: 2514383408
I1126 10:28:58.623112 10394 layer_factory.hpp:76] Creating layer loss2/ave_pool
I1126 10:28:58.623119 10394 net.cpp:106] Creating Layer loss2/ave_pool
I1126 10:28:58.623124 10394 net.cpp:454] loss2/ave_pool <- inception_4d/output_inception_4d/output_0_split_0
I1126 10:28:58.623131 10394 net.cpp:411] loss2/ave_pool -> loss2/ave_pool
I1126 10:28:58.623355 10394 net.cpp:150] Setting up loss2/ave_pool
I1126 10:28:58.623368 10394 net.cpp:157] Top shape: 50 528 4 4 (422400)
I1126 10:28:58.623371 10394 net.cpp:165] Memory required for data: 2516073008
I1126 10:28:58.623376 10394 layer_factory.hpp:76] Creating layer loss2/conv
I1126 10:28:58.623385 10394 net.cpp:106] Creating Layer loss2/conv
I1126 10:28:58.623390 10394 net.cpp:454] loss2/conv <- loss2/ave_pool
I1126 10:28:58.623399 10394 net.cpp:411] loss2/conv -> loss2/conv
I1126 10:28:58.625392 10394 cudnn_conv_layer.cpp:194] Reallocating workspace storage: 6840
I1126 10:28:58.625443 10394 net.cpp:150] Setting up loss2/conv
I1126 10:28:58.625455 10394 net.cpp:157] Top shape: 50 128 4 4 (102400)
I1126 10:28:58.625459 10394 net.cpp:165] Memory required for data: 2516482608
I1126 10:28:58.625493 10394 layer_factory.hpp:76] Creating layer loss2/prelu_conv
I1126 10:28:58.625507 10394 net.cpp:106] Creating Layer loss2/prelu_conv
I1126 10:28:58.625515 10394 net.cpp:454] loss2/prelu_conv <- loss2/conv
I1126 10:28:58.625524 10394 net.cpp:397] loss2/prelu_conv -> loss2/conv (in-place)
I1126 10:28:58.625653 10394 net.cpp:150] Setting up loss2/prelu_conv
I1126 10:28:58.625668 10394 net.cpp:157] Top shape: 50 128 4 4 (102400)
I1126 10:28:58.625674 10394 net.cpp:165] Memory required for data: 2516892208
I1126 10:28:58.625684 10394 layer_factory.hpp:76] Creating layer loss2/fc
I1126 10:28:58.625697 10394 net.cpp:106] Creating Layer loss2/fc
I1126 10:28:58.625704 10394 net.cpp:454] loss2/fc <- loss2/conv
I1126 10:28:58.625711 10394 net.cpp:411] loss2/fc -> loss2/fc
I1126 10:28:58.642886 10394 net.cpp:150] Setting up loss2/fc
I1126 10:28:58.642928 10394 net.cpp:157] Top shape: 50 1024 (51200)
I1126 10:28:58.642935 10394 net.cpp:165] Memory required for data: 2517097008
I1126 10:28:58.642992 10394 layer_factory.hpp:76] Creating layer loss2/prelu_fc
I1126 10:28:58.643023 10394 net.cpp:106] Creating Layer loss2/prelu_fc
I1126 10:28:58.643033 10394 net.cpp:454] loss2/prelu_fc <- loss2/fc
I1126 10:28:58.643043 10394 net.cpp:397] loss2/prelu_fc -> loss2/fc (in-place)
I1126 10:28:58.643159 10394 net.cpp:150] Setting up loss2/prelu_fc
I1126 10:28:58.643168 10394 net.cpp:157] Top shape: 50 1024 (51200)
I1126 10:28:58.643172 10394 net.cpp:165] Memory required for data: 2517301808
I1126 10:28:58.643177 10394 layer_factory.hpp:76] Creating layer loss2/drop_fc
I1126 10:28:58.643185 10394 net.cpp:106] Creating Layer loss2/drop_fc
I1126 10:28:58.643190 10394 net.cpp:454] loss2/drop_fc <- loss2/fc
I1126 10:28:58.643196 10394 net.cpp:397] loss2/drop_fc -> loss2/fc (in-place)
I1126 10:28:58.643219 10394 net.cpp:150] Setting up loss2/drop_fc
I1126 10:28:58.643226 10394 net.cpp:157] Top shape: 50 1024 (51200)
I1126 10:28:58.643230 10394 net.cpp:165] Memory required for data: 2517506608
I1126 10:28:58.643234 10394 layer_factory.hpp:76] Creating layer loss2/classifier2
I1126 10:28:58.643244 10394 net.cpp:106] Creating Layer loss2/classifier2
I1126 10:28:58.643249 10394 net.cpp:454] loss2/classifier2 <- loss2/fc
I1126 10:28:58.643256 10394 net.cpp:411] loss2/classifier2 -> loss2/classifier
I1126 10:28:58.643376 10394 net.cpp:150] Setting up loss2/classifier2
I1126 10:28:58.643384 10394 net.cpp:157] Top shape: 50 2 (100)
I1126 10:28:58.643388 10394 net.cpp:165] Memory required for data: 2517507008
I1126 10:28:58.643394 10394 layer_factory.hpp:76] Creating layer loss2/classifier_loss2/classifier2_0_split
I1126 10:28:58.643401 10394 net.cpp:106] Creating Layer loss2/classifier_loss2/classifier2_0_split
I1126 10:28:58.643406 10394 net.cpp:454] loss2/classifier_loss2/classifier2_0_split <- loss2/classifier
I1126 10:28:58.643412 10394 net.cpp:411] loss2/classifier_loss2/classifier2_0_split -> loss2/classifier_loss2/classifier2_0_split_0
I1126 10:28:58.643419 10394 net.cpp:411] loss2/classifier_loss2/classifier2_0_split -> loss2/classifier_loss2/classifier2_0_split_1
I1126 10:28:58.643452 10394 net.cpp:150] Setting up loss2/classifier_loss2/classifier2_0_split
I1126 10:28:58.643460 10394 net.cpp:157] Top shape: 50 2 (100)
I1126 10:28:58.643465 10394 net.cpp:157] Top shape: 50 2 (100)
I1126 10:28:58.643467 10394 net.cpp:165] Memory required for data: 2517507808
I1126 10:28:58.643471 10394 layer_factory.hpp:76] Creating layer loss2/loss
I1126 10:28:58.643478 10394 net.cpp:106] Creating Layer loss2/loss
I1126 10:28:58.643482 10394 net.cpp:454] loss2/loss <- loss2/classifier_loss2/classifier2_0_split_0
I1126 10:28:58.643488 10394 net.cpp:454] loss2/loss <- label_data_1_split_2
…
I1126 10:28:58.644245 10394 net.cpp:165] Memory required for data: 2517507816
I1126 10:28:58.644248 10394 layer_factory.hpp:76] Creating layer inception_4e/1x1
I1126 10:28:58.644260 10394 net.cpp:106] Creating Layer inception_4e/1x1
I1126 10:28:58.644265 10394 net.cpp:454] inception_4e/1x1 <- inception_4d/output_inception_4d/output_0_split_1
I1126 10:28:58.644273 10394 net.cpp:411] inception_4e/1x1 -> inception_4e/1x1
I1126 10:28:58.647164 10394 cudnn_conv_layer.cpp:194] Reallocating workspace storage: 10080
I1126 10:28:58.647233 10394 net.cpp:150] Setting up inception_4e/1x1
I1126 10:28:58.647248 10394 net.cpp:157] Top shape: 50 256 14 14 (2508800)
I1126 10:28:58.647253 10394 net.cpp:165] Memory required for data: 2527543016
I1126 10:28:58.647264 10394 layer_factory.hpp:76] Creating layer inception_4e/prelu_1x1
I1126 10:28:58.647279 10394 net.cpp:106] Creating Layer inception_4e/prelu_1x1
I1126 10:28:58.647286 10394 net.cpp:454] inception_4e/prelu_1x1 <- inception_4e/1x1
I1126 10:28:58.647297 10394 net.cpp:397] inception_4e/prelu_1x1 -> inception_4e/1x1 (in-place)
I1126 10:28:58.647457 10394 net.cpp:150] Setting up inception_4e/prelu_1x1
I1126 10:28:58.647467 10394 net.cpp:157] Top shape: 50 256 14 14 (2508800)
I1126 10:28:58.647472 10394 net.cpp:165] Memory required for data: 2537578216
I1126 10:28:58.647478 10394 layer_factory.hpp:76] Creating layer inception_4e/3x3_reduce
I1126 10:28:58.647493 10394 net.cpp:106] Creating Layer inception_4e/3x3_reduce
I1126 10:28:58.647500 10394 net.cpp:454] inception_4e/3x3_reduce <- inception_4d/output_inception_4d/output_0_split_2
I1126 10:28:58.647510 10394 net.cpp:411] inception_4e/3x3_reduce -> inception_4e/3x3_reduce
I1126 10:28:58.649770 10394 cudnn_conv_layer.cpp:194] Reallocating workspace storage: 10080
I1126 10:28:58.649830 10394 net.cpp:150] Setting up inception_4e/3x3_reduce
I1126 10:28:58.649842 10394 net.cpp:157] Top shape: 50 160 14 14 (1568000)
I1126 10:28:58.649847 10394 net.cpp:165] Memory required for data: 2543850216
I1126 10:28:58.649857 10394 layer_factory.hpp:76] Creating layer inception_4e/prelu_3x3_reduce
I1126 10:28:58.649868 10394 net.cpp:106] Creating Layer inception_4e/prelu_3x3_reduce
I1126 10:28:58.649875 10394 net.cpp:454] inception_4e/prelu_3x3_reduce <- inception_4e/3x3_reduce
I1126 10:28:58.649886 10394 net.cpp:397] inception_4e/prelu_3x3_reduce -> inception_4e/3x3_reduce (in-place)
I1126 10:28:58.650015 10394 net.cpp:150] Setting up inception_4e/prelu_3x3_reduce
I1126 10:28:58.650025 10394 net.cpp:157] Top shape: 50 160 14 14 (1568000)
I1126 10:28:58.650029 10394 net.cpp:165] Memory required for data: 2550122216
I1126 10:28:58.650035 10394 layer_factory.hpp:76] Creating layer inception_4e/3x3
I1126 10:28:58.650065 10394 net.cpp:106] Creating Layer inception_4e/3x3
I1126 10:28:58.650071 10394 net.cpp:454] inception_4e/3x3 <- inception_4e/3x3_reduce
I1126 10:28:58.650080 10394 net.cpp:411] inception_4e/3x3 -> inception_4e/3x3
I1126 10:28:58.656010 10394 cudnn_conv_layer.cpp:194] Reallocating workspace storage: 10080
I1126 10:28:58.656105 10394 net.cpp:150] Setting up inception_4e/3x3
I1126 10:28:58.656121 10394 net.cpp:157] Top shape: 50 320 14 14 (3136000)
I1126 10:28:58.656136 10394 net.cpp:165] Memory required for data: 2562666216
I1126 10:28:58.656149 10394 layer_factory.hpp:76] Creating layer inception_4e/prelu_3x3
I1126 10:28:58.656169 10394 net.cpp:106] Creating Layer inception_4e/prelu_3x3
I1126 10:28:58.656178 10394 net.cpp:454] inception_4e/prelu_3x3 <- inception_4e/3x3
I1126 10:28:58.656218 10394 net.cpp:397] inception_4e/prelu_3x3 -> inception_4e/3x3 (in-place)
I1126 10:28:58.657188 10394 net.cpp:150] Setting up inception_4e/prelu_3x3
I1126 10:28:58.657233 10394 net.cpp:157] Top shape: 50 320 14 14 (3136000)
I1126 10:28:58.657239 10394 net.cpp:165] Memory required for data: 2575210216
I1126 10:28:58.657251 10394 layer_factory.hpp:76] Creating layer inception_4e/5x5_reduce
I1126 10:28:58.657274 10394 net.cpp:106] Creating Layer inception_4e/5x5_reduce
I1126 10:28:58.657284 10394 net.cpp:454] inception_4e/5x5_reduce <- inception_4d/output_inception_4d/output_0_split_3
I1126 10:28:58.657294 10394 net.cpp:411] inception_4e/5x5_reduce -> inception_4e/5x5_reduce
I1126 10:28:58.658885 10394 cudnn_conv_layer.cpp:194] Reallocating workspace storage: 10080
I1126 10:28:58.658927 10394 net.cpp:150] Setting up inception_4e/5x5_reduce
I1126 10:28:58.658936 10394 net.cpp:157] Top shape: 50 32 14 14 (313600)
I1126 10:28:58.658941 10394 net.cpp:165] Memory required for data: 2576464616
I1126 10:28:58.658948 10394 layer_factory.hpp:76] Creating layer inception_4e/prelu_5x5_reduce
I1126 10:28:58.658959 10394 net.cpp:106] Creating Layer inception_4e/prelu_5x5_reduce
I1126 10:28:58.658965 10394 net.cpp:454] inception_4e/prelu_5x5_reduce <- inception_4e/5x5_reduce
I1126 10:28:58.658972 10394 net.cpp:397] inception_4e/prelu_5x5_reduce -> inception_4e/5x5_reduce (in-place)
I1126 10:28:58.659072 10394 net.cpp:150] Setting up inception_4e/prelu_5x5_reduce
I1126 10:28:58.659080 10394 net.cpp:157] Top shape: 50 32 14 14 (313600)
I1126 10:28:58.659085 10394 net.cpp:165] Memory required for data: 2577719016
I1126 10:28:58.659090 10394 layer_factory.hpp:76] Creating layer inception_4e/5x5
I1126 10:28:58.659101 10394 net.cpp:106] Creating Layer inception_4e/5x5
I1126 10:28:58.659106 10394 net.cpp:454] inception_4e/5x5 <- inception_4e/5x5_reduce
I1126 10:28:58.659112 10394 net.cpp:411] inception_4e/5x5 -> inception_4e/5x5
I1126 10:28:58.661877 10394 cudnn_conv_layer.cpp:194] Reallocating workspace storage: 13080
I1126 10:28:58.661927 10394 net.cpp:150] Setting up inception_4e/5x5
I1126 10:28:58.661938 10394 net.cpp:157] Top shape: 50 128 14 14 (1254400)
I1126 10:28:58.661943 10394 net.cpp:165] Memory required for data: 2582736616
I1126 10:28:58.661952 10394 layer_factory.hpp:76] Creating layer inception_4e/prelu_5x5
I1126 10:28:58.661963 10394 net.cpp:106] Creating Layer inception_4e/prelu_5x5
I1126 10:28:58.661969 10394 net.cpp:454] inception_4e/prelu_5x5 <- inception_4e/5x5
I1126 10:28:58.661978 10394 net.cpp:397] inception_4e/prelu_5x5 -> inception_4e/5x5 (in-place)
I1126 10:28:58.662080 10394 net.cpp:150] Setting up inception_4e/prelu_5x5
I1126 10:28:58.662087 10394 net.cpp:157] Top shape: 50 128 14 14 (1254400)
I1126 10:28:58.662091 10394 net.cpp:165] Memory required for data: 2587754216
I1126 10:28:58.662097 10394 layer_factory.hpp:76] Creating layer inception_4e/pool
I1126 10:28:58.662106 10394 net.cpp:106] Creating Layer inception_4e/pool
I1126 10:28:58.662111 10394 net.cpp:454] inception_4e/pool <- inception_4d/output_inception_4d/output_0_split_4
I1126 10:28:58.662119 10394 net.cpp:411] inception_4e/pool -> inception_4e/pool
I1126 10:28:58.662324 10394 net.cpp:150] Setting up inception_4e/pool
I1126 10:28:58.662335 10394 net.cpp:157] Top shape: 50 528 14 14 (5174400)
I1126 10:28:58.662343 10394 net.cpp:165] Memory required for data: 2608451816
I1126 10:28:58.662349 10394 layer_factory.hpp:76] Creating layer inception_4e/pool_proj
I1126 10:28:58.662365 10394 net.cpp:106] Creating Layer inception_4e/pool_proj
I1126 10:28:58.662375 10394 net.cpp:454] inception_4e/pool_proj <- inception_4e/pool
I1126 10:28:58.662389 10394 net.cpp:411] inception_4e/pool_proj -> inception_4e/pool_proj
I1126 10:28:58.664463 10394 cudnn_conv_layer.cpp:194] Reallocating workspace storage: 10080
I1126 10:28:58.664502 10394 net.cpp:150] Setting up inception_4e/pool_proj
I1126 10:28:58.664513 10394 net.cpp:157] Top shape: 50 128 14 14 (1254400)
I1126 10:28:58.664517 10394 net.cpp:165] Memory required for data: 2613469416
I1126 10:28:58.664525 10394 layer_factory.hpp:76] Creating layer inception_4e/prelu_pool_proj
I1126 10:28:58.664556 10394 net.cpp:106] Creating Layer inception_4e/prelu_pool_proj
I1126 10:28:58.664563 10394 net.cpp:454] inception_4e/prelu_pool_proj <- inception_4e/pool_proj
I1126 10:28:58.664572 10394 net.cpp:397] inception_4e/prelu_pool_proj -> inception_4e/pool_proj (in-place)
I1126 10:28:58.664692 10394 net.cpp:150] Setting up inception_4e/prelu_pool_proj
I1126 10:28:58.664701 10394 net.cpp:157] Top shape: 50 128 14 14 (1254400)
I1126 10:28:58.664705 10394 net.cpp:165] Memory required for data: 2618487016
I1126 10:28:58.664710 10394 layer_factory.hpp:76] Creating layer inception_4e/output
I1126 10:28:58.664733 10394 net.cpp:106] Creating Layer inception_4e/output
I1126 10:28:58.664738 10394 net.cpp:454] inception_4e/output <- inception_4e/1x1
I1126 10:28:58.664744 10394 net.cpp:454] inception_4e/output <- inception_4e/3x3
I1126 10:28:58.664749 10394 net.cpp:454] inception_4e/output <- inception_4e/5x5
I1126 10:28:58.664754 10394 net.cpp:454] inception_4e/output <- inception_4e/pool_proj
I1126 10:28:58.664759 10394 net.cpp:411] inception_4e/output -> inception_4e/output
I1126 10:28:58.664785 10394 net.cpp:150] Setting up inception_4e/output
I1126 10:28:58.664793 10394 net.cpp:157] Top shape: 50 832 14 14 (8153600)
I1126 10:28:58.664796 10394 net.cpp:165] Memory required for data: 2651101416
I1126 10:28:58.664800 10394 layer_factory.hpp:76] Creating layer pool4/3x3_s2
I1126 10:28:58.664808 10394 net.cpp:106] Creating Layer pool4/3x3_s2
I1126 10:28:58.664813 10394 net.cpp:454] pool4/3x3_s2 <- inception_4e/output
I1126 10:28:58.664819 10394 net.cpp:411] pool4/3x3_s2 -> pool4/3x3_s2
I1126 10:28:58.665024 10394 net.cpp:150] Setting up pool4/3x3_s2
I1126 10:28:58.665035 10394 net.cpp:157] Top shape: 50 832 7 7 (2038400)
I1126 10:28:58.665038 10394 net.cpp:165] Memory required for data: 2659255016
I1126 10:28:58.665042 10394 layer_factory.hpp:76] Creating layer pool4/3x3_s2_pool4/3x3_s2_0_split
I1126 10:28:58.665050 10394 net.cpp:106] Creating Layer pool4/3x3_s2_pool4/3x3_s2_0_split
I1126 10:28:58.665053 10394 net.cpp:454] pool4/3x3_s2_pool4/3x3_s2_0_split <- pool4/3x3_s2
I1126 10:28:58.665060 10394 net.cpp:411] pool4/3x3_s2_pool4/3x3_s2_0_split -> pool4/3x3_s2_pool4/3x3_s2_0_split_0
I1126 10:28:58.665066 10394 net.cpp:411] pool4/3x3_s2_pool4/3x3_s2_0_split -> pool4/3x3_s2_pool4/3x3_s2_0_split_1
I1126 10:28:58.665073 10394 net.cpp:411] pool4/3x3_s2_pool4/3x3_s2_0_split -> pool4/3x3_s2_pool4/3x3_s2_0_split_2
I1126 10:28:58.665081 10394 net.cpp:411] pool4/3x3_s2_pool4/3x3_s2_0_split -> pool4/3x3_s2_pool4/3x3_s2_0_split_3
I1126 10:28:58.665138 10394 net.cpp:150] Setting up pool4/3x3_s2_pool4/3x3_s2_0_split
I1126 10:28:58.665144 10394 net.cpp:157] Top shape: 50 832 7 7 (2038400)
I1126 10:28:58.665149 10394 net.cpp:157] Top shape: 50 832 7 7 (2038400)
I1126 10:28:58.665154 10394 net.cpp:157] Top shape: 50 832 7 7 (2038400)
I1126 10:28:58.665159 10394 net.cpp:157] Top shape: 50 832 7 7 (2038400)
I1126 10:28:58.665163 10394 net.cpp:165] Memory required for data: 2691869416
I1126 10:28:58.665166 10394 layer_factory.hpp:76] Creating layer inception_5a/1x1
I1126 10:28:58.665176 10394 net.cpp:106] Creating Layer inception_5a/1x1
I1126 10:28:58.665180 10394 net.cpp:454] inception_5a/1x1 <- pool4/3x3_s2_pool4/3x3_s2_0_split_0
I1126 10:28:58.665189 10394 net.cpp:411] inception_5a/1x1 -> inception_5a/1x1
I1126 10:28:58.689453 10394 cudnn_conv_layer.cpp:194] Reallocating workspace storage: 7428
I1126 10:28:58.689548 10394 net.cpp:150] Setting up inception_5a/1x1
I1126 10:28:58.689565 10394 net.cpp:157] Top shape: 50 256 7 7 (627200)
I1126 10:28:58.689570 10394 net.cpp:165] Memory required for data: 2694378216
I1126 10:28:58.689589 10394 layer_factory.hpp:76] Creating layer inception_5a/prelu_1x1
I1126 10:28:58.689611 10394 net.cpp:106] Creating Layer inception_5a/prelu_1x1
I1126 10:28:58.689622 10394 net.cpp:454] inception_5a/prelu_1x1 <- inception_5a/1x1
I1126 10:28:58.689635 10394 net.cpp:397] inception_5a/prelu_1x1 -> inception_5a/1x1 (in-place)
I1126 10:28:58.689774 10394 net.cpp:150] Setting up inception_5a/prelu_1x1
I1126 10:28:58.689815 10394 net.cpp:157] Top shape: 50 256 7 7 (627200)
I1126 10:28:58.689821 10394 net.cpp:165] Memory required for data: 2696887016
I1126 10:28:58.689827 10394 layer_factory.hpp:76] Creating layer inception_5a/3x3_reduce
I1126 10:28:58.689847 10394 net.cpp:106] Creating Layer inception_5a/3x3_reduce
I1126 10:28:58.689854 10394 net.cpp:454] inception_5a/3x3_reduce <- pool4/3x3_s2_pool4/3x3_s2_0_split_1
I1126 10:28:58.689863 10394 net.cpp:411] inception_5a/3x3_reduce -> inception_5a/3x3_reduce
I1126 10:28:58.693943 10394 cudnn_conv_layer.cpp:194] Reallocating workspace storage: 7428
I1126 10:28:58.694043 10394 net.cpp:150] Setting up inception_5a/3x3_reduce
I1126 10:28:58.694061 10394 net.cpp:157] Top shape: 50 160 7 7 (392000)
I1126 10:28:58.694067 10394 net.cpp:165] Memory required for data: 2698455016
I1126 10:28:58.694083 10394 layer_factory.hpp:76] Creating layer inception_5a/prelu_3x3_reduce
I1126 10:28:58.694106 10394 net.cpp:106] Creating Layer inception_5a/prelu_3x3_reduce
I1126 10:28:58.694118 10394 net.cpp:454] inception_5a/prelu_3x3_reduce <- inception_5a/3x3_reduce
I1126 10:28:58.694140 10394 net.cpp:397] inception_5a/prelu_3x3_reduce -> inception_5a/3x3_reduce (in-place)
I1126 10:28:58.694278 10394 net.cpp:150] Setting up inception_5a/prelu_3x3_reduce
I1126 10:28:58.694291 10394 net.cpp:157] Top shape: 50 160 7 7 (392000)
I1126 10:28:58.694295 10394 net.cpp:165] Memory required for data: 2700023016
I1126 10:28:58.694303 10394 layer_factory.hpp:76] Creating layer inception_5a/3x3
I1126 10:28:58.694331 10394 net.cpp:106] Creating Layer inception_5a/3x3
I1126 10:28:58.694339 10394 net.cpp:454] inception_5a/3x3 <- inception_5a/3x3_reduce
I1126 10:28:58.694349 10394 net.cpp:411] inception_5a/3x3 -> inception_5a/3x3
I1126 10:28:58.701169 10394 cudnn_conv_layer.cpp:194] Reallocating workspace storage: 7788
I1126 10:28:58.701241 10394 net.cpp:150] Setting up inception_5a/3x3
I1126 10:28:58.701256 10394 net.cpp:157] Top shape: 50 320 7 7 (784000)
I1126 10:28:58.701261 10394 net.cpp:165] Memory required for data: 2703159016
I1126 10:28:58.701273 10394 layer_factory.hpp:76] Creating layer inception_5a/prelu_3x3
I1126 10:28:58.701290 10394 net.cpp:106] Creating Layer inception_5a/prelu_3x3
I1126 10:28:58.701298 10394 net.cpp:454] inception_5a/prelu_3x3 <- inception_5a/3x3
I1126 10:28:58.701309 10394 net.cpp:397] inception_5a/prelu_3x3 -> inception_5a/3x3 (in-place)
I1126 10:28:58.701467 10394 net.cpp:150] Setting up inception_5a/prelu_3x3
I1126 10:28:58.701475 10394 net.cpp:157] Top shape: 50 320 7 7 (784000)
I1126 10:28:58.701479 10394 net.cpp:165] Memory required for data: 2706295016
I1126 10:28:58.701484 10394 layer_factory.hpp:76] Creating layer inception_5a/5x5_reduce
I1126 10:28:58.701498 10394 net.cpp:106] Creating Layer inception_5a/5x5_reduce
I1126 10:28:58.701504 10394 net.cpp:454] inception_5a/5x5_reduce <- pool4/3x3_s2_pool4/3x3_s2_0_split_2
I1126 10:28:58.701513 10394 net.cpp:411] inception_5a/5x5_reduce -> inception_5a/5x5_reduce
I1126 10:28:58.703068 10394 cudnn_conv_layer.cpp:194] Reallocating workspace storage: 7428
I1126 10:28:58.703126 10394 net.cpp:150] Setting up inception_5a/5x5_reduce
I1126 10:28:58.703136 10394 net.cpp:157] Top shape: 50 32 7 7 (78400)
I1126 10:28:58.703142 10394 net.cpp:165] Memory required for data: 2706608616
I1126 10:28:58.703152 10394 layer_factory.hpp:76] Creating layer inception_5a/prelu_5x5_reduce
I1126 10:28:58.703164 10394 net.cpp:106] Creating Layer inception_5a/prelu_5x5_reduce
I1126 10:28:58.703171 10394 net.cpp:454] inception_5a/prelu_5x5_reduce <- inception_5a/5x5_reduce
I1126 10:28:58.703178 10394 net.cpp:397] inception_5a/prelu_5x5_reduce -> inception_5a/5x5_reduce (in-place)
I1126 10:28:58.703297 10394 net.cpp:150] Setting up inception_5a/prelu_5x5_reduce
I1126 10:28:58.703306 10394 net.cpp:157] Top shape: 50 32 7 7 (78400)
I1126 10:28:58.703310 10394 net.cpp:165] Memory required for data: 2706922216
I1126 10:28:58.703315 10394 layer_factory.hpp:76] Creating layer inception_5a/5x5
I1126 10:28:58.703356 10394 net.cpp:106] Creating Layer inception_5a/5x5
I1126 10:28:58.703361 10394 net.cpp:454] inception_5a/5x5 <- inception_5a/5x5_reduce
I1126 10:28:58.703371 10394 net.cpp:411] inception_5a/5x5 -> inception_5a/5x5
I1126 10:28:58.705135 10394 cudnn_conv_layer.cpp:194] Reallocating workspace storage: 9804
I1126 10:28:58.705183 10394 net.cpp:150] Setting up inception_5a/5x5
I1126 10:28:58.705195 10394 net.cpp:157] Top shape: 50 128 7 7 (313600)
I1126 10:28:58.705199 10394 net.cpp:165] Memory required for data: 2708176616
I1126 10:28:58.705207 10394 layer_factory.hpp:76] Creating layer inception_5a/prelu_5x5
I1126 10:28:58.705219 10394 net.cpp:106] Creating Layer inception_5a/prelu_5x5
I1126 10:28:58.705224 10394 net.cpp:454] inception_5a/prelu_5x5 <- inception_5a/5x5
I1126 10:28:58.705230 10394 net.cpp:397] inception_5a/prelu_5x5 -> inception_5a/5x5 (in-place)
I1126 10:28:58.705332 10394 net.cpp:150] Setting up inception_5a/prelu_5x5
I1126 10:28:58.705340 10394 net.cpp:157] Top shape: 50 128 7 7 (313600)
I1126 10:28:58.705344 10394 net.cpp:165] Memory required for data: 2709431016
I1126 10:28:58.705349 10394 layer_factory.hpp:76] Creating layer inception_5a/pool
I1126 10:28:58.705359 10394 net.cpp:106] Creating Layer inception_5a/pool
I1126 10:28:58.705365 10394 net.cpp:454] inception_5a/pool <- pool4/3x3_s2_pool4/3x3_s2_0_split_3
I1126 10:28:58.705371 10394 net.cpp:411] inception_5a/pool -> inception_5a/pool
I1126 10:28:58.705929 10394 net.cpp:150] Setting up inception_5a/pool
I1126 10:28:58.705945 10394 net.cpp:157] Top shape: 50 832 7 7 (2038400)
I1126 10:28:58.705950 10394 net.cpp:165] Memory required for data: 2717584616
I1126 10:28:58.705955 10394 layer_factory.hpp:76] Creating layer inception_5a/pool_proj
I1126 10:28:58.705967 10394 net.cpp:106] Creating Layer inception_5a/pool_proj
I1126 10:28:58.705972 10394 net.cpp:454] inception_5a/pool_proj <- inception_5a/pool
I1126 10:28:58.705982 10394 net.cpp:411] inception_5a/pool_proj -> inception_5a/pool_proj
I1126 10:28:58.708780 10394 cudnn_conv_layer.cpp:194] Reallocating workspace storage: 7428
I1126 10:28:58.708834 10394 net.cpp:150] Setting up inception_5a/pool_proj
I1126 10:28:58.708845 10394 net.cpp:157] Top shape: 50 128 7 7 (313600)
I1126 10:28:58.708850 10394 net.cpp:165] Memory required for data: 2718839016
I1126 10:28:58.708860 10394 layer_factory.hpp:76] Creating layer inception_5a/prelu_pool_proj
I1126 10:28:58.708874 10394 net.cpp:106] Creating Layer inception_5a/prelu_pool_proj
I1126 10:28:58.708881 10394 net.cpp:454] inception_5a/prelu_pool_proj <- inception_5a/pool_proj
I1126 10:28:58.708890 10394 net.cpp:397] inception_5a/prelu_pool_proj -> inception_5a/pool_proj (in-place)
I1126 10:28:58.708992 10394 net.cpp:150] Setting up inception_5a/prelu_pool_proj
I1126 10:28:58.709002 10394 net.cpp:157] Top shape: 50 128 7 7 (313600)
I1126 10:28:58.709007 10394 net.cpp:165] Memory required for data: 2720093416
I1126 10:28:58.709012 10394 layer_factory.hpp:76] Creating layer inception_5a/output
I1126 10:28:58.709020 10394 net.cpp:106] Creating Layer inception_5a/output
I1126 10:28:58.709025 10394 net.cpp:454] inception_5a/output <- inception_5a/1x1
I1126 10:28:58.709031 10394 net.cpp:454] inception_5a/output <- inception_5a/3x3
I1126 10:28:58.709036 10394 net.cpp:454] inception_5a/output <- inception_5a/5x5
I1126 10:28:58.709041 10394 net.cpp:454] inception_5a/output <- inception_5a/pool_proj
I1126 10:28:58.709048 10394 net.cpp:411] inception_5a/output -> inception_5a/output
I1126 10:28:58.709075 10394 net.cpp:150] Setting up inception_5a/output
I1126 10:28:58.709084 10394 net.cpp:157] Top shape: 50 832 7 7 (2038400)
I1126 10:28:58.709087 10394 net.cpp:165] Memory required for data: 2728247016
I1126 10:28:58.709091 10394 layer_factory.hpp:76] Creating layer inception_5a/output_inception_5a/output_0_split
I1126 10:28:58.709100 10394 net.cpp:106] Creating Layer inception_5a/output_inception_5a/output_0_split
I1126 10:28:58.709103 10394 net.cpp:454] inception_5a/output_inception_5a/output_0_split <- inception_5a/output
I1126 10:28:58.709112 10394 net.cpp:411] inception_5a/output_inception_5a/output_0_split -> inception_5a/output_inception_5a/output_0_split_0
I1126 10:28:58.709147 10394 net.cpp:411] inception_5a/output_inception_5a/output_0_split -> inception_5a/output_inception_5a/output_0_split_1
I1126 10:28:58.709156 10394 net.cpp:411] inception_5a/output_inception_5a/output_0_split -> inception_5a/output_inception_5a/output_0_split_2
I1126 10:28:58.709164 10394 net.cpp:411] inception_5a/output_inception_5a/output_0_split -> inception_5a/output_inception_5a/output_0_split_3
I1126 10:28:58.709223 10394 net.cpp:150] Setting up inception_5a/output_inception_5a/output_0_split
I1126 10:28:58.709230 10394 net.cpp:157] Top shape: 50 832 7 7 (2038400)
I1126 10:28:58.709235 10394 net.cpp:157] Top shape: 50 832 7 7 (2038400)
I1126 10:28:58.709240 10394 net.cpp:157] Top shape: 50 832 7 7 (2038400)
I1126 10:28:58.709245 10394 net.cpp:157] Top shape: 50 832 7 7 (2038400)
I1126 10:28:58.709249 10394 net.cpp:165] Memory required for data: 2760861416
I1126 10:28:58.709252 10394 layer_factory.hpp:76] Creating layer inception_5b/1x1
I1126 10:28:58.709262 10394 net.cpp:106] Creating Layer inception_5b/1x1
I1126 10:28:58.709266 10394 net.cpp:454] inception_5b/1x1 <- inception_5a/output_inception_5a/output_0_split_0
I1126 10:28:58.709274 10394 net.cpp:411] inception_5b/1x1 -> inception_5b/1x1
I1126 10:28:58.714108 10394 cudnn_conv_layer.cpp:194] Reallocating workspace storage: 7428
I1126 10:28:58.714212 10394 net.cpp:150] Setting up inception_5b/1x1
I1126 10:28:58.714227 10394 net.cpp:157] Top shape: 50 384 7 7 (940800)
I1126 10:28:58.714232 10394 net.cpp:165] Memory required for data: 2764624616
I1126 10:28:58.714246 10394 layer_factory.hpp:76] Creating layer inception_5b/prelu_1x1
I1126 10:28:58.714265 10394 net.cpp:106] Creating Layer inception_5b/prelu_1x1
I1126 10:28:58.714274 10394 net.cpp:454] inception_5b/prelu_1x1 <- inception_5b/1x1
I1126 10:28:58.714295 10394 net.cpp:397] inception_5b/prelu_1x1 -> inception_5b/1x1 (in-place)
I1126 10:28:58.714439 10394 net.cpp:150] Setting up inception_5b/prelu_1x1
I1126 10:28:58.714449 10394 net.cpp:157] Top shape: 50 384 7 7 (940800)
I1126 10:28:58.714453 10394 net.cpp:165] Memory required for data: 2768387816
I1126 10:28:58.714459 10394 layer_factory.hpp:76] Creating layer inception_5b/3x3_reduce
I1126 10:28:58.714473 10394 net.cpp:106] Creating Layer inception_5b/3x3_reduce
I1126 10:28:58.714479 10394 net.cpp:454] inception_5b/3x3_reduce <- inception_5a/output_inception_5a/output_0_split_1
I1126 10:28:58.714489 10394 net.cpp:411] inception_5b/3x3_reduce -> inception_5b/3x3_reduce
I1126 10:28:58.717401 10394 cudnn_conv_layer.cpp:194] Reallocating workspace storage: 7428
I1126 10:28:58.717453 10394 net.cpp:150] Setting up inception_5b/3x3_reduce
I1126 10:28:58.717466 10394 net.cpp:157] Top shape: 50 192 7 7 (470400)
I1126 10:28:58.717471 10394 net.cpp:165] Memory required for data: 2770269416
I1126 10:28:58.717481 10394 layer_factory.hpp:76] Creating layer inception_5b/prelu_3x3_reduce
I1126 10:28:58.717499 10394 net.cpp:106] Creating Layer inception_5b/prelu_3x3_reduce
I1126 10:28:58.717507 10394 net.cpp:454] inception_5b/prelu_3x3_reduce <- inception_5b/3x3_reduce
I1126 10:28:58.717517 10394 net.cpp:397] inception_5b/prelu_3x3_reduce -> inception_5b/3x3_reduce (in-place)
I1126 10:28:58.717679 10394 net.cpp:150] Setting up inception_5b/prelu_3x3_reduce
I1126 10:28:58.717694 10394 net.cpp:157] Top shape: 50 192 7 7 (470400)
I1126 10:28:58.717701 10394 net.cpp:165] Memory required for data: 2772151016
I1126 10:28:58.717721 10394 layer_factory.hpp:76] Creating layer inception_5b/3x3
I1126 10:28:58.717742 10394 net.cpp:106] Creating Layer inception_5b/3x3
I1126 10:28:58.717751 10394 net.cpp:454] inception_5b/3x3 <- inception_5b/3x3_reduce
I1126 10:28:58.717763 10394 net.cpp:411] inception_5b/3x3 -> inception_5b/3x3
I1126 10:28:58.724556 10394 cudnn_conv_layer.cpp:194] Reallocating workspace storage: 7788
I1126 10:28:58.724614 10394 net.cpp:150] Setting up inception_5b/3x3
I1126 10:28:58.724627 10394 net.cpp:157] Top shape: 50 384 7 7 (940800)
I1126 10:28:58.724664 10394 net.cpp:165] Memory required for data: 2775914216
I1126 10:28:58.724676 10394 layer_factory.hpp:76] Creating layer inception_5b/prelu_3x3
I1126 10:28:58.724695 10394 net.cpp:106] Creating Layer inception_5b/prelu_3x3
I1126 10:28:58.724704 10394 net.cpp:454] inception_5b/prelu_3x3 <- inception_5b/3x3
I1126 10:28:58.724736 10394 net.cpp:397] inception_5b/prelu_3x3 -> inception_5b/3x3 (in-place)
I1126 10:28:58.724864 10394 net.cpp:150] Setting up inception_5b/prelu_3x3
I1126 10:28:58.724871 10394 net.cpp:157] Top shape: 50 384 7 7 (940800)
I1126 10:28:58.724875 10394 net.cpp:165] Memory required for data: 2779677416
I1126 10:28:58.724881 10394 layer_factory.hpp:76] Creating layer inception_5b/5x5_reduce
I1126 10:28:58.724892 10394 net.cpp:106] Creating Layer inception_5b/5x5_reduce
I1126 10:28:58.724899 10394 net.cpp:454] inception_5b/5x5_reduce <- inception_5a/output_inception_5a/output_0_split_2
I1126 10:28:58.724906 10394 net.cpp:411] inception_5b/5x5_reduce -> inception_5b/5x5_reduce
I1126 10:28:58.726500 10394 cudnn_conv_layer.cpp:194] Reallocating workspace storage: 7428
I1126 10:28:58.726536 10394 net.cpp:150] Setting up inception_5b/5x5_reduce
I1126 10:28:58.726543 10394 net.cpp:157] Top shape: 50 48 7 7 (117600)
I1126 10:28:58.726547 10394 net.cpp:165] Memory required for data: 2780147816
I1126 10:28:58.726554 10394 layer_factory.hpp:76] Creating layer inception_5b/prelu_5x5_reduce
I1126 10:28:58.726562 10394 net.cpp:106] Creating Layer inception_5b/prelu_5x5_reduce
I1126 10:28:58.726567 10394 net.cpp:454] inception_5b/prelu_5x5_reduce <- inception_5b/5x5_reduce
I1126 10:28:58.726574 10394 net.cpp:397] inception_5b/prelu_5x5_reduce -> inception_5b/5x5_reduce (in-place)
I1126 10:28:58.726686 10394 net.cpp:150] Setting up inception_5b/prelu_5x5_reduce
I1126 10:28:58.726693 10394 net.cpp:157] Top shape: 50 48 7 7 (117600)
I1126 10:28:58.726697 10394 net.cpp:165] Memory required for data: 2780618216
I1126 10:28:58.726702 10394 layer_factory.hpp:76] Creating layer inception_5b/5x5
I1126 10:28:58.726711 10394 net.cpp:106] Creating Layer inception_5b/5x5
I1126 10:28:58.726716 10394 net.cpp:454] inception_5b/5x5 <- inception_5b/5x5_reduce
I1126 10:28:58.726723 10394 net.cpp:411] inception_5b/5x5 -> inception_5b/5x5
I1126 10:28:58.728792 10394 cudnn_conv_layer.cpp:194] Reallocating workspace storage: 9804
I1126 10:28:58.728826 10394 net.cpp:150] Setting up inception_5b/5x5
I1126 10:28:58.728835 10394 net.cpp:157] Top shape: 50 128 7 7 (313600)
I1126 10:28:58.728839 10394 net.cpp:165] Memory required for data: 2781872616
I1126 10:28:58.728847 10394 layer_factory.hpp:76] Creating layer inception_5b/prelu_5x5
I1126 10:28:58.728855 10394 net.cpp:106] Creating Layer inception_5b/prelu_5x5
I1126 10:28:58.728860 10394 net.cpp:454] inception_5b/prelu_5x5 <- inception_5b/5x5
I1126 10:28:58.728866 10394 net.cpp:397] inception_5b/prelu_5x5 -> inception_5b/5x5 (in-place)
I1126 10:28:58.728963 10394 net.cpp:150] Setting up inception_5b/prelu_5x5
I1126 10:28:58.728971 10394 net.cpp:157] Top shape: 50 128 7 7 (313600)
I1126 10:28:58.728976 10394 net.cpp:165] Memory required for data: 2783127016
I1126 10:28:58.728981 10394 layer_factory.hpp:76] Creating layer inception_5b/pool
I1126 10:28:58.728988 10394 net.cpp:106] Creating Layer inception_5b/pool
I1126 10:28:58.728993 10394 net.cpp:454] inception_5b/pool <- inception_5a/output_inception_5a/output_0_split_3
I1126 10:28:58.729001 10394 net.cpp:411] inception_5b/pool -> inception_5b/pool
I1126 10:28:58.729205 10394 net.cpp:150] Setting up inception_5b/pool
I1126 10:28:58.729214 10394 net.cpp:157] Top shape: 50 832 7 7 (2038400)
I1126 10:28:58.729218 10394 net.cpp:165] Memory required for data: 2791280616
I1126 10:28:58.729223 10394 layer_factory.hpp:76] Creating layer inception_5b/pool_proj
I1126 10:28:58.729233 10394 net.cpp:106] Creating Layer inception_5b/pool_proj
I1126 10:28:58.729238 10394 net.cpp:454] inception_5b/pool_proj <- inception_5b/pool
I1126 10:28:58.729245 10394 net.cpp:411] inception_5b/pool_proj -> inception_5b/pool_proj
I1126 10:28:58.731807 10394 cudnn_conv_layer.cpp:194] Reallocating workspace storage: 7428
I1126 10:28:58.731887 10394 net.cpp:150] Setting up inception_5b/pool_proj
I1126 10:28:58.731899 10394 net.cpp:157] Top shape: 50 128 7 7 (313600)
I1126 10:28:58.731904 10394 net.cpp:165] Memory required for data: 2792535016
I1126 10:28:58.731912 10394 layer_factory.hpp:76] Creating layer inception_5b/prelu_pool_proj
I1126 10:28:58.731925 10394 net.cpp:106] Creating Layer inception_5b/prelu_pool_proj
I1126 10:28:58.731933 10394 net.cpp:454] inception_5b/prelu_pool_proj <- inception_5b/pool_proj
I1126 10:28:58.731943 10394 net.cpp:397] inception_5b/prelu_pool_proj -> inception_5b/pool_proj (in-place)
I1126 10:28:58.732043 10394 net.cpp:150] Setting up inception_5b/prelu_pool_proj
I1126 10:28:58.732051 10394 net.cpp:157] Top shape: 50 128 7 7 (313600)
I1126 10:28:58.732055 10394 net.cpp:165] Memory required for data: 2793789416
I1126 10:28:58.732060 10394 layer_factory.hpp:76] Creating layer inception_5b/output
I1126 10:28:58.732069 10394 net.cpp:106] Creating Layer inception_5b/output
I1126 10:28:58.732074 10394 net.cpp:454] inception_5b/output <- inception_5b/1x1
I1126 10:28:58.732079 10394 net.cpp:454] inception_5b/output <- inception_5b/3x3
I1126 10:28:58.732084 10394 net.cpp:454] inception_5b/output <- inception_5b/5x5
I1126 10:28:58.732089 10394 net.cpp:454] inception_5b/output <- inception_5b/pool_proj
I1126 10:28:58.732095 10394 net.cpp:411] inception_5b/output -> inception_5b/output
I1126 10:28:58.732122 10394 net.cpp:150] Setting up inception_5b/output
I1126 10:28:58.732131 10394 net.cpp:157] Top shape: 50 1024 7 7 (2508800)
I1126 10:28:58.732134 10394 net.cpp:165] Memory required for data: 2803824616
I1126 10:28:58.732138 10394 layer_factory.hpp:76] Creating layer pool5/7x7_s1
I1126 10:28:58.732146 10394 net.cpp:106] Creating Layer pool5/7x7_s1
I1126 10:28:58.732151 10394 net.cpp:454] pool5/7x7_s1 <- inception_5b/output
I1126 10:28:58.732158 10394 net.cpp:411] pool5/7x7_s1 -> pool5/7x7_s1
I1126 10:28:58.732657 10394 net.cpp:150] Setting up pool5/7x7_s1
I1126 10:28:58.732683 10394 net.cpp:157] Top shape: 50 1024 1 1 (51200)
I1126 10:28:58.732692 10394 net.cpp:165] Memory required for data: 2804029416
I1126 10:28:58.732700 10394 layer_factory.hpp:76] Creating layer pool5/drop_7x7_s1
I1126 10:28:58.732727 10394 net.cpp:106] Creating Layer pool5/drop_7x7_s1
I1126 10:28:58.732740 10394 net.cpp:454] pool5/drop_7x7_s1 <- pool5/7x7_s1
I1126 10:28:58.732753 10394 net.cpp:397] pool5/drop_7x7_s1 -> pool5/7x7_s1 (in-place)
I1126 10:28:58.732799 10394 net.cpp:150] Setting up pool5/drop_7x7_s1
I1126 10:28:58.732810 10394 net.cpp:157] Top shape: 50 1024 1 1 (51200)
I1126 10:28:58.732815 10394 net.cpp:165] Memory required for data: 2804234216
I1126 10:28:58.732821 10394 layer_factory.hpp:76] Creating layer loss3/classifier2
I1126 10:28:58.732833 10394 net.cpp:106] Creating Layer loss3/classifier2
I1126 10:28:58.732841 10394 net.cpp:454] loss3/classifier2 <- pool5/7x7_s1
I1126 10:28:58.732851 10394 net.cpp:411] loss3/classifier2 -> loss3/classifier
I1126 10:28:58.733080 10394 net.cpp:150] Setting up loss3/classifier2
I1126 10:28:58.733093 10394 net.cpp:157] Top shape: 50 2 (100)
I1126 10:28:58.733098 10394 net.cpp:165] Memory required for data: 2804234616
I1126 10:28:58.733108 10394 layer_factory.hpp:76] Creating layer loss3/classifier_loss3/classifier2_0_split
I1126 10:28:58.733117 10394 net.cpp:106] Creating Layer loss3/classifier_loss3/classifier2_0_split
I1126 10:28:58.733124 10394 net.cpp:454] loss3/classifier_loss3/classifier2_0_split <- loss3/classifier
I1126 10:28:58.733134 10394 net.cpp:411] loss3/classifier_loss3/classifier2_0_split -> loss3/classifier_loss3/classifier2_0_split_0
I1126 10:28:58.733145 10394 net.cpp:411] loss3/classifier_loss3/classifier2_0_split -> loss3/classifier_loss3/classifier2_0_split_1
I1126 10:28:58.733198 10394 net.cpp:150] Setting up loss3/classifier_loss3/classifier2_0_split
I1126 10:28:58.733211 10394 net.cpp:157] Top shape: 50 2 (100)
I1126 10:28:58.733217 10394 net.cpp:157] Top shape: 50 2 (100)
I1126 10:28:58.733223 10394 net.cpp:165] Memory required for data: 2804235416
I1126 10:28:58.733247 10394 layer_factory.hpp:76] Creating layer loss3/loss3
I1126 10:28:58.733256 10394 net.cpp:106] Creating Layer loss3/loss3
I1126 10:28:58.733263 10394 net.cpp:454] loss3/loss3 <- loss3/classifier_loss3/classifier2_0_split_0
I1126 10:28:58.733270 10394 net.cpp:454] loss3/loss3 <- label_data_1_split_4
…
