…
I1126 10:34:52.203440 10411 net.cpp:322] The NetState phase (0) differed from the phase (1) specified by a rule in layer loss3/top-1
I1126 10:34:52.204428 10411 net.cpp:49] Initializing net from parameters: 
name: "GoogleNet"
state {
  phase: TRAIN
}
layer {
  name: "data"
  type: "Data"
  top: "data"
  top: "label"
  include {
    phase: TRAIN
  }
  transform_param {
    mirror: true
    crop_size: 224
    mean_value: 104
    mean_value: 117
    mean_value: 123
  }
  data_param {
    source: "../../LMDB-s300/train_7-lmdb"
    batch_size: 32
    backend: LMDB
  }
}
layer {
  name: "conv1/7x7_s2"
  type: "Convolution"
  bottom: "data"
  top: "conv1/7x7_s2"
  param {
    lr_mult: 1
    decay_mult: 1
  }
  param {
    lr_mult: 2
    decay_mult: 0
  }
  convolution_param {
    num_output: 64
    pad: 3
    kernel_size: 7
    stride: 2
    weight_filler {
      type: "xavier"
    }
    bias_filler {
      type: "constant"
      value: 0.2
    }
  }
}
layer {
  name: "conv1/prelu_7x7"
  type: "PReLU"
  bottom: "conv1/7x7_s2"
  top: "conv1/7x7_s2"
  param {
    lr_mult: 1
    decay_mult: 0
  }
  prelu_param {
    filler {
      type: "constant"
      value: 0.01
    }
  }
}
layer {
  name: "pool1/3x3_s2"
  type: "Pooling"
  bottom: "conv1/7x7_s2"
  top: "pool1/3x3_s2"
  pooling_param {
    pool: MAX
    kernel_size: 3
    stride: 2
  }
}
layer {
  name: "pool1/norm1"
  type: "LRN"
  bottom: "pool1/3x3_s2"
  top: "pool1/norm1"
  lrn_param {
    local_size: 5
    alpha: 0.0001
    beta: 0.75
  }
}
layer {
  name: "conv2/3x3_reduce"
  type: "Convolution"
  bottom: "pool1/norm1"
  top: "conv2/3x3_reduce"
  param {
    lr_mult: 1
    decay_mult: 1
  }
  param {
    lr_mult: 2
    decay_mult: 0
  }
  convolution_param {
    num_output: 64
    kernel_size: 1
    weight_filler {
      type: "xavier"
    }
    bias_filler {
      type: "constant"
      value: 0.2
    }
  }
}
layer {
  name: "conv2/prelu_3x3_reduce"
  type: "PReLU"
  bottom: "conv2/3x3_reduce"
  top: "conv2/3x3_reduce"
  param {
    lr_mult: 1
    decay_mult: 0
  }
  prelu_param {
    filler {
      type: "constant"
      value: 0.01
    }
  }
}
layer {
  name: "conv2/3x3"
  type: "Convolution"
  bottom: "conv2/3x3_reduce"
  top: "conv2/3x3"
  param {
    lr_mult: 1
    decay_mult: 1
  }
  param {
    lr_mult: 2
    decay_mult: 0
  }
  convolution_param {
    num_output: 192
    pad: 1
    kernel_size: 3
    weight_filler {
      type: "xavier"
    }
    bias_filler {
      type: "constant"
      value: 0.2
    }
  }
}
layer {
  name: "conv2/prelu_3x3"
  type: "PReLU"
  bottom: "conv2/3x3"
  top: "conv2/3x3"
  param {
    lr_mult: 1
    decay_mult: 0
  }
  prelu_param {
    filler {
      type: "constant"
      value: 0.01
    }
  }
}
layer {
  name: "conv2/norm2"
  type: "LRN"
  bottom: "conv2/3x3"
  top: "conv2/norm2"
  lrn_param {
    local_size: 5
    alpha: 0.0001
    beta: 0.75
  }
}
layer {
  name: "pool2/3x3_s2"
  type: "Pooling"
  bottom: "conv2/norm2"
  top: "pool2/3x3_s2"
  pooling_param {
    pool: MAX
    kernel_size: 3
    stride: 2
  }
}
layer {
  name: "inception_3a/1x1"
  type: "Convolution"
  bottom: "pool2/3x3_s2"
  top: "inception_3a/1x1"
  param {
    lr_mult: 1
    decay_mult: 1
  }
  param {
    lr_mult: 2
    decay_mult: 0
  }
  convolution_param {
    num_output: 64
    kernel_size: 1
    weight_filler {
      type: "xavier"
    }
    bias_filler {
      type: "constant"
      value: 0.2
    }
  }
}
layer {
  name: "inception_3a/prelu_1x1"
  type: "PReLU"
  bottom: "inception_3a/1x1"
  top: "inception_3a/1x1"
  param {
    lr_mult: 1
    decay_mult: 0
  }
  prelu_param {
    filler {
      type: "constant"
      value: 0.01
    }
  }
}
layer {
  name: "inception_3a/3x3_reduce"
  type: "Convolution"
  bottom: "pool2/3x3_s2"
  top: "inception_3a/3x3_reduce"
  param {
    lr_mult: 1
    decay_mult: 1
  }
  param {
    lr_mult: 2
    decay_mult: 0
  }
  convolution_param {
    num_output: 96
    kernel_size: 1
    weight_filler {
      type: "xavier"
    }
    bias_filler {
      type: "constant"
      value: 0.2
    }
  }
}
layer {
  name: "inception_3a/prelu_3x3_reduce"
  type: "PReLU"
  bottom: "inception_3a/3x3_reduce"
  top: "inception_3a/3x3_reduce"
  param {
    lr_mult: 1
    decay_mult: 0
  }
  prelu_param {
    filler {
      type: "constant"
      value: 0.01
    }
  }
}
layer {
  name: "inception_3a/3x3"
  type: "Convolution"
  bottom: "inception_3a/3x3_reduce"
  top: "inception_3a/3x3"
  param {
    lr_mult: 1
    decay_mult: 1
  }
  param {
    lr_mult: 2
    decay_mult: 0
  }
  convolution_param {
    num_output: 128
    pad: 1
    kernel_size: 3
    weight_filler {
      type: "xavier"
    }
    bias_filler {
      type: "constant"
      value: 0.2
    }
  }
}
layer {
  name: "inception_3a/prelu_3x3"
  type: "PReLU"
  bottom: "inception_3a/3x3"
  top: "inception_3a/3x3"
  param {
    lr_mult: 1
    decay_mult: 0
  }
  prelu_param {
    filler {
      type: "constant"
      value: 0.01
    }
  }
}
layer {
  name: "inception_3a/5x5_reduce"
  type: "Convolution"
  bottom: "pool2/3x3_s2"
  top: "inception_3a/5x5_reduce"
  param {
    lr_mult: 1
    decay_mult: 1
  }
  param {
    lr_mult: 2
    decay_mult: 0
  }
  convolution_param {
    num_output: 16
    kernel_size: 1
    weight_filler {
      type: "xavier"
    }
    bias_filler {
      type: "constant"
      value: 0.2
    }
  }
}
layer {
  name: "inception_3a/prelu_5x5_reduce"
  type: "PReLU"
  bottom: "inception_3a/5x5_reduce"
  top: "inception_3a/5x5_reduce"
  param {
    lr_mult: 1
    decay_mult: 0
  }
  prelu_param {
    filler {
      type: "constant"
      value: 0.01
    }
  }
}
layer {
  name: "inception_3a/5x5"
  type: "Convolution"
  bottom: "inception_3a/5x5_reduce"
  top: "inception_3a/5x5"
  param {
    lr_mult: 1
    decay_mult: 1
  }
  param {
    lr_mult: 2
    decay_mult: 0
  }
  convolution_param {
    num_output: 32
    pad: 2
    kernel_size: 5
    weight_filler {
      type: "xavier"
    }
    bias_filler {
      type: "constant"
      value: 0.2
    }
  }
}
layer {
  name: "inception_3a/prelu_5x5"
  type: "PReLU"
  bottom: "inception_3a/5x5"
  top: "inception_3a/5x5"
  param {
    lr_mult: 1
    decay_mult: 0
  }
  prelu_param {
    filler {
      type: "constant"
      value: 0.01
    }
  }
}
layer {
  name: "inception_3a/pool"
  type: "Pooling"
  bottom: "pool2/3x3_s2"
  top: "inception_3a/pool"
  pooling_param {
    pool: MAX
    kernel_size: 3
    stride: 1
    pad: 1
  }
}
layer {
  name: "inception_3a/pool_proj"
  type: "Convolution"
  bottom: "inception_3a/pool"
  top: "inception_3a/pool_proj"
  param {
    lr_mult: 1
    decay_mult: 1
  }
  param {
    lr_mult: 2
    decay_mult: 0
  }
  convolution_param {
    num_output: 32
    kernel_size: 1
    weight_filler {
      type: "xavier"
    }
    bias_filler {
      type: "constant"
      value: 0.2
    }
  }
}
layer {
  name: "inception_3a/prelu_pool_proj"
  type: "PReLU"
  bottom: "inception_3a/pool_proj"
  top: "inception_3a/pool_proj"
  param {
    lr_mult: 1
    decay_mult: 0
  }
  prelu_param {
    filler {
      type: "constant"
      value: 0.01
    }
  }
}
layer {
  name: "inception_3a/output"
  type: "Concat"
  bottom: "inception_3a/1x1"
  bottom: "inception_3a/3x3"
  bottom: "inception_3a/5x5"
  bottom: "inception_3a/pool_proj"
  top: "inception_3a/output"
}
layer {
  name: "inception_3b/1x1"
  type: "Convolution"
  bottom: "inception_3a/output"
  top: "inception_3b/1x1"
  param {
    lr_mult: 1
    decay_mult: 1
  }
  param {
    lr_mult: 2
    decay_mult: 0
  }
  convolution_param {
    num_output: 128
    kernel_size: 1
    weight_filler {
      type: "xavier"
    }
    bias_filler {
      type: "constant"
      value: 0.2
    }
  }
}
layer {
  name: "inception_3b/prelu_1x1"
  type: "PReLU"
  bottom: "inception_3b/1x1"
  top: "inception_3b/1x1"
  param {
    lr_mult: 1
    decay_mult: 0
  }
  prelu_param {
    filler {
      type: "constant"
      value: 0.01
    }
  }
}
layer {
  name: "inception_3b/3x3_reduce"
  type: "Convolution"
  bottom: "inception_3a/output"
  top: "inception_3b/3x3_reduce"
  param {
    lr_mult: 1
    decay_mult: 1
  }
  param {
    lr_mult: 2
    decay_mult: 0
  }
  convolution_param {
    num_output: 128
    kernel_size: 1
    weight_filler {
      type: "xavier"
    }
    bias_filler {
      type: "constant"
      value: 0.2
    }
  }
}
layer {
  name: "inception_3b/prelu_3x3_reduce"
  type: "PReLU"
  bottom: "inception_3b/3x3_reduce"
  top: "inception_3b/3x3_reduce"
  param {
    lr_mult: 1
    decay_mult: 0
  }
  prelu_param {
    filler {
      type: "constant"
      value: 0.01
    }
  }
}
layer {
  name: "inception_3b/3x3"
  type: "Convolution"
  bottom: "inception_3b/3x3_reduce"
  top: "inception_3b/3x3"
  param {
    lr_mult: 1
    decay_mult: 1
  }
  param {
    lr_mult: 2
    decay_mult: 0
  }
  convolution_param {
    num_output: 192
    pad: 1
    kernel_size: 3
    weight_filler {
      type: "xavier"
    }
    bias_filler {
      type: "constant"
      value: 0.2
    }
  }
}
layer {
  name: "inception_3b/prelu_3x3"
  type: "PReLU"
  bottom: "inception_3b/3x3"
  top: "inception_3b/3x3"
  param {
    lr_mult: 1
    decay_mult: 0
  }
  prelu_param {
    filler {
      type: "constant"
      value: 0.01
    }
  }
}
layer {
  name: "inception_3b/5x5_reduce"
  type: "Convolution"
  bottom: "inception_3a/output"
  top: "inception_3b/5x5_reduce"
  param {
    lr_mult: 1
    decay_mult: 1
  }
  param {
    lr_mult: 2
    decay_mult: 0
  }
  convolution_param {
    num_output: 32
    kernel_size: 1
    weight_filler {
      type: "xavier"
    }
    bias_filler {
      type: "constant"
      value: 0.2
    }
  }
}
layer {
  name: "inception_3b/prelu_5x5_reduce"
  type: "PReLU"
  bottom: "inception_3b/5x5_reduce"
  top: "inception_3b/5x5_reduce"
  param {
    lr_mult: 1
    decay_mult: 0
  }
  prelu_param {
    filler {
      type: "constant"
      value: 0.01
    }
  }
}
layer {
  name: "inception_3b/5x5"
  type: "Convolution"
  bottom: "inception_3b/5x5_reduce"
  top: "inception_3b/5x5"
  param {
    lr_mult: 1
    decay_mult: 1
  }
  param {
    lr_mult: 2
    decay_mult: 0
  }
  convolution_param {
    num_output: 96
    pad: 2
    kernel_size: 5
    weight_filler {
      type: "xavier"
    }
    bias_filler {
      type: "constant"
      value: 0.2
    }
  }
}
layer {
  name: "inception_3b/prelu_5x5"
  type: "PReLU"
  bottom: "inception_3b/5x5"
  top: "inception_3b/5x5"
  param {
    lr_mult: 1
    decay_mult: 0
  }
  prelu_param {
    filler {
      type: "constant"
      value: 0.01
    }
  }
}
layer {
  name: "inception_3b/pool"
  type: "Pooling"
  bottom: "inception_3a/output"
  top: "inception_3b/pool"
  pooling_param {
    pool: MAX
    kernel_size: 3
    stride: 1
    pad: 1
  }
}
layer {
  name: "inception_3b/pool_proj"
  type: "Convolution"
  bottom: "inception_3b/pool"
  top: "inception_3b/pool_proj"
  param {
    lr_mult: 1
    decay_mult: 1
  }
  param {
    lr_mult: 2
    decay_mult: 0
  }
  convolution_param {
    num_output: 64
    kernel_size: 1
    weight_filler {
      type: "xavier"
    }
    bias_filler {
      type: "constant"
      value: 0.2
    }
  }
}
layer {
  name: "inception_3b/prelu_pool_proj"
  type: "PReLU"
  bottom: "inception_3b/pool_proj"
  top: "inception_3b/pool_proj"
  param {
    lr_mult: 1
    decay_mult: 0
  }
  prelu_param {
    filler {
      type: "constant"
      value: 0.01
    }
  }
}
layer {
  name: "inception_3b/output"
  type: "Concat"
  bottom: "inception_3b/1x1"
  bottom: "inception_3b/3x3"
  bottom: "inception_3b/5x5"
  bottom: "inception_3b/pool_proj"
  top: "inception_3b/output"
}
layer {
  name: "pool3/3x3_s2"
  type: "Pooling"
  bottom: "inception_3b/output"
  top: "pool3/3x3_s2"
  pooling_param {
    pool: MAX
    kernel_size: 3
    stride: 2
  }
}
layer {
  name: "inception_4a/1x1"
  type: "Convolution"
  bottom: "pool3/3x3_s2"
  top: "inception_4a/1x1"
  param {
    lr_mult: 1
    decay_mult: 1
  }
  param {
    lr_mult: 2
    decay_mult: 0
  }
  convolution_param {
    num_output: 192
    kernel_size: 1
    weight_filler {
      type: "xavier"
    }
    bias_filler {
      type: "constant"
      value: 0.2
    }
  }
}
layer {
  name: "inception_4a/prelu_1x1"
  type: "PReLU"
  bottom: "inception_4a/1x1"
  top: "inception_4a/1x1"
  param {
    lr_mult: 1
    decay_mult: 0
  }
  prelu_param {
    filler {
      type: "constant"
      value: 0.01
    }
  }
}
layer {
  name: "inception_4a/3x3_reduce"
  type: "Convolution"
  bottom: "pool3/3x3_s2"
  top: "inception_4a/3x3_reduce"
  param {
    lr_mult: 1
    decay_mult: 1
  }
  param {
    lr_mult: 2
    decay_mult: 0
  }
  convolution_param {
    num_output: 96
    kernel_size: 1
    weight_filler {
      type: "xavier"
    }
    bias_filler {
      type: "constant"
      value: 0.2
    }
  }
}
layer {
  name: "inception_4a/prelu_3x3_reduce"
  type: "PReLU"
  bottom: "inception_4a/3x3_reduce"
  top: "inception_4a/3x3_reduce"
  param {
    lr_mult: 1
    decay_mult: 0
  }
  prelu_param {
    filler {
      type: "constant"
      value: 0.01
    }
  }
}
layer {
  name: "inception_4a/3x3"
  type: "Convolution"
  bottom: "inception_4a/3x3_reduce"
  top: "inception_4a/3x3"
  param {
    lr_mult: 1
    decay_mult: 1
  }
  param {
    lr_mult: 2
    decay_mult: 0
  }
  convolution_param {
    num_output: 208
    pad: 1
    kernel_size: 3
    weight_filler {
      type: "xavier"
    }
    bias_filler {
      type: "constant"
      value: 0.2
    }
  }
}
layer {
  name: "inception_4a/prelu_3x3"
  type: "PReLU"
  bottom: "inception_4a/3x3"
  top: "inception_4a/3x3"
  param {
    lr_mult: 1
    decay_mult: 0
  }
  prelu_param {
    filler {
      type: "constant"
      value: 0.01
    }
  }
}
layer {
  name: "inception_4a/5x5_reduce"
  type: "Convolution"
  bottom: "pool3/3x3_s2"
  top: "inception_4a/5x5_reduce"
  param {
    lr_mult: 1
    decay_mult: 1
  }
  param {
    lr_mult: 2
    decay_mult: 0
  }
  convolution_param {
    num_output: 16
    kernel_size: 1
    weight_filler {
      type: "xavier"
    }
    bias_filler {
      type: "constant"
      value: 0.2
    }
  }
}
layer {
  name: "inception_4a/prelu_5x5_reduce"
  type: "PReLU"
  bottom: "inception_4a/5x5_reduce"
  top: "inception_4a/5x5_reduce"
  param {
    lr_mult: 1
    decay_mult: 0
  }
  prelu_param {
    filler {
      type: "constant"
      value: 0.01
    }
  }
}
layer {
  name: "inception_4a/5x5"
  type: "Convolution"
  bottom: "inception_4a/5x5_reduce"
  top: "inception_4a/5x5"
  param {
    lr_mult: 1
    decay_mult: 1
  }
  param {
    lr_mult: 2
    decay_mult: 0
  }
  convolution_param {
    num_output: 48
    pad: 2
    kernel_size: 5
    weight_filler {
      type: "xavier"
    }
    bias_filler {
      type: "constant"
      value: 0.2
    }
  }
}
layer {
  name: "inception_4a/prelu_5x5"
  type: "PReLU"
  bottom: "inception_4a/5x5"
  top: "inception_4a/5x5"
  param {
    lr_mult: 1
    decay_mult: 0
  }
  prelu_param {
    filler {
      type: "constant"
      value: 0.01
    }
  }
}
layer {
  name: "inception_4a/pool"
  type: "Pooling"
  bottom: "pool3/3x3_s2"
  top: "inception_4a/pool"
  pooling_param {
    pool: MAX
    kernel_size: 3
    stride: 1
    pad: 1
  }
}
layer {
  name: "inception_4a/pool_proj"
  type: "Convolution"
  bottom: "inception_4a/pool"
  top: "inception_4a/pool_proj"
  param {
    lr_mult: 1
    decay_mult: 1
  }
  param {
    lr_mult: 2
    decay_mult: 0
  }
  convolution_param {
    num_output: 64
    kernel_size: 1
    weight_filler {
      type: "xavier"
    }
    bias_filler {
      type: "constant"
      value: 0.2
    }
  }
}
layer {
  name: "inception_4a/prelu_pool_proj"
  type: "PReLU"
  bottom: "inception_4a/pool_proj"
  top: "inception_4a/pool_proj"
  param {
    lr_mult: 1
    decay_mult: 0
  }
  prelu_param {
    filler {
      type: "constant"
      value: 0.01
    }
  }
}
layer {
  name: "inception_4a/output"
  type: "Concat"
  bottom: "inception_4a/1x1"
  bottom: "inception_4a/3x3"
  bottom: "inception_4a/5x5"
  bottom: "inception_4a/pool_proj"
  top: "inception_4a/output"
}
layer {
  name: "loss1/ave_pool"
  type: "Pooling"
  bottom: "inception_4a/output"
  top: "loss1/ave_pool"
  pooling_param {
    pool: AVE
    kernel_size: 5
    stride: 3
  }
}
layer {
  name: "loss1/conv"
  type: "Convolution"
  bottom: "loss1/ave_pool"
  top: "loss1/conv"
  param {
    lr_mult: 1
    decay_mult: 1
  }
  param {
    lr_mult: 2
    decay_mult: 0
  }
  convolution_param {
    num_output: 128
    kernel_size: 1
    weight_filler {
      type: "xavier"
    }
    bias_filler {
      type: "constant"
      value: 0.2
    }
  }
}
layer {
  name: "loss1/prelu_conv"
  type: "PReLU"
  bottom: "loss1/conv"
  top: "loss1/conv"
  param {
    lr_mult: 1
    decay_mult: 0
  }
  prelu_param {
    filler {
      type: "constant"
      value: 0.01
    }
  }
}
layer {
  name: "loss1/fc"
  type: "InnerProduct"
  bottom: "loss1/conv"
  top: "loss1/fc"
  param {
    lr_mult: 1
    decay_mult: 1
  }
  param {
    lr_mult: 2
    decay_mult: 0
  }
  inner_product_param {
    num_output: 1024
    weight_filler {
      type: "xavier"
    }
    bias_filler {
      type: "constant"
      value: 0.2
    }
  }
}
layer {
  name: "loss1/prelu_fc"
  type: "PReLU"
  bottom: "loss1/fc"
  top: "loss1/fc"
  param {
    lr_mult: 1
    decay_mult: 0
  }
  prelu_param {
    filler {
      type: "constant"
      value: 0.01
    }
  }
}
layer {
  name: "loss1/drop_fc"
  type: "Dropout"
  bottom: "loss1/fc"
  top: "loss1/fc"
  dropout_param {
    dropout_ratio: 0.7
  }
}
layer {
  name: "loss1/classifier2"
  type: "InnerProduct"
  bottom: "loss1/fc"
  top: "loss1/classifier"
  param {
    lr_mult: 1
    decay_mult: 1
  }
  param {
    lr_mult: 2
    decay_mult: 0
  }
  inner_product_param {
    num_output: 2
    weight_filler {
      type: "xavier"
    }
    bias_filler {
      type: "constant"
      value: 0
    }
  }
}
layer {
  name: "loss1/loss"
  type: "SoftmaxWithLoss"
  bottom: "loss1/classifier"
  bottom: "label"
  top: "loss1/loss1"
  loss_weight: 0.3
}
layer {
  name: "inception_4b/1x1"
  type: "Convolution"
  bottom: "inception_4a/output"
  top: "inception_4b/1x1"
  param {
    lr_mult: 1
    decay_mult: 1
  }
  param {
    lr_mult: 2
    decay_mult: 0
  }
  convolution_param {
    num_output: 160
    kernel_size: 1
    weight_filler {
      type: "xavier"
    }
    bias_filler {
      type: "constant"
      value: 0.2
    }
  }
}
layer {
  name: "inception_4b/prelu_1x1"
  type: "PReLU"
  bottom: "inception_4b/1x1"
  top: "inception_4b/1x1"
  param {
    lr_mult: 1
    decay_mult: 0
  }
  prelu_param {
    filler {
      type: "constant"
      value: 0.01
    }
  }
}
layer {
  name: "inception_4b/3x3_reduce"
  type: "Convolution"
  bottom: "inception_4a/output"
  top: "inception_4b/3x3_reduce"
  param {
    lr_mult: 1
    decay_mult: 1
  }
  param {
    lr_mult: 2
    decay_mult: 0
  }
  convolution_param {
    num_output: 112
    kernel_size: 1
    weight_filler {
      type: "xavier"
    }
    bias_filler {
      type: "constant"
      value: 0.2
    }
  }
}
layer {
  name: "inception_4b/prelu_3x3_reduce"
  type: "PReLU"
  bottom: "inception_4b/3x3_reduce"
  top: "inception_4b/3x3_reduce"
  param {
    lr_mult: 1
    decay_mult: 0
  }
  prelu_param {
    filler {
      type: "constant"
      value: 0.01
    }
  }
}
layer {
  name: "inception_4b/3x3"
  type: "Convolution"
  bottom: "inception_4b/3x3_reduce"
  top: "inception_4b/3x3"
  param {
    lr_mult: 1
    decay_mult: 1
  }
  param {
    lr_mult: 2
    decay_mult: 0
  }
  convolution_param {
    num_output: 224
    pad: 1
    kernel_size: 3
    weight_filler {
      type: "xavier"
    }
    bias_filler {
      type: "constant"
      value: 0.2
    }
  }
}
layer {
  name: "inception_4b/prelu_3x3"
  type: "PReLU"
  bottom: "inception_4b/3x3"
  top: "inception_4b/3x3"
  param {
    lr_mult: 1
    decay_mult: 0
  }
  prelu_param {
    filler {
      type: "constant"
      value: 0.01
    }
  }
}
layer {
  name: "inception_4b/5x5_reduce"
  type: "Convolution"
  bottom: "inception_4a/output"
  top: "inception_4b/5x5_reduce"
  param {
    lr_mult: 1
    decay_mult: 1
  }
  param {
    lr_mult: 2
    decay_mult: 0
  }
  convolution_param {
    num_output: 24
    kernel_size: 1
    weight_filler {
      type: "xavier"
    }
    bias_filler {
      type: "constant"
      value: 0.2
    }
  }
}
layer {
  name: "inception_4b/prelu_5x5_reduce"
  type: "PReLU"
  bottom: "inception_4b/5x5_reduce"
  top: "inception_4b/5x5_reduce"
  param {
    lr_mult: 1
    decay_mult: 0
  }
  prelu_param {
    filler {
      type: "constant"
      value: 0.01
    }
  }
}
layer {
  name: "inception_4b/5x5"
  type: "Convolution"
  bottom: "inception_4b/5x5_reduce"
  top: "inception_4b/5x5"
  param {
    lr_mult: 1
    decay_mult: 1
  }
  param {
    lr_mult: 2
    decay_mult: 0
  }
  convolution_param {
    num_output: 64
    pad: 2
    kernel_size: 5
    weight_filler {
      type: "xavier"
    }
    bias_filler {
      type: "constant"
      value: 0.2
    }
  }
}
layer {
  name: "inception_4b/prelu_5x5"
  type: "PReLU"
  bottom: "inception_4b/5x5"
  top: "inception_4b/5x5"
  param {
    lr_mult: 1
    decay_mult: 0
  }
  prelu_param {
    filler {
      type: "constant"
      value: 0.01
    }
  }
}
layer {
  name: "inception_4b/pool"
  type: "Pooling"
  bottom: "inception_4a/output"
  top: "inception_4b/pool"
  pooling_param {
    pool: MAX
    kernel_size: 3
    stride: 1
    pad: 1
  }
}
layer {
  name: "inception_4b/pool_proj"
  type: "Convolution"
  bottom: "inception_4b/pool"
  top: "inception_4b/pool_proj"
  param {
    lr_mult: 1
    decay_mult: 1
  }
  param {
    lr_mult: 2
    decay_mult: 0
  }
  convolution_param {
    num_output: 64
    kernel_size: 1
    weight_filler {
      type: "xavier"
    }
    bias_filler {
      type: "constant"
      value: 0.2
    }
  }
}
layer {
  name: "inception_4b/prelu_pool_proj"
  type: "PReLU"
  bottom: "inception_4b/pool_proj"
  top: "inception_4b/pool_proj"
  param {
    lr_mult: 1
    decay_mult: 0
  }
  prelu_param {
    filler {
      type: "constant"
      value: 0.01
    }
  }
}
layer {
  name: "inception_4b/output"
  type: "Concat"
  bottom: "inception_4b/1x1"
  bottom: "inception_4b/3x3"
  bottom: "inception_4b/5x5"
  bottom: "inception_4b/pool_proj"
  top: "inception_4b/output"
}
layer {
  name: "inception_4c/1x1"
  type: "Convolution"
  bottom: "inception_4b/output"
  top: "inception_4c/1x1"
  param {
    lr_mult: 1
    decay_mult: 1
  }
  param {
    lr_mult: 2
    decay_mult: 0
  }
  convolution_param {
    num_output: 128
    kernel_size: 1
    weight_filler {
      type: "xavier"
    }
    bias_filler {
      type: "constant"
      value: 0.2
    }
  }
}
layer {
  name: "inception_4c/prelu_1x1"
  type: "PReLU"
  bottom: "inception_4c/1x1"
  top: "inception_4c/1x1"
  param {
    lr_mult: 1
    decay_mult: 0
  }
  prelu_param {
    filler {
      type: "constant"
      value: 0.01
    }
  }
}
layer {
  name: "inception_4c/3x3_reduce"
  type: "Convolution"
  bottom: "inception_4b/output"
  top: "inception_4c/3x3_reduce"
  param {
    lr_mult: 1
    decay_mult: 1
  }
  param {
    lr_mult: 2
    decay_mult: 0
  }
  convolution_param {
    num_output: 128
    kernel_size: 1
    weight_filler {
      type: "xavier"
    }
    bias_filler {
      type: "constant"
      value: 0.2
    }
  }
}
layer {
  name: "inception_4c/prelu_3x3_reduce"
  type: "PReLU"
  bottom: "inception_4c/3x3_reduce"
  top: "inception_4c/3x3_reduce"
  param {
    lr_mult: 1
    decay_mult: 0
  }
  prelu_param {
    filler {
      type: "constant"
      value: 0.01
    }
  }
}
layer {
  name: "inception_4c/3x3"
  type: "Convolution"
  bottom: "inception_4c/3x3_reduce"
  top: "inception_4c/3x3"
  param {
    lr_mult: 1
    decay_mult: 1
  }
  param {
    lr_mult: 2
    decay_mult: 0
  }
  convolution_param {
    num_output: 256
    pad: 1
    kernel_size: 3
    weight_filler {
      type: "xavier"
    }
    bias_filler {
      type: "constant"
      value: 0.2
    }
  }
}
layer {
  name: "inception_4c/prelu_3x3"
  type: "PReLU"
  bottom: "inception_4c/3x3"
  top: "inception_4c/3x3"
  param {
    lr_mult: 1
    decay_mult: 0
  }
  prelu_param {
    filler {
      type: "constant"
      value: 0.01
    }
  }
}
layer {
  name: "inception_4c/5x5_reduce"
  type: "Convolution"
  bottom: "inception_4b/output"
  top: "inception_4c/5x5_reduce"
  param {
    lr_mult: 1
    decay_mult: 1
  }
  param {
    lr_mult: 2
    decay_mult: 0
  }
  convolution_param {
    num_output: 24
    kernel_size: 1
    weight_filler {
      type: "xavier"
    }
    bias_filler {
      type: "constant"
      value: 0.2
    }
  }
}
layer {
  name: "inception_4c/prelu_5x5_reduce"
  type: "PReLU"
  bottom: "inception_4c/5x5_reduce"
  top: "inception_4c/5x5_reduce"
  param {
    lr_mult: 1
    decay_mult: 0
  }
  prelu_param {
    filler {
      type: "constant"
      value: 0.01
    }
  }
}
layer {
  name: "inception_4c/5x5"
  type: "Convolution"
  bottom: "inception_4c/5x5_reduce"
  top: "inception_4c/5x5"
  param {
    lr_mult: 1
    decay_mult: 1
  }
  param {
    lr_mult: 2
    decay_mult: 0
  }
  convolution_param {
    num_output: 64
    pad: 2
    kernel_size: 5
    weight_filler {
      type: "xavier"
    }
    bias_filler {
      type: "constant"
      value: 0.2
    }
  }
}
layer {
  name: "inception_4c/prelu_5x5"
  type: "PReLU"
  bottom: "inception_4c/5x5"
  top: "inception_4c/5x5"
  param {
    lr_mult: 1
    decay_mult: 0
  }
  prelu_param {
    filler {
      type: "constant"
      value: 0.01
    }
  }
}
layer {
  name: "inception_4c/pool"
  type: "Pooling"
  bottom: "inception_4b/output"
  top: "inception_4c/pool"
  pooling_param {
    pool: MAX
    kernel_size: 3
    stride: 1
    pad: 1
  }
}
layer {
  name: "inception_4c/pool_proj"
  type: "Convolution"
  bottom: "inception_4c/pool"
  top: "inception_4c/pool_proj"
  param {
    lr_mult: 1
    decay_mult: 1
  }
  param {
    lr_mult: 2
    decay_mult: 0
  }
  convolution_param {
    num_output: 64
    kernel_size: 1
    weight_filler {
      type: "xavier"
    }
    bias_filler {
      type: "constant"
      value: 0.2
    }
  }
}
layer {
  name: "inception_4c/prelu_pool_proj"
  type: "PReLU"
  bottom: "inception_4c/pool_proj"
  top: "inception_4c/pool_proj"
  param {
    lr_mult: 1
    decay_mult: 0
  }
  prelu_param {
    filler {
      type: "constant"
      value: 0.01
    }
  }
}
layer {
  name: "inception_4c/output"
  type: "Concat"
  bottom: "inception_4c/1x1"
  bottom: "inception_4c/3x3"
  bottom: "inception_4c/5x5"
  bottom: "inception_4c/pool_proj"
  top: "inception_4c/output"
}
layer {
  name: "inception_4d/1x1"
  type: "Convolution"
  bottom: "inception_4c/output"
  top: "inception_4d/1x1"
  param {
    lr_mult: 1
    decay_mult: 1
  }
  param {
    lr_mult: 2
    decay_mult: 0
  }
  convolution_param {
    num_output: 112
    kernel_size: 1
    weight_filler {
      type: "xavier"
    }
    bias_filler {
      type: "constant"
      value: 0.2
    }
  }
}
layer {
  name: "inception_4d/prelu_1x1"
  type: "PReLU"
  bottom: "inception_4d/1x1"
  top: "inception_4d/1x1"
  param {
    lr_mult: 1
    decay_mult: 0
  }
  prelu_param {
    filler {
      type: "constant"
      value: 0.01
    }
  }
}
layer {
  name: "inception_4d/3x3_reduce"
  type: "Convolution"
  bottom: "inception_4c/output"
  top: "inception_4d/3x3_reduce"
  param {
    lr_mult: 1
    decay_mult: 1
  }
  param {
    lr_mult: 2
    decay_mult: 0
  }
  convolution_param {
    num_output: 144
    kernel_size: 1
    weight_filler {
      type: "xavier"
    }
    bias_filler {
      type: "constant"
      value: 0.2
    }
  }
}
layer {
  name: "inception_4d/prelu_3x3_reduce"
  type: "PReLU"
  bottom: "inception_4d/3x3_reduce"
  top: "inception_4d/3x3_reduce"
  param {
    lr_mult: 1
    decay_mult: 0
  }
  prelu_param {
    filler {
      type: "constant"
      value: 0.01
    }
  }
}
layer {
  name: "inception_4d/3x3"
  type: "Convolution"
  bottom: "inception_4d/3x3_reduce"
  top: "inception_4d/3x3"
  param {
    lr_mult: 1
    decay_mult: 1
  }
  param {
    lr_mult: 2
    decay_mult: 0
  }
  convolution_param {
    num_output: 288
    pad: 1
    kernel_size: 3
    weight_filler {
      type: "xavier"
    }
    bias_filler {
      type: "constant"
      value: 0.2
    }
  }
}
layer {
  name: "inception_4d/prelu_3x3"
  type: "PReLU"
  bottom: "inception_4d/3x3"
  top: "inception_4d/3x3"
  param {
    lr_mult: 1
    decay_mult: 0
  }
  prelu_param {
    filler {
      type: "constant"
      value: 0.01
    }
  }
}
layer {
  name: "inception_4d/5x5_reduce"
  type: "Convolution"
  bottom: "inception_4c/output"
  top: "inception_4d/5x5_reduce"
  param {
    lr_mult: 1
    decay_mult: 1
  }
  param {
    lr_mult: 2
    decay_mult: 0
  }
  convolution_param {
    num_output: 32
    kernel_size: 1
    weight_filler {
      type: "xavier"
    }
    bias_filler {
      type: "constant"
      value: 0.2
    }
  }
}
layer {
  name: "inception_4d/prelu_5x5_reduce"
  type: "PReLU"
  bottom: "inception_4d/5x5_reduce"
  top: "inception_4d/5x5_reduce"
  param {
    lr_mult: 1
    decay_mult: 0
  }
  prelu_param {
    filler {
      type: "constant"
      value: 0.01
    }
  }
}
layer {
  name: "inception_4d/5x5"
  type: "Convolution"
  bottom: "inception_4d/5x5_reduce"
  top: "inception_4d/5x5"
  param {
    lr_mult: 1
    decay_mult: 1
  }
  param {
    lr_mult: 2
    decay_mult: 0
  }
  convolution_param {
    num_output: 64
    pad: 2
    kernel_size: 5
    weight_filler {
      type: "xavier"
    }
    bias_filler {
      type: "constant"
      value: 0.2
    }
  }
}
layer {
  name: "inception_4d/prelu_5x5"
  type: "PReLU"
  bottom: "inception_4d/5x5"
  top: "inception_4d/5x5"
  param {
    lr_mult: 1
    decay_mult: 0
  }
  prelu_param {
    filler {
      type: "constant"
      value: 0.01
    }
  }
}
layer {
  name: "inception_4d/pool"
  type: "Pooling"
  bottom: "inception_4c/output"
  top: "inception_4d/pool"
  pooling_param {
    pool: MAX
    kernel_size: 3
    stride: 1
    pad: 1
  }
}
layer {
  name: "inception_4d/pool_proj"
  type: "Convolution"
  bottom: 
I1126 10:34:52.205085 10411 layer_factory.hpp:76] Creating layer data
I1126 10:34:52.205482 10411 net.cpp:106] Creating Layer data
I1126 10:34:52.205497 10411 net.cpp:411] data -> data
I1126 10:34:52.205549 10411 net.cpp:411] data -> label
I1126 10:34:52.240275 10415 db_lmdb.cpp:38] Opened lmdb ../../LMDB-s300/train_7-lmdb
I1126 10:34:52.271414 10411 data_layer.cpp:41] output data size: 32,3,224,224
I1126 10:34:52.338556 10411 net.cpp:150] Setting up data
I1126 10:34:52.338608 10411 net.cpp:157] Top shape: 32 3 224 224 (4816896)
I1126 10:34:52.338616 10411 net.cpp:157] Top shape: 32 (32)
I1126 10:34:52.338620 10411 net.cpp:165] Memory required for data: 19267712
I1126 10:34:52.338632 10411 layer_factory.hpp:76] Creating layer label_data_1_split
I1126 10:34:52.338647 10411 net.cpp:106] Creating Layer label_data_1_split
I1126 10:34:52.338654 10411 net.cpp:454] label_data_1_split <- label
I1126 10:34:52.338670 10411 net.cpp:411] label_data_1_split -> label_data_1_split_0
I1126 10:34:52.338680 10411 net.cpp:411] label_data_1_split -> label_data_1_split_1
I1126 10:34:52.338707 10411 net.cpp:411] label_data_1_split -> label_data_1_split_2
I1126 10:34:52.338759 10411 net.cpp:150] Setting up label_data_1_split
I1126 10:34:52.338768 10411 net.cpp:157] Top shape: 32 (32)
I1126 10:34:52.338781 10411 net.cpp:157] Top shape: 32 (32)
I1126 10:34:52.338788 10411 net.cpp:157] Top shape: 32 (32)
I1126 10:34:52.338790 10411 net.cpp:165] Memory required for data: 19268096
I1126 10:34:52.338794 10411 layer_factory.hpp:76] Creating layer conv1/7x7_s2
I1126 10:34:52.338810 10411 net.cpp:106] Creating Layer conv1/7x7_s2
I1126 10:34:52.338815 10411 net.cpp:454] conv1/7x7_s2 <- data
I1126 10:34:52.338821 10411 net.cpp:411] conv1/7x7_s2 -> conv1/7x7_s2
I1126 10:34:52.368434 10416 blocking_queue.cpp:50] Waiting for data
I1126 10:34:52.529713 10411 cudnn_conv_layer.cpp:194] Reallocating workspace storage: 225816
I1126 10:34:52.529965 10411 net.cpp:150] Setting up conv1/7x7_s2
I1126 10:34:52.529979 10411 net.cpp:157] Top shape: 32 64 112 112 (25690112)
I1126 10:34:52.529984 10411 net.cpp:165] Memory required for data: 122028544
I1126 10:34:52.530004 10411 layer_factory.hpp:76] Creating layer conv1/prelu_7x7
I1126 10:34:52.530019 10411 net.cpp:106] Creating Layer conv1/prelu_7x7
I1126 10:34:52.530025 10411 net.cpp:454] conv1/prelu_7x7 <- conv1/7x7_s2
I1126 10:34:52.530032 10411 net.cpp:397] conv1/prelu_7x7 -> conv1/7x7_s2 (in-place)
I1126 10:34:52.531745 10411 net.cpp:150] Setting up conv1/prelu_7x7
I1126 10:34:52.531759 10411 net.cpp:157] Top shape: 32 64 112 112 (25690112)
I1126 10:34:52.531764 10411 net.cpp:165] Memory required for data: 224788992
I1126 10:34:52.531772 10411 layer_factory.hpp:76] Creating layer pool1/3x3_s2
I1126 10:34:52.531785 10411 net.cpp:106] Creating Layer pool1/3x3_s2
I1126 10:34:52.531788 10411 net.cpp:454] pool1/3x3_s2 <- conv1/7x7_s2
I1126 10:34:52.531795 10411 net.cpp:411] pool1/3x3_s2 -> pool1/3x3_s2
I1126 10:34:52.532161 10411 net.cpp:150] Setting up pool1/3x3_s2
I1126 10:34:52.532171 10411 net.cpp:157] Top shape: 32 64 56 56 (6422528)
I1126 10:34:52.532176 10411 net.cpp:165] Memory required for data: 250479104
I1126 10:34:52.532179 10411 layer_factory.hpp:76] Creating layer pool1/norm1
I1126 10:34:52.532191 10411 net.cpp:106] Creating Layer pool1/norm1
I1126 10:34:52.532196 10411 net.cpp:454] pool1/norm1 <- pool1/3x3_s2
I1126 10:34:52.532201 10411 net.cpp:411] pool1/norm1 -> pool1/norm1
I1126 10:34:52.532349 10411 net.cpp:150] Setting up pool1/norm1
I1126 10:34:52.532357 10411 net.cpp:157] Top shape: 32 64 56 56 (6422528)
I1126 10:34:52.532361 10411 net.cpp:165] Memory required for data: 276169216
I1126 10:34:52.532366 10411 layer_factory.hpp:76] Creating layer conv2/3x3_reduce
I1126 10:34:52.532374 10411 net.cpp:106] Creating Layer conv2/3x3_reduce
I1126 10:34:52.532379 10411 net.cpp:454] conv2/3x3_reduce <- pool1/norm1
I1126 10:34:52.532385 10411 net.cpp:411] conv2/3x3_reduce -> conv2/3x3_reduce
I1126 10:34:52.533778 10411 cudnn_conv_layer.cpp:194] Reallocating workspace storage: 63000
I1126 10:34:52.533799 10411 net.cpp:150] Setting up conv2/3x3_reduce
I1126 10:34:52.533807 10411 net.cpp:157] Top shape: 32 64 56 56 (6422528)
I1126 10:34:52.533810 10411 net.cpp:165] Memory required for data: 301859328
I1126 10:34:52.533819 10411 layer_factory.hpp:76] Creating layer conv2/prelu_3x3_reduce
I1126 10:34:52.533828 10411 net.cpp:106] Creating Layer conv2/prelu_3x3_reduce
I1126 10:34:52.533833 10411 net.cpp:454] conv2/prelu_3x3_reduce <- conv2/3x3_reduce
I1126 10:34:52.533838 10411 net.cpp:397] conv2/prelu_3x3_reduce -> conv2/3x3_reduce (in-place)
I1126 10:34:52.534454 10411 net.cpp:150] Setting up conv2/prelu_3x3_reduce
I1126 10:34:52.534464 10411 net.cpp:157] Top shape: 32 64 56 56 (6422528)
I1126 10:34:52.534468 10411 net.cpp:165] Memory required for data: 327549440
I1126 10:34:52.534473 10411 layer_factory.hpp:76] Creating layer conv2/3x3
I1126 10:34:52.534483 10411 net.cpp:106] Creating Layer conv2/3x3
I1126 10:34:52.534487 10411 net.cpp:454] conv2/3x3 <- conv2/3x3_reduce
I1126 10:34:52.534494 10411 net.cpp:411] conv2/3x3 -> conv2/3x3
I1126 10:34:52.536453 10411 cudnn_conv_layer.cpp:194] Reallocating workspace storage: 63000
I1126 10:34:52.536471 10411 net.cpp:150] Setting up conv2/3x3
I1126 10:34:52.536478 10411 net.cpp:157] Top shape: 32 192 56 56 (19267584)
I1126 10:34:52.536483 10411 net.cpp:165] Memory required for data: 404619776
I1126 10:34:52.536489 10411 layer_factory.hpp:76] Creating layer conv2/prelu_3x3
I1126 10:34:52.536497 10411 net.cpp:106] Creating Layer conv2/prelu_3x3
I1126 10:34:52.536502 10411 net.cpp:454] conv2/prelu_3x3 <- conv2/3x3
I1126 10:34:52.536509 10411 net.cpp:397] conv2/prelu_3x3 -> conv2/3x3 (in-place)
I1126 10:34:52.537648 10411 net.cpp:150] Setting up conv2/prelu_3x3
I1126 10:34:52.537660 10411 net.cpp:157] Top shape: 32 192 56 56 (19267584)
I1126 10:34:52.537688 10411 net.cpp:165] Memory required for data: 481690112
I1126 10:34:52.537699 10411 layer_factory.hpp:76] Creating layer conv2/norm2
I1126 10:34:52.537708 10411 net.cpp:106] Creating Layer conv2/norm2
I1126 10:34:52.537713 10411 net.cpp:454] conv2/norm2 <- conv2/3x3
I1126 10:34:52.537719 10411 net.cpp:411] conv2/norm2 -> conv2/norm2
I1126 10:34:52.537881 10411 net.cpp:150] Setting up conv2/norm2
I1126 10:34:52.537891 10411 net.cpp:157] Top shape: 32 192 56 56 (19267584)
I1126 10:34:52.537895 10411 net.cpp:165] Memory required for data: 558760448
I1126 10:34:52.537899 10411 layer_factory.hpp:76] Creating layer pool2/3x3_s2
I1126 10:34:52.537906 10411 net.cpp:106] Creating Layer pool2/3x3_s2
I1126 10:34:52.537910 10411 net.cpp:454] pool2/3x3_s2 <- conv2/norm2
I1126 10:34:52.537916 10411 net.cpp:411] pool2/3x3_s2 -> pool2/3x3_s2
I1126 10:34:52.538270 10411 net.cpp:150] Setting up pool2/3x3_s2
I1126 10:34:52.538280 10411 net.cpp:157] Top shape: 32 192 28 28 (4816896)
I1126 10:34:52.538285 10411 net.cpp:165] Memory required for data: 578028032
I1126 10:34:52.538288 10411 layer_factory.hpp:76] Creating layer pool2/3x3_s2_pool2/3x3_s2_0_split
I1126 10:34:52.538295 10411 net.cpp:106] Creating Layer pool2/3x3_s2_pool2/3x3_s2_0_split
I1126 10:34:52.538300 10411 net.cpp:454] pool2/3x3_s2_pool2/3x3_s2_0_split <- pool2/3x3_s2
I1126 10:34:52.538305 10411 net.cpp:411] pool2/3x3_s2_pool2/3x3_s2_0_split -> pool2/3x3_s2_pool2/3x3_s2_0_split_0
I1126 10:34:52.538313 10411 net.cpp:411] pool2/3x3_s2_pool2/3x3_s2_0_split -> pool2/3x3_s2_pool2/3x3_s2_0_split_1
I1126 10:34:52.538321 10411 net.cpp:411] pool2/3x3_s2_pool2/3x3_s2_0_split -> pool2/3x3_s2_pool2/3x3_s2_0_split_2
I1126 10:34:52.538326 10411 net.cpp:411] pool2/3x3_s2_pool2/3x3_s2_0_split -> pool2/3x3_s2_pool2/3x3_s2_0_split_3
I1126 10:34:52.538374 10411 net.cpp:150] Setting up pool2/3x3_s2_pool2/3x3_s2_0_split
I1126 10:34:52.538388 10411 net.cpp:157] Top shape: 32 192 28 28 (4816896)
I1126 10:34:52.538393 10411 net.cpp:157] Top shape: 32 192 28 28 (4816896)
I1126 10:34:52.538398 10411 net.cpp:157] Top shape: 32 192 28 28 (4816896)
I1126 10:34:52.538403 10411 net.cpp:157] Top shape: 32 192 28 28 (4816896)
I1126 10:34:52.538406 10411 net.cpp:165] Memory required for data: 655098368
I1126 10:34:52.538410 10411 layer_factory.hpp:76] Creating layer inception_3a/1x1
I1126 10:34:52.538419 10411 net.cpp:106] Creating Layer inception_3a/1x1
I1126 10:34:52.538424 10411 net.cpp:454] inception_3a/1x1 <- pool2/3x3_s2_pool2/3x3_s2_0_split_0
I1126 10:34:52.538430 10411 net.cpp:411] inception_3a/1x1 -> inception_3a/1x1
I1126 10:34:52.539921 10411 cudnn_conv_layer.cpp:194] Reallocating workspace storage: 20664
I1126 10:34:52.539942 10411 net.cpp:150] Setting up inception_3a/1x1
I1126 10:34:52.539950 10411 net.cpp:157] Top shape: 32 64 28 28 (1605632)
I1126 10:34:52.539954 10411 net.cpp:165] Memory required for data: 661520896
I1126 10:34:52.539960 10411 layer_factory.hpp:76] Creating layer inception_3a/prelu_1x1
I1126 10:34:52.539976 10411 net.cpp:106] Creating Layer inception_3a/prelu_1x1
I1126 10:34:52.539980 10411 net.cpp:454] inception_3a/prelu_1x1 <- inception_3a/1x1
I1126 10:34:52.539988 10411 net.cpp:397] inception_3a/prelu_1x1 -> inception_3a/1x1 (in-place)
I1126 10:34:52.540566 10411 net.cpp:150] Setting up inception_3a/prelu_1x1
I1126 10:34:52.540577 10411 net.cpp:157] Top shape: 32 64 28 28 (1605632)
I1126 10:34:52.540581 10411 net.cpp:165] Memory required for data: 667943424
I1126 10:34:52.540587 10411 layer_factory.hpp:76] Creating layer inception_3a/3x3_reduce
I1126 10:34:52.540598 10411 net.cpp:106] Creating Layer inception_3a/3x3_reduce
I1126 10:34:52.540603 10411 net.cpp:454] inception_3a/3x3_reduce <- pool2/3x3_s2_pool2/3x3_s2_0_split_1
I1126 10:34:52.540609 10411 net.cpp:411] inception_3a/3x3_reduce -> inception_3a/3x3_reduce
I1126 10:34:52.541559 10411 cudnn_conv_layer.cpp:194] Reallocating workspace storage: 20664
I1126 10:34:52.541580 10411 net.cpp:150] Setting up inception_3a/3x3_reduce
I1126 10:34:52.541589 10411 net.cpp:157] Top shape: 32 96 28 28 (2408448)
I1126 10:34:52.541609 10411 net.cpp:165] Memory required for data: 677577216
I1126 10:34:52.541615 10411 layer_factory.hpp:76] Creating layer inception_3a/prelu_3x3_reduce
I1126 10:34:52.541626 10411 net.cpp:106] Creating Layer inception_3a/prelu_3x3_reduce
I1126 10:34:52.541632 10411 net.cpp:454] inception_3a/prelu_3x3_reduce <- inception_3a/3x3_reduce
I1126 10:34:52.541638 10411 net.cpp:397] inception_3a/prelu_3x3_reduce -> inception_3a/3x3_reduce (in-place)
I1126 10:34:52.541766 10411 net.cpp:150] Setting up inception_3a/prelu_3x3_reduce
I1126 10:34:52.541774 10411 net.cpp:157] Top shape: 32 96 28 28 (2408448)
I1126 10:34:52.541779 10411 net.cpp:165] Memory required for data: 687211008
I1126 10:34:52.541784 10411 layer_factory.hpp:76] Creating layer inception_3a/3x3
I1126 10:34:52.541792 10411 net.cpp:106] Creating Layer inception_3a/3x3
I1126 10:34:52.541797 10411 net.cpp:454] inception_3a/3x3 <- inception_3a/3x3_reduce
I1126 10:34:52.541805 10411 net.cpp:411] inception_3a/3x3 -> inception_3a/3x3
I1126 10:34:52.543962 10411 cudnn_conv_layer.cpp:194] Reallocating workspace storage: 20664
I1126 10:34:52.543998 10411 net.cpp:150] Setting up inception_3a/3x3
I1126 10:34:52.544006 10411 net.cpp:157] Top shape: 32 128 28 28 (3211264)
I1126 10:34:52.544010 10411 net.cpp:165] Memory required for data: 700056064
I1126 10:34:52.544026 10411 layer_factory.hpp:76] Creating layer inception_3a/prelu_3x3
I1126 10:34:52.544039 10411 net.cpp:106] Creating Layer inception_3a/prelu_3x3
I1126 10:34:52.544044 10411 net.cpp:454] inception_3a/prelu_3x3 <- inception_3a/3x3
I1126 10:34:52.544051 10411 net.cpp:397] inception_3a/prelu_3x3 -> inception_3a/3x3 (in-place)
I1126 10:34:52.544185 10411 net.cpp:150] Setting up inception_3a/prelu_3x3
I1126 10:34:52.544194 10411 net.cpp:157] Top shape: 32 128 28 28 (3211264)
I1126 10:34:52.544198 10411 net.cpp:165] Memory required for data: 712901120
I1126 10:34:52.544203 10411 layer_factory.hpp:76] Creating layer inception_3a/5x5_reduce
I1126 10:34:52.544216 10411 net.cpp:106] Creating Layer inception_3a/5x5_reduce
I1126 10:34:52.544221 10411 net.cpp:454] inception_3a/5x5_reduce <- pool2/3x3_s2_pool2/3x3_s2_0_split_2
I1126 10:34:52.544227 10411 net.cpp:411] inception_3a/5x5_reduce -> inception_3a/5x5_reduce
I1126 10:34:52.545521 10411 cudnn_conv_layer.cpp:194] Reallocating workspace storage: 20664
I1126 10:34:52.545544 10411 net.cpp:150] Setting up inception_3a/5x5_reduce
I1126 10:34:52.545552 10411 net.cpp:157] Top shape: 32 16 28 28 (401408)
I1126 10:34:52.545557 10411 net.cpp:165] Memory required for data: 714506752
I1126 10:34:52.545565 10411 layer_factory.hpp:76] Creating layer inception_3a/prelu_5x5_reduce
I1126 10:34:52.545573 10411 net.cpp:106] Creating Layer inception_3a/prelu_5x5_reduce
I1126 10:34:52.545580 10411 net.cpp:454] inception_3a/prelu_5x5_reduce <- inception_3a/5x5_reduce
I1126 10:34:52.545588 10411 net.cpp:397] inception_3a/prelu_5x5_reduce -> inception_3a/5x5_reduce (in-place)
I1126 10:34:52.545676 10411 net.cpp:150] Setting up inception_3a/prelu_5x5_reduce
I1126 10:34:52.545685 10411 net.cpp:157] Top shape: 32 16 28 28 (401408)
I1126 10:34:52.545688 10411 net.cpp:165] Memory required for data: 716112384
I1126 10:34:52.545693 10411 layer_factory.hpp:76] Creating layer inception_3a/5x5
I1126 10:34:52.545727 10411 net.cpp:106] Creating Layer inception_3a/5x5
I1126 10:34:52.545732 10411 net.cpp:454] inception_3a/5x5 <- inception_3a/5x5_reduce
I1126 10:34:52.545737 10411 net.cpp:411] inception_3a/5x5 -> inception_3a/5x5
I1126 10:34:52.546890 10411 cudnn_conv_layer.cpp:194] Reallocating workspace storage: 20664
I1126 10:34:52.546912 10411 net.cpp:150] Setting up inception_3a/5x5
I1126 10:34:52.546919 10411 net.cpp:157] Top shape: 32 32 28 28 (802816)
I1126 10:34:52.546923 10411 net.cpp:165] Memory required for data: 719323648
I1126 10:34:52.546931 10411 layer_factory.hpp:76] Creating layer inception_3a/prelu_5x5
I1126 10:34:52.546939 10411 net.cpp:106] Creating Layer inception_3a/prelu_5x5
I1126 10:34:52.546944 10411 net.cpp:454] inception_3a/prelu_5x5 <- inception_3a/5x5
I1126 10:34:52.546952 10411 net.cpp:397] inception_3a/prelu_5x5 -> inception_3a/5x5 (in-place)
I1126 10:34:52.547080 10411 net.cpp:150] Setting up inception_3a/prelu_5x5
I1126 10:34:52.547087 10411 net.cpp:157] Top shape: 32 32 28 28 (802816)
I1126 10:34:52.547091 10411 net.cpp:165] Memory required for data: 722534912
I1126 10:34:52.547096 10411 layer_factory.hpp:76] Creating layer inception_3a/pool
I1126 10:34:52.547104 10411 net.cpp:106] Creating Layer inception_3a/pool
I1126 10:34:52.547108 10411 net.cpp:454] inception_3a/pool <- pool2/3x3_s2_pool2/3x3_s2_0_split_3
I1126 10:34:52.547114 10411 net.cpp:411] inception_3a/pool -> inception_3a/pool
I1126 10:34:52.547292 10411 net.cpp:150] Setting up inception_3a/pool
I1126 10:34:52.547302 10411 net.cpp:157] Top shape: 32 192 28 28 (4816896)
I1126 10:34:52.547307 10411 net.cpp:165] Memory required for data: 741802496
I1126 10:34:52.547310 10411 layer_factory.hpp:76] Creating layer inception_3a/pool_proj
I1126 10:34:52.547318 10411 net.cpp:106] Creating Layer inception_3a/pool_proj
I1126 10:34:52.547322 10411 net.cpp:454] inception_3a/pool_proj <- inception_3a/pool
I1126 10:34:52.547330 10411 net.cpp:411] inception_3a/pool_proj -> inception_3a/pool_proj
I1126 10:34:52.548353 10411 cudnn_conv_layer.cpp:194] Reallocating workspace storage: 20664
I1126 10:34:52.548372 10411 net.cpp:150] Setting up inception_3a/pool_proj
I1126 10:34:52.548379 10411 net.cpp:157] Top shape: 32 32 28 28 (802816)
I1126 10:34:52.548383 10411 net.cpp:165] Memory required for data: 745013760
I1126 10:34:52.548390 10411 layer_factory.hpp:76] Creating layer inception_3a/prelu_pool_proj
I1126 10:34:52.548398 10411 net.cpp:106] Creating Layer inception_3a/prelu_pool_proj
I1126 10:34:52.548403 10411 net.cpp:454] inception_3a/prelu_pool_proj <- inception_3a/pool_proj
I1126 10:34:52.548411 10411 net.cpp:397] inception_3a/prelu_pool_proj -> inception_3a/pool_proj (in-place)
I1126 10:34:52.548507 10411 net.cpp:150] Setting up inception_3a/prelu_pool_proj
I1126 10:34:52.548516 10411 net.cpp:157] Top shape: 32 32 28 28 (802816)
I1126 10:34:52.548519 10411 net.cpp:165] Memory required for data: 748225024
I1126 10:34:52.548524 10411 layer_factory.hpp:76] Creating layer inception_3a/output
I1126 10:34:52.548535 10411 net.cpp:106] Creating Layer inception_3a/output
I1126 10:34:52.548539 10411 net.cpp:454] inception_3a/output <- inception_3a/1x1
I1126 10:34:52.548544 10411 net.cpp:454] inception_3a/output <- inception_3a/3x3
I1126 10:34:52.548549 10411 net.cpp:454] inception_3a/output <- inception_3a/5x5
I1126 10:34:52.548554 10411 net.cpp:454] inception_3a/output <- inception_3a/pool_proj
I1126 10:34:52.548559 10411 net.cpp:411] inception_3a/output -> inception_3a/output
I1126 10:34:52.548585 10411 net.cpp:150] Setting up inception_3a/output
I1126 10:34:52.548594 10411 net.cpp:157] Top shape: 32 256 28 28 (6422528)
I1126 10:34:52.548599 10411 net.cpp:165] Memory required for data: 773915136
I1126 10:34:52.548602 10411 layer_factory.hpp:76] Creating layer inception_3a/output_inception_3a/output_0_split
I1126 10:34:52.548609 10411 net.cpp:106] Creating Layer inception_3a/output_inception_3a/output_0_split
I1126 10:34:52.548614 10411 net.cpp:454] inception_3a/output_inception_3a/output_0_split <- inception_3a/output
I1126 10:34:52.548619 10411 net.cpp:411] inception_3a/output_inception_3a/output_0_split -> inception_3a/output_inception_3a/output_0_split_0
I1126 10:34:52.548625 10411 net.cpp:411] inception_3a/output_inception_3a/output_0_split -> inception_3a/output_inception_3a/output_0_split_1
I1126 10:34:52.548632 10411 net.cpp:411] inception_3a/output_inception_3a/output_0_split -> inception_3a/output_inception_3a/output_0_split_2
I1126 10:34:52.548640 10411 net.cpp:411] inception_3a/output_inception_3a/output_0_split -> inception_3a/output_inception_3a/output_0_split_3
I1126 10:34:52.548688 10411 net.cpp:150] Setting up inception_3a/output_inception_3a/output_0_split
I1126 10:34:52.548696 10411 net.cpp:157] Top shape: 32 256 28 28 (6422528)
I1126 10:34:52.548701 10411 net.cpp:157] Top shape: 32 256 28 28 (6422528)
I1126 10:34:52.548705 10411 net.cpp:157] Top shape: 32 256 28 28 (6422528)
I1126 10:34:52.548730 10411 net.cpp:157] Top shape: 32 256 28 28 (6422528)
I1126 10:34:52.548734 10411 net.cpp:165] Memory required for data: 876675584
I1126 10:34:52.548739 10411 layer_factory.hpp:76] Creating layer inception_3b/1x1
I1126 10:34:52.548748 10411 net.cpp:106] Creating Layer inception_3b/1x1
I1126 10:34:52.548753 10411 net.cpp:454] inception_3b/1x1 <- inception_3a/output_inception_3a/output_0_split_0
I1126 10:34:52.548759 10411 net.cpp:411] inception_3b/1x1 -> inception_3b/1x1
I1126 10:34:52.549935 10411 cudnn_conv_layer.cpp:194] Reallocating workspace storage: 20664
I1126 10:34:52.549953 10411 net.cpp:150] Setting up inception_3b/1x1
I1126 10:34:52.549960 10411 net.cpp:157] Top shape: 32 128 28 28 (3211264)
I1126 10:34:52.549964 10411 net.cpp:165] Memory required for data: 889520640
I1126 10:34:52.549971 10411 layer_factory.hpp:76] Creating layer inception_3b/prelu_1x1
I1126 10:34:52.549980 10411 net.cpp:106] Creating Layer inception_3b/prelu_1x1
I1126 10:34:52.549985 10411 net.cpp:454] inception_3b/prelu_1x1 <- inception_3b/1x1
I1126 10:34:52.549993 10411 net.cpp:397] inception_3b/prelu_1x1 -> inception_3b/1x1 (in-place)
I1126 10:34:52.550647 10411 net.cpp:150] Setting up inception_3b/prelu_1x1
I1126 10:34:52.550659 10411 net.cpp:157] Top shape: 32 128 28 28 (3211264)
I1126 10:34:52.550664 10411 net.cpp:165] Memory required for data: 902365696
I1126 10:34:52.550670 10411 layer_factory.hpp:76] Creating layer inception_3b/3x3_reduce
I1126 10:34:52.550678 10411 net.cpp:106] Creating Layer inception_3b/3x3_reduce
I1126 10:34:52.550683 10411 net.cpp:454] inception_3b/3x3_reduce <- inception_3a/output_inception_3a/output_0_split_1
I1126 10:34:52.550691 10411 net.cpp:411] inception_3b/3x3_reduce -> inception_3b/3x3_reduce
I1126 10:34:52.551909 10411 cudnn_conv_layer.cpp:194] Reallocating workspace storage: 20664
I1126 10:34:52.551925 10411 net.cpp:150] Setting up inception_3b/3x3_reduce
I1126 10:34:52.551933 10411 net.cpp:157] Top shape: 32 128 28 28 (3211264)
I1126 10:34:52.551936 10411 net.cpp:165] Memory required for data: 915210752
I1126 10:34:52.551942 10411 layer_factory.hpp:76] Creating layer inception_3b/prelu_3x3_reduce
I1126 10:34:52.551951 10411 net.cpp:106] Creating Layer inception_3b/prelu_3x3_reduce
I1126 10:34:52.551956 10411 net.cpp:454] inception_3b/prelu_3x3_reduce <- inception_3b/3x3_reduce
I1126 10:34:52.551962 10411 net.cpp:397] inception_3b/prelu_3x3_reduce -> inception_3b/3x3_reduce (in-place)
I1126 10:34:52.552093 10411 net.cpp:150] Setting up inception_3b/prelu_3x3_reduce
I1126 10:34:52.552101 10411 net.cpp:157] Top shape: 32 128 28 28 (3211264)
I1126 10:34:52.552105 10411 net.cpp:165] Memory required for data: 928055808
I1126 10:34:52.552116 10411 layer_factory.hpp:76] Creating layer inception_3b/3x3
I1126 10:34:52.552129 10411 net.cpp:106] Creating Layer inception_3b/3x3
I1126 10:34:52.552134 10411 net.cpp:454] inception_3b/3x3 <- inception_3b/3x3_reduce
I1126 10:34:52.552141 10411 net.cpp:411] inception_3b/3x3 -> inception_3b/3x3
I1126 10:34:52.554921 10411 cudnn_conv_layer.cpp:194] Reallocating workspace storage: 20664
I1126 10:34:52.554949 10411 net.cpp:150] Setting up inception_3b/3x3
I1126 10:34:52.554957 10411 net.cpp:157] Top shape: 32 192 28 28 (4816896)
I1126 10:34:52.554961 10411 net.cpp:165] Memory required for data: 947323392
I1126 10:34:52.554970 10411 layer_factory.hpp:76] Creating layer inception_3b/prelu_3x3
I1126 10:34:52.554977 10411 net.cpp:106] Creating Layer inception_3b/prelu_3x3
I1126 10:34:52.554985 10411 net.cpp:454] inception_3b/prelu_3x3 <- inception_3b/3x3
I1126 10:34:52.554991 10411 net.cpp:397] inception_3b/prelu_3x3 -> inception_3b/3x3 (in-place)
I1126 10:34:52.555675 10411 net.cpp:150] Setting up inception_3b/prelu_3x3
I1126 10:34:52.555699 10411 net.cpp:157] Top shape: 32 192 28 28 (4816896)
I1126 10:34:52.555703 10411 net.cpp:165] Memory required for data: 966590976
I1126 10:34:52.555709 10411 layer_factory.hpp:76] Creating layer inception_3b/5x5_reduce
I1126 10:34:52.555718 10411 net.cpp:106] Creating Layer inception_3b/5x5_reduce
I1126 10:34:52.555748 10411 net.cpp:454] inception_3b/5x5_reduce <- inception_3a/output_inception_3a/output_0_split_2
I1126 10:34:52.555758 10411 net.cpp:411] inception_3b/5x5_reduce -> inception_3b/5x5_reduce
I1126 10:34:52.556668 10411 cudnn_conv_layer.cpp:194] Reallocating workspace storage: 20664
I1126 10:34:52.556699 10411 net.cpp:150] Setting up inception_3b/5x5_reduce
I1126 10:34:52.556706 10411 net.cpp:157] Top shape: 32 32 28 28 (802816)
I1126 10:34:52.556710 10411 net.cpp:165] Memory required for data: 969802240
I1126 10:34:52.556736 10411 layer_factory.hpp:76] Creating layer inception_3b/prelu_5x5_reduce
I1126 10:34:52.556747 10411 net.cpp:106] Creating Layer inception_3b/prelu_5x5_reduce
I1126 10:34:52.556752 10411 net.cpp:454] inception_3b/prelu_5x5_reduce <- inception_3b/5x5_reduce
I1126 10:34:52.556758 10411 net.cpp:397] inception_3b/prelu_5x5_reduce -> inception_3b/5x5_reduce (in-place)
I1126 10:34:52.556871 10411 net.cpp:150] Setting up inception_3b/prelu_5x5_reduce
I1126 10:34:52.556879 10411 net.cpp:157] Top shape: 32 32 28 28 (802816)
I1126 10:34:52.556884 10411 net.cpp:165] Memory required for data: 973013504
I1126 10:34:52.556888 10411 layer_factory.hpp:76] Creating layer inception_3b/5x5
I1126 10:34:52.556898 10411 net.cpp:106] Creating Layer inception_3b/5x5
I1126 10:34:52.556902 10411 net.cpp:454] inception_3b/5x5 <- inception_3b/5x5_reduce
I1126 10:34:52.556910 10411 net.cpp:411] inception_3b/5x5 -> inception_3b/5x5
I1126 10:34:52.558325 10411 cudnn_conv_layer.cpp:194] Reallocating workspace storage: 20664
I1126 10:34:52.558342 10411 net.cpp:150] Setting up inception_3b/5x5
I1126 10:34:52.558351 10411 net.cpp:157] Top shape: 32 96 28 28 (2408448)
I1126 10:34:52.558354 10411 net.cpp:165] Memory required for data: 982647296
I1126 10:34:52.558362 10411 layer_factory.hpp:76] Creating layer inception_3b/prelu_5x5
I1126 10:34:52.558369 10411 net.cpp:106] Creating Layer inception_3b/prelu_5x5
I1126 10:34:52.558374 10411 net.cpp:454] inception_3b/prelu_5x5 <- inception_3b/5x5
I1126 10:34:52.558380 10411 net.cpp:397] inception_3b/prelu_5x5 -> inception_3b/5x5 (in-place)
I1126 10:34:52.558532 10411 net.cpp:150] Setting up inception_3b/prelu_5x5
I1126 10:34:52.558540 10411 net.cpp:157] Top shape: 32 96 28 28 (2408448)
I1126 10:34:52.558544 10411 net.cpp:165] Memory required for data: 992281088
I1126 10:34:52.558549 10411 layer_factory.hpp:76] Creating layer inception_3b/pool
I1126 10:34:52.558557 10411 net.cpp:106] Creating Layer inception_3b/pool
I1126 10:34:52.558564 10411 net.cpp:454] inception_3b/pool <- inception_3a/output_inception_3a/output_0_split_3
I1126 10:34:52.558570 10411 net.cpp:411] inception_3b/pool -> inception_3b/pool
I1126 10:34:52.558951 10411 net.cpp:150] Setting up inception_3b/pool
I1126 10:34:52.558961 10411 net.cpp:157] Top shape: 32 256 28 28 (6422528)
I1126 10:34:52.558966 10411 net.cpp:165] Memory required for data: 1017971200
I1126 10:34:52.558971 10411 layer_factory.hpp:76] Creating layer inception_3b/pool_proj
I1126 10:34:52.558979 10411 net.cpp:106] Creating Layer inception_3b/pool_proj
I1126 10:34:52.558995 10411 net.cpp:454] inception_3b/pool_proj <- inception_3b/pool
I1126 10:34:52.559003 10411 net.cpp:411] inception_3b/pool_proj -> inception_3b/pool_proj
I1126 10:34:52.560165 10411 cudnn_conv_layer.cpp:194] Reallocating workspace storage: 20664
I1126 10:34:52.560184 10411 net.cpp:150] Setting up inception_3b/pool_proj
I1126 10:34:52.560190 10411 net.cpp:157] Top shape: 32 64 28 28 (1605632)
I1126 10:34:52.560194 10411 net.cpp:165] Memory required for data: 1024393728
I1126 10:34:52.560201 10411 layer_factory.hpp:76] Creating layer inception_3b/prelu_pool_proj
I1126 10:34:52.560210 10411 net.cpp:106] Creating Layer inception_3b/prelu_pool_proj
I1126 10:34:52.560216 10411 net.cpp:454] inception_3b/prelu_pool_proj <- inception_3b/pool_proj
I1126 10:34:52.560223 10411 net.cpp:397] inception_3b/prelu_pool_proj -> inception_3b/pool_proj (in-place)
I1126 10:34:52.560374 10411 net.cpp:150] Setting up inception_3b/prelu_pool_proj
I1126 10:34:52.560423 10411 net.cpp:157] Top shape: 32 64 28 28 (1605632)
I1126 10:34:52.560428 10411 net.cpp:165] Memory required for data: 1030816256
I1126 10:34:52.560434 10411 layer_factory.hpp:76] Creating layer inception_3b/output
I1126 10:34:52.560442 10411 net.cpp:106] Creating Layer inception_3b/output
I1126 10:34:52.560447 10411 net.cpp:454] inception_3b/output <- inception_3b/1x1
I1126 10:34:52.560452 10411 net.cpp:454] inception_3b/output <- inception_3b/3x3
I1126 10:34:52.560457 10411 net.cpp:454] inception_3b/output <- inception_3b/5x5
I1126 10:34:52.560462 10411 net.cpp:454] inception_3b/output <- inception_3b/pool_proj
I1126 10:34:52.560468 10411 net.cpp:411] inception_3b/output -> inception_3b/output
I1126 10:34:52.560504 10411 net.cpp:150] Setting up inception_3b/output
I1126 10:34:52.560511 10411 net.cpp:157] Top shape: 32 480 28 28 (12042240)
I1126 10:34:52.560515 10411 net.cpp:165] Memory required for data: 1078985216
I1126 10:34:52.560519 10411 layer_factory.hpp:76] Creating layer pool3/3x3_s2
I1126 10:34:52.560525 10411 net.cpp:106] Creating Layer pool3/3x3_s2
I1126 10:34:52.560530 10411 net.cpp:454] pool3/3x3_s2 <- inception_3b/output
I1126 10:34:52.560538 10411 net.cpp:411] pool3/3x3_s2 -> pool3/3x3_s2
I1126 10:34:52.560917 10411 net.cpp:150] Setting up pool3/3x3_s2
I1126 10:34:52.560927 10411 net.cpp:157] Top shape: 32 480 14 14 (3010560)
I1126 10:34:52.560932 10411 net.cpp:165] Memory required for data: 1091027456
I1126 10:34:52.560936 10411 layer_factory.hpp:76] Creating layer pool3/3x3_s2_pool3/3x3_s2_0_split
I1126 10:34:52.560945 10411 net.cpp:106] Creating Layer pool3/3x3_s2_pool3/3x3_s2_0_split
I1126 10:34:52.560950 10411 net.cpp:454] pool3/3x3_s2_pool3/3x3_s2_0_split <- pool3/3x3_s2
I1126 10:34:52.560955 10411 net.cpp:411] pool3/3x3_s2_pool3/3x3_s2_0_split -> pool3/3x3_s2_pool3/3x3_s2_0_split_0
I1126 10:34:52.560961 10411 net.cpp:411] pool3/3x3_s2_pool3/3x3_s2_0_split -> pool3/3x3_s2_pool3/3x3_s2_0_split_1
I1126 10:34:52.560968 10411 net.cpp:411] pool3/3x3_s2_pool3/3x3_s2_0_split -> pool3/3x3_s2_pool3/3x3_s2_0_split_2
I1126 10:34:52.560976 10411 net.cpp:411] pool3/3x3_s2_pool3/3x3_s2_0_split -> pool3/3x3_s2_pool3/3x3_s2_0_split_3
I1126 10:34:52.561028 10411 net.cpp:150] Setting up pool3/3x3_s2_pool3/3x3_s2_0_split
I1126 10:34:52.561034 10411 net.cpp:157] Top shape: 32 480 14 14 (3010560)
I1126 10:34:52.561039 10411 net.cpp:157] Top shape: 32 480 14 14 (3010560)
I1126 10:34:52.561044 10411 net.cpp:157] Top shape: 32 480 14 14 (3010560)
I1126 10:34:52.561048 10411 net.cpp:157] Top shape: 32 480 14 14 (3010560)
I1126 10:34:52.561053 10411 net.cpp:165] Memory required for data: 1139196416
I1126 10:34:52.561056 10411 layer_factory.hpp:76] Creating layer inception_4a/1x1
I1126 10:34:52.561065 10411 net.cpp:106] Creating Layer inception_4a/1x1
I1126 10:34:52.561069 10411 net.cpp:454] inception_4a/1x1 <- pool3/3x3_s2_pool3/3x3_s2_0_split_0
I1126 10:34:52.561077 10411 net.cpp:411] inception_4a/1x1 -> inception_4a/1x1
I1126 10:34:52.563055 10411 cudnn_conv_layer.cpp:194] Reallocating workspace storage: 10080
I1126 10:34:52.563257 10411 net.cpp:150] Setting up inception_4a/1x1
I1126 10:34:52.563267 10411 net.cpp:157] Top shape: 32 192 14 14 (1204224)
I1126 10:34:52.563271 10411 net.cpp:165] Memory required for data: 1144013312
I1126 10:34:52.563279 10411 layer_factory.hpp:76] Creating layer inception_4a/prelu_1x1
I1126 10:34:52.563287 10411 net.cpp:106] Creating Layer inception_4a/prelu_1x1
I1126 10:34:52.563292 10411 net.cpp:454] inception_4a/prelu_1x1 <- inception_4a/1x1
I1126 10:34:52.563299 10411 net.cpp:397] inception_4a/prelu_1x1 -> inception_4a/1x1 (in-place)
I1126 10:34:52.563992 10411 net.cpp:150] Setting up inception_4a/prelu_1x1
I1126 10:34:52.564004 10411 net.cpp:157] Top shape: 32 192 14 14 (1204224)
I1126 10:34:52.564018 10411 net.cpp:165] Memory required for data: 1148830208
I1126 10:34:52.564025 10411 layer_factory.hpp:76] Creating layer inception_4a/3x3_reduce
I1126 10:34:52.564038 10411 net.cpp:106] Creating Layer inception_4a/3x3_reduce
I1126 10:34:52.564043 10411 net.cpp:454] inception_4a/3x3_reduce <- pool3/3x3_s2_pool3/3x3_s2_0_split_1
I1126 10:34:52.564090 10411 net.cpp:411] inception_4a/3x3_reduce -> inception_4a/3x3_reduce
I1126 10:34:52.565418 10411 cudnn_conv_layer.cpp:194] Reallocating workspace storage: 10080
I1126 10:34:52.565446 10411 net.cpp:150] Setting up inception_4a/3x3_reduce
I1126 10:34:52.565454 10411 net.cpp:157] Top shape: 32 96 14 14 (602112)
I1126 10:34:52.565457 10411 net.cpp:165] Memory required for data: 1151238656
I1126 10:34:52.565464 10411 layer_factory.hpp:76] Creating layer inception_4a/prelu_3x3_reduce
I1126 10:34:52.565475 10411 net.cpp:106] Creating Layer inception_4a/prelu_3x3_reduce
I1126 10:34:52.565481 10411 net.cpp:454] inception_4a/prelu_3x3_reduce <- inception_4a/3x3_reduce
I1126 10:34:52.565486 10411 net.cpp:397] inception_4a/prelu_3x3_reduce -> inception_4a/3x3_reduce (in-place)
I1126 10:34:52.565592 10411 net.cpp:150] Setting up inception_4a/prelu_3x3_reduce
I1126 10:34:52.565599 10411 net.cpp:157] Top shape: 32 96 14 14 (602112)
I1126 10:34:52.565603 10411 net.cpp:165] Memory required for data: 1153647104
I1126 10:34:52.565608 10411 layer_factory.hpp:76] Creating layer inception_4a/3x3
I1126 10:34:52.565618 10411 net.cpp:106] Creating Layer inception_4a/3x3
I1126 10:34:52.565623 10411 net.cpp:454] inception_4a/3x3 <- inception_4a/3x3_reduce
I1126 10:34:52.565630 10411 net.cpp:411] inception_4a/3x3 -> inception_4a/3x3
I1126 10:34:52.568016 10411 cudnn_conv_layer.cpp:194] Reallocating workspace storage: 10080
I1126 10:34:52.568040 10411 net.cpp:150] Setting up inception_4a/3x3
I1126 10:34:52.568048 10411 net.cpp:157] Top shape: 32 208 14 14 (1304576)
I1126 10:34:52.568053 10411 net.cpp:165] Memory required for data: 1158865408
I1126 10:34:52.568059 10411 layer_factory.hpp:76] Creating layer inception_4a/prelu_3x3
I1126 10:34:52.568068 10411 net.cpp:106] Creating Layer inception_4a/prelu_3x3
I1126 10:34:52.568073 10411 net.cpp:454] inception_4a/prelu_3x3 <- inception_4a/3x3
I1126 10:34:52.568081 10411 net.cpp:397] inception_4a/prelu_3x3 -> inception_4a/3x3 (in-place)
I1126 10:34:52.568192 10411 net.cpp:150] Setting up inception_4a/prelu_3x3
I1126 10:34:52.568202 10411 net.cpp:157] Top shape: 32 208 14 14 (1304576)
I1126 10:34:52.568205 10411 net.cpp:165] Memory required for data: 1164083712
I1126 10:34:52.568212 10411 layer_factory.hpp:76] Creating layer inception_4a/5x5_reduce
I1126 10:34:52.568222 10411 net.cpp:106] Creating Layer inception_4a/5x5_reduce
I1126 10:34:52.568228 10411 net.cpp:454] inception_4a/5x5_reduce <- pool3/3x3_s2_pool3/3x3_s2_0_split_2
I1126 10:34:52.568233 10411 net.cpp:411] inception_4a/5x5_reduce -> inception_4a/5x5_reduce
I1126 10:34:52.569319 10411 cudnn_conv_layer.cpp:194] Reallocating workspace storage: 10080
I1126 10:34:52.569341 10411 net.cpp:150] Setting up inception_4a/5x5_reduce
I1126 10:34:52.569350 10411 net.cpp:157] Top shape: 32 16 14 14 (100352)
I1126 10:34:52.569355 10411 net.cpp:165] Memory required for data: 1164485120
I1126 10:34:52.569361 10411 layer_factory.hpp:76] Creating layer inception_4a/prelu_5x5_reduce
I1126 10:34:52.569370 10411 net.cpp:106] Creating Layer inception_4a/prelu_5x5_reduce
I1126 10:34:52.569375 10411 net.cpp:454] inception_4a/prelu_5x5_reduce <- inception_4a/5x5_reduce
I1126 10:34:52.569382 10411 net.cpp:397] inception_4a/prelu_5x5_reduce -> inception_4a/5x5_reduce (in-place)
I1126 10:34:52.569468 10411 net.cpp:150] Setting up inception_4a/prelu_5x5_reduce
I1126 10:34:52.569476 10411 net.cpp:157] Top shape: 32 16 14 14 (100352)
I1126 10:34:52.569480 10411 net.cpp:165] Memory required for data: 1164886528
I1126 10:34:52.569485 10411 layer_factory.hpp:76] Creating layer inception_4a/5x5
I1126 10:34:52.569494 10411 net.cpp:106] Creating Layer inception_4a/5x5
I1126 10:34:52.569499 10411 net.cpp:454] inception_4a/5x5 <- inception_4a/5x5_reduce
I1126 10:34:52.569505 10411 net.cpp:411] inception_4a/5x5 -> inception_4a/5x5
I1126 10:34:52.570749 10411 cudnn_conv_layer.cpp:194] Reallocating workspace storage: 13080
I1126 10:34:52.570783 10411 net.cpp:150] Setting up inception_4a/5x5
I1126 10:34:52.570791 10411 net.cpp:157] Top shape: 32 48 14 14 (301056)
I1126 10:34:52.570819 10411 net.cpp:165] Memory required for data: 1166090752
I1126 10:34:52.570828 10411 layer_factory.hpp:76] Creating layer inception_4a/prelu_5x5
I1126 10:34:52.570837 10411 net.cpp:106] Creating Layer inception_4a/prelu_5x5
I1126 10:34:52.570842 10411 net.cpp:454] inception_4a/prelu_5x5 <- inception_4a/5x5
I1126 10:34:52.570850 10411 net.cpp:397] inception_4a/prelu_5x5 -> inception_4a/5x5 (in-place)
I1126 10:34:52.570940 10411 net.cpp:150] Setting up inception_4a/prelu_5x5
I1126 10:34:52.570947 10411 net.cpp:157] Top shape: 32 48 14 14 (301056)
I1126 10:34:52.570951 10411 net.cpp:165] Memory required for data: 1167294976
I1126 10:34:52.570956 10411 layer_factory.hpp:76] Creating layer inception_4a/pool
I1126 10:34:52.570967 10411 net.cpp:106] Creating Layer inception_4a/pool
I1126 10:34:52.570971 10411 net.cpp:454] inception_4a/pool <- pool3/3x3_s2_pool3/3x3_s2_0_split_3
I1126 10:34:52.570977 10411 net.cpp:411] inception_4a/pool -> inception_4a/pool
I1126 10:34:52.571336 10411 net.cpp:150] Setting up inception_4a/pool
I1126 10:34:52.571346 10411 net.cpp:157] Top shape: 32 480 14 14 (3010560)
I1126 10:34:52.571349 10411 net.cpp:165] Memory required for data: 1179337216
I1126 10:34:52.571353 10411 layer_factory.hpp:76] Creating layer inception_4a/pool_proj
I1126 10:34:52.571365 10411 net.cpp:106] Creating Layer inception_4a/pool_proj
I1126 10:34:52.571370 10411 net.cpp:454] inception_4a/pool_proj <- inception_4a/pool
I1126 10:34:52.571377 10411 net.cpp:411] inception_4a/pool_proj -> inception_4a/pool_proj
I1126 10:34:52.572383 10411 cudnn_conv_layer.cpp:194] Reallocating workspace storage: 10080
I1126 10:34:52.572414 10411 net.cpp:150] Setting up inception_4a/pool_proj
I1126 10:34:52.572424 10411 net.cpp:157] Top shape: 32 64 14 14 (401408)
I1126 10:34:52.572430 10411 net.cpp:165] Memory required for data: 1180942848
I1126 10:34:52.572440 10411 layer_factory.hpp:76] Creating layer inception_4a/prelu_pool_proj
I1126 10:34:52.572454 10411 net.cpp:106] Creating Layer inception_4a/prelu_pool_proj
I1126 10:34:52.572463 10411 net.cpp:454] inception_4a/prelu_pool_proj <- inception_4a/pool_proj
I1126 10:34:52.572471 10411 net.cpp:397] inception_4a/prelu_pool_proj -> inception_4a/pool_proj (in-place)
I1126 10:34:52.572610 10411 net.cpp:150] Setting up inception_4a/prelu_pool_proj
I1126 10:34:52.572619 10411 net.cpp:157] Top shape: 32 64 14 14 (401408)
I1126 10:34:52.572623 10411 net.cpp:165] Memory required for data: 1182548480
I1126 10:34:52.572629 10411 layer_factory.hpp:76] Creating layer inception_4a/output
I1126 10:34:52.572638 10411 net.cpp:106] Creating Layer inception_4a/output
I1126 10:34:52.572643 10411 net.cpp:454] inception_4a/output <- inception_4a/1x1
I1126 10:34:52.572648 10411 net.cpp:454] inception_4a/output <- inception_4a/3x3
I1126 10:34:52.572651 10411 net.cpp:454] inception_4a/output <- inception_4a/5x5
I1126 10:34:52.572656 10411 net.cpp:454] inception_4a/output <- inception_4a/pool_proj
I1126 10:34:52.572661 10411 net.cpp:411] inception_4a/output -> inception_4a/output
I1126 10:34:52.572685 10411 net.cpp:150] Setting up inception_4a/output
I1126 10:34:52.572692 10411 net.cpp:157] Top shape: 32 512 14 14 (3211264)
I1126 10:34:52.572696 10411 net.cpp:165] Memory required for data: 1195393536
I1126 10:34:52.572700 10411 layer_factory.hpp:76] Creating layer inception_4a/output_inception_4a/output_0_split
I1126 10:34:52.572708 10411 net.cpp:106] Creating Layer inception_4a/output_inception_4a/output_0_split
I1126 10:34:52.572721 10411 net.cpp:454] inception_4a/output_inception_4a/output_0_split <- inception_4a/output
I1126 10:34:52.572729 10411 net.cpp:411] inception_4a/output_inception_4a/output_0_split -> inception_4a/output_inception_4a/output_0_split_0
I1126 10:34:52.572736 10411 net.cpp:411] inception_4a/output_inception_4a/output_0_split -> inception_4a/output_inception_4a/output_0_split_1
I1126 10:34:52.572744 10411 net.cpp:411] inception_4a/output_inception_4a/output_0_split -> inception_4a/output_inception_4a/output_0_split_2
I1126 10:34:52.572767 10411 net.cpp:411] inception_4a/output_inception_4a/output_0_split -> inception_4a/output_inception_4a/output_0_split_3
I1126 10:34:52.572772 10411 net.cpp:411] inception_4a/output_inception_4a/output_0_split -> inception_4a/output_inception_4a/output_0_split_4
I1126 10:34:52.572835 10411 net.cpp:150] Setting up inception_4a/output_inception_4a/output_0_split
I1126 10:34:52.572842 10411 net.cpp:157] Top shape: 32 512 14 14 (3211264)
I1126 10:34:52.572847 10411 net.cpp:157] Top shape: 32 512 14 14 (3211264)
I1126 10:34:52.572852 10411 net.cpp:157] Top shape: 32 512 14 14 (3211264)
I1126 10:34:52.572856 10411 net.cpp:157] Top shape: 32 512 14 14 (3211264)
I1126 10:34:52.572861 10411 net.cpp:157] Top shape: 32 512 14 14 (3211264)
I1126 10:34:52.572865 10411 net.cpp:165] Memory required for data: 1259618816
I1126 10:34:52.572868 10411 layer_factory.hpp:76] Creating layer loss1/ave_pool
I1126 10:34:52.572877 10411 net.cpp:106] Creating Layer loss1/ave_pool
I1126 10:34:52.572881 10411 net.cpp:454] loss1/ave_pool <- inception_4a/output_inception_4a/output_0_split_0
I1126 10:34:52.572887 10411 net.cpp:411] loss1/ave_pool -> loss1/ave_pool
I1126 10:34:52.573246 10411 net.cpp:150] Setting up loss1/ave_pool
I1126 10:34:52.573256 10411 net.cpp:157] Top shape: 32 512 4 4 (262144)
I1126 10:34:52.573261 10411 net.cpp:165] Memory required for data: 1260667392
I1126 10:34:52.573264 10411 layer_factory.hpp:76] Creating layer loss1/conv
I1126 10:34:52.573274 10411 net.cpp:106] Creating Layer loss1/conv
I1126 10:34:52.573279 10411 net.cpp:454] loss1/conv <- loss1/ave_pool
I1126 10:34:52.573285 10411 net.cpp:411] loss1/conv -> loss1/conv
I1126 10:34:52.574683 10411 cudnn_conv_layer.cpp:194] Reallocating workspace storage: 6840
I1126 10:34:52.574705 10411 net.cpp:150] Setting up loss1/conv
I1126 10:34:52.574713 10411 net.cpp:157] Top shape: 32 128 4 4 (65536)
I1126 10:34:52.574717 10411 net.cpp:165] Memory required for data: 1260929536
I1126 10:34:52.574735 10411 layer_factory.hpp:76] Creating layer loss1/prelu_conv
I1126 10:34:52.574743 10411 net.cpp:106] Creating Layer loss1/prelu_conv
I1126 10:34:52.574748 10411 net.cpp:454] loss1/prelu_conv <- loss1/conv
I1126 10:34:52.574758 10411 net.cpp:397] loss1/prelu_conv -> loss1/conv (in-place)
I1126 10:34:52.574842 10411 net.cpp:150] Setting up loss1/prelu_conv
I1126 10:34:52.574851 10411 net.cpp:157] Top shape: 32 128 4 4 (65536)
I1126 10:34:52.574853 10411 net.cpp:165] Memory required for data: 1261191680
I1126 10:34:52.574859 10411 layer_factory.hpp:76] Creating layer loss1/fc
I1126 10:34:52.574872 10411 net.cpp:106] Creating Layer loss1/fc
I1126 10:34:52.574875 10411 net.cpp:454] loss1/fc <- loss1/conv
I1126 10:34:52.574883 10411 net.cpp:411] loss1/fc -> loss1/fc
I1126 10:34:52.591074 10411 net.cpp:150] Setting up loss1/fc
I1126 10:34:52.591109 10411 net.cpp:157] Top shape: 32 1024 (32768)
I1126 10:34:52.591114 10411 net.cpp:165] Memory required for data: 1261322752
I1126 10:34:52.591125 10411 layer_factory.hpp:76] Creating layer loss1/prelu_fc
I1126 10:34:52.591138 10411 net.cpp:106] Creating Layer loss1/prelu_fc
I1126 10:34:52.591145 10411 net.cpp:454] loss1/prelu_fc <- loss1/fc
I1126 10:34:52.591155 10411 net.cpp:397] loss1/prelu_fc -> loss1/fc (in-place)
I1126 10:34:52.591241 10411 net.cpp:150] Setting up loss1/prelu_fc
I1126 10:34:52.591249 10411 net.cpp:157] Top shape: 32 1024 (32768)
I1126 10:34:52.591253 10411 net.cpp:165] Memory required for data: 1261453824
I1126 10:34:52.591259 10411 layer_factory.hpp:76] Creating layer loss1/drop_fc
I1126 10:34:52.591279 10411 net.cpp:106] Creating Layer loss1/drop_fc
I1126 10:34:52.591284 10411 net.cpp:454] loss1/drop_fc <- loss1/fc
I1126 10:34:52.591291 10411 net.cpp:397] loss1/drop_fc -> loss1/fc (in-place)
I1126 10:34:52.591327 10411 net.cpp:150] Setting up loss1/drop_fc
I1126 10:34:52.591336 10411 net.cpp:157] Top shape: 32 1024 (32768)
I1126 10:34:52.591339 10411 net.cpp:165] Memory required for data: 1261584896
I1126 10:34:52.591344 10411 layer_factory.hpp:76] Creating layer loss1/classifier2
I1126 10:34:52.591352 10411 net.cpp:106] Creating Layer loss1/classifier2
I1126 10:34:52.591387 10411 net.cpp:454] loss1/classifier2 <- loss1/fc
I1126 10:34:52.591395 10411 net.cpp:411] loss1/classifier2 -> loss1/classifier
I1126 10:34:52.591589 10411 net.cpp:150] Setting up loss1/classifier2
I1126 10:34:52.591599 10411 net.cpp:157] Top shape: 32 2 (64)
I1126 10:34:52.591603 10411 net.cpp:165] Memory required for data: 1261585152
I1126 10:34:52.591611 10411 layer_factory.hpp:76] Creating layer loss1/loss
I1126 10:34:52.591624 10411 net.cpp:106] Creating Layer loss1/loss
I1126 10:34:52.591627 10411 net.cpp:454] loss1/loss <- loss1/classifier
I1126 10:34:52.591635 10411 net.cpp:454] loss1/loss <- label_data_1_split_0
I1126 10:34:52.591641 10411 net.cpp:411] loss1/loss -> loss1/loss1
I1126 10:34:52.591660 10411 layer_factory.hpp:76] Creating layer loss1/loss
I1126 10:34:52.592044 10411 net.cpp:150] Setting up loss1/loss
I1126 10:34:52.592056 10411 net.cpp:157] Top shape: (1)
I1126 10:34:52.592070 10411 net.cpp:160]     with loss weight 0.3
I1126 10:34:52.592098 10411 net.cpp:165] Memory required for data: 1261585156
I1126 10:34:52.592103 10411 layer_factory.hpp:76] Creating layer inception_4b/1x1
I1126 10:34:52.592119 10411 net.cpp:106] Creating Layer inception_4b/1x1
I1126 10:34:52.592125 10411 net.cpp:454] inception_4b/1x1 <- inception_4a/output_inception_4a/output_0_split_1
I1126 10:34:52.592134 10411 net.cpp:411] inception_4b/1x1 -> inception_4b/1x1
I1126 10:34:52.594128 10411 cudnn_conv_layer.cpp:194] Reallocating workspace storage: 10080
I1126 10:34:52.594166 10411 net.cpp:150] Setting up inception_4b/1x1
I1126 10:34:52.594177 10411 net.cpp:157] Top shape: 32 160 14 14 (1003520)
I1126 10:34:52.594182 10411 net.cpp:165] Memory required for data: 1265599236
I1126 10:34:52.594192 10411 layer_factory.hpp:76] Creating layer inception_4b/prelu_1x1
I1126 10:34:52.594203 10411 net.cpp:106] Creating Layer inception_4b/prelu_1x1
I1126 10:34:52.594213 10411 net.cpp:454] inception_4b/prelu_1x1 <- inception_4b/1x1
I1126 10:34:52.594220 10411 net.cpp:397] inception_4b/prelu_1x1 -> inception_4b/1x1 (in-place)
I1126 10:34:52.594846 10411 net.cpp:150] Setting up inception_4b/prelu_1x1
I1126 10:34:52.594856 10411 net.cpp:157] Top shape: 32 160 14 14 (1003520)
I1126 10:34:52.594861 10411 net.cpp:165] Memory required for data: 1269613316
I1126 10:34:52.594866 10411 layer_factory.hpp:76] Creating layer inception_4b/3x3_reduce
I1126 10:34:52.594877 10411 net.cpp:106] Creating Layer inception_4b/3x3_reduce
I1126 10:34:52.594883 10411 net.cpp:454] inception_4b/3x3_reduce <- inception_4a/output_inception_4a/output_0_split_2
I1126 10:34:52.594892 10411 net.cpp:411] inception_4b/3x3_reduce -> inception_4b/3x3_reduce
I1126 10:34:52.596529 10411 cudnn_conv_layer.cpp:194] Reallocating workspace storage: 10080
I1126 10:34:52.596560 10411 net.cpp:150] Setting up inception_4b/3x3_reduce
I1126 10:34:52.596570 10411 net.cpp:157] Top shape: 32 112 14 14 (702464)
I1126 10:34:52.596575 10411 net.cpp:165] Memory required for data: 1272423172
I1126 10:34:52.596581 10411 layer_factory.hpp:76] Creating layer inception_4b/prelu_3x3_reduce
I1126 10:34:52.596591 10411 net.cpp:106] Creating Layer inception_4b/prelu_3x3_reduce
I1126 10:34:52.596597 10411 net.cpp:454] inception_4b/prelu_3x3_reduce <- inception_4b/3x3_reduce
I1126 10:34:52.596604 10411 net.cpp:397] inception_4b/prelu_3x3_reduce -> inception_4b/3x3_reduce (in-place)
I1126 10:34:52.596705 10411 net.cpp:150] Setting up inception_4b/prelu_3x3_reduce
I1126 10:34:52.596722 10411 net.cpp:157] Top shape: 32 112 14 14 (702464)
I1126 10:34:52.596727 10411 net.cpp:165] Memory required for data: 1275233028
I1126 10:34:52.596734 10411 layer_factory.hpp:76] Creating layer inception_4b/3x3
I1126 10:34:52.596745 10411 net.cpp:106] Creating Layer inception_4b/3x3
I1126 10:34:52.596750 10411 net.cpp:454] inception_4b/3x3 <- inception_4b/3x3_reduce
I1126 10:34:52.596758 10411 net.cpp:411] inception_4b/3x3 -> inception_4b/3x3
I1126 10:34:52.600082 10411 cudnn_conv_layer.cpp:194] Reallocating workspace storage: 10080
I1126 10:34:52.600131 10411 net.cpp:150] Setting up inception_4b/3x3
I1126 10:34:52.600178 10411 net.cpp:157] Top shape: 32 224 14 14 (1404928)
I1126 10:34:52.600183 10411 net.cpp:165] Memory required for data: 1280852740
I1126 10:34:52.600193 10411 layer_factory.hpp:76] Creating layer inception_4b/prelu_3x3
I1126 10:34:52.600208 10411 net.cpp:106] Creating Layer inception_4b/prelu_3x3
I1126 10:34:52.600215 10411 net.cpp:454] inception_4b/prelu_3x3 <- inception_4b/3x3
I1126 10:34:52.600225 10411 net.cpp:397] inception_4b/prelu_3x3 -> inception_4b/3x3 (in-place)
I1126 10:34:52.600381 10411 net.cpp:150] Setting up inception_4b/prelu_3x3
I1126 10:34:52.600392 10411 net.cpp:157] Top shape: 32 224 14 14 (1404928)
I1126 10:34:52.600396 10411 net.cpp:165] Memory required for data: 1286472452
I1126 10:34:52.600402 10411 layer_factory.hpp:76] Creating layer inception_4b/5x5_reduce
I1126 10:34:52.600414 10411 net.cpp:106] Creating Layer inception_4b/5x5_reduce
I1126 10:34:52.600419 10411 net.cpp:454] inception_4b/5x5_reduce <- inception_4a/output_inception_4a/output_0_split_3
I1126 10:34:52.600430 10411 net.cpp:411] inception_4b/5x5_reduce -> inception_4b/5x5_reduce
I1126 10:34:52.601485 10411 cudnn_conv_layer.cpp:194] Reallocating workspace storage: 10080
I1126 10:34:52.601517 10411 net.cpp:150] Setting up inception_4b/5x5_reduce
I1126 10:34:52.601527 10411 net.cpp:157] Top shape: 32 24 14 14 (150528)
I1126 10:34:52.601532 10411 net.cpp:165] Memory required for data: 1287074564
I1126 10:34:52.601541 10411 layer_factory.hpp:76] Creating layer inception_4b/prelu_5x5_reduce
I1126 10:34:52.601552 10411 net.cpp:106] Creating Layer inception_4b/prelu_5x5_reduce
I1126 10:34:52.601557 10411 net.cpp:454] inception_4b/prelu_5x5_reduce <- inception_4b/5x5_reduce
I1126 10:34:52.601565 10411 net.cpp:397] inception_4b/prelu_5x5_reduce -> inception_4b/5x5_reduce (in-place)
I1126 10:34:52.601667 10411 net.cpp:150] Setting up inception_4b/prelu_5x5_reduce
I1126 10:34:52.601675 10411 net.cpp:157] Top shape: 32 24 14 14 (150528)
I1126 10:34:52.601680 10411 net.cpp:165] Memory required for data: 1287676676
I1126 10:34:52.601686 10411 layer_factory.hpp:76] Creating layer inception_4b/5x5
I1126 10:34:52.601696 10411 net.cpp:106] Creating Layer inception_4b/5x5
I1126 10:34:52.601701 10411 net.cpp:454] inception_4b/5x5 <- inception_4b/5x5_reduce
I1126 10:34:52.601711 10411 net.cpp:411] inception_4b/5x5 -> inception_4b/5x5
I1126 10:34:52.603092 10411 cudnn_conv_layer.cpp:194] Reallocating workspace storage: 13080
I1126 10:34:52.603118 10411 net.cpp:150] Setting up inception_4b/5x5
I1126 10:34:52.603137 10411 net.cpp:157] Top shape: 32 64 14 14 (401408)
I1126 10:34:52.603142 10411 net.cpp:165] Memory required for data: 1289282308
I1126 10:34:52.603158 10411 layer_factory.hpp:76] Creating layer inception_4b/prelu_5x5
I1126 10:34:52.603170 10411 net.cpp:106] Creating Layer inception_4b/prelu_5x5
I1126 10:34:52.603186 10411 net.cpp:454] inception_4b/prelu_5x5 <- inception_4b/5x5
I1126 10:34:52.603205 10411 net.cpp:397] inception_4b/prelu_5x5 -> inception_4b/5x5 (in-place)
I1126 10:34:52.603325 10411 net.cpp:150] Setting up inception_4b/prelu_5x5
I1126 10:34:52.603334 10411 net.cpp:157] Top shape: 32 64 14 14 (401408)
I1126 10:34:52.603338 10411 net.cpp:165] Memory required for data: 1290887940
I1126 10:34:52.603344 10411 layer_factory.hpp:76] Creating layer inception_4b/pool
I1126 10:34:52.603355 10411 net.cpp:106] Creating Layer inception_4b/pool
I1126 10:34:52.603370 10411 net.cpp:454] inception_4b/pool <- inception_4a/output_inception_4a/output_0_split_4
I1126 10:34:52.603379 10411 net.cpp:411] inception_4b/pool -> inception_4b/pool
I1126 10:34:52.603899 10411 net.cpp:150] Setting up inception_4b/pool
I1126 10:34:52.603915 10411 net.cpp:157] Top shape: 32 512 14 14 (3211264)
I1126 10:34:52.603919 10411 net.cpp:165] Memory required for data: 1303732996
I1126 10:34:52.603924 10411 layer_factory.hpp:76] Creating layer inception_4b/pool_proj
I1126 10:34:52.603938 10411 net.cpp:106] Creating Layer inception_4b/pool_proj
I1126 10:34:52.603945 10411 net.cpp:454] inception_4b/pool_proj <- inception_4b/pool
I1126 10:34:52.603977 10411 net.cpp:411] inception_4b/pool_proj -> inception_4b/pool_proj
I1126 10:34:52.605551 10411 cudnn_conv_layer.cpp:194] Reallocating workspace storage: 10080
I1126 10:34:52.605592 10411 net.cpp:150] Setting up inception_4b/pool_proj
I1126 10:34:52.605602 10411 net.cpp:157] Top shape: 32 64 14 14 (401408)
I1126 10:34:52.605605 10411 net.cpp:165] Memory required for data: 1305338628
I1126 10:34:52.605614 10411 layer_factory.hpp:76] Creating layer inception_4b/prelu_pool_proj
I1126 10:34:52.605626 10411 net.cpp:106] Creating Layer inception_4b/prelu_pool_proj
I1126 10:34:52.605633 10411 net.cpp:454] inception_4b/prelu_pool_proj <- inception_4b/pool_proj
I1126 10:34:52.605640 10411 net.cpp:397] inception_4b/prelu_pool_proj -> inception_4b/pool_proj (in-place)
I1126 10:34:52.605752 10411 net.cpp:150] Setting up inception_4b/prelu_pool_proj
I1126 10:34:52.605761 10411 net.cpp:157] Top shape: 32 64 14 14 (401408)
I1126 10:34:52.605764 10411 net.cpp:165] Memory required for data: 1306944260
I1126 10:34:52.605770 10411 layer_factory.hpp:76] Creating layer inception_4b/output
I1126 10:34:52.605778 10411 net.cpp:106] Creating Layer inception_4b/output
I1126 10:34:52.605782 10411 net.cpp:454] inception_4b/output <- inception_4b/1x1
I1126 10:34:52.605788 10411 net.cpp:454] inception_4b/output <- inception_4b/3x3
I1126 10:34:52.605793 10411 net.cpp:454] inception_4b/output <- inception_4b/5x5
I1126 10:34:52.605798 10411 net.cpp:454] inception_4b/output <- inception_4b/pool_proj
I1126 10:34:52.605805 10411 net.cpp:411] inception_4b/output -> inception_4b/output
I1126 10:34:52.605834 10411 net.cpp:150] Setting up inception_4b/output
I1126 10:34:52.605842 10411 net.cpp:157] Top shape: 32 512 14 14 (3211264)
I1126 10:34:52.605846 10411 net.cpp:165] Memory required for data: 1319789316
I1126 10:34:52.605850 10411 layer_factory.hpp:76] Creating layer inception_4b/output_inception_4b/output_0_split
I1126 10:34:52.605857 10411 net.cpp:106] Creating Layer inception_4b/output_inception_4b/output_0_split
I1126 10:34:52.605862 10411 net.cpp:454] inception_4b/output_inception_4b/output_0_split <- inception_4b/output
I1126 10:34:52.605867 10411 net.cpp:411] inception_4b/output_inception_4b/output_0_split -> inception_4b/output_inception_4b/output_0_split_0
I1126 10:34:52.605875 10411 net.cpp:411] inception_4b/output_inception_4b/output_0_split -> inception_4b/output_inception_4b/output_0_split_1
I1126 10:34:52.605883 10411 net.cpp:411] inception_4b/output_inception_4b/output_0_split -> inception_4b/output_inception_4b/output_0_split_2
I1126 10:34:52.605890 10411 net.cpp:411] inception_4b/output_inception_4b/output_0_split -> inception_4b/output_inception_4b/output_0_split_3
I1126 10:34:52.605949 10411 net.cpp:150] Setting up inception_4b/output_inception_4b/output_0_split
I1126 10:34:52.605957 10411 net.cpp:157] Top shape: 32 512 14 14 (3211264)
I1126 10:34:52.605962 10411 net.cpp:157] Top shape: 32 512 14 14 (3211264)
I1126 10:34:52.605967 10411 net.cpp:157] Top shape: 32 512 14 14 (3211264)
I1126 10:34:52.605973 10411 net.cpp:157] Top shape: 32 512 14 14 (3211264)
I1126 10:34:52.605976 10411 net.cpp:165] Memory required for data: 1371169540
I1126 10:34:52.605980 10411 layer_factory.hpp:76] Creating layer inception_4c/1x1
I1126 10:34:52.605990 10411 net.cpp:106] Creating Layer inception_4c/1x1
I1126 10:34:52.605995 10411 net.cpp:454] inception_4c/1x1 <- inception_4b/output_inception_4b/output_0_split_0
I1126 10:34:52.606001 10411 net.cpp:411] inception_4c/1x1 -> inception_4c/1x1
I1126 10:34:52.607807 10411 cudnn_conv_layer.cpp:194] Reallocating workspace storage: 10080
I1126 10:34:52.607836 10411 net.cpp:150] Setting up inception_4c/1x1
I1126 10:34:52.607846 10411 net.cpp:157] Top shape: 32 128 14 14 (802816)
I1126 10:34:52.607851 10411 net.cpp:165] Memory required for data: 1374380804
I1126 10:34:52.607858 10411 layer_factory.hpp:76] Creating layer inception_4c/prelu_1x1
I1126 10:34:52.607867 10411 net.cpp:106] Creating Layer inception_4c/prelu_1x1
I1126 10:34:52.607872 10411 net.cpp:454] inception_4c/prelu_1x1 <- inception_4c/1x1
I1126 10:34:52.607900 10411 net.cpp:397] inception_4c/prelu_1x1 -> inception_4c/1x1 (in-place)
I1126 10:34:52.608006 10411 net.cpp:150] Setting up inception_4c/prelu_1x1
I1126 10:34:52.608016 10411 net.cpp:157] Top shape: 32 128 14 14 (802816)
I1126 10:34:52.608021 10411 net.cpp:165] Memory required for data: 1377592068
I1126 10:34:52.608026 10411 layer_factory.hpp:76] Creating layer inception_4c/3x3_reduce
I1126 10:34:52.608036 10411 net.cpp:106] Creating Layer inception_4c/3x3_reduce
I1126 10:34:52.608042 10411 net.cpp:454] inception_4c/3x3_reduce <- inception_4b/output_inception_4b/output_0_split_1
I1126 10:34:52.608049 10411 net.cpp:411] inception_4c/3x3_reduce -> inception_4c/3x3_reduce
I1126 10:34:52.609520 10411 cudnn_conv_layer.cpp:194] Reallocating workspace storage: 10080
I1126 10:34:52.609544 10411 net.cpp:150] Setting up inception_4c/3x3_reduce
I1126 10:34:52.609551 10411 net.cpp:157] Top shape: 32 128 14 14 (802816)
I1126 10:34:52.609555 10411 net.cpp:165] Memory required for data: 1380803332
I1126 10:34:52.609562 10411 layer_factory.hpp:76] Creating layer inception_4c/prelu_3x3_reduce
I1126 10:34:52.609570 10411 net.cpp:106] Creating Layer inception_4c/prelu_3x3_reduce
I1126 10:34:52.609575 10411 net.cpp:454] inception_4c/prelu_3x3_reduce <- inception_4c/3x3_reduce
I1126 10:34:52.609580 10411 net.cpp:397] inception_4c/prelu_3x3_reduce -> inception_4c/3x3_reduce (in-place)
I1126 10:34:52.609757 10411 net.cpp:150] Setting up inception_4c/prelu_3x3_reduce
I1126 10:34:52.609766 10411 net.cpp:157] Top shape: 32 128 14 14 (802816)
I1126 10:34:52.609781 10411 net.cpp:165] Memory required for data: 1384014596
I1126 10:34:52.609797 10411 layer_factory.hpp:76] Creating layer inception_4c/3x3
I1126 10:34:52.609807 10411 net.cpp:106] Creating Layer inception_4c/3x3
I1126 10:34:52.609812 10411 net.cpp:454] inception_4c/3x3 <- inception_4c/3x3_reduce
I1126 10:34:52.609830 10411 net.cpp:411] inception_4c/3x3 -> inception_4c/3x3
I1126 10:34:52.613780 10411 cudnn_conv_layer.cpp:194] Reallocating workspace storage: 10080
I1126 10:34:52.613817 10411 net.cpp:150] Setting up inception_4c/3x3
I1126 10:34:52.613827 10411 net.cpp:157] Top shape: 32 256 14 14 (1605632)
I1126 10:34:52.613832 10411 net.cpp:165] Memory required for data: 1390437124
I1126 10:34:52.613842 10411 layer_factory.hpp:76] Creating layer inception_4c/prelu_3x3
I1126 10:34:52.613853 10411 net.cpp:106] Creating Layer inception_4c/prelu_3x3
I1126 10:34:52.613859 10411 net.cpp:454] inception_4c/prelu_3x3 <- inception_4c/3x3
I1126 10:34:52.613868 10411 net.cpp:397] inception_4c/prelu_3x3 -> inception_4c/3x3 (in-place)
I1126 10:34:52.613999 10411 net.cpp:150] Setting up inception_4c/prelu_3x3
I1126 10:34:52.614007 10411 net.cpp:157] Top shape: 32 256 14 14 (1605632)
I1126 10:34:52.614012 10411 net.cpp:165] Memory required for data: 1396859652
I1126 10:34:52.614017 10411 layer_factory.hpp:76] Creating layer inception_4c/5x5_reduce
I1126 10:34:52.614027 10411 net.cpp:106] Creating Layer inception_4c/5x5_reduce
I1126 10:34:52.614033 10411 net.cpp:454] inception_4c/5x5_reduce <- inception_4b/output_inception_4b/output_0_split_2
I1126 10:34:52.614042 10411 net.cpp:411] inception_4c/5x5_reduce -> inception_4c/5x5_reduce
I1126 10:34:52.615334 10411 cudnn_conv_layer.cpp:194] Reallocating workspace storage: 10080
I1126 10:34:52.615356 10411 net.cpp:150] Setting up inception_4c/5x5_reduce
I1126 10:34:52.615363 10411 net.cpp:157] Top shape: 32 24 14 14 (150528)
I1126 10:34:52.615367 10411 net.cpp:165] Memory required for data: 1397461764
I1126 10:34:52.615375 10411 layer_factory.hpp:76] Creating layer inception_4c/prelu_5x5_reduce
I1126 10:34:52.615383 10411 net.cpp:106] Creating Layer inception_4c/prelu_5x5_reduce
I1126 10:34:52.615388 10411 net.cpp:454] inception_4c/prelu_5x5_reduce <- inception_4c/5x5_reduce
I1126 10:34:52.615394 10411 net.cpp:397] inception_4c/prelu_5x5_reduce -> inception_4c/5x5_reduce (in-place)
I1126 10:34:52.615485 10411 net.cpp:150] Setting up inception_4c/prelu_5x5_reduce
I1126 10:34:52.615494 10411 net.cpp:157] Top shape: 32 24 14 14 (150528)
I1126 10:34:52.615515 10411 net.cpp:165] Memory required for data: 1398063876
I1126 10:34:52.615521 10411 layer_factory.hpp:76] Creating layer inception_4c/5x5
I1126 10:34:52.615530 10411 net.cpp:106] Creating Layer inception_4c/5x5
I1126 10:34:52.615535 10411 net.cpp:454] inception_4c/5x5 <- inception_4c/5x5_reduce
I1126 10:34:52.615543 10411 net.cpp:411] inception_4c/5x5 -> inception_4c/5x5
I1126 10:34:52.617779 10411 cudnn_conv_layer.cpp:194] Reallocating workspace storage: 13080
I1126 10:34:52.617810 10411 net.cpp:150] Setting up inception_4c/5x5
I1126 10:34:52.617820 10411 net.cpp:157] Top shape: 32 64 14 14 (401408)
I1126 10:34:52.617823 10411 net.cpp:165] Memory required for data: 1399669508
I1126 10:34:52.617831 10411 layer_factory.hpp:76] Creating layer inception_4c/prelu_5x5
I1126 10:34:52.617843 10411 net.cpp:106] Creating Layer inception_4c/prelu_5x5
I1126 10:34:52.617851 10411 net.cpp:454] inception_4c/prelu_5x5 <- inception_4c/5x5
I1126 10:34:52.617858 10411 net.cpp:397] inception_4c/prelu_5x5 -> inception_4c/5x5 (in-place)
I1126 10:34:52.617971 10411 net.cpp:150] Setting up inception_4c/prelu_5x5
I1126 10:34:52.617980 10411 net.cpp:157] Top shape: 32 64 14 14 (401408)
I1126 10:34:52.617983 10411 net.cpp:165] Memory required for data: 1401275140
I1126 10:34:52.617990 10411 layer_factory.hpp:76] Creating layer inception_4c/pool
I1126 10:34:52.617997 10411 net.cpp:106] Creating Layer inception_4c/pool
I1126 10:34:52.618002 10411 net.cpp:454] inception_4c/pool <- inception_4b/output_inception_4b/output_0_split_3
I1126 10:34:52.618010 10411 net.cpp:411] inception_4c/pool -> inception_4c/pool
I1126 10:34:52.618211 10411 net.cpp:150] Setting up inception_4c/pool
I1126 10:34:52.618221 10411 net.cpp:157] Top shape: 32 512 14 14 (3211264)
I1126 10:34:52.618226 10411 net.cpp:165] Memory required for data: 1414120196
I1126 10:34:52.618230 10411 layer_factory.hpp:76] Creating layer inception_4c/pool_proj
I1126 10:34:52.618240 10411 net.cpp:106] Creating Layer inception_4c/pool_proj
I1126 10:34:52.618245 10411 net.cpp:454] inception_4c/pool_proj <- inception_4c/pool
I1126 10:34:52.618253 10411 net.cpp:411] inception_4c/pool_proj -> inception_4c/pool_proj
I1126 10:34:52.619923 10411 cudnn_conv_layer.cpp:194] Reallocating workspace storage: 10080
I1126 10:34:52.619954 10411 net.cpp:150] Setting up inception_4c/pool_proj
I1126 10:34:52.619962 10411 net.cpp:157] Top shape: 32 64 14 14 (401408)
I1126 10:34:52.619966 10411 net.cpp:165] Memory required for data: 1415725828
I1126 10:34:52.619973 10411 layer_factory.hpp:76] Creating layer inception_4c/prelu_pool_proj
I1126 10:34:52.619982 10411 net.cpp:106] Creating Layer inception_4c/prelu_pool_proj
I1126 10:34:52.619987 10411 net.cpp:454] inception_4c/prelu_pool_proj <- inception_4c/pool_proj
I1126 10:34:52.619997 10411 net.cpp:397] inception_4c/prelu_pool_proj -> inception_4c/pool_proj (in-place)
I1126 10:34:52.620101 10411 net.cpp:150] Setting up inception_4c/prelu_pool_proj
I1126 10:34:52.620110 10411 net.cpp:157] Top shape: 32 64 14 14 (401408)
I1126 10:34:52.620115 10411 net.cpp:165] Memory required for data: 1417331460
I1126 10:34:52.620120 10411 layer_factory.hpp:76] Creating layer inception_4c/output
I1126 10:34:52.620126 10411 net.cpp:106] Creating Layer inception_4c/output
I1126 10:34:52.620131 10411 net.cpp:454] inception_4c/output <- inception_4c/1x1
I1126 10:34:52.620136 10411 net.cpp:454] inception_4c/output <- inception_4c/3x3
I1126 10:34:52.620141 10411 net.cpp:454] inception_4c/output <- inception_4c/5x5
I1126 10:34:52.620146 10411 net.cpp:454] inception_4c/output <- inception_4c/pool_proj
I1126 10:34:52.620151 10411 net.cpp:411] inception_4c/output -> inception_4c/output
I1126 10:34:52.620182 10411 net.cpp:150] Setting up inception_4c/output
I1126 10:34:52.620189 10411 net.cpp:157] Top shape: 32 512 14 14 (3211264)
I1126 10:34:52.620193 10411 net.cpp:165] Memory required for data: 1430176516
I1126 10:34:52.620198 10411 layer_factory.hpp:76] Creating layer inception_4c/output_inception_4c/output_0_split
I1126 10:34:52.620205 10411 net.cpp:106] Creating Layer inception_4c/output_inception_4c/output_0_split
I1126 10:34:52.620229 10411 net.cpp:454] inception_4c/output_inception_4c/output_0_split <- inception_4c/output
I1126 10:34:52.620235 10411 net.cpp:411] inception_4c/output_inception_4c/output_0_split -> inception_4c/output_inception_4c/output_0_split_0
I1126 10:34:52.620242 10411 net.cpp:411] inception_4c/output_inception_4c/output_0_split -> inception_4c/output_inception_4c/output_0_split_1
I1126 10:34:52.620249 10411 net.cpp:411] inception_4c/output_inception_4c/output_0_split -> inception_4c/output_inception_4c/output_0_split_2
I1126 10:34:52.620257 10411 net.cpp:411] inception_4c/output_inception_4c/output_0_split -> inception_4c/output_inception_4c/output_0_split_3
I1126 10:34:52.620319 10411 net.cpp:150] Setting up inception_4c/output_inception_4c/output_0_split
I1126 10:34:52.620327 10411 net.cpp:157] Top shape: 32 512 14 14 (3211264)
I1126 10:34:52.620332 10411 net.cpp:157] Top shape: 32 512 14 14 (3211264)
I1126 10:34:52.620337 10411 net.cpp:157] Top shape: 32 512 14 14 (3211264)
I1126 10:34:52.620342 10411 net.cpp:157] Top shape: 32 512 14 14 (3211264)
I1126 10:34:52.620347 10411 net.cpp:165] Memory required for data: 1481556740
I1126 10:34:52.620350 10411 layer_factory.hpp:76] Creating layer inception_4d/1x1
I1126 10:34:52.620358 10411 net.cpp:106] Creating Layer inception_4d/1x1
I1126 10:34:52.620363 10411 net.cpp:454] inception_4d/1x1 <- inception_4c/output_inception_4c/output_0_split_0
I1126 10:34:52.620370 10411 net.cpp:411] inception_4d/1x1 -> inception_4d/1x1
I1126 10:34:52.622189 10411 cudnn_conv_layer.cpp:194] Reallocating workspace storage: 10080
I1126 10:34:52.622232 10411 net.cpp:150] Setting up inception_4d/1x1
I1126 10:34:52.622242 10411 net.cpp:157] Top shape: 32 112 14 14 (702464)
I1126 10:34:52.622246 10411 net.cpp:165] Memory required for data: 1484366596
I1126 10:34:52.622256 10411 layer_factory.hpp:76] Creating layer inception_4d/prelu_1x1
I1126 10:34:52.622268 10411 net.cpp:106] Creating Layer inception_4d/prelu_1x1
I1126 10:34:52.622274 10411 net.cpp:454] inception_4d/prelu_1x1 <- inception_4d/1x1
I1126 10:34:52.622282 10411 net.cpp:397] inception_4d/prelu_1x1 -> inception_4d/1x1 (in-place)
I1126 10:34:52.622400 10411 net.cpp:150] Setting up inception_4d/prelu_1x1
I1126 10:34:52.622409 10411 net.cpp:157] Top shape: 32 112 14 14 (702464)
I1126 10:34:52.622413 10411 net.cpp:165] Memory required for data: 1487176452
I1126 10:34:52.622418 10411 layer_factory.hpp:76] Creating layer inception_4d/3x3_reduce
I1126 10:34:52.622429 10411 net.cpp:106] Creating Layer inception_4d/3x3_reduce
I1126 10:34:52.622436 10411 net.cpp:454] inception_4d/3x3_reduce <- inception_4c/output_inception_4c/output_0_split_1
I1126 10:34:52.622444 10411 net.cpp:411] inception_4d/3x3_reduce -> inception_4d/3x3_reduce
I1126 10:34:52.624018 10411 cudnn_conv_layer.cpp:194] Reallocating workspace storage: 10080
I1126 10:34:52.624063 10411 net.cpp:150] Setting up inception_4d/3x3_reduce
I1126 10:34:52.624073 10411 net.cpp:157] Top shape: 32 144 14 14 (903168)
I1126 10:34:52.624078 10411 net.cpp:165] Memory required for data: 1490789124
I1126 10:34:52.624104 10411 layer_factory.hpp:76] Creating layer inception_4d/prelu_3x3_reduce
I1126 10:34:52.624117 10411 net.cpp:106] Creating Layer inception_4d/prelu_3x3_reduce
I1126 10:34:52.624125 10411 net.cpp:454] inception_4d/prelu_3x3_reduce <- inception_4d/3x3_reduce
I1126 10:34:52.624132 10411 net.cpp:397] inception_4d/prelu_3x3_reduce -> inception_4d/3x3_reduce (in-place)
I1126 10:34:52.636782 10411 net.cpp:150] Setting up inception_4d/prelu_3x3_reduce
I1126 10:34:52.636811 10411 net.cpp:157] Top shape: 32 144 14 14 (903168)
I1126 10:34:52.636816 10411 net.cpp:165] Memory required for data: 1494401796
I1126 10:34:52.636824 10411 layer_factory.hpp:76] Creating layer inception_4d/3x3
I1126 10:34:52.636839 10411 net.cpp:106] Creating Layer inception_4d/3x3
I1126 10:34:52.636847 10411 net.cpp:454] inception_4d/3x3 <- inception_4d/3x3_reduce
I1126 10:34:52.636857 10411 net.cpp:411] inception_4d/3x3 -> inception_4d/3x3
I1126 10:34:52.641213 10411 cudnn_conv_layer.cpp:194] Reallocating workspace storage: 10080
I1126 10:34:52.641263 10411 net.cpp:150] Setting up inception_4d/3x3
I1126 10:34:52.641273 10411 net.cpp:157] Top shape: 32 288 14 14 (1806336)
I1126 10:34:52.641278 10411 net.cpp:165] Memory required for data: 1501627140
I1126 10:34:52.641288 10411 layer_factory.hpp:76] Creating layer inception_4d/prelu_3x3
I1126 10:34:52.641302 10411 net.cpp:106] Creating Layer inception_4d/prelu_3x3
I1126 10:34:52.641310 10411 net.cpp:454] inception_4d/prelu_3x3 <- inception_4d/3x3
I1126 10:34:52.641319 10411 net.cpp:397] inception_4d/prelu_3x3 -> inception_4d/3x3 (in-place)
I1126 10:34:52.641479 10411 net.cpp:150] Setting up inception_4d/prelu_3x3
I1126 10:34:52.641487 10411 net.cpp:157] Top shape: 32 288 14 14 (1806336)
I1126 10:34:52.641491 10411 net.cpp:165] Memory required for data: 1508852484
I1126 10:34:52.641496 10411 layer_factory.hpp:76] Creating layer inception_4d/5x5_reduce
I1126 10:34:52.641515 10411 net.cpp:106] Creating Layer inception_4d/5x5_reduce
I1126 10:34:52.641520 10411 net.cpp:454] inception_4d/5x5_reduce <- inception_4c/output_inception_4c/output_0_split_2
I1126 10:34:52.641528 10411 net.cpp:411] inception_4d/5x5_reduce -> inception_4d/5x5_reduce
I1126 10:34:52.642690 10411 cudnn_conv_layer.cpp:194] Reallocating workspace storage: 10080
I1126 10:34:52.642714 10411 net.cpp:150] Setting up inception_4d/5x5_reduce
I1126 10:34:52.642722 10411 net.cpp:157] Top shape: 32 32 14 14 (200704)
I1126 10:34:52.642726 10411 net.cpp:165] Memory required for data: 1509655300
I1126 10:34:52.642734 10411 layer_factory.hpp:76] Creating layer inception_4d/prelu_5x5_reduce
I1126 10:34:52.642740 10411 net.cpp:106] Creating Layer inception_4d/prelu_5x5_reduce
I1126 10:34:52.642745 10411 net.cpp:454] inception_4d/prelu_5x5_reduce <- inception_4d/5x5_reduce
I1126 10:34:52.642752 10411 net.cpp:397] inception_4d/prelu_5x5_reduce -> inception_4d/5x5_reduce (in-place)
I1126 10:34:52.642854 10411 net.cpp:150] Setting up inception_4d/prelu_5x5_reduce
I1126 10:34:52.642863 10411 net.cpp:157] Top shape: 32 32 14 14 (200704)
I1126 10:34:52.642866 10411 net.cpp:165] Memory required for data: 1510458116
I1126 10:34:52.642871 10411 layer_factory.hpp:76] Creating layer inception_4d/5x5
I1126 10:34:52.642880 10411 net.cpp:106] Creating Layer inception_4d/5x5
I1126 10:34:52.642885 10411 net.cpp:454] inception_4d/5x5 <- inception_4d/5x5_reduce
I1126 10:34:52.642891 10411 net.cpp:411] inception_4d/5x5 -> inception_4d/5x5
I1126 10:34:52.644842 10411 cudnn_conv_layer.cpp:194] Reallocating workspace storage: 13080
I1126 10:34:52.644872 10411 net.cpp:150] Setting up inception_4d/5x5
I1126 10:34:52.644881 10411 net.cpp:157] Top shape: 32 64 14 14 (401408)
I1126 10:34:52.644886 10411 net.cpp:165] Memory required for data: 1512063748
I1126 10:34:52.644893 10411 layer_factory.hpp:76] Creating layer inception_4d/prelu_5x5
I1126 10:34:52.644902 10411 net.cpp:106] Creating Layer inception_4d/prelu_5x5
I1126 10:34:52.644922 10411 net.cpp:454] inception_4d/prelu_5x5 <- inception_4d/5x5
I1126 10:34:52.644930 10411 net.cpp:397] inception_4d/prelu_5x5 -> inception_4d/5x5 (in-place)
I1126 10:34:52.645083 10411 net.cpp:150] Setting up inception_4d/prelu_5x5
I1126 10:34:52.645092 10411 net.cpp:157] Top shape: 32 64 14 14 (401408)
I1126 10:34:52.645095 10411 net.cpp:165] Memory required for data: 1513669380
I1126 10:34:52.645102 10411 layer_factory.hpp:76] Creating layer inception_4d/pool
I1126 10:34:52.645117 10411 net.cpp:106] Creating Layer inception_4d/pool
I1126 10:34:52.645123 10411 net.cpp:454] inception_4d/pool <- inception_4c/output_inception_4c/output_0_split_3
I1126 10:34:52.645128 10411 net.cpp:411] inception_4d/pool -> inception_4d/pool
I1126 10:34:52.645345 10411 net.cpp:150] Setting up inception_4d/pool
I1126 10:34:52.645355 10411 net.cpp:157] Top shape: 32 512 14 14 (3211264)
I1126 10:34:52.645359 10411 net.cpp:165] Memory required for data: 1526514436
I1126 10:34:52.645364 10411 layer_factory.hpp:76] Creating layer inception_4d/pool_proj
I1126 10:34:52.645373 10411 net.cpp:106] Creating Layer inception_4d/pool_proj
I1126 10:34:52.645401 10411 net.cpp:454] inception_4d/pool_proj <- inception_4d/pool
I1126 10:34:52.645411 10411 net.cpp:411] inception_4d/pool_proj -> inception_4d/pool_proj
I1126 10:34:52.646703 10411 cudnn_conv_layer.cpp:194] Reallocating workspace storage: 10080
I1126 10:34:52.646730 10411 net.cpp:150] Setting up inception_4d/pool_proj
I1126 10:34:52.646739 10411 net.cpp:157] Top shape: 32 64 14 14 (401408)
I1126 10:34:52.646742 10411 net.cpp:165] Memory required for data: 1528120068
I1126 10:34:52.646749 10411 layer_factory.hpp:76] Creating layer inception_4d/prelu_pool_proj
I1126 10:34:52.646759 10411 net.cpp:106] Creating Layer inception_4d/prelu_pool_proj
I1126 10:34:52.646764 10411 net.cpp:454] inception_4d/prelu_pool_proj <- inception_4d/pool_proj
I1126 10:34:52.646770 10411 net.cpp:397] inception_4d/prelu_pool_proj -> inception_4d/pool_proj (in-place)
I1126 10:34:52.646878 10411 net.cpp:150] Setting up inception_4d/prelu_pool_proj
I1126 10:34:52.646885 10411 net.cpp:157] Top shape: 32 64 14 14 (401408)
I1126 10:34:52.646889 10411 net.cpp:165] Memory required for data: 1529725700
I1126 10:34:52.646895 10411 layer_factory.hpp:76] Creating layer inception_4d/output
I1126 10:34:52.646903 10411 net.cpp:106] Creating Layer inception_4d/output
I1126 10:34:52.646906 10411 net.cpp:454] inception_4d/output <- inception_4d/1x1
I1126 10:34:52.646913 10411 net.cpp:454] inception_4d/output <- inception_4d/3x3
I1126 10:34:52.646916 10411 net.cpp:454] inception_4d/output <- inception_4d/5x5
I1126 10:34:52.646921 10411 net.cpp:454] inception_4d/output <- inception_4d/pool_proj
I1126 10:34:52.646929 10411 net.cpp:411] inception_4d/output -> inception_4d/output
I1126 10:34:52.646956 10411 net.cpp:150] Setting up inception_4d/output
I1126 10:34:52.646965 10411 net.cpp:157] Top shape: 32 528 14 14 (3311616)
I1126 10:34:52.646968 10411 net.cpp:165] Memory required for data: 1542972164
I1126 10:34:52.646972 10411 layer_factory.hpp:76] Creating layer inception_4d/output_inception_4d/output_0_split
I1126 10:34:52.646978 10411 net.cpp:106] Creating Layer inception_4d/output_inception_4d/output_0_split
I1126 10:34:52.646983 10411 net.cpp:454] inception_4d/output_inception_4d/output_0_split <- inception_4d/output
I1126 10:34:52.646989 10411 net.cpp:411] inception_4d/output_inception_4d/output_0_split -> inception_4d/output_inception_4d/output_0_split_0
I1126 10:34:52.646997 10411 net.cpp:411] inception_4d/output_inception_4d/output_0_split -> inception_4d/output_inception_4d/output_0_split_1
I1126 10:34:52.647006 10411 net.cpp:411] inception_4d/output_inception_4d/output_0_split -> inception_4d/output_inception_4d/output_0_split_2
I1126 10:34:52.647012 10411 net.cpp:411] inception_4d/output_inception_4d/output_0_split -> inception_4d/output_inception_4d/output_0_split_3
I1126 10:34:52.647019 10411 net.cpp:411] inception_4d/output_inception_4d/output_0_split -> inception_4d/output_inception_4d/output_0_split_4
I1126 10:34:52.647094 10411 net.cpp:150] Setting up inception_4d/output_inception_4d/output_0_split
I1126 10:34:52.647101 10411 net.cpp:157] Top shape: 32 528 14 14 (3311616)
I1126 10:34:52.647107 10411 net.cpp:157] Top shape: 32 528 14 14 (3311616)
I1126 10:34:52.647111 10411 net.cpp:157] Top shape: 32 528 14 14 (3311616)
I1126 10:34:52.647116 10411 net.cpp:157] Top shape: 32 528 14 14 (3311616)
I1126 10:34:52.647121 10411 net.cpp:157] Top shape: 32 528 14 14 (3311616)
I1126 10:34:52.647125 10411 net.cpp:165] Memory required for data: 1609204484
I1126 10:34:52.647130 10411 layer_factory.hpp:76] Creating layer loss2/ave_pool
I1126 10:34:52.647135 10411 net.cpp:106] Creating Layer loss2/ave_pool
I1126 10:34:52.647140 10411 net.cpp:454] loss2/ave_pool <- inception_4d/output_inception_4d/output_0_split_0
I1126 10:34:52.647150 10411 net.cpp:411] loss2/ave_pool -> loss2/ave_pool
I1126 10:34:52.647516 10411 net.cpp:150] Setting up loss2/ave_pool
I1126 10:34:52.647526 10411 net.cpp:157] Top shape: 32 528 4 4 (270336)
I1126 10:34:52.647531 10411 net.cpp:165] Memory required for data: 1610285828
I1126 10:34:52.647544 10411 layer_factory.hpp:76] Creating layer loss2/conv
I1126 10:34:52.647553 10411 net.cpp:106] Creating Layer loss2/conv
I1126 10:34:52.647559 10411 net.cpp:454] loss2/conv <- loss2/ave_pool
I1126 10:34:52.647565 10411 net.cpp:411] loss2/conv -> loss2/conv
I1126 10:34:52.649126 10411 cudnn_conv_layer.cpp:194] Reallocating workspace storage: 6840
I1126 10:34:52.649157 10411 net.cpp:150] Setting up loss2/conv
I1126 10:34:52.649165 10411 net.cpp:157] Top shape: 32 128 4 4 (65536)
I1126 10:34:52.649169 10411 net.cpp:165] Memory required for data: 1610547972
I1126 10:34:52.649178 10411 layer_factory.hpp:76] Creating layer loss2/prelu_conv
I1126 10:34:52.649188 10411 net.cpp:106] Creating Layer loss2/prelu_conv
I1126 10:34:52.649193 10411 net.cpp:454] loss2/prelu_conv <- loss2/conv
I1126 10:34:52.649199 10411 net.cpp:397] loss2/prelu_conv -> loss2/conv (in-place)
I1126 10:34:52.649302 10411 net.cpp:150] Setting up loss2/prelu_conv
I1126 10:34:52.649310 10411 net.cpp:157] Top shape: 32 128 4 4 (65536)
I1126 10:34:52.649314 10411 net.cpp:165] Memory required for data: 1610810116
I1126 10:34:52.649320 10411 layer_factory.hpp:76] Creating layer loss2/fc
I1126 10:34:52.649327 10411 net.cpp:106] Creating Layer loss2/fc
I1126 10:34:52.649333 10411 net.cpp:454] loss2/fc <- loss2/conv
I1126 10:34:52.649340 10411 net.cpp:411] loss2/fc -> loss2/fc
I1126 10:34:52.665704 10411 net.cpp:150] Setting up loss2/fc
I1126 10:34:52.665741 10411 net.cpp:157] Top shape: 32 1024 (32768)
I1126 10:34:52.665747 10411 net.cpp:165] Memory required for data: 1610941188
I1126 10:34:52.665784 10411 layer_factory.hpp:76] Creating layer loss2/prelu_fc
I1126 10:34:52.665802 10411 net.cpp:106] Creating Layer loss2/prelu_fc
I1126 10:34:52.665809 10411 net.cpp:454] loss2/prelu_fc <- loss2/fc
I1126 10:34:52.665818 10411 net.cpp:397] loss2/prelu_fc -> loss2/fc (in-place)
I1126 10:34:52.665932 10411 net.cpp:150] Setting up loss2/prelu_fc
I1126 10:34:52.665942 10411 net.cpp:157] Top shape: 32 1024 (32768)
I1126 10:34:52.665946 10411 net.cpp:165] Memory required for data: 1611072260
I1126 10:34:52.665952 10411 layer_factory.hpp:76] Creating layer loss2/drop_fc
I1126 10:34:52.665961 10411 net.cpp:106] Creating Layer loss2/drop_fc
I1126 10:34:52.665966 10411 net.cpp:454] loss2/drop_fc <- loss2/fc
I1126 10:34:52.665972 10411 net.cpp:397] loss2/drop_fc -> loss2/fc (in-place)
I1126 10:34:52.666004 10411 net.cpp:150] Setting up loss2/drop_fc
I1126 10:34:52.666013 10411 net.cpp:157] Top shape: 32 1024 (32768)
I1126 10:34:52.666015 10411 net.cpp:165] Memory required for data: 1611203332
I1126 10:34:52.666020 10411 layer_factory.hpp:76] Creating layer loss2/classifier2
I1126 10:34:52.666029 10411 net.cpp:106] Creating Layer loss2/classifier2
I1126 10:34:52.666033 10411 net.cpp:454] loss2/classifier2 <- loss2/fc
I1126 10:34:52.666040 10411 net.cpp:411] loss2/classifier2 -> loss2/classifier
I1126 10:34:52.666179 10411 net.cpp:150] Setting up loss2/classifier2
I1126 10:34:52.666189 10411 net.cpp:157] Top shape: 32 2 (64)
I1126 10:34:52.666193 10411 net.cpp:165] Memory required for data: 1611203588
I1126 10:34:52.666200 10411 layer_factory.hpp:76] Creating layer loss2/loss
I1126 10:34:52.666208 10411 net.cpp:106] Creating Layer loss2/loss
I1126 10:34:52.666213 10411 net.cpp:454] loss2/loss <- loss2/classifier
I1126 10:34:52.666219 10411 net.cpp:454] loss2/loss <- label_data_1_split_1
I1126 10:34:52.666227 10411 net.cpp:411] loss2/loss -> loss2/loss1
I1126 10:34:52.666239 10411 layer_factory.hpp:76] Creating layer loss2/loss
I1126 10:34:52.666640 10411 net.cpp:150] Setting up loss2/loss
I1126 10:34:52.666658 10411 net.cpp:157] Top shape: (1)
I1126 10:34:52.666662 10411 net.cpp:160]     with loss weight 0.3
I1126 10:34:52.666679 10411 net.cpp:165] Memory required for data: 1611203592
I1126 10:34:52.666684 10411 layer_factory.hpp:76] Creating layer inception_4e/1x1
I1126 10:34:52.666697 10411 net.cpp:106] Creating Layer inception_4e/1x1
I1126 10:34:52.666703 10411 net.cpp:454] inception_4e/1x1 <- inception_4d/output_inception_4d/output_0_split_1
I1126 10:34:52.666714 10411 net.cpp:411] inception_4e/1x1 -> inception_4e/1x1
I1126 10:34:52.669987 10411 cudnn_conv_layer.cpp:194] Reallocating workspace storage: 10080
I1126 10:34:52.670047 10411 net.cpp:150] Setting up inception_4e/1x1
I1126 10:34:52.670059 10411 net.cpp:157] Top shape: 32 256 14 14 (1605632)
I1126 10:34:52.670064 10411 net.cpp:165] Memory required for data: 1617626120
I1126 10:34:52.670075 10411 layer_factory.hpp:76] Creating layer inception_4e/prelu_1x1
I1126 10:34:52.670090 10411 net.cpp:106] Creating Layer inception_4e/prelu_1x1
I1126 10:34:52.670097 10411 net.cpp:454] inception_4e/prelu_1x1 <- inception_4e/1x1
I1126 10:34:52.670106 10411 net.cpp:397] inception_4e/prelu_1x1 -> inception_4e/1x1 (in-place)
I1126 10:34:52.670267 10411 net.cpp:150] Setting up inception_4e/prelu_1x1
I1126 10:34:52.670275 10411 net.cpp:157] Top shape: 32 256 14 14 (1605632)
I1126 10:34:52.670279 10411 net.cpp:165] Memory required for data: 1624048648
I1126 10:34:52.670285 10411 layer_factory.hpp:76] Creating layer inception_4e/3x3_reduce
I1126 10:34:52.670299 10411 net.cpp:106] Creating Layer inception_4e/3x3_reduce
I1126 10:34:52.670305 10411 net.cpp:454] inception_4e/3x3_reduce <- inception_4d/output_inception_4d/output_0_split_2
I1126 10:34:52.670312 10411 net.cpp:411] inception_4e/3x3_reduce -> inception_4e/3x3_reduce
I1126 10:34:52.672256 10411 cudnn_conv_layer.cpp:194] Reallocating workspace storage: 10080
I1126 10:34:52.672302 10411 net.cpp:150] Setting up inception_4e/3x3_reduce
I1126 10:34:52.672313 10411 net.cpp:157] Top shape: 32 160 14 14 (1003520)
I1126 10:34:52.672317 10411 net.cpp:165] Memory required for data: 1628062728
I1126 10:34:52.672328 10411 layer_factory.hpp:76] Creating layer inception_4e/prelu_3x3_reduce
I1126 10:34:52.672341 10411 net.cpp:106] Creating Layer inception_4e/prelu_3x3_reduce
I1126 10:34:52.672348 10411 net.cpp:454] inception_4e/prelu_3x3_reduce <- inception_4e/3x3_reduce
I1126 10:34:52.672356 10411 net.cpp:397] inception_4e/prelu_3x3_reduce -> inception_4e/3x3_reduce (in-place)
I1126 10:34:52.672500 10411 net.cpp:150] Setting up inception_4e/prelu_3x3_reduce
I1126 10:34:52.672509 10411 net.cpp:157] Top shape: 32 160 14 14 (1003520)
I1126 10:34:52.672514 10411 net.cpp:165] Memory required for data: 1632076808
I1126 10:34:52.672519 10411 layer_factory.hpp:76] Creating layer inception_4e/3x3
I1126 10:34:52.672531 10411 net.cpp:106] Creating Layer inception_4e/3x3
I1126 10:34:52.672536 10411 net.cpp:454] inception_4e/3x3 <- inception_4e/3x3_reduce
I1126 10:34:52.672544 10411 net.cpp:411] inception_4e/3x3 -> inception_4e/3x3
I1126 10:34:52.677268 10411 cudnn_conv_layer.cpp:194] Reallocating workspace storage: 10080
I1126 10:34:52.677309 10411 net.cpp:150] Setting up inception_4e/3x3
I1126 10:34:52.677320 10411 net.cpp:157] Top shape: 32 320 14 14 (2007040)
I1126 10:34:52.677325 10411 net.cpp:165] Memory required for data: 1640104968
I1126 10:34:52.677335 10411 layer_factory.hpp:76] Creating layer inception_4e/prelu_3x3
I1126 10:34:52.677346 10411 net.cpp:106] Creating Layer inception_4e/prelu_3x3
I1126 10:34:52.677352 10411 net.cpp:454] inception_4e/prelu_3x3 <- inception_4e/3x3
I1126 10:34:52.677361 10411 net.cpp:397] inception_4e/prelu_3x3 -> inception_4e/3x3 (in-place)
I1126 10:34:52.677528 10411 net.cpp:150] Setting up inception_4e/prelu_3x3
I1126 10:34:52.677538 10411 net.cpp:157] Top shape: 32 320 14 14 (2007040)
I1126 10:34:52.677542 10411 net.cpp:165] Memory required for data: 1648133128
I1126 10:34:52.677548 10411 layer_factory.hpp:76] Creating layer inception_4e/5x5_reduce
I1126 10:34:52.677559 10411 net.cpp:106] Creating Layer inception_4e/5x5_reduce
I1126 10:34:52.677564 10411 net.cpp:454] inception_4e/5x5_reduce <- inception_4d/output_inception_4d/output_0_split_3
I1126 10:34:52.677570 10411 net.cpp:411] inception_4e/5x5_reduce -> inception_4e/5x5_reduce
I1126 10:34:52.678745 10411 cudnn_conv_layer.cpp:194] Reallocating workspace storage: 10080
I1126 10:34:52.678776 10411 net.cpp:150] Setting up inception_4e/5x5_reduce
I1126 10:34:52.678784 10411 net.cpp:157] Top shape: 32 32 14 14 (200704)
I1126 10:34:52.678825 10411 net.cpp:165] Memory required for data: 1648935944
I1126 10:34:52.678833 10411 layer_factory.hpp:76] Creating layer inception_4e/prelu_5x5_reduce
I1126 10:34:52.678841 10411 net.cpp:106] Creating Layer inception_4e/prelu_5x5_reduce
I1126 10:34:52.678848 10411 net.cpp:454] inception_4e/prelu_5x5_reduce <- inception_4e/5x5_reduce
I1126 10:34:52.678855 10411 net.cpp:397] inception_4e/prelu_5x5_reduce -> inception_4e/5x5_reduce (in-place)
I1126 10:34:52.678990 10411 net.cpp:150] Setting up inception_4e/prelu_5x5_reduce
I1126 10:34:52.678998 10411 net.cpp:157] Top shape: 32 32 14 14 (200704)
I1126 10:34:52.679003 10411 net.cpp:165] Memory required for data: 1649738760
I1126 10:34:52.679008 10411 layer_factory.hpp:76] Creating layer inception_4e/5x5
I1126 10:34:52.679041 10411 net.cpp:106] Creating Layer inception_4e/5x5
I1126 10:34:52.679047 10411 net.cpp:454] inception_4e/5x5 <- inception_4e/5x5_reduce
I1126 10:34:52.679055 10411 net.cpp:411] inception_4e/5x5 -> inception_4e/5x5
I1126 10:34:52.682250 10411 cudnn_conv_layer.cpp:194] Reallocating workspace storage: 13080
I1126 10:34:52.682298 10411 net.cpp:150] Setting up inception_4e/5x5
I1126 10:34:52.682310 10411 net.cpp:157] Top shape: 32 128 14 14 (802816)
I1126 10:34:52.682315 10411 net.cpp:165] Memory required for data: 1652950024
I1126 10:34:52.682337 10411 layer_factory.hpp:76] Creating layer inception_4e/prelu_5x5
I1126 10:34:52.682364 10411 net.cpp:106] Creating Layer inception_4e/prelu_5x5
I1126 10:34:52.682373 10411 net.cpp:454] inception_4e/prelu_5x5 <- inception_4e/5x5
I1126 10:34:52.682382 10411 net.cpp:397] inception_4e/prelu_5x5 -> inception_4e/5x5 (in-place)
I1126 10:34:52.682521 10411 net.cpp:150] Setting up inception_4e/prelu_5x5
I1126 10:34:52.682531 10411 net.cpp:157] Top shape: 32 128 14 14 (802816)
I1126 10:34:52.682535 10411 net.cpp:165] Memory required for data: 1656161288
I1126 10:34:52.682540 10411 layer_factory.hpp:76] Creating layer inception_4e/pool
I1126 10:34:52.682550 10411 net.cpp:106] Creating Layer inception_4e/pool
I1126 10:34:52.682555 10411 net.cpp:454] inception_4e/pool <- inception_4d/output_inception_4d/output_0_split_4
I1126 10:34:52.682562 10411 net.cpp:411] inception_4e/pool -> inception_4e/pool
I1126 10:34:52.683065 10411 net.cpp:150] Setting up inception_4e/pool
I1126 10:34:52.683089 10411 net.cpp:157] Top shape: 32 528 14 14 (3311616)
I1126 10:34:52.683094 10411 net.cpp:165] Memory required for data: 1669407752
I1126 10:34:52.683097 10411 layer_factory.hpp:76] Creating layer inception_4e/pool_proj
I1126 10:34:52.683109 10411 net.cpp:106] Creating Layer inception_4e/pool_proj
I1126 10:34:52.683115 10411 net.cpp:454] inception_4e/pool_proj <- inception_4e/pool
I1126 10:34:52.683123 10411 net.cpp:411] inception_4e/pool_proj -> inception_4e/pool_proj
I1126 10:34:52.684533 10411 cudnn_conv_layer.cpp:194] Reallocating workspace storage: 10080
I1126 10:34:52.684572 10411 net.cpp:150] Setting up inception_4e/pool_proj
I1126 10:34:52.684581 10411 net.cpp:157] Top shape: 32 128 14 14 (802816)
I1126 10:34:52.684586 10411 net.cpp:165] Memory required for data: 1672619016
I1126 10:34:52.684594 10411 layer_factory.hpp:76] Creating layer inception_4e/prelu_pool_proj
I1126 10:34:52.684605 10411 net.cpp:106] Creating Layer inception_4e/prelu_pool_proj
I1126 10:34:52.684612 10411 net.cpp:454] inception_4e/prelu_pool_proj <- inception_4e/pool_proj
I1126 10:34:52.684620 10411 net.cpp:397] inception_4e/prelu_pool_proj -> inception_4e/pool_proj (in-place)
I1126 10:34:52.684767 10411 net.cpp:150] Setting up inception_4e/prelu_pool_proj
I1126 10:34:52.684777 10411 net.cpp:157] Top shape: 32 128 14 14 (802816)
I1126 10:34:52.684780 10411 net.cpp:165] Memory required for data: 1675830280
I1126 10:34:52.684787 10411 layer_factory.hpp:76] Creating layer inception_4e/output
I1126 10:34:52.684793 10411 net.cpp:106] Creating Layer inception_4e/output
I1126 10:34:52.684806 10411 net.cpp:454] inception_4e/output <- inception_4e/1x1
I1126 10:34:52.684813 10411 net.cpp:454] inception_4e/output <- inception_4e/3x3
I1126 10:34:52.684818 10411 net.cpp:454] inception_4e/output <- inception_4e/5x5
I1126 10:34:52.684847 10411 net.cpp:454] inception_4e/output <- inception_4e/pool_proj
I1126 10:34:52.684856 10411 net.cpp:411] inception_4e/output -> inception_4e/output
I1126 10:34:52.684888 10411 net.cpp:150] Setting up inception_4e/output
I1126 10:34:52.684895 10411 net.cpp:157] Top shape: 32 832 14 14 (5218304)
I1126 10:34:52.684900 10411 net.cpp:165] Memory required for data: 1696703496
I1126 10:34:52.684905 10411 layer_factory.hpp:76] Creating layer pool4/3x3_s2
I1126 10:34:52.684911 10411 net.cpp:106] Creating Layer pool4/3x3_s2
I1126 10:34:52.684916 10411 net.cpp:454] pool4/3x3_s2 <- inception_4e/output
I1126 10:34:52.684922 10411 net.cpp:411] pool4/3x3_s2 -> pool4/3x3_s2
I1126 10:34:52.685343 10411 net.cpp:150] Setting up pool4/3x3_s2
I1126 10:34:52.685353 10411 net.cpp:157] Top shape: 32 832 7 7 (1304576)
I1126 10:34:52.685358 10411 net.cpp:165] Memory required for data: 1701921800
I1126 10:34:52.685361 10411 layer_factory.hpp:76] Creating layer pool4/3x3_s2_pool4/3x3_s2_0_split
I1126 10:34:52.685369 10411 net.cpp:106] Creating Layer pool4/3x3_s2_pool4/3x3_s2_0_split
I1126 10:34:52.685374 10411 net.cpp:454] pool4/3x3_s2_pool4/3x3_s2_0_split <- pool4/3x3_s2
I1126 10:34:52.685381 10411 net.cpp:411] pool4/3x3_s2_pool4/3x3_s2_0_split -> pool4/3x3_s2_pool4/3x3_s2_0_split_0
I1126 10:34:52.685389 10411 net.cpp:411] pool4/3x3_s2_pool4/3x3_s2_0_split -> pool4/3x3_s2_pool4/3x3_s2_0_split_1
I1126 10:34:52.685395 10411 net.cpp:411] pool4/3x3_s2_pool4/3x3_s2_0_split -> pool4/3x3_s2_pool4/3x3_s2_0_split_2
I1126 10:34:52.685402 10411 net.cpp:411] pool4/3x3_s2_pool4/3x3_s2_0_split -> pool4/3x3_s2_pool4/3x3_s2_0_split_3
I1126 10:34:52.685473 10411 net.cpp:150] Setting up pool4/3x3_s2_pool4/3x3_s2_0_split
I1126 10:34:52.685482 10411 net.cpp:157] Top shape: 32 832 7 7 (1304576)
I1126 10:34:52.685487 10411 net.cpp:157] Top shape: 32 832 7 7 (1304576)
I1126 10:34:52.685492 10411 net.cpp:157] Top shape: 32 832 7 7 (1304576)
I1126 10:34:52.685497 10411 net.cpp:157] Top shape: 32 832 7 7 (1304576)
I1126 10:34:52.685500 10411 net.cpp:165] Memory required for data: 1722795016
I1126 10:34:52.685504 10411 layer_factory.hpp:76] Creating layer inception_5a/1x1
I1126 10:34:52.685514 10411 net.cpp:106] Creating Layer inception_5a/1x1
I1126 10:34:52.685519 10411 net.cpp:454] inception_5a/1x1 <- pool4/3x3_s2_pool4/3x3_s2_0_split_0
I1126 10:34:52.685526 10411 net.cpp:411] inception_5a/1x1 -> inception_5a/1x1
I1126 10:34:52.688700 10411 cudnn_conv_layer.cpp:194] Reallocating workspace storage: 7428
I1126 10:34:52.688777 10411 net.cpp:150] Setting up inception_5a/1x1
I1126 10:34:52.688789 10411 net.cpp:157] Top shape: 32 256 7 7 (401408)
I1126 10:34:52.688794 10411 net.cpp:165] Memory required for data: 1724400648
I1126 10:34:52.688823 10411 layer_factory.hpp:76] Creating layer inception_5a/prelu_1x1
I1126 10:34:52.688840 10411 net.cpp:106] Creating Layer inception_5a/prelu_1x1
I1126 10:34:52.688848 10411 net.cpp:454] inception_5a/prelu_1x1 <- inception_5a/1x1
I1126 10:34:52.688858 10411 net.cpp:397] inception_5a/prelu_1x1 -> inception_5a/1x1 (in-place)
I1126 10:34:52.689580 10411 net.cpp:150] Setting up inception_5a/prelu_1x1
I1126 10:34:52.689600 10411 net.cpp:157] Top shape: 32 256 7 7 (401408)
I1126 10:34:52.689604 10411 net.cpp:165] Memory required for data: 1726006280
I1126 10:34:52.689612 10411 layer_factory.hpp:76] Creating layer inception_5a/3x3_reduce
I1126 10:34:52.689631 10411 net.cpp:106] Creating Layer inception_5a/3x3_reduce
I1126 10:34:52.689638 10411 net.cpp:454] inception_5a/3x3_reduce <- pool4/3x3_s2_pool4/3x3_s2_0_split_1
I1126 10:34:52.689648 10411 net.cpp:411] inception_5a/3x3_reduce -> inception_5a/3x3_reduce
I1126 10:34:52.692396 10411 cudnn_conv_layer.cpp:194] Reallocating workspace storage: 7428
I1126 10:34:52.692478 10411 net.cpp:150] Setting up inception_5a/3x3_reduce
I1126 10:34:52.692508 10411 net.cpp:157] Top shape: 32 160 7 7 (250880)
I1126 10:34:52.692513 10411 net.cpp:165] Memory required for data: 1727009800
I1126 10:34:52.692533 10411 layer_factory.hpp:76] Creating layer inception_5a/prelu_3x3_reduce
I1126 10:34:52.692600 10411 net.cpp:106] Creating Layer inception_5a/prelu_3x3_reduce
I1126 10:34:52.692618 10411 net.cpp:454] inception_5a/prelu_3x3_reduce <- inception_5a/3x3_reduce
I1126 10:34:52.692628 10411 net.cpp:397] inception_5a/prelu_3x3_reduce -> inception_5a/3x3_reduce (in-place)
I1126 10:34:52.692819 10411 net.cpp:150] Setting up inception_5a/prelu_3x3_reduce
I1126 10:34:52.692841 10411 net.cpp:157] Top shape: 32 160 7 7 (250880)
I1126 10:34:52.692844 10411 net.cpp:165] Memory required for data: 1728013320
I1126 10:34:52.692852 10411 layer_factory.hpp:76] Creating layer inception_5a/3x3
I1126 10:34:52.692863 10411 net.cpp:106] Creating Layer inception_5a/3x3
I1126 10:34:52.692868 10411 net.cpp:454] inception_5a/3x3 <- inception_5a/3x3_reduce
I1126 10:34:52.692878 10411 net.cpp:411] inception_5a/3x3 -> inception_5a/3x3
I1126 10:34:52.697954 10411 cudnn_conv_layer.cpp:194] Reallocating workspace storage: 7788
I1126 10:34:52.698009 10411 net.cpp:150] Setting up inception_5a/3x3
I1126 10:34:52.698022 10411 net.cpp:157] Top shape: 32 320 7 7 (501760)
I1126 10:34:52.698037 10411 net.cpp:165] Memory required for data: 1730020360
I1126 10:34:52.698060 10411 layer_factory.hpp:76] Creating layer inception_5a/prelu_3x3
I1126 10:34:52.698076 10411 net.cpp:106] Creating Layer inception_5a/prelu_3x3
I1126 10:34:52.698084 10411 net.cpp:454] inception_5a/prelu_3x3 <- inception_5a/3x3
I1126 10:34:52.698096 10411 net.cpp:397] inception_5a/prelu_3x3 -> inception_5a/3x3 (in-place)
I1126 10:34:52.698236 10411 net.cpp:150] Setting up inception_5a/prelu_3x3
I1126 10:34:52.698246 10411 net.cpp:157] Top shape: 32 320 7 7 (501760)
I1126 10:34:52.698251 10411 net.cpp:165] Memory required for data: 1732027400
I1126 10:34:52.698256 10411 layer_factory.hpp:76] Creating layer inception_5a/5x5_reduce
I1126 10:34:52.698269 10411 net.cpp:106] Creating Layer inception_5a/5x5_reduce
I1126 10:34:52.698276 10411 net.cpp:454] inception_5a/5x5_reduce <- pool4/3x3_s2_pool4/3x3_s2_0_split_2
I1126 10:34:52.698284 10411 net.cpp:411] inception_5a/5x5_reduce -> inception_5a/5x5_reduce
I1126 10:34:52.699661 10411 cudnn_conv_layer.cpp:194] Reallocating workspace storage: 7428
I1126 10:34:52.699693 10411 net.cpp:150] Setting up inception_5a/5x5_reduce
I1126 10:34:52.699703 10411 net.cpp:157] Top shape: 32 32 7 7 (50176)
I1126 10:34:52.699708 10411 net.cpp:165] Memory required for data: 1732228104
I1126 10:34:52.699717 10411 layer_factory.hpp:76] Creating layer inception_5a/prelu_5x5_reduce
I1126 10:34:52.699728 10411 net.cpp:106] Creating Layer inception_5a/prelu_5x5_reduce
I1126 10:34:52.699733 10411 net.cpp:454] inception_5a/prelu_5x5_reduce <- inception_5a/5x5_reduce
I1126 10:34:52.699741 10411 net.cpp:397] inception_5a/prelu_5x5_reduce -> inception_5a/5x5_reduce (in-place)
I1126 10:34:52.699847 10411 net.cpp:150] Setting up inception_5a/prelu_5x5_reduce
I1126 10:34:52.699856 10411 net.cpp:157] Top shape: 32 32 7 7 (50176)
I1126 10:34:52.699859 10411 net.cpp:165] Memory required for data: 1732428808
I1126 10:34:52.699865 10411 layer_factory.hpp:76] Creating layer inception_5a/5x5
I1126 10:34:52.699877 10411 net.cpp:106] Creating Layer inception_5a/5x5
I1126 10:34:52.699880 10411 net.cpp:454] inception_5a/5x5 <- inception_5a/5x5_reduce
I1126 10:34:52.699887 10411 net.cpp:411] inception_5a/5x5 -> inception_5a/5x5
I1126 10:34:52.701616 10411 cudnn_conv_layer.cpp:194] Reallocating workspace storage: 9804
I1126 10:34:52.701645 10411 net.cpp:150] Setting up inception_5a/5x5
I1126 10:34:52.701653 10411 net.cpp:157] Top shape: 32 128 7 7 (200704)
I1126 10:34:52.701658 10411 net.cpp:165] Memory required for data: 1733231624
I1126 10:34:52.701664 10411 layer_factory.hpp:76] Creating layer inception_5a/prelu_5x5
I1126 10:34:52.701673 10411 net.cpp:106] Creating Layer inception_5a/prelu_5x5
I1126 10:34:52.701678 10411 net.cpp:454] inception_5a/prelu_5x5 <- inception_5a/5x5
I1126 10:34:52.701685 10411 net.cpp:397] inception_5a/prelu_5x5 -> inception_5a/5x5 (in-place)
I1126 10:34:52.701786 10411 net.cpp:150] Setting up inception_5a/prelu_5x5
I1126 10:34:52.701819 10411 net.cpp:157] Top shape: 32 128 7 7 (200704)
I1126 10:34:52.701824 10411 net.cpp:165] Memory required for data: 1734034440
I1126 10:34:52.701829 10411 layer_factory.hpp:76] Creating layer inception_5a/pool
I1126 10:34:52.701838 10411 net.cpp:106] Creating Layer inception_5a/pool
I1126 10:34:52.701843 10411 net.cpp:454] inception_5a/pool <- pool4/3x3_s2_pool4/3x3_s2_0_split_3
I1126 10:34:52.701848 10411 net.cpp:411] inception_5a/pool -> inception_5a/pool
I1126 10:34:52.702033 10411 net.cpp:150] Setting up inception_5a/pool
I1126 10:34:52.702040 10411 net.cpp:157] Top shape: 32 832 7 7 (1304576)
I1126 10:34:52.702044 10411 net.cpp:165] Memory required for data: 1739252744
I1126 10:34:52.702049 10411 layer_factory.hpp:76] Creating layer inception_5a/pool_proj
I1126 10:34:52.702059 10411 net.cpp:106] Creating Layer inception_5a/pool_proj
I1126 10:34:52.702062 10411 net.cpp:454] inception_5a/pool_proj <- inception_5a/pool
I1126 10:34:52.702069 10411 net.cpp:411] inception_5a/pool_proj -> inception_5a/pool_proj
I1126 10:34:52.704325 10411 cudnn_conv_layer.cpp:194] Reallocating workspace storage: 7428
I1126 10:34:52.704351 10411 net.cpp:150] Setting up inception_5a/pool_proj
I1126 10:34:52.704358 10411 net.cpp:157] Top shape: 32 128 7 7 (200704)
I1126 10:34:52.704363 10411 net.cpp:165] Memory required for data: 1740055560
I1126 10:34:52.704370 10411 layer_factory.hpp:76] Creating layer inception_5a/prelu_pool_proj
I1126 10:34:52.704378 10411 net.cpp:106] Creating Layer inception_5a/prelu_pool_proj
I1126 10:34:52.704383 10411 net.cpp:454] inception_5a/prelu_pool_proj <- inception_5a/pool_proj
I1126 10:34:52.704390 10411 net.cpp:397] inception_5a/prelu_pool_proj -> inception_5a/pool_proj (in-place)
I1126 10:34:52.704481 10411 net.cpp:150] Setting up inception_5a/prelu_pool_proj
I1126 10:34:52.704488 10411 net.cpp:157] Top shape: 32 128 7 7 (200704)
I1126 10:34:52.704493 10411 net.cpp:165] Memory required for data: 1740858376
I1126 10:34:52.704498 10411 layer_factory.hpp:76] Creating layer inception_5a/output
I1126 10:34:52.704505 10411 net.cpp:106] Creating Layer inception_5a/output
I1126 10:34:52.704509 10411 net.cpp:454] inception_5a/output <- inception_5a/1x1
I1126 10:34:52.704514 10411 net.cpp:454] inception_5a/output <- inception_5a/3x3
I1126 10:34:52.704519 10411 net.cpp:454] inception_5a/output <- inception_5a/5x5
I1126 10:34:52.704524 10411 net.cpp:454] inception_5a/output <- inception_5a/pool_proj
I1126 10:34:52.704529 10411 net.cpp:411] inception_5a/output -> inception_5a/output
I1126 10:34:52.704555 10411 net.cpp:150] Setting up inception_5a/output
I1126 10:34:52.704562 10411 net.cpp:157] Top shape: 32 832 7 7 (1304576)
I1126 10:34:52.704566 10411 net.cpp:165] Memory required for data: 1746076680
I1126 10:34:52.704569 10411 layer_factory.hpp:76] Creating layer inception_5a/output_inception_5a/output_0_split
I1126 10:34:52.704576 10411 net.cpp:106] Creating Layer inception_5a/output_inception_5a/output_0_split
I1126 10:34:52.704581 10411 net.cpp:454] inception_5a/output_inception_5a/output_0_split <- inception_5a/output
I1126 10:34:52.704587 10411 net.cpp:411] inception_5a/output_inception_5a/output_0_split -> inception_5a/output_inception_5a/output_0_split_0
I1126 10:34:52.704594 10411 net.cpp:411] inception_5a/output_inception_5a/output_0_split -> inception_5a/output_inception_5a/output_0_split_1
I1126 10:34:52.704602 10411 net.cpp:411] inception_5a/output_inception_5a/output_0_split -> inception_5a/output_inception_5a/output_0_split_2
I1126 10:34:52.704608 10411 net.cpp:411] inception_5a/output_inception_5a/output_0_split -> inception_5a/output_inception_5a/output_0_split_3
I1126 10:34:52.704673 10411 net.cpp:150] Setting up inception_5a/output_inception_5a/output_0_split
I1126 10:34:52.704679 10411 net.cpp:157] Top shape: 32 832 7 7 (1304576)
I1126 10:34:52.704684 10411 net.cpp:157] Top shape: 32 832 7 7 (1304576)
I1126 10:34:52.704689 10411 net.cpp:157] Top shape: 32 832 7 7 (1304576)
I1126 10:34:52.704692 10411 net.cpp:157] Top shape: 32 832 7 7 (1304576)
I1126 10:34:52.704707 10411 net.cpp:165] Memory required for data: 1766949896
I1126 10:34:52.704711 10411 layer_factory.hpp:76] Creating layer inception_5b/1x1
I1126 10:34:52.704725 10411 net.cpp:106] Creating Layer inception_5b/1x1
I1126 10:34:52.704730 10411 net.cpp:454] inception_5b/1x1 <- inception_5a/output_inception_5a/output_0_split_0
I1126 10:34:52.704735 10411 net.cpp:411] inception_5b/1x1 -> inception_5b/1x1
I1126 10:34:52.708056 10411 cudnn_conv_layer.cpp:194] Reallocating workspace storage: 7428
I1126 10:34:52.708083 10411 net.cpp:150] Setting up inception_5b/1x1
I1126 10:34:52.708091 10411 net.cpp:157] Top shape: 32 384 7 7 (602112)
I1126 10:34:52.708096 10411 net.cpp:165] Memory required for data: 1769358344
I1126 10:34:52.708102 10411 layer_factory.hpp:76] Creating layer inception_5b/prelu_1x1
I1126 10:34:52.708111 10411 net.cpp:106] Creating Layer inception_5b/prelu_1x1
I1126 10:34:52.708115 10411 net.cpp:454] inception_5b/prelu_1x1 <- inception_5b/1x1
I1126 10:34:52.708123 10411 net.cpp:397] inception_5b/prelu_1x1 -> inception_5b/1x1 (in-place)
I1126 10:34:52.708709 10411 net.cpp:150] Setting up inception_5b/prelu_1x1
I1126 10:34:52.708725 10411 net.cpp:157] Top shape: 32 384 7 7 (602112)
I1126 10:34:52.708730 10411 net.cpp:165] Memory required for data: 1771766792
I1126 10:34:52.708735 10411 layer_factory.hpp:76] Creating layer inception_5b/3x3_reduce
I1126 10:34:52.708746 10411 net.cpp:106] Creating Layer inception_5b/3x3_reduce
I1126 10:34:52.708751 10411 net.cpp:454] inception_5b/3x3_reduce <- inception_5a/output_inception_5a/output_0_split_1
I1126 10:34:52.708760 10411 net.cpp:411] inception_5b/3x3_reduce -> inception_5b/3x3_reduce
I1126 10:34:52.711282 10411 cudnn_conv_layer.cpp:194] Reallocating workspace storage: 7428
I1126 10:34:52.711319 10411 net.cpp:150] Setting up inception_5b/3x3_reduce
I1126 10:34:52.711328 10411 net.cpp:157] Top shape: 32 192 7 7 (301056)
I1126 10:34:52.711333 10411 net.cpp:165] Memory required for data: 1772971016
I1126 10:34:52.711339 10411 layer_factory.hpp:76] Creating layer inception_5b/prelu_3x3_reduce
I1126 10:34:52.711349 10411 net.cpp:106] Creating Layer inception_5b/prelu_3x3_reduce
I1126 10:34:52.711355 10411 net.cpp:454] inception_5b/prelu_3x3_reduce <- inception_5b/3x3_reduce
I1126 10:34:52.711362 10411 net.cpp:397] inception_5b/prelu_3x3_reduce -> inception_5b/3x3_reduce (in-place)
I1126 10:34:52.711479 10411 net.cpp:150] Setting up inception_5b/prelu_3x3_reduce
I1126 10:34:52.711488 10411 net.cpp:157] Top shape: 32 192 7 7 (301056)
I1126 10:34:52.711491 10411 net.cpp:165] Memory required for data: 1774175240
I1126 10:34:52.711498 10411 layer_factory.hpp:76] Creating layer inception_5b/3x3
I1126 10:34:52.711506 10411 net.cpp:106] Creating Layer inception_5b/3x3
I1126 10:34:52.711511 10411 net.cpp:454] inception_5b/3x3 <- inception_5b/3x3_reduce
I1126 10:34:52.711519 10411 net.cpp:411] inception_5b/3x3 -> inception_5b/3x3
I1126 10:34:52.718001 10411 cudnn_conv_layer.cpp:194] Reallocating workspace storage: 7788
I1126 10:34:52.718060 10411 net.cpp:150] Setting up inception_5b/3x3
I1126 10:34:52.718072 10411 net.cpp:157] Top shape: 32 384 7 7 (602112)
I1126 10:34:52.718077 10411 net.cpp:165] Memory required for data: 1776583688
I1126 10:34:52.718087 10411 layer_factory.hpp:76] Creating layer inception_5b/prelu_3x3
I1126 10:34:52.718101 10411 net.cpp:106] Creating Layer inception_5b/prelu_3x3
I1126 10:34:52.718109 10411 net.cpp:454] inception_5b/prelu_3x3 <- inception_5b/3x3
I1126 10:34:52.718119 10411 net.cpp:397] inception_5b/prelu_3x3 -> inception_5b/3x3 (in-place)
I1126 10:34:52.718250 10411 net.cpp:150] Setting up inception_5b/prelu_3x3
I1126 10:34:52.718260 10411 net.cpp:157] Top shape: 32 384 7 7 (602112)
I1126 10:34:52.718263 10411 net.cpp:165] Memory required for data: 1778992136
I1126 10:34:52.718269 10411 layer_factory.hpp:76] Creating layer inception_5b/5x5_reduce
I1126 10:34:52.718281 10411 net.cpp:106] Creating Layer inception_5b/5x5_reduce
I1126 10:34:52.718286 10411 net.cpp:454] inception_5b/5x5_reduce <- inception_5a/output_inception_5a/output_0_split_2
I1126 10:34:52.718328 10411 net.cpp:411] inception_5b/5x5_reduce -> inception_5b/5x5_reduce
I1126 10:34:52.720032 10411 cudnn_conv_layer.cpp:194] Reallocating workspace storage: 7428
I1126 10:34:52.720078 10411 net.cpp:150] Setting up inception_5b/5x5_reduce
I1126 10:34:52.720093 10411 net.cpp:157] Top shape: 32 48 7 7 (75264)
I1126 10:34:52.720099 10411 net.cpp:165] Memory required for data: 1779293192
I1126 10:34:52.720111 10411 layer_factory.hpp:76] Creating layer inception_5b/prelu_5x5_reduce
I1126 10:34:52.720129 10411 net.cpp:106] Creating Layer inception_5b/prelu_5x5_reduce
I1126 10:34:52.720139 10411 net.cpp:454] inception_5b/prelu_5x5_reduce <- inception_5b/5x5_reduce
I1126 10:34:52.720150 10411 net.cpp:397] inception_5b/prelu_5x5_reduce -> inception_5b/5x5_reduce (in-place)
I1126 10:34:52.720353 10411 net.cpp:150] Setting up inception_5b/prelu_5x5_reduce
I1126 10:34:52.720367 10411 net.cpp:157] Top shape: 32 48 7 7 (75264)
I1126 10:34:52.720374 10411 net.cpp:165] Memory required for data: 1779594248
I1126 10:34:52.720384 10411 layer_factory.hpp:76] Creating layer inception_5b/5x5
I1126 10:34:52.720399 10411 net.cpp:106] Creating Layer inception_5b/5x5
I1126 10:34:52.720407 10411 net.cpp:454] inception_5b/5x5 <- inception_5b/5x5_reduce
I1126 10:34:52.720419 10411 net.cpp:411] inception_5b/5x5 -> inception_5b/5x5
I1126 10:34:52.723328 10411 cudnn_conv_layer.cpp:194] Reallocating workspace storage: 9804
I1126 10:34:52.723372 10411 net.cpp:150] Setting up inception_5b/5x5
I1126 10:34:52.723384 10411 net.cpp:157] Top shape: 32 128 7 7 (200704)
I1126 10:34:52.723392 10411 net.cpp:165] Memory required for data: 1780397064
I1126 10:34:52.723402 10411 layer_factory.hpp:76] Creating layer inception_5b/prelu_5x5
I1126 10:34:52.723415 10411 net.cpp:106] Creating Layer inception_5b/prelu_5x5
I1126 10:34:52.723424 10411 net.cpp:454] inception_5b/prelu_5x5 <- inception_5b/5x5
I1126 10:34:52.723434 10411 net.cpp:397] inception_5b/prelu_5x5 -> inception_5b/5x5 (in-place)
I1126 10:34:52.723619 10411 net.cpp:150] Setting up inception_5b/prelu_5x5
I1126 10:34:52.723634 10411 net.cpp:157] Top shape: 32 128 7 7 (200704)
I1126 10:34:52.723641 10411 net.cpp:165] Memory required for data: 1781199880
I1126 10:34:52.723651 10411 layer_factory.hpp:76] Creating layer inception_5b/pool
I1126 10:34:52.723664 10411 net.cpp:106] Creating Layer inception_5b/pool
I1126 10:34:52.723672 10411 net.cpp:454] inception_5b/pool <- inception_5a/output_inception_5a/output_0_split_3
I1126 10:34:52.723683 10411 net.cpp:411] inception_5b/pool -> inception_5b/pool
I1126 10:34:52.724211 10411 net.cpp:150] Setting up inception_5b/pool
I1126 10:34:52.724226 10411 net.cpp:157] Top shape: 32 832 7 7 (1304576)
I1126 10:34:52.724233 10411 net.cpp:165] Memory required for data: 1786418184
I1126 10:34:52.724241 10411 layer_factory.hpp:76] Creating layer inception_5b/pool_proj
I1126 10:34:52.724256 10411 net.cpp:106] Creating Layer inception_5b/pool_proj
I1126 10:34:52.724263 10411 net.cpp:454] inception_5b/pool_proj <- inception_5b/pool
I1126 10:34:52.724277 10411 net.cpp:411] inception_5b/pool_proj -> inception_5b/pool_proj
I1126 10:34:52.727582 10411 cudnn_conv_layer.cpp:194] Reallocating workspace storage: 7428
I1126 10:34:52.727627 10411 net.cpp:150] Setting up inception_5b/pool_proj
I1126 10:34:52.727639 10411 net.cpp:157] Top shape: 32 128 7 7 (200704)
I1126 10:34:52.727646 10411 net.cpp:165] Memory required for data: 1787221000
I1126 10:34:52.727658 10411 layer_factory.hpp:76] Creating layer inception_5b/prelu_pool_proj
I1126 10:34:52.727672 10411 net.cpp:106] Creating Layer inception_5b/prelu_pool_proj
I1126 10:34:52.727681 10411 net.cpp:454] inception_5b/prelu_pool_proj <- inception_5b/pool_proj
I1126 10:34:52.727691 10411 net.cpp:397] inception_5b/prelu_pool_proj -> inception_5b/pool_proj (in-place)
I1126 10:34:52.727851 10411 net.cpp:150] Setting up inception_5b/prelu_pool_proj
I1126 10:34:52.727864 10411 net.cpp:157] Top shape: 32 128 7 7 (200704)
I1126 10:34:52.727870 10411 net.cpp:165] Memory required for data: 1788023816
I1126 10:34:52.727881 10411 layer_factory.hpp:76] Creating layer inception_5b/output
I1126 10:34:52.727923 10411 net.cpp:106] Creating Layer inception_5b/output
I1126 10:34:52.727933 10411 net.cpp:454] inception_5b/output <- inception_5b/1x1
I1126 10:34:52.727943 10411 net.cpp:454] inception_5b/output <- inception_5b/3x3
I1126 10:34:52.727952 10411 net.cpp:454] inception_5b/output <- inception_5b/5x5
I1126 10:34:52.727960 10411 net.cpp:454] inception_5b/output <- inception_5b/pool_proj
I1126 10:34:52.727970 10411 net.cpp:411] inception_5b/output -> inception_5b/output
I1126 10:34:52.728019 10411 net.cpp:150] Setting up inception_5b/output
I1126 10:34:52.728032 10411 net.cpp:157] Top shape: 32 1024 7 7 (1605632)
I1126 10:34:52.728039 10411 net.cpp:165] Memory required for data: 1794446344
I1126 10:34:52.728045 10411 layer_factory.hpp:76] Creating layer pool5/7x7_s1
I1126 10:34:52.728056 10411 net.cpp:106] Creating Layer pool5/7x7_s1
I1126 10:34:52.728063 10411 net.cpp:454] pool5/7x7_s1 <- inception_5b/output
I1126 10:34:52.728075 10411 net.cpp:411] pool5/7x7_s1 -> pool5/7x7_s1
I1126 10:34:52.728334 10411 net.cpp:150] Setting up pool5/7x7_s1
I1126 10:34:52.728348 10411 net.cpp:157] Top shape: 32 1024 1 1 (32768)
I1126 10:34:52.728354 10411 net.cpp:165] Memory required for data: 1794577416
I1126 10:34:52.728360 10411 layer_factory.hpp:76] Creating layer pool5/drop_7x7_s1
I1126 10:34:52.728371 10411 net.cpp:106] Creating Layer pool5/drop_7x7_s1
I1126 10:34:52.728379 10411 net.cpp:454] pool5/drop_7x7_s1 <- pool5/7x7_s1
I1126 10:34:52.728389 10411 net.cpp:397] pool5/drop_7x7_s1 -> pool5/7x7_s1 (in-place)
I1126 10:34:52.728430 10411 net.cpp:150] Setting up pool5/drop_7x7_s1
I1126 10:34:52.728442 10411 net.cpp:157] Top shape: 32 1024 1 1 (32768)
I1126 10:34:52.728451 10411 net.cpp:165] Memory required for data: 1794708488
I1126 10:34:52.728457 10411 layer_factory.hpp:76] Creating layer loss3/classifier2
I1126 10:34:52.728472 10411 net.cpp:106] Creating Layer loss3/classifier2
I1126 10:34:52.728482 10411 net.cpp:454] loss3/classifier2 <- pool5/7x7_s1
I1126 10:34:52.728495 10411 net.cpp:411] loss3/classifier2 -> loss3/classifier
I1126 10:34:52.728742 10411 net.cpp:150] Setting up loss3/classifier2
I1126 10:34:52.728768 10411 net.cpp:157] Top shape: 32 2 (64)
I1126 10:34:52.728775 10411 net.cpp:165] Memory required for data: 1794708744
I1126 10:34:52.728796 10411 layer_factory.hpp:76] Creating layer loss3/loss3
I1126 10:34:52.728817 10411 net.cpp:106] Creating Layer loss3/loss3
I1126 10:34:52.728823 10411 net.cpp:454] loss3/loss3 <- loss3/classifier
I1126 10:34:52.728832 10411 net.cpp:454] loss3/loss3 <- label_data_1_split_2
I1126 10:34:52.728840 10411 net.cpp:411] loss3/loss3 -> loss3/loss3
…
I1126 10:34:52.852386 10411 net.cpp:322] The NetState phase (1) differed from the phase (0) specified by a rule in layer data
I1126 10:34:52.854096 10411 net.cpp:49] Initializing net from parameters: 
name: "GoogleNet"
state {
  phase: TEST
}
layer {
  name: "data"
  type: "Data"
  top: "data"
  top: "label"
  include {
    phase: TEST
  }
  transform_param {
    mirror: false
    crop_size: 224
    mean_value: 104
    mean_value: 117
    mean_value: 123
  }
  data_param {
    source: "../../LMDB/val_7-lmdb"
    batch_size: 50
    backend: LMDB
  }
}
layer {
  name: "conv1/7x7_s2"
  type: "Convolution"
  bottom: "data"
  top: "conv1/7x7_s2"
  param {
    lr_mult: 1
    decay_mult: 1
  }
  param {
    lr_mult: 2
    decay_mult: 0
  }
  convolution_param {
    num_output: 64
    pad: 3
    kernel_size: 7
    stride: 2
    weight_filler {
      type: "xavier"
    }
    bias_filler {
      type: "constant"
      value: 0.2
    }
  }
}
layer {
  name: "conv1/prelu_7x7"
  type: "PReLU"
  bottom: "conv1/7x7_s2"
  top: "conv1/7x7_s2"
  param {
    lr_mult: 1
    decay_mult: 0
  }
  prelu_param {
    filler {
      type: "constant"
      value: 0.01
    }
  }
}
layer {
  name: "pool1/3x3_s2"
  type: "Pooling"
  bottom: "conv1/7x7_s2"
  top: "pool1/3x3_s2"
  pooling_param {
    pool: MAX
    kernel_size: 3
    stride: 2
  }
}
layer {
  name: "pool1/norm1"
  type: "LRN"
  bottom: "pool1/3x3_s2"
  top: "pool1/norm1"
  lrn_param {
    local_size: 5
    alpha: 0.0001
    beta: 0.75
  }
}
layer {
  name: "conv2/3x3_reduce"
  type: "Convolution"
  bottom: "pool1/norm1"
  top: "conv2/3x3_reduce"
  param {
    lr_mult: 1
    decay_mult: 1
  }
  param {
    lr_mult: 2
    decay_mult: 0
  }
  convolution_param {
    num_output: 64
    kernel_size: 1
    weight_filler {
      type: "xavier"
    }
    bias_filler {
      type: "constant"
      value: 0.2
    }
  }
}
layer {
  name: "conv2/prelu_3x3_reduce"
  type: "PReLU"
  bottom: "conv2/3x3_reduce"
  top: "conv2/3x3_reduce"
  param {
    lr_mult: 1
    decay_mult: 0
  }
  prelu_param {
    filler {
      type: "constant"
      value: 0.01
    }
  }
}
layer {
  name: "conv2/3x3"
  type: "Convolution"
  bottom: "conv2/3x3_reduce"
  top: "conv2/3x3"
  param {
    lr_mult: 1
    decay_mult: 1
  }
  param {
    lr_mult: 2
    decay_mult: 0
  }
  convolution_param {
    num_output: 192
    pad: 1
    kernel_size: 3
    weight_filler {
      type: "xavier"
    }
    bias_filler {
      type: "constant"
      value: 0.2
    }
  }
}
layer {
  name: "conv2/prelu_3x3"
  type: "PReLU"
  bottom: "conv2/3x3"
  top: "conv2/3x3"
  param {
    lr_mult: 1
    decay_mult: 0
  }
  prelu_param {
    filler {
      type: "constant"
      value: 0.01
    }
  }
}
layer {
  name: "conv2/norm2"
  type: "LRN"
  bottom: "conv2/3x3"
  top: "conv2/norm2"
  lrn_param {
    local_size: 5
    alpha: 0.0001
    beta: 0.75
  }
}
layer {
  name: "pool2/3x3_s2"
  type: "Pooling"
  bottom: "conv2/norm2"
  top: "pool2/3x3_s2"
  pooling_param {
    pool: MAX
    kernel_size: 3
    stride: 2
  }
}
layer {
  name: "inception_3a/1x1"
  type: "Convolution"
  bottom: "pool2/3x3_s2"
  top: "inception_3a/1x1"
  param {
    lr_mult: 1
    decay_mult: 1
  }
  param {
    lr_mult: 2
    decay_mult: 0
  }
  convolution_param {
    num_output: 64
    kernel_size: 1
    weight_filler {
      type: "xavier"
    }
    bias_filler {
      type: "constant"
      value: 0.2
    }
  }
}
layer {
  name: "inception_3a/prelu_1x1"
  type: "PReLU"
  bottom: "inception_3a/1x1"
  top: "inception_3a/1x1"
  param {
    lr_mult: 1
    decay_mult: 0
  }
  prelu_param {
    filler {
      type: "constant"
      value: 0.01
    }
  }
}
layer {
  name: "inception_3a/3x3_reduce"
  type: "Convolution"
  bottom: "pool2/3x3_s2"
  top: "inception_3a/3x3_reduce"
  param {
    lr_mult: 1
    decay_mult: 1
  }
  param {
    lr_mult: 2
    decay_mult: 0
  }
  convolution_param {
    num_output: 96
    kernel_size: 1
    weight_filler {
      type: "xavier"
    }
    bias_filler {
      type: "constant"
      value: 0.2
    }
  }
}
layer {
  name: "inception_3a/prelu_3x3_reduce"
  type: "PReLU"
  bottom: "inception_3a/3x3_reduce"
  top: "inception_3a/3x3_reduce"
  param {
    lr_mult: 1
    decay_mult: 0
  }
  prelu_param {
    filler {
      type: "constant"
      value: 0.01
    }
  }
}
layer {
  name: "inception_3a/3x3"
  type: "Convolution"
  bottom: "inception_3a/3x3_reduce"
  top: "inception_3a/3x3"
  param {
    lr_mult: 1
    decay_mult: 1
  }
  param {
    lr_mult: 2
    decay_mult: 0
  }
  convolution_param {
    num_output: 128
    pad: 1
    kernel_size: 3
    weight_filler {
      type: "xavier"
    }
    bias_filler {
      type: "constant"
      value: 0.2
    }
  }
}
layer {
  name: "inception_3a/prelu_3x3"
  type: "PReLU"
  bottom: "inception_3a/3x3"
  top: "inception_3a/3x3"
  param {
    lr_mult: 1
    decay_mult: 0
  }
  prelu_param {
    filler {
      type: "constant"
      value: 0.01
    }
  }
}
layer {
  name: "inception_3a/5x5_reduce"
  type: "Convolution"
  bottom: "pool2/3x3_s2"
  top: "inception_3a/5x5_reduce"
  param {
    lr_mult: 1
    decay_mult: 1
  }
  param {
    lr_mult: 2
    decay_mult: 0
  }
  convolution_param {
    num_output: 16
    kernel_size: 1
    weight_filler {
      type: "xavier"
    }
    bias_filler {
      type: "constant"
      value: 0.2
    }
  }
}
layer {
  name: "inception_3a/prelu_5x5_reduce"
  type: "PReLU"
  bottom: "inception_3a/5x5_reduce"
  top: "inception_3a/5x5_reduce"
  param {
    lr_mult: 1
    decay_mult: 0
  }
  prelu_param {
    filler {
      type: "constant"
      value: 0.01
    }
  }
}
layer {
  name: "inception_3a/5x5"
  type: "Convolution"
  bottom: "inception_3a/5x5_reduce"
  top: "inception_3a/5x5"
  param {
    lr_mult: 1
    decay_mult: 1
  }
  param {
    lr_mult: 2
    decay_mult: 0
  }
  convolution_param {
    num_output: 32
    pad: 2
    kernel_size: 5
    weight_filler {
      type: "xavier"
    }
    bias_filler {
      type: "constant"
      value: 0.2
    }
  }
}
layer {
  name: "inception_3a/prelu_5x5"
  type: "PReLU"
  bottom: "inception_3a/5x5"
  top: "inception_3a/5x5"
  param {
    lr_mult: 1
    decay_mult: 0
  }
  prelu_param {
    filler {
      type: "constant"
      value: 0.01
    }
  }
}
layer {
  name: "inception_3a/pool"
  type: "Pooling"
  bottom: "pool2/3x3_s2"
  top: "inception_3a/pool"
  pooling_param {
    pool: MAX
    kernel_size: 3
    stride: 1
    pad: 1
  }
}
layer {
  name: "inception_3a/pool_proj"
  type: "Convolution"
  bottom: "inception_3a/pool"
  top: "inception_3a/pool_proj"
  param {
    lr_mult: 1
    decay_mult: 1
  }
  param {
    lr_mult: 2
    decay_mult: 0
  }
  convolution_param {
    num_output: 32
    kernel_size: 1
    weight_filler {
      type: "xavier"
    }
    bias_filler {
      type: "constant"
      value: 0.2
    }
  }
}
layer {
  name: "inception_3a/prelu_pool_proj"
  type: "PReLU"
  bottom: "inception_3a/pool_proj"
  top: "inception_3a/pool_proj"
  param {
    lr_mult: 1
    decay_mult: 0
  }
  prelu_param {
    filler {
      type: "constant"
      value: 0.01
    }
  }
}
layer {
  name: "inception_3a/output"
  type: "Concat"
  bottom: "inception_3a/1x1"
  bottom: "inception_3a/3x3"
  bottom: "inception_3a/5x5"
  bottom: "inception_3a/pool_proj"
  top: "inception_3a/output"
}
layer {
  name: "inception_3b/1x1"
  type: "Convolution"
  bottom: "inception_3a/output"
  top: "inception_3b/1x1"
  param {
    lr_mult: 1
    decay_mult: 1
  }
  param {
    lr_mult: 2
    decay_mult: 0
  }
  convolution_param {
    num_output: 128
    kernel_size: 1
    weight_filler {
      type: "xavier"
    }
    bias_filler {
      type: "constant"
      value: 0.2
    }
  }
}
layer {
  name: "inception_3b/prelu_1x1"
  type: "PReLU"
  bottom: "inception_3b/1x1"
  top: "inception_3b/1x1"
  param {
    lr_mult: 1
    decay_mult: 0
  }
  prelu_param {
    filler {
      type: "constant"
      value: 0.01
    }
  }
}
layer {
  name: "inception_3b/3x3_reduce"
  type: "Convolution"
  bottom: "inception_3a/output"
  top: "inception_3b/3x3_reduce"
  param {
    lr_mult: 1
    decay_mult: 1
  }
  param {
    lr_mult: 2
    decay_mult: 0
  }
  convolution_param {
    num_output: 128
    kernel_size: 1
    weight_filler {
      type: "xavier"
    }
    bias_filler {
      type: "constant"
      value: 0.2
    }
  }
}
layer {
  name: "inception_3b/prelu_3x3_reduce"
  type: "PReLU"
  bottom: "inception_3b/3x3_reduce"
  top: "inception_3b/3x3_reduce"
  param {
    lr_mult: 1
    decay_mult: 0
  }
  prelu_param {
    filler {
      type: "constant"
      value: 0.01
    }
  }
}
layer {
  name: "inception_3b/3x3"
  type: "Convolution"
  bottom: "inception_3b/3x3_reduce"
  top: "inception_3b/3x3"
  param {
    lr_mult: 1
    decay_mult: 1
  }
  param {
    lr_mult: 2
    decay_mult: 0
  }
  convolution_param {
    num_output: 192
    pad: 1
…
I1126 10:34:53.367622 10411 net.cpp:106] Creating Layer inception_4c/output
I1126 10:34:53.367630 10411 net.cpp:454] inception_4c/output <- inception_4c/1x1
I1126 10:34:53.367636 10411 net.cpp:454] inception_4c/output <- inception_4c/3x3
I1126 10:34:53.367643 10411 net.cpp:454] inception_4c/output <- inception_4c/5x5
I1126 10:34:53.367650 10411 net.cpp:454] inception_4c/output <- inception_4c/pool_proj
I1126 10:34:53.367657 10411 net.cpp:411] inception_4c/output -> inception_4c/output
I1126 10:34:53.367692 10411 net.cpp:150] Setting up inception_4c/output
I1126 10:34:53.367701 10411 net.cpp:157] Top shape: 50 512 14 14 (5017600)
I1126 10:34:53.367704 10411 net.cpp:165] Memory required for data: 2234652208
I1126 10:34:53.367712 10411 layer_factory.hpp:76] Creating layer inception_4c/output_inception_4c/output_0_split
I1126 10:34:53.367722 10411 net.cpp:106] Creating Layer inception_4c/output_inception_4c/output_0_split
I1126 10:34:53.367727 10411 net.cpp:454] inception_4c/output_inception_4c/output_0_split <- inception_4c/output
I1126 10:34:53.367734 10411 net.cpp:411] inception_4c/output_inception_4c/output_0_split -> inception_4c/output_inception_4c/output_0_split_0
I1126 10:34:53.367744 10411 net.cpp:411] inception_4c/output_inception_4c/output_0_split -> inception_4c/output_inception_4c/output_0_split_1
I1126 10:34:53.367756 10411 net.cpp:411] inception_4c/output_inception_4c/output_0_split -> inception_4c/output_inception_4c/output_0_split_2
I1126 10:34:53.367815 10411 net.cpp:411] inception_4c/output_inception_4c/output_0_split -> inception_4c/output_inception_4c/output_0_split_3
I1126 10:34:53.367897 10411 net.cpp:150] Setting up inception_4c/output_inception_4c/output_0_split
I1126 10:34:53.367913 10411 net.cpp:157] Top shape: 50 512 14 14 (5017600)
I1126 10:34:53.367921 10411 net.cpp:157] Top shape: 50 512 14 14 (5017600)
I1126 10:34:53.367930 10411 net.cpp:157] Top shape: 50 512 14 14 (5017600)
I1126 10:34:53.367939 10411 net.cpp:157] Top shape: 50 512 14 14 (5017600)
I1126 10:34:53.367946 10411 net.cpp:165] Memory required for data: 2314933808
I1126 10:34:53.367954 10411 layer_factory.hpp:76] Creating layer inception_4d/1x1
I1126 10:34:53.367976 10411 net.cpp:106] Creating Layer inception_4d/1x1
I1126 10:34:53.367985 10411 net.cpp:454] inception_4d/1x1 <- inception_4c/output_inception_4c/output_0_split_0
I1126 10:34:53.367997 10411 net.cpp:411] inception_4d/1x1 -> inception_4d/1x1
I1126 10:34:53.370240 10411 cudnn_conv_layer.cpp:194] Reallocating workspace storage: 10080
I1126 10:34:53.370321 10411 net.cpp:150] Setting up inception_4d/1x1
I1126 10:34:53.370338 10411 net.cpp:157] Top shape: 50 112 14 14 (1097600)
I1126 10:34:53.370343 10411 net.cpp:165] Memory required for data: 2319324208
I1126 10:34:53.370357 10411 layer_factory.hpp:76] Creating layer inception_4d/prelu_1x1
I1126 10:34:53.370383 10411 net.cpp:106] Creating Layer inception_4d/prelu_1x1
I1126 10:34:53.370393 10411 net.cpp:454] inception_4d/prelu_1x1 <- inception_4d/1x1
I1126 10:34:53.370404 10411 net.cpp:397] inception_4d/prelu_1x1 -> inception_4d/1x1 (in-place)
I1126 10:34:53.370534 10411 net.cpp:150] Setting up inception_4d/prelu_1x1
I1126 10:34:53.370545 10411 net.cpp:157] Top shape: 50 112 14 14 (1097600)
I1126 10:34:53.370550 10411 net.cpp:165] Memory required for data: 2323714608
I1126 10:34:53.370556 10411 layer_factory.hpp:76] Creating layer inception_4d/3x3_reduce
I1126 10:34:53.370571 10411 net.cpp:106] Creating Layer inception_4d/3x3_reduce
I1126 10:34:53.370578 10411 net.cpp:454] inception_4d/3x3_reduce <- inception_4c/output_inception_4c/output_0_split_1
I1126 10:34:53.370586 10411 net.cpp:411] inception_4d/3x3_reduce -> inception_4d/3x3_reduce
I1126 10:34:53.372653 10411 cudnn_conv_layer.cpp:194] Reallocating workspace storage: 10080
I1126 10:34:53.372745 10411 net.cpp:150] Setting up inception_4d/3x3_reduce
I1126 10:34:53.372761 10411 net.cpp:157] Top shape: 50 144 14 14 (1411200)
I1126 10:34:53.372766 10411 net.cpp:165] Memory required for data: 2329359408
I1126 10:34:53.372778 10411 layer_factory.hpp:76] Creating layer inception_4d/prelu_3x3_reduce
I1126 10:34:53.372797 10411 net.cpp:106] Creating Layer inception_4d/prelu_3x3_reduce
I1126 10:34:53.372804 10411 net.cpp:454] inception_4d/prelu_3x3_reduce <- inception_4d/3x3_reduce
I1126 10:34:53.372813 10411 net.cpp:397] inception_4d/prelu_3x3_reduce -> inception_4d/3x3_reduce (in-place)
I1126 10:34:53.372951 10411 net.cpp:150] Setting up inception_4d/prelu_3x3_reduce
I1126 10:34:53.372961 10411 net.cpp:157] Top shape: 50 144 14 14 (1411200)
I1126 10:34:53.372964 10411 net.cpp:165] Memory required for data: 2335004208
I1126 10:34:53.372969 10411 layer_factory.hpp:76] Creating layer inception_4d/3x3
I1126 10:34:53.372980 10411 net.cpp:106] Creating Layer inception_4d/3x3
I1126 10:34:53.372985 10411 net.cpp:454] inception_4d/3x3 <- inception_4d/3x3_reduce
I1126 10:34:53.372993 10411 net.cpp:411] inception_4d/3x3 -> inception_4d/3x3
I1126 10:34:53.378190 10411 cudnn_conv_layer.cpp:194] Reallocating workspace storage: 10080
I1126 10:34:53.378274 10411 net.cpp:150] Setting up inception_4d/3x3
I1126 10:34:53.378304 10411 net.cpp:157] Top shape: 50 288 14 14 (2822400)
I1126 10:34:53.378311 10411 net.cpp:165] Memory required for data: 2346293808
I1126 10:34:53.378330 10411 layer_factory.hpp:76] Creating layer inception_4d/prelu_3x3
I1126 10:34:53.378358 10411 net.cpp:106] Creating Layer inception_4d/prelu_3x3
I1126 10:34:53.378370 10411 net.cpp:454] inception_4d/prelu_3x3 <- inception_4d/3x3
I1126 10:34:53.378413 10411 net.cpp:397] inception_4d/prelu_3x3 -> inception_4d/3x3 (in-place)
I1126 10:34:53.379298 10411 net.cpp:150] Setting up inception_4d/prelu_3x3
I1126 10:34:53.379328 10411 net.cpp:157] Top shape: 50 288 14 14 (2822400)
I1126 10:34:53.379333 10411 net.cpp:165] Memory required for data: 2357583408
I1126 10:34:53.379343 10411 layer_factory.hpp:76] Creating layer inception_4d/5x5_reduce
I1126 10:34:53.379369 10411 net.cpp:106] Creating Layer inception_4d/5x5_reduce
I1126 10:34:53.379377 10411 net.cpp:454] inception_4d/5x5_reduce <- inception_4c/output_inception_4c/output_0_split_2
I1126 10:34:53.379390 10411 net.cpp:411] inception_4d/5x5_reduce -> inception_4d/5x5_reduce
I1126 10:34:53.384387 10411 cudnn_conv_layer.cpp:194] Reallocating workspace storage: 10080
I1126 10:34:53.384471 10411 net.cpp:150] Setting up inception_4d/5x5_reduce
I1126 10:34:53.384503 10411 net.cpp:157] Top shape: 50 32 14 14 (313600)
I1126 10:34:53.384511 10411 net.cpp:165] Memory required for data: 2358837808
I1126 10:34:53.384529 10411 layer_factory.hpp:76] Creating layer inception_4d/prelu_5x5_reduce
I1126 10:34:53.384552 10411 net.cpp:106] Creating Layer inception_4d/prelu_5x5_reduce
I1126 10:34:53.384563 10411 net.cpp:454] inception_4d/prelu_5x5_reduce <- inception_4d/5x5_reduce
I1126 10:34:53.384572 10411 net.cpp:397] inception_4d/prelu_5x5_reduce -> inception_4d/5x5_reduce (in-place)
I1126 10:34:53.384697 10411 net.cpp:150] Setting up inception_4d/prelu_5x5_reduce
I1126 10:34:53.384707 10411 net.cpp:157] Top shape: 50 32 14 14 (313600)
I1126 10:34:53.384711 10411 net.cpp:165] Memory required for data: 2360092208
I1126 10:34:53.384743 10411 layer_factory.hpp:76] Creating layer inception_4d/5x5
I1126 10:34:53.384769 10411 net.cpp:106] Creating Layer inception_4d/5x5
I1126 10:34:53.384776 10411 net.cpp:454] inception_4d/5x5 <- inception_4d/5x5_reduce
I1126 10:34:53.384785 10411 net.cpp:411] inception_4d/5x5 -> inception_4d/5x5
I1126 10:34:53.386322 10411 cudnn_conv_layer.cpp:194] Reallocating workspace storage: 13080
I1126 10:34:53.386365 10411 net.cpp:150] Setting up inception_4d/5x5
I1126 10:34:53.386376 10411 net.cpp:157] Top shape: 50 64 14 14 (627200)
I1126 10:34:53.386381 10411 net.cpp:165] Memory required for data: 2362601008
I1126 10:34:53.386392 10411 layer_factory.hpp:76] Creating layer inception_4d/prelu_5x5
I1126 10:34:53.386406 10411 net.cpp:106] Creating Layer inception_4d/prelu_5x5
I1126 10:34:53.386414 10411 net.cpp:454] inception_4d/prelu_5x5 <- inception_4d/5x5
I1126 10:34:53.386425 10411 net.cpp:397] inception_4d/prelu_5x5 -> inception_4d/5x5 (in-place)
I1126 10:34:53.386531 10411 net.cpp:150] Setting up inception_4d/prelu_5x5
I1126 10:34:53.386539 10411 net.cpp:157] Top shape: 50 64 14 14 (627200)
I1126 10:34:53.386544 10411 net.cpp:165] Memory required for data: 2365109808
I1126 10:34:53.386550 10411 layer_factory.hpp:76] Creating layer inception_4d/pool
I1126 10:34:53.386559 10411 net.cpp:106] Creating Layer inception_4d/pool
I1126 10:34:53.386564 10411 net.cpp:454] inception_4d/pool <- inception_4c/output_inception_4c/output_0_split_3
I1126 10:34:53.386570 10411 net.cpp:411] inception_4d/pool -> inception_4d/pool
I1126 10:34:53.387186 10411 net.cpp:150] Setting up inception_4d/pool
I1126 10:34:53.387202 10411 net.cpp:157] Top shape: 50 512 14 14 (5017600)
I1126 10:34:53.387207 10411 net.cpp:165] Memory required for data: 2385180208
I1126 10:34:53.387212 10411 layer_factory.hpp:76] Creating layer inception_4d/pool_proj
I1126 10:34:53.387224 10411 net.cpp:106] Creating Layer inception_4d/pool_proj
I1126 10:34:53.387230 10411 net.cpp:454] inception_4d/pool_proj <- inception_4d/pool
I1126 10:34:53.387239 10411 net.cpp:411] inception_4d/pool_proj -> inception_4d/pool_proj
I1126 10:34:53.388741 10411 cudnn_conv_layer.cpp:194] Reallocating workspace storage: 10080
I1126 10:34:53.388792 10411 net.cpp:150] Setting up inception_4d/pool_proj
I1126 10:34:53.388803 10411 net.cpp:157] Top shape: 50 64 14 14 (627200)
I1126 10:34:53.388808 10411 net.cpp:165] Memory required for data: 2387689008
I1126 10:34:53.388816 10411 layer_factory.hpp:76] Creating layer inception_4d/prelu_pool_proj
I1126 10:34:53.388854 10411 net.cpp:106] Creating Layer inception_4d/prelu_pool_proj
I1126 10:34:53.388860 10411 net.cpp:454] inception_4d/prelu_pool_proj <- inception_4d/pool_proj
I1126 10:34:53.388870 10411 net.cpp:397] inception_4d/prelu_pool_proj -> inception_4d/pool_proj (in-place)
I1126 10:34:53.388975 10411 net.cpp:150] Setting up inception_4d/prelu_pool_proj
I1126 10:34:53.388983 10411 net.cpp:157] Top shape: 50 64 14 14 (627200)
I1126 10:34:53.388988 10411 net.cpp:165] Memory required for data: 2390197808
I1126 10:34:53.388993 10411 layer_factory.hpp:76] Creating layer inception_4d/output
I1126 10:34:53.389005 10411 net.cpp:106] Creating Layer inception_4d/output
I1126 10:34:53.389011 10411 net.cpp:454] inception_4d/output <- inception_4d/1x1
I1126 10:34:53.389017 10411 net.cpp:454] inception_4d/output <- inception_4d/3x3
I1126 10:34:53.389025 10411 net.cpp:454] inception_4d/output <- inception_4d/5x5
I1126 10:34:53.389034 10411 net.cpp:454] inception_4d/output <- inception_4d/pool_proj
I1126 10:34:53.389044 10411 net.cpp:411] inception_4d/output -> inception_4d/output
I1126 10:34:53.389081 10411 net.cpp:150] Setting up inception_4d/output
I1126 10:34:53.389092 10411 net.cpp:157] Top shape: 50 528 14 14 (5174400)
I1126 10:34:53.389099 10411 net.cpp:165] Memory required for data: 2410895408
I1126 10:34:53.389108 10411 layer_factory.hpp:76] Creating layer inception_4d/output_inception_4d/output_0_split
I1126 10:34:53.389120 10411 net.cpp:106] Creating Layer inception_4d/output_inception_4d/output_0_split
I1126 10:34:53.389128 10411 net.cpp:454] inception_4d/output_inception_4d/output_0_split <- inception_4d/output
I1126 10:34:53.389142 10411 net.cpp:411] inception_4d/output_inception_4d/output_0_split -> inception_4d/output_inception_4d/output_0_split_0
I1126 10:34:53.389154 10411 net.cpp:411] inception_4d/output_inception_4d/output_0_split -> inception_4d/output_inception_4d/output_0_split_1
I1126 10:34:53.389166 10411 net.cpp:411] inception_4d/output_inception_4d/output_0_split -> inception_4d/output_inception_4d/output_0_split_2
I1126 10:34:53.389178 10411 net.cpp:411] inception_4d/output_inception_4d/output_0_split -> inception_4d/output_inception_4d/output_0_split_3
I1126 10:34:53.389189 10411 net.cpp:411] inception_4d/output_inception_4d/output_0_split -> inception_4d/output_inception_4d/output_0_split_4
I1126 10:34:53.389289 10411 net.cpp:150] Setting up inception_4d/output_inception_4d/output_0_split
I1126 10:34:53.389302 10411 net.cpp:157] Top shape: 50 528 14 14 (5174400)
I1126 10:34:53.389312 10411 net.cpp:157] Top shape: 50 528 14 14 (5174400)
I1126 10:34:53.389322 10411 net.cpp:157] Top shape: 50 528 14 14 (5174400)
I1126 10:34:53.389331 10411 net.cpp:157] Top shape: 50 528 14 14 (5174400)
I1126 10:34:53.389341 10411 net.cpp:157] Top shape: 50 528 14 14 (5174400)
I1126 10:34:53.389350 10411 net.cpp:165] Memory required for data: 2514383408
I1126 10:34:53.389356 10411 layer_factory.hpp:76] Creating layer loss2/ave_pool
I1126 10:34:53.389364 10411 net.cpp:106] Creating Layer loss2/ave_pool
I1126 10:34:53.389369 10411 net.cpp:454] loss2/ave_pool <- inception_4d/output_inception_4d/output_0_split_0
I1126 10:34:53.389377 10411 net.cpp:411] loss2/ave_pool -> loss2/ave_pool
I1126 10:34:53.389591 10411 net.cpp:150] Setting up loss2/ave_pool
I1126 10:34:53.389600 10411 net.cpp:157] Top shape: 50 528 4 4 (422400)
I1126 10:34:53.389605 10411 net.cpp:165] Memory required for data: 2516073008
I1126 10:34:53.389610 10411 layer_factory.hpp:76] Creating layer loss2/conv
I1126 10:34:53.389621 10411 net.cpp:106] Creating Layer loss2/conv
I1126 10:34:53.389626 10411 net.cpp:454] loss2/conv <- loss2/ave_pool
I1126 10:34:53.389633 10411 net.cpp:411] loss2/conv -> loss2/conv
I1126 10:34:53.391454 10411 cudnn_conv_layer.cpp:194] Reallocating workspace storage: 6840
I1126 10:34:53.391499 10411 net.cpp:150] Setting up loss2/conv
I1126 10:34:53.391507 10411 net.cpp:157] Top shape: 50 128 4 4 (102400)
I1126 10:34:53.391512 10411 net.cpp:165] Memory required for data: 2516482608
I1126 10:34:53.391536 10411 layer_factory.hpp:76] Creating layer loss2/prelu_conv
I1126 10:34:53.391548 10411 net.cpp:106] Creating Layer loss2/prelu_conv
I1126 10:34:53.391556 10411 net.cpp:454] loss2/prelu_conv <- loss2/conv
I1126 10:34:53.391562 10411 net.cpp:397] loss2/prelu_conv -> loss2/conv (in-place)
I1126 10:34:53.391669 10411 net.cpp:150] Setting up loss2/prelu_conv
I1126 10:34:53.391679 10411 net.cpp:157] Top shape: 50 128 4 4 (102400)
I1126 10:34:53.391682 10411 net.cpp:165] Memory required for data: 2516892208
I1126 10:34:53.391687 10411 layer_factory.hpp:76] Creating layer loss2/fc
I1126 10:34:53.391696 10411 net.cpp:106] Creating Layer loss2/fc
I1126 10:34:53.391700 10411 net.cpp:454] loss2/fc <- loss2/conv
I1126 10:34:53.391708 10411 net.cpp:411] loss2/fc -> loss2/fc
I1126 10:34:53.408453 10411 net.cpp:150] Setting up loss2/fc
I1126 10:34:53.408507 10411 net.cpp:157] Top shape: 50 1024 (51200)
I1126 10:34:53.408514 10411 net.cpp:165] Memory required for data: 2517097008
I1126 10:34:53.408553 10411 layer_factory.hpp:76] Creating layer loss2/prelu_fc
I1126 10:34:53.408583 10411 net.cpp:106] Creating Layer loss2/prelu_fc
I1126 10:34:53.408593 10411 net.cpp:454] loss2/prelu_fc <- loss2/fc
I1126 10:34:53.408606 10411 net.cpp:397] loss2/prelu_fc -> loss2/fc (in-place)
I1126 10:34:53.408726 10411 net.cpp:150] Setting up loss2/prelu_fc
I1126 10:34:53.408736 10411 net.cpp:157] Top shape: 50 1024 (51200)
I1126 10:34:53.408740 10411 net.cpp:165] Memory required for data: 2517301808
I1126 10:34:53.408746 10411 layer_factory.hpp:76] Creating layer loss2/drop_fc
I1126 10:34:53.408754 10411 net.cpp:106] Creating Layer loss2/drop_fc
I1126 10:34:53.408759 10411 net.cpp:454] loss2/drop_fc <- loss2/fc
I1126 10:34:53.408764 10411 net.cpp:397] loss2/drop_fc -> loss2/fc (in-place)
I1126 10:34:53.408789 10411 net.cpp:150] Setting up loss2/drop_fc
I1126 10:34:53.408797 10411 net.cpp:157] Top shape: 50 1024 (51200)
I1126 10:34:53.408800 10411 net.cpp:165] Memory required for data: 2517506608
I1126 10:34:53.408804 10411 layer_factory.hpp:76] Creating layer loss2/classifier2
I1126 10:34:53.408812 10411 net.cpp:106] Creating Layer loss2/classifier2
I1126 10:34:53.408818 10411 net.cpp:454] loss2/classifier2 <- loss2/fc
I1126 10:34:53.408823 10411 net.cpp:411] loss2/classifier2 -> loss2/classifier
I1126 10:34:53.408947 10411 net.cpp:150] Setting up loss2/classifier2
I1126 10:34:53.408954 10411 net.cpp:157] Top shape: 50 2 (100)
I1126 10:34:53.408958 10411 net.cpp:165] Memory required for data: 2517507008
I1126 10:34:53.408965 10411 layer_factory.hpp:76] Creating layer loss2/classifier_loss2/classifier2_0_split
I1126 10:34:53.408972 10411 net.cpp:106] Creating Layer loss2/classifier_loss2/classifier2_0_split
I1126 10:34:53.408977 10411 net.cpp:454] loss2/classifier_loss2/classifier2_0_split <- loss2/classifier
I1126 10:34:53.408984 10411 net.cpp:411] loss2/classifier_loss2/classifier2_0_split -> loss2/classifier_loss2/classifier2_0_split_0
I1126 10:34:53.408992 10411 net.cpp:411] loss2/classifier_loss2/classifier2_0_split -> loss2/classifier_loss2/classifier2_0_split_1
I1126 10:34:53.409023 10411 net.cpp:150] Setting up loss2/classifier_loss2/classifier2_0_split
I1126 10:34:53.409029 10411 net.cpp:157] Top shape: 50 2 (100)
I1126 10:34:53.409034 10411 net.cpp:157] Top shape: 50 2 (100)
I1126 10:34:53.409039 10411 net.cpp:165] Memory required for data: 2517507808
I1126 10:34:53.409042 10411 layer_factory.hpp:76] Creating layer loss2/loss
I1126 10:34:53.409050 10411 net.cpp:106] Creating Layer loss2/loss
I1126 10:34:53.409055 10411 net.cpp:454] loss2/loss <- loss2/classifier_loss2/classifier2_0_split_0
I1126 10:34:53.409060 10411 net.cpp:454] loss2/loss <- label_data_1_split_2
…
I1126 10:34:53.409829 10411 net.cpp:165] Memory required for data: 2517507816
I1126 10:34:53.409833 10411 layer_factory.hpp:76] Creating layer inception_4e/1x1
I1126 10:34:53.409842 10411 net.cpp:106] Creating Layer inception_4e/1x1
I1126 10:34:53.409847 10411 net.cpp:454] inception_4e/1x1 <- inception_4d/output_inception_4d/output_0_split_1
I1126 10:34:53.409854 10411 net.cpp:411] inception_4e/1x1 -> inception_4e/1x1
I1126 10:34:53.412034 10411 cudnn_conv_layer.cpp:194] Reallocating workspace storage: 10080
I1126 10:34:53.412072 10411 net.cpp:150] Setting up inception_4e/1x1
I1126 10:34:53.412081 10411 net.cpp:157] Top shape: 50 256 14 14 (2508800)
I1126 10:34:53.412084 10411 net.cpp:165] Memory required for data: 2527543016
I1126 10:34:53.412092 10411 layer_factory.hpp:76] Creating layer inception_4e/prelu_1x1
I1126 10:34:53.412101 10411 net.cpp:106] Creating Layer inception_4e/prelu_1x1
I1126 10:34:53.412106 10411 net.cpp:454] inception_4e/prelu_1x1 <- inception_4e/1x1
I1126 10:34:53.412113 10411 net.cpp:397] inception_4e/prelu_1x1 -> inception_4e/1x1 (in-place)
I1126 10:34:53.412230 10411 net.cpp:150] Setting up inception_4e/prelu_1x1
I1126 10:34:53.412238 10411 net.cpp:157] Top shape: 50 256 14 14 (2508800)
I1126 10:34:53.412241 10411 net.cpp:165] Memory required for data: 2537578216
I1126 10:34:53.412247 10411 layer_factory.hpp:76] Creating layer inception_4e/3x3_reduce
I1126 10:34:53.412256 10411 net.cpp:106] Creating Layer inception_4e/3x3_reduce
I1126 10:34:53.412261 10411 net.cpp:454] inception_4e/3x3_reduce <- inception_4d/output_inception_4d/output_0_split_2
I1126 10:34:53.412269 10411 net.cpp:411] inception_4e/3x3_reduce -> inception_4e/3x3_reduce
I1126 10:34:53.414139 10411 cudnn_conv_layer.cpp:194] Reallocating workspace storage: 10080
I1126 10:34:53.414191 10411 net.cpp:150] Setting up inception_4e/3x3_reduce
I1126 10:34:53.414203 10411 net.cpp:157] Top shape: 50 160 14 14 (1568000)
I1126 10:34:53.414207 10411 net.cpp:165] Memory required for data: 2543850216
I1126 10:34:53.414216 10411 layer_factory.hpp:76] Creating layer inception_4e/prelu_3x3_reduce
I1126 10:34:53.414229 10411 net.cpp:106] Creating Layer inception_4e/prelu_3x3_reduce
I1126 10:34:53.414237 10411 net.cpp:454] inception_4e/prelu_3x3_reduce <- inception_4e/3x3_reduce
I1126 10:34:53.414245 10411 net.cpp:397] inception_4e/prelu_3x3_reduce -> inception_4e/3x3_reduce (in-place)
I1126 10:34:53.414362 10411 net.cpp:150] Setting up inception_4e/prelu_3x3_reduce
I1126 10:34:53.414371 10411 net.cpp:157] Top shape: 50 160 14 14 (1568000)
I1126 10:34:53.414374 10411 net.cpp:165] Memory required for data: 2550122216
I1126 10:34:53.414381 10411 layer_factory.hpp:76] Creating layer inception_4e/3x3
I1126 10:34:53.414404 10411 net.cpp:106] Creating Layer inception_4e/3x3
I1126 10:34:53.414409 10411 net.cpp:454] inception_4e/3x3 <- inception_4e/3x3_reduce
I1126 10:34:53.414417 10411 net.cpp:411] inception_4e/3x3 -> inception_4e/3x3
I1126 10:34:53.419508 10411 cudnn_conv_layer.cpp:194] Reallocating workspace storage: 10080
I1126 10:34:53.419580 10411 net.cpp:150] Setting up inception_4e/3x3
I1126 10:34:53.419592 10411 net.cpp:157] Top shape: 50 320 14 14 (3136000)
I1126 10:34:53.419597 10411 net.cpp:165] Memory required for data: 2562666216
I1126 10:34:53.419608 10411 layer_factory.hpp:76] Creating layer inception_4e/prelu_3x3
I1126 10:34:53.419623 10411 net.cpp:106] Creating Layer inception_4e/prelu_3x3
I1126 10:34:53.419631 10411 net.cpp:454] inception_4e/prelu_3x3 <- inception_4e/3x3
I1126 10:34:53.419672 10411 net.cpp:397] inception_4e/prelu_3x3 -> inception_4e/3x3 (in-place)
I1126 10:34:53.420390 10411 net.cpp:150] Setting up inception_4e/prelu_3x3
I1126 10:34:53.420413 10411 net.cpp:157] Top shape: 50 320 14 14 (3136000)
I1126 10:34:53.420416 10411 net.cpp:165] Memory required for data: 2575210216
I1126 10:34:53.420424 10411 layer_factory.hpp:76] Creating layer inception_4e/5x5_reduce
I1126 10:34:53.420440 10411 net.cpp:106] Creating Layer inception_4e/5x5_reduce
I1126 10:34:53.420446 10411 net.cpp:454] inception_4e/5x5_reduce <- inception_4d/output_inception_4d/output_0_split_3
I1126 10:34:53.420454 10411 net.cpp:411] inception_4e/5x5_reduce -> inception_4e/5x5_reduce
I1126 10:34:53.421788 10411 cudnn_conv_layer.cpp:194] Reallocating workspace storage: 10080
I1126 10:34:53.421830 10411 net.cpp:150] Setting up inception_4e/5x5_reduce
I1126 10:34:53.421838 10411 net.cpp:157] Top shape: 50 32 14 14 (313600)
I1126 10:34:53.421844 10411 net.cpp:165] Memory required for data: 2576464616
I1126 10:34:53.421851 10411 layer_factory.hpp:76] Creating layer inception_4e/prelu_5x5_reduce
I1126 10:34:53.421860 10411 net.cpp:106] Creating Layer inception_4e/prelu_5x5_reduce
I1126 10:34:53.421866 10411 net.cpp:454] inception_4e/prelu_5x5_reduce <- inception_4e/5x5_reduce
I1126 10:34:53.421886 10411 net.cpp:397] inception_4e/prelu_5x5_reduce -> inception_4e/5x5_reduce (in-place)
I1126 10:34:53.421983 10411 net.cpp:150] Setting up inception_4e/prelu_5x5_reduce
I1126 10:34:53.421991 10411 net.cpp:157] Top shape: 50 32 14 14 (313600)
I1126 10:34:53.421994 10411 net.cpp:165] Memory required for data: 2577719016
I1126 10:34:53.422000 10411 layer_factory.hpp:76] Creating layer inception_4e/5x5
I1126 10:34:53.422009 10411 net.cpp:106] Creating Layer inception_4e/5x5
I1126 10:34:53.422014 10411 net.cpp:454] inception_4e/5x5 <- inception_4e/5x5_reduce
I1126 10:34:53.422022 10411 net.cpp:411] inception_4e/5x5 -> inception_4e/5x5
I1126 10:34:53.424206 10411 cudnn_conv_layer.cpp:194] Reallocating workspace storage: 13080
I1126 10:34:53.424242 10411 net.cpp:150] Setting up inception_4e/5x5
I1126 10:34:53.424249 10411 net.cpp:157] Top shape: 50 128 14 14 (1254400)
I1126 10:34:53.424253 10411 net.cpp:165] Memory required for data: 2582736616
I1126 10:34:53.424260 10411 layer_factory.hpp:76] Creating layer inception_4e/prelu_5x5
I1126 10:34:53.424270 10411 net.cpp:106] Creating Layer inception_4e/prelu_5x5
I1126 10:34:53.424286 10411 net.cpp:454] inception_4e/prelu_5x5 <- inception_4e/5x5
I1126 10:34:53.424293 10411 net.cpp:397] inception_4e/prelu_5x5 -> inception_4e/5x5 (in-place)
I1126 10:34:53.424398 10411 net.cpp:150] Setting up inception_4e/prelu_5x5
I1126 10:34:53.424407 10411 net.cpp:157] Top shape: 50 128 14 14 (1254400)
I1126 10:34:53.424410 10411 net.cpp:165] Memory required for data: 2587754216
I1126 10:34:53.424415 10411 layer_factory.hpp:76] Creating layer inception_4e/pool
I1126 10:34:53.424425 10411 net.cpp:106] Creating Layer inception_4e/pool
I1126 10:34:53.424430 10411 net.cpp:454] inception_4e/pool <- inception_4d/output_inception_4d/output_0_split_4
I1126 10:34:53.424437 10411 net.cpp:411] inception_4e/pool -> inception_4e/pool
I1126 10:34:53.424639 10411 net.cpp:150] Setting up inception_4e/pool
I1126 10:34:53.424649 10411 net.cpp:157] Top shape: 50 528 14 14 (5174400)
I1126 10:34:53.424653 10411 net.cpp:165] Memory required for data: 2608451816
I1126 10:34:53.424656 10411 layer_factory.hpp:76] Creating layer inception_4e/pool_proj
I1126 10:34:53.424665 10411 net.cpp:106] Creating Layer inception_4e/pool_proj
I1126 10:34:53.424670 10411 net.cpp:454] inception_4e/pool_proj <- inception_4e/pool
I1126 10:34:53.424679 10411 net.cpp:411] inception_4e/pool_proj -> inception_4e/pool_proj
I1126 10:34:53.426354 10411 cudnn_conv_layer.cpp:194] Reallocating workspace storage: 10080
I1126 10:34:53.426393 10411 net.cpp:150] Setting up inception_4e/pool_proj
I1126 10:34:53.426401 10411 net.cpp:157] Top shape: 50 128 14 14 (1254400)
I1126 10:34:53.426405 10411 net.cpp:165] Memory required for data: 2613469416
I1126 10:34:53.426414 10411 layer_factory.hpp:76] Creating layer inception_4e/prelu_pool_proj
I1126 10:34:53.426442 10411 net.cpp:106] Creating Layer inception_4e/prelu_pool_proj
I1126 10:34:53.426447 10411 net.cpp:454] inception_4e/prelu_pool_proj <- inception_4e/pool_proj
I1126 10:34:53.426455 10411 net.cpp:397] inception_4e/prelu_pool_proj -> inception_4e/pool_proj (in-place)
I1126 10:34:53.426548 10411 net.cpp:150] Setting up inception_4e/prelu_pool_proj
I1126 10:34:53.426556 10411 net.cpp:157] Top shape: 50 128 14 14 (1254400)
I1126 10:34:53.426560 10411 net.cpp:165] Memory required for data: 2618487016
I1126 10:34:53.426565 10411 layer_factory.hpp:76] Creating layer inception_4e/output
I1126 10:34:53.426574 10411 net.cpp:106] Creating Layer inception_4e/output
I1126 10:34:53.426579 10411 net.cpp:454] inception_4e/output <- inception_4e/1x1
I1126 10:34:53.426584 10411 net.cpp:454] inception_4e/output <- inception_4e/3x3
I1126 10:34:53.426589 10411 net.cpp:454] inception_4e/output <- inception_4e/5x5
I1126 10:34:53.426594 10411 net.cpp:454] inception_4e/output <- inception_4e/pool_proj
I1126 10:34:53.426599 10411 net.cpp:411] inception_4e/output -> inception_4e/output
I1126 10:34:53.426625 10411 net.cpp:150] Setting up inception_4e/output
I1126 10:34:53.426632 10411 net.cpp:157] Top shape: 50 832 14 14 (8153600)
I1126 10:34:53.426635 10411 net.cpp:165] Memory required for data: 2651101416
I1126 10:34:53.426640 10411 layer_factory.hpp:76] Creating layer pool4/3x3_s2
I1126 10:34:53.426646 10411 net.cpp:106] Creating Layer pool4/3x3_s2
I1126 10:34:53.426651 10411 net.cpp:454] pool4/3x3_s2 <- inception_4e/output
I1126 10:34:53.426657 10411 net.cpp:411] pool4/3x3_s2 -> pool4/3x3_s2
I1126 10:34:53.426873 10411 net.cpp:150] Setting up pool4/3x3_s2
I1126 10:34:53.426882 10411 net.cpp:157] Top shape: 50 832 7 7 (2038400)
I1126 10:34:53.426887 10411 net.cpp:165] Memory required for data: 2659255016
I1126 10:34:53.426892 10411 layer_factory.hpp:76] Creating layer pool4/3x3_s2_pool4/3x3_s2_0_split
I1126 10:34:53.426899 10411 net.cpp:106] Creating Layer pool4/3x3_s2_pool4/3x3_s2_0_split
I1126 10:34:53.426903 10411 net.cpp:454] pool4/3x3_s2_pool4/3x3_s2_0_split <- pool4/3x3_s2
I1126 10:34:53.426910 10411 net.cpp:411] pool4/3x3_s2_pool4/3x3_s2_0_split -> pool4/3x3_s2_pool4/3x3_s2_0_split_0
I1126 10:34:53.426918 10411 net.cpp:411] pool4/3x3_s2_pool4/3x3_s2_0_split -> pool4/3x3_s2_pool4/3x3_s2_0_split_1
I1126 10:34:53.426924 10411 net.cpp:411] pool4/3x3_s2_pool4/3x3_s2_0_split -> pool4/3x3_s2_pool4/3x3_s2_0_split_2
I1126 10:34:53.426934 10411 net.cpp:411] pool4/3x3_s2_pool4/3x3_s2_0_split -> pool4/3x3_s2_pool4/3x3_s2_0_split_3
I1126 10:34:53.426996 10411 net.cpp:150] Setting up pool4/3x3_s2_pool4/3x3_s2_0_split
I1126 10:34:53.427005 10411 net.cpp:157] Top shape: 50 832 7 7 (2038400)
I1126 10:34:53.427008 10411 net.cpp:157] Top shape: 50 832 7 7 (2038400)
I1126 10:34:53.427013 10411 net.cpp:157] Top shape: 50 832 7 7 (2038400)
I1126 10:34:53.427018 10411 net.cpp:157] Top shape: 50 832 7 7 (2038400)
I1126 10:34:53.427021 10411 net.cpp:165] Memory required for data: 2691869416
I1126 10:34:53.427026 10411 layer_factory.hpp:76] Creating layer inception_5a/1x1
I1126 10:34:53.427034 10411 net.cpp:106] Creating Layer inception_5a/1x1
I1126 10:34:53.427039 10411 net.cpp:454] inception_5a/1x1 <- pool4/3x3_s2_pool4/3x3_s2_0_split_0
I1126 10:34:53.427045 10411 net.cpp:411] inception_5a/1x1 -> inception_5a/1x1
I1126 10:34:53.429877 10411 cudnn_conv_layer.cpp:194] Reallocating workspace storage: 7428
I1126 10:34:53.429922 10411 net.cpp:150] Setting up inception_5a/1x1
I1126 10:34:53.429932 10411 net.cpp:157] Top shape: 50 256 7 7 (627200)
I1126 10:34:53.429937 10411 net.cpp:165] Memory required for data: 2694378216
I1126 10:34:53.429945 10411 layer_factory.hpp:76] Creating layer inception_5a/prelu_1x1
I1126 10:34:53.429956 10411 net.cpp:106] Creating Layer inception_5a/prelu_1x1
I1126 10:34:53.429962 10411 net.cpp:454] inception_5a/prelu_1x1 <- inception_5a/1x1
I1126 10:34:53.429970 10411 net.cpp:397] inception_5a/prelu_1x1 -> inception_5a/1x1 (in-place)
I1126 10:34:53.430070 10411 net.cpp:150] Setting up inception_5a/prelu_1x1
I1126 10:34:53.430095 10411 net.cpp:157] Top shape: 50 256 7 7 (627200)
I1126 10:34:53.430099 10411 net.cpp:165] Memory required for data: 2696887016
I1126 10:34:53.430105 10411 layer_factory.hpp:76] Creating layer inception_5a/3x3_reduce
I1126 10:34:53.430115 10411 net.cpp:106] Creating Layer inception_5a/3x3_reduce
I1126 10:34:53.430120 10411 net.cpp:454] inception_5a/3x3_reduce <- pool4/3x3_s2_pool4/3x3_s2_0_split_1
I1126 10:34:53.430129 10411 net.cpp:411] inception_5a/3x3_reduce -> inception_5a/3x3_reduce
I1126 10:34:53.432536 10411 cudnn_conv_layer.cpp:194] Reallocating workspace storage: 7428
I1126 10:34:53.432579 10411 net.cpp:150] Setting up inception_5a/3x3_reduce
I1126 10:34:53.432587 10411 net.cpp:157] Top shape: 50 160 7 7 (392000)
I1126 10:34:53.432591 10411 net.cpp:165] Memory required for data: 2698455016
I1126 10:34:53.432600 10411 layer_factory.hpp:76] Creating layer inception_5a/prelu_3x3_reduce
I1126 10:34:53.432607 10411 net.cpp:106] Creating Layer inception_5a/prelu_3x3_reduce
I1126 10:34:53.432613 10411 net.cpp:454] inception_5a/prelu_3x3_reduce <- inception_5a/3x3_reduce
I1126 10:34:53.432621 10411 net.cpp:397] inception_5a/prelu_3x3_reduce -> inception_5a/3x3_reduce (in-place)
I1126 10:34:53.432708 10411 net.cpp:150] Setting up inception_5a/prelu_3x3_reduce
I1126 10:34:53.432729 10411 net.cpp:157] Top shape: 50 160 7 7 (392000)
I1126 10:34:53.432734 10411 net.cpp:165] Memory required for data: 2700023016
I1126 10:34:53.432739 10411 layer_factory.hpp:76] Creating layer inception_5a/3x3
I1126 10:34:53.432749 10411 net.cpp:106] Creating Layer inception_5a/3x3
I1126 10:34:53.432754 10411 net.cpp:454] inception_5a/3x3 <- inception_5a/3x3_reduce
I1126 10:34:53.432761 10411 net.cpp:411] inception_5a/3x3 -> inception_5a/3x3
I1126 10:34:53.436995 10411 cudnn_conv_layer.cpp:194] Reallocating workspace storage: 7788
I1126 10:34:53.437029 10411 net.cpp:150] Setting up inception_5a/3x3
I1126 10:34:53.437037 10411 net.cpp:157] Top shape: 50 320 7 7 (784000)
I1126 10:34:53.437041 10411 net.cpp:165] Memory required for data: 2703159016
I1126 10:34:53.437048 10411 layer_factory.hpp:76] Creating layer inception_5a/prelu_3x3
I1126 10:34:53.437057 10411 net.cpp:106] Creating Layer inception_5a/prelu_3x3
I1126 10:34:53.437060 10411 net.cpp:454] inception_5a/prelu_3x3 <- inception_5a/3x3
I1126 10:34:53.437068 10411 net.cpp:397] inception_5a/prelu_3x3 -> inception_5a/3x3 (in-place)
I1126 10:34:53.437175 10411 net.cpp:150] Setting up inception_5a/prelu_3x3
I1126 10:34:53.437182 10411 net.cpp:157] Top shape: 50 320 7 7 (784000)
I1126 10:34:53.437186 10411 net.cpp:165] Memory required for data: 2706295016
I1126 10:34:53.437191 10411 layer_factory.hpp:76] Creating layer inception_5a/5x5_reduce
I1126 10:34:53.437201 10411 net.cpp:106] Creating Layer inception_5a/5x5_reduce
I1126 10:34:53.437206 10411 net.cpp:454] inception_5a/5x5_reduce <- pool4/3x3_s2_pool4/3x3_s2_0_split_2
I1126 10:34:53.437213 10411 net.cpp:411] inception_5a/5x5_reduce -> inception_5a/5x5_reduce
I1126 10:34:53.438433 10411 cudnn_conv_layer.cpp:194] Reallocating workspace storage: 7428
I1126 10:34:53.438463 10411 net.cpp:150] Setting up inception_5a/5x5_reduce
I1126 10:34:53.438482 10411 net.cpp:157] Top shape: 50 32 7 7 (78400)
I1126 10:34:53.438485 10411 net.cpp:165] Memory required for data: 2706608616
I1126 10:34:53.438493 10411 layer_factory.hpp:76] Creating layer inception_5a/prelu_5x5_reduce
I1126 10:34:53.438501 10411 net.cpp:106] Creating Layer inception_5a/prelu_5x5_reduce
I1126 10:34:53.438506 10411 net.cpp:454] inception_5a/prelu_5x5_reduce <- inception_5a/5x5_reduce
I1126 10:34:53.438513 10411 net.cpp:397] inception_5a/prelu_5x5_reduce -> inception_5a/5x5_reduce (in-place)
I1126 10:34:53.438630 10411 net.cpp:150] Setting up inception_5a/prelu_5x5_reduce
I1126 10:34:53.438638 10411 net.cpp:157] Top shape: 50 32 7 7 (78400)
I1126 10:34:53.438642 10411 net.cpp:165] Memory required for data: 2706922216
I1126 10:34:53.438647 10411 layer_factory.hpp:76] Creating layer inception_5a/5x5
I1126 10:34:53.438675 10411 net.cpp:106] Creating Layer inception_5a/5x5
I1126 10:34:53.438680 10411 net.cpp:454] inception_5a/5x5 <- inception_5a/5x5_reduce
I1126 10:34:53.438688 10411 net.cpp:411] inception_5a/5x5 -> inception_5a/5x5
I1126 10:34:53.440145 10411 cudnn_conv_layer.cpp:194] Reallocating workspace storage: 9804
I1126 10:34:53.440176 10411 net.cpp:150] Setting up inception_5a/5x5
I1126 10:34:53.440184 10411 net.cpp:157] Top shape: 50 128 7 7 (313600)
I1126 10:34:53.440188 10411 net.cpp:165] Memory required for data: 2708176616
I1126 10:34:53.440196 10411 layer_factory.hpp:76] Creating layer inception_5a/prelu_5x5
I1126 10:34:53.440202 10411 net.cpp:106] Creating Layer inception_5a/prelu_5x5
I1126 10:34:53.440207 10411 net.cpp:454] inception_5a/prelu_5x5 <- inception_5a/5x5
I1126 10:34:53.440214 10411 net.cpp:397] inception_5a/prelu_5x5 -> inception_5a/5x5 (in-place)
I1126 10:34:53.440300 10411 net.cpp:150] Setting up inception_5a/prelu_5x5
I1126 10:34:53.440309 10411 net.cpp:157] Top shape: 50 128 7 7 (313600)
I1126 10:34:53.440311 10411 net.cpp:165] Memory required for data: 2709431016
I1126 10:34:53.440317 10411 layer_factory.hpp:76] Creating layer inception_5a/pool
I1126 10:34:53.440325 10411 net.cpp:106] Creating Layer inception_5a/pool
I1126 10:34:53.440330 10411 net.cpp:454] inception_5a/pool <- pool4/3x3_s2_pool4/3x3_s2_0_split_3
I1126 10:34:53.440336 10411 net.cpp:411] inception_5a/pool -> inception_5a/pool
I1126 10:34:53.440763 10411 net.cpp:150] Setting up inception_5a/pool
I1126 10:34:53.440773 10411 net.cpp:157] Top shape: 50 832 7 7 (2038400)
I1126 10:34:53.440778 10411 net.cpp:165] Memory required for data: 2717584616
I1126 10:34:53.440783 10411 layer_factory.hpp:76] Creating layer inception_5a/pool_proj
I1126 10:34:53.440791 10411 net.cpp:106] Creating Layer inception_5a/pool_proj
I1126 10:34:53.440796 10411 net.cpp:454] inception_5a/pool_proj <- inception_5a/pool
I1126 10:34:53.440803 10411 net.cpp:411] inception_5a/pool_proj -> inception_5a/pool_proj
I1126 10:34:53.442937 10411 cudnn_conv_layer.cpp:194] Reallocating workspace storage: 7428
I1126 10:34:53.442972 10411 net.cpp:150] Setting up inception_5a/pool_proj
I1126 10:34:53.442981 10411 net.cpp:157] Top shape: 50 128 7 7 (313600)
I1126 10:34:53.442984 10411 net.cpp:165] Memory required for data: 2718839016
I1126 10:34:53.442991 10411 layer_factory.hpp:76] Creating layer inception_5a/prelu_pool_proj
I1126 10:34:53.443001 10411 net.cpp:106] Creating Layer inception_5a/prelu_pool_proj
I1126 10:34:53.443006 10411 net.cpp:454] inception_5a/prelu_pool_proj <- inception_5a/pool_proj
I1126 10:34:53.443014 10411 net.cpp:397] inception_5a/prelu_pool_proj -> inception_5a/pool_proj (in-place)
I1126 10:34:53.443097 10411 net.cpp:150] Setting up inception_5a/prelu_pool_proj
I1126 10:34:53.443105 10411 net.cpp:157] Top shape: 50 128 7 7 (313600)
I1126 10:34:53.443109 10411 net.cpp:165] Memory required for data: 2720093416
I1126 10:34:53.443114 10411 layer_factory.hpp:76] Creating layer inception_5a/output
I1126 10:34:53.443120 10411 net.cpp:106] Creating Layer inception_5a/output
I1126 10:34:53.443125 10411 net.cpp:454] inception_5a/output <- inception_5a/1x1
I1126 10:34:53.443130 10411 net.cpp:454] inception_5a/output <- inception_5a/3x3
I1126 10:34:53.443145 10411 net.cpp:454] inception_5a/output <- inception_5a/5x5
I1126 10:34:53.443150 10411 net.cpp:454] inception_5a/output <- inception_5a/pool_proj
I1126 10:34:53.443171 10411 net.cpp:411] inception_5a/output -> inception_5a/output
I1126 10:34:53.443197 10411 net.cpp:150] Setting up inception_5a/output
I1126 10:34:53.443203 10411 net.cpp:157] Top shape: 50 832 7 7 (2038400)
I1126 10:34:53.443207 10411 net.cpp:165] Memory required for data: 2728247016
I1126 10:34:53.443210 10411 layer_factory.hpp:76] Creating layer inception_5a/output_inception_5a/output_0_split
I1126 10:34:53.443217 10411 net.cpp:106] Creating Layer inception_5a/output_inception_5a/output_0_split
I1126 10:34:53.443222 10411 net.cpp:454] inception_5a/output_inception_5a/output_0_split <- inception_5a/output
I1126 10:34:53.443228 10411 net.cpp:411] inception_5a/output_inception_5a/output_0_split -> inception_5a/output_inception_5a/output_0_split_0
I1126 10:34:53.443246 10411 net.cpp:411] inception_5a/output_inception_5a/output_0_split -> inception_5a/output_inception_5a/output_0_split_1
I1126 10:34:53.443265 10411 net.cpp:411] inception_5a/output_inception_5a/output_0_split -> inception_5a/output_inception_5a/output_0_split_2
I1126 10:34:53.443274 10411 net.cpp:411] inception_5a/output_inception_5a/output_0_split -> inception_5a/output_inception_5a/output_0_split_3
I1126 10:34:53.443331 10411 net.cpp:150] Setting up inception_5a/output_inception_5a/output_0_split
I1126 10:34:53.443338 10411 net.cpp:157] Top shape: 50 832 7 7 (2038400)
I1126 10:34:53.443343 10411 net.cpp:157] Top shape: 50 832 7 7 (2038400)
I1126 10:34:53.443347 10411 net.cpp:157] Top shape: 50 832 7 7 (2038400)
I1126 10:34:53.443353 10411 net.cpp:157] Top shape: 50 832 7 7 (2038400)
I1126 10:34:53.443357 10411 net.cpp:165] Memory required for data: 2760861416
I1126 10:34:53.443361 10411 layer_factory.hpp:76] Creating layer inception_5b/1x1
I1126 10:34:53.443370 10411 net.cpp:106] Creating Layer inception_5b/1x1
I1126 10:34:53.443375 10411 net.cpp:454] inception_5b/1x1 <- inception_5a/output_inception_5a/output_0_split_0
I1126 10:34:53.443392 10411 net.cpp:411] inception_5b/1x1 -> inception_5b/1x1
I1126 10:34:53.447397 10411 cudnn_conv_layer.cpp:194] Reallocating workspace storage: 7428
I1126 10:34:53.447465 10411 net.cpp:150] Setting up inception_5b/1x1
I1126 10:34:53.447476 10411 net.cpp:157] Top shape: 50 384 7 7 (940800)
I1126 10:34:53.447481 10411 net.cpp:165] Memory required for data: 2764624616
I1126 10:34:53.447491 10411 layer_factory.hpp:76] Creating layer inception_5b/prelu_1x1
I1126 10:34:53.447504 10411 net.cpp:106] Creating Layer inception_5b/prelu_1x1
I1126 10:34:53.447511 10411 net.cpp:454] inception_5b/prelu_1x1 <- inception_5b/1x1
I1126 10:34:53.447521 10411 net.cpp:397] inception_5b/prelu_1x1 -> inception_5b/1x1 (in-place)
I1126 10:34:53.447650 10411 net.cpp:150] Setting up inception_5b/prelu_1x1
I1126 10:34:53.447662 10411 net.cpp:157] Top shape: 50 384 7 7 (940800)
I1126 10:34:53.447666 10411 net.cpp:165] Memory required for data: 2768387816
I1126 10:34:53.447672 10411 layer_factory.hpp:76] Creating layer inception_5b/3x3_reduce
I1126 10:34:53.447682 10411 net.cpp:106] Creating Layer inception_5b/3x3_reduce
I1126 10:34:53.447688 10411 net.cpp:454] inception_5b/3x3_reduce <- inception_5a/output_inception_5a/output_0_split_1
I1126 10:34:53.447696 10411 net.cpp:411] inception_5b/3x3_reduce -> inception_5b/3x3_reduce
I1126 10:34:53.450247 10411 cudnn_conv_layer.cpp:194] Reallocating workspace storage: 7428
I1126 10:34:53.450291 10411 net.cpp:150] Setting up inception_5b/3x3_reduce
I1126 10:34:53.450301 10411 net.cpp:157] Top shape: 50 192 7 7 (470400)
I1126 10:34:53.450305 10411 net.cpp:165] Memory required for data: 2770269416
I1126 10:34:53.450314 10411 layer_factory.hpp:76] Creating layer inception_5b/prelu_3x3_reduce
I1126 10:34:53.450323 10411 net.cpp:106] Creating Layer inception_5b/prelu_3x3_reduce
I1126 10:34:53.450330 10411 net.cpp:454] inception_5b/prelu_3x3_reduce <- inception_5b/3x3_reduce
I1126 10:34:53.450338 10411 net.cpp:397] inception_5b/prelu_3x3_reduce -> inception_5b/3x3_reduce (in-place)
I1126 10:34:53.450440 10411 net.cpp:150] Setting up inception_5b/prelu_3x3_reduce
I1126 10:34:53.450448 10411 net.cpp:157] Top shape: 50 192 7 7 (470400)
I1126 10:34:53.450453 10411 net.cpp:165] Memory required for data: 2772151016
I1126 10:34:53.450459 10411 layer_factory.hpp:76] Creating layer inception_5b/3x3
I1126 10:34:53.450469 10411 net.cpp:106] Creating Layer inception_5b/3x3
I1126 10:34:53.450474 10411 net.cpp:454] inception_5b/3x3 <- inception_5b/3x3_reduce
I1126 10:34:53.450480 10411 net.cpp:411] inception_5b/3x3 -> inception_5b/3x3
I1126 10:34:53.457267 10411 cudnn_conv_layer.cpp:194] Reallocating workspace storage: 7788
I1126 10:34:53.457346 10411 net.cpp:150] Setting up inception_5b/3x3
I1126 10:34:53.457360 10411 net.cpp:157] Top shape: 50 384 7 7 (940800)
I1126 10:34:53.457397 10411 net.cpp:165] Memory required for data: 2775914216
I1126 10:34:53.457408 10411 layer_factory.hpp:76] Creating layer inception_5b/prelu_3x3
I1126 10:34:53.457424 10411 net.cpp:106] Creating Layer inception_5b/prelu_3x3
I1126 10:34:53.457432 10411 net.cpp:454] inception_5b/prelu_3x3 <- inception_5b/3x3
I1126 10:34:53.457443 10411 net.cpp:397] inception_5b/prelu_3x3 -> inception_5b/3x3 (in-place)
I1126 10:34:53.457588 10411 net.cpp:150] Setting up inception_5b/prelu_3x3
I1126 10:34:53.457600 10411 net.cpp:157] Top shape: 50 384 7 7 (940800)
I1126 10:34:53.457603 10411 net.cpp:165] Memory required for data: 2779677416
I1126 10:34:53.457609 10411 layer_factory.hpp:76] Creating layer inception_5b/5x5_reduce
I1126 10:34:53.457622 10411 net.cpp:106] Creating Layer inception_5b/5x5_reduce
I1126 10:34:53.457628 10411 net.cpp:454] inception_5b/5x5_reduce <- inception_5a/output_inception_5a/output_0_split_2
I1126 10:34:53.457636 10411 net.cpp:411] inception_5b/5x5_reduce -> inception_5b/5x5_reduce
I1126 10:34:53.459296 10411 cudnn_conv_layer.cpp:194] Reallocating workspace storage: 7428
I1126 10:34:53.459339 10411 net.cpp:150] Setting up inception_5b/5x5_reduce
I1126 10:34:53.459348 10411 net.cpp:157] Top shape: 50 48 7 7 (117600)
I1126 10:34:53.459353 10411 net.cpp:165] Memory required for data: 2780147816
I1126 10:34:53.459360 10411 layer_factory.hpp:76] Creating layer inception_5b/prelu_5x5_reduce
I1126 10:34:53.459381 10411 net.cpp:106] Creating Layer inception_5b/prelu_5x5_reduce
I1126 10:34:53.459388 10411 net.cpp:454] inception_5b/prelu_5x5_reduce <- inception_5b/5x5_reduce
I1126 10:34:53.459394 10411 net.cpp:397] inception_5b/prelu_5x5_reduce -> inception_5b/5x5_reduce (in-place)
I1126 10:34:53.459520 10411 net.cpp:150] Setting up inception_5b/prelu_5x5_reduce
I1126 10:34:53.459529 10411 net.cpp:157] Top shape: 50 48 7 7 (117600)
I1126 10:34:53.459533 10411 net.cpp:165] Memory required for data: 2780618216
I1126 10:34:53.459539 10411 layer_factory.hpp:76] Creating layer inception_5b/5x5
I1126 10:34:53.459548 10411 net.cpp:106] Creating Layer inception_5b/5x5
I1126 10:34:53.459553 10411 net.cpp:454] inception_5b/5x5 <- inception_5b/5x5_reduce
I1126 10:34:53.459559 10411 net.cpp:411] inception_5b/5x5 -> inception_5b/5x5
I1126 10:34:53.461688 10411 cudnn_conv_layer.cpp:194] Reallocating workspace storage: 9804
I1126 10:34:53.461730 10411 net.cpp:150] Setting up inception_5b/5x5
I1126 10:34:53.461738 10411 net.cpp:157] Top shape: 50 128 7 7 (313600)
I1126 10:34:53.461742 10411 net.cpp:165] Memory required for data: 2781872616
I1126 10:34:53.461750 10411 layer_factory.hpp:76] Creating layer inception_5b/prelu_5x5
I1126 10:34:53.461760 10411 net.cpp:106] Creating Layer inception_5b/prelu_5x5
I1126 10:34:53.461766 10411 net.cpp:454] inception_5b/prelu_5x5 <- inception_5b/5x5
I1126 10:34:53.461773 10411 net.cpp:397] inception_5b/prelu_5x5 -> inception_5b/5x5 (in-place)
I1126 10:34:53.461872 10411 net.cpp:150] Setting up inception_5b/prelu_5x5
I1126 10:34:53.461880 10411 net.cpp:157] Top shape: 50 128 7 7 (313600)
I1126 10:34:53.461884 10411 net.cpp:165] Memory required for data: 2783127016
I1126 10:34:53.461889 10411 layer_factory.hpp:76] Creating layer inception_5b/pool
I1126 10:34:53.461899 10411 net.cpp:106] Creating Layer inception_5b/pool
I1126 10:34:53.461904 10411 net.cpp:454] inception_5b/pool <- inception_5a/output_inception_5a/output_0_split_3
I1126 10:34:53.461910 10411 net.cpp:411] inception_5b/pool -> inception_5b/pool
I1126 10:34:53.462124 10411 net.cpp:150] Setting up inception_5b/pool
I1126 10:34:53.462133 10411 net.cpp:157] Top shape: 50 832 7 7 (2038400)
I1126 10:34:53.462137 10411 net.cpp:165] Memory required for data: 2791280616
I1126 10:34:53.462141 10411 layer_factory.hpp:76] Creating layer inception_5b/pool_proj
I1126 10:34:53.462152 10411 net.cpp:106] Creating Layer inception_5b/pool_proj
I1126 10:34:53.462157 10411 net.cpp:454] inception_5b/pool_proj <- inception_5b/pool
I1126 10:34:53.462162 10411 net.cpp:411] inception_5b/pool_proj -> inception_5b/pool_proj
I1126 10:34:53.464452 10411 cudnn_conv_layer.cpp:194] Reallocating workspace storage: 7428
I1126 10:34:53.464510 10411 net.cpp:150] Setting up inception_5b/pool_proj
I1126 10:34:53.464519 10411 net.cpp:157] Top shape: 50 128 7 7 (313600)
I1126 10:34:53.464524 10411 net.cpp:165] Memory required for data: 2792535016
I1126 10:34:53.464531 10411 layer_factory.hpp:76] Creating layer inception_5b/prelu_pool_proj
I1126 10:34:53.464541 10411 net.cpp:106] Creating Layer inception_5b/prelu_pool_proj
I1126 10:34:53.464547 10411 net.cpp:454] inception_5b/prelu_pool_proj <- inception_5b/pool_proj
I1126 10:34:53.464553 10411 net.cpp:397] inception_5b/prelu_pool_proj -> inception_5b/pool_proj (in-place)
I1126 10:34:53.464653 10411 net.cpp:150] Setting up inception_5b/prelu_pool_proj
I1126 10:34:53.464660 10411 net.cpp:157] Top shape: 50 128 7 7 (313600)
I1126 10:34:53.464664 10411 net.cpp:165] Memory required for data: 2793789416
I1126 10:34:53.464669 10411 layer_factory.hpp:76] Creating layer inception_5b/output
I1126 10:34:53.464678 10411 net.cpp:106] Creating Layer inception_5b/output
I1126 10:34:53.464681 10411 net.cpp:454] inception_5b/output <- inception_5b/1x1
I1126 10:34:53.464687 10411 net.cpp:454] inception_5b/output <- inception_5b/3x3
I1126 10:34:53.464691 10411 net.cpp:454] inception_5b/output <- inception_5b/5x5
I1126 10:34:53.464696 10411 net.cpp:454] inception_5b/output <- inception_5b/pool_proj
I1126 10:34:53.464711 10411 net.cpp:411] inception_5b/output -> inception_5b/output
I1126 10:34:53.464754 10411 net.cpp:150] Setting up inception_5b/output
I1126 10:34:53.464762 10411 net.cpp:157] Top shape: 50 1024 7 7 (2508800)
I1126 10:34:53.464766 10411 net.cpp:165] Memory required for data: 2803824616
I1126 10:34:53.464769 10411 layer_factory.hpp:76] Creating layer pool5/7x7_s1
I1126 10:34:53.464777 10411 net.cpp:106] Creating Layer pool5/7x7_s1
I1126 10:34:53.464782 10411 net.cpp:454] pool5/7x7_s1 <- inception_5b/output
I1126 10:34:53.464788 10411 net.cpp:411] pool5/7x7_s1 -> pool5/7x7_s1
I1126 10:34:53.465181 10411 net.cpp:150] Setting up pool5/7x7_s1
I1126 10:34:53.465193 10411 net.cpp:157] Top shape: 50 1024 1 1 (51200)
I1126 10:34:53.465196 10411 net.cpp:165] Memory required for data: 2804029416
I1126 10:34:53.465200 10411 layer_factory.hpp:76] Creating layer pool5/drop_7x7_s1
I1126 10:34:53.465208 10411 net.cpp:106] Creating Layer pool5/drop_7x7_s1
I1126 10:34:53.465212 10411 net.cpp:454] pool5/drop_7x7_s1 <- pool5/7x7_s1
I1126 10:34:53.465217 10411 net.cpp:397] pool5/drop_7x7_s1 -> pool5/7x7_s1 (in-place)
I1126 10:34:53.465242 10411 net.cpp:150] Setting up pool5/drop_7x7_s1
I1126 10:34:53.465260 10411 net.cpp:157] Top shape: 50 1024 1 1 (51200)
I1126 10:34:53.465265 10411 net.cpp:165] Memory required for data: 2804234216
I1126 10:34:53.465268 10411 layer_factory.hpp:76] Creating layer loss3/classifier2
I1126 10:34:53.465287 10411 net.cpp:106] Creating Layer loss3/classifier2
I1126 10:34:53.465291 10411 net.cpp:454] loss3/classifier2 <- pool5/7x7_s1
I1126 10:34:53.465298 10411 net.cpp:411] loss3/classifier2 -> loss3/classifier
I1126 10:34:53.465451 10411 net.cpp:150] Setting up loss3/classifier2
I1126 10:34:53.465458 10411 net.cpp:157] Top shape: 50 2 (100)
I1126 10:34:53.465462 10411 net.cpp:165] Memory required for data: 2804234616
I1126 10:34:53.465469 10411 layer_factory.hpp:76] Creating layer loss3/classifier_loss3/classifier2_0_split
I1126 10:34:53.465476 10411 net.cpp:106] Creating Layer loss3/classifier_loss3/classifier2_0_split
I1126 10:34:53.465481 10411 net.cpp:454] loss3/classifier_loss3/classifier2_0_split <- loss3/classifier
I1126 10:34:53.465488 10411 net.cpp:411] loss3/classifier_loss3/classifier2_0_split -> loss3/classifier_loss3/classifier2_0_split_0
I1126 10:34:53.465495 10411 net.cpp:411] loss3/classifier_loss3/classifier2_0_split -> loss3/classifier_loss3/classifier2_0_split_1
I1126 10:34:53.465535 10411 net.cpp:150] Setting up loss3/classifier_loss3/classifier2_0_split
I1126 10:34:53.465544 10411 net.cpp:157] Top shape: 50 2 (100)
I1126 10:34:53.465549 10411 net.cpp:157] Top shape: 50 2 (100)
I1126 10:34:53.465553 10411 net.cpp:165] Memory required for data: 2804235416
I1126 10:34:53.465585 10411 layer_factory.hpp:76] Creating layer loss3/loss3
I1126 10:34:53.465594 10411 net.cpp:106] Creating Layer loss3/loss3
I1126 10:34:53.465597 10411 net.cpp:454] loss3/loss3 <- loss3/classifier_loss3/classifier2_0_split_0
I1126 10:34:53.465612 10411 net.cpp:454] loss3/loss3 <- label_data_1_split_4
…
