…
I1105 17:10:47.835662 24283 net.cpp:322] The NetState phase (0) differed from the phase (1) specified by a rule in layer loss3/top-1
I1105 17:10:47.836603 24283 net.cpp:49] Initializing net from parameters: 
name: "GoogleNet"
state {
  phase: TRAIN
}
layer {
  name: "data"
  type: "Data"
  top: "data"
  top: "label"
  include {
    phase: TRAIN
  }
  transform_param {
    mirror: true
    crop_size: 224
    mean_value: 104
    mean_value: 117
    mean_value: 123
  }
  data_param {
    source: "../../LMDB/train_0-lmdb"
    batch_size: 32
    backend: LMDB
  }
}
layer {
  name: "conv1/7x7_s2"
  type: "Convolution"
  bottom: "data"
  top: "conv1/7x7_s2"
  param {
    lr_mult: 1
    decay_mult: 1
  }
  param {
    lr_mult: 2
    decay_mult: 0
  }
  convolution_param {
    num_output: 64
    pad: 3
    kernel_size: 7
    stride: 2
    weight_filler {
      type: "xavier"
    }
    bias_filler {
      type: "constant"
      value: 0.2
    }
  }
}
layer {
  name: "conv1/prelu_7x7"
  type: "PReLU"
  bottom: "conv1/7x7_s2"
  top: "conv1/7x7_s2"
  param {
    lr_mult: 1
    decay_mult: 0
  }
  prelu_param {
    filler {
      type: "constant"
      value: 0.01
    }
  }
}
layer {
  name: "pool1/3x3_s2"
  type: "Pooling"
  bottom: "conv1/7x7_s2"
  top: "pool1/3x3_s2"
  pooling_param {
    pool: MAX
    kernel_size: 3
    stride: 2
  }
}
layer {
  name: "pool1/norm1"
  type: "LRN"
  bottom: "pool1/3x3_s2"
  top: "pool1/norm1"
  lrn_param {
    local_size: 5
    alpha: 0.0001
    beta: 0.75
  }
}
layer {
  name: "conv2/3x3_reduce"
  type: "Convolution"
  bottom: "pool1/norm1"
  top: "conv2/3x3_reduce"
  param {
    lr_mult: 1
    decay_mult: 1
  }
  param {
    lr_mult: 2
    decay_mult: 0
  }
  convolution_param {
    num_output: 64
    kernel_size: 1
    weight_filler {
      type: "xavier"
    }
    bias_filler {
      type: "constant"
      value: 0.2
    }
  }
}
layer {
  name: "conv2/prelu_3x3_reduce"
  type: "PReLU"
  bottom: "conv2/3x3_reduce"
  top: "conv2/3x3_reduce"
  param {
    lr_mult: 1
    decay_mult: 0
  }
  prelu_param {
    filler {
      type: "constant"
      value: 0.01
    }
  }
}
layer {
  name: "conv2/3x3"
  type: "Convolution"
  bottom: "conv2/3x3_reduce"
  top: "conv2/3x3"
  param {
    lr_mult: 1
    decay_mult: 1
  }
  param {
    lr_mult: 2
    decay_mult: 0
  }
  convolution_param {
    num_output: 192
    pad: 1
    kernel_size: 3
    weight_filler {
      type: "xavier"
    }
    bias_filler {
      type: "constant"
      value: 0.2
    }
  }
}
layer {
  name: "conv2/prelu_3x3"
  type: "PReLU"
  bottom: "conv2/3x3"
  top: "conv2/3x3"
  param {
    lr_mult: 1
    decay_mult: 0
  }
  prelu_param {
    filler {
      type: "constant"
      value: 0.01
    }
  }
}
layer {
  name: "conv2/norm2"
  type: "LRN"
  bottom: "conv2/3x3"
  top: "conv2/norm2"
  lrn_param {
    local_size: 5
    alpha: 0.0001
    beta: 0.75
  }
}
layer {
  name: "pool2/3x3_s2"
  type: "Pooling"
  bottom: "conv2/norm2"
  top: "pool2/3x3_s2"
  pooling_param {
    pool: MAX
    kernel_size: 3
    stride: 2
  }
}
layer {
  name: "inception_3a/1x1"
  type: "Convolution"
  bottom: "pool2/3x3_s2"
  top: "inception_3a/1x1"
  param {
    lr_mult: 1
    decay_mult: 1
  }
  param {
    lr_mult: 2
    decay_mult: 0
  }
  convolution_param {
    num_output: 64
    kernel_size: 1
    weight_filler {
      type: "xavier"
    }
    bias_filler {
      type: "constant"
      value: 0.2
    }
  }
}
layer {
  name: "inception_3a/prelu_1x1"
  type: "PReLU"
  bottom: "inception_3a/1x1"
  top: "inception_3a/1x1"
  param {
    lr_mult: 1
    decay_mult: 0
  }
  prelu_param {
    filler {
      type: "constant"
      value: 0.01
    }
  }
}
layer {
  name: "inception_3a/3x3_reduce"
  type: "Convolution"
  bottom: "pool2/3x3_s2"
  top: "inception_3a/3x3_reduce"
  param {
    lr_mult: 1
    decay_mult: 1
  }
  param {
    lr_mult: 2
    decay_mult: 0
  }
  convolution_param {
    num_output: 96
    kernel_size: 1
    weight_filler {
      type: "xavier"
    }
    bias_filler {
      type: "constant"
      value: 0.2
    }
  }
}
layer {
  name: "inception_3a/prelu_3x3_reduce"
  type: "PReLU"
  bottom: "inception_3a/3x3_reduce"
  top: "inception_3a/3x3_reduce"
  param {
    lr_mult: 1
    decay_mult: 0
  }
  prelu_param {
    filler {
      type: "constant"
      value: 0.01
    }
  }
}
layer {
  name: "inception_3a/3x3"
  type: "Convolution"
  bottom: "inception_3a/3x3_reduce"
  top: "inception_3a/3x3"
  param {
    lr_mult: 1
    decay_mult: 1
  }
  param {
    lr_mult: 2
    decay_mult: 0
  }
  convolution_param {
    num_output: 128
    pad: 1
    kernel_size: 3
    weight_filler {
      type: "xavier"
    }
    bias_filler {
      type: "constant"
      value: 0.2
    }
  }
}
layer {
  name: "inception_3a/prelu_3x3"
  type: "PReLU"
  bottom: "inception_3a/3x3"
  top: "inception_3a/3x3"
  param {
    lr_mult: 1
    decay_mult: 0
  }
  prelu_param {
    filler {
      type: "constant"
      value: 0.01
    }
  }
}
layer {
  name: "inception_3a/5x5_reduce"
  type: "Convolution"
  bottom: "pool2/3x3_s2"
  top: "inception_3a/5x5_reduce"
  param {
    lr_mult: 1
    decay_mult: 1
  }
  param {
    lr_mult: 2
    decay_mult: 0
  }
  convolution_param {
    num_output: 16
    kernel_size: 1
    weight_filler {
      type: "xavier"
    }
    bias_filler {
      type: "constant"
      value: 0.2
    }
  }
}
layer {
  name: "inception_3a/prelu_5x5_reduce"
  type: "PReLU"
  bottom: "inception_3a/5x5_reduce"
  top: "inception_3a/5x5_reduce"
  param {
    lr_mult: 1
    decay_mult: 0
  }
  prelu_param {
    filler {
      type: "constant"
      value: 0.01
    }
  }
}
layer {
  name: "inception_3a/5x5"
  type: "Convolution"
  bottom: "inception_3a/5x5_reduce"
  top: "inception_3a/5x5"
  param {
    lr_mult: 1
    decay_mult: 1
  }
  param {
    lr_mult: 2
    decay_mult: 0
  }
  convolution_param {
    num_output: 32
    pad: 2
    kernel_size: 5
    weight_filler {
      type: "xavier"
    }
    bias_filler {
      type: "constant"
      value: 0.2
    }
  }
}
layer {
  name: "inception_3a/prelu_5x5"
  type: "PReLU"
  bottom: "inception_3a/5x5"
  top: "inception_3a/5x5"
  param {
    lr_mult: 1
    decay_mult: 0
  }
  prelu_param {
    filler {
      type: "constant"
      value: 0.01
    }
  }
}
layer {
  name: "inception_3a/pool"
  type: "Pooling"
  bottom: "pool2/3x3_s2"
  top: "inception_3a/pool"
  pooling_param {
    pool: MAX
    kernel_size: 3
    stride: 1
    pad: 1
  }
}
layer {
  name: "inception_3a/pool_proj"
  type: "Convolution"
  bottom: "inception_3a/pool"
  top: "inception_3a/pool_proj"
  param {
    lr_mult: 1
    decay_mult: 1
  }
  param {
    lr_mult: 2
    decay_mult: 0
  }
  convolution_param {
    num_output: 32
    kernel_size: 1
    weight_filler {
      type: "xavier"
    }
    bias_filler {
      type: "constant"
      value: 0.2
    }
  }
}
layer {
  name: "inception_3a/prelu_pool_proj"
  type: "PReLU"
  bottom: "inception_3a/pool_proj"
  top: "inception_3a/pool_proj"
  param {
    lr_mult: 1
    decay_mult: 0
  }
  prelu_param {
    filler {
      type: "constant"
      value: 0.01
    }
  }
}
layer {
  name: "inception_3a/output"
  type: "Concat"
  bottom: "inception_3a/1x1"
  bottom: "inception_3a/3x3"
  bottom: "inception_3a/5x5"
  bottom: "inception_3a/pool_proj"
  top: "inception_3a/output"
}
layer {
  name: "inception_3b/1x1"
  type: "Convolution"
  bottom: "inception_3a/output"
  top: "inception_3b/1x1"
  param {
    lr_mult: 1
    decay_mult: 1
  }
  param {
    lr_mult: 2
    decay_mult: 0
  }
  convolution_param {
    num_output: 128
    kernel_size: 1
    weight_filler {
      type: "xavier"
    }
    bias_filler {
      type: "constant"
      value: 0.2
    }
  }
}
layer {
  name: "inception_3b/prelu_1x1"
  type: "PReLU"
  bottom: "inception_3b/1x1"
  top: "inception_3b/1x1"
  param {
    lr_mult: 1
    decay_mult: 0
  }
  prelu_param {
    filler {
      type: "constant"
      value: 0.01
    }
  }
}
layer {
  name: "inception_3b/3x3_reduce"
  type: "Convolution"
  bottom: "inception_3a/output"
  top: "inception_3b/3x3_reduce"
  param {
    lr_mult: 1
    decay_mult: 1
  }
  param {
    lr_mult: 2
    decay_mult: 0
  }
  convolution_param {
    num_output: 128
    kernel_size: 1
    weight_filler {
      type: "xavier"
    }
    bias_filler {
      type: "constant"
      value: 0.2
    }
  }
}
layer {
  name: "inception_3b/prelu_3x3_reduce"
  type: "PReLU"
  bottom: "inception_3b/3x3_reduce"
  top: "inception_3b/3x3_reduce"
  param {
    lr_mult: 1
    decay_mult: 0
  }
  prelu_param {
    filler {
      type: "constant"
      value: 0.01
    }
  }
}
layer {
  name: "inception_3b/3x3"
  type: "Convolution"
  bottom: "inception_3b/3x3_reduce"
  top: "inception_3b/3x3"
  param {
    lr_mult: 1
    decay_mult: 1
  }
  param {
    lr_mult: 2
    decay_mult: 0
  }
  convolution_param {
    num_output: 192
    pad: 1
    kernel_size: 3
    weight_filler {
      type: "xavier"
    }
    bias_filler {
      type: "constant"
      value: 0.2
    }
  }
}
layer {
  name: "inception_3b/prelu_3x3"
  type: "PReLU"
  bottom: "inception_3b/3x3"
  top: "inception_3b/3x3"
  param {
    lr_mult: 1
    decay_mult: 0
  }
  prelu_param {
    filler {
      type: "constant"
      value: 0.01
    }
  }
}
layer {
  name: "inception_3b/5x5_reduce"
  type: "Convolution"
  bottom: "inception_3a/output"
  top: "inception_3b/5x5_reduce"
  param {
    lr_mult: 1
    decay_mult: 1
  }
  param {
    lr_mult: 2
    decay_mult: 0
  }
  convolution_param {
    num_output: 32
    kernel_size: 1
    weight_filler {
      type: "xavier"
    }
    bias_filler {
      type: "constant"
      value: 0.2
    }
  }
}
layer {
  name: "inception_3b/prelu_5x5_reduce"
  type: "PReLU"
  bottom: "inception_3b/5x5_reduce"
  top: "inception_3b/5x5_reduce"
  param {
    lr_mult: 1
    decay_mult: 0
  }
  prelu_param {
    filler {
      type: "constant"
      value: 0.01
    }
  }
}
layer {
  name: "inception_3b/5x5"
  type: "Convolution"
  bottom: "inception_3b/5x5_reduce"
  top: "inception_3b/5x5"
  param {
    lr_mult: 1
    decay_mult: 1
  }
  param {
    lr_mult: 2
    decay_mult: 0
  }
  convolution_param {
    num_output: 96
    pad: 2
    kernel_size: 5
    weight_filler {
      type: "xavier"
    }
    bias_filler {
      type: "constant"
      value: 0.2
    }
  }
}
layer {
  name: "inception_3b/prelu_5x5"
  type: "PReLU"
  bottom: "inception_3b/5x5"
  top: "inception_3b/5x5"
  param {
    lr_mult: 1
    decay_mult: 0
  }
  prelu_param {
    filler {
      type: "constant"
      value: 0.01
    }
  }
}
layer {
  name: "inception_3b/pool"
  type: "Pooling"
  bottom: "inception_3a/output"
  top: "inception_3b/pool"
  pooling_param {
    pool: MAX
    kernel_size: 3
    stride: 1
    pad: 1
  }
}
layer {
  name: "inception_3b/pool_proj"
  type: "Convolution"
  bottom: "inception_3b/pool"
  top: "inception_3b/pool_proj"
  param {
    lr_mult: 1
    decay_mult: 1
  }
  param {
    lr_mult: 2
    decay_mult: 0
  }
  convolution_param {
    num_output: 64
    kernel_size: 1
    weight_filler {
      type: "xavier"
    }
    bias_filler {
      type: "constant"
      value: 0.2
    }
  }
}
layer {
  name: "inception_3b/prelu_pool_proj"
  type: "PReLU"
  bottom: "inception_3b/pool_proj"
  top: "inception_3b/pool_proj"
  param {
    lr_mult: 1
    decay_mult: 0
  }
  prelu_param {
    filler {
      type: "constant"
      value: 0.01
    }
  }
}
layer {
  name: "inception_3b/output"
  type: "Concat"
  bottom: "inception_3b/1x1"
  bottom: "inception_3b/3x3"
  bottom: "inception_3b/5x5"
  bottom: "inception_3b/pool_proj"
  top: "inception_3b/output"
}
layer {
  name: "pool3/3x3_s2"
  type: "Pooling"
  bottom: "inception_3b/output"
  top: "pool3/3x3_s2"
  pooling_param {
    pool: MAX
    kernel_size: 3
    stride: 2
  }
}
layer {
  name: "inception_4a/1x1"
  type: "Convolution"
  bottom: "pool3/3x3_s2"
  top: "inception_4a/1x1"
  param {
    lr_mult: 1
    decay_mult: 1
  }
  param {
    lr_mult: 2
    decay_mult: 0
  }
  convolution_param {
    num_output: 192
    kernel_size: 1
    weight_filler {
      type: "xavier"
    }
    bias_filler {
      type: "constant"
      value: 0.2
    }
  }
}
layer {
  name: "inception_4a/prelu_1x1"
  type: "PReLU"
  bottom: "inception_4a/1x1"
  top: "inception_4a/1x1"
  param {
    lr_mult: 1
    decay_mult: 0
  }
  prelu_param {
    filler {
      type: "constant"
      value: 0.01
    }
  }
}
layer {
  name: "inception_4a/3x3_reduce"
  type: "Convolution"
  bottom: "pool3/3x3_s2"
  top: "inception_4a/3x3_reduce"
  param {
    lr_mult: 1
    decay_mult: 1
  }
  param {
    lr_mult: 2
    decay_mult: 0
  }
  convolution_param {
    num_output: 96
    kernel_size: 1
    weight_filler {
      type: "xavier"
    }
    bias_filler {
      type: "constant"
      value: 0.2
    }
  }
}
layer {
  name: "inception_4a/prelu_3x3_reduce"
  type: "PReLU"
  bottom: "inception_4a/3x3_reduce"
  top: "inception_4a/3x3_reduce"
  param {
    lr_mult: 1
    decay_mult: 0
  }
  prelu_param {
    filler {
      type: "constant"
      value: 0.01
    }
  }
}
layer {
  name: "inception_4a/3x3"
  type: "Convolution"
  bottom: "inception_4a/3x3_reduce"
  top: "inception_4a/3x3"
  param {
    lr_mult: 1
    decay_mult: 1
  }
  param {
    lr_mult: 2
    decay_mult: 0
  }
  convolution_param {
    num_output: 208
    pad: 1
    kernel_size: 3
    weight_filler {
      type: "xavier"
    }
    bias_filler {
      type: "constant"
      value: 0.2
    }
  }
}
layer {
  name: "inception_4a/prelu_3x3"
  type: "PReLU"
  bottom: "inception_4a/3x3"
  top: "inception_4a/3x3"
  param {
    lr_mult: 1
    decay_mult: 0
  }
  prelu_param {
    filler {
      type: "constant"
      value: 0.01
    }
  }
}
layer {
  name: "inception_4a/5x5_reduce"
  type: "Convolution"
  bottom: "pool3/3x3_s2"
  top: "inception_4a/5x5_reduce"
  param {
    lr_mult: 1
    decay_mult: 1
  }
  param {
    lr_mult: 2
    decay_mult: 0
  }
  convolution_param {
    num_output: 16
    kernel_size: 1
    weight_filler {
      type: "xavier"
    }
    bias_filler {
      type: "constant"
      value: 0.2
    }
  }
}
layer {
  name: "inception_4a/prelu_5x5_reduce"
  type: "PReLU"
  bottom: "inception_4a/5x5_reduce"
  top: "inception_4a/5x5_reduce"
  param {
    lr_mult: 1
    decay_mult: 0
  }
  prelu_param {
    filler {
      type: "constant"
      value: 0.01
    }
  }
}
layer {
  name: "inception_4a/5x5"
  type: "Convolution"
  bottom: "inception_4a/5x5_reduce"
  top: "inception_4a/5x5"
  param {
    lr_mult: 1
    decay_mult: 1
  }
  param {
    lr_mult: 2
    decay_mult: 0
  }
  convolution_param {
    num_output: 48
    pad: 2
    kernel_size: 5
    weight_filler {
      type: "xavier"
    }
    bias_filler {
      type: "constant"
      value: 0.2
    }
  }
}
layer {
  name: "inception_4a/prelu_5x5"
  type: "PReLU"
  bottom: "inception_4a/5x5"
  top: "inception_4a/5x5"
  param {
    lr_mult: 1
    decay_mult: 0
  }
  prelu_param {
    filler {
      type: "constant"
      value: 0.01
    }
  }
}
layer {
  name: "inception_4a/pool"
  type: "Pooling"
  bottom: "pool3/3x3_s2"
  top: "inception_4a/pool"
  pooling_param {
    pool: MAX
    kernel_size: 3
    stride: 1
    pad: 1
  }
}
layer {
  name: "inception_4a/pool_proj"
  type: "Convolution"
  bottom: "inception_4a/pool"
  top: "inception_4a/pool_proj"
  param {
    lr_mult: 1
    decay_mult: 1
  }
  param {
    lr_mult: 2
    decay_mult: 0
  }
  convolution_param {
    num_output: 64
    kernel_size: 1
    weight_filler {
      type: "xavier"
    }
    bias_filler {
      type: "constant"
      value: 0.2
    }
  }
}
layer {
  name: "inception_4a/prelu_pool_proj"
  type: "PReLU"
  bottom: "inception_4a/pool_proj"
  top: "inception_4a/pool_proj"
  param {
    lr_mult: 1
    decay_mult: 0
  }
  prelu_param {
    filler {
      type: "constant"
      value: 0.01
    }
  }
}
layer {
  name: "inception_4a/output"
  type: "Concat"
  bottom: "inception_4a/1x1"
  bottom: "inception_4a/3x3"
  bottom: "inception_4a/5x5"
  bottom: "inception_4a/pool_proj"
  top: "inception_4a/output"
}
layer {
  name: "loss1/ave_pool"
  type: "Pooling"
  bottom: "inception_4a/output"
  top: "loss1/ave_pool"
  pooling_param {
    pool: AVE
    kernel_size: 5
    stride: 3
  }
}
layer {
  name: "loss1/conv"
  type: "Convolution"
  bottom: "loss1/ave_pool"
  top: "loss1/conv"
  param {
    lr_mult: 1
    decay_mult: 1
  }
  param {
    lr_mult: 2
    decay_mult: 0
  }
  convolution_param {
    num_output: 128
    kernel_size: 1
    weight_filler {
      type: "xavier"
    }
    bias_filler {
      type: "constant"
      value: 0.2
    }
  }
}
layer {
  name: "loss1/prelu_conv"
  type: "PReLU"
  bottom: "loss1/conv"
  top: "loss1/conv"
  param {
    lr_mult: 1
    decay_mult: 0
  }
  prelu_param {
    filler {
      type: "constant"
      value: 0.01
    }
  }
}
layer {
  name: "loss1/fc"
  type: "InnerProduct"
  bottom: "loss1/conv"
  top: "loss1/fc"
  param {
    lr_mult: 1
    decay_mult: 1
  }
  param {
    lr_mult: 2
    decay_mult: 0
  }
  inner_product_param {
    num_output: 1024
    weight_filler {
      type: "xavier"
    }
    bias_filler {
      type: "constant"
      value: 0.2
    }
  }
}
layer {
  name: "loss1/prelu_fc"
  type: "PReLU"
  bottom: "loss1/fc"
  top: "loss1/fc"
  param {
    lr_mult: 1
    decay_mult: 0
  }
  prelu_param {
    filler {
      type: "constant"
      value: 0.01
    }
  }
}
layer {
  name: "loss1/drop_fc"
  type: "Dropout"
  bottom: "loss1/fc"
  top: "loss1/fc"
  dropout_param {
    dropout_ratio: 0.7
  }
}
layer {
  name: "loss1/classifier2"
  type: "InnerProduct"
  bottom: "loss1/fc"
  top: "loss1/classifier"
  param {
    lr_mult: 1
    decay_mult: 1
  }
  param {
    lr_mult: 2
    decay_mult: 0
  }
  inner_product_param {
    num_output: 2
    weight_filler {
      type: "xavier"
    }
    bias_filler {
      type: "constant"
      value: 0
    }
  }
}
layer {
  name: "loss1/loss"
  type: "SoftmaxWithLoss"
  bottom: "loss1/classifier"
  bottom: "label"
  top: "loss1/loss1"
  loss_weight: 0.3
}
layer {
  name: "inception_4b/1x1"
  type: "Convolution"
  bottom: "inception_4a/output"
  top: "inception_4b/1x1"
  param {
    lr_mult: 1
    decay_mult: 1
  }
  param {
    lr_mult: 2
    decay_mult: 0
  }
  convolution_param {
    num_output: 160
    kernel_size: 1
    weight_filler {
      type: "xavier"
    }
    bias_filler {
      type: "constant"
      value: 0.2
    }
  }
}
layer {
  name: "inception_4b/prelu_1x1"
  type: "PReLU"
  bottom: "inception_4b/1x1"
  top: "inception_4b/1x1"
  param {
    lr_mult: 1
    decay_mult: 0
  }
  prelu_param {
    filler {
      type: "constant"
      value: 0.01
    }
  }
}
layer {
  name: "inception_4b/3x3_reduce"
  type: "Convolution"
  bottom: "inception_4a/output"
  top: "inception_4b/3x3_reduce"
  param {
    lr_mult: 1
    decay_mult: 1
  }
  param {
    lr_mult: 2
    decay_mult: 0
  }
  convolution_param {
    num_output: 112
    kernel_size: 1
    weight_filler {
      type: "xavier"
    }
    bias_filler {
      type: "constant"
      value: 0.2
    }
  }
}
layer {
  name: "inception_4b/prelu_3x3_reduce"
  type: "PReLU"
  bottom: "inception_4b/3x3_reduce"
  top: "inception_4b/3x3_reduce"
  param {
    lr_mult: 1
    decay_mult: 0
  }
  prelu_param {
    filler {
      type: "constant"
      value: 0.01
    }
  }
}
layer {
  name: "inception_4b/3x3"
  type: "Convolution"
  bottom: "inception_4b/3x3_reduce"
  top: "inception_4b/3x3"
  param {
    lr_mult: 1
    decay_mult: 1
  }
  param {
    lr_mult: 2
    decay_mult: 0
  }
  convolution_param {
    num_output: 224
    pad: 1
    kernel_size: 3
    weight_filler {
      type: "xavier"
    }
    bias_filler {
      type: "constant"
      value: 0.2
    }
  }
}
layer {
  name: "inception_4b/prelu_3x3"
  type: "PReLU"
  bottom: "inception_4b/3x3"
  top: "inception_4b/3x3"
  param {
    lr_mult: 1
    decay_mult: 0
  }
  prelu_param {
    filler {
      type: "constant"
      value: 0.01
    }
  }
}
layer {
  name: "inception_4b/5x5_reduce"
  type: "Convolution"
  bottom: "inception_4a/output"
  top: "inception_4b/5x5_reduce"
  param {
    lr_mult: 1
    decay_mult: 1
  }
  param {
    lr_mult: 2
    decay_mult: 0
  }
  convolution_param {
    num_output: 24
    kernel_size: 1
    weight_filler {
      type: "xavier"
    }
    bias_filler {
      type: "constant"
      value: 0.2
    }
  }
}
layer {
  name: "inception_4b/prelu_5x5_reduce"
  type: "PReLU"
  bottom: "inception_4b/5x5_reduce"
  top: "inception_4b/5x5_reduce"
  param {
    lr_mult: 1
    decay_mult: 0
  }
  prelu_param {
    filler {
      type: "constant"
      value: 0.01
    }
  }
}
layer {
  name: "inception_4b/5x5"
  type: "Convolution"
  bottom: "inception_4b/5x5_reduce"
  top: "inception_4b/5x5"
  param {
    lr_mult: 1
    decay_mult: 1
  }
  param {
    lr_mult: 2
    decay_mult: 0
  }
  convolution_param {
    num_output: 64
    pad: 2
    kernel_size: 5
    weight_filler {
      type: "xavier"
    }
    bias_filler {
      type: "constant"
      value: 0.2
    }
  }
}
layer {
  name: "inception_4b/prelu_5x5"
  type: "PReLU"
  bottom: "inception_4b/5x5"
  top: "inception_4b/5x5"
  param {
    lr_mult: 1
    decay_mult: 0
  }
  prelu_param {
    filler {
      type: "constant"
      value: 0.01
    }
  }
}
layer {
  name: "inception_4b/pool"
  type: "Pooling"
  bottom: "inception_4a/output"
  top: "inception_4b/pool"
  pooling_param {
    pool: MAX
    kernel_size: 3
    stride: 1
    pad: 1
  }
}
layer {
  name: "inception_4b/pool_proj"
  type: "Convolution"
  bottom: "inception_4b/pool"
  top: "inception_4b/pool_proj"
  param {
    lr_mult: 1
    decay_mult: 1
  }
  param {
    lr_mult: 2
    decay_mult: 0
  }
  convolution_param {
    num_output: 64
    kernel_size: 1
    weight_filler {
      type: "xavier"
    }
    bias_filler {
      type: "constant"
      value: 0.2
    }
  }
}
layer {
  name: "inception_4b/prelu_pool_proj"
  type: "PReLU"
  bottom: "inception_4b/pool_proj"
  top: "inception_4b/pool_proj"
  param {
    lr_mult: 1
    decay_mult: 0
  }
  prelu_param {
    filler {
      type: "constant"
      value: 0.01
    }
  }
}
layer {
  name: "inception_4b/output"
  type: "Concat"
  bottom: "inception_4b/1x1"
  bottom: "inception_4b/3x3"
  bottom: "inception_4b/5x5"
  bottom: "inception_4b/pool_proj"
  top: "inception_4b/output"
}
layer {
  name: "inception_4c/1x1"
  type: "Convolution"
  bottom: "inception_4b/output"
  top: "inception_4c/1x1"
  param {
    lr_mult: 1
    decay_mult: 1
  }
  param {
    lr_mult: 2
    decay_mult: 0
  }
  convolution_param {
    num_output: 128
    kernel_size: 1
    weight_filler {
      type: "xavier"
    }
    bias_filler {
      type: "constant"
      value: 0.2
    }
  }
}
layer {
  name: "inception_4c/prelu_1x1"
  type: "PReLU"
  bottom: "inception_4c/1x1"
  top: "inception_4c/1x1"
  param {
    lr_mult: 1
    decay_mult: 0
  }
  prelu_param {
    filler {
      type: "constant"
      value: 0.01
    }
  }
}
layer {
  name: "inception_4c/3x3_reduce"
  type: "Convolution"
  bottom: "inception_4b/output"
  top: "inception_4c/3x3_reduce"
  param {
    lr_mult: 1
    decay_mult: 1
  }
  param {
    lr_mult: 2
    decay_mult: 0
  }
  convolution_param {
    num_output: 128
    kernel_size: 1
    weight_filler {
      type: "xavier"
    }
    bias_filler {
      type: "constant"
      value: 0.2
    }
  }
}
layer {
  name: "inception_4c/prelu_3x3_reduce"
  type: "PReLU"
  bottom: "inception_4c/3x3_reduce"
  top: "inception_4c/3x3_reduce"
  param {
    lr_mult: 1
    decay_mult: 0
  }
  prelu_param {
    filler {
      type: "constant"
      value: 0.01
    }
  }
}
layer {
  name: "inception_4c/3x3"
  type: "Convolution"
  bottom: "inception_4c/3x3_reduce"
  top: "inception_4c/3x3"
  param {
    lr_mult: 1
    decay_mult: 1
  }
  param {
    lr_mult: 2
    decay_mult: 0
  }
  convolution_param {
    num_output: 256
    pad: 1
    kernel_size: 3
    weight_filler {
      type: "xavier"
    }
    bias_filler {
      type: "constant"
      value: 0.2
    }
  }
}
layer {
  name: "inception_4c/prelu_3x3"
  type: "PReLU"
  bottom: "inception_4c/3x3"
  top: "inception_4c/3x3"
  param {
    lr_mult: 1
    decay_mult: 0
  }
  prelu_param {
    filler {
      type: "constant"
      value: 0.01
    }
  }
}
layer {
  name: "inception_4c/5x5_reduce"
  type: "Convolution"
  bottom: "inception_4b/output"
  top: "inception_4c/5x5_reduce"
  param {
    lr_mult: 1
    decay_mult: 1
  }
  param {
    lr_mult: 2
    decay_mult: 0
  }
  convolution_param {
    num_output: 24
    kernel_size: 1
    weight_filler {
      type: "xavier"
    }
    bias_filler {
      type: "constant"
      value: 0.2
    }
  }
}
layer {
  name: "inception_4c/prelu_5x5_reduce"
  type: "PReLU"
  bottom: "inception_4c/5x5_reduce"
  top: "inception_4c/5x5_reduce"
  param {
    lr_mult: 1
    decay_mult: 0
  }
  prelu_param {
    filler {
      type: "constant"
      value: 0.01
    }
  }
}
layer {
  name: "inception_4c/5x5"
  type: "Convolution"
  bottom: "inception_4c/5x5_reduce"
  top: "inception_4c/5x5"
  param {
    lr_mult: 1
    decay_mult: 1
  }
  param {
    lr_mult: 2
    decay_mult: 0
  }
  convolution_param {
    num_output: 64
    pad: 2
    kernel_size: 5
    weight_filler {
      type: "xavier"
    }
    bias_filler {
      type: "constant"
      value: 0.2
    }
  }
}
layer {
  name: "inception_4c/prelu_5x5"
  type: "PReLU"
  bottom: "inception_4c/5x5"
  top: "inception_4c/5x5"
  param {
    lr_mult: 1
    decay_mult: 0
  }
  prelu_param {
    filler {
      type: "constant"
      value: 0.01
    }
  }
}
layer {
  name: "inception_4c/pool"
  type: "Pooling"
  bottom: "inception_4b/output"
  top: "inception_4c/pool"
  pooling_param {
    pool: MAX
    kernel_size: 3
    stride: 1
    pad: 1
  }
}
layer {
  name: "inception_4c/pool_proj"
  type: "Convolution"
  bottom: "inception_4c/pool"
  top: "inception_4c/pool_proj"
  param {
    lr_mult: 1
    decay_mult: 1
  }
  param {
    lr_mult: 2
    decay_mult: 0
  }
  convolution_param {
    num_output: 64
    kernel_size: 1
    weight_filler {
      type: "xavier"
    }
    bias_filler {
      type: "constant"
      value: 0.2
    }
  }
}
layer {
  name: "inception_4c/prelu_pool_proj"
  type: "PReLU"
  bottom: "inception_4c/pool_proj"
  top: "inception_4c/pool_proj"
  param {
    lr_mult: 1
    decay_mult: 0
  }
  prelu_param {
    filler {
      type: "constant"
      value: 0.01
    }
  }
}
layer {
  name: "inception_4c/output"
  type: "Concat"
  bottom: "inception_4c/1x1"
  bottom: "inception_4c/3x3"
  bottom: "inception_4c/5x5"
  bottom: "inception_4c/pool_proj"
  top: "inception_4c/output"
}
layer {
  name: "inception_4d/1x1"
  type: "Convolution"
  bottom: "inception_4c/output"
  top: "inception_4d/1x1"
  param {
    lr_mult: 1
    decay_mult: 1
  }
  param {
    lr_mult: 2
    decay_mult: 0
  }
  convolution_param {
    num_output: 112
    kernel_size: 1
    weight_filler {
      type: "xavier"
    }
    bias_filler {
      type: "constant"
      value: 0.2
    }
  }
}
layer {
  name: "inception_4d/prelu_1x1"
  type: "PReLU"
  bottom: "inception_4d/1x1"
  top: "inception_4d/1x1"
  param {
    lr_mult: 1
    decay_mult: 0
  }
  prelu_param {
    filler {
      type: "constant"
      value: 0.01
    }
  }
}
layer {
  name: "inception_4d/3x3_reduce"
  type: "Convolution"
  bottom: "inception_4c/output"
  top: "inception_4d/3x3_reduce"
  param {
    lr_mult: 1
    decay_mult: 1
  }
  param {
    lr_mult: 2
    decay_mult: 0
  }
  convolution_param {
    num_output: 144
    kernel_size: 1
    weight_filler {
      type: "xavier"
    }
    bias_filler {
      type: "constant"
      value: 0.2
    }
  }
}
layer {
  name: "inception_4d/prelu_3x3_reduce"
  type: "PReLU"
  bottom: "inception_4d/3x3_reduce"
  top: "inception_4d/3x3_reduce"
  param {
    lr_mult: 1
    decay_mult: 0
  }
  prelu_param {
    filler {
      type: "constant"
      value: 0.01
    }
  }
}
layer {
  name: "inception_4d/3x3"
  type: "Convolution"
  bottom: "inception_4d/3x3_reduce"
  top: "inception_4d/3x3"
  param {
    lr_mult: 1
    decay_mult: 1
  }
  param {
    lr_mult: 2
    decay_mult: 0
  }
  convolution_param {
    num_output: 288
    pad: 1
    kernel_size: 3
    weight_filler {
      type: "xavier"
    }
    bias_filler {
      type: "constant"
      value: 0.2
    }
  }
}
layer {
  name: "inception_4d/prelu_3x3"
  type: "PReLU"
  bottom: "inception_4d/3x3"
  top: "inception_4d/3x3"
  param {
    lr_mult: 1
    decay_mult: 0
  }
  prelu_param {
    filler {
      type: "constant"
      value: 0.01
    }
  }
}
layer {
  name: "inception_4d/5x5_reduce"
  type: "Convolution"
  bottom: "inception_4c/output"
  top: "inception_4d/5x5_reduce"
  param {
    lr_mult: 1
    decay_mult: 1
  }
  param {
    lr_mult: 2
    decay_mult: 0
  }
  convolution_param {
    num_output: 32
    kernel_size: 1
    weight_filler {
      type: "xavier"
    }
    bias_filler {
      type: "constant"
      value: 0.2
    }
  }
}
layer {
  name: "inception_4d/prelu_5x5_reduce"
  type: "PReLU"
  bottom: "inception_4d/5x5_reduce"
  top: "inception_4d/5x5_reduce"
  param {
    lr_mult: 1
    decay_mult: 0
  }
  prelu_param {
    filler {
      type: "constant"
      value: 0.01
    }
  }
}
layer {
  name: "inception_4d/5x5"
  type: "Convolution"
  bottom: "inception_4d/5x5_reduce"
  top: "inception_4d/5x5"
  param {
    lr_mult: 1
    decay_mult: 1
  }
  param {
    lr_mult: 2
    decay_mult: 0
  }
  convolution_param {
    num_output: 64
    pad: 2
    kernel_size: 5
    weight_filler {
      type: "xavier"
    }
    bias_filler {
      type: "constant"
      value: 0.2
    }
  }
}
layer {
  name: "inception_4d/prelu_5x5"
  type: "PReLU"
  bottom: "inception_4d/5x5"
  top: "inception_4d/5x5"
  param {
    lr_mult: 1
    decay_mult: 0
  }
  prelu_param {
    filler {
      type: "constant"
      value: 0.01
    }
  }
}
layer {
  name: "inception_4d/pool"
  type: "Pooling"
  bottom: "inception_4c/output"
  top: "inception_4d/pool"
  pooling_param {
    pool: MAX
    kernel_size: 3
    stride: 1
    pad: 1
  }
}
layer {
  name: "inception_4d/pool_proj"
  type: "Convolution"
  bottom: "ince
I1105 17:10:47.837337 24283 layer_factory.hpp:76] Creating layer data
I1105 17:10:47.837792 24283 net.cpp:106] Creating Layer data
I1105 17:10:47.837807 24283 net.cpp:411] data -> data
I1105 17:10:47.837836 24283 net.cpp:411] data -> label
I1105 17:10:47.838765 24289 db_lmdb.cpp:38] Opened lmdb ../../LMDB/train_0-lmdb
I1105 17:10:47.847105 24283 data_layer.cpp:41] output data size: 32,3,224,224
I1105 17:10:47.911514 24283 net.cpp:150] Setting up data
I1105 17:10:47.911568 24283 net.cpp:157] Top shape: 32 3 224 224 (4816896)
I1105 17:10:47.911574 24283 net.cpp:157] Top shape: 32 (32)
I1105 17:10:47.911587 24283 net.cpp:165] Memory required for data: 19267712
I1105 17:10:47.911598 24283 layer_factory.hpp:76] Creating layer label_data_1_split
I1105 17:10:47.911612 24283 net.cpp:106] Creating Layer label_data_1_split
I1105 17:10:47.911619 24283 net.cpp:454] label_data_1_split <- label
I1105 17:10:47.911649 24283 net.cpp:411] label_data_1_split -> label_data_1_split_0
I1105 17:10:47.911660 24283 net.cpp:411] label_data_1_split -> label_data_1_split_1
I1105 17:10:47.911672 24283 net.cpp:411] label_data_1_split -> label_data_1_split_2
I1105 17:10:47.911747 24283 net.cpp:150] Setting up label_data_1_split
I1105 17:10:47.911756 24283 net.cpp:157] Top shape: 32 (32)
I1105 17:10:47.911761 24283 net.cpp:157] Top shape: 32 (32)
I1105 17:10:47.911766 24283 net.cpp:157] Top shape: 32 (32)
I1105 17:10:47.911777 24283 net.cpp:165] Memory required for data: 19268096
I1105 17:10:47.911782 24283 layer_factory.hpp:76] Creating layer conv1/7x7_s2
I1105 17:10:47.911798 24283 net.cpp:106] Creating Layer conv1/7x7_s2
I1105 17:10:47.911803 24283 net.cpp:454] conv1/7x7_s2 <- data
I1105 17:10:47.911826 24283 net.cpp:411] conv1/7x7_s2 -> conv1/7x7_s2
I1105 17:10:48.121670 24283 cudnn_conv_layer.cpp:194] Reallocating workspace storage: 225816
I1105 17:10:48.121960 24283 net.cpp:150] Setting up conv1/7x7_s2
I1105 17:10:48.121984 24283 net.cpp:157] Top shape: 32 64 112 112 (25690112)
I1105 17:10:48.121989 24283 net.cpp:165] Memory required for data: 122028544
I1105 17:10:48.122007 24283 layer_factory.hpp:76] Creating layer conv1/prelu_7x7
I1105 17:10:48.122032 24283 net.cpp:106] Creating Layer conv1/prelu_7x7
I1105 17:10:48.122050 24283 net.cpp:454] conv1/prelu_7x7 <- conv1/7x7_s2
I1105 17:10:48.122057 24283 net.cpp:397] conv1/prelu_7x7 -> conv1/7x7_s2 (in-place)
I1105 17:10:48.123719 24283 net.cpp:150] Setting up conv1/prelu_7x7
I1105 17:10:48.123738 24283 net.cpp:157] Top shape: 32 64 112 112 (25690112)
I1105 17:10:48.123750 24283 net.cpp:165] Memory required for data: 224788992
I1105 17:10:48.123760 24283 layer_factory.hpp:76] Creating layer pool1/3x3_s2
I1105 17:10:48.123781 24283 net.cpp:106] Creating Layer pool1/3x3_s2
I1105 17:10:48.123795 24283 net.cpp:454] pool1/3x3_s2 <- conv1/7x7_s2
I1105 17:10:48.123801 24283 net.cpp:411] pool1/3x3_s2 -> pool1/3x3_s2
I1105 17:10:48.124187 24283 net.cpp:150] Setting up pool1/3x3_s2
I1105 17:10:48.124199 24283 net.cpp:157] Top shape: 32 64 56 56 (6422528)
I1105 17:10:48.124203 24283 net.cpp:165] Memory required for data: 250479104
I1105 17:10:48.124208 24283 layer_factory.hpp:76] Creating layer pool1/norm1
I1105 17:10:48.124219 24283 net.cpp:106] Creating Layer pool1/norm1
I1105 17:10:48.124224 24283 net.cpp:454] pool1/norm1 <- pool1/3x3_s2
I1105 17:10:48.124230 24283 net.cpp:411] pool1/norm1 -> pool1/norm1
I1105 17:10:48.124400 24283 net.cpp:150] Setting up pool1/norm1
I1105 17:10:48.124410 24283 net.cpp:157] Top shape: 32 64 56 56 (6422528)
I1105 17:10:48.124414 24283 net.cpp:165] Memory required for data: 276169216
I1105 17:10:48.124419 24283 layer_factory.hpp:76] Creating layer conv2/3x3_reduce
I1105 17:10:48.124429 24283 net.cpp:106] Creating Layer conv2/3x3_reduce
I1105 17:10:48.124433 24283 net.cpp:454] conv2/3x3_reduce <- pool1/norm1
I1105 17:10:48.124440 24283 net.cpp:411] conv2/3x3_reduce -> conv2/3x3_reduce
I1105 17:10:48.125823 24283 cudnn_conv_layer.cpp:194] Reallocating workspace storage: 63000
I1105 17:10:48.125844 24283 net.cpp:150] Setting up conv2/3x3_reduce
I1105 17:10:48.125851 24283 net.cpp:157] Top shape: 32 64 56 56 (6422528)
I1105 17:10:48.125856 24283 net.cpp:165] Memory required for data: 301859328
I1105 17:10:48.125865 24283 layer_factory.hpp:76] Creating layer conv2/prelu_3x3_reduce
I1105 17:10:48.125874 24283 net.cpp:106] Creating Layer conv2/prelu_3x3_reduce
I1105 17:10:48.125886 24283 net.cpp:454] conv2/prelu_3x3_reduce <- conv2/3x3_reduce
I1105 17:10:48.125893 24283 net.cpp:397] conv2/prelu_3x3_reduce -> conv2/3x3_reduce (in-place)
I1105 17:10:48.126528 24283 net.cpp:150] Setting up conv2/prelu_3x3_reduce
I1105 17:10:48.126540 24283 net.cpp:157] Top shape: 32 64 56 56 (6422528)
I1105 17:10:48.126545 24283 net.cpp:165] Memory required for data: 327549440
I1105 17:10:48.126551 24283 layer_factory.hpp:76] Creating layer conv2/3x3
I1105 17:10:48.126560 24283 net.cpp:106] Creating Layer conv2/3x3
I1105 17:10:48.126565 24283 net.cpp:454] conv2/3x3 <- conv2/3x3_reduce
I1105 17:10:48.126572 24283 net.cpp:411] conv2/3x3 -> conv2/3x3
I1105 17:10:48.128538 24283 cudnn_conv_layer.cpp:194] Reallocating workspace storage: 63000
I1105 17:10:48.128559 24283 net.cpp:150] Setting up conv2/3x3
I1105 17:10:48.128566 24283 net.cpp:157] Top shape: 32 192 56 56 (19267584)
I1105 17:10:48.128571 24283 net.cpp:165] Memory required for data: 404619776
I1105 17:10:48.128578 24283 layer_factory.hpp:76] Creating layer conv2/prelu_3x3
I1105 17:10:48.128587 24283 net.cpp:106] Creating Layer conv2/prelu_3x3
I1105 17:10:48.128599 24283 net.cpp:454] conv2/prelu_3x3 <- conv2/3x3
I1105 17:10:48.128607 24283 net.cpp:397] conv2/prelu_3x3 -> conv2/3x3 (in-place)
I1105 17:10:48.129742 24283 net.cpp:150] Setting up conv2/prelu_3x3
I1105 17:10:48.129756 24283 net.cpp:157] Top shape: 32 192 56 56 (19267584)
I1105 17:10:48.129760 24283 net.cpp:165] Memory required for data: 481690112
I1105 17:10:48.129787 24283 layer_factory.hpp:76] Creating layer conv2/norm2
I1105 17:10:48.129804 24283 net.cpp:106] Creating Layer conv2/norm2
I1105 17:10:48.129809 24283 net.cpp:454] conv2/norm2 <- conv2/3x3
I1105 17:10:48.129817 24283 net.cpp:411] conv2/norm2 -> conv2/norm2
I1105 17:10:48.130002 24283 net.cpp:150] Setting up conv2/norm2
I1105 17:10:48.130012 24283 net.cpp:157] Top shape: 32 192 56 56 (19267584)
I1105 17:10:48.130017 24283 net.cpp:165] Memory required for data: 558760448
I1105 17:10:48.130020 24283 layer_factory.hpp:76] Creating layer pool2/3x3_s2
I1105 17:10:48.130036 24283 net.cpp:106] Creating Layer pool2/3x3_s2
I1105 17:10:48.130040 24283 net.cpp:454] pool2/3x3_s2 <- conv2/norm2
I1105 17:10:48.130046 24283 net.cpp:411] pool2/3x3_s2 -> pool2/3x3_s2
I1105 17:10:48.130383 24283 net.cpp:150] Setting up pool2/3x3_s2
I1105 17:10:48.130394 24283 net.cpp:157] Top shape: 32 192 28 28 (4816896)
I1105 17:10:48.130399 24283 net.cpp:165] Memory required for data: 578028032
I1105 17:10:48.130404 24283 layer_factory.hpp:76] Creating layer pool2/3x3_s2_pool2/3x3_s2_0_split
I1105 17:10:48.130411 24283 net.cpp:106] Creating Layer pool2/3x3_s2_pool2/3x3_s2_0_split
I1105 17:10:48.130415 24283 net.cpp:454] pool2/3x3_s2_pool2/3x3_s2_0_split <- pool2/3x3_s2
I1105 17:10:48.130421 24283 net.cpp:411] pool2/3x3_s2_pool2/3x3_s2_0_split -> pool2/3x3_s2_pool2/3x3_s2_0_split_0
I1105 17:10:48.130429 24283 net.cpp:411] pool2/3x3_s2_pool2/3x3_s2_0_split -> pool2/3x3_s2_pool2/3x3_s2_0_split_1
I1105 17:10:48.130435 24283 net.cpp:411] pool2/3x3_s2_pool2/3x3_s2_0_split -> pool2/3x3_s2_pool2/3x3_s2_0_split_2
I1105 17:10:48.130441 24283 net.cpp:411] pool2/3x3_s2_pool2/3x3_s2_0_split -> pool2/3x3_s2_pool2/3x3_s2_0_split_3
I1105 17:10:48.130487 24283 net.cpp:150] Setting up pool2/3x3_s2_pool2/3x3_s2_0_split
I1105 17:10:48.130496 24283 net.cpp:157] Top shape: 32 192 28 28 (4816896)
I1105 17:10:48.130501 24283 net.cpp:157] Top shape: 32 192 28 28 (4816896)
I1105 17:10:48.130506 24283 net.cpp:157] Top shape: 32 192 28 28 (4816896)
I1105 17:10:48.130511 24283 net.cpp:157] Top shape: 32 192 28 28 (4816896)
I1105 17:10:48.130513 24283 net.cpp:165] Memory required for data: 655098368
I1105 17:10:48.130517 24283 layer_factory.hpp:76] Creating layer inception_3a/1x1
I1105 17:10:48.130527 24283 net.cpp:106] Creating Layer inception_3a/1x1
I1105 17:10:48.130530 24283 net.cpp:454] inception_3a/1x1 <- pool2/3x3_s2_pool2/3x3_s2_0_split_0
I1105 17:10:48.130537 24283 net.cpp:411] inception_3a/1x1 -> inception_3a/1x1
I1105 17:10:48.131965 24283 cudnn_conv_layer.cpp:194] Reallocating workspace storage: 20664
I1105 17:10:48.131991 24283 net.cpp:150] Setting up inception_3a/1x1
I1105 17:10:48.132000 24283 net.cpp:157] Top shape: 32 64 28 28 (1605632)
I1105 17:10:48.132005 24283 net.cpp:165] Memory required for data: 661520896
I1105 17:10:48.132012 24283 layer_factory.hpp:76] Creating layer inception_3a/prelu_1x1
I1105 17:10:48.132021 24283 net.cpp:106] Creating Layer inception_3a/prelu_1x1
I1105 17:10:48.132026 24283 net.cpp:454] inception_3a/prelu_1x1 <- inception_3a/1x1
I1105 17:10:48.132032 24283 net.cpp:397] inception_3a/prelu_1x1 -> inception_3a/1x1 (in-place)
I1105 17:10:48.132570 24283 net.cpp:150] Setting up inception_3a/prelu_1x1
I1105 17:10:48.132582 24283 net.cpp:157] Top shape: 32 64 28 28 (1605632)
I1105 17:10:48.132587 24283 net.cpp:165] Memory required for data: 667943424
I1105 17:10:48.132592 24283 layer_factory.hpp:76] Creating layer inception_3a/3x3_reduce
I1105 17:10:48.132601 24283 net.cpp:106] Creating Layer inception_3a/3x3_reduce
I1105 17:10:48.132606 24283 net.cpp:454] inception_3a/3x3_reduce <- pool2/3x3_s2_pool2/3x3_s2_0_split_1
I1105 17:10:48.132612 24283 net.cpp:411] inception_3a/3x3_reduce -> inception_3a/3x3_reduce
I1105 17:10:48.133462 24283 cudnn_conv_layer.cpp:194] Reallocating workspace storage: 20664
I1105 17:10:48.133484 24283 net.cpp:150] Setting up inception_3a/3x3_reduce
I1105 17:10:48.133491 24283 net.cpp:157] Top shape: 32 96 28 28 (2408448)
I1105 17:10:48.133496 24283 net.cpp:165] Memory required for data: 677577216
I1105 17:10:48.133513 24283 layer_factory.hpp:76] Creating layer inception_3a/prelu_3x3_reduce
I1105 17:10:48.133523 24283 net.cpp:106] Creating Layer inception_3a/prelu_3x3_reduce
I1105 17:10:48.133532 24283 net.cpp:454] inception_3a/prelu_3x3_reduce <- inception_3a/3x3_reduce
I1105 17:10:48.133559 24283 net.cpp:397] inception_3a/prelu_3x3_reduce -> inception_3a/3x3_reduce (in-place)
I1105 17:10:48.133707 24283 net.cpp:150] Setting up inception_3a/prelu_3x3_reduce
I1105 17:10:48.133719 24283 net.cpp:157] Top shape: 32 96 28 28 (2408448)
I1105 17:10:48.133728 24283 net.cpp:165] Memory required for data: 687211008
I1105 17:10:48.133745 24283 layer_factory.hpp:76] Creating layer inception_3a/3x3
I1105 17:10:48.133759 24283 net.cpp:106] Creating Layer inception_3a/3x3
I1105 17:10:48.133776 24283 net.cpp:454] inception_3a/3x3 <- inception_3a/3x3_reduce
I1105 17:10:48.133797 24283 net.cpp:411] inception_3a/3x3 -> inception_3a/3x3
I1105 17:10:48.136044 24283 cudnn_conv_layer.cpp:194] Reallocating workspace storage: 20664
I1105 17:10:48.136076 24283 net.cpp:150] Setting up inception_3a/3x3
I1105 17:10:48.136095 24283 net.cpp:157] Top shape: 32 128 28 28 (3211264)
I1105 17:10:48.136106 24283 net.cpp:165] Memory required for data: 700056064
I1105 17:10:48.136127 24283 layer_factory.hpp:76] Creating layer inception_3a/prelu_3x3
I1105 17:10:48.136143 24283 net.cpp:106] Creating Layer inception_3a/prelu_3x3
I1105 17:10:48.136154 24283 net.cpp:454] inception_3a/prelu_3x3 <- inception_3a/3x3
I1105 17:10:48.136168 24283 net.cpp:397] inception_3a/prelu_3x3 -> inception_3a/3x3 (in-place)
I1105 17:10:48.136301 24283 net.cpp:150] Setting up inception_3a/prelu_3x3
I1105 17:10:48.136313 24283 net.cpp:157] Top shape: 32 128 28 28 (3211264)
I1105 17:10:48.136322 24283 net.cpp:165] Memory required for data: 712901120
I1105 17:10:48.136333 24283 layer_factory.hpp:76] Creating layer inception_3a/5x5_reduce
I1105 17:10:48.136348 24283 net.cpp:106] Creating Layer inception_3a/5x5_reduce
I1105 17:10:48.136359 24283 net.cpp:454] inception_3a/5x5_reduce <- pool2/3x3_s2_pool2/3x3_s2_0_split_2
I1105 17:10:48.136373 24283 net.cpp:411] inception_3a/5x5_reduce -> inception_3a/5x5_reduce
I1105 17:10:48.137583 24283 cudnn_conv_layer.cpp:194] Reallocating workspace storage: 20664
I1105 17:10:48.137615 24283 net.cpp:150] Setting up inception_3a/5x5_reduce
I1105 17:10:48.137629 24283 net.cpp:157] Top shape: 32 16 28 28 (401408)
I1105 17:10:48.137639 24283 net.cpp:165] Memory required for data: 714506752
I1105 17:10:48.137655 24283 layer_factory.hpp:76] Creating layer inception_3a/prelu_5x5_reduce
I1105 17:10:48.137670 24283 net.cpp:106] Creating Layer inception_3a/prelu_5x5_reduce
I1105 17:10:48.137681 24283 net.cpp:454] inception_3a/prelu_5x5_reduce <- inception_3a/5x5_reduce
I1105 17:10:48.137696 24283 net.cpp:397] inception_3a/prelu_5x5_reduce -> inception_3a/5x5_reduce (in-place)
I1105 17:10:48.137792 24283 net.cpp:150] Setting up inception_3a/prelu_5x5_reduce
I1105 17:10:48.137805 24283 net.cpp:157] Top shape: 32 16 28 28 (401408)
I1105 17:10:48.137814 24283 net.cpp:165] Memory required for data: 716112384
I1105 17:10:48.137825 24283 layer_factory.hpp:76] Creating layer inception_3a/5x5
I1105 17:10:48.137840 24283 net.cpp:106] Creating Layer inception_3a/5x5
I1105 17:10:48.137848 24283 net.cpp:454] inception_3a/5x5 <- inception_3a/5x5_reduce
I1105 17:10:48.137862 24283 net.cpp:411] inception_3a/5x5 -> inception_3a/5x5
I1105 17:10:48.138941 24283 cudnn_conv_layer.cpp:194] Reallocating workspace storage: 20664
I1105 17:10:48.138970 24283 net.cpp:150] Setting up inception_3a/5x5
I1105 17:10:48.138983 24283 net.cpp:157] Top shape: 32 32 28 28 (802816)
I1105 17:10:48.138993 24283 net.cpp:165] Memory required for data: 719323648
I1105 17:10:48.139008 24283 layer_factory.hpp:76] Creating layer inception_3a/prelu_5x5
I1105 17:10:48.139024 24283 net.cpp:106] Creating Layer inception_3a/prelu_5x5
I1105 17:10:48.139036 24283 net.cpp:454] inception_3a/prelu_5x5 <- inception_3a/5x5
I1105 17:10:48.139050 24283 net.cpp:397] inception_3a/prelu_5x5 -> inception_3a/5x5 (in-place)
I1105 17:10:48.139178 24283 net.cpp:150] Setting up inception_3a/prelu_5x5
I1105 17:10:48.139191 24283 net.cpp:157] Top shape: 32 32 28 28 (802816)
I1105 17:10:48.139200 24283 net.cpp:165] Memory required for data: 722534912
I1105 17:10:48.139212 24283 layer_factory.hpp:76] Creating layer inception_3a/pool
I1105 17:10:48.139226 24283 net.cpp:106] Creating Layer inception_3a/pool
I1105 17:10:48.139238 24283 net.cpp:454] inception_3a/pool <- pool2/3x3_s2_pool2/3x3_s2_0_split_3
I1105 17:10:48.139250 24283 net.cpp:411] inception_3a/pool -> inception_3a/pool
I1105 17:10:48.139431 24283 net.cpp:150] Setting up inception_3a/pool
I1105 17:10:48.139446 24283 net.cpp:157] Top shape: 32 192 28 28 (4816896)
I1105 17:10:48.139453 24283 net.cpp:165] Memory required for data: 741802496
I1105 17:10:48.139462 24283 layer_factory.hpp:76] Creating layer inception_3a/pool_proj
I1105 17:10:48.139477 24283 net.cpp:106] Creating Layer inception_3a/pool_proj
I1105 17:10:48.139487 24283 net.cpp:454] inception_3a/pool_proj <- inception_3a/pool
I1105 17:10:48.139500 24283 net.cpp:411] inception_3a/pool_proj -> inception_3a/pool_proj
I1105 17:10:48.140489 24283 cudnn_conv_layer.cpp:194] Reallocating workspace storage: 20664
I1105 17:10:48.140514 24283 net.cpp:150] Setting up inception_3a/pool_proj
I1105 17:10:48.140529 24283 net.cpp:157] Top shape: 32 32 28 28 (802816)
I1105 17:10:48.140537 24283 net.cpp:165] Memory required for data: 745013760
I1105 17:10:48.140552 24283 layer_factory.hpp:76] Creating layer inception_3a/prelu_pool_proj
I1105 17:10:48.140568 24283 net.cpp:106] Creating Layer inception_3a/prelu_pool_proj
I1105 17:10:48.140578 24283 net.cpp:454] inception_3a/prelu_pool_proj <- inception_3a/pool_proj
I1105 17:10:48.140590 24283 net.cpp:397] inception_3a/prelu_pool_proj -> inception_3a/pool_proj (in-place)
I1105 17:10:48.140688 24283 net.cpp:150] Setting up inception_3a/prelu_pool_proj
I1105 17:10:48.140702 24283 net.cpp:157] Top shape: 32 32 28 28 (802816)
I1105 17:10:48.140709 24283 net.cpp:165] Memory required for data: 748225024
I1105 17:10:48.140722 24283 layer_factory.hpp:76] Creating layer inception_3a/output
I1105 17:10:48.140740 24283 net.cpp:106] Creating Layer inception_3a/output
I1105 17:10:48.140750 24283 net.cpp:454] inception_3a/output <- inception_3a/1x1
I1105 17:10:48.140760 24283 net.cpp:454] inception_3a/output <- inception_3a/3x3
I1105 17:10:48.140770 24283 net.cpp:454] inception_3a/output <- inception_3a/5x5
I1105 17:10:48.140779 24283 net.cpp:454] inception_3a/output <- inception_3a/pool_proj
I1105 17:10:48.140791 24283 net.cpp:411] inception_3a/output -> inception_3a/output
I1105 17:10:48.140826 24283 net.cpp:150] Setting up inception_3a/output
I1105 17:10:48.140838 24283 net.cpp:157] Top shape: 32 256 28 28 (6422528)
I1105 17:10:48.140847 24283 net.cpp:165] Memory required for data: 773915136
I1105 17:10:48.140856 24283 layer_factory.hpp:76] Creating layer inception_3a/output_inception_3a/output_0_split
I1105 17:10:48.140867 24283 net.cpp:106] Creating Layer inception_3a/output_inception_3a/output_0_split
I1105 17:10:48.140877 24283 net.cpp:454] inception_3a/output_inception_3a/output_0_split <- inception_3a/output
I1105 17:10:48.140888 24283 net.cpp:411] inception_3a/output_inception_3a/output_0_split -> inception_3a/output_inception_3a/output_0_split_0
I1105 17:10:48.140902 24283 net.cpp:411] inception_3a/output_inception_3a/output_0_split -> inception_3a/output_inception_3a/output_0_split_1
I1105 17:10:48.140916 24283 net.cpp:411] inception_3a/output_inception_3a/output_0_split -> inception_3a/output_inception_3a/output_0_split_2
I1105 17:10:48.140931 24283 net.cpp:411] inception_3a/output_inception_3a/output_0_split -> inception_3a/output_inception_3a/output_0_split_3
I1105 17:10:48.140991 24283 net.cpp:150] Setting up inception_3a/output_inception_3a/output_0_split
I1105 17:10:48.141005 24283 net.cpp:157] Top shape: 32 256 28 28 (6422528)
I1105 17:10:48.141015 24283 net.cpp:157] Top shape: 32 256 28 28 (6422528)
I1105 17:10:48.141026 24283 net.cpp:157] Top shape: 32 256 28 28 (6422528)
I1105 17:10:48.141047 24283 net.cpp:157] Top shape: 32 256 28 28 (6422528)
I1105 17:10:48.141057 24283 net.cpp:165] Memory required for data: 876675584
I1105 17:10:48.141065 24283 layer_factory.hpp:76] Creating layer inception_3b/1x1
I1105 17:10:48.141094 24283 net.cpp:106] Creating Layer inception_3b/1x1
I1105 17:10:48.141104 24283 net.cpp:454] inception_3b/1x1 <- inception_3a/output_inception_3a/output_0_split_0
I1105 17:10:48.141118 24283 net.cpp:411] inception_3b/1x1 -> inception_3b/1x1
I1105 17:10:48.142237 24283 cudnn_conv_layer.cpp:194] Reallocating workspace storage: 20664
I1105 17:10:48.142261 24283 net.cpp:150] Setting up inception_3b/1x1
I1105 17:10:48.142276 24283 net.cpp:157] Top shape: 32 128 28 28 (3211264)
I1105 17:10:48.142283 24283 net.cpp:165] Memory required for data: 889520640
I1105 17:10:48.142304 24283 layer_factory.hpp:76] Creating layer inception_3b/prelu_1x1
I1105 17:10:48.142318 24283 net.cpp:106] Creating Layer inception_3b/prelu_1x1
I1105 17:10:48.142329 24283 net.cpp:454] inception_3b/prelu_1x1 <- inception_3b/1x1
I1105 17:10:48.142349 24283 net.cpp:397] inception_3b/prelu_1x1 -> inception_3b/1x1 (in-place)
I1105 17:10:48.142940 24283 net.cpp:150] Setting up inception_3b/prelu_1x1
I1105 17:10:48.142954 24283 net.cpp:157] Top shape: 32 128 28 28 (3211264)
I1105 17:10:48.142963 24283 net.cpp:165] Memory required for data: 902365696
I1105 17:10:48.142973 24283 layer_factory.hpp:76] Creating layer inception_3b/3x3_reduce
I1105 17:10:48.142995 24283 net.cpp:106] Creating Layer inception_3b/3x3_reduce
I1105 17:10:48.143004 24283 net.cpp:454] inception_3b/3x3_reduce <- inception_3a/output_inception_3a/output_0_split_1
I1105 17:10:48.143018 24283 net.cpp:411] inception_3b/3x3_reduce -> inception_3b/3x3_reduce
I1105 17:10:48.144119 24283 cudnn_conv_layer.cpp:194] Reallocating workspace storage: 20664
I1105 17:10:48.144141 24283 net.cpp:150] Setting up inception_3b/3x3_reduce
I1105 17:10:48.144155 24283 net.cpp:157] Top shape: 32 128 28 28 (3211264)
I1105 17:10:48.144163 24283 net.cpp:165] Memory required for data: 915210752
I1105 17:10:48.144176 24283 layer_factory.hpp:76] Creating layer inception_3b/prelu_3x3_reduce
I1105 17:10:48.144191 24283 net.cpp:106] Creating Layer inception_3b/prelu_3x3_reduce
I1105 17:10:48.144202 24283 net.cpp:454] inception_3b/prelu_3x3_reduce <- inception_3b/3x3_reduce
I1105 17:10:48.144214 24283 net.cpp:397] inception_3b/prelu_3x3_reduce -> inception_3b/3x3_reduce (in-place)
I1105 17:10:48.144340 24283 net.cpp:150] Setting up inception_3b/prelu_3x3_reduce
I1105 17:10:48.144352 24283 net.cpp:157] Top shape: 32 128 28 28 (3211264)
I1105 17:10:48.144361 24283 net.cpp:165] Memory required for data: 928055808
I1105 17:10:48.144379 24283 layer_factory.hpp:76] Creating layer inception_3b/3x3
I1105 17:10:48.144398 24283 net.cpp:106] Creating Layer inception_3b/3x3
I1105 17:10:48.144407 24283 net.cpp:454] inception_3b/3x3 <- inception_3b/3x3_reduce
I1105 17:10:48.144419 24283 net.cpp:411] inception_3b/3x3 -> inception_3b/3x3
I1105 17:10:48.146993 24283 cudnn_conv_layer.cpp:194] Reallocating workspace storage: 20664
I1105 17:10:48.147018 24283 net.cpp:150] Setting up inception_3b/3x3
I1105 17:10:48.147033 24283 net.cpp:157] Top shape: 32 192 28 28 (4816896)
I1105 17:10:48.147042 24283 net.cpp:165] Memory required for data: 947323392
I1105 17:10:48.147056 24283 layer_factory.hpp:76] Creating layer inception_3b/prelu_3x3
I1105 17:10:48.147070 24283 net.cpp:106] Creating Layer inception_3b/prelu_3x3
I1105 17:10:48.147081 24283 net.cpp:454] inception_3b/prelu_3x3 <- inception_3b/3x3
I1105 17:10:48.147094 24283 net.cpp:397] inception_3b/prelu_3x3 -> inception_3b/3x3 (in-place)
I1105 17:10:48.147676 24283 net.cpp:150] Setting up inception_3b/prelu_3x3
I1105 17:10:48.147691 24283 net.cpp:157] Top shape: 32 192 28 28 (4816896)
I1105 17:10:48.147699 24283 net.cpp:165] Memory required for data: 966590976
I1105 17:10:48.147711 24283 layer_factory.hpp:76] Creating layer inception_3b/5x5_reduce
I1105 17:10:48.147725 24283 net.cpp:106] Creating Layer inception_3b/5x5_reduce
I1105 17:10:48.147733 24283 net.cpp:454] inception_3b/5x5_reduce <- inception_3a/output_inception_3a/output_0_split_2
I1105 17:10:48.147760 24283 net.cpp:411] inception_3b/5x5_reduce -> inception_3b/5x5_reduce
I1105 17:10:48.148593 24283 cudnn_conv_layer.cpp:194] Reallocating workspace storage: 20664
I1105 17:10:48.148617 24283 net.cpp:150] Setting up inception_3b/5x5_reduce
I1105 17:10:48.148639 24283 net.cpp:157] Top shape: 32 32 28 28 (802816)
I1105 17:10:48.148648 24283 net.cpp:165] Memory required for data: 969802240
I1105 17:10:48.148669 24283 layer_factory.hpp:76] Creating layer inception_3b/prelu_5x5_reduce
I1105 17:10:48.148692 24283 net.cpp:106] Creating Layer inception_3b/prelu_5x5_reduce
I1105 17:10:48.148704 24283 net.cpp:454] inception_3b/prelu_5x5_reduce <- inception_3b/5x5_reduce
I1105 17:10:48.148725 24283 net.cpp:397] inception_3b/prelu_5x5_reduce -> inception_3b/5x5_reduce (in-place)
I1105 17:10:48.148841 24283 net.cpp:150] Setting up inception_3b/prelu_5x5_reduce
I1105 17:10:48.148854 24283 net.cpp:157] Top shape: 32 32 28 28 (802816)
I1105 17:10:48.148861 24283 net.cpp:165] Memory required for data: 973013504
I1105 17:10:48.148880 24283 layer_factory.hpp:76] Creating layer inception_3b/5x5
I1105 17:10:48.148895 24283 net.cpp:106] Creating Layer inception_3b/5x5
I1105 17:10:48.148905 24283 net.cpp:454] inception_3b/5x5 <- inception_3b/5x5_reduce
I1105 17:10:48.148933 24283 net.cpp:411] inception_3b/5x5 -> inception_3b/5x5
I1105 17:10:48.150516 24283 cudnn_conv_layer.cpp:194] Reallocating workspace storage: 20664
I1105 17:10:48.150544 24283 net.cpp:150] Setting up inception_3b/5x5
I1105 17:10:48.150559 24283 net.cpp:157] Top shape: 32 96 28 28 (2408448)
I1105 17:10:48.150569 24283 net.cpp:165] Memory required for data: 982647296
I1105 17:10:48.150584 24283 layer_factory.hpp:76] Creating layer inception_3b/prelu_5x5
I1105 17:10:48.150600 24283 net.cpp:106] Creating Layer inception_3b/prelu_5x5
I1105 17:10:48.150611 24283 net.cpp:454] inception_3b/prelu_5x5 <- inception_3b/5x5
I1105 17:10:48.150624 24283 net.cpp:397] inception_3b/prelu_5x5 -> inception_3b/5x5 (in-place)
I1105 17:10:48.150776 24283 net.cpp:150] Setting up inception_3b/prelu_5x5
I1105 17:10:48.150789 24283 net.cpp:157] Top shape: 32 96 28 28 (2408448)
I1105 17:10:48.150797 24283 net.cpp:165] Memory required for data: 992281088
I1105 17:10:48.150809 24283 layer_factory.hpp:76] Creating layer inception_3b/pool
I1105 17:10:48.150822 24283 net.cpp:106] Creating Layer inception_3b/pool
I1105 17:10:48.150833 24283 net.cpp:454] inception_3b/pool <- inception_3a/output_inception_3a/output_0_split_3
I1105 17:10:48.150846 24283 net.cpp:411] inception_3b/pool -> inception_3b/pool
I1105 17:10:48.151270 24283 net.cpp:150] Setting up inception_3b/pool
I1105 17:10:48.151286 24283 net.cpp:157] Top shape: 32 256 28 28 (6422528)
I1105 17:10:48.151295 24283 net.cpp:165] Memory required for data: 1017971200
I1105 17:10:48.151316 24283 layer_factory.hpp:76] Creating layer inception_3b/pool_proj
I1105 17:10:48.151334 24283 net.cpp:106] Creating Layer inception_3b/pool_proj
I1105 17:10:48.151345 24283 net.cpp:454] inception_3b/pool_proj <- inception_3b/pool
I1105 17:10:48.151358 24283 net.cpp:411] inception_3b/pool_proj -> inception_3b/pool_proj
I1105 17:10:48.152493 24283 cudnn_conv_layer.cpp:194] Reallocating workspace storage: 20664
I1105 17:10:48.152519 24283 net.cpp:150] Setting up inception_3b/pool_proj
I1105 17:10:48.152534 24283 net.cpp:157] Top shape: 32 64 28 28 (1605632)
I1105 17:10:48.152545 24283 net.cpp:165] Memory required for data: 1024393728
I1105 17:10:48.152560 24283 layer_factory.hpp:76] Creating layer inception_3b/prelu_pool_proj
I1105 17:10:48.152577 24283 net.cpp:106] Creating Layer inception_3b/prelu_pool_proj
I1105 17:10:48.152590 24283 net.cpp:454] inception_3b/prelu_pool_proj <- inception_3b/pool_proj
I1105 17:10:48.152603 24283 net.cpp:397] inception_3b/prelu_pool_proj -> inception_3b/pool_proj (in-place)
I1105 17:10:48.152739 24283 net.cpp:150] Setting up inception_3b/prelu_pool_proj
I1105 17:10:48.152751 24283 net.cpp:157] Top shape: 32 64 28 28 (1605632)
I1105 17:10:48.152779 24283 net.cpp:165] Memory required for data: 1030816256
I1105 17:10:48.152793 24283 layer_factory.hpp:76] Creating layer inception_3b/output
I1105 17:10:48.152806 24283 net.cpp:106] Creating Layer inception_3b/output
I1105 17:10:48.152814 24283 net.cpp:454] inception_3b/output <- inception_3b/1x1
I1105 17:10:48.152825 24283 net.cpp:454] inception_3b/output <- inception_3b/3x3
I1105 17:10:48.152837 24283 net.cpp:454] inception_3b/output <- inception_3b/5x5
I1105 17:10:48.152848 24283 net.cpp:454] inception_3b/output <- inception_3b/pool_proj
I1105 17:10:48.152859 24283 net.cpp:411] inception_3b/output -> inception_3b/output
I1105 17:10:48.152894 24283 net.cpp:150] Setting up inception_3b/output
I1105 17:10:48.152906 24283 net.cpp:157] Top shape: 32 480 28 28 (12042240)
I1105 17:10:48.152915 24283 net.cpp:165] Memory required for data: 1078985216
I1105 17:10:48.152922 24283 layer_factory.hpp:76] Creating layer pool3/3x3_s2
I1105 17:10:48.152936 24283 net.cpp:106] Creating Layer pool3/3x3_s2
I1105 17:10:48.152945 24283 net.cpp:454] pool3/3x3_s2 <- inception_3b/output
I1105 17:10:48.152958 24283 net.cpp:411] pool3/3x3_s2 -> pool3/3x3_s2
I1105 17:10:48.153343 24283 net.cpp:150] Setting up pool3/3x3_s2
I1105 17:10:48.153358 24283 net.cpp:157] Top shape: 32 480 14 14 (3010560)
I1105 17:10:48.153367 24283 net.cpp:165] Memory required for data: 1091027456
I1105 17:10:48.153375 24283 layer_factory.hpp:76] Creating layer pool3/3x3_s2_pool3/3x3_s2_0_split
I1105 17:10:48.153388 24283 net.cpp:106] Creating Layer pool3/3x3_s2_pool3/3x3_s2_0_split
I1105 17:10:48.153396 24283 net.cpp:454] pool3/3x3_s2_pool3/3x3_s2_0_split <- pool3/3x3_s2
I1105 17:10:48.153408 24283 net.cpp:411] pool3/3x3_s2_pool3/3x3_s2_0_split -> pool3/3x3_s2_pool3/3x3_s2_0_split_0
I1105 17:10:48.153421 24283 net.cpp:411] pool3/3x3_s2_pool3/3x3_s2_0_split -> pool3/3x3_s2_pool3/3x3_s2_0_split_1
I1105 17:10:48.153434 24283 net.cpp:411] pool3/3x3_s2_pool3/3x3_s2_0_split -> pool3/3x3_s2_pool3/3x3_s2_0_split_2
I1105 17:10:48.153450 24283 net.cpp:411] pool3/3x3_s2_pool3/3x3_s2_0_split -> pool3/3x3_s2_pool3/3x3_s2_0_split_3
I1105 17:10:48.153512 24283 net.cpp:150] Setting up pool3/3x3_s2_pool3/3x3_s2_0_split
I1105 17:10:48.153524 24283 net.cpp:157] Top shape: 32 480 14 14 (3010560)
I1105 17:10:48.153535 24283 net.cpp:157] Top shape: 32 480 14 14 (3010560)
I1105 17:10:48.153547 24283 net.cpp:157] Top shape: 32 480 14 14 (3010560)
I1105 17:10:48.153556 24283 net.cpp:157] Top shape: 32 480 14 14 (3010560)
I1105 17:10:48.153565 24283 net.cpp:165] Memory required for data: 1139196416
I1105 17:10:48.153573 24283 layer_factory.hpp:76] Creating layer inception_4a/1x1
I1105 17:10:48.153589 24283 net.cpp:106] Creating Layer inception_4a/1x1
I1105 17:10:48.153599 24283 net.cpp:454] inception_4a/1x1 <- pool3/3x3_s2_pool3/3x3_s2_0_split_0
I1105 17:10:48.153612 24283 net.cpp:411] inception_4a/1x1 -> inception_4a/1x1
I1105 17:10:48.155699 24283 cudnn_conv_layer.cpp:194] Reallocating workspace storage: 10080
I1105 17:10:48.155913 24283 net.cpp:150] Setting up inception_4a/1x1
I1105 17:10:48.155930 24283 net.cpp:157] Top shape: 32 192 14 14 (1204224)
I1105 17:10:48.155938 24283 net.cpp:165] Memory required for data: 1144013312
I1105 17:10:48.155953 24283 layer_factory.hpp:76] Creating layer inception_4a/prelu_1x1
I1105 17:10:48.155967 24283 net.cpp:106] Creating Layer inception_4a/prelu_1x1
I1105 17:10:48.155978 24283 net.cpp:454] inception_4a/prelu_1x1 <- inception_4a/1x1
I1105 17:10:48.155992 24283 net.cpp:397] inception_4a/prelu_1x1 -> inception_4a/1x1 (in-place)
I1105 17:10:48.156561 24283 net.cpp:150] Setting up inception_4a/prelu_1x1
I1105 17:10:48.156576 24283 net.cpp:157] Top shape: 32 192 14 14 (1204224)
I1105 17:10:48.156584 24283 net.cpp:165] Memory required for data: 1148830208
I1105 17:10:48.156595 24283 layer_factory.hpp:76] Creating layer inception_4a/3x3_reduce
I1105 17:10:48.156611 24283 net.cpp:106] Creating Layer inception_4a/3x3_reduce
I1105 17:10:48.156622 24283 net.cpp:454] inception_4a/3x3_reduce <- pool3/3x3_s2_pool3/3x3_s2_0_split_1
I1105 17:10:48.156636 24283 net.cpp:411] inception_4a/3x3_reduce -> inception_4a/3x3_reduce
I1105 17:10:48.157932 24283 cudnn_conv_layer.cpp:194] Reallocating workspace storage: 10080
I1105 17:10:48.157968 24283 net.cpp:150] Setting up inception_4a/3x3_reduce
I1105 17:10:48.157982 24283 net.cpp:157] Top shape: 32 96 14 14 (602112)
I1105 17:10:48.157991 24283 net.cpp:165] Memory required for data: 1151238656
I1105 17:10:48.158006 24283 layer_factory.hpp:76] Creating layer inception_4a/prelu_3x3_reduce
I1105 17:10:48.158022 24283 net.cpp:106] Creating Layer inception_4a/prelu_3x3_reduce
I1105 17:10:48.158033 24283 net.cpp:454] inception_4a/prelu_3x3_reduce <- inception_4a/3x3_reduce
I1105 17:10:48.158046 24283 net.cpp:397] inception_4a/prelu_3x3_reduce -> inception_4a/3x3_reduce (in-place)
I1105 17:10:48.158146 24283 net.cpp:150] Setting up inception_4a/prelu_3x3_reduce
I1105 17:10:48.158159 24283 net.cpp:157] Top shape: 32 96 14 14 (602112)
I1105 17:10:48.158166 24283 net.cpp:165] Memory required for data: 1153647104
I1105 17:10:48.158177 24283 layer_factory.hpp:76] Creating layer inception_4a/3x3
I1105 17:10:48.158192 24283 net.cpp:106] Creating Layer inception_4a/3x3
I1105 17:10:48.158205 24283 net.cpp:454] inception_4a/3x3 <- inception_4a/3x3_reduce
I1105 17:10:48.158217 24283 net.cpp:411] inception_4a/3x3 -> inception_4a/3x3
I1105 17:10:48.160500 24283 cudnn_conv_layer.cpp:194] Reallocating workspace storage: 10080
I1105 17:10:48.160532 24283 net.cpp:150] Setting up inception_4a/3x3
I1105 17:10:48.160547 24283 net.cpp:157] Top shape: 32 208 14 14 (1304576)
I1105 17:10:48.160555 24283 net.cpp:165] Memory required for data: 1158865408
I1105 17:10:48.160569 24283 layer_factory.hpp:76] Creating layer inception_4a/prelu_3x3
I1105 17:10:48.160585 24283 net.cpp:106] Creating Layer inception_4a/prelu_3x3
I1105 17:10:48.160596 24283 net.cpp:454] inception_4a/prelu_3x3 <- inception_4a/3x3
I1105 17:10:48.160609 24283 net.cpp:397] inception_4a/prelu_3x3 -> inception_4a/3x3 (in-place)
I1105 17:10:48.160717 24283 net.cpp:150] Setting up inception_4a/prelu_3x3
I1105 17:10:48.160729 24283 net.cpp:157] Top shape: 32 208 14 14 (1304576)
I1105 17:10:48.160738 24283 net.cpp:165] Memory required for data: 1164083712
I1105 17:10:48.160749 24283 layer_factory.hpp:76] Creating layer inception_4a/5x5_reduce
I1105 17:10:48.160763 24283 net.cpp:106] Creating Layer inception_4a/5x5_reduce
I1105 17:10:48.160775 24283 net.cpp:454] inception_4a/5x5_reduce <- pool3/3x3_s2_pool3/3x3_s2_0_split_2
I1105 17:10:48.160789 24283 net.cpp:411] inception_4a/5x5_reduce -> inception_4a/5x5_reduce
I1105 17:10:48.161793 24283 cudnn_conv_layer.cpp:194] Reallocating workspace storage: 10080
I1105 17:10:48.161823 24283 net.cpp:150] Setting up inception_4a/5x5_reduce
I1105 17:10:48.161836 24283 net.cpp:157] Top shape: 32 16 14 14 (100352)
I1105 17:10:48.161845 24283 net.cpp:165] Memory required for data: 1164485120
I1105 17:10:48.161859 24283 layer_factory.hpp:76] Creating layer inception_4a/prelu_5x5_reduce
I1105 17:10:48.161875 24283 net.cpp:106] Creating Layer inception_4a/prelu_5x5_reduce
I1105 17:10:48.161885 24283 net.cpp:454] inception_4a/prelu_5x5_reduce <- inception_4a/5x5_reduce
I1105 17:10:48.161898 24283 net.cpp:397] inception_4a/prelu_5x5_reduce -> inception_4a/5x5_reduce (in-place)
I1105 17:10:48.161990 24283 net.cpp:150] Setting up inception_4a/prelu_5x5_reduce
I1105 17:10:48.162003 24283 net.cpp:157] Top shape: 32 16 14 14 (100352)
I1105 17:10:48.162010 24283 net.cpp:165] Memory required for data: 1164886528
I1105 17:10:48.162021 24283 layer_factory.hpp:76] Creating layer inception_4a/5x5
I1105 17:10:48.162035 24283 net.cpp:106] Creating Layer inception_4a/5x5
I1105 17:10:48.162046 24283 net.cpp:454] inception_4a/5x5 <- inception_4a/5x5_reduce
I1105 17:10:48.162060 24283 net.cpp:411] inception_4a/5x5 -> inception_4a/5x5
I1105 17:10:48.163146 24283 cudnn_conv_layer.cpp:194] Reallocating workspace storage: 13080
I1105 17:10:48.163187 24283 net.cpp:150] Setting up inception_4a/5x5
I1105 17:10:48.163200 24283 net.cpp:157] Top shape: 32 48 14 14 (301056)
I1105 17:10:48.163208 24283 net.cpp:165] Memory required for data: 1166090752
I1105 17:10:48.163239 24283 layer_factory.hpp:76] Creating layer inception_4a/prelu_5x5
I1105 17:10:48.163254 24283 net.cpp:106] Creating Layer inception_4a/prelu_5x5
I1105 17:10:48.163265 24283 net.cpp:454] inception_4a/prelu_5x5 <- inception_4a/5x5
I1105 17:10:48.163280 24283 net.cpp:397] inception_4a/prelu_5x5 -> inception_4a/5x5 (in-place)
I1105 17:10:48.163389 24283 net.cpp:150] Setting up inception_4a/prelu_5x5
I1105 17:10:48.163401 24283 net.cpp:157] Top shape: 32 48 14 14 (301056)
I1105 17:10:48.163409 24283 net.cpp:165] Memory required for data: 1167294976
I1105 17:10:48.163420 24283 layer_factory.hpp:76] Creating layer inception_4a/pool
I1105 17:10:48.163434 24283 net.cpp:106] Creating Layer inception_4a/pool
I1105 17:10:48.163442 24283 net.cpp:454] inception_4a/pool <- pool3/3x3_s2_pool3/3x3_s2_0_split_3
I1105 17:10:48.163453 24283 net.cpp:411] inception_4a/pool -> inception_4a/pool
I1105 17:10:48.163818 24283 net.cpp:150] Setting up inception_4a/pool
I1105 17:10:48.163833 24283 net.cpp:157] Top shape: 32 480 14 14 (3010560)
I1105 17:10:48.163841 24283 net.cpp:165] Memory required for data: 1179337216
I1105 17:10:48.163849 24283 layer_factory.hpp:76] Creating layer inception_4a/pool_proj
I1105 17:10:48.163863 24283 net.cpp:106] Creating Layer inception_4a/pool_proj
I1105 17:10:48.163873 24283 net.cpp:454] inception_4a/pool_proj <- inception_4a/pool
I1105 17:10:48.163885 24283 net.cpp:411] inception_4a/pool_proj -> inception_4a/pool_proj
I1105 17:10:48.164824 24283 cudnn_conv_layer.cpp:194] Reallocating workspace storage: 10080
I1105 17:10:48.164860 24283 net.cpp:150] Setting up inception_4a/pool_proj
I1105 17:10:48.164872 24283 net.cpp:157] Top shape: 32 64 14 14 (401408)
I1105 17:10:48.164880 24283 net.cpp:165] Memory required for data: 1180942848
I1105 17:10:48.164896 24283 layer_factory.hpp:76] Creating layer inception_4a/prelu_pool_proj
I1105 17:10:48.164907 24283 net.cpp:106] Creating Layer inception_4a/prelu_pool_proj
I1105 17:10:48.164918 24283 net.cpp:454] inception_4a/prelu_pool_proj <- inception_4a/pool_proj
I1105 17:10:48.164932 24283 net.cpp:397] inception_4a/prelu_pool_proj -> inception_4a/pool_proj (in-place)
I1105 17:10:48.165035 24283 net.cpp:150] Setting up inception_4a/prelu_pool_proj
I1105 17:10:48.165046 24283 net.cpp:157] Top shape: 32 64 14 14 (401408)
I1105 17:10:48.165055 24283 net.cpp:165] Memory required for data: 1182548480
I1105 17:10:48.165066 24283 layer_factory.hpp:76] Creating layer inception_4a/output
I1105 17:10:48.165093 24283 net.cpp:106] Creating Layer inception_4a/output
I1105 17:10:48.165104 24283 net.cpp:454] inception_4a/output <- inception_4a/1x1
I1105 17:10:48.165114 24283 net.cpp:454] inception_4a/output <- inception_4a/3x3
I1105 17:10:48.165124 24283 net.cpp:454] inception_4a/output <- inception_4a/5x5
I1105 17:10:48.165134 24283 net.cpp:454] inception_4a/output <- inception_4a/pool_proj
I1105 17:10:48.165145 24283 net.cpp:411] inception_4a/output -> inception_4a/output
I1105 17:10:48.165180 24283 net.cpp:150] Setting up inception_4a/output
I1105 17:10:48.165192 24283 net.cpp:157] Top shape: 32 512 14 14 (3211264)
I1105 17:10:48.165200 24283 net.cpp:165] Memory required for data: 1195393536
I1105 17:10:48.165210 24283 layer_factory.hpp:76] Creating layer inception_4a/output_inception_4a/output_0_split
I1105 17:10:48.165220 24283 net.cpp:106] Creating Layer inception_4a/output_inception_4a/output_0_split
I1105 17:10:48.165230 24283 net.cpp:454] inception_4a/output_inception_4a/output_0_split <- inception_4a/output
I1105 17:10:48.165241 24283 net.cpp:411] inception_4a/output_inception_4a/output_0_split -> inception_4a/output_inception_4a/output_0_split_0
I1105 17:10:48.165254 24283 net.cpp:411] inception_4a/output_inception_4a/output_0_split -> inception_4a/output_inception_4a/output_0_split_1
I1105 17:10:48.165269 24283 net.cpp:411] inception_4a/output_inception_4a/output_0_split -> inception_4a/output_inception_4a/output_0_split_2
I1105 17:10:48.165285 24283 net.cpp:411] inception_4a/output_inception_4a/output_0_split -> inception_4a/output_inception_4a/output_0_split_3
I1105 17:10:48.165309 24283 net.cpp:411] inception_4a/output_inception_4a/output_0_split -> inception_4a/output_inception_4a/output_0_split_4
I1105 17:10:48.165381 24283 net.cpp:150] Setting up inception_4a/output_inception_4a/output_0_split
I1105 17:10:48.165393 24283 net.cpp:157] Top shape: 32 512 14 14 (3211264)
I1105 17:10:48.165403 24283 net.cpp:157] Top shape: 32 512 14 14 (3211264)
I1105 17:10:48.165413 24283 net.cpp:157] Top shape: 32 512 14 14 (3211264)
I1105 17:10:48.165423 24283 net.cpp:157] Top shape: 32 512 14 14 (3211264)
I1105 17:10:48.165433 24283 net.cpp:157] Top shape: 32 512 14 14 (3211264)
I1105 17:10:48.165441 24283 net.cpp:165] Memory required for data: 1259618816
I1105 17:10:48.165449 24283 layer_factory.hpp:76] Creating layer loss1/ave_pool
I1105 17:10:48.165462 24283 net.cpp:106] Creating Layer loss1/ave_pool
I1105 17:10:48.165470 24283 net.cpp:454] loss1/ave_pool <- inception_4a/output_inception_4a/output_0_split_0
I1105 17:10:48.165482 24283 net.cpp:411] loss1/ave_pool -> loss1/ave_pool
I1105 17:10:48.165830 24283 net.cpp:150] Setting up loss1/ave_pool
I1105 17:10:48.165843 24283 net.cpp:157] Top shape: 32 512 4 4 (262144)
I1105 17:10:48.165853 24283 net.cpp:165] Memory required for data: 1260667392
I1105 17:10:48.165860 24283 layer_factory.hpp:76] Creating layer loss1/conv
I1105 17:10:48.165874 24283 net.cpp:106] Creating Layer loss1/conv
I1105 17:10:48.165882 24283 net.cpp:454] loss1/conv <- loss1/ave_pool
I1105 17:10:48.165895 24283 net.cpp:411] loss1/conv -> loss1/conv
I1105 17:10:48.167209 24283 cudnn_conv_layer.cpp:194] Reallocating workspace storage: 6840
I1105 17:10:48.167239 24283 net.cpp:150] Setting up loss1/conv
I1105 17:10:48.167253 24283 net.cpp:157] Top shape: 32 128 4 4 (65536)
I1105 17:10:48.167260 24283 net.cpp:165] Memory required for data: 1260929536
I1105 17:10:48.167286 24283 layer_factory.hpp:76] Creating layer loss1/prelu_conv
I1105 17:10:48.167299 24283 net.cpp:106] Creating Layer loss1/prelu_conv
I1105 17:10:48.167310 24283 net.cpp:454] loss1/prelu_conv <- loss1/conv
I1105 17:10:48.167322 24283 net.cpp:397] loss1/prelu_conv -> loss1/conv (in-place)
I1105 17:10:48.167414 24283 net.cpp:150] Setting up loss1/prelu_conv
I1105 17:10:48.167428 24283 net.cpp:157] Top shape: 32 128 4 4 (65536)
I1105 17:10:48.167435 24283 net.cpp:165] Memory required for data: 1261191680
I1105 17:10:48.167446 24283 layer_factory.hpp:76] Creating layer loss1/fc
I1105 17:10:48.167465 24283 net.cpp:106] Creating Layer loss1/fc
I1105 17:10:48.167474 24283 net.cpp:454] loss1/fc <- loss1/conv
I1105 17:10:48.167486 24283 net.cpp:411] loss1/fc -> loss1/fc
I1105 17:10:48.182159 24283 net.cpp:150] Setting up loss1/fc
I1105 17:10:48.182200 24283 net.cpp:157] Top shape: 32 1024 (32768)
I1105 17:10:48.182209 24283 net.cpp:165] Memory required for data: 1261322752
I1105 17:10:48.182227 24283 layer_factory.hpp:76] Creating layer loss1/prelu_fc
I1105 17:10:48.182255 24283 net.cpp:106] Creating Layer loss1/prelu_fc
I1105 17:10:48.182271 24283 net.cpp:454] loss1/prelu_fc <- loss1/fc
I1105 17:10:48.182292 24283 net.cpp:397] loss1/prelu_fc -> loss1/fc (in-place)
I1105 17:10:48.182399 24283 net.cpp:150] Setting up loss1/prelu_fc
I1105 17:10:48.182411 24283 net.cpp:157] Top shape: 32 1024 (32768)
I1105 17:10:48.182420 24283 net.cpp:165] Memory required for data: 1261453824
I1105 17:10:48.182438 24283 layer_factory.hpp:76] Creating layer loss1/drop_fc
I1105 17:10:48.182468 24283 net.cpp:106] Creating Layer loss1/drop_fc
I1105 17:10:48.182484 24283 net.cpp:454] loss1/drop_fc <- loss1/fc
I1105 17:10:48.182495 24283 net.cpp:397] loss1/drop_fc -> loss1/fc (in-place)
I1105 17:10:48.182538 24283 net.cpp:150] Setting up loss1/drop_fc
I1105 17:10:48.182549 24283 net.cpp:157] Top shape: 32 1024 (32768)
I1105 17:10:48.182557 24283 net.cpp:165] Memory required for data: 1261584896
I1105 17:10:48.182567 24283 layer_factory.hpp:76] Creating layer loss1/classifier2
I1105 17:10:48.182580 24283 net.cpp:106] Creating Layer loss1/classifier2
I1105 17:10:48.182590 24283 net.cpp:454] loss1/classifier2 <- loss1/fc
I1105 17:10:48.182618 24283 net.cpp:411] loss1/classifier2 -> loss1/classifier
I1105 17:10:48.182739 24283 net.cpp:150] Setting up loss1/classifier2
I1105 17:10:48.182751 24283 net.cpp:157] Top shape: 32 2 (64)
I1105 17:10:48.182767 24283 net.cpp:165] Memory required for data: 1261585152
I1105 17:10:48.182781 24283 layer_factory.hpp:76] Creating layer loss1/loss
I1105 17:10:48.182803 24283 net.cpp:106] Creating Layer loss1/loss
I1105 17:10:48.182814 24283 net.cpp:454] loss1/loss <- loss1/classifier
I1105 17:10:48.182826 24283 net.cpp:454] loss1/loss <- label_data_1_split_0
I1105 17:10:48.182837 24283 net.cpp:411] loss1/loss -> loss1/loss1
I1105 17:10:48.182862 24283 layer_factory.hpp:76] Creating layer loss1/loss
I1105 17:10:48.183187 24283 net.cpp:150] Setting up loss1/loss
I1105 17:10:48.183199 24283 net.cpp:157] Top shape: (1)
I1105 17:10:48.183209 24283 net.cpp:160]     with loss weight 0.3
I1105 17:10:48.183243 24283 net.cpp:165] Memory required for data: 1261585156
I1105 17:10:48.183253 24283 layer_factory.hpp:76] Creating layer inception_4b/1x1
I1105 17:10:48.183269 24283 net.cpp:106] Creating Layer inception_4b/1x1
I1105 17:10:48.183280 24283 net.cpp:454] inception_4b/1x1 <- inception_4a/output_inception_4a/output_0_split_1
I1105 17:10:48.183295 24283 net.cpp:411] inception_4b/1x1 -> inception_4b/1x1
I1105 17:10:48.185027 24283 cudnn_conv_layer.cpp:194] Reallocating workspace storage: 10080
I1105 17:10:48.185086 24283 net.cpp:150] Setting up inception_4b/1x1
I1105 17:10:48.185102 24283 net.cpp:157] Top shape: 32 160 14 14 (1003520)
I1105 17:10:48.185111 24283 net.cpp:165] Memory required for data: 1265599236
I1105 17:10:48.185127 24283 layer_factory.hpp:76] Creating layer inception_4b/prelu_1x1
I1105 17:10:48.185145 24283 net.cpp:106] Creating Layer inception_4b/prelu_1x1
I1105 17:10:48.185156 24283 net.cpp:454] inception_4b/prelu_1x1 <- inception_4b/1x1
I1105 17:10:48.185170 24283 net.cpp:397] inception_4b/prelu_1x1 -> inception_4b/1x1 (in-place)
I1105 17:10:48.185889 24283 net.cpp:150] Setting up inception_4b/prelu_1x1
I1105 17:10:48.185907 24283 net.cpp:157] Top shape: 32 160 14 14 (1003520)
I1105 17:10:48.185925 24283 net.cpp:165] Memory required for data: 1269613316
I1105 17:10:48.185937 24283 layer_factory.hpp:76] Creating layer inception_4b/3x3_reduce
I1105 17:10:48.185976 24283 net.cpp:106] Creating Layer inception_4b/3x3_reduce
I1105 17:10:48.185987 24283 net.cpp:454] inception_4b/3x3_reduce <- inception_4a/output_inception_4a/output_0_split_2
I1105 17:10:48.186002 24283 net.cpp:411] inception_4b/3x3_reduce -> inception_4b/3x3_reduce
I1105 17:10:48.187618 24283 cudnn_conv_layer.cpp:194] Reallocating workspace storage: 10080
I1105 17:10:48.187656 24283 net.cpp:150] Setting up inception_4b/3x3_reduce
I1105 17:10:48.187669 24283 net.cpp:157] Top shape: 32 112 14 14 (702464)
I1105 17:10:48.187679 24283 net.cpp:165] Memory required for data: 1272423172
I1105 17:10:48.187693 24283 layer_factory.hpp:76] Creating layer inception_4b/prelu_3x3_reduce
I1105 17:10:48.187711 24283 net.cpp:106] Creating Layer inception_4b/prelu_3x3_reduce
I1105 17:10:48.187722 24283 net.cpp:454] inception_4b/prelu_3x3_reduce <- inception_4b/3x3_reduce
I1105 17:10:48.187736 24283 net.cpp:397] inception_4b/prelu_3x3_reduce -> inception_4b/3x3_reduce (in-place)
I1105 17:10:48.187850 24283 net.cpp:150] Setting up inception_4b/prelu_3x3_reduce
I1105 17:10:48.187865 24283 net.cpp:157] Top shape: 32 112 14 14 (702464)
I1105 17:10:48.187872 24283 net.cpp:165] Memory required for data: 1275233028
I1105 17:10:48.187885 24283 layer_factory.hpp:76] Creating layer inception_4b/3x3
I1105 17:10:48.187899 24283 net.cpp:106] Creating Layer inception_4b/3x3
I1105 17:10:48.187909 24283 net.cpp:454] inception_4b/3x3 <- inception_4b/3x3_reduce
I1105 17:10:48.187923 24283 net.cpp:411] inception_4b/3x3 -> inception_4b/3x3
I1105 17:10:48.190749 24283 cudnn_conv_layer.cpp:194] Reallocating workspace storage: 10080
I1105 17:10:48.190785 24283 net.cpp:150] Setting up inception_4b/3x3
I1105 17:10:48.190801 24283 net.cpp:157] Top shape: 32 224 14 14 (1404928)
I1105 17:10:48.190826 24283 net.cpp:165] Memory required for data: 1280852740
I1105 17:10:48.190841 24283 layer_factory.hpp:76] Creating layer inception_4b/prelu_3x3
I1105 17:10:48.190858 24283 net.cpp:106] Creating Layer inception_4b/prelu_3x3
I1105 17:10:48.190870 24283 net.cpp:454] inception_4b/prelu_3x3 <- inception_4b/3x3
I1105 17:10:48.190882 24283 net.cpp:397] inception_4b/prelu_3x3 -> inception_4b/3x3 (in-place)
I1105 17:10:48.191016 24283 net.cpp:150] Setting up inception_4b/prelu_3x3
I1105 17:10:48.191030 24283 net.cpp:157] Top shape: 32 224 14 14 (1404928)
I1105 17:10:48.191038 24283 net.cpp:165] Memory required for data: 1286472452
I1105 17:10:48.191051 24283 layer_factory.hpp:76] Creating layer inception_4b/5x5_reduce
I1105 17:10:48.191066 24283 net.cpp:106] Creating Layer inception_4b/5x5_reduce
I1105 17:10:48.191076 24283 net.cpp:454] inception_4b/5x5_reduce <- inception_4a/output_inception_4a/output_0_split_3
I1105 17:10:48.191090 24283 net.cpp:411] inception_4b/5x5_reduce -> inception_4b/5x5_reduce
I1105 17:10:48.191992 24283 cudnn_conv_layer.cpp:194] Reallocating workspace storage: 10080
I1105 17:10:48.192021 24283 net.cpp:150] Setting up inception_4b/5x5_reduce
I1105 17:10:48.192035 24283 net.cpp:157] Top shape: 32 24 14 14 (150528)
I1105 17:10:48.192044 24283 net.cpp:165] Memory required for data: 1287074564
I1105 17:10:48.192059 24283 layer_factory.hpp:76] Creating layer inception_4b/prelu_5x5_reduce
I1105 17:10:48.192075 24283 net.cpp:106] Creating Layer inception_4b/prelu_5x5_reduce
I1105 17:10:48.192086 24283 net.cpp:454] inception_4b/prelu_5x5_reduce <- inception_4b/5x5_reduce
I1105 17:10:48.192100 24283 net.cpp:397] inception_4b/prelu_5x5_reduce -> inception_4b/5x5_reduce (in-place)
I1105 17:10:48.192200 24283 net.cpp:150] Setting up inception_4b/prelu_5x5_reduce
I1105 17:10:48.192214 24283 net.cpp:157] Top shape: 32 24 14 14 (150528)
I1105 17:10:48.192221 24283 net.cpp:165] Memory required for data: 1287676676
I1105 17:10:48.192234 24283 layer_factory.hpp:76] Creating layer inception_4b/5x5
I1105 17:10:48.192247 24283 net.cpp:106] Creating Layer inception_4b/5x5
I1105 17:10:48.192260 24283 net.cpp:454] inception_4b/5x5 <- inception_4b/5x5_reduce
I1105 17:10:48.192272 24283 net.cpp:411] inception_4b/5x5 -> inception_4b/5x5
I1105 17:10:48.193495 24283 cudnn_conv_layer.cpp:194] Reallocating workspace storage: 13080
I1105 17:10:48.193524 24283 net.cpp:150] Setting up inception_4b/5x5
I1105 17:10:48.193538 24283 net.cpp:157] Top shape: 32 64 14 14 (401408)
I1105 17:10:48.193547 24283 net.cpp:165] Memory required for data: 1289282308
I1105 17:10:48.193560 24283 layer_factory.hpp:76] Creating layer inception_4b/prelu_5x5
I1105 17:10:48.193573 24283 net.cpp:106] Creating Layer inception_4b/prelu_5x5
I1105 17:10:48.193584 24283 net.cpp:454] inception_4b/prelu_5x5 <- inception_4b/5x5
I1105 17:10:48.193596 24283 net.cpp:397] inception_4b/prelu_5x5 -> inception_4b/5x5 (in-place)
I1105 17:10:48.193704 24283 net.cpp:150] Setting up inception_4b/prelu_5x5
I1105 17:10:48.193717 24283 net.cpp:157] Top shape: 32 64 14 14 (401408)
I1105 17:10:48.193724 24283 net.cpp:165] Memory required for data: 1290887940
I1105 17:10:48.193737 24283 layer_factory.hpp:76] Creating layer inception_4b/pool
I1105 17:10:48.193749 24283 net.cpp:106] Creating Layer inception_4b/pool
I1105 17:10:48.193758 24283 net.cpp:454] inception_4b/pool <- inception_4a/output_inception_4a/output_0_split_4
I1105 17:10:48.193769 24283 net.cpp:411] inception_4b/pool -> inception_4b/pool
I1105 17:10:48.194147 24283 net.cpp:150] Setting up inception_4b/pool
I1105 17:10:48.194162 24283 net.cpp:157] Top shape: 32 512 14 14 (3211264)
I1105 17:10:48.194170 24283 net.cpp:165] Memory required for data: 1303732996
I1105 17:10:48.194180 24283 layer_factory.hpp:76] Creating layer inception_4b/pool_proj
I1105 17:10:48.194193 24283 net.cpp:106] Creating Layer inception_4b/pool_proj
I1105 17:10:48.194202 24283 net.cpp:454] inception_4b/pool_proj <- inception_4b/pool
I1105 17:10:48.194216 24283 net.cpp:411] inception_4b/pool_proj -> inception_4b/pool_proj
I1105 17:10:48.195402 24283 cudnn_conv_layer.cpp:194] Reallocating workspace storage: 10080
I1105 17:10:48.195437 24283 net.cpp:150] Setting up inception_4b/pool_proj
I1105 17:10:48.195451 24283 net.cpp:157] Top shape: 32 64 14 14 (401408)
I1105 17:10:48.195458 24283 net.cpp:165] Memory required for data: 1305338628
I1105 17:10:48.195472 24283 layer_factory.hpp:76] Creating layer inception_4b/prelu_pool_proj
I1105 17:10:48.195487 24283 net.cpp:106] Creating Layer inception_4b/prelu_pool_proj
I1105 17:10:48.195497 24283 net.cpp:454] inception_4b/prelu_pool_proj <- inception_4b/pool_proj
I1105 17:10:48.195510 24283 net.cpp:397] inception_4b/prelu_pool_proj -> inception_4b/pool_proj (in-place)
I1105 17:10:48.195615 24283 net.cpp:150] Setting up inception_4b/prelu_pool_proj
I1105 17:10:48.195626 24283 net.cpp:157] Top shape: 32 64 14 14 (401408)
I1105 17:10:48.195634 24283 net.cpp:165] Memory required for data: 1306944260
I1105 17:10:48.195646 24283 layer_factory.hpp:76] Creating layer inception_4b/output
I1105 17:10:48.195657 24283 net.cpp:106] Creating Layer inception_4b/output
I1105 17:10:48.195667 24283 net.cpp:454] inception_4b/output <- inception_4b/1x1
I1105 17:10:48.195677 24283 net.cpp:454] inception_4b/output <- inception_4b/3x3
I1105 17:10:48.195685 24283 net.cpp:454] inception_4b/output <- inception_4b/5x5
I1105 17:10:48.195695 24283 net.cpp:454] inception_4b/output <- inception_4b/pool_proj
I1105 17:10:48.195705 24283 net.cpp:411] inception_4b/output -> inception_4b/output
I1105 17:10:48.195742 24283 net.cpp:150] Setting up inception_4b/output
I1105 17:10:48.195754 24283 net.cpp:157] Top shape: 32 512 14 14 (3211264)
I1105 17:10:48.195762 24283 net.cpp:165] Memory required for data: 1319789316
I1105 17:10:48.195770 24283 layer_factory.hpp:76] Creating layer inception_4b/output_inception_4b/output_0_split
I1105 17:10:48.195782 24283 net.cpp:106] Creating Layer inception_4b/output_inception_4b/output_0_split
I1105 17:10:48.195791 24283 net.cpp:454] inception_4b/output_inception_4b/output_0_split <- inception_4b/output
I1105 17:10:48.195802 24283 net.cpp:411] inception_4b/output_inception_4b/output_0_split -> inception_4b/output_inception_4b/output_0_split_0
I1105 17:10:48.195816 24283 net.cpp:411] inception_4b/output_inception_4b/output_0_split -> inception_4b/output_inception_4b/output_0_split_1
I1105 17:10:48.195832 24283 net.cpp:411] inception_4b/output_inception_4b/output_0_split -> inception_4b/output_inception_4b/output_0_split_2
I1105 17:10:48.195845 24283 net.cpp:411] inception_4b/output_inception_4b/output_0_split -> inception_4b/output_inception_4b/output_0_split_3
I1105 17:10:48.195911 24283 net.cpp:150] Setting up inception_4b/output_inception_4b/output_0_split
I1105 17:10:48.195924 24283 net.cpp:157] Top shape: 32 512 14 14 (3211264)
I1105 17:10:48.195933 24283 net.cpp:157] Top shape: 32 512 14 14 (3211264)
I1105 17:10:48.195945 24283 net.cpp:157] Top shape: 32 512 14 14 (3211264)
I1105 17:10:48.195955 24283 net.cpp:157] Top shape: 32 512 14 14 (3211264)
I1105 17:10:48.195962 24283 net.cpp:165] Memory required for data: 1371169540
I1105 17:10:48.195971 24283 layer_factory.hpp:76] Creating layer inception_4c/1x1
I1105 17:10:48.195984 24283 net.cpp:106] Creating Layer inception_4c/1x1
I1105 17:10:48.195994 24283 net.cpp:454] inception_4c/1x1 <- inception_4b/output_inception_4b/output_0_split_0
I1105 17:10:48.196007 24283 net.cpp:411] inception_4c/1x1 -> inception_4c/1x1
I1105 17:10:48.197676 24283 cudnn_conv_layer.cpp:194] Reallocating workspace storage: 10080
I1105 17:10:48.197711 24283 net.cpp:150] Setting up inception_4c/1x1
I1105 17:10:48.197724 24283 net.cpp:157] Top shape: 32 128 14 14 (802816)
I1105 17:10:48.197733 24283 net.cpp:165] Memory required for data: 1374380804
I1105 17:10:48.197747 24283 layer_factory.hpp:76] Creating layer inception_4c/prelu_1x1
I1105 17:10:48.197763 24283 net.cpp:106] Creating Layer inception_4c/prelu_1x1
I1105 17:10:48.197774 24283 net.cpp:454] inception_4c/prelu_1x1 <- inception_4c/1x1
I1105 17:10:48.197787 24283 net.cpp:397] inception_4c/prelu_1x1 -> inception_4c/1x1 (in-place)
I1105 17:10:48.197904 24283 net.cpp:150] Setting up inception_4c/prelu_1x1
I1105 17:10:48.197917 24283 net.cpp:157] Top shape: 32 128 14 14 (802816)
I1105 17:10:48.197926 24283 net.cpp:165] Memory required for data: 1377592068
I1105 17:10:48.197937 24283 layer_factory.hpp:76] Creating layer inception_4c/3x3_reduce
I1105 17:10:48.197950 24283 net.cpp:106] Creating Layer inception_4c/3x3_reduce
I1105 17:10:48.197959 24283 net.cpp:454] inception_4c/3x3_reduce <- inception_4b/output_inception_4b/output_0_split_1
I1105 17:10:48.197973 24283 net.cpp:411] inception_4c/3x3_reduce -> inception_4c/3x3_reduce
I1105 17:10:48.199324 24283 cudnn_conv_layer.cpp:194] Reallocating workspace storage: 10080
I1105 17:10:48.199355 24283 net.cpp:150] Setting up inception_4c/3x3_reduce
I1105 17:10:48.199368 24283 net.cpp:157] Top shape: 32 128 14 14 (802816)
I1105 17:10:48.199375 24283 net.cpp:165] Memory required for data: 1380803332
I1105 17:10:48.199389 24283 layer_factory.hpp:76] Creating layer inception_4c/prelu_3x3_reduce
I1105 17:10:48.199404 24283 net.cpp:106] Creating Layer inception_4c/prelu_3x3_reduce
I1105 17:10:48.199415 24283 net.cpp:454] inception_4c/prelu_3x3_reduce <- inception_4c/3x3_reduce
I1105 17:10:48.199427 24283 net.cpp:397] inception_4c/prelu_3x3_reduce -> inception_4c/3x3_reduce (in-place)
I1105 17:10:48.199532 24283 net.cpp:150] Setting up inception_4c/prelu_3x3_reduce
I1105 17:10:48.199545 24283 net.cpp:157] Top shape: 32 128 14 14 (802816)
I1105 17:10:48.199553 24283 net.cpp:165] Memory required for data: 1384014596
I1105 17:10:48.199573 24283 layer_factory.hpp:76] Creating layer inception_4c/3x3
I1105 17:10:48.199587 24283 net.cpp:106] Creating Layer inception_4c/3x3
I1105 17:10:48.199596 24283 net.cpp:454] inception_4c/3x3 <- inception_4c/3x3_reduce
I1105 17:10:48.199618 24283 net.cpp:411] inception_4c/3x3 -> inception_4c/3x3
I1105 17:10:48.202795 24283 cudnn_conv_layer.cpp:194] Reallocating workspace storage: 10080
I1105 17:10:48.202837 24283 net.cpp:150] Setting up inception_4c/3x3
I1105 17:10:48.202852 24283 net.cpp:157] Top shape: 32 256 14 14 (1605632)
I1105 17:10:48.202862 24283 net.cpp:165] Memory required for data: 1390437124
I1105 17:10:48.202883 24283 layer_factory.hpp:76] Creating layer inception_4c/prelu_3x3
I1105 17:10:48.202896 24283 net.cpp:106] Creating Layer inception_4c/prelu_3x3
I1105 17:10:48.202908 24283 net.cpp:454] inception_4c/prelu_3x3 <- inception_4c/3x3
I1105 17:10:48.202920 24283 net.cpp:397] inception_4c/prelu_3x3 -> inception_4c/3x3 (in-place)
I1105 17:10:48.203039 24283 net.cpp:150] Setting up inception_4c/prelu_3x3
I1105 17:10:48.203052 24283 net.cpp:157] Top shape: 32 256 14 14 (1605632)
I1105 17:10:48.203059 24283 net.cpp:165] Memory required for data: 1396859652
I1105 17:10:48.203070 24283 layer_factory.hpp:76] Creating layer inception_4c/5x5_reduce
I1105 17:10:48.203084 24283 net.cpp:106] Creating Layer inception_4c/5x5_reduce
I1105 17:10:48.203094 24283 net.cpp:454] inception_4c/5x5_reduce <- inception_4b/output_inception_4b/output_0_split_2
I1105 17:10:48.203106 24283 net.cpp:411] inception_4c/5x5_reduce -> inception_4c/5x5_reduce
I1105 17:10:48.204156 24283 cudnn_conv_layer.cpp:194] Reallocating workspace storage: 10080
I1105 17:10:48.204187 24283 net.cpp:150] Setting up inception_4c/5x5_reduce
I1105 17:10:48.204200 24283 net.cpp:157] Top shape: 32 24 14 14 (150528)
I1105 17:10:48.204207 24283 net.cpp:165] Memory required for data: 1397461764
I1105 17:10:48.204221 24283 layer_factory.hpp:76] Creating layer inception_4c/prelu_5x5_reduce
I1105 17:10:48.204233 24283 net.cpp:106] Creating Layer inception_4c/prelu_5x5_reduce
I1105 17:10:48.204244 24283 net.cpp:454] inception_4c/prelu_5x5_reduce <- inception_4c/5x5_reduce
I1105 17:10:48.204255 24283 net.cpp:397] inception_4c/prelu_5x5_reduce -> inception_4c/5x5_reduce (in-place)
I1105 17:10:48.204355 24283 net.cpp:150] Setting up inception_4c/prelu_5x5_reduce
I1105 17:10:48.204367 24283 net.cpp:157] Top shape: 32 24 14 14 (150528)
I1105 17:10:48.204375 24283 net.cpp:165] Memory required for data: 1398063876
I1105 17:10:48.204402 24283 layer_factory.hpp:76] Creating layer inception_4c/5x5
I1105 17:10:48.204418 24283 net.cpp:106] Creating Layer inception_4c/5x5
I1105 17:10:48.204428 24283 net.cpp:454] inception_4c/5x5 <- inception_4c/5x5_reduce
I1105 17:10:48.204442 24283 net.cpp:411] inception_4c/5x5 -> inception_4c/5x5
I1105 17:10:48.206158 24283 cudnn_conv_layer.cpp:194] Reallocating workspace storage: 13080
I1105 17:10:48.206192 24283 net.cpp:150] Setting up inception_4c/5x5
I1105 17:10:48.206205 24283 net.cpp:157] Top shape: 32 64 14 14 (401408)
I1105 17:10:48.206214 24283 net.cpp:165] Memory required for data: 1399669508
I1105 17:10:48.206228 24283 layer_factory.hpp:76] Creating layer inception_4c/prelu_5x5
I1105 17:10:48.206243 24283 net.cpp:106] Creating Layer inception_4c/prelu_5x5
I1105 17:10:48.206254 24283 net.cpp:454] inception_4c/prelu_5x5 <- inception_4c/5x5
I1105 17:10:48.206267 24283 net.cpp:397] inception_4c/prelu_5x5 -> inception_4c/5x5 (in-place)
I1105 17:10:48.206379 24283 net.cpp:150] Setting up inception_4c/prelu_5x5
I1105 17:10:48.206392 24283 net.cpp:157] Top shape: 32 64 14 14 (401408)
I1105 17:10:48.206400 24283 net.cpp:165] Memory required for data: 1401275140
I1105 17:10:48.206411 24283 layer_factory.hpp:76] Creating layer inception_4c/pool
I1105 17:10:48.206423 24283 net.cpp:106] Creating Layer inception_4c/pool
I1105 17:10:48.206432 24283 net.cpp:454] inception_4c/pool <- inception_4b/output_inception_4b/output_0_split_3
I1105 17:10:48.206444 24283 net.cpp:411] inception_4c/pool -> inception_4c/pool
I1105 17:10:48.206620 24283 net.cpp:150] Setting up inception_4c/pool
I1105 17:10:48.206634 24283 net.cpp:157] Top shape: 32 512 14 14 (3211264)
I1105 17:10:48.206641 24283 net.cpp:165] Memory required for data: 1414120196
I1105 17:10:48.206650 24283 layer_factory.hpp:76] Creating layer inception_4c/pool_proj
I1105 17:10:48.206663 24283 net.cpp:106] Creating Layer inception_4c/pool_proj
I1105 17:10:48.206672 24283 net.cpp:454] inception_4c/pool_proj <- inception_4c/pool
I1105 17:10:48.206684 24283 net.cpp:411] inception_4c/pool_proj -> inception_4c/pool_proj
I1105 17:10:48.208032 24283 cudnn_conv_layer.cpp:194] Reallocating workspace storage: 10080
I1105 17:10:48.208067 24283 net.cpp:150] Setting up inception_4c/pool_proj
I1105 17:10:48.208080 24283 net.cpp:157] Top shape: 32 64 14 14 (401408)
I1105 17:10:48.208087 24283 net.cpp:165] Memory required for data: 1415725828
I1105 17:10:48.208101 24283 layer_factory.hpp:76] Creating layer inception_4c/prelu_pool_proj
I1105 17:10:48.208113 24283 net.cpp:106] Creating Layer inception_4c/prelu_pool_proj
I1105 17:10:48.208124 24283 net.cpp:454] inception_4c/prelu_pool_proj <- inception_4c/pool_proj
I1105 17:10:48.208137 24283 net.cpp:397] inception_4c/prelu_pool_proj -> inception_4c/pool_proj (in-place)
I1105 17:10:48.208242 24283 net.cpp:150] Setting up inception_4c/prelu_pool_proj
I1105 17:10:48.208255 24283 net.cpp:157] Top shape: 32 64 14 14 (401408)
I1105 17:10:48.208262 24283 net.cpp:165] Memory required for data: 1417331460
I1105 17:10:48.208273 24283 layer_factory.hpp:76] Creating layer inception_4c/output
I1105 17:10:48.208284 24283 net.cpp:106] Creating Layer inception_4c/output
I1105 17:10:48.208293 24283 net.cpp:454] inception_4c/output <- inception_4c/1x1
I1105 17:10:48.208303 24283 net.cpp:454] inception_4c/output <- inception_4c/3x3
I1105 17:10:48.208313 24283 net.cpp:454] inception_4c/output <- inception_4c/5x5
I1105 17:10:48.208323 24283 net.cpp:454] inception_4c/output <- inception_4c/pool_proj
I1105 17:10:48.208333 24283 net.cpp:411] inception_4c/output -> inception_4c/output
I1105 17:10:48.208369 24283 net.cpp:150] Setting up inception_4c/output
I1105 17:10:48.208380 24283 net.cpp:157] Top shape: 32 512 14 14 (3211264)
I1105 17:10:48.208387 24283 net.cpp:165] Memory required for data: 1430176516
I1105 17:10:48.208396 24283 layer_factory.hpp:76] Creating layer inception_4c/output_inception_4c/output_0_split
I1105 17:10:48.208407 24283 net.cpp:106] Creating Layer inception_4c/output_inception_4c/output_0_split
I1105 17:10:48.208416 24283 net.cpp:454] inception_4c/output_inception_4c/output_0_split <- inception_4c/output
I1105 17:10:48.208442 24283 net.cpp:411] inception_4c/output_inception_4c/output_0_split -> inception_4c/output_inception_4c/output_0_split_0
I1105 17:10:48.208458 24283 net.cpp:411] inception_4c/output_inception_4c/output_0_split -> inception_4c/output_inception_4c/output_0_split_1
I1105 17:10:48.208473 24283 net.cpp:411] inception_4c/output_inception_4c/output_0_split -> inception_4c/output_inception_4c/output_0_split_2
I1105 17:10:48.208488 24283 net.cpp:411] inception_4c/output_inception_4c/output_0_split -> inception_4c/output_inception_4c/output_0_split_3
I1105 17:10:48.208557 24283 net.cpp:150] Setting up inception_4c/output_inception_4c/output_0_split
I1105 17:10:48.208570 24283 net.cpp:157] Top shape: 32 512 14 14 (3211264)
I1105 17:10:48.208580 24283 net.cpp:157] Top shape: 32 512 14 14 (3211264)
I1105 17:10:48.208590 24283 net.cpp:157] Top shape: 32 512 14 14 (3211264)
I1105 17:10:48.208600 24283 net.cpp:157] Top shape: 32 512 14 14 (3211264)
I1105 17:10:48.208606 24283 net.cpp:165] Memory required for data: 1481556740
I1105 17:10:48.208616 24283 layer_factory.hpp:76] Creating layer inception_4d/1x1
I1105 17:10:48.208627 24283 net.cpp:106] Creating Layer inception_4d/1x1
I1105 17:10:48.208637 24283 net.cpp:454] inception_4d/1x1 <- inception_4c/output_inception_4c/output_0_split_0
I1105 17:10:48.208649 24283 net.cpp:411] inception_4d/1x1 -> inception_4d/1x1
I1105 17:10:48.209990 24283 cudnn_conv_layer.cpp:194] Reallocating workspace storage: 10080
I1105 17:10:48.210031 24283 net.cpp:150] Setting up inception_4d/1x1
I1105 17:10:48.210044 24283 net.cpp:157] Top shape: 32 112 14 14 (702464)
I1105 17:10:48.210052 24283 net.cpp:165] Memory required for data: 1484366596
I1105 17:10:48.210072 24283 layer_factory.hpp:76] Creating layer inception_4d/prelu_1x1
I1105 17:10:48.210093 24283 net.cpp:106] Creating Layer inception_4d/prelu_1x1
I1105 17:10:48.210103 24283 net.cpp:454] inception_4d/prelu_1x1 <- inception_4d/1x1
I1105 17:10:48.210126 24283 net.cpp:397] inception_4d/prelu_1x1 -> inception_4d/1x1 (in-place)
I1105 17:10:48.210237 24283 net.cpp:150] Setting up inception_4d/prelu_1x1
I1105 17:10:48.210249 24283 net.cpp:157] Top shape: 32 112 14 14 (702464)
I1105 17:10:48.210257 24283 net.cpp:165] Memory required for data: 1487176452
I1105 17:10:48.210268 24283 layer_factory.hpp:76] Creating layer inception_4d/3x3_reduce
I1105 17:10:48.210283 24283 net.cpp:106] Creating Layer inception_4d/3x3_reduce
I1105 17:10:48.210292 24283 net.cpp:454] inception_4d/3x3_reduce <- inception_4c/output_inception_4c/output_0_split_1
I1105 17:10:48.210305 24283 net.cpp:411] inception_4d/3x3_reduce -> inception_4d/3x3_reduce
I1105 17:10:48.211601 24283 cudnn_conv_layer.cpp:194] Reallocating workspace storage: 10080
I1105 17:10:48.211633 24283 net.cpp:150] Setting up inception_4d/3x3_reduce
I1105 17:10:48.211647 24283 net.cpp:157] Top shape: 32 144 14 14 (903168)
I1105 17:10:48.211654 24283 net.cpp:165] Memory required for data: 1490789124
I1105 17:10:48.211668 24283 layer_factory.hpp:76] Creating layer inception_4d/prelu_3x3_reduce
I1105 17:10:48.211680 24283 net.cpp:106] Creating Layer inception_4d/prelu_3x3_reduce
I1105 17:10:48.211691 24283 net.cpp:454] inception_4d/prelu_3x3_reduce <- inception_4d/3x3_reduce
I1105 17:10:48.211705 24283 net.cpp:397] inception_4d/prelu_3x3_reduce -> inception_4d/3x3_reduce (in-place)
I1105 17:10:48.211828 24283 net.cpp:150] Setting up inception_4d/prelu_3x3_reduce
I1105 17:10:48.211840 24283 net.cpp:157] Top shape: 32 144 14 14 (903168)
I1105 17:10:48.211848 24283 net.cpp:165] Memory required for data: 1494401796
I1105 17:10:48.211859 24283 layer_factory.hpp:76] Creating layer inception_4d/3x3
I1105 17:10:48.211875 24283 net.cpp:106] Creating Layer inception_4d/3x3
I1105 17:10:48.211886 24283 net.cpp:454] inception_4d/3x3 <- inception_4d/3x3_reduce
I1105 17:10:48.211901 24283 net.cpp:411] inception_4d/3x3 -> inception_4d/3x3
I1105 17:10:48.216300 24283 cudnn_conv_layer.cpp:194] Reallocating workspace storage: 10080
I1105 17:10:48.216389 24283 net.cpp:150] Setting up inception_4d/3x3
I1105 17:10:48.216409 24283 net.cpp:157] Top shape: 32 288 14 14 (1806336)
I1105 17:10:48.216430 24283 net.cpp:165] Memory required for data: 1501627140
I1105 17:10:48.216456 24283 layer_factory.hpp:76] Creating layer inception_4d/prelu_3x3
I1105 17:10:48.216476 24283 net.cpp:106] Creating Layer inception_4d/prelu_3x3
I1105 17:10:48.216497 24283 net.cpp:454] inception_4d/prelu_3x3 <- inception_4d/3x3
I1105 17:10:48.216523 24283 net.cpp:397] inception_4d/prelu_3x3 -> inception_4d/3x3 (in-place)
I1105 17:10:48.216730 24283 net.cpp:150] Setting up inception_4d/prelu_3x3
I1105 17:10:48.216743 24283 net.cpp:157] Top shape: 32 288 14 14 (1806336)
I1105 17:10:48.216752 24283 net.cpp:165] Memory required for data: 1508852484
I1105 17:10:48.216773 24283 layer_factory.hpp:76] Creating layer inception_4d/5x5_reduce
I1105 17:10:48.216812 24283 net.cpp:106] Creating Layer inception_4d/5x5_reduce
I1105 17:10:48.216822 24283 net.cpp:454] inception_4d/5x5_reduce <- inception_4c/output_inception_4c/output_0_split_2
I1105 17:10:48.216838 24283 net.cpp:411] inception_4d/5x5_reduce -> inception_4d/5x5_reduce
I1105 17:10:48.218178 24283 cudnn_conv_layer.cpp:194] Reallocating workspace storage: 10080
I1105 17:10:48.218215 24283 net.cpp:150] Setting up inception_4d/5x5_reduce
I1105 17:10:48.218230 24283 net.cpp:157] Top shape: 32 32 14 14 (200704)
I1105 17:10:48.218240 24283 net.cpp:165] Memory required for data: 1509655300
I1105 17:10:48.218253 24283 layer_factory.hpp:76] Creating layer inception_4d/prelu_5x5_reduce
I1105 17:10:48.218272 24283 net.cpp:106] Creating Layer inception_4d/prelu_5x5_reduce
I1105 17:10:48.218284 24283 net.cpp:454] inception_4d/prelu_5x5_reduce <- inception_4d/5x5_reduce
I1105 17:10:48.218298 24283 net.cpp:397] inception_4d/prelu_5x5_reduce -> inception_4d/5x5_reduce (in-place)
I1105 17:10:48.218416 24283 net.cpp:150] Setting up inception_4d/prelu_5x5_reduce
I1105 17:10:48.218428 24283 net.cpp:157] Top shape: 32 32 14 14 (200704)
I1105 17:10:48.218437 24283 net.cpp:165] Memory required for data: 1510458116
I1105 17:10:48.218449 24283 layer_factory.hpp:76] Creating layer inception_4d/5x5
I1105 17:10:48.218466 24283 net.cpp:106] Creating Layer inception_4d/5x5
I1105 17:10:48.218478 24283 net.cpp:454] inception_4d/5x5 <- inception_4d/5x5_reduce
I1105 17:10:48.218492 24283 net.cpp:411] inception_4d/5x5 -> inception_4d/5x5
I1105 17:10:48.220374 24283 cudnn_conv_layer.cpp:194] Reallocating workspace storage: 13080
I1105 17:10:48.220412 24283 net.cpp:150] Setting up inception_4d/5x5
I1105 17:10:48.220427 24283 net.cpp:157] Top shape: 32 64 14 14 (401408)
I1105 17:10:48.220437 24283 net.cpp:165] Memory required for data: 1512063748
I1105 17:10:48.220451 24283 layer_factory.hpp:76] Creating layer inception_4d/prelu_5x5
I1105 17:10:48.220470 24283 net.cpp:106] Creating Layer inception_4d/prelu_5x5
I1105 17:10:48.220481 24283 net.cpp:454] inception_4d/prelu_5x5 <- inception_4d/5x5
I1105 17:10:48.220497 24283 net.cpp:397] inception_4d/prelu_5x5 -> inception_4d/5x5 (in-place)
I1105 17:10:48.220623 24283 net.cpp:150] Setting up inception_4d/prelu_5x5
I1105 17:10:48.220638 24283 net.cpp:157] Top shape: 32 64 14 14 (401408)
I1105 17:10:48.220645 24283 net.cpp:165] Memory required for data: 1513669380
I1105 17:10:48.220656 24283 layer_factory.hpp:76] Creating layer inception_4d/pool
I1105 17:10:48.220672 24283 net.cpp:106] Creating Layer inception_4d/pool
I1105 17:10:48.220684 24283 net.cpp:454] inception_4d/pool <- inception_4c/output_inception_4c/output_0_split_3
I1105 17:10:48.220696 24283 net.cpp:411] inception_4d/pool -> inception_4d/pool
I1105 17:10:48.220908 24283 net.cpp:150] Setting up inception_4d/pool
I1105 17:10:48.220922 24283 net.cpp:157] Top shape: 32 512 14 14 (3211264)
I1105 17:10:48.220931 24283 net.cpp:165] Memory required for data: 1526514436
I1105 17:10:48.220939 24283 layer_factory.hpp:76] Creating layer inception_4d/pool_proj
I1105 17:10:48.220955 24283 net.cpp:106] Creating Layer inception_4d/pool_proj
I1105 17:10:48.220968 24283 net.cpp:454] inception_4d/pool_proj <- inception_4d/pool
I1105 17:10:48.220999 24283 net.cpp:411] inception_4d/pool_proj -> inception_4d/pool_proj
I1105 17:10:48.222324 24283 cudnn_conv_layer.cpp:194] Reallocating workspace storage: 10080
I1105 17:10:48.222378 24283 net.cpp:150] Setting up inception_4d/pool_proj
I1105 17:10:48.222391 24283 net.cpp:157] Top shape: 32 64 14 14 (401408)
I1105 17:10:48.222400 24283 net.cpp:165] Memory required for data: 1528120068
I1105 17:10:48.222415 24283 layer_factory.hpp:76] Creating layer inception_4d/prelu_pool_proj
I1105 17:10:48.222434 24283 net.cpp:106] Creating Layer inception_4d/prelu_pool_proj
I1105 17:10:48.222455 24283 net.cpp:454] inception_4d/prelu_pool_proj <- inception_4d/pool_proj
I1105 17:10:48.222476 24283 net.cpp:397] inception_4d/prelu_pool_proj -> inception_4d/pool_proj (in-place)
I1105 17:10:48.222607 24283 net.cpp:150] Setting up inception_4d/prelu_pool_proj
I1105 17:10:48.222620 24283 net.cpp:157] Top shape: 32 64 14 14 (401408)
I1105 17:10:48.222628 24283 net.cpp:165] Memory required for data: 1529725700
I1105 17:10:48.222651 24283 layer_factory.hpp:76] Creating layer inception_4d/output
I1105 17:10:48.222663 24283 net.cpp:106] Creating Layer inception_4d/output
I1105 17:10:48.222672 24283 net.cpp:454] inception_4d/output <- inception_4d/1x1
I1105 17:10:48.222692 24283 net.cpp:454] inception_4d/output <- inception_4d/3x3
I1105 17:10:48.222702 24283 net.cpp:454] inception_4d/output <- inception_4d/5x5
I1105 17:10:48.222712 24283 net.cpp:454] inception_4d/output <- inception_4d/pool_proj
I1105 17:10:48.222724 24283 net.cpp:411] inception_4d/output -> inception_4d/output
I1105 17:10:48.222762 24283 net.cpp:150] Setting up inception_4d/output
I1105 17:10:48.222774 24283 net.cpp:157] Top shape: 32 528 14 14 (3311616)
I1105 17:10:48.222782 24283 net.cpp:165] Memory required for data: 1542972164
I1105 17:10:48.222790 24283 layer_factory.hpp:76] Creating layer inception_4d/output_inception_4d/output_0_split
I1105 17:10:48.222805 24283 net.cpp:106] Creating Layer inception_4d/output_inception_4d/output_0_split
I1105 17:10:48.222813 24283 net.cpp:454] inception_4d/output_inception_4d/output_0_split <- inception_4d/output
I1105 17:10:48.222826 24283 net.cpp:411] inception_4d/output_inception_4d/output_0_split -> inception_4d/output_inception_4d/output_0_split_0
I1105 17:10:48.222841 24283 net.cpp:411] inception_4d/output_inception_4d/output_0_split -> inception_4d/output_inception_4d/output_0_split_1
I1105 17:10:48.222856 24283 net.cpp:411] inception_4d/output_inception_4d/output_0_split -> inception_4d/output_inception_4d/output_0_split_2
I1105 17:10:48.222872 24283 net.cpp:411] inception_4d/output_inception_4d/output_0_split -> inception_4d/output_inception_4d/output_0_split_3
I1105 17:10:48.222887 24283 net.cpp:411] inception_4d/output_inception_4d/output_0_split -> inception_4d/output_inception_4d/output_0_split_4
I1105 17:10:48.222972 24283 net.cpp:150] Setting up inception_4d/output_inception_4d/output_0_split
I1105 17:10:48.222985 24283 net.cpp:157] Top shape: 32 528 14 14 (3311616)
I1105 17:10:48.222995 24283 net.cpp:157] Top shape: 32 528 14 14 (3311616)
I1105 17:10:48.223006 24283 net.cpp:157] Top shape: 32 528 14 14 (3311616)
I1105 17:10:48.223016 24283 net.cpp:157] Top shape: 32 528 14 14 (3311616)
I1105 17:10:48.223026 24283 net.cpp:157] Top shape: 32 528 14 14 (3311616)
I1105 17:10:48.223033 24283 net.cpp:165] Memory required for data: 1609204484
I1105 17:10:48.223042 24283 layer_factory.hpp:76] Creating layer loss2/ave_pool
I1105 17:10:48.223055 24283 net.cpp:106] Creating Layer loss2/ave_pool
I1105 17:10:48.223067 24283 net.cpp:454] loss2/ave_pool <- inception_4d/output_inception_4d/output_0_split_0
I1105 17:10:48.223079 24283 net.cpp:411] loss2/ave_pool -> loss2/ave_pool
I1105 17:10:48.223465 24283 net.cpp:150] Setting up loss2/ave_pool
I1105 17:10:48.223482 24283 net.cpp:157] Top shape: 32 528 4 4 (270336)
I1105 17:10:48.223490 24283 net.cpp:165] Memory required for data: 1610285828
I1105 17:10:48.223500 24283 layer_factory.hpp:76] Creating layer loss2/conv
I1105 17:10:48.223527 24283 net.cpp:106] Creating Layer loss2/conv
I1105 17:10:48.223538 24283 net.cpp:454] loss2/conv <- loss2/ave_pool
I1105 17:10:48.223556 24283 net.cpp:411] loss2/conv -> loss2/conv
I1105 17:10:48.225056 24283 cudnn_conv_layer.cpp:194] Reallocating workspace storage: 6840
I1105 17:10:48.225106 24283 net.cpp:150] Setting up loss2/conv
I1105 17:10:48.225121 24283 net.cpp:157] Top shape: 32 128 4 4 (65536)
I1105 17:10:48.225128 24283 net.cpp:165] Memory required for data: 1610547972
I1105 17:10:48.225142 24283 layer_factory.hpp:76] Creating layer loss2/prelu_conv
I1105 17:10:48.225158 24283 net.cpp:106] Creating Layer loss2/prelu_conv
I1105 17:10:48.225169 24283 net.cpp:454] loss2/prelu_conv <- loss2/conv
I1105 17:10:48.225184 24283 net.cpp:397] loss2/prelu_conv -> loss2/conv (in-place)
I1105 17:10:48.225298 24283 net.cpp:150] Setting up loss2/prelu_conv
I1105 17:10:48.225311 24283 net.cpp:157] Top shape: 32 128 4 4 (65536)
I1105 17:10:48.225319 24283 net.cpp:165] Memory required for data: 1610810116
I1105 17:10:48.225330 24283 layer_factory.hpp:76] Creating layer loss2/fc
I1105 17:10:48.225344 24283 net.cpp:106] Creating Layer loss2/fc
I1105 17:10:48.225355 24283 net.cpp:454] loss2/fc <- loss2/conv
I1105 17:10:48.225371 24283 net.cpp:411] loss2/fc -> loss2/fc
I1105 17:10:48.241322 24283 net.cpp:150] Setting up loss2/fc
I1105 17:10:48.241361 24283 net.cpp:157] Top shape: 32 1024 (32768)
I1105 17:10:48.241370 24283 net.cpp:165] Memory required for data: 1610941188
I1105 17:10:48.241415 24283 layer_factory.hpp:76] Creating layer loss2/prelu_fc
I1105 17:10:48.241443 24283 net.cpp:106] Creating Layer loss2/prelu_fc
I1105 17:10:48.241464 24283 net.cpp:454] loss2/prelu_fc <- loss2/fc
I1105 17:10:48.241478 24283 net.cpp:397] loss2/prelu_fc -> loss2/fc (in-place)
I1105 17:10:48.241605 24283 net.cpp:150] Setting up loss2/prelu_fc
I1105 17:10:48.241617 24283 net.cpp:157] Top shape: 32 1024 (32768)
I1105 17:10:48.241624 24283 net.cpp:165] Memory required for data: 1611072260
I1105 17:10:48.241636 24283 layer_factory.hpp:76] Creating layer loss2/drop_fc
I1105 17:10:48.241652 24283 net.cpp:106] Creating Layer loss2/drop_fc
I1105 17:10:48.241663 24283 net.cpp:454] loss2/drop_fc <- loss2/fc
I1105 17:10:48.241674 24283 net.cpp:397] loss2/drop_fc -> loss2/fc (in-place)
I1105 17:10:48.241727 24283 net.cpp:150] Setting up loss2/drop_fc
I1105 17:10:48.241746 24283 net.cpp:157] Top shape: 32 1024 (32768)
I1105 17:10:48.241755 24283 net.cpp:165] Memory required for data: 1611203332
I1105 17:10:48.241770 24283 layer_factory.hpp:76] Creating layer loss2/classifier2
I1105 17:10:48.241791 24283 net.cpp:106] Creating Layer loss2/classifier2
I1105 17:10:48.241799 24283 net.cpp:454] loss2/classifier2 <- loss2/fc
I1105 17:10:48.241814 24283 net.cpp:411] loss2/classifier2 -> loss2/classifier
I1105 17:10:48.241957 24283 net.cpp:150] Setting up loss2/classifier2
I1105 17:10:48.241969 24283 net.cpp:157] Top shape: 32 2 (64)
I1105 17:10:48.241977 24283 net.cpp:165] Memory required for data: 1611203588
I1105 17:10:48.241991 24283 layer_factory.hpp:76] Creating layer loss2/loss
I1105 17:10:48.242003 24283 net.cpp:106] Creating Layer loss2/loss
I1105 17:10:48.242012 24283 net.cpp:454] loss2/loss <- loss2/classifier
I1105 17:10:48.242022 24283 net.cpp:454] loss2/loss <- label_data_1_split_1
I1105 17:10:48.242036 24283 net.cpp:411] loss2/loss -> loss2/loss1
I1105 17:10:48.242053 24283 layer_factory.hpp:76] Creating layer loss2/loss
I1105 17:10:48.242377 24283 net.cpp:150] Setting up loss2/loss
I1105 17:10:48.242390 24283 net.cpp:157] Top shape: (1)
I1105 17:10:48.242404 24283 net.cpp:160]     with loss weight 0.3
I1105 17:10:48.242424 24283 net.cpp:165] Memory required for data: 1611203592
I1105 17:10:48.242434 24283 layer_factory.hpp:76] Creating layer inception_4e/1x1
I1105 17:10:48.242450 24283 net.cpp:106] Creating Layer inception_4e/1x1
I1105 17:10:48.242462 24283 net.cpp:454] inception_4e/1x1 <- inception_4d/output_inception_4d/output_0_split_1
I1105 17:10:48.242485 24283 net.cpp:411] inception_4e/1x1 -> inception_4e/1x1
I1105 17:10:48.245458 24283 cudnn_conv_layer.cpp:194] Reallocating workspace storage: 10080
I1105 17:10:48.245551 24283 net.cpp:150] Setting up inception_4e/1x1
I1105 17:10:48.245568 24283 net.cpp:157] Top shape: 32 256 14 14 (1605632)
I1105 17:10:48.245579 24283 net.cpp:165] Memory required for data: 1617626120
I1105 17:10:48.245596 24283 layer_factory.hpp:76] Creating layer inception_4e/prelu_1x1
I1105 17:10:48.245616 24283 net.cpp:106] Creating Layer inception_4e/prelu_1x1
I1105 17:10:48.245627 24283 net.cpp:454] inception_4e/prelu_1x1 <- inception_4e/1x1
I1105 17:10:48.245643 24283 net.cpp:397] inception_4e/prelu_1x1 -> inception_4e/1x1 (in-place)
I1105 17:10:48.245806 24283 net.cpp:150] Setting up inception_4e/prelu_1x1
I1105 17:10:48.245820 24283 net.cpp:157] Top shape: 32 256 14 14 (1605632)
I1105 17:10:48.245828 24283 net.cpp:165] Memory required for data: 1624048648
I1105 17:10:48.245839 24283 layer_factory.hpp:76] Creating layer inception_4e/3x3_reduce
I1105 17:10:48.245858 24283 net.cpp:106] Creating Layer inception_4e/3x3_reduce
I1105 17:10:48.245868 24283 net.cpp:454] inception_4e/3x3_reduce <- inception_4d/output_inception_4d/output_0_split_2
I1105 17:10:48.245884 24283 net.cpp:411] inception_4e/3x3_reduce -> inception_4e/3x3_reduce
I1105 17:10:48.247520 24283 cudnn_conv_layer.cpp:194] Reallocating workspace storage: 10080
I1105 17:10:48.247563 24283 net.cpp:150] Setting up inception_4e/3x3_reduce
I1105 17:10:48.247577 24283 net.cpp:157] Top shape: 32 160 14 14 (1003520)
I1105 17:10:48.247586 24283 net.cpp:165] Memory required for data: 1628062728
I1105 17:10:48.247601 24283 layer_factory.hpp:76] Creating layer inception_4e/prelu_3x3_reduce
I1105 17:10:48.247623 24283 net.cpp:106] Creating Layer inception_4e/prelu_3x3_reduce
I1105 17:10:48.247633 24283 net.cpp:454] inception_4e/prelu_3x3_reduce <- inception_4e/3x3_reduce
I1105 17:10:48.247647 24283 net.cpp:397] inception_4e/prelu_3x3_reduce -> inception_4e/3x3_reduce (in-place)
I1105 17:10:48.247781 24283 net.cpp:150] Setting up inception_4e/prelu_3x3_reduce
I1105 17:10:48.247793 24283 net.cpp:157] Top shape: 32 160 14 14 (1003520)
I1105 17:10:48.247802 24283 net.cpp:165] Memory required for data: 1632076808
I1105 17:10:48.247812 24283 layer_factory.hpp:76] Creating layer inception_4e/3x3
I1105 17:10:48.247828 24283 net.cpp:106] Creating Layer inception_4e/3x3
I1105 17:10:48.247839 24283 net.cpp:454] inception_4e/3x3 <- inception_4e/3x3_reduce
I1105 17:10:48.247854 24283 net.cpp:411] inception_4e/3x3 -> inception_4e/3x3
I1105 17:10:48.252446 24283 cudnn_conv_layer.cpp:194] Reallocating workspace storage: 10080
I1105 17:10:48.252503 24283 net.cpp:150] Setting up inception_4e/3x3
I1105 17:10:48.252523 24283 net.cpp:157] Top shape: 32 320 14 14 (2007040)
I1105 17:10:48.252534 24283 net.cpp:165] Memory required for data: 1640104968
I1105 17:10:48.252550 24283 layer_factory.hpp:76] Creating layer inception_4e/prelu_3x3
I1105 17:10:48.252571 24283 net.cpp:106] Creating Layer inception_4e/prelu_3x3
I1105 17:10:48.252583 24283 net.cpp:454] inception_4e/prelu_3x3 <- inception_4e/3x3
I1105 17:10:48.252596 24283 net.cpp:397] inception_4e/prelu_3x3 -> inception_4e/3x3 (in-place)
I1105 17:10:48.252771 24283 net.cpp:150] Setting up inception_4e/prelu_3x3
I1105 17:10:48.252785 24283 net.cpp:157] Top shape: 32 320 14 14 (2007040)
I1105 17:10:48.252794 24283 net.cpp:165] Memory required for data: 1648133128
I1105 17:10:48.252804 24283 layer_factory.hpp:76] Creating layer inception_4e/5x5_reduce
I1105 17:10:48.252822 24283 net.cpp:106] Creating Layer inception_4e/5x5_reduce
I1105 17:10:48.252835 24283 net.cpp:454] inception_4e/5x5_reduce <- inception_4d/output_inception_4d/output_0_split_3
I1105 17:10:48.252849 24283 net.cpp:411] inception_4e/5x5_reduce -> inception_4e/5x5_reduce
I1105 17:10:48.254075 24283 cudnn_conv_layer.cpp:194] Reallocating workspace storage: 10080
I1105 17:10:48.254117 24283 net.cpp:150] Setting up inception_4e/5x5_reduce
I1105 17:10:48.254130 24283 net.cpp:157] Top shape: 32 32 14 14 (200704)
I1105 17:10:48.254138 24283 net.cpp:165] Memory required for data: 1648935944
I1105 17:10:48.254184 24283 layer_factory.hpp:76] Creating layer inception_4e/prelu_5x5_reduce
I1105 17:10:48.254209 24283 net.cpp:106] Creating Layer inception_4e/prelu_5x5_reduce
I1105 17:10:48.254220 24283 net.cpp:454] inception_4e/prelu_5x5_reduce <- inception_4e/5x5_reduce
I1105 17:10:48.254233 24283 net.cpp:397] inception_4e/prelu_5x5_reduce -> inception_4e/5x5_reduce (in-place)
I1105 17:10:48.254359 24283 net.cpp:150] Setting up inception_4e/prelu_5x5_reduce
I1105 17:10:48.254371 24283 net.cpp:157] Top shape: 32 32 14 14 (200704)
I1105 17:10:48.254379 24283 net.cpp:165] Memory required for data: 1649738760
I1105 17:10:48.254390 24283 layer_factory.hpp:76] Creating layer inception_4e/5x5
I1105 17:10:48.254420 24283 net.cpp:106] Creating Layer inception_4e/5x5
I1105 17:10:48.254429 24283 net.cpp:454] inception_4e/5x5 <- inception_4e/5x5_reduce
I1105 17:10:48.254446 24283 net.cpp:411] inception_4e/5x5 -> inception_4e/5x5
I1105 17:10:48.256757 24283 cudnn_conv_layer.cpp:194] Reallocating workspace storage: 13080
I1105 17:10:48.256808 24283 net.cpp:150] Setting up inception_4e/5x5
I1105 17:10:48.256824 24283 net.cpp:157] Top shape: 32 128 14 14 (802816)
I1105 17:10:48.256834 24283 net.cpp:165] Memory required for data: 1652950024
I1105 17:10:48.256851 24283 layer_factory.hpp:76] Creating layer inception_4e/prelu_5x5
I1105 17:10:48.256871 24283 net.cpp:106] Creating Layer inception_4e/prelu_5x5
I1105 17:10:48.256882 24283 net.cpp:454] inception_4e/prelu_5x5 <- inception_4e/5x5
I1105 17:10:48.256896 24283 net.cpp:397] inception_4e/prelu_5x5 -> inception_4e/5x5 (in-place)
I1105 17:10:48.257030 24283 net.cpp:150] Setting up inception_4e/prelu_5x5
I1105 17:10:48.257042 24283 net.cpp:157] Top shape: 32 128 14 14 (802816)
I1105 17:10:48.257050 24283 net.cpp:165] Memory required for data: 1656161288
I1105 17:10:48.257062 24283 layer_factory.hpp:76] Creating layer inception_4e/pool
I1105 17:10:48.257088 24283 net.cpp:106] Creating Layer inception_4e/pool
I1105 17:10:48.257098 24283 net.cpp:454] inception_4e/pool <- inception_4d/output_inception_4d/output_0_split_4
I1105 17:10:48.257113 24283 net.cpp:411] inception_4e/pool -> inception_4e/pool
I1105 17:10:48.257529 24283 net.cpp:150] Setting up inception_4e/pool
I1105 17:10:48.257545 24283 net.cpp:157] Top shape: 32 528 14 14 (3311616)
I1105 17:10:48.257553 24283 net.cpp:165] Memory required for data: 1669407752
I1105 17:10:48.257561 24283 layer_factory.hpp:76] Creating layer inception_4e/pool_proj
I1105 17:10:48.257580 24283 net.cpp:106] Creating Layer inception_4e/pool_proj
I1105 17:10:48.257591 24283 net.cpp:454] inception_4e/pool_proj <- inception_4e/pool
I1105 17:10:48.257607 24283 net.cpp:411] inception_4e/pool_proj -> inception_4e/pool_proj
I1105 17:10:48.258913 24283 cudnn_conv_layer.cpp:194] Reallocating workspace storage: 10080
I1105 17:10:48.258957 24283 net.cpp:150] Setting up inception_4e/pool_proj
I1105 17:10:48.258971 24283 net.cpp:157] Top shape: 32 128 14 14 (802816)
I1105 17:10:48.258980 24283 net.cpp:165] Memory required for data: 1672619016
I1105 17:10:48.259013 24283 layer_factory.hpp:76] Creating layer inception_4e/prelu_pool_proj
I1105 17:10:48.259032 24283 net.cpp:106] Creating Layer inception_4e/prelu_pool_proj
I1105 17:10:48.259052 24283 net.cpp:454] inception_4e/prelu_pool_proj <- inception_4e/pool_proj
I1105 17:10:48.259065 24283 net.cpp:397] inception_4e/prelu_pool_proj -> inception_4e/pool_proj (in-place)
I1105 17:10:48.259229 24283 net.cpp:150] Setting up inception_4e/prelu_pool_proj
I1105 17:10:48.259241 24283 net.cpp:157] Top shape: 32 128 14 14 (802816)
I1105 17:10:48.259249 24283 net.cpp:165] Memory required for data: 1675830280
I1105 17:10:48.259260 24283 layer_factory.hpp:76] Creating layer inception_4e/output
I1105 17:10:48.259274 24283 net.cpp:106] Creating Layer inception_4e/output
I1105 17:10:48.259284 24283 net.cpp:454] inception_4e/output <- inception_4e/1x1
I1105 17:10:48.259295 24283 net.cpp:454] inception_4e/output <- inception_4e/3x3
I1105 17:10:48.259305 24283 net.cpp:454] inception_4e/output <- inception_4e/5x5
I1105 17:10:48.259315 24283 net.cpp:454] inception_4e/output <- inception_4e/pool_proj
I1105 17:10:48.259344 24283 net.cpp:411] inception_4e/output -> inception_4e/output
I1105 17:10:48.259387 24283 net.cpp:150] Setting up inception_4e/output
I1105 17:10:48.259398 24283 net.cpp:157] Top shape: 32 832 14 14 (5218304)
I1105 17:10:48.259407 24283 net.cpp:165] Memory required for data: 1696703496
I1105 17:10:48.259415 24283 layer_factory.hpp:76] Creating layer pool4/3x3_s2
I1105 17:10:48.259430 24283 net.cpp:106] Creating Layer pool4/3x3_s2
I1105 17:10:48.259439 24283 net.cpp:454] pool4/3x3_s2 <- inception_4e/output
I1105 17:10:48.259451 24283 net.cpp:411] pool4/3x3_s2 -> pool4/3x3_s2
I1105 17:10:48.259861 24283 net.cpp:150] Setting up pool4/3x3_s2
I1105 17:10:48.259876 24283 net.cpp:157] Top shape: 32 832 7 7 (1304576)
I1105 17:10:48.259884 24283 net.cpp:165] Memory required for data: 1701921800
I1105 17:10:48.259892 24283 layer_factory.hpp:76] Creating layer pool4/3x3_s2_pool4/3x3_s2_0_split
I1105 17:10:48.259908 24283 net.cpp:106] Creating Layer pool4/3x3_s2_pool4/3x3_s2_0_split
I1105 17:10:48.259918 24283 net.cpp:454] pool4/3x3_s2_pool4/3x3_s2_0_split <- pool4/3x3_s2
I1105 17:10:48.259929 24283 net.cpp:411] pool4/3x3_s2_pool4/3x3_s2_0_split -> pool4/3x3_s2_pool4/3x3_s2_0_split_0
I1105 17:10:48.259945 24283 net.cpp:411] pool4/3x3_s2_pool4/3x3_s2_0_split -> pool4/3x3_s2_pool4/3x3_s2_0_split_1
I1105 17:10:48.259959 24283 net.cpp:411] pool4/3x3_s2_pool4/3x3_s2_0_split -> pool4/3x3_s2_pool4/3x3_s2_0_split_2
I1105 17:10:48.259974 24283 net.cpp:411] pool4/3x3_s2_pool4/3x3_s2_0_split -> pool4/3x3_s2_pool4/3x3_s2_0_split_3
I1105 17:10:48.260088 24283 net.cpp:150] Setting up pool4/3x3_s2_pool4/3x3_s2_0_split
I1105 17:10:48.260102 24283 net.cpp:157] Top shape: 32 832 7 7 (1304576)
I1105 17:10:48.260113 24283 net.cpp:157] Top shape: 32 832 7 7 (1304576)
I1105 17:10:48.260123 24283 net.cpp:157] Top shape: 32 832 7 7 (1304576)
I1105 17:10:48.260133 24283 net.cpp:157] Top shape: 32 832 7 7 (1304576)
I1105 17:10:48.260140 24283 net.cpp:165] Memory required for data: 1722795016
I1105 17:10:48.260149 24283 layer_factory.hpp:76] Creating layer inception_5a/1x1
I1105 17:10:48.260165 24283 net.cpp:106] Creating Layer inception_5a/1x1
I1105 17:10:48.260177 24283 net.cpp:454] inception_5a/1x1 <- pool4/3x3_s2_pool4/3x3_s2_0_split_0
I1105 17:10:48.260193 24283 net.cpp:411] inception_5a/1x1 -> inception_5a/1x1
I1105 17:10:48.263056 24283 cudnn_conv_layer.cpp:194] Reallocating workspace storage: 7428
I1105 17:10:48.263099 24283 net.cpp:150] Setting up inception_5a/1x1
I1105 17:10:48.263113 24283 net.cpp:157] Top shape: 32 256 7 7 (401408)
I1105 17:10:48.263121 24283 net.cpp:165] Memory required for data: 1724400648
I1105 17:10:48.263136 24283 layer_factory.hpp:76] Creating layer inception_5a/prelu_1x1
I1105 17:10:48.263154 24283 net.cpp:106] Creating Layer inception_5a/prelu_1x1
I1105 17:10:48.263165 24283 net.cpp:454] inception_5a/prelu_1x1 <- inception_5a/1x1
I1105 17:10:48.263178 24283 net.cpp:397] inception_5a/prelu_1x1 -> inception_5a/1x1 (in-place)
I1105 17:10:48.263767 24283 net.cpp:150] Setting up inception_5a/prelu_1x1
I1105 17:10:48.263780 24283 net.cpp:157] Top shape: 32 256 7 7 (401408)
I1105 17:10:48.263788 24283 net.cpp:165] Memory required for data: 1726006280
I1105 17:10:48.263799 24283 layer_factory.hpp:76] Creating layer inception_5a/3x3_reduce
I1105 17:10:48.263814 24283 net.cpp:106] Creating Layer inception_5a/3x3_reduce
I1105 17:10:48.263825 24283 net.cpp:454] inception_5a/3x3_reduce <- pool4/3x3_s2_pool4/3x3_s2_0_split_1
I1105 17:10:48.263841 24283 net.cpp:411] inception_5a/3x3_reduce -> inception_5a/3x3_reduce
I1105 17:10:48.266172 24283 cudnn_conv_layer.cpp:194] Reallocating workspace storage: 7428
I1105 17:10:48.266216 24283 net.cpp:150] Setting up inception_5a/3x3_reduce
I1105 17:10:48.266228 24283 net.cpp:157] Top shape: 32 160 7 7 (250880)
I1105 17:10:48.266237 24283 net.cpp:165] Memory required for data: 1727009800
I1105 17:10:48.266252 24283 layer_factory.hpp:76] Creating layer inception_5a/prelu_3x3_reduce
I1105 17:10:48.266268 24283 net.cpp:106] Creating Layer inception_5a/prelu_3x3_reduce
I1105 17:10:48.266290 24283 net.cpp:454] inception_5a/prelu_3x3_reduce <- inception_5a/3x3_reduce
I1105 17:10:48.266304 24283 net.cpp:397] inception_5a/prelu_3x3_reduce -> inception_5a/3x3_reduce (in-place)
I1105 17:10:48.266412 24283 net.cpp:150] Setting up inception_5a/prelu_3x3_reduce
I1105 17:10:48.266424 24283 net.cpp:157] Top shape: 32 160 7 7 (250880)
I1105 17:10:48.266433 24283 net.cpp:165] Memory required for data: 1728013320
I1105 17:10:48.266443 24283 layer_factory.hpp:76] Creating layer inception_5a/3x3
I1105 17:10:48.266458 24283 net.cpp:106] Creating Layer inception_5a/3x3
I1105 17:10:48.266469 24283 net.cpp:454] inception_5a/3x3 <- inception_5a/3x3_reduce
I1105 17:10:48.266485 24283 net.cpp:411] inception_5a/3x3 -> inception_5a/3x3
I1105 17:10:48.270596 24283 cudnn_conv_layer.cpp:194] Reallocating workspace storage: 7788
I1105 17:10:48.270632 24283 net.cpp:150] Setting up inception_5a/3x3
I1105 17:10:48.270645 24283 net.cpp:157] Top shape: 32 320 7 7 (501760)
I1105 17:10:48.270653 24283 net.cpp:165] Memory required for data: 1730020360
I1105 17:10:48.270668 24283 layer_factory.hpp:76] Creating layer inception_5a/prelu_3x3
I1105 17:10:48.270686 24283 net.cpp:106] Creating Layer inception_5a/prelu_3x3
I1105 17:10:48.270697 24283 net.cpp:454] inception_5a/prelu_3x3 <- inception_5a/3x3
I1105 17:10:48.270712 24283 net.cpp:397] inception_5a/prelu_3x3 -> inception_5a/3x3 (in-place)
I1105 17:10:48.270836 24283 net.cpp:150] Setting up inception_5a/prelu_3x3
I1105 17:10:48.270848 24283 net.cpp:157] Top shape: 32 320 7 7 (501760)
I1105 17:10:48.270855 24283 net.cpp:165] Memory required for data: 1732027400
I1105 17:10:48.270866 24283 layer_factory.hpp:76] Creating layer inception_5a/5x5_reduce
I1105 17:10:48.270884 24283 net.cpp:106] Creating Layer inception_5a/5x5_reduce
I1105 17:10:48.270895 24283 net.cpp:454] inception_5a/5x5_reduce <- pool4/3x3_s2_pool4/3x3_s2_0_split_2
I1105 17:10:48.270908 24283 net.cpp:411] inception_5a/5x5_reduce -> inception_5a/5x5_reduce
I1105 17:10:48.272181 24283 cudnn_conv_layer.cpp:194] Reallocating workspace storage: 7428
I1105 17:10:48.272215 24283 net.cpp:150] Setting up inception_5a/5x5_reduce
I1105 17:10:48.272228 24283 net.cpp:157] Top shape: 32 32 7 7 (50176)
I1105 17:10:48.272235 24283 net.cpp:165] Memory required for data: 1732228104
I1105 17:10:48.272249 24283 layer_factory.hpp:76] Creating layer inception_5a/prelu_5x5_reduce
I1105 17:10:48.272261 24283 net.cpp:106] Creating Layer inception_5a/prelu_5x5_reduce
I1105 17:10:48.272280 24283 net.cpp:454] inception_5a/prelu_5x5_reduce <- inception_5a/5x5_reduce
I1105 17:10:48.272301 24283 net.cpp:397] inception_5a/prelu_5x5_reduce -> inception_5a/5x5_reduce (in-place)
I1105 17:10:48.272433 24283 net.cpp:150] Setting up inception_5a/prelu_5x5_reduce
I1105 17:10:48.272444 24283 net.cpp:157] Top shape: 32 32 7 7 (50176)
I1105 17:10:48.272452 24283 net.cpp:165] Memory required for data: 1732428808
I1105 17:10:48.272470 24283 layer_factory.hpp:76] Creating layer inception_5a/5x5
I1105 17:10:48.272485 24283 net.cpp:106] Creating Layer inception_5a/5x5
I1105 17:10:48.272495 24283 net.cpp:454] inception_5a/5x5 <- inception_5a/5x5_reduce
I1105 17:10:48.272510 24283 net.cpp:411] inception_5a/5x5 -> inception_5a/5x5
I1105 17:10:48.274206 24283 cudnn_conv_layer.cpp:194] Reallocating workspace storage: 9804
I1105 17:10:48.274252 24283 net.cpp:150] Setting up inception_5a/5x5
I1105 17:10:48.274276 24283 net.cpp:157] Top shape: 32 128 7 7 (200704)
I1105 17:10:48.274283 24283 net.cpp:165] Memory required for data: 1733231624
I1105 17:10:48.274310 24283 layer_factory.hpp:76] Creating layer inception_5a/prelu_5x5
I1105 17:10:48.274324 24283 net.cpp:106] Creating Layer inception_5a/prelu_5x5
I1105 17:10:48.274334 24283 net.cpp:454] inception_5a/prelu_5x5 <- inception_5a/5x5
I1105 17:10:48.274354 24283 net.cpp:397] inception_5a/prelu_5x5 -> inception_5a/5x5 (in-place)
I1105 17:10:48.274494 24283 net.cpp:150] Setting up inception_5a/prelu_5x5
I1105 17:10:48.274503 24283 net.cpp:157] Top shape: 32 128 7 7 (200704)
I1105 17:10:48.274520 24283 net.cpp:165] Memory required for data: 1734034440
I1105 17:10:48.274539 24283 layer_factory.hpp:76] Creating layer inception_5a/pool
I1105 17:10:48.274554 24283 net.cpp:106] Creating Layer inception_5a/pool
I1105 17:10:48.274562 24283 net.cpp:454] inception_5a/pool <- pool4/3x3_s2_pool4/3x3_s2_0_split_3
I1105 17:10:48.274576 24283 net.cpp:411] inception_5a/pool -> inception_5a/pool
I1105 17:10:48.274781 24283 net.cpp:150] Setting up inception_5a/pool
I1105 17:10:48.274796 24283 net.cpp:157] Top shape: 32 832 7 7 (1304576)
I1105 17:10:48.274806 24283 net.cpp:165] Memory required for data: 1739252744
I1105 17:10:48.274814 24283 layer_factory.hpp:76] Creating layer inception_5a/pool_proj
I1105 17:10:48.274828 24283 net.cpp:106] Creating Layer inception_5a/pool_proj
I1105 17:10:48.274837 24283 net.cpp:454] inception_5a/pool_proj <- inception_5a/pool
I1105 17:10:48.274852 24283 net.cpp:411] inception_5a/pool_proj -> inception_5a/pool_proj
I1105 17:10:48.277789 24283 cudnn_conv_layer.cpp:194] Reallocating workspace storage: 7428
I1105 17:10:48.277838 24283 net.cpp:150] Setting up inception_5a/pool_proj
I1105 17:10:48.277855 24283 net.cpp:157] Top shape: 32 128 7 7 (200704)
I1105 17:10:48.277864 24283 net.cpp:165] Memory required for data: 1740055560
I1105 17:10:48.277881 24283 layer_factory.hpp:76] Creating layer inception_5a/prelu_pool_proj
I1105 17:10:48.277900 24283 net.cpp:106] Creating Layer inception_5a/prelu_pool_proj
I1105 17:10:48.277914 24283 net.cpp:454] inception_5a/prelu_pool_proj <- inception_5a/pool_proj
I1105 17:10:48.277930 24283 net.cpp:397] inception_5a/prelu_pool_proj -> inception_5a/pool_proj (in-place)
I1105 17:10:48.278053 24283 net.cpp:150] Setting up inception_5a/prelu_pool_proj
I1105 17:10:48.278069 24283 net.cpp:157] Top shape: 32 128 7 7 (200704)
I1105 17:10:48.278076 24283 net.cpp:165] Memory required for data: 1740858376
I1105 17:10:48.278089 24283 layer_factory.hpp:76] Creating layer inception_5a/output
I1105 17:10:48.278103 24283 net.cpp:106] Creating Layer inception_5a/output
I1105 17:10:48.278115 24283 net.cpp:454] inception_5a/output <- inception_5a/1x1
I1105 17:10:48.278127 24283 net.cpp:454] inception_5a/output <- inception_5a/3x3
I1105 17:10:48.278137 24283 net.cpp:454] inception_5a/output <- inception_5a/5x5
I1105 17:10:48.278147 24283 net.cpp:454] inception_5a/output <- inception_5a/pool_proj
I1105 17:10:48.278159 24283 net.cpp:411] inception_5a/output -> inception_5a/output
I1105 17:10:48.278205 24283 net.cpp:150] Setting up inception_5a/output
I1105 17:10:48.278220 24283 net.cpp:157] Top shape: 32 832 7 7 (1304576)
I1105 17:10:48.278228 24283 net.cpp:165] Memory required for data: 1746076680
I1105 17:10:48.278234 24283 layer_factory.hpp:76] Creating layer inception_5a/output_inception_5a/output_0_split
I1105 17:10:48.278245 24283 net.cpp:106] Creating Layer inception_5a/output_inception_5a/output_0_split
I1105 17:10:48.278252 24283 net.cpp:454] inception_5a/output_inception_5a/output_0_split <- inception_5a/output
I1105 17:10:48.278264 24283 net.cpp:411] inception_5a/output_inception_5a/output_0_split -> inception_5a/output_inception_5a/output_0_split_0
I1105 17:10:48.278276 24283 net.cpp:411] inception_5a/output_inception_5a/output_0_split -> inception_5a/output_inception_5a/output_0_split_1
I1105 17:10:48.278287 24283 net.cpp:411] inception_5a/output_inception_5a/output_0_split -> inception_5a/output_inception_5a/output_0_split_2
I1105 17:10:48.278298 24283 net.cpp:411] inception_5a/output_inception_5a/output_0_split -> inception_5a/output_inception_5a/output_0_split_3
I1105 17:10:48.278389 24283 net.cpp:150] Setting up inception_5a/output_inception_5a/output_0_split
I1105 17:10:48.278400 24283 net.cpp:157] Top shape: 32 832 7 7 (1304576)
I1105 17:10:48.278406 24283 net.cpp:157] Top shape: 32 832 7 7 (1304576)
I1105 17:10:48.278411 24283 net.cpp:157] Top shape: 32 832 7 7 (1304576)
I1105 17:10:48.278416 24283 net.cpp:157] Top shape: 32 832 7 7 (1304576)
I1105 17:10:48.278420 24283 net.cpp:165] Memory required for data: 1766949896
I1105 17:10:48.278439 24283 layer_factory.hpp:76] Creating layer inception_5b/1x1
I1105 17:10:48.278451 24283 net.cpp:106] Creating Layer inception_5b/1x1
I1105 17:10:48.278456 24283 net.cpp:454] inception_5b/1x1 <- inception_5a/output_inception_5a/output_0_split_0
I1105 17:10:48.278463 24283 net.cpp:411] inception_5b/1x1 -> inception_5b/1x1
I1105 17:10:48.282002 24283 cudnn_conv_layer.cpp:194] Reallocating workspace storage: 7428
I1105 17:10:48.282043 24283 net.cpp:150] Setting up inception_5b/1x1
I1105 17:10:48.282054 24283 net.cpp:157] Top shape: 32 384 7 7 (602112)
I1105 17:10:48.282062 24283 net.cpp:165] Memory required for data: 1769358344
I1105 17:10:48.282070 24283 layer_factory.hpp:76] Creating layer inception_5b/prelu_1x1
I1105 17:10:48.282093 24283 net.cpp:106] Creating Layer inception_5b/prelu_1x1
I1105 17:10:48.282111 24283 net.cpp:454] inception_5b/prelu_1x1 <- inception_5b/1x1
I1105 17:10:48.282119 24283 net.cpp:397] inception_5b/prelu_1x1 -> inception_5b/1x1 (in-place)
I1105 17:10:48.282739 24283 net.cpp:150] Setting up inception_5b/prelu_1x1
I1105 17:10:48.282752 24283 net.cpp:157] Top shape: 32 384 7 7 (602112)
I1105 17:10:48.282757 24283 net.cpp:165] Memory required for data: 1771766792
I1105 17:10:48.282763 24283 layer_factory.hpp:76] Creating layer inception_5b/3x3_reduce
I1105 17:10:48.282774 24283 net.cpp:106] Creating Layer inception_5b/3x3_reduce
I1105 17:10:48.282781 24283 net.cpp:454] inception_5b/3x3_reduce <- inception_5a/output_inception_5a/output_0_split_1
I1105 17:10:48.282788 24283 net.cpp:411] inception_5b/3x3_reduce -> inception_5b/3x3_reduce
I1105 17:10:48.285439 24283 cudnn_conv_layer.cpp:194] Reallocating workspace storage: 7428
I1105 17:10:48.285473 24283 net.cpp:150] Setting up inception_5b/3x3_reduce
I1105 17:10:48.285483 24283 net.cpp:157] Top shape: 32 192 7 7 (301056)
I1105 17:10:48.285487 24283 net.cpp:165] Memory required for data: 1772971016
I1105 17:10:48.285495 24283 layer_factory.hpp:76] Creating layer inception_5b/prelu_3x3_reduce
I1105 17:10:48.285504 24283 net.cpp:106] Creating Layer inception_5b/prelu_3x3_reduce
I1105 17:10:48.285511 24283 net.cpp:454] inception_5b/prelu_3x3_reduce <- inception_5b/3x3_reduce
I1105 17:10:48.285518 24283 net.cpp:397] inception_5b/prelu_3x3_reduce -> inception_5b/3x3_reduce (in-place)
I1105 17:10:48.285632 24283 net.cpp:150] Setting up inception_5b/prelu_3x3_reduce
I1105 17:10:48.285641 24283 net.cpp:157] Top shape: 32 192 7 7 (301056)
I1105 17:10:48.285646 24283 net.cpp:165] Memory required for data: 1774175240
I1105 17:10:48.285651 24283 layer_factory.hpp:76] Creating layer inception_5b/3x3
I1105 17:10:48.285661 24283 net.cpp:106] Creating Layer inception_5b/3x3
I1105 17:10:48.285667 24283 net.cpp:454] inception_5b/3x3 <- inception_5b/3x3_reduce
I1105 17:10:48.285673 24283 net.cpp:411] inception_5b/3x3 -> inception_5b/3x3
I1105 17:10:48.291532 24283 cudnn_conv_layer.cpp:194] Reallocating workspace storage: 7788
I1105 17:10:48.291589 24283 net.cpp:150] Setting up inception_5b/3x3
I1105 17:10:48.291600 24283 net.cpp:157] Top shape: 32 384 7 7 (602112)
I1105 17:10:48.291605 24283 net.cpp:165] Memory required for data: 1776583688
I1105 17:10:48.291625 24283 layer_factory.hpp:76] Creating layer inception_5b/prelu_3x3
I1105 17:10:48.291635 24283 net.cpp:106] Creating Layer inception_5b/prelu_3x3
I1105 17:10:48.291642 24283 net.cpp:454] inception_5b/prelu_3x3 <- inception_5b/3x3
I1105 17:10:48.291649 24283 net.cpp:397] inception_5b/prelu_3x3 -> inception_5b/3x3 (in-place)
I1105 17:10:48.291811 24283 net.cpp:150] Setting up inception_5b/prelu_3x3
I1105 17:10:48.291821 24283 net.cpp:157] Top shape: 32 384 7 7 (602112)
I1105 17:10:48.291826 24283 net.cpp:165] Memory required for data: 1778992136
I1105 17:10:48.291841 24283 layer_factory.hpp:76] Creating layer inception_5b/5x5_reduce
I1105 17:10:48.291862 24283 net.cpp:106] Creating Layer inception_5b/5x5_reduce
I1105 17:10:48.291868 24283 net.cpp:454] inception_5b/5x5_reduce <- inception_5a/output_inception_5a/output_0_split_2
I1105 17:10:48.291875 24283 net.cpp:411] inception_5b/5x5_reduce -> inception_5b/5x5_reduce
I1105 17:10:48.293079 24283 cudnn_conv_layer.cpp:194] Reallocating workspace storage: 7428
I1105 17:10:48.293110 24283 net.cpp:150] Setting up inception_5b/5x5_reduce
I1105 17:10:48.293118 24283 net.cpp:157] Top shape: 32 48 7 7 (75264)
I1105 17:10:48.293123 24283 net.cpp:165] Memory required for data: 1779293192
I1105 17:10:48.293130 24283 layer_factory.hpp:76] Creating layer inception_5b/prelu_5x5_reduce
I1105 17:10:48.293146 24283 net.cpp:106] Creating Layer inception_5b/prelu_5x5_reduce
I1105 17:10:48.293154 24283 net.cpp:454] inception_5b/prelu_5x5_reduce <- inception_5b/5x5_reduce
I1105 17:10:48.293160 24283 net.cpp:397] inception_5b/prelu_5x5_reduce -> inception_5b/5x5_reduce (in-place)
I1105 17:10:48.293303 24283 net.cpp:150] Setting up inception_5b/prelu_5x5_reduce
I1105 17:10:48.293311 24283 net.cpp:157] Top shape: 32 48 7 7 (75264)
I1105 17:10:48.293315 24283 net.cpp:165] Memory required for data: 1779594248
I1105 17:10:48.293321 24283 layer_factory.hpp:76] Creating layer inception_5b/5x5
I1105 17:10:48.293331 24283 net.cpp:106] Creating Layer inception_5b/5x5
I1105 17:10:48.293336 24283 net.cpp:454] inception_5b/5x5 <- inception_5b/5x5_reduce
I1105 17:10:48.293344 24283 net.cpp:411] inception_5b/5x5 -> inception_5b/5x5
I1105 17:10:48.295306 24283 cudnn_conv_layer.cpp:194] Reallocating workspace storage: 9804
I1105 17:10:48.295336 24283 net.cpp:150] Setting up inception_5b/5x5
I1105 17:10:48.295344 24283 net.cpp:157] Top shape: 32 128 7 7 (200704)
I1105 17:10:48.295348 24283 net.cpp:165] Memory required for data: 1780397064
I1105 17:10:48.295354 24283 layer_factory.hpp:76] Creating layer inception_5b/prelu_5x5
I1105 17:10:48.295370 24283 net.cpp:106] Creating Layer inception_5b/prelu_5x5
I1105 17:10:48.295375 24283 net.cpp:454] inception_5b/prelu_5x5 <- inception_5b/5x5
I1105 17:10:48.295382 24283 net.cpp:397] inception_5b/prelu_5x5 -> inception_5b/5x5 (in-place)
I1105 17:10:48.295518 24283 net.cpp:150] Setting up inception_5b/prelu_5x5
I1105 17:10:48.295527 24283 net.cpp:157] Top shape: 32 128 7 7 (200704)
I1105 17:10:48.295531 24283 net.cpp:165] Memory required for data: 1781199880
I1105 17:10:48.295545 24283 layer_factory.hpp:76] Creating layer inception_5b/pool
I1105 17:10:48.295553 24283 net.cpp:106] Creating Layer inception_5b/pool
I1105 17:10:48.295558 24283 net.cpp:454] inception_5b/pool <- inception_5a/output_inception_5a/output_0_split_3
I1105 17:10:48.295564 24283 net.cpp:411] inception_5b/pool -> inception_5b/pool
I1105 17:10:48.295971 24283 net.cpp:150] Setting up inception_5b/pool
I1105 17:10:48.295984 24283 net.cpp:157] Top shape: 32 832 7 7 (1304576)
I1105 17:10:48.295995 24283 net.cpp:165] Memory required for data: 1786418184
I1105 17:10:48.296000 24283 layer_factory.hpp:76] Creating layer inception_5b/pool_proj
I1105 17:10:48.296010 24283 net.cpp:106] Creating Layer inception_5b/pool_proj
I1105 17:10:48.296015 24283 net.cpp:454] inception_5b/pool_proj <- inception_5b/pool
I1105 17:10:48.296030 24283 net.cpp:411] inception_5b/pool_proj -> inception_5b/pool_proj
I1105 17:10:48.298221 24283 cudnn_conv_layer.cpp:194] Reallocating workspace storage: 7428
I1105 17:10:48.298251 24283 net.cpp:150] Setting up inception_5b/pool_proj
I1105 17:10:48.298260 24283 net.cpp:157] Top shape: 32 128 7 7 (200704)
I1105 17:10:48.298264 24283 net.cpp:165] Memory required for data: 1787221000
I1105 17:10:48.298271 24283 layer_factory.hpp:76] Creating layer inception_5b/prelu_pool_proj
I1105 17:10:48.298280 24283 net.cpp:106] Creating Layer inception_5b/prelu_pool_proj
I1105 17:10:48.298285 24283 net.cpp:454] inception_5b/prelu_pool_proj <- inception_5b/pool_proj
I1105 17:10:48.298291 24283 net.cpp:397] inception_5b/prelu_pool_proj -> inception_5b/pool_proj (in-place)
I1105 17:10:48.298394 24283 net.cpp:150] Setting up inception_5b/prelu_pool_proj
I1105 17:10:48.298404 24283 net.cpp:157] Top shape: 32 128 7 7 (200704)
I1105 17:10:48.298408 24283 net.cpp:165] Memory required for data: 1788023816
I1105 17:10:48.298414 24283 layer_factory.hpp:76] Creating layer inception_5b/output
I1105 17:10:48.298423 24283 net.cpp:106] Creating Layer inception_5b/output
I1105 17:10:48.298439 24283 net.cpp:454] inception_5b/output <- inception_5b/1x1
I1105 17:10:48.298444 24283 net.cpp:454] inception_5b/output <- inception_5b/3x3
I1105 17:10:48.298449 24283 net.cpp:454] inception_5b/output <- inception_5b/5x5
I1105 17:10:48.298454 24283 net.cpp:454] inception_5b/output <- inception_5b/pool_proj
I1105 17:10:48.298460 24283 net.cpp:411] inception_5b/output -> inception_5b/output
I1105 17:10:48.298498 24283 net.cpp:150] Setting up inception_5b/output
I1105 17:10:48.298516 24283 net.cpp:157] Top shape: 32 1024 7 7 (1605632)
I1105 17:10:48.298521 24283 net.cpp:165] Memory required for data: 1794446344
I1105 17:10:48.298524 24283 layer_factory.hpp:76] Creating layer pool5/7x7_s1
I1105 17:10:48.298530 24283 net.cpp:106] Creating Layer pool5/7x7_s1
I1105 17:10:48.298535 24283 net.cpp:454] pool5/7x7_s1 <- inception_5b/output
I1105 17:10:48.298552 24283 net.cpp:411] pool5/7x7_s1 -> pool5/7x7_s1
I1105 17:10:48.298734 24283 net.cpp:150] Setting up pool5/7x7_s1
I1105 17:10:48.298745 24283 net.cpp:157] Top shape: 32 1024 1 1 (32768)
I1105 17:10:48.298750 24283 net.cpp:165] Memory required for data: 1794577416
I1105 17:10:48.298754 24283 layer_factory.hpp:76] Creating layer pool5/drop_7x7_s1
I1105 17:10:48.298761 24283 net.cpp:106] Creating Layer pool5/drop_7x7_s1
I1105 17:10:48.298765 24283 net.cpp:454] pool5/drop_7x7_s1 <- pool5/7x7_s1
I1105 17:10:48.298771 24283 net.cpp:397] pool5/drop_7x7_s1 -> pool5/7x7_s1 (in-place)
I1105 17:10:48.298801 24283 net.cpp:150] Setting up pool5/drop_7x7_s1
I1105 17:10:48.298812 24283 net.cpp:157] Top shape: 32 1024 1 1 (32768)
I1105 17:10:48.298816 24283 net.cpp:165] Memory required for data: 1794708488
I1105 17:10:48.298820 24283 layer_factory.hpp:76] Creating layer loss3/classifier2
I1105 17:10:48.298830 24283 net.cpp:106] Creating Layer loss3/classifier2
I1105 17:10:48.298849 24283 net.cpp:454] loss3/classifier2 <- pool5/7x7_s1
I1105 17:10:48.298856 24283 net.cpp:411] loss3/classifier2 -> loss3/classifier
I1105 17:10:48.299000 24283 net.cpp:150] Setting up loss3/classifier2
I1105 17:10:48.299010 24283 net.cpp:157] Top shape: 32 2 (64)
I1105 17:10:48.299013 24283 net.cpp:165] Memory required for data: 1794708744
I1105 17:10:48.299021 24283 layer_factory.hpp:76] Creating layer loss3/loss3
I1105 17:10:48.299027 24283 net.cpp:106] Creating Layer loss3/loss3
I1105 17:10:48.299031 24283 net.cpp:454] loss3/loss3 <- loss3/classifier
I1105 17:10:48.299037 24283 net.cpp:454] loss3/loss3 <- label_data_1_split_2
I1105 17:10:48.299044 24283 net.cpp:411] loss3/loss3 -> loss3/loss3
…
I1105 17:10:48.304128 24283 net.cpp:322] The NetState phase (1) differed from the phase (0) specified by a rule in layer data
I1105 17:10:48.305286 24283 net.cpp:49] Initializing net from parameters: 
name: "GoogleNet"
state {
  phase: TEST
}
layer {
  name: "data"
  type: "Data"
  top: "data"
  top: "label"
  include {
    phase: TEST
  }
  transform_param {
    mirror: false
    crop_size: 224
    mean_value: 104
    mean_value: 117
    mean_value: 123
  }
  data_param {
    source: "../../LMDB/val_0-lmdb"
    batch_size: 50
    backend: LMDB
  }
}
layer {
  name: "conv1/7x7_s2"
  type: "Convolution"
  bottom: "data"
  top: "conv1/7x7_s2"
  param {
    lr_mult: 1
    decay_mult: 1
  }
  param {
    lr_mult: 2
    decay_mult: 0
  }
  convolution_param {
    num_output: 64
    pad: 3
    kernel_size: 7
    stride: 2
    weight_filler {
      type: "xavier"
    }
    bias_filler {
      type: "constant"
      value: 0.2
    }
  }
}
layer {
  name: "conv1/prelu_7x7"
  type: "PReLU"
  bottom: "conv1/7x7_s2"
  top: "conv1/7x7_s2"
  param {
    lr_mult: 1
    decay_mult: 0
  }
  prelu_param {
    filler {
      type: "constant"
      value: 0.01
    }
  }
}
layer {
  name: "pool1/3x3_s2"
  type: "Pooling"
  bottom: "conv1/7x7_s2"
  top: "pool1/3x3_s2"
  pooling_param {
    pool: MAX
    kernel_size: 3
    stride: 2
  }
}
layer {
  name: "pool1/norm1"
  type: "LRN"
  bottom: "pool1/3x3_s2"
  top: "pool1/norm1"
  lrn_param {
    local_size: 5
    alpha: 0.0001
    beta: 0.75
  }
}
layer {
  name: "conv2/3x3_reduce"
  type: "Convolution"
  bottom: "pool1/norm1"
  top: "conv2/3x3_reduce"
  param {
    lr_mult: 1
    decay_mult: 1
  }
  param {
    lr_mult: 2
    decay_mult: 0
  }
  convolution_param {
    num_output: 64
    kernel_size: 1
    weight_filler {
      type: "xavier"
    }
    bias_filler {
      type: "constant"
      value: 0.2
    }
  }
}
layer {
  name: "conv2/prelu_3x3_reduce"
  type: "PReLU"
  bottom: "conv2/3x3_reduce"
  top: "conv2/3x3_reduce"
  param {
    lr_mult: 1
    decay_mult: 0
  }
  prelu_param {
    filler {
      type: "constant"
      value: 0.01
    }
  }
}
layer {
  name: "conv2/3x3"
  type: "Convolution"
  bottom: "conv2/3x3_reduce"
  top: "conv2/3x3"
  param {
    lr_mult: 1
    decay_mult: 1
  }
  param {
    lr_mult: 2
    decay_mult: 0
  }
  convolution_param {
    num_output: 192
    pad: 1
    kernel_size: 3
    weight_filler {
      type: "xavier"
    }
    bias_filler {
      type: "constant"
      value: 0.2
    }
  }
}
layer {
  name: "conv2/prelu_3x3"
  type: "PReLU"
  bottom: "conv2/3x3"
  top: "conv2/3x3"
  param {
    lr_mult: 1
    decay_mult: 0
  }
  prelu_param {
    filler {
      type: "constant"
      value: 0.01
    }
  }
}
layer {
  name: "conv2/norm2"
  type: "LRN"
  bottom: "conv2/3x3"
  top: "conv2/norm2"
  lrn_param {
    local_size: 5
    alpha: 0.0001
    beta: 0.75
  }
}
layer {
  name: "pool2/3x3_s2"
  type: "Pooling"
  bottom: "conv2/norm2"
  top: "pool2/3x3_s2"
  pooling_param {
    pool: MAX
    kernel_size: 3
    stride: 2
  }
}
layer {
  name: "inception_3a/1x1"
  type: "Convolution"
  bottom: "pool2/3x3_s2"
  top: "inception_3a/1x1"
  param {
    lr_mult: 1
    decay_mult: 1
  }
  param {
    lr_mult: 2
    decay_mult: 0
  }
  convolution_param {
    num_output: 64
    kernel_size: 1
    weight_filler {
      type: "xavier"
    }
    bias_filler {
      type: "constant"
      value: 0.2
    }
  }
}
layer {
  name: "inception_3a/prelu_1x1"
  type: "PReLU"
  bottom: "inception_3a/1x1"
  top: "inception_3a/1x1"
  param {
    lr_mult: 1
    decay_mult: 0
  }
  prelu_param {
    filler {
      type: "constant"
      value: 0.01
    }
  }
}
layer {
  name: "inception_3a/3x3_reduce"
  type: "Convolution"
  bottom: "pool2/3x3_s2"
  top: "inception_3a/3x3_reduce"
  param {
    lr_mult: 1
    decay_mult: 1
  }
  param {
    lr_mult: 2
    decay_mult: 0
  }
  convolution_param {
    num_output: 96
    kernel_size: 1
    weight_filler {
      type: "xavier"
    }
    bias_filler {
      type: "constant"
      value: 0.2
    }
  }
}
layer {
  name: "inception_3a/prelu_3x3_reduce"
  type: "PReLU"
  bottom: "inception_3a/3x3_reduce"
  top: "inception_3a/3x3_reduce"
  param {
    lr_mult: 1
    decay_mult: 0
  }
  prelu_param {
    filler {
      type: "constant"
      value: 0.01
    }
  }
}
layer {
  name: "inception_3a/3x3"
  type: "Convolution"
  bottom: "inception_3a/3x3_reduce"
  top: "inception_3a/3x3"
  param {
    lr_mult: 1
    decay_mult: 1
  }
  param {
    lr_mult: 2
    decay_mult: 0
  }
  convolution_param {
    num_output: 128
    pad: 1
    kernel_size: 3
    weight_filler {
      type: "xavier"
    }
    bias_filler {
      type: "constant"
      value: 0.2
    }
  }
}
layer {
  name: "inception_3a/prelu_3x3"
  type: "PReLU"
  bottom: "inception_3a/3x3"
  top: "inception_3a/3x3"
  param {
    lr_mult: 1
    decay_mult: 0
  }
  prelu_param {
    filler {
      type: "constant"
      value: 0.01
    }
  }
}
layer {
  name: "inception_3a/5x5_reduce"
  type: "Convolution"
  bottom: "pool2/3x3_s2"
  top: "inception_3a/5x5_reduce"
  param {
    lr_mult: 1
    decay_mult: 1
  }
  param {
    lr_mult: 2
    decay_mult: 0
  }
  convolution_param {
    num_output: 16
    kernel_size: 1
    weight_filler {
      type: "xavier"
    }
    bias_filler {
      type: "constant"
      value: 0.2
    }
  }
}
layer {
  name: "inception_3a/prelu_5x5_reduce"
  type: "PReLU"
  bottom: "inception_3a/5x5_reduce"
  top: "inception_3a/5x5_reduce"
  param {
    lr_mult: 1
    decay_mult: 0
  }
  prelu_param {
    filler {
      type: "constant"
      value: 0.01
    }
  }
}
layer {
  name: "inception_3a/5x5"
  type: "Convolution"
  bottom: "inception_3a/5x5_reduce"
  top: "inception_3a/5x5"
  param {
    lr_mult: 1
    decay_mult: 1
  }
  param {
    lr_mult: 2
    decay_mult: 0
  }
  convolution_param {
    num_output: 32
    pad: 2
    kernel_size: 5
    weight_filler {
      type: "xavier"
    }
    bias_filler {
      type: "constant"
      value: 0.2
    }
  }
}
layer {
  name: "inception_3a/prelu_5x5"
  type: "PReLU"
  bottom: "inception_3a/5x5"
  top: "inception_3a/5x5"
  param {
    lr_mult: 1
    decay_mult: 0
  }
  prelu_param {
    filler {
      type: "constant"
      value: 0.01
    }
  }
}
layer {
  name: "inception_3a/pool"
  type: "Pooling"
  bottom: "pool2/3x3_s2"
  top: "inception_3a/pool"
  pooling_param {
    pool: MAX
    kernel_size: 3
    stride: 1
    pad: 1
  }
}
layer {
  name: "inception_3a/pool_proj"
  type: "Convolution"
  bottom: "inception_3a/pool"
  top: "inception_3a/pool_proj"
  param {
    lr_mult: 1
    decay_mult: 1
  }
  param {
    lr_mult: 2
    decay_mult: 0
  }
  convolution_param {
    num_output: 32
    kernel_size: 1
    weight_filler {
      type: "xavier"
    }
    bias_filler {
      type: "constant"
      value: 0.2
    }
  }
}
layer {
  name: "inception_3a/prelu_pool_proj"
  type: "PReLU"
  bottom: "inception_3a/pool_proj"
  top: "inception_3a/pool_proj"
  param {
    lr_mult: 1
    decay_mult: 0
  }
  prelu_param {
    filler {
      type: "constant"
      value: 0.01
    }
  }
}
layer {
  name: "inception_3a/output"
  type: "Concat"
  bottom: "inception_3a/1x1"
  bottom: "inception_3a/3x3"
  bottom: "inception_3a/5x5"
  bottom: "inception_3a/pool_proj"
  top: "inception_3a/output"
}
layer {
  name: "inception_3b/1x1"
  type: "Convolution"
  bottom: "inception_3a/output"
  top: "inception_3b/1x1"
  param {
    lr_mult: 1
    decay_mult: 1
  }
  param {
    lr_mult: 2
    decay_mult: 0
  }
  convolution_param {
    num_output: 128
    kernel_size: 1
    weight_filler {
      type: "xavier"
    }
    bias_filler {
      type: "constant"
      value: 0.2
    }
  }
}
layer {
  name: "inception_3b/prelu_1x1"
  type: "PReLU"
  bottom: "inception_3b/1x1"
  top: "inception_3b/1x1"
  param {
    lr_mult: 1
    decay_mult: 0
  }
  prelu_param {
    filler {
      type: "constant"
      value: 0.01
    }
  }
}
layer {
  name: "inception_3b/3x3_reduce"
  type: "Convolution"
  bottom: "inception_3a/output"
  top: "inception_3b/3x3_reduce"
  param {
    lr_mult: 1
    decay_mult: 1
  }
  param {
    lr_mult: 2
    decay_mult: 0
  }
  convolution_param {
    num_output: 128
    kernel_size: 1
    weight_filler {
      type: "xavier"
    }
    bias_filler {
      type: "constant"
      value: 0.2
    }
  }
}
layer {
  name: "inception_3b/prelu_3x3_reduce"
  type: "PReLU"
  bottom: "inception_3b/3x3_reduce"
  top: "inception_3b/3x3_reduce"
  param {
    lr_mult: 1
    decay_mult: 0
  }
  prelu_param {
    filler {
      type: "constant"
      value: 0.01
    }
  }
}
layer {
  name: "inception_3b/3x3"
  type: "Convolution"
  bottom: "inception_3b/3x3_reduce"
  top: "inception_3b/3x3"
  param {
    lr_mult: 1
    decay_mult: 1
  }
  param {
    lr_mult: 2
    decay_mult: 0
  }
  convolution_param {
    num_output: 192
    pad: 1
    kernel_size: 3
    weight_filler {
      type: "xavier"
    }
…
I1105 17:10:48.580338 24283 net.cpp:106] Creating Layer inception_4c/output
I1105 17:10:48.580348 24283 net.cpp:454] inception_4c/output <- inception_4c/1x1
I1105 17:10:48.580358 24283 net.cpp:454] inception_4c/output <- inception_4c/3x3
I1105 17:10:48.580368 24283 net.cpp:454] inception_4c/output <- inception_4c/5x5
I1105 17:10:48.580376 24283 net.cpp:454] inception_4c/output <- inception_4c/pool_proj
I1105 17:10:48.580390 24283 net.cpp:411] inception_4c/output -> inception_4c/output
I1105 17:10:48.580428 24283 net.cpp:150] Setting up inception_4c/output
I1105 17:10:48.580440 24283 net.cpp:157] Top shape: 50 512 14 14 (5017600)
I1105 17:10:48.580448 24283 net.cpp:165] Memory required for data: 2234652208
I1105 17:10:48.580457 24283 layer_factory.hpp:76] Creating layer inception_4c/output_inception_4c/output_0_split
I1105 17:10:48.580472 24283 net.cpp:106] Creating Layer inception_4c/output_inception_4c/output_0_split
I1105 17:10:48.580492 24283 net.cpp:454] inception_4c/output_inception_4c/output_0_split <- inception_4c/output
I1105 17:10:48.580510 24283 net.cpp:411] inception_4c/output_inception_4c/output_0_split -> inception_4c/output_inception_4c/output_0_split_0
I1105 17:10:48.580528 24283 net.cpp:411] inception_4c/output_inception_4c/output_0_split -> inception_4c/output_inception_4c/output_0_split_1
I1105 17:10:48.580546 24283 net.cpp:411] inception_4c/output_inception_4c/output_0_split -> inception_4c/output_inception_4c/output_0_split_2
I1105 17:10:48.580564 24283 net.cpp:411] inception_4c/output_inception_4c/output_0_split -> inception_4c/output_inception_4c/output_0_split_3
I1105 17:10:48.580651 24283 net.cpp:150] Setting up inception_4c/output_inception_4c/output_0_split
I1105 17:10:48.580663 24283 net.cpp:157] Top shape: 50 512 14 14 (5017600)
I1105 17:10:48.580673 24283 net.cpp:157] Top shape: 50 512 14 14 (5017600)
I1105 17:10:48.580692 24283 net.cpp:157] Top shape: 50 512 14 14 (5017600)
I1105 17:10:48.580701 24283 net.cpp:157] Top shape: 50 512 14 14 (5017600)
I1105 17:10:48.580709 24283 net.cpp:165] Memory required for data: 2314933808
I1105 17:10:48.580718 24283 layer_factory.hpp:76] Creating layer inception_4d/1x1
I1105 17:10:48.580735 24283 net.cpp:106] Creating Layer inception_4d/1x1
I1105 17:10:48.580745 24283 net.cpp:454] inception_4d/1x1 <- inception_4c/output_inception_4c/output_0_split_0
I1105 17:10:48.580759 24283 net.cpp:411] inception_4d/1x1 -> inception_4d/1x1
I1105 17:10:48.582816 24283 cudnn_conv_layer.cpp:194] Reallocating workspace storage: 10080
I1105 17:10:48.582891 24283 net.cpp:150] Setting up inception_4d/1x1
I1105 17:10:48.582909 24283 net.cpp:157] Top shape: 50 112 14 14 (1097600)
I1105 17:10:48.582919 24283 net.cpp:165] Memory required for data: 2319324208
I1105 17:10:48.582937 24283 layer_factory.hpp:76] Creating layer inception_4d/prelu_1x1
I1105 17:10:48.582959 24283 net.cpp:106] Creating Layer inception_4d/prelu_1x1
I1105 17:10:48.582970 24283 net.cpp:454] inception_4d/prelu_1x1 <- inception_4d/1x1
I1105 17:10:48.582984 24283 net.cpp:397] inception_4d/prelu_1x1 -> inception_4d/1x1 (in-place)
I1105 17:10:48.583173 24283 net.cpp:150] Setting up inception_4d/prelu_1x1
I1105 17:10:48.583186 24283 net.cpp:157] Top shape: 50 112 14 14 (1097600)
I1105 17:10:48.583194 24283 net.cpp:165] Memory required for data: 2323714608
I1105 17:10:48.583206 24283 layer_factory.hpp:76] Creating layer inception_4d/3x3_reduce
I1105 17:10:48.583248 24283 net.cpp:106] Creating Layer inception_4d/3x3_reduce
I1105 17:10:48.583271 24283 net.cpp:454] inception_4d/3x3_reduce <- inception_4c/output_inception_4c/output_0_split_1
I1105 17:10:48.583286 24283 net.cpp:411] inception_4d/3x3_reduce -> inception_4d/3x3_reduce
I1105 17:10:48.585366 24283 cudnn_conv_layer.cpp:194] Reallocating workspace storage: 10080
I1105 17:10:48.585429 24283 net.cpp:150] Setting up inception_4d/3x3_reduce
I1105 17:10:48.585445 24283 net.cpp:157] Top shape: 50 144 14 14 (1411200)
I1105 17:10:48.585454 24283 net.cpp:165] Memory required for data: 2329359408
I1105 17:10:48.585471 24283 layer_factory.hpp:76] Creating layer inception_4d/prelu_3x3_reduce
I1105 17:10:48.585491 24283 net.cpp:106] Creating Layer inception_4d/prelu_3x3_reduce
I1105 17:10:48.585505 24283 net.cpp:454] inception_4d/prelu_3x3_reduce <- inception_4d/3x3_reduce
I1105 17:10:48.585521 24283 net.cpp:397] inception_4d/prelu_3x3_reduce -> inception_4d/3x3_reduce (in-place)
I1105 17:10:48.585659 24283 net.cpp:150] Setting up inception_4d/prelu_3x3_reduce
I1105 17:10:48.585671 24283 net.cpp:157] Top shape: 50 144 14 14 (1411200)
I1105 17:10:48.585680 24283 net.cpp:165] Memory required for data: 2335004208
I1105 17:10:48.585691 24283 layer_factory.hpp:76] Creating layer inception_4d/3x3
I1105 17:10:48.585711 24283 net.cpp:106] Creating Layer inception_4d/3x3
I1105 17:10:48.585721 24283 net.cpp:454] inception_4d/3x3 <- inception_4d/3x3_reduce
I1105 17:10:48.585737 24283 net.cpp:411] inception_4d/3x3 -> inception_4d/3x3
I1105 17:10:48.590157 24283 cudnn_conv_layer.cpp:194] Reallocating workspace storage: 10080
I1105 17:10:48.590220 24283 net.cpp:150] Setting up inception_4d/3x3
I1105 17:10:48.590237 24283 net.cpp:157] Top shape: 50 288 14 14 (2822400)
I1105 17:10:48.590246 24283 net.cpp:165] Memory required for data: 2346293808
I1105 17:10:48.590261 24283 layer_factory.hpp:76] Creating layer inception_4d/prelu_3x3
I1105 17:10:48.590281 24283 net.cpp:106] Creating Layer inception_4d/prelu_3x3
I1105 17:10:48.590293 24283 net.cpp:454] inception_4d/prelu_3x3 <- inception_4d/3x3
I1105 17:10:48.590309 24283 net.cpp:397] inception_4d/prelu_3x3 -> inception_4d/3x3 (in-place)
I1105 17:10:48.591135 24283 net.cpp:150] Setting up inception_4d/prelu_3x3
I1105 17:10:48.591156 24283 net.cpp:157] Top shape: 50 288 14 14 (2822400)
I1105 17:10:48.591163 24283 net.cpp:165] Memory required for data: 2357583408
I1105 17:10:48.591174 24283 layer_factory.hpp:76] Creating layer inception_4d/5x5_reduce
I1105 17:10:48.591195 24283 net.cpp:106] Creating Layer inception_4d/5x5_reduce
I1105 17:10:48.591207 24283 net.cpp:454] inception_4d/5x5_reduce <- inception_4c/output_inception_4c/output_0_split_2
I1105 17:10:48.591223 24283 net.cpp:411] inception_4d/5x5_reduce -> inception_4d/5x5_reduce
I1105 17:10:48.592994 24283 cudnn_conv_layer.cpp:194] Reallocating workspace storage: 10080
I1105 17:10:48.593056 24283 net.cpp:150] Setting up inception_4d/5x5_reduce
I1105 17:10:48.593075 24283 net.cpp:157] Top shape: 50 32 14 14 (313600)
I1105 17:10:48.593085 24283 net.cpp:165] Memory required for data: 2358837808
I1105 17:10:48.593108 24283 layer_factory.hpp:76] Creating layer inception_4d/prelu_5x5_reduce
I1105 17:10:48.593137 24283 net.cpp:106] Creating Layer inception_4d/prelu_5x5_reduce
I1105 17:10:48.593158 24283 net.cpp:454] inception_4d/prelu_5x5_reduce <- inception_4d/5x5_reduce
I1105 17:10:48.593171 24283 net.cpp:397] inception_4d/prelu_5x5_reduce -> inception_4d/5x5_reduce (in-place)
I1105 17:10:48.593309 24283 net.cpp:150] Setting up inception_4d/prelu_5x5_reduce
I1105 17:10:48.593322 24283 net.cpp:157] Top shape: 50 32 14 14 (313600)
I1105 17:10:48.593329 24283 net.cpp:165] Memory required for data: 2360092208
I1105 17:10:48.593350 24283 layer_factory.hpp:76] Creating layer inception_4d/5x5
I1105 17:10:48.593377 24283 net.cpp:106] Creating Layer inception_4d/5x5
I1105 17:10:48.593400 24283 net.cpp:454] inception_4d/5x5 <- inception_4d/5x5_reduce
I1105 17:10:48.593415 24283 net.cpp:411] inception_4d/5x5 -> inception_4d/5x5
I1105 17:10:48.594772 24283 cudnn_conv_layer.cpp:194] Reallocating workspace storage: 13080
I1105 17:10:48.594815 24283 net.cpp:150] Setting up inception_4d/5x5
I1105 17:10:48.594828 24283 net.cpp:157] Top shape: 50 64 14 14 (627200)
I1105 17:10:48.594836 24283 net.cpp:165] Memory required for data: 2362601008
I1105 17:10:48.594851 24283 layer_factory.hpp:76] Creating layer inception_4d/prelu_5x5
I1105 17:10:48.594867 24283 net.cpp:106] Creating Layer inception_4d/prelu_5x5
I1105 17:10:48.594878 24283 net.cpp:454] inception_4d/prelu_5x5 <- inception_4d/5x5
I1105 17:10:48.594893 24283 net.cpp:397] inception_4d/prelu_5x5 -> inception_4d/5x5 (in-place)
I1105 17:10:48.595000 24283 net.cpp:150] Setting up inception_4d/prelu_5x5
I1105 17:10:48.595011 24283 net.cpp:157] Top shape: 50 64 14 14 (627200)
I1105 17:10:48.595019 24283 net.cpp:165] Memory required for data: 2365109808
I1105 17:10:48.595031 24283 layer_factory.hpp:76] Creating layer inception_4d/pool
I1105 17:10:48.595048 24283 net.cpp:106] Creating Layer inception_4d/pool
I1105 17:10:48.595060 24283 net.cpp:454] inception_4d/pool <- inception_4c/output_inception_4c/output_0_split_3
I1105 17:10:48.595072 24283 net.cpp:411] inception_4d/pool -> inception_4d/pool
I1105 17:10:48.595583 24283 net.cpp:150] Setting up inception_4d/pool
I1105 17:10:48.595598 24283 net.cpp:157] Top shape: 50 512 14 14 (5017600)
I1105 17:10:48.595607 24283 net.cpp:165] Memory required for data: 2385180208
I1105 17:10:48.595615 24283 layer_factory.hpp:76] Creating layer inception_4d/pool_proj
I1105 17:10:48.595633 24283 net.cpp:106] Creating Layer inception_4d/pool_proj
I1105 17:10:48.595654 24283 net.cpp:454] inception_4d/pool_proj <- inception_4d/pool
I1105 17:10:48.595671 24283 net.cpp:411] inception_4d/pool_proj -> inception_4d/pool_proj
I1105 17:10:48.597209 24283 cudnn_conv_layer.cpp:194] Reallocating workspace storage: 10080
I1105 17:10:48.597259 24283 net.cpp:150] Setting up inception_4d/pool_proj
I1105 17:10:48.597271 24283 net.cpp:157] Top shape: 50 64 14 14 (627200)
I1105 17:10:48.597280 24283 net.cpp:165] Memory required for data: 2387689008
I1105 17:10:48.597295 24283 layer_factory.hpp:76] Creating layer inception_4d/prelu_pool_proj
I1105 17:10:48.597327 24283 net.cpp:106] Creating Layer inception_4d/prelu_pool_proj
I1105 17:10:48.597337 24283 net.cpp:454] inception_4d/prelu_pool_proj <- inception_4d/pool_proj
I1105 17:10:48.597350 24283 net.cpp:397] inception_4d/prelu_pool_proj -> inception_4d/pool_proj (in-place)
I1105 17:10:48.597453 24283 net.cpp:150] Setting up inception_4d/prelu_pool_proj
I1105 17:10:48.597465 24283 net.cpp:157] Top shape: 50 64 14 14 (627200)
I1105 17:10:48.597473 24283 net.cpp:165] Memory required for data: 2390197808
I1105 17:10:48.597484 24283 layer_factory.hpp:76] Creating layer inception_4d/output
I1105 17:10:48.597496 24283 net.cpp:106] Creating Layer inception_4d/output
I1105 17:10:48.597506 24283 net.cpp:454] inception_4d/output <- inception_4d/1x1
I1105 17:10:48.597515 24283 net.cpp:454] inception_4d/output <- inception_4d/3x3
I1105 17:10:48.597525 24283 net.cpp:454] inception_4d/output <- inception_4d/5x5
I1105 17:10:48.597535 24283 net.cpp:454] inception_4d/output <- inception_4d/pool_proj
I1105 17:10:48.597548 24283 net.cpp:411] inception_4d/output -> inception_4d/output
I1105 17:10:48.597584 24283 net.cpp:150] Setting up inception_4d/output
I1105 17:10:48.597595 24283 net.cpp:157] Top shape: 50 528 14 14 (5174400)
I1105 17:10:48.597604 24283 net.cpp:165] Memory required for data: 2410895408
I1105 17:10:48.597611 24283 layer_factory.hpp:76] Creating layer inception_4d/output_inception_4d/output_0_split
I1105 17:10:48.597626 24283 net.cpp:106] Creating Layer inception_4d/output_inception_4d/output_0_split
I1105 17:10:48.597636 24283 net.cpp:454] inception_4d/output_inception_4d/output_0_split <- inception_4d/output
I1105 17:10:48.597647 24283 net.cpp:411] inception_4d/output_inception_4d/output_0_split -> inception_4d/output_inception_4d/output_0_split_0
I1105 17:10:48.597663 24283 net.cpp:411] inception_4d/output_inception_4d/output_0_split -> inception_4d/output_inception_4d/output_0_split_1
I1105 17:10:48.597678 24283 net.cpp:411] inception_4d/output_inception_4d/output_0_split -> inception_4d/output_inception_4d/output_0_split_2
I1105 17:10:48.597693 24283 net.cpp:411] inception_4d/output_inception_4d/output_0_split -> inception_4d/output_inception_4d/output_0_split_3
I1105 17:10:48.597707 24283 net.cpp:411] inception_4d/output_inception_4d/output_0_split -> inception_4d/output_inception_4d/output_0_split_4
I1105 17:10:48.597777 24283 net.cpp:150] Setting up inception_4d/output_inception_4d/output_0_split
I1105 17:10:48.597790 24283 net.cpp:157] Top shape: 50 528 14 14 (5174400)
I1105 17:10:48.597800 24283 net.cpp:157] Top shape: 50 528 14 14 (5174400)
I1105 17:10:48.597810 24283 net.cpp:157] Top shape: 50 528 14 14 (5174400)
I1105 17:10:48.597820 24283 net.cpp:157] Top shape: 50 528 14 14 (5174400)
I1105 17:10:48.597831 24283 net.cpp:157] Top shape: 50 528 14 14 (5174400)
I1105 17:10:48.597838 24283 net.cpp:165] Memory required for data: 2514383408
I1105 17:10:48.597846 24283 layer_factory.hpp:76] Creating layer loss2/ave_pool
I1105 17:10:48.597861 24283 net.cpp:106] Creating Layer loss2/ave_pool
I1105 17:10:48.597869 24283 net.cpp:454] loss2/ave_pool <- inception_4d/output_inception_4d/output_0_split_0
I1105 17:10:48.597882 24283 net.cpp:411] loss2/ave_pool -> loss2/ave_pool
I1105 17:10:48.598088 24283 net.cpp:150] Setting up loss2/ave_pool
I1105 17:10:48.598100 24283 net.cpp:157] Top shape: 50 528 4 4 (422400)
I1105 17:10:48.598109 24283 net.cpp:165] Memory required for data: 2516073008
I1105 17:10:48.598117 24283 layer_factory.hpp:76] Creating layer loss2/conv
I1105 17:10:48.598132 24283 net.cpp:106] Creating Layer loss2/conv
I1105 17:10:48.598141 24283 net.cpp:454] loss2/conv <- loss2/ave_pool
I1105 17:10:48.598155 24283 net.cpp:411] loss2/conv -> loss2/conv
I1105 17:10:48.599856 24283 cudnn_conv_layer.cpp:194] Reallocating workspace storage: 6840
I1105 17:10:48.599900 24283 net.cpp:150] Setting up loss2/conv
I1105 17:10:48.599913 24283 net.cpp:157] Top shape: 50 128 4 4 (102400)
I1105 17:10:48.599921 24283 net.cpp:165] Memory required for data: 2516482608
I1105 17:10:48.599934 24283 layer_factory.hpp:76] Creating layer loss2/prelu_conv
I1105 17:10:48.599959 24283 net.cpp:106] Creating Layer loss2/prelu_conv
I1105 17:10:48.599972 24283 net.cpp:454] loss2/prelu_conv <- loss2/conv
I1105 17:10:48.599987 24283 net.cpp:397] loss2/prelu_conv -> loss2/conv (in-place)
I1105 17:10:48.600095 24283 net.cpp:150] Setting up loss2/prelu_conv
I1105 17:10:48.600107 24283 net.cpp:157] Top shape: 50 128 4 4 (102400)
I1105 17:10:48.600116 24283 net.cpp:165] Memory required for data: 2516892208
I1105 17:10:48.600126 24283 layer_factory.hpp:76] Creating layer loss2/fc
I1105 17:10:48.600142 24283 net.cpp:106] Creating Layer loss2/fc
I1105 17:10:48.600152 24283 net.cpp:454] loss2/fc <- loss2/conv
I1105 17:10:48.600164 24283 net.cpp:411] loss2/fc -> loss2/fc
I1105 17:10:48.616320 24283 net.cpp:150] Setting up loss2/fc
I1105 17:10:48.616358 24283 net.cpp:157] Top shape: 50 1024 (51200)
I1105 17:10:48.616366 24283 net.cpp:165] Memory required for data: 2517097008
I1105 17:10:48.616410 24283 layer_factory.hpp:76] Creating layer loss2/prelu_fc
I1105 17:10:48.616430 24283 net.cpp:106] Creating Layer loss2/prelu_fc
I1105 17:10:48.616443 24283 net.cpp:454] loss2/prelu_fc <- loss2/fc
I1105 17:10:48.616458 24283 net.cpp:397] loss2/prelu_fc -> loss2/fc (in-place)
I1105 17:10:48.616569 24283 net.cpp:150] Setting up loss2/prelu_fc
I1105 17:10:48.616581 24283 net.cpp:157] Top shape: 50 1024 (51200)
I1105 17:10:48.616588 24283 net.cpp:165] Memory required for data: 2517301808
I1105 17:10:48.616600 24283 layer_factory.hpp:76] Creating layer loss2/drop_fc
I1105 17:10:48.616612 24283 net.cpp:106] Creating Layer loss2/drop_fc
I1105 17:10:48.616622 24283 net.cpp:454] loss2/drop_fc <- loss2/fc
I1105 17:10:48.616646 24283 net.cpp:397] loss2/drop_fc -> loss2/fc (in-place)
I1105 17:10:48.616688 24283 net.cpp:150] Setting up loss2/drop_fc
I1105 17:10:48.616699 24283 net.cpp:157] Top shape: 50 1024 (51200)
I1105 17:10:48.616708 24283 net.cpp:165] Memory required for data: 2517506608
I1105 17:10:48.616715 24283 layer_factory.hpp:76] Creating layer loss2/classifier2
I1105 17:10:48.616727 24283 net.cpp:106] Creating Layer loss2/classifier2
I1105 17:10:48.616736 24283 net.cpp:454] loss2/classifier2 <- loss2/fc
I1105 17:10:48.616770 24283 net.cpp:411] loss2/classifier2 -> loss2/classifier
I1105 17:10:48.616904 24283 net.cpp:150] Setting up loss2/classifier2
I1105 17:10:48.616915 24283 net.cpp:157] Top shape: 50 2 (100)
I1105 17:10:48.616924 24283 net.cpp:165] Memory required for data: 2517507008
I1105 17:10:48.616936 24283 layer_factory.hpp:76] Creating layer loss2/classifier_loss2/classifier2_0_split
I1105 17:10:48.616950 24283 net.cpp:106] Creating Layer loss2/classifier_loss2/classifier2_0_split
I1105 17:10:48.616961 24283 net.cpp:454] loss2/classifier_loss2/classifier2_0_split <- loss2/classifier
I1105 17:10:48.616981 24283 net.cpp:411] loss2/classifier_loss2/classifier2_0_split -> loss2/classifier_loss2/classifier2_0_split_0
I1105 17:10:48.617004 24283 net.cpp:411] loss2/classifier_loss2/classifier2_0_split -> loss2/classifier_loss2/classifier2_0_split_1
I1105 17:10:48.617049 24283 net.cpp:150] Setting up loss2/classifier_loss2/classifier2_0_split
I1105 17:10:48.617060 24283 net.cpp:157] Top shape: 50 2 (100)
I1105 17:10:48.617141 24283 net.cpp:157] Top shape: 50 2 (100)
I1105 17:10:48.617148 24283 net.cpp:165] Memory required for data: 2517507808
I1105 17:10:48.617157 24283 layer_factory.hpp:76] Creating layer loss2/loss
I1105 17:10:48.617172 24283 net.cpp:106] Creating Layer loss2/loss
I1105 17:10:48.617182 24283 net.cpp:454] loss2/loss <- loss2/classifier_loss2/classifier2_0_split_0
I1105 17:10:48.617193 24283 net.cpp:454] loss2/loss <- label_data_1_split_2
…
I1105 17:10:48.618069 24283 net.cpp:165] Memory required for data: 2517507816
I1105 17:10:48.618077 24283 layer_factory.hpp:76] Creating layer inception_4e/1x1
I1105 17:10:48.618098 24283 net.cpp:106] Creating Layer inception_4e/1x1
I1105 17:10:48.618108 24283 net.cpp:454] inception_4e/1x1 <- inception_4d/output_inception_4d/output_0_split_1
I1105 17:10:48.618124 24283 net.cpp:411] inception_4e/1x1 -> inception_4e/1x1
I1105 17:10:48.620527 24283 cudnn_conv_layer.cpp:194] Reallocating workspace storage: 10080
I1105 17:10:48.620581 24283 net.cpp:150] Setting up inception_4e/1x1
I1105 17:10:48.620595 24283 net.cpp:157] Top shape: 50 256 14 14 (2508800)
I1105 17:10:48.620604 24283 net.cpp:165] Memory required for data: 2527543016
I1105 17:10:48.620618 24283 layer_factory.hpp:76] Creating layer inception_4e/prelu_1x1
I1105 17:10:48.620638 24283 net.cpp:106] Creating Layer inception_4e/prelu_1x1
I1105 17:10:48.620648 24283 net.cpp:454] inception_4e/prelu_1x1 <- inception_4e/1x1
I1105 17:10:48.620662 24283 net.cpp:397] inception_4e/prelu_1x1 -> inception_4e/1x1 (in-place)
I1105 17:10:48.620808 24283 net.cpp:150] Setting up inception_4e/prelu_1x1
I1105 17:10:48.620821 24283 net.cpp:157] Top shape: 50 256 14 14 (2508800)
I1105 17:10:48.620828 24283 net.cpp:165] Memory required for data: 2537578216
I1105 17:10:48.620841 24283 layer_factory.hpp:76] Creating layer inception_4e/3x3_reduce
I1105 17:10:48.620858 24283 net.cpp:106] Creating Layer inception_4e/3x3_reduce
I1105 17:10:48.620868 24283 net.cpp:454] inception_4e/3x3_reduce <- inception_4d/output_inception_4d/output_0_split_2
I1105 17:10:48.620882 24283 net.cpp:411] inception_4e/3x3_reduce -> inception_4e/3x3_reduce
I1105 17:10:48.622584 24283 cudnn_conv_layer.cpp:194] Reallocating workspace storage: 10080
I1105 17:10:48.622635 24283 net.cpp:150] Setting up inception_4e/3x3_reduce
I1105 17:10:48.622648 24283 net.cpp:157] Top shape: 50 160 14 14 (1568000)
I1105 17:10:48.622656 24283 net.cpp:165] Memory required for data: 2543850216
I1105 17:10:48.622671 24283 layer_factory.hpp:76] Creating layer inception_4e/prelu_3x3_reduce
I1105 17:10:48.622687 24283 net.cpp:106] Creating Layer inception_4e/prelu_3x3_reduce
I1105 17:10:48.622699 24283 net.cpp:454] inception_4e/prelu_3x3_reduce <- inception_4e/3x3_reduce
I1105 17:10:48.622711 24283 net.cpp:397] inception_4e/prelu_3x3_reduce -> inception_4e/3x3_reduce (in-place)
I1105 17:10:48.622841 24283 net.cpp:150] Setting up inception_4e/prelu_3x3_reduce
I1105 17:10:48.622853 24283 net.cpp:157] Top shape: 50 160 14 14 (1568000)
I1105 17:10:48.622861 24283 net.cpp:165] Memory required for data: 2550122216
I1105 17:10:48.622872 24283 layer_factory.hpp:76] Creating layer inception_4e/3x3
I1105 17:10:48.622905 24283 net.cpp:106] Creating Layer inception_4e/3x3
I1105 17:10:48.622915 24283 net.cpp:454] inception_4e/3x3 <- inception_4e/3x3_reduce
I1105 17:10:48.622928 24283 net.cpp:411] inception_4e/3x3 -> inception_4e/3x3
I1105 17:10:48.627765 24283 cudnn_conv_layer.cpp:194] Reallocating workspace storage: 10080
I1105 17:10:48.627820 24283 net.cpp:150] Setting up inception_4e/3x3
I1105 17:10:48.627835 24283 net.cpp:157] Top shape: 50 320 14 14 (3136000)
I1105 17:10:48.627843 24283 net.cpp:165] Memory required for data: 2562666216
I1105 17:10:48.627858 24283 layer_factory.hpp:76] Creating layer inception_4e/prelu_3x3
I1105 17:10:48.627879 24283 net.cpp:106] Creating Layer inception_4e/prelu_3x3
I1105 17:10:48.627890 24283 net.cpp:454] inception_4e/prelu_3x3 <- inception_4e/3x3
I1105 17:10:48.627904 24283 net.cpp:397] inception_4e/prelu_3x3 -> inception_4e/3x3 (in-place)
I1105 17:10:48.628638 24283 net.cpp:150] Setting up inception_4e/prelu_3x3
I1105 17:10:48.628654 24283 net.cpp:157] Top shape: 50 320 14 14 (3136000)
I1105 17:10:48.628662 24283 net.cpp:165] Memory required for data: 2575210216
I1105 17:10:48.628681 24283 layer_factory.hpp:76] Creating layer inception_4e/5x5_reduce
I1105 17:10:48.628700 24283 net.cpp:106] Creating Layer inception_4e/5x5_reduce
I1105 17:10:48.628711 24283 net.cpp:454] inception_4e/5x5_reduce <- inception_4d/output_inception_4d/output_0_split_3
I1105 17:10:48.628743 24283 net.cpp:411] inception_4e/5x5_reduce -> inception_4e/5x5_reduce
I1105 17:10:48.630089 24283 cudnn_conv_layer.cpp:194] Reallocating workspace storage: 10080
I1105 17:10:48.630133 24283 net.cpp:150] Setting up inception_4e/5x5_reduce
I1105 17:10:48.630146 24283 net.cpp:157] Top shape: 50 32 14 14 (313600)
I1105 17:10:48.630154 24283 net.cpp:165] Memory required for data: 2576464616
I1105 17:10:48.630167 24283 layer_factory.hpp:76] Creating layer inception_4e/prelu_5x5_reduce
I1105 17:10:48.630183 24283 net.cpp:106] Creating Layer inception_4e/prelu_5x5_reduce
I1105 17:10:48.630195 24283 net.cpp:454] inception_4e/prelu_5x5_reduce <- inception_4e/5x5_reduce
I1105 17:10:48.630208 24283 net.cpp:397] inception_4e/prelu_5x5_reduce -> inception_4e/5x5_reduce (in-place)
I1105 17:10:48.630314 24283 net.cpp:150] Setting up inception_4e/prelu_5x5_reduce
I1105 17:10:48.630326 24283 net.cpp:157] Top shape: 50 32 14 14 (313600)
I1105 17:10:48.630334 24283 net.cpp:165] Memory required for data: 2577719016
I1105 17:10:48.630345 24283 layer_factory.hpp:76] Creating layer inception_4e/5x5
I1105 17:10:48.630365 24283 net.cpp:106] Creating Layer inception_4e/5x5
I1105 17:10:48.630376 24283 net.cpp:454] inception_4e/5x5 <- inception_4e/5x5_reduce
I1105 17:10:48.630393 24283 net.cpp:411] inception_4e/5x5 -> inception_4e/5x5
I1105 17:10:48.632654 24283 cudnn_conv_layer.cpp:194] Reallocating workspace storage: 13080
I1105 17:10:48.632700 24283 net.cpp:150] Setting up inception_4e/5x5
I1105 17:10:48.632716 24283 net.cpp:157] Top shape: 50 128 14 14 (1254400)
I1105 17:10:48.632725 24283 net.cpp:165] Memory required for data: 2582736616
I1105 17:10:48.632738 24283 layer_factory.hpp:76] Creating layer inception_4e/prelu_5x5
I1105 17:10:48.632753 24283 net.cpp:106] Creating Layer inception_4e/prelu_5x5
I1105 17:10:48.632764 24283 net.cpp:454] inception_4e/prelu_5x5 <- inception_4e/5x5
I1105 17:10:48.632779 24283 net.cpp:397] inception_4e/prelu_5x5 -> inception_4e/5x5 (in-place)
I1105 17:10:48.632890 24283 net.cpp:150] Setting up inception_4e/prelu_5x5
I1105 17:10:48.632902 24283 net.cpp:157] Top shape: 50 128 14 14 (1254400)
I1105 17:10:48.632910 24283 net.cpp:165] Memory required for data: 2587754216
I1105 17:10:48.632921 24283 layer_factory.hpp:76] Creating layer inception_4e/pool
I1105 17:10:48.632936 24283 net.cpp:106] Creating Layer inception_4e/pool
I1105 17:10:48.632946 24283 net.cpp:454] inception_4e/pool <- inception_4d/output_inception_4d/output_0_split_4
I1105 17:10:48.632958 24283 net.cpp:411] inception_4e/pool -> inception_4e/pool
I1105 17:10:48.633189 24283 net.cpp:150] Setting up inception_4e/pool
I1105 17:10:48.633203 24283 net.cpp:157] Top shape: 50 528 14 14 (5174400)
I1105 17:10:48.633210 24283 net.cpp:165] Memory required for data: 2608451816
I1105 17:10:48.633219 24283 layer_factory.hpp:76] Creating layer inception_4e/pool_proj
I1105 17:10:48.633239 24283 net.cpp:106] Creating Layer inception_4e/pool_proj
I1105 17:10:48.633250 24283 net.cpp:454] inception_4e/pool_proj <- inception_4e/pool
I1105 17:10:48.633263 24283 net.cpp:411] inception_4e/pool_proj -> inception_4e/pool_proj
I1105 17:10:48.634975 24283 cudnn_conv_layer.cpp:194] Reallocating workspace storage: 10080
I1105 17:10:48.635030 24283 net.cpp:150] Setting up inception_4e/pool_proj
I1105 17:10:48.635042 24283 net.cpp:157] Top shape: 50 128 14 14 (1254400)
I1105 17:10:48.635064 24283 net.cpp:165] Memory required for data: 2613469416
I1105 17:10:48.635077 24283 layer_factory.hpp:76] Creating layer inception_4e/prelu_pool_proj
I1105 17:10:48.635113 24283 net.cpp:106] Creating Layer inception_4e/prelu_pool_proj
I1105 17:10:48.635130 24283 net.cpp:454] inception_4e/prelu_pool_proj <- inception_4e/pool_proj
I1105 17:10:48.635143 24283 net.cpp:397] inception_4e/prelu_pool_proj -> inception_4e/pool_proj (in-place)
I1105 17:10:48.635262 24283 net.cpp:150] Setting up inception_4e/prelu_pool_proj
I1105 17:10:48.635274 24283 net.cpp:157] Top shape: 50 128 14 14 (1254400)
I1105 17:10:48.635282 24283 net.cpp:165] Memory required for data: 2618487016
I1105 17:10:48.635300 24283 layer_factory.hpp:76] Creating layer inception_4e/output
I1105 17:10:48.635313 24283 net.cpp:106] Creating Layer inception_4e/output
I1105 17:10:48.635321 24283 net.cpp:454] inception_4e/output <- inception_4e/1x1
I1105 17:10:48.635339 24283 net.cpp:454] inception_4e/output <- inception_4e/3x3
I1105 17:10:48.635349 24283 net.cpp:454] inception_4e/output <- inception_4e/5x5
I1105 17:10:48.635359 24283 net.cpp:454] inception_4e/output <- inception_4e/pool_proj
I1105 17:10:48.635370 24283 net.cpp:411] inception_4e/output -> inception_4e/output
I1105 17:10:48.635403 24283 net.cpp:150] Setting up inception_4e/output
I1105 17:10:48.635414 24283 net.cpp:157] Top shape: 50 832 14 14 (8153600)
I1105 17:10:48.635422 24283 net.cpp:165] Memory required for data: 2651101416
I1105 17:10:48.635431 24283 layer_factory.hpp:76] Creating layer pool4/3x3_s2
I1105 17:10:48.635445 24283 net.cpp:106] Creating Layer pool4/3x3_s2
I1105 17:10:48.635454 24283 net.cpp:454] pool4/3x3_s2 <- inception_4e/output
I1105 17:10:48.635467 24283 net.cpp:411] pool4/3x3_s2 -> pool4/3x3_s2
I1105 17:10:48.635676 24283 net.cpp:150] Setting up pool4/3x3_s2
I1105 17:10:48.635689 24283 net.cpp:157] Top shape: 50 832 7 7 (2038400)
I1105 17:10:48.635697 24283 net.cpp:165] Memory required for data: 2659255016
I1105 17:10:48.635706 24283 layer_factory.hpp:76] Creating layer pool4/3x3_s2_pool4/3x3_s2_0_split
I1105 17:10:48.635717 24283 net.cpp:106] Creating Layer pool4/3x3_s2_pool4/3x3_s2_0_split
I1105 17:10:48.635725 24283 net.cpp:454] pool4/3x3_s2_pool4/3x3_s2_0_split <- pool4/3x3_s2
I1105 17:10:48.635740 24283 net.cpp:411] pool4/3x3_s2_pool4/3x3_s2_0_split -> pool4/3x3_s2_pool4/3x3_s2_0_split_0
I1105 17:10:48.635753 24283 net.cpp:411] pool4/3x3_s2_pool4/3x3_s2_0_split -> pool4/3x3_s2_pool4/3x3_s2_0_split_1
I1105 17:10:48.635768 24283 net.cpp:411] pool4/3x3_s2_pool4/3x3_s2_0_split -> pool4/3x3_s2_pool4/3x3_s2_0_split_2
I1105 17:10:48.635782 24283 net.cpp:411] pool4/3x3_s2_pool4/3x3_s2_0_split -> pool4/3x3_s2_pool4/3x3_s2_0_split_3
I1105 17:10:48.635848 24283 net.cpp:150] Setting up pool4/3x3_s2_pool4/3x3_s2_0_split
I1105 17:10:48.635861 24283 net.cpp:157] Top shape: 50 832 7 7 (2038400)
I1105 17:10:48.635872 24283 net.cpp:157] Top shape: 50 832 7 7 (2038400)
I1105 17:10:48.635882 24283 net.cpp:157] Top shape: 50 832 7 7 (2038400)
I1105 17:10:48.635895 24283 net.cpp:157] Top shape: 50 832 7 7 (2038400)
I1105 17:10:48.635901 24283 net.cpp:165] Memory required for data: 2691869416
I1105 17:10:48.635910 24283 layer_factory.hpp:76] Creating layer inception_5a/1x1
I1105 17:10:48.635923 24283 net.cpp:106] Creating Layer inception_5a/1x1
I1105 17:10:48.635933 24283 net.cpp:454] inception_5a/1x1 <- pool4/3x3_s2_pool4/3x3_s2_0_split_0
I1105 17:10:48.635947 24283 net.cpp:411] inception_5a/1x1 -> inception_5a/1x1
I1105 17:10:48.638898 24283 cudnn_conv_layer.cpp:194] Reallocating workspace storage: 7428
I1105 17:10:48.638964 24283 net.cpp:150] Setting up inception_5a/1x1
I1105 17:10:48.638978 24283 net.cpp:157] Top shape: 50 256 7 7 (627200)
I1105 17:10:48.639003 24283 net.cpp:165] Memory required for data: 2694378216
I1105 17:10:48.639016 24283 layer_factory.hpp:76] Creating layer inception_5a/prelu_1x1
I1105 17:10:48.639036 24283 net.cpp:106] Creating Layer inception_5a/prelu_1x1
I1105 17:10:48.639055 24283 net.cpp:454] inception_5a/prelu_1x1 <- inception_5a/1x1
I1105 17:10:48.639075 24283 net.cpp:397] inception_5a/prelu_1x1 -> inception_5a/1x1 (in-place)
I1105 17:10:48.639200 24283 net.cpp:150] Setting up inception_5a/prelu_1x1
I1105 17:10:48.639211 24283 net.cpp:157] Top shape: 50 256 7 7 (627200)
I1105 17:10:48.639240 24283 net.cpp:165] Memory required for data: 2696887016
I1105 17:10:48.639251 24283 layer_factory.hpp:76] Creating layer inception_5a/3x3_reduce
I1105 17:10:48.639284 24283 net.cpp:106] Creating Layer inception_5a/3x3_reduce
I1105 17:10:48.639294 24283 net.cpp:454] inception_5a/3x3_reduce <- pool4/3x3_s2_pool4/3x3_s2_0_split_1
I1105 17:10:48.639308 24283 net.cpp:411] inception_5a/3x3_reduce -> inception_5a/3x3_reduce
I1105 17:10:48.642118 24283 cudnn_conv_layer.cpp:194] Reallocating workspace storage: 7428
I1105 17:10:48.642196 24283 net.cpp:150] Setting up inception_5a/3x3_reduce
I1105 17:10:48.642217 24283 net.cpp:157] Top shape: 50 160 7 7 (392000)
I1105 17:10:48.642227 24283 net.cpp:165] Memory required for data: 2698455016
I1105 17:10:48.642244 24283 layer_factory.hpp:76] Creating layer inception_5a/prelu_3x3_reduce
I1105 17:10:48.642267 24283 net.cpp:106] Creating Layer inception_5a/prelu_3x3_reduce
I1105 17:10:48.642277 24283 net.cpp:454] inception_5a/prelu_3x3_reduce <- inception_5a/3x3_reduce
I1105 17:10:48.642287 24283 net.cpp:397] inception_5a/prelu_3x3_reduce -> inception_5a/3x3_reduce (in-place)
I1105 17:10:48.642396 24283 net.cpp:150] Setting up inception_5a/prelu_3x3_reduce
I1105 17:10:48.642406 24283 net.cpp:157] Top shape: 50 160 7 7 (392000)
I1105 17:10:48.642410 24283 net.cpp:165] Memory required for data: 2700023016
I1105 17:10:48.642421 24283 layer_factory.hpp:76] Creating layer inception_5a/3x3
I1105 17:10:48.642439 24283 net.cpp:106] Creating Layer inception_5a/3x3
I1105 17:10:48.642449 24283 net.cpp:454] inception_5a/3x3 <- inception_5a/3x3_reduce
I1105 17:10:48.642465 24283 net.cpp:411] inception_5a/3x3 -> inception_5a/3x3
I1105 17:10:48.647531 24283 cudnn_conv_layer.cpp:194] Reallocating workspace storage: 7788
I1105 17:10:48.647608 24283 net.cpp:150] Setting up inception_5a/3x3
I1105 17:10:48.647624 24283 net.cpp:157] Top shape: 50 320 7 7 (784000)
I1105 17:10:48.647634 24283 net.cpp:165] Memory required for data: 2703159016
I1105 17:10:48.647650 24283 layer_factory.hpp:76] Creating layer inception_5a/prelu_3x3
I1105 17:10:48.647681 24283 net.cpp:106] Creating Layer inception_5a/prelu_3x3
I1105 17:10:48.647696 24283 net.cpp:454] inception_5a/prelu_3x3 <- inception_5a/3x3
I1105 17:10:48.647711 24283 net.cpp:397] inception_5a/prelu_3x3 -> inception_5a/3x3 (in-place)
I1105 17:10:48.647889 24283 net.cpp:150] Setting up inception_5a/prelu_3x3
I1105 17:10:48.647902 24283 net.cpp:157] Top shape: 50 320 7 7 (784000)
I1105 17:10:48.647910 24283 net.cpp:165] Memory required for data: 2706295016
I1105 17:10:48.647932 24283 layer_factory.hpp:76] Creating layer inception_5a/5x5_reduce
I1105 17:10:48.647950 24283 net.cpp:106] Creating Layer inception_5a/5x5_reduce
I1105 17:10:48.647974 24283 net.cpp:454] inception_5a/5x5_reduce <- pool4/3x3_s2_pool4/3x3_s2_0_split_2
I1105 17:10:48.647989 24283 net.cpp:411] inception_5a/5x5_reduce -> inception_5a/5x5_reduce
I1105 17:10:48.649382 24283 cudnn_conv_layer.cpp:194] Reallocating workspace storage: 7428
I1105 17:10:48.649430 24283 net.cpp:150] Setting up inception_5a/5x5_reduce
I1105 17:10:48.649443 24283 net.cpp:157] Top shape: 50 32 7 7 (78400)
I1105 17:10:48.649451 24283 net.cpp:165] Memory required for data: 2706608616
I1105 17:10:48.649485 24283 layer_factory.hpp:76] Creating layer inception_5a/prelu_5x5_reduce
I1105 17:10:48.649502 24283 net.cpp:106] Creating Layer inception_5a/prelu_5x5_reduce
I1105 17:10:48.649524 24283 net.cpp:454] inception_5a/prelu_5x5_reduce <- inception_5a/5x5_reduce
I1105 17:10:48.649548 24283 net.cpp:397] inception_5a/prelu_5x5_reduce -> inception_5a/5x5_reduce (in-place)
I1105 17:10:48.649662 24283 net.cpp:150] Setting up inception_5a/prelu_5x5_reduce
I1105 17:10:48.649675 24283 net.cpp:157] Top shape: 50 32 7 7 (78400)
I1105 17:10:48.649682 24283 net.cpp:165] Memory required for data: 2706922216
I1105 17:10:48.649694 24283 layer_factory.hpp:76] Creating layer inception_5a/5x5
I1105 17:10:48.649710 24283 net.cpp:106] Creating Layer inception_5a/5x5
I1105 17:10:48.649735 24283 net.cpp:454] inception_5a/5x5 <- inception_5a/5x5_reduce
I1105 17:10:48.649751 24283 net.cpp:411] inception_5a/5x5 -> inception_5a/5x5
I1105 17:10:48.651311 24283 cudnn_conv_layer.cpp:194] Reallocating workspace storage: 9804
I1105 17:10:48.651358 24283 net.cpp:150] Setting up inception_5a/5x5
I1105 17:10:48.651371 24283 net.cpp:157] Top shape: 50 128 7 7 (313600)
I1105 17:10:48.651378 24283 net.cpp:165] Memory required for data: 2708176616
I1105 17:10:48.651412 24283 layer_factory.hpp:76] Creating layer inception_5a/prelu_5x5
I1105 17:10:48.651428 24283 net.cpp:106] Creating Layer inception_5a/prelu_5x5
I1105 17:10:48.651439 24283 net.cpp:454] inception_5a/prelu_5x5 <- inception_5a/5x5
I1105 17:10:48.651451 24283 net.cpp:397] inception_5a/prelu_5x5 -> inception_5a/5x5 (in-place)
I1105 17:10:48.651559 24283 net.cpp:150] Setting up inception_5a/prelu_5x5
I1105 17:10:48.651571 24283 net.cpp:157] Top shape: 50 128 7 7 (313600)
I1105 17:10:48.651578 24283 net.cpp:165] Memory required for data: 2709431016
I1105 17:10:48.651588 24283 layer_factory.hpp:76] Creating layer inception_5a/pool
I1105 17:10:48.651603 24283 net.cpp:106] Creating Layer inception_5a/pool
I1105 17:10:48.651615 24283 net.cpp:454] inception_5a/pool <- pool4/3x3_s2_pool4/3x3_s2_0_split_3
I1105 17:10:48.651626 24283 net.cpp:411] inception_5a/pool -> inception_5a/pool
I1105 17:10:48.652061 24283 net.cpp:150] Setting up inception_5a/pool
I1105 17:10:48.652078 24283 net.cpp:157] Top shape: 50 832 7 7 (2038400)
I1105 17:10:48.652087 24283 net.cpp:165] Memory required for data: 2717584616
I1105 17:10:48.652096 24283 layer_factory.hpp:76] Creating layer inception_5a/pool_proj
I1105 17:10:48.652109 24283 net.cpp:106] Creating Layer inception_5a/pool_proj
I1105 17:10:48.652122 24283 net.cpp:454] inception_5a/pool_proj <- inception_5a/pool
I1105 17:10:48.652137 24283 net.cpp:411] inception_5a/pool_proj -> inception_5a/pool_proj
I1105 17:10:48.654542 24283 cudnn_conv_layer.cpp:194] Reallocating workspace storage: 7428
I1105 17:10:48.654608 24283 net.cpp:150] Setting up inception_5a/pool_proj
I1105 17:10:48.654620 24283 net.cpp:157] Top shape: 50 128 7 7 (313600)
I1105 17:10:48.654639 24283 net.cpp:165] Memory required for data: 2718839016
I1105 17:10:48.654664 24283 layer_factory.hpp:76] Creating layer inception_5a/prelu_pool_proj
I1105 17:10:48.654682 24283 net.cpp:106] Creating Layer inception_5a/prelu_pool_proj
I1105 17:10:48.654705 24283 net.cpp:454] inception_5a/prelu_pool_proj <- inception_5a/pool_proj
I1105 17:10:48.654716 24283 net.cpp:397] inception_5a/prelu_pool_proj -> inception_5a/pool_proj (in-place)
I1105 17:10:48.654839 24283 net.cpp:150] Setting up inception_5a/prelu_pool_proj
I1105 17:10:48.654850 24283 net.cpp:157] Top shape: 50 128 7 7 (313600)
I1105 17:10:48.654858 24283 net.cpp:165] Memory required for data: 2720093416
I1105 17:10:48.654880 24283 layer_factory.hpp:76] Creating layer inception_5a/output
I1105 17:10:48.654893 24283 net.cpp:106] Creating Layer inception_5a/output
I1105 17:10:48.654903 24283 net.cpp:454] inception_5a/output <- inception_5a/1x1
I1105 17:10:48.654933 24283 net.cpp:454] inception_5a/output <- inception_5a/3x3
I1105 17:10:48.654943 24283 net.cpp:454] inception_5a/output <- inception_5a/5x5
I1105 17:10:48.654953 24283 net.cpp:454] inception_5a/output <- inception_5a/pool_proj
I1105 17:10:48.654963 24283 net.cpp:411] inception_5a/output -> inception_5a/output
I1105 17:10:48.654999 24283 net.cpp:150] Setting up inception_5a/output
I1105 17:10:48.655009 24283 net.cpp:157] Top shape: 50 832 7 7 (2038400)
I1105 17:10:48.655017 24283 net.cpp:165] Memory required for data: 2728247016
I1105 17:10:48.655025 24283 layer_factory.hpp:76] Creating layer inception_5a/output_inception_5a/output_0_split
I1105 17:10:48.655037 24283 net.cpp:106] Creating Layer inception_5a/output_inception_5a/output_0_split
I1105 17:10:48.655046 24283 net.cpp:454] inception_5a/output_inception_5a/output_0_split <- inception_5a/output
I1105 17:10:48.655060 24283 net.cpp:411] inception_5a/output_inception_5a/output_0_split -> inception_5a/output_inception_5a/output_0_split_0
I1105 17:10:48.655088 24283 net.cpp:411] inception_5a/output_inception_5a/output_0_split -> inception_5a/output_inception_5a/output_0_split_1
I1105 17:10:48.655103 24283 net.cpp:411] inception_5a/output_inception_5a/output_0_split -> inception_5a/output_inception_5a/output_0_split_2
I1105 17:10:48.655117 24283 net.cpp:411] inception_5a/output_inception_5a/output_0_split -> inception_5a/output_inception_5a/output_0_split_3
I1105 17:10:48.655191 24283 net.cpp:150] Setting up inception_5a/output_inception_5a/output_0_split
I1105 17:10:48.655202 24283 net.cpp:157] Top shape: 50 832 7 7 (2038400)
I1105 17:10:48.655213 24283 net.cpp:157] Top shape: 50 832 7 7 (2038400)
I1105 17:10:48.655223 24283 net.cpp:157] Top shape: 50 832 7 7 (2038400)
I1105 17:10:48.655232 24283 net.cpp:157] Top shape: 50 832 7 7 (2038400)
I1105 17:10:48.655239 24283 net.cpp:165] Memory required for data: 2760861416
I1105 17:10:48.655248 24283 layer_factory.hpp:76] Creating layer inception_5b/1x1
I1105 17:10:48.655262 24283 net.cpp:106] Creating Layer inception_5b/1x1
I1105 17:10:48.655272 24283 net.cpp:454] inception_5b/1x1 <- inception_5a/output_inception_5a/output_0_split_0
I1105 17:10:48.655283 24283 net.cpp:411] inception_5b/1x1 -> inception_5b/1x1
I1105 17:10:48.659006 24283 cudnn_conv_layer.cpp:194] Reallocating workspace storage: 7428
I1105 17:10:48.659060 24283 net.cpp:150] Setting up inception_5b/1x1
I1105 17:10:48.659075 24283 net.cpp:157] Top shape: 50 384 7 7 (940800)
I1105 17:10:48.659083 24283 net.cpp:165] Memory required for data: 2764624616
I1105 17:10:48.659098 24283 layer_factory.hpp:76] Creating layer inception_5b/prelu_1x1
I1105 17:10:48.659116 24283 net.cpp:106] Creating Layer inception_5b/prelu_1x1
I1105 17:10:48.659126 24283 net.cpp:454] inception_5b/prelu_1x1 <- inception_5b/1x1
I1105 17:10:48.659142 24283 net.cpp:397] inception_5b/prelu_1x1 -> inception_5b/1x1 (in-place)
I1105 17:10:48.659265 24283 net.cpp:150] Setting up inception_5b/prelu_1x1
I1105 17:10:48.659276 24283 net.cpp:157] Top shape: 50 384 7 7 (940800)
I1105 17:10:48.659284 24283 net.cpp:165] Memory required for data: 2768387816
I1105 17:10:48.659296 24283 layer_factory.hpp:76] Creating layer inception_5b/3x3_reduce
I1105 17:10:48.659312 24283 net.cpp:106] Creating Layer inception_5b/3x3_reduce
I1105 17:10:48.659322 24283 net.cpp:454] inception_5b/3x3_reduce <- inception_5a/output_inception_5a/output_0_split_1
I1105 17:10:48.659337 24283 net.cpp:411] inception_5b/3x3_reduce -> inception_5b/3x3_reduce
I1105 17:10:48.661661 24283 cudnn_conv_layer.cpp:194] Reallocating workspace storage: 7428
I1105 17:10:48.661710 24283 net.cpp:150] Setting up inception_5b/3x3_reduce
I1105 17:10:48.661722 24283 net.cpp:157] Top shape: 50 192 7 7 (470400)
I1105 17:10:48.661733 24283 net.cpp:165] Memory required for data: 2770269416
I1105 17:10:48.661747 24283 layer_factory.hpp:76] Creating layer inception_5b/prelu_3x3_reduce
I1105 17:10:48.661761 24283 net.cpp:106] Creating Layer inception_5b/prelu_3x3_reduce
I1105 17:10:48.661773 24283 net.cpp:454] inception_5b/prelu_3x3_reduce <- inception_5b/3x3_reduce
I1105 17:10:48.661785 24283 net.cpp:397] inception_5b/prelu_3x3_reduce -> inception_5b/3x3_reduce (in-place)
I1105 17:10:48.661888 24283 net.cpp:150] Setting up inception_5b/prelu_3x3_reduce
I1105 17:10:48.661900 24283 net.cpp:157] Top shape: 50 192 7 7 (470400)
I1105 17:10:48.661908 24283 net.cpp:165] Memory required for data: 2772151016
I1105 17:10:48.661918 24283 layer_factory.hpp:76] Creating layer inception_5b/3x3
I1105 17:10:48.661933 24283 net.cpp:106] Creating Layer inception_5b/3x3
I1105 17:10:48.661944 24283 net.cpp:454] inception_5b/3x3 <- inception_5b/3x3_reduce
I1105 17:10:48.661959 24283 net.cpp:411] inception_5b/3x3 -> inception_5b/3x3
I1105 17:10:48.668098 24283 cudnn_conv_layer.cpp:194] Reallocating workspace storage: 7788
I1105 17:10:48.668150 24283 net.cpp:150] Setting up inception_5b/3x3
I1105 17:10:48.668164 24283 net.cpp:157] Top shape: 50 384 7 7 (940800)
I1105 17:10:48.668174 24283 net.cpp:165] Memory required for data: 2775914216
I1105 17:10:48.668205 24283 layer_factory.hpp:76] Creating layer inception_5b/prelu_3x3
I1105 17:10:48.668222 24283 net.cpp:106] Creating Layer inception_5b/prelu_3x3
I1105 17:10:48.668234 24283 net.cpp:454] inception_5b/prelu_3x3 <- inception_5b/3x3
I1105 17:10:48.668249 24283 net.cpp:397] inception_5b/prelu_3x3 -> inception_5b/3x3 (in-place)
I1105 17:10:48.668372 24283 net.cpp:150] Setting up inception_5b/prelu_3x3
I1105 17:10:48.668385 24283 net.cpp:157] Top shape: 50 384 7 7 (940800)
I1105 17:10:48.668392 24283 net.cpp:165] Memory required for data: 2779677416
I1105 17:10:48.668403 24283 layer_factory.hpp:76] Creating layer inception_5b/5x5_reduce
I1105 17:10:48.668419 24283 net.cpp:106] Creating Layer inception_5b/5x5_reduce
I1105 17:10:48.668431 24283 net.cpp:454] inception_5b/5x5_reduce <- inception_5a/output_inception_5a/output_0_split_2
I1105 17:10:48.668452 24283 net.cpp:411] inception_5b/5x5_reduce -> inception_5b/5x5_reduce
I1105 17:10:48.670092 24283 cudnn_conv_layer.cpp:194] Reallocating workspace storage: 7428
I1105 17:10:48.670138 24283 net.cpp:150] Setting up inception_5b/5x5_reduce
I1105 17:10:48.670151 24283 net.cpp:157] Top shape: 50 48 7 7 (117600)
I1105 17:10:48.670161 24283 net.cpp:165] Memory required for data: 2780147816
I1105 17:10:48.670174 24283 layer_factory.hpp:76] Creating layer inception_5b/prelu_5x5_reduce
I1105 17:10:48.670187 24283 net.cpp:106] Creating Layer inception_5b/prelu_5x5_reduce
I1105 17:10:48.670198 24283 net.cpp:454] inception_5b/prelu_5x5_reduce <- inception_5b/5x5_reduce
I1105 17:10:48.670213 24283 net.cpp:397] inception_5b/prelu_5x5_reduce -> inception_5b/5x5_reduce (in-place)
I1105 17:10:48.670342 24283 net.cpp:150] Setting up inception_5b/prelu_5x5_reduce
I1105 17:10:48.670356 24283 net.cpp:157] Top shape: 50 48 7 7 (117600)
I1105 17:10:48.670363 24283 net.cpp:165] Memory required for data: 2780618216
I1105 17:10:48.670382 24283 layer_factory.hpp:76] Creating layer inception_5b/5x5
I1105 17:10:48.670397 24283 net.cpp:106] Creating Layer inception_5b/5x5
I1105 17:10:48.670408 24283 net.cpp:454] inception_5b/5x5 <- inception_5b/5x5_reduce
I1105 17:10:48.670423 24283 net.cpp:411] inception_5b/5x5 -> inception_5b/5x5
I1105 17:10:48.672966 24283 cudnn_conv_layer.cpp:194] Reallocating workspace storage: 9804
I1105 17:10:48.673030 24283 net.cpp:150] Setting up inception_5b/5x5
I1105 17:10:48.673046 24283 net.cpp:157] Top shape: 50 128 7 7 (313600)
I1105 17:10:48.673055 24283 net.cpp:165] Memory required for data: 2781872616
I1105 17:10:48.673089 24283 layer_factory.hpp:76] Creating layer inception_5b/prelu_5x5
I1105 17:10:48.673121 24283 net.cpp:106] Creating Layer inception_5b/prelu_5x5
I1105 17:10:48.673144 24283 net.cpp:454] inception_5b/prelu_5x5 <- inception_5b/5x5
I1105 17:10:48.673169 24283 net.cpp:397] inception_5b/prelu_5x5 -> inception_5b/5x5 (in-place)
I1105 17:10:48.673311 24283 net.cpp:150] Setting up inception_5b/prelu_5x5
I1105 17:10:48.673324 24283 net.cpp:157] Top shape: 50 128 7 7 (313600)
I1105 17:10:48.673331 24283 net.cpp:165] Memory required for data: 2783127016
I1105 17:10:48.673343 24283 layer_factory.hpp:76] Creating layer inception_5b/pool
I1105 17:10:48.673357 24283 net.cpp:106] Creating Layer inception_5b/pool
I1105 17:10:48.673367 24283 net.cpp:454] inception_5b/pool <- inception_5a/output_inception_5a/output_0_split_3
I1105 17:10:48.673382 24283 net.cpp:411] inception_5b/pool -> inception_5b/pool
I1105 17:10:48.673626 24283 net.cpp:150] Setting up inception_5b/pool
I1105 17:10:48.673641 24283 net.cpp:157] Top shape: 50 832 7 7 (2038400)
I1105 17:10:48.673650 24283 net.cpp:165] Memory required for data: 2791280616
I1105 17:10:48.673657 24283 layer_factory.hpp:76] Creating layer inception_5b/pool_proj
I1105 17:10:48.673676 24283 net.cpp:106] Creating Layer inception_5b/pool_proj
I1105 17:10:48.673687 24283 net.cpp:454] inception_5b/pool_proj <- inception_5b/pool
I1105 17:10:48.673704 24283 net.cpp:411] inception_5b/pool_proj -> inception_5b/pool_proj
I1105 17:10:48.676267 24283 cudnn_conv_layer.cpp:194] Reallocating workspace storage: 7428
I1105 17:10:48.676343 24283 net.cpp:150] Setting up inception_5b/pool_proj
I1105 17:10:48.676359 24283 net.cpp:157] Top shape: 50 128 7 7 (313600)
I1105 17:10:48.676367 24283 net.cpp:165] Memory required for data: 2792535016
I1105 17:10:48.676383 24283 layer_factory.hpp:76] Creating layer inception_5b/prelu_pool_proj
I1105 17:10:48.676400 24283 net.cpp:106] Creating Layer inception_5b/prelu_pool_proj
I1105 17:10:48.676412 24283 net.cpp:454] inception_5b/prelu_pool_proj <- inception_5b/pool_proj
I1105 17:10:48.676429 24283 net.cpp:397] inception_5b/prelu_pool_proj -> inception_5b/pool_proj (in-place)
I1105 17:10:48.676535 24283 net.cpp:150] Setting up inception_5b/prelu_pool_proj
I1105 17:10:48.676548 24283 net.cpp:157] Top shape: 50 128 7 7 (313600)
I1105 17:10:48.676554 24283 net.cpp:165] Memory required for data: 2793789416
I1105 17:10:48.676565 24283 layer_factory.hpp:76] Creating layer inception_5b/output
I1105 17:10:48.676580 24283 net.cpp:106] Creating Layer inception_5b/output
I1105 17:10:48.676591 24283 net.cpp:454] inception_5b/output <- inception_5b/1x1
I1105 17:10:48.676601 24283 net.cpp:454] inception_5b/output <- inception_5b/3x3
I1105 17:10:48.676611 24283 net.cpp:454] inception_5b/output <- inception_5b/5x5
I1105 17:10:48.676620 24283 net.cpp:454] inception_5b/output <- inception_5b/pool_proj
I1105 17:10:48.676631 24283 net.cpp:411] inception_5b/output -> inception_5b/output
I1105 17:10:48.676669 24283 net.cpp:150] Setting up inception_5b/output
I1105 17:10:48.676681 24283 net.cpp:157] Top shape: 50 1024 7 7 (2508800)
I1105 17:10:48.676688 24283 net.cpp:165] Memory required for data: 2803824616
I1105 17:10:48.676697 24283 layer_factory.hpp:76] Creating layer pool5/7x7_s1
I1105 17:10:48.676708 24283 net.cpp:106] Creating Layer pool5/7x7_s1
I1105 17:10:48.676717 24283 net.cpp:454] pool5/7x7_s1 <- inception_5b/output
I1105 17:10:48.676731 24283 net.cpp:411] pool5/7x7_s1 -> pool5/7x7_s1
I1105 17:10:48.677163 24283 net.cpp:150] Setting up pool5/7x7_s1
I1105 17:10:48.677177 24283 net.cpp:157] Top shape: 50 1024 1 1 (51200)
I1105 17:10:48.677186 24283 net.cpp:165] Memory required for data: 2804029416
I1105 17:10:48.677196 24283 layer_factory.hpp:76] Creating layer pool5/drop_7x7_s1
I1105 17:10:48.677208 24283 net.cpp:106] Creating Layer pool5/drop_7x7_s1
I1105 17:10:48.677217 24283 net.cpp:454] pool5/drop_7x7_s1 <- pool5/7x7_s1
I1105 17:10:48.677230 24283 net.cpp:397] pool5/drop_7x7_s1 -> pool5/7x7_s1 (in-place)
I1105 17:10:48.677269 24283 net.cpp:150] Setting up pool5/drop_7x7_s1
I1105 17:10:48.677281 24283 net.cpp:157] Top shape: 50 1024 1 1 (51200)
I1105 17:10:48.677289 24283 net.cpp:165] Memory required for data: 2804234216
I1105 17:10:48.677317 24283 layer_factory.hpp:76] Creating layer loss3/classifier2
I1105 17:10:48.677330 24283 net.cpp:106] Creating Layer loss3/classifier2
I1105 17:10:48.677340 24283 net.cpp:454] loss3/classifier2 <- pool5/7x7_s1
I1105 17:10:48.677353 24283 net.cpp:411] loss3/classifier2 -> loss3/classifier
I1105 17:10:48.677515 24283 net.cpp:150] Setting up loss3/classifier2
I1105 17:10:48.677528 24283 net.cpp:157] Top shape: 50 2 (100)
I1105 17:10:48.677536 24283 net.cpp:165] Memory required for data: 2804234616
I1105 17:10:48.677549 24283 layer_factory.hpp:76] Creating layer loss3/classifier_loss3/classifier2_0_split
I1105 17:10:48.677561 24283 net.cpp:106] Creating Layer loss3/classifier_loss3/classifier2_0_split
I1105 17:10:48.677570 24283 net.cpp:454] loss3/classifier_loss3/classifier2_0_split <- loss3/classifier
I1105 17:10:48.677584 24283 net.cpp:411] loss3/classifier_loss3/classifier2_0_split -> loss3/classifier_loss3/classifier2_0_split_0
I1105 17:10:48.677599 24283 net.cpp:411] loss3/classifier_loss3/classifier2_0_split -> loss3/classifier_loss3/classifier2_0_split_1
I1105 17:10:48.677654 24283 net.cpp:150] Setting up loss3/classifier_loss3/classifier2_0_split
I1105 17:10:48.677665 24283 net.cpp:157] Top shape: 50 2 (100)
I1105 17:10:48.677675 24283 net.cpp:157] Top shape: 50 2 (100)
I1105 17:10:48.677682 24283 net.cpp:165] Memory required for data: 2804235416
I1105 17:10:48.677691 24283 layer_factory.hpp:76] Creating layer loss3/loss3
I1105 17:10:48.677716 24283 net.cpp:106] Creating Layer loss3/loss3
I1105 17:10:48.677728 24283 net.cpp:454] loss3/loss3 <- loss3/classifier_loss3/classifier2_0_split_0
I1105 17:10:48.677738 24283 net.cpp:454] loss3/loss3 <- label_data_1_split_4
…
