…
I1126 10:17:12.021756 10346 net.cpp:322] The NetState phase (0) differed from the phase (1) specified by a rule in layer loss3/top-1
I1126 10:17:12.022716 10346 net.cpp:49] Initializing net from parameters: 
name: "GoogleNet"
state {
  phase: TRAIN
}
layer {
  name: "data"
  type: "Data"
  top: "data"
  top: "label"
  include {
    phase: TRAIN
  }
  transform_param {
    mirror: true
    crop_size: 224
    mean_value: 104
    mean_value: 117
    mean_value: 123
  }
  data_param {
    source: "../../LMDB-s300/train_4-lmdb"
    batch_size: 32
    backend: LMDB
  }
}
layer {
  name: "conv1/7x7_s2"
  type: "Convolution"
  bottom: "data"
  top: "conv1/7x7_s2"
  param {
    lr_mult: 1
    decay_mult: 1
  }
  param {
    lr_mult: 2
    decay_mult: 0
  }
  convolution_param {
    num_output: 64
    pad: 3
    kernel_size: 7
    stride: 2
    weight_filler {
      type: "xavier"
    }
    bias_filler {
      type: "constant"
      value: 0.2
    }
  }
}
layer {
  name: "conv1/prelu_7x7"
  type: "PReLU"
  bottom: "conv1/7x7_s2"
  top: "conv1/7x7_s2"
  param {
    lr_mult: 1
    decay_mult: 0
  }
  prelu_param {
    filler {
      type: "constant"
      value: 0.01
    }
  }
}
layer {
  name: "pool1/3x3_s2"
  type: "Pooling"
  bottom: "conv1/7x7_s2"
  top: "pool1/3x3_s2"
  pooling_param {
    pool: MAX
    kernel_size: 3
    stride: 2
  }
}
layer {
  name: "pool1/norm1"
  type: "LRN"
  bottom: "pool1/3x3_s2"
  top: "pool1/norm1"
  lrn_param {
    local_size: 5
    alpha: 0.0001
    beta: 0.75
  }
}
layer {
  name: "conv2/3x3_reduce"
  type: "Convolution"
  bottom: "pool1/norm1"
  top: "conv2/3x3_reduce"
  param {
    lr_mult: 1
    decay_mult: 1
  }
  param {
    lr_mult: 2
    decay_mult: 0
  }
  convolution_param {
    num_output: 64
    kernel_size: 1
    weight_filler {
      type: "xavier"
    }
    bias_filler {
      type: "constant"
      value: 0.2
    }
  }
}
layer {
  name: "conv2/prelu_3x3_reduce"
  type: "PReLU"
  bottom: "conv2/3x3_reduce"
  top: "conv2/3x3_reduce"
  param {
    lr_mult: 1
    decay_mult: 0
  }
  prelu_param {
    filler {
      type: "constant"
      value: 0.01
    }
  }
}
layer {
  name: "conv2/3x3"
  type: "Convolution"
  bottom: "conv2/3x3_reduce"
  top: "conv2/3x3"
  param {
    lr_mult: 1
    decay_mult: 1
  }
  param {
    lr_mult: 2
    decay_mult: 0
  }
  convolution_param {
    num_output: 192
    pad: 1
    kernel_size: 3
    weight_filler {
      type: "xavier"
    }
    bias_filler {
      type: "constant"
      value: 0.2
    }
  }
}
layer {
  name: "conv2/prelu_3x3"
  type: "PReLU"
  bottom: "conv2/3x3"
  top: "conv2/3x3"
  param {
    lr_mult: 1
    decay_mult: 0
  }
  prelu_param {
    filler {
      type: "constant"
      value: 0.01
    }
  }
}
layer {
  name: "conv2/norm2"
  type: "LRN"
  bottom: "conv2/3x3"
  top: "conv2/norm2"
  lrn_param {
    local_size: 5
    alpha: 0.0001
    beta: 0.75
  }
}
layer {
  name: "pool2/3x3_s2"
  type: "Pooling"
  bottom: "conv2/norm2"
  top: "pool2/3x3_s2"
  pooling_param {
    pool: MAX
    kernel_size: 3
    stride: 2
  }
}
layer {
  name: "inception_3a/1x1"
  type: "Convolution"
  bottom: "pool2/3x3_s2"
  top: "inception_3a/1x1"
  param {
    lr_mult: 1
    decay_mult: 1
  }
  param {
    lr_mult: 2
    decay_mult: 0
  }
  convolution_param {
    num_output: 64
    kernel_size: 1
    weight_filler {
      type: "xavier"
    }
    bias_filler {
      type: "constant"
      value: 0.2
    }
  }
}
layer {
  name: "inception_3a/prelu_1x1"
  type: "PReLU"
  bottom: "inception_3a/1x1"
  top: "inception_3a/1x1"
  param {
    lr_mult: 1
    decay_mult: 0
  }
  prelu_param {
    filler {
      type: "constant"
      value: 0.01
    }
  }
}
layer {
  name: "inception_3a/3x3_reduce"
  type: "Convolution"
  bottom: "pool2/3x3_s2"
  top: "inception_3a/3x3_reduce"
  param {
    lr_mult: 1
    decay_mult: 1
  }
  param {
    lr_mult: 2
    decay_mult: 0
  }
  convolution_param {
    num_output: 96
    kernel_size: 1
    weight_filler {
      type: "xavier"
    }
    bias_filler {
      type: "constant"
      value: 0.2
    }
  }
}
layer {
  name: "inception_3a/prelu_3x3_reduce"
  type: "PReLU"
  bottom: "inception_3a/3x3_reduce"
  top: "inception_3a/3x3_reduce"
  param {
    lr_mult: 1
    decay_mult: 0
  }
  prelu_param {
    filler {
      type: "constant"
      value: 0.01
    }
  }
}
layer {
  name: "inception_3a/3x3"
  type: "Convolution"
  bottom: "inception_3a/3x3_reduce"
  top: "inception_3a/3x3"
  param {
    lr_mult: 1
    decay_mult: 1
  }
  param {
    lr_mult: 2
    decay_mult: 0
  }
  convolution_param {
    num_output: 128
    pad: 1
    kernel_size: 3
    weight_filler {
      type: "xavier"
    }
    bias_filler {
      type: "constant"
      value: 0.2
    }
  }
}
layer {
  name: "inception_3a/prelu_3x3"
  type: "PReLU"
  bottom: "inception_3a/3x3"
  top: "inception_3a/3x3"
  param {
    lr_mult: 1
    decay_mult: 0
  }
  prelu_param {
    filler {
      type: "constant"
      value: 0.01
    }
  }
}
layer {
  name: "inception_3a/5x5_reduce"
  type: "Convolution"
  bottom: "pool2/3x3_s2"
  top: "inception_3a/5x5_reduce"
  param {
    lr_mult: 1
    decay_mult: 1
  }
  param {
    lr_mult: 2
    decay_mult: 0
  }
  convolution_param {
    num_output: 16
    kernel_size: 1
    weight_filler {
      type: "xavier"
    }
    bias_filler {
      type: "constant"
      value: 0.2
    }
  }
}
layer {
  name: "inception_3a/prelu_5x5_reduce"
  type: "PReLU"
  bottom: "inception_3a/5x5_reduce"
  top: "inception_3a/5x5_reduce"
  param {
    lr_mult: 1
    decay_mult: 0
  }
  prelu_param {
    filler {
      type: "constant"
      value: 0.01
    }
  }
}
layer {
  name: "inception_3a/5x5"
  type: "Convolution"
  bottom: "inception_3a/5x5_reduce"
  top: "inception_3a/5x5"
  param {
    lr_mult: 1
    decay_mult: 1
  }
  param {
    lr_mult: 2
    decay_mult: 0
  }
  convolution_param {
    num_output: 32
    pad: 2
    kernel_size: 5
    weight_filler {
      type: "xavier"
    }
    bias_filler {
      type: "constant"
      value: 0.2
    }
  }
}
layer {
  name: "inception_3a/prelu_5x5"
  type: "PReLU"
  bottom: "inception_3a/5x5"
  top: "inception_3a/5x5"
  param {
    lr_mult: 1
    decay_mult: 0
  }
  prelu_param {
    filler {
      type: "constant"
      value: 0.01
    }
  }
}
layer {
  name: "inception_3a/pool"
  type: "Pooling"
  bottom: "pool2/3x3_s2"
  top: "inception_3a/pool"
  pooling_param {
    pool: MAX
    kernel_size: 3
    stride: 1
    pad: 1
  }
}
layer {
  name: "inception_3a/pool_proj"
  type: "Convolution"
  bottom: "inception_3a/pool"
  top: "inception_3a/pool_proj"
  param {
    lr_mult: 1
    decay_mult: 1
  }
  param {
    lr_mult: 2
    decay_mult: 0
  }
  convolution_param {
    num_output: 32
    kernel_size: 1
    weight_filler {
      type: "xavier"
    }
    bias_filler {
      type: "constant"
      value: 0.2
    }
  }
}
layer {
  name: "inception_3a/prelu_pool_proj"
  type: "PReLU"
  bottom: "inception_3a/pool_proj"
  top: "inception_3a/pool_proj"
  param {
    lr_mult: 1
    decay_mult: 0
  }
  prelu_param {
    filler {
      type: "constant"
      value: 0.01
    }
  }
}
layer {
  name: "inception_3a/output"
  type: "Concat"
  bottom: "inception_3a/1x1"
  bottom: "inception_3a/3x3"
  bottom: "inception_3a/5x5"
  bottom: "inception_3a/pool_proj"
  top: "inception_3a/output"
}
layer {
  name: "inception_3b/1x1"
  type: "Convolution"
  bottom: "inception_3a/output"
  top: "inception_3b/1x1"
  param {
    lr_mult: 1
    decay_mult: 1
  }
  param {
    lr_mult: 2
    decay_mult: 0
  }
  convolution_param {
    num_output: 128
    kernel_size: 1
    weight_filler {
      type: "xavier"
    }
    bias_filler {
      type: "constant"
      value: 0.2
    }
  }
}
layer {
  name: "inception_3b/prelu_1x1"
  type: "PReLU"
  bottom: "inception_3b/1x1"
  top: "inception_3b/1x1"
  param {
    lr_mult: 1
    decay_mult: 0
  }
  prelu_param {
    filler {
      type: "constant"
      value: 0.01
    }
  }
}
layer {
  name: "inception_3b/3x3_reduce"
  type: "Convolution"
  bottom: "inception_3a/output"
  top: "inception_3b/3x3_reduce"
  param {
    lr_mult: 1
    decay_mult: 1
  }
  param {
    lr_mult: 2
    decay_mult: 0
  }
  convolution_param {
    num_output: 128
    kernel_size: 1
    weight_filler {
      type: "xavier"
    }
    bias_filler {
      type: "constant"
      value: 0.2
    }
  }
}
layer {
  name: "inception_3b/prelu_3x3_reduce"
  type: "PReLU"
  bottom: "inception_3b/3x3_reduce"
  top: "inception_3b/3x3_reduce"
  param {
    lr_mult: 1
    decay_mult: 0
  }
  prelu_param {
    filler {
      type: "constant"
      value: 0.01
    }
  }
}
layer {
  name: "inception_3b/3x3"
  type: "Convolution"
  bottom: "inception_3b/3x3_reduce"
  top: "inception_3b/3x3"
  param {
    lr_mult: 1
    decay_mult: 1
  }
  param {
    lr_mult: 2
    decay_mult: 0
  }
  convolution_param {
    num_output: 192
    pad: 1
    kernel_size: 3
    weight_filler {
      type: "xavier"
    }
    bias_filler {
      type: "constant"
      value: 0.2
    }
  }
}
layer {
  name: "inception_3b/prelu_3x3"
  type: "PReLU"
  bottom: "inception_3b/3x3"
  top: "inception_3b/3x3"
  param {
    lr_mult: 1
    decay_mult: 0
  }
  prelu_param {
    filler {
      type: "constant"
      value: 0.01
    }
  }
}
layer {
  name: "inception_3b/5x5_reduce"
  type: "Convolution"
  bottom: "inception_3a/output"
  top: "inception_3b/5x5_reduce"
  param {
    lr_mult: 1
    decay_mult: 1
  }
  param {
    lr_mult: 2
    decay_mult: 0
  }
  convolution_param {
    num_output: 32
    kernel_size: 1
    weight_filler {
      type: "xavier"
    }
    bias_filler {
      type: "constant"
      value: 0.2
    }
  }
}
layer {
  name: "inception_3b/prelu_5x5_reduce"
  type: "PReLU"
  bottom: "inception_3b/5x5_reduce"
  top: "inception_3b/5x5_reduce"
  param {
    lr_mult: 1
    decay_mult: 0
  }
  prelu_param {
    filler {
      type: "constant"
      value: 0.01
    }
  }
}
layer {
  name: "inception_3b/5x5"
  type: "Convolution"
  bottom: "inception_3b/5x5_reduce"
  top: "inception_3b/5x5"
  param {
    lr_mult: 1
    decay_mult: 1
  }
  param {
    lr_mult: 2
    decay_mult: 0
  }
  convolution_param {
    num_output: 96
    pad: 2
    kernel_size: 5
    weight_filler {
      type: "xavier"
    }
    bias_filler {
      type: "constant"
      value: 0.2
    }
  }
}
layer {
  name: "inception_3b/prelu_5x5"
  type: "PReLU"
  bottom: "inception_3b/5x5"
  top: "inception_3b/5x5"
  param {
    lr_mult: 1
    decay_mult: 0
  }
  prelu_param {
    filler {
      type: "constant"
      value: 0.01
    }
  }
}
layer {
  name: "inception_3b/pool"
  type: "Pooling"
  bottom: "inception_3a/output"
  top: "inception_3b/pool"
  pooling_param {
    pool: MAX
    kernel_size: 3
    stride: 1
    pad: 1
  }
}
layer {
  name: "inception_3b/pool_proj"
  type: "Convolution"
  bottom: "inception_3b/pool"
  top: "inception_3b/pool_proj"
  param {
    lr_mult: 1
    decay_mult: 1
  }
  param {
    lr_mult: 2
    decay_mult: 0
  }
  convolution_param {
    num_output: 64
    kernel_size: 1
    weight_filler {
      type: "xavier"
    }
    bias_filler {
      type: "constant"
      value: 0.2
    }
  }
}
layer {
  name: "inception_3b/prelu_pool_proj"
  type: "PReLU"
  bottom: "inception_3b/pool_proj"
  top: "inception_3b/pool_proj"
  param {
    lr_mult: 1
    decay_mult: 0
  }
  prelu_param {
    filler {
      type: "constant"
      value: 0.01
    }
  }
}
layer {
  name: "inception_3b/output"
  type: "Concat"
  bottom: "inception_3b/1x1"
  bottom: "inception_3b/3x3"
  bottom: "inception_3b/5x5"
  bottom: "inception_3b/pool_proj"
  top: "inception_3b/output"
}
layer {
  name: "pool3/3x3_s2"
  type: "Pooling"
  bottom: "inception_3b/output"
  top: "pool3/3x3_s2"
  pooling_param {
    pool: MAX
    kernel_size: 3
    stride: 2
  }
}
layer {
  name: "inception_4a/1x1"
  type: "Convolution"
  bottom: "pool3/3x3_s2"
  top: "inception_4a/1x1"
  param {
    lr_mult: 1
    decay_mult: 1
  }
  param {
    lr_mult: 2
    decay_mult: 0
  }
  convolution_param {
    num_output: 192
    kernel_size: 1
    weight_filler {
      type: "xavier"
    }
    bias_filler {
      type: "constant"
      value: 0.2
    }
  }
}
layer {
  name: "inception_4a/prelu_1x1"
  type: "PReLU"
  bottom: "inception_4a/1x1"
  top: "inception_4a/1x1"
  param {
    lr_mult: 1
    decay_mult: 0
  }
  prelu_param {
    filler {
      type: "constant"
      value: 0.01
    }
  }
}
layer {
  name: "inception_4a/3x3_reduce"
  type: "Convolution"
  bottom: "pool3/3x3_s2"
  top: "inception_4a/3x3_reduce"
  param {
    lr_mult: 1
    decay_mult: 1
  }
  param {
    lr_mult: 2
    decay_mult: 0
  }
  convolution_param {
    num_output: 96
    kernel_size: 1
    weight_filler {
      type: "xavier"
    }
    bias_filler {
      type: "constant"
      value: 0.2
    }
  }
}
layer {
  name: "inception_4a/prelu_3x3_reduce"
  type: "PReLU"
  bottom: "inception_4a/3x3_reduce"
  top: "inception_4a/3x3_reduce"
  param {
    lr_mult: 1
    decay_mult: 0
  }
  prelu_param {
    filler {
      type: "constant"
      value: 0.01
    }
  }
}
layer {
  name: "inception_4a/3x3"
  type: "Convolution"
  bottom: "inception_4a/3x3_reduce"
  top: "inception_4a/3x3"
  param {
    lr_mult: 1
    decay_mult: 1
  }
  param {
    lr_mult: 2
    decay_mult: 0
  }
  convolution_param {
    num_output: 208
    pad: 1
    kernel_size: 3
    weight_filler {
      type: "xavier"
    }
    bias_filler {
      type: "constant"
      value: 0.2
    }
  }
}
layer {
  name: "inception_4a/prelu_3x3"
  type: "PReLU"
  bottom: "inception_4a/3x3"
  top: "inception_4a/3x3"
  param {
    lr_mult: 1
    decay_mult: 0
  }
  prelu_param {
    filler {
      type: "constant"
      value: 0.01
    }
  }
}
layer {
  name: "inception_4a/5x5_reduce"
  type: "Convolution"
  bottom: "pool3/3x3_s2"
  top: "inception_4a/5x5_reduce"
  param {
    lr_mult: 1
    decay_mult: 1
  }
  param {
    lr_mult: 2
    decay_mult: 0
  }
  convolution_param {
    num_output: 16
    kernel_size: 1
    weight_filler {
      type: "xavier"
    }
    bias_filler {
      type: "constant"
      value: 0.2
    }
  }
}
layer {
  name: "inception_4a/prelu_5x5_reduce"
  type: "PReLU"
  bottom: "inception_4a/5x5_reduce"
  top: "inception_4a/5x5_reduce"
  param {
    lr_mult: 1
    decay_mult: 0
  }
  prelu_param {
    filler {
      type: "constant"
      value: 0.01
    }
  }
}
layer {
  name: "inception_4a/5x5"
  type: "Convolution"
  bottom: "inception_4a/5x5_reduce"
  top: "inception_4a/5x5"
  param {
    lr_mult: 1
    decay_mult: 1
  }
  param {
    lr_mult: 2
    decay_mult: 0
  }
  convolution_param {
    num_output: 48
    pad: 2
    kernel_size: 5
    weight_filler {
      type: "xavier"
    }
    bias_filler {
      type: "constant"
      value: 0.2
    }
  }
}
layer {
  name: "inception_4a/prelu_5x5"
  type: "PReLU"
  bottom: "inception_4a/5x5"
  top: "inception_4a/5x5"
  param {
    lr_mult: 1
    decay_mult: 0
  }
  prelu_param {
    filler {
      type: "constant"
      value: 0.01
    }
  }
}
layer {
  name: "inception_4a/pool"
  type: "Pooling"
  bottom: "pool3/3x3_s2"
  top: "inception_4a/pool"
  pooling_param {
    pool: MAX
    kernel_size: 3
    stride: 1
    pad: 1
  }
}
layer {
  name: "inception_4a/pool_proj"
  type: "Convolution"
  bottom: "inception_4a/pool"
  top: "inception_4a/pool_proj"
  param {
    lr_mult: 1
    decay_mult: 1
  }
  param {
    lr_mult: 2
    decay_mult: 0
  }
  convolution_param {
    num_output: 64
    kernel_size: 1
    weight_filler {
      type: "xavier"
    }
    bias_filler {
      type: "constant"
      value: 0.2
    }
  }
}
layer {
  name: "inception_4a/prelu_pool_proj"
  type: "PReLU"
  bottom: "inception_4a/pool_proj"
  top: "inception_4a/pool_proj"
  param {
    lr_mult: 1
    decay_mult: 0
  }
  prelu_param {
    filler {
      type: "constant"
      value: 0.01
    }
  }
}
layer {
  name: "inception_4a/output"
  type: "Concat"
  bottom: "inception_4a/1x1"
  bottom: "inception_4a/3x3"
  bottom: "inception_4a/5x5"
  bottom: "inception_4a/pool_proj"
  top: "inception_4a/output"
}
layer {
  name: "loss1/ave_pool"
  type: "Pooling"
  bottom: "inception_4a/output"
  top: "loss1/ave_pool"
  pooling_param {
    pool: AVE
    kernel_size: 5
    stride: 3
  }
}
layer {
  name: "loss1/conv"
  type: "Convolution"
  bottom: "loss1/ave_pool"
  top: "loss1/conv"
  param {
    lr_mult: 1
    decay_mult: 1
  }
  param {
    lr_mult: 2
    decay_mult: 0
  }
  convolution_param {
    num_output: 128
    kernel_size: 1
    weight_filler {
      type: "xavier"
    }
    bias_filler {
      type: "constant"
      value: 0.2
    }
  }
}
layer {
  name: "loss1/prelu_conv"
  type: "PReLU"
  bottom: "loss1/conv"
  top: "loss1/conv"
  param {
    lr_mult: 1
    decay_mult: 0
  }
  prelu_param {
    filler {
      type: "constant"
      value: 0.01
    }
  }
}
layer {
  name: "loss1/fc"
  type: "InnerProduct"
  bottom: "loss1/conv"
  top: "loss1/fc"
  param {
    lr_mult: 1
    decay_mult: 1
  }
  param {
    lr_mult: 2
    decay_mult: 0
  }
  inner_product_param {
    num_output: 1024
    weight_filler {
      type: "xavier"
    }
    bias_filler {
      type: "constant"
      value: 0.2
    }
  }
}
layer {
  name: "loss1/prelu_fc"
  type: "PReLU"
  bottom: "loss1/fc"
  top: "loss1/fc"
  param {
    lr_mult: 1
    decay_mult: 0
  }
  prelu_param {
    filler {
      type: "constant"
      value: 0.01
    }
  }
}
layer {
  name: "loss1/drop_fc"
  type: "Dropout"
  bottom: "loss1/fc"
  top: "loss1/fc"
  dropout_param {
    dropout_ratio: 0.7
  }
}
layer {
  name: "loss1/classifier2"
  type: "InnerProduct"
  bottom: "loss1/fc"
  top: "loss1/classifier"
  param {
    lr_mult: 1
    decay_mult: 1
  }
  param {
    lr_mult: 2
    decay_mult: 0
  }
  inner_product_param {
    num_output: 2
    weight_filler {
      type: "xavier"
    }
    bias_filler {
      type: "constant"
      value: 0
    }
  }
}
layer {
  name: "loss1/loss"
  type: "SoftmaxWithLoss"
  bottom: "loss1/classifier"
  bottom: "label"
  top: "loss1/loss1"
  loss_weight: 0.3
}
layer {
  name: "inception_4b/1x1"
  type: "Convolution"
  bottom: "inception_4a/output"
  top: "inception_4b/1x1"
  param {
    lr_mult: 1
    decay_mult: 1
  }
  param {
    lr_mult: 2
    decay_mult: 0
  }
  convolution_param {
    num_output: 160
    kernel_size: 1
    weight_filler {
      type: "xavier"
    }
    bias_filler {
      type: "constant"
      value: 0.2
    }
  }
}
layer {
  name: "inception_4b/prelu_1x1"
  type: "PReLU"
  bottom: "inception_4b/1x1"
  top: "inception_4b/1x1"
  param {
    lr_mult: 1
    decay_mult: 0
  }
  prelu_param {
    filler {
      type: "constant"
      value: 0.01
    }
  }
}
layer {
  name: "inception_4b/3x3_reduce"
  type: "Convolution"
  bottom: "inception_4a/output"
  top: "inception_4b/3x3_reduce"
  param {
    lr_mult: 1
    decay_mult: 1
  }
  param {
    lr_mult: 2
    decay_mult: 0
  }
  convolution_param {
    num_output: 112
    kernel_size: 1
    weight_filler {
      type: "xavier"
    }
    bias_filler {
      type: "constant"
      value: 0.2
    }
  }
}
layer {
  name: "inception_4b/prelu_3x3_reduce"
  type: "PReLU"
  bottom: "inception_4b/3x3_reduce"
  top: "inception_4b/3x3_reduce"
  param {
    lr_mult: 1
    decay_mult: 0
  }
  prelu_param {
    filler {
      type: "constant"
      value: 0.01
    }
  }
}
layer {
  name: "inception_4b/3x3"
  type: "Convolution"
  bottom: "inception_4b/3x3_reduce"
  top: "inception_4b/3x3"
  param {
    lr_mult: 1
    decay_mult: 1
  }
  param {
    lr_mult: 2
    decay_mult: 0
  }
  convolution_param {
    num_output: 224
    pad: 1
    kernel_size: 3
    weight_filler {
      type: "xavier"
    }
    bias_filler {
      type: "constant"
      value: 0.2
    }
  }
}
layer {
  name: "inception_4b/prelu_3x3"
  type: "PReLU"
  bottom: "inception_4b/3x3"
  top: "inception_4b/3x3"
  param {
    lr_mult: 1
    decay_mult: 0
  }
  prelu_param {
    filler {
      type: "constant"
      value: 0.01
    }
  }
}
layer {
  name: "inception_4b/5x5_reduce"
  type: "Convolution"
  bottom: "inception_4a/output"
  top: "inception_4b/5x5_reduce"
  param {
    lr_mult: 1
    decay_mult: 1
  }
  param {
    lr_mult: 2
    decay_mult: 0
  }
  convolution_param {
    num_output: 24
    kernel_size: 1
    weight_filler {
      type: "xavier"
    }
    bias_filler {
      type: "constant"
      value: 0.2
    }
  }
}
layer {
  name: "inception_4b/prelu_5x5_reduce"
  type: "PReLU"
  bottom: "inception_4b/5x5_reduce"
  top: "inception_4b/5x5_reduce"
  param {
    lr_mult: 1
    decay_mult: 0
  }
  prelu_param {
    filler {
      type: "constant"
      value: 0.01
    }
  }
}
layer {
  name: "inception_4b/5x5"
  type: "Convolution"
  bottom: "inception_4b/5x5_reduce"
  top: "inception_4b/5x5"
  param {
    lr_mult: 1
    decay_mult: 1
  }
  param {
    lr_mult: 2
    decay_mult: 0
  }
  convolution_param {
    num_output: 64
    pad: 2
    kernel_size: 5
    weight_filler {
      type: "xavier"
    }
    bias_filler {
      type: "constant"
      value: 0.2
    }
  }
}
layer {
  name: "inception_4b/prelu_5x5"
  type: "PReLU"
  bottom: "inception_4b/5x5"
  top: "inception_4b/5x5"
  param {
    lr_mult: 1
    decay_mult: 0
  }
  prelu_param {
    filler {
      type: "constant"
      value: 0.01
    }
  }
}
layer {
  name: "inception_4b/pool"
  type: "Pooling"
  bottom: "inception_4a/output"
  top: "inception_4b/pool"
  pooling_param {
    pool: MAX
    kernel_size: 3
    stride: 1
    pad: 1
  }
}
layer {
  name: "inception_4b/pool_proj"
  type: "Convolution"
  bottom: "inception_4b/pool"
  top: "inception_4b/pool_proj"
  param {
    lr_mult: 1
    decay_mult: 1
  }
  param {
    lr_mult: 2
    decay_mult: 0
  }
  convolution_param {
    num_output: 64
    kernel_size: 1
    weight_filler {
      type: "xavier"
    }
    bias_filler {
      type: "constant"
      value: 0.2
    }
  }
}
layer {
  name: "inception_4b/prelu_pool_proj"
  type: "PReLU"
  bottom: "inception_4b/pool_proj"
  top: "inception_4b/pool_proj"
  param {
    lr_mult: 1
    decay_mult: 0
  }
  prelu_param {
    filler {
      type: "constant"
      value: 0.01
    }
  }
}
layer {
  name: "inception_4b/output"
  type: "Concat"
  bottom: "inception_4b/1x1"
  bottom: "inception_4b/3x3"
  bottom: "inception_4b/5x5"
  bottom: "inception_4b/pool_proj"
  top: "inception_4b/output"
}
layer {
  name: "inception_4c/1x1"
  type: "Convolution"
  bottom: "inception_4b/output"
  top: "inception_4c/1x1"
  param {
    lr_mult: 1
    decay_mult: 1
  }
  param {
    lr_mult: 2
    decay_mult: 0
  }
  convolution_param {
    num_output: 128
    kernel_size: 1
    weight_filler {
      type: "xavier"
    }
    bias_filler {
      type: "constant"
      value: 0.2
    }
  }
}
layer {
  name: "inception_4c/prelu_1x1"
  type: "PReLU"
  bottom: "inception_4c/1x1"
  top: "inception_4c/1x1"
  param {
    lr_mult: 1
    decay_mult: 0
  }
  prelu_param {
    filler {
      type: "constant"
      value: 0.01
    }
  }
}
layer {
  name: "inception_4c/3x3_reduce"
  type: "Convolution"
  bottom: "inception_4b/output"
  top: "inception_4c/3x3_reduce"
  param {
    lr_mult: 1
    decay_mult: 1
  }
  param {
    lr_mult: 2
    decay_mult: 0
  }
  convolution_param {
    num_output: 128
    kernel_size: 1
    weight_filler {
      type: "xavier"
    }
    bias_filler {
      type: "constant"
      value: 0.2
    }
  }
}
layer {
  name: "inception_4c/prelu_3x3_reduce"
  type: "PReLU"
  bottom: "inception_4c/3x3_reduce"
  top: "inception_4c/3x3_reduce"
  param {
    lr_mult: 1
    decay_mult: 0
  }
  prelu_param {
    filler {
      type: "constant"
      value: 0.01
    }
  }
}
layer {
  name: "inception_4c/3x3"
  type: "Convolution"
  bottom: "inception_4c/3x3_reduce"
  top: "inception_4c/3x3"
  param {
    lr_mult: 1
    decay_mult: 1
  }
  param {
    lr_mult: 2
    decay_mult: 0
  }
  convolution_param {
    num_output: 256
    pad: 1
    kernel_size: 3
    weight_filler {
      type: "xavier"
    }
    bias_filler {
      type: "constant"
      value: 0.2
    }
  }
}
layer {
  name: "inception_4c/prelu_3x3"
  type: "PReLU"
  bottom: "inception_4c/3x3"
  top: "inception_4c/3x3"
  param {
    lr_mult: 1
    decay_mult: 0
  }
  prelu_param {
    filler {
      type: "constant"
      value: 0.01
    }
  }
}
layer {
  name: "inception_4c/5x5_reduce"
  type: "Convolution"
  bottom: "inception_4b/output"
  top: "inception_4c/5x5_reduce"
  param {
    lr_mult: 1
    decay_mult: 1
  }
  param {
    lr_mult: 2
    decay_mult: 0
  }
  convolution_param {
    num_output: 24
    kernel_size: 1
    weight_filler {
      type: "xavier"
    }
    bias_filler {
      type: "constant"
      value: 0.2
    }
  }
}
layer {
  name: "inception_4c/prelu_5x5_reduce"
  type: "PReLU"
  bottom: "inception_4c/5x5_reduce"
  top: "inception_4c/5x5_reduce"
  param {
    lr_mult: 1
    decay_mult: 0
  }
  prelu_param {
    filler {
      type: "constant"
      value: 0.01
    }
  }
}
layer {
  name: "inception_4c/5x5"
  type: "Convolution"
  bottom: "inception_4c/5x5_reduce"
  top: "inception_4c/5x5"
  param {
    lr_mult: 1
    decay_mult: 1
  }
  param {
    lr_mult: 2
    decay_mult: 0
  }
  convolution_param {
    num_output: 64
    pad: 2
    kernel_size: 5
    weight_filler {
      type: "xavier"
    }
    bias_filler {
      type: "constant"
      value: 0.2
    }
  }
}
layer {
  name: "inception_4c/prelu_5x5"
  type: "PReLU"
  bottom: "inception_4c/5x5"
  top: "inception_4c/5x5"
  param {
    lr_mult: 1
    decay_mult: 0
  }
  prelu_param {
    filler {
      type: "constant"
      value: 0.01
    }
  }
}
layer {
  name: "inception_4c/pool"
  type: "Pooling"
  bottom: "inception_4b/output"
  top: "inception_4c/pool"
  pooling_param {
    pool: MAX
    kernel_size: 3
    stride: 1
    pad: 1
  }
}
layer {
  name: "inception_4c/pool_proj"
  type: "Convolution"
  bottom: "inception_4c/pool"
  top: "inception_4c/pool_proj"
  param {
    lr_mult: 1
    decay_mult: 1
  }
  param {
    lr_mult: 2
    decay_mult: 0
  }
  convolution_param {
    num_output: 64
    kernel_size: 1
    weight_filler {
      type: "xavier"
    }
    bias_filler {
      type: "constant"
      value: 0.2
    }
  }
}
layer {
  name: "inception_4c/prelu_pool_proj"
  type: "PReLU"
  bottom: "inception_4c/pool_proj"
  top: "inception_4c/pool_proj"
  param {
    lr_mult: 1
    decay_mult: 0
  }
  prelu_param {
    filler {
      type: "constant"
      value: 0.01
    }
  }
}
layer {
  name: "inception_4c/output"
  type: "Concat"
  bottom: "inception_4c/1x1"
  bottom: "inception_4c/3x3"
  bottom: "inception_4c/5x5"
  bottom: "inception_4c/pool_proj"
  top: "inception_4c/output"
}
layer {
  name: "inception_4d/1x1"
  type: "Convolution"
  bottom: "inception_4c/output"
  top: "inception_4d/1x1"
  param {
    lr_mult: 1
    decay_mult: 1
  }
  param {
    lr_mult: 2
    decay_mult: 0
  }
  convolution_param {
    num_output: 112
    kernel_size: 1
    weight_filler {
      type: "xavier"
    }
    bias_filler {
      type: "constant"
      value: 0.2
    }
  }
}
layer {
  name: "inception_4d/prelu_1x1"
  type: "PReLU"
  bottom: "inception_4d/1x1"
  top: "inception_4d/1x1"
  param {
    lr_mult: 1
    decay_mult: 0
  }
  prelu_param {
    filler {
      type: "constant"
      value: 0.01
    }
  }
}
layer {
  name: "inception_4d/3x3_reduce"
  type: "Convolution"
  bottom: "inception_4c/output"
  top: "inception_4d/3x3_reduce"
  param {
    lr_mult: 1
    decay_mult: 1
  }
  param {
    lr_mult: 2
    decay_mult: 0
  }
  convolution_param {
    num_output: 144
    kernel_size: 1
    weight_filler {
      type: "xavier"
    }
    bias_filler {
      type: "constant"
      value: 0.2
    }
  }
}
layer {
  name: "inception_4d/prelu_3x3_reduce"
  type: "PReLU"
  bottom: "inception_4d/3x3_reduce"
  top: "inception_4d/3x3_reduce"
  param {
    lr_mult: 1
    decay_mult: 0
  }
  prelu_param {
    filler {
      type: "constant"
      value: 0.01
    }
  }
}
layer {
  name: "inception_4d/3x3"
  type: "Convolution"
  bottom: "inception_4d/3x3_reduce"
  top: "inception_4d/3x3"
  param {
    lr_mult: 1
    decay_mult: 1
  }
  param {
    lr_mult: 2
    decay_mult: 0
  }
  convolution_param {
    num_output: 288
    pad: 1
    kernel_size: 3
    weight_filler {
      type: "xavier"
    }
    bias_filler {
      type: "constant"
      value: 0.2
    }
  }
}
layer {
  name: "inception_4d/prelu_3x3"
  type: "PReLU"
  bottom: "inception_4d/3x3"
  top: "inception_4d/3x3"
  param {
    lr_mult: 1
    decay_mult: 0
  }
  prelu_param {
    filler {
      type: "constant"
      value: 0.01
    }
  }
}
layer {
  name: "inception_4d/5x5_reduce"
  type: "Convolution"
  bottom: "inception_4c/output"
  top: "inception_4d/5x5_reduce"
  param {
    lr_mult: 1
    decay_mult: 1
  }
  param {
    lr_mult: 2
    decay_mult: 0
  }
  convolution_param {
    num_output: 32
    kernel_size: 1
    weight_filler {
      type: "xavier"
    }
    bias_filler {
      type: "constant"
      value: 0.2
    }
  }
}
layer {
  name: "inception_4d/prelu_5x5_reduce"
  type: "PReLU"
  bottom: "inception_4d/5x5_reduce"
  top: "inception_4d/5x5_reduce"
  param {
    lr_mult: 1
    decay_mult: 0
  }
  prelu_param {
    filler {
      type: "constant"
      value: 0.01
    }
  }
}
layer {
  name: "inception_4d/5x5"
  type: "Convolution"
  bottom: "inception_4d/5x5_reduce"
  top: "inception_4d/5x5"
  param {
    lr_mult: 1
    decay_mult: 1
  }
  param {
    lr_mult: 2
    decay_mult: 0
  }
  convolution_param {
    num_output: 64
    pad: 2
    kernel_size: 5
    weight_filler {
      type: "xavier"
    }
    bias_filler {
      type: "constant"
      value: 0.2
    }
  }
}
layer {
  name: "inception_4d/prelu_5x5"
  type: "PReLU"
  bottom: "inception_4d/5x5"
  top: "inception_4d/5x5"
  param {
    lr_mult: 1
    decay_mult: 0
  }
  prelu_param {
    filler {
      type: "constant"
      value: 0.01
    }
  }
}
layer {
  name: "inception_4d/pool"
  type: "Pooling"
  bottom: "inception_4c/output"
  top: "inception_4d/pool"
  pooling_param {
    pool: MAX
    kernel_size: 3
    stride: 1
    pad: 1
  }
}
layer {
  name: "inception_4d/pool_proj"
  type: "Convolution"
  bottom: 
I1126 10:17:12.023385 10346 layer_factory.hpp:76] Creating layer data
I1126 10:17:12.023795 10346 net.cpp:106] Creating Layer data
I1126 10:17:12.023818 10346 net.cpp:411] data -> data
I1126 10:17:12.023847 10346 net.cpp:411] data -> label
I1126 10:17:12.912031 10351 db_lmdb.cpp:38] Opened lmdb ../../LMDB-s300/train_4-lmdb
I1126 10:17:14.595963 10346 data_layer.cpp:41] output data size: 32,3,224,224
I1126 10:17:14.666121 10346 net.cpp:150] Setting up data
I1126 10:17:14.666169 10346 net.cpp:157] Top shape: 32 3 224 224 (4816896)
I1126 10:17:14.666177 10346 net.cpp:157] Top shape: 32 (32)
I1126 10:17:14.666189 10346 net.cpp:165] Memory required for data: 19267712
I1126 10:17:14.666200 10346 layer_factory.hpp:76] Creating layer label_data_1_split
I1126 10:17:14.666215 10346 net.cpp:106] Creating Layer label_data_1_split
I1126 10:17:14.666223 10346 net.cpp:454] label_data_1_split <- label
I1126 10:17:14.666239 10346 net.cpp:411] label_data_1_split -> label_data_1_split_0
I1126 10:17:14.666250 10346 net.cpp:411] label_data_1_split -> label_data_1_split_1
I1126 10:17:14.666257 10346 net.cpp:411] label_data_1_split -> label_data_1_split_2
I1126 10:17:14.666317 10346 net.cpp:150] Setting up label_data_1_split
I1126 10:17:14.666326 10346 net.cpp:157] Top shape: 32 (32)
I1126 10:17:14.666331 10346 net.cpp:157] Top shape: 32 (32)
I1126 10:17:14.666335 10346 net.cpp:157] Top shape: 32 (32)
I1126 10:17:14.666339 10346 net.cpp:165] Memory required for data: 19268096
I1126 10:17:14.666343 10346 layer_factory.hpp:76] Creating layer conv1/7x7_s2
I1126 10:17:14.666359 10346 net.cpp:106] Creating Layer conv1/7x7_s2
I1126 10:17:14.666364 10346 net.cpp:454] conv1/7x7_s2 <- data
I1126 10:17:14.666373 10346 net.cpp:411] conv1/7x7_s2 -> conv1/7x7_s2
I1126 10:17:14.746237 10352 blocking_queue.cpp:50] Waiting for data
I1126 10:17:14.887585 10346 cudnn_conv_layer.cpp:194] Reallocating workspace storage: 225816
I1126 10:17:14.887897 10346 net.cpp:150] Setting up conv1/7x7_s2
I1126 10:17:14.887913 10346 net.cpp:157] Top shape: 32 64 112 112 (25690112)
I1126 10:17:14.887919 10346 net.cpp:165] Memory required for data: 122028544
I1126 10:17:14.887943 10346 layer_factory.hpp:76] Creating layer conv1/prelu_7x7
I1126 10:17:14.887961 10346 net.cpp:106] Creating Layer conv1/prelu_7x7
I1126 10:17:14.887971 10346 net.cpp:454] conv1/prelu_7x7 <- conv1/7x7_s2
I1126 10:17:14.887984 10346 net.cpp:397] conv1/prelu_7x7 -> conv1/7x7_s2 (in-place)
I1126 10:17:14.890012 10346 net.cpp:150] Setting up conv1/prelu_7x7
I1126 10:17:14.890036 10346 net.cpp:157] Top shape: 32 64 112 112 (25690112)
I1126 10:17:14.890045 10346 net.cpp:165] Memory required for data: 224788992
I1126 10:17:14.890061 10346 layer_factory.hpp:76] Creating layer pool1/3x3_s2
I1126 10:17:14.890076 10346 net.cpp:106] Creating Layer pool1/3x3_s2
I1126 10:17:14.890084 10346 net.cpp:454] pool1/3x3_s2 <- conv1/7x7_s2
I1126 10:17:14.890095 10346 net.cpp:411] pool1/3x3_s2 -> pool1/3x3_s2
I1126 10:17:14.890502 10346 net.cpp:150] Setting up pool1/3x3_s2
I1126 10:17:14.890513 10346 net.cpp:157] Top shape: 32 64 56 56 (6422528)
I1126 10:17:14.890517 10346 net.cpp:165] Memory required for data: 250479104
I1126 10:17:14.890522 10346 layer_factory.hpp:76] Creating layer pool1/norm1
I1126 10:17:14.890534 10346 net.cpp:106] Creating Layer pool1/norm1
I1126 10:17:14.890539 10346 net.cpp:454] pool1/norm1 <- pool1/3x3_s2
I1126 10:17:14.890545 10346 net.cpp:411] pool1/norm1 -> pool1/norm1
I1126 10:17:14.890700 10346 net.cpp:150] Setting up pool1/norm1
I1126 10:17:14.890709 10346 net.cpp:157] Top shape: 32 64 56 56 (6422528)
I1126 10:17:14.890714 10346 net.cpp:165] Memory required for data: 276169216
I1126 10:17:14.890718 10346 layer_factory.hpp:76] Creating layer conv2/3x3_reduce
I1126 10:17:14.890729 10346 net.cpp:106] Creating Layer conv2/3x3_reduce
I1126 10:17:14.890733 10346 net.cpp:454] conv2/3x3_reduce <- pool1/norm1
I1126 10:17:14.890740 10346 net.cpp:411] conv2/3x3_reduce -> conv2/3x3_reduce
I1126 10:17:14.892168 10346 cudnn_conv_layer.cpp:194] Reallocating workspace storage: 63000
I1126 10:17:14.892189 10346 net.cpp:150] Setting up conv2/3x3_reduce
I1126 10:17:14.892197 10346 net.cpp:157] Top shape: 32 64 56 56 (6422528)
I1126 10:17:14.892202 10346 net.cpp:165] Memory required for data: 301859328
I1126 10:17:14.892211 10346 layer_factory.hpp:76] Creating layer conv2/prelu_3x3_reduce
I1126 10:17:14.892220 10346 net.cpp:106] Creating Layer conv2/prelu_3x3_reduce
I1126 10:17:14.892225 10346 net.cpp:454] conv2/prelu_3x3_reduce <- conv2/3x3_reduce
I1126 10:17:14.892231 10346 net.cpp:397] conv2/prelu_3x3_reduce -> conv2/3x3_reduce (in-place)
I1126 10:17:14.892910 10346 net.cpp:150] Setting up conv2/prelu_3x3_reduce
I1126 10:17:14.892920 10346 net.cpp:157] Top shape: 32 64 56 56 (6422528)
I1126 10:17:14.892925 10346 net.cpp:165] Memory required for data: 327549440
I1126 10:17:14.892930 10346 layer_factory.hpp:76] Creating layer conv2/3x3
I1126 10:17:14.892940 10346 net.cpp:106] Creating Layer conv2/3x3
I1126 10:17:14.892945 10346 net.cpp:454] conv2/3x3 <- conv2/3x3_reduce
I1126 10:17:14.892951 10346 net.cpp:411] conv2/3x3 -> conv2/3x3
I1126 10:17:14.895341 10346 cudnn_conv_layer.cpp:194] Reallocating workspace storage: 63000
I1126 10:17:14.895373 10346 net.cpp:150] Setting up conv2/3x3
I1126 10:17:14.895386 10346 net.cpp:157] Top shape: 32 192 56 56 (19267584)
I1126 10:17:14.895392 10346 net.cpp:165] Memory required for data: 404619776
I1126 10:17:14.895406 10346 layer_factory.hpp:76] Creating layer conv2/prelu_3x3
I1126 10:17:14.895421 10346 net.cpp:106] Creating Layer conv2/prelu_3x3
I1126 10:17:14.895431 10346 net.cpp:454] conv2/prelu_3x3 <- conv2/3x3
I1126 10:17:14.895438 10346 net.cpp:397] conv2/prelu_3x3 -> conv2/3x3 (in-place)
I1126 10:17:14.896611 10346 net.cpp:150] Setting up conv2/prelu_3x3
I1126 10:17:14.896623 10346 net.cpp:157] Top shape: 32 192 56 56 (19267584)
I1126 10:17:14.896649 10346 net.cpp:165] Memory required for data: 481690112
I1126 10:17:14.896661 10346 layer_factory.hpp:76] Creating layer conv2/norm2
I1126 10:17:14.896669 10346 net.cpp:106] Creating Layer conv2/norm2
I1126 10:17:14.896674 10346 net.cpp:454] conv2/norm2 <- conv2/3x3
I1126 10:17:14.896680 10346 net.cpp:411] conv2/norm2 -> conv2/norm2
I1126 10:17:14.896863 10346 net.cpp:150] Setting up conv2/norm2
I1126 10:17:14.896874 10346 net.cpp:157] Top shape: 32 192 56 56 (19267584)
I1126 10:17:14.896878 10346 net.cpp:165] Memory required for data: 558760448
I1126 10:17:14.896883 10346 layer_factory.hpp:76] Creating layer pool2/3x3_s2
I1126 10:17:14.896890 10346 net.cpp:106] Creating Layer pool2/3x3_s2
I1126 10:17:14.896895 10346 net.cpp:454] pool2/3x3_s2 <- conv2/norm2
I1126 10:17:14.896901 10346 net.cpp:411] pool2/3x3_s2 -> pool2/3x3_s2
I1126 10:17:14.897239 10346 net.cpp:150] Setting up pool2/3x3_s2
I1126 10:17:14.897249 10346 net.cpp:157] Top shape: 32 192 28 28 (4816896)
I1126 10:17:14.897254 10346 net.cpp:165] Memory required for data: 578028032
I1126 10:17:14.897258 10346 layer_factory.hpp:76] Creating layer pool2/3x3_s2_pool2/3x3_s2_0_split
I1126 10:17:14.897265 10346 net.cpp:106] Creating Layer pool2/3x3_s2_pool2/3x3_s2_0_split
I1126 10:17:14.897270 10346 net.cpp:454] pool2/3x3_s2_pool2/3x3_s2_0_split <- pool2/3x3_s2
I1126 10:17:14.897276 10346 net.cpp:411] pool2/3x3_s2_pool2/3x3_s2_0_split -> pool2/3x3_s2_pool2/3x3_s2_0_split_0
I1126 10:17:14.897284 10346 net.cpp:411] pool2/3x3_s2_pool2/3x3_s2_0_split -> pool2/3x3_s2_pool2/3x3_s2_0_split_1
I1126 10:17:14.897290 10346 net.cpp:411] pool2/3x3_s2_pool2/3x3_s2_0_split -> pool2/3x3_s2_pool2/3x3_s2_0_split_2
I1126 10:17:14.897297 10346 net.cpp:411] pool2/3x3_s2_pool2/3x3_s2_0_split -> pool2/3x3_s2_pool2/3x3_s2_0_split_3
I1126 10:17:14.897342 10346 net.cpp:150] Setting up pool2/3x3_s2_pool2/3x3_s2_0_split
I1126 10:17:14.897349 10346 net.cpp:157] Top shape: 32 192 28 28 (4816896)
I1126 10:17:14.897354 10346 net.cpp:157] Top shape: 32 192 28 28 (4816896)
I1126 10:17:14.897359 10346 net.cpp:157] Top shape: 32 192 28 28 (4816896)
I1126 10:17:14.897364 10346 net.cpp:157] Top shape: 32 192 28 28 (4816896)
I1126 10:17:14.897368 10346 net.cpp:165] Memory required for data: 655098368
I1126 10:17:14.897372 10346 layer_factory.hpp:76] Creating layer inception_3a/1x1
I1126 10:17:14.897382 10346 net.cpp:106] Creating Layer inception_3a/1x1
I1126 10:17:14.897387 10346 net.cpp:454] inception_3a/1x1 <- pool2/3x3_s2_pool2/3x3_s2_0_split_0
I1126 10:17:14.897392 10346 net.cpp:411] inception_3a/1x1 -> inception_3a/1x1
I1126 10:17:14.898926 10346 cudnn_conv_layer.cpp:194] Reallocating workspace storage: 20664
I1126 10:17:14.898955 10346 net.cpp:150] Setting up inception_3a/1x1
I1126 10:17:14.898967 10346 net.cpp:157] Top shape: 32 64 28 28 (1605632)
I1126 10:17:14.898973 10346 net.cpp:165] Memory required for data: 661520896
I1126 10:17:14.898985 10346 layer_factory.hpp:76] Creating layer inception_3a/prelu_1x1
I1126 10:17:14.898996 10346 net.cpp:106] Creating Layer inception_3a/prelu_1x1
I1126 10:17:14.899003 10346 net.cpp:454] inception_3a/prelu_1x1 <- inception_3a/1x1
I1126 10:17:14.899013 10346 net.cpp:397] inception_3a/prelu_1x1 -> inception_3a/1x1 (in-place)
I1126 10:17:14.899746 10346 net.cpp:150] Setting up inception_3a/prelu_1x1
I1126 10:17:14.899760 10346 net.cpp:157] Top shape: 32 64 28 28 (1605632)
I1126 10:17:14.899767 10346 net.cpp:165] Memory required for data: 667943424
I1126 10:17:14.899778 10346 layer_factory.hpp:76] Creating layer inception_3a/3x3_reduce
I1126 10:17:14.899791 10346 net.cpp:106] Creating Layer inception_3a/3x3_reduce
I1126 10:17:14.899798 10346 net.cpp:454] inception_3a/3x3_reduce <- pool2/3x3_s2_pool2/3x3_s2_0_split_1
I1126 10:17:14.899808 10346 net.cpp:411] inception_3a/3x3_reduce -> inception_3a/3x3_reduce
I1126 10:17:14.900802 10346 cudnn_conv_layer.cpp:194] Reallocating workspace storage: 20664
I1126 10:17:14.900823 10346 net.cpp:150] Setting up inception_3a/3x3_reduce
I1126 10:17:14.900831 10346 net.cpp:157] Top shape: 32 96 28 28 (2408448)
I1126 10:17:14.900856 10346 net.cpp:165] Memory required for data: 677577216
I1126 10:17:14.900863 10346 layer_factory.hpp:76] Creating layer inception_3a/prelu_3x3_reduce
I1126 10:17:14.900883 10346 net.cpp:106] Creating Layer inception_3a/prelu_3x3_reduce
I1126 10:17:14.900888 10346 net.cpp:454] inception_3a/prelu_3x3_reduce <- inception_3a/3x3_reduce
I1126 10:17:14.900895 10346 net.cpp:397] inception_3a/prelu_3x3_reduce -> inception_3a/3x3_reduce (in-place)
I1126 10:17:14.901038 10346 net.cpp:150] Setting up inception_3a/prelu_3x3_reduce
I1126 10:17:14.901047 10346 net.cpp:157] Top shape: 32 96 28 28 (2408448)
I1126 10:17:14.901051 10346 net.cpp:165] Memory required for data: 687211008
I1126 10:17:14.901057 10346 layer_factory.hpp:76] Creating layer inception_3a/3x3
I1126 10:17:14.901065 10346 net.cpp:106] Creating Layer inception_3a/3x3
I1126 10:17:14.901069 10346 net.cpp:454] inception_3a/3x3 <- inception_3a/3x3_reduce
I1126 10:17:14.901077 10346 net.cpp:411] inception_3a/3x3 -> inception_3a/3x3
I1126 10:17:14.903295 10346 cudnn_conv_layer.cpp:194] Reallocating workspace storage: 20664
I1126 10:17:14.903329 10346 net.cpp:150] Setting up inception_3a/3x3
I1126 10:17:14.903340 10346 net.cpp:157] Top shape: 32 128 28 28 (3211264)
I1126 10:17:14.903344 10346 net.cpp:165] Memory required for data: 700056064
I1126 10:17:14.903359 10346 layer_factory.hpp:76] Creating layer inception_3a/prelu_3x3
I1126 10:17:14.903373 10346 net.cpp:106] Creating Layer inception_3a/prelu_3x3
I1126 10:17:14.903378 10346 net.cpp:454] inception_3a/prelu_3x3 <- inception_3a/3x3
I1126 10:17:14.903386 10346 net.cpp:397] inception_3a/prelu_3x3 -> inception_3a/3x3 (in-place)
I1126 10:17:14.903527 10346 net.cpp:150] Setting up inception_3a/prelu_3x3
I1126 10:17:14.903535 10346 net.cpp:157] Top shape: 32 128 28 28 (3211264)
I1126 10:17:14.903539 10346 net.cpp:165] Memory required for data: 712901120
I1126 10:17:14.903547 10346 layer_factory.hpp:76] Creating layer inception_3a/5x5_reduce
I1126 10:17:14.903556 10346 net.cpp:106] Creating Layer inception_3a/5x5_reduce
I1126 10:17:14.903561 10346 net.cpp:454] inception_3a/5x5_reduce <- pool2/3x3_s2_pool2/3x3_s2_0_split_2
I1126 10:17:14.903568 10346 net.cpp:411] inception_3a/5x5_reduce -> inception_3a/5x5_reduce
I1126 10:17:14.904789 10346 cudnn_conv_layer.cpp:194] Reallocating workspace storage: 20664
I1126 10:17:14.904811 10346 net.cpp:150] Setting up inception_3a/5x5_reduce
I1126 10:17:14.904819 10346 net.cpp:157] Top shape: 32 16 28 28 (401408)
I1126 10:17:14.904824 10346 net.cpp:165] Memory required for data: 714506752
I1126 10:17:14.904831 10346 layer_factory.hpp:76] Creating layer inception_3a/prelu_5x5_reduce
I1126 10:17:14.904839 10346 net.cpp:106] Creating Layer inception_3a/prelu_5x5_reduce
I1126 10:17:14.904845 10346 net.cpp:454] inception_3a/prelu_5x5_reduce <- inception_3a/5x5_reduce
I1126 10:17:14.904852 10346 net.cpp:397] inception_3a/prelu_5x5_reduce -> inception_3a/5x5_reduce (in-place)
I1126 10:17:14.904935 10346 net.cpp:150] Setting up inception_3a/prelu_5x5_reduce
I1126 10:17:14.904943 10346 net.cpp:157] Top shape: 32 16 28 28 (401408)
I1126 10:17:14.904947 10346 net.cpp:165] Memory required for data: 716112384
I1126 10:17:14.904953 10346 layer_factory.hpp:76] Creating layer inception_3a/5x5
I1126 10:17:14.904963 10346 net.cpp:106] Creating Layer inception_3a/5x5
I1126 10:17:14.904966 10346 net.cpp:454] inception_3a/5x5 <- inception_3a/5x5_reduce
I1126 10:17:14.904973 10346 net.cpp:411] inception_3a/5x5 -> inception_3a/5x5
I1126 10:17:14.905980 10346 cudnn_conv_layer.cpp:194] Reallocating workspace storage: 20664
I1126 10:17:14.905998 10346 net.cpp:150] Setting up inception_3a/5x5
I1126 10:17:14.906007 10346 net.cpp:157] Top shape: 32 32 28 28 (802816)
I1126 10:17:14.906010 10346 net.cpp:165] Memory required for data: 719323648
I1126 10:17:14.906018 10346 layer_factory.hpp:76] Creating layer inception_3a/prelu_5x5
I1126 10:17:14.906025 10346 net.cpp:106] Creating Layer inception_3a/prelu_5x5
I1126 10:17:14.906030 10346 net.cpp:454] inception_3a/prelu_5x5 <- inception_3a/5x5
I1126 10:17:14.906038 10346 net.cpp:397] inception_3a/prelu_5x5 -> inception_3a/5x5 (in-place)
I1126 10:17:14.906152 10346 net.cpp:150] Setting up inception_3a/prelu_5x5
I1126 10:17:14.906160 10346 net.cpp:157] Top shape: 32 32 28 28 (802816)
I1126 10:17:14.906164 10346 net.cpp:165] Memory required for data: 722534912
I1126 10:17:14.906169 10346 layer_factory.hpp:76] Creating layer inception_3a/pool
I1126 10:17:14.906178 10346 net.cpp:106] Creating Layer inception_3a/pool
I1126 10:17:14.906183 10346 net.cpp:454] inception_3a/pool <- pool2/3x3_s2_pool2/3x3_s2_0_split_3
I1126 10:17:14.906189 10346 net.cpp:411] inception_3a/pool -> inception_3a/pool
I1126 10:17:14.906355 10346 net.cpp:150] Setting up inception_3a/pool
I1126 10:17:14.906364 10346 net.cpp:157] Top shape: 32 192 28 28 (4816896)
I1126 10:17:14.906368 10346 net.cpp:165] Memory required for data: 741802496
I1126 10:17:14.906373 10346 layer_factory.hpp:76] Creating layer inception_3a/pool_proj
I1126 10:17:14.906381 10346 net.cpp:106] Creating Layer inception_3a/pool_proj
I1126 10:17:14.906385 10346 net.cpp:454] inception_3a/pool_proj <- inception_3a/pool
I1126 10:17:14.906393 10346 net.cpp:411] inception_3a/pool_proj -> inception_3a/pool_proj
I1126 10:17:14.907341 10346 cudnn_conv_layer.cpp:194] Reallocating workspace storage: 20664
I1126 10:17:14.907358 10346 net.cpp:150] Setting up inception_3a/pool_proj
I1126 10:17:14.907366 10346 net.cpp:157] Top shape: 32 32 28 28 (802816)
I1126 10:17:14.907371 10346 net.cpp:165] Memory required for data: 745013760
I1126 10:17:14.907377 10346 layer_factory.hpp:76] Creating layer inception_3a/prelu_pool_proj
I1126 10:17:14.907385 10346 net.cpp:106] Creating Layer inception_3a/prelu_pool_proj
I1126 10:17:14.907390 10346 net.cpp:454] inception_3a/prelu_pool_proj <- inception_3a/pool_proj
I1126 10:17:14.907397 10346 net.cpp:397] inception_3a/prelu_pool_proj -> inception_3a/pool_proj (in-place)
I1126 10:17:14.907485 10346 net.cpp:150] Setting up inception_3a/prelu_pool_proj
I1126 10:17:14.907492 10346 net.cpp:157] Top shape: 32 32 28 28 (802816)
I1126 10:17:14.907496 10346 net.cpp:165] Memory required for data: 748225024
I1126 10:17:14.907502 10346 layer_factory.hpp:76] Creating layer inception_3a/output
I1126 10:17:14.907515 10346 net.cpp:106] Creating Layer inception_3a/output
I1126 10:17:14.907519 10346 net.cpp:454] inception_3a/output <- inception_3a/1x1
I1126 10:17:14.907524 10346 net.cpp:454] inception_3a/output <- inception_3a/3x3
I1126 10:17:14.907529 10346 net.cpp:454] inception_3a/output <- inception_3a/5x5
I1126 10:17:14.907534 10346 net.cpp:454] inception_3a/output <- inception_3a/pool_proj
I1126 10:17:14.907539 10346 net.cpp:411] inception_3a/output -> inception_3a/output
I1126 10:17:14.907565 10346 net.cpp:150] Setting up inception_3a/output
I1126 10:17:14.907572 10346 net.cpp:157] Top shape: 32 256 28 28 (6422528)
I1126 10:17:14.907577 10346 net.cpp:165] Memory required for data: 773915136
I1126 10:17:14.907580 10346 layer_factory.hpp:76] Creating layer inception_3a/output_inception_3a/output_0_split
I1126 10:17:14.907588 10346 net.cpp:106] Creating Layer inception_3a/output_inception_3a/output_0_split
I1126 10:17:14.907591 10346 net.cpp:454] inception_3a/output_inception_3a/output_0_split <- inception_3a/output
I1126 10:17:14.907596 10346 net.cpp:411] inception_3a/output_inception_3a/output_0_split -> inception_3a/output_inception_3a/output_0_split_0
I1126 10:17:14.907604 10346 net.cpp:411] inception_3a/output_inception_3a/output_0_split -> inception_3a/output_inception_3a/output_0_split_1
I1126 10:17:14.907611 10346 net.cpp:411] inception_3a/output_inception_3a/output_0_split -> inception_3a/output_inception_3a/output_0_split_2
I1126 10:17:14.907618 10346 net.cpp:411] inception_3a/output_inception_3a/output_0_split -> inception_3a/output_inception_3a/output_0_split_3
I1126 10:17:14.907662 10346 net.cpp:150] Setting up inception_3a/output_inception_3a/output_0_split
I1126 10:17:14.907670 10346 net.cpp:157] Top shape: 32 256 28 28 (6422528)
I1126 10:17:14.907675 10346 net.cpp:157] Top shape: 32 256 28 28 (6422528)
I1126 10:17:14.907680 10346 net.cpp:157] Top shape: 32 256 28 28 (6422528)
I1126 10:17:14.907699 10346 net.cpp:157] Top shape: 32 256 28 28 (6422528)
I1126 10:17:14.907704 10346 net.cpp:165] Memory required for data: 876675584
I1126 10:17:14.907708 10346 layer_factory.hpp:76] Creating layer inception_3b/1x1
I1126 10:17:14.907716 10346 net.cpp:106] Creating Layer inception_3b/1x1
I1126 10:17:14.907721 10346 net.cpp:454] inception_3b/1x1 <- inception_3a/output_inception_3a/output_0_split_0
I1126 10:17:14.907727 10346 net.cpp:411] inception_3b/1x1 -> inception_3b/1x1
I1126 10:17:14.908846 10346 cudnn_conv_layer.cpp:194] Reallocating workspace storage: 20664
I1126 10:17:14.908864 10346 net.cpp:150] Setting up inception_3b/1x1
I1126 10:17:14.908871 10346 net.cpp:157] Top shape: 32 128 28 28 (3211264)
I1126 10:17:14.908875 10346 net.cpp:165] Memory required for data: 889520640
I1126 10:17:14.908884 10346 layer_factory.hpp:76] Creating layer inception_3b/prelu_1x1
I1126 10:17:14.908890 10346 net.cpp:106] Creating Layer inception_3b/prelu_1x1
I1126 10:17:14.908895 10346 net.cpp:454] inception_3b/prelu_1x1 <- inception_3b/1x1
I1126 10:17:14.908901 10346 net.cpp:397] inception_3b/prelu_1x1 -> inception_3b/1x1 (in-place)
I1126 10:17:14.909607 10346 net.cpp:150] Setting up inception_3b/prelu_1x1
I1126 10:17:14.909620 10346 net.cpp:157] Top shape: 32 128 28 28 (3211264)
I1126 10:17:14.909623 10346 net.cpp:165] Memory required for data: 902365696
I1126 10:17:14.909629 10346 layer_factory.hpp:76] Creating layer inception_3b/3x3_reduce
I1126 10:17:14.909638 10346 net.cpp:106] Creating Layer inception_3b/3x3_reduce
I1126 10:17:14.909643 10346 net.cpp:454] inception_3b/3x3_reduce <- inception_3a/output_inception_3a/output_0_split_1
I1126 10:17:14.909651 10346 net.cpp:411] inception_3b/3x3_reduce -> inception_3b/3x3_reduce
I1126 10:17:14.910770 10346 cudnn_conv_layer.cpp:194] Reallocating workspace storage: 20664
I1126 10:17:14.910786 10346 net.cpp:150] Setting up inception_3b/3x3_reduce
I1126 10:17:14.910794 10346 net.cpp:157] Top shape: 32 128 28 28 (3211264)
I1126 10:17:14.910797 10346 net.cpp:165] Memory required for data: 915210752
I1126 10:17:14.910804 10346 layer_factory.hpp:76] Creating layer inception_3b/prelu_3x3_reduce
I1126 10:17:14.910812 10346 net.cpp:106] Creating Layer inception_3b/prelu_3x3_reduce
I1126 10:17:14.910817 10346 net.cpp:454] inception_3b/prelu_3x3_reduce <- inception_3b/3x3_reduce
I1126 10:17:14.910823 10346 net.cpp:397] inception_3b/prelu_3x3_reduce -> inception_3b/3x3_reduce (in-place)
I1126 10:17:14.910955 10346 net.cpp:150] Setting up inception_3b/prelu_3x3_reduce
I1126 10:17:14.910964 10346 net.cpp:157] Top shape: 32 128 28 28 (3211264)
I1126 10:17:14.910969 10346 net.cpp:165] Memory required for data: 928055808
I1126 10:17:14.910979 10346 layer_factory.hpp:76] Creating layer inception_3b/3x3
I1126 10:17:14.910990 10346 net.cpp:106] Creating Layer inception_3b/3x3
I1126 10:17:14.910995 10346 net.cpp:454] inception_3b/3x3 <- inception_3b/3x3_reduce
I1126 10:17:14.911001 10346 net.cpp:411] inception_3b/3x3 -> inception_3b/3x3
I1126 10:17:14.913748 10346 cudnn_conv_layer.cpp:194] Reallocating workspace storage: 20664
I1126 10:17:14.913771 10346 net.cpp:150] Setting up inception_3b/3x3
I1126 10:17:14.913779 10346 net.cpp:157] Top shape: 32 192 28 28 (4816896)
I1126 10:17:14.913784 10346 net.cpp:165] Memory required for data: 947323392
I1126 10:17:14.913791 10346 layer_factory.hpp:76] Creating layer inception_3b/prelu_3x3
I1126 10:17:14.913800 10346 net.cpp:106] Creating Layer inception_3b/prelu_3x3
I1126 10:17:14.913805 10346 net.cpp:454] inception_3b/prelu_3x3 <- inception_3b/3x3
I1126 10:17:14.913812 10346 net.cpp:397] inception_3b/prelu_3x3 -> inception_3b/3x3 (in-place)
I1126 10:17:14.914611 10346 net.cpp:150] Setting up inception_3b/prelu_3x3
I1126 10:17:14.914628 10346 net.cpp:157] Top shape: 32 192 28 28 (4816896)
I1126 10:17:14.914635 10346 net.cpp:165] Memory required for data: 966590976
I1126 10:17:14.914644 10346 layer_factory.hpp:76] Creating layer inception_3b/5x5_reduce
I1126 10:17:14.914659 10346 net.cpp:106] Creating Layer inception_3b/5x5_reduce
I1126 10:17:14.914690 10346 net.cpp:454] inception_3b/5x5_reduce <- inception_3a/output_inception_3a/output_0_split_2
I1126 10:17:14.914702 10346 net.cpp:411] inception_3b/5x5_reduce -> inception_3b/5x5_reduce
I1126 10:17:14.915742 10346 cudnn_conv_layer.cpp:194] Reallocating workspace storage: 20664
I1126 10:17:14.915762 10346 net.cpp:150] Setting up inception_3b/5x5_reduce
I1126 10:17:14.915769 10346 net.cpp:157] Top shape: 32 32 28 28 (802816)
I1126 10:17:14.915784 10346 net.cpp:165] Memory required for data: 969802240
I1126 10:17:14.915791 10346 layer_factory.hpp:76] Creating layer inception_3b/prelu_5x5_reduce
I1126 10:17:14.915799 10346 net.cpp:106] Creating Layer inception_3b/prelu_5x5_reduce
I1126 10:17:14.915804 10346 net.cpp:454] inception_3b/prelu_5x5_reduce <- inception_3b/5x5_reduce
I1126 10:17:14.915812 10346 net.cpp:397] inception_3b/prelu_5x5_reduce -> inception_3b/5x5_reduce (in-place)
I1126 10:17:14.915901 10346 net.cpp:150] Setting up inception_3b/prelu_5x5_reduce
I1126 10:17:14.915910 10346 net.cpp:157] Top shape: 32 32 28 28 (802816)
I1126 10:17:14.915913 10346 net.cpp:165] Memory required for data: 973013504
I1126 10:17:14.915918 10346 layer_factory.hpp:76] Creating layer inception_3b/5x5
I1126 10:17:14.915927 10346 net.cpp:106] Creating Layer inception_3b/5x5
I1126 10:17:14.915931 10346 net.cpp:454] inception_3b/5x5 <- inception_3b/5x5_reduce
I1126 10:17:14.915937 10346 net.cpp:411] inception_3b/5x5 -> inception_3b/5x5
I1126 10:17:14.917284 10346 cudnn_conv_layer.cpp:194] Reallocating workspace storage: 20664
I1126 10:17:14.917300 10346 net.cpp:150] Setting up inception_3b/5x5
I1126 10:17:14.917309 10346 net.cpp:157] Top shape: 32 96 28 28 (2408448)
I1126 10:17:14.917312 10346 net.cpp:165] Memory required for data: 982647296
I1126 10:17:14.917320 10346 layer_factory.hpp:76] Creating layer inception_3b/prelu_5x5
I1126 10:17:14.917326 10346 net.cpp:106] Creating Layer inception_3b/prelu_5x5
I1126 10:17:14.917330 10346 net.cpp:454] inception_3b/prelu_5x5 <- inception_3b/5x5
I1126 10:17:14.917336 10346 net.cpp:397] inception_3b/prelu_5x5 -> inception_3b/5x5 (in-place)
I1126 10:17:14.917469 10346 net.cpp:150] Setting up inception_3b/prelu_5x5
I1126 10:17:14.917476 10346 net.cpp:157] Top shape: 32 96 28 28 (2408448)
I1126 10:17:14.917480 10346 net.cpp:165] Memory required for data: 992281088
I1126 10:17:14.917486 10346 layer_factory.hpp:76] Creating layer inception_3b/pool
I1126 10:17:14.917493 10346 net.cpp:106] Creating Layer inception_3b/pool
I1126 10:17:14.917498 10346 net.cpp:454] inception_3b/pool <- inception_3a/output_inception_3a/output_0_split_3
I1126 10:17:14.917505 10346 net.cpp:411] inception_3b/pool -> inception_3b/pool
I1126 10:17:14.917865 10346 net.cpp:150] Setting up inception_3b/pool
I1126 10:17:14.917876 10346 net.cpp:157] Top shape: 32 256 28 28 (6422528)
I1126 10:17:14.917879 10346 net.cpp:165] Memory required for data: 1017971200
I1126 10:17:14.917884 10346 layer_factory.hpp:76] Creating layer inception_3b/pool_proj
I1126 10:17:14.917892 10346 net.cpp:106] Creating Layer inception_3b/pool_proj
I1126 10:17:14.917897 10346 net.cpp:454] inception_3b/pool_proj <- inception_3b/pool
I1126 10:17:14.917903 10346 net.cpp:411] inception_3b/pool_proj -> inception_3b/pool_proj
I1126 10:17:14.919097 10346 cudnn_conv_layer.cpp:194] Reallocating workspace storage: 20664
I1126 10:17:14.919116 10346 net.cpp:150] Setting up inception_3b/pool_proj
I1126 10:17:14.919123 10346 net.cpp:157] Top shape: 32 64 28 28 (1605632)
I1126 10:17:14.919127 10346 net.cpp:165] Memory required for data: 1024393728
I1126 10:17:14.919134 10346 layer_factory.hpp:76] Creating layer inception_3b/prelu_pool_proj
I1126 10:17:14.919144 10346 net.cpp:106] Creating Layer inception_3b/prelu_pool_proj
I1126 10:17:14.919149 10346 net.cpp:454] inception_3b/prelu_pool_proj <- inception_3b/pool_proj
I1126 10:17:14.919155 10346 net.cpp:397] inception_3b/prelu_pool_proj -> inception_3b/pool_proj (in-place)
I1126 10:17:14.919281 10346 net.cpp:150] Setting up inception_3b/prelu_pool_proj
I1126 10:17:14.919306 10346 net.cpp:157] Top shape: 32 64 28 28 (1605632)
I1126 10:17:14.919312 10346 net.cpp:165] Memory required for data: 1030816256
I1126 10:17:14.919317 10346 layer_factory.hpp:76] Creating layer inception_3b/output
I1126 10:17:14.919327 10346 net.cpp:106] Creating Layer inception_3b/output
I1126 10:17:14.919330 10346 net.cpp:454] inception_3b/output <- inception_3b/1x1
I1126 10:17:14.919337 10346 net.cpp:454] inception_3b/output <- inception_3b/3x3
I1126 10:17:14.919340 10346 net.cpp:454] inception_3b/output <- inception_3b/5x5
I1126 10:17:14.919345 10346 net.cpp:454] inception_3b/output <- inception_3b/pool_proj
I1126 10:17:14.919350 10346 net.cpp:411] inception_3b/output -> inception_3b/output
I1126 10:17:14.919375 10346 net.cpp:150] Setting up inception_3b/output
I1126 10:17:14.919383 10346 net.cpp:157] Top shape: 32 480 28 28 (12042240)
I1126 10:17:14.919386 10346 net.cpp:165] Memory required for data: 1078985216
I1126 10:17:14.919390 10346 layer_factory.hpp:76] Creating layer pool3/3x3_s2
I1126 10:17:14.919397 10346 net.cpp:106] Creating Layer pool3/3x3_s2
I1126 10:17:14.919401 10346 net.cpp:454] pool3/3x3_s2 <- inception_3b/output
I1126 10:17:14.919411 10346 net.cpp:411] pool3/3x3_s2 -> pool3/3x3_s2
I1126 10:17:14.919761 10346 net.cpp:150] Setting up pool3/3x3_s2
I1126 10:17:14.919770 10346 net.cpp:157] Top shape: 32 480 14 14 (3010560)
I1126 10:17:14.919775 10346 net.cpp:165] Memory required for data: 1091027456
I1126 10:17:14.919780 10346 layer_factory.hpp:76] Creating layer pool3/3x3_s2_pool3/3x3_s2_0_split
I1126 10:17:14.919787 10346 net.cpp:106] Creating Layer pool3/3x3_s2_pool3/3x3_s2_0_split
I1126 10:17:14.919792 10346 net.cpp:454] pool3/3x3_s2_pool3/3x3_s2_0_split <- pool3/3x3_s2
I1126 10:17:14.919797 10346 net.cpp:411] pool3/3x3_s2_pool3/3x3_s2_0_split -> pool3/3x3_s2_pool3/3x3_s2_0_split_0
I1126 10:17:14.919805 10346 net.cpp:411] pool3/3x3_s2_pool3/3x3_s2_0_split -> pool3/3x3_s2_pool3/3x3_s2_0_split_1
I1126 10:17:14.919811 10346 net.cpp:411] pool3/3x3_s2_pool3/3x3_s2_0_split -> pool3/3x3_s2_pool3/3x3_s2_0_split_2
I1126 10:17:14.919817 10346 net.cpp:411] pool3/3x3_s2_pool3/3x3_s2_0_split -> pool3/3x3_s2_pool3/3x3_s2_0_split_3
I1126 10:17:14.919869 10346 net.cpp:150] Setting up pool3/3x3_s2_pool3/3x3_s2_0_split
I1126 10:17:14.919877 10346 net.cpp:157] Top shape: 32 480 14 14 (3010560)
I1126 10:17:14.919881 10346 net.cpp:157] Top shape: 32 480 14 14 (3010560)
I1126 10:17:14.919886 10346 net.cpp:157] Top shape: 32 480 14 14 (3010560)
I1126 10:17:14.919890 10346 net.cpp:157] Top shape: 32 480 14 14 (3010560)
I1126 10:17:14.919894 10346 net.cpp:165] Memory required for data: 1139196416
I1126 10:17:14.919898 10346 layer_factory.hpp:76] Creating layer inception_4a/1x1
I1126 10:17:14.919906 10346 net.cpp:106] Creating Layer inception_4a/1x1
I1126 10:17:14.919911 10346 net.cpp:454] inception_4a/1x1 <- pool3/3x3_s2_pool3/3x3_s2_0_split_0
I1126 10:17:14.919920 10346 net.cpp:411] inception_4a/1x1 -> inception_4a/1x1
I1126 10:17:14.921917 10346 cudnn_conv_layer.cpp:194] Reallocating workspace storage: 10080
I1126 10:17:14.922122 10346 net.cpp:150] Setting up inception_4a/1x1
I1126 10:17:14.922130 10346 net.cpp:157] Top shape: 32 192 14 14 (1204224)
I1126 10:17:14.922135 10346 net.cpp:165] Memory required for data: 1144013312
I1126 10:17:14.922143 10346 layer_factory.hpp:76] Creating layer inception_4a/prelu_1x1
I1126 10:17:14.922152 10346 net.cpp:106] Creating Layer inception_4a/prelu_1x1
I1126 10:17:14.922158 10346 net.cpp:454] inception_4a/prelu_1x1 <- inception_4a/1x1
I1126 10:17:14.922164 10346 net.cpp:397] inception_4a/prelu_1x1 -> inception_4a/1x1 (in-place)
I1126 10:17:14.922785 10346 net.cpp:150] Setting up inception_4a/prelu_1x1
I1126 10:17:14.922796 10346 net.cpp:157] Top shape: 32 192 14 14 (1204224)
I1126 10:17:14.922801 10346 net.cpp:165] Memory required for data: 1148830208
I1126 10:17:14.922807 10346 layer_factory.hpp:76] Creating layer inception_4a/3x3_reduce
I1126 10:17:14.922816 10346 net.cpp:106] Creating Layer inception_4a/3x3_reduce
I1126 10:17:14.922821 10346 net.cpp:454] inception_4a/3x3_reduce <- pool3/3x3_s2_pool3/3x3_s2_0_split_1
I1126 10:17:14.922845 10346 net.cpp:411] inception_4a/3x3_reduce -> inception_4a/3x3_reduce
I1126 10:17:14.924124 10346 cudnn_conv_layer.cpp:194] Reallocating workspace storage: 10080
I1126 10:17:14.924150 10346 net.cpp:150] Setting up inception_4a/3x3_reduce
I1126 10:17:14.924157 10346 net.cpp:157] Top shape: 32 96 14 14 (602112)
I1126 10:17:14.924162 10346 net.cpp:165] Memory required for data: 1151238656
I1126 10:17:14.924170 10346 layer_factory.hpp:76] Creating layer inception_4a/prelu_3x3_reduce
I1126 10:17:14.924178 10346 net.cpp:106] Creating Layer inception_4a/prelu_3x3_reduce
I1126 10:17:14.924183 10346 net.cpp:454] inception_4a/prelu_3x3_reduce <- inception_4a/3x3_reduce
I1126 10:17:14.924190 10346 net.cpp:397] inception_4a/prelu_3x3_reduce -> inception_4a/3x3_reduce (in-place)
I1126 10:17:14.924280 10346 net.cpp:150] Setting up inception_4a/prelu_3x3_reduce
I1126 10:17:14.924288 10346 net.cpp:157] Top shape: 32 96 14 14 (602112)
I1126 10:17:14.924293 10346 net.cpp:165] Memory required for data: 1153647104
I1126 10:17:14.924299 10346 layer_factory.hpp:76] Creating layer inception_4a/3x3
I1126 10:17:14.924307 10346 net.cpp:106] Creating Layer inception_4a/3x3
I1126 10:17:14.924312 10346 net.cpp:454] inception_4a/3x3 <- inception_4a/3x3_reduce
I1126 10:17:14.924320 10346 net.cpp:411] inception_4a/3x3 -> inception_4a/3x3
I1126 10:17:14.926614 10346 cudnn_conv_layer.cpp:194] Reallocating workspace storage: 10080
I1126 10:17:14.926636 10346 net.cpp:150] Setting up inception_4a/3x3
I1126 10:17:14.926646 10346 net.cpp:157] Top shape: 32 208 14 14 (1304576)
I1126 10:17:14.926651 10346 net.cpp:165] Memory required for data: 1158865408
I1126 10:17:14.926657 10346 layer_factory.hpp:76] Creating layer inception_4a/prelu_3x3
I1126 10:17:14.926664 10346 net.cpp:106] Creating Layer inception_4a/prelu_3x3
I1126 10:17:14.926669 10346 net.cpp:454] inception_4a/prelu_3x3 <- inception_4a/3x3
I1126 10:17:14.926676 10346 net.cpp:397] inception_4a/prelu_3x3 -> inception_4a/3x3 (in-place)
I1126 10:17:14.926784 10346 net.cpp:150] Setting up inception_4a/prelu_3x3
I1126 10:17:14.926791 10346 net.cpp:157] Top shape: 32 208 14 14 (1304576)
I1126 10:17:14.926795 10346 net.cpp:165] Memory required for data: 1164083712
I1126 10:17:14.926800 10346 layer_factory.hpp:76] Creating layer inception_4a/5x5_reduce
I1126 10:17:14.926810 10346 net.cpp:106] Creating Layer inception_4a/5x5_reduce
I1126 10:17:14.926815 10346 net.cpp:454] inception_4a/5x5_reduce <- pool3/3x3_s2_pool3/3x3_s2_0_split_2
I1126 10:17:14.926822 10346 net.cpp:411] inception_4a/5x5_reduce -> inception_4a/5x5_reduce
I1126 10:17:14.927840 10346 cudnn_conv_layer.cpp:194] Reallocating workspace storage: 10080
I1126 10:17:14.927860 10346 net.cpp:150] Setting up inception_4a/5x5_reduce
I1126 10:17:14.927866 10346 net.cpp:157] Top shape: 32 16 14 14 (100352)
I1126 10:17:14.927870 10346 net.cpp:165] Memory required for data: 1164485120
I1126 10:17:14.927877 10346 layer_factory.hpp:76] Creating layer inception_4a/prelu_5x5_reduce
I1126 10:17:14.927886 10346 net.cpp:106] Creating Layer inception_4a/prelu_5x5_reduce
I1126 10:17:14.927891 10346 net.cpp:454] inception_4a/prelu_5x5_reduce <- inception_4a/5x5_reduce
I1126 10:17:14.927899 10346 net.cpp:397] inception_4a/prelu_5x5_reduce -> inception_4a/5x5_reduce (in-place)
I1126 10:17:14.927980 10346 net.cpp:150] Setting up inception_4a/prelu_5x5_reduce
I1126 10:17:14.927988 10346 net.cpp:157] Top shape: 32 16 14 14 (100352)
I1126 10:17:14.927991 10346 net.cpp:165] Memory required for data: 1164886528
I1126 10:17:14.927996 10346 layer_factory.hpp:76] Creating layer inception_4a/5x5
I1126 10:17:14.928005 10346 net.cpp:106] Creating Layer inception_4a/5x5
I1126 10:17:14.928010 10346 net.cpp:454] inception_4a/5x5 <- inception_4a/5x5_reduce
I1126 10:17:14.928019 10346 net.cpp:411] inception_4a/5x5 -> inception_4a/5x5
I1126 10:17:14.929154 10346 cudnn_conv_layer.cpp:194] Reallocating workspace storage: 13080
I1126 10:17:14.929178 10346 net.cpp:150] Setting up inception_4a/5x5
I1126 10:17:14.929186 10346 net.cpp:157] Top shape: 32 48 14 14 (301056)
I1126 10:17:14.929210 10346 net.cpp:165] Memory required for data: 1166090752
I1126 10:17:14.929219 10346 layer_factory.hpp:76] Creating layer inception_4a/prelu_5x5
I1126 10:17:14.929227 10346 net.cpp:106] Creating Layer inception_4a/prelu_5x5
I1126 10:17:14.929234 10346 net.cpp:454] inception_4a/prelu_5x5 <- inception_4a/5x5
I1126 10:17:14.929239 10346 net.cpp:397] inception_4a/prelu_5x5 -> inception_4a/5x5 (in-place)
I1126 10:17:14.929345 10346 net.cpp:150] Setting up inception_4a/prelu_5x5
I1126 10:17:14.929353 10346 net.cpp:157] Top shape: 32 48 14 14 (301056)
I1126 10:17:14.929358 10346 net.cpp:165] Memory required for data: 1167294976
I1126 10:17:14.929363 10346 layer_factory.hpp:76] Creating layer inception_4a/pool
I1126 10:17:14.929373 10346 net.cpp:106] Creating Layer inception_4a/pool
I1126 10:17:14.929378 10346 net.cpp:454] inception_4a/pool <- pool3/3x3_s2_pool3/3x3_s2_0_split_3
I1126 10:17:14.929383 10346 net.cpp:411] inception_4a/pool -> inception_4a/pool
I1126 10:17:14.929777 10346 net.cpp:150] Setting up inception_4a/pool
I1126 10:17:14.929787 10346 net.cpp:157] Top shape: 32 480 14 14 (3010560)
I1126 10:17:14.929791 10346 net.cpp:165] Memory required for data: 1179337216
I1126 10:17:14.929795 10346 layer_factory.hpp:76] Creating layer inception_4a/pool_proj
I1126 10:17:14.929805 10346 net.cpp:106] Creating Layer inception_4a/pool_proj
I1126 10:17:14.929810 10346 net.cpp:454] inception_4a/pool_proj <- inception_4a/pool
I1126 10:17:14.929818 10346 net.cpp:411] inception_4a/pool_proj -> inception_4a/pool_proj
I1126 10:17:14.930811 10346 cudnn_conv_layer.cpp:194] Reallocating workspace storage: 10080
I1126 10:17:14.930840 10346 net.cpp:150] Setting up inception_4a/pool_proj
I1126 10:17:14.930846 10346 net.cpp:157] Top shape: 32 64 14 14 (401408)
I1126 10:17:14.930850 10346 net.cpp:165] Memory required for data: 1180942848
I1126 10:17:14.930857 10346 layer_factory.hpp:76] Creating layer inception_4a/prelu_pool_proj
I1126 10:17:14.930865 10346 net.cpp:106] Creating Layer inception_4a/prelu_pool_proj
I1126 10:17:14.930869 10346 net.cpp:454] inception_4a/prelu_pool_proj <- inception_4a/pool_proj
I1126 10:17:14.930877 10346 net.cpp:397] inception_4a/prelu_pool_proj -> inception_4a/pool_proj (in-place)
I1126 10:17:14.930985 10346 net.cpp:150] Setting up inception_4a/prelu_pool_proj
I1126 10:17:14.930994 10346 net.cpp:157] Top shape: 32 64 14 14 (401408)
I1126 10:17:14.930997 10346 net.cpp:165] Memory required for data: 1182548480
I1126 10:17:14.931004 10346 layer_factory.hpp:76] Creating layer inception_4a/output
I1126 10:17:14.931010 10346 net.cpp:106] Creating Layer inception_4a/output
I1126 10:17:14.931015 10346 net.cpp:454] inception_4a/output <- inception_4a/1x1
I1126 10:17:14.931020 10346 net.cpp:454] inception_4a/output <- inception_4a/3x3
I1126 10:17:14.931025 10346 net.cpp:454] inception_4a/output <- inception_4a/5x5
I1126 10:17:14.931028 10346 net.cpp:454] inception_4a/output <- inception_4a/pool_proj
I1126 10:17:14.931035 10346 net.cpp:411] inception_4a/output -> inception_4a/output
I1126 10:17:14.931059 10346 net.cpp:150] Setting up inception_4a/output
I1126 10:17:14.931068 10346 net.cpp:157] Top shape: 32 512 14 14 (3211264)
I1126 10:17:14.931072 10346 net.cpp:165] Memory required for data: 1195393536
I1126 10:17:14.931077 10346 layer_factory.hpp:76] Creating layer inception_4a/output_inception_4a/output_0_split
I1126 10:17:14.931083 10346 net.cpp:106] Creating Layer inception_4a/output_inception_4a/output_0_split
I1126 10:17:14.931087 10346 net.cpp:454] inception_4a/output_inception_4a/output_0_split <- inception_4a/output
I1126 10:17:14.931093 10346 net.cpp:411] inception_4a/output_inception_4a/output_0_split -> inception_4a/output_inception_4a/output_0_split_0
I1126 10:17:14.931100 10346 net.cpp:411] inception_4a/output_inception_4a/output_0_split -> inception_4a/output_inception_4a/output_0_split_1
I1126 10:17:14.931108 10346 net.cpp:411] inception_4a/output_inception_4a/output_0_split -> inception_4a/output_inception_4a/output_0_split_2
I1126 10:17:14.931128 10346 net.cpp:411] inception_4a/output_inception_4a/output_0_split -> inception_4a/output_inception_4a/output_0_split_3
I1126 10:17:14.931134 10346 net.cpp:411] inception_4a/output_inception_4a/output_0_split -> inception_4a/output_inception_4a/output_0_split_4
I1126 10:17:14.931197 10346 net.cpp:150] Setting up inception_4a/output_inception_4a/output_0_split
I1126 10:17:14.931205 10346 net.cpp:157] Top shape: 32 512 14 14 (3211264)
I1126 10:17:14.931210 10346 net.cpp:157] Top shape: 32 512 14 14 (3211264)
I1126 10:17:14.931215 10346 net.cpp:157] Top shape: 32 512 14 14 (3211264)
I1126 10:17:14.931219 10346 net.cpp:157] Top shape: 32 512 14 14 (3211264)
I1126 10:17:14.931224 10346 net.cpp:157] Top shape: 32 512 14 14 (3211264)
I1126 10:17:14.931228 10346 net.cpp:165] Memory required for data: 1259618816
I1126 10:17:14.931232 10346 layer_factory.hpp:76] Creating layer loss1/ave_pool
I1126 10:17:14.931238 10346 net.cpp:106] Creating Layer loss1/ave_pool
I1126 10:17:14.931242 10346 net.cpp:454] loss1/ave_pool <- inception_4a/output_inception_4a/output_0_split_0
I1126 10:17:14.931248 10346 net.cpp:411] loss1/ave_pool -> loss1/ave_pool
I1126 10:17:14.931596 10346 net.cpp:150] Setting up loss1/ave_pool
I1126 10:17:14.931605 10346 net.cpp:157] Top shape: 32 512 4 4 (262144)
I1126 10:17:14.931610 10346 net.cpp:165] Memory required for data: 1260667392
I1126 10:17:14.931614 10346 layer_factory.hpp:76] Creating layer loss1/conv
I1126 10:17:14.931624 10346 net.cpp:106] Creating Layer loss1/conv
I1126 10:17:14.931629 10346 net.cpp:454] loss1/conv <- loss1/ave_pool
I1126 10:17:14.931637 10346 net.cpp:411] loss1/conv -> loss1/conv
I1126 10:17:14.933022 10346 cudnn_conv_layer.cpp:194] Reallocating workspace storage: 6840
I1126 10:17:14.933046 10346 net.cpp:150] Setting up loss1/conv
I1126 10:17:14.933053 10346 net.cpp:157] Top shape: 32 128 4 4 (65536)
I1126 10:17:14.933058 10346 net.cpp:165] Memory required for data: 1260929536
I1126 10:17:14.933079 10346 layer_factory.hpp:76] Creating layer loss1/prelu_conv
I1126 10:17:14.933087 10346 net.cpp:106] Creating Layer loss1/prelu_conv
I1126 10:17:14.933094 10346 net.cpp:454] loss1/prelu_conv <- loss1/conv
I1126 10:17:14.933099 10346 net.cpp:397] loss1/prelu_conv -> loss1/conv (in-place)
I1126 10:17:14.933185 10346 net.cpp:150] Setting up loss1/prelu_conv
I1126 10:17:14.933192 10346 net.cpp:157] Top shape: 32 128 4 4 (65536)
I1126 10:17:14.933197 10346 net.cpp:165] Memory required for data: 1261191680
I1126 10:17:14.933202 10346 layer_factory.hpp:76] Creating layer loss1/fc
I1126 10:17:14.933218 10346 net.cpp:106] Creating Layer loss1/fc
I1126 10:17:14.933223 10346 net.cpp:454] loss1/fc <- loss1/conv
I1126 10:17:14.933230 10346 net.cpp:411] loss1/fc -> loss1/fc
I1126 10:17:14.947928 10346 net.cpp:150] Setting up loss1/fc
I1126 10:17:14.947964 10346 net.cpp:157] Top shape: 32 1024 (32768)
I1126 10:17:14.947968 10346 net.cpp:165] Memory required for data: 1261322752
I1126 10:17:14.947979 10346 layer_factory.hpp:76] Creating layer loss1/prelu_fc
I1126 10:17:14.947993 10346 net.cpp:106] Creating Layer loss1/prelu_fc
I1126 10:17:14.947999 10346 net.cpp:454] loss1/prelu_fc <- loss1/fc
I1126 10:17:14.948007 10346 net.cpp:397] loss1/prelu_fc -> loss1/fc (in-place)
I1126 10:17:14.948086 10346 net.cpp:150] Setting up loss1/prelu_fc
I1126 10:17:14.948092 10346 net.cpp:157] Top shape: 32 1024 (32768)
I1126 10:17:14.948096 10346 net.cpp:165] Memory required for data: 1261453824
I1126 10:17:14.948101 10346 layer_factory.hpp:76] Creating layer loss1/drop_fc
I1126 10:17:14.948123 10346 net.cpp:106] Creating Layer loss1/drop_fc
I1126 10:17:14.948128 10346 net.cpp:454] loss1/drop_fc <- loss1/fc
I1126 10:17:14.948133 10346 net.cpp:397] loss1/drop_fc -> loss1/fc (in-place)
I1126 10:17:14.948163 10346 net.cpp:150] Setting up loss1/drop_fc
I1126 10:17:14.948170 10346 net.cpp:157] Top shape: 32 1024 (32768)
I1126 10:17:14.948174 10346 net.cpp:165] Memory required for data: 1261584896
I1126 10:17:14.948179 10346 layer_factory.hpp:76] Creating layer loss1/classifier2
I1126 10:17:14.948187 10346 net.cpp:106] Creating Layer loss1/classifier2
I1126 10:17:14.948215 10346 net.cpp:454] loss1/classifier2 <- loss1/fc
I1126 10:17:14.948221 10346 net.cpp:411] loss1/classifier2 -> loss1/classifier
I1126 10:17:14.948328 10346 net.cpp:150] Setting up loss1/classifier2
I1126 10:17:14.948336 10346 net.cpp:157] Top shape: 32 2 (64)
I1126 10:17:14.948339 10346 net.cpp:165] Memory required for data: 1261585152
I1126 10:17:14.948346 10346 layer_factory.hpp:76] Creating layer loss1/loss
I1126 10:17:14.948354 10346 net.cpp:106] Creating Layer loss1/loss
I1126 10:17:14.948359 10346 net.cpp:454] loss1/loss <- loss1/classifier
I1126 10:17:14.948364 10346 net.cpp:454] loss1/loss <- label_data_1_split_0
I1126 10:17:14.948369 10346 net.cpp:411] loss1/loss -> loss1/loss1
I1126 10:17:14.948382 10346 layer_factory.hpp:76] Creating layer loss1/loss
I1126 10:17:14.948657 10346 net.cpp:150] Setting up loss1/loss
I1126 10:17:14.948667 10346 net.cpp:157] Top shape: (1)
I1126 10:17:14.948670 10346 net.cpp:160]     with loss weight 0.3
I1126 10:17:14.948693 10346 net.cpp:165] Memory required for data: 1261585156
I1126 10:17:14.948698 10346 layer_factory.hpp:76] Creating layer inception_4b/1x1
I1126 10:17:14.948709 10346 net.cpp:106] Creating Layer inception_4b/1x1
I1126 10:17:14.948724 10346 net.cpp:454] inception_4b/1x1 <- inception_4a/output_inception_4a/output_0_split_1
I1126 10:17:14.948732 10346 net.cpp:411] inception_4b/1x1 -> inception_4b/1x1
I1126 10:17:14.950296 10346 cudnn_conv_layer.cpp:194] Reallocating workspace storage: 10080
I1126 10:17:14.950321 10346 net.cpp:150] Setting up inception_4b/1x1
I1126 10:17:14.950328 10346 net.cpp:157] Top shape: 32 160 14 14 (1003520)
I1126 10:17:14.950332 10346 net.cpp:165] Memory required for data: 1265599236
I1126 10:17:14.950340 10346 layer_factory.hpp:76] Creating layer inception_4b/prelu_1x1
I1126 10:17:14.950346 10346 net.cpp:106] Creating Layer inception_4b/prelu_1x1
I1126 10:17:14.950350 10346 net.cpp:454] inception_4b/prelu_1x1 <- inception_4b/1x1
I1126 10:17:14.950358 10346 net.cpp:397] inception_4b/prelu_1x1 -> inception_4b/1x1 (in-place)
I1126 10:17:14.950944 10346 net.cpp:150] Setting up inception_4b/prelu_1x1
I1126 10:17:14.950954 10346 net.cpp:157] Top shape: 32 160 14 14 (1003520)
I1126 10:17:14.950958 10346 net.cpp:165] Memory required for data: 1269613316
I1126 10:17:14.950963 10346 layer_factory.hpp:76] Creating layer inception_4b/3x3_reduce
I1126 10:17:14.950973 10346 net.cpp:106] Creating Layer inception_4b/3x3_reduce
I1126 10:17:14.950978 10346 net.cpp:454] inception_4b/3x3_reduce <- inception_4a/output_inception_4a/output_0_split_2
I1126 10:17:14.950985 10346 net.cpp:411] inception_4b/3x3_reduce -> inception_4b/3x3_reduce
I1126 10:17:14.952445 10346 cudnn_conv_layer.cpp:194] Reallocating workspace storage: 10080
I1126 10:17:14.952467 10346 net.cpp:150] Setting up inception_4b/3x3_reduce
I1126 10:17:14.952474 10346 net.cpp:157] Top shape: 32 112 14 14 (702464)
I1126 10:17:14.952479 10346 net.cpp:165] Memory required for data: 1272423172
I1126 10:17:14.952486 10346 layer_factory.hpp:76] Creating layer inception_4b/prelu_3x3_reduce
I1126 10:17:14.952497 10346 net.cpp:106] Creating Layer inception_4b/prelu_3x3_reduce
I1126 10:17:14.952502 10346 net.cpp:454] inception_4b/prelu_3x3_reduce <- inception_4b/3x3_reduce
I1126 10:17:14.952507 10346 net.cpp:397] inception_4b/prelu_3x3_reduce -> inception_4b/3x3_reduce (in-place)
I1126 10:17:14.952597 10346 net.cpp:150] Setting up inception_4b/prelu_3x3_reduce
I1126 10:17:14.952605 10346 net.cpp:157] Top shape: 32 112 14 14 (702464)
I1126 10:17:14.952610 10346 net.cpp:165] Memory required for data: 1275233028
I1126 10:17:14.952615 10346 layer_factory.hpp:76] Creating layer inception_4b/3x3
I1126 10:17:14.952623 10346 net.cpp:106] Creating Layer inception_4b/3x3
I1126 10:17:14.952627 10346 net.cpp:454] inception_4b/3x3 <- inception_4b/3x3_reduce
I1126 10:17:14.952636 10346 net.cpp:411] inception_4b/3x3 -> inception_4b/3x3
I1126 10:17:14.955314 10346 cudnn_conv_layer.cpp:194] Reallocating workspace storage: 10080
I1126 10:17:14.955338 10346 net.cpp:150] Setting up inception_4b/3x3
I1126 10:17:14.955356 10346 net.cpp:157] Top shape: 32 224 14 14 (1404928)
I1126 10:17:14.955361 10346 net.cpp:165] Memory required for data: 1280852740
I1126 10:17:14.955368 10346 layer_factory.hpp:76] Creating layer inception_4b/prelu_3x3
I1126 10:17:14.955375 10346 net.cpp:106] Creating Layer inception_4b/prelu_3x3
I1126 10:17:14.955379 10346 net.cpp:454] inception_4b/prelu_3x3 <- inception_4b/3x3
I1126 10:17:14.955387 10346 net.cpp:397] inception_4b/prelu_3x3 -> inception_4b/3x3 (in-place)
I1126 10:17:14.955495 10346 net.cpp:150] Setting up inception_4b/prelu_3x3
I1126 10:17:14.955503 10346 net.cpp:157] Top shape: 32 224 14 14 (1404928)
I1126 10:17:14.955507 10346 net.cpp:165] Memory required for data: 1286472452
I1126 10:17:14.955513 10346 layer_factory.hpp:76] Creating layer inception_4b/5x5_reduce
I1126 10:17:14.955520 10346 net.cpp:106] Creating Layer inception_4b/5x5_reduce
I1126 10:17:14.955525 10346 net.cpp:454] inception_4b/5x5_reduce <- inception_4a/output_inception_4a/output_0_split_3
I1126 10:17:14.955533 10346 net.cpp:411] inception_4b/5x5_reduce -> inception_4b/5x5_reduce
I1126 10:17:14.956385 10346 cudnn_conv_layer.cpp:194] Reallocating workspace storage: 10080
I1126 10:17:14.956405 10346 net.cpp:150] Setting up inception_4b/5x5_reduce
I1126 10:17:14.956413 10346 net.cpp:157] Top shape: 32 24 14 14 (150528)
I1126 10:17:14.956416 10346 net.cpp:165] Memory required for data: 1287074564
I1126 10:17:14.956423 10346 layer_factory.hpp:76] Creating layer inception_4b/prelu_5x5_reduce
I1126 10:17:14.956430 10346 net.cpp:106] Creating Layer inception_4b/prelu_5x5_reduce
I1126 10:17:14.956435 10346 net.cpp:454] inception_4b/prelu_5x5_reduce <- inception_4b/5x5_reduce
I1126 10:17:14.956441 10346 net.cpp:397] inception_4b/prelu_5x5_reduce -> inception_4b/5x5_reduce (in-place)
I1126 10:17:14.956526 10346 net.cpp:150] Setting up inception_4b/prelu_5x5_reduce
I1126 10:17:14.956532 10346 net.cpp:157] Top shape: 32 24 14 14 (150528)
I1126 10:17:14.956537 10346 net.cpp:165] Memory required for data: 1287676676
I1126 10:17:14.956542 10346 layer_factory.hpp:76] Creating layer inception_4b/5x5
I1126 10:17:14.956549 10346 net.cpp:106] Creating Layer inception_4b/5x5
I1126 10:17:14.956554 10346 net.cpp:454] inception_4b/5x5 <- inception_4b/5x5_reduce
I1126 10:17:14.956562 10346 net.cpp:411] inception_4b/5x5 -> inception_4b/5x5
I1126 10:17:14.957774 10346 cudnn_conv_layer.cpp:194] Reallocating workspace storage: 13080
I1126 10:17:14.957797 10346 net.cpp:150] Setting up inception_4b/5x5
I1126 10:17:14.957803 10346 net.cpp:157] Top shape: 32 64 14 14 (401408)
I1126 10:17:14.957808 10346 net.cpp:165] Memory required for data: 1289282308
I1126 10:17:14.957813 10346 layer_factory.hpp:76] Creating layer inception_4b/prelu_5x5
I1126 10:17:14.957821 10346 net.cpp:106] Creating Layer inception_4b/prelu_5x5
I1126 10:17:14.957826 10346 net.cpp:454] inception_4b/prelu_5x5 <- inception_4b/5x5
I1126 10:17:14.957833 10346 net.cpp:397] inception_4b/prelu_5x5 -> inception_4b/5x5 (in-place)
I1126 10:17:14.957926 10346 net.cpp:150] Setting up inception_4b/prelu_5x5
I1126 10:17:14.957936 10346 net.cpp:157] Top shape: 32 64 14 14 (401408)
I1126 10:17:14.957939 10346 net.cpp:165] Memory required for data: 1290887940
I1126 10:17:14.957945 10346 layer_factory.hpp:76] Creating layer inception_4b/pool
I1126 10:17:14.957952 10346 net.cpp:106] Creating Layer inception_4b/pool
I1126 10:17:14.957957 10346 net.cpp:454] inception_4b/pool <- inception_4a/output_inception_4a/output_0_split_4
I1126 10:17:14.957962 10346 net.cpp:411] inception_4b/pool -> inception_4b/pool
I1126 10:17:14.958318 10346 net.cpp:150] Setting up inception_4b/pool
I1126 10:17:14.958328 10346 net.cpp:157] Top shape: 32 512 14 14 (3211264)
I1126 10:17:14.958333 10346 net.cpp:165] Memory required for data: 1303732996
I1126 10:17:14.958336 10346 layer_factory.hpp:76] Creating layer inception_4b/pool_proj
I1126 10:17:14.958346 10346 net.cpp:106] Creating Layer inception_4b/pool_proj
I1126 10:17:14.958351 10346 net.cpp:454] inception_4b/pool_proj <- inception_4b/pool
I1126 10:17:14.958367 10346 net.cpp:411] inception_4b/pool_proj -> inception_4b/pool_proj
I1126 10:17:14.959547 10346 cudnn_conv_layer.cpp:194] Reallocating workspace storage: 10080
I1126 10:17:14.959576 10346 net.cpp:150] Setting up inception_4b/pool_proj
I1126 10:17:14.959583 10346 net.cpp:157] Top shape: 32 64 14 14 (401408)
I1126 10:17:14.959588 10346 net.cpp:165] Memory required for data: 1305338628
I1126 10:17:14.959594 10346 layer_factory.hpp:76] Creating layer inception_4b/prelu_pool_proj
I1126 10:17:14.959602 10346 net.cpp:106] Creating Layer inception_4b/prelu_pool_proj
I1126 10:17:14.959607 10346 net.cpp:454] inception_4b/prelu_pool_proj <- inception_4b/pool_proj
I1126 10:17:14.959614 10346 net.cpp:397] inception_4b/prelu_pool_proj -> inception_4b/pool_proj (in-place)
I1126 10:17:14.959707 10346 net.cpp:150] Setting up inception_4b/prelu_pool_proj
I1126 10:17:14.959715 10346 net.cpp:157] Top shape: 32 64 14 14 (401408)
I1126 10:17:14.959719 10346 net.cpp:165] Memory required for data: 1306944260
I1126 10:17:14.959724 10346 layer_factory.hpp:76] Creating layer inception_4b/output
I1126 10:17:14.959733 10346 net.cpp:106] Creating Layer inception_4b/output
I1126 10:17:14.959738 10346 net.cpp:454] inception_4b/output <- inception_4b/1x1
I1126 10:17:14.959743 10346 net.cpp:454] inception_4b/output <- inception_4b/3x3
I1126 10:17:14.959748 10346 net.cpp:454] inception_4b/output <- inception_4b/5x5
I1126 10:17:14.959751 10346 net.cpp:454] inception_4b/output <- inception_4b/pool_proj
I1126 10:17:14.959758 10346 net.cpp:411] inception_4b/output -> inception_4b/output
I1126 10:17:14.959781 10346 net.cpp:150] Setting up inception_4b/output
I1126 10:17:14.959789 10346 net.cpp:157] Top shape: 32 512 14 14 (3211264)
I1126 10:17:14.959792 10346 net.cpp:165] Memory required for data: 1319789316
I1126 10:17:14.959796 10346 layer_factory.hpp:76] Creating layer inception_4b/output_inception_4b/output_0_split
I1126 10:17:14.959803 10346 net.cpp:106] Creating Layer inception_4b/output_inception_4b/output_0_split
I1126 10:17:14.959808 10346 net.cpp:454] inception_4b/output_inception_4b/output_0_split <- inception_4b/output
I1126 10:17:14.959815 10346 net.cpp:411] inception_4b/output_inception_4b/output_0_split -> inception_4b/output_inception_4b/output_0_split_0
I1126 10:17:14.959822 10346 net.cpp:411] inception_4b/output_inception_4b/output_0_split -> inception_4b/output_inception_4b/output_0_split_1
I1126 10:17:14.959828 10346 net.cpp:411] inception_4b/output_inception_4b/output_0_split -> inception_4b/output_inception_4b/output_0_split_2
I1126 10:17:14.959836 10346 net.cpp:411] inception_4b/output_inception_4b/output_0_split -> inception_4b/output_inception_4b/output_0_split_3
I1126 10:17:14.959889 10346 net.cpp:150] Setting up inception_4b/output_inception_4b/output_0_split
I1126 10:17:14.959897 10346 net.cpp:157] Top shape: 32 512 14 14 (3211264)
I1126 10:17:14.959903 10346 net.cpp:157] Top shape: 32 512 14 14 (3211264)
I1126 10:17:14.959908 10346 net.cpp:157] Top shape: 32 512 14 14 (3211264)
I1126 10:17:14.959913 10346 net.cpp:157] Top shape: 32 512 14 14 (3211264)
I1126 10:17:14.959915 10346 net.cpp:165] Memory required for data: 1371169540
I1126 10:17:14.959920 10346 layer_factory.hpp:76] Creating layer inception_4c/1x1
I1126 10:17:14.959928 10346 net.cpp:106] Creating Layer inception_4c/1x1
I1126 10:17:14.959931 10346 net.cpp:454] inception_4c/1x1 <- inception_4b/output_inception_4b/output_0_split_0
I1126 10:17:14.959939 10346 net.cpp:411] inception_4c/1x1 -> inception_4c/1x1
I1126 10:17:14.961676 10346 cudnn_conv_layer.cpp:194] Reallocating workspace storage: 10080
I1126 10:17:14.961704 10346 net.cpp:150] Setting up inception_4c/1x1
I1126 10:17:14.961712 10346 net.cpp:157] Top shape: 32 128 14 14 (802816)
I1126 10:17:14.961716 10346 net.cpp:165] Memory required for data: 1374380804
I1126 10:17:14.961724 10346 layer_factory.hpp:76] Creating layer inception_4c/prelu_1x1
I1126 10:17:14.961733 10346 net.cpp:106] Creating Layer inception_4c/prelu_1x1
I1126 10:17:14.961738 10346 net.cpp:454] inception_4c/prelu_1x1 <- inception_4c/1x1
I1126 10:17:14.961760 10346 net.cpp:397] inception_4c/prelu_1x1 -> inception_4c/1x1 (in-place)
I1126 10:17:14.961851 10346 net.cpp:150] Setting up inception_4c/prelu_1x1
I1126 10:17:14.961859 10346 net.cpp:157] Top shape: 32 128 14 14 (802816)
I1126 10:17:14.961863 10346 net.cpp:165] Memory required for data: 1377592068
I1126 10:17:14.961869 10346 layer_factory.hpp:76] Creating layer inception_4c/3x3_reduce
I1126 10:17:14.961879 10346 net.cpp:106] Creating Layer inception_4c/3x3_reduce
I1126 10:17:14.961884 10346 net.cpp:454] inception_4c/3x3_reduce <- inception_4b/output_inception_4b/output_0_split_1
I1126 10:17:14.961890 10346 net.cpp:411] inception_4c/3x3_reduce -> inception_4c/3x3_reduce
I1126 10:17:14.963240 10346 cudnn_conv_layer.cpp:194] Reallocating workspace storage: 10080
I1126 10:17:14.963260 10346 net.cpp:150] Setting up inception_4c/3x3_reduce
I1126 10:17:14.963268 10346 net.cpp:157] Top shape: 32 128 14 14 (802816)
I1126 10:17:14.963271 10346 net.cpp:165] Memory required for data: 1380803332
I1126 10:17:14.963279 10346 layer_factory.hpp:76] Creating layer inception_4c/prelu_3x3_reduce
I1126 10:17:14.963289 10346 net.cpp:106] Creating Layer inception_4c/prelu_3x3_reduce
I1126 10:17:14.963294 10346 net.cpp:454] inception_4c/prelu_3x3_reduce <- inception_4c/3x3_reduce
I1126 10:17:14.963301 10346 net.cpp:397] inception_4c/prelu_3x3_reduce -> inception_4c/3x3_reduce (in-place)
I1126 10:17:14.963395 10346 net.cpp:150] Setting up inception_4c/prelu_3x3_reduce
I1126 10:17:14.963403 10346 net.cpp:157] Top shape: 32 128 14 14 (802816)
I1126 10:17:14.963407 10346 net.cpp:165] Memory required for data: 1384014596
I1126 10:17:14.963413 10346 layer_factory.hpp:76] Creating layer inception_4c/3x3
I1126 10:17:14.963421 10346 net.cpp:106] Creating Layer inception_4c/3x3
I1126 10:17:14.963426 10346 net.cpp:454] inception_4c/3x3 <- inception_4c/3x3_reduce
I1126 10:17:14.963434 10346 net.cpp:411] inception_4c/3x3 -> inception_4c/3x3
I1126 10:17:14.966807 10346 cudnn_conv_layer.cpp:194] Reallocating workspace storage: 10080
I1126 10:17:14.966852 10346 net.cpp:150] Setting up inception_4c/3x3
I1126 10:17:14.966862 10346 net.cpp:157] Top shape: 32 256 14 14 (1605632)
I1126 10:17:14.966867 10346 net.cpp:165] Memory required for data: 1390437124
I1126 10:17:14.966876 10346 layer_factory.hpp:76] Creating layer inception_4c/prelu_3x3
I1126 10:17:14.966887 10346 net.cpp:106] Creating Layer inception_4c/prelu_3x3
I1126 10:17:14.966893 10346 net.cpp:454] inception_4c/prelu_3x3 <- inception_4c/3x3
I1126 10:17:14.966913 10346 net.cpp:397] inception_4c/prelu_3x3 -> inception_4c/3x3 (in-place)
I1126 10:17:14.967056 10346 net.cpp:150] Setting up inception_4c/prelu_3x3
I1126 10:17:14.967067 10346 net.cpp:157] Top shape: 32 256 14 14 (1605632)
I1126 10:17:14.967072 10346 net.cpp:165] Memory required for data: 1396859652
I1126 10:17:14.967078 10346 layer_factory.hpp:76] Creating layer inception_4c/5x5_reduce
I1126 10:17:14.967088 10346 net.cpp:106] Creating Layer inception_4c/5x5_reduce
I1126 10:17:14.967093 10346 net.cpp:454] inception_4c/5x5_reduce <- inception_4b/output_inception_4b/output_0_split_2
I1126 10:17:14.967103 10346 net.cpp:411] inception_4c/5x5_reduce -> inception_4c/5x5_reduce
I1126 10:17:14.968336 10346 cudnn_conv_layer.cpp:194] Reallocating workspace storage: 10080
I1126 10:17:14.968365 10346 net.cpp:150] Setting up inception_4c/5x5_reduce
I1126 10:17:14.968374 10346 net.cpp:157] Top shape: 32 24 14 14 (150528)
I1126 10:17:14.968377 10346 net.cpp:165] Memory required for data: 1397461764
I1126 10:17:14.968385 10346 layer_factory.hpp:76] Creating layer inception_4c/prelu_5x5_reduce
I1126 10:17:14.968396 10346 net.cpp:106] Creating Layer inception_4c/prelu_5x5_reduce
I1126 10:17:14.968401 10346 net.cpp:454] inception_4c/prelu_5x5_reduce <- inception_4c/5x5_reduce
I1126 10:17:14.968410 10346 net.cpp:397] inception_4c/prelu_5x5_reduce -> inception_4c/5x5_reduce (in-place)
I1126 10:17:14.968511 10346 net.cpp:150] Setting up inception_4c/prelu_5x5_reduce
I1126 10:17:14.968519 10346 net.cpp:157] Top shape: 32 24 14 14 (150528)
I1126 10:17:14.968546 10346 net.cpp:165] Memory required for data: 1398063876
I1126 10:17:14.968554 10346 layer_factory.hpp:76] Creating layer inception_4c/5x5
I1126 10:17:14.968564 10346 net.cpp:106] Creating Layer inception_4c/5x5
I1126 10:17:14.968569 10346 net.cpp:454] inception_4c/5x5 <- inception_4c/5x5_reduce
I1126 10:17:14.968576 10346 net.cpp:411] inception_4c/5x5 -> inception_4c/5x5
I1126 10:17:14.970471 10346 cudnn_conv_layer.cpp:194] Reallocating workspace storage: 13080
I1126 10:17:14.970499 10346 net.cpp:150] Setting up inception_4c/5x5
I1126 10:17:14.970506 10346 net.cpp:157] Top shape: 32 64 14 14 (401408)
I1126 10:17:14.970510 10346 net.cpp:165] Memory required for data: 1399669508
I1126 10:17:14.970517 10346 layer_factory.hpp:76] Creating layer inception_4c/prelu_5x5
I1126 10:17:14.970525 10346 net.cpp:106] Creating Layer inception_4c/prelu_5x5
I1126 10:17:14.970530 10346 net.cpp:454] inception_4c/prelu_5x5 <- inception_4c/5x5
I1126 10:17:14.970538 10346 net.cpp:397] inception_4c/prelu_5x5 -> inception_4c/5x5 (in-place)
I1126 10:17:14.970649 10346 net.cpp:150] Setting up inception_4c/prelu_5x5
I1126 10:17:14.970657 10346 net.cpp:157] Top shape: 32 64 14 14 (401408)
I1126 10:17:14.970660 10346 net.cpp:165] Memory required for data: 1401275140
I1126 10:17:14.970665 10346 layer_factory.hpp:76] Creating layer inception_4c/pool
I1126 10:17:14.970674 10346 net.cpp:106] Creating Layer inception_4c/pool
I1126 10:17:14.970679 10346 net.cpp:454] inception_4c/pool <- inception_4b/output_inception_4b/output_0_split_3
I1126 10:17:14.970685 10346 net.cpp:411] inception_4c/pool -> inception_4c/pool
I1126 10:17:14.970860 10346 net.cpp:150] Setting up inception_4c/pool
I1126 10:17:14.970870 10346 net.cpp:157] Top shape: 32 512 14 14 (3211264)
I1126 10:17:14.970873 10346 net.cpp:165] Memory required for data: 1414120196
I1126 10:17:14.970877 10346 layer_factory.hpp:76] Creating layer inception_4c/pool_proj
I1126 10:17:14.970885 10346 net.cpp:106] Creating Layer inception_4c/pool_proj
I1126 10:17:14.970890 10346 net.cpp:454] inception_4c/pool_proj <- inception_4c/pool
I1126 10:17:14.970897 10346 net.cpp:411] inception_4c/pool_proj -> inception_4c/pool_proj
I1126 10:17:14.972277 10346 cudnn_conv_layer.cpp:194] Reallocating workspace storage: 10080
I1126 10:17:14.972306 10346 net.cpp:150] Setting up inception_4c/pool_proj
I1126 10:17:14.972313 10346 net.cpp:157] Top shape: 32 64 14 14 (401408)
I1126 10:17:14.972317 10346 net.cpp:165] Memory required for data: 1415725828
I1126 10:17:14.972324 10346 layer_factory.hpp:76] Creating layer inception_4c/prelu_pool_proj
I1126 10:17:14.972334 10346 net.cpp:106] Creating Layer inception_4c/prelu_pool_proj
I1126 10:17:14.972339 10346 net.cpp:454] inception_4c/prelu_pool_proj <- inception_4c/pool_proj
I1126 10:17:14.972347 10346 net.cpp:397] inception_4c/prelu_pool_proj -> inception_4c/pool_proj (in-place)
I1126 10:17:14.972445 10346 net.cpp:150] Setting up inception_4c/prelu_pool_proj
I1126 10:17:14.972453 10346 net.cpp:157] Top shape: 32 64 14 14 (401408)
I1126 10:17:14.972457 10346 net.cpp:165] Memory required for data: 1417331460
I1126 10:17:14.972462 10346 layer_factory.hpp:76] Creating layer inception_4c/output
I1126 10:17:14.972468 10346 net.cpp:106] Creating Layer inception_4c/output
I1126 10:17:14.972473 10346 net.cpp:454] inception_4c/output <- inception_4c/1x1
I1126 10:17:14.972482 10346 net.cpp:454] inception_4c/output <- inception_4c/3x3
I1126 10:17:14.972487 10346 net.cpp:454] inception_4c/output <- inception_4c/5x5
I1126 10:17:14.972491 10346 net.cpp:454] inception_4c/output <- inception_4c/pool_proj
I1126 10:17:14.972496 10346 net.cpp:411] inception_4c/output -> inception_4c/output
I1126 10:17:14.972522 10346 net.cpp:150] Setting up inception_4c/output
I1126 10:17:14.972528 10346 net.cpp:157] Top shape: 32 512 14 14 (3211264)
I1126 10:17:14.972532 10346 net.cpp:165] Memory required for data: 1430176516
I1126 10:17:14.972535 10346 layer_factory.hpp:76] Creating layer inception_4c/output_inception_4c/output_0_split
I1126 10:17:14.972548 10346 net.cpp:106] Creating Layer inception_4c/output_inception_4c/output_0_split
I1126 10:17:14.972566 10346 net.cpp:454] inception_4c/output_inception_4c/output_0_split <- inception_4c/output
I1126 10:17:14.972573 10346 net.cpp:411] inception_4c/output_inception_4c/output_0_split -> inception_4c/output_inception_4c/output_0_split_0
I1126 10:17:14.972581 10346 net.cpp:411] inception_4c/output_inception_4c/output_0_split -> inception_4c/output_inception_4c/output_0_split_1
I1126 10:17:14.972589 10346 net.cpp:411] inception_4c/output_inception_4c/output_0_split -> inception_4c/output_inception_4c/output_0_split_2
I1126 10:17:14.972595 10346 net.cpp:411] inception_4c/output_inception_4c/output_0_split -> inception_4c/output_inception_4c/output_0_split_3
I1126 10:17:14.972653 10346 net.cpp:150] Setting up inception_4c/output_inception_4c/output_0_split
I1126 10:17:14.972661 10346 net.cpp:157] Top shape: 32 512 14 14 (3211264)
I1126 10:17:14.972666 10346 net.cpp:157] Top shape: 32 512 14 14 (3211264)
I1126 10:17:14.972671 10346 net.cpp:157] Top shape: 32 512 14 14 (3211264)
I1126 10:17:14.972674 10346 net.cpp:157] Top shape: 32 512 14 14 (3211264)
I1126 10:17:14.972678 10346 net.cpp:165] Memory required for data: 1481556740
I1126 10:17:14.972682 10346 layer_factory.hpp:76] Creating layer inception_4d/1x1
I1126 10:17:14.972689 10346 net.cpp:106] Creating Layer inception_4d/1x1
I1126 10:17:14.972694 10346 net.cpp:454] inception_4d/1x1 <- inception_4c/output_inception_4c/output_0_split_0
I1126 10:17:14.972702 10346 net.cpp:411] inception_4d/1x1 -> inception_4d/1x1
I1126 10:17:14.974083 10346 cudnn_conv_layer.cpp:194] Reallocating workspace storage: 10080
I1126 10:17:14.974107 10346 net.cpp:150] Setting up inception_4d/1x1
I1126 10:17:14.974113 10346 net.cpp:157] Top shape: 32 112 14 14 (702464)
I1126 10:17:14.974117 10346 net.cpp:165] Memory required for data: 1484366596
I1126 10:17:14.974124 10346 layer_factory.hpp:76] Creating layer inception_4d/prelu_1x1
I1126 10:17:14.974133 10346 net.cpp:106] Creating Layer inception_4d/prelu_1x1
I1126 10:17:14.974138 10346 net.cpp:454] inception_4d/prelu_1x1 <- inception_4d/1x1
I1126 10:17:14.974146 10346 net.cpp:397] inception_4d/prelu_1x1 -> inception_4d/1x1 (in-place)
I1126 10:17:14.974247 10346 net.cpp:150] Setting up inception_4d/prelu_1x1
I1126 10:17:14.974256 10346 net.cpp:157] Top shape: 32 112 14 14 (702464)
I1126 10:17:14.974259 10346 net.cpp:165] Memory required for data: 1487176452
I1126 10:17:14.974264 10346 layer_factory.hpp:76] Creating layer inception_4d/3x3_reduce
I1126 10:17:14.974274 10346 net.cpp:106] Creating Layer inception_4d/3x3_reduce
I1126 10:17:14.974278 10346 net.cpp:454] inception_4d/3x3_reduce <- inception_4c/output_inception_4c/output_0_split_1
I1126 10:17:14.974288 10346 net.cpp:411] inception_4d/3x3_reduce -> inception_4d/3x3_reduce
I1126 10:17:14.975585 10346 cudnn_conv_layer.cpp:194] Reallocating workspace storage: 10080
I1126 10:17:14.975607 10346 net.cpp:150] Setting up inception_4d/3x3_reduce
I1126 10:17:14.975615 10346 net.cpp:157] Top shape: 32 144 14 14 (903168)
I1126 10:17:14.975620 10346 net.cpp:165] Memory required for data: 1490789124
I1126 10:17:14.975626 10346 layer_factory.hpp:76] Creating layer inception_4d/prelu_3x3_reduce
I1126 10:17:14.975636 10346 net.cpp:106] Creating Layer inception_4d/prelu_3x3_reduce
I1126 10:17:14.975641 10346 net.cpp:454] inception_4d/prelu_3x3_reduce <- inception_4d/3x3_reduce
I1126 10:17:14.975647 10346 net.cpp:397] inception_4d/prelu_3x3_reduce -> inception_4d/3x3_reduce (in-place)
I1126 10:17:14.975766 10346 net.cpp:150] Setting up inception_4d/prelu_3x3_reduce
I1126 10:17:14.975775 10346 net.cpp:157] Top shape: 32 144 14 14 (903168)
I1126 10:17:14.975778 10346 net.cpp:165] Memory required for data: 1494401796
I1126 10:17:14.975785 10346 layer_factory.hpp:76] Creating layer inception_4d/3x3
I1126 10:17:14.975795 10346 net.cpp:106] Creating Layer inception_4d/3x3
I1126 10:17:14.975800 10346 net.cpp:454] inception_4d/3x3 <- inception_4d/3x3_reduce
I1126 10:17:14.975805 10346 net.cpp:411] inception_4d/3x3 -> inception_4d/3x3
I1126 10:17:14.979734 10346 cudnn_conv_layer.cpp:194] Reallocating workspace storage: 10080
I1126 10:17:14.979768 10346 net.cpp:150] Setting up inception_4d/3x3
I1126 10:17:14.979775 10346 net.cpp:157] Top shape: 32 288 14 14 (1806336)
I1126 10:17:14.979780 10346 net.cpp:165] Memory required for data: 1501627140
I1126 10:17:14.979787 10346 layer_factory.hpp:76] Creating layer inception_4d/prelu_3x3
I1126 10:17:14.979799 10346 net.cpp:106] Creating Layer inception_4d/prelu_3x3
I1126 10:17:14.979804 10346 net.cpp:454] inception_4d/prelu_3x3 <- inception_4d/3x3
I1126 10:17:14.979810 10346 net.cpp:397] inception_4d/prelu_3x3 -> inception_4d/3x3 (in-place)
I1126 10:17:14.979954 10346 net.cpp:150] Setting up inception_4d/prelu_3x3
I1126 10:17:14.979961 10346 net.cpp:157] Top shape: 32 288 14 14 (1806336)
I1126 10:17:14.979965 10346 net.cpp:165] Memory required for data: 1508852484
I1126 10:17:14.979970 10346 layer_factory.hpp:76] Creating layer inception_4d/5x5_reduce
I1126 10:17:14.979981 10346 net.cpp:106] Creating Layer inception_4d/5x5_reduce
I1126 10:17:14.979986 10346 net.cpp:454] inception_4d/5x5_reduce <- inception_4c/output_inception_4c/output_0_split_2
I1126 10:17:14.979995 10346 net.cpp:411] inception_4d/5x5_reduce -> inception_4d/5x5_reduce
I1126 10:17:14.981135 10346 cudnn_conv_layer.cpp:194] Reallocating workspace storage: 10080
I1126 10:17:14.981158 10346 net.cpp:150] Setting up inception_4d/5x5_reduce
I1126 10:17:14.981165 10346 net.cpp:157] Top shape: 32 32 14 14 (200704)
I1126 10:17:14.981169 10346 net.cpp:165] Memory required for data: 1509655300
I1126 10:17:14.981175 10346 layer_factory.hpp:76] Creating layer inception_4d/prelu_5x5_reduce
I1126 10:17:14.981184 10346 net.cpp:106] Creating Layer inception_4d/prelu_5x5_reduce
I1126 10:17:14.981189 10346 net.cpp:454] inception_4d/prelu_5x5_reduce <- inception_4d/5x5_reduce
I1126 10:17:14.981195 10346 net.cpp:397] inception_4d/prelu_5x5_reduce -> inception_4d/5x5_reduce (in-place)
I1126 10:17:14.981289 10346 net.cpp:150] Setting up inception_4d/prelu_5x5_reduce
I1126 10:17:14.981297 10346 net.cpp:157] Top shape: 32 32 14 14 (200704)
I1126 10:17:14.981300 10346 net.cpp:165] Memory required for data: 1510458116
I1126 10:17:14.981305 10346 layer_factory.hpp:76] Creating layer inception_4d/5x5
I1126 10:17:14.981314 10346 net.cpp:106] Creating Layer inception_4d/5x5
I1126 10:17:14.981319 10346 net.cpp:454] inception_4d/5x5 <- inception_4d/5x5_reduce
I1126 10:17:14.981326 10346 net.cpp:411] inception_4d/5x5 -> inception_4d/5x5
I1126 10:17:14.983108 10346 cudnn_conv_layer.cpp:194] Reallocating workspace storage: 13080
I1126 10:17:14.983131 10346 net.cpp:150] Setting up inception_4d/5x5
I1126 10:17:15.056920 10346 net.cpp:157] Top shape: 32 64 14 14 (401408)
I1126 10:17:15.056951 10346 net.cpp:165] Memory required for data: 1512063748
I1126 10:17:15.056980 10346 layer_factory.hpp:76] Creating layer inception_4d/prelu_5x5
I1126 10:17:15.057015 10346 net.cpp:106] Creating Layer inception_4d/prelu_5x5
I1126 10:17:15.057029 10346 net.cpp:454] inception_4d/prelu_5x5 <- inception_4d/5x5
I1126 10:17:15.057044 10346 net.cpp:397] inception_4d/prelu_5x5 -> inception_4d/5x5 (in-place)
I1126 10:17:15.057358 10346 net.cpp:150] Setting up inception_4d/prelu_5x5
I1126 10:17:15.057379 10346 net.cpp:157] Top shape: 32 64 14 14 (401408)
I1126 10:17:15.057389 10346 net.cpp:165] Memory required for data: 1513669380
I1126 10:17:15.057430 10346 layer_factory.hpp:76] Creating layer inception_4d/pool
I1126 10:17:15.057447 10346 net.cpp:106] Creating Layer inception_4d/pool
I1126 10:17:15.057462 10346 net.cpp:454] inception_4d/pool <- inception_4c/output_inception_4c/output_0_split_3
I1126 10:17:15.057477 10346 net.cpp:411] inception_4d/pool -> inception_4d/pool
I1126 10:17:15.057986 10346 net.cpp:150] Setting up inception_4d/pool
I1126 10:17:15.058007 10346 net.cpp:157] Top shape: 32 512 14 14 (3211264)
I1126 10:17:15.058017 10346 net.cpp:165] Memory required for data: 1526514436
I1126 10:17:15.058027 10346 layer_factory.hpp:76] Creating layer inception_4d/pool_proj
I1126 10:17:15.058055 10346 net.cpp:106] Creating Layer inception_4d/pool_proj
I1126 10:17:15.058094 10346 net.cpp:454] inception_4d/pool_proj <- inception_4d/pool
I1126 10:17:15.058101 10346 net.cpp:411] inception_4d/pool_proj -> inception_4d/pool_proj
I1126 10:17:15.060708 10346 cudnn_conv_layer.cpp:194] Reallocating workspace storage: 10080
I1126 10:17:15.060804 10346 net.cpp:150] Setting up inception_4d/pool_proj
I1126 10:17:15.060813 10346 net.cpp:157] Top shape: 32 64 14 14 (401408)
I1126 10:17:15.060817 10346 net.cpp:165] Memory required for data: 1528120068
I1126 10:17:15.060827 10346 layer_factory.hpp:76] Creating layer inception_4d/prelu_pool_proj
I1126 10:17:15.060839 10346 net.cpp:106] Creating Layer inception_4d/prelu_pool_proj
I1126 10:17:15.060845 10346 net.cpp:454] inception_4d/prelu_pool_proj <- inception_4d/pool_proj
I1126 10:17:15.060854 10346 net.cpp:397] inception_4d/prelu_pool_proj -> inception_4d/pool_proj (in-place)
I1126 10:17:15.060986 10346 net.cpp:150] Setting up inception_4d/prelu_pool_proj
I1126 10:17:15.061008 10346 net.cpp:157] Top shape: 32 64 14 14 (401408)
I1126 10:17:15.061017 10346 net.cpp:165] Memory required for data: 1529725700
I1126 10:17:15.061030 10346 layer_factory.hpp:76] Creating layer inception_4d/output
I1126 10:17:15.061045 10346 net.cpp:106] Creating Layer inception_4d/output
I1126 10:17:15.061055 10346 net.cpp:454] inception_4d/output <- inception_4d/1x1
I1126 10:17:15.061067 10346 net.cpp:454] inception_4d/output <- inception_4d/3x3
I1126 10:17:15.061079 10346 net.cpp:454] inception_4d/output <- inception_4d/5x5
I1126 10:17:15.061089 10346 net.cpp:454] inception_4d/output <- inception_4d/pool_proj
I1126 10:17:15.061120 10346 net.cpp:411] inception_4d/output -> inception_4d/output
I1126 10:17:15.061184 10346 net.cpp:150] Setting up inception_4d/output
I1126 10:17:15.061218 10346 net.cpp:157] Top shape: 32 528 14 14 (3311616)
I1126 10:17:15.061226 10346 net.cpp:165] Memory required for data: 1542972164
I1126 10:17:15.061234 10346 layer_factory.hpp:76] Creating layer inception_4d/output_inception_4d/output_0_split
I1126 10:17:15.061246 10346 net.cpp:106] Creating Layer inception_4d/output_inception_4d/output_0_split
I1126 10:17:15.061256 10346 net.cpp:454] inception_4d/output_inception_4d/output_0_split <- inception_4d/output
I1126 10:17:15.061267 10346 net.cpp:411] inception_4d/output_inception_4d/output_0_split -> inception_4d/output_inception_4d/output_0_split_0
I1126 10:17:15.061280 10346 net.cpp:411] inception_4d/output_inception_4d/output_0_split -> inception_4d/output_inception_4d/output_0_split_1
I1126 10:17:15.061292 10346 net.cpp:411] inception_4d/output_inception_4d/output_0_split -> inception_4d/output_inception_4d/output_0_split_2
I1126 10:17:15.061305 10346 net.cpp:411] inception_4d/output_inception_4d/output_0_split -> inception_4d/output_inception_4d/output_0_split_3
I1126 10:17:15.061316 10346 net.cpp:411] inception_4d/output_inception_4d/output_0_split -> inception_4d/output_inception_4d/output_0_split_4
I1126 10:17:15.061449 10346 net.cpp:150] Setting up inception_4d/output_inception_4d/output_0_split
I1126 10:17:15.061461 10346 net.cpp:157] Top shape: 32 528 14 14 (3311616)
I1126 10:17:15.061471 10346 net.cpp:157] Top shape: 32 528 14 14 (3311616)
I1126 10:17:15.061480 10346 net.cpp:157] Top shape: 32 528 14 14 (3311616)
I1126 10:17:15.061491 10346 net.cpp:157] Top shape: 32 528 14 14 (3311616)
I1126 10:17:15.061499 10346 net.cpp:157] Top shape: 32 528 14 14 (3311616)
I1126 10:17:15.061507 10346 net.cpp:165] Memory required for data: 1609204484
I1126 10:17:15.061516 10346 layer_factory.hpp:76] Creating layer loss2/ave_pool
I1126 10:17:15.061527 10346 net.cpp:106] Creating Layer loss2/ave_pool
I1126 10:17:15.061534 10346 net.cpp:454] loss2/ave_pool <- inception_4d/output_inception_4d/output_0_split_0
I1126 10:17:15.061545 10346 net.cpp:411] loss2/ave_pool -> loss2/ave_pool
I1126 10:17:15.062170 10346 net.cpp:150] Setting up loss2/ave_pool
I1126 10:17:15.062192 10346 net.cpp:157] Top shape: 32 528 4 4 (270336)
I1126 10:17:15.062202 10346 net.cpp:165] Memory required for data: 1610285828
I1126 10:17:15.062234 10346 layer_factory.hpp:76] Creating layer loss2/conv
I1126 10:17:15.062259 10346 net.cpp:106] Creating Layer loss2/conv
I1126 10:17:15.062271 10346 net.cpp:454] loss2/conv <- loss2/ave_pool
I1126 10:17:15.062289 10346 net.cpp:411] loss2/conv -> loss2/conv
I1126 10:17:15.064805 10346 cudnn_conv_layer.cpp:194] Reallocating workspace storage: 6840
I1126 10:17:15.064864 10346 net.cpp:150] Setting up loss2/conv
I1126 10:17:15.064882 10346 net.cpp:157] Top shape: 32 128 4 4 (65536)
I1126 10:17:15.064892 10346 net.cpp:165] Memory required for data: 1610547972
I1126 10:17:15.064908 10346 layer_factory.hpp:76] Creating layer loss2/prelu_conv
I1126 10:17:15.064929 10346 net.cpp:106] Creating Layer loss2/prelu_conv
I1126 10:17:15.064940 10346 net.cpp:454] loss2/prelu_conv <- loss2/conv
I1126 10:17:15.064957 10346 net.cpp:397] loss2/prelu_conv -> loss2/conv (in-place)
I1126 10:17:15.065191 10346 net.cpp:150] Setting up loss2/prelu_conv
I1126 10:17:15.065204 10346 net.cpp:157] Top shape: 32 128 4 4 (65536)
I1126 10:17:15.065212 10346 net.cpp:165] Memory required for data: 1610810116
I1126 10:17:15.065222 10346 layer_factory.hpp:76] Creating layer loss2/fc
I1126 10:17:15.065237 10346 net.cpp:106] Creating Layer loss2/fc
I1126 10:17:15.065246 10346 net.cpp:454] loss2/fc <- loss2/conv
I1126 10:17:15.065258 10346 net.cpp:411] loss2/fc -> loss2/fc
I1126 10:17:15.082280 10346 net.cpp:150] Setting up loss2/fc
I1126 10:17:15.082348 10346 net.cpp:157] Top shape: 32 1024 (32768)
I1126 10:17:15.082356 10346 net.cpp:165] Memory required for data: 1610941188
I1126 10:17:15.082433 10346 layer_factory.hpp:76] Creating layer loss2/prelu_fc
I1126 10:17:15.082459 10346 net.cpp:106] Creating Layer loss2/prelu_fc
I1126 10:17:15.082468 10346 net.cpp:454] loss2/prelu_fc <- loss2/fc
I1126 10:17:15.082479 10346 net.cpp:397] loss2/prelu_fc -> loss2/fc (in-place)
I1126 10:17:15.082646 10346 net.cpp:150] Setting up loss2/prelu_fc
I1126 10:17:15.082659 10346 net.cpp:157] Top shape: 32 1024 (32768)
I1126 10:17:15.082664 10346 net.cpp:165] Memory required for data: 1611072260
I1126 10:17:15.082670 10346 layer_factory.hpp:76] Creating layer loss2/drop_fc
I1126 10:17:15.082680 10346 net.cpp:106] Creating Layer loss2/drop_fc
I1126 10:17:15.082685 10346 net.cpp:454] loss2/drop_fc <- loss2/fc
I1126 10:17:15.082692 10346 net.cpp:397] loss2/drop_fc -> loss2/fc (in-place)
I1126 10:17:15.082733 10346 net.cpp:150] Setting up loss2/drop_fc
I1126 10:17:15.082741 10346 net.cpp:157] Top shape: 32 1024 (32768)
I1126 10:17:15.082744 10346 net.cpp:165] Memory required for data: 1611203332
I1126 10:17:15.082749 10346 layer_factory.hpp:76] Creating layer loss2/classifier2
I1126 10:17:15.082759 10346 net.cpp:106] Creating Layer loss2/classifier2
I1126 10:17:15.082763 10346 net.cpp:454] loss2/classifier2 <- loss2/fc
I1126 10:17:15.082777 10346 net.cpp:411] loss2/classifier2 -> loss2/classifier
I1126 10:17:15.082927 10346 net.cpp:150] Setting up loss2/classifier2
I1126 10:17:15.082937 10346 net.cpp:157] Top shape: 32 2 (64)
I1126 10:17:15.082940 10346 net.cpp:165] Memory required for data: 1611203588
I1126 10:17:15.082948 10346 layer_factory.hpp:76] Creating layer loss2/loss
I1126 10:17:15.082957 10346 net.cpp:106] Creating Layer loss2/loss
I1126 10:17:15.082960 10346 net.cpp:454] loss2/loss <- loss2/classifier
I1126 10:17:15.082967 10346 net.cpp:454] loss2/loss <- label_data_1_split_1
I1126 10:17:15.082973 10346 net.cpp:411] loss2/loss -> loss2/loss1
I1126 10:17:15.082981 10346 layer_factory.hpp:76] Creating layer loss2/loss
I1126 10:17:15.083328 10346 net.cpp:150] Setting up loss2/loss
I1126 10:17:15.083374 10346 net.cpp:157] Top shape: (1)
I1126 10:17:15.083379 10346 net.cpp:160]     with loss weight 0.3
I1126 10:17:15.083401 10346 net.cpp:165] Memory required for data: 1611203592
I1126 10:17:15.083406 10346 layer_factory.hpp:76] Creating layer inception_4e/1x1
I1126 10:17:15.083434 10346 net.cpp:106] Creating Layer inception_4e/1x1
I1126 10:17:15.083446 10346 net.cpp:454] inception_4e/1x1 <- inception_4d/output_inception_4d/output_0_split_1
I1126 10:17:15.083454 10346 net.cpp:411] inception_4e/1x1 -> inception_4e/1x1
I1126 10:17:15.086865 10346 cudnn_conv_layer.cpp:194] Reallocating workspace storage: 10080
I1126 10:17:15.086940 10346 net.cpp:150] Setting up inception_4e/1x1
I1126 10:17:15.086957 10346 net.cpp:157] Top shape: 32 256 14 14 (1605632)
I1126 10:17:15.086963 10346 net.cpp:165] Memory required for data: 1617626120
I1126 10:17:15.086974 10346 layer_factory.hpp:76] Creating layer inception_4e/prelu_1x1
I1126 10:17:15.086992 10346 net.cpp:106] Creating Layer inception_4e/prelu_1x1
I1126 10:17:15.087000 10346 net.cpp:454] inception_4e/prelu_1x1 <- inception_4e/1x1
I1126 10:17:15.087012 10346 net.cpp:397] inception_4e/prelu_1x1 -> inception_4e/1x1 (in-place)
I1126 10:17:15.087194 10346 net.cpp:150] Setting up inception_4e/prelu_1x1
I1126 10:17:15.087205 10346 net.cpp:157] Top shape: 32 256 14 14 (1605632)
I1126 10:17:15.087209 10346 net.cpp:165] Memory required for data: 1624048648
I1126 10:17:15.087215 10346 layer_factory.hpp:76] Creating layer inception_4e/3x3_reduce
I1126 10:17:15.087229 10346 net.cpp:106] Creating Layer inception_4e/3x3_reduce
I1126 10:17:15.087234 10346 net.cpp:454] inception_4e/3x3_reduce <- inception_4d/output_inception_4d/output_0_split_2
I1126 10:17:15.087242 10346 net.cpp:411] inception_4e/3x3_reduce -> inception_4e/3x3_reduce
I1126 10:17:15.089246 10346 cudnn_conv_layer.cpp:194] Reallocating workspace storage: 10080
I1126 10:17:15.089296 10346 net.cpp:150] Setting up inception_4e/3x3_reduce
I1126 10:17:15.089308 10346 net.cpp:157] Top shape: 32 160 14 14 (1003520)
I1126 10:17:15.089313 10346 net.cpp:165] Memory required for data: 1628062728
I1126 10:17:15.089321 10346 layer_factory.hpp:76] Creating layer inception_4e/prelu_3x3_reduce
I1126 10:17:15.089334 10346 net.cpp:106] Creating Layer inception_4e/prelu_3x3_reduce
I1126 10:17:15.089341 10346 net.cpp:454] inception_4e/prelu_3x3_reduce <- inception_4e/3x3_reduce
I1126 10:17:15.089350 10346 net.cpp:397] inception_4e/prelu_3x3_reduce -> inception_4e/3x3_reduce (in-place)
I1126 10:17:15.089494 10346 net.cpp:150] Setting up inception_4e/prelu_3x3_reduce
I1126 10:17:15.089504 10346 net.cpp:157] Top shape: 32 160 14 14 (1003520)
I1126 10:17:15.089507 10346 net.cpp:165] Memory required for data: 1632076808
I1126 10:17:15.089514 10346 layer_factory.hpp:76] Creating layer inception_4e/3x3
I1126 10:17:15.089525 10346 net.cpp:106] Creating Layer inception_4e/3x3
I1126 10:17:15.089530 10346 net.cpp:454] inception_4e/3x3 <- inception_4e/3x3_reduce
I1126 10:17:15.089536 10346 net.cpp:411] inception_4e/3x3 -> inception_4e/3x3
I1126 10:17:15.094542 10346 cudnn_conv_layer.cpp:194] Reallocating workspace storage: 10080
I1126 10:17:15.094600 10346 net.cpp:150] Setting up inception_4e/3x3
I1126 10:17:15.094612 10346 net.cpp:157] Top shape: 32 320 14 14 (2007040)
I1126 10:17:15.094617 10346 net.cpp:165] Memory required for data: 1640104968
I1126 10:17:15.094627 10346 layer_factory.hpp:76] Creating layer inception_4e/prelu_3x3
I1126 10:17:15.094642 10346 net.cpp:106] Creating Layer inception_4e/prelu_3x3
I1126 10:17:15.094650 10346 net.cpp:454] inception_4e/prelu_3x3 <- inception_4e/3x3
I1126 10:17:15.094657 10346 net.cpp:397] inception_4e/prelu_3x3 -> inception_4e/3x3 (in-place)
I1126 10:17:15.094847 10346 net.cpp:150] Setting up inception_4e/prelu_3x3
I1126 10:17:15.094857 10346 net.cpp:157] Top shape: 32 320 14 14 (2007040)
I1126 10:17:15.094864 10346 net.cpp:165] Memory required for data: 1648133128
I1126 10:17:15.094873 10346 layer_factory.hpp:76] Creating layer inception_4e/5x5_reduce
I1126 10:17:15.094887 10346 net.cpp:106] Creating Layer inception_4e/5x5_reduce
I1126 10:17:15.094894 10346 net.cpp:454] inception_4e/5x5_reduce <- inception_4d/output_inception_4d/output_0_split_3
I1126 10:17:15.094908 10346 net.cpp:411] inception_4e/5x5_reduce -> inception_4e/5x5_reduce
I1126 10:17:15.096274 10346 cudnn_conv_layer.cpp:194] Reallocating workspace storage: 10080
I1126 10:17:15.096330 10346 net.cpp:150] Setting up inception_4e/5x5_reduce
I1126 10:17:15.096341 10346 net.cpp:157] Top shape: 32 32 14 14 (200704)
I1126 10:17:15.096374 10346 net.cpp:165] Memory required for data: 1648935944
I1126 10:17:15.096392 10346 layer_factory.hpp:76] Creating layer inception_4e/prelu_5x5_reduce
I1126 10:17:15.096405 10346 net.cpp:106] Creating Layer inception_4e/prelu_5x5_reduce
I1126 10:17:15.096410 10346 net.cpp:454] inception_4e/prelu_5x5_reduce <- inception_4e/5x5_reduce
I1126 10:17:15.096418 10346 net.cpp:397] inception_4e/prelu_5x5_reduce -> inception_4e/5x5_reduce (in-place)
I1126 10:17:15.096535 10346 net.cpp:150] Setting up inception_4e/prelu_5x5_reduce
I1126 10:17:15.096544 10346 net.cpp:157] Top shape: 32 32 14 14 (200704)
I1126 10:17:15.096549 10346 net.cpp:165] Memory required for data: 1649738760
I1126 10:17:15.096554 10346 layer_factory.hpp:76] Creating layer inception_4e/5x5
I1126 10:17:15.096585 10346 net.cpp:106] Creating Layer inception_4e/5x5
I1126 10:17:15.096590 10346 net.cpp:454] inception_4e/5x5 <- inception_4e/5x5_reduce
I1126 10:17:15.096597 10346 net.cpp:411] inception_4e/5x5 -> inception_4e/5x5
I1126 10:17:15.099050 10346 cudnn_conv_layer.cpp:194] Reallocating workspace storage: 13080
I1126 10:17:15.099107 10346 net.cpp:150] Setting up inception_4e/5x5
I1126 10:17:15.099117 10346 net.cpp:157] Top shape: 32 128 14 14 (802816)
I1126 10:17:15.099123 10346 net.cpp:165] Memory required for data: 1652950024
I1126 10:17:15.099131 10346 layer_factory.hpp:76] Creating layer inception_4e/prelu_5x5
I1126 10:17:15.099143 10346 net.cpp:106] Creating Layer inception_4e/prelu_5x5
I1126 10:17:15.099159 10346 net.cpp:454] inception_4e/prelu_5x5 <- inception_4e/5x5
I1126 10:17:15.099167 10346 net.cpp:397] inception_4e/prelu_5x5 -> inception_4e/5x5 (in-place)
I1126 10:17:15.099293 10346 net.cpp:150] Setting up inception_4e/prelu_5x5
I1126 10:17:15.099303 10346 net.cpp:157] Top shape: 32 128 14 14 (802816)
I1126 10:17:15.099306 10346 net.cpp:165] Memory required for data: 1656161288
I1126 10:17:15.099313 10346 layer_factory.hpp:76] Creating layer inception_4e/pool
I1126 10:17:15.099323 10346 net.cpp:106] Creating Layer inception_4e/pool
I1126 10:17:15.099328 10346 net.cpp:454] inception_4e/pool <- inception_4d/output_inception_4d/output_0_split_4
I1126 10:17:15.099334 10346 net.cpp:411] inception_4e/pool -> inception_4e/pool
I1126 10:17:15.099745 10346 net.cpp:150] Setting up inception_4e/pool
I1126 10:17:15.099761 10346 net.cpp:157] Top shape: 32 528 14 14 (3311616)
I1126 10:17:15.099766 10346 net.cpp:165] Memory required for data: 1669407752
I1126 10:17:15.099771 10346 layer_factory.hpp:76] Creating layer inception_4e/pool_proj
I1126 10:17:15.099779 10346 net.cpp:106] Creating Layer inception_4e/pool_proj
I1126 10:17:15.099786 10346 net.cpp:454] inception_4e/pool_proj <- inception_4e/pool
I1126 10:17:15.099793 10346 net.cpp:411] inception_4e/pool_proj -> inception_4e/pool_proj
I1126 10:17:15.101112 10346 cudnn_conv_layer.cpp:194] Reallocating workspace storage: 10080
I1126 10:17:15.101148 10346 net.cpp:150] Setting up inception_4e/pool_proj
I1126 10:17:15.101156 10346 net.cpp:157] Top shape: 32 128 14 14 (802816)
I1126 10:17:15.101161 10346 net.cpp:165] Memory required for data: 1672619016
I1126 10:17:15.101168 10346 layer_factory.hpp:76] Creating layer inception_4e/prelu_pool_proj
I1126 10:17:15.101176 10346 net.cpp:106] Creating Layer inception_4e/prelu_pool_proj
I1126 10:17:15.101181 10346 net.cpp:454] inception_4e/prelu_pool_proj <- inception_4e/pool_proj
I1126 10:17:15.101189 10346 net.cpp:397] inception_4e/prelu_pool_proj -> inception_4e/pool_proj (in-place)
I1126 10:17:15.101315 10346 net.cpp:150] Setting up inception_4e/prelu_pool_proj
I1126 10:17:15.101323 10346 net.cpp:157] Top shape: 32 128 14 14 (802816)
I1126 10:17:15.101327 10346 net.cpp:165] Memory required for data: 1675830280
I1126 10:17:15.101333 10346 layer_factory.hpp:76] Creating layer inception_4e/output
I1126 10:17:15.101342 10346 net.cpp:106] Creating Layer inception_4e/output
I1126 10:17:15.101347 10346 net.cpp:454] inception_4e/output <- inception_4e/1x1
I1126 10:17:15.101352 10346 net.cpp:454] inception_4e/output <- inception_4e/3x3
I1126 10:17:15.101357 10346 net.cpp:454] inception_4e/output <- inception_4e/5x5
I1126 10:17:15.101387 10346 net.cpp:454] inception_4e/output <- inception_4e/pool_proj
I1126 10:17:15.101393 10346 net.cpp:411] inception_4e/output -> inception_4e/output
I1126 10:17:15.101424 10346 net.cpp:150] Setting up inception_4e/output
I1126 10:17:15.101433 10346 net.cpp:157] Top shape: 32 832 14 14 (5218304)
I1126 10:17:15.101436 10346 net.cpp:165] Memory required for data: 1696703496
I1126 10:17:15.101440 10346 layer_factory.hpp:76] Creating layer pool4/3x3_s2
I1126 10:17:15.101447 10346 net.cpp:106] Creating Layer pool4/3x3_s2
I1126 10:17:15.101487 10346 net.cpp:454] pool4/3x3_s2 <- inception_4e/output
I1126 10:17:15.101498 10346 net.cpp:411] pool4/3x3_s2 -> pool4/3x3_s2
I1126 10:17:15.102006 10346 net.cpp:150] Setting up pool4/3x3_s2
I1126 10:17:15.102020 10346 net.cpp:157] Top shape: 32 832 7 7 (1304576)
I1126 10:17:15.102025 10346 net.cpp:165] Memory required for data: 1701921800
I1126 10:17:15.102030 10346 layer_factory.hpp:76] Creating layer pool4/3x3_s2_pool4/3x3_s2_0_split
I1126 10:17:15.102038 10346 net.cpp:106] Creating Layer pool4/3x3_s2_pool4/3x3_s2_0_split
I1126 10:17:15.102046 10346 net.cpp:454] pool4/3x3_s2_pool4/3x3_s2_0_split <- pool4/3x3_s2
I1126 10:17:15.102051 10346 net.cpp:411] pool4/3x3_s2_pool4/3x3_s2_0_split -> pool4/3x3_s2_pool4/3x3_s2_0_split_0
I1126 10:17:15.102059 10346 net.cpp:411] pool4/3x3_s2_pool4/3x3_s2_0_split -> pool4/3x3_s2_pool4/3x3_s2_0_split_1
I1126 10:17:15.102066 10346 net.cpp:411] pool4/3x3_s2_pool4/3x3_s2_0_split -> pool4/3x3_s2_pool4/3x3_s2_0_split_2
I1126 10:17:15.102073 10346 net.cpp:411] pool4/3x3_s2_pool4/3x3_s2_0_split -> pool4/3x3_s2_pool4/3x3_s2_0_split_3
I1126 10:17:15.102154 10346 net.cpp:150] Setting up pool4/3x3_s2_pool4/3x3_s2_0_split
I1126 10:17:15.102161 10346 net.cpp:157] Top shape: 32 832 7 7 (1304576)
I1126 10:17:15.102166 10346 net.cpp:157] Top shape: 32 832 7 7 (1304576)
I1126 10:17:15.102171 10346 net.cpp:157] Top shape: 32 832 7 7 (1304576)
I1126 10:17:15.102176 10346 net.cpp:157] Top shape: 32 832 7 7 (1304576)
I1126 10:17:15.102180 10346 net.cpp:165] Memory required for data: 1722795016
I1126 10:17:15.102185 10346 layer_factory.hpp:76] Creating layer inception_5a/1x1
I1126 10:17:15.102195 10346 net.cpp:106] Creating Layer inception_5a/1x1
I1126 10:17:15.102200 10346 net.cpp:454] inception_5a/1x1 <- pool4/3x3_s2_pool4/3x3_s2_0_split_0
I1126 10:17:15.102208 10346 net.cpp:411] inception_5a/1x1 -> inception_5a/1x1
I1126 10:17:15.105283 10346 cudnn_conv_layer.cpp:194] Reallocating workspace storage: 7428
I1126 10:17:15.105334 10346 net.cpp:150] Setting up inception_5a/1x1
I1126 10:17:15.105346 10346 net.cpp:157] Top shape: 32 256 7 7 (401408)
I1126 10:17:15.105351 10346 net.cpp:165] Memory required for data: 1724400648
I1126 10:17:15.105360 10346 layer_factory.hpp:76] Creating layer inception_5a/prelu_1x1
I1126 10:17:15.105372 10346 net.cpp:106] Creating Layer inception_5a/prelu_1x1
I1126 10:17:15.105378 10346 net.cpp:454] inception_5a/prelu_1x1 <- inception_5a/1x1
I1126 10:17:15.105387 10346 net.cpp:397] inception_5a/prelu_1x1 -> inception_5a/1x1 (in-place)
I1126 10:17:15.106184 10346 net.cpp:150] Setting up inception_5a/prelu_1x1
I1126 10:17:15.106205 10346 net.cpp:157] Top shape: 32 256 7 7 (401408)
I1126 10:17:15.106215 10346 net.cpp:165] Memory required for data: 1726006280
I1126 10:17:15.106235 10346 layer_factory.hpp:76] Creating layer inception_5a/3x3_reduce
I1126 10:17:15.106251 10346 net.cpp:106] Creating Layer inception_5a/3x3_reduce
I1126 10:17:15.106258 10346 net.cpp:454] inception_5a/3x3_reduce <- pool4/3x3_s2_pool4/3x3_s2_0_split_1
I1126 10:17:15.106267 10346 net.cpp:411] inception_5a/3x3_reduce -> inception_5a/3x3_reduce
I1126 10:17:15.108935 10346 cudnn_conv_layer.cpp:194] Reallocating workspace storage: 7428
I1126 10:17:15.108986 10346 net.cpp:150] Setting up inception_5a/3x3_reduce
I1126 10:17:15.108996 10346 net.cpp:157] Top shape: 32 160 7 7 (250880)
I1126 10:17:15.109001 10346 net.cpp:165] Memory required for data: 1727009800
I1126 10:17:15.109009 10346 layer_factory.hpp:76] Creating layer inception_5a/prelu_3x3_reduce
I1126 10:17:15.109040 10346 net.cpp:106] Creating Layer inception_5a/prelu_3x3_reduce
I1126 10:17:15.109046 10346 net.cpp:454] inception_5a/prelu_3x3_reduce <- inception_5a/3x3_reduce
I1126 10:17:15.109055 10346 net.cpp:397] inception_5a/prelu_3x3_reduce -> inception_5a/3x3_reduce (in-place)
I1126 10:17:15.109163 10346 net.cpp:150] Setting up inception_5a/prelu_3x3_reduce
I1126 10:17:15.109170 10346 net.cpp:157] Top shape: 32 160 7 7 (250880)
I1126 10:17:15.109174 10346 net.cpp:165] Memory required for data: 1728013320
I1126 10:17:15.109180 10346 layer_factory.hpp:76] Creating layer inception_5a/3x3
I1126 10:17:15.109189 10346 net.cpp:106] Creating Layer inception_5a/3x3
I1126 10:17:15.109194 10346 net.cpp:454] inception_5a/3x3 <- inception_5a/3x3_reduce
I1126 10:17:15.109201 10346 net.cpp:411] inception_5a/3x3 -> inception_5a/3x3
I1126 10:17:15.113500 10346 cudnn_conv_layer.cpp:194] Reallocating workspace storage: 7788
I1126 10:17:15.113544 10346 net.cpp:150] Setting up inception_5a/3x3
I1126 10:17:15.113554 10346 net.cpp:157] Top shape: 32 320 7 7 (501760)
I1126 10:17:15.113559 10346 net.cpp:165] Memory required for data: 1730020360
I1126 10:17:15.113567 10346 layer_factory.hpp:76] Creating layer inception_5a/prelu_3x3
I1126 10:17:15.113577 10346 net.cpp:106] Creating Layer inception_5a/prelu_3x3
I1126 10:17:15.113584 10346 net.cpp:454] inception_5a/prelu_3x3 <- inception_5a/3x3
I1126 10:17:15.113590 10346 net.cpp:397] inception_5a/prelu_3x3 -> inception_5a/3x3 (in-place)
I1126 10:17:15.113704 10346 net.cpp:150] Setting up inception_5a/prelu_3x3
I1126 10:17:15.113713 10346 net.cpp:157] Top shape: 32 320 7 7 (501760)
I1126 10:17:15.113716 10346 net.cpp:165] Memory required for data: 1732027400
I1126 10:17:15.113721 10346 layer_factory.hpp:76] Creating layer inception_5a/5x5_reduce
I1126 10:17:15.113731 10346 net.cpp:106] Creating Layer inception_5a/5x5_reduce
I1126 10:17:15.113737 10346 net.cpp:454] inception_5a/5x5_reduce <- pool4/3x3_s2_pool4/3x3_s2_0_split_2
I1126 10:17:15.113745 10346 net.cpp:411] inception_5a/5x5_reduce -> inception_5a/5x5_reduce
I1126 10:17:15.114953 10346 cudnn_conv_layer.cpp:194] Reallocating workspace storage: 7428
I1126 10:17:15.114975 10346 net.cpp:150] Setting up inception_5a/5x5_reduce
I1126 10:17:15.114982 10346 net.cpp:157] Top shape: 32 32 7 7 (50176)
I1126 10:17:15.114986 10346 net.cpp:165] Memory required for data: 1732228104
I1126 10:17:15.114994 10346 layer_factory.hpp:76] Creating layer inception_5a/prelu_5x5_reduce
I1126 10:17:15.115002 10346 net.cpp:106] Creating Layer inception_5a/prelu_5x5_reduce
I1126 10:17:15.115007 10346 net.cpp:454] inception_5a/prelu_5x5_reduce <- inception_5a/5x5_reduce
I1126 10:17:15.115013 10346 net.cpp:397] inception_5a/prelu_5x5_reduce -> inception_5a/5x5_reduce (in-place)
I1126 10:17:15.115111 10346 net.cpp:150] Setting up inception_5a/prelu_5x5_reduce
I1126 10:17:15.115118 10346 net.cpp:157] Top shape: 32 32 7 7 (50176)
I1126 10:17:15.115123 10346 net.cpp:165] Memory required for data: 1732428808
I1126 10:17:15.115128 10346 layer_factory.hpp:76] Creating layer inception_5a/5x5
I1126 10:17:15.115136 10346 net.cpp:106] Creating Layer inception_5a/5x5
I1126 10:17:15.115141 10346 net.cpp:454] inception_5a/5x5 <- inception_5a/5x5_reduce
I1126 10:17:15.115151 10346 net.cpp:411] inception_5a/5x5 -> inception_5a/5x5
I1126 10:17:15.116924 10346 cudnn_conv_layer.cpp:194] Reallocating workspace storage: 9804
I1126 10:17:15.116966 10346 net.cpp:150] Setting up inception_5a/5x5
I1126 10:17:15.116974 10346 net.cpp:157] Top shape: 32 128 7 7 (200704)
I1126 10:17:15.116979 10346 net.cpp:165] Memory required for data: 1733231624
I1126 10:17:15.116986 10346 layer_factory.hpp:76] Creating layer inception_5a/prelu_5x5
I1126 10:17:15.116996 10346 net.cpp:106] Creating Layer inception_5a/prelu_5x5
I1126 10:17:15.117002 10346 net.cpp:454] inception_5a/prelu_5x5 <- inception_5a/5x5
I1126 10:17:15.117017 10346 net.cpp:397] inception_5a/prelu_5x5 -> inception_5a/5x5 (in-place)
I1126 10:17:15.117118 10346 net.cpp:150] Setting up inception_5a/prelu_5x5
I1126 10:17:15.117141 10346 net.cpp:157] Top shape: 32 128 7 7 (200704)
I1126 10:17:15.117146 10346 net.cpp:165] Memory required for data: 1734034440
I1126 10:17:15.117151 10346 layer_factory.hpp:76] Creating layer inception_5a/pool
I1126 10:17:15.117161 10346 net.cpp:106] Creating Layer inception_5a/pool
I1126 10:17:15.117166 10346 net.cpp:454] inception_5a/pool <- pool4/3x3_s2_pool4/3x3_s2_0_split_3
I1126 10:17:15.117172 10346 net.cpp:411] inception_5a/pool -> inception_5a/pool
I1126 10:17:15.117370 10346 net.cpp:150] Setting up inception_5a/pool
I1126 10:17:15.117379 10346 net.cpp:157] Top shape: 32 832 7 7 (1304576)
I1126 10:17:15.117383 10346 net.cpp:165] Memory required for data: 1739252744
I1126 10:17:15.117388 10346 layer_factory.hpp:76] Creating layer inception_5a/pool_proj
I1126 10:17:15.117396 10346 net.cpp:106] Creating Layer inception_5a/pool_proj
I1126 10:17:15.117401 10346 net.cpp:454] inception_5a/pool_proj <- inception_5a/pool
I1126 10:17:15.117409 10346 net.cpp:411] inception_5a/pool_proj -> inception_5a/pool_proj
I1126 10:17:15.120173 10346 cudnn_conv_layer.cpp:194] Reallocating workspace storage: 7428
I1126 10:17:15.120228 10346 net.cpp:150] Setting up inception_5a/pool_proj
I1126 10:17:15.120239 10346 net.cpp:157] Top shape: 32 128 7 7 (200704)
I1126 10:17:15.120244 10346 net.cpp:165] Memory required for data: 1740055560
I1126 10:17:15.120254 10346 layer_factory.hpp:76] Creating layer inception_5a/prelu_pool_proj
I1126 10:17:15.120266 10346 net.cpp:106] Creating Layer inception_5a/prelu_pool_proj
I1126 10:17:15.120273 10346 net.cpp:454] inception_5a/prelu_pool_proj <- inception_5a/pool_proj
I1126 10:17:15.120283 10346 net.cpp:397] inception_5a/prelu_pool_proj -> inception_5a/pool_proj (in-place)
I1126 10:17:15.120422 10346 net.cpp:150] Setting up inception_5a/prelu_pool_proj
I1126 10:17:15.120431 10346 net.cpp:157] Top shape: 32 128 7 7 (200704)
I1126 10:17:15.120435 10346 net.cpp:165] Memory required for data: 1740858376
I1126 10:17:15.120440 10346 layer_factory.hpp:76] Creating layer inception_5a/output
I1126 10:17:15.120447 10346 net.cpp:106] Creating Layer inception_5a/output
I1126 10:17:15.120452 10346 net.cpp:454] inception_5a/output <- inception_5a/1x1
I1126 10:17:15.120458 10346 net.cpp:454] inception_5a/output <- inception_5a/3x3
I1126 10:17:15.120463 10346 net.cpp:454] inception_5a/output <- inception_5a/5x5
I1126 10:17:15.120467 10346 net.cpp:454] inception_5a/output <- inception_5a/pool_proj
I1126 10:17:15.120474 10346 net.cpp:411] inception_5a/output -> inception_5a/output
I1126 10:17:15.120503 10346 net.cpp:150] Setting up inception_5a/output
I1126 10:17:15.120512 10346 net.cpp:157] Top shape: 32 832 7 7 (1304576)
I1126 10:17:15.120517 10346 net.cpp:165] Memory required for data: 1746076680
I1126 10:17:15.120522 10346 layer_factory.hpp:76] Creating layer inception_5a/output_inception_5a/output_0_split
I1126 10:17:15.120528 10346 net.cpp:106] Creating Layer inception_5a/output_inception_5a/output_0_split
I1126 10:17:15.120532 10346 net.cpp:454] inception_5a/output_inception_5a/output_0_split <- inception_5a/output
I1126 10:17:15.120538 10346 net.cpp:411] inception_5a/output_inception_5a/output_0_split -> inception_5a/output_inception_5a/output_0_split_0
I1126 10:17:15.120545 10346 net.cpp:411] inception_5a/output_inception_5a/output_0_split -> inception_5a/output_inception_5a/output_0_split_1
I1126 10:17:15.120553 10346 net.cpp:411] inception_5a/output_inception_5a/output_0_split -> inception_5a/output_inception_5a/output_0_split_2
I1126 10:17:15.120561 10346 net.cpp:411] inception_5a/output_inception_5a/output_0_split -> inception_5a/output_inception_5a/output_0_split_3
I1126 10:17:15.120628 10346 net.cpp:150] Setting up inception_5a/output_inception_5a/output_0_split
I1126 10:17:15.120636 10346 net.cpp:157] Top shape: 32 832 7 7 (1304576)
I1126 10:17:15.120641 10346 net.cpp:157] Top shape: 32 832 7 7 (1304576)
I1126 10:17:15.120646 10346 net.cpp:157] Top shape: 32 832 7 7 (1304576)
I1126 10:17:15.120651 10346 net.cpp:157] Top shape: 32 832 7 7 (1304576)
I1126 10:17:15.120673 10346 net.cpp:165] Memory required for data: 1766949896
I1126 10:17:15.120678 10346 layer_factory.hpp:76] Creating layer inception_5b/1x1
I1126 10:17:15.120689 10346 net.cpp:106] Creating Layer inception_5b/1x1
I1126 10:17:15.120694 10346 net.cpp:454] inception_5b/1x1 <- inception_5a/output_inception_5a/output_0_split_0
I1126 10:17:15.120700 10346 net.cpp:411] inception_5b/1x1 -> inception_5b/1x1
I1126 10:17:15.124754 10346 cudnn_conv_layer.cpp:194] Reallocating workspace storage: 7428
I1126 10:17:15.124824 10346 net.cpp:150] Setting up inception_5b/1x1
I1126 10:17:15.124836 10346 net.cpp:157] Top shape: 32 384 7 7 (602112)
I1126 10:17:15.124840 10346 net.cpp:165] Memory required for data: 1769358344
I1126 10:17:15.124851 10346 layer_factory.hpp:76] Creating layer inception_5b/prelu_1x1
I1126 10:17:15.124866 10346 net.cpp:106] Creating Layer inception_5b/prelu_1x1
I1126 10:17:15.124872 10346 net.cpp:454] inception_5b/prelu_1x1 <- inception_5b/1x1
I1126 10:17:15.124883 10346 net.cpp:397] inception_5b/prelu_1x1 -> inception_5b/1x1 (in-place)
I1126 10:17:15.125605 10346 net.cpp:150] Setting up inception_5b/prelu_1x1
I1126 10:17:15.125627 10346 net.cpp:157] Top shape: 32 384 7 7 (602112)
I1126 10:17:15.125630 10346 net.cpp:165] Memory required for data: 1771766792
I1126 10:17:15.125638 10346 layer_factory.hpp:76] Creating layer inception_5b/3x3_reduce
I1126 10:17:15.125653 10346 net.cpp:106] Creating Layer inception_5b/3x3_reduce
I1126 10:17:15.125658 10346 net.cpp:454] inception_5b/3x3_reduce <- inception_5a/output_inception_5a/output_0_split_1
I1126 10:17:15.125669 10346 net.cpp:411] inception_5b/3x3_reduce -> inception_5b/3x3_reduce
I1126 10:17:15.128307 10346 cudnn_conv_layer.cpp:194] Reallocating workspace storage: 7428
I1126 10:17:15.128342 10346 net.cpp:150] Setting up inception_5b/3x3_reduce
I1126 10:17:15.128350 10346 net.cpp:157] Top shape: 32 192 7 7 (301056)
I1126 10:17:15.128355 10346 net.cpp:165] Memory required for data: 1772971016
I1126 10:17:15.128372 10346 layer_factory.hpp:76] Creating layer inception_5b/prelu_3x3_reduce
I1126 10:17:15.128386 10346 net.cpp:106] Creating Layer inception_5b/prelu_3x3_reduce
I1126 10:17:15.128391 10346 net.cpp:454] inception_5b/prelu_3x3_reduce <- inception_5b/3x3_reduce
I1126 10:17:15.128399 10346 net.cpp:397] inception_5b/prelu_3x3_reduce -> inception_5b/3x3_reduce (in-place)
I1126 10:17:15.128509 10346 net.cpp:150] Setting up inception_5b/prelu_3x3_reduce
I1126 10:17:15.128517 10346 net.cpp:157] Top shape: 32 192 7 7 (301056)
I1126 10:17:15.128521 10346 net.cpp:165] Memory required for data: 1774175240
I1126 10:17:15.128526 10346 layer_factory.hpp:76] Creating layer inception_5b/3x3
I1126 10:17:15.128536 10346 net.cpp:106] Creating Layer inception_5b/3x3
I1126 10:17:15.128541 10346 net.cpp:454] inception_5b/3x3 <- inception_5b/3x3_reduce
I1126 10:17:15.128548 10346 net.cpp:411] inception_5b/3x3 -> inception_5b/3x3
I1126 10:17:15.135339 10346 cudnn_conv_layer.cpp:194] Reallocating workspace storage: 7788
I1126 10:17:15.135422 10346 net.cpp:150] Setting up inception_5b/3x3
I1126 10:17:15.135438 10346 net.cpp:157] Top shape: 32 384 7 7 (602112)
I1126 10:17:15.135443 10346 net.cpp:165] Memory required for data: 1776583688
I1126 10:17:15.135454 10346 layer_factory.hpp:76] Creating layer inception_5b/prelu_3x3
I1126 10:17:15.135470 10346 net.cpp:106] Creating Layer inception_5b/prelu_3x3
I1126 10:17:15.135478 10346 net.cpp:454] inception_5b/prelu_3x3 <- inception_5b/3x3
I1126 10:17:15.135488 10346 net.cpp:397] inception_5b/prelu_3x3 -> inception_5b/3x3 (in-place)
I1126 10:17:15.135669 10346 net.cpp:150] Setting up inception_5b/prelu_3x3
I1126 10:17:15.135684 10346 net.cpp:157] Top shape: 32 384 7 7 (602112)
I1126 10:17:15.135687 10346 net.cpp:165] Memory required for data: 1778992136
I1126 10:17:15.135694 10346 layer_factory.hpp:76] Creating layer inception_5b/5x5_reduce
I1126 10:17:15.135706 10346 net.cpp:106] Creating Layer inception_5b/5x5_reduce
I1126 10:17:15.135712 10346 net.cpp:454] inception_5b/5x5_reduce <- inception_5a/output_inception_5a/output_0_split_2
I1126 10:17:15.135779 10346 net.cpp:411] inception_5b/5x5_reduce -> inception_5b/5x5_reduce
I1126 10:17:15.137114 10346 cudnn_conv_layer.cpp:194] Reallocating workspace storage: 7428
I1126 10:17:15.137163 10346 net.cpp:150] Setting up inception_5b/5x5_reduce
I1126 10:17:15.137173 10346 net.cpp:157] Top shape: 32 48 7 7 (75264)
I1126 10:17:15.137178 10346 net.cpp:165] Memory required for data: 1779293192
I1126 10:17:15.137186 10346 layer_factory.hpp:76] Creating layer inception_5b/prelu_5x5_reduce
I1126 10:17:15.137197 10346 net.cpp:106] Creating Layer inception_5b/prelu_5x5_reduce
I1126 10:17:15.137202 10346 net.cpp:454] inception_5b/prelu_5x5_reduce <- inception_5b/5x5_reduce
I1126 10:17:15.137218 10346 net.cpp:397] inception_5b/prelu_5x5_reduce -> inception_5b/5x5_reduce (in-place)
I1126 10:17:15.137333 10346 net.cpp:150] Setting up inception_5b/prelu_5x5_reduce
I1126 10:17:15.137343 10346 net.cpp:157] Top shape: 32 48 7 7 (75264)
I1126 10:17:15.137347 10346 net.cpp:165] Memory required for data: 1779594248
I1126 10:17:15.137352 10346 layer_factory.hpp:76] Creating layer inception_5b/5x5
I1126 10:17:15.137361 10346 net.cpp:106] Creating Layer inception_5b/5x5
I1126 10:17:15.137365 10346 net.cpp:454] inception_5b/5x5 <- inception_5b/5x5_reduce
I1126 10:17:15.137373 10346 net.cpp:411] inception_5b/5x5 -> inception_5b/5x5
I1126 10:17:15.139436 10346 cudnn_conv_layer.cpp:194] Reallocating workspace storage: 9804
I1126 10:17:15.139480 10346 net.cpp:150] Setting up inception_5b/5x5
I1126 10:17:15.139490 10346 net.cpp:157] Top shape: 32 128 7 7 (200704)
I1126 10:17:15.139494 10346 net.cpp:165] Memory required for data: 1780397064
I1126 10:17:15.139503 10346 layer_factory.hpp:76] Creating layer inception_5b/prelu_5x5
I1126 10:17:15.139513 10346 net.cpp:106] Creating Layer inception_5b/prelu_5x5
I1126 10:17:15.139518 10346 net.cpp:454] inception_5b/prelu_5x5 <- inception_5b/5x5
I1126 10:17:15.139526 10346 net.cpp:397] inception_5b/prelu_5x5 -> inception_5b/5x5 (in-place)
I1126 10:17:15.139680 10346 net.cpp:150] Setting up inception_5b/prelu_5x5
I1126 10:17:15.139689 10346 net.cpp:157] Top shape: 32 128 7 7 (200704)
I1126 10:17:15.139693 10346 net.cpp:165] Memory required for data: 1781199880
I1126 10:17:15.139699 10346 layer_factory.hpp:76] Creating layer inception_5b/pool
I1126 10:17:15.139708 10346 net.cpp:106] Creating Layer inception_5b/pool
I1126 10:17:15.139722 10346 net.cpp:454] inception_5b/pool <- inception_5a/output_inception_5a/output_0_split_3
I1126 10:17:15.139729 10346 net.cpp:411] inception_5b/pool -> inception_5b/pool
I1126 10:17:15.140117 10346 net.cpp:150] Setting up inception_5b/pool
I1126 10:17:15.140127 10346 net.cpp:157] Top shape: 32 832 7 7 (1304576)
I1126 10:17:15.140131 10346 net.cpp:165] Memory required for data: 1786418184
I1126 10:17:15.140136 10346 layer_factory.hpp:76] Creating layer inception_5b/pool_proj
I1126 10:17:15.140148 10346 net.cpp:106] Creating Layer inception_5b/pool_proj
I1126 10:17:15.140153 10346 net.cpp:454] inception_5b/pool_proj <- inception_5b/pool
I1126 10:17:15.140161 10346 net.cpp:411] inception_5b/pool_proj -> inception_5b/pool_proj
I1126 10:17:15.142529 10346 cudnn_conv_layer.cpp:194] Reallocating workspace storage: 7428
I1126 10:17:15.142571 10346 net.cpp:150] Setting up inception_5b/pool_proj
I1126 10:17:15.142581 10346 net.cpp:157] Top shape: 32 128 7 7 (200704)
I1126 10:17:15.142585 10346 net.cpp:165] Memory required for data: 1787221000
I1126 10:17:15.142593 10346 layer_factory.hpp:76] Creating layer inception_5b/prelu_pool_proj
I1126 10:17:15.142606 10346 net.cpp:106] Creating Layer inception_5b/prelu_pool_proj
I1126 10:17:15.142612 10346 net.cpp:454] inception_5b/prelu_pool_proj <- inception_5b/pool_proj
I1126 10:17:15.142619 10346 net.cpp:397] inception_5b/prelu_pool_proj -> inception_5b/pool_proj (in-place)
I1126 10:17:15.142724 10346 net.cpp:150] Setting up inception_5b/prelu_pool_proj
I1126 10:17:15.142731 10346 net.cpp:157] Top shape: 32 128 7 7 (200704)
I1126 10:17:15.142735 10346 net.cpp:165] Memory required for data: 1788023816
I1126 10:17:15.142741 10346 layer_factory.hpp:76] Creating layer inception_5b/output
I1126 10:17:15.142767 10346 net.cpp:106] Creating Layer inception_5b/output
I1126 10:17:15.142772 10346 net.cpp:454] inception_5b/output <- inception_5b/1x1
I1126 10:17:15.142778 10346 net.cpp:454] inception_5b/output <- inception_5b/3x3
I1126 10:17:15.142783 10346 net.cpp:454] inception_5b/output <- inception_5b/5x5
I1126 10:17:15.142788 10346 net.cpp:454] inception_5b/output <- inception_5b/pool_proj
I1126 10:17:15.142793 10346 net.cpp:411] inception_5b/output -> inception_5b/output
I1126 10:17:15.142824 10346 net.cpp:150] Setting up inception_5b/output
I1126 10:17:15.142834 10346 net.cpp:157] Top shape: 32 1024 7 7 (1605632)
I1126 10:17:15.142838 10346 net.cpp:165] Memory required for data: 1794446344
I1126 10:17:15.142843 10346 layer_factory.hpp:76] Creating layer pool5/7x7_s1
I1126 10:17:15.142849 10346 net.cpp:106] Creating Layer pool5/7x7_s1
I1126 10:17:15.142854 10346 net.cpp:454] pool5/7x7_s1 <- inception_5b/output
I1126 10:17:15.142860 10346 net.cpp:411] pool5/7x7_s1 -> pool5/7x7_s1
I1126 10:17:15.143034 10346 net.cpp:150] Setting up pool5/7x7_s1
I1126 10:17:15.143043 10346 net.cpp:157] Top shape: 32 1024 1 1 (32768)
I1126 10:17:15.143048 10346 net.cpp:165] Memory required for data: 1794577416
I1126 10:17:15.143051 10346 layer_factory.hpp:76] Creating layer pool5/drop_7x7_s1
I1126 10:17:15.143059 10346 net.cpp:106] Creating Layer pool5/drop_7x7_s1
I1126 10:17:15.143062 10346 net.cpp:454] pool5/drop_7x7_s1 <- pool5/7x7_s1
I1126 10:17:15.143069 10346 net.cpp:397] pool5/drop_7x7_s1 -> pool5/7x7_s1 (in-place)
I1126 10:17:15.143097 10346 net.cpp:150] Setting up pool5/drop_7x7_s1
I1126 10:17:15.143106 10346 net.cpp:157] Top shape: 32 1024 1 1 (32768)
I1126 10:17:15.143110 10346 net.cpp:165] Memory required for data: 1794708488
I1126 10:17:15.143115 10346 layer_factory.hpp:76] Creating layer loss3/classifier2
I1126 10:17:15.143122 10346 net.cpp:106] Creating Layer loss3/classifier2
I1126 10:17:15.143126 10346 net.cpp:454] loss3/classifier2 <- pool5/7x7_s1
I1126 10:17:15.143134 10346 net.cpp:411] loss3/classifier2 -> loss3/classifier
I1126 10:17:15.143281 10346 net.cpp:150] Setting up loss3/classifier2
I1126 10:17:15.143290 10346 net.cpp:157] Top shape: 32 2 (64)
I1126 10:17:15.143293 10346 net.cpp:165] Memory required for data: 1794708744
I1126 10:17:15.143299 10346 layer_factory.hpp:76] Creating layer loss3/loss3
I1126 10:17:15.143306 10346 net.cpp:106] Creating Layer loss3/loss3
I1126 10:17:15.143311 10346 net.cpp:454] loss3/loss3 <- loss3/classifier
I1126 10:17:15.143316 10346 net.cpp:454] loss3/loss3 <- label_data_1_split_2
I1126 10:17:15.143323 10346 net.cpp:411] loss3/loss3 -> loss3/loss3
…
I1126 10:17:15.158107 10346 net.cpp:322] The NetState phase (1) differed from the phase (0) specified by a rule in layer data
I1126 10:17:15.159260 10346 net.cpp:49] Initializing net from parameters: 
name: "GoogleNet"
state {
  phase: TEST
}
layer {
  name: "data"
  type: "Data"
  top: "data"
  top: "label"
  include {
    phase: TEST
  }
  transform_param {
    mirror: false
    crop_size: 224
    mean_value: 104
    mean_value: 117
    mean_value: 123
  }
  data_param {
    source: "../../LMDB/val_4-lmdb"
    batch_size: 50
    backend: LMDB
  }
}
layer {
  name: "conv1/7x7_s2"
  type: "Convolution"
  bottom: "data"
  top: "conv1/7x7_s2"
  param {
    lr_mult: 1
    decay_mult: 1
  }
  param {
    lr_mult: 2
    decay_mult: 0
  }
  convolution_param {
    num_output: 64
    pad: 3
    kernel_size: 7
    stride: 2
    weight_filler {
      type: "xavier"
    }
    bias_filler {
      type: "constant"
      value: 0.2
    }
  }
}
layer {
  name: "conv1/prelu_7x7"
  type: "PReLU"
  bottom: "conv1/7x7_s2"
  top: "conv1/7x7_s2"
  param {
    lr_mult: 1
    decay_mult: 0
  }
  prelu_param {
    filler {
      type: "constant"
      value: 0.01
    }
  }
}
layer {
  name: "pool1/3x3_s2"
  type: "Pooling"
  bottom: "conv1/7x7_s2"
  top: "pool1/3x3_s2"
  pooling_param {
    pool: MAX
    kernel_size: 3
    stride: 2
  }
}
layer {
  name: "pool1/norm1"
  type: "LRN"
  bottom: "pool1/3x3_s2"
  top: "pool1/norm1"
  lrn_param {
    local_size: 5
    alpha: 0.0001
    beta: 0.75
  }
}
layer {
  name: "conv2/3x3_reduce"
  type: "Convolution"
  bottom: "pool1/norm1"
  top: "conv2/3x3_reduce"
  param {
    lr_mult: 1
    decay_mult: 1
  }
  param {
    lr_mult: 2
    decay_mult: 0
  }
  convolution_param {
    num_output: 64
    kernel_size: 1
    weight_filler {
      type: "xavier"
    }
    bias_filler {
      type: "constant"
      value: 0.2
    }
  }
}
layer {
  name: "conv2/prelu_3x3_reduce"
  type: "PReLU"
  bottom: "conv2/3x3_reduce"
  top: "conv2/3x3_reduce"
  param {
    lr_mult: 1
    decay_mult: 0
  }
  prelu_param {
    filler {
      type: "constant"
      value: 0.01
    }
  }
}
layer {
  name: "conv2/3x3"
  type: "Convolution"
  bottom: "conv2/3x3_reduce"
  top: "conv2/3x3"
  param {
    lr_mult: 1
    decay_mult: 1
  }
  param {
    lr_mult: 2
    decay_mult: 0
  }
  convolution_param {
    num_output: 192
    pad: 1
    kernel_size: 3
    weight_filler {
      type: "xavier"
    }
    bias_filler {
      type: "constant"
      value: 0.2
    }
  }
}
layer {
  name: "conv2/prelu_3x3"
  type: "PReLU"
  bottom: "conv2/3x3"
  top: "conv2/3x3"
  param {
    lr_mult: 1
    decay_mult: 0
  }
  prelu_param {
    filler {
      type: "constant"
      value: 0.01
    }
  }
}
layer {
  name: "conv2/norm2"
  type: "LRN"
  bottom: "conv2/3x3"
  top: "conv2/norm2"
  lrn_param {
    local_size: 5
    alpha: 0.0001
    beta: 0.75
  }
}
layer {
  name: "pool2/3x3_s2"
  type: "Pooling"
  bottom: "conv2/norm2"
  top: "pool2/3x3_s2"
  pooling_param {
    pool: MAX
    kernel_size: 3
    stride: 2
  }
}
layer {
  name: "inception_3a/1x1"
  type: "Convolution"
  bottom: "pool2/3x3_s2"
  top: "inception_3a/1x1"
  param {
    lr_mult: 1
    decay_mult: 1
  }
  param {
    lr_mult: 2
    decay_mult: 0
  }
  convolution_param {
    num_output: 64
    kernel_size: 1
    weight_filler {
      type: "xavier"
    }
    bias_filler {
      type: "constant"
      value: 0.2
    }
  }
}
layer {
  name: "inception_3a/prelu_1x1"
  type: "PReLU"
  bottom: "inception_3a/1x1"
  top: "inception_3a/1x1"
  param {
    lr_mult: 1
    decay_mult: 0
  }
  prelu_param {
    filler {
      type: "constant"
      value: 0.01
    }
  }
}
layer {
  name: "inception_3a/3x3_reduce"
  type: "Convolution"
  bottom: "pool2/3x3_s2"
  top: "inception_3a/3x3_reduce"
  param {
    lr_mult: 1
    decay_mult: 1
  }
  param {
    lr_mult: 2
    decay_mult: 0
  }
  convolution_param {
    num_output: 96
    kernel_size: 1
    weight_filler {
      type: "xavier"
    }
    bias_filler {
      type: "constant"
      value: 0.2
    }
  }
}
layer {
  name: "inception_3a/prelu_3x3_reduce"
  type: "PReLU"
  bottom: "inception_3a/3x3_reduce"
  top: "inception_3a/3x3_reduce"
  param {
    lr_mult: 1
    decay_mult: 0
  }
  prelu_param {
    filler {
      type: "constant"
      value: 0.01
    }
  }
}
layer {
  name: "inception_3a/3x3"
  type: "Convolution"
  bottom: "inception_3a/3x3_reduce"
  top: "inception_3a/3x3"
  param {
    lr_mult: 1
    decay_mult: 1
  }
  param {
    lr_mult: 2
    decay_mult: 0
  }
  convolution_param {
    num_output: 128
    pad: 1
    kernel_size: 3
    weight_filler {
      type: "xavier"
    }
    bias_filler {
      type: "constant"
      value: 0.2
    }
  }
}
layer {
  name: "inception_3a/prelu_3x3"
  type: "PReLU"
  bottom: "inception_3a/3x3"
  top: "inception_3a/3x3"
  param {
    lr_mult: 1
    decay_mult: 0
  }
  prelu_param {
    filler {
      type: "constant"
      value: 0.01
    }
  }
}
layer {
  name: "inception_3a/5x5_reduce"
  type: "Convolution"
  bottom: "pool2/3x3_s2"
  top: "inception_3a/5x5_reduce"
  param {
    lr_mult: 1
    decay_mult: 1
  }
  param {
    lr_mult: 2
    decay_mult: 0
  }
  convolution_param {
    num_output: 16
    kernel_size: 1
    weight_filler {
      type: "xavier"
    }
    bias_filler {
      type: "constant"
      value: 0.2
    }
  }
}
layer {
  name: "inception_3a/prelu_5x5_reduce"
  type: "PReLU"
  bottom: "inception_3a/5x5_reduce"
  top: "inception_3a/5x5_reduce"
  param {
    lr_mult: 1
    decay_mult: 0
  }
  prelu_param {
    filler {
      type: "constant"
      value: 0.01
    }
  }
}
layer {
  name: "inception_3a/5x5"
  type: "Convolution"
  bottom: "inception_3a/5x5_reduce"
  top: "inception_3a/5x5"
  param {
    lr_mult: 1
    decay_mult: 1
  }
  param {
    lr_mult: 2
    decay_mult: 0
  }
  convolution_param {
    num_output: 32
    pad: 2
    kernel_size: 5
    weight_filler {
      type: "xavier"
    }
    bias_filler {
      type: "constant"
      value: 0.2
    }
  }
}
layer {
  name: "inception_3a/prelu_5x5"
  type: "PReLU"
  bottom: "inception_3a/5x5"
  top: "inception_3a/5x5"
  param {
    lr_mult: 1
    decay_mult: 0
  }
  prelu_param {
    filler {
      type: "constant"
      value: 0.01
    }
  }
}
layer {
  name: "inception_3a/pool"
  type: "Pooling"
  bottom: "pool2/3x3_s2"
  top: "inception_3a/pool"
  pooling_param {
    pool: MAX
    kernel_size: 3
    stride: 1
    pad: 1
  }
}
layer {
  name: "inception_3a/pool_proj"
  type: "Convolution"
  bottom: "inception_3a/pool"
  top: "inception_3a/pool_proj"
  param {
    lr_mult: 1
    decay_mult: 1
  }
  param {
    lr_mult: 2
    decay_mult: 0
  }
  convolution_param {
    num_output: 32
    kernel_size: 1
    weight_filler {
      type: "xavier"
    }
    bias_filler {
      type: "constant"
      value: 0.2
    }
  }
}
layer {
  name: "inception_3a/prelu_pool_proj"
  type: "PReLU"
  bottom: "inception_3a/pool_proj"
  top: "inception_3a/pool_proj"
  param {
    lr_mult: 1
    decay_mult: 0
  }
  prelu_param {
    filler {
      type: "constant"
      value: 0.01
    }
  }
}
layer {
  name: "inception_3a/output"
  type: "Concat"
  bottom: "inception_3a/1x1"
  bottom: "inception_3a/3x3"
  bottom: "inception_3a/5x5"
  bottom: "inception_3a/pool_proj"
  top: "inception_3a/output"
}
layer {
  name: "inception_3b/1x1"
  type: "Convolution"
  bottom: "inception_3a/output"
  top: "inception_3b/1x1"
  param {
    lr_mult: 1
    decay_mult: 1
  }
  param {
    lr_mult: 2
    decay_mult: 0
  }
  convolution_param {
    num_output: 128
    kernel_size: 1
    weight_filler {
      type: "xavier"
    }
    bias_filler {
      type: "constant"
      value: 0.2
    }
  }
}
layer {
  name: "inception_3b/prelu_1x1"
  type: "PReLU"
  bottom: "inception_3b/1x1"
  top: "inception_3b/1x1"
  param {
    lr_mult: 1
    decay_mult: 0
  }
  prelu_param {
    filler {
      type: "constant"
      value: 0.01
    }
  }
}
layer {
  name: "inception_3b/3x3_reduce"
  type: "Convolution"
  bottom: "inception_3a/output"
  top: "inception_3b/3x3_reduce"
  param {
    lr_mult: 1
    decay_mult: 1
  }
  param {
    lr_mult: 2
    decay_mult: 0
  }
  convolution_param {
    num_output: 128
    kernel_size: 1
    weight_filler {
      type: "xavier"
    }
    bias_filler {
      type: "constant"
      value: 0.2
    }
  }
}
layer {
  name: "inception_3b/prelu_3x3_reduce"
  type: "PReLU"
  bottom: "inception_3b/3x3_reduce"
  top: "inception_3b/3x3_reduce"
  param {
    lr_mult: 1
    decay_mult: 0
  }
  prelu_param {
    filler {
      type: "constant"
      value: 0.01
    }
  }
}
layer {
  name: "inception_3b/3x3"
  type: "Convolution"
  bottom: "inception_3b/3x3_reduce"
  top: "inception_3b/3x3"
  param {
    lr_mult: 1
    decay_mult: 1
  }
  param {
    lr_mult: 2
    decay_mult: 0
  }
  convolution_param {
    num_output: 192
    pad: 1
…
I1126 10:17:15.589690 10346 net.cpp:106] Creating Layer inception_4c/output
I1126 10:17:15.589695 10346 net.cpp:454] inception_4c/output <- inception_4c/1x1
I1126 10:17:15.589700 10346 net.cpp:454] inception_4c/output <- inception_4c/3x3
I1126 10:17:15.589705 10346 net.cpp:454] inception_4c/output <- inception_4c/5x5
I1126 10:17:15.589710 10346 net.cpp:454] inception_4c/output <- inception_4c/pool_proj
I1126 10:17:15.589715 10346 net.cpp:411] inception_4c/output -> inception_4c/output
I1126 10:17:15.589738 10346 net.cpp:150] Setting up inception_4c/output
I1126 10:17:15.589745 10346 net.cpp:157] Top shape: 50 512 14 14 (5017600)
I1126 10:17:15.589750 10346 net.cpp:165] Memory required for data: 2234652208
I1126 10:17:15.589753 10346 layer_factory.hpp:76] Creating layer inception_4c/output_inception_4c/output_0_split
I1126 10:17:15.589761 10346 net.cpp:106] Creating Layer inception_4c/output_inception_4c/output_0_split
I1126 10:17:15.589774 10346 net.cpp:454] inception_4c/output_inception_4c/output_0_split <- inception_4c/output
I1126 10:17:15.589781 10346 net.cpp:411] inception_4c/output_inception_4c/output_0_split -> inception_4c/output_inception_4c/output_0_split_0
I1126 10:17:15.589788 10346 net.cpp:411] inception_4c/output_inception_4c/output_0_split -> inception_4c/output_inception_4c/output_0_split_1
I1126 10:17:15.589794 10346 net.cpp:411] inception_4c/output_inception_4c/output_0_split -> inception_4c/output_inception_4c/output_0_split_2
I1126 10:17:15.589814 10346 net.cpp:411] inception_4c/output_inception_4c/output_0_split -> inception_4c/output_inception_4c/output_0_split_3
I1126 10:17:15.589864 10346 net.cpp:150] Setting up inception_4c/output_inception_4c/output_0_split
I1126 10:17:15.589871 10346 net.cpp:157] Top shape: 50 512 14 14 (5017600)
I1126 10:17:15.589876 10346 net.cpp:157] Top shape: 50 512 14 14 (5017600)
I1126 10:17:15.589880 10346 net.cpp:157] Top shape: 50 512 14 14 (5017600)
I1126 10:17:15.589885 10346 net.cpp:157] Top shape: 50 512 14 14 (5017600)
I1126 10:17:15.589890 10346 net.cpp:165] Memory required for data: 2314933808
I1126 10:17:15.589893 10346 layer_factory.hpp:76] Creating layer inception_4d/1x1
I1126 10:17:15.589901 10346 net.cpp:106] Creating Layer inception_4d/1x1
I1126 10:17:15.589906 10346 net.cpp:454] inception_4d/1x1 <- inception_4c/output_inception_4c/output_0_split_0
I1126 10:17:15.589912 10346 net.cpp:411] inception_4d/1x1 -> inception_4d/1x1
I1126 10:17:15.591434 10346 cudnn_conv_layer.cpp:194] Reallocating workspace storage: 10080
I1126 10:17:15.591470 10346 net.cpp:150] Setting up inception_4d/1x1
I1126 10:17:15.591478 10346 net.cpp:157] Top shape: 50 112 14 14 (1097600)
I1126 10:17:15.591491 10346 net.cpp:165] Memory required for data: 2319324208
I1126 10:17:15.591498 10346 layer_factory.hpp:76] Creating layer inception_4d/prelu_1x1
I1126 10:17:15.591509 10346 net.cpp:106] Creating Layer inception_4d/prelu_1x1
I1126 10:17:15.591514 10346 net.cpp:454] inception_4d/prelu_1x1 <- inception_4d/1x1
I1126 10:17:15.591522 10346 net.cpp:397] inception_4d/prelu_1x1 -> inception_4d/1x1 (in-place)
I1126 10:17:15.591616 10346 net.cpp:150] Setting up inception_4d/prelu_1x1
I1126 10:17:15.591624 10346 net.cpp:157] Top shape: 50 112 14 14 (1097600)
I1126 10:17:15.591627 10346 net.cpp:165] Memory required for data: 2323714608
I1126 10:17:15.591634 10346 layer_factory.hpp:76] Creating layer inception_4d/3x3_reduce
I1126 10:17:15.591644 10346 net.cpp:106] Creating Layer inception_4d/3x3_reduce
I1126 10:17:15.591648 10346 net.cpp:454] inception_4d/3x3_reduce <- inception_4c/output_inception_4c/output_0_split_1
I1126 10:17:15.591656 10346 net.cpp:411] inception_4d/3x3_reduce -> inception_4d/3x3_reduce
I1126 10:17:15.593281 10346 cudnn_conv_layer.cpp:194] Reallocating workspace storage: 10080
I1126 10:17:15.593312 10346 net.cpp:150] Setting up inception_4d/3x3_reduce
I1126 10:17:15.593322 10346 net.cpp:157] Top shape: 50 144 14 14 (1411200)
I1126 10:17:15.593327 10346 net.cpp:165] Memory required for data: 2329359408
I1126 10:17:15.593333 10346 layer_factory.hpp:76] Creating layer inception_4d/prelu_3x3_reduce
I1126 10:17:15.593341 10346 net.cpp:106] Creating Layer inception_4d/prelu_3x3_reduce
I1126 10:17:15.593348 10346 net.cpp:454] inception_4d/prelu_3x3_reduce <- inception_4d/3x3_reduce
I1126 10:17:15.593353 10346 net.cpp:397] inception_4d/prelu_3x3_reduce -> inception_4d/3x3_reduce (in-place)
I1126 10:17:15.593462 10346 net.cpp:150] Setting up inception_4d/prelu_3x3_reduce
I1126 10:17:15.593471 10346 net.cpp:157] Top shape: 50 144 14 14 (1411200)
I1126 10:17:15.593474 10346 net.cpp:165] Memory required for data: 2335004208
I1126 10:17:15.593480 10346 layer_factory.hpp:76] Creating layer inception_4d/3x3
I1126 10:17:15.593488 10346 net.cpp:106] Creating Layer inception_4d/3x3
I1126 10:17:15.593493 10346 net.cpp:454] inception_4d/3x3 <- inception_4d/3x3_reduce
I1126 10:17:15.593500 10346 net.cpp:411] inception_4d/3x3 -> inception_4d/3x3
I1126 10:17:15.597560 10346 cudnn_conv_layer.cpp:194] Reallocating workspace storage: 10080
I1126 10:17:15.597602 10346 net.cpp:150] Setting up inception_4d/3x3
I1126 10:17:15.597615 10346 net.cpp:157] Top shape: 50 288 14 14 (2822400)
I1126 10:17:15.597620 10346 net.cpp:165] Memory required for data: 2346293808
I1126 10:17:15.597628 10346 layer_factory.hpp:76] Creating layer inception_4d/prelu_3x3
I1126 10:17:15.597640 10346 net.cpp:106] Creating Layer inception_4d/prelu_3x3
I1126 10:17:15.597645 10346 net.cpp:454] inception_4d/prelu_3x3 <- inception_4d/3x3
I1126 10:17:15.597673 10346 net.cpp:397] inception_4d/prelu_3x3 -> inception_4d/3x3 (in-place)
I1126 10:17:15.598306 10346 net.cpp:150] Setting up inception_4d/prelu_3x3
I1126 10:17:15.598317 10346 net.cpp:157] Top shape: 50 288 14 14 (2822400)
I1126 10:17:15.598321 10346 net.cpp:165] Memory required for data: 2357583408
I1126 10:17:15.598327 10346 layer_factory.hpp:76] Creating layer inception_4d/5x5_reduce
I1126 10:17:15.598342 10346 net.cpp:106] Creating Layer inception_4d/5x5_reduce
I1126 10:17:15.598348 10346 net.cpp:454] inception_4d/5x5_reduce <- inception_4c/output_inception_4c/output_0_split_2
I1126 10:17:15.598357 10346 net.cpp:411] inception_4d/5x5_reduce -> inception_4d/5x5_reduce
I1126 10:17:15.599877 10346 cudnn_conv_layer.cpp:194] Reallocating workspace storage: 10080
I1126 10:17:15.599915 10346 net.cpp:150] Setting up inception_4d/5x5_reduce
I1126 10:17:15.599925 10346 net.cpp:157] Top shape: 50 32 14 14 (313600)
I1126 10:17:15.599931 10346 net.cpp:165] Memory required for data: 2358837808
I1126 10:17:15.599938 10346 layer_factory.hpp:76] Creating layer inception_4d/prelu_5x5_reduce
I1126 10:17:15.599947 10346 net.cpp:106] Creating Layer inception_4d/prelu_5x5_reduce
I1126 10:17:15.599953 10346 net.cpp:454] inception_4d/prelu_5x5_reduce <- inception_4d/5x5_reduce
I1126 10:17:15.599962 10346 net.cpp:397] inception_4d/prelu_5x5_reduce -> inception_4d/5x5_reduce (in-place)
I1126 10:17:15.600054 10346 net.cpp:150] Setting up inception_4d/prelu_5x5_reduce
I1126 10:17:15.600064 10346 net.cpp:157] Top shape: 50 32 14 14 (313600)
I1126 10:17:15.600067 10346 net.cpp:165] Memory required for data: 2360092208
I1126 10:17:15.600074 10346 layer_factory.hpp:76] Creating layer inception_4d/5x5
I1126 10:17:15.600082 10346 net.cpp:106] Creating Layer inception_4d/5x5
I1126 10:17:15.600087 10346 net.cpp:454] inception_4d/5x5 <- inception_4d/5x5_reduce
I1126 10:17:15.600095 10346 net.cpp:411] inception_4d/5x5 -> inception_4d/5x5
I1126 10:17:15.601650 10346 cudnn_conv_layer.cpp:194] Reallocating workspace storage: 13080
I1126 10:17:15.601730 10346 net.cpp:150] Setting up inception_4d/5x5
I1126 10:17:15.601753 10346 net.cpp:157] Top shape: 50 64 14 14 (627200)
I1126 10:17:15.601758 10346 net.cpp:165] Memory required for data: 2362601008
I1126 10:17:15.601771 10346 layer_factory.hpp:76] Creating layer inception_4d/prelu_5x5
I1126 10:17:15.601799 10346 net.cpp:106] Creating Layer inception_4d/prelu_5x5
I1126 10:17:15.601809 10346 net.cpp:454] inception_4d/prelu_5x5 <- inception_4d/5x5
I1126 10:17:15.601821 10346 net.cpp:397] inception_4d/prelu_5x5 -> inception_4d/5x5 (in-place)
I1126 10:17:15.601948 10346 net.cpp:150] Setting up inception_4d/prelu_5x5
I1126 10:17:15.601958 10346 net.cpp:157] Top shape: 50 64 14 14 (627200)
I1126 10:17:15.601963 10346 net.cpp:165] Memory required for data: 2365109808
I1126 10:17:15.601969 10346 layer_factory.hpp:76] Creating layer inception_4d/pool
I1126 10:17:15.601977 10346 net.cpp:106] Creating Layer inception_4d/pool
I1126 10:17:15.601982 10346 net.cpp:454] inception_4d/pool <- inception_4c/output_inception_4c/output_0_split_3
I1126 10:17:15.601991 10346 net.cpp:411] inception_4d/pool -> inception_4d/pool
I1126 10:17:15.602613 10346 net.cpp:150] Setting up inception_4d/pool
I1126 10:17:15.602638 10346 net.cpp:157] Top shape: 50 512 14 14 (5017600)
I1126 10:17:15.602641 10346 net.cpp:165] Memory required for data: 2385180208
I1126 10:17:15.602648 10346 layer_factory.hpp:76] Creating layer inception_4d/pool_proj
I1126 10:17:15.602666 10346 net.cpp:106] Creating Layer inception_4d/pool_proj
I1126 10:17:15.602674 10346 net.cpp:454] inception_4d/pool_proj <- inception_4d/pool
I1126 10:17:15.602684 10346 net.cpp:411] inception_4d/pool_proj -> inception_4d/pool_proj
I1126 10:17:15.604425 10346 cudnn_conv_layer.cpp:194] Reallocating workspace storage: 10080
I1126 10:17:15.604506 10346 net.cpp:150] Setting up inception_4d/pool_proj
I1126 10:17:15.604526 10346 net.cpp:157] Top shape: 50 64 14 14 (627200)
I1126 10:17:15.604534 10346 net.cpp:165] Memory required for data: 2387689008
I1126 10:17:15.604554 10346 layer_factory.hpp:76] Creating layer inception_4d/prelu_pool_proj
I1126 10:17:15.604631 10346 net.cpp:106] Creating Layer inception_4d/prelu_pool_proj
I1126 10:17:15.604642 10346 net.cpp:454] inception_4d/prelu_pool_proj <- inception_4d/pool_proj
I1126 10:17:15.604655 10346 net.cpp:397] inception_4d/prelu_pool_proj -> inception_4d/pool_proj (in-place)
I1126 10:17:15.604806 10346 net.cpp:150] Setting up inception_4d/prelu_pool_proj
I1126 10:17:15.604816 10346 net.cpp:157] Top shape: 50 64 14 14 (627200)
I1126 10:17:15.604821 10346 net.cpp:165] Memory required for data: 2390197808
I1126 10:17:15.604827 10346 layer_factory.hpp:76] Creating layer inception_4d/output
I1126 10:17:15.604845 10346 net.cpp:106] Creating Layer inception_4d/output
I1126 10:17:15.604851 10346 net.cpp:454] inception_4d/output <- inception_4d/1x1
I1126 10:17:15.604856 10346 net.cpp:454] inception_4d/output <- inception_4d/3x3
I1126 10:17:15.604862 10346 net.cpp:454] inception_4d/output <- inception_4d/5x5
I1126 10:17:15.604867 10346 net.cpp:454] inception_4d/output <- inception_4d/pool_proj
I1126 10:17:15.604873 10346 net.cpp:411] inception_4d/output -> inception_4d/output
I1126 10:17:15.604907 10346 net.cpp:150] Setting up inception_4d/output
I1126 10:17:15.604914 10346 net.cpp:157] Top shape: 50 528 14 14 (5174400)
I1126 10:17:15.604918 10346 net.cpp:165] Memory required for data: 2410895408
I1126 10:17:15.604923 10346 layer_factory.hpp:76] Creating layer inception_4d/output_inception_4d/output_0_split
I1126 10:17:15.604933 10346 net.cpp:106] Creating Layer inception_4d/output_inception_4d/output_0_split
I1126 10:17:15.604936 10346 net.cpp:454] inception_4d/output_inception_4d/output_0_split <- inception_4d/output
I1126 10:17:15.604945 10346 net.cpp:411] inception_4d/output_inception_4d/output_0_split -> inception_4d/output_inception_4d/output_0_split_0
I1126 10:17:15.604954 10346 net.cpp:411] inception_4d/output_inception_4d/output_0_split -> inception_4d/output_inception_4d/output_0_split_1
I1126 10:17:15.604961 10346 net.cpp:411] inception_4d/output_inception_4d/output_0_split -> inception_4d/output_inception_4d/output_0_split_2
I1126 10:17:15.604969 10346 net.cpp:411] inception_4d/output_inception_4d/output_0_split -> inception_4d/output_inception_4d/output_0_split_3
I1126 10:17:15.604975 10346 net.cpp:411] inception_4d/output_inception_4d/output_0_split -> inception_4d/output_inception_4d/output_0_split_4
I1126 10:17:15.605037 10346 net.cpp:150] Setting up inception_4d/output_inception_4d/output_0_split
I1126 10:17:15.605044 10346 net.cpp:157] Top shape: 50 528 14 14 (5174400)
I1126 10:17:15.605051 10346 net.cpp:157] Top shape: 50 528 14 14 (5174400)
I1126 10:17:15.605056 10346 net.cpp:157] Top shape: 50 528 14 14 (5174400)
I1126 10:17:15.605060 10346 net.cpp:157] Top shape: 50 528 14 14 (5174400)
I1126 10:17:15.605065 10346 net.cpp:157] Top shape: 50 528 14 14 (5174400)
I1126 10:17:15.605069 10346 net.cpp:165] Memory required for data: 2514383408
I1126 10:17:15.605073 10346 layer_factory.hpp:76] Creating layer loss2/ave_pool
I1126 10:17:15.605082 10346 net.cpp:106] Creating Layer loss2/ave_pool
I1126 10:17:15.605087 10346 net.cpp:454] loss2/ave_pool <- inception_4d/output_inception_4d/output_0_split_0
I1126 10:17:15.605096 10346 net.cpp:411] loss2/ave_pool -> loss2/ave_pool
I1126 10:17:15.605348 10346 net.cpp:150] Setting up loss2/ave_pool
I1126 10:17:15.605362 10346 net.cpp:157] Top shape: 50 528 4 4 (422400)
I1126 10:17:15.605367 10346 net.cpp:165] Memory required for data: 2516073008
I1126 10:17:15.605372 10346 layer_factory.hpp:76] Creating layer loss2/conv
I1126 10:17:15.605386 10346 net.cpp:106] Creating Layer loss2/conv
I1126 10:17:15.605392 10346 net.cpp:454] loss2/conv <- loss2/ave_pool
I1126 10:17:15.605399 10346 net.cpp:411] loss2/conv -> loss2/conv
I1126 10:17:15.607527 10346 cudnn_conv_layer.cpp:194] Reallocating workspace storage: 6840
I1126 10:17:15.607599 10346 net.cpp:150] Setting up loss2/conv
I1126 10:17:15.607612 10346 net.cpp:157] Top shape: 50 128 4 4 (102400)
I1126 10:17:15.607617 10346 net.cpp:165] Memory required for data: 2516482608
I1126 10:17:15.607662 10346 layer_factory.hpp:76] Creating layer loss2/prelu_conv
I1126 10:17:15.607682 10346 net.cpp:106] Creating Layer loss2/prelu_conv
I1126 10:17:15.607691 10346 net.cpp:454] loss2/prelu_conv <- loss2/conv
I1126 10:17:15.607700 10346 net.cpp:397] loss2/prelu_conv -> loss2/conv (in-place)
I1126 10:17:15.607828 10346 net.cpp:150] Setting up loss2/prelu_conv
I1126 10:17:15.607838 10346 net.cpp:157] Top shape: 50 128 4 4 (102400)
I1126 10:17:15.607842 10346 net.cpp:165] Memory required for data: 2516892208
I1126 10:17:15.607848 10346 layer_factory.hpp:76] Creating layer loss2/fc
I1126 10:17:15.607858 10346 net.cpp:106] Creating Layer loss2/fc
I1126 10:17:15.607863 10346 net.cpp:454] loss2/fc <- loss2/conv
I1126 10:17:15.607870 10346 net.cpp:411] loss2/fc -> loss2/fc
I1126 10:17:15.625229 10346 net.cpp:150] Setting up loss2/fc
I1126 10:17:15.625283 10346 net.cpp:157] Top shape: 50 1024 (51200)
I1126 10:17:15.625288 10346 net.cpp:165] Memory required for data: 2517097008
I1126 10:17:15.625344 10346 layer_factory.hpp:76] Creating layer loss2/prelu_fc
I1126 10:17:15.625375 10346 net.cpp:106] Creating Layer loss2/prelu_fc
I1126 10:17:15.625385 10346 net.cpp:454] loss2/prelu_fc <- loss2/fc
I1126 10:17:15.625393 10346 net.cpp:397] loss2/prelu_fc -> loss2/fc (in-place)
I1126 10:17:15.625540 10346 net.cpp:150] Setting up loss2/prelu_fc
I1126 10:17:15.625555 10346 net.cpp:157] Top shape: 50 1024 (51200)
I1126 10:17:15.625560 10346 net.cpp:165] Memory required for data: 2517301808
I1126 10:17:15.625566 10346 layer_factory.hpp:76] Creating layer loss2/drop_fc
I1126 10:17:15.625583 10346 net.cpp:106] Creating Layer loss2/drop_fc
I1126 10:17:15.625589 10346 net.cpp:454] loss2/drop_fc <- loss2/fc
I1126 10:17:15.625597 10346 net.cpp:397] loss2/drop_fc -> loss2/fc (in-place)
I1126 10:17:15.625649 10346 net.cpp:150] Setting up loss2/drop_fc
I1126 10:17:15.625659 10346 net.cpp:157] Top shape: 50 1024 (51200)
I1126 10:17:15.625663 10346 net.cpp:165] Memory required for data: 2517506608
I1126 10:17:15.625669 10346 layer_factory.hpp:76] Creating layer loss2/classifier2
I1126 10:17:15.625680 10346 net.cpp:106] Creating Layer loss2/classifier2
I1126 10:17:15.625684 10346 net.cpp:454] loss2/classifier2 <- loss2/fc
I1126 10:17:15.625694 10346 net.cpp:411] loss2/classifier2 -> loss2/classifier
I1126 10:17:15.625852 10346 net.cpp:150] Setting up loss2/classifier2
I1126 10:17:15.625862 10346 net.cpp:157] Top shape: 50 2 (100)
I1126 10:17:15.625866 10346 net.cpp:165] Memory required for data: 2517507008
I1126 10:17:15.625874 10346 layer_factory.hpp:76] Creating layer loss2/classifier_loss2/classifier2_0_split
I1126 10:17:15.625882 10346 net.cpp:106] Creating Layer loss2/classifier_loss2/classifier2_0_split
I1126 10:17:15.625887 10346 net.cpp:454] loss2/classifier_loss2/classifier2_0_split <- loss2/classifier
I1126 10:17:15.625895 10346 net.cpp:411] loss2/classifier_loss2/classifier2_0_split -> loss2/classifier_loss2/classifier2_0_split_0
I1126 10:17:15.625902 10346 net.cpp:411] loss2/classifier_loss2/classifier2_0_split -> loss2/classifier_loss2/classifier2_0_split_1
I1126 10:17:15.625938 10346 net.cpp:150] Setting up loss2/classifier_loss2/classifier2_0_split
I1126 10:17:15.625946 10346 net.cpp:157] Top shape: 50 2 (100)
I1126 10:17:15.625951 10346 net.cpp:157] Top shape: 50 2 (100)
I1126 10:17:15.625954 10346 net.cpp:165] Memory required for data: 2517507808
I1126 10:17:15.625958 10346 layer_factory.hpp:76] Creating layer loss2/loss
I1126 10:17:15.625967 10346 net.cpp:106] Creating Layer loss2/loss
I1126 10:17:15.625972 10346 net.cpp:454] loss2/loss <- loss2/classifier_loss2/classifier2_0_split_0
I1126 10:17:15.625978 10346 net.cpp:454] loss2/loss <- label_data_1_split_2
…
I1126 10:17:15.626970 10346 net.cpp:165] Memory required for data: 2517507816
I1126 10:17:15.626973 10346 layer_factory.hpp:76] Creating layer inception_4e/1x1
I1126 10:17:15.626986 10346 net.cpp:106] Creating Layer inception_4e/1x1
I1126 10:17:15.626991 10346 net.cpp:454] inception_4e/1x1 <- inception_4d/output_inception_4d/output_0_split_1
I1126 10:17:15.626997 10346 net.cpp:411] inception_4e/1x1 -> inception_4e/1x1
I1126 10:17:15.629840 10346 cudnn_conv_layer.cpp:194] Reallocating workspace storage: 10080
I1126 10:17:15.629905 10346 net.cpp:150] Setting up inception_4e/1x1
I1126 10:17:15.629917 10346 net.cpp:157] Top shape: 50 256 14 14 (2508800)
I1126 10:17:15.629922 10346 net.cpp:165] Memory required for data: 2527543016
I1126 10:17:15.629933 10346 layer_factory.hpp:76] Creating layer inception_4e/prelu_1x1
I1126 10:17:15.629951 10346 net.cpp:106] Creating Layer inception_4e/prelu_1x1
I1126 10:17:15.629958 10346 net.cpp:454] inception_4e/prelu_1x1 <- inception_4e/1x1
I1126 10:17:15.629968 10346 net.cpp:397] inception_4e/prelu_1x1 -> inception_4e/1x1 (in-place)
I1126 10:17:15.630131 10346 net.cpp:150] Setting up inception_4e/prelu_1x1
I1126 10:17:15.630141 10346 net.cpp:157] Top shape: 50 256 14 14 (2508800)
I1126 10:17:15.630146 10346 net.cpp:165] Memory required for data: 2537578216
I1126 10:17:15.630153 10346 layer_factory.hpp:76] Creating layer inception_4e/3x3_reduce
I1126 10:17:15.630167 10346 net.cpp:106] Creating Layer inception_4e/3x3_reduce
I1126 10:17:15.630172 10346 net.cpp:454] inception_4e/3x3_reduce <- inception_4d/output_inception_4d/output_0_split_2
I1126 10:17:15.630180 10346 net.cpp:411] inception_4e/3x3_reduce -> inception_4e/3x3_reduce
I1126 10:17:15.632078 10346 cudnn_conv_layer.cpp:194] Reallocating workspace storage: 10080
I1126 10:17:15.632134 10346 net.cpp:150] Setting up inception_4e/3x3_reduce
I1126 10:17:15.632145 10346 net.cpp:157] Top shape: 50 160 14 14 (1568000)
I1126 10:17:15.632150 10346 net.cpp:165] Memory required for data: 2543850216
I1126 10:17:15.632160 10346 layer_factory.hpp:76] Creating layer inception_4e/prelu_3x3_reduce
I1126 10:17:15.632176 10346 net.cpp:106] Creating Layer inception_4e/prelu_3x3_reduce
I1126 10:17:15.632182 10346 net.cpp:454] inception_4e/prelu_3x3_reduce <- inception_4e/3x3_reduce
I1126 10:17:15.632194 10346 net.cpp:397] inception_4e/prelu_3x3_reduce -> inception_4e/3x3_reduce (in-place)
I1126 10:17:15.632336 10346 net.cpp:150] Setting up inception_4e/prelu_3x3_reduce
I1126 10:17:15.632346 10346 net.cpp:157] Top shape: 50 160 14 14 (1568000)
I1126 10:17:15.632350 10346 net.cpp:165] Memory required for data: 2550122216
I1126 10:17:15.632356 10346 layer_factory.hpp:76] Creating layer inception_4e/3x3
I1126 10:17:15.632390 10346 net.cpp:106] Creating Layer inception_4e/3x3
I1126 10:17:15.632396 10346 net.cpp:454] inception_4e/3x3 <- inception_4e/3x3_reduce
I1126 10:17:15.632403 10346 net.cpp:411] inception_4e/3x3 -> inception_4e/3x3
I1126 10:17:15.638474 10346 cudnn_conv_layer.cpp:194] Reallocating workspace storage: 10080
I1126 10:17:15.638545 10346 net.cpp:150] Setting up inception_4e/3x3
I1126 10:17:15.638558 10346 net.cpp:157] Top shape: 50 320 14 14 (3136000)
I1126 10:17:15.638563 10346 net.cpp:165] Memory required for data: 2562666216
I1126 10:17:15.638584 10346 layer_factory.hpp:76] Creating layer inception_4e/prelu_3x3
I1126 10:17:15.638599 10346 net.cpp:106] Creating Layer inception_4e/prelu_3x3
I1126 10:17:15.638607 10346 net.cpp:454] inception_4e/prelu_3x3 <- inception_4e/3x3
I1126 10:17:15.638646 10346 net.cpp:397] inception_4e/prelu_3x3 -> inception_4e/3x3 (in-place)
I1126 10:17:15.650980 10346 net.cpp:150] Setting up inception_4e/prelu_3x3
I1126 10:17:15.651013 10346 net.cpp:157] Top shape: 50 320 14 14 (3136000)
I1126 10:17:15.651018 10346 net.cpp:165] Memory required for data: 2575210216
I1126 10:17:15.651028 10346 layer_factory.hpp:76] Creating layer inception_4e/5x5_reduce
I1126 10:17:15.651046 10346 net.cpp:106] Creating Layer inception_4e/5x5_reduce
I1126 10:17:15.651054 10346 net.cpp:454] inception_4e/5x5_reduce <- inception_4d/output_inception_4d/output_0_split_3
I1126 10:17:15.651064 10346 net.cpp:411] inception_4e/5x5_reduce -> inception_4e/5x5_reduce
I1126 10:17:15.652871 10346 cudnn_conv_layer.cpp:194] Reallocating workspace storage: 10080
I1126 10:17:15.652940 10346 net.cpp:150] Setting up inception_4e/5x5_reduce
I1126 10:17:15.652952 10346 net.cpp:157] Top shape: 50 32 14 14 (313600)
I1126 10:17:15.652957 10346 net.cpp:165] Memory required for data: 2576464616
I1126 10:17:15.652967 10346 layer_factory.hpp:76] Creating layer inception_4e/prelu_5x5_reduce
I1126 10:17:15.652981 10346 net.cpp:106] Creating Layer inception_4e/prelu_5x5_reduce
I1126 10:17:15.652988 10346 net.cpp:454] inception_4e/prelu_5x5_reduce <- inception_4e/5x5_reduce
I1126 10:17:15.653002 10346 net.cpp:397] inception_4e/prelu_5x5_reduce -> inception_4e/5x5_reduce (in-place)
I1126 10:17:15.653113 10346 net.cpp:150] Setting up inception_4e/prelu_5x5_reduce
I1126 10:17:15.653123 10346 net.cpp:157] Top shape: 50 32 14 14 (313600)
I1126 10:17:15.653127 10346 net.cpp:165] Memory required for data: 2577719016
I1126 10:17:15.653133 10346 layer_factory.hpp:76] Creating layer inception_4e/5x5
I1126 10:17:15.653146 10346 net.cpp:106] Creating Layer inception_4e/5x5
I1126 10:17:15.653151 10346 net.cpp:454] inception_4e/5x5 <- inception_4e/5x5_reduce
I1126 10:17:15.653159 10346 net.cpp:411] inception_4e/5x5 -> inception_4e/5x5
I1126 10:17:15.656343 10346 cudnn_conv_layer.cpp:194] Reallocating workspace storage: 13080
I1126 10:17:15.656397 10346 net.cpp:150] Setting up inception_4e/5x5
I1126 10:17:15.656411 10346 net.cpp:157] Top shape: 50 128 14 14 (1254400)
I1126 10:17:15.656415 10346 net.cpp:165] Memory required for data: 2582736616
I1126 10:17:15.656427 10346 layer_factory.hpp:76] Creating layer inception_4e/prelu_5x5
I1126 10:17:15.656461 10346 net.cpp:106] Creating Layer inception_4e/prelu_5x5
I1126 10:17:15.656467 10346 net.cpp:454] inception_4e/prelu_5x5 <- inception_4e/5x5
I1126 10:17:15.656478 10346 net.cpp:397] inception_4e/prelu_5x5 -> inception_4e/5x5 (in-place)
I1126 10:17:15.656621 10346 net.cpp:150] Setting up inception_4e/prelu_5x5
I1126 10:17:15.656631 10346 net.cpp:157] Top shape: 50 128 14 14 (1254400)
I1126 10:17:15.656635 10346 net.cpp:165] Memory required for data: 2587754216
I1126 10:17:15.656641 10346 layer_factory.hpp:76] Creating layer inception_4e/pool
I1126 10:17:15.656651 10346 net.cpp:106] Creating Layer inception_4e/pool
I1126 10:17:15.656657 10346 net.cpp:454] inception_4e/pool <- inception_4d/output_inception_4d/output_0_split_4
I1126 10:17:15.656664 10346 net.cpp:411] inception_4e/pool -> inception_4e/pool
I1126 10:17:15.656911 10346 net.cpp:150] Setting up inception_4e/pool
I1126 10:17:15.656925 10346 net.cpp:157] Top shape: 50 528 14 14 (5174400)
I1126 10:17:15.656929 10346 net.cpp:165] Memory required for data: 2608451816
I1126 10:17:15.656934 10346 layer_factory.hpp:76] Creating layer inception_4e/pool_proj
I1126 10:17:15.656947 10346 net.cpp:106] Creating Layer inception_4e/pool_proj
I1126 10:17:15.656952 10346 net.cpp:454] inception_4e/pool_proj <- inception_4e/pool
I1126 10:17:15.656961 10346 net.cpp:411] inception_4e/pool_proj -> inception_4e/pool_proj
I1126 10:17:15.658921 10346 cudnn_conv_layer.cpp:194] Reallocating workspace storage: 10080
I1126 10:17:15.658985 10346 net.cpp:150] Setting up inception_4e/pool_proj
I1126 10:17:15.658996 10346 net.cpp:157] Top shape: 50 128 14 14 (1254400)
I1126 10:17:15.659000 10346 net.cpp:165] Memory required for data: 2613469416
I1126 10:17:15.659010 10346 layer_factory.hpp:76] Creating layer inception_4e/prelu_pool_proj
I1126 10:17:15.659057 10346 net.cpp:106] Creating Layer inception_4e/prelu_pool_proj
I1126 10:17:15.659065 10346 net.cpp:454] inception_4e/prelu_pool_proj <- inception_4e/pool_proj
I1126 10:17:15.659075 10346 net.cpp:397] inception_4e/prelu_pool_proj -> inception_4e/pool_proj (in-place)
I1126 10:17:15.659195 10346 net.cpp:150] Setting up inception_4e/prelu_pool_proj
I1126 10:17:15.659204 10346 net.cpp:157] Top shape: 50 128 14 14 (1254400)
I1126 10:17:15.659209 10346 net.cpp:165] Memory required for data: 2618487016
I1126 10:17:15.659214 10346 layer_factory.hpp:76] Creating layer inception_4e/output
I1126 10:17:15.659224 10346 net.cpp:106] Creating Layer inception_4e/output
I1126 10:17:15.659229 10346 net.cpp:454] inception_4e/output <- inception_4e/1x1
I1126 10:17:15.659235 10346 net.cpp:454] inception_4e/output <- inception_4e/3x3
I1126 10:17:15.659241 10346 net.cpp:454] inception_4e/output <- inception_4e/5x5
I1126 10:17:15.659245 10346 net.cpp:454] inception_4e/output <- inception_4e/pool_proj
I1126 10:17:15.659251 10346 net.cpp:411] inception_4e/output -> inception_4e/output
I1126 10:17:15.659278 10346 net.cpp:150] Setting up inception_4e/output
I1126 10:17:15.659286 10346 net.cpp:157] Top shape: 50 832 14 14 (8153600)
I1126 10:17:15.659289 10346 net.cpp:165] Memory required for data: 2651101416
I1126 10:17:15.659293 10346 layer_factory.hpp:76] Creating layer pool4/3x3_s2
I1126 10:17:15.659301 10346 net.cpp:106] Creating Layer pool4/3x3_s2
I1126 10:17:15.659307 10346 net.cpp:454] pool4/3x3_s2 <- inception_4e/output
I1126 10:17:15.659313 10346 net.cpp:411] pool4/3x3_s2 -> pool4/3x3_s2
I1126 10:17:15.659567 10346 net.cpp:150] Setting up pool4/3x3_s2
I1126 10:17:15.659581 10346 net.cpp:157] Top shape: 50 832 7 7 (2038400)
I1126 10:17:15.659585 10346 net.cpp:165] Memory required for data: 2659255016
I1126 10:17:15.659590 10346 layer_factory.hpp:76] Creating layer pool4/3x3_s2_pool4/3x3_s2_0_split
I1126 10:17:15.659610 10346 net.cpp:106] Creating Layer pool4/3x3_s2_pool4/3x3_s2_0_split
I1126 10:17:15.659615 10346 net.cpp:454] pool4/3x3_s2_pool4/3x3_s2_0_split <- pool4/3x3_s2
I1126 10:17:15.659622 10346 net.cpp:411] pool4/3x3_s2_pool4/3x3_s2_0_split -> pool4/3x3_s2_pool4/3x3_s2_0_split_0
I1126 10:17:15.659631 10346 net.cpp:411] pool4/3x3_s2_pool4/3x3_s2_0_split -> pool4/3x3_s2_pool4/3x3_s2_0_split_1
I1126 10:17:15.659638 10346 net.cpp:411] pool4/3x3_s2_pool4/3x3_s2_0_split -> pool4/3x3_s2_pool4/3x3_s2_0_split_2
I1126 10:17:15.659647 10346 net.cpp:411] pool4/3x3_s2_pool4/3x3_s2_0_split -> pool4/3x3_s2_pool4/3x3_s2_0_split_3
I1126 10:17:15.659703 10346 net.cpp:150] Setting up pool4/3x3_s2_pool4/3x3_s2_0_split
I1126 10:17:15.659710 10346 net.cpp:157] Top shape: 50 832 7 7 (2038400)
I1126 10:17:15.659715 10346 net.cpp:157] Top shape: 50 832 7 7 (2038400)
I1126 10:17:15.659720 10346 net.cpp:157] Top shape: 50 832 7 7 (2038400)
I1126 10:17:15.659725 10346 net.cpp:157] Top shape: 50 832 7 7 (2038400)
I1126 10:17:15.659729 10346 net.cpp:165] Memory required for data: 2691869416
I1126 10:17:15.659734 10346 layer_factory.hpp:76] Creating layer inception_5a/1x1
I1126 10:17:15.659744 10346 net.cpp:106] Creating Layer inception_5a/1x1
I1126 10:17:15.659750 10346 net.cpp:454] inception_5a/1x1 <- pool4/3x3_s2_pool4/3x3_s2_0_split_0
I1126 10:17:15.659762 10346 net.cpp:411] inception_5a/1x1 -> inception_5a/1x1
I1126 10:17:15.663826 10346 cudnn_conv_layer.cpp:194] Reallocating workspace storage: 7428
I1126 10:17:15.663913 10346 net.cpp:150] Setting up inception_5a/1x1
I1126 10:17:15.663934 10346 net.cpp:157] Top shape: 50 256 7 7 (627200)
I1126 10:17:15.663938 10346 net.cpp:165] Memory required for data: 2694378216
I1126 10:17:15.663957 10346 layer_factory.hpp:76] Creating layer inception_5a/prelu_1x1
I1126 10:17:15.663992 10346 net.cpp:106] Creating Layer inception_5a/prelu_1x1
I1126 10:17:15.664006 10346 net.cpp:454] inception_5a/prelu_1x1 <- inception_5a/1x1
I1126 10:17:15.664022 10346 net.cpp:397] inception_5a/prelu_1x1 -> inception_5a/1x1 (in-place)
I1126 10:17:15.664182 10346 net.cpp:150] Setting up inception_5a/prelu_1x1
I1126 10:17:15.664227 10346 net.cpp:157] Top shape: 50 256 7 7 (627200)
I1126 10:17:15.664232 10346 net.cpp:165] Memory required for data: 2696887016
I1126 10:17:15.664238 10346 layer_factory.hpp:76] Creating layer inception_5a/3x3_reduce
I1126 10:17:15.664255 10346 net.cpp:106] Creating Layer inception_5a/3x3_reduce
I1126 10:17:15.664273 10346 net.cpp:454] inception_5a/3x3_reduce <- pool4/3x3_s2_pool4/3x3_s2_0_split_1
I1126 10:17:15.664283 10346 net.cpp:411] inception_5a/3x3_reduce -> inception_5a/3x3_reduce
I1126 10:17:15.667697 10346 cudnn_conv_layer.cpp:194] Reallocating workspace storage: 7428
I1126 10:17:15.667774 10346 net.cpp:150] Setting up inception_5a/3x3_reduce
I1126 10:17:15.667788 10346 net.cpp:157] Top shape: 50 160 7 7 (392000)
I1126 10:17:15.667793 10346 net.cpp:165] Memory required for data: 2698455016
I1126 10:17:15.667801 10346 layer_factory.hpp:76] Creating layer inception_5a/prelu_3x3_reduce
I1126 10:17:15.667817 10346 net.cpp:106] Creating Layer inception_5a/prelu_3x3_reduce
I1126 10:17:15.667825 10346 net.cpp:454] inception_5a/prelu_3x3_reduce <- inception_5a/3x3_reduce
I1126 10:17:15.667834 10346 net.cpp:397] inception_5a/prelu_3x3_reduce -> inception_5a/3x3_reduce (in-place)
I1126 10:17:15.667939 10346 net.cpp:150] Setting up inception_5a/prelu_3x3_reduce
I1126 10:17:15.667948 10346 net.cpp:157] Top shape: 50 160 7 7 (392000)
I1126 10:17:15.667951 10346 net.cpp:165] Memory required for data: 2700023016
I1126 10:17:15.667958 10346 layer_factory.hpp:76] Creating layer inception_5a/3x3
I1126 10:17:15.667970 10346 net.cpp:106] Creating Layer inception_5a/3x3
I1126 10:17:15.667975 10346 net.cpp:454] inception_5a/3x3 <- inception_5a/3x3_reduce
I1126 10:17:15.667984 10346 net.cpp:411] inception_5a/3x3 -> inception_5a/3x3
I1126 10:17:15.674268 10346 cudnn_conv_layer.cpp:194] Reallocating workspace storage: 7788
I1126 10:17:15.674356 10346 net.cpp:150] Setting up inception_5a/3x3
I1126 10:17:15.674372 10346 net.cpp:157] Top shape: 50 320 7 7 (784000)
I1126 10:17:15.674377 10346 net.cpp:165] Memory required for data: 2703159016
I1126 10:17:15.674389 10346 layer_factory.hpp:76] Creating layer inception_5a/prelu_3x3
I1126 10:17:15.674407 10346 net.cpp:106] Creating Layer inception_5a/prelu_3x3
I1126 10:17:15.674414 10346 net.cpp:454] inception_5a/prelu_3x3 <- inception_5a/3x3
I1126 10:17:15.674425 10346 net.cpp:397] inception_5a/prelu_3x3 -> inception_5a/3x3 (in-place)
I1126 10:17:15.674590 10346 net.cpp:150] Setting up inception_5a/prelu_3x3
I1126 10:17:15.674602 10346 net.cpp:157] Top shape: 50 320 7 7 (784000)
I1126 10:17:15.674605 10346 net.cpp:165] Memory required for data: 2706295016
I1126 10:17:15.674612 10346 layer_factory.hpp:76] Creating layer inception_5a/5x5_reduce
I1126 10:17:15.674628 10346 net.cpp:106] Creating Layer inception_5a/5x5_reduce
I1126 10:17:15.674634 10346 net.cpp:454] inception_5a/5x5_reduce <- pool4/3x3_s2_pool4/3x3_s2_0_split_2
I1126 10:17:15.674643 10346 net.cpp:411] inception_5a/5x5_reduce -> inception_5a/5x5_reduce
I1126 10:17:15.676369 10346 cudnn_conv_layer.cpp:194] Reallocating workspace storage: 7428
I1126 10:17:15.676421 10346 net.cpp:150] Setting up inception_5a/5x5_reduce
I1126 10:17:15.676431 10346 net.cpp:157] Top shape: 50 32 7 7 (78400)
I1126 10:17:15.676436 10346 net.cpp:165] Memory required for data: 2706608616
I1126 10:17:15.676445 10346 layer_factory.hpp:76] Creating layer inception_5a/prelu_5x5_reduce
I1126 10:17:15.676456 10346 net.cpp:106] Creating Layer inception_5a/prelu_5x5_reduce
I1126 10:17:15.676466 10346 net.cpp:454] inception_5a/prelu_5x5_reduce <- inception_5a/5x5_reduce
I1126 10:17:15.676475 10346 net.cpp:397] inception_5a/prelu_5x5_reduce -> inception_5a/5x5_reduce (in-place)
I1126 10:17:15.676609 10346 net.cpp:150] Setting up inception_5a/prelu_5x5_reduce
I1126 10:17:15.676619 10346 net.cpp:157] Top shape: 50 32 7 7 (78400)
I1126 10:17:15.676622 10346 net.cpp:165] Memory required for data: 2706922216
I1126 10:17:15.676628 10346 layer_factory.hpp:76] Creating layer inception_5a/5x5
I1126 10:17:15.676678 10346 net.cpp:106] Creating Layer inception_5a/5x5
I1126 10:17:15.676683 10346 net.cpp:454] inception_5a/5x5 <- inception_5a/5x5_reduce
I1126 10:17:15.676692 10346 net.cpp:411] inception_5a/5x5 -> inception_5a/5x5
I1126 10:17:15.678777 10346 cudnn_conv_layer.cpp:194] Reallocating workspace storage: 9804
I1126 10:17:15.678861 10346 net.cpp:150] Setting up inception_5a/5x5
I1126 10:17:15.678880 10346 net.cpp:157] Top shape: 50 128 7 7 (313600)
I1126 10:17:15.678885 10346 net.cpp:165] Memory required for data: 2708176616
I1126 10:17:15.678897 10346 layer_factory.hpp:76] Creating layer inception_5a/prelu_5x5
I1126 10:17:15.678921 10346 net.cpp:106] Creating Layer inception_5a/prelu_5x5
I1126 10:17:15.678931 10346 net.cpp:454] inception_5a/prelu_5x5 <- inception_5a/5x5
I1126 10:17:15.678943 10346 net.cpp:397] inception_5a/prelu_5x5 -> inception_5a/5x5 (in-place)
I1126 10:17:15.679076 10346 net.cpp:150] Setting up inception_5a/prelu_5x5
I1126 10:17:15.679088 10346 net.cpp:157] Top shape: 50 128 7 7 (313600)
I1126 10:17:15.679092 10346 net.cpp:165] Memory required for data: 2709431016
I1126 10:17:15.679098 10346 layer_factory.hpp:76] Creating layer inception_5a/pool
I1126 10:17:15.679110 10346 net.cpp:106] Creating Layer inception_5a/pool
I1126 10:17:15.679116 10346 net.cpp:454] inception_5a/pool <- pool4/3x3_s2_pool4/3x3_s2_0_split_3
I1126 10:17:15.679127 10346 net.cpp:411] inception_5a/pool -> inception_5a/pool
I1126 10:17:15.679961 10346 net.cpp:150] Setting up inception_5a/pool
I1126 10:17:15.679988 10346 net.cpp:157] Top shape: 50 832 7 7 (2038400)
I1126 10:17:15.679993 10346 net.cpp:165] Memory required for data: 2717584616
I1126 10:17:15.679999 10346 layer_factory.hpp:76] Creating layer inception_5a/pool_proj
I1126 10:17:15.680016 10346 net.cpp:106] Creating Layer inception_5a/pool_proj
I1126 10:17:15.680023 10346 net.cpp:454] inception_5a/pool_proj <- inception_5a/pool
I1126 10:17:15.680032 10346 net.cpp:411] inception_5a/pool_proj -> inception_5a/pool_proj
I1126 10:17:15.683593 10346 cudnn_conv_layer.cpp:194] Reallocating workspace storage: 7428
I1126 10:17:15.683653 10346 net.cpp:150] Setting up inception_5a/pool_proj
I1126 10:17:15.683665 10346 net.cpp:157] Top shape: 50 128 7 7 (313600)
I1126 10:17:15.683670 10346 net.cpp:165] Memory required for data: 2718839016
I1126 10:17:15.683679 10346 layer_factory.hpp:76] Creating layer inception_5a/prelu_pool_proj
I1126 10:17:15.683696 10346 net.cpp:106] Creating Layer inception_5a/prelu_pool_proj
I1126 10:17:15.683703 10346 net.cpp:454] inception_5a/prelu_pool_proj <- inception_5a/pool_proj
I1126 10:17:15.683713 10346 net.cpp:397] inception_5a/prelu_pool_proj -> inception_5a/pool_proj (in-place)
I1126 10:17:15.683815 10346 net.cpp:150] Setting up inception_5a/prelu_pool_proj
I1126 10:17:15.683823 10346 net.cpp:157] Top shape: 50 128 7 7 (313600)
I1126 10:17:15.683827 10346 net.cpp:165] Memory required for data: 2720093416
I1126 10:17:15.683832 10346 layer_factory.hpp:76] Creating layer inception_5a/output
I1126 10:17:15.683840 10346 net.cpp:106] Creating Layer inception_5a/output
I1126 10:17:15.683845 10346 net.cpp:454] inception_5a/output <- inception_5a/1x1
I1126 10:17:15.683851 10346 net.cpp:454] inception_5a/output <- inception_5a/3x3
I1126 10:17:15.683856 10346 net.cpp:454] inception_5a/output <- inception_5a/5x5
I1126 10:17:15.683861 10346 net.cpp:454] inception_5a/output <- inception_5a/pool_proj
I1126 10:17:15.683868 10346 net.cpp:411] inception_5a/output -> inception_5a/output
I1126 10:17:15.683895 10346 net.cpp:150] Setting up inception_5a/output
I1126 10:17:15.683903 10346 net.cpp:157] Top shape: 50 832 7 7 (2038400)
I1126 10:17:15.683907 10346 net.cpp:165] Memory required for data: 2728247016
I1126 10:17:15.683912 10346 layer_factory.hpp:76] Creating layer inception_5a/output_inception_5a/output_0_split
I1126 10:17:15.683918 10346 net.cpp:106] Creating Layer inception_5a/output_inception_5a/output_0_split
I1126 10:17:15.683923 10346 net.cpp:454] inception_5a/output_inception_5a/output_0_split <- inception_5a/output
I1126 10:17:15.683928 10346 net.cpp:411] inception_5a/output_inception_5a/output_0_split -> inception_5a/output_inception_5a/output_0_split_0
I1126 10:17:15.683962 10346 net.cpp:411] inception_5a/output_inception_5a/output_0_split -> inception_5a/output_inception_5a/output_0_split_1
I1126 10:17:15.683971 10346 net.cpp:411] inception_5a/output_inception_5a/output_0_split -> inception_5a/output_inception_5a/output_0_split_2
I1126 10:17:15.683979 10346 net.cpp:411] inception_5a/output_inception_5a/output_0_split -> inception_5a/output_inception_5a/output_0_split_3
I1126 10:17:15.684036 10346 net.cpp:150] Setting up inception_5a/output_inception_5a/output_0_split
I1126 10:17:15.684044 10346 net.cpp:157] Top shape: 50 832 7 7 (2038400)
I1126 10:17:15.684051 10346 net.cpp:157] Top shape: 50 832 7 7 (2038400)
I1126 10:17:15.684056 10346 net.cpp:157] Top shape: 50 832 7 7 (2038400)
I1126 10:17:15.684061 10346 net.cpp:157] Top shape: 50 832 7 7 (2038400)
I1126 10:17:15.684064 10346 net.cpp:165] Memory required for data: 2760861416
I1126 10:17:15.684068 10346 layer_factory.hpp:76] Creating layer inception_5b/1x1
I1126 10:17:15.684079 10346 net.cpp:106] Creating Layer inception_5b/1x1
I1126 10:17:15.684084 10346 net.cpp:454] inception_5b/1x1 <- inception_5a/output_inception_5a/output_0_split_0
I1126 10:17:15.684092 10346 net.cpp:411] inception_5b/1x1 -> inception_5b/1x1
I1126 10:17:15.707748 10346 cudnn_conv_layer.cpp:194] Reallocating workspace storage: 7428
I1126 10:17:15.707828 10346 net.cpp:150] Setting up inception_5b/1x1
I1126 10:17:15.707845 10346 net.cpp:157] Top shape: 50 384 7 7 (940800)
I1126 10:17:15.707850 10346 net.cpp:165] Memory required for data: 2764624616
I1126 10:17:15.707861 10346 layer_factory.hpp:76] Creating layer inception_5b/prelu_1x1
I1126 10:17:15.707876 10346 net.cpp:106] Creating Layer inception_5b/prelu_1x1
I1126 10:17:15.707883 10346 net.cpp:454] inception_5b/prelu_1x1 <- inception_5b/1x1
I1126 10:17:15.707895 10346 net.cpp:397] inception_5b/prelu_1x1 -> inception_5b/1x1 (in-place)
I1126 10:17:15.708026 10346 net.cpp:150] Setting up inception_5b/prelu_1x1
I1126 10:17:15.708035 10346 net.cpp:157] Top shape: 50 384 7 7 (940800)
I1126 10:17:15.708039 10346 net.cpp:165] Memory required for data: 2768387816
I1126 10:17:15.708045 10346 layer_factory.hpp:76] Creating layer inception_5b/3x3_reduce
I1126 10:17:15.708058 10346 net.cpp:106] Creating Layer inception_5b/3x3_reduce
I1126 10:17:15.708065 10346 net.cpp:454] inception_5b/3x3_reduce <- inception_5a/output_inception_5a/output_0_split_1
I1126 10:17:15.708073 10346 net.cpp:411] inception_5b/3x3_reduce -> inception_5b/3x3_reduce
I1126 10:17:15.711022 10346 cudnn_conv_layer.cpp:194] Reallocating workspace storage: 7428
I1126 10:17:15.711088 10346 net.cpp:150] Setting up inception_5b/3x3_reduce
I1126 10:17:15.711100 10346 net.cpp:157] Top shape: 50 192 7 7 (470400)
I1126 10:17:15.711105 10346 net.cpp:165] Memory required for data: 2770269416
I1126 10:17:15.711122 10346 layer_factory.hpp:76] Creating layer inception_5b/prelu_3x3_reduce
I1126 10:17:15.711140 10346 net.cpp:106] Creating Layer inception_5b/prelu_3x3_reduce
I1126 10:17:15.711158 10346 net.cpp:454] inception_5b/prelu_3x3_reduce <- inception_5b/3x3_reduce
I1126 10:17:15.711179 10346 net.cpp:397] inception_5b/prelu_3x3_reduce -> inception_5b/3x3_reduce (in-place)
I1126 10:17:15.711289 10346 net.cpp:150] Setting up inception_5b/prelu_3x3_reduce
I1126 10:17:15.711297 10346 net.cpp:157] Top shape: 50 192 7 7 (470400)
I1126 10:17:15.711302 10346 net.cpp:165] Memory required for data: 2772151016
I1126 10:17:15.711308 10346 layer_factory.hpp:76] Creating layer inception_5b/3x3
I1126 10:17:15.711323 10346 net.cpp:106] Creating Layer inception_5b/3x3
I1126 10:17:15.711328 10346 net.cpp:454] inception_5b/3x3 <- inception_5b/3x3_reduce
I1126 10:17:15.711334 10346 net.cpp:411] inception_5b/3x3 -> inception_5b/3x3
I1126 10:17:15.719497 10346 cudnn_conv_layer.cpp:194] Reallocating workspace storage: 7788
I1126 10:17:15.719574 10346 net.cpp:150] Setting up inception_5b/3x3
I1126 10:17:15.719593 10346 net.cpp:157] Top shape: 50 384 7 7 (940800)
I1126 10:17:15.719632 10346 net.cpp:165] Memory required for data: 2775914216
I1126 10:17:15.719645 10346 layer_factory.hpp:76] Creating layer inception_5b/prelu_3x3
I1126 10:17:15.719662 10346 net.cpp:106] Creating Layer inception_5b/prelu_3x3
I1126 10:17:15.719671 10346 net.cpp:454] inception_5b/prelu_3x3 <- inception_5b/3x3
I1126 10:17:15.719682 10346 net.cpp:397] inception_5b/prelu_3x3 -> inception_5b/3x3 (in-place)
I1126 10:17:15.719835 10346 net.cpp:150] Setting up inception_5b/prelu_3x3
I1126 10:17:15.719846 10346 net.cpp:157] Top shape: 50 384 7 7 (940800)
I1126 10:17:15.719849 10346 net.cpp:165] Memory required for data: 2779677416
I1126 10:17:15.719856 10346 layer_factory.hpp:76] Creating layer inception_5b/5x5_reduce
I1126 10:17:15.719871 10346 net.cpp:106] Creating Layer inception_5b/5x5_reduce
I1126 10:17:15.719877 10346 net.cpp:454] inception_5b/5x5_reduce <- inception_5a/output_inception_5a/output_0_split_2
I1126 10:17:15.719887 10346 net.cpp:411] inception_5b/5x5_reduce -> inception_5b/5x5_reduce
I1126 10:17:15.721765 10346 cudnn_conv_layer.cpp:194] Reallocating workspace storage: 7428
I1126 10:17:15.721814 10346 net.cpp:150] Setting up inception_5b/5x5_reduce
I1126 10:17:15.721824 10346 net.cpp:157] Top shape: 50 48 7 7 (117600)
I1126 10:17:15.721829 10346 net.cpp:165] Memory required for data: 2780147816
I1126 10:17:15.721838 10346 layer_factory.hpp:76] Creating layer inception_5b/prelu_5x5_reduce
I1126 10:17:15.721850 10346 net.cpp:106] Creating Layer inception_5b/prelu_5x5_reduce
I1126 10:17:15.721858 10346 net.cpp:454] inception_5b/prelu_5x5_reduce <- inception_5b/5x5_reduce
I1126 10:17:15.721866 10346 net.cpp:397] inception_5b/prelu_5x5_reduce -> inception_5b/5x5_reduce (in-place)
I1126 10:17:15.721993 10346 net.cpp:150] Setting up inception_5b/prelu_5x5_reduce
I1126 10:17:15.722002 10346 net.cpp:157] Top shape: 50 48 7 7 (117600)
I1126 10:17:15.722007 10346 net.cpp:165] Memory required for data: 2780618216
I1126 10:17:15.722013 10346 layer_factory.hpp:76] Creating layer inception_5b/5x5
I1126 10:17:15.722024 10346 net.cpp:106] Creating Layer inception_5b/5x5
I1126 10:17:15.722029 10346 net.cpp:454] inception_5b/5x5 <- inception_5b/5x5_reduce
I1126 10:17:15.722038 10346 net.cpp:411] inception_5b/5x5 -> inception_5b/5x5
I1126 10:17:15.724417 10346 cudnn_conv_layer.cpp:194] Reallocating workspace storage: 9804
I1126 10:17:15.724474 10346 net.cpp:150] Setting up inception_5b/5x5
I1126 10:17:15.724488 10346 net.cpp:157] Top shape: 50 128 7 7 (313600)
I1126 10:17:15.724494 10346 net.cpp:165] Memory required for data: 2781872616
I1126 10:17:15.724505 10346 layer_factory.hpp:76] Creating layer inception_5b/prelu_5x5
I1126 10:17:15.724516 10346 net.cpp:106] Creating Layer inception_5b/prelu_5x5
I1126 10:17:15.724524 10346 net.cpp:454] inception_5b/prelu_5x5 <- inception_5b/5x5
I1126 10:17:15.724537 10346 net.cpp:397] inception_5b/prelu_5x5 -> inception_5b/5x5 (in-place)
I1126 10:17:15.724696 10346 net.cpp:150] Setting up inception_5b/prelu_5x5
I1126 10:17:15.724710 10346 net.cpp:157] Top shape: 50 128 7 7 (313600)
I1126 10:17:15.724735 10346 net.cpp:165] Memory required for data: 2783127016
I1126 10:17:15.724766 10346 layer_factory.hpp:76] Creating layer inception_5b/pool
I1126 10:17:15.724776 10346 net.cpp:106] Creating Layer inception_5b/pool
I1126 10:17:15.724782 10346 net.cpp:454] inception_5b/pool <- inception_5a/output_inception_5a/output_0_split_3
I1126 10:17:15.724792 10346 net.cpp:411] inception_5b/pool -> inception_5b/pool
I1126 10:17:15.725015 10346 net.cpp:150] Setting up inception_5b/pool
I1126 10:17:15.725025 10346 net.cpp:157] Top shape: 50 832 7 7 (2038400)
I1126 10:17:15.725029 10346 net.cpp:165] Memory required for data: 2791280616
I1126 10:17:15.725034 10346 layer_factory.hpp:76] Creating layer inception_5b/pool_proj
I1126 10:17:15.725044 10346 net.cpp:106] Creating Layer inception_5b/pool_proj
I1126 10:17:15.725049 10346 net.cpp:454] inception_5b/pool_proj <- inception_5b/pool
I1126 10:17:15.725059 10346 net.cpp:411] inception_5b/pool_proj -> inception_5b/pool_proj
I1126 10:17:15.727563 10346 cudnn_conv_layer.cpp:194] Reallocating workspace storage: 7428
I1126 10:17:15.727639 10346 net.cpp:150] Setting up inception_5b/pool_proj
I1126 10:17:15.727651 10346 net.cpp:157] Top shape: 50 128 7 7 (313600)
I1126 10:17:15.727656 10346 net.cpp:165] Memory required for data: 2792535016
I1126 10:17:15.727665 10346 layer_factory.hpp:76] Creating layer inception_5b/prelu_pool_proj
I1126 10:17:15.727679 10346 net.cpp:106] Creating Layer inception_5b/prelu_pool_proj
I1126 10:17:15.727686 10346 net.cpp:454] inception_5b/prelu_pool_proj <- inception_5b/pool_proj
I1126 10:17:15.727695 10346 net.cpp:397] inception_5b/prelu_pool_proj -> inception_5b/pool_proj (in-place)
I1126 10:17:15.727797 10346 net.cpp:150] Setting up inception_5b/prelu_pool_proj
I1126 10:17:15.727805 10346 net.cpp:157] Top shape: 50 128 7 7 (313600)
I1126 10:17:15.727809 10346 net.cpp:165] Memory required for data: 2793789416
I1126 10:17:15.727815 10346 layer_factory.hpp:76] Creating layer inception_5b/output
I1126 10:17:15.727823 10346 net.cpp:106] Creating Layer inception_5b/output
I1126 10:17:15.727828 10346 net.cpp:454] inception_5b/output <- inception_5b/1x1
I1126 10:17:15.727836 10346 net.cpp:454] inception_5b/output <- inception_5b/3x3
I1126 10:17:15.727841 10346 net.cpp:454] inception_5b/output <- inception_5b/5x5
I1126 10:17:15.727846 10346 net.cpp:454] inception_5b/output <- inception_5b/pool_proj
I1126 10:17:15.727852 10346 net.cpp:411] inception_5b/output -> inception_5b/output
I1126 10:17:15.727890 10346 net.cpp:150] Setting up inception_5b/output
I1126 10:17:15.727900 10346 net.cpp:157] Top shape: 50 1024 7 7 (2508800)
I1126 10:17:15.727905 10346 net.cpp:165] Memory required for data: 2803824616
I1126 10:17:15.727910 10346 layer_factory.hpp:76] Creating layer pool5/7x7_s1
I1126 10:17:15.727918 10346 net.cpp:106] Creating Layer pool5/7x7_s1
I1126 10:17:15.727923 10346 net.cpp:454] pool5/7x7_s1 <- inception_5b/output
I1126 10:17:15.727932 10346 net.cpp:411] pool5/7x7_s1 -> pool5/7x7_s1
I1126 10:17:15.728391 10346 net.cpp:150] Setting up pool5/7x7_s1
I1126 10:17:15.728404 10346 net.cpp:157] Top shape: 50 1024 1 1 (51200)
I1126 10:17:15.728409 10346 net.cpp:165] Memory required for data: 2804029416
I1126 10:17:15.728413 10346 layer_factory.hpp:76] Creating layer pool5/drop_7x7_s1
I1126 10:17:15.728423 10346 net.cpp:106] Creating Layer pool5/drop_7x7_s1
I1126 10:17:15.728430 10346 net.cpp:454] pool5/drop_7x7_s1 <- pool5/7x7_s1
I1126 10:17:15.728435 10346 net.cpp:397] pool5/drop_7x7_s1 -> pool5/7x7_s1 (in-place)
I1126 10:17:15.728466 10346 net.cpp:150] Setting up pool5/drop_7x7_s1
I1126 10:17:15.728473 10346 net.cpp:157] Top shape: 50 1024 1 1 (51200)
I1126 10:17:15.728478 10346 net.cpp:165] Memory required for data: 2804234216
I1126 10:17:15.728483 10346 layer_factory.hpp:76] Creating layer loss3/classifier2
I1126 10:17:15.728493 10346 net.cpp:106] Creating Layer loss3/classifier2
I1126 10:17:15.728498 10346 net.cpp:454] loss3/classifier2 <- pool5/7x7_s1
I1126 10:17:15.728507 10346 net.cpp:411] loss3/classifier2 -> loss3/classifier
I1126 10:17:15.728675 10346 net.cpp:150] Setting up loss3/classifier2
I1126 10:17:15.728685 10346 net.cpp:157] Top shape: 50 2 (100)
I1126 10:17:15.728690 10346 net.cpp:165] Memory required for data: 2804234616
I1126 10:17:15.728698 10346 layer_factory.hpp:76] Creating layer loss3/classifier_loss3/classifier2_0_split
I1126 10:17:15.728705 10346 net.cpp:106] Creating Layer loss3/classifier_loss3/classifier2_0_split
I1126 10:17:15.728711 10346 net.cpp:454] loss3/classifier_loss3/classifier2_0_split <- loss3/classifier
I1126 10:17:15.728749 10346 net.cpp:411] loss3/classifier_loss3/classifier2_0_split -> loss3/classifier_loss3/classifier2_0_split_0
I1126 10:17:15.728760 10346 net.cpp:411] loss3/classifier_loss3/classifier2_0_split -> loss3/classifier_loss3/classifier2_0_split_1
I1126 10:17:15.728811 10346 net.cpp:150] Setting up loss3/classifier_loss3/classifier2_0_split
I1126 10:17:15.728818 10346 net.cpp:157] Top shape: 50 2 (100)
I1126 10:17:15.728823 10346 net.cpp:157] Top shape: 50 2 (100)
I1126 10:17:15.728827 10346 net.cpp:165] Memory required for data: 2804235416
I1126 10:17:15.728842 10346 layer_factory.hpp:76] Creating layer loss3/loss3
I1126 10:17:15.728849 10346 net.cpp:106] Creating Layer loss3/loss3
I1126 10:17:15.728854 10346 net.cpp:454] loss3/loss3 <- loss3/classifier_loss3/classifier2_0_split_0
I1126 10:17:15.728860 10346 net.cpp:454] loss3/loss3 <- label_data_1_split_4
…
