…
I1028 13:22:19.068516 28141 net.cpp:322] The NetState phase (0) differed from the phase (1) specified by a rule in layer loss3/top-1
I1028 13:22:19.069442 28141 net.cpp:49] Initializing net from parameters: 
name: "GoogleNet"
state {
  phase: TRAIN
}
layer {
  name: "data"
  type: "Data"
  top: "data"
  top: "label"
  include {
    phase: TRAIN
  }
  transform_param {
    mirror: true
    crop_size: 224
    mean_value: 104
    mean_value: 117
    mean_value: 123
  }
  data_param {
    source: "../../LMDB/train_3-lmdb"
    batch_size: 32
    backend: LMDB
  }
}
layer {
  name: "conv1/7x7_s2"
  type: "Convolution"
  bottom: "data"
  top: "conv1/7x7_s2"
  param {
    lr_mult: 1
    decay_mult: 1
  }
  param {
    lr_mult: 2
    decay_mult: 0
  }
  convolution_param {
    num_output: 64
    pad: 3
    kernel_size: 7
    stride: 2
    weight_filler {
      type: "xavier"
    }
    bias_filler {
      type: "constant"
      value: 0.2
    }
  }
}
layer {
  name: "conv1/prelu_7x7"
  type: "PReLU"
  bottom: "conv1/7x7_s2"
  top: "conv1/7x7_s2"
  param {
    lr_mult: 1
    decay_mult: 0
  }
  prelu_param {
    filler {
      type: "constant"
      value: 0.01
    }
  }
}
layer {
  name: "pool1/3x3_s2"
  type: "Pooling"
  bottom: "conv1/7x7_s2"
  top: "pool1/3x3_s2"
  pooling_param {
    pool: MAX
    kernel_size: 3
    stride: 2
  }
}
layer {
  name: "pool1/norm1"
  type: "LRN"
  bottom: "pool1/3x3_s2"
  top: "pool1/norm1"
  lrn_param {
    local_size: 5
    alpha: 0.0001
    beta: 0.75
  }
}
layer {
  name: "conv2/3x3_reduce"
  type: "Convolution"
  bottom: "pool1/norm1"
  top: "conv2/3x3_reduce"
  param {
    lr_mult: 1
    decay_mult: 1
  }
  param {
    lr_mult: 2
    decay_mult: 0
  }
  convolution_param {
    num_output: 64
    kernel_size: 1
    weight_filler {
      type: "xavier"
    }
    bias_filler {
      type: "constant"
      value: 0.2
    }
  }
}
layer {
  name: "conv2/prelu_3x3_reduce"
  type: "PReLU"
  bottom: "conv2/3x3_reduce"
  top: "conv2/3x3_reduce"
  param {
    lr_mult: 1
    decay_mult: 0
  }
  prelu_param {
    filler {
      type: "constant"
      value: 0.01
    }
  }
}
layer {
  name: "conv2/3x3"
  type: "Convolution"
  bottom: "conv2/3x3_reduce"
  top: "conv2/3x3"
  param {
    lr_mult: 1
    decay_mult: 1
  }
  param {
    lr_mult: 2
    decay_mult: 0
  }
  convolution_param {
    num_output: 192
    pad: 1
    kernel_size: 3
    weight_filler {
      type: "xavier"
    }
    bias_filler {
      type: "constant"
      value: 0.2
    }
  }
}
layer {
  name: "conv2/prelu_3x3"
  type: "PReLU"
  bottom: "conv2/3x3"
  top: "conv2/3x3"
  param {
    lr_mult: 1
    decay_mult: 0
  }
  prelu_param {
    filler {
      type: "constant"
      value: 0.01
    }
  }
}
layer {
  name: "conv2/norm2"
  type: "LRN"
  bottom: "conv2/3x3"
  top: "conv2/norm2"
  lrn_param {
    local_size: 5
    alpha: 0.0001
    beta: 0.75
  }
}
layer {
  name: "pool2/3x3_s2"
  type: "Pooling"
  bottom: "conv2/norm2"
  top: "pool2/3x3_s2"
  pooling_param {
    pool: MAX
    kernel_size: 3
    stride: 2
  }
}
layer {
  name: "inception_3a/1x1"
  type: "Convolution"
  bottom: "pool2/3x3_s2"
  top: "inception_3a/1x1"
  param {
    lr_mult: 1
    decay_mult: 1
  }
  param {
    lr_mult: 2
    decay_mult: 0
  }
  convolution_param {
    num_output: 64
    kernel_size: 1
    weight_filler {
      type: "xavier"
    }
    bias_filler {
      type: "constant"
      value: 0.2
    }
  }
}
layer {
  name: "inception_3a/prelu_1x1"
  type: "PReLU"
  bottom: "inception_3a/1x1"
  top: "inception_3a/1x1"
  param {
    lr_mult: 1
    decay_mult: 0
  }
  prelu_param {
    filler {
      type: "constant"
      value: 0.01
    }
  }
}
layer {
  name: "inception_3a/3x3_reduce"
  type: "Convolution"
  bottom: "pool2/3x3_s2"
  top: "inception_3a/3x3_reduce"
  param {
    lr_mult: 1
    decay_mult: 1
  }
  param {
    lr_mult: 2
    decay_mult: 0
  }
  convolution_param {
    num_output: 96
    kernel_size: 1
    weight_filler {
      type: "xavier"
    }
    bias_filler {
      type: "constant"
      value: 0.2
    }
  }
}
layer {
  name: "inception_3a/prelu_3x3_reduce"
  type: "PReLU"
  bottom: "inception_3a/3x3_reduce"
  top: "inception_3a/3x3_reduce"
  param {
    lr_mult: 1
    decay_mult: 0
  }
  prelu_param {
    filler {
      type: "constant"
      value: 0.01
    }
  }
}
layer {
  name: "inception_3a/3x3"
  type: "Convolution"
  bottom: "inception_3a/3x3_reduce"
  top: "inception_3a/3x3"
  param {
    lr_mult: 1
    decay_mult: 1
  }
  param {
    lr_mult: 2
    decay_mult: 0
  }
  convolution_param {
    num_output: 128
    pad: 1
    kernel_size: 3
    weight_filler {
      type: "xavier"
    }
    bias_filler {
      type: "constant"
      value: 0.2
    }
  }
}
layer {
  name: "inception_3a/prelu_3x3"
  type: "PReLU"
  bottom: "inception_3a/3x3"
  top: "inception_3a/3x3"
  param {
    lr_mult: 1
    decay_mult: 0
  }
  prelu_param {
    filler {
      type: "constant"
      value: 0.01
    }
  }
}
layer {
  name: "inception_3a/5x5_reduce"
  type: "Convolution"
  bottom: "pool2/3x3_s2"
  top: "inception_3a/5x5_reduce"
  param {
    lr_mult: 1
    decay_mult: 1
  }
  param {
    lr_mult: 2
    decay_mult: 0
  }
  convolution_param {
    num_output: 16
    kernel_size: 1
    weight_filler {
      type: "xavier"
    }
    bias_filler {
      type: "constant"
      value: 0.2
    }
  }
}
layer {
  name: "inception_3a/prelu_5x5_reduce"
  type: "PReLU"
  bottom: "inception_3a/5x5_reduce"
  top: "inception_3a/5x5_reduce"
  param {
    lr_mult: 1
    decay_mult: 0
  }
  prelu_param {
    filler {
      type: "constant"
      value: 0.01
    }
  }
}
layer {
  name: "inception_3a/5x5"
  type: "Convolution"
  bottom: "inception_3a/5x5_reduce"
  top: "inception_3a/5x5"
  param {
    lr_mult: 1
    decay_mult: 1
  }
  param {
    lr_mult: 2
    decay_mult: 0
  }
  convolution_param {
    num_output: 32
    pad: 2
    kernel_size: 5
    weight_filler {
      type: "xavier"
    }
    bias_filler {
      type: "constant"
      value: 0.2
    }
  }
}
layer {
  name: "inception_3a/prelu_5x5"
  type: "PReLU"
  bottom: "inception_3a/5x5"
  top: "inception_3a/5x5"
  param {
    lr_mult: 1
    decay_mult: 0
  }
  prelu_param {
    filler {
      type: "constant"
      value: 0.01
    }
  }
}
layer {
  name: "inception_3a/pool"
  type: "Pooling"
  bottom: "pool2/3x3_s2"
  top: "inception_3a/pool"
  pooling_param {
    pool: MAX
    kernel_size: 3
    stride: 1
    pad: 1
  }
}
layer {
  name: "inception_3a/pool_proj"
  type: "Convolution"
  bottom: "inception_3a/pool"
  top: "inception_3a/pool_proj"
  param {
    lr_mult: 1
    decay_mult: 1
  }
  param {
    lr_mult: 2
    decay_mult: 0
  }
  convolution_param {
    num_output: 32
    kernel_size: 1
    weight_filler {
      type: "xavier"
    }
    bias_filler {
      type: "constant"
      value: 0.2
    }
  }
}
layer {
  name: "inception_3a/prelu_pool_proj"
  type: "PReLU"
  bottom: "inception_3a/pool_proj"
  top: "inception_3a/pool_proj"
  param {
    lr_mult: 1
    decay_mult: 0
  }
  prelu_param {
    filler {
      type: "constant"
      value: 0.01
    }
  }
}
layer {
  name: "inception_3a/output"
  type: "Concat"
  bottom: "inception_3a/1x1"
  bottom: "inception_3a/3x3"
  bottom: "inception_3a/5x5"
  bottom: "inception_3a/pool_proj"
  top: "inception_3a/output"
}
layer {
  name: "inception_3b/1x1"
  type: "Convolution"
  bottom: "inception_3a/output"
  top: "inception_3b/1x1"
  param {
    lr_mult: 1
    decay_mult: 1
  }
  param {
    lr_mult: 2
    decay_mult: 0
  }
  convolution_param {
    num_output: 128
    kernel_size: 1
    weight_filler {
      type: "xavier"
    }
    bias_filler {
      type: "constant"
      value: 0.2
    }
  }
}
layer {
  name: "inception_3b/prelu_1x1"
  type: "PReLU"
  bottom: "inception_3b/1x1"
  top: "inception_3b/1x1"
  param {
    lr_mult: 1
    decay_mult: 0
  }
  prelu_param {
    filler {
      type: "constant"
      value: 0.01
    }
  }
}
layer {
  name: "inception_3b/3x3_reduce"
  type: "Convolution"
  bottom: "inception_3a/output"
  top: "inception_3b/3x3_reduce"
  param {
    lr_mult: 1
    decay_mult: 1
  }
  param {
    lr_mult: 2
    decay_mult: 0
  }
  convolution_param {
    num_output: 128
    kernel_size: 1
    weight_filler {
      type: "xavier"
    }
    bias_filler {
      type: "constant"
      value: 0.2
    }
  }
}
layer {
  name: "inception_3b/prelu_3x3_reduce"
  type: "PReLU"
  bottom: "inception_3b/3x3_reduce"
  top: "inception_3b/3x3_reduce"
  param {
    lr_mult: 1
    decay_mult: 0
  }
  prelu_param {
    filler {
      type: "constant"
      value: 0.01
    }
  }
}
layer {
  name: "inception_3b/3x3"
  type: "Convolution"
  bottom: "inception_3b/3x3_reduce"
  top: "inception_3b/3x3"
  param {
    lr_mult: 1
    decay_mult: 1
  }
  param {
    lr_mult: 2
    decay_mult: 0
  }
  convolution_param {
    num_output: 192
    pad: 1
    kernel_size: 3
    weight_filler {
      type: "xavier"
    }
    bias_filler {
      type: "constant"
      value: 0.2
    }
  }
}
layer {
  name: "inception_3b/prelu_3x3"
  type: "PReLU"
  bottom: "inception_3b/3x3"
  top: "inception_3b/3x3"
  param {
    lr_mult: 1
    decay_mult: 0
  }
  prelu_param {
    filler {
      type: "constant"
      value: 0.01
    }
  }
}
layer {
  name: "inception_3b/5x5_reduce"
  type: "Convolution"
  bottom: "inception_3a/output"
  top: "inception_3b/5x5_reduce"
  param {
    lr_mult: 1
    decay_mult: 1
  }
  param {
    lr_mult: 2
    decay_mult: 0
  }
  convolution_param {
    num_output: 32
    kernel_size: 1
    weight_filler {
      type: "xavier"
    }
    bias_filler {
      type: "constant"
      value: 0.2
    }
  }
}
layer {
  name: "inception_3b/prelu_5x5_reduce"
  type: "PReLU"
  bottom: "inception_3b/5x5_reduce"
  top: "inception_3b/5x5_reduce"
  param {
    lr_mult: 1
    decay_mult: 0
  }
  prelu_param {
    filler {
      type: "constant"
      value: 0.01
    }
  }
}
layer {
  name: "inception_3b/5x5"
  type: "Convolution"
  bottom: "inception_3b/5x5_reduce"
  top: "inception_3b/5x5"
  param {
    lr_mult: 1
    decay_mult: 1
  }
  param {
    lr_mult: 2
    decay_mult: 0
  }
  convolution_param {
    num_output: 96
    pad: 2
    kernel_size: 5
    weight_filler {
      type: "xavier"
    }
    bias_filler {
      type: "constant"
      value: 0.2
    }
  }
}
layer {
  name: "inception_3b/prelu_5x5"
  type: "PReLU"
  bottom: "inception_3b/5x5"
  top: "inception_3b/5x5"
  param {
    lr_mult: 1
    decay_mult: 0
  }
  prelu_param {
    filler {
      type: "constant"
      value: 0.01
    }
  }
}
layer {
  name: "inception_3b/pool"
  type: "Pooling"
  bottom: "inception_3a/output"
  top: "inception_3b/pool"
  pooling_param {
    pool: MAX
    kernel_size: 3
    stride: 1
    pad: 1
  }
}
layer {
  name: "inception_3b/pool_proj"
  type: "Convolution"
  bottom: "inception_3b/pool"
  top: "inception_3b/pool_proj"
  param {
    lr_mult: 1
    decay_mult: 1
  }
  param {
    lr_mult: 2
    decay_mult: 0
  }
  convolution_param {
    num_output: 64
    kernel_size: 1
    weight_filler {
      type: "xavier"
    }
    bias_filler {
      type: "constant"
      value: 0.2
    }
  }
}
layer {
  name: "inception_3b/prelu_pool_proj"
  type: "PReLU"
  bottom: "inception_3b/pool_proj"
  top: "inception_3b/pool_proj"
  param {
    lr_mult: 1
    decay_mult: 0
  }
  prelu_param {
    filler {
      type: "constant"
      value: 0.01
    }
  }
}
layer {
  name: "inception_3b/output"
  type: "Concat"
  bottom: "inception_3b/1x1"
  bottom: "inception_3b/3x3"
  bottom: "inception_3b/5x5"
  bottom: "inception_3b/pool_proj"
  top: "inception_3b/output"
}
layer {
  name: "pool3/3x3_s2"
  type: "Pooling"
  bottom: "inception_3b/output"
  top: "pool3/3x3_s2"
  pooling_param {
    pool: MAX
    kernel_size: 3
    stride: 2
  }
}
layer {
  name: "inception_4a/1x1"
  type: "Convolution"
  bottom: "pool3/3x3_s2"
  top: "inception_4a/1x1"
  param {
    lr_mult: 1
    decay_mult: 1
  }
  param {
    lr_mult: 2
    decay_mult: 0
  }
  convolution_param {
    num_output: 192
    kernel_size: 1
    weight_filler {
      type: "xavier"
    }
    bias_filler {
      type: "constant"
      value: 0.2
    }
  }
}
layer {
  name: "inception_4a/prelu_1x1"
  type: "PReLU"
  bottom: "inception_4a/1x1"
  top: "inception_4a/1x1"
  param {
    lr_mult: 1
    decay_mult: 0
  }
  prelu_param {
    filler {
      type: "constant"
      value: 0.01
    }
  }
}
layer {
  name: "inception_4a/3x3_reduce"
  type: "Convolution"
  bottom: "pool3/3x3_s2"
  top: "inception_4a/3x3_reduce"
  param {
    lr_mult: 1
    decay_mult: 1
  }
  param {
    lr_mult: 2
    decay_mult: 0
  }
  convolution_param {
    num_output: 96
    kernel_size: 1
    weight_filler {
      type: "xavier"
    }
    bias_filler {
      type: "constant"
      value: 0.2
    }
  }
}
layer {
  name: "inception_4a/prelu_3x3_reduce"
  type: "PReLU"
  bottom: "inception_4a/3x3_reduce"
  top: "inception_4a/3x3_reduce"
  param {
    lr_mult: 1
    decay_mult: 0
  }
  prelu_param {
    filler {
      type: "constant"
      value: 0.01
    }
  }
}
layer {
  name: "inception_4a/3x3"
  type: "Convolution"
  bottom: "inception_4a/3x3_reduce"
  top: "inception_4a/3x3"
  param {
    lr_mult: 1
    decay_mult: 1
  }
  param {
    lr_mult: 2
    decay_mult: 0
  }
  convolution_param {
    num_output: 208
    pad: 1
    kernel_size: 3
    weight_filler {
      type: "xavier"
    }
    bias_filler {
      type: "constant"
      value: 0.2
    }
  }
}
layer {
  name: "inception_4a/prelu_3x3"
  type: "PReLU"
  bottom: "inception_4a/3x3"
  top: "inception_4a/3x3"
  param {
    lr_mult: 1
    decay_mult: 0
  }
  prelu_param {
    filler {
      type: "constant"
      value: 0.01
    }
  }
}
layer {
  name: "inception_4a/5x5_reduce"
  type: "Convolution"
  bottom: "pool3/3x3_s2"
  top: "inception_4a/5x5_reduce"
  param {
    lr_mult: 1
    decay_mult: 1
  }
  param {
    lr_mult: 2
    decay_mult: 0
  }
  convolution_param {
    num_output: 16
    kernel_size: 1
    weight_filler {
      type: "xavier"
    }
    bias_filler {
      type: "constant"
      value: 0.2
    }
  }
}
layer {
  name: "inception_4a/prelu_5x5_reduce"
  type: "PReLU"
  bottom: "inception_4a/5x5_reduce"
  top: "inception_4a/5x5_reduce"
  param {
    lr_mult: 1
    decay_mult: 0
  }
  prelu_param {
    filler {
      type: "constant"
      value: 0.01
    }
  }
}
layer {
  name: "inception_4a/5x5"
  type: "Convolution"
  bottom: "inception_4a/5x5_reduce"
  top: "inception_4a/5x5"
  param {
    lr_mult: 1
    decay_mult: 1
  }
  param {
    lr_mult: 2
    decay_mult: 0
  }
  convolution_param {
    num_output: 48
    pad: 2
    kernel_size: 5
    weight_filler {
      type: "xavier"
    }
    bias_filler {
      type: "constant"
      value: 0.2
    }
  }
}
layer {
  name: "inception_4a/prelu_5x5"
  type: "PReLU"
  bottom: "inception_4a/5x5"
  top: "inception_4a/5x5"
  param {
    lr_mult: 1
    decay_mult: 0
  }
  prelu_param {
    filler {
      type: "constant"
      value: 0.01
    }
  }
}
layer {
  name: "inception_4a/pool"
  type: "Pooling"
  bottom: "pool3/3x3_s2"
  top: "inception_4a/pool"
  pooling_param {
    pool: MAX
    kernel_size: 3
    stride: 1
    pad: 1
  }
}
layer {
  name: "inception_4a/pool_proj"
  type: "Convolution"
  bottom: "inception_4a/pool"
  top: "inception_4a/pool_proj"
  param {
    lr_mult: 1
    decay_mult: 1
  }
  param {
    lr_mult: 2
    decay_mult: 0
  }
  convolution_param {
    num_output: 64
    kernel_size: 1
    weight_filler {
      type: "xavier"
    }
    bias_filler {
      type: "constant"
      value: 0.2
    }
  }
}
layer {
  name: "inception_4a/prelu_pool_proj"
  type: "PReLU"
  bottom: "inception_4a/pool_proj"
  top: "inception_4a/pool_proj"
  param {
    lr_mult: 1
    decay_mult: 0
  }
  prelu_param {
    filler {
      type: "constant"
      value: 0.01
    }
  }
}
layer {
  name: "inception_4a/output"
  type: "Concat"
  bottom: "inception_4a/1x1"
  bottom: "inception_4a/3x3"
  bottom: "inception_4a/5x5"
  bottom: "inception_4a/pool_proj"
  top: "inception_4a/output"
}
layer {
  name: "loss1/ave_pool"
  type: "Pooling"
  bottom: "inception_4a/output"
  top: "loss1/ave_pool"
  pooling_param {
    pool: AVE
    kernel_size: 5
    stride: 3
  }
}
layer {
  name: "loss1/conv"
  type: "Convolution"
  bottom: "loss1/ave_pool"
  top: "loss1/conv"
  param {
    lr_mult: 1
    decay_mult: 1
  }
  param {
    lr_mult: 2
    decay_mult: 0
  }
  convolution_param {
    num_output: 128
    kernel_size: 1
    weight_filler {
      type: "xavier"
    }
    bias_filler {
      type: "constant"
      value: 0.2
    }
  }
}
layer {
  name: "loss1/prelu_conv"
  type: "PReLU"
  bottom: "loss1/conv"
  top: "loss1/conv"
  param {
    lr_mult: 1
    decay_mult: 0
  }
  prelu_param {
    filler {
      type: "constant"
      value: 0.01
    }
  }
}
layer {
  name: "loss1/fc"
  type: "InnerProduct"
  bottom: "loss1/conv"
  top: "loss1/fc"
  param {
    lr_mult: 1
    decay_mult: 1
  }
  param {
    lr_mult: 2
    decay_mult: 0
  }
  inner_product_param {
    num_output: 1024
    weight_filler {
      type: "xavier"
    }
    bias_filler {
      type: "constant"
      value: 0.2
    }
  }
}
layer {
  name: "loss1/prelu_fc"
  type: "PReLU"
  bottom: "loss1/fc"
  top: "loss1/fc"
  param {
    lr_mult: 1
    decay_mult: 0
  }
  prelu_param {
    filler {
      type: "constant"
      value: 0.01
    }
  }
}
layer {
  name: "loss1/drop_fc"
  type: "Dropout"
  bottom: "loss1/fc"
  top: "loss1/fc"
  dropout_param {
    dropout_ratio: 0.7
  }
}
layer {
  name: "loss1/classifier2"
  type: "InnerProduct"
  bottom: "loss1/fc"
  top: "loss1/classifier"
  param {
    lr_mult: 1
    decay_mult: 1
  }
  param {
    lr_mult: 2
    decay_mult: 0
  }
  inner_product_param {
    num_output: 2
    weight_filler {
      type: "xavier"
    }
    bias_filler {
      type: "constant"
      value: 0
    }
  }
}
layer {
  name: "loss1/loss"
  type: "SoftmaxWithLoss"
  bottom: "loss1/classifier"
  bottom: "label"
  top: "loss1/loss1"
  loss_weight: 0.3
}
layer {
  name: "inception_4b/1x1"
  type: "Convolution"
  bottom: "inception_4a/output"
  top: "inception_4b/1x1"
  param {
    lr_mult: 1
    decay_mult: 1
  }
  param {
    lr_mult: 2
    decay_mult: 0
  }
  convolution_param {
    num_output: 160
    kernel_size: 1
    weight_filler {
      type: "xavier"
    }
    bias_filler {
      type: "constant"
      value: 0.2
    }
  }
}
layer {
  name: "inception_4b/prelu_1x1"
  type: "PReLU"
  bottom: "inception_4b/1x1"
  top: "inception_4b/1x1"
  param {
    lr_mult: 1
    decay_mult: 0
  }
  prelu_param {
    filler {
      type: "constant"
      value: 0.01
    }
  }
}
layer {
  name: "inception_4b/3x3_reduce"
  type: "Convolution"
  bottom: "inception_4a/output"
  top: "inception_4b/3x3_reduce"
  param {
    lr_mult: 1
    decay_mult: 1
  }
  param {
    lr_mult: 2
    decay_mult: 0
  }
  convolution_param {
    num_output: 112
    kernel_size: 1
    weight_filler {
      type: "xavier"
    }
    bias_filler {
      type: "constant"
      value: 0.2
    }
  }
}
layer {
  name: "inception_4b/prelu_3x3_reduce"
  type: "PReLU"
  bottom: "inception_4b/3x3_reduce"
  top: "inception_4b/3x3_reduce"
  param {
    lr_mult: 1
    decay_mult: 0
  }
  prelu_param {
    filler {
      type: "constant"
      value: 0.01
    }
  }
}
layer {
  name: "inception_4b/3x3"
  type: "Convolution"
  bottom: "inception_4b/3x3_reduce"
  top: "inception_4b/3x3"
  param {
    lr_mult: 1
    decay_mult: 1
  }
  param {
    lr_mult: 2
    decay_mult: 0
  }
  convolution_param {
    num_output: 224
    pad: 1
    kernel_size: 3
    weight_filler {
      type: "xavier"
    }
    bias_filler {
      type: "constant"
      value: 0.2
    }
  }
}
layer {
  name: "inception_4b/prelu_3x3"
  type: "PReLU"
  bottom: "inception_4b/3x3"
  top: "inception_4b/3x3"
  param {
    lr_mult: 1
    decay_mult: 0
  }
  prelu_param {
    filler {
      type: "constant"
      value: 0.01
    }
  }
}
layer {
  name: "inception_4b/5x5_reduce"
  type: "Convolution"
  bottom: "inception_4a/output"
  top: "inception_4b/5x5_reduce"
  param {
    lr_mult: 1
    decay_mult: 1
  }
  param {
    lr_mult: 2
    decay_mult: 0
  }
  convolution_param {
    num_output: 24
    kernel_size: 1
    weight_filler {
      type: "xavier"
    }
    bias_filler {
      type: "constant"
      value: 0.2
    }
  }
}
layer {
  name: "inception_4b/prelu_5x5_reduce"
  type: "PReLU"
  bottom: "inception_4b/5x5_reduce"
  top: "inception_4b/5x5_reduce"
  param {
    lr_mult: 1
    decay_mult: 0
  }
  prelu_param {
    filler {
      type: "constant"
      value: 0.01
    }
  }
}
layer {
  name: "inception_4b/5x5"
  type: "Convolution"
  bottom: "inception_4b/5x5_reduce"
  top: "inception_4b/5x5"
  param {
    lr_mult: 1
    decay_mult: 1
  }
  param {
    lr_mult: 2
    decay_mult: 0
  }
  convolution_param {
    num_output: 64
    pad: 2
    kernel_size: 5
    weight_filler {
      type: "xavier"
    }
    bias_filler {
      type: "constant"
      value: 0.2
    }
  }
}
layer {
  name: "inception_4b/prelu_5x5"
  type: "PReLU"
  bottom: "inception_4b/5x5"
  top: "inception_4b/5x5"
  param {
    lr_mult: 1
    decay_mult: 0
  }
  prelu_param {
    filler {
      type: "constant"
      value: 0.01
    }
  }
}
layer {
  name: "inception_4b/pool"
  type: "Pooling"
  bottom: "inception_4a/output"
  top: "inception_4b/pool"
  pooling_param {
    pool: MAX
    kernel_size: 3
    stride: 1
    pad: 1
  }
}
layer {
  name: "inception_4b/pool_proj"
  type: "Convolution"
  bottom: "inception_4b/pool"
  top: "inception_4b/pool_proj"
  param {
    lr_mult: 1
    decay_mult: 1
  }
  param {
    lr_mult: 2
    decay_mult: 0
  }
  convolution_param {
    num_output: 64
    kernel_size: 1
    weight_filler {
      type: "xavier"
    }
    bias_filler {
      type: "constant"
      value: 0.2
    }
  }
}
layer {
  name: "inception_4b/prelu_pool_proj"
  type: "PReLU"
  bottom: "inception_4b/pool_proj"
  top: "inception_4b/pool_proj"
  param {
    lr_mult: 1
    decay_mult: 0
  }
  prelu_param {
    filler {
      type: "constant"
      value: 0.01
    }
  }
}
layer {
  name: "inception_4b/output"
  type: "Concat"
  bottom: "inception_4b/1x1"
  bottom: "inception_4b/3x3"
  bottom: "inception_4b/5x5"
  bottom: "inception_4b/pool_proj"
  top: "inception_4b/output"
}
layer {
  name: "inception_4c/1x1"
  type: "Convolution"
  bottom: "inception_4b/output"
  top: "inception_4c/1x1"
  param {
    lr_mult: 1
    decay_mult: 1
  }
  param {
    lr_mult: 2
    decay_mult: 0
  }
  convolution_param {
    num_output: 128
    kernel_size: 1
    weight_filler {
      type: "xavier"
    }
    bias_filler {
      type: "constant"
      value: 0.2
    }
  }
}
layer {
  name: "inception_4c/prelu_1x1"
  type: "PReLU"
  bottom: "inception_4c/1x1"
  top: "inception_4c/1x1"
  param {
    lr_mult: 1
    decay_mult: 0
  }
  prelu_param {
    filler {
      type: "constant"
      value: 0.01
    }
  }
}
layer {
  name: "inception_4c/3x3_reduce"
  type: "Convolution"
  bottom: "inception_4b/output"
  top: "inception_4c/3x3_reduce"
  param {
    lr_mult: 1
    decay_mult: 1
  }
  param {
    lr_mult: 2
    decay_mult: 0
  }
  convolution_param {
    num_output: 128
    kernel_size: 1
    weight_filler {
      type: "xavier"
    }
    bias_filler {
      type: "constant"
      value: 0.2
    }
  }
}
layer {
  name: "inception_4c/prelu_3x3_reduce"
  type: "PReLU"
  bottom: "inception_4c/3x3_reduce"
  top: "inception_4c/3x3_reduce"
  param {
    lr_mult: 1
    decay_mult: 0
  }
  prelu_param {
    filler {
      type: "constant"
      value: 0.01
    }
  }
}
layer {
  name: "inception_4c/3x3"
  type: "Convolution"
  bottom: "inception_4c/3x3_reduce"
  top: "inception_4c/3x3"
  param {
    lr_mult: 1
    decay_mult: 1
  }
  param {
    lr_mult: 2
    decay_mult: 0
  }
  convolution_param {
    num_output: 256
    pad: 1
    kernel_size: 3
    weight_filler {
      type: "xavier"
    }
    bias_filler {
      type: "constant"
      value: 0.2
    }
  }
}
layer {
  name: "inception_4c/prelu_3x3"
  type: "PReLU"
  bottom: "inception_4c/3x3"
  top: "inception_4c/3x3"
  param {
    lr_mult: 1
    decay_mult: 0
  }
  prelu_param {
    filler {
      type: "constant"
      value: 0.01
    }
  }
}
layer {
  name: "inception_4c/5x5_reduce"
  type: "Convolution"
  bottom: "inception_4b/output"
  top: "inception_4c/5x5_reduce"
  param {
    lr_mult: 1
    decay_mult: 1
  }
  param {
    lr_mult: 2
    decay_mult: 0
  }
  convolution_param {
    num_output: 24
    kernel_size: 1
    weight_filler {
      type: "xavier"
    }
    bias_filler {
      type: "constant"
      value: 0.2
    }
  }
}
layer {
  name: "inception_4c/prelu_5x5_reduce"
  type: "PReLU"
  bottom: "inception_4c/5x5_reduce"
  top: "inception_4c/5x5_reduce"
  param {
    lr_mult: 1
    decay_mult: 0
  }
  prelu_param {
    filler {
      type: "constant"
      value: 0.01
    }
  }
}
layer {
  name: "inception_4c/5x5"
  type: "Convolution"
  bottom: "inception_4c/5x5_reduce"
  top: "inception_4c/5x5"
  param {
    lr_mult: 1
    decay_mult: 1
  }
  param {
    lr_mult: 2
    decay_mult: 0
  }
  convolution_param {
    num_output: 64
    pad: 2
    kernel_size: 5
    weight_filler {
      type: "xavier"
    }
    bias_filler {
      type: "constant"
      value: 0.2
    }
  }
}
layer {
  name: "inception_4c/prelu_5x5"
  type: "PReLU"
  bottom: "inception_4c/5x5"
  top: "inception_4c/5x5"
  param {
    lr_mult: 1
    decay_mult: 0
  }
  prelu_param {
    filler {
      type: "constant"
      value: 0.01
    }
  }
}
layer {
  name: "inception_4c/pool"
  type: "Pooling"
  bottom: "inception_4b/output"
  top: "inception_4c/pool"
  pooling_param {
    pool: MAX
    kernel_size: 3
    stride: 1
    pad: 1
  }
}
layer {
  name: "inception_4c/pool_proj"
  type: "Convolution"
  bottom: "inception_4c/pool"
  top: "inception_4c/pool_proj"
  param {
    lr_mult: 1
    decay_mult: 1
  }
  param {
    lr_mult: 2
    decay_mult: 0
  }
  convolution_param {
    num_output: 64
    kernel_size: 1
    weight_filler {
      type: "xavier"
    }
    bias_filler {
      type: "constant"
      value: 0.2
    }
  }
}
layer {
  name: "inception_4c/prelu_pool_proj"
  type: "PReLU"
  bottom: "inception_4c/pool_proj"
  top: "inception_4c/pool_proj"
  param {
    lr_mult: 1
    decay_mult: 0
  }
  prelu_param {
    filler {
      type: "constant"
      value: 0.01
    }
  }
}
layer {
  name: "inception_4c/output"
  type: "Concat"
  bottom: "inception_4c/1x1"
  bottom: "inception_4c/3x3"
  bottom: "inception_4c/5x5"
  bottom: "inception_4c/pool_proj"
  top: "inception_4c/output"
}
layer {
  name: "inception_4d/1x1"
  type: "Convolution"
  bottom: "inception_4c/output"
  top: "inception_4d/1x1"
  param {
    lr_mult: 1
    decay_mult: 1
  }
  param {
    lr_mult: 2
    decay_mult: 0
  }
  convolution_param {
    num_output: 112
    kernel_size: 1
    weight_filler {
      type: "xavier"
    }
    bias_filler {
      type: "constant"
      value: 0.2
    }
  }
}
layer {
  name: "inception_4d/prelu_1x1"
  type: "PReLU"
  bottom: "inception_4d/1x1"
  top: "inception_4d/1x1"
  param {
    lr_mult: 1
    decay_mult: 0
  }
  prelu_param {
    filler {
      type: "constant"
      value: 0.01
    }
  }
}
layer {
  name: "inception_4d/3x3_reduce"
  type: "Convolution"
  bottom: "inception_4c/output"
  top: "inception_4d/3x3_reduce"
  param {
    lr_mult: 1
    decay_mult: 1
  }
  param {
    lr_mult: 2
    decay_mult: 0
  }
  convolution_param {
    num_output: 144
    kernel_size: 1
    weight_filler {
      type: "xavier"
    }
    bias_filler {
      type: "constant"
      value: 0.2
    }
  }
}
layer {
  name: "inception_4d/prelu_3x3_reduce"
  type: "PReLU"
  bottom: "inception_4d/3x3_reduce"
  top: "inception_4d/3x3_reduce"
  param {
    lr_mult: 1
    decay_mult: 0
  }
  prelu_param {
    filler {
      type: "constant"
      value: 0.01
    }
  }
}
layer {
  name: "inception_4d/3x3"
  type: "Convolution"
  bottom: "inception_4d/3x3_reduce"
  top: "inception_4d/3x3"
  param {
    lr_mult: 1
    decay_mult: 1
  }
  param {
    lr_mult: 2
    decay_mult: 0
  }
  convolution_param {
    num_output: 288
    pad: 1
    kernel_size: 3
    weight_filler {
      type: "xavier"
    }
    bias_filler {
      type: "constant"
      value: 0.2
    }
  }
}
layer {
  name: "inception_4d/prelu_3x3"
  type: "PReLU"
  bottom: "inception_4d/3x3"
  top: "inception_4d/3x3"
  param {
    lr_mult: 1
    decay_mult: 0
  }
  prelu_param {
    filler {
      type: "constant"
      value: 0.01
    }
  }
}
layer {
  name: "inception_4d/5x5_reduce"
  type: "Convolution"
  bottom: "inception_4c/output"
  top: "inception_4d/5x5_reduce"
  param {
    lr_mult: 1
    decay_mult: 1
  }
  param {
    lr_mult: 2
    decay_mult: 0
  }
  convolution_param {
    num_output: 32
    kernel_size: 1
    weight_filler {
      type: "xavier"
    }
    bias_filler {
      type: "constant"
      value: 0.2
    }
  }
}
layer {
  name: "inception_4d/prelu_5x5_reduce"
  type: "PReLU"
  bottom: "inception_4d/5x5_reduce"
  top: "inception_4d/5x5_reduce"
  param {
    lr_mult: 1
    decay_mult: 0
  }
  prelu_param {
    filler {
      type: "constant"
      value: 0.01
    }
  }
}
layer {
  name: "inception_4d/5x5"
  type: "Convolution"
  bottom: "inception_4d/5x5_reduce"
  top: "inception_4d/5x5"
  param {
    lr_mult: 1
    decay_mult: 1
  }
  param {
    lr_mult: 2
    decay_mult: 0
  }
  convolution_param {
    num_output: 64
    pad: 2
    kernel_size: 5
    weight_filler {
      type: "xavier"
    }
    bias_filler {
      type: "constant"
      value: 0.2
    }
  }
}
layer {
  name: "inception_4d/prelu_5x5"
  type: "PReLU"
  bottom: "inception_4d/5x5"
  top: "inception_4d/5x5"
  param {
    lr_mult: 1
    decay_mult: 0
  }
  prelu_param {
    filler {
      type: "constant"
      value: 0.01
    }
  }
}
layer {
  name: "inception_4d/pool"
  type: "Pooling"
  bottom: "inception_4c/output"
  top: "inception_4d/pool"
  pooling_param {
    pool: MAX
    kernel_size: 3
    stride: 1
    pad: 1
  }
}
layer {
  name: "inception_4d/pool_proj"
  type: "Convolution"
  bottom: "ince
I1028 13:22:19.070099 28141 layer_factory.hpp:76] Creating layer data
I1028 13:22:19.070514 28141 net.cpp:106] Creating Layer data
I1028 13:22:19.070544 28141 net.cpp:411] data -> data
I1028 13:22:19.070582 28141 net.cpp:411] data -> label
I1028 13:22:19.072190 28145 db_lmdb.cpp:38] Opened lmdb ../../LMDB/train_3-lmdb
I1028 13:22:19.082154 28141 data_layer.cpp:41] output data size: 32,3,224,224
I1028 13:22:19.146927 28141 net.cpp:150] Setting up data
I1028 13:22:19.146978 28141 net.cpp:157] Top shape: 32 3 224 224 (4816896)
I1028 13:22:19.146997 28141 net.cpp:157] Top shape: 32 (32)
I1028 13:22:19.147011 28141 net.cpp:165] Memory required for data: 19267712
I1028 13:22:19.147027 28141 layer_factory.hpp:76] Creating layer label_data_1_split
I1028 13:22:19.147054 28141 net.cpp:106] Creating Layer label_data_1_split
I1028 13:22:19.147074 28141 net.cpp:454] label_data_1_split <- label
I1028 13:22:19.147104 28141 net.cpp:411] label_data_1_split -> label_data_1_split_0
I1028 13:22:19.147122 28141 net.cpp:411] label_data_1_split -> label_data_1_split_1
I1028 13:22:19.147135 28141 net.cpp:411] label_data_1_split -> label_data_1_split_2
I1028 13:22:19.147241 28141 net.cpp:150] Setting up label_data_1_split
I1028 13:22:19.147253 28141 net.cpp:157] Top shape: 32 (32)
I1028 13:22:19.147263 28141 net.cpp:157] Top shape: 32 (32)
I1028 13:22:19.147272 28141 net.cpp:157] Top shape: 32 (32)
I1028 13:22:19.147279 28141 net.cpp:165] Memory required for data: 19268096
I1028 13:22:19.147287 28141 layer_factory.hpp:76] Creating layer conv1/7x7_s2
I1028 13:22:19.147327 28141 net.cpp:106] Creating Layer conv1/7x7_s2
I1028 13:22:19.147336 28141 net.cpp:454] conv1/7x7_s2 <- data
I1028 13:22:19.147356 28141 net.cpp:411] conv1/7x7_s2 -> conv1/7x7_s2
I1028 13:22:19.361299 28141 cudnn_conv_layer.cpp:194] Reallocating workspace storage: 225816
I1028 13:22:19.361580 28141 net.cpp:150] Setting up conv1/7x7_s2
I1028 13:22:19.361598 28141 net.cpp:157] Top shape: 32 64 112 112 (25690112)
I1028 13:22:19.361606 28141 net.cpp:165] Memory required for data: 122028544
I1028 13:22:19.361639 28141 layer_factory.hpp:76] Creating layer conv1/prelu_7x7
I1028 13:22:19.361685 28141 net.cpp:106] Creating Layer conv1/prelu_7x7
I1028 13:22:19.361696 28141 net.cpp:454] conv1/prelu_7x7 <- conv1/7x7_s2
I1028 13:22:19.361716 28141 net.cpp:397] conv1/prelu_7x7 -> conv1/7x7_s2 (in-place)
I1028 13:22:19.363365 28141 net.cpp:150] Setting up conv1/prelu_7x7
I1028 13:22:19.363384 28141 net.cpp:157] Top shape: 32 64 112 112 (25690112)
I1028 13:22:19.363392 28141 net.cpp:165] Memory required for data: 224788992
I1028 13:22:19.363406 28141 layer_factory.hpp:76] Creating layer pool1/3x3_s2
I1028 13:22:19.363423 28141 net.cpp:106] Creating Layer pool1/3x3_s2
I1028 13:22:19.363433 28141 net.cpp:454] pool1/3x3_s2 <- conv1/7x7_s2
I1028 13:22:19.363459 28141 net.cpp:411] pool1/3x3_s2 -> pool1/3x3_s2
I1028 13:22:19.363864 28141 net.cpp:150] Setting up pool1/3x3_s2
I1028 13:22:19.363878 28141 net.cpp:157] Top shape: 32 64 56 56 (6422528)
I1028 13:22:19.363885 28141 net.cpp:165] Memory required for data: 250479104
I1028 13:22:19.363893 28141 layer_factory.hpp:76] Creating layer pool1/norm1
I1028 13:22:19.363911 28141 net.cpp:106] Creating Layer pool1/norm1
I1028 13:22:19.363922 28141 net.cpp:454] pool1/norm1 <- pool1/3x3_s2
I1028 13:22:19.363934 28141 net.cpp:411] pool1/norm1 -> pool1/norm1
I1028 13:22:19.364110 28141 net.cpp:150] Setting up pool1/norm1
I1028 13:22:19.364122 28141 net.cpp:157] Top shape: 32 64 56 56 (6422528)
I1028 13:22:19.364130 28141 net.cpp:165] Memory required for data: 276169216
I1028 13:22:19.364138 28141 layer_factory.hpp:76] Creating layer conv2/3x3_reduce
I1028 13:22:19.364154 28141 net.cpp:106] Creating Layer conv2/3x3_reduce
I1028 13:22:19.364166 28141 net.cpp:454] conv2/3x3_reduce <- pool1/norm1
I1028 13:22:19.364177 28141 net.cpp:411] conv2/3x3_reduce -> conv2/3x3_reduce
I1028 13:22:19.365555 28141 cudnn_conv_layer.cpp:194] Reallocating workspace storage: 63000
I1028 13:22:19.365581 28141 net.cpp:150] Setting up conv2/3x3_reduce
I1028 13:22:19.365595 28141 net.cpp:157] Top shape: 32 64 56 56 (6422528)
I1028 13:22:19.365603 28141 net.cpp:165] Memory required for data: 301859328
I1028 13:22:19.365620 28141 layer_factory.hpp:76] Creating layer conv2/prelu_3x3_reduce
I1028 13:22:19.365634 28141 net.cpp:106] Creating Layer conv2/prelu_3x3_reduce
I1028 13:22:19.365644 28141 net.cpp:454] conv2/prelu_3x3_reduce <- conv2/3x3_reduce
I1028 13:22:19.365656 28141 net.cpp:397] conv2/prelu_3x3_reduce -> conv2/3x3_reduce (in-place)
I1028 13:22:19.366283 28141 net.cpp:150] Setting up conv2/prelu_3x3_reduce
I1028 13:22:19.366299 28141 net.cpp:157] Top shape: 32 64 56 56 (6422528)
I1028 13:22:19.366307 28141 net.cpp:165] Memory required for data: 327549440
I1028 13:22:19.366319 28141 layer_factory.hpp:76] Creating layer conv2/3x3
I1028 13:22:19.366335 28141 net.cpp:106] Creating Layer conv2/3x3
I1028 13:22:19.366344 28141 net.cpp:454] conv2/3x3 <- conv2/3x3_reduce
I1028 13:22:19.366358 28141 net.cpp:411] conv2/3x3 -> conv2/3x3
I1028 13:22:19.368304 28141 cudnn_conv_layer.cpp:194] Reallocating workspace storage: 63000
I1028 13:22:19.368330 28141 net.cpp:150] Setting up conv2/3x3
I1028 13:22:19.368345 28141 net.cpp:157] Top shape: 32 192 56 56 (19267584)
I1028 13:22:19.368353 28141 net.cpp:165] Memory required for data: 404619776
I1028 13:22:19.368367 28141 layer_factory.hpp:76] Creating layer conv2/prelu_3x3
I1028 13:22:19.368381 28141 net.cpp:106] Creating Layer conv2/prelu_3x3
I1028 13:22:19.368391 28141 net.cpp:454] conv2/prelu_3x3 <- conv2/3x3
I1028 13:22:19.368403 28141 net.cpp:397] conv2/prelu_3x3 -> conv2/3x3 (in-place)
I1028 13:22:19.369509 28141 net.cpp:150] Setting up conv2/prelu_3x3
I1028 13:22:19.369526 28141 net.cpp:157] Top shape: 32 192 56 56 (19267584)
I1028 13:22:19.369534 28141 net.cpp:165] Memory required for data: 481690112
I1028 13:22:19.369568 28141 layer_factory.hpp:76] Creating layer conv2/norm2
I1028 13:22:19.369583 28141 net.cpp:106] Creating Layer conv2/norm2
I1028 13:22:19.369593 28141 net.cpp:454] conv2/norm2 <- conv2/3x3
I1028 13:22:19.369606 28141 net.cpp:411] conv2/norm2 -> conv2/norm2
I1028 13:22:19.369773 28141 net.cpp:150] Setting up conv2/norm2
I1028 13:22:19.369786 28141 net.cpp:157] Top shape: 32 192 56 56 (19267584)
I1028 13:22:19.369794 28141 net.cpp:165] Memory required for data: 558760448
I1028 13:22:19.369802 28141 layer_factory.hpp:76] Creating layer pool2/3x3_s2
I1028 13:22:19.369814 28141 net.cpp:106] Creating Layer pool2/3x3_s2
I1028 13:22:19.369822 28141 net.cpp:454] pool2/3x3_s2 <- conv2/norm2
I1028 13:22:19.369833 28141 net.cpp:411] pool2/3x3_s2 -> pool2/3x3_s2
I1028 13:22:19.370182 28141 net.cpp:150] Setting up pool2/3x3_s2
I1028 13:22:19.370195 28141 net.cpp:157] Top shape: 32 192 28 28 (4816896)
I1028 13:22:19.370203 28141 net.cpp:165] Memory required for data: 578028032
I1028 13:22:19.370211 28141 layer_factory.hpp:76] Creating layer pool2/3x3_s2_pool2/3x3_s2_0_split
I1028 13:22:19.370223 28141 net.cpp:106] Creating Layer pool2/3x3_s2_pool2/3x3_s2_0_split
I1028 13:22:19.370231 28141 net.cpp:454] pool2/3x3_s2_pool2/3x3_s2_0_split <- pool2/3x3_s2
I1028 13:22:19.370242 28141 net.cpp:411] pool2/3x3_s2_pool2/3x3_s2_0_split -> pool2/3x3_s2_pool2/3x3_s2_0_split_0
I1028 13:22:19.370254 28141 net.cpp:411] pool2/3x3_s2_pool2/3x3_s2_0_split -> pool2/3x3_s2_pool2/3x3_s2_0_split_1
I1028 13:22:19.370270 28141 net.cpp:411] pool2/3x3_s2_pool2/3x3_s2_0_split -> pool2/3x3_s2_pool2/3x3_s2_0_split_2
I1028 13:22:19.370283 28141 net.cpp:411] pool2/3x3_s2_pool2/3x3_s2_0_split -> pool2/3x3_s2_pool2/3x3_s2_0_split_3
I1028 13:22:19.370339 28141 net.cpp:150] Setting up pool2/3x3_s2_pool2/3x3_s2_0_split
I1028 13:22:19.370352 28141 net.cpp:157] Top shape: 32 192 28 28 (4816896)
I1028 13:22:19.370362 28141 net.cpp:157] Top shape: 32 192 28 28 (4816896)
I1028 13:22:19.370371 28141 net.cpp:157] Top shape: 32 192 28 28 (4816896)
I1028 13:22:19.370380 28141 net.cpp:157] Top shape: 32 192 28 28 (4816896)
I1028 13:22:19.370388 28141 net.cpp:165] Memory required for data: 655098368
I1028 13:22:19.370396 28141 layer_factory.hpp:76] Creating layer inception_3a/1x1
I1028 13:22:19.370410 28141 net.cpp:106] Creating Layer inception_3a/1x1
I1028 13:22:19.370419 28141 net.cpp:454] inception_3a/1x1 <- pool2/3x3_s2_pool2/3x3_s2_0_split_0
I1028 13:22:19.370431 28141 net.cpp:411] inception_3a/1x1 -> inception_3a/1x1
I1028 13:22:19.371881 28141 cudnn_conv_layer.cpp:194] Reallocating workspace storage: 20664
I1028 13:22:19.371911 28141 net.cpp:150] Setting up inception_3a/1x1
I1028 13:22:19.371924 28141 net.cpp:157] Top shape: 32 64 28 28 (1605632)
I1028 13:22:19.371932 28141 net.cpp:165] Memory required for data: 661520896
I1028 13:22:19.371961 28141 layer_factory.hpp:76] Creating layer inception_3a/prelu_1x1
I1028 13:22:19.371975 28141 net.cpp:106] Creating Layer inception_3a/prelu_1x1
I1028 13:22:19.371992 28141 net.cpp:454] inception_3a/prelu_1x1 <- inception_3a/1x1
I1028 13:22:19.372011 28141 net.cpp:397] inception_3a/prelu_1x1 -> inception_3a/1x1 (in-place)
I1028 13:22:19.372599 28141 net.cpp:150] Setting up inception_3a/prelu_1x1
I1028 13:22:19.372613 28141 net.cpp:157] Top shape: 32 64 28 28 (1605632)
I1028 13:22:19.372622 28141 net.cpp:165] Memory required for data: 667943424
I1028 13:22:19.372632 28141 layer_factory.hpp:76] Creating layer inception_3a/3x3_reduce
I1028 13:22:19.372647 28141 net.cpp:106] Creating Layer inception_3a/3x3_reduce
I1028 13:22:19.372655 28141 net.cpp:454] inception_3a/3x3_reduce <- pool2/3x3_s2_pool2/3x3_s2_0_split_1
I1028 13:22:19.372668 28141 net.cpp:411] inception_3a/3x3_reduce -> inception_3a/3x3_reduce
I1028 13:22:19.373605 28141 cudnn_conv_layer.cpp:194] Reallocating workspace storage: 20664
I1028 13:22:19.373631 28141 net.cpp:150] Setting up inception_3a/3x3_reduce
I1028 13:22:19.373644 28141 net.cpp:157] Top shape: 32 96 28 28 (2408448)
I1028 13:22:19.373652 28141 net.cpp:165] Memory required for data: 677577216
I1028 13:22:19.373680 28141 layer_factory.hpp:76] Creating layer inception_3a/prelu_3x3_reduce
I1028 13:22:19.373698 28141 net.cpp:106] Creating Layer inception_3a/prelu_3x3_reduce
I1028 13:22:19.373708 28141 net.cpp:454] inception_3a/prelu_3x3_reduce <- inception_3a/3x3_reduce
I1028 13:22:19.373720 28141 net.cpp:397] inception_3a/prelu_3x3_reduce -> inception_3a/3x3_reduce (in-place)
I1028 13:22:19.373852 28141 net.cpp:150] Setting up inception_3a/prelu_3x3_reduce
I1028 13:22:19.373864 28141 net.cpp:157] Top shape: 32 96 28 28 (2408448)
I1028 13:22:19.373872 28141 net.cpp:165] Memory required for data: 687211008
I1028 13:22:19.373883 28141 layer_factory.hpp:76] Creating layer inception_3a/3x3
I1028 13:22:19.373895 28141 net.cpp:106] Creating Layer inception_3a/3x3
I1028 13:22:19.373903 28141 net.cpp:454] inception_3a/3x3 <- inception_3a/3x3_reduce
I1028 13:22:19.373915 28141 net.cpp:411] inception_3a/3x3 -> inception_3a/3x3
I1028 13:22:19.376338 28141 cudnn_conv_layer.cpp:194] Reallocating workspace storage: 20664
I1028 13:22:19.376382 28141 net.cpp:150] Setting up inception_3a/3x3
I1028 13:22:19.376399 28141 net.cpp:157] Top shape: 32 128 28 28 (3211264)
I1028 13:22:19.376407 28141 net.cpp:165] Memory required for data: 700056064
I1028 13:22:19.376432 28141 layer_factory.hpp:76] Creating layer inception_3a/prelu_3x3
I1028 13:22:19.376451 28141 net.cpp:106] Creating Layer inception_3a/prelu_3x3
I1028 13:22:19.376462 28141 net.cpp:454] inception_3a/prelu_3x3 <- inception_3a/3x3
I1028 13:22:19.376476 28141 net.cpp:397] inception_3a/prelu_3x3 -> inception_3a/3x3 (in-place)
I1028 13:22:19.376621 28141 net.cpp:150] Setting up inception_3a/prelu_3x3
I1028 13:22:19.376633 28141 net.cpp:157] Top shape: 32 128 28 28 (3211264)
I1028 13:22:19.376641 28141 net.cpp:165] Memory required for data: 712901120
I1028 13:22:19.376652 28141 layer_factory.hpp:76] Creating layer inception_3a/5x5_reduce
I1028 13:22:19.376669 28141 net.cpp:106] Creating Layer inception_3a/5x5_reduce
I1028 13:22:19.376690 28141 net.cpp:454] inception_3a/5x5_reduce <- pool2/3x3_s2_pool2/3x3_s2_0_split_2
I1028 13:22:19.376708 28141 net.cpp:411] inception_3a/5x5_reduce -> inception_3a/5x5_reduce
I1028 13:22:19.377959 28141 cudnn_conv_layer.cpp:194] Reallocating workspace storage: 20664
I1028 13:22:19.377987 28141 net.cpp:150] Setting up inception_3a/5x5_reduce
I1028 13:22:19.378010 28141 net.cpp:157] Top shape: 32 16 28 28 (401408)
I1028 13:22:19.378048 28141 net.cpp:165] Memory required for data: 714506752
I1028 13:22:19.378064 28141 layer_factory.hpp:76] Creating layer inception_3a/prelu_5x5_reduce
I1028 13:22:19.378096 28141 net.cpp:106] Creating Layer inception_3a/prelu_5x5_reduce
I1028 13:22:19.378118 28141 net.cpp:454] inception_3a/prelu_5x5_reduce <- inception_3a/5x5_reduce
I1028 13:22:19.378130 28141 net.cpp:397] inception_3a/prelu_5x5_reduce -> inception_3a/5x5_reduce (in-place)
I1028 13:22:19.378268 28141 net.cpp:150] Setting up inception_3a/prelu_5x5_reduce
I1028 13:22:19.378278 28141 net.cpp:157] Top shape: 32 16 28 28 (401408)
I1028 13:22:19.378286 28141 net.cpp:165] Memory required for data: 716112384
I1028 13:22:19.378306 28141 layer_factory.hpp:76] Creating layer inception_3a/5x5
I1028 13:22:19.378322 28141 net.cpp:106] Creating Layer inception_3a/5x5
I1028 13:22:19.378334 28141 net.cpp:454] inception_3a/5x5 <- inception_3a/5x5_reduce
I1028 13:22:19.378357 28141 net.cpp:411] inception_3a/5x5 -> inception_3a/5x5
I1028 13:22:19.379442 28141 cudnn_conv_layer.cpp:194] Reallocating workspace storage: 20664
I1028 13:22:19.379467 28141 net.cpp:150] Setting up inception_3a/5x5
I1028 13:22:19.379482 28141 net.cpp:157] Top shape: 32 32 28 28 (802816)
I1028 13:22:19.379490 28141 net.cpp:165] Memory required for data: 719323648
I1028 13:22:19.379504 28141 layer_factory.hpp:76] Creating layer inception_3a/prelu_5x5
I1028 13:22:19.379521 28141 net.cpp:106] Creating Layer inception_3a/prelu_5x5
I1028 13:22:19.379531 28141 net.cpp:454] inception_3a/prelu_5x5 <- inception_3a/5x5
I1028 13:22:19.379545 28141 net.cpp:397] inception_3a/prelu_5x5 -> inception_3a/5x5 (in-place)
I1028 13:22:19.379662 28141 net.cpp:150] Setting up inception_3a/prelu_5x5
I1028 13:22:19.379674 28141 net.cpp:157] Top shape: 32 32 28 28 (802816)
I1028 13:22:19.379681 28141 net.cpp:165] Memory required for data: 722534912
I1028 13:22:19.379691 28141 layer_factory.hpp:76] Creating layer inception_3a/pool
I1028 13:22:19.379706 28141 net.cpp:106] Creating Layer inception_3a/pool
I1028 13:22:19.379716 28141 net.cpp:454] inception_3a/pool <- pool2/3x3_s2_pool2/3x3_s2_0_split_3
I1028 13:22:19.379727 28141 net.cpp:411] inception_3a/pool -> inception_3a/pool
I1028 13:22:19.379909 28141 net.cpp:150] Setting up inception_3a/pool
I1028 13:22:19.379922 28141 net.cpp:157] Top shape: 32 192 28 28 (4816896)
I1028 13:22:19.379930 28141 net.cpp:165] Memory required for data: 741802496
I1028 13:22:19.379938 28141 layer_factory.hpp:76] Creating layer inception_3a/pool_proj
I1028 13:22:19.379952 28141 net.cpp:106] Creating Layer inception_3a/pool_proj
I1028 13:22:19.379963 28141 net.cpp:454] inception_3a/pool_proj <- inception_3a/pool
I1028 13:22:19.379977 28141 net.cpp:411] inception_3a/pool_proj -> inception_3a/pool_proj
I1028 13:22:19.380962 28141 cudnn_conv_layer.cpp:194] Reallocating workspace storage: 20664
I1028 13:22:19.380985 28141 net.cpp:150] Setting up inception_3a/pool_proj
I1028 13:22:19.380998 28141 net.cpp:157] Top shape: 32 32 28 28 (802816)
I1028 13:22:19.381006 28141 net.cpp:165] Memory required for data: 745013760
I1028 13:22:19.381019 28141 layer_factory.hpp:76] Creating layer inception_3a/prelu_pool_proj
I1028 13:22:19.381036 28141 net.cpp:106] Creating Layer inception_3a/prelu_pool_proj
I1028 13:22:19.381045 28141 net.cpp:454] inception_3a/prelu_pool_proj <- inception_3a/pool_proj
I1028 13:22:19.381058 28141 net.cpp:397] inception_3a/prelu_pool_proj -> inception_3a/pool_proj (in-place)
I1028 13:22:19.381157 28141 net.cpp:150] Setting up inception_3a/prelu_pool_proj
I1028 13:22:19.381170 28141 net.cpp:157] Top shape: 32 32 28 28 (802816)
I1028 13:22:19.381177 28141 net.cpp:165] Memory required for data: 748225024
I1028 13:22:19.381188 28141 layer_factory.hpp:76] Creating layer inception_3a/output
I1028 13:22:19.381206 28141 net.cpp:106] Creating Layer inception_3a/output
I1028 13:22:19.381216 28141 net.cpp:454] inception_3a/output <- inception_3a/1x1
I1028 13:22:19.381224 28141 net.cpp:454] inception_3a/output <- inception_3a/3x3
I1028 13:22:19.381233 28141 net.cpp:454] inception_3a/output <- inception_3a/5x5
I1028 13:22:19.381242 28141 net.cpp:454] inception_3a/output <- inception_3a/pool_proj
I1028 13:22:19.381253 28141 net.cpp:411] inception_3a/output -> inception_3a/output
I1028 13:22:19.381286 28141 net.cpp:150] Setting up inception_3a/output
I1028 13:22:19.381297 28141 net.cpp:157] Top shape: 32 256 28 28 (6422528)
I1028 13:22:19.381304 28141 net.cpp:165] Memory required for data: 773915136
I1028 13:22:19.381312 28141 layer_factory.hpp:76] Creating layer inception_3a/output_inception_3a/output_0_split
I1028 13:22:19.381325 28141 net.cpp:106] Creating Layer inception_3a/output_inception_3a/output_0_split
I1028 13:22:19.381332 28141 net.cpp:454] inception_3a/output_inception_3a/output_0_split <- inception_3a/output
I1028 13:22:19.381345 28141 net.cpp:411] inception_3a/output_inception_3a/output_0_split -> inception_3a/output_inception_3a/output_0_split_0
I1028 13:22:19.381357 28141 net.cpp:411] inception_3a/output_inception_3a/output_0_split -> inception_3a/output_inception_3a/output_0_split_1
I1028 13:22:19.381371 28141 net.cpp:411] inception_3a/output_inception_3a/output_0_split -> inception_3a/output_inception_3a/output_0_split_2
I1028 13:22:19.381386 28141 net.cpp:411] inception_3a/output_inception_3a/output_0_split -> inception_3a/output_inception_3a/output_0_split_3
I1028 13:22:19.381446 28141 net.cpp:150] Setting up inception_3a/output_inception_3a/output_0_split
I1028 13:22:19.381458 28141 net.cpp:157] Top shape: 32 256 28 28 (6422528)
I1028 13:22:19.381467 28141 net.cpp:157] Top shape: 32 256 28 28 (6422528)
I1028 13:22:19.381477 28141 net.cpp:157] Top shape: 32 256 28 28 (6422528)
I1028 13:22:19.381497 28141 net.cpp:157] Top shape: 32 256 28 28 (6422528)
I1028 13:22:19.381506 28141 net.cpp:165] Memory required for data: 876675584
I1028 13:22:19.381515 28141 layer_factory.hpp:76] Creating layer inception_3b/1x1
I1028 13:22:19.381528 28141 net.cpp:106] Creating Layer inception_3b/1x1
I1028 13:22:19.381536 28141 net.cpp:454] inception_3b/1x1 <- inception_3a/output_inception_3a/output_0_split_0
I1028 13:22:19.381548 28141 net.cpp:411] inception_3b/1x1 -> inception_3b/1x1
I1028 13:22:19.382694 28141 cudnn_conv_layer.cpp:194] Reallocating workspace storage: 20664
I1028 13:22:19.382716 28141 net.cpp:150] Setting up inception_3b/1x1
I1028 13:22:19.382732 28141 net.cpp:157] Top shape: 32 128 28 28 (3211264)
I1028 13:22:19.382742 28141 net.cpp:165] Memory required for data: 889520640
I1028 13:22:19.382755 28141 layer_factory.hpp:76] Creating layer inception_3b/prelu_1x1
I1028 13:22:19.382769 28141 net.cpp:106] Creating Layer inception_3b/prelu_1x1
I1028 13:22:19.382779 28141 net.cpp:454] inception_3b/prelu_1x1 <- inception_3b/1x1
I1028 13:22:19.382791 28141 net.cpp:397] inception_3b/prelu_1x1 -> inception_3b/1x1 (in-place)
I1028 13:22:19.383364 28141 net.cpp:150] Setting up inception_3b/prelu_1x1
I1028 13:22:19.383378 28141 net.cpp:157] Top shape: 32 128 28 28 (3211264)
I1028 13:22:19.383386 28141 net.cpp:165] Memory required for data: 902365696
I1028 13:22:19.383397 28141 layer_factory.hpp:76] Creating layer inception_3b/3x3_reduce
I1028 13:22:19.383412 28141 net.cpp:106] Creating Layer inception_3b/3x3_reduce
I1028 13:22:19.383420 28141 net.cpp:454] inception_3b/3x3_reduce <- inception_3a/output_inception_3a/output_0_split_1
I1028 13:22:19.383435 28141 net.cpp:411] inception_3b/3x3_reduce -> inception_3b/3x3_reduce
I1028 13:22:19.384582 28141 cudnn_conv_layer.cpp:194] Reallocating workspace storage: 20664
I1028 13:22:19.384606 28141 net.cpp:150] Setting up inception_3b/3x3_reduce
I1028 13:22:19.384618 28141 net.cpp:157] Top shape: 32 128 28 28 (3211264)
I1028 13:22:19.384626 28141 net.cpp:165] Memory required for data: 915210752
I1028 13:22:19.384639 28141 layer_factory.hpp:76] Creating layer inception_3b/prelu_3x3_reduce
I1028 13:22:19.384651 28141 net.cpp:106] Creating Layer inception_3b/prelu_3x3_reduce
I1028 13:22:19.384663 28141 net.cpp:454] inception_3b/prelu_3x3_reduce <- inception_3b/3x3_reduce
I1028 13:22:19.384675 28141 net.cpp:397] inception_3b/prelu_3x3_reduce -> inception_3b/3x3_reduce (in-place)
I1028 13:22:19.384799 28141 net.cpp:150] Setting up inception_3b/prelu_3x3_reduce
I1028 13:22:19.384809 28141 net.cpp:157] Top shape: 32 128 28 28 (3211264)
I1028 13:22:19.384816 28141 net.cpp:165] Memory required for data: 928055808
I1028 13:22:19.384836 28141 layer_factory.hpp:76] Creating layer inception_3b/3x3
I1028 13:22:19.384856 28141 net.cpp:106] Creating Layer inception_3b/3x3
I1028 13:22:19.384865 28141 net.cpp:454] inception_3b/3x3 <- inception_3b/3x3_reduce
I1028 13:22:19.384877 28141 net.cpp:411] inception_3b/3x3 -> inception_3b/3x3
I1028 13:22:19.387459 28141 cudnn_conv_layer.cpp:194] Reallocating workspace storage: 20664
I1028 13:22:19.387485 28141 net.cpp:150] Setting up inception_3b/3x3
I1028 13:22:19.387498 28141 net.cpp:157] Top shape: 32 192 28 28 (4816896)
I1028 13:22:19.387506 28141 net.cpp:165] Memory required for data: 947323392
I1028 13:22:19.387519 28141 layer_factory.hpp:76] Creating layer inception_3b/prelu_3x3
I1028 13:22:19.387537 28141 net.cpp:106] Creating Layer inception_3b/prelu_3x3
I1028 13:22:19.387547 28141 net.cpp:454] inception_3b/prelu_3x3 <- inception_3b/3x3
I1028 13:22:19.387559 28141 net.cpp:397] inception_3b/prelu_3x3 -> inception_3b/3x3 (in-place)
I1028 13:22:19.388149 28141 net.cpp:150] Setting up inception_3b/prelu_3x3
I1028 13:22:19.388164 28141 net.cpp:157] Top shape: 32 192 28 28 (4816896)
I1028 13:22:19.388171 28141 net.cpp:165] Memory required for data: 966590976
I1028 13:22:19.388181 28141 layer_factory.hpp:76] Creating layer inception_3b/5x5_reduce
I1028 13:22:19.388197 28141 net.cpp:106] Creating Layer inception_3b/5x5_reduce
I1028 13:22:19.388208 28141 net.cpp:454] inception_3b/5x5_reduce <- inception_3a/output_inception_3a/output_0_split_2
I1028 13:22:19.388237 28141 net.cpp:411] inception_3b/5x5_reduce -> inception_3b/5x5_reduce
I1028 13:22:19.389133 28141 cudnn_conv_layer.cpp:194] Reallocating workspace storage: 20664
I1028 13:22:19.389158 28141 net.cpp:150] Setting up inception_3b/5x5_reduce
I1028 13:22:19.389171 28141 net.cpp:157] Top shape: 32 32 28 28 (802816)
I1028 13:22:19.389179 28141 net.cpp:165] Memory required for data: 969802240
I1028 13:22:19.389194 28141 layer_factory.hpp:76] Creating layer inception_3b/prelu_5x5_reduce
I1028 13:22:19.389210 28141 net.cpp:106] Creating Layer inception_3b/prelu_5x5_reduce
I1028 13:22:19.389219 28141 net.cpp:454] inception_3b/prelu_5x5_reduce <- inception_3b/5x5_reduce
I1028 13:22:19.389241 28141 net.cpp:397] inception_3b/prelu_5x5_reduce -> inception_3b/5x5_reduce (in-place)
I1028 13:22:19.389354 28141 net.cpp:150] Setting up inception_3b/prelu_5x5_reduce
I1028 13:22:19.389366 28141 net.cpp:157] Top shape: 32 32 28 28 (802816)
I1028 13:22:19.389374 28141 net.cpp:165] Memory required for data: 973013504
I1028 13:22:19.389384 28141 layer_factory.hpp:76] Creating layer inception_3b/5x5
I1028 13:22:19.389400 28141 net.cpp:106] Creating Layer inception_3b/5x5
I1028 13:22:19.389410 28141 net.cpp:454] inception_3b/5x5 <- inception_3b/5x5_reduce
I1028 13:22:19.389422 28141 net.cpp:411] inception_3b/5x5 -> inception_3b/5x5
I1028 13:22:19.391011 28141 cudnn_conv_layer.cpp:194] Reallocating workspace storage: 20664
I1028 13:22:19.391041 28141 net.cpp:150] Setting up inception_3b/5x5
I1028 13:22:19.391052 28141 net.cpp:157] Top shape: 32 96 28 28 (2408448)
I1028 13:22:19.391057 28141 net.cpp:165] Memory required for data: 982647296
I1028 13:22:19.391064 28141 layer_factory.hpp:76] Creating layer inception_3b/prelu_5x5
I1028 13:22:19.391083 28141 net.cpp:106] Creating Layer inception_3b/prelu_5x5
I1028 13:22:19.391093 28141 net.cpp:454] inception_3b/prelu_5x5 <- inception_3b/5x5
I1028 13:22:19.391103 28141 net.cpp:397] inception_3b/prelu_5x5 -> inception_3b/5x5 (in-place)
I1028 13:22:19.391299 28141 net.cpp:150] Setting up inception_3b/prelu_5x5
I1028 13:22:19.391314 28141 net.cpp:157] Top shape: 32 96 28 28 (2408448)
I1028 13:22:19.391320 28141 net.cpp:165] Memory required for data: 992281088
I1028 13:22:19.391329 28141 layer_factory.hpp:76] Creating layer inception_3b/pool
I1028 13:22:19.391338 28141 net.cpp:106] Creating Layer inception_3b/pool
I1028 13:22:19.391345 28141 net.cpp:454] inception_3b/pool <- inception_3a/output_inception_3a/output_0_split_3
I1028 13:22:19.391355 28141 net.cpp:411] inception_3b/pool -> inception_3b/pool
I1028 13:22:19.391769 28141 net.cpp:150] Setting up inception_3b/pool
I1028 13:22:19.391782 28141 net.cpp:157] Top shape: 32 256 28 28 (6422528)
I1028 13:22:19.391785 28141 net.cpp:165] Memory required for data: 1017971200
I1028 13:22:19.391789 28141 layer_factory.hpp:76] Creating layer inception_3b/pool_proj
I1028 13:22:19.391799 28141 net.cpp:106] Creating Layer inception_3b/pool_proj
I1028 13:22:19.391804 28141 net.cpp:454] inception_3b/pool_proj <- inception_3b/pool
I1028 13:22:19.391811 28141 net.cpp:411] inception_3b/pool_proj -> inception_3b/pool_proj
I1028 13:22:19.392895 28141 cudnn_conv_layer.cpp:194] Reallocating workspace storage: 20664
I1028 13:22:19.392916 28141 net.cpp:150] Setting up inception_3b/pool_proj
I1028 13:22:19.392923 28141 net.cpp:157] Top shape: 32 64 28 28 (1605632)
I1028 13:22:19.392927 28141 net.cpp:165] Memory required for data: 1024393728
I1028 13:22:19.392935 28141 layer_factory.hpp:76] Creating layer inception_3b/prelu_pool_proj
I1028 13:22:19.392943 28141 net.cpp:106] Creating Layer inception_3b/prelu_pool_proj
I1028 13:22:19.392948 28141 net.cpp:454] inception_3b/prelu_pool_proj <- inception_3b/pool_proj
I1028 13:22:19.392956 28141 net.cpp:397] inception_3b/prelu_pool_proj -> inception_3b/pool_proj (in-place)
I1028 13:22:19.393074 28141 net.cpp:150] Setting up inception_3b/prelu_pool_proj
I1028 13:22:19.393085 28141 net.cpp:157] Top shape: 32 64 28 28 (1605632)
I1028 13:22:19.393102 28141 net.cpp:165] Memory required for data: 1030816256
I1028 13:22:19.393110 28141 layer_factory.hpp:76] Creating layer inception_3b/output
I1028 13:22:19.393116 28141 net.cpp:106] Creating Layer inception_3b/output
I1028 13:22:19.393121 28141 net.cpp:454] inception_3b/output <- inception_3b/1x1
I1028 13:22:19.393126 28141 net.cpp:454] inception_3b/output <- inception_3b/3x3
I1028 13:22:19.393131 28141 net.cpp:454] inception_3b/output <- inception_3b/5x5
I1028 13:22:19.393134 28141 net.cpp:454] inception_3b/output <- inception_3b/pool_proj
I1028 13:22:19.393141 28141 net.cpp:411] inception_3b/output -> inception_3b/output
I1028 13:22:19.393175 28141 net.cpp:150] Setting up inception_3b/output
I1028 13:22:19.393195 28141 net.cpp:157] Top shape: 32 480 28 28 (12042240)
I1028 13:22:19.393199 28141 net.cpp:165] Memory required for data: 1078985216
I1028 13:22:19.393203 28141 layer_factory.hpp:76] Creating layer pool3/3x3_s2
I1028 13:22:19.393232 28141 net.cpp:106] Creating Layer pool3/3x3_s2
I1028 13:22:19.393239 28141 net.cpp:454] pool3/3x3_s2 <- inception_3b/output
I1028 13:22:19.393244 28141 net.cpp:411] pool3/3x3_s2 -> pool3/3x3_s2
I1028 13:22:19.393599 28141 net.cpp:150] Setting up pool3/3x3_s2
I1028 13:22:19.393610 28141 net.cpp:157] Top shape: 32 480 14 14 (3010560)
I1028 13:22:19.393615 28141 net.cpp:165] Memory required for data: 1091027456
I1028 13:22:19.393620 28141 layer_factory.hpp:76] Creating layer pool3/3x3_s2_pool3/3x3_s2_0_split
I1028 13:22:19.393625 28141 net.cpp:106] Creating Layer pool3/3x3_s2_pool3/3x3_s2_0_split
I1028 13:22:19.393630 28141 net.cpp:454] pool3/3x3_s2_pool3/3x3_s2_0_split <- pool3/3x3_s2
I1028 13:22:19.393636 28141 net.cpp:411] pool3/3x3_s2_pool3/3x3_s2_0_split -> pool3/3x3_s2_pool3/3x3_s2_0_split_0
I1028 13:22:19.393643 28141 net.cpp:411] pool3/3x3_s2_pool3/3x3_s2_0_split -> pool3/3x3_s2_pool3/3x3_s2_0_split_1
I1028 13:22:19.393651 28141 net.cpp:411] pool3/3x3_s2_pool3/3x3_s2_0_split -> pool3/3x3_s2_pool3/3x3_s2_0_split_2
I1028 13:22:19.393656 28141 net.cpp:411] pool3/3x3_s2_pool3/3x3_s2_0_split -> pool3/3x3_s2_pool3/3x3_s2_0_split_3
I1028 13:22:19.393707 28141 net.cpp:150] Setting up pool3/3x3_s2_pool3/3x3_s2_0_split
I1028 13:22:19.393718 28141 net.cpp:157] Top shape: 32 480 14 14 (3010560)
I1028 13:22:19.393723 28141 net.cpp:157] Top shape: 32 480 14 14 (3010560)
I1028 13:22:19.393728 28141 net.cpp:157] Top shape: 32 480 14 14 (3010560)
I1028 13:22:19.393733 28141 net.cpp:157] Top shape: 32 480 14 14 (3010560)
I1028 13:22:19.393736 28141 net.cpp:165] Memory required for data: 1139196416
I1028 13:22:19.393740 28141 layer_factory.hpp:76] Creating layer inception_4a/1x1
I1028 13:22:19.393748 28141 net.cpp:106] Creating Layer inception_4a/1x1
I1028 13:22:19.393751 28141 net.cpp:454] inception_4a/1x1 <- pool3/3x3_s2_pool3/3x3_s2_0_split_0
I1028 13:22:19.393761 28141 net.cpp:411] inception_4a/1x1 -> inception_4a/1x1
I1028 13:22:19.395673 28141 cudnn_conv_layer.cpp:194] Reallocating workspace storage: 10080
I1028 13:22:19.395874 28141 net.cpp:150] Setting up inception_4a/1x1
I1028 13:22:19.395884 28141 net.cpp:157] Top shape: 32 192 14 14 (1204224)
I1028 13:22:19.395889 28141 net.cpp:165] Memory required for data: 1144013312
I1028 13:22:19.395895 28141 layer_factory.hpp:76] Creating layer inception_4a/prelu_1x1
I1028 13:22:19.395903 28141 net.cpp:106] Creating Layer inception_4a/prelu_1x1
I1028 13:22:19.395908 28141 net.cpp:454] inception_4a/prelu_1x1 <- inception_4a/1x1
I1028 13:22:19.395915 28141 net.cpp:397] inception_4a/prelu_1x1 -> inception_4a/1x1 (in-place)
I1028 13:22:19.396540 28141 net.cpp:150] Setting up inception_4a/prelu_1x1
I1028 13:22:19.396556 28141 net.cpp:157] Top shape: 32 192 14 14 (1204224)
I1028 13:22:19.396563 28141 net.cpp:165] Memory required for data: 1148830208
I1028 13:22:19.396571 28141 layer_factory.hpp:76] Creating layer inception_4a/3x3_reduce
I1028 13:22:19.396584 28141 net.cpp:106] Creating Layer inception_4a/3x3_reduce
I1028 13:22:19.396592 28141 net.cpp:454] inception_4a/3x3_reduce <- pool3/3x3_s2_pool3/3x3_s2_0_split_1
I1028 13:22:19.396603 28141 net.cpp:411] inception_4a/3x3_reduce -> inception_4a/3x3_reduce
I1028 13:22:19.398071 28141 cudnn_conv_layer.cpp:194] Reallocating workspace storage: 10080
I1028 13:22:19.398100 28141 net.cpp:150] Setting up inception_4a/3x3_reduce
I1028 13:22:19.398108 28141 net.cpp:157] Top shape: 32 96 14 14 (602112)
I1028 13:22:19.398113 28141 net.cpp:165] Memory required for data: 1151238656
I1028 13:22:19.398120 28141 layer_factory.hpp:76] Creating layer inception_4a/prelu_3x3_reduce
I1028 13:22:19.398128 28141 net.cpp:106] Creating Layer inception_4a/prelu_3x3_reduce
I1028 13:22:19.398133 28141 net.cpp:454] inception_4a/prelu_3x3_reduce <- inception_4a/3x3_reduce
I1028 13:22:19.398140 28141 net.cpp:397] inception_4a/prelu_3x3_reduce -> inception_4a/3x3_reduce (in-place)
I1028 13:22:19.398252 28141 net.cpp:150] Setting up inception_4a/prelu_3x3_reduce
I1028 13:22:19.398262 28141 net.cpp:157] Top shape: 32 96 14 14 (602112)
I1028 13:22:19.398265 28141 net.cpp:165] Memory required for data: 1153647104
I1028 13:22:19.398272 28141 layer_factory.hpp:76] Creating layer inception_4a/3x3
I1028 13:22:19.398280 28141 net.cpp:106] Creating Layer inception_4a/3x3
I1028 13:22:19.398284 28141 net.cpp:454] inception_4a/3x3 <- inception_4a/3x3_reduce
I1028 13:22:19.398290 28141 net.cpp:411] inception_4a/3x3 -> inception_4a/3x3
I1028 13:22:19.400557 28141 cudnn_conv_layer.cpp:194] Reallocating workspace storage: 10080
I1028 13:22:19.400584 28141 net.cpp:150] Setting up inception_4a/3x3
I1028 13:22:19.400591 28141 net.cpp:157] Top shape: 32 208 14 14 (1304576)
I1028 13:22:19.400595 28141 net.cpp:165] Memory required for data: 1158865408
I1028 13:22:19.400602 28141 layer_factory.hpp:76] Creating layer inception_4a/prelu_3x3
I1028 13:22:19.400622 28141 net.cpp:106] Creating Layer inception_4a/prelu_3x3
I1028 13:22:19.400627 28141 net.cpp:454] inception_4a/prelu_3x3 <- inception_4a/3x3
I1028 13:22:19.400634 28141 net.cpp:397] inception_4a/prelu_3x3 -> inception_4a/3x3 (in-place)
I1028 13:22:19.400768 28141 net.cpp:150] Setting up inception_4a/prelu_3x3
I1028 13:22:19.400777 28141 net.cpp:157] Top shape: 32 208 14 14 (1304576)
I1028 13:22:19.400781 28141 net.cpp:165] Memory required for data: 1164083712
I1028 13:22:19.400786 28141 layer_factory.hpp:76] Creating layer inception_4a/5x5_reduce
I1028 13:22:19.400795 28141 net.cpp:106] Creating Layer inception_4a/5x5_reduce
I1028 13:22:19.400800 28141 net.cpp:454] inception_4a/5x5_reduce <- pool3/3x3_s2_pool3/3x3_s2_0_split_2
I1028 13:22:19.400807 28141 net.cpp:411] inception_4a/5x5_reduce -> inception_4a/5x5_reduce
I1028 13:22:19.401823 28141 cudnn_conv_layer.cpp:194] Reallocating workspace storage: 10080
I1028 13:22:19.401845 28141 net.cpp:150] Setting up inception_4a/5x5_reduce
I1028 13:22:19.401852 28141 net.cpp:157] Top shape: 32 16 14 14 (100352)
I1028 13:22:19.401855 28141 net.cpp:165] Memory required for data: 1164485120
I1028 13:22:19.401862 28141 layer_factory.hpp:76] Creating layer inception_4a/prelu_5x5_reduce
I1028 13:22:19.401870 28141 net.cpp:106] Creating Layer inception_4a/prelu_5x5_reduce
I1028 13:22:19.401886 28141 net.cpp:454] inception_4a/prelu_5x5_reduce <- inception_4a/5x5_reduce
I1028 13:22:19.401892 28141 net.cpp:397] inception_4a/prelu_5x5_reduce -> inception_4a/5x5_reduce (in-place)
I1028 13:22:19.402052 28141 net.cpp:150] Setting up inception_4a/prelu_5x5_reduce
I1028 13:22:19.402061 28141 net.cpp:157] Top shape: 32 16 14 14 (100352)
I1028 13:22:19.402065 28141 net.cpp:165] Memory required for data: 1164886528
I1028 13:22:19.402070 28141 layer_factory.hpp:76] Creating layer inception_4a/5x5
I1028 13:22:19.402081 28141 net.cpp:106] Creating Layer inception_4a/5x5
I1028 13:22:19.402086 28141 net.cpp:454] inception_4a/5x5 <- inception_4a/5x5_reduce
I1028 13:22:19.402092 28141 net.cpp:411] inception_4a/5x5 -> inception_4a/5x5
I1028 13:22:19.403211 28141 cudnn_conv_layer.cpp:194] Reallocating workspace storage: 13080
I1028 13:22:19.403234 28141 net.cpp:150] Setting up inception_4a/5x5
I1028 13:22:19.403241 28141 net.cpp:157] Top shape: 32 48 14 14 (301056)
I1028 13:22:19.403245 28141 net.cpp:165] Memory required for data: 1166090752
I1028 13:22:19.403265 28141 layer_factory.hpp:76] Creating layer inception_4a/prelu_5x5
I1028 13:22:19.403275 28141 net.cpp:106] Creating Layer inception_4a/prelu_5x5
I1028 13:22:19.403280 28141 net.cpp:454] inception_4a/prelu_5x5 <- inception_4a/5x5
I1028 13:22:19.403285 28141 net.cpp:397] inception_4a/prelu_5x5 -> inception_4a/5x5 (in-place)
I1028 13:22:19.403389 28141 net.cpp:150] Setting up inception_4a/prelu_5x5
I1028 13:22:19.403398 28141 net.cpp:157] Top shape: 32 48 14 14 (301056)
I1028 13:22:19.403403 28141 net.cpp:165] Memory required for data: 1167294976
I1028 13:22:19.403408 28141 layer_factory.hpp:76] Creating layer inception_4a/pool
I1028 13:22:19.403415 28141 net.cpp:106] Creating Layer inception_4a/pool
I1028 13:22:19.403419 28141 net.cpp:454] inception_4a/pool <- pool3/3x3_s2_pool3/3x3_s2_0_split_3
I1028 13:22:19.403426 28141 net.cpp:411] inception_4a/pool -> inception_4a/pool
I1028 13:22:19.403796 28141 net.cpp:150] Setting up inception_4a/pool
I1028 13:22:19.403807 28141 net.cpp:157] Top shape: 32 480 14 14 (3010560)
I1028 13:22:19.403812 28141 net.cpp:165] Memory required for data: 1179337216
I1028 13:22:19.403816 28141 layer_factory.hpp:76] Creating layer inception_4a/pool_proj
I1028 13:22:19.403825 28141 net.cpp:106] Creating Layer inception_4a/pool_proj
I1028 13:22:19.403831 28141 net.cpp:454] inception_4a/pool_proj <- inception_4a/pool
I1028 13:22:19.403838 28141 net.cpp:411] inception_4a/pool_proj -> inception_4a/pool_proj
I1028 13:22:19.404798 28141 cudnn_conv_layer.cpp:194] Reallocating workspace storage: 10080
I1028 13:22:19.404822 28141 net.cpp:150] Setting up inception_4a/pool_proj
I1028 13:22:19.404831 28141 net.cpp:157] Top shape: 32 64 14 14 (401408)
I1028 13:22:19.404835 28141 net.cpp:165] Memory required for data: 1180942848
I1028 13:22:19.404842 28141 layer_factory.hpp:76] Creating layer inception_4a/prelu_pool_proj
I1028 13:22:19.404850 28141 net.cpp:106] Creating Layer inception_4a/prelu_pool_proj
I1028 13:22:19.404853 28141 net.cpp:454] inception_4a/prelu_pool_proj <- inception_4a/pool_proj
I1028 13:22:19.404860 28141 net.cpp:397] inception_4a/prelu_pool_proj -> inception_4a/pool_proj (in-place)
I1028 13:22:19.404952 28141 net.cpp:150] Setting up inception_4a/prelu_pool_proj
I1028 13:22:19.404960 28141 net.cpp:157] Top shape: 32 64 14 14 (401408)
I1028 13:22:19.404964 28141 net.cpp:165] Memory required for data: 1182548480
I1028 13:22:19.404969 28141 layer_factory.hpp:76] Creating layer inception_4a/output
I1028 13:22:19.404976 28141 net.cpp:106] Creating Layer inception_4a/output
I1028 13:22:19.404980 28141 net.cpp:454] inception_4a/output <- inception_4a/1x1
I1028 13:22:19.404985 28141 net.cpp:454] inception_4a/output <- inception_4a/3x3
I1028 13:22:19.404989 28141 net.cpp:454] inception_4a/output <- inception_4a/5x5
I1028 13:22:19.404994 28141 net.cpp:454] inception_4a/output <- inception_4a/pool_proj
I1028 13:22:19.404999 28141 net.cpp:411] inception_4a/output -> inception_4a/output
I1028 13:22:19.405025 28141 net.cpp:150] Setting up inception_4a/output
I1028 13:22:19.405033 28141 net.cpp:157] Top shape: 32 512 14 14 (3211264)
I1028 13:22:19.405037 28141 net.cpp:165] Memory required for data: 1195393536
I1028 13:22:19.405041 28141 layer_factory.hpp:76] Creating layer inception_4a/output_inception_4a/output_0_split
I1028 13:22:19.405066 28141 net.cpp:106] Creating Layer inception_4a/output_inception_4a/output_0_split
I1028 13:22:19.405069 28141 net.cpp:454] inception_4a/output_inception_4a/output_0_split <- inception_4a/output
I1028 13:22:19.405076 28141 net.cpp:411] inception_4a/output_inception_4a/output_0_split -> inception_4a/output_inception_4a/output_0_split_0
I1028 13:22:19.405082 28141 net.cpp:411] inception_4a/output_inception_4a/output_0_split -> inception_4a/output_inception_4a/output_0_split_1
I1028 13:22:19.405104 28141 net.cpp:411] inception_4a/output_inception_4a/output_0_split -> inception_4a/output_inception_4a/output_0_split_2
I1028 13:22:19.405113 28141 net.cpp:411] inception_4a/output_inception_4a/output_0_split -> inception_4a/output_inception_4a/output_0_split_3
I1028 13:22:19.405128 28141 net.cpp:411] inception_4a/output_inception_4a/output_0_split -> inception_4a/output_inception_4a/output_0_split_4
I1028 13:22:19.405192 28141 net.cpp:150] Setting up inception_4a/output_inception_4a/output_0_split
I1028 13:22:19.405201 28141 net.cpp:157] Top shape: 32 512 14 14 (3211264)
I1028 13:22:19.405206 28141 net.cpp:157] Top shape: 32 512 14 14 (3211264)
I1028 13:22:19.405210 28141 net.cpp:157] Top shape: 32 512 14 14 (3211264)
I1028 13:22:19.405215 28141 net.cpp:157] Top shape: 32 512 14 14 (3211264)
I1028 13:22:19.405220 28141 net.cpp:157] Top shape: 32 512 14 14 (3211264)
I1028 13:22:19.405223 28141 net.cpp:165] Memory required for data: 1259618816
I1028 13:22:19.405227 28141 layer_factory.hpp:76] Creating layer loss1/ave_pool
I1028 13:22:19.405233 28141 net.cpp:106] Creating Layer loss1/ave_pool
I1028 13:22:19.405237 28141 net.cpp:454] loss1/ave_pool <- inception_4a/output_inception_4a/output_0_split_0
I1028 13:22:19.405243 28141 net.cpp:411] loss1/ave_pool -> loss1/ave_pool
I1028 13:22:19.405601 28141 net.cpp:150] Setting up loss1/ave_pool
I1028 13:22:19.405611 28141 net.cpp:157] Top shape: 32 512 4 4 (262144)
I1028 13:22:19.405616 28141 net.cpp:165] Memory required for data: 1260667392
I1028 13:22:19.405619 28141 layer_factory.hpp:76] Creating layer loss1/conv
I1028 13:22:19.405628 28141 net.cpp:106] Creating Layer loss1/conv
I1028 13:22:19.405632 28141 net.cpp:454] loss1/conv <- loss1/ave_pool
I1028 13:22:19.405640 28141 net.cpp:411] loss1/conv -> loss1/conv
I1028 13:22:19.406996 28141 cudnn_conv_layer.cpp:194] Reallocating workspace storage: 6840
I1028 13:22:19.407019 28141 net.cpp:150] Setting up loss1/conv
I1028 13:22:19.407027 28141 net.cpp:157] Top shape: 32 128 4 4 (65536)
I1028 13:22:19.407030 28141 net.cpp:165] Memory required for data: 1260929536
I1028 13:22:19.407047 28141 layer_factory.hpp:76] Creating layer loss1/prelu_conv
I1028 13:22:19.407057 28141 net.cpp:106] Creating Layer loss1/prelu_conv
I1028 13:22:19.407060 28141 net.cpp:454] loss1/prelu_conv <- loss1/conv
I1028 13:22:19.407068 28141 net.cpp:397] loss1/prelu_conv -> loss1/conv (in-place)
I1028 13:22:19.407150 28141 net.cpp:150] Setting up loss1/prelu_conv
I1028 13:22:19.407160 28141 net.cpp:157] Top shape: 32 128 4 4 (65536)
I1028 13:22:19.407163 28141 net.cpp:165] Memory required for data: 1261191680
I1028 13:22:19.407168 28141 layer_factory.hpp:76] Creating layer loss1/fc
I1028 13:22:19.407181 28141 net.cpp:106] Creating Layer loss1/fc
I1028 13:22:19.407186 28141 net.cpp:454] loss1/fc <- loss1/conv
I1028 13:22:19.407192 28141 net.cpp:411] loss1/fc -> loss1/fc
I1028 13:22:19.421330 28141 net.cpp:150] Setting up loss1/fc
I1028 13:22:19.421372 28141 net.cpp:157] Top shape: 32 1024 (32768)
I1028 13:22:19.421378 28141 net.cpp:165] Memory required for data: 1261322752
I1028 13:22:19.421391 28141 layer_factory.hpp:76] Creating layer loss1/prelu_fc
I1028 13:22:19.421402 28141 net.cpp:106] Creating Layer loss1/prelu_fc
I1028 13:22:19.421417 28141 net.cpp:454] loss1/prelu_fc <- loss1/fc
I1028 13:22:19.421427 28141 net.cpp:397] loss1/prelu_fc -> loss1/fc (in-place)
I1028 13:22:19.421525 28141 net.cpp:150] Setting up loss1/prelu_fc
I1028 13:22:19.421533 28141 net.cpp:157] Top shape: 32 1024 (32768)
I1028 13:22:19.421537 28141 net.cpp:165] Memory required for data: 1261453824
I1028 13:22:19.421558 28141 layer_factory.hpp:76] Creating layer loss1/drop_fc
I1028 13:22:19.421587 28141 net.cpp:106] Creating Layer loss1/drop_fc
I1028 13:22:19.421600 28141 net.cpp:454] loss1/drop_fc <- loss1/fc
I1028 13:22:19.421607 28141 net.cpp:397] loss1/drop_fc -> loss1/fc (in-place)
I1028 13:22:19.421653 28141 net.cpp:150] Setting up loss1/drop_fc
I1028 13:22:19.421677 28141 net.cpp:157] Top shape: 32 1024 (32768)
I1028 13:22:19.421681 28141 net.cpp:165] Memory required for data: 1261584896
I1028 13:22:19.421686 28141 layer_factory.hpp:76] Creating layer loss1/classifier2
I1028 13:22:19.421694 28141 net.cpp:106] Creating Layer loss1/classifier2
I1028 13:22:19.421699 28141 net.cpp:454] loss1/classifier2 <- loss1/fc
I1028 13:22:19.421720 28141 net.cpp:411] loss1/classifier2 -> loss1/classifier
I1028 13:22:19.421844 28141 net.cpp:150] Setting up loss1/classifier2
I1028 13:22:19.421854 28141 net.cpp:157] Top shape: 32 2 (64)
I1028 13:22:19.421865 28141 net.cpp:165] Memory required for data: 1261585152
I1028 13:22:19.421872 28141 layer_factory.hpp:76] Creating layer loss1/loss
I1028 13:22:19.421881 28141 net.cpp:106] Creating Layer loss1/loss
I1028 13:22:19.421885 28141 net.cpp:454] loss1/loss <- loss1/classifier
I1028 13:22:19.421891 28141 net.cpp:454] loss1/loss <- label_data_1_split_0
I1028 13:22:19.421897 28141 net.cpp:411] loss1/loss -> loss1/loss1
I1028 13:22:19.421911 28141 layer_factory.hpp:76] Creating layer loss1/loss
I1028 13:22:19.422207 28141 net.cpp:150] Setting up loss1/loss
I1028 13:22:19.422217 28141 net.cpp:157] Top shape: (1)
I1028 13:22:19.422222 28141 net.cpp:160]     with loss weight 0.3
I1028 13:22:19.422245 28141 net.cpp:165] Memory required for data: 1261585156
I1028 13:22:19.422250 28141 layer_factory.hpp:76] Creating layer inception_4b/1x1
I1028 13:22:19.422260 28141 net.cpp:106] Creating Layer inception_4b/1x1
I1028 13:22:19.422266 28141 net.cpp:454] inception_4b/1x1 <- inception_4a/output_inception_4a/output_0_split_1
I1028 13:22:19.422273 28141 net.cpp:411] inception_4b/1x1 -> inception_4b/1x1
I1028 13:22:19.423980 28141 cudnn_conv_layer.cpp:194] Reallocating workspace storage: 10080
I1028 13:22:19.424024 28141 net.cpp:150] Setting up inception_4b/1x1
I1028 13:22:19.424037 28141 net.cpp:157] Top shape: 32 160 14 14 (1003520)
I1028 13:22:19.424043 28141 net.cpp:165] Memory required for data: 1265599236
I1028 13:22:19.424054 28141 layer_factory.hpp:76] Creating layer inception_4b/prelu_1x1
I1028 13:22:19.424067 28141 net.cpp:106] Creating Layer inception_4b/prelu_1x1
I1028 13:22:19.424079 28141 net.cpp:454] inception_4b/prelu_1x1 <- inception_4b/1x1
I1028 13:22:19.424090 28141 net.cpp:397] inception_4b/prelu_1x1 -> inception_4b/1x1 (in-place)
I1028 13:22:19.424825 28141 net.cpp:150] Setting up inception_4b/prelu_1x1
I1028 13:22:19.424846 28141 net.cpp:157] Top shape: 32 160 14 14 (1003520)
I1028 13:22:19.424854 28141 net.cpp:165] Memory required for data: 1269613316
I1028 13:22:19.424865 28141 layer_factory.hpp:76] Creating layer inception_4b/3x3_reduce
I1028 13:22:19.424883 28141 net.cpp:106] Creating Layer inception_4b/3x3_reduce
I1028 13:22:19.424893 28141 net.cpp:454] inception_4b/3x3_reduce <- inception_4a/output_inception_4a/output_0_split_2
I1028 13:22:19.424907 28141 net.cpp:411] inception_4b/3x3_reduce -> inception_4b/3x3_reduce
I1028 13:22:19.426717 28141 cudnn_conv_layer.cpp:194] Reallocating workspace storage: 10080
I1028 13:22:19.426749 28141 net.cpp:150] Setting up inception_4b/3x3_reduce
I1028 13:22:19.426758 28141 net.cpp:157] Top shape: 32 112 14 14 (702464)
I1028 13:22:19.426762 28141 net.cpp:165] Memory required for data: 1272423172
I1028 13:22:19.426769 28141 layer_factory.hpp:76] Creating layer inception_4b/prelu_3x3_reduce
I1028 13:22:19.426779 28141 net.cpp:106] Creating Layer inception_4b/prelu_3x3_reduce
I1028 13:22:19.426784 28141 net.cpp:454] inception_4b/prelu_3x3_reduce <- inception_4b/3x3_reduce
I1028 13:22:19.426795 28141 net.cpp:397] inception_4b/prelu_3x3_reduce -> inception_4b/3x3_reduce (in-place)
I1028 13:22:19.426920 28141 net.cpp:150] Setting up inception_4b/prelu_3x3_reduce
I1028 13:22:19.426930 28141 net.cpp:157] Top shape: 32 112 14 14 (702464)
I1028 13:22:19.426934 28141 net.cpp:165] Memory required for data: 1275233028
I1028 13:22:19.426939 28141 layer_factory.hpp:76] Creating layer inception_4b/3x3
I1028 13:22:19.426949 28141 net.cpp:106] Creating Layer inception_4b/3x3
I1028 13:22:19.426954 28141 net.cpp:454] inception_4b/3x3 <- inception_4b/3x3_reduce
I1028 13:22:19.426959 28141 net.cpp:411] inception_4b/3x3 -> inception_4b/3x3
I1028 13:22:19.429744 28141 cudnn_conv_layer.cpp:194] Reallocating workspace storage: 10080
I1028 13:22:19.429774 28141 net.cpp:150] Setting up inception_4b/3x3
I1028 13:22:19.429782 28141 net.cpp:157] Top shape: 32 224 14 14 (1404928)
I1028 13:22:19.429805 28141 net.cpp:165] Memory required for data: 1280852740
I1028 13:22:19.429814 28141 layer_factory.hpp:76] Creating layer inception_4b/prelu_3x3
I1028 13:22:19.429822 28141 net.cpp:106] Creating Layer inception_4b/prelu_3x3
I1028 13:22:19.429827 28141 net.cpp:454] inception_4b/prelu_3x3 <- inception_4b/3x3
I1028 13:22:19.429833 28141 net.cpp:397] inception_4b/prelu_3x3 -> inception_4b/3x3 (in-place)
I1028 13:22:19.429975 28141 net.cpp:150] Setting up inception_4b/prelu_3x3
I1028 13:22:19.429986 28141 net.cpp:157] Top shape: 32 224 14 14 (1404928)
I1028 13:22:19.429990 28141 net.cpp:165] Memory required for data: 1286472452
I1028 13:22:19.429994 28141 layer_factory.hpp:76] Creating layer inception_4b/5x5_reduce
I1028 13:22:19.430002 28141 net.cpp:106] Creating Layer inception_4b/5x5_reduce
I1028 13:22:19.430006 28141 net.cpp:454] inception_4b/5x5_reduce <- inception_4a/output_inception_4a/output_0_split_3
I1028 13:22:19.430019 28141 net.cpp:411] inception_4b/5x5_reduce -> inception_4b/5x5_reduce
I1028 13:22:19.430907 28141 cudnn_conv_layer.cpp:194] Reallocating workspace storage: 10080
I1028 13:22:19.430932 28141 net.cpp:150] Setting up inception_4b/5x5_reduce
I1028 13:22:19.430938 28141 net.cpp:157] Top shape: 32 24 14 14 (150528)
I1028 13:22:19.430943 28141 net.cpp:165] Memory required for data: 1287074564
I1028 13:22:19.430950 28141 layer_factory.hpp:76] Creating layer inception_4b/prelu_5x5_reduce
I1028 13:22:19.430958 28141 net.cpp:106] Creating Layer inception_4b/prelu_5x5_reduce
I1028 13:22:19.430964 28141 net.cpp:454] inception_4b/prelu_5x5_reduce <- inception_4b/5x5_reduce
I1028 13:22:19.430969 28141 net.cpp:397] inception_4b/prelu_5x5_reduce -> inception_4b/5x5_reduce (in-place)
I1028 13:22:19.431080 28141 net.cpp:150] Setting up inception_4b/prelu_5x5_reduce
I1028 13:22:19.431089 28141 net.cpp:157] Top shape: 32 24 14 14 (150528)
I1028 13:22:19.431093 28141 net.cpp:165] Memory required for data: 1287676676
I1028 13:22:19.431098 28141 layer_factory.hpp:76] Creating layer inception_4b/5x5
I1028 13:22:19.431115 28141 net.cpp:106] Creating Layer inception_4b/5x5
I1028 13:22:19.431119 28141 net.cpp:454] inception_4b/5x5 <- inception_4b/5x5_reduce
I1028 13:22:19.431126 28141 net.cpp:411] inception_4b/5x5 -> inception_4b/5x5
I1028 13:22:19.432328 28141 cudnn_conv_layer.cpp:194] Reallocating workspace storage: 13080
I1028 13:22:19.432353 28141 net.cpp:150] Setting up inception_4b/5x5
I1028 13:22:19.432361 28141 net.cpp:157] Top shape: 32 64 14 14 (401408)
I1028 13:22:19.432365 28141 net.cpp:165] Memory required for data: 1289282308
I1028 13:22:19.432371 28141 layer_factory.hpp:76] Creating layer inception_4b/prelu_5x5
I1028 13:22:19.432380 28141 net.cpp:106] Creating Layer inception_4b/prelu_5x5
I1028 13:22:19.432385 28141 net.cpp:454] inception_4b/prelu_5x5 <- inception_4b/5x5
I1028 13:22:19.432391 28141 net.cpp:397] inception_4b/prelu_5x5 -> inception_4b/5x5 (in-place)
I1028 13:22:19.432487 28141 net.cpp:150] Setting up inception_4b/prelu_5x5
I1028 13:22:19.432497 28141 net.cpp:157] Top shape: 32 64 14 14 (401408)
I1028 13:22:19.432500 28141 net.cpp:165] Memory required for data: 1290887940
I1028 13:22:19.432505 28141 layer_factory.hpp:76] Creating layer inception_4b/pool
I1028 13:22:19.432514 28141 net.cpp:106] Creating Layer inception_4b/pool
I1028 13:22:19.432519 28141 net.cpp:454] inception_4b/pool <- inception_4a/output_inception_4a/output_0_split_4
I1028 13:22:19.432524 28141 net.cpp:411] inception_4b/pool -> inception_4b/pool
I1028 13:22:19.432888 28141 net.cpp:150] Setting up inception_4b/pool
I1028 13:22:19.432900 28141 net.cpp:157] Top shape: 32 512 14 14 (3211264)
I1028 13:22:19.432904 28141 net.cpp:165] Memory required for data: 1303732996
I1028 13:22:19.432909 28141 layer_factory.hpp:76] Creating layer inception_4b/pool_proj
I1028 13:22:19.432919 28141 net.cpp:106] Creating Layer inception_4b/pool_proj
I1028 13:22:19.432924 28141 net.cpp:454] inception_4b/pool_proj <- inception_4b/pool
I1028 13:22:19.432931 28141 net.cpp:411] inception_4b/pool_proj -> inception_4b/pool_proj
I1028 13:22:19.434121 28141 cudnn_conv_layer.cpp:194] Reallocating workspace storage: 10080
I1028 13:22:19.434149 28141 net.cpp:150] Setting up inception_4b/pool_proj
I1028 13:22:19.434157 28141 net.cpp:157] Top shape: 32 64 14 14 (401408)
I1028 13:22:19.434161 28141 net.cpp:165] Memory required for data: 1305338628
I1028 13:22:19.434168 28141 layer_factory.hpp:76] Creating layer inception_4b/prelu_pool_proj
I1028 13:22:19.434176 28141 net.cpp:106] Creating Layer inception_4b/prelu_pool_proj
I1028 13:22:19.434181 28141 net.cpp:454] inception_4b/prelu_pool_proj <- inception_4b/pool_proj
I1028 13:22:19.434187 28141 net.cpp:397] inception_4b/prelu_pool_proj -> inception_4b/pool_proj (in-place)
I1028 13:22:19.434279 28141 net.cpp:150] Setting up inception_4b/prelu_pool_proj
I1028 13:22:19.434289 28141 net.cpp:157] Top shape: 32 64 14 14 (401408)
I1028 13:22:19.434293 28141 net.cpp:165] Memory required for data: 1306944260
I1028 13:22:19.434298 28141 layer_factory.hpp:76] Creating layer inception_4b/output
I1028 13:22:19.434304 28141 net.cpp:106] Creating Layer inception_4b/output
I1028 13:22:19.434309 28141 net.cpp:454] inception_4b/output <- inception_4b/1x1
I1028 13:22:19.434314 28141 net.cpp:454] inception_4b/output <- inception_4b/3x3
I1028 13:22:19.434319 28141 net.cpp:454] inception_4b/output <- inception_4b/5x5
I1028 13:22:19.434322 28141 net.cpp:454] inception_4b/output <- inception_4b/pool_proj
I1028 13:22:19.434329 28141 net.cpp:411] inception_4b/output -> inception_4b/output
I1028 13:22:19.434353 28141 net.cpp:150] Setting up inception_4b/output
I1028 13:22:19.434362 28141 net.cpp:157] Top shape: 32 512 14 14 (3211264)
I1028 13:22:19.434366 28141 net.cpp:165] Memory required for data: 1319789316
I1028 13:22:19.434370 28141 layer_factory.hpp:76] Creating layer inception_4b/output_inception_4b/output_0_split
I1028 13:22:19.434393 28141 net.cpp:106] Creating Layer inception_4b/output_inception_4b/output_0_split
I1028 13:22:19.434398 28141 net.cpp:454] inception_4b/output_inception_4b/output_0_split <- inception_4b/output
I1028 13:22:19.434404 28141 net.cpp:411] inception_4b/output_inception_4b/output_0_split -> inception_4b/output_inception_4b/output_0_split_0
I1028 13:22:19.434412 28141 net.cpp:411] inception_4b/output_inception_4b/output_0_split -> inception_4b/output_inception_4b/output_0_split_1
I1028 13:22:19.434433 28141 net.cpp:411] inception_4b/output_inception_4b/output_0_split -> inception_4b/output_inception_4b/output_0_split_2
I1028 13:22:19.434442 28141 net.cpp:411] inception_4b/output_inception_4b/output_0_split -> inception_4b/output_inception_4b/output_0_split_3
I1028 13:22:19.434497 28141 net.cpp:150] Setting up inception_4b/output_inception_4b/output_0_split
I1028 13:22:19.434506 28141 net.cpp:157] Top shape: 32 512 14 14 (3211264)
I1028 13:22:19.434511 28141 net.cpp:157] Top shape: 32 512 14 14 (3211264)
I1028 13:22:19.434515 28141 net.cpp:157] Top shape: 32 512 14 14 (3211264)
I1028 13:22:19.434520 28141 net.cpp:157] Top shape: 32 512 14 14 (3211264)
I1028 13:22:19.434523 28141 net.cpp:165] Memory required for data: 1371169540
I1028 13:22:19.434527 28141 layer_factory.hpp:76] Creating layer inception_4c/1x1
I1028 13:22:19.434535 28141 net.cpp:106] Creating Layer inception_4c/1x1
I1028 13:22:19.434538 28141 net.cpp:454] inception_4c/1x1 <- inception_4b/output_inception_4b/output_0_split_0
I1028 13:22:19.434546 28141 net.cpp:411] inception_4c/1x1 -> inception_4c/1x1
I1028 13:22:19.436156 28141 cudnn_conv_layer.cpp:194] Reallocating workspace storage: 10080
I1028 13:22:19.436182 28141 net.cpp:150] Setting up inception_4c/1x1
I1028 13:22:19.436189 28141 net.cpp:157] Top shape: 32 128 14 14 (802816)
I1028 13:22:19.436193 28141 net.cpp:165] Memory required for data: 1374380804
I1028 13:22:19.436200 28141 layer_factory.hpp:76] Creating layer inception_4c/prelu_1x1
I1028 13:22:19.436209 28141 net.cpp:106] Creating Layer inception_4c/prelu_1x1
I1028 13:22:19.436213 28141 net.cpp:454] inception_4c/prelu_1x1 <- inception_4c/1x1
I1028 13:22:19.436219 28141 net.cpp:397] inception_4c/prelu_1x1 -> inception_4c/1x1 (in-place)
I1028 13:22:19.436337 28141 net.cpp:150] Setting up inception_4c/prelu_1x1
I1028 13:22:19.436347 28141 net.cpp:157] Top shape: 32 128 14 14 (802816)
I1028 13:22:19.436352 28141 net.cpp:165] Memory required for data: 1377592068
I1028 13:22:19.436357 28141 layer_factory.hpp:76] Creating layer inception_4c/3x3_reduce
I1028 13:22:19.436365 28141 net.cpp:106] Creating Layer inception_4c/3x3_reduce
I1028 13:22:19.436370 28141 net.cpp:454] inception_4c/3x3_reduce <- inception_4b/output_inception_4b/output_0_split_1
I1028 13:22:19.436377 28141 net.cpp:411] inception_4c/3x3_reduce -> inception_4c/3x3_reduce
I1028 13:22:19.437726 28141 cudnn_conv_layer.cpp:194] Reallocating workspace storage: 10080
I1028 13:22:19.437748 28141 net.cpp:150] Setting up inception_4c/3x3_reduce
I1028 13:22:19.437755 28141 net.cpp:157] Top shape: 32 128 14 14 (802816)
I1028 13:22:19.437759 28141 net.cpp:165] Memory required for data: 1380803332
I1028 13:22:19.437767 28141 layer_factory.hpp:76] Creating layer inception_4c/prelu_3x3_reduce
I1028 13:22:19.437777 28141 net.cpp:106] Creating Layer inception_4c/prelu_3x3_reduce
I1028 13:22:19.437782 28141 net.cpp:454] inception_4c/prelu_3x3_reduce <- inception_4c/3x3_reduce
I1028 13:22:19.437788 28141 net.cpp:397] inception_4c/prelu_3x3_reduce -> inception_4c/3x3_reduce (in-place)
I1028 13:22:19.437880 28141 net.cpp:150] Setting up inception_4c/prelu_3x3_reduce
I1028 13:22:19.437890 28141 net.cpp:157] Top shape: 32 128 14 14 (802816)
I1028 13:22:19.437892 28141 net.cpp:165] Memory required for data: 1384014596
I1028 13:22:19.437898 28141 layer_factory.hpp:76] Creating layer inception_4c/3x3
I1028 13:22:19.437907 28141 net.cpp:106] Creating Layer inception_4c/3x3
I1028 13:22:19.437911 28141 net.cpp:454] inception_4c/3x3 <- inception_4c/3x3_reduce
I1028 13:22:19.437918 28141 net.cpp:411] inception_4c/3x3 -> inception_4c/3x3
I1028 13:22:19.440959 28141 cudnn_conv_layer.cpp:194] Reallocating workspace storage: 10080
I1028 13:22:19.440984 28141 net.cpp:150] Setting up inception_4c/3x3
I1028 13:22:19.440992 28141 net.cpp:157] Top shape: 32 256 14 14 (1605632)
I1028 13:22:19.440996 28141 net.cpp:165] Memory required for data: 1390437124
I1028 13:22:19.441004 28141 layer_factory.hpp:76] Creating layer inception_4c/prelu_3x3
I1028 13:22:19.441018 28141 net.cpp:106] Creating Layer inception_4c/prelu_3x3
I1028 13:22:19.441023 28141 net.cpp:454] inception_4c/prelu_3x3 <- inception_4c/3x3
I1028 13:22:19.441030 28141 net.cpp:397] inception_4c/prelu_3x3 -> inception_4c/3x3 (in-place)
I1028 13:22:19.441159 28141 net.cpp:150] Setting up inception_4c/prelu_3x3
I1028 13:22:19.441169 28141 net.cpp:157] Top shape: 32 256 14 14 (1605632)
I1028 13:22:19.441174 28141 net.cpp:165] Memory required for data: 1396859652
I1028 13:22:19.441179 28141 layer_factory.hpp:76] Creating layer inception_4c/5x5_reduce
I1028 13:22:19.441187 28141 net.cpp:106] Creating Layer inception_4c/5x5_reduce
I1028 13:22:19.441191 28141 net.cpp:454] inception_4c/5x5_reduce <- inception_4b/output_inception_4b/output_0_split_2
I1028 13:22:19.441200 28141 net.cpp:411] inception_4c/5x5_reduce -> inception_4c/5x5_reduce
I1028 13:22:19.442270 28141 cudnn_conv_layer.cpp:194] Reallocating workspace storage: 10080
I1028 13:22:19.442292 28141 net.cpp:150] Setting up inception_4c/5x5_reduce
I1028 13:22:19.442299 28141 net.cpp:157] Top shape: 32 24 14 14 (150528)
I1028 13:22:19.442303 28141 net.cpp:165] Memory required for data: 1397461764
I1028 13:22:19.442309 28141 layer_factory.hpp:76] Creating layer inception_4c/prelu_5x5_reduce
I1028 13:22:19.442318 28141 net.cpp:106] Creating Layer inception_4c/prelu_5x5_reduce
I1028 13:22:19.442322 28141 net.cpp:454] inception_4c/prelu_5x5_reduce <- inception_4c/5x5_reduce
I1028 13:22:19.442337 28141 net.cpp:397] inception_4c/prelu_5x5_reduce -> inception_4c/5x5_reduce (in-place)
I1028 13:22:19.442437 28141 net.cpp:150] Setting up inception_4c/prelu_5x5_reduce
I1028 13:22:19.442446 28141 net.cpp:157] Top shape: 32 24 14 14 (150528)
I1028 13:22:19.442450 28141 net.cpp:165] Memory required for data: 1398063876
I1028 13:22:19.442466 28141 layer_factory.hpp:76] Creating layer inception_4c/5x5
I1028 13:22:19.442474 28141 net.cpp:106] Creating Layer inception_4c/5x5
I1028 13:22:19.442479 28141 net.cpp:454] inception_4c/5x5 <- inception_4c/5x5_reduce
I1028 13:22:19.442493 28141 net.cpp:411] inception_4c/5x5 -> inception_4c/5x5
I1028 13:22:19.444134 28141 cudnn_conv_layer.cpp:194] Reallocating workspace storage: 13080
I1028 13:22:19.444157 28141 net.cpp:150] Setting up inception_4c/5x5
I1028 13:22:19.444166 28141 net.cpp:157] Top shape: 32 64 14 14 (401408)
I1028 13:22:19.444170 28141 net.cpp:165] Memory required for data: 1399669508
I1028 13:22:19.444177 28141 layer_factory.hpp:76] Creating layer inception_4c/prelu_5x5
I1028 13:22:19.444185 28141 net.cpp:106] Creating Layer inception_4c/prelu_5x5
I1028 13:22:19.444196 28141 net.cpp:454] inception_4c/prelu_5x5 <- inception_4c/5x5
I1028 13:22:19.444202 28141 net.cpp:397] inception_4c/prelu_5x5 -> inception_4c/5x5 (in-place)
I1028 13:22:19.444314 28141 net.cpp:150] Setting up inception_4c/prelu_5x5
I1028 13:22:19.444324 28141 net.cpp:157] Top shape: 32 64 14 14 (401408)
I1028 13:22:19.444327 28141 net.cpp:165] Memory required for data: 1401275140
I1028 13:22:19.444332 28141 layer_factory.hpp:76] Creating layer inception_4c/pool
I1028 13:22:19.444339 28141 net.cpp:106] Creating Layer inception_4c/pool
I1028 13:22:19.444344 28141 net.cpp:454] inception_4c/pool <- inception_4b/output_inception_4b/output_0_split_3
I1028 13:22:19.444350 28141 net.cpp:411] inception_4c/pool -> inception_4c/pool
I1028 13:22:19.444536 28141 net.cpp:150] Setting up inception_4c/pool
I1028 13:22:19.444546 28141 net.cpp:157] Top shape: 32 512 14 14 (3211264)
I1028 13:22:19.444550 28141 net.cpp:165] Memory required for data: 1414120196
I1028 13:22:19.444553 28141 layer_factory.hpp:76] Creating layer inception_4c/pool_proj
I1028 13:22:19.444562 28141 net.cpp:106] Creating Layer inception_4c/pool_proj
I1028 13:22:19.444567 28141 net.cpp:454] inception_4c/pool_proj <- inception_4c/pool
I1028 13:22:19.444574 28141 net.cpp:411] inception_4c/pool_proj -> inception_4c/pool_proj
I1028 13:22:19.445932 28141 cudnn_conv_layer.cpp:194] Reallocating workspace storage: 10080
I1028 13:22:19.445957 28141 net.cpp:150] Setting up inception_4c/pool_proj
I1028 13:22:19.445965 28141 net.cpp:157] Top shape: 32 64 14 14 (401408)
I1028 13:22:19.445968 28141 net.cpp:165] Memory required for data: 1415725828
I1028 13:22:19.445976 28141 layer_factory.hpp:76] Creating layer inception_4c/prelu_pool_proj
I1028 13:22:19.445991 28141 net.cpp:106] Creating Layer inception_4c/prelu_pool_proj
I1028 13:22:19.445997 28141 net.cpp:454] inception_4c/prelu_pool_proj <- inception_4c/pool_proj
I1028 13:22:19.446003 28141 net.cpp:397] inception_4c/prelu_pool_proj -> inception_4c/pool_proj (in-place)
I1028 13:22:19.446171 28141 net.cpp:150] Setting up inception_4c/prelu_pool_proj
I1028 13:22:19.446183 28141 net.cpp:157] Top shape: 32 64 14 14 (401408)
I1028 13:22:19.446187 28141 net.cpp:165] Memory required for data: 1417331460
I1028 13:22:19.446192 28141 layer_factory.hpp:76] Creating layer inception_4c/output
I1028 13:22:19.446199 28141 net.cpp:106] Creating Layer inception_4c/output
I1028 13:22:19.446203 28141 net.cpp:454] inception_4c/output <- inception_4c/1x1
I1028 13:22:19.446208 28141 net.cpp:454] inception_4c/output <- inception_4c/3x3
I1028 13:22:19.446213 28141 net.cpp:454] inception_4c/output <- inception_4c/5x5
I1028 13:22:19.446218 28141 net.cpp:454] inception_4c/output <- inception_4c/pool_proj
I1028 13:22:19.446231 28141 net.cpp:411] inception_4c/output -> inception_4c/output
I1028 13:22:19.446257 28141 net.cpp:150] Setting up inception_4c/output
I1028 13:22:19.446266 28141 net.cpp:157] Top shape: 32 512 14 14 (3211264)
I1028 13:22:19.446270 28141 net.cpp:165] Memory required for data: 1430176516
I1028 13:22:19.446290 28141 layer_factory.hpp:76] Creating layer inception_4c/output_inception_4c/output_0_split
I1028 13:22:19.446297 28141 net.cpp:106] Creating Layer inception_4c/output_inception_4c/output_0_split
I1028 13:22:19.446312 28141 net.cpp:454] inception_4c/output_inception_4c/output_0_split <- inception_4c/output
I1028 13:22:19.446319 28141 net.cpp:411] inception_4c/output_inception_4c/output_0_split -> inception_4c/output_inception_4c/output_0_split_0
I1028 13:22:19.446326 28141 net.cpp:411] inception_4c/output_inception_4c/output_0_split -> inception_4c/output_inception_4c/output_0_split_1
I1028 13:22:19.446333 28141 net.cpp:411] inception_4c/output_inception_4c/output_0_split -> inception_4c/output_inception_4c/output_0_split_2
I1028 13:22:19.446357 28141 net.cpp:411] inception_4c/output_inception_4c/output_0_split -> inception_4c/output_inception_4c/output_0_split_3
I1028 13:22:19.446424 28141 net.cpp:150] Setting up inception_4c/output_inception_4c/output_0_split
I1028 13:22:19.446434 28141 net.cpp:157] Top shape: 32 512 14 14 (3211264)
I1028 13:22:19.446437 28141 net.cpp:157] Top shape: 32 512 14 14 (3211264)
I1028 13:22:19.446442 28141 net.cpp:157] Top shape: 32 512 14 14 (3211264)
I1028 13:22:19.446446 28141 net.cpp:157] Top shape: 32 512 14 14 (3211264)
I1028 13:22:19.446450 28141 net.cpp:165] Memory required for data: 1481556740
I1028 13:22:19.446455 28141 layer_factory.hpp:76] Creating layer inception_4d/1x1
I1028 13:22:19.446461 28141 net.cpp:106] Creating Layer inception_4d/1x1
I1028 13:22:19.446465 28141 net.cpp:454] inception_4d/1x1 <- inception_4c/output_inception_4c/output_0_split_0
I1028 13:22:19.446480 28141 net.cpp:411] inception_4d/1x1 -> inception_4d/1x1
I1028 13:22:19.447826 28141 cudnn_conv_layer.cpp:194] Reallocating workspace storage: 10080
I1028 13:22:19.447851 28141 net.cpp:150] Setting up inception_4d/1x1
I1028 13:22:19.447859 28141 net.cpp:157] Top shape: 32 112 14 14 (702464)
I1028 13:22:19.447862 28141 net.cpp:165] Memory required for data: 1484366596
I1028 13:22:19.447870 28141 layer_factory.hpp:76] Creating layer inception_4d/prelu_1x1
I1028 13:22:19.447885 28141 net.cpp:106] Creating Layer inception_4d/prelu_1x1
I1028 13:22:19.447890 28141 net.cpp:454] inception_4d/prelu_1x1 <- inception_4d/1x1
I1028 13:22:19.447897 28141 net.cpp:397] inception_4d/prelu_1x1 -> inception_4d/1x1 (in-place)
I1028 13:22:19.448020 28141 net.cpp:150] Setting up inception_4d/prelu_1x1
I1028 13:22:19.448029 28141 net.cpp:157] Top shape: 32 112 14 14 (702464)
I1028 13:22:19.448034 28141 net.cpp:165] Memory required for data: 1487176452
I1028 13:22:19.448038 28141 layer_factory.hpp:76] Creating layer inception_4d/3x3_reduce
I1028 13:22:19.448047 28141 net.cpp:106] Creating Layer inception_4d/3x3_reduce
I1028 13:22:19.448052 28141 net.cpp:454] inception_4d/3x3_reduce <- inception_4c/output_inception_4c/output_0_split_1
I1028 13:22:19.448060 28141 net.cpp:411] inception_4d/3x3_reduce -> inception_4d/3x3_reduce
I1028 13:22:19.449312 28141 cudnn_conv_layer.cpp:194] Reallocating workspace storage: 10080
I1028 13:22:19.449337 28141 net.cpp:150] Setting up inception_4d/3x3_reduce
I1028 13:22:19.449343 28141 net.cpp:157] Top shape: 32 144 14 14 (903168)
I1028 13:22:19.449347 28141 net.cpp:165] Memory required for data: 1490789124
I1028 13:22:19.449354 28141 layer_factory.hpp:76] Creating layer inception_4d/prelu_3x3_reduce
I1028 13:22:19.449362 28141 net.cpp:106] Creating Layer inception_4d/prelu_3x3_reduce
I1028 13:22:19.449368 28141 net.cpp:454] inception_4d/prelu_3x3_reduce <- inception_4d/3x3_reduce
I1028 13:22:19.449374 28141 net.cpp:397] inception_4d/prelu_3x3_reduce -> inception_4d/3x3_reduce (in-place)
I1028 13:22:19.449496 28141 net.cpp:150] Setting up inception_4d/prelu_3x3_reduce
I1028 13:22:19.449506 28141 net.cpp:157] Top shape: 32 144 14 14 (903168)
I1028 13:22:19.449509 28141 net.cpp:165] Memory required for data: 1494401796
I1028 13:22:19.449514 28141 layer_factory.hpp:76] Creating layer inception_4d/3x3
I1028 13:22:19.449523 28141 net.cpp:106] Creating Layer inception_4d/3x3
I1028 13:22:19.449528 28141 net.cpp:454] inception_4d/3x3 <- inception_4d/3x3_reduce
I1028 13:22:19.449535 28141 net.cpp:411] inception_4d/3x3 -> inception_4d/3x3
I1028 13:22:19.453379 28141 cudnn_conv_layer.cpp:194] Reallocating workspace storage: 10080
I1028 13:22:19.453440 28141 net.cpp:150] Setting up inception_4d/3x3
I1028 13:22:19.453451 28141 net.cpp:157] Top shape: 32 288 14 14 (1806336)
I1028 13:22:19.453455 28141 net.cpp:165] Memory required for data: 1501627140
I1028 13:22:19.453465 28141 layer_factory.hpp:76] Creating layer inception_4d/prelu_3x3
I1028 13:22:19.453475 28141 net.cpp:106] Creating Layer inception_4d/prelu_3x3
I1028 13:22:19.453482 28141 net.cpp:454] inception_4d/prelu_3x3 <- inception_4d/3x3
I1028 13:22:19.453491 28141 net.cpp:397] inception_4d/prelu_3x3 -> inception_4d/3x3 (in-place)
I1028 13:22:19.453668 28141 net.cpp:150] Setting up inception_4d/prelu_3x3
I1028 13:22:19.453678 28141 net.cpp:157] Top shape: 32 288 14 14 (1806336)
I1028 13:22:19.453682 28141 net.cpp:165] Memory required for data: 1508852484
I1028 13:22:19.453687 28141 layer_factory.hpp:76] Creating layer inception_4d/5x5_reduce
I1028 13:22:19.453698 28141 net.cpp:106] Creating Layer inception_4d/5x5_reduce
I1028 13:22:19.453703 28141 net.cpp:454] inception_4d/5x5_reduce <- inception_4c/output_inception_4c/output_0_split_2
I1028 13:22:19.453711 28141 net.cpp:411] inception_4d/5x5_reduce -> inception_4d/5x5_reduce
I1028 13:22:19.455122 28141 cudnn_conv_layer.cpp:194] Reallocating workspace storage: 10080
I1028 13:22:19.455163 28141 net.cpp:150] Setting up inception_4d/5x5_reduce
I1028 13:22:19.455175 28141 net.cpp:157] Top shape: 32 32 14 14 (200704)
I1028 13:22:19.455191 28141 net.cpp:165] Memory required for data: 1509655300
I1028 13:22:19.455204 28141 layer_factory.hpp:76] Creating layer inception_4d/prelu_5x5_reduce
I1028 13:22:19.455219 28141 net.cpp:106] Creating Layer inception_4d/prelu_5x5_reduce
I1028 13:22:19.455230 28141 net.cpp:454] inception_4d/prelu_5x5_reduce <- inception_4d/5x5_reduce
I1028 13:22:19.455266 28141 net.cpp:397] inception_4d/prelu_5x5_reduce -> inception_4d/5x5_reduce (in-place)
I1028 13:22:19.455464 28141 net.cpp:150] Setting up inception_4d/prelu_5x5_reduce
I1028 13:22:19.455481 28141 net.cpp:157] Top shape: 32 32 14 14 (200704)
I1028 13:22:19.455487 28141 net.cpp:165] Memory required for data: 1510458116
I1028 13:22:19.455497 28141 layer_factory.hpp:76] Creating layer inception_4d/5x5
I1028 13:22:19.455507 28141 net.cpp:106] Creating Layer inception_4d/5x5
I1028 13:22:19.455513 28141 net.cpp:454] inception_4d/5x5 <- inception_4d/5x5_reduce
I1028 13:22:19.455519 28141 net.cpp:411] inception_4d/5x5 -> inception_4d/5x5
I1028 13:22:19.457371 28141 cudnn_conv_layer.cpp:194] Reallocating workspace storage: 13080
I1028 13:22:19.457404 28141 net.cpp:150] Setting up inception_4d/5x5
I1028 13:22:19.457413 28141 net.cpp:157] Top shape: 32 64 14 14 (401408)
I1028 13:22:19.457417 28141 net.cpp:165] Memory required for data: 1512063748
I1028 13:22:19.457424 28141 layer_factory.hpp:76] Creating layer inception_4d/prelu_5x5
I1028 13:22:19.457433 28141 net.cpp:106] Creating Layer inception_4d/prelu_5x5
I1028 13:22:19.457440 28141 net.cpp:454] inception_4d/prelu_5x5 <- inception_4d/5x5
I1028 13:22:19.457448 28141 net.cpp:397] inception_4d/prelu_5x5 -> inception_4d/5x5 (in-place)
I1028 13:22:19.457578 28141 net.cpp:150] Setting up inception_4d/prelu_5x5
I1028 13:22:19.457588 28141 net.cpp:157] Top shape: 32 64 14 14 (401408)
I1028 13:22:19.457592 28141 net.cpp:165] Memory required for data: 1513669380
I1028 13:22:19.457598 28141 layer_factory.hpp:76] Creating layer inception_4d/pool
I1028 13:22:19.457607 28141 net.cpp:106] Creating Layer inception_4d/pool
I1028 13:22:19.457613 28141 net.cpp:454] inception_4d/pool <- inception_4c/output_inception_4c/output_0_split_3
I1028 13:22:19.457620 28141 net.cpp:411] inception_4d/pool -> inception_4d/pool
I1028 13:22:19.457829 28141 net.cpp:150] Setting up inception_4d/pool
I1028 13:22:19.457840 28141 net.cpp:157] Top shape: 32 512 14 14 (3211264)
I1028 13:22:19.457844 28141 net.cpp:165] Memory required for data: 1526514436
I1028 13:22:19.457849 28141 layer_factory.hpp:76] Creating layer inception_4d/pool_proj
I1028 13:22:19.457859 28141 net.cpp:106] Creating Layer inception_4d/pool_proj
I1028 13:22:19.457864 28141 net.cpp:454] inception_4d/pool_proj <- inception_4d/pool
I1028 13:22:19.457885 28141 net.cpp:411] inception_4d/pool_proj -> inception_4d/pool_proj
I1028 13:22:19.459146 28141 cudnn_conv_layer.cpp:194] Reallocating workspace storage: 10080
I1028 13:22:19.459182 28141 net.cpp:150] Setting up inception_4d/pool_proj
I1028 13:22:19.459189 28141 net.cpp:157] Top shape: 32 64 14 14 (401408)
I1028 13:22:19.459194 28141 net.cpp:165] Memory required for data: 1528120068
I1028 13:22:19.459203 28141 layer_factory.hpp:76] Creating layer inception_4d/prelu_pool_proj
I1028 13:22:19.459213 28141 net.cpp:106] Creating Layer inception_4d/prelu_pool_proj
I1028 13:22:19.459218 28141 net.cpp:454] inception_4d/prelu_pool_proj <- inception_4d/pool_proj
I1028 13:22:19.459224 28141 net.cpp:397] inception_4d/prelu_pool_proj -> inception_4d/pool_proj (in-place)
I1028 13:22:19.459328 28141 net.cpp:150] Setting up inception_4d/prelu_pool_proj
I1028 13:22:19.459338 28141 net.cpp:157] Top shape: 32 64 14 14 (401408)
I1028 13:22:19.459342 28141 net.cpp:165] Memory required for data: 1529725700
I1028 13:22:19.459348 28141 layer_factory.hpp:76] Creating layer inception_4d/output
I1028 13:22:19.459355 28141 net.cpp:106] Creating Layer inception_4d/output
I1028 13:22:19.459360 28141 net.cpp:454] inception_4d/output <- inception_4d/1x1
I1028 13:22:19.459365 28141 net.cpp:454] inception_4d/output <- inception_4d/3x3
I1028 13:22:19.459370 28141 net.cpp:454] inception_4d/output <- inception_4d/5x5
I1028 13:22:19.459374 28141 net.cpp:454] inception_4d/output <- inception_4d/pool_proj
I1028 13:22:19.459379 28141 net.cpp:411] inception_4d/output -> inception_4d/output
I1028 13:22:19.459408 28141 net.cpp:150] Setting up inception_4d/output
I1028 13:22:19.459416 28141 net.cpp:157] Top shape: 32 528 14 14 (3311616)
I1028 13:22:19.459419 28141 net.cpp:165] Memory required for data: 1542972164
I1028 13:22:19.459424 28141 layer_factory.hpp:76] Creating layer inception_4d/output_inception_4d/output_0_split
I1028 13:22:19.459431 28141 net.cpp:106] Creating Layer inception_4d/output_inception_4d/output_0_split
I1028 13:22:19.459435 28141 net.cpp:454] inception_4d/output_inception_4d/output_0_split <- inception_4d/output
I1028 13:22:19.459468 28141 net.cpp:411] inception_4d/output_inception_4d/output_0_split -> inception_4d/output_inception_4d/output_0_split_0
I1028 13:22:19.459477 28141 net.cpp:411] inception_4d/output_inception_4d/output_0_split -> inception_4d/output_inception_4d/output_0_split_1
I1028 13:22:19.459483 28141 net.cpp:411] inception_4d/output_inception_4d/output_0_split -> inception_4d/output_inception_4d/output_0_split_2
I1028 13:22:19.459511 28141 net.cpp:411] inception_4d/output_inception_4d/output_0_split -> inception_4d/output_inception_4d/output_0_split_3
I1028 13:22:19.459517 28141 net.cpp:411] inception_4d/output_inception_4d/output_0_split -> inception_4d/output_inception_4d/output_0_split_4
I1028 13:22:19.459591 28141 net.cpp:150] Setting up inception_4d/output_inception_4d/output_0_split
I1028 13:22:19.459599 28141 net.cpp:157] Top shape: 32 528 14 14 (3311616)
I1028 13:22:19.459604 28141 net.cpp:157] Top shape: 32 528 14 14 (3311616)
I1028 13:22:19.459609 28141 net.cpp:157] Top shape: 32 528 14 14 (3311616)
I1028 13:22:19.459614 28141 net.cpp:157] Top shape: 32 528 14 14 (3311616)
I1028 13:22:19.459619 28141 net.cpp:157] Top shape: 32 528 14 14 (3311616)
I1028 13:22:19.459622 28141 net.cpp:165] Memory required for data: 1609204484
I1028 13:22:19.459626 28141 layer_factory.hpp:76] Creating layer loss2/ave_pool
I1028 13:22:19.459635 28141 net.cpp:106] Creating Layer loss2/ave_pool
I1028 13:22:19.459638 28141 net.cpp:454] loss2/ave_pool <- inception_4d/output_inception_4d/output_0_split_0
I1028 13:22:19.459656 28141 net.cpp:411] loss2/ave_pool -> loss2/ave_pool
I1028 13:22:19.460059 28141 net.cpp:150] Setting up loss2/ave_pool
I1028 13:22:19.460072 28141 net.cpp:157] Top shape: 32 528 4 4 (270336)
I1028 13:22:19.460075 28141 net.cpp:165] Memory required for data: 1610285828
I1028 13:22:19.460080 28141 layer_factory.hpp:76] Creating layer loss2/conv
I1028 13:22:19.460101 28141 net.cpp:106] Creating Layer loss2/conv
I1028 13:22:19.460108 28141 net.cpp:454] loss2/conv <- loss2/ave_pool
I1028 13:22:19.460115 28141 net.cpp:411] loss2/conv -> loss2/conv
I1028 13:22:19.461793 28141 cudnn_conv_layer.cpp:194] Reallocating workspace storage: 6840
I1028 13:22:19.461820 28141 net.cpp:150] Setting up loss2/conv
I1028 13:22:19.461828 28141 net.cpp:157] Top shape: 32 128 4 4 (65536)
I1028 13:22:19.461833 28141 net.cpp:165] Memory required for data: 1610547972
I1028 13:22:19.461839 28141 layer_factory.hpp:76] Creating layer loss2/prelu_conv
I1028 13:22:19.461849 28141 net.cpp:106] Creating Layer loss2/prelu_conv
I1028 13:22:19.461854 28141 net.cpp:454] loss2/prelu_conv <- loss2/conv
I1028 13:22:19.461860 28141 net.cpp:397] loss2/prelu_conv -> loss2/conv (in-place)
I1028 13:22:19.461956 28141 net.cpp:150] Setting up loss2/prelu_conv
I1028 13:22:19.461966 28141 net.cpp:157] Top shape: 32 128 4 4 (65536)
I1028 13:22:19.461969 28141 net.cpp:165] Memory required for data: 1610810116
I1028 13:22:19.461976 28141 layer_factory.hpp:76] Creating layer loss2/fc
I1028 13:22:19.461983 28141 net.cpp:106] Creating Layer loss2/fc
I1028 13:22:19.461987 28141 net.cpp:454] loss2/fc <- loss2/conv
I1028 13:22:19.461994 28141 net.cpp:411] loss2/fc -> loss2/fc
I1028 13:22:19.476389 28141 net.cpp:150] Setting up loss2/fc
I1028 13:22:19.476434 28141 net.cpp:157] Top shape: 32 1024 (32768)
I1028 13:22:19.476440 28141 net.cpp:165] Memory required for data: 1610941188
I1028 13:22:19.476479 28141 layer_factory.hpp:76] Creating layer loss2/prelu_fc
I1028 13:22:19.476500 28141 net.cpp:106] Creating Layer loss2/prelu_fc
I1028 13:22:19.476507 28141 net.cpp:454] loss2/prelu_fc <- loss2/fc
I1028 13:22:19.476514 28141 net.cpp:397] loss2/prelu_fc -> loss2/fc (in-place)
I1028 13:22:19.476636 28141 net.cpp:150] Setting up loss2/prelu_fc
I1028 13:22:19.476644 28141 net.cpp:157] Top shape: 32 1024 (32768)
I1028 13:22:19.476649 28141 net.cpp:165] Memory required for data: 1611072260
I1028 13:22:19.476661 28141 layer_factory.hpp:76] Creating layer loss2/drop_fc
I1028 13:22:19.476670 28141 net.cpp:106] Creating Layer loss2/drop_fc
I1028 13:22:19.476675 28141 net.cpp:454] loss2/drop_fc <- loss2/fc
I1028 13:22:19.476680 28141 net.cpp:397] loss2/drop_fc -> loss2/fc (in-place)
I1028 13:22:19.476714 28141 net.cpp:150] Setting up loss2/drop_fc
I1028 13:22:19.476722 28141 net.cpp:157] Top shape: 32 1024 (32768)
I1028 13:22:19.476734 28141 net.cpp:165] Memory required for data: 1611203332
I1028 13:22:19.476738 28141 layer_factory.hpp:76] Creating layer loss2/classifier2
I1028 13:22:19.476754 28141 net.cpp:106] Creating Layer loss2/classifier2
I1028 13:22:19.476761 28141 net.cpp:454] loss2/classifier2 <- loss2/fc
I1028 13:22:19.476775 28141 net.cpp:411] loss2/classifier2 -> loss2/classifier
I1028 13:22:19.476922 28141 net.cpp:150] Setting up loss2/classifier2
I1028 13:22:19.476930 28141 net.cpp:157] Top shape: 32 2 (64)
I1028 13:22:19.476941 28141 net.cpp:165] Memory required for data: 1611203588
I1028 13:22:19.476948 28141 layer_factory.hpp:76] Creating layer loss2/loss
I1028 13:22:19.476955 28141 net.cpp:106] Creating Layer loss2/loss
I1028 13:22:19.476959 28141 net.cpp:454] loss2/loss <- loss2/classifier
I1028 13:22:19.476964 28141 net.cpp:454] loss2/loss <- label_data_1_split_1
I1028 13:22:19.476970 28141 net.cpp:411] loss2/loss -> loss2/loss1
I1028 13:22:19.476979 28141 layer_factory.hpp:76] Creating layer loss2/loss
I1028 13:22:19.477288 28141 net.cpp:150] Setting up loss2/loss
I1028 13:22:19.477298 28141 net.cpp:157] Top shape: (1)
I1028 13:22:19.477301 28141 net.cpp:160]     with loss weight 0.3
I1028 13:22:19.477322 28141 net.cpp:165] Memory required for data: 1611203592
I1028 13:22:19.477326 28141 layer_factory.hpp:76] Creating layer inception_4e/1x1
I1028 13:22:19.477344 28141 net.cpp:106] Creating Layer inception_4e/1x1
I1028 13:22:19.477350 28141 net.cpp:454] inception_4e/1x1 <- inception_4d/output_inception_4d/output_0_split_1
I1028 13:22:19.477358 28141 net.cpp:411] inception_4e/1x1 -> inception_4e/1x1
I1028 13:22:19.479763 28141 cudnn_conv_layer.cpp:194] Reallocating workspace storage: 10080
I1028 13:22:19.479806 28141 net.cpp:150] Setting up inception_4e/1x1
I1028 13:22:19.479815 28141 net.cpp:157] Top shape: 32 256 14 14 (1605632)
I1028 13:22:19.479820 28141 net.cpp:165] Memory required for data: 1617626120
I1028 13:22:19.479826 28141 layer_factory.hpp:76] Creating layer inception_4e/prelu_1x1
I1028 13:22:19.479833 28141 net.cpp:106] Creating Layer inception_4e/prelu_1x1
I1028 13:22:19.479838 28141 net.cpp:454] inception_4e/prelu_1x1 <- inception_4e/1x1
I1028 13:22:19.479846 28141 net.cpp:397] inception_4e/prelu_1x1 -> inception_4e/1x1 (in-place)
I1028 13:22:19.479979 28141 net.cpp:150] Setting up inception_4e/prelu_1x1
I1028 13:22:19.479990 28141 net.cpp:157] Top shape: 32 256 14 14 (1605632)
I1028 13:22:19.479995 28141 net.cpp:165] Memory required for data: 1624048648
I1028 13:22:19.480000 28141 layer_factory.hpp:76] Creating layer inception_4e/3x3_reduce
I1028 13:22:19.480007 28141 net.cpp:106] Creating Layer inception_4e/3x3_reduce
I1028 13:22:19.480011 28141 net.cpp:454] inception_4e/3x3_reduce <- inception_4d/output_inception_4d/output_0_split_2
I1028 13:22:19.480020 28141 net.cpp:411] inception_4e/3x3_reduce -> inception_4e/3x3_reduce
I1028 13:22:19.481549 28141 cudnn_conv_layer.cpp:194] Reallocating workspace storage: 10080
I1028 13:22:19.481592 28141 net.cpp:150] Setting up inception_4e/3x3_reduce
I1028 13:22:19.481600 28141 net.cpp:157] Top shape: 32 160 14 14 (1003520)
I1028 13:22:19.481605 28141 net.cpp:165] Memory required for data: 1628062728
I1028 13:22:19.481618 28141 layer_factory.hpp:76] Creating layer inception_4e/prelu_3x3_reduce
I1028 13:22:19.481628 28141 net.cpp:106] Creating Layer inception_4e/prelu_3x3_reduce
I1028 13:22:19.481633 28141 net.cpp:454] inception_4e/prelu_3x3_reduce <- inception_4e/3x3_reduce
I1028 13:22:19.481640 28141 net.cpp:397] inception_4e/prelu_3x3_reduce -> inception_4e/3x3_reduce (in-place)
I1028 13:22:19.481776 28141 net.cpp:150] Setting up inception_4e/prelu_3x3_reduce
I1028 13:22:19.481786 28141 net.cpp:157] Top shape: 32 160 14 14 (1003520)
I1028 13:22:19.481797 28141 net.cpp:165] Memory required for data: 1632076808
I1028 13:22:19.481803 28141 layer_factory.hpp:76] Creating layer inception_4e/3x3
I1028 13:22:19.481812 28141 net.cpp:106] Creating Layer inception_4e/3x3
I1028 13:22:19.481817 28141 net.cpp:454] inception_4e/3x3 <- inception_4e/3x3_reduce
I1028 13:22:19.481833 28141 net.cpp:411] inception_4e/3x3 -> inception_4e/3x3
I1028 13:22:19.486990 28141 cudnn_conv_layer.cpp:194] Reallocating workspace storage: 10080
I1028 13:22:19.487042 28141 net.cpp:150] Setting up inception_4e/3x3
I1028 13:22:19.487053 28141 net.cpp:157] Top shape: 32 320 14 14 (2007040)
I1028 13:22:19.487058 28141 net.cpp:165] Memory required for data: 1640104968
I1028 13:22:19.487067 28141 layer_factory.hpp:76] Creating layer inception_4e/prelu_3x3
I1028 13:22:19.487079 28141 net.cpp:106] Creating Layer inception_4e/prelu_3x3
I1028 13:22:19.487087 28141 net.cpp:454] inception_4e/prelu_3x3 <- inception_4e/3x3
I1028 13:22:19.487095 28141 net.cpp:397] inception_4e/prelu_3x3 -> inception_4e/3x3 (in-place)
I1028 13:22:19.487280 28141 net.cpp:150] Setting up inception_4e/prelu_3x3
I1028 13:22:19.487290 28141 net.cpp:157] Top shape: 32 320 14 14 (2007040)
I1028 13:22:19.487294 28141 net.cpp:165] Memory required for data: 1648133128
I1028 13:22:19.487300 28141 layer_factory.hpp:76] Creating layer inception_4e/5x5_reduce
I1028 13:22:19.487310 28141 net.cpp:106] Creating Layer inception_4e/5x5_reduce
I1028 13:22:19.487315 28141 net.cpp:454] inception_4e/5x5_reduce <- inception_4d/output_inception_4d/output_0_split_3
I1028 13:22:19.487324 28141 net.cpp:411] inception_4e/5x5_reduce -> inception_4e/5x5_reduce
I1028 13:22:19.488548 28141 cudnn_conv_layer.cpp:194] Reallocating workspace storage: 10080
I1028 13:22:19.488582 28141 net.cpp:150] Setting up inception_4e/5x5_reduce
I1028 13:22:19.488591 28141 net.cpp:157] Top shape: 32 32 14 14 (200704)
I1028 13:22:19.488596 28141 net.cpp:165] Memory required for data: 1648935944
I1028 13:22:19.488637 28141 layer_factory.hpp:76] Creating layer inception_4e/prelu_5x5_reduce
I1028 13:22:19.488649 28141 net.cpp:106] Creating Layer inception_4e/prelu_5x5_reduce
I1028 13:22:19.488677 28141 net.cpp:454] inception_4e/prelu_5x5_reduce <- inception_4e/5x5_reduce
I1028 13:22:19.488684 28141 net.cpp:397] inception_4e/prelu_5x5_reduce -> inception_4e/5x5_reduce (in-place)
I1028 13:22:19.488837 28141 net.cpp:150] Setting up inception_4e/prelu_5x5_reduce
I1028 13:22:19.488847 28141 net.cpp:157] Top shape: 32 32 14 14 (200704)
I1028 13:22:19.488850 28141 net.cpp:165] Memory required for data: 1649738760
I1028 13:22:19.488857 28141 layer_factory.hpp:76] Creating layer inception_4e/5x5
I1028 13:22:19.488878 28141 net.cpp:106] Creating Layer inception_4e/5x5
I1028 13:22:19.488883 28141 net.cpp:454] inception_4e/5x5 <- inception_4e/5x5_reduce
I1028 13:22:19.488899 28141 net.cpp:411] inception_4e/5x5 -> inception_4e/5x5
I1028 13:22:19.491058 28141 cudnn_conv_layer.cpp:194] Reallocating workspace storage: 13080
I1028 13:22:19.491088 28141 net.cpp:150] Setting up inception_4e/5x5
I1028 13:22:19.491099 28141 net.cpp:157] Top shape: 32 128 14 14 (802816)
I1028 13:22:19.491103 28141 net.cpp:165] Memory required for data: 1652950024
I1028 13:22:19.491112 28141 layer_factory.hpp:76] Creating layer inception_4e/prelu_5x5
I1028 13:22:19.491121 28141 net.cpp:106] Creating Layer inception_4e/prelu_5x5
I1028 13:22:19.491125 28141 net.cpp:454] inception_4e/prelu_5x5 <- inception_4e/5x5
I1028 13:22:19.491132 28141 net.cpp:397] inception_4e/prelu_5x5 -> inception_4e/5x5 (in-place)
I1028 13:22:19.491245 28141 net.cpp:150] Setting up inception_4e/prelu_5x5
I1028 13:22:19.491255 28141 net.cpp:157] Top shape: 32 128 14 14 (802816)
I1028 13:22:19.491258 28141 net.cpp:165] Memory required for data: 1656161288
I1028 13:22:19.491263 28141 layer_factory.hpp:76] Creating layer inception_4e/pool
I1028 13:22:19.491272 28141 net.cpp:106] Creating Layer inception_4e/pool
I1028 13:22:19.491277 28141 net.cpp:454] inception_4e/pool <- inception_4d/output_inception_4d/output_0_split_4
I1028 13:22:19.491283 28141 net.cpp:411] inception_4e/pool -> inception_4e/pool
I1028 13:22:19.491662 28141 net.cpp:150] Setting up inception_4e/pool
I1028 13:22:19.491673 28141 net.cpp:157] Top shape: 32 528 14 14 (3311616)
I1028 13:22:19.491678 28141 net.cpp:165] Memory required for data: 1669407752
I1028 13:22:19.491683 28141 layer_factory.hpp:76] Creating layer inception_4e/pool_proj
I1028 13:22:19.491693 28141 net.cpp:106] Creating Layer inception_4e/pool_proj
I1028 13:22:19.491698 28141 net.cpp:454] inception_4e/pool_proj <- inception_4e/pool
I1028 13:22:19.491704 28141 net.cpp:411] inception_4e/pool_proj -> inception_4e/pool_proj
I1028 13:22:19.492944 28141 cudnn_conv_layer.cpp:194] Reallocating workspace storage: 10080
I1028 13:22:19.492974 28141 net.cpp:150] Setting up inception_4e/pool_proj
I1028 13:22:19.492983 28141 net.cpp:157] Top shape: 32 128 14 14 (802816)
I1028 13:22:19.492987 28141 net.cpp:165] Memory required for data: 1672619016
I1028 13:22:19.492995 28141 layer_factory.hpp:76] Creating layer inception_4e/prelu_pool_proj
I1028 13:22:19.493001 28141 net.cpp:106] Creating Layer inception_4e/prelu_pool_proj
I1028 13:22:19.493007 28141 net.cpp:454] inception_4e/prelu_pool_proj <- inception_4e/pool_proj
I1028 13:22:19.493013 28141 net.cpp:397] inception_4e/prelu_pool_proj -> inception_4e/pool_proj (in-place)
I1028 13:22:19.493127 28141 net.cpp:150] Setting up inception_4e/prelu_pool_proj
I1028 13:22:19.493136 28141 net.cpp:157] Top shape: 32 128 14 14 (802816)
I1028 13:22:19.493140 28141 net.cpp:165] Memory required for data: 1675830280
I1028 13:22:19.493145 28141 layer_factory.hpp:76] Creating layer inception_4e/output
I1028 13:22:19.493152 28141 net.cpp:106] Creating Layer inception_4e/output
I1028 13:22:19.493156 28141 net.cpp:454] inception_4e/output <- inception_4e/1x1
I1028 13:22:19.493165 28141 net.cpp:454] inception_4e/output <- inception_4e/3x3
I1028 13:22:19.493170 28141 net.cpp:454] inception_4e/output <- inception_4e/5x5
I1028 13:22:19.493173 28141 net.cpp:454] inception_4e/output <- inception_4e/pool_proj
I1028 13:22:19.493202 28141 net.cpp:411] inception_4e/output -> inception_4e/output
I1028 13:22:19.493233 28141 net.cpp:150] Setting up inception_4e/output
I1028 13:22:19.493252 28141 net.cpp:157] Top shape: 32 832 14 14 (5218304)
I1028 13:22:19.493266 28141 net.cpp:165] Memory required for data: 1696703496
I1028 13:22:19.493270 28141 layer_factory.hpp:76] Creating layer pool4/3x3_s2
I1028 13:22:19.493289 28141 net.cpp:106] Creating Layer pool4/3x3_s2
I1028 13:22:19.493294 28141 net.cpp:454] pool4/3x3_s2 <- inception_4e/output
I1028 13:22:19.493301 28141 net.cpp:411] pool4/3x3_s2 -> pool4/3x3_s2
I1028 13:22:19.493706 28141 net.cpp:150] Setting up pool4/3x3_s2
I1028 13:22:19.493717 28141 net.cpp:157] Top shape: 32 832 7 7 (1304576)
I1028 13:22:19.493721 28141 net.cpp:165] Memory required for data: 1701921800
I1028 13:22:19.493726 28141 layer_factory.hpp:76] Creating layer pool4/3x3_s2_pool4/3x3_s2_0_split
I1028 13:22:19.493732 28141 net.cpp:106] Creating Layer pool4/3x3_s2_pool4/3x3_s2_0_split
I1028 13:22:19.493743 28141 net.cpp:454] pool4/3x3_s2_pool4/3x3_s2_0_split <- pool4/3x3_s2
I1028 13:22:19.493752 28141 net.cpp:411] pool4/3x3_s2_pool4/3x3_s2_0_split -> pool4/3x3_s2_pool4/3x3_s2_0_split_0
I1028 13:22:19.493758 28141 net.cpp:411] pool4/3x3_s2_pool4/3x3_s2_0_split -> pool4/3x3_s2_pool4/3x3_s2_0_split_1
I1028 13:22:19.493765 28141 net.cpp:411] pool4/3x3_s2_pool4/3x3_s2_0_split -> pool4/3x3_s2_pool4/3x3_s2_0_split_2
I1028 13:22:19.493772 28141 net.cpp:411] pool4/3x3_s2_pool4/3x3_s2_0_split -> pool4/3x3_s2_pool4/3x3_s2_0_split_3
I1028 13:22:19.493836 28141 net.cpp:150] Setting up pool4/3x3_s2_pool4/3x3_s2_0_split
I1028 13:22:19.493845 28141 net.cpp:157] Top shape: 32 832 7 7 (1304576)
I1028 13:22:19.493851 28141 net.cpp:157] Top shape: 32 832 7 7 (1304576)
I1028 13:22:19.493855 28141 net.cpp:157] Top shape: 32 832 7 7 (1304576)
I1028 13:22:19.493860 28141 net.cpp:157] Top shape: 32 832 7 7 (1304576)
I1028 13:22:19.493863 28141 net.cpp:165] Memory required for data: 1722795016
I1028 13:22:19.493867 28141 layer_factory.hpp:76] Creating layer inception_5a/1x1
I1028 13:22:19.493875 28141 net.cpp:106] Creating Layer inception_5a/1x1
I1028 13:22:19.493880 28141 net.cpp:454] inception_5a/1x1 <- pool4/3x3_s2_pool4/3x3_s2_0_split_0
I1028 13:22:19.493886 28141 net.cpp:411] inception_5a/1x1 -> inception_5a/1x1
I1028 13:22:19.496608 28141 cudnn_conv_layer.cpp:194] Reallocating workspace storage: 7428
I1028 13:22:19.496639 28141 net.cpp:150] Setting up inception_5a/1x1
I1028 13:22:19.496646 28141 net.cpp:157] Top shape: 32 256 7 7 (401408)
I1028 13:22:19.496651 28141 net.cpp:165] Memory required for data: 1724400648
I1028 13:22:19.496659 28141 layer_factory.hpp:76] Creating layer inception_5a/prelu_1x1
I1028 13:22:19.496667 28141 net.cpp:106] Creating Layer inception_5a/prelu_1x1
I1028 13:22:19.496672 28141 net.cpp:454] inception_5a/prelu_1x1 <- inception_5a/1x1
I1028 13:22:19.496680 28141 net.cpp:397] inception_5a/prelu_1x1 -> inception_5a/1x1 (in-place)
I1028 13:22:19.497230 28141 net.cpp:150] Setting up inception_5a/prelu_1x1
I1028 13:22:19.497241 28141 net.cpp:157] Top shape: 32 256 7 7 (401408)
I1028 13:22:19.497244 28141 net.cpp:165] Memory required for data: 1726006280
I1028 13:22:19.497251 28141 layer_factory.hpp:76] Creating layer inception_5a/3x3_reduce
I1028 13:22:19.497261 28141 net.cpp:106] Creating Layer inception_5a/3x3_reduce
I1028 13:22:19.497265 28141 net.cpp:454] inception_5a/3x3_reduce <- pool4/3x3_s2_pool4/3x3_s2_0_split_1
I1028 13:22:19.497272 28141 net.cpp:411] inception_5a/3x3_reduce -> inception_5a/3x3_reduce
I1028 13:22:19.499502 28141 cudnn_conv_layer.cpp:194] Reallocating workspace storage: 7428
I1028 13:22:19.499534 28141 net.cpp:150] Setting up inception_5a/3x3_reduce
I1028 13:22:19.499544 28141 net.cpp:157] Top shape: 32 160 7 7 (250880)
I1028 13:22:19.499548 28141 net.cpp:165] Memory required for data: 1727009800
I1028 13:22:19.499555 28141 layer_factory.hpp:76] Creating layer inception_5a/prelu_3x3_reduce
I1028 13:22:19.499572 28141 net.cpp:106] Creating Layer inception_5a/prelu_3x3_reduce
I1028 13:22:19.499589 28141 net.cpp:454] inception_5a/prelu_3x3_reduce <- inception_5a/3x3_reduce
I1028 13:22:19.499598 28141 net.cpp:397] inception_5a/prelu_3x3_reduce -> inception_5a/3x3_reduce (in-place)
I1028 13:22:19.499702 28141 net.cpp:150] Setting up inception_5a/prelu_3x3_reduce
I1028 13:22:19.499711 28141 net.cpp:157] Top shape: 32 160 7 7 (250880)
I1028 13:22:19.499716 28141 net.cpp:165] Memory required for data: 1728013320
I1028 13:22:19.499722 28141 layer_factory.hpp:76] Creating layer inception_5a/3x3
I1028 13:22:19.499729 28141 net.cpp:106] Creating Layer inception_5a/3x3
I1028 13:22:19.499734 28141 net.cpp:454] inception_5a/3x3 <- inception_5a/3x3_reduce
I1028 13:22:19.499742 28141 net.cpp:411] inception_5a/3x3 -> inception_5a/3x3
I1028 13:22:19.503803 28141 cudnn_conv_layer.cpp:194] Reallocating workspace storage: 7788
I1028 13:22:19.503834 28141 net.cpp:150] Setting up inception_5a/3x3
I1028 13:22:19.503842 28141 net.cpp:157] Top shape: 32 320 7 7 (501760)
I1028 13:22:19.503846 28141 net.cpp:165] Memory required for data: 1730020360
I1028 13:22:19.503854 28141 layer_factory.hpp:76] Creating layer inception_5a/prelu_3x3
I1028 13:22:19.503872 28141 net.cpp:106] Creating Layer inception_5a/prelu_3x3
I1028 13:22:19.503878 28141 net.cpp:454] inception_5a/prelu_3x3 <- inception_5a/3x3
I1028 13:22:19.503886 28141 net.cpp:397] inception_5a/prelu_3x3 -> inception_5a/3x3 (in-place)
I1028 13:22:19.504024 28141 net.cpp:150] Setting up inception_5a/prelu_3x3
I1028 13:22:19.504032 28141 net.cpp:157] Top shape: 32 320 7 7 (501760)
I1028 13:22:19.504036 28141 net.cpp:165] Memory required for data: 1732027400
I1028 13:22:19.504050 28141 layer_factory.hpp:76] Creating layer inception_5a/5x5_reduce
I1028 13:22:19.504060 28141 net.cpp:106] Creating Layer inception_5a/5x5_reduce
I1028 13:22:19.504065 28141 net.cpp:454] inception_5a/5x5_reduce <- pool4/3x3_s2_pool4/3x3_s2_0_split_2
I1028 13:22:19.504070 28141 net.cpp:411] inception_5a/5x5_reduce -> inception_5a/5x5_reduce
I1028 13:22:19.505306 28141 cudnn_conv_layer.cpp:194] Reallocating workspace storage: 7428
I1028 13:22:19.505338 28141 net.cpp:150] Setting up inception_5a/5x5_reduce
I1028 13:22:19.505345 28141 net.cpp:157] Top shape: 32 32 7 7 (50176)
I1028 13:22:19.505349 28141 net.cpp:165] Memory required for data: 1732228104
I1028 13:22:19.505363 28141 layer_factory.hpp:76] Creating layer inception_5a/prelu_5x5_reduce
I1028 13:22:19.505372 28141 net.cpp:106] Creating Layer inception_5a/prelu_5x5_reduce
I1028 13:22:19.505376 28141 net.cpp:454] inception_5a/prelu_5x5_reduce <- inception_5a/5x5_reduce
I1028 13:22:19.505383 28141 net.cpp:397] inception_5a/prelu_5x5_reduce -> inception_5a/5x5_reduce (in-place)
I1028 13:22:19.505484 28141 net.cpp:150] Setting up inception_5a/prelu_5x5_reduce
I1028 13:22:19.505493 28141 net.cpp:157] Top shape: 32 32 7 7 (50176)
I1028 13:22:19.505497 28141 net.cpp:165] Memory required for data: 1732428808
I1028 13:22:19.505502 28141 layer_factory.hpp:76] Creating layer inception_5a/5x5
I1028 13:22:19.505511 28141 net.cpp:106] Creating Layer inception_5a/5x5
I1028 13:22:19.505516 28141 net.cpp:454] inception_5a/5x5 <- inception_5a/5x5_reduce
I1028 13:22:19.505523 28141 net.cpp:411] inception_5a/5x5 -> inception_5a/5x5
I1028 13:22:19.507154 28141 cudnn_conv_layer.cpp:194] Reallocating workspace storage: 9804
I1028 13:22:19.507179 28141 net.cpp:150] Setting up inception_5a/5x5
I1028 13:22:19.507186 28141 net.cpp:157] Top shape: 32 128 7 7 (200704)
I1028 13:22:19.507190 28141 net.cpp:165] Memory required for data: 1733231624
I1028 13:22:19.507197 28141 layer_factory.hpp:76] Creating layer inception_5a/prelu_5x5
I1028 13:22:19.507205 28141 net.cpp:106] Creating Layer inception_5a/prelu_5x5
I1028 13:22:19.507210 28141 net.cpp:454] inception_5a/prelu_5x5 <- inception_5a/5x5
I1028 13:22:19.507216 28141 net.cpp:397] inception_5a/prelu_5x5 -> inception_5a/5x5 (in-place)
I1028 13:22:19.507336 28141 net.cpp:150] Setting up inception_5a/prelu_5x5
I1028 13:22:19.507345 28141 net.cpp:157] Top shape: 32 128 7 7 (200704)
I1028 13:22:19.507360 28141 net.cpp:165] Memory required for data: 1734034440
I1028 13:22:19.507367 28141 layer_factory.hpp:76] Creating layer inception_5a/pool
I1028 13:22:19.507375 28141 net.cpp:106] Creating Layer inception_5a/pool
I1028 13:22:19.507380 28141 net.cpp:454] inception_5a/pool <- pool4/3x3_s2_pool4/3x3_s2_0_split_3
I1028 13:22:19.507386 28141 net.cpp:411] inception_5a/pool -> inception_5a/pool
I1028 13:22:19.507570 28141 net.cpp:150] Setting up inception_5a/pool
I1028 13:22:19.507580 28141 net.cpp:157] Top shape: 32 832 7 7 (1304576)
I1028 13:22:19.507583 28141 net.cpp:165] Memory required for data: 1739252744
I1028 13:22:19.507588 28141 layer_factory.hpp:76] Creating layer inception_5a/pool_proj
I1028 13:22:19.507599 28141 net.cpp:106] Creating Layer inception_5a/pool_proj
I1028 13:22:19.507604 28141 net.cpp:454] inception_5a/pool_proj <- inception_5a/pool
I1028 13:22:19.507611 28141 net.cpp:411] inception_5a/pool_proj -> inception_5a/pool_proj
I1028 13:22:19.509917 28141 cudnn_conv_layer.cpp:194] Reallocating workspace storage: 7428
I1028 13:22:19.509951 28141 net.cpp:150] Setting up inception_5a/pool_proj
I1028 13:22:19.509959 28141 net.cpp:157] Top shape: 32 128 7 7 (200704)
I1028 13:22:19.509963 28141 net.cpp:165] Memory required for data: 1740055560
I1028 13:22:19.509979 28141 layer_factory.hpp:76] Creating layer inception_5a/prelu_pool_proj
I1028 13:22:19.509987 28141 net.cpp:106] Creating Layer inception_5a/prelu_pool_proj
I1028 13:22:19.509992 28141 net.cpp:454] inception_5a/prelu_pool_proj <- inception_5a/pool_proj
I1028 13:22:19.509999 28141 net.cpp:397] inception_5a/prelu_pool_proj -> inception_5a/pool_proj (in-place)
I1028 13:22:19.510136 28141 net.cpp:150] Setting up inception_5a/prelu_pool_proj
I1028 13:22:19.510146 28141 net.cpp:157] Top shape: 32 128 7 7 (200704)
I1028 13:22:19.510150 28141 net.cpp:165] Memory required for data: 1740858376
I1028 13:22:19.510155 28141 layer_factory.hpp:76] Creating layer inception_5a/output
I1028 13:22:19.510161 28141 net.cpp:106] Creating Layer inception_5a/output
I1028 13:22:19.510165 28141 net.cpp:454] inception_5a/output <- inception_5a/1x1
I1028 13:22:19.510171 28141 net.cpp:454] inception_5a/output <- inception_5a/3x3
I1028 13:22:19.510175 28141 net.cpp:454] inception_5a/output <- inception_5a/5x5
I1028 13:22:19.510179 28141 net.cpp:454] inception_5a/output <- inception_5a/pool_proj
I1028 13:22:19.510192 28141 net.cpp:411] inception_5a/output -> inception_5a/output
I1028 13:22:19.510222 28141 net.cpp:150] Setting up inception_5a/output
I1028 13:22:19.510247 28141 net.cpp:157] Top shape: 32 832 7 7 (1304576)
I1028 13:22:19.510251 28141 net.cpp:165] Memory required for data: 1746076680
I1028 13:22:19.510256 28141 layer_factory.hpp:76] Creating layer inception_5a/output_inception_5a/output_0_split
I1028 13:22:19.510262 28141 net.cpp:106] Creating Layer inception_5a/output_inception_5a/output_0_split
I1028 13:22:19.510267 28141 net.cpp:454] inception_5a/output_inception_5a/output_0_split <- inception_5a/output
I1028 13:22:19.510280 28141 net.cpp:411] inception_5a/output_inception_5a/output_0_split -> inception_5a/output_inception_5a/output_0_split_0
I1028 13:22:19.510296 28141 net.cpp:411] inception_5a/output_inception_5a/output_0_split -> inception_5a/output_inception_5a/output_0_split_1
I1028 13:22:19.510303 28141 net.cpp:411] inception_5a/output_inception_5a/output_0_split -> inception_5a/output_inception_5a/output_0_split_2
I1028 13:22:19.510311 28141 net.cpp:411] inception_5a/output_inception_5a/output_0_split -> inception_5a/output_inception_5a/output_0_split_3
I1028 13:22:19.510402 28141 net.cpp:150] Setting up inception_5a/output_inception_5a/output_0_split
I1028 13:22:19.510411 28141 net.cpp:157] Top shape: 32 832 7 7 (1304576)
I1028 13:22:19.510416 28141 net.cpp:157] Top shape: 32 832 7 7 (1304576)
I1028 13:22:19.510421 28141 net.cpp:157] Top shape: 32 832 7 7 (1304576)
I1028 13:22:19.510424 28141 net.cpp:157] Top shape: 32 832 7 7 (1304576)
I1028 13:22:19.510428 28141 net.cpp:165] Memory required for data: 1766949896
I1028 13:22:19.510449 28141 layer_factory.hpp:76] Creating layer inception_5b/1x1
I1028 13:22:19.510468 28141 net.cpp:106] Creating Layer inception_5b/1x1
I1028 13:22:19.510473 28141 net.cpp:454] inception_5b/1x1 <- inception_5a/output_inception_5a/output_0_split_0
I1028 13:22:19.510478 28141 net.cpp:411] inception_5b/1x1 -> inception_5b/1x1
I1028 13:22:19.514142 28141 cudnn_conv_layer.cpp:194] Reallocating workspace storage: 7428
I1028 13:22:19.514186 28141 net.cpp:150] Setting up inception_5b/1x1
I1028 13:22:19.514199 28141 net.cpp:157] Top shape: 32 384 7 7 (602112)
I1028 13:22:19.514204 28141 net.cpp:165] Memory required for data: 1769358344
I1028 13:22:19.514212 28141 layer_factory.hpp:76] Creating layer inception_5b/prelu_1x1
I1028 13:22:19.514224 28141 net.cpp:106] Creating Layer inception_5b/prelu_1x1
I1028 13:22:19.514230 28141 net.cpp:454] inception_5b/prelu_1x1 <- inception_5b/1x1
I1028 13:22:19.514237 28141 net.cpp:397] inception_5b/prelu_1x1 -> inception_5b/1x1 (in-place)
I1028 13:22:19.514871 28141 net.cpp:150] Setting up inception_5b/prelu_1x1
I1028 13:22:19.514889 28141 net.cpp:157] Top shape: 32 384 7 7 (602112)
I1028 13:22:19.514895 28141 net.cpp:165] Memory required for data: 1771766792
I1028 13:22:19.514904 28141 layer_factory.hpp:76] Creating layer inception_5b/3x3_reduce
I1028 13:22:19.514919 28141 net.cpp:106] Creating Layer inception_5b/3x3_reduce
I1028 13:22:19.514936 28141 net.cpp:454] inception_5b/3x3_reduce <- inception_5a/output_inception_5a/output_0_split_1
I1028 13:22:19.514948 28141 net.cpp:411] inception_5b/3x3_reduce -> inception_5b/3x3_reduce
I1028 13:22:19.517807 28141 cudnn_conv_layer.cpp:194] Reallocating workspace storage: 7428
I1028 13:22:19.517848 28141 net.cpp:150] Setting up inception_5b/3x3_reduce
I1028 13:22:19.517858 28141 net.cpp:157] Top shape: 32 192 7 7 (301056)
I1028 13:22:19.517863 28141 net.cpp:165] Memory required for data: 1772971016
I1028 13:22:19.517871 28141 layer_factory.hpp:76] Creating layer inception_5b/prelu_3x3_reduce
I1028 13:22:19.517884 28141 net.cpp:106] Creating Layer inception_5b/prelu_3x3_reduce
I1028 13:22:19.517889 28141 net.cpp:454] inception_5b/prelu_3x3_reduce <- inception_5b/3x3_reduce
I1028 13:22:19.517897 28141 net.cpp:397] inception_5b/prelu_3x3_reduce -> inception_5b/3x3_reduce (in-place)
I1028 13:22:19.518052 28141 net.cpp:150] Setting up inception_5b/prelu_3x3_reduce
I1028 13:22:19.518064 28141 net.cpp:157] Top shape: 32 192 7 7 (301056)
I1028 13:22:19.518067 28141 net.cpp:165] Memory required for data: 1774175240
I1028 13:22:19.518074 28141 layer_factory.hpp:76] Creating layer inception_5b/3x3
I1028 13:22:19.518085 28141 net.cpp:106] Creating Layer inception_5b/3x3
I1028 13:22:19.518090 28141 net.cpp:454] inception_5b/3x3 <- inception_5b/3x3_reduce
I1028 13:22:19.518097 28141 net.cpp:411] inception_5b/3x3 -> inception_5b/3x3
I1028 13:22:19.523810 28141 cudnn_conv_layer.cpp:194] Reallocating workspace storage: 7788
I1028 13:22:19.523865 28141 net.cpp:150] Setting up inception_5b/3x3
I1028 13:22:19.523877 28141 net.cpp:157] Top shape: 32 384 7 7 (602112)
I1028 13:22:19.523882 28141 net.cpp:165] Memory required for data: 1776583688
I1028 13:22:19.523890 28141 layer_factory.hpp:76] Creating layer inception_5b/prelu_3x3
I1028 13:22:19.523900 28141 net.cpp:106] Creating Layer inception_5b/prelu_3x3
I1028 13:22:19.523906 28141 net.cpp:454] inception_5b/prelu_3x3 <- inception_5b/3x3
I1028 13:22:19.523913 28141 net.cpp:397] inception_5b/prelu_3x3 -> inception_5b/3x3 (in-place)
I1028 13:22:19.524034 28141 net.cpp:150] Setting up inception_5b/prelu_3x3
I1028 13:22:19.524044 28141 net.cpp:157] Top shape: 32 384 7 7 (602112)
I1028 13:22:19.524046 28141 net.cpp:165] Memory required for data: 1778992136
I1028 13:22:19.524060 28141 layer_factory.hpp:76] Creating layer inception_5b/5x5_reduce
I1028 13:22:19.524070 28141 net.cpp:106] Creating Layer inception_5b/5x5_reduce
I1028 13:22:19.524075 28141 net.cpp:454] inception_5b/5x5_reduce <- inception_5a/output_inception_5a/output_0_split_2
I1028 13:22:19.524081 28141 net.cpp:411] inception_5b/5x5_reduce -> inception_5b/5x5_reduce
I1028 13:22:19.525229 28141 cudnn_conv_layer.cpp:194] Reallocating workspace storage: 7428
I1028 13:22:19.525255 28141 net.cpp:150] Setting up inception_5b/5x5_reduce
I1028 13:22:19.525262 28141 net.cpp:157] Top shape: 32 48 7 7 (75264)
I1028 13:22:19.525266 28141 net.cpp:165] Memory required for data: 1779293192
I1028 13:22:19.525274 28141 layer_factory.hpp:76] Creating layer inception_5b/prelu_5x5_reduce
I1028 13:22:19.525290 28141 net.cpp:106] Creating Layer inception_5b/prelu_5x5_reduce
I1028 13:22:19.525295 28141 net.cpp:454] inception_5b/prelu_5x5_reduce <- inception_5b/5x5_reduce
I1028 13:22:19.525300 28141 net.cpp:397] inception_5b/prelu_5x5_reduce -> inception_5b/5x5_reduce (in-place)
I1028 13:22:19.525436 28141 net.cpp:150] Setting up inception_5b/prelu_5x5_reduce
I1028 13:22:19.525445 28141 net.cpp:157] Top shape: 32 48 7 7 (75264)
I1028 13:22:19.525449 28141 net.cpp:165] Memory required for data: 1779594248
I1028 13:22:19.525454 28141 layer_factory.hpp:76] Creating layer inception_5b/5x5
I1028 13:22:19.525463 28141 net.cpp:106] Creating Layer inception_5b/5x5
I1028 13:22:19.525467 28141 net.cpp:454] inception_5b/5x5 <- inception_5b/5x5_reduce
I1028 13:22:19.525476 28141 net.cpp:411] inception_5b/5x5 -> inception_5b/5x5
I1028 13:22:19.527405 28141 cudnn_conv_layer.cpp:194] Reallocating workspace storage: 9804
I1028 13:22:19.527431 28141 net.cpp:150] Setting up inception_5b/5x5
I1028 13:22:19.527439 28141 net.cpp:157] Top shape: 32 128 7 7 (200704)
I1028 13:22:19.527443 28141 net.cpp:165] Memory required for data: 1780397064
I1028 13:22:19.527449 28141 layer_factory.hpp:76] Creating layer inception_5b/prelu_5x5
I1028 13:22:19.527467 28141 net.cpp:106] Creating Layer inception_5b/prelu_5x5
I1028 13:22:19.527472 28141 net.cpp:454] inception_5b/prelu_5x5 <- inception_5b/5x5
I1028 13:22:19.527477 28141 net.cpp:397] inception_5b/prelu_5x5 -> inception_5b/5x5 (in-place)
I1028 13:22:19.527595 28141 net.cpp:150] Setting up inception_5b/prelu_5x5
I1028 13:22:19.527604 28141 net.cpp:157] Top shape: 32 128 7 7 (200704)
I1028 13:22:19.527608 28141 net.cpp:165] Memory required for data: 1781199880
I1028 13:22:19.527613 28141 layer_factory.hpp:76] Creating layer inception_5b/pool
I1028 13:22:19.527621 28141 net.cpp:106] Creating Layer inception_5b/pool
I1028 13:22:19.527626 28141 net.cpp:454] inception_5b/pool <- inception_5a/output_inception_5a/output_0_split_3
I1028 13:22:19.527632 28141 net.cpp:411] inception_5b/pool -> inception_5b/pool
I1028 13:22:19.528020 28141 net.cpp:150] Setting up inception_5b/pool
I1028 13:22:19.528031 28141 net.cpp:157] Top shape: 32 832 7 7 (1304576)
I1028 13:22:19.528035 28141 net.cpp:165] Memory required for data: 1786418184
I1028 13:22:19.528039 28141 layer_factory.hpp:76] Creating layer inception_5b/pool_proj
I1028 13:22:19.528049 28141 net.cpp:106] Creating Layer inception_5b/pool_proj
I1028 13:22:19.528054 28141 net.cpp:454] inception_5b/pool_proj <- inception_5b/pool
I1028 13:22:19.528061 28141 net.cpp:411] inception_5b/pool_proj -> inception_5b/pool_proj
I1028 13:22:19.530218 28141 cudnn_conv_layer.cpp:194] Reallocating workspace storage: 7428
I1028 13:22:19.530247 28141 net.cpp:150] Setting up inception_5b/pool_proj
I1028 13:22:19.530256 28141 net.cpp:157] Top shape: 32 128 7 7 (200704)
I1028 13:22:19.530259 28141 net.cpp:165] Memory required for data: 1787221000
I1028 13:22:19.530267 28141 layer_factory.hpp:76] Creating layer inception_5b/prelu_pool_proj
I1028 13:22:19.530282 28141 net.cpp:106] Creating Layer inception_5b/prelu_pool_proj
I1028 13:22:19.530287 28141 net.cpp:454] inception_5b/prelu_pool_proj <- inception_5b/pool_proj
I1028 13:22:19.530294 28141 net.cpp:397] inception_5b/prelu_pool_proj -> inception_5b/pool_proj (in-place)
I1028 13:22:19.530405 28141 net.cpp:150] Setting up inception_5b/prelu_pool_proj
I1028 13:22:19.530416 28141 net.cpp:157] Top shape: 32 128 7 7 (200704)
I1028 13:22:19.530419 28141 net.cpp:165] Memory required for data: 1788023816
I1028 13:22:19.530426 28141 layer_factory.hpp:76] Creating layer inception_5b/output
I1028 13:22:19.530431 28141 net.cpp:106] Creating Layer inception_5b/output
I1028 13:22:19.530447 28141 net.cpp:454] inception_5b/output <- inception_5b/1x1
I1028 13:22:19.530452 28141 net.cpp:454] inception_5b/output <- inception_5b/3x3
I1028 13:22:19.530465 28141 net.cpp:454] inception_5b/output <- inception_5b/5x5
I1028 13:22:19.530469 28141 net.cpp:454] inception_5b/output <- inception_5b/pool_proj
I1028 13:22:19.530475 28141 net.cpp:411] inception_5b/output -> inception_5b/output
I1028 13:22:19.530520 28141 net.cpp:150] Setting up inception_5b/output
I1028 13:22:19.530537 28141 net.cpp:157] Top shape: 32 1024 7 7 (1605632)
I1028 13:22:19.530541 28141 net.cpp:165] Memory required for data: 1794446344
I1028 13:22:19.530545 28141 layer_factory.hpp:76] Creating layer pool5/7x7_s1
I1028 13:22:19.530553 28141 net.cpp:106] Creating Layer pool5/7x7_s1
I1028 13:22:19.530557 28141 net.cpp:454] pool5/7x7_s1 <- inception_5b/output
I1028 13:22:19.530563 28141 net.cpp:411] pool5/7x7_s1 -> pool5/7x7_s1
I1028 13:22:19.530757 28141 net.cpp:150] Setting up pool5/7x7_s1
I1028 13:22:19.530767 28141 net.cpp:157] Top shape: 32 1024 1 1 (32768)
I1028 13:22:19.530771 28141 net.cpp:165] Memory required for data: 1794577416
I1028 13:22:19.530783 28141 layer_factory.hpp:76] Creating layer pool5/drop_7x7_s1
I1028 13:22:19.530791 28141 net.cpp:106] Creating Layer pool5/drop_7x7_s1
I1028 13:22:19.530794 28141 net.cpp:454] pool5/drop_7x7_s1 <- pool5/7x7_s1
I1028 13:22:19.530799 28141 net.cpp:397] pool5/drop_7x7_s1 -> pool5/7x7_s1 (in-place)
I1028 13:22:19.530838 28141 net.cpp:150] Setting up pool5/drop_7x7_s1
I1028 13:22:19.530848 28141 net.cpp:157] Top shape: 32 1024 1 1 (32768)
I1028 13:22:19.530851 28141 net.cpp:165] Memory required for data: 1794708488
I1028 13:22:19.530855 28141 layer_factory.hpp:76] Creating layer loss3/classifier2
I1028 13:22:19.530872 28141 net.cpp:106] Creating Layer loss3/classifier2
I1028 13:22:19.530876 28141 net.cpp:454] loss3/classifier2 <- pool5/7x7_s1
I1028 13:22:19.530882 28141 net.cpp:411] loss3/classifier2 -> loss3/classifier
I1028 13:22:19.531023 28141 net.cpp:150] Setting up loss3/classifier2
I1028 13:22:19.531033 28141 net.cpp:157] Top shape: 32 2 (64)
I1028 13:22:19.531036 28141 net.cpp:165] Memory required for data: 1794708744
I1028 13:22:19.531044 28141 layer_factory.hpp:76] Creating layer loss3/loss3
I1028 13:22:19.531050 28141 net.cpp:106] Creating Layer loss3/loss3
I1028 13:22:19.531055 28141 net.cpp:454] loss3/loss3 <- loss3/classifier
I1028 13:22:19.531060 28141 net.cpp:454] loss3/loss3 <- label_data_1_split_2
I1028 13:22:19.531066 28141 net.cpp:411] loss3/loss3 -> loss3/loss3
…
I1028 13:22:19.535760 28141 net.cpp:322] The NetState phase (1) differed from the phase (0) specified by a rule in layer data
I1028 13:22:19.536718 28141 net.cpp:49] Initializing net from parameters: 
name: "GoogleNet"
state {
  phase: TEST
}
layer {
  name: "data"
  type: "Data"
  top: "data"
  top: "label"
  include {
    phase: TEST
  }
  transform_param {
    mirror: false
    crop_size: 224
    mean_value: 104
    mean_value: 117
    mean_value: 123
  }
  data_param {
    source: "../../LMDB/val_3-lmdb"
    batch_size: 50
    backend: LMDB
  }
}
layer {
  name: "conv1/7x7_s2"
  type: "Convolution"
  bottom: "data"
  top: "conv1/7x7_s2"
  param {
    lr_mult: 1
    decay_mult: 1
  }
  param {
    lr_mult: 2
    decay_mult: 0
  }
  convolution_param {
    num_output: 64
    pad: 3
    kernel_size: 7
    stride: 2
    weight_filler {
      type: "xavier"
    }
    bias_filler {
      type: "constant"
      value: 0.2
    }
  }
}
layer {
  name: "conv1/prelu_7x7"
  type: "PReLU"
  bottom: "conv1/7x7_s2"
  top: "conv1/7x7_s2"
  param {
    lr_mult: 1
    decay_mult: 0
  }
  prelu_param {
    filler {
      type: "constant"
      value: 0.01
    }
  }
}
layer {
  name: "pool1/3x3_s2"
  type: "Pooling"
  bottom: "conv1/7x7_s2"
  top: "pool1/3x3_s2"
  pooling_param {
    pool: MAX
    kernel_size: 3
    stride: 2
  }
}
layer {
  name: "pool1/norm1"
  type: "LRN"
  bottom: "pool1/3x3_s2"
  top: "pool1/norm1"
  lrn_param {
    local_size: 5
    alpha: 0.0001
    beta: 0.75
  }
}
layer {
  name: "conv2/3x3_reduce"
  type: "Convolution"
  bottom: "pool1/norm1"
  top: "conv2/3x3_reduce"
  param {
    lr_mult: 1
    decay_mult: 1
  }
  param {
    lr_mult: 2
    decay_mult: 0
  }
  convolution_param {
    num_output: 64
    kernel_size: 1
    weight_filler {
      type: "xavier"
    }
    bias_filler {
      type: "constant"
      value: 0.2
    }
  }
}
layer {
  name: "conv2/prelu_3x3_reduce"
  type: "PReLU"
  bottom: "conv2/3x3_reduce"
  top: "conv2/3x3_reduce"
  param {
    lr_mult: 1
    decay_mult: 0
  }
  prelu_param {
    filler {
      type: "constant"
      value: 0.01
    }
  }
}
layer {
  name: "conv2/3x3"
  type: "Convolution"
  bottom: "conv2/3x3_reduce"
  top: "conv2/3x3"
  param {
    lr_mult: 1
    decay_mult: 1
  }
  param {
    lr_mult: 2
    decay_mult: 0
  }
  convolution_param {
    num_output: 192
    pad: 1
    kernel_size: 3
    weight_filler {
      type: "xavier"
    }
    bias_filler {
      type: "constant"
      value: 0.2
    }
  }
}
layer {
  name: "conv2/prelu_3x3"
  type: "PReLU"
  bottom: "conv2/3x3"
  top: "conv2/3x3"
  param {
    lr_mult: 1
    decay_mult: 0
  }
  prelu_param {
    filler {
      type: "constant"
      value: 0.01
    }
  }
}
layer {
  name: "conv2/norm2"
  type: "LRN"
  bottom: "conv2/3x3"
  top: "conv2/norm2"
  lrn_param {
    local_size: 5
    alpha: 0.0001
    beta: 0.75
  }
}
layer {
  name: "pool2/3x3_s2"
  type: "Pooling"
  bottom: "conv2/norm2"
  top: "pool2/3x3_s2"
  pooling_param {
    pool: MAX
    kernel_size: 3
    stride: 2
  }
}
layer {
  name: "inception_3a/1x1"
  type: "Convolution"
  bottom: "pool2/3x3_s2"
  top: "inception_3a/1x1"
  param {
    lr_mult: 1
    decay_mult: 1
  }
  param {
    lr_mult: 2
    decay_mult: 0
  }
  convolution_param {
    num_output: 64
    kernel_size: 1
    weight_filler {
      type: "xavier"
    }
    bias_filler {
      type: "constant"
      value: 0.2
    }
  }
}
layer {
  name: "inception_3a/prelu_1x1"
  type: "PReLU"
  bottom: "inception_3a/1x1"
  top: "inception_3a/1x1"
  param {
    lr_mult: 1
    decay_mult: 0
  }
  prelu_param {
    filler {
      type: "constant"
      value: 0.01
    }
  }
}
layer {
  name: "inception_3a/3x3_reduce"
  type: "Convolution"
  bottom: "pool2/3x3_s2"
  top: "inception_3a/3x3_reduce"
  param {
    lr_mult: 1
    decay_mult: 1
  }
  param {
    lr_mult: 2
    decay_mult: 0
  }
  convolution_param {
    num_output: 96
    kernel_size: 1
    weight_filler {
      type: "xavier"
    }
    bias_filler {
      type: "constant"
      value: 0.2
    }
  }
}
layer {
  name: "inception_3a/prelu_3x3_reduce"
  type: "PReLU"
  bottom: "inception_3a/3x3_reduce"
  top: "inception_3a/3x3_reduce"
  param {
    lr_mult: 1
    decay_mult: 0
  }
  prelu_param {
    filler {
      type: "constant"
      value: 0.01
    }
  }
}
layer {
  name: "inception_3a/3x3"
  type: "Convolution"
  bottom: "inception_3a/3x3_reduce"
  top: "inception_3a/3x3"
  param {
    lr_mult: 1
    decay_mult: 1
  }
  param {
    lr_mult: 2
    decay_mult: 0
  }
  convolution_param {
    num_output: 128
    pad: 1
    kernel_size: 3
    weight_filler {
      type: "xavier"
    }
    bias_filler {
      type: "constant"
      value: 0.2
    }
  }
}
layer {
  name: "inception_3a/prelu_3x3"
  type: "PReLU"
  bottom: "inception_3a/3x3"
  top: "inception_3a/3x3"
  param {
    lr_mult: 1
    decay_mult: 0
  }
  prelu_param {
    filler {
      type: "constant"
      value: 0.01
    }
  }
}
layer {
  name: "inception_3a/5x5_reduce"
  type: "Convolution"
  bottom: "pool2/3x3_s2"
  top: "inception_3a/5x5_reduce"
  param {
    lr_mult: 1
    decay_mult: 1
  }
  param {
    lr_mult: 2
    decay_mult: 0
  }
  convolution_param {
    num_output: 16
    kernel_size: 1
    weight_filler {
      type: "xavier"
    }
    bias_filler {
      type: "constant"
      value: 0.2
    }
  }
}
layer {
  name: "inception_3a/prelu_5x5_reduce"
  type: "PReLU"
  bottom: "inception_3a/5x5_reduce"
  top: "inception_3a/5x5_reduce"
  param {
    lr_mult: 1
    decay_mult: 0
  }
  prelu_param {
    filler {
      type: "constant"
      value: 0.01
    }
  }
}
layer {
  name: "inception_3a/5x5"
  type: "Convolution"
  bottom: "inception_3a/5x5_reduce"
  top: "inception_3a/5x5"
  param {
    lr_mult: 1
    decay_mult: 1
  }
  param {
    lr_mult: 2
    decay_mult: 0
  }
  convolution_param {
    num_output: 32
    pad: 2
    kernel_size: 5
    weight_filler {
      type: "xavier"
    }
    bias_filler {
      type: "constant"
      value: 0.2
    }
  }
}
layer {
  name: "inception_3a/prelu_5x5"
  type: "PReLU"
  bottom: "inception_3a/5x5"
  top: "inception_3a/5x5"
  param {
    lr_mult: 1
    decay_mult: 0
  }
  prelu_param {
    filler {
      type: "constant"
      value: 0.01
    }
  }
}
layer {
  name: "inception_3a/pool"
  type: "Pooling"
  bottom: "pool2/3x3_s2"
  top: "inception_3a/pool"
  pooling_param {
    pool: MAX
    kernel_size: 3
    stride: 1
    pad: 1
  }
}
layer {
  name: "inception_3a/pool_proj"
  type: "Convolution"
  bottom: "inception_3a/pool"
  top: "inception_3a/pool_proj"
  param {
    lr_mult: 1
    decay_mult: 1
  }
  param {
    lr_mult: 2
    decay_mult: 0
  }
  convolution_param {
    num_output: 32
    kernel_size: 1
    weight_filler {
      type: "xavier"
    }
    bias_filler {
      type: "constant"
      value: 0.2
    }
  }
}
layer {
  name: "inception_3a/prelu_pool_proj"
  type: "PReLU"
  bottom: "inception_3a/pool_proj"
  top: "inception_3a/pool_proj"
  param {
    lr_mult: 1
    decay_mult: 0
  }
  prelu_param {
    filler {
      type: "constant"
      value: 0.01
    }
  }
}
layer {
  name: "inception_3a/output"
  type: "Concat"
  bottom: "inception_3a/1x1"
  bottom: "inception_3a/3x3"
  bottom: "inception_3a/5x5"
  bottom: "inception_3a/pool_proj"
  top: "inception_3a/output"
}
layer {
  name: "inception_3b/1x1"
  type: "Convolution"
  bottom: "inception_3a/output"
  top: "inception_3b/1x1"
  param {
    lr_mult: 1
    decay_mult: 1
  }
  param {
    lr_mult: 2
    decay_mult: 0
  }
  convolution_param {
    num_output: 128
    kernel_size: 1
    weight_filler {
      type: "xavier"
    }
    bias_filler {
      type: "constant"
      value: 0.2
    }
  }
}
layer {
  name: "inception_3b/prelu_1x1"
  type: "PReLU"
  bottom: "inception_3b/1x1"
  top: "inception_3b/1x1"
  param {
    lr_mult: 1
    decay_mult: 0
  }
  prelu_param {
    filler {
      type: "constant"
      value: 0.01
    }
  }
}
layer {
  name: "inception_3b/3x3_reduce"
  type: "Convolution"
  bottom: "inception_3a/output"
  top: "inception_3b/3x3_reduce"
  param {
    lr_mult: 1
    decay_mult: 1
  }
  param {
    lr_mult: 2
    decay_mult: 0
  }
  convolution_param {
    num_output: 128
    kernel_size: 1
    weight_filler {
      type: "xavier"
    }
    bias_filler {
      type: "constant"
      value: 0.2
    }
  }
}
layer {
  name: "inception_3b/prelu_3x3_reduce"
  type: "PReLU"
  bottom: "inception_3b/3x3_reduce"
  top: "inception_3b/3x3_reduce"
  param {
    lr_mult: 1
    decay_mult: 0
  }
  prelu_param {
    filler {
      type: "constant"
      value: 0.01
    }
  }
}
layer {
  name: "inception_3b/3x3"
  type: "Convolution"
  bottom: "inception_3b/3x3_reduce"
  top: "inception_3b/3x3"
  param {
    lr_mult: 1
    decay_mult: 1
  }
  param {
    lr_mult: 2
    decay_mult: 0
  }
  convolution_param {
    num_output: 192
    pad: 1
    kernel_size: 3
    weight_filler {
      type: "xavier"
    }
…
I1028 13:22:19.855268 28141 net.cpp:106] Creating Layer inception_4c/output
I1028 13:22:19.855273 28141 net.cpp:454] inception_4c/output <- inception_4c/1x1
I1028 13:22:19.855278 28141 net.cpp:454] inception_4c/output <- inception_4c/3x3
I1028 13:22:19.855283 28141 net.cpp:454] inception_4c/output <- inception_4c/5x5
I1028 13:22:19.855286 28141 net.cpp:454] inception_4c/output <- inception_4c/pool_proj
I1028 13:22:19.855293 28141 net.cpp:411] inception_4c/output -> inception_4c/output
I1028 13:22:19.855315 28141 net.cpp:150] Setting up inception_4c/output
I1028 13:22:19.855324 28141 net.cpp:157] Top shape: 50 512 14 14 (5017600)
I1028 13:22:19.855327 28141 net.cpp:165] Memory required for data: 2234652208
I1028 13:22:19.855332 28141 layer_factory.hpp:76] Creating layer inception_4c/output_inception_4c/output_0_split
I1028 13:22:19.855339 28141 net.cpp:106] Creating Layer inception_4c/output_inception_4c/output_0_split
I1028 13:22:19.855342 28141 net.cpp:454] inception_4c/output_inception_4c/output_0_split <- inception_4c/output
I1028 13:22:19.855350 28141 net.cpp:411] inception_4c/output_inception_4c/output_0_split -> inception_4c/output_inception_4c/output_0_split_0
I1028 13:22:19.855357 28141 net.cpp:411] inception_4c/output_inception_4c/output_0_split -> inception_4c/output_inception_4c/output_0_split_1
I1028 13:22:19.855365 28141 net.cpp:411] inception_4c/output_inception_4c/output_0_split -> inception_4c/output_inception_4c/output_0_split_2
I1028 13:22:19.855370 28141 net.cpp:411] inception_4c/output_inception_4c/output_0_split -> inception_4c/output_inception_4c/output_0_split_3
I1028 13:22:19.855448 28141 net.cpp:150] Setting up inception_4c/output_inception_4c/output_0_split
I1028 13:22:19.855458 28141 net.cpp:157] Top shape: 50 512 14 14 (5017600)
I1028 13:22:19.855463 28141 net.cpp:157] Top shape: 50 512 14 14 (5017600)
I1028 13:22:19.855468 28141 net.cpp:157] Top shape: 50 512 14 14 (5017600)
I1028 13:22:19.855473 28141 net.cpp:157] Top shape: 50 512 14 14 (5017600)
I1028 13:22:19.855476 28141 net.cpp:165] Memory required for data: 2314933808
I1028 13:22:19.855480 28141 layer_factory.hpp:76] Creating layer inception_4d/1x1
I1028 13:22:19.855490 28141 net.cpp:106] Creating Layer inception_4d/1x1
I1028 13:22:19.855505 28141 net.cpp:454] inception_4d/1x1 <- inception_4c/output_inception_4c/output_0_split_0
I1028 13:22:19.855511 28141 net.cpp:411] inception_4d/1x1 -> inception_4d/1x1
I1028 13:22:19.857476 28141 cudnn_conv_layer.cpp:194] Reallocating workspace storage: 10080
I1028 13:22:19.857530 28141 net.cpp:150] Setting up inception_4d/1x1
I1028 13:22:19.857542 28141 net.cpp:157] Top shape: 50 112 14 14 (1097600)
I1028 13:22:19.857545 28141 net.cpp:165] Memory required for data: 2319324208
I1028 13:22:19.857555 28141 layer_factory.hpp:76] Creating layer inception_4d/prelu_1x1
I1028 13:22:19.857568 28141 net.cpp:106] Creating Layer inception_4d/prelu_1x1
I1028 13:22:19.857573 28141 net.cpp:454] inception_4d/prelu_1x1 <- inception_4d/1x1
I1028 13:22:19.857580 28141 net.cpp:397] inception_4d/prelu_1x1 -> inception_4d/1x1 (in-place)
I1028 13:22:19.857684 28141 net.cpp:150] Setting up inception_4d/prelu_1x1
I1028 13:22:19.857693 28141 net.cpp:157] Top shape: 50 112 14 14 (1097600)
I1028 13:22:19.857697 28141 net.cpp:165] Memory required for data: 2323714608
I1028 13:22:19.857703 28141 layer_factory.hpp:76] Creating layer inception_4d/3x3_reduce
I1028 13:22:19.857725 28141 net.cpp:106] Creating Layer inception_4d/3x3_reduce
I1028 13:22:19.857731 28141 net.cpp:454] inception_4d/3x3_reduce <- inception_4c/output_inception_4c/output_0_split_1
I1028 13:22:19.857741 28141 net.cpp:411] inception_4d/3x3_reduce -> inception_4d/3x3_reduce
I1028 13:22:19.859649 28141 cudnn_conv_layer.cpp:194] Reallocating workspace storage: 10080
I1028 13:22:19.859704 28141 net.cpp:150] Setting up inception_4d/3x3_reduce
I1028 13:22:19.859715 28141 net.cpp:157] Top shape: 50 144 14 14 (1411200)
I1028 13:22:19.859719 28141 net.cpp:165] Memory required for data: 2329359408
I1028 13:22:19.859729 28141 layer_factory.hpp:76] Creating layer inception_4d/prelu_3x3_reduce
I1028 13:22:19.859742 28141 net.cpp:106] Creating Layer inception_4d/prelu_3x3_reduce
I1028 13:22:19.859753 28141 net.cpp:454] inception_4d/prelu_3x3_reduce <- inception_4d/3x3_reduce
I1028 13:22:19.859768 28141 net.cpp:397] inception_4d/prelu_3x3_reduce -> inception_4d/3x3_reduce (in-place)
I1028 13:22:19.859925 28141 net.cpp:150] Setting up inception_4d/prelu_3x3_reduce
I1028 13:22:19.859938 28141 net.cpp:157] Top shape: 50 144 14 14 (1411200)
I1028 13:22:19.859946 28141 net.cpp:165] Memory required for data: 2335004208
I1028 13:22:19.859959 28141 layer_factory.hpp:76] Creating layer inception_4d/3x3
I1028 13:22:19.859973 28141 net.cpp:106] Creating Layer inception_4d/3x3
I1028 13:22:19.859979 28141 net.cpp:454] inception_4d/3x3 <- inception_4d/3x3_reduce
I1028 13:22:19.859987 28141 net.cpp:411] inception_4d/3x3 -> inception_4d/3x3
I1028 13:22:19.864370 28141 cudnn_conv_layer.cpp:194] Reallocating workspace storage: 10080
I1028 13:22:19.864434 28141 net.cpp:150] Setting up inception_4d/3x3
I1028 13:22:19.864444 28141 net.cpp:157] Top shape: 50 288 14 14 (2822400)
I1028 13:22:19.864449 28141 net.cpp:165] Memory required for data: 2346293808
I1028 13:22:19.864457 28141 layer_factory.hpp:76] Creating layer inception_4d/prelu_3x3
I1028 13:22:19.864470 28141 net.cpp:106] Creating Layer inception_4d/prelu_3x3
I1028 13:22:19.864477 28141 net.cpp:454] inception_4d/prelu_3x3 <- inception_4d/3x3
I1028 13:22:19.864485 28141 net.cpp:397] inception_4d/prelu_3x3 -> inception_4d/3x3 (in-place)
I1028 13:22:19.865234 28141 net.cpp:150] Setting up inception_4d/prelu_3x3
I1028 13:22:19.865247 28141 net.cpp:157] Top shape: 50 288 14 14 (2822400)
I1028 13:22:19.865258 28141 net.cpp:165] Memory required for data: 2357583408
I1028 13:22:19.865264 28141 layer_factory.hpp:76] Creating layer inception_4d/5x5_reduce
I1028 13:22:19.865278 28141 net.cpp:106] Creating Layer inception_4d/5x5_reduce
I1028 13:22:19.865283 28141 net.cpp:454] inception_4d/5x5_reduce <- inception_4c/output_inception_4c/output_0_split_2
I1028 13:22:19.865289 28141 net.cpp:411] inception_4d/5x5_reduce -> inception_4d/5x5_reduce
I1028 13:22:19.866971 28141 cudnn_conv_layer.cpp:194] Reallocating workspace storage: 10080
I1028 13:22:19.867014 28141 net.cpp:150] Setting up inception_4d/5x5_reduce
I1028 13:22:19.867022 28141 net.cpp:157] Top shape: 50 32 14 14 (313600)
I1028 13:22:19.867027 28141 net.cpp:165] Memory required for data: 2358837808
I1028 13:22:19.867033 28141 layer_factory.hpp:76] Creating layer inception_4d/prelu_5x5_reduce
I1028 13:22:19.867043 28141 net.cpp:106] Creating Layer inception_4d/prelu_5x5_reduce
I1028 13:22:19.867048 28141 net.cpp:454] inception_4d/prelu_5x5_reduce <- inception_4d/5x5_reduce
I1028 13:22:19.867054 28141 net.cpp:397] inception_4d/prelu_5x5_reduce -> inception_4d/5x5_reduce (in-place)
I1028 13:22:19.867148 28141 net.cpp:150] Setting up inception_4d/prelu_5x5_reduce
I1028 13:22:19.867157 28141 net.cpp:157] Top shape: 50 32 14 14 (313600)
I1028 13:22:19.867161 28141 net.cpp:165] Memory required for data: 2360092208
I1028 13:22:19.867174 28141 layer_factory.hpp:76] Creating layer inception_4d/5x5
I1028 13:22:19.867184 28141 net.cpp:106] Creating Layer inception_4d/5x5
I1028 13:22:19.867188 28141 net.cpp:454] inception_4d/5x5 <- inception_4d/5x5_reduce
I1028 13:22:19.867197 28141 net.cpp:411] inception_4d/5x5 -> inception_4d/5x5
I1028 13:22:19.868474 28141 cudnn_conv_layer.cpp:194] Reallocating workspace storage: 13080
I1028 13:22:19.868506 28141 net.cpp:150] Setting up inception_4d/5x5
I1028 13:22:19.868515 28141 net.cpp:157] Top shape: 50 64 14 14 (627200)
I1028 13:22:19.868520 28141 net.cpp:165] Memory required for data: 2362601008
I1028 13:22:19.868526 28141 layer_factory.hpp:76] Creating layer inception_4d/prelu_5x5
I1028 13:22:19.868535 28141 net.cpp:106] Creating Layer inception_4d/prelu_5x5
I1028 13:22:19.868541 28141 net.cpp:454] inception_4d/prelu_5x5 <- inception_4d/5x5
I1028 13:22:19.868548 28141 net.cpp:397] inception_4d/prelu_5x5 -> inception_4d/5x5 (in-place)
I1028 13:22:19.868643 28141 net.cpp:150] Setting up inception_4d/prelu_5x5
I1028 13:22:19.868652 28141 net.cpp:157] Top shape: 50 64 14 14 (627200)
I1028 13:22:19.868664 28141 net.cpp:165] Memory required for data: 2365109808
I1028 13:22:19.868670 28141 layer_factory.hpp:76] Creating layer inception_4d/pool
I1028 13:22:19.868680 28141 net.cpp:106] Creating Layer inception_4d/pool
I1028 13:22:19.868685 28141 net.cpp:454] inception_4d/pool <- inception_4c/output_inception_4c/output_0_split_3
I1028 13:22:19.868691 28141 net.cpp:411] inception_4d/pool -> inception_4d/pool
I1028 13:22:19.869207 28141 net.cpp:150] Setting up inception_4d/pool
I1028 13:22:19.869220 28141 net.cpp:157] Top shape: 50 512 14 14 (5017600)
I1028 13:22:19.869223 28141 net.cpp:165] Memory required for data: 2385180208
I1028 13:22:19.869228 28141 layer_factory.hpp:76] Creating layer inception_4d/pool_proj
I1028 13:22:19.869238 28141 net.cpp:106] Creating Layer inception_4d/pool_proj
I1028 13:22:19.869245 28141 net.cpp:454] inception_4d/pool_proj <- inception_4d/pool
I1028 13:22:19.869251 28141 net.cpp:411] inception_4d/pool_proj -> inception_4d/pool_proj
I1028 13:22:19.870825 28141 cudnn_conv_layer.cpp:194] Reallocating workspace storage: 10080
I1028 13:22:19.870887 28141 net.cpp:150] Setting up inception_4d/pool_proj
I1028 13:22:19.870898 28141 net.cpp:157] Top shape: 50 64 14 14 (627200)
I1028 13:22:19.870901 28141 net.cpp:165] Memory required for data: 2387689008
I1028 13:22:19.870910 28141 layer_factory.hpp:76] Creating layer inception_4d/prelu_pool_proj
I1028 13:22:19.870939 28141 net.cpp:106] Creating Layer inception_4d/prelu_pool_proj
I1028 13:22:19.870947 28141 net.cpp:454] inception_4d/prelu_pool_proj <- inception_4d/pool_proj
I1028 13:22:19.870954 28141 net.cpp:397] inception_4d/prelu_pool_proj -> inception_4d/pool_proj (in-place)
I1028 13:22:19.871050 28141 net.cpp:150] Setting up inception_4d/prelu_pool_proj
I1028 13:22:19.871060 28141 net.cpp:157] Top shape: 50 64 14 14 (627200)
I1028 13:22:19.871064 28141 net.cpp:165] Memory required for data: 2390197808
I1028 13:22:19.871069 28141 layer_factory.hpp:76] Creating layer inception_4d/output
I1028 13:22:19.871078 28141 net.cpp:106] Creating Layer inception_4d/output
I1028 13:22:19.871083 28141 net.cpp:454] inception_4d/output <- inception_4d/1x1
I1028 13:22:19.871088 28141 net.cpp:454] inception_4d/output <- inception_4d/3x3
I1028 13:22:19.871093 28141 net.cpp:454] inception_4d/output <- inception_4d/5x5
I1028 13:22:19.871098 28141 net.cpp:454] inception_4d/output <- inception_4d/pool_proj
I1028 13:22:19.871104 28141 net.cpp:411] inception_4d/output -> inception_4d/output
I1028 13:22:19.871132 28141 net.cpp:150] Setting up inception_4d/output
I1028 13:22:19.871140 28141 net.cpp:157] Top shape: 50 528 14 14 (5174400)
I1028 13:22:19.871145 28141 net.cpp:165] Memory required for data: 2410895408
I1028 13:22:19.871148 28141 layer_factory.hpp:76] Creating layer inception_4d/output_inception_4d/output_0_split
I1028 13:22:19.871155 28141 net.cpp:106] Creating Layer inception_4d/output_inception_4d/output_0_split
I1028 13:22:19.871160 28141 net.cpp:454] inception_4d/output_inception_4d/output_0_split <- inception_4d/output
I1028 13:22:19.871167 28141 net.cpp:411] inception_4d/output_inception_4d/output_0_split -> inception_4d/output_inception_4d/output_0_split_0
I1028 13:22:19.871175 28141 net.cpp:411] inception_4d/output_inception_4d/output_0_split -> inception_4d/output_inception_4d/output_0_split_1
I1028 13:22:19.871181 28141 net.cpp:411] inception_4d/output_inception_4d/output_0_split -> inception_4d/output_inception_4d/output_0_split_2
I1028 13:22:19.871188 28141 net.cpp:411] inception_4d/output_inception_4d/output_0_split -> inception_4d/output_inception_4d/output_0_split_3
I1028 13:22:19.871196 28141 net.cpp:411] inception_4d/output_inception_4d/output_0_split -> inception_4d/output_inception_4d/output_0_split_4
I1028 13:22:19.871255 28141 net.cpp:150] Setting up inception_4d/output_inception_4d/output_0_split
I1028 13:22:19.871264 28141 net.cpp:157] Top shape: 50 528 14 14 (5174400)
I1028 13:22:19.871269 28141 net.cpp:157] Top shape: 50 528 14 14 (5174400)
I1028 13:22:19.871274 28141 net.cpp:157] Top shape: 50 528 14 14 (5174400)
I1028 13:22:19.871279 28141 net.cpp:157] Top shape: 50 528 14 14 (5174400)
I1028 13:22:19.871284 28141 net.cpp:157] Top shape: 50 528 14 14 (5174400)
I1028 13:22:19.871287 28141 net.cpp:165] Memory required for data: 2514383408
I1028 13:22:19.871291 28141 layer_factory.hpp:76] Creating layer loss2/ave_pool
I1028 13:22:19.871310 28141 net.cpp:106] Creating Layer loss2/ave_pool
I1028 13:22:19.871315 28141 net.cpp:454] loss2/ave_pool <- inception_4d/output_inception_4d/output_0_split_0
I1028 13:22:19.871321 28141 net.cpp:411] loss2/ave_pool -> loss2/ave_pool
I1028 13:22:19.871541 28141 net.cpp:150] Setting up loss2/ave_pool
I1028 13:22:19.871554 28141 net.cpp:157] Top shape: 50 528 4 4 (422400)
I1028 13:22:19.871558 28141 net.cpp:165] Memory required for data: 2516073008
I1028 13:22:19.871563 28141 layer_factory.hpp:76] Creating layer loss2/conv
I1028 13:22:19.871573 28141 net.cpp:106] Creating Layer loss2/conv
I1028 13:22:19.871578 28141 net.cpp:454] loss2/conv <- loss2/ave_pool
I1028 13:22:19.871587 28141 net.cpp:411] loss2/conv -> loss2/conv
I1028 13:22:19.873479 28141 cudnn_conv_layer.cpp:194] Reallocating workspace storage: 6840
I1028 13:22:19.873529 28141 net.cpp:150] Setting up loss2/conv
I1028 13:22:19.873538 28141 net.cpp:157] Top shape: 50 128 4 4 (102400)
I1028 13:22:19.873543 28141 net.cpp:165] Memory required for data: 2516482608
I1028 13:22:19.873550 28141 layer_factory.hpp:76] Creating layer loss2/prelu_conv
I1028 13:22:19.873577 28141 net.cpp:106] Creating Layer loss2/prelu_conv
I1028 13:22:19.873584 28141 net.cpp:454] loss2/prelu_conv <- loss2/conv
I1028 13:22:19.873591 28141 net.cpp:397] loss2/prelu_conv -> loss2/conv (in-place)
I1028 13:22:19.873692 28141 net.cpp:150] Setting up loss2/prelu_conv
I1028 13:22:19.873700 28141 net.cpp:157] Top shape: 50 128 4 4 (102400)
I1028 13:22:19.873704 28141 net.cpp:165] Memory required for data: 2516892208
I1028 13:22:19.873710 28141 layer_factory.hpp:76] Creating layer loss2/fc
I1028 13:22:19.873718 28141 net.cpp:106] Creating Layer loss2/fc
I1028 13:22:19.873723 28141 net.cpp:454] loss2/fc <- loss2/conv
I1028 13:22:19.873729 28141 net.cpp:411] loss2/fc -> loss2/fc
I1028 13:22:19.889055 28141 net.cpp:150] Setting up loss2/fc
I1028 13:22:19.889108 28141 net.cpp:157] Top shape: 50 1024 (51200)
I1028 13:22:19.889114 28141 net.cpp:165] Memory required for data: 2517097008
I1028 13:22:19.889153 28141 layer_factory.hpp:76] Creating layer loss2/prelu_fc
I1028 13:22:19.889169 28141 net.cpp:106] Creating Layer loss2/prelu_fc
I1028 13:22:19.889176 28141 net.cpp:454] loss2/prelu_fc <- loss2/fc
I1028 13:22:19.889184 28141 net.cpp:397] loss2/prelu_fc -> loss2/fc (in-place)
I1028 13:22:19.889323 28141 net.cpp:150] Setting up loss2/prelu_fc
I1028 13:22:19.889335 28141 net.cpp:157] Top shape: 50 1024 (51200)
I1028 13:22:19.889339 28141 net.cpp:165] Memory required for data: 2517301808
I1028 13:22:19.889345 28141 layer_factory.hpp:76] Creating layer loss2/drop_fc
I1028 13:22:19.889356 28141 net.cpp:106] Creating Layer loss2/drop_fc
I1028 13:22:19.889360 28141 net.cpp:454] loss2/drop_fc <- loss2/fc
I1028 13:22:19.889366 28141 net.cpp:397] loss2/drop_fc -> loss2/fc (in-place)
I1028 13:22:19.889394 28141 net.cpp:150] Setting up loss2/drop_fc
I1028 13:22:19.889405 28141 net.cpp:157] Top shape: 50 1024 (51200)
I1028 13:22:19.889408 28141 net.cpp:165] Memory required for data: 2517506608
I1028 13:22:19.889413 28141 layer_factory.hpp:76] Creating layer loss2/classifier2
I1028 13:22:19.889420 28141 net.cpp:106] Creating Layer loss2/classifier2
I1028 13:22:19.889425 28141 net.cpp:454] loss2/classifier2 <- loss2/fc
I1028 13:22:19.889433 28141 net.cpp:411] loss2/classifier2 -> loss2/classifier
I1028 13:22:19.889577 28141 net.cpp:150] Setting up loss2/classifier2
I1028 13:22:19.889586 28141 net.cpp:157] Top shape: 50 2 (100)
I1028 13:22:19.889601 28141 net.cpp:165] Memory required for data: 2517507008
I1028 13:22:19.889608 28141 layer_factory.hpp:76] Creating layer loss2/classifier_loss2/classifier2_0_split
I1028 13:22:19.889616 28141 net.cpp:106] Creating Layer loss2/classifier_loss2/classifier2_0_split
I1028 13:22:19.889621 28141 net.cpp:454] loss2/classifier_loss2/classifier2_0_split <- loss2/classifier
I1028 13:22:19.889626 28141 net.cpp:411] loss2/classifier_loss2/classifier2_0_split -> loss2/classifier_loss2/classifier2_0_split_0
I1028 13:22:19.889633 28141 net.cpp:411] loss2/classifier_loss2/classifier2_0_split -> loss2/classifier_loss2/classifier2_0_split_1
I1028 13:22:19.889668 28141 net.cpp:150] Setting up loss2/classifier_loss2/classifier2_0_split
I1028 13:22:19.889688 28141 net.cpp:157] Top shape: 50 2 (100)
I1028 13:22:19.889703 28141 net.cpp:157] Top shape: 50 2 (100)
I1028 13:22:19.889706 28141 net.cpp:165] Memory required for data: 2517507808
I1028 13:22:19.889711 28141 layer_factory.hpp:76] Creating layer loss2/loss
I1028 13:22:19.889719 28141 net.cpp:106] Creating Layer loss2/loss
I1028 13:22:19.889724 28141 net.cpp:454] loss2/loss <- loss2/classifier_loss2/classifier2_0_split_0
I1028 13:22:19.889729 28141 net.cpp:454] loss2/loss <- label_data_1_split_2
…
I1028 13:22:19.890585 28141 net.cpp:165] Memory required for data: 2517507816
I1028 13:22:19.890589 28141 layer_factory.hpp:76] Creating layer inception_4e/1x1
I1028 13:22:19.890600 28141 net.cpp:106] Creating Layer inception_4e/1x1
I1028 13:22:19.890609 28141 net.cpp:454] inception_4e/1x1 <- inception_4d/output_inception_4d/output_0_split_1
I1028 13:22:19.890619 28141 net.cpp:411] inception_4e/1x1 -> inception_4e/1x1
I1028 13:22:19.892974 28141 cudnn_conv_layer.cpp:194] Reallocating workspace storage: 10080
I1028 13:22:19.893028 28141 net.cpp:150] Setting up inception_4e/1x1
I1028 13:22:19.893046 28141 net.cpp:157] Top shape: 50 256 14 14 (2508800)
I1028 13:22:19.893059 28141 net.cpp:165] Memory required for data: 2527543016
I1028 13:22:19.893066 28141 layer_factory.hpp:76] Creating layer inception_4e/prelu_1x1
I1028 13:22:19.893077 28141 net.cpp:106] Creating Layer inception_4e/prelu_1x1
I1028 13:22:19.893082 28141 net.cpp:454] inception_4e/prelu_1x1 <- inception_4e/1x1
I1028 13:22:19.893090 28141 net.cpp:397] inception_4e/prelu_1x1 -> inception_4e/1x1 (in-place)
I1028 13:22:19.893224 28141 net.cpp:150] Setting up inception_4e/prelu_1x1
I1028 13:22:19.893234 28141 net.cpp:157] Top shape: 50 256 14 14 (2508800)
I1028 13:22:19.893239 28141 net.cpp:165] Memory required for data: 2537578216
I1028 13:22:19.893244 28141 layer_factory.hpp:76] Creating layer inception_4e/3x3_reduce
I1028 13:22:19.893254 28141 net.cpp:106] Creating Layer inception_4e/3x3_reduce
I1028 13:22:19.893260 28141 net.cpp:454] inception_4e/3x3_reduce <- inception_4d/output_inception_4d/output_0_split_2
I1028 13:22:19.893266 28141 net.cpp:411] inception_4e/3x3_reduce -> inception_4e/3x3_reduce
I1028 13:22:19.894870 28141 cudnn_conv_layer.cpp:194] Reallocating workspace storage: 10080
I1028 13:22:19.894906 28141 net.cpp:150] Setting up inception_4e/3x3_reduce
I1028 13:22:19.894914 28141 net.cpp:157] Top shape: 50 160 14 14 (1568000)
I1028 13:22:19.894919 28141 net.cpp:165] Memory required for data: 2543850216
I1028 13:22:19.894927 28141 layer_factory.hpp:76] Creating layer inception_4e/prelu_3x3_reduce
I1028 13:22:19.894933 28141 net.cpp:106] Creating Layer inception_4e/prelu_3x3_reduce
I1028 13:22:19.894938 28141 net.cpp:454] inception_4e/prelu_3x3_reduce <- inception_4e/3x3_reduce
I1028 13:22:19.894944 28141 net.cpp:397] inception_4e/prelu_3x3_reduce -> inception_4e/3x3_reduce (in-place)
I1028 13:22:19.895045 28141 net.cpp:150] Setting up inception_4e/prelu_3x3_reduce
I1028 13:22:19.895054 28141 net.cpp:157] Top shape: 50 160 14 14 (1568000)
I1028 13:22:19.895058 28141 net.cpp:165] Memory required for data: 2550122216
I1028 13:22:19.895063 28141 layer_factory.hpp:76] Creating layer inception_4e/3x3
I1028 13:22:19.895087 28141 net.cpp:106] Creating Layer inception_4e/3x3
I1028 13:22:19.895092 28141 net.cpp:454] inception_4e/3x3 <- inception_4e/3x3_reduce
I1028 13:22:19.895099 28141 net.cpp:411] inception_4e/3x3 -> inception_4e/3x3
I1028 13:22:19.899601 28141 cudnn_conv_layer.cpp:194] Reallocating workspace storage: 10080
I1028 13:22:19.899647 28141 net.cpp:150] Setting up inception_4e/3x3
I1028 13:22:19.899659 28141 net.cpp:157] Top shape: 50 320 14 14 (3136000)
I1028 13:22:19.899663 28141 net.cpp:165] Memory required for data: 2562666216
I1028 13:22:19.899673 28141 layer_factory.hpp:76] Creating layer inception_4e/prelu_3x3
I1028 13:22:19.899683 28141 net.cpp:106] Creating Layer inception_4e/prelu_3x3
I1028 13:22:19.899688 28141 net.cpp:454] inception_4e/prelu_3x3 <- inception_4e/3x3
I1028 13:22:19.899696 28141 net.cpp:397] inception_4e/prelu_3x3 -> inception_4e/3x3 (in-place)
I1028 13:22:19.900362 28141 net.cpp:150] Setting up inception_4e/prelu_3x3
I1028 13:22:19.900374 28141 net.cpp:157] Top shape: 50 320 14 14 (3136000)
I1028 13:22:19.900387 28141 net.cpp:165] Memory required for data: 2575210216
I1028 13:22:19.900393 28141 layer_factory.hpp:76] Creating layer inception_4e/5x5_reduce
I1028 13:22:19.900403 28141 net.cpp:106] Creating Layer inception_4e/5x5_reduce
I1028 13:22:19.900408 28141 net.cpp:454] inception_4e/5x5_reduce <- inception_4d/output_inception_4d/output_0_split_3
I1028 13:22:19.900415 28141 net.cpp:411] inception_4e/5x5_reduce -> inception_4e/5x5_reduce
I1028 13:22:19.901634 28141 cudnn_conv_layer.cpp:194] Reallocating workspace storage: 10080
I1028 13:22:19.901674 28141 net.cpp:150] Setting up inception_4e/5x5_reduce
I1028 13:22:19.901690 28141 net.cpp:157] Top shape: 50 32 14 14 (313600)
I1028 13:22:19.901702 28141 net.cpp:165] Memory required for data: 2576464616
I1028 13:22:19.901710 28141 layer_factory.hpp:76] Creating layer inception_4e/prelu_5x5_reduce
I1028 13:22:19.901718 28141 net.cpp:106] Creating Layer inception_4e/prelu_5x5_reduce
I1028 13:22:19.901723 28141 net.cpp:454] inception_4e/prelu_5x5_reduce <- inception_4e/5x5_reduce
I1028 13:22:19.901731 28141 net.cpp:397] inception_4e/prelu_5x5_reduce -> inception_4e/5x5_reduce (in-place)
I1028 13:22:19.901829 28141 net.cpp:150] Setting up inception_4e/prelu_5x5_reduce
I1028 13:22:19.901837 28141 net.cpp:157] Top shape: 50 32 14 14 (313600)
I1028 13:22:19.901841 28141 net.cpp:165] Memory required for data: 2577719016
I1028 13:22:19.901855 28141 layer_factory.hpp:76] Creating layer inception_4e/5x5
I1028 13:22:19.901865 28141 net.cpp:106] Creating Layer inception_4e/5x5
I1028 13:22:19.901870 28141 net.cpp:454] inception_4e/5x5 <- inception_4e/5x5_reduce
I1028 13:22:19.901876 28141 net.cpp:411] inception_4e/5x5 -> inception_4e/5x5
I1028 13:22:19.904104 28141 cudnn_conv_layer.cpp:194] Reallocating workspace storage: 13080
I1028 13:22:19.904141 28141 net.cpp:150] Setting up inception_4e/5x5
I1028 13:22:19.904150 28141 net.cpp:157] Top shape: 50 128 14 14 (1254400)
I1028 13:22:19.904155 28141 net.cpp:165] Memory required for data: 2582736616
I1028 13:22:19.904162 28141 layer_factory.hpp:76] Creating layer inception_4e/prelu_5x5
I1028 13:22:19.904170 28141 net.cpp:106] Creating Layer inception_4e/prelu_5x5
I1028 13:22:19.904175 28141 net.cpp:454] inception_4e/prelu_5x5 <- inception_4e/5x5
I1028 13:22:19.904182 28141 net.cpp:397] inception_4e/prelu_5x5 -> inception_4e/5x5 (in-place)
I1028 13:22:19.904270 28141 net.cpp:150] Setting up inception_4e/prelu_5x5
I1028 13:22:19.904281 28141 net.cpp:157] Top shape: 50 128 14 14 (1254400)
I1028 13:22:19.904285 28141 net.cpp:165] Memory required for data: 2587754216
I1028 13:22:19.904291 28141 layer_factory.hpp:76] Creating layer inception_4e/pool
I1028 13:22:19.904299 28141 net.cpp:106] Creating Layer inception_4e/pool
I1028 13:22:19.904304 28141 net.cpp:454] inception_4e/pool <- inception_4d/output_inception_4d/output_0_split_4
I1028 13:22:19.904309 28141 net.cpp:411] inception_4e/pool -> inception_4e/pool
I1028 13:22:19.904511 28141 net.cpp:150] Setting up inception_4e/pool
I1028 13:22:19.904521 28141 net.cpp:157] Top shape: 50 528 14 14 (5174400)
I1028 13:22:19.904526 28141 net.cpp:165] Memory required for data: 2608451816
I1028 13:22:19.904531 28141 layer_factory.hpp:76] Creating layer inception_4e/pool_proj
I1028 13:22:19.904539 28141 net.cpp:106] Creating Layer inception_4e/pool_proj
I1028 13:22:19.904544 28141 net.cpp:454] inception_4e/pool_proj <- inception_4e/pool
I1028 13:22:19.904551 28141 net.cpp:411] inception_4e/pool_proj -> inception_4e/pool_proj
I1028 13:22:19.906236 28141 cudnn_conv_layer.cpp:194] Reallocating workspace storage: 10080
I1028 13:22:19.906272 28141 net.cpp:150] Setting up inception_4e/pool_proj
I1028 13:22:19.906282 28141 net.cpp:157] Top shape: 50 128 14 14 (1254400)
I1028 13:22:19.906287 28141 net.cpp:165] Memory required for data: 2613469416
I1028 13:22:19.906294 28141 layer_factory.hpp:76] Creating layer inception_4e/prelu_pool_proj
I1028 13:22:19.906316 28141 net.cpp:106] Creating Layer inception_4e/prelu_pool_proj
I1028 13:22:19.906322 28141 net.cpp:454] inception_4e/prelu_pool_proj <- inception_4e/pool_proj
I1028 13:22:19.906329 28141 net.cpp:397] inception_4e/prelu_pool_proj -> inception_4e/pool_proj (in-place)
I1028 13:22:19.906419 28141 net.cpp:150] Setting up inception_4e/prelu_pool_proj
I1028 13:22:19.906427 28141 net.cpp:157] Top shape: 50 128 14 14 (1254400)
I1028 13:22:19.906432 28141 net.cpp:165] Memory required for data: 2618487016
I1028 13:22:19.906437 28141 layer_factory.hpp:76] Creating layer inception_4e/output
I1028 13:22:19.906445 28141 net.cpp:106] Creating Layer inception_4e/output
I1028 13:22:19.906448 28141 net.cpp:454] inception_4e/output <- inception_4e/1x1
I1028 13:22:19.906453 28141 net.cpp:454] inception_4e/output <- inception_4e/3x3
I1028 13:22:19.906458 28141 net.cpp:454] inception_4e/output <- inception_4e/5x5
I1028 13:22:19.906463 28141 net.cpp:454] inception_4e/output <- inception_4e/pool_proj
I1028 13:22:19.906473 28141 net.cpp:411] inception_4e/output -> inception_4e/output
I1028 13:22:19.906497 28141 net.cpp:150] Setting up inception_4e/output
I1028 13:22:19.906507 28141 net.cpp:157] Top shape: 50 832 14 14 (8153600)
I1028 13:22:19.906512 28141 net.cpp:165] Memory required for data: 2651101416
I1028 13:22:19.906515 28141 layer_factory.hpp:76] Creating layer pool4/3x3_s2
I1028 13:22:19.906522 28141 net.cpp:106] Creating Layer pool4/3x3_s2
I1028 13:22:19.906525 28141 net.cpp:454] pool4/3x3_s2 <- inception_4e/output
I1028 13:22:19.906532 28141 net.cpp:411] pool4/3x3_s2 -> pool4/3x3_s2
I1028 13:22:19.906733 28141 net.cpp:150] Setting up pool4/3x3_s2
I1028 13:22:19.906744 28141 net.cpp:157] Top shape: 50 832 7 7 (2038400)
I1028 13:22:19.906749 28141 net.cpp:165] Memory required for data: 2659255016
I1028 13:22:19.906752 28141 layer_factory.hpp:76] Creating layer pool4/3x3_s2_pool4/3x3_s2_0_split
I1028 13:22:19.906759 28141 net.cpp:106] Creating Layer pool4/3x3_s2_pool4/3x3_s2_0_split
I1028 13:22:19.906762 28141 net.cpp:454] pool4/3x3_s2_pool4/3x3_s2_0_split <- pool4/3x3_s2
I1028 13:22:19.906769 28141 net.cpp:411] pool4/3x3_s2_pool4/3x3_s2_0_split -> pool4/3x3_s2_pool4/3x3_s2_0_split_0
I1028 13:22:19.906776 28141 net.cpp:411] pool4/3x3_s2_pool4/3x3_s2_0_split -> pool4/3x3_s2_pool4/3x3_s2_0_split_1
I1028 13:22:19.906783 28141 net.cpp:411] pool4/3x3_s2_pool4/3x3_s2_0_split -> pool4/3x3_s2_pool4/3x3_s2_0_split_2
I1028 13:22:19.906790 28141 net.cpp:411] pool4/3x3_s2_pool4/3x3_s2_0_split -> pool4/3x3_s2_pool4/3x3_s2_0_split_3
I1028 13:22:19.906853 28141 net.cpp:150] Setting up pool4/3x3_s2_pool4/3x3_s2_0_split
I1028 13:22:19.906862 28141 net.cpp:157] Top shape: 50 832 7 7 (2038400)
I1028 13:22:19.906874 28141 net.cpp:157] Top shape: 50 832 7 7 (2038400)
I1028 13:22:19.906879 28141 net.cpp:157] Top shape: 50 832 7 7 (2038400)
I1028 13:22:19.906884 28141 net.cpp:157] Top shape: 50 832 7 7 (2038400)
I1028 13:22:19.906888 28141 net.cpp:165] Memory required for data: 2691869416
I1028 13:22:19.906891 28141 layer_factory.hpp:76] Creating layer inception_5a/1x1
I1028 13:22:19.906900 28141 net.cpp:106] Creating Layer inception_5a/1x1
I1028 13:22:19.906904 28141 net.cpp:454] inception_5a/1x1 <- pool4/3x3_s2_pool4/3x3_s2_0_split_0
I1028 13:22:19.906911 28141 net.cpp:411] inception_5a/1x1 -> inception_5a/1x1
I1028 13:22:19.909994 28141 cudnn_conv_layer.cpp:194] Reallocating workspace storage: 7428
I1028 13:22:19.910043 28141 net.cpp:150] Setting up inception_5a/1x1
I1028 13:22:19.910055 28141 net.cpp:157] Top shape: 50 256 7 7 (627200)
I1028 13:22:19.910059 28141 net.cpp:165] Memory required for data: 2694378216
I1028 13:22:19.910068 28141 layer_factory.hpp:76] Creating layer inception_5a/prelu_1x1
I1028 13:22:19.910078 28141 net.cpp:106] Creating Layer inception_5a/prelu_1x1
I1028 13:22:19.910084 28141 net.cpp:454] inception_5a/prelu_1x1 <- inception_5a/1x1
I1028 13:22:19.910089 28141 net.cpp:397] inception_5a/prelu_1x1 -> inception_5a/1x1 (in-place)
I1028 13:22:19.910194 28141 net.cpp:150] Setting up inception_5a/prelu_1x1
I1028 13:22:19.910215 28141 net.cpp:157] Top shape: 50 256 7 7 (627200)
I1028 13:22:19.910220 28141 net.cpp:165] Memory required for data: 2696887016
I1028 13:22:19.910226 28141 layer_factory.hpp:76] Creating layer inception_5a/3x3_reduce
I1028 13:22:19.910240 28141 net.cpp:106] Creating Layer inception_5a/3x3_reduce
I1028 13:22:19.910245 28141 net.cpp:454] inception_5a/3x3_reduce <- pool4/3x3_s2_pool4/3x3_s2_0_split_1
I1028 13:22:19.910253 28141 net.cpp:411] inception_5a/3x3_reduce -> inception_5a/3x3_reduce
I1028 13:22:19.912781 28141 cudnn_conv_layer.cpp:194] Reallocating workspace storage: 7428
I1028 13:22:19.912834 28141 net.cpp:150] Setting up inception_5a/3x3_reduce
I1028 13:22:19.912848 28141 net.cpp:157] Top shape: 50 160 7 7 (392000)
I1028 13:22:19.912853 28141 net.cpp:165] Memory required for data: 2698455016
I1028 13:22:19.912863 28141 layer_factory.hpp:76] Creating layer inception_5a/prelu_3x3_reduce
I1028 13:22:19.912875 28141 net.cpp:106] Creating Layer inception_5a/prelu_3x3_reduce
I1028 13:22:19.912883 28141 net.cpp:454] inception_5a/prelu_3x3_reduce <- inception_5a/3x3_reduce
I1028 13:22:19.912891 28141 net.cpp:397] inception_5a/prelu_3x3_reduce -> inception_5a/3x3_reduce (in-place)
I1028 13:22:19.912989 28141 net.cpp:150] Setting up inception_5a/prelu_3x3_reduce
I1028 13:22:19.912998 28141 net.cpp:157] Top shape: 50 160 7 7 (392000)
I1028 13:22:19.913002 28141 net.cpp:165] Memory required for data: 2700023016
I1028 13:22:19.913007 28141 layer_factory.hpp:76] Creating layer inception_5a/3x3
I1028 13:22:19.913019 28141 net.cpp:106] Creating Layer inception_5a/3x3
I1028 13:22:19.913027 28141 net.cpp:454] inception_5a/3x3 <- inception_5a/3x3_reduce
I1028 13:22:19.913033 28141 net.cpp:411] inception_5a/3x3 -> inception_5a/3x3
I1028 13:22:19.917736 28141 cudnn_conv_layer.cpp:194] Reallocating workspace storage: 7788
I1028 13:22:19.917793 28141 net.cpp:150] Setting up inception_5a/3x3
I1028 13:22:19.917804 28141 net.cpp:157] Top shape: 50 320 7 7 (784000)
I1028 13:22:19.917809 28141 net.cpp:165] Memory required for data: 2703159016
I1028 13:22:19.917819 28141 layer_factory.hpp:76] Creating layer inception_5a/prelu_3x3
I1028 13:22:19.917832 28141 net.cpp:106] Creating Layer inception_5a/prelu_3x3
I1028 13:22:19.917841 28141 net.cpp:454] inception_5a/prelu_3x3 <- inception_5a/3x3
I1028 13:22:19.917850 28141 net.cpp:397] inception_5a/prelu_3x3 -> inception_5a/3x3 (in-place)
I1028 13:22:19.917981 28141 net.cpp:150] Setting up inception_5a/prelu_3x3
I1028 13:22:19.917991 28141 net.cpp:157] Top shape: 50 320 7 7 (784000)
I1028 13:22:19.918005 28141 net.cpp:165] Memory required for data: 2706295016
I1028 13:22:19.918011 28141 layer_factory.hpp:76] Creating layer inception_5a/5x5_reduce
I1028 13:22:19.918037 28141 net.cpp:106] Creating Layer inception_5a/5x5_reduce
I1028 13:22:19.918043 28141 net.cpp:454] inception_5a/5x5_reduce <- pool4/3x3_s2_pool4/3x3_s2_0_split_2
I1028 13:22:19.918051 28141 net.cpp:411] inception_5a/5x5_reduce -> inception_5a/5x5_reduce
I1028 13:22:19.919494 28141 cudnn_conv_layer.cpp:194] Reallocating workspace storage: 7428
I1028 13:22:19.919536 28141 net.cpp:150] Setting up inception_5a/5x5_reduce
I1028 13:22:19.919558 28141 net.cpp:157] Top shape: 50 32 7 7 (78400)
I1028 13:22:19.919562 28141 net.cpp:165] Memory required for data: 2706608616
I1028 13:22:19.919570 28141 layer_factory.hpp:76] Creating layer inception_5a/prelu_5x5_reduce
I1028 13:22:19.919579 28141 net.cpp:106] Creating Layer inception_5a/prelu_5x5_reduce
I1028 13:22:19.919584 28141 net.cpp:454] inception_5a/prelu_5x5_reduce <- inception_5a/5x5_reduce
I1028 13:22:19.919591 28141 net.cpp:397] inception_5a/prelu_5x5_reduce -> inception_5a/5x5_reduce (in-place)
I1028 13:22:19.919704 28141 net.cpp:150] Setting up inception_5a/prelu_5x5_reduce
I1028 13:22:19.919714 28141 net.cpp:157] Top shape: 50 32 7 7 (78400)
I1028 13:22:19.919718 28141 net.cpp:165] Memory required for data: 2706922216
I1028 13:22:19.919723 28141 layer_factory.hpp:76] Creating layer inception_5a/5x5
I1028 13:22:19.919734 28141 net.cpp:106] Creating Layer inception_5a/5x5
I1028 13:22:19.919778 28141 net.cpp:454] inception_5a/5x5 <- inception_5a/5x5_reduce
I1028 13:22:19.919788 28141 net.cpp:411] inception_5a/5x5 -> inception_5a/5x5
I1028 13:22:19.921335 28141 cudnn_conv_layer.cpp:194] Reallocating workspace storage: 9804
I1028 13:22:19.921372 28141 net.cpp:150] Setting up inception_5a/5x5
I1028 13:22:19.921386 28141 net.cpp:157] Top shape: 50 128 7 7 (313600)
I1028 13:22:19.921389 28141 net.cpp:165] Memory required for data: 2708176616
I1028 13:22:19.921397 28141 layer_factory.hpp:76] Creating layer inception_5a/prelu_5x5
I1028 13:22:19.921406 28141 net.cpp:106] Creating Layer inception_5a/prelu_5x5
I1028 13:22:19.921411 28141 net.cpp:454] inception_5a/prelu_5x5 <- inception_5a/5x5
I1028 13:22:19.921418 28141 net.cpp:397] inception_5a/prelu_5x5 -> inception_5a/5x5 (in-place)
I1028 13:22:19.921531 28141 net.cpp:150] Setting up inception_5a/prelu_5x5
I1028 13:22:19.921542 28141 net.cpp:157] Top shape: 50 128 7 7 (313600)
I1028 13:22:19.921546 28141 net.cpp:165] Memory required for data: 2709431016
I1028 13:22:19.921551 28141 layer_factory.hpp:76] Creating layer inception_5a/pool
I1028 13:22:19.921560 28141 net.cpp:106] Creating Layer inception_5a/pool
I1028 13:22:19.921563 28141 net.cpp:454] inception_5a/pool <- pool4/3x3_s2_pool4/3x3_s2_0_split_3
I1028 13:22:19.921569 28141 net.cpp:411] inception_5a/pool -> inception_5a/pool
I1028 13:22:19.921985 28141 net.cpp:150] Setting up inception_5a/pool
I1028 13:22:19.921999 28141 net.cpp:157] Top shape: 50 832 7 7 (2038400)
I1028 13:22:19.922004 28141 net.cpp:165] Memory required for data: 2717584616
I1028 13:22:19.922008 28141 layer_factory.hpp:76] Creating layer inception_5a/pool_proj
I1028 13:22:19.922024 28141 net.cpp:106] Creating Layer inception_5a/pool_proj
I1028 13:22:19.922042 28141 net.cpp:454] inception_5a/pool_proj <- inception_5a/pool
I1028 13:22:19.922065 28141 net.cpp:411] inception_5a/pool_proj -> inception_5a/pool_proj
I1028 13:22:19.924345 28141 cudnn_conv_layer.cpp:194] Reallocating workspace storage: 7428
I1028 13:22:19.924386 28141 net.cpp:150] Setting up inception_5a/pool_proj
I1028 13:22:19.924393 28141 net.cpp:157] Top shape: 50 128 7 7 (313600)
I1028 13:22:19.924398 28141 net.cpp:165] Memory required for data: 2718839016
I1028 13:22:19.924407 28141 layer_factory.hpp:76] Creating layer inception_5a/prelu_pool_proj
I1028 13:22:19.924415 28141 net.cpp:106] Creating Layer inception_5a/prelu_pool_proj
I1028 13:22:19.924425 28141 net.cpp:454] inception_5a/prelu_pool_proj <- inception_5a/pool_proj
I1028 13:22:19.924432 28141 net.cpp:397] inception_5a/prelu_pool_proj -> inception_5a/pool_proj (in-place)
I1028 13:22:19.924536 28141 net.cpp:150] Setting up inception_5a/prelu_pool_proj
I1028 13:22:19.924546 28141 net.cpp:157] Top shape: 50 128 7 7 (313600)
I1028 13:22:19.924549 28141 net.cpp:165] Memory required for data: 2720093416
I1028 13:22:19.924554 28141 layer_factory.hpp:76] Creating layer inception_5a/output
I1028 13:22:19.924561 28141 net.cpp:106] Creating Layer inception_5a/output
I1028 13:22:19.924566 28141 net.cpp:454] inception_5a/output <- inception_5a/1x1
I1028 13:22:19.924571 28141 net.cpp:454] inception_5a/output <- inception_5a/3x3
I1028 13:22:19.924576 28141 net.cpp:454] inception_5a/output <- inception_5a/5x5
I1028 13:22:19.924581 28141 net.cpp:454] inception_5a/output <- inception_5a/pool_proj
I1028 13:22:19.924587 28141 net.cpp:411] inception_5a/output -> inception_5a/output
I1028 13:22:19.924610 28141 net.cpp:150] Setting up inception_5a/output
I1028 13:22:19.924618 28141 net.cpp:157] Top shape: 50 832 7 7 (2038400)
I1028 13:22:19.924623 28141 net.cpp:165] Memory required for data: 2728247016
I1028 13:22:19.924626 28141 layer_factory.hpp:76] Creating layer inception_5a/output_inception_5a/output_0_split
I1028 13:22:19.924635 28141 net.cpp:106] Creating Layer inception_5a/output_inception_5a/output_0_split
I1028 13:22:19.924639 28141 net.cpp:454] inception_5a/output_inception_5a/output_0_split <- inception_5a/output
I1028 13:22:19.924645 28141 net.cpp:411] inception_5a/output_inception_5a/output_0_split -> inception_5a/output_inception_5a/output_0_split_0
I1028 13:22:19.924667 28141 net.cpp:411] inception_5a/output_inception_5a/output_0_split -> inception_5a/output_inception_5a/output_0_split_1
I1028 13:22:19.924675 28141 net.cpp:411] inception_5a/output_inception_5a/output_0_split -> inception_5a/output_inception_5a/output_0_split_2
I1028 13:22:19.924684 28141 net.cpp:411] inception_5a/output_inception_5a/output_0_split -> inception_5a/output_inception_5a/output_0_split_3
I1028 13:22:19.924737 28141 net.cpp:150] Setting up inception_5a/output_inception_5a/output_0_split
I1028 13:22:19.924746 28141 net.cpp:157] Top shape: 50 832 7 7 (2038400)
I1028 13:22:19.924751 28141 net.cpp:157] Top shape: 50 832 7 7 (2038400)
I1028 13:22:19.924756 28141 net.cpp:157] Top shape: 50 832 7 7 (2038400)
I1028 13:22:19.924759 28141 net.cpp:157] Top shape: 50 832 7 7 (2038400)
I1028 13:22:19.924763 28141 net.cpp:165] Memory required for data: 2760861416
I1028 13:22:19.924767 28141 layer_factory.hpp:76] Creating layer inception_5b/1x1
I1028 13:22:19.924774 28141 net.cpp:106] Creating Layer inception_5b/1x1
I1028 13:22:19.924778 28141 net.cpp:454] inception_5b/1x1 <- inception_5a/output_inception_5a/output_0_split_0
I1028 13:22:19.924787 28141 net.cpp:411] inception_5b/1x1 -> inception_5b/1x1
I1028 13:22:19.928288 28141 cudnn_conv_layer.cpp:194] Reallocating workspace storage: 7428
I1028 13:22:19.928342 28141 net.cpp:150] Setting up inception_5b/1x1
I1028 13:22:19.928352 28141 net.cpp:157] Top shape: 50 384 7 7 (940800)
I1028 13:22:19.928364 28141 net.cpp:165] Memory required for data: 2764624616
I1028 13:22:19.928371 28141 layer_factory.hpp:76] Creating layer inception_5b/prelu_1x1
I1028 13:22:19.928380 28141 net.cpp:106] Creating Layer inception_5b/prelu_1x1
I1028 13:22:19.928385 28141 net.cpp:454] inception_5b/prelu_1x1 <- inception_5b/1x1
I1028 13:22:19.928393 28141 net.cpp:397] inception_5b/prelu_1x1 -> inception_5b/1x1 (in-place)
I1028 13:22:19.928498 28141 net.cpp:150] Setting up inception_5b/prelu_1x1
I1028 13:22:19.928508 28141 net.cpp:157] Top shape: 50 384 7 7 (940800)
I1028 13:22:19.928511 28141 net.cpp:165] Memory required for data: 2768387816
I1028 13:22:19.928516 28141 layer_factory.hpp:76] Creating layer inception_5b/3x3_reduce
I1028 13:22:19.928525 28141 net.cpp:106] Creating Layer inception_5b/3x3_reduce
I1028 13:22:19.928532 28141 net.cpp:454] inception_5b/3x3_reduce <- inception_5a/output_inception_5a/output_0_split_1
I1028 13:22:19.928540 28141 net.cpp:411] inception_5b/3x3_reduce -> inception_5b/3x3_reduce
I1028 13:22:19.930925 28141 cudnn_conv_layer.cpp:194] Reallocating workspace storage: 7428
I1028 13:22:19.930963 28141 net.cpp:150] Setting up inception_5b/3x3_reduce
I1028 13:22:19.930979 28141 net.cpp:157] Top shape: 50 192 7 7 (470400)
I1028 13:22:19.930982 28141 net.cpp:165] Memory required for data: 2770269416
I1028 13:22:19.930990 28141 layer_factory.hpp:76] Creating layer inception_5b/prelu_3x3_reduce
I1028 13:22:19.930997 28141 net.cpp:106] Creating Layer inception_5b/prelu_3x3_reduce
I1028 13:22:19.931002 28141 net.cpp:454] inception_5b/prelu_3x3_reduce <- inception_5b/3x3_reduce
I1028 13:22:19.931018 28141 net.cpp:397] inception_5b/prelu_3x3_reduce -> inception_5b/3x3_reduce (in-place)
I1028 13:22:19.931123 28141 net.cpp:150] Setting up inception_5b/prelu_3x3_reduce
I1028 13:22:19.931135 28141 net.cpp:157] Top shape: 50 192 7 7 (470400)
I1028 13:22:19.931139 28141 net.cpp:165] Memory required for data: 2772151016
I1028 13:22:19.931144 28141 layer_factory.hpp:76] Creating layer inception_5b/3x3
I1028 13:22:19.931152 28141 net.cpp:106] Creating Layer inception_5b/3x3
I1028 13:22:19.931156 28141 net.cpp:454] inception_5b/3x3 <- inception_5b/3x3_reduce
I1028 13:22:19.931172 28141 net.cpp:411] inception_5b/3x3 -> inception_5b/3x3
I1028 13:22:19.936844 28141 cudnn_conv_layer.cpp:194] Reallocating workspace storage: 7788
I1028 13:22:19.936905 28141 net.cpp:150] Setting up inception_5b/3x3
I1028 13:22:19.936923 28141 net.cpp:157] Top shape: 50 384 7 7 (940800)
I1028 13:22:19.936936 28141 net.cpp:165] Memory required for data: 2775914216
I1028 13:22:19.936978 28141 layer_factory.hpp:76] Creating layer inception_5b/prelu_3x3
I1028 13:22:19.936988 28141 net.cpp:106] Creating Layer inception_5b/prelu_3x3
I1028 13:22:19.937001 28141 net.cpp:454] inception_5b/prelu_3x3 <- inception_5b/3x3
I1028 13:22:19.937018 28141 net.cpp:397] inception_5b/prelu_3x3 -> inception_5b/3x3 (in-place)
I1028 13:22:19.937141 28141 net.cpp:150] Setting up inception_5b/prelu_3x3
I1028 13:22:19.937150 28141 net.cpp:157] Top shape: 50 384 7 7 (940800)
I1028 13:22:19.937155 28141 net.cpp:165] Memory required for data: 2779677416
I1028 13:22:19.937167 28141 layer_factory.hpp:76] Creating layer inception_5b/5x5_reduce
I1028 13:22:19.937186 28141 net.cpp:106] Creating Layer inception_5b/5x5_reduce
I1028 13:22:19.937191 28141 net.cpp:454] inception_5b/5x5_reduce <- inception_5a/output_inception_5a/output_0_split_2
I1028 13:22:19.937198 28141 net.cpp:411] inception_5b/5x5_reduce -> inception_5b/5x5_reduce
I1028 13:22:19.938815 28141 cudnn_conv_layer.cpp:194] Reallocating workspace storage: 7428
I1028 13:22:19.938850 28141 net.cpp:150] Setting up inception_5b/5x5_reduce
I1028 13:22:19.938859 28141 net.cpp:157] Top shape: 50 48 7 7 (117600)
I1028 13:22:19.938863 28141 net.cpp:165] Memory required for data: 2780147816
I1028 13:22:19.938870 28141 layer_factory.hpp:76] Creating layer inception_5b/prelu_5x5_reduce
I1028 13:22:19.938879 28141 net.cpp:106] Creating Layer inception_5b/prelu_5x5_reduce
I1028 13:22:19.938884 28141 net.cpp:454] inception_5b/prelu_5x5_reduce <- inception_5b/5x5_reduce
I1028 13:22:19.938890 28141 net.cpp:397] inception_5b/prelu_5x5_reduce -> inception_5b/5x5_reduce (in-place)
I1028 13:22:19.939015 28141 net.cpp:150] Setting up inception_5b/prelu_5x5_reduce
I1028 13:22:19.939024 28141 net.cpp:157] Top shape: 50 48 7 7 (117600)
I1028 13:22:19.939028 28141 net.cpp:165] Memory required for data: 2780618216
I1028 13:22:19.939034 28141 layer_factory.hpp:76] Creating layer inception_5b/5x5
I1028 13:22:19.939043 28141 net.cpp:106] Creating Layer inception_5b/5x5
I1028 13:22:19.939048 28141 net.cpp:454] inception_5b/5x5 <- inception_5b/5x5_reduce
I1028 13:22:19.939055 28141 net.cpp:411] inception_5b/5x5 -> inception_5b/5x5
I1028 13:22:19.941052 28141 cudnn_conv_layer.cpp:194] Reallocating workspace storage: 9804
I1028 13:22:19.941088 28141 net.cpp:150] Setting up inception_5b/5x5
I1028 13:22:19.941105 28141 net.cpp:157] Top shape: 50 128 7 7 (313600)
I1028 13:22:19.941109 28141 net.cpp:165] Memory required for data: 2781872616
I1028 13:22:19.941118 28141 layer_factory.hpp:76] Creating layer inception_5b/prelu_5x5
I1028 13:22:19.941125 28141 net.cpp:106] Creating Layer inception_5b/prelu_5x5
I1028 13:22:19.941130 28141 net.cpp:454] inception_5b/prelu_5x5 <- inception_5b/5x5
I1028 13:22:19.941136 28141 net.cpp:397] inception_5b/prelu_5x5 -> inception_5b/5x5 (in-place)
I1028 13:22:19.941241 28141 net.cpp:150] Setting up inception_5b/prelu_5x5
I1028 13:22:19.941249 28141 net.cpp:157] Top shape: 50 128 7 7 (313600)
I1028 13:22:19.941253 28141 net.cpp:165] Memory required for data: 2783127016
I1028 13:22:19.941259 28141 layer_factory.hpp:76] Creating layer inception_5b/pool
I1028 13:22:19.941274 28141 net.cpp:106] Creating Layer inception_5b/pool
I1028 13:22:19.941280 28141 net.cpp:454] inception_5b/pool <- inception_5a/output_inception_5a/output_0_split_3
I1028 13:22:19.941287 28141 net.cpp:411] inception_5b/pool -> inception_5b/pool
I1028 13:22:19.941498 28141 net.cpp:150] Setting up inception_5b/pool
I1028 13:22:19.941507 28141 net.cpp:157] Top shape: 50 832 7 7 (2038400)
I1028 13:22:19.941511 28141 net.cpp:165] Memory required for data: 2791280616
I1028 13:22:19.941515 28141 layer_factory.hpp:76] Creating layer inception_5b/pool_proj
I1028 13:22:19.941529 28141 net.cpp:106] Creating Layer inception_5b/pool_proj
I1028 13:22:19.941541 28141 net.cpp:454] inception_5b/pool_proj <- inception_5b/pool
I1028 13:22:19.941548 28141 net.cpp:411] inception_5b/pool_proj -> inception_5b/pool_proj
I1028 13:22:19.943989 28141 cudnn_conv_layer.cpp:194] Reallocating workspace storage: 7428
I1028 13:22:19.944059 28141 net.cpp:150] Setting up inception_5b/pool_proj
I1028 13:22:19.944079 28141 net.cpp:157] Top shape: 50 128 7 7 (313600)
I1028 13:22:19.944084 28141 net.cpp:165] Memory required for data: 2792535016
I1028 13:22:19.944094 28141 layer_factory.hpp:76] Creating layer inception_5b/prelu_pool_proj
I1028 13:22:19.944105 28141 net.cpp:106] Creating Layer inception_5b/prelu_pool_proj
I1028 13:22:19.944111 28141 net.cpp:454] inception_5b/prelu_pool_proj <- inception_5b/pool_proj
I1028 13:22:19.944120 28141 net.cpp:397] inception_5b/prelu_pool_proj -> inception_5b/pool_proj (in-place)
I1028 13:22:19.944228 28141 net.cpp:150] Setting up inception_5b/prelu_pool_proj
I1028 13:22:19.944238 28141 net.cpp:157] Top shape: 50 128 7 7 (313600)
I1028 13:22:19.944242 28141 net.cpp:165] Memory required for data: 2793789416
I1028 13:22:19.944248 28141 layer_factory.hpp:76] Creating layer inception_5b/output
I1028 13:22:19.944254 28141 net.cpp:106] Creating Layer inception_5b/output
I1028 13:22:19.944259 28141 net.cpp:454] inception_5b/output <- inception_5b/1x1
I1028 13:22:19.944264 28141 net.cpp:454] inception_5b/output <- inception_5b/3x3
I1028 13:22:19.944269 28141 net.cpp:454] inception_5b/output <- inception_5b/5x5
I1028 13:22:19.944284 28141 net.cpp:454] inception_5b/output <- inception_5b/pool_proj
I1028 13:22:19.944290 28141 net.cpp:411] inception_5b/output -> inception_5b/output
I1028 13:22:19.944329 28141 net.cpp:150] Setting up inception_5b/output
I1028 13:22:19.944339 28141 net.cpp:157] Top shape: 50 1024 7 7 (2508800)
I1028 13:22:19.944342 28141 net.cpp:165] Memory required for data: 2803824616
I1028 13:22:19.944346 28141 layer_factory.hpp:76] Creating layer pool5/7x7_s1
I1028 13:22:19.944355 28141 net.cpp:106] Creating Layer pool5/7x7_s1
I1028 13:22:19.944360 28141 net.cpp:454] pool5/7x7_s1 <- inception_5b/output
I1028 13:22:19.944377 28141 net.cpp:411] pool5/7x7_s1 -> pool5/7x7_s1
I1028 13:22:19.944798 28141 net.cpp:150] Setting up pool5/7x7_s1
I1028 13:22:19.944810 28141 net.cpp:157] Top shape: 50 1024 1 1 (51200)
I1028 13:22:19.944814 28141 net.cpp:165] Memory required for data: 2804029416
I1028 13:22:19.944818 28141 layer_factory.hpp:76] Creating layer pool5/drop_7x7_s1
I1028 13:22:19.944828 28141 net.cpp:106] Creating Layer pool5/drop_7x7_s1
I1028 13:22:19.944833 28141 net.cpp:454] pool5/drop_7x7_s1 <- pool5/7x7_s1
I1028 13:22:19.944849 28141 net.cpp:397] pool5/drop_7x7_s1 -> pool5/7x7_s1 (in-place)
I1028 13:22:19.944887 28141 net.cpp:150] Setting up pool5/drop_7x7_s1
I1028 13:22:19.944895 28141 net.cpp:157] Top shape: 50 1024 1 1 (51200)
I1028 13:22:19.944900 28141 net.cpp:165] Memory required for data: 2804234216
I1028 13:22:19.944903 28141 layer_factory.hpp:76] Creating layer loss3/classifier2
I1028 13:22:19.944911 28141 net.cpp:106] Creating Layer loss3/classifier2
I1028 13:22:19.944916 28141 net.cpp:454] loss3/classifier2 <- pool5/7x7_s1
I1028 13:22:19.944933 28141 net.cpp:411] loss3/classifier2 -> loss3/classifier
I1028 13:22:19.945097 28141 net.cpp:150] Setting up loss3/classifier2
I1028 13:22:19.945107 28141 net.cpp:157] Top shape: 50 2 (100)
I1028 13:22:19.945111 28141 net.cpp:165] Memory required for data: 2804234616
I1028 13:22:19.945117 28141 layer_factory.hpp:76] Creating layer loss3/classifier_loss3/classifier2_0_split
I1028 13:22:19.945124 28141 net.cpp:106] Creating Layer loss3/classifier_loss3/classifier2_0_split
I1028 13:22:19.945128 28141 net.cpp:454] loss3/classifier_loss3/classifier2_0_split <- loss3/classifier
I1028 13:22:19.945147 28141 net.cpp:411] loss3/classifier_loss3/classifier2_0_split -> loss3/classifier_loss3/classifier2_0_split_0
I1028 13:22:19.945154 28141 net.cpp:411] loss3/classifier_loss3/classifier2_0_split -> loss3/classifier_loss3/classifier2_0_split_1
I1028 13:22:19.945204 28141 net.cpp:150] Setting up loss3/classifier_loss3/classifier2_0_split
I1028 13:22:19.945214 28141 net.cpp:157] Top shape: 50 2 (100)
I1028 13:22:19.945219 28141 net.cpp:157] Top shape: 50 2 (100)
I1028 13:22:19.945232 28141 net.cpp:165] Memory required for data: 2804235416
I1028 13:22:19.945237 28141 layer_factory.hpp:76] Creating layer loss3/loss3
I1028 13:22:19.945255 28141 net.cpp:106] Creating Layer loss3/loss3
I1028 13:22:19.945260 28141 net.cpp:454] loss3/loss3 <- loss3/classifier_loss3/classifier2_0_split_0
I1028 13:22:19.945264 28141 net.cpp:454] loss3/loss3 <- label_data_1_split_4
…
